…
I0526 15:44:49.200182 30701 net.cpp:51] Initializing net from parameters: 
name: "Pre-ResNet-50"
state {
  phase: TRAIN
  level: 0
  stage: ""
}
layer {
  name: "data"
  type: "Data"
  top: "data"
  top: "label"
  include {
    phase: TRAIN
  }
  transform_param {
    mirror: true
    crop_size: 224
    mean_file: "/home/k/PycharmProjects/AgeGenderDeepLearning-master/Folds/lmdb/Test_fold_is_0/mean.binaryproto"
  }
  data_param {
    source: "/home/k/PycharmProjects/AgeGenderDeepLearning-master/Folds/lmdb/Test_fold_is_0/age_train_lmdb"
    batch_size: 20
    backend: LMDB
  }
}
layer {
  name: "data_bn"
  type: "BatchNorm"
  bottom: "data"
  top: "data_bn"
  param {
    lr_mult: 0
    decay_mult: 0
  }
  param {
    lr_mult: 0
    decay_mult: 0
  }
  param {
    lr_mult: 0
    decay_mult: 0
  }
}
layer {
  name: "data_scale"
  type: "Scale"
  bottom: "data_bn"
  top: "data_bn"
  param {
    lr_mult: 1
    decay_mult: 1
  }
  param {
    lr_mult: 2
    decay_mult: 1
  }
  scale_param {
    bias_term: true
  }
}
layer {
  name: "conv1"
  type: "Convolution"
  bottom: "data_bn"
  top: "conv1"
  param {
    lr_mult: 1
    decay_mult: 1
  }
  param {
    lr_mult: 2
    decay_mult: 1
  }
  convolution_param {
    num_output: 64
    pad: 3
    kernel_size: 7
    stride: 2
    weight_filler {
      type: "msra"
      variance_norm: FAN_OUT
    }
    bias_filler {
      type: "constant"
      value: 0
    }
  }
}
layer {
  name: "conv1_bn"
  type: "BatchNorm"
  bottom: "conv1"
  top: "conv1"
  param {
    lr_mult: 0
    decay_mult: 0
  }
  param {
    lr_mult: 0
    decay_mult: 0
  }
  param {
    lr_mult: 0
    decay_mult: 0
  }
}
layer {
  name: "conv1_scale"
  type: "Scale"
  bottom: "conv1"
  top: "conv1"
  param {
    lr_mult: 1
    decay_mult: 1
  }
  param {
    lr_mult: 2
    decay_mult: 1
  }
  scale_param {
    bias_term: true
  }
}
layer {
  name: "conv1_relu"
  type: "ReLU"
  bottom: "conv1"
  top: "conv1"
}
layer {
  name: "conv1_pool"
  type: "Pooling"
  bottom: "conv1"
  top: "conv1_pool"
  pooling_param {
    kernel_size: 3
    stride: 2
  }
}
layer {
  name: "layer_64_1_conv1"
  type: "Convolution"
  bottom: "conv1_pool"
  top: "layer_64_1_conv1"
  param {
    lr_mult: 1
    decay_mult: 1
  }
  convolution_param {
    num_output: 64
    bias_term: false
    pad: 0
    kernel_size: 1
    stride: 1
    weight_filler {
      type: "msra"
    }
    bias_filler {
      type: "constant"
      value: 0
    }
  }
}
layer {
  name: "layer_64_1_bn2"
  type: "BatchNorm"
  bottom: "layer_64_1_conv1"
  top: "layer_64_1_conv1"
  param {
    lr_mult: 0
    decay_mult: 0
  }
  param {
    lr_mult: 0
    decay_mult: 0
  }
  param {
    lr_mult: 0
    decay_mult: 0
  }
}
layer {
  name: "layer_64_1_scale2"
  type: "Scale"
  bottom: "layer_64_1_conv1"
  top: "layer_64_1_conv1"
  param {
    lr_mult: 1
    decay_mult: 1
  }
  param {
    lr_mult: 2
    decay_mult: 1
  }
  scale_param {
    bias_term: true
  }
}
layer {
  name: "layer_64_1_relu2"
  type: "ReLU"
  bottom: "layer_64_1_conv1"
  top: "layer_64_1_conv1"
}
layer {
  name: "layer_64_1_conv2"
  type: "Convolution"
  bottom: "layer_64_1_conv1"
  top: "layer_64_1_conv2"
  param {
    lr_mult: 1
    decay_mult: 1
  }
  convolution_param {
    num_output: 64
    bias_term: false
    pad: 1
    kernel_size: 3
    stride: 1
    weight_filler {
      type: "msra"
    }
    bias_filler {
      type: "constant"
      value: 0
    }
  }
}
layer {
  name: "layer_64_1_bn3"
  type: "BatchNorm"
  bottom: "layer_64_1_conv2"
  top: "layer_64_1_conv2"
  param {
    lr_mult: 0
    decay_mult: 0
  }
  param {
    lr_mult: 0
    decay_mult: 0
  }
  param {
    lr_mult: 0
    decay_mult: 0
  }
}
layer {
  name: "layer_64_1_scale3"
  type: "Scale"
  bottom: "layer_64_1_conv2"
  top: "layer_64_1_conv2"
  param {
    lr_mult: 1
    decay_mult: 1
  }
  param {
    lr_mult: 2
    decay_mult: 1
  }
  scale_param {
    bias_term: true
  }
}
layer {
  name: "layer_64_1_relu3"
  type: "ReLU"
  bottom: "layer_64_1_conv2"
  top: "layer_64_1_conv2"
}
layer {
  name: "layer_64_1_conv3"
  type: "Convolution"
  bottom: "layer_64_1_conv2"
  top: "layer_64_1_conv3"
  param {
    lr_mult: 1
    decay_mult: 1
  }
  convolution_param {
    num_output: 256
    bias_term: false
    pad: 0
    kernel_size: 1
    stride: 1
    weight_filler {
      type: "msra"
    }
    bias_filler {
      type: "constant"
      value: 0
    }
  }
}
layer {
  name: "layer_64_1_conv_expand"
  type: "Convolution"
  bottom: "layer_64_1_conv1"
  top: "layer_64_1_conv_expand"
  param {
    lr_mult: 1
    decay_mult: 1
  }
  convolution_param {
    num_output: 256
    bias_term: false
    pad: 0
    kernel_size: 1
    stride: 1
    weight_filler {
      type: "msra"
    }
    bias_filler {
      type: "constant"
      value: 0
    }
  }
}
layer {
  name: "layer_64_1_sum"
  type: "Eltwise"
  bottom: "layer_64_1_conv3"
  bottom: "layer_64_1_conv_expand"
  top: "layer_64_1_sum"
}
layer {
  name: "layer_64_2_bn1"
  type: "BatchNorm"
  bottom: "layer_64_1_sum"
  top: "layer_64_2_bn1"
  param {
    lr_mult: 0
    decay_mult: 0
  }
  param {
    lr_mult: 0
    decay_mult: 0
  }
  param {
    lr_mult: 0
    decay_mult: 0
  }
}
layer {
  name: "layer_64_2_scale1"
  type: "Scale"
  bottom: "layer_64_2_bn1"
  top: "layer_64_2_bn1"
  param {
    lr_mult: 1
    decay_mult: 1
  }
  param {
    lr_mult: 2
    decay_mult: 1
  }
  scale_param {
    bias_term: true
  }
}
layer {
  name: "layer_64_2_relu1"
  type: "ReLU"
  bottom: "layer_64_2_bn1"
  top: "layer_64_2_bn1"
}
layer {
  name: "layer_64_2_conv1"
  type: "Convolution"
  bottom: "layer_64_2_bn1"
  top: "layer_64_2_conv1"
  param {
    lr_mult: 1
    decay_mult: 1
  }
  convolution_param {
    num_output: 64
    bias_term: false
    pad: 0
    kernel_size: 1
    stride: 1
    weight_filler {
      type: "msra"
    }
    bias_filler {
      type: "constant"
      value: 0
    }
  }
}
layer {
  name: "layer_64_2_bn2"
  type: "BatchNorm"
  bottom: "layer_64_2_conv1"
  top: "layer_64_2_conv1"
  param {
    lr_mult: 0
    decay_mult: 0
  }
  param {
    lr_mult: 0
    decay_mult: 0
  }
  param {
    lr_mult: 0
    decay_mult: 0
  }
}
layer {
  name: "layer_64_2_scale2"
  type: "Scale"
  bottom: "layer_64_2_conv1"
  top: "layer_64_2_conv1"
  param {
    lr_mult: 1
    decay_mult: 1
  }
  param {
    lr_mult: 2
    decay_mult: 1
  }
  scale_param {
    bias_term: true
  }
}
layer {
  name: "layer_64_2_relu2"
  type: "ReLU"
  bottom: "layer_64_2_conv1"
  top: "layer_64_2_conv1"
}
layer {
  name: "layer_64_2_conv2"
  type: "Convolution"
  bottom: "layer_64_2_conv1"
  top: "layer_64_2_conv2"
  param {
    lr_mult: 1
    decay_mult: 1
  }
  convolution_param {
    num_output: 64
    bias_term: false
    pad: 1
    kernel_size: 3
    stride: 1
    weight_filler {
      type: "msra"
    }
    bias_filler {
      type: "constant"
      value: 0
    }
  }
}
layer {
  name: "layer_64_2_bn3"
  type: "BatchNorm"
  bottom: "layer_64_2_conv2"
  top: "layer_64_2_conv2"
  param {
    lr_mult: 0
    decay_mult: 0
  }
  param {
    lr_mult: 0
    decay_mult: 0
  }
  param {
    lr_mult: 0
    decay_mult: 0
  }
}
layer {
  name: "layer_64_2_scale3"
  type: "Scale"
  bottom: "layer_64_2_conv2"
  top: "layer_64_2_conv2"
  param {
    lr_mult: 1
    decay_mult: 1
  }
  param {
    lr_mult: 2
    decay_mult: 1
  }
  scale_param {
    bias_term: true
  }
}
layer {
  name: "layer_64_2_relu3"
  type: "ReLU"
  bottom: "layer_64_2_conv2"
  top: "layer_64_2_conv2"
}
layer {
  name: "layer_64_2_conv3"
  type: "Convolution"
  bottom: "layer_64_2_conv2"
  top: "layer_64_2_conv3"
  param {
    lr_mult: 1
    decay_mult: 1
  }
  convolution_param {
    num_output: 256
    bias_term: false
    pad: 0
    kernel_size: 1
    stride: 1
    weight_filler {
      type: "msra"
    }
    bias_filler {
      type: "constant"
      value: 0
    }
  }
}
layer {
  name: "layer_64_2_sum"
  type: "Eltwise"
  bottom: "layer_64_2_conv3"
  bottom: "layer_64_1_sum"
  top: "layer_64_2_sum"
}
layer {
  name: "layer_64_3_bn1"
  type: "BatchNorm"
  bottom: "layer_64_2_sum"
  top: "layer_64_3_bn1"
  param {
    lr_mult: 0
    decay_mult: 0
  }
  param {
    lr_mult: 0
    decay_mult: 0
  }
  param {
    lr_mult: 0
    decay_mult: 0
  }
}
layer {
  name: "layer_64_3_scale1"
  type: "Scale"
  bottom: "layer_64_3_bn1"
  top: "layer_64_3_bn1"
  param {
    lr_mult: 1
    decay_mult: 1
  }
  param {
    lr_mult: 2
    decay_mult: 1
  }
  scale_param {
    bias_term: true
  }
}
layer {
  name: "layer_64_3_relu1"
  type: "ReLU"
  bottom: "layer_64_3_bn1"
  top: "layer_64_3_bn1"
}
layer {
  name: "layer_64_3_conv1"
  type: "Convolution"
  bottom: "layer_64_3_bn1"
  top: "layer_64_3_conv1"
  param {
    lr_mult: 1
    decay_mult: 1
  }
  convolution_param {
    num_output: 64
    bias_term: false
    pad: 0
    kernel_size: 1
    stride: 1
    weight_filler {
      type: "msra"
    }
    bias_filler {
      type: "constant"
      value: 0
    }
  }
}
layer {
  name: "layer_64_3_bn2"
  type: "BatchNorm"
  bottom: "layer_64_3_conv1"
  top: "layer_64_3_conv1"
  param {
    lr_mult: 0
    decay_mult: 0
  }
  param {
    lr_mult: 0
    decay_mult: 0
  }
  param {
    lr_mult: 0
    decay_mult: 0
  }
}
layer {
  name: "layer_64_3_scale2"
  type: "Scale"
  bottom: "layer_64_3_conv1"
  top: "layer_64_3_conv1"
  param {
    lr_mult: 1
    decay_mult: 1
  }
  param {
    lr_mult: 2
    decay_mult: 1
  }
  scale_param {
    bias_term: true
  }
}
layer {
  name: "layer_64_3_relu2"
  type: "ReLU"
  bottom: "layer_64_3_conv1"
  top: "layer_64_3_conv1"
}
layer {
  name: "layer_64_3_conv2"
  type: "Convolution"
  bottom: "layer_64_3_conv1"
  top: "layer_64_3_conv2"
  param {
    lr_mult: 1
    decay_mult: 1
  }
  convolution_param {
    num_output: 64
    bias_term: false
    pad: 1
    kernel_size: 3
    stride: 1
    weight_filler {
      type: "msra"
    }
    bias_filler {
      type: "constant"
      value: 0
    }
  }
}
layer {
  name: "layer_64_3_bn3"
  type: "BatchNorm"
  bottom: "layer_64_3_conv2"
  top: "layer_64_3_conv2"
  param {
    lr_mult: 0
    decay_mult: 0
  }
  param {
    lr_mult: 0
    decay_mult: 0
  }
  param {
    lr_mult: 0
    decay_mult: 0
  }
}
layer {
  name: "layer_64_3_scale3"
  type: "Scale"
  bottom: "layer_64_3_conv2"
  top: "layer_64_3_conv2"
  param {
    lr_mult: 1
    decay_mult: 1
  }
  param {
    lr_mult: 2
    decay_mult: 1
  }
  scale_param {
    bias_term: true
  }
}
layer {
  name: "layer_64_3_relu3"
  type: "ReLU"
  bottom: "layer_64_3_conv2"
  top: "layer_64_3_conv2"
}
layer {
  name: "layer_64_3_conv3"
  type: "Convolution"
  bottom: "layer_64_3_conv2"
  top: "layer_64_3_conv3"
  param {
    lr_mult: 1
    decay_mult: 1
  }
  convolution_param {
    num_output: 256
    bias_term: false
    pad: 0
    kernel_size: 1
    stride: 1
    weight_filler {
      type: "msra"
    }
    bias_filler {
      type: "constant"
      value: 0
    }
  }
}
layer {
  name: "layer_64_3_sum"
  type: "Eltwise"
  bottom: "layer_64_3_conv3"
  bottom: "layer_64_2_sum"
  top: "layer_64_3_sum"
}
layer {
  name: "layer_128_1_bn1"
  type: "BatchNorm"
  bottom: "layer_64_3_sum"
  top: "layer_128_1_bn1"
  param {
    lr_mult: 0
    decay_mult: 0
  }
  param {
    lr_mult: 0
    decay_mult: 0
  }
  param {
    lr_mult: 0
    decay_mult: 0
  }
}
layer {
  name: "layer_128_1_scale1"
  type: "Scale"
  bottom: "layer_128_1_bn1"
  top: "layer_128_1_bn1"
  param {
    lr_mult: 1
    decay_mult: 1
  }
  param {
    lr_mult: 2
    decay_mult: 1
  }
  scale_param {
    bias_term: true
  }
}
layer {
  name: "layer_128_1_relu1"
  type: "ReLU"
  bottom: "layer_128_1_bn1"
  top: "layer_128_1_bn1"
}
layer {
  name: "layer_128_1_conv1"
  type: "Convolution"
  bottom: "layer_128_1_bn1"
  top: "layer_128_1_conv1"
  param {
    lr_mult: 1
    decay_mult: 1
  }
  convolution_param {
    num_output: 128
    bias_term: false
    pad: 0
    kernel_size: 1
    stride: 1
    weight_filler {
      type: "msra"
    }
    bias_filler {
      type: "constant"
      value: 0
    }
  }
}
layer {
  name: "layer_128_1_bn2"
  type: "BatchNorm"
  bottom: "layer_128_1_conv1"
  top: "layer_128_1_conv1"
  param {
    lr_mult: 0
    decay_mult: 0
  }
  param {
    lr_mult: 0
    decay_mult: 0
  }
  param {
    lr_mult: 0
    decay_mult: 0
  }
}
layer {
  name: "layer_128_1_scale2"
  type: "Scale"
  bottom: "layer_128_1_conv1"
  top: "layer_128_1_conv1"
  param {
    lr_mult: 1
    decay_mult: 1
  }
  param {
    lr_mult: 2
    decay_mult: 1
  }
  scale_param {
    bias_term: true
  }
}
layer {
  name: "layer_128_1_relu2"
  type: "ReLU"
  bottom: "layer_128_1_conv1"
  top: "layer_128_1_conv1"
}
layer {
  name: "layer_128_1_conv2"
  type: "Convolution"
  bottom: "layer_128_1_conv1"
  top: "layer_128_1_conv2"
  param {
    lr_mult: 1
    decay_mult: 1
  }
  convolution_param {
    num_output: 128
    bias_term: false
    pad: 1
    kernel_size: 3
    stride: 2
    weight_filler {
      type: "msra"
    }
    bias_filler {
      type: "constant"
      value: 0
    }
  }
}
layer {
  name: "layer_128_1_bn3"
  type: "BatchNorm"
  bottom: "layer_128_1_conv2"
  top: "layer_128_1_conv2"
  param {
    lr_mult: 0
    decay_mult: 0
  }
  param {
    lr_mult: 0
    decay_mult: 0
  }
  param {
    lr_mult: 0
    decay_mult: 0
  }
}
layer {
  name: "layer_128_1_scale3"
  type: "Scale"
  bottom: "layer_128_1_conv2"
  top: "layer_128_1_conv2"
  param {
    lr_mult: 1
    decay_mult: 1
  }
  param {
    lr_mult: 2
    decay_mult: 1
  }
  scale_param {
    bias_term: true
  }
}
layer {
  name: "layer_128_1_relu3"
  type: "ReLU"
  bottom: "layer_128_1_conv2"
  top: "layer_128_1_conv2"
}
layer {
  name: "layer_128_1_conv3"
  type: "Convolution"
  bottom: "layer_128_1_conv2"
  top: "layer_128_1_conv3"
  param {
    lr_mult: 1
    decay_mult: 1
  }
  convolution_param {
    num_output: 512
    bias_term: false
    pad: 0
    kernel_size: 1
    stride: 1
    weight_filler {
      type: "msra"
    }
    bias_filler {
      type: "constant"
      value: 0
    }
  }
}
layer {
  name: "layer_128_1_conv_expand"
  type: "Convolution"
  bottom: "layer_128_1_bn1"
  top: "layer_128_1_conv_expand"
  param {
    lr_mult: 1
    decay_mult: 1
  }
  convolution_param {
    num_output: 512
    bias_term: false
    pad: 0
    kernel_size: 1
    stride: 2
    weight_filler {
      type: "msra"
    }
    bias_filler {
      type: "constant"
      value: 0
    }
  }
}
layer {
  name: "layer_128_1_sum"
  type: "Eltwise"
  bottom: "layer_128_1_conv3"
  bottom: "layer_128_1_conv_expand"
  top: "layer_128_1_sum"
}
layer {
  name: "layer_128_2_bn1"
  type: "BatchNorm"
  bottom: "layer_128_1_sum"
  top: "layer_128_2_bn1"
  param {
    lr_mult: 0
    decay_mult: 0
  }
  param {
    lr_mult: 0
    decay_mult: 0
  }
  param {
    lr_mult: 0
    decay_mult: 0
  }
}
layer {
  name: "layer_128_2_scale1"
  type: "Scale"
  bottom: "layer_128_2_bn1"
  top: "layer_128_2_bn1"
  param {
    lr_mult: 1
    decay_mult: 1
  }
  param {
    lr_mult: 2
    decay_mult: 1
  }
  scale_param {
    bias_term: true
  }
}
layer {
  name: "layer_128_2_relu1"
  type: "ReLU"
  bottom: "layer_128_2_bn1"
  top: "layer_128_2_bn1"
}
layer {
  name: "layer_128_2_conv1"
  type: "Convolution"
  bottom: "layer_128_2_bn1"
  top: "layer_128_2_conv1"
  param {
    lr_mult: 1
    decay_mult: 1
  }
  convolution_param {
    num_output: 128
    bias_term: false
    pad: 0
    kernel_size: 1
    stride: 1
    weight_filler {
      type: "msra"
    }
    bias_filler {
      type: "constant"
      value: 0
    }
  }
}
layer {
  name: "layer_128_2_bn2"
  type: "BatchNorm"
  bottom: "layer_128_2_conv1"
  top: "layer_128_2_conv1"
  param {
    lr_mult: 0
    decay_mult: 0
  }
  param {
    lr_mult: 0
    decay_mult: 0
  }
  param {
    lr_mult: 0
    decay_mult: 0
  }
}
layer {
  name: "layer_128_2_scale2"
  type: "Scale"
  bottom: "layer_128_2_conv1"
  top: "layer_128_2_conv1"
  param {
    lr_mult: 1
    decay_mult: 1
  }
  param {
    lr_mult: 2
    decay_mult: 1
  }
  scale_param {
    bias_term: true
  }
}
layer {
  name: "layer_128_2_relu2"
  type: "ReLU"
  bottom: "layer_128_2_conv1"
  top: "layer_128_2_conv1"
}
layer {
  name: "layer_128_2_conv2"
  type: "Convolution"
  bottom: "layer_128_2_conv1"
  top: "layer_128_2_conv2"
  param {
    lr_mult: 1
    decay_mult: 1
  }
  convolution_param {
    num_output: 128
    bias_term: false
    pad: 1
    kernel_size: 3
    stride: 1
    weight_filler {
      type: "msra"
    }
    bias_filler {
      type: "constant"
      value: 0
    }
  }
}
layer {
  name: "layer_128_2_bn3"
  type: "BatchNorm"
  bottom: "layer_128_2_conv2"
  top: "layer_128_2_conv2"
  param {
    lr_mult: 0
    decay_mult: 0
  }
  param {
    lr_mult: 0
    decay_mult: 0
  }
  param {
    lr_mult: 0
    decay_mult: 0
  }
}
layer {
  name: "layer_128_2_scale3"
  type: "Scale"
  bottom: "layer_128_2_conv2"
  top: "layer_128_2_conv2"
  param {
    lr_mult: 1
    decay_mult: 1
  }
  param {
    lr_mult: 2
    decay_mult: 1
  }
  scale_param {
    bias_term: true
  }
}
layer {
  name: "layer_128_2_relu3"
  type: "ReLU"
  bottom: "layer_128_2_conv2"
  top: "layer_128_2_conv2"
}
layer {
  name: "layer_128_2_conv3"
  type: "Convolution"
  bottom: "layer_128_2_conv2"
  top: "layer_128_2_conv3"
  param {
    lr_mult: 1
    decay_mult: 1
  }
  convolution_param {
    num_output: 512
    bias_term: false
    pad: 0
    kernel_size: 1
    stride: 1
    weight_filler {
      type: "msra"
    }
    bias_filler {
      type: "constant"
      value: 0
    }
  }
}
layer {
  name: "layer_128_2_sum"
  type: "Eltwise"
  bottom: "layer_128_2_conv3"
  bottom: "layer_128_1_sum"
  top: "layer_128_2_sum"
}
layer {
  name: "layer_128_3_bn1"
  type: "BatchNorm"
  bottom: "layer_128_2_sum"
  top: "layer_128_3_bn1"
  param {
    lr_mult: 0
    decay_mult: 0
  }
  param {
    lr_mult: 0
    decay_mult: 0
  }
  param {
    lr_mult: 0
    decay_mult: 0
  }
}
layer {
  name: "layer_128_3_scale1"
  type: "Scale"
  bottom: "layer_128_3_bn1"
  top: "layer_128_3_bn1"
  param {
    lr_mult: 1
    decay_mult: 1
  }
  param {
    lr_mult: 2
    decay_mult: 1
  }
  scale_param {
    bias_term: true
  }
}
layer {
  name: "layer_128_3_relu1"
  type: "ReLU"
  bottom: "layer_128_3_bn1"
  top: "layer_128_3_bn1"
}
layer {
  name: "layer_128_3_conv1"
  type: "Convolution"
  bottom: "layer_128_3_bn1"
  top: "layer_128_3_conv1"
  param {
    lr_mult: 1
    decay_mult: 1
  }
  convolution_param {
    num_output: 128
    bias_term: false
    pad: 0
    kernel_size: 1
    stride: 1
    weight_filler {
      type: "msra"
    }
    bias_filler {
      type: "constant"
      value: 0
    }
  }
}
layer {
  name: "layer_128_3_bn2"
  type: "BatchNorm"
  bottom: "layer_128_3_conv1"
  top: "layer_128_3_conv1"
  param {
    lr_mult: 0
    decay_mult: 0
  }
  param {
    lr_mult: 0
    decay_mult: 0
  }
  param {
    lr_mult: 0
    decay_mult: 0
  }
}
layer {
  name: "layer_128_3_scale2"
  type: "Scale"
  bottom: "layer_128_3_conv1"
  top: "layer_128_3_conv1"
  param {
    lr_mult: 1
    decay_mult: 1
  }
  param {
    lr_mult: 2
    decay_mult: 1
  }
  scale_param {
    bias_term: true
  }
}
layer {
  name: "layer_128_3_relu2"
  type: "ReLU"
  bottom: "layer_128_3_conv1"
  top: "layer_128_3_conv1"
}
layer {
  name: "layer_128_3_conv2"
  type: "Convolution"
  bottom: "layer_128_3_conv1"
  top: "layer_128_3_conv2"
  param {
    lr_mult: 1
    decay_mult: 1
  }
  convolution_param {
    num_output: 128
    bias_term: false
    pad: 1
    kernel_size: 3
    stride: 1
    weight_filler {
      type: "msra"
    }
    bias_filler {
      type: "constant"
      value: 0
    }
  }
}
layer {
  name: "layer_128_3_bn3"
  type: "BatchNorm"
  bottom: "layer_128_3_conv2"
  top: "layer_128_3_conv2"
  param {
    lr_mult: 0
    decay_mult: 0
  }
  param {
    lr_mult: 0
    decay_mult: 0
  }
  param {
    lr_mult: 0
    decay_mult: 0
  }
}
layer {
  name: "layer_128_3_scale3"
  type: "Scale"
  bottom: "layer_128_3_conv2"
  top: "layer_128_3_conv2"
  param {
    lr_mult: 1
    decay_mult: 1
  }
  param {
    lr_mult: 2
    decay_mult: 1
  }
  scale_param {
    bias_term: true
  }
}
layer {
  name: "layer_128_3_relu3"
  type: "ReLU"
  bottom: "layer_128_3_conv2"
  top: "layer_128_3_conv2"
}
layer {
  name: "layer_128_3_conv3"
  type: "Convolution"
  bottom: "layer_128_3_conv2"
  top: "layer_128_3_conv3"
  param {
    lr_mult: 1
    decay_mult: 1
  }
  convolution_param {
    num_output: 512
    bias_term: false
    pad: 0
    kernel_size: 1
    stride: 1
    weight_filler {
      type: "msra"
    }
    bias_filler {
      type: "constant"
      value: 0
    }
  }
}
layer {
  name: "layer_128_3_sum"
  type: "Eltwise"
  bottom: "layer_128_3_conv3"
  bottom: "layer_128_2_sum"
  top: "layer_128_3_sum"
}
layer {
  name: "layer_128_4_bn1"
  type: "BatchNorm"
  bottom: "layer_128_3_sum"
  top: "layer_128_4_bn1"
  param {
    lr_mult: 0
    decay_mult: 0
  }
  param {
    lr_mult: 0
    decay_mult: 0
  }
  param {
    lr_mult: 0
    decay_mult: 0
  }
}
layer {
  name: "layer_128_4_scale1"
  type: "Scale"
  bottom: "layer_128_4_bn1"
  top: "layer_128_4_bn1"
  param {
    lr_mult: 1
    decay_mult: 1
  }
  param {
    lr_mult: 2
    decay_mult: 1
  }
  scale_param {
    bias_term: true
  }
}
layer {
  name: "layer_128_4_relu1"
  type: "ReLU"
  bottom: "layer_128_4_bn1"
  top: "layer_128_4_bn1"
}
layer {
  name: "layer_128_4_conv1"
  type: "Convolution"
  bottom: "layer_128_4_bn1"
  top: "layer_128_4_conv1"
  param {
    lr_mult: 1
    decay_mult: 1
  }
  convolution_param {
    num_output: 128
    bias_term: false
    pad: 0
    kernel_size: 1
    stride: 1
    weight_filler {
      type: "msra"
    }
    bias_filler {
      type: "constant"
      value: 0
    }
  }
}
layer {
  name: "layer_128_4_bn2"
  type: "BatchNorm"
  bottom: "layer_128_4_conv1"
  top: "layer_128_4_conv1"
  param {
    lr_mult: 0
    decay_mult: 0
  }
  param {
    lr_mult: 0
    decay_mult: 0
  }
  param {
    lr_mult: 0
    decay_mult: 0
  }
}
layer {
  name: "layer_128_4_scale2"
  type: "Scale"
  bottom: "layer_128_4_conv1"
  top: "layer_128_4_conv1"
  param {
    lr_mult: 1
    decay_mult: 1
  }
  param {
    lr_mult: 2
    decay_mult: 1
  }
  scale_param {
    bias_term: true
  }
}
layer {
  name: "layer_128_4_relu2"
  type: "ReLU"
  bottom: "layer_128_4_conv1"
  top: "layer_128_4_conv1"
}
layer {
  name: "layer_128_4_conv2"
  type: "Convolution"
  bottom: "layer_128_4_conv1"
  top: "layer_128_4_conv2"
  param {
    lr_mult: 1
    decay_mult: 1
  }
  convolution_param {
    num_output: 128
    bias_term: false
    pad: 1
    kernel_size: 3
    stride: 1
    weight_filler {
      type: "msra"
    }
    bias_filler {
      type: "constant"
      value: 0
    }
  }
}
layer {
  name: "layer_128_4_bn3"
  type: "BatchNorm"
  bottom: "layer_128_4_conv2"
  top: "layer_128_4_conv2"
  param {
    lr_mult: 0
    decay_mult: 0
  }
  param {
    lr_mult: 0
    decay_mult: 0
  }
  param {
    lr_mult: 0
    decay_mult: 0
  }
}
layer {
  name: "layer_128_4_scale3"
  type: "Scale"
  bottom: "layer_128_4_conv2"
  top: "layer_128_4_conv2"
  param {
    lr_mult: 1
    decay_mult: 1
  }
  param {
    lr_mult: 2
    decay_mult: 1
  }
  scale_param {
    bias_term: true
  }
}
layer {
  name: "layer_128_4_relu3"
  type: "ReLU"
  bottom: "layer_128_4_conv2"
  top: "layer_128_4_conv2"
}
layer {
  name: "layer_128_4_conv3"
  type: "Convolution"
  bottom: "layer_128_4_conv2"
  top: "layer_128_4_conv3"
  param {
    lr_mult: 1
    decay_mult: 1
  }
  convolution_param {
    num_output: 512
    bias_term: false
    pad: 0
    kernel_size: 1
    stride: 1
    weight_filler {
      type: "msra"
    }
    bias_filler {
      type: "constant"
      value: 0
    }
  }
}
layer {
  name: "layer_128_4_sum"
  type: "Eltwise"
  bottom: "layer_128_4_conv3"
  bottom: "layer_128_3_sum"
  top: "layer_128_4_sum"
}
layer {
  name: "layer_256_1_bn1"
  type: "BatchNorm"
  bottom: "layer_128_4_sum"
  top: "layer_256_1_bn1"
  param {
    lr_mult: 0
    decay_mult: 0
  }
  param {
    lr_mult: 0
    decay_mult: 0
  }
  param {
    lr_mult: 0
    decay_mult: 0
  }
}
layer {
  name: "layer_256_1_scale1"
  type: "Scale"
  bottom: "layer_256_1_bn1"
  top: "layer_256_1_bn1"
  param {
    lr_mult: 1
    decay_mult: 1
  }
  param {
    lr_mult: 2
    decay_mult: 1
  }
  scale_param {
    bias_term: true
  }
}
layer {
  name: "layer_256_1_relu1"
  type: "ReLU"
  bottom: "layer_256_1_bn1"
  top: "layer_256_1_bn1"
}
layer {
  name: "layer_256_1_conv1"
  type: "Convolution"
  bottom: "layer_256_1_bn1"
  top: "layer_256_1_conv1"
  param {
    lr_mult: 1
    decay_mult: 1
  }
  convolution_param {
    num_output: 256
    bias_term: false
    pad: 0
    kernel_size: 1
    stride: 1
    weight_filler {
      type: "msra"
    }
    bias_filler {
      type: "constant"
      value: 0
    }
  }
}
layer {
  name: "layer_256_1_bn2"
  type: "BatchNorm"
  bottom: "layer_256_1_conv1"
  top: "layer_256_1_conv1"
  param {
    lr_mult: 0
    decay_mult: 0
  }
  param {
    lr_mult: 0
    decay_mult: 0
  }
  param {
    lr_mult: 0
    decay_mult: 0
  }
}
layer {
  name: "layer_256_1_scale2"
  type: "Scale"
  bottom: "layer_256_1_conv1"
  top: "layer_256_1_conv1"
  param {
    lr_mult: 1
    decay_mult: 1
  }
  param {
    lr_mult: 2
    decay_mult: 1
  }
  scale_param {
    bias_term: true
  }
}
layer {
  name: "layer_256_1_relu2"
  type: "ReLU"
  bottom: "layer_256_1_conv1"
  top: "layer_256_1_conv1"
}
layer {
  name: "layer_256_1_conv2"
  type: "Convolution"
  bottom: "layer_256_1_conv1"
  top: "layer_256_1_conv2"
  param {
    lr_mult: 1
    decay_mult: 1
  }
  convolution_param {
    num_output: 256
    bias_term: false
    pad: 1
    kernel_size: 3
    stride: 2
    weight_filler {
      type: "msra"
    }
    bias_filler {
      type: "constant"
      value: 0
    }
  }
}
layer {
  name: "layer_256_1_bn3"
  type: "BatchNorm"
  bottom: "layer_256_1_conv2"
  top: "layer_256_1_conv2"
  param {
    lr_mult: 0
    decay_mult: 0
  }
  param {
    lr_mult: 0
    decay_mult: 0
  }
  param {
    lr_mult: 0
    decay_mult: 0
  }
}
layer {
  name: "layer_256_1_scale3"
  type: "Scale"
  bottom: "layer_256_1_conv2"
  top: "layer_256_1_conv2"
  param {
    lr_mult: 1
    decay_mult: 1
  }
  param {
    lr_mult: 2
    decay_mult: 1
  }
  scale_param {
    bias_term: true
  }
}
layer {
  name: "layer_256_1_relu3"
  type: "ReLU"
  bottom: "layer_256_1_conv2"
  top: "layer_256_1_conv2"
}
layer {
  name: "layer_256_1_conv3"
  type: "Convolution"
  bottom: "layer_256_1_conv2"
  top: "layer_256_1_conv3"
  param {
    lr_mult: 1
    decay_mult: 1
  }
  convolution_param {
    num_output: 1024
    bias_term: false
    pad: 0
    kernel_size: 1
    stride: 1
    weight_filler {
      type: "msra"
    }
    bias_filler {
      type: "constant"
      value: 0
    }
  }
}
layer {
  name: "layer_256_1_conv_expand"
  type: "Convolution"
  bottom: "layer_256_1_bn1"
  top: "layer_256_1_conv_expand"
  param {
    lr_mult: 1
    decay_mult: 1
  }
  convolution_param {
    num_output: 1024
    bias_term: false
    pad: 0
    kernel_size: 1
    stride: 2
    weight_filler {
      type: "msra"
    }
    bias_filler {
      type: "constant"
      value: 0
    }
  }
}
layer {
  name: "layer_256_1_sum"
  type: "Eltwise"
  bottom: "layer_256_1_conv3"
  bottom: "layer_256_1_conv_expand"
  top: "layer_256_1_sum"
}
layer {
  name: "layer_256_2_bn1"
  type: "BatchNorm"
  bottom: "layer_256_1_sum"
  top: "layer_256_2_bn1"
  param {
    lr_mult: 0
    decay_mult: 0
  }
  param {
    lr_mult: 0
    decay_mult: 0
  }
  param {
    lr_mult: 0
    decay_mult: 0
  }
}
layer {
  name: "layer_256_2_scale1"
  type: "Scale"
  bottom: "layer_256_2_bn1"
  top: "layer_256_2_bn1"
  param {
    lr_mult: 1
    decay_mult: 1
  }
  param {
    lr_mult: 2
    decay_mult: 1
  }
  scale_param {
    bias_term: true
  }
}
layer {
  name: "layer_256_2_relu1"
  type: "ReLU"
  bottom: "layer_256_2_bn1"
  top: "layer_256_2_bn1"
}
layer {
  name: "layer_256_2_conv1"
  type: "Convolution"
  bottom: "layer_256_2_bn1"
  top: "layer_256_2_conv1"
  param {
    lr_mult: 1
    decay_mult: 1
  }
  convolution_param {
    num_output: 256
    bias_term: false
    pad: 0
    kernel_size: 1
    stride: 1
    weight_filler {
      type: "msra"
    }
    bias_filler {
      type: "constant"
      value: 0
    }
  }
}
layer {
  name: "layer_256_2_bn2"
  type: "BatchNorm"
  bottom: "layer_256_2_conv1"
  top: "layer_256_2_conv1"
  param {
    lr_mult: 0
    decay_mult: 0
  }
  param {
    lr_mult: 0
    decay_mult: 0
  }
  param {
    lr_mult: 0
    decay_mult: 0
  }
}
layer {
  name: "layer_256_2_scale2"
  type: "Scale"
  bottom: "layer_256_2_conv1"
  top: "layer_256_2_conv1"
  param {
    lr_mult: 1
    decay_mult: 1
  }
  param {
    lr_mult: 2
    decay_mult: 1
  }
  scale_param {
    bias_term: true
  }
}
layer {
  name: "layer_256_2_relu2"
  type: "ReLU"
  bottom: "layer_256_2_conv1"
  top: "layer_256_2_conv1"
}
layer {
  name: "layer_256_2_conv2"
  type: "Convolution"
  bottom: "layer_256_2_conv1"
  top: "layer_256_2_conv2"
  param {
    lr_mult: 1
    decay_mult: 1
  }
  convolution_param {
    num_output: 256
    bias_term: false
    pad: 1
    kernel_size: 3
    stride: 1
    weight_filler {
      type: "msra"
    }
    bias_filler {
      type: "constant"
      value: 0
    }
  }
}
layer {
  name: "layer_256_2_bn3"
  type: "BatchNorm"
  bottom: "layer_256_2_conv2"
  top: "layer_256_2_conv2"
  param {
    lr_mult: 0
    decay_mult: 0
  }
  param {
    lr_mult: 0
    decay_mult: 0
  }
  param {
    lr_mult: 0
    decay_mult: 0
  }
}
layer {
  name: "layer_256_2_scale3"
  type: "Scale"
  bottom: "layer_256_2_conv2"
  top: "layer_256_2_conv2"
  param {
    lr_mult: 1
    decay_mult: 1
  }
  param {
    lr_mult: 2
    decay_mult: 1
  }
  scale_param {
    bias_term: true
  }
}
layer {
  name: "layer_256_2_relu3"
  type: "ReLU"
  bottom: "layer_256_2_conv2"
  top: "layer_256_2_conv2"
}
layer {
  name: "layer_256_2_conv3"
  type: "Convolution"
 
I0526 15:44:49.201220 30701 layer_factory.hpp:77] Creating layer data
I0526 15:44:49.201346 30701 db_lmdb.cpp:35] Opened lmdb /home/k/PycharmProjects/AgeGenderDeepLearning-master/Folds/lmdb/Test_fold_is_0/age_train_lmdb
I0526 15:44:49.201383 30701 net.cpp:84] Creating Layer data
I0526 15:44:49.201395 30701 net.cpp:380] data -> data
I0526 15:44:49.201421 30701 net.cpp:380] data -> label
I0526 15:44:49.201436 30701 data_transformer.cpp:25] Loading mean file from: /home/k/PycharmProjects/AgeGenderDeepLearning-master/Folds/lmdb/Test_fold_is_0/mean.binaryproto
I0526 15:44:49.204329 30701 data_layer.cpp:45] output data size: 20,3,224,224
I0526 15:44:49.231775 30701 net.cpp:122] Setting up data
I0526 15:44:49.231803 30701 net.cpp:129] Top shape: 20 3 224 224 (3010560)
I0526 15:44:49.231809 30701 net.cpp:129] Top shape: 20 (20)
I0526 15:44:49.231812 30701 net.cpp:137] Memory required for data: 12042320
I0526 15:44:49.231822 30701 layer_factory.hpp:77] Creating layer data_bn
I0526 15:44:49.231842 30701 net.cpp:84] Creating Layer data_bn
I0526 15:44:49.231850 30701 net.cpp:406] data_bn <- data
I0526 15:44:49.231868 30701 net.cpp:380] data_bn -> data_bn
I0526 15:44:49.232836 30701 net.cpp:122] Setting up data_bn
I0526 15:44:49.232847 30701 net.cpp:129] Top shape: 20 3 224 224 (3010560)
I0526 15:44:49.232863 30701 net.cpp:137] Memory required for data: 24084560
I0526 15:44:49.232890 30701 layer_factory.hpp:77] Creating layer data_scale
I0526 15:44:49.232903 30701 net.cpp:84] Creating Layer data_scale
I0526 15:44:49.232905 30701 net.cpp:406] data_scale <- data_bn
I0526 15:44:49.232913 30701 net.cpp:367] data_scale -> data_bn (in-place)
I0526 15:44:49.232960 30701 layer_factory.hpp:77] Creating layer data_scale
I0526 15:44:49.233101 30701 net.cpp:122] Setting up data_scale
I0526 15:44:49.233111 30701 net.cpp:129] Top shape: 20 3 224 224 (3010560)
I0526 15:44:49.233115 30701 net.cpp:137] Memory required for data: 36126800
I0526 15:44:49.233122 30701 layer_factory.hpp:77] Creating layer conv1
I0526 15:44:49.233136 30701 net.cpp:84] Creating Layer conv1
I0526 15:44:49.233141 30701 net.cpp:406] conv1 <- data_bn
I0526 15:44:49.233146 30701 net.cpp:380] conv1 -> conv1
I0526 15:44:49.453364 30701 net.cpp:122] Setting up conv1
I0526 15:44:49.453394 30701 net.cpp:129] Top shape: 20 64 112 112 (16056320)
I0526 15:44:49.453398 30701 net.cpp:137] Memory required for data: 100352080
I0526 15:44:49.453409 30701 layer_factory.hpp:77] Creating layer conv1_bn
I0526 15:44:49.453423 30701 net.cpp:84] Creating Layer conv1_bn
I0526 15:44:49.453438 30701 net.cpp:406] conv1_bn <- conv1
I0526 15:44:49.453447 30701 net.cpp:367] conv1_bn -> conv1 (in-place)
I0526 15:44:49.453619 30701 net.cpp:122] Setting up conv1_bn
I0526 15:44:49.453627 30701 net.cpp:129] Top shape: 20 64 112 112 (16056320)
I0526 15:44:49.453630 30701 net.cpp:137] Memory required for data: 164577360
I0526 15:44:49.453641 30701 layer_factory.hpp:77] Creating layer conv1_scale
I0526 15:44:49.453649 30701 net.cpp:84] Creating Layer conv1_scale
I0526 15:44:49.453652 30701 net.cpp:406] conv1_scale <- conv1
I0526 15:44:49.453660 30701 net.cpp:367] conv1_scale -> conv1 (in-place)
I0526 15:44:49.453713 30701 layer_factory.hpp:77] Creating layer conv1_scale
I0526 15:44:49.453829 30701 net.cpp:122] Setting up conv1_scale
I0526 15:44:49.453837 30701 net.cpp:129] Top shape: 20 64 112 112 (16056320)
I0526 15:44:49.453840 30701 net.cpp:137] Memory required for data: 228802640
I0526 15:44:49.453846 30701 layer_factory.hpp:77] Creating layer conv1_relu
I0526 15:44:49.453852 30701 net.cpp:84] Creating Layer conv1_relu
I0526 15:44:49.453855 30701 net.cpp:406] conv1_relu <- conv1
I0526 15:44:49.453860 30701 net.cpp:367] conv1_relu -> conv1 (in-place)
I0526 15:44:49.454023 30701 net.cpp:122] Setting up conv1_relu
I0526 15:44:49.454032 30701 net.cpp:129] Top shape: 20 64 112 112 (16056320)
I0526 15:44:49.454036 30701 net.cpp:137] Memory required for data: 293027920
I0526 15:44:49.454040 30701 layer_factory.hpp:77] Creating layer conv1_pool
I0526 15:44:49.454046 30701 net.cpp:84] Creating Layer conv1_pool
I0526 15:44:49.454048 30701 net.cpp:406] conv1_pool <- conv1
I0526 15:44:49.454054 30701 net.cpp:380] conv1_pool -> conv1_pool
I0526 15:44:49.454113 30701 net.cpp:122] Setting up conv1_pool
I0526 15:44:49.454123 30701 net.cpp:129] Top shape: 20 64 56 56 (4014080)
I0526 15:44:49.454125 30701 net.cpp:137] Memory required for data: 309084240
I0526 15:44:49.454128 30701 layer_factory.hpp:77] Creating layer layer_64_1_conv1
I0526 15:44:49.454139 30701 net.cpp:84] Creating Layer layer_64_1_conv1
I0526 15:44:49.454145 30701 net.cpp:406] layer_64_1_conv1 <- conv1_pool
I0526 15:44:49.454156 30701 net.cpp:380] layer_64_1_conv1 -> layer_64_1_conv1
I0526 15:44:49.455924 30701 net.cpp:122] Setting up layer_64_1_conv1
I0526 15:44:49.455936 30701 net.cpp:129] Top shape: 20 64 56 56 (4014080)
I0526 15:44:49.455940 30701 net.cpp:137] Memory required for data: 325140560
I0526 15:44:49.455945 30701 layer_factory.hpp:77] Creating layer layer_64_1_bn2
I0526 15:44:49.455971 30701 net.cpp:84] Creating Layer layer_64_1_bn2
I0526 15:44:49.455974 30701 net.cpp:406] layer_64_1_bn2 <- layer_64_1_conv1
I0526 15:44:49.455981 30701 net.cpp:367] layer_64_1_bn2 -> layer_64_1_conv1 (in-place)
I0526 15:44:49.456131 30701 net.cpp:122] Setting up layer_64_1_bn2
I0526 15:44:49.456140 30701 net.cpp:129] Top shape: 20 64 56 56 (4014080)
I0526 15:44:49.456143 30701 net.cpp:137] Memory required for data: 341196880
I0526 15:44:49.456151 30701 layer_factory.hpp:77] Creating layer layer_64_1_scale2
I0526 15:44:49.456156 30701 net.cpp:84] Creating Layer layer_64_1_scale2
I0526 15:44:49.456159 30701 net.cpp:406] layer_64_1_scale2 <- layer_64_1_conv1
I0526 15:44:49.456164 30701 net.cpp:367] layer_64_1_scale2 -> layer_64_1_conv1 (in-place)
I0526 15:44:49.456224 30701 layer_factory.hpp:77] Creating layer layer_64_1_scale2
I0526 15:44:49.456322 30701 net.cpp:122] Setting up layer_64_1_scale2
I0526 15:44:49.456331 30701 net.cpp:129] Top shape: 20 64 56 56 (4014080)
I0526 15:44:49.456336 30701 net.cpp:137] Memory required for data: 357253200
I0526 15:44:49.456354 30701 layer_factory.hpp:77] Creating layer layer_64_1_relu2
I0526 15:44:49.456360 30701 net.cpp:84] Creating Layer layer_64_1_relu2
I0526 15:44:49.456364 30701 net.cpp:406] layer_64_1_relu2 <- layer_64_1_conv1
I0526 15:44:49.456372 30701 net.cpp:367] layer_64_1_relu2 -> layer_64_1_conv1 (in-place)
I0526 15:44:49.456985 30701 net.cpp:122] Setting up layer_64_1_relu2
I0526 15:44:49.457000 30701 net.cpp:129] Top shape: 20 64 56 56 (4014080)
I0526 15:44:49.457017 30701 net.cpp:137] Memory required for data: 373309520
I0526 15:44:49.457022 30701 layer_factory.hpp:77] Creating layer layer_64_1_conv1_layer_64_1_relu2_0_split
I0526 15:44:49.457031 30701 net.cpp:84] Creating Layer layer_64_1_conv1_layer_64_1_relu2_0_split
I0526 15:44:49.457037 30701 net.cpp:406] layer_64_1_conv1_layer_64_1_relu2_0_split <- layer_64_1_conv1
I0526 15:44:49.457051 30701 net.cpp:380] layer_64_1_conv1_layer_64_1_relu2_0_split -> layer_64_1_conv1_layer_64_1_relu2_0_split_0
I0526 15:44:49.457062 30701 net.cpp:380] layer_64_1_conv1_layer_64_1_relu2_0_split -> layer_64_1_conv1_layer_64_1_relu2_0_split_1
I0526 15:44:49.457103 30701 net.cpp:122] Setting up layer_64_1_conv1_layer_64_1_relu2_0_split
I0526 15:44:49.457121 30701 net.cpp:129] Top shape: 20 64 56 56 (4014080)
I0526 15:44:49.457126 30701 net.cpp:129] Top shape: 20 64 56 56 (4014080)
I0526 15:44:49.457130 30701 net.cpp:137] Memory required for data: 405422160
I0526 15:44:49.457134 30701 layer_factory.hpp:77] Creating layer layer_64_1_conv2
I0526 15:44:49.457144 30701 net.cpp:84] Creating Layer layer_64_1_conv2
I0526 15:44:49.457149 30701 net.cpp:406] layer_64_1_conv2 <- layer_64_1_conv1_layer_64_1_relu2_0_split_0
I0526 15:44:49.457154 30701 net.cpp:380] layer_64_1_conv2 -> layer_64_1_conv2
I0526 15:44:49.458554 30701 net.cpp:122] Setting up layer_64_1_conv2
I0526 15:44:49.458566 30701 net.cpp:129] Top shape: 20 64 56 56 (4014080)
I0526 15:44:49.458581 30701 net.cpp:137] Memory required for data: 421478480
I0526 15:44:49.458588 30701 layer_factory.hpp:77] Creating layer layer_64_1_bn3
I0526 15:44:49.458596 30701 net.cpp:84] Creating Layer layer_64_1_bn3
I0526 15:44:49.458603 30701 net.cpp:406] layer_64_1_bn3 <- layer_64_1_conv2
I0526 15:44:49.458616 30701 net.cpp:367] layer_64_1_bn3 -> layer_64_1_conv2 (in-place)
I0526 15:44:49.458787 30701 net.cpp:122] Setting up layer_64_1_bn3
I0526 15:44:49.458797 30701 net.cpp:129] Top shape: 20 64 56 56 (4014080)
I0526 15:44:49.458804 30701 net.cpp:137] Memory required for data: 437534800
I0526 15:44:49.458828 30701 layer_factory.hpp:77] Creating layer layer_64_1_scale3
I0526 15:44:49.458842 30701 net.cpp:84] Creating Layer layer_64_1_scale3
I0526 15:44:49.458847 30701 net.cpp:406] layer_64_1_scale3 <- layer_64_1_conv2
I0526 15:44:49.458856 30701 net.cpp:367] layer_64_1_scale3 -> layer_64_1_conv2 (in-place)
I0526 15:44:49.458897 30701 layer_factory.hpp:77] Creating layer layer_64_1_scale3
I0526 15:44:49.459022 30701 net.cpp:122] Setting up layer_64_1_scale3
I0526 15:44:49.459031 30701 net.cpp:129] Top shape: 20 64 56 56 (4014080)
I0526 15:44:49.459038 30701 net.cpp:137] Memory required for data: 453591120
I0526 15:44:49.459050 30701 layer_factory.hpp:77] Creating layer layer_64_1_relu3
I0526 15:44:49.459062 30701 net.cpp:84] Creating Layer layer_64_1_relu3
I0526 15:44:49.459069 30701 net.cpp:406] layer_64_1_relu3 <- layer_64_1_conv2
I0526 15:44:49.459077 30701 net.cpp:367] layer_64_1_relu3 -> layer_64_1_conv2 (in-place)
I0526 15:44:49.459695 30701 net.cpp:122] Setting up layer_64_1_relu3
I0526 15:44:49.459707 30701 net.cpp:129] Top shape: 20 64 56 56 (4014080)
I0526 15:44:49.459715 30701 net.cpp:137] Memory required for data: 469647440
I0526 15:44:49.459723 30701 layer_factory.hpp:77] Creating layer layer_64_1_conv3
I0526 15:44:49.459749 30701 net.cpp:84] Creating Layer layer_64_1_conv3
I0526 15:44:49.459755 30701 net.cpp:406] layer_64_1_conv3 <- layer_64_1_conv2
I0526 15:44:49.459764 30701 net.cpp:380] layer_64_1_conv3 -> layer_64_1_conv3
I0526 15:44:49.461000 30701 net.cpp:122] Setting up layer_64_1_conv3
I0526 15:44:49.461014 30701 net.cpp:129] Top shape: 20 256 56 56 (16056320)
I0526 15:44:49.461019 30701 net.cpp:137] Memory required for data: 533872720
I0526 15:44:49.461024 30701 layer_factory.hpp:77] Creating layer layer_64_1_conv_expand
I0526 15:44:49.461035 30701 net.cpp:84] Creating Layer layer_64_1_conv_expand
I0526 15:44:49.461040 30701 net.cpp:406] layer_64_1_conv_expand <- layer_64_1_conv1_layer_64_1_relu2_0_split_1
I0526 15:44:49.461047 30701 net.cpp:380] layer_64_1_conv_expand -> layer_64_1_conv_expand
I0526 15:44:49.462285 30701 net.cpp:122] Setting up layer_64_1_conv_expand
I0526 15:44:49.462298 30701 net.cpp:129] Top shape: 20 256 56 56 (16056320)
I0526 15:44:49.462306 30701 net.cpp:137] Memory required for data: 598098000
I0526 15:44:49.462317 30701 layer_factory.hpp:77] Creating layer layer_64_1_sum
I0526 15:44:49.462327 30701 net.cpp:84] Creating Layer layer_64_1_sum
I0526 15:44:49.462334 30701 net.cpp:406] layer_64_1_sum <- layer_64_1_conv3
I0526 15:44:49.462342 30701 net.cpp:406] layer_64_1_sum <- layer_64_1_conv_expand
I0526 15:44:49.462354 30701 net.cpp:380] layer_64_1_sum -> layer_64_1_sum
I0526 15:44:49.462383 30701 net.cpp:122] Setting up layer_64_1_sum
I0526 15:44:49.462393 30701 net.cpp:129] Top shape: 20 256 56 56 (16056320)
I0526 15:44:49.462399 30701 net.cpp:137] Memory required for data: 662323280
I0526 15:44:49.462406 30701 layer_factory.hpp:77] Creating layer layer_64_1_sum_layer_64_1_sum_0_split
I0526 15:44:49.462419 30701 net.cpp:84] Creating Layer layer_64_1_sum_layer_64_1_sum_0_split
I0526 15:44:49.462424 30701 net.cpp:406] layer_64_1_sum_layer_64_1_sum_0_split <- layer_64_1_sum
I0526 15:44:49.462436 30701 net.cpp:380] layer_64_1_sum_layer_64_1_sum_0_split -> layer_64_1_sum_layer_64_1_sum_0_split_0
I0526 15:44:49.462446 30701 net.cpp:380] layer_64_1_sum_layer_64_1_sum_0_split -> layer_64_1_sum_layer_64_1_sum_0_split_1
I0526 15:44:49.462483 30701 net.cpp:122] Setting up layer_64_1_sum_layer_64_1_sum_0_split
I0526 15:44:49.462497 30701 net.cpp:129] Top shape: 20 256 56 56 (16056320)
I0526 15:44:49.462504 30701 net.cpp:129] Top shape: 20 256 56 56 (16056320)
I0526 15:44:49.462510 30701 net.cpp:137] Memory required for data: 790773840
I0526 15:44:49.462517 30701 layer_factory.hpp:77] Creating layer layer_64_2_bn1
I0526 15:44:49.462528 30701 net.cpp:84] Creating Layer layer_64_2_bn1
I0526 15:44:49.462534 30701 net.cpp:406] layer_64_2_bn1 <- layer_64_1_sum_layer_64_1_sum_0_split_0
I0526 15:44:49.462546 30701 net.cpp:380] layer_64_2_bn1 -> layer_64_2_bn1
I0526 15:44:49.462702 30701 net.cpp:122] Setting up layer_64_2_bn1
I0526 15:44:49.462712 30701 net.cpp:129] Top shape: 20 256 56 56 (16056320)
I0526 15:44:49.462718 30701 net.cpp:137] Memory required for data: 854999120
I0526 15:44:49.462733 30701 layer_factory.hpp:77] Creating layer layer_64_2_scale1
I0526 15:44:49.462745 30701 net.cpp:84] Creating Layer layer_64_2_scale1
I0526 15:44:49.462751 30701 net.cpp:406] layer_64_2_scale1 <- layer_64_2_bn1
I0526 15:44:49.462760 30701 net.cpp:367] layer_64_2_scale1 -> layer_64_2_bn1 (in-place)
I0526 15:44:49.462801 30701 layer_factory.hpp:77] Creating layer layer_64_2_scale1
I0526 15:44:49.462898 30701 net.cpp:122] Setting up layer_64_2_scale1
I0526 15:44:49.462908 30701 net.cpp:129] Top shape: 20 256 56 56 (16056320)
I0526 15:44:49.462913 30701 net.cpp:137] Memory required for data: 919224400
I0526 15:44:49.462926 30701 layer_factory.hpp:77] Creating layer layer_64_2_relu1
I0526 15:44:49.462934 30701 net.cpp:84] Creating Layer layer_64_2_relu1
I0526 15:44:49.462941 30701 net.cpp:406] layer_64_2_relu1 <- layer_64_2_bn1
I0526 15:44:49.462952 30701 net.cpp:367] layer_64_2_relu1 -> layer_64_2_bn1 (in-place)
I0526 15:44:49.463104 30701 net.cpp:122] Setting up layer_64_2_relu1
I0526 15:44:49.463114 30701 net.cpp:129] Top shape: 20 256 56 56 (16056320)
I0526 15:44:49.463130 30701 net.cpp:137] Memory required for data: 983449680
I0526 15:44:49.463138 30701 layer_factory.hpp:77] Creating layer layer_64_2_conv1
I0526 15:44:49.463155 30701 net.cpp:84] Creating Layer layer_64_2_conv1
I0526 15:44:49.463160 30701 net.cpp:406] layer_64_2_conv1 <- layer_64_2_bn1
I0526 15:44:49.463171 30701 net.cpp:380] layer_64_2_conv1 -> layer_64_2_conv1
I0526 15:44:49.464406 30701 net.cpp:122] Setting up layer_64_2_conv1
I0526 15:44:49.464418 30701 net.cpp:129] Top shape: 20 64 56 56 (4014080)
I0526 15:44:49.464423 30701 net.cpp:137] Memory required for data: 999506000
I0526 15:44:49.464428 30701 layer_factory.hpp:77] Creating layer layer_64_2_bn2
I0526 15:44:49.464435 30701 net.cpp:84] Creating Layer layer_64_2_bn2
I0526 15:44:49.464439 30701 net.cpp:406] layer_64_2_bn2 <- layer_64_2_conv1
I0526 15:44:49.464445 30701 net.cpp:367] layer_64_2_bn2 -> layer_64_2_conv1 (in-place)
I0526 15:44:49.464602 30701 net.cpp:122] Setting up layer_64_2_bn2
I0526 15:44:49.464612 30701 net.cpp:129] Top shape: 20 64 56 56 (4014080)
I0526 15:44:49.464615 30701 net.cpp:137] Memory required for data: 1015562320
I0526 15:44:49.464625 30701 layer_factory.hpp:77] Creating layer layer_64_2_scale2
I0526 15:44:49.464633 30701 net.cpp:84] Creating Layer layer_64_2_scale2
I0526 15:44:49.464637 30701 net.cpp:406] layer_64_2_scale2 <- layer_64_2_conv1
I0526 15:44:49.464643 30701 net.cpp:367] layer_64_2_scale2 -> layer_64_2_conv1 (in-place)
I0526 15:44:49.464679 30701 layer_factory.hpp:77] Creating layer layer_64_2_scale2
I0526 15:44:49.464774 30701 net.cpp:122] Setting up layer_64_2_scale2
I0526 15:44:49.464783 30701 net.cpp:129] Top shape: 20 64 56 56 (4014080)
I0526 15:44:49.464787 30701 net.cpp:137] Memory required for data: 1031618640
I0526 15:44:49.464792 30701 layer_factory.hpp:77] Creating layer layer_64_2_relu2
I0526 15:44:49.464798 30701 net.cpp:84] Creating Layer layer_64_2_relu2
I0526 15:44:49.464802 30701 net.cpp:406] layer_64_2_relu2 <- layer_64_2_conv1
I0526 15:44:49.464807 30701 net.cpp:367] layer_64_2_relu2 -> layer_64_2_conv1 (in-place)
I0526 15:44:49.464952 30701 net.cpp:122] Setting up layer_64_2_relu2
I0526 15:44:49.464962 30701 net.cpp:129] Top shape: 20 64 56 56 (4014080)
I0526 15:44:49.464967 30701 net.cpp:137] Memory required for data: 1047674960
I0526 15:44:49.464970 30701 layer_factory.hpp:77] Creating layer layer_64_2_conv2
I0526 15:44:49.464979 30701 net.cpp:84] Creating Layer layer_64_2_conv2
I0526 15:44:49.464983 30701 net.cpp:406] layer_64_2_conv2 <- layer_64_2_conv1
I0526 15:44:49.464989 30701 net.cpp:380] layer_64_2_conv2 -> layer_64_2_conv2
I0526 15:44:49.466439 30701 net.cpp:122] Setting up layer_64_2_conv2
I0526 15:44:49.466454 30701 net.cpp:129] Top shape: 20 64 56 56 (4014080)
I0526 15:44:49.466457 30701 net.cpp:137] Memory required for data: 1063731280
I0526 15:44:49.466462 30701 layer_factory.hpp:77] Creating layer layer_64_2_bn3
I0526 15:44:49.466471 30701 net.cpp:84] Creating Layer layer_64_2_bn3
I0526 15:44:49.466476 30701 net.cpp:406] layer_64_2_bn3 <- layer_64_2_conv2
I0526 15:44:49.466481 30701 net.cpp:367] layer_64_2_bn3 -> layer_64_2_conv2 (in-place)
I0526 15:44:49.466650 30701 net.cpp:122] Setting up layer_64_2_bn3
I0526 15:44:49.466658 30701 net.cpp:129] Top shape: 20 64 56 56 (4014080)
I0526 15:44:49.466661 30701 net.cpp:137] Memory required for data: 1079787600
I0526 15:44:49.466681 30701 layer_factory.hpp:77] Creating layer layer_64_2_scale3
I0526 15:44:49.466691 30701 net.cpp:84] Creating Layer layer_64_2_scale3
I0526 15:44:49.466696 30701 net.cpp:406] layer_64_2_scale3 <- layer_64_2_conv2
I0526 15:44:49.466701 30701 net.cpp:367] layer_64_2_scale3 -> layer_64_2_conv2 (in-place)
I0526 15:44:49.466744 30701 layer_factory.hpp:77] Creating layer layer_64_2_scale3
I0526 15:44:49.466850 30701 net.cpp:122] Setting up layer_64_2_scale3
I0526 15:44:49.466861 30701 net.cpp:129] Top shape: 20 64 56 56 (4014080)
I0526 15:44:49.466867 30701 net.cpp:137] Memory required for data: 1095843920
I0526 15:44:49.466879 30701 layer_factory.hpp:77] Creating layer layer_64_2_relu3
I0526 15:44:49.466899 30701 net.cpp:84] Creating Layer layer_64_2_relu3
I0526 15:44:49.466907 30701 net.cpp:406] layer_64_2_relu3 <- layer_64_2_conv2
I0526 15:44:49.466918 30701 net.cpp:367] layer_64_2_relu3 -> layer_64_2_conv2 (in-place)
I0526 15:44:49.467067 30701 net.cpp:122] Setting up layer_64_2_relu3
I0526 15:44:49.467079 30701 net.cpp:129] Top shape: 20 64 56 56 (4014080)
I0526 15:44:49.467087 30701 net.cpp:137] Memory required for data: 1111900240
I0526 15:44:49.467093 30701 layer_factory.hpp:77] Creating layer layer_64_2_conv3
I0526 15:44:49.467113 30701 net.cpp:84] Creating Layer layer_64_2_conv3
I0526 15:44:49.467118 30701 net.cpp:406] layer_64_2_conv3 <- layer_64_2_conv2
I0526 15:44:49.467128 30701 net.cpp:380] layer_64_2_conv3 -> layer_64_2_conv3
I0526 15:44:49.468415 30701 net.cpp:122] Setting up layer_64_2_conv3
I0526 15:44:49.468430 30701 net.cpp:129] Top shape: 20 256 56 56 (16056320)
I0526 15:44:49.468433 30701 net.cpp:137] Memory required for data: 1176125520
I0526 15:44:49.468439 30701 layer_factory.hpp:77] Creating layer layer_64_2_sum
I0526 15:44:49.468451 30701 net.cpp:84] Creating Layer layer_64_2_sum
I0526 15:44:49.468456 30701 net.cpp:406] layer_64_2_sum <- layer_64_2_conv3
I0526 15:44:49.468461 30701 net.cpp:406] layer_64_2_sum <- layer_64_1_sum_layer_64_1_sum_0_split_1
I0526 15:44:49.468467 30701 net.cpp:380] layer_64_2_sum -> layer_64_2_sum
I0526 15:44:49.468493 30701 net.cpp:122] Setting up layer_64_2_sum
I0526 15:44:49.468502 30701 net.cpp:129] Top shape: 20 256 56 56 (16056320)
I0526 15:44:49.468504 30701 net.cpp:137] Memory required for data: 1240350800
I0526 15:44:49.468508 30701 layer_factory.hpp:77] Creating layer layer_64_2_sum_layer_64_2_sum_0_split
I0526 15:44:49.468513 30701 net.cpp:84] Creating Layer layer_64_2_sum_layer_64_2_sum_0_split
I0526 15:44:49.468518 30701 net.cpp:406] layer_64_2_sum_layer_64_2_sum_0_split <- layer_64_2_sum
I0526 15:44:49.468524 30701 net.cpp:380] layer_64_2_sum_layer_64_2_sum_0_split -> layer_64_2_sum_layer_64_2_sum_0_split_0
I0526 15:44:49.468531 30701 net.cpp:380] layer_64_2_sum_layer_64_2_sum_0_split -> layer_64_2_sum_layer_64_2_sum_0_split_1
I0526 15:44:49.468564 30701 net.cpp:122] Setting up layer_64_2_sum_layer_64_2_sum_0_split
I0526 15:44:49.468570 30701 net.cpp:129] Top shape: 20 256 56 56 (16056320)
I0526 15:44:49.468575 30701 net.cpp:129] Top shape: 20 256 56 56 (16056320)
I0526 15:44:49.468578 30701 net.cpp:137] Memory required for data: 1368801360
I0526 15:44:49.468585 30701 layer_factory.hpp:77] Creating layer layer_64_3_bn1
I0526 15:44:49.468597 30701 net.cpp:84] Creating Layer layer_64_3_bn1
I0526 15:44:49.468603 30701 net.cpp:406] layer_64_3_bn1 <- layer_64_2_sum_layer_64_2_sum_0_split_0
I0526 15:44:49.468612 30701 net.cpp:380] layer_64_3_bn1 -> layer_64_3_bn1
I0526 15:44:49.468780 30701 net.cpp:122] Setting up layer_64_3_bn1
I0526 15:44:49.468789 30701 net.cpp:129] Top shape: 20 256 56 56 (16056320)
I0526 15:44:49.468796 30701 net.cpp:137] Memory required for data: 1433026640
I0526 15:44:49.468811 30701 layer_factory.hpp:77] Creating layer layer_64_3_scale1
I0526 15:44:49.468819 30701 net.cpp:84] Creating Layer layer_64_3_scale1
I0526 15:44:49.468825 30701 net.cpp:406] layer_64_3_scale1 <- layer_64_3_bn1
I0526 15:44:49.468837 30701 net.cpp:367] layer_64_3_scale1 -> layer_64_3_bn1 (in-place)
I0526 15:44:49.468885 30701 layer_factory.hpp:77] Creating layer layer_64_3_scale1
I0526 15:44:49.468996 30701 net.cpp:122] Setting up layer_64_3_scale1
I0526 15:44:49.469007 30701 net.cpp:129] Top shape: 20 256 56 56 (16056320)
I0526 15:44:49.469009 30701 net.cpp:137] Memory required for data: 1497251920
I0526 15:44:49.469015 30701 layer_factory.hpp:77] Creating layer layer_64_3_relu1
I0526 15:44:49.469022 30701 net.cpp:84] Creating Layer layer_64_3_relu1
I0526 15:44:49.469025 30701 net.cpp:406] layer_64_3_relu1 <- layer_64_3_bn1
I0526 15:44:49.469030 30701 net.cpp:367] layer_64_3_relu1 -> layer_64_3_bn1 (in-place)
I0526 15:44:49.469179 30701 net.cpp:122] Setting up layer_64_3_relu1
I0526 15:44:49.469189 30701 net.cpp:129] Top shape: 20 256 56 56 (16056320)
I0526 15:44:49.469202 30701 net.cpp:137] Memory required for data: 1561477200
I0526 15:44:49.469205 30701 layer_factory.hpp:77] Creating layer layer_64_3_conv1
I0526 15:44:49.469215 30701 net.cpp:84] Creating Layer layer_64_3_conv1
I0526 15:44:49.469219 30701 net.cpp:406] layer_64_3_conv1 <- layer_64_3_bn1
I0526 15:44:49.469226 30701 net.cpp:380] layer_64_3_conv1 -> layer_64_3_conv1
I0526 15:44:49.470470 30701 net.cpp:122] Setting up layer_64_3_conv1
I0526 15:44:49.470482 30701 net.cpp:129] Top shape: 20 64 56 56 (4014080)
I0526 15:44:49.470486 30701 net.cpp:137] Memory required for data: 1577533520
I0526 15:44:49.470491 30701 layer_factory.hpp:77] Creating layer layer_64_3_bn2
I0526 15:44:49.470499 30701 net.cpp:84] Creating Layer layer_64_3_bn2
I0526 15:44:49.470504 30701 net.cpp:406] layer_64_3_bn2 <- layer_64_3_conv1
I0526 15:44:49.470510 30701 net.cpp:367] layer_64_3_bn2 -> layer_64_3_conv1 (in-place)
I0526 15:44:49.470669 30701 net.cpp:122] Setting up layer_64_3_bn2
I0526 15:44:49.470677 30701 net.cpp:129] Top shape: 20 64 56 56 (4014080)
I0526 15:44:49.470681 30701 net.cpp:137] Memory required for data: 1593589840
I0526 15:44:49.470688 30701 layer_factory.hpp:77] Creating layer layer_64_3_scale2
I0526 15:44:49.470696 30701 net.cpp:84] Creating Layer layer_64_3_scale2
I0526 15:44:49.470700 30701 net.cpp:406] layer_64_3_scale2 <- layer_64_3_conv1
I0526 15:44:49.470705 30701 net.cpp:367] layer_64_3_scale2 -> layer_64_3_conv1 (in-place)
I0526 15:44:49.470744 30701 layer_factory.hpp:77] Creating layer layer_64_3_scale2
I0526 15:44:49.470842 30701 net.cpp:122] Setting up layer_64_3_scale2
I0526 15:44:49.470851 30701 net.cpp:129] Top shape: 20 64 56 56 (4014080)
I0526 15:44:49.470855 30701 net.cpp:137] Memory required for data: 1609646160
I0526 15:44:49.470861 30701 layer_factory.hpp:77] Creating layer layer_64_3_relu2
I0526 15:44:49.470867 30701 net.cpp:84] Creating Layer layer_64_3_relu2
I0526 15:44:49.470871 30701 net.cpp:406] layer_64_3_relu2 <- layer_64_3_conv1
I0526 15:44:49.470877 30701 net.cpp:367] layer_64_3_relu2 -> layer_64_3_conv1 (in-place)
I0526 15:44:49.471025 30701 net.cpp:122] Setting up layer_64_3_relu2
I0526 15:44:49.471035 30701 net.cpp:129] Top shape: 20 64 56 56 (4014080)
I0526 15:44:49.471040 30701 net.cpp:137] Memory required for data: 1625702480
I0526 15:44:49.471043 30701 layer_factory.hpp:77] Creating layer layer_64_3_conv2
I0526 15:44:49.471052 30701 net.cpp:84] Creating Layer layer_64_3_conv2
I0526 15:44:49.471056 30701 net.cpp:406] layer_64_3_conv2 <- layer_64_3_conv1
I0526 15:44:49.471063 30701 net.cpp:380] layer_64_3_conv2 -> layer_64_3_conv2
I0526 15:44:49.472978 30701 net.cpp:122] Setting up layer_64_3_conv2
I0526 15:44:49.472991 30701 net.cpp:129] Top shape: 20 64 56 56 (4014080)
I0526 15:44:49.472995 30701 net.cpp:137] Memory required for data: 1641758800
I0526 15:44:49.473001 30701 layer_factory.hpp:77] Creating layer layer_64_3_bn3
I0526 15:44:49.473009 30701 net.cpp:84] Creating Layer layer_64_3_bn3
I0526 15:44:49.473013 30701 net.cpp:406] layer_64_3_bn3 <- layer_64_3_conv2
I0526 15:44:49.473019 30701 net.cpp:367] layer_64_3_bn3 -> layer_64_3_conv2 (in-place)
I0526 15:44:49.473179 30701 net.cpp:122] Setting up layer_64_3_bn3
I0526 15:44:49.473188 30701 net.cpp:129] Top shape: 20 64 56 56 (4014080)
I0526 15:44:49.473192 30701 net.cpp:137] Memory required for data: 1657815120
I0526 15:44:49.473199 30701 layer_factory.hpp:77] Creating layer layer_64_3_scale3
I0526 15:44:49.473206 30701 net.cpp:84] Creating Layer layer_64_3_scale3
I0526 15:44:49.473211 30701 net.cpp:406] layer_64_3_scale3 <- layer_64_3_conv2
I0526 15:44:49.473215 30701 net.cpp:367] layer_64_3_scale3 -> layer_64_3_conv2 (in-place)
I0526 15:44:49.473253 30701 layer_factory.hpp:77] Creating layer layer_64_3_scale3
I0526 15:44:49.473356 30701 net.cpp:122] Setting up layer_64_3_scale3
I0526 15:44:49.473364 30701 net.cpp:129] Top shape: 20 64 56 56 (4014080)
I0526 15:44:49.473368 30701 net.cpp:137] Memory required for data: 1673871440
I0526 15:44:49.473374 30701 layer_factory.hpp:77] Creating layer layer_64_3_relu3
I0526 15:44:49.473389 30701 net.cpp:84] Creating Layer layer_64_3_relu3
I0526 15:44:49.473393 30701 net.cpp:406] layer_64_3_relu3 <- layer_64_3_conv2
I0526 15:44:49.473400 30701 net.cpp:367] layer_64_3_relu3 -> layer_64_3_conv2 (in-place)
I0526 15:44:49.474022 30701 net.cpp:122] Setting up layer_64_3_relu3
I0526 15:44:49.474033 30701 net.cpp:129] Top shape: 20 64 56 56 (4014080)
I0526 15:44:49.474037 30701 net.cpp:137] Memory required for data: 1689927760
I0526 15:44:49.474040 30701 layer_factory.hpp:77] Creating layer layer_64_3_conv3
I0526 15:44:49.474050 30701 net.cpp:84] Creating Layer layer_64_3_conv3
I0526 15:44:49.474054 30701 net.cpp:406] layer_64_3_conv3 <- layer_64_3_conv2
I0526 15:44:49.474061 30701 net.cpp:380] layer_64_3_conv3 -> layer_64_3_conv3
I0526 15:44:49.475307 30701 net.cpp:122] Setting up layer_64_3_conv3
I0526 15:44:49.475319 30701 net.cpp:129] Top shape: 20 256 56 56 (16056320)
I0526 15:44:49.475323 30701 net.cpp:137] Memory required for data: 1754153040
I0526 15:44:49.475328 30701 layer_factory.hpp:77] Creating layer layer_64_3_sum
I0526 15:44:49.475335 30701 net.cpp:84] Creating Layer layer_64_3_sum
I0526 15:44:49.475342 30701 net.cpp:406] layer_64_3_sum <- layer_64_3_conv3
I0526 15:44:49.475345 30701 net.cpp:406] layer_64_3_sum <- layer_64_2_sum_layer_64_2_sum_0_split_1
I0526 15:44:49.475352 30701 net.cpp:380] layer_64_3_sum -> layer_64_3_sum
I0526 15:44:49.475376 30701 net.cpp:122] Setting up layer_64_3_sum
I0526 15:44:49.475383 30701 net.cpp:129] Top shape: 20 256 56 56 (16056320)
I0526 15:44:49.475388 30701 net.cpp:137] Memory required for data: 1818378320
I0526 15:44:49.475390 30701 layer_factory.hpp:77] Creating layer layer_128_1_bn1
I0526 15:44:49.475395 30701 net.cpp:84] Creating Layer layer_128_1_bn1
I0526 15:44:49.475400 30701 net.cpp:406] layer_128_1_bn1 <- layer_64_3_sum
I0526 15:44:49.475406 30701 net.cpp:380] layer_128_1_bn1 -> layer_128_1_bn1
I0526 15:44:49.475565 30701 net.cpp:122] Setting up layer_128_1_bn1
I0526 15:44:49.475574 30701 net.cpp:129] Top shape: 20 256 56 56 (16056320)
I0526 15:44:49.475579 30701 net.cpp:137] Memory required for data: 1882603600
I0526 15:44:49.475594 30701 layer_factory.hpp:77] Creating layer layer_128_1_scale1
I0526 15:44:49.475601 30701 net.cpp:84] Creating Layer layer_128_1_scale1
I0526 15:44:49.475606 30701 net.cpp:406] layer_128_1_scale1 <- layer_128_1_bn1
I0526 15:44:49.475611 30701 net.cpp:367] layer_128_1_scale1 -> layer_128_1_bn1 (in-place)
I0526 15:44:49.475648 30701 layer_factory.hpp:77] Creating layer layer_128_1_scale1
I0526 15:44:49.475747 30701 net.cpp:122] Setting up layer_128_1_scale1
I0526 15:44:49.475755 30701 net.cpp:129] Top shape: 20 256 56 56 (16056320)
I0526 15:44:49.475759 30701 net.cpp:137] Memory required for data: 1946828880
I0526 15:44:49.475765 30701 layer_factory.hpp:77] Creating layer layer_128_1_relu1
I0526 15:44:49.475771 30701 net.cpp:84] Creating Layer layer_128_1_relu1
I0526 15:44:49.475775 30701 net.cpp:406] layer_128_1_relu1 <- layer_128_1_bn1
I0526 15:44:49.475781 30701 net.cpp:367] layer_128_1_relu1 -> layer_128_1_bn1 (in-place)
I0526 15:44:49.475927 30701 net.cpp:122] Setting up layer_128_1_relu1
I0526 15:44:49.475936 30701 net.cpp:129] Top shape: 20 256 56 56 (16056320)
I0526 15:44:49.475940 30701 net.cpp:137] Memory required for data: 2011054160
I0526 15:44:49.475944 30701 layer_factory.hpp:77] Creating layer layer_128_1_bn1_layer_128_1_relu1_0_split
I0526 15:44:49.475955 30701 net.cpp:84] Creating Layer layer_128_1_bn1_layer_128_1_relu1_0_split
I0526 15:44:49.475960 30701 net.cpp:406] layer_128_1_bn1_layer_128_1_relu1_0_split <- layer_128_1_bn1
I0526 15:44:49.475966 30701 net.cpp:380] layer_128_1_bn1_layer_128_1_relu1_0_split -> layer_128_1_bn1_layer_128_1_relu1_0_split_0
I0526 15:44:49.475973 30701 net.cpp:380] layer_128_1_bn1_layer_128_1_relu1_0_split -> layer_128_1_bn1_layer_128_1_relu1_0_split_1
I0526 15:44:49.476009 30701 net.cpp:122] Setting up layer_128_1_bn1_layer_128_1_relu1_0_split
I0526 15:44:49.476016 30701 net.cpp:129] Top shape: 20 256 56 56 (16056320)
I0526 15:44:49.476030 30701 net.cpp:129] Top shape: 20 256 56 56 (16056320)
I0526 15:44:49.476033 30701 net.cpp:137] Memory required for data: 2139504720
I0526 15:44:49.476037 30701 layer_factory.hpp:77] Creating layer layer_128_1_conv1
I0526 15:44:49.476047 30701 net.cpp:84] Creating Layer layer_128_1_conv1
I0526 15:44:49.476050 30701 net.cpp:406] layer_128_1_conv1 <- layer_128_1_bn1_layer_128_1_relu1_0_split_0
I0526 15:44:49.476058 30701 net.cpp:380] layer_128_1_conv1 -> layer_128_1_conv1
I0526 15:44:49.477500 30701 net.cpp:122] Setting up layer_128_1_conv1
I0526 15:44:49.477514 30701 net.cpp:129] Top shape: 20 128 56 56 (8028160)
I0526 15:44:49.477519 30701 net.cpp:137] Memory required for data: 2171617360
I0526 15:44:49.477524 30701 layer_factory.hpp:77] Creating layer layer_128_1_bn2
I0526 15:44:49.477530 30701 net.cpp:84] Creating Layer layer_128_1_bn2
I0526 15:44:49.477535 30701 net.cpp:406] layer_128_1_bn2 <- layer_128_1_conv1
I0526 15:44:49.477540 30701 net.cpp:367] layer_128_1_bn2 -> layer_128_1_conv1 (in-place)
I0526 15:44:49.477697 30701 net.cpp:122] Setting up layer_128_1_bn2
I0526 15:44:49.477705 30701 net.cpp:129] Top shape: 20 128 56 56 (8028160)
I0526 15:44:49.477708 30701 net.cpp:137] Memory required for data: 2203730000
I0526 15:44:49.477715 30701 layer_factory.hpp:77] Creating layer layer_128_1_scale2
I0526 15:44:49.477722 30701 net.cpp:84] Creating Layer layer_128_1_scale2
I0526 15:44:49.477726 30701 net.cpp:406] layer_128_1_scale2 <- layer_128_1_conv1
I0526 15:44:49.477732 30701 net.cpp:367] layer_128_1_scale2 -> layer_128_1_conv1 (in-place)
I0526 15:44:49.477767 30701 layer_factory.hpp:77] Creating layer layer_128_1_scale2
I0526 15:44:49.477861 30701 net.cpp:122] Setting up layer_128_1_scale2
I0526 15:44:49.477871 30701 net.cpp:129] Top shape: 20 128 56 56 (8028160)
I0526 15:44:49.477875 30701 net.cpp:137] Memory required for data: 2235842640
I0526 15:44:49.477881 30701 layer_factory.hpp:77] Creating layer layer_128_1_relu2
I0526 15:44:49.477887 30701 net.cpp:84] Creating Layer layer_128_1_relu2
I0526 15:44:49.477891 30701 net.cpp:406] layer_128_1_relu2 <- layer_128_1_conv1
I0526 15:44:49.477895 30701 net.cpp:367] layer_128_1_relu2 -> layer_128_1_conv1 (in-place)
I0526 15:44:49.478051 30701 net.cpp:122] Setting up layer_128_1_relu2
I0526 15:44:49.478060 30701 net.cpp:129] Top shape: 20 128 56 56 (8028160)
I0526 15:44:49.478065 30701 net.cpp:137] Memory required for data: 2267955280
I0526 15:44:49.478067 30701 layer_factory.hpp:77] Creating layer layer_128_1_conv2
I0526 15:44:49.478076 30701 net.cpp:84] Creating Layer layer_128_1_conv2
I0526 15:44:49.478081 30701 net.cpp:406] layer_128_1_conv2 <- layer_128_1_conv1
I0526 15:44:49.478088 30701 net.cpp:380] layer_128_1_conv2 -> layer_128_1_conv2
I0526 15:44:49.481600 30701 net.cpp:122] Setting up layer_128_1_conv2
I0526 15:44:49.481616 30701 net.cpp:129] Top shape: 20 128 28 28 (2007040)
I0526 15:44:49.481619 30701 net.cpp:137] Memory required for data: 2275983440
I0526 15:44:49.481626 30701 layer_factory.hpp:77] Creating layer layer_128_1_bn3
I0526 15:44:49.481632 30701 net.cpp:84] Creating Layer layer_128_1_bn3
I0526 15:44:49.481637 30701 net.cpp:406] layer_128_1_bn3 <- layer_128_1_conv2
I0526 15:44:49.481644 30701 net.cpp:367] layer_128_1_bn3 -> layer_128_1_conv2 (in-place)
I0526 15:44:49.482547 30701 net.cpp:122] Setting up layer_128_1_bn3
I0526 15:44:49.482560 30701 net.cpp:129] Top shape: 20 128 28 28 (2007040)
I0526 15:44:49.482563 30701 net.cpp:137] Memory required for data: 2284011600
I0526 15:44:49.482571 30701 layer_factory.hpp:77] Creating layer layer_128_1_scale3
I0526 15:44:49.482579 30701 net.cpp:84] Creating Layer layer_128_1_scale3
I0526 15:44:49.482584 30701 net.cpp:406] layer_128_1_scale3 <- layer_128_1_conv2
I0526 15:44:49.482591 30701 net.cpp:367] layer_128_1_scale3 -> layer_128_1_conv2 (in-place)
I0526 15:44:49.482632 30701 layer_factory.hpp:77] Creating layer layer_128_1_scale3
I0526 15:44:49.482727 30701 net.cpp:122] Setting up layer_128_1_scale3
I0526 15:44:49.482736 30701 net.cpp:129] Top shape: 20 128 28 28 (2007040)
I0526 15:44:49.482751 30701 net.cpp:137] Memory required for data: 2292039760
I0526 15:44:49.482758 30701 layer_factory.hpp:77] Creating layer layer_128_1_relu3
I0526 15:44:49.482764 30701 net.cpp:84] Creating Layer layer_128_1_relu3
I0526 15:44:49.482766 30701 net.cpp:406] layer_128_1_relu3 <- layer_128_1_conv2
I0526 15:44:49.482771 30701 net.cpp:367] layer_128_1_relu3 -> layer_128_1_conv2 (in-place)
I0526 15:44:49.482944 30701 net.cpp:122] Setting up layer_128_1_relu3
I0526 15:44:49.482954 30701 net.cpp:129] Top shape: 20 128 28 28 (2007040)
I0526 15:44:49.482956 30701 net.cpp:137] Memory required for data: 2300067920
I0526 15:44:49.482960 30701 layer_factory.hpp:77] Creating layer layer_128_1_conv3
I0526 15:44:49.482970 30701 net.cpp:84] Creating Layer layer_128_1_conv3
I0526 15:44:49.482975 30701 net.cpp:406] layer_128_1_conv3 <- layer_128_1_conv2
I0526 15:44:49.482982 30701 net.cpp:380] layer_128_1_conv3 -> layer_128_1_conv3
I0526 15:44:49.484912 30701 net.cpp:122] Setting up layer_128_1_conv3
I0526 15:44:49.484925 30701 net.cpp:129] Top shape: 20 512 28 28 (8028160)
I0526 15:44:49.484928 30701 net.cpp:137] Memory required for data: 2332180560
I0526 15:44:49.484933 30701 layer_factory.hpp:77] Creating layer layer_128_1_conv_expand
I0526 15:44:49.484944 30701 net.cpp:84] Creating Layer layer_128_1_conv_expand
I0526 15:44:49.484948 30701 net.cpp:406] layer_128_1_conv_expand <- layer_128_1_bn1_layer_128_1_relu1_0_split_1
I0526 15:44:49.484956 30701 net.cpp:380] layer_128_1_conv_expand -> layer_128_1_conv_expand
I0526 15:44:49.487458 30701 net.cpp:122] Setting up layer_128_1_conv_expand
I0526 15:44:49.487471 30701 net.cpp:129] Top shape: 20 512 28 28 (8028160)
I0526 15:44:49.487475 30701 net.cpp:137] Memory required for data: 2364293200
I0526 15:44:49.487481 30701 layer_factory.hpp:77] Creating layer layer_128_1_sum
I0526 15:44:49.487488 30701 net.cpp:84] Creating Layer layer_128_1_sum
I0526 15:44:49.487493 30701 net.cpp:406] layer_128_1_sum <- layer_128_1_conv3
I0526 15:44:49.487498 30701 net.cpp:406] layer_128_1_sum <- layer_128_1_conv_expand
I0526 15:44:49.487506 30701 net.cpp:380] layer_128_1_sum -> layer_128_1_sum
I0526 15:44:49.487532 30701 net.cpp:122] Setting up layer_128_1_sum
I0526 15:44:49.487540 30701 net.cpp:129] Top shape: 20 512 28 28 (8028160)
I0526 15:44:49.487543 30701 net.cpp:137] Memory required for data: 2396405840
I0526 15:44:49.487547 30701 layer_factory.hpp:77] Creating layer layer_128_1_sum_layer_128_1_sum_0_split
I0526 15:44:49.487552 30701 net.cpp:84] Creating Layer layer_128_1_sum_layer_128_1_sum_0_split
I0526 15:44:49.487555 30701 net.cpp:406] layer_128_1_sum_layer_128_1_sum_0_split <- layer_128_1_sum
I0526 15:44:49.487561 30701 net.cpp:380] layer_128_1_sum_layer_128_1_sum_0_split -> layer_128_1_sum_layer_128_1_sum_0_split_0
I0526 15:44:49.487568 30701 net.cpp:380] layer_128_1_sum_layer_128_1_sum_0_split -> layer_128_1_sum_layer_128_1_sum_0_split_1
I0526 15:44:49.487601 30701 net.cpp:122] Setting up layer_128_1_sum_layer_128_1_sum_0_split
I0526 15:44:49.487607 30701 net.cpp:129] Top shape: 20 512 28 28 (8028160)
I0526 15:44:49.487613 30701 net.cpp:129] Top shape: 20 512 28 28 (8028160)
I0526 15:44:49.487617 30701 net.cpp:137] Memory required for data: 2460631120
I0526 15:44:49.487619 30701 layer_factory.hpp:77] Creating layer layer_128_2_bn1
I0526 15:44:49.487637 30701 net.cpp:84] Creating Layer layer_128_2_bn1
I0526 15:44:49.487642 30701 net.cpp:406] layer_128_2_bn1 <- layer_128_1_sum_layer_128_1_sum_0_split_0
I0526 15:44:49.487646 30701 net.cpp:380] layer_128_2_bn1 -> layer_128_2_bn1
I0526 15:44:49.487805 30701 net.cpp:122] Setting up layer_128_2_bn1
I0526 15:44:49.487813 30701 net.cpp:129] Top shape: 20 512 28 28 (8028160)
I0526 15:44:49.487818 30701 net.cpp:137] Memory required for data: 2492743760
I0526 15:44:49.487825 30701 layer_factory.hpp:77] Creating layer layer_128_2_scale1
I0526 15:44:49.487833 30701 net.cpp:84] Creating Layer layer_128_2_scale1
I0526 15:44:49.487836 30701 net.cpp:406] layer_128_2_scale1 <- layer_128_2_bn1
I0526 15:44:49.487843 30701 net.cpp:367] layer_128_2_scale1 -> layer_128_2_bn1 (in-place)
I0526 15:44:49.487891 30701 layer_factory.hpp:77] Creating layer layer_128_2_scale1
I0526 15:44:49.488003 30701 net.cpp:122] Setting up layer_128_2_scale1
I0526 15:44:49.488013 30701 net.cpp:129] Top shape: 20 512 28 28 (8028160)
I0526 15:44:49.488015 30701 net.cpp:137] Memory required for data: 2524856400
I0526 15:44:49.488021 30701 layer_factory.hpp:77] Creating layer layer_128_2_relu1
I0526 15:44:49.488028 30701 net.cpp:84] Creating Layer layer_128_2_relu1
I0526 15:44:49.488031 30701 net.cpp:406] layer_128_2_relu1 <- layer_128_2_bn1
I0526 15:44:49.488037 30701 net.cpp:367] layer_128_2_relu1 -> layer_128_2_bn1 (in-place)
I0526 15:44:49.488195 30701 net.cpp:122] Setting up layer_128_2_relu1
I0526 15:44:49.488204 30701 net.cpp:129] Top shape: 20 512 28 28 (8028160)
I0526 15:44:49.488209 30701 net.cpp:137] Memory required for data: 2556969040
I0526 15:44:49.488212 30701 layer_factory.hpp:77] Creating layer layer_128_2_conv1
I0526 15:44:49.488224 30701 net.cpp:84] Creating Layer layer_128_2_conv1
I0526 15:44:49.488229 30701 net.cpp:406] layer_128_2_conv1 <- layer_128_2_bn1
I0526 15:44:49.488235 30701 net.cpp:380] layer_128_2_conv1 -> layer_128_2_conv1
I0526 15:44:49.489982 30701 net.cpp:122] Setting up layer_128_2_conv1
I0526 15:44:49.489995 30701 net.cpp:129] Top shape: 20 128 28 28 (2007040)
I0526 15:44:49.489998 30701 net.cpp:137] Memory required for data: 2564997200
I0526 15:44:49.490003 30701 layer_factory.hpp:77] Creating layer layer_128_2_bn2
I0526 15:44:49.490011 30701 net.cpp:84] Creating Layer layer_128_2_bn2
I0526 15:44:49.490016 30701 net.cpp:406] layer_128_2_bn2 <- layer_128_2_conv1
I0526 15:44:49.490022 30701 net.cpp:367] layer_128_2_bn2 -> layer_128_2_conv1 (in-place)
I0526 15:44:49.490181 30701 net.cpp:122] Setting up layer_128_2_bn2
I0526 15:44:49.490190 30701 net.cpp:129] Top shape: 20 128 28 28 (2007040)
I0526 15:44:49.490193 30701 net.cpp:137] Memory required for data: 2573025360
I0526 15:44:49.490201 30701 layer_factory.hpp:77] Creating layer layer_128_2_scale2
I0526 15:44:49.490209 30701 net.cpp:84] Creating Layer layer_128_2_scale2
I0526 15:44:49.490213 30701 net.cpp:406] layer_128_2_scale2 <- layer_128_2_conv1
I0526 15:44:49.490218 30701 net.cpp:367] layer_128_2_scale2 -> layer_128_2_conv1 (in-place)
I0526 15:44:49.490255 30701 layer_factory.hpp:77] Creating layer layer_128_2_scale2
I0526 15:44:49.490348 30701 net.cpp:122] Setting up layer_128_2_scale2
I0526 15:44:49.490357 30701 net.cpp:129] Top shape: 20 128 28 28 (2007040)
I0526 15:44:49.490360 30701 net.cpp:137] Memory required for data: 2581053520
I0526 15:44:49.490366 30701 layer_factory.hpp:77] Creating layer layer_128_2_relu2
I0526 15:44:49.490373 30701 net.cpp:84] Creating Layer layer_128_2_relu2
I0526 15:44:49.490377 30701 net.cpp:406] layer_128_2_relu2 <- layer_128_2_conv1
I0526 15:44:49.490383 30701 net.cpp:367] layer_128_2_relu2 -> layer_128_2_conv1 (in-place)
I0526 15:44:49.490530 30701 net.cpp:122] Setting up layer_128_2_relu2
I0526 15:44:49.490540 30701 net.cpp:129] Top shape: 20 128 28 28 (2007040)
I0526 15:44:49.490545 30701 net.cpp:137] Memory required for data: 2589081680
I0526 15:44:49.490547 30701 layer_factory.hpp:77] Creating layer layer_128_2_conv2
I0526 15:44:49.490556 30701 net.cpp:84] Creating Layer layer_128_2_conv2
I0526 15:44:49.490561 30701 net.cpp:406] layer_128_2_conv2 <- layer_128_2_conv1
I0526 15:44:49.490568 30701 net.cpp:380] layer_128_2_conv2 -> layer_128_2_conv2
I0526 15:44:49.494302 30701 net.cpp:122] Setting up layer_128_2_conv2
I0526 15:44:49.494316 30701 net.cpp:129] Top shape: 20 128 28 28 (2007040)
I0526 15:44:49.494321 30701 net.cpp:137] Memory required for data: 2597109840
I0526 15:44:49.494326 30701 layer_factory.hpp:77] Creating layer layer_128_2_bn3
I0526 15:44:49.494334 30701 net.cpp:84] Creating Layer layer_128_2_bn3
I0526 15:44:49.494339 30701 net.cpp:406] layer_128_2_bn3 <- layer_128_2_conv2
I0526 15:44:49.494344 30701 net.cpp:367] layer_128_2_bn3 -> layer_128_2_conv2 (in-place)
I0526 15:44:49.494514 30701 net.cpp:122] Setting up layer_128_2_bn3
I0526 15:44:49.494524 30701 net.cpp:129] Top shape: 20 128 28 28 (2007040)
I0526 15:44:49.494536 30701 net.cpp:137] Memory required for data: 2605138000
I0526 15:44:49.494544 30701 layer_factory.hpp:77] Creating layer layer_128_2_scale3
I0526 15:44:49.494551 30701 net.cpp:84] Creating Layer layer_128_2_scale3
I0526 15:44:49.494555 30701 net.cpp:406] layer_128_2_scale3 <- layer_128_2_conv2
I0526 15:44:49.494560 30701 net.cpp:367] layer_128_2_scale3 -> layer_128_2_conv2 (in-place)
I0526 15:44:49.494601 30701 layer_factory.hpp:77] Creating layer layer_128_2_scale3
I0526 15:44:49.494699 30701 net.cpp:122] Setting up layer_128_2_scale3
I0526 15:44:49.494707 30701 net.cpp:129] Top shape: 20 128 28 28 (2007040)
I0526 15:44:49.494710 30701 net.cpp:137] Memory required for data: 2613166160
I0526 15:44:49.494716 30701 layer_factory.hpp:77] Creating layer layer_128_2_relu3
I0526 15:44:49.494722 30701 net.cpp:84] Creating Layer layer_128_2_relu3
I0526 15:44:49.494726 30701 net.cpp:406] layer_128_2_relu3 <- layer_128_2_conv2
I0526 15:44:49.494732 30701 net.cpp:367] layer_128_2_relu3 -> layer_128_2_conv2 (in-place)
I0526 15:44:49.495357 30701 net.cpp:122] Setting up layer_128_2_relu3
I0526 15:44:49.495368 30701 net.cpp:129] Top shape: 20 128 28 28 (2007040)
I0526 15:44:49.495373 30701 net.cpp:137] Memory required for data: 2621194320
I0526 15:44:49.495375 30701 layer_factory.hpp:77] Creating layer layer_128_2_conv3
I0526 15:44:49.495386 30701 net.cpp:84] Creating Layer layer_128_2_conv3
I0526 15:44:49.495391 30701 net.cpp:406] layer_128_2_conv3 <- layer_128_2_conv2
I0526 15:44:49.495398 30701 net.cpp:380] layer_128_2_conv3 -> layer_128_2_conv3
I0526 15:44:49.496687 30701 net.cpp:122] Setting up layer_128_2_conv3
I0526 15:44:49.496700 30701 net.cpp:129] Top shape: 20 512 28 28 (8028160)
I0526 15:44:49.496702 30701 net.cpp:137] Memory required for data: 2653306960
I0526 15:44:49.496707 30701 layer_factory.hpp:77] Creating layer layer_128_2_sum
I0526 15:44:49.496714 30701 net.cpp:84] Creating Layer layer_128_2_sum
I0526 15:44:49.496718 30701 net.cpp:406] layer_128_2_sum <- layer_128_2_conv3
I0526 15:44:49.496722 30701 net.cpp:406] layer_128_2_sum <- layer_128_1_sum_layer_128_1_sum_0_split_1
I0526 15:44:49.496731 30701 net.cpp:380] layer_128_2_sum -> layer_128_2_sum
I0526 15:44:49.496757 30701 net.cpp:122] Setting up layer_128_2_sum
I0526 15:44:49.496765 30701 net.cpp:129] Top shape: 20 512 28 28 (8028160)
I0526 15:44:49.496769 30701 net.cpp:137] Memory required for data: 2685419600
I0526 15:44:49.496773 30701 layer_factory.hpp:77] Creating layer layer_128_2_sum_layer_128_2_sum_0_split
I0526 15:44:49.496778 30701 net.cpp:84] Creating Layer layer_128_2_sum_layer_128_2_sum_0_split
I0526 15:44:49.496781 30701 net.cpp:406] layer_128_2_sum_layer_128_2_sum_0_split <- layer_128_2_sum
I0526 15:44:49.496788 30701 net.cpp:380] layer_128_2_sum_layer_128_2_sum_0_split -> layer_128_2_sum_layer_128_2_sum_0_split_0
I0526 15:44:49.496795 30701 net.cpp:380] layer_128_2_sum_layer_128_2_sum_0_split -> layer_128_2_sum_layer_128_2_sum_0_split_1
I0526 15:44:49.496829 30701 net.cpp:122] Setting up layer_128_2_sum_layer_128_2_sum_0_split
I0526 15:44:49.496835 30701 net.cpp:129] Top shape: 20 512 28 28 (8028160)
I0526 15:44:49.496840 30701 net.cpp:129] Top shape: 20 512 28 28 (8028160)
I0526 15:44:49.496843 30701 net.cpp:137] Memory required for data: 2749644880
I0526 15:44:49.496846 30701 layer_factory.hpp:77] Creating layer layer_128_3_bn1
I0526 15:44:49.496853 30701 net.cpp:84] Creating Layer layer_128_3_bn1
I0526 15:44:49.496857 30701 net.cpp:406] layer_128_3_bn1 <- layer_128_2_sum_layer_128_2_sum_0_split_0
I0526 15:44:49.496865 30701 net.cpp:380] layer_128_3_bn1 -> layer_128_3_bn1
I0526 15:44:49.497026 30701 net.cpp:122] Setting up layer_128_3_bn1
I0526 15:44:49.497035 30701 net.cpp:129] Top shape: 20 512 28 28 (8028160)
I0526 15:44:49.497040 30701 net.cpp:137] Memory required for data: 2781757520
I0526 15:44:49.497046 30701 layer_factory.hpp:77] Creating layer layer_128_3_scale1
I0526 15:44:49.497052 30701 net.cpp:84] Creating Layer layer_128_3_scale1
I0526 15:44:49.497057 30701 net.cpp:406] layer_128_3_scale1 <- layer_128_3_bn1
I0526 15:44:49.497071 30701 net.cpp:367] layer_128_3_scale1 -> layer_128_3_bn1 (in-place)
I0526 15:44:49.497112 30701 layer_factory.hpp:77] Creating layer layer_128_3_scale1
I0526 15:44:49.497208 30701 net.cpp:122] Setting up layer_128_3_scale1
I0526 15:44:49.497217 30701 net.cpp:129] Top shape: 20 512 28 28 (8028160)
I0526 15:44:49.497221 30701 net.cpp:137] Memory required for data: 2813870160
I0526 15:44:49.497227 30701 layer_factory.hpp:77] Creating layer layer_128_3_relu1
I0526 15:44:49.497233 30701 net.cpp:84] Creating Layer layer_128_3_relu1
I0526 15:44:49.497237 30701 net.cpp:406] layer_128_3_relu1 <- layer_128_3_bn1
I0526 15:44:49.497242 30701 net.cpp:367] layer_128_3_relu1 -> layer_128_3_bn1 (in-place)
I0526 15:44:49.497871 30701 net.cpp:122] Setting up layer_128_3_relu1
I0526 15:44:49.497882 30701 net.cpp:129] Top shape: 20 512 28 28 (8028160)
I0526 15:44:49.497886 30701 net.cpp:137] Memory required for data: 2845982800
I0526 15:44:49.497890 30701 layer_factory.hpp:77] Creating layer layer_128_3_conv1
I0526 15:44:49.497900 30701 net.cpp:84] Creating Layer layer_128_3_conv1
I0526 15:44:49.497905 30701 net.cpp:406] layer_128_3_conv1 <- layer_128_3_bn1
I0526 15:44:49.497911 30701 net.cpp:380] layer_128_3_conv1 -> layer_128_3_conv1
I0526 15:44:49.500386 30701 net.cpp:122] Setting up layer_128_3_conv1
I0526 15:44:49.500401 30701 net.cpp:129] Top shape: 20 128 28 28 (2007040)
I0526 15:44:49.500406 30701 net.cpp:137] Memory required for data: 2854010960
I0526 15:44:49.500411 30701 layer_factory.hpp:77] Creating layer layer_128_3_bn2
I0526 15:44:49.500417 30701 net.cpp:84] Creating Layer layer_128_3_bn2
I0526 15:44:49.500422 30701 net.cpp:406] layer_128_3_bn2 <- layer_128_3_conv1
I0526 15:44:49.500428 30701 net.cpp:367] layer_128_3_bn2 -> layer_128_3_conv1 (in-place)
I0526 15:44:49.500597 30701 net.cpp:122] Setting up layer_128_3_bn2
I0526 15:44:49.500605 30701 net.cpp:129] Top shape: 20 128 28 28 (2007040)
I0526 15:44:49.500608 30701 net.cpp:137] Memory required for data: 2862039120
I0526 15:44:49.500617 30701 layer_factory.hpp:77] Creating layer layer_128_3_scale2
I0526 15:44:49.500622 30701 net.cpp:84] Creating Layer layer_128_3_scale2
I0526 15:44:49.500627 30701 net.cpp:406] layer_128_3_scale2 <- layer_128_3_conv1
I0526 15:44:49.500633 30701 net.cpp:367] layer_128_3_scale2 -> layer_128_3_conv1 (in-place)
I0526 15:44:49.500669 30701 layer_factory.hpp:77] Creating layer layer_128_3_scale2
I0526 15:44:49.500766 30701 net.cpp:122] Setting up layer_128_3_scale2
I0526 15:44:49.500775 30701 net.cpp:129] Top shape: 20 128 28 28 (2007040)
I0526 15:44:49.500779 30701 net.cpp:137] Memory required for data: 2870067280
I0526 15:44:49.500785 30701 layer_factory.hpp:77] Creating layer layer_128_3_relu2
I0526 15:44:49.500792 30701 net.cpp:84] Creating Layer layer_128_3_relu2
I0526 15:44:49.500795 30701 net.cpp:406] layer_128_3_relu2 <- layer_128_3_conv1
I0526 15:44:49.500800 30701 net.cpp:367] layer_128_3_relu2 -> layer_128_3_conv1 (in-place)
I0526 15:44:49.500952 30701 net.cpp:122] Setting up layer_128_3_relu2
I0526 15:44:49.500962 30701 net.cpp:129] Top shape: 20 128 28 28 (2007040)
I0526 15:44:49.500967 30701 net.cpp:137] Memory required for data: 2878095440
I0526 15:44:49.500969 30701 layer_factory.hpp:77] Creating layer layer_128_3_conv2
I0526 15:44:49.500978 30701 net.cpp:84] Creating Layer layer_128_3_conv2
I0526 15:44:49.500983 30701 net.cpp:406] layer_128_3_conv2 <- layer_128_3_conv1
I0526 15:44:49.500990 30701 net.cpp:380] layer_128_3_conv2 -> layer_128_3_conv2
I0526 15:44:49.504004 30701 net.cpp:122] Setting up layer_128_3_conv2
I0526 15:44:49.504017 30701 net.cpp:129] Top shape: 20 128 28 28 (2007040)
I0526 15:44:49.504021 30701 net.cpp:137] Memory required for data: 2886123600
I0526 15:44:49.504026 30701 layer_factory.hpp:77] Creating layer layer_128_3_bn3
I0526 15:44:49.504035 30701 net.cpp:84] Creating Layer layer_128_3_bn3
I0526 15:44:49.504040 30701 net.cpp:406] layer_128_3_bn3 <- layer_128_3_conv2
I0526 15:44:49.504047 30701 net.cpp:367] layer_128_3_bn3 -> layer_128_3_conv2 (in-place)
I0526 15:44:49.504223 30701 net.cpp:122] Setting up layer_128_3_bn3
I0526 15:44:49.504232 30701 net.cpp:129] Top shape: 20 128 28 28 (2007040)
I0526 15:44:49.504236 30701 net.cpp:137] Memory required for data: 2894151760
I0526 15:44:49.504243 30701 layer_factory.hpp:77] Creating layer layer_128_3_scale3
I0526 15:44:49.504251 30701 net.cpp:84] Creating Layer layer_128_3_scale3
I0526 15:44:49.504254 30701 net.cpp:406] layer_128_3_scale3 <- layer_128_3_conv2
I0526 15:44:49.504259 30701 net.cpp:367] layer_128_3_scale3 -> layer_128_3_conv2 (in-place)
I0526 15:44:49.504299 30701 layer_factory.hpp:77] Creating layer layer_128_3_scale3
I0526 15:44:49.504400 30701 net.cpp:122] Setting up layer_128_3_scale3
I0526 15:44:49.504410 30701 net.cpp:129] Top shape: 20 128 28 28 (2007040)
I0526 15:44:49.504413 30701 net.cpp:137] Memory required for data: 2902179920
I0526 15:44:49.504418 30701 layer_factory.hpp:77] Creating layer layer_128_3_relu3
I0526 15:44:49.504427 30701 net.cpp:84] Creating Layer layer_128_3_relu3
I0526 15:44:49.504431 30701 net.cpp:406] layer_128_3_relu3 <- layer_128_3_conv2
I0526 15:44:49.504436 30701 net.cpp:367] layer_128_3_relu3 -> layer_128_3_conv2 (in-place)
I0526 15:44:49.504590 30701 net.cpp:122] Setting up layer_128_3_relu3
I0526 15:44:49.504601 30701 net.cpp:129] Top shape: 20 128 28 28 (2007040)
I0526 15:44:49.504604 30701 net.cpp:137] Memory required for data: 2910208080
I0526 15:44:49.504607 30701 layer_factory.hpp:77] Creating layer layer_128_3_conv3
I0526 15:44:49.504617 30701 net.cpp:84] Creating Layer layer_128_3_conv3
I0526 15:44:49.504621 30701 net.cpp:406] layer_128_3_conv3 <- layer_128_3_conv2
I0526 15:44:49.504628 30701 net.cpp:380] layer_128_3_conv3 -> layer_128_3_conv3
I0526 15:44:49.506384 30701 net.cpp:122] Setting up layer_128_3_conv3
I0526 15:44:49.506397 30701 net.cpp:129] Top shape: 20 512 28 28 (8028160)
I0526 15:44:49.506402 30701 net.cpp:137] Memory required for data: 2942320720
I0526 15:44:49.506407 30701 layer_factory.hpp:77] Creating layer layer_128_3_sum
I0526 15:44:49.506412 30701 net.cpp:84] Creating Layer layer_128_3_sum
I0526 15:44:49.506417 30701 net.cpp:406] layer_128_3_sum <- layer_128_3_conv3
I0526 15:44:49.506420 30701 net.cpp:406] layer_128_3_sum <- layer_128_2_sum_layer_128_2_sum_0_split_1
I0526 15:44:49.506428 30701 net.cpp:380] layer_128_3_sum -> layer_128_3_sum
I0526 15:44:49.506455 30701 net.cpp:122] Setting up layer_128_3_sum
I0526 15:44:49.506463 30701 net.cpp:129] Top shape: 20 512 28 28 (8028160)
I0526 15:44:49.506466 30701 net.cpp:137] Memory required for data: 2974433360
I0526 15:44:49.506469 30701 layer_factory.hpp:77] Creating layer layer_128_3_sum_layer_128_3_sum_0_split
I0526 15:44:49.506475 30701 net.cpp:84] Creating Layer layer_128_3_sum_layer_128_3_sum_0_split
I0526 15:44:49.506479 30701 net.cpp:406] layer_128_3_sum_layer_128_3_sum_0_split <- layer_128_3_sum
I0526 15:44:49.506485 30701 net.cpp:380] layer_128_3_sum_layer_128_3_sum_0_split -> layer_128_3_sum_layer_128_3_sum_0_split_0
I0526 15:44:49.506494 30701 net.cpp:380] layer_128_3_sum_layer_128_3_sum_0_split -> layer_128_3_sum_layer_128_3_sum_0_split_1
I0526 15:44:49.506527 30701 net.cpp:122] Setting up layer_128_3_sum_layer_128_3_sum_0_split
I0526 15:44:49.506534 30701 net.cpp:129] Top shape: 20 512 28 28 (8028160)
I0526 15:44:49.506539 30701 net.cpp:129] Top shape: 20 512 28 28 (8028160)
I0526 15:44:49.506542 30701 net.cpp:137] Memory required for data: 3038658640
I0526 15:44:49.506546 30701 layer_factory.hpp:77] Creating layer layer_128_4_bn1
I0526 15:44:49.506553 30701 net.cpp:84] Creating Layer layer_128_4_bn1
I0526 15:44:49.506557 30701 net.cpp:406] layer_128_4_bn1 <- layer_128_3_sum_layer_128_3_sum_0_split_0
I0526 15:44:49.506563 30701 net.cpp:380] layer_128_4_bn1 -> layer_128_4_bn1
I0526 15:44:49.506731 30701 net.cpp:122] Setting up layer_128_4_bn1
I0526 15:44:49.506739 30701 net.cpp:129] Top shape: 20 512 28 28 (8028160)
I0526 15:44:49.506743 30701 net.cpp:137] Memory required for data: 3070771280
I0526 15:44:49.506750 30701 layer_factory.hpp:77] Creating layer layer_128_4_scale1
I0526 15:44:49.506765 30701 net.cpp:84] Creating Layer layer_128_4_scale1
I0526 15:44:49.506769 30701 net.cpp:406] layer_128_4_scale1 <- layer_128_4_bn1
I0526 15:44:49.506774 30701 net.cpp:367] layer_128_4_scale1 -> layer_128_4_bn1 (in-place)
I0526 15:44:49.506816 30701 layer_factory.hpp:77] Creating layer layer_128_4_scale1
I0526 15:44:49.506916 30701 net.cpp:122] Setting up layer_128_4_scale1
I0526 15:44:49.506924 30701 net.cpp:129] Top shape: 20 512 28 28 (8028160)
I0526 15:44:49.506928 30701 net.cpp:137] Memory required for data: 3102883920
I0526 15:44:49.506934 30701 layer_factory.hpp:77] Creating layer layer_128_4_relu1
I0526 15:44:49.506942 30701 net.cpp:84] Creating Layer layer_128_4_relu1
I0526 15:44:49.506945 30701 net.cpp:406] layer_128_4_relu1 <- layer_128_4_bn1
I0526 15:44:49.506950 30701 net.cpp:367] layer_128_4_relu1 -> layer_128_4_bn1 (in-place)
I0526 15:44:49.507100 30701 net.cpp:122] Setting up layer_128_4_relu1
I0526 15:44:49.507110 30701 net.cpp:129] Top shape: 20 512 28 28 (8028160)
I0526 15:44:49.507113 30701 net.cpp:137] Memory required for data: 3134996560
I0526 15:44:49.507117 30701 layer_factory.hpp:77] Creating layer layer_128_4_conv1
I0526 15:44:49.507127 30701 net.cpp:84] Creating Layer layer_128_4_conv1
I0526 15:44:49.507130 30701 net.cpp:406] layer_128_4_conv1 <- layer_128_4_bn1
I0526 15:44:49.507138 30701 net.cpp:380] layer_128_4_conv1 -> layer_128_4_conv1
I0526 15:44:49.508895 30701 net.cpp:122] Setting up layer_128_4_conv1
I0526 15:44:49.508908 30701 net.cpp:129] Top shape: 20 128 28 28 (2007040)
I0526 15:44:49.508913 30701 net.cpp:137] Memory required for data: 3143024720
I0526 15:44:49.508919 30701 layer_factory.hpp:77] Creating layer layer_128_4_bn2
I0526 15:44:49.508925 30701 net.cpp:84] Creating Layer layer_128_4_bn2
I0526 15:44:49.508929 30701 net.cpp:406] layer_128_4_bn2 <- layer_128_4_conv1
I0526 15:44:49.508936 30701 net.cpp:367] layer_128_4_bn2 -> layer_128_4_conv1 (in-place)
I0526 15:44:49.509102 30701 net.cpp:122] Setting up layer_128_4_bn2
I0526 15:44:49.509111 30701 net.cpp:129] Top shape: 20 128 28 28 (2007040)
I0526 15:44:49.509114 30701 net.cpp:137] Memory required for data: 3151052880
I0526 15:44:49.509121 30701 layer_factory.hpp:77] Creating layer layer_128_4_scale2
I0526 15:44:49.509129 30701 net.cpp:84] Creating Layer layer_128_4_scale2
I0526 15:44:49.509132 30701 net.cpp:406] layer_128_4_scale2 <- layer_128_4_conv1
I0526 15:44:49.509137 30701 net.cpp:367] layer_128_4_scale2 -> layer_128_4_conv1 (in-place)
I0526 15:44:49.509176 30701 layer_factory.hpp:77] Creating layer layer_128_4_scale2
I0526 15:44:49.509272 30701 net.cpp:122] Setting up layer_128_4_scale2
I0526 15:44:49.509282 30701 net.cpp:129] Top shape: 20 128 28 28 (2007040)
I0526 15:44:49.509286 30701 net.cpp:137] Memory required for data: 3159081040
I0526 15:44:49.509292 30701 layer_factory.hpp:77] Creating layer layer_128_4_relu2
I0526 15:44:49.509299 30701 net.cpp:84] Creating Layer layer_128_4_relu2
I0526 15:44:49.509302 30701 net.cpp:406] layer_128_4_relu2 <- layer_128_4_conv1
I0526 15:44:49.509307 30701 net.cpp:367] layer_128_4_relu2 -> layer_128_4_conv1 (in-place)
I0526 15:44:49.509464 30701 net.cpp:122] Setting up layer_128_4_relu2
I0526 15:44:49.509472 30701 net.cpp:129] Top shape: 20 128 28 28 (2007040)
I0526 15:44:49.509476 30701 net.cpp:137] Memory required for data: 3167109200
I0526 15:44:49.509480 30701 layer_factory.hpp:77] Creating layer layer_128_4_conv2
I0526 15:44:49.509490 30701 net.cpp:84] Creating Layer layer_128_4_conv2
I0526 15:44:49.509495 30701 net.cpp:406] layer_128_4_conv2 <- layer_128_4_conv1
I0526 15:44:49.509502 30701 net.cpp:380] layer_128_4_conv2 -> layer_128_4_conv2
I0526 15:44:49.512537 30701 net.cpp:122] Setting up layer_128_4_conv2
I0526 15:44:49.512549 30701 net.cpp:129] Top shape: 20 128 28 28 (2007040)
I0526 15:44:49.512553 30701 net.cpp:137] Memory required for data: 3175137360
I0526 15:44:49.512573 30701 layer_factory.hpp:77] Creating layer layer_128_4_bn3
I0526 15:44:49.512581 30701 net.cpp:84] Creating Layer layer_128_4_bn3
I0526 15:44:49.512585 30701 net.cpp:406] layer_128_4_bn3 <- layer_128_4_conv2
I0526 15:44:49.512601 30701 net.cpp:367] layer_128_4_bn3 -> layer_128_4_conv2 (in-place)
I0526 15:44:49.512769 30701 net.cpp:122] Setting up layer_128_4_bn3
I0526 15:44:49.512778 30701 net.cpp:129] Top shape: 20 128 28 28 (2007040)
I0526 15:44:49.512781 30701 net.cpp:137] Memory required for data: 3183165520
I0526 15:44:49.512789 30701 layer_factory.hpp:77] Creating layer layer_128_4_scale3
I0526 15:44:49.512796 30701 net.cpp:84] Creating Layer layer_128_4_scale3
I0526 15:44:49.512801 30701 net.cpp:406] layer_128_4_scale3 <- layer_128_4_conv2
I0526 15:44:49.512806 30701 net.cpp:367] layer_128_4_scale3 -> layer_128_4_conv2 (in-place)
I0526 15:44:49.512845 30701 layer_factory.hpp:77] Creating layer layer_128_4_scale3
I0526 15:44:49.512943 30701 net.cpp:122] Setting up layer_128_4_scale3
I0526 15:44:49.512953 30701 net.cpp:129] Top shape: 20 128 28 28 (2007040)
I0526 15:44:49.512956 30701 net.cpp:137] Memory required for data: 3191193680
I0526 15:44:49.512962 30701 layer_factory.hpp:77] Creating layer layer_128_4_relu3
I0526 15:44:49.512969 30701 net.cpp:84] Creating Layer layer_128_4_relu3
I0526 15:44:49.512972 30701 net.cpp:406] layer_128_4_relu3 <- layer_128_4_conv2
I0526 15:44:49.512979 30701 net.cpp:367] layer_128_4_relu3 -> layer_128_4_conv2 (in-place)
I0526 15:44:49.513609 30701 net.cpp:122] Setting up layer_128_4_relu3
I0526 15:44:49.513622 30701 net.cpp:129] Top shape: 20 128 28 28 (2007040)
I0526 15:44:49.513625 30701 net.cpp:137] Memory required for data: 3199221840
I0526 15:44:49.513629 30701 layer_factory.hpp:77] Creating layer layer_128_4_conv3
I0526 15:44:49.513638 30701 net.cpp:84] Creating Layer layer_128_4_conv3
I0526 15:44:49.513643 30701 net.cpp:406] layer_128_4_conv3 <- layer_128_4_conv2
I0526 15:44:49.513650 30701 net.cpp:380] layer_128_4_conv3 -> layer_128_4_conv3
I0526 15:44:49.514933 30701 net.cpp:122] Setting up layer_128_4_conv3
I0526 15:44:49.514945 30701 net.cpp:129] Top shape: 20 512 28 28 (8028160)
I0526 15:44:49.514948 30701 net.cpp:137] Memory required for data: 3231334480
I0526 15:44:49.514953 30701 layer_factory.hpp:77] Creating layer layer_128_4_sum
I0526 15:44:49.514961 30701 net.cpp:84] Creating Layer layer_128_4_sum
I0526 15:44:49.514964 30701 net.cpp:406] layer_128_4_sum <- layer_128_4_conv3
I0526 15:44:49.514968 30701 net.cpp:406] layer_128_4_sum <- layer_128_3_sum_layer_128_3_sum_0_split_1
I0526 15:44:49.514976 30701 net.cpp:380] layer_128_4_sum -> layer_128_4_sum
I0526 15:44:49.515002 30701 net.cpp:122] Setting up layer_128_4_sum
I0526 15:44:49.515008 30701 net.cpp:129] Top shape: 20 512 28 28 (8028160)
I0526 15:44:49.515012 30701 net.cpp:137] Memory required for data: 3263447120
I0526 15:44:49.515015 30701 layer_factory.hpp:77] Creating layer layer_256_1_bn1
I0526 15:44:49.515022 30701 net.cpp:84] Creating Layer layer_256_1_bn1
I0526 15:44:49.515027 30701 net.cpp:406] layer_256_1_bn1 <- layer_128_4_sum
I0526 15:44:49.515033 30701 net.cpp:380] layer_256_1_bn1 -> layer_256_1_bn1
I0526 15:44:49.515206 30701 net.cpp:122] Setting up layer_256_1_bn1
I0526 15:44:49.515215 30701 net.cpp:129] Top shape: 20 512 28 28 (8028160)
I0526 15:44:49.515219 30701 net.cpp:137] Memory required for data: 3295559760
I0526 15:44:49.515226 30701 layer_factory.hpp:77] Creating layer layer_256_1_scale1
I0526 15:44:49.515233 30701 net.cpp:84] Creating Layer layer_256_1_scale1
I0526 15:44:49.515238 30701 net.cpp:406] layer_256_1_scale1 <- layer_256_1_bn1
I0526 15:44:49.515242 30701 net.cpp:367] layer_256_1_scale1 -> layer_256_1_bn1 (in-place)
I0526 15:44:49.515283 30701 layer_factory.hpp:77] Creating layer layer_256_1_scale1
I0526 15:44:49.515383 30701 net.cpp:122] Setting up layer_256_1_scale1
I0526 15:44:49.515391 30701 net.cpp:129] Top shape: 20 512 28 28 (8028160)
I0526 15:44:49.515394 30701 net.cpp:137] Memory required for data: 3327672400
I0526 15:44:49.515400 30701 layer_factory.hpp:77] Creating layer layer_256_1_relu1
I0526 15:44:49.515408 30701 net.cpp:84] Creating Layer layer_256_1_relu1
I0526 15:44:49.515411 30701 net.cpp:406] layer_256_1_relu1 <- layer_256_1_bn1
I0526 15:44:49.515425 30701 net.cpp:367] layer_256_1_relu1 -> layer_256_1_bn1 (in-place)
I0526 15:44:49.516064 30701 net.cpp:122] Setting up layer_256_1_relu1
I0526 15:44:49.516077 30701 net.cpp:129] Top shape: 20 512 28 28 (8028160)
I0526 15:44:49.516080 30701 net.cpp:137] Memory required for data: 3359785040
I0526 15:44:49.516084 30701 layer_factory.hpp:77] Creating layer layer_256_1_bn1_layer_256_1_relu1_0_split
I0526 15:44:49.516089 30701 net.cpp:84] Creating Layer layer_256_1_bn1_layer_256_1_relu1_0_split
I0526 15:44:49.516093 30701 net.cpp:406] layer_256_1_bn1_layer_256_1_relu1_0_split <- layer_256_1_bn1
I0526 15:44:49.516100 30701 net.cpp:380] layer_256_1_bn1_layer_256_1_relu1_0_split -> layer_256_1_bn1_layer_256_1_relu1_0_split_0
I0526 15:44:49.516108 30701 net.cpp:380] layer_256_1_bn1_layer_256_1_relu1_0_split -> layer_256_1_bn1_layer_256_1_relu1_0_split_1
I0526 15:44:49.516147 30701 net.cpp:122] Setting up layer_256_1_bn1_layer_256_1_relu1_0_split
I0526 15:44:49.516155 30701 net.cpp:129] Top shape: 20 512 28 28 (8028160)
I0526 15:44:49.516160 30701 net.cpp:129] Top shape: 20 512 28 28 (8028160)
I0526 15:44:49.516162 30701 net.cpp:137] Memory required for data: 3424010320
I0526 15:44:49.516165 30701 layer_factory.hpp:77] Creating layer layer_256_1_conv1
I0526 15:44:49.516177 30701 net.cpp:84] Creating Layer layer_256_1_conv1
I0526 15:44:49.516181 30701 net.cpp:406] layer_256_1_conv1 <- layer_256_1_bn1_layer_256_1_relu1_0_split_0
I0526 15:44:49.516188 30701 net.cpp:380] layer_256_1_conv1 -> layer_256_1_conv1
I0526 15:44:49.520293 30701 net.cpp:122] Setting up layer_256_1_conv1
I0526 15:44:49.520313 30701 net.cpp:129] Top shape: 20 256 28 28 (4014080)
I0526 15:44:49.520316 30701 net.cpp:137] Memory required for data: 3440066640
I0526 15:44:49.520323 30701 layer_factory.hpp:77] Creating layer layer_256_1_bn2
I0526 15:44:49.520330 30701 net.cpp:84] Creating Layer layer_256_1_bn2
I0526 15:44:49.520335 30701 net.cpp:406] layer_256_1_bn2 <- layer_256_1_conv1
I0526 15:44:49.520342 30701 net.cpp:367] layer_256_1_bn2 -> layer_256_1_conv1 (in-place)
I0526 15:44:49.520521 30701 net.cpp:122] Setting up layer_256_1_bn2
I0526 15:44:49.520530 30701 net.cpp:129] Top shape: 20 256 28 28 (4014080)
I0526 15:44:49.520534 30701 net.cpp:137] Memory required for data: 3456122960
I0526 15:44:49.520540 30701 layer_factory.hpp:77] Creating layer layer_256_1_scale2
I0526 15:44:49.520548 30701 net.cpp:84] Creating Layer layer_256_1_scale2
I0526 15:44:49.520552 30701 net.cpp:406] layer_256_1_scale2 <- layer_256_1_conv1
I0526 15:44:49.520557 30701 net.cpp:367] layer_256_1_scale2 -> layer_256_1_conv1 (in-place)
I0526 15:44:49.520611 30701 layer_factory.hpp:77] Creating layer layer_256_1_scale2
I0526 15:44:49.520735 30701 net.cpp:122] Setting up layer_256_1_scale2
I0526 15:44:49.520745 30701 net.cpp:129] Top shape: 20 256 28 28 (4014080)
I0526 15:44:49.520747 30701 net.cpp:137] Memory required for data: 3472179280
I0526 15:44:49.520753 30701 layer_factory.hpp:77] Creating layer layer_256_1_relu2
I0526 15:44:49.520762 30701 net.cpp:84] Creating Layer layer_256_1_relu2
I0526 15:44:49.520766 30701 net.cpp:406] layer_256_1_relu2 <- layer_256_1_conv1
I0526 15:44:49.520771 30701 net.cpp:367] layer_256_1_relu2 -> layer_256_1_conv1 (in-place)
I0526 15:44:49.520927 30701 net.cpp:122] Setting up layer_256_1_relu2
I0526 15:44:49.520937 30701 net.cpp:129] Top shape: 20 256 28 28 (4014080)
I0526 15:44:49.520941 30701 net.cpp:137] Memory required for data: 3488235600
I0526 15:44:49.520943 30701 layer_factory.hpp:77] Creating layer layer_256_1_conv2
I0526 15:44:49.520954 30701 net.cpp:84] Creating Layer layer_256_1_conv2
I0526 15:44:49.520957 30701 net.cpp:406] layer_256_1_conv2 <- layer_256_1_conv1
I0526 15:44:49.520964 30701 net.cpp:380] layer_256_1_conv2 -> layer_256_1_conv2
I0526 15:44:49.528755 30701 net.cpp:122] Setting up layer_256_1_conv2
I0526 15:44:49.528771 30701 net.cpp:129] Top shape: 20 256 14 14 (1003520)
I0526 15:44:49.528775 30701 net.cpp:137] Memory required for data: 3492249680
I0526 15:44:49.528781 30701 layer_factory.hpp:77] Creating layer layer_256_1_bn3
I0526 15:44:49.528805 30701 net.cpp:84] Creating Layer layer_256_1_bn3
I0526 15:44:49.528808 30701 net.cpp:406] layer_256_1_bn3 <- layer_256_1_conv2
I0526 15:44:49.528815 30701 net.cpp:367] layer_256_1_bn3 -> layer_256_1_conv2 (in-place)
I0526 15:44:49.528990 30701 net.cpp:122] Setting up layer_256_1_bn3
I0526 15:44:49.528997 30701 net.cpp:129] Top shape: 20 256 14 14 (1003520)
I0526 15:44:49.529001 30701 net.cpp:137] Memory required for data: 3496263760
I0526 15:44:49.529008 30701 layer_factory.hpp:77] Creating layer layer_256_1_scale3
I0526 15:44:49.529016 30701 net.cpp:84] Creating Layer layer_256_1_scale3
I0526 15:44:49.529019 30701 net.cpp:406] layer_256_1_scale3 <- layer_256_1_conv2
I0526 15:44:49.529024 30701 net.cpp:367] layer_256_1_scale3 -> layer_256_1_conv2 (in-place)
I0526 15:44:49.529064 30701 layer_factory.hpp:77] Creating layer layer_256_1_scale3
I0526 15:44:49.529165 30701 net.cpp:122] Setting up layer_256_1_scale3
I0526 15:44:49.529173 30701 net.cpp:129] Top shape: 20 256 14 14 (1003520)
I0526 15:44:49.529176 30701 net.cpp:137] Memory required for data: 3500277840
I0526 15:44:49.529182 30701 layer_factory.hpp:77] Creating layer layer_256_1_relu3
I0526 15:44:49.529191 30701 net.cpp:84] Creating Layer layer_256_1_relu3
I0526 15:44:49.529194 30701 net.cpp:406] layer_256_1_relu3 <- layer_256_1_conv2
I0526 15:44:49.529201 30701 net.cpp:367] layer_256_1_relu3 -> layer_256_1_conv2 (in-place)
I0526 15:44:49.529357 30701 net.cpp:122] Setting up layer_256_1_relu3
I0526 15:44:49.529366 30701 net.cpp:129] Top shape: 20 256 14 14 (1003520)
I0526 15:44:49.529369 30701 net.cpp:137] Memory required for data: 3504291920
I0526 15:44:49.529373 30701 layer_factory.hpp:77] Creating layer layer_256_1_conv3
I0526 15:44:49.529382 30701 net.cpp:84] Creating Layer layer_256_1_conv3
I0526 15:44:49.529386 30701 net.cpp:406] layer_256_1_conv3 <- layer_256_1_conv2
I0526 15:44:49.529393 30701 net.cpp:380] layer_256_1_conv3 -> layer_256_1_conv3
I0526 15:44:49.533160 30701 net.cpp:122] Setting up layer_256_1_conv3
I0526 15:44:49.533174 30701 net.cpp:129] Top shape: 20 1024 14 14 (4014080)
I0526 15:44:49.533176 30701 net.cpp:137] Memory required for data: 3520348240
I0526 15:44:49.533182 30701 layer_factory.hpp:77] Creating layer layer_256_1_conv_expand
I0526 15:44:49.533191 30701 net.cpp:84] Creating Layer layer_256_1_conv_expand
I0526 15:44:49.533197 30701 net.cpp:406] layer_256_1_conv_expand <- layer_256_1_bn1_layer_256_1_relu1_0_split_1
I0526 15:44:49.533205 30701 net.cpp:380] layer_256_1_conv_expand -> layer_256_1_conv_expand
I0526 15:44:49.540228 30701 net.cpp:122] Setting up layer_256_1_conv_expand
I0526 15:44:49.540242 30701 net.cpp:129] Top shape: 20 1024 14 14 (4014080)
I0526 15:44:49.540246 30701 net.cpp:137] Memory required for data: 3536404560
I0526 15:44:49.540251 30701 layer_factory.hpp:77] Creating layer layer_256_1_sum
I0526 15:44:49.540259 30701 net.cpp:84] Creating Layer layer_256_1_sum
I0526 15:44:49.540264 30701 net.cpp:406] layer_256_1_sum <- layer_256_1_conv3
I0526 15:44:49.540268 30701 net.cpp:406] layer_256_1_sum <- layer_256_1_conv_expand
I0526 15:44:49.540274 30701 net.cpp:380] layer_256_1_sum -> layer_256_1_sum
I0526 15:44:49.540304 30701 net.cpp:122] Setting up layer_256_1_sum
I0526 15:44:49.540313 30701 net.cpp:129] Top shape: 20 1024 14 14 (4014080)
I0526 15:44:49.540315 30701 net.cpp:137] Memory required for data: 3552460880
I0526 15:44:49.540319 30701 layer_factory.hpp:77] Creating layer layer_256_1_sum_layer_256_1_sum_0_split
I0526 15:44:49.540324 30701 net.cpp:84] Creating Layer layer_256_1_sum_layer_256_1_sum_0_split
I0526 15:44:49.540329 30701 net.cpp:406] layer_256_1_sum_layer_256_1_sum_0_split <- layer_256_1_sum
I0526 15:44:49.540338 30701 net.cpp:380] layer_256_1_sum_layer_256_1_sum_0_split -> layer_256_1_sum_layer_256_1_sum_0_split_0
I0526 15:44:49.540346 30701 net.cpp:380] layer_256_1_sum_layer_256_1_sum_0_split -> layer_256_1_sum_layer_256_1_sum_0_split_1
I0526 15:44:49.540393 30701 net.cpp:122] Setting up layer_256_1_sum_layer_256_1_sum_0_split
I0526 15:44:49.540401 30701 net.cpp:129] Top shape: 20 1024 14 14 (4014080)
I0526 15:44:49.540416 30701 net.cpp:129] Top shape: 20 1024 14 14 (4014080)
I0526 15:44:49.540421 30701 net.cpp:137] Memory required for data: 3584573520
I0526 15:44:49.540424 30701 layer_factory.hpp:77] Creating layer layer_256_2_bn1
I0526 15:44:49.540431 30701 net.cpp:84] Creating Layer layer_256_2_bn1
I0526 15:44:49.540436 30701 net.cpp:406] layer_256_2_bn1 <- layer_256_1_sum_layer_256_1_sum_0_split_0
I0526 15:44:49.540441 30701 net.cpp:380] layer_256_2_bn1 -> layer_256_2_bn1
I0526 15:44:49.540626 30701 net.cpp:122] Setting up layer_256_2_bn1
I0526 15:44:49.540634 30701 net.cpp:129] Top shape: 20 1024 14 14 (4014080)
I0526 15:44:49.540638 30701 net.cpp:137] Memory required for data: 3600629840
I0526 15:44:49.540645 30701 layer_factory.hpp:77] Creating layer layer_256_2_scale1
I0526 15:44:49.540652 30701 net.cpp:84] Creating Layer layer_256_2_scale1
I0526 15:44:49.540657 30701 net.cpp:406] layer_256_2_scale1 <- layer_256_2_bn1
I0526 15:44:49.540663 30701 net.cpp:367] layer_256_2_scale1 -> layer_256_2_bn1 (in-place)
I0526 15:44:49.540702 30701 layer_factory.hpp:77] Creating layer layer_256_2_scale1
I0526 15:44:49.540808 30701 net.cpp:122] Setting up layer_256_2_scale1
I0526 15:44:49.540817 30701 net.cpp:129] Top shape: 20 1024 14 14 (4014080)
I0526 15:44:49.540822 30701 net.cpp:137] Memory required for data: 3616686160
I0526 15:44:49.540827 30701 layer_factory.hpp:77] Creating layer layer_256_2_relu1
I0526 15:44:49.540833 30701 net.cpp:84] Creating Layer layer_256_2_relu1
I0526 15:44:49.540838 30701 net.cpp:406] layer_256_2_relu1 <- layer_256_2_bn1
I0526 15:44:49.540843 30701 net.cpp:367] layer_256_2_relu1 -> layer_256_2_bn1 (in-place)
I0526 15:44:49.541474 30701 net.cpp:122] Setting up layer_256_2_relu1
I0526 15:44:49.541486 30701 net.cpp:129] Top shape: 20 1024 14 14 (4014080)
I0526 15:44:49.541489 30701 net.cpp:137] Memory required for data: 3632742480
I0526 15:44:49.541493 30701 layer_factory.hpp:77] Creating layer layer_256_2_conv1
I0526 15:44:49.541502 30701 net.cpp:84] Creating Layer layer_256_2_conv1
I0526 15:44:49.541507 30701 net.cpp:406] layer_256_2_conv1 <- layer_256_2_bn1
I0526 15:44:49.541514 30701 net.cpp:380] layer_256_2_conv1 -> layer_256_2_conv1
I0526 15:44:49.545943 30701 net.cpp:122] Setting up layer_256_2_conv1
I0526 15:44:49.545958 30701 net.cpp:129] Top shape: 20 256 14 14 (1003520)
I0526 15:44:49.545964 30701 net.cpp:137] Memory required for data: 3636756560
I0526 15:44:49.545969 30701 layer_factory.hpp:77] Creating layer layer_256_2_bn2
I0526 15:44:49.545976 30701 net.cpp:84] Creating Layer layer_256_2_bn2
I0526 15:44:49.545981 30701 net.cpp:406] layer_256_2_bn2 <- layer_256_2_conv1
I0526 15:44:49.545986 30701 net.cpp:367] layer_256_2_bn2 -> layer_256_2_conv1 (in-place)
I0526 15:44:49.546161 30701 net.cpp:122] Setting up layer_256_2_bn2
I0526 15:44:49.546170 30701 net.cpp:129] Top shape: 20 256 14 14 (1003520)
I0526 15:44:49.546175 30701 net.cpp:137] Memory required for data: 3640770640
I0526 15:44:49.546181 30701 layer_factory.hpp:77] Creating layer layer_256_2_scale2
I0526 15:44:49.546190 30701 net.cpp:84] Creating Layer layer_256_2_scale2
I0526 15:44:49.546195 30701 net.cpp:406] layer_256_2_scale2 <- layer_256_2_conv1
I0526 15:44:49.546200 30701 net.cpp:367] layer_256_2_scale2 -> layer_256_2_conv1 (in-place)
I0526 15:44:49.546239 30701 layer_factory.hpp:77] Creating layer layer_256_2_scale2
I0526 15:44:49.546341 30701 net.cpp:122] Setting up layer_256_2_scale2
I0526 15:44:49.546350 30701 net.cpp:129] Top shape: 20 256 14 14 (1003520)
I0526 15:44:49.546353 30701 net.cpp:137] Memory required for data: 3644784720
I0526 15:44:49.546360 30701 layer_factory.hpp:77] Creating layer layer_256_2_relu2
I0526 15:44:49.546367 30701 net.cpp:84] Creating Layer layer_256_2_relu2
I0526 15:44:49.546371 30701 net.cpp:406] layer_256_2_relu2 <- layer_256_2_conv1
I0526 15:44:49.546380 30701 net.cpp:367] layer_256_2_relu2 -> layer_256_2_conv1 (in-place)
I0526 15:44:49.546528 30701 net.cpp:122] Setting up layer_256_2_relu2
I0526 15:44:49.546538 30701 net.cpp:129] Top shape: 20 256 14 14 (1003520)
I0526 15:44:49.546551 30701 net.cpp:137] Memory required for data: 3648798800
I0526 15:44:49.546555 30701 layer_factory.hpp:77] Creating layer layer_256_2_conv2
I0526 15:44:49.546586 30701 net.cpp:84] Creating Layer layer_256_2_conv2
I0526 15:44:49.546591 30701 net.cpp:406] layer_256_2_conv2 <- layer_256_2_conv1
I0526 15:44:49.546597 30701 net.cpp:380] layer_256_2_conv2 -> layer_256_2_conv2
I0526 15:44:49.554909 30701 net.cpp:122] Setting up layer_256_2_conv2
I0526 15:44:49.554927 30701 net.cpp:129] Top shape: 20 256 14 14 (1003520)
I0526 15:44:49.554930 30701 net.cpp:137] Memory required for data: 3652812880
I0526 15:44:49.554939 30701 layer_factory.hpp:77] Creating layer layer_256_2_bn3
I0526 15:44:49.554946 30701 net.cpp:84] Creating Layer layer_256_2_bn3
I0526 15:44:49.554950 30701 net.cpp:406] layer_256_2_bn3 <- layer_256_2_conv2
I0526 15:44:49.554956 30701 net.cpp:367] layer_256_2_bn3 -> layer_256_2_conv2 (in-place)
I0526 15:44:49.555143 30701 net.cpp:122] Setting up layer_256_2_bn3
I0526 15:44:49.555152 30701 net.cpp:129] Top shape: 20 256 14 14 (1003520)
I0526 15:44:49.555155 30701 net.cpp:137] Memory required for data: 3656826960
I0526 15:44:49.555163 30701 layer_factory.hpp:77] Creating layer layer_256_2_scale3
I0526 15:44:49.555171 30701 net.cpp:84] Creating Layer layer_256_2_scale3
I0526 15:44:49.555176 30701 net.cpp:406] layer_256_2_scale3 <- layer_256_2_conv2
I0526 15:44:49.555181 30701 net.cpp:367] layer_256_2_scale3 -> layer_256_2_conv2 (in-place)
I0526 15:44:49.555224 30701 layer_factory.hpp:77] Creating layer layer_256_2_scale3
I0526 15:44:49.555328 30701 net.cpp:122] Setting up layer_256_2_scale3
I0526 15:44:49.555336 30701 net.cpp:129] Top shape: 20 256 14 14 (1003520)
I0526 15:44:49.555339 30701 net.cpp:137] Memory required for data: 3660841040
I0526 15:44:49.555346 30701 layer_factory.hpp:77] Creating layer layer_256_2_relu3
I0526 15:44:49.555351 30701 net.cpp:84] Creating Layer layer_256_2_relu3
I0526 15:44:49.555354 30701 net.cpp:406] layer_256_2_relu3 <- layer_256_2_conv2
I0526 15:44:49.555361 30701 net.cpp:367] layer_256_2_relu3 -> layer_256_2_conv2 (in-place)
I0526 15:44:49.555521 30701 net.cpp:122] Setting up layer_256_2_relu3
I0526 15:44:49.555531 30701 net.cpp:129] Top shape: 20 256 14 14 (1003520)
I0526 15:44:49.555534 30701 net.cpp:137] Memory required for data: 3664855120
I0526 15:44:49.555537 30701 layer_factory.hpp:77] Creating layer layer_256_2_conv3
I0526 15:44:49.555548 30701 net.cpp:84] Creating Layer layer_256_2_conv3
I0526 15:44:49.555553 30701 net.cpp:406] layer_256_2_conv3 <- layer_256_2_conv2
I0526 15:44:49.555559 30701 net.cpp:380] layer_256_2_conv3 -> layer_256_2_conv3
I0526 15:44:49.559363 30701 net.cpp:122] Setting up layer_256_2_conv3
I0526 15:44:49.559376 30701 net.cpp:129] Top shape: 20 1024 14 14 (4014080)
I0526 15:44:49.559379 30701 net.cpp:137] Memory required for data: 3680911440
I0526 15:44:49.559384 30701 layer_factory.hpp:77] Creating layer layer_256_2_sum
I0526 15:44:49.559394 30701 net.cpp:84] Creating Layer layer_256_2_sum
I0526 15:44:49.559399 30701 net.cpp:406] layer_256_2_sum <- layer_256_2_conv3
I0526 15:44:49.559403 30701 net.cpp:406] layer_256_2_sum <- layer_256_1_sum_layer_256_1_sum_0_split_1
I0526 15:44:49.559409 30701 net.cpp:380] layer_256_2_sum -> layer_256_2_sum
I0526 15:44:49.559439 30701 net.cpp:122] Setting up layer_256_2_sum
I0526 15:44:49.559448 30701 net.cpp:129] Top shape: 20 1024 14 14 (4014080)
I0526 15:44:49.559450 30701 net.cpp:137] Memory required for data: 3696967760
I0526 15:44:49.559454 30701 layer_factory.hpp:77] Creating layer layer_256_2_sum_layer_256_2_sum_0_split
I0526 15:44:49.559459 30701 net.cpp:84] Creating Layer layer_256_2_sum_layer_256_2_sum_0_split
I0526 15:44:49.559464 30701 net.cpp:406] layer_256_2_sum_layer_256_2_sum_0_split <- layer_256_2_sum
I0526 15:44:49.559470 30701 net.cpp:380] layer_256_2_sum_layer_256_2_sum_0_split -> layer_256_2_sum_layer_256_2_sum_0_split_0
I0526 15:44:49.559478 30701 net.cpp:380] layer_256_2_sum_layer_256_2_sum_0_split -> layer_256_2_sum_layer_256_2_sum_0_split_1
I0526 15:44:49.559530 30701 net.cpp:122] Setting up layer_256_2_sum_layer_256_2_sum_0_split
I0526 15:44:49.559537 30701 net.cpp:129] Top shape: 20 1024 14 14 (4014080)
I0526 15:44:49.559542 30701 net.cpp:129] Top shape: 20 1024 14 14 (4014080)
I0526 15:44:49.559545 30701 net.cpp:137] Memory required for data: 3729080400
I0526 15:44:49.559551 30701 layer_factory.hpp:77] Creating layer layer_256_3_bn1
I0526 15:44:49.559557 30701 net.cpp:84] Creating Layer layer_256_3_bn1
I0526 15:44:49.559561 30701 net.cpp:406] layer_256_3_bn1 <- layer_256_2_sum_layer_256_2_sum_0_split_0
I0526 15:44:49.559566 30701 net.cpp:380] layer_256_3_bn1 -> layer_256_3_bn1
I0526 15:44:49.559751 30701 net.cpp:122] Setting up layer_256_3_bn1
I0526 15:44:49.559758 30701 net.cpp:129] Top shape: 20 1024 14 14 (4014080)
I0526 15:44:49.559762 30701 net.cpp:137] Memory required for data: 3745136720
I0526 15:44:49.559770 30701 layer_factory.hpp:77] Creating layer layer_256_3_scale1
I0526 15:44:49.559777 30701 net.cpp:84] Creating Layer layer_256_3_scale1
I0526 15:44:49.559780 30701 net.cpp:406] layer_256_3_scale1 <- layer_256_3_bn1
I0526 15:44:49.559787 30701 net.cpp:367] layer_256_3_scale1 -> layer_256_3_bn1 (in-place)
I0526 15:44:49.559825 30701 layer_factory.hpp:77] Creating layer layer_256_3_scale1
I0526 15:44:49.559934 30701 net.cpp:122] Setting up layer_256_3_scale1
I0526 15:44:49.559943 30701 net.cpp:129] Top shape: 20 1024 14 14 (4014080)
I0526 15:44:49.559947 30701 net.cpp:137] Memory required for data: 3761193040
I0526 15:44:49.559958 30701 layer_factory.hpp:77] Creating layer layer_256_3_relu1
I0526 15:44:49.559963 30701 net.cpp:84] Creating Layer layer_256_3_relu1
I0526 15:44:49.559967 30701 net.cpp:406] layer_256_3_relu1 <- layer_256_3_bn1
I0526 15:44:49.559972 30701 net.cpp:367] layer_256_3_relu1 -> layer_256_3_bn1 (in-place)
I0526 15:44:49.560618 30701 net.cpp:122] Setting up layer_256_3_relu1
I0526 15:44:49.560629 30701 net.cpp:129] Top shape: 20 1024 14 14 (4014080)
I0526 15:44:49.560633 30701 net.cpp:137] Memory required for data: 3777249360
I0526 15:44:49.560637 30701 layer_factory.hpp:77] Creating layer layer_256_3_conv1
I0526 15:44:49.560647 30701 net.cpp:84] Creating Layer layer_256_3_conv1
I0526 15:44:49.560652 30701 net.cpp:406] layer_256_3_conv1 <- layer_256_3_bn1
I0526 15:44:49.560659 30701 net.cpp:380] layer_256_3_conv1 -> layer_256_3_conv1
I0526 15:44:49.564641 30701 net.cpp:122] Setting up layer_256_3_conv1
I0526 15:44:49.564656 30701 net.cpp:129] Top shape: 20 256 14 14 (1003520)
I0526 15:44:49.564661 30701 net.cpp:137] Memory required for data: 3781263440
I0526 15:44:49.564666 30701 layer_factory.hpp:77] Creating layer layer_256_3_bn2
I0526 15:44:49.564672 30701 net.cpp:84] Creating Layer layer_256_3_bn2
I0526 15:44:49.564677 30701 net.cpp:406] layer_256_3_bn2 <- layer_256_3_conv1
I0526 15:44:49.564684 30701 net.cpp:367] layer_256_3_bn2 -> layer_256_3_conv1 (in-place)
I0526 15:44:49.564863 30701 net.cpp:122] Setting up layer_256_3_bn2
I0526 15:44:49.564872 30701 net.cpp:129] Top shape: 20 256 14 14 (1003520)
I0526 15:44:49.564877 30701 net.cpp:137] Memory required for data: 3785277520
I0526 15:44:49.564884 30701 layer_factory.hpp:77] Creating layer layer_256_3_scale2
I0526 15:44:49.564890 30701 net.cpp:84] Creating Layer layer_256_3_scale2
I0526 15:44:49.564895 30701 net.cpp:406] layer_256_3_scale2 <- layer_256_3_conv1
I0526 15:44:49.564901 30701 net.cpp:367] layer_256_3_scale2 -> layer_256_3_conv1 (in-place)
I0526 15:44:49.564940 30701 layer_factory.hpp:77] Creating layer layer_256_3_scale2
I0526 15:44:49.565044 30701 net.cpp:122] Setting up layer_256_3_scale2
I0526 15:44:49.565053 30701 net.cpp:129] Top shape: 20 256 14 14 (1003520)
I0526 15:44:49.565057 30701 net.cpp:137] Memory required for data: 3789291600
I0526 15:44:49.565063 30701 layer_factory.hpp:77] Creating layer layer_256_3_relu2
I0526 15:44:49.565069 30701 net.cpp:84] Creating Layer layer_256_3_relu2
I0526 15:44:49.565073 30701 net.cpp:406] layer_256_3_relu2 <- layer_256_3_conv1
I0526 15:44:49.565078 30701 net.cpp:367] layer_256_3_relu2 -> layer_256_3_conv1 (in-place)
I0526 15:44:49.565732 30701 net.cpp:122] Setting up layer_256_3_relu2
I0526 15:44:49.565743 30701 net.cpp:129] Top shape: 20 256 14 14 (1003520)
I0526 15:44:49.565747 30701 net.cpp:137] Memory required for data: 3793305680
I0526 15:44:49.565752 30701 layer_factory.hpp:77] Creating layer layer_256_3_conv2
I0526 15:44:49.565762 30701 net.cpp:84] Creating Layer layer_256_3_conv2
I0526 15:44:49.565767 30701 net.cpp:406] layer_256_3_conv2 <- layer_256_3_conv1
I0526 15:44:49.565773 30701 net.cpp:380] layer_256_3_conv2 -> layer_256_3_conv2
I0526 15:44:49.574007 30701 net.cpp:122] Setting up layer_256_3_conv2
I0526 15:44:49.574020 30701 net.cpp:129] Top shape: 20 256 14 14 (1003520)
I0526 15:44:49.574024 30701 net.cpp:137] Memory required for data: 3797319760
I0526 15:44:49.574029 30701 layer_factory.hpp:77] Creating layer layer_256_3_bn3
I0526 15:44:49.574038 30701 net.cpp:84] Creating Layer layer_256_3_bn3
I0526 15:44:49.574043 30701 net.cpp:406] layer_256_3_bn3 <- layer_256_3_conv2
I0526 15:44:49.574048 30701 net.cpp:367] layer_256_3_bn3 -> layer_256_3_conv2 (in-place)
I0526 15:44:49.574229 30701 net.cpp:122] Setting up layer_256_3_bn3
I0526 15:44:49.574239 30701 net.cpp:129] Top shape: 20 256 14 14 (1003520)
I0526 15:44:49.574242 30701 net.cpp:137] Memory required for data: 3801333840
I0526 15:44:49.574249 30701 layer_factory.hpp:77] Creating layer layer_256_3_scale3
I0526 15:44:49.574257 30701 net.cpp:84] Creating Layer layer_256_3_scale3
I0526 15:44:49.574261 30701 net.cpp:406] layer_256_3_scale3 <- layer_256_3_conv2
I0526 15:44:49.574266 30701 net.cpp:367] layer_256_3_scale3 -> layer_256_3_conv2 (in-place)
I0526 15:44:49.574309 30701 layer_factory.hpp:77] Creating layer layer_256_3_scale3
I0526 15:44:49.574414 30701 net.cpp:122] Setting up layer_256_3_scale3
I0526 15:44:49.574422 30701 net.cpp:129] Top shape: 20 256 14 14 (1003520)
I0526 15:44:49.574426 30701 net.cpp:137] Memory required for data: 3805347920
I0526 15:44:49.574432 30701 layer_factory.hpp:77] Creating layer layer_256_3_relu3
I0526 15:44:49.574439 30701 net.cpp:84] Creating Layer layer_256_3_relu3
I0526 15:44:49.574442 30701 net.cpp:406] layer_256_3_relu3 <- layer_256_3_conv2
I0526 15:44:49.574448 30701 net.cpp:367] layer_256_3_relu3 -> layer_256_3_conv2 (in-place)
I0526 15:44:49.574606 30701 net.cpp:122] Setting up layer_256_3_relu3
I0526 15:44:49.574617 30701 net.cpp:129] Top shape: 20 256 14 14 (1003520)
I0526 15:44:49.574620 30701 net.cpp:137] Memory required for data: 3809362000
I0526 15:44:49.574625 30701 layer_factory.hpp:77] Creating layer layer_256_3_conv3
I0526 15:44:49.574633 30701 net.cpp:84] Creating Layer layer_256_3_conv3
I0526 15:44:49.574638 30701 net.cpp:406] layer_256_3_conv3 <- layer_256_3_conv2
I0526 15:44:49.574645 30701 net.cpp:380] layer_256_3_conv3 -> layer_256_3_conv3
I0526 15:44:49.578384 30701 net.cpp:122] Setting up layer_256_3_conv3
I0526 15:44:49.578397 30701 net.cpp:129] Top shape: 20 1024 14 14 (4014080)
I0526 15:44:49.578400 30701 net.cpp:137] Memory required for data: 3825418320
I0526 15:44:49.578405 30701 layer_factory.hpp:77] Creating layer layer_256_3_sum
I0526 15:44:49.578414 30701 net.cpp:84] Creating Layer layer_256_3_sum
I0526 15:44:49.578419 30701 net.cpp:406] layer_256_3_sum <- layer_256_3_conv3
I0526 15:44:49.578423 30701 net.cpp:406] layer_256_3_sum <- layer_256_2_sum_layer_256_2_sum_0_split_1
I0526 15:44:49.578429 30701 net.cpp:380] layer_256_3_sum -> layer_256_3_sum
I0526 15:44:49.578460 30701 net.cpp:122] Setting up layer_256_3_sum
I0526 15:44:49.578469 30701 net.cpp:129] Top shape: 20 1024 14 14 (4014080)
I0526 15:44:49.578471 30701 net.cpp:137] Memory required for data: 3841474640
I0526 15:44:49.578474 30701 layer_factory.hpp:77] Creating layer layer_256_3_sum_layer_256_3_sum_0_split
I0526 15:44:49.578480 30701 net.cpp:84] Creating Layer layer_256_3_sum_layer_256_3_sum_0_split
I0526 15:44:49.578483 30701 net.cpp:406] layer_256_3_sum_layer_256_3_sum_0_split <- layer_256_3_sum
I0526 15:44:49.578490 30701 net.cpp:380] layer_256_3_sum_layer_256_3_sum_0_split -> layer_256_3_sum_layer_256_3_sum_0_split_0
I0526 15:44:49.578505 30701 net.cpp:380] layer_256_3_sum_layer_256_3_sum_0_split -> layer_256_3_sum_layer_256_3_sum_0_split_1
I0526 15:44:49.578547 30701 net.cpp:122] Setting up layer_256_3_sum_layer_256_3_sum_0_split
I0526 15:44:49.578554 30701 net.cpp:129] Top shape: 20 1024 14 14 (4014080)
I0526 15:44:49.578560 30701 net.cpp:129] Top shape: 20 1024 14 14 (4014080)
I0526 15:44:49.578563 30701 net.cpp:137] Memory required for data: 3873587280
I0526 15:44:49.578567 30701 layer_factory.hpp:77] Creating layer layer_256_4_bn1
I0526 15:44:49.578572 30701 net.cpp:84] Creating Layer layer_256_4_bn1
I0526 15:44:49.578575 30701 net.cpp:406] layer_256_4_bn1 <- layer_256_3_sum_layer_256_3_sum_0_split_0
I0526 15:44:49.578583 30701 net.cpp:380] layer_256_4_bn1 -> layer_256_4_bn1
I0526 15:44:49.578773 30701 net.cpp:122] Setting up layer_256_4_bn1
I0526 15:44:49.578781 30701 net.cpp:129] Top shape: 20 1024 14 14 (4014080)
I0526 15:44:49.578784 30701 net.cpp:137] Memory required for data: 3889643600
I0526 15:44:49.578793 30701 layer_factory.hpp:77] Creating layer layer_256_4_scale1
I0526 15:44:49.578800 30701 net.cpp:84] Creating Layer layer_256_4_scale1
I0526 15:44:49.578805 30701 net.cpp:406] layer_256_4_scale1 <- layer_256_4_bn1
I0526 15:44:49.578809 30701 net.cpp:367] layer_256_4_scale1 -> layer_256_4_bn1 (in-place)
I0526 15:44:49.578848 30701 layer_factory.hpp:77] Creating layer layer_256_4_scale1
I0526 15:44:49.578959 30701 net.cpp:122] Setting up layer_256_4_scale1
I0526 15:44:49.578968 30701 net.cpp:129] Top shape: 20 1024 14 14 (4014080)
I0526 15:44:49.578971 30701 net.cpp:137] Memory required for data: 3905699920
I0526 15:44:49.578977 30701 layer_factory.hpp:77] Creating layer layer_256_4_relu1
I0526 15:44:49.578984 30701 net.cpp:84] Creating Layer layer_256_4_relu1
I0526 15:44:49.578989 30701 net.cpp:406] layer_256_4_relu1 <- layer_256_4_bn1
I0526 15:44:49.578994 30701 net.cpp:367] layer_256_4_relu1 -> layer_256_4_bn1 (in-place)
I0526 15:44:49.579146 30701 net.cpp:122] Setting up layer_256_4_relu1
I0526 15:44:49.579156 30701 net.cpp:129] Top shape: 20 1024 14 14 (4014080)
I0526 15:44:49.579160 30701 net.cpp:137] Memory required for data: 3921756240
I0526 15:44:49.579164 30701 layer_factory.hpp:77] Creating layer layer_256_4_conv1
I0526 15:44:49.579172 30701 net.cpp:84] Creating Layer layer_256_4_conv1
I0526 15:44:49.579177 30701 net.cpp:406] layer_256_4_conv1 <- layer_256_4_bn1
I0526 15:44:49.579185 30701 net.cpp:380] layer_256_4_conv1 -> layer_256_4_conv1
I0526 15:44:49.583657 30701 net.cpp:122] Setting up layer_256_4_conv1
I0526 15:44:49.583672 30701 net.cpp:129] Top shape: 20 256 14 14 (1003520)
I0526 15:44:49.583675 30701 net.cpp:137] Memory required for data: 3925770320
I0526 15:44:49.583680 30701 layer_factory.hpp:77] Creating layer layer_256_4_bn2
I0526 15:44:49.583688 30701 net.cpp:84] Creating Layer layer_256_4_bn2
I0526 15:44:49.583693 30701 net.cpp:406] layer_256_4_bn2 <- layer_256_4_conv1
I0526 15:44:49.583699 30701 net.cpp:367] layer_256_4_bn2 -> layer_256_4_conv1 (in-place)
I0526 15:44:49.583879 30701 net.cpp:122] Setting up layer_256_4_bn2
I0526 15:44:49.583889 30701 net.cpp:129] Top shape: 20 256 14 14 (1003520)
I0526 15:44:49.583891 30701 net.cpp:137] Memory required for data: 3929784400
I0526 15:44:49.583899 30701 layer_factory.hpp:77] Creating layer layer_256_4_scale2
I0526 15:44:49.583907 30701 net.cpp:84] Creating Layer layer_256_4_scale2
I0526 15:44:49.583911 30701 net.cpp:406] layer_256_4_scale2 <- layer_256_4_conv1
I0526 15:44:49.583916 30701 net.cpp:367] layer_256_4_scale2 -> layer_256_4_conv1 (in-place)
I0526 15:44:49.583963 30701 layer_factory.hpp:77] Creating layer layer_256_4_scale2
I0526 15:44:49.584072 30701 net.cpp:122] Setting up layer_256_4_scale2
I0526 15:44:49.584081 30701 net.cpp:129] Top shape: 20 256 14 14 (1003520)
I0526 15:44:49.584085 30701 net.cpp:137] Memory required for data: 3933798480
I0526 15:44:49.584091 30701 layer_factory.hpp:77] Creating layer layer_256_4_relu2
I0526 15:44:49.584097 30701 net.cpp:84] Creating Layer layer_256_4_relu2
I0526 15:44:49.584101 30701 net.cpp:406] layer_256_4_relu2 <- layer_256_4_conv1
I0526 15:44:49.584117 30701 net.cpp:367] layer_256_4_relu2 -> layer_256_4_conv1 (in-place)
I0526 15:44:49.584276 30701 net.cpp:122] Setting up layer_256_4_relu2
I0526 15:44:49.584287 30701 net.cpp:129] Top shape: 20 256 14 14 (1003520)
I0526 15:44:49.584291 30701 net.cpp:137] Memory required for data: 3937812560
I0526 15:44:49.584295 30701 layer_factory.hpp:77] Creating layer layer_256_4_conv2
I0526 15:44:49.584305 30701 net.cpp:84] Creating Layer layer_256_4_conv2
I0526 15:44:49.584308 30701 net.cpp:406] layer_256_4_conv2 <- layer_256_4_conv1
I0526 15:44:49.584316 30701 net.cpp:380] layer_256_4_conv2 -> layer_256_4_conv2
I0526 15:44:49.592699 30701 net.cpp:122] Setting up layer_256_4_conv2
I0526 15:44:49.592718 30701 net.cpp:129] Top shape: 20 256 14 14 (1003520)
I0526 15:44:49.592721 30701 net.cpp:137] Memory required for data: 3941826640
I0526 15:44:49.592728 30701 layer_factory.hpp:77] Creating layer layer_256_4_bn3
I0526 15:44:49.592737 30701 net.cpp:84] Creating Layer layer_256_4_bn3
I0526 15:44:49.592742 30701 net.cpp:406] layer_256_4_bn3 <- layer_256_4_conv2
I0526 15:44:49.592749 30701 net.cpp:367] layer_256_4_bn3 -> layer_256_4_conv2 (in-place)
I0526 15:44:49.592941 30701 net.cpp:122] Setting up layer_256_4_bn3
I0526 15:44:49.592950 30701 net.cpp:129] Top shape: 20 256 14 14 (1003520)
I0526 15:44:49.592953 30701 net.cpp:137] Memory required for data: 3945840720
I0526 15:44:49.592962 30701 layer_factory.hpp:77] Creating layer layer_256_4_scale3
I0526 15:44:49.592969 30701 net.cpp:84] Creating Layer layer_256_4_scale3
I0526 15:44:49.592972 30701 net.cpp:406] layer_256_4_scale3 <- layer_256_4_conv2
I0526 15:44:49.592978 30701 net.cpp:367] layer_256_4_scale3 -> layer_256_4_conv2 (in-place)
I0526 15:44:49.593024 30701 layer_factory.hpp:77] Creating layer layer_256_4_scale3
I0526 15:44:49.593132 30701 net.cpp:122] Setting up layer_256_4_scale3
I0526 15:44:49.593142 30701 net.cpp:129] Top shape: 20 256 14 14 (1003520)
I0526 15:44:49.593144 30701 net.cpp:137] Memory required for data: 3949854800
I0526 15:44:49.593150 30701 layer_factory.hpp:77] Creating layer layer_256_4_relu3
I0526 15:44:49.593156 30701 net.cpp:84] Creating Layer layer_256_4_relu3
I0526 15:44:49.593159 30701 net.cpp:406] layer_256_4_relu3 <- layer_256_4_conv2
I0526 15:44:49.593165 30701 net.cpp:367] layer_256_4_relu3 -> layer_256_4_conv2 (in-place)
I0526 15:44:49.593324 30701 net.cpp:122] Setting up layer_256_4_relu3
I0526 15:44:49.593335 30701 net.cpp:129] Top shape: 20 256 14 14 (1003520)
I0526 15:44:49.593338 30701 net.cpp:137] Memory required for data: 3953868880
I0526 15:44:49.593341 30701 layer_factory.hpp:77] Creating layer layer_256_4_conv3
I0526 15:44:49.593351 30701 net.cpp:84] Creating Layer layer_256_4_conv3
I0526 15:44:49.593354 30701 net.cpp:406] layer_256_4_conv3 <- layer_256_4_conv2
I0526 15:44:49.593361 30701 net.cpp:380] layer_256_4_conv3 -> layer_256_4_conv3
I0526 15:44:49.597157 30701 net.cpp:122] Setting up layer_256_4_conv3
I0526 15:44:49.597170 30701 net.cpp:129] Top shape: 20 1024 14 14 (4014080)
I0526 15:44:49.597173 30701 net.cpp:137] Memory required for data: 3969925200
I0526 15:44:49.597179 30701 layer_factory.hpp:77] Creating layer layer_256_4_sum
I0526 15:44:49.597187 30701 net.cpp:84] Creating Layer layer_256_4_sum
I0526 15:44:49.597190 30701 net.cpp:406] layer_256_4_sum <- layer_256_4_conv3
I0526 15:44:49.597195 30701 net.cpp:406] layer_256_4_sum <- layer_256_3_sum_layer_256_3_sum_0_split_1
I0526 15:44:49.597200 30701 net.cpp:380] layer_256_4_sum -> layer_256_4_sum
I0526 15:44:49.597231 30701 net.cpp:122] Setting up layer_256_4_sum
I0526 15:44:49.597239 30701 net.cpp:129] Top shape: 20 1024 14 14 (4014080)
I0526 15:44:49.597242 30701 net.cpp:137] Memory required for data: 3985981520
I0526 15:44:49.597245 30701 layer_factory.hpp:77] Creating layer layer_256_4_sum_layer_256_4_sum_0_split
I0526 15:44:49.597250 30701 net.cpp:84] Creating Layer layer_256_4_sum_layer_256_4_sum_0_split
I0526 15:44:49.597254 30701 net.cpp:406] layer_256_4_sum_layer_256_4_sum_0_split <- layer_256_4_sum
I0526 15:44:49.597275 30701 net.cpp:380] layer_256_4_sum_layer_256_4_sum_0_split -> layer_256_4_sum_layer_256_4_sum_0_split_0
I0526 15:44:49.597282 30701 net.cpp:380] layer_256_4_sum_layer_256_4_sum_0_split -> layer_256_4_sum_layer_256_4_sum_0_split_1
I0526 15:44:49.597321 30701 net.cpp:122] Setting up layer_256_4_sum_layer_256_4_sum_0_split
I0526 15:44:49.597329 30701 net.cpp:129] Top shape: 20 1024 14 14 (4014080)
I0526 15:44:49.597333 30701 net.cpp:129] Top shape: 20 1024 14 14 (4014080)
I0526 15:44:49.597337 30701 net.cpp:137] Memory required for data: 4018094160
I0526 15:44:49.597339 30701 layer_factory.hpp:77] Creating layer layer_256_5_bn1
I0526 15:44:49.597344 30701 net.cpp:84] Creating Layer layer_256_5_bn1
I0526 15:44:49.597347 30701 net.cpp:406] layer_256_5_bn1 <- layer_256_4_sum_layer_256_4_sum_0_split_0
I0526 15:44:49.597354 30701 net.cpp:380] layer_256_5_bn1 -> layer_256_5_bn1
I0526 15:44:49.597548 30701 net.cpp:122] Setting up layer_256_5_bn1
I0526 15:44:49.597558 30701 net.cpp:129] Top shape: 20 1024 14 14 (4014080)
I0526 15:44:49.597560 30701 net.cpp:137] Memory required for data: 4034150480
I0526 15:44:49.597568 30701 layer_factory.hpp:77] Creating layer layer_256_5_scale1
I0526 15:44:49.597574 30701 net.cpp:84] Creating Layer layer_256_5_scale1
I0526 15:44:49.597579 30701 net.cpp:406] layer_256_5_scale1 <- layer_256_5_bn1
I0526 15:44:49.597584 30701 net.cpp:367] layer_256_5_scale1 -> layer_256_5_bn1 (in-place)
I0526 15:44:49.597622 30701 layer_factory.hpp:77] Creating layer layer_256_5_scale1
I0526 15:44:49.597735 30701 net.cpp:122] Setting up layer_256_5_scale1
I0526 15:44:49.597743 30701 net.cpp:129] Top shape: 20 1024 14 14 (4014080)
I0526 15:44:49.597748 30701 net.cpp:137] Memory required for data: 4050206800
I0526 15:44:49.597754 30701 layer_factory.hpp:77] Creating layer layer_256_5_relu1
I0526 15:44:49.597760 30701 net.cpp:84] Creating Layer layer_256_5_relu1
I0526 15:44:49.597765 30701 net.cpp:406] layer_256_5_relu1 <- layer_256_5_bn1
I0526 15:44:49.597769 30701 net.cpp:367] layer_256_5_relu1 -> layer_256_5_bn1 (in-place)
I0526 15:44:49.598419 30701 net.cpp:122] Setting up layer_256_5_relu1
I0526 15:44:49.598430 30701 net.cpp:129] Top shape: 20 1024 14 14 (4014080)
I0526 15:44:49.598435 30701 net.cpp:137] Memory required for data: 4066263120
I0526 15:44:49.598438 30701 layer_factory.hpp:77] Creating layer layer_256_5_conv1
I0526 15:44:49.598448 30701 net.cpp:84] Creating Layer layer_256_5_conv1
I0526 15:44:49.598453 30701 net.cpp:406] layer_256_5_conv1 <- layer_256_5_bn1
I0526 15:44:49.598460 30701 net.cpp:380] layer_256_5_conv1 -> layer_256_5_conv1
I0526 15:44:49.602468 30701 net.cpp:122] Setting up layer_256_5_conv1
I0526 15:44:49.602480 30701 net.cpp:129] Top shape: 20 256 14 14 (1003520)
I0526 15:44:49.602484 30701 net.cpp:137] Memory required for data: 4070277200
I0526 15:44:49.602489 30701 layer_factory.hpp:77] Creating layer layer_256_5_bn2
I0526 15:44:49.602499 30701 net.cpp:84] Creating Layer layer_256_5_bn2
I0526 15:44:49.602502 30701 net.cpp:406] layer_256_5_bn2 <- layer_256_5_conv1
I0526 15:44:49.602509 30701 net.cpp:367] layer_256_5_bn2 -> layer_256_5_conv1 (in-place)
I0526 15:44:49.602694 30701 net.cpp:122] Setting up layer_256_5_bn2
I0526 15:44:49.602702 30701 net.cpp:129] Top shape: 20 256 14 14 (1003520)
I0526 15:44:49.602706 30701 net.cpp:137] Memory required for data: 4074291280
I0526 15:44:49.602715 30701 layer_factory.hpp:77] Creating layer layer_256_5_scale2
I0526 15:44:49.602721 30701 net.cpp:84] Creating Layer layer_256_5_scale2
I0526 15:44:49.602725 30701 net.cpp:406] layer_256_5_scale2 <- layer_256_5_conv1
I0526 15:44:49.602731 30701 net.cpp:367] layer_256_5_scale2 -> layer_256_5_conv1 (in-place)
I0526 15:44:49.602774 30701 layer_factory.hpp:77] Creating layer layer_256_5_scale2
I0526 15:44:49.602881 30701 net.cpp:122] Setting up layer_256_5_scale2
I0526 15:44:49.602890 30701 net.cpp:129] Top shape: 20 256 14 14 (1003520)
I0526 15:44:49.602895 30701 net.cpp:137] Memory required for data: 4078305360
I0526 15:44:49.602900 30701 layer_factory.hpp:77] Creating layer layer_256_5_relu2
I0526 15:44:49.602916 30701 net.cpp:84] Creating Layer layer_256_5_relu2
I0526 15:44:49.602919 30701 net.cpp:406] layer_256_5_relu2 <- layer_256_5_conv1
I0526 15:44:49.602926 30701 net.cpp:367] layer_256_5_relu2 -> layer_256_5_conv1 (in-place)
I0526 15:44:49.603572 30701 net.cpp:122] Setting up layer_256_5_relu2
I0526 15:44:49.603586 30701 net.cpp:129] Top shape: 20 256 14 14 (1003520)
I0526 15:44:49.603591 30701 net.cpp:137] Memory required for data: 4082319440
I0526 15:44:49.603595 30701 layer_factory.hpp:77] Creating layer layer_256_5_conv2
I0526 15:44:49.603603 30701 net.cpp:84] Creating Layer layer_256_5_conv2
I0526 15:44:49.603608 30701 net.cpp:406] layer_256_5_conv2 <- layer_256_5_conv1
I0526 15:44:49.603615 30701 net.cpp:380] layer_256_5_conv2 -> layer_256_5_conv2
I0526 15:44:49.612063 30701 net.cpp:122] Setting up layer_256_5_conv2
I0526 15:44:49.612088 30701 net.cpp:129] Top shape: 20 256 14 14 (1003520)
I0526 15:44:49.612092 30701 net.cpp:137] Memory required for data: 4086333520
I0526 15:44:49.612099 30701 layer_factory.hpp:77] Creating layer layer_256_5_bn3
I0526 15:44:49.612110 30701 net.cpp:84] Creating Layer layer_256_5_bn3
I0526 15:44:49.612115 30701 net.cpp:406] layer_256_5_bn3 <- layer_256_5_conv2
I0526 15:44:49.612123 30701 net.cpp:367] layer_256_5_bn3 -> layer_256_5_conv2 (in-place)
I0526 15:44:49.612321 30701 net.cpp:122] Setting up layer_256_5_bn3
I0526 15:44:49.612330 30701 net.cpp:129] Top shape: 20 256 14 14 (1003520)
I0526 15:44:49.612334 30701 net.cpp:137] Memory required for data: 4090347600
I0526 15:44:49.612341 30701 layer_factory.hpp:77] Creating layer layer_256_5_scale3
I0526 15:44:49.612349 30701 net.cpp:84] Creating Layer layer_256_5_scale3
I0526 15:44:49.612354 30701 net.cpp:406] layer_256_5_scale3 <- layer_256_5_conv2
I0526 15:44:49.612360 30701 net.cpp:367] layer_256_5_scale3 -> layer_256_5_conv2 (in-place)
I0526 15:44:49.612406 30701 layer_factory.hpp:77] Creating layer layer_256_5_scale3
I0526 15:44:49.612519 30701 net.cpp:122] Setting up layer_256_5_scale3
I0526 15:44:49.612529 30701 net.cpp:129] Top shape: 20 256 14 14 (1003520)
I0526 15:44:49.612532 30701 net.cpp:137] Memory required for data: 4094361680
I0526 15:44:49.612537 30701 layer_factory.hpp:77] Creating layer layer_256_5_relu3
I0526 15:44:49.612545 30701 net.cpp:84] Creating Layer layer_256_5_relu3
I0526 15:44:49.612550 30701 net.cpp:406] layer_256_5_relu3 <- layer_256_5_conv2
I0526 15:44:49.612555 30701 net.cpp:367] layer_256_5_relu3 -> layer_256_5_conv2 (in-place)
I0526 15:44:49.612721 30701 net.cpp:122] Setting up layer_256_5_relu3
I0526 15:44:49.612731 30701 net.cpp:129] Top shape: 20 256 14 14 (1003520)
I0526 15:44:49.612735 30701 net.cpp:137] Memory required for data: 4098375760
I0526 15:44:49.612738 30701 layer_factory.hpp:77] Creating layer layer_256_5_conv3
I0526 15:44:49.612749 30701 net.cpp:84] Creating Layer layer_256_5_conv3
I0526 15:44:49.612754 30701 net.cpp:406] layer_256_5_conv3 <- layer_256_5_conv2
I0526 15:44:49.612761 30701 net.cpp:380] layer_256_5_conv3 -> layer_256_5_conv3
I0526 15:44:49.616586 30701 net.cpp:122] Setting up layer_256_5_conv3
I0526 15:44:49.616598 30701 net.cpp:129] Top shape: 20 1024 14 14 (4014080)
I0526 15:44:49.616602 30701 net.cpp:137] Memory required for data: 4114432080
I0526 15:44:49.616607 30701 layer_factory.hpp:77] Creating layer layer_256_5_sum
I0526 15:44:49.616614 30701 net.cpp:84] Creating Layer layer_256_5_sum
I0526 15:44:49.616619 30701 net.cpp:406] layer_256_5_sum <- layer_256_5_conv3
I0526 15:44:49.616624 30701 net.cpp:406] layer_256_5_sum <- layer_256_4_sum_layer_256_4_sum_0_split_1
I0526 15:44:49.616631 30701 net.cpp:380] layer_256_5_sum -> layer_256_5_sum
I0526 15:44:49.616663 30701 net.cpp:122] Setting up layer_256_5_sum
I0526 15:44:49.616672 30701 net.cpp:129] Top shape: 20 1024 14 14 (4014080)
I0526 15:44:49.616675 30701 net.cpp:137] Memory required for data: 4130488400
I0526 15:44:49.616678 30701 layer_factory.hpp:77] Creating layer layer_256_5_sum_layer_256_5_sum_0_split
I0526 15:44:49.616684 30701 net.cpp:84] Creating Layer layer_256_5_sum_layer_256_5_sum_0_split
I0526 15:44:49.616703 30701 net.cpp:406] layer_256_5_sum_layer_256_5_sum_0_split <- layer_256_5_sum
I0526 15:44:49.616709 30701 net.cpp:380] layer_256_5_sum_layer_256_5_sum_0_split -> layer_256_5_sum_layer_256_5_sum_0_split_0
I0526 15:44:49.616716 30701 net.cpp:380] layer_256_5_sum_layer_256_5_sum_0_split -> layer_256_5_sum_layer_256_5_sum_0_split_1
I0526 15:44:49.616756 30701 net.cpp:122] Setting up layer_256_5_sum_layer_256_5_sum_0_split
I0526 15:44:49.616765 30701 net.cpp:129] Top shape: 20 1024 14 14 (4014080)
I0526 15:44:49.616770 30701 net.cpp:129] Top shape: 20 1024 14 14 (4014080)
I0526 15:44:49.616772 30701 net.cpp:137] Memory required for data: 4162601040
I0526 15:44:49.616775 30701 layer_factory.hpp:77] Creating layer layer_256_6_bn1
I0526 15:44:49.616782 30701 net.cpp:84] Creating Layer layer_256_6_bn1
I0526 15:44:49.616787 30701 net.cpp:406] layer_256_6_bn1 <- layer_256_5_sum_layer_256_5_sum_0_split_0
I0526 15:44:49.616793 30701 net.cpp:380] layer_256_6_bn1 -> layer_256_6_bn1
I0526 15:44:49.616991 30701 net.cpp:122] Setting up layer_256_6_bn1
I0526 15:44:49.616998 30701 net.cpp:129] Top shape: 20 1024 14 14 (4014080)
I0526 15:44:49.617002 30701 net.cpp:137] Memory required for data: 4178657360
I0526 15:44:49.617010 30701 layer_factory.hpp:77] Creating layer layer_256_6_scale1
I0526 15:44:49.617017 30701 net.cpp:84] Creating Layer layer_256_6_scale1
I0526 15:44:49.617022 30701 net.cpp:406] layer_256_6_scale1 <- layer_256_6_bn1
I0526 15:44:49.617025 30701 net.cpp:367] layer_256_6_scale1 -> layer_256_6_bn1 (in-place)
I0526 15:44:49.617067 30701 layer_factory.hpp:77] Creating layer layer_256_6_scale1
I0526 15:44:49.617182 30701 net.cpp:122] Setting up layer_256_6_scale1
I0526 15:44:49.617192 30701 net.cpp:129] Top shape: 20 1024 14 14 (4014080)
I0526 15:44:49.617194 30701 net.cpp:137] Memory required for data: 4194713680
I0526 15:44:49.617202 30701 layer_factory.hpp:77] Creating layer layer_256_6_relu1
I0526 15:44:49.617208 30701 net.cpp:84] Creating Layer layer_256_6_relu1
I0526 15:44:49.617211 30701 net.cpp:406] layer_256_6_relu1 <- layer_256_6_bn1
I0526 15:44:49.617215 30701 net.cpp:367] layer_256_6_relu1 -> layer_256_6_bn1 (in-place)
I0526 15:44:49.617377 30701 net.cpp:122] Setting up layer_256_6_relu1
I0526 15:44:49.617388 30701 net.cpp:129] Top shape: 20 1024 14 14 (4014080)
I0526 15:44:49.617390 30701 net.cpp:137] Memory required for data: 4210770000
I0526 15:44:49.617394 30701 layer_factory.hpp:77] Creating layer layer_256_6_conv1
I0526 15:44:49.617404 30701 net.cpp:84] Creating Layer layer_256_6_conv1
I0526 15:44:49.617408 30701 net.cpp:406] layer_256_6_conv1 <- layer_256_6_bn1
I0526 15:44:49.617415 30701 net.cpp:380] layer_256_6_conv1 -> layer_256_6_conv1
I0526 15:44:49.622004 30701 net.cpp:122] Setting up layer_256_6_conv1
I0526 15:44:49.622020 30701 net.cpp:129] Top shape: 20 256 14 14 (1003520)
I0526 15:44:49.622025 30701 net.cpp:137] Memory required for data: 4214784080
I0526 15:44:49.622031 30701 layer_factory.hpp:77] Creating layer layer_256_6_bn2
I0526 15:44:49.622040 30701 net.cpp:84] Creating Layer layer_256_6_bn2
I0526 15:44:49.622045 30701 net.cpp:406] layer_256_6_bn2 <- layer_256_6_conv1
I0526 15:44:49.622051 30701 net.cpp:367] layer_256_6_bn2 -> layer_256_6_conv1 (in-place)
I0526 15:44:49.622244 30701 net.cpp:122] Setting up layer_256_6_bn2
I0526 15:44:49.622253 30701 net.cpp:129] Top shape: 20 256 14 14 (1003520)
I0526 15:44:49.622257 30701 net.cpp:137] Memory required for data: 4218798160
I0526 15:44:49.622264 30701 layer_factory.hpp:77] Creating layer layer_256_6_scale2
I0526 15:44:49.622273 30701 net.cpp:84] Creating Layer layer_256_6_scale2
I0526 15:44:49.622278 30701 net.cpp:406] layer_256_6_scale2 <- layer_256_6_conv1
I0526 15:44:49.622283 30701 net.cpp:367] layer_256_6_scale2 -> layer_256_6_conv1 (in-place)
I0526 15:44:49.622334 30701 layer_factory.hpp:77] Creating layer layer_256_6_scale2
I0526 15:44:49.622478 30701 net.cpp:122] Setting up layer_256_6_scale2
I0526 15:44:49.622488 30701 net.cpp:129] Top shape: 20 256 14 14 (1003520)
I0526 15:44:49.622491 30701 net.cpp:137] Memory required for data: 4222812240
I0526 15:44:49.622509 30701 layer_factory.hpp:77] Creating layer layer_256_6_relu2
I0526 15:44:49.622515 30701 net.cpp:84] Creating Layer layer_256_6_relu2
I0526 15:44:49.622520 30701 net.cpp:406] layer_256_6_relu2 <- layer_256_6_conv1
I0526 15:44:49.622527 30701 net.cpp:367] layer_256_6_relu2 -> layer_256_6_conv1 (in-place)
I0526 15:44:49.622685 30701 net.cpp:122] Setting up layer_256_6_relu2
I0526 15:44:49.622696 30701 net.cpp:129] Top shape: 20 256 14 14 (1003520)
I0526 15:44:49.622700 30701 net.cpp:137] Memory required for data: 4226826320
I0526 15:44:49.622704 30701 layer_factory.hpp:77] Creating layer layer_256_6_conv2
I0526 15:44:49.622714 30701 net.cpp:84] Creating Layer layer_256_6_conv2
I0526 15:44:49.622719 30701 net.cpp:406] layer_256_6_conv2 <- layer_256_6_conv1
I0526 15:44:49.622725 30701 net.cpp:380] layer_256_6_conv2 -> layer_256_6_conv2
I0526 15:44:49.631063 30701 net.cpp:122] Setting up layer_256_6_conv2
I0526 15:44:49.631080 30701 net.cpp:129] Top shape: 20 256 14 14 (1003520)
I0526 15:44:49.631083 30701 net.cpp:137] Memory required for data: 4230840400
I0526 15:44:49.631089 30701 layer_factory.hpp:77] Creating layer layer_256_6_bn3
I0526 15:44:49.631096 30701 net.cpp:84] Creating Layer layer_256_6_bn3
I0526 15:44:49.631101 30701 net.cpp:406] layer_256_6_bn3 <- layer_256_6_conv2
I0526 15:44:49.631108 30701 net.cpp:367] layer_256_6_bn3 -> layer_256_6_conv2 (in-place)
I0526 15:44:49.631302 30701 net.cpp:122] Setting up layer_256_6_bn3
I0526 15:44:49.631311 30701 net.cpp:129] Top shape: 20 256 14 14 (1003520)
I0526 15:44:49.631314 30701 net.cpp:137] Memory required for data: 4234854480
I0526 15:44:49.631321 30701 layer_factory.hpp:77] Creating layer layer_256_6_scale3
I0526 15:44:49.631328 30701 net.cpp:84] Creating Layer layer_256_6_scale3
I0526 15:44:49.631333 30701 net.cpp:406] layer_256_6_scale3 <- layer_256_6_conv2
I0526 15:44:49.631341 30701 net.cpp:367] layer_256_6_scale3 -> layer_256_6_conv2 (in-place)
I0526 15:44:49.631386 30701 layer_factory.hpp:77] Creating layer layer_256_6_scale3
I0526 15:44:49.631498 30701 net.cpp:122] Setting up layer_256_6_scale3
I0526 15:44:49.631507 30701 net.cpp:129] Top shape: 20 256 14 14 (1003520)
I0526 15:44:49.631510 30701 net.cpp:137] Memory required for data: 4238868560
I0526 15:44:49.631516 30701 layer_factory.hpp:77] Creating layer layer_256_6_relu3
I0526 15:44:49.631522 30701 net.cpp:84] Creating Layer layer_256_6_relu3
I0526 15:44:49.631526 30701 net.cpp:406] layer_256_6_relu3 <- layer_256_6_conv2
I0526 15:44:49.631531 30701 net.cpp:367] layer_256_6_relu3 -> layer_256_6_conv2 (in-place)
I0526 15:44:49.631695 30701 net.cpp:122] Setting up layer_256_6_relu3
I0526 15:44:49.631705 30701 net.cpp:129] Top shape: 20 256 14 14 (1003520)
I0526 15:44:49.631711 30701 net.cpp:137] Memory required for data: 4242882640
I0526 15:44:49.631713 30701 layer_factory.hpp:77] Creating layer layer_256_6_conv3
I0526 15:44:49.631722 30701 net.cpp:84] Creating Layer layer_256_6_conv3
I0526 15:44:49.631727 30701 net.cpp:406] layer_256_6_conv3 <- layer_256_6_conv2
I0526 15:44:49.631736 30701 net.cpp:380] layer_256_6_conv3 -> layer_256_6_conv3
I0526 15:44:49.635551 30701 net.cpp:122] Setting up layer_256_6_conv3
I0526 15:44:49.635565 30701 net.cpp:129] Top shape: 20 1024 14 14 (4014080)
I0526 15:44:49.635570 30701 net.cpp:137] Memory required for data: 4258938960
I0526 15:44:49.635574 30701 layer_factory.hpp:77] Creating layer layer_256_6_sum
I0526 15:44:49.635581 30701 net.cpp:84] Creating Layer layer_256_6_sum
I0526 15:44:49.635583 30701 net.cpp:406] layer_256_6_sum <- layer_256_6_conv3
I0526 15:44:49.635588 30701 net.cpp:406] layer_256_6_sum <- layer_256_5_sum_layer_256_5_sum_0_split_1
I0526 15:44:49.635593 30701 net.cpp:380] layer_256_6_sum -> layer_256_6_sum
I0526 15:44:49.635623 30701 net.cpp:122] Setting up layer_256_6_sum
I0526 15:44:49.635632 30701 net.cpp:129] Top shape: 20 1024 14 14 (4014080)
I0526 15:44:49.635637 30701 net.cpp:137] Memory required for data: 4274995280
I0526 15:44:49.635639 30701 layer_factory.hpp:77] Creating layer layer_512_1_bn1
I0526 15:44:49.635658 30701 net.cpp:84] Creating Layer layer_512_1_bn1
I0526 15:44:49.635663 30701 net.cpp:406] layer_512_1_bn1 <- layer_256_6_sum
I0526 15:44:49.635668 30701 net.cpp:380] layer_512_1_bn1 -> layer_512_1_bn1
I0526 15:44:49.635872 30701 net.cpp:122] Setting up layer_512_1_bn1
I0526 15:44:49.635881 30701 net.cpp:129] Top shape: 20 1024 14 14 (4014080)
I0526 15:44:49.635886 30701 net.cpp:137] Memory required for data: 4291051600
I0526 15:44:49.635893 30701 layer_factory.hpp:77] Creating layer layer_512_1_scale1
I0526 15:44:49.635900 30701 net.cpp:84] Creating Layer layer_512_1_scale1
I0526 15:44:49.635905 30701 net.cpp:406] layer_512_1_scale1 <- layer_512_1_bn1
I0526 15:44:49.635911 30701 net.cpp:367] layer_512_1_scale1 -> layer_512_1_bn1 (in-place)
I0526 15:44:49.635957 30701 layer_factory.hpp:77] Creating layer layer_512_1_scale1
I0526 15:44:49.636075 30701 net.cpp:122] Setting up layer_512_1_scale1
I0526 15:44:49.636083 30701 net.cpp:129] Top shape: 20 1024 14 14 (4014080)
I0526 15:44:49.636086 30701 net.cpp:137] Memory required for data: 4307107920
I0526 15:44:49.636092 30701 layer_factory.hpp:77] Creating layer layer_512_1_relu1
I0526 15:44:49.636098 30701 net.cpp:84] Creating Layer layer_512_1_relu1
I0526 15:44:49.636101 30701 net.cpp:406] layer_512_1_relu1 <- layer_512_1_bn1
I0526 15:44:49.636107 30701 net.cpp:367] layer_512_1_relu1 -> layer_512_1_bn1 (in-place)
I0526 15:44:49.636772 30701 net.cpp:122] Setting up layer_512_1_relu1
I0526 15:44:49.636785 30701 net.cpp:129] Top shape: 20 1024 14 14 (4014080)
I0526 15:44:49.636788 30701 net.cpp:137] Memory required for data: 4323164240
I0526 15:44:49.636791 30701 layer_factory.hpp:77] Creating layer layer_512_1_bn1_layer_512_1_relu1_0_split
I0526 15:44:49.636798 30701 net.cpp:84] Creating Layer layer_512_1_bn1_layer_512_1_relu1_0_split
I0526 15:44:49.636802 30701 net.cpp:406] layer_512_1_bn1_layer_512_1_relu1_0_split <- layer_512_1_bn1
I0526 15:44:49.636807 30701 net.cpp:380] layer_512_1_bn1_layer_512_1_relu1_0_split -> layer_512_1_bn1_layer_512_1_relu1_0_split_0
I0526 15:44:49.636816 30701 net.cpp:380] layer_512_1_bn1_layer_512_1_relu1_0_split -> layer_512_1_bn1_layer_512_1_relu1_0_split_1
I0526 15:44:49.636862 30701 net.cpp:122] Setting up layer_512_1_bn1_layer_512_1_relu1_0_split
I0526 15:44:49.636869 30701 net.cpp:129] Top shape: 20 1024 14 14 (4014080)
I0526 15:44:49.636873 30701 net.cpp:129] Top shape: 20 1024 14 14 (4014080)
I0526 15:44:49.636876 30701 net.cpp:137] Memory required for data: 4355276880
I0526 15:44:49.636879 30701 layer_factory.hpp:77] Creating layer layer_512_1_conv1
I0526 15:44:49.636889 30701 net.cpp:84] Creating Layer layer_512_1_conv1
I0526 15:44:49.636894 30701 net.cpp:406] layer_512_1_conv1 <- layer_512_1_bn1_layer_512_1_relu1_0_split_0
I0526 15:44:49.636900 30701 net.cpp:380] layer_512_1_conv1 -> layer_512_1_conv1
I0526 15:44:49.643470 30701 net.cpp:122] Setting up layer_512_1_conv1
I0526 15:44:49.643484 30701 net.cpp:129] Top shape: 20 512 14 14 (2007040)
I0526 15:44:49.643488 30701 net.cpp:137] Memory required for data: 4363305040
I0526 15:44:49.643493 30701 layer_factory.hpp:77] Creating layer layer_512_1_bn2
I0526 15:44:49.643499 30701 net.cpp:84] Creating Layer layer_512_1_bn2
I0526 15:44:49.643504 30701 net.cpp:406] layer_512_1_bn2 <- layer_512_1_conv1
I0526 15:44:49.643512 30701 net.cpp:367] layer_512_1_bn2 -> layer_512_1_conv1 (in-place)
I0526 15:44:49.643707 30701 net.cpp:122] Setting up layer_512_1_bn2
I0526 15:44:49.643715 30701 net.cpp:129] Top shape: 20 512 14 14 (2007040)
I0526 15:44:49.643719 30701 net.cpp:137] Memory required for data: 4371333200
I0526 15:44:49.643726 30701 layer_factory.hpp:77] Creating layer layer_512_1_scale2
I0526 15:44:49.643734 30701 net.cpp:84] Creating Layer layer_512_1_scale2
I0526 15:44:49.643738 30701 net.cpp:406] layer_512_1_scale2 <- layer_512_1_conv1
I0526 15:44:49.643743 30701 net.cpp:367] layer_512_1_scale2 -> layer_512_1_conv1 (in-place)
I0526 15:44:49.643784 30701 layer_factory.hpp:77] Creating layer layer_512_1_scale2
I0526 15:44:49.643903 30701 net.cpp:122] Setting up layer_512_1_scale2
I0526 15:44:49.643921 30701 net.cpp:129] Top shape: 20 512 14 14 (2007040)
I0526 15:44:49.643925 30701 net.cpp:137] Memory required for data: 4379361360
I0526 15:44:49.643931 30701 layer_factory.hpp:77] Creating layer layer_512_1_relu2
I0526 15:44:49.643939 30701 net.cpp:84] Creating Layer layer_512_1_relu2
I0526 15:44:49.643944 30701 net.cpp:406] layer_512_1_relu2 <- layer_512_1_conv1
I0526 15:44:49.643952 30701 net.cpp:367] layer_512_1_relu2 -> layer_512_1_conv1 (in-place)
I0526 15:44:49.645102 30701 net.cpp:122] Setting up layer_512_1_relu2
I0526 15:44:49.645114 30701 net.cpp:129] Top shape: 20 512 14 14 (2007040)
I0526 15:44:49.645118 30701 net.cpp:137] Memory required for data: 4387389520
I0526 15:44:49.645123 30701 layer_factory.hpp:77] Creating layer layer_512_1_conv2
I0526 15:44:49.645133 30701 net.cpp:84] Creating Layer layer_512_1_conv2
I0526 15:44:49.645136 30701 net.cpp:406] layer_512_1_conv2 <- layer_512_1_conv1
I0526 15:44:49.645144 30701 net.cpp:380] layer_512_1_conv2 -> layer_512_1_conv2
I0526 15:44:49.672605 30701 net.cpp:122] Setting up layer_512_1_conv2
I0526 15:44:49.672634 30701 net.cpp:129] Top shape: 20 512 7 7 (501760)
I0526 15:44:49.672638 30701 net.cpp:137] Memory required for data: 4389396560
I0526 15:44:49.672647 30701 layer_factory.hpp:77] Creating layer layer_512_1_bn3
I0526 15:44:49.672660 30701 net.cpp:84] Creating Layer layer_512_1_bn3
I0526 15:44:49.672667 30701 net.cpp:406] layer_512_1_bn3 <- layer_512_1_conv2
I0526 15:44:49.672675 30701 net.cpp:367] layer_512_1_bn3 -> layer_512_1_conv2 (in-place)
I0526 15:44:49.672890 30701 net.cpp:122] Setting up layer_512_1_bn3
I0526 15:44:49.672900 30701 net.cpp:129] Top shape: 20 512 7 7 (501760)
I0526 15:44:49.672904 30701 net.cpp:137] Memory required for data: 4391403600
I0526 15:44:49.672933 30701 layer_factory.hpp:77] Creating layer layer_512_1_scale3
I0526 15:44:49.672943 30701 net.cpp:84] Creating Layer layer_512_1_scale3
I0526 15:44:49.672948 30701 net.cpp:406] layer_512_1_scale3 <- layer_512_1_conv2
I0526 15:44:49.672953 30701 net.cpp:367] layer_512_1_scale3 -> layer_512_1_conv2 (in-place)
I0526 15:44:49.673002 30701 layer_factory.hpp:77] Creating layer layer_512_1_scale3
I0526 15:44:49.673125 30701 net.cpp:122] Setting up layer_512_1_scale3
I0526 15:44:49.673132 30701 net.cpp:129] Top shape: 20 512 7 7 (501760)
I0526 15:44:49.673135 30701 net.cpp:137] Memory required for data: 4393410640
I0526 15:44:49.673141 30701 layer_factory.hpp:77] Creating layer layer_512_1_relu3
I0526 15:44:49.673149 30701 net.cpp:84] Creating Layer layer_512_1_relu3
I0526 15:44:49.673153 30701 net.cpp:406] layer_512_1_relu3 <- layer_512_1_conv2
I0526 15:44:49.673158 30701 net.cpp:367] layer_512_1_relu3 -> layer_512_1_conv2 (in-place)
I0526 15:44:49.673319 30701 net.cpp:122] Setting up layer_512_1_relu3
I0526 15:44:49.673328 30701 net.cpp:129] Top shape: 20 512 7 7 (501760)
I0526 15:44:49.673331 30701 net.cpp:137] Memory required for data: 4395417680
I0526 15:44:49.673336 30701 layer_factory.hpp:77] Creating layer layer_512_1_conv3
I0526 15:44:49.673346 30701 net.cpp:84] Creating Layer layer_512_1_conv3
I0526 15:44:49.673351 30701 net.cpp:406] layer_512_1_conv3 <- layer_512_1_conv2
I0526 15:44:49.673357 30701 net.cpp:380] layer_512_1_conv3 -> layer_512_1_conv3
I0526 15:44:49.685880 30701 net.cpp:122] Setting up layer_512_1_conv3
I0526 15:44:49.685897 30701 net.cpp:129] Top shape: 20 2048 7 7 (2007040)
I0526 15:44:49.685901 30701 net.cpp:137] Memory required for data: 4403445840
I0526 15:44:49.685907 30701 layer_factory.hpp:77] Creating layer layer_512_1_conv_expand
…
I0526 15:44:49.987321 30701 net.cpp:84] Creating Layer layer_256_4_scale2
I0526 15:44:49.987326 30701 net.cpp:406] layer_256_4_scale2 <- layer_256_4_conv1
I0526 15:44:49.987331 30701 net.cpp:367] layer_256_4_scale2 -> layer_256_4_conv1 (in-place)
I0526 15:44:49.987383 30701 layer_factory.hpp:77] Creating layer layer_256_4_scale2
I0526 15:44:49.987529 30701 net.cpp:122] Setting up layer_256_4_scale2
I0526 15:44:49.987537 30701 net.cpp:129] Top shape: 5 256 14 14 (250880)
I0526 15:44:49.987541 30701 net.cpp:137] Memory required for data: 983449660
I0526 15:44:49.987546 30701 layer_factory.hpp:77] Creating layer layer_256_4_relu2
I0526 15:44:49.987563 30701 net.cpp:84] Creating Layer layer_256_4_relu2
I0526 15:44:49.987568 30701 net.cpp:406] layer_256_4_relu2 <- layer_256_4_conv1
I0526 15:44:49.987573 30701 net.cpp:367] layer_256_4_relu2 -> layer_256_4_conv1 (in-place)
I0526 15:44:49.988303 30701 net.cpp:122] Setting up layer_256_4_relu2
I0526 15:44:49.988317 30701 net.cpp:129] Top shape: 5 256 14 14 (250880)
I0526 15:44:49.988320 30701 net.cpp:137] Memory required for data: 984453180
I0526 15:44:49.988324 30701 layer_factory.hpp:77] Creating layer layer_256_4_conv2
I0526 15:44:49.988333 30701 net.cpp:84] Creating Layer layer_256_4_conv2
I0526 15:44:49.988338 30701 net.cpp:406] layer_256_4_conv2 <- layer_256_4_conv1
I0526 15:44:49.988348 30701 net.cpp:380] layer_256_4_conv2 -> layer_256_4_conv2
I0526 15:44:49.996292 30701 net.cpp:122] Setting up layer_256_4_conv2
I0526 15:44:49.996306 30701 net.cpp:129] Top shape: 5 256 14 14 (250880)
I0526 15:44:49.996311 30701 net.cpp:137] Memory required for data: 985456700
I0526 15:44:49.996317 30701 layer_factory.hpp:77] Creating layer layer_256_4_bn3
I0526 15:44:49.996325 30701 net.cpp:84] Creating Layer layer_256_4_bn3
I0526 15:44:49.996330 30701 net.cpp:406] layer_256_4_bn3 <- layer_256_4_conv2
I0526 15:44:49.996335 30701 net.cpp:367] layer_256_4_bn3 -> layer_256_4_conv2 (in-place)
I0526 15:44:49.996585 30701 net.cpp:122] Setting up layer_256_4_bn3
I0526 15:44:49.996594 30701 net.cpp:129] Top shape: 5 256 14 14 (250880)
I0526 15:44:49.996598 30701 net.cpp:137] Memory required for data: 986460220
I0526 15:44:49.996606 30701 layer_factory.hpp:77] Creating layer layer_256_4_scale3
I0526 15:44:49.996613 30701 net.cpp:84] Creating Layer layer_256_4_scale3
I0526 15:44:49.996618 30701 net.cpp:406] layer_256_4_scale3 <- layer_256_4_conv2
I0526 15:44:49.996623 30701 net.cpp:367] layer_256_4_scale3 -> layer_256_4_conv2 (in-place)
I0526 15:44:49.996680 30701 layer_factory.hpp:77] Creating layer layer_256_4_scale3
I0526 15:44:49.996824 30701 net.cpp:122] Setting up layer_256_4_scale3
I0526 15:44:49.996832 30701 net.cpp:129] Top shape: 5 256 14 14 (250880)
I0526 15:44:49.996836 30701 net.cpp:137] Memory required for data: 987463740
I0526 15:44:49.996842 30701 layer_factory.hpp:77] Creating layer layer_256_4_relu3
I0526 15:44:49.996848 30701 net.cpp:84] Creating Layer layer_256_4_relu3
I0526 15:44:49.996852 30701 net.cpp:406] layer_256_4_relu3 <- layer_256_4_conv2
I0526 15:44:49.996858 30701 net.cpp:367] layer_256_4_relu3 -> layer_256_4_conv2 (in-place)
I0526 15:44:49.997568 30701 net.cpp:122] Setting up layer_256_4_relu3
I0526 15:44:49.997580 30701 net.cpp:129] Top shape: 5 256 14 14 (250880)
I0526 15:44:49.997584 30701 net.cpp:137] Memory required for data: 988467260
I0526 15:44:49.997588 30701 layer_factory.hpp:77] Creating layer layer_256_4_conv3
I0526 15:44:49.997598 30701 net.cpp:84] Creating Layer layer_256_4_conv3
I0526 15:44:49.997604 30701 net.cpp:406] layer_256_4_conv3 <- layer_256_4_conv2
I0526 15:44:49.997611 30701 net.cpp:380] layer_256_4_conv3 -> layer_256_4_conv3
I0526 15:44:50.002408 30701 net.cpp:122] Setting up layer_256_4_conv3
I0526 15:44:50.002429 30701 net.cpp:129] Top shape: 5 1024 14 14 (1003520)
I0526 15:44:50.002432 30701 net.cpp:137] Memory required for data: 992481340
I0526 15:44:50.002440 30701 layer_factory.hpp:77] Creating layer layer_256_4_sum
I0526 15:44:50.002454 30701 net.cpp:84] Creating Layer layer_256_4_sum
I0526 15:44:50.002462 30701 net.cpp:406] layer_256_4_sum <- layer_256_4_conv3
I0526 15:44:50.002472 30701 net.cpp:406] layer_256_4_sum <- layer_256_3_sum_layer_256_3_sum_0_split_1
I0526 15:44:50.002485 30701 net.cpp:380] layer_256_4_sum -> layer_256_4_sum
I0526 15:44:50.002528 30701 net.cpp:122] Setting up layer_256_4_sum
I0526 15:44:50.002539 30701 net.cpp:129] Top shape: 5 1024 14 14 (1003520)
I0526 15:44:50.002543 30701 net.cpp:137] Memory required for data: 996495420
I0526 15:44:50.002547 30701 layer_factory.hpp:77] Creating layer layer_256_4_sum_layer_256_4_sum_0_split
I0526 15:44:50.002553 30701 net.cpp:84] Creating Layer layer_256_4_sum_layer_256_4_sum_0_split
I0526 15:44:50.002568 30701 net.cpp:406] layer_256_4_sum_layer_256_4_sum_0_split <- layer_256_4_sum
I0526 15:44:50.002574 30701 net.cpp:380] layer_256_4_sum_layer_256_4_sum_0_split -> layer_256_4_sum_layer_256_4_sum_0_split_0
I0526 15:44:50.002584 30701 net.cpp:380] layer_256_4_sum_layer_256_4_sum_0_split -> layer_256_4_sum_layer_256_4_sum_0_split_1
I0526 15:44:50.002636 30701 net.cpp:122] Setting up layer_256_4_sum_layer_256_4_sum_0_split
I0526 15:44:50.002645 30701 net.cpp:129] Top shape: 5 1024 14 14 (1003520)
I0526 15:44:50.002650 30701 net.cpp:129] Top shape: 5 1024 14 14 (1003520)
I0526 15:44:50.002653 30701 net.cpp:137] Memory required for data: 1004523580
I0526 15:44:50.002656 30701 layer_factory.hpp:77] Creating layer layer_256_5_bn1
I0526 15:44:50.002665 30701 net.cpp:84] Creating Layer layer_256_5_bn1
I0526 15:44:50.002670 30701 net.cpp:406] layer_256_5_bn1 <- layer_256_4_sum_layer_256_4_sum_0_split_0
I0526 15:44:50.002676 30701 net.cpp:380] layer_256_5_bn1 -> layer_256_5_bn1
I0526 15:44:50.002946 30701 net.cpp:122] Setting up layer_256_5_bn1
I0526 15:44:50.002956 30701 net.cpp:129] Top shape: 5 1024 14 14 (1003520)
I0526 15:44:50.002959 30701 net.cpp:137] Memory required for data: 1008537660
I0526 15:44:50.002967 30701 layer_factory.hpp:77] Creating layer layer_256_5_scale1
I0526 15:44:50.002975 30701 net.cpp:84] Creating Layer layer_256_5_scale1
I0526 15:44:50.002979 30701 net.cpp:406] layer_256_5_scale1 <- layer_256_5_bn1
I0526 15:44:50.002985 30701 net.cpp:367] layer_256_5_scale1 -> layer_256_5_bn1 (in-place)
I0526 15:44:50.003041 30701 layer_factory.hpp:77] Creating layer layer_256_5_scale1
I0526 15:44:50.003192 30701 net.cpp:122] Setting up layer_256_5_scale1
I0526 15:44:50.003201 30701 net.cpp:129] Top shape: 5 1024 14 14 (1003520)
I0526 15:44:50.003204 30701 net.cpp:137] Memory required for data: 1012551740
I0526 15:44:50.003211 30701 layer_factory.hpp:77] Creating layer layer_256_5_relu1
I0526 15:44:50.003217 30701 net.cpp:84] Creating Layer layer_256_5_relu1
I0526 15:44:50.003221 30701 net.cpp:406] layer_256_5_relu1 <- layer_256_5_bn1
I0526 15:44:50.003229 30701 net.cpp:367] layer_256_5_relu1 -> layer_256_5_bn1 (in-place)
I0526 15:44:50.003399 30701 net.cpp:122] Setting up layer_256_5_relu1
I0526 15:44:50.003410 30701 net.cpp:129] Top shape: 5 1024 14 14 (1003520)
I0526 15:44:50.003414 30701 net.cpp:137] Memory required for data: 1016565820
I0526 15:44:50.003417 30701 layer_factory.hpp:77] Creating layer layer_256_5_conv1
I0526 15:44:50.003427 30701 net.cpp:84] Creating Layer layer_256_5_conv1
I0526 15:44:50.003432 30701 net.cpp:406] layer_256_5_conv1 <- layer_256_5_bn1
I0526 15:44:50.003437 30701 net.cpp:380] layer_256_5_conv1 -> layer_256_5_conv1
I0526 15:44:50.007359 30701 net.cpp:122] Setting up layer_256_5_conv1
I0526 15:44:50.007372 30701 net.cpp:129] Top shape: 5 256 14 14 (250880)
I0526 15:44:50.007375 30701 net.cpp:137] Memory required for data: 1017569340
I0526 15:44:50.007381 30701 layer_factory.hpp:77] Creating layer layer_256_5_bn2
I0526 15:44:50.007390 30701 net.cpp:84] Creating Layer layer_256_5_bn2
I0526 15:44:50.007393 30701 net.cpp:406] layer_256_5_bn2 <- layer_256_5_conv1
I0526 15:44:50.007400 30701 net.cpp:367] layer_256_5_bn2 -> layer_256_5_conv1 (in-place)
I0526 15:44:50.007652 30701 net.cpp:122] Setting up layer_256_5_bn2
I0526 15:44:50.007660 30701 net.cpp:129] Top shape: 5 256 14 14 (250880)
I0526 15:44:50.007664 30701 net.cpp:137] Memory required for data: 1018572860
I0526 15:44:50.007671 30701 layer_factory.hpp:77] Creating layer layer_256_5_scale2
I0526 15:44:50.007678 30701 net.cpp:84] Creating Layer layer_256_5_scale2
I0526 15:44:50.007683 30701 net.cpp:406] layer_256_5_scale2 <- layer_256_5_conv1
I0526 15:44:50.007688 30701 net.cpp:367] layer_256_5_scale2 -> layer_256_5_conv1 (in-place)
I0526 15:44:50.007740 30701 layer_factory.hpp:77] Creating layer layer_256_5_scale2
I0526 15:44:50.007887 30701 net.cpp:122] Setting up layer_256_5_scale2
I0526 15:44:50.007896 30701 net.cpp:129] Top shape: 5 256 14 14 (250880)
I0526 15:44:50.007908 30701 net.cpp:137] Memory required for data: 1019576380
I0526 15:44:50.007915 30701 layer_factory.hpp:77] Creating layer layer_256_5_relu2
I0526 15:44:50.007920 30701 net.cpp:84] Creating Layer layer_256_5_relu2
I0526 15:44:50.007926 30701 net.cpp:406] layer_256_5_relu2 <- layer_256_5_conv1
I0526 15:44:50.007931 30701 net.cpp:367] layer_256_5_relu2 -> layer_256_5_conv1 (in-place)
I0526 15:44:50.008108 30701 net.cpp:122] Setting up layer_256_5_relu2
I0526 15:44:50.008118 30701 net.cpp:129] Top shape: 5 256 14 14 (250880)
I0526 15:44:50.008121 30701 net.cpp:137] Memory required for data: 1020579900
I0526 15:44:50.008126 30701 layer_factory.hpp:77] Creating layer layer_256_5_conv2
I0526 15:44:50.008136 30701 net.cpp:84] Creating Layer layer_256_5_conv2
I0526 15:44:50.008139 30701 net.cpp:406] layer_256_5_conv2 <- layer_256_5_conv1
I0526 15:44:50.008147 30701 net.cpp:380] layer_256_5_conv2 -> layer_256_5_conv2
I0526 15:44:50.016696 30701 net.cpp:122] Setting up layer_256_5_conv2
I0526 15:44:50.016710 30701 net.cpp:129] Top shape: 5 256 14 14 (250880)
I0526 15:44:50.016715 30701 net.cpp:137] Memory required for data: 1021583420
I0526 15:44:50.016719 30701 layer_factory.hpp:77] Creating layer layer_256_5_bn3
I0526 15:44:50.016728 30701 net.cpp:84] Creating Layer layer_256_5_bn3
I0526 15:44:50.016733 30701 net.cpp:406] layer_256_5_bn3 <- layer_256_5_conv2
I0526 15:44:50.016739 30701 net.cpp:367] layer_256_5_bn3 -> layer_256_5_conv2 (in-place)
I0526 15:44:50.016997 30701 net.cpp:122] Setting up layer_256_5_bn3
I0526 15:44:50.017006 30701 net.cpp:129] Top shape: 5 256 14 14 (250880)
I0526 15:44:50.017010 30701 net.cpp:137] Memory required for data: 1022586940
I0526 15:44:50.017017 30701 layer_factory.hpp:77] Creating layer layer_256_5_scale3
I0526 15:44:50.017024 30701 net.cpp:84] Creating Layer layer_256_5_scale3
I0526 15:44:50.017029 30701 net.cpp:406] layer_256_5_scale3 <- layer_256_5_conv2
I0526 15:44:50.017035 30701 net.cpp:367] layer_256_5_scale3 -> layer_256_5_conv2 (in-place)
I0526 15:44:50.017089 30701 layer_factory.hpp:77] Creating layer layer_256_5_scale3
I0526 15:44:50.017236 30701 net.cpp:122] Setting up layer_256_5_scale3
I0526 15:44:50.017246 30701 net.cpp:129] Top shape: 5 256 14 14 (250880)
I0526 15:44:50.017249 30701 net.cpp:137] Memory required for data: 1023590460
I0526 15:44:50.017254 30701 layer_factory.hpp:77] Creating layer layer_256_5_relu3
I0526 15:44:50.017261 30701 net.cpp:84] Creating Layer layer_256_5_relu3
I0526 15:44:50.017266 30701 net.cpp:406] layer_256_5_relu3 <- layer_256_5_conv2
I0526 15:44:50.017271 30701 net.cpp:367] layer_256_5_relu3 -> layer_256_5_conv2 (in-place)
I0526 15:44:50.017446 30701 net.cpp:122] Setting up layer_256_5_relu3
I0526 15:44:50.017455 30701 net.cpp:129] Top shape: 5 256 14 14 (250880)
I0526 15:44:50.017458 30701 net.cpp:137] Memory required for data: 1024593980
I0526 15:44:50.017462 30701 layer_factory.hpp:77] Creating layer layer_256_5_conv3
I0526 15:44:50.017472 30701 net.cpp:84] Creating Layer layer_256_5_conv3
I0526 15:44:50.017477 30701 net.cpp:406] layer_256_5_conv3 <- layer_256_5_conv2
I0526 15:44:50.017483 30701 net.cpp:380] layer_256_5_conv3 -> layer_256_5_conv3
I0526 15:44:50.022186 30701 net.cpp:122] Setting up layer_256_5_conv3
I0526 15:44:50.022202 30701 net.cpp:129] Top shape: 5 1024 14 14 (1003520)
I0526 15:44:50.022207 30701 net.cpp:137] Memory required for data: 1028608060
I0526 15:44:50.022212 30701 layer_factory.hpp:77] Creating layer layer_256_5_sum
I0526 15:44:50.022218 30701 net.cpp:84] Creating Layer layer_256_5_sum
I0526 15:44:50.022223 30701 net.cpp:406] layer_256_5_sum <- layer_256_5_conv3
I0526 15:44:50.022228 30701 net.cpp:406] layer_256_5_sum <- layer_256_4_sum_layer_256_4_sum_0_split_1
I0526 15:44:50.022233 30701 net.cpp:380] layer_256_5_sum -> layer_256_5_sum
I0526 15:44:50.022270 30701 net.cpp:122] Setting up layer_256_5_sum
I0526 15:44:50.022279 30701 net.cpp:129] Top shape: 5 1024 14 14 (1003520)
I0526 15:44:50.022284 30701 net.cpp:137] Memory required for data: 1032622140
I0526 15:44:50.022286 30701 layer_factory.hpp:77] Creating layer layer_256_5_sum_layer_256_5_sum_0_split
I0526 15:44:50.022302 30701 net.cpp:84] Creating Layer layer_256_5_sum_layer_256_5_sum_0_split
I0526 15:44:50.022306 30701 net.cpp:406] layer_256_5_sum_layer_256_5_sum_0_split <- layer_256_5_sum
I0526 15:44:50.022312 30701 net.cpp:380] layer_256_5_sum_layer_256_5_sum_0_split -> layer_256_5_sum_layer_256_5_sum_0_split_0
I0526 15:44:50.022321 30701 net.cpp:380] layer_256_5_sum_layer_256_5_sum_0_split -> layer_256_5_sum_layer_256_5_sum_0_split_1
I0526 15:44:50.022373 30701 net.cpp:122] Setting up layer_256_5_sum_layer_256_5_sum_0_split
I0526 15:44:50.022382 30701 net.cpp:129] Top shape: 5 1024 14 14 (1003520)
I0526 15:44:50.022387 30701 net.cpp:129] Top shape: 5 1024 14 14 (1003520)
I0526 15:44:50.022392 30701 net.cpp:137] Memory required for data: 1040650300
I0526 15:44:50.022394 30701 layer_factory.hpp:77] Creating layer layer_256_6_bn1
I0526 15:44:50.022402 30701 net.cpp:84] Creating Layer layer_256_6_bn1
I0526 15:44:50.022406 30701 net.cpp:406] layer_256_6_bn1 <- layer_256_5_sum_layer_256_5_sum_0_split_0
I0526 15:44:50.022413 30701 net.cpp:380] layer_256_6_bn1 -> layer_256_6_bn1
I0526 15:44:50.022680 30701 net.cpp:122] Setting up layer_256_6_bn1
I0526 15:44:50.022688 30701 net.cpp:129] Top shape: 5 1024 14 14 (1003520)
I0526 15:44:50.022692 30701 net.cpp:137] Memory required for data: 1044664380
I0526 15:44:50.022699 30701 layer_factory.hpp:77] Creating layer layer_256_6_scale1
I0526 15:44:50.022706 30701 net.cpp:84] Creating Layer layer_256_6_scale1
I0526 15:44:50.022711 30701 net.cpp:406] layer_256_6_scale1 <- layer_256_6_bn1
I0526 15:44:50.022716 30701 net.cpp:367] layer_256_6_scale1 -> layer_256_6_bn1 (in-place)
I0526 15:44:50.022768 30701 layer_factory.hpp:77] Creating layer layer_256_6_scale1
I0526 15:44:50.022922 30701 net.cpp:122] Setting up layer_256_6_scale1
I0526 15:44:50.022931 30701 net.cpp:129] Top shape: 5 1024 14 14 (1003520)
I0526 15:44:50.022935 30701 net.cpp:137] Memory required for data: 1048678460
I0526 15:44:50.022941 30701 layer_factory.hpp:77] Creating layer layer_256_6_relu1
I0526 15:44:50.022948 30701 net.cpp:84] Creating Layer layer_256_6_relu1
I0526 15:44:50.022951 30701 net.cpp:406] layer_256_6_relu1 <- layer_256_6_bn1
I0526 15:44:50.022958 30701 net.cpp:367] layer_256_6_relu1 -> layer_256_6_bn1 (in-place)
I0526 15:44:50.023129 30701 net.cpp:122] Setting up layer_256_6_relu1
I0526 15:44:50.023140 30701 net.cpp:129] Top shape: 5 1024 14 14 (1003520)
I0526 15:44:50.023144 30701 net.cpp:137] Memory required for data: 1052692540
I0526 15:44:50.023149 30701 layer_factory.hpp:77] Creating layer layer_256_6_conv1
I0526 15:44:50.023157 30701 net.cpp:84] Creating Layer layer_256_6_conv1
I0526 15:44:50.023161 30701 net.cpp:406] layer_256_6_conv1 <- layer_256_6_bn1
I0526 15:44:50.023167 30701 net.cpp:380] layer_256_6_conv1 -> layer_256_6_conv1
I0526 15:44:50.027091 30701 net.cpp:122] Setting up layer_256_6_conv1
I0526 15:44:50.027104 30701 net.cpp:129] Top shape: 5 256 14 14 (250880)
I0526 15:44:50.027108 30701 net.cpp:137] Memory required for data: 1053696060
I0526 15:44:50.027114 30701 layer_factory.hpp:77] Creating layer layer_256_6_bn2
I0526 15:44:50.027122 30701 net.cpp:84] Creating Layer layer_256_6_bn2
I0526 15:44:50.027127 30701 net.cpp:406] layer_256_6_bn2 <- layer_256_6_conv1
I0526 15:44:50.027132 30701 net.cpp:367] layer_256_6_bn2 -> layer_256_6_conv1 (in-place)
I0526 15:44:50.027385 30701 net.cpp:122] Setting up layer_256_6_bn2
I0526 15:44:50.027395 30701 net.cpp:129] Top shape: 5 256 14 14 (250880)
I0526 15:44:50.027398 30701 net.cpp:137] Memory required for data: 1054699580
I0526 15:44:50.027405 30701 layer_factory.hpp:77] Creating layer layer_256_6_scale2
I0526 15:44:50.027412 30701 net.cpp:84] Creating Layer layer_256_6_scale2
I0526 15:44:50.027416 30701 net.cpp:406] layer_256_6_scale2 <- layer_256_6_conv1
I0526 15:44:50.027421 30701 net.cpp:367] layer_256_6_scale2 -> layer_256_6_conv1 (in-place)
I0526 15:44:50.027477 30701 layer_factory.hpp:77] Creating layer layer_256_6_scale2
I0526 15:44:50.027626 30701 net.cpp:122] Setting up layer_256_6_scale2
I0526 15:44:50.027643 30701 net.cpp:129] Top shape: 5 256 14 14 (250880)
I0526 15:44:50.027647 30701 net.cpp:137] Memory required for data: 1055703100
I0526 15:44:50.027653 30701 layer_factory.hpp:77] Creating layer layer_256_6_relu2
I0526 15:44:50.027659 30701 net.cpp:84] Creating Layer layer_256_6_relu2
I0526 15:44:50.027663 30701 net.cpp:406] layer_256_6_relu2 <- layer_256_6_conv1
I0526 15:44:50.027669 30701 net.cpp:367] layer_256_6_relu2 -> layer_256_6_conv1 (in-place)
I0526 15:44:50.028409 30701 net.cpp:122] Setting up layer_256_6_relu2
I0526 15:44:50.028419 30701 net.cpp:129] Top shape: 5 256 14 14 (250880)
I0526 15:44:50.028424 30701 net.cpp:137] Memory required for data: 1056706620
I0526 15:44:50.028427 30701 layer_factory.hpp:77] Creating layer layer_256_6_conv2
I0526 15:44:50.028439 30701 net.cpp:84] Creating Layer layer_256_6_conv2
I0526 15:44:50.028443 30701 net.cpp:406] layer_256_6_conv2 <- layer_256_6_conv1
I0526 15:44:50.028450 30701 net.cpp:380] layer_256_6_conv2 -> layer_256_6_conv2
I0526 15:44:50.036540 30701 net.cpp:122] Setting up layer_256_6_conv2
I0526 15:44:50.036561 30701 net.cpp:129] Top shape: 5 256 14 14 (250880)
I0526 15:44:50.036563 30701 net.cpp:137] Memory required for data: 1057710140
I0526 15:44:50.036571 30701 layer_factory.hpp:77] Creating layer layer_256_6_bn3
I0526 15:44:50.036581 30701 net.cpp:84] Creating Layer layer_256_6_bn3
I0526 15:44:50.036586 30701 net.cpp:406] layer_256_6_bn3 <- layer_256_6_conv2
I0526 15:44:50.036594 30701 net.cpp:367] layer_256_6_bn3 -> layer_256_6_conv2 (in-place)
I0526 15:44:50.036877 30701 net.cpp:122] Setting up layer_256_6_bn3
I0526 15:44:50.036890 30701 net.cpp:129] Top shape: 5 256 14 14 (250880)
I0526 15:44:50.036896 30701 net.cpp:137] Memory required for data: 1058713660
I0526 15:44:50.036908 30701 layer_factory.hpp:77] Creating layer layer_256_6_scale3
I0526 15:44:50.036931 30701 net.cpp:84] Creating Layer layer_256_6_scale3
I0526 15:44:50.036936 30701 net.cpp:406] layer_256_6_scale3 <- layer_256_6_conv2
I0526 15:44:50.036943 30701 net.cpp:367] layer_256_6_scale3 -> layer_256_6_conv2 (in-place)
I0526 15:44:50.037003 30701 layer_factory.hpp:77] Creating layer layer_256_6_scale3
I0526 15:44:50.037189 30701 net.cpp:122] Setting up layer_256_6_scale3
I0526 15:44:50.037199 30701 net.cpp:129] Top shape: 5 256 14 14 (250880)
I0526 15:44:50.037201 30701 net.cpp:137] Memory required for data: 1059717180
I0526 15:44:50.037220 30701 layer_factory.hpp:77] Creating layer layer_256_6_relu3
I0526 15:44:50.037226 30701 net.cpp:84] Creating Layer layer_256_6_relu3
I0526 15:44:50.037230 30701 net.cpp:406] layer_256_6_relu3 <- layer_256_6_conv2
I0526 15:44:50.037236 30701 net.cpp:367] layer_256_6_relu3 -> layer_256_6_conv2 (in-place)
I0526 15:44:50.037966 30701 net.cpp:122] Setting up layer_256_6_relu3
I0526 15:44:50.037976 30701 net.cpp:129] Top shape: 5 256 14 14 (250880)
I0526 15:44:50.037981 30701 net.cpp:137] Memory required for data: 1060720700
I0526 15:44:50.037997 30701 layer_factory.hpp:77] Creating layer layer_256_6_conv3
I0526 15:44:50.038008 30701 net.cpp:84] Creating Layer layer_256_6_conv3
I0526 15:44:50.038013 30701 net.cpp:406] layer_256_6_conv3 <- layer_256_6_conv2
I0526 15:44:50.038022 30701 net.cpp:380] layer_256_6_conv3 -> layer_256_6_conv3
I0526 15:44:50.042680 30701 net.cpp:122] Setting up layer_256_6_conv3
I0526 15:44:50.042692 30701 net.cpp:129] Top shape: 5 1024 14 14 (1003520)
I0526 15:44:50.042696 30701 net.cpp:137] Memory required for data: 1064734780
I0526 15:44:50.042714 30701 layer_factory.hpp:77] Creating layer layer_256_6_sum
I0526 15:44:50.042722 30701 net.cpp:84] Creating Layer layer_256_6_sum
I0526 15:44:50.042727 30701 net.cpp:406] layer_256_6_sum <- layer_256_6_conv3
I0526 15:44:50.042732 30701 net.cpp:406] layer_256_6_sum <- layer_256_5_sum_layer_256_5_sum_0_split_1
I0526 15:44:50.042737 30701 net.cpp:380] layer_256_6_sum -> layer_256_6_sum
I0526 15:44:50.042775 30701 net.cpp:122] Setting up layer_256_6_sum
I0526 15:44:50.042784 30701 net.cpp:129] Top shape: 5 1024 14 14 (1003520)
I0526 15:44:50.042788 30701 net.cpp:137] Memory required for data: 1068748860
I0526 15:44:50.042803 30701 layer_factory.hpp:77] Creating layer layer_512_1_bn1
I0526 15:44:50.042809 30701 net.cpp:84] Creating Layer layer_512_1_bn1
I0526 15:44:50.042814 30701 net.cpp:406] layer_512_1_bn1 <- layer_256_6_sum
I0526 15:44:50.042821 30701 net.cpp:380] layer_512_1_bn1 -> layer_512_1_bn1
I0526 15:44:50.043098 30701 net.cpp:122] Setting up layer_512_1_bn1
I0526 15:44:50.043108 30701 net.cpp:129] Top shape: 5 1024 14 14 (1003520)
I0526 15:44:50.043112 30701 net.cpp:137] Memory required for data: 1072762940
I0526 15:44:50.043119 30701 layer_factory.hpp:77] Creating layer layer_512_1_scale1
I0526 15:44:50.043128 30701 net.cpp:84] Creating Layer layer_512_1_scale1
I0526 15:44:50.043131 30701 net.cpp:406] layer_512_1_scale1 <- layer_512_1_bn1
I0526 15:44:50.043136 30701 net.cpp:367] layer_512_1_scale1 -> layer_512_1_bn1 (in-place)
I0526 15:44:50.043189 30701 layer_factory.hpp:77] Creating layer layer_512_1_scale1
I0526 15:44:50.043344 30701 net.cpp:122] Setting up layer_512_1_scale1
I0526 15:44:50.043354 30701 net.cpp:129] Top shape: 5 1024 14 14 (1003520)
I0526 15:44:50.043357 30701 net.cpp:137] Memory required for data: 1076777020
I0526 15:44:50.043364 30701 layer_factory.hpp:77] Creating layer layer_512_1_relu1
I0526 15:44:50.043371 30701 net.cpp:84] Creating Layer layer_512_1_relu1
I0526 15:44:50.043376 30701 net.cpp:406] layer_512_1_relu1 <- layer_512_1_bn1
I0526 15:44:50.043380 30701 net.cpp:367] layer_512_1_relu1 -> layer_512_1_bn1 (in-place)
I0526 15:44:50.043551 30701 net.cpp:122] Setting up layer_512_1_relu1
I0526 15:44:50.043561 30701 net.cpp:129] Top shape: 5 1024 14 14 (1003520)
I0526 15:44:50.043565 30701 net.cpp:137] Memory required for data: 1080791100
I0526 15:44:50.043568 30701 layer_factory.hpp:77] Creating layer layer_512_1_bn1_layer_512_1_relu1_0_split
I0526 15:44:50.043576 30701 net.cpp:84] Creating Layer layer_512_1_bn1_layer_512_1_relu1_0_split
I0526 15:44:50.043582 30701 net.cpp:406] layer_512_1_bn1_layer_512_1_relu1_0_split <- layer_512_1_bn1
I0526 15:44:50.043588 30701 net.cpp:380] layer_512_1_bn1_layer_512_1_relu1_0_split -> layer_512_1_bn1_layer_512_1_relu1_0_split_0
I0526 15:44:50.043596 30701 net.cpp:380] layer_512_1_bn1_layer_512_1_relu1_0_split -> layer_512_1_bn1_layer_512_1_relu1_0_split_1
I0526 15:44:50.043651 30701 net.cpp:122] Setting up layer_512_1_bn1_layer_512_1_relu1_0_split
I0526 15:44:50.043659 30701 net.cpp:129] Top shape: 5 1024 14 14 (1003520)
I0526 15:44:50.043664 30701 net.cpp:129] Top shape: 5 1024 14 14 (1003520)
I0526 15:44:50.043668 30701 net.cpp:137] Memory required for data: 1088819260
I0526 15:44:50.043670 30701 layer_factory.hpp:77] Creating layer layer_512_1_conv1
I0526 15:44:50.043680 30701 net.cpp:84] Creating Layer layer_512_1_conv1
I0526 15:44:50.043684 30701 net.cpp:406] layer_512_1_conv1 <- layer_512_1_bn1_layer_512_1_relu1_0_split_0
I0526 15:44:50.043691 30701 net.cpp:380] layer_512_1_conv1 -> layer_512_1_conv1
I0526 15:44:50.050987 30701 net.cpp:122] Setting up layer_512_1_conv1
I0526 15:44:50.051002 30701 net.cpp:129] Top shape: 5 512 14 14 (501760)
I0526 15:44:50.051005 30701 net.cpp:137] Memory required for data: 1090826300
I0526 15:44:50.051012 30701 layer_factory.hpp:77] Creating layer layer_512_1_bn2
I0526 15:44:50.051019 30701 net.cpp:84] Creating Layer layer_512_1_bn2
I0526 15:44:50.051024 30701 net.cpp:406] layer_512_1_bn2 <- layer_512_1_conv1
I0526 15:44:50.051031 30701 net.cpp:367] layer_512_1_bn2 -> layer_512_1_conv1 (in-place)
I0526 15:44:50.051295 30701 net.cpp:122] Setting up layer_512_1_bn2
I0526 15:44:50.051304 30701 net.cpp:129] Top shape: 5 512 14 14 (501760)
I0526 15:44:50.051308 30701 net.cpp:137] Memory required for data: 1092833340
I0526 15:44:50.051316 30701 layer_factory.hpp:77] Creating layer layer_512_1_scale2
I0526 15:44:50.051323 30701 net.cpp:84] Creating Layer layer_512_1_scale2
I0526 15:44:50.051327 30701 net.cpp:406] layer_512_1_scale2 <- layer_512_1_conv1
I0526 15:44:50.051332 30701 net.cpp:367] layer_512_1_scale2 -> layer_512_1_conv1 (in-place)
I0526 15:44:50.051383 30701 layer_factory.hpp:77] Creating layer layer_512_1_scale2
I0526 15:44:50.051550 30701 net.cpp:122] Setting up layer_512_1_scale2
I0526 15:44:50.051559 30701 net.cpp:129] Top shape: 5 512 14 14 (501760)
I0526 15:44:50.051563 30701 net.cpp:137] Memory required for data: 1094840380
I0526 15:44:50.051569 30701 layer_factory.hpp:77] Creating layer layer_512_1_relu2
I0526 15:44:50.051576 30701 net.cpp:84] Creating Layer layer_512_1_relu2
I0526 15:44:50.051580 30701 net.cpp:406] layer_512_1_relu2 <- layer_512_1_conv1
I0526 15:44:50.051585 30701 net.cpp:367] layer_512_1_relu2 -> layer_512_1_conv1 (in-place)
I0526 15:44:50.051760 30701 net.cpp:122] Setting up layer_512_1_relu2
I0526 15:44:50.051771 30701 net.cpp:129] Top shape: 5 512 14 14 (501760)
I0526 15:44:50.051775 30701 net.cpp:137] Memory required for data: 1096847420
I0526 15:44:50.051779 30701 layer_factory.hpp:77] Creating layer layer_512_1_conv2
I0526 15:44:50.051789 30701 net.cpp:84] Creating Layer layer_512_1_conv2
I0526 15:44:50.051792 30701 net.cpp:406] layer_512_1_conv2 <- layer_512_1_conv1
I0526 15:44:50.051800 30701 net.cpp:380] layer_512_1_conv2 -> layer_512_1_conv2
I0526 15:44:50.079375 30701 net.cpp:122] Setting up layer_512_1_conv2
I0526 15:44:50.079404 30701 net.cpp:129] Top shape: 5 512 7 7 (125440)
I0526 15:44:50.079408 30701 net.cpp:137] Memory required for data: 1097349180
I0526 15:44:50.079428 30701 layer_factory.hpp:77] Creating layer layer_512_1_bn3
I0526 15:44:50.079440 30701 net.cpp:84] Creating Layer layer_512_1_bn3
I0526 15:44:50.079447 30701 net.cpp:406] layer_512_1_bn3 <- layer_512_1_conv2
I0526 15:44:50.079455 30701 net.cpp:367] layer_512_1_bn3 -> layer_512_1_conv2 (in-place)
I0526 15:44:50.079748 30701 net.cpp:122] Setting up layer_512_1_bn3
I0526 15:44:50.079758 30701 net.cpp:129] Top shape: 5 512 7 7 (125440)
I0526 15:44:50.079761 30701 net.cpp:137] Memory required for data: 1097850940
I0526 15:44:50.079805 30701 layer_factory.hpp:77] Creating layer layer_512_1_scale3
I0526 15:44:50.079815 30701 net.cpp:84] Creating Layer layer_512_1_scale3
I0526 15:44:50.079819 30701 net.cpp:406] layer_512_1_scale3 <- layer_512_1_conv2
I0526 15:44:50.079825 30701 net.cpp:367] layer_512_1_scale3 -> layer_512_1_conv2 (in-place)
I0526 15:44:50.079885 30701 layer_factory.hpp:77] Creating layer layer_512_1_scale3
I0526 15:44:50.080065 30701 net.cpp:122] Setting up layer_512_1_scale3
I0526 15:44:50.080073 30701 net.cpp:129] Top shape: 5 512 7 7 (125440)
I0526 15:44:50.080076 30701 net.cpp:137] Memory required for data: 1098352700
I0526 15:44:50.080094 30701 layer_factory.hpp:77] Creating layer layer_512_1_relu3
I0526 15:44:50.080101 30701 net.cpp:84] Creating Layer layer_512_1_relu3
I0526 15:44:50.080106 30701 net.cpp:406] layer_512_1_relu3 <- layer_512_1_conv2
I0526 15:44:50.080112 30701 net.cpp:367] layer_512_1_relu3 -> layer_512_1_conv2 (in-place)
I0526 15:44:50.080292 30701 net.cpp:122] Setting up layer_512_1_relu3
I0526 15:44:50.080303 30701 net.cpp:129] Top shape: 5 512 7 7 (125440)
I0526 15:44:50.080307 30701 net.cpp:137] Memory required for data: 1098854460
I0526 15:44:50.080312 30701 layer_factory.hpp:77] Creating layer layer_512_1_conv3
I0526 15:44:50.080323 30701 net.cpp:84] Creating Layer layer_512_1_conv3
I0526 15:44:50.080328 30701 net.cpp:406] layer_512_1_conv3 <- layer_512_1_conv2
I0526 15:44:50.080334 30701 net.cpp:380] layer_512_1_conv3 -> layer_512_1_conv3
I0526 15:44:50.093318 30701 net.cpp:122] Setting up layer_512_1_conv3
I0526 15:44:50.093334 30701 net.cpp:129] Top shape: 5 2048 7 7 (501760)
I0526 15:44:50.093338 30701 net.cpp:137] Memory required for data: 1100861500
I0526 15:44:50.093343 30701 layer_factory.hpp:77] Creating layer layer_512_1_conv_expand
I0526 15:44:50.093356 30701 net.cpp:84] Creating Layer layer_512_1_conv_expand
I0526 15:44:50.093361 30701 net.cpp:406] layer_512_1_conv_expand <- layer_512_1_bn1_layer_512_1_relu1_0_split_1
I0526 15:44:50.093369 30701 net.cpp:380] layer_512_1_conv_expand -> layer_512_1_conv_expand
I0526 15:44:50.118181 30701 net.cpp:122] Setting up layer_512_1_conv_expand
I0526 15:44:50.118211 30701 net.cpp:129] Top shape: 5 2048 7 7 (501760)
I0526 15:44:50.118234 30701 net.cpp:137] Memory required for data: 1102868540
I0526 15:44:50.118244 30701 layer_factory.hpp:77] Creating layer layer_512_1_sum
I0526 15:44:50.118255 30701 net.cpp:84] Creating Layer layer_512_1_sum
I0526 15:44:50.118261 30701 net.cpp:406] layer_512_1_sum <- layer_512_1_conv3
I0526 15:44:50.118268 30701 net.cpp:406] layer_512_1_sum <- layer_512_1_conv_expand
I0526 15:44:50.118278 30701 net.cpp:380] layer_512_1_sum -> layer_512_1_sum
I0526 15:44:50.118330 30701 net.cpp:122] Setting up layer_512_1_sum
I0526 15:44:50.118340 30701 net.cpp:129] Top shape: 5 2048 7 7 (501760)
I0526 15:44:50.118343 30701 net.cpp:137] Memory required for data: 1104875580
I0526 15:44:50.118346 30701 layer_factory.hpp:77] Creating layer layer_512_1_sum_layer_512_1_sum_0_split
I0526 15:44:50.118353 30701 net.cpp:84] Creating Layer layer_512_1_sum_layer_512_1_sum_0_split
I0526 15:44:50.118357 30701 net.cpp:406] layer_512_1_sum_layer_512_1_sum_0_split <- layer_512_1_sum
I0526 15:44:50.118363 30701 net.cpp:380] layer_512_1_sum_layer_512_1_sum_0_split -> layer_512_1_sum_layer_512_1_sum_0_split_0
I0526 15:44:50.118372 30701 net.cpp:380] layer_512_1_sum_layer_512_1_sum_0_split -> layer_512_1_sum_layer_512_1_sum_0_split_1
I0526 15:44:50.118436 30701 net.cpp:122] Setting up layer_512_1_sum_layer_512_1_sum_0_split
I0526 15:44:50.118445 30701 net.cpp:129] Top shape: 5 2048 7 7 (501760)
I0526 15:44:50.118450 30701 net.cpp:129] Top shape: 5 2048 7 7 (501760)
I0526 15:44:50.118453 30701 net.cpp:137] Memory required for data: 1108889660
I0526 15:44:50.118456 30701 layer_factory.hpp:77] Creating layer layer_512_2_bn1
I0526 15:44:50.118465 30701 net.cpp:84] Creating Layer layer_512_2_bn1
I0526 15:44:50.118469 30701 net.cpp:406] layer_512_2_bn1 <- layer_512_1_sum_layer_512_1_sum_0_split_0
I0526 15:44:50.118476 30701 net.cpp:380] layer_512_2_bn1 -> layer_512_2_bn1
I0526 15:44:50.118788 30701 net.cpp:122] Setting up layer_512_2_bn1
I0526 15:44:50.118798 30701 net.cpp:129] Top shape: 5 2048 7 7 (501760)
I0526 15:44:50.118801 30701 net.cpp:137] Memory required for data: 1110896700
I0526 15:44:50.118820 30701 layer_factory.hpp:77] Creating layer layer_512_2_scale1
I0526 15:44:50.118829 30701 net.cpp:84] Creating Layer layer_512_2_scale1
I0526 15:44:50.118834 30701 net.cpp:406] layer_512_2_scale1 <- layer_512_2_bn1
I0526 15:44:50.118840 30701 net.cpp:367] layer_512_2_scale1 -> layer_512_2_bn1 (in-place)
I0526 15:44:50.118914 30701 layer_factory.hpp:77] Creating layer layer_512_2_scale1
I0526 15:44:50.119104 30701 net.cpp:122] Setting up layer_512_2_scale1
I0526 15:44:50.119114 30701 net.cpp:129] Top shape: 5 2048 7 7 (501760)
I0526 15:44:50.119128 30701 net.cpp:137] Memory required for data: 1112903740
I0526 15:44:50.119137 30701 layer_factory.hpp:77] Creating layer layer_512_2_relu1
I0526 15:44:50.119143 30701 net.cpp:84] Creating Layer layer_512_2_relu1
I0526 15:44:50.119148 30701 net.cpp:406] layer_512_2_relu1 <- layer_512_2_bn1
I0526 15:44:50.119153 30701 net.cpp:367] layer_512_2_relu1 -> layer_512_2_bn1 (in-place)
I0526 15:44:50.119335 30701 net.cpp:122] Setting up layer_512_2_relu1
I0526 15:44:50.119345 30701 net.cpp:129] Top shape: 5 2048 7 7 (501760)
I0526 15:44:50.119349 30701 net.cpp:137] Memory required for data: 1114910780
I0526 15:44:50.119352 30701 layer_factory.hpp:77] Creating layer layer_512_2_conv1
I0526 15:44:50.119364 30701 net.cpp:84] Creating Layer layer_512_2_conv1
I0526 15:44:50.119369 30701 net.cpp:406] layer_512_2_conv1 <- layer_512_2_bn1
I0526 15:44:50.119376 30701 net.cpp:380] layer_512_2_conv1 -> layer_512_2_conv1
I0526 15:44:50.132408 30701 net.cpp:122] Setting up layer_512_2_conv1
I0526 15:44:50.132426 30701 net.cpp:129] Top shape: 5 512 7 7 (125440)
I0526 15:44:50.132428 30701 net.cpp:137] Memory required for data: 1115412540
I0526 15:44:50.132434 30701 layer_factory.hpp:77] Creating layer layer_512_2_bn2
I0526 15:44:50.132444 30701 net.cpp:84] Creating Layer layer_512_2_bn2
I0526 15:44:50.132449 30701 net.cpp:406] layer_512_2_bn2 <- layer_512_2_conv1
I0526 15:44:50.132455 30701 net.cpp:367] layer_512_2_bn2 -> layer_512_2_conv1 (in-place)
I0526 15:44:50.132745 30701 net.cpp:122] Setting up layer_512_2_bn2
I0526 15:44:50.132755 30701 net.cpp:129] Top shape: 5 512 7 7 (125440)
I0526 15:44:50.132758 30701 net.cpp:137] Memory required for data: 1115914300
I0526 15:44:50.132766 30701 layer_factory.hpp:77] Creating layer layer_512_2_scale2
I0526 15:44:50.132773 30701 net.cpp:84] Creating Layer layer_512_2_scale2
I0526 15:44:50.132777 30701 net.cpp:406] layer_512_2_scale2 <- layer_512_2_conv1
I0526 15:44:50.132783 30701 net.cpp:367] layer_512_2_scale2 -> layer_512_2_conv1 (in-place)
I0526 15:44:50.132840 30701 layer_factory.hpp:77] Creating layer layer_512_2_scale2
I0526 15:44:50.133003 30701 net.cpp:122] Setting up layer_512_2_scale2
I0526 15:44:50.133013 30701 net.cpp:129] Top shape: 5 512 7 7 (125440)
I0526 15:44:50.133016 30701 net.cpp:137] Memory required for data: 1116416060
I0526 15:44:50.133023 30701 layer_factory.hpp:77] Creating layer layer_512_2_relu2
I0526 15:44:50.133028 30701 net.cpp:84] Creating Layer layer_512_2_relu2
I0526 15:44:50.133033 30701 net.cpp:406] layer_512_2_relu2 <- layer_512_2_conv1
I0526 15:44:50.133038 30701 net.cpp:367] layer_512_2_relu2 -> layer_512_2_conv1 (in-place)
I0526 15:44:50.133214 30701 net.cpp:122] Setting up layer_512_2_relu2
I0526 15:44:50.133225 30701 net.cpp:129] Top shape: 5 512 7 7 (125440)
I0526 15:44:50.133229 30701 net.cpp:137] Memory required for data: 1116917820
I0526 15:44:50.133232 30701 layer_factory.hpp:77] Creating layer layer_512_2_conv2
I0526 15:44:50.133242 30701 net.cpp:84] Creating Layer layer_512_2_conv2
I0526 15:44:50.133246 30701 net.cpp:406] layer_512_2_conv2 <- layer_512_2_conv1
I0526 15:44:50.133254 30701 net.cpp:380] layer_512_2_conv2 -> layer_512_2_conv2
I0526 15:44:50.161056 30701 net.cpp:122] Setting up layer_512_2_conv2
I0526 15:44:50.161097 30701 net.cpp:129] Top shape: 5 512 7 7 (125440)
I0526 15:44:50.161101 30701 net.cpp:137] Memory required for data: 1117419580
I0526 15:44:50.161110 30701 layer_factory.hpp:77] Creating layer layer_512_2_bn3
I0526 15:44:50.161121 30701 net.cpp:84] Creating Layer layer_512_2_bn3
I0526 15:44:50.161126 30701 net.cpp:406] layer_512_2_bn3 <- layer_512_2_conv2
I0526 15:44:50.161135 30701 net.cpp:367] layer_512_2_bn3 -> layer_512_2_conv2 (in-place)
I0526 15:44:50.161439 30701 net.cpp:122] Setting up layer_512_2_bn3
I0526 15:44:50.161448 30701 net.cpp:129] Top shape: 5 512 7 7 (125440)
I0526 15:44:50.161451 30701 net.cpp:137] Memory required for data: 1117921340
I0526 15:44:50.161458 30701 layer_factory.hpp:77] Creating layer layer_512_2_scale3
I0526 15:44:50.161468 30701 net.cpp:84] Creating Layer layer_512_2_scale3
I0526 15:44:50.161471 30701 net.cpp:406] layer_512_2_scale3 <- layer_512_2_conv2
I0526 15:44:50.161475 30701 net.cpp:367] layer_512_2_scale3 -> layer_512_2_conv2 (in-place)
I0526 15:44:50.161566 30701 layer_factory.hpp:77] Creating layer layer_512_2_scale3
I0526 15:44:50.161768 30701 net.cpp:122] Setting up layer_512_2_scale3
I0526 15:44:50.161778 30701 net.cpp:129] Top shape: 5 512 7 7 (125440)
I0526 15:44:50.161792 30701 net.cpp:137] Memory required for data: 1118423100
I0526 15:44:50.161801 30701 layer_factory.hpp:77] Creating layer layer_512_2_relu3
I0526 15:44:50.161810 30701 net.cpp:84] Creating Layer layer_512_2_relu3
I0526 15:44:50.161814 30701 net.cpp:406] layer_512_2_relu3 <- layer_512_2_conv2
I0526 15:44:50.161819 30701 net.cpp:367] layer_512_2_relu3 -> layer_512_2_conv2 (in-place)
I0526 15:44:50.162570 30701 net.cpp:122] Setting up layer_512_2_relu3
I0526 15:44:50.162582 30701 net.cpp:129] Top shape: 5 512 7 7 (125440)
I0526 15:44:50.162586 30701 net.cpp:137] Memory required for data: 1118924860
I0526 15:44:50.162601 30701 layer_factory.hpp:77] Creating layer layer_512_2_conv3
I0526 15:44:50.162614 30701 net.cpp:84] Creating Layer layer_512_2_conv3
I0526 15:44:50.162619 30701 net.cpp:406] layer_512_2_conv3 <- layer_512_2_conv2
I0526 15:44:50.162626 30701 net.cpp:380] layer_512_2_conv3 -> layer_512_2_conv3
I0526 15:44:50.175820 30701 net.cpp:122] Setting up layer_512_2_conv3
I0526 15:44:50.175866 30701 net.cpp:129] Top shape: 5 2048 7 7 (501760)
I0526 15:44:50.175870 30701 net.cpp:137] Memory required for data: 1120931900
I0526 15:44:50.175890 30701 layer_factory.hpp:77] Creating layer layer_512_2_sum
I0526 15:44:50.175902 30701 net.cpp:84] Creating Layer layer_512_2_sum
I0526 15:44:50.175909 30701 net.cpp:406] layer_512_2_sum <- layer_512_2_conv3
I0526 15:44:50.175916 30701 net.cpp:406] layer_512_2_sum <- layer_512_1_sum_layer_512_1_sum_0_split_1
I0526 15:44:50.175922 30701 net.cpp:380] layer_512_2_sum -> layer_512_2_sum
I0526 15:44:50.175971 30701 net.cpp:122] Setting up layer_512_2_sum
I0526 15:44:50.175979 30701 net.cpp:129] Top shape: 5 2048 7 7 (501760)
I0526 15:44:50.175982 30701 net.cpp:137] Memory required for data: 1122938940
I0526 15:44:50.175985 30701 layer_factory.hpp:77] Creating layer layer_512_2_sum_layer_512_2_sum_0_split
I0526 15:44:50.175992 30701 net.cpp:84] Creating Layer layer_512_2_sum_layer_512_2_sum_0_split
I0526 15:44:50.175995 30701 net.cpp:406] layer_512_2_sum_layer_512_2_sum_0_split <- layer_512_2_sum
I0526 15:44:50.176002 30701 net.cpp:380] layer_512_2_sum_layer_512_2_sum_0_split -> layer_512_2_sum_layer_512_2_sum_0_split_0
I0526 15:44:50.176009 30701 net.cpp:380] layer_512_2_sum_layer_512_2_sum_0_split -> layer_512_2_sum_layer_512_2_sum_0_split_1
I0526 15:44:50.176064 30701 net.cpp:122] Setting up layer_512_2_sum_layer_512_2_sum_0_split
I0526 15:44:50.176072 30701 net.cpp:129] Top shape: 5 2048 7 7 (501760)
I0526 15:44:50.176077 30701 net.cpp:129] Top shape: 5 2048 7 7 (501760)
I0526 15:44:50.176080 30701 net.cpp:137] Memory required for data: 1126953020
I0526 15:44:50.176084 30701 layer_factory.hpp:77] Creating layer layer_512_3_bn1
I0526 15:44:50.176090 30701 net.cpp:84] Creating Layer layer_512_3_bn1
I0526 15:44:50.176093 30701 net.cpp:406] layer_512_3_bn1 <- layer_512_2_sum_layer_512_2_sum_0_split_0
I0526 15:44:50.176100 30701 net.cpp:380] layer_512_3_bn1 -> layer_512_3_bn1
I0526 15:44:50.176398 30701 net.cpp:122] Setting up layer_512_3_bn1
I0526 15:44:50.176409 30701 net.cpp:129] Top shape: 5 2048 7 7 (501760)
I0526 15:44:50.176411 30701 net.cpp:137] Memory required for data: 1128960060
I0526 15:44:50.176419 30701 layer_factory.hpp:77] Creating layer layer_512_3_scale1
I0526 15:44:50.176429 30701 net.cpp:84] Creating Layer layer_512_3_scale1
I0526 15:44:50.176434 30701 net.cpp:406] layer_512_3_scale1 <- layer_512_3_bn1
I0526 15:44:50.176439 30701 net.cpp:367] layer_512_3_scale1 -> layer_512_3_bn1 (in-place)
I0526 15:44:50.176498 30701 layer_factory.hpp:77] Creating layer layer_512_3_scale1
I0526 15:44:50.176666 30701 net.cpp:122] Setting up layer_512_3_scale1
I0526 15:44:50.176674 30701 net.cpp:129] Top shape: 5 2048 7 7 (501760)
I0526 15:44:50.176678 30701 net.cpp:137] Memory required for data: 1130967100
I0526 15:44:50.176684 30701 layer_factory.hpp:77] Creating layer layer_512_3_relu1
I0526 15:44:50.176692 30701 net.cpp:84] Creating Layer layer_512_3_relu1
I0526 15:44:50.176697 30701 net.cpp:406] layer_512_3_relu1 <- layer_512_3_bn1
I0526 15:44:50.176702 30701 net.cpp:367] layer_512_3_relu1 -> layer_512_3_bn1 (in-place)
I0526 15:44:50.176880 30701 net.cpp:122] Setting up layer_512_3_relu1
I0526 15:44:50.176890 30701 net.cpp:129] Top shape: 5 2048 7 7 (501760)
I0526 15:44:50.176894 30701 net.cpp:137] Memory required for data: 1132974140
I0526 15:44:50.176898 30701 layer_factory.hpp:77] Creating layer layer_512_3_conv1
I0526 15:44:50.176908 30701 net.cpp:84] Creating Layer layer_512_3_conv1
I0526 15:44:50.176913 30701 net.cpp:406] layer_512_3_conv1 <- layer_512_3_bn1
I0526 15:44:50.176920 30701 net.cpp:380] layer_512_3_conv1 -> layer_512_3_conv1
I0526 15:44:50.190547 30701 net.cpp:122] Setting up layer_512_3_conv1
I0526 15:44:50.190565 30701 net.cpp:129] Top shape: 5 512 7 7 (125440)
I0526 15:44:50.190569 30701 net.cpp:137] Memory required for data: 1133475900
I0526 15:44:50.190574 30701 layer_factory.hpp:77] Creating layer layer_512_3_bn2
I0526 15:44:50.190583 30701 net.cpp:84] Creating Layer layer_512_3_bn2
I0526 15:44:50.190588 30701 net.cpp:406] layer_512_3_bn2 <- layer_512_3_conv1
I0526 15:44:50.190605 30701 net.cpp:367] layer_512_3_bn2 -> layer_512_3_conv1 (in-place)
I0526 15:44:50.190886 30701 net.cpp:122] Setting up layer_512_3_bn2
I0526 15:44:50.190894 30701 net.cpp:129] Top shape: 5 512 7 7 (125440)
I0526 15:44:50.190898 30701 net.cpp:137] Memory required for data: 1133977660
I0526 15:44:50.190907 30701 layer_factory.hpp:77] Creating layer layer_512_3_scale2
I0526 15:44:50.190917 30701 net.cpp:84] Creating Layer layer_512_3_scale2
I0526 15:44:50.190922 30701 net.cpp:406] layer_512_3_scale2 <- layer_512_3_conv1
I0526 15:44:50.190927 30701 net.cpp:367] layer_512_3_scale2 -> layer_512_3_conv1 (in-place)
I0526 15:44:50.190980 30701 layer_factory.hpp:77] Creating layer layer_512_3_scale2
I0526 15:44:50.191148 30701 net.cpp:122] Setting up layer_512_3_scale2
I0526 15:44:50.191156 30701 net.cpp:129] Top shape: 5 512 7 7 (125440)
I0526 15:44:50.191160 30701 net.cpp:137] Memory required for data: 1134479420
I0526 15:44:50.191166 30701 layer_factory.hpp:77] Creating layer layer_512_3_relu2
I0526 15:44:50.191174 30701 net.cpp:84] Creating Layer layer_512_3_relu2
I0526 15:44:50.191177 30701 net.cpp:406] layer_512_3_relu2 <- layer_512_3_conv1
I0526 15:44:50.191184 30701 net.cpp:367] layer_512_3_relu2 -> layer_512_3_conv1 (in-place)
I0526 15:44:50.191365 30701 net.cpp:122] Setting up layer_512_3_relu2
I0526 15:44:50.191375 30701 net.cpp:129] Top shape: 5 512 7 7 (125440)
I0526 15:44:50.191380 30701 net.cpp:137] Memory required for data: 1134981180
I0526 15:44:50.191382 30701 layer_factory.hpp:77] Creating layer layer_512_3_conv2
I0526 15:44:50.191392 30701 net.cpp:84] Creating Layer layer_512_3_conv2
I0526 15:44:50.191397 30701 net.cpp:406] layer_512_3_conv2 <- layer_512_3_conv1
I0526 15:44:50.191404 30701 net.cpp:380] layer_512_3_conv2 -> layer_512_3_conv2
I0526 15:44:50.219169 30701 net.cpp:122] Setting up layer_512_3_conv2
I0526 15:44:50.219199 30701 net.cpp:129] Top shape: 5 512 7 7 (125440)
I0526 15:44:50.219203 30701 net.cpp:137] Memory required for data: 1135482940
I0526 15:44:50.219213 30701 layer_factory.hpp:77] Creating layer layer_512_3_bn3
I0526 15:44:50.219223 30701 net.cpp:84] Creating Layer layer_512_3_bn3
I0526 15:44:50.219230 30701 net.cpp:406] layer_512_3_bn3 <- layer_512_3_conv2
I0526 15:44:50.219240 30701 net.cpp:367] layer_512_3_bn3 -> layer_512_3_conv2 (in-place)
I0526 15:44:50.219544 30701 net.cpp:122] Setting up layer_512_3_bn3
I0526 15:44:50.219553 30701 net.cpp:129] Top shape: 5 512 7 7 (125440)
I0526 15:44:50.219558 30701 net.cpp:137] Memory required for data: 1135984700
I0526 15:44:50.219576 30701 layer_factory.hpp:77] Creating layer layer_512_3_scale3
I0526 15:44:50.219585 30701 net.cpp:84] Creating Layer layer_512_3_scale3
I0526 15:44:50.219590 30701 net.cpp:406] layer_512_3_scale3 <- layer_512_3_conv2
I0526 15:44:50.219595 30701 net.cpp:367] layer_512_3_scale3 -> layer_512_3_conv2 (in-place)
I0526 15:44:50.219660 30701 layer_factory.hpp:77] Creating layer layer_512_3_scale3
I0526 15:44:50.219830 30701 net.cpp:122] Setting up layer_512_3_scale3
I0526 15:44:50.219838 30701 net.cpp:129] Top shape: 5 512 7 7 (125440)
I0526 15:44:50.219842 30701 net.cpp:137] Memory required for data: 1136486460
I0526 15:44:50.219848 30701 layer_factory.hpp:77] Creating layer layer_512_3_relu3
I0526 15:44:50.219857 30701 net.cpp:84] Creating Layer layer_512_3_relu3
I0526 15:44:50.219861 30701 net.cpp:406] layer_512_3_relu3 <- layer_512_3_conv2
I0526 15:44:50.219866 30701 net.cpp:367] layer_512_3_relu3 -> layer_512_3_conv2 (in-place)
I0526 15:44:50.220048 30701 net.cpp:122] Setting up layer_512_3_relu3
I0526 15:44:50.220058 30701 net.cpp:129] Top shape: 5 512 7 7 (125440)
I0526 15:44:50.220062 30701 net.cpp:137] Memory required for data: 1136988220
I0526 15:44:50.220065 30701 layer_factory.hpp:77] Creating layer layer_512_3_conv3
I0526 15:44:50.220077 30701 net.cpp:84] Creating Layer layer_512_3_conv3
I0526 15:44:50.220082 30701 net.cpp:406] layer_512_3_conv3 <- layer_512_3_conv2
I0526 15:44:50.220088 30701 net.cpp:380] layer_512_3_conv3 -> layer_512_3_conv3
I0526 15:44:50.233131 30701 net.cpp:122] Setting up layer_512_3_conv3
I0526 15:44:50.233147 30701 net.cpp:129] Top shape: 5 2048 7 7 (501760)
I0526 15:44:50.233150 30701 net.cpp:137] Memory required for data: 1138995260
I0526 15:44:50.233156 30701 layer_factory.hpp:77] Creating layer layer_512_3_sum
I0526 15:44:50.233165 30701 net.cpp:84] Creating Layer layer_512_3_sum
I0526 15:44:50.233170 30701 net.cpp:406] layer_512_3_sum <- layer_512_3_conv3
I0526 15:44:50.233175 30701 net.cpp:406] layer_512_3_sum <- layer_512_2_sum_layer_512_2_sum_0_split_1
I0526 15:44:50.233182 30701 net.cpp:380] layer_512_3_sum -> layer_512_3_sum
I0526 15:44:50.233222 30701 net.cpp:122] Setting up layer_512_3_sum
I0526 15:44:50.233232 30701 net.cpp:129] Top shape: 5 2048 7 7 (501760)
I0526 15:44:50.233234 30701 net.cpp:137] Memory required for data: 1141002300
I0526 15:44:50.233238 30701 layer_factory.hpp:77] Creating layer last_bn
I0526 15:44:50.233245 30701 net.cpp:84] Creating Layer last_bn
I0526 15:44:50.233250 30701 net.cpp:406] last_bn <- layer_512_3_sum
I0526 15:44:50.233256 30701 net.cpp:367] last_bn -> layer_512_3_sum (in-place)
I0526 15:44:50.233543 30701 net.cpp:122] Setting up last_bn
I0526 15:44:50.233552 30701 net.cpp:129] Top shape: 5 2048 7 7 (501760)
I0526 15:44:50.233556 30701 net.cpp:137] Memory required for data: 1143009340
I0526 15:44:50.233563 30701 layer_factory.hpp:77] Creating layer last_scale
I0526 15:44:50.233570 30701 net.cpp:84] Creating Layer last_scale
I0526 15:44:50.233574 30701 net.cpp:406] last_scale <- layer_512_3_sum
I0526 15:44:50.233582 30701 net.cpp:367] last_scale -> layer_512_3_sum (in-place)
I0526 15:44:50.233638 30701 layer_factory.hpp:77] Creating layer last_scale
I0526 15:44:50.233808 30701 net.cpp:122] Setting up last_scale
I0526 15:44:50.233819 30701 net.cpp:129] Top shape: 5 2048 7 7 (501760)
I0526 15:44:50.233822 30701 net.cpp:137] Memory required for data: 1145016380
I0526 15:44:50.233829 30701 layer_factory.hpp:77] Creating layer last_relu
I0526 15:44:50.233834 30701 net.cpp:84] Creating Layer last_relu
I0526 15:44:50.233839 30701 net.cpp:406] last_relu <- layer_512_3_sum
I0526 15:44:50.233844 30701 net.cpp:367] last_relu -> layer_512_3_sum (in-place)
I0526 15:44:50.234022 30701 net.cpp:122] Setting up last_relu
I0526 15:44:50.234032 30701 net.cpp:129] Top shape: 5 2048 7 7 (501760)
I0526 15:44:50.234036 30701 net.cpp:137] Memory required for data: 1147023420
I0526 15:44:50.234040 30701 layer_factory.hpp:77] Creating layer global_pool
I0526 15:44:50.234046 30701 net.cpp:84] Creating Layer global_pool
I0526 15:44:50.234050 30701 net.cpp:406] global_pool <- layer_512_3_sum
I0526 15:44:50.234057 30701 net.cpp:380] global_pool -> global_pool
I0526 15:44:50.234861 30701 net.cpp:122] Setting up global_pool
I0526 15:44:50.234874 30701 net.cpp:129] Top shape: 5 2048 1 1 (10240)
I0526 15:44:50.234877 30701 net.cpp:137] Memory required for data: 1147064380
I0526 15:44:50.234881 30701 layer_factory.hpp:77] Creating layer score
I0526 15:44:50.234889 30701 net.cpp:84] Creating Layer score
I0526 15:44:50.234892 30701 net.cpp:406] score <- global_pool
I0526 15:44:50.234899 30701 net.cpp:380] score -> score
I0526 15:44:50.235077 30701 net.cpp:122] Setting up score
I0526 15:44:50.235088 30701 net.cpp:129] Top shape: 5 8 (40)
I0526 15:44:50.235091 30701 net.cpp:137] Memory required for data: 1147064540
I0526 15:44:50.235098 30701 layer_factory.hpp:77] Creating layer score_score_0_split
I0526 15:44:50.235105 30701 net.cpp:84] Creating Layer score_score_0_split
I0526 15:44:50.235108 30701 net.cpp:406] score_score_0_split <- score
I0526 15:44:50.235115 30701 net.cpp:380] score_score_0_split -> score_score_0_split_0
I0526 15:44:50.235121 30701 net.cpp:380] score_score_0_split -> score_score_0_split_1
I0526 15:44:50.235175 30701 net.cpp:122] Setting up score_score_0_split
I0526 15:44:50.235183 30701 net.cpp:129] Top shape: 5 8 (40)
I0526 15:44:50.235188 30701 net.cpp:129] Top shape: 5 8 (40)
I0526 15:44:50.235190 30701 net.cpp:137] Memory required for data: 1147064860
I0526 15:44:50.235193 30701 layer_factory.hpp:77] Creating layer loss
I0526 15:44:50.235213 30701 net.cpp:84] Creating Layer loss
I0526 15:44:50.235218 30701 net.cpp:406] loss <- score_score_0_split_0
I0526 15:44:50.235221 30701 net.cpp:406] loss <- label_data_1_split_0
I0526 15:44:50.235226 30701 net.cpp:380] loss -> loss
…
