…
I0521 18:45:30.017365 19816 net.cpp:51] Initializing net from parameters: 
name: "CaffeNet"
state {
  phase: TRAIN
  level: 0
  stage: ""
}
layer {
  name: "data"
  type: "Data"
  top: "data"
  top: "label"
  include {
    phase: TRAIN
  }
  transform_param {
    mirror: true
    crop_size: 227
    mean_file: "/home/k/PycharmProjects/AgeGenderDeepLearning-master/Folds/lmdb/Test_fold_is_3/mean.binaryproto"
  }
  data_param {
    source: "/home/k/PycharmProjects/AgeGenderDeepLearning-master/Folds/lmdb/Test_fold_is_3/age_train_lmdb"
    batch_size: 50
    backend: LMDB
  }
}
layer {
  name: "conv1"
  type: "Convolution"
  bottom: "data"
  top: "conv1"
  param {
    lr_mult: 1
    decay_mult: 1
  }
  param {
    lr_mult: 2
    decay_mult: 0
  }
  convolution_param {
    num_output: 96
    kernel_size: 7
    stride: 4
    weight_filler {
      type: "gaussian"
      std: 0.01
    }
    bias_filler {
      type: "constant"
      value: 0
    }
  }
}
layer {
  name: "relu1"
  type: "ReLU"
  bottom: "conv1"
  top: "conv1"
}
layer {
  name: "pool1"
  type: "Pooling"
  bottom: "conv1"
  top: "pool1"
  pooling_param {
    pool: MAX
    kernel_size: 3
    stride: 2
  }
}
layer {
  name: "norm1"
  type: "LRN"
  bottom: "pool1"
  top: "norm1"
  lrn_param {
    local_size: 5
    alpha: 0.0001
    beta: 0.75
  }
}
layer {
  name: "conv2"
  type: "Convolution"
  bottom: "norm1"
  top: "conv2"
  param {
    lr_mult: 1
    decay_mult: 1
  }
  param {
    lr_mult: 2
    decay_mult: 0
  }
  convolution_param {
    num_output: 256
    pad: 2
    kernel_size: 5
    weight_filler {
      type: "gaussian"
      std: 0.01
    }
    bias_filler {
      type: "constant"
      value: 1
    }
  }
}
layer {
  name: "relu2"
  type: "ReLU"
  bottom: "conv2"
  top: "conv2"
}
layer {
  name: "pool2"
  type: "Pooling"
  bottom: "conv2"
  top: "pool2"
  pooling_param {
    pool: MAX
    kernel_size: 3
    stride: 2
  }
}
layer {
  name: "norm2"
  type: "LRN"
  bottom: "pool2"
  top: "norm2"
  lrn_param {
    local_size: 5
    alpha: 0.0001
    beta: 0.75
  }
}
layer {
  name: "conv3"
  type: "Convolution"
  bottom: "norm2"
  top: "conv3"
  param {
    lr_mult: 1
    decay_mult: 1
  }
  param {
    lr_mult: 2
    decay_mult: 0
  }
  convolution_param {
    num_output: 384
    pad: 1
    kernel_size: 3
    weight_filler {
      type: "gaussian"
      std: 0.01
    }
    bias_filler {
      type: "constant"
      value: 0
    }
  }
}
layer {
  name: "relu3"
  type: "ReLU"
  bottom: "conv3"
  top: "conv3"
}
layer {
  name: "pool5"
  type: "Pooling"
  bottom: "conv3"
  top: "pool5"
  pooling_param {
    pool: MAX
    kernel_size: 3
    stride: 2
  }
}
layer {
  name: "fc6"
  type: "InnerProduct"
  bottom: "pool5"
  top: "fc6"
  param {
    lr_mult: 1
    decay_mult: 1
  }
  param {
    lr_mult: 2
    decay_mult: 0
  }
  inner_product_param {
    num_output: 512
    weight_filler {
      type: "gaussian"
      std: 0.005
    }
    bias_filler {
      type: "constant"
      value: 1
    }
  }
}
layer {
  name: "relu6"
  type: "ReLU"
  bottom: "fc6"
  top: "fc6"
}
layer {
  name: "drop6"
  type: "Dropout"
  bottom: "fc6"
  top: "fc6"
  dropout_param {
    dropout_ratio: 0.5
  }
}
layer {
  name: "fc7"
  type: "InnerProduct"
  bottom: "fc6"
  top: "fc7"
  param {
    lr_mult: 1
    decay_mult: 1
  }
  param {
    lr_mult: 2
    decay_mult: 0
  }
  inner_product_param {
    num_output: 512
    weight_filler {
      type: "gaussian"
      std: 0.005
    }
    bias_filler {
      type: "constant"
      value: 1
    }
  }
}
layer {
  name: "relu7"
  type: "ReLU"
  bottom: "fc7"
  top: "fc7"
}
layer {
  name: "drop7"
  type: "Dropout"
  bottom: "fc7"
  top: "fc7"
  dropout_param {
    dropout_ratio: 0.5
  }
}
layer {
  name: "fc8"
  type: "InnerProduct"
  bottom: "fc7"
  top: "fc8"
  param {
    lr_mult: 10
    decay_mult: 1
  }
  param {
    lr_mult: 20
    decay_mult: 0
  }
  inner_product_param {
    num_output: 8
    weight_filler {
      type: "gaussian"
      std: 0.01
    }
    bias_filler {
      type: "constant"
      value: 0
    }
  }
}
layer {
  name: "loss"
  type: "SoftmaxWithLoss"
  bottom: "fc8"
  bottom: "label"
  top: "loss"
}
I0521 18:45:30.017597 19816 layer_factory.hpp:77] Creating layer data
I0521 18:45:30.048902 19816 db_lmdb.cpp:35] Opened lmdb /home/k/PycharmProjects/AgeGenderDeepLearning-master/Folds/lmdb/Test_fold_is_3/age_train_lmdb
I0521 18:45:30.065605 19816 net.cpp:84] Creating Layer data
I0521 18:45:30.065659 19816 net.cpp:380] data -> data
I0521 18:45:30.065702 19816 net.cpp:380] data -> label
I0521 18:45:30.065732 19816 data_transformer.cpp:25] Loading mean file from: /home/k/PycharmProjects/AgeGenderDeepLearning-master/Folds/lmdb/Test_fold_is_3/mean.binaryproto
I0521 18:45:30.100113 19816 data_layer.cpp:45] output data size: 50,3,227,227
I0521 18:45:30.179549 19816 net.cpp:122] Setting up data
I0521 18:45:30.179596 19816 net.cpp:129] Top shape: 50 3 227 227 (7729350)
I0521 18:45:30.179602 19816 net.cpp:129] Top shape: 50 (50)
I0521 18:45:30.179605 19816 net.cpp:137] Memory required for data: 30917600
I0521 18:45:30.179616 19816 layer_factory.hpp:77] Creating layer conv1
I0521 18:45:30.179637 19816 net.cpp:84] Creating Layer conv1
I0521 18:45:30.179651 19816 net.cpp:406] conv1 <- data
I0521 18:45:30.179666 19816 net.cpp:380] conv1 -> conv1
I0521 18:45:30.432729 19816 net.cpp:122] Setting up conv1
I0521 18:45:30.432757 19816 net.cpp:129] Top shape: 50 96 56 56 (15052800)
I0521 18:45:30.432761 19816 net.cpp:137] Memory required for data: 91128800
I0521 18:45:30.432796 19816 layer_factory.hpp:77] Creating layer relu1
I0521 18:45:30.432811 19816 net.cpp:84] Creating Layer relu1
I0521 18:45:30.432816 19816 net.cpp:406] relu1 <- conv1
I0521 18:45:30.432823 19816 net.cpp:367] relu1 -> conv1 (in-place)
I0521 18:45:30.432976 19816 net.cpp:122] Setting up relu1
I0521 18:45:30.432986 19816 net.cpp:129] Top shape: 50 96 56 56 (15052800)
I0521 18:45:30.432989 19816 net.cpp:137] Memory required for data: 151340000
I0521 18:45:30.432992 19816 layer_factory.hpp:77] Creating layer pool1
I0521 18:45:30.433012 19816 net.cpp:84] Creating Layer pool1
I0521 18:45:30.433015 19816 net.cpp:406] pool1 <- conv1
I0521 18:45:30.433020 19816 net.cpp:380] pool1 -> pool1
I0521 18:45:30.433064 19816 net.cpp:122] Setting up pool1
I0521 18:45:30.433073 19816 net.cpp:129] Top shape: 50 96 28 28 (3763200)
I0521 18:45:30.433076 19816 net.cpp:137] Memory required for data: 166392800
I0521 18:45:30.433079 19816 layer_factory.hpp:77] Creating layer norm1
I0521 18:45:30.433089 19816 net.cpp:84] Creating Layer norm1
I0521 18:45:30.433094 19816 net.cpp:406] norm1 <- pool1
I0521 18:45:30.433099 19816 net.cpp:380] norm1 -> norm1
I0521 18:45:30.433768 19816 net.cpp:122] Setting up norm1
I0521 18:45:30.433779 19816 net.cpp:129] Top shape: 50 96 28 28 (3763200)
I0521 18:45:30.433794 19816 net.cpp:137] Memory required for data: 181445600
I0521 18:45:30.433799 19816 layer_factory.hpp:77] Creating layer conv2
I0521 18:45:30.433809 19816 net.cpp:84] Creating Layer conv2
I0521 18:45:30.433821 19816 net.cpp:406] conv2 <- norm1
I0521 18:45:30.433845 19816 net.cpp:380] conv2 -> conv2
I0521 18:45:30.442634 19816 net.cpp:122] Setting up conv2
I0521 18:45:30.442672 19816 net.cpp:129] Top shape: 50 256 28 28 (10035200)
I0521 18:45:30.442677 19816 net.cpp:137] Memory required for data: 221586400
I0521 18:45:30.442689 19816 layer_factory.hpp:77] Creating layer relu2
I0521 18:45:30.442698 19816 net.cpp:84] Creating Layer relu2
I0521 18:45:30.442703 19816 net.cpp:406] relu2 <- conv2
I0521 18:45:30.442709 19816 net.cpp:367] relu2 -> conv2 (in-place)
I0521 18:45:30.442862 19816 net.cpp:122] Setting up relu2
I0521 18:45:30.442872 19816 net.cpp:129] Top shape: 50 256 28 28 (10035200)
I0521 18:45:30.442885 19816 net.cpp:137] Memory required for data: 261727200
I0521 18:45:30.442889 19816 layer_factory.hpp:77] Creating layer pool2
I0521 18:45:30.442895 19816 net.cpp:84] Creating Layer pool2
I0521 18:45:30.442899 19816 net.cpp:406] pool2 <- conv2
I0521 18:45:30.442904 19816 net.cpp:380] pool2 -> pool2
I0521 18:45:30.442953 19816 net.cpp:122] Setting up pool2
I0521 18:45:30.442962 19816 net.cpp:129] Top shape: 50 256 14 14 (2508800)
I0521 18:45:30.442965 19816 net.cpp:137] Memory required for data: 271762400
I0521 18:45:30.442968 19816 layer_factory.hpp:77] Creating layer norm2
I0521 18:45:30.442977 19816 net.cpp:84] Creating Layer norm2
I0521 18:45:30.442981 19816 net.cpp:406] norm2 <- pool2
I0521 18:45:30.442986 19816 net.cpp:380] norm2 -> norm2
I0521 18:45:30.443151 19816 net.cpp:122] Setting up norm2
I0521 18:45:30.443161 19816 net.cpp:129] Top shape: 50 256 14 14 (2508800)
I0521 18:45:30.443164 19816 net.cpp:137] Memory required for data: 281797600
I0521 18:45:30.443167 19816 layer_factory.hpp:77] Creating layer conv3
I0521 18:45:30.443178 19816 net.cpp:84] Creating Layer conv3
I0521 18:45:30.443181 19816 net.cpp:406] conv3 <- norm2
I0521 18:45:30.443187 19816 net.cpp:380] conv3 -> conv3
I0521 18:45:30.457103 19816 net.cpp:122] Setting up conv3
I0521 18:45:30.457130 19816 net.cpp:129] Top shape: 50 384 14 14 (3763200)
I0521 18:45:30.457134 19816 net.cpp:137] Memory required for data: 296850400
I0521 18:45:30.457147 19816 layer_factory.hpp:77] Creating layer relu3
I0521 18:45:30.457159 19816 net.cpp:84] Creating Layer relu3
I0521 18:45:30.457173 19816 net.cpp:406] relu3 <- conv3
I0521 18:45:30.457180 19816 net.cpp:367] relu3 -> conv3 (in-place)
I0521 18:45:30.457334 19816 net.cpp:122] Setting up relu3
I0521 18:45:30.457343 19816 net.cpp:129] Top shape: 50 384 14 14 (3763200)
I0521 18:45:30.457347 19816 net.cpp:137] Memory required for data: 311903200
I0521 18:45:30.457350 19816 layer_factory.hpp:77] Creating layer pool5
I0521 18:45:30.457356 19816 net.cpp:84] Creating Layer pool5
I0521 18:45:30.457360 19816 net.cpp:406] pool5 <- conv3
I0521 18:45:30.457365 19816 net.cpp:380] pool5 -> pool5
I0521 18:45:30.457420 19816 net.cpp:122] Setting up pool5
I0521 18:45:30.457439 19816 net.cpp:129] Top shape: 50 384 7 7 (940800)
I0521 18:45:30.457443 19816 net.cpp:137] Memory required for data: 315666400
I0521 18:45:30.457446 19816 layer_factory.hpp:77] Creating layer fc6
I0521 18:45:30.457453 19816 net.cpp:84] Creating Layer fc6
I0521 18:45:30.457458 19816 net.cpp:406] fc6 <- pool5
I0521 18:45:30.457463 19816 net.cpp:380] fc6 -> fc6
I0521 18:45:30.563671 19816 net.cpp:122] Setting up fc6
I0521 18:45:30.563709 19816 net.cpp:129] Top shape: 50 512 (25600)
I0521 18:45:30.563712 19816 net.cpp:137] Memory required for data: 315768800
I0521 18:45:30.563724 19816 layer_factory.hpp:77] Creating layer relu6
I0521 18:45:30.563733 19816 net.cpp:84] Creating Layer relu6
I0521 18:45:30.563738 19816 net.cpp:406] relu6 <- fc6
I0521 18:45:30.563756 19816 net.cpp:367] relu6 -> fc6 (in-place)
I0521 18:45:30.564554 19816 net.cpp:122] Setting up relu6
I0521 18:45:30.564565 19816 net.cpp:129] Top shape: 50 512 (25600)
I0521 18:45:30.564568 19816 net.cpp:137] Memory required for data: 315871200
I0521 18:45:30.564571 19816 layer_factory.hpp:77] Creating layer drop6
I0521 18:45:30.564579 19816 net.cpp:84] Creating Layer drop6
I0521 18:45:30.564582 19816 net.cpp:406] drop6 <- fc6
I0521 18:45:30.564618 19816 net.cpp:367] drop6 -> fc6 (in-place)
I0521 18:45:30.564651 19816 net.cpp:122] Setting up drop6
I0521 18:45:30.564658 19816 net.cpp:129] Top shape: 50 512 (25600)
I0521 18:45:30.564672 19816 net.cpp:137] Memory required for data: 315973600
I0521 18:45:30.564677 19816 layer_factory.hpp:77] Creating layer fc7
I0521 18:45:30.564683 19816 net.cpp:84] Creating Layer fc7
I0521 18:45:30.564687 19816 net.cpp:406] fc7 <- fc6
I0521 18:45:30.564692 19816 net.cpp:380] fc7 -> fc7
I0521 18:45:30.567431 19816 net.cpp:122] Setting up fc7
I0521 18:45:30.567440 19816 net.cpp:129] Top shape: 50 512 (25600)
I0521 18:45:30.567443 19816 net.cpp:137] Memory required for data: 316076000
I0521 18:45:30.567453 19816 layer_factory.hpp:77] Creating layer relu7
I0521 18:45:30.567461 19816 net.cpp:84] Creating Layer relu7
I0521 18:45:30.567464 19816 net.cpp:406] relu7 <- fc7
I0521 18:45:30.567468 19816 net.cpp:367] relu7 -> fc7 (in-place)
I0521 18:45:30.567625 19816 net.cpp:122] Setting up relu7
I0521 18:45:30.567634 19816 net.cpp:129] Top shape: 50 512 (25600)
I0521 18:45:30.567637 19816 net.cpp:137] Memory required for data: 316178400
I0521 18:45:30.567641 19816 layer_factory.hpp:77] Creating layer drop7
I0521 18:45:30.567644 19816 net.cpp:84] Creating Layer drop7
I0521 18:45:30.567647 19816 net.cpp:406] drop7 <- fc7
I0521 18:45:30.567652 19816 net.cpp:367] drop7 -> fc7 (in-place)
I0521 18:45:30.567687 19816 net.cpp:122] Setting up drop7
I0521 18:45:30.567693 19816 net.cpp:129] Top shape: 50 512 (25600)
I0521 18:45:30.567697 19816 net.cpp:137] Memory required for data: 316280800
I0521 18:45:30.567699 19816 layer_factory.hpp:77] Creating layer fc8
I0521 18:45:30.567704 19816 net.cpp:84] Creating Layer fc8
I0521 18:45:30.567708 19816 net.cpp:406] fc8 <- fc7
I0521 18:45:30.567713 19816 net.cpp:380] fc8 -> fc8
I0521 18:45:30.567854 19816 net.cpp:122] Setting up fc8
I0521 18:45:30.567862 19816 net.cpp:129] Top shape: 50 8 (400)
I0521 18:45:30.567865 19816 net.cpp:137] Memory required for data: 316282400
I0521 18:45:30.567872 19816 layer_factory.hpp:77] Creating layer loss
I0521 18:45:30.567876 19816 net.cpp:84] Creating Layer loss
I0521 18:45:30.567879 19816 net.cpp:406] loss <- fc8
I0521 18:45:30.567883 19816 net.cpp:406] loss <- label
I0521 18:45:30.567889 19816 net.cpp:380] loss -> loss
I0521 18:45:30.567909 19816 layer_factory.hpp:77] Creating layer loss
…
I0521 18:45:30.568588 19816 net.cpp:294] The NetState phase (1) differed from the phase (0) specified by a rule in layer data
I0521 18:45:30.568734 19816 net.cpp:51] Initializing net from parameters: 
name: "CaffeNet"
state {
  phase: TEST
}
layer {
  name: "data"
  type: "Data"
  top: "data"
  top: "label"
  include {
    phase: TEST
  }
  transform_param {
    mirror: false
    crop_size: 227
    mean_file: "/home/k/PycharmProjects/AgeGenderDeepLearning-master/Folds/lmdb/Test_fold_is_3/mean.binaryproto"
  }
  data_param {
    source: "/home/k/PycharmProjects/AgeGenderDeepLearning-master/Folds/lmdb/Test_fold_is_3/age_val_lmdb"
    batch_size: 50
    backend: LMDB
  }
}
layer {
  name: "conv1"
  type: "Convolution"
  bottom: "data"
  top: "conv1"
  param {
    lr_mult: 1
    decay_mult: 1
  }
  param {
    lr_mult: 2
    decay_mult: 0
  }
  convolution_param {
    num_output: 96
    kernel_size: 7
    stride: 4
    weight_filler {
      type: "gaussian"
      std: 0.01
    }
    bias_filler {
      type: "constant"
      value: 0
    }
  }
}
layer {
  name: "relu1"
  type: "ReLU"
  bottom: "conv1"
  top: "conv1"
}
layer {
  name: "pool1"
  type: "Pooling"
  bottom: "conv1"
  top: "pool1"
  pooling_param {
    pool: MAX
    kernel_size: 3
    stride: 2
  }
}
layer {
  name: "norm1"
  type: "LRN"
  bottom: "pool1"
  top: "norm1"
  lrn_param {
    local_size: 5
    alpha: 0.0001
    beta: 0.75
  }
}
layer {
  name: "conv2"
  type: "Convolution"
  bottom: "norm1"
  top: "conv2"
  param {
    lr_mult: 1
    decay_mult: 1
  }
  param {
    lr_mult: 2
    decay_mult: 0
  }
  convolution_param {
    num_output: 256
    pad: 2
    kernel_size: 5
    weight_filler {
      type: "gaussian"
      std: 0.01
    }
    bias_filler {
      type: "constant"
      value: 1
    }
  }
}
layer {
  name: "relu2"
  type: "ReLU"
  bottom: "conv2"
  top: "conv2"
}
layer {
  name: "pool2"
  type: "Pooling"
  bottom: "conv2"
  top: "pool2"
  pooling_param {
    pool: MAX
    kernel_size: 3
    stride: 2
  }
}
layer {
  name: "norm2"
  type: "LRN"
  bottom: "pool2"
  top: "norm2"
  lrn_param {
    local_size: 5
    alpha: 0.0001
    beta: 0.75
  }
}
layer {
  name: "conv3"
  type: "Convolution"
  bottom: "norm2"
  top: "conv3"
  param {
    lr_mult: 1
    decay_mult: 1
  }
  param {
    lr_mult: 2
    decay_mult: 0
  }
  convolution_param {
    num_output: 384
    pad: 1
    kernel_size: 3
    weight_filler {
      type: "gaussian"
      std: 0.01
    }
    bias_filler {
      type: "constant"
      value: 0
    }
  }
}
layer {
  name: "relu3"
  type: "ReLU"
  bottom: "conv3"
  top: "conv3"
}
layer {
  name: "pool5"
  type: "Pooling"
  bottom: "conv3"
  top: "pool5"
  pooling_param {
    pool: MAX
    kernel_size: 3
    stride: 2
  }
}
layer {
  name: "fc6"
  type: "InnerProduct"
  bottom: "pool5"
  top: "fc6"
  param {
    lr_mult: 1
    decay_mult: 1
  }
  param {
    lr_mult: 2
    decay_mult: 0
  }
  inner_product_param {
    num_output: 512
    weight_filler {
      type: "gaussian"
      std: 0.005
    }
    bias_filler {
      type: "constant"
      value: 1
    }
  }
}
layer {
  name: "relu6"
  type: "ReLU"
  bottom: "fc6"
  top: "fc6"
}
layer {
  name: "drop6"
  type: "Dropout"
  bottom: "fc6"
  top: "fc6"
  dropout_param {
    dropout_ratio: 0.5
  }
}
layer {
  name: "fc7"
  type: "InnerProduct"
  bottom: "fc6"
  top: "fc7"
  param {
    lr_mult: 1
    decay_mult: 1
  }
  param {
    lr_mult: 2
    decay_mult: 0
  }
  inner_product_param {
    num_output: 512
    weight_filler {
      type: "gaussian"
      std: 0.005
    }
    bias_filler {
      type: "constant"
      value: 1
    }
  }
}
layer {
  name: "relu7"
  type: "ReLU"
  bottom: "fc7"
  top: "fc7"
}
layer {
  name: "drop7"
  type: "Dropout"
  bottom: "fc7"
  top: "fc7"
  dropout_param {
    dropout_ratio: 0.5
  }
}
layer {
  name: "fc8"
  type: "InnerProduct"
  bottom: "fc7"
  top: "fc8"
  param {
    lr_mult: 10
    decay_mult: 1
  }
  param {
    lr_mult: 20
    decay_mult: 0
  }
  inner_product_param {
    num_output: 8
    weight_filler {
      type: "gaussian"
      std: 0.01
    }
    bias_filler {
      type: "constant"
      value: 0
    }
  }
}
layer {
  name: "accuracy"
  type: "Accuracy"
  bottom: "fc8"
  bottom: "label"
  top: "accuracy"
  include {
    phase: TEST
  }
}
layer {
  name: "loss"
  type: "SoftmaxWithLoss"
  bottom: "fc8"
  bottom: "label"
  top: "loss"
}
I0521 18:45:30.568825 19816 layer_factory.hpp:77] Creating layer data
I0521 18:45:30.606737 19816 db_lmdb.cpp:35] Opened lmdb /home/k/PycharmProjects/AgeGenderDeepLearning-master/Folds/lmdb/Test_fold_is_3/age_val_lmdb
I0521 18:45:30.610569 19816 net.cpp:84] Creating Layer data
I0521 18:45:30.610594 19816 net.cpp:380] data -> data
I0521 18:45:30.610612 19816 net.cpp:380] data -> label
I0521 18:45:30.610623 19816 data_transformer.cpp:25] Loading mean file from: /home/k/PycharmProjects/AgeGenderDeepLearning-master/Folds/lmdb/Test_fold_is_3/mean.binaryproto
I0521 18:45:30.626315 19816 data_layer.cpp:45] output data size: 50,3,227,227
I0521 18:45:30.699623 19816 net.cpp:122] Setting up data
I0521 18:45:30.699657 19816 net.cpp:129] Top shape: 50 3 227 227 (7729350)
I0521 18:45:30.699664 19816 net.cpp:129] Top shape: 50 (50)
I0521 18:45:30.699667 19816 net.cpp:137] Memory required for data: 30917600
I0521 18:45:30.699676 19816 layer_factory.hpp:77] Creating layer label_data_1_split
I0521 18:45:30.699689 19816 net.cpp:84] Creating Layer label_data_1_split
I0521 18:45:30.699694 19816 net.cpp:406] label_data_1_split <- label
I0521 18:45:30.699702 19816 net.cpp:380] label_data_1_split -> label_data_1_split_0
I0521 18:45:30.699715 19816 net.cpp:380] label_data_1_split -> label_data_1_split_1
I0521 18:45:30.699838 19816 net.cpp:122] Setting up label_data_1_split
I0521 18:45:30.699851 19816 net.cpp:129] Top shape: 50 (50)
I0521 18:45:30.699854 19816 net.cpp:129] Top shape: 50 (50)
I0521 18:45:30.699858 19816 net.cpp:137] Memory required for data: 30918000
I0521 18:45:30.699862 19816 layer_factory.hpp:77] Creating layer conv1
I0521 18:45:30.699877 19816 net.cpp:84] Creating Layer conv1
I0521 18:45:30.699882 19816 net.cpp:406] conv1 <- data
I0521 18:45:30.699888 19816 net.cpp:380] conv1 -> conv1
I0521 18:45:30.706218 19816 net.cpp:122] Setting up conv1
I0521 18:45:30.706239 19816 net.cpp:129] Top shape: 50 96 56 56 (15052800)
I0521 18:45:30.706244 19816 net.cpp:137] Memory required for data: 91129200
I0521 18:45:30.706257 19816 layer_factory.hpp:77] Creating layer relu1
I0521 18:45:30.706265 19816 net.cpp:84] Creating Layer relu1
I0521 18:45:30.706269 19816 net.cpp:406] relu1 <- conv1
I0521 18:45:30.706275 19816 net.cpp:367] relu1 -> conv1 (in-place)
I0521 18:45:30.706472 19816 net.cpp:122] Setting up relu1
I0521 18:45:30.706485 19816 net.cpp:129] Top shape: 50 96 56 56 (15052800)
I0521 18:45:30.706490 19816 net.cpp:137] Memory required for data: 151340400
I0521 18:45:30.706493 19816 layer_factory.hpp:77] Creating layer pool1
I0521 18:45:30.706501 19816 net.cpp:84] Creating Layer pool1
I0521 18:45:30.706506 19816 net.cpp:406] pool1 <- conv1
I0521 18:45:30.706512 19816 net.cpp:380] pool1 -> pool1
I0521 18:45:30.706554 19816 net.cpp:122] Setting up pool1
I0521 18:45:30.706564 19816 net.cpp:129] Top shape: 50 96 28 28 (3763200)
I0521 18:45:30.706568 19816 net.cpp:137] Memory required for data: 166393200
I0521 18:45:30.706573 19816 layer_factory.hpp:77] Creating layer norm1
I0521 18:45:30.706580 19816 net.cpp:84] Creating Layer norm1
I0521 18:45:30.706584 19816 net.cpp:406] norm1 <- pool1
I0521 18:45:30.706589 19816 net.cpp:380] norm1 -> norm1
I0521 18:45:30.707392 19816 net.cpp:122] Setting up norm1
I0521 18:45:30.707406 19816 net.cpp:129] Top shape: 50 96 28 28 (3763200)
I0521 18:45:30.707411 19816 net.cpp:137] Memory required for data: 181446000
I0521 18:45:30.707414 19816 layer_factory.hpp:77] Creating layer conv2
I0521 18:45:30.707424 19816 net.cpp:84] Creating Layer conv2
I0521 18:45:30.707429 19816 net.cpp:406] conv2 <- norm1
I0521 18:45:30.707435 19816 net.cpp:380] conv2 -> conv2
I0521 18:45:30.716243 19816 net.cpp:122] Setting up conv2
I0521 18:45:30.716269 19816 net.cpp:129] Top shape: 50 256 28 28 (10035200)
I0521 18:45:30.716274 19816 net.cpp:137] Memory required for data: 221586800
I0521 18:45:30.716286 19816 layer_factory.hpp:77] Creating layer relu2
I0521 18:45:30.716295 19816 net.cpp:84] Creating Layer relu2
I0521 18:45:30.716301 19816 net.cpp:406] relu2 <- conv2
I0521 18:45:30.716310 19816 net.cpp:367] relu2 -> conv2 (in-place)
I0521 18:45:30.717156 19816 net.cpp:122] Setting up relu2
I0521 18:45:30.717172 19816 net.cpp:129] Top shape: 50 256 28 28 (10035200)
I0521 18:45:30.717176 19816 net.cpp:137] Memory required for data: 261727600
I0521 18:45:30.717180 19816 layer_factory.hpp:77] Creating layer pool2
I0521 18:45:30.717191 19816 net.cpp:84] Creating Layer pool2
I0521 18:45:30.717195 19816 net.cpp:406] pool2 <- conv2
I0521 18:45:30.717201 19816 net.cpp:380] pool2 -> pool2
I0521 18:45:30.717257 19816 net.cpp:122] Setting up pool2
I0521 18:45:30.717265 19816 net.cpp:129] Top shape: 50 256 14 14 (2508800)
I0521 18:45:30.717268 19816 net.cpp:137] Memory required for data: 271762800
I0521 18:45:30.717272 19816 layer_factory.hpp:77] Creating layer norm2
I0521 18:45:30.717289 19816 net.cpp:84] Creating Layer norm2
I0521 18:45:30.717294 19816 net.cpp:406] norm2 <- pool2
I0521 18:45:30.717299 19816 net.cpp:380] norm2 -> norm2
I0521 18:45:30.717478 19816 net.cpp:122] Setting up norm2
I0521 18:45:30.717490 19816 net.cpp:129] Top shape: 50 256 14 14 (2508800)
I0521 18:45:30.717494 19816 net.cpp:137] Memory required for data: 281798000
I0521 18:45:30.717497 19816 layer_factory.hpp:77] Creating layer conv3
I0521 18:45:30.717509 19816 net.cpp:84] Creating Layer conv3
I0521 18:45:30.717512 19816 net.cpp:406] conv3 <- norm2
I0521 18:45:30.717519 19816 net.cpp:380] conv3 -> conv3
I0521 18:45:30.730938 19816 net.cpp:122] Setting up conv3
I0521 18:45:30.730967 19816 net.cpp:129] Top shape: 50 384 14 14 (3763200)
I0521 18:45:30.730970 19816 net.cpp:137] Memory required for data: 296850800
I0521 18:45:30.730985 19816 layer_factory.hpp:77] Creating layer relu3
I0521 18:45:30.730995 19816 net.cpp:84] Creating Layer relu3
I0521 18:45:30.731000 19816 net.cpp:406] relu3 <- conv3
I0521 18:45:30.731019 19816 net.cpp:367] relu3 -> conv3 (in-place)
I0521 18:45:30.731195 19816 net.cpp:122] Setting up relu3
I0521 18:45:30.731207 19816 net.cpp:129] Top shape: 50 384 14 14 (3763200)
I0521 18:45:30.731211 19816 net.cpp:137] Memory required for data: 311903600
I0521 18:45:30.731215 19816 layer_factory.hpp:77] Creating layer pool5
I0521 18:45:30.731222 19816 net.cpp:84] Creating Layer pool5
I0521 18:45:30.731226 19816 net.cpp:406] pool5 <- conv3
I0521 18:45:30.731232 19816 net.cpp:380] pool5 -> pool5
I0521 18:45:30.731293 19816 net.cpp:122] Setting up pool5
I0521 18:45:30.731302 19816 net.cpp:129] Top shape: 50 384 7 7 (940800)
I0521 18:45:30.731305 19816 net.cpp:137] Memory required for data: 315666800
I0521 18:45:30.731308 19816 layer_factory.hpp:77] Creating layer fc6
I0521 18:45:30.731326 19816 net.cpp:84] Creating Layer fc6
I0521 18:45:30.731331 19816 net.cpp:406] fc6 <- pool5
I0521 18:45:30.731338 19816 net.cpp:380] fc6 -> fc6
I0521 18:45:30.840395 19816 net.cpp:122] Setting up fc6
I0521 18:45:30.840433 19816 net.cpp:129] Top shape: 50 512 (25600)
I0521 18:45:30.840437 19816 net.cpp:137] Memory required for data: 315769200
I0521 18:45:30.840450 19816 layer_factory.hpp:77] Creating layer relu6
I0521 18:45:30.840458 19816 net.cpp:84] Creating Layer relu6
I0521 18:45:30.840463 19816 net.cpp:406] relu6 <- fc6
I0521 18:45:30.840471 19816 net.cpp:367] relu6 -> fc6 (in-place)
I0521 18:45:30.840718 19816 net.cpp:122] Setting up relu6
I0521 18:45:30.840728 19816 net.cpp:129] Top shape: 50 512 (25600)
I0521 18:45:30.840730 19816 net.cpp:137] Memory required for data: 315871600
I0521 18:45:30.840744 19816 layer_factory.hpp:77] Creating layer drop6
I0521 18:45:30.840751 19816 net.cpp:84] Creating Layer drop6
I0521 18:45:30.840755 19816 net.cpp:406] drop6 <- fc6
I0521 18:45:30.840760 19816 net.cpp:367] drop6 -> fc6 (in-place)
I0521 18:45:30.840787 19816 net.cpp:122] Setting up drop6
I0521 18:45:30.840795 19816 net.cpp:129] Top shape: 50 512 (25600)
I0521 18:45:30.840797 19816 net.cpp:137] Memory required for data: 315974000
I0521 18:45:30.840801 19816 layer_factory.hpp:77] Creating layer fc7
I0521 18:45:30.840811 19816 net.cpp:84] Creating Layer fc7
I0521 18:45:30.840814 19816 net.cpp:406] fc7 <- fc6
I0521 18:45:30.840819 19816 net.cpp:380] fc7 -> fc7
I0521 18:45:30.843590 19816 net.cpp:122] Setting up fc7
I0521 18:45:30.843601 19816 net.cpp:129] Top shape: 50 512 (25600)
I0521 18:45:30.843616 19816 net.cpp:137] Memory required for data: 316076400
I0521 18:45:30.843627 19816 layer_factory.hpp:77] Creating layer relu7
I0521 18:45:30.843633 19816 net.cpp:84] Creating Layer relu7
I0521 18:45:30.843637 19816 net.cpp:406] relu7 <- fc7
I0521 18:45:30.843642 19816 net.cpp:367] relu7 -> fc7 (in-place)
I0521 18:45:30.844462 19816 net.cpp:122] Setting up relu7
I0521 18:45:30.844475 19816 net.cpp:129] Top shape: 50 512 (25600)
I0521 18:45:30.844477 19816 net.cpp:137] Memory required for data: 316178800
I0521 18:45:30.844480 19816 layer_factory.hpp:77] Creating layer drop7
I0521 18:45:30.844488 19816 net.cpp:84] Creating Layer drop7
I0521 18:45:30.844491 19816 net.cpp:406] drop7 <- fc7
I0521 18:45:30.844496 19816 net.cpp:367] drop7 -> fc7 (in-place)
I0521 18:45:30.844524 19816 net.cpp:122] Setting up drop7
I0521 18:45:30.844532 19816 net.cpp:129] Top shape: 50 512 (25600)
I0521 18:45:30.844534 19816 net.cpp:137] Memory required for data: 316281200
I0521 18:45:30.844537 19816 layer_factory.hpp:77] Creating layer fc8
I0521 18:45:30.844544 19816 net.cpp:84] Creating Layer fc8
I0521 18:45:30.844549 19816 net.cpp:406] fc8 <- fc7
I0521 18:45:30.844554 19816 net.cpp:380] fc8 -> fc8
I0521 18:45:30.844693 19816 net.cpp:122] Setting up fc8
I0521 18:45:30.844702 19816 net.cpp:129] Top shape: 50 8 (400)
I0521 18:45:30.844705 19816 net.cpp:137] Memory required for data: 316282800
I0521 18:45:30.844712 19816 layer_factory.hpp:77] Creating layer fc8_fc8_0_split
I0521 18:45:30.844717 19816 net.cpp:84] Creating Layer fc8_fc8_0_split
I0521 18:45:30.844720 19816 net.cpp:406] fc8_fc8_0_split <- fc8
I0521 18:45:30.844725 19816 net.cpp:380] fc8_fc8_0_split -> fc8_fc8_0_split_0
I0521 18:45:30.844732 19816 net.cpp:380] fc8_fc8_0_split -> fc8_fc8_0_split_1
I0521 18:45:30.844765 19816 net.cpp:122] Setting up fc8_fc8_0_split
I0521 18:45:30.844774 19816 net.cpp:129] Top shape: 50 8 (400)
I0521 18:45:30.844777 19816 net.cpp:129] Top shape: 50 8 (400)
I0521 18:45:30.844780 19816 net.cpp:137] Memory required for data: 316286000
I0521 18:45:30.844784 19816 layer_factory.hpp:77] Creating layer accuracy
I0521 18:45:30.844790 19816 net.cpp:84] Creating Layer accuracy
I0521 18:45:30.844794 19816 net.cpp:406] accuracy <- fc8_fc8_0_split_0
I0521 18:45:30.844799 19816 net.cpp:406] accuracy <- label_data_1_split_0
I0521 18:45:30.844804 19816 net.cpp:380] accuracy -> accuracy
…
