…
I0529 16:51:20.865159 21265 net.cpp:51] Initializing net from parameters: 
name: "Pre-ResNet-34"
state {
  phase: TRAIN
  level: 0
  stage: ""
}
layer {
  name: "data"
  type: "Data"
  top: "data"
  top: "label"
  include {
    phase: TRAIN
  }
  transform_param {
    mirror: true
    crop_size: 224
    mean_file: "/home/k/PycharmProjects/AgeGenderDeepLearning-master/Folds/lmdb/Test_fold_is_0/mean.binaryproto"
  }
  data_param {
    source: "/home/k/PycharmProjects/AgeGenderDeepLearning-master/Folds/lmdb/Test_fold_is_0/age_train_lmdb"
    batch_size: 50
    backend: LMDB
  }
}
layer {
  name: "data_bn"
  type: "BatchNorm"
  bottom: "data"
  top: "data_bn"
  param {
    lr_mult: 0
    decay_mult: 0
  }
  param {
    lr_mult: 0
    decay_mult: 0
  }
  param {
    lr_mult: 0
    decay_mult: 0
  }
}
layer {
  name: "data_scale"
  type: "Scale"
  bottom: "data_bn"
  top: "data_bn"
  param {
    lr_mult: 1
    decay_mult: 1
  }
  param {
    lr_mult: 2
    decay_mult: 1
  }
  scale_param {
    bias_term: true
  }
}
layer {
  name: "conv1"
  type: "Convolution"
  bottom: "data_bn"
  top: "conv1"
  param {
    lr_mult: 1
    decay_mult: 1
  }
  param {
    lr_mult: 2
    decay_mult: 1
  }
  convolution_param {
    num_output: 64
    pad: 3
    kernel_size: 7
    stride: 2
    weight_filler {
      type: "msra"
      variance_norm: FAN_OUT
    }
    bias_filler {
      type: "constant"
      value: 0
    }
  }
}
layer {
  name: "conv1_bn"
  type: "BatchNorm"
  bottom: "conv1"
  top: "conv1"
  param {
    lr_mult: 0
    decay_mult: 0
  }
  param {
    lr_mult: 0
    decay_mult: 0
  }
  param {
    lr_mult: 0
    decay_mult: 0
  }
}
layer {
  name: "conv1_scale"
  type: "Scale"
  bottom: "conv1"
  top: "conv1"
  param {
    lr_mult: 1
    decay_mult: 1
  }
  param {
    lr_mult: 2
    decay_mult: 1
  }
  scale_param {
    bias_term: true
  }
}
layer {
  name: "conv1_relu"
  type: "ReLU"
  bottom: "conv1"
  top: "conv1"
}
layer {
  name: "conv1_pool"
  type: "Pooling"
  bottom: "conv1"
  top: "conv1_pool"
  pooling_param {
    kernel_size: 3
    stride: 2
  }
}
layer {
  name: "layer_64_1_conv1"
  type: "Convolution"
  bottom: "conv1_pool"
  top: "layer_64_1_conv1"
  param {
    lr_mult: 1
    decay_mult: 1
  }
  convolution_param {
    num_output: 64
    bias_term: false
    pad: 1
    kernel_size: 3
    stride: 1
    weight_filler {
      type: "msra"
    }
    bias_filler {
      type: "constant"
      value: 0
    }
  }
}
layer {
  name: "layer_64_1_bn2"
  type: "BatchNorm"
  bottom: "layer_64_1_conv1"
  top: "layer_64_1_conv1"
  param {
    lr_mult: 0
    decay_mult: 0
  }
  param {
    lr_mult: 0
    decay_mult: 0
  }
  param {
    lr_mult: 0
    decay_mult: 0
  }
}
layer {
  name: "layer_64_1_scale2"
  type: "Scale"
  bottom: "layer_64_1_conv1"
  top: "layer_64_1_conv1"
  param {
    lr_mult: 1
    decay_mult: 1
  }
  param {
    lr_mult: 2
    decay_mult: 1
  }
  scale_param {
    bias_term: true
  }
}
layer {
  name: "layer_64_1_relu2"
  type: "ReLU"
  bottom: "layer_64_1_conv1"
  top: "layer_64_1_conv1"
}
layer {
  name: "layer_64_1_conv2"
  type: "Convolution"
  bottom: "layer_64_1_conv1"
  top: "layer_64_1_conv2"
  param {
    lr_mult: 1
    decay_mult: 1
  }
  convolution_param {
    num_output: 64
    bias_term: false
    pad: 1
    kernel_size: 3
    stride: 1
    weight_filler {
      type: "msra"
    }
    bias_filler {
      type: "constant"
      value: 0
    }
  }
}
layer {
  name: "layer_64_1_sum"
  type: "Eltwise"
  bottom: "layer_64_1_conv2"
  bottom: "conv1_pool"
  top: "layer_64_1_sum"
}
layer {
  name: "layer_64_2_bn1"
  type: "BatchNorm"
  bottom: "layer_64_1_sum"
  top: "layer_64_2_bn1"
  param {
    lr_mult: 0
    decay_mult: 0
  }
  param {
    lr_mult: 0
    decay_mult: 0
  }
  param {
    lr_mult: 0
    decay_mult: 0
  }
}
layer {
  name: "layer_64_2_scale1"
  type: "Scale"
  bottom: "layer_64_2_bn1"
  top: "layer_64_2_bn1"
  param {
    lr_mult: 1
    decay_mult: 1
  }
  param {
    lr_mult: 2
    decay_mult: 1
  }
  scale_param {
    bias_term: true
  }
}
layer {
  name: "layer_64_2_relu1"
  type: "ReLU"
  bottom: "layer_64_2_bn1"
  top: "layer_64_2_bn1"
}
layer {
  name: "layer_64_2_conv1"
  type: "Convolution"
  bottom: "layer_64_2_bn1"
  top: "layer_64_2_conv1"
  param {
    lr_mult: 1
    decay_mult: 1
  }
  convolution_param {
    num_output: 64
    bias_term: false
    pad: 1
    kernel_size: 3
    stride: 1
    weight_filler {
      type: "msra"
    }
    bias_filler {
      type: "constant"
      value: 0
    }
  }
}
layer {
  name: "layer_64_2_bn2"
  type: "BatchNorm"
  bottom: "layer_64_2_conv1"
  top: "layer_64_2_conv1"
  param {
    lr_mult: 0
    decay_mult: 0
  }
  param {
    lr_mult: 0
    decay_mult: 0
  }
  param {
    lr_mult: 0
    decay_mult: 0
  }
}
layer {
  name: "layer_64_2_scale2"
  type: "Scale"
  bottom: "layer_64_2_conv1"
  top: "layer_64_2_conv1"
  param {
    lr_mult: 1
    decay_mult: 1
  }
  param {
    lr_mult: 2
    decay_mult: 1
  }
  scale_param {
    bias_term: true
  }
}
layer {
  name: "layer_64_2_relu2"
  type: "ReLU"
  bottom: "layer_64_2_conv1"
  top: "layer_64_2_conv1"
}
layer {
  name: "layer_64_2_conv2"
  type: "Convolution"
  bottom: "layer_64_2_conv1"
  top: "layer_64_2_conv2"
  param {
    lr_mult: 1
    decay_mult: 1
  }
  convolution_param {
    num_output: 64
    bias_term: false
    pad: 1
    kernel_size: 3
    stride: 1
    weight_filler {
      type: "msra"
    }
    bias_filler {
      type: "constant"
      value: 0
    }
  }
}
layer {
  name: "layer_64_2_sum"
  type: "Eltwise"
  bottom: "layer_64_2_conv2"
  bottom: "layer_64_1_sum"
  top: "layer_64_2_sum"
}
layer {
  name: "layer_64_3_bn1"
  type: "BatchNorm"
  bottom: "layer_64_2_sum"
  top: "layer_64_3_bn1"
  param {
    lr_mult: 0
    decay_mult: 0
  }
  param {
    lr_mult: 0
    decay_mult: 0
  }
  param {
    lr_mult: 0
    decay_mult: 0
  }
}
layer {
  name: "layer_64_3_scale1"
  type: "Scale"
  bottom: "layer_64_3_bn1"
  top: "layer_64_3_bn1"
  param {
    lr_mult: 1
    decay_mult: 1
  }
  param {
    lr_mult: 2
    decay_mult: 1
  }
  scale_param {
    bias_term: true
  }
}
layer {
  name: "layer_64_3_relu1"
  type: "ReLU"
  bottom: "layer_64_3_bn1"
  top: "layer_64_3_bn1"
}
layer {
  name: "layer_64_3_conv1"
  type: "Convolution"
  bottom: "layer_64_3_bn1"
  top: "layer_64_3_conv1"
  param {
    lr_mult: 1
    decay_mult: 1
  }
  convolution_param {
    num_output: 64
    bias_term: false
    pad: 1
    kernel_size: 3
    stride: 1
    weight_filler {
      type: "msra"
    }
    bias_filler {
      type: "constant"
      value: 0
    }
  }
}
layer {
  name: "layer_64_3_bn2"
  type: "BatchNorm"
  bottom: "layer_64_3_conv1"
  top: "layer_64_3_conv1"
  param {
    lr_mult: 0
    decay_mult: 0
  }
  param {
    lr_mult: 0
    decay_mult: 0
  }
  param {
    lr_mult: 0
    decay_mult: 0
  }
}
layer {
  name: "layer_64_3_scale2"
  type: "Scale"
  bottom: "layer_64_3_conv1"
  top: "layer_64_3_conv1"
  param {
    lr_mult: 1
    decay_mult: 1
  }
  param {
    lr_mult: 2
    decay_mult: 1
  }
  scale_param {
    bias_term: true
  }
}
layer {
  name: "layer_64_3_relu2"
  type: "ReLU"
  bottom: "layer_64_3_conv1"
  top: "layer_64_3_conv1"
}
layer {
  name: "layer_64_3_conv2"
  type: "Convolution"
  bottom: "layer_64_3_conv1"
  top: "layer_64_3_conv2"
  param {
    lr_mult: 1
    decay_mult: 1
  }
  convolution_param {
    num_output: 64
    bias_term: false
    pad: 1
    kernel_size: 3
    stride: 1
    weight_filler {
      type: "msra"
    }
    bias_filler {
      type: "constant"
      value: 0
    }
  }
}
layer {
  name: "layer_64_3_sum"
  type: "Eltwise"
  bottom: "layer_64_3_conv2"
  bottom: "layer_64_2_sum"
  top: "layer_64_3_sum"
}
layer {
  name: "layer_128_1_bn1"
  type: "BatchNorm"
  bottom: "layer_64_3_sum"
  top: "layer_128_1_bn1"
  param {
    lr_mult: 0
    decay_mult: 0
  }
  param {
    lr_mult: 0
    decay_mult: 0
  }
  param {
    lr_mult: 0
    decay_mult: 0
  }
}
layer {
  name: "layer_128_1_scale1"
  type: "Scale"
  bottom: "layer_128_1_bn1"
  top: "layer_128_1_bn1"
  param {
    lr_mult: 1
    decay_mult: 1
  }
  param {
    lr_mult: 2
    decay_mult: 1
  }
  scale_param {
    bias_term: true
  }
}
layer {
  name: "layer_128_1_relu1"
  type: "ReLU"
  bottom: "layer_128_1_bn1"
  top: "layer_128_1_bn1"
}
layer {
  name: "layer_128_1_conv1"
  type: "Convolution"
  bottom: "layer_128_1_bn1"
  top: "layer_128_1_conv1"
  param {
    lr_mult: 1
    decay_mult: 1
  }
  convolution_param {
    num_output: 128
    bias_term: false
    pad: 1
    kernel_size: 3
    stride: 2
    weight_filler {
      type: "msra"
    }
    bias_filler {
      type: "constant"
      value: 0
    }
  }
}
layer {
  name: "layer_128_1_bn2"
  type: "BatchNorm"
  bottom: "layer_128_1_conv1"
  top: "layer_128_1_conv1"
  param {
    lr_mult: 0
    decay_mult: 0
  }
  param {
    lr_mult: 0
    decay_mult: 0
  }
  param {
    lr_mult: 0
    decay_mult: 0
  }
}
layer {
  name: "layer_128_1_scale2"
  type: "Scale"
  bottom: "layer_128_1_conv1"
  top: "layer_128_1_conv1"
  param {
    lr_mult: 1
    decay_mult: 1
  }
  param {
    lr_mult: 2
    decay_mult: 1
  }
  scale_param {
    bias_term: true
  }
}
layer {
  name: "layer_128_1_relu2"
  type: "ReLU"
  bottom: "layer_128_1_conv1"
  top: "layer_128_1_conv1"
}
layer {
  name: "layer_128_1_conv2"
  type: "Convolution"
  bottom: "layer_128_1_conv1"
  top: "layer_128_1_conv2"
  param {
    lr_mult: 1
    decay_mult: 1
  }
  convolution_param {
    num_output: 128
    bias_term: false
    pad: 1
    kernel_size: 3
    stride: 1
    weight_filler {
      type: "msra"
    }
    bias_filler {
      type: "constant"
      value: 0
    }
  }
}
layer {
  name: "layer_128_1_conv_expand"
  type: "Convolution"
  bottom: "layer_128_1_bn1"
  top: "layer_128_1_conv_expand"
  param {
    lr_mult: 1
    decay_mult: 1
  }
  convolution_param {
    num_output: 128
    bias_term: false
    pad: 0
    kernel_size: 1
    stride: 2
    weight_filler {
      type: "msra"
    }
    bias_filler {
      type: "constant"
      value: 0
    }
  }
}
layer {
  name: "layer_128_1_sum"
  type: "Eltwise"
  bottom: "layer_128_1_conv_expand"
  bottom: "layer_128_1_conv2"
  top: "layer_128_1_sum"
}
layer {
  name: "layer_128_2_bn1"
  type: "BatchNorm"
  bottom: "layer_128_1_sum"
  top: "layer_128_2_bn1"
  param {
    lr_mult: 0
    decay_mult: 0
  }
  param {
    lr_mult: 0
    decay_mult: 0
  }
  param {
    lr_mult: 0
    decay_mult: 0
  }
}
layer {
  name: "layer_128_2_scale1"
  type: "Scale"
  bottom: "layer_128_2_bn1"
  top: "layer_128_2_bn1"
  param {
    lr_mult: 1
    decay_mult: 1
  }
  param {
    lr_mult: 2
    decay_mult: 1
  }
  scale_param {
    bias_term: true
  }
}
layer {
  name: "layer_128_2_relu1"
  type: "ReLU"
  bottom: "layer_128_2_bn1"
  top: "layer_128_2_bn1"
}
layer {
  name: "layer_128_2_conv1"
  type: "Convolution"
  bottom: "layer_128_2_bn1"
  top: "layer_128_2_conv1"
  param {
    lr_mult: 1
    decay_mult: 1
  }
  convolution_param {
    num_output: 128
    bias_term: false
    pad: 1
    kernel_size: 3
    stride: 1
    weight_filler {
      type: "msra"
    }
    bias_filler {
      type: "constant"
      value: 0
    }
  }
}
layer {
  name: "layer_128_2_bn2"
  type: "BatchNorm"
  bottom: "layer_128_2_conv1"
  top: "layer_128_2_conv1"
  param {
    lr_mult: 0
    decay_mult: 0
  }
  param {
    lr_mult: 0
    decay_mult: 0
  }
  param {
    lr_mult: 0
    decay_mult: 0
  }
}
layer {
  name: "layer_128_2_scale2"
  type: "Scale"
  bottom: "layer_128_2_conv1"
  top: "layer_128_2_conv1"
  param {
    lr_mult: 1
    decay_mult: 1
  }
  param {
    lr_mult: 2
    decay_mult: 1
  }
  scale_param {
    bias_term: true
  }
}
layer {
  name: "layer_128_2_relu2"
  type: "ReLU"
  bottom: "layer_128_2_conv1"
  top: "layer_128_2_conv1"
}
layer {
  name: "layer_128_2_conv2"
  type: "Convolution"
  bottom: "layer_128_2_conv1"
  top: "layer_128_2_conv2"
  param {
    lr_mult: 1
    decay_mult: 1
  }
  convolution_param {
    num_output: 128
    bias_term: false
    pad: 1
    kernel_size: 3
    stride: 1
    weight_filler {
      type: "msra"
    }
    bias_filler {
      type: "constant"
      value: 0
    }
  }
}
layer {
  name: "layer_128_2_sum"
  type: "Eltwise"
  bottom: "layer_128_2_conv2"
  bottom: "layer_128_1_sum"
  top: "layer_128_2_sum"
}
layer {
  name: "layer_128_3_bn1"
  type: "BatchNorm"
  bottom: "layer_128_2_sum"
  top: "layer_128_3_bn1"
  param {
    lr_mult: 0
    decay_mult: 0
  }
  param {
    lr_mult: 0
    decay_mult: 0
  }
  param {
    lr_mult: 0
    decay_mult: 0
  }
}
layer {
  name: "layer_128_3_scale1"
  type: "Scale"
  bottom: "layer_128_3_bn1"
  top: "layer_128_3_bn1"
  param {
    lr_mult: 1
    decay_mult: 1
  }
  param {
    lr_mult: 2
    decay_mult: 1
  }
  scale_param {
    bias_term: true
  }
}
layer {
  name: "layer_128_3_relu1"
  type: "ReLU"
  bottom: "layer_128_3_bn1"
  top: "layer_128_3_bn1"
}
layer {
  name: "layer_128_3_conv1"
  type: "Convolution"
  bottom: "layer_128_3_bn1"
  top: "layer_128_3_conv1"
  param {
    lr_mult: 1
    decay_mult: 1
  }
  convolution_param {
    num_output: 128
    bias_term: false
    pad: 1
    kernel_size: 3
    stride: 1
    weight_filler {
      type: "msra"
    }
    bias_filler {
      type: "constant"
      value: 0
    }
  }
}
layer {
  name: "layer_128_3_bn2"
  type: "BatchNorm"
  bottom: "layer_128_3_conv1"
  top: "layer_128_3_conv1"
  param {
    lr_mult: 0
    decay_mult: 0
  }
  param {
    lr_mult: 0
    decay_mult: 0
  }
  param {
    lr_mult: 0
    decay_mult: 0
  }
}
layer {
  name: "layer_128_3_scale2"
  type: "Scale"
  bottom: "layer_128_3_conv1"
  top: "layer_128_3_conv1"
  param {
    lr_mult: 1
    decay_mult: 1
  }
  param {
    lr_mult: 2
    decay_mult: 1
  }
  scale_param {
    bias_term: true
  }
}
layer {
  name: "layer_128_3_relu2"
  type: "ReLU"
  bottom: "layer_128_3_conv1"
  top: "layer_128_3_conv1"
}
layer {
  name: "layer_128_3_conv2"
  type: "Convolution"
  bottom: "layer_128_3_conv1"
  top: "layer_128_3_conv2"
  param {
    lr_mult: 1
    decay_mult: 1
  }
  convolution_param {
    num_output: 128
    bias_term: false
    pad: 1
    kernel_size: 3
    stride: 1
    weight_filler {
      type: "msra"
    }
    bias_filler {
      type: "constant"
      value: 0
    }
  }
}
layer {
  name: "layer_128_3_sum"
  type: "Eltwise"
  bottom: "layer_128_3_conv2"
  bottom: "layer_128_2_sum"
  top: "layer_128_3_sum"
}
layer {
  name: "layer_128_4_bn1"
  type: "BatchNorm"
  bottom: "layer_128_3_sum"
  top: "layer_128_4_bn1"
  param {
    lr_mult: 0
    decay_mult: 0
  }
  param {
    lr_mult: 0
    decay_mult: 0
  }
  param {
    lr_mult: 0
    decay_mult: 0
  }
}
layer {
  name: "layer_128_4_scale1"
  type: "Scale"
  bottom: "layer_128_4_bn1"
  top: "layer_128_4_bn1"
  param {
    lr_mult: 1
    decay_mult: 1
  }
  param {
    lr_mult: 2
    decay_mult: 1
  }
  scale_param {
    bias_term: true
  }
}
layer {
  name: "layer_128_4_relu1"
  type: "ReLU"
  bottom: "layer_128_4_bn1"
  top: "layer_128_4_bn1"
}
layer {
  name: "layer_128_4_conv1"
  type: "Convolution"
  bottom: "layer_128_4_bn1"
  top: "layer_128_4_conv1"
  param {
    lr_mult: 1
    decay_mult: 1
  }
  convolution_param {
    num_output: 128
    bias_term: false
    pad: 1
    kernel_size: 3
    stride: 1
    weight_filler {
      type: "msra"
    }
    bias_filler {
      type: "constant"
      value: 0
    }
  }
}
layer {
  name: "layer_128_4_bn2"
  type: "BatchNorm"
  bottom: "layer_128_4_conv1"
  top: "layer_128_4_conv1"
  param {
    lr_mult: 0
    decay_mult: 0
  }
  param {
    lr_mult: 0
    decay_mult: 0
  }
  param {
    lr_mult: 0
    decay_mult: 0
  }
}
layer {
  name: "layer_128_4_scale2"
  type: "Scale"
  bottom: "layer_128_4_conv1"
  top: "layer_128_4_conv1"
  param {
    lr_mult: 1
    decay_mult: 1
  }
  param {
    lr_mult: 2
    decay_mult: 1
  }
  scale_param {
    bias_term: true
  }
}
layer {
  name: "layer_128_4_relu2"
  type: "ReLU"
  bottom: "layer_128_4_conv1"
  top: "layer_128_4_conv1"
}
layer {
  name: "layer_128_4_conv2"
  type: "Convolution"
  bottom: "layer_128_4_conv1"
  top: "layer_128_4_conv2"
  param {
    lr_mult: 1
    decay_mult: 1
  }
  convolution_param {
    num_output: 128
    bias_term: false
    pad: 1
    kernel_size: 3
    stride: 1
    weight_filler {
      type: "msra"
    }
    bias_filler {
      type: "constant"
      value: 0
    }
  }
}
layer {
  name: "layer_128_4_sum"
  type: "Eltwise"
  bottom: "layer_128_4_conv2"
  bottom: "layer_128_3_sum"
  top: "layer_128_4_sum"
}
layer {
  name: "layer_256_1_bn1"
  type: "BatchNorm"
  bottom: "layer_128_4_sum"
  top: "layer_256_1_bn1"
  param {
    lr_mult: 0
    decay_mult: 0
  }
  param {
    lr_mult: 0
    decay_mult: 0
  }
  param {
    lr_mult: 0
    decay_mult: 0
  }
}
layer {
  name: "layer_256_1_scale1"
  type: "Scale"
  bottom: "layer_256_1_bn1"
  top: "layer_256_1_bn1"
  param {
    lr_mult: 1
    decay_mult: 1
  }
  param {
    lr_mult: 2
    decay_mult: 1
  }
  scale_param {
    bias_term: true
  }
}
layer {
  name: "layer_256_1_relu1"
  type: "ReLU"
  bottom: "layer_256_1_bn1"
  top: "layer_256_1_bn1"
}
layer {
  name: "layer_256_1_conv1"
  type: "Convolution"
  bottom: "layer_256_1_bn1"
  top: "layer_256_1_conv1"
  param {
    lr_mult: 1
    decay_mult: 1
  }
  convolution_param {
    num_output: 256
    bias_term: false
    pad: 1
    kernel_size: 3
    stride: 2
    weight_filler {
      type: "msra"
    }
    bias_filler {
      type: "constant"
      value: 0
    }
  }
}
layer {
  name: "layer_256_1_bn2"
  type: "BatchNorm"
  bottom: "layer_256_1_conv1"
  top: "layer_256_1_conv1"
  param {
    lr_mult: 0
    decay_mult: 0
  }
  param {
    lr_mult: 0
    decay_mult: 0
  }
  param {
    lr_mult: 0
    decay_mult: 0
  }
}
layer {
  name: "layer_256_1_scale2"
  type: "Scale"
  bottom: "layer_256_1_conv1"
  top: "layer_256_1_conv1"
  param {
    lr_mult: 1
    decay_mult: 1
  }
  param {
    lr_mult: 2
    decay_mult: 1
  }
  scale_param {
    bias_term: true
  }
}
layer {
  name: "layer_256_1_relu2"
  type: "ReLU"
  bottom: "layer_256_1_conv1"
  top: "layer_256_1_conv1"
}
layer {
  name: "layer_256_1_conv2"
  type: "Convolution"
  bottom: "layer_256_1_conv1"
  top: "layer_256_1_conv2"
  param {
    lr_mult: 1
    decay_mult: 1
  }
  convolution_param {
    num_output: 256
    bias_term: false
    pad: 1
    kernel_size: 3
    stride: 1
    weight_filler {
      type: "msra"
    }
    bias_filler {
      type: "constant"
      value: 0
    }
  }
}
layer {
  name: "layer_256_1_conv_expand"
  type: "Convolution"
  bottom: "layer_256_1_bn1"
  top: "layer_256_1_conv_expand"
  param {
    lr_mult: 1
    decay_mult: 1
  }
  convolution_param {
    num_output: 256
    bias_term: false
    pad: 0
    kernel_size: 1
    stride: 2
    weight_filler {
      type: "msra"
    }
    bias_filler {
      type: "constant"
      value: 0
    }
  }
}
layer {
  name: "layer_256_1_sum"
  type: "Eltwise"
  bottom: "layer_256_1_conv_expand"
  bottom: "layer_256_1_conv2"
  top: "layer_256_1_sum"
}
layer {
  name: "layer_256_2_bn1"
  type: "BatchNorm"
  bottom: "layer_256_1_sum"
  top: "layer_256_2_bn1"
  param {
    lr_mult: 0
    decay_mult: 0
  }
  param {
    lr_mult: 0
    decay_mult: 0
  }
  param {
    lr_mult: 0
    decay_mult: 0
  }
}
layer {
  name: "layer_256_2_scale1"
  type: "Scale"
  bottom: "layer_256_2_bn1"
  top: "layer_256_2_bn1"
  param {
    lr_mult: 1
    decay_mult: 1
  }
  param {
    lr_mult: 2
    decay_mult: 1
  }
  scale_param {
    bias_term: true
  }
}
layer {
  name: "layer_256_2_relu1"
  type: "ReLU"
  bottom: "layer_256_2_bn1"
  top: "layer_256_2_bn1"
}
layer {
  name: "layer_256_2_conv1"
  type: "Convolution"
  bottom: "layer_256_2_bn1"
  top: "layer_256_2_conv1"
  param {
    lr_mult: 1
    decay_mult: 1
  }
  convolution_param {
    num_output: 256
    bias_term: false
    pad: 1
    kernel_size: 3
    stride: 1
    weight_filler {
      type: "msra"
    }
    bias_filler {
      type: "constant"
      value: 0
    }
  }
}
layer {
  name: "layer_256_2_bn2"
  type: "BatchNorm"
  bottom: "layer_256_2_conv1"
  top: "layer_256_2_conv1"
  param {
    lr_mult: 0
    decay_mult: 0
  }
  param {
    lr_mult: 0
    decay_mult: 0
  }
  param {
    lr_mult: 0
    decay_mult: 0
  }
}
layer {
  name: "layer_256_2_scale2"
  type: "Scale"
  bottom: "layer_256_2_conv1"
  top: "layer_256_2_conv1"
  param {
    lr_mult: 1
    decay_mult: 1
  }
  param {
    lr_mult: 2
    decay_mult: 1
  }
  scale_param {
    bias_term: true
  }
}
layer {
  name: "layer_256_2_relu2"
  type: "ReLU"
  bottom: "layer_256_2_conv1"
  top: "layer_256_2_conv1"
}
layer {
  name: "layer_256_2_conv2"
  type: "Convolution"
  bottom: "layer_256_2_conv1"
  top: "layer_256_2_conv2"
  param {
    lr_mult: 1
    decay_mult: 1
  }
  convolution_param {
    num_output: 256
    bias_term: false
    pad: 1
    kernel_size: 3
    stride: 1
    weight_filler {
      type: "msra"
    }
    bias_filler {
      type: "constant"
      value: 0
    }
  }
}
layer {
  name: "layer_256_2_sum"
  type: "Eltwise"
  bottom: "layer_256_2_conv2"
  bottom: "layer_256_1_sum"
  top: "layer_256_2_sum"
}
layer {
  name: "layer_256_3_bn1"
  type: "BatchNorm"
  bottom: "layer_256_2_sum"
  top: "layer_256_3_bn1"
  param {
    lr_mult: 0
    decay_mult: 0
  }
  param {
    lr_mult: 0
    decay_mult: 0
  }
  param {
    lr_mult: 0
    decay_mult: 0
  }
}
layer {
  name: "layer_256_3_scale1"
  type: "Scale"
  bottom: "layer_256_3_bn1"
  top: "layer_256_3_bn1"
  param {
    lr_mult: 1
    decay_mult: 1
  }
  param {
    lr_mult: 2
    decay_mult: 1
  }
  scale_param {
    bias_term: true
  }
}
layer {
  name: "layer_256_3_relu1"
  type: "ReLU"
  bottom: "layer_256_3_bn1"
  top: "layer_256_3_bn1"
}
layer {
  name: "layer_256_3_conv1"
  type: "Convolution"
  bottom: "layer_256_3_bn1"
  top: "layer_256_3_conv1"
  param {
    lr_mult: 1
    decay_mult: 1
  }
  convolution_param {
    num_output: 256
    bias_term: false
    pad: 1
    kernel_size: 3
    stride: 1
    weight_filler {
      type: "msra"
    }
    bias_filler {
      type: "constant"
      value: 0
    }
  }
}
layer {
  name: "layer_256_3_bn2"
  type: "BatchNorm"
  bottom: "layer_256_3_conv1"
  top: "layer_256_3_conv1"
  param {
    lr_mult: 0
    decay_mult: 0
  }
  param {
    lr_mult: 0
    decay_mult: 0
  }
  param {
    lr_mult: 0
    decay_mult: 0
  }
}
layer {
  name: "layer_256_3_scale2"
  type: "Scale"
  bottom: "layer_256_3_conv1"
  top: "layer_256_3_conv1"
  param {
    lr_mult: 1
    decay_mult: 1
  }
  param {
    lr_mult: 2
    decay_mult: 1
  }
  scale_param {
    bias_term: true
  }
}
layer {
  name: "layer_256_3_relu2"
  type: "ReLU"
  bottom: "layer_256_3_conv1"
  top: "layer_256_3_conv1"
}
layer {
  name: "layer_256_3_conv2"
  type: "Convolution"
  bottom: "layer_256_3_conv1"
  top: "layer_256_3_conv2"
  param {
    lr_mult: 1
    decay_mult: 1
  }
  convolution_param {
    num_output: 256
    bias_term: false
    pad: 1
    kernel_size: 3
    stride: 1
    weight_filler {
      type: "msra"
    }
    bias_filler {
      type: "constant"
      value: 0
    }
  }
}
layer {
  name: "layer_256_3_sum"
  type: "Eltwise"
  bottom: "layer_256_3_conv2"
  bottom: "layer_256_2_sum"
  top: "layer_256_3_sum"
}
layer {
  name: "layer_256_4_bn1"
  type: "BatchNorm"
  bottom: "layer_256_3_sum"
  top: "layer_256_4_bn1"
  param {
    lr_mult: 0
    decay_mult: 0
  }
  param {
    lr_mult: 0
    decay_mult: 0
  }
  param {
    lr_mult: 0
    decay_mult: 0
  }
}
layer {
  name: "layer_256_4_scale1"
  type: "Scale"
  bottom: "layer_256_4_bn1"
  top: "layer_256_4_bn1"
  param {
    lr_mult: 1
    decay_mult: 1
  }
  param {
    lr_mult: 2
    decay_mult: 1
  }
  scale_param {
    bias_term: true
  }
}
layer {
  name: "layer_256_4_relu1"
  type: "ReLU"
  bottom: "layer_256_4_bn1"
  top: "layer_256_4_bn1"
}
layer {
  name: "layer_256_4_conv1"
  type: "Convolution"
  bottom: "layer_256_4_bn1"
  top: "layer_256_4_conv1"
  param {
    lr_mult: 1
    decay_mult: 1
  }
  convolution_param {
    num_output: 256
    bias_term: false
    pad: 1
    kernel_size: 3
    stride: 1
    weight_filler {
      type: "msra"
    }
    bias_filler {
      type: "constant"
      value: 0
    }
  }
}
layer {
  name: "layer_256_4_bn2"
  type: "BatchNorm"
  bottom: "layer_256_4_conv1"
  top: "layer_256_4_conv1"
  param {
    lr_mult: 0
    decay_mult: 0
  }
  param {
    lr_mult: 0
    decay_mult: 0
  }
  param {
    lr_mult: 0
    decay_mult: 0
  }
}
layer {
  name: "layer_256_4_scale2"
  type: "Scale"
  bottom: "layer_256_4_conv1"
  top: "layer_256_4_conv1"
  param {
    lr_mult: 1
    decay_mult: 1
  }
  param {
    lr_mult: 2
    decay_mult: 1
  }
  scale_param {
    bias_term: true
  }
}
layer {
  name: "layer_256_4_relu2"
  type: "ReLU"
  bottom: "layer_256_4_conv1"
  top: "layer_256_4_conv1"
}
layer {
  name: "layer_256_4_conv2"
  type: "Convolution"
  bottom: "layer_256_4_conv1"
  top: "layer_256_4_conv2"
  param {
    lr_mult: 1
    decay_mult: 1
  }
  convolution_param {
    num_output: 256
    bias_term: false
    pad: 1
    kernel_size: 3
    stride: 1
    weight_filler {
      type: "msra"
    }
    bias_filler {
      type: "constant"
      value: 0
    }
  }
}
layer {
  name: "layer_256_4_sum"
  type: "Eltwise"
  bottom: "layer_256_4_conv2"
  bottom: "layer_256_3_sum"
  top: "layer_256_4_sum"
}
layer {
  name: "layer_256_5_bn1"
  type: "BatchNorm"
  bottom: "layer_256_4_sum"
  top: "layer_256_5_bn1"
  param {
    lr_mult: 0
    decay_mult: 0
  }
  param {
    lr_mult: 0
    decay_mult: 0
  }
  param {
    lr_mult: 0
    decay_mult: 0
  }
}
layer {
  name: "layer_256_5_scale1"
  type: "Scale"
  bottom: "layer_256_5_bn1"
  top: "layer_256_5_bn1"
  param {
    lr_mult: 1
    decay_mult: 1
  }
  param {
    lr_mult: 2
    decay_mult: 1
  }
  scale_param {
    bias_term: true
  }
}
layer {
  name: "layer_256_5_relu1"
  type: "ReLU"
  bottom: "layer_256_5_bn1"
  top: "layer_256_5_bn1"
}
layer {
  name: "layer_256_5_conv1"
  type: "Convolution"
  bottom: "layer_256_5_bn1"
  top: "layer_256_5_conv1"
  param {
    lr_mult: 1
    decay_mult: 1
  }
  convolution_param {
    num_output: 256
    bias_term: false
    pad: 1
    kernel_size: 3
    stride: 1
    weight_filler {
      type: "msra"
    }
    bias_filler {
      type: "constant"
      value: 0
    }
  }
}
layer {
  name: "layer_256_5_bn2"
  type: "BatchNorm"
  bottom: "layer_256_5_conv1"
  top: "layer_256_5_conv1"
  param {
    lr_mult: 0
    decay_mult: 0
  }
  param {
    lr_mult: 0
    decay_mult: 0
  }
  param {
    lr_mult: 0
    decay_mult: 0
  }
}
layer {
  name: "layer_256_5_scale2"
  type: "Scale"
  bottom: "layer_256_5_conv1"
  top: "layer_256_5_conv1"
  param {
    lr_mult: 1
    decay_mult: 1
  }
  param {
    lr_mult: 2
    decay_mult: 1
  }
  scale_param {
    bias_term: true
  }
}
layer {
  name: "layer_256_5_relu2"
  type: "ReLU"
  bottom: "layer_256_5_conv1"
  top: "layer_256_5_conv1"
}
layer {
  name: "layer_256_5_conv2"
  type: "Convolution"
  bottom: "layer_256_5_conv1"
  top: "layer_256_5_conv2"
  param {
    lr_mult: 1
    decay_mult: 1
  }
  convolution_param {
    num_output: 256
    bias_term: false
    pad: 1
    kernel_size: 3
    stride: 1
    weight_filler {
      type: "msra"
    }
    bias_filler {
      type: "constant"
      value: 0
    }
  }
}
layer {
  name: "layer_256_5_sum"
  type: "Eltwise"
  bottom: "layer_256_5_conv2"
  bottom: "layer_256_4_sum"
  top: "layer_256_5_sum"
}
layer {
  name: "layer_256_6_bn1"
  type: "BatchNorm"
  bottom: "layer_256_5_sum"
  top: "layer_256_6_bn1"
  param {
    lr_mult: 0
    decay_mult: 0
  }
  param {
    lr_mult: 0
    decay_mult: 0
  }
  param {
    lr_mult: 0
    decay_mult: 0
  }
}
layer {
  name: "layer_256_6_scale1"
  type: "Scale"
  bottom: "layer_256_6_bn1"
  top: "layer_256_6_bn1"
  param {
    lr_mult: 1
    decay_mult: 1
  }
  param {
    lr_mult: 2
    decay_mult: 1
  }
  scale_param {
    bias_term: true
  }
}
layer {
  name: "layer_256_6_relu1"
  type: "ReLU"
  bottom: "layer_256_6_bn1"
  top: "layer_256_6_bn1"
}
layer {
  name: "layer_256_6_conv1"
  type: "Convolution"
  bottom: "layer_256_6_bn1"
  top: "layer_256_6_conv1"
  param {
    lr_mult: 1
    decay_mult: 1
  }
  convolution_param {
    num_output: 256
    bias_term: false
    pad: 1
    kernel_size: 3
    stride: 1
    weight_filler {
      type: "msra"
    }
    bias_filler {
      type: "constant"
      value: 0
    }
  }
}
layer {
  name: "layer_256_6_bn2"
  type: "BatchNorm"
  bottom: "layer_256_6_conv1"
  top: "layer_256_6_conv1"
  param {
    lr_mult: 0
    decay_mult: 0
  }
  param {
    lr_mult: 0
    decay_mult: 0
  }
  param {
    lr_mult: 0
    decay_mult: 0
  }
}
layer {
  name: "layer_256_6_scale2"
  type: "Scale"
  bottom: "layer_256_6_conv1"
  top: "layer_256_6_conv1"
  param {
    lr_mult: 1
    decay_mult: 1
  }
  param {
    lr_mult: 2
    decay_mult: 1
  }
  scale_param {
    bias_term: true
  }
}
layer {
  name: "layer_256_6_relu2"
  type: "ReLU"
  bottom: "layer_256_6_conv1"
  top: "layer_256_6_conv1"
}
layer {
  name: "layer_256_6_conv2"
  type: "Convolution"
  bottom: "layer_256_6_conv1"
  top: "layer_256_6_conv2"
  param {
    lr_mult: 1
    decay_mult: 1
  }
  convolution_param {
    num_output: 256
    bias_term: false
    pad: 1
    kernel_size: 3
    stride: 1
    weight_filler {
      type: "msra"
    }
    bias_filler {
      type: "constant"
      value: 0
    }
  }
}
layer {
  name: "layer_256_6_sum"
  type: "Eltwise"
  bottom: "layer_256_6_conv2"
  bottom: "layer_256_5_sum"
  top: "layer_256_6_sum"
}
layer {
  name: "layer_512_1_bn1"
  type: "BatchNorm"
  bottom: "layer_256_6_sum"
  top: "layer_512_1_bn1"
  param {
    lr_mult: 0
    decay_mult: 0
  }
  param {
    lr_mult: 0
    decay_mult: 0
  }
  param {
    lr_mult: 0
    decay_mult: 0
  }
}
layer {
  name: "layer_512_1_scale1"
  type: "Scale"
  bottom: "layer_512_1_bn1"
  top: "layer_512_1_bn1"
  param {
    lr_mult: 1
    decay_mult: 1
  }
  para
I0529 16:51:20.866430 21265 layer_factory.hpp:77] Creating layer data
I0529 16:51:20.866556 21265 db_lmdb.cpp:35] Opened lmdb /home/k/PycharmProjects/AgeGenderDeepLearning-master/Folds/lmdb/Test_fold_is_0/age_train_lmdb
I0529 16:51:20.866586 21265 net.cpp:84] Creating Layer data
I0529 16:51:20.866595 21265 net.cpp:380] data -> data
I0529 16:51:20.866617 21265 net.cpp:380] data -> label
I0529 16:51:20.866629 21265 data_transformer.cpp:25] Loading mean file from: /home/k/PycharmProjects/AgeGenderDeepLearning-master/Folds/lmdb/Test_fold_is_0/mean.binaryproto
I0529 16:51:20.869705 21265 data_layer.cpp:45] output data size: 50,3,224,224
I0529 16:51:20.940897 21265 net.cpp:122] Setting up data
I0529 16:51:20.940932 21265 net.cpp:129] Top shape: 50 3 224 224 (7526400)
I0529 16:51:20.940937 21265 net.cpp:129] Top shape: 50 (50)
I0529 16:51:20.940940 21265 net.cpp:137] Memory required for data: 30105800
I0529 16:51:20.940951 21265 layer_factory.hpp:77] Creating layer data_bn
I0529 16:51:20.940968 21265 net.cpp:84] Creating Layer data_bn
I0529 16:51:20.940975 21265 net.cpp:406] data_bn <- data
I0529 16:51:20.940989 21265 net.cpp:380] data_bn -> data_bn
I0529 16:51:20.941972 21265 net.cpp:122] Setting up data_bn
I0529 16:51:20.941983 21265 net.cpp:129] Top shape: 50 3 224 224 (7526400)
I0529 16:51:20.941987 21265 net.cpp:137] Memory required for data: 60211400
I0529 16:51:20.942009 21265 layer_factory.hpp:77] Creating layer data_scale
I0529 16:51:20.942019 21265 net.cpp:84] Creating Layer data_scale
I0529 16:51:20.942024 21265 net.cpp:406] data_scale <- data_bn
I0529 16:51:20.942030 21265 net.cpp:367] data_scale -> data_bn (in-place)
I0529 16:51:20.942070 21265 layer_factory.hpp:77] Creating layer data_scale
I0529 16:51:20.946928 21265 net.cpp:122] Setting up data_scale
I0529 16:51:20.946943 21265 net.cpp:129] Top shape: 50 3 224 224 (7526400)
I0529 16:51:20.946946 21265 net.cpp:137] Memory required for data: 90317000
I0529 16:51:20.946955 21265 layer_factory.hpp:77] Creating layer conv1
I0529 16:51:20.946971 21265 net.cpp:84] Creating Layer conv1
I0529 16:51:20.946976 21265 net.cpp:406] conv1 <- data_bn
I0529 16:51:20.946982 21265 net.cpp:380] conv1 -> conv1
I0529 16:51:21.290025 21265 net.cpp:122] Setting up conv1
I0529 16:51:21.290055 21265 net.cpp:129] Top shape: 50 64 112 112 (40140800)
I0529 16:51:21.290060 21265 net.cpp:137] Memory required for data: 250880200
I0529 16:51:21.290071 21265 layer_factory.hpp:77] Creating layer conv1_bn
I0529 16:51:21.290086 21265 net.cpp:84] Creating Layer conv1_bn
I0529 16:51:21.290092 21265 net.cpp:406] conv1_bn <- conv1
I0529 16:51:21.290103 21265 net.cpp:367] conv1_bn -> conv1 (in-place)
I0529 16:51:21.290279 21265 net.cpp:122] Setting up conv1_bn
I0529 16:51:21.290289 21265 net.cpp:129] Top shape: 50 64 112 112 (40140800)
I0529 16:51:21.290292 21265 net.cpp:137] Memory required for data: 411443400
I0529 16:51:21.290304 21265 layer_factory.hpp:77] Creating layer conv1_scale
I0529 16:51:21.290313 21265 net.cpp:84] Creating Layer conv1_scale
I0529 16:51:21.290318 21265 net.cpp:406] conv1_scale <- conv1
I0529 16:51:21.290323 21265 net.cpp:367] conv1_scale -> conv1 (in-place)
I0529 16:51:21.290361 21265 layer_factory.hpp:77] Creating layer conv1_scale
I0529 16:51:21.290458 21265 net.cpp:122] Setting up conv1_scale
I0529 16:51:21.290467 21265 net.cpp:129] Top shape: 50 64 112 112 (40140800)
I0529 16:51:21.290472 21265 net.cpp:137] Memory required for data: 572006600
I0529 16:51:21.290477 21265 layer_factory.hpp:77] Creating layer conv1_relu
I0529 16:51:21.290482 21265 net.cpp:84] Creating Layer conv1_relu
I0529 16:51:21.290487 21265 net.cpp:406] conv1_relu <- conv1
I0529 16:51:21.290490 21265 net.cpp:367] conv1_relu -> conv1 (in-place)
I0529 16:51:21.291589 21265 net.cpp:122] Setting up conv1_relu
I0529 16:51:21.291599 21265 net.cpp:129] Top shape: 50 64 112 112 (40140800)
I0529 16:51:21.291601 21265 net.cpp:137] Memory required for data: 732569800
I0529 16:51:21.291604 21265 layer_factory.hpp:77] Creating layer conv1_pool
I0529 16:51:21.291611 21265 net.cpp:84] Creating Layer conv1_pool
I0529 16:51:21.291615 21265 net.cpp:406] conv1_pool <- conv1
I0529 16:51:21.291620 21265 net.cpp:380] conv1_pool -> conv1_pool
I0529 16:51:21.291663 21265 net.cpp:122] Setting up conv1_pool
I0529 16:51:21.291672 21265 net.cpp:129] Top shape: 50 64 56 56 (10035200)
I0529 16:51:21.291676 21265 net.cpp:137] Memory required for data: 772710600
I0529 16:51:21.291678 21265 layer_factory.hpp:77] Creating layer conv1_pool_conv1_pool_0_split
I0529 16:51:21.291684 21265 net.cpp:84] Creating Layer conv1_pool_conv1_pool_0_split
I0529 16:51:21.291687 21265 net.cpp:406] conv1_pool_conv1_pool_0_split <- conv1_pool
I0529 16:51:21.291692 21265 net.cpp:380] conv1_pool_conv1_pool_0_split -> conv1_pool_conv1_pool_0_split_0
I0529 16:51:21.291698 21265 net.cpp:380] conv1_pool_conv1_pool_0_split -> conv1_pool_conv1_pool_0_split_1
I0529 16:51:21.291726 21265 net.cpp:122] Setting up conv1_pool_conv1_pool_0_split
I0529 16:51:21.291733 21265 net.cpp:129] Top shape: 50 64 56 56 (10035200)
I0529 16:51:21.291738 21265 net.cpp:129] Top shape: 50 64 56 56 (10035200)
I0529 16:51:21.291740 21265 net.cpp:137] Memory required for data: 852992200
I0529 16:51:21.291743 21265 layer_factory.hpp:77] Creating layer layer_64_1_conv1
I0529 16:51:21.291754 21265 net.cpp:84] Creating Layer layer_64_1_conv1
I0529 16:51:21.291757 21265 net.cpp:406] layer_64_1_conv1 <- conv1_pool_conv1_pool_0_split_0
I0529 16:51:21.291764 21265 net.cpp:380] layer_64_1_conv1 -> layer_64_1_conv1
I0529 16:51:21.293754 21265 net.cpp:122] Setting up layer_64_1_conv1
I0529 16:51:21.293768 21265 net.cpp:129] Top shape: 50 64 56 56 (10035200)
I0529 16:51:21.293772 21265 net.cpp:137] Memory required for data: 893133000
I0529 16:51:21.293793 21265 layer_factory.hpp:77] Creating layer layer_64_1_bn2
I0529 16:51:21.293799 21265 net.cpp:84] Creating Layer layer_64_1_bn2
I0529 16:51:21.293802 21265 net.cpp:406] layer_64_1_bn2 <- layer_64_1_conv1
I0529 16:51:21.293809 21265 net.cpp:367] layer_64_1_bn2 -> layer_64_1_conv1 (in-place)
I0529 16:51:21.294739 21265 net.cpp:122] Setting up layer_64_1_bn2
I0529 16:51:21.294751 21265 net.cpp:129] Top shape: 50 64 56 56 (10035200)
I0529 16:51:21.294755 21265 net.cpp:137] Memory required for data: 933273800
I0529 16:51:21.294764 21265 layer_factory.hpp:77] Creating layer layer_64_1_scale2
I0529 16:51:21.294771 21265 net.cpp:84] Creating Layer layer_64_1_scale2
I0529 16:51:21.294775 21265 net.cpp:406] layer_64_1_scale2 <- layer_64_1_conv1
I0529 16:51:21.294782 21265 net.cpp:367] layer_64_1_scale2 -> layer_64_1_conv1 (in-place)
I0529 16:51:21.294821 21265 layer_factory.hpp:77] Creating layer layer_64_1_scale2
I0529 16:51:21.294919 21265 net.cpp:122] Setting up layer_64_1_scale2
I0529 16:51:21.294927 21265 net.cpp:129] Top shape: 50 64 56 56 (10035200)
I0529 16:51:21.294930 21265 net.cpp:137] Memory required for data: 973414600
I0529 16:51:21.294941 21265 layer_factory.hpp:77] Creating layer layer_64_1_relu2
I0529 16:51:21.294948 21265 net.cpp:84] Creating Layer layer_64_1_relu2
I0529 16:51:21.294952 21265 net.cpp:406] layer_64_1_relu2 <- layer_64_1_conv1
I0529 16:51:21.294957 21265 net.cpp:367] layer_64_1_relu2 -> layer_64_1_conv1 (in-place)
I0529 16:51:21.295586 21265 net.cpp:122] Setting up layer_64_1_relu2
I0529 16:51:21.295599 21265 net.cpp:129] Top shape: 50 64 56 56 (10035200)
I0529 16:51:21.295603 21265 net.cpp:137] Memory required for data: 1013555400
I0529 16:51:21.295606 21265 layer_factory.hpp:77] Creating layer layer_64_1_conv2
I0529 16:51:21.295616 21265 net.cpp:84] Creating Layer layer_64_1_conv2
I0529 16:51:21.295620 21265 net.cpp:406] layer_64_1_conv2 <- layer_64_1_conv1
I0529 16:51:21.295626 21265 net.cpp:380] layer_64_1_conv2 -> layer_64_1_conv2
I0529 16:51:21.300412 21265 net.cpp:122] Setting up layer_64_1_conv2
I0529 16:51:21.300426 21265 net.cpp:129] Top shape: 50 64 56 56 (10035200)
I0529 16:51:21.300429 21265 net.cpp:137] Memory required for data: 1053696200
I0529 16:51:21.300434 21265 layer_factory.hpp:77] Creating layer layer_64_1_sum
I0529 16:51:21.300441 21265 net.cpp:84] Creating Layer layer_64_1_sum
I0529 16:51:21.300444 21265 net.cpp:406] layer_64_1_sum <- layer_64_1_conv2
I0529 16:51:21.300448 21265 net.cpp:406] layer_64_1_sum <- conv1_pool_conv1_pool_0_split_1
I0529 16:51:21.300453 21265 net.cpp:380] layer_64_1_sum -> layer_64_1_sum
I0529 16:51:21.300479 21265 net.cpp:122] Setting up layer_64_1_sum
I0529 16:51:21.300487 21265 net.cpp:129] Top shape: 50 64 56 56 (10035200)
I0529 16:51:21.300490 21265 net.cpp:137] Memory required for data: 1093837000
I0529 16:51:21.300493 21265 layer_factory.hpp:77] Creating layer layer_64_1_sum_layer_64_1_sum_0_split
I0529 16:51:21.300500 21265 net.cpp:84] Creating Layer layer_64_1_sum_layer_64_1_sum_0_split
I0529 16:51:21.300503 21265 net.cpp:406] layer_64_1_sum_layer_64_1_sum_0_split <- layer_64_1_sum
I0529 16:51:21.300508 21265 net.cpp:380] layer_64_1_sum_layer_64_1_sum_0_split -> layer_64_1_sum_layer_64_1_sum_0_split_0
I0529 16:51:21.300514 21265 net.cpp:380] layer_64_1_sum_layer_64_1_sum_0_split -> layer_64_1_sum_layer_64_1_sum_0_split_1
I0529 16:51:21.300544 21265 net.cpp:122] Setting up layer_64_1_sum_layer_64_1_sum_0_split
I0529 16:51:21.300551 21265 net.cpp:129] Top shape: 50 64 56 56 (10035200)
I0529 16:51:21.300555 21265 net.cpp:129] Top shape: 50 64 56 56 (10035200)
I0529 16:51:21.300559 21265 net.cpp:137] Memory required for data: 1174118600
I0529 16:51:21.300561 21265 layer_factory.hpp:77] Creating layer layer_64_2_bn1
I0529 16:51:21.300571 21265 net.cpp:84] Creating Layer layer_64_2_bn1
I0529 16:51:21.300575 21265 net.cpp:406] layer_64_2_bn1 <- layer_64_1_sum_layer_64_1_sum_0_split_0
I0529 16:51:21.300580 21265 net.cpp:380] layer_64_2_bn1 -> layer_64_2_bn1
I0529 16:51:21.300736 21265 net.cpp:122] Setting up layer_64_2_bn1
I0529 16:51:21.300755 21265 net.cpp:129] Top shape: 50 64 56 56 (10035200)
I0529 16:51:21.300758 21265 net.cpp:137] Memory required for data: 1214259400
I0529 16:51:21.300765 21265 layer_factory.hpp:77] Creating layer layer_64_2_scale1
I0529 16:51:21.300771 21265 net.cpp:84] Creating Layer layer_64_2_scale1
I0529 16:51:21.300775 21265 net.cpp:406] layer_64_2_scale1 <- layer_64_2_bn1
I0529 16:51:21.300781 21265 net.cpp:367] layer_64_2_scale1 -> layer_64_2_bn1 (in-place)
I0529 16:51:21.300818 21265 layer_factory.hpp:77] Creating layer layer_64_2_scale1
I0529 16:51:21.300915 21265 net.cpp:122] Setting up layer_64_2_scale1
I0529 16:51:21.300936 21265 net.cpp:129] Top shape: 50 64 56 56 (10035200)
I0529 16:51:21.300941 21265 net.cpp:137] Memory required for data: 1254400200
I0529 16:51:21.300947 21265 layer_factory.hpp:77] Creating layer layer_64_2_relu1
I0529 16:51:21.300954 21265 net.cpp:84] Creating Layer layer_64_2_relu1
I0529 16:51:21.300958 21265 net.cpp:406] layer_64_2_relu1 <- layer_64_2_bn1
I0529 16:51:21.300962 21265 net.cpp:367] layer_64_2_relu1 -> layer_64_2_bn1 (in-place)
I0529 16:51:21.302578 21265 net.cpp:122] Setting up layer_64_2_relu1
I0529 16:51:21.302594 21265 net.cpp:129] Top shape: 50 64 56 56 (10035200)
I0529 16:51:21.302600 21265 net.cpp:137] Memory required for data: 1294541000
I0529 16:51:21.302605 21265 layer_factory.hpp:77] Creating layer layer_64_2_conv1
I0529 16:51:21.302621 21265 net.cpp:84] Creating Layer layer_64_2_conv1
I0529 16:51:21.302628 21265 net.cpp:406] layer_64_2_conv1 <- layer_64_2_bn1
I0529 16:51:21.302636 21265 net.cpp:380] layer_64_2_conv1 -> layer_64_2_conv1
I0529 16:51:21.305968 21265 net.cpp:122] Setting up layer_64_2_conv1
I0529 16:51:21.305985 21265 net.cpp:129] Top shape: 50 64 56 56 (10035200)
I0529 16:51:21.305989 21265 net.cpp:137] Memory required for data: 1334681800
I0529 16:51:21.305996 21265 layer_factory.hpp:77] Creating layer layer_64_2_bn2
I0529 16:51:21.306005 21265 net.cpp:84] Creating Layer layer_64_2_bn2
I0529 16:51:21.306008 21265 net.cpp:406] layer_64_2_bn2 <- layer_64_2_conv1
I0529 16:51:21.306016 21265 net.cpp:367] layer_64_2_bn2 -> layer_64_2_conv1 (in-place)
I0529 16:51:21.306180 21265 net.cpp:122] Setting up layer_64_2_bn2
I0529 16:51:21.306188 21265 net.cpp:129] Top shape: 50 64 56 56 (10035200)
I0529 16:51:21.306191 21265 net.cpp:137] Memory required for data: 1374822600
I0529 16:51:21.306198 21265 layer_factory.hpp:77] Creating layer layer_64_2_scale2
I0529 16:51:21.306207 21265 net.cpp:84] Creating Layer layer_64_2_scale2
I0529 16:51:21.306210 21265 net.cpp:406] layer_64_2_scale2 <- layer_64_2_conv1
I0529 16:51:21.306216 21265 net.cpp:367] layer_64_2_scale2 -> layer_64_2_conv1 (in-place)
I0529 16:51:21.306253 21265 layer_factory.hpp:77] Creating layer layer_64_2_scale2
I0529 16:51:21.306352 21265 net.cpp:122] Setting up layer_64_2_scale2
I0529 16:51:21.306360 21265 net.cpp:129] Top shape: 50 64 56 56 (10035200)
I0529 16:51:21.306362 21265 net.cpp:137] Memory required for data: 1414963400
I0529 16:51:21.306368 21265 layer_factory.hpp:77] Creating layer layer_64_2_relu2
I0529 16:51:21.306375 21265 net.cpp:84] Creating Layer layer_64_2_relu2
I0529 16:51:21.306377 21265 net.cpp:406] layer_64_2_relu2 <- layer_64_2_conv1
I0529 16:51:21.306385 21265 net.cpp:367] layer_64_2_relu2 -> layer_64_2_conv1 (in-place)
I0529 16:51:21.307513 21265 net.cpp:122] Setting up layer_64_2_relu2
I0529 16:51:21.307523 21265 net.cpp:129] Top shape: 50 64 56 56 (10035200)
I0529 16:51:21.307526 21265 net.cpp:137] Memory required for data: 1455104200
I0529 16:51:21.307530 21265 layer_factory.hpp:77] Creating layer layer_64_2_conv2
I0529 16:51:21.307539 21265 net.cpp:84] Creating Layer layer_64_2_conv2
I0529 16:51:21.307543 21265 net.cpp:406] layer_64_2_conv2 <- layer_64_2_conv1
I0529 16:51:21.307550 21265 net.cpp:380] layer_64_2_conv2 -> layer_64_2_conv2
I0529 16:51:21.314290 21265 net.cpp:122] Setting up layer_64_2_conv2
I0529 16:51:21.314303 21265 net.cpp:129] Top shape: 50 64 56 56 (10035200)
I0529 16:51:21.314307 21265 net.cpp:137] Memory required for data: 1495245000
I0529 16:51:21.314313 21265 layer_factory.hpp:77] Creating layer layer_64_2_sum
I0529 16:51:21.314337 21265 net.cpp:84] Creating Layer layer_64_2_sum
I0529 16:51:21.314342 21265 net.cpp:406] layer_64_2_sum <- layer_64_2_conv2
I0529 16:51:21.314347 21265 net.cpp:406] layer_64_2_sum <- layer_64_1_sum_layer_64_1_sum_0_split_1
I0529 16:51:21.314352 21265 net.cpp:380] layer_64_2_sum -> layer_64_2_sum
I0529 16:51:21.314376 21265 net.cpp:122] Setting up layer_64_2_sum
I0529 16:51:21.314383 21265 net.cpp:129] Top shape: 50 64 56 56 (10035200)
I0529 16:51:21.314385 21265 net.cpp:137] Memory required for data: 1535385800
I0529 16:51:21.314388 21265 layer_factory.hpp:77] Creating layer layer_64_2_sum_layer_64_2_sum_0_split
I0529 16:51:21.314394 21265 net.cpp:84] Creating Layer layer_64_2_sum_layer_64_2_sum_0_split
I0529 16:51:21.314398 21265 net.cpp:406] layer_64_2_sum_layer_64_2_sum_0_split <- layer_64_2_sum
I0529 16:51:21.314404 21265 net.cpp:380] layer_64_2_sum_layer_64_2_sum_0_split -> layer_64_2_sum_layer_64_2_sum_0_split_0
I0529 16:51:21.314414 21265 net.cpp:380] layer_64_2_sum_layer_64_2_sum_0_split -> layer_64_2_sum_layer_64_2_sum_0_split_1
I0529 16:51:21.314443 21265 net.cpp:122] Setting up layer_64_2_sum_layer_64_2_sum_0_split
I0529 16:51:21.314450 21265 net.cpp:129] Top shape: 50 64 56 56 (10035200)
I0529 16:51:21.314455 21265 net.cpp:129] Top shape: 50 64 56 56 (10035200)
I0529 16:51:21.314456 21265 net.cpp:137] Memory required for data: 1615667400
I0529 16:51:21.314460 21265 layer_factory.hpp:77] Creating layer layer_64_3_bn1
I0529 16:51:21.314466 21265 net.cpp:84] Creating Layer layer_64_3_bn1
I0529 16:51:21.314471 21265 net.cpp:406] layer_64_3_bn1 <- layer_64_2_sum_layer_64_2_sum_0_split_0
I0529 16:51:21.314476 21265 net.cpp:380] layer_64_3_bn1 -> layer_64_3_bn1
I0529 16:51:21.314635 21265 net.cpp:122] Setting up layer_64_3_bn1
I0529 16:51:21.314644 21265 net.cpp:129] Top shape: 50 64 56 56 (10035200)
I0529 16:51:21.314647 21265 net.cpp:137] Memory required for data: 1655808200
I0529 16:51:21.314659 21265 layer_factory.hpp:77] Creating layer layer_64_3_scale1
I0529 16:51:21.314667 21265 net.cpp:84] Creating Layer layer_64_3_scale1
I0529 16:51:21.314671 21265 net.cpp:406] layer_64_3_scale1 <- layer_64_3_bn1
I0529 16:51:21.314677 21265 net.cpp:367] layer_64_3_scale1 -> layer_64_3_bn1 (in-place)
I0529 16:51:21.314714 21265 layer_factory.hpp:77] Creating layer layer_64_3_scale1
I0529 16:51:21.314807 21265 net.cpp:122] Setting up layer_64_3_scale1
I0529 16:51:21.314817 21265 net.cpp:129] Top shape: 50 64 56 56 (10035200)
I0529 16:51:21.314821 21265 net.cpp:137] Memory required for data: 1695949000
I0529 16:51:21.314826 21265 layer_factory.hpp:77] Creating layer layer_64_3_relu1
I0529 16:51:21.314831 21265 net.cpp:84] Creating Layer layer_64_3_relu1
I0529 16:51:21.314836 21265 net.cpp:406] layer_64_3_relu1 <- layer_64_3_bn1
I0529 16:51:21.314839 21265 net.cpp:367] layer_64_3_relu1 -> layer_64_3_bn1 (in-place)
I0529 16:51:21.316095 21265 net.cpp:122] Setting up layer_64_3_relu1
I0529 16:51:21.316105 21265 net.cpp:129] Top shape: 50 64 56 56 (10035200)
I0529 16:51:21.316108 21265 net.cpp:137] Memory required for data: 1736089800
I0529 16:51:21.316112 21265 layer_factory.hpp:77] Creating layer layer_64_3_conv1
I0529 16:51:21.316121 21265 net.cpp:84] Creating Layer layer_64_3_conv1
I0529 16:51:21.316125 21265 net.cpp:406] layer_64_3_conv1 <- layer_64_3_bn1
I0529 16:51:21.316133 21265 net.cpp:380] layer_64_3_conv1 -> layer_64_3_conv1
I0529 16:51:21.322626 21265 net.cpp:122] Setting up layer_64_3_conv1
I0529 16:51:21.322666 21265 net.cpp:129] Top shape: 50 64 56 56 (10035200)
I0529 16:51:21.322674 21265 net.cpp:137] Memory required for data: 1776230600
I0529 16:51:21.322685 21265 layer_factory.hpp:77] Creating layer layer_64_3_bn2
I0529 16:51:21.322701 21265 net.cpp:84] Creating Layer layer_64_3_bn2
I0529 16:51:21.322712 21265 net.cpp:406] layer_64_3_bn2 <- layer_64_3_conv1
I0529 16:51:21.322726 21265 net.cpp:367] layer_64_3_bn2 -> layer_64_3_conv1 (in-place)
I0529 16:51:21.322993 21265 net.cpp:122] Setting up layer_64_3_bn2
I0529 16:51:21.323004 21265 net.cpp:129] Top shape: 50 64 56 56 (10035200)
I0529 16:51:21.323032 21265 net.cpp:137] Memory required for data: 1816371400
I0529 16:51:21.323042 21265 layer_factory.hpp:77] Creating layer layer_64_3_scale2
I0529 16:51:21.323050 21265 net.cpp:84] Creating Layer layer_64_3_scale2
I0529 16:51:21.323053 21265 net.cpp:406] layer_64_3_scale2 <- layer_64_3_conv1
I0529 16:51:21.323058 21265 net.cpp:367] layer_64_3_scale2 -> layer_64_3_conv1 (in-place)
I0529 16:51:21.323102 21265 layer_factory.hpp:77] Creating layer layer_64_3_scale2
I0529 16:51:21.323228 21265 net.cpp:122] Setting up layer_64_3_scale2
I0529 16:51:21.323237 21265 net.cpp:129] Top shape: 50 64 56 56 (10035200)
I0529 16:51:21.323240 21265 net.cpp:137] Memory required for data: 1856512200
I0529 16:51:21.323246 21265 layer_factory.hpp:77] Creating layer layer_64_3_relu2
I0529 16:51:21.323261 21265 net.cpp:84] Creating Layer layer_64_3_relu2
I0529 16:51:21.323266 21265 net.cpp:406] layer_64_3_relu2 <- layer_64_3_conv1
I0529 16:51:21.323271 21265 net.cpp:367] layer_64_3_relu2 -> layer_64_3_conv1 (in-place)
I0529 16:51:21.324240 21265 net.cpp:122] Setting up layer_64_3_relu2
I0529 16:51:21.324251 21265 net.cpp:129] Top shape: 50 64 56 56 (10035200)
I0529 16:51:21.324254 21265 net.cpp:137] Memory required for data: 1896653000
I0529 16:51:21.324257 21265 layer_factory.hpp:77] Creating layer layer_64_3_conv2
I0529 16:51:21.324268 21265 net.cpp:84] Creating Layer layer_64_3_conv2
I0529 16:51:21.324273 21265 net.cpp:406] layer_64_3_conv2 <- layer_64_3_conv1
I0529 16:51:21.324280 21265 net.cpp:380] layer_64_3_conv2 -> layer_64_3_conv2
I0529 16:51:21.328994 21265 net.cpp:122] Setting up layer_64_3_conv2
I0529 16:51:21.329006 21265 net.cpp:129] Top shape: 50 64 56 56 (10035200)
I0529 16:51:21.329010 21265 net.cpp:137] Memory required for data: 1936793800
I0529 16:51:21.329015 21265 layer_factory.hpp:77] Creating layer layer_64_3_sum
I0529 16:51:21.329022 21265 net.cpp:84] Creating Layer layer_64_3_sum
I0529 16:51:21.329027 21265 net.cpp:406] layer_64_3_sum <- layer_64_3_conv2
I0529 16:51:21.329032 21265 net.cpp:406] layer_64_3_sum <- layer_64_2_sum_layer_64_2_sum_0_split_1
I0529 16:51:21.329037 21265 net.cpp:380] layer_64_3_sum -> layer_64_3_sum
I0529 16:51:21.329061 21265 net.cpp:122] Setting up layer_64_3_sum
I0529 16:51:21.329069 21265 net.cpp:129] Top shape: 50 64 56 56 (10035200)
I0529 16:51:21.329073 21265 net.cpp:137] Memory required for data: 1976934600
I0529 16:51:21.329077 21265 layer_factory.hpp:77] Creating layer layer_128_1_bn1
I0529 16:51:21.329082 21265 net.cpp:84] Creating Layer layer_128_1_bn1
I0529 16:51:21.329087 21265 net.cpp:406] layer_128_1_bn1 <- layer_64_3_sum
I0529 16:51:21.329092 21265 net.cpp:380] layer_128_1_bn1 -> layer_128_1_bn1
I0529 16:51:21.329259 21265 net.cpp:122] Setting up layer_128_1_bn1
I0529 16:51:21.329268 21265 net.cpp:129] Top shape: 50 64 56 56 (10035200)
I0529 16:51:21.329272 21265 net.cpp:137] Memory required for data: 2017075400
I0529 16:51:21.329279 21265 layer_factory.hpp:77] Creating layer layer_128_1_scale1
I0529 16:51:21.329288 21265 net.cpp:84] Creating Layer layer_128_1_scale1
I0529 16:51:21.329291 21265 net.cpp:406] layer_128_1_scale1 <- layer_128_1_bn1
I0529 16:51:21.329296 21265 net.cpp:367] layer_128_1_scale1 -> layer_128_1_bn1 (in-place)
I0529 16:51:21.329334 21265 layer_factory.hpp:77] Creating layer layer_128_1_scale1
I0529 16:51:21.329435 21265 net.cpp:122] Setting up layer_128_1_scale1
I0529 16:51:21.329443 21265 net.cpp:129] Top shape: 50 64 56 56 (10035200)
I0529 16:51:21.329447 21265 net.cpp:137] Memory required for data: 2057216200
I0529 16:51:21.329453 21265 layer_factory.hpp:77] Creating layer layer_128_1_relu1
I0529 16:51:21.329462 21265 net.cpp:84] Creating Layer layer_128_1_relu1
I0529 16:51:21.329465 21265 net.cpp:406] layer_128_1_relu1 <- layer_128_1_bn1
I0529 16:51:21.329469 21265 net.cpp:367] layer_128_1_relu1 -> layer_128_1_bn1 (in-place)
I0529 16:51:21.329612 21265 net.cpp:122] Setting up layer_128_1_relu1
I0529 16:51:21.329622 21265 net.cpp:129] Top shape: 50 64 56 56 (10035200)
I0529 16:51:21.329624 21265 net.cpp:137] Memory required for data: 2097357000
I0529 16:51:21.329638 21265 layer_factory.hpp:77] Creating layer layer_128_1_bn1_layer_128_1_relu1_0_split
I0529 16:51:21.329644 21265 net.cpp:84] Creating Layer layer_128_1_bn1_layer_128_1_relu1_0_split
I0529 16:51:21.329650 21265 net.cpp:406] layer_128_1_bn1_layer_128_1_relu1_0_split <- layer_128_1_bn1
I0529 16:51:21.329655 21265 net.cpp:380] layer_128_1_bn1_layer_128_1_relu1_0_split -> layer_128_1_bn1_layer_128_1_relu1_0_split_0
I0529 16:51:21.329663 21265 net.cpp:380] layer_128_1_bn1_layer_128_1_relu1_0_split -> layer_128_1_bn1_layer_128_1_relu1_0_split_1
I0529 16:51:21.329699 21265 net.cpp:122] Setting up layer_128_1_bn1_layer_128_1_relu1_0_split
I0529 16:51:21.329705 21265 net.cpp:129] Top shape: 50 64 56 56 (10035200)
I0529 16:51:21.329710 21265 net.cpp:129] Top shape: 50 64 56 56 (10035200)
I0529 16:51:21.329713 21265 net.cpp:137] Memory required for data: 2177638600
I0529 16:51:21.329716 21265 layer_factory.hpp:77] Creating layer layer_128_1_conv1
I0529 16:51:21.329725 21265 net.cpp:84] Creating Layer layer_128_1_conv1
I0529 16:51:21.329730 21265 net.cpp:406] layer_128_1_conv1 <- layer_128_1_bn1_layer_128_1_relu1_0_split_0
I0529 16:51:21.329737 21265 net.cpp:380] layer_128_1_conv1 -> layer_128_1_conv1
I0529 16:51:21.336313 21265 net.cpp:122] Setting up layer_128_1_conv1
I0529 16:51:21.336326 21265 net.cpp:129] Top shape: 50 128 28 28 (5017600)
I0529 16:51:21.336330 21265 net.cpp:137] Memory required for data: 2197709000
I0529 16:51:21.336335 21265 layer_factory.hpp:77] Creating layer layer_128_1_bn2
I0529 16:51:21.336344 21265 net.cpp:84] Creating Layer layer_128_1_bn2
I0529 16:51:21.336349 21265 net.cpp:406] layer_128_1_bn2 <- layer_128_1_conv1
I0529 16:51:21.336355 21265 net.cpp:367] layer_128_1_bn2 -> layer_128_1_conv1 (in-place)
I0529 16:51:21.337277 21265 net.cpp:122] Setting up layer_128_1_bn2
I0529 16:51:21.337291 21265 net.cpp:129] Top shape: 50 128 28 28 (5017600)
I0529 16:51:21.337294 21265 net.cpp:137] Memory required for data: 2217779400
I0529 16:51:21.337302 21265 layer_factory.hpp:77] Creating layer layer_128_1_scale2
I0529 16:51:21.337311 21265 net.cpp:84] Creating Layer layer_128_1_scale2
I0529 16:51:21.337314 21265 net.cpp:406] layer_128_1_scale2 <- layer_128_1_conv1
I0529 16:51:21.337321 21265 net.cpp:367] layer_128_1_scale2 -> layer_128_1_conv1 (in-place)
I0529 16:51:21.337357 21265 layer_factory.hpp:77] Creating layer layer_128_1_scale2
I0529 16:51:21.337452 21265 net.cpp:122] Setting up layer_128_1_scale2
I0529 16:51:21.337461 21265 net.cpp:129] Top shape: 50 128 28 28 (5017600)
I0529 16:51:21.337466 21265 net.cpp:137] Memory required for data: 2237849800
I0529 16:51:21.337471 21265 layer_factory.hpp:77] Creating layer layer_128_1_relu2
I0529 16:51:21.337476 21265 net.cpp:84] Creating Layer layer_128_1_relu2
I0529 16:51:21.337479 21265 net.cpp:406] layer_128_1_relu2 <- layer_128_1_conv1
I0529 16:51:21.337486 21265 net.cpp:367] layer_128_1_relu2 -> layer_128_1_conv1 (in-place)
I0529 16:51:21.338107 21265 net.cpp:122] Setting up layer_128_1_relu2
I0529 16:51:21.338120 21265 net.cpp:129] Top shape: 50 128 28 28 (5017600)
I0529 16:51:21.338124 21265 net.cpp:137] Memory required for data: 2257920200
I0529 16:51:21.338129 21265 layer_factory.hpp:77] Creating layer layer_128_1_conv2
I0529 16:51:21.338138 21265 net.cpp:84] Creating Layer layer_128_1_conv2
I0529 16:51:21.338143 21265 net.cpp:406] layer_128_1_conv2 <- layer_128_1_conv1
I0529 16:51:21.338150 21265 net.cpp:380] layer_128_1_conv2 -> layer_128_1_conv2
I0529 16:51:21.340742 21265 net.cpp:122] Setting up layer_128_1_conv2
I0529 16:51:21.340757 21265 net.cpp:129] Top shape: 50 128 28 28 (5017600)
I0529 16:51:21.340760 21265 net.cpp:137] Memory required for data: 2277990600
I0529 16:51:21.340766 21265 layer_factory.hpp:77] Creating layer layer_128_1_conv_expand
I0529 16:51:21.340775 21265 net.cpp:84] Creating Layer layer_128_1_conv_expand
I0529 16:51:21.340781 21265 net.cpp:406] layer_128_1_conv_expand <- layer_128_1_bn1_layer_128_1_relu1_0_split_1
I0529 16:51:21.340788 21265 net.cpp:380] layer_128_1_conv_expand -> layer_128_1_conv_expand
I0529 16:51:21.344722 21265 net.cpp:122] Setting up layer_128_1_conv_expand
I0529 16:51:21.344733 21265 net.cpp:129] Top shape: 50 128 28 28 (5017600)
I0529 16:51:21.344738 21265 net.cpp:137] Memory required for data: 2298061000
I0529 16:51:21.344743 21265 layer_factory.hpp:77] Creating layer layer_128_1_sum
I0529 16:51:21.344748 21265 net.cpp:84] Creating Layer layer_128_1_sum
I0529 16:51:21.344753 21265 net.cpp:406] layer_128_1_sum <- layer_128_1_conv_expand
I0529 16:51:21.344756 21265 net.cpp:406] layer_128_1_sum <- layer_128_1_conv2
I0529 16:51:21.344763 21265 net.cpp:380] layer_128_1_sum -> layer_128_1_sum
I0529 16:51:21.344789 21265 net.cpp:122] Setting up layer_128_1_sum
I0529 16:51:21.344799 21265 net.cpp:129] Top shape: 50 128 28 28 (5017600)
I0529 16:51:21.344802 21265 net.cpp:137] Memory required for data: 2318131400
I0529 16:51:21.344805 21265 layer_factory.hpp:77] Creating layer layer_128_1_sum_layer_128_1_sum_0_split
I0529 16:51:21.344810 21265 net.cpp:84] Creating Layer layer_128_1_sum_layer_128_1_sum_0_split
I0529 16:51:21.344815 21265 net.cpp:406] layer_128_1_sum_layer_128_1_sum_0_split <- layer_128_1_sum
I0529 16:51:21.344820 21265 net.cpp:380] layer_128_1_sum_layer_128_1_sum_0_split -> layer_128_1_sum_layer_128_1_sum_0_split_0
I0529 16:51:21.344826 21265 net.cpp:380] layer_128_1_sum_layer_128_1_sum_0_split -> layer_128_1_sum_layer_128_1_sum_0_split_1
I0529 16:51:21.344859 21265 net.cpp:122] Setting up layer_128_1_sum_layer_128_1_sum_0_split
I0529 16:51:21.344867 21265 net.cpp:129] Top shape: 50 128 28 28 (5017600)
I0529 16:51:21.344872 21265 net.cpp:129] Top shape: 50 128 28 28 (5017600)
I0529 16:51:21.344877 21265 net.cpp:137] Memory required for data: 2358272200
I0529 16:51:21.344882 21265 layer_factory.hpp:77] Creating layer layer_128_2_bn1
I0529 16:51:21.344888 21265 net.cpp:84] Creating Layer layer_128_2_bn1
I0529 16:51:21.344892 21265 net.cpp:406] layer_128_2_bn1 <- layer_128_1_sum_layer_128_1_sum_0_split_0
I0529 16:51:21.344899 21265 net.cpp:380] layer_128_2_bn1 -> layer_128_2_bn1
I0529 16:51:21.345062 21265 net.cpp:122] Setting up layer_128_2_bn1
I0529 16:51:21.345072 21265 net.cpp:129] Top shape: 50 128 28 28 (5017600)
I0529 16:51:21.345074 21265 net.cpp:137] Memory required for data: 2378342600
I0529 16:51:21.345082 21265 layer_factory.hpp:77] Creating layer layer_128_2_scale1
I0529 16:51:21.345088 21265 net.cpp:84] Creating Layer layer_128_2_scale1
I0529 16:51:21.345093 21265 net.cpp:406] layer_128_2_scale1 <- layer_128_2_bn1
I0529 16:51:21.345098 21265 net.cpp:367] layer_128_2_scale1 -> layer_128_2_bn1 (in-place)
I0529 16:51:21.345134 21265 layer_factory.hpp:77] Creating layer layer_128_2_scale1
I0529 16:51:21.345227 21265 net.cpp:122] Setting up layer_128_2_scale1
I0529 16:51:21.345235 21265 net.cpp:129] Top shape: 50 128 28 28 (5017600)
I0529 16:51:21.345238 21265 net.cpp:137] Memory required for data: 2398413000
I0529 16:51:21.345244 21265 layer_factory.hpp:77] Creating layer layer_128_2_relu1
I0529 16:51:21.345252 21265 net.cpp:84] Creating Layer layer_128_2_relu1
I0529 16:51:21.345257 21265 net.cpp:406] layer_128_2_relu1 <- layer_128_2_bn1
I0529 16:51:21.345262 21265 net.cpp:367] layer_128_2_relu1 -> layer_128_2_bn1 (in-place)
I0529 16:51:21.346825 21265 net.cpp:122] Setting up layer_128_2_relu1
I0529 16:51:21.346838 21265 net.cpp:129] Top shape: 50 128 28 28 (5017600)
I0529 16:51:21.346843 21265 net.cpp:137] Memory required for data: 2418483400
I0529 16:51:21.346846 21265 layer_factory.hpp:77] Creating layer layer_128_2_conv1
I0529 16:51:21.346855 21265 net.cpp:84] Creating Layer layer_128_2_conv1
I0529 16:51:21.346860 21265 net.cpp:406] layer_128_2_conv1 <- layer_128_2_bn1
I0529 16:51:21.346866 21265 net.cpp:380] layer_128_2_conv1 -> layer_128_2_conv1
I0529 16:51:21.352183 21265 net.cpp:122] Setting up layer_128_2_conv1
I0529 16:51:21.352203 21265 net.cpp:129] Top shape: 50 128 28 28 (5017600)
I0529 16:51:21.352207 21265 net.cpp:137] Memory required for data: 2438553800
I0529 16:51:21.352214 21265 layer_factory.hpp:77] Creating layer layer_128_2_bn2
I0529 16:51:21.352234 21265 net.cpp:84] Creating Layer layer_128_2_bn2
I0529 16:51:21.352239 21265 net.cpp:406] layer_128_2_bn2 <- layer_128_2_conv1
I0529 16:51:21.352246 21265 net.cpp:367] layer_128_2_bn2 -> layer_128_2_conv1 (in-place)
I0529 16:51:21.352480 21265 net.cpp:122] Setting up layer_128_2_bn2
I0529 16:51:21.352493 21265 net.cpp:129] Top shape: 50 128 28 28 (5017600)
I0529 16:51:21.352495 21265 net.cpp:137] Memory required for data: 2458624200
I0529 16:51:21.352511 21265 layer_factory.hpp:77] Creating layer layer_128_2_scale2
I0529 16:51:21.352521 21265 net.cpp:84] Creating Layer layer_128_2_scale2
I0529 16:51:21.352526 21265 net.cpp:406] layer_128_2_scale2 <- layer_128_2_conv1
I0529 16:51:21.352532 21265 net.cpp:367] layer_128_2_scale2 -> layer_128_2_conv1 (in-place)
I0529 16:51:21.352576 21265 layer_factory.hpp:77] Creating layer layer_128_2_scale2
I0529 16:51:21.352712 21265 net.cpp:122] Setting up layer_128_2_scale2
I0529 16:51:21.352723 21265 net.cpp:129] Top shape: 50 128 28 28 (5017600)
I0529 16:51:21.352726 21265 net.cpp:137] Memory required for data: 2478694600
I0529 16:51:21.352732 21265 layer_factory.hpp:77] Creating layer layer_128_2_relu2
I0529 16:51:21.352738 21265 net.cpp:84] Creating Layer layer_128_2_relu2
I0529 16:51:21.352743 21265 net.cpp:406] layer_128_2_relu2 <- layer_128_2_conv1
I0529 16:51:21.352749 21265 net.cpp:367] layer_128_2_relu2 -> layer_128_2_conv1 (in-place)
I0529 16:51:21.353587 21265 net.cpp:122] Setting up layer_128_2_relu2
I0529 16:51:21.353601 21265 net.cpp:129] Top shape: 50 128 28 28 (5017600)
I0529 16:51:21.353607 21265 net.cpp:137] Memory required for data: 2498765000
I0529 16:51:21.353613 21265 layer_factory.hpp:77] Creating layer layer_128_2_conv2
I0529 16:51:21.353632 21265 net.cpp:84] Creating Layer layer_128_2_conv2
I0529 16:51:21.353641 21265 net.cpp:406] layer_128_2_conv2 <- layer_128_2_conv1
I0529 16:51:21.353652 21265 net.cpp:380] layer_128_2_conv2 -> layer_128_2_conv2
I0529 16:51:21.361969 21265 net.cpp:122] Setting up layer_128_2_conv2
I0529 16:51:21.361984 21265 net.cpp:129] Top shape: 50 128 28 28 (5017600)
I0529 16:51:21.361987 21265 net.cpp:137] Memory required for data: 2518835400
I0529 16:51:21.361994 21265 layer_factory.hpp:77] Creating layer layer_128_2_sum
I0529 16:51:21.361999 21265 net.cpp:84] Creating Layer layer_128_2_sum
I0529 16:51:21.362004 21265 net.cpp:406] layer_128_2_sum <- layer_128_2_conv2
I0529 16:51:21.362010 21265 net.cpp:406] layer_128_2_sum <- layer_128_1_sum_layer_128_1_sum_0_split_1
I0529 16:51:21.362016 21265 net.cpp:380] layer_128_2_sum -> layer_128_2_sum
I0529 16:51:21.362043 21265 net.cpp:122] Setting up layer_128_2_sum
I0529 16:51:21.362052 21265 net.cpp:129] Top shape: 50 128 28 28 (5017600)
I0529 16:51:21.362056 21265 net.cpp:137] Memory required for data: 2538905800
I0529 16:51:21.362061 21265 layer_factory.hpp:77] Creating layer layer_128_2_sum_layer_128_2_sum_0_split
I0529 16:51:21.362066 21265 net.cpp:84] Creating Layer layer_128_2_sum_layer_128_2_sum_0_split
I0529 16:51:21.362069 21265 net.cpp:406] layer_128_2_sum_layer_128_2_sum_0_split <- layer_128_2_sum
I0529 16:51:21.362074 21265 net.cpp:380] layer_128_2_sum_layer_128_2_sum_0_split -> layer_128_2_sum_layer_128_2_sum_0_split_0
I0529 16:51:21.362082 21265 net.cpp:380] layer_128_2_sum_layer_128_2_sum_0_split -> layer_128_2_sum_layer_128_2_sum_0_split_1
I0529 16:51:21.362116 21265 net.cpp:122] Setting up layer_128_2_sum_layer_128_2_sum_0_split
I0529 16:51:21.362124 21265 net.cpp:129] Top shape: 50 128 28 28 (5017600)
I0529 16:51:21.362128 21265 net.cpp:129] Top shape: 50 128 28 28 (5017600)
I0529 16:51:21.362130 21265 net.cpp:137] Memory required for data: 2579046600
I0529 16:51:21.362134 21265 layer_factory.hpp:77] Creating layer layer_128_3_bn1
I0529 16:51:21.362140 21265 net.cpp:84] Creating Layer layer_128_3_bn1
I0529 16:51:21.362145 21265 net.cpp:406] layer_128_3_bn1 <- layer_128_2_sum_layer_128_2_sum_0_split_0
I0529 16:51:21.362151 21265 net.cpp:380] layer_128_3_bn1 -> layer_128_3_bn1
I0529 16:51:21.362320 21265 net.cpp:122] Setting up layer_128_3_bn1
I0529 16:51:21.362339 21265 net.cpp:129] Top shape: 50 128 28 28 (5017600)
I0529 16:51:21.362341 21265 net.cpp:137] Memory required for data: 2599117000
I0529 16:51:21.362349 21265 layer_factory.hpp:77] Creating layer layer_128_3_scale1
I0529 16:51:21.362356 21265 net.cpp:84] Creating Layer layer_128_3_scale1
I0529 16:51:21.362360 21265 net.cpp:406] layer_128_3_scale1 <- layer_128_3_bn1
I0529 16:51:21.362365 21265 net.cpp:367] layer_128_3_scale1 -> layer_128_3_bn1 (in-place)
I0529 16:51:21.362406 21265 layer_factory.hpp:77] Creating layer layer_128_3_scale1
I0529 16:51:21.362501 21265 net.cpp:122] Setting up layer_128_3_scale1
I0529 16:51:21.362509 21265 net.cpp:129] Top shape: 50 128 28 28 (5017600)
I0529 16:51:21.362512 21265 net.cpp:137] Memory required for data: 2619187400
I0529 16:51:21.362519 21265 layer_factory.hpp:77] Creating layer layer_128_3_relu1
I0529 16:51:21.362524 21265 net.cpp:84] Creating Layer layer_128_3_relu1
I0529 16:51:21.362527 21265 net.cpp:406] layer_128_3_relu1 <- layer_128_3_bn1
I0529 16:51:21.362532 21265 net.cpp:367] layer_128_3_relu1 -> layer_128_3_bn1 (in-place)
I0529 16:51:21.363611 21265 net.cpp:122] Setting up layer_128_3_relu1
I0529 16:51:21.363622 21265 net.cpp:129] Top shape: 50 128 28 28 (5017600)
I0529 16:51:21.363626 21265 net.cpp:137] Memory required for data: 2639257800
I0529 16:51:21.363628 21265 layer_factory.hpp:77] Creating layer layer_128_3_conv1
I0529 16:51:21.363637 21265 net.cpp:84] Creating Layer layer_128_3_conv1
I0529 16:51:21.363642 21265 net.cpp:406] layer_128_3_conv1 <- layer_128_3_bn1
I0529 16:51:21.363648 21265 net.cpp:380] layer_128_3_conv1 -> layer_128_3_conv1
I0529 16:51:21.369040 21265 net.cpp:122] Setting up layer_128_3_conv1
I0529 16:51:21.369055 21265 net.cpp:129] Top shape: 50 128 28 28 (5017600)
I0529 16:51:21.369060 21265 net.cpp:137] Memory required for data: 2659328200
I0529 16:51:21.369065 21265 layer_factory.hpp:77] Creating layer layer_128_3_bn2
I0529 16:51:21.369071 21265 net.cpp:84] Creating Layer layer_128_3_bn2
I0529 16:51:21.369076 21265 net.cpp:406] layer_128_3_bn2 <- layer_128_3_conv1
I0529 16:51:21.369081 21265 net.cpp:367] layer_128_3_bn2 -> layer_128_3_conv1 (in-place)
I0529 16:51:21.369249 21265 net.cpp:122] Setting up layer_128_3_bn2
I0529 16:51:21.369258 21265 net.cpp:129] Top shape: 50 128 28 28 (5017600)
I0529 16:51:21.369261 21265 net.cpp:137] Memory required for data: 2679398600
I0529 16:51:21.369268 21265 layer_factory.hpp:77] Creating layer layer_128_3_scale2
I0529 16:51:21.369277 21265 net.cpp:84] Creating Layer layer_128_3_scale2
I0529 16:51:21.369282 21265 net.cpp:406] layer_128_3_scale2 <- layer_128_3_conv1
I0529 16:51:21.369287 21265 net.cpp:367] layer_128_3_scale2 -> layer_128_3_conv1 (in-place)
I0529 16:51:21.369323 21265 layer_factory.hpp:77] Creating layer layer_128_3_scale2
I0529 16:51:21.369418 21265 net.cpp:122] Setting up layer_128_3_scale2
I0529 16:51:21.369427 21265 net.cpp:129] Top shape: 50 128 28 28 (5017600)
I0529 16:51:21.369431 21265 net.cpp:137] Memory required for data: 2699469000
I0529 16:51:21.369436 21265 layer_factory.hpp:77] Creating layer layer_128_3_relu2
I0529 16:51:21.369442 21265 net.cpp:84] Creating Layer layer_128_3_relu2
I0529 16:51:21.369446 21265 net.cpp:406] layer_128_3_relu2 <- layer_128_3_conv1
I0529 16:51:21.369451 21265 net.cpp:367] layer_128_3_relu2 -> layer_128_3_conv1 (in-place)
I0529 16:51:21.370741 21265 net.cpp:122] Setting up layer_128_3_relu2
I0529 16:51:21.370759 21265 net.cpp:129] Top shape: 50 128 28 28 (5017600)
I0529 16:51:21.370767 21265 net.cpp:137] Memory required for data: 2719539400
I0529 16:51:21.370774 21265 layer_factory.hpp:77] Creating layer layer_128_3_conv2
I0529 16:51:21.370810 21265 net.cpp:84] Creating Layer layer_128_3_conv2
I0529 16:51:21.370821 21265 net.cpp:406] layer_128_3_conv2 <- layer_128_3_conv1
I0529 16:51:21.370836 21265 net.cpp:380] layer_128_3_conv2 -> layer_128_3_conv2
I0529 16:51:21.376091 21265 net.cpp:122] Setting up layer_128_3_conv2
I0529 16:51:21.376112 21265 net.cpp:129] Top shape: 50 128 28 28 (5017600)
I0529 16:51:21.376116 21265 net.cpp:137] Memory required for data: 2739609800
I0529 16:51:21.376139 21265 layer_factory.hpp:77] Creating layer layer_128_3_sum
I0529 16:51:21.376149 21265 net.cpp:84] Creating Layer layer_128_3_sum
I0529 16:51:21.376154 21265 net.cpp:406] layer_128_3_sum <- layer_128_3_conv2
I0529 16:51:21.376160 21265 net.cpp:406] layer_128_3_sum <- layer_128_2_sum_layer_128_2_sum_0_split_1
I0529 16:51:21.376168 21265 net.cpp:380] layer_128_3_sum -> layer_128_3_sum
I0529 16:51:21.376209 21265 net.cpp:122] Setting up layer_128_3_sum
I0529 16:51:21.376217 21265 net.cpp:129] Top shape: 50 128 28 28 (5017600)
I0529 16:51:21.376220 21265 net.cpp:137] Memory required for data: 2759680200
I0529 16:51:21.376224 21265 layer_factory.hpp:77] Creating layer layer_128_3_sum_layer_128_3_sum_0_split
I0529 16:51:21.376231 21265 net.cpp:84] Creating Layer layer_128_3_sum_layer_128_3_sum_0_split
I0529 16:51:21.376235 21265 net.cpp:406] layer_128_3_sum_layer_128_3_sum_0_split <- layer_128_3_sum
I0529 16:51:21.376241 21265 net.cpp:380] layer_128_3_sum_layer_128_3_sum_0_split -> layer_128_3_sum_layer_128_3_sum_0_split_0
I0529 16:51:21.376247 21265 net.cpp:380] layer_128_3_sum_layer_128_3_sum_0_split -> layer_128_3_sum_layer_128_3_sum_0_split_1
I0529 16:51:21.376284 21265 net.cpp:122] Setting up layer_128_3_sum_layer_128_3_sum_0_split
I0529 16:51:21.376293 21265 net.cpp:129] Top shape: 50 128 28 28 (5017600)
I0529 16:51:21.376298 21265 net.cpp:129] Top shape: 50 128 28 28 (5017600)
I0529 16:51:21.376301 21265 net.cpp:137] Memory required for data: 2799821000
I0529 16:51:21.376303 21265 layer_factory.hpp:77] Creating layer layer_128_4_bn1
I0529 16:51:21.376309 21265 net.cpp:84] Creating Layer layer_128_4_bn1
I0529 16:51:21.376312 21265 net.cpp:406] layer_128_4_bn1 <- layer_128_3_sum_layer_128_3_sum_0_split_0
I0529 16:51:21.376318 21265 net.cpp:380] layer_128_4_bn1 -> layer_128_4_bn1
I0529 16:51:21.376492 21265 net.cpp:122] Setting up layer_128_4_bn1
I0529 16:51:21.376500 21265 net.cpp:129] Top shape: 50 128 28 28 (5017600)
I0529 16:51:21.376503 21265 net.cpp:137] Memory required for data: 2819891400
I0529 16:51:21.376510 21265 layer_factory.hpp:77] Creating layer layer_128_4_scale1
I0529 16:51:21.376520 21265 net.cpp:84] Creating Layer layer_128_4_scale1
I0529 16:51:21.376524 21265 net.cpp:406] layer_128_4_scale1 <- layer_128_4_bn1
I0529 16:51:21.376529 21265 net.cpp:367] layer_128_4_scale1 -> layer_128_4_bn1 (in-place)
I0529 16:51:21.376572 21265 layer_factory.hpp:77] Creating layer layer_128_4_scale1
I0529 16:51:21.376675 21265 net.cpp:122] Setting up layer_128_4_scale1
I0529 16:51:21.376684 21265 net.cpp:129] Top shape: 50 128 28 28 (5017600)
I0529 16:51:21.376688 21265 net.cpp:137] Memory required for data: 2839961800
I0529 16:51:21.376693 21265 layer_factory.hpp:77] Creating layer layer_128_4_relu1
I0529 16:51:21.376699 21265 net.cpp:84] Creating Layer layer_128_4_relu1
I0529 16:51:21.376703 21265 net.cpp:406] layer_128_4_relu1 <- layer_128_4_bn1
I0529 16:51:21.376709 21265 net.cpp:367] layer_128_4_relu1 -> layer_128_4_bn1 (in-place)
I0529 16:51:21.376865 21265 net.cpp:122] Setting up layer_128_4_relu1
I0529 16:51:21.376875 21265 net.cpp:129] Top shape: 50 128 28 28 (5017600)
I0529 16:51:21.376878 21265 net.cpp:137] Memory required for data: 2860032200
I0529 16:51:21.376881 21265 layer_factory.hpp:77] Creating layer layer_128_4_conv1
I0529 16:51:21.376893 21265 net.cpp:84] Creating Layer layer_128_4_conv1
I0529 16:51:21.376898 21265 net.cpp:406] layer_128_4_conv1 <- layer_128_4_bn1
I0529 16:51:21.376902 21265 net.cpp:380] layer_128_4_conv1 -> layer_128_4_conv1
I0529 16:51:21.379935 21265 net.cpp:122] Setting up layer_128_4_conv1
I0529 16:51:21.379948 21265 net.cpp:129] Top shape: 50 128 28 28 (5017600)
I0529 16:51:21.379951 21265 net.cpp:137] Memory required for data: 2880102600
I0529 16:51:21.379957 21265 layer_factory.hpp:77] Creating layer layer_128_4_bn2
I0529 16:51:21.379964 21265 net.cpp:84] Creating Layer layer_128_4_bn2
I0529 16:51:21.379969 21265 net.cpp:406] layer_128_4_bn2 <- layer_128_4_conv1
I0529 16:51:21.379974 21265 net.cpp:367] layer_128_4_bn2 -> layer_128_4_conv1 (in-place)
I0529 16:51:21.380151 21265 net.cpp:122] Setting up layer_128_4_bn2
I0529 16:51:21.380161 21265 net.cpp:129] Top shape: 50 128 28 28 (5017600)
I0529 16:51:21.380163 21265 net.cpp:137] Memory required for data: 2900173000
I0529 16:51:21.380172 21265 layer_factory.hpp:77] Creating layer layer_128_4_scale2
I0529 16:51:21.380177 21265 net.cpp:84] Creating Layer layer_128_4_scale2
I0529 16:51:21.380182 21265 net.cpp:406] layer_128_4_scale2 <- layer_128_4_conv1
I0529 16:51:21.380189 21265 net.cpp:367] layer_128_4_scale2 -> layer_128_4_conv1 (in-place)
I0529 16:51:21.380225 21265 layer_factory.hpp:77] Creating layer layer_128_4_scale2
I0529 16:51:21.380322 21265 net.cpp:122] Setting up layer_128_4_scale2
I0529 16:51:21.380331 21265 net.cpp:129] Top shape: 50 128 28 28 (5017600)
I0529 16:51:21.380334 21265 net.cpp:137] Memory required for data: 2920243400
I0529 16:51:21.380340 21265 layer_factory.hpp:77] Creating layer layer_128_4_relu2
I0529 16:51:21.380347 21265 net.cpp:84] Creating Layer layer_128_4_relu2
I0529 16:51:21.380352 21265 net.cpp:406] layer_128_4_relu2 <- layer_128_4_conv1
I0529 16:51:21.380357 21265 net.cpp:367] layer_128_4_relu2 -> layer_128_4_conv1 (in-place)
I0529 16:51:21.380517 21265 net.cpp:122] Setting up layer_128_4_relu2
I0529 16:51:21.380527 21265 net.cpp:129] Top shape: 50 128 28 28 (5017600)
I0529 16:51:21.380530 21265 net.cpp:137] Memory required for data: 2940313800
I0529 16:51:21.380533 21265 layer_factory.hpp:77] Creating layer layer_128_4_conv2
I0529 16:51:21.380544 21265 net.cpp:84] Creating Layer layer_128_4_conv2
I0529 16:51:21.380548 21265 net.cpp:406] layer_128_4_conv2 <- layer_128_4_conv1
I0529 16:51:21.380554 21265 net.cpp:380] layer_128_4_conv2 -> layer_128_4_conv2
I0529 16:51:21.383566 21265 net.cpp:122] Setting up layer_128_4_conv2
I0529 16:51:21.383579 21265 net.cpp:129] Top shape: 50 128 28 28 (5017600)
I0529 16:51:21.383584 21265 net.cpp:137] Memory required for data: 2960384200
I0529 16:51:21.383589 21265 layer_factory.hpp:77] Creating layer layer_128_4_sum
I0529 16:51:21.383597 21265 net.cpp:84] Creating Layer layer_128_4_sum
I0529 16:51:21.383602 21265 net.cpp:406] layer_128_4_sum <- layer_128_4_conv2
I0529 16:51:21.383606 21265 net.cpp:406] layer_128_4_sum <- layer_128_3_sum_layer_128_3_sum_0_split_1
I0529 16:51:21.383612 21265 net.cpp:380] layer_128_4_sum -> layer_128_4_sum
I0529 16:51:21.383641 21265 net.cpp:122] Setting up layer_128_4_sum
I0529 16:51:21.383649 21265 net.cpp:129] Top shape: 50 128 28 28 (5017600)
I0529 16:51:21.383653 21265 net.cpp:137] Memory required for data: 2980454600
I0529 16:51:21.383656 21265 layer_factory.hpp:77] Creating layer layer_256_1_bn1
I0529 16:51:21.383662 21265 net.cpp:84] Creating Layer layer_256_1_bn1
I0529 16:51:21.383667 21265 net.cpp:406] layer_256_1_bn1 <- layer_128_4_sum
I0529 16:51:21.383672 21265 net.cpp:380] layer_256_1_bn1 -> layer_256_1_bn1
I0529 16:51:21.383841 21265 net.cpp:122] Setting up layer_256_1_bn1
I0529 16:51:21.383851 21265 net.cpp:129] Top shape: 50 128 28 28 (5017600)
I0529 16:51:21.383853 21265 net.cpp:137] Memory required for data: 3000525000
I0529 16:51:21.383860 21265 layer_factory.hpp:77] Creating layer layer_256_1_scale1
I0529 16:51:21.383867 21265 net.cpp:84] Creating Layer layer_256_1_scale1
I0529 16:51:21.383872 21265 net.cpp:406] layer_256_1_scale1 <- layer_256_1_bn1
I0529 16:51:21.383878 21265 net.cpp:367] layer_256_1_scale1 -> layer_256_1_bn1 (in-place)
I0529 16:51:21.383915 21265 layer_factory.hpp:77] Creating layer layer_256_1_scale1
I0529 16:51:21.384013 21265 net.cpp:122] Setting up layer_256_1_scale1
I0529 16:51:21.384023 21265 net.cpp:129] Top shape: 50 128 28 28 (5017600)
I0529 16:51:21.384027 21265 net.cpp:137] Memory required for data: 3020595400
I0529 16:51:21.384032 21265 layer_factory.hpp:77] Creating layer layer_256_1_relu1
I0529 16:51:21.384038 21265 net.cpp:84] Creating Layer layer_256_1_relu1
I0529 16:51:21.384042 21265 net.cpp:406] layer_256_1_relu1 <- layer_256_1_bn1
I0529 16:51:21.384047 21265 net.cpp:367] layer_256_1_relu1 -> layer_256_1_bn1 (in-place)
I0529 16:51:21.385155 21265 net.cpp:122] Setting up layer_256_1_relu1
I0529 16:51:21.385174 21265 net.cpp:129] Top shape: 50 128 28 28 (5017600)
I0529 16:51:21.385177 21265 net.cpp:137] Memory required for data: 3040665800
I0529 16:51:21.385181 21265 layer_factory.hpp:77] Creating layer layer_256_1_bn1_layer_256_1_relu1_0_split
I0529 16:51:21.385190 21265 net.cpp:84] Creating Layer layer_256_1_bn1_layer_256_1_relu1_0_split
I0529 16:51:21.385195 21265 net.cpp:406] layer_256_1_bn1_layer_256_1_relu1_0_split <- layer_256_1_bn1
I0529 16:51:21.385200 21265 net.cpp:380] layer_256_1_bn1_layer_256_1_relu1_0_split -> layer_256_1_bn1_layer_256_1_relu1_0_split_0
I0529 16:51:21.385210 21265 net.cpp:380] layer_256_1_bn1_layer_256_1_relu1_0_split -> layer_256_1_bn1_layer_256_1_relu1_0_split_1
I0529 16:51:21.385257 21265 net.cpp:122] Setting up layer_256_1_bn1_layer_256_1_relu1_0_split
I0529 16:51:21.385264 21265 net.cpp:129] Top shape: 50 128 28 28 (5017600)
I0529 16:51:21.385268 21265 net.cpp:129] Top shape: 50 128 28 28 (5017600)
I0529 16:51:21.385272 21265 net.cpp:137] Memory required for data: 3080806600
I0529 16:51:21.385274 21265 layer_factory.hpp:77] Creating layer layer_256_1_conv1
I0529 16:51:21.385284 21265 net.cpp:84] Creating Layer layer_256_1_conv1
I0529 16:51:21.385289 21265 net.cpp:406] layer_256_1_conv1 <- layer_256_1_bn1_layer_256_1_relu1_0_split_0
I0529 16:51:21.385296 21265 net.cpp:380] layer_256_1_conv1 -> layer_256_1_conv1
I0529 16:51:21.390768 21265 net.cpp:122] Setting up layer_256_1_conv1
I0529 16:51:21.390802 21265 net.cpp:129] Top shape: 50 256 14 14 (2508800)
I0529 16:51:21.390808 21265 net.cpp:137] Memory required for data: 3090841800
I0529 16:51:21.390821 21265 layer_factory.hpp:77] Creating layer layer_256_1_bn2
I0529 16:51:21.390838 21265 net.cpp:84] Creating Layer layer_256_1_bn2
I0529 16:51:21.390848 21265 net.cpp:406] layer_256_1_bn2 <- layer_256_1_conv1
I0529 16:51:21.390863 21265 net.cpp:367] layer_256_1_bn2 -> layer_256_1_conv1 (in-place)
I0529 16:51:21.391186 21265 net.cpp:122] Setting up layer_256_1_bn2
I0529 16:51:21.391202 21265 net.cpp:129] Top shape: 50 256 14 14 (2508800)
I0529 16:51:21.391211 21265 net.cpp:137] Memory required for data: 3100877000
I0529 16:51:21.391222 21265 layer_factory.hpp:77] Creating layer layer_256_1_scale2
I0529 16:51:21.391238 21265 net.cpp:84] Creating Layer layer_256_1_scale2
I0529 16:51:21.391247 21265 net.cpp:406] layer_256_1_scale2 <- layer_256_1_conv1
I0529 16:51:21.391258 21265 net.cpp:367] layer_256_1_scale2 -> layer_256_1_conv1 (in-place)
I0529 16:51:21.391331 21265 layer_factory.hpp:77] Creating layer layer_256_1_scale2
I0529 16:51:21.391491 21265 net.cpp:122] Setting up layer_256_1_scale2
I0529 16:51:21.391505 21265 net.cpp:129] Top shape: 50 256 14 14 (2508800)
I0529 16:51:21.391511 21265 net.cpp:137] Memory required for data: 3110912200
I0529 16:51:21.391520 21265 layer_factory.hpp:77] Creating layer layer_256_1_relu2
I0529 16:51:21.391532 21265 net.cpp:84] Creating Layer layer_256_1_relu2
I0529 16:51:21.391540 21265 net.cpp:406] layer_256_1_relu2 <- layer_256_1_conv1
I0529 16:51:21.391546 21265 net.cpp:367] layer_256_1_relu2 -> layer_256_1_conv1 (in-place)
I0529 16:51:21.391788 21265 net.cpp:122] Setting up layer_256_1_relu2
I0529 16:51:21.391803 21265 net.cpp:129] Top shape: 50 256 14 14 (2508800)
I0529 16:51:21.391809 21265 net.cpp:137] Memory required for data: 3120947400
I0529 16:51:21.391815 21265 layer_factory.hpp:77] Creating layer layer_256_1_conv2
I0529 16:51:21.391834 21265 net.cpp:84] Creating Layer layer_256_1_conv2
I0529 16:51:21.391842 21265 net.cpp:406] layer_256_1_conv2 <- layer_256_1_conv1
I0529 16:51:21.391857 21265 net.cpp:380] layer_256_1_conv2 -> layer_256_1_conv2
I0529 16:51:21.400912 21265 net.cpp:122] Setting up layer_256_1_conv2
I0529 16:51:21.400959 21265 net.cpp:129] Top shape: 50 256 14 14 (2508800)
I0529 16:51:21.400966 21265 net.cpp:137] Memory required for data: 3130982600
I0529 16:51:21.400981 21265 layer_factory.hpp:77] Creating layer layer_256_1_conv_expand
I0529 16:51:21.401008 21265 net.cpp:84] Creating Layer layer_256_1_conv_expand
I0529 16:51:21.401034 21265 net.cpp:406] layer_256_1_conv_expand <- layer_256_1_bn1_layer_256_1_relu1_0_split_1
I0529 16:51:21.401056 21265 net.cpp:380] layer_256_1_conv_expand -> layer_256_1_conv_expand
I0529 16:51:21.402801 21265 net.cpp:122] Setting up layer_256_1_conv_expand
I0529 16:51:21.402837 21265 net.cpp:129] Top shape: 50 256 14 14 (2508800)
I0529 16:51:21.402842 21265 net.cpp:137] Memory required for data: 3141017800
I0529 16:51:21.402854 21265 layer_factory.hpp:77] Creating layer layer_256_1_sum
I0529 16:51:21.402868 21265 net.cpp:84] Creating Layer layer_256_1_sum
I0529 16:51:21.402878 21265 net.cpp:406] layer_256_1_sum <- layer_256_1_conv_expand
I0529 16:51:21.402889 21265 net.cpp:406] layer_256_1_sum <- layer_256_1_conv2
I0529 16:51:21.402904 21265 net.cpp:380] layer_256_1_sum -> layer_256_1_sum
I0529 16:51:21.402942 21265 net.cpp:122] Setting up layer_256_1_sum
I0529 16:51:21.402953 21265 net.cpp:129] Top shape: 50 256 14 14 (2508800)
I0529 16:51:21.402959 21265 net.cpp:137] Memory required for data: 3151053000
I0529 16:51:21.402966 21265 layer_factory.hpp:77] Creating layer layer_256_1_sum_layer_256_1_sum_0_split
I0529 16:51:21.402979 21265 net.cpp:84] Creating Layer layer_256_1_sum_layer_256_1_sum_0_split
I0529 16:51:21.402987 21265 net.cpp:406] layer_256_1_sum_layer_256_1_sum_0_split <- layer_256_1_sum
I0529 16:51:21.402999 21265 net.cpp:380] layer_256_1_sum_layer_256_1_sum_0_split -> layer_256_1_sum_layer_256_1_sum_0_split_0
I0529 16:51:21.403012 21265 net.cpp:380] layer_256_1_sum_layer_256_1_sum_0_split -> layer_256_1_sum_layer_256_1_sum_0_split_1
I0529 16:51:21.403071 21265 net.cpp:122] Setting up layer_256_1_sum_layer_256_1_sum_0_split
I0529 16:51:21.403084 21265 net.cpp:129] Top shape: 50 256 14 14 (2508800)
I0529 16:51:21.403092 21265 net.cpp:129] Top shape: 50 256 14 14 (2508800)
I0529 16:51:21.403100 21265 net.cpp:137] Memory required for data: 3171123400
I0529 16:51:21.403107 21265 layer_factory.hpp:77] Creating layer layer_256_2_bn1
I0529 16:51:21.403120 21265 net.cpp:84] Creating Layer layer_256_2_bn1
I0529 16:51:21.403128 21265 net.cpp:406] layer_256_2_bn1 <- layer_256_1_sum_layer_256_1_sum_0_split_0
I0529 16:51:21.403141 21265 net.cpp:380] layer_256_2_bn1 -> layer_256_2_bn1
I0529 16:51:21.403339 21265 net.cpp:122] Setting up layer_256_2_bn1
I0529 16:51:21.403352 21265 net.cpp:129] Top shape: 50 256 14 14 (2508800)
I0529 16:51:21.403358 21265 net.cpp:137] Memory required for data: 3181158600
I0529 16:51:21.403373 21265 layer_factory.hpp:77] Creating layer layer_256_2_scale1
I0529 16:51:21.403396 21265 net.cpp:84] Creating Layer layer_256_2_scale1
I0529 16:51:21.403404 21265 net.cpp:406] layer_256_2_scale1 <- layer_256_2_bn1
I0529 16:51:21.403416 21265 net.cpp:367] layer_256_2_scale1 -> layer_256_2_bn1 (in-place)
I0529 16:51:21.403479 21265 layer_factory.hpp:77] Creating layer layer_256_2_scale1
I0529 16:51:21.403599 21265 net.cpp:122] Setting up layer_256_2_scale1
I0529 16:51:21.403611 21265 net.cpp:129] Top shape: 50 256 14 14 (2508800)
I0529 16:51:21.403617 21265 net.cpp:137] Memory required for data: 3191193800
I0529 16:51:21.403631 21265 layer_factory.hpp:77] Creating layer layer_256_2_relu1
I0529 16:51:21.403646 21265 net.cpp:84] Creating Layer layer_256_2_relu1
I0529 16:51:21.403656 21265 net.cpp:406] layer_256_2_relu1 <- layer_256_2_bn1
I0529 16:51:21.403664 21265 net.cpp:367] layer_256_2_relu1 -> layer_256_2_bn1 (in-place)
I0529 16:51:21.403893 21265 net.cpp:122] Setting up layer_256_2_relu1
I0529 16:51:21.403908 21265 net.cpp:129] Top shape: 50 256 14 14 (2508800)
I0529 16:51:21.403913 21265 net.cpp:137] Memory required for data: 3201229000
I0529 16:51:21.403920 21265 layer_factory.hpp:77] Creating layer layer_256_2_conv1
I0529 16:51:21.403944 21265 net.cpp:84] Creating Layer layer_256_2_conv1
I0529 16:51:21.403954 21265 net.cpp:406] layer_256_2_conv1 <- layer_256_2_bn1
I0529 16:51:21.403967 21265 net.cpp:380] layer_256_2_conv1 -> layer_256_2_conv1
I0529 16:51:21.413013 21265 net.cpp:122] Setting up layer_256_2_conv1
I0529 16:51:21.413046 21265 net.cpp:129] Top shape: 50 256 14 14 (2508800)
I0529 16:51:21.413076 21265 net.cpp:137] Memory required for data: 3211264200
I0529 16:51:21.413091 21265 layer_factory.hpp:77] Creating layer layer_256_2_bn2
I0529 16:51:21.413125 21265 net.cpp:84] Creating Layer layer_256_2_bn2
I0529 16:51:21.413136 21265 net.cpp:406] layer_256_2_bn2 <- layer_256_2_conv1
I0529 16:51:21.413147 21265 net.cpp:367] layer_256_2_bn2 -> layer_256_2_conv1 (in-place)
I0529 16:51:21.413347 21265 net.cpp:122] Setting up layer_256_2_bn2
I0529 16:51:21.413359 21265 net.cpp:129] Top shape: 50 256 14 14 (2508800)
I0529 16:51:21.413367 21265 net.cpp:137] Memory required for data: 3221299400
I0529 16:51:21.413379 21265 layer_factory.hpp:77] Creating layer layer_256_2_scale2
I0529 16:51:21.413393 21265 net.cpp:84] Creating Layer layer_256_2_scale2
I0529 16:51:21.413403 21265 net.cpp:406] layer_256_2_scale2 <- layer_256_2_conv1
I0529 16:51:21.413413 21265 net.cpp:367] layer_256_2_scale2 -> layer_256_2_conv1 (in-place)
I0529 16:51:21.413475 21265 layer_factory.hpp:77] Creating layer layer_256_2_scale2
I0529 16:51:21.413591 21265 net.cpp:122] Setting up layer_256_2_scale2
I0529 16:51:21.413604 21265 net.cpp:129] Top shape: 50 256 14 14 (2508800)
I0529 16:51:21.413609 21265 net.cpp:137] Memory required for data: 3231334600
I0529 16:51:21.413621 21265 layer_factory.hpp:77] Creating layer layer_256_2_relu2
I0529 16:51:21.413635 21265 net.cpp:84] Creating Layer layer_256_2_relu2
I0529 16:51:21.413655 21265 net.cpp:406] layer_256_2_relu2 <- layer_256_2_conv1
I0529 16:51:21.413666 21265 net.cpp:367] layer_256_2_relu2 -> layer_256_2_conv1 (in-place)
I0529 16:51:21.413877 21265 net.cpp:122] Setting up layer_256_2_relu2
I0529 16:51:21.413894 21265 net.cpp:129] Top shape: 50 256 14 14 (2508800)
I0529 16:51:21.413900 21265 net.cpp:137] Memory required for data: 3241369800
I0529 16:51:21.413907 21265 layer_factory.hpp:77] Creating layer layer_256_2_conv2
I0529 16:51:21.413940 21265 net.cpp:84] Creating Layer layer_256_2_conv2
I0529 16:51:21.413949 21265 net.cpp:406] layer_256_2_conv2 <- layer_256_2_conv1
I0529 16:51:21.413960 21265 net.cpp:380] layer_256_2_conv2 -> layer_256_2_conv2
I0529 16:51:21.422986 21265 net.cpp:122] Setting up layer_256_2_conv2
I0529 16:51:21.423023 21265 net.cpp:129] Top shape: 50 256 14 14 (2508800)
I0529 16:51:21.423029 21265 net.cpp:137] Memory required for data: 3251405000
I0529 16:51:21.423044 21265 layer_factory.hpp:77] Creating layer layer_256_2_sum
I0529 16:51:21.423058 21265 net.cpp:84] Creating Layer layer_256_2_sum
I0529 16:51:21.423085 21265 net.cpp:406] layer_256_2_sum <- layer_256_2_conv2
I0529 16:51:21.423099 21265 net.cpp:406] layer_256_2_sum <- layer_256_1_sum_layer_256_1_sum_0_split_1
I0529 16:51:21.423113 21265 net.cpp:380] layer_256_2_sum -> layer_256_2_sum
I0529 16:51:21.423161 21265 net.cpp:122] Setting up layer_256_2_sum
I0529 16:51:21.423173 21265 net.cpp:129] Top shape: 50 256 14 14 (2508800)
I0529 16:51:21.423182 21265 net.cpp:137] Memory required for data: 3261440200
I0529 16:51:21.423188 21265 layer_factory.hpp:77] Creating layer layer_256_2_sum_layer_256_2_sum_0_split
I0529 16:51:21.423200 21265 net.cpp:84] Creating Layer layer_256_2_sum_layer_256_2_sum_0_split
I0529 16:51:21.423208 21265 net.cpp:406] layer_256_2_sum_layer_256_2_sum_0_split <- layer_256_2_sum
I0529 16:51:21.423218 21265 net.cpp:380] layer_256_2_sum_layer_256_2_sum_0_split -> layer_256_2_sum_layer_256_2_sum_0_split_0
I0529 16:51:21.423233 21265 net.cpp:380] layer_256_2_sum_layer_256_2_sum_0_split -> layer_256_2_sum_layer_256_2_sum_0_split_1
I0529 16:51:21.423282 21265 net.cpp:122] Setting up layer_256_2_sum_layer_256_2_sum_0_split
I0529 16:51:21.423293 21265 net.cpp:129] Top shape: 50 256 14 14 (2508800)
I0529 16:51:21.423301 21265 net.cpp:129] Top shape: 50 256 14 14 (2508800)
I0529 16:51:21.423308 21265 net.cpp:137] Memory required for data: 3281510600
I0529 16:51:21.423315 21265 layer_factory.hpp:77] Creating layer layer_256_3_bn1
I0529 16:51:21.423329 21265 net.cpp:84] Creating Layer layer_256_3_bn1
I0529 16:51:21.423336 21265 net.cpp:406] layer_256_3_bn1 <- layer_256_2_sum_layer_256_2_sum_0_split_0
I0529 16:51:21.423360 21265 net.cpp:380] layer_256_3_bn1 -> layer_256_3_bn1
I0529 16:51:21.423560 21265 net.cpp:122] Setting up layer_256_3_bn1
I0529 16:51:21.423573 21265 net.cpp:129] Top shape: 50 256 14 14 (2508800)
I0529 16:51:21.423578 21265 net.cpp:137] Memory required for data: 3291545800
I0529 16:51:21.423593 21265 layer_factory.hpp:77] Creating layer layer_256_3_scale1
I0529 16:51:21.423605 21265 net.cpp:84] Creating Layer layer_256_3_scale1
I0529 16:51:21.423614 21265 net.cpp:406] layer_256_3_scale1 <- layer_256_3_bn1
I0529 16:51:21.423624 21265 net.cpp:367] layer_256_3_scale1 -> layer_256_3_bn1 (in-place)
I0529 16:51:21.423683 21265 layer_factory.hpp:77] Creating layer layer_256_3_scale1
I0529 16:51:21.423849 21265 net.cpp:122] Setting up layer_256_3_scale1
I0529 16:51:21.423862 21265 net.cpp:129] Top shape: 50 256 14 14 (2508800)
I0529 16:51:21.423867 21265 net.cpp:137] Memory required for data: 3301581000
I0529 16:51:21.423879 21265 layer_factory.hpp:77] Creating layer layer_256_3_relu1
I0529 16:51:21.423892 21265 net.cpp:84] Creating Layer layer_256_3_relu1
I0529 16:51:21.423900 21265 net.cpp:406] layer_256_3_relu1 <- layer_256_3_bn1
I0529 16:51:21.423912 21265 net.cpp:367] layer_256_3_relu1 -> layer_256_3_bn1 (in-place)
I0529 16:51:21.424094 21265 net.cpp:122] Setting up layer_256_3_relu1
I0529 16:51:21.424108 21265 net.cpp:129] Top shape: 50 256 14 14 (2508800)
I0529 16:51:21.424115 21265 net.cpp:137] Memory required for data: 3311616200
I0529 16:51:21.424124 21265 layer_factory.hpp:77] Creating layer layer_256_3_conv1
I0529 16:51:21.424154 21265 net.cpp:84] Creating Layer layer_256_3_conv1
I0529 16:51:21.424161 21265 net.cpp:406] layer_256_3_conv1 <- layer_256_3_bn1
I0529 16:51:21.424173 21265 net.cpp:380] layer_256_3_conv1 -> layer_256_3_conv1
I0529 16:51:21.435817 21265 net.cpp:122] Setting up layer_256_3_conv1
I0529 16:51:21.435847 21265 net.cpp:129] Top shape: 50 256 14 14 (2508800)
I0529 16:51:21.435853 21265 net.cpp:137] Memory required for data: 3321651400
I0529 16:51:21.435864 21265 layer_factory.hpp:77] Creating layer layer_256_3_bn2
I0529 16:51:21.435880 21265 net.cpp:84] Creating Layer layer_256_3_bn2
I0529 16:51:21.435889 21265 net.cpp:406] layer_256_3_bn2 <- layer_256_3_conv1
I0529 16:51:21.435904 21265 net.cpp:367] layer_256_3_bn2 -> layer_256_3_conv1 (in-place)
I0529 16:51:21.436108 21265 net.cpp:122] Setting up layer_256_3_bn2
I0529 16:51:21.436120 21265 net.cpp:129] Top shape: 50 256 14 14 (2508800)
I0529 16:51:21.436126 21265 net.cpp:137] Memory required for data: 3331686600
I0529 16:51:21.436139 21265 layer_factory.hpp:77] Creating layer layer_256_3_scale2
I0529 16:51:21.436153 21265 net.cpp:84] Creating Layer layer_256_3_scale2
I0529 16:51:21.436162 21265 net.cpp:406] layer_256_3_scale2 <- layer_256_3_conv1
I0529 16:51:21.436173 21265 net.cpp:367] layer_256_3_scale2 -> layer_256_3_conv1 (in-place)
I0529 16:51:21.436235 21265 layer_factory.hpp:77] Creating layer layer_256_3_scale2
I0529 16:51:21.436350 21265 net.cpp:122] Setting up layer_256_3_scale2
I0529 16:51:21.436362 21265 net.cpp:129] Top shape: 50 256 14 14 (2508800)
I0529 16:51:21.436367 21265 net.cpp:137] Memory required for data: 3341721800
I0529 16:51:21.436379 21265 layer_factory.hpp:77] Creating layer layer_256_3_relu2
I0529 16:51:21.436393 21265 net.cpp:84] Creating Layer layer_256_3_relu2
I0529 16:51:21.436401 21265 net.cpp:406] layer_256_3_relu2 <- layer_256_3_conv1
I0529 16:51:21.436411 21265 net.cpp:367] layer_256_3_relu2 -> layer_256_3_conv1 (in-place)
I0529 16:51:21.436581 21265 net.cpp:122] Setting up layer_256_3_relu2
I0529 16:51:21.436594 21265 net.cpp:129] Top shape: 50 256 14 14 (2508800)
I0529 16:51:21.436599 21265 net.cpp:137] Memory required for data: 3351757000
I0529 16:51:21.436606 21265 layer_factory.hpp:77] Creating layer layer_256_3_conv2
I0529 16:51:21.436635 21265 net.cpp:84] Creating Layer layer_256_3_conv2
I0529 16:51:21.436642 21265 net.cpp:406] layer_256_3_conv2 <- layer_256_3_conv1
I0529 16:51:21.436656 21265 net.cpp:380] layer_256_3_conv2 -> layer_256_3_conv2
I0529 16:51:21.446761 21265 net.cpp:122] Setting up layer_256_3_conv2
I0529 16:51:21.446784 21265 net.cpp:129] Top shape: 50 256 14 14 (2508800)
I0529 16:51:21.446789 21265 net.cpp:137] Memory required for data: 3361792200
I0529 16:51:21.446818 21265 layer_factory.hpp:77] Creating layer layer_256_3_sum
I0529 16:51:21.446831 21265 net.cpp:84] Creating Layer layer_256_3_sum
I0529 16:51:21.446856 21265 net.cpp:406] layer_256_3_sum <- layer_256_3_conv2
I0529 16:51:21.446867 21265 net.cpp:406] layer_256_3_sum <- layer_256_2_sum_layer_256_2_sum_0_split_1
I0529 16:51:21.446879 21265 net.cpp:380] layer_256_3_sum -> layer_256_3_sum
I0529 16:51:21.446920 21265 net.cpp:122] Setting up layer_256_3_sum
I0529 16:51:21.446931 21265 net.cpp:129] Top shape: 50 256 14 14 (2508800)
I0529 16:51:21.446938 21265 net.cpp:137] Memory required for data: 3371827400
I0529 16:51:21.446944 21265 layer_factory.hpp:77] Creating layer layer_256_3_sum_layer_256_3_sum_0_split
I0529 16:51:21.446957 21265 net.cpp:84] Creating Layer layer_256_3_sum_layer_256_3_sum_0_split
I0529 16:51:21.446966 21265 net.cpp:406] layer_256_3_sum_layer_256_3_sum_0_split <- layer_256_3_sum
I0529 16:51:21.446976 21265 net.cpp:380] layer_256_3_sum_layer_256_3_sum_0_split -> layer_256_3_sum_layer_256_3_sum_0_split_0
I0529 16:51:21.446991 21265 net.cpp:380] layer_256_3_sum_layer_256_3_sum_0_split -> layer_256_3_sum_layer_256_3_sum_0_split_1
I0529 16:51:21.447042 21265 net.cpp:122] Setting up layer_256_3_sum_layer_256_3_sum_0_split
I0529 16:51:21.447053 21265 net.cpp:129] Top shape: 50 256 14 14 (2508800)
I0529 16:51:21.447062 21265 net.cpp:129] Top shape: 50 256 14 14 (2508800)
I0529 16:51:21.447068 21265 net.cpp:137] Memory required for data: 3391897800
I0529 16:51:21.447074 21265 layer_factory.hpp:77] Creating layer layer_256_4_bn1
I0529 16:51:21.447088 21265 net.cpp:84] Creating Layer layer_256_4_bn1
I0529 16:51:21.447096 21265 net.cpp:406] layer_256_4_bn1 <- layer_256_3_sum_layer_256_3_sum_0_split_0
I0529 16:51:21.447105 21265 net.cpp:380] layer_256_4_bn1 -> layer_256_4_bn1
I0529 16:51:21.447304 21265 net.cpp:122] Setting up layer_256_4_bn1
I0529 16:51:21.447315 21265 net.cpp:129] Top shape: 50 256 14 14 (2508800)
I0529 16:51:21.447321 21265 net.cpp:137] Memory required for data: 3401933000
I0529 16:51:21.447338 21265 layer_factory.hpp:77] Creating layer layer_256_4_scale1
I0529 16:51:21.447350 21265 net.cpp:84] Creating Layer layer_256_4_scale1
I0529 16:51:21.447357 21265 net.cpp:406] layer_256_4_scale1 <- layer_256_4_bn1
I0529 16:51:21.447369 21265 net.cpp:367] layer_256_4_scale1 -> layer_256_4_bn1 (in-place)
I0529 16:51:21.447428 21265 layer_factory.hpp:77] Creating layer layer_256_4_scale1
I0529 16:51:21.447544 21265 net.cpp:122] Setting up layer_256_4_scale1
I0529 16:51:21.447556 21265 net.cpp:129] Top shape: 50 256 14 14 (2508800)
I0529 16:51:21.447561 21265 net.cpp:137] Memory required for data: 3411968200
I0529 16:51:21.447573 21265 layer_factory.hpp:77] Creating layer layer_256_4_relu1
I0529 16:51:21.447584 21265 net.cpp:84] Creating Layer layer_256_4_relu1
I0529 16:51:21.447592 21265 net.cpp:406] layer_256_4_relu1 <- layer_256_4_bn1
I0529 16:51:21.447604 21265 net.cpp:367] layer_256_4_relu1 -> layer_256_4_bn1 (in-place)
I0529 16:51:21.448261 21265 net.cpp:122] Setting up layer_256_4_relu1
I0529 16:51:21.448274 21265 net.cpp:129] Top shape: 50 256 14 14 (2508800)
I0529 16:51:21.448281 21265 net.cpp:137] Memory required for data: 3422003400
I0529 16:51:21.448287 21265 layer_factory.hpp:77] Creating layer layer_256_4_conv1
I0529 16:51:21.448318 21265 net.cpp:84] Creating Layer layer_256_4_conv1
I0529 16:51:21.448325 21265 net.cpp:406] layer_256_4_conv1 <- layer_256_4_bn1
I0529 16:51:21.448339 21265 net.cpp:380] layer_256_4_conv1 -> layer_256_4_conv1
I0529 16:51:21.457921 21265 net.cpp:122] Setting up layer_256_4_conv1
I0529 16:51:21.457947 21265 net.cpp:129] Top shape: 50 256 14 14 (2508800)
I0529 16:51:21.457954 21265 net.cpp:137] Memory required for data: 3432038600
I0529 16:51:21.457965 21265 layer_factory.hpp:77] Creating layer layer_256_4_bn2
I0529 16:51:21.457996 21265 net.cpp:84] Creating Layer layer_256_4_bn2
I0529 16:51:21.458005 21265 net.cpp:406] layer_256_4_bn2 <- layer_256_4_conv1
I0529 16:51:21.458034 21265 net.cpp:367] layer_256_4_bn2 -> layer_256_4_conv1 (in-place)
I0529 16:51:21.458233 21265 net.cpp:122] Setting up layer_256_4_bn2
I0529 16:51:21.458245 21265 net.cpp:129] Top shape: 50 256 14 14 (2508800)
I0529 16:51:21.458251 21265 net.cpp:137] Memory required for data: 3442073800
I0529 16:51:21.458266 21265 layer_factory.hpp:77] Creating layer layer_256_4_scale2
I0529 16:51:21.458282 21265 net.cpp:84] Creating Layer layer_256_4_scale2
I0529 16:51:21.458292 21265 net.cpp:406] layer_256_4_scale2 <- layer_256_4_conv1
I0529 16:51:21.458302 21265 net.cpp:367] layer_256_4_scale2 -> layer_256_4_conv1 (in-place)
I0529 16:51:21.458359 21265 layer_factory.hpp:77] Creating layer layer_256_4_scale2
I0529 16:51:21.458472 21265 net.cpp:122] Setting up layer_256_4_scale2
I0529 16:51:21.458483 21265 net.cpp:129] Top shape: 50 256 14 14 (2508800)
I0529 16:51:21.458489 21265 net.cpp:137] Memory required for data: 3452109000
I0529 16:51:21.458500 21265 layer_factory.hpp:77] Creating layer layer_256_4_relu2
I0529 16:51:21.458514 21265 net.cpp:84] Creating Layer layer_256_4_relu2
I0529 16:51:21.458523 21265 net.cpp:406] layer_256_4_relu2 <- layer_256_4_conv1
I0529 16:51:21.458531 21265 net.cpp:367] layer_256_4_relu2 -> layer_256_4_conv1 (in-place)
I0529 16:51:21.459209 21265 net.cpp:122] Setting up layer_256_4_relu2
I0529 16:51:21.459224 21265 net.cpp:129] Top shape: 50 256 14 14 (2508800)
I0529 16:51:21.459231 21265 net.cpp:137] Memory required for data: 3462144200
I0529 16:51:21.459237 21265 layer_factory.hpp:77] Creating layer layer_256_4_conv2
I0529 16:51:21.459270 21265 net.cpp:84] Creating Layer layer_256_4_conv2
I0529 16:51:21.459278 21265 net.cpp:406] layer_256_4_conv2 <- layer_256_4_conv1
I0529 16:51:21.459293 21265 net.cpp:380] layer_256_4_conv2 -> layer_256_4_conv2
I0529 16:51:21.470667 21265 net.cpp:122] Setting up layer_256_4_conv2
I0529 16:51:21.470690 21265 net.cpp:129] Top shape: 50 256 14 14 (2508800)
I0529 16:51:21.470695 21265 net.cpp:137] Memory required for data: 3472179400
I0529 16:51:21.470706 21265 layer_factory.hpp:77] Creating layer layer_256_4_sum
I0529 16:51:21.470719 21265 net.cpp:84] Creating Layer layer_256_4_sum
I0529 16:51:21.470746 21265 net.cpp:406] layer_256_4_sum <- layer_256_4_conv2
I0529 16:51:21.470758 21265 net.cpp:406] layer_256_4_sum <- layer_256_3_sum_layer_256_3_sum_0_split_1
I0529 16:51:21.470772 21265 net.cpp:380] layer_256_4_sum -> layer_256_4_sum
I0529 16:51:21.470813 21265 net.cpp:122] Setting up layer_256_4_sum
I0529 16:51:21.470827 21265 net.cpp:129] Top shape: 50 256 14 14 (2508800)
I0529 16:51:21.470835 21265 net.cpp:137] Memory required for data: 3482214600
I0529 16:51:21.470841 21265 layer_factory.hpp:77] Creating layer layer_256_4_sum_layer_256_4_sum_0_split
I0529 16:51:21.470852 21265 net.cpp:84] Creating Layer layer_256_4_sum_layer_256_4_sum_0_split
I0529 16:51:21.470861 21265 net.cpp:406] layer_256_4_sum_layer_256_4_sum_0_split <- layer_256_4_sum
I0529 16:51:21.470873 21265 net.cpp:380] layer_256_4_sum_layer_256_4_sum_0_split -> layer_256_4_sum_layer_256_4_sum_0_split_0
I0529 16:51:21.470890 21265 net.cpp:380] layer_256_4_sum_layer_256_4_sum_0_split -> layer_256_4_sum_layer_256_4_sum_0_split_1
I0529 16:51:21.470942 21265 net.cpp:122] Setting up layer_256_4_sum_layer_256_4_sum_0_split
I0529 16:51:21.470952 21265 net.cpp:129] Top shape: 50 256 14 14 (2508800)
I0529 16:51:21.470962 21265 net.cpp:129] Top shape: 50 256 14 14 (2508800)
I0529 16:51:21.470968 21265 net.cpp:137] Memory required for data: 3502285000
I0529 16:51:21.470974 21265 layer_factory.hpp:77] Creating layer layer_256_5_bn1
I0529 16:51:21.470989 21265 net.cpp:84] Creating Layer layer_256_5_bn1
I0529 16:51:21.470999 21265 net.cpp:406] layer_256_5_bn1 <- layer_256_4_sum_layer_256_4_sum_0_split_0
I0529 16:51:21.471010 21265 net.cpp:380] layer_256_5_bn1 -> layer_256_5_bn1
I0529 16:51:21.471213 21265 net.cpp:122] Setting up layer_256_5_bn1
I0529 16:51:21.471225 21265 net.cpp:129] Top shape: 50 256 14 14 (2508800)
I0529 16:51:21.471242 21265 net.cpp:137] Memory required for data: 3512320200
I0529 16:51:21.471259 21265 layer_factory.hpp:77] Creating layer layer_256_5_scale1
I0529 16:51:21.471271 21265 net.cpp:84] Creating Layer layer_256_5_scale1
I0529 16:51:21.471279 21265 net.cpp:406] layer_256_5_scale1 <- layer_256_5_bn1
I0529 16:51:21.471289 21265 net.cpp:367] layer_256_5_scale1 -> layer_256_5_bn1 (in-place)
I0529 16:51:21.471348 21265 layer_factory.hpp:77] Creating layer layer_256_5_scale1
I0529 16:51:21.471463 21265 net.cpp:122] Setting up layer_256_5_scale1
I0529 16:51:21.471475 21265 net.cpp:129] Top shape: 50 256 14 14 (2508800)
I0529 16:51:21.471482 21265 net.cpp:137] Memory required for data: 3522355400
I0529 16:51:21.471493 21265 layer_factory.hpp:77] Creating layer layer_256_5_relu1
I0529 16:51:21.471503 21265 net.cpp:84] Creating Layer layer_256_5_relu1
I0529 16:51:21.471524 21265 net.cpp:406] layer_256_5_relu1 <- layer_256_5_bn1
I0529 16:51:21.471535 21265 net.cpp:367] layer_256_5_relu1 -> layer_256_5_bn1 (in-place)
I0529 16:51:21.471719 21265 net.cpp:122] Setting up layer_256_5_relu1
I0529 16:51:21.471732 21265 net.cpp:129] Top shape: 50 256 14 14 (2508800)
I0529 16:51:21.471740 21265 net.cpp:137] Memory required for data: 3532390600
I0529 16:51:21.471745 21265 layer_factory.hpp:77] Creating layer layer_256_5_conv1
I0529 16:51:21.471763 21265 net.cpp:84] Creating Layer layer_256_5_conv1
I0529 16:51:21.471771 21265 net.cpp:406] layer_256_5_conv1 <- layer_256_5_bn1
I0529 16:51:21.471782 21265 net.cpp:380] layer_256_5_conv1 -> layer_256_5_conv1
I0529 16:51:21.481577 21265 net.cpp:122] Setting up layer_256_5_conv1
I0529 16:51:21.481595 21265 net.cpp:129] Top shape: 50 256 14 14 (2508800)
I0529 16:51:21.481600 21265 net.cpp:137] Memory required for data: 3542425800
I0529 16:51:21.481611 21265 layer_factory.hpp:77] Creating layer layer_256_5_bn2
I0529 16:51:21.481622 21265 net.cpp:84] Creating Layer layer_256_5_bn2
I0529 16:51:21.481631 21265 net.cpp:406] layer_256_5_bn2 <- layer_256_5_conv1
I0529 16:51:21.481642 21265 net.cpp:367] layer_256_5_bn2 -> layer_256_5_conv1 (in-place)
I0529 16:51:21.481849 21265 net.cpp:122] Setting up layer_256_5_bn2
I0529 16:51:21.481860 21265 net.cpp:129] Top shape: 50 256 14 14 (2508800)
I0529 16:51:21.481866 21265 net.cpp:137] Memory required for data: 3552461000
I0529 16:51:21.481892 21265 layer_factory.hpp:77] Creating layer layer_256_5_scale2
I0529 16:51:21.481904 21265 net.cpp:84] Creating Layer layer_256_5_scale2
I0529 16:51:21.481912 21265 net.cpp:406] layer_256_5_scale2 <- layer_256_5_conv1
I0529 16:51:21.481925 21265 net.cpp:367] layer_256_5_scale2 -> layer_256_5_conv1 (in-place)
I0529 16:51:21.481976 21265 layer_factory.hpp:77] Creating layer layer_256_5_scale2
I0529 16:51:21.482102 21265 net.cpp:122] Setting up layer_256_5_scale2
I0529 16:51:21.482115 21265 net.cpp:129] Top shape: 50 256 14 14 (2508800)
I0529 16:51:21.482120 21265 net.cpp:137] Memory required for data: 3562496200
I0529 16:51:21.482133 21265 layer_factory.hpp:77] Creating layer layer_256_5_relu2
I0529 16:51:21.482156 21265 net.cpp:84] Creating Layer layer_256_5_relu2
I0529 16:51:21.482163 21265 net.cpp:406] layer_256_5_relu2 <- layer_256_5_conv1
I0529 16:51:21.482172 21265 net.cpp:367] layer_256_5_relu2 -> layer_256_5_conv1 (in-place)
I0529 16:51:21.482344 21265 net.cpp:122] Setting up layer_256_5_relu2
I0529 16:51:21.482357 21265 net.cpp:129] Top shape: 50 256 14 14 (2508800)
I0529 16:51:21.482362 21265 net.cpp:137] Memory required for data: 3572531400
I0529 16:51:21.482368 21265 layer_factory.hpp:77] Creating layer layer_256_5_conv2
I0529 16:51:21.482385 21265 net.cpp:84] Creating Layer layer_256_5_conv2
I0529 16:51:21.482393 21265 net.cpp:406] layer_256_5_conv2 <- layer_256_5_conv1
I0529 16:51:21.482405 21265 net.cpp:380] layer_256_5_conv2 -> layer_256_5_conv2
I0529 16:51:21.492766 21265 net.cpp:122] Setting up layer_256_5_conv2
I0529 16:51:21.492787 21265 net.cpp:129] Top shape: 50 256 14 14 (2508800)
I0529 16:51:21.492794 21265 net.cpp:137] Memory required for data: 3582566600
I0529 16:51:21.492831 21265 layer_factory.hpp:77] Creating layer layer_256_5_sum
I0529 16:51:21.492844 21265 net.cpp:84] Creating Layer layer_256_5_sum
I0529 16:51:21.492854 21265 net.cpp:406] layer_256_5_sum <- layer_256_5_conv2
I0529 16:51:21.492864 21265 net.cpp:406] layer_256_5_sum <- layer_256_4_sum_layer_256_4_sum_0_split_1
I0529 16:51:21.492878 21265 net.cpp:380] layer_256_5_sum -> layer_256_5_sum
I0529 16:51:21.492920 21265 net.cpp:122] Setting up layer_256_5_sum
I0529 16:51:21.492936 21265 net.cpp:129] Top shape: 50 256 14 14 (2508800)
I0529 16:51:21.492944 21265 net.cpp:137] Memory required for data: 3592601800
I0529 16:51:21.492949 21265 layer_factory.hpp:77] Creating layer layer_256_5_sum_layer_256_5_sum_0_split
I0529 16:51:21.492960 21265 net.cpp:84] Creating Layer layer_256_5_sum_layer_256_5_sum_0_split
I0529 16:51:21.492969 21265 net.cpp:406] layer_256_5_sum_layer_256_5_sum_0_split <- layer_256_5_sum
I0529 16:51:21.492981 21265 net.cpp:380] layer_256_5_sum_layer_256_5_sum_0_split -> layer_256_5_sum_layer_256_5_sum_0_split_0
I0529 16:51:21.492995 21265 net.cpp:380] layer_256_5_sum_layer_256_5_sum_0_split -> layer_256_5_sum_layer_256_5_sum_0_split_1
I0529 16:51:21.493042 21265 net.cpp:122] Setting up layer_256_5_sum_layer_256_5_sum_0_split
I0529 16:51:21.493054 21265 net.cpp:129] Top shape: 50 256 14 14 (2508800)
I0529 16:51:21.493062 21265 net.cpp:129] Top shape: 50 256 14 14 (2508800)
I0529 16:51:21.493069 21265 net.cpp:137] Memory required for data: 3612672200
I0529 16:51:21.493075 21265 layer_factory.hpp:77] Creating layer layer_256_6_bn1
I0529 16:51:21.493118 21265 net.cpp:84] Creating Layer layer_256_6_bn1
I0529 16:51:21.493125 21265 net.cpp:406] layer_256_6_bn1 <- layer_256_5_sum_layer_256_5_sum_0_split_0
I0529 16:51:21.493135 21265 net.cpp:380] layer_256_6_bn1 -> layer_256_6_bn1
I0529 16:51:21.493337 21265 net.cpp:122] Setting up layer_256_6_bn1
I0529 16:51:21.493350 21265 net.cpp:129] Top shape: 50 256 14 14 (2508800)
I0529 16:51:21.493356 21265 net.cpp:137] Memory required for data: 3622707400
I0529 16:51:21.493367 21265 layer_factory.hpp:77] Creating layer layer_256_6_scale1
I0529 16:51:21.493381 21265 net.cpp:84] Creating Layer layer_256_6_scale1
I0529 16:51:21.493388 21265 net.cpp:406] layer_256_6_scale1 <- layer_256_6_bn1
I0529 16:51:21.493397 21265 net.cpp:367] layer_256_6_scale1 -> layer_256_6_bn1 (in-place)
I0529 16:51:21.493460 21265 layer_factory.hpp:77] Creating layer layer_256_6_scale1
I0529 16:51:21.493573 21265 net.cpp:122] Setting up layer_256_6_scale1
I0529 16:51:21.493582 21265 net.cpp:129] Top shape: 50 256 14 14 (2508800)
I0529 16:51:21.493585 21265 net.cpp:137] Memory required for data: 3632742600
I0529 16:51:21.493592 21265 layer_factory.hpp:77] Creating layer layer_256_6_relu1
I0529 16:51:21.493599 21265 net.cpp:84] Creating Layer layer_256_6_relu1
I0529 16:51:21.493604 21265 net.cpp:406] layer_256_6_relu1 <- layer_256_6_bn1
I0529 16:51:21.493609 21265 net.cpp:367] layer_256_6_relu1 -> layer_256_6_bn1 (in-place)
I0529 16:51:21.493777 21265 net.cpp:122] Setting up layer_256_6_relu1
I0529 16:51:21.493787 21265 net.cpp:129] Top shape: 50 256 14 14 (2508800)
I0529 16:51:21.493789 21265 net.cpp:137] Memory required for data: 3642777800
I0529 16:51:21.493793 21265 layer_factory.hpp:77] Creating layer layer_256_6_conv1
I0529 16:51:21.493804 21265 net.cpp:84] Creating Layer layer_256_6_conv1
I0529 16:51:21.493809 21265 net.cpp:406] layer_256_6_conv1 <- layer_256_6_bn1
I0529 16:51:21.493816 21265 net.cpp:380] layer_256_6_conv1 -> layer_256_6_conv1
I0529 16:51:21.505278 21265 net.cpp:122] Setting up layer_256_6_conv1
I0529 16:51:21.505309 21265 net.cpp:129] Top shape: 50 256 14 14 (2508800)
I0529 16:51:21.505313 21265 net.cpp:137] Memory required for data: 3652813000
I0529 16:51:21.505321 21265 layer_factory.hpp:77] Creating layer layer_256_6_bn2
I0529 16:51:21.505331 21265 net.cpp:84] Creating Layer layer_256_6_bn2
I0529 16:51:21.505334 21265 net.cpp:406] layer_256_6_bn2 <- layer_256_6_conv1
I0529 16:51:21.505340 21265 net.cpp:367] layer_256_6_bn2 -> layer_256_6_conv1 (in-place)
I0529 16:51:21.505556 21265 net.cpp:122] Setting up layer_256_6_bn2
I0529 16:51:21.505565 21265 net.cpp:129] Top shape: 50 256 14 14 (2508800)
I0529 16:51:21.505580 21265 net.cpp:137] Memory required for data: 3662848200
I0529 16:51:21.505587 21265 layer_factory.hpp:77] Creating layer layer_256_6_scale2
I0529 16:51:21.505597 21265 net.cpp:84] Creating Layer layer_256_6_scale2
I0529 16:51:21.505601 21265 net.cpp:406] layer_256_6_scale2 <- layer_256_6_conv1
I0529 16:51:21.505606 21265 net.cpp:367] layer_256_6_scale2 -> layer_256_6_conv1 (in-place)
I0529 16:51:21.505656 21265 layer_factory.hpp:77] Creating layer layer_256_6_scale2
I0529 16:51:21.505776 21265 net.cpp:122] Setting up layer_256_6_scale2
I0529 16:51:21.505785 21265 net.cpp:129] Top shape: 50 256 14 14 (2508800)
I0529 16:51:21.505789 21265 net.cpp:137] Memory required for data: 3672883400
I0529 16:51:21.505794 21265 layer_factory.hpp:77] Creating layer layer_256_6_relu2
I0529 16:51:21.505800 21265 net.cpp:84] Creating Layer layer_256_6_relu2
I0529 16:51:21.505802 21265 net.cpp:406] layer_256_6_relu2 <- layer_256_6_conv1
I0529 16:51:21.505820 21265 net.cpp:367] layer_256_6_relu2 -> layer_256_6_conv1 (in-place)
I0529 16:51:21.505990 21265 net.cpp:122] Setting up layer_256_6_relu2
I0529 16:51:21.506000 21265 net.cpp:129] Top shape: 50 256 14 14 (2508800)
I0529 16:51:21.506016 21265 net.cpp:137] Memory required for data: 3682918600
I0529 16:51:21.506019 21265 layer_factory.hpp:77] Creating layer layer_256_6_conv2
I0529 16:51:21.506031 21265 net.cpp:84] Creating Layer layer_256_6_conv2
I0529 16:51:21.506034 21265 net.cpp:406] layer_256_6_conv2 <- layer_256_6_conv1
I0529 16:51:21.506042 21265 net.cpp:380] layer_256_6_conv2 -> layer_256_6_conv2
I0529 16:51:21.516891 21265 net.cpp:122] Setting up layer_256_6_conv2
I0529 16:51:21.516907 21265 net.cpp:129] Top shape: 50 256 14 14 (2508800)
I0529 16:51:21.516911 21265 net.cpp:137] Memory required for data: 3692953800
I0529 16:51:21.516917 21265 layer_factory.hpp:77] Creating layer layer_256_6_sum
I0529 16:51:21.516932 21265 net.cpp:84] Creating Layer layer_256_6_sum
I0529 16:51:21.516937 21265 net.cpp:406] layer_256_6_sum <- layer_256_6_conv2
I0529 16:51:21.516942 21265 net.cpp:406] layer_256_6_sum <- layer_256_5_sum_layer_256_5_sum_0_split_1
I0529 16:51:21.516947 21265 net.cpp:380] layer_256_6_sum -> layer_256_6_sum
I0529 16:51:21.516978 21265 net.cpp:122] Setting up layer_256_6_sum
I0529 16:51:21.516999 21265 net.cpp:129] Top shape: 50 256 14 14 (2508800)
I0529 16:51:21.517001 21265 net.cpp:137] Memory required for data: 3702989000
I0529 16:51:21.517005 21265 layer_factory.hpp:77] Creating layer layer_512_1_bn1
I0529 16:51:21.517011 21265 net.cpp:84] Creating Layer layer_512_1_bn1
I0529 16:51:21.517015 21265 net.cpp:406] layer_512_1_bn1 <- layer_256_6_sum
I0529 16:51:21.517020 21265 net.cpp:380] layer_512_1_bn1 -> layer_512_1_bn1
I0529 16:51:21.517236 21265 net.cpp:122] Setting up layer_512_1_bn1
I0529 16:51:21.517246 21265 net.cpp:129] Top shape: 50 256 14 14 (2508800)
I0529 16:51:21.517259 21265 net.cpp:137] Memory required for data: 3713024200
I0529 16:51:21.517267 21265 layer_factory.hpp:77] Creating layer layer_512_1_scale1
I0529 16:51:21.517276 21265 net.cpp:84] Creating Layer layer_512_1_scale1
I0529 16:51:21.517279 21265 net.cpp:406] layer_512_1_scale1 <- layer_512_1_bn1
I0529 16:51:21.517287 21265 net.cpp:367] layer_512_1_scale1 -> layer_512_1_bn1 (in-place)
I0529 16:51:21.517333 21265 layer_factory.hpp:77] Creating layer layer_512_1_scale1
I0529 16:51:21.517441 21265 net.cpp:122] Setting up layer_512_1_scale1
I0529 16:51:21.517451 21265 net.cpp:129] Top shape: 50 256 14 14 (2508800)
I0529 16:51:21.517453 21265 net.cpp:137] Memory required for data: 3723059400
I0529 16:51:21.517459 21265 layer_factory.hpp:77] Creating layer layer_512_1_relu1
I0529 16:51:21.517465 21265 net.cpp:84] Creating Layer layer_512_1_relu1
I0529 16:51:21.517469 21265 net.cpp:406] layer_512_1_relu1 <- layer_512_1_bn1
I0529 16:51:21.517475 21265 net.cpp:367] layer_512_1_relu1 -> layer_512_1_bn1 (in-place)
I0529 16:51:21.518127 21265 net.cpp:122] Setting up layer_512_1_relu1
I0529 16:51:21.518148 21265 net.cpp:129] Top shape: 50 256 14 14 (2508800)
I0529 16:51:21.518153 21265 net.cpp:137] Memory required for data: 3733094600
I0529 16:51:21.518157 21265 layer_factory.hpp:77] Creating layer layer_512_1_bn1_layer_512_1_relu1_0_split
I0529 16:51:21.518167 21265 net.cpp:84] Creating Layer layer_512_1_bn1_layer_512_1_relu1_0_split
I0529 16:51:21.518172 21265 net.cpp:406] layer_512_1_bn1_layer_512_1_relu1_0_split <- layer_512_1_bn1
I0529 16:51:21.518177 21265 net.cpp:380] layer_512_1_bn1_layer_512_1_relu1_0_split -> layer_512_1_bn1_layer_512_1_relu1_0_split_0
I0529 16:51:21.518183 21265 net.cpp:380] layer_512_1_bn1_layer_512_1_relu1_0_split -> layer_512_1_bn1_layer_512_1_relu1_0_split_1
I0529 16:51:21.518229 21265 net.cpp:122] Setting up layer_512_1_bn1_layer_512_1_relu1_0_split
I0529 16:51:21.518237 21265 net.cpp:129] Top shape: 50 256 14 14 (2508800)
I0529 16:51:21.518241 21265 net.cpp:129] Top shape: 50 256 14 14 (2508800)
I0529 16:51:21.518245 21265 net.cpp:137] Memory required for data: 3753165000
I0529 16:51:21.518249 21265 layer_factory.hpp:77] Creating layer layer_512_1_conv1
I0529 16:51:21.518260 21265 net.cpp:84] Creating Layer layer_512_1_conv1
I0529 16:51:21.518265 21265 net.cpp:406] layer_512_1_conv1 <- layer_512_1_bn1_layer_512_1_relu1_0_split_0
I0529 16:51:21.518272 21265 net.cpp:380] layer_512_1_conv1 -> layer_512_1_conv1
I0529 16:51:21.535713 21265 net.cpp:122] Setting up layer_512_1_conv1
I0529 16:51:21.535744 21265 net.cpp:129] Top shape: 50 512 7 7 (1254400)
I0529 16:51:21.535749 21265 net.cpp:137] Memory required for data: 3758182600
I0529 16:51:21.535758 21265 layer_factory.hpp:77] Creating layer layer_512_1_bn2
I0529 16:51:21.535770 21265 net.cpp:84] Creating Layer layer_512_1_bn2
I0529 16:51:21.535778 21265 net.cpp:406] layer_512_1_bn2 <- layer_512_1_conv1
I0529 16:51:21.535786 21265 net.cpp:367] layer_512_1_bn2 -> layer_512_1_conv1 (in-place)
I0529 16:51:21.535995 21265 net.cpp:122] Setting up layer_512_1_bn2
I0529 16:51:21.536005 21265 net.cpp:129] Top shape: 50 512 7 7 (1254400)
I0529 16:51:21.536007 21265 net.cpp:137] Memory required for data: 3763200200
I0529 16:51:21.536015 21265 layer_factory.hpp:77] Creating layer layer_512_1_scale2
I0529 16:51:21.536026 21265 net.cpp:84] Creating Layer layer_512_1_scale2
I0529 16:51:21.536029 21265 net.cpp:406] layer_512_1_scale2 <- layer_512_1_conv1
I0529 16:51:21.536034 21265 net.cpp:367] layer_512_1_scale2 -> layer_512_1_conv1 (in-place)
I0529 16:51:21.536077 21265 layer_factory.hpp:77] Creating layer layer_512_1_scale2
I0529 16:51:21.536190 21265 net.cpp:122] Setting up layer_512_1_scale2
I0529 16:51:21.536200 21265 net.cpp:129] Top shape: 50 512 7 7 (1254400)
I0529 16:51:21.536202 21265 net.cpp:137] Memory required for data: 3768217800
I0529 16:51:21.536211 21265 layer_factory.hpp:77] Creating layer layer_512_1_relu2
I0529 16:51:21.536218 21265 net.cpp:84] Creating Layer layer_512_1_relu2
I0529 16:51:21.536223 21265 net.cpp:406] layer_512_1_relu2 <- layer_512_1_conv1
I0529 16:51:21.536227 21265 net.cpp:367] layer_512_1_relu2 -> layer_512_1_conv1 (in-place)
I0529 16:51:21.537763 21265 net.cpp:122] Setting up layer_512_1_relu2
I0529 16:51:21.537775 21265 net.cpp:129] Top shape: 50 512 7 7 (1254400)
I0529 16:51:21.537778 21265 net.cpp:137] Memory required for data: 3773235400
I0529 16:51:21.537781 21265 layer_factory.hpp:77] Creating layer layer_512_1_conv2
I0529 16:51:21.537793 21265 net.cpp:84] Creating Layer layer_512_1_conv2
I0529 16:51:21.537798 21265 net.cpp:406] layer_512_1_conv2 <- layer_512_1_conv1
I0529 16:51:21.537806 21265 net.cpp:380] layer_512_1_conv2 -> layer_512_1_conv2
I0529 16:51:21.566622 21265 net.cpp:122] Setting up layer_512_1_conv2
I0529 16:51:21.566663 21265 net.cpp:129] Top shape: 50 512 7 7 (1254400)
I0529 16:51:21.566669 21265 net.cpp:137] Memory required for data: 3778253000
I0529 16:51:21.566680 21265 layer_factory.hpp:77] Creating layer layer_512_1_conv_expand
I0529 16:51:21.566701 21265 net.cpp:84] Creating Layer layer_512_1_conv_expand
I0529 16:51:21.566726 21265 net.cpp:406] layer_512_1_conv_expand <- layer_512_1_bn1_layer_512_1_relu1_0_split_1
I0529 16:51:21.566737 21265 net.cpp:380] layer_512_1_conv_expand -> layer_512_1_conv_expand
I0529 16:51:21.568982 21265 net.cpp:122] Setting up layer_512_1_conv_expand
I0529 16:51:21.569021 21265 net.cpp:129] Top shape: 50 512 7 7 (1254400)
I0529 16:51:21.569025 21265 net.cpp:137] Memory required for data: 3783270600
I0529 16:51:21.569036 21265 layer_factory.hpp:77] Creating layer layer_512_1_sum
I0529 16:51:21.569046 21265 net.cpp:84] Creating Layer layer_512_1_sum
I0529 16:51:21.569052 21265 net.cpp:406] layer_512_1_sum <- layer_512_1_conv_expand
I0529 16:51:21.569059 21265 net.cpp:406] layer_512_1_sum <- layer_512_1_conv2
I0529 16:51:21.569067 21265 net.cpp:380] layer_512_1_sum -> layer_512_1_sum
I0529 16:51:21.569103 21265 net.cpp:122] Setting up layer_512_1_sum
I0529 16:51:21.569110 21265 net.cpp:129] Top shape: 50 512 7 7 (1254400)
I0529 16:51:21.569113 21265 net.cpp:137] Memory required for data: 3788288200
I0529 16:51:21.569116 21265 layer_factory.hpp:77] Creating layer layer_512_1_sum_layer_512_1_sum_0_split
I0529 16:51:21.569124 21265 net.cpp:84] Creating Layer layer_512_1_sum_layer_512_1_sum_0_split
I0529 16:51:21.569129 21265 net.cpp:406] layer_512_1_sum_layer_512_1_sum_0_split <- layer_512_1_sum
I0529 16:51:21.569134 21265 net.cpp:380] layer_512_1_sum_layer_512_1_sum_0_split -> layer_512_1_sum_layer_512_1_sum_0_split_0
I0529 16:51:21.569142 21265 net.cpp:380] layer_512_1_sum_layer_512_1_sum_0_split -> layer_512_1_sum_layer_512_1_sum_0_split_1
I0529 16:51:21.569180 21265 net.cpp:122] Setting up layer_512_1_sum_layer_512_1_sum_0_split
I0529 16:51:21.569188 21265 net.cpp:129] Top shape: 50 512 7 7 (1254400)
I0529 16:51:21.569195 21265 net.cpp:129] Top shape: 50 512 7 7 (1254400)
I0529 16:51:21.569197 21265 net.cpp:137] Memory required for data: 3798323400
I0529 16:51:21.569200 21265 layer_factory.hpp:77] Creating layer layer_512_2_bn1
I0529 16:51:21.569207 21265 net.cpp:84] Creating Layer layer_512_2_bn1
I0529 16:51:21.569211 21265 net.cpp:406] layer_512_2_bn1 <- layer_512_1_sum_layer_512_1_sum_0_split_0
I0529 16:51:21.569217 21265 net.cpp:380] layer_512_2_bn1 -> layer_512_2_bn1
I0529 16:51:21.569427 21265 net.cpp:122] Setting up layer_512_2_bn1
I0529 16:51:21.569435 21265 net.cpp:129] Top shape: 50 512 7 7 (1254400)
I0529 16:51:21.569438 21265 net.cpp:137] Memory required for data: 3803341000
I0529 16:51:21.569447 21265 layer_factory.hpp:77] Creating layer layer_512_2_scale1
I0529 16:51:21.569456 21265 net.cpp:84] Creating Layer layer_512_2_scale1
I0529 16:51:21.569461 21265 net.cpp:406] layer_512_2_scale1 <- layer_512_2_bn1
I0529 16:51:21.569465 21265 net.cpp:367] layer_512_2_scale1 -> layer_512_2_bn1 (in-place)
I0529 16:51:21.569509 21265 layer_factory.hpp:77] Creating layer layer_512_2_scale1
I0529 16:51:21.569628 21265 net.cpp:122] Setting up layer_512_2_scale1
I0529 16:51:21.569638 21265 net.cpp:129] Top shape: 50 512 7 7 (1254400)
I0529 16:51:21.569640 21265 net.cpp:137] Memory required for data: 3808358600
I0529 16:51:21.569646 21265 layer_factory.hpp:77] Creating layer layer_512_2_relu1
I0529 16:51:21.569653 21265 net.cpp:84] Creating Layer layer_512_2_relu1
I0529 16:51:21.569656 21265 net.cpp:406] layer_512_2_relu1 <- layer_512_2_bn1
I0529 16:51:21.569661 21265 net.cpp:367] layer_512_2_relu1 -> layer_512_2_bn1 (in-place)
I0529 16:51:21.570487 21265 net.cpp:122] Setting up layer_512_2_relu1
I0529 16:51:21.570508 21265 net.cpp:129] Top shape: 50 512 7 7 (1254400)
I0529 16:51:21.570514 21265 net.cpp:137] Memory required for data: 3813376200
I0529 16:51:21.570520 21265 layer_factory.hpp:77] Creating layer layer_512_2_conv1
I0529 16:51:21.570538 21265 net.cpp:84] Creating Layer layer_512_2_conv1
I0529 16:51:21.570557 21265 net.cpp:406] layer_512_2_conv1 <- layer_512_2_bn1
I0529 16:51:21.570570 21265 net.cpp:380] layer_512_2_conv1 -> layer_512_2_conv1
I0529 16:51:21.601378 21265 net.cpp:122] Setting up layer_512_2_conv1
I0529 16:51:21.601454 21265 net.cpp:129] Top shape: 50 512 7 7 (1254400)
I0529 16:51:21.601490 21265 net.cpp:137] Memory required for data: 3818393800
I0529 16:51:21.601534 21265 layer_factory.hpp:77] Creating layer layer_512_2_bn2
I0529 16:51:21.601563 21265 net.cpp:84] Creating Layer layer_512_2_bn2
I0529 16:51:21.601588 21265 net.cpp:406] layer_512_2_bn2 <- layer_512_2_conv1
I0529 16:51:21.601619 21265 net.cpp:367] layer_512_2_bn2 -> layer_512_2_conv1 (in-place)
I0529 16:51:21.602015 21265 net.cpp:122] Setting up layer_512_2_bn2
I0529 16:51:21.602046 21265 net.cpp:129] Top shape: 50 512 7 7 (1254400)
I0529 16:51:21.602066 21265 net.cpp:137] Memory required for data: 3823411400
I0529 16:51:21.602092 21265 layer_factory.hpp:77] Creating layer layer_512_2_scale2
I0529 16:51:21.602118 21265 net.cpp:84] Creating Layer layer_512_2_scale2
I0529 16:51:21.602139 21265 net.cpp:406] layer_512_2_scale2 <- layer_512_2_conv1
I0529 16:51:21.602165 21265 net.cpp:367] layer_512_2_scale2 -> layer_512_2_conv1 (in-place)
I0529 16:51:21.602249 21265 layer_factory.hpp:77] Creating layer layer_512_2_scale2
I0529 16:51:21.602396 21265 net.cpp:122] Setting up layer_512_2_scale2
I0529 16:51:21.602411 21265 net.cpp:129] Top shape: 50 512 7 7 (1254400)
I0529 16:51:21.602417 21265 net.cpp:137] Memory required for data: 3828429000
I0529 16:51:21.602428 21265 layer_factory.hpp:77] Creating layer layer_512_2_relu2
I0529 16:51:21.602452 21265 net.cpp:84] Creating Layer layer_512_2_relu2
I0529 16:51:21.602460 21265 net.cpp:406] layer_512_2_relu2 <- layer_512_2_conv1
I0529 16:51:21.602469 21265 net.cpp:367] layer_512_2_relu2 -> layer_512_2_conv1 (in-place)
I0529 16:51:21.603444 21265 net.cpp:122] Setting up layer_512_2_relu2
I0529 16:51:21.603456 21265 net.cpp:129] Top shape: 50 512 7 7 (1254400)
I0529 16:51:21.603462 21265 net.cpp:137] Memory required for data: 3833446600
I0529 16:51:21.603468 21265 layer_factory.hpp:77] Creating layer layer_512_2_conv2
I0529 16:51:21.603497 21265 net.cpp:84] Creating Layer layer_512_2_conv2
I0529 16:51:21.603507 21265 net.cpp:406] layer_512_2_conv2 <- layer_512_2_conv1
I0529 16:51:21.603519 21265 net.cpp:380] layer_512_2_conv2 -> layer_512_2_conv2
I0529 16:51:21.633322 21265 net.cpp:122] Setting up layer_512_2_conv2
I0529 16:51:21.633353 21265 net.cpp:129] Top shape: 50 512 7 7 (1254400)
I0529 16:51:21.633363 21265 net.cpp:137] Memory required for data: 3838464200
I0529 16:51:21.633374 21265 layer_factory.hpp:77] Creating layer layer_512_2_sum
I0529 16:51:21.633388 21265 net.cpp:84] Creating Layer layer_512_2_sum
I0529 16:51:21.633417 21265 net.cpp:406] layer_512_2_sum <- layer_512_2_conv2
I0529 16:51:21.633430 21265 net.cpp:406] layer_512_2_sum <- layer_512_1_sum_layer_512_1_sum_0_split_1
I0529 16:51:21.633440 21265 net.cpp:380] layer_512_2_sum -> layer_512_2_sum
I0529 16:51:21.633484 21265 net.cpp:122] Setting up layer_512_2_sum
I0529 16:51:21.633496 21265 net.cpp:129] Top shape: 50 512 7 7 (1254400)
I0529 16:51:21.633502 21265 net.cpp:137] Memory required for data: 3843481800
I0529 16:51:21.633508 21265 layer_factory.hpp:77] Creating layer layer_512_2_sum_layer_512_2_sum_0_split
I0529 16:51:21.633524 21265 net.cpp:84] Creating Layer layer_512_2_sum_layer_512_2_sum_0_split
I0529 16:51:21.633533 21265 net.cpp:406] layer_512_2_sum_layer_512_2_sum_0_split <- layer_512_2_sum
I0529 16:51:21.633543 21265 net.cpp:380] layer_512_2_sum_layer_512_2_sum_0_split -> layer_512_2_sum_layer_512_2_sum_0_split_0
I0529 16:51:21.633558 21265 net.cpp:380] layer_512_2_sum_layer_512_2_sum_0_split -> layer_512_2_sum_layer_512_2_sum_0_split_1
I0529 16:51:21.633610 21265 net.cpp:122] Setting up layer_512_2_sum_layer_512_2_sum_0_split
I0529 16:51:21.633621 21265 net.cpp:129] Top shape: 50 512 7 7 (1254400)
I0529 16:51:21.633630 21265 net.cpp:129] Top shape: 50 512 7 7 (1254400)
I0529 16:51:21.633635 21265 net.cpp:137] Memory required for data: 3853517000
I0529 16:51:21.633642 21265 layer_factory.hpp:77] Creating layer layer_512_3_bn1
I0529 16:51:21.633656 21265 net.cpp:84] Creating Layer layer_512_3_bn1
I0529 16:51:21.633662 21265 net.cpp:406] layer_512_3_bn1 <- layer_512_2_sum_layer_512_2_sum_0_split_0
I0529 16:51:21.633672 21265 net.cpp:380] layer_512_3_bn1 -> layer_512_3_bn1
I0529 16:51:21.633904 21265 net.cpp:122] Setting up layer_512_3_bn1
I0529 16:51:21.633915 21265 net.cpp:129] Top shape: 50 512 7 7 (1254400)
I0529 16:51:21.633922 21265 net.cpp:137] Memory required for data: 3858534600
I0529 16:51:21.633936 21265 layer_factory.hpp:77] Creating layer layer_512_3_scale1
I0529 16:51:21.633949 21265 net.cpp:84] Creating Layer layer_512_3_scale1
I0529 16:51:21.633956 21265 net.cpp:406] layer_512_3_scale1 <- layer_512_3_bn1
I0529 16:51:21.633966 21265 net.cpp:367] layer_512_3_scale1 -> layer_512_3_bn1 (in-place)
I0529 16:51:21.634021 21265 layer_factory.hpp:77] Creating layer layer_512_3_scale1
I0529 16:51:21.634150 21265 net.cpp:122] Setting up layer_512_3_scale1
I0529 16:51:21.634161 21265 net.cpp:129] Top shape: 50 512 7 7 (1254400)
I0529 16:51:21.634166 21265 net.cpp:137] Memory required for data: 3863552200
I0529 16:51:21.634177 21265 layer_factory.hpp:77] Creating layer layer_512_3_relu1
I0529 16:51:21.634189 21265 net.cpp:84] Creating Layer layer_512_3_relu1
I0529 16:51:21.634197 21265 net.cpp:406] layer_512_3_relu1 <- layer_512_3_bn1
I0529 16:51:21.634209 21265 net.cpp:367] layer_512_3_relu1 -> layer_512_3_bn1 (in-place)
I0529 16:51:21.636382 21265 net.cpp:122] Setting up layer_512_3_relu1
I0529 16:51:21.636397 21265 net.cpp:129] Top shape: 50 512 7 7 (1254400)
I0529 16:51:21.636404 21265 net.cpp:137] Memory required for data: 3868569800
I0529 16:51:21.636410 21265 layer_factory.hpp:77] Creating layer layer_512_3_conv1
I0529 16:51:21.636428 21265 net.cpp:84] Creating Layer layer_512_3_conv1
I0529 16:51:21.636453 21265 net.cpp:406] layer_512_3_conv1 <- layer_512_3_bn1
I0529 16:51:21.636471 21265 net.cpp:380] layer_512_3_conv1 -> layer_512_3_conv1
I0529 16:51:21.667078 21265 net.cpp:122] Setting up layer_512_3_conv1
I0529 16:51:21.667109 21265 net.cpp:129] Top shape: 50 512 7 7 (1254400)
I0529 16:51:21.667115 21265 net.cpp:137] Memory required for data: 3873587400
I0529 16:51:21.667140 21265 layer_factory.hpp:77] Creating layer layer_512_3_bn2
I0529 16:51:21.667160 21265 net.cpp:84] Creating Layer layer_512_3_bn2
I0529 16:51:21.667170 21265 net.cpp:406] layer_512_3_bn2 <- layer_512_3_conv1
I0529 16:51:21.667186 21265 net.cpp:367] layer_512_3_bn2 -> layer_512_3_conv1 (in-place)
I0529 16:51:21.667408 21265 net.cpp:122] Setting up layer_512_3_bn2
I0529 16:51:21.667420 21265 net.cpp:129] Top shape: 50 512 7 7 (1254400)
I0529 16:51:21.667425 21265 net.cpp:137] Memory required for data: 3878605000
I0529 16:51:21.667451 21265 layer_factory.hpp:77] Creating layer layer_512_3_scale2
I0529 16:51:21.667464 21265 net.cpp:84] Creating Layer layer_512_3_scale2
I0529 16:51:21.667474 21265 net.cpp:406] layer_512_3_scale2 <- layer_512_3_conv1
I0529 16:51:21.667482 21265 net.cpp:367] layer_512_3_scale2 -> layer_512_3_conv1 (in-place)
I0529 16:51:21.667537 21265 layer_factory.hpp:77] Creating layer layer_512_3_scale2
I0529 16:51:21.667665 21265 net.cpp:122] Setting up layer_512_3_scale2
I0529 16:51:21.667676 21265 net.cpp:129] Top shape: 50 512 7 7 (1254400)
I0529 16:51:21.667682 21265 net.cpp:137] Memory required for data: 3883622600
I0529 16:51:21.667693 21265 layer_factory.hpp:77] Creating layer layer_512_3_relu2
I0529 16:51:21.667706 21265 net.cpp:84] Creating Layer layer_512_3_relu2
I0529 16:51:21.667714 21265 net.cpp:406] layer_512_3_relu2 <- layer_512_3_conv1
I0529 16:51:21.667723 21265 net.cpp:367] layer_512_3_relu2 -> layer_512_3_conv1 (in-place)
I0529 16:51:21.668108 21265 net.cpp:122] Setting up layer_512_3_relu2
I0529 16:51:21.668123 21265 net.cpp:129] Top shape: 50 512 7 7 (1254400)
I0529 16:51:21.668128 21265 net.cpp:137] Memory required for data: 3888640200
I0529 16:51:21.668134 21265 layer_factory.hpp:77] Creating layer layer_512_3_conv2
I0529 16:51:21.668150 21265 net.cpp:84] Creating Layer layer_512_3_conv2
I0529 16:51:21.668155 21265 net.cpp:406] layer_512_3_conv2 <- layer_512_3_conv1
I0529 16:51:21.668162 21265 net.cpp:380] layer_512_3_conv2 -> layer_512_3_conv2
I0529 16:51:21.699053 21265 net.cpp:122] Setting up layer_512_3_conv2
I0529 16:51:21.699100 21265 net.cpp:129] Top shape: 50 512 7 7 (1254400)
I0529 16:51:21.699105 21265 net.cpp:137] Memory required for data: 3893657800
I0529 16:51:21.699113 21265 layer_factory.hpp:77] Creating layer layer_512_3_sum
I0529 16:51:21.699126 21265 net.cpp:84] Creating Layer layer_512_3_sum
I0529 16:51:21.699131 21265 net.cpp:406] layer_512_3_sum <- layer_512_3_conv2
I0529 16:51:21.699138 21265 net.cpp:406] layer_512_3_sum <- layer_512_2_sum_layer_512_2_sum_0_split_1
I0529 16:51:21.699144 21265 net.cpp:380] layer_512_3_sum -> layer_512_3_sum
I0529 16:51:21.699179 21265 net.cpp:122] Setting up layer_512_3_sum
I0529 16:51:21.699188 21265 net.cpp:129] Top shape: 50 512 7 7 (1254400)
I0529 16:51:21.699192 21265 net.cpp:137] Memory required for data: 3898675400
I0529 16:51:21.699194 21265 layer_factory.hpp:77] Creating layer last_bn
I0529 16:51:21.699201 21265 net.cpp:84] Creating Layer last_bn
I0529 16:51:21.699205 21265 net.cpp:406] last_bn <- layer_512_3_sum
I0529 16:51:21.699210 21265 net.cpp:367] last_bn -> layer_512_3_sum (in-place)
I0529 16:51:21.699417 21265 net.cpp:122] Setting up last_bn
I0529 16:51:21.699426 21265 net.cpp:129] Top shape: 50 512 7 7 (1254400)
I0529 16:51:21.699431 21265 net.cpp:137] Memory required for data: 3903693000
I0529 16:51:21.699442 21265 layer_factory.hpp:77] Creating layer last_scale
I0529 16:51:21.699453 21265 net.cpp:84] Creating Layer last_scale
I0529 16:51:21.699460 21265 net.cpp:406] last_scale <- layer_512_3_sum
I0529 16:51:21.699470 21265 net.cpp:367] last_scale -> layer_512_3_sum (in-place)
I0529 16:51:21.699535 21265 layer_factory.hpp:77] Creating layer last_scale
I0529 16:51:21.699715 21265 net.cpp:122] Setting up last_scale
I0529 16:51:21.699733 21265 net.cpp:129] Top shape: 50 512 7 7 (1254400)
I0529 16:51:21.699736 21265 net.cpp:137] Memory required for data: 3908710600
I0529 16:51:21.699743 21265 layer_factory.hpp:77] Creating layer last_relu
I0529 16:51:21.699749 21265 net.cpp:84] Creating Layer last_relu
I0529 16:51:21.699753 21265 net.cpp:406] last_relu <- layer_512_3_sum
I0529 16:51:21.699757 21265 net.cpp:367] last_relu -> layer_512_3_sum (in-place)
I0529 16:51:21.700942 21265 net.cpp:122] Setting up last_relu
I0529 16:51:21.700953 21265 net.cpp:129] Top shape: 50 512 7 7 (1254400)
I0529 16:51:21.700955 21265 net.cpp:137] Memory required for data: 3913728200
I0529 16:51:21.700959 21265 layer_factory.hpp:77] Creating layer global_pool
I0529 16:51:21.700965 21265 net.cpp:84] Creating Layer global_pool
I0529 16:51:21.700969 21265 net.cpp:406] global_pool <- layer_512_3_sum
I0529 16:51:21.700975 21265 net.cpp:380] global_pool -> global_pool
I0529 16:51:21.702127 21265 net.cpp:122] Setting up global_pool
I0529 16:51:21.702142 21265 net.cpp:129] Top shape: 50 512 1 1 (25600)
I0529 16:51:21.702144 21265 net.cpp:137] Memory required for data: 3913830600
I0529 16:51:21.702148 21265 layer_factory.hpp:77] Creating layer score
I0529 16:51:21.702155 21265 net.cpp:84] Creating Layer score
I0529 16:51:21.702158 21265 net.cpp:406] score <- global_pool
I0529 16:51:21.702165 21265 net.cpp:380] score -> score
I0529 16:51:21.702302 21265 net.cpp:122] Setting up score
I0529 16:51:21.702311 21265 net.cpp:129] Top shape: 50 8 (400)
I0529 16:51:21.702314 21265 net.cpp:137] Memory required for data: 3913832200
I0529 16:51:21.702320 21265 layer_factory.hpp:77] Creating layer loss
I0529 16:51:21.702327 21265 net.cpp:84] Creating Layer loss
I0529 16:51:21.702330 21265 net.cpp:406] loss <- score
I0529 16:51:21.702334 21265 net.cpp:406] loss <- label
I0529 16:51:21.702340 21265 net.cpp:380] loss -> loss
I0529 16:51:21.702352 21265 layer_factory.hpp:77] Creating layer loss
…
I0529 16:51:21.706354 21265 net.cpp:51] Initializing net from parameters: 
name: "Pre-ResNet-34"
state {
  phase: TEST
}
layer {
  name: "data"
  type: "Data"
  top: "data"
  top: "label"
  include {
    phase: TEST
  }
  transform_param {
    mirror: false
    crop_size: 224
    mean_file: "/home/k/PycharmProjects/AgeGenderDeepLearning-master/Folds/lmdb/Test_fold_is_0/mean.binaryproto"
  }
  data_param {
    source: "/home/k/PycharmProjects/AgeGenderDeepLearning-master/Folds/lmdb/Test_fold_is_0/age_val_lmdb"
    batch_size: 30
    backend: LMDB
  }
}
layer {
  name: "data_bn"
  type: "BatchNorm"
  bottom: "data"
  top: "data_bn"
  param {
    lr_mult: 0
    decay_mult: 0
  }
  param {
    lr_mult: 0
    decay_mult: 0
  }
  param {
    lr_mult: 0
    decay_mult: 0
  }
}
layer {
  name: "data_scale"
  type: "Scale"
  bottom: "data_bn"
  top: "data_bn"
  param {
    lr_mult: 1
    decay_mult: 1
  }
  param {
    lr_mult: 2
    decay_mult: 1
  }
  scale_param {
    bias_term: true
  }
}
layer {
  name: "conv1"
  type: "Convolution"
  bottom: "data_bn"
  top: "conv1"
  param {
    lr_mult: 1
    decay_mult: 1
  }
  param {
    lr_mult: 2
    decay_mult: 1
  }
  convolution_param {
    num_output: 64
    pad: 3
    kernel_size: 7
    stride: 2
    weight_filler {
      type: "msra"
      variance_norm: FAN_OUT
    }
    bias_filler {
      type: "constant"
      value: 0
    }
  }
}
layer {
  name: "conv1_bn"
  type: "BatchNorm"
  bottom: "conv1"
  top: "conv1"
  param {
    lr_mult: 0
    decay_mult: 0
  }
  param {
    lr_mult: 0
    decay_mult: 0
  }
  param {
    lr_mult: 0
    decay_mult: 0
  }
}
layer {
  name: "conv1_scale"
  type: "Scale"
  bottom: "conv1"
  top: "conv1"
  param {
    lr_mult: 1
    decay_mult: 1
  }
  param {
    lr_mult: 2
    decay_mult: 1
  }
  scale_param {
    bias_term: true
  }
}
layer {
  name: "conv1_relu"
  type: "ReLU"
  bottom: "conv1"
  top: "conv1"
}
layer {
  name: "conv1_pool"
  type: "Pooling"
  bottom: "conv1"
  top: "conv1_pool"
  pooling_param {
    kernel_size: 3
    stride: 2
  }
}
layer {
  name: "layer_64_1_conv1"
  type: "Convolution"
  bottom: "conv1_pool"
  top: "layer_64_1_conv1"
  param {
    lr_mult: 1
    decay_mult: 1
  }
  convolution_param {
    num_output: 64
    bias_term: false
    pad: 1
    kernel_size: 3
    stride: 1
    weight_filler {
      type: "msra"
    }
    bias_filler {
      type: "constant"
      value: 0
    }
  }
}
layer {
  name: "layer_64_1_bn2"
  type: "BatchNorm"
  bottom: "layer_64_1_conv1"
  top: "layer_64_1_conv1"
  param {
    lr_mult: 0
    decay_mult: 0
  }
  param {
    lr_mult: 0
    decay_mult: 0
  }
  param {
    lr_mult: 0
    decay_mult: 0
  }
}
layer {
  name: "layer_64_1_scale2"
  type: "Scale"
  bottom: "layer_64_1_conv1"
  top: "layer_64_1_conv1"
  param {
    lr_mult: 1
    decay_mult: 1
  }
  param {
    lr_mult: 2
    decay_mult: 1
  }
  scale_param {
    bias_term: true
  }
}
layer {
  name: "layer_64_1_relu2"
  type: "ReLU"
  bottom: "layer_64_1_conv1"
  top: "layer_64_1_conv1"
}
layer {
  name: "layer_64_1_conv2"
  type: "Convolution"
  bottom: "layer_64_1_conv1"
  top: "layer_64_1_conv2"
  param {
    lr_mult: 1
    decay_mult: 1
  }
  convolution_param {
    num_output: 64
    bias_term: false
    pad: 1
    kernel_size: 3
    stride: 1
    weight_filler {
      type: "msra"
    }
    bias_filler {
      type: "constant"
      value: 0
    }
  }
}
layer {
  name: "layer_64_1_sum"
  type: "Eltwise"
  bottom: "layer_64_1_conv2"
  bottom: "conv1_pool"
  top: "layer_64_1_sum"
}
layer {
  name: "layer_64_2_bn1"
  type: "BatchNorm"
  bottom: "layer_64_1_sum"
  top: "layer_64_2_bn1"
  param {
    lr_mult: 0
    decay_mult: 0
  }
  param {
    lr_mult: 0
    decay_mult: 0
  }
  param {
    lr_mult: 0
    decay_mult: 0
  }
}
layer {
  name: "layer_64_2_scale1"
  type: "Scale"
  bottom: "layer_64_2_bn1"
  top: "layer_64_2_bn1"
  param {
    lr_mult: 1
    decay_mult: 1
  }
  param {
    lr_mult: 2
    decay_mult: 1
  }
  scale_param {
    bias_term: true
  }
}
layer {
  name: "layer_64_2_relu1"
  type: "ReLU"
  bottom: "layer_64_2_bn1"
  top: "layer_64_2_bn1"
}
layer {
  name: "layer_64_2_conv1"
  type: "Convolution"
  bottom: "layer_64_2_bn1"
  top: "layer_64_2_conv1"
  param {
    lr_mult: 1
    decay_mult: 1
  }
  convolution_param {
    num_output: 64
    bias_term: false
    pad: 1
    kernel_size: 3
    stride: 1
    weight_filler {
      type: "msra"
    }
    bias_filler {
      type: "constant"
      value: 0
    }
  }
}
layer {
  name: "layer_64_2_bn2"
  type: "BatchNorm"
  bottom: "layer_64_2_conv1"
  top: "layer_64_2_conv1"
  param {
    lr_mult: 0
    decay_mult: 0
  }
  param {
    lr_mult: 0
    decay_mult: 0
  }
  param {
    lr_mult: 0
    decay_mult: 0
  }
}
layer {
  name: "layer_64_2_scale2"
  type: "Scale"
  bottom: "layer_64_2_conv1"
  top: "layer_64_2_conv1"
  param {
    lr_mult: 1
    decay_mult: 1
  }
  param {
    lr_mult: 2
    decay_mult: 1
  }
  scale_param {
    bias_term: true
  }
}
layer {
  name: "layer_64_2_relu2"
  type: "ReLU"
  bottom: "layer_64_2_conv1"
  top: "layer_64_2_conv1"
}
layer {
  name: "layer_64_2_conv2"
  type: "Convolution"
  bottom: "layer_64_2_conv1"
  top: "layer_64_2_conv2"
  param {
    lr_mult: 1
    decay_mult: 1
  }
  convolution_param {
    num_output: 64
    bias_term: false
    pad: 1
    kernel_size: 3
    stride: 1
    weight_filler {
      type: "msra"
    }
    bias_filler {
      type: "constant"
      value: 0
    }
  }
}
layer {
  name: "layer_64_2_sum"
  type: "Eltwise"
  bottom: "layer_64_2_conv2"
  bottom: "layer_64_1_sum"
  top: "layer_64_2_sum"
}
layer {
  name: "layer_64_3_bn1"
  type: "BatchNorm"
  bottom: "layer_64_2_sum"
  top: "layer_64_3_bn1"
  param {
    lr_mult: 0
    decay_mult: 0
  }
  param {
    lr_mult: 0
    decay_mult: 0
  }
  param {
    lr_mult: 0
    decay_mult: 0
  }
}
layer {
  name: "layer_64_3_scale1"
  type: "Scale"
  bottom: "layer_64_3_bn1"
  top: "layer_64_3_bn1"
  param {
    lr_mult: 1
    decay_mult: 1
  }
  param {
    lr_mult: 2
    decay_mult: 1
  }
  scale_param {
    bias_term: true
  }
}
layer {
  name: "layer_64_3_relu1"
  type: "ReLU"
  bottom: "layer_64_3_bn1"
  top: "layer_64_3_bn1"
}
layer {
  name: "layer_64_3_conv1"
  type: "Convolution"
  bottom: "layer_64_3_bn1"
  top: "layer_64_3_conv1"
  param {
    lr_mult: 1
    decay_mult: 1
  }
  convolution_param {
    num_output: 64
    bias_term: false
    pad: 1
    kernel_size: 3
    stride: 1
    weight_filler {
      type: "msra"
    }
    bias_filler {
      type: "constant"
      value: 0
    }
  }
}
layer {
  name: "layer_64_3_bn2"
  type: "BatchNorm"
  bottom: "layer_64_3_conv1"
  top: "layer_64_3_conv1"
  param {
    lr_mult: 0
    decay_mult: 0
  }
  param {
    lr_mult: 0
    decay_mult: 0
  }
  param {
    lr_mult: 0
    decay_mult: 0
  }
}
layer {
  name: "layer_64_3_scale2"
  type: "Scale"
  bottom: "layer_64_3_conv1"
  top: "layer_64_3_conv1"
  param {
    lr_mult: 1
    decay_mult: 1
  }
  param {
    lr_mult: 2
    decay_mult: 1
  }
  scale_param {
    bias_term: true
  }
}
layer {
  name: "layer_64_3_relu2"
  type: "ReLU"
  bottom: "layer_64_3_conv1"
  top: "layer_64_3_conv1"
}
layer {
  name: "layer_64_3_conv2"
  type: "Convolution"
  bottom: "layer_64_3_conv1"
  top: "layer_64_3_conv2"
  param {
    lr_mult: 1
    decay_mult: 1
  }
  convolution_param {
    num_output: 64
    bias_term: false
    pad: 1
    kernel_size: 3
    stride: 1
    weight_filler {
      type: "msra"
    }
    bias_filler {
      type: "constant"
      value: 0
    }
  }
}
layer {
  name: "layer_64_3_sum"
  type: "Eltwise"
  bottom: "layer_64_3_conv2"
  bottom: "layer_64_2_sum"
  top: "layer_64_3_sum"
}
layer {
  name: "layer_128_1_bn1"
  type: "BatchNorm"
  bottom: "layer_64_3_sum"
  top: "layer_128_1_bn1"
  param {
    lr_mult: 0
    decay_mult: 0
  }
  param {
    lr_mult: 0
    decay_mult: 0
  }
  param {
    lr_mult: 0
    decay_mult: 0
  }
}
layer {
  name: "layer_128_1_scale1"
  type: "Scale"
  bottom: "layer_128_1_bn1"
  top: "layer_128_1_bn1"
  param {
    lr_mult: 1
    decay_mult: 1
  }
  param {
    lr_mult: 2
    decay_mult: 1
  }
  scale_param {
    bias_term: true
  }
}
layer {
  name: "layer_128_1_relu1"
  type: "ReLU"
  bottom: "layer_128_1_bn1"
  top: "layer_128_1_bn1"
}
layer {
  name: "layer_128_1_conv1"
  type: "Convolution"
  bottom: "layer_128_1_bn1"
  top: "layer_128_1_conv1"
  param {
    lr_mult: 1
    decay_mult: 1
  }
  convolution_param {
    num_output: 128
    bias_term: false
    pad: 1
    kernel_size: 3
    stride: 2
    weight_filler {
      type: "msra"
    }
    bias_filler {
      type: "constant"
      value: 0
    }
  }
}
layer {
  name: "layer_128_1_bn2"
  type: "BatchNorm"
  bottom: "layer_128_1_conv1"
  top: "layer_128_1_conv1"
  param {
    lr_mult: 0
    decay_mult: 0
  }
  param {
    lr_mult: 0
    decay_mult: 0
  }
  param {
    lr_mult: 0
    decay_mult: 0
  }
}
layer {
  name: "layer_128_1_scale2"
  type: "Scale"
  bottom: "layer_128_1_conv1"
  top: "layer_128_1_conv1"
  param {
    lr_mult: 1
    decay_mult: 1
  }
  param {
    lr_mult: 2
    decay_mult: 1
  }
  scale_param {
    bias_term: true
  }
}
layer {
  name: "layer_128_1_relu2"
  type: "ReLU"
  bottom: "layer_128_1_conv1"
  top: "layer_128_1_conv1"
}
layer {
  name: "layer_128_1_conv2"
  type: "Convolution"
  bottom: "layer_128_1_conv1"
  top: "layer_128_1_conv2"
  param {
    lr_mult: 1
    decay_mult: 1
  }
  convolution_param {
    num_output: 128
    bias_term: false
    pad: 1
    kernel_size: 3
    stride: 1
    weight_filler {
      type: "msra"
    }
    bias_filler {
      type: "constant"
      value: 0
    }
  }
}
layer {
  name: "layer_128_1_conv_expand"
  type: "Convolution"
  bottom: "layer_128_1_bn1"
  top: "layer_128_1_conv_expand"
  param {
    lr_mult: 1
    decay_mult: 1
  }
  convolution_param {
    num_output: 128
    bias_term: false
    pad: 0
    kernel_size: 1
    stride: 2
    weight_filler {
      type: "msra"
    }
    bias_filler {
      type: "constant"
      value: 0
    }
  }
}
layer {
  name: "layer_128_1_sum"
  type: "Eltwise"
  bottom: "layer_128_1_conv_expand"
  bottom: "layer_128_1_conv2"
  top: "layer_128_1_sum"
}
layer {
  name: "layer_128_2_bn1"
  type: "BatchNorm"
  bottom: "layer_128_1_sum"
  top: "layer_128_2_bn1"
  param {
    lr_mult: 0
    decay_mult: 0
  }
  param {
    lr_mult: 0
    decay_mult: 0
  }
  param {
    lr_mult: 0
    decay_mult: 0
  }
}
layer {
  name: "layer_128_2_scale1"
  type: "Scale"
  bottom: "layer_128_2_bn1"
  top: "layer_128_2_bn1"
  param {
    lr_mult: 1
    decay_mult: 1
  }
  param {
    lr_mult: 2
    decay_mult: 1
  }
  scale_param {
    bias_term: true
  }
}
layer {
  name: "layer_128_2_relu1"
  type: "ReLU"
  bottom: "layer_128_2_bn1"
  top: "layer_128_2_bn1"
}
layer {
  name: "layer_128_2_conv1"
  type: "Convolution"
  bottom: "layer_128_2_bn1"
  top: "layer_128_2_conv1"
  param {
    lr_mult: 1
    decay_mult: 1
  }
  convolution_param {
    num_output: 128
    bias_term: false
    pad: 1
    kernel_size: 3
    stride: 1
    weight_filler {
      type: "msra"
    }
    bias_filler {
      type: "constant"
      value: 0
    }
  }
}
layer {
  name: "layer_128_2_bn2"
  type: "BatchNorm"
  bottom: "layer_128_2_conv1"
  top: "layer_128_2_conv1"
  param {
    lr_mult: 0
    decay_mult: 0
  }
  param {
    lr_mult: 0
    decay_mult: 0
  }
  param {
    lr_mult: 0
    decay_mult: 0
  }
}
layer {
  name: "layer_128_2_scale2"
  type: "Scale"
  bottom: "layer_128_2_conv1"
  top: "layer_128_2_conv1"
  param {
    lr_mult: 1
    decay_mult: 1
  }
  param {
    lr_mult: 2
    decay_mult: 1
  }
  scale_param {
    bias_term: true
  }
}
layer {
  name: "layer_128_2_relu2"
  type: "ReLU"
  bottom: "layer_128_2_conv1"
  top: "layer_128_2_conv1"
}
layer {
  name: "layer_128_2_conv2"
  type: "Convolution"
  bottom: "layer_128_2_conv1"
  top: "layer_128_2_conv2"
  param {
    lr_mult: 1
    decay_mult: 1
  }
  convolution_param {
    num_output: 128
    bias_term: false
    pad: 1
    kernel_size: 3
    stride: 1
    weight_filler {
      type: "msra"
    }
    bias_filler {
      type: "constant"
      value: 0
    }
  }
}
layer {
  name: "layer_128_2_sum"
  type: "Eltwise"
  bottom: "layer_128_2_conv2"
  bottom: "layer_128_1_sum"
  top: "layer_128_2_sum"
}
layer {
  name: "layer_128_3_bn1"
  type: "BatchNorm"
  bottom: "layer_128_2_sum"
  top: "layer_128_3_bn1"
  param {
    lr_mult: 0
    decay_mult: 0
  }
  param {
    lr_mult: 0
    decay_mult: 0
  }
  param {
    lr_mult: 0
    decay_mult: 0
  }
}
layer {
  name: "layer_128_3_scale1"
  type: "Scale"
  bottom: "layer_128_3_bn1"
  top: "layer_128_3_bn1"
  param {
    lr_mult: 1
    decay_mult: 1
  }
  param {
    lr_mult: 2
    decay_mult: 1
  }
  scale_param {
    bias_term: true
  }
}
layer {
  name: "layer_128_3_relu1"
  type: "ReLU"
  bottom: "layer_128_3_bn1"
  top: "layer_128_3_bn1"
}
layer {
  name: "layer_128_3_conv1"
  type: "Convolution"
  bottom: "layer_128_3_bn1"
  top: "layer_128_3_conv1"
  param {
    lr_mult: 1
    decay_mult: 1
  }
  convolution_param {
    num_output: 128
    bias_term: false
    pad: 1
    kernel_size: 3
    stride: 1
    weight_filler {
      type: "msra"
    }
    bias_filler {
      type: "constant"
      value: 0
    }
  }
}
layer {
  name: "layer_128_3_bn2"
  type: "BatchNorm"
  bottom: "layer_128_3_conv1"
  top: "layer_128_3_conv1"
  param {
    lr_mult: 0
    decay_mult: 0
  }
  param {
    lr_mult: 0
    decay_mult: 0
  }
  param {
    lr_mult: 0
    decay_mult: 0
  }
}
layer {
  name: "layer_128_3_scale2"
  type: "Scale"
  bottom: "layer_128_3_conv1"
  top: "layer_128_3_conv1"
  param {
    lr_mult: 1
    decay_mult: 1
  }
  param {
    lr_mult: 2
    decay_mult: 1
  }
  scale_param {
    bias_term: true
  }
}
layer {
  name: "layer_128_3_relu2"
  type: "ReLU"
  bottom: "layer_128_3_conv1"
  top: "layer_128_3_conv1"
}
layer {
  name: "layer_128_3_conv2"
  type: "Convolution"
  bottom: "layer_128_3_conv1"
  top: "layer_128_3_conv2"
  param {
    lr_mult: 1
    decay_mult: 1
  }
  convolution_param {
    num_output: 128
    bias_term: false
    pad: 1
    kernel_size: 3
    stride: 1
    weight_filler {
      type: "msra"
    }
    bias_filler {
      type: "constant"
      value: 0
    }
  }
}
layer {
  name: "layer_128_3_sum"
  type: "Eltwise"
  bottom: "layer_128_3_conv2"
  bottom: "layer_128_2_sum"
  top: "layer_128_3_sum"
}
layer {
  name: "layer_128_4_bn1"
  type: "BatchNorm"
  bottom: "layer_128_3_sum"
  top: "layer_128_4_bn1"
  param {
    lr_mult: 0
    decay_mult: 0
  }
  param {
    lr_mult: 0
    decay_mult: 0
  }
  param {
    lr_mult: 0
    decay_mult: 0
  }
}
layer {
  name: "layer_128_4_scale1"
  type: "Scale"
  bottom: "layer_128_4_bn1"
  top: "layer_128_4_bn1"
  param {
    lr_mult: 1
    decay_mult: 1
  }
  param {
    lr_mult: 2
    decay_mult: 1
  }
  scale_param {
    bias_term: true
  }
}
layer {
  name: "layer_128_4_relu1"
  type: "ReLU"
  bottom: "layer_128_4_bn1"
  top: "layer_128_4_bn1"
}
layer {
  name: "layer_128_4_conv1"
  type: "Convolution"
  bottom: "layer_128_4_bn1"
  top: "layer_128_4_conv1"
  param {
    lr_mult: 1
    decay_mult: 1
  }
  convolution_param {
    num_output: 128
    bias_term: false
    pad: 1
    kernel_size: 3
    stride: 1
    weight_filler {
      type: "msra"
    }
    bias_filler {
      type: "constant"
      value: 0
    }
  }
}
layer {
  name: "layer_128_4_bn2"
  type: "BatchNorm"
  bottom: "layer_128_4_conv1"
  top: "layer_128_4_conv1"
  param {
    lr_mult: 0
    decay_mult: 0
  }
  param {
    lr_mult: 0
    decay_mult: 0
  }
  param {
    lr_mult: 0
    decay_mult: 0
  }
}
layer {
  name: "layer_128_4_scale2"
  type: "Scale"
  bottom: "layer_128_4_conv1"
  top: "layer_128_4_conv1"
  param {
    lr_mult: 1
    decay_mult: 1
  }
  param {
    lr_mult: 2
    decay_mult: 1
  }
  scale_param {
    bias_term: true
  }
}
layer {
  name: "layer_128_4_relu2"
  type: "ReLU"
  bottom: "layer_128_4_conv1"
  top: "layer_128_4_conv1"
}
layer {
  name: "layer_128_4_conv2"
  type: "Convolution"
  bottom: "layer_128_4_conv1"
  top: "layer_128_4_conv2"
  param {
    lr_mult: 1
    decay_mult: 1
  }
  convolution_param {
    num_output: 128
    bias_term: false
    pad: 1
    kernel_size: 3
    stride: 1
    weight_filler {
      type: "msra"
    }
    bias_filler {
…
I0529 16:51:21.900595 21265 net.cpp:367] layer_256_2_relu1 -> layer_256_2_bn1 (in-place)
I0529 16:51:21.901407 21265 net.cpp:122] Setting up layer_256_2_relu1
I0529 16:51:21.901424 21265 net.cpp:129] Top shape: 30 256 14 14 (1505280)
I0529 16:51:21.901430 21265 net.cpp:137] Memory required for data: 1920737640
I0529 16:51:21.901437 21265 layer_factory.hpp:77] Creating layer layer_256_2_conv1
I0529 16:51:21.901453 21265 net.cpp:84] Creating Layer layer_256_2_conv1
I0529 16:51:21.901458 21265 net.cpp:406] layer_256_2_conv1 <- layer_256_2_bn1
I0529 16:51:21.901465 21265 net.cpp:380] layer_256_2_conv1 -> layer_256_2_conv1
I0529 16:51:21.910670 21265 net.cpp:122] Setting up layer_256_2_conv1
I0529 16:51:21.910706 21265 net.cpp:129] Top shape: 30 256 14 14 (1505280)
I0529 16:51:21.910711 21265 net.cpp:137] Memory required for data: 1926758760
I0529 16:51:21.910722 21265 layer_factory.hpp:77] Creating layer layer_256_2_bn2
I0529 16:51:21.910733 21265 net.cpp:84] Creating Layer layer_256_2_bn2
I0529 16:51:21.910739 21265 net.cpp:406] layer_256_2_bn2 <- layer_256_2_conv1
I0529 16:51:21.910750 21265 net.cpp:367] layer_256_2_bn2 -> layer_256_2_conv1 (in-place)
I0529 16:51:21.911026 21265 net.cpp:122] Setting up layer_256_2_bn2
I0529 16:51:21.911037 21265 net.cpp:129] Top shape: 30 256 14 14 (1505280)
I0529 16:51:21.911041 21265 net.cpp:137] Memory required for data: 1932779880
I0529 16:51:21.911049 21265 layer_factory.hpp:77] Creating layer layer_256_2_scale2
I0529 16:51:21.911058 21265 net.cpp:84] Creating Layer layer_256_2_scale2
I0529 16:51:21.911062 21265 net.cpp:406] layer_256_2_scale2 <- layer_256_2_conv1
I0529 16:51:21.911070 21265 net.cpp:367] layer_256_2_scale2 -> layer_256_2_conv1 (in-place)
I0529 16:51:21.911130 21265 layer_factory.hpp:77] Creating layer layer_256_2_scale2
I0529 16:51:21.911278 21265 net.cpp:122] Setting up layer_256_2_scale2
I0529 16:51:21.911288 21265 net.cpp:129] Top shape: 30 256 14 14 (1505280)
I0529 16:51:21.911291 21265 net.cpp:137] Memory required for data: 1938801000
I0529 16:51:21.911298 21265 layer_factory.hpp:77] Creating layer layer_256_2_relu2
I0529 16:51:21.911305 21265 net.cpp:84] Creating Layer layer_256_2_relu2
I0529 16:51:21.911310 21265 net.cpp:406] layer_256_2_relu2 <- layer_256_2_conv1
I0529 16:51:21.911317 21265 net.cpp:367] layer_256_2_relu2 -> layer_256_2_conv1 (in-place)
I0529 16:51:21.911553 21265 net.cpp:122] Setting up layer_256_2_relu2
I0529 16:51:21.911563 21265 net.cpp:129] Top shape: 30 256 14 14 (1505280)
I0529 16:51:21.911567 21265 net.cpp:137] Memory required for data: 1944822120
I0529 16:51:21.911571 21265 layer_factory.hpp:77] Creating layer layer_256_2_conv2
I0529 16:51:21.911586 21265 net.cpp:84] Creating Layer layer_256_2_conv2
I0529 16:51:21.911590 21265 net.cpp:406] layer_256_2_conv2 <- layer_256_2_conv1
I0529 16:51:21.911597 21265 net.cpp:380] layer_256_2_conv2 -> layer_256_2_conv2
I0529 16:51:21.921113 21265 net.cpp:122] Setting up layer_256_2_conv2
I0529 16:51:21.921149 21265 net.cpp:129] Top shape: 30 256 14 14 (1505280)
I0529 16:51:21.921154 21265 net.cpp:137] Memory required for data: 1950843240
I0529 16:51:21.921164 21265 layer_factory.hpp:77] Creating layer layer_256_2_sum
I0529 16:51:21.921175 21265 net.cpp:84] Creating Layer layer_256_2_sum
I0529 16:51:21.921181 21265 net.cpp:406] layer_256_2_sum <- layer_256_2_conv2
I0529 16:51:21.921190 21265 net.cpp:406] layer_256_2_sum <- layer_256_1_sum_layer_256_1_sum_0_split_1
I0529 16:51:21.921195 21265 net.cpp:380] layer_256_2_sum -> layer_256_2_sum
I0529 16:51:21.921272 21265 net.cpp:122] Setting up layer_256_2_sum
I0529 16:51:21.921278 21265 net.cpp:129] Top shape: 30 256 14 14 (1505280)
I0529 16:51:21.921281 21265 net.cpp:137] Memory required for data: 1956864360
I0529 16:51:21.921284 21265 layer_factory.hpp:77] Creating layer layer_256_2_sum_layer_256_2_sum_0_split
I0529 16:51:21.921293 21265 net.cpp:84] Creating Layer layer_256_2_sum_layer_256_2_sum_0_split
I0529 16:51:21.921295 21265 net.cpp:406] layer_256_2_sum_layer_256_2_sum_0_split <- layer_256_2_sum
I0529 16:51:21.921301 21265 net.cpp:380] layer_256_2_sum_layer_256_2_sum_0_split -> layer_256_2_sum_layer_256_2_sum_0_split_0
I0529 16:51:21.921308 21265 net.cpp:380] layer_256_2_sum_layer_256_2_sum_0_split -> layer_256_2_sum_layer_256_2_sum_0_split_1
I0529 16:51:21.921358 21265 net.cpp:122] Setting up layer_256_2_sum_layer_256_2_sum_0_split
I0529 16:51:21.921365 21265 net.cpp:129] Top shape: 30 256 14 14 (1505280)
I0529 16:51:21.921370 21265 net.cpp:129] Top shape: 30 256 14 14 (1505280)
I0529 16:51:21.921371 21265 net.cpp:137] Memory required for data: 1968906600
I0529 16:51:21.921375 21265 layer_factory.hpp:77] Creating layer layer_256_3_bn1
I0529 16:51:21.921382 21265 net.cpp:84] Creating Layer layer_256_3_bn1
I0529 16:51:21.921386 21265 net.cpp:406] layer_256_3_bn1 <- layer_256_2_sum_layer_256_2_sum_0_split_0
I0529 16:51:21.921391 21265 net.cpp:380] layer_256_3_bn1 -> layer_256_3_bn1
I0529 16:51:21.921639 21265 net.cpp:122] Setting up layer_256_3_bn1
I0529 16:51:21.921648 21265 net.cpp:129] Top shape: 30 256 14 14 (1505280)
I0529 16:51:21.921651 21265 net.cpp:137] Memory required for data: 1974927720
I0529 16:51:21.921659 21265 layer_factory.hpp:77] Creating layer layer_256_3_scale1
I0529 16:51:21.921666 21265 net.cpp:84] Creating Layer layer_256_3_scale1
I0529 16:51:21.921670 21265 net.cpp:406] layer_256_3_scale1 <- layer_256_3_bn1
I0529 16:51:21.921676 21265 net.cpp:367] layer_256_3_scale1 -> layer_256_3_bn1 (in-place)
I0529 16:51:21.921736 21265 layer_factory.hpp:77] Creating layer layer_256_3_scale1
I0529 16:51:21.921876 21265 net.cpp:122] Setting up layer_256_3_scale1
I0529 16:51:21.921887 21265 net.cpp:129] Top shape: 30 256 14 14 (1505280)
I0529 16:51:21.921890 21265 net.cpp:137] Memory required for data: 1980948840
I0529 16:51:21.921896 21265 layer_factory.hpp:77] Creating layer layer_256_3_relu1
I0529 16:51:21.921917 21265 net.cpp:84] Creating Layer layer_256_3_relu1
I0529 16:51:21.921921 21265 net.cpp:406] layer_256_3_relu1 <- layer_256_3_bn1
I0529 16:51:21.921926 21265 net.cpp:367] layer_256_3_relu1 -> layer_256_3_bn1 (in-place)
I0529 16:51:21.922155 21265 net.cpp:122] Setting up layer_256_3_relu1
I0529 16:51:21.922163 21265 net.cpp:129] Top shape: 30 256 14 14 (1505280)
I0529 16:51:21.922166 21265 net.cpp:137] Memory required for data: 1986969960
I0529 16:51:21.922170 21265 layer_factory.hpp:77] Creating layer layer_256_3_conv1
I0529 16:51:21.922181 21265 net.cpp:84] Creating Layer layer_256_3_conv1
I0529 16:51:21.922185 21265 net.cpp:406] layer_256_3_conv1 <- layer_256_3_bn1
I0529 16:51:21.922193 21265 net.cpp:380] layer_256_3_conv1 -> layer_256_3_conv1
I0529 16:51:21.932075 21265 net.cpp:122] Setting up layer_256_3_conv1
I0529 16:51:21.932109 21265 net.cpp:129] Top shape: 30 256 14 14 (1505280)
I0529 16:51:21.932112 21265 net.cpp:137] Memory required for data: 1992991080
I0529 16:51:21.932122 21265 layer_factory.hpp:77] Creating layer layer_256_3_bn2
I0529 16:51:21.932134 21265 net.cpp:84] Creating Layer layer_256_3_bn2
I0529 16:51:21.932140 21265 net.cpp:406] layer_256_3_bn2 <- layer_256_3_conv1
I0529 16:51:21.932149 21265 net.cpp:367] layer_256_3_bn2 -> layer_256_3_conv1 (in-place)
I0529 16:51:21.932385 21265 net.cpp:122] Setting up layer_256_3_bn2
I0529 16:51:21.932395 21265 net.cpp:129] Top shape: 30 256 14 14 (1505280)
I0529 16:51:21.932399 21265 net.cpp:137] Memory required for data: 1999012200
I0529 16:51:21.932405 21265 layer_factory.hpp:77] Creating layer layer_256_3_scale2
I0529 16:51:21.932415 21265 net.cpp:84] Creating Layer layer_256_3_scale2
I0529 16:51:21.932421 21265 net.cpp:406] layer_256_3_scale2 <- layer_256_3_conv1
I0529 16:51:21.932430 21265 net.cpp:367] layer_256_3_scale2 -> layer_256_3_conv1 (in-place)
I0529 16:51:21.932498 21265 layer_factory.hpp:77] Creating layer layer_256_3_scale2
I0529 16:51:21.932637 21265 net.cpp:122] Setting up layer_256_3_scale2
I0529 16:51:21.932647 21265 net.cpp:129] Top shape: 30 256 14 14 (1505280)
I0529 16:51:21.932653 21265 net.cpp:137] Memory required for data: 2005033320
I0529 16:51:21.932672 21265 layer_factory.hpp:77] Creating layer layer_256_3_relu2
I0529 16:51:21.932684 21265 net.cpp:84] Creating Layer layer_256_3_relu2
I0529 16:51:21.932693 21265 net.cpp:406] layer_256_3_relu2 <- layer_256_3_conv1
I0529 16:51:21.932708 21265 net.cpp:367] layer_256_3_relu2 -> layer_256_3_conv1 (in-place)
I0529 16:51:21.932912 21265 net.cpp:122] Setting up layer_256_3_relu2
I0529 16:51:21.932934 21265 net.cpp:129] Top shape: 30 256 14 14 (1505280)
I0529 16:51:21.932941 21265 net.cpp:137] Memory required for data: 2011054440
I0529 16:51:21.932947 21265 layer_factory.hpp:77] Creating layer layer_256_3_conv2
I0529 16:51:21.932967 21265 net.cpp:84] Creating Layer layer_256_3_conv2
I0529 16:51:21.932976 21265 net.cpp:406] layer_256_3_conv2 <- layer_256_3_conv1
I0529 16:51:21.932986 21265 net.cpp:380] layer_256_3_conv2 -> layer_256_3_conv2
I0529 16:51:21.944471 21265 net.cpp:122] Setting up layer_256_3_conv2
I0529 16:51:21.944495 21265 net.cpp:129] Top shape: 30 256 14 14 (1505280)
I0529 16:51:21.944501 21265 net.cpp:137] Memory required for data: 2017075560
I0529 16:51:21.944535 21265 layer_factory.hpp:77] Creating layer layer_256_3_sum
I0529 16:51:21.944553 21265 net.cpp:84] Creating Layer layer_256_3_sum
I0529 16:51:21.944564 21265 net.cpp:406] layer_256_3_sum <- layer_256_3_conv2
I0529 16:51:21.944577 21265 net.cpp:406] layer_256_3_sum <- layer_256_2_sum_layer_256_2_sum_0_split_1
I0529 16:51:21.944588 21265 net.cpp:380] layer_256_3_sum -> layer_256_3_sum
I0529 16:51:21.944634 21265 net.cpp:122] Setting up layer_256_3_sum
I0529 16:51:21.944646 21265 net.cpp:129] Top shape: 30 256 14 14 (1505280)
I0529 16:51:21.944651 21265 net.cpp:137] Memory required for data: 2023096680
I0529 16:51:21.944658 21265 layer_factory.hpp:77] Creating layer layer_256_3_sum_layer_256_3_sum_0_split
I0529 16:51:21.944671 21265 net.cpp:84] Creating Layer layer_256_3_sum_layer_256_3_sum_0_split
I0529 16:51:21.944694 21265 net.cpp:406] layer_256_3_sum_layer_256_3_sum_0_split <- layer_256_3_sum
I0529 16:51:21.944705 21265 net.cpp:380] layer_256_3_sum_layer_256_3_sum_0_split -> layer_256_3_sum_layer_256_3_sum_0_split_0
I0529 16:51:21.944717 21265 net.cpp:380] layer_256_3_sum_layer_256_3_sum_0_split -> layer_256_3_sum_layer_256_3_sum_0_split_1
I0529 16:51:21.944787 21265 net.cpp:122] Setting up layer_256_3_sum_layer_256_3_sum_0_split
I0529 16:51:21.944797 21265 net.cpp:129] Top shape: 30 256 14 14 (1505280)
I0529 16:51:21.944806 21265 net.cpp:129] Top shape: 30 256 14 14 (1505280)
I0529 16:51:21.944813 21265 net.cpp:137] Memory required for data: 2035138920
I0529 16:51:21.944819 21265 layer_factory.hpp:77] Creating layer layer_256_4_bn1
I0529 16:51:21.944834 21265 net.cpp:84] Creating Layer layer_256_4_bn1
I0529 16:51:21.944842 21265 net.cpp:406] layer_256_4_bn1 <- layer_256_3_sum_layer_256_3_sum_0_split_0
I0529 16:51:21.944852 21265 net.cpp:380] layer_256_4_bn1 -> layer_256_4_bn1
I0529 16:51:21.945109 21265 net.cpp:122] Setting up layer_256_4_bn1
I0529 16:51:21.945122 21265 net.cpp:129] Top shape: 30 256 14 14 (1505280)
I0529 16:51:21.945127 21265 net.cpp:137] Memory required for data: 2041160040
I0529 16:51:21.945142 21265 layer_factory.hpp:77] Creating layer layer_256_4_scale1
I0529 16:51:21.945154 21265 net.cpp:84] Creating Layer layer_256_4_scale1
I0529 16:51:21.945163 21265 net.cpp:406] layer_256_4_scale1 <- layer_256_4_bn1
I0529 16:51:21.945173 21265 net.cpp:367] layer_256_4_scale1 -> layer_256_4_bn1 (in-place)
I0529 16:51:21.945241 21265 layer_factory.hpp:77] Creating layer layer_256_4_scale1
I0529 16:51:21.945384 21265 net.cpp:122] Setting up layer_256_4_scale1
I0529 16:51:21.945396 21265 net.cpp:129] Top shape: 30 256 14 14 (1505280)
I0529 16:51:21.945402 21265 net.cpp:137] Memory required for data: 2047181160
I0529 16:51:21.945412 21265 layer_factory.hpp:77] Creating layer layer_256_4_relu1
I0529 16:51:21.945425 21265 net.cpp:84] Creating Layer layer_256_4_relu1
I0529 16:51:21.945446 21265 net.cpp:406] layer_256_4_relu1 <- layer_256_4_bn1
I0529 16:51:21.945459 21265 net.cpp:367] layer_256_4_relu1 -> layer_256_4_bn1 (in-place)
I0529 16:51:21.945699 21265 net.cpp:122] Setting up layer_256_4_relu1
I0529 16:51:21.945713 21265 net.cpp:129] Top shape: 30 256 14 14 (1505280)
I0529 16:51:21.945719 21265 net.cpp:137] Memory required for data: 2053202280
I0529 16:51:21.945724 21265 layer_factory.hpp:77] Creating layer layer_256_4_conv1
I0529 16:51:21.945741 21265 net.cpp:84] Creating Layer layer_256_4_conv1
I0529 16:51:21.945749 21265 net.cpp:406] layer_256_4_conv1 <- layer_256_4_bn1
I0529 16:51:21.945760 21265 net.cpp:380] layer_256_4_conv1 -> layer_256_4_conv1
I0529 16:51:21.955485 21265 net.cpp:122] Setting up layer_256_4_conv1
I0529 16:51:21.955505 21265 net.cpp:129] Top shape: 30 256 14 14 (1505280)
I0529 16:51:21.955512 21265 net.cpp:137] Memory required for data: 2059223400
I0529 16:51:21.955521 21265 layer_factory.hpp:77] Creating layer layer_256_4_bn2
I0529 16:51:21.955546 21265 net.cpp:84] Creating Layer layer_256_4_bn2
I0529 16:51:21.955556 21265 net.cpp:406] layer_256_4_bn2 <- layer_256_4_conv1
I0529 16:51:21.955571 21265 net.cpp:367] layer_256_4_bn2 -> layer_256_4_conv1 (in-place)
I0529 16:51:21.955813 21265 net.cpp:122] Setting up layer_256_4_bn2
I0529 16:51:21.955826 21265 net.cpp:129] Top shape: 30 256 14 14 (1505280)
I0529 16:51:21.955833 21265 net.cpp:137] Memory required for data: 2065244520
I0529 16:51:21.955847 21265 layer_factory.hpp:77] Creating layer layer_256_4_scale2
I0529 16:51:21.955858 21265 net.cpp:84] Creating Layer layer_256_4_scale2
I0529 16:51:21.955865 21265 net.cpp:406] layer_256_4_scale2 <- layer_256_4_conv1
I0529 16:51:21.955876 21265 net.cpp:367] layer_256_4_scale2 -> layer_256_4_conv1 (in-place)
I0529 16:51:21.955937 21265 layer_factory.hpp:77] Creating layer layer_256_4_scale2
I0529 16:51:21.956079 21265 net.cpp:122] Setting up layer_256_4_scale2
I0529 16:51:21.956091 21265 net.cpp:129] Top shape: 30 256 14 14 (1505280)
I0529 16:51:21.956099 21265 net.cpp:137] Memory required for data: 2071265640
I0529 16:51:21.956125 21265 layer_factory.hpp:77] Creating layer layer_256_4_relu2
I0529 16:51:21.956135 21265 net.cpp:84] Creating Layer layer_256_4_relu2
I0529 16:51:21.956142 21265 net.cpp:406] layer_256_4_relu2 <- layer_256_4_conv1
I0529 16:51:21.956152 21265 net.cpp:367] layer_256_4_relu2 -> layer_256_4_conv1 (in-place)
I0529 16:51:21.956334 21265 net.cpp:122] Setting up layer_256_4_relu2
I0529 16:51:21.956347 21265 net.cpp:129] Top shape: 30 256 14 14 (1505280)
I0529 16:51:21.956353 21265 net.cpp:137] Memory required for data: 2077286760
I0529 16:51:21.956362 21265 layer_factory.hpp:77] Creating layer layer_256_4_conv2
I0529 16:51:21.956377 21265 net.cpp:84] Creating Layer layer_256_4_conv2
I0529 16:51:21.956384 21265 net.cpp:406] layer_256_4_conv2 <- layer_256_4_conv1
I0529 16:51:21.956398 21265 net.cpp:380] layer_256_4_conv2 -> layer_256_4_conv2
I0529 16:51:21.968010 21265 net.cpp:122] Setting up layer_256_4_conv2
I0529 16:51:21.968035 21265 net.cpp:129] Top shape: 30 256 14 14 (1505280)
I0529 16:51:21.968041 21265 net.cpp:137] Memory required for data: 2083307880
I0529 16:51:21.968055 21265 layer_factory.hpp:77] Creating layer layer_256_4_sum
I0529 16:51:21.968067 21265 net.cpp:84] Creating Layer layer_256_4_sum
I0529 16:51:21.968078 21265 net.cpp:406] layer_256_4_sum <- layer_256_4_conv2
I0529 16:51:21.968091 21265 net.cpp:406] layer_256_4_sum <- layer_256_3_sum_layer_256_3_sum_0_split_1
I0529 16:51:21.968104 21265 net.cpp:380] layer_256_4_sum -> layer_256_4_sum
I0529 16:51:21.968150 21265 net.cpp:122] Setting up layer_256_4_sum
I0529 16:51:21.968161 21265 net.cpp:129] Top shape: 30 256 14 14 (1505280)
I0529 16:51:21.968168 21265 net.cpp:137] Memory required for data: 2089329000
I0529 16:51:21.968173 21265 layer_factory.hpp:77] Creating layer layer_256_4_sum_layer_256_4_sum_0_split
I0529 16:51:21.968184 21265 net.cpp:84] Creating Layer layer_256_4_sum_layer_256_4_sum_0_split
I0529 16:51:21.968191 21265 net.cpp:406] layer_256_4_sum_layer_256_4_sum_0_split <- layer_256_4_sum
I0529 16:51:21.968204 21265 net.cpp:380] layer_256_4_sum_layer_256_4_sum_0_split -> layer_256_4_sum_layer_256_4_sum_0_split_0
I0529 16:51:21.968215 21265 net.cpp:380] layer_256_4_sum_layer_256_4_sum_0_split -> layer_256_4_sum_layer_256_4_sum_0_split_1
I0529 16:51:21.968272 21265 net.cpp:122] Setting up layer_256_4_sum_layer_256_4_sum_0_split
I0529 16:51:21.968283 21265 net.cpp:129] Top shape: 30 256 14 14 (1505280)
I0529 16:51:21.968291 21265 net.cpp:129] Top shape: 30 256 14 14 (1505280)
I0529 16:51:21.968298 21265 net.cpp:137] Memory required for data: 2101371240
I0529 16:51:21.968305 21265 layer_factory.hpp:77] Creating layer layer_256_5_bn1
I0529 16:51:21.968318 21265 net.cpp:84] Creating Layer layer_256_5_bn1
I0529 16:51:21.968325 21265 net.cpp:406] layer_256_5_bn1 <- layer_256_4_sum_layer_256_4_sum_0_split_0
I0529 16:51:21.968338 21265 net.cpp:380] layer_256_5_bn1 -> layer_256_5_bn1
I0529 16:51:21.968587 21265 net.cpp:122] Setting up layer_256_5_bn1
I0529 16:51:21.968598 21265 net.cpp:129] Top shape: 30 256 14 14 (1505280)
I0529 16:51:21.968605 21265 net.cpp:137] Memory required for data: 2107392360
I0529 16:51:21.968618 21265 layer_factory.hpp:77] Creating layer layer_256_5_scale1
I0529 16:51:21.968629 21265 net.cpp:84] Creating Layer layer_256_5_scale1
I0529 16:51:21.968637 21265 net.cpp:406] layer_256_5_scale1 <- layer_256_5_bn1
I0529 16:51:21.968649 21265 net.cpp:367] layer_256_5_scale1 -> layer_256_5_bn1 (in-place)
I0529 16:51:21.968714 21265 layer_factory.hpp:77] Creating layer layer_256_5_scale1
I0529 16:51:21.968855 21265 net.cpp:122] Setting up layer_256_5_scale1
I0529 16:51:21.968868 21265 net.cpp:129] Top shape: 30 256 14 14 (1505280)
I0529 16:51:21.968876 21265 net.cpp:137] Memory required for data: 2113413480
I0529 16:51:21.968888 21265 layer_factory.hpp:77] Creating layer layer_256_5_relu1
I0529 16:51:21.968899 21265 net.cpp:84] Creating Layer layer_256_5_relu1
I0529 16:51:21.968905 21265 net.cpp:406] layer_256_5_relu1 <- layer_256_5_bn1
I0529 16:51:21.968916 21265 net.cpp:367] layer_256_5_relu1 -> layer_256_5_bn1 (in-place)
I0529 16:51:21.969666 21265 net.cpp:122] Setting up layer_256_5_relu1
I0529 16:51:21.969681 21265 net.cpp:129] Top shape: 30 256 14 14 (1505280)
I0529 16:51:21.969688 21265 net.cpp:137] Memory required for data: 2119434600
I0529 16:51:21.969696 21265 layer_factory.hpp:77] Creating layer layer_256_5_conv1
I0529 16:51:21.969712 21265 net.cpp:84] Creating Layer layer_256_5_conv1
I0529 16:51:21.969719 21265 net.cpp:406] layer_256_5_conv1 <- layer_256_5_bn1
I0529 16:51:21.969730 21265 net.cpp:380] layer_256_5_conv1 -> layer_256_5_conv1
I0529 16:51:21.979327 21265 net.cpp:122] Setting up layer_256_5_conv1
I0529 16:51:21.979347 21265 net.cpp:129] Top shape: 30 256 14 14 (1505280)
I0529 16:51:21.979354 21265 net.cpp:137] Memory required for data: 2125455720
I0529 16:51:21.979365 21265 layer_factory.hpp:77] Creating layer layer_256_5_bn2
I0529 16:51:21.979378 21265 net.cpp:84] Creating Layer layer_256_5_bn2
I0529 16:51:21.979387 21265 net.cpp:406] layer_256_5_bn2 <- layer_256_5_conv1
I0529 16:51:21.979399 21265 net.cpp:367] layer_256_5_bn2 -> layer_256_5_conv1 (in-place)
I0529 16:51:21.979640 21265 net.cpp:122] Setting up layer_256_5_bn2
I0529 16:51:21.979651 21265 net.cpp:129] Top shape: 30 256 14 14 (1505280)
I0529 16:51:21.979657 21265 net.cpp:137] Memory required for data: 2131476840
I0529 16:51:21.979671 21265 layer_factory.hpp:77] Creating layer layer_256_5_scale2
I0529 16:51:21.979686 21265 net.cpp:84] Creating Layer layer_256_5_scale2
I0529 16:51:21.979693 21265 net.cpp:406] layer_256_5_scale2 <- layer_256_5_conv1
I0529 16:51:21.979703 21265 net.cpp:367] layer_256_5_scale2 -> layer_256_5_conv1 (in-place)
I0529 16:51:21.979764 21265 layer_factory.hpp:77] Creating layer layer_256_5_scale2
I0529 16:51:21.979907 21265 net.cpp:122] Setting up layer_256_5_scale2
I0529 16:51:21.979918 21265 net.cpp:129] Top shape: 30 256 14 14 (1505280)
I0529 16:51:21.979924 21265 net.cpp:137] Memory required for data: 2137497960
I0529 16:51:21.979935 21265 layer_factory.hpp:77] Creating layer layer_256_5_relu2
I0529 16:51:21.979948 21265 net.cpp:84] Creating Layer layer_256_5_relu2
I0529 16:51:21.979956 21265 net.cpp:406] layer_256_5_relu2 <- layer_256_5_conv1
I0529 16:51:21.979965 21265 net.cpp:367] layer_256_5_relu2 -> layer_256_5_conv1 (in-place)
I0529 16:51:21.980577 21265 net.cpp:122] Setting up layer_256_5_relu2
I0529 16:51:21.980589 21265 net.cpp:129] Top shape: 30 256 14 14 (1505280)
I0529 16:51:21.980597 21265 net.cpp:137] Memory required for data: 2143519080
I0529 16:51:21.980602 21265 layer_factory.hpp:77] Creating layer layer_256_5_conv2
I0529 16:51:21.980621 21265 net.cpp:84] Creating Layer layer_256_5_conv2
I0529 16:51:21.980628 21265 net.cpp:406] layer_256_5_conv2 <- layer_256_5_conv1
I0529 16:51:21.980641 21265 net.cpp:380] layer_256_5_conv2 -> layer_256_5_conv2
I0529 16:51:21.990463 21265 net.cpp:122] Setting up layer_256_5_conv2
I0529 16:51:21.990483 21265 net.cpp:129] Top shape: 30 256 14 14 (1505280)
I0529 16:51:21.990489 21265 net.cpp:137] Memory required for data: 2149540200
I0529 16:51:21.990509 21265 layer_factory.hpp:77] Creating layer layer_256_5_sum
I0529 16:51:21.990523 21265 net.cpp:84] Creating Layer layer_256_5_sum
I0529 16:51:21.990532 21265 net.cpp:406] layer_256_5_sum <- layer_256_5_conv2
I0529 16:51:21.990541 21265 net.cpp:406] layer_256_5_sum <- layer_256_4_sum_layer_256_4_sum_0_split_1
I0529 16:51:21.990555 21265 net.cpp:380] layer_256_5_sum -> layer_256_5_sum
I0529 16:51:21.990602 21265 net.cpp:122] Setting up layer_256_5_sum
I0529 16:51:21.990612 21265 net.cpp:129] Top shape: 30 256 14 14 (1505280)
I0529 16:51:21.990618 21265 net.cpp:137] Memory required for data: 2155561320
I0529 16:51:21.990624 21265 layer_factory.hpp:77] Creating layer layer_256_5_sum_layer_256_5_sum_0_split
I0529 16:51:21.990658 21265 net.cpp:84] Creating Layer layer_256_5_sum_layer_256_5_sum_0_split
I0529 16:51:21.990666 21265 net.cpp:406] layer_256_5_sum_layer_256_5_sum_0_split <- layer_256_5_sum
I0529 16:51:21.990676 21265 net.cpp:380] layer_256_5_sum_layer_256_5_sum_0_split -> layer_256_5_sum_layer_256_5_sum_0_split_0
I0529 16:51:21.990705 21265 net.cpp:380] layer_256_5_sum_layer_256_5_sum_0_split -> layer_256_5_sum_layer_256_5_sum_0_split_1
I0529 16:51:21.990761 21265 net.cpp:122] Setting up layer_256_5_sum_layer_256_5_sum_0_split
I0529 16:51:21.990772 21265 net.cpp:129] Top shape: 30 256 14 14 (1505280)
I0529 16:51:21.990780 21265 net.cpp:129] Top shape: 30 256 14 14 (1505280)
I0529 16:51:21.990787 21265 net.cpp:137] Memory required for data: 2167603560
I0529 16:51:21.990794 21265 layer_factory.hpp:77] Creating layer layer_256_6_bn1
I0529 16:51:21.990806 21265 net.cpp:84] Creating Layer layer_256_6_bn1
I0529 16:51:21.990814 21265 net.cpp:406] layer_256_6_bn1 <- layer_256_5_sum_layer_256_5_sum_0_split_0
I0529 16:51:21.990824 21265 net.cpp:380] layer_256_6_bn1 -> layer_256_6_bn1
I0529 16:51:21.991073 21265 net.cpp:122] Setting up layer_256_6_bn1
I0529 16:51:21.991086 21265 net.cpp:129] Top shape: 30 256 14 14 (1505280)
I0529 16:51:21.991091 21265 net.cpp:137] Memory required for data: 2173624680
I0529 16:51:21.991106 21265 layer_factory.hpp:77] Creating layer layer_256_6_scale1
I0529 16:51:21.991117 21265 net.cpp:84] Creating Layer layer_256_6_scale1
I0529 16:51:21.991125 21265 net.cpp:406] layer_256_6_scale1 <- layer_256_6_bn1
I0529 16:51:21.991137 21265 net.cpp:367] layer_256_6_scale1 -> layer_256_6_bn1 (in-place)
I0529 16:51:21.991202 21265 layer_factory.hpp:77] Creating layer layer_256_6_scale1
I0529 16:51:21.991348 21265 net.cpp:122] Setting up layer_256_6_scale1
I0529 16:51:21.991361 21265 net.cpp:129] Top shape: 30 256 14 14 (1505280)
I0529 16:51:21.991369 21265 net.cpp:137] Memory required for data: 2179645800
I0529 16:51:21.991381 21265 layer_factory.hpp:77] Creating layer layer_256_6_relu1
I0529 16:51:21.991391 21265 net.cpp:84] Creating Layer layer_256_6_relu1
I0529 16:51:21.991400 21265 net.cpp:406] layer_256_6_relu1 <- layer_256_6_bn1
I0529 16:51:21.991408 21265 net.cpp:367] layer_256_6_relu1 -> layer_256_6_bn1 (in-place)
I0529 16:51:21.991703 21265 net.cpp:122] Setting up layer_256_6_relu1
I0529 16:51:21.991714 21265 net.cpp:129] Top shape: 30 256 14 14 (1505280)
I0529 16:51:21.991720 21265 net.cpp:137] Memory required for data: 2185666920
I0529 16:51:21.991726 21265 layer_factory.hpp:77] Creating layer layer_256_6_conv1
I0529 16:51:21.991742 21265 net.cpp:84] Creating Layer layer_256_6_conv1
I0529 16:51:21.991750 21265 net.cpp:406] layer_256_6_conv1 <- layer_256_6_bn1
I0529 16:51:21.991762 21265 net.cpp:380] layer_256_6_conv1 -> layer_256_6_conv1
I0529 16:51:22.002420 21265 net.cpp:122] Setting up layer_256_6_conv1
I0529 16:51:22.002445 21265 net.cpp:129] Top shape: 30 256 14 14 (1505280)
I0529 16:51:22.002452 21265 net.cpp:137] Memory required for data: 2191688040
I0529 16:51:22.002475 21265 layer_factory.hpp:77] Creating layer layer_256_6_bn2
I0529 16:51:22.002491 21265 net.cpp:84] Creating Layer layer_256_6_bn2
I0529 16:51:22.002501 21265 net.cpp:406] layer_256_6_bn2 <- layer_256_6_conv1
I0529 16:51:22.002513 21265 net.cpp:367] layer_256_6_bn2 -> layer_256_6_conv1 (in-place)
I0529 16:51:22.002770 21265 net.cpp:122] Setting up layer_256_6_bn2
I0529 16:51:22.002782 21265 net.cpp:129] Top shape: 30 256 14 14 (1505280)
I0529 16:51:22.002787 21265 net.cpp:137] Memory required for data: 2197709160
I0529 16:51:22.002813 21265 layer_factory.hpp:77] Creating layer layer_256_6_scale2
I0529 16:51:22.002826 21265 net.cpp:84] Creating Layer layer_256_6_scale2
I0529 16:51:22.002835 21265 net.cpp:406] layer_256_6_scale2 <- layer_256_6_conv1
I0529 16:51:22.002848 21265 net.cpp:367] layer_256_6_scale2 -> layer_256_6_conv1 (in-place)
I0529 16:51:22.002913 21265 layer_factory.hpp:77] Creating layer layer_256_6_scale2
I0529 16:51:22.003093 21265 net.cpp:122] Setting up layer_256_6_scale2
I0529 16:51:22.003104 21265 net.cpp:129] Top shape: 30 256 14 14 (1505280)
I0529 16:51:22.003110 21265 net.cpp:137] Memory required for data: 2203730280
I0529 16:51:22.003131 21265 layer_factory.hpp:77] Creating layer layer_256_6_relu2
I0529 16:51:22.003144 21265 net.cpp:84] Creating Layer layer_256_6_relu2
I0529 16:51:22.003151 21265 net.cpp:406] layer_256_6_relu2 <- layer_256_6_conv1
I0529 16:51:22.003176 21265 net.cpp:367] layer_256_6_relu2 -> layer_256_6_conv1 (in-place)
I0529 16:51:22.003388 21265 net.cpp:122] Setting up layer_256_6_relu2
I0529 16:51:22.003401 21265 net.cpp:129] Top shape: 30 256 14 14 (1505280)
I0529 16:51:22.003407 21265 net.cpp:137] Memory required for data: 2209751400
I0529 16:51:22.003412 21265 layer_factory.hpp:77] Creating layer layer_256_6_conv2
I0529 16:51:22.003440 21265 net.cpp:84] Creating Layer layer_256_6_conv2
I0529 16:51:22.003448 21265 net.cpp:406] layer_256_6_conv2 <- layer_256_6_conv1
I0529 16:51:22.003461 21265 net.cpp:380] layer_256_6_conv2 -> layer_256_6_conv2
I0529 16:51:22.013097 21265 net.cpp:122] Setting up layer_256_6_conv2
I0529 16:51:22.013114 21265 net.cpp:129] Top shape: 30 256 14 14 (1505280)
I0529 16:51:22.013120 21265 net.cpp:137] Memory required for data: 2215772520
I0529 16:51:22.013141 21265 layer_factory.hpp:77] Creating layer layer_256_6_sum
I0529 16:51:22.013157 21265 net.cpp:84] Creating Layer layer_256_6_sum
I0529 16:51:22.013165 21265 net.cpp:406] layer_256_6_sum <- layer_256_6_conv2
I0529 16:51:22.013175 21265 net.cpp:406] layer_256_6_sum <- layer_256_5_sum_layer_256_5_sum_0_split_1
I0529 16:51:22.013186 21265 net.cpp:380] layer_256_6_sum -> layer_256_6_sum
I0529 16:51:22.013232 21265 net.cpp:122] Setting up layer_256_6_sum
I0529 16:51:22.013254 21265 net.cpp:129] Top shape: 30 256 14 14 (1505280)
I0529 16:51:22.013259 21265 net.cpp:137] Memory required for data: 2221793640
I0529 16:51:22.013265 21265 layer_factory.hpp:77] Creating layer layer_512_1_bn1
I0529 16:51:22.013278 21265 net.cpp:84] Creating Layer layer_512_1_bn1
I0529 16:51:22.013286 21265 net.cpp:406] layer_512_1_bn1 <- layer_256_6_sum
I0529 16:51:22.013306 21265 net.cpp:380] layer_512_1_bn1 -> layer_512_1_bn1
I0529 16:51:22.013571 21265 net.cpp:122] Setting up layer_512_1_bn1
I0529 16:51:22.013581 21265 net.cpp:129] Top shape: 30 256 14 14 (1505280)
I0529 16:51:22.013587 21265 net.cpp:137] Memory required for data: 2227814760
I0529 16:51:22.013612 21265 layer_factory.hpp:77] Creating layer layer_512_1_scale1
I0529 16:51:22.013623 21265 net.cpp:84] Creating Layer layer_512_1_scale1
I0529 16:51:22.013631 21265 net.cpp:406] layer_512_1_scale1 <- layer_512_1_bn1
I0529 16:51:22.013643 21265 net.cpp:367] layer_512_1_scale1 -> layer_512_1_bn1 (in-place)
I0529 16:51:22.013718 21265 layer_factory.hpp:77] Creating layer layer_512_1_scale1
I0529 16:51:22.013890 21265 net.cpp:122] Setting up layer_512_1_scale1
I0529 16:51:22.013900 21265 net.cpp:129] Top shape: 30 256 14 14 (1505280)
I0529 16:51:22.013906 21265 net.cpp:137] Memory required for data: 2233835880
I0529 16:51:22.013927 21265 layer_factory.hpp:77] Creating layer layer_512_1_relu1
I0529 16:51:22.013938 21265 net.cpp:84] Creating Layer layer_512_1_relu1
I0529 16:51:22.013945 21265 net.cpp:406] layer_512_1_relu1 <- layer_512_1_bn1
I0529 16:51:22.013954 21265 net.cpp:367] layer_512_1_relu1 -> layer_512_1_bn1 (in-place)
I0529 16:51:22.014143 21265 net.cpp:122] Setting up layer_512_1_relu1
I0529 16:51:22.014155 21265 net.cpp:129] Top shape: 30 256 14 14 (1505280)
I0529 16:51:22.014161 21265 net.cpp:137] Memory required for data: 2239857000
I0529 16:51:22.014168 21265 layer_factory.hpp:77] Creating layer layer_512_1_bn1_layer_512_1_relu1_0_split
I0529 16:51:22.014188 21265 net.cpp:84] Creating Layer layer_512_1_bn1_layer_512_1_relu1_0_split
I0529 16:51:22.014195 21265 net.cpp:406] layer_512_1_bn1_layer_512_1_relu1_0_split <- layer_512_1_bn1
I0529 16:51:22.014209 21265 net.cpp:380] layer_512_1_bn1_layer_512_1_relu1_0_split -> layer_512_1_bn1_layer_512_1_relu1_0_split_0
I0529 16:51:22.014221 21265 net.cpp:380] layer_512_1_bn1_layer_512_1_relu1_0_split -> layer_512_1_bn1_layer_512_1_relu1_0_split_1
I0529 16:51:22.014282 21265 net.cpp:122] Setting up layer_512_1_bn1_layer_512_1_relu1_0_split
I0529 16:51:22.014293 21265 net.cpp:129] Top shape: 30 256 14 14 (1505280)
I0529 16:51:22.014302 21265 net.cpp:129] Top shape: 30 256 14 14 (1505280)
I0529 16:51:22.014308 21265 net.cpp:137] Memory required for data: 2251899240
I0529 16:51:22.014324 21265 layer_factory.hpp:77] Creating layer layer_512_1_conv1
I0529 16:51:22.014341 21265 net.cpp:84] Creating Layer layer_512_1_conv1
I0529 16:51:22.014349 21265 net.cpp:406] layer_512_1_conv1 <- layer_512_1_bn1_layer_512_1_relu1_0_split_0
I0529 16:51:22.014363 21265 net.cpp:380] layer_512_1_conv1 -> layer_512_1_conv1
I0529 16:51:22.033028 21265 net.cpp:122] Setting up layer_512_1_conv1
I0529 16:51:22.033057 21265 net.cpp:129] Top shape: 30 512 7 7 (752640)
I0529 16:51:22.033064 21265 net.cpp:137] Memory required for data: 2254909800
I0529 16:51:22.033077 21265 layer_factory.hpp:77] Creating layer layer_512_1_bn2
I0529 16:51:22.033094 21265 net.cpp:84] Creating Layer layer_512_1_bn2
I0529 16:51:22.033103 21265 net.cpp:406] layer_512_1_bn2 <- layer_512_1_conv1
I0529 16:51:22.033120 21265 net.cpp:367] layer_512_1_bn2 -> layer_512_1_conv1 (in-place)
I0529 16:51:22.033391 21265 net.cpp:122] Setting up layer_512_1_bn2
I0529 16:51:22.033403 21265 net.cpp:129] Top shape: 30 512 7 7 (752640)
I0529 16:51:22.033409 21265 net.cpp:137] Memory required for data: 2257920360
I0529 16:51:22.033423 21265 layer_factory.hpp:77] Creating layer layer_512_1_scale2
I0529 16:51:22.033437 21265 net.cpp:84] Creating Layer layer_512_1_scale2
I0529 16:51:22.033447 21265 net.cpp:406] layer_512_1_scale2 <- layer_512_1_conv1
I0529 16:51:22.033457 21265 net.cpp:367] layer_512_1_scale2 -> layer_512_1_conv1 (in-place)
I0529 16:51:22.033532 21265 layer_factory.hpp:77] Creating layer layer_512_1_scale2
I0529 16:51:22.033694 21265 net.cpp:122] Setting up layer_512_1_scale2
I0529 16:51:22.033705 21265 net.cpp:129] Top shape: 30 512 7 7 (752640)
I0529 16:51:22.033711 21265 net.cpp:137] Memory required for data: 2260930920
I0529 16:51:22.033722 21265 layer_factory.hpp:77] Creating layer layer_512_1_relu2
I0529 16:51:22.033736 21265 net.cpp:84] Creating Layer layer_512_1_relu2
I0529 16:51:22.033745 21265 net.cpp:406] layer_512_1_relu2 <- layer_512_1_conv1
I0529 16:51:22.033753 21265 net.cpp:367] layer_512_1_relu2 -> layer_512_1_conv1 (in-place)
I0529 16:51:22.034932 21265 net.cpp:122] Setting up layer_512_1_relu2
I0529 16:51:22.034945 21265 net.cpp:129] Top shape: 30 512 7 7 (752640)
I0529 16:51:22.034950 21265 net.cpp:137] Memory required for data: 2263941480
I0529 16:51:22.034957 21265 layer_factory.hpp:77] Creating layer layer_512_1_conv2
I0529 16:51:22.034974 21265 net.cpp:84] Creating Layer layer_512_1_conv2
I0529 16:51:22.034981 21265 net.cpp:406] layer_512_1_conv2 <- layer_512_1_conv1
I0529 16:51:22.034994 21265 net.cpp:380] layer_512_1_conv2 -> layer_512_1_conv2
I0529 16:51:22.062849 21265 net.cpp:122] Setting up layer_512_1_conv2
I0529 16:51:22.062885 21265 net.cpp:129] Top shape: 30 512 7 7 (752640)
I0529 16:51:22.062891 21265 net.cpp:137] Memory required for data: 2266952040
I0529 16:51:22.062904 21265 layer_factory.hpp:77] Creating layer layer_512_1_conv_expand
I0529 16:51:22.062927 21265 net.cpp:84] Creating Layer layer_512_1_conv_expand
I0529 16:51:22.062937 21265 net.cpp:406] layer_512_1_conv_expand <- layer_512_1_bn1_layer_512_1_relu1_0_split_1
I0529 16:51:22.062953 21265 net.cpp:380] layer_512_1_conv_expand -> layer_512_1_conv_expand
I0529 16:51:22.065981 21265 net.cpp:122] Setting up layer_512_1_conv_expand
I0529 16:51:22.066023 21265 net.cpp:129] Top shape: 30 512 7 7 (752640)
I0529 16:51:22.066030 21265 net.cpp:137] Memory required for data: 2269962600
I0529 16:51:22.066043 21265 layer_factory.hpp:77] Creating layer layer_512_1_sum
I0529 16:51:22.066058 21265 net.cpp:84] Creating Layer layer_512_1_sum
I0529 16:51:22.066069 21265 net.cpp:406] layer_512_1_sum <- layer_512_1_conv_expand
I0529 16:51:22.066082 21265 net.cpp:406] layer_512_1_sum <- layer_512_1_conv2
I0529 16:51:22.066092 21265 net.cpp:380] layer_512_1_sum -> layer_512_1_sum
I0529 16:51:22.066143 21265 net.cpp:122] Setting up layer_512_1_sum
I0529 16:51:22.066154 21265 net.cpp:129] Top shape: 30 512 7 7 (752640)
I0529 16:51:22.066160 21265 net.cpp:137] Memory required for data: 2272973160
I0529 16:51:22.066166 21265 layer_factory.hpp:77] Creating layer layer_512_1_sum_layer_512_1_sum_0_split
I0529 16:51:22.066190 21265 net.cpp:84] Creating Layer layer_512_1_sum_layer_512_1_sum_0_split
I0529 16:51:22.066200 21265 net.cpp:406] layer_512_1_sum_layer_512_1_sum_0_split <- layer_512_1_sum
I0529 16:51:22.066210 21265 net.cpp:380] layer_512_1_sum_layer_512_1_sum_0_split -> layer_512_1_sum_layer_512_1_sum_0_split_0
I0529 16:51:22.066226 21265 net.cpp:380] layer_512_1_sum_layer_512_1_sum_0_split -> layer_512_1_sum_layer_512_1_sum_0_split_1
I0529 16:51:22.066283 21265 net.cpp:122] Setting up layer_512_1_sum_layer_512_1_sum_0_split
I0529 16:51:22.066294 21265 net.cpp:129] Top shape: 30 512 7 7 (752640)
I0529 16:51:22.066303 21265 net.cpp:129] Top shape: 30 512 7 7 (752640)
I0529 16:51:22.066309 21265 net.cpp:137] Memory required for data: 2278994280
I0529 16:51:22.066316 21265 layer_factory.hpp:77] Creating layer layer_512_2_bn1
I0529 16:51:22.066331 21265 net.cpp:84] Creating Layer layer_512_2_bn1
I0529 16:51:22.066339 21265 net.cpp:406] layer_512_2_bn1 <- layer_512_1_sum_layer_512_1_sum_0_split_0
I0529 16:51:22.066349 21265 net.cpp:380] layer_512_2_bn1 -> layer_512_2_bn1
I0529 16:51:22.066627 21265 net.cpp:122] Setting up layer_512_2_bn1
I0529 16:51:22.066639 21265 net.cpp:129] Top shape: 30 512 7 7 (752640)
I0529 16:51:22.066645 21265 net.cpp:137] Memory required for data: 2282004840
I0529 16:51:22.066660 21265 layer_factory.hpp:77] Creating layer layer_512_2_scale1
I0529 16:51:22.066673 21265 net.cpp:84] Creating Layer layer_512_2_scale1
I0529 16:51:22.066681 21265 net.cpp:406] layer_512_2_scale1 <- layer_512_2_bn1
I0529 16:51:22.066694 21265 net.cpp:367] layer_512_2_scale1 -> layer_512_2_bn1 (in-place)
I0529 16:51:22.066764 21265 layer_factory.hpp:77] Creating layer layer_512_2_scale1
I0529 16:51:22.066932 21265 net.cpp:122] Setting up layer_512_2_scale1
I0529 16:51:22.066947 21265 net.cpp:129] Top shape: 30 512 7 7 (752640)
I0529 16:51:22.066953 21265 net.cpp:137] Memory required for data: 2285015400
I0529 16:51:22.066967 21265 layer_factory.hpp:77] Creating layer layer_512_2_relu1
I0529 16:51:22.066979 21265 net.cpp:84] Creating Layer layer_512_2_relu1
I0529 16:51:22.066988 21265 net.cpp:406] layer_512_2_relu1 <- layer_512_2_bn1
I0529 16:51:22.067001 21265 net.cpp:367] layer_512_2_relu1 -> layer_512_2_bn1 (in-place)
I0529 16:51:22.068079 21265 net.cpp:122] Setting up layer_512_2_relu1
I0529 16:51:22.068119 21265 net.cpp:129] Top shape: 30 512 7 7 (752640)
I0529 16:51:22.068125 21265 net.cpp:137] Memory required for data: 2288025960
I0529 16:51:22.068133 21265 layer_factory.hpp:77] Creating layer layer_512_2_conv1
I0529 16:51:22.068159 21265 net.cpp:84] Creating Layer layer_512_2_conv1
I0529 16:51:22.068169 21265 net.cpp:406] layer_512_2_conv1 <- layer_512_2_bn1
I0529 16:51:22.068188 21265 net.cpp:380] layer_512_2_conv1 -> layer_512_2_conv1
I0529 16:51:22.099074 21265 net.cpp:122] Setting up layer_512_2_conv1
I0529 16:51:22.099108 21265 net.cpp:129] Top shape: 30 512 7 7 (752640)
I0529 16:51:22.099115 21265 net.cpp:137] Memory required for data: 2291036520
I0529 16:51:22.099128 21265 layer_factory.hpp:77] Creating layer layer_512_2_bn2
I0529 16:51:22.099143 21265 net.cpp:84] Creating Layer layer_512_2_bn2
I0529 16:51:22.099154 21265 net.cpp:406] layer_512_2_bn2 <- layer_512_2_conv1
I0529 16:51:22.099169 21265 net.cpp:367] layer_512_2_bn2 -> layer_512_2_conv1 (in-place)
I0529 16:51:22.099436 21265 net.cpp:122] Setting up layer_512_2_bn2
I0529 16:51:22.099447 21265 net.cpp:129] Top shape: 30 512 7 7 (752640)
I0529 16:51:22.099453 21265 net.cpp:137] Memory required for data: 2294047080
I0529 16:51:22.099467 21265 layer_factory.hpp:77] Creating layer layer_512_2_scale2
I0529 16:51:22.099481 21265 net.cpp:84] Creating Layer layer_512_2_scale2
I0529 16:51:22.099490 21265 net.cpp:406] layer_512_2_scale2 <- layer_512_2_conv1
I0529 16:51:22.099501 21265 net.cpp:367] layer_512_2_scale2 -> layer_512_2_conv1 (in-place)
I0529 16:51:22.099566 21265 layer_factory.hpp:77] Creating layer layer_512_2_scale2
I0529 16:51:22.099725 21265 net.cpp:122] Setting up layer_512_2_scale2
I0529 16:51:22.099750 21265 net.cpp:129] Top shape: 30 512 7 7 (752640)
I0529 16:51:22.099757 21265 net.cpp:137] Memory required for data: 2297057640
I0529 16:51:22.099768 21265 layer_factory.hpp:77] Creating layer layer_512_2_relu2
I0529 16:51:22.099781 21265 net.cpp:84] Creating Layer layer_512_2_relu2
I0529 16:51:22.099789 21265 net.cpp:406] layer_512_2_relu2 <- layer_512_2_conv1
I0529 16:51:22.099798 21265 net.cpp:367] layer_512_2_relu2 -> layer_512_2_conv1 (in-place)
I0529 16:51:22.102133 21265 net.cpp:122] Setting up layer_512_2_relu2
I0529 16:51:22.102146 21265 net.cpp:129] Top shape: 30 512 7 7 (752640)
I0529 16:51:22.102152 21265 net.cpp:137] Memory required for data: 2300068200
I0529 16:51:22.102159 21265 layer_factory.hpp:77] Creating layer layer_512_2_conv2
I0529 16:51:22.102177 21265 net.cpp:84] Creating Layer layer_512_2_conv2
I0529 16:51:22.102188 21265 net.cpp:406] layer_512_2_conv2 <- layer_512_2_conv1
I0529 16:51:22.102202 21265 net.cpp:380] layer_512_2_conv2 -> layer_512_2_conv2
I0529 16:51:22.132609 21265 net.cpp:122] Setting up layer_512_2_conv2
I0529 16:51:22.132642 21265 net.cpp:129] Top shape: 30 512 7 7 (752640)
I0529 16:51:22.132649 21265 net.cpp:137] Memory required for data: 2303078760
I0529 16:51:22.132663 21265 layer_factory.hpp:77] Creating layer layer_512_2_sum
I0529 16:51:22.132679 21265 net.cpp:84] Creating Layer layer_512_2_sum
I0529 16:51:22.132690 21265 net.cpp:406] layer_512_2_sum <- layer_512_2_conv2
I0529 16:51:22.132701 21265 net.cpp:406] layer_512_2_sum <- layer_512_1_sum_layer_512_1_sum_0_split_1
I0529 16:51:22.132714 21265 net.cpp:380] layer_512_2_sum -> layer_512_2_sum
I0529 16:51:22.132763 21265 net.cpp:122] Setting up layer_512_2_sum
I0529 16:51:22.132774 21265 net.cpp:129] Top shape: 30 512 7 7 (752640)
I0529 16:51:22.132781 21265 net.cpp:137] Memory required for data: 2306089320
I0529 16:51:22.132787 21265 layer_factory.hpp:77] Creating layer layer_512_2_sum_layer_512_2_sum_0_split
I0529 16:51:22.132798 21265 net.cpp:84] Creating Layer layer_512_2_sum_layer_512_2_sum_0_split
I0529 16:51:22.132807 21265 net.cpp:406] layer_512_2_sum_layer_512_2_sum_0_split <- layer_512_2_sum
I0529 16:51:22.132818 21265 net.cpp:380] layer_512_2_sum_layer_512_2_sum_0_split -> layer_512_2_sum_layer_512_2_sum_0_split_0
I0529 16:51:22.132832 21265 net.cpp:380] layer_512_2_sum_layer_512_2_sum_0_split -> layer_512_2_sum_layer_512_2_sum_0_split_1
I0529 16:51:22.132890 21265 net.cpp:122] Setting up layer_512_2_sum_layer_512_2_sum_0_split
I0529 16:51:22.132901 21265 net.cpp:129] Top shape: 30 512 7 7 (752640)
I0529 16:51:22.132910 21265 net.cpp:129] Top shape: 30 512 7 7 (752640)
I0529 16:51:22.132917 21265 net.cpp:137] Memory required for data: 2312110440
I0529 16:51:22.132928 21265 layer_factory.hpp:77] Creating layer layer_512_3_bn1
I0529 16:51:22.132942 21265 net.cpp:84] Creating Layer layer_512_3_bn1
I0529 16:51:22.132951 21265 net.cpp:406] layer_512_3_bn1 <- layer_512_2_sum_layer_512_2_sum_0_split_0
I0529 16:51:22.132962 21265 net.cpp:380] layer_512_3_bn1 -> layer_512_3_bn1
I0529 16:51:22.133237 21265 net.cpp:122] Setting up layer_512_3_bn1
I0529 16:51:22.133249 21265 net.cpp:129] Top shape: 30 512 7 7 (752640)
I0529 16:51:22.133255 21265 net.cpp:137] Memory required for data: 2315121000
I0529 16:51:22.133270 21265 layer_factory.hpp:77] Creating layer layer_512_3_scale1
I0529 16:51:22.133281 21265 net.cpp:84] Creating Layer layer_512_3_scale1
I0529 16:51:22.133289 21265 net.cpp:406] layer_512_3_scale1 <- layer_512_3_bn1
I0529 16:51:22.133301 21265 net.cpp:367] layer_512_3_scale1 -> layer_512_3_bn1 (in-place)
I0529 16:51:22.133368 21265 layer_factory.hpp:77] Creating layer layer_512_3_scale1
I0529 16:51:22.133527 21265 net.cpp:122] Setting up layer_512_3_scale1
I0529 16:51:22.133538 21265 net.cpp:129] Top shape: 30 512 7 7 (752640)
I0529 16:51:22.133543 21265 net.cpp:137] Memory required for data: 2318131560
I0529 16:51:22.133554 21265 layer_factory.hpp:77] Creating layer layer_512_3_relu1
I0529 16:51:22.133566 21265 net.cpp:84] Creating Layer layer_512_3_relu1
I0529 16:51:22.133574 21265 net.cpp:406] layer_512_3_relu1 <- layer_512_3_bn1
I0529 16:51:22.133599 21265 net.cpp:367] layer_512_3_relu1 -> layer_512_3_bn1 (in-place)
I0529 16:51:22.134624 21265 net.cpp:122] Setting up layer_512_3_relu1
I0529 16:51:22.134636 21265 net.cpp:129] Top shape: 30 512 7 7 (752640)
I0529 16:51:22.134642 21265 net.cpp:137] Memory required for data: 2321142120
I0529 16:51:22.134649 21265 layer_factory.hpp:77] Creating layer layer_512_3_conv1
I0529 16:51:22.134665 21265 net.cpp:84] Creating Layer layer_512_3_conv1
I0529 16:51:22.134672 21265 net.cpp:406] layer_512_3_conv1 <- layer_512_3_bn1
I0529 16:51:22.134685 21265 net.cpp:380] layer_512_3_conv1 -> layer_512_3_conv1
I0529 16:51:22.162508 21265 net.cpp:122] Setting up layer_512_3_conv1
I0529 16:51:22.162542 21265 net.cpp:129] Top shape: 30 512 7 7 (752640)
I0529 16:51:22.162549 21265 net.cpp:137] Memory required for data: 2324152680
I0529 16:51:22.162562 21265 layer_factory.hpp:77] Creating layer layer_512_3_bn2
I0529 16:51:22.162586 21265 net.cpp:84] Creating Layer layer_512_3_bn2
I0529 16:51:22.162600 21265 net.cpp:406] layer_512_3_bn2 <- layer_512_3_conv1
I0529 16:51:22.162614 21265 net.cpp:367] layer_512_3_bn2 -> layer_512_3_conv1 (in-place)
I0529 16:51:22.162894 21265 net.cpp:122] Setting up layer_512_3_bn2
I0529 16:51:22.162905 21265 net.cpp:129] Top shape: 30 512 7 7 (752640)
I0529 16:51:22.162911 21265 net.cpp:137] Memory required for data: 2327163240
I0529 16:51:22.162935 21265 layer_factory.hpp:77] Creating layer layer_512_3_scale2
I0529 16:51:22.162950 21265 net.cpp:84] Creating Layer layer_512_3_scale2
I0529 16:51:22.162958 21265 net.cpp:406] layer_512_3_scale2 <- layer_512_3_conv1
I0529 16:51:22.162972 21265 net.cpp:367] layer_512_3_scale2 -> layer_512_3_conv1 (in-place)
I0529 16:51:22.163048 21265 layer_factory.hpp:77] Creating layer layer_512_3_scale2
I0529 16:51:22.163245 21265 net.cpp:122] Setting up layer_512_3_scale2
I0529 16:51:22.163269 21265 net.cpp:129] Top shape: 30 512 7 7 (752640)
I0529 16:51:22.163277 21265 net.cpp:137] Memory required for data: 2330173800
I0529 16:51:22.163290 21265 layer_factory.hpp:77] Creating layer layer_512_3_relu2
I0529 16:51:22.163300 21265 net.cpp:84] Creating Layer layer_512_3_relu2
I0529 16:51:22.163308 21265 net.cpp:406] layer_512_3_relu2 <- layer_512_3_conv1
I0529 16:51:22.163328 21265 net.cpp:367] layer_512_3_relu2 -> layer_512_3_conv1 (in-place)
I0529 16:51:22.163904 21265 net.cpp:122] Setting up layer_512_3_relu2
I0529 16:51:22.163915 21265 net.cpp:129] Top shape: 30 512 7 7 (752640)
I0529 16:51:22.163921 21265 net.cpp:137] Memory required for data: 2333184360
I0529 16:51:22.163938 21265 layer_factory.hpp:77] Creating layer layer_512_3_conv2
I0529 16:51:22.163956 21265 net.cpp:84] Creating Layer layer_512_3_conv2
I0529 16:51:22.163964 21265 net.cpp:406] layer_512_3_conv2 <- layer_512_3_conv1
I0529 16:51:22.163977 21265 net.cpp:380] layer_512_3_conv2 -> layer_512_3_conv2
I0529 16:51:22.194497 21265 net.cpp:122] Setting up layer_512_3_conv2
I0529 16:51:22.194528 21265 net.cpp:129] Top shape: 30 512 7 7 (752640)
I0529 16:51:22.194535 21265 net.cpp:137] Memory required for data: 2336194920
I0529 16:51:22.194547 21265 layer_factory.hpp:77] Creating layer layer_512_3_sum
I0529 16:51:22.194574 21265 net.cpp:84] Creating Layer layer_512_3_sum
I0529 16:51:22.194586 21265 net.cpp:406] layer_512_3_sum <- layer_512_3_conv2
I0529 16:51:22.194597 21265 net.cpp:406] layer_512_3_sum <- layer_512_2_sum_layer_512_2_sum_0_split_1
I0529 16:51:22.194608 21265 net.cpp:380] layer_512_3_sum -> layer_512_3_sum
I0529 16:51:22.194667 21265 net.cpp:122] Setting up layer_512_3_sum
I0529 16:51:22.194679 21265 net.cpp:129] Top shape: 30 512 7 7 (752640)
I0529 16:51:22.194685 21265 net.cpp:137] Memory required for data: 2339205480
I0529 16:51:22.194691 21265 layer_factory.hpp:77] Creating layer last_bn
I0529 16:51:22.194705 21265 net.cpp:84] Creating Layer last_bn
I0529 16:51:22.194712 21265 net.cpp:406] last_bn <- layer_512_3_sum
I0529 16:51:22.194731 21265 net.cpp:367] last_bn -> layer_512_3_sum (in-place)
I0529 16:51:22.195013 21265 net.cpp:122] Setting up last_bn
I0529 16:51:22.195034 21265 net.cpp:129] Top shape: 30 512 7 7 (752640)
I0529 16:51:22.195039 21265 net.cpp:137] Memory required for data: 2342216040
I0529 16:51:22.195065 21265 layer_factory.hpp:77] Creating layer last_scale
I0529 16:51:22.195078 21265 net.cpp:84] Creating Layer last_scale
I0529 16:51:22.195086 21265 net.cpp:406] last_scale <- layer_512_3_sum
I0529 16:51:22.195096 21265 net.cpp:367] last_scale -> layer_512_3_sum (in-place)
I0529 16:51:22.195163 21265 layer_factory.hpp:77] Creating layer last_scale
I0529 16:51:22.195324 21265 net.cpp:122] Setting up last_scale
I0529 16:51:22.195335 21265 net.cpp:129] Top shape: 30 512 7 7 (752640)
I0529 16:51:22.195341 21265 net.cpp:137] Memory required for data: 2345226600
I0529 16:51:22.195353 21265 layer_factory.hpp:77] Creating layer last_relu
I0529 16:51:22.195367 21265 net.cpp:84] Creating Layer last_relu
I0529 16:51:22.195375 21265 net.cpp:406] last_relu <- layer_512_3_sum
I0529 16:51:22.195384 21265 net.cpp:367] last_relu -> layer_512_3_sum (in-place)
I0529 16:51:22.196516 21265 net.cpp:122] Setting up last_relu
I0529 16:51:22.196529 21265 net.cpp:129] Top shape: 30 512 7 7 (752640)
I0529 16:51:22.196535 21265 net.cpp:137] Memory required for data: 2348237160
I0529 16:51:22.196542 21265 layer_factory.hpp:77] Creating layer global_pool
I0529 16:51:22.196552 21265 net.cpp:84] Creating Layer global_pool
I0529 16:51:22.196560 21265 net.cpp:406] global_pool <- layer_512_3_sum
I0529 16:51:22.196573 21265 net.cpp:380] global_pool -> global_pool
I0529 16:51:22.196774 21265 net.cpp:122] Setting up global_pool
I0529 16:51:22.196785 21265 net.cpp:129] Top shape: 30 512 1 1 (15360)
I0529 16:51:22.196791 21265 net.cpp:137] Memory required for data: 2348298600
I0529 16:51:22.196797 21265 layer_factory.hpp:77] Creating layer score
I0529 16:51:22.196810 21265 net.cpp:84] Creating Layer score
I0529 16:51:22.196817 21265 net.cpp:406] score <- global_pool
I0529 16:51:22.196830 21265 net.cpp:380] score -> score
I0529 16:51:22.197012 21265 net.cpp:122] Setting up score
I0529 16:51:22.197023 21265 net.cpp:129] Top shape: 30 8 (240)
I0529 16:51:22.197029 21265 net.cpp:137] Memory required for data: 2348299560
I0529 16:51:22.197041 21265 layer_factory.hpp:77] Creating layer score_score_0_split
I0529 16:51:22.197052 21265 net.cpp:84] Creating Layer score_score_0_split
I0529 16:51:22.197059 21265 net.cpp:406] score_score_0_split <- score
I0529 16:51:22.197069 21265 net.cpp:380] score_score_0_split -> score_score_0_split_0
I0529 16:51:22.197085 21265 net.cpp:380] score_score_0_split -> score_score_0_split_1
I0529 16:51:22.197145 21265 net.cpp:122] Setting up score_score_0_split
I0529 16:51:22.197155 21265 net.cpp:129] Top shape: 30 8 (240)
I0529 16:51:22.197163 21265 net.cpp:129] Top shape: 30 8 (240)
I0529 16:51:22.197168 21265 net.cpp:137] Memory required for data: 2348301480
I0529 16:51:22.197175 21265 layer_factory.hpp:77] Creating layer loss
I0529 16:51:22.197187 21265 net.cpp:84] Creating Layer loss
I0529 16:51:22.197196 21265 net.cpp:406] loss <- score_score_0_split_0
I0529 16:51:22.197204 21265 net.cpp:406] loss <- label_data_1_split_0
I0529 16:51:22.197216 21265 net.cpp:380] loss -> loss
…
