…
I0522 10:20:04.282061 32753 net.cpp:51] Initializing net from parameters: 
name: "CaffeNet"
state {
  phase: TRAIN
  level: 0
  stage: ""
}
layer {
  name: "data"
  type: "Data"
  top: "data"
  top: "label"
  include {
    phase: TRAIN
  }
  transform_param {
    mirror: true
    crop_size: 227
    mean_file: "/home/k/PycharmProjects/AgeGenderDeepLearning-master/Folds/lmdb/Test_fold_is_1/mean.binaryproto"
  }
  data_param {
    source: "/home/k/PycharmProjects/AgeGenderDeepLearning-master/Folds/lmdb/Test_fold_is_1/gender_train_lmdb"
    batch_size: 50
    backend: LMDB
  }
}
layer {
  name: "conv1"
  type: "Convolution"
  bottom: "data"
  top: "conv1"
  param {
    lr_mult: 1
    decay_mult: 1
  }
  param {
    lr_mult: 2
    decay_mult: 0
  }
  convolution_param {
    num_output: 96
    kernel_size: 7
    stride: 4
    weight_filler {
      type: "gaussian"
      std: 0.01
    }
    bias_filler {
      type: "constant"
      value: 0
    }
  }
}
layer {
  name: "relu1"
  type: "ReLU"
  bottom: "conv1"
  top: "conv1"
}
layer {
  name: "pool1"
  type: "Pooling"
  bottom: "conv1"
  top: "pool1"
  pooling_param {
    pool: MAX
    kernel_size: 3
    stride: 2
  }
}
layer {
  name: "norm1"
  type: "LRN"
  bottom: "pool1"
  top: "norm1"
  lrn_param {
    local_size: 5
    alpha: 0.0001
    beta: 0.75
  }
}
layer {
  name: "conv2"
  type: "Convolution"
  bottom: "norm1"
  top: "conv2"
  param {
    lr_mult: 1
    decay_mult: 1
  }
  param {
    lr_mult: 2
    decay_mult: 0
  }
  convolution_param {
    num_output: 256
    pad: 2
    kernel_size: 5
    weight_filler {
      type: "gaussian"
      std: 0.01
    }
    bias_filler {
      type: "constant"
      value: 1
    }
  }
}
layer {
  name: "relu2"
  type: "ReLU"
  bottom: "conv2"
  top: "conv2"
}
layer {
  name: "pool2"
  type: "Pooling"
  bottom: "conv2"
  top: "pool2"
  pooling_param {
    pool: MAX
    kernel_size: 3
    stride: 2
  }
}
layer {
  name: "norm2"
  type: "LRN"
  bottom: "pool2"
  top: "norm2"
  lrn_param {
    local_size: 5
    alpha: 0.0001
    beta: 0.75
  }
}
layer {
  name: "conv3"
  type: "Convolution"
  bottom: "norm2"
  top: "conv3"
  param {
    lr_mult: 1
    decay_mult: 1
  }
  param {
    lr_mult: 2
    decay_mult: 0
  }
  convolution_param {
    num_output: 384
    pad: 1
    kernel_size: 3
    weight_filler {
      type: "gaussian"
      std: 0.01
    }
    bias_filler {
      type: "constant"
      value: 0
    }
  }
}
layer {
  name: "relu3"
  type: "ReLU"
  bottom: "conv3"
  top: "conv3"
}
layer {
  name: "pool5"
  type: "Pooling"
  bottom: "conv3"
  top: "pool5"
  pooling_param {
    pool: MAX
    kernel_size: 3
    stride: 2
  }
}
layer {
  name: "fc6"
  type: "InnerProduct"
  bottom: "pool5"
  top: "fc6"
  param {
    lr_mult: 1
    decay_mult: 1
  }
  param {
    lr_mult: 2
    decay_mult: 0
  }
  inner_product_param {
    num_output: 512
    weight_filler {
      type: "gaussian"
      std: 0.005
    }
    bias_filler {
      type: "constant"
      value: 1
    }
  }
}
layer {
  name: "relu6"
  type: "ReLU"
  bottom: "fc6"
  top: "fc6"
}
layer {
  name: "drop6"
  type: "Dropout"
  bottom: "fc6"
  top: "fc6"
  dropout_param {
    dropout_ratio: 0.5
  }
}
layer {
  name: "fc7"
  type: "InnerProduct"
  bottom: "fc6"
  top: "fc7"
  param {
    lr_mult: 1
    decay_mult: 1
  }
  param {
    lr_mult: 2
    decay_mult: 0
  }
  inner_product_param {
    num_output: 512
    weight_filler {
      type: "gaussian"
      std: 0.005
    }
    bias_filler {
      type: "constant"
      value: 1
    }
  }
}
layer {
  name: "relu7"
  type: "ReLU"
  bottom: "fc7"
  top: "fc7"
}
layer {
  name: "drop7"
  type: "Dropout"
  bottom: "fc7"
  top: "fc7"
  dropout_param {
    dropout_ratio: 0.5
  }
}
layer {
  name: "fc8"
  type: "InnerProduct"
  bottom: "fc7"
  top: "fc8"
  param {
    lr_mult: 10
    decay_mult: 1
  }
  param {
    lr_mult: 20
    decay_mult: 0
  }
  inner_product_param {
    num_output: 2
    weight_filler {
      type: "gaussian"
      std: 0.01
    }
    bias_filler {
      type: "constant"
      value: 0
    }
  }
}
layer {
  name: "loss"
  type: "SoftmaxWithLoss"
  bottom: "fc8"
  bottom: "label"
  top: "loss"
}
I0522 10:20:04.282153 32753 layer_factory.hpp:77] Creating layer data
I0522 10:20:04.306123 32753 db_lmdb.cpp:35] Opened lmdb /home/k/PycharmProjects/AgeGenderDeepLearning-master/Folds/lmdb/Test_fold_is_1/gender_train_lmdb
I0522 10:20:04.322896 32753 net.cpp:84] Creating Layer data
I0522 10:20:04.322918 32753 net.cpp:380] data -> data
I0522 10:20:04.322937 32753 net.cpp:380] data -> label
I0522 10:20:04.322950 32753 data_transformer.cpp:25] Loading mean file from: /home/k/PycharmProjects/AgeGenderDeepLearning-master/Folds/lmdb/Test_fold_is_1/mean.binaryproto
I0522 10:20:04.333230 32753 data_layer.cpp:45] output data size: 50,3,227,227
I0522 10:20:04.411085 32753 net.cpp:122] Setting up data
I0522 10:20:04.411119 32753 net.cpp:129] Top shape: 50 3 227 227 (7729350)
I0522 10:20:04.411126 32753 net.cpp:129] Top shape: 50 (50)
I0522 10:20:04.411130 32753 net.cpp:137] Memory required for data: 30917600
I0522 10:20:04.411142 32753 layer_factory.hpp:77] Creating layer conv1
I0522 10:20:04.411166 32753 net.cpp:84] Creating Layer conv1
I0522 10:20:04.411180 32753 net.cpp:406] conv1 <- data
I0522 10:20:04.411204 32753 net.cpp:380] conv1 -> conv1
I0522 10:20:04.666563 32753 net.cpp:122] Setting up conv1
I0522 10:20:04.666601 32753 net.cpp:129] Top shape: 50 96 56 56 (15052800)
I0522 10:20:04.666606 32753 net.cpp:137] Memory required for data: 91128800
I0522 10:20:04.666630 32753 layer_factory.hpp:77] Creating layer relu1
I0522 10:20:04.666643 32753 net.cpp:84] Creating Layer relu1
I0522 10:20:04.666652 32753 net.cpp:406] relu1 <- conv1
I0522 10:20:04.666663 32753 net.cpp:367] relu1 -> conv1 (in-place)
I0522 10:20:04.666837 32753 net.cpp:122] Setting up relu1
I0522 10:20:04.666847 32753 net.cpp:129] Top shape: 50 96 56 56 (15052800)
I0522 10:20:04.666862 32753 net.cpp:137] Memory required for data: 151340000
I0522 10:20:04.666865 32753 layer_factory.hpp:77] Creating layer pool1
I0522 10:20:04.666872 32753 net.cpp:84] Creating Layer pool1
I0522 10:20:04.666875 32753 net.cpp:406] pool1 <- conv1
I0522 10:20:04.666882 32753 net.cpp:380] pool1 -> pool1
I0522 10:20:04.666945 32753 net.cpp:122] Setting up pool1
I0522 10:20:04.666954 32753 net.cpp:129] Top shape: 50 96 28 28 (3763200)
I0522 10:20:04.666959 32753 net.cpp:137] Memory required for data: 166392800
I0522 10:20:04.666961 32753 layer_factory.hpp:77] Creating layer norm1
I0522 10:20:04.666970 32753 net.cpp:84] Creating Layer norm1
I0522 10:20:04.666973 32753 net.cpp:406] norm1 <- pool1
I0522 10:20:04.666990 32753 net.cpp:380] norm1 -> norm1
I0522 10:20:04.667654 32753 net.cpp:122] Setting up norm1
I0522 10:20:04.667665 32753 net.cpp:129] Top shape: 50 96 28 28 (3763200)
I0522 10:20:04.667680 32753 net.cpp:137] Memory required for data: 181445600
I0522 10:20:04.667683 32753 layer_factory.hpp:77] Creating layer conv2
I0522 10:20:04.667695 32753 net.cpp:84] Creating Layer conv2
I0522 10:20:04.667701 32753 net.cpp:406] conv2 <- norm1
I0522 10:20:04.667738 32753 net.cpp:380] conv2 -> conv2
I0522 10:20:04.676417 32753 net.cpp:122] Setting up conv2
I0522 10:20:04.676453 32753 net.cpp:129] Top shape: 50 256 28 28 (10035200)
I0522 10:20:04.676457 32753 net.cpp:137] Memory required for data: 221586400
I0522 10:20:04.676471 32753 layer_factory.hpp:77] Creating layer relu2
I0522 10:20:04.676481 32753 net.cpp:84] Creating Layer relu2
I0522 10:20:04.676487 32753 net.cpp:406] relu2 <- conv2
I0522 10:20:04.676498 32753 net.cpp:367] relu2 -> conv2 (in-place)
I0522 10:20:04.676664 32753 net.cpp:122] Setting up relu2
I0522 10:20:04.676674 32753 net.cpp:129] Top shape: 50 256 28 28 (10035200)
I0522 10:20:04.676702 32753 net.cpp:137] Memory required for data: 261727200
I0522 10:20:04.676707 32753 layer_factory.hpp:77] Creating layer pool2
I0522 10:20:04.676715 32753 net.cpp:84] Creating Layer pool2
I0522 10:20:04.676723 32753 net.cpp:406] pool2 <- conv2
I0522 10:20:04.676733 32753 net.cpp:380] pool2 -> pool2
I0522 10:20:04.676795 32753 net.cpp:122] Setting up pool2
I0522 10:20:04.676806 32753 net.cpp:129] Top shape: 50 256 14 14 (2508800)
I0522 10:20:04.676812 32753 net.cpp:137] Memory required for data: 271762400
I0522 10:20:04.676817 32753 layer_factory.hpp:77] Creating layer norm2
I0522 10:20:04.676828 32753 net.cpp:84] Creating Layer norm2
I0522 10:20:04.676844 32753 net.cpp:406] norm2 <- pool2
I0522 10:20:04.676852 32753 net.cpp:380] norm2 -> norm2
I0522 10:20:04.677103 32753 net.cpp:122] Setting up norm2
I0522 10:20:04.677126 32753 net.cpp:129] Top shape: 50 256 14 14 (2508800)
I0522 10:20:04.677132 32753 net.cpp:137] Memory required for data: 281797600
I0522 10:20:04.677137 32753 layer_factory.hpp:77] Creating layer conv3
I0522 10:20:04.677151 32753 net.cpp:84] Creating Layer conv3
I0522 10:20:04.677158 32753 net.cpp:406] conv3 <- norm2
I0522 10:20:04.677168 32753 net.cpp:380] conv3 -> conv3
I0522 10:20:04.689211 32753 net.cpp:122] Setting up conv3
I0522 10:20:04.689239 32753 net.cpp:129] Top shape: 50 384 14 14 (3763200)
I0522 10:20:04.689242 32753 net.cpp:137] Memory required for data: 296850400
I0522 10:20:04.689273 32753 layer_factory.hpp:77] Creating layer relu3
I0522 10:20:04.689291 32753 net.cpp:84] Creating Layer relu3
I0522 10:20:04.689299 32753 net.cpp:406] relu3 <- conv3
I0522 10:20:04.689311 32753 net.cpp:367] relu3 -> conv3 (in-place)
I0522 10:20:04.689481 32753 net.cpp:122] Setting up relu3
I0522 10:20:04.689492 32753 net.cpp:129] Top shape: 50 384 14 14 (3763200)
I0522 10:20:04.689496 32753 net.cpp:137] Memory required for data: 311903200
I0522 10:20:04.689501 32753 layer_factory.hpp:77] Creating layer pool5
I0522 10:20:04.689509 32753 net.cpp:84] Creating Layer pool5
I0522 10:20:04.689517 32753 net.cpp:406] pool5 <- conv3
I0522 10:20:04.689528 32753 net.cpp:380] pool5 -> pool5
I0522 10:20:04.689584 32753 net.cpp:122] Setting up pool5
I0522 10:20:04.689594 32753 net.cpp:129] Top shape: 50 384 7 7 (940800)
I0522 10:20:04.689599 32753 net.cpp:137] Memory required for data: 315666400
I0522 10:20:04.689606 32753 layer_factory.hpp:77] Creating layer fc6
I0522 10:20:04.689620 32753 net.cpp:84] Creating Layer fc6
I0522 10:20:04.689630 32753 net.cpp:406] fc6 <- pool5
I0522 10:20:04.689641 32753 net.cpp:380] fc6 -> fc6
I0522 10:20:04.795018 32753 net.cpp:122] Setting up fc6
I0522 10:20:04.795066 32753 net.cpp:129] Top shape: 50 512 (25600)
I0522 10:20:04.795070 32753 net.cpp:137] Memory required for data: 315768800
I0522 10:20:04.795081 32753 layer_factory.hpp:77] Creating layer relu6
I0522 10:20:04.795091 32753 net.cpp:84] Creating Layer relu6
I0522 10:20:04.795097 32753 net.cpp:406] relu6 <- fc6
I0522 10:20:04.795106 32753 net.cpp:367] relu6 -> fc6 (in-place)
I0522 10:20:04.795905 32753 net.cpp:122] Setting up relu6
I0522 10:20:04.795917 32753 net.cpp:129] Top shape: 50 512 (25600)
I0522 10:20:04.795931 32753 net.cpp:137] Memory required for data: 315871200
I0522 10:20:04.795935 32753 layer_factory.hpp:77] Creating layer drop6
I0522 10:20:04.795943 32753 net.cpp:84] Creating Layer drop6
I0522 10:20:04.795945 32753 net.cpp:406] drop6 <- fc6
I0522 10:20:04.795977 32753 net.cpp:367] drop6 -> fc6 (in-place)
I0522 10:20:04.796027 32753 net.cpp:122] Setting up drop6
I0522 10:20:04.796035 32753 net.cpp:129] Top shape: 50 512 (25600)
I0522 10:20:04.796037 32753 net.cpp:137] Memory required for data: 315973600
I0522 10:20:04.796041 32753 layer_factory.hpp:77] Creating layer fc7
I0522 10:20:04.796048 32753 net.cpp:84] Creating Layer fc7
I0522 10:20:04.796053 32753 net.cpp:406] fc7 <- fc6
I0522 10:20:04.796070 32753 net.cpp:380] fc7 -> fc7
I0522 10:20:04.798760 32753 net.cpp:122] Setting up fc7
I0522 10:20:04.798770 32753 net.cpp:129] Top shape: 50 512 (25600)
I0522 10:20:04.798774 32753 net.cpp:137] Memory required for data: 316076000
I0522 10:20:04.798784 32753 layer_factory.hpp:77] Creating layer relu7
I0522 10:20:04.798791 32753 net.cpp:84] Creating Layer relu7
I0522 10:20:04.798794 32753 net.cpp:406] relu7 <- fc7
I0522 10:20:04.798799 32753 net.cpp:367] relu7 -> fc7 (in-place)
I0522 10:20:04.798966 32753 net.cpp:122] Setting up relu7
I0522 10:20:04.798976 32753 net.cpp:129] Top shape: 50 512 (25600)
I0522 10:20:04.798979 32753 net.cpp:137] Memory required for data: 316178400
I0522 10:20:04.798982 32753 layer_factory.hpp:77] Creating layer drop7
I0522 10:20:04.798988 32753 net.cpp:84] Creating Layer drop7
I0522 10:20:04.798991 32753 net.cpp:406] drop7 <- fc7
I0522 10:20:04.798995 32753 net.cpp:367] drop7 -> fc7 (in-place)
I0522 10:20:04.799028 32753 net.cpp:122] Setting up drop7
I0522 10:20:04.799036 32753 net.cpp:129] Top shape: 50 512 (25600)
I0522 10:20:04.799041 32753 net.cpp:137] Memory required for data: 316280800
I0522 10:20:04.799046 32753 layer_factory.hpp:77] Creating layer fc8
I0522 10:20:04.799059 32753 net.cpp:84] Creating Layer fc8
I0522 10:20:04.799067 32753 net.cpp:406] fc8 <- fc7
I0522 10:20:04.799087 32753 net.cpp:380] fc8 -> fc8
I0522 10:20:04.799212 32753 net.cpp:122] Setting up fc8
I0522 10:20:04.799221 32753 net.cpp:129] Top shape: 50 2 (100)
I0522 10:20:04.799226 32753 net.cpp:137] Memory required for data: 316281200
I0522 10:20:04.799232 32753 layer_factory.hpp:77] Creating layer loss
I0522 10:20:04.799238 32753 net.cpp:84] Creating Layer loss
I0522 10:20:04.799242 32753 net.cpp:406] loss <- fc8
I0522 10:20:04.799245 32753 net.cpp:406] loss <- label
I0522 10:20:04.799252 32753 net.cpp:380] loss -> loss
I0522 10:20:04.799273 32753 layer_factory.hpp:77] Creating layer loss
…
I0522 10:20:04.800210 32753 net.cpp:51] Initializing net from parameters: 
name: "CaffeNet"
state {
  phase: TEST
}
layer {
  name: "data"
  type: "Data"
  top: "data"
  top: "label"
  include {
    phase: TEST
  }
  transform_param {
    mirror: false
    crop_size: 227
    mean_file: "/home/k/PycharmProjects/AgeGenderDeepLearning-master/Folds/lmdb/Test_fold_is_1/mean.binaryproto"
  }
  data_param {
    source: "/home/k/PycharmProjects/AgeGenderDeepLearning-master/Folds/lmdb/Test_fold_is_1/gender_val_lmdb"
    batch_size: 50
    backend: LMDB
  }
}
layer {
  name: "conv1"
  type: "Convolution"
  bottom: "data"
  top: "conv1"
  param {
    lr_mult: 1
    decay_mult: 1
  }
  param {
    lr_mult: 2
    decay_mult: 0
  }
  convolution_param {
    num_output: 96
    kernel_size: 7
    stride: 4
    weight_filler {
      type: "gaussian"
      std: 0.01
    }
    bias_filler {
      type: "constant"
      value: 0
    }
  }
}
layer {
  name: "relu1"
  type: "ReLU"
  bottom: "conv1"
  top: "conv1"
}
layer {
  name: "pool1"
  type: "Pooling"
  bottom: "conv1"
  top: "pool1"
  pooling_param {
    pool: MAX
    kernel_size: 3
    stride: 2
  }
}
layer {
  name: "norm1"
  type: "LRN"
  bottom: "pool1"
  top: "norm1"
  lrn_param {
    local_size: 5
    alpha: 0.0001
    beta: 0.75
  }
}
layer {
  name: "conv2"
  type: "Convolution"
  bottom: "norm1"
  top: "conv2"
  param {
    lr_mult: 1
    decay_mult: 1
  }
  param {
    lr_mult: 2
    decay_mult: 0
  }
  convolution_param {
    num_output: 256
    pad: 2
    kernel_size: 5
    weight_filler {
      type: "gaussian"
      std: 0.01
    }
    bias_filler {
      type: "constant"
      value: 1
    }
  }
}
layer {
  name: "relu2"
  type: "ReLU"
  bottom: "conv2"
  top: "conv2"
}
layer {
  name: "pool2"
  type: "Pooling"
  bottom: "conv2"
  top: "pool2"
  pooling_param {
    pool: MAX
    kernel_size: 3
    stride: 2
  }
}
layer {
  name: "norm2"
  type: "LRN"
  bottom: "pool2"
  top: "norm2"
  lrn_param {
    local_size: 5
    alpha: 0.0001
    beta: 0.75
  }
}
layer {
  name: "conv3"
  type: "Convolution"
  bottom: "norm2"
  top: "conv3"
  param {
    lr_mult: 1
    decay_mult: 1
  }
  param {
    lr_mult: 2
    decay_mult: 0
  }
  convolution_param {
    num_output: 384
    pad: 1
    kernel_size: 3
    weight_filler {
      type: "gaussian"
      std: 0.01
    }
    bias_filler {
      type: "constant"
      value: 0
    }
  }
}
layer {
  name: "relu3"
  type: "ReLU"
  bottom: "conv3"
  top: "conv3"
}
layer {
  name: "pool5"
  type: "Pooling"
  bottom: "conv3"
  top: "pool5"
  pooling_param {
    pool: MAX
    kernel_size: 3
    stride: 2
  }
}
layer {
  name: "fc6"
  type: "InnerProduct"
  bottom: "pool5"
  top: "fc6"
  param {
    lr_mult: 1
    decay_mult: 1
  }
  param {
    lr_mult: 2
    decay_mult: 0
  }
  inner_product_param {
    num_output: 512
    weight_filler {
      type: "gaussian"
      std: 0.005
    }
    bias_filler {
      type: "constant"
      value: 1
    }
  }
}
layer {
  name: "relu6"
  type: "ReLU"
  bottom: "fc6"
  top: "fc6"
}
layer {
  name: "drop6"
  type: "Dropout"
  bottom: "fc6"
  top: "fc6"
  dropout_param {
    dropout_ratio: 0.5
  }
}
layer {
  name: "fc7"
  type: "InnerProduct"
  bottom: "fc6"
  top: "fc7"
  param {
    lr_mult: 1
    decay_mult: 1
  }
  param {
    lr_mult: 2
    decay_mult: 0
  }
  inner_product_param {
    num_output: 512
    weight_filler {
      type: "gaussian"
      std: 0.005
    }
    bias_filler {
      type: "constant"
      value: 1
    }
  }
}
layer {
  name: "relu7"
  type: "ReLU"
  bottom: "fc7"
  top: "fc7"
}
layer {
  name: "drop7"
  type: "Dropout"
  bottom: "fc7"
  top: "fc7"
  dropout_param {
    dropout_ratio: 0.5
  }
}
layer {
  name: "fc8"
  type: "InnerProduct"
  bottom: "fc7"
  top: "fc8"
  param {
    lr_mult: 10
    decay_mult: 1
  }
  param {
    lr_mult: 20
    decay_mult: 0
  }
  inner_product_param {
    num_output: 2
    weight_filler {
      type: "gaussian"
      std: 0.01
    }
    bias_filler {
      type: "constant"
      value: 0
    }
  }
}
layer {
  name: "accuracy"
  type: "Accuracy"
  bottom: "fc8"
  bottom: "label"
  top: "accuracy"
  include {
    phase: TEST
  }
}
layer {
  name: "loss"
  type: "SoftmaxWithLoss"
  bottom: "fc8"
  bottom: "label"
  top: "loss"
}
I0522 10:20:04.800312 32753 layer_factory.hpp:77] Creating layer data
I0522 10:20:04.817596 32753 db_lmdb.cpp:35] Opened lmdb /home/k/PycharmProjects/AgeGenderDeepLearning-master/Folds/lmdb/Test_fold_is_1/gender_val_lmdb
I0522 10:20:04.822877 32753 net.cpp:84] Creating Layer data
I0522 10:20:04.822896 32753 net.cpp:380] data -> data
I0522 10:20:04.822908 32753 net.cpp:380] data -> label
I0522 10:20:04.822918 32753 data_transformer.cpp:25] Loading mean file from: /home/k/PycharmProjects/AgeGenderDeepLearning-master/Folds/lmdb/Test_fold_is_1/mean.binaryproto
I0522 10:20:04.825978 32753 data_layer.cpp:45] output data size: 50,3,227,227
I0522 10:20:04.892132 32753 net.cpp:122] Setting up data
I0522 10:20:04.892163 32753 net.cpp:129] Top shape: 50 3 227 227 (7729350)
I0522 10:20:04.892169 32753 net.cpp:129] Top shape: 50 (50)
I0522 10:20:04.892172 32753 net.cpp:137] Memory required for data: 30917600
I0522 10:20:04.892180 32753 layer_factory.hpp:77] Creating layer label_data_1_split
I0522 10:20:04.892194 32753 net.cpp:84] Creating Layer label_data_1_split
I0522 10:20:04.892199 32753 net.cpp:406] label_data_1_split <- label
I0522 10:20:04.892211 32753 net.cpp:380] label_data_1_split -> label_data_1_split_0
I0522 10:20:04.892227 32753 net.cpp:380] label_data_1_split -> label_data_1_split_1
I0522 10:20:04.892329 32753 net.cpp:122] Setting up label_data_1_split
I0522 10:20:04.892338 32753 net.cpp:129] Top shape: 50 (50)
I0522 10:20:04.892343 32753 net.cpp:129] Top shape: 50 (50)
I0522 10:20:04.892345 32753 net.cpp:137] Memory required for data: 30918000
I0522 10:20:04.892349 32753 layer_factory.hpp:77] Creating layer conv1
I0522 10:20:04.892361 32753 net.cpp:84] Creating Layer conv1
I0522 10:20:04.892365 32753 net.cpp:406] conv1 <- data
I0522 10:20:04.892370 32753 net.cpp:380] conv1 -> conv1
I0522 10:20:04.898525 32753 net.cpp:122] Setting up conv1
I0522 10:20:04.898543 32753 net.cpp:129] Top shape: 50 96 56 56 (15052800)
I0522 10:20:04.898547 32753 net.cpp:137] Memory required for data: 91129200
I0522 10:20:04.898560 32753 layer_factory.hpp:77] Creating layer relu1
I0522 10:20:04.898566 32753 net.cpp:84] Creating Layer relu1
I0522 10:20:04.898569 32753 net.cpp:406] relu1 <- conv1
I0522 10:20:04.898574 32753 net.cpp:367] relu1 -> conv1 (in-place)
I0522 10:20:04.898810 32753 net.cpp:122] Setting up relu1
I0522 10:20:04.898825 32753 net.cpp:129] Top shape: 50 96 56 56 (15052800)
I0522 10:20:04.898828 32753 net.cpp:137] Memory required for data: 151340400
I0522 10:20:04.898833 32753 layer_factory.hpp:77] Creating layer pool1
I0522 10:20:04.898840 32753 net.cpp:84] Creating Layer pool1
I0522 10:20:04.898844 32753 net.cpp:406] pool1 <- conv1
I0522 10:20:04.898849 32753 net.cpp:380] pool1 -> pool1
I0522 10:20:04.898895 32753 net.cpp:122] Setting up pool1
I0522 10:20:04.898908 32753 net.cpp:129] Top shape: 50 96 28 28 (3763200)
I0522 10:20:04.898916 32753 net.cpp:137] Memory required for data: 166393200
I0522 10:20:04.898919 32753 layer_factory.hpp:77] Creating layer norm1
I0522 10:20:04.898926 32753 net.cpp:84] Creating Layer norm1
I0522 10:20:04.898931 32753 net.cpp:406] norm1 <- pool1
I0522 10:20:04.898936 32753 net.cpp:380] norm1 -> norm1
I0522 10:20:04.899644 32753 net.cpp:122] Setting up norm1
I0522 10:20:04.899655 32753 net.cpp:129] Top shape: 50 96 28 28 (3763200)
I0522 10:20:04.899659 32753 net.cpp:137] Memory required for data: 181446000
I0522 10:20:04.899662 32753 layer_factory.hpp:77] Creating layer conv2
I0522 10:20:04.899672 32753 net.cpp:84] Creating Layer conv2
I0522 10:20:04.899674 32753 net.cpp:406] conv2 <- norm1
I0522 10:20:04.899680 32753 net.cpp:380] conv2 -> conv2
I0522 10:20:04.907961 32753 net.cpp:122] Setting up conv2
I0522 10:20:04.907985 32753 net.cpp:129] Top shape: 50 256 28 28 (10035200)
I0522 10:20:04.907989 32753 net.cpp:137] Memory required for data: 221586800
I0522 10:20:04.908012 32753 layer_factory.hpp:77] Creating layer relu2
I0522 10:20:04.908022 32753 net.cpp:84] Creating Layer relu2
I0522 10:20:04.908030 32753 net.cpp:406] relu2 <- conv2
I0522 10:20:04.908040 32753 net.cpp:367] relu2 -> conv2 (in-place)
I0522 10:20:04.908741 32753 net.cpp:122] Setting up relu2
I0522 10:20:04.908753 32753 net.cpp:129] Top shape: 50 256 28 28 (10035200)
I0522 10:20:04.908757 32753 net.cpp:137] Memory required for data: 261727600
I0522 10:20:04.908761 32753 layer_factory.hpp:77] Creating layer pool2
I0522 10:20:04.908768 32753 net.cpp:84] Creating Layer pool2
I0522 10:20:04.908772 32753 net.cpp:406] pool2 <- conv2
I0522 10:20:04.908777 32753 net.cpp:380] pool2 -> pool2
I0522 10:20:04.908840 32753 net.cpp:122] Setting up pool2
I0522 10:20:04.908861 32753 net.cpp:129] Top shape: 50 256 14 14 (2508800)
I0522 10:20:04.908864 32753 net.cpp:137] Memory required for data: 271762800
I0522 10:20:04.908869 32753 layer_factory.hpp:77] Creating layer norm2
I0522 10:20:04.908874 32753 net.cpp:84] Creating Layer norm2
I0522 10:20:04.908877 32753 net.cpp:406] norm2 <- pool2
I0522 10:20:04.908882 32753 net.cpp:380] norm2 -> norm2
I0522 10:20:04.909063 32753 net.cpp:122] Setting up norm2
I0522 10:20:04.909075 32753 net.cpp:129] Top shape: 50 256 14 14 (2508800)
I0522 10:20:04.909080 32753 net.cpp:137] Memory required for data: 281798000
I0522 10:20:04.909087 32753 layer_factory.hpp:77] Creating layer conv3
I0522 10:20:04.909111 32753 net.cpp:84] Creating Layer conv3
I0522 10:20:04.909116 32753 net.cpp:406] conv3 <- norm2
I0522 10:20:04.909122 32753 net.cpp:380] conv3 -> conv3
I0522 10:20:04.921957 32753 net.cpp:122] Setting up conv3
I0522 10:20:04.921983 32753 net.cpp:129] Top shape: 50 384 14 14 (3763200)
I0522 10:20:04.921986 32753 net.cpp:137] Memory required for data: 296850800
I0522 10:20:04.922004 32753 layer_factory.hpp:77] Creating layer relu3
I0522 10:20:04.922020 32753 net.cpp:84] Creating Layer relu3
I0522 10:20:04.922030 32753 net.cpp:406] relu3 <- conv3
I0522 10:20:04.922044 32753 net.cpp:367] relu3 -> conv3 (in-place)
I0522 10:20:04.922201 32753 net.cpp:122] Setting up relu3
I0522 10:20:04.922211 32753 net.cpp:129] Top shape: 50 384 14 14 (3763200)
I0522 10:20:04.922217 32753 net.cpp:137] Memory required for data: 311903600
I0522 10:20:04.922225 32753 layer_factory.hpp:77] Creating layer pool5
I0522 10:20:04.922237 32753 net.cpp:84] Creating Layer pool5
I0522 10:20:04.922245 32753 net.cpp:406] pool5 <- conv3
I0522 10:20:04.922257 32753 net.cpp:380] pool5 -> pool5
I0522 10:20:04.922315 32753 net.cpp:122] Setting up pool5
I0522 10:20:04.922325 32753 net.cpp:129] Top shape: 50 384 7 7 (940800)
I0522 10:20:04.922329 32753 net.cpp:137] Memory required for data: 315666800
I0522 10:20:04.922335 32753 layer_factory.hpp:77] Creating layer fc6
I0522 10:20:04.922348 32753 net.cpp:84] Creating Layer fc6
I0522 10:20:04.922358 32753 net.cpp:406] fc6 <- pool5
I0522 10:20:04.922370 32753 net.cpp:380] fc6 -> fc6
I0522 10:20:05.028746 32753 net.cpp:122] Setting up fc6
I0522 10:20:05.028789 32753 net.cpp:129] Top shape: 50 512 (25600)
I0522 10:20:05.028795 32753 net.cpp:137] Memory required for data: 315769200
I0522 10:20:05.028807 32753 layer_factory.hpp:77] Creating layer relu6
I0522 10:20:05.028817 32753 net.cpp:84] Creating Layer relu6
I0522 10:20:05.028823 32753 net.cpp:406] relu6 <- fc6
I0522 10:20:05.028834 32753 net.cpp:367] relu6 -> fc6 (in-place)
I0522 10:20:05.029081 32753 net.cpp:122] Setting up relu6
I0522 10:20:05.029093 32753 net.cpp:129] Top shape: 50 512 (25600)
I0522 10:20:05.029108 32753 net.cpp:137] Memory required for data: 315871600
I0522 10:20:05.029111 32753 layer_factory.hpp:77] Creating layer drop6
I0522 10:20:05.029119 32753 net.cpp:84] Creating Layer drop6
I0522 10:20:05.029122 32753 net.cpp:406] drop6 <- fc6
I0522 10:20:05.029129 32753 net.cpp:367] drop6 -> fc6 (in-place)
I0522 10:20:05.029181 32753 net.cpp:122] Setting up drop6
I0522 10:20:05.029189 32753 net.cpp:129] Top shape: 50 512 (25600)
I0522 10:20:05.029192 32753 net.cpp:137] Memory required for data: 315974000
I0522 10:20:05.029196 32753 layer_factory.hpp:77] Creating layer fc7
I0522 10:20:05.029206 32753 net.cpp:84] Creating Layer fc7
I0522 10:20:05.029209 32753 net.cpp:406] fc7 <- fc6
I0522 10:20:05.029216 32753 net.cpp:380] fc7 -> fc7
I0522 10:20:05.035179 32753 net.cpp:122] Setting up fc7
I0522 10:20:05.035195 32753 net.cpp:129] Top shape: 50 512 (25600)
I0522 10:20:05.035210 32753 net.cpp:137] Memory required for data: 316076400
I0522 10:20:05.035223 32753 layer_factory.hpp:77] Creating layer relu7
I0522 10:20:05.035228 32753 net.cpp:84] Creating Layer relu7
I0522 10:20:05.035233 32753 net.cpp:406] relu7 <- fc7
I0522 10:20:05.035238 32753 net.cpp:367] relu7 -> fc7 (in-place)
I0522 10:20:05.036031 32753 net.cpp:122] Setting up relu7
I0522 10:20:05.036041 32753 net.cpp:129] Top shape: 50 512 (25600)
I0522 10:20:05.036067 32753 net.cpp:137] Memory required for data: 316178800
I0522 10:20:05.036070 32753 layer_factory.hpp:77] Creating layer drop7
I0522 10:20:05.036077 32753 net.cpp:84] Creating Layer drop7
I0522 10:20:05.036080 32753 net.cpp:406] drop7 <- fc7
I0522 10:20:05.036085 32753 net.cpp:367] drop7 -> fc7 (in-place)
I0522 10:20:05.036131 32753 net.cpp:122] Setting up drop7
I0522 10:20:05.036142 32753 net.cpp:129] Top shape: 50 512 (25600)
I0522 10:20:05.036146 32753 net.cpp:137] Memory required for data: 316281200
I0522 10:20:05.036149 32753 layer_factory.hpp:77] Creating layer fc8
I0522 10:20:05.036156 32753 net.cpp:84] Creating Layer fc8
I0522 10:20:05.036159 32753 net.cpp:406] fc8 <- fc7
I0522 10:20:05.036164 32753 net.cpp:380] fc8 -> fc8
I0522 10:20:05.036308 32753 net.cpp:122] Setting up fc8
I0522 10:20:05.036316 32753 net.cpp:129] Top shape: 50 2 (100)
I0522 10:20:05.036319 32753 net.cpp:137] Memory required for data: 316281600
I0522 10:20:05.036339 32753 layer_factory.hpp:77] Creating layer fc8_fc8_0_split
I0522 10:20:05.036345 32753 net.cpp:84] Creating Layer fc8_fc8_0_split
I0522 10:20:05.036347 32753 net.cpp:406] fc8_fc8_0_split <- fc8
I0522 10:20:05.036352 32753 net.cpp:380] fc8_fc8_0_split -> fc8_fc8_0_split_0
I0522 10:20:05.036360 32753 net.cpp:380] fc8_fc8_0_split -> fc8_fc8_0_split_1
I0522 10:20:05.036417 32753 net.cpp:122] Setting up fc8_fc8_0_split
I0522 10:20:05.036427 32753 net.cpp:129] Top shape: 50 2 (100)
I0522 10:20:05.036430 32753 net.cpp:129] Top shape: 50 2 (100)
I0522 10:20:05.036433 32753 net.cpp:137] Memory required for data: 316282400
I0522 10:20:05.036437 32753 layer_factory.hpp:77] Creating layer accuracy
I0522 10:20:05.036443 32753 net.cpp:84] Creating Layer accuracy
I0522 10:20:05.036447 32753 net.cpp:406] accuracy <- fc8_fc8_0_split_0
I0522 10:20:05.036450 32753 net.cpp:406] accuracy <- label_data_1_split_0
I0522 10:20:05.036455 32753 net.cpp:380] accuracy -> accuracy
…
