…
I0520 20:51:48.015171 16079 net.cpp:51] Initializing net from parameters: 
name: "CaffeNet"
state {
  phase: TRAIN
  level: 0
  stage: ""
}
layer {
  name: "data"
  type: "Data"
  top: "data"
  top: "label"
  include {
    phase: TRAIN
  }
  transform_param {
    mirror: true
    crop_size: 227
    mean_file: "/home/k/PycharmProjects/AgeGenderDeepLearning-master/Folds/lmdb/Test_fold_is_0/mean.binaryproto"
  }
  data_param {
    source: "/home/k/PycharmProjects/AgeGenderDeepLearning-master/Folds/lmdb/Test_fold_is_0/gender_train_lmdb"
    batch_size: 50
    backend: LMDB
  }
}
layer {
  name: "conv1"
  type: "Convolution"
  bottom: "data"
  top: "conv1"
  param {
    lr_mult: 1
    decay_mult: 1
  }
  param {
    lr_mult: 2
    decay_mult: 0
  }
  convolution_param {
    num_output: 96
    kernel_size: 7
    stride: 4
    weight_filler {
      type: "gaussian"
      std: 0.01
    }
    bias_filler {
      type: "constant"
      value: 0
    }
  }
}
layer {
  name: "relu1"
  type: "ReLU"
  bottom: "conv1"
  top: "conv1"
}
layer {
  name: "pool1"
  type: "Pooling"
  bottom: "conv1"
  top: "pool1"
  pooling_param {
    pool: MAX
    kernel_size: 3
    stride: 2
  }
}
layer {
  name: "norm1"
  type: "LRN"
  bottom: "pool1"
  top: "norm1"
  lrn_param {
    local_size: 5
    alpha: 0.0001
    beta: 0.75
  }
}
layer {
  name: "conv2"
  type: "Convolution"
  bottom: "norm1"
  top: "conv2"
  param {
    lr_mult: 1
    decay_mult: 1
  }
  param {
    lr_mult: 2
    decay_mult: 0
  }
  convolution_param {
    num_output: 256
    pad: 2
    kernel_size: 5
    weight_filler {
      type: "gaussian"
      std: 0.01
    }
    bias_filler {
      type: "constant"
      value: 1
    }
  }
}
layer {
  name: "relu2"
  type: "ReLU"
  bottom: "conv2"
  top: "conv2"
}
layer {
  name: "pool2"
  type: "Pooling"
  bottom: "conv2"
  top: "pool2"
  pooling_param {
    pool: MAX
    kernel_size: 3
    stride: 2
  }
}
layer {
  name: "norm2"
  type: "LRN"
  bottom: "pool2"
  top: "norm2"
  lrn_param {
    local_size: 5
    alpha: 0.0001
    beta: 0.75
  }
}
layer {
  name: "conv3"
  type: "Convolution"
  bottom: "norm2"
  top: "conv3"
  param {
    lr_mult: 1
    decay_mult: 1
  }
  param {
    lr_mult: 2
    decay_mult: 0
  }
  convolution_param {
    num_output: 384
    pad: 1
    kernel_size: 3
    weight_filler {
      type: "gaussian"
      std: 0.01
    }
    bias_filler {
      type: "constant"
      value: 0
    }
  }
}
layer {
  name: "relu3"
  type: "ReLU"
  bottom: "conv3"
  top: "conv3"
}
layer {
  name: "pool5"
  type: "Pooling"
  bottom: "conv3"
  top: "pool5"
  pooling_param {
    pool: MAX
    kernel_size: 3
    stride: 2
  }
}
layer {
  name: "fc6"
  type: "InnerProduct"
  bottom: "pool5"
  top: "fc6"
  param {
    lr_mult: 1
    decay_mult: 1
  }
  param {
    lr_mult: 2
    decay_mult: 0
  }
  inner_product_param {
    num_output: 512
    weight_filler {
      type: "gaussian"
      std: 0.005
    }
    bias_filler {
      type: "constant"
      value: 1
    }
  }
}
layer {
  name: "relu6"
  type: "ReLU"
  bottom: "fc6"
  top: "fc6"
}
layer {
  name: "drop6"
  type: "Dropout"
  bottom: "fc6"
  top: "fc6"
  dropout_param {
    dropout_ratio: 0.5
  }
}
layer {
  name: "fc7"
  type: "InnerProduct"
  bottom: "fc6"
  top: "fc7"
  param {
    lr_mult: 1
    decay_mult: 1
  }
  param {
    lr_mult: 2
    decay_mult: 0
  }
  inner_product_param {
    num_output: 512
    weight_filler {
      type: "gaussian"
      std: 0.005
    }
    bias_filler {
      type: "constant"
      value: 1
    }
  }
}
layer {
  name: "relu7"
  type: "ReLU"
  bottom: "fc7"
  top: "fc7"
}
layer {
  name: "drop7"
  type: "Dropout"
  bottom: "fc7"
  top: "fc7"
  dropout_param {
    dropout_ratio: 0.5
  }
}
layer {
  name: "fc8"
  type: "InnerProduct"
  bottom: "fc7"
  top: "fc8"
  param {
    lr_mult: 10
    decay_mult: 1
  }
  param {
    lr_mult: 20
    decay_mult: 0
  }
  inner_product_param {
    num_output: 2
    weight_filler {
      type: "gaussian"
      std: 0.01
    }
    bias_filler {
      type: "constant"
      value: 0
    }
  }
}
layer {
  name: "loss"
  type: "SoftmaxWithLoss"
  bottom: "fc8"
  bottom: "label"
  top: "loss"
}
I0520 20:51:48.015261 16079 layer_factory.hpp:77] Creating layer data
I0520 20:51:48.015364 16079 db_lmdb.cpp:35] Opened lmdb /home/k/PycharmProjects/AgeGenderDeepLearning-master/Folds/lmdb/Test_fold_is_0/gender_train_lmdb
I0520 20:51:48.015393 16079 net.cpp:84] Creating Layer data
I0520 20:51:48.015403 16079 net.cpp:380] data -> data
I0520 20:51:48.015421 16079 net.cpp:380] data -> label
I0520 20:51:48.015434 16079 data_transformer.cpp:25] Loading mean file from: /home/k/PycharmProjects/AgeGenderDeepLearning-master/Folds/lmdb/Test_fold_is_0/mean.binaryproto
I0520 20:51:48.018466 16079 data_layer.cpp:45] output data size: 50,3,227,227
I0520 20:51:48.082187 16079 net.cpp:122] Setting up data
I0520 20:51:48.082229 16079 net.cpp:129] Top shape: 50 3 227 227 (7729350)
I0520 20:51:48.082235 16079 net.cpp:129] Top shape: 50 (50)
I0520 20:51:48.082238 16079 net.cpp:137] Memory required for data: 30917600
I0520 20:51:48.082248 16079 layer_factory.hpp:77] Creating layer conv1
I0520 20:51:48.082268 16079 net.cpp:84] Creating Layer conv1
I0520 20:51:48.082276 16079 net.cpp:406] conv1 <- data
I0520 20:51:48.082291 16079 net.cpp:380] conv1 -> conv1
I0520 20:51:48.326704 16079 net.cpp:122] Setting up conv1
I0520 20:51:48.326738 16079 net.cpp:129] Top shape: 50 96 56 56 (15052800)
I0520 20:51:48.326742 16079 net.cpp:137] Memory required for data: 91128800
I0520 20:51:48.326766 16079 layer_factory.hpp:77] Creating layer relu1
I0520 20:51:48.326788 16079 net.cpp:84] Creating Layer relu1
I0520 20:51:48.326793 16079 net.cpp:406] relu1 <- conv1
I0520 20:51:48.326800 16079 net.cpp:367] relu1 -> conv1 (in-place)
I0520 20:51:48.326956 16079 net.cpp:122] Setting up relu1
I0520 20:51:48.326966 16079 net.cpp:129] Top shape: 50 96 56 56 (15052800)
I0520 20:51:48.326968 16079 net.cpp:137] Memory required for data: 151340000
I0520 20:51:48.326972 16079 layer_factory.hpp:77] Creating layer pool1
I0520 20:51:48.326978 16079 net.cpp:84] Creating Layer pool1
I0520 20:51:48.326982 16079 net.cpp:406] pool1 <- conv1
I0520 20:51:48.326987 16079 net.cpp:380] pool1 -> pool1
I0520 20:51:48.327040 16079 net.cpp:122] Setting up pool1
I0520 20:51:48.327049 16079 net.cpp:129] Top shape: 50 96 28 28 (3763200)
I0520 20:51:48.327052 16079 net.cpp:137] Memory required for data: 166392800
I0520 20:51:48.327055 16079 layer_factory.hpp:77] Creating layer norm1
I0520 20:51:48.327064 16079 net.cpp:84] Creating Layer norm1
I0520 20:51:48.327067 16079 net.cpp:406] norm1 <- pool1
I0520 20:51:48.327072 16079 net.cpp:380] norm1 -> norm1
I0520 20:51:48.327697 16079 net.cpp:122] Setting up norm1
I0520 20:51:48.327709 16079 net.cpp:129] Top shape: 50 96 28 28 (3763200)
I0520 20:51:48.327713 16079 net.cpp:137] Memory required for data: 181445600
I0520 20:51:48.327715 16079 layer_factory.hpp:77] Creating layer conv2
I0520 20:51:48.327728 16079 net.cpp:84] Creating Layer conv2
I0520 20:51:48.327731 16079 net.cpp:406] conv2 <- norm1
I0520 20:51:48.327764 16079 net.cpp:380] conv2 -> conv2
I0520 20:51:48.336197 16079 net.cpp:122] Setting up conv2
I0520 20:51:48.336213 16079 net.cpp:129] Top shape: 50 256 28 28 (10035200)
I0520 20:51:48.336217 16079 net.cpp:137] Memory required for data: 221586400
I0520 20:51:48.336226 16079 layer_factory.hpp:77] Creating layer relu2
I0520 20:51:48.336233 16079 net.cpp:84] Creating Layer relu2
I0520 20:51:48.336236 16079 net.cpp:406] relu2 <- conv2
I0520 20:51:48.336241 16079 net.cpp:367] relu2 -> conv2 (in-place)
I0520 20:51:48.336416 16079 net.cpp:122] Setting up relu2
I0520 20:51:48.336426 16079 net.cpp:129] Top shape: 50 256 28 28 (10035200)
I0520 20:51:48.336428 16079 net.cpp:137] Memory required for data: 261727200
I0520 20:51:48.336432 16079 layer_factory.hpp:77] Creating layer pool2
I0520 20:51:48.336438 16079 net.cpp:84] Creating Layer pool2
I0520 20:51:48.336442 16079 net.cpp:406] pool2 <- conv2
I0520 20:51:48.336447 16079 net.cpp:380] pool2 -> pool2
I0520 20:51:48.336495 16079 net.cpp:122] Setting up pool2
I0520 20:51:48.336503 16079 net.cpp:129] Top shape: 50 256 14 14 (2508800)
I0520 20:51:48.336506 16079 net.cpp:137] Memory required for data: 271762400
I0520 20:51:48.336509 16079 layer_factory.hpp:77] Creating layer norm2
I0520 20:51:48.336518 16079 net.cpp:84] Creating Layer norm2
I0520 20:51:48.336520 16079 net.cpp:406] norm2 <- pool2
I0520 20:51:48.336525 16079 net.cpp:380] norm2 -> norm2
I0520 20:51:48.336706 16079 net.cpp:122] Setting up norm2
I0520 20:51:48.336716 16079 net.cpp:129] Top shape: 50 256 14 14 (2508800)
I0520 20:51:48.336730 16079 net.cpp:137] Memory required for data: 281797600
I0520 20:51:48.336735 16079 layer_factory.hpp:77] Creating layer conv3
I0520 20:51:48.336745 16079 net.cpp:84] Creating Layer conv3
I0520 20:51:48.336748 16079 net.cpp:406] conv3 <- norm2
I0520 20:51:48.336755 16079 net.cpp:380] conv3 -> conv3
I0520 20:51:48.348315 16079 net.cpp:122] Setting up conv3
I0520 20:51:48.348351 16079 net.cpp:129] Top shape: 50 384 14 14 (3763200)
I0520 20:51:48.348356 16079 net.cpp:137] Memory required for data: 296850400
I0520 20:51:48.348367 16079 layer_factory.hpp:77] Creating layer relu3
I0520 20:51:48.348376 16079 net.cpp:84] Creating Layer relu3
I0520 20:51:48.348381 16079 net.cpp:406] relu3 <- conv3
I0520 20:51:48.348388 16079 net.cpp:367] relu3 -> conv3 (in-place)
I0520 20:51:48.348547 16079 net.cpp:122] Setting up relu3
I0520 20:51:48.348556 16079 net.cpp:129] Top shape: 50 384 14 14 (3763200)
I0520 20:51:48.348559 16079 net.cpp:137] Memory required for data: 311903200
I0520 20:51:48.348562 16079 layer_factory.hpp:77] Creating layer pool5
I0520 20:51:48.348570 16079 net.cpp:84] Creating Layer pool5
I0520 20:51:48.348573 16079 net.cpp:406] pool5 <- conv3
I0520 20:51:48.348578 16079 net.cpp:380] pool5 -> pool5
I0520 20:51:48.348636 16079 net.cpp:122] Setting up pool5
I0520 20:51:48.348644 16079 net.cpp:129] Top shape: 50 384 7 7 (940800)
I0520 20:51:48.348649 16079 net.cpp:137] Memory required for data: 315666400
I0520 20:51:48.348651 16079 layer_factory.hpp:77] Creating layer fc6
I0520 20:51:48.348659 16079 net.cpp:84] Creating Layer fc6
I0520 20:51:48.348664 16079 net.cpp:406] fc6 <- pool5
I0520 20:51:48.348678 16079 net.cpp:380] fc6 -> fc6
I0520 20:51:48.453068 16079 net.cpp:122] Setting up fc6
I0520 20:51:48.453104 16079 net.cpp:129] Top shape: 50 512 (25600)
I0520 20:51:48.453107 16079 net.cpp:137] Memory required for data: 315768800
I0520 20:51:48.453119 16079 layer_factory.hpp:77] Creating layer relu6
I0520 20:51:48.453130 16079 net.cpp:84] Creating Layer relu6
I0520 20:51:48.453135 16079 net.cpp:406] relu6 <- fc6
I0520 20:51:48.453152 16079 net.cpp:367] relu6 -> fc6 (in-place)
I0520 20:51:48.453953 16079 net.cpp:122] Setting up relu6
I0520 20:51:48.453964 16079 net.cpp:129] Top shape: 50 512 (25600)
I0520 20:51:48.453968 16079 net.cpp:137] Memory required for data: 315871200
I0520 20:51:48.453970 16079 layer_factory.hpp:77] Creating layer drop6
I0520 20:51:48.453977 16079 net.cpp:84] Creating Layer drop6
I0520 20:51:48.453980 16079 net.cpp:406] drop6 <- fc6
I0520 20:51:48.454013 16079 net.cpp:367] drop6 -> fc6 (in-place)
I0520 20:51:48.454046 16079 net.cpp:122] Setting up drop6
I0520 20:51:48.454066 16079 net.cpp:129] Top shape: 50 512 (25600)
I0520 20:51:48.454069 16079 net.cpp:137] Memory required for data: 315973600
I0520 20:51:48.454072 16079 layer_factory.hpp:77] Creating layer fc7
I0520 20:51:48.454079 16079 net.cpp:84] Creating Layer fc7
I0520 20:51:48.454082 16079 net.cpp:406] fc7 <- fc6
I0520 20:51:48.454089 16079 net.cpp:380] fc7 -> fc7
I0520 20:51:48.456786 16079 net.cpp:122] Setting up fc7
I0520 20:51:48.456796 16079 net.cpp:129] Top shape: 50 512 (25600)
I0520 20:51:48.456799 16079 net.cpp:137] Memory required for data: 316076000
I0520 20:51:48.456810 16079 layer_factory.hpp:77] Creating layer relu7
I0520 20:51:48.456818 16079 net.cpp:84] Creating Layer relu7
I0520 20:51:48.456822 16079 net.cpp:406] relu7 <- fc7
I0520 20:51:48.456826 16079 net.cpp:367] relu7 -> fc7 (in-place)
I0520 20:51:48.456993 16079 net.cpp:122] Setting up relu7
I0520 20:51:48.457002 16079 net.cpp:129] Top shape: 50 512 (25600)
I0520 20:51:48.457005 16079 net.cpp:137] Memory required for data: 316178400
I0520 20:51:48.457008 16079 layer_factory.hpp:77] Creating layer drop7
I0520 20:51:48.457015 16079 net.cpp:84] Creating Layer drop7
I0520 20:51:48.457018 16079 net.cpp:406] drop7 <- fc7
I0520 20:51:48.457022 16079 net.cpp:367] drop7 -> fc7 (in-place)
I0520 20:51:48.457058 16079 net.cpp:122] Setting up drop7
I0520 20:51:48.457065 16079 net.cpp:129] Top shape: 50 512 (25600)
I0520 20:51:48.457068 16079 net.cpp:137] Memory required for data: 316280800
I0520 20:51:48.457072 16079 layer_factory.hpp:77] Creating layer fc8
I0520 20:51:48.457077 16079 net.cpp:84] Creating Layer fc8
I0520 20:51:48.457079 16079 net.cpp:406] fc8 <- fc7
I0520 20:51:48.457087 16079 net.cpp:380] fc8 -> fc8
I0520 20:51:48.457195 16079 net.cpp:122] Setting up fc8
I0520 20:51:48.457202 16079 net.cpp:129] Top shape: 50 2 (100)
I0520 20:51:48.457206 16079 net.cpp:137] Memory required for data: 316281200
I0520 20:51:48.457211 16079 layer_factory.hpp:77] Creating layer loss
I0520 20:51:48.457216 16079 net.cpp:84] Creating Layer loss
I0520 20:51:48.457219 16079 net.cpp:406] loss <- fc8
I0520 20:51:48.457223 16079 net.cpp:406] loss <- label
I0520 20:51:48.457231 16079 net.cpp:380] loss -> loss
I0520 20:51:48.457250 16079 layer_factory.hpp:77] Creating layer loss
…
I0520 20:51:48.458086 16079 net.cpp:51] Initializing net from parameters: 
name: "CaffeNet"
state {
  phase: TEST
}
layer {
  name: "data"
  type: "Data"
  top: "data"
  top: "label"
  include {
    phase: TEST
  }
  transform_param {
    mirror: false
    crop_size: 227
    mean_file: "/home/k/PycharmProjects/AgeGenderDeepLearning-master/Folds/lmdb/Test_fold_is_0/mean.binaryproto"
  }
  data_param {
    source: "/home/k/PycharmProjects/AgeGenderDeepLearning-master/Folds/lmdb/Test_fold_is_0/gender_val_lmdb"
    batch_size: 50
    backend: LMDB
  }
}
layer {
  name: "conv1"
  type: "Convolution"
  bottom: "data"
  top: "conv1"
  param {
    lr_mult: 1
    decay_mult: 1
  }
  param {
    lr_mult: 2
    decay_mult: 0
  }
  convolution_param {
    num_output: 96
    kernel_size: 7
    stride: 4
    weight_filler {
      type: "gaussian"
      std: 0.01
    }
    bias_filler {
      type: "constant"
      value: 0
    }
  }
}
layer {
  name: "relu1"
  type: "ReLU"
  bottom: "conv1"
  top: "conv1"
}
layer {
  name: "pool1"
  type: "Pooling"
  bottom: "conv1"
  top: "pool1"
  pooling_param {
    pool: MAX
    kernel_size: 3
    stride: 2
  }
}
layer {
  name: "norm1"
  type: "LRN"
  bottom: "pool1"
  top: "norm1"
  lrn_param {
    local_size: 5
    alpha: 0.0001
    beta: 0.75
  }
}
layer {
  name: "conv2"
  type: "Convolution"
  bottom: "norm1"
  top: "conv2"
  param {
    lr_mult: 1
    decay_mult: 1
  }
  param {
    lr_mult: 2
    decay_mult: 0
  }
  convolution_param {
    num_output: 256
    pad: 2
    kernel_size: 5
    weight_filler {
      type: "gaussian"
      std: 0.01
    }
    bias_filler {
      type: "constant"
      value: 1
    }
  }
}
layer {
  name: "relu2"
  type: "ReLU"
  bottom: "conv2"
  top: "conv2"
}
layer {
  name: "pool2"
  type: "Pooling"
  bottom: "conv2"
  top: "pool2"
  pooling_param {
    pool: MAX
    kernel_size: 3
    stride: 2
  }
}
layer {
  name: "norm2"
  type: "LRN"
  bottom: "pool2"
  top: "norm2"
  lrn_param {
    local_size: 5
    alpha: 0.0001
    beta: 0.75
  }
}
layer {
  name: "conv3"
  type: "Convolution"
  bottom: "norm2"
  top: "conv3"
  param {
    lr_mult: 1
    decay_mult: 1
  }
  param {
    lr_mult: 2
    decay_mult: 0
  }
  convolution_param {
    num_output: 384
    pad: 1
    kernel_size: 3
    weight_filler {
      type: "gaussian"
      std: 0.01
    }
    bias_filler {
      type: "constant"
      value: 0
    }
  }
}
layer {
  name: "relu3"
  type: "ReLU"
  bottom: "conv3"
  top: "conv3"
}
layer {
  name: "pool5"
  type: "Pooling"
  bottom: "conv3"
  top: "pool5"
  pooling_param {
    pool: MAX
    kernel_size: 3
    stride: 2
  }
}
layer {
  name: "fc6"
  type: "InnerProduct"
  bottom: "pool5"
  top: "fc6"
  param {
    lr_mult: 1
    decay_mult: 1
  }
  param {
    lr_mult: 2
    decay_mult: 0
  }
  inner_product_param {
    num_output: 512
    weight_filler {
      type: "gaussian"
      std: 0.005
    }
    bias_filler {
      type: "constant"
      value: 1
    }
  }
}
layer {
  name: "relu6"
  type: "ReLU"
  bottom: "fc6"
  top: "fc6"
}
layer {
  name: "drop6"
  type: "Dropout"
  bottom: "fc6"
  top: "fc6"
  dropout_param {
    dropout_ratio: 0.5
  }
}
layer {
  name: "fc7"
  type: "InnerProduct"
  bottom: "fc6"
  top: "fc7"
  param {
    lr_mult: 1
    decay_mult: 1
  }
  param {
    lr_mult: 2
    decay_mult: 0
  }
  inner_product_param {
    num_output: 512
    weight_filler {
      type: "gaussian"
      std: 0.005
    }
    bias_filler {
      type: "constant"
      value: 1
    }
  }
}
layer {
  name: "relu7"
  type: "ReLU"
  bottom: "fc7"
  top: "fc7"
}
layer {
  name: "drop7"
  type: "Dropout"
  bottom: "fc7"
  top: "fc7"
  dropout_param {
    dropout_ratio: 0.5
  }
}
layer {
  name: "fc8"
  type: "InnerProduct"
  bottom: "fc7"
  top: "fc8"
  param {
    lr_mult: 10
    decay_mult: 1
  }
  param {
    lr_mult: 20
    decay_mult: 0
  }
  inner_product_param {
    num_output: 2
    weight_filler {
      type: "gaussian"
      std: 0.01
    }
    bias_filler {
      type: "constant"
      value: 0
    }
  }
}
layer {
  name: "accuracy"
  type: "Accuracy"
  bottom: "fc8"
  bottom: "label"
  top: "accuracy"
  include {
    phase: TEST
  }
}
layer {
  name: "loss"
  type: "SoftmaxWithLoss"
  bottom: "fc8"
  bottom: "label"
  top: "loss"
}
I0520 20:51:48.458170 16079 layer_factory.hpp:77] Creating layer data
I0520 20:51:48.458230 16079 db_lmdb.cpp:35] Opened lmdb /home/k/PycharmProjects/AgeGenderDeepLearning-master/Folds/lmdb/Test_fold_is_0/gender_val_lmdb
I0520 20:51:48.458246 16079 net.cpp:84] Creating Layer data
I0520 20:51:48.458254 16079 net.cpp:380] data -> data
I0520 20:51:48.458262 16079 net.cpp:380] data -> label
I0520 20:51:48.458271 16079 data_transformer.cpp:25] Loading mean file from: /home/k/PycharmProjects/AgeGenderDeepLearning-master/Folds/lmdb/Test_fold_is_0/mean.binaryproto
I0520 20:51:48.460362 16079 data_layer.cpp:45] output data size: 50,3,227,227
I0520 20:51:48.524391 16079 net.cpp:122] Setting up data
I0520 20:51:48.524431 16079 net.cpp:129] Top shape: 50 3 227 227 (7729350)
I0520 20:51:48.524436 16079 net.cpp:129] Top shape: 50 (50)
I0520 20:51:48.524440 16079 net.cpp:137] Memory required for data: 30917600
I0520 20:51:48.524446 16079 layer_factory.hpp:77] Creating layer label_data_1_split
I0520 20:51:48.524459 16079 net.cpp:84] Creating Layer label_data_1_split
I0520 20:51:48.524463 16079 net.cpp:406] label_data_1_split <- label
I0520 20:51:48.524471 16079 net.cpp:380] label_data_1_split -> label_data_1_split_0
I0520 20:51:48.524480 16079 net.cpp:380] label_data_1_split -> label_data_1_split_1
I0520 20:51:48.524544 16079 net.cpp:122] Setting up label_data_1_split
I0520 20:51:48.524551 16079 net.cpp:129] Top shape: 50 (50)
I0520 20:51:48.524555 16079 net.cpp:129] Top shape: 50 (50)
I0520 20:51:48.524557 16079 net.cpp:137] Memory required for data: 30918000
I0520 20:51:48.524560 16079 layer_factory.hpp:77] Creating layer conv1
I0520 20:51:48.524572 16079 net.cpp:84] Creating Layer conv1
I0520 20:51:48.524575 16079 net.cpp:406] conv1 <- data
I0520 20:51:48.524581 16079 net.cpp:380] conv1 -> conv1
I0520 20:51:48.530671 16079 net.cpp:122] Setting up conv1
I0520 20:51:48.530699 16079 net.cpp:129] Top shape: 50 96 56 56 (15052800)
I0520 20:51:48.530702 16079 net.cpp:137] Memory required for data: 91129200
I0520 20:51:48.530714 16079 layer_factory.hpp:77] Creating layer relu1
I0520 20:51:48.530720 16079 net.cpp:84] Creating Layer relu1
I0520 20:51:48.530725 16079 net.cpp:406] relu1 <- conv1
I0520 20:51:48.530730 16079 net.cpp:367] relu1 -> conv1 (in-place)
I0520 20:51:48.530899 16079 net.cpp:122] Setting up relu1
I0520 20:51:48.530907 16079 net.cpp:129] Top shape: 50 96 56 56 (15052800)
I0520 20:51:48.530922 16079 net.cpp:137] Memory required for data: 151340400
I0520 20:51:48.530925 16079 layer_factory.hpp:77] Creating layer pool1
I0520 20:51:48.530933 16079 net.cpp:84] Creating Layer pool1
I0520 20:51:48.530936 16079 net.cpp:406] pool1 <- conv1
I0520 20:51:48.530942 16079 net.cpp:380] pool1 -> pool1
I0520 20:51:48.530978 16079 net.cpp:122] Setting up pool1
I0520 20:51:48.530997 16079 net.cpp:129] Top shape: 50 96 28 28 (3763200)
I0520 20:51:48.531000 16079 net.cpp:137] Memory required for data: 166393200
I0520 20:51:48.531003 16079 layer_factory.hpp:77] Creating layer norm1
I0520 20:51:48.531010 16079 net.cpp:84] Creating Layer norm1
I0520 20:51:48.531013 16079 net.cpp:406] norm1 <- pool1
I0520 20:51:48.531018 16079 net.cpp:380] norm1 -> norm1
I0520 20:51:48.531713 16079 net.cpp:122] Setting up norm1
I0520 20:51:48.531736 16079 net.cpp:129] Top shape: 50 96 28 28 (3763200)
I0520 20:51:48.531740 16079 net.cpp:137] Memory required for data: 181446000
I0520 20:51:48.531744 16079 layer_factory.hpp:77] Creating layer conv2
I0520 20:51:48.531752 16079 net.cpp:84] Creating Layer conv2
I0520 20:51:48.531755 16079 net.cpp:406] conv2 <- norm1
I0520 20:51:48.531761 16079 net.cpp:380] conv2 -> conv2
I0520 20:51:48.539521 16079 net.cpp:122] Setting up conv2
I0520 20:51:48.539551 16079 net.cpp:129] Top shape: 50 256 28 28 (10035200)
I0520 20:51:48.539556 16079 net.cpp:137] Memory required for data: 221586800
I0520 20:51:48.539568 16079 layer_factory.hpp:77] Creating layer relu2
I0520 20:51:48.539578 16079 net.cpp:84] Creating Layer relu2
I0520 20:51:48.539583 16079 net.cpp:406] relu2 <- conv2
I0520 20:51:48.539590 16079 net.cpp:367] relu2 -> conv2 (in-place)
I0520 20:51:48.540343 16079 net.cpp:122] Setting up relu2
I0520 20:51:48.540354 16079 net.cpp:129] Top shape: 50 256 28 28 (10035200)
I0520 20:51:48.540359 16079 net.cpp:137] Memory required for data: 261727600
I0520 20:51:48.540361 16079 layer_factory.hpp:77] Creating layer pool2
I0520 20:51:48.540371 16079 net.cpp:84] Creating Layer pool2
I0520 20:51:48.540375 16079 net.cpp:406] pool2 <- conv2
I0520 20:51:48.540380 16079 net.cpp:380] pool2 -> pool2
I0520 20:51:48.540424 16079 net.cpp:122] Setting up pool2
I0520 20:51:48.540432 16079 net.cpp:129] Top shape: 50 256 14 14 (2508800)
I0520 20:51:48.540436 16079 net.cpp:137] Memory required for data: 271762800
I0520 20:51:48.540439 16079 layer_factory.hpp:77] Creating layer norm2
I0520 20:51:48.540446 16079 net.cpp:84] Creating Layer norm2
I0520 20:51:48.540448 16079 net.cpp:406] norm2 <- pool2
I0520 20:51:48.540453 16079 net.cpp:380] norm2 -> norm2
I0520 20:51:48.540611 16079 net.cpp:122] Setting up norm2
I0520 20:51:48.540621 16079 net.cpp:129] Top shape: 50 256 14 14 (2508800)
I0520 20:51:48.540624 16079 net.cpp:137] Memory required for data: 281798000
I0520 20:51:48.540627 16079 layer_factory.hpp:77] Creating layer conv3
I0520 20:51:48.540637 16079 net.cpp:84] Creating Layer conv3
I0520 20:51:48.540642 16079 net.cpp:406] conv3 <- norm2
I0520 20:51:48.540647 16079 net.cpp:380] conv3 -> conv3
I0520 20:51:48.558128 16079 net.cpp:122] Setting up conv3
I0520 20:51:48.558156 16079 net.cpp:129] Top shape: 50 384 14 14 (3763200)
I0520 20:51:48.558159 16079 net.cpp:137] Memory required for data: 296850800
I0520 20:51:48.558174 16079 layer_factory.hpp:77] Creating layer relu3
I0520 20:51:48.558184 16079 net.cpp:84] Creating Layer relu3
I0520 20:51:48.558188 16079 net.cpp:406] relu3 <- conv3
I0520 20:51:48.558197 16079 net.cpp:367] relu3 -> conv3 (in-place)
I0520 20:51:48.558351 16079 net.cpp:122] Setting up relu3
I0520 20:51:48.558360 16079 net.cpp:129] Top shape: 50 384 14 14 (3763200)
I0520 20:51:48.558363 16079 net.cpp:137] Memory required for data: 311903600
I0520 20:51:48.558367 16079 layer_factory.hpp:77] Creating layer pool5
I0520 20:51:48.558373 16079 net.cpp:84] Creating Layer pool5
I0520 20:51:48.558377 16079 net.cpp:406] pool5 <- conv3
I0520 20:51:48.558382 16079 net.cpp:380] pool5 -> pool5
I0520 20:51:48.558429 16079 net.cpp:122] Setting up pool5
I0520 20:51:48.558436 16079 net.cpp:129] Top shape: 50 384 7 7 (940800)
I0520 20:51:48.558439 16079 net.cpp:137] Memory required for data: 315666800
I0520 20:51:48.558442 16079 layer_factory.hpp:77] Creating layer fc6
I0520 20:51:48.558450 16079 net.cpp:84] Creating Layer fc6
I0520 20:51:48.558454 16079 net.cpp:406] fc6 <- pool5
I0520 20:51:48.558459 16079 net.cpp:380] fc6 -> fc6
I0520 20:51:48.668293 16079 net.cpp:122] Setting up fc6
I0520 20:51:48.668331 16079 net.cpp:129] Top shape: 50 512 (25600)
I0520 20:51:48.668334 16079 net.cpp:137] Memory required for data: 315769200
I0520 20:51:48.668357 16079 layer_factory.hpp:77] Creating layer relu6
I0520 20:51:48.668368 16079 net.cpp:84] Creating Layer relu6
I0520 20:51:48.668373 16079 net.cpp:406] relu6 <- fc6
I0520 20:51:48.668380 16079 net.cpp:367] relu6 -> fc6 (in-place)
I0520 20:51:48.668642 16079 net.cpp:122] Setting up relu6
I0520 20:51:48.668651 16079 net.cpp:129] Top shape: 50 512 (25600)
I0520 20:51:48.668654 16079 net.cpp:137] Memory required for data: 315871600
I0520 20:51:48.668658 16079 layer_factory.hpp:77] Creating layer drop6
I0520 20:51:48.668664 16079 net.cpp:84] Creating Layer drop6
I0520 20:51:48.668668 16079 net.cpp:406] drop6 <- fc6
I0520 20:51:48.668673 16079 net.cpp:367] drop6 -> fc6 (in-place)
I0520 20:51:48.668720 16079 net.cpp:122] Setting up drop6
I0520 20:51:48.668730 16079 net.cpp:129] Top shape: 50 512 (25600)
I0520 20:51:48.668732 16079 net.cpp:137] Memory required for data: 315974000
I0520 20:51:48.668735 16079 layer_factory.hpp:77] Creating layer fc7
I0520 20:51:48.668745 16079 net.cpp:84] Creating Layer fc7
I0520 20:51:48.668750 16079 net.cpp:406] fc7 <- fc6
I0520 20:51:48.668754 16079 net.cpp:380] fc7 -> fc7
I0520 20:51:48.671483 16079 net.cpp:122] Setting up fc7
I0520 20:51:48.671492 16079 net.cpp:129] Top shape: 50 512 (25600)
I0520 20:51:48.671495 16079 net.cpp:137] Memory required for data: 316076400
I0520 20:51:48.671504 16079 layer_factory.hpp:77] Creating layer relu7
I0520 20:51:48.671509 16079 net.cpp:84] Creating Layer relu7
I0520 20:51:48.671514 16079 net.cpp:406] relu7 <- fc7
I0520 20:51:48.671517 16079 net.cpp:367] relu7 -> fc7 (in-place)
I0520 20:51:48.672281 16079 net.cpp:122] Setting up relu7
I0520 20:51:48.672292 16079 net.cpp:129] Top shape: 50 512 (25600)
I0520 20:51:48.672296 16079 net.cpp:137] Memory required for data: 316178800
I0520 20:51:48.672298 16079 layer_factory.hpp:77] Creating layer drop7
I0520 20:51:48.672304 16079 net.cpp:84] Creating Layer drop7
I0520 20:51:48.672307 16079 net.cpp:406] drop7 <- fc7
I0520 20:51:48.672312 16079 net.cpp:367] drop7 -> fc7 (in-place)
I0520 20:51:48.672348 16079 net.cpp:122] Setting up drop7
I0520 20:51:48.672355 16079 net.cpp:129] Top shape: 50 512 (25600)
I0520 20:51:48.672358 16079 net.cpp:137] Memory required for data: 316281200
I0520 20:51:48.672361 16079 layer_factory.hpp:77] Creating layer fc8
I0520 20:51:48.672368 16079 net.cpp:84] Creating Layer fc8
I0520 20:51:48.672371 16079 net.cpp:406] fc8 <- fc7
I0520 20:51:48.672376 16079 net.cpp:380] fc8 -> fc8
I0520 20:51:48.672480 16079 net.cpp:122] Setting up fc8
I0520 20:51:48.672487 16079 net.cpp:129] Top shape: 50 2 (100)
I0520 20:51:48.672490 16079 net.cpp:137] Memory required for data: 316281600
I0520 20:51:48.672497 16079 layer_factory.hpp:77] Creating layer fc8_fc8_0_split
I0520 20:51:48.672502 16079 net.cpp:84] Creating Layer fc8_fc8_0_split
I0520 20:51:48.672505 16079 net.cpp:406] fc8_fc8_0_split <- fc8
I0520 20:51:48.672509 16079 net.cpp:380] fc8_fc8_0_split -> fc8_fc8_0_split_0
I0520 20:51:48.672516 16079 net.cpp:380] fc8_fc8_0_split -> fc8_fc8_0_split_1
I0520 20:51:48.672560 16079 net.cpp:122] Setting up fc8_fc8_0_split
I0520 20:51:48.672567 16079 net.cpp:129] Top shape: 50 2 (100)
I0520 20:51:48.672571 16079 net.cpp:129] Top shape: 50 2 (100)
I0520 20:51:48.672574 16079 net.cpp:137] Memory required for data: 316282400
I0520 20:51:48.672577 16079 layer_factory.hpp:77] Creating layer accuracy
I0520 20:51:48.672585 16079 net.cpp:84] Creating Layer accuracy
I0520 20:51:48.672587 16079 net.cpp:406] accuracy <- fc8_fc8_0_split_0
I0520 20:51:48.672592 16079 net.cpp:406] accuracy <- label_data_1_split_0
I0520 20:51:48.672596 16079 net.cpp:380] accuracy -> accuracy
…
