…
I0521 15:12:26.313077 10767 net.cpp:51] Initializing net from parameters: 
name: "CaffeNet"
state {
  phase: TRAIN
  level: 0
  stage: ""
}
layer {
  name: "data"
  type: "Data"
  top: "data"
  top: "label"
  include {
    phase: TRAIN
  }
  transform_param {
    mirror: true
    crop_size: 227
    mean_file: "/home/k/PycharmProjects/AgeGenderDeepLearning-master/Folds/lmdb/Test_fold_is_0/mean.binaryproto"
  }
  data_param {
    source: "/home/k/PycharmProjects/AgeGenderDeepLearning-master/Folds/lmdb/Test_fold_is_0/gender_train_lmdb"
    batch_size: 50
    backend: LMDB
  }
}
layer {
  name: "conv1"
  type: "Convolution"
  bottom: "data"
  top: "conv1"
  param {
    lr_mult: 1
    decay_mult: 1
  }
  param {
    lr_mult: 2
    decay_mult: 0
  }
  convolution_param {
    num_output: 96
    kernel_size: 7
    stride: 4
    weight_filler {
      type: "gaussian"
      std: 0.01
    }
    bias_filler {
      type: "constant"
      value: 0
    }
  }
}
layer {
  name: "relu1"
  type: "ReLU"
  bottom: "conv1"
  top: "conv1"
}
layer {
  name: "pool1"
  type: "Pooling"
  bottom: "conv1"
  top: "pool1"
  pooling_param {
    pool: MAX
    kernel_size: 3
    stride: 2
  }
}
layer {
  name: "norm1"
  type: "LRN"
  bottom: "pool1"
  top: "norm1"
  lrn_param {
    local_size: 5
    alpha: 0.0001
    beta: 0.75
  }
}
layer {
  name: "conv2"
  type: "Convolution"
  bottom: "norm1"
  top: "conv2"
  param {
    lr_mult: 1
    decay_mult: 1
  }
  param {
    lr_mult: 2
    decay_mult: 0
  }
  convolution_param {
    num_output: 256
    pad: 2
    kernel_size: 5
    weight_filler {
      type: "gaussian"
      std: 0.01
    }
    bias_filler {
      type: "constant"
      value: 1
    }
  }
}
layer {
  name: "relu2"
  type: "ReLU"
  bottom: "conv2"
  top: "conv2"
}
layer {
  name: "pool2"
  type: "Pooling"
  bottom: "conv2"
  top: "pool2"
  pooling_param {
    pool: MAX
    kernel_size: 3
    stride: 2
  }
}
layer {
  name: "norm2"
  type: "LRN"
  bottom: "pool2"
  top: "norm2"
  lrn_param {
    local_size: 5
    alpha: 0.0001
    beta: 0.75
  }
}
layer {
  name: "conv3"
  type: "Convolution"
  bottom: "norm2"
  top: "conv3"
  param {
    lr_mult: 1
    decay_mult: 1
  }
  param {
    lr_mult: 2
    decay_mult: 0
  }
  convolution_param {
    num_output: 384
    pad: 1
    kernel_size: 3
    weight_filler {
      type: "gaussian"
      std: 0.01
    }
    bias_filler {
      type: "constant"
      value: 0
    }
  }
}
layer {
  name: "relu3"
  type: "ReLU"
  bottom: "conv3"
  top: "conv3"
}
layer {
  name: "pool5"
  type: "Pooling"
  bottom: "conv3"
  top: "pool5"
  pooling_param {
    pool: MAX
    kernel_size: 3
    stride: 2
  }
}
layer {
  name: "fc6"
  type: "InnerProduct"
  bottom: "pool5"
  top: "fc6"
  param {
    lr_mult: 1
    decay_mult: 1
  }
  param {
    lr_mult: 2
    decay_mult: 0
  }
  inner_product_param {
    num_output: 512
    weight_filler {
      type: "gaussian"
      std: 0.005
    }
    bias_filler {
      type: "constant"
      value: 1
    }
  }
}
layer {
  name: "relu6"
  type: "ReLU"
  bottom: "fc6"
  top: "fc6"
}
layer {
  name: "drop6"
  type: "Dropout"
  bottom: "fc6"
  top: "fc6"
  dropout_param {
    dropout_ratio: 0.5
  }
}
layer {
  name: "fc7"
  type: "InnerProduct"
  bottom: "fc6"
  top: "fc7"
  param {
    lr_mult: 1
    decay_mult: 1
  }
  param {
    lr_mult: 2
    decay_mult: 0
  }
  inner_product_param {
    num_output: 512
    weight_filler {
      type: "gaussian"
      std: 0.005
    }
    bias_filler {
      type: "constant"
      value: 1
    }
  }
}
layer {
  name: "relu7"
  type: "ReLU"
  bottom: "fc7"
  top: "fc7"
}
layer {
  name: "drop7"
  type: "Dropout"
  bottom: "fc7"
  top: "fc7"
  dropout_param {
    dropout_ratio: 0.5
  }
}
layer {
  name: "fc8"
  type: "InnerProduct"
  bottom: "fc7"
  top: "fc8"
  param {
    lr_mult: 10
    decay_mult: 1
  }
  param {
    lr_mult: 20
    decay_mult: 0
  }
  inner_product_param {
    num_output: 2
    weight_filler {
      type: "gaussian"
      std: 0.01
    }
    bias_filler {
      type: "constant"
      value: 0
    }
  }
}
layer {
  name: "loss"
  type: "SoftmaxWithLoss"
  bottom: "fc8"
  bottom: "label"
  top: "loss"
}
I0521 15:12:26.313179 10767 layer_factory.hpp:77] Creating layer data
I0521 15:12:26.354092 10767 db_lmdb.cpp:35] Opened lmdb /home/k/PycharmProjects/AgeGenderDeepLearning-master/Folds/lmdb/Test_fold_is_0/gender_train_lmdb
I0521 15:12:26.363865 10767 net.cpp:84] Creating Layer data
I0521 15:12:26.363898 10767 net.cpp:380] data -> data
I0521 15:12:26.363934 10767 net.cpp:380] data -> label
I0521 15:12:26.363970 10767 data_transformer.cpp:25] Loading mean file from: /home/k/PycharmProjects/AgeGenderDeepLearning-master/Folds/lmdb/Test_fold_is_0/mean.binaryproto
I0521 15:12:26.381726 10767 data_layer.cpp:45] output data size: 50,3,227,227
I0521 15:12:26.466735 10767 net.cpp:122] Setting up data
I0521 15:12:26.466773 10767 net.cpp:129] Top shape: 50 3 227 227 (7729350)
I0521 15:12:26.466781 10767 net.cpp:129] Top shape: 50 (50)
I0521 15:12:26.466786 10767 net.cpp:137] Memory required for data: 30917600
I0521 15:12:26.466799 10767 layer_factory.hpp:77] Creating layer conv1
I0521 15:12:26.466823 10767 net.cpp:84] Creating Layer conv1
I0521 15:12:26.466831 10767 net.cpp:406] conv1 <- data
I0521 15:12:26.466855 10767 net.cpp:380] conv1 -> conv1
I0521 15:12:26.726927 10767 net.cpp:122] Setting up conv1
I0521 15:12:26.726970 10767 net.cpp:129] Top shape: 50 96 56 56 (15052800)
I0521 15:12:26.726975 10767 net.cpp:137] Memory required for data: 91128800
I0521 15:12:26.726999 10767 layer_factory.hpp:77] Creating layer relu1
I0521 15:12:26.727011 10767 net.cpp:84] Creating Layer relu1
I0521 15:12:26.727015 10767 net.cpp:406] relu1 <- conv1
I0521 15:12:26.727023 10767 net.cpp:367] relu1 -> conv1 (in-place)
I0521 15:12:26.727200 10767 net.cpp:122] Setting up relu1
I0521 15:12:26.727210 10767 net.cpp:129] Top shape: 50 96 56 56 (15052800)
I0521 15:12:26.727213 10767 net.cpp:137] Memory required for data: 151340000
I0521 15:12:26.727216 10767 layer_factory.hpp:77] Creating layer pool1
I0521 15:12:26.727223 10767 net.cpp:84] Creating Layer pool1
I0521 15:12:26.727227 10767 net.cpp:406] pool1 <- conv1
I0521 15:12:26.727232 10767 net.cpp:380] pool1 -> pool1
I0521 15:12:26.727296 10767 net.cpp:122] Setting up pool1
I0521 15:12:26.727318 10767 net.cpp:129] Top shape: 50 96 28 28 (3763200)
I0521 15:12:26.727321 10767 net.cpp:137] Memory required for data: 166392800
I0521 15:12:26.727324 10767 layer_factory.hpp:77] Creating layer norm1
I0521 15:12:26.727334 10767 net.cpp:84] Creating Layer norm1
I0521 15:12:26.727339 10767 net.cpp:406] norm1 <- pool1
I0521 15:12:26.727344 10767 net.cpp:380] norm1 -> norm1
I0521 15:12:26.728003 10767 net.cpp:122] Setting up norm1
I0521 15:12:26.728016 10767 net.cpp:129] Top shape: 50 96 28 28 (3763200)
I0521 15:12:26.728019 10767 net.cpp:137] Memory required for data: 181445600
I0521 15:12:26.728024 10767 layer_factory.hpp:77] Creating layer conv2
I0521 15:12:26.728034 10767 net.cpp:84] Creating Layer conv2
I0521 15:12:26.728039 10767 net.cpp:406] conv2 <- norm1
I0521 15:12:26.728072 10767 net.cpp:380] conv2 -> conv2
I0521 15:12:26.736457 10767 net.cpp:122] Setting up conv2
I0521 15:12:26.736471 10767 net.cpp:129] Top shape: 50 256 28 28 (10035200)
I0521 15:12:26.736475 10767 net.cpp:137] Memory required for data: 221586400
I0521 15:12:26.736485 10767 layer_factory.hpp:77] Creating layer relu2
I0521 15:12:26.736491 10767 net.cpp:84] Creating Layer relu2
I0521 15:12:26.736495 10767 net.cpp:406] relu2 <- conv2
I0521 15:12:26.736500 10767 net.cpp:367] relu2 -> conv2 (in-place)
I0521 15:12:26.736676 10767 net.cpp:122] Setting up relu2
I0521 15:12:26.736687 10767 net.cpp:129] Top shape: 50 256 28 28 (10035200)
I0521 15:12:26.736690 10767 net.cpp:137] Memory required for data: 261727200
I0521 15:12:26.736695 10767 layer_factory.hpp:77] Creating layer pool2
I0521 15:12:26.736699 10767 net.cpp:84] Creating Layer pool2
I0521 15:12:26.736703 10767 net.cpp:406] pool2 <- conv2
I0521 15:12:26.736708 10767 net.cpp:380] pool2 -> pool2
I0521 15:12:26.736760 10767 net.cpp:122] Setting up pool2
I0521 15:12:26.736775 10767 net.cpp:129] Top shape: 50 256 14 14 (2508800)
I0521 15:12:26.736780 10767 net.cpp:137] Memory required for data: 271762400
I0521 15:12:26.736795 10767 layer_factory.hpp:77] Creating layer norm2
I0521 15:12:26.736802 10767 net.cpp:84] Creating Layer norm2
I0521 15:12:26.736805 10767 net.cpp:406] norm2 <- pool2
I0521 15:12:26.736810 10767 net.cpp:380] norm2 -> norm2
I0521 15:12:26.736977 10767 net.cpp:122] Setting up norm2
I0521 15:12:26.736987 10767 net.cpp:129] Top shape: 50 256 14 14 (2508800)
I0521 15:12:26.736990 10767 net.cpp:137] Memory required for data: 281797600
I0521 15:12:26.736994 10767 layer_factory.hpp:77] Creating layer conv3
I0521 15:12:26.737002 10767 net.cpp:84] Creating Layer conv3
I0521 15:12:26.737006 10767 net.cpp:406] conv3 <- norm2
I0521 15:12:26.737011 10767 net.cpp:380] conv3 -> conv3
I0521 15:12:26.748773 10767 net.cpp:122] Setting up conv3
I0521 15:12:26.748797 10767 net.cpp:129] Top shape: 50 384 14 14 (3763200)
I0521 15:12:26.748801 10767 net.cpp:137] Memory required for data: 296850400
I0521 15:12:26.748813 10767 layer_factory.hpp:77] Creating layer relu3
I0521 15:12:26.748833 10767 net.cpp:84] Creating Layer relu3
I0521 15:12:26.748837 10767 net.cpp:406] relu3 <- conv3
I0521 15:12:26.748843 10767 net.cpp:367] relu3 -> conv3 (in-place)
I0521 15:12:26.749014 10767 net.cpp:122] Setting up relu3
I0521 15:12:26.749025 10767 net.cpp:129] Top shape: 50 384 14 14 (3763200)
I0521 15:12:26.749028 10767 net.cpp:137] Memory required for data: 311903200
I0521 15:12:26.749032 10767 layer_factory.hpp:77] Creating layer pool5
I0521 15:12:26.749038 10767 net.cpp:84] Creating Layer pool5
I0521 15:12:26.749042 10767 net.cpp:406] pool5 <- conv3
I0521 15:12:26.749047 10767 net.cpp:380] pool5 -> pool5
I0521 15:12:26.749125 10767 net.cpp:122] Setting up pool5
I0521 15:12:26.749135 10767 net.cpp:129] Top shape: 50 384 7 7 (940800)
I0521 15:12:26.749137 10767 net.cpp:137] Memory required for data: 315666400
I0521 15:12:26.749141 10767 layer_factory.hpp:77] Creating layer fc6
I0521 15:12:26.749148 10767 net.cpp:84] Creating Layer fc6
I0521 15:12:26.749151 10767 net.cpp:406] fc6 <- pool5
I0521 15:12:26.749156 10767 net.cpp:380] fc6 -> fc6
I0521 15:12:26.852903 10767 net.cpp:122] Setting up fc6
I0521 15:12:26.852941 10767 net.cpp:129] Top shape: 50 512 (25600)
I0521 15:12:26.852946 10767 net.cpp:137] Memory required for data: 315768800
I0521 15:12:26.852957 10767 layer_factory.hpp:77] Creating layer relu6
I0521 15:12:26.852967 10767 net.cpp:84] Creating Layer relu6
I0521 15:12:26.852972 10767 net.cpp:406] relu6 <- fc6
I0521 15:12:26.852978 10767 net.cpp:367] relu6 -> fc6 (in-place)
I0521 15:12:26.853806 10767 net.cpp:122] Setting up relu6
I0521 15:12:26.853826 10767 net.cpp:129] Top shape: 50 512 (25600)
I0521 15:12:26.853829 10767 net.cpp:137] Memory required for data: 315871200
I0521 15:12:26.853832 10767 layer_factory.hpp:77] Creating layer drop6
I0521 15:12:26.853852 10767 net.cpp:84] Creating Layer drop6
I0521 15:12:26.853854 10767 net.cpp:406] drop6 <- fc6
I0521 15:12:26.853879 10767 net.cpp:367] drop6 -> fc6 (in-place)
I0521 15:12:26.853934 10767 net.cpp:122] Setting up drop6
I0521 15:12:26.853943 10767 net.cpp:129] Top shape: 50 512 (25600)
I0521 15:12:26.853946 10767 net.cpp:137] Memory required for data: 315973600
I0521 15:12:26.853950 10767 layer_factory.hpp:77] Creating layer fc7
I0521 15:12:26.853957 10767 net.cpp:84] Creating Layer fc7
I0521 15:12:26.853960 10767 net.cpp:406] fc7 <- fc6
I0521 15:12:26.853966 10767 net.cpp:380] fc7 -> fc7
I0521 15:12:26.856649 10767 net.cpp:122] Setting up fc7
I0521 15:12:26.856659 10767 net.cpp:129] Top shape: 50 512 (25600)
I0521 15:12:26.856663 10767 net.cpp:137] Memory required for data: 316076000
I0521 15:12:26.856673 10767 layer_factory.hpp:77] Creating layer relu7
I0521 15:12:26.856680 10767 net.cpp:84] Creating Layer relu7
I0521 15:12:26.856683 10767 net.cpp:406] relu7 <- fc7
I0521 15:12:26.856688 10767 net.cpp:367] relu7 -> fc7 (in-place)
I0521 15:12:26.856858 10767 net.cpp:122] Setting up relu7
I0521 15:12:26.856868 10767 net.cpp:129] Top shape: 50 512 (25600)
I0521 15:12:26.856873 10767 net.cpp:137] Memory required for data: 316178400
I0521 15:12:26.856875 10767 layer_factory.hpp:77] Creating layer drop7
I0521 15:12:26.856880 10767 net.cpp:84] Creating Layer drop7
I0521 15:12:26.856884 10767 net.cpp:406] drop7 <- fc7
I0521 15:12:26.856889 10767 net.cpp:367] drop7 -> fc7 (in-place)
I0521 15:12:26.856922 10767 net.cpp:122] Setting up drop7
I0521 15:12:26.856933 10767 net.cpp:129] Top shape: 50 512 (25600)
I0521 15:12:26.856940 10767 net.cpp:137] Memory required for data: 316280800
I0521 15:12:26.856945 10767 layer_factory.hpp:77] Creating layer fc8
I0521 15:12:26.856956 10767 net.cpp:84] Creating Layer fc8
I0521 15:12:26.856961 10767 net.cpp:406] fc8 <- fc7
I0521 15:12:26.856976 10767 net.cpp:380] fc8 -> fc8
I0521 15:12:26.857080 10767 net.cpp:122] Setting up fc8
I0521 15:12:26.857089 10767 net.cpp:129] Top shape: 50 2 (100)
I0521 15:12:26.857092 10767 net.cpp:137] Memory required for data: 316281200
I0521 15:12:26.857098 10767 layer_factory.hpp:77] Creating layer loss
I0521 15:12:26.857103 10767 net.cpp:84] Creating Layer loss
I0521 15:12:26.857107 10767 net.cpp:406] loss <- fc8
I0521 15:12:26.857110 10767 net.cpp:406] loss <- label
I0521 15:12:26.857117 10767 net.cpp:380] loss -> loss
I0521 15:12:26.857137 10767 layer_factory.hpp:77] Creating layer loss
…
I0521 15:12:26.858084 10767 net.cpp:51] Initializing net from parameters: 
name: "CaffeNet"
state {
  phase: TEST
}
layer {
  name: "data"
  type: "Data"
  top: "data"
  top: "label"
  include {
    phase: TEST
  }
  transform_param {
    mirror: false
    crop_size: 227
    mean_file: "/home/k/PycharmProjects/AgeGenderDeepLearning-master/Folds/lmdb/Test_fold_is_0/mean.binaryproto"
  }
  data_param {
    source: "/home/k/PycharmProjects/AgeGenderDeepLearning-master/Folds/lmdb/Test_fold_is_0/gender_val_lmdb"
    batch_size: 50
    backend: LMDB
  }
}
layer {
  name: "conv1"
  type: "Convolution"
  bottom: "data"
  top: "conv1"
  param {
    lr_mult: 1
    decay_mult: 1
  }
  param {
    lr_mult: 2
    decay_mult: 0
  }
  convolution_param {
    num_output: 96
    kernel_size: 7
    stride: 4
    weight_filler {
      type: "gaussian"
      std: 0.01
    }
    bias_filler {
      type: "constant"
      value: 0
    }
  }
}
layer {
  name: "relu1"
  type: "ReLU"
  bottom: "conv1"
  top: "conv1"
}
layer {
  name: "pool1"
  type: "Pooling"
  bottom: "conv1"
  top: "pool1"
  pooling_param {
    pool: MAX
    kernel_size: 3
    stride: 2
  }
}
layer {
  name: "norm1"
  type: "LRN"
  bottom: "pool1"
  top: "norm1"
  lrn_param {
    local_size: 5
    alpha: 0.0001
    beta: 0.75
  }
}
layer {
  name: "conv2"
  type: "Convolution"
  bottom: "norm1"
  top: "conv2"
  param {
    lr_mult: 1
    decay_mult: 1
  }
  param {
    lr_mult: 2
    decay_mult: 0
  }
  convolution_param {
    num_output: 256
    pad: 2
    kernel_size: 5
    weight_filler {
      type: "gaussian"
      std: 0.01
    }
    bias_filler {
      type: "constant"
      value: 1
    }
  }
}
layer {
  name: "relu2"
  type: "ReLU"
  bottom: "conv2"
  top: "conv2"
}
layer {
  name: "pool2"
  type: "Pooling"
  bottom: "conv2"
  top: "pool2"
  pooling_param {
    pool: MAX
    kernel_size: 3
    stride: 2
  }
}
layer {
  name: "norm2"
  type: "LRN"
  bottom: "pool2"
  top: "norm2"
  lrn_param {
    local_size: 5
    alpha: 0.0001
    beta: 0.75
  }
}
layer {
  name: "conv3"
  type: "Convolution"
  bottom: "norm2"
  top: "conv3"
  param {
    lr_mult: 1
    decay_mult: 1
  }
  param {
    lr_mult: 2
    decay_mult: 0
  }
  convolution_param {
    num_output: 384
    pad: 1
    kernel_size: 3
    weight_filler {
      type: "gaussian"
      std: 0.01
    }
    bias_filler {
      type: "constant"
      value: 0
    }
  }
}
layer {
  name: "relu3"
  type: "ReLU"
  bottom: "conv3"
  top: "conv3"
}
layer {
  name: "pool5"
  type: "Pooling"
  bottom: "conv3"
  top: "pool5"
  pooling_param {
    pool: MAX
    kernel_size: 3
    stride: 2
  }
}
layer {
  name: "fc6"
  type: "InnerProduct"
  bottom: "pool5"
  top: "fc6"
  param {
    lr_mult: 1
    decay_mult: 1
  }
  param {
    lr_mult: 2
    decay_mult: 0
  }
  inner_product_param {
    num_output: 512
    weight_filler {
      type: "gaussian"
      std: 0.005
    }
    bias_filler {
      type: "constant"
      value: 1
    }
  }
}
layer {
  name: "relu6"
  type: "ReLU"
  bottom: "fc6"
  top: "fc6"
}
layer {
  name: "drop6"
  type: "Dropout"
  bottom: "fc6"
  top: "fc6"
  dropout_param {
    dropout_ratio: 0.5
  }
}
layer {
  name: "fc7"
  type: "InnerProduct"
  bottom: "fc6"
  top: "fc7"
  param {
    lr_mult: 1
    decay_mult: 1
  }
  param {
    lr_mult: 2
    decay_mult: 0
  }
  inner_product_param {
    num_output: 512
    weight_filler {
      type: "gaussian"
      std: 0.005
    }
    bias_filler {
      type: "constant"
      value: 1
    }
  }
}
layer {
  name: "relu7"
  type: "ReLU"
  bottom: "fc7"
  top: "fc7"
}
layer {
  name: "drop7"
  type: "Dropout"
  bottom: "fc7"
  top: "fc7"
  dropout_param {
    dropout_ratio: 0.5
  }
}
layer {
  name: "fc8"
  type: "InnerProduct"
  bottom: "fc7"
  top: "fc8"
  param {
    lr_mult: 10
    decay_mult: 1
  }
  param {
    lr_mult: 20
    decay_mult: 0
  }
  inner_product_param {
    num_output: 2
    weight_filler {
      type: "gaussian"
      std: 0.01
    }
    bias_filler {
      type: "constant"
      value: 0
    }
  }
}
layer {
  name: "accuracy"
  type: "Accuracy"
  bottom: "fc8"
  bottom: "label"
  top: "accuracy"
  include {
    phase: TEST
  }
}
layer {
  name: "loss"
  type: "SoftmaxWithLoss"
  bottom: "fc8"
  bottom: "label"
  top: "loss"
}
I0521 15:12:26.858196 10767 layer_factory.hpp:77] Creating layer data
I0521 15:12:26.902528 10767 db_lmdb.cpp:35] Opened lmdb /home/k/PycharmProjects/AgeGenderDeepLearning-master/Folds/lmdb/Test_fold_is_0/gender_val_lmdb
I0521 15:12:26.910367 10767 net.cpp:84] Creating Layer data
I0521 15:12:26.910392 10767 net.cpp:380] data -> data
I0521 15:12:26.910411 10767 net.cpp:380] data -> label
I0521 15:12:26.910428 10767 data_transformer.cpp:25] Loading mean file from: /home/k/PycharmProjects/AgeGenderDeepLearning-master/Folds/lmdb/Test_fold_is_0/mean.binaryproto
I0521 15:12:26.913352 10767 data_layer.cpp:45] output data size: 50,3,227,227
I0521 15:12:26.996510 10767 net.cpp:122] Setting up data
I0521 15:12:26.996548 10767 net.cpp:129] Top shape: 50 3 227 227 (7729350)
I0521 15:12:26.996556 10767 net.cpp:129] Top shape: 50 (50)
I0521 15:12:26.996561 10767 net.cpp:137] Memory required for data: 30917600
I0521 15:12:26.996569 10767 layer_factory.hpp:77] Creating layer label_data_1_split
I0521 15:12:26.996585 10767 net.cpp:84] Creating Layer label_data_1_split
I0521 15:12:26.996594 10767 net.cpp:406] label_data_1_split <- label
I0521 15:12:26.996620 10767 net.cpp:380] label_data_1_split -> label_data_1_split_0
I0521 15:12:26.996640 10767 net.cpp:380] label_data_1_split -> label_data_1_split_1
I0521 15:12:26.996742 10767 net.cpp:122] Setting up label_data_1_split
I0521 15:12:26.996754 10767 net.cpp:129] Top shape: 50 (50)
I0521 15:12:26.996760 10767 net.cpp:129] Top shape: 50 (50)
I0521 15:12:26.996765 10767 net.cpp:137] Memory required for data: 30918000
I0521 15:12:26.996769 10767 layer_factory.hpp:77] Creating layer conv1
I0521 15:12:26.996786 10767 net.cpp:84] Creating Layer conv1
I0521 15:12:26.996793 10767 net.cpp:406] conv1 <- data
I0521 15:12:26.996814 10767 net.cpp:380] conv1 -> conv1
I0521 15:12:27.003151 10767 net.cpp:122] Setting up conv1
I0521 15:12:27.003173 10767 net.cpp:129] Top shape: 50 96 56 56 (15052800)
I0521 15:12:27.003178 10767 net.cpp:137] Memory required for data: 91129200
I0521 15:12:27.003191 10767 layer_factory.hpp:77] Creating layer relu1
I0521 15:12:27.003201 10767 net.cpp:84] Creating Layer relu1
I0521 15:12:27.003206 10767 net.cpp:406] relu1 <- conv1
I0521 15:12:27.003216 10767 net.cpp:367] relu1 -> conv1 (in-place)
I0521 15:12:27.003433 10767 net.cpp:122] Setting up relu1
I0521 15:12:27.003445 10767 net.cpp:129] Top shape: 50 96 56 56 (15052800)
I0521 15:12:27.003449 10767 net.cpp:137] Memory required for data: 151340400
I0521 15:12:27.003454 10767 layer_factory.hpp:77] Creating layer pool1
I0521 15:12:27.003463 10767 net.cpp:84] Creating Layer pool1
I0521 15:12:27.003468 10767 net.cpp:406] pool1 <- conv1
I0521 15:12:27.003473 10767 net.cpp:380] pool1 -> pool1
I0521 15:12:27.003532 10767 net.cpp:122] Setting up pool1
I0521 15:12:27.003545 10767 net.cpp:129] Top shape: 50 96 28 28 (3763200)
I0521 15:12:27.003548 10767 net.cpp:137] Memory required for data: 166393200
I0521 15:12:27.003551 10767 layer_factory.hpp:77] Creating layer norm1
I0521 15:12:27.003561 10767 net.cpp:84] Creating Layer norm1
I0521 15:12:27.003564 10767 net.cpp:406] norm1 <- pool1
I0521 15:12:27.003571 10767 net.cpp:380] norm1 -> norm1
I0521 15:12:27.004427 10767 net.cpp:122] Setting up norm1
I0521 15:12:27.004441 10767 net.cpp:129] Top shape: 50 96 28 28 (3763200)
I0521 15:12:27.004446 10767 net.cpp:137] Memory required for data: 181446000
I0521 15:12:27.004451 10767 layer_factory.hpp:77] Creating layer conv2
I0521 15:12:27.004461 10767 net.cpp:84] Creating Layer conv2
I0521 15:12:27.004465 10767 net.cpp:406] conv2 <- norm1
I0521 15:12:27.004472 10767 net.cpp:380] conv2 -> conv2
I0521 15:12:27.015038 10767 net.cpp:122] Setting up conv2
I0521 15:12:27.015064 10767 net.cpp:129] Top shape: 50 256 28 28 (10035200)
I0521 15:12:27.015069 10767 net.cpp:137] Memory required for data: 221586800
I0521 15:12:27.015082 10767 layer_factory.hpp:77] Creating layer relu2
I0521 15:12:27.015092 10767 net.cpp:84] Creating Layer relu2
I0521 15:12:27.015097 10767 net.cpp:406] relu2 <- conv2
I0521 15:12:27.015106 10767 net.cpp:367] relu2 -> conv2 (in-place)
I0521 15:12:27.016012 10767 net.cpp:122] Setting up relu2
I0521 15:12:27.016027 10767 net.cpp:129] Top shape: 50 256 28 28 (10035200)
I0521 15:12:27.016031 10767 net.cpp:137] Memory required for data: 261727600
I0521 15:12:27.016036 10767 layer_factory.hpp:77] Creating layer pool2
I0521 15:12:27.016046 10767 net.cpp:84] Creating Layer pool2
I0521 15:12:27.016062 10767 net.cpp:406] pool2 <- conv2
I0521 15:12:27.016069 10767 net.cpp:380] pool2 -> pool2
I0521 15:12:27.016136 10767 net.cpp:122] Setting up pool2
I0521 15:12:27.016149 10767 net.cpp:129] Top shape: 50 256 14 14 (2508800)
I0521 15:12:27.016154 10767 net.cpp:137] Memory required for data: 271762800
I0521 15:12:27.016158 10767 layer_factory.hpp:77] Creating layer norm2
I0521 15:12:27.016166 10767 net.cpp:84] Creating Layer norm2
I0521 15:12:27.016171 10767 net.cpp:406] norm2 <- pool2
I0521 15:12:27.016177 10767 net.cpp:380] norm2 -> norm2
I0521 15:12:27.016404 10767 net.cpp:122] Setting up norm2
I0521 15:12:27.016417 10767 net.cpp:129] Top shape: 50 256 14 14 (2508800)
I0521 15:12:27.016422 10767 net.cpp:137] Memory required for data: 281798000
I0521 15:12:27.016425 10767 layer_factory.hpp:77] Creating layer conv3
I0521 15:12:27.016438 10767 net.cpp:84] Creating Layer conv3
I0521 15:12:27.016448 10767 net.cpp:406] conv3 <- norm2
I0521 15:12:27.016460 10767 net.cpp:380] conv3 -> conv3
I0521 15:12:27.032023 10767 net.cpp:122] Setting up conv3
I0521 15:12:27.032052 10767 net.cpp:129] Top shape: 50 384 14 14 (3763200)
I0521 15:12:27.032057 10767 net.cpp:137] Memory required for data: 296850800
I0521 15:12:27.032088 10767 layer_factory.hpp:77] Creating layer relu3
I0521 15:12:27.032106 10767 net.cpp:84] Creating Layer relu3
I0521 15:12:27.032119 10767 net.cpp:406] relu3 <- conv3
I0521 15:12:27.032135 10767 net.cpp:367] relu3 -> conv3 (in-place)
I0521 15:12:27.032330 10767 net.cpp:122] Setting up relu3
I0521 15:12:27.032342 10767 net.cpp:129] Top shape: 50 384 14 14 (3763200)
I0521 15:12:27.032351 10767 net.cpp:137] Memory required for data: 311903600
I0521 15:12:27.032361 10767 layer_factory.hpp:77] Creating layer pool5
I0521 15:12:27.032377 10767 net.cpp:84] Creating Layer pool5
I0521 15:12:27.032387 10767 net.cpp:406] pool5 <- conv3
I0521 15:12:27.032402 10767 net.cpp:380] pool5 -> pool5
I0521 15:12:27.032477 10767 net.cpp:122] Setting up pool5
I0521 15:12:27.032490 10767 net.cpp:129] Top shape: 50 384 7 7 (940800)
I0521 15:12:27.032497 10767 net.cpp:137] Memory required for data: 315666800
I0521 15:12:27.032507 10767 layer_factory.hpp:77] Creating layer fc6
I0521 15:12:27.032523 10767 net.cpp:84] Creating Layer fc6
I0521 15:12:27.032534 10767 net.cpp:406] fc6 <- pool5
I0521 15:12:27.032548 10767 net.cpp:380] fc6 -> fc6
I0521 15:12:27.147300 10767 net.cpp:122] Setting up fc6
I0521 15:12:27.147343 10767 net.cpp:129] Top shape: 50 512 (25600)
I0521 15:12:27.147347 10767 net.cpp:137] Memory required for data: 315769200
I0521 15:12:27.147358 10767 layer_factory.hpp:77] Creating layer relu6
I0521 15:12:27.147368 10767 net.cpp:84] Creating Layer relu6
I0521 15:12:27.147373 10767 net.cpp:406] relu6 <- fc6
I0521 15:12:27.147382 10767 net.cpp:367] relu6 -> fc6 (in-place)
I0521 15:12:27.147632 10767 net.cpp:122] Setting up relu6
I0521 15:12:27.147642 10767 net.cpp:129] Top shape: 50 512 (25600)
I0521 15:12:27.147645 10767 net.cpp:137] Memory required for data: 315871600
I0521 15:12:27.147661 10767 layer_factory.hpp:77] Creating layer drop6
I0521 15:12:27.147667 10767 net.cpp:84] Creating Layer drop6
I0521 15:12:27.147671 10767 net.cpp:406] drop6 <- fc6
I0521 15:12:27.147676 10767 net.cpp:367] drop6 -> fc6 (in-place)
I0521 15:12:27.147722 10767 net.cpp:122] Setting up drop6
I0521 15:12:27.147732 10767 net.cpp:129] Top shape: 50 512 (25600)
I0521 15:12:27.147734 10767 net.cpp:137] Memory required for data: 315974000
I0521 15:12:27.147737 10767 layer_factory.hpp:77] Creating layer fc7
I0521 15:12:27.147747 10767 net.cpp:84] Creating Layer fc7
I0521 15:12:27.147752 10767 net.cpp:406] fc7 <- fc6
I0521 15:12:27.147756 10767 net.cpp:380] fc7 -> fc7
I0521 15:12:27.150506 10767 net.cpp:122] Setting up fc7
I0521 15:12:27.150516 10767 net.cpp:129] Top shape: 50 512 (25600)
I0521 15:12:27.150530 10767 net.cpp:137] Memory required for data: 316076400
I0521 15:12:27.150540 10767 layer_factory.hpp:77] Creating layer relu7
I0521 15:12:27.150545 10767 net.cpp:84] Creating Layer relu7
I0521 15:12:27.150549 10767 net.cpp:406] relu7 <- fc7
I0521 15:12:27.150557 10767 net.cpp:367] relu7 -> fc7 (in-place)
I0521 15:12:27.151319 10767 net.cpp:122] Setting up relu7
I0521 15:12:27.151329 10767 net.cpp:129] Top shape: 50 512 (25600)
I0521 15:12:27.151345 10767 net.cpp:137] Memory required for data: 316178800
I0521 15:12:27.151348 10767 layer_factory.hpp:77] Creating layer drop7
I0521 15:12:27.151355 10767 net.cpp:84] Creating Layer drop7
I0521 15:12:27.151357 10767 net.cpp:406] drop7 <- fc7
I0521 15:12:27.151363 10767 net.cpp:367] drop7 -> fc7 (in-place)
I0521 15:12:27.151397 10767 net.cpp:122] Setting up drop7
I0521 15:12:27.151418 10767 net.cpp:129] Top shape: 50 512 (25600)
I0521 15:12:27.151422 10767 net.cpp:137] Memory required for data: 316281200
I0521 15:12:27.151424 10767 layer_factory.hpp:77] Creating layer fc8
I0521 15:12:27.151430 10767 net.cpp:84] Creating Layer fc8
I0521 15:12:27.151434 10767 net.cpp:406] fc8 <- fc7
I0521 15:12:27.151439 10767 net.cpp:380] fc8 -> fc8
I0521 15:12:27.151583 10767 net.cpp:122] Setting up fc8
I0521 15:12:27.151593 10767 net.cpp:129] Top shape: 50 2 (100)
I0521 15:12:27.151608 10767 net.cpp:137] Memory required for data: 316281600
I0521 15:12:27.151614 10767 layer_factory.hpp:77] Creating layer fc8_fc8_0_split
I0521 15:12:27.151620 10767 net.cpp:84] Creating Layer fc8_fc8_0_split
I0521 15:12:27.151624 10767 net.cpp:406] fc8_fc8_0_split <- fc8
I0521 15:12:27.151630 10767 net.cpp:380] fc8_fc8_0_split -> fc8_fc8_0_split_0
I0521 15:12:27.151656 10767 net.cpp:380] fc8_fc8_0_split -> fc8_fc8_0_split_1
I0521 15:12:27.151705 10767 net.cpp:122] Setting up fc8_fc8_0_split
I0521 15:12:27.151712 10767 net.cpp:129] Top shape: 50 2 (100)
I0521 15:12:27.151716 10767 net.cpp:129] Top shape: 50 2 (100)
I0521 15:12:27.151720 10767 net.cpp:137] Memory required for data: 316282400
I0521 15:12:27.151734 10767 layer_factory.hpp:77] Creating layer accuracy
I0521 15:12:27.151741 10767 net.cpp:84] Creating Layer accuracy
I0521 15:12:27.151744 10767 net.cpp:406] accuracy <- fc8_fc8_0_split_0
I0521 15:12:27.151748 10767 net.cpp:406] accuracy <- label_data_1_split_0
I0521 15:12:27.151754 10767 net.cpp:380] accuracy -> accuracy
…
