…
I0528 22:35:33.837469 58676 net.cpp:294] The NetState phase (0) differed from the phase (1) specified by a rule in layer accuracy
I0528 22:35:33.838786 58676 net.cpp:51] Initializing net from parameters: 
name: "Pre-ResNet-50"
state {
  phase: TRAIN
  level: 0
  stage: ""
}
layer {
  name: "data"
  type: "Data"
  top: "data"
  top: "label"
  include {
    phase: TRAIN
  }
  transform_param {
    mirror: true
    crop_size: 224
    mean_file: "/storage/Test_fold_is_01/mean.binaryproto"
  }
  data_param {
    source: "/storage/Test_fold_is_01/age_train_lmdb"
    batch_size: 25
    backend: LMDB
  }
}
layer {
  name: "data_bn"
  type: "BatchNorm"
  bottom: "data"
  top: "data_bn"
  param {
    lr_mult: 0
    decay_mult: 0
  }
  param {
    lr_mult: 0
    decay_mult: 0
  }
  param {
    lr_mult: 0
    decay_mult: 0
  }
}
layer {
  name: "data_scale"
  type: "Scale"
  bottom: "data_bn"
  top: "data_bn"
  param {
    lr_mult: 1
    decay_mult: 1
  }
  param {
    lr_mult: 2
    decay_mult: 1
  }
  scale_param {
    bias_term: true
  }
}
layer {
  name: "conv1"
  type: "Convolution"
  bottom: "data_bn"
  top: "conv1"
  param {
    lr_mult: 1
    decay_mult: 1
  }
  param {
    lr_mult: 2
    decay_mult: 1
  }
  convolution_param {
    num_output: 64
    pad: 3
    kernel_size: 7
    stride: 2
    weight_filler {
      type: "msra"
      variance_norm: FAN_OUT
    }
    bias_filler {
      type: "constant"
      value: 0
    }
  }
}
layer {
  name: "conv1_bn"
  type: "BatchNorm"
  bottom: "conv1"
  top: "conv1"
  param {
    lr_mult: 0
    decay_mult: 0
  }
  param {
    lr_mult: 0
    decay_mult: 0
  }
  param {
    lr_mult: 0
    decay_mult: 0
  }
}
layer {
  name: "conv1_scale"
  type: "Scale"
  bottom: "conv1"
  top: "conv1"
  param {
    lr_mult: 1
    decay_mult: 1
  }
  param {
    lr_mult: 2
    decay_mult: 1
  }
  scale_param {
    bias_term: true
  }
}
layer {
  name: "conv1_relu"
  type: "ReLU"
  bottom: "conv1"
  top: "conv1"
}
layer {
  name: "conv1_pool"
  type: "Pooling"
  bottom: "conv1"
  top: "conv1_pool"
  pooling_param {
    kernel_size: 3
    stride: 2
  }
}
layer {
  name: "layer_64_1_conv1"
  type: "Convolution"
  bottom: "conv1_pool"
  top: "layer_64_1_conv1"
  param {
    lr_mult: 1
    decay_mult: 1
  }
  convolution_param {
    num_output: 64
    bias_term: false
    pad: 0
    kernel_size: 1
    stride: 1
    weight_filler {
      type: "msra"
    }
    bias_filler {
      type: "constant"
      value: 0
    }
  }
}
layer {
  name: "layer_64_1_bn2"
  type: "BatchNorm"
  bottom: "layer_64_1_conv1"
  top: "layer_64_1_conv1"
  param {
    lr_mult: 0
    decay_mult: 0
  }
  param {
    lr_mult: 0
    decay_mult: 0
  }
  param {
    lr_mult: 0
    decay_mult: 0
  }
}
layer {
  name: "layer_64_1_scale2"
  type: "Scale"
  bottom: "layer_64_1_conv1"
  top: "layer_64_1_conv1"
  param {
    lr_mult: 1
    decay_mult: 1
  }
  param {
    lr_mult: 2
    decay_mult: 1
  }
  scale_param {
    bias_term: true
  }
}
layer {
  name: "layer_64_1_relu2"
  type: "ReLU"
  bottom: "layer_64_1_conv1"
  top: "layer_64_1_conv1"
}
layer {
  name: "layer_64_1_conv2"
  type: "Convolution"
  bottom: "layer_64_1_conv1"
  top: "layer_64_1_conv2"
  param {
    lr_mult: 1
    decay_mult: 1
  }
  convolution_param {
    num_output: 64
    bias_term: false
    pad: 1
    kernel_size: 3
    stride: 1
    weight_filler {
      type: "msra"
    }
    bias_filler {
      type: "constant"
      value: 0
    }
  }
}
layer {
  name: "layer_64_1_bn3"
  type: "BatchNorm"
  bottom: "layer_64_1_conv2"
  top: "layer_64_1_conv2"
  param {
    lr_mult: 0
    decay_mult: 0
  }
  param {
    lr_mult: 0
    decay_mult: 0
  }
  param {
    lr_mult: 0
    decay_mult: 0
  }
}
layer {
  name: "layer_64_1_scale3"
  type: "Scale"
  bottom: "layer_64_1_conv2"
  top: "layer_64_1_conv2"
  param {
    lr_mult: 1
    decay_mult: 1
  }
  param {
    lr_mult: 2
    decay_mult: 1
  }
  scale_param {
    bias_term: true
  }
}
layer {
  name: "layer_64_1_relu3"
  type: "ReLU"
  bottom: "layer_64_1_conv2"
  top: "layer_64_1_conv2"
}
layer {
  name: "layer_64_1_conv3"
  type: "Convolution"
  bottom: "layer_64_1_conv2"
  top: "layer_64_1_conv3"
  param {
    lr_mult: 1
    decay_mult: 1
  }
  convolution_param {
    num_output: 256
    bias_term: false
    pad: 0
    kernel_size: 1
    stride: 1
    weight_filler {
      type: "msra"
    }
    bias_filler {
      type: "constant"
      value: 0
    }
  }
}
layer {
  name: "layer_64_1_conv_expand"
  type: "Convolution"
  bottom: "layer_64_1_conv1"
  top: "layer_64_1_conv_expand"
  param {
    lr_mult: 1
    decay_mult: 1
  }
  convolution_param {
    num_output: 256
    bias_term: false
    pad: 0
    kernel_size: 1
    stride: 1
    weight_filler {
      type: "msra"
    }
    bias_filler {
      type: "constant"
      value: 0
    }
  }
}
layer {
  name: "layer_64_1_sum"
  type: "Eltwise"
  bottom: "layer_64_1_conv3"
  bottom: "layer_64_1_conv_expand"
  top: "layer_64_1_sum"
}
layer {
  name: "layer_64_2_bn1"
  type: "BatchNorm"
  bottom: "layer_64_1_sum"
  top: "layer_64_2_bn1"
  param {
    lr_mult: 0
    decay_mult: 0
  }
  param {
    lr_mult: 0
    decay_mult: 0
  }
  param {
    lr_mult: 0
    decay_mult: 0
  }
}
layer {
  name: "layer_64_2_scale1"
  type: "Scale"
  bottom: "layer_64_2_bn1"
  top: "layer_64_2_bn1"
  param {
    lr_mult: 1
    decay_mult: 1
  }
  param {
    lr_mult: 2
    decay_mult: 1
  }
  scale_param {
    bias_term: true
  }
}
layer {
  name: "layer_64_2_relu1"
  type: "ReLU"
  bottom: "layer_64_2_bn1"
  top: "layer_64_2_bn1"
}
layer {
  name: "layer_64_2_conv1"
  type: "Convolution"
  bottom: "layer_64_2_bn1"
  top: "layer_64_2_conv1"
  param {
    lr_mult: 1
    decay_mult: 1
  }
  convolution_param {
    num_output: 64
    bias_term: false
    pad: 0
    kernel_size: 1
    stride: 1
    weight_filler {
      type: "msra"
    }
    bias_filler {
      type: "constant"
      value: 0
    }
  }
}
layer {
  name: "layer_64_2_bn2"
  type: "BatchNorm"
  bottom: "layer_64_2_conv1"
  top: "layer_64_2_conv1"
  param {
    lr_mult: 0
    decay_mult: 0
  }
  param {
    lr_mult: 0
    decay_mult: 0
  }
  param {
    lr_mult: 0
    decay_mult: 0
  }
}
layer {
  name: "layer_64_2_scale2"
  type: "Scale"
  bottom: "layer_64_2_conv1"
  top: "layer_64_2_conv1"
  param {
    lr_mult: 1
    decay_mult: 1
  }
  param {
    lr_mult: 2
    decay_mult: 1
  }
  scale_param {
    bias_term: true
  }
}
layer {
  name: "layer_64_2_relu2"
  type: "ReLU"
  bottom: "layer_64_2_conv1"
  top: "layer_64_2_conv1"
}
layer {
  name: "layer_64_2_conv2"
  type: "Convolution"
  bottom: "layer_64_2_conv1"
  top: "layer_64_2_conv2"
  param {
    lr_mult: 1
    decay_mult: 1
  }
  convolution_param {
    num_output: 64
    bias_term: false
    pad: 1
    kernel_size: 3
    stride: 1
    weight_filler {
      type: "msra"
    }
    bias_filler {
      type: "constant"
      value: 0
    }
  }
}
layer {
  name: "layer_64_2_bn3"
  type: "BatchNorm"
  bottom: "layer_64_2_conv2"
  top: "layer_64_2_conv2"
  param {
    lr_mult: 0
    decay_mult: 0
  }
  param {
    lr_mult: 0
    decay_mult: 0
  }
  param {
    lr_mult: 0
    decay_mult: 0
  }
}
layer {
  name: "layer_64_2_scale3"
  type: "Scale"
  bottom: "layer_64_2_conv2"
  top: "layer_64_2_conv2"
  param {
    lr_mult: 1
    decay_mult: 1
  }
  param {
    lr_mult: 2
    decay_mult: 1
  }
  scale_param {
    bias_term: true
  }
}
layer {
  name: "layer_64_2_relu3"
  type: "ReLU"
  bottom: "layer_64_2_conv2"
  top: "layer_64_2_conv2"
}
layer {
  name: "layer_64_2_conv3"
  type: "Convolution"
  bottom: "layer_64_2_conv2"
  top: "layer_64_2_conv3"
  param {
    lr_mult: 1
    decay_mult: 1
  }
  convolution_param {
    num_output: 256
    bias_term: false
    pad: 0
    kernel_size: 1
    stride: 1
    weight_filler {
      type: "msra"
    }
    bias_filler {
      type: "constant"
      value: 0
    }
  }
}
layer {
  name: "layer_64_2_sum"
  type: "Eltwise"
  bottom: "layer_64_2_conv3"
  bottom: "layer_64_1_sum"
  top: "layer_64_2_sum"
}
layer {
  name: "layer_64_3_bn1"
  type: "BatchNorm"
  bottom: "layer_64_2_sum"
  top: "layer_64_3_bn1"
  param {
    lr_mult: 0
    decay_mult: 0
  }
  param {
    lr_mult: 0
    decay_mult: 0
  }
  param {
    lr_mult: 0
    decay_mult: 0
  }
}
layer {
  name: "layer_64_3_scale1"
  type: "Scale"
  bottom: "layer_64_3_bn1"
  top: "layer_64_3_bn1"
  param {
    lr_mult: 1
    decay_mult: 1
  }
  param {
    lr_mult: 2
    decay_mult: 1
  }
  scale_param {
    bias_term: true
  }
}
layer {
  name: "layer_64_3_relu1"
  type: "ReLU"
  bottom: "layer_64_3_bn1"
  top: "layer_64_3_bn1"
}
layer {
  name: "layer_64_3_conv1"
  type: "Convolution"
  bottom: "layer_64_3_bn1"
  top: "layer_64_3_conv1"
  param {
    lr_mult: 1
    decay_mult: 1
  }
  convolution_param {
    num_output: 64
    bias_term: false
    pad: 0
    kernel_size: 1
    stride: 1
    weight_filler {
      type: "msra"
    }
    bias_filler {
      type: "constant"
      value: 0
    }
  }
}
layer {
  name: "layer_64_3_bn2"
  type: "BatchNorm"
  bottom: "layer_64_3_conv1"
  top: "layer_64_3_conv1"
  param {
    lr_mult: 0
    decay_mult: 0
  }
  param {
    lr_mult: 0
    decay_mult: 0
  }
  param {
    lr_mult: 0
    decay_mult: 0
  }
}
layer {
  name: "layer_64_3_scale2"
  type: "Scale"
  bottom: "layer_64_3_conv1"
  top: "layer_64_3_conv1"
  param {
    lr_mult: 1
    decay_mult: 1
  }
  param {
    lr_mult: 2
    decay_mult: 1
  }
  scale_param {
    bias_term: true
  }
}
layer {
  name: "layer_64_3_relu2"
  type: "ReLU"
  bottom: "layer_64_3_conv1"
  top: "layer_64_3_conv1"
}
layer {
  name: "layer_64_3_conv2"
  type: "Convolution"
  bottom: "layer_64_3_conv1"
  top: "layer_64_3_conv2"
  param {
    lr_mult: 1
    decay_mult: 1
  }
  convolution_param {
    num_output: 64
    bias_term: false
    pad: 1
    kernel_size: 3
    stride: 1
    weight_filler {
      type: "msra"
    }
    bias_filler {
      type: "constant"
      value: 0
    }
  }
}
layer {
  name: "layer_64_3_bn3"
  type: "BatchNorm"
  bottom: "layer_64_3_conv2"
  top: "layer_64_3_conv2"
  param {
    lr_mult: 0
    decay_mult: 0
  }
  param {
    lr_mult: 0
    decay_mult: 0
  }
  param {
    lr_mult: 0
    decay_mult: 0
  }
}
layer {
  name: "layer_64_3_scale3"
  type: "Scale"
  bottom: "layer_64_3_conv2"
  top: "layer_64_3_conv2"
  param {
    lr_mult: 1
    decay_mult: 1
  }
  param {
    lr_mult: 2
    decay_mult: 1
  }
  scale_param {
    bias_term: true
  }
}
layer {
  name: "layer_64_3_relu3"
  type: "ReLU"
  bottom: "layer_64_3_conv2"
  top: "layer_64_3_conv2"
}
layer {
  name: "layer_64_3_conv3"
  type: "Convolution"
  bottom: "layer_64_3_conv2"
  top: "layer_64_3_conv3"
  param {
    lr_mult: 1
    decay_mult: 1
  }
  convolution_param {
    num_output: 256
    bias_term: false
    pad: 0
    kernel_size: 1
    stride: 1
    weight_filler {
      type: "msra"
    }
    bias_filler {
      type: "constant"
      value: 0
    }
  }
}
layer {
  name: "layer_64_3_sum"
  type: "Eltwise"
  bottom: "layer_64_3_conv3"
  bottom: "layer_64_2_sum"
  top: "layer_64_3_sum"
}
layer {
  name: "layer_128_1_bn1"
  type: "BatchNorm"
  bottom: "layer_64_3_sum"
  top: "layer_128_1_bn1"
  param {
    lr_mult: 0
    decay_mult: 0
  }
  param {
    lr_mult: 0
    decay_mult: 0
  }
  param {
    lr_mult: 0
    decay_mult: 0
  }
}
layer {
  name: "layer_128_1_scale1"
  type: "Scale"
  bottom: "layer_128_1_bn1"
  top: "layer_128_1_bn1"
  param {
    lr_mult: 1
    decay_mult: 1
  }
  param {
    lr_mult: 2
    decay_mult: 1
  }
  scale_param {
    bias_term: true
  }
}
layer {
  name: "layer_128_1_relu1"
  type: "ReLU"
  bottom: "layer_128_1_bn1"
  top: "layer_128_1_bn1"
}
layer {
  name: "layer_128_1_conv1"
  type: "Convolution"
  bottom: "layer_128_1_bn1"
  top: "layer_128_1_conv1"
  param {
    lr_mult: 1
    decay_mult: 1
  }
  convolution_param {
    num_output: 128
    bias_term: false
    pad: 0
    kernel_size: 1
    stride: 1
    weight_filler {
      type: "msra"
    }
    bias_filler {
      type: "constant"
      value: 0
    }
  }
}
layer {
  name: "layer_128_1_bn2"
  type: "BatchNorm"
  bottom: "layer_128_1_conv1"
  top: "layer_128_1_conv1"
  param {
    lr_mult: 0
    decay_mult: 0
  }
  param {
    lr_mult: 0
    decay_mult: 0
  }
  param {
    lr_mult: 0
    decay_mult: 0
  }
}
layer {
  name: "layer_128_1_scale2"
  type: "Scale"
  bottom: "layer_128_1_conv1"
  top: "layer_128_1_conv1"
  param {
    lr_mult: 1
    decay_mult: 1
  }
  param {
    lr_mult: 2
    decay_mult: 1
  }
  scale_param {
    bias_term: true
  }
}
layer {
  name: "layer_128_1_relu2"
  type: "ReLU"
  bottom: "layer_128_1_conv1"
  top: "layer_128_1_conv1"
}
layer {
  name: "layer_128_1_conv2"
  type: "Convolution"
  bottom: "layer_128_1_conv1"
  top: "layer_128_1_conv2"
  param {
    lr_mult: 1
    decay_mult: 1
  }
  convolution_param {
    num_output: 128
    bias_term: false
    pad: 1
    kernel_size: 3
    stride: 2
    weight_filler {
      type: "msra"
    }
    bias_filler {
      type: "constant"
      value: 0
    }
  }
}
layer {
  name: "layer_128_1_bn3"
  type: "BatchNorm"
  bottom: "layer_128_1_conv2"
  top: "layer_128_1_conv2"
  param {
    lr_mult: 0
    decay_mult: 0
  }
  param {
    lr_mult: 0
    decay_mult: 0
  }
  param {
    lr_mult: 0
    decay_mult: 0
  }
}
layer {
  name: "layer_128_1_scale3"
  type: "Scale"
  bottom: "layer_128_1_conv2"
  top: "layer_128_1_conv2"
  param {
    lr_mult: 1
    decay_mult: 1
  }
  param {
    lr_mult: 2
    decay_mult: 1
  }
  scale_param {
    bias_term: true
  }
}
layer {
  name: "layer_128_1_relu3"
  type: "ReLU"
  bottom: "layer_128_1_conv2"
  top: "layer_128_1_conv2"
}
layer {
  name: "layer_128_1_conv3"
  type: "Convolution"
  bottom: "layer_128_1_conv2"
  top: "layer_128_1_conv3"
  param {
    lr_mult: 1
    decay_mult: 1
  }
  convolution_param {
    num_output: 512
    bias_term: false
    pad: 0
    kernel_size: 1
    stride: 1
    weight_filler {
      type: "msra"
    }
    bias_filler {
      type: "constant"
      value: 0
    }
  }
}
layer {
  name: "layer_128_1_conv_expand"
  type: "Convolution"
  bottom: "layer_128_1_bn1"
  top: "layer_128_1_conv_expand"
  param {
    lr_mult: 1
    decay_mult: 1
  }
  convolution_param {
    num_output: 512
    bias_term: false
    pad: 0
    kernel_size: 1
    stride: 2
    weight_filler {
      type: "msra"
    }
    bias_filler {
      type: "constant"
      value: 0
    }
  }
}
layer {
  name: "layer_128_1_sum"
  type: "Eltwise"
  bottom: "layer_128_1_conv3"
  bottom: "layer_128_1_conv_expand"
  top: "layer_128_1_sum"
}
layer {
  name: "layer_128_2_bn1"
  type: "BatchNorm"
  bottom: "layer_128_1_sum"
  top: "layer_128_2_bn1"
  param {
    lr_mult: 0
    decay_mult: 0
  }
  param {
    lr_mult: 0
    decay_mult: 0
  }
  param {
    lr_mult: 0
    decay_mult: 0
  }
}
layer {
  name: "layer_128_2_scale1"
  type: "Scale"
  bottom: "layer_128_2_bn1"
  top: "layer_128_2_bn1"
  param {
    lr_mult: 1
    decay_mult: 1
  }
  param {
    lr_mult: 2
    decay_mult: 1
  }
  scale_param {
    bias_term: true
  }
}
layer {
  name: "layer_128_2_relu1"
  type: "ReLU"
  bottom: "layer_128_2_bn1"
  top: "layer_128_2_bn1"
}
layer {
  name: "layer_128_2_conv1"
  type: "Convolution"
  bottom: "layer_128_2_bn1"
  top: "layer_128_2_conv1"
  param {
    lr_mult: 1
    decay_mult: 1
  }
  convolution_param {
    num_output: 128
    bias_term: false
    pad: 0
    kernel_size: 1
    stride: 1
    weight_filler {
      type: "msra"
    }
    bias_filler {
      type: "constant"
      value: 0
    }
  }
}
layer {
  name: "layer_128_2_bn2"
  type: "BatchNorm"
  bottom: "layer_128_2_conv1"
  top: "layer_128_2_conv1"
  param {
    lr_mult: 0
    decay_mult: 0
  }
  param {
    lr_mult: 0
    decay_mult: 0
  }
  param {
    lr_mult: 0
    decay_mult: 0
  }
}
layer {
  name: "layer_128_2_scale2"
  type: "Scale"
  bottom: "layer_128_2_conv1"
  top: "layer_128_2_conv1"
  param {
    lr_mult: 1
    decay_mult: 1
  }
  param {
    lr_mult: 2
    decay_mult: 1
  }
  scale_param {
    bias_term: true
  }
}
layer {
  name: "layer_128_2_relu2"
  type: "ReLU"
  bottom: "layer_128_2_conv1"
  top: "layer_128_2_conv1"
}
layer {
  name: "layer_128_2_conv2"
  type: "Convolution"
  bottom: "layer_128_2_conv1"
  top: "layer_128_2_conv2"
  param {
    lr_mult: 1
    decay_mult: 1
  }
  convolution_param {
    num_output: 128
    bias_term: false
    pad: 1
    kernel_size: 3
    stride: 1
    weight_filler {
      type: "msra"
    }
    bias_filler {
      type: "constant"
      value: 0
    }
  }
}
layer {
  name: "layer_128_2_bn3"
  type: "BatchNorm"
  bottom: "layer_128_2_conv2"
  top: "layer_128_2_conv2"
  param {
    lr_mult: 0
    decay_mult: 0
  }
  param {
    lr_mult: 0
    decay_mult: 0
  }
  param {
    lr_mult: 0
    decay_mult: 0
  }
}
layer {
  name: "layer_128_2_scale3"
  type: "Scale"
  bottom: "layer_128_2_conv2"
  top: "layer_128_2_conv2"
  param {
    lr_mult: 1
    decay_mult: 1
  }
  param {
    lr_mult: 2
    decay_mult: 1
  }
  scale_param {
    bias_term: true
  }
}
layer {
  name: "layer_128_2_relu3"
  type: "ReLU"
  bottom: "layer_128_2_conv2"
  top: "layer_128_2_conv2"
}
layer {
  name: "layer_128_2_conv3"
  type: "Convolution"
  bottom: "layer_128_2_conv2"
  top: "layer_128_2_conv3"
  param {
    lr_mult: 1
    decay_mult: 1
  }
  convolution_param {
    num_output: 512
    bias_term: false
    pad: 0
    kernel_size: 1
    stride: 1
    weight_filler {
      type: "msra"
    }
    bias_filler {
      type: "constant"
      value: 0
    }
  }
}
layer {
  name: "layer_128_2_sum"
  type: "Eltwise"
  bottom: "layer_128_2_conv3"
  bottom: "layer_128_1_sum"
  top: "layer_128_2_sum"
}
layer {
  name: "layer_128_3_bn1"
  type: "BatchNorm"
  bottom: "layer_128_2_sum"
  top: "layer_128_3_bn1"
  param {
    lr_mult: 0
    decay_mult: 0
  }
  param {
    lr_mult: 0
    decay_mult: 0
  }
  param {
    lr_mult: 0
    decay_mult: 0
  }
}
layer {
  name: "layer_128_3_scale1"
  type: "Scale"
  bottom: "layer_128_3_bn1"
  top: "layer_128_3_bn1"
  param {
    lr_mult: 1
    decay_mult: 1
  }
  param {
    lr_mult: 2
    decay_mult: 1
  }
  scale_param {
    bias_term: true
  }
}
layer {
  name: "layer_128_3_relu1"
  type: "ReLU"
  bottom: "layer_128_3_bn1"
  top: "layer_128_3_bn1"
}
layer {
  name: "layer_128_3_conv1"
  type: "Convolution"
  bottom: "layer_128_3_bn1"
  top: "layer_128_3_conv1"
  param {
    lr_mult: 1
    decay_mult: 1
  }
  convolution_param {
    num_output: 128
    bias_term: false
    pad: 0
    kernel_size: 1
    stride: 1
    weight_filler {
      type: "msra"
    }
    bias_filler {
      type: "constant"
      value: 0
    }
  }
}
layer {
  name: "layer_128_3_bn2"
  type: "BatchNorm"
  bottom: "layer_128_3_conv1"
  top: "layer_128_3_conv1"
  param {
    lr_mult: 0
    decay_mult: 0
  }
  param {
    lr_mult: 0
    decay_mult: 0
  }
  param {
    lr_mult: 0
    decay_mult: 0
  }
}
layer {
  name: "layer_128_3_scale2"
  type: "Scale"
  bottom: "layer_128_3_conv1"
  top: "layer_128_3_conv1"
  param {
    lr_mult: 1
    decay_mult: 1
  }
  param {
    lr_mult: 2
    decay_mult: 1
  }
  scale_param {
    bias_term: true
  }
}
layer {
  name: "layer_128_3_relu2"
  type: "ReLU"
  bottom: "layer_128_3_conv1"
  top: "layer_128_3_conv1"
}
layer {
  name: "layer_128_3_conv2"
  type: "Convolution"
  bottom: "layer_128_3_conv1"
  top: "layer_128_3_conv2"
  param {
    lr_mult: 1
    decay_mult: 1
  }
  convolution_param {
    num_output: 128
    bias_term: false
    pad: 1
    kernel_size: 3
    stride: 1
    weight_filler {
      type: "msra"
    }
    bias_filler {
      type: "constant"
      value: 0
    }
  }
}
layer {
  name: "layer_128_3_bn3"
  type: "BatchNorm"
  bottom: "layer_128_3_conv2"
  top: "layer_128_3_conv2"
  param {
    lr_mult: 0
    decay_mult: 0
  }
  param {
    lr_mult: 0
    decay_mult: 0
  }
  param {
    lr_mult: 0
    decay_mult: 0
  }
}
layer {
  name: "layer_128_3_scale3"
  type: "Scale"
  bottom: "layer_128_3_conv2"
  top: "layer_128_3_conv2"
  param {
    lr_mult: 1
    decay_mult: 1
  }
  param {
    lr_mult: 2
    decay_mult: 1
  }
  scale_param {
    bias_term: true
  }
}
layer {
  name: "layer_128_3_relu3"
  type: "ReLU"
  bottom: "layer_128_3_conv2"
  top: "layer_128_3_conv2"
}
layer {
  name: "layer_128_3_conv3"
  type: "Convolution"
  bottom: "layer_128_3_conv2"
  top: "layer_128_3_conv3"
  param {
    lr_mult: 1
    decay_mult: 1
  }
  convolution_param {
    num_output: 512
    bias_term: false
    pad: 0
    kernel_size: 1
    stride: 1
    weight_filler {
      type: "msra"
    }
    bias_filler {
      type: "constant"
      value: 0
    }
  }
}
layer {
  name: "layer_128_3_sum"
  type: "Eltwise"
  bottom: "layer_128_3_conv3"
  bottom: "layer_128_2_sum"
  top: "layer_128_3_sum"
}
layer {
  name: "layer_128_4_bn1"
  type: "BatchNorm"
  bottom: "layer_128_3_sum"
  top: "layer_128_4_bn1"
  param {
    lr_mult: 0
    decay_mult: 0
  }
  param {
    lr_mult: 0
    decay_mult: 0
  }
  param {
    lr_mult: 0
    decay_mult: 0
  }
}
layer {
  name: "layer_128_4_scale1"
  type: "Scale"
  bottom: "layer_128_4_bn1"
  top: "layer_128_4_bn1"
  param {
    lr_mult: 1
    decay_mult: 1
  }
  param {
    lr_mult: 2
    decay_mult: 1
  }
  scale_param {
    bias_term: true
  }
}
layer {
  name: "layer_128_4_relu1"
  type: "ReLU"
  bottom: "layer_128_4_bn1"
  top: "layer_128_4_bn1"
}
layer {
  name: "layer_128_4_conv1"
  type: "Convolution"
  bottom: "layer_128_4_bn1"
  top: "layer_128_4_conv1"
  param {
    lr_mult: 1
    decay_mult: 1
  }
  convolution_param {
    num_output: 128
    bias_term: false
    pad: 0
    kernel_size: 1
    stride: 1
    weight_filler {
      type: "msra"
    }
    bias_filler {
      type: "constant"
      value: 0
    }
  }
}
layer {
  name: "layer_128_4_bn2"
  type: "BatchNorm"
  bottom: "layer_128_4_conv1"
  top: "layer_128_4_conv1"
  param {
    lr_mult: 0
    decay_mult: 0
  }
  param {
    lr_mult: 0
    decay_mult: 0
  }
  param {
    lr_mult: 0
    decay_mult: 0
  }
}
layer {
  name: "layer_128_4_scale2"
  type: "Scale"
  bottom: "layer_128_4_conv1"
  top: "layer_128_4_conv1"
  param {
    lr_mult: 1
    decay_mult: 1
  }
  param {
    lr_mult: 2
    decay_mult: 1
  }
  scale_param {
    bias_term: true
  }
}
layer {
  name: "layer_128_4_relu2"
  type: "ReLU"
  bottom: "layer_128_4_conv1"
  top: "layer_128_4_conv1"
}
layer {
  name: "layer_128_4_conv2"
  type: "Convolution"
  bottom: "layer_128_4_conv1"
  top: "layer_128_4_conv2"
  param {
    lr_mult: 1
    decay_mult: 1
  }
  convolution_param {
    num_output: 128
    bias_term: false
    pad: 1
    kernel_size: 3
    stride: 1
    weight_filler {
      type: "msra"
    }
    bias_filler {
      type: "constant"
      value: 0
    }
  }
}
layer {
  name: "layer_128_4_bn3"
  type: "BatchNorm"
  bottom: "layer_128_4_conv2"
  top: "layer_128_4_conv2"
  param {
    lr_mult: 0
    decay_mult: 0
  }
  param {
    lr_mult: 0
    decay_mult: 0
  }
  param {
    lr_mult: 0
    decay_mult: 0
  }
}
layer {
  name: "layer_128_4_scale3"
  type: "Scale"
  bottom: "layer_128_4_conv2"
  top: "layer_128_4_conv2"
  param {
    lr_mult: 1
    decay_mult: 1
  }
  param {
    lr_mult: 2
    decay_mult: 1
  }
  scale_param {
    bias_term: true
  }
}
layer {
  name: "layer_128_4_relu3"
  type: "ReLU"
  bottom: "layer_128_4_conv2"
  top: "layer_128_4_conv2"
}
layer {
  name: "layer_128_4_conv3"
  type: "Convolution"
  bottom: "layer_128_4_conv2"
  top: "layer_128_4_conv3"
  param {
    lr_mult: 1
    decay_mult: 1
  }
  convolution_param {
    num_output: 512
    bias_term: false
    pad: 0
    kernel_size: 1
    stride: 1
    weight_filler {
      type: "msra"
    }
    bias_filler {
      type: "constant"
      value: 0
    }
  }
}
layer {
  name: "layer_128_4_sum"
  type: "Eltwise"
  bottom: "layer_128_4_conv3"
  bottom: "layer_128_3_sum"
  top: "layer_128_4_sum"
}
layer {
  name: "layer_256_1_bn1"
  type: "BatchNorm"
  bottom: "layer_128_4_sum"
  top: "layer_256_1_bn1"
  param {
    lr_mult: 0
    decay_mult: 0
  }
  param {
    lr_mult: 0
    decay_mult: 0
  }
  param {
    lr_mult: 0
    decay_mult: 0
  }
}
layer {
  name: "layer_256_1_scale1"
  type: "Scale"
  bottom: "layer_256_1_bn1"
  top: "layer_256_1_bn1"
  param {
    lr_mult: 1
    decay_mult: 1
  }
  param {
    lr_mult: 2
    decay_mult: 1
  }
  scale_param {
    bias_term: true
  }
}
layer {
  name: "layer_256_1_relu1"
  type: "ReLU"
  bottom: "layer_256_1_bn1"
  top: "layer_256_1_bn1"
}
layer {
  name: "layer_256_1_conv1"
  type: "Convolution"
  bottom: "layer_256_1_bn1"
  top: "layer_256_1_conv1"
  param {
    lr_mult: 1
    decay_mult: 1
  }
  convolution_param {
    num_output: 256
    bias_term: false
    pad: 0
    kernel_size: 1
    stride: 1
    weight_filler {
      type: "msra"
    }
    bias_filler {
      type: "constant"
      value: 0
    }
  }
}
layer {
  name: "layer_256_1_bn2"
  type: "BatchNorm"
  bottom: "layer_256_1_conv1"
  top: "layer_256_1_conv1"
  param {
    lr_mult: 0
    decay_mult: 0
  }
  param {
    lr_mult: 0
    decay_mult: 0
  }
  param {
    lr_mult: 0
    decay_mult: 0
  }
}
layer {
  name: "layer_256_1_scale2"
  type: "Scale"
  bottom: "layer_256_1_conv1"
  top: "layer_256_1_conv1"
  param {
    lr_mult: 1
    decay_mult: 1
  }
  param {
    lr_mult: 2
    decay_mult: 1
  }
  scale_param {
    bias_term: true
  }
}
layer {
  name: "layer_256_1_relu2"
  type: "ReLU"
  bottom: "layer_256_1_conv1"
  top: "layer_256_1_conv1"
}
layer {
  name: "layer_256_1_conv2"
  type: "Convolution"
  bottom: "layer_256_1_conv1"
  top: "layer_256_1_conv2"
  param {
    lr_mult: 1
    decay_mult: 1
  }
  convolution_param {
    num_output: 256
    bias_term: false
    pad: 1
    kernel_size: 3
    stride: 2
    weight_filler {
      type: "msra"
    }
    bias_filler {
      type: "constant"
      value: 0
    }
  }
}
layer {
  name: "layer_256_1_bn3"
  type: "BatchNorm"
  bottom: "layer_256_1_conv2"
  top: "layer_256_1_conv2"
  param {
    lr_mult: 0
    decay_mult: 0
  }
  param {
    lr_mult: 0
    decay_mult: 0
  }
  param {
    lr_mult: 0
    decay_mult: 0
  }
}
layer {
  name: "layer_256_1_scale3"
  type: "Scale"
  bottom: "layer_256_1_conv2"
  top: "layer_256_1_conv2"
  param {
    lr_mult: 1
    decay_mult: 1
  }
  param {
    lr_mult: 2
    decay_mult: 1
  }
  scale_param {
    bias_term: true
  }
}
layer {
  name: "layer_256_1_relu3"
  type: "ReLU"
  bottom: "layer_256_1_conv2"
  top: "layer_256_1_conv2"
}
layer {
  name: "layer_256_1_conv3"
  type: "Convolution"
  bottom: "layer_256_1_conv2"
  top: "layer_256_1_conv3"
  param {
    lr_mult: 1
    decay_mult: 1
  }
  convolution_param {
    num_output: 1024
    bias_term: false
    pad: 0
    kernel_size: 1
    stride: 1
    weight_filler {
      type: "msra"
    }
    bias_filler {
      type: "constant"
      value: 0
    }
  }
}
layer {
  name: "layer_256_1_conv_expand"
  type: "Convolution"
  bottom: "layer_256_1_bn1"
  top: "layer_256_1_conv_expand"
  param {
    lr_mult: 1
    decay_mult: 1
  }
  convolution_param {
    num_output: 1024
    bias_term: false
    pad: 0
    kernel_size: 1
    stride: 2
    weight_filler {
      type: "msra"
    }
    bias_filler {
      type: "constant"
      value: 0
    }
  }
}
layer {
  name: "layer_256_1_sum"
  type: "Eltwise"
  bottom: "layer_256_1_conv3"
  bottom: "layer_256_1_conv_expand"
  top: "layer_256_1_sum"
}
layer {
  name: "layer_256_2_bn1"
  type: "BatchNorm"
  bottom: "layer_256_1_sum"
  top: "layer_256_2_bn1"
  param {
    lr_mult: 0
    decay_mult: 0
  }
  param {
    lr_mult: 0
    decay_mult: 0
  }
  param {
    lr_mult: 0
    decay_mult: 0
  }
}
layer {
  name: "layer_256_2_scale1"
  type: "Scale"
  bottom: "layer_256_2_bn1"
  top: "layer_256_2_bn1"
  param {
    lr_mult: 1
    decay_mult: 1
  }
  param {
    lr_mult: 2
    decay_mult: 1
  }
  scale_param {
    bias_term: true
  }
}
layer {
  name: "layer_256_2_relu1"
  type: "ReLU"
  bottom: "layer_256_2_bn1"
  top: "layer_256_2_bn1"
}
layer {
  name: "layer_256_2_conv1"
  type: "Convolution"
  bottom: "layer_256_2_bn1"
  top: "layer_256_2_conv1"
  param {
    lr_mult: 1
    decay_mult: 1
  }
  convolution_param {
    num_output: 256
    bias_term: false
    pad: 0
    kernel_size: 1
    stride: 1
    weight_filler {
      type: "msra"
    }
    bias_filler {
      type: "constant"
      value: 0
    }
  }
}
layer {
  name: "layer_256_2_bn2"
  type: "BatchNorm"
  bottom: "layer_256_2_conv1"
  top: "layer_256_2_conv1"
  param {
    lr_mult: 0
    decay_mult: 0
  }
  param {
    lr_mult: 0
    decay_mult: 0
  }
  param {
    lr_mult: 0
    decay_mult: 0
  }
}
layer {
  name: "layer_256_2_scale2"
  type: "Scale"
  bottom: "layer_256_2_conv1"
  top: "layer_256_2_conv1"
  param {
    lr_mult: 1
    decay_mult: 1
  }
  param {
    lr_mult: 2
    decay_mult: 1
  }
  scale_param {
    bias_term: true
  }
}
layer {
  name: "layer_256_2_relu2"
  type: "ReLU"
  bottom: "layer_256_2_conv1"
  top: "layer_256_2_conv1"
}
layer {
  name: "layer_256_2_conv2"
  type: "Convolution"
  bottom: "layer_256_2_conv1"
  top: "layer_256_2_conv2"
  param {
    lr_mult: 1
    decay_mult: 1
  }
  convolution_param {
    num_output: 256
    bias_term: false
    pad: 1
    kernel_size: 3
    stride: 1
    weight_filler {
      type: "msra"
    }
    bias_filler {
      type: "constant"
      value: 0
    }
  }
}
layer {
  name: "layer_256_2_bn3"
  type: "BatchNorm"
  bottom: "layer_256_2_conv2"
  top: "layer_256_2_conv2"
  param {
    lr_mult: 0
    decay_mult: 0
  }
  param {
    lr_mult: 0
    decay_mult: 0
  }
  param {
    lr_mult: 0
    decay_mult: 0
  }
}
layer {
  name: "layer_256_2_scale3"
  type: "Scale"
  bottom: "layer_256_2_conv2"
  top: "layer_256_2_conv2"
  param {
    lr_mult: 1
    decay_mult: 1
  }
  param {
    lr_mult: 2
    decay_mult: 1
  }
  scale_param {
    bias_term: true
  }
}
layer {
  name: "layer_256_2_relu3"
  type: "ReLU"
  bottom: "layer_256_2_conv2"
  top: "layer_256_2_conv2"
}
layer {
  name: "layer_256_2_conv3"
  type: "Convolution"
  bottom: "layer_256_2_conv2"
  top: "layer_256_2_conv3"
  param {
    lr_mult: 1
    decay_mult: 1
  }
  con
I0528 22:35:33.839817 58676 layer_factory.hpp:77] Creating layer data
I0528 22:35:33.839969 58676 db_lmdb.cpp:35] Opened lmdb /storage/Test_fold_is_01/age_train_lmdb
I0528 22:35:33.840016 58676 net.cpp:84] Creating Layer data
I0528 22:35:33.840030 58676 net.cpp:380] data -> data
I0528 22:35:33.840065 58676 net.cpp:380] data -> label
I0528 22:35:33.840087 58676 data_transformer.cpp:25] Loading mean file from: /storage/Test_fold_is_01/mean.binaryproto
I0528 22:35:33.843832 58676 data_layer.cpp:45] output data size: 25,3,224,224
I0528 22:35:33.883618 58676 net.cpp:122] Setting up data
I0528 22:35:33.883709 58676 net.cpp:129] Top shape: 25 3 224 224 (3763200)
I0528 22:35:33.883719 58676 net.cpp:129] Top shape: 25 (25)
I0528 22:35:33.883724 58676 net.cpp:137] Memory required for data: 15052900
I0528 22:35:33.883739 58676 layer_factory.hpp:77] Creating layer data_bn
I0528 22:35:33.883762 58676 net.cpp:84] Creating Layer data_bn
I0528 22:35:33.883771 58676 net.cpp:406] data_bn <- data
I0528 22:35:33.883792 58676 net.cpp:380] data_bn -> data_bn
I0528 22:35:33.884910 58676 net.cpp:122] Setting up data_bn
I0528 22:35:33.884932 58676 net.cpp:129] Top shape: 25 3 224 224 (3763200)
I0528 22:35:33.884938 58676 net.cpp:137] Memory required for data: 30105700
I0528 22:35:33.884965 58676 layer_factory.hpp:77] Creating layer data_scale
I0528 22:35:33.884981 58676 net.cpp:84] Creating Layer data_scale
I0528 22:35:33.884986 58676 net.cpp:406] data_scale <- data_bn
I0528 22:35:33.884994 58676 net.cpp:367] data_scale -> data_bn (in-place)
I0528 22:35:33.885058 58676 layer_factory.hpp:77] Creating layer data_scale
I0528 22:35:33.885259 58676 net.cpp:122] Setting up data_scale
I0528 22:35:33.885283 58676 net.cpp:129] Top shape: 25 3 224 224 (3763200)
I0528 22:35:33.885288 58676 net.cpp:137] Memory required for data: 45158500
I0528 22:35:33.885298 58676 layer_factory.hpp:77] Creating layer conv1
I0528 22:35:33.885320 58676 net.cpp:84] Creating Layer conv1
I0528 22:35:33.885325 58676 net.cpp:406] conv1 <- data_bn
I0528 22:35:33.885334 58676 net.cpp:380] conv1 -> conv1
I0528 22:35:34.101940 58676 net.cpp:122] Setting up conv1
I0528 22:35:34.101994 58676 net.cpp:129] Top shape: 25 64 112 112 (20070400)
I0528 22:35:34.102000 58676 net.cpp:137] Memory required for data: 125440100
I0528 22:35:34.102013 58676 layer_factory.hpp:77] Creating layer conv1_bn
I0528 22:35:34.102030 58676 net.cpp:84] Creating Layer conv1_bn
I0528 22:35:34.102036 58676 net.cpp:406] conv1_bn <- conv1
I0528 22:35:34.102046 58676 net.cpp:367] conv1_bn -> conv1 (in-place)
I0528 22:35:34.102244 58676 net.cpp:122] Setting up conv1_bn
I0528 22:35:34.102254 58676 net.cpp:129] Top shape: 25 64 112 112 (20070400)
I0528 22:35:34.102258 58676 net.cpp:137] Memory required for data: 205721700
I0528 22:35:34.102274 58676 layer_factory.hpp:77] Creating layer conv1_scale
I0528 22:35:34.102285 58676 net.cpp:84] Creating Layer conv1_scale
I0528 22:35:34.102290 58676 net.cpp:406] conv1_scale <- conv1
I0528 22:35:34.102298 58676 net.cpp:367] conv1_scale -> conv1 (in-place)
I0528 22:35:34.102345 58676 layer_factory.hpp:77] Creating layer conv1_scale
I0528 22:35:34.102481 58676 net.cpp:122] Setting up conv1_scale
I0528 22:35:34.102490 58676 net.cpp:129] Top shape: 25 64 112 112 (20070400)
I0528 22:35:34.102494 58676 net.cpp:137] Memory required for data: 286003300
I0528 22:35:34.102501 58676 layer_factory.hpp:77] Creating layer conv1_relu
I0528 22:35:34.102514 58676 net.cpp:84] Creating Layer conv1_relu
I0528 22:35:34.102519 58676 net.cpp:406] conv1_relu <- conv1
I0528 22:35:34.102524 58676 net.cpp:367] conv1_relu -> conv1 (in-place)
I0528 22:35:34.103231 58676 net.cpp:122] Setting up conv1_relu
I0528 22:35:34.103251 58676 net.cpp:129] Top shape: 25 64 112 112 (20070400)
I0528 22:35:34.103256 58676 net.cpp:137] Memory required for data: 366284900
I0528 22:35:34.103260 58676 layer_factory.hpp:77] Creating layer conv1_pool
I0528 22:35:34.103273 58676 net.cpp:84] Creating Layer conv1_pool
I0528 22:35:34.103278 58676 net.cpp:406] conv1_pool <- conv1
I0528 22:35:34.103286 58676 net.cpp:380] conv1_pool -> conv1_pool
I0528 22:35:34.103353 58676 net.cpp:122] Setting up conv1_pool
I0528 22:35:34.103363 58676 net.cpp:129] Top shape: 25 64 56 56 (5017600)
I0528 22:35:34.103366 58676 net.cpp:137] Memory required for data: 386355300
I0528 22:35:34.103371 58676 layer_factory.hpp:77] Creating layer layer_64_1_conv1
I0528 22:35:34.103387 58676 net.cpp:84] Creating Layer layer_64_1_conv1
I0528 22:35:34.103392 58676 net.cpp:406] layer_64_1_conv1 <- conv1_pool
I0528 22:35:34.103400 58676 net.cpp:380] layer_64_1_conv1 -> layer_64_1_conv1
I0528 22:35:34.105996 58676 net.cpp:122] Setting up layer_64_1_conv1
I0528 22:35:34.106017 58676 net.cpp:129] Top shape: 25 64 56 56 (5017600)
I0528 22:35:34.106021 58676 net.cpp:137] Memory required for data: 406425700
I0528 22:35:34.106029 58676 layer_factory.hpp:77] Creating layer layer_64_1_bn2
I0528 22:35:34.106040 58676 net.cpp:84] Creating Layer layer_64_1_bn2
I0528 22:35:34.106045 58676 net.cpp:406] layer_64_1_bn2 <- layer_64_1_conv1
I0528 22:35:34.106051 58676 net.cpp:367] layer_64_1_bn2 -> layer_64_1_conv1 (in-place)
I0528 22:35:34.106240 58676 net.cpp:122] Setting up layer_64_1_bn2
I0528 22:35:34.106248 58676 net.cpp:129] Top shape: 25 64 56 56 (5017600)
I0528 22:35:34.106252 58676 net.cpp:137] Memory required for data: 426496100
I0528 22:35:34.106261 58676 layer_factory.hpp:77] Creating layer layer_64_1_scale2
I0528 22:35:34.106268 58676 net.cpp:84] Creating Layer layer_64_1_scale2
I0528 22:35:34.106272 58676 net.cpp:406] layer_64_1_scale2 <- layer_64_1_conv1
I0528 22:35:34.106282 58676 net.cpp:367] layer_64_1_scale2 -> layer_64_1_conv1 (in-place)
I0528 22:35:34.106322 58676 layer_factory.hpp:77] Creating layer layer_64_1_scale2
I0528 22:35:34.106469 58676 net.cpp:122] Setting up layer_64_1_scale2
I0528 22:35:34.106480 58676 net.cpp:129] Top shape: 25 64 56 56 (5017600)
I0528 22:35:34.106483 58676 net.cpp:137] Memory required for data: 446566500
I0528 22:35:34.106497 58676 layer_factory.hpp:77] Creating layer layer_64_1_relu2
I0528 22:35:34.106503 58676 net.cpp:84] Creating Layer layer_64_1_relu2
I0528 22:35:34.106508 58676 net.cpp:406] layer_64_1_relu2 <- layer_64_1_conv1
I0528 22:35:34.106513 58676 net.cpp:367] layer_64_1_relu2 -> layer_64_1_conv1 (in-place)
I0528 22:35:34.106709 58676 net.cpp:122] Setting up layer_64_1_relu2
I0528 22:35:34.106726 58676 net.cpp:129] Top shape: 25 64 56 56 (5017600)
I0528 22:35:34.106730 58676 net.cpp:137] Memory required for data: 466636900
I0528 22:35:34.106734 58676 layer_factory.hpp:77] Creating layer layer_64_1_conv1_layer_64_1_relu2_0_split
I0528 22:35:34.106745 58676 net.cpp:84] Creating Layer layer_64_1_conv1_layer_64_1_relu2_0_split
I0528 22:35:34.106750 58676 net.cpp:406] layer_64_1_conv1_layer_64_1_relu2_0_split <- layer_64_1_conv1
I0528 22:35:34.106755 58676 net.cpp:380] layer_64_1_conv1_layer_64_1_relu2_0_split -> layer_64_1_conv1_layer_64_1_relu2_0_split_0
I0528 22:35:34.106765 58676 net.cpp:380] layer_64_1_conv1_layer_64_1_relu2_0_split -> layer_64_1_conv1_layer_64_1_relu2_0_split_1
I0528 22:35:34.106812 58676 net.cpp:122] Setting up layer_64_1_conv1_layer_64_1_relu2_0_split
I0528 22:35:34.106819 58676 net.cpp:129] Top shape: 25 64 56 56 (5017600)
I0528 22:35:34.106823 58676 net.cpp:129] Top shape: 25 64 56 56 (5017600)
I0528 22:35:34.106827 58676 net.cpp:137] Memory required for data: 506777700
I0528 22:35:34.106830 58676 layer_factory.hpp:77] Creating layer layer_64_1_conv2
I0528 22:35:34.106842 58676 net.cpp:84] Creating Layer layer_64_1_conv2
I0528 22:35:34.106847 58676 net.cpp:406] layer_64_1_conv2 <- layer_64_1_conv1_layer_64_1_relu2_0_split_0
I0528 22:35:34.106855 58676 net.cpp:380] layer_64_1_conv2 -> layer_64_1_conv2
I0528 22:35:34.109822 58676 net.cpp:122] Setting up layer_64_1_conv2
I0528 22:35:34.109843 58676 net.cpp:129] Top shape: 25 64 56 56 (5017600)
I0528 22:35:34.109846 58676 net.cpp:137] Memory required for data: 526848100
I0528 22:35:34.109853 58676 layer_factory.hpp:77] Creating layer layer_64_1_bn3
I0528 22:35:34.109863 58676 net.cpp:84] Creating Layer layer_64_1_bn3
I0528 22:35:34.109869 58676 net.cpp:406] layer_64_1_bn3 <- layer_64_1_conv2
I0528 22:35:34.109876 58676 net.cpp:367] layer_64_1_bn3 -> layer_64_1_conv2 (in-place)
I0528 22:35:34.110076 58676 net.cpp:122] Setting up layer_64_1_bn3
I0528 22:35:34.110085 58676 net.cpp:129] Top shape: 25 64 56 56 (5017600)
I0528 22:35:34.110088 58676 net.cpp:137] Memory required for data: 546918500
I0528 22:35:34.110096 58676 layer_factory.hpp:77] Creating layer layer_64_1_scale3
I0528 22:35:34.110106 58676 net.cpp:84] Creating Layer layer_64_1_scale3
I0528 22:35:34.110110 58676 net.cpp:406] layer_64_1_scale3 <- layer_64_1_conv2
I0528 22:35:34.110116 58676 net.cpp:367] layer_64_1_scale3 -> layer_64_1_conv2 (in-place)
I0528 22:35:34.110158 58676 layer_factory.hpp:77] Creating layer layer_64_1_scale3
I0528 22:35:34.110277 58676 net.cpp:122] Setting up layer_64_1_scale3
I0528 22:35:34.110285 58676 net.cpp:129] Top shape: 25 64 56 56 (5017600)
I0528 22:35:34.110290 58676 net.cpp:137] Memory required for data: 566988900
I0528 22:35:34.110296 58676 layer_factory.hpp:77] Creating layer layer_64_1_relu3
I0528 22:35:34.110304 58676 net.cpp:84] Creating Layer layer_64_1_relu3
I0528 22:35:34.110308 58676 net.cpp:406] layer_64_1_relu3 <- layer_64_1_conv2
I0528 22:35:34.110316 58676 net.cpp:367] layer_64_1_relu3 -> layer_64_1_conv2 (in-place)
I0528 22:35:34.110501 58676 net.cpp:122] Setting up layer_64_1_relu3
I0528 22:35:34.110512 58676 net.cpp:129] Top shape: 25 64 56 56 (5017600)
I0528 22:35:34.110515 58676 net.cpp:137] Memory required for data: 587059300
I0528 22:35:34.110519 58676 layer_factory.hpp:77] Creating layer layer_64_1_conv3
I0528 22:35:34.110532 58676 net.cpp:84] Creating Layer layer_64_1_conv3
I0528 22:35:34.110543 58676 net.cpp:406] layer_64_1_conv3 <- layer_64_1_conv2
I0528 22:35:34.110570 58676 net.cpp:380] layer_64_1_conv3 -> layer_64_1_conv3
I0528 22:35:34.112890 58676 net.cpp:122] Setting up layer_64_1_conv3
I0528 22:35:34.112911 58676 net.cpp:129] Top shape: 25 256 56 56 (20070400)
I0528 22:35:34.112916 58676 net.cpp:137] Memory required for data: 667340900
I0528 22:35:34.112922 58676 layer_factory.hpp:77] Creating layer layer_64_1_conv_expand
I0528 22:35:34.112936 58676 net.cpp:84] Creating Layer layer_64_1_conv_expand
I0528 22:35:34.112941 58676 net.cpp:406] layer_64_1_conv_expand <- layer_64_1_conv1_layer_64_1_relu2_0_split_1
I0528 22:35:34.112951 58676 net.cpp:380] layer_64_1_conv_expand -> layer_64_1_conv_expand
I0528 22:35:34.115241 58676 net.cpp:122] Setting up layer_64_1_conv_expand
I0528 22:35:34.115267 58676 net.cpp:129] Top shape: 25 256 56 56 (20070400)
I0528 22:35:34.115272 58676 net.cpp:137] Memory required for data: 747622500
I0528 22:35:34.115279 58676 layer_factory.hpp:77] Creating layer layer_64_1_sum
I0528 22:35:34.115291 58676 net.cpp:84] Creating Layer layer_64_1_sum
I0528 22:35:34.115296 58676 net.cpp:406] layer_64_1_sum <- layer_64_1_conv3
I0528 22:35:34.115303 58676 net.cpp:406] layer_64_1_sum <- layer_64_1_conv_expand
I0528 22:35:34.115309 58676 net.cpp:380] layer_64_1_sum -> layer_64_1_sum
I0528 22:35:34.115345 58676 net.cpp:122] Setting up layer_64_1_sum
I0528 22:35:34.115353 58676 net.cpp:129] Top shape: 25 256 56 56 (20070400)
I0528 22:35:34.115357 58676 net.cpp:137] Memory required for data: 827904100
I0528 22:35:34.115361 58676 layer_factory.hpp:77] Creating layer layer_64_1_sum_layer_64_1_sum_0_split
I0528 22:35:34.115367 58676 net.cpp:84] Creating Layer layer_64_1_sum_layer_64_1_sum_0_split
I0528 22:35:34.115373 58676 net.cpp:406] layer_64_1_sum_layer_64_1_sum_0_split <- layer_64_1_sum
I0528 22:35:34.115380 58676 net.cpp:380] layer_64_1_sum_layer_64_1_sum_0_split -> layer_64_1_sum_layer_64_1_sum_0_split_0
I0528 22:35:34.115386 58676 net.cpp:380] layer_64_1_sum_layer_64_1_sum_0_split -> layer_64_1_sum_layer_64_1_sum_0_split_1
I0528 22:35:34.115422 58676 net.cpp:122] Setting up layer_64_1_sum_layer_64_1_sum_0_split
I0528 22:35:34.115428 58676 net.cpp:129] Top shape: 25 256 56 56 (20070400)
I0528 22:35:34.115433 58676 net.cpp:129] Top shape: 25 256 56 56 (20070400)
I0528 22:35:34.115437 58676 net.cpp:137] Memory required for data: 988467300
I0528 22:35:34.115440 58676 layer_factory.hpp:77] Creating layer layer_64_2_bn1
I0528 22:35:34.115447 58676 net.cpp:84] Creating Layer layer_64_2_bn1
I0528 22:35:34.115452 58676 net.cpp:406] layer_64_2_bn1 <- layer_64_1_sum_layer_64_1_sum_0_split_0
I0528 22:35:34.115458 58676 net.cpp:380] layer_64_2_bn1 -> layer_64_2_bn1
I0528 22:35:34.115659 58676 net.cpp:122] Setting up layer_64_2_bn1
I0528 22:35:34.115672 58676 net.cpp:129] Top shape: 25 256 56 56 (20070400)
I0528 22:35:34.115676 58676 net.cpp:137] Memory required for data: 1068748900
I0528 22:35:34.115684 58676 layer_factory.hpp:77] Creating layer layer_64_2_scale1
I0528 22:35:34.115694 58676 net.cpp:84] Creating Layer layer_64_2_scale1
I0528 22:35:34.115698 58676 net.cpp:406] layer_64_2_scale1 <- layer_64_2_bn1
I0528 22:35:34.115705 58676 net.cpp:367] layer_64_2_scale1 -> layer_64_2_bn1 (in-place)
I0528 22:35:34.115748 58676 layer_factory.hpp:77] Creating layer layer_64_2_scale1
I0528 22:35:34.115865 58676 net.cpp:122] Setting up layer_64_2_scale1
I0528 22:35:34.115875 58676 net.cpp:129] Top shape: 25 256 56 56 (20070400)
I0528 22:35:34.115877 58676 net.cpp:137] Memory required for data: 1149030500
I0528 22:35:34.115885 58676 layer_factory.hpp:77] Creating layer layer_64_2_relu1
I0528 22:35:34.115891 58676 net.cpp:84] Creating Layer layer_64_2_relu1
I0528 22:35:34.115895 58676 net.cpp:406] layer_64_2_relu1 <- layer_64_2_bn1
I0528 22:35:34.115902 58676 net.cpp:367] layer_64_2_relu1 -> layer_64_2_bn1 (in-place)
I0528 22:35:34.116593 58676 net.cpp:122] Setting up layer_64_2_relu1
I0528 22:35:34.116616 58676 net.cpp:129] Top shape: 25 256 56 56 (20070400)
I0528 22:35:34.116627 58676 net.cpp:137] Memory required for data: 1229312100
I0528 22:35:34.116638 58676 layer_factory.hpp:77] Creating layer layer_64_2_conv1
I0528 22:35:34.116652 58676 net.cpp:84] Creating Layer layer_64_2_conv1
I0528 22:35:34.116657 58676 net.cpp:406] layer_64_2_conv1 <- layer_64_2_bn1
I0528 22:35:34.116667 58676 net.cpp:380] layer_64_2_conv1 -> layer_64_2_conv1
I0528 22:35:34.118468 58676 net.cpp:122] Setting up layer_64_2_conv1
I0528 22:35:34.118489 58676 net.cpp:129] Top shape: 25 64 56 56 (5017600)
I0528 22:35:34.118494 58676 net.cpp:137] Memory required for data: 1249382500
I0528 22:35:34.118499 58676 layer_factory.hpp:77] Creating layer layer_64_2_bn2
I0528 22:35:34.118510 58676 net.cpp:84] Creating Layer layer_64_2_bn2
I0528 22:35:34.118515 58676 net.cpp:406] layer_64_2_bn2 <- layer_64_2_conv1
I0528 22:35:34.118521 58676 net.cpp:367] layer_64_2_bn2 -> layer_64_2_conv1 (in-place)
I0528 22:35:34.118731 58676 net.cpp:122] Setting up layer_64_2_bn2
I0528 22:35:34.118744 58676 net.cpp:129] Top shape: 25 64 56 56 (5017600)
I0528 22:35:34.118748 58676 net.cpp:137] Memory required for data: 1269452900
I0528 22:35:34.118762 58676 layer_factory.hpp:77] Creating layer layer_64_2_scale2
I0528 22:35:34.118770 58676 net.cpp:84] Creating Layer layer_64_2_scale2
I0528 22:35:34.118775 58676 net.cpp:406] layer_64_2_scale2 <- layer_64_2_conv1
I0528 22:35:34.118783 58676 net.cpp:367] layer_64_2_scale2 -> layer_64_2_conv1 (in-place)
I0528 22:35:34.118829 58676 layer_factory.hpp:77] Creating layer layer_64_2_scale2
I0528 22:35:34.118952 58676 net.cpp:122] Setting up layer_64_2_scale2
I0528 22:35:34.118962 58676 net.cpp:129] Top shape: 25 64 56 56 (5017600)
I0528 22:35:34.118964 58676 net.cpp:137] Memory required for data: 1289523300
I0528 22:35:34.118971 58676 layer_factory.hpp:77] Creating layer layer_64_2_relu2
I0528 22:35:34.118978 58676 net.cpp:84] Creating Layer layer_64_2_relu2
I0528 22:35:34.118983 58676 net.cpp:406] layer_64_2_relu2 <- layer_64_2_conv1
I0528 22:35:34.118989 58676 net.cpp:367] layer_64_2_relu2 -> layer_64_2_conv1 (in-place)
I0528 22:35:34.119678 58676 net.cpp:122] Setting up layer_64_2_relu2
I0528 22:35:34.119698 58676 net.cpp:129] Top shape: 25 64 56 56 (5017600)
I0528 22:35:34.119701 58676 net.cpp:137] Memory required for data: 1309593700
I0528 22:35:34.119705 58676 layer_factory.hpp:77] Creating layer layer_64_2_conv2
I0528 22:35:34.119719 58676 net.cpp:84] Creating Layer layer_64_2_conv2
I0528 22:35:34.119724 58676 net.cpp:406] layer_64_2_conv2 <- layer_64_2_conv1
I0528 22:35:34.119732 58676 net.cpp:380] layer_64_2_conv2 -> layer_64_2_conv2
I0528 22:35:34.122711 58676 net.cpp:122] Setting up layer_64_2_conv2
I0528 22:35:34.122732 58676 net.cpp:129] Top shape: 25 64 56 56 (5017600)
I0528 22:35:34.122737 58676 net.cpp:137] Memory required for data: 1329664100
I0528 22:35:34.122743 58676 layer_factory.hpp:77] Creating layer layer_64_2_bn3
I0528 22:35:34.122753 58676 net.cpp:84] Creating Layer layer_64_2_bn3
I0528 22:35:34.122758 58676 net.cpp:406] layer_64_2_bn3 <- layer_64_2_conv2
I0528 22:35:34.122766 58676 net.cpp:367] layer_64_2_bn3 -> layer_64_2_conv2 (in-place)
I0528 22:35:34.122969 58676 net.cpp:122] Setting up layer_64_2_bn3
I0528 22:35:34.122978 58676 net.cpp:129] Top shape: 25 64 56 56 (5017600)
I0528 22:35:34.122982 58676 net.cpp:137] Memory required for data: 1349734500
I0528 22:35:34.122989 58676 layer_factory.hpp:77] Creating layer layer_64_2_scale3
I0528 22:35:34.122999 58676 net.cpp:84] Creating Layer layer_64_2_scale3
I0528 22:35:34.123003 58676 net.cpp:406] layer_64_2_scale3 <- layer_64_2_conv2
I0528 22:35:34.123009 58676 net.cpp:367] layer_64_2_scale3 -> layer_64_2_conv2 (in-place)
I0528 22:35:34.123052 58676 layer_factory.hpp:77] Creating layer layer_64_2_scale3
I0528 22:35:34.123176 58676 net.cpp:122] Setting up layer_64_2_scale3
I0528 22:35:34.123185 58676 net.cpp:129] Top shape: 25 64 56 56 (5017600)
I0528 22:35:34.123189 58676 net.cpp:137] Memory required for data: 1369804900
I0528 22:35:34.123195 58676 layer_factory.hpp:77] Creating layer layer_64_2_relu3
I0528 22:35:34.123204 58676 net.cpp:84] Creating Layer layer_64_2_relu3
I0528 22:35:34.123222 58676 net.cpp:406] layer_64_2_relu3 <- layer_64_2_conv2
I0528 22:35:34.123229 58676 net.cpp:367] layer_64_2_relu3 -> layer_64_2_conv2 (in-place)
I0528 22:35:34.123414 58676 net.cpp:122] Setting up layer_64_2_relu3
I0528 22:35:34.123427 58676 net.cpp:129] Top shape: 25 64 56 56 (5017600)
I0528 22:35:34.123432 58676 net.cpp:137] Memory required for data: 1389875300
I0528 22:35:34.123436 58676 layer_factory.hpp:77] Creating layer layer_64_2_conv3
I0528 22:35:34.123450 58676 net.cpp:84] Creating Layer layer_64_2_conv3
I0528 22:35:34.123456 58676 net.cpp:406] layer_64_2_conv3 <- layer_64_2_conv2
I0528 22:35:34.123464 58676 net.cpp:380] layer_64_2_conv3 -> layer_64_2_conv3
I0528 22:35:34.125795 58676 net.cpp:122] Setting up layer_64_2_conv3
I0528 22:35:34.125815 58676 net.cpp:129] Top shape: 25 256 56 56 (20070400)
I0528 22:35:34.125820 58676 net.cpp:137] Memory required for data: 1470156900
I0528 22:35:34.125826 58676 layer_factory.hpp:77] Creating layer layer_64_2_sum
I0528 22:35:34.125836 58676 net.cpp:84] Creating Layer layer_64_2_sum
I0528 22:35:34.125841 58676 net.cpp:406] layer_64_2_sum <- layer_64_2_conv3
I0528 22:35:34.125847 58676 net.cpp:406] layer_64_2_sum <- layer_64_1_sum_layer_64_1_sum_0_split_1
I0528 22:35:34.125852 58676 net.cpp:380] layer_64_2_sum -> layer_64_2_sum
I0528 22:35:34.125885 58676 net.cpp:122] Setting up layer_64_2_sum
I0528 22:35:34.125892 58676 net.cpp:129] Top shape: 25 256 56 56 (20070400)
I0528 22:35:34.125896 58676 net.cpp:137] Memory required for data: 1550438500
I0528 22:35:34.125900 58676 layer_factory.hpp:77] Creating layer layer_64_2_sum_layer_64_2_sum_0_split
I0528 22:35:34.125906 58676 net.cpp:84] Creating Layer layer_64_2_sum_layer_64_2_sum_0_split
I0528 22:35:34.125910 58676 net.cpp:406] layer_64_2_sum_layer_64_2_sum_0_split <- layer_64_2_sum
I0528 22:35:34.125916 58676 net.cpp:380] layer_64_2_sum_layer_64_2_sum_0_split -> layer_64_2_sum_layer_64_2_sum_0_split_0
I0528 22:35:34.125924 58676 net.cpp:380] layer_64_2_sum_layer_64_2_sum_0_split -> layer_64_2_sum_layer_64_2_sum_0_split_1
I0528 22:35:34.125960 58676 net.cpp:122] Setting up layer_64_2_sum_layer_64_2_sum_0_split
I0528 22:35:34.125967 58676 net.cpp:129] Top shape: 25 256 56 56 (20070400)
I0528 22:35:34.125972 58676 net.cpp:129] Top shape: 25 256 56 56 (20070400)
I0528 22:35:34.125975 58676 net.cpp:137] Memory required for data: 1711001700
I0528 22:35:34.125979 58676 layer_factory.hpp:77] Creating layer layer_64_3_bn1
I0528 22:35:34.125988 58676 net.cpp:84] Creating Layer layer_64_3_bn1
I0528 22:35:34.125991 58676 net.cpp:406] layer_64_3_bn1 <- layer_64_2_sum_layer_64_2_sum_0_split_0
I0528 22:35:34.126003 58676 net.cpp:380] layer_64_3_bn1 -> layer_64_3_bn1
I0528 22:35:34.126199 58676 net.cpp:122] Setting up layer_64_3_bn1
I0528 22:35:34.126209 58676 net.cpp:129] Top shape: 25 256 56 56 (20070400)
I0528 22:35:34.126211 58676 net.cpp:137] Memory required for data: 1791283300
I0528 22:35:34.126220 58676 layer_factory.hpp:77] Creating layer layer_64_3_scale1
I0528 22:35:34.126227 58676 net.cpp:84] Creating Layer layer_64_3_scale1
I0528 22:35:34.126231 58676 net.cpp:406] layer_64_3_scale1 <- layer_64_3_bn1
I0528 22:35:34.126237 58676 net.cpp:367] layer_64_3_scale1 -> layer_64_3_bn1 (in-place)
I0528 22:35:34.126281 58676 layer_factory.hpp:77] Creating layer layer_64_3_scale1
I0528 22:35:34.126396 58676 net.cpp:122] Setting up layer_64_3_scale1
I0528 22:35:34.126405 58676 net.cpp:129] Top shape: 25 256 56 56 (20070400)
I0528 22:35:34.126408 58676 net.cpp:137] Memory required for data: 1871564900
I0528 22:35:34.126415 58676 layer_factory.hpp:77] Creating layer layer_64_3_relu1
I0528 22:35:34.126423 58676 net.cpp:84] Creating Layer layer_64_3_relu1
I0528 22:35:34.126427 58676 net.cpp:406] layer_64_3_relu1 <- layer_64_3_bn1
I0528 22:35:34.126432 58676 net.cpp:367] layer_64_3_relu1 -> layer_64_3_bn1 (in-place)
I0528 22:35:34.127637 58676 net.cpp:122] Setting up layer_64_3_relu1
I0528 22:35:34.127660 58676 net.cpp:129] Top shape: 25 256 56 56 (20070400)
I0528 22:35:34.127670 58676 net.cpp:137] Memory required for data: 1951846500
I0528 22:35:34.127681 58676 layer_factory.hpp:77] Creating layer layer_64_3_conv1
I0528 22:35:34.127693 58676 net.cpp:84] Creating Layer layer_64_3_conv1
I0528 22:35:34.127698 58676 net.cpp:406] layer_64_3_conv1 <- layer_64_3_bn1
I0528 22:35:34.127707 58676 net.cpp:380] layer_64_3_conv1 -> layer_64_3_conv1
I0528 22:35:34.129559 58676 net.cpp:122] Setting up layer_64_3_conv1
I0528 22:35:34.129582 58676 net.cpp:129] Top shape: 25 64 56 56 (5017600)
I0528 22:35:34.129587 58676 net.cpp:137] Memory required for data: 1971916900
I0528 22:35:34.129595 58676 layer_factory.hpp:77] Creating layer layer_64_3_bn2
I0528 22:35:34.129602 58676 net.cpp:84] Creating Layer layer_64_3_bn2
I0528 22:35:34.129606 58676 net.cpp:406] layer_64_3_bn2 <- layer_64_3_conv1
I0528 22:35:34.129616 58676 net.cpp:367] layer_64_3_bn2 -> layer_64_3_conv1 (in-place)
I0528 22:35:34.129830 58676 net.cpp:122] Setting up layer_64_3_bn2
I0528 22:35:34.129839 58676 net.cpp:129] Top shape: 25 64 56 56 (5017600)
I0528 22:35:34.129843 58676 net.cpp:137] Memory required for data: 1991987300
I0528 22:35:34.129853 58676 layer_factory.hpp:77] Creating layer layer_64_3_scale2
I0528 22:35:34.129861 58676 net.cpp:84] Creating Layer layer_64_3_scale2
I0528 22:35:34.129865 58676 net.cpp:406] layer_64_3_scale2 <- layer_64_3_conv1
I0528 22:35:34.129871 58676 net.cpp:367] layer_64_3_scale2 -> layer_64_3_conv1 (in-place)
I0528 22:35:34.129916 58676 layer_factory.hpp:77] Creating layer layer_64_3_scale2
I0528 22:35:34.130043 58676 net.cpp:122] Setting up layer_64_3_scale2
I0528 22:35:34.130051 58676 net.cpp:129] Top shape: 25 64 56 56 (5017600)
I0528 22:35:34.130054 58676 net.cpp:137] Memory required for data: 2012057700
I0528 22:35:34.130061 58676 layer_factory.hpp:77] Creating layer layer_64_3_relu2
I0528 22:35:34.130067 58676 net.cpp:84] Creating Layer layer_64_3_relu2
I0528 22:35:34.130072 58676 net.cpp:406] layer_64_3_relu2 <- layer_64_3_conv1
I0528 22:35:34.130080 58676 net.cpp:367] layer_64_3_relu2 -> layer_64_3_conv1 (in-place)
I0528 22:35:34.130772 58676 net.cpp:122] Setting up layer_64_3_relu2
I0528 22:35:34.130791 58676 net.cpp:129] Top shape: 25 64 56 56 (5017600)
I0528 22:35:34.130796 58676 net.cpp:137] Memory required for data: 2032128100
I0528 22:35:34.130800 58676 layer_factory.hpp:77] Creating layer layer_64_3_conv2
I0528 22:35:34.130813 58676 net.cpp:84] Creating Layer layer_64_3_conv2
I0528 22:35:34.130818 58676 net.cpp:406] layer_64_3_conv2 <- layer_64_3_conv1
I0528 22:35:34.130828 58676 net.cpp:380] layer_64_3_conv2 -> layer_64_3_conv2
I0528 22:35:34.133812 58676 net.cpp:122] Setting up layer_64_3_conv2
I0528 22:35:34.133832 58676 net.cpp:129] Top shape: 25 64 56 56 (5017600)
I0528 22:35:34.133837 58676 net.cpp:137] Memory required for data: 2052198500
I0528 22:35:34.133843 58676 layer_factory.hpp:77] Creating layer layer_64_3_bn3
I0528 22:35:34.133853 58676 net.cpp:84] Creating Layer layer_64_3_bn3
I0528 22:35:34.133859 58676 net.cpp:406] layer_64_3_bn3 <- layer_64_3_conv2
I0528 22:35:34.133865 58676 net.cpp:367] layer_64_3_bn3 -> layer_64_3_conv2 (in-place)
I0528 22:35:34.134070 58676 net.cpp:122] Setting up layer_64_3_bn3
I0528 22:35:34.134079 58676 net.cpp:129] Top shape: 25 64 56 56 (5017600)
I0528 22:35:34.134083 58676 net.cpp:137] Memory required for data: 2072268900
I0528 22:35:34.134091 58676 layer_factory.hpp:77] Creating layer layer_64_3_scale3
I0528 22:35:34.134099 58676 net.cpp:84] Creating Layer layer_64_3_scale3
I0528 22:35:34.134102 58676 net.cpp:406] layer_64_3_scale3 <- layer_64_3_conv2
I0528 22:35:34.134109 58676 net.cpp:367] layer_64_3_scale3 -> layer_64_3_conv2 (in-place)
I0528 22:35:34.134160 58676 layer_factory.hpp:77] Creating layer layer_64_3_scale3
I0528 22:35:34.134284 58676 net.cpp:122] Setting up layer_64_3_scale3
I0528 22:35:34.134294 58676 net.cpp:129] Top shape: 25 64 56 56 (5017600)
I0528 22:35:34.134296 58676 net.cpp:137] Memory required for data: 2092339300
I0528 22:35:34.134304 58676 layer_factory.hpp:77] Creating layer layer_64_3_relu3
I0528 22:35:34.134312 58676 net.cpp:84] Creating Layer layer_64_3_relu3
I0528 22:35:34.134330 58676 net.cpp:406] layer_64_3_relu3 <- layer_64_3_conv2
I0528 22:35:34.134337 58676 net.cpp:367] layer_64_3_relu3 -> layer_64_3_conv2 (in-place)
I0528 22:35:34.134526 58676 net.cpp:122] Setting up layer_64_3_relu3
I0528 22:35:34.134537 58676 net.cpp:129] Top shape: 25 64 56 56 (5017600)
I0528 22:35:34.134541 58676 net.cpp:137] Memory required for data: 2112409700
I0528 22:35:34.134546 58676 layer_factory.hpp:77] Creating layer layer_64_3_conv3
I0528 22:35:34.134567 58676 net.cpp:84] Creating Layer layer_64_3_conv3
I0528 22:35:34.134575 58676 net.cpp:406] layer_64_3_conv3 <- layer_64_3_conv2
I0528 22:35:34.134584 58676 net.cpp:380] layer_64_3_conv3 -> layer_64_3_conv3
I0528 22:35:34.136889 58676 net.cpp:122] Setting up layer_64_3_conv3
I0528 22:35:34.136911 58676 net.cpp:129] Top shape: 25 256 56 56 (20070400)
I0528 22:35:34.136916 58676 net.cpp:137] Memory required for data: 2192691300
I0528 22:35:34.136922 58676 layer_factory.hpp:77] Creating layer layer_64_3_sum
I0528 22:35:34.136930 58676 net.cpp:84] Creating Layer layer_64_3_sum
I0528 22:35:34.136935 58676 net.cpp:406] layer_64_3_sum <- layer_64_3_conv3
I0528 22:35:34.136940 58676 net.cpp:406] layer_64_3_sum <- layer_64_2_sum_layer_64_2_sum_0_split_1
I0528 22:35:34.136946 58676 net.cpp:380] layer_64_3_sum -> layer_64_3_sum
I0528 22:35:34.136979 58676 net.cpp:122] Setting up layer_64_3_sum
I0528 22:35:34.136987 58676 net.cpp:129] Top shape: 25 256 56 56 (20070400)
I0528 22:35:34.136991 58676 net.cpp:137] Memory required for data: 2272972900
I0528 22:35:34.136994 58676 layer_factory.hpp:77] Creating layer layer_128_1_bn1
I0528 22:35:34.137004 58676 net.cpp:84] Creating Layer layer_128_1_bn1
I0528 22:35:34.137009 58676 net.cpp:406] layer_128_1_bn1 <- layer_64_3_sum
I0528 22:35:34.137015 58676 net.cpp:380] layer_128_1_bn1 -> layer_128_1_bn1
I0528 22:35:34.137217 58676 net.cpp:122] Setting up layer_128_1_bn1
I0528 22:35:34.137225 58676 net.cpp:129] Top shape: 25 256 56 56 (20070400)
I0528 22:35:34.137229 58676 net.cpp:137] Memory required for data: 2353254500
I0528 22:35:34.137246 58676 layer_factory.hpp:77] Creating layer layer_128_1_scale1
I0528 22:35:34.137255 58676 net.cpp:84] Creating Layer layer_128_1_scale1
I0528 22:35:34.137259 58676 net.cpp:406] layer_128_1_scale1 <- layer_128_1_bn1
I0528 22:35:34.137266 58676 net.cpp:367] layer_128_1_scale1 -> layer_128_1_bn1 (in-place)
I0528 22:35:34.137313 58676 layer_factory.hpp:77] Creating layer layer_128_1_scale1
I0528 22:35:34.137439 58676 net.cpp:122] Setting up layer_128_1_scale1
I0528 22:35:34.137446 58676 net.cpp:129] Top shape: 25 256 56 56 (20070400)
I0528 22:35:34.137450 58676 net.cpp:137] Memory required for data: 2433536100
I0528 22:35:34.137457 58676 layer_factory.hpp:77] Creating layer layer_128_1_relu1
I0528 22:35:34.137464 58676 net.cpp:84] Creating Layer layer_128_1_relu1
I0528 22:35:34.137467 58676 net.cpp:406] layer_128_1_relu1 <- layer_128_1_bn1
I0528 22:35:34.137475 58676 net.cpp:367] layer_128_1_relu1 -> layer_128_1_bn1 (in-place)
I0528 22:35:34.138167 58676 net.cpp:122] Setting up layer_128_1_relu1
I0528 22:35:34.138190 58676 net.cpp:129] Top shape: 25 256 56 56 (20070400)
I0528 22:35:34.138193 58676 net.cpp:137] Memory required for data: 2513817700
I0528 22:35:34.138198 58676 layer_factory.hpp:77] Creating layer layer_128_1_bn1_layer_128_1_relu1_0_split
I0528 22:35:34.138206 58676 net.cpp:84] Creating Layer layer_128_1_bn1_layer_128_1_relu1_0_split
I0528 22:35:34.138211 58676 net.cpp:406] layer_128_1_bn1_layer_128_1_relu1_0_split <- layer_128_1_bn1
I0528 22:35:34.138216 58676 net.cpp:380] layer_128_1_bn1_layer_128_1_relu1_0_split -> layer_128_1_bn1_layer_128_1_relu1_0_split_0
I0528 22:35:34.138224 58676 net.cpp:380] layer_128_1_bn1_layer_128_1_relu1_0_split -> layer_128_1_bn1_layer_128_1_relu1_0_split_1
I0528 22:35:34.138274 58676 net.cpp:122] Setting up layer_128_1_bn1_layer_128_1_relu1_0_split
I0528 22:35:34.138283 58676 net.cpp:129] Top shape: 25 256 56 56 (20070400)
I0528 22:35:34.138286 58676 net.cpp:129] Top shape: 25 256 56 56 (20070400)
I0528 22:35:34.138296 58676 net.cpp:137] Memory required for data: 2674380900
I0528 22:35:34.138309 58676 layer_factory.hpp:77] Creating layer layer_128_1_conv1
I0528 22:35:34.138321 58676 net.cpp:84] Creating Layer layer_128_1_conv1
I0528 22:35:34.138326 58676 net.cpp:406] layer_128_1_conv1 <- layer_128_1_bn1_layer_128_1_relu1_0_split_0
I0528 22:35:34.138334 58676 net.cpp:380] layer_128_1_conv1 -> layer_128_1_conv1
I0528 22:35:34.141814 58676 net.cpp:122] Setting up layer_128_1_conv1
I0528 22:35:34.141834 58676 net.cpp:129] Top shape: 25 128 56 56 (10035200)
I0528 22:35:34.141839 58676 net.cpp:137] Memory required for data: 2714521700
I0528 22:35:34.141846 58676 layer_factory.hpp:77] Creating layer layer_128_1_bn2
I0528 22:35:34.141856 58676 net.cpp:84] Creating Layer layer_128_1_bn2
I0528 22:35:34.141862 58676 net.cpp:406] layer_128_1_bn2 <- layer_128_1_conv1
I0528 22:35:34.141870 58676 net.cpp:367] layer_128_1_bn2 -> layer_128_1_conv1 (in-place)
I0528 22:35:34.142084 58676 net.cpp:122] Setting up layer_128_1_bn2
I0528 22:35:34.142094 58676 net.cpp:129] Top shape: 25 128 56 56 (10035200)
I0528 22:35:34.142098 58676 net.cpp:137] Memory required for data: 2754662500
I0528 22:35:34.142107 58676 layer_factory.hpp:77] Creating layer layer_128_1_scale2
I0528 22:35:34.142113 58676 net.cpp:84] Creating Layer layer_128_1_scale2
I0528 22:35:34.142118 58676 net.cpp:406] layer_128_1_scale2 <- layer_128_1_conv1
I0528 22:35:34.142125 58676 net.cpp:367] layer_128_1_scale2 -> layer_128_1_conv1 (in-place)
I0528 22:35:34.142168 58676 layer_factory.hpp:77] Creating layer layer_128_1_scale2
I0528 22:35:34.142288 58676 net.cpp:122] Setting up layer_128_1_scale2
I0528 22:35:34.142299 58676 net.cpp:129] Top shape: 25 128 56 56 (10035200)
I0528 22:35:34.142303 58676 net.cpp:137] Memory required for data: 2794803300
I0528 22:35:34.142309 58676 layer_factory.hpp:77] Creating layer layer_128_1_relu2
I0528 22:35:34.142316 58676 net.cpp:84] Creating Layer layer_128_1_relu2
I0528 22:35:34.142320 58676 net.cpp:406] layer_128_1_relu2 <- layer_128_1_conv1
I0528 22:35:34.142325 58676 net.cpp:367] layer_128_1_relu2 -> layer_128_1_conv1 (in-place)
I0528 22:35:34.143007 58676 net.cpp:122] Setting up layer_128_1_relu2
I0528 22:35:34.143025 58676 net.cpp:129] Top shape: 25 128 56 56 (10035200)
I0528 22:35:34.143030 58676 net.cpp:137] Memory required for data: 2834944100
I0528 22:35:34.143034 58676 layer_factory.hpp:77] Creating layer layer_128_1_conv2
I0528 22:35:34.143049 58676 net.cpp:84] Creating Layer layer_128_1_conv2
I0528 22:35:34.143054 58676 net.cpp:406] layer_128_1_conv2 <- layer_128_1_conv1
I0528 22:35:34.143061 58676 net.cpp:380] layer_128_1_conv2 -> layer_128_1_conv2
I0528 22:35:34.150818 58676 net.cpp:122] Setting up layer_128_1_conv2
I0528 22:35:34.150840 58676 net.cpp:129] Top shape: 25 128 28 28 (2508800)
I0528 22:35:34.150845 58676 net.cpp:137] Memory required for data: 2844979300
I0528 22:35:34.150851 58676 layer_factory.hpp:77] Creating layer layer_128_1_bn3
I0528 22:35:34.150861 58676 net.cpp:84] Creating Layer layer_128_1_bn3
I0528 22:35:34.150866 58676 net.cpp:406] layer_128_1_bn3 <- layer_128_1_conv2
I0528 22:35:34.150872 58676 net.cpp:367] layer_128_1_bn3 -> layer_128_1_conv2 (in-place)
I0528 22:35:34.151732 58676 net.cpp:122] Setting up layer_128_1_bn3
I0528 22:35:34.151751 58676 net.cpp:129] Top shape: 25 128 28 28 (2508800)
I0528 22:35:34.151756 58676 net.cpp:137] Memory required for data: 2855014500
I0528 22:35:34.151764 58676 layer_factory.hpp:77] Creating layer layer_128_1_scale3
I0528 22:35:34.151775 58676 net.cpp:84] Creating Layer layer_128_1_scale3
I0528 22:35:34.151780 58676 net.cpp:406] layer_128_1_scale3 <- layer_128_1_conv2
I0528 22:35:34.151787 58676 net.cpp:367] layer_128_1_scale3 -> layer_128_1_conv2 (in-place)
I0528 22:35:34.151836 58676 layer_factory.hpp:77] Creating layer layer_128_1_scale3
I0528 22:35:34.151957 58676 net.cpp:122] Setting up layer_128_1_scale3
I0528 22:35:34.151967 58676 net.cpp:129] Top shape: 25 128 28 28 (2508800)
I0528 22:35:34.151970 58676 net.cpp:137] Memory required for data: 2865049700
I0528 22:35:34.151988 58676 layer_factory.hpp:77] Creating layer layer_128_1_relu3
I0528 22:35:34.152004 58676 net.cpp:84] Creating Layer layer_128_1_relu3
I0528 22:35:34.152010 58676 net.cpp:406] layer_128_1_relu3 <- layer_128_1_conv2
I0528 22:35:34.152017 58676 net.cpp:367] layer_128_1_relu3 -> layer_128_1_conv2 (in-place)
I0528 22:35:34.152226 58676 net.cpp:122] Setting up layer_128_1_relu3
I0528 22:35:34.152238 58676 net.cpp:129] Top shape: 25 128 28 28 (2508800)
I0528 22:35:34.152242 58676 net.cpp:137] Memory required for data: 2875084900
I0528 22:35:34.152246 58676 layer_factory.hpp:77] Creating layer layer_128_1_conv3
I0528 22:35:34.152259 58676 net.cpp:84] Creating Layer layer_128_1_conv3
I0528 22:35:34.152264 58676 net.cpp:406] layer_128_1_conv3 <- layer_128_1_conv2
I0528 22:35:34.152272 58676 net.cpp:380] layer_128_1_conv3 -> layer_128_1_conv3
I0528 22:35:34.156167 58676 net.cpp:122] Setting up layer_128_1_conv3
I0528 22:35:34.156189 58676 net.cpp:129] Top shape: 25 512 28 28 (10035200)
I0528 22:35:34.156194 58676 net.cpp:137] Memory required for data: 2915225700
I0528 22:35:34.156200 58676 layer_factory.hpp:77] Creating layer layer_128_1_conv_expand
I0528 22:35:34.156213 58676 net.cpp:84] Creating Layer layer_128_1_conv_expand
I0528 22:35:34.156219 58676 net.cpp:406] layer_128_1_conv_expand <- layer_128_1_bn1_layer_128_1_relu1_0_split_1
I0528 22:35:34.156226 58676 net.cpp:380] layer_128_1_conv_expand -> layer_128_1_conv_expand
I0528 22:35:34.162936 58676 net.cpp:122] Setting up layer_128_1_conv_expand
I0528 22:35:34.162959 58676 net.cpp:129] Top shape: 25 512 28 28 (10035200)
I0528 22:35:34.162966 58676 net.cpp:137] Memory required for data: 2955366500
I0528 22:35:34.162971 58676 layer_factory.hpp:77] Creating layer layer_128_1_sum
I0528 22:35:34.162978 58676 net.cpp:84] Creating Layer layer_128_1_sum
I0528 22:35:34.162984 58676 net.cpp:406] layer_128_1_sum <- layer_128_1_conv3
I0528 22:35:34.162989 58676 net.cpp:406] layer_128_1_sum <- layer_128_1_conv_expand
I0528 22:35:34.162995 58676 net.cpp:380] layer_128_1_sum -> layer_128_1_sum
I0528 22:35:34.163030 58676 net.cpp:122] Setting up layer_128_1_sum
I0528 22:35:34.163039 58676 net.cpp:129] Top shape: 25 512 28 28 (10035200)
I0528 22:35:34.163043 58676 net.cpp:137] Memory required for data: 2995507300
I0528 22:35:34.163046 58676 layer_factory.hpp:77] Creating layer layer_128_1_sum_layer_128_1_sum_0_split
I0528 22:35:34.163055 58676 net.cpp:84] Creating Layer layer_128_1_sum_layer_128_1_sum_0_split
I0528 22:35:34.163059 58676 net.cpp:406] layer_128_1_sum_layer_128_1_sum_0_split <- layer_128_1_sum
I0528 22:35:34.163065 58676 net.cpp:380] layer_128_1_sum_layer_128_1_sum_0_split -> layer_128_1_sum_layer_128_1_sum_0_split_0
I0528 22:35:34.163072 58676 net.cpp:380] layer_128_1_sum_layer_128_1_sum_0_split -> layer_128_1_sum_layer_128_1_sum_0_split_1
I0528 22:35:34.163112 58676 net.cpp:122] Setting up layer_128_1_sum_layer_128_1_sum_0_split
I0528 22:35:34.163120 58676 net.cpp:129] Top shape: 25 512 28 28 (10035200)
I0528 22:35:34.163125 58676 net.cpp:129] Top shape: 25 512 28 28 (10035200)
I0528 22:35:34.163127 58676 net.cpp:137] Memory required for data: 3075788900
I0528 22:35:34.163131 58676 layer_factory.hpp:77] Creating layer layer_128_2_bn1
I0528 22:35:34.163144 58676 net.cpp:84] Creating Layer layer_128_2_bn1
I0528 22:35:34.163151 58676 net.cpp:406] layer_128_2_bn1 <- layer_128_1_sum_layer_128_1_sum_0_split_0
I0528 22:35:34.163157 58676 net.cpp:380] layer_128_2_bn1 -> layer_128_2_bn1
I0528 22:35:34.163372 58676 net.cpp:122] Setting up layer_128_2_bn1
I0528 22:35:34.163380 58676 net.cpp:129] Top shape: 25 512 28 28 (10035200)
I0528 22:35:34.163384 58676 net.cpp:137] Memory required for data: 3115929700
I0528 22:35:34.163393 58676 layer_factory.hpp:77] Creating layer layer_128_2_scale1
I0528 22:35:34.163399 58676 net.cpp:84] Creating Layer layer_128_2_scale1
I0528 22:35:34.163404 58676 net.cpp:406] layer_128_2_scale1 <- layer_128_2_bn1
I0528 22:35:34.163409 58676 net.cpp:367] layer_128_2_scale1 -> layer_128_2_bn1 (in-place)
I0528 22:35:34.163458 58676 layer_factory.hpp:77] Creating layer layer_128_2_scale1
I0528 22:35:34.163601 58676 net.cpp:122] Setting up layer_128_2_scale1
I0528 22:35:34.163615 58676 net.cpp:129] Top shape: 25 512 28 28 (10035200)
I0528 22:35:34.163619 58676 net.cpp:137] Memory required for data: 3156070500
I0528 22:35:34.163626 58676 layer_factory.hpp:77] Creating layer layer_128_2_relu1
I0528 22:35:34.163633 58676 net.cpp:84] Creating Layer layer_128_2_relu1
I0528 22:35:34.163637 58676 net.cpp:406] layer_128_2_relu1 <- layer_128_2_bn1
I0528 22:35:34.163646 58676 net.cpp:367] layer_128_2_relu1 -> layer_128_2_bn1 (in-place)
I0528 22:35:34.163861 58676 net.cpp:122] Setting up layer_128_2_relu1
I0528 22:35:34.163873 58676 net.cpp:129] Top shape: 25 512 28 28 (10035200)
I0528 22:35:34.163877 58676 net.cpp:137] Memory required for data: 3196211300
I0528 22:35:34.163882 58676 layer_factory.hpp:77] Creating layer layer_128_2_conv1
I0528 22:35:34.163894 58676 net.cpp:84] Creating Layer layer_128_2_conv1
I0528 22:35:34.163898 58676 net.cpp:406] layer_128_2_conv1 <- layer_128_2_bn1
I0528 22:35:34.163908 58676 net.cpp:380] layer_128_2_conv1 -> layer_128_2_conv1
I0528 22:35:34.167861 58676 net.cpp:122] Setting up layer_128_2_conv1
I0528 22:35:34.167882 58676 net.cpp:129] Top shape: 25 128 28 28 (2508800)
I0528 22:35:34.167886 58676 net.cpp:137] Memory required for data: 3206246500
I0528 22:35:34.167893 58676 layer_factory.hpp:77] Creating layer layer_128_2_bn2
I0528 22:35:34.167904 58676 net.cpp:84] Creating Layer layer_128_2_bn2
I0528 22:35:34.167909 58676 net.cpp:406] layer_128_2_bn2 <- layer_128_2_conv1
I0528 22:35:34.167915 58676 net.cpp:367] layer_128_2_bn2 -> layer_128_2_conv1 (in-place)
I0528 22:35:34.168133 58676 net.cpp:122] Setting up layer_128_2_bn2
I0528 22:35:34.168143 58676 net.cpp:129] Top shape: 25 128 28 28 (2508800)
I0528 22:35:34.168148 58676 net.cpp:137] Memory required for data: 3216281700
I0528 22:35:34.168155 58676 layer_factory.hpp:77] Creating layer layer_128_2_scale2
I0528 22:35:34.168164 58676 net.cpp:84] Creating Layer layer_128_2_scale2
I0528 22:35:34.168167 58676 net.cpp:406] layer_128_2_scale2 <- layer_128_2_conv1
I0528 22:35:34.168175 58676 net.cpp:367] layer_128_2_scale2 -> layer_128_2_conv1 (in-place)
I0528 22:35:34.168221 58676 layer_factory.hpp:77] Creating layer layer_128_2_scale2
I0528 22:35:34.168344 58676 net.cpp:122] Setting up layer_128_2_scale2
I0528 22:35:34.168354 58676 net.cpp:129] Top shape: 25 128 28 28 (2508800)
I0528 22:35:34.168359 58676 net.cpp:137] Memory required for data: 3226316900
I0528 22:35:34.168365 58676 layer_factory.hpp:77] Creating layer layer_128_2_relu2
I0528 22:35:34.168371 58676 net.cpp:84] Creating Layer layer_128_2_relu2
I0528 22:35:34.168375 58676 net.cpp:406] layer_128_2_relu2 <- layer_128_2_conv1
I0528 22:35:34.168380 58676 net.cpp:367] layer_128_2_relu2 -> layer_128_2_conv1 (in-place)
I0528 22:35:34.169028 58676 net.cpp:122] Setting up layer_128_2_relu2
I0528 22:35:34.169049 58676 net.cpp:129] Top shape: 25 128 28 28 (2508800)
I0528 22:35:34.169052 58676 net.cpp:137] Memory required for data: 3236352100
I0528 22:35:34.169057 58676 layer_factory.hpp:77] Creating layer layer_128_2_conv2
I0528 22:35:34.169070 58676 net.cpp:84] Creating Layer layer_128_2_conv2
I0528 22:35:34.169075 58676 net.cpp:406] layer_128_2_conv2 <- layer_128_2_conv1
I0528 22:35:34.169085 58676 net.cpp:380] layer_128_2_conv2 -> layer_128_2_conv2
I0528 22:35:34.176329 58676 net.cpp:122] Setting up layer_128_2_conv2
I0528 22:35:34.176350 58676 net.cpp:129] Top shape: 25 128 28 28 (2508800)
I0528 22:35:34.176355 58676 net.cpp:137] Memory required for data: 3246387300
I0528 22:35:34.176362 58676 layer_factory.hpp:77] Creating layer layer_128_2_bn3
I0528 22:35:34.176372 58676 net.cpp:84] Creating Layer layer_128_2_bn3
I0528 22:35:34.176376 58676 net.cpp:406] layer_128_2_bn3 <- layer_128_2_conv2
I0528 22:35:34.176385 58676 net.cpp:367] layer_128_2_bn3 -> layer_128_2_conv2 (in-place)
I0528 22:35:34.176616 58676 net.cpp:122] Setting up layer_128_2_bn3
I0528 22:35:34.176630 58676 net.cpp:129] Top shape: 25 128 28 28 (2508800)
I0528 22:35:34.176638 58676 net.cpp:137] Memory required for data: 3256422500
I0528 22:35:34.176654 58676 layer_factory.hpp:77] Creating layer layer_128_2_scale3
I0528 22:35:34.176662 58676 net.cpp:84] Creating Layer layer_128_2_scale3
I0528 22:35:34.176666 58676 net.cpp:406] layer_128_2_scale3 <- layer_128_2_conv2
I0528 22:35:34.176674 58676 net.cpp:367] layer_128_2_scale3 -> layer_128_2_conv2 (in-place)
I0528 22:35:34.176724 58676 layer_factory.hpp:77] Creating layer layer_128_2_scale3
I0528 22:35:34.176851 58676 net.cpp:122] Setting up layer_128_2_scale3
I0528 22:35:34.176862 58676 net.cpp:129] Top shape: 25 128 28 28 (2508800)
I0528 22:35:34.176864 58676 net.cpp:137] Memory required for data: 3266457700
I0528 22:35:34.176872 58676 layer_factory.hpp:77] Creating layer layer_128_2_relu3
I0528 22:35:34.176877 58676 net.cpp:84] Creating Layer layer_128_2_relu3
I0528 22:35:34.176882 58676 net.cpp:406] layer_128_2_relu3 <- layer_128_2_conv2
I0528 22:35:34.176887 58676 net.cpp:367] layer_128_2_relu3 -> layer_128_2_conv2 (in-place)
I0528 22:35:34.177592 58676 net.cpp:122] Setting up layer_128_2_relu3
I0528 22:35:34.177613 58676 net.cpp:129] Top shape: 25 128 28 28 (2508800)
I0528 22:35:34.177618 58676 net.cpp:137] Memory required for data: 3276492900
I0528 22:35:34.177623 58676 layer_factory.hpp:77] Creating layer layer_128_2_conv3
I0528 22:35:34.177635 58676 net.cpp:84] Creating Layer layer_128_2_conv3
I0528 22:35:34.177641 58676 net.cpp:406] layer_128_2_conv3 <- layer_128_2_conv2
I0528 22:35:34.177649 58676 net.cpp:380] layer_128_2_conv3 -> layer_128_2_conv3
I0528 22:35:34.181601 58676 net.cpp:122] Setting up layer_128_2_conv3
I0528 22:35:34.181622 58676 net.cpp:129] Top shape: 25 512 28 28 (10035200)
I0528 22:35:34.181627 58676 net.cpp:137] Memory required for data: 3316633700
I0528 22:35:34.181633 58676 layer_factory.hpp:77] Creating layer layer_128_2_sum
I0528 22:35:34.181641 58676 net.cpp:84] Creating Layer layer_128_2_sum
I0528 22:35:34.181646 58676 net.cpp:406] layer_128_2_sum <- layer_128_2_conv3
I0528 22:35:34.181651 58676 net.cpp:406] layer_128_2_sum <- layer_128_1_sum_layer_128_1_sum_0_split_1
I0528 22:35:34.181658 58676 net.cpp:380] layer_128_2_sum -> layer_128_2_sum
I0528 22:35:34.181694 58676 net.cpp:122] Setting up layer_128_2_sum
I0528 22:35:34.181701 58676 net.cpp:129] Top shape: 25 512 28 28 (10035200)
I0528 22:35:34.181705 58676 net.cpp:137] Memory required for data: 3356774500
I0528 22:35:34.181709 58676 layer_factory.hpp:77] Creating layer layer_128_2_sum_layer_128_2_sum_0_split
I0528 22:35:34.181715 58676 net.cpp:84] Creating Layer layer_128_2_sum_layer_128_2_sum_0_split
I0528 22:35:34.181721 58676 net.cpp:406] layer_128_2_sum_layer_128_2_sum_0_split <- layer_128_2_sum
I0528 22:35:34.181727 58676 net.cpp:380] layer_128_2_sum_layer_128_2_sum_0_split -> layer_128_2_sum_layer_128_2_sum_0_split_0
I0528 22:35:34.181735 58676 net.cpp:380] layer_128_2_sum_layer_128_2_sum_0_split -> layer_128_2_sum_layer_128_2_sum_0_split_1
I0528 22:35:34.181777 58676 net.cpp:122] Setting up layer_128_2_sum_layer_128_2_sum_0_split
I0528 22:35:34.181784 58676 net.cpp:129] Top shape: 25 512 28 28 (10035200)
I0528 22:35:34.181789 58676 net.cpp:129] Top shape: 25 512 28 28 (10035200)
I0528 22:35:34.181792 58676 net.cpp:137] Memory required for data: 3437056100
I0528 22:35:34.181797 58676 layer_factory.hpp:77] Creating layer layer_128_3_bn1
I0528 22:35:34.181803 58676 net.cpp:84] Creating Layer layer_128_3_bn1
I0528 22:35:34.181807 58676 net.cpp:406] layer_128_3_bn1 <- layer_128_2_sum_layer_128_2_sum_0_split_0
I0528 22:35:34.181815 58676 net.cpp:380] layer_128_3_bn1 -> layer_128_3_bn1
I0528 22:35:34.182036 58676 net.cpp:122] Setting up layer_128_3_bn1
I0528 22:35:34.182045 58676 net.cpp:129] Top shape: 25 512 28 28 (10035200)
I0528 22:35:34.182049 58676 net.cpp:137] Memory required for data: 3477196900
I0528 22:35:34.182057 58676 layer_factory.hpp:77] Creating layer layer_128_3_scale1
I0528 22:35:34.182066 58676 net.cpp:84] Creating Layer layer_128_3_scale1
I0528 22:35:34.182071 58676 net.cpp:406] layer_128_3_scale1 <- layer_128_3_bn1
I0528 22:35:34.182082 58676 net.cpp:367] layer_128_3_scale1 -> layer_128_3_bn1 (in-place)
I0528 22:35:34.182153 58676 layer_factory.hpp:77] Creating layer layer_128_3_scale1
I0528 22:35:34.182278 58676 net.cpp:122] Setting up layer_128_3_scale1
I0528 22:35:34.182287 58676 net.cpp:129] Top shape: 25 512 28 28 (10035200)
I0528 22:35:34.182291 58676 net.cpp:137] Memory required for data: 3517337700
I0528 22:35:34.182297 58676 layer_factory.hpp:77] Creating layer layer_128_3_relu1
I0528 22:35:34.182304 58676 net.cpp:84] Creating Layer layer_128_3_relu1
I0528 22:35:34.182308 58676 net.cpp:406] layer_128_3_relu1 <- layer_128_3_bn1
I0528 22:35:34.182315 58676 net.cpp:367] layer_128_3_relu1 -> layer_128_3_bn1 (in-place)
I0528 22:35:34.182510 58676 net.cpp:122] Setting up layer_128_3_relu1
I0528 22:35:34.182523 58676 net.cpp:129] Top shape: 25 512 28 28 (10035200)
I0528 22:35:34.182526 58676 net.cpp:137] Memory required for data: 3557478500
I0528 22:35:34.182530 58676 layer_factory.hpp:77] Creating layer layer_128_3_conv1
I0528 22:35:34.182543 58676 net.cpp:84] Creating Layer layer_128_3_conv1
I0528 22:35:34.182548 58676 net.cpp:406] layer_128_3_conv1 <- layer_128_3_bn1
I0528 22:35:34.182569 58676 net.cpp:380] layer_128_3_conv1 -> layer_128_3_conv1
I0528 22:35:34.187180 58676 net.cpp:122] Setting up layer_128_3_conv1
I0528 22:35:34.187202 58676 net.cpp:129] Top shape: 25 128 28 28 (2508800)
I0528 22:35:34.187207 58676 net.cpp:137] Memory required for data: 3567513700
I0528 22:35:34.187213 58676 layer_factory.hpp:77] Creating layer layer_128_3_bn2
I0528 22:35:34.187222 58676 net.cpp:84] Creating Layer layer_128_3_bn2
I0528 22:35:34.187227 58676 net.cpp:406] layer_128_3_bn2 <- layer_128_3_conv1
I0528 22:35:34.187235 58676 net.cpp:367] layer_128_3_bn2 -> layer_128_3_conv1 (in-place)
I0528 22:35:34.187458 58676 net.cpp:122] Setting up layer_128_3_bn2
I0528 22:35:34.187469 58676 net.cpp:129] Top shape: 25 128 28 28 (2508800)
I0528 22:35:34.187471 58676 net.cpp:137] Memory required for data: 3577548900
I0528 22:35:34.187479 58676 layer_factory.hpp:77] Creating layer layer_128_3_scale2
I0528 22:35:34.187489 58676 net.cpp:84] Creating Layer layer_128_3_scale2
I0528 22:35:34.187494 58676 net.cpp:406] layer_128_3_scale2 <- layer_128_3_conv1
I0528 22:35:34.187500 58676 net.cpp:367] layer_128_3_scale2 -> layer_128_3_conv1 (in-place)
I0528 22:35:34.187549 58676 layer_factory.hpp:77] Creating layer layer_128_3_scale2
I0528 22:35:34.187692 58676 net.cpp:122] Setting up layer_128_3_scale2
I0528 22:35:34.187702 58676 net.cpp:129] Top shape: 25 128 28 28 (2508800)
I0528 22:35:34.187706 58676 net.cpp:137] Memory required for data: 3587584100
I0528 22:35:34.187713 58676 layer_factory.hpp:77] Creating layer layer_128_3_relu2
I0528 22:35:34.187721 58676 net.cpp:84] Creating Layer layer_128_3_relu2
I0528 22:35:34.187724 58676 net.cpp:406] layer_128_3_relu2 <- layer_128_3_conv1
I0528 22:35:34.187731 58676 net.cpp:367] layer_128_3_relu2 -> layer_128_3_conv1 (in-place)
I0528 22:35:34.188427 58676 net.cpp:122] Setting up layer_128_3_relu2
I0528 22:35:34.188446 58676 net.cpp:129] Top shape: 25 128 28 28 (2508800)
I0528 22:35:34.188452 58676 net.cpp:137] Memory required for data: 3597619300
I0528 22:35:34.188457 58676 layer_factory.hpp:77] Creating layer layer_128_3_conv2
I0528 22:35:34.188469 58676 net.cpp:84] Creating Layer layer_128_3_conv2
I0528 22:35:34.188474 58676 net.cpp:406] layer_128_3_conv2 <- layer_128_3_conv1
I0528 22:35:34.188482 58676 net.cpp:380] layer_128_3_conv2 -> layer_128_3_conv2
I0528 22:35:34.195281 58676 net.cpp:122] Setting up layer_128_3_conv2
I0528 22:35:34.195302 58676 net.cpp:129] Top shape: 25 128 28 28 (2508800)
I0528 22:35:34.195307 58676 net.cpp:137] Memory required for data: 3607654500
I0528 22:35:34.195312 58676 layer_factory.hpp:77] Creating layer layer_128_3_bn3
I0528 22:35:34.195322 58676 net.cpp:84] Creating Layer layer_128_3_bn3
I0528 22:35:34.195327 58676 net.cpp:406] layer_128_3_bn3 <- layer_128_3_conv2
I0528 22:35:34.195334 58676 net.cpp:367] layer_128_3_bn3 -> layer_128_3_conv2 (in-place)
I0528 22:35:34.195565 58676 net.cpp:122] Setting up layer_128_3_bn3
I0528 22:35:34.195590 58676 net.cpp:129] Top shape: 25 128 28 28 (2508800)
I0528 22:35:34.195595 58676 net.cpp:137] Memory required for data: 3617689700
I0528 22:35:34.195602 58676 layer_factory.hpp:77] Creating layer layer_128_3_scale3
I0528 22:35:34.195611 58676 net.cpp:84] Creating Layer layer_128_3_scale3
I0528 22:35:34.195616 58676 net.cpp:406] layer_128_3_scale3 <- layer_128_3_conv2
I0528 22:35:34.195622 58676 net.cpp:367] layer_128_3_scale3 -> layer_128_3_conv2 (in-place)
I0528 22:35:34.195673 58676 layer_factory.hpp:77] Creating layer layer_128_3_scale3
I0528 22:35:34.195798 58676 net.cpp:122] Setting up layer_128_3_scale3
I0528 22:35:34.195807 58676 net.cpp:129] Top shape: 25 128 28 28 (2508800)
I0528 22:35:34.195811 58676 net.cpp:137] Memory required for data: 3627724900
I0528 22:35:34.195817 58676 layer_factory.hpp:77] Creating layer layer_128_3_relu3
I0528 22:35:34.195827 58676 net.cpp:84] Creating Layer layer_128_3_relu3
I0528 22:35:34.195832 58676 net.cpp:406] layer_128_3_relu3 <- layer_128_3_conv2
I0528 22:35:34.195837 58676 net.cpp:367] layer_128_3_relu3 -> layer_128_3_conv2 (in-place)
I0528 22:35:34.196537 58676 net.cpp:122] Setting up layer_128_3_relu3
I0528 22:35:34.196559 58676 net.cpp:129] Top shape: 25 128 28 28 (2508800)
I0528 22:35:34.196568 58676 net.cpp:137] Memory required for data: 3637760100
I0528 22:35:34.196573 58676 layer_factory.hpp:77] Creating layer layer_128_3_conv3
I0528 22:35:34.196585 58676 net.cpp:84] Creating Layer layer_128_3_conv3
I0528 22:35:34.196591 58676 net.cpp:406] layer_128_3_conv3 <- layer_128_3_conv2
I0528 22:35:34.196600 58676 net.cpp:380] layer_128_3_conv3 -> layer_128_3_conv3
I0528 22:35:34.200572 58676 net.cpp:122] Setting up layer_128_3_conv3
I0528 22:35:34.200592 58676 net.cpp:129] Top shape: 25 512 28 28 (10035200)
I0528 22:35:34.200598 58676 net.cpp:137] Memory required for data: 3677900900
I0528 22:35:34.200603 58676 layer_factory.hpp:77] Creating layer layer_128_3_sum
I0528 22:35:34.200613 58676 net.cpp:84] Creating Layer layer_128_3_sum
I0528 22:35:34.200618 58676 net.cpp:406] layer_128_3_sum <- layer_128_3_conv3
I0528 22:35:34.200623 58676 net.cpp:406] layer_128_3_sum <- layer_128_2_sum_layer_128_2_sum_0_split_1
I0528 22:35:34.200629 58676 net.cpp:380] layer_128_3_sum -> layer_128_3_sum
I0528 22:35:34.200664 58676 net.cpp:122] Setting up layer_128_3_sum
I0528 22:35:34.200675 58676 net.cpp:129] Top shape: 25 512 28 28 (10035200)
I0528 22:35:34.200678 58676 net.cpp:137] Memory required for data: 3718041700
I0528 22:35:34.200682 58676 layer_factory.hpp:77] Creating layer layer_128_3_sum_layer_128_3_sum_0_split
I0528 22:35:34.200688 58676 net.cpp:84] Creating Layer layer_128_3_sum_layer_128_3_sum_0_split
I0528 22:35:34.200693 58676 net.cpp:406] layer_128_3_sum_layer_128_3_sum_0_split <- layer_128_3_sum
I0528 22:35:34.200698 58676 net.cpp:380] layer_128_3_sum_layer_128_3_sum_0_split -> layer_128_3_sum_layer_128_3_sum_0_split_0
I0528 22:35:34.200707 58676 net.cpp:380] layer_128_3_sum_layer_128_3_sum_0_split -> layer_128_3_sum_layer_128_3_sum_0_split_1
I0528 22:35:34.200749 58676 net.cpp:122] Setting up layer_128_3_sum_layer_128_3_sum_0_split
I0528 22:35:34.200757 58676 net.cpp:129] Top shape: 25 512 28 28 (10035200)
I0528 22:35:34.200762 58676 net.cpp:129] Top shape: 25 512 28 28 (10035200)
I0528 22:35:34.200764 58676 net.cpp:137] Memory required for data: 3798323300
I0528 22:35:34.200768 58676 layer_factory.hpp:77] Creating layer layer_128_4_bn1
I0528 22:35:34.200778 58676 net.cpp:84] Creating Layer layer_128_4_bn1
I0528 22:35:34.200783 58676 net.cpp:406] layer_128_4_bn1 <- layer_128_3_sum_layer_128_3_sum_0_split_0
I0528 22:35:34.200788 58676 net.cpp:380] layer_128_4_bn1 -> layer_128_4_bn1
I0528 22:35:34.201012 58676 net.cpp:122] Setting up layer_128_4_bn1
I0528 22:35:34.201020 58676 net.cpp:129] Top shape: 25 512 28 28 (10035200)
I0528 22:35:34.201023 58676 net.cpp:137] Memory required for data: 3838464100
I0528 22:35:34.201032 58676 layer_factory.hpp:77] Creating layer layer_128_4_scale1
I0528 22:35:34.201040 58676 net.cpp:84] Creating Layer layer_128_4_scale1
I0528 22:35:34.201056 58676 net.cpp:406] layer_128_4_scale1 <- layer_128_4_bn1
I0528 22:35:34.201066 58676 net.cpp:367] layer_128_4_scale1 -> layer_128_4_bn1 (in-place)
I0528 22:35:34.201118 58676 layer_factory.hpp:77] Creating layer layer_128_4_scale1
I0528 22:35:34.201246 58676 net.cpp:122] Setting up layer_128_4_scale1
I0528 22:35:34.201258 58676 net.cpp:129] Top shape: 25 512 28 28 (10035200)
I0528 22:35:34.201262 58676 net.cpp:137] Memory required for data: 3878604900
I0528 22:35:34.201268 58676 layer_factory.hpp:77] Creating layer layer_128_4_relu1
I0528 22:35:34.201275 58676 net.cpp:84] Creating Layer layer_128_4_relu1
I0528 22:35:34.201280 58676 net.cpp:406] layer_128_4_relu1 <- layer_128_4_bn1
I0528 22:35:34.201285 58676 net.cpp:367] layer_128_4_relu1 -> layer_128_4_bn1 (in-place)
I0528 22:35:34.201486 58676 net.cpp:122] Setting up layer_128_4_relu1
I0528 22:35:34.201500 58676 net.cpp:129] Top shape: 25 512 28 28 (10035200)
I0528 22:35:34.201504 58676 net.cpp:137] Memory required for data: 3918745700
I0528 22:35:34.201508 58676 layer_factory.hpp:77] Creating layer layer_128_4_conv1
I0528 22:35:34.201520 58676 net.cpp:84] Creating Layer layer_128_4_conv1
I0528 22:35:34.201525 58676 net.cpp:406] layer_128_4_conv1 <- layer_128_4_bn1
I0528 22:35:34.201532 58676 net.cpp:380] layer_128_4_conv1 -> layer_128_4_conv1
I0528 22:35:34.205541 58676 net.cpp:122] Setting up layer_128_4_conv1
I0528 22:35:34.205571 58676 net.cpp:129] Top shape: 25 128 28 28 (2508800)
I0528 22:35:34.205577 58676 net.cpp:137] Memory required for data: 3928780900
I0528 22:35:34.205584 58676 layer_factory.hpp:77] Creating layer layer_128_4_bn2
I0528 22:35:34.205591 58676 net.cpp:84] Creating Layer layer_128_4_bn2
I0528 22:35:34.205596 58676 net.cpp:406] layer_128_4_bn2 <- layer_128_4_conv1
I0528 22:35:34.205605 58676 net.cpp:367] layer_128_4_bn2 -> layer_128_4_conv1 (in-place)
I0528 22:35:34.205834 58676 net.cpp:122] Setting up layer_128_4_bn2
I0528 22:35:34.205844 58676 net.cpp:129] Top shape: 25 128 28 28 (2508800)
I0528 22:35:34.205847 58676 net.cpp:137] Memory required for data: 3938816100
I0528 22:35:34.205857 58676 layer_factory.hpp:77] Creating layer layer_128_4_scale2
I0528 22:35:34.205865 58676 net.cpp:84] Creating Layer layer_128_4_scale2
I0528 22:35:34.205870 58676 net.cpp:406] layer_128_4_scale2 <- layer_128_4_conv1
I0528 22:35:34.205876 58676 net.cpp:367] layer_128_4_scale2 -> layer_128_4_conv1 (in-place)
I0528 22:35:34.205926 58676 layer_factory.hpp:77] Creating layer layer_128_4_scale2
I0528 22:35:34.206058 58676 net.cpp:122] Setting up layer_128_4_scale2
I0528 22:35:34.206068 58676 net.cpp:129] Top shape: 25 128 28 28 (2508800)
I0528 22:35:34.206070 58676 net.cpp:137] Memory required for data: 3948851300
I0528 22:35:34.206077 58676 layer_factory.hpp:77] Creating layer layer_128_4_relu2
I0528 22:35:34.206084 58676 net.cpp:84] Creating Layer layer_128_4_relu2
I0528 22:35:34.206089 58676 net.cpp:406] layer_128_4_relu2 <- layer_128_4_conv1
I0528 22:35:34.206095 58676 net.cpp:367] layer_128_4_relu2 -> layer_128_4_conv1 (in-place)
I0528 22:35:34.206805 58676 net.cpp:122] Setting up layer_128_4_relu2
I0528 22:35:34.206825 58676 net.cpp:129] Top shape: 25 128 28 28 (2508800)
I0528 22:35:34.206830 58676 net.cpp:137] Memory required for data: 3958886500
I0528 22:35:34.206835 58676 layer_factory.hpp:77] Creating layer layer_128_4_conv2
I0528 22:35:34.206847 58676 net.cpp:84] Creating Layer layer_128_4_conv2
I0528 22:35:34.206853 58676 net.cpp:406] layer_128_4_conv2 <- layer_128_4_conv1
I0528 22:35:34.206861 58676 net.cpp:380] layer_128_4_conv2 -> layer_128_4_conv2
I0528 22:35:34.213661 58676 net.cpp:122] Setting up layer_128_4_conv2
I0528 22:35:34.213683 58676 net.cpp:129] Top shape: 25 128 28 28 (2508800)
I0528 22:35:34.213688 58676 net.cpp:137] Memory required for data: 3968921700
I0528 22:35:34.213714 58676 layer_factory.hpp:77] Creating layer layer_128_4_bn3
I0528 22:35:34.213726 58676 net.cpp:84] Creating Layer layer_128_4_bn3
I0528 22:35:34.213732 58676 net.cpp:406] layer_128_4_bn3 <- layer_128_4_conv2
I0528 22:35:34.213742 58676 net.cpp:367] layer_128_4_bn3 -> layer_128_4_conv2 (in-place)
I0528 22:35:34.213977 58676 net.cpp:122] Setting up layer_128_4_bn3
I0528 22:35:34.213989 58676 net.cpp:129] Top shape: 25 128 28 28 (2508800)
I0528 22:35:34.213994 58676 net.cpp:137] Memory required for data: 3978956900
I0528 22:35:34.214001 58676 layer_factory.hpp:77] Creating layer layer_128_4_scale3
I0528 22:35:34.214010 58676 net.cpp:84] Creating Layer layer_128_4_scale3
I0528 22:35:34.214015 58676 net.cpp:406] layer_128_4_scale3 <- layer_128_4_conv2
I0528 22:35:34.214022 58676 net.cpp:367] layer_128_4_scale3 -> layer_128_4_conv2 (in-place)
I0528 22:35:34.214071 58676 layer_factory.hpp:77] Creating layer layer_128_4_scale3
I0528 22:35:34.214198 58676 net.cpp:122] Setting up layer_128_4_scale3
I0528 22:35:34.214207 58676 net.cpp:129] Top shape: 25 128 28 28 (2508800)
I0528 22:35:34.214211 58676 net.cpp:137] Memory required for data: 3988992100
I0528 22:35:34.214217 58676 layer_factory.hpp:77] Creating layer layer_128_4_relu3
I0528 22:35:34.214226 58676 net.cpp:84] Creating Layer layer_128_4_relu3
I0528 22:35:34.214231 58676 net.cpp:406] layer_128_4_relu3 <- layer_128_4_conv2
I0528 22:35:34.214236 58676 net.cpp:367] layer_128_4_relu3 -> layer_128_4_conv2 (in-place)
I0528 22:35:34.214948 58676 net.cpp:122] Setting up layer_128_4_relu3
I0528 22:35:34.214968 58676 net.cpp:129] Top shape: 25 128 28 28 (2508800)
I0528 22:35:34.214972 58676 net.cpp:137] Memory required for data: 3999027300
I0528 22:35:34.214977 58676 layer_factory.hpp:77] Creating layer layer_128_4_conv3
I0528 22:35:34.214989 58676 net.cpp:84] Creating Layer layer_128_4_conv3
I0528 22:35:34.214995 58676 net.cpp:406] layer_128_4_conv3 <- layer_128_4_conv2
I0528 22:35:34.215009 58676 net.cpp:380] layer_128_4_conv3 -> layer_128_4_conv3
I0528 22:35:34.218997 58676 net.cpp:122] Setting up layer_128_4_conv3
I0528 22:35:34.219018 58676 net.cpp:129] Top shape: 25 512 28 28 (10035200)
I0528 22:35:34.219023 58676 net.cpp:137] Memory required for data: 4039168100
I0528 22:35:34.219030 58676 layer_factory.hpp:77] Creating layer layer_128_4_sum
I0528 22:35:34.219038 58676 net.cpp:84] Creating Layer layer_128_4_sum
I0528 22:35:34.219043 58676 net.cpp:406] layer_128_4_sum <- layer_128_4_conv3
I0528 22:35:34.219048 58676 net.cpp:406] layer_128_4_sum <- layer_128_3_sum_layer_128_3_sum_0_split_1
I0528 22:35:34.219056 58676 net.cpp:380] layer_128_4_sum -> layer_128_4_sum
I0528 22:35:34.219091 58676 net.cpp:122] Setting up layer_128_4_sum
I0528 22:35:34.219099 58676 net.cpp:129] Top shape: 25 512 28 28 (10035200)
I0528 22:35:34.219102 58676 net.cpp:137] Memory required for data: 4079308900
I0528 22:35:34.219106 58676 layer_factory.hpp:77] Creating layer layer_256_1_bn1
I0528 22:35:34.219115 58676 net.cpp:84] Creating Layer layer_256_1_bn1
I0528 22:35:34.219120 58676 net.cpp:406] layer_256_1_bn1 <- layer_128_4_sum
I0528 22:35:34.219130 58676 net.cpp:380] layer_256_1_bn1 -> layer_256_1_bn1
I0528 22:35:34.219358 58676 net.cpp:122] Setting up layer_256_1_bn1
I0528 22:35:34.219367 58676 net.cpp:129] Top shape: 25 512 28 28 (10035200)
I0528 22:35:34.219370 58676 net.cpp:137] Memory required for data: 4119449700
I0528 22:35:34.219378 58676 layer_factory.hpp:77] Creating layer layer_256_1_scale1
I0528 22:35:34.219386 58676 net.cpp:84] Creating Layer layer_256_1_scale1
I0528 22:35:34.219390 58676 net.cpp:406] layer_256_1_scale1 <- layer_256_1_bn1
I0528 22:35:34.219396 58676 net.cpp:367] layer_256_1_scale1 -> layer_256_1_bn1 (in-place)
I0528 22:35:34.219449 58676 layer_factory.hpp:77] Creating layer layer_256_1_scale1
I0528 22:35:34.219585 58676 net.cpp:122] Setting up layer_256_1_scale1
I0528 22:35:34.219599 58676 net.cpp:129] Top shape: 25 512 28 28 (10035200)
I0528 22:35:34.219604 58676 net.cpp:137] Memory required for data: 4159590500
I0528 22:35:34.219609 58676 layer_factory.hpp:77] Creating layer layer_256_1_relu1
I0528 22:35:34.219619 58676 net.cpp:84] Creating Layer layer_256_1_relu1
I0528 22:35:34.219624 58676 net.cpp:406] layer_256_1_relu1 <- layer_256_1_bn1
I0528 22:35:34.219629 58676 net.cpp:367] layer_256_1_relu1 -> layer_256_1_bn1 (in-place)
I0528 22:35:34.219838 58676 net.cpp:122] Setting up layer_256_1_relu1
I0528 22:35:34.219851 58676 net.cpp:129] Top shape: 25 512 28 28 (10035200)
I0528 22:35:34.219856 58676 net.cpp:137] Memory required for data: 4199731300
I0528 22:35:34.219859 58676 layer_factory.hpp:77] Creating layer layer_256_1_bn1_layer_256_1_relu1_0_split
I0528 22:35:34.219868 58676 net.cpp:84] Creating Layer layer_256_1_bn1_layer_256_1_relu1_0_split
I0528 22:35:34.219873 58676 net.cpp:406] layer_256_1_bn1_layer_256_1_relu1_0_split <- layer_256_1_bn1
I0528 22:35:34.219879 58676 net.cpp:380] layer_256_1_bn1_layer_256_1_relu1_0_split -> layer_256_1_bn1_layer_256_1_relu1_0_split_0
I0528 22:35:34.219887 58676 net.cpp:380] layer_256_1_bn1_layer_256_1_relu1_0_split -> layer_256_1_bn1_layer_256_1_relu1_0_split_1
I0528 22:35:34.219941 58676 net.cpp:122] Setting up layer_256_1_bn1_layer_256_1_relu1_0_split
I0528 22:35:34.219949 58676 net.cpp:129] Top shape: 25 512 28 28 (10035200)
I0528 22:35:34.219954 58676 net.cpp:129] Top shape: 25 512 28 28 (10035200)
I0528 22:35:34.219957 58676 net.cpp:137] Memory required for data: 4280012900
I0528 22:35:34.219961 58676 layer_factory.hpp:77] Creating layer layer_256_1_conv1
I0528 22:35:34.219974 58676 net.cpp:84] Creating Layer layer_256_1_conv1
I0528 22:35:34.219979 58676 net.cpp:406] layer_256_1_conv1 <- layer_256_1_bn1_layer_256_1_relu1_0_split_0
I0528 22:35:34.219990 58676 net.cpp:380] layer_256_1_conv1 -> layer_256_1_conv1
I0528 22:35:34.226624 58676 net.cpp:122] Setting up layer_256_1_conv1
I0528 22:35:34.226647 58676 net.cpp:129] Top shape: 25 256 28 28 (5017600)
I0528 22:35:34.226652 58676 net.cpp:137] Memory required for data: 4300083300
I0528 22:35:34.226658 58676 layer_factory.hpp:77] Creating layer layer_256_1_bn2
I0528 22:35:34.226666 58676 net.cpp:84] Creating Layer layer_256_1_bn2
I0528 22:35:34.226671 58676 net.cpp:406] layer_256_1_bn2 <- layer_256_1_conv1
I0528 22:35:34.226680 58676 net.cpp:367] layer_256_1_bn2 -> layer_256_1_conv1 (in-place)
I0528 22:35:34.226905 58676 net.cpp:122] Setting up layer_256_1_bn2
I0528 22:35:34.226914 58676 net.cpp:129] Top shape: 25 256 28 28 (5017600)
I0528 22:35:34.226918 58676 net.cpp:137] Memory required for data: 4320153700
I0528 22:35:34.226927 58676 layer_factory.hpp:77] Creating layer layer_256_1_scale2
I0528 22:35:34.226935 58676 net.cpp:84] Creating Layer layer_256_1_scale2
I0528 22:35:34.226940 58676 net.cpp:406] layer_256_1_scale2 <- layer_256_1_conv1
I0528 22:35:34.226945 58676 net.cpp:367] layer_256_1_scale2 -> layer_256_1_conv1 (in-place)
I0528 22:35:34.226995 58676 layer_factory.hpp:77] Creating layer layer_256_1_scale2
I0528 22:35:34.227129 58676 net.cpp:122] Setting up layer_256_1_scale2
I0528 22:35:34.227138 58676 net.cpp:129] Top shape: 25 256 28 28 (5017600)
I0528 22:35:34.227143 58676 net.cpp:137] Memory required for data: 4340224100
I0528 22:35:34.227149 58676 layer_factory.hpp:77] Creating layer layer_256_1_relu2
I0528 22:35:34.227155 58676 net.cpp:84] Creating Layer layer_256_1_relu2
I0528 22:35:34.227160 58676 net.cpp:406] layer_256_1_relu2 <- layer_256_1_conv1
I0528 22:35:34.227167 58676 net.cpp:367] layer_256_1_relu2 -> layer_256_1_conv1 (in-place)
I0528 22:35:34.227880 58676 net.cpp:122] Setting up layer_256_1_relu2
I0528 22:35:34.227900 58676 net.cpp:129] Top shape: 25 256 28 28 (5017600)
I0528 22:35:34.227905 58676 net.cpp:137] Memory required for data: 4360294500
I0528 22:35:34.227908 58676 layer_factory.hpp:77] Creating layer layer_256_1_conv2
I0528 22:35:34.227921 58676 net.cpp:84] Creating Layer layer_256_1_conv2
I0528 22:35:34.227927 58676 net.cpp:406] layer_256_1_conv2 <- layer_256_1_conv1
I0528 22:35:34.227936 58676 net.cpp:380] layer_256_1_conv2 -> layer_256_1_conv2
I0528 22:35:34.249692 58676 net.cpp:122] Setting up layer_256_1_conv2
I0528 22:35:34.249712 58676 net.cpp:129] Top shape: 25 256 14 14 (1254400)
I0528 22:35:34.249717 58676 net.cpp:137] Memory required for data: 4365312100
I0528 22:35:34.249723 58676 layer_factory.hpp:77] Creating layer layer_256_1_bn3
I0528 22:35:34.249739 58676 net.cpp:84] Creating Layer layer_256_1_bn3
I0528 22:35:34.249752 58676 net.cpp:406] layer_256_1_bn3 <- layer_256_1_conv2
I0528 22:35:34.249760 58676 net.cpp:367] layer_256_1_bn3 -> layer_256_1_conv2 (in-place)
I0528 22:35:34.249994 58676 net.cpp:122] Setting up layer_256_1_bn3
I0528 22:35:34.250003 58676 net.cpp:129] Top shape: 25 256 14 14 (1254400)
I0528 22:35:34.250007 58676 net.cpp:137] Memory required for data: 4370329700
I0528 22:35:34.250015 58676 layer_factory.hpp:77] Creating layer layer_256_1_scale3
I0528 22:35:34.250023 58676 net.cpp:84] Creating Layer layer_256_1_scale3
I0528 22:35:34.250027 58676 net.cpp:406] layer_256_1_scale3 <- layer_256_1_conv2
I0528 22:35:34.250036 58676 net.cpp:367] layer_256_1_scale3 -> layer_256_1_conv2 (in-place)
I0528 22:35:34.250090 58676 layer_factory.hpp:77] Creating layer layer_256_1_scale3
I0528 22:35:34.250227 58676 net.cpp:122] Setting up layer_256_1_scale3
I0528 22:35:34.250237 58676 net.cpp:129] Top shape: 25 256 14 14 (1254400)
I0528 22:35:34.250241 58676 net.cpp:137] Memory required for data: 4375347300
I0528 22:35:34.250247 58676 layer_factory.hpp:77] Creating layer layer_256_1_relu3
I0528 22:35:34.250254 58676 net.cpp:84] Creating Layer layer_256_1_relu3
I0528 22:35:34.250258 58676 net.cpp:406] layer_256_1_relu3 <- layer_256_1_conv2
I0528 22:35:34.250263 58676 net.cpp:367] layer_256_1_relu3 -> layer_256_1_conv2 (in-place)
I0528 22:35:34.250974 58676 net.cpp:122] Setting up layer_256_1_relu3
I0528 22:35:34.250998 58676 net.cpp:129] Top shape: 25 256 14 14 (1254400)
I0528 22:35:34.251001 58676 net.cpp:137] Memory required for data: 4380364900
I0528 22:35:34.251006 58676 layer_factory.hpp:77] Creating layer layer_256_1_conv3
I0528 22:35:34.251020 58676 net.cpp:84] Creating Layer layer_256_1_conv3
I0528 22:35:34.251026 58676 net.cpp:406] layer_256_1_conv3 <- layer_256_1_conv2
I0528 22:35:34.251034 58676 net.cpp:380] layer_256_1_conv3 -> layer_256_1_conv3
I0528 22:35:34.262017 58676 net.cpp:122] Setting up layer_256_1_conv3
I0528 22:35:34.262040 58676 net.cpp:129] Top shape: 25 1024 14 14 (5017600)
I0528 22:35:34.262045 58676 net.cpp:137] Memory required for data: 4400435300
I0528 22:35:34.262053 58676 layer_factory.hpp:77] Creating layer layer_256_1_conv_expand
I0528 22:35:34.262066 58676 net.cpp:84] Creating Layer layer_256_1_conv_expand
I0528 22:35:34.262071 58676 net.cpp:406] layer_256_1_conv_expand <- layer_256_1_bn1_layer_256_1_relu1_0_split_1
I0528 22:35:34.262079 58676 net.cpp:380] layer_256_1_conv_expand -> layer_256_1_conv_expand
I0528 22:35:34.282083 58676 net.cpp:122] Setting up layer_256_1_conv_expand
I0528 22:35:34.282105 58676 net.cpp:129] Top shape: 25 1024 14 14 (5017600)
I0528 22:35:34.282110 58676 net.cpp:137] Memory required for data: 4420505700
I0528 22:35:34.282117 58676 layer_factory.hpp:77] Creating layer layer_256_1_sum
I0528 22:35:34.282125 58676 net.cpp:84] Creating Layer layer_256_1_sum
I0528 22:35:34.282130 58676 net.cpp:406] layer_256_1_sum <- layer_256_1_conv3
I0528 22:35:34.282135 58676 net.cpp:406] layer_256_1_sum <- layer_256_1_conv_expand
I0528 22:35:34.282141 58676 net.cpp:380] layer_256_1_sum -> layer_256_1_sum
I0528 22:35:34.282181 58676 net.cpp:122] Setting up layer_256_1_sum
I0528 22:35:34.282189 58676 net.cpp:129] Top shape: 25 1024 14 14 (5017600)
I0528 22:35:34.282193 58676 net.cpp:137] Memory required for data: 4440576100
I0528 22:35:34.282196 58676 layer_factory.hpp:77] Creating layer layer_256_1_sum_layer_256_1_sum_0_split
I0528 22:35:34.282203 58676 net.cpp:84] Creating Layer layer_256_1_sum_layer_256_1_sum_0_split
I0528 22:35:34.282207 58676 net.cpp:406] layer_256_1_sum_layer_256_1_sum_0_split <- layer_256_1_sum
I0528 22:35:34.282217 58676 net.cpp:380] layer_256_1_sum_layer_256_1_sum_0_split -> layer_256_1_sum_layer_256_1_sum_0_split_0
I0528 22:35:34.282225 58676 net.cpp:380] layer_256_1_sum_layer_256_1_sum_0_split -> layer_256_1_sum_layer_256_1_sum_0_split_1
I0528 22:35:34.282279 58676 net.cpp:122] Setting up layer_256_1_sum_layer_256_1_sum_0_split
I0528 22:35:34.282289 58676 net.cpp:129] Top shape: 25 1024 14 14 (5017600)
I0528 22:35:34.282299 58676 net.cpp:129] Top shape: 25 1024 14 14 (5017600)
I0528 22:35:34.282312 58676 net.cpp:137] Memory required for data: 4480716900
I0528 22:35:34.282317 58676 layer_factory.hpp:77] Creating layer layer_256_2_bn1
I0528 22:35:34.282325 58676 net.cpp:84] Creating Layer layer_256_2_bn1
I0528 22:35:34.282330 58676 net.cpp:406] layer_256_2_bn1 <- layer_256_1_sum_layer_256_1_sum_0_split_0
I0528 22:35:34.282337 58676 net.cpp:380] layer_256_2_bn1 -> layer_256_2_bn1
I0528 22:35:34.282594 58676 net.cpp:122] Setting up layer_256_2_bn1
I0528 22:35:34.282608 58676 net.cpp:129] Top shape: 25 1024 14 14 (5017600)
I0528 22:35:34.282611 58676 net.cpp:137] Memory required for data: 4500787300
I0528 22:35:34.282620 58676 layer_factory.hpp:77] Creating layer layer_256_2_scale1
I0528 22:35:34.282630 58676 net.cpp:84] Creating Layer layer_256_2_scale1
I0528 22:35:34.282635 58676 net.cpp:406] layer_256_2_scale1 <- layer_256_2_bn1
I0528 22:35:34.282641 58676 net.cpp:367] layer_256_2_scale1 -> layer_256_2_bn1 (in-place)
I0528 22:35:34.282691 58676 layer_factory.hpp:77] Creating layer layer_256_2_scale1
I0528 22:35:34.282842 58676 net.cpp:122] Setting up layer_256_2_scale1
I0528 22:35:34.282852 58676 net.cpp:129] Top shape: 25 1024 14 14 (5017600)
I0528 22:35:34.282855 58676 net.cpp:137] Memory required for data: 4520857700
I0528 22:35:34.282862 58676 layer_factory.hpp:77] Creating layer layer_256_2_relu1
I0528 22:35:34.282869 58676 net.cpp:84] Creating Layer layer_256_2_relu1
I0528 22:35:34.282873 58676 net.cpp:406] layer_256_2_relu1 <- layer_256_2_bn1
I0528 22:35:34.282881 58676 net.cpp:367] layer_256_2_relu1 -> layer_256_2_bn1 (in-place)
I0528 22:35:34.283084 58676 net.cpp:122] Setting up layer_256_2_relu1
I0528 22:35:34.283097 58676 net.cpp:129] Top shape: 25 1024 14 14 (5017600)
I0528 22:35:34.283100 58676 net.cpp:137] Memory required for data: 4540928100
I0528 22:35:34.283104 58676 layer_factory.hpp:77] Creating layer layer_256_2_conv1
I0528 22:35:34.283118 58676 net.cpp:84] Creating Layer layer_256_2_conv1
I0528 22:35:34.283123 58676 net.cpp:406] layer_256_2_conv1 <- layer_256_2_bn1
I0528 22:35:34.283131 58676 net.cpp:380] layer_256_2_conv1 -> layer_256_2_conv1
I0528 22:35:34.294170 58676 net.cpp:122] Setting up layer_256_2_conv1
I0528 22:35:34.294191 58676 net.cpp:129] Top shape: 25 256 14 14 (1254400)
I0528 22:35:34.294196 58676 net.cpp:137] Memory required for data: 4545945700
I0528 22:35:34.294203 58676 layer_factory.hpp:77] Creating layer layer_256_2_bn2
I0528 22:35:34.294214 58676 net.cpp:84] Creating Layer layer_256_2_bn2
I0528 22:35:34.294219 58676 net.cpp:406] layer_256_2_bn2 <- layer_256_2_conv1
I0528 22:35:34.294227 58676 net.cpp:367] layer_256_2_bn2 -> layer_256_2_conv1 (in-place)
I0528 22:35:34.294458 58676 net.cpp:122] Setting up layer_256_2_bn2
I0528 22:35:34.294467 58676 net.cpp:129] Top shape: 25 256 14 14 (1254400)
I0528 22:35:34.294471 58676 net.cpp:137] Memory required for data: 4550963300
I0528 22:35:34.294479 58676 layer_factory.hpp:77] Creating layer layer_256_2_scale2
I0528 22:35:34.294486 58676 net.cpp:84] Creating Layer layer_256_2_scale2
I0528 22:35:34.294492 58676 net.cpp:406] layer_256_2_scale2 <- layer_256_2_conv1
I0528 22:35:34.294498 58676 net.cpp:367] layer_256_2_scale2 -> layer_256_2_conv1 (in-place)
I0528 22:35:34.294548 58676 layer_factory.hpp:77] Creating layer layer_256_2_scale2
I0528 22:35:34.294699 58676 net.cpp:122] Setting up layer_256_2_scale2
I0528 22:35:34.294711 58676 net.cpp:129] Top shape: 25 256 14 14 (1254400)
I0528 22:35:34.294715 58676 net.cpp:137] Memory required for data: 4555980900
I0528 22:35:34.294721 58676 layer_factory.hpp:77] Creating layer layer_256_2_relu2
I0528 22:35:34.294728 58676 net.cpp:84] Creating Layer layer_256_2_relu2
I0528 22:35:34.294734 58676 net.cpp:406] layer_256_2_relu2 <- layer_256_2_conv1
I0528 22:35:34.294739 58676 net.cpp:367] layer_256_2_relu2 -> layer_256_2_conv1 (in-place)
I0528 22:35:34.294945 58676 net.cpp:122] Setting up layer_256_2_relu2
I0528 22:35:34.294960 58676 net.cpp:129] Top shape: 25 256 14 14 (1254400)
I0528 22:35:34.294970 58676 net.cpp:137] Memory required for data: 4560998500
I0528 22:35:34.294982 58676 layer_factory.hpp:77] Creating layer layer_256_2_conv2
I0528 22:35:34.295008 58676 net.cpp:84] Creating Layer layer_256_2_conv2
I0528 22:35:34.295014 58676 net.cpp:406] layer_256_2_conv2 <- layer_256_2_conv1
I0528 22:35:34.295022 58676 net.cpp:380] layer_256_2_conv2 -> layer_256_2_conv2
I0528 22:35:34.317320 58676 net.cpp:122] Setting up layer_256_2_conv2
I0528 22:35:34.317342 58676 net.cpp:129] Top shape: 25 256 14 14 (1254400)
I0528 22:35:34.317348 58676 net.cpp:137] Memory required for data: 4566016100
I0528 22:35:34.317354 58676 layer_factory.hpp:77] Creating layer layer_256_2_bn3
I0528 22:35:34.317363 58676 net.cpp:84] Creating Layer layer_256_2_bn3
I0528 22:35:34.317368 58676 net.cpp:406] layer_256_2_bn3 <- layer_256_2_conv2
I0528 22:35:34.317373 58676 net.cpp:367] layer_256_2_bn3 -> layer_256_2_conv2 (in-place)
I0528 22:35:34.317615 58676 net.cpp:122] Setting up layer_256_2_bn3
I0528 22:35:34.317628 58676 net.cpp:129] Top shape: 25 256 14 14 (1254400)
I0528 22:35:34.317632 58676 net.cpp:137] Memory required for data: 4571033700
I0528 22:35:34.317641 58676 layer_factory.hpp:77] Creating layer layer_256_2_scale3
I0528 22:35:34.317651 58676 net.cpp:84] Creating Layer layer_256_2_scale3
I0528 22:35:34.317654 58676 net.cpp:406] layer_256_2_scale3 <- layer_256_2_conv2
I0528 22:35:34.317662 58676 net.cpp:367] layer_256_2_scale3 -> layer_256_2_conv2 (in-place)
I0528 22:35:34.317718 58676 layer_factory.hpp:77] Creating layer layer_256_2_scale3
I0528 22:35:34.317849 58676 net.cpp:122] Setting up layer_256_2_scale3
I0528 22:35:34.317858 58676 net.cpp:129] Top shape: 25 256 14 14 (1254400)
I0528 22:35:34.317862 58676 net.cpp:137] Memory required for data: 4576051300
I0528 22:35:34.317869 58676 layer_factory.hpp:77] Creating layer layer_256_2_relu3
I0528 22:35:34.317875 58676 net.cpp:84] Creating Layer layer_256_2_relu3
I0528 22:35:34.317880 58676 net.cpp:406] layer_256_2_relu3 <- layer_256_2_conv2
I0528 22:35:34.317888 58676 net.cpp:367] layer_256_2_relu3 -> layer_256_2_conv2 (in-place)
I0528 22:35:34.318614 58676 net.cpp:122] Setting up layer_256_2_relu3
I0528 22:35:34.318634 58676 net.cpp:129] Top shape: 25 256 14 14 (1254400)
I0528 22:35:34.318637 58676 net.cpp:137] Memory required for data: 4581068900
I0528 22:35:34.318642 58676 layer_factory.hpp:77] Creating layer layer_256_2_conv3
I0528 22:35:34.318655 58676 net.cpp:84] Creating Layer layer_256_2_conv3
I0528 22:35:34.318661 58676 net.cpp:406] layer_256_2_conv3 <- layer_256_2_conv2
I0528 22:35:34.318670 58676 net.cpp:380] layer_256_2_conv3 -> layer_256_2_conv3
I0528 22:35:34.329725 58676 net.cpp:122] Setting up layer_256_2_conv3
I0528 22:35:34.329746 58676 net.cpp:129] Top shape: 25 1024 14 14 (5017600)
I0528 22:35:34.329751 58676 net.cpp:137] Memory required for data: 4601139300
I0528 22:35:34.329757 58676 layer_factory.hpp:77] Creating layer layer_256_2_sum
I0528 22:35:34.329767 58676 net.cpp:84] Creating Layer layer_256_2_sum
I0528 22:35:34.329772 58676 net.cpp:406] layer_256_2_sum <- layer_256_2_conv3
I0528 22:35:34.329778 58676 net.cpp:406] layer_256_2_sum <- layer_256_1_sum_layer_256_1_sum_0_split_1
I0528 22:35:34.329784 58676 net.cpp:380] layer_256_2_sum -> layer_256_2_sum
I0528 22:35:34.329823 58676 net.cpp:122] Setting up layer_256_2_sum
I0528 22:35:34.329831 58676 net.cpp:129] Top shape: 25 1024 14 14 (5017600)
I0528 22:35:34.329835 58676 net.cpp:137] Memory required for data: 4621209700
I0528 22:35:34.329839 58676 layer_factory.hpp:77] Creating layer layer_256_2_sum_layer_256_2_sum_0_split
I0528 22:35:34.329845 58676 net.cpp:84] Creating Layer layer_256_2_sum_layer_256_2_sum_0_split
I0528 22:35:34.329850 58676 net.cpp:406] layer_256_2_sum_layer_256_2_sum_0_split <- layer_256_2_sum
I0528 22:35:34.329857 58676 net.cpp:380] layer_256_2_sum_layer_256_2_sum_0_split -> layer_256_2_sum_layer_256_2_sum_0_split_0
I0528 22:35:34.329865 58676 net.cpp:380] layer_256_2_sum_layer_256_2_sum_0_split -> layer_256_2_sum_layer_256_2_sum_0_split_1
I0528 22:35:34.329910 58676 net.cpp:122] Setting up layer_256_2_sum_layer_256_2_sum_0_split
I0528 22:35:34.329931 58676 net.cpp:129] Top shape: 25 1024 14 14 (5017600)
I0528 22:35:34.329936 58676 net.cpp:129] Top shape: 25 1024 14 14 (5017600)
I0528 22:35:34.329939 58676 net.cpp:137] Memory required for data: 4661350500
I0528 22:35:34.329943 58676 layer_factory.hpp:77] Creating layer layer_256_3_bn1
I0528 22:35:34.329952 58676 net.cpp:84] Creating Layer layer_256_3_bn1
I0528 22:35:34.329957 58676 net.cpp:406] layer_256_3_bn1 <- layer_256_2_sum_layer_256_2_sum_0_split_0
I0528 22:35:34.329963 58676 net.cpp:380] layer_256_3_bn1 -> layer_256_3_bn1
I0528 22:35:34.330211 58676 net.cpp:122] Setting up layer_256_3_bn1
I0528 22:35:34.330221 58676 net.cpp:129] Top shape: 25 1024 14 14 (5017600)
I0528 22:35:34.330225 58676 net.cpp:137] Memory required for data: 4681420900
I0528 22:35:34.330234 58676 layer_factory.hpp:77] Creating layer layer_256_3_scale1
I0528 22:35:34.330240 58676 net.cpp:84] Creating Layer layer_256_3_scale1
I0528 22:35:34.330245 58676 net.cpp:406] layer_256_3_scale1 <- layer_256_3_bn1
I0528 22:35:34.330253 58676 net.cpp:367] layer_256_3_scale1 -> layer_256_3_bn1 (in-place)
I0528 22:35:34.330308 58676 layer_factory.hpp:77] Creating layer layer_256_3_scale1
I0528 22:35:34.330453 58676 net.cpp:122] Setting up layer_256_3_scale1
I0528 22:35:34.330462 58676 net.cpp:129] Top shape: 25 1024 14 14 (5017600)
I0528 22:35:34.330466 58676 net.cpp:137] Memory required for data: 4701491300
I0528 22:35:34.330472 58676 layer_factory.hpp:77] Creating layer layer_256_3_relu1
I0528 22:35:34.330479 58676 net.cpp:84] Creating Layer layer_256_3_relu1
I0528 22:35:34.330483 58676 net.cpp:406] layer_256_3_relu1 <- layer_256_3_bn1
I0528 22:35:34.330489 58676 net.cpp:367] layer_256_3_relu1 -> layer_256_3_bn1 (in-place)
I0528 22:35:34.330708 58676 net.cpp:122] Setting up layer_256_3_relu1
I0528 22:35:34.330726 58676 net.cpp:129] Top shape: 25 1024 14 14 (5017600)
I0528 22:35:34.330731 58676 net.cpp:137] Memory required for data: 4721561700
I0528 22:35:34.330735 58676 layer_factory.hpp:77] Creating layer layer_256_3_conv1
I0528 22:35:34.330749 58676 net.cpp:84] Creating Layer layer_256_3_conv1
I0528 22:35:34.330754 58676 net.cpp:406] layer_256_3_conv1 <- layer_256_3_bn1
I0528 22:35:34.330761 58676 net.cpp:380] layer_256_3_conv1 -> layer_256_3_conv1
I0528 22:35:34.341810 58676 net.cpp:122] Setting up layer_256_3_conv1
I0528 22:35:34.341832 58676 net.cpp:129] Top shape: 25 256 14 14 (1254400)
I0528 22:35:34.341836 58676 net.cpp:137] Memory required for data: 4726579300
I0528 22:35:34.341843 58676 layer_factory.hpp:77] Creating layer layer_256_3_bn2
I0528 22:35:34.341851 58676 net.cpp:84] Creating Layer layer_256_3_bn2
I0528 22:35:34.341856 58676 net.cpp:406] layer_256_3_bn2 <- layer_256_3_conv1
I0528 22:35:34.341869 58676 net.cpp:367] layer_256_3_bn2 -> layer_256_3_conv1 (in-place)
I0528 22:35:34.342119 58676 net.cpp:122] Setting up layer_256_3_bn2
I0528 22:35:34.342129 58676 net.cpp:129] Top shape: 25 256 14 14 (1254400)
I0528 22:35:34.342133 58676 net.cpp:137] Memory required for data: 4731596900
I0528 22:35:34.342141 58676 layer_factory.hpp:77] Creating layer layer_256_3_scale2
I0528 22:35:34.342149 58676 net.cpp:84] Creating Layer layer_256_3_scale2
I0528 22:35:34.342154 58676 net.cpp:406] layer_256_3_scale2 <- layer_256_3_conv1
I0528 22:35:34.342159 58676 net.cpp:367] layer_256_3_scale2 -> layer_256_3_conv1 (in-place)
I0528 22:35:34.342212 58676 layer_factory.hpp:77] Creating layer layer_256_3_scale2
I0528 22:35:34.342350 58676 net.cpp:122] Setting up layer_256_3_scale2
I0528 22:35:34.342358 58676 net.cpp:129] Top shape: 25 256 14 14 (1254400)
I0528 22:35:34.342361 58676 net.cpp:137] Memory required for data: 4736614500
I0528 22:35:34.342368 58676 layer_factory.hpp:77] Creating layer layer_256_3_relu2
I0528 22:35:34.342375 58676 net.cpp:84] Creating Layer layer_256_3_relu2
I0528 22:35:34.342380 58676 net.cpp:406] layer_256_3_relu2 <- layer_256_3_conv1
I0528 22:35:34.342386 58676 net.cpp:367] layer_256_3_relu2 -> layer_256_3_conv1 (in-place)
I0528 22:35:34.343134 58676 net.cpp:122] Setting up layer_256_3_relu2
I0528 22:35:34.343160 58676 net.cpp:129] Top shape: 25 256 14 14 (1254400)
I0528 22:35:34.343165 58676 net.cpp:137] Memory required for data: 4741632100
I0528 22:35:34.343170 58676 layer_factory.hpp:77] Creating layer layer_256_3_conv2
I0528 22:35:34.343183 58676 net.cpp:84] Creating Layer layer_256_3_conv2
I0528 22:35:34.343189 58676 net.cpp:406] layer_256_3_conv2 <- layer_256_3_conv1
I0528 22:35:34.343199 58676 net.cpp:380] layer_256_3_conv2 -> layer_256_3_conv2
I0528 22:35:34.365448 58676 net.cpp:122] Setting up layer_256_3_conv2
I0528 22:35:34.365469 58676 net.cpp:129] Top shape: 25 256 14 14 (1254400)
I0528 22:35:34.365474 58676 net.cpp:137] Memory required for data: 4746649700
I0528 22:35:34.365480 58676 layer_factory.hpp:77] Creating layer layer_256_3_bn3
I0528 22:35:34.365491 58676 net.cpp:84] Creating Layer layer_256_3_bn3
I0528 22:35:34.365496 58676 net.cpp:406] layer_256_3_bn3 <- layer_256_3_conv2
I0528 22:35:34.365504 58676 net.cpp:367] layer_256_3_bn3 -> layer_256_3_conv2 (in-place)
I0528 22:35:34.365754 58676 net.cpp:122] Setting up layer_256_3_bn3
I0528 22:35:34.365767 58676 net.cpp:129] Top shape: 25 256 14 14 (1254400)
I0528 22:35:34.365772 58676 net.cpp:137] Memory required for data: 4751667300
I0528 22:35:34.365780 58676 layer_factory.hpp:77] Creating layer layer_256_3_scale3
I0528 22:35:34.365787 58676 net.cpp:84] Creating Layer layer_256_3_scale3
I0528 22:35:34.365792 58676 net.cpp:406] layer_256_3_scale3 <- layer_256_3_conv2
I0528 22:35:34.365798 58676 net.cpp:367] layer_256_3_scale3 -> layer_256_3_conv2 (in-place)
I0528 22:35:34.365854 58676 layer_factory.hpp:77] Creating layer layer_256_3_scale3
I0528 22:35:34.365993 58676 net.cpp:122] Setting up layer_256_3_scale3
I0528 22:35:34.366001 58676 net.cpp:129] Top shape: 25 256 14 14 (1254400)
I0528 22:35:34.366004 58676 net.cpp:137] Memory required for data: 4756684900
I0528 22:35:34.366011 58676 layer_factory.hpp:77] Creating layer layer_256_3_relu3
I0528 22:35:34.366019 58676 net.cpp:84] Creating Layer layer_256_3_relu3
I0528 22:35:34.366024 58676 net.cpp:406] layer_256_3_relu3 <- layer_256_3_conv2
I0528 22:35:34.366030 58676 net.cpp:367] layer_256_3_relu3 -> layer_256_3_conv2 (in-place)
I0528 22:35:34.366752 58676 net.cpp:122] Setting up layer_256_3_relu3
I0528 22:35:34.366771 58676 net.cpp:129] Top shape: 25 256 14 14 (1254400)
I0528 22:35:34.366776 58676 net.cpp:137] Memory required for data: 4761702500
I0528 22:35:34.366780 58676 layer_factory.hpp:77] Creating layer layer_256_3_conv3
I0528 22:35:34.366793 58676 net.cpp:84] Creating Layer layer_256_3_conv3
I0528 22:35:34.366799 58676 net.cpp:406] layer_256_3_conv3 <- layer_256_3_conv2
I0528 22:35:34.366811 58676 net.cpp:380] layer_256_3_conv3 -> layer_256_3_conv3
I0528 22:35:34.377871 58676 net.cpp:122] Setting up layer_256_3_conv3
I0528 22:35:34.377892 58676 net.cpp:129] Top shape: 25 1024 14 14 (5017600)
I0528 22:35:34.377897 58676 net.cpp:137] Memory required for data: 4781772900
I0528 22:35:34.377903 58676 layer_factory.hpp:77] Creating layer layer_256_3_sum
I0528 22:35:34.377912 58676 net.cpp:84] Creating Layer layer_256_3_sum
I0528 22:35:34.377918 58676 net.cpp:406] layer_256_3_sum <- layer_256_3_conv3
I0528 22:35:34.377924 58676 net.cpp:406] layer_256_3_sum <- layer_256_2_sum_layer_256_2_sum_0_split_1
I0528 22:35:34.377930 58676 net.cpp:380] layer_256_3_sum -> layer_256_3_sum
I0528 22:35:34.377971 58676 net.cpp:122] Setting up layer_256_3_sum
I0528 22:35:34.377979 58676 net.cpp:129] Top shape: 25 1024 14 14 (5017600)
I0528 22:35:34.377984 58676 net.cpp:137] Memory required for data: 4801843300
I0528 22:35:34.377987 58676 layer_factory.hpp:77] Creating layer layer_256_3_sum_layer_256_3_sum_0_split
I0528 22:35:34.377993 58676 net.cpp:84] Creating Layer layer_256_3_sum_layer_256_3_sum_0_split
I0528 22:35:34.377998 58676 net.cpp:406] layer_256_3_sum_layer_256_3_sum_0_split <- layer_256_3_sum
I0528 22:35:34.378005 58676 net.cpp:380] layer_256_3_sum_layer_256_3_sum_0_split -> layer_256_3_sum_layer_256_3_sum_0_split_0
I0528 22:35:34.378013 58676 net.cpp:380] layer_256_3_sum_layer_256_3_sum_0_split -> layer_256_3_sum_layer_256_3_sum_0_split_1
I0528 22:35:34.378077 58676 net.cpp:122] Setting up layer_256_3_sum_layer_256_3_sum_0_split
I0528 22:35:34.378084 58676 net.cpp:129] Top shape: 25 1024 14 14 (5017600)
I0528 22:35:34.378089 58676 net.cpp:129] Top shape: 25 1024 14 14 (5017600)
I0528 22:35:34.378093 58676 net.cpp:137] Memory required for data: 4841984100
I0528 22:35:34.378096 58676 layer_factory.hpp:77] Creating layer layer_256_4_bn1
I0528 22:35:34.378106 58676 net.cpp:84] Creating Layer layer_256_4_bn1
I0528 22:35:34.378110 58676 net.cpp:406] layer_256_4_bn1 <- layer_256_3_sum_layer_256_3_sum_0_split_0
I0528 22:35:34.378120 58676 net.cpp:380] layer_256_4_bn1 -> layer_256_4_bn1
I0528 22:35:34.378368 58676 net.cpp:122] Setting up layer_256_4_bn1
I0528 22:35:34.378377 58676 net.cpp:129] Top shape: 25 1024 14 14 (5017600)
I0528 22:35:34.378381 58676 net.cpp:137] Memory required for data: 4862054500
I0528 22:35:34.378389 58676 layer_factory.hpp:77] Creating layer layer_256_4_scale1
I0528 22:35:34.378397 58676 net.cpp:84] Creating Layer layer_256_4_scale1
I0528 22:35:34.378402 58676 net.cpp:406] layer_256_4_scale1 <- layer_256_4_bn1
I0528 22:35:34.378408 58676 net.cpp:367] layer_256_4_scale1 -> layer_256_4_bn1 (in-place)
I0528 22:35:34.378464 58676 layer_factory.hpp:77] Creating layer layer_256_4_scale1
I0528 22:35:34.378621 58676 net.cpp:122] Setting up layer_256_4_scale1
I0528 22:35:34.378634 58676 net.cpp:129] Top shape: 25 1024 14 14 (5017600)
I0528 22:35:34.378638 58676 net.cpp:137] Memory required for data: 4882124900
I0528 22:35:34.378645 58676 layer_factory.hpp:77] Creating layer layer_256_4_relu1
I0528 22:35:34.378654 58676 net.cpp:84] Creating Layer layer_256_4_relu1
I0528 22:35:34.378660 58676 net.cpp:406] layer_256_4_relu1 <- layer_256_4_bn1
I0528 22:35:34.378665 58676 net.cpp:367] layer_256_4_relu1 -> layer_256_4_bn1 (in-place)
I0528 22:35:34.378877 58676 net.cpp:122] Setting up layer_256_4_relu1
I0528 22:35:34.378891 58676 net.cpp:129] Top shape: 25 1024 14 14 (5017600)
I0528 22:35:34.378895 58676 net.cpp:137] Memory required for data: 4902195300
I0528 22:35:34.378900 58676 layer_factory.hpp:77] Creating layer layer_256_4_conv1
I0528 22:35:34.378911 58676 net.cpp:84] Creating Layer layer_256_4_conv1
I0528 22:35:34.378917 58676 net.cpp:406] layer_256_4_conv1 <- layer_256_4_bn1
I0528 22:35:34.378923 58676 net.cpp:380] layer_256_4_conv1 -> layer_256_4_conv1
I0528 22:35:34.389991 58676 net.cpp:122] Setting up layer_256_4_conv1
I0528 22:35:34.390012 58676 net.cpp:129] Top shape: 25 256 14 14 (1254400)
I0528 22:35:34.390017 58676 net.cpp:137] Memory required for data: 4907212900
I0528 22:35:34.390023 58676 layer_factory.hpp:77] Creating layer layer_256_4_bn2
I0528 22:35:34.390034 58676 net.cpp:84] Creating Layer layer_256_4_bn2
I0528 22:35:34.390040 58676 net.cpp:406] layer_256_4_bn2 <- layer_256_4_conv1
I0528 22:35:34.390046 58676 net.cpp:367] layer_256_4_bn2 -> layer_256_4_conv1 (in-place)
I0528 22:35:34.390292 58676 net.cpp:122] Setting up layer_256_4_bn2
I0528 22:35:34.390302 58676 net.cpp:129] Top shape: 25 256 14 14 (1254400)
I0528 22:35:34.390305 58676 net.cpp:137] Memory required for data: 4912230500
I0528 22:35:34.390314 58676 layer_factory.hpp:77] Creating layer layer_256_4_scale2
I0528 22:35:34.390323 58676 net.cpp:84] Creating Layer layer_256_4_scale2
I0528 22:35:34.390328 58676 net.cpp:406] layer_256_4_scale2 <- layer_256_4_conv1
I0528 22:35:34.390334 58676 net.cpp:367] layer_256_4_scale2 -> layer_256_4_conv1 (in-place)
I0528 22:35:34.390388 58676 layer_factory.hpp:77] Creating layer layer_256_4_scale2
I0528 22:35:34.390527 58676 net.cpp:122] Setting up layer_256_4_scale2
I0528 22:35:34.390537 58676 net.cpp:129] Top shape: 25 256 14 14 (1254400)
I0528 22:35:34.390540 58676 net.cpp:137] Memory required for data: 4917248100
I0528 22:35:34.390547 58676 layer_factory.hpp:77] Creating layer layer_256_4_relu2
I0528 22:35:34.390561 58676 net.cpp:84] Creating Layer layer_256_4_relu2
I0528 22:35:34.390569 58676 net.cpp:406] layer_256_4_relu2 <- layer_256_4_conv1
I0528 22:35:34.390583 58676 net.cpp:367] layer_256_4_relu2 -> layer_256_4_conv1 (in-place)
I0528 22:35:34.390801 58676 net.cpp:122] Setting up layer_256_4_relu2
I0528 22:35:34.390815 58676 net.cpp:129] Top shape: 25 256 14 14 (1254400)
I0528 22:35:34.390818 58676 net.cpp:137] Memory required for data: 4922265700
I0528 22:35:34.390822 58676 layer_factory.hpp:77] Creating layer layer_256_4_conv2
I0528 22:35:34.390836 58676 net.cpp:84] Creating Layer layer_256_4_conv2
I0528 22:35:34.390841 58676 net.cpp:406] layer_256_4_conv2 <- layer_256_4_conv1
I0528 22:35:34.390849 58676 net.cpp:380] layer_256_4_conv2 -> layer_256_4_conv2
I0528 22:35:34.413069 58676 net.cpp:122] Setting up layer_256_4_conv2
I0528 22:35:34.413089 58676 net.cpp:129] Top shape: 25 256 14 14 (1254400)
I0528 22:35:34.413094 58676 net.cpp:137] Memory required for data: 4927283300
I0528 22:35:34.413101 58676 layer_factory.hpp:77] Creating layer layer_256_4_bn3
I0528 22:35:34.413111 58676 net.cpp:84] Creating Layer layer_256_4_bn3
I0528 22:35:34.413116 58676 net.cpp:406] layer_256_4_bn3 <- layer_256_4_conv2
I0528 22:35:34.413123 58676 net.cpp:367] layer_256_4_bn3 -> layer_256_4_conv2 (in-place)
I0528 22:35:34.413367 58676 net.cpp:122] Setting up layer_256_4_bn3
I0528 22:35:34.413377 58676 net.cpp:129] Top shape: 25 256 14 14 (1254400)
I0528 22:35:34.413380 58676 net.cpp:137] Memory required for data: 4932300900
I0528 22:35:34.413388 58676 layer_factory.hpp:77] Creating layer layer_256_4_scale3
I0528 22:35:34.413395 58676 net.cpp:84] Creating Layer layer_256_4_scale3
I0528 22:35:34.413399 58676 net.cpp:406] layer_256_4_scale3 <- layer_256_4_conv2
I0528 22:35:34.413405 58676 net.cpp:367] layer_256_4_scale3 -> layer_256_4_conv2 (in-place)
I0528 22:35:34.413460 58676 layer_factory.hpp:77] Creating layer layer_256_4_scale3
I0528 22:35:34.413610 58676 net.cpp:122] Setting up layer_256_4_scale3
I0528 22:35:34.413624 58676 net.cpp:129] Top shape: 25 256 14 14 (1254400)
I0528 22:35:34.413627 58676 net.cpp:137] Memory required for data: 4937318500
I0528 22:35:34.413635 58676 layer_factory.hpp:77] Creating layer layer_256_4_relu3
I0528 22:35:34.413643 58676 net.cpp:84] Creating Layer layer_256_4_relu3
I0528 22:35:34.413648 58676 net.cpp:406] layer_256_4_relu3 <- layer_256_4_conv2
I0528 22:35:34.413653 58676 net.cpp:367] layer_256_4_relu3 -> layer_256_4_conv2 (in-place)
I0528 22:35:34.414371 58676 net.cpp:122] Setting up layer_256_4_relu3
I0528 22:35:34.414387 58676 net.cpp:129] Top shape: 25 256 14 14 (1254400)
I0528 22:35:34.414392 58676 net.cpp:137] Memory required for data: 4942336100
I0528 22:35:34.414397 58676 layer_factory.hpp:77] Creating layer layer_256_4_conv3
I0528 22:35:34.414414 58676 net.cpp:84] Creating Layer layer_256_4_conv3
I0528 22:35:34.414420 58676 net.cpp:406] layer_256_4_conv3 <- layer_256_4_conv2
I0528 22:35:34.414430 58676 net.cpp:380] layer_256_4_conv3 -> layer_256_4_conv3
I0528 22:35:34.425482 58676 net.cpp:122] Setting up layer_256_4_conv3
I0528 22:35:34.425503 58676 net.cpp:129] Top shape: 25 1024 14 14 (5017600)
I0528 22:35:34.425508 58676 net.cpp:137] Memory required for data: 4962406500
I0528 22:35:34.425514 58676 layer_factory.hpp:77] Creating layer layer_256_4_sum
I0528 22:35:34.425524 58676 net.cpp:84] Creating Layer layer_256_4_sum
I0528 22:35:34.425529 58676 net.cpp:406] layer_256_4_sum <- layer_256_4_conv3
I0528 22:35:34.425535 58676 net.cpp:406] layer_256_4_sum <- layer_256_3_sum_layer_256_3_sum_0_split_1
I0528 22:35:34.425541 58676 net.cpp:380] layer_256_4_sum -> layer_256_4_sum
I0528 22:35:34.425590 58676 net.cpp:122] Setting up layer_256_4_sum
I0528 22:35:34.425602 58676 net.cpp:129] Top shape: 25 1024 14 14 (5017600)
I0528 22:35:34.425606 58676 net.cpp:137] Memory required for data: 4982476900
I0528 22:35:34.425611 58676 layer_factory.hpp:77] Creating layer layer_256_4_sum_layer_256_4_sum_0_split
I0528 22:35:34.425617 58676 net.cpp:84] Creating Layer layer_256_4_sum_layer_256_4_sum_0_split
I0528 22:35:34.425621 58676 net.cpp:406] layer_256_4_sum_layer_256_4_sum_0_split <- layer_256_4_sum
I0528 22:35:34.425627 58676 net.cpp:380] layer_256_4_sum_layer_256_4_sum_0_split -> layer_256_4_sum_layer_256_4_sum_0_split_0
I0528 22:35:34.425649 58676 net.cpp:380] layer_256_4_sum_layer_256_4_sum_0_split -> layer_256_4_sum_layer_256_4_sum_0_split_1
I0528 22:35:34.425700 58676 net.cpp:122] Setting up layer_256_4_sum_layer_256_4_sum_0_split
I0528 22:35:34.425709 58676 net.cpp:129] Top shape: 25 1024 14 14 (5017600)
I0528 22:35:34.425714 58676 net.cpp:129] Top shape: 25 1024 14 14 (5017600)
I0528 22:35:34.425716 58676 net.cpp:137] Memory required for data: 5022617700
I0528 22:35:34.425720 58676 layer_factory.hpp:77] Creating layer layer_256_5_bn1
I0528 22:35:34.425729 58676 net.cpp:84] Creating Layer layer_256_5_bn1
I0528 22:35:34.425734 58676 net.cpp:406] layer_256_5_bn1 <- layer_256_4_sum_layer_256_4_sum_0_split_0
I0528 22:35:34.425743 58676 net.cpp:380] layer_256_5_bn1 -> layer_256_5_bn1
I0528 22:35:34.425997 58676 net.cpp:122] Setting up layer_256_5_bn1
I0528 22:35:34.426005 58676 net.cpp:129] Top shape: 25 1024 14 14 (5017600)
I0528 22:35:34.426009 58676 net.cpp:137] Memory required for data: 5042688100
I0528 22:35:34.426017 58676 layer_factory.hpp:77] Creating layer layer_256_5_scale1
I0528 22:35:34.426025 58676 net.cpp:84] Creating Layer layer_256_5_scale1
I0528 22:35:34.426029 58676 net.cpp:406] layer_256_5_scale1 <- layer_256_5_bn1
I0528 22:35:34.426035 58676 net.cpp:367] layer_256_5_scale1 -> layer_256_5_bn1 (in-place)
I0528 22:35:34.426089 58676 layer_factory.hpp:77] Creating layer layer_256_5_scale1
I0528 22:35:34.426241 58676 net.cpp:122] Setting up layer_256_5_scale1
I0528 22:35:34.426251 58676 net.cpp:129] Top shape: 25 1024 14 14 (5017600)
I0528 22:35:34.426254 58676 net.cpp:137] Memory required for data: 5062758500
I0528 22:35:34.426261 58676 layer_factory.hpp:77] Creating layer layer_256_5_relu1
I0528 22:35:34.426270 58676 net.cpp:84] Creating Layer layer_256_5_relu1
I0528 22:35:34.426275 58676 net.cpp:406] layer_256_5_relu1 <- layer_256_5_bn1
I0528 22:35:34.426280 58676 net.cpp:367] layer_256_5_relu1 -> layer_256_5_bn1 (in-place)
I0528 22:35:34.426488 58676 net.cpp:122] Setting up layer_256_5_relu1
I0528 22:35:34.426502 58676 net.cpp:129] Top shape: 25 1024 14 14 (5017600)
I0528 22:35:34.426506 58676 net.cpp:137] Memory required for data: 5082828900
I0528 22:35:34.426511 58676 layer_factory.hpp:77] Creating layer layer_256_5_conv1
I0528 22:35:34.426522 58676 net.cpp:84] Creating Layer layer_256_5_conv1
I0528 22:35:34.426527 58676 net.cpp:406] layer_256_5_conv1 <- layer_256_5_bn1
I0528 22:35:34.426534 58676 net.cpp:380] layer_256_5_conv1 -> layer_256_5_conv1
I0528 22:35:34.437608 58676 net.cpp:122] Setting up layer_256_5_conv1
I0528 22:35:34.437633 58676 net.cpp:129] Top shape: 25 256 14 14 (1254400)
I0528 22:35:34.437638 58676 net.cpp:137] Memory required for data: 5087846500
I0528 22:35:34.437644 58676 layer_factory.hpp:77] Creating layer layer_256_5_bn2
I0528 22:35:34.437651 58676 net.cpp:84] Creating Layer layer_256_5_bn2
I0528 22:35:34.437657 58676 net.cpp:406] layer_256_5_bn2 <- layer_256_5_conv1
I0528 22:35:34.437665 58676 net.cpp:367] layer_256_5_bn2 -> layer_256_5_conv1 (in-place)
I0528 22:35:34.437911 58676 net.cpp:122] Setting up layer_256_5_bn2
I0528 22:35:34.437921 58676 net.cpp:129] Top shape: 25 256 14 14 (1254400)
I0528 22:35:34.437924 58676 net.cpp:137] Memory required for data: 5092864100
I0528 22:35:34.437932 58676 layer_factory.hpp:77] Creating layer layer_256_5_scale2
I0528 22:35:34.437942 58676 net.cpp:84] Creating Layer layer_256_5_scale2
I0528 22:35:34.437947 58676 net.cpp:406] layer_256_5_scale2 <- layer_256_5_conv1
I0528 22:35:34.437952 58676 net.cpp:367] layer_256_5_scale2 -> layer_256_5_conv1 (in-place)
I0528 22:35:34.438006 58676 layer_factory.hpp:77] Creating layer layer_256_5_scale2
I0528 22:35:34.438153 58676 net.cpp:122] Setting up layer_256_5_scale2
I0528 22:35:34.438163 58676 net.cpp:129] Top shape: 25 256 14 14 (1254400)
I0528 22:35:34.438165 58676 net.cpp:137] Memory required for data: 5097881700
I0528 22:35:34.438172 58676 layer_factory.hpp:77] Creating layer layer_256_5_relu2
I0528 22:35:34.438179 58676 net.cpp:84] Creating Layer layer_256_5_relu2
I0528 22:35:34.438196 58676 net.cpp:406] layer_256_5_relu2 <- layer_256_5_conv1
I0528 22:35:34.438204 58676 net.cpp:367] layer_256_5_relu2 -> layer_256_5_conv1 (in-place)
I0528 22:35:34.438415 58676 net.cpp:122] Setting up layer_256_5_relu2
I0528 22:35:34.438427 58676 net.cpp:129] Top shape: 25 256 14 14 (1254400)
I0528 22:35:34.438431 58676 net.cpp:137] Memory required for data: 5102899300
I0528 22:35:34.438436 58676 layer_factory.hpp:77] Creating layer layer_256_5_conv2
I0528 22:35:34.438447 58676 net.cpp:84] Creating Layer layer_256_5_conv2
I0528 22:35:34.438452 58676 net.cpp:406] layer_256_5_conv2 <- layer_256_5_conv1
I0528 22:35:34.438462 58676 net.cpp:380] layer_256_5_conv2 -> layer_256_5_conv2
I0528 22:35:34.460741 58676 net.cpp:122] Setting up layer_256_5_conv2
I0528 22:35:34.460762 58676 net.cpp:129] Top shape: 25 256 14 14 (1254400)
I0528 22:35:34.460767 58676 net.cpp:137] Memory required for data: 5107916900
I0528 22:35:34.460772 58676 layer_factory.hpp:77] Creating layer layer_256_5_bn3
I0528 22:35:34.460783 58676 net.cpp:84] Creating Layer layer_256_5_bn3
I0528 22:35:34.460788 58676 net.cpp:406] layer_256_5_bn3 <- layer_256_5_conv2
I0528 22:35:34.460794 58676 net.cpp:367] layer_256_5_bn3 -> layer_256_5_conv2 (in-place)
I0528 22:35:34.461046 58676 net.cpp:122] Setting up layer_256_5_bn3
I0528 22:35:34.461055 58676 net.cpp:129] Top shape: 25 256 14 14 (1254400)
I0528 22:35:34.461058 58676 net.cpp:137] Memory required for data: 5112934500
I0528 22:35:34.461067 58676 layer_factory.hpp:77] Creating layer layer_256_5_scale3
I0528 22:35:34.461074 58676 net.cpp:84] Creating Layer layer_256_5_scale3
I0528 22:35:34.461079 58676 net.cpp:406] layer_256_5_scale3 <- layer_256_5_conv2
I0528 22:35:34.461084 58676 net.cpp:367] layer_256_5_scale3 -> layer_256_5_conv2 (in-place)
I0528 22:35:34.461141 58676 layer_factory.hpp:77] Creating layer layer_256_5_scale3
I0528 22:35:34.461285 58676 net.cpp:122] Setting up layer_256_5_scale3
I0528 22:35:34.461294 58676 net.cpp:129] Top shape: 25 256 14 14 (1254400)
I0528 22:35:34.461298 58676 net.cpp:137] Memory required for data: 5117952100
I0528 22:35:34.461304 58676 layer_factory.hpp:77] Creating layer layer_256_5_relu3
I0528 22:35:34.461313 58676 net.cpp:84] Creating Layer layer_256_5_relu3
I0528 22:35:34.461318 58676 net.cpp:406] layer_256_5_relu3 <- layer_256_5_conv2
I0528 22:35:34.461323 58676 net.cpp:367] layer_256_5_relu3 -> layer_256_5_conv2 (in-place)
I0528 22:35:34.462054 58676 net.cpp:122] Setting up layer_256_5_relu3
I0528 22:35:34.462074 58676 net.cpp:129] Top shape: 25 256 14 14 (1254400)
I0528 22:35:34.462079 58676 net.cpp:137] Memory required for data: 5122969700
I0528 22:35:34.462082 58676 layer_factory.hpp:77] Creating layer layer_256_5_conv3
I0528 22:35:34.462095 58676 net.cpp:84] Creating Layer layer_256_5_conv3
I0528 22:35:34.462100 58676 net.cpp:406] layer_256_5_conv3 <- layer_256_5_conv2
I0528 22:35:34.462111 58676 net.cpp:380] layer_256_5_conv3 -> layer_256_5_conv3
I0528 22:35:34.473703 58676 net.cpp:122] Setting up layer_256_5_conv3
I0528 22:35:34.473724 58676 net.cpp:129] Top shape: 25 1024 14 14 (5017600)
I0528 22:35:34.473729 58676 net.cpp:137] Memory required for data: 5143040100
I0528 22:35:34.473736 58676 layer_factory.hpp:77] Creating layer layer_256_5_sum
I0528 22:35:34.473745 58676 net.cpp:84] Creating Layer layer_256_5_sum
I0528 22:35:34.473750 58676 net.cpp:406] layer_256_5_sum <- layer_256_5_conv3
I0528 22:35:34.473757 58676 net.cpp:406] layer_256_5_sum <- layer_256_4_sum_layer_256_4_sum_0_split_1
I0528 22:35:34.473762 58676 net.cpp:380] layer_256_5_sum -> layer_256_5_sum
I0528 22:35:34.473803 58676 net.cpp:122] Setting up layer_256_5_sum
I0528 22:35:34.473812 58676 net.cpp:129] Top shape: 25 1024 14 14 (5017600)
I0528 22:35:34.473816 58676 net.cpp:137] Memory required for data: 5163110500
I0528 22:35:34.473819 58676 layer_factory.hpp:77] Creating layer layer_256_5_sum_layer_256_5_sum_0_split
I0528 22:35:34.473826 58676 net.cpp:84] Creating Layer layer_256_5_sum_layer_256_5_sum_0_split
I0528 22:35:34.473836 58676 net.cpp:406] layer_256_5_sum_layer_256_5_sum_0_split <- layer_256_5_sum
I0528 22:35:34.473852 58676 net.cpp:380] layer_256_5_sum_layer_256_5_sum_0_split -> layer_256_5_sum_layer_256_5_sum_0_split_0
I0528 22:35:34.473860 58676 net.cpp:380] layer_256_5_sum_layer_256_5_sum_0_split -> layer_256_5_sum_layer_256_5_sum_0_split_1
I0528 22:35:34.473912 58676 net.cpp:122] Setting up layer_256_5_sum_layer_256_5_sum_0_split
I0528 22:35:34.473922 58676 net.cpp:129] Top shape: 25 1024 14 14 (5017600)
I0528 22:35:34.473925 58676 net.cpp:129] Top shape: 25 1024 14 14 (5017600)
I0528 22:35:34.473929 58676 net.cpp:137] Memory required for data: 5203251300
I0528 22:35:34.473932 58676 layer_factory.hpp:77] Creating layer layer_256_6_bn1
I0528 22:35:34.473939 58676 net.cpp:84] Creating Layer layer_256_6_bn1
I0528 22:35:34.473944 58676 net.cpp:406] layer_256_6_bn1 <- layer_256_5_sum_layer_256_5_sum_0_split_0
I0528 22:35:34.473953 58676 net.cpp:380] layer_256_6_bn1 -> layer_256_6_bn1
I0528 22:35:34.474215 58676 net.cpp:122] Setting up layer_256_6_bn1
I0528 22:35:34.474225 58676 net.cpp:129] Top shape: 25 1024 14 14 (5017600)
I0528 22:35:34.474228 58676 net.cpp:137] Memory required for data: 5223321700
I0528 22:35:34.474236 58676 layer_factory.hpp:77] Creating layer layer_256_6_scale1
I0528 22:35:34.474243 58676 net.cpp:84] Creating Layer layer_256_6_scale1
I0528 22:35:34.474248 58676 net.cpp:406] layer_256_6_scale1 <- layer_256_6_bn1
I0528 22:35:34.474256 58676 net.cpp:367] layer_256_6_scale1 -> layer_256_6_bn1 (in-place)
I0528 22:35:34.474308 58676 layer_factory.hpp:77] Creating layer layer_256_6_scale1
I0528 22:35:34.474459 58676 net.cpp:122] Setting up layer_256_6_scale1
I0528 22:35:34.474468 58676 net.cpp:129] Top shape: 25 1024 14 14 (5017600)
I0528 22:35:34.474472 58676 net.cpp:137] Memory required for data: 5243392100
I0528 22:35:34.474478 58676 layer_factory.hpp:77] Creating layer layer_256_6_relu1
I0528 22:35:34.474485 58676 net.cpp:84] Creating Layer layer_256_6_relu1
I0528 22:35:34.474490 58676 net.cpp:406] layer_256_6_relu1 <- layer_256_6_bn1
I0528 22:35:34.474495 58676 net.cpp:367] layer_256_6_relu1 -> layer_256_6_bn1 (in-place)
I0528 22:35:34.474721 58676 net.cpp:122] Setting up layer_256_6_relu1
I0528 22:35:34.474737 58676 net.cpp:129] Top shape: 25 1024 14 14 (5017600)
I0528 22:35:34.474742 58676 net.cpp:137] Memory required for data: 5263462500
I0528 22:35:34.474746 58676 layer_factory.hpp:77] Creating layer layer_256_6_conv1
I0528 22:35:34.474758 58676 net.cpp:84] Creating Layer layer_256_6_conv1
I0528 22:35:34.474764 58676 net.cpp:406] layer_256_6_conv1 <- layer_256_6_bn1
I0528 22:35:34.474771 58676 net.cpp:380] layer_256_6_conv1 -> layer_256_6_conv1
I0528 22:35:34.485857 58676 net.cpp:122] Setting up layer_256_6_conv1
I0528 22:35:34.485879 58676 net.cpp:129] Top shape: 25 256 14 14 (1254400)
I0528 22:35:34.485884 58676 net.cpp:137] Memory required for data: 5268480100
I0528 22:35:34.485890 58676 layer_factory.hpp:77] Creating layer layer_256_6_bn2
I0528 22:35:34.485899 58676 net.cpp:84] Creating Layer layer_256_6_bn2
I0528 22:35:34.485904 58676 net.cpp:406] layer_256_6_bn2 <- layer_256_6_conv1
I0528 22:35:34.485913 58676 net.cpp:367] layer_256_6_bn2 -> layer_256_6_conv1 (in-place)
I0528 22:35:34.486172 58676 net.cpp:122] Setting up layer_256_6_bn2
I0528 22:35:34.486181 58676 net.cpp:129] Top shape: 25 256 14 14 (1254400)
I0528 22:35:34.486186 58676 net.cpp:137] Memory required for data: 5273497700
I0528 22:35:34.486193 58676 layer_factory.hpp:77] Creating layer layer_256_6_scale2
I0528 22:35:34.486201 58676 net.cpp:84] Creating Layer layer_256_6_scale2
I0528 22:35:34.486205 58676 net.cpp:406] layer_256_6_scale2 <- layer_256_6_conv1
I0528 22:35:34.486210 58676 net.cpp:367] layer_256_6_scale2 -> layer_256_6_conv1 (in-place)
I0528 22:35:34.486268 58676 layer_factory.hpp:77] Creating layer layer_256_6_scale2
I0528 22:35:34.486418 58676 net.cpp:122] Setting up layer_256_6_scale2
I0528 22:35:34.486428 58676 net.cpp:129] Top shape: 25 256 14 14 (1254400)
I0528 22:35:34.486431 58676 net.cpp:137] Memory required for data: 5278515300
I0528 22:35:34.486443 58676 layer_factory.hpp:77] Creating layer layer_256_6_relu2
I0528 22:35:34.486459 58676 net.cpp:84] Creating Layer layer_256_6_relu2
I0528 22:35:34.486464 58676 net.cpp:406] layer_256_6_relu2 <- layer_256_6_conv1
I0528 22:35:34.486471 58676 net.cpp:367] layer_256_6_relu2 -> layer_256_6_conv1 (in-place)
I0528 22:35:34.486696 58676 net.cpp:122] Setting up layer_256_6_relu2
I0528 22:35:34.486712 58676 net.cpp:129] Top shape: 25 256 14 14 (1254400)
I0528 22:35:34.486716 58676 net.cpp:137] Memory required for data: 5283532900
I0528 22:35:34.486721 58676 layer_factory.hpp:77] Creating layer layer_256_6_conv2
I0528 22:35:34.486733 58676 net.cpp:84] Creating Layer layer_256_6_conv2
I0528 22:35:34.486738 58676 net.cpp:406] layer_256_6_conv2 <- layer_256_6_conv1
I0528 22:35:34.486747 58676 net.cpp:380] layer_256_6_conv2 -> layer_256_6_conv2
I0528 22:35:34.508996 58676 net.cpp:122] Setting up layer_256_6_conv2
I0528 22:35:34.509017 58676 net.cpp:129] Top shape: 25 256 14 14 (1254400)
I0528 22:35:34.509022 58676 net.cpp:137] Memory required for data: 5288550500
I0528 22:35:34.509029 58676 layer_factory.hpp:77] Creating layer layer_256_6_bn3
I0528 22:35:34.509039 58676 net.cpp:84] Creating Layer layer_256_6_bn3
I0528 22:35:34.509044 58676 net.cpp:406] layer_256_6_bn3 <- layer_256_6_conv2
I0528 22:35:34.509050 58676 net.cpp:367] layer_256_6_bn3 -> layer_256_6_conv2 (in-place)
I0528 22:35:34.509312 58676 net.cpp:122] Setting up layer_256_6_bn3
I0528 22:35:34.509321 58676 net.cpp:129] Top shape: 25 256 14 14 (1254400)
I0528 22:35:34.509325 58676 net.cpp:137] Memory required for data: 5293568100
I0528 22:35:34.509333 58676 layer_factory.hpp:77] Creating layer layer_256_6_scale3
I0528 22:35:34.509342 58676 net.cpp:84] Creating Layer layer_256_6_scale3
I0528 22:35:34.509347 58676 net.cpp:406] layer_256_6_scale3 <- layer_256_6_conv2
I0528 22:35:34.509353 58676 net.cpp:367] layer_256_6_scale3 -> layer_256_6_conv2 (in-place)
I0528 22:35:34.509410 58676 layer_factory.hpp:77] Creating layer layer_256_6_scale3
I0528 22:35:34.509570 58676 net.cpp:122] Setting up layer_256_6_scale3
I0528 22:35:34.509583 58676 net.cpp:129] Top shape: 25 256 14 14 (1254400)
I0528 22:35:34.509588 58676 net.cpp:137] Memory required for data: 5298585700
I0528 22:35:34.509594 58676 layer_factory.hpp:77] Creating layer layer_256_6_relu3
I0528 22:35:34.509601 58676 net.cpp:84] Creating Layer layer_256_6_relu3
I0528 22:35:34.509606 58676 net.cpp:406] layer_256_6_relu3 <- layer_256_6_conv2
I0528 22:35:34.509613 58676 net.cpp:367] layer_256_6_relu3 -> layer_256_6_conv2 (in-place)
I0528 22:35:34.510350 58676 net.cpp:122] Setting up layer_256_6_relu3
I0528 22:35:34.510366 58676 net.cpp:129] Top shape: 25 256 14 14 (1254400)
I0528 22:35:34.510370 58676 net.cpp:137] Memory required for data: 5303603300
I0528 22:35:34.510375 58676 layer_factory.hpp:77] Creating layer layer_256_6_conv3
I0528 22:35:34.510387 58676 net.cpp:84] Creating Layer layer_256_6_conv3
I0528 22:35:34.510393 58676 net.cpp:406] layer_256_6_conv3 <- layer_256_6_conv2
I0528 22:35:34.510402 58676 net.cpp:380] layer_256_6_conv3 -> layer_256_6_conv3
I0528 22:35:34.521503 58676 net.cpp:122] Setting up layer_256_6_conv3
I0528 22:35:34.521525 58676 net.cpp:129] Top shape: 25 1024 14 14 (5017600)
I0528 22:35:34.521530 58676 net.cpp:137] Memory required for data: 5323673700
I0528 22:35:34.521536 58676 layer_factory.hpp:77] Creating layer layer_256_6_sum
I0528 22:35:34.521546 58676 net.cpp:84] Creating Layer layer_256_6_sum
I0528 22:35:34.521559 58676 net.cpp:406] layer_256_6_sum <- layer_256_6_conv3
I0528 22:35:34.521567 58676 net.cpp:406] layer_256_6_sum <- layer_256_5_sum_layer_256_5_sum_0_split_1
I0528 22:35:34.521574 58676 net.cpp:380] layer_256_6_sum -> layer_256_6_sum
I0528 22:35:34.521618 58676 net.cpp:122] Setting up layer_256_6_sum
I0528 22:35:34.521626 58676 net.cpp:129] Top shape: 25 1024 14 14 (5017600)
I0528 22:35:34.521631 58676 net.cpp:137] Memory required for data: 5343744100
I0528 22:35:34.521634 58676 layer_factory.hpp:77] Creating layer layer_512_1_bn1
I0528 22:35:34.521649 58676 net.cpp:84] Creating Layer layer_512_1_bn1
I0528 22:35:34.521661 58676 net.cpp:406] layer_512_1_bn1 <- layer_256_6_sum
I0528 22:35:34.521668 58676 net.cpp:380] layer_512_1_bn1 -> layer_512_1_bn1
I0528 22:35:34.521946 58676 net.cpp:122] Setting up layer_512_1_bn1
I0528 22:35:34.521955 58676 net.cpp:129] Top shape: 25 1024 14 14 (5017600)
I0528 22:35:34.521960 58676 net.cpp:137] Memory required for data: 5363814500
I0528 22:35:34.521968 58676 layer_factory.hpp:77] Creating layer layer_512_1_scale1
I0528 22:35:34.521975 58676 net.cpp:84] Creating Layer layer_512_1_scale1
I0528 22:35:34.521981 58676 net.cpp:406] layer_512_1_scale1 <- layer_512_1_bn1
I0528 22:35:34.521986 58676 net.cpp:367] layer_512_1_scale1 -> layer_512_1_bn1 (in-place)
I0528 22:35:34.522045 58676 layer_factory.hpp:77] Creating layer layer_512_1_scale1
I0528 22:35:34.522205 58676 net.cpp:122] Setting up layer_512_1_scale1
I0528 22:35:34.522214 58676 net.cpp:129] Top shape: 25 1024 14 14 (5017600)
I0528 22:35:34.522218 58676 net.cpp:137] Memory required for data: 5383884900
I0528 22:35:34.522224 58676 layer_factory.hpp:77] Creating layer layer_512_1_relu1
I0528 22:35:34.522231 58676 net.cpp:84] Creating Layer layer_512_1_relu1
I0528 22:35:34.522236 58676 net.cpp:406] layer_512_1_relu1 <- layer_512_1_bn1
I0528 22:35:34.522243 58676 net.cpp:367] layer_512_1_relu1 -> layer_512_1_bn1 (in-place)
I0528 22:35:34.522459 58676 net.cpp:122] Setting up layer_512_1_relu1
I0528 22:35:34.522471 58676 net.cpp:129] Top shape: 25 1024 14 14 (5017600)
I0528 22:35:34.522475 58676 net.cpp:137] Memory required for data: 5403955300
I0528 22:35:34.522480 58676 layer_factory.hpp:77] Creating layer layer_512_1_bn1_layer_512_1_relu1_0_split
I0528 22:35:34.522486 58676 net.cpp:84] Creating Layer layer_512_1_bn1_layer_512_1_relu1_0_split
I0528 22:35:34.522493 58676 net.cpp:406] layer_512_1_bn1_layer_512_1_relu1_0_split <- layer_512_1_bn1
I0528 22:35:34.522500 58676 net.cpp:380] layer_512_1_bn1_layer_512_1_relu1_0_split -> layer_512_1_bn1_layer_512_1_relu1_0_split_0
I0528 22:35:34.522506 58676 net.cpp:380] layer_512_1_bn1_layer_512_1_relu1_0_split -> layer_512_1_bn1_layer_512_1_relu1_0_split_1
I0528 22:35:34.522578 58676 net.cpp:122] Setting up layer_512_1_bn1_layer_512_1_relu1_0_split
I0528 22:35:34.522590 58676 net.cpp:129] Top shape: 25 1024 14 14 (5017600)
I0528 22:35:34.522595 58676 net.cpp:129] Top shape: 25 1024 14 14 (5017600)
I0528 22:35:34.522598 58676 net.cpp:137] Memory required for data: 5444096100
I0528 22:35:34.522603 58676 layer_factory.hpp:77] Creating layer layer_512_1_conv1
I0528 22:35:34.522614 58676 net.cpp:84] Creating Layer layer_512_1_conv1
I0528 22:35:34.522619 58676 net.cpp:406] layer_512_1_conv1 <- layer_512_1_bn1_layer_512_1_relu1_0_split_0
I0528 22:35:34.522626 58676 net.cpp:380] layer_512_1_conv1 -> layer_512_1_conv1
I0528 22:35:34.542726 58676 net.cpp:122] Setting up layer_512_1_conv1
I0528 22:35:34.542749 58676 net.cpp:129] Top shape: 25 512 14 14 (2508800)
I0528 22:35:34.542754 58676 net.cpp:137] Memory required for data: 5454131300
I0528 22:35:34.542760 58676 layer_factory.hpp:77] Creating layer layer_512_1_bn2
I0528 22:35:34.542769 58676 net.cpp:84] Creating Layer layer_512_1_bn2
I0528 22:35:34.542774 58676 net.cpp:406] layer_512_1_bn2 <- layer_512_1_conv1
I0528 22:35:34.542783 58676 net.cpp:367] layer_512_1_bn2 -> layer_512_1_conv1 (in-place)
I0528 22:35:34.543058 58676 net.cpp:122] Setting up layer_512_1_bn2
I0528 22:35:34.543068 58676 net.cpp:129] Top shape: 25 512 14 14 (2508800)
I0528 22:35:34.543072 58676 net.cpp:137] Memory required for data: 5464166500
I0528 22:35:34.543081 58676 layer_factory.hpp:77] Creating layer layer_512_1_scale2
I0528 22:35:34.543087 58676 net.cpp:84] Creating Layer layer_512_1_scale2
I0528 22:35:34.543092 58676 net.cpp:406] layer_512_1_scale2 <- layer_512_1_conv1
I0528 22:35:34.543098 58676 net.cpp:367] layer_512_1_scale2 -> layer_512_1_conv1 (in-place)
I0528 22:35:34.543154 58676 layer_factory.hpp:77] Creating layer layer_512_1_scale2
I0528 22:35:34.543313 58676 net.cpp:122] Setting up layer_512_1_scale2
I0528 22:35:34.543328 58676 net.cpp:129] Top shape: 25 512 14 14 (2508800)
I0528 22:35:34.543340 58676 net.cpp:137] Memory required for data: 5474201700
I0528 22:35:34.543349 58676 layer_factory.hpp:77] Creating layer layer_512_1_relu2
I0528 22:35:34.543355 58676 net.cpp:84] Creating Layer layer_512_1_relu2
I0528 22:35:34.543359 58676 net.cpp:406] layer_512_1_relu2 <- layer_512_1_conv1
I0528 22:35:34.543367 58676 net.cpp:367] layer_512_1_relu2 -> layer_512_1_conv1 (in-place)
I0528 22:35:34.543591 58676 net.cpp:122] Setting up layer_512_1_relu2
I0528 22:35:34.543607 58676 net.cpp:129] Top shape: 25 512 14 14 (2508800)
I0528 22:35:34.543612 58676 net.cpp:137] Memory required for data: 5484236900
I0528 22:35:34.543617 58676 layer_factory.hpp:77] Creating layer layer_512_1_conv2
I0528 22:35:34.543628 58676 net.cpp:84] Creating Layer layer_512_1_conv2
I0528 22:35:34.543634 58676 net.cpp:406] layer_512_1_conv2 <- layer_512_1_conv1
I0528 22:35:34.543642 58676 net.cpp:380] layer_512_1_conv2 -> layer_512_1_conv2
I0528 22:35:34.627091 58676 net.cpp:122] Setting up layer_512_1_conv2
I0528 22:35:34.627113 58676 net.cpp:129] Top shape: 25 512 7 7 (627200)
I0528 22:35:34.627118 58676 net.cpp:137] Memory required for data: 5486745700
I0528 22:35:34.627125 58676 layer_factory.hpp:77] Creating layer layer_512_1_bn3
I0528 22:35:34.627135 58676 net.cpp:84] Creating Layer layer_512_1_bn3
I0528 22:35:34.627141 58676 net.cpp:406] layer_512_1_bn3 <- layer_512_1_conv2
I0528 22:35:34.627147 58676 net.cpp:367] layer_512_1_bn3 -> layer_512_1_conv2 (in-place)
I0528 22:35:34.627427 58676 net.cpp:122] Setting up layer_512_1_bn3
I0528 22:35:34.627437 58676 net.cpp:129] Top shape: 25 512 7 7 (627200)
I0528 22:35:34.627441 58676 net.cpp:137] Memory required for data: 5489254500
I0528 22:35:34.627496 58676 layer_factory.hpp:77] Creating layer layer_512_1_scale3
I0528 22:35:34.627506 58676 net.cpp:84] Creating Layer layer_512_1_scale3
I0528 22:35:34.627511 58676 net.cpp:406] layer_512_1_scale3 <- layer_512_1_conv2
I0528 22:35:34.627517 58676 net.cpp:367] layer_512_1_scale3 -> layer_512_1_conv2 (in-place)
I0528 22:35:34.627588 58676 layer_factory.hpp:77] Creating layer layer_512_1_scale3
I0528 22:35:34.627753 58676 net.cpp:122] Setting up layer_512_1_scale3
I0528 22:35:34.627763 58676 net.cpp:129] Top shape: 25 512 7 7 (627200)
I0528 22:35:34.627768 58676 net.cpp:137] Memory required for data: 5491763300
I0528 22:35:34.627774 58676 layer_factory.hpp:77] Creating layer layer_512_1_relu3
I0528 22:35:34.627784 58676 net.cpp:84] Creating Layer layer_512_1_relu3
I0528 22:35:34.627789 58676 net.cpp:406] layer_512_1_relu3 <- layer_512_1_conv2
I0528 22:35:34.627794 58676 net.cpp:367] layer_512_1_relu3 -> layer_512_1_conv2 (in-place)
I0528 22:35:34.628525 58676 net.cpp:122] Setting up layer_512_1_relu3
I0528 22:35:34.628540 58676 net.cpp:129] Top shape: 25 512 7 7 (627200)
I0528 22:35:34.628545 58676 net.cpp:137] Memory required for data: 5494272100
I0528 22:35:34.628549 58676 layer_factory.hpp:77] Creating layer layer_512_1_conv3
I0528 22:35:34.628574 58676 net.cpp:84] Creating Layer layer_512_1_conv3
I0528 22:35:34.628581 58676 net.cpp:406] layer_512_1_conv3 <- layer_512_1_conv2
I0528 22:35:34.628590 58676 net.cpp:380] layer_512_1_conv3 -> layer_512_1_conv3
I0528 22:35:34.666582 58676 net.cpp:122] Setting up layer_512_1_conv3
I0528 22:35:34.666604 58676 net.cpp:129] Top shape: 25 2048 7 7 (2508800)
I0528 22:35:34.666610 58676 net.cpp:137] Memory required for data: 5504307300
…
I0528 22:35:35.406831 58676 net.cpp:406] layer_256_4_scale2 <- layer_256_4_conv1
I0528 22:35:35.406836 58676 net.cpp:367] layer_256_4_scale2 -> layer_256_4_conv1 (in-place)
I0528 22:35:35.406890 58676 layer_factory.hpp:77] Creating layer layer_256_4_scale2
I0528 22:35:35.407030 58676 net.cpp:122] Setting up layer_256_4_scale2
I0528 22:35:35.407045 58676 net.cpp:129] Top shape: 10 256 14 14 (501760)
I0528 22:35:35.407058 58676 net.cpp:137] Memory required for data: 1966899320
I0528 22:35:35.407064 58676 layer_factory.hpp:77] Creating layer layer_256_4_relu2
I0528 22:35:35.407073 58676 net.cpp:84] Creating Layer layer_256_4_relu2
I0528 22:35:35.407078 58676 net.cpp:406] layer_256_4_relu2 <- layer_256_4_conv1
I0528 22:35:35.407083 58676 net.cpp:367] layer_256_4_relu2 -> layer_256_4_conv1 (in-place)
I0528 22:35:35.407330 58676 net.cpp:122] Setting up layer_256_4_relu2
I0528 22:35:35.407346 58676 net.cpp:129] Top shape: 10 256 14 14 (501760)
I0528 22:35:35.407351 58676 net.cpp:137] Memory required for data: 1968906360
I0528 22:35:35.407354 58676 layer_factory.hpp:77] Creating layer layer_256_4_conv2
I0528 22:35:35.407366 58676 net.cpp:84] Creating Layer layer_256_4_conv2
I0528 22:35:35.407371 58676 net.cpp:406] layer_256_4_conv2 <- layer_256_4_conv1
I0528 22:35:35.407378 58676 net.cpp:380] layer_256_4_conv2 -> layer_256_4_conv2
I0528 22:35:35.429776 58676 net.cpp:122] Setting up layer_256_4_conv2
I0528 22:35:35.429797 58676 net.cpp:129] Top shape: 10 256 14 14 (501760)
I0528 22:35:35.429802 58676 net.cpp:137] Memory required for data: 1970913400
I0528 22:35:35.429808 58676 layer_factory.hpp:77] Creating layer layer_256_4_bn3
I0528 22:35:35.429818 58676 net.cpp:84] Creating Layer layer_256_4_bn3
I0528 22:35:35.429824 58676 net.cpp:406] layer_256_4_bn3 <- layer_256_4_conv2
I0528 22:35:35.429832 58676 net.cpp:367] layer_256_4_bn3 -> layer_256_4_conv2 (in-place)
I0528 22:35:35.430075 58676 net.cpp:122] Setting up layer_256_4_bn3
I0528 22:35:35.430085 58676 net.cpp:129] Top shape: 10 256 14 14 (501760)
I0528 22:35:35.430088 58676 net.cpp:137] Memory required for data: 1972920440
I0528 22:35:35.430096 58676 layer_factory.hpp:77] Creating layer layer_256_4_scale3
I0528 22:35:35.430104 58676 net.cpp:84] Creating Layer layer_256_4_scale3
I0528 22:35:35.430109 58676 net.cpp:406] layer_256_4_scale3 <- layer_256_4_conv2
I0528 22:35:35.430116 58676 net.cpp:367] layer_256_4_scale3 -> layer_256_4_conv2 (in-place)
I0528 22:35:35.430167 58676 layer_factory.hpp:77] Creating layer layer_256_4_scale3
I0528 22:35:35.430308 58676 net.cpp:122] Setting up layer_256_4_scale3
I0528 22:35:35.430318 58676 net.cpp:129] Top shape: 10 256 14 14 (501760)
I0528 22:35:35.430322 58676 net.cpp:137] Memory required for data: 1974927480
I0528 22:35:35.430328 58676 layer_factory.hpp:77] Creating layer layer_256_4_relu3
I0528 22:35:35.430335 58676 net.cpp:84] Creating Layer layer_256_4_relu3
I0528 22:35:35.430339 58676 net.cpp:406] layer_256_4_relu3 <- layer_256_4_conv2
I0528 22:35:35.430344 58676 net.cpp:367] layer_256_4_relu3 -> layer_256_4_conv2 (in-place)
I0528 22:35:35.430595 58676 net.cpp:122] Setting up layer_256_4_relu3
I0528 22:35:35.430613 58676 net.cpp:129] Top shape: 10 256 14 14 (501760)
I0528 22:35:35.430619 58676 net.cpp:137] Memory required for data: 1976934520
I0528 22:35:35.430622 58676 layer_factory.hpp:77] Creating layer layer_256_4_conv3
I0528 22:35:35.430634 58676 net.cpp:84] Creating Layer layer_256_4_conv3
I0528 22:35:35.430640 58676 net.cpp:406] layer_256_4_conv3 <- layer_256_4_conv2
I0528 22:35:35.430647 58676 net.cpp:380] layer_256_4_conv3 -> layer_256_4_conv3
I0528 22:35:35.441869 58676 net.cpp:122] Setting up layer_256_4_conv3
I0528 22:35:35.441891 58676 net.cpp:129] Top shape: 10 1024 14 14 (2007040)
I0528 22:35:35.441896 58676 net.cpp:137] Memory required for data: 1984962680
I0528 22:35:35.441902 58676 layer_factory.hpp:77] Creating layer layer_256_4_sum
I0528 22:35:35.441910 58676 net.cpp:84] Creating Layer layer_256_4_sum
I0528 22:35:35.441916 58676 net.cpp:406] layer_256_4_sum <- layer_256_4_conv3
I0528 22:35:35.441921 58676 net.cpp:406] layer_256_4_sum <- layer_256_3_sum_layer_256_3_sum_0_split_1
I0528 22:35:35.441927 58676 net.cpp:380] layer_256_4_sum -> layer_256_4_sum
I0528 22:35:35.441969 58676 net.cpp:122] Setting up layer_256_4_sum
I0528 22:35:35.441977 58676 net.cpp:129] Top shape: 10 1024 14 14 (2007040)
I0528 22:35:35.441982 58676 net.cpp:137] Memory required for data: 1992990840
I0528 22:35:35.442003 58676 layer_factory.hpp:77] Creating layer layer_256_4_sum_layer_256_4_sum_0_split
I0528 22:35:35.442010 58676 net.cpp:84] Creating Layer layer_256_4_sum_layer_256_4_sum_0_split
I0528 22:35:35.442014 58676 net.cpp:406] layer_256_4_sum_layer_256_4_sum_0_split <- layer_256_4_sum
I0528 22:35:35.442021 58676 net.cpp:380] layer_256_4_sum_layer_256_4_sum_0_split -> layer_256_4_sum_layer_256_4_sum_0_split_0
I0528 22:35:35.442028 58676 net.cpp:380] layer_256_4_sum_layer_256_4_sum_0_split -> layer_256_4_sum_layer_256_4_sum_0_split_1
I0528 22:35:35.442080 58676 net.cpp:122] Setting up layer_256_4_sum_layer_256_4_sum_0_split
I0528 22:35:35.442088 58676 net.cpp:129] Top shape: 10 1024 14 14 (2007040)
I0528 22:35:35.442092 58676 net.cpp:129] Top shape: 10 1024 14 14 (2007040)
I0528 22:35:35.442096 58676 net.cpp:137] Memory required for data: 2009047160
I0528 22:35:35.442100 58676 layer_factory.hpp:77] Creating layer layer_256_5_bn1
I0528 22:35:35.442106 58676 net.cpp:84] Creating Layer layer_256_5_bn1
I0528 22:35:35.442111 58676 net.cpp:406] layer_256_5_bn1 <- layer_256_4_sum_layer_256_4_sum_0_split_0
I0528 22:35:35.442121 58676 net.cpp:380] layer_256_5_bn1 -> layer_256_5_bn1
I0528 22:35:35.442396 58676 net.cpp:122] Setting up layer_256_5_bn1
I0528 22:35:35.442406 58676 net.cpp:129] Top shape: 10 1024 14 14 (2007040)
I0528 22:35:35.442409 58676 net.cpp:137] Memory required for data: 2017075320
I0528 22:35:35.442417 58676 layer_factory.hpp:77] Creating layer layer_256_5_scale1
I0528 22:35:35.442427 58676 net.cpp:84] Creating Layer layer_256_5_scale1
I0528 22:35:35.442431 58676 net.cpp:406] layer_256_5_scale1 <- layer_256_5_bn1
I0528 22:35:35.442437 58676 net.cpp:367] layer_256_5_scale1 -> layer_256_5_bn1 (in-place)
I0528 22:35:35.442502 58676 layer_factory.hpp:77] Creating layer layer_256_5_scale1
I0528 22:35:35.442679 58676 net.cpp:122] Setting up layer_256_5_scale1
I0528 22:35:35.442693 58676 net.cpp:129] Top shape: 10 1024 14 14 (2007040)
I0528 22:35:35.442698 58676 net.cpp:137] Memory required for data: 2025103480
I0528 22:35:35.442703 58676 layer_factory.hpp:77] Creating layer layer_256_5_relu1
I0528 22:35:35.442710 58676 net.cpp:84] Creating Layer layer_256_5_relu1
I0528 22:35:35.442715 58676 net.cpp:406] layer_256_5_relu1 <- layer_256_5_bn1
I0528 22:35:35.442723 58676 net.cpp:367] layer_256_5_relu1 -> layer_256_5_bn1 (in-place)
I0528 22:35:35.443502 58676 net.cpp:122] Setting up layer_256_5_relu1
I0528 22:35:35.443519 58676 net.cpp:129] Top shape: 10 1024 14 14 (2007040)
I0528 22:35:35.443523 58676 net.cpp:137] Memory required for data: 2033131640
I0528 22:35:35.443528 58676 layer_factory.hpp:77] Creating layer layer_256_5_conv1
I0528 22:35:35.443541 58676 net.cpp:84] Creating Layer layer_256_5_conv1
I0528 22:35:35.443545 58676 net.cpp:406] layer_256_5_conv1 <- layer_256_5_bn1
I0528 22:35:35.443562 58676 net.cpp:380] layer_256_5_conv1 -> layer_256_5_conv1
I0528 22:35:35.454807 58676 net.cpp:122] Setting up layer_256_5_conv1
I0528 22:35:35.454828 58676 net.cpp:129] Top shape: 10 256 14 14 (501760)
I0528 22:35:35.454833 58676 net.cpp:137] Memory required for data: 2035138680
I0528 22:35:35.454839 58676 layer_factory.hpp:77] Creating layer layer_256_5_bn2
I0528 22:35:35.454849 58676 net.cpp:84] Creating Layer layer_256_5_bn2
I0528 22:35:35.454855 58676 net.cpp:406] layer_256_5_bn2 <- layer_256_5_conv1
I0528 22:35:35.454861 58676 net.cpp:367] layer_256_5_bn2 -> layer_256_5_conv1 (in-place)
I0528 22:35:35.455109 58676 net.cpp:122] Setting up layer_256_5_bn2
I0528 22:35:35.455119 58676 net.cpp:129] Top shape: 10 256 14 14 (501760)
I0528 22:35:35.455123 58676 net.cpp:137] Memory required for data: 2037145720
I0528 22:35:35.455132 58676 layer_factory.hpp:77] Creating layer layer_256_5_scale2
I0528 22:35:35.455140 58676 net.cpp:84] Creating Layer layer_256_5_scale2
I0528 22:35:35.455145 58676 net.cpp:406] layer_256_5_scale2 <- layer_256_5_conv1
I0528 22:35:35.455152 58676 net.cpp:367] layer_256_5_scale2 -> layer_256_5_conv1 (in-place)
I0528 22:35:35.455204 58676 layer_factory.hpp:77] Creating layer layer_256_5_scale2
I0528 22:35:35.455368 58676 net.cpp:122] Setting up layer_256_5_scale2
I0528 22:35:35.455379 58676 net.cpp:129] Top shape: 10 256 14 14 (501760)
I0528 22:35:35.455382 58676 net.cpp:137] Memory required for data: 2039152760
I0528 22:35:35.455389 58676 layer_factory.hpp:77] Creating layer layer_256_5_relu2
I0528 22:35:35.455395 58676 net.cpp:84] Creating Layer layer_256_5_relu2
I0528 22:35:35.455400 58676 net.cpp:406] layer_256_5_relu2 <- layer_256_5_conv1
I0528 22:35:35.455407 58676 net.cpp:367] layer_256_5_relu2 -> layer_256_5_conv1 (in-place)
I0528 22:35:35.455664 58676 net.cpp:122] Setting up layer_256_5_relu2
I0528 22:35:35.455680 58676 net.cpp:129] Top shape: 10 256 14 14 (501760)
I0528 22:35:35.455684 58676 net.cpp:137] Memory required for data: 2041159800
I0528 22:35:35.455688 58676 layer_factory.hpp:77] Creating layer layer_256_5_conv2
I0528 22:35:35.455701 58676 net.cpp:84] Creating Layer layer_256_5_conv2
I0528 22:35:35.455706 58676 net.cpp:406] layer_256_5_conv2 <- layer_256_5_conv1
I0528 22:35:35.455715 58676 net.cpp:380] layer_256_5_conv2 -> layer_256_5_conv2
I0528 22:35:35.478652 58676 net.cpp:122] Setting up layer_256_5_conv2
I0528 22:35:35.478672 58676 net.cpp:129] Top shape: 10 256 14 14 (501760)
I0528 22:35:35.478677 58676 net.cpp:137] Memory required for data: 2043166840
I0528 22:35:35.478683 58676 layer_factory.hpp:77] Creating layer layer_256_5_bn3
I0528 22:35:35.478693 58676 net.cpp:84] Creating Layer layer_256_5_bn3
I0528 22:35:35.478699 58676 net.cpp:406] layer_256_5_bn3 <- layer_256_5_conv2
I0528 22:35:35.478705 58676 net.cpp:367] layer_256_5_bn3 -> layer_256_5_conv2 (in-place)
I0528 22:35:35.478958 58676 net.cpp:122] Setting up layer_256_5_bn3
I0528 22:35:35.478968 58676 net.cpp:129] Top shape: 10 256 14 14 (501760)
I0528 22:35:35.478971 58676 net.cpp:137] Memory required for data: 2045173880
I0528 22:35:35.478979 58676 layer_factory.hpp:77] Creating layer layer_256_5_scale3
I0528 22:35:35.478986 58676 net.cpp:84] Creating Layer layer_256_5_scale3
I0528 22:35:35.478991 58676 net.cpp:406] layer_256_5_scale3 <- layer_256_5_conv2
I0528 22:35:35.478996 58676 net.cpp:367] layer_256_5_scale3 -> layer_256_5_conv2 (in-place)
I0528 22:35:35.479053 58676 layer_factory.hpp:77] Creating layer layer_256_5_scale3
I0528 22:35:35.479194 58676 net.cpp:122] Setting up layer_256_5_scale3
I0528 22:35:35.479203 58676 net.cpp:129] Top shape: 10 256 14 14 (501760)
I0528 22:35:35.479207 58676 net.cpp:137] Memory required for data: 2047180920
I0528 22:35:35.479213 58676 layer_factory.hpp:77] Creating layer layer_256_5_relu3
I0528 22:35:35.479221 58676 net.cpp:84] Creating Layer layer_256_5_relu3
I0528 22:35:35.479226 58676 net.cpp:406] layer_256_5_relu3 <- layer_256_5_conv2
I0528 22:35:35.479231 58676 net.cpp:367] layer_256_5_relu3 -> layer_256_5_conv2 (in-place)
I0528 22:35:35.479473 58676 net.cpp:122] Setting up layer_256_5_relu3
I0528 22:35:35.479487 58676 net.cpp:129] Top shape: 10 256 14 14 (501760)
I0528 22:35:35.479491 58676 net.cpp:137] Memory required for data: 2049187960
I0528 22:35:35.479496 58676 layer_factory.hpp:77] Creating layer layer_256_5_conv3
I0528 22:35:35.479507 58676 net.cpp:84] Creating Layer layer_256_5_conv3
I0528 22:35:35.479512 58676 net.cpp:406] layer_256_5_conv3 <- layer_256_5_conv2
I0528 22:35:35.479519 58676 net.cpp:380] layer_256_5_conv3 -> layer_256_5_conv3
I0528 22:35:35.490754 58676 net.cpp:122] Setting up layer_256_5_conv3
I0528 22:35:35.490777 58676 net.cpp:129] Top shape: 10 1024 14 14 (2007040)
I0528 22:35:35.490782 58676 net.cpp:137] Memory required for data: 2057216120
I0528 22:35:35.490788 58676 layer_factory.hpp:77] Creating layer layer_256_5_sum
I0528 22:35:35.490797 58676 net.cpp:84] Creating Layer layer_256_5_sum
I0528 22:35:35.490802 58676 net.cpp:406] layer_256_5_sum <- layer_256_5_conv3
I0528 22:35:35.490808 58676 net.cpp:406] layer_256_5_sum <- layer_256_4_sum_layer_256_4_sum_0_split_1
I0528 22:35:35.490815 58676 net.cpp:380] layer_256_5_sum -> layer_256_5_sum
I0528 22:35:35.490854 58676 net.cpp:122] Setting up layer_256_5_sum
I0528 22:35:35.490869 58676 net.cpp:129] Top shape: 10 1024 14 14 (2007040)
I0528 22:35:35.490880 58676 net.cpp:137] Memory required for data: 2065244280
I0528 22:35:35.490885 58676 layer_factory.hpp:77] Creating layer layer_256_5_sum_layer_256_5_sum_0_split
I0528 22:35:35.490893 58676 net.cpp:84] Creating Layer layer_256_5_sum_layer_256_5_sum_0_split
I0528 22:35:35.490898 58676 net.cpp:406] layer_256_5_sum_layer_256_5_sum_0_split <- layer_256_5_sum
I0528 22:35:35.490905 58676 net.cpp:380] layer_256_5_sum_layer_256_5_sum_0_split -> layer_256_5_sum_layer_256_5_sum_0_split_0
I0528 22:35:35.490911 58676 net.cpp:380] layer_256_5_sum_layer_256_5_sum_0_split -> layer_256_5_sum_layer_256_5_sum_0_split_1
I0528 22:35:35.490963 58676 net.cpp:122] Setting up layer_256_5_sum_layer_256_5_sum_0_split
I0528 22:35:35.490972 58676 net.cpp:129] Top shape: 10 1024 14 14 (2007040)
I0528 22:35:35.490975 58676 net.cpp:129] Top shape: 10 1024 14 14 (2007040)
I0528 22:35:35.490979 58676 net.cpp:137] Memory required for data: 2081300600
I0528 22:35:35.490983 58676 layer_factory.hpp:77] Creating layer layer_256_6_bn1
I0528 22:35:35.490993 58676 net.cpp:84] Creating Layer layer_256_6_bn1
I0528 22:35:35.490998 58676 net.cpp:406] layer_256_6_bn1 <- layer_256_5_sum_layer_256_5_sum_0_split_0
I0528 22:35:35.491003 58676 net.cpp:380] layer_256_6_bn1 -> layer_256_6_bn1
I0528 22:35:35.491284 58676 net.cpp:122] Setting up layer_256_6_bn1
I0528 22:35:35.491294 58676 net.cpp:129] Top shape: 10 1024 14 14 (2007040)
I0528 22:35:35.491298 58676 net.cpp:137] Memory required for data: 2089328760
I0528 22:35:35.491307 58676 layer_factory.hpp:77] Creating layer layer_256_6_scale1
I0528 22:35:35.491314 58676 net.cpp:84] Creating Layer layer_256_6_scale1
I0528 22:35:35.491318 58676 net.cpp:406] layer_256_6_scale1 <- layer_256_6_bn1
I0528 22:35:35.491324 58676 net.cpp:367] layer_256_6_scale1 -> layer_256_6_bn1 (in-place)
I0528 22:35:35.491392 58676 layer_factory.hpp:77] Creating layer layer_256_6_scale1
I0528 22:35:35.491569 58676 net.cpp:122] Setting up layer_256_6_scale1
I0528 22:35:35.491583 58676 net.cpp:129] Top shape: 10 1024 14 14 (2007040)
I0528 22:35:35.491586 58676 net.cpp:137] Memory required for data: 2097356920
I0528 22:35:35.491593 58676 layer_factory.hpp:77] Creating layer layer_256_6_relu1
I0528 22:35:35.491600 58676 net.cpp:84] Creating Layer layer_256_6_relu1
I0528 22:35:35.491607 58676 net.cpp:406] layer_256_6_relu1 <- layer_256_6_bn1
I0528 22:35:35.491612 58676 net.cpp:367] layer_256_6_relu1 -> layer_256_6_bn1 (in-place)
I0528 22:35:35.492393 58676 net.cpp:122] Setting up layer_256_6_relu1
I0528 22:35:35.492409 58676 net.cpp:129] Top shape: 10 1024 14 14 (2007040)
I0528 22:35:35.492413 58676 net.cpp:137] Memory required for data: 2105385080
I0528 22:35:35.492419 58676 layer_factory.hpp:77] Creating layer layer_256_6_conv1
I0528 22:35:35.492431 58676 net.cpp:84] Creating Layer layer_256_6_conv1
I0528 22:35:35.492436 58676 net.cpp:406] layer_256_6_conv1 <- layer_256_6_bn1
I0528 22:35:35.492446 58676 net.cpp:380] layer_256_6_conv1 -> layer_256_6_conv1
I0528 22:35:35.503700 58676 net.cpp:122] Setting up layer_256_6_conv1
I0528 22:35:35.503721 58676 net.cpp:129] Top shape: 10 256 14 14 (501760)
I0528 22:35:35.503726 58676 net.cpp:137] Memory required for data: 2107392120
I0528 22:35:35.503732 58676 layer_factory.hpp:77] Creating layer layer_256_6_bn2
I0528 22:35:35.503743 58676 net.cpp:84] Creating Layer layer_256_6_bn2
I0528 22:35:35.503748 58676 net.cpp:406] layer_256_6_bn2 <- layer_256_6_conv1
I0528 22:35:35.503754 58676 net.cpp:367] layer_256_6_bn2 -> layer_256_6_conv1 (in-place)
I0528 22:35:35.504016 58676 net.cpp:122] Setting up layer_256_6_bn2
I0528 22:35:35.504025 58676 net.cpp:129] Top shape: 10 256 14 14 (501760)
I0528 22:35:35.504029 58676 net.cpp:137] Memory required for data: 2109399160
I0528 22:35:35.504037 58676 layer_factory.hpp:77] Creating layer layer_256_6_scale2
I0528 22:35:35.504045 58676 net.cpp:84] Creating Layer layer_256_6_scale2
I0528 22:35:35.504050 58676 net.cpp:406] layer_256_6_scale2 <- layer_256_6_conv1
I0528 22:35:35.504060 58676 net.cpp:367] layer_256_6_scale2 -> layer_256_6_conv1 (in-place)
I0528 22:35:35.504128 58676 layer_factory.hpp:77] Creating layer layer_256_6_scale2
I0528 22:35:35.504274 58676 net.cpp:122] Setting up layer_256_6_scale2
I0528 22:35:35.504283 58676 net.cpp:129] Top shape: 10 256 14 14 (501760)
I0528 22:35:35.504287 58676 net.cpp:137] Memory required for data: 2111406200
I0528 22:35:35.504293 58676 layer_factory.hpp:77] Creating layer layer_256_6_relu2
I0528 22:35:35.504300 58676 net.cpp:84] Creating Layer layer_256_6_relu2
I0528 22:35:35.504305 58676 net.cpp:406] layer_256_6_relu2 <- layer_256_6_conv1
I0528 22:35:35.504312 58676 net.cpp:367] layer_256_6_relu2 -> layer_256_6_conv1 (in-place)
I0528 22:35:35.504570 58676 net.cpp:122] Setting up layer_256_6_relu2
I0528 22:35:35.504586 58676 net.cpp:129] Top shape: 10 256 14 14 (501760)
I0528 22:35:35.504590 58676 net.cpp:137] Memory required for data: 2113413240
I0528 22:35:35.504595 58676 layer_factory.hpp:77] Creating layer layer_256_6_conv2
I0528 22:35:35.504607 58676 net.cpp:84] Creating Layer layer_256_6_conv2
I0528 22:35:35.504612 58676 net.cpp:406] layer_256_6_conv2 <- layer_256_6_conv1
I0528 22:35:35.504621 58676 net.cpp:380] layer_256_6_conv2 -> layer_256_6_conv2
I0528 22:35:35.526556 58676 net.cpp:122] Setting up layer_256_6_conv2
I0528 22:35:35.526576 58676 net.cpp:129] Top shape: 10 256 14 14 (501760)
I0528 22:35:35.526581 58676 net.cpp:137] Memory required for data: 2115420280
I0528 22:35:35.526587 58676 layer_factory.hpp:77] Creating layer layer_256_6_bn3
I0528 22:35:35.526595 58676 net.cpp:84] Creating Layer layer_256_6_bn3
I0528 22:35:35.526600 58676 net.cpp:406] layer_256_6_bn3 <- layer_256_6_conv2
I0528 22:35:35.526607 58676 net.cpp:367] layer_256_6_bn3 -> layer_256_6_conv2 (in-place)
I0528 22:35:35.526841 58676 net.cpp:122] Setting up layer_256_6_bn3
I0528 22:35:35.526850 58676 net.cpp:129] Top shape: 10 256 14 14 (501760)
I0528 22:35:35.526854 58676 net.cpp:137] Memory required for data: 2117427320
I0528 22:35:35.526861 58676 layer_factory.hpp:77] Creating layer layer_256_6_scale3
I0528 22:35:35.526868 58676 net.cpp:84] Creating Layer layer_256_6_scale3
I0528 22:35:35.526872 58676 net.cpp:406] layer_256_6_scale3 <- layer_256_6_conv2
I0528 22:35:35.526877 58676 net.cpp:367] layer_256_6_scale3 -> layer_256_6_conv2 (in-place)
I0528 22:35:35.526931 58676 layer_factory.hpp:77] Creating layer layer_256_6_scale3
I0528 22:35:35.527063 58676 net.cpp:122] Setting up layer_256_6_scale3
I0528 22:35:35.527071 58676 net.cpp:129] Top shape: 10 256 14 14 (501760)
I0528 22:35:35.527074 58676 net.cpp:137] Memory required for data: 2119434360
I0528 22:35:35.527081 58676 layer_factory.hpp:77] Creating layer layer_256_6_relu3
I0528 22:35:35.527088 58676 net.cpp:84] Creating Layer layer_256_6_relu3
I0528 22:35:35.527092 58676 net.cpp:406] layer_256_6_relu3 <- layer_256_6_conv2
I0528 22:35:35.527097 58676 net.cpp:367] layer_256_6_relu3 -> layer_256_6_conv2 (in-place)
I0528 22:35:35.527323 58676 net.cpp:122] Setting up layer_256_6_relu3
I0528 22:35:35.527338 58676 net.cpp:129] Top shape: 10 256 14 14 (501760)
I0528 22:35:35.527341 58676 net.cpp:137] Memory required for data: 2121441400
I0528 22:35:35.527344 58676 layer_factory.hpp:77] Creating layer layer_256_6_conv3
I0528 22:35:35.527356 58676 net.cpp:84] Creating Layer layer_256_6_conv3
I0528 22:35:35.527360 58676 net.cpp:406] layer_256_6_conv3 <- layer_256_6_conv2
I0528 22:35:35.527367 58676 net.cpp:380] layer_256_6_conv3 -> layer_256_6_conv3
I0528 22:35:35.537535 58676 net.cpp:122] Setting up layer_256_6_conv3
I0528 22:35:35.537564 58676 net.cpp:129] Top shape: 10 1024 14 14 (2007040)
I0528 22:35:35.537570 58676 net.cpp:137] Memory required for data: 2129469560
I0528 22:35:35.537576 58676 layer_factory.hpp:77] Creating layer layer_256_6_sum
I0528 22:35:35.537585 58676 net.cpp:84] Creating Layer layer_256_6_sum
I0528 22:35:35.537588 58676 net.cpp:406] layer_256_6_sum <- layer_256_6_conv3
I0528 22:35:35.537593 58676 net.cpp:406] layer_256_6_sum <- layer_256_5_sum_layer_256_5_sum_0_split_1
I0528 22:35:35.537601 58676 net.cpp:380] layer_256_6_sum -> layer_256_6_sum
I0528 22:35:35.537650 58676 net.cpp:122] Setting up layer_256_6_sum
I0528 22:35:35.537659 58676 net.cpp:129] Top shape: 10 1024 14 14 (2007040)
I0528 22:35:35.537663 58676 net.cpp:137] Memory required for data: 2137497720
I0528 22:35:35.537667 58676 layer_factory.hpp:77] Creating layer layer_512_1_bn1
I0528 22:35:35.537675 58676 net.cpp:84] Creating Layer layer_512_1_bn1
I0528 22:35:35.537679 58676 net.cpp:406] layer_512_1_bn1 <- layer_256_6_sum
I0528 22:35:35.537688 58676 net.cpp:380] layer_512_1_bn1 -> layer_512_1_bn1
I0528 22:35:35.537953 58676 net.cpp:122] Setting up layer_512_1_bn1
I0528 22:35:35.537962 58676 net.cpp:129] Top shape: 10 1024 14 14 (2007040)
I0528 22:35:35.537966 58676 net.cpp:137] Memory required for data: 2145525880
I0528 22:35:35.537973 58676 layer_factory.hpp:77] Creating layer layer_512_1_scale1
I0528 22:35:35.537981 58676 net.cpp:84] Creating Layer layer_512_1_scale1
I0528 22:35:35.537984 58676 net.cpp:406] layer_512_1_scale1 <- layer_512_1_bn1
I0528 22:35:35.537989 58676 net.cpp:367] layer_512_1_scale1 -> layer_512_1_bn1 (in-place)
I0528 22:35:35.538053 58676 layer_factory.hpp:77] Creating layer layer_512_1_scale1
I0528 22:35:35.538213 58676 net.cpp:122] Setting up layer_512_1_scale1
I0528 22:35:35.538223 58676 net.cpp:129] Top shape: 10 1024 14 14 (2007040)
I0528 22:35:35.538225 58676 net.cpp:137] Memory required for data: 2153554040
I0528 22:35:35.538231 58676 layer_factory.hpp:77] Creating layer layer_512_1_relu1
I0528 22:35:35.538239 58676 net.cpp:84] Creating Layer layer_512_1_relu1
I0528 22:35:35.538244 58676 net.cpp:406] layer_512_1_relu1 <- layer_512_1_bn1
I0528 22:35:35.538249 58676 net.cpp:367] layer_512_1_relu1 -> layer_512_1_bn1 (in-place)
I0528 22:35:35.538962 58676 net.cpp:122] Setting up layer_512_1_relu1
I0528 22:35:35.538982 58676 net.cpp:129] Top shape: 10 1024 14 14 (2007040)
I0528 22:35:35.538986 58676 net.cpp:137] Memory required for data: 2161582200
I0528 22:35:35.538990 58676 layer_factory.hpp:77] Creating layer layer_512_1_bn1_layer_512_1_relu1_0_split
I0528 22:35:35.538997 58676 net.cpp:84] Creating Layer layer_512_1_bn1_layer_512_1_relu1_0_split
I0528 22:35:35.539002 58676 net.cpp:406] layer_512_1_bn1_layer_512_1_relu1_0_split <- layer_512_1_bn1
I0528 22:35:35.539007 58676 net.cpp:380] layer_512_1_bn1_layer_512_1_relu1_0_split -> layer_512_1_bn1_layer_512_1_relu1_0_split_0
I0528 22:35:35.539016 58676 net.cpp:380] layer_512_1_bn1_layer_512_1_relu1_0_split -> layer_512_1_bn1_layer_512_1_relu1_0_split_1
I0528 22:35:35.539074 58676 net.cpp:122] Setting up layer_512_1_bn1_layer_512_1_relu1_0_split
I0528 22:35:35.539083 58676 net.cpp:129] Top shape: 10 1024 14 14 (2007040)
I0528 22:35:35.539086 58676 net.cpp:129] Top shape: 10 1024 14 14 (2007040)
I0528 22:35:35.539089 58676 net.cpp:137] Memory required for data: 2177638520
I0528 22:35:35.539093 58676 layer_factory.hpp:77] Creating layer layer_512_1_conv1
I0528 22:35:35.539108 58676 net.cpp:84] Creating Layer layer_512_1_conv1
I0528 22:35:35.539113 58676 net.cpp:406] layer_512_1_conv1 <- layer_512_1_bn1_layer_512_1_relu1_0_split_0
I0528 22:35:35.539120 58676 net.cpp:380] layer_512_1_conv1 -> layer_512_1_conv1
I0528 22:35:35.556885 58676 net.cpp:122] Setting up layer_512_1_conv1
I0528 22:35:35.556903 58676 net.cpp:129] Top shape: 10 512 14 14 (1003520)
I0528 22:35:35.556907 58676 net.cpp:137] Memory required for data: 2181652600
I0528 22:35:35.556913 58676 layer_factory.hpp:77] Creating layer layer_512_1_bn2
I0528 22:35:35.556922 58676 net.cpp:84] Creating Layer layer_512_1_bn2
I0528 22:35:35.556927 58676 net.cpp:406] layer_512_1_bn2 <- layer_512_1_conv1
I0528 22:35:35.556933 58676 net.cpp:367] layer_512_1_bn2 -> layer_512_1_conv1 (in-place)
I0528 22:35:35.557184 58676 net.cpp:122] Setting up layer_512_1_bn2
I0528 22:35:35.557193 58676 net.cpp:129] Top shape: 10 512 14 14 (1003520)
I0528 22:35:35.557196 58676 net.cpp:137] Memory required for data: 2185666680
I0528 22:35:35.557204 58676 layer_factory.hpp:77] Creating layer layer_512_1_scale2
I0528 22:35:35.557210 58676 net.cpp:84] Creating Layer layer_512_1_scale2
I0528 22:35:35.557219 58676 net.cpp:406] layer_512_1_scale2 <- layer_512_1_conv1
I0528 22:35:35.557232 58676 net.cpp:367] layer_512_1_scale2 -> layer_512_1_conv1 (in-place)
I0528 22:35:35.557298 58676 layer_factory.hpp:77] Creating layer layer_512_1_scale2
I0528 22:35:35.557449 58676 net.cpp:122] Setting up layer_512_1_scale2
I0528 22:35:35.557458 58676 net.cpp:129] Top shape: 10 512 14 14 (1003520)
I0528 22:35:35.557461 58676 net.cpp:137] Memory required for data: 2189680760
I0528 22:35:35.557466 58676 layer_factory.hpp:77] Creating layer layer_512_1_relu2
I0528 22:35:35.557473 58676 net.cpp:84] Creating Layer layer_512_1_relu2
I0528 22:35:35.557477 58676 net.cpp:406] layer_512_1_relu2 <- layer_512_1_conv1
I0528 22:35:35.557483 58676 net.cpp:367] layer_512_1_relu2 -> layer_512_1_conv1 (in-place)
I0528 22:35:35.557714 58676 net.cpp:122] Setting up layer_512_1_relu2
I0528 22:35:35.557729 58676 net.cpp:129] Top shape: 10 512 14 14 (1003520)
I0528 22:35:35.557732 58676 net.cpp:137] Memory required for data: 2193694840
I0528 22:35:35.557736 58676 layer_factory.hpp:77] Creating layer layer_512_1_conv2
I0528 22:35:35.557747 58676 net.cpp:84] Creating Layer layer_512_1_conv2
I0528 22:35:35.557751 58676 net.cpp:406] layer_512_1_conv2 <- layer_512_1_conv1
I0528 22:35:35.557760 58676 net.cpp:380] layer_512_1_conv2 -> layer_512_1_conv2
I0528 22:35:35.632269 58676 net.cpp:122] Setting up layer_512_1_conv2
I0528 22:35:35.632290 58676 net.cpp:129] Top shape: 10 512 7 7 (250880)
I0528 22:35:35.632294 58676 net.cpp:137] Memory required for data: 2194698360
I0528 22:35:35.632300 58676 layer_factory.hpp:77] Creating layer layer_512_1_bn3
I0528 22:35:35.632309 58676 net.cpp:84] Creating Layer layer_512_1_bn3
I0528 22:35:35.632314 58676 net.cpp:406] layer_512_1_bn3 <- layer_512_1_conv2
I0528 22:35:35.632320 58676 net.cpp:367] layer_512_1_bn3 -> layer_512_1_conv2 (in-place)
I0528 22:35:35.632601 58676 net.cpp:122] Setting up layer_512_1_bn3
I0528 22:35:35.632611 58676 net.cpp:129] Top shape: 10 512 7 7 (250880)
I0528 22:35:35.632616 58676 net.cpp:137] Memory required for data: 2195701880
I0528 22:35:35.632664 58676 layer_factory.hpp:77] Creating layer layer_512_1_scale3
I0528 22:35:35.632673 58676 net.cpp:84] Creating Layer layer_512_1_scale3
I0528 22:35:35.632678 58676 net.cpp:406] layer_512_1_scale3 <- layer_512_1_conv2
I0528 22:35:35.632683 58676 net.cpp:367] layer_512_1_scale3 -> layer_512_1_conv2 (in-place)
I0528 22:35:35.632745 58676 layer_factory.hpp:77] Creating layer layer_512_1_scale3
I0528 22:35:35.632891 58676 net.cpp:122] Setting up layer_512_1_scale3
I0528 22:35:35.632900 58676 net.cpp:129] Top shape: 10 512 7 7 (250880)
I0528 22:35:35.632903 58676 net.cpp:137] Memory required for data: 2196705400
I0528 22:35:35.632910 58676 layer_factory.hpp:77] Creating layer layer_512_1_relu3
I0528 22:35:35.632915 58676 net.cpp:84] Creating Layer layer_512_1_relu3
I0528 22:35:35.632920 58676 net.cpp:406] layer_512_1_relu3 <- layer_512_1_conv2
I0528 22:35:35.632923 58676 net.cpp:367] layer_512_1_relu3 -> layer_512_1_conv2 (in-place)
I0528 22:35:35.633146 58676 net.cpp:122] Setting up layer_512_1_relu3
I0528 22:35:35.633155 58676 net.cpp:129] Top shape: 10 512 7 7 (250880)
I0528 22:35:35.633159 58676 net.cpp:137] Memory required for data: 2197708920
I0528 22:35:35.633163 58676 layer_factory.hpp:77] Creating layer layer_512_1_conv3
I0528 22:35:35.633173 58676 net.cpp:84] Creating Layer layer_512_1_conv3
I0528 22:35:35.633178 58676 net.cpp:406] layer_512_1_conv3 <- layer_512_1_conv2
I0528 22:35:35.633184 58676 net.cpp:380] layer_512_1_conv3 -> layer_512_1_conv3
I0528 22:35:35.667692 58676 net.cpp:122] Setting up layer_512_1_conv3
I0528 22:35:35.667711 58676 net.cpp:129] Top shape: 10 2048 7 7 (1003520)
I0528 22:35:35.667716 58676 net.cpp:137] Memory required for data: 2201723000
I0528 22:35:35.667721 58676 layer_factory.hpp:77] Creating layer layer_512_1_conv_expand
I0528 22:35:35.667737 58676 net.cpp:84] Creating Layer layer_512_1_conv_expand
I0528 22:35:35.667742 58676 net.cpp:406] layer_512_1_conv_expand <- layer_512_1_bn1_layer_512_1_relu1_0_split_1
I0528 22:35:35.667762 58676 net.cpp:380] layer_512_1_conv_expand -> layer_512_1_conv_expand
I0528 22:35:35.733825 58676 net.cpp:122] Setting up layer_512_1_conv_expand
I0528 22:35:35.733846 58676 net.cpp:129] Top shape: 10 2048 7 7 (1003520)
I0528 22:35:35.733851 58676 net.cpp:137] Memory required for data: 2205737080
I0528 22:35:35.733857 58676 layer_factory.hpp:77] Creating layer layer_512_1_sum
I0528 22:35:35.733865 58676 net.cpp:84] Creating Layer layer_512_1_sum
I0528 22:35:35.733870 58676 net.cpp:406] layer_512_1_sum <- layer_512_1_conv3
I0528 22:35:35.733875 58676 net.cpp:406] layer_512_1_sum <- layer_512_1_conv_expand
I0528 22:35:35.733880 58676 net.cpp:380] layer_512_1_sum -> layer_512_1_sum
I0528 22:35:35.733916 58676 net.cpp:122] Setting up layer_512_1_sum
I0528 22:35:35.733923 58676 net.cpp:129] Top shape: 10 2048 7 7 (1003520)
I0528 22:35:35.733927 58676 net.cpp:137] Memory required for data: 2209751160
I0528 22:35:35.733930 58676 layer_factory.hpp:77] Creating layer layer_512_1_sum_layer_512_1_sum_0_split
I0528 22:35:35.733937 58676 net.cpp:84] Creating Layer layer_512_1_sum_layer_512_1_sum_0_split
I0528 22:35:35.733940 58676 net.cpp:406] layer_512_1_sum_layer_512_1_sum_0_split <- layer_512_1_sum
I0528 22:35:35.733949 58676 net.cpp:380] layer_512_1_sum_layer_512_1_sum_0_split -> layer_512_1_sum_layer_512_1_sum_0_split_0
I0528 22:35:35.733956 58676 net.cpp:380] layer_512_1_sum_layer_512_1_sum_0_split -> layer_512_1_sum_layer_512_1_sum_0_split_1
I0528 22:35:35.734002 58676 net.cpp:122] Setting up layer_512_1_sum_layer_512_1_sum_0_split
I0528 22:35:35.734009 58676 net.cpp:129] Top shape: 10 2048 7 7 (1003520)
I0528 22:35:35.734014 58676 net.cpp:129] Top shape: 10 2048 7 7 (1003520)
I0528 22:35:35.734016 58676 net.cpp:137] Memory required for data: 2217779320
I0528 22:35:35.734020 58676 layer_factory.hpp:77] Creating layer layer_512_2_bn1
I0528 22:35:35.734027 58676 net.cpp:84] Creating Layer layer_512_2_bn1
I0528 22:35:35.734031 58676 net.cpp:406] layer_512_2_bn1 <- layer_512_1_sum_layer_512_1_sum_0_split_0
I0528 22:35:35.734036 58676 net.cpp:380] layer_512_2_bn1 -> layer_512_2_bn1
I0528 22:35:35.734318 58676 net.cpp:122] Setting up layer_512_2_bn1
I0528 22:35:35.734326 58676 net.cpp:129] Top shape: 10 2048 7 7 (1003520)
I0528 22:35:35.734329 58676 net.cpp:137] Memory required for data: 2221793400
I0528 22:35:35.734338 58676 layer_factory.hpp:77] Creating layer layer_512_2_scale1
I0528 22:35:35.734344 58676 net.cpp:84] Creating Layer layer_512_2_scale1
I0528 22:35:35.734347 58676 net.cpp:406] layer_512_2_scale1 <- layer_512_2_bn1
I0528 22:35:35.734354 58676 net.cpp:367] layer_512_2_scale1 -> layer_512_2_bn1 (in-place)
I0528 22:35:35.734417 58676 layer_factory.hpp:77] Creating layer layer_512_2_scale1
I0528 22:35:35.734585 58676 net.cpp:122] Setting up layer_512_2_scale1
I0528 22:35:35.734597 58676 net.cpp:129] Top shape: 10 2048 7 7 (1003520)
I0528 22:35:35.734601 58676 net.cpp:137] Memory required for data: 2225807480
I0528 22:35:35.734607 58676 layer_factory.hpp:77] Creating layer layer_512_2_relu1
I0528 22:35:35.734613 58676 net.cpp:84] Creating Layer layer_512_2_relu1
I0528 22:35:35.734617 58676 net.cpp:406] layer_512_2_relu1 <- layer_512_2_bn1
I0528 22:35:35.734622 58676 net.cpp:367] layer_512_2_relu1 -> layer_512_2_bn1 (in-place)
I0528 22:35:35.735333 58676 net.cpp:122] Setting up layer_512_2_relu1
I0528 22:35:35.735347 58676 net.cpp:129] Top shape: 10 2048 7 7 (1003520)
I0528 22:35:35.735352 58676 net.cpp:137] Memory required for data: 2229821560
I0528 22:35:35.735355 58676 layer_factory.hpp:77] Creating layer layer_512_2_conv1
I0528 22:35:35.735366 58676 net.cpp:84] Creating Layer layer_512_2_conv1
I0528 22:35:35.735371 58676 net.cpp:406] layer_512_2_conv1 <- layer_512_2_bn1
I0528 22:35:35.735379 58676 net.cpp:380] layer_512_2_conv1 -> layer_512_2_conv1
I0528 22:35:35.768961 58676 net.cpp:122] Setting up layer_512_2_conv1
I0528 22:35:35.768981 58676 net.cpp:129] Top shape: 10 512 7 7 (250880)
I0528 22:35:35.768985 58676 net.cpp:137] Memory required for data: 2230825080
I0528 22:35:35.768997 58676 layer_factory.hpp:77] Creating layer layer_512_2_bn2
I0528 22:35:35.769012 58676 net.cpp:84] Creating Layer layer_512_2_bn2
I0528 22:35:35.769017 58676 net.cpp:406] layer_512_2_bn2 <- layer_512_2_conv1
I0528 22:35:35.769024 58676 net.cpp:367] layer_512_2_bn2 -> layer_512_2_conv1 (in-place)
I0528 22:35:35.769289 58676 net.cpp:122] Setting up layer_512_2_bn2
I0528 22:35:35.769297 58676 net.cpp:129] Top shape: 10 512 7 7 (250880)
I0528 22:35:35.769300 58676 net.cpp:137] Memory required for data: 2231828600
I0528 22:35:35.769307 58676 layer_factory.hpp:77] Creating layer layer_512_2_scale2
I0528 22:35:35.769315 58676 net.cpp:84] Creating Layer layer_512_2_scale2
I0528 22:35:35.769318 58676 net.cpp:406] layer_512_2_scale2 <- layer_512_2_conv1
I0528 22:35:35.769323 58676 net.cpp:367] layer_512_2_scale2 -> layer_512_2_conv1 (in-place)
I0528 22:35:35.769384 58676 layer_factory.hpp:77] Creating layer layer_512_2_scale2
I0528 22:35:35.769539 58676 net.cpp:122] Setting up layer_512_2_scale2
I0528 22:35:35.769547 58676 net.cpp:129] Top shape: 10 512 7 7 (250880)
I0528 22:35:35.769556 58676 net.cpp:137] Memory required for data: 2232832120
I0528 22:35:35.769567 58676 layer_factory.hpp:77] Creating layer layer_512_2_relu2
I0528 22:35:35.769572 58676 net.cpp:84] Creating Layer layer_512_2_relu2
I0528 22:35:35.769577 58676 net.cpp:406] layer_512_2_relu2 <- layer_512_2_conv1
I0528 22:35:35.769582 58676 net.cpp:367] layer_512_2_relu2 -> layer_512_2_conv1 (in-place)
I0528 22:35:35.770269 58676 net.cpp:122] Setting up layer_512_2_relu2
I0528 22:35:35.770283 58676 net.cpp:129] Top shape: 10 512 7 7 (250880)
I0528 22:35:35.770287 58676 net.cpp:137] Memory required for data: 2233835640
I0528 22:35:35.770292 58676 layer_factory.hpp:77] Creating layer layer_512_2_conv2
I0528 22:35:35.770303 58676 net.cpp:84] Creating Layer layer_512_2_conv2
I0528 22:35:35.770308 58676 net.cpp:406] layer_512_2_conv2 <- layer_512_2_conv1
I0528 22:35:35.770314 58676 net.cpp:380] layer_512_2_conv2 -> layer_512_2_conv2
I0528 22:35:35.844424 58676 net.cpp:122] Setting up layer_512_2_conv2
I0528 22:35:35.844445 58676 net.cpp:129] Top shape: 10 512 7 7 (250880)
I0528 22:35:35.844449 58676 net.cpp:137] Memory required for data: 2234839160
I0528 22:35:35.844455 58676 layer_factory.hpp:77] Creating layer layer_512_2_bn3
I0528 22:35:35.844463 58676 net.cpp:84] Creating Layer layer_512_2_bn3
I0528 22:35:35.844470 58676 net.cpp:406] layer_512_2_bn3 <- layer_512_2_conv2
I0528 22:35:35.844476 58676 net.cpp:367] layer_512_2_bn3 -> layer_512_2_conv2 (in-place)
I0528 22:35:35.844753 58676 net.cpp:122] Setting up layer_512_2_bn3
I0528 22:35:35.844765 58676 net.cpp:129] Top shape: 10 512 7 7 (250880)
I0528 22:35:35.844769 58676 net.cpp:137] Memory required for data: 2235842680
I0528 22:35:35.844775 58676 layer_factory.hpp:77] Creating layer layer_512_2_scale3
I0528 22:35:35.844782 58676 net.cpp:84] Creating Layer layer_512_2_scale3
I0528 22:35:35.844786 58676 net.cpp:406] layer_512_2_scale3 <- layer_512_2_conv2
I0528 22:35:35.844791 58676 net.cpp:367] layer_512_2_scale3 -> layer_512_2_conv2 (in-place)
I0528 22:35:35.844852 58676 layer_factory.hpp:77] Creating layer layer_512_2_scale3
I0528 22:35:35.845012 58676 net.cpp:122] Setting up layer_512_2_scale3
I0528 22:35:35.845021 58676 net.cpp:129] Top shape: 10 512 7 7 (250880)
I0528 22:35:35.845024 58676 net.cpp:137] Memory required for data: 2236846200
I0528 22:35:35.845031 58676 layer_factory.hpp:77] Creating layer layer_512_2_relu3
I0528 22:35:35.845036 58676 net.cpp:84] Creating Layer layer_512_2_relu3
I0528 22:35:35.845041 58676 net.cpp:406] layer_512_2_relu3 <- layer_512_2_conv2
I0528 22:35:35.845046 58676 net.cpp:367] layer_512_2_relu3 -> layer_512_2_conv2 (in-place)
I0528 22:35:35.845268 58676 net.cpp:122] Setting up layer_512_2_relu3
I0528 22:35:35.845278 58676 net.cpp:129] Top shape: 10 512 7 7 (250880)
I0528 22:35:35.845281 58676 net.cpp:137] Memory required for data: 2237849720
I0528 22:35:35.845284 58676 layer_factory.hpp:77] Creating layer layer_512_2_conv3
I0528 22:35:35.845295 58676 net.cpp:84] Creating Layer layer_512_2_conv3
I0528 22:35:35.845312 58676 net.cpp:406] layer_512_2_conv3 <- layer_512_2_conv2
I0528 22:35:35.845320 58676 net.cpp:380] layer_512_2_conv3 -> layer_512_2_conv3
I0528 22:35:35.879374 58676 net.cpp:122] Setting up layer_512_2_conv3
I0528 22:35:35.879391 58676 net.cpp:129] Top shape: 10 2048 7 7 (1003520)
I0528 22:35:35.879395 58676 net.cpp:137] Memory required for data: 2241863800
I0528 22:35:35.879401 58676 layer_factory.hpp:77] Creating layer layer_512_2_sum
I0528 22:35:35.879408 58676 net.cpp:84] Creating Layer layer_512_2_sum
I0528 22:35:35.879412 58676 net.cpp:406] layer_512_2_sum <- layer_512_2_conv3
I0528 22:35:35.879420 58676 net.cpp:406] layer_512_2_sum <- layer_512_1_sum_layer_512_1_sum_0_split_1
I0528 22:35:35.879426 58676 net.cpp:380] layer_512_2_sum -> layer_512_2_sum
I0528 22:35:35.879462 58676 net.cpp:122] Setting up layer_512_2_sum
I0528 22:35:35.879470 58676 net.cpp:129] Top shape: 10 2048 7 7 (1003520)
I0528 22:35:35.879474 58676 net.cpp:137] Memory required for data: 2245877880
I0528 22:35:35.879477 58676 layer_factory.hpp:77] Creating layer layer_512_2_sum_layer_512_2_sum_0_split
I0528 22:35:35.879483 58676 net.cpp:84] Creating Layer layer_512_2_sum_layer_512_2_sum_0_split
I0528 22:35:35.879487 58676 net.cpp:406] layer_512_2_sum_layer_512_2_sum_0_split <- layer_512_2_sum
I0528 22:35:35.879492 58676 net.cpp:380] layer_512_2_sum_layer_512_2_sum_0_split -> layer_512_2_sum_layer_512_2_sum_0_split_0
I0528 22:35:35.879498 58676 net.cpp:380] layer_512_2_sum_layer_512_2_sum_0_split -> layer_512_2_sum_layer_512_2_sum_0_split_1
I0528 22:35:35.879544 58676 net.cpp:122] Setting up layer_512_2_sum_layer_512_2_sum_0_split
I0528 22:35:35.879557 58676 net.cpp:129] Top shape: 10 2048 7 7 (1003520)
I0528 22:35:35.879565 58676 net.cpp:129] Top shape: 10 2048 7 7 (1003520)
I0528 22:35:35.879567 58676 net.cpp:137] Memory required for data: 2253906040
I0528 22:35:35.879570 58676 layer_factory.hpp:77] Creating layer layer_512_3_bn1
I0528 22:35:35.879578 58676 net.cpp:84] Creating Layer layer_512_3_bn1
I0528 22:35:35.879582 58676 net.cpp:406] layer_512_3_bn1 <- layer_512_2_sum_layer_512_2_sum_0_split_0
I0528 22:35:35.879588 58676 net.cpp:380] layer_512_3_bn1 -> layer_512_3_bn1
I0528 22:35:35.879863 58676 net.cpp:122] Setting up layer_512_3_bn1
I0528 22:35:35.879871 58676 net.cpp:129] Top shape: 10 2048 7 7 (1003520)
I0528 22:35:35.879874 58676 net.cpp:137] Memory required for data: 2257920120
I0528 22:35:35.879881 58676 layer_factory.hpp:77] Creating layer layer_512_3_scale1
I0528 22:35:35.879889 58676 net.cpp:84] Creating Layer layer_512_3_scale1
I0528 22:35:35.879892 58676 net.cpp:406] layer_512_3_scale1 <- layer_512_3_bn1
I0528 22:35:35.879899 58676 net.cpp:367] layer_512_3_scale1 -> layer_512_3_bn1 (in-place)
I0528 22:35:35.879961 58676 layer_factory.hpp:77] Creating layer layer_512_3_scale1
I0528 22:35:35.880126 58676 net.cpp:122] Setting up layer_512_3_scale1
I0528 22:35:35.880136 58676 net.cpp:129] Top shape: 10 2048 7 7 (1003520)
I0528 22:35:35.880139 58676 net.cpp:137] Memory required for data: 2261934200
I0528 22:35:35.880146 58676 layer_factory.hpp:77] Creating layer layer_512_3_relu1
I0528 22:35:35.880151 58676 net.cpp:84] Creating Layer layer_512_3_relu1
I0528 22:35:35.880154 58676 net.cpp:406] layer_512_3_relu1 <- layer_512_3_bn1
I0528 22:35:35.880159 58676 net.cpp:367] layer_512_3_relu1 -> layer_512_3_bn1 (in-place)
I0528 22:35:35.880858 58676 net.cpp:122] Setting up layer_512_3_relu1
I0528 22:35:35.880875 58676 net.cpp:129] Top shape: 10 2048 7 7 (1003520)
I0528 22:35:35.880879 58676 net.cpp:137] Memory required for data: 2265948280
I0528 22:35:35.880883 58676 layer_factory.hpp:77] Creating layer layer_512_3_conv1
I0528 22:35:35.880894 58676 net.cpp:84] Creating Layer layer_512_3_conv1
I0528 22:35:35.880899 58676 net.cpp:406] layer_512_3_conv1 <- layer_512_3_bn1
I0528 22:35:35.880908 58676 net.cpp:380] layer_512_3_conv1 -> layer_512_3_conv1
I0528 22:35:35.914512 58676 net.cpp:122] Setting up layer_512_3_conv1
I0528 22:35:35.914531 58676 net.cpp:129] Top shape: 10 512 7 7 (250880)
I0528 22:35:35.914541 58676 net.cpp:137] Memory required for data: 2266951800
I0528 22:35:35.914559 58676 layer_factory.hpp:77] Creating layer layer_512_3_bn2
I0528 22:35:35.914568 58676 net.cpp:84] Creating Layer layer_512_3_bn2
I0528 22:35:35.914573 58676 net.cpp:406] layer_512_3_bn2 <- layer_512_3_conv1
I0528 22:35:35.914582 58676 net.cpp:367] layer_512_3_bn2 -> layer_512_3_conv1 (in-place)
I0528 22:35:35.914847 58676 net.cpp:122] Setting up layer_512_3_bn2
I0528 22:35:35.914856 58676 net.cpp:129] Top shape: 10 512 7 7 (250880)
I0528 22:35:35.914860 58676 net.cpp:137] Memory required for data: 2267955320
I0528 22:35:35.914867 58676 layer_factory.hpp:77] Creating layer layer_512_3_scale2
I0528 22:35:35.914875 58676 net.cpp:84] Creating Layer layer_512_3_scale2
I0528 22:35:35.914878 58676 net.cpp:406] layer_512_3_scale2 <- layer_512_3_conv1
I0528 22:35:35.914883 58676 net.cpp:367] layer_512_3_scale2 -> layer_512_3_conv1 (in-place)
I0528 22:35:35.914943 58676 layer_factory.hpp:77] Creating layer layer_512_3_scale2
I0528 22:35:35.915104 58676 net.cpp:122] Setting up layer_512_3_scale2
I0528 22:35:35.915112 58676 net.cpp:129] Top shape: 10 512 7 7 (250880)
I0528 22:35:35.915115 58676 net.cpp:137] Memory required for data: 2268958840
I0528 22:35:35.915122 58676 layer_factory.hpp:77] Creating layer layer_512_3_relu2
I0528 22:35:35.915127 58676 net.cpp:84] Creating Layer layer_512_3_relu2
I0528 22:35:35.915132 58676 net.cpp:406] layer_512_3_relu2 <- layer_512_3_conv1
I0528 22:35:35.915138 58676 net.cpp:367] layer_512_3_relu2 -> layer_512_3_conv1 (in-place)
I0528 22:35:35.915835 58676 net.cpp:122] Setting up layer_512_3_relu2
I0528 22:35:35.915851 58676 net.cpp:129] Top shape: 10 512 7 7 (250880)
I0528 22:35:35.915855 58676 net.cpp:137] Memory required for data: 2269962360
I0528 22:35:35.915859 58676 layer_factory.hpp:77] Creating layer layer_512_3_conv2
I0528 22:35:35.915871 58676 net.cpp:84] Creating Layer layer_512_3_conv2
I0528 22:35:35.915876 58676 net.cpp:406] layer_512_3_conv2 <- layer_512_3_conv1
I0528 22:35:35.915884 58676 net.cpp:380] layer_512_3_conv2 -> layer_512_3_conv2
I0528 22:35:35.990473 58676 net.cpp:122] Setting up layer_512_3_conv2
I0528 22:35:35.990494 58676 net.cpp:129] Top shape: 10 512 7 7 (250880)
I0528 22:35:35.990499 58676 net.cpp:137] Memory required for data: 2270965880
I0528 22:35:35.990504 58676 layer_factory.hpp:77] Creating layer layer_512_3_bn3
I0528 22:35:35.990511 58676 net.cpp:84] Creating Layer layer_512_3_bn3
I0528 22:35:35.990515 58676 net.cpp:406] layer_512_3_bn3 <- layer_512_3_conv2
I0528 22:35:35.990525 58676 net.cpp:367] layer_512_3_bn3 -> layer_512_3_conv2 (in-place)
I0528 22:35:35.990799 58676 net.cpp:122] Setting up layer_512_3_bn3
I0528 22:35:35.990811 58676 net.cpp:129] Top shape: 10 512 7 7 (250880)
I0528 22:35:35.990814 58676 net.cpp:137] Memory required for data: 2271969400
I0528 22:35:35.990823 58676 layer_factory.hpp:77] Creating layer layer_512_3_scale3
I0528 22:35:35.990830 58676 net.cpp:84] Creating Layer layer_512_3_scale3
I0528 22:35:35.990834 58676 net.cpp:406] layer_512_3_scale3 <- layer_512_3_conv2
I0528 22:35:35.990840 58676 net.cpp:367] layer_512_3_scale3 -> layer_512_3_conv2 (in-place)
I0528 22:35:35.990900 58676 layer_factory.hpp:77] Creating layer layer_512_3_scale3
I0528 22:35:35.991060 58676 net.cpp:122] Setting up layer_512_3_scale3
I0528 22:35:35.991068 58676 net.cpp:129] Top shape: 10 512 7 7 (250880)
I0528 22:35:35.991071 58676 net.cpp:137] Memory required for data: 2272972920
I0528 22:35:35.991077 58676 layer_factory.hpp:77] Creating layer layer_512_3_relu3
I0528 22:35:35.991083 58676 net.cpp:84] Creating Layer layer_512_3_relu3
I0528 22:35:35.991087 58676 net.cpp:406] layer_512_3_relu3 <- layer_512_3_conv2
I0528 22:35:35.991092 58676 net.cpp:367] layer_512_3_relu3 -> layer_512_3_conv2 (in-place)
I0528 22:35:35.991328 58676 net.cpp:122] Setting up layer_512_3_relu3
I0528 22:35:35.991338 58676 net.cpp:129] Top shape: 10 512 7 7 (250880)
I0528 22:35:35.991343 58676 net.cpp:137] Memory required for data: 2273976440
I0528 22:35:35.991346 58676 layer_factory.hpp:77] Creating layer layer_512_3_conv3
I0528 22:35:35.991369 58676 net.cpp:84] Creating Layer layer_512_3_conv3
I0528 22:35:35.991374 58676 net.cpp:406] layer_512_3_conv3 <- layer_512_3_conv2
I0528 22:35:35.991382 58676 net.cpp:380] layer_512_3_conv3 -> layer_512_3_conv3
I0528 22:35:36.027848 58676 net.cpp:122] Setting up layer_512_3_conv3
I0528 22:35:36.027870 58676 net.cpp:129] Top shape: 10 2048 7 7 (1003520)
I0528 22:35:36.027875 58676 net.cpp:137] Memory required for data: 2277990520
I0528 22:35:36.027889 58676 layer_factory.hpp:77] Creating layer layer_512_3_sum
I0528 22:35:36.027899 58676 net.cpp:84] Creating Layer layer_512_3_sum
I0528 22:35:36.027911 58676 net.cpp:406] layer_512_3_sum <- layer_512_3_conv3
I0528 22:35:36.027918 58676 net.cpp:406] layer_512_3_sum <- layer_512_2_sum_layer_512_2_sum_0_split_1
I0528 22:35:36.027926 58676 net.cpp:380] layer_512_3_sum -> layer_512_3_sum
I0528 22:35:36.027966 58676 net.cpp:122] Setting up layer_512_3_sum
I0528 22:35:36.027974 58676 net.cpp:129] Top shape: 10 2048 7 7 (1003520)
I0528 22:35:36.027978 58676 net.cpp:137] Memory required for data: 2282004600
I0528 22:35:36.027981 58676 layer_factory.hpp:77] Creating layer last_bn
I0528 22:35:36.027989 58676 net.cpp:84] Creating Layer last_bn
I0528 22:35:36.027993 58676 net.cpp:406] last_bn <- layer_512_3_sum
I0528 22:35:36.027999 58676 net.cpp:367] last_bn -> layer_512_3_sum (in-place)
I0528 22:35:36.028354 58676 net.cpp:122] Setting up last_bn
I0528 22:35:36.028363 58676 net.cpp:129] Top shape: 10 2048 7 7 (1003520)
I0528 22:35:36.028367 58676 net.cpp:137] Memory required for data: 2286018680
I0528 22:35:36.028373 58676 layer_factory.hpp:77] Creating layer last_scale
I0528 22:35:36.028381 58676 net.cpp:84] Creating Layer last_scale
I0528 22:35:36.028385 58676 net.cpp:406] last_scale <- layer_512_3_sum
I0528 22:35:36.028390 58676 net.cpp:367] last_scale -> layer_512_3_sum (in-place)
I0528 22:35:36.028472 58676 layer_factory.hpp:77] Creating layer last_scale
I0528 22:35:36.028648 58676 net.cpp:122] Setting up last_scale
I0528 22:35:36.028661 58676 net.cpp:129] Top shape: 10 2048 7 7 (1003520)
I0528 22:35:36.028663 58676 net.cpp:137] Memory required for data: 2290032760
I0528 22:35:36.028671 58676 layer_factory.hpp:77] Creating layer last_relu
I0528 22:35:36.028676 58676 net.cpp:84] Creating Layer last_relu
I0528 22:35:36.028681 58676 net.cpp:406] last_relu <- layer_512_3_sum
I0528 22:35:36.028687 58676 net.cpp:367] last_relu -> layer_512_3_sum (in-place)
I0528 22:35:36.029379 58676 net.cpp:122] Setting up last_relu
I0528 22:35:36.029393 58676 net.cpp:129] Top shape: 10 2048 7 7 (1003520)
I0528 22:35:36.029397 58676 net.cpp:137] Memory required for data: 2294046840
I0528 22:35:36.029402 58676 layer_factory.hpp:77] Creating layer global_pool
I0528 22:35:36.029408 58676 net.cpp:84] Creating Layer global_pool
I0528 22:35:36.029413 58676 net.cpp:406] global_pool <- layer_512_3_sum
I0528 22:35:36.029426 58676 net.cpp:380] global_pool -> global_pool
I0528 22:35:36.029681 58676 net.cpp:122] Setting up global_pool
I0528 22:35:36.029695 58676 net.cpp:129] Top shape: 10 2048 1 1 (20480)
I0528 22:35:36.029700 58676 net.cpp:137] Memory required for data: 2294128760
I0528 22:35:36.029702 58676 layer_factory.hpp:77] Creating layer score
I0528 22:35:36.029712 58676 net.cpp:84] Creating Layer score
I0528 22:35:36.029718 58676 net.cpp:406] score <- global_pool
I0528 22:35:36.029731 58676 net.cpp:380] score -> score
I0528 22:35:36.029923 58676 net.cpp:122] Setting up score
I0528 22:35:36.029932 58676 net.cpp:129] Top shape: 10 8 (80)
I0528 22:35:36.029935 58676 net.cpp:137] Memory required for data: 2294129080
I0528 22:35:36.029942 58676 layer_factory.hpp:77] Creating layer score_score_0_split
I0528 22:35:36.029947 58676 net.cpp:84] Creating Layer score_score_0_split
I0528 22:35:36.029952 58676 net.cpp:406] score_score_0_split <- score
I0528 22:35:36.029956 58676 net.cpp:380] score_score_0_split -> score_score_0_split_0
I0528 22:35:36.029963 58676 net.cpp:380] score_score_0_split -> score_score_0_split_1
I0528 22:35:36.030020 58676 net.cpp:122] Setting up score_score_0_split
I0528 22:35:36.030040 58676 net.cpp:129] Top shape: 10 8 (80)
I0528 22:35:36.030045 58676 net.cpp:129] Top shape: 10 8 (80)
I0528 22:35:36.030047 58676 net.cpp:137] Memory required for data: 2294129720
I0528 22:35:36.030051 58676 layer_factory.hpp:77] Creating layer loss
I0528 22:35:36.030059 58676 net.cpp:84] Creating Layer loss
I0528 22:35:36.030063 58676 net.cpp:406] loss <- score_score_0_split_0
I0528 22:35:36.030068 58676 net.cpp:406] loss <- label_data_1_split_0
I0528 22:35:36.030073 58676 net.cpp:380] loss -> loss
…
