…
I0522 13:02:21.406577  3733 net.cpp:51] Initializing net from parameters: 
name: "CaffeNet"
state {
  phase: TRAIN
  level: 0
  stage: ""
}
layer {
  name: "data"
  type: "Data"
  top: "data"
  top: "label"
  include {
    phase: TRAIN
  }
  transform_param {
    mirror: true
    crop_size: 227
    mean_file: "/home/k/PycharmProjects/AgeGenderDeepLearning-master/Folds/lmdb/Test_fold_is_3/mean.binaryproto"
  }
  data_param {
    source: "/home/k/PycharmProjects/AgeGenderDeepLearning-master/Folds/lmdb/Test_fold_is_3/gender_train_lmdb"
    batch_size: 50
    backend: LMDB
  }
}
layer {
  name: "conv1"
  type: "Convolution"
  bottom: "data"
  top: "conv1"
  param {
    lr_mult: 1
    decay_mult: 1
  }
  param {
    lr_mult: 2
    decay_mult: 0
  }
  convolution_param {
    num_output: 96
    kernel_size: 7
    stride: 4
    weight_filler {
      type: "gaussian"
      std: 0.01
    }
    bias_filler {
      type: "constant"
      value: 0
    }
  }
}
layer {
  name: "relu1"
  type: "ReLU"
  bottom: "conv1"
  top: "conv1"
}
layer {
  name: "pool1"
  type: "Pooling"
  bottom: "conv1"
  top: "pool1"
  pooling_param {
    pool: MAX
    kernel_size: 3
    stride: 2
  }
}
layer {
  name: "norm1"
  type: "LRN"
  bottom: "pool1"
  top: "norm1"
  lrn_param {
    local_size: 5
    alpha: 0.0001
    beta: 0.75
  }
}
layer {
  name: "conv2"
  type: "Convolution"
  bottom: "norm1"
  top: "conv2"
  param {
    lr_mult: 1
    decay_mult: 1
  }
  param {
    lr_mult: 2
    decay_mult: 0
  }
  convolution_param {
    num_output: 256
    pad: 2
    kernel_size: 5
    weight_filler {
      type: "gaussian"
      std: 0.01
    }
    bias_filler {
      type: "constant"
      value: 1
    }
  }
}
layer {
  name: "relu2"
  type: "ReLU"
  bottom: "conv2"
  top: "conv2"
}
layer {
  name: "pool2"
  type: "Pooling"
  bottom: "conv2"
  top: "pool2"
  pooling_param {
    pool: MAX
    kernel_size: 3
    stride: 2
  }
}
layer {
  name: "norm2"
  type: "LRN"
  bottom: "pool2"
  top: "norm2"
  lrn_param {
    local_size: 5
    alpha: 0.0001
    beta: 0.75
  }
}
layer {
  name: "conv3"
  type: "Convolution"
  bottom: "norm2"
  top: "conv3"
  param {
    lr_mult: 1
    decay_mult: 1
  }
  param {
    lr_mult: 2
    decay_mult: 0
  }
  convolution_param {
    num_output: 384
    pad: 1
    kernel_size: 3
    weight_filler {
      type: "gaussian"
      std: 0.01
    }
    bias_filler {
      type: "constant"
      value: 0
    }
  }
}
layer {
  name: "relu3"
  type: "ReLU"
  bottom: "conv3"
  top: "conv3"
}
layer {
  name: "pool5"
  type: "Pooling"
  bottom: "conv3"
  top: "pool5"
  pooling_param {
    pool: MAX
    kernel_size: 3
    stride: 2
  }
}
layer {
  name: "fc6"
  type: "InnerProduct"
  bottom: "pool5"
  top: "fc6"
  param {
    lr_mult: 1
    decay_mult: 1
  }
  param {
    lr_mult: 2
    decay_mult: 0
  }
  inner_product_param {
    num_output: 512
    weight_filler {
      type: "gaussian"
      std: 0.005
    }
    bias_filler {
      type: "constant"
      value: 1
    }
  }
}
layer {
  name: "relu6"
  type: "ReLU"
  bottom: "fc6"
  top: "fc6"
}
layer {
  name: "drop6"
  type: "Dropout"
  bottom: "fc6"
  top: "fc6"
  dropout_param {
    dropout_ratio: 0.5
  }
}
layer {
  name: "fc7"
  type: "InnerProduct"
  bottom: "fc6"
  top: "fc7"
  param {
    lr_mult: 1
    decay_mult: 1
  }
  param {
    lr_mult: 2
    decay_mult: 0
  }
  inner_product_param {
    num_output: 512
    weight_filler {
      type: "gaussian"
      std: 0.005
    }
    bias_filler {
      type: "constant"
      value: 1
    }
  }
}
layer {
  name: "relu7"
  type: "ReLU"
  bottom: "fc7"
  top: "fc7"
}
layer {
  name: "drop7"
  type: "Dropout"
  bottom: "fc7"
  top: "fc7"
  dropout_param {
    dropout_ratio: 0.5
  }
}
layer {
  name: "fc8"
  type: "InnerProduct"
  bottom: "fc7"
  top: "fc8"
  param {
    lr_mult: 10
    decay_mult: 1
  }
  param {
    lr_mult: 20
    decay_mult: 0
  }
  inner_product_param {
    num_output: 2
    weight_filler {
      type: "gaussian"
      std: 0.01
    }
    bias_filler {
      type: "constant"
      value: 0
    }
  }
}
layer {
  name: "loss"
  type: "SoftmaxWithLoss"
  bottom: "fc8"
  bottom: "label"
  top: "loss"
}
I0522 13:02:21.406743  3733 layer_factory.hpp:77] Creating layer data
I0522 13:02:21.467314  3733 db_lmdb.cpp:35] Opened lmdb /home/k/PycharmProjects/AgeGenderDeepLearning-master/Folds/lmdb/Test_fold_is_3/gender_train_lmdb
I0522 13:02:21.482888  3733 net.cpp:84] Creating Layer data
I0522 13:02:21.482931  3733 net.cpp:380] data -> data
I0522 13:02:21.482965  3733 net.cpp:380] data -> label
I0522 13:02:21.482991  3733 data_transformer.cpp:25] Loading mean file from: /home/k/PycharmProjects/AgeGenderDeepLearning-master/Folds/lmdb/Test_fold_is_3/mean.binaryproto
I0522 13:02:21.490814  3733 data_layer.cpp:45] output data size: 50,3,227,227
I0522 13:02:21.583050  3733 net.cpp:122] Setting up data
I0522 13:02:21.583099  3733 net.cpp:129] Top shape: 50 3 227 227 (7729350)
I0522 13:02:21.583106  3733 net.cpp:129] Top shape: 50 (50)
I0522 13:02:21.583109  3733 net.cpp:137] Memory required for data: 30917600
I0522 13:02:21.583120  3733 layer_factory.hpp:77] Creating layer conv1
I0522 13:02:21.583140  3733 net.cpp:84] Creating Layer conv1
I0522 13:02:21.583148  3733 net.cpp:406] conv1 <- data
I0522 13:02:21.583160  3733 net.cpp:380] conv1 -> conv1
I0522 13:02:21.849800  3733 net.cpp:122] Setting up conv1
I0522 13:02:21.849853  3733 net.cpp:129] Top shape: 50 96 56 56 (15052800)
I0522 13:02:21.849858  3733 net.cpp:137] Memory required for data: 91128800
I0522 13:02:21.849881  3733 layer_factory.hpp:77] Creating layer relu1
I0522 13:02:21.849895  3733 net.cpp:84] Creating Layer relu1
I0522 13:02:21.849901  3733 net.cpp:406] relu1 <- conv1
I0522 13:02:21.849911  3733 net.cpp:367] relu1 -> conv1 (in-place)
I0522 13:02:21.850076  3733 net.cpp:122] Setting up relu1
I0522 13:02:21.850086  3733 net.cpp:129] Top shape: 50 96 56 56 (15052800)
I0522 13:02:21.850090  3733 net.cpp:137] Memory required for data: 151340000
I0522 13:02:21.850092  3733 layer_factory.hpp:77] Creating layer pool1
I0522 13:02:21.850100  3733 net.cpp:84] Creating Layer pool1
I0522 13:02:21.850116  3733 net.cpp:406] pool1 <- conv1
I0522 13:02:21.850121  3733 net.cpp:380] pool1 -> pool1
I0522 13:02:21.850163  3733 net.cpp:122] Setting up pool1
I0522 13:02:21.850172  3733 net.cpp:129] Top shape: 50 96 28 28 (3763200)
I0522 13:02:21.850175  3733 net.cpp:137] Memory required for data: 166392800
I0522 13:02:21.850178  3733 layer_factory.hpp:77] Creating layer norm1
I0522 13:02:21.850188  3733 net.cpp:84] Creating Layer norm1
I0522 13:02:21.850191  3733 net.cpp:406] norm1 <- pool1
I0522 13:02:21.850196  3733 net.cpp:380] norm1 -> norm1
I0522 13:02:21.850975  3733 net.cpp:122] Setting up norm1
I0522 13:02:21.850988  3733 net.cpp:129] Top shape: 50 96 28 28 (3763200)
I0522 13:02:21.850992  3733 net.cpp:137] Memory required for data: 181445600
I0522 13:02:21.850996  3733 layer_factory.hpp:77] Creating layer conv2
I0522 13:02:21.851008  3733 net.cpp:84] Creating Layer conv2
I0522 13:02:21.851013  3733 net.cpp:406] conv2 <- norm1
I0522 13:02:21.851034  3733 net.cpp:380] conv2 -> conv2
I0522 13:02:21.859659  3733 net.cpp:122] Setting up conv2
I0522 13:02:21.859681  3733 net.cpp:129] Top shape: 50 256 28 28 (10035200)
I0522 13:02:21.859685  3733 net.cpp:137] Memory required for data: 221586400
I0522 13:02:21.859696  3733 layer_factory.hpp:77] Creating layer relu2
I0522 13:02:21.859704  3733 net.cpp:84] Creating Layer relu2
I0522 13:02:21.859709  3733 net.cpp:406] relu2 <- conv2
I0522 13:02:21.859725  3733 net.cpp:367] relu2 -> conv2 (in-place)
I0522 13:02:21.859875  3733 net.cpp:122] Setting up relu2
I0522 13:02:21.859885  3733 net.cpp:129] Top shape: 50 256 28 28 (10035200)
I0522 13:02:21.859889  3733 net.cpp:137] Memory required for data: 261727200
I0522 13:02:21.859892  3733 layer_factory.hpp:77] Creating layer pool2
I0522 13:02:21.859899  3733 net.cpp:84] Creating Layer pool2
I0522 13:02:21.859901  3733 net.cpp:406] pool2 <- conv2
I0522 13:02:21.859906  3733 net.cpp:380] pool2 -> pool2
I0522 13:02:21.859953  3733 net.cpp:122] Setting up pool2
I0522 13:02:21.859961  3733 net.cpp:129] Top shape: 50 256 14 14 (2508800)
I0522 13:02:21.859966  3733 net.cpp:137] Memory required for data: 271762400
I0522 13:02:21.859968  3733 layer_factory.hpp:77] Creating layer norm2
I0522 13:02:21.859977  3733 net.cpp:84] Creating Layer norm2
I0522 13:02:21.859982  3733 net.cpp:406] norm2 <- pool2
I0522 13:02:21.859987  3733 net.cpp:380] norm2 -> norm2
I0522 13:02:21.860148  3733 net.cpp:122] Setting up norm2
I0522 13:02:21.860157  3733 net.cpp:129] Top shape: 50 256 14 14 (2508800)
I0522 13:02:21.860162  3733 net.cpp:137] Memory required for data: 281797600
I0522 13:02:21.860164  3733 layer_factory.hpp:77] Creating layer conv3
I0522 13:02:21.860184  3733 net.cpp:84] Creating Layer conv3
I0522 13:02:21.860189  3733 net.cpp:406] conv3 <- norm2
I0522 13:02:21.860195  3733 net.cpp:380] conv3 -> conv3
I0522 13:02:21.872083  3733 net.cpp:122] Setting up conv3
I0522 13:02:21.872120  3733 net.cpp:129] Top shape: 50 384 14 14 (3763200)
I0522 13:02:21.872125  3733 net.cpp:137] Memory required for data: 296850400
I0522 13:02:21.872138  3733 layer_factory.hpp:77] Creating layer relu3
I0522 13:02:21.872148  3733 net.cpp:84] Creating Layer relu3
I0522 13:02:21.872151  3733 net.cpp:406] relu3 <- conv3
I0522 13:02:21.872158  3733 net.cpp:367] relu3 -> conv3 (in-place)
I0522 13:02:21.872310  3733 net.cpp:122] Setting up relu3
I0522 13:02:21.872320  3733 net.cpp:129] Top shape: 50 384 14 14 (3763200)
I0522 13:02:21.872323  3733 net.cpp:137] Memory required for data: 311903200
I0522 13:02:21.872328  3733 layer_factory.hpp:77] Creating layer pool5
I0522 13:02:21.872345  3733 net.cpp:84] Creating Layer pool5
I0522 13:02:21.872349  3733 net.cpp:406] pool5 <- conv3
I0522 13:02:21.872354  3733 net.cpp:380] pool5 -> pool5
I0522 13:02:21.872397  3733 net.cpp:122] Setting up pool5
I0522 13:02:21.872406  3733 net.cpp:129] Top shape: 50 384 7 7 (940800)
I0522 13:02:21.872408  3733 net.cpp:137] Memory required for data: 315666400
I0522 13:02:21.872412  3733 layer_factory.hpp:77] Creating layer fc6
I0522 13:02:21.872419  3733 net.cpp:84] Creating Layer fc6
I0522 13:02:21.872423  3733 net.cpp:406] fc6 <- pool5
I0522 13:02:21.872428  3733 net.cpp:380] fc6 -> fc6
I0522 13:02:21.976258  3733 net.cpp:122] Setting up fc6
I0522 13:02:21.976295  3733 net.cpp:129] Top shape: 50 512 (25600)
I0522 13:02:21.976300  3733 net.cpp:137] Memory required for data: 315768800
I0522 13:02:21.976310  3733 layer_factory.hpp:77] Creating layer relu6
I0522 13:02:21.976321  3733 net.cpp:84] Creating Layer relu6
I0522 13:02:21.976326  3733 net.cpp:406] relu6 <- fc6
I0522 13:02:21.976344  3733 net.cpp:367] relu6 -> fc6 (in-place)
I0522 13:02:21.977147  3733 net.cpp:122] Setting up relu6
I0522 13:02:21.977159  3733 net.cpp:129] Top shape: 50 512 (25600)
I0522 13:02:21.977162  3733 net.cpp:137] Memory required for data: 315871200
I0522 13:02:21.977165  3733 layer_factory.hpp:77] Creating layer drop6
I0522 13:02:21.977172  3733 net.cpp:84] Creating Layer drop6
I0522 13:02:21.977176  3733 net.cpp:406] drop6 <- fc6
I0522 13:02:21.977211  3733 net.cpp:367] drop6 -> fc6 (in-place)
I0522 13:02:21.977246  3733 net.cpp:122] Setting up drop6
I0522 13:02:21.977263  3733 net.cpp:129] Top shape: 50 512 (25600)
I0522 13:02:21.977267  3733 net.cpp:137] Memory required for data: 315973600
I0522 13:02:21.977270  3733 layer_factory.hpp:77] Creating layer fc7
I0522 13:02:21.977278  3733 net.cpp:84] Creating Layer fc7
I0522 13:02:21.977282  3733 net.cpp:406] fc7 <- fc6
I0522 13:02:21.977286  3733 net.cpp:380] fc7 -> fc7
I0522 13:02:21.979966  3733 net.cpp:122] Setting up fc7
I0522 13:02:21.979975  3733 net.cpp:129] Top shape: 50 512 (25600)
I0522 13:02:21.979979  3733 net.cpp:137] Memory required for data: 316076000
I0522 13:02:21.979988  3733 layer_factory.hpp:77] Creating layer relu7
I0522 13:02:21.979995  3733 net.cpp:84] Creating Layer relu7
I0522 13:02:21.980000  3733 net.cpp:406] relu7 <- fc7
I0522 13:02:21.980005  3733 net.cpp:367] relu7 -> fc7 (in-place)
I0522 13:02:21.980160  3733 net.cpp:122] Setting up relu7
I0522 13:02:21.980170  3733 net.cpp:129] Top shape: 50 512 (25600)
I0522 13:02:21.980173  3733 net.cpp:137] Memory required for data: 316178400
I0522 13:02:21.980176  3733 layer_factory.hpp:77] Creating layer drop7
I0522 13:02:21.980181  3733 net.cpp:84] Creating Layer drop7
I0522 13:02:21.980185  3733 net.cpp:406] drop7 <- fc7
I0522 13:02:21.980190  3733 net.cpp:367] drop7 -> fc7 (in-place)
I0522 13:02:21.980222  3733 net.cpp:122] Setting up drop7
I0522 13:02:21.980229  3733 net.cpp:129] Top shape: 50 512 (25600)
I0522 13:02:21.980232  3733 net.cpp:137] Memory required for data: 316280800
I0522 13:02:21.980235  3733 layer_factory.hpp:77] Creating layer fc8
I0522 13:02:21.980240  3733 net.cpp:84] Creating Layer fc8
I0522 13:02:21.980243  3733 net.cpp:406] fc8 <- fc7
I0522 13:02:21.980249  3733 net.cpp:380] fc8 -> fc8
I0522 13:02:21.980360  3733 net.cpp:122] Setting up fc8
I0522 13:02:21.980367  3733 net.cpp:129] Top shape: 50 2 (100)
I0522 13:02:21.980370  3733 net.cpp:137] Memory required for data: 316281200
I0522 13:02:21.980376  3733 layer_factory.hpp:77] Creating layer loss
I0522 13:02:21.980382  3733 net.cpp:84] Creating Layer loss
I0522 13:02:21.980386  3733 net.cpp:406] loss <- fc8
I0522 13:02:21.980389  3733 net.cpp:406] loss <- label
I0522 13:02:21.980397  3733 net.cpp:380] loss -> loss
I0522 13:02:21.980406  3733 layer_factory.hpp:77] Creating layer loss
…
I0522 13:02:21.981205  3733 net.cpp:51] Initializing net from parameters: 
name: "CaffeNet"
state {
  phase: TEST
}
layer {
  name: "data"
  type: "Data"
  top: "data"
  top: "label"
  include {
    phase: TEST
  }
  transform_param {
    mirror: false
    crop_size: 227
    mean_file: "/home/k/PycharmProjects/AgeGenderDeepLearning-master/Folds/lmdb/Test_fold_is_3/mean.binaryproto"
  }
  data_param {
    source: "/home/k/PycharmProjects/AgeGenderDeepLearning-master/Folds/lmdb/Test_fold_is_3/gender_val_lmdb"
    batch_size: 50
    backend: LMDB
  }
}
layer {
  name: "conv1"
  type: "Convolution"
  bottom: "data"
  top: "conv1"
  param {
    lr_mult: 1
    decay_mult: 1
  }
  param {
    lr_mult: 2
    decay_mult: 0
  }
  convolution_param {
    num_output: 96
    kernel_size: 7
    stride: 4
    weight_filler {
      type: "gaussian"
      std: 0.01
    }
    bias_filler {
      type: "constant"
      value: 0
    }
  }
}
layer {
  name: "relu1"
  type: "ReLU"
  bottom: "conv1"
  top: "conv1"
}
layer {
  name: "pool1"
  type: "Pooling"
  bottom: "conv1"
  top: "pool1"
  pooling_param {
    pool: MAX
    kernel_size: 3
    stride: 2
  }
}
layer {
  name: "norm1"
  type: "LRN"
  bottom: "pool1"
  top: "norm1"
  lrn_param {
    local_size: 5
    alpha: 0.0001
    beta: 0.75
  }
}
layer {
  name: "conv2"
  type: "Convolution"
  bottom: "norm1"
  top: "conv2"
  param {
    lr_mult: 1
    decay_mult: 1
  }
  param {
    lr_mult: 2
    decay_mult: 0
  }
  convolution_param {
    num_output: 256
    pad: 2
    kernel_size: 5
    weight_filler {
      type: "gaussian"
      std: 0.01
    }
    bias_filler {
      type: "constant"
      value: 1
    }
  }
}
layer {
  name: "relu2"
  type: "ReLU"
  bottom: "conv2"
  top: "conv2"
}
layer {
  name: "pool2"
  type: "Pooling"
  bottom: "conv2"
  top: "pool2"
  pooling_param {
    pool: MAX
    kernel_size: 3
    stride: 2
  }
}
layer {
  name: "norm2"
  type: "LRN"
  bottom: "pool2"
  top: "norm2"
  lrn_param {
    local_size: 5
    alpha: 0.0001
    beta: 0.75
  }
}
layer {
  name: "conv3"
  type: "Convolution"
  bottom: "norm2"
  top: "conv3"
  param {
    lr_mult: 1
    decay_mult: 1
  }
  param {
    lr_mult: 2
    decay_mult: 0
  }
  convolution_param {
    num_output: 384
    pad: 1
    kernel_size: 3
    weight_filler {
      type: "gaussian"
      std: 0.01
    }
    bias_filler {
      type: "constant"
      value: 0
    }
  }
}
layer {
  name: "relu3"
  type: "ReLU"
  bottom: "conv3"
  top: "conv3"
}
layer {
  name: "pool5"
  type: "Pooling"
  bottom: "conv3"
  top: "pool5"
  pooling_param {
    pool: MAX
    kernel_size: 3
    stride: 2
  }
}
layer {
  name: "fc6"
  type: "InnerProduct"
  bottom: "pool5"
  top: "fc6"
  param {
    lr_mult: 1
    decay_mult: 1
  }
  param {
    lr_mult: 2
    decay_mult: 0
  }
  inner_product_param {
    num_output: 512
    weight_filler {
      type: "gaussian"
      std: 0.005
    }
    bias_filler {
      type: "constant"
      value: 1
    }
  }
}
layer {
  name: "relu6"
  type: "ReLU"
  bottom: "fc6"
  top: "fc6"
}
layer {
  name: "drop6"
  type: "Dropout"
  bottom: "fc6"
  top: "fc6"
  dropout_param {
    dropout_ratio: 0.5
  }
}
layer {
  name: "fc7"
  type: "InnerProduct"
  bottom: "fc6"
  top: "fc7"
  param {
    lr_mult: 1
    decay_mult: 1
  }
  param {
    lr_mult: 2
    decay_mult: 0
  }
  inner_product_param {
    num_output: 512
    weight_filler {
      type: "gaussian"
      std: 0.005
    }
    bias_filler {
      type: "constant"
      value: 1
    }
  }
}
layer {
  name: "relu7"
  type: "ReLU"
  bottom: "fc7"
  top: "fc7"
}
layer {
  name: "drop7"
  type: "Dropout"
  bottom: "fc7"
  top: "fc7"
  dropout_param {
    dropout_ratio: 0.5
  }
}
layer {
  name: "fc8"
  type: "InnerProduct"
  bottom: "fc7"
  top: "fc8"
  param {
    lr_mult: 10
    decay_mult: 1
  }
  param {
    lr_mult: 20
    decay_mult: 0
  }
  inner_product_param {
    num_output: 2
    weight_filler {
      type: "gaussian"
      std: 0.01
    }
    bias_filler {
      type: "constant"
      value: 0
    }
  }
}
layer {
  name: "accuracy"
  type: "Accuracy"
  bottom: "fc8"
  bottom: "label"
  top: "accuracy"
  include {
    phase: TEST
  }
}
layer {
  name: "loss"
  type: "SoftmaxWithLoss"
  bottom: "fc8"
  bottom: "label"
  top: "loss"
}
I0522 13:02:21.981283  3733 layer_factory.hpp:77] Creating layer data
I0522 13:02:21.995748  3733 db_lmdb.cpp:35] Opened lmdb /home/k/PycharmProjects/AgeGenderDeepLearning-master/Folds/lmdb/Test_fold_is_3/gender_val_lmdb
I0522 13:02:22.004405  3733 net.cpp:84] Creating Layer data
I0522 13:02:22.004422  3733 net.cpp:380] data -> data
I0522 13:02:22.004434  3733 net.cpp:380] data -> label
I0522 13:02:22.004442  3733 data_transformer.cpp:25] Loading mean file from: /home/k/PycharmProjects/AgeGenderDeepLearning-master/Folds/lmdb/Test_fold_is_3/mean.binaryproto
I0522 13:02:22.014724  3733 data_layer.cpp:45] output data size: 50,3,227,227
I0522 13:02:22.076875  3733 net.cpp:122] Setting up data
I0522 13:02:22.076918  3733 net.cpp:129] Top shape: 50 3 227 227 (7729350)
I0522 13:02:22.076925  3733 net.cpp:129] Top shape: 50 (50)
I0522 13:02:22.076928  3733 net.cpp:137] Memory required for data: 30917600
I0522 13:02:22.076936  3733 layer_factory.hpp:77] Creating layer label_data_1_split
I0522 13:02:22.076949  3733 net.cpp:84] Creating Layer label_data_1_split
I0522 13:02:22.076954  3733 net.cpp:406] label_data_1_split <- label
I0522 13:02:22.076962  3733 net.cpp:380] label_data_1_split -> label_data_1_split_0
I0522 13:02:22.076977  3733 net.cpp:380] label_data_1_split -> label_data_1_split_1
I0522 13:02:22.077059  3733 net.cpp:122] Setting up label_data_1_split
I0522 13:02:22.077069  3733 net.cpp:129] Top shape: 50 (50)
I0522 13:02:22.077074  3733 net.cpp:129] Top shape: 50 (50)
I0522 13:02:22.077076  3733 net.cpp:137] Memory required for data: 30918000
I0522 13:02:22.077080  3733 layer_factory.hpp:77] Creating layer conv1
I0522 13:02:22.077103  3733 net.cpp:84] Creating Layer conv1
I0522 13:02:22.077107  3733 net.cpp:406] conv1 <- data
I0522 13:02:22.077113  3733 net.cpp:380] conv1 -> conv1
I0522 13:02:22.083242  3733 net.cpp:122] Setting up conv1
I0522 13:02:22.083272  3733 net.cpp:129] Top shape: 50 96 56 56 (15052800)
I0522 13:02:22.083276  3733 net.cpp:137] Memory required for data: 91129200
I0522 13:02:22.083288  3733 layer_factory.hpp:77] Creating layer relu1
I0522 13:02:22.083295  3733 net.cpp:84] Creating Layer relu1
I0522 13:02:22.083299  3733 net.cpp:406] relu1 <- conv1
I0522 13:02:22.083303  3733 net.cpp:367] relu1 -> conv1 (in-place)
I0522 13:02:22.083468  3733 net.cpp:122] Setting up relu1
I0522 13:02:22.083478  3733 net.cpp:129] Top shape: 50 96 56 56 (15052800)
I0522 13:02:22.083493  3733 net.cpp:137] Memory required for data: 151340400
I0522 13:02:22.083498  3733 layer_factory.hpp:77] Creating layer pool1
I0522 13:02:22.083505  3733 net.cpp:84] Creating Layer pool1
I0522 13:02:22.083508  3733 net.cpp:406] pool1 <- conv1
I0522 13:02:22.083514  3733 net.cpp:380] pool1 -> pool1
I0522 13:02:22.083561  3733 net.cpp:122] Setting up pool1
I0522 13:02:22.083570  3733 net.cpp:129] Top shape: 50 96 28 28 (3763200)
I0522 13:02:22.083575  3733 net.cpp:137] Memory required for data: 166393200
I0522 13:02:22.083577  3733 layer_factory.hpp:77] Creating layer norm1
I0522 13:02:22.083585  3733 net.cpp:84] Creating Layer norm1
I0522 13:02:22.083588  3733 net.cpp:406] norm1 <- pool1
I0522 13:02:22.083592  3733 net.cpp:380] norm1 -> norm1
I0522 13:02:22.084292  3733 net.cpp:122] Setting up norm1
I0522 13:02:22.084305  3733 net.cpp:129] Top shape: 50 96 28 28 (3763200)
I0522 13:02:22.084319  3733 net.cpp:137] Memory required for data: 181446000
I0522 13:02:22.084323  3733 layer_factory.hpp:77] Creating layer conv2
I0522 13:02:22.084332  3733 net.cpp:84] Creating Layer conv2
I0522 13:02:22.084336  3733 net.cpp:406] conv2 <- norm1
I0522 13:02:22.084342  3733 net.cpp:380] conv2 -> conv2
I0522 13:02:22.094506  3733 net.cpp:122] Setting up conv2
I0522 13:02:22.094558  3733 net.cpp:129] Top shape: 50 256 28 28 (10035200)
I0522 13:02:22.094580  3733 net.cpp:137] Memory required for data: 221586800
I0522 13:02:22.094600  3733 layer_factory.hpp:77] Creating layer relu2
I0522 13:02:22.094614  3733 net.cpp:84] Creating Layer relu2
I0522 13:02:22.094620  3733 net.cpp:406] relu2 <- conv2
I0522 13:02:22.094631  3733 net.cpp:367] relu2 -> conv2 (in-place)
I0522 13:02:22.096501  3733 net.cpp:122] Setting up relu2
I0522 13:02:22.096539  3733 net.cpp:129] Top shape: 50 256 28 28 (10035200)
I0522 13:02:22.096550  3733 net.cpp:137] Memory required for data: 261727600
I0522 13:02:22.096561  3733 layer_factory.hpp:77] Creating layer pool2
I0522 13:02:22.096587  3733 net.cpp:84] Creating Layer pool2
I0522 13:02:22.096592  3733 net.cpp:406] pool2 <- conv2
I0522 13:02:22.096598  3733 net.cpp:380] pool2 -> pool2
I0522 13:02:22.096638  3733 net.cpp:122] Setting up pool2
I0522 13:02:22.096647  3733 net.cpp:129] Top shape: 50 256 14 14 (2508800)
I0522 13:02:22.096652  3733 net.cpp:137] Memory required for data: 271762800
I0522 13:02:22.096654  3733 layer_factory.hpp:77] Creating layer norm2
I0522 13:02:22.096662  3733 net.cpp:84] Creating Layer norm2
I0522 13:02:22.096667  3733 net.cpp:406] norm2 <- pool2
I0522 13:02:22.096671  3733 net.cpp:380] norm2 -> norm2
I0522 13:02:22.096829  3733 net.cpp:122] Setting up norm2
I0522 13:02:22.096839  3733 net.cpp:129] Top shape: 50 256 14 14 (2508800)
I0522 13:02:22.096844  3733 net.cpp:137] Memory required for data: 281798000
I0522 13:02:22.096848  3733 layer_factory.hpp:77] Creating layer conv3
I0522 13:02:22.096858  3733 net.cpp:84] Creating Layer conv3
I0522 13:02:22.096861  3733 net.cpp:406] conv3 <- norm2
I0522 13:02:22.096868  3733 net.cpp:380] conv3 -> conv3
I0522 13:02:22.111163  3733 net.cpp:122] Setting up conv3
I0522 13:02:22.111189  3733 net.cpp:129] Top shape: 50 384 14 14 (3763200)
I0522 13:02:22.111193  3733 net.cpp:137] Memory required for data: 296850800
I0522 13:02:22.111207  3733 layer_factory.hpp:77] Creating layer relu3
I0522 13:02:22.111217  3733 net.cpp:84] Creating Layer relu3
I0522 13:02:22.111223  3733 net.cpp:406] relu3 <- conv3
I0522 13:02:22.111230  3733 net.cpp:367] relu3 -> conv3 (in-place)
I0522 13:02:22.111379  3733 net.cpp:122] Setting up relu3
I0522 13:02:22.111389  3733 net.cpp:129] Top shape: 50 384 14 14 (3763200)
I0522 13:02:22.111393  3733 net.cpp:137] Memory required for data: 311903600
I0522 13:02:22.111397  3733 layer_factory.hpp:77] Creating layer pool5
I0522 13:02:22.111405  3733 net.cpp:84] Creating Layer pool5
I0522 13:02:22.111409  3733 net.cpp:406] pool5 <- conv3
I0522 13:02:22.111415  3733 net.cpp:380] pool5 -> pool5
I0522 13:02:22.111460  3733 net.cpp:122] Setting up pool5
I0522 13:02:22.111469  3733 net.cpp:129] Top shape: 50 384 7 7 (940800)
I0522 13:02:22.111474  3733 net.cpp:137] Memory required for data: 315666800
I0522 13:02:22.111476  3733 layer_factory.hpp:77] Creating layer fc6
I0522 13:02:22.111484  3733 net.cpp:84] Creating Layer fc6
I0522 13:02:22.111488  3733 net.cpp:406] fc6 <- pool5
I0522 13:02:22.111493  3733 net.cpp:380] fc6 -> fc6
I0522 13:02:22.250125  3733 net.cpp:122] Setting up fc6
I0522 13:02:22.250169  3733 net.cpp:129] Top shape: 50 512 (25600)
I0522 13:02:22.250175  3733 net.cpp:137] Memory required for data: 315769200
I0522 13:02:22.250190  3733 layer_factory.hpp:77] Creating layer relu6
I0522 13:02:22.250205  3733 net.cpp:84] Creating Layer relu6
I0522 13:02:22.250211  3733 net.cpp:406] relu6 <- fc6
I0522 13:02:22.250221  3733 net.cpp:367] relu6 -> fc6 (in-place)
I0522 13:02:22.250572  3733 net.cpp:122] Setting up relu6
I0522 13:02:22.250586  3733 net.cpp:129] Top shape: 50 512 (25600)
I0522 13:02:22.250589  3733 net.cpp:137] Memory required for data: 315871600
I0522 13:02:22.250594  3733 layer_factory.hpp:77] Creating layer drop6
I0522 13:02:22.250603  3733 net.cpp:84] Creating Layer drop6
I0522 13:02:22.250608  3733 net.cpp:406] drop6 <- fc6
I0522 13:02:22.250627  3733 net.cpp:367] drop6 -> fc6 (in-place)
I0522 13:02:22.250660  3733 net.cpp:122] Setting up drop6
I0522 13:02:22.250671  3733 net.cpp:129] Top shape: 50 512 (25600)
I0522 13:02:22.250676  3733 net.cpp:137] Memory required for data: 315974000
I0522 13:02:22.250682  3733 layer_factory.hpp:77] Creating layer fc7
I0522 13:02:22.250697  3733 net.cpp:84] Creating Layer fc7
I0522 13:02:22.250702  3733 net.cpp:406] fc7 <- fc6
I0522 13:02:22.250708  3733 net.cpp:380] fc7 -> fc7
I0522 13:02:22.254326  3733 net.cpp:122] Setting up fc7
I0522 13:02:22.254343  3733 net.cpp:129] Top shape: 50 512 (25600)
I0522 13:02:22.254346  3733 net.cpp:137] Memory required for data: 316076400
I0522 13:02:22.254356  3733 layer_factory.hpp:77] Creating layer relu7
I0522 13:02:22.254364  3733 net.cpp:84] Creating Layer relu7
I0522 13:02:22.254366  3733 net.cpp:406] relu7 <- fc7
I0522 13:02:22.254371  3733 net.cpp:367] relu7 -> fc7 (in-place)
I0522 13:02:22.255281  3733 net.cpp:122] Setting up relu7
I0522 13:02:22.255295  3733 net.cpp:129] Top shape: 50 512 (25600)
I0522 13:02:22.255300  3733 net.cpp:137] Memory required for data: 316178800
I0522 13:02:22.255303  3733 layer_factory.hpp:77] Creating layer drop7
I0522 13:02:22.255309  3733 net.cpp:84] Creating Layer drop7
I0522 13:02:22.255312  3733 net.cpp:406] drop7 <- fc7
I0522 13:02:22.255318  3733 net.cpp:367] drop7 -> fc7 (in-place)
I0522 13:02:22.255357  3733 net.cpp:122] Setting up drop7
I0522 13:02:22.255365  3733 net.cpp:129] Top shape: 50 512 (25600)
I0522 13:02:22.255370  3733 net.cpp:137] Memory required for data: 316281200
I0522 13:02:22.255373  3733 layer_factory.hpp:77] Creating layer fc8
I0522 13:02:22.255381  3733 net.cpp:84] Creating Layer fc8
I0522 13:02:22.255385  3733 net.cpp:406] fc8 <- fc7
I0522 13:02:22.255391  3733 net.cpp:380] fc8 -> fc8
I0522 13:02:22.255499  3733 net.cpp:122] Setting up fc8
I0522 13:02:22.255507  3733 net.cpp:129] Top shape: 50 2 (100)
I0522 13:02:22.255511  3733 net.cpp:137] Memory required for data: 316281600
I0522 13:02:22.255517  3733 layer_factory.hpp:77] Creating layer fc8_fc8_0_split
I0522 13:02:22.255523  3733 net.cpp:84] Creating Layer fc8_fc8_0_split
I0522 13:02:22.255528  3733 net.cpp:406] fc8_fc8_0_split <- fc8
I0522 13:02:22.255544  3733 net.cpp:380] fc8_fc8_0_split -> fc8_fc8_0_split_0
I0522 13:02:22.255553  3733 net.cpp:380] fc8_fc8_0_split -> fc8_fc8_0_split_1
I0522 13:02:22.255606  3733 net.cpp:122] Setting up fc8_fc8_0_split
I0522 13:02:22.255630  3733 net.cpp:129] Top shape: 50 2 (100)
I0522 13:02:22.255640  3733 net.cpp:129] Top shape: 50 2 (100)
I0522 13:02:22.255645  3733 net.cpp:137] Memory required for data: 316282400
I0522 13:02:22.255651  3733 layer_factory.hpp:77] Creating layer accuracy
I0522 13:02:22.255664  3733 net.cpp:84] Creating Layer accuracy
I0522 13:02:22.255676  3733 net.cpp:406] accuracy <- fc8_fc8_0_split_0
I0522 13:02:22.255699  3733 net.cpp:406] accuracy <- label_data_1_split_0
I0522 13:02:22.255712  3733 net.cpp:380] accuracy -> accuracy
…
