…
I0528 22:35:43.428788 58685 net.cpp:294] The NetState phase (0) differed from the phase (1) specified by a rule in layer accuracy
I0528 22:35:43.430105 58685 net.cpp:51] Initializing net from parameters: 
name: "Pre-ResNet-50"
state {
  phase: TRAIN
  level: 0
  stage: ""
}
layer {
  name: "data"
  type: "Data"
  top: "data"
  top: "label"
  include {
    phase: TRAIN
  }
  transform_param {
    mirror: true
    crop_size: 224
    mean_file: "/storage/Test_fold_is_01/mean.binaryproto"
  }
  data_param {
    source: "/storage/Test_fold_is_01/gender_train_lmdb"
    batch_size: 25
    backend: LMDB
  }
}
layer {
  name: "data_bn"
  type: "BatchNorm"
  bottom: "data"
  top: "data_bn"
  param {
    lr_mult: 0
    decay_mult: 0
  }
  param {
    lr_mult: 0
    decay_mult: 0
  }
  param {
    lr_mult: 0
    decay_mult: 0
  }
}
layer {
  name: "data_scale"
  type: "Scale"
  bottom: "data_bn"
  top: "data_bn"
  param {
    lr_mult: 1
    decay_mult: 1
  }
  param {
    lr_mult: 2
    decay_mult: 1
  }
  scale_param {
    bias_term: true
  }
}
layer {
  name: "conv1"
  type: "Convolution"
  bottom: "data_bn"
  top: "conv1"
  param {
    lr_mult: 1
    decay_mult: 1
  }
  param {
    lr_mult: 2
    decay_mult: 1
  }
  convolution_param {
    num_output: 64
    pad: 3
    kernel_size: 7
    stride: 2
    weight_filler {
      type: "msra"
      variance_norm: FAN_OUT
    }
    bias_filler {
      type: "constant"
      value: 0
    }
  }
}
layer {
  name: "conv1_bn"
  type: "BatchNorm"
  bottom: "conv1"
  top: "conv1"
  param {
    lr_mult: 0
    decay_mult: 0
  }
  param {
    lr_mult: 0
    decay_mult: 0
  }
  param {
    lr_mult: 0
    decay_mult: 0
  }
}
layer {
  name: "conv1_scale"
  type: "Scale"
  bottom: "conv1"
  top: "conv1"
  param {
    lr_mult: 1
    decay_mult: 1
  }
  param {
    lr_mult: 2
    decay_mult: 1
  }
  scale_param {
    bias_term: true
  }
}
layer {
  name: "conv1_relu"
  type: "ReLU"
  bottom: "conv1"
  top: "conv1"
}
layer {
  name: "conv1_pool"
  type: "Pooling"
  bottom: "conv1"
  top: "conv1_pool"
  pooling_param {
    kernel_size: 3
    stride: 2
  }
}
layer {
  name: "layer_64_1_conv1"
  type: "Convolution"
  bottom: "conv1_pool"
  top: "layer_64_1_conv1"
  param {
    lr_mult: 1
    decay_mult: 1
  }
  convolution_param {
    num_output: 64
    bias_term: false
    pad: 0
    kernel_size: 1
    stride: 1
    weight_filler {
      type: "msra"
    }
    bias_filler {
      type: "constant"
      value: 0
    }
  }
}
layer {
  name: "layer_64_1_bn2"
  type: "BatchNorm"
  bottom: "layer_64_1_conv1"
  top: "layer_64_1_conv1"
  param {
    lr_mult: 0
    decay_mult: 0
  }
  param {
    lr_mult: 0
    decay_mult: 0
  }
  param {
    lr_mult: 0
    decay_mult: 0
  }
}
layer {
  name: "layer_64_1_scale2"
  type: "Scale"
  bottom: "layer_64_1_conv1"
  top: "layer_64_1_conv1"
  param {
    lr_mult: 1
    decay_mult: 1
  }
  param {
    lr_mult: 2
    decay_mult: 1
  }
  scale_param {
    bias_term: true
  }
}
layer {
  name: "layer_64_1_relu2"
  type: "ReLU"
  bottom: "layer_64_1_conv1"
  top: "layer_64_1_conv1"
}
layer {
  name: "layer_64_1_conv2"
  type: "Convolution"
  bottom: "layer_64_1_conv1"
  top: "layer_64_1_conv2"
  param {
    lr_mult: 1
    decay_mult: 1
  }
  convolution_param {
    num_output: 64
    bias_term: false
    pad: 1
    kernel_size: 3
    stride: 1
    weight_filler {
      type: "msra"
    }
    bias_filler {
      type: "constant"
      value: 0
    }
  }
}
layer {
  name: "layer_64_1_bn3"
  type: "BatchNorm"
  bottom: "layer_64_1_conv2"
  top: "layer_64_1_conv2"
  param {
    lr_mult: 0
    decay_mult: 0
  }
  param {
    lr_mult: 0
    decay_mult: 0
  }
  param {
    lr_mult: 0
    decay_mult: 0
  }
}
layer {
  name: "layer_64_1_scale3"
  type: "Scale"
  bottom: "layer_64_1_conv2"
  top: "layer_64_1_conv2"
  param {
    lr_mult: 1
    decay_mult: 1
  }
  param {
    lr_mult: 2
    decay_mult: 1
  }
  scale_param {
    bias_term: true
  }
}
layer {
  name: "layer_64_1_relu3"
  type: "ReLU"
  bottom: "layer_64_1_conv2"
  top: "layer_64_1_conv2"
}
layer {
  name: "layer_64_1_conv3"
  type: "Convolution"
  bottom: "layer_64_1_conv2"
  top: "layer_64_1_conv3"
  param {
    lr_mult: 1
    decay_mult: 1
  }
  convolution_param {
    num_output: 256
    bias_term: false
    pad: 0
    kernel_size: 1
    stride: 1
    weight_filler {
      type: "msra"
    }
    bias_filler {
      type: "constant"
      value: 0
    }
  }
}
layer {
  name: "layer_64_1_conv_expand"
  type: "Convolution"
  bottom: "layer_64_1_conv1"
  top: "layer_64_1_conv_expand"
  param {
    lr_mult: 1
    decay_mult: 1
  }
  convolution_param {
    num_output: 256
    bias_term: false
    pad: 0
    kernel_size: 1
    stride: 1
    weight_filler {
      type: "msra"
    }
    bias_filler {
      type: "constant"
      value: 0
    }
  }
}
layer {
  name: "layer_64_1_sum"
  type: "Eltwise"
  bottom: "layer_64_1_conv3"
  bottom: "layer_64_1_conv_expand"
  top: "layer_64_1_sum"
}
layer {
  name: "layer_64_2_bn1"
  type: "BatchNorm"
  bottom: "layer_64_1_sum"
  top: "layer_64_2_bn1"
  param {
    lr_mult: 0
    decay_mult: 0
  }
  param {
    lr_mult: 0
    decay_mult: 0
  }
  param {
    lr_mult: 0
    decay_mult: 0
  }
}
layer {
  name: "layer_64_2_scale1"
  type: "Scale"
  bottom: "layer_64_2_bn1"
  top: "layer_64_2_bn1"
  param {
    lr_mult: 1
    decay_mult: 1
  }
  param {
    lr_mult: 2
    decay_mult: 1
  }
  scale_param {
    bias_term: true
  }
}
layer {
  name: "layer_64_2_relu1"
  type: "ReLU"
  bottom: "layer_64_2_bn1"
  top: "layer_64_2_bn1"
}
layer {
  name: "layer_64_2_conv1"
  type: "Convolution"
  bottom: "layer_64_2_bn1"
  top: "layer_64_2_conv1"
  param {
    lr_mult: 1
    decay_mult: 1
  }
  convolution_param {
    num_output: 64
    bias_term: false
    pad: 0
    kernel_size: 1
    stride: 1
    weight_filler {
      type: "msra"
    }
    bias_filler {
      type: "constant"
      value: 0
    }
  }
}
layer {
  name: "layer_64_2_bn2"
  type: "BatchNorm"
  bottom: "layer_64_2_conv1"
  top: "layer_64_2_conv1"
  param {
    lr_mult: 0
    decay_mult: 0
  }
  param {
    lr_mult: 0
    decay_mult: 0
  }
  param {
    lr_mult: 0
    decay_mult: 0
  }
}
layer {
  name: "layer_64_2_scale2"
  type: "Scale"
  bottom: "layer_64_2_conv1"
  top: "layer_64_2_conv1"
  param {
    lr_mult: 1
    decay_mult: 1
  }
  param {
    lr_mult: 2
    decay_mult: 1
  }
  scale_param {
    bias_term: true
  }
}
layer {
  name: "layer_64_2_relu2"
  type: "ReLU"
  bottom: "layer_64_2_conv1"
  top: "layer_64_2_conv1"
}
layer {
  name: "layer_64_2_conv2"
  type: "Convolution"
  bottom: "layer_64_2_conv1"
  top: "layer_64_2_conv2"
  param {
    lr_mult: 1
    decay_mult: 1
  }
  convolution_param {
    num_output: 64
    bias_term: false
    pad: 1
    kernel_size: 3
    stride: 1
    weight_filler {
      type: "msra"
    }
    bias_filler {
      type: "constant"
      value: 0
    }
  }
}
layer {
  name: "layer_64_2_bn3"
  type: "BatchNorm"
  bottom: "layer_64_2_conv2"
  top: "layer_64_2_conv2"
  param {
    lr_mult: 0
    decay_mult: 0
  }
  param {
    lr_mult: 0
    decay_mult: 0
  }
  param {
    lr_mult: 0
    decay_mult: 0
  }
}
layer {
  name: "layer_64_2_scale3"
  type: "Scale"
  bottom: "layer_64_2_conv2"
  top: "layer_64_2_conv2"
  param {
    lr_mult: 1
    decay_mult: 1
  }
  param {
    lr_mult: 2
    decay_mult: 1
  }
  scale_param {
    bias_term: true
  }
}
layer {
  name: "layer_64_2_relu3"
  type: "ReLU"
  bottom: "layer_64_2_conv2"
  top: "layer_64_2_conv2"
}
layer {
  name: "layer_64_2_conv3"
  type: "Convolution"
  bottom: "layer_64_2_conv2"
  top: "layer_64_2_conv3"
  param {
    lr_mult: 1
    decay_mult: 1
  }
  convolution_param {
    num_output: 256
    bias_term: false
    pad: 0
    kernel_size: 1
    stride: 1
    weight_filler {
      type: "msra"
    }
    bias_filler {
      type: "constant"
      value: 0
    }
  }
}
layer {
  name: "layer_64_2_sum"
  type: "Eltwise"
  bottom: "layer_64_2_conv3"
  bottom: "layer_64_1_sum"
  top: "layer_64_2_sum"
}
layer {
  name: "layer_64_3_bn1"
  type: "BatchNorm"
  bottom: "layer_64_2_sum"
  top: "layer_64_3_bn1"
  param {
    lr_mult: 0
    decay_mult: 0
  }
  param {
    lr_mult: 0
    decay_mult: 0
  }
  param {
    lr_mult: 0
    decay_mult: 0
  }
}
layer {
  name: "layer_64_3_scale1"
  type: "Scale"
  bottom: "layer_64_3_bn1"
  top: "layer_64_3_bn1"
  param {
    lr_mult: 1
    decay_mult: 1
  }
  param {
    lr_mult: 2
    decay_mult: 1
  }
  scale_param {
    bias_term: true
  }
}
layer {
  name: "layer_64_3_relu1"
  type: "ReLU"
  bottom: "layer_64_3_bn1"
  top: "layer_64_3_bn1"
}
layer {
  name: "layer_64_3_conv1"
  type: "Convolution"
  bottom: "layer_64_3_bn1"
  top: "layer_64_3_conv1"
  param {
    lr_mult: 1
    decay_mult: 1
  }
  convolution_param {
    num_output: 64
    bias_term: false
    pad: 0
    kernel_size: 1
    stride: 1
    weight_filler {
      type: "msra"
    }
    bias_filler {
      type: "constant"
      value: 0
    }
  }
}
layer {
  name: "layer_64_3_bn2"
  type: "BatchNorm"
  bottom: "layer_64_3_conv1"
  top: "layer_64_3_conv1"
  param {
    lr_mult: 0
    decay_mult: 0
  }
  param {
    lr_mult: 0
    decay_mult: 0
  }
  param {
    lr_mult: 0
    decay_mult: 0
  }
}
layer {
  name: "layer_64_3_scale2"
  type: "Scale"
  bottom: "layer_64_3_conv1"
  top: "layer_64_3_conv1"
  param {
    lr_mult: 1
    decay_mult: 1
  }
  param {
    lr_mult: 2
    decay_mult: 1
  }
  scale_param {
    bias_term: true
  }
}
layer {
  name: "layer_64_3_relu2"
  type: "ReLU"
  bottom: "layer_64_3_conv1"
  top: "layer_64_3_conv1"
}
layer {
  name: "layer_64_3_conv2"
  type: "Convolution"
  bottom: "layer_64_3_conv1"
  top: "layer_64_3_conv2"
  param {
    lr_mult: 1
    decay_mult: 1
  }
  convolution_param {
    num_output: 64
    bias_term: false
    pad: 1
    kernel_size: 3
    stride: 1
    weight_filler {
      type: "msra"
    }
    bias_filler {
      type: "constant"
      value: 0
    }
  }
}
layer {
  name: "layer_64_3_bn3"
  type: "BatchNorm"
  bottom: "layer_64_3_conv2"
  top: "layer_64_3_conv2"
  param {
    lr_mult: 0
    decay_mult: 0
  }
  param {
    lr_mult: 0
    decay_mult: 0
  }
  param {
    lr_mult: 0
    decay_mult: 0
  }
}
layer {
  name: "layer_64_3_scale3"
  type: "Scale"
  bottom: "layer_64_3_conv2"
  top: "layer_64_3_conv2"
  param {
    lr_mult: 1
    decay_mult: 1
  }
  param {
    lr_mult: 2
    decay_mult: 1
  }
  scale_param {
    bias_term: true
  }
}
layer {
  name: "layer_64_3_relu3"
  type: "ReLU"
  bottom: "layer_64_3_conv2"
  top: "layer_64_3_conv2"
}
layer {
  name: "layer_64_3_conv3"
  type: "Convolution"
  bottom: "layer_64_3_conv2"
  top: "layer_64_3_conv3"
  param {
    lr_mult: 1
    decay_mult: 1
  }
  convolution_param {
    num_output: 256
    bias_term: false
    pad: 0
    kernel_size: 1
    stride: 1
    weight_filler {
      type: "msra"
    }
    bias_filler {
      type: "constant"
      value: 0
    }
  }
}
layer {
  name: "layer_64_3_sum"
  type: "Eltwise"
  bottom: "layer_64_3_conv3"
  bottom: "layer_64_2_sum"
  top: "layer_64_3_sum"
}
layer {
  name: "layer_128_1_bn1"
  type: "BatchNorm"
  bottom: "layer_64_3_sum"
  top: "layer_128_1_bn1"
  param {
    lr_mult: 0
    decay_mult: 0
  }
  param {
    lr_mult: 0
    decay_mult: 0
  }
  param {
    lr_mult: 0
    decay_mult: 0
  }
}
layer {
  name: "layer_128_1_scale1"
  type: "Scale"
  bottom: "layer_128_1_bn1"
  top: "layer_128_1_bn1"
  param {
    lr_mult: 1
    decay_mult: 1
  }
  param {
    lr_mult: 2
    decay_mult: 1
  }
  scale_param {
    bias_term: true
  }
}
layer {
  name: "layer_128_1_relu1"
  type: "ReLU"
  bottom: "layer_128_1_bn1"
  top: "layer_128_1_bn1"
}
layer {
  name: "layer_128_1_conv1"
  type: "Convolution"
  bottom: "layer_128_1_bn1"
  top: "layer_128_1_conv1"
  param {
    lr_mult: 1
    decay_mult: 1
  }
  convolution_param {
    num_output: 128
    bias_term: false
    pad: 0
    kernel_size: 1
    stride: 1
    weight_filler {
      type: "msra"
    }
    bias_filler {
      type: "constant"
      value: 0
    }
  }
}
layer {
  name: "layer_128_1_bn2"
  type: "BatchNorm"
  bottom: "layer_128_1_conv1"
  top: "layer_128_1_conv1"
  param {
    lr_mult: 0
    decay_mult: 0
  }
  param {
    lr_mult: 0
    decay_mult: 0
  }
  param {
    lr_mult: 0
    decay_mult: 0
  }
}
layer {
  name: "layer_128_1_scale2"
  type: "Scale"
  bottom: "layer_128_1_conv1"
  top: "layer_128_1_conv1"
  param {
    lr_mult: 1
    decay_mult: 1
  }
  param {
    lr_mult: 2
    decay_mult: 1
  }
  scale_param {
    bias_term: true
  }
}
layer {
  name: "layer_128_1_relu2"
  type: "ReLU"
  bottom: "layer_128_1_conv1"
  top: "layer_128_1_conv1"
}
layer {
  name: "layer_128_1_conv2"
  type: "Convolution"
  bottom: "layer_128_1_conv1"
  top: "layer_128_1_conv2"
  param {
    lr_mult: 1
    decay_mult: 1
  }
  convolution_param {
    num_output: 128
    bias_term: false
    pad: 1
    kernel_size: 3
    stride: 2
    weight_filler {
      type: "msra"
    }
    bias_filler {
      type: "constant"
      value: 0
    }
  }
}
layer {
  name: "layer_128_1_bn3"
  type: "BatchNorm"
  bottom: "layer_128_1_conv2"
  top: "layer_128_1_conv2"
  param {
    lr_mult: 0
    decay_mult: 0
  }
  param {
    lr_mult: 0
    decay_mult: 0
  }
  param {
    lr_mult: 0
    decay_mult: 0
  }
}
layer {
  name: "layer_128_1_scale3"
  type: "Scale"
  bottom: "layer_128_1_conv2"
  top: "layer_128_1_conv2"
  param {
    lr_mult: 1
    decay_mult: 1
  }
  param {
    lr_mult: 2
    decay_mult: 1
  }
  scale_param {
    bias_term: true
  }
}
layer {
  name: "layer_128_1_relu3"
  type: "ReLU"
  bottom: "layer_128_1_conv2"
  top: "layer_128_1_conv2"
}
layer {
  name: "layer_128_1_conv3"
  type: "Convolution"
  bottom: "layer_128_1_conv2"
  top: "layer_128_1_conv3"
  param {
    lr_mult: 1
    decay_mult: 1
  }
  convolution_param {
    num_output: 512
    bias_term: false
    pad: 0
    kernel_size: 1
    stride: 1
    weight_filler {
      type: "msra"
    }
    bias_filler {
      type: "constant"
      value: 0
    }
  }
}
layer {
  name: "layer_128_1_conv_expand"
  type: "Convolution"
  bottom: "layer_128_1_bn1"
  top: "layer_128_1_conv_expand"
  param {
    lr_mult: 1
    decay_mult: 1
  }
  convolution_param {
    num_output: 512
    bias_term: false
    pad: 0
    kernel_size: 1
    stride: 2
    weight_filler {
      type: "msra"
    }
    bias_filler {
      type: "constant"
      value: 0
    }
  }
}
layer {
  name: "layer_128_1_sum"
  type: "Eltwise"
  bottom: "layer_128_1_conv3"
  bottom: "layer_128_1_conv_expand"
  top: "layer_128_1_sum"
}
layer {
  name: "layer_128_2_bn1"
  type: "BatchNorm"
  bottom: "layer_128_1_sum"
  top: "layer_128_2_bn1"
  param {
    lr_mult: 0
    decay_mult: 0
  }
  param {
    lr_mult: 0
    decay_mult: 0
  }
  param {
    lr_mult: 0
    decay_mult: 0
  }
}
layer {
  name: "layer_128_2_scale1"
  type: "Scale"
  bottom: "layer_128_2_bn1"
  top: "layer_128_2_bn1"
  param {
    lr_mult: 1
    decay_mult: 1
  }
  param {
    lr_mult: 2
    decay_mult: 1
  }
  scale_param {
    bias_term: true
  }
}
layer {
  name: "layer_128_2_relu1"
  type: "ReLU"
  bottom: "layer_128_2_bn1"
  top: "layer_128_2_bn1"
}
layer {
  name: "layer_128_2_conv1"
  type: "Convolution"
  bottom: "layer_128_2_bn1"
  top: "layer_128_2_conv1"
  param {
    lr_mult: 1
    decay_mult: 1
  }
  convolution_param {
    num_output: 128
    bias_term: false
    pad: 0
    kernel_size: 1
    stride: 1
    weight_filler {
      type: "msra"
    }
    bias_filler {
      type: "constant"
      value: 0
    }
  }
}
layer {
  name: "layer_128_2_bn2"
  type: "BatchNorm"
  bottom: "layer_128_2_conv1"
  top: "layer_128_2_conv1"
  param {
    lr_mult: 0
    decay_mult: 0
  }
  param {
    lr_mult: 0
    decay_mult: 0
  }
  param {
    lr_mult: 0
    decay_mult: 0
  }
}
layer {
  name: "layer_128_2_scale2"
  type: "Scale"
  bottom: "layer_128_2_conv1"
  top: "layer_128_2_conv1"
  param {
    lr_mult: 1
    decay_mult: 1
  }
  param {
    lr_mult: 2
    decay_mult: 1
  }
  scale_param {
    bias_term: true
  }
}
layer {
  name: "layer_128_2_relu2"
  type: "ReLU"
  bottom: "layer_128_2_conv1"
  top: "layer_128_2_conv1"
}
layer {
  name: "layer_128_2_conv2"
  type: "Convolution"
  bottom: "layer_128_2_conv1"
  top: "layer_128_2_conv2"
  param {
    lr_mult: 1
    decay_mult: 1
  }
  convolution_param {
    num_output: 128
    bias_term: false
    pad: 1
    kernel_size: 3
    stride: 1
    weight_filler {
      type: "msra"
    }
    bias_filler {
      type: "constant"
      value: 0
    }
  }
}
layer {
  name: "layer_128_2_bn3"
  type: "BatchNorm"
  bottom: "layer_128_2_conv2"
  top: "layer_128_2_conv2"
  param {
    lr_mult: 0
    decay_mult: 0
  }
  param {
    lr_mult: 0
    decay_mult: 0
  }
  param {
    lr_mult: 0
    decay_mult: 0
  }
}
layer {
  name: "layer_128_2_scale3"
  type: "Scale"
  bottom: "layer_128_2_conv2"
  top: "layer_128_2_conv2"
  param {
    lr_mult: 1
    decay_mult: 1
  }
  param {
    lr_mult: 2
    decay_mult: 1
  }
  scale_param {
    bias_term: true
  }
}
layer {
  name: "layer_128_2_relu3"
  type: "ReLU"
  bottom: "layer_128_2_conv2"
  top: "layer_128_2_conv2"
}
layer {
  name: "layer_128_2_conv3"
  type: "Convolution"
  bottom: "layer_128_2_conv2"
  top: "layer_128_2_conv3"
  param {
    lr_mult: 1
    decay_mult: 1
  }
  convolution_param {
    num_output: 512
    bias_term: false
    pad: 0
    kernel_size: 1
    stride: 1
    weight_filler {
      type: "msra"
    }
    bias_filler {
      type: "constant"
      value: 0
    }
  }
}
layer {
  name: "layer_128_2_sum"
  type: "Eltwise"
  bottom: "layer_128_2_conv3"
  bottom: "layer_128_1_sum"
  top: "layer_128_2_sum"
}
layer {
  name: "layer_128_3_bn1"
  type: "BatchNorm"
  bottom: "layer_128_2_sum"
  top: "layer_128_3_bn1"
  param {
    lr_mult: 0
    decay_mult: 0
  }
  param {
    lr_mult: 0
    decay_mult: 0
  }
  param {
    lr_mult: 0
    decay_mult: 0
  }
}
layer {
  name: "layer_128_3_scale1"
  type: "Scale"
  bottom: "layer_128_3_bn1"
  top: "layer_128_3_bn1"
  param {
    lr_mult: 1
    decay_mult: 1
  }
  param {
    lr_mult: 2
    decay_mult: 1
  }
  scale_param {
    bias_term: true
  }
}
layer {
  name: "layer_128_3_relu1"
  type: "ReLU"
  bottom: "layer_128_3_bn1"
  top: "layer_128_3_bn1"
}
layer {
  name: "layer_128_3_conv1"
  type: "Convolution"
  bottom: "layer_128_3_bn1"
  top: "layer_128_3_conv1"
  param {
    lr_mult: 1
    decay_mult: 1
  }
  convolution_param {
    num_output: 128
    bias_term: false
    pad: 0
    kernel_size: 1
    stride: 1
    weight_filler {
      type: "msra"
    }
    bias_filler {
      type: "constant"
      value: 0
    }
  }
}
layer {
  name: "layer_128_3_bn2"
  type: "BatchNorm"
  bottom: "layer_128_3_conv1"
  top: "layer_128_3_conv1"
  param {
    lr_mult: 0
    decay_mult: 0
  }
  param {
    lr_mult: 0
    decay_mult: 0
  }
  param {
    lr_mult: 0
    decay_mult: 0
  }
}
layer {
  name: "layer_128_3_scale2"
  type: "Scale"
  bottom: "layer_128_3_conv1"
  top: "layer_128_3_conv1"
  param {
    lr_mult: 1
    decay_mult: 1
  }
  param {
    lr_mult: 2
    decay_mult: 1
  }
  scale_param {
    bias_term: true
  }
}
layer {
  name: "layer_128_3_relu2"
  type: "ReLU"
  bottom: "layer_128_3_conv1"
  top: "layer_128_3_conv1"
}
layer {
  name: "layer_128_3_conv2"
  type: "Convolution"
  bottom: "layer_128_3_conv1"
  top: "layer_128_3_conv2"
  param {
    lr_mult: 1
    decay_mult: 1
  }
  convolution_param {
    num_output: 128
    bias_term: false
    pad: 1
    kernel_size: 3
    stride: 1
    weight_filler {
      type: "msra"
    }
    bias_filler {
      type: "constant"
      value: 0
    }
  }
}
layer {
  name: "layer_128_3_bn3"
  type: "BatchNorm"
  bottom: "layer_128_3_conv2"
  top: "layer_128_3_conv2"
  param {
    lr_mult: 0
    decay_mult: 0
  }
  param {
    lr_mult: 0
    decay_mult: 0
  }
  param {
    lr_mult: 0
    decay_mult: 0
  }
}
layer {
  name: "layer_128_3_scale3"
  type: "Scale"
  bottom: "layer_128_3_conv2"
  top: "layer_128_3_conv2"
  param {
    lr_mult: 1
    decay_mult: 1
  }
  param {
    lr_mult: 2
    decay_mult: 1
  }
  scale_param {
    bias_term: true
  }
}
layer {
  name: "layer_128_3_relu3"
  type: "ReLU"
  bottom: "layer_128_3_conv2"
  top: "layer_128_3_conv2"
}
layer {
  name: "layer_128_3_conv3"
  type: "Convolution"
  bottom: "layer_128_3_conv2"
  top: "layer_128_3_conv3"
  param {
    lr_mult: 1
    decay_mult: 1
  }
  convolution_param {
    num_output: 512
    bias_term: false
    pad: 0
    kernel_size: 1
    stride: 1
    weight_filler {
      type: "msra"
    }
    bias_filler {
      type: "constant"
      value: 0
    }
  }
}
layer {
  name: "layer_128_3_sum"
  type: "Eltwise"
  bottom: "layer_128_3_conv3"
  bottom: "layer_128_2_sum"
  top: "layer_128_3_sum"
}
layer {
  name: "layer_128_4_bn1"
  type: "BatchNorm"
  bottom: "layer_128_3_sum"
  top: "layer_128_4_bn1"
  param {
    lr_mult: 0
    decay_mult: 0
  }
  param {
    lr_mult: 0
    decay_mult: 0
  }
  param {
    lr_mult: 0
    decay_mult: 0
  }
}
layer {
  name: "layer_128_4_scale1"
  type: "Scale"
  bottom: "layer_128_4_bn1"
  top: "layer_128_4_bn1"
  param {
    lr_mult: 1
    decay_mult: 1
  }
  param {
    lr_mult: 2
    decay_mult: 1
  }
  scale_param {
    bias_term: true
  }
}
layer {
  name: "layer_128_4_relu1"
  type: "ReLU"
  bottom: "layer_128_4_bn1"
  top: "layer_128_4_bn1"
}
layer {
  name: "layer_128_4_conv1"
  type: "Convolution"
  bottom: "layer_128_4_bn1"
  top: "layer_128_4_conv1"
  param {
    lr_mult: 1
    decay_mult: 1
  }
  convolution_param {
    num_output: 128
    bias_term: false
    pad: 0
    kernel_size: 1
    stride: 1
    weight_filler {
      type: "msra"
    }
    bias_filler {
      type: "constant"
      value: 0
    }
  }
}
layer {
  name: "layer_128_4_bn2"
  type: "BatchNorm"
  bottom: "layer_128_4_conv1"
  top: "layer_128_4_conv1"
  param {
    lr_mult: 0
    decay_mult: 0
  }
  param {
    lr_mult: 0
    decay_mult: 0
  }
  param {
    lr_mult: 0
    decay_mult: 0
  }
}
layer {
  name: "layer_128_4_scale2"
  type: "Scale"
  bottom: "layer_128_4_conv1"
  top: "layer_128_4_conv1"
  param {
    lr_mult: 1
    decay_mult: 1
  }
  param {
    lr_mult: 2
    decay_mult: 1
  }
  scale_param {
    bias_term: true
  }
}
layer {
  name: "layer_128_4_relu2"
  type: "ReLU"
  bottom: "layer_128_4_conv1"
  top: "layer_128_4_conv1"
}
layer {
  name: "layer_128_4_conv2"
  type: "Convolution"
  bottom: "layer_128_4_conv1"
  top: "layer_128_4_conv2"
  param {
    lr_mult: 1
    decay_mult: 1
  }
  convolution_param {
    num_output: 128
    bias_term: false
    pad: 1
    kernel_size: 3
    stride: 1
    weight_filler {
      type: "msra"
    }
    bias_filler {
      type: "constant"
      value: 0
    }
  }
}
layer {
  name: "layer_128_4_bn3"
  type: "BatchNorm"
  bottom: "layer_128_4_conv2"
  top: "layer_128_4_conv2"
  param {
    lr_mult: 0
    decay_mult: 0
  }
  param {
    lr_mult: 0
    decay_mult: 0
  }
  param {
    lr_mult: 0
    decay_mult: 0
  }
}
layer {
  name: "layer_128_4_scale3"
  type: "Scale"
  bottom: "layer_128_4_conv2"
  top: "layer_128_4_conv2"
  param {
    lr_mult: 1
    decay_mult: 1
  }
  param {
    lr_mult: 2
    decay_mult: 1
  }
  scale_param {
    bias_term: true
  }
}
layer {
  name: "layer_128_4_relu3"
  type: "ReLU"
  bottom: "layer_128_4_conv2"
  top: "layer_128_4_conv2"
}
layer {
  name: "layer_128_4_conv3"
  type: "Convolution"
  bottom: "layer_128_4_conv2"
  top: "layer_128_4_conv3"
  param {
    lr_mult: 1
    decay_mult: 1
  }
  convolution_param {
    num_output: 512
    bias_term: false
    pad: 0
    kernel_size: 1
    stride: 1
    weight_filler {
      type: "msra"
    }
    bias_filler {
      type: "constant"
      value: 0
    }
  }
}
layer {
  name: "layer_128_4_sum"
  type: "Eltwise"
  bottom: "layer_128_4_conv3"
  bottom: "layer_128_3_sum"
  top: "layer_128_4_sum"
}
layer {
  name: "layer_256_1_bn1"
  type: "BatchNorm"
  bottom: "layer_128_4_sum"
  top: "layer_256_1_bn1"
  param {
    lr_mult: 0
    decay_mult: 0
  }
  param {
    lr_mult: 0
    decay_mult: 0
  }
  param {
    lr_mult: 0
    decay_mult: 0
  }
}
layer {
  name: "layer_256_1_scale1"
  type: "Scale"
  bottom: "layer_256_1_bn1"
  top: "layer_256_1_bn1"
  param {
    lr_mult: 1
    decay_mult: 1
  }
  param {
    lr_mult: 2
    decay_mult: 1
  }
  scale_param {
    bias_term: true
  }
}
layer {
  name: "layer_256_1_relu1"
  type: "ReLU"
  bottom: "layer_256_1_bn1"
  top: "layer_256_1_bn1"
}
layer {
  name: "layer_256_1_conv1"
  type: "Convolution"
  bottom: "layer_256_1_bn1"
  top: "layer_256_1_conv1"
  param {
    lr_mult: 1
    decay_mult: 1
  }
  convolution_param {
    num_output: 256
    bias_term: false
    pad: 0
    kernel_size: 1
    stride: 1
    weight_filler {
      type: "msra"
    }
    bias_filler {
      type: "constant"
      value: 0
    }
  }
}
layer {
  name: "layer_256_1_bn2"
  type: "BatchNorm"
  bottom: "layer_256_1_conv1"
  top: "layer_256_1_conv1"
  param {
    lr_mult: 0
    decay_mult: 0
  }
  param {
    lr_mult: 0
    decay_mult: 0
  }
  param {
    lr_mult: 0
    decay_mult: 0
  }
}
layer {
  name: "layer_256_1_scale2"
  type: "Scale"
  bottom: "layer_256_1_conv1"
  top: "layer_256_1_conv1"
  param {
    lr_mult: 1
    decay_mult: 1
  }
  param {
    lr_mult: 2
    decay_mult: 1
  }
  scale_param {
    bias_term: true
  }
}
layer {
  name: "layer_256_1_relu2"
  type: "ReLU"
  bottom: "layer_256_1_conv1"
  top: "layer_256_1_conv1"
}
layer {
  name: "layer_256_1_conv2"
  type: "Convolution"
  bottom: "layer_256_1_conv1"
  top: "layer_256_1_conv2"
  param {
    lr_mult: 1
    decay_mult: 1
  }
  convolution_param {
    num_output: 256
    bias_term: false
    pad: 1
    kernel_size: 3
    stride: 2
    weight_filler {
      type: "msra"
    }
    bias_filler {
      type: "constant"
      value: 0
    }
  }
}
layer {
  name: "layer_256_1_bn3"
  type: "BatchNorm"
  bottom: "layer_256_1_conv2"
  top: "layer_256_1_conv2"
  param {
    lr_mult: 0
    decay_mult: 0
  }
  param {
    lr_mult: 0
    decay_mult: 0
  }
  param {
    lr_mult: 0
    decay_mult: 0
  }
}
layer {
  name: "layer_256_1_scale3"
  type: "Scale"
  bottom: "layer_256_1_conv2"
  top: "layer_256_1_conv2"
  param {
    lr_mult: 1
    decay_mult: 1
  }
  param {
    lr_mult: 2
    decay_mult: 1
  }
  scale_param {
    bias_term: true
  }
}
layer {
  name: "layer_256_1_relu3"
  type: "ReLU"
  bottom: "layer_256_1_conv2"
  top: "layer_256_1_conv2"
}
layer {
  name: "layer_256_1_conv3"
  type: "Convolution"
  bottom: "layer_256_1_conv2"
  top: "layer_256_1_conv3"
  param {
    lr_mult: 1
    decay_mult: 1
  }
  convolution_param {
    num_output: 1024
    bias_term: false
    pad: 0
    kernel_size: 1
    stride: 1
    weight_filler {
      type: "msra"
    }
    bias_filler {
      type: "constant"
      value: 0
    }
  }
}
layer {
  name: "layer_256_1_conv_expand"
  type: "Convolution"
  bottom: "layer_256_1_bn1"
  top: "layer_256_1_conv_expand"
  param {
    lr_mult: 1
    decay_mult: 1
  }
  convolution_param {
    num_output: 1024
    bias_term: false
    pad: 0
    kernel_size: 1
    stride: 2
    weight_filler {
      type: "msra"
    }
    bias_filler {
      type: "constant"
      value: 0
    }
  }
}
layer {
  name: "layer_256_1_sum"
  type: "Eltwise"
  bottom: "layer_256_1_conv3"
  bottom: "layer_256_1_conv_expand"
  top: "layer_256_1_sum"
}
layer {
  name: "layer_256_2_bn1"
  type: "BatchNorm"
  bottom: "layer_256_1_sum"
  top: "layer_256_2_bn1"
  param {
    lr_mult: 0
    decay_mult: 0
  }
  param {
    lr_mult: 0
    decay_mult: 0
  }
  param {
    lr_mult: 0
    decay_mult: 0
  }
}
layer {
  name: "layer_256_2_scale1"
  type: "Scale"
  bottom: "layer_256_2_bn1"
  top: "layer_256_2_bn1"
  param {
    lr_mult: 1
    decay_mult: 1
  }
  param {
    lr_mult: 2
    decay_mult: 1
  }
  scale_param {
    bias_term: true
  }
}
layer {
  name: "layer_256_2_relu1"
  type: "ReLU"
  bottom: "layer_256_2_bn1"
  top: "layer_256_2_bn1"
}
layer {
  name: "layer_256_2_conv1"
  type: "Convolution"
  bottom: "layer_256_2_bn1"
  top: "layer_256_2_conv1"
  param {
    lr_mult: 1
    decay_mult: 1
  }
  convolution_param {
    num_output: 256
    bias_term: false
    pad: 0
    kernel_size: 1
    stride: 1
    weight_filler {
      type: "msra"
    }
    bias_filler {
      type: "constant"
      value: 0
    }
  }
}
layer {
  name: "layer_256_2_bn2"
  type: "BatchNorm"
  bottom: "layer_256_2_conv1"
  top: "layer_256_2_conv1"
  param {
    lr_mult: 0
    decay_mult: 0
  }
  param {
    lr_mult: 0
    decay_mult: 0
  }
  param {
    lr_mult: 0
    decay_mult: 0
  }
}
layer {
  name: "layer_256_2_scale2"
  type: "Scale"
  bottom: "layer_256_2_conv1"
  top: "layer_256_2_conv1"
  param {
    lr_mult: 1
    decay_mult: 1
  }
  param {
    lr_mult: 2
    decay_mult: 1
  }
  scale_param {
    bias_term: true
  }
}
layer {
  name: "layer_256_2_relu2"
  type: "ReLU"
  bottom: "layer_256_2_conv1"
  top: "layer_256_2_conv1"
}
layer {
  name: "layer_256_2_conv2"
  type: "Convolution"
  bottom: "layer_256_2_conv1"
  top: "layer_256_2_conv2"
  param {
    lr_mult: 1
    decay_mult: 1
  }
  convolution_param {
    num_output: 256
    bias_term: false
    pad: 1
    kernel_size: 3
    stride: 1
    weight_filler {
      type: "msra"
    }
    bias_filler {
      type: "constant"
      value: 0
    }
  }
}
layer {
  name: "layer_256_2_bn3"
  type: "BatchNorm"
  bottom: "layer_256_2_conv2"
  top: "layer_256_2_conv2"
  param {
    lr_mult: 0
    decay_mult: 0
  }
  param {
    lr_mult: 0
    decay_mult: 0
  }
  param {
    lr_mult: 0
    decay_mult: 0
  }
}
layer {
  name: "layer_256_2_scale3"
  type: "Scale"
  bottom: "layer_256_2_conv2"
  top: "layer_256_2_conv2"
  param {
    lr_mult: 1
    decay_mult: 1
  }
  param {
    lr_mult: 2
    decay_mult: 1
  }
  scale_param {
    bias_term: true
  }
}
layer {
  name: "layer_256_2_relu3"
  type: "ReLU"
  bottom: "layer_256_2_conv2"
  top: "layer_256_2_conv2"
}
layer {
  name: "layer_256_2_conv3"
  type: "Convolution"
  bottom: "layer_256_2_conv2"
  top: "layer_256_2_conv3"
  param {
    lr_mult: 1
    decay_mult: 1
  }
  
I0528 22:35:43.431105 58685 layer_factory.hpp:77] Creating layer data
I0528 22:35:43.431259 58685 db_lmdb.cpp:35] Opened lmdb /storage/Test_fold_is_01/gender_train_lmdb
I0528 22:35:43.431303 58685 net.cpp:84] Creating Layer data
I0528 22:35:43.431319 58685 net.cpp:380] data -> data
I0528 22:35:43.431347 58685 net.cpp:380] data -> label
I0528 22:35:43.431368 58685 data_transformer.cpp:25] Loading mean file from: /storage/Test_fold_is_01/mean.binaryproto
I0528 22:35:43.434890 58685 data_layer.cpp:45] output data size: 25,3,224,224
I0528 22:35:43.473065 58685 net.cpp:122] Setting up data
I0528 22:35:43.473142 58685 net.cpp:129] Top shape: 25 3 224 224 (3763200)
I0528 22:35:43.473152 58685 net.cpp:129] Top shape: 25 (25)
I0528 22:35:43.473156 58685 net.cpp:137] Memory required for data: 15052900
I0528 22:35:43.473167 58685 layer_factory.hpp:77] Creating layer data_bn
I0528 22:35:43.473188 58685 net.cpp:84] Creating Layer data_bn
I0528 22:35:43.473196 58685 net.cpp:406] data_bn <- data
I0528 22:35:43.473214 58685 net.cpp:380] data_bn -> data_bn
I0528 22:35:43.474258 58685 net.cpp:122] Setting up data_bn
I0528 22:35:43.474280 58685 net.cpp:129] Top shape: 25 3 224 224 (3763200)
I0528 22:35:43.474285 58685 net.cpp:137] Memory required for data: 30105700
I0528 22:35:43.474311 58685 layer_factory.hpp:77] Creating layer data_scale
I0528 22:35:43.474326 58685 net.cpp:84] Creating Layer data_scale
I0528 22:35:43.474331 58685 net.cpp:406] data_scale <- data_bn
I0528 22:35:43.474339 58685 net.cpp:367] data_scale -> data_bn (in-place)
I0528 22:35:43.474401 58685 layer_factory.hpp:77] Creating layer data_scale
I0528 22:35:43.474603 58685 net.cpp:122] Setting up data_scale
I0528 22:35:43.474629 58685 net.cpp:129] Top shape: 25 3 224 224 (3763200)
I0528 22:35:43.474633 58685 net.cpp:137] Memory required for data: 45158500
I0528 22:35:43.474642 58685 layer_factory.hpp:77] Creating layer conv1
I0528 22:35:43.474660 58685 net.cpp:84] Creating Layer conv1
I0528 22:35:43.474665 58685 net.cpp:406] conv1 <- data_bn
I0528 22:35:43.474673 58685 net.cpp:380] conv1 -> conv1
I0528 22:35:43.685499 58685 net.cpp:122] Setting up conv1
I0528 22:35:43.685559 58685 net.cpp:129] Top shape: 25 64 112 112 (20070400)
I0528 22:35:43.685567 58685 net.cpp:137] Memory required for data: 125440100
I0528 22:35:43.685580 58685 layer_factory.hpp:77] Creating layer conv1_bn
I0528 22:35:43.685595 58685 net.cpp:84] Creating Layer conv1_bn
I0528 22:35:43.685601 58685 net.cpp:406] conv1_bn <- conv1
I0528 22:35:43.685611 58685 net.cpp:367] conv1_bn -> conv1 (in-place)
I0528 22:35:43.685798 58685 net.cpp:122] Setting up conv1_bn
I0528 22:35:43.685808 58685 net.cpp:129] Top shape: 25 64 112 112 (20070400)
I0528 22:35:43.685811 58685 net.cpp:137] Memory required for data: 205721700
I0528 22:35:43.685824 58685 layer_factory.hpp:77] Creating layer conv1_scale
I0528 22:35:43.685834 58685 net.cpp:84] Creating Layer conv1_scale
I0528 22:35:43.685839 58685 net.cpp:406] conv1_scale <- conv1
I0528 22:35:43.685844 58685 net.cpp:367] conv1_scale -> conv1 (in-place)
I0528 22:35:43.685889 58685 layer_factory.hpp:77] Creating layer conv1_scale
I0528 22:35:43.686014 58685 net.cpp:122] Setting up conv1_scale
I0528 22:35:43.686023 58685 net.cpp:129] Top shape: 25 64 112 112 (20070400)
I0528 22:35:43.686028 58685 net.cpp:137] Memory required for data: 286003300
I0528 22:35:43.686034 58685 layer_factory.hpp:77] Creating layer conv1_relu
I0528 22:35:43.686046 58685 net.cpp:84] Creating Layer conv1_relu
I0528 22:35:43.686051 58685 net.cpp:406] conv1_relu <- conv1
I0528 22:35:43.686056 58685 net.cpp:367] conv1_relu -> conv1 (in-place)
I0528 22:35:43.686774 58685 net.cpp:122] Setting up conv1_relu
I0528 22:35:43.686794 58685 net.cpp:129] Top shape: 25 64 112 112 (20070400)
I0528 22:35:43.686799 58685 net.cpp:137] Memory required for data: 366284900
I0528 22:35:43.686803 58685 layer_factory.hpp:77] Creating layer conv1_pool
I0528 22:35:43.686812 58685 net.cpp:84] Creating Layer conv1_pool
I0528 22:35:43.686817 58685 net.cpp:406] conv1_pool <- conv1
I0528 22:35:43.686823 58685 net.cpp:380] conv1_pool -> conv1_pool
I0528 22:35:43.686898 58685 net.cpp:122] Setting up conv1_pool
I0528 22:35:43.686908 58685 net.cpp:129] Top shape: 25 64 56 56 (5017600)
I0528 22:35:43.686911 58685 net.cpp:137] Memory required for data: 386355300
I0528 22:35:43.686915 58685 layer_factory.hpp:77] Creating layer layer_64_1_conv1
I0528 22:35:43.686929 58685 net.cpp:84] Creating Layer layer_64_1_conv1
I0528 22:35:43.686934 58685 net.cpp:406] layer_64_1_conv1 <- conv1_pool
I0528 22:35:43.686940 58685 net.cpp:380] layer_64_1_conv1 -> layer_64_1_conv1
I0528 22:35:43.689447 58685 net.cpp:122] Setting up layer_64_1_conv1
I0528 22:35:43.689468 58685 net.cpp:129] Top shape: 25 64 56 56 (5017600)
I0528 22:35:43.689473 58685 net.cpp:137] Memory required for data: 406425700
I0528 22:35:43.689479 58685 layer_factory.hpp:77] Creating layer layer_64_1_bn2
I0528 22:35:43.689488 58685 net.cpp:84] Creating Layer layer_64_1_bn2
I0528 22:35:43.689493 58685 net.cpp:406] layer_64_1_bn2 <- layer_64_1_conv1
I0528 22:35:43.689499 58685 net.cpp:367] layer_64_1_bn2 -> layer_64_1_conv1 (in-place)
I0528 22:35:43.689684 58685 net.cpp:122] Setting up layer_64_1_bn2
I0528 22:35:43.689697 58685 net.cpp:129] Top shape: 25 64 56 56 (5017600)
I0528 22:35:43.689702 58685 net.cpp:137] Memory required for data: 426496100
I0528 22:35:43.689710 58685 layer_factory.hpp:77] Creating layer layer_64_1_scale2
I0528 22:35:43.689718 58685 net.cpp:84] Creating Layer layer_64_1_scale2
I0528 22:35:43.689723 58685 net.cpp:406] layer_64_1_scale2 <- layer_64_1_conv1
I0528 22:35:43.689728 58685 net.cpp:367] layer_64_1_scale2 -> layer_64_1_conv1 (in-place)
I0528 22:35:43.689769 58685 layer_factory.hpp:77] Creating layer layer_64_1_scale2
I0528 22:35:43.689905 58685 net.cpp:122] Setting up layer_64_1_scale2
I0528 22:35:43.689915 58685 net.cpp:129] Top shape: 25 64 56 56 (5017600)
I0528 22:35:43.689918 58685 net.cpp:137] Memory required for data: 446566500
I0528 22:35:43.689929 58685 layer_factory.hpp:77] Creating layer layer_64_1_relu2
I0528 22:35:43.689935 58685 net.cpp:84] Creating Layer layer_64_1_relu2
I0528 22:35:43.689939 58685 net.cpp:406] layer_64_1_relu2 <- layer_64_1_conv1
I0528 22:35:43.689944 58685 net.cpp:367] layer_64_1_relu2 -> layer_64_1_conv1 (in-place)
I0528 22:35:43.690114 58685 net.cpp:122] Setting up layer_64_1_relu2
I0528 22:35:43.690126 58685 net.cpp:129] Top shape: 25 64 56 56 (5017600)
I0528 22:35:43.690129 58685 net.cpp:137] Memory required for data: 466636900
I0528 22:35:43.690134 58685 layer_factory.hpp:77] Creating layer layer_64_1_conv1_layer_64_1_relu2_0_split
I0528 22:35:43.690145 58685 net.cpp:84] Creating Layer layer_64_1_conv1_layer_64_1_relu2_0_split
I0528 22:35:43.690148 58685 net.cpp:406] layer_64_1_conv1_layer_64_1_relu2_0_split <- layer_64_1_conv1
I0528 22:35:43.690155 58685 net.cpp:380] layer_64_1_conv1_layer_64_1_relu2_0_split -> layer_64_1_conv1_layer_64_1_relu2_0_split_0
I0528 22:35:43.690161 58685 net.cpp:380] layer_64_1_conv1_layer_64_1_relu2_0_split -> layer_64_1_conv1_layer_64_1_relu2_0_split_1
I0528 22:35:43.690203 58685 net.cpp:122] Setting up layer_64_1_conv1_layer_64_1_relu2_0_split
I0528 22:35:43.690212 58685 net.cpp:129] Top shape: 25 64 56 56 (5017600)
I0528 22:35:43.690215 58685 net.cpp:129] Top shape: 25 64 56 56 (5017600)
I0528 22:35:43.690218 58685 net.cpp:137] Memory required for data: 506777700
I0528 22:35:43.690222 58685 layer_factory.hpp:77] Creating layer layer_64_1_conv2
I0528 22:35:43.690232 58685 net.cpp:84] Creating Layer layer_64_1_conv2
I0528 22:35:43.690237 58685 net.cpp:406] layer_64_1_conv2 <- layer_64_1_conv1_layer_64_1_relu2_0_split_0
I0528 22:35:43.690243 58685 net.cpp:380] layer_64_1_conv2 -> layer_64_1_conv2
I0528 22:35:43.693109 58685 net.cpp:122] Setting up layer_64_1_conv2
I0528 22:35:43.693130 58685 net.cpp:129] Top shape: 25 64 56 56 (5017600)
I0528 22:35:43.693135 58685 net.cpp:137] Memory required for data: 526848100
I0528 22:35:43.693141 58685 layer_factory.hpp:77] Creating layer layer_64_1_bn3
I0528 22:35:43.693151 58685 net.cpp:84] Creating Layer layer_64_1_bn3
I0528 22:35:43.693156 58685 net.cpp:406] layer_64_1_bn3 <- layer_64_1_conv2
I0528 22:35:43.693161 58685 net.cpp:367] layer_64_1_bn3 -> layer_64_1_conv2 (in-place)
I0528 22:35:43.693358 58685 net.cpp:122] Setting up layer_64_1_bn3
I0528 22:35:43.693367 58685 net.cpp:129] Top shape: 25 64 56 56 (5017600)
I0528 22:35:43.693370 58685 net.cpp:137] Memory required for data: 546918500
I0528 22:35:43.693378 58685 layer_factory.hpp:77] Creating layer layer_64_1_scale3
I0528 22:35:43.693387 58685 net.cpp:84] Creating Layer layer_64_1_scale3
I0528 22:35:43.693390 58685 net.cpp:406] layer_64_1_scale3 <- layer_64_1_conv2
I0528 22:35:43.693395 58685 net.cpp:367] layer_64_1_scale3 -> layer_64_1_conv2 (in-place)
I0528 22:35:43.693439 58685 layer_factory.hpp:77] Creating layer layer_64_1_scale3
I0528 22:35:43.693563 58685 net.cpp:122] Setting up layer_64_1_scale3
I0528 22:35:43.693578 58685 net.cpp:129] Top shape: 25 64 56 56 (5017600)
I0528 22:35:43.693581 58685 net.cpp:137] Memory required for data: 566988900
I0528 22:35:43.693588 58685 layer_factory.hpp:77] Creating layer layer_64_1_relu3
I0528 22:35:43.693596 58685 net.cpp:84] Creating Layer layer_64_1_relu3
I0528 22:35:43.693600 58685 net.cpp:406] layer_64_1_relu3 <- layer_64_1_conv2
I0528 22:35:43.693605 58685 net.cpp:367] layer_64_1_relu3 -> layer_64_1_conv2 (in-place)
I0528 22:35:43.693789 58685 net.cpp:122] Setting up layer_64_1_relu3
I0528 22:35:43.693801 58685 net.cpp:129] Top shape: 25 64 56 56 (5017600)
I0528 22:35:43.693805 58685 net.cpp:137] Memory required for data: 587059300
I0528 22:35:43.693809 58685 layer_factory.hpp:77] Creating layer layer_64_1_conv3
I0528 22:35:43.693825 58685 net.cpp:84] Creating Layer layer_64_1_conv3
I0528 22:35:43.693835 58685 net.cpp:406] layer_64_1_conv3 <- layer_64_1_conv2
I0528 22:35:43.693852 58685 net.cpp:380] layer_64_1_conv3 -> layer_64_1_conv3
I0528 22:35:43.696197 58685 net.cpp:122] Setting up layer_64_1_conv3
I0528 22:35:43.696218 58685 net.cpp:129] Top shape: 25 256 56 56 (20070400)
I0528 22:35:43.696223 58685 net.cpp:137] Memory required for data: 667340900
I0528 22:35:43.696228 58685 layer_factory.hpp:77] Creating layer layer_64_1_conv_expand
I0528 22:35:43.696241 58685 net.cpp:84] Creating Layer layer_64_1_conv_expand
I0528 22:35:43.696246 58685 net.cpp:406] layer_64_1_conv_expand <- layer_64_1_conv1_layer_64_1_relu2_0_split_1
I0528 22:35:43.696255 58685 net.cpp:380] layer_64_1_conv_expand -> layer_64_1_conv_expand
I0528 22:35:43.698539 58685 net.cpp:122] Setting up layer_64_1_conv_expand
I0528 22:35:43.698565 58685 net.cpp:129] Top shape: 25 256 56 56 (20070400)
I0528 22:35:43.698572 58685 net.cpp:137] Memory required for data: 747622500
I0528 22:35:43.698578 58685 layer_factory.hpp:77] Creating layer layer_64_1_sum
I0528 22:35:43.698592 58685 net.cpp:84] Creating Layer layer_64_1_sum
I0528 22:35:43.698597 58685 net.cpp:406] layer_64_1_sum <- layer_64_1_conv3
I0528 22:35:43.698603 58685 net.cpp:406] layer_64_1_sum <- layer_64_1_conv_expand
I0528 22:35:43.698608 58685 net.cpp:380] layer_64_1_sum -> layer_64_1_sum
I0528 22:35:43.698645 58685 net.cpp:122] Setting up layer_64_1_sum
I0528 22:35:43.698653 58685 net.cpp:129] Top shape: 25 256 56 56 (20070400)
I0528 22:35:43.698657 58685 net.cpp:137] Memory required for data: 827904100
I0528 22:35:43.698660 58685 layer_factory.hpp:77] Creating layer layer_64_1_sum_layer_64_1_sum_0_split
I0528 22:35:43.698668 58685 net.cpp:84] Creating Layer layer_64_1_sum_layer_64_1_sum_0_split
I0528 22:35:43.698671 58685 net.cpp:406] layer_64_1_sum_layer_64_1_sum_0_split <- layer_64_1_sum
I0528 22:35:43.698679 58685 net.cpp:380] layer_64_1_sum_layer_64_1_sum_0_split -> layer_64_1_sum_layer_64_1_sum_0_split_0
I0528 22:35:43.698686 58685 net.cpp:380] layer_64_1_sum_layer_64_1_sum_0_split -> layer_64_1_sum_layer_64_1_sum_0_split_1
I0528 22:35:43.698720 58685 net.cpp:122] Setting up layer_64_1_sum_layer_64_1_sum_0_split
I0528 22:35:43.698729 58685 net.cpp:129] Top shape: 25 256 56 56 (20070400)
I0528 22:35:43.698734 58685 net.cpp:129] Top shape: 25 256 56 56 (20070400)
I0528 22:35:43.698736 58685 net.cpp:137] Memory required for data: 988467300
I0528 22:35:43.698740 58685 layer_factory.hpp:77] Creating layer layer_64_2_bn1
I0528 22:35:43.698746 58685 net.cpp:84] Creating Layer layer_64_2_bn1
I0528 22:35:43.698750 58685 net.cpp:406] layer_64_2_bn1 <- layer_64_1_sum_layer_64_1_sum_0_split_0
I0528 22:35:43.698757 58685 net.cpp:380] layer_64_2_bn1 -> layer_64_2_bn1
I0528 22:35:43.698946 58685 net.cpp:122] Setting up layer_64_2_bn1
I0528 22:35:43.698954 58685 net.cpp:129] Top shape: 25 256 56 56 (20070400)
I0528 22:35:43.698958 58685 net.cpp:137] Memory required for data: 1068748900
I0528 22:35:43.698966 58685 layer_factory.hpp:77] Creating layer layer_64_2_scale1
I0528 22:35:43.698973 58685 net.cpp:84] Creating Layer layer_64_2_scale1
I0528 22:35:43.698977 58685 net.cpp:406] layer_64_2_scale1 <- layer_64_2_bn1
I0528 22:35:43.698983 58685 net.cpp:367] layer_64_2_scale1 -> layer_64_2_bn1 (in-place)
I0528 22:35:43.699026 58685 layer_factory.hpp:77] Creating layer layer_64_2_scale1
I0528 22:35:43.699143 58685 net.cpp:122] Setting up layer_64_2_scale1
I0528 22:35:43.699151 58685 net.cpp:129] Top shape: 25 256 56 56 (20070400)
I0528 22:35:43.699156 58685 net.cpp:137] Memory required for data: 1149030500
I0528 22:35:43.699162 58685 layer_factory.hpp:77] Creating layer layer_64_2_relu1
I0528 22:35:43.699168 58685 net.cpp:84] Creating Layer layer_64_2_relu1
I0528 22:35:43.699172 58685 net.cpp:406] layer_64_2_relu1 <- layer_64_2_bn1
I0528 22:35:43.699179 58685 net.cpp:367] layer_64_2_relu1 -> layer_64_2_bn1 (in-place)
I0528 22:35:43.699867 58685 net.cpp:122] Setting up layer_64_2_relu1
I0528 22:35:43.699887 58685 net.cpp:129] Top shape: 25 256 56 56 (20070400)
I0528 22:35:43.699899 58685 net.cpp:137] Memory required for data: 1229312100
I0528 22:35:43.699910 58685 layer_factory.hpp:77] Creating layer layer_64_2_conv1
I0528 22:35:43.699924 58685 net.cpp:84] Creating Layer layer_64_2_conv1
I0528 22:35:43.699929 58685 net.cpp:406] layer_64_2_conv1 <- layer_64_2_bn1
I0528 22:35:43.699939 58685 net.cpp:380] layer_64_2_conv1 -> layer_64_2_conv1
I0528 22:35:43.701725 58685 net.cpp:122] Setting up layer_64_2_conv1
I0528 22:35:43.701746 58685 net.cpp:129] Top shape: 25 64 56 56 (5017600)
I0528 22:35:43.701751 58685 net.cpp:137] Memory required for data: 1249382500
I0528 22:35:43.701757 58685 layer_factory.hpp:77] Creating layer layer_64_2_bn2
I0528 22:35:43.701766 58685 net.cpp:84] Creating Layer layer_64_2_bn2
I0528 22:35:43.701771 58685 net.cpp:406] layer_64_2_bn2 <- layer_64_2_conv1
I0528 22:35:43.701779 58685 net.cpp:367] layer_64_2_bn2 -> layer_64_2_conv1 (in-place)
I0528 22:35:43.701979 58685 net.cpp:122] Setting up layer_64_2_bn2
I0528 22:35:43.701988 58685 net.cpp:129] Top shape: 25 64 56 56 (5017600)
I0528 22:35:43.701992 58685 net.cpp:137] Memory required for data: 1269452900
I0528 22:35:43.702008 58685 layer_factory.hpp:77] Creating layer layer_64_2_scale2
I0528 22:35:43.702014 58685 net.cpp:84] Creating Layer layer_64_2_scale2
I0528 22:35:43.702019 58685 net.cpp:406] layer_64_2_scale2 <- layer_64_2_conv1
I0528 22:35:43.702024 58685 net.cpp:367] layer_64_2_scale2 -> layer_64_2_conv1 (in-place)
I0528 22:35:43.702069 58685 layer_factory.hpp:77] Creating layer layer_64_2_scale2
I0528 22:35:43.702190 58685 net.cpp:122] Setting up layer_64_2_scale2
I0528 22:35:43.702199 58685 net.cpp:129] Top shape: 25 64 56 56 (5017600)
I0528 22:35:43.702203 58685 net.cpp:137] Memory required for data: 1289523300
I0528 22:35:43.702208 58685 layer_factory.hpp:77] Creating layer layer_64_2_relu2
I0528 22:35:43.702215 58685 net.cpp:84] Creating Layer layer_64_2_relu2
I0528 22:35:43.702219 58685 net.cpp:406] layer_64_2_relu2 <- layer_64_2_conv1
I0528 22:35:43.702226 58685 net.cpp:367] layer_64_2_relu2 -> layer_64_2_conv1 (in-place)
I0528 22:35:43.702916 58685 net.cpp:122] Setting up layer_64_2_relu2
I0528 22:35:43.702935 58685 net.cpp:129] Top shape: 25 64 56 56 (5017600)
I0528 22:35:43.702940 58685 net.cpp:137] Memory required for data: 1309593700
I0528 22:35:43.702944 58685 layer_factory.hpp:77] Creating layer layer_64_2_conv2
I0528 22:35:43.702956 58685 net.cpp:84] Creating Layer layer_64_2_conv2
I0528 22:35:43.702961 58685 net.cpp:406] layer_64_2_conv2 <- layer_64_2_conv1
I0528 22:35:43.702970 58685 net.cpp:380] layer_64_2_conv2 -> layer_64_2_conv2
I0528 22:35:43.705936 58685 net.cpp:122] Setting up layer_64_2_conv2
I0528 22:35:43.705957 58685 net.cpp:129] Top shape: 25 64 56 56 (5017600)
I0528 22:35:43.705961 58685 net.cpp:137] Memory required for data: 1329664100
I0528 22:35:43.705968 58685 layer_factory.hpp:77] Creating layer layer_64_2_bn3
I0528 22:35:43.705978 58685 net.cpp:84] Creating Layer layer_64_2_bn3
I0528 22:35:43.705983 58685 net.cpp:406] layer_64_2_bn3 <- layer_64_2_conv2
I0528 22:35:43.705988 58685 net.cpp:367] layer_64_2_bn3 -> layer_64_2_conv2 (in-place)
I0528 22:35:43.706192 58685 net.cpp:122] Setting up layer_64_2_bn3
I0528 22:35:43.706199 58685 net.cpp:129] Top shape: 25 64 56 56 (5017600)
I0528 22:35:43.706203 58685 net.cpp:137] Memory required for data: 1349734500
I0528 22:35:43.706212 58685 layer_factory.hpp:77] Creating layer layer_64_2_scale3
I0528 22:35:43.706218 58685 net.cpp:84] Creating Layer layer_64_2_scale3
I0528 22:35:43.706223 58685 net.cpp:406] layer_64_2_scale3 <- layer_64_2_conv2
I0528 22:35:43.706228 58685 net.cpp:367] layer_64_2_scale3 -> layer_64_2_conv2 (in-place)
I0528 22:35:43.706272 58685 layer_factory.hpp:77] Creating layer layer_64_2_scale3
I0528 22:35:43.706393 58685 net.cpp:122] Setting up layer_64_2_scale3
I0528 22:35:43.706404 58685 net.cpp:129] Top shape: 25 64 56 56 (5017600)
I0528 22:35:43.706408 58685 net.cpp:137] Memory required for data: 1369804900
I0528 22:35:43.706414 58685 layer_factory.hpp:77] Creating layer layer_64_2_relu3
I0528 22:35:43.706428 58685 net.cpp:84] Creating Layer layer_64_2_relu3
I0528 22:35:43.706439 58685 net.cpp:406] layer_64_2_relu3 <- layer_64_2_conv2
I0528 22:35:43.706445 58685 net.cpp:367] layer_64_2_relu3 -> layer_64_2_conv2 (in-place)
I0528 22:35:43.706641 58685 net.cpp:122] Setting up layer_64_2_relu3
I0528 22:35:43.706658 58685 net.cpp:129] Top shape: 25 64 56 56 (5017600)
I0528 22:35:43.706662 58685 net.cpp:137] Memory required for data: 1389875300
I0528 22:35:43.706667 58685 layer_factory.hpp:77] Creating layer layer_64_2_conv3
I0528 22:35:43.706682 58685 net.cpp:84] Creating Layer layer_64_2_conv3
I0528 22:35:43.706686 58685 net.cpp:406] layer_64_2_conv3 <- layer_64_2_conv2
I0528 22:35:43.706696 58685 net.cpp:380] layer_64_2_conv3 -> layer_64_2_conv3
I0528 22:35:43.709007 58685 net.cpp:122] Setting up layer_64_2_conv3
I0528 22:35:43.709026 58685 net.cpp:129] Top shape: 25 256 56 56 (20070400)
I0528 22:35:43.709030 58685 net.cpp:137] Memory required for data: 1470156900
I0528 22:35:43.709038 58685 layer_factory.hpp:77] Creating layer layer_64_2_sum
I0528 22:35:43.709046 58685 net.cpp:84] Creating Layer layer_64_2_sum
I0528 22:35:43.709051 58685 net.cpp:406] layer_64_2_sum <- layer_64_2_conv3
I0528 22:35:43.709058 58685 net.cpp:406] layer_64_2_sum <- layer_64_1_sum_layer_64_1_sum_0_split_1
I0528 22:35:43.709062 58685 net.cpp:380] layer_64_2_sum -> layer_64_2_sum
I0528 22:35:43.709092 58685 net.cpp:122] Setting up layer_64_2_sum
I0528 22:35:43.709101 58685 net.cpp:129] Top shape: 25 256 56 56 (20070400)
I0528 22:35:43.709105 58685 net.cpp:137] Memory required for data: 1550438500
I0528 22:35:43.709108 58685 layer_factory.hpp:77] Creating layer layer_64_2_sum_layer_64_2_sum_0_split
I0528 22:35:43.709115 58685 net.cpp:84] Creating Layer layer_64_2_sum_layer_64_2_sum_0_split
I0528 22:35:43.709120 58685 net.cpp:406] layer_64_2_sum_layer_64_2_sum_0_split <- layer_64_2_sum
I0528 22:35:43.709125 58685 net.cpp:380] layer_64_2_sum_layer_64_2_sum_0_split -> layer_64_2_sum_layer_64_2_sum_0_split_0
I0528 22:35:43.709133 58685 net.cpp:380] layer_64_2_sum_layer_64_2_sum_0_split -> layer_64_2_sum_layer_64_2_sum_0_split_1
I0528 22:35:43.709169 58685 net.cpp:122] Setting up layer_64_2_sum_layer_64_2_sum_0_split
I0528 22:35:43.709175 58685 net.cpp:129] Top shape: 25 256 56 56 (20070400)
I0528 22:35:43.709180 58685 net.cpp:129] Top shape: 25 256 56 56 (20070400)
I0528 22:35:43.709183 58685 net.cpp:137] Memory required for data: 1711001700
I0528 22:35:43.709187 58685 layer_factory.hpp:77] Creating layer layer_64_3_bn1
I0528 22:35:43.709194 58685 net.cpp:84] Creating Layer layer_64_3_bn1
I0528 22:35:43.709198 58685 net.cpp:406] layer_64_3_bn1 <- layer_64_2_sum_layer_64_2_sum_0_split_0
I0528 22:35:43.709204 58685 net.cpp:380] layer_64_3_bn1 -> layer_64_3_bn1
I0528 22:35:43.709400 58685 net.cpp:122] Setting up layer_64_3_bn1
I0528 22:35:43.709409 58685 net.cpp:129] Top shape: 25 256 56 56 (20070400)
I0528 22:35:43.709412 58685 net.cpp:137] Memory required for data: 1791283300
I0528 22:35:43.709420 58685 layer_factory.hpp:77] Creating layer layer_64_3_scale1
I0528 22:35:43.709429 58685 net.cpp:84] Creating Layer layer_64_3_scale1
I0528 22:35:43.709432 58685 net.cpp:406] layer_64_3_scale1 <- layer_64_3_bn1
I0528 22:35:43.709439 58685 net.cpp:367] layer_64_3_scale1 -> layer_64_3_bn1 (in-place)
I0528 22:35:43.709482 58685 layer_factory.hpp:77] Creating layer layer_64_3_scale1
I0528 22:35:43.709609 58685 net.cpp:122] Setting up layer_64_3_scale1
I0528 22:35:43.709623 58685 net.cpp:129] Top shape: 25 256 56 56 (20070400)
I0528 22:35:43.709627 58685 net.cpp:137] Memory required for data: 1871564900
I0528 22:35:43.709635 58685 layer_factory.hpp:77] Creating layer layer_64_3_relu1
I0528 22:35:43.709641 58685 net.cpp:84] Creating Layer layer_64_3_relu1
I0528 22:35:43.709645 58685 net.cpp:406] layer_64_3_relu1 <- layer_64_3_bn1
I0528 22:35:43.709650 58685 net.cpp:367] layer_64_3_relu1 -> layer_64_3_bn1 (in-place)
I0528 22:35:43.710835 58685 net.cpp:122] Setting up layer_64_3_relu1
I0528 22:35:43.710856 58685 net.cpp:129] Top shape: 25 256 56 56 (20070400)
I0528 22:35:43.710866 58685 net.cpp:137] Memory required for data: 1951846500
I0528 22:35:43.710877 58685 layer_factory.hpp:77] Creating layer layer_64_3_conv1
I0528 22:35:43.710891 58685 net.cpp:84] Creating Layer layer_64_3_conv1
I0528 22:35:43.710896 58685 net.cpp:406] layer_64_3_conv1 <- layer_64_3_bn1
I0528 22:35:43.710902 58685 net.cpp:380] layer_64_3_conv1 -> layer_64_3_conv1
I0528 22:35:43.712738 58685 net.cpp:122] Setting up layer_64_3_conv1
I0528 22:35:43.712761 58685 net.cpp:129] Top shape: 25 64 56 56 (5017600)
I0528 22:35:43.712766 58685 net.cpp:137] Memory required for data: 1971916900
I0528 22:35:43.712772 58685 layer_factory.hpp:77] Creating layer layer_64_3_bn2
I0528 22:35:43.712780 58685 net.cpp:84] Creating Layer layer_64_3_bn2
I0528 22:35:43.712785 58685 net.cpp:406] layer_64_3_bn2 <- layer_64_3_conv1
I0528 22:35:43.712792 58685 net.cpp:367] layer_64_3_bn2 -> layer_64_3_conv1 (in-place)
I0528 22:35:43.713004 58685 net.cpp:122] Setting up layer_64_3_bn2
I0528 22:35:43.713014 58685 net.cpp:129] Top shape: 25 64 56 56 (5017600)
I0528 22:35:43.713017 58685 net.cpp:137] Memory required for data: 1991987300
I0528 22:35:43.713026 58685 layer_factory.hpp:77] Creating layer layer_64_3_scale2
I0528 22:35:43.713033 58685 net.cpp:84] Creating Layer layer_64_3_scale2
I0528 22:35:43.713037 58685 net.cpp:406] layer_64_3_scale2 <- layer_64_3_conv1
I0528 22:35:43.713044 58685 net.cpp:367] layer_64_3_scale2 -> layer_64_3_conv1 (in-place)
I0528 22:35:43.713088 58685 layer_factory.hpp:77] Creating layer layer_64_3_scale2
I0528 22:35:43.713215 58685 net.cpp:122] Setting up layer_64_3_scale2
I0528 22:35:43.713224 58685 net.cpp:129] Top shape: 25 64 56 56 (5017600)
I0528 22:35:43.713227 58685 net.cpp:137] Memory required for data: 2012057700
I0528 22:35:43.713233 58685 layer_factory.hpp:77] Creating layer layer_64_3_relu2
I0528 22:35:43.713240 58685 net.cpp:84] Creating Layer layer_64_3_relu2
I0528 22:35:43.713244 58685 net.cpp:406] layer_64_3_relu2 <- layer_64_3_conv1
I0528 22:35:43.713249 58685 net.cpp:367] layer_64_3_relu2 -> layer_64_3_conv1 (in-place)
I0528 22:35:43.713938 58685 net.cpp:122] Setting up layer_64_3_relu2
I0528 22:35:43.713958 58685 net.cpp:129] Top shape: 25 64 56 56 (5017600)
I0528 22:35:43.713963 58685 net.cpp:137] Memory required for data: 2032128100
I0528 22:35:43.713968 58685 layer_factory.hpp:77] Creating layer layer_64_3_conv2
I0528 22:35:43.713980 58685 net.cpp:84] Creating Layer layer_64_3_conv2
I0528 22:35:43.713985 58685 net.cpp:406] layer_64_3_conv2 <- layer_64_3_conv1
I0528 22:35:43.713991 58685 net.cpp:380] layer_64_3_conv2 -> layer_64_3_conv2
I0528 22:35:43.716966 58685 net.cpp:122] Setting up layer_64_3_conv2
I0528 22:35:43.716987 58685 net.cpp:129] Top shape: 25 64 56 56 (5017600)
I0528 22:35:43.716991 58685 net.cpp:137] Memory required for data: 2052198500
I0528 22:35:43.716997 58685 layer_factory.hpp:77] Creating layer layer_64_3_bn3
I0528 22:35:43.717005 58685 net.cpp:84] Creating Layer layer_64_3_bn3
I0528 22:35:43.717010 58685 net.cpp:406] layer_64_3_bn3 <- layer_64_3_conv2
I0528 22:35:43.717020 58685 net.cpp:367] layer_64_3_bn3 -> layer_64_3_conv2 (in-place)
I0528 22:35:43.717227 58685 net.cpp:122] Setting up layer_64_3_bn3
I0528 22:35:43.717236 58685 net.cpp:129] Top shape: 25 64 56 56 (5017600)
I0528 22:35:43.717241 58685 net.cpp:137] Memory required for data: 2072268900
I0528 22:35:43.717247 58685 layer_factory.hpp:77] Creating layer layer_64_3_scale3
I0528 22:35:43.717255 58685 net.cpp:84] Creating Layer layer_64_3_scale3
I0528 22:35:43.717259 58685 net.cpp:406] layer_64_3_scale3 <- layer_64_3_conv2
I0528 22:35:43.717267 58685 net.cpp:367] layer_64_3_scale3 -> layer_64_3_conv2 (in-place)
I0528 22:35:43.717310 58685 layer_factory.hpp:77] Creating layer layer_64_3_scale3
I0528 22:35:43.717437 58685 net.cpp:122] Setting up layer_64_3_scale3
I0528 22:35:43.717444 58685 net.cpp:129] Top shape: 25 64 56 56 (5017600)
I0528 22:35:43.717448 58685 net.cpp:137] Memory required for data: 2092339300
I0528 22:35:43.717454 58685 layer_factory.hpp:77] Creating layer layer_64_3_relu3
I0528 22:35:43.717461 58685 net.cpp:84] Creating Layer layer_64_3_relu3
I0528 22:35:43.717480 58685 net.cpp:406] layer_64_3_relu3 <- layer_64_3_conv2
I0528 22:35:43.717489 58685 net.cpp:367] layer_64_3_relu3 -> layer_64_3_conv2 (in-place)
I0528 22:35:43.717684 58685 net.cpp:122] Setting up layer_64_3_relu3
I0528 22:35:43.717700 58685 net.cpp:129] Top shape: 25 64 56 56 (5017600)
I0528 22:35:43.717705 58685 net.cpp:137] Memory required for data: 2112409700
I0528 22:35:43.717708 58685 layer_factory.hpp:77] Creating layer layer_64_3_conv3
I0528 22:35:43.717720 58685 net.cpp:84] Creating Layer layer_64_3_conv3
I0528 22:35:43.717725 58685 net.cpp:406] layer_64_3_conv3 <- layer_64_3_conv2
I0528 22:35:43.717733 58685 net.cpp:380] layer_64_3_conv3 -> layer_64_3_conv3
I0528 22:35:43.720041 58685 net.cpp:122] Setting up layer_64_3_conv3
I0528 22:35:43.720063 58685 net.cpp:129] Top shape: 25 256 56 56 (20070400)
I0528 22:35:43.720068 58685 net.cpp:137] Memory required for data: 2192691300
I0528 22:35:43.720074 58685 layer_factory.hpp:77] Creating layer layer_64_3_sum
I0528 22:35:43.720082 58685 net.cpp:84] Creating Layer layer_64_3_sum
I0528 22:35:43.720087 58685 net.cpp:406] layer_64_3_sum <- layer_64_3_conv3
I0528 22:35:43.720093 58685 net.cpp:406] layer_64_3_sum <- layer_64_2_sum_layer_64_2_sum_0_split_1
I0528 22:35:43.720098 58685 net.cpp:380] layer_64_3_sum -> layer_64_3_sum
I0528 22:35:43.720130 58685 net.cpp:122] Setting up layer_64_3_sum
I0528 22:35:43.720137 58685 net.cpp:129] Top shape: 25 256 56 56 (20070400)
I0528 22:35:43.720141 58685 net.cpp:137] Memory required for data: 2272972900
I0528 22:35:43.720145 58685 layer_factory.hpp:77] Creating layer layer_128_1_bn1
I0528 22:35:43.720154 58685 net.cpp:84] Creating Layer layer_128_1_bn1
I0528 22:35:43.720157 58685 net.cpp:406] layer_128_1_bn1 <- layer_64_3_sum
I0528 22:35:43.720163 58685 net.cpp:380] layer_128_1_bn1 -> layer_128_1_bn1
I0528 22:35:43.720371 58685 net.cpp:122] Setting up layer_128_1_bn1
I0528 22:35:43.720381 58685 net.cpp:129] Top shape: 25 256 56 56 (20070400)
I0528 22:35:43.720383 58685 net.cpp:137] Memory required for data: 2353254500
I0528 22:35:43.720402 58685 layer_factory.hpp:77] Creating layer layer_128_1_scale1
I0528 22:35:43.720412 58685 net.cpp:84] Creating Layer layer_128_1_scale1
I0528 22:35:43.720415 58685 net.cpp:406] layer_128_1_scale1 <- layer_128_1_bn1
I0528 22:35:43.720422 58685 net.cpp:367] layer_128_1_scale1 -> layer_128_1_bn1 (in-place)
I0528 22:35:43.720469 58685 layer_factory.hpp:77] Creating layer layer_128_1_scale1
I0528 22:35:43.720598 58685 net.cpp:122] Setting up layer_128_1_scale1
I0528 22:35:43.720612 58685 net.cpp:129] Top shape: 25 256 56 56 (20070400)
I0528 22:35:43.720615 58685 net.cpp:137] Memory required for data: 2433536100
I0528 22:35:43.720621 58685 layer_factory.hpp:77] Creating layer layer_128_1_relu1
I0528 22:35:43.720628 58685 net.cpp:84] Creating Layer layer_128_1_relu1
I0528 22:35:43.720633 58685 net.cpp:406] layer_128_1_relu1 <- layer_128_1_bn1
I0528 22:35:43.720640 58685 net.cpp:367] layer_128_1_relu1 -> layer_128_1_bn1 (in-place)
I0528 22:35:43.721323 58685 net.cpp:122] Setting up layer_128_1_relu1
I0528 22:35:43.721338 58685 net.cpp:129] Top shape: 25 256 56 56 (20070400)
I0528 22:35:43.721343 58685 net.cpp:137] Memory required for data: 2513817700
I0528 22:35:43.721346 58685 layer_factory.hpp:77] Creating layer layer_128_1_bn1_layer_128_1_relu1_0_split
I0528 22:35:43.721354 58685 net.cpp:84] Creating Layer layer_128_1_bn1_layer_128_1_relu1_0_split
I0528 22:35:43.721357 58685 net.cpp:406] layer_128_1_bn1_layer_128_1_relu1_0_split <- layer_128_1_bn1
I0528 22:35:43.721365 58685 net.cpp:380] layer_128_1_bn1_layer_128_1_relu1_0_split -> layer_128_1_bn1_layer_128_1_relu1_0_split_0
I0528 22:35:43.721374 58685 net.cpp:380] layer_128_1_bn1_layer_128_1_relu1_0_split -> layer_128_1_bn1_layer_128_1_relu1_0_split_1
I0528 22:35:43.721422 58685 net.cpp:122] Setting up layer_128_1_bn1_layer_128_1_relu1_0_split
I0528 22:35:43.721431 58685 net.cpp:129] Top shape: 25 256 56 56 (20070400)
I0528 22:35:43.721434 58685 net.cpp:129] Top shape: 25 256 56 56 (20070400)
I0528 22:35:43.721444 58685 net.cpp:137] Memory required for data: 2674380900
I0528 22:35:43.721457 58685 layer_factory.hpp:77] Creating layer layer_128_1_conv1
I0528 22:35:43.721469 58685 net.cpp:84] Creating Layer layer_128_1_conv1
I0528 22:35:43.721474 58685 net.cpp:406] layer_128_1_conv1 <- layer_128_1_bn1_layer_128_1_relu1_0_split_0
I0528 22:35:43.721480 58685 net.cpp:380] layer_128_1_conv1 -> layer_128_1_conv1
I0528 22:35:43.725004 58685 net.cpp:122] Setting up layer_128_1_conv1
I0528 22:35:43.725025 58685 net.cpp:129] Top shape: 25 128 56 56 (10035200)
I0528 22:35:43.725030 58685 net.cpp:137] Memory required for data: 2714521700
I0528 22:35:43.725036 58685 layer_factory.hpp:77] Creating layer layer_128_1_bn2
I0528 22:35:43.725046 58685 net.cpp:84] Creating Layer layer_128_1_bn2
I0528 22:35:43.725051 58685 net.cpp:406] layer_128_1_bn2 <- layer_128_1_conv1
I0528 22:35:43.725059 58685 net.cpp:367] layer_128_1_bn2 -> layer_128_1_conv1 (in-place)
I0528 22:35:43.725272 58685 net.cpp:122] Setting up layer_128_1_bn2
I0528 22:35:43.725281 58685 net.cpp:129] Top shape: 25 128 56 56 (10035200)
I0528 22:35:43.725286 58685 net.cpp:137] Memory required for data: 2754662500
I0528 22:35:43.725296 58685 layer_factory.hpp:77] Creating layer layer_128_1_scale2
I0528 22:35:43.725303 58685 net.cpp:84] Creating Layer layer_128_1_scale2
I0528 22:35:43.725307 58685 net.cpp:406] layer_128_1_scale2 <- layer_128_1_conv1
I0528 22:35:43.725312 58685 net.cpp:367] layer_128_1_scale2 -> layer_128_1_conv1 (in-place)
I0528 22:35:43.725358 58685 layer_factory.hpp:77] Creating layer layer_128_1_scale2
I0528 22:35:43.725481 58685 net.cpp:122] Setting up layer_128_1_scale2
I0528 22:35:43.725489 58685 net.cpp:129] Top shape: 25 128 56 56 (10035200)
I0528 22:35:43.725492 58685 net.cpp:137] Memory required for data: 2794803300
I0528 22:35:43.725498 58685 layer_factory.hpp:77] Creating layer layer_128_1_relu2
I0528 22:35:43.725507 58685 net.cpp:84] Creating Layer layer_128_1_relu2
I0528 22:35:43.725512 58685 net.cpp:406] layer_128_1_relu2 <- layer_128_1_conv1
I0528 22:35:43.725517 58685 net.cpp:367] layer_128_1_relu2 -> layer_128_1_conv1 (in-place)
I0528 22:35:43.726218 58685 net.cpp:122] Setting up layer_128_1_relu2
I0528 22:35:43.726238 58685 net.cpp:129] Top shape: 25 128 56 56 (10035200)
I0528 22:35:43.726243 58685 net.cpp:137] Memory required for data: 2834944100
I0528 22:35:43.726246 58685 layer_factory.hpp:77] Creating layer layer_128_1_conv2
I0528 22:35:43.726260 58685 net.cpp:84] Creating Layer layer_128_1_conv2
I0528 22:35:43.726265 58685 net.cpp:406] layer_128_1_conv2 <- layer_128_1_conv1
I0528 22:35:43.726274 58685 net.cpp:380] layer_128_1_conv2 -> layer_128_1_conv2
I0528 22:35:43.734033 58685 net.cpp:122] Setting up layer_128_1_conv2
I0528 22:35:43.734057 58685 net.cpp:129] Top shape: 25 128 28 28 (2508800)
I0528 22:35:43.734062 58685 net.cpp:137] Memory required for data: 2844979300
I0528 22:35:43.734069 58685 layer_factory.hpp:77] Creating layer layer_128_1_bn3
I0528 22:35:43.734079 58685 net.cpp:84] Creating Layer layer_128_1_bn3
I0528 22:35:43.734084 58685 net.cpp:406] layer_128_1_bn3 <- layer_128_1_conv2
I0528 22:35:43.734091 58685 net.cpp:367] layer_128_1_bn3 -> layer_128_1_conv2 (in-place)
I0528 22:35:43.734911 58685 net.cpp:122] Setting up layer_128_1_bn3
I0528 22:35:43.734930 58685 net.cpp:129] Top shape: 25 128 28 28 (2508800)
I0528 22:35:43.734935 58685 net.cpp:137] Memory required for data: 2855014500
I0528 22:35:43.734943 58685 layer_factory.hpp:77] Creating layer layer_128_1_scale3
I0528 22:35:43.734952 58685 net.cpp:84] Creating Layer layer_128_1_scale3
I0528 22:35:43.734956 58685 net.cpp:406] layer_128_1_scale3 <- layer_128_1_conv2
I0528 22:35:43.734962 58685 net.cpp:367] layer_128_1_scale3 -> layer_128_1_conv2 (in-place)
I0528 22:35:43.735015 58685 layer_factory.hpp:77] Creating layer layer_128_1_scale3
I0528 22:35:43.735137 58685 net.cpp:122] Setting up layer_128_1_scale3
I0528 22:35:43.735146 58685 net.cpp:129] Top shape: 25 128 28 28 (2508800)
I0528 22:35:43.735149 58685 net.cpp:137] Memory required for data: 2865049700
I0528 22:35:43.735165 58685 layer_factory.hpp:77] Creating layer layer_128_1_relu3
I0528 22:35:43.735185 58685 net.cpp:84] Creating Layer layer_128_1_relu3
I0528 22:35:43.735190 58685 net.cpp:406] layer_128_1_relu3 <- layer_128_1_conv2
I0528 22:35:43.735198 58685 net.cpp:367] layer_128_1_relu3 -> layer_128_1_conv2 (in-place)
I0528 22:35:43.735399 58685 net.cpp:122] Setting up layer_128_1_relu3
I0528 22:35:43.735411 58685 net.cpp:129] Top shape: 25 128 28 28 (2508800)
I0528 22:35:43.735415 58685 net.cpp:137] Memory required for data: 2875084900
I0528 22:35:43.735419 58685 layer_factory.hpp:77] Creating layer layer_128_1_conv3
I0528 22:35:43.735431 58685 net.cpp:84] Creating Layer layer_128_1_conv3
I0528 22:35:43.735436 58685 net.cpp:406] layer_128_1_conv3 <- layer_128_1_conv2
I0528 22:35:43.735445 58685 net.cpp:380] layer_128_1_conv3 -> layer_128_1_conv3
I0528 22:35:43.739403 58685 net.cpp:122] Setting up layer_128_1_conv3
I0528 22:35:43.739426 58685 net.cpp:129] Top shape: 25 512 28 28 (10035200)
I0528 22:35:43.739431 58685 net.cpp:137] Memory required for data: 2915225700
I0528 22:35:43.739437 58685 layer_factory.hpp:77] Creating layer layer_128_1_conv_expand
I0528 22:35:43.739450 58685 net.cpp:84] Creating Layer layer_128_1_conv_expand
I0528 22:35:43.739455 58685 net.cpp:406] layer_128_1_conv_expand <- layer_128_1_bn1_layer_128_1_relu1_0_split_1
I0528 22:35:43.739462 58685 net.cpp:380] layer_128_1_conv_expand -> layer_128_1_conv_expand
I0528 22:35:43.746150 58685 net.cpp:122] Setting up layer_128_1_conv_expand
I0528 22:35:43.746170 58685 net.cpp:129] Top shape: 25 512 28 28 (10035200)
I0528 22:35:43.746176 58685 net.cpp:137] Memory required for data: 2955366500
I0528 22:35:43.746181 58685 layer_factory.hpp:77] Creating layer layer_128_1_sum
I0528 22:35:43.746191 58685 net.cpp:84] Creating Layer layer_128_1_sum
I0528 22:35:43.746196 58685 net.cpp:406] layer_128_1_sum <- layer_128_1_conv3
I0528 22:35:43.746201 58685 net.cpp:406] layer_128_1_sum <- layer_128_1_conv_expand
I0528 22:35:43.746206 58685 net.cpp:380] layer_128_1_sum -> layer_128_1_sum
I0528 22:35:43.746243 58685 net.cpp:122] Setting up layer_128_1_sum
I0528 22:35:43.746249 58685 net.cpp:129] Top shape: 25 512 28 28 (10035200)
I0528 22:35:43.746253 58685 net.cpp:137] Memory required for data: 2995507300
I0528 22:35:43.746258 58685 layer_factory.hpp:77] Creating layer layer_128_1_sum_layer_128_1_sum_0_split
I0528 22:35:43.746263 58685 net.cpp:84] Creating Layer layer_128_1_sum_layer_128_1_sum_0_split
I0528 22:35:43.746268 58685 net.cpp:406] layer_128_1_sum_layer_128_1_sum_0_split <- layer_128_1_sum
I0528 22:35:43.746275 58685 net.cpp:380] layer_128_1_sum_layer_128_1_sum_0_split -> layer_128_1_sum_layer_128_1_sum_0_split_0
I0528 22:35:43.746282 58685 net.cpp:380] layer_128_1_sum_layer_128_1_sum_0_split -> layer_128_1_sum_layer_128_1_sum_0_split_1
I0528 22:35:43.746320 58685 net.cpp:122] Setting up layer_128_1_sum_layer_128_1_sum_0_split
I0528 22:35:43.746330 58685 net.cpp:129] Top shape: 25 512 28 28 (10035200)
I0528 22:35:43.746335 58685 net.cpp:129] Top shape: 25 512 28 28 (10035200)
I0528 22:35:43.746337 58685 net.cpp:137] Memory required for data: 3075788900
I0528 22:35:43.746340 58685 layer_factory.hpp:77] Creating layer layer_128_2_bn1
I0528 22:35:43.746359 58685 net.cpp:84] Creating Layer layer_128_2_bn1
I0528 22:35:43.746364 58685 net.cpp:406] layer_128_2_bn1 <- layer_128_1_sum_layer_128_1_sum_0_split_0
I0528 22:35:43.746373 58685 net.cpp:380] layer_128_2_bn1 -> layer_128_2_bn1
I0528 22:35:43.746598 58685 net.cpp:122] Setting up layer_128_2_bn1
I0528 22:35:43.746611 58685 net.cpp:129] Top shape: 25 512 28 28 (10035200)
I0528 22:35:43.746614 58685 net.cpp:137] Memory required for data: 3115929700
I0528 22:35:43.746623 58685 layer_factory.hpp:77] Creating layer layer_128_2_scale1
I0528 22:35:43.746631 58685 net.cpp:84] Creating Layer layer_128_2_scale1
I0528 22:35:43.746635 58685 net.cpp:406] layer_128_2_scale1 <- layer_128_2_bn1
I0528 22:35:43.746644 58685 net.cpp:367] layer_128_2_scale1 -> layer_128_2_bn1 (in-place)
I0528 22:35:43.746690 58685 layer_factory.hpp:77] Creating layer layer_128_2_scale1
I0528 22:35:43.746826 58685 net.cpp:122] Setting up layer_128_2_scale1
I0528 22:35:43.746836 58685 net.cpp:129] Top shape: 25 512 28 28 (10035200)
I0528 22:35:43.746840 58685 net.cpp:137] Memory required for data: 3156070500
I0528 22:35:43.746846 58685 layer_factory.hpp:77] Creating layer layer_128_2_relu1
I0528 22:35:43.746852 58685 net.cpp:84] Creating Layer layer_128_2_relu1
I0528 22:35:43.746857 58685 net.cpp:406] layer_128_2_relu1 <- layer_128_2_bn1
I0528 22:35:43.746862 58685 net.cpp:367] layer_128_2_relu1 -> layer_128_2_bn1 (in-place)
I0528 22:35:43.747076 58685 net.cpp:122] Setting up layer_128_2_relu1
I0528 22:35:43.747087 58685 net.cpp:129] Top shape: 25 512 28 28 (10035200)
I0528 22:35:43.747090 58685 net.cpp:137] Memory required for data: 3196211300
I0528 22:35:43.747094 58685 layer_factory.hpp:77] Creating layer layer_128_2_conv1
I0528 22:35:43.747107 58685 net.cpp:84] Creating Layer layer_128_2_conv1
I0528 22:35:43.747112 58685 net.cpp:406] layer_128_2_conv1 <- layer_128_2_bn1
I0528 22:35:43.747120 58685 net.cpp:380] layer_128_2_conv1 -> layer_128_2_conv1
I0528 22:35:43.751092 58685 net.cpp:122] Setting up layer_128_2_conv1
I0528 22:35:43.751112 58685 net.cpp:129] Top shape: 25 128 28 28 (2508800)
I0528 22:35:43.751117 58685 net.cpp:137] Memory required for data: 3206246500
I0528 22:35:43.751123 58685 layer_factory.hpp:77] Creating layer layer_128_2_bn2
I0528 22:35:43.751134 58685 net.cpp:84] Creating Layer layer_128_2_bn2
I0528 22:35:43.751139 58685 net.cpp:406] layer_128_2_bn2 <- layer_128_2_conv1
I0528 22:35:43.751145 58685 net.cpp:367] layer_128_2_bn2 -> layer_128_2_conv1 (in-place)
I0528 22:35:43.751360 58685 net.cpp:122] Setting up layer_128_2_bn2
I0528 22:35:43.751369 58685 net.cpp:129] Top shape: 25 128 28 28 (2508800)
I0528 22:35:43.751372 58685 net.cpp:137] Memory required for data: 3216281700
I0528 22:35:43.751382 58685 layer_factory.hpp:77] Creating layer layer_128_2_scale2
I0528 22:35:43.751390 58685 net.cpp:84] Creating Layer layer_128_2_scale2
I0528 22:35:43.751394 58685 net.cpp:406] layer_128_2_scale2 <- layer_128_2_conv1
I0528 22:35:43.751400 58685 net.cpp:367] layer_128_2_scale2 -> layer_128_2_conv1 (in-place)
I0528 22:35:43.751447 58685 layer_factory.hpp:77] Creating layer layer_128_2_scale2
I0528 22:35:43.751581 58685 net.cpp:122] Setting up layer_128_2_scale2
I0528 22:35:43.751595 58685 net.cpp:129] Top shape: 25 128 28 28 (2508800)
I0528 22:35:43.751598 58685 net.cpp:137] Memory required for data: 3226316900
I0528 22:35:43.751605 58685 layer_factory.hpp:77] Creating layer layer_128_2_relu2
I0528 22:35:43.751615 58685 net.cpp:84] Creating Layer layer_128_2_relu2
I0528 22:35:43.751619 58685 net.cpp:406] layer_128_2_relu2 <- layer_128_2_conv1
I0528 22:35:43.751624 58685 net.cpp:367] layer_128_2_relu2 -> layer_128_2_conv1 (in-place)
I0528 22:35:43.752310 58685 net.cpp:122] Setting up layer_128_2_relu2
I0528 22:35:43.752326 58685 net.cpp:129] Top shape: 25 128 28 28 (2508800)
I0528 22:35:43.752331 58685 net.cpp:137] Memory required for data: 3236352100
I0528 22:35:43.752334 58685 layer_factory.hpp:77] Creating layer layer_128_2_conv2
I0528 22:35:43.752347 58685 net.cpp:84] Creating Layer layer_128_2_conv2
I0528 22:35:43.752352 58685 net.cpp:406] layer_128_2_conv2 <- layer_128_2_conv1
I0528 22:35:43.752360 58685 net.cpp:380] layer_128_2_conv2 -> layer_128_2_conv2
I0528 22:35:43.759631 58685 net.cpp:122] Setting up layer_128_2_conv2
I0528 22:35:43.759652 58685 net.cpp:129] Top shape: 25 128 28 28 (2508800)
I0528 22:35:43.759660 58685 net.cpp:137] Memory required for data: 3246387300
I0528 22:35:43.759665 58685 layer_factory.hpp:77] Creating layer layer_128_2_bn3
I0528 22:35:43.759673 58685 net.cpp:84] Creating Layer layer_128_2_bn3
I0528 22:35:43.759678 58685 net.cpp:406] layer_128_2_bn3 <- layer_128_2_conv2
I0528 22:35:43.759685 58685 net.cpp:367] layer_128_2_bn3 -> layer_128_2_conv2 (in-place)
I0528 22:35:43.759902 58685 net.cpp:122] Setting up layer_128_2_bn3
I0528 22:35:43.759910 58685 net.cpp:129] Top shape: 25 128 28 28 (2508800)
I0528 22:35:43.759919 58685 net.cpp:137] Memory required for data: 3256422500
I0528 22:35:43.759937 58685 layer_factory.hpp:77] Creating layer layer_128_2_scale3
I0528 22:35:43.759944 58685 net.cpp:84] Creating Layer layer_128_2_scale3
I0528 22:35:43.759948 58685 net.cpp:406] layer_128_2_scale3 <- layer_128_2_conv2
I0528 22:35:43.759954 58685 net.cpp:367] layer_128_2_scale3 -> layer_128_2_conv2 (in-place)
I0528 22:35:43.760004 58685 layer_factory.hpp:77] Creating layer layer_128_2_scale3
I0528 22:35:43.760128 58685 net.cpp:122] Setting up layer_128_2_scale3
I0528 22:35:43.760135 58685 net.cpp:129] Top shape: 25 128 28 28 (2508800)
I0528 22:35:43.760139 58685 net.cpp:137] Memory required for data: 3266457700
I0528 22:35:43.760145 58685 layer_factory.hpp:77] Creating layer layer_128_2_relu3
I0528 22:35:43.760154 58685 net.cpp:84] Creating Layer layer_128_2_relu3
I0528 22:35:43.760159 58685 net.cpp:406] layer_128_2_relu3 <- layer_128_2_conv2
I0528 22:35:43.760164 58685 net.cpp:367] layer_128_2_relu3 -> layer_128_2_conv2 (in-place)
I0528 22:35:43.760860 58685 net.cpp:122] Setting up layer_128_2_relu3
I0528 22:35:43.760881 58685 net.cpp:129] Top shape: 25 128 28 28 (2508800)
I0528 22:35:43.760885 58685 net.cpp:137] Memory required for data: 3276492900
I0528 22:35:43.760890 58685 layer_factory.hpp:77] Creating layer layer_128_2_conv3
I0528 22:35:43.760902 58685 net.cpp:84] Creating Layer layer_128_2_conv3
I0528 22:35:43.760907 58685 net.cpp:406] layer_128_2_conv3 <- layer_128_2_conv2
I0528 22:35:43.760915 58685 net.cpp:380] layer_128_2_conv3 -> layer_128_2_conv3
I0528 22:35:43.764884 58685 net.cpp:122] Setting up layer_128_2_conv3
I0528 22:35:43.764905 58685 net.cpp:129] Top shape: 25 512 28 28 (10035200)
I0528 22:35:43.764909 58685 net.cpp:137] Memory required for data: 3316633700
I0528 22:35:43.764916 58685 layer_factory.hpp:77] Creating layer layer_128_2_sum
I0528 22:35:43.764925 58685 net.cpp:84] Creating Layer layer_128_2_sum
I0528 22:35:43.764930 58685 net.cpp:406] layer_128_2_sum <- layer_128_2_conv3
I0528 22:35:43.764935 58685 net.cpp:406] layer_128_2_sum <- layer_128_1_sum_layer_128_1_sum_0_split_1
I0528 22:35:43.764941 58685 net.cpp:380] layer_128_2_sum -> layer_128_2_sum
I0528 22:35:43.764981 58685 net.cpp:122] Setting up layer_128_2_sum
I0528 22:35:43.764987 58685 net.cpp:129] Top shape: 25 512 28 28 (10035200)
I0528 22:35:43.764991 58685 net.cpp:137] Memory required for data: 3356774500
I0528 22:35:43.764995 58685 layer_factory.hpp:77] Creating layer layer_128_2_sum_layer_128_2_sum_0_split
I0528 22:35:43.765002 58685 net.cpp:84] Creating Layer layer_128_2_sum_layer_128_2_sum_0_split
I0528 22:35:43.765005 58685 net.cpp:406] layer_128_2_sum_layer_128_2_sum_0_split <- layer_128_2_sum
I0528 22:35:43.765013 58685 net.cpp:380] layer_128_2_sum_layer_128_2_sum_0_split -> layer_128_2_sum_layer_128_2_sum_0_split_0
I0528 22:35:43.765020 58685 net.cpp:380] layer_128_2_sum_layer_128_2_sum_0_split -> layer_128_2_sum_layer_128_2_sum_0_split_1
I0528 22:35:43.765059 58685 net.cpp:122] Setting up layer_128_2_sum_layer_128_2_sum_0_split
I0528 22:35:43.765069 58685 net.cpp:129] Top shape: 25 512 28 28 (10035200)
I0528 22:35:43.765074 58685 net.cpp:129] Top shape: 25 512 28 28 (10035200)
I0528 22:35:43.765077 58685 net.cpp:137] Memory required for data: 3437056100
I0528 22:35:43.765081 58685 layer_factory.hpp:77] Creating layer layer_128_3_bn1
I0528 22:35:43.765087 58685 net.cpp:84] Creating Layer layer_128_3_bn1
I0528 22:35:43.765091 58685 net.cpp:406] layer_128_3_bn1 <- layer_128_2_sum_layer_128_2_sum_0_split_0
I0528 22:35:43.765100 58685 net.cpp:380] layer_128_3_bn1 -> layer_128_3_bn1
I0528 22:35:43.765313 58685 net.cpp:122] Setting up layer_128_3_bn1
I0528 22:35:43.765322 58685 net.cpp:129] Top shape: 25 512 28 28 (10035200)
I0528 22:35:43.765326 58685 net.cpp:137] Memory required for data: 3477196900
I0528 22:35:43.765334 58685 layer_factory.hpp:77] Creating layer layer_128_3_scale1
I0528 22:35:43.765341 58685 net.cpp:84] Creating Layer layer_128_3_scale1
I0528 22:35:43.765346 58685 net.cpp:406] layer_128_3_scale1 <- layer_128_3_bn1
I0528 22:35:43.765357 58685 net.cpp:367] layer_128_3_scale1 -> layer_128_3_bn1 (in-place)
I0528 22:35:43.765419 58685 layer_factory.hpp:77] Creating layer layer_128_3_scale1
I0528 22:35:43.765545 58685 net.cpp:122] Setting up layer_128_3_scale1
I0528 22:35:43.765570 58685 net.cpp:129] Top shape: 25 512 28 28 (10035200)
I0528 22:35:43.765576 58685 net.cpp:137] Memory required for data: 3517337700
I0528 22:35:43.765583 58685 layer_factory.hpp:77] Creating layer layer_128_3_relu1
I0528 22:35:43.765590 58685 net.cpp:84] Creating Layer layer_128_3_relu1
I0528 22:35:43.765595 58685 net.cpp:406] layer_128_3_relu1 <- layer_128_3_bn1
I0528 22:35:43.765604 58685 net.cpp:367] layer_128_3_relu1 -> layer_128_3_bn1 (in-place)
I0528 22:35:43.765801 58685 net.cpp:122] Setting up layer_128_3_relu1
I0528 22:35:43.765812 58685 net.cpp:129] Top shape: 25 512 28 28 (10035200)
I0528 22:35:43.765816 58685 net.cpp:137] Memory required for data: 3557478500
I0528 22:35:43.765820 58685 layer_factory.hpp:77] Creating layer layer_128_3_conv1
I0528 22:35:43.765832 58685 net.cpp:84] Creating Layer layer_128_3_conv1
I0528 22:35:43.765836 58685 net.cpp:406] layer_128_3_conv1 <- layer_128_3_bn1
I0528 22:35:43.765846 58685 net.cpp:380] layer_128_3_conv1 -> layer_128_3_conv1
I0528 22:35:43.770412 58685 net.cpp:122] Setting up layer_128_3_conv1
I0528 22:35:43.770436 58685 net.cpp:129] Top shape: 25 128 28 28 (2508800)
I0528 22:35:43.770440 58685 net.cpp:137] Memory required for data: 3567513700
I0528 22:35:43.770447 58685 layer_factory.hpp:77] Creating layer layer_128_3_bn2
I0528 22:35:43.770454 58685 net.cpp:84] Creating Layer layer_128_3_bn2
I0528 22:35:43.770459 58685 net.cpp:406] layer_128_3_bn2 <- layer_128_3_conv1
I0528 22:35:43.770467 58685 net.cpp:367] layer_128_3_bn2 -> layer_128_3_conv1 (in-place)
I0528 22:35:43.770705 58685 net.cpp:122] Setting up layer_128_3_bn2
I0528 22:35:43.770720 58685 net.cpp:129] Top shape: 25 128 28 28 (2508800)
I0528 22:35:43.770723 58685 net.cpp:137] Memory required for data: 3577548900
I0528 22:35:43.770732 58685 layer_factory.hpp:77] Creating layer layer_128_3_scale2
I0528 22:35:43.770740 58685 net.cpp:84] Creating Layer layer_128_3_scale2
I0528 22:35:43.770745 58685 net.cpp:406] layer_128_3_scale2 <- layer_128_3_conv1
I0528 22:35:43.770750 58685 net.cpp:367] layer_128_3_scale2 -> layer_128_3_conv1 (in-place)
I0528 22:35:43.770800 58685 layer_factory.hpp:77] Creating layer layer_128_3_scale2
I0528 22:35:43.770926 58685 net.cpp:122] Setting up layer_128_3_scale2
I0528 22:35:43.770934 58685 net.cpp:129] Top shape: 25 128 28 28 (2508800)
I0528 22:35:43.770938 58685 net.cpp:137] Memory required for data: 3587584100
I0528 22:35:43.770944 58685 layer_factory.hpp:77] Creating layer layer_128_3_relu2
I0528 22:35:43.770953 58685 net.cpp:84] Creating Layer layer_128_3_relu2
I0528 22:35:43.770957 58685 net.cpp:406] layer_128_3_relu2 <- layer_128_3_conv1
I0528 22:35:43.770962 58685 net.cpp:367] layer_128_3_relu2 -> layer_128_3_conv1 (in-place)
I0528 22:35:43.771661 58685 net.cpp:122] Setting up layer_128_3_relu2
I0528 22:35:43.771683 58685 net.cpp:129] Top shape: 25 128 28 28 (2508800)
I0528 22:35:43.771688 58685 net.cpp:137] Memory required for data: 3597619300
I0528 22:35:43.771692 58685 layer_factory.hpp:77] Creating layer layer_128_3_conv2
I0528 22:35:43.771706 58685 net.cpp:84] Creating Layer layer_128_3_conv2
I0528 22:35:43.771711 58685 net.cpp:406] layer_128_3_conv2 <- layer_128_3_conv1
I0528 22:35:43.771718 58685 net.cpp:380] layer_128_3_conv2 -> layer_128_3_conv2
I0528 22:35:43.778494 58685 net.cpp:122] Setting up layer_128_3_conv2
I0528 22:35:43.778515 58685 net.cpp:129] Top shape: 25 128 28 28 (2508800)
I0528 22:35:43.778520 58685 net.cpp:137] Memory required for data: 3607654500
I0528 22:35:43.778527 58685 layer_factory.hpp:77] Creating layer layer_128_3_bn3
I0528 22:35:43.778537 58685 net.cpp:84] Creating Layer layer_128_3_bn3
I0528 22:35:43.778542 58685 net.cpp:406] layer_128_3_bn3 <- layer_128_3_conv2
I0528 22:35:43.778549 58685 net.cpp:367] layer_128_3_bn3 -> layer_128_3_conv2 (in-place)
I0528 22:35:43.778795 58685 net.cpp:122] Setting up layer_128_3_bn3
I0528 22:35:43.778817 58685 net.cpp:129] Top shape: 25 128 28 28 (2508800)
I0528 22:35:43.778822 58685 net.cpp:137] Memory required for data: 3617689700
I0528 22:35:43.778831 58685 layer_factory.hpp:77] Creating layer layer_128_3_scale3
I0528 22:35:43.778841 58685 net.cpp:84] Creating Layer layer_128_3_scale3
I0528 22:35:43.778846 58685 net.cpp:406] layer_128_3_scale3 <- layer_128_3_conv2
I0528 22:35:43.778851 58685 net.cpp:367] layer_128_3_scale3 -> layer_128_3_conv2 (in-place)
I0528 22:35:43.778901 58685 layer_factory.hpp:77] Creating layer layer_128_3_scale3
I0528 22:35:43.779033 58685 net.cpp:122] Setting up layer_128_3_scale3
I0528 22:35:43.779042 58685 net.cpp:129] Top shape: 25 128 28 28 (2508800)
I0528 22:35:43.779047 58685 net.cpp:137] Memory required for data: 3627724900
I0528 22:35:43.779052 58685 layer_factory.hpp:77] Creating layer layer_128_3_relu3
I0528 22:35:43.779059 58685 net.cpp:84] Creating Layer layer_128_3_relu3
I0528 22:35:43.779063 58685 net.cpp:406] layer_128_3_relu3 <- layer_128_3_conv2
I0528 22:35:43.779070 58685 net.cpp:367] layer_128_3_relu3 -> layer_128_3_conv2 (in-place)
I0528 22:35:43.779788 58685 net.cpp:122] Setting up layer_128_3_relu3
I0528 22:35:43.779806 58685 net.cpp:129] Top shape: 25 128 28 28 (2508800)
I0528 22:35:43.779811 58685 net.cpp:137] Memory required for data: 3637760100
I0528 22:35:43.779815 58685 layer_factory.hpp:77] Creating layer layer_128_3_conv3
I0528 22:35:43.779829 58685 net.cpp:84] Creating Layer layer_128_3_conv3
I0528 22:35:43.779834 58685 net.cpp:406] layer_128_3_conv3 <- layer_128_3_conv2
I0528 22:35:43.779842 58685 net.cpp:380] layer_128_3_conv3 -> layer_128_3_conv3
I0528 22:35:43.783808 58685 net.cpp:122] Setting up layer_128_3_conv3
I0528 22:35:43.783828 58685 net.cpp:129] Top shape: 25 512 28 28 (10035200)
I0528 22:35:43.783833 58685 net.cpp:137] Memory required for data: 3677900900
I0528 22:35:43.783839 58685 layer_factory.hpp:77] Creating layer layer_128_3_sum
I0528 22:35:43.783846 58685 net.cpp:84] Creating Layer layer_128_3_sum
I0528 22:35:43.783851 58685 net.cpp:406] layer_128_3_sum <- layer_128_3_conv3
I0528 22:35:43.783857 58685 net.cpp:406] layer_128_3_sum <- layer_128_2_sum_layer_128_2_sum_0_split_1
I0528 22:35:43.783865 58685 net.cpp:380] layer_128_3_sum -> layer_128_3_sum
I0528 22:35:43.783900 58685 net.cpp:122] Setting up layer_128_3_sum
I0528 22:35:43.783910 58685 net.cpp:129] Top shape: 25 512 28 28 (10035200)
I0528 22:35:43.783912 58685 net.cpp:137] Memory required for data: 3718041700
I0528 22:35:43.783916 58685 layer_factory.hpp:77] Creating layer layer_128_3_sum_layer_128_3_sum_0_split
I0528 22:35:43.783922 58685 net.cpp:84] Creating Layer layer_128_3_sum_layer_128_3_sum_0_split
I0528 22:35:43.783927 58685 net.cpp:406] layer_128_3_sum_layer_128_3_sum_0_split <- layer_128_3_sum
I0528 22:35:43.783932 58685 net.cpp:380] layer_128_3_sum_layer_128_3_sum_0_split -> layer_128_3_sum_layer_128_3_sum_0_split_0
I0528 22:35:43.783939 58685 net.cpp:380] layer_128_3_sum_layer_128_3_sum_0_split -> layer_128_3_sum_layer_128_3_sum_0_split_1
I0528 22:35:43.783983 58685 net.cpp:122] Setting up layer_128_3_sum_layer_128_3_sum_0_split
I0528 22:35:43.783990 58685 net.cpp:129] Top shape: 25 512 28 28 (10035200)
I0528 22:35:43.783995 58685 net.cpp:129] Top shape: 25 512 28 28 (10035200)
I0528 22:35:43.783998 58685 net.cpp:137] Memory required for data: 3798323300
I0528 22:35:43.784003 58685 layer_factory.hpp:77] Creating layer layer_128_4_bn1
I0528 22:35:43.784010 58685 net.cpp:84] Creating Layer layer_128_4_bn1
I0528 22:35:43.784014 58685 net.cpp:406] layer_128_4_bn1 <- layer_128_3_sum_layer_128_3_sum_0_split_0
I0528 22:35:43.784019 58685 net.cpp:380] layer_128_4_bn1 -> layer_128_4_bn1
I0528 22:35:43.784245 58685 net.cpp:122] Setting up layer_128_4_bn1
I0528 22:35:43.784253 58685 net.cpp:129] Top shape: 25 512 28 28 (10035200)
I0528 22:35:43.784256 58685 net.cpp:137] Memory required for data: 3838464100
I0528 22:35:43.784266 58685 layer_factory.hpp:77] Creating layer layer_128_4_scale1
I0528 22:35:43.784273 58685 net.cpp:84] Creating Layer layer_128_4_scale1
I0528 22:35:43.784291 58685 net.cpp:406] layer_128_4_scale1 <- layer_128_4_bn1
I0528 22:35:43.784297 58685 net.cpp:367] layer_128_4_scale1 -> layer_128_4_bn1 (in-place)
I0528 22:35:43.784350 58685 layer_factory.hpp:77] Creating layer layer_128_4_scale1
I0528 22:35:43.784481 58685 net.cpp:122] Setting up layer_128_4_scale1
I0528 22:35:43.784489 58685 net.cpp:129] Top shape: 25 512 28 28 (10035200)
I0528 22:35:43.784492 58685 net.cpp:137] Memory required for data: 3878604900
I0528 22:35:43.784499 58685 layer_factory.hpp:77] Creating layer layer_128_4_relu1
I0528 22:35:43.784507 58685 net.cpp:84] Creating Layer layer_128_4_relu1
I0528 22:35:43.784512 58685 net.cpp:406] layer_128_4_relu1 <- layer_128_4_bn1
I0528 22:35:43.784518 58685 net.cpp:367] layer_128_4_relu1 -> layer_128_4_bn1 (in-place)
I0528 22:35:43.784726 58685 net.cpp:122] Setting up layer_128_4_relu1
I0528 22:35:43.784744 58685 net.cpp:129] Top shape: 25 512 28 28 (10035200)
I0528 22:35:43.784749 58685 net.cpp:137] Memory required for data: 3918745700
I0528 22:35:43.784752 58685 layer_factory.hpp:77] Creating layer layer_128_4_conv1
I0528 22:35:43.784765 58685 net.cpp:84] Creating Layer layer_128_4_conv1
I0528 22:35:43.784770 58685 net.cpp:406] layer_128_4_conv1 <- layer_128_4_bn1
I0528 22:35:43.784776 58685 net.cpp:380] layer_128_4_conv1 -> layer_128_4_conv1
I0528 22:35:43.788761 58685 net.cpp:122] Setting up layer_128_4_conv1
I0528 22:35:43.788784 58685 net.cpp:129] Top shape: 25 128 28 28 (2508800)
I0528 22:35:43.788789 58685 net.cpp:137] Memory required for data: 3928780900
I0528 22:35:43.788794 58685 layer_factory.hpp:77] Creating layer layer_128_4_bn2
I0528 22:35:43.788802 58685 net.cpp:84] Creating Layer layer_128_4_bn2
I0528 22:35:43.788807 58685 net.cpp:406] layer_128_4_bn2 <- layer_128_4_conv1
I0528 22:35:43.788815 58685 net.cpp:367] layer_128_4_bn2 -> layer_128_4_conv1 (in-place)
I0528 22:35:43.789044 58685 net.cpp:122] Setting up layer_128_4_bn2
I0528 22:35:43.789053 58685 net.cpp:129] Top shape: 25 128 28 28 (2508800)
I0528 22:35:43.789057 58685 net.cpp:137] Memory required for data: 3938816100
I0528 22:35:43.789065 58685 layer_factory.hpp:77] Creating layer layer_128_4_scale2
I0528 22:35:43.789073 58685 net.cpp:84] Creating Layer layer_128_4_scale2
I0528 22:35:43.789077 58685 net.cpp:406] layer_128_4_scale2 <- layer_128_4_conv1
I0528 22:35:43.789083 58685 net.cpp:367] layer_128_4_scale2 -> layer_128_4_conv1 (in-place)
I0528 22:35:43.789132 58685 layer_factory.hpp:77] Creating layer layer_128_4_scale2
I0528 22:35:43.789263 58685 net.cpp:122] Setting up layer_128_4_scale2
I0528 22:35:43.789271 58685 net.cpp:129] Top shape: 25 128 28 28 (2508800)
I0528 22:35:43.789275 58685 net.cpp:137] Memory required for data: 3948851300
I0528 22:35:43.789281 58685 layer_factory.hpp:77] Creating layer layer_128_4_relu2
I0528 22:35:43.789288 58685 net.cpp:84] Creating Layer layer_128_4_relu2
I0528 22:35:43.789293 58685 net.cpp:406] layer_128_4_relu2 <- layer_128_4_conv1
I0528 22:35:43.789299 58685 net.cpp:367] layer_128_4_relu2 -> layer_128_4_conv1 (in-place)
I0528 22:35:43.790005 58685 net.cpp:122] Setting up layer_128_4_relu2
I0528 22:35:43.790024 58685 net.cpp:129] Top shape: 25 128 28 28 (2508800)
I0528 22:35:43.790030 58685 net.cpp:137] Memory required for data: 3958886500
I0528 22:35:43.790033 58685 layer_factory.hpp:77] Creating layer layer_128_4_conv2
I0528 22:35:43.790046 58685 net.cpp:84] Creating Layer layer_128_4_conv2
I0528 22:35:43.790051 58685 net.cpp:406] layer_128_4_conv2 <- layer_128_4_conv1
I0528 22:35:43.790058 58685 net.cpp:380] layer_128_4_conv2 -> layer_128_4_conv2
I0528 22:35:43.796835 58685 net.cpp:122] Setting up layer_128_4_conv2
I0528 22:35:43.796856 58685 net.cpp:129] Top shape: 25 128 28 28 (2508800)
I0528 22:35:43.796862 58685 net.cpp:137] Memory required for data: 3968921700
I0528 22:35:43.796891 58685 layer_factory.hpp:77] Creating layer layer_128_4_bn3
I0528 22:35:43.796902 58685 net.cpp:84] Creating Layer layer_128_4_bn3
I0528 22:35:43.796907 58685 net.cpp:406] layer_128_4_bn3 <- layer_128_4_conv2
I0528 22:35:43.796919 58685 net.cpp:367] layer_128_4_bn3 -> layer_128_4_conv2 (in-place)
I0528 22:35:43.797161 58685 net.cpp:122] Setting up layer_128_4_bn3
I0528 22:35:43.797171 58685 net.cpp:129] Top shape: 25 128 28 28 (2508800)
I0528 22:35:43.797175 58685 net.cpp:137] Memory required for data: 3978956900
I0528 22:35:43.797183 58685 layer_factory.hpp:77] Creating layer layer_128_4_scale3
I0528 22:35:43.797193 58685 net.cpp:84] Creating Layer layer_128_4_scale3
I0528 22:35:43.797197 58685 net.cpp:406] layer_128_4_scale3 <- layer_128_4_conv2
I0528 22:35:43.797202 58685 net.cpp:367] layer_128_4_scale3 -> layer_128_4_conv2 (in-place)
I0528 22:35:43.797252 58685 layer_factory.hpp:77] Creating layer layer_128_4_scale3
I0528 22:35:43.797380 58685 net.cpp:122] Setting up layer_128_4_scale3
I0528 22:35:43.797389 58685 net.cpp:129] Top shape: 25 128 28 28 (2508800)
I0528 22:35:43.797392 58685 net.cpp:137] Memory required for data: 3988992100
I0528 22:35:43.797399 58685 layer_factory.hpp:77] Creating layer layer_128_4_relu3
I0528 22:35:43.797405 58685 net.cpp:84] Creating Layer layer_128_4_relu3
I0528 22:35:43.797410 58685 net.cpp:406] layer_128_4_relu3 <- layer_128_4_conv2
I0528 22:35:43.797416 58685 net.cpp:367] layer_128_4_relu3 -> layer_128_4_conv2 (in-place)
I0528 22:35:43.798138 58685 net.cpp:122] Setting up layer_128_4_relu3
I0528 22:35:43.798157 58685 net.cpp:129] Top shape: 25 128 28 28 (2508800)
I0528 22:35:43.798162 58685 net.cpp:137] Memory required for data: 3999027300
I0528 22:35:43.798166 58685 layer_factory.hpp:77] Creating layer layer_128_4_conv3
I0528 22:35:43.798179 58685 net.cpp:84] Creating Layer layer_128_4_conv3
I0528 22:35:43.798184 58685 net.cpp:406] layer_128_4_conv3 <- layer_128_4_conv2
I0528 22:35:43.798193 58685 net.cpp:380] layer_128_4_conv3 -> layer_128_4_conv3
I0528 22:35:43.802163 58685 net.cpp:122] Setting up layer_128_4_conv3
I0528 22:35:43.802186 58685 net.cpp:129] Top shape: 25 512 28 28 (10035200)
I0528 22:35:43.802191 58685 net.cpp:137] Memory required for data: 4039168100
I0528 22:35:43.802196 58685 layer_factory.hpp:77] Creating layer layer_128_4_sum
I0528 22:35:43.802203 58685 net.cpp:84] Creating Layer layer_128_4_sum
I0528 22:35:43.802208 58685 net.cpp:406] layer_128_4_sum <- layer_128_4_conv3
I0528 22:35:43.802214 58685 net.cpp:406] layer_128_4_sum <- layer_128_3_sum_layer_128_3_sum_0_split_1
I0528 22:35:43.802219 58685 net.cpp:380] layer_128_4_sum -> layer_128_4_sum
I0528 22:35:43.802256 58685 net.cpp:122] Setting up layer_128_4_sum
I0528 22:35:43.802264 58685 net.cpp:129] Top shape: 25 512 28 28 (10035200)
I0528 22:35:43.802268 58685 net.cpp:137] Memory required for data: 4079308900
I0528 22:35:43.802271 58685 layer_factory.hpp:77] Creating layer layer_256_1_bn1
I0528 22:35:43.802280 58685 net.cpp:84] Creating Layer layer_256_1_bn1
I0528 22:35:43.802284 58685 net.cpp:406] layer_256_1_bn1 <- layer_128_4_sum
I0528 22:35:43.802290 58685 net.cpp:380] layer_256_1_bn1 -> layer_256_1_bn1
I0528 22:35:43.802521 58685 net.cpp:122] Setting up layer_256_1_bn1
I0528 22:35:43.802530 58685 net.cpp:129] Top shape: 25 512 28 28 (10035200)
I0528 22:35:43.802533 58685 net.cpp:137] Memory required for data: 4119449700
I0528 22:35:43.802541 58685 layer_factory.hpp:77] Creating layer layer_256_1_scale1
I0528 22:35:43.802548 58685 net.cpp:84] Creating Layer layer_256_1_scale1
I0528 22:35:43.802564 58685 net.cpp:406] layer_256_1_scale1 <- layer_256_1_bn1
I0528 22:35:43.802574 58685 net.cpp:367] layer_256_1_scale1 -> layer_256_1_bn1 (in-place)
I0528 22:35:43.802629 58685 layer_factory.hpp:77] Creating layer layer_256_1_scale1
I0528 22:35:43.802755 58685 net.cpp:122] Setting up layer_256_1_scale1
I0528 22:35:43.802767 58685 net.cpp:129] Top shape: 25 512 28 28 (10035200)
I0528 22:35:43.802770 58685 net.cpp:137] Memory required for data: 4159590500
I0528 22:35:43.802776 58685 layer_factory.hpp:77] Creating layer layer_256_1_relu1
I0528 22:35:43.802783 58685 net.cpp:84] Creating Layer layer_256_1_relu1
I0528 22:35:43.802786 58685 net.cpp:406] layer_256_1_relu1 <- layer_256_1_bn1
I0528 22:35:43.802798 58685 net.cpp:367] layer_256_1_relu1 -> layer_256_1_bn1 (in-place)
I0528 22:35:43.803004 58685 net.cpp:122] Setting up layer_256_1_relu1
I0528 22:35:43.803015 58685 net.cpp:129] Top shape: 25 512 28 28 (10035200)
I0528 22:35:43.803020 58685 net.cpp:137] Memory required for data: 4199731300
I0528 22:35:43.803025 58685 layer_factory.hpp:77] Creating layer layer_256_1_bn1_layer_256_1_relu1_0_split
I0528 22:35:43.803035 58685 net.cpp:84] Creating Layer layer_256_1_bn1_layer_256_1_relu1_0_split
I0528 22:35:43.803040 58685 net.cpp:406] layer_256_1_bn1_layer_256_1_relu1_0_split <- layer_256_1_bn1
I0528 22:35:43.803045 58685 net.cpp:380] layer_256_1_bn1_layer_256_1_relu1_0_split -> layer_256_1_bn1_layer_256_1_relu1_0_split_0
I0528 22:35:43.803053 58685 net.cpp:380] layer_256_1_bn1_layer_256_1_relu1_0_split -> layer_256_1_bn1_layer_256_1_relu1_0_split_1
I0528 22:35:43.803104 58685 net.cpp:122] Setting up layer_256_1_bn1_layer_256_1_relu1_0_split
I0528 22:35:43.803112 58685 net.cpp:129] Top shape: 25 512 28 28 (10035200)
I0528 22:35:43.803117 58685 net.cpp:129] Top shape: 25 512 28 28 (10035200)
I0528 22:35:43.803119 58685 net.cpp:137] Memory required for data: 4280012900
I0528 22:35:43.803123 58685 layer_factory.hpp:77] Creating layer layer_256_1_conv1
I0528 22:35:43.803134 58685 net.cpp:84] Creating Layer layer_256_1_conv1
I0528 22:35:43.803139 58685 net.cpp:406] layer_256_1_conv1 <- layer_256_1_bn1_layer_256_1_relu1_0_split_0
I0528 22:35:43.803148 58685 net.cpp:380] layer_256_1_conv1 -> layer_256_1_conv1
I0528 22:35:43.809825 58685 net.cpp:122] Setting up layer_256_1_conv1
I0528 22:35:43.809847 58685 net.cpp:129] Top shape: 25 256 28 28 (5017600)
I0528 22:35:43.809852 58685 net.cpp:137] Memory required for data: 4300083300
I0528 22:35:43.809859 58685 layer_factory.hpp:77] Creating layer layer_256_1_bn2
I0528 22:35:43.809867 58685 net.cpp:84] Creating Layer layer_256_1_bn2
I0528 22:35:43.809871 58685 net.cpp:406] layer_256_1_bn2 <- layer_256_1_conv1
I0528 22:35:43.809880 58685 net.cpp:367] layer_256_1_bn2 -> layer_256_1_conv1 (in-place)
I0528 22:35:43.810111 58685 net.cpp:122] Setting up layer_256_1_bn2
I0528 22:35:43.810120 58685 net.cpp:129] Top shape: 25 256 28 28 (5017600)
I0528 22:35:43.810124 58685 net.cpp:137] Memory required for data: 4320153700
I0528 22:35:43.810132 58685 layer_factory.hpp:77] Creating layer layer_256_1_scale2
I0528 22:35:43.810139 58685 net.cpp:84] Creating Layer layer_256_1_scale2
I0528 22:35:43.810143 58685 net.cpp:406] layer_256_1_scale2 <- layer_256_1_conv1
I0528 22:35:43.810149 58685 net.cpp:367] layer_256_1_scale2 -> layer_256_1_conv1 (in-place)
I0528 22:35:43.810200 58685 layer_factory.hpp:77] Creating layer layer_256_1_scale2
I0528 22:35:43.810333 58685 net.cpp:122] Setting up layer_256_1_scale2
I0528 22:35:43.810341 58685 net.cpp:129] Top shape: 25 256 28 28 (5017600)
I0528 22:35:43.810344 58685 net.cpp:137] Memory required for data: 4340224100
I0528 22:35:43.810351 58685 layer_factory.hpp:77] Creating layer layer_256_1_relu2
I0528 22:35:43.810358 58685 net.cpp:84] Creating Layer layer_256_1_relu2
I0528 22:35:43.810362 58685 net.cpp:406] layer_256_1_relu2 <- layer_256_1_conv1
I0528 22:35:43.810369 58685 net.cpp:367] layer_256_1_relu2 -> layer_256_1_conv1 (in-place)
I0528 22:35:43.811075 58685 net.cpp:122] Setting up layer_256_1_relu2
I0528 22:35:43.811094 58685 net.cpp:129] Top shape: 25 256 28 28 (5017600)
I0528 22:35:43.811098 58685 net.cpp:137] Memory required for data: 4360294500
I0528 22:35:43.811103 58685 layer_factory.hpp:77] Creating layer layer_256_1_conv2
I0528 22:35:43.811115 58685 net.cpp:84] Creating Layer layer_256_1_conv2
I0528 22:35:43.811121 58685 net.cpp:406] layer_256_1_conv2 <- layer_256_1_conv1
I0528 22:35:43.811130 58685 net.cpp:380] layer_256_1_conv2 -> layer_256_1_conv2
I0528 22:35:43.832888 58685 net.cpp:122] Setting up layer_256_1_conv2
I0528 22:35:43.832911 58685 net.cpp:129] Top shape: 25 256 14 14 (1254400)
I0528 22:35:43.832914 58685 net.cpp:137] Memory required for data: 4365312100
I0528 22:35:43.832921 58685 layer_factory.hpp:77] Creating layer layer_256_1_bn3
I0528 22:35:43.832937 58685 net.cpp:84] Creating Layer layer_256_1_bn3
I0528 22:35:43.832949 58685 net.cpp:406] layer_256_1_bn3 <- layer_256_1_conv2
I0528 22:35:43.832957 58685 net.cpp:367] layer_256_1_bn3 -> layer_256_1_conv2 (in-place)
I0528 22:35:43.833191 58685 net.cpp:122] Setting up layer_256_1_bn3
I0528 22:35:43.833201 58685 net.cpp:129] Top shape: 25 256 14 14 (1254400)
I0528 22:35:43.833204 58685 net.cpp:137] Memory required for data: 4370329700
I0528 22:35:43.833212 58685 layer_factory.hpp:77] Creating layer layer_256_1_scale3
I0528 22:35:43.833220 58685 net.cpp:84] Creating Layer layer_256_1_scale3
I0528 22:35:43.833225 58685 net.cpp:406] layer_256_1_scale3 <- layer_256_1_conv2
I0528 22:35:43.833230 58685 net.cpp:367] layer_256_1_scale3 -> layer_256_1_conv2 (in-place)
I0528 22:35:43.833286 58685 layer_factory.hpp:77] Creating layer layer_256_1_scale3
I0528 22:35:43.833415 58685 net.cpp:122] Setting up layer_256_1_scale3
I0528 22:35:43.833425 58685 net.cpp:129] Top shape: 25 256 14 14 (1254400)
I0528 22:35:43.833427 58685 net.cpp:137] Memory required for data: 4375347300
I0528 22:35:43.833434 58685 layer_factory.hpp:77] Creating layer layer_256_1_relu3
I0528 22:35:43.833442 58685 net.cpp:84] Creating Layer layer_256_1_relu3
I0528 22:35:43.833447 58685 net.cpp:406] layer_256_1_relu3 <- layer_256_1_conv2
I0528 22:35:43.833452 58685 net.cpp:367] layer_256_1_relu3 -> layer_256_1_conv2 (in-place)
I0528 22:35:43.834106 58685 net.cpp:122] Setting up layer_256_1_relu3
I0528 22:35:43.834130 58685 net.cpp:129] Top shape: 25 256 14 14 (1254400)
I0528 22:35:43.834133 58685 net.cpp:137] Memory required for data: 4380364900
I0528 22:35:43.834138 58685 layer_factory.hpp:77] Creating layer layer_256_1_conv3
I0528 22:35:43.834151 58685 net.cpp:84] Creating Layer layer_256_1_conv3
I0528 22:35:43.834156 58685 net.cpp:406] layer_256_1_conv3 <- layer_256_1_conv2
I0528 22:35:43.834162 58685 net.cpp:380] layer_256_1_conv3 -> layer_256_1_conv3
I0528 22:35:43.845163 58685 net.cpp:122] Setting up layer_256_1_conv3
I0528 22:35:43.845186 58685 net.cpp:129] Top shape: 25 1024 14 14 (5017600)
I0528 22:35:43.845191 58685 net.cpp:137] Memory required for data: 4400435300
I0528 22:35:43.845197 58685 layer_factory.hpp:77] Creating layer layer_256_1_conv_expand
I0528 22:35:43.845211 58685 net.cpp:84] Creating Layer layer_256_1_conv_expand
I0528 22:35:43.845216 58685 net.cpp:406] layer_256_1_conv_expand <- layer_256_1_bn1_layer_256_1_relu1_0_split_1
I0528 22:35:43.845223 58685 net.cpp:380] layer_256_1_conv_expand -> layer_256_1_conv_expand
I0528 22:35:43.865185 58685 net.cpp:122] Setting up layer_256_1_conv_expand
I0528 22:35:43.865207 58685 net.cpp:129] Top shape: 25 1024 14 14 (5017600)
I0528 22:35:43.865212 58685 net.cpp:137] Memory required for data: 4420505700
I0528 22:35:43.865218 58685 layer_factory.hpp:77] Creating layer layer_256_1_sum
I0528 22:35:43.865226 58685 net.cpp:84] Creating Layer layer_256_1_sum
I0528 22:35:43.865231 58685 net.cpp:406] layer_256_1_sum <- layer_256_1_conv3
I0528 22:35:43.865236 58685 net.cpp:406] layer_256_1_sum <- layer_256_1_conv_expand
I0528 22:35:43.865242 58685 net.cpp:380] layer_256_1_sum -> layer_256_1_sum
I0528 22:35:43.865280 58685 net.cpp:122] Setting up layer_256_1_sum
I0528 22:35:43.865288 58685 net.cpp:129] Top shape: 25 1024 14 14 (5017600)
I0528 22:35:43.865291 58685 net.cpp:137] Memory required for data: 4440576100
I0528 22:35:43.865295 58685 layer_factory.hpp:77] Creating layer layer_256_1_sum_layer_256_1_sum_0_split
I0528 22:35:43.865301 58685 net.cpp:84] Creating Layer layer_256_1_sum_layer_256_1_sum_0_split
I0528 22:35:43.865306 58685 net.cpp:406] layer_256_1_sum_layer_256_1_sum_0_split <- layer_256_1_sum
I0528 22:35:43.865314 58685 net.cpp:380] layer_256_1_sum_layer_256_1_sum_0_split -> layer_256_1_sum_layer_256_1_sum_0_split_0
I0528 22:35:43.865322 58685 net.cpp:380] layer_256_1_sum_layer_256_1_sum_0_split -> layer_256_1_sum_layer_256_1_sum_0_split_1
I0528 22:35:43.865377 58685 net.cpp:122] Setting up layer_256_1_sum_layer_256_1_sum_0_split
I0528 22:35:43.865384 58685 net.cpp:129] Top shape: 25 1024 14 14 (5017600)
I0528 22:35:43.865396 58685 net.cpp:129] Top shape: 25 1024 14 14 (5017600)
I0528 22:35:43.865407 58685 net.cpp:137] Memory required for data: 4480716900
I0528 22:35:43.865411 58685 layer_factory.hpp:77] Creating layer layer_256_2_bn1
I0528 22:35:43.865420 58685 net.cpp:84] Creating Layer layer_256_2_bn1
I0528 22:35:43.865424 58685 net.cpp:406] layer_256_2_bn1 <- layer_256_1_sum_layer_256_1_sum_0_split_0
I0528 22:35:43.865432 58685 net.cpp:380] layer_256_2_bn1 -> layer_256_2_bn1
I0528 22:35:43.865691 58685 net.cpp:122] Setting up layer_256_2_bn1
I0528 22:35:43.865705 58685 net.cpp:129] Top shape: 25 1024 14 14 (5017600)
I0528 22:35:43.865710 58685 net.cpp:137] Memory required for data: 4500787300
I0528 22:35:43.865717 58685 layer_factory.hpp:77] Creating layer layer_256_2_scale1
I0528 22:35:43.865725 58685 net.cpp:84] Creating Layer layer_256_2_scale1
I0528 22:35:43.865730 58685 net.cpp:406] layer_256_2_scale1 <- layer_256_2_bn1
I0528 22:35:43.865736 58685 net.cpp:367] layer_256_2_scale1 -> layer_256_2_bn1 (in-place)
I0528 22:35:43.865787 58685 layer_factory.hpp:77] Creating layer layer_256_2_scale1
I0528 22:35:43.865931 58685 net.cpp:122] Setting up layer_256_2_scale1
I0528 22:35:43.865941 58685 net.cpp:129] Top shape: 25 1024 14 14 (5017600)
I0528 22:35:43.865943 58685 net.cpp:137] Memory required for data: 4520857700
I0528 22:35:43.865950 58685 layer_factory.hpp:77] Creating layer layer_256_2_relu1
I0528 22:35:43.865957 58685 net.cpp:84] Creating Layer layer_256_2_relu1
I0528 22:35:43.865962 58685 net.cpp:406] layer_256_2_relu1 <- layer_256_2_bn1
I0528 22:35:43.865968 58685 net.cpp:367] layer_256_2_relu1 -> layer_256_2_bn1 (in-place)
I0528 22:35:43.866171 58685 net.cpp:122] Setting up layer_256_2_relu1
I0528 22:35:43.866183 58685 net.cpp:129] Top shape: 25 1024 14 14 (5017600)
I0528 22:35:43.866188 58685 net.cpp:137] Memory required for data: 4540928100
I0528 22:35:43.866191 58685 layer_factory.hpp:77] Creating layer layer_256_2_conv1
I0528 22:35:43.866204 58685 net.cpp:84] Creating Layer layer_256_2_conv1
I0528 22:35:43.866209 58685 net.cpp:406] layer_256_2_conv1 <- layer_256_2_bn1
I0528 22:35:43.866216 58685 net.cpp:380] layer_256_2_conv1 -> layer_256_2_conv1
I0528 22:35:43.877255 58685 net.cpp:122] Setting up layer_256_2_conv1
I0528 22:35:43.877276 58685 net.cpp:129] Top shape: 25 256 14 14 (1254400)
I0528 22:35:43.877281 58685 net.cpp:137] Memory required for data: 4545945700
I0528 22:35:43.877287 58685 layer_factory.hpp:77] Creating layer layer_256_2_bn2
I0528 22:35:43.877297 58685 net.cpp:84] Creating Layer layer_256_2_bn2
I0528 22:35:43.877303 58685 net.cpp:406] layer_256_2_bn2 <- layer_256_2_conv1
I0528 22:35:43.877310 58685 net.cpp:367] layer_256_2_bn2 -> layer_256_2_conv1 (in-place)
I0528 22:35:43.877558 58685 net.cpp:122] Setting up layer_256_2_bn2
I0528 22:35:43.877573 58685 net.cpp:129] Top shape: 25 256 14 14 (1254400)
I0528 22:35:43.877576 58685 net.cpp:137] Memory required for data: 4550963300
I0528 22:35:43.877586 58685 layer_factory.hpp:77] Creating layer layer_256_2_scale2
I0528 22:35:43.877594 58685 net.cpp:84] Creating Layer layer_256_2_scale2
I0528 22:35:43.877599 58685 net.cpp:406] layer_256_2_scale2 <- layer_256_2_conv1
I0528 22:35:43.877604 58685 net.cpp:367] layer_256_2_scale2 -> layer_256_2_conv1 (in-place)
I0528 22:35:43.877660 58685 layer_factory.hpp:77] Creating layer layer_256_2_scale2
I0528 22:35:43.877794 58685 net.cpp:122] Setting up layer_256_2_scale2
I0528 22:35:43.877802 58685 net.cpp:129] Top shape: 25 256 14 14 (1254400)
I0528 22:35:43.877806 58685 net.cpp:137] Memory required for data: 4555980900
I0528 22:35:43.877812 58685 layer_factory.hpp:77] Creating layer layer_256_2_relu2
I0528 22:35:43.877820 58685 net.cpp:84] Creating Layer layer_256_2_relu2
I0528 22:35:43.877825 58685 net.cpp:406] layer_256_2_relu2 <- layer_256_2_conv1
I0528 22:35:43.877830 58685 net.cpp:367] layer_256_2_relu2 -> layer_256_2_conv1 (in-place)
I0528 22:35:43.878031 58685 net.cpp:122] Setting up layer_256_2_relu2
I0528 22:35:43.878044 58685 net.cpp:129] Top shape: 25 256 14 14 (1254400)
I0528 22:35:43.878053 58685 net.cpp:137] Memory required for data: 4560998500
I0528 22:35:43.878067 58685 layer_factory.hpp:77] Creating layer layer_256_2_conv2
I0528 22:35:43.878096 58685 net.cpp:84] Creating Layer layer_256_2_conv2
I0528 22:35:43.878103 58685 net.cpp:406] layer_256_2_conv2 <- layer_256_2_conv1
I0528 22:35:43.878109 58685 net.cpp:380] layer_256_2_conv2 -> layer_256_2_conv2
I0528 22:35:43.900336 58685 net.cpp:122] Setting up layer_256_2_conv2
I0528 22:35:43.900358 58685 net.cpp:129] Top shape: 25 256 14 14 (1254400)
I0528 22:35:43.900363 58685 net.cpp:137] Memory required for data: 4566016100
I0528 22:35:43.900370 58685 layer_factory.hpp:77] Creating layer layer_256_2_bn3
I0528 22:35:43.900379 58685 net.cpp:84] Creating Layer layer_256_2_bn3
I0528 22:35:43.900384 58685 net.cpp:406] layer_256_2_bn3 <- layer_256_2_conv2
I0528 22:35:43.900390 58685 net.cpp:367] layer_256_2_bn3 -> layer_256_2_conv2 (in-place)
I0528 22:35:43.900635 58685 net.cpp:122] Setting up layer_256_2_bn3
I0528 22:35:43.900650 58685 net.cpp:129] Top shape: 25 256 14 14 (1254400)
I0528 22:35:43.900653 58685 net.cpp:137] Memory required for data: 4571033700
I0528 22:35:43.900661 58685 layer_factory.hpp:77] Creating layer layer_256_2_scale3
I0528 22:35:43.900671 58685 net.cpp:84] Creating Layer layer_256_2_scale3
I0528 22:35:43.900676 58685 net.cpp:406] layer_256_2_scale3 <- layer_256_2_conv2
I0528 22:35:43.900682 58685 net.cpp:367] layer_256_2_scale3 -> layer_256_2_conv2 (in-place)
I0528 22:35:43.900739 58685 layer_factory.hpp:77] Creating layer layer_256_2_scale3
I0528 22:35:43.900871 58685 net.cpp:122] Setting up layer_256_2_scale3
I0528 22:35:43.900879 58685 net.cpp:129] Top shape: 25 256 14 14 (1254400)
I0528 22:35:43.900882 58685 net.cpp:137] Memory required for data: 4576051300
I0528 22:35:43.900889 58685 layer_factory.hpp:77] Creating layer layer_256_2_relu3
I0528 22:35:43.900895 58685 net.cpp:84] Creating Layer layer_256_2_relu3
I0528 22:35:43.900900 58685 net.cpp:406] layer_256_2_relu3 <- layer_256_2_conv2
I0528 22:35:43.900909 58685 net.cpp:367] layer_256_2_relu3 -> layer_256_2_conv2 (in-place)
I0528 22:35:43.901633 58685 net.cpp:122] Setting up layer_256_2_relu3
I0528 22:35:43.901653 58685 net.cpp:129] Top shape: 25 256 14 14 (1254400)
I0528 22:35:43.901656 58685 net.cpp:137] Memory required for data: 4581068900
I0528 22:35:43.901660 58685 layer_factory.hpp:77] Creating layer layer_256_2_conv3
I0528 22:35:43.901674 58685 net.cpp:84] Creating Layer layer_256_2_conv3
I0528 22:35:43.901679 58685 net.cpp:406] layer_256_2_conv3 <- layer_256_2_conv2
I0528 22:35:43.901687 58685 net.cpp:380] layer_256_2_conv3 -> layer_256_2_conv3
I0528 22:35:43.912714 58685 net.cpp:122] Setting up layer_256_2_conv3
I0528 22:35:43.912735 58685 net.cpp:129] Top shape: 25 1024 14 14 (5017600)
I0528 22:35:43.912740 58685 net.cpp:137] Memory required for data: 4601139300
I0528 22:35:43.912746 58685 layer_factory.hpp:77] Creating layer layer_256_2_sum
I0528 22:35:43.912753 58685 net.cpp:84] Creating Layer layer_256_2_sum
I0528 22:35:43.912758 58685 net.cpp:406] layer_256_2_sum <- layer_256_2_conv3
I0528 22:35:43.912765 58685 net.cpp:406] layer_256_2_sum <- layer_256_1_sum_layer_256_1_sum_0_split_1
I0528 22:35:43.912772 58685 net.cpp:380] layer_256_2_sum -> layer_256_2_sum
I0528 22:35:43.912811 58685 net.cpp:122] Setting up layer_256_2_sum
I0528 22:35:43.912820 58685 net.cpp:129] Top shape: 25 1024 14 14 (5017600)
I0528 22:35:43.912823 58685 net.cpp:137] Memory required for data: 4621209700
I0528 22:35:43.912827 58685 layer_factory.hpp:77] Creating layer layer_256_2_sum_layer_256_2_sum_0_split
I0528 22:35:43.912833 58685 net.cpp:84] Creating Layer layer_256_2_sum_layer_256_2_sum_0_split
I0528 22:35:43.912837 58685 net.cpp:406] layer_256_2_sum_layer_256_2_sum_0_split <- layer_256_2_sum
I0528 22:35:43.912843 58685 net.cpp:380] layer_256_2_sum_layer_256_2_sum_0_split -> layer_256_2_sum_layer_256_2_sum_0_split_0
I0528 22:35:43.912850 58685 net.cpp:380] layer_256_2_sum_layer_256_2_sum_0_split -> layer_256_2_sum_layer_256_2_sum_0_split_1
I0528 22:35:43.912904 58685 net.cpp:122] Setting up layer_256_2_sum_layer_256_2_sum_0_split
I0528 22:35:43.912920 58685 net.cpp:129] Top shape: 25 1024 14 14 (5017600)
I0528 22:35:43.912925 58685 net.cpp:129] Top shape: 25 1024 14 14 (5017600)
I0528 22:35:43.912928 58685 net.cpp:137] Memory required for data: 4661350500
I0528 22:35:43.912932 58685 layer_factory.hpp:77] Creating layer layer_256_3_bn1
I0528 22:35:43.912942 58685 net.cpp:84] Creating Layer layer_256_3_bn1
I0528 22:35:43.912946 58685 net.cpp:406] layer_256_3_bn1 <- layer_256_2_sum_layer_256_2_sum_0_split_0
I0528 22:35:43.912952 58685 net.cpp:380] layer_256_3_bn1 -> layer_256_3_bn1
I0528 22:35:43.913202 58685 net.cpp:122] Setting up layer_256_3_bn1
I0528 22:35:43.913209 58685 net.cpp:129] Top shape: 25 1024 14 14 (5017600)
I0528 22:35:43.913213 58685 net.cpp:137] Memory required for data: 4681420900
I0528 22:35:43.913223 58685 layer_factory.hpp:77] Creating layer layer_256_3_scale1
I0528 22:35:43.913231 58685 net.cpp:84] Creating Layer layer_256_3_scale1
I0528 22:35:43.913235 58685 net.cpp:406] layer_256_3_scale1 <- layer_256_3_bn1
I0528 22:35:43.913241 58685 net.cpp:367] layer_256_3_scale1 -> layer_256_3_bn1 (in-place)
I0528 22:35:43.913291 58685 layer_factory.hpp:77] Creating layer layer_256_3_scale1
I0528 22:35:43.913434 58685 net.cpp:122] Setting up layer_256_3_scale1
I0528 22:35:43.913442 58685 net.cpp:129] Top shape: 25 1024 14 14 (5017600)
I0528 22:35:43.913445 58685 net.cpp:137] Memory required for data: 4701491300
I0528 22:35:43.913452 58685 layer_factory.hpp:77] Creating layer layer_256_3_relu1
I0528 22:35:43.913460 58685 net.cpp:84] Creating Layer layer_256_3_relu1
I0528 22:35:43.913465 58685 net.cpp:406] layer_256_3_relu1 <- layer_256_3_bn1
I0528 22:35:43.913470 58685 net.cpp:367] layer_256_3_relu1 -> layer_256_3_bn1 (in-place)
I0528 22:35:43.913687 58685 net.cpp:122] Setting up layer_256_3_relu1
I0528 22:35:43.913705 58685 net.cpp:129] Top shape: 25 1024 14 14 (5017600)
I0528 22:35:43.913710 58685 net.cpp:137] Memory required for data: 4721561700
I0528 22:35:43.913714 58685 layer_factory.hpp:77] Creating layer layer_256_3_conv1
I0528 22:35:43.913727 58685 net.cpp:84] Creating Layer layer_256_3_conv1
I0528 22:35:43.913731 58685 net.cpp:406] layer_256_3_conv1 <- layer_256_3_bn1
I0528 22:35:43.913738 58685 net.cpp:380] layer_256_3_conv1 -> layer_256_3_conv1
I0528 22:35:43.924744 58685 net.cpp:122] Setting up layer_256_3_conv1
I0528 22:35:43.924767 58685 net.cpp:129] Top shape: 25 256 14 14 (1254400)
I0528 22:35:43.924773 58685 net.cpp:137] Memory required for data: 4726579300
I0528 22:35:43.924779 58685 layer_factory.hpp:77] Creating layer layer_256_3_bn2
I0528 22:35:43.924787 58685 net.cpp:84] Creating Layer layer_256_3_bn2
I0528 22:35:43.924793 58685 net.cpp:406] layer_256_3_bn2 <- layer_256_3_conv1
I0528 22:35:43.924800 58685 net.cpp:367] layer_256_3_bn2 -> layer_256_3_conv1 (in-place)
I0528 22:35:43.925045 58685 net.cpp:122] Setting up layer_256_3_bn2
I0528 22:35:43.925055 58685 net.cpp:129] Top shape: 25 256 14 14 (1254400)
I0528 22:35:43.925057 58685 net.cpp:137] Memory required for data: 4731596900
I0528 22:35:43.925066 58685 layer_factory.hpp:77] Creating layer layer_256_3_scale2
I0528 22:35:43.925076 58685 net.cpp:84] Creating Layer layer_256_3_scale2
I0528 22:35:43.925081 58685 net.cpp:406] layer_256_3_scale2 <- layer_256_3_conv1
I0528 22:35:43.925086 58685 net.cpp:367] layer_256_3_scale2 -> layer_256_3_conv1 (in-place)
I0528 22:35:43.925138 58685 layer_factory.hpp:77] Creating layer layer_256_3_scale2
I0528 22:35:43.925276 58685 net.cpp:122] Setting up layer_256_3_scale2
I0528 22:35:43.925284 58685 net.cpp:129] Top shape: 25 256 14 14 (1254400)
I0528 22:35:43.925287 58685 net.cpp:137] Memory required for data: 4736614500
I0528 22:35:43.925294 58685 layer_factory.hpp:77] Creating layer layer_256_3_relu2
I0528 22:35:43.925300 58685 net.cpp:84] Creating Layer layer_256_3_relu2
I0528 22:35:43.925305 58685 net.cpp:406] layer_256_3_relu2 <- layer_256_3_conv1
I0528 22:35:43.925312 58685 net.cpp:367] layer_256_3_relu2 -> layer_256_3_conv1 (in-place)
I0528 22:35:43.926040 58685 net.cpp:122] Setting up layer_256_3_relu2
I0528 22:35:43.926067 58685 net.cpp:129] Top shape: 25 256 14 14 (1254400)
I0528 22:35:43.926072 58685 net.cpp:137] Memory required for data: 4741632100
I0528 22:35:43.926076 58685 layer_factory.hpp:77] Creating layer layer_256_3_conv2
I0528 22:35:43.926090 58685 net.cpp:84] Creating Layer layer_256_3_conv2
I0528 22:35:43.926095 58685 net.cpp:406] layer_256_3_conv2 <- layer_256_3_conv1
I0528 22:35:43.926106 58685 net.cpp:380] layer_256_3_conv2 -> layer_256_3_conv2
I0528 22:35:43.948352 58685 net.cpp:122] Setting up layer_256_3_conv2
I0528 22:35:43.948374 58685 net.cpp:129] Top shape: 25 256 14 14 (1254400)
I0528 22:35:43.948379 58685 net.cpp:137] Memory required for data: 4746649700
I0528 22:35:43.948385 58685 layer_factory.hpp:77] Creating layer layer_256_3_bn3
I0528 22:35:43.948395 58685 net.cpp:84] Creating Layer layer_256_3_bn3
I0528 22:35:43.948400 58685 net.cpp:406] layer_256_3_bn3 <- layer_256_3_conv2
I0528 22:35:43.948406 58685 net.cpp:367] layer_256_3_bn3 -> layer_256_3_conv2 (in-place)
I0528 22:35:43.948660 58685 net.cpp:122] Setting up layer_256_3_bn3
I0528 22:35:43.948673 58685 net.cpp:129] Top shape: 25 256 14 14 (1254400)
I0528 22:35:43.948678 58685 net.cpp:137] Memory required for data: 4751667300
I0528 22:35:43.948685 58685 layer_factory.hpp:77] Creating layer layer_256_3_scale3
I0528 22:35:43.948698 58685 net.cpp:84] Creating Layer layer_256_3_scale3
I0528 22:35:43.948703 58685 net.cpp:406] layer_256_3_scale3 <- layer_256_3_conv2
I0528 22:35:43.948707 58685 net.cpp:367] layer_256_3_scale3 -> layer_256_3_conv2 (in-place)
I0528 22:35:43.948763 58685 layer_factory.hpp:77] Creating layer layer_256_3_scale3
I0528 22:35:43.948904 58685 net.cpp:122] Setting up layer_256_3_scale3
I0528 22:35:43.948911 58685 net.cpp:129] Top shape: 25 256 14 14 (1254400)
I0528 22:35:43.948915 58685 net.cpp:137] Memory required for data: 4756684900
I0528 22:35:43.948921 58685 layer_factory.hpp:77] Creating layer layer_256_3_relu3
I0528 22:35:43.948928 58685 net.cpp:84] Creating Layer layer_256_3_relu3
I0528 22:35:43.948932 58685 net.cpp:406] layer_256_3_relu3 <- layer_256_3_conv2
I0528 22:35:43.948940 58685 net.cpp:367] layer_256_3_relu3 -> layer_256_3_conv2 (in-place)
I0528 22:35:43.949661 58685 net.cpp:122] Setting up layer_256_3_relu3
I0528 22:35:43.949681 58685 net.cpp:129] Top shape: 25 256 14 14 (1254400)
I0528 22:35:43.949686 58685 net.cpp:137] Memory required for data: 4761702500
I0528 22:35:43.949689 58685 layer_factory.hpp:77] Creating layer layer_256_3_conv3
I0528 22:35:43.949704 58685 net.cpp:84] Creating Layer layer_256_3_conv3
I0528 22:35:43.949709 58685 net.cpp:406] layer_256_3_conv3 <- layer_256_3_conv2
I0528 22:35:43.949718 58685 net.cpp:380] layer_256_3_conv3 -> layer_256_3_conv3
I0528 22:35:43.960786 58685 net.cpp:122] Setting up layer_256_3_conv3
I0528 22:35:43.960809 58685 net.cpp:129] Top shape: 25 1024 14 14 (5017600)
I0528 22:35:43.960813 58685 net.cpp:137] Memory required for data: 4781772900
I0528 22:35:43.960820 58685 layer_factory.hpp:77] Creating layer layer_256_3_sum
I0528 22:35:43.960829 58685 net.cpp:84] Creating Layer layer_256_3_sum
I0528 22:35:43.960834 58685 net.cpp:406] layer_256_3_sum <- layer_256_3_conv3
I0528 22:35:43.960840 58685 net.cpp:406] layer_256_3_sum <- layer_256_2_sum_layer_256_2_sum_0_split_1
I0528 22:35:43.960846 58685 net.cpp:380] layer_256_3_sum -> layer_256_3_sum
I0528 22:35:43.960883 58685 net.cpp:122] Setting up layer_256_3_sum
I0528 22:35:43.960893 58685 net.cpp:129] Top shape: 25 1024 14 14 (5017600)
I0528 22:35:43.960897 58685 net.cpp:137] Memory required for data: 4801843300
I0528 22:35:43.960901 58685 layer_factory.hpp:77] Creating layer layer_256_3_sum_layer_256_3_sum_0_split
I0528 22:35:43.960908 58685 net.cpp:84] Creating Layer layer_256_3_sum_layer_256_3_sum_0_split
I0528 22:35:43.960912 58685 net.cpp:406] layer_256_3_sum_layer_256_3_sum_0_split <- layer_256_3_sum
I0528 22:35:43.960918 58685 net.cpp:380] layer_256_3_sum_layer_256_3_sum_0_split -> layer_256_3_sum_layer_256_3_sum_0_split_0
I0528 22:35:43.960927 58685 net.cpp:380] layer_256_3_sum_layer_256_3_sum_0_split -> layer_256_3_sum_layer_256_3_sum_0_split_1
I0528 22:35:43.960991 58685 net.cpp:122] Setting up layer_256_3_sum_layer_256_3_sum_0_split
I0528 22:35:43.960999 58685 net.cpp:129] Top shape: 25 1024 14 14 (5017600)
I0528 22:35:43.961004 58685 net.cpp:129] Top shape: 25 1024 14 14 (5017600)
I0528 22:35:43.961007 58685 net.cpp:137] Memory required for data: 4841984100
I0528 22:35:43.961011 58685 layer_factory.hpp:77] Creating layer layer_256_4_bn1
I0528 22:35:43.961020 58685 net.cpp:84] Creating Layer layer_256_4_bn1
I0528 22:35:43.961024 58685 net.cpp:406] layer_256_4_bn1 <- layer_256_3_sum_layer_256_3_sum_0_split_0
I0528 22:35:43.961030 58685 net.cpp:380] layer_256_4_bn1 -> layer_256_4_bn1
I0528 22:35:43.961285 58685 net.cpp:122] Setting up layer_256_4_bn1
I0528 22:35:43.961294 58685 net.cpp:129] Top shape: 25 1024 14 14 (5017600)
I0528 22:35:43.961298 58685 net.cpp:137] Memory required for data: 4862054500
I0528 22:35:43.961307 58685 layer_factory.hpp:77] Creating layer layer_256_4_scale1
I0528 22:35:43.961313 58685 net.cpp:84] Creating Layer layer_256_4_scale1
I0528 22:35:43.961318 58685 net.cpp:406] layer_256_4_scale1 <- layer_256_4_bn1
I0528 22:35:43.961326 58685 net.cpp:367] layer_256_4_scale1 -> layer_256_4_bn1 (in-place)
I0528 22:35:43.961380 58685 layer_factory.hpp:77] Creating layer layer_256_4_scale1
I0528 22:35:43.961530 58685 net.cpp:122] Setting up layer_256_4_scale1
I0528 22:35:43.961541 58685 net.cpp:129] Top shape: 25 1024 14 14 (5017600)
I0528 22:35:43.961544 58685 net.cpp:137] Memory required for data: 4882124900
I0528 22:35:43.961558 58685 layer_factory.hpp:77] Creating layer layer_256_4_relu1
I0528 22:35:43.961570 58685 net.cpp:84] Creating Layer layer_256_4_relu1
I0528 22:35:43.961575 58685 net.cpp:406] layer_256_4_relu1 <- layer_256_4_bn1
I0528 22:35:43.961580 58685 net.cpp:367] layer_256_4_relu1 -> layer_256_4_bn1 (in-place)
I0528 22:35:43.961793 58685 net.cpp:122] Setting up layer_256_4_relu1
I0528 22:35:43.961808 58685 net.cpp:129] Top shape: 25 1024 14 14 (5017600)
I0528 22:35:43.961812 58685 net.cpp:137] Memory required for data: 4902195300
I0528 22:35:43.961817 58685 layer_factory.hpp:77] Creating layer layer_256_4_conv1
I0528 22:35:43.961828 58685 net.cpp:84] Creating Layer layer_256_4_conv1
I0528 22:35:43.961833 58685 net.cpp:406] layer_256_4_conv1 <- layer_256_4_bn1
I0528 22:35:43.961840 58685 net.cpp:380] layer_256_4_conv1 -> layer_256_4_conv1
I0528 22:35:43.972944 58685 net.cpp:122] Setting up layer_256_4_conv1
I0528 22:35:43.972965 58685 net.cpp:129] Top shape: 25 256 14 14 (1254400)
I0528 22:35:43.972970 58685 net.cpp:137] Memory required for data: 4907212900
I0528 22:35:43.972975 58685 layer_factory.hpp:77] Creating layer layer_256_4_bn2
I0528 22:35:43.972983 58685 net.cpp:84] Creating Layer layer_256_4_bn2
I0528 22:35:43.972988 58685 net.cpp:406] layer_256_4_bn2 <- layer_256_4_conv1
I0528 22:35:43.972996 58685 net.cpp:367] layer_256_4_bn2 -> layer_256_4_conv1 (in-place)
I0528 22:35:43.973245 58685 net.cpp:122] Setting up layer_256_4_bn2
I0528 22:35:43.973254 58685 net.cpp:129] Top shape: 25 256 14 14 (1254400)
I0528 22:35:43.973258 58685 net.cpp:137] Memory required for data: 4912230500
I0528 22:35:43.973265 58685 layer_factory.hpp:77] Creating layer layer_256_4_scale2
I0528 22:35:43.973273 58685 net.cpp:84] Creating Layer layer_256_4_scale2
I0528 22:35:43.973278 58685 net.cpp:406] layer_256_4_scale2 <- layer_256_4_conv1
I0528 22:35:43.973284 58685 net.cpp:367] layer_256_4_scale2 -> layer_256_4_conv1 (in-place)
I0528 22:35:43.973336 58685 layer_factory.hpp:77] Creating layer layer_256_4_scale2
I0528 22:35:43.973474 58685 net.cpp:122] Setting up layer_256_4_scale2
I0528 22:35:43.973482 58685 net.cpp:129] Top shape: 25 256 14 14 (1254400)
I0528 22:35:43.973485 58685 net.cpp:137] Memory required for data: 4917248100
I0528 22:35:43.973492 58685 layer_factory.hpp:77] Creating layer layer_256_4_relu2
I0528 22:35:43.973500 58685 net.cpp:84] Creating Layer layer_256_4_relu2
I0528 22:35:43.973503 58685 net.cpp:406] layer_256_4_relu2 <- layer_256_4_conv1
I0528 22:35:43.973516 58685 net.cpp:367] layer_256_4_relu2 -> layer_256_4_conv1 (in-place)
I0528 22:35:43.973742 58685 net.cpp:122] Setting up layer_256_4_relu2
I0528 22:35:43.973757 58685 net.cpp:129] Top shape: 25 256 14 14 (1254400)
I0528 22:35:43.973762 58685 net.cpp:137] Memory required for data: 4922265700
I0528 22:35:43.973767 58685 layer_factory.hpp:77] Creating layer layer_256_4_conv2
I0528 22:35:43.973778 58685 net.cpp:84] Creating Layer layer_256_4_conv2
I0528 22:35:43.973783 58685 net.cpp:406] layer_256_4_conv2 <- layer_256_4_conv1
I0528 22:35:43.973791 58685 net.cpp:380] layer_256_4_conv2 -> layer_256_4_conv2
I0528 22:35:43.995982 58685 net.cpp:122] Setting up layer_256_4_conv2
I0528 22:35:43.996004 58685 net.cpp:129] Top shape: 25 256 14 14 (1254400)
I0528 22:35:43.996008 58685 net.cpp:137] Memory required for data: 4927283300
I0528 22:35:43.996016 58685 layer_factory.hpp:77] Creating layer layer_256_4_bn3
I0528 22:35:43.996026 58685 net.cpp:84] Creating Layer layer_256_4_bn3
I0528 22:35:43.996031 58685 net.cpp:406] layer_256_4_bn3 <- layer_256_4_conv2
I0528 22:35:43.996037 58685 net.cpp:367] layer_256_4_bn3 -> layer_256_4_conv2 (in-place)
I0528 22:35:43.996285 58685 net.cpp:122] Setting up layer_256_4_bn3
I0528 22:35:43.996294 58685 net.cpp:129] Top shape: 25 256 14 14 (1254400)
I0528 22:35:43.996297 58685 net.cpp:137] Memory required for data: 4932300900
I0528 22:35:43.996305 58685 layer_factory.hpp:77] Creating layer layer_256_4_scale3
I0528 22:35:43.996316 58685 net.cpp:84] Creating Layer layer_256_4_scale3
I0528 22:35:43.996320 58685 net.cpp:406] layer_256_4_scale3 <- layer_256_4_conv2
I0528 22:35:43.996326 58685 net.cpp:367] layer_256_4_scale3 -> layer_256_4_conv2 (in-place)
I0528 22:35:43.996381 58685 layer_factory.hpp:77] Creating layer layer_256_4_scale3
I0528 22:35:43.996520 58685 net.cpp:122] Setting up layer_256_4_scale3
I0528 22:35:43.996529 58685 net.cpp:129] Top shape: 25 256 14 14 (1254400)
I0528 22:35:43.996533 58685 net.cpp:137] Memory required for data: 4937318500
I0528 22:35:43.996541 58685 layer_factory.hpp:77] Creating layer layer_256_4_relu3
I0528 22:35:43.996546 58685 net.cpp:84] Creating Layer layer_256_4_relu3
I0528 22:35:43.996558 58685 net.cpp:406] layer_256_4_relu3 <- layer_256_4_conv2
I0528 22:35:43.996570 58685 net.cpp:367] layer_256_4_relu3 -> layer_256_4_conv2 (in-place)
I0528 22:35:43.997280 58685 net.cpp:122] Setting up layer_256_4_relu3
I0528 22:35:43.997295 58685 net.cpp:129] Top shape: 25 256 14 14 (1254400)
I0528 22:35:43.997299 58685 net.cpp:137] Memory required for data: 4942336100
I0528 22:35:43.997304 58685 layer_factory.hpp:77] Creating layer layer_256_4_conv3
I0528 22:35:43.997318 58685 net.cpp:84] Creating Layer layer_256_4_conv3
I0528 22:35:43.997323 58685 net.cpp:406] layer_256_4_conv3 <- layer_256_4_conv2
I0528 22:35:43.997334 58685 net.cpp:380] layer_256_4_conv3 -> layer_256_4_conv3
I0528 22:35:44.008358 58685 net.cpp:122] Setting up layer_256_4_conv3
I0528 22:35:44.008380 58685 net.cpp:129] Top shape: 25 1024 14 14 (5017600)
I0528 22:35:44.008384 58685 net.cpp:137] Memory required for data: 4962406500
I0528 22:35:44.008391 58685 layer_factory.hpp:77] Creating layer layer_256_4_sum
I0528 22:35:44.008400 58685 net.cpp:84] Creating Layer layer_256_4_sum
I0528 22:35:44.008405 58685 net.cpp:406] layer_256_4_sum <- layer_256_4_conv3
I0528 22:35:44.008411 58685 net.cpp:406] layer_256_4_sum <- layer_256_3_sum_layer_256_3_sum_0_split_1
I0528 22:35:44.008416 58685 net.cpp:380] layer_256_4_sum -> layer_256_4_sum
I0528 22:35:44.008455 58685 net.cpp:122] Setting up layer_256_4_sum
I0528 22:35:44.008466 58685 net.cpp:129] Top shape: 25 1024 14 14 (5017600)
I0528 22:35:44.008469 58685 net.cpp:137] Memory required for data: 4982476900
I0528 22:35:44.008472 58685 layer_factory.hpp:77] Creating layer layer_256_4_sum_layer_256_4_sum_0_split
I0528 22:35:44.008479 58685 net.cpp:84] Creating Layer layer_256_4_sum_layer_256_4_sum_0_split
I0528 22:35:44.008483 58685 net.cpp:406] layer_256_4_sum_layer_256_4_sum_0_split <- layer_256_4_sum
I0528 22:35:44.008489 58685 net.cpp:380] layer_256_4_sum_layer_256_4_sum_0_split -> layer_256_4_sum_layer_256_4_sum_0_split_0
I0528 22:35:44.008512 58685 net.cpp:380] layer_256_4_sum_layer_256_4_sum_0_split -> layer_256_4_sum_layer_256_4_sum_0_split_1
I0528 22:35:44.008575 58685 net.cpp:122] Setting up layer_256_4_sum_layer_256_4_sum_0_split
I0528 22:35:44.008587 58685 net.cpp:129] Top shape: 25 1024 14 14 (5017600)
I0528 22:35:44.008592 58685 net.cpp:129] Top shape: 25 1024 14 14 (5017600)
I0528 22:35:44.008596 58685 net.cpp:137] Memory required for data: 5022617700
I0528 22:35:44.008600 58685 layer_factory.hpp:77] Creating layer layer_256_5_bn1
I0528 22:35:44.008608 58685 net.cpp:84] Creating Layer layer_256_5_bn1
I0528 22:35:44.008613 58685 net.cpp:406] layer_256_5_bn1 <- layer_256_4_sum_layer_256_4_sum_0_split_0
I0528 22:35:44.008620 58685 net.cpp:380] layer_256_5_bn1 -> layer_256_5_bn1
I0528 22:35:44.008882 58685 net.cpp:122] Setting up layer_256_5_bn1
I0528 22:35:44.008893 58685 net.cpp:129] Top shape: 25 1024 14 14 (5017600)
I0528 22:35:44.008895 58685 net.cpp:137] Memory required for data: 5042688100
I0528 22:35:44.008904 58685 layer_factory.hpp:77] Creating layer layer_256_5_scale1
I0528 22:35:44.008911 58685 net.cpp:84] Creating Layer layer_256_5_scale1
I0528 22:35:44.008915 58685 net.cpp:406] layer_256_5_scale1 <- layer_256_5_bn1
I0528 22:35:44.008924 58685 net.cpp:367] layer_256_5_scale1 -> layer_256_5_bn1 (in-place)
I0528 22:35:44.008977 58685 layer_factory.hpp:77] Creating layer layer_256_5_scale1
I0528 22:35:44.009125 58685 net.cpp:122] Setting up layer_256_5_scale1
I0528 22:35:44.009135 58685 net.cpp:129] Top shape: 25 1024 14 14 (5017600)
I0528 22:35:44.009140 58685 net.cpp:137] Memory required for data: 5062758500
I0528 22:35:44.009145 58685 layer_factory.hpp:77] Creating layer layer_256_5_relu1
I0528 22:35:44.009152 58685 net.cpp:84] Creating Layer layer_256_5_relu1
I0528 22:35:44.009157 58685 net.cpp:406] layer_256_5_relu1 <- layer_256_5_bn1
I0528 22:35:44.009162 58685 net.cpp:367] layer_256_5_relu1 -> layer_256_5_bn1 (in-place)
I0528 22:35:44.009373 58685 net.cpp:122] Setting up layer_256_5_relu1
I0528 22:35:44.009387 58685 net.cpp:129] Top shape: 25 1024 14 14 (5017600)
I0528 22:35:44.009390 58685 net.cpp:137] Memory required for data: 5082828900
I0528 22:35:44.009395 58685 layer_factory.hpp:77] Creating layer layer_256_5_conv1
I0528 22:35:44.009407 58685 net.cpp:84] Creating Layer layer_256_5_conv1
I0528 22:35:44.009413 58685 net.cpp:406] layer_256_5_conv1 <- layer_256_5_bn1
I0528 22:35:44.009418 58685 net.cpp:380] layer_256_5_conv1 -> layer_256_5_conv1
I0528 22:35:44.020448 58685 net.cpp:122] Setting up layer_256_5_conv1
I0528 22:35:44.020472 58685 net.cpp:129] Top shape: 25 256 14 14 (1254400)
I0528 22:35:44.020476 58685 net.cpp:137] Memory required for data: 5087846500
I0528 22:35:44.020483 58685 layer_factory.hpp:77] Creating layer layer_256_5_bn2
I0528 22:35:44.020491 58685 net.cpp:84] Creating Layer layer_256_5_bn2
I0528 22:35:44.020496 58685 net.cpp:406] layer_256_5_bn2 <- layer_256_5_conv1
I0528 22:35:44.020504 58685 net.cpp:367] layer_256_5_bn2 -> layer_256_5_conv1 (in-place)
I0528 22:35:44.020768 58685 net.cpp:122] Setting up layer_256_5_bn2
I0528 22:35:44.020782 58685 net.cpp:129] Top shape: 25 256 14 14 (1254400)
I0528 22:35:44.020786 58685 net.cpp:137] Memory required for data: 5092864100
I0528 22:35:44.020794 58685 layer_factory.hpp:77] Creating layer layer_256_5_scale2
I0528 22:35:44.020802 58685 net.cpp:84] Creating Layer layer_256_5_scale2
I0528 22:35:44.020807 58685 net.cpp:406] layer_256_5_scale2 <- layer_256_5_conv1
I0528 22:35:44.020812 58685 net.cpp:367] layer_256_5_scale2 -> layer_256_5_conv1 (in-place)
I0528 22:35:44.020869 58685 layer_factory.hpp:77] Creating layer layer_256_5_scale2
I0528 22:35:44.021015 58685 net.cpp:122] Setting up layer_256_5_scale2
I0528 22:35:44.021024 58685 net.cpp:129] Top shape: 25 256 14 14 (1254400)
I0528 22:35:44.021028 58685 net.cpp:137] Memory required for data: 5097881700
I0528 22:35:44.021034 58685 layer_factory.hpp:77] Creating layer layer_256_5_relu2
I0528 22:35:44.021049 58685 net.cpp:84] Creating Layer layer_256_5_relu2
I0528 22:35:44.021060 58685 net.cpp:406] layer_256_5_relu2 <- layer_256_5_conv1
I0528 22:35:44.021067 58685 net.cpp:367] layer_256_5_relu2 -> layer_256_5_conv1 (in-place)
I0528 22:35:44.021278 58685 net.cpp:122] Setting up layer_256_5_relu2
I0528 22:35:44.021292 58685 net.cpp:129] Top shape: 25 256 14 14 (1254400)
I0528 22:35:44.021296 58685 net.cpp:137] Memory required for data: 5102899300
I0528 22:35:44.021301 58685 layer_factory.hpp:77] Creating layer layer_256_5_conv2
I0528 22:35:44.021311 58685 net.cpp:84] Creating Layer layer_256_5_conv2
I0528 22:35:44.021317 58685 net.cpp:406] layer_256_5_conv2 <- layer_256_5_conv1
I0528 22:35:44.021323 58685 net.cpp:380] layer_256_5_conv2 -> layer_256_5_conv2
I0528 22:35:44.043571 58685 net.cpp:122] Setting up layer_256_5_conv2
I0528 22:35:44.043593 58685 net.cpp:129] Top shape: 25 256 14 14 (1254400)
I0528 22:35:44.043598 58685 net.cpp:137] Memory required for data: 5107916900
I0528 22:35:44.043604 58685 layer_factory.hpp:77] Creating layer layer_256_5_bn3
I0528 22:35:44.043614 58685 net.cpp:84] Creating Layer layer_256_5_bn3
I0528 22:35:44.043619 58685 net.cpp:406] layer_256_5_bn3 <- layer_256_5_conv2
I0528 22:35:44.043625 58685 net.cpp:367] layer_256_5_bn3 -> layer_256_5_conv2 (in-place)
I0528 22:35:44.043877 58685 net.cpp:122] Setting up layer_256_5_bn3
I0528 22:35:44.043886 58685 net.cpp:129] Top shape: 25 256 14 14 (1254400)
I0528 22:35:44.043890 58685 net.cpp:137] Memory required for data: 5112934500
I0528 22:35:44.043898 58685 layer_factory.hpp:77] Creating layer layer_256_5_scale3
I0528 22:35:44.043907 58685 net.cpp:84] Creating Layer layer_256_5_scale3
I0528 22:35:44.043912 58685 net.cpp:406] layer_256_5_scale3 <- layer_256_5_conv2
I0528 22:35:44.043918 58685 net.cpp:367] layer_256_5_scale3 -> layer_256_5_conv2 (in-place)
I0528 22:35:44.043974 58685 layer_factory.hpp:77] Creating layer layer_256_5_scale3
I0528 22:35:44.044117 58685 net.cpp:122] Setting up layer_256_5_scale3
I0528 22:35:44.044126 58685 net.cpp:129] Top shape: 25 256 14 14 (1254400)
I0528 22:35:44.044129 58685 net.cpp:137] Memory required for data: 5117952100
I0528 22:35:44.044136 58685 layer_factory.hpp:77] Creating layer layer_256_5_relu3
I0528 22:35:44.044142 58685 net.cpp:84] Creating Layer layer_256_5_relu3
I0528 22:35:44.044147 58685 net.cpp:406] layer_256_5_relu3 <- layer_256_5_conv2
I0528 22:35:44.044153 58685 net.cpp:367] layer_256_5_relu3 -> layer_256_5_conv2 (in-place)
I0528 22:35:44.044873 58685 net.cpp:122] Setting up layer_256_5_relu3
I0528 22:35:44.044893 58685 net.cpp:129] Top shape: 25 256 14 14 (1254400)
I0528 22:35:44.044896 58685 net.cpp:137] Memory required for data: 5122969700
I0528 22:35:44.044901 58685 layer_factory.hpp:77] Creating layer layer_256_5_conv3
I0528 22:35:44.044914 58685 net.cpp:84] Creating Layer layer_256_5_conv3
I0528 22:35:44.044919 58685 net.cpp:406] layer_256_5_conv3 <- layer_256_5_conv2
I0528 22:35:44.044929 58685 net.cpp:380] layer_256_5_conv3 -> layer_256_5_conv3
I0528 22:35:44.056496 58685 net.cpp:122] Setting up layer_256_5_conv3
I0528 22:35:44.056519 58685 net.cpp:129] Top shape: 25 1024 14 14 (5017600)
I0528 22:35:44.056524 58685 net.cpp:137] Memory required for data: 5143040100
I0528 22:35:44.056529 58685 layer_factory.hpp:77] Creating layer layer_256_5_sum
I0528 22:35:44.056538 58685 net.cpp:84] Creating Layer layer_256_5_sum
I0528 22:35:44.056545 58685 net.cpp:406] layer_256_5_sum <- layer_256_5_conv3
I0528 22:35:44.056556 58685 net.cpp:406] layer_256_5_sum <- layer_256_4_sum_layer_256_4_sum_0_split_1
I0528 22:35:44.056566 58685 net.cpp:380] layer_256_5_sum -> layer_256_5_sum
I0528 22:35:44.056610 58685 net.cpp:122] Setting up layer_256_5_sum
I0528 22:35:44.056618 58685 net.cpp:129] Top shape: 25 1024 14 14 (5017600)
I0528 22:35:44.056622 58685 net.cpp:137] Memory required for data: 5163110500
I0528 22:35:44.056627 58685 layer_factory.hpp:77] Creating layer layer_256_5_sum_layer_256_5_sum_0_split
I0528 22:35:44.056632 58685 net.cpp:84] Creating Layer layer_256_5_sum_layer_256_5_sum_0_split
I0528 22:35:44.056643 58685 net.cpp:406] layer_256_5_sum_layer_256_5_sum_0_split <- layer_256_5_sum
I0528 22:35:44.056656 58685 net.cpp:380] layer_256_5_sum_layer_256_5_sum_0_split -> layer_256_5_sum_layer_256_5_sum_0_split_0
I0528 22:35:44.056666 58685 net.cpp:380] layer_256_5_sum_layer_256_5_sum_0_split -> layer_256_5_sum_layer_256_5_sum_0_split_1
I0528 22:35:44.056717 58685 net.cpp:122] Setting up layer_256_5_sum_layer_256_5_sum_0_split
I0528 22:35:44.056725 58685 net.cpp:129] Top shape: 25 1024 14 14 (5017600)
I0528 22:35:44.056730 58685 net.cpp:129] Top shape: 25 1024 14 14 (5017600)
I0528 22:35:44.056733 58685 net.cpp:137] Memory required for data: 5203251300
I0528 22:35:44.056736 58685 layer_factory.hpp:77] Creating layer layer_256_6_bn1
I0528 22:35:44.056746 58685 net.cpp:84] Creating Layer layer_256_6_bn1
I0528 22:35:44.056749 58685 net.cpp:406] layer_256_6_bn1 <- layer_256_5_sum_layer_256_5_sum_0_split_0
I0528 22:35:44.056758 58685 net.cpp:380] layer_256_6_bn1 -> layer_256_6_bn1
I0528 22:35:44.057020 58685 net.cpp:122] Setting up layer_256_6_bn1
I0528 22:35:44.057029 58685 net.cpp:129] Top shape: 25 1024 14 14 (5017600)
I0528 22:35:44.057032 58685 net.cpp:137] Memory required for data: 5223321700
I0528 22:35:44.057042 58685 layer_factory.hpp:77] Creating layer layer_256_6_scale1
I0528 22:35:44.057050 58685 net.cpp:84] Creating Layer layer_256_6_scale1
I0528 22:35:44.057055 58685 net.cpp:406] layer_256_6_scale1 <- layer_256_6_bn1
I0528 22:35:44.057060 58685 net.cpp:367] layer_256_6_scale1 -> layer_256_6_bn1 (in-place)
I0528 22:35:44.057116 58685 layer_factory.hpp:77] Creating layer layer_256_6_scale1
I0528 22:35:44.057266 58685 net.cpp:122] Setting up layer_256_6_scale1
I0528 22:35:44.057276 58685 net.cpp:129] Top shape: 25 1024 14 14 (5017600)
I0528 22:35:44.057278 58685 net.cpp:137] Memory required for data: 5243392100
I0528 22:35:44.057286 58685 layer_factory.hpp:77] Creating layer layer_256_6_relu1
I0528 22:35:44.057293 58685 net.cpp:84] Creating Layer layer_256_6_relu1
I0528 22:35:44.057298 58685 net.cpp:406] layer_256_6_relu1 <- layer_256_6_bn1
I0528 22:35:44.057303 58685 net.cpp:367] layer_256_6_relu1 -> layer_256_6_bn1 (in-place)
I0528 22:35:44.057509 58685 net.cpp:122] Setting up layer_256_6_relu1
I0528 22:35:44.057523 58685 net.cpp:129] Top shape: 25 1024 14 14 (5017600)
I0528 22:35:44.057526 58685 net.cpp:137] Memory required for data: 5263462500
I0528 22:35:44.057531 58685 layer_factory.hpp:77] Creating layer layer_256_6_conv1
I0528 22:35:44.057543 58685 net.cpp:84] Creating Layer layer_256_6_conv1
I0528 22:35:44.057548 58685 net.cpp:406] layer_256_6_conv1 <- layer_256_6_bn1
I0528 22:35:44.057567 58685 net.cpp:380] layer_256_6_conv1 -> layer_256_6_conv1
I0528 22:35:44.068629 58685 net.cpp:122] Setting up layer_256_6_conv1
I0528 22:35:44.068651 58685 net.cpp:129] Top shape: 25 256 14 14 (1254400)
I0528 22:35:44.068656 58685 net.cpp:137] Memory required for data: 5268480100
I0528 22:35:44.068662 58685 layer_factory.hpp:77] Creating layer layer_256_6_bn2
I0528 22:35:44.068672 58685 net.cpp:84] Creating Layer layer_256_6_bn2
I0528 22:35:44.068678 58685 net.cpp:406] layer_256_6_bn2 <- layer_256_6_conv1
I0528 22:35:44.068686 58685 net.cpp:367] layer_256_6_bn2 -> layer_256_6_conv1 (in-place)
I0528 22:35:44.068943 58685 net.cpp:122] Setting up layer_256_6_bn2
I0528 22:35:44.068951 58685 net.cpp:129] Top shape: 25 256 14 14 (1254400)
I0528 22:35:44.068954 58685 net.cpp:137] Memory required for data: 5273497700
I0528 22:35:44.068963 58685 layer_factory.hpp:77] Creating layer layer_256_6_scale2
I0528 22:35:44.068970 58685 net.cpp:84] Creating Layer layer_256_6_scale2
I0528 22:35:44.068974 58685 net.cpp:406] layer_256_6_scale2 <- layer_256_6_conv1
I0528 22:35:44.068982 58685 net.cpp:367] layer_256_6_scale2 -> layer_256_6_conv1 (in-place)
I0528 22:35:44.069038 58685 layer_factory.hpp:77] Creating layer layer_256_6_scale2
I0528 22:35:44.069185 58685 net.cpp:122] Setting up layer_256_6_scale2
I0528 22:35:44.069195 58685 net.cpp:129] Top shape: 25 256 14 14 (1254400)
I0528 22:35:44.069197 58685 net.cpp:137] Memory required for data: 5278515300
I0528 22:35:44.069209 58685 layer_factory.hpp:77] Creating layer layer_256_6_relu2
I0528 22:35:44.069227 58685 net.cpp:84] Creating Layer layer_256_6_relu2
I0528 22:35:44.069232 58685 net.cpp:406] layer_256_6_relu2 <- layer_256_6_conv1
I0528 22:35:44.069237 58685 net.cpp:367] layer_256_6_relu2 -> layer_256_6_conv1 (in-place)
I0528 22:35:44.069448 58685 net.cpp:122] Setting up layer_256_6_relu2
I0528 22:35:44.069460 58685 net.cpp:129] Top shape: 25 256 14 14 (1254400)
I0528 22:35:44.069464 58685 net.cpp:137] Memory required for data: 5283532900
I0528 22:35:44.069468 58685 layer_factory.hpp:77] Creating layer layer_256_6_conv2
I0528 22:35:44.069480 58685 net.cpp:84] Creating Layer layer_256_6_conv2
I0528 22:35:44.069484 58685 net.cpp:406] layer_256_6_conv2 <- layer_256_6_conv1
I0528 22:35:44.069494 58685 net.cpp:380] layer_256_6_conv2 -> layer_256_6_conv2
I0528 22:35:44.092396 58685 net.cpp:122] Setting up layer_256_6_conv2
I0528 22:35:44.092417 58685 net.cpp:129] Top shape: 25 256 14 14 (1254400)
I0528 22:35:44.092422 58685 net.cpp:137] Memory required for data: 5288550500
I0528 22:35:44.092427 58685 layer_factory.hpp:77] Creating layer layer_256_6_bn3
I0528 22:35:44.092438 58685 net.cpp:84] Creating Layer layer_256_6_bn3
I0528 22:35:44.092443 58685 net.cpp:406] layer_256_6_bn3 <- layer_256_6_conv2
I0528 22:35:44.092450 58685 net.cpp:367] layer_256_6_bn3 -> layer_256_6_conv2 (in-place)
I0528 22:35:44.092722 58685 net.cpp:122] Setting up layer_256_6_bn3
I0528 22:35:44.092736 58685 net.cpp:129] Top shape: 25 256 14 14 (1254400)
I0528 22:35:44.092741 58685 net.cpp:137] Memory required for data: 5293568100
I0528 22:35:44.092748 58685 layer_factory.hpp:77] Creating layer layer_256_6_scale3
I0528 22:35:44.092756 58685 net.cpp:84] Creating Layer layer_256_6_scale3
I0528 22:35:44.092761 58685 net.cpp:406] layer_256_6_scale3 <- layer_256_6_conv2
I0528 22:35:44.092767 58685 net.cpp:367] layer_256_6_scale3 -> layer_256_6_conv2 (in-place)
I0528 22:35:44.092826 58685 layer_factory.hpp:77] Creating layer layer_256_6_scale3
I0528 22:35:44.092974 58685 net.cpp:122] Setting up layer_256_6_scale3
I0528 22:35:44.092983 58685 net.cpp:129] Top shape: 25 256 14 14 (1254400)
I0528 22:35:44.092988 58685 net.cpp:137] Memory required for data: 5298585700
I0528 22:35:44.092993 58685 layer_factory.hpp:77] Creating layer layer_256_6_relu3
I0528 22:35:44.093000 58685 net.cpp:84] Creating Layer layer_256_6_relu3
I0528 22:35:44.093004 58685 net.cpp:406] layer_256_6_relu3 <- layer_256_6_conv2
I0528 22:35:44.093011 58685 net.cpp:367] layer_256_6_relu3 -> layer_256_6_conv2 (in-place)
I0528 22:35:44.093755 58685 net.cpp:122] Setting up layer_256_6_relu3
I0528 22:35:44.093775 58685 net.cpp:129] Top shape: 25 256 14 14 (1254400)
I0528 22:35:44.093780 58685 net.cpp:137] Memory required for data: 5303603300
I0528 22:35:44.093785 58685 layer_factory.hpp:77] Creating layer layer_256_6_conv3
I0528 22:35:44.093797 58685 net.cpp:84] Creating Layer layer_256_6_conv3
I0528 22:35:44.093802 58685 net.cpp:406] layer_256_6_conv3 <- layer_256_6_conv2
I0528 22:35:44.093812 58685 net.cpp:380] layer_256_6_conv3 -> layer_256_6_conv3
I0528 22:35:44.104887 58685 net.cpp:122] Setting up layer_256_6_conv3
I0528 22:35:44.104908 58685 net.cpp:129] Top shape: 25 1024 14 14 (5017600)
I0528 22:35:44.104913 58685 net.cpp:137] Memory required for data: 5323673700
I0528 22:35:44.104920 58685 layer_factory.hpp:77] Creating layer layer_256_6_sum
I0528 22:35:44.104929 58685 net.cpp:84] Creating Layer layer_256_6_sum
I0528 22:35:44.104934 58685 net.cpp:406] layer_256_6_sum <- layer_256_6_conv3
I0528 22:35:44.104940 58685 net.cpp:406] layer_256_6_sum <- layer_256_5_sum_layer_256_5_sum_0_split_1
I0528 22:35:44.104946 58685 net.cpp:380] layer_256_6_sum -> layer_256_6_sum
I0528 22:35:44.104988 58685 net.cpp:122] Setting up layer_256_6_sum
I0528 22:35:44.104996 58685 net.cpp:129] Top shape: 25 1024 14 14 (5017600)
I0528 22:35:44.105000 58685 net.cpp:137] Memory required for data: 5343744100
I0528 22:35:44.105005 58685 layer_factory.hpp:77] Creating layer layer_512_1_bn1
I0528 22:35:44.105016 58685 net.cpp:84] Creating Layer layer_512_1_bn1
I0528 22:35:44.105029 58685 net.cpp:406] layer_512_1_bn1 <- layer_256_6_sum
I0528 22:35:44.105038 58685 net.cpp:380] layer_512_1_bn1 -> layer_512_1_bn1
I0528 22:35:44.105316 58685 net.cpp:122] Setting up layer_512_1_bn1
I0528 22:35:44.105325 58685 net.cpp:129] Top shape: 25 1024 14 14 (5017600)
I0528 22:35:44.105329 58685 net.cpp:137] Memory required for data: 5363814500
I0528 22:35:44.105337 58685 layer_factory.hpp:77] Creating layer layer_512_1_scale1
I0528 22:35:44.105350 58685 net.cpp:84] Creating Layer layer_512_1_scale1
I0528 22:35:44.105355 58685 net.cpp:406] layer_512_1_scale1 <- layer_512_1_bn1
I0528 22:35:44.105360 58685 net.cpp:367] layer_512_1_scale1 -> layer_512_1_bn1 (in-place)
I0528 22:35:44.105415 58685 layer_factory.hpp:77] Creating layer layer_512_1_scale1
I0528 22:35:44.105583 58685 net.cpp:122] Setting up layer_512_1_scale1
I0528 22:35:44.105597 58685 net.cpp:129] Top shape: 25 1024 14 14 (5017600)
I0528 22:35:44.105600 58685 net.cpp:137] Memory required for data: 5383884900
I0528 22:35:44.105607 58685 layer_factory.hpp:77] Creating layer layer_512_1_relu1
I0528 22:35:44.105614 58685 net.cpp:84] Creating Layer layer_512_1_relu1
I0528 22:35:44.105619 58685 net.cpp:406] layer_512_1_relu1 <- layer_512_1_bn1
I0528 22:35:44.105626 58685 net.cpp:367] layer_512_1_relu1 -> layer_512_1_bn1 (in-place)
I0528 22:35:44.105834 58685 net.cpp:122] Setting up layer_512_1_relu1
I0528 22:35:44.105846 58685 net.cpp:129] Top shape: 25 1024 14 14 (5017600)
I0528 22:35:44.105849 58685 net.cpp:137] Memory required for data: 5403955300
I0528 22:35:44.105854 58685 layer_factory.hpp:77] Creating layer layer_512_1_bn1_layer_512_1_relu1_0_split
I0528 22:35:44.105860 58685 net.cpp:84] Creating Layer layer_512_1_bn1_layer_512_1_relu1_0_split
I0528 22:35:44.105865 58685 net.cpp:406] layer_512_1_bn1_layer_512_1_relu1_0_split <- layer_512_1_bn1
I0528 22:35:44.105872 58685 net.cpp:380] layer_512_1_bn1_layer_512_1_relu1_0_split -> layer_512_1_bn1_layer_512_1_relu1_0_split_0
I0528 22:35:44.105880 58685 net.cpp:380] layer_512_1_bn1_layer_512_1_relu1_0_split -> layer_512_1_bn1_layer_512_1_relu1_0_split_1
I0528 22:35:44.105939 58685 net.cpp:122] Setting up layer_512_1_bn1_layer_512_1_relu1_0_split
I0528 22:35:44.105949 58685 net.cpp:129] Top shape: 25 1024 14 14 (5017600)
I0528 22:35:44.105954 58685 net.cpp:129] Top shape: 25 1024 14 14 (5017600)
I0528 22:35:44.105957 58685 net.cpp:137] Memory required for data: 5444096100
I0528 22:35:44.105962 58685 layer_factory.hpp:77] Creating layer layer_512_1_conv1
I0528 22:35:44.105973 58685 net.cpp:84] Creating Layer layer_512_1_conv1
I0528 22:35:44.105978 58685 net.cpp:406] layer_512_1_conv1 <- layer_512_1_bn1_layer_512_1_relu1_0_split_0
I0528 22:35:44.105983 58685 net.cpp:380] layer_512_1_conv1 -> layer_512_1_conv1
I0528 22:35:44.125983 58685 net.cpp:122] Setting up layer_512_1_conv1
I0528 22:35:44.126004 58685 net.cpp:129] Top shape: 25 512 14 14 (2508800)
I0528 22:35:44.126009 58685 net.cpp:137] Memory required for data: 5454131300
I0528 22:35:44.126015 58685 layer_factory.hpp:77] Creating layer layer_512_1_bn2
I0528 22:35:44.126025 58685 net.cpp:84] Creating Layer layer_512_1_bn2
I0528 22:35:44.126030 58685 net.cpp:406] layer_512_1_bn2 <- layer_512_1_conv1
I0528 22:35:44.126039 58685 net.cpp:367] layer_512_1_bn2 -> layer_512_1_conv1 (in-place)
I0528 22:35:44.126302 58685 net.cpp:122] Setting up layer_512_1_bn2
I0528 22:35:44.126312 58685 net.cpp:129] Top shape: 25 512 14 14 (2508800)
I0528 22:35:44.126314 58685 net.cpp:137] Memory required for data: 5464166500
I0528 22:35:44.126322 58685 layer_factory.hpp:77] Creating layer layer_512_1_scale2
I0528 22:35:44.126330 58685 net.cpp:84] Creating Layer layer_512_1_scale2
I0528 22:35:44.126334 58685 net.cpp:406] layer_512_1_scale2 <- layer_512_1_conv1
I0528 22:35:44.126343 58685 net.cpp:367] layer_512_1_scale2 -> layer_512_1_conv1 (in-place)
I0528 22:35:44.126394 58685 layer_factory.hpp:77] Creating layer layer_512_1_scale2
I0528 22:35:44.126560 58685 net.cpp:122] Setting up layer_512_1_scale2
I0528 22:35:44.126579 58685 net.cpp:129] Top shape: 25 512 14 14 (2508800)
I0528 22:35:44.126590 58685 net.cpp:137] Memory required for data: 5474201700
I0528 22:35:44.126596 58685 layer_factory.hpp:77] Creating layer layer_512_1_relu2
I0528 22:35:44.126603 58685 net.cpp:84] Creating Layer layer_512_1_relu2
I0528 22:35:44.126608 58685 net.cpp:406] layer_512_1_relu2 <- layer_512_1_conv1
I0528 22:35:44.126613 58685 net.cpp:367] layer_512_1_relu2 -> layer_512_1_conv1 (in-place)
I0528 22:35:44.126828 58685 net.cpp:122] Setting up layer_512_1_relu2
I0528 22:35:44.126840 58685 net.cpp:129] Top shape: 25 512 14 14 (2508800)
I0528 22:35:44.126843 58685 net.cpp:137] Memory required for data: 5484236900
I0528 22:35:44.126847 58685 layer_factory.hpp:77] Creating layer layer_512_1_conv2
I0528 22:35:44.126859 58685 net.cpp:84] Creating Layer layer_512_1_conv2
I0528 22:35:44.126864 58685 net.cpp:406] layer_512_1_conv2 <- layer_512_1_conv1
I0528 22:35:44.126873 58685 net.cpp:380] layer_512_1_conv2 -> layer_512_1_conv2
I0528 22:35:44.209736 58685 net.cpp:122] Setting up layer_512_1_conv2
I0528 22:35:44.209769 58685 net.cpp:129] Top shape: 25 512 7 7 (627200)
I0528 22:35:44.209774 58685 net.cpp:137] Memory required for data: 5486745700
I0528 22:35:44.209782 58685 layer_factory.hpp:77] Creating layer layer_512_1_bn3
I0528 22:35:44.209794 58685 net.cpp:84] Creating Layer layer_512_1_bn3
I0528 22:35:44.209800 58685 net.cpp:406] layer_512_1_bn3 <- layer_512_1_conv2
I0528 22:35:44.209807 58685 net.cpp:367] layer_512_1_bn3 -> layer_512_1_conv2 (in-place)
I0528 22:35:44.210090 58685 net.cpp:122] Setting up layer_512_1_bn3
I0528 22:35:44.210099 58685 net.cpp:129] Top shape: 25 512 7 7 (627200)
I0528 22:35:44.210103 58685 net.cpp:137] Memory required for data: 5489254500
I0528 22:35:44.210160 58685 layer_factory.hpp:77] Creating layer layer_512_1_scale3
I0528 22:35:44.210172 58685 net.cpp:84] Creating Layer layer_512_1_scale3
I0528 22:35:44.210177 58685 net.cpp:406] layer_512_1_scale3 <- layer_512_1_conv2
I0528 22:35:44.210182 58685 net.cpp:367] layer_512_1_scale3 -> layer_512_1_conv2 (in-place)
I0528 22:35:44.210247 58685 layer_factory.hpp:77] Creating layer layer_512_1_scale3
I0528 22:35:44.210405 58685 net.cpp:122] Setting up layer_512_1_scale3
I0528 22:35:44.210415 58685 net.cpp:129] Top shape: 25 512 7 7 (627200)
I0528 22:35:44.210418 58685 net.cpp:137] Memory required for data: 5491763300
I0528 22:35:44.210425 58685 layer_factory.hpp:77] Creating layer layer_512_1_relu3
I0528 22:35:44.210433 58685 net.cpp:84] Creating Layer layer_512_1_relu3
I0528 22:35:44.210436 58685 net.cpp:406] layer_512_1_relu3 <- layer_512_1_conv2
I0528 22:35:44.210444 58685 net.cpp:367] layer_512_1_relu3 -> layer_512_1_conv2 (in-place)
I0528 22:35:44.211170 58685 net.cpp:122] Setting up layer_512_1_relu3
I0528 22:35:44.211190 58685 net.cpp:129] Top shape: 25 512 7 7 (627200)
I0528 22:35:44.211194 58685 net.cpp:137] Memory required for data: 5494272100
I0528 22:35:44.211199 58685 layer_factory.hpp:77] Creating layer layer_512_1_conv3
I0528 22:35:44.211213 58685 net.cpp:84] Creating Layer layer_512_1_conv3
I0528 22:35:44.211218 58685 net.cpp:406] layer_512_1_conv3 <- layer_512_1_conv2
I0528 22:35:44.211227 58685 net.cpp:380] layer_512_1_conv3 -> layer_512_1_conv3
I0528 22:35:44.249186 58685 net.cpp:122] Setting up layer_512_1_conv3
I0528 22:35:44.249207 58685 net.cpp:129] Top shape: 25 2048 7 7 (2508800)
I0528 22:35:44.249212 58685 net.cpp:137] Memory required for data: 5504307300
…
I0528 22:35:44.988808 58685 net.cpp:406] layer_256_4_scale2 <- layer_256_4_conv1
I0528 22:35:44.988816 58685 net.cpp:367] layer_256_4_scale2 -> layer_256_4_conv1 (in-place)
I0528 22:35:44.988870 58685 layer_factory.hpp:77] Creating layer layer_256_4_scale2
I0528 22:35:44.989007 58685 net.cpp:122] Setting up layer_256_4_scale2
I0528 22:35:44.989023 58685 net.cpp:129] Top shape: 10 256 14 14 (501760)
I0528 22:35:44.989034 58685 net.cpp:137] Memory required for data: 1966899320
I0528 22:35:44.989042 58685 layer_factory.hpp:77] Creating layer layer_256_4_relu2
I0528 22:35:44.989049 58685 net.cpp:84] Creating Layer layer_256_4_relu2
I0528 22:35:44.989054 58685 net.cpp:406] layer_256_4_relu2 <- layer_256_4_conv1
I0528 22:35:44.989059 58685 net.cpp:367] layer_256_4_relu2 -> layer_256_4_conv1 (in-place)
I0528 22:35:44.989305 58685 net.cpp:122] Setting up layer_256_4_relu2
I0528 22:35:44.989318 58685 net.cpp:129] Top shape: 10 256 14 14 (501760)
I0528 22:35:44.989322 58685 net.cpp:137] Memory required for data: 1968906360
I0528 22:35:44.989326 58685 layer_factory.hpp:77] Creating layer layer_256_4_conv2
I0528 22:35:44.989338 58685 net.cpp:84] Creating Layer layer_256_4_conv2
I0528 22:35:44.989343 58685 net.cpp:406] layer_256_4_conv2 <- layer_256_4_conv1
I0528 22:35:44.989351 58685 net.cpp:380] layer_256_4_conv2 -> layer_256_4_conv2
I0528 22:35:45.011755 58685 net.cpp:122] Setting up layer_256_4_conv2
I0528 22:35:45.011776 58685 net.cpp:129] Top shape: 10 256 14 14 (501760)
I0528 22:35:45.011781 58685 net.cpp:137] Memory required for data: 1970913400
I0528 22:35:45.011787 58685 layer_factory.hpp:77] Creating layer layer_256_4_bn3
I0528 22:35:45.011797 58685 net.cpp:84] Creating Layer layer_256_4_bn3
I0528 22:35:45.011802 58685 net.cpp:406] layer_256_4_bn3 <- layer_256_4_conv2
I0528 22:35:45.011809 58685 net.cpp:367] layer_256_4_bn3 -> layer_256_4_conv2 (in-place)
I0528 22:35:45.012056 58685 net.cpp:122] Setting up layer_256_4_bn3
I0528 22:35:45.012065 58685 net.cpp:129] Top shape: 10 256 14 14 (501760)
I0528 22:35:45.012069 58685 net.cpp:137] Memory required for data: 1972920440
I0528 22:35:45.012078 58685 layer_factory.hpp:77] Creating layer layer_256_4_scale3
I0528 22:35:45.012085 58685 net.cpp:84] Creating Layer layer_256_4_scale3
I0528 22:35:45.012089 58685 net.cpp:406] layer_256_4_scale3 <- layer_256_4_conv2
I0528 22:35:45.012095 58685 net.cpp:367] layer_256_4_scale3 -> layer_256_4_conv2 (in-place)
I0528 22:35:45.012153 58685 layer_factory.hpp:77] Creating layer layer_256_4_scale3
I0528 22:35:45.012293 58685 net.cpp:122] Setting up layer_256_4_scale3
I0528 22:35:45.012302 58685 net.cpp:129] Top shape: 10 256 14 14 (501760)
I0528 22:35:45.012306 58685 net.cpp:137] Memory required for data: 1974927480
I0528 22:35:45.012312 58685 layer_factory.hpp:77] Creating layer layer_256_4_relu3
I0528 22:35:45.012321 58685 net.cpp:84] Creating Layer layer_256_4_relu3
I0528 22:35:45.012326 58685 net.cpp:406] layer_256_4_relu3 <- layer_256_4_conv2
I0528 22:35:45.012331 58685 net.cpp:367] layer_256_4_relu3 -> layer_256_4_conv2 (in-place)
I0528 22:35:45.012575 58685 net.cpp:122] Setting up layer_256_4_relu3
I0528 22:35:45.012594 58685 net.cpp:129] Top shape: 10 256 14 14 (501760)
I0528 22:35:45.012598 58685 net.cpp:137] Memory required for data: 1976934520
I0528 22:35:45.012603 58685 layer_factory.hpp:77] Creating layer layer_256_4_conv3
I0528 22:35:45.012615 58685 net.cpp:84] Creating Layer layer_256_4_conv3
I0528 22:35:45.012620 58685 net.cpp:406] layer_256_4_conv3 <- layer_256_4_conv2
I0528 22:35:45.012627 58685 net.cpp:380] layer_256_4_conv3 -> layer_256_4_conv3
I0528 22:35:45.023599 58685 net.cpp:122] Setting up layer_256_4_conv3
I0528 22:35:45.023620 58685 net.cpp:129] Top shape: 10 1024 14 14 (2007040)
I0528 22:35:45.023625 58685 net.cpp:137] Memory required for data: 1984962680
I0528 22:35:45.023632 58685 layer_factory.hpp:77] Creating layer layer_256_4_sum
I0528 22:35:45.023638 58685 net.cpp:84] Creating Layer layer_256_4_sum
I0528 22:35:45.023651 58685 net.cpp:406] layer_256_4_sum <- layer_256_4_conv3
I0528 22:35:45.023656 58685 net.cpp:406] layer_256_4_sum <- layer_256_3_sum_layer_256_3_sum_0_split_1
I0528 22:35:45.023663 58685 net.cpp:380] layer_256_4_sum -> layer_256_4_sum
I0528 22:35:45.023700 58685 net.cpp:122] Setting up layer_256_4_sum
I0528 22:35:45.023707 58685 net.cpp:129] Top shape: 10 1024 14 14 (2007040)
I0528 22:35:45.023710 58685 net.cpp:137] Memory required for data: 1992990840
I0528 22:35:45.023726 58685 layer_factory.hpp:77] Creating layer layer_256_4_sum_layer_256_4_sum_0_split
I0528 22:35:45.023735 58685 net.cpp:84] Creating Layer layer_256_4_sum_layer_256_4_sum_0_split
I0528 22:35:45.023739 58685 net.cpp:406] layer_256_4_sum_layer_256_4_sum_0_split <- layer_256_4_sum
I0528 22:35:45.023744 58685 net.cpp:380] layer_256_4_sum_layer_256_4_sum_0_split -> layer_256_4_sum_layer_256_4_sum_0_split_0
I0528 22:35:45.023751 58685 net.cpp:380] layer_256_4_sum_layer_256_4_sum_0_split -> layer_256_4_sum_layer_256_4_sum_0_split_1
I0528 22:35:45.023808 58685 net.cpp:122] Setting up layer_256_4_sum_layer_256_4_sum_0_split
I0528 22:35:45.023815 58685 net.cpp:129] Top shape: 10 1024 14 14 (2007040)
I0528 22:35:45.023820 58685 net.cpp:129] Top shape: 10 1024 14 14 (2007040)
I0528 22:35:45.023823 58685 net.cpp:137] Memory required for data: 2009047160
I0528 22:35:45.023826 58685 layer_factory.hpp:77] Creating layer layer_256_5_bn1
I0528 22:35:45.023844 58685 net.cpp:84] Creating Layer layer_256_5_bn1
I0528 22:35:45.023849 58685 net.cpp:406] layer_256_5_bn1 <- layer_256_4_sum_layer_256_4_sum_0_split_0
I0528 22:35:45.023854 58685 net.cpp:380] layer_256_5_bn1 -> layer_256_5_bn1
I0528 22:35:45.024112 58685 net.cpp:122] Setting up layer_256_5_bn1
I0528 22:35:45.024121 58685 net.cpp:129] Top shape: 10 1024 14 14 (2007040)
I0528 22:35:45.024123 58685 net.cpp:137] Memory required for data: 2017075320
I0528 22:35:45.024132 58685 layer_factory.hpp:77] Creating layer layer_256_5_scale1
I0528 22:35:45.024138 58685 net.cpp:84] Creating Layer layer_256_5_scale1
I0528 22:35:45.024142 58685 net.cpp:406] layer_256_5_scale1 <- layer_256_5_bn1
I0528 22:35:45.024147 58685 net.cpp:367] layer_256_5_scale1 -> layer_256_5_bn1 (in-place)
I0528 22:35:45.024211 58685 layer_factory.hpp:77] Creating layer layer_256_5_scale1
I0528 22:35:45.024361 58685 net.cpp:122] Setting up layer_256_5_scale1
I0528 22:35:45.024370 58685 net.cpp:129] Top shape: 10 1024 14 14 (2007040)
I0528 22:35:45.024374 58685 net.cpp:137] Memory required for data: 2025103480
I0528 22:35:45.024379 58685 layer_factory.hpp:77] Creating layer layer_256_5_relu1
I0528 22:35:45.024385 58685 net.cpp:84] Creating Layer layer_256_5_relu1
I0528 22:35:45.024399 58685 net.cpp:406] layer_256_5_relu1 <- layer_256_5_bn1
I0528 22:35:45.024405 58685 net.cpp:367] layer_256_5_relu1 -> layer_256_5_bn1 (in-place)
I0528 22:35:45.025125 58685 net.cpp:122] Setting up layer_256_5_relu1
I0528 22:35:45.025144 58685 net.cpp:129] Top shape: 10 1024 14 14 (2007040)
I0528 22:35:45.025148 58685 net.cpp:137] Memory required for data: 2033131640
I0528 22:35:45.025152 58685 layer_factory.hpp:77] Creating layer layer_256_5_conv1
I0528 22:35:45.025164 58685 net.cpp:84] Creating Layer layer_256_5_conv1
I0528 22:35:45.025169 58685 net.cpp:406] layer_256_5_conv1 <- layer_256_5_bn1
I0528 22:35:45.025177 58685 net.cpp:380] layer_256_5_conv1 -> layer_256_5_conv1
I0528 22:35:45.035357 58685 net.cpp:122] Setting up layer_256_5_conv1
I0528 22:35:45.035377 58685 net.cpp:129] Top shape: 10 256 14 14 (501760)
I0528 22:35:45.035382 58685 net.cpp:137] Memory required for data: 2035138680
I0528 22:35:45.035387 58685 layer_factory.hpp:77] Creating layer layer_256_5_bn2
I0528 22:35:45.035398 58685 net.cpp:84] Creating Layer layer_256_5_bn2
I0528 22:35:45.035403 58685 net.cpp:406] layer_256_5_bn2 <- layer_256_5_conv1
I0528 22:35:45.035408 58685 net.cpp:367] layer_256_5_bn2 -> layer_256_5_conv1 (in-place)
I0528 22:35:45.035641 58685 net.cpp:122] Setting up layer_256_5_bn2
I0528 22:35:45.035653 58685 net.cpp:129] Top shape: 10 256 14 14 (501760)
I0528 22:35:45.035657 58685 net.cpp:137] Memory required for data: 2037145720
I0528 22:35:45.035665 58685 layer_factory.hpp:77] Creating layer layer_256_5_scale2
I0528 22:35:45.035671 58685 net.cpp:84] Creating Layer layer_256_5_scale2
I0528 22:35:45.035676 58685 net.cpp:406] layer_256_5_scale2 <- layer_256_5_conv1
I0528 22:35:45.035681 58685 net.cpp:367] layer_256_5_scale2 -> layer_256_5_conv1 (in-place)
I0528 22:35:45.035732 58685 layer_factory.hpp:77] Creating layer layer_256_5_scale2
I0528 22:35:45.035874 58685 net.cpp:122] Setting up layer_256_5_scale2
I0528 22:35:45.035884 58685 net.cpp:129] Top shape: 10 256 14 14 (501760)
I0528 22:35:45.035887 58685 net.cpp:137] Memory required for data: 2039152760
I0528 22:35:45.035893 58685 layer_factory.hpp:77] Creating layer layer_256_5_relu2
I0528 22:35:45.035900 58685 net.cpp:84] Creating Layer layer_256_5_relu2
I0528 22:35:45.035904 58685 net.cpp:406] layer_256_5_relu2 <- layer_256_5_conv1
I0528 22:35:45.035912 58685 net.cpp:367] layer_256_5_relu2 -> layer_256_5_conv1 (in-place)
I0528 22:35:45.036136 58685 net.cpp:122] Setting up layer_256_5_relu2
I0528 22:35:45.036147 58685 net.cpp:129] Top shape: 10 256 14 14 (501760)
I0528 22:35:45.036151 58685 net.cpp:137] Memory required for data: 2041159800
I0528 22:35:45.036155 58685 layer_factory.hpp:77] Creating layer layer_256_5_conv2
I0528 22:35:45.036166 58685 net.cpp:84] Creating Layer layer_256_5_conv2
I0528 22:35:45.036171 58685 net.cpp:406] layer_256_5_conv2 <- layer_256_5_conv1
I0528 22:35:45.036180 58685 net.cpp:380] layer_256_5_conv2 -> layer_256_5_conv2
I0528 22:35:45.056717 58685 net.cpp:122] Setting up layer_256_5_conv2
I0528 22:35:45.056736 58685 net.cpp:129] Top shape: 10 256 14 14 (501760)
I0528 22:35:45.056740 58685 net.cpp:137] Memory required for data: 2043166840
I0528 22:35:45.056746 58685 layer_factory.hpp:77] Creating layer layer_256_5_bn3
I0528 22:35:45.056754 58685 net.cpp:84] Creating Layer layer_256_5_bn3
I0528 22:35:45.056759 58685 net.cpp:406] layer_256_5_bn3 <- layer_256_5_conv2
I0528 22:35:45.056766 58685 net.cpp:367] layer_256_5_bn3 -> layer_256_5_conv2 (in-place)
I0528 22:35:45.056984 58685 net.cpp:122] Setting up layer_256_5_bn3
I0528 22:35:45.056991 58685 net.cpp:129] Top shape: 10 256 14 14 (501760)
I0528 22:35:45.056995 58685 net.cpp:137] Memory required for data: 2045173880
I0528 22:35:45.057003 58685 layer_factory.hpp:77] Creating layer layer_256_5_scale3
I0528 22:35:45.057008 58685 net.cpp:84] Creating Layer layer_256_5_scale3
I0528 22:35:45.057013 58685 net.cpp:406] layer_256_5_scale3 <- layer_256_5_conv2
I0528 22:35:45.057020 58685 net.cpp:367] layer_256_5_scale3 -> layer_256_5_conv2 (in-place)
I0528 22:35:45.057066 58685 layer_factory.hpp:77] Creating layer layer_256_5_scale3
I0528 22:35:45.057193 58685 net.cpp:122] Setting up layer_256_5_scale3
I0528 22:35:45.057199 58685 net.cpp:129] Top shape: 10 256 14 14 (501760)
I0528 22:35:45.057204 58685 net.cpp:137] Memory required for data: 2047180920
I0528 22:35:45.057209 58685 layer_factory.hpp:77] Creating layer layer_256_5_relu3
I0528 22:35:45.057214 58685 net.cpp:84] Creating Layer layer_256_5_relu3
I0528 22:35:45.057219 58685 net.cpp:406] layer_256_5_relu3 <- layer_256_5_conv2
I0528 22:35:45.057222 58685 net.cpp:367] layer_256_5_relu3 -> layer_256_5_conv2 (in-place)
I0528 22:35:45.057433 58685 net.cpp:122] Setting up layer_256_5_relu3
I0528 22:35:45.057445 58685 net.cpp:129] Top shape: 10 256 14 14 (501760)
I0528 22:35:45.057447 58685 net.cpp:137] Memory required for data: 2049187960
I0528 22:35:45.057451 58685 layer_factory.hpp:77] Creating layer layer_256_5_conv3
I0528 22:35:45.057461 58685 net.cpp:84] Creating Layer layer_256_5_conv3
I0528 22:35:45.057466 58685 net.cpp:406] layer_256_5_conv3 <- layer_256_5_conv2
I0528 22:35:45.057471 58685 net.cpp:380] layer_256_5_conv3 -> layer_256_5_conv3
I0528 22:35:45.067245 58685 net.cpp:122] Setting up layer_256_5_conv3
I0528 22:35:45.067265 58685 net.cpp:129] Top shape: 10 1024 14 14 (2007040)
I0528 22:35:45.067268 58685 net.cpp:137] Memory required for data: 2057216120
I0528 22:35:45.067273 58685 layer_factory.hpp:77] Creating layer layer_256_5_sum
I0528 22:35:45.067281 58685 net.cpp:84] Creating Layer layer_256_5_sum
I0528 22:35:45.067284 58685 net.cpp:406] layer_256_5_sum <- layer_256_5_conv3
I0528 22:35:45.067289 58685 net.cpp:406] layer_256_5_sum <- layer_256_4_sum_layer_256_4_sum_0_split_1
I0528 22:35:45.067296 58685 net.cpp:380] layer_256_5_sum -> layer_256_5_sum
I0528 22:35:45.067330 58685 net.cpp:122] Setting up layer_256_5_sum
I0528 22:35:45.067344 58685 net.cpp:129] Top shape: 10 1024 14 14 (2007040)
I0528 22:35:45.067354 58685 net.cpp:137] Memory required for data: 2065244280
I0528 22:35:45.067358 58685 layer_factory.hpp:77] Creating layer layer_256_5_sum_layer_256_5_sum_0_split
I0528 22:35:45.067364 58685 net.cpp:84] Creating Layer layer_256_5_sum_layer_256_5_sum_0_split
I0528 22:35:45.067368 58685 net.cpp:406] layer_256_5_sum_layer_256_5_sum_0_split <- layer_256_5_sum
I0528 22:35:45.067373 58685 net.cpp:380] layer_256_5_sum_layer_256_5_sum_0_split -> layer_256_5_sum_layer_256_5_sum_0_split_0
I0528 22:35:45.067380 58685 net.cpp:380] layer_256_5_sum_layer_256_5_sum_0_split -> layer_256_5_sum_layer_256_5_sum_0_split_1
I0528 22:35:45.067426 58685 net.cpp:122] Setting up layer_256_5_sum_layer_256_5_sum_0_split
I0528 22:35:45.067432 58685 net.cpp:129] Top shape: 10 1024 14 14 (2007040)
I0528 22:35:45.067436 58685 net.cpp:129] Top shape: 10 1024 14 14 (2007040)
I0528 22:35:45.067440 58685 net.cpp:137] Memory required for data: 2081300600
I0528 22:35:45.067442 58685 layer_factory.hpp:77] Creating layer layer_256_6_bn1
I0528 22:35:45.067451 58685 net.cpp:84] Creating Layer layer_256_6_bn1
I0528 22:35:45.067454 58685 net.cpp:406] layer_256_6_bn1 <- layer_256_5_sum_layer_256_5_sum_0_split_0
I0528 22:35:45.067461 58685 net.cpp:380] layer_256_6_bn1 -> layer_256_6_bn1
I0528 22:35:45.067721 58685 net.cpp:122] Setting up layer_256_6_bn1
I0528 22:35:45.067734 58685 net.cpp:129] Top shape: 10 1024 14 14 (2007040)
I0528 22:35:45.067737 58685 net.cpp:137] Memory required for data: 2089328760
I0528 22:35:45.067745 58685 layer_factory.hpp:77] Creating layer layer_256_6_scale1
I0528 22:35:45.067754 58685 net.cpp:84] Creating Layer layer_256_6_scale1
I0528 22:35:45.067759 58685 net.cpp:406] layer_256_6_scale1 <- layer_256_6_bn1
I0528 22:35:45.067764 58685 net.cpp:367] layer_256_6_scale1 -> layer_256_6_bn1 (in-place)
I0528 22:35:45.067822 58685 layer_factory.hpp:77] Creating layer layer_256_6_scale1
I0528 22:35:45.067967 58685 net.cpp:122] Setting up layer_256_6_scale1
I0528 22:35:45.067975 58685 net.cpp:129] Top shape: 10 1024 14 14 (2007040)
I0528 22:35:45.067978 58685 net.cpp:137] Memory required for data: 2097356920
I0528 22:35:45.067983 58685 layer_factory.hpp:77] Creating layer layer_256_6_relu1
I0528 22:35:45.067989 58685 net.cpp:84] Creating Layer layer_256_6_relu1
I0528 22:35:45.067993 58685 net.cpp:406] layer_256_6_relu1 <- layer_256_6_bn1
I0528 22:35:45.068001 58685 net.cpp:367] layer_256_6_relu1 -> layer_256_6_bn1 (in-place)
I0528 22:35:45.068683 58685 net.cpp:122] Setting up layer_256_6_relu1
I0528 22:35:45.068699 58685 net.cpp:129] Top shape: 10 1024 14 14 (2007040)
I0528 22:35:45.068704 58685 net.cpp:137] Memory required for data: 2105385080
I0528 22:35:45.068707 58685 layer_factory.hpp:77] Creating layer layer_256_6_conv1
I0528 22:35:45.068719 58685 net.cpp:84] Creating Layer layer_256_6_conv1
I0528 22:35:45.068724 58685 net.cpp:406] layer_256_6_conv1 <- layer_256_6_bn1
I0528 22:35:45.068732 58685 net.cpp:380] layer_256_6_conv1 -> layer_256_6_conv1
I0528 22:35:45.079210 58685 net.cpp:122] Setting up layer_256_6_conv1
I0528 22:35:45.079228 58685 net.cpp:129] Top shape: 10 256 14 14 (501760)
I0528 22:35:45.079232 58685 net.cpp:137] Memory required for data: 2107392120
I0528 22:35:45.079238 58685 layer_factory.hpp:77] Creating layer layer_256_6_bn2
I0528 22:35:45.079247 58685 net.cpp:84] Creating Layer layer_256_6_bn2
I0528 22:35:45.079252 58685 net.cpp:406] layer_256_6_bn2 <- layer_256_6_conv1
I0528 22:35:45.079257 58685 net.cpp:367] layer_256_6_bn2 -> layer_256_6_conv1 (in-place)
I0528 22:35:45.079483 58685 net.cpp:122] Setting up layer_256_6_bn2
I0528 22:35:45.079491 58685 net.cpp:129] Top shape: 10 256 14 14 (501760)
I0528 22:35:45.079495 58685 net.cpp:137] Memory required for data: 2109399160
I0528 22:35:45.079502 58685 layer_factory.hpp:77] Creating layer layer_256_6_scale2
I0528 22:35:45.079511 58685 net.cpp:84] Creating Layer layer_256_6_scale2
I0528 22:35:45.079515 58685 net.cpp:406] layer_256_6_scale2 <- layer_256_6_conv1
I0528 22:35:45.079529 58685 net.cpp:367] layer_256_6_scale2 -> layer_256_6_conv1 (in-place)
I0528 22:35:45.079599 58685 layer_factory.hpp:77] Creating layer layer_256_6_scale2
I0528 22:35:45.079735 58685 net.cpp:122] Setting up layer_256_6_scale2
I0528 22:35:45.079743 58685 net.cpp:129] Top shape: 10 256 14 14 (501760)
I0528 22:35:45.079747 58685 net.cpp:137] Memory required for data: 2111406200
I0528 22:35:45.079752 58685 layer_factory.hpp:77] Creating layer layer_256_6_relu2
I0528 22:35:45.079758 58685 net.cpp:84] Creating Layer layer_256_6_relu2
I0528 22:35:45.079762 58685 net.cpp:406] layer_256_6_relu2 <- layer_256_6_conv1
I0528 22:35:45.079768 58685 net.cpp:367] layer_256_6_relu2 -> layer_256_6_conv1 (in-place)
I0528 22:35:45.079985 58685 net.cpp:122] Setting up layer_256_6_relu2
I0528 22:35:45.079995 58685 net.cpp:129] Top shape: 10 256 14 14 (501760)
I0528 22:35:45.079999 58685 net.cpp:137] Memory required for data: 2113413240
I0528 22:35:45.080003 58685 layer_factory.hpp:77] Creating layer layer_256_6_conv2
I0528 22:35:45.080013 58685 net.cpp:84] Creating Layer layer_256_6_conv2
I0528 22:35:45.080018 58685 net.cpp:406] layer_256_6_conv2 <- layer_256_6_conv1
I0528 22:35:45.080026 58685 net.cpp:380] layer_256_6_conv2 -> layer_256_6_conv2
I0528 22:35:45.100106 58685 net.cpp:122] Setting up layer_256_6_conv2
I0528 22:35:45.100123 58685 net.cpp:129] Top shape: 10 256 14 14 (501760)
I0528 22:35:45.100127 58685 net.cpp:137] Memory required for data: 2115420280
I0528 22:35:45.100132 58685 layer_factory.hpp:77] Creating layer layer_256_6_bn3
I0528 22:35:45.100142 58685 net.cpp:84] Creating Layer layer_256_6_bn3
I0528 22:35:45.100147 58685 net.cpp:406] layer_256_6_bn3 <- layer_256_6_conv2
I0528 22:35:45.100153 58685 net.cpp:367] layer_256_6_bn3 -> layer_256_6_conv2 (in-place)
I0528 22:35:45.100373 58685 net.cpp:122] Setting up layer_256_6_bn3
I0528 22:35:45.100380 58685 net.cpp:129] Top shape: 10 256 14 14 (501760)
I0528 22:35:45.100384 58685 net.cpp:137] Memory required for data: 2117427320
I0528 22:35:45.100391 58685 layer_factory.hpp:77] Creating layer layer_256_6_scale3
I0528 22:35:45.100399 58685 net.cpp:84] Creating Layer layer_256_6_scale3
I0528 22:35:45.100401 58685 net.cpp:406] layer_256_6_scale3 <- layer_256_6_conv2
I0528 22:35:45.100409 58685 net.cpp:367] layer_256_6_scale3 -> layer_256_6_conv2 (in-place)
I0528 22:35:45.100453 58685 layer_factory.hpp:77] Creating layer layer_256_6_scale3
I0528 22:35:45.100589 58685 net.cpp:122] Setting up layer_256_6_scale3
I0528 22:35:45.100601 58685 net.cpp:129] Top shape: 10 256 14 14 (501760)
I0528 22:35:45.100605 58685 net.cpp:137] Memory required for data: 2119434360
I0528 22:35:45.100610 58685 layer_factory.hpp:77] Creating layer layer_256_6_relu3
I0528 22:35:45.100616 58685 net.cpp:84] Creating Layer layer_256_6_relu3
I0528 22:35:45.100620 58685 net.cpp:406] layer_256_6_relu3 <- layer_256_6_conv2
I0528 22:35:45.100625 58685 net.cpp:367] layer_256_6_relu3 -> layer_256_6_conv2 (in-place)
I0528 22:35:45.100842 58685 net.cpp:122] Setting up layer_256_6_relu3
I0528 22:35:45.100853 58685 net.cpp:129] Top shape: 10 256 14 14 (501760)
I0528 22:35:45.100857 58685 net.cpp:137] Memory required for data: 2121441400
I0528 22:35:45.100860 58685 layer_factory.hpp:77] Creating layer layer_256_6_conv3
I0528 22:35:45.100870 58685 net.cpp:84] Creating Layer layer_256_6_conv3
I0528 22:35:45.100874 58685 net.cpp:406] layer_256_6_conv3 <- layer_256_6_conv2
I0528 22:35:45.100880 58685 net.cpp:380] layer_256_6_conv3 -> layer_256_6_conv3
I0528 22:35:45.110864 58685 net.cpp:122] Setting up layer_256_6_conv3
I0528 22:35:45.110882 58685 net.cpp:129] Top shape: 10 1024 14 14 (2007040)
I0528 22:35:45.110887 58685 net.cpp:137] Memory required for data: 2129469560
I0528 22:35:45.110893 58685 layer_factory.hpp:77] Creating layer layer_256_6_sum
I0528 22:35:45.110898 58685 net.cpp:84] Creating Layer layer_256_6_sum
I0528 22:35:45.110903 58685 net.cpp:406] layer_256_6_sum <- layer_256_6_conv3
I0528 22:35:45.110908 58685 net.cpp:406] layer_256_6_sum <- layer_256_5_sum_layer_256_5_sum_0_split_1
I0528 22:35:45.110914 58685 net.cpp:380] layer_256_6_sum -> layer_256_6_sum
I0528 22:35:45.110960 58685 net.cpp:122] Setting up layer_256_6_sum
I0528 22:35:45.110970 58685 net.cpp:129] Top shape: 10 1024 14 14 (2007040)
I0528 22:35:45.110972 58685 net.cpp:137] Memory required for data: 2137497720
I0528 22:35:45.110976 58685 layer_factory.hpp:77] Creating layer layer_512_1_bn1
I0528 22:35:45.110982 58685 net.cpp:84] Creating Layer layer_512_1_bn1
I0528 22:35:45.110986 58685 net.cpp:406] layer_512_1_bn1 <- layer_256_6_sum
I0528 22:35:45.110993 58685 net.cpp:380] layer_512_1_bn1 -> layer_512_1_bn1
I0528 22:35:45.111246 58685 net.cpp:122] Setting up layer_512_1_bn1
I0528 22:35:45.111254 58685 net.cpp:129] Top shape: 10 1024 14 14 (2007040)
I0528 22:35:45.111258 58685 net.cpp:137] Memory required for data: 2145525880
I0528 22:35:45.111265 58685 layer_factory.hpp:77] Creating layer layer_512_1_scale1
I0528 22:35:45.111271 58685 net.cpp:84] Creating Layer layer_512_1_scale1
I0528 22:35:45.111275 58685 net.cpp:406] layer_512_1_scale1 <- layer_512_1_bn1
I0528 22:35:45.111284 58685 net.cpp:367] layer_512_1_scale1 -> layer_512_1_bn1 (in-place)
I0528 22:35:45.111340 58685 layer_factory.hpp:77] Creating layer layer_512_1_scale1
I0528 22:35:45.111487 58685 net.cpp:122] Setting up layer_512_1_scale1
I0528 22:35:45.111496 58685 net.cpp:129] Top shape: 10 1024 14 14 (2007040)
I0528 22:35:45.111500 58685 net.cpp:137] Memory required for data: 2153554040
I0528 22:35:45.111505 58685 layer_factory.hpp:77] Creating layer layer_512_1_relu1
I0528 22:35:45.111510 58685 net.cpp:84] Creating Layer layer_512_1_relu1
I0528 22:35:45.111515 58685 net.cpp:406] layer_512_1_relu1 <- layer_512_1_bn1
I0528 22:35:45.111519 58685 net.cpp:367] layer_512_1_relu1 -> layer_512_1_bn1 (in-place)
I0528 22:35:45.112210 58685 net.cpp:122] Setting up layer_512_1_relu1
I0528 22:35:45.112228 58685 net.cpp:129] Top shape: 10 1024 14 14 (2007040)
I0528 22:35:45.112232 58685 net.cpp:137] Memory required for data: 2161582200
I0528 22:35:45.112236 58685 layer_factory.hpp:77] Creating layer layer_512_1_bn1_layer_512_1_relu1_0_split
I0528 22:35:45.112242 58685 net.cpp:84] Creating Layer layer_512_1_bn1_layer_512_1_relu1_0_split
I0528 22:35:45.112246 58685 net.cpp:406] layer_512_1_bn1_layer_512_1_relu1_0_split <- layer_512_1_bn1
I0528 22:35:45.112252 58685 net.cpp:380] layer_512_1_bn1_layer_512_1_relu1_0_split -> layer_512_1_bn1_layer_512_1_relu1_0_split_0
I0528 22:35:45.112259 58685 net.cpp:380] layer_512_1_bn1_layer_512_1_relu1_0_split -> layer_512_1_bn1_layer_512_1_relu1_0_split_1
I0528 22:35:45.112313 58685 net.cpp:122] Setting up layer_512_1_bn1_layer_512_1_relu1_0_split
I0528 22:35:45.112320 58685 net.cpp:129] Top shape: 10 1024 14 14 (2007040)
I0528 22:35:45.112324 58685 net.cpp:129] Top shape: 10 1024 14 14 (2007040)
I0528 22:35:45.112327 58685 net.cpp:137] Memory required for data: 2177638520
I0528 22:35:45.112331 58685 layer_factory.hpp:77] Creating layer layer_512_1_conv1
I0528 22:35:45.112341 58685 net.cpp:84] Creating Layer layer_512_1_conv1
I0528 22:35:45.112345 58685 net.cpp:406] layer_512_1_conv1 <- layer_512_1_bn1_layer_512_1_relu1_0_split_0
I0528 22:35:45.112354 58685 net.cpp:380] layer_512_1_conv1 -> layer_512_1_conv1
I0528 22:35:45.130352 58685 net.cpp:122] Setting up layer_512_1_conv1
I0528 22:35:45.130370 58685 net.cpp:129] Top shape: 10 512 14 14 (1003520)
I0528 22:35:45.130374 58685 net.cpp:137] Memory required for data: 2181652600
I0528 22:35:45.130380 58685 layer_factory.hpp:77] Creating layer layer_512_1_bn2
I0528 22:35:45.130388 58685 net.cpp:84] Creating Layer layer_512_1_bn2
I0528 22:35:45.130393 58685 net.cpp:406] layer_512_1_bn2 <- layer_512_1_conv1
I0528 22:35:45.130399 58685 net.cpp:367] layer_512_1_bn2 -> layer_512_1_conv1 (in-place)
I0528 22:35:45.130658 58685 net.cpp:122] Setting up layer_512_1_bn2
I0528 22:35:45.130669 58685 net.cpp:129] Top shape: 10 512 14 14 (1003520)
I0528 22:35:45.130673 58685 net.cpp:137] Memory required for data: 2185666680
I0528 22:35:45.130681 58685 layer_factory.hpp:77] Creating layer layer_512_1_scale2
I0528 22:35:45.130689 58685 net.cpp:84] Creating Layer layer_512_1_scale2
I0528 22:35:45.130702 58685 net.cpp:406] layer_512_1_scale2 <- layer_512_1_conv1
I0528 22:35:45.130709 58685 net.cpp:367] layer_512_1_scale2 -> layer_512_1_conv1 (in-place)
I0528 22:35:45.130769 58685 layer_factory.hpp:77] Creating layer layer_512_1_scale2
I0528 22:35:45.130918 58685 net.cpp:122] Setting up layer_512_1_scale2
I0528 22:35:45.130926 58685 net.cpp:129] Top shape: 10 512 14 14 (1003520)
I0528 22:35:45.130929 58685 net.cpp:137] Memory required for data: 2189680760
I0528 22:35:45.130935 58685 layer_factory.hpp:77] Creating layer layer_512_1_relu2
I0528 22:35:45.130941 58685 net.cpp:84] Creating Layer layer_512_1_relu2
I0528 22:35:45.130945 58685 net.cpp:406] layer_512_1_relu2 <- layer_512_1_conv1
I0528 22:35:45.130951 58685 net.cpp:367] layer_512_1_relu2 -> layer_512_1_conv1 (in-place)
I0528 22:35:45.131167 58685 net.cpp:122] Setting up layer_512_1_relu2
I0528 22:35:45.131178 58685 net.cpp:129] Top shape: 10 512 14 14 (1003520)
I0528 22:35:45.131181 58685 net.cpp:137] Memory required for data: 2193694840
I0528 22:35:45.131186 58685 layer_factory.hpp:77] Creating layer layer_512_1_conv2
I0528 22:35:45.131196 58685 net.cpp:84] Creating Layer layer_512_1_conv2
I0528 22:35:45.131201 58685 net.cpp:406] layer_512_1_conv2 <- layer_512_1_conv1
I0528 22:35:45.131207 58685 net.cpp:380] layer_512_1_conv2 -> layer_512_1_conv2
I0528 22:35:45.205485 58685 net.cpp:122] Setting up layer_512_1_conv2
I0528 22:35:45.205513 58685 net.cpp:129] Top shape: 10 512 7 7 (250880)
I0528 22:35:45.205518 58685 net.cpp:137] Memory required for data: 2194698360
I0528 22:35:45.205524 58685 layer_factory.hpp:77] Creating layer layer_512_1_bn3
I0528 22:35:45.205535 58685 net.cpp:84] Creating Layer layer_512_1_bn3
I0528 22:35:45.205540 58685 net.cpp:406] layer_512_1_bn3 <- layer_512_1_conv2
I0528 22:35:45.205549 58685 net.cpp:367] layer_512_1_bn3 -> layer_512_1_conv2 (in-place)
I0528 22:35:45.205826 58685 net.cpp:122] Setting up layer_512_1_bn3
I0528 22:35:45.205834 58685 net.cpp:129] Top shape: 10 512 7 7 (250880)
I0528 22:35:45.205838 58685 net.cpp:137] Memory required for data: 2195701880
I0528 22:35:45.205888 58685 layer_factory.hpp:77] Creating layer layer_512_1_scale3
I0528 22:35:45.205896 58685 net.cpp:84] Creating Layer layer_512_1_scale3
I0528 22:35:45.205900 58685 net.cpp:406] layer_512_1_scale3 <- layer_512_1_conv2
I0528 22:35:45.205905 58685 net.cpp:367] layer_512_1_scale3 -> layer_512_1_conv2 (in-place)
I0528 22:35:45.205971 58685 layer_factory.hpp:77] Creating layer layer_512_1_scale3
I0528 22:35:45.206121 58685 net.cpp:122] Setting up layer_512_1_scale3
I0528 22:35:45.206130 58685 net.cpp:129] Top shape: 10 512 7 7 (250880)
I0528 22:35:45.206132 58685 net.cpp:137] Memory required for data: 2196705400
I0528 22:35:45.206138 58685 layer_factory.hpp:77] Creating layer layer_512_1_relu3
I0528 22:35:45.206147 58685 net.cpp:84] Creating Layer layer_512_1_relu3
I0528 22:35:45.206151 58685 net.cpp:406] layer_512_1_relu3 <- layer_512_1_conv2
I0528 22:35:45.206156 58685 net.cpp:367] layer_512_1_relu3 -> layer_512_1_conv2 (in-place)
I0528 22:35:45.206374 58685 net.cpp:122] Setting up layer_512_1_relu3
I0528 22:35:45.206385 58685 net.cpp:129] Top shape: 10 512 7 7 (250880)
I0528 22:35:45.206389 58685 net.cpp:137] Memory required for data: 2197708920
I0528 22:35:45.206393 58685 layer_factory.hpp:77] Creating layer layer_512_1_conv3
I0528 22:35:45.206404 58685 net.cpp:84] Creating Layer layer_512_1_conv3
I0528 22:35:45.206408 58685 net.cpp:406] layer_512_1_conv3 <- layer_512_1_conv2
I0528 22:35:45.206414 58685 net.cpp:380] layer_512_1_conv3 -> layer_512_1_conv3
I0528 22:35:45.240965 58685 net.cpp:122] Setting up layer_512_1_conv3
I0528 22:35:45.240984 58685 net.cpp:129] Top shape: 10 2048 7 7 (1003520)
I0528 22:35:45.240989 58685 net.cpp:137] Memory required for data: 2201723000
I0528 22:35:45.240994 58685 layer_factory.hpp:77] Creating layer layer_512_1_conv_expand
I0528 22:35:45.241006 58685 net.cpp:84] Creating Layer layer_512_1_conv_expand
I0528 22:35:45.241011 58685 net.cpp:406] layer_512_1_conv_expand <- layer_512_1_bn1_layer_512_1_relu1_0_split_1
I0528 22:35:45.241034 58685 net.cpp:380] layer_512_1_conv_expand -> layer_512_1_conv_expand
I0528 22:35:45.307252 58685 net.cpp:122] Setting up layer_512_1_conv_expand
I0528 22:35:45.307286 58685 net.cpp:129] Top shape: 10 2048 7 7 (1003520)
I0528 22:35:45.307291 58685 net.cpp:137] Memory required for data: 2205737080
I0528 22:35:45.307297 58685 layer_factory.hpp:77] Creating layer layer_512_1_sum
I0528 22:35:45.307307 58685 net.cpp:84] Creating Layer layer_512_1_sum
I0528 22:35:45.307312 58685 net.cpp:406] layer_512_1_sum <- layer_512_1_conv3
I0528 22:35:45.307317 58685 net.cpp:406] layer_512_1_sum <- layer_512_1_conv_expand
I0528 22:35:45.307323 58685 net.cpp:380] layer_512_1_sum -> layer_512_1_sum
I0528 22:35:45.307364 58685 net.cpp:122] Setting up layer_512_1_sum
I0528 22:35:45.307371 58685 net.cpp:129] Top shape: 10 2048 7 7 (1003520)
I0528 22:35:45.307375 58685 net.cpp:137] Memory required for data: 2209751160
I0528 22:35:45.307379 58685 layer_factory.hpp:77] Creating layer layer_512_1_sum_layer_512_1_sum_0_split
I0528 22:35:45.307387 58685 net.cpp:84] Creating Layer layer_512_1_sum_layer_512_1_sum_0_split
I0528 22:35:45.307391 58685 net.cpp:406] layer_512_1_sum_layer_512_1_sum_0_split <- layer_512_1_sum
I0528 22:35:45.307396 58685 net.cpp:380] layer_512_1_sum_layer_512_1_sum_0_split -> layer_512_1_sum_layer_512_1_sum_0_split_0
I0528 22:35:45.307404 58685 net.cpp:380] layer_512_1_sum_layer_512_1_sum_0_split -> layer_512_1_sum_layer_512_1_sum_0_split_1
I0528 22:35:45.307449 58685 net.cpp:122] Setting up layer_512_1_sum_layer_512_1_sum_0_split
I0528 22:35:45.307456 58685 net.cpp:129] Top shape: 10 2048 7 7 (1003520)
I0528 22:35:45.307461 58685 net.cpp:129] Top shape: 10 2048 7 7 (1003520)
I0528 22:35:45.307463 58685 net.cpp:137] Memory required for data: 2217779320
I0528 22:35:45.307466 58685 layer_factory.hpp:77] Creating layer layer_512_2_bn1
I0528 22:35:45.307473 58685 net.cpp:84] Creating Layer layer_512_2_bn1
I0528 22:35:45.307476 58685 net.cpp:406] layer_512_2_bn1 <- layer_512_1_sum_layer_512_1_sum_0_split_0
I0528 22:35:45.307485 58685 net.cpp:380] layer_512_2_bn1 -> layer_512_2_bn1
I0528 22:35:45.307786 58685 net.cpp:122] Setting up layer_512_2_bn1
I0528 22:35:45.307798 58685 net.cpp:129] Top shape: 10 2048 7 7 (1003520)
I0528 22:35:45.307801 58685 net.cpp:137] Memory required for data: 2221793400
I0528 22:35:45.307811 58685 layer_factory.hpp:77] Creating layer layer_512_2_scale1
I0528 22:35:45.307818 58685 net.cpp:84] Creating Layer layer_512_2_scale1
I0528 22:35:45.307822 58685 net.cpp:406] layer_512_2_scale1 <- layer_512_2_bn1
I0528 22:35:45.307828 58685 net.cpp:367] layer_512_2_scale1 -> layer_512_2_bn1 (in-place)
I0528 22:35:45.307898 58685 layer_factory.hpp:77] Creating layer layer_512_2_scale1
I0528 22:35:45.308060 58685 net.cpp:122] Setting up layer_512_2_scale1
I0528 22:35:45.308068 58685 net.cpp:129] Top shape: 10 2048 7 7 (1003520)
I0528 22:35:45.308073 58685 net.cpp:137] Memory required for data: 2225807480
I0528 22:35:45.308078 58685 layer_factory.hpp:77] Creating layer layer_512_2_relu1
I0528 22:35:45.308085 58685 net.cpp:84] Creating Layer layer_512_2_relu1
I0528 22:35:45.308090 58685 net.cpp:406] layer_512_2_relu1 <- layer_512_2_bn1
I0528 22:35:45.308095 58685 net.cpp:367] layer_512_2_relu1 -> layer_512_2_bn1 (in-place)
I0528 22:35:45.308786 58685 net.cpp:122] Setting up layer_512_2_relu1
I0528 22:35:45.308804 58685 net.cpp:129] Top shape: 10 2048 7 7 (1003520)
I0528 22:35:45.308807 58685 net.cpp:137] Memory required for data: 2229821560
I0528 22:35:45.308811 58685 layer_factory.hpp:77] Creating layer layer_512_2_conv1
I0528 22:35:45.308823 58685 net.cpp:84] Creating Layer layer_512_2_conv1
I0528 22:35:45.308828 58685 net.cpp:406] layer_512_2_conv1 <- layer_512_2_bn1
I0528 22:35:45.308836 58685 net.cpp:380] layer_512_2_conv1 -> layer_512_2_conv1
I0528 22:35:45.342507 58685 net.cpp:122] Setting up layer_512_2_conv1
I0528 22:35:45.342527 58685 net.cpp:129] Top shape: 10 512 7 7 (250880)
I0528 22:35:45.342532 58685 net.cpp:137] Memory required for data: 2230825080
I0528 22:35:45.342545 58685 layer_factory.hpp:77] Creating layer layer_512_2_bn2
I0528 22:35:45.342568 58685 net.cpp:84] Creating Layer layer_512_2_bn2
I0528 22:35:45.342574 58685 net.cpp:406] layer_512_2_bn2 <- layer_512_2_conv1
I0528 22:35:45.342582 58685 net.cpp:367] layer_512_2_bn2 -> layer_512_2_conv1 (in-place)
I0528 22:35:45.342917 58685 net.cpp:122] Setting up layer_512_2_bn2
I0528 22:35:45.342928 58685 net.cpp:129] Top shape: 10 512 7 7 (250880)
I0528 22:35:45.342932 58685 net.cpp:137] Memory required for data: 2231828600
I0528 22:35:45.342939 58685 layer_factory.hpp:77] Creating layer layer_512_2_scale2
I0528 22:35:45.342952 58685 net.cpp:84] Creating Layer layer_512_2_scale2
I0528 22:35:45.342955 58685 net.cpp:406] layer_512_2_scale2 <- layer_512_2_conv1
I0528 22:35:45.342962 58685 net.cpp:367] layer_512_2_scale2 -> layer_512_2_conv1 (in-place)
I0528 22:35:45.343021 58685 layer_factory.hpp:77] Creating layer layer_512_2_scale2
I0528 22:35:45.343179 58685 net.cpp:122] Setting up layer_512_2_scale2
I0528 22:35:45.343189 58685 net.cpp:129] Top shape: 10 512 7 7 (250880)
I0528 22:35:45.343191 58685 net.cpp:137] Memory required for data: 2232832120
I0528 22:35:45.343197 58685 layer_factory.hpp:77] Creating layer layer_512_2_relu2
I0528 22:35:45.343204 58685 net.cpp:84] Creating Layer layer_512_2_relu2
I0528 22:35:45.343207 58685 net.cpp:406] layer_512_2_relu2 <- layer_512_2_conv1
I0528 22:35:45.343211 58685 net.cpp:367] layer_512_2_relu2 -> layer_512_2_conv1 (in-place)
I0528 22:35:45.343911 58685 net.cpp:122] Setting up layer_512_2_relu2
I0528 22:35:45.343930 58685 net.cpp:129] Top shape: 10 512 7 7 (250880)
I0528 22:35:45.343935 58685 net.cpp:137] Memory required for data: 2233835640
I0528 22:35:45.343938 58685 layer_factory.hpp:77] Creating layer layer_512_2_conv2
I0528 22:35:45.343950 58685 net.cpp:84] Creating Layer layer_512_2_conv2
I0528 22:35:45.343955 58685 net.cpp:406] layer_512_2_conv2 <- layer_512_2_conv1
I0528 22:35:45.343961 58685 net.cpp:380] layer_512_2_conv2 -> layer_512_2_conv2
I0528 22:35:45.418133 58685 net.cpp:122] Setting up layer_512_2_conv2
I0528 22:35:45.418162 58685 net.cpp:129] Top shape: 10 512 7 7 (250880)
I0528 22:35:45.418167 58685 net.cpp:137] Memory required for data: 2234839160
I0528 22:35:45.418174 58685 layer_factory.hpp:77] Creating layer layer_512_2_bn3
I0528 22:35:45.418182 58685 net.cpp:84] Creating Layer layer_512_2_bn3
I0528 22:35:45.418187 58685 net.cpp:406] layer_512_2_bn3 <- layer_512_2_conv2
I0528 22:35:45.418195 58685 net.cpp:367] layer_512_2_bn3 -> layer_512_2_conv2 (in-place)
I0528 22:35:45.418468 58685 net.cpp:122] Setting up layer_512_2_bn3
I0528 22:35:45.418476 58685 net.cpp:129] Top shape: 10 512 7 7 (250880)
I0528 22:35:45.418479 58685 net.cpp:137] Memory required for data: 2235842680
I0528 22:35:45.418488 58685 layer_factory.hpp:77] Creating layer layer_512_2_scale3
I0528 22:35:45.418496 58685 net.cpp:84] Creating Layer layer_512_2_scale3
I0528 22:35:45.418500 58685 net.cpp:406] layer_512_2_scale3 <- layer_512_2_conv2
I0528 22:35:45.418506 58685 net.cpp:367] layer_512_2_scale3 -> layer_512_2_conv2 (in-place)
I0528 22:35:45.418576 58685 layer_factory.hpp:77] Creating layer layer_512_2_scale3
I0528 22:35:45.418740 58685 net.cpp:122] Setting up layer_512_2_scale3
I0528 22:35:45.418750 58685 net.cpp:129] Top shape: 10 512 7 7 (250880)
I0528 22:35:45.418752 58685 net.cpp:137] Memory required for data: 2236846200
I0528 22:35:45.418758 58685 layer_factory.hpp:77] Creating layer layer_512_2_relu3
I0528 22:35:45.418766 58685 net.cpp:84] Creating Layer layer_512_2_relu3
I0528 22:35:45.418769 58685 net.cpp:406] layer_512_2_relu3 <- layer_512_2_conv2
I0528 22:35:45.418773 58685 net.cpp:367] layer_512_2_relu3 -> layer_512_2_conv2 (in-place)
I0528 22:35:45.418993 58685 net.cpp:122] Setting up layer_512_2_relu3
I0528 22:35:45.419003 58685 net.cpp:129] Top shape: 10 512 7 7 (250880)
I0528 22:35:45.419008 58685 net.cpp:137] Memory required for data: 2237849720
I0528 22:35:45.419011 58685 layer_factory.hpp:77] Creating layer layer_512_2_conv3
I0528 22:35:45.419023 58685 net.cpp:84] Creating Layer layer_512_2_conv3
I0528 22:35:45.419042 58685 net.cpp:406] layer_512_2_conv3 <- layer_512_2_conv2
I0528 22:35:45.419051 58685 net.cpp:380] layer_512_2_conv3 -> layer_512_2_conv3
I0528 22:35:45.453137 58685 net.cpp:122] Setting up layer_512_2_conv3
I0528 22:35:45.453155 58685 net.cpp:129] Top shape: 10 2048 7 7 (1003520)
I0528 22:35:45.453160 58685 net.cpp:137] Memory required for data: 2241863800
I0528 22:35:45.453166 58685 layer_factory.hpp:77] Creating layer layer_512_2_sum
I0528 22:35:45.453172 58685 net.cpp:84] Creating Layer layer_512_2_sum
I0528 22:35:45.453177 58685 net.cpp:406] layer_512_2_sum <- layer_512_2_conv3
I0528 22:35:45.453182 58685 net.cpp:406] layer_512_2_sum <- layer_512_1_sum_layer_512_1_sum_0_split_1
I0528 22:35:45.453191 58685 net.cpp:380] layer_512_2_sum -> layer_512_2_sum
I0528 22:35:45.453227 58685 net.cpp:122] Setting up layer_512_2_sum
I0528 22:35:45.453235 58685 net.cpp:129] Top shape: 10 2048 7 7 (1003520)
I0528 22:35:45.453238 58685 net.cpp:137] Memory required for data: 2245877880
I0528 22:35:45.453243 58685 layer_factory.hpp:77] Creating layer layer_512_2_sum_layer_512_2_sum_0_split
I0528 22:35:45.453248 58685 net.cpp:84] Creating Layer layer_512_2_sum_layer_512_2_sum_0_split
I0528 22:35:45.453253 58685 net.cpp:406] layer_512_2_sum_layer_512_2_sum_0_split <- layer_512_2_sum
I0528 22:35:45.453258 58685 net.cpp:380] layer_512_2_sum_layer_512_2_sum_0_split -> layer_512_2_sum_layer_512_2_sum_0_split_0
I0528 22:35:45.453263 58685 net.cpp:380] layer_512_2_sum_layer_512_2_sum_0_split -> layer_512_2_sum_layer_512_2_sum_0_split_1
I0528 22:35:45.453311 58685 net.cpp:122] Setting up layer_512_2_sum_layer_512_2_sum_0_split
I0528 22:35:45.453317 58685 net.cpp:129] Top shape: 10 2048 7 7 (1003520)
I0528 22:35:45.453321 58685 net.cpp:129] Top shape: 10 2048 7 7 (1003520)
I0528 22:35:45.453325 58685 net.cpp:137] Memory required for data: 2253906040
I0528 22:35:45.453327 58685 layer_factory.hpp:77] Creating layer layer_512_3_bn1
I0528 22:35:45.453336 58685 net.cpp:84] Creating Layer layer_512_3_bn1
I0528 22:35:45.453339 58685 net.cpp:406] layer_512_3_bn1 <- layer_512_2_sum_layer_512_2_sum_0_split_0
I0528 22:35:45.453344 58685 net.cpp:380] layer_512_3_bn1 -> layer_512_3_bn1
I0528 22:35:45.453634 58685 net.cpp:122] Setting up layer_512_3_bn1
I0528 22:35:45.453645 58685 net.cpp:129] Top shape: 10 2048 7 7 (1003520)
I0528 22:35:45.453649 58685 net.cpp:137] Memory required for data: 2257920120
I0528 22:35:45.453657 58685 layer_factory.hpp:77] Creating layer layer_512_3_scale1
I0528 22:35:45.453665 58685 net.cpp:84] Creating Layer layer_512_3_scale1
I0528 22:35:45.453668 58685 net.cpp:406] layer_512_3_scale1 <- layer_512_3_bn1
I0528 22:35:45.453673 58685 net.cpp:367] layer_512_3_scale1 -> layer_512_3_bn1 (in-place)
I0528 22:35:45.453739 58685 layer_factory.hpp:77] Creating layer layer_512_3_scale1
I0528 22:35:45.453902 58685 net.cpp:122] Setting up layer_512_3_scale1
I0528 22:35:45.453910 58685 net.cpp:129] Top shape: 10 2048 7 7 (1003520)
I0528 22:35:45.453913 58685 net.cpp:137] Memory required for data: 2261934200
I0528 22:35:45.453918 58685 layer_factory.hpp:77] Creating layer layer_512_3_relu1
I0528 22:35:45.453927 58685 net.cpp:84] Creating Layer layer_512_3_relu1
I0528 22:35:45.453930 58685 net.cpp:406] layer_512_3_relu1 <- layer_512_3_bn1
I0528 22:35:45.453935 58685 net.cpp:367] layer_512_3_relu1 -> layer_512_3_bn1 (in-place)
I0528 22:35:45.454627 58685 net.cpp:122] Setting up layer_512_3_relu1
I0528 22:35:45.454646 58685 net.cpp:129] Top shape: 10 2048 7 7 (1003520)
I0528 22:35:45.454650 58685 net.cpp:137] Memory required for data: 2265948280
I0528 22:35:45.454653 58685 layer_factory.hpp:77] Creating layer layer_512_3_conv1
I0528 22:35:45.454665 58685 net.cpp:84] Creating Layer layer_512_3_conv1
I0528 22:35:45.454669 58685 net.cpp:406] layer_512_3_conv1 <- layer_512_3_bn1
I0528 22:35:45.454677 58685 net.cpp:380] layer_512_3_conv1 -> layer_512_3_conv1
I0528 22:35:45.488294 58685 net.cpp:122] Setting up layer_512_3_conv1
I0528 22:35:45.488314 58685 net.cpp:129] Top shape: 10 512 7 7 (250880)
I0528 22:35:45.488324 58685 net.cpp:137] Memory required for data: 2266951800
I0528 22:35:45.488337 58685 layer_factory.hpp:77] Creating layer layer_512_3_bn2
I0528 22:35:45.488343 58685 net.cpp:84] Creating Layer layer_512_3_bn2
I0528 22:35:45.488348 58685 net.cpp:406] layer_512_3_bn2 <- layer_512_3_conv1
I0528 22:35:45.488355 58685 net.cpp:367] layer_512_3_bn2 -> layer_512_3_conv1 (in-place)
I0528 22:35:45.488631 58685 net.cpp:122] Setting up layer_512_3_bn2
I0528 22:35:45.488643 58685 net.cpp:129] Top shape: 10 512 7 7 (250880)
I0528 22:35:45.488646 58685 net.cpp:137] Memory required for data: 2267955320
I0528 22:35:45.488654 58685 layer_factory.hpp:77] Creating layer layer_512_3_scale2
I0528 22:35:45.488665 58685 net.cpp:84] Creating Layer layer_512_3_scale2
I0528 22:35:45.488669 58685 net.cpp:406] layer_512_3_scale2 <- layer_512_3_conv1
I0528 22:35:45.488674 58685 net.cpp:367] layer_512_3_scale2 -> layer_512_3_conv1 (in-place)
I0528 22:35:45.488735 58685 layer_factory.hpp:77] Creating layer layer_512_3_scale2
I0528 22:35:45.488895 58685 net.cpp:122] Setting up layer_512_3_scale2
I0528 22:35:45.488903 58685 net.cpp:129] Top shape: 10 512 7 7 (250880)
I0528 22:35:45.488906 58685 net.cpp:137] Memory required for data: 2268958840
I0528 22:35:45.488912 58685 layer_factory.hpp:77] Creating layer layer_512_3_relu2
I0528 22:35:45.488919 58685 net.cpp:84] Creating Layer layer_512_3_relu2
I0528 22:35:45.488922 58685 net.cpp:406] layer_512_3_relu2 <- layer_512_3_conv1
I0528 22:35:45.488927 58685 net.cpp:367] layer_512_3_relu2 -> layer_512_3_conv1 (in-place)
I0528 22:35:45.489619 58685 net.cpp:122] Setting up layer_512_3_relu2
I0528 22:35:45.489637 58685 net.cpp:129] Top shape: 10 512 7 7 (250880)
I0528 22:35:45.489641 58685 net.cpp:137] Memory required for data: 2269962360
I0528 22:35:45.489645 58685 layer_factory.hpp:77] Creating layer layer_512_3_conv2
I0528 22:35:45.489655 58685 net.cpp:84] Creating Layer layer_512_3_conv2
I0528 22:35:45.489660 58685 net.cpp:406] layer_512_3_conv2 <- layer_512_3_conv1
I0528 22:35:45.489666 58685 net.cpp:380] layer_512_3_conv2 -> layer_512_3_conv2
I0528 22:35:45.564297 58685 net.cpp:122] Setting up layer_512_3_conv2
I0528 22:35:45.564324 58685 net.cpp:129] Top shape: 10 512 7 7 (250880)
I0528 22:35:45.564329 58685 net.cpp:137] Memory required for data: 2270965880
I0528 22:35:45.564335 58685 layer_factory.hpp:77] Creating layer layer_512_3_bn3
I0528 22:35:45.564344 58685 net.cpp:84] Creating Layer layer_512_3_bn3
I0528 22:35:45.564349 58685 net.cpp:406] layer_512_3_bn3 <- layer_512_3_conv2
I0528 22:35:45.564357 58685 net.cpp:367] layer_512_3_bn3 -> layer_512_3_conv2 (in-place)
I0528 22:35:45.564644 58685 net.cpp:122] Setting up layer_512_3_bn3
I0528 22:35:45.564656 58685 net.cpp:129] Top shape: 10 512 7 7 (250880)
I0528 22:35:45.564659 58685 net.cpp:137] Memory required for data: 2271969400
I0528 22:35:45.564666 58685 layer_factory.hpp:77] Creating layer layer_512_3_scale3
I0528 22:35:45.564674 58685 net.cpp:84] Creating Layer layer_512_3_scale3
I0528 22:35:45.564678 58685 net.cpp:406] layer_512_3_scale3 <- layer_512_3_conv2
I0528 22:35:45.564683 58685 net.cpp:367] layer_512_3_scale3 -> layer_512_3_conv2 (in-place)
I0528 22:35:45.564749 58685 layer_factory.hpp:77] Creating layer layer_512_3_scale3
I0528 22:35:45.564909 58685 net.cpp:122] Setting up layer_512_3_scale3
I0528 22:35:45.564918 58685 net.cpp:129] Top shape: 10 512 7 7 (250880)
I0528 22:35:45.564920 58685 net.cpp:137] Memory required for data: 2272972920
I0528 22:35:45.564926 58685 layer_factory.hpp:77] Creating layer layer_512_3_relu3
I0528 22:35:45.564934 58685 net.cpp:84] Creating Layer layer_512_3_relu3
I0528 22:35:45.564937 58685 net.cpp:406] layer_512_3_relu3 <- layer_512_3_conv2
I0528 22:35:45.564944 58685 net.cpp:367] layer_512_3_relu3 -> layer_512_3_conv2 (in-place)
I0528 22:35:45.565170 58685 net.cpp:122] Setting up layer_512_3_relu3
I0528 22:35:45.565181 58685 net.cpp:129] Top shape: 10 512 7 7 (250880)
I0528 22:35:45.565183 58685 net.cpp:137] Memory required for data: 2273976440
I0528 22:35:45.565187 58685 layer_factory.hpp:77] Creating layer layer_512_3_conv3
I0528 22:35:45.565213 58685 net.cpp:84] Creating Layer layer_512_3_conv3
I0528 22:35:45.565218 58685 net.cpp:406] layer_512_3_conv3 <- layer_512_3_conv2
I0528 22:35:45.565227 58685 net.cpp:380] layer_512_3_conv3 -> layer_512_3_conv3
I0528 22:35:45.599390 58685 net.cpp:122] Setting up layer_512_3_conv3
I0528 22:35:45.599408 58685 net.cpp:129] Top shape: 10 2048 7 7 (1003520)
I0528 22:35:45.599412 58685 net.cpp:137] Memory required for data: 2277990520
I0528 22:35:45.599417 58685 layer_factory.hpp:77] Creating layer layer_512_3_sum
I0528 22:35:45.599426 58685 net.cpp:84] Creating Layer layer_512_3_sum
I0528 22:35:45.599431 58685 net.cpp:406] layer_512_3_sum <- layer_512_3_conv3
I0528 22:35:45.599436 58685 net.cpp:406] layer_512_3_sum <- layer_512_2_sum_layer_512_2_sum_0_split_1
I0528 22:35:45.599441 58685 net.cpp:380] layer_512_3_sum -> layer_512_3_sum
I0528 22:35:45.599475 58685 net.cpp:122] Setting up layer_512_3_sum
I0528 22:35:45.599484 58685 net.cpp:129] Top shape: 10 2048 7 7 (1003520)
I0528 22:35:45.599488 58685 net.cpp:137] Memory required for data: 2282004600
I0528 22:35:45.599490 58685 layer_factory.hpp:77] Creating layer last_bn
I0528 22:35:45.599496 58685 net.cpp:84] Creating Layer last_bn
I0528 22:35:45.599500 58685 net.cpp:406] last_bn <- layer_512_3_sum
I0528 22:35:45.599506 58685 net.cpp:367] last_bn -> layer_512_3_sum (in-place)
I0528 22:35:45.599776 58685 net.cpp:122] Setting up last_bn
I0528 22:35:45.599788 58685 net.cpp:129] Top shape: 10 2048 7 7 (1003520)
I0528 22:35:45.599792 58685 net.cpp:137] Memory required for data: 2286018680
I0528 22:35:45.599799 58685 layer_factory.hpp:77] Creating layer last_scale
I0528 22:35:45.599807 58685 net.cpp:84] Creating Layer last_scale
I0528 22:35:45.599810 58685 net.cpp:406] last_scale <- layer_512_3_sum
I0528 22:35:45.599815 58685 net.cpp:367] last_scale -> layer_512_3_sum (in-place)
I0528 22:35:45.599876 58685 layer_factory.hpp:77] Creating layer last_scale
I0528 22:35:45.600036 58685 net.cpp:122] Setting up last_scale
I0528 22:35:45.600044 58685 net.cpp:129] Top shape: 10 2048 7 7 (1003520)
I0528 22:35:45.600046 58685 net.cpp:137] Memory required for data: 2290032760
I0528 22:35:45.600052 58685 layer_factory.hpp:77] Creating layer last_relu
I0528 22:35:45.600057 58685 net.cpp:84] Creating Layer last_relu
I0528 22:35:45.600061 58685 net.cpp:406] last_relu <- layer_512_3_sum
I0528 22:35:45.600065 58685 net.cpp:367] last_relu -> layer_512_3_sum (in-place)
I0528 22:35:45.600721 58685 net.cpp:122] Setting up last_relu
I0528 22:35:45.600739 58685 net.cpp:129] Top shape: 10 2048 7 7 (1003520)
I0528 22:35:45.600742 58685 net.cpp:137] Memory required for data: 2294046840
I0528 22:35:45.600745 58685 layer_factory.hpp:77] Creating layer global_pool
I0528 22:35:45.600752 58685 net.cpp:84] Creating Layer global_pool
I0528 22:35:45.600756 58685 net.cpp:406] global_pool <- layer_512_3_sum
I0528 22:35:45.600764 58685 net.cpp:380] global_pool -> global_pool
I0528 22:35:45.600989 58685 net.cpp:122] Setting up global_pool
I0528 22:35:45.601001 58685 net.cpp:129] Top shape: 10 2048 1 1 (20480)
I0528 22:35:45.601003 58685 net.cpp:137] Memory required for data: 2294128760
I0528 22:35:45.601006 58685 layer_factory.hpp:77] Creating layer score
I0528 22:35:45.601014 58685 net.cpp:84] Creating Layer score
I0528 22:35:45.601018 58685 net.cpp:406] score <- global_pool
I0528 22:35:45.601025 58685 net.cpp:380] score -> score
I0528 22:35:45.601184 58685 net.cpp:122] Setting up score
I0528 22:35:45.601192 58685 net.cpp:129] Top shape: 10 8 (80)
I0528 22:35:45.601196 58685 net.cpp:137] Memory required for data: 2294129080
I0528 22:35:45.601202 58685 layer_factory.hpp:77] Creating layer score_score_0_split
I0528 22:35:45.601207 58685 net.cpp:84] Creating Layer score_score_0_split
I0528 22:35:45.601212 58685 net.cpp:406] score_score_0_split <- score
I0528 22:35:45.601217 58685 net.cpp:380] score_score_0_split -> score_score_0_split_0
I0528 22:35:45.601224 58685 net.cpp:380] score_score_0_split -> score_score_0_split_1
I0528 22:35:45.601277 58685 net.cpp:122] Setting up score_score_0_split
I0528 22:35:45.601292 58685 net.cpp:129] Top shape: 10 8 (80)
I0528 22:35:45.601296 58685 net.cpp:129] Top shape: 10 8 (80)
I0528 22:35:45.601300 58685 net.cpp:137] Memory required for data: 2294129720
I0528 22:35:45.601302 58685 layer_factory.hpp:77] Creating layer loss
I0528 22:35:45.601310 58685 net.cpp:84] Creating Layer loss
I0528 22:35:45.601313 58685 net.cpp:406] loss <- score_score_0_split_0
I0528 22:35:45.601317 58685 net.cpp:406] loss <- label_data_1_split_0
I0528 22:35:45.601322 58685 net.cpp:380] loss -> loss
…
