…
I0520 22:14:59.624471 20598 net.cpp:51] Initializing net from parameters: 
name: "CaffeNet"
state {
  phase: TRAIN
  level: 0
  stage: ""
}
layer {
  name: "data"
  type: "Data"
  top: "data"
  top: "label"
  include {
    phase: TRAIN
  }
  transform_param {
    mirror: true
    crop_size: 227
    mean_file: "/home/k/PycharmProjects/AgeGenderDeepLearning-master/Folds/lmdb/Test_fold_is_0/mean.binaryproto"
  }
  data_param {
    source: "/home/k/PycharmProjects/AgeGenderDeepLearning-master/Folds/lmdb/Test_fold_is_0/age_train_lmdb"
    batch_size: 50
    backend: LMDB
  }
}
layer {
  name: "conv1"
  type: "Convolution"
  bottom: "data"
  top: "conv1"
  param {
    lr_mult: 1
    decay_mult: 1
  }
  param {
    lr_mult: 2
    decay_mult: 0
  }
  convolution_param {
    num_output: 96
    kernel_size: 7
    stride: 4
    weight_filler {
      type: "gaussian"
      std: 0.01
    }
    bias_filler {
      type: "constant"
      value: 0
    }
  }
}
layer {
  name: "relu1"
  type: "ReLU"
  bottom: "conv1"
  top: "conv1"
}
layer {
  name: "pool1"
  type: "Pooling"
  bottom: "conv1"
  top: "pool1"
  pooling_param {
    pool: MAX
    kernel_size: 3
    stride: 2
  }
}
layer {
  name: "norm1"
  type: "LRN"
  bottom: "pool1"
  top: "norm1"
  lrn_param {
    local_size: 5
    alpha: 0.0001
    beta: 0.75
  }
}
layer {
  name: "conv2"
  type: "Convolution"
  bottom: "norm1"
  top: "conv2"
  param {
    lr_mult: 1
    decay_mult: 1
  }
  param {
    lr_mult: 2
    decay_mult: 0
  }
  convolution_param {
    num_output: 256
    pad: 2
    kernel_size: 5
    weight_filler {
      type: "gaussian"
      std: 0.01
    }
    bias_filler {
      type: "constant"
      value: 1
    }
  }
}
layer {
  name: "relu2"
  type: "ReLU"
  bottom: "conv2"
  top: "conv2"
}
layer {
  name: "pool2"
  type: "Pooling"
  bottom: "conv2"
  top: "pool2"
  pooling_param {
    pool: MAX
    kernel_size: 3
    stride: 2
  }
}
layer {
  name: "norm2"
  type: "LRN"
  bottom: "pool2"
  top: "norm2"
  lrn_param {
    local_size: 5
    alpha: 0.0001
    beta: 0.75
  }
}
layer {
  name: "conv3"
  type: "Convolution"
  bottom: "norm2"
  top: "conv3"
  param {
    lr_mult: 1
    decay_mult: 1
  }
  param {
    lr_mult: 2
    decay_mult: 0
  }
  convolution_param {
    num_output: 384
    pad: 1
    kernel_size: 3
    weight_filler {
      type: "gaussian"
      std: 0.01
    }
    bias_filler {
      type: "constant"
      value: 0
    }
  }
}
layer {
  name: "relu3"
  type: "ReLU"
  bottom: "conv3"
  top: "conv3"
}
layer {
  name: "pool5"
  type: "Pooling"
  bottom: "conv3"
  top: "pool5"
  pooling_param {
    pool: MAX
    kernel_size: 3
    stride: 2
  }
}
layer {
  name: "fc6"
  type: "InnerProduct"
  bottom: "pool5"
  top: "fc6"
  param {
    lr_mult: 1
    decay_mult: 1
  }
  param {
    lr_mult: 2
    decay_mult: 0
  }
  inner_product_param {
    num_output: 512
    weight_filler {
      type: "gaussian"
      std: 0.005
    }
    bias_filler {
      type: "constant"
      value: 1
    }
  }
}
layer {
  name: "relu6"
  type: "ReLU"
  bottom: "fc6"
  top: "fc6"
}
layer {
  name: "drop6"
  type: "Dropout"
  bottom: "fc6"
  top: "fc6"
  dropout_param {
    dropout_ratio: 0.5
  }
}
layer {
  name: "fc7"
  type: "InnerProduct"
  bottom: "fc6"
  top: "fc7"
  param {
    lr_mult: 1
    decay_mult: 1
  }
  param {
    lr_mult: 2
    decay_mult: 0
  }
  inner_product_param {
    num_output: 512
    weight_filler {
      type: "gaussian"
      std: 0.005
    }
    bias_filler {
      type: "constant"
      value: 1
    }
  }
}
layer {
  name: "relu7"
  type: "ReLU"
  bottom: "fc7"
  top: "fc7"
}
layer {
  name: "drop7"
  type: "Dropout"
  bottom: "fc7"
  top: "fc7"
  dropout_param {
    dropout_ratio: 0.5
  }
}
layer {
  name: "fc8"
  type: "InnerProduct"
  bottom: "fc7"
  top: "fc8"
  param {
    lr_mult: 10
    decay_mult: 1
  }
  param {
    lr_mult: 20
    decay_mult: 0
  }
  inner_product_param {
    num_output: 8
    weight_filler {
      type: "gaussian"
      std: 0.01
    }
    bias_filler {
      type: "constant"
      value: 0
    }
  }
}
layer {
  name: "loss"
  type: "SoftmaxWithLoss"
  bottom: "fc8"
  bottom: "label"
  top: "loss"
}
I0520 22:14:59.624579 20598 layer_factory.hpp:77] Creating layer data
I0520 22:14:59.624711 20598 db_lmdb.cpp:35] Opened lmdb /home/k/PycharmProjects/AgeGenderDeepLearning-master/Folds/lmdb/Test_fold_is_0/age_train_lmdb
I0520 22:14:59.624754 20598 net.cpp:84] Creating Layer data
I0520 22:14:59.624763 20598 net.cpp:380] data -> data
I0520 22:14:59.624780 20598 net.cpp:380] data -> label
I0520 22:14:59.624804 20598 data_transformer.cpp:25] Loading mean file from: /home/k/PycharmProjects/AgeGenderDeepLearning-master/Folds/lmdb/Test_fold_is_0/mean.binaryproto
I0520 22:14:59.627792 20598 data_layer.cpp:45] output data size: 50,3,227,227
I0520 22:14:59.692088 20598 net.cpp:122] Setting up data
I0520 22:14:59.692129 20598 net.cpp:129] Top shape: 50 3 227 227 (7729350)
I0520 22:14:59.692136 20598 net.cpp:129] Top shape: 50 (50)
I0520 22:14:59.692138 20598 net.cpp:137] Memory required for data: 30917600
I0520 22:14:59.692148 20598 layer_factory.hpp:77] Creating layer conv1
I0520 22:14:59.692173 20598 net.cpp:84] Creating Layer conv1
I0520 22:14:59.692186 20598 net.cpp:406] conv1 <- data
I0520 22:14:59.692206 20598 net.cpp:380] conv1 -> conv1
I0520 22:14:59.938396 20598 net.cpp:122] Setting up conv1
I0520 22:14:59.938428 20598 net.cpp:129] Top shape: 50 96 56 56 (15052800)
I0520 22:14:59.938432 20598 net.cpp:137] Memory required for data: 91128800
I0520 22:14:59.938454 20598 layer_factory.hpp:77] Creating layer relu1
I0520 22:14:59.938478 20598 net.cpp:84] Creating Layer relu1
I0520 22:14:59.938483 20598 net.cpp:406] relu1 <- conv1
I0520 22:14:59.938490 20598 net.cpp:367] relu1 -> conv1 (in-place)
I0520 22:14:59.938666 20598 net.cpp:122] Setting up relu1
I0520 22:14:59.938678 20598 net.cpp:129] Top shape: 50 96 56 56 (15052800)
I0520 22:14:59.938680 20598 net.cpp:137] Memory required for data: 151340000
I0520 22:14:59.938684 20598 layer_factory.hpp:77] Creating layer pool1
I0520 22:14:59.938690 20598 net.cpp:84] Creating Layer pool1
I0520 22:14:59.938694 20598 net.cpp:406] pool1 <- conv1
I0520 22:14:59.938699 20598 net.cpp:380] pool1 -> pool1
I0520 22:14:59.938766 20598 net.cpp:122] Setting up pool1
I0520 22:14:59.938787 20598 net.cpp:129] Top shape: 50 96 28 28 (3763200)
I0520 22:14:59.938791 20598 net.cpp:137] Memory required for data: 166392800
I0520 22:14:59.938794 20598 layer_factory.hpp:77] Creating layer norm1
I0520 22:14:59.938803 20598 net.cpp:84] Creating Layer norm1
I0520 22:14:59.938807 20598 net.cpp:406] norm1 <- pool1
I0520 22:14:59.938812 20598 net.cpp:380] norm1 -> norm1
I0520 22:14:59.939472 20598 net.cpp:122] Setting up norm1
I0520 22:14:59.939484 20598 net.cpp:129] Top shape: 50 96 28 28 (3763200)
I0520 22:14:59.939487 20598 net.cpp:137] Memory required for data: 181445600
I0520 22:14:59.939491 20598 layer_factory.hpp:77] Creating layer conv2
I0520 22:14:59.939502 20598 net.cpp:84] Creating Layer conv2
I0520 22:14:59.939505 20598 net.cpp:406] conv2 <- norm1
I0520 22:14:59.939538 20598 net.cpp:380] conv2 -> conv2
I0520 22:14:59.948094 20598 net.cpp:122] Setting up conv2
I0520 22:14:59.948112 20598 net.cpp:129] Top shape: 50 256 28 28 (10035200)
I0520 22:14:59.948115 20598 net.cpp:137] Memory required for data: 221586400
I0520 22:14:59.948124 20598 layer_factory.hpp:77] Creating layer relu2
I0520 22:14:59.948130 20598 net.cpp:84] Creating Layer relu2
I0520 22:14:59.948133 20598 net.cpp:406] relu2 <- conv2
I0520 22:14:59.948138 20598 net.cpp:367] relu2 -> conv2 (in-place)
I0520 22:14:59.948328 20598 net.cpp:122] Setting up relu2
I0520 22:14:59.948338 20598 net.cpp:129] Top shape: 50 256 28 28 (10035200)
I0520 22:14:59.948341 20598 net.cpp:137] Memory required for data: 261727200
I0520 22:14:59.948344 20598 layer_factory.hpp:77] Creating layer pool2
I0520 22:14:59.948351 20598 net.cpp:84] Creating Layer pool2
I0520 22:14:59.948355 20598 net.cpp:406] pool2 <- conv2
I0520 22:14:59.948360 20598 net.cpp:380] pool2 -> pool2
I0520 22:14:59.948415 20598 net.cpp:122] Setting up pool2
I0520 22:14:59.948429 20598 net.cpp:129] Top shape: 50 256 14 14 (2508800)
I0520 22:14:59.948446 20598 net.cpp:137] Memory required for data: 271762400
I0520 22:14:59.948448 20598 layer_factory.hpp:77] Creating layer norm2
I0520 22:14:59.948457 20598 net.cpp:84] Creating Layer norm2
I0520 22:14:59.948460 20598 net.cpp:406] norm2 <- pool2
I0520 22:14:59.948465 20598 net.cpp:380] norm2 -> norm2
I0520 22:14:59.948643 20598 net.cpp:122] Setting up norm2
I0520 22:14:59.948654 20598 net.cpp:129] Top shape: 50 256 14 14 (2508800)
I0520 22:14:59.948657 20598 net.cpp:137] Memory required for data: 281797600
I0520 22:14:59.948660 20598 layer_factory.hpp:77] Creating layer conv3
I0520 22:14:59.948683 20598 net.cpp:84] Creating Layer conv3
I0520 22:14:59.948686 20598 net.cpp:406] conv3 <- norm2
I0520 22:14:59.948698 20598 net.cpp:380] conv3 -> conv3
I0520 22:14:59.960557 20598 net.cpp:122] Setting up conv3
I0520 22:14:59.960584 20598 net.cpp:129] Top shape: 50 384 14 14 (3763200)
I0520 22:14:59.960588 20598 net.cpp:137] Memory required for data: 296850400
I0520 22:14:59.960613 20598 layer_factory.hpp:77] Creating layer relu3
I0520 22:14:59.960625 20598 net.cpp:84] Creating Layer relu3
I0520 22:14:59.960633 20598 net.cpp:406] relu3 <- conv3
I0520 22:14:59.960644 20598 net.cpp:367] relu3 -> conv3 (in-place)
I0520 22:14:59.960834 20598 net.cpp:122] Setting up relu3
I0520 22:14:59.960844 20598 net.cpp:129] Top shape: 50 384 14 14 (3763200)
I0520 22:14:59.960847 20598 net.cpp:137] Memory required for data: 311903200
I0520 22:14:59.960850 20598 layer_factory.hpp:77] Creating layer pool5
I0520 22:14:59.960858 20598 net.cpp:84] Creating Layer pool5
I0520 22:14:59.960861 20598 net.cpp:406] pool5 <- conv3
I0520 22:14:59.960867 20598 net.cpp:380] pool5 -> pool5
I0520 22:14:59.960950 20598 net.cpp:122] Setting up pool5
I0520 22:14:59.960960 20598 net.cpp:129] Top shape: 50 384 7 7 (940800)
I0520 22:14:59.960963 20598 net.cpp:137] Memory required for data: 315666400
I0520 22:14:59.960966 20598 layer_factory.hpp:77] Creating layer fc6
I0520 22:14:59.960973 20598 net.cpp:84] Creating Layer fc6
I0520 22:14:59.960976 20598 net.cpp:406] fc6 <- pool5
I0520 22:14:59.960984 20598 net.cpp:380] fc6 -> fc6
I0520 22:15:00.065517 20598 net.cpp:122] Setting up fc6
I0520 22:15:00.065556 20598 net.cpp:129] Top shape: 50 512 (25600)
I0520 22:15:00.065560 20598 net.cpp:137] Memory required for data: 315768800
I0520 22:15:00.065572 20598 layer_factory.hpp:77] Creating layer relu6
I0520 22:15:00.065582 20598 net.cpp:84] Creating Layer relu6
I0520 22:15:00.065587 20598 net.cpp:406] relu6 <- fc6
I0520 22:15:00.065604 20598 net.cpp:367] relu6 -> fc6 (in-place)
I0520 22:15:00.066431 20598 net.cpp:122] Setting up relu6
I0520 22:15:00.066442 20598 net.cpp:129] Top shape: 50 512 (25600)
I0520 22:15:00.066444 20598 net.cpp:137] Memory required for data: 315871200
I0520 22:15:00.066448 20598 layer_factory.hpp:77] Creating layer drop6
I0520 22:15:00.066454 20598 net.cpp:84] Creating Layer drop6
I0520 22:15:00.066457 20598 net.cpp:406] drop6 <- fc6
I0520 22:15:00.066493 20598 net.cpp:367] drop6 -> fc6 (in-place)
I0520 22:15:00.066534 20598 net.cpp:122] Setting up drop6
I0520 22:15:00.066555 20598 net.cpp:129] Top shape: 50 512 (25600)
I0520 22:15:00.066558 20598 net.cpp:137] Memory required for data: 315973600
I0520 22:15:00.066561 20598 layer_factory.hpp:77] Creating layer fc7
I0520 22:15:00.066570 20598 net.cpp:84] Creating Layer fc7
I0520 22:15:00.066575 20598 net.cpp:406] fc7 <- fc6
I0520 22:15:00.066581 20598 net.cpp:380] fc7 -> fc7
I0520 22:15:00.069304 20598 net.cpp:122] Setting up fc7
I0520 22:15:00.069314 20598 net.cpp:129] Top shape: 50 512 (25600)
I0520 22:15:00.069317 20598 net.cpp:137] Memory required for data: 316076000
I0520 22:15:00.069329 20598 layer_factory.hpp:77] Creating layer relu7
I0520 22:15:00.069337 20598 net.cpp:84] Creating Layer relu7
I0520 22:15:00.069340 20598 net.cpp:406] relu7 <- fc7
I0520 22:15:00.069345 20598 net.cpp:367] relu7 -> fc7 (in-place)
I0520 22:15:00.069525 20598 net.cpp:122] Setting up relu7
I0520 22:15:00.069535 20598 net.cpp:129] Top shape: 50 512 (25600)
I0520 22:15:00.069537 20598 net.cpp:137] Memory required for data: 316178400
I0520 22:15:00.069540 20598 layer_factory.hpp:77] Creating layer drop7
I0520 22:15:00.069545 20598 net.cpp:84] Creating Layer drop7
I0520 22:15:00.069548 20598 net.cpp:406] drop7 <- fc7
I0520 22:15:00.069555 20598 net.cpp:367] drop7 -> fc7 (in-place)
I0520 22:15:00.069591 20598 net.cpp:122] Setting up drop7
I0520 22:15:00.069602 20598 net.cpp:129] Top shape: 50 512 (25600)
I0520 22:15:00.069607 20598 net.cpp:137] Memory required for data: 316280800
I0520 22:15:00.069614 20598 layer_factory.hpp:77] Creating layer fc8
I0520 22:15:00.069636 20598 net.cpp:84] Creating Layer fc8
I0520 22:15:00.069640 20598 net.cpp:406] fc8 <- fc7
I0520 22:15:00.069648 20598 net.cpp:380] fc8 -> fc8
I0520 22:15:00.069802 20598 net.cpp:122] Setting up fc8
I0520 22:15:00.069811 20598 net.cpp:129] Top shape: 50 8 (400)
I0520 22:15:00.069814 20598 net.cpp:137] Memory required for data: 316282400
I0520 22:15:00.069819 20598 layer_factory.hpp:77] Creating layer loss
I0520 22:15:00.069825 20598 net.cpp:84] Creating Layer loss
I0520 22:15:00.069828 20598 net.cpp:406] loss <- fc8
I0520 22:15:00.069833 20598 net.cpp:406] loss <- label
I0520 22:15:00.069839 20598 net.cpp:380] loss -> loss
I0520 22:15:00.069860 20598 layer_factory.hpp:77] Creating layer loss
…
I0520 22:15:00.070670 20598 net.cpp:294] The NetState phase (1) differed from the phase (0) specified by a rule in layer data
I0520 22:15:00.070845 20598 net.cpp:51] Initializing net from parameters: 
name: "CaffeNet"
state {
  phase: TEST
}
layer {
  name: "data"
  type: "Data"
  top: "data"
  top: "label"
  include {
    phase: TEST
  }
  transform_param {
    mirror: false
    crop_size: 227
    mean_file: "/home/k/PycharmProjects/AgeGenderDeepLearning-master/Folds/lmdb/Test_fold_is_0/mean.binaryproto"
  }
  data_param {
    source: "/home/k/PycharmProjects/AgeGenderDeepLearning-master/Folds/lmdb/Test_fold_is_0/age_val_lmdb"
    batch_size: 50
    backend: LMDB
  }
}
layer {
  name: "conv1"
  type: "Convolution"
  bottom: "data"
  top: "conv1"
  param {
    lr_mult: 1
    decay_mult: 1
  }
  param {
    lr_mult: 2
    decay_mult: 0
  }
  convolution_param {
    num_output: 96
    kernel_size: 7
    stride: 4
    weight_filler {
      type: "gaussian"
      std: 0.01
    }
    bias_filler {
      type: "constant"
      value: 0
    }
  }
}
layer {
  name: "relu1"
  type: "ReLU"
  bottom: "conv1"
  top: "conv1"
}
layer {
  name: "pool1"
  type: "Pooling"
  bottom: "conv1"
  top: "pool1"
  pooling_param {
    pool: MAX
    kernel_size: 3
    stride: 2
  }
}
layer {
  name: "norm1"
  type: "LRN"
  bottom: "pool1"
  top: "norm1"
  lrn_param {
    local_size: 5
    alpha: 0.0001
    beta: 0.75
  }
}
layer {
  name: "conv2"
  type: "Convolution"
  bottom: "norm1"
  top: "conv2"
  param {
    lr_mult: 1
    decay_mult: 1
  }
  param {
    lr_mult: 2
    decay_mult: 0
  }
  convolution_param {
    num_output: 256
    pad: 2
    kernel_size: 5
    weight_filler {
      type: "gaussian"
      std: 0.01
    }
    bias_filler {
      type: "constant"
      value: 1
    }
  }
}
layer {
  name: "relu2"
  type: "ReLU"
  bottom: "conv2"
  top: "conv2"
}
layer {
  name: "pool2"
  type: "Pooling"
  bottom: "conv2"
  top: "pool2"
  pooling_param {
    pool: MAX
    kernel_size: 3
    stride: 2
  }
}
layer {
  name: "norm2"
  type: "LRN"
  bottom: "pool2"
  top: "norm2"
  lrn_param {
    local_size: 5
    alpha: 0.0001
    beta: 0.75
  }
}
layer {
  name: "conv3"
  type: "Convolution"
  bottom: "norm2"
  top: "conv3"
  param {
    lr_mult: 1
    decay_mult: 1
  }
  param {
    lr_mult: 2
    decay_mult: 0
  }
  convolution_param {
    num_output: 384
    pad: 1
    kernel_size: 3
    weight_filler {
      type: "gaussian"
      std: 0.01
    }
    bias_filler {
      type: "constant"
      value: 0
    }
  }
}
layer {
  name: "relu3"
  type: "ReLU"
  bottom: "conv3"
  top: "conv3"
}
layer {
  name: "pool5"
  type: "Pooling"
  bottom: "conv3"
  top: "pool5"
  pooling_param {
    pool: MAX
    kernel_size: 3
    stride: 2
  }
}
layer {
  name: "fc6"
  type: "InnerProduct"
  bottom: "pool5"
  top: "fc6"
  param {
    lr_mult: 1
    decay_mult: 1
  }
  param {
    lr_mult: 2
    decay_mult: 0
  }
  inner_product_param {
    num_output: 512
    weight_filler {
      type: "gaussian"
      std: 0.005
    }
    bias_filler {
      type: "constant"
      value: 1
    }
  }
}
layer {
  name: "relu6"
  type: "ReLU"
  bottom: "fc6"
  top: "fc6"
}
layer {
  name: "drop6"
  type: "Dropout"
  bottom: "fc6"
  top: "fc6"
  dropout_param {
    dropout_ratio: 0.5
  }
}
layer {
  name: "fc7"
  type: "InnerProduct"
  bottom: "fc6"
  top: "fc7"
  param {
    lr_mult: 1
    decay_mult: 1
  }
  param {
    lr_mult: 2
    decay_mult: 0
  }
  inner_product_param {
    num_output: 512
    weight_filler {
      type: "gaussian"
      std: 0.005
    }
    bias_filler {
      type: "constant"
      value: 1
    }
  }
}
layer {
  name: "relu7"
  type: "ReLU"
  bottom: "fc7"
  top: "fc7"
}
layer {
  name: "drop7"
  type: "Dropout"
  bottom: "fc7"
  top: "fc7"
  dropout_param {
    dropout_ratio: 0.5
  }
}
layer {
  name: "fc8"
  type: "InnerProduct"
  bottom: "fc7"
  top: "fc8"
  param {
    lr_mult: 10
    decay_mult: 1
  }
  param {
    lr_mult: 20
    decay_mult: 0
  }
  inner_product_param {
    num_output: 8
    weight_filler {
      type: "gaussian"
      std: 0.01
    }
    bias_filler {
      type: "constant"
      value: 0
    }
  }
}
layer {
  name: "accuracy"
  type: "Accuracy"
  bottom: "fc8"
  bottom: "label"
  top: "accuracy"
  include {
    phase: TEST
  }
}
layer {
  name: "loss"
  type: "SoftmaxWithLoss"
  bottom: "fc8"
  bottom: "label"
  top: "loss"
}
I0520 22:15:00.070968 20598 layer_factory.hpp:77] Creating layer data
I0520 22:15:00.071045 20598 db_lmdb.cpp:35] Opened lmdb /home/k/PycharmProjects/AgeGenderDeepLearning-master/Folds/lmdb/Test_fold_is_0/age_val_lmdb
I0520 22:15:00.071066 20598 net.cpp:84] Creating Layer data
I0520 22:15:00.071080 20598 net.cpp:380] data -> data
I0520 22:15:00.071096 20598 net.cpp:380] data -> label
I0520 22:15:00.071110 20598 data_transformer.cpp:25] Loading mean file from: /home/k/PycharmProjects/AgeGenderDeepLearning-master/Folds/lmdb/Test_fold_is_0/mean.binaryproto
I0520 22:15:00.073218 20598 data_layer.cpp:45] output data size: 50,3,227,227
I0520 22:15:00.138265 20598 net.cpp:122] Setting up data
I0520 22:15:00.138295 20598 net.cpp:129] Top shape: 50 3 227 227 (7729350)
I0520 22:15:00.138301 20598 net.cpp:129] Top shape: 50 (50)
I0520 22:15:00.138304 20598 net.cpp:137] Memory required for data: 30917600
I0520 22:15:00.138310 20598 layer_factory.hpp:77] Creating layer label_data_1_split
I0520 22:15:00.138324 20598 net.cpp:84] Creating Layer label_data_1_split
I0520 22:15:00.138331 20598 net.cpp:406] label_data_1_split <- label
I0520 22:15:00.138345 20598 net.cpp:380] label_data_1_split -> label_data_1_split_0
I0520 22:15:00.138362 20598 net.cpp:380] label_data_1_split -> label_data_1_split_1
I0520 22:15:00.138442 20598 net.cpp:122] Setting up label_data_1_split
I0520 22:15:00.138453 20598 net.cpp:129] Top shape: 50 (50)
I0520 22:15:00.138456 20598 net.cpp:129] Top shape: 50 (50)
I0520 22:15:00.138460 20598 net.cpp:137] Memory required for data: 30918000
I0520 22:15:00.138463 20598 layer_factory.hpp:77] Creating layer conv1
I0520 22:15:00.138489 20598 net.cpp:84] Creating Layer conv1
I0520 22:15:00.138494 20598 net.cpp:406] conv1 <- data
I0520 22:15:00.138499 20598 net.cpp:380] conv1 -> conv1
I0520 22:15:00.144529 20598 net.cpp:122] Setting up conv1
I0520 22:15:00.144544 20598 net.cpp:129] Top shape: 50 96 56 56 (15052800)
I0520 22:15:00.144548 20598 net.cpp:137] Memory required for data: 91129200
I0520 22:15:00.144559 20598 layer_factory.hpp:77] Creating layer relu1
I0520 22:15:00.144568 20598 net.cpp:84] Creating Layer relu1
I0520 22:15:00.144572 20598 net.cpp:406] relu1 <- conv1
I0520 22:15:00.144582 20598 net.cpp:367] relu1 -> conv1 (in-place)
I0520 22:15:00.144752 20598 net.cpp:122] Setting up relu1
I0520 22:15:00.144763 20598 net.cpp:129] Top shape: 50 96 56 56 (15052800)
I0520 22:15:00.144769 20598 net.cpp:137] Memory required for data: 151340400
I0520 22:15:00.144776 20598 layer_factory.hpp:77] Creating layer pool1
I0520 22:15:00.144791 20598 net.cpp:84] Creating Layer pool1
I0520 22:15:00.144800 20598 net.cpp:406] pool1 <- conv1
I0520 22:15:00.144811 20598 net.cpp:380] pool1 -> pool1
I0520 22:15:00.144867 20598 net.cpp:122] Setting up pool1
I0520 22:15:00.144876 20598 net.cpp:129] Top shape: 50 96 28 28 (3763200)
I0520 22:15:00.144882 20598 net.cpp:137] Memory required for data: 166393200
I0520 22:15:00.144888 20598 layer_factory.hpp:77] Creating layer norm1
I0520 22:15:00.144901 20598 net.cpp:84] Creating Layer norm1
I0520 22:15:00.144911 20598 net.cpp:406] norm1 <- pool1
I0520 22:15:00.144922 20598 net.cpp:380] norm1 -> norm1
I0520 22:15:00.145624 20598 net.cpp:122] Setting up norm1
I0520 22:15:00.145637 20598 net.cpp:129] Top shape: 50 96 28 28 (3763200)
I0520 22:15:00.145642 20598 net.cpp:137] Memory required for data: 181446000
I0520 22:15:00.145649 20598 layer_factory.hpp:77] Creating layer conv2
I0520 22:15:00.145664 20598 net.cpp:84] Creating Layer conv2
I0520 22:15:00.145674 20598 net.cpp:406] conv2 <- norm1
I0520 22:15:00.145686 20598 net.cpp:380] conv2 -> conv2
I0520 22:15:00.153815 20598 net.cpp:122] Setting up conv2
I0520 22:15:00.153846 20598 net.cpp:129] Top shape: 50 256 28 28 (10035200)
I0520 22:15:00.153849 20598 net.cpp:137] Memory required for data: 221586800
I0520 22:15:00.153864 20598 layer_factory.hpp:77] Creating layer relu2
I0520 22:15:00.153877 20598 net.cpp:84] Creating Layer relu2
I0520 22:15:00.153885 20598 net.cpp:406] relu2 <- conv2
I0520 22:15:00.153897 20598 net.cpp:367] relu2 -> conv2 (in-place)
I0520 22:15:00.154666 20598 net.cpp:122] Setting up relu2
I0520 22:15:00.154680 20598 net.cpp:129] Top shape: 50 256 28 28 (10035200)
I0520 22:15:00.154683 20598 net.cpp:137] Memory required for data: 261727600
I0520 22:15:00.154688 20598 layer_factory.hpp:77] Creating layer pool2
I0520 22:15:00.154703 20598 net.cpp:84] Creating Layer pool2
I0520 22:15:00.154712 20598 net.cpp:406] pool2 <- conv2
I0520 22:15:00.154724 20598 net.cpp:380] pool2 -> pool2
I0520 22:15:00.154783 20598 net.cpp:122] Setting up pool2
I0520 22:15:00.154793 20598 net.cpp:129] Top shape: 50 256 14 14 (2508800)
I0520 22:15:00.154798 20598 net.cpp:137] Memory required for data: 271762800
I0520 22:15:00.154801 20598 layer_factory.hpp:77] Creating layer norm2
I0520 22:15:00.154809 20598 net.cpp:84] Creating Layer norm2
I0520 22:15:00.154814 20598 net.cpp:406] norm2 <- pool2
I0520 22:15:00.154819 20598 net.cpp:380] norm2 -> norm2
I0520 22:15:00.154994 20598 net.cpp:122] Setting up norm2
I0520 22:15:00.155004 20598 net.cpp:129] Top shape: 50 256 14 14 (2508800)
I0520 22:15:00.155009 20598 net.cpp:137] Memory required for data: 281798000
I0520 22:15:00.155015 20598 layer_factory.hpp:77] Creating layer conv3
I0520 22:15:00.155032 20598 net.cpp:84] Creating Layer conv3
I0520 22:15:00.155042 20598 net.cpp:406] conv3 <- norm2
I0520 22:15:00.155056 20598 net.cpp:380] conv3 -> conv3
I0520 22:15:00.172422 20598 net.cpp:122] Setting up conv3
I0520 22:15:00.172462 20598 net.cpp:129] Top shape: 50 384 14 14 (3763200)
I0520 22:15:00.172466 20598 net.cpp:137] Memory required for data: 296850800
I0520 22:15:00.172482 20598 layer_factory.hpp:77] Creating layer relu3
I0520 22:15:00.172492 20598 net.cpp:84] Creating Layer relu3
I0520 22:15:00.172497 20598 net.cpp:406] relu3 <- conv3
I0520 22:15:00.172507 20598 net.cpp:367] relu3 -> conv3 (in-place)
I0520 22:15:00.172685 20598 net.cpp:122] Setting up relu3
I0520 22:15:00.172721 20598 net.cpp:129] Top shape: 50 384 14 14 (3763200)
I0520 22:15:00.172725 20598 net.cpp:137] Memory required for data: 311903600
I0520 22:15:00.172729 20598 layer_factory.hpp:77] Creating layer pool5
I0520 22:15:00.172736 20598 net.cpp:84] Creating Layer pool5
I0520 22:15:00.172744 20598 net.cpp:406] pool5 <- conv3
I0520 22:15:00.172755 20598 net.cpp:380] pool5 -> pool5
I0520 22:15:00.172825 20598 net.cpp:122] Setting up pool5
I0520 22:15:00.172834 20598 net.cpp:129] Top shape: 50 384 7 7 (940800)
I0520 22:15:00.172838 20598 net.cpp:137] Memory required for data: 315666800
I0520 22:15:00.172842 20598 layer_factory.hpp:77] Creating layer fc6
I0520 22:15:00.172860 20598 net.cpp:84] Creating Layer fc6
I0520 22:15:00.172863 20598 net.cpp:406] fc6 <- pool5
I0520 22:15:00.172871 20598 net.cpp:380] fc6 -> fc6
I0520 22:15:00.278401 20598 net.cpp:122] Setting up fc6
I0520 22:15:00.278437 20598 net.cpp:129] Top shape: 50 512 (25600)
I0520 22:15:00.278440 20598 net.cpp:137] Memory required for data: 315769200
I0520 22:15:00.278451 20598 layer_factory.hpp:77] Creating layer relu6
I0520 22:15:00.278461 20598 net.cpp:84] Creating Layer relu6
I0520 22:15:00.278465 20598 net.cpp:406] relu6 <- fc6
I0520 22:15:00.278484 20598 net.cpp:367] relu6 -> fc6 (in-place)
I0520 22:15:00.278734 20598 net.cpp:122] Setting up relu6
I0520 22:15:00.278744 20598 net.cpp:129] Top shape: 50 512 (25600)
I0520 22:15:00.278748 20598 net.cpp:137] Memory required for data: 315871600
I0520 22:15:00.278750 20598 layer_factory.hpp:77] Creating layer drop6
I0520 22:15:00.278758 20598 net.cpp:84] Creating Layer drop6
I0520 22:15:00.278760 20598 net.cpp:406] drop6 <- fc6
I0520 22:15:00.278765 20598 net.cpp:367] drop6 -> fc6 (in-place)
I0520 22:15:00.278810 20598 net.cpp:122] Setting up drop6
I0520 22:15:00.278821 20598 net.cpp:129] Top shape: 50 512 (25600)
I0520 22:15:00.278825 20598 net.cpp:137] Memory required for data: 315974000
I0520 22:15:00.278828 20598 layer_factory.hpp:77] Creating layer fc7
I0520 22:15:00.278851 20598 net.cpp:84] Creating Layer fc7
I0520 22:15:00.278853 20598 net.cpp:406] fc7 <- fc6
I0520 22:15:00.278862 20598 net.cpp:380] fc7 -> fc7
I0520 22:15:00.281581 20598 net.cpp:122] Setting up fc7
I0520 22:15:00.281591 20598 net.cpp:129] Top shape: 50 512 (25600)
I0520 22:15:00.281594 20598 net.cpp:137] Memory required for data: 316076400
I0520 22:15:00.281603 20598 layer_factory.hpp:77] Creating layer relu7
I0520 22:15:00.281608 20598 net.cpp:84] Creating Layer relu7
I0520 22:15:00.281612 20598 net.cpp:406] relu7 <- fc7
I0520 22:15:00.281616 20598 net.cpp:367] relu7 -> fc7 (in-place)
I0520 22:15:00.282383 20598 net.cpp:122] Setting up relu7
I0520 22:15:00.282395 20598 net.cpp:129] Top shape: 50 512 (25600)
I0520 22:15:00.282398 20598 net.cpp:137] Memory required for data: 316178800
I0520 22:15:00.282402 20598 layer_factory.hpp:77] Creating layer drop7
I0520 22:15:00.282407 20598 net.cpp:84] Creating Layer drop7
I0520 22:15:00.282410 20598 net.cpp:406] drop7 <- fc7
I0520 22:15:00.282415 20598 net.cpp:367] drop7 -> fc7 (in-place)
I0520 22:15:00.282451 20598 net.cpp:122] Setting up drop7
I0520 22:15:00.282459 20598 net.cpp:129] Top shape: 50 512 (25600)
I0520 22:15:00.282461 20598 net.cpp:137] Memory required for data: 316281200
I0520 22:15:00.282464 20598 layer_factory.hpp:77] Creating layer fc8
I0520 22:15:00.282470 20598 net.cpp:84] Creating Layer fc8
I0520 22:15:00.282474 20598 net.cpp:406] fc8 <- fc7
I0520 22:15:00.282479 20598 net.cpp:380] fc8 -> fc8
I0520 22:15:00.282627 20598 net.cpp:122] Setting up fc8
I0520 22:15:00.282635 20598 net.cpp:129] Top shape: 50 8 (400)
I0520 22:15:00.282639 20598 net.cpp:137] Memory required for data: 316282800
I0520 22:15:00.282644 20598 layer_factory.hpp:77] Creating layer fc8_fc8_0_split
I0520 22:15:00.282650 20598 net.cpp:84] Creating Layer fc8_fc8_0_split
I0520 22:15:00.282654 20598 net.cpp:406] fc8_fc8_0_split <- fc8
I0520 22:15:00.282657 20598 net.cpp:380] fc8_fc8_0_split -> fc8_fc8_0_split_0
I0520 22:15:00.282663 20598 net.cpp:380] fc8_fc8_0_split -> fc8_fc8_0_split_1
I0520 22:15:00.282707 20598 net.cpp:122] Setting up fc8_fc8_0_split
I0520 22:15:00.282716 20598 net.cpp:129] Top shape: 50 8 (400)
I0520 22:15:00.282719 20598 net.cpp:129] Top shape: 50 8 (400)
I0520 22:15:00.282722 20598 net.cpp:137] Memory required for data: 316286000
I0520 22:15:00.282726 20598 layer_factory.hpp:77] Creating layer accuracy
I0520 22:15:00.282732 20598 net.cpp:84] Creating Layer accuracy
I0520 22:15:00.282735 20598 net.cpp:406] accuracy <- fc8_fc8_0_split_0
I0520 22:15:00.282739 20598 net.cpp:406] accuracy <- label_data_1_split_0
I0520 22:15:00.282744 20598 net.cpp:380] accuracy -> accuracy
…
