…
I0520 21:30:54.149006 18267 net.cpp:51] Initializing net from parameters: 
name: "CaffeNet"
state {
  phase: TRAIN
  level: 0
  stage: ""
}
layer {
  name: "data"
  type: "Data"
  top: "data"
  top: "label"
  include {
    phase: TRAIN
  }
  transform_param {
    mirror: true
    crop_size: 227
    mean_file: "/home/k/PycharmProjects/AgeGenderDeepLearning-master/Folds/lmdb/Test_fold_is_0/mean.binaryproto"
  }
  data_param {
    source: "/home/k/PycharmProjects/AgeGenderDeepLearning-master/Folds/lmdb/Test_fold_is_0/age_train_lmdb"
    batch_size: 50
    backend: LMDB
  }
}
layer {
  name: "conv1"
  type: "Convolution"
  bottom: "data"
  top: "conv1"
  param {
    lr_mult: 1
    decay_mult: 1
  }
  param {
    lr_mult: 2
    decay_mult: 0
  }
  convolution_param {
    num_output: 96
    kernel_size: 7
    stride: 4
    weight_filler {
      type: "gaussian"
      std: 0.01
    }
    bias_filler {
      type: "constant"
      value: 0
    }
  }
}
layer {
  name: "relu1"
  type: "ReLU"
  bottom: "conv1"
  top: "conv1"
}
layer {
  name: "pool1"
  type: "Pooling"
  bottom: "conv1"
  top: "pool1"
  pooling_param {
    pool: MAX
    kernel_size: 3
    stride: 2
  }
}
layer {
  name: "norm1"
  type: "LRN"
  bottom: "pool1"
  top: "norm1"
  lrn_param {
    local_size: 5
    alpha: 0.0001
    beta: 0.75
  }
}
layer {
  name: "conv2"
  type: "Convolution"
  bottom: "norm1"
  top: "conv2"
  param {
    lr_mult: 1
    decay_mult: 1
  }
  param {
    lr_mult: 2
    decay_mult: 0
  }
  convolution_param {
    num_output: 256
    pad: 2
    kernel_size: 5
    weight_filler {
      type: "gaussian"
      std: 0.01
    }
    bias_filler {
      type: "constant"
      value: 1
    }
  }
}
layer {
  name: "relu2"
  type: "ReLU"
  bottom: "conv2"
  top: "conv2"
}
layer {
  name: "pool2"
  type: "Pooling"
  bottom: "conv2"
  top: "pool2"
  pooling_param {
    pool: MAX
    kernel_size: 3
    stride: 2
  }
}
layer {
  name: "norm2"
  type: "LRN"
  bottom: "pool2"
  top: "norm2"
  lrn_param {
    local_size: 5
    alpha: 0.0001
    beta: 0.75
  }
}
layer {
  name: "conv3"
  type: "Convolution"
  bottom: "norm2"
  top: "conv3"
  param {
    lr_mult: 1
    decay_mult: 1
  }
  param {
    lr_mult: 2
    decay_mult: 0
  }
  convolution_param {
    num_output: 384
    pad: 1
    kernel_size: 3
    weight_filler {
      type: "gaussian"
      std: 0.01
    }
    bias_filler {
      type: "constant"
      value: 0
    }
  }
}
layer {
  name: "relu3"
  type: "ReLU"
  bottom: "conv3"
  top: "conv3"
}
layer {
  name: "pool5"
  type: "Pooling"
  bottom: "conv3"
  top: "pool5"
  pooling_param {
    pool: MAX
    kernel_size: 3
    stride: 2
  }
}
layer {
  name: "fc6"
  type: "InnerProduct"
  bottom: "pool5"
  top: "fc6"
  param {
    lr_mult: 1
    decay_mult: 1
  }
  param {
    lr_mult: 2
    decay_mult: 0
  }
  inner_product_param {
    num_output: 512
    weight_filler {
      type: "gaussian"
      std: 0.005
    }
    bias_filler {
      type: "constant"
      value: 1
    }
  }
}
layer {
  name: "relu6"
  type: "ReLU"
  bottom: "fc6"
  top: "fc6"
}
layer {
  name: "drop6"
  type: "Dropout"
  bottom: "fc6"
  top: "fc6"
  dropout_param {
    dropout_ratio: 0.5
  }
}
layer {
  name: "fc7"
  type: "InnerProduct"
  bottom: "fc6"
  top: "fc7"
  param {
    lr_mult: 1
    decay_mult: 1
  }
  param {
    lr_mult: 2
    decay_mult: 0
  }
  inner_product_param {
    num_output: 512
    weight_filler {
      type: "gaussian"
      std: 0.005
    }
    bias_filler {
      type: "constant"
      value: 1
    }
  }
}
layer {
  name: "relu7"
  type: "ReLU"
  bottom: "fc7"
  top: "fc7"
}
layer {
  name: "drop7"
  type: "Dropout"
  bottom: "fc7"
  top: "fc7"
  dropout_param {
    dropout_ratio: 0.5
  }
}
layer {
  name: "fc8"
  type: "InnerProduct"
  bottom: "fc7"
  top: "fc8"
  param {
    lr_mult: 10
    decay_mult: 1
  }
  param {
    lr_mult: 20
    decay_mult: 0
  }
  inner_product_param {
    num_output: 8
    weight_filler {
      type: "gaussian"
      std: 0.01
    }
    bias_filler {
      type: "constant"
      value: 0
    }
  }
}
layer {
  name: "loss"
  type: "SoftmaxWithLoss"
  bottom: "fc8"
  bottom: "label"
  top: "loss"
}
I0520 21:30:54.149098 18267 layer_factory.hpp:77] Creating layer data
I0520 21:30:54.149199 18267 db_lmdb.cpp:35] Opened lmdb /home/k/PycharmProjects/AgeGenderDeepLearning-master/Folds/lmdb/Test_fold_is_0/age_train_lmdb
I0520 21:30:54.149230 18267 net.cpp:84] Creating Layer data
I0520 21:30:54.149252 18267 net.cpp:380] data -> data
I0520 21:30:54.149269 18267 net.cpp:380] data -> label
I0520 21:30:54.149282 18267 data_transformer.cpp:25] Loading mean file from: /home/k/PycharmProjects/AgeGenderDeepLearning-master/Folds/lmdb/Test_fold_is_0/mean.binaryproto
I0520 21:30:54.152261 18267 data_layer.cpp:45] output data size: 50,3,227,227
I0520 21:30:54.216008 18267 net.cpp:122] Setting up data
I0520 21:30:54.216049 18267 net.cpp:129] Top shape: 50 3 227 227 (7729350)
I0520 21:30:54.216055 18267 net.cpp:129] Top shape: 50 (50)
I0520 21:30:54.216058 18267 net.cpp:137] Memory required for data: 30917600
I0520 21:30:54.216068 18267 layer_factory.hpp:77] Creating layer conv1
I0520 21:30:54.216089 18267 net.cpp:84] Creating Layer conv1
I0520 21:30:54.216097 18267 net.cpp:406] conv1 <- data
I0520 21:30:54.216110 18267 net.cpp:380] conv1 -> conv1
I0520 21:30:54.464462 18267 net.cpp:122] Setting up conv1
I0520 21:30:54.464493 18267 net.cpp:129] Top shape: 50 96 56 56 (15052800)
I0520 21:30:54.464498 18267 net.cpp:137] Memory required for data: 91128800
I0520 21:30:54.464520 18267 layer_factory.hpp:77] Creating layer relu1
I0520 21:30:54.464543 18267 net.cpp:84] Creating Layer relu1
I0520 21:30:54.464548 18267 net.cpp:406] relu1 <- conv1
I0520 21:30:54.464555 18267 net.cpp:367] relu1 -> conv1 (in-place)
I0520 21:30:54.464720 18267 net.cpp:122] Setting up relu1
I0520 21:30:54.464730 18267 net.cpp:129] Top shape: 50 96 56 56 (15052800)
I0520 21:30:54.464747 18267 net.cpp:137] Memory required for data: 151340000
I0520 21:30:54.464751 18267 layer_factory.hpp:77] Creating layer pool1
I0520 21:30:54.464757 18267 net.cpp:84] Creating Layer pool1
I0520 21:30:54.464761 18267 net.cpp:406] pool1 <- conv1
I0520 21:30:54.464766 18267 net.cpp:380] pool1 -> pool1
I0520 21:30:54.464819 18267 net.cpp:122] Setting up pool1
I0520 21:30:54.464826 18267 net.cpp:129] Top shape: 50 96 28 28 (3763200)
I0520 21:30:54.464829 18267 net.cpp:137] Memory required for data: 166392800
I0520 21:30:54.464833 18267 layer_factory.hpp:77] Creating layer norm1
I0520 21:30:54.464840 18267 net.cpp:84] Creating Layer norm1
I0520 21:30:54.464843 18267 net.cpp:406] norm1 <- pool1
I0520 21:30:54.464848 18267 net.cpp:380] norm1 -> norm1
I0520 21:30:54.465495 18267 net.cpp:122] Setting up norm1
I0520 21:30:54.465507 18267 net.cpp:129] Top shape: 50 96 28 28 (3763200)
I0520 21:30:54.465512 18267 net.cpp:137] Memory required for data: 181445600
I0520 21:30:54.465514 18267 layer_factory.hpp:77] Creating layer conv2
I0520 21:30:54.465525 18267 net.cpp:84] Creating Layer conv2
I0520 21:30:54.465528 18267 net.cpp:406] conv2 <- norm1
I0520 21:30:54.465561 18267 net.cpp:380] conv2 -> conv2
I0520 21:30:54.474028 18267 net.cpp:122] Setting up conv2
I0520 21:30:54.474045 18267 net.cpp:129] Top shape: 50 256 28 28 (10035200)
I0520 21:30:54.474048 18267 net.cpp:137] Memory required for data: 221586400
I0520 21:30:54.474059 18267 layer_factory.hpp:77] Creating layer relu2
I0520 21:30:54.474066 18267 net.cpp:84] Creating Layer relu2
I0520 21:30:54.474069 18267 net.cpp:406] relu2 <- conv2
I0520 21:30:54.474074 18267 net.cpp:367] relu2 -> conv2 (in-place)
I0520 21:30:54.474247 18267 net.cpp:122] Setting up relu2
I0520 21:30:54.474257 18267 net.cpp:129] Top shape: 50 256 28 28 (10035200)
I0520 21:30:54.474261 18267 net.cpp:137] Memory required for data: 261727200
I0520 21:30:54.474264 18267 layer_factory.hpp:77] Creating layer pool2
I0520 21:30:54.474269 18267 net.cpp:84] Creating Layer pool2
I0520 21:30:54.474273 18267 net.cpp:406] pool2 <- conv2
I0520 21:30:54.474279 18267 net.cpp:380] pool2 -> pool2
I0520 21:30:54.474328 18267 net.cpp:122] Setting up pool2
I0520 21:30:54.474336 18267 net.cpp:129] Top shape: 50 256 14 14 (2508800)
I0520 21:30:54.474339 18267 net.cpp:137] Memory required for data: 271762400
I0520 21:30:54.474342 18267 layer_factory.hpp:77] Creating layer norm2
I0520 21:30:54.474351 18267 net.cpp:84] Creating Layer norm2
I0520 21:30:54.474355 18267 net.cpp:406] norm2 <- pool2
I0520 21:30:54.474360 18267 net.cpp:380] norm2 -> norm2
I0520 21:30:54.474530 18267 net.cpp:122] Setting up norm2
I0520 21:30:54.474540 18267 net.cpp:129] Top shape: 50 256 14 14 (2508800)
I0520 21:30:54.474545 18267 net.cpp:137] Memory required for data: 281797600
I0520 21:30:54.474547 18267 layer_factory.hpp:77] Creating layer conv3
I0520 21:30:54.474556 18267 net.cpp:84] Creating Layer conv3
I0520 21:30:54.474560 18267 net.cpp:406] conv3 <- norm2
I0520 21:30:54.474565 18267 net.cpp:380] conv3 -> conv3
I0520 21:30:54.486176 18267 net.cpp:122] Setting up conv3
I0520 21:30:54.486202 18267 net.cpp:129] Top shape: 50 384 14 14 (3763200)
I0520 21:30:54.486205 18267 net.cpp:137] Memory required for data: 296850400
I0520 21:30:54.486219 18267 layer_factory.hpp:77] Creating layer relu3
I0520 21:30:54.486228 18267 net.cpp:84] Creating Layer relu3
I0520 21:30:54.486233 18267 net.cpp:406] relu3 <- conv3
I0520 21:30:54.486240 18267 net.cpp:367] relu3 -> conv3 (in-place)
I0520 21:30:54.486403 18267 net.cpp:122] Setting up relu3
I0520 21:30:54.486413 18267 net.cpp:129] Top shape: 50 384 14 14 (3763200)
I0520 21:30:54.486415 18267 net.cpp:137] Memory required for data: 311903200
I0520 21:30:54.486418 18267 layer_factory.hpp:77] Creating layer pool5
I0520 21:30:54.486424 18267 net.cpp:84] Creating Layer pool5
I0520 21:30:54.486428 18267 net.cpp:406] pool5 <- conv3
I0520 21:30:54.486433 18267 net.cpp:380] pool5 -> pool5
I0520 21:30:54.486487 18267 net.cpp:122] Setting up pool5
I0520 21:30:54.486495 18267 net.cpp:129] Top shape: 50 384 7 7 (940800)
I0520 21:30:54.486498 18267 net.cpp:137] Memory required for data: 315666400
I0520 21:30:54.486501 18267 layer_factory.hpp:77] Creating layer fc6
I0520 21:30:54.486510 18267 net.cpp:84] Creating Layer fc6
I0520 21:30:54.486515 18267 net.cpp:406] fc6 <- pool5
I0520 21:30:54.486533 18267 net.cpp:380] fc6 -> fc6
I0520 21:30:54.590575 18267 net.cpp:122] Setting up fc6
I0520 21:30:54.590613 18267 net.cpp:129] Top shape: 50 512 (25600)
I0520 21:30:54.590616 18267 net.cpp:137] Memory required for data: 315768800
I0520 21:30:54.590627 18267 layer_factory.hpp:77] Creating layer relu6
I0520 21:30:54.590636 18267 net.cpp:84] Creating Layer relu6
I0520 21:30:54.590641 18267 net.cpp:406] relu6 <- fc6
I0520 21:30:54.590649 18267 net.cpp:367] relu6 -> fc6 (in-place)
I0520 21:30:54.591444 18267 net.cpp:122] Setting up relu6
I0520 21:30:54.591456 18267 net.cpp:129] Top shape: 50 512 (25600)
I0520 21:30:54.591459 18267 net.cpp:137] Memory required for data: 315871200
I0520 21:30:54.591462 18267 layer_factory.hpp:77] Creating layer drop6
I0520 21:30:54.591469 18267 net.cpp:84] Creating Layer drop6
I0520 21:30:54.591472 18267 net.cpp:406] drop6 <- fc6
I0520 21:30:54.591508 18267 net.cpp:367] drop6 -> fc6 (in-place)
I0520 21:30:54.591542 18267 net.cpp:122] Setting up drop6
I0520 21:30:54.591562 18267 net.cpp:129] Top shape: 50 512 (25600)
I0520 21:30:54.591564 18267 net.cpp:137] Memory required for data: 315973600
I0520 21:30:54.591568 18267 layer_factory.hpp:77] Creating layer fc7
I0520 21:30:54.591576 18267 net.cpp:84] Creating Layer fc7
I0520 21:30:54.591579 18267 net.cpp:406] fc7 <- fc6
I0520 21:30:54.591584 18267 net.cpp:380] fc7 -> fc7
I0520 21:30:54.594269 18267 net.cpp:122] Setting up fc7
I0520 21:30:54.594279 18267 net.cpp:129] Top shape: 50 512 (25600)
I0520 21:30:54.594281 18267 net.cpp:137] Memory required for data: 316076000
I0520 21:30:54.594290 18267 layer_factory.hpp:77] Creating layer relu7
I0520 21:30:54.594298 18267 net.cpp:84] Creating Layer relu7
I0520 21:30:54.594302 18267 net.cpp:406] relu7 <- fc7
I0520 21:30:54.594306 18267 net.cpp:367] relu7 -> fc7 (in-place)
I0520 21:30:54.594470 18267 net.cpp:122] Setting up relu7
I0520 21:30:54.594480 18267 net.cpp:129] Top shape: 50 512 (25600)
I0520 21:30:54.594482 18267 net.cpp:137] Memory required for data: 316178400
I0520 21:30:54.594485 18267 layer_factory.hpp:77] Creating layer drop7
I0520 21:30:54.594491 18267 net.cpp:84] Creating Layer drop7
I0520 21:30:54.594493 18267 net.cpp:406] drop7 <- fc7
I0520 21:30:54.594499 18267 net.cpp:367] drop7 -> fc7 (in-place)
I0520 21:30:54.594532 18267 net.cpp:122] Setting up drop7
I0520 21:30:54.594539 18267 net.cpp:129] Top shape: 50 512 (25600)
I0520 21:30:54.594542 18267 net.cpp:137] Memory required for data: 316280800
I0520 21:30:54.594545 18267 layer_factory.hpp:77] Creating layer fc8
I0520 21:30:54.594553 18267 net.cpp:84] Creating Layer fc8
I0520 21:30:54.594557 18267 net.cpp:406] fc8 <- fc7
I0520 21:30:54.594563 18267 net.cpp:380] fc8 -> fc8
I0520 21:30:54.594710 18267 net.cpp:122] Setting up fc8
I0520 21:30:54.594718 18267 net.cpp:129] Top shape: 50 8 (400)
I0520 21:30:54.594722 18267 net.cpp:137] Memory required for data: 316282400
I0520 21:30:54.594727 18267 layer_factory.hpp:77] Creating layer loss
I0520 21:30:54.594732 18267 net.cpp:84] Creating Layer loss
I0520 21:30:54.594735 18267 net.cpp:406] loss <- fc8
I0520 21:30:54.594739 18267 net.cpp:406] loss <- label
I0520 21:30:54.594744 18267 net.cpp:380] loss -> loss
I0520 21:30:54.594764 18267 layer_factory.hpp:77] Creating layer loss
…
I0520 21:30:54.595456 18267 net.cpp:294] The NetState phase (1) differed from the phase (0) specified by a rule in layer data
I0520 21:30:54.595628 18267 net.cpp:51] Initializing net from parameters: 
name: "CaffeNet"
state {
  phase: TEST
}
layer {
  name: "data"
  type: "Data"
  top: "data"
  top: "label"
  include {
    phase: TEST
  }
  transform_param {
    mirror: false
    crop_size: 227
    mean_file: "/home/k/PycharmProjects/AgeGenderDeepLearning-master/Folds/lmdb/Test_fold_is_0/mean.binaryproto"
  }
  data_param {
    source: "/home/k/PycharmProjects/AgeGenderDeepLearning-master/Folds/lmdb/Test_fold_is_0/age_val_lmdb"
    batch_size: 50
    backend: LMDB
  }
}
layer {
  name: "conv1"
  type: "Convolution"
  bottom: "data"
  top: "conv1"
  param {
    lr_mult: 1
    decay_mult: 1
  }
  param {
    lr_mult: 2
    decay_mult: 0
  }
  convolution_param {
    num_output: 96
    kernel_size: 7
    stride: 4
    weight_filler {
      type: "gaussian"
      std: 0.01
    }
    bias_filler {
      type: "constant"
      value: 0
    }
  }
}
layer {
  name: "relu1"
  type: "ReLU"
  bottom: "conv1"
  top: "conv1"
}
layer {
  name: "pool1"
  type: "Pooling"
  bottom: "conv1"
  top: "pool1"
  pooling_param {
    pool: MAX
    kernel_size: 3
    stride: 2
  }
}
layer {
  name: "norm1"
  type: "LRN"
  bottom: "pool1"
  top: "norm1"
  lrn_param {
    local_size: 5
    alpha: 0.0001
    beta: 0.75
  }
}
layer {
  name: "conv2"
  type: "Convolution"
  bottom: "norm1"
  top: "conv2"
  param {
    lr_mult: 1
    decay_mult: 1
  }
  param {
    lr_mult: 2
    decay_mult: 0
  }
  convolution_param {
    num_output: 256
    pad: 2
    kernel_size: 5
    weight_filler {
      type: "gaussian"
      std: 0.01
    }
    bias_filler {
      type: "constant"
      value: 1
    }
  }
}
layer {
  name: "relu2"
  type: "ReLU"
  bottom: "conv2"
  top: "conv2"
}
layer {
  name: "pool2"
  type: "Pooling"
  bottom: "conv2"
  top: "pool2"
  pooling_param {
    pool: MAX
    kernel_size: 3
    stride: 2
  }
}
layer {
  name: "norm2"
  type: "LRN"
  bottom: "pool2"
  top: "norm2"
  lrn_param {
    local_size: 5
    alpha: 0.0001
    beta: 0.75
  }
}
layer {
  name: "conv3"
  type: "Convolution"
  bottom: "norm2"
  top: "conv3"
  param {
    lr_mult: 1
    decay_mult: 1
  }
  param {
    lr_mult: 2
    decay_mult: 0
  }
  convolution_param {
    num_output: 384
    pad: 1
    kernel_size: 3
    weight_filler {
      type: "gaussian"
      std: 0.01
    }
    bias_filler {
      type: "constant"
      value: 0
    }
  }
}
layer {
  name: "relu3"
  type: "ReLU"
  bottom: "conv3"
  top: "conv3"
}
layer {
  name: "pool5"
  type: "Pooling"
  bottom: "conv3"
  top: "pool5"
  pooling_param {
    pool: MAX
    kernel_size: 3
    stride: 2
  }
}
layer {
  name: "fc6"
  type: "InnerProduct"
  bottom: "pool5"
  top: "fc6"
  param {
    lr_mult: 1
    decay_mult: 1
  }
  param {
    lr_mult: 2
    decay_mult: 0
  }
  inner_product_param {
    num_output: 512
    weight_filler {
      type: "gaussian"
      std: 0.005
    }
    bias_filler {
      type: "constant"
      value: 1
    }
  }
}
layer {
  name: "relu6"
  type: "ReLU"
  bottom: "fc6"
  top: "fc6"
}
layer {
  name: "drop6"
  type: "Dropout"
  bottom: "fc6"
  top: "fc6"
  dropout_param {
    dropout_ratio: 0.5
  }
}
layer {
  name: "fc7"
  type: "InnerProduct"
  bottom: "fc6"
  top: "fc7"
  param {
    lr_mult: 1
    decay_mult: 1
  }
  param {
    lr_mult: 2
    decay_mult: 0
  }
  inner_product_param {
    num_output: 512
    weight_filler {
      type: "gaussian"
      std: 0.005
    }
    bias_filler {
      type: "constant"
      value: 1
    }
  }
}
layer {
  name: "relu7"
  type: "ReLU"
  bottom: "fc7"
  top: "fc7"
}
layer {
  name: "drop7"
  type: "Dropout"
  bottom: "fc7"
  top: "fc7"
  dropout_param {
    dropout_ratio: 0.5
  }
}
layer {
  name: "fc8"
  type: "InnerProduct"
  bottom: "fc7"
  top: "fc8"
  param {
    lr_mult: 10
    decay_mult: 1
  }
  param {
    lr_mult: 20
    decay_mult: 0
  }
  inner_product_param {
    num_output: 8
    weight_filler {
      type: "gaussian"
      std: 0.01
    }
    bias_filler {
      type: "constant"
      value: 0
    }
  }
}
layer {
  name: "accuracy"
  type: "Accuracy"
  bottom: "fc8"
  bottom: "label"
  top: "accuracy"
  include {
    phase: TEST
  }
}
layer {
  name: "loss"
  type: "SoftmaxWithLoss"
  bottom: "fc8"
  bottom: "label"
  top: "loss"
}
I0520 21:30:54.595726 18267 layer_factory.hpp:77] Creating layer data
I0520 21:30:54.595788 18267 db_lmdb.cpp:35] Opened lmdb /home/k/PycharmProjects/AgeGenderDeepLearning-master/Folds/lmdb/Test_fold_is_0/age_val_lmdb
I0520 21:30:54.595803 18267 net.cpp:84] Creating Layer data
I0520 21:30:54.595811 18267 net.cpp:380] data -> data
I0520 21:30:54.595821 18267 net.cpp:380] data -> label
I0520 21:30:54.595830 18267 data_transformer.cpp:25] Loading mean file from: /home/k/PycharmProjects/AgeGenderDeepLearning-master/Folds/lmdb/Test_fold_is_0/mean.binaryproto
I0520 21:30:54.597921 18267 data_layer.cpp:45] output data size: 50,3,227,227
I0520 21:30:54.662437 18267 net.cpp:122] Setting up data
I0520 21:30:54.662478 18267 net.cpp:129] Top shape: 50 3 227 227 (7729350)
I0520 21:30:54.662484 18267 net.cpp:129] Top shape: 50 (50)
I0520 21:30:54.662487 18267 net.cpp:137] Memory required for data: 30917600
I0520 21:30:54.662493 18267 layer_factory.hpp:77] Creating layer label_data_1_split
I0520 21:30:54.662506 18267 net.cpp:84] Creating Layer label_data_1_split
I0520 21:30:54.662511 18267 net.cpp:406] label_data_1_split <- label
I0520 21:30:54.662518 18267 net.cpp:380] label_data_1_split -> label_data_1_split_0
I0520 21:30:54.662529 18267 net.cpp:380] label_data_1_split -> label_data_1_split_1
I0520 21:30:54.662585 18267 net.cpp:122] Setting up label_data_1_split
I0520 21:30:54.662605 18267 net.cpp:129] Top shape: 50 (50)
I0520 21:30:54.662608 18267 net.cpp:129] Top shape: 50 (50)
I0520 21:30:54.662611 18267 net.cpp:137] Memory required for data: 30918000
I0520 21:30:54.662614 18267 layer_factory.hpp:77] Creating layer conv1
I0520 21:30:54.662626 18267 net.cpp:84] Creating Layer conv1
I0520 21:30:54.662629 18267 net.cpp:406] conv1 <- data
I0520 21:30:54.662634 18267 net.cpp:380] conv1 -> conv1
I0520 21:30:54.668625 18267 net.cpp:122] Setting up conv1
I0520 21:30:54.668651 18267 net.cpp:129] Top shape: 50 96 56 56 (15052800)
I0520 21:30:54.668655 18267 net.cpp:137] Memory required for data: 91129200
I0520 21:30:54.668666 18267 layer_factory.hpp:77] Creating layer relu1
I0520 21:30:54.668673 18267 net.cpp:84] Creating Layer relu1
I0520 21:30:54.668678 18267 net.cpp:406] relu1 <- conv1
I0520 21:30:54.668681 18267 net.cpp:367] relu1 -> conv1 (in-place)
I0520 21:30:54.668951 18267 net.cpp:122] Setting up relu1
I0520 21:30:54.668967 18267 net.cpp:129] Top shape: 50 96 56 56 (15052800)
I0520 21:30:54.668969 18267 net.cpp:137] Memory required for data: 151340400
I0520 21:30:54.668978 18267 layer_factory.hpp:77] Creating layer pool1
I0520 21:30:54.668987 18267 net.cpp:84] Creating Layer pool1
I0520 21:30:54.668990 18267 net.cpp:406] pool1 <- conv1
I0520 21:30:54.668995 18267 net.cpp:380] pool1 -> pool1
I0520 21:30:54.669047 18267 net.cpp:122] Setting up pool1
I0520 21:30:54.669056 18267 net.cpp:129] Top shape: 50 96 28 28 (3763200)
I0520 21:30:54.669059 18267 net.cpp:137] Memory required for data: 166393200
I0520 21:30:54.669062 18267 layer_factory.hpp:77] Creating layer norm1
I0520 21:30:54.669070 18267 net.cpp:84] Creating Layer norm1
I0520 21:30:54.669072 18267 net.cpp:406] norm1 <- pool1
I0520 21:30:54.669077 18267 net.cpp:380] norm1 -> norm1
I0520 21:30:54.669773 18267 net.cpp:122] Setting up norm1
I0520 21:30:54.669786 18267 net.cpp:129] Top shape: 50 96 28 28 (3763200)
I0520 21:30:54.669790 18267 net.cpp:137] Memory required for data: 181446000
I0520 21:30:54.669805 18267 layer_factory.hpp:77] Creating layer conv2
I0520 21:30:54.669814 18267 net.cpp:84] Creating Layer conv2
I0520 21:30:54.669817 18267 net.cpp:406] conv2 <- norm1
I0520 21:30:54.669823 18267 net.cpp:380] conv2 -> conv2
I0520 21:30:54.677600 18267 net.cpp:122] Setting up conv2
I0520 21:30:54.677628 18267 net.cpp:129] Top shape: 50 256 28 28 (10035200)
I0520 21:30:54.677633 18267 net.cpp:137] Memory required for data: 221586800
I0520 21:30:54.677644 18267 layer_factory.hpp:77] Creating layer relu2
I0520 21:30:54.677654 18267 net.cpp:84] Creating Layer relu2
I0520 21:30:54.677659 18267 net.cpp:406] relu2 <- conv2
I0520 21:30:54.677665 18267 net.cpp:367] relu2 -> conv2 (in-place)
I0520 21:30:54.678412 18267 net.cpp:122] Setting up relu2
I0520 21:30:54.678424 18267 net.cpp:129] Top shape: 50 256 28 28 (10035200)
I0520 21:30:54.678438 18267 net.cpp:137] Memory required for data: 261727600
I0520 21:30:54.678442 18267 layer_factory.hpp:77] Creating layer pool2
I0520 21:30:54.678452 18267 net.cpp:84] Creating Layer pool2
I0520 21:30:54.678454 18267 net.cpp:406] pool2 <- conv2
I0520 21:30:54.678460 18267 net.cpp:380] pool2 -> pool2
I0520 21:30:54.678503 18267 net.cpp:122] Setting up pool2
I0520 21:30:54.678524 18267 net.cpp:129] Top shape: 50 256 14 14 (2508800)
I0520 21:30:54.678526 18267 net.cpp:137] Memory required for data: 271762800
I0520 21:30:54.678529 18267 layer_factory.hpp:77] Creating layer norm2
I0520 21:30:54.678535 18267 net.cpp:84] Creating Layer norm2
I0520 21:30:54.678539 18267 net.cpp:406] norm2 <- pool2
I0520 21:30:54.678544 18267 net.cpp:380] norm2 -> norm2
I0520 21:30:54.678722 18267 net.cpp:122] Setting up norm2
I0520 21:30:54.678731 18267 net.cpp:129] Top shape: 50 256 14 14 (2508800)
I0520 21:30:54.678745 18267 net.cpp:137] Memory required for data: 281798000
I0520 21:30:54.678750 18267 layer_factory.hpp:77] Creating layer conv3
I0520 21:30:54.678759 18267 net.cpp:84] Creating Layer conv3
I0520 21:30:54.678763 18267 net.cpp:406] conv3 <- norm2
I0520 21:30:54.678768 18267 net.cpp:380] conv3 -> conv3
I0520 21:30:54.696101 18267 net.cpp:122] Setting up conv3
I0520 21:30:54.696127 18267 net.cpp:129] Top shape: 50 384 14 14 (3763200)
I0520 21:30:54.696131 18267 net.cpp:137] Memory required for data: 296850800
I0520 21:30:54.696147 18267 layer_factory.hpp:77] Creating layer relu3
I0520 21:30:54.696157 18267 net.cpp:84] Creating Layer relu3
I0520 21:30:54.696163 18267 net.cpp:406] relu3 <- conv3
I0520 21:30:54.696171 18267 net.cpp:367] relu3 -> conv3 (in-place)
I0520 21:30:54.696326 18267 net.cpp:122] Setting up relu3
I0520 21:30:54.696336 18267 net.cpp:129] Top shape: 50 384 14 14 (3763200)
I0520 21:30:54.696339 18267 net.cpp:137] Memory required for data: 311903600
I0520 21:30:54.696342 18267 layer_factory.hpp:77] Creating layer pool5
I0520 21:30:54.696349 18267 net.cpp:84] Creating Layer pool5
I0520 21:30:54.696353 18267 net.cpp:406] pool5 <- conv3
I0520 21:30:54.696359 18267 net.cpp:380] pool5 -> pool5
I0520 21:30:54.696406 18267 net.cpp:122] Setting up pool5
I0520 21:30:54.696414 18267 net.cpp:129] Top shape: 50 384 7 7 (940800)
I0520 21:30:54.696419 18267 net.cpp:137] Memory required for data: 315666800
I0520 21:30:54.696421 18267 layer_factory.hpp:77] Creating layer fc6
I0520 21:30:54.696429 18267 net.cpp:84] Creating Layer fc6
I0520 21:30:54.696434 18267 net.cpp:406] fc6 <- pool5
I0520 21:30:54.696439 18267 net.cpp:380] fc6 -> fc6
I0520 21:30:54.803383 18267 net.cpp:122] Setting up fc6
I0520 21:30:54.803419 18267 net.cpp:129] Top shape: 50 512 (25600)
I0520 21:30:54.803423 18267 net.cpp:137] Memory required for data: 315769200
I0520 21:30:54.803434 18267 layer_factory.hpp:77] Creating layer relu6
I0520 21:30:54.803445 18267 net.cpp:84] Creating Layer relu6
I0520 21:30:54.803449 18267 net.cpp:406] relu6 <- fc6
I0520 21:30:54.803457 18267 net.cpp:367] relu6 -> fc6 (in-place)
I0520 21:30:54.803700 18267 net.cpp:122] Setting up relu6
I0520 21:30:54.803709 18267 net.cpp:129] Top shape: 50 512 (25600)
I0520 21:30:54.803725 18267 net.cpp:137] Memory required for data: 315871600
I0520 21:30:54.803728 18267 layer_factory.hpp:77] Creating layer drop6
I0520 21:30:54.803735 18267 net.cpp:84] Creating Layer drop6
I0520 21:30:54.803740 18267 net.cpp:406] drop6 <- fc6
I0520 21:30:54.803745 18267 net.cpp:367] drop6 -> fc6 (in-place)
I0520 21:30:54.803771 18267 net.cpp:122] Setting up drop6
I0520 21:30:54.803778 18267 net.cpp:129] Top shape: 50 512 (25600)
I0520 21:30:54.803792 18267 net.cpp:137] Memory required for data: 315974000
I0520 21:30:54.803795 18267 layer_factory.hpp:77] Creating layer fc7
I0520 21:30:54.803805 18267 net.cpp:84] Creating Layer fc7
I0520 21:30:54.803808 18267 net.cpp:406] fc7 <- fc6
I0520 21:30:54.803814 18267 net.cpp:380] fc7 -> fc7
I0520 21:30:54.806560 18267 net.cpp:122] Setting up fc7
I0520 21:30:54.806569 18267 net.cpp:129] Top shape: 50 512 (25600)
I0520 21:30:54.806572 18267 net.cpp:137] Memory required for data: 316076400
I0520 21:30:54.806581 18267 layer_factory.hpp:77] Creating layer relu7
I0520 21:30:54.806587 18267 net.cpp:84] Creating Layer relu7
I0520 21:30:54.806591 18267 net.cpp:406] relu7 <- fc7
I0520 21:30:54.806594 18267 net.cpp:367] relu7 -> fc7 (in-place)
I0520 21:30:54.807370 18267 net.cpp:122] Setting up relu7
I0520 21:30:54.807381 18267 net.cpp:129] Top shape: 50 512 (25600)
I0520 21:30:54.807396 18267 net.cpp:137] Memory required for data: 316178800
I0520 21:30:54.807400 18267 layer_factory.hpp:77] Creating layer drop7
I0520 21:30:54.807405 18267 net.cpp:84] Creating Layer drop7
I0520 21:30:54.807410 18267 net.cpp:406] drop7 <- fc7
I0520 21:30:54.807415 18267 net.cpp:367] drop7 -> fc7 (in-place)
I0520 21:30:54.807437 18267 net.cpp:122] Setting up drop7
I0520 21:30:54.807445 18267 net.cpp:129] Top shape: 50 512 (25600)
I0520 21:30:54.807447 18267 net.cpp:137] Memory required for data: 316281200
I0520 21:30:54.807451 18267 layer_factory.hpp:77] Creating layer fc8
I0520 21:30:54.807456 18267 net.cpp:84] Creating Layer fc8
I0520 21:30:54.807459 18267 net.cpp:406] fc8 <- fc7
I0520 21:30:54.807464 18267 net.cpp:380] fc8 -> fc8
I0520 21:30:54.807611 18267 net.cpp:122] Setting up fc8
I0520 21:30:54.807620 18267 net.cpp:129] Top shape: 50 8 (400)
I0520 21:30:54.807622 18267 net.cpp:137] Memory required for data: 316282800
I0520 21:30:54.807639 18267 layer_factory.hpp:77] Creating layer fc8_fc8_0_split
I0520 21:30:54.807646 18267 net.cpp:84] Creating Layer fc8_fc8_0_split
I0520 21:30:54.807648 18267 net.cpp:406] fc8_fc8_0_split <- fc8
I0520 21:30:54.807653 18267 net.cpp:380] fc8_fc8_0_split -> fc8_fc8_0_split_0
I0520 21:30:54.807660 18267 net.cpp:380] fc8_fc8_0_split -> fc8_fc8_0_split_1
I0520 21:30:54.807693 18267 net.cpp:122] Setting up fc8_fc8_0_split
I0520 21:30:54.807699 18267 net.cpp:129] Top shape: 50 8 (400)
I0520 21:30:54.807715 18267 net.cpp:129] Top shape: 50 8 (400)
I0520 21:30:54.807718 18267 net.cpp:137] Memory required for data: 316286000
I0520 21:30:54.807720 18267 layer_factory.hpp:77] Creating layer accuracy
I0520 21:30:54.807726 18267 net.cpp:84] Creating Layer accuracy
I0520 21:30:54.807730 18267 net.cpp:406] accuracy <- fc8_fc8_0_split_0
I0520 21:30:54.807734 18267 net.cpp:406] accuracy <- label_data_1_split_0
I0520 21:30:54.807739 18267 net.cpp:380] accuracy -> accuracy
…
