…
I0520 18:49:25.536204  7884 net.cpp:51] Initializing net from parameters: 
name: "CaffeNet"
state {
  phase: TRAIN
  level: 0
  stage: ""
}
layer {
  name: "data"
  type: "Data"
  top: "data"
  top: "label"
  include {
    phase: TRAIN
  }
  transform_param {
    mirror: true
    crop_size: 227
    mean_file: "/home/k/PycharmProjects/AgeGenderDeepLearning-master/Folds/lmdb/Test_fold_is_0/mean.binaryproto"
  }
  data_param {
    source: "/home/k/PycharmProjects/AgeGenderDeepLearning-master/Folds/lmdb/Test_fold_is_0/age_train_lmdb"
    batch_size: 50
    backend: LMDB
  }
}
layer {
  name: "conv1"
  type: "Convolution"
  bottom: "data"
  top: "conv1"
  param {
    lr_mult: 1
    decay_mult: 1
  }
  param {
    lr_mult: 2
    decay_mult: 0
  }
  convolution_param {
    num_output: 96
    kernel_size: 7
    stride: 4
    weight_filler {
      type: "gaussian"
      std: 0.01
    }
    bias_filler {
      type: "constant"
      value: 0
    }
  }
}
layer {
  name: "relu1"
  type: "ReLU"
  bottom: "conv1"
  top: "conv1"
}
layer {
  name: "pool1"
  type: "Pooling"
  bottom: "conv1"
  top: "pool1"
  pooling_param {
    pool: MAX
    kernel_size: 3
    stride: 2
  }
}
layer {
  name: "norm1"
  type: "LRN"
  bottom: "pool1"
  top: "norm1"
  lrn_param {
    local_size: 5
    alpha: 0.0001
    beta: 0.75
  }
}
layer {
  name: "conv2"
  type: "Convolution"
  bottom: "norm1"
  top: "conv2"
  param {
    lr_mult: 1
    decay_mult: 1
  }
  param {
    lr_mult: 2
    decay_mult: 0
  }
  convolution_param {
    num_output: 256
    pad: 2
    kernel_size: 5
    weight_filler {
      type: "gaussian"
      std: 0.01
    }
    bias_filler {
      type: "constant"
      value: 1
    }
  }
}
layer {
  name: "relu2"
  type: "ReLU"
  bottom: "conv2"
  top: "conv2"
}
layer {
  name: "pool2"
  type: "Pooling"
  bottom: "conv2"
  top: "pool2"
  pooling_param {
    pool: MAX
    kernel_size: 3
    stride: 2
  }
}
layer {
  name: "norm2"
  type: "LRN"
  bottom: "pool2"
  top: "norm2"
  lrn_param {
    local_size: 5
    alpha: 0.0001
    beta: 0.75
  }
}
layer {
  name: "conv3"
  type: "Convolution"
  bottom: "norm2"
  top: "conv3"
  param {
    lr_mult: 1
    decay_mult: 1
  }
  param {
    lr_mult: 2
    decay_mult: 0
  }
  convolution_param {
    num_output: 384
    pad: 1
    kernel_size: 3
    weight_filler {
      type: "gaussian"
      std: 0.01
    }
    bias_filler {
      type: "constant"
      value: 0
    }
  }
}
layer {
  name: "relu3"
  type: "ReLU"
  bottom: "conv3"
  top: "conv3"
}
layer {
  name: "pool5"
  type: "Pooling"
  bottom: "conv3"
  top: "pool5"
  pooling_param {
    pool: MAX
    kernel_size: 3
    stride: 2
  }
}
layer {
  name: "fc6"
  type: "InnerProduct"
  bottom: "pool5"
  top: "fc6"
  param {
    lr_mult: 1
    decay_mult: 1
  }
  param {
    lr_mult: 2
    decay_mult: 0
  }
  inner_product_param {
    num_output: 512
    weight_filler {
      type: "gaussian"
      std: 0.005
    }
    bias_filler {
      type: "constant"
      value: 1
    }
  }
}
layer {
  name: "relu6"
  type: "ReLU"
  bottom: "fc6"
  top: "fc6"
}
layer {
  name: "drop6"
  type: "Dropout"
  bottom: "fc6"
  top: "fc6"
  dropout_param {
    dropout_ratio: 0.5
  }
}
layer {
  name: "fc7"
  type: "InnerProduct"
  bottom: "fc6"
  top: "fc7"
  param {
    lr_mult: 1
    decay_mult: 1
  }
  param {
    lr_mult: 2
    decay_mult: 0
  }
  inner_product_param {
    num_output: 512
    weight_filler {
      type: "gaussian"
      std: 0.005
    }
    bias_filler {
      type: "constant"
      value: 1
    }
  }
}
layer {
  name: "relu7"
  type: "ReLU"
  bottom: "fc7"
  top: "fc7"
}
layer {
  name: "drop7"
  type: "Dropout"
  bottom: "fc7"
  top: "fc7"
  dropout_param {
    dropout_ratio: 0.5
  }
}
layer {
  name: "fc8"
  type: "InnerProduct"
  bottom: "fc7"
  top: "fc8"
  param {
    lr_mult: 10
    decay_mult: 1
  }
  param {
    lr_mult: 20
    decay_mult: 0
  }
  inner_product_param {
    num_output: 8
    weight_filler {
      type: "gaussian"
      std: 0.01
    }
    bias_filler {
      type: "constant"
      value: 0
    }
  }
}
layer {
  name: "loss"
  type: "SoftmaxWithLoss"
  bottom: "fc8"
  bottom: "label"
  top: "loss"
}
I0520 18:49:25.536303  7884 layer_factory.hpp:77] Creating layer data
I0520 18:49:25.536427  7884 db_lmdb.cpp:35] Opened lmdb /home/k/PycharmProjects/AgeGenderDeepLearning-master/Folds/lmdb/Test_fold_is_0/age_train_lmdb
I0520 18:49:25.536458  7884 net.cpp:84] Creating Layer data
I0520 18:49:25.536469  7884 net.cpp:380] data -> data
I0520 18:49:25.536494  7884 net.cpp:380] data -> label
I0520 18:49:25.536507  7884 data_transformer.cpp:25] Loading mean file from: /home/k/PycharmProjects/AgeGenderDeepLearning-master/Folds/lmdb/Test_fold_is_0/mean.binaryproto
I0520 18:49:25.539513  7884 data_layer.cpp:45] output data size: 50,3,227,227
I0520 18:49:25.603610  7884 net.cpp:122] Setting up data
I0520 18:49:25.603641  7884 net.cpp:129] Top shape: 50 3 227 227 (7729350)
I0520 18:49:25.603646  7884 net.cpp:129] Top shape: 50 (50)
I0520 18:49:25.603649  7884 net.cpp:137] Memory required for data: 30917600
I0520 18:49:25.603674  7884 layer_factory.hpp:77] Creating layer conv1
I0520 18:49:25.603698  7884 net.cpp:84] Creating Layer conv1
I0520 18:49:25.603706  7884 net.cpp:406] conv1 <- data
I0520 18:49:25.603724  7884 net.cpp:380] conv1 -> conv1
I0520 18:49:25.848857  7884 net.cpp:122] Setting up conv1
I0520 18:49:25.848889  7884 net.cpp:129] Top shape: 50 96 56 56 (15052800)
I0520 18:49:25.848893  7884 net.cpp:137] Memory required for data: 91128800
I0520 18:49:25.848917  7884 layer_factory.hpp:77] Creating layer relu1
I0520 18:49:25.848932  7884 net.cpp:84] Creating Layer relu1
I0520 18:49:25.848949  7884 net.cpp:406] relu1 <- conv1
I0520 18:49:25.848958  7884 net.cpp:367] relu1 -> conv1 (in-place)
I0520 18:49:25.849120  7884 net.cpp:122] Setting up relu1
I0520 18:49:25.849131  7884 net.cpp:129] Top shape: 50 96 56 56 (15052800)
I0520 18:49:25.849145  7884 net.cpp:137] Memory required for data: 151340000
I0520 18:49:25.849149  7884 layer_factory.hpp:77] Creating layer pool1
I0520 18:49:25.849156  7884 net.cpp:84] Creating Layer pool1
I0520 18:49:25.849159  7884 net.cpp:406] pool1 <- conv1
I0520 18:49:25.849169  7884 net.cpp:380] pool1 -> pool1
I0520 18:49:25.849216  7884 net.cpp:122] Setting up pool1
I0520 18:49:25.849225  7884 net.cpp:129] Top shape: 50 96 28 28 (3763200)
I0520 18:49:25.849228  7884 net.cpp:137] Memory required for data: 166392800
I0520 18:49:25.849231  7884 layer_factory.hpp:77] Creating layer norm1
I0520 18:49:25.849241  7884 net.cpp:84] Creating Layer norm1
I0520 18:49:25.849244  7884 net.cpp:406] norm1 <- pool1
I0520 18:49:25.849252  7884 net.cpp:380] norm1 -> norm1
I0520 18:49:25.849895  7884 net.cpp:122] Setting up norm1
I0520 18:49:25.849920  7884 net.cpp:129] Top shape: 50 96 28 28 (3763200)
I0520 18:49:25.849923  7884 net.cpp:137] Memory required for data: 181445600
I0520 18:49:25.849926  7884 layer_factory.hpp:77] Creating layer conv2
I0520 18:49:25.849938  7884 net.cpp:84] Creating Layer conv2
I0520 18:49:25.849946  7884 net.cpp:406] conv2 <- norm1
I0520 18:49:25.849970  7884 net.cpp:380] conv2 -> conv2
I0520 18:49:25.858522  7884 net.cpp:122] Setting up conv2
I0520 18:49:25.858558  7884 net.cpp:129] Top shape: 50 256 28 28 (10035200)
I0520 18:49:25.858563  7884 net.cpp:137] Memory required for data: 221586400
I0520 18:49:25.858577  7884 layer_factory.hpp:77] Creating layer relu2
I0520 18:49:25.858585  7884 net.cpp:84] Creating Layer relu2
I0520 18:49:25.858589  7884 net.cpp:406] relu2 <- conv2
I0520 18:49:25.858594  7884 net.cpp:367] relu2 -> conv2 (in-place)
I0520 18:49:25.858747  7884 net.cpp:122] Setting up relu2
I0520 18:49:25.858757  7884 net.cpp:129] Top shape: 50 256 28 28 (10035200)
I0520 18:49:25.858772  7884 net.cpp:137] Memory required for data: 261727200
I0520 18:49:25.858774  7884 layer_factory.hpp:77] Creating layer pool2
I0520 18:49:25.858781  7884 net.cpp:84] Creating Layer pool2
I0520 18:49:25.858784  7884 net.cpp:406] pool2 <- conv2
I0520 18:49:25.858789  7884 net.cpp:380] pool2 -> pool2
I0520 18:49:25.858826  7884 net.cpp:122] Setting up pool2
I0520 18:49:25.858834  7884 net.cpp:129] Top shape: 50 256 14 14 (2508800)
I0520 18:49:25.858837  7884 net.cpp:137] Memory required for data: 271762400
I0520 18:49:25.858841  7884 layer_factory.hpp:77] Creating layer norm2
I0520 18:49:25.858849  7884 net.cpp:84] Creating Layer norm2
I0520 18:49:25.858851  7884 net.cpp:406] norm2 <- pool2
I0520 18:49:25.858856  7884 net.cpp:380] norm2 -> norm2
I0520 18:49:25.859025  7884 net.cpp:122] Setting up norm2
I0520 18:49:25.859035  7884 net.cpp:129] Top shape: 50 256 14 14 (2508800)
I0520 18:49:25.859050  7884 net.cpp:137] Memory required for data: 281797600
I0520 18:49:25.859053  7884 layer_factory.hpp:77] Creating layer conv3
I0520 18:49:25.859062  7884 net.cpp:84] Creating Layer conv3
I0520 18:49:25.859066  7884 net.cpp:406] conv3 <- norm2
I0520 18:49:25.859071  7884 net.cpp:380] conv3 -> conv3
I0520 18:49:25.870584  7884 net.cpp:122] Setting up conv3
I0520 18:49:25.870615  7884 net.cpp:129] Top shape: 50 384 14 14 (3763200)
I0520 18:49:25.870618  7884 net.cpp:137] Memory required for data: 296850400
I0520 18:49:25.870631  7884 layer_factory.hpp:77] Creating layer relu3
I0520 18:49:25.870642  7884 net.cpp:84] Creating Layer relu3
I0520 18:49:25.870646  7884 net.cpp:406] relu3 <- conv3
I0520 18:49:25.870653  7884 net.cpp:367] relu3 -> conv3 (in-place)
I0520 18:49:25.870826  7884 net.cpp:122] Setting up relu3
I0520 18:49:25.870837  7884 net.cpp:129] Top shape: 50 384 14 14 (3763200)
I0520 18:49:25.870841  7884 net.cpp:137] Memory required for data: 311903200
I0520 18:49:25.870844  7884 layer_factory.hpp:77] Creating layer pool5
I0520 18:49:25.870851  7884 net.cpp:84] Creating Layer pool5
I0520 18:49:25.870854  7884 net.cpp:406] pool5 <- conv3
I0520 18:49:25.870860  7884 net.cpp:380] pool5 -> pool5
I0520 18:49:25.870918  7884 net.cpp:122] Setting up pool5
I0520 18:49:25.870928  7884 net.cpp:129] Top shape: 50 384 7 7 (940800)
I0520 18:49:25.870930  7884 net.cpp:137] Memory required for data: 315666400
I0520 18:49:25.870934  7884 layer_factory.hpp:77] Creating layer fc6
I0520 18:49:25.870952  7884 net.cpp:84] Creating Layer fc6
I0520 18:49:25.870956  7884 net.cpp:406] fc6 <- pool5
I0520 18:49:25.870962  7884 net.cpp:380] fc6 -> fc6
I0520 18:49:25.974761  7884 net.cpp:122] Setting up fc6
I0520 18:49:25.974809  7884 net.cpp:129] Top shape: 50 512 (25600)
I0520 18:49:25.974813  7884 net.cpp:137] Memory required for data: 315768800
I0520 18:49:25.974824  7884 layer_factory.hpp:77] Creating layer relu6
I0520 18:49:25.974835  7884 net.cpp:84] Creating Layer relu6
I0520 18:49:25.974840  7884 net.cpp:406] relu6 <- fc6
I0520 18:49:25.974848  7884 net.cpp:367] relu6 -> fc6 (in-place)
I0520 18:49:25.975659  7884 net.cpp:122] Setting up relu6
I0520 18:49:25.975670  7884 net.cpp:129] Top shape: 50 512 (25600)
I0520 18:49:25.975684  7884 net.cpp:137] Memory required for data: 315871200
I0520 18:49:25.975688  7884 layer_factory.hpp:77] Creating layer drop6
I0520 18:49:25.975697  7884 net.cpp:84] Creating Layer drop6
I0520 18:49:25.975700  7884 net.cpp:406] drop6 <- fc6
I0520 18:49:25.975720  7884 net.cpp:367] drop6 -> fc6 (in-place)
I0520 18:49:25.975754  7884 net.cpp:122] Setting up drop6
I0520 18:49:25.975761  7884 net.cpp:129] Top shape: 50 512 (25600)
I0520 18:49:25.975764  7884 net.cpp:137] Memory required for data: 315973600
I0520 18:49:25.975767  7884 layer_factory.hpp:77] Creating layer fc7
I0520 18:49:25.975775  7884 net.cpp:84] Creating Layer fc7
I0520 18:49:25.975778  7884 net.cpp:406] fc7 <- fc6
I0520 18:49:25.975785  7884 net.cpp:380] fc7 -> fc7
I0520 18:49:25.978526  7884 net.cpp:122] Setting up fc7
I0520 18:49:25.978536  7884 net.cpp:129] Top shape: 50 512 (25600)
I0520 18:49:25.978539  7884 net.cpp:137] Memory required for data: 316076000
I0520 18:49:25.978550  7884 layer_factory.hpp:77] Creating layer relu7
I0520 18:49:25.978560  7884 net.cpp:84] Creating Layer relu7
I0520 18:49:25.978565  7884 net.cpp:406] relu7 <- fc7
I0520 18:49:25.978570  7884 net.cpp:367] relu7 -> fc7 (in-place)
I0520 18:49:25.978716  7884 net.cpp:122] Setting up relu7
I0520 18:49:25.978726  7884 net.cpp:129] Top shape: 50 512 (25600)
I0520 18:49:25.978734  7884 net.cpp:137] Memory required for data: 316178400
I0520 18:49:25.978741  7884 layer_factory.hpp:77] Creating layer drop7
I0520 18:49:25.978751  7884 net.cpp:84] Creating Layer drop7
I0520 18:49:25.978757  7884 net.cpp:406] drop7 <- fc7
I0520 18:49:25.978770  7884 net.cpp:367] drop7 -> fc7 (in-place)
I0520 18:49:25.978799  7884 net.cpp:122] Setting up drop7
I0520 18:49:25.978807  7884 net.cpp:129] Top shape: 50 512 (25600)
I0520 18:49:25.978814  7884 net.cpp:137] Memory required for data: 316280800
I0520 18:49:25.978821  7884 layer_factory.hpp:77] Creating layer fc8
I0520 18:49:25.978833  7884 net.cpp:84] Creating Layer fc8
I0520 18:49:25.978839  7884 net.cpp:406] fc8 <- fc7
I0520 18:49:25.978849  7884 net.cpp:380] fc8 -> fc8
I0520 18:49:25.978996  7884 net.cpp:122] Setting up fc8
I0520 18:49:25.979004  7884 net.cpp:129] Top shape: 50 8 (400)
I0520 18:49:25.979012  7884 net.cpp:137] Memory required for data: 316282400
I0520 18:49:25.979023  7884 layer_factory.hpp:77] Creating layer loss
I0520 18:49:25.979034  7884 net.cpp:84] Creating Layer loss
I0520 18:49:25.979039  7884 net.cpp:406] loss <- fc8
I0520 18:49:25.979048  7884 net.cpp:406] loss <- label
I0520 18:49:25.979058  7884 net.cpp:380] loss -> loss
I0520 18:49:25.979073  7884 layer_factory.hpp:77] Creating layer loss
…
I0520 18:49:25.979821  7884 net.cpp:294] The NetState phase (1) differed from the phase (0) specified by a rule in layer data
I0520 18:49:25.979962  7884 net.cpp:51] Initializing net from parameters: 
name: "CaffeNet"
state {
  phase: TEST
}
layer {
  name: "data"
  type: "Data"
  top: "data"
  top: "label"
  include {
    phase: TEST
  }
  transform_param {
    mirror: false
    crop_size: 227
    mean_file: "/home/k/PycharmProjects/AgeGenderDeepLearning-master/Folds/lmdb/Test_fold_is_0/mean.binaryproto"
  }
  data_param {
    source: "/home/k/PycharmProjects/AgeGenderDeepLearning-master/Folds/lmdb/Test_fold_is_0/age_test_lmdb"
    batch_size: 50
    backend: LMDB
  }
}
layer {
  name: "conv1"
  type: "Convolution"
  bottom: "data"
  top: "conv1"
  param {
    lr_mult: 1
    decay_mult: 1
  }
  param {
    lr_mult: 2
    decay_mult: 0
  }
  convolution_param {
    num_output: 96
    kernel_size: 7
    stride: 4
    weight_filler {
      type: "gaussian"
      std: 0.01
    }
    bias_filler {
      type: "constant"
      value: 0
    }
  }
}
layer {
  name: "relu1"
  type: "ReLU"
  bottom: "conv1"
  top: "conv1"
}
layer {
  name: "pool1"
  type: "Pooling"
  bottom: "conv1"
  top: "pool1"
  pooling_param {
    pool: MAX
    kernel_size: 3
    stride: 2
  }
}
layer {
  name: "norm1"
  type: "LRN"
  bottom: "pool1"
  top: "norm1"
  lrn_param {
    local_size: 5
    alpha: 0.0001
    beta: 0.75
  }
}
layer {
  name: "conv2"
  type: "Convolution"
  bottom: "norm1"
  top: "conv2"
  param {
    lr_mult: 1
    decay_mult: 1
  }
  param {
    lr_mult: 2
    decay_mult: 0
  }
  convolution_param {
    num_output: 256
    pad: 2
    kernel_size: 5
    weight_filler {
      type: "gaussian"
      std: 0.01
    }
    bias_filler {
      type: "constant"
      value: 1
    }
  }
}
layer {
  name: "relu2"
  type: "ReLU"
  bottom: "conv2"
  top: "conv2"
}
layer {
  name: "pool2"
  type: "Pooling"
  bottom: "conv2"
  top: "pool2"
  pooling_param {
    pool: MAX
    kernel_size: 3
    stride: 2
  }
}
layer {
  name: "norm2"
  type: "LRN"
  bottom: "pool2"
  top: "norm2"
  lrn_param {
    local_size: 5
    alpha: 0.0001
    beta: 0.75
  }
}
layer {
  name: "conv3"
  type: "Convolution"
  bottom: "norm2"
  top: "conv3"
  param {
    lr_mult: 1
    decay_mult: 1
  }
  param {
    lr_mult: 2
    decay_mult: 0
  }
  convolution_param {
    num_output: 384
    pad: 1
    kernel_size: 3
    weight_filler {
      type: "gaussian"
      std: 0.01
    }
    bias_filler {
      type: "constant"
      value: 0
    }
  }
}
layer {
  name: "relu3"
  type: "ReLU"
  bottom: "conv3"
  top: "conv3"
}
layer {
  name: "pool5"
  type: "Pooling"
  bottom: "conv3"
  top: "pool5"
  pooling_param {
    pool: MAX
    kernel_size: 3
    stride: 2
  }
}
layer {
  name: "fc6"
  type: "InnerProduct"
  bottom: "pool5"
  top: "fc6"
  param {
    lr_mult: 1
    decay_mult: 1
  }
  param {
    lr_mult: 2
    decay_mult: 0
  }
  inner_product_param {
    num_output: 512
    weight_filler {
      type: "gaussian"
      std: 0.005
    }
    bias_filler {
      type: "constant"
      value: 1
    }
  }
}
layer {
  name: "relu6"
  type: "ReLU"
  bottom: "fc6"
  top: "fc6"
}
layer {
  name: "drop6"
  type: "Dropout"
  bottom: "fc6"
  top: "fc6"
  dropout_param {
    dropout_ratio: 0.5
  }
}
layer {
  name: "fc7"
  type: "InnerProduct"
  bottom: "fc6"
  top: "fc7"
  param {
    lr_mult: 1
    decay_mult: 1
  }
  param {
    lr_mult: 2
    decay_mult: 0
  }
  inner_product_param {
    num_output: 512
    weight_filler {
      type: "gaussian"
      std: 0.005
    }
    bias_filler {
      type: "constant"
      value: 1
    }
  }
}
layer {
  name: "relu7"
  type: "ReLU"
  bottom: "fc7"
  top: "fc7"
}
layer {
  name: "drop7"
  type: "Dropout"
  bottom: "fc7"
  top: "fc7"
  dropout_param {
    dropout_ratio: 0.5
  }
}
layer {
  name: "fc8"
  type: "InnerProduct"
  bottom: "fc7"
  top: "fc8"
  param {
    lr_mult: 10
    decay_mult: 1
  }
  param {
    lr_mult: 20
    decay_mult: 0
  }
  inner_product_param {
    num_output: 8
    weight_filler {
      type: "gaussian"
      std: 0.01
    }
    bias_filler {
      type: "constant"
      value: 0
    }
  }
}
layer {
  name: "accuracy"
  type: "Accuracy"
  bottom: "fc8"
  bottom: "label"
  top: "accuracy"
  include {
    phase: TEST
  }
}
layer {
  name: "loss"
  type: "SoftmaxWithLoss"
  bottom: "fc8"
  bottom: "label"
  top: "loss"
}
I0520 18:49:25.980077  7884 layer_factory.hpp:77] Creating layer data
I0520 18:49:26.001343  7884 db_lmdb.cpp:35] Opened lmdb /home/k/PycharmProjects/AgeGenderDeepLearning-master/Folds/lmdb/Test_fold_is_0/age_test_lmdb
I0520 18:49:26.009305  7884 net.cpp:84] Creating Layer data
I0520 18:49:26.009341  7884 net.cpp:380] data -> data
I0520 18:49:26.009357  7884 net.cpp:380] data -> label
I0520 18:49:26.009367  7884 data_transformer.cpp:25] Loading mean file from: /home/k/PycharmProjects/AgeGenderDeepLearning-master/Folds/lmdb/Test_fold_is_0/mean.binaryproto
I0520 18:49:26.023335  7884 data_layer.cpp:45] output data size: 50,3,227,227
I0520 18:49:26.086735  7884 net.cpp:122] Setting up data
I0520 18:49:26.086779  7884 net.cpp:129] Top shape: 50 3 227 227 (7729350)
I0520 18:49:26.086786  7884 net.cpp:129] Top shape: 50 (50)
I0520 18:49:26.086789  7884 net.cpp:137] Memory required for data: 30917600
I0520 18:49:26.086796  7884 layer_factory.hpp:77] Creating layer label_data_1_split
I0520 18:49:26.086809  7884 net.cpp:84] Creating Layer label_data_1_split
I0520 18:49:26.086813  7884 net.cpp:406] label_data_1_split <- label
I0520 18:49:26.086822  7884 net.cpp:380] label_data_1_split -> label_data_1_split_0
I0520 18:49:26.086833  7884 net.cpp:380] label_data_1_split -> label_data_1_split_1
I0520 18:49:26.086896  7884 net.cpp:122] Setting up label_data_1_split
I0520 18:49:26.086905  7884 net.cpp:129] Top shape: 50 (50)
I0520 18:49:26.086910  7884 net.cpp:129] Top shape: 50 (50)
I0520 18:49:26.086912  7884 net.cpp:137] Memory required for data: 30918000
I0520 18:49:26.086915  7884 layer_factory.hpp:77] Creating layer conv1
I0520 18:49:26.086928  7884 net.cpp:84] Creating Layer conv1
I0520 18:49:26.086931  7884 net.cpp:406] conv1 <- data
I0520 18:49:26.086937  7884 net.cpp:380] conv1 -> conv1
I0520 18:49:26.093132  7884 net.cpp:122] Setting up conv1
I0520 18:49:26.093148  7884 net.cpp:129] Top shape: 50 96 56 56 (15052800)
I0520 18:49:26.093152  7884 net.cpp:137] Memory required for data: 91129200
I0520 18:49:26.093163  7884 layer_factory.hpp:77] Creating layer relu1
I0520 18:49:26.093170  7884 net.cpp:84] Creating Layer relu1
I0520 18:49:26.093174  7884 net.cpp:406] relu1 <- conv1
I0520 18:49:26.093179  7884 net.cpp:367] relu1 -> conv1 (in-place)
I0520 18:49:26.093319  7884 net.cpp:122] Setting up relu1
I0520 18:49:26.093329  7884 net.cpp:129] Top shape: 50 96 56 56 (15052800)
I0520 18:49:26.093333  7884 net.cpp:137] Memory required for data: 151340400
I0520 18:49:26.093336  7884 layer_factory.hpp:77] Creating layer pool1
I0520 18:49:26.093343  7884 net.cpp:84] Creating Layer pool1
I0520 18:49:26.093348  7884 net.cpp:406] pool1 <- conv1
I0520 18:49:26.093353  7884 net.cpp:380] pool1 -> pool1
I0520 18:49:26.093389  7884 net.cpp:122] Setting up pool1
I0520 18:49:26.093397  7884 net.cpp:129] Top shape: 50 96 28 28 (3763200)
I0520 18:49:26.093400  7884 net.cpp:137] Memory required for data: 166393200
I0520 18:49:26.093403  7884 layer_factory.hpp:77] Creating layer norm1
I0520 18:49:26.093410  7884 net.cpp:84] Creating Layer norm1
I0520 18:49:26.093413  7884 net.cpp:406] norm1 <- pool1
I0520 18:49:26.093418  7884 net.cpp:380] norm1 -> norm1
I0520 18:49:26.094156  7884 net.cpp:122] Setting up norm1
I0520 18:49:26.094169  7884 net.cpp:129] Top shape: 50 96 28 28 (3763200)
I0520 18:49:26.094172  7884 net.cpp:137] Memory required for data: 181446000
I0520 18:49:26.094177  7884 layer_factory.hpp:77] Creating layer conv2
I0520 18:49:26.094185  7884 net.cpp:84] Creating Layer conv2
I0520 18:49:26.094190  7884 net.cpp:406] conv2 <- norm1
I0520 18:49:26.094197  7884 net.cpp:380] conv2 -> conv2
I0520 18:49:26.102277  7884 net.cpp:122] Setting up conv2
I0520 18:49:26.102305  7884 net.cpp:129] Top shape: 50 256 28 28 (10035200)
I0520 18:49:26.102309  7884 net.cpp:137] Memory required for data: 221586800
I0520 18:49:26.102322  7884 layer_factory.hpp:77] Creating layer relu2
I0520 18:49:26.102332  7884 net.cpp:84] Creating Layer relu2
I0520 18:49:26.102336  7884 net.cpp:406] relu2 <- conv2
I0520 18:49:26.102344  7884 net.cpp:367] relu2 -> conv2 (in-place)
I0520 18:49:26.103122  7884 net.cpp:122] Setting up relu2
I0520 18:49:26.103134  7884 net.cpp:129] Top shape: 50 256 28 28 (10035200)
I0520 18:49:26.103139  7884 net.cpp:137] Memory required for data: 261727600
I0520 18:49:26.103142  7884 layer_factory.hpp:77] Creating layer pool2
I0520 18:49:26.103152  7884 net.cpp:84] Creating Layer pool2
I0520 18:49:26.103157  7884 net.cpp:406] pool2 <- conv2
I0520 18:49:26.103163  7884 net.cpp:380] pool2 -> pool2
I0520 18:49:26.103204  7884 net.cpp:122] Setting up pool2
I0520 18:49:26.103211  7884 net.cpp:129] Top shape: 50 256 14 14 (2508800)
I0520 18:49:26.103216  7884 net.cpp:137] Memory required for data: 271762800
I0520 18:49:26.103219  7884 layer_factory.hpp:77] Creating layer norm2
I0520 18:49:26.103225  7884 net.cpp:84] Creating Layer norm2
I0520 18:49:26.103229  7884 net.cpp:406] norm2 <- pool2
I0520 18:49:26.103235  7884 net.cpp:380] norm2 -> norm2
I0520 18:49:26.103405  7884 net.cpp:122] Setting up norm2
I0520 18:49:26.103415  7884 net.cpp:129] Top shape: 50 256 14 14 (2508800)
I0520 18:49:26.103420  7884 net.cpp:137] Memory required for data: 281798000
I0520 18:49:26.103423  7884 layer_factory.hpp:77] Creating layer conv3
I0520 18:49:26.103433  7884 net.cpp:84] Creating Layer conv3
I0520 18:49:26.103438  7884 net.cpp:406] conv3 <- norm2
I0520 18:49:26.103444  7884 net.cpp:380] conv3 -> conv3
I0520 18:49:26.115968  7884 net.cpp:122] Setting up conv3
I0520 18:49:26.115993  7884 net.cpp:129] Top shape: 50 384 14 14 (3763200)
I0520 18:49:26.115998  7884 net.cpp:137] Memory required for data: 296850800
I0520 18:49:26.116011  7884 layer_factory.hpp:77] Creating layer relu3
I0520 18:49:26.116020  7884 net.cpp:84] Creating Layer relu3
I0520 18:49:26.116027  7884 net.cpp:406] relu3 <- conv3
I0520 18:49:26.116035  7884 net.cpp:367] relu3 -> conv3 (in-place)
I0520 18:49:26.116185  7884 net.cpp:122] Setting up relu3
I0520 18:49:26.116195  7884 net.cpp:129] Top shape: 50 384 14 14 (3763200)
I0520 18:49:26.116200  7884 net.cpp:137] Memory required for data: 311903600
I0520 18:49:26.116204  7884 layer_factory.hpp:77] Creating layer pool5
I0520 18:49:26.116210  7884 net.cpp:84] Creating Layer pool5
I0520 18:49:26.116214  7884 net.cpp:406] pool5 <- conv3
I0520 18:49:26.116219  7884 net.cpp:380] pool5 -> pool5
I0520 18:49:26.116263  7884 net.cpp:122] Setting up pool5
I0520 18:49:26.116272  7884 net.cpp:129] Top shape: 50 384 7 7 (940800)
I0520 18:49:26.116276  7884 net.cpp:137] Memory required for data: 315666800
I0520 18:49:26.116278  7884 layer_factory.hpp:77] Creating layer fc6
I0520 18:49:26.116286  7884 net.cpp:84] Creating Layer fc6
I0520 18:49:26.116291  7884 net.cpp:406] fc6 <- pool5
I0520 18:49:26.116297  7884 net.cpp:380] fc6 -> fc6
I0520 18:49:26.223805  7884 net.cpp:122] Setting up fc6
I0520 18:49:26.223839  7884 net.cpp:129] Top shape: 50 512 (25600)
I0520 18:49:26.223842  7884 net.cpp:137] Memory required for data: 315769200
I0520 18:49:26.223852  7884 layer_factory.hpp:77] Creating layer relu6
I0520 18:49:26.223872  7884 net.cpp:84] Creating Layer relu6
I0520 18:49:26.223879  7884 net.cpp:406] relu6 <- fc6
I0520 18:49:26.223887  7884 net.cpp:367] relu6 -> fc6 (in-place)
I0520 18:49:26.224126  7884 net.cpp:122] Setting up relu6
I0520 18:49:26.224136  7884 net.cpp:129] Top shape: 50 512 (25600)
I0520 18:49:26.224140  7884 net.cpp:137] Memory required for data: 315871600
I0520 18:49:26.224143  7884 layer_factory.hpp:77] Creating layer drop6
I0520 18:49:26.224150  7884 net.cpp:84] Creating Layer drop6
I0520 18:49:26.224153  7884 net.cpp:406] drop6 <- fc6
I0520 18:49:26.224159  7884 net.cpp:367] drop6 -> fc6 (in-place)
I0520 18:49:26.224186  7884 net.cpp:122] Setting up drop6
I0520 18:49:26.224194  7884 net.cpp:129] Top shape: 50 512 (25600)
I0520 18:49:26.224196  7884 net.cpp:137] Memory required for data: 315974000
I0520 18:49:26.224200  7884 layer_factory.hpp:77] Creating layer fc7
I0520 18:49:26.224210  7884 net.cpp:84] Creating Layer fc7
I0520 18:49:26.224215  7884 net.cpp:406] fc7 <- fc6
I0520 18:49:26.224220  7884 net.cpp:380] fc7 -> fc7
I0520 18:49:26.227026  7884 net.cpp:122] Setting up fc7
I0520 18:49:26.227056  7884 net.cpp:129] Top shape: 50 512 (25600)
I0520 18:49:26.227061  7884 net.cpp:137] Memory required for data: 316076400
I0520 18:49:26.227072  7884 layer_factory.hpp:77] Creating layer relu7
I0520 18:49:26.227080  7884 net.cpp:84] Creating Layer relu7
I0520 18:49:26.227084  7884 net.cpp:406] relu7 <- fc7
I0520 18:49:26.227090  7884 net.cpp:367] relu7 -> fc7 (in-place)
I0520 18:49:26.227910  7884 net.cpp:122] Setting up relu7
I0520 18:49:26.227921  7884 net.cpp:129] Top shape: 50 512 (25600)
I0520 18:49:26.227923  7884 net.cpp:137] Memory required for data: 316178800
I0520 18:49:26.227927  7884 layer_factory.hpp:77] Creating layer drop7
I0520 18:49:26.227933  7884 net.cpp:84] Creating Layer drop7
I0520 18:49:26.227936  7884 net.cpp:406] drop7 <- fc7
I0520 18:49:26.227941  7884 net.cpp:367] drop7 -> fc7 (in-place)
I0520 18:49:26.227969  7884 net.cpp:122] Setting up drop7
I0520 18:49:26.227977  7884 net.cpp:129] Top shape: 50 512 (25600)
I0520 18:49:26.227979  7884 net.cpp:137] Memory required for data: 316281200
I0520 18:49:26.227983  7884 layer_factory.hpp:77] Creating layer fc8
I0520 18:49:26.227990  7884 net.cpp:84] Creating Layer fc8
I0520 18:49:26.227994  7884 net.cpp:406] fc8 <- fc7
I0520 18:49:26.227999  7884 net.cpp:380] fc8 -> fc8
I0520 18:49:26.228154  7884 net.cpp:122] Setting up fc8
I0520 18:49:26.228163  7884 net.cpp:129] Top shape: 50 8 (400)
I0520 18:49:26.228166  7884 net.cpp:137] Memory required for data: 316282800
I0520 18:49:26.228181  7884 layer_factory.hpp:77] Creating layer fc8_fc8_0_split
I0520 18:49:26.228188  7884 net.cpp:84] Creating Layer fc8_fc8_0_split
I0520 18:49:26.228193  7884 net.cpp:406] fc8_fc8_0_split <- fc8
I0520 18:49:26.228199  7884 net.cpp:380] fc8_fc8_0_split -> fc8_fc8_0_split_0
I0520 18:49:26.228205  7884 net.cpp:380] fc8_fc8_0_split -> fc8_fc8_0_split_1
I0520 18:49:26.228240  7884 net.cpp:122] Setting up fc8_fc8_0_split
I0520 18:49:26.228248  7884 net.cpp:129] Top shape: 50 8 (400)
I0520 18:49:26.228253  7884 net.cpp:129] Top shape: 50 8 (400)
I0520 18:49:26.228257  7884 net.cpp:137] Memory required for data: 316286000
I0520 18:49:26.228261  7884 layer_factory.hpp:77] Creating layer accuracy
I0520 18:49:26.228267  7884 net.cpp:84] Creating Layer accuracy
I0520 18:49:26.228272  7884 net.cpp:406] accuracy <- fc8_fc8_0_split_0
I0520 18:49:26.228276  7884 net.cpp:406] accuracy <- label_data_1_split_0
I0520 18:49:26.228282  7884 net.cpp:380] accuracy -> accuracy
…
