…
I0528 19:00:47.030879 11123 net.cpp:51] Initializing net from parameters: 
name: "Pre-ResNet-50"
state {
  phase: TRAIN
  level: 0
  stage: ""
}
layer {
  name: "data"
  type: "Data"
  top: "data"
  top: "label"
  include {
    phase: TRAIN
  }
  transform_param {
    mirror: true
    crop_size: 224
    mean_file: "/home/k/PycharmProjects/AgeGenderDeepLearning-master/Folds/lmdb/Test_fold_is_0/mean.binaryproto"
  }
  data_param {
    source: "/home/k/PycharmProjects/AgeGenderDeepLearning-master/Folds/lmdb/Test_fold_is_0/gender_train_lmdb"
    batch_size: 20
    backend: LMDB
  }
}
layer {
  name: "data_bn"
  type: "BatchNorm"
  bottom: "data"
  top: "data_bn"
  param {
    lr_mult: 0
    decay_mult: 0
  }
  param {
    lr_mult: 0
    decay_mult: 0
  }
  param {
    lr_mult: 0
    decay_mult: 0
  }
}
layer {
  name: "data_scale"
  type: "Scale"
  bottom: "data_bn"
  top: "data_bn"
  param {
    lr_mult: 1
    decay_mult: 1
  }
  param {
    lr_mult: 2
    decay_mult: 1
  }
  scale_param {
    bias_term: true
  }
}
layer {
  name: "conv1"
  type: "Convolution"
  bottom: "data_bn"
  top: "conv1"
  param {
    lr_mult: 1
    decay_mult: 1
  }
  param {
    lr_mult: 2
    decay_mult: 1
  }
  convolution_param {
    num_output: 64
    pad: 3
    kernel_size: 7
    stride: 2
    weight_filler {
      type: "msra"
      variance_norm: FAN_OUT
    }
    bias_filler {
      type: "constant"
      value: 0
    }
  }
}
layer {
  name: "conv1_bn"
  type: "BatchNorm"
  bottom: "conv1"
  top: "conv1"
  param {
    lr_mult: 0
    decay_mult: 0
  }
  param {
    lr_mult: 0
    decay_mult: 0
  }
  param {
    lr_mult: 0
    decay_mult: 0
  }
}
layer {
  name: "conv1_scale"
  type: "Scale"
  bottom: "conv1"
  top: "conv1"
  param {
    lr_mult: 1
    decay_mult: 1
  }
  param {
    lr_mult: 2
    decay_mult: 1
  }
  scale_param {
    bias_term: true
  }
}
layer {
  name: "conv1_relu"
  type: "ReLU"
  bottom: "conv1"
  top: "conv1"
}
layer {
  name: "conv1_pool"
  type: "Pooling"
  bottom: "conv1"
  top: "conv1_pool"
  pooling_param {
    kernel_size: 3
    stride: 2
  }
}
layer {
  name: "layer_64_1_conv1"
  type: "Convolution"
  bottom: "conv1_pool"
  top: "layer_64_1_conv1"
  param {
    lr_mult: 1
    decay_mult: 1
  }
  convolution_param {
    num_output: 64
    bias_term: false
    pad: 0
    kernel_size: 1
    stride: 1
    weight_filler {
      type: "msra"
    }
    bias_filler {
      type: "constant"
      value: 0
    }
  }
}
layer {
  name: "layer_64_1_bn2"
  type: "BatchNorm"
  bottom: "layer_64_1_conv1"
  top: "layer_64_1_conv1"
  param {
    lr_mult: 0
    decay_mult: 0
  }
  param {
    lr_mult: 0
    decay_mult: 0
  }
  param {
    lr_mult: 0
    decay_mult: 0
  }
}
layer {
  name: "layer_64_1_scale2"
  type: "Scale"
  bottom: "layer_64_1_conv1"
  top: "layer_64_1_conv1"
  param {
    lr_mult: 1
    decay_mult: 1
  }
  param {
    lr_mult: 2
    decay_mult: 1
  }
  scale_param {
    bias_term: true
  }
}
layer {
  name: "layer_64_1_relu2"
  type: "ReLU"
  bottom: "layer_64_1_conv1"
  top: "layer_64_1_conv1"
}
layer {
  name: "layer_64_1_conv2"
  type: "Convolution"
  bottom: "layer_64_1_conv1"
  top: "layer_64_1_conv2"
  param {
    lr_mult: 1
    decay_mult: 1
  }
  convolution_param {
    num_output: 64
    bias_term: false
    pad: 1
    kernel_size: 3
    stride: 1
    weight_filler {
      type: "msra"
    }
    bias_filler {
      type: "constant"
      value: 0
    }
  }
}
layer {
  name: "layer_64_1_bn3"
  type: "BatchNorm"
  bottom: "layer_64_1_conv2"
  top: "layer_64_1_conv2"
  param {
    lr_mult: 0
    decay_mult: 0
  }
  param {
    lr_mult: 0
    decay_mult: 0
  }
  param {
    lr_mult: 0
    decay_mult: 0
  }
}
layer {
  name: "layer_64_1_scale3"
  type: "Scale"
  bottom: "layer_64_1_conv2"
  top: "layer_64_1_conv2"
  param {
    lr_mult: 1
    decay_mult: 1
  }
  param {
    lr_mult: 2
    decay_mult: 1
  }
  scale_param {
    bias_term: true
  }
}
layer {
  name: "layer_64_1_relu3"
  type: "ReLU"
  bottom: "layer_64_1_conv2"
  top: "layer_64_1_conv2"
}
layer {
  name: "layer_64_1_conv3"
  type: "Convolution"
  bottom: "layer_64_1_conv2"
  top: "layer_64_1_conv3"
  param {
    lr_mult: 1
    decay_mult: 1
  }
  convolution_param {
    num_output: 256
    bias_term: false
    pad: 0
    kernel_size: 1
    stride: 1
    weight_filler {
      type: "msra"
    }
    bias_filler {
      type: "constant"
      value: 0
    }
  }
}
layer {
  name: "layer_64_1_conv_expand"
  type: "Convolution"
  bottom: "layer_64_1_conv1"
  top: "layer_64_1_conv_expand"
  param {
    lr_mult: 1
    decay_mult: 1
  }
  convolution_param {
    num_output: 256
    bias_term: false
    pad: 0
    kernel_size: 1
    stride: 1
    weight_filler {
      type: "msra"
    }
    bias_filler {
      type: "constant"
      value: 0
    }
  }
}
layer {
  name: "layer_64_1_sum"
  type: "Eltwise"
  bottom: "layer_64_1_conv3"
  bottom: "layer_64_1_conv_expand"
  top: "layer_64_1_sum"
}
layer {
  name: "layer_64_2_bn1"
  type: "BatchNorm"
  bottom: "layer_64_1_sum"
  top: "layer_64_2_bn1"
  param {
    lr_mult: 0
    decay_mult: 0
  }
  param {
    lr_mult: 0
    decay_mult: 0
  }
  param {
    lr_mult: 0
    decay_mult: 0
  }
}
layer {
  name: "layer_64_2_scale1"
  type: "Scale"
  bottom: "layer_64_2_bn1"
  top: "layer_64_2_bn1"
  param {
    lr_mult: 1
    decay_mult: 1
  }
  param {
    lr_mult: 2
    decay_mult: 1
  }
  scale_param {
    bias_term: true
  }
}
layer {
  name: "layer_64_2_relu1"
  type: "ReLU"
  bottom: "layer_64_2_bn1"
  top: "layer_64_2_bn1"
}
layer {
  name: "layer_64_2_conv1"
  type: "Convolution"
  bottom: "layer_64_2_bn1"
  top: "layer_64_2_conv1"
  param {
    lr_mult: 1
    decay_mult: 1
  }
  convolution_param {
    num_output: 64
    bias_term: false
    pad: 0
    kernel_size: 1
    stride: 1
    weight_filler {
      type: "msra"
    }
    bias_filler {
      type: "constant"
      value: 0
    }
  }
}
layer {
  name: "layer_64_2_bn2"
  type: "BatchNorm"
  bottom: "layer_64_2_conv1"
  top: "layer_64_2_conv1"
  param {
    lr_mult: 0
    decay_mult: 0
  }
  param {
    lr_mult: 0
    decay_mult: 0
  }
  param {
    lr_mult: 0
    decay_mult: 0
  }
}
layer {
  name: "layer_64_2_scale2"
  type: "Scale"
  bottom: "layer_64_2_conv1"
  top: "layer_64_2_conv1"
  param {
    lr_mult: 1
    decay_mult: 1
  }
  param {
    lr_mult: 2
    decay_mult: 1
  }
  scale_param {
    bias_term: true
  }
}
layer {
  name: "layer_64_2_relu2"
  type: "ReLU"
  bottom: "layer_64_2_conv1"
  top: "layer_64_2_conv1"
}
layer {
  name: "layer_64_2_conv2"
  type: "Convolution"
  bottom: "layer_64_2_conv1"
  top: "layer_64_2_conv2"
  param {
    lr_mult: 1
    decay_mult: 1
  }
  convolution_param {
    num_output: 64
    bias_term: false
    pad: 1
    kernel_size: 3
    stride: 1
    weight_filler {
      type: "msra"
    }
    bias_filler {
      type: "constant"
      value: 0
    }
  }
}
layer {
  name: "layer_64_2_bn3"
  type: "BatchNorm"
  bottom: "layer_64_2_conv2"
  top: "layer_64_2_conv2"
  param {
    lr_mult: 0
    decay_mult: 0
  }
  param {
    lr_mult: 0
    decay_mult: 0
  }
  param {
    lr_mult: 0
    decay_mult: 0
  }
}
layer {
  name: "layer_64_2_scale3"
  type: "Scale"
  bottom: "layer_64_2_conv2"
  top: "layer_64_2_conv2"
  param {
    lr_mult: 1
    decay_mult: 1
  }
  param {
    lr_mult: 2
    decay_mult: 1
  }
  scale_param {
    bias_term: true
  }
}
layer {
  name: "layer_64_2_relu3"
  type: "ReLU"
  bottom: "layer_64_2_conv2"
  top: "layer_64_2_conv2"
}
layer {
  name: "layer_64_2_conv3"
  type: "Convolution"
  bottom: "layer_64_2_conv2"
  top: "layer_64_2_conv3"
  param {
    lr_mult: 1
    decay_mult: 1
  }
  convolution_param {
    num_output: 256
    bias_term: false
    pad: 0
    kernel_size: 1
    stride: 1
    weight_filler {
      type: "msra"
    }
    bias_filler {
      type: "constant"
      value: 0
    }
  }
}
layer {
  name: "layer_64_2_sum"
  type: "Eltwise"
  bottom: "layer_64_2_conv3"
  bottom: "layer_64_1_sum"
  top: "layer_64_2_sum"
}
layer {
  name: "layer_64_3_bn1"
  type: "BatchNorm"
  bottom: "layer_64_2_sum"
  top: "layer_64_3_bn1"
  param {
    lr_mult: 0
    decay_mult: 0
  }
  param {
    lr_mult: 0
    decay_mult: 0
  }
  param {
    lr_mult: 0
    decay_mult: 0
  }
}
layer {
  name: "layer_64_3_scale1"
  type: "Scale"
  bottom: "layer_64_3_bn1"
  top: "layer_64_3_bn1"
  param {
    lr_mult: 1
    decay_mult: 1
  }
  param {
    lr_mult: 2
    decay_mult: 1
  }
  scale_param {
    bias_term: true
  }
}
layer {
  name: "layer_64_3_relu1"
  type: "ReLU"
  bottom: "layer_64_3_bn1"
  top: "layer_64_3_bn1"
}
layer {
  name: "layer_64_3_conv1"
  type: "Convolution"
  bottom: "layer_64_3_bn1"
  top: "layer_64_3_conv1"
  param {
    lr_mult: 1
    decay_mult: 1
  }
  convolution_param {
    num_output: 64
    bias_term: false
    pad: 0
    kernel_size: 1
    stride: 1
    weight_filler {
      type: "msra"
    }
    bias_filler {
      type: "constant"
      value: 0
    }
  }
}
layer {
  name: "layer_64_3_bn2"
  type: "BatchNorm"
  bottom: "layer_64_3_conv1"
  top: "layer_64_3_conv1"
  param {
    lr_mult: 0
    decay_mult: 0
  }
  param {
    lr_mult: 0
    decay_mult: 0
  }
  param {
    lr_mult: 0
    decay_mult: 0
  }
}
layer {
  name: "layer_64_3_scale2"
  type: "Scale"
  bottom: "layer_64_3_conv1"
  top: "layer_64_3_conv1"
  param {
    lr_mult: 1
    decay_mult: 1
  }
  param {
    lr_mult: 2
    decay_mult: 1
  }
  scale_param {
    bias_term: true
  }
}
layer {
  name: "layer_64_3_relu2"
  type: "ReLU"
  bottom: "layer_64_3_conv1"
  top: "layer_64_3_conv1"
}
layer {
  name: "layer_64_3_conv2"
  type: "Convolution"
  bottom: "layer_64_3_conv1"
  top: "layer_64_3_conv2"
  param {
    lr_mult: 1
    decay_mult: 1
  }
  convolution_param {
    num_output: 64
    bias_term: false
    pad: 1
    kernel_size: 3
    stride: 1
    weight_filler {
      type: "msra"
    }
    bias_filler {
      type: "constant"
      value: 0
    }
  }
}
layer {
  name: "layer_64_3_bn3"
  type: "BatchNorm"
  bottom: "layer_64_3_conv2"
  top: "layer_64_3_conv2"
  param {
    lr_mult: 0
    decay_mult: 0
  }
  param {
    lr_mult: 0
    decay_mult: 0
  }
  param {
    lr_mult: 0
    decay_mult: 0
  }
}
layer {
  name: "layer_64_3_scale3"
  type: "Scale"
  bottom: "layer_64_3_conv2"
  top: "layer_64_3_conv2"
  param {
    lr_mult: 1
    decay_mult: 1
  }
  param {
    lr_mult: 2
    decay_mult: 1
  }
  scale_param {
    bias_term: true
  }
}
layer {
  name: "layer_64_3_relu3"
  type: "ReLU"
  bottom: "layer_64_3_conv2"
  top: "layer_64_3_conv2"
}
layer {
  name: "layer_64_3_conv3"
  type: "Convolution"
  bottom: "layer_64_3_conv2"
  top: "layer_64_3_conv3"
  param {
    lr_mult: 1
    decay_mult: 1
  }
  convolution_param {
    num_output: 256
    bias_term: false
    pad: 0
    kernel_size: 1
    stride: 1
    weight_filler {
      type: "msra"
    }
    bias_filler {
      type: "constant"
      value: 0
    }
  }
}
layer {
  name: "layer_64_3_sum"
  type: "Eltwise"
  bottom: "layer_64_3_conv3"
  bottom: "layer_64_2_sum"
  top: "layer_64_3_sum"
}
layer {
  name: "layer_128_1_bn1"
  type: "BatchNorm"
  bottom: "layer_64_3_sum"
  top: "layer_128_1_bn1"
  param {
    lr_mult: 0
    decay_mult: 0
  }
  param {
    lr_mult: 0
    decay_mult: 0
  }
  param {
    lr_mult: 0
    decay_mult: 0
  }
}
layer {
  name: "layer_128_1_scale1"
  type: "Scale"
  bottom: "layer_128_1_bn1"
  top: "layer_128_1_bn1"
  param {
    lr_mult: 1
    decay_mult: 1
  }
  param {
    lr_mult: 2
    decay_mult: 1
  }
  scale_param {
    bias_term: true
  }
}
layer {
  name: "layer_128_1_relu1"
  type: "ReLU"
  bottom: "layer_128_1_bn1"
  top: "layer_128_1_bn1"
}
layer {
  name: "layer_128_1_conv1"
  type: "Convolution"
  bottom: "layer_128_1_bn1"
  top: "layer_128_1_conv1"
  param {
    lr_mult: 1
    decay_mult: 1
  }
  convolution_param {
    num_output: 128
    bias_term: false
    pad: 0
    kernel_size: 1
    stride: 1
    weight_filler {
      type: "msra"
    }
    bias_filler {
      type: "constant"
      value: 0
    }
  }
}
layer {
  name: "layer_128_1_bn2"
  type: "BatchNorm"
  bottom: "layer_128_1_conv1"
  top: "layer_128_1_conv1"
  param {
    lr_mult: 0
    decay_mult: 0
  }
  param {
    lr_mult: 0
    decay_mult: 0
  }
  param {
    lr_mult: 0
    decay_mult: 0
  }
}
layer {
  name: "layer_128_1_scale2"
  type: "Scale"
  bottom: "layer_128_1_conv1"
  top: "layer_128_1_conv1"
  param {
    lr_mult: 1
    decay_mult: 1
  }
  param {
    lr_mult: 2
    decay_mult: 1
  }
  scale_param {
    bias_term: true
  }
}
layer {
  name: "layer_128_1_relu2"
  type: "ReLU"
  bottom: "layer_128_1_conv1"
  top: "layer_128_1_conv1"
}
layer {
  name: "layer_128_1_conv2"
  type: "Convolution"
  bottom: "layer_128_1_conv1"
  top: "layer_128_1_conv2"
  param {
    lr_mult: 1
    decay_mult: 1
  }
  convolution_param {
    num_output: 128
    bias_term: false
    pad: 1
    kernel_size: 3
    stride: 2
    weight_filler {
      type: "msra"
    }
    bias_filler {
      type: "constant"
      value: 0
    }
  }
}
layer {
  name: "layer_128_1_bn3"
  type: "BatchNorm"
  bottom: "layer_128_1_conv2"
  top: "layer_128_1_conv2"
  param {
    lr_mult: 0
    decay_mult: 0
  }
  param {
    lr_mult: 0
    decay_mult: 0
  }
  param {
    lr_mult: 0
    decay_mult: 0
  }
}
layer {
  name: "layer_128_1_scale3"
  type: "Scale"
  bottom: "layer_128_1_conv2"
  top: "layer_128_1_conv2"
  param {
    lr_mult: 1
    decay_mult: 1
  }
  param {
    lr_mult: 2
    decay_mult: 1
  }
  scale_param {
    bias_term: true
  }
}
layer {
  name: "layer_128_1_relu3"
  type: "ReLU"
  bottom: "layer_128_1_conv2"
  top: "layer_128_1_conv2"
}
layer {
  name: "layer_128_1_conv3"
  type: "Convolution"
  bottom: "layer_128_1_conv2"
  top: "layer_128_1_conv3"
  param {
    lr_mult: 1
    decay_mult: 1
  }
  convolution_param {
    num_output: 512
    bias_term: false
    pad: 0
    kernel_size: 1
    stride: 1
    weight_filler {
      type: "msra"
    }
    bias_filler {
      type: "constant"
      value: 0
    }
  }
}
layer {
  name: "layer_128_1_conv_expand"
  type: "Convolution"
  bottom: "layer_128_1_bn1"
  top: "layer_128_1_conv_expand"
  param {
    lr_mult: 1
    decay_mult: 1
  }
  convolution_param {
    num_output: 512
    bias_term: false
    pad: 0
    kernel_size: 1
    stride: 2
    weight_filler {
      type: "msra"
    }
    bias_filler {
      type: "constant"
      value: 0
    }
  }
}
layer {
  name: "layer_128_1_sum"
  type: "Eltwise"
  bottom: "layer_128_1_conv3"
  bottom: "layer_128_1_conv_expand"
  top: "layer_128_1_sum"
}
layer {
  name: "layer_128_2_bn1"
  type: "BatchNorm"
  bottom: "layer_128_1_sum"
  top: "layer_128_2_bn1"
  param {
    lr_mult: 0
    decay_mult: 0
  }
  param {
    lr_mult: 0
    decay_mult: 0
  }
  param {
    lr_mult: 0
    decay_mult: 0
  }
}
layer {
  name: "layer_128_2_scale1"
  type: "Scale"
  bottom: "layer_128_2_bn1"
  top: "layer_128_2_bn1"
  param {
    lr_mult: 1
    decay_mult: 1
  }
  param {
    lr_mult: 2
    decay_mult: 1
  }
  scale_param {
    bias_term: true
  }
}
layer {
  name: "layer_128_2_relu1"
  type: "ReLU"
  bottom: "layer_128_2_bn1"
  top: "layer_128_2_bn1"
}
layer {
  name: "layer_128_2_conv1"
  type: "Convolution"
  bottom: "layer_128_2_bn1"
  top: "layer_128_2_conv1"
  param {
    lr_mult: 1
    decay_mult: 1
  }
  convolution_param {
    num_output: 128
    bias_term: false
    pad: 0
    kernel_size: 1
    stride: 1
    weight_filler {
      type: "msra"
    }
    bias_filler {
      type: "constant"
      value: 0
    }
  }
}
layer {
  name: "layer_128_2_bn2"
  type: "BatchNorm"
  bottom: "layer_128_2_conv1"
  top: "layer_128_2_conv1"
  param {
    lr_mult: 0
    decay_mult: 0
  }
  param {
    lr_mult: 0
    decay_mult: 0
  }
  param {
    lr_mult: 0
    decay_mult: 0
  }
}
layer {
  name: "layer_128_2_scale2"
  type: "Scale"
  bottom: "layer_128_2_conv1"
  top: "layer_128_2_conv1"
  param {
    lr_mult: 1
    decay_mult: 1
  }
  param {
    lr_mult: 2
    decay_mult: 1
  }
  scale_param {
    bias_term: true
  }
}
layer {
  name: "layer_128_2_relu2"
  type: "ReLU"
  bottom: "layer_128_2_conv1"
  top: "layer_128_2_conv1"
}
layer {
  name: "layer_128_2_conv2"
  type: "Convolution"
  bottom: "layer_128_2_conv1"
  top: "layer_128_2_conv2"
  param {
    lr_mult: 1
    decay_mult: 1
  }
  convolution_param {
    num_output: 128
    bias_term: false
    pad: 1
    kernel_size: 3
    stride: 1
    weight_filler {
      type: "msra"
    }
    bias_filler {
      type: "constant"
      value: 0
    }
  }
}
layer {
  name: "layer_128_2_bn3"
  type: "BatchNorm"
  bottom: "layer_128_2_conv2"
  top: "layer_128_2_conv2"
  param {
    lr_mult: 0
    decay_mult: 0
  }
  param {
    lr_mult: 0
    decay_mult: 0
  }
  param {
    lr_mult: 0
    decay_mult: 0
  }
}
layer {
  name: "layer_128_2_scale3"
  type: "Scale"
  bottom: "layer_128_2_conv2"
  top: "layer_128_2_conv2"
  param {
    lr_mult: 1
    decay_mult: 1
  }
  param {
    lr_mult: 2
    decay_mult: 1
  }
  scale_param {
    bias_term: true
  }
}
layer {
  name: "layer_128_2_relu3"
  type: "ReLU"
  bottom: "layer_128_2_conv2"
  top: "layer_128_2_conv2"
}
layer {
  name: "layer_128_2_conv3"
  type: "Convolution"
  bottom: "layer_128_2_conv2"
  top: "layer_128_2_conv3"
  param {
    lr_mult: 1
    decay_mult: 1
  }
  convolution_param {
    num_output: 512
    bias_term: false
    pad: 0
    kernel_size: 1
    stride: 1
    weight_filler {
      type: "msra"
    }
    bias_filler {
      type: "constant"
      value: 0
    }
  }
}
layer {
  name: "layer_128_2_sum"
  type: "Eltwise"
  bottom: "layer_128_2_conv3"
  bottom: "layer_128_1_sum"
  top: "layer_128_2_sum"
}
layer {
  name: "layer_128_3_bn1"
  type: "BatchNorm"
  bottom: "layer_128_2_sum"
  top: "layer_128_3_bn1"
  param {
    lr_mult: 0
    decay_mult: 0
  }
  param {
    lr_mult: 0
    decay_mult: 0
  }
  param {
    lr_mult: 0
    decay_mult: 0
  }
}
layer {
  name: "layer_128_3_scale1"
  type: "Scale"
  bottom: "layer_128_3_bn1"
  top: "layer_128_3_bn1"
  param {
    lr_mult: 1
    decay_mult: 1
  }
  param {
    lr_mult: 2
    decay_mult: 1
  }
  scale_param {
    bias_term: true
  }
}
layer {
  name: "layer_128_3_relu1"
  type: "ReLU"
  bottom: "layer_128_3_bn1"
  top: "layer_128_3_bn1"
}
layer {
  name: "layer_128_3_conv1"
  type: "Convolution"
  bottom: "layer_128_3_bn1"
  top: "layer_128_3_conv1"
  param {
    lr_mult: 1
    decay_mult: 1
  }
  convolution_param {
    num_output: 128
    bias_term: false
    pad: 0
    kernel_size: 1
    stride: 1
    weight_filler {
      type: "msra"
    }
    bias_filler {
      type: "constant"
      value: 0
    }
  }
}
layer {
  name: "layer_128_3_bn2"
  type: "BatchNorm"
  bottom: "layer_128_3_conv1"
  top: "layer_128_3_conv1"
  param {
    lr_mult: 0
    decay_mult: 0
  }
  param {
    lr_mult: 0
    decay_mult: 0
  }
  param {
    lr_mult: 0
    decay_mult: 0
  }
}
layer {
  name: "layer_128_3_scale2"
  type: "Scale"
  bottom: "layer_128_3_conv1"
  top: "layer_128_3_conv1"
  param {
    lr_mult: 1
    decay_mult: 1
  }
  param {
    lr_mult: 2
    decay_mult: 1
  }
  scale_param {
    bias_term: true
  }
}
layer {
  name: "layer_128_3_relu2"
  type: "ReLU"
  bottom: "layer_128_3_conv1"
  top: "layer_128_3_conv1"
}
layer {
  name: "layer_128_3_conv2"
  type: "Convolution"
  bottom: "layer_128_3_conv1"
  top: "layer_128_3_conv2"
  param {
    lr_mult: 1
    decay_mult: 1
  }
  convolution_param {
    num_output: 128
    bias_term: false
    pad: 1
    kernel_size: 3
    stride: 1
    weight_filler {
      type: "msra"
    }
    bias_filler {
      type: "constant"
      value: 0
    }
  }
}
layer {
  name: "layer_128_3_bn3"
  type: "BatchNorm"
  bottom: "layer_128_3_conv2"
  top: "layer_128_3_conv2"
  param {
    lr_mult: 0
    decay_mult: 0
  }
  param {
    lr_mult: 0
    decay_mult: 0
  }
  param {
    lr_mult: 0
    decay_mult: 0
  }
}
layer {
  name: "layer_128_3_scale3"
  type: "Scale"
  bottom: "layer_128_3_conv2"
  top: "layer_128_3_conv2"
  param {
    lr_mult: 1
    decay_mult: 1
  }
  param {
    lr_mult: 2
    decay_mult: 1
  }
  scale_param {
    bias_term: true
  }
}
layer {
  name: "layer_128_3_relu3"
  type: "ReLU"
  bottom: "layer_128_3_conv2"
  top: "layer_128_3_conv2"
}
layer {
  name: "layer_128_3_conv3"
  type: "Convolution"
  bottom: "layer_128_3_conv2"
  top: "layer_128_3_conv3"
  param {
    lr_mult: 1
    decay_mult: 1
  }
  convolution_param {
    num_output: 512
    bias_term: false
    pad: 0
    kernel_size: 1
    stride: 1
    weight_filler {
      type: "msra"
    }
    bias_filler {
      type: "constant"
      value: 0
    }
  }
}
layer {
  name: "layer_128_3_sum"
  type: "Eltwise"
  bottom: "layer_128_3_conv3"
  bottom: "layer_128_2_sum"
  top: "layer_128_3_sum"
}
layer {
  name: "layer_128_4_bn1"
  type: "BatchNorm"
  bottom: "layer_128_3_sum"
  top: "layer_128_4_bn1"
  param {
    lr_mult: 0
    decay_mult: 0
  }
  param {
    lr_mult: 0
    decay_mult: 0
  }
  param {
    lr_mult: 0
    decay_mult: 0
  }
}
layer {
  name: "layer_128_4_scale1"
  type: "Scale"
  bottom: "layer_128_4_bn1"
  top: "layer_128_4_bn1"
  param {
    lr_mult: 1
    decay_mult: 1
  }
  param {
    lr_mult: 2
    decay_mult: 1
  }
  scale_param {
    bias_term: true
  }
}
layer {
  name: "layer_128_4_relu1"
  type: "ReLU"
  bottom: "layer_128_4_bn1"
  top: "layer_128_4_bn1"
}
layer {
  name: "layer_128_4_conv1"
  type: "Convolution"
  bottom: "layer_128_4_bn1"
  top: "layer_128_4_conv1"
  param {
    lr_mult: 1
    decay_mult: 1
  }
  convolution_param {
    num_output: 128
    bias_term: false
    pad: 0
    kernel_size: 1
    stride: 1
    weight_filler {
      type: "msra"
    }
    bias_filler {
      type: "constant"
      value: 0
    }
  }
}
layer {
  name: "layer_128_4_bn2"
  type: "BatchNorm"
  bottom: "layer_128_4_conv1"
  top: "layer_128_4_conv1"
  param {
    lr_mult: 0
    decay_mult: 0
  }
  param {
    lr_mult: 0
    decay_mult: 0
  }
  param {
    lr_mult: 0
    decay_mult: 0
  }
}
layer {
  name: "layer_128_4_scale2"
  type: "Scale"
  bottom: "layer_128_4_conv1"
  top: "layer_128_4_conv1"
  param {
    lr_mult: 1
    decay_mult: 1
  }
  param {
    lr_mult: 2
    decay_mult: 1
  }
  scale_param {
    bias_term: true
  }
}
layer {
  name: "layer_128_4_relu2"
  type: "ReLU"
  bottom: "layer_128_4_conv1"
  top: "layer_128_4_conv1"
}
layer {
  name: "layer_128_4_conv2"
  type: "Convolution"
  bottom: "layer_128_4_conv1"
  top: "layer_128_4_conv2"
  param {
    lr_mult: 1
    decay_mult: 1
  }
  convolution_param {
    num_output: 128
    bias_term: false
    pad: 1
    kernel_size: 3
    stride: 1
    weight_filler {
      type: "msra"
    }
    bias_filler {
      type: "constant"
      value: 0
    }
  }
}
layer {
  name: "layer_128_4_bn3"
  type: "BatchNorm"
  bottom: "layer_128_4_conv2"
  top: "layer_128_4_conv2"
  param {
    lr_mult: 0
    decay_mult: 0
  }
  param {
    lr_mult: 0
    decay_mult: 0
  }
  param {
    lr_mult: 0
    decay_mult: 0
  }
}
layer {
  name: "layer_128_4_scale3"
  type: "Scale"
  bottom: "layer_128_4_conv2"
  top: "layer_128_4_conv2"
  param {
    lr_mult: 1
    decay_mult: 1
  }
  param {
    lr_mult: 2
    decay_mult: 1
  }
  scale_param {
    bias_term: true
  }
}
layer {
  name: "layer_128_4_relu3"
  type: "ReLU"
  bottom: "layer_128_4_conv2"
  top: "layer_128_4_conv2"
}
layer {
  name: "layer_128_4_conv3"
  type: "Convolution"
  bottom: "layer_128_4_conv2"
  top: "layer_128_4_conv3"
  param {
    lr_mult: 1
    decay_mult: 1
  }
  convolution_param {
    num_output: 512
    bias_term: false
    pad: 0
    kernel_size: 1
    stride: 1
    weight_filler {
      type: "msra"
    }
    bias_filler {
      type: "constant"
      value: 0
    }
  }
}
layer {
  name: "layer_128_4_sum"
  type: "Eltwise"
  bottom: "layer_128_4_conv3"
  bottom: "layer_128_3_sum"
  top: "layer_128_4_sum"
}
layer {
  name: "layer_256_1_bn1"
  type: "BatchNorm"
  bottom: "layer_128_4_sum"
  top: "layer_256_1_bn1"
  param {
    lr_mult: 0
    decay_mult: 0
  }
  param {
    lr_mult: 0
    decay_mult: 0
  }
  param {
    lr_mult: 0
    decay_mult: 0
  }
}
layer {
  name: "layer_256_1_scale1"
  type: "Scale"
  bottom: "layer_256_1_bn1"
  top: "layer_256_1_bn1"
  param {
    lr_mult: 1
    decay_mult: 1
  }
  param {
    lr_mult: 2
    decay_mult: 1
  }
  scale_param {
    bias_term: true
  }
}
layer {
  name: "layer_256_1_relu1"
  type: "ReLU"
  bottom: "layer_256_1_bn1"
  top: "layer_256_1_bn1"
}
layer {
  name: "layer_256_1_conv1"
  type: "Convolution"
  bottom: "layer_256_1_bn1"
  top: "layer_256_1_conv1"
  param {
    lr_mult: 1
    decay_mult: 1
  }
  convolution_param {
    num_output: 256
    bias_term: false
    pad: 0
    kernel_size: 1
    stride: 1
    weight_filler {
      type: "msra"
    }
    bias_filler {
      type: "constant"
      value: 0
    }
  }
}
layer {
  name: "layer_256_1_bn2"
  type: "BatchNorm"
  bottom: "layer_256_1_conv1"
  top: "layer_256_1_conv1"
  param {
    lr_mult: 0
    decay_mult: 0
  }
  param {
    lr_mult: 0
    decay_mult: 0
  }
  param {
    lr_mult: 0
    decay_mult: 0
  }
}
layer {
  name: "layer_256_1_scale2"
  type: "Scale"
  bottom: "layer_256_1_conv1"
  top: "layer_256_1_conv1"
  param {
    lr_mult: 1
    decay_mult: 1
  }
  param {
    lr_mult: 2
    decay_mult: 1
  }
  scale_param {
    bias_term: true
  }
}
layer {
  name: "layer_256_1_relu2"
  type: "ReLU"
  bottom: "layer_256_1_conv1"
  top: "layer_256_1_conv1"
}
layer {
  name: "layer_256_1_conv2"
  type: "Convolution"
  bottom: "layer_256_1_conv1"
  top: "layer_256_1_conv2"
  param {
    lr_mult: 1
    decay_mult: 1
  }
  convolution_param {
    num_output: 256
    bias_term: false
    pad: 1
    kernel_size: 3
    stride: 2
    weight_filler {
      type: "msra"
    }
    bias_filler {
      type: "constant"
      value: 0
    }
  }
}
layer {
  name: "layer_256_1_bn3"
  type: "BatchNorm"
  bottom: "layer_256_1_conv2"
  top: "layer_256_1_conv2"
  param {
    lr_mult: 0
    decay_mult: 0
  }
  param {
    lr_mult: 0
    decay_mult: 0
  }
  param {
    lr_mult: 0
    decay_mult: 0
  }
}
layer {
  name: "layer_256_1_scale3"
  type: "Scale"
  bottom: "layer_256_1_conv2"
  top: "layer_256_1_conv2"
  param {
    lr_mult: 1
    decay_mult: 1
  }
  param {
    lr_mult: 2
    decay_mult: 1
  }
  scale_param {
    bias_term: true
  }
}
layer {
  name: "layer_256_1_relu3"
  type: "ReLU"
  bottom: "layer_256_1_conv2"
  top: "layer_256_1_conv2"
}
layer {
  name: "layer_256_1_conv3"
  type: "Convolution"
  bottom: "layer_256_1_conv2"
  top: "layer_256_1_conv3"
  param {
    lr_mult: 1
    decay_mult: 1
  }
  convolution_param {
    num_output: 1024
    bias_term: false
    pad: 0
    kernel_size: 1
    stride: 1
    weight_filler {
      type: "msra"
    }
    bias_filler {
      type: "constant"
      value: 0
    }
  }
}
layer {
  name: "layer_256_1_conv_expand"
  type: "Convolution"
  bottom: "layer_256_1_bn1"
  top: "layer_256_1_conv_expand"
  param {
    lr_mult: 1
    decay_mult: 1
  }
  convolution_param {
    num_output: 1024
    bias_term: false
    pad: 0
    kernel_size: 1
    stride: 2
    weight_filler {
      type: "msra"
    }
    bias_filler {
      type: "constant"
      value: 0
    }
  }
}
layer {
  name: "layer_256_1_sum"
  type: "Eltwise"
  bottom: "layer_256_1_conv3"
  bottom: "layer_256_1_conv_expand"
  top: "layer_256_1_sum"
}
layer {
  name: "layer_256_2_bn1"
  type: "BatchNorm"
  bottom: "layer_256_1_sum"
  top: "layer_256_2_bn1"
  param {
    lr_mult: 0
    decay_mult: 0
  }
  param {
    lr_mult: 0
    decay_mult: 0
  }
  param {
    lr_mult: 0
    decay_mult: 0
  }
}
layer {
  name: "layer_256_2_scale1"
  type: "Scale"
  bottom: "layer_256_2_bn1"
  top: "layer_256_2_bn1"
  param {
    lr_mult: 1
    decay_mult: 1
  }
  param {
    lr_mult: 2
    decay_mult: 1
  }
  scale_param {
    bias_term: true
  }
}
layer {
  name: "layer_256_2_relu1"
  type: "ReLU"
  bottom: "layer_256_2_bn1"
  top: "layer_256_2_bn1"
}
layer {
  name: "layer_256_2_conv1"
  type: "Convolution"
  bottom: "layer_256_2_bn1"
  top: "layer_256_2_conv1"
  param {
    lr_mult: 1
    decay_mult: 1
  }
  convolution_param {
    num_output: 256
    bias_term: false
    pad: 0
    kernel_size: 1
    stride: 1
    weight_filler {
      type: "msra"
    }
    bias_filler {
      type: "constant"
      value: 0
    }
  }
}
layer {
  name: "layer_256_2_bn2"
  type: "BatchNorm"
  bottom: "layer_256_2_conv1"
  top: "layer_256_2_conv1"
  param {
    lr_mult: 0
    decay_mult: 0
  }
  param {
    lr_mult: 0
    decay_mult: 0
  }
  param {
    lr_mult: 0
    decay_mult: 0
  }
}
layer {
  name: "layer_256_2_scale2"
  type: "Scale"
  bottom: "layer_256_2_conv1"
  top: "layer_256_2_conv1"
  param {
    lr_mult: 1
    decay_mult: 1
  }
  param {
    lr_mult: 2
    decay_mult: 1
  }
  scale_param {
    bias_term: true
  }
}
layer {
  name: "layer_256_2_relu2"
  type: "ReLU"
  bottom: "layer_256_2_conv1"
  top: "layer_256_2_conv1"
}
layer {
  name: "layer_256_2_conv2"
  type: "Convolution"
  bottom: "layer_256_2_conv1"
  top: "layer_256_2_conv2"
  param {
    lr_mult: 1
    decay_mult: 1
  }
  convolution_param {
    num_output: 256
    bias_term: false
    pad: 1
    kernel_size: 3
    stride: 1
    weight_filler {
      type: "msra"
    }
    bias_filler {
      type: "constant"
      value: 0
    }
  }
}
layer {
  name: "layer_256_2_bn3"
  type: "BatchNorm"
  bottom: "layer_256_2_conv2"
  top: "layer_256_2_conv2"
  param {
    lr_mult: 0
    decay_mult: 0
  }
  param {
    lr_mult: 0
    decay_mult: 0
  }
  param {
    lr_mult: 0
    decay_mult: 0
  }
}
layer {
  name: "layer_256_2_scale3"
  type: "Scale"
  bottom: "layer_256_2_conv2"
  top: "layer_256_2_conv2"
  param {
    lr_mult: 1
    decay_mult: 1
  }
  param {
    lr_mult: 2
    decay_mult: 1
  }
  scale_param {
    bias_term: true
  }
}
layer {
  name: "layer_256_2_relu3"
  type: "ReLU"
  bottom: "layer_256_2_conv2"
  top: "layer_256_2_conv2"
}
layer {
  name: "layer_256_2_conv3"
  type: "Convolution
I0528 19:00:47.031599 11123 layer_factory.hpp:77] Creating layer data
I0528 19:00:47.031702 11123 db_lmdb.cpp:35] Opened lmdb /home/k/PycharmProjects/AgeGenderDeepLearning-master/Folds/lmdb/Test_fold_is_0/gender_train_lmdb
I0528 19:00:47.031730 11123 net.cpp:84] Creating Layer data
I0528 19:00:47.031738 11123 net.cpp:380] data -> data
I0528 19:00:47.031759 11123 net.cpp:380] data -> label
I0528 19:00:47.031770 11123 data_transformer.cpp:25] Loading mean file from: /home/k/PycharmProjects/AgeGenderDeepLearning-master/Folds/lmdb/Test_fold_is_0/mean.binaryproto
I0528 19:00:47.034524 11123 data_layer.cpp:45] output data size: 20,3,224,224
I0528 19:00:47.061758 11123 net.cpp:122] Setting up data
I0528 19:00:47.061787 11123 net.cpp:129] Top shape: 20 3 224 224 (3010560)
I0528 19:00:47.061792 11123 net.cpp:129] Top shape: 20 (20)
I0528 19:00:47.061795 11123 net.cpp:137] Memory required for data: 12042320
I0528 19:00:47.061816 11123 layer_factory.hpp:77] Creating layer data_bn
I0528 19:00:47.061830 11123 net.cpp:84] Creating Layer data_bn
I0528 19:00:47.061837 11123 net.cpp:406] data_bn <- data
I0528 19:00:47.061849 11123 net.cpp:380] data_bn -> data_bn
I0528 19:00:47.062752 11123 net.cpp:122] Setting up data_bn
I0528 19:00:47.062763 11123 net.cpp:129] Top shape: 20 3 224 224 (3010560)
I0528 19:00:47.062767 11123 net.cpp:137] Memory required for data: 24084560
I0528 19:00:47.062800 11123 layer_factory.hpp:77] Creating layer data_scale
I0528 19:00:47.062809 11123 net.cpp:84] Creating Layer data_scale
I0528 19:00:47.062813 11123 net.cpp:406] data_scale <- data_bn
I0528 19:00:47.062819 11123 net.cpp:367] data_scale -> data_bn (in-place)
I0528 19:00:47.062857 11123 layer_factory.hpp:77] Creating layer data_scale
I0528 19:00:47.062999 11123 net.cpp:122] Setting up data_scale
I0528 19:00:47.063009 11123 net.cpp:129] Top shape: 20 3 224 224 (3010560)
I0528 19:00:47.063012 11123 net.cpp:137] Memory required for data: 36126800
I0528 19:00:47.063019 11123 layer_factory.hpp:77] Creating layer conv1
I0528 19:00:47.063035 11123 net.cpp:84] Creating Layer conv1
I0528 19:00:47.063038 11123 net.cpp:406] conv1 <- data_bn
I0528 19:00:47.063045 11123 net.cpp:380] conv1 -> conv1
I0528 19:00:47.283148 11123 net.cpp:122] Setting up conv1
I0528 19:00:47.283177 11123 net.cpp:129] Top shape: 20 64 112 112 (16056320)
I0528 19:00:47.283181 11123 net.cpp:137] Memory required for data: 100352080
I0528 19:00:47.283205 11123 layer_factory.hpp:77] Creating layer conv1_bn
I0528 19:00:47.283218 11123 net.cpp:84] Creating Layer conv1_bn
I0528 19:00:47.283222 11123 net.cpp:406] conv1_bn <- conv1
I0528 19:00:47.283229 11123 net.cpp:367] conv1_bn -> conv1 (in-place)
I0528 19:00:47.283393 11123 net.cpp:122] Setting up conv1_bn
I0528 19:00:47.283402 11123 net.cpp:129] Top shape: 20 64 112 112 (16056320)
I0528 19:00:47.283406 11123 net.cpp:137] Memory required for data: 164577360
I0528 19:00:47.283427 11123 layer_factory.hpp:77] Creating layer conv1_scale
I0528 19:00:47.283437 11123 net.cpp:84] Creating Layer conv1_scale
I0528 19:00:47.283440 11123 net.cpp:406] conv1_scale <- conv1
I0528 19:00:47.283445 11123 net.cpp:367] conv1_scale -> conv1 (in-place)
I0528 19:00:47.283483 11123 layer_factory.hpp:77] Creating layer conv1_scale
I0528 19:00:47.283604 11123 net.cpp:122] Setting up conv1_scale
I0528 19:00:47.283613 11123 net.cpp:129] Top shape: 20 64 112 112 (16056320)
I0528 19:00:47.283627 11123 net.cpp:137] Memory required for data: 228802640
I0528 19:00:47.283633 11123 layer_factory.hpp:77] Creating layer conv1_relu
I0528 19:00:47.283639 11123 net.cpp:84] Creating Layer conv1_relu
I0528 19:00:47.283644 11123 net.cpp:406] conv1_relu <- conv1
I0528 19:00:47.283648 11123 net.cpp:367] conv1_relu -> conv1 (in-place)
I0528 19:00:47.283808 11123 net.cpp:122] Setting up conv1_relu
I0528 19:00:47.283818 11123 net.cpp:129] Top shape: 20 64 112 112 (16056320)
I0528 19:00:47.283821 11123 net.cpp:137] Memory required for data: 293027920
I0528 19:00:47.283824 11123 layer_factory.hpp:77] Creating layer conv1_pool
I0528 19:00:47.283843 11123 net.cpp:84] Creating Layer conv1_pool
I0528 19:00:47.283848 11123 net.cpp:406] conv1_pool <- conv1
I0528 19:00:47.283852 11123 net.cpp:380] conv1_pool -> conv1_pool
I0528 19:00:47.283908 11123 net.cpp:122] Setting up conv1_pool
I0528 19:00:47.283917 11123 net.cpp:129] Top shape: 20 64 56 56 (4014080)
I0528 19:00:47.283921 11123 net.cpp:137] Memory required for data: 309084240
I0528 19:00:47.283923 11123 layer_factory.hpp:77] Creating layer layer_64_1_conv1
I0528 19:00:47.283933 11123 net.cpp:84] Creating Layer layer_64_1_conv1
I0528 19:00:47.283938 11123 net.cpp:406] layer_64_1_conv1 <- conv1_pool
I0528 19:00:47.283943 11123 net.cpp:380] layer_64_1_conv1 -> layer_64_1_conv1
I0528 19:00:47.285729 11123 net.cpp:122] Setting up layer_64_1_conv1
I0528 19:00:47.285742 11123 net.cpp:129] Top shape: 20 64 56 56 (4014080)
I0528 19:00:47.285758 11123 net.cpp:137] Memory required for data: 325140560
I0528 19:00:47.285764 11123 layer_factory.hpp:77] Creating layer layer_64_1_bn2
I0528 19:00:47.285770 11123 net.cpp:84] Creating Layer layer_64_1_bn2
I0528 19:00:47.285775 11123 net.cpp:406] layer_64_1_bn2 <- layer_64_1_conv1
I0528 19:00:47.285781 11123 net.cpp:367] layer_64_1_bn2 -> layer_64_1_conv1 (in-place)
I0528 19:00:47.285928 11123 net.cpp:122] Setting up layer_64_1_bn2
I0528 19:00:47.285935 11123 net.cpp:129] Top shape: 20 64 56 56 (4014080)
I0528 19:00:47.285938 11123 net.cpp:137] Memory required for data: 341196880
I0528 19:00:47.285956 11123 layer_factory.hpp:77] Creating layer layer_64_1_scale2
I0528 19:00:47.285964 11123 net.cpp:84] Creating Layer layer_64_1_scale2
I0528 19:00:47.285969 11123 net.cpp:406] layer_64_1_scale2 <- layer_64_1_conv1
I0528 19:00:47.285974 11123 net.cpp:367] layer_64_1_scale2 -> layer_64_1_conv1 (in-place)
I0528 19:00:47.286020 11123 layer_factory.hpp:77] Creating layer layer_64_1_scale2
I0528 19:00:47.286131 11123 net.cpp:122] Setting up layer_64_1_scale2
I0528 19:00:47.286140 11123 net.cpp:129] Top shape: 20 64 56 56 (4014080)
I0528 19:00:47.286144 11123 net.cpp:137] Memory required for data: 357253200
I0528 19:00:47.286151 11123 layer_factory.hpp:77] Creating layer layer_64_1_relu2
I0528 19:00:47.286159 11123 net.cpp:84] Creating Layer layer_64_1_relu2
I0528 19:00:47.286161 11123 net.cpp:406] layer_64_1_relu2 <- layer_64_1_conv1
I0528 19:00:47.286166 11123 net.cpp:367] layer_64_1_relu2 -> layer_64_1_conv1 (in-place)
I0528 19:00:47.286775 11123 net.cpp:122] Setting up layer_64_1_relu2
I0528 19:00:47.286787 11123 net.cpp:129] Top shape: 20 64 56 56 (4014080)
I0528 19:00:47.286792 11123 net.cpp:137] Memory required for data: 373309520
I0528 19:00:47.286806 11123 layer_factory.hpp:77] Creating layer layer_64_1_conv1_layer_64_1_relu2_0_split
I0528 19:00:47.286813 11123 net.cpp:84] Creating Layer layer_64_1_conv1_layer_64_1_relu2_0_split
I0528 19:00:47.286816 11123 net.cpp:406] layer_64_1_conv1_layer_64_1_relu2_0_split <- layer_64_1_conv1
I0528 19:00:47.286821 11123 net.cpp:380] layer_64_1_conv1_layer_64_1_relu2_0_split -> layer_64_1_conv1_layer_64_1_relu2_0_split_0
I0528 19:00:47.286828 11123 net.cpp:380] layer_64_1_conv1_layer_64_1_relu2_0_split -> layer_64_1_conv1_layer_64_1_relu2_0_split_1
I0528 19:00:47.286862 11123 net.cpp:122] Setting up layer_64_1_conv1_layer_64_1_relu2_0_split
I0528 19:00:47.286870 11123 net.cpp:129] Top shape: 20 64 56 56 (4014080)
I0528 19:00:47.286873 11123 net.cpp:129] Top shape: 20 64 56 56 (4014080)
I0528 19:00:47.286876 11123 net.cpp:137] Memory required for data: 405422160
I0528 19:00:47.286880 11123 layer_factory.hpp:77] Creating layer layer_64_1_conv2
I0528 19:00:47.286888 11123 net.cpp:84] Creating Layer layer_64_1_conv2
I0528 19:00:47.286892 11123 net.cpp:406] layer_64_1_conv2 <- layer_64_1_conv1_layer_64_1_relu2_0_split_0
I0528 19:00:47.286898 11123 net.cpp:380] layer_64_1_conv2 -> layer_64_1_conv2
I0528 19:00:47.288262 11123 net.cpp:122] Setting up layer_64_1_conv2
I0528 19:00:47.288275 11123 net.cpp:129] Top shape: 20 64 56 56 (4014080)
I0528 19:00:47.288280 11123 net.cpp:137] Memory required for data: 421478480
I0528 19:00:47.288285 11123 layer_factory.hpp:77] Creating layer layer_64_1_bn3
I0528 19:00:47.288291 11123 net.cpp:84] Creating Layer layer_64_1_bn3
I0528 19:00:47.288296 11123 net.cpp:406] layer_64_1_bn3 <- layer_64_1_conv2
I0528 19:00:47.288302 11123 net.cpp:367] layer_64_1_bn3 -> layer_64_1_conv2 (in-place)
I0528 19:00:47.288450 11123 net.cpp:122] Setting up layer_64_1_bn3
I0528 19:00:47.288458 11123 net.cpp:129] Top shape: 20 64 56 56 (4014080)
I0528 19:00:47.288461 11123 net.cpp:137] Memory required for data: 437534800
I0528 19:00:47.288470 11123 layer_factory.hpp:77] Creating layer layer_64_1_scale3
I0528 19:00:47.288476 11123 net.cpp:84] Creating Layer layer_64_1_scale3
I0528 19:00:47.288481 11123 net.cpp:406] layer_64_1_scale3 <- layer_64_1_conv2
I0528 19:00:47.288486 11123 net.cpp:367] layer_64_1_scale3 -> layer_64_1_conv2 (in-place)
I0528 19:00:47.288518 11123 layer_factory.hpp:77] Creating layer layer_64_1_scale3
I0528 19:00:47.288609 11123 net.cpp:122] Setting up layer_64_1_scale3
I0528 19:00:47.288617 11123 net.cpp:129] Top shape: 20 64 56 56 (4014080)
I0528 19:00:47.288620 11123 net.cpp:137] Memory required for data: 453591120
I0528 19:00:47.288626 11123 layer_factory.hpp:77] Creating layer layer_64_1_relu3
I0528 19:00:47.288635 11123 net.cpp:84] Creating Layer layer_64_1_relu3
I0528 19:00:47.288638 11123 net.cpp:406] layer_64_1_relu3 <- layer_64_1_conv2
I0528 19:00:47.288643 11123 net.cpp:367] layer_64_1_relu3 -> layer_64_1_conv2 (in-place)
I0528 19:00:47.289252 11123 net.cpp:122] Setting up layer_64_1_relu3
I0528 19:00:47.289264 11123 net.cpp:129] Top shape: 20 64 56 56 (4014080)
I0528 19:00:47.289268 11123 net.cpp:137] Memory required for data: 469647440
I0528 19:00:47.289271 11123 layer_factory.hpp:77] Creating layer layer_64_1_conv3
I0528 19:00:47.289290 11123 net.cpp:84] Creating Layer layer_64_1_conv3
I0528 19:00:47.289295 11123 net.cpp:406] layer_64_1_conv3 <- layer_64_1_conv2
I0528 19:00:47.289301 11123 net.cpp:380] layer_64_1_conv3 -> layer_64_1_conv3
I0528 19:00:47.290477 11123 net.cpp:122] Setting up layer_64_1_conv3
I0528 19:00:47.290488 11123 net.cpp:129] Top shape: 20 256 56 56 (16056320)
I0528 19:00:47.290493 11123 net.cpp:137] Memory required for data: 533872720
I0528 19:00:47.290498 11123 layer_factory.hpp:77] Creating layer layer_64_1_conv_expand
I0528 19:00:47.290508 11123 net.cpp:84] Creating Layer layer_64_1_conv_expand
I0528 19:00:47.290511 11123 net.cpp:406] layer_64_1_conv_expand <- layer_64_1_conv1_layer_64_1_relu2_0_split_1
I0528 19:00:47.290518 11123 net.cpp:380] layer_64_1_conv_expand -> layer_64_1_conv_expand
I0528 19:00:47.291705 11123 net.cpp:122] Setting up layer_64_1_conv_expand
I0528 19:00:47.291719 11123 net.cpp:129] Top shape: 20 256 56 56 (16056320)
I0528 19:00:47.291724 11123 net.cpp:137] Memory required for data: 598098000
I0528 19:00:47.291729 11123 layer_factory.hpp:77] Creating layer layer_64_1_sum
I0528 19:00:47.291735 11123 net.cpp:84] Creating Layer layer_64_1_sum
I0528 19:00:47.291739 11123 net.cpp:406] layer_64_1_sum <- layer_64_1_conv3
I0528 19:00:47.291743 11123 net.cpp:406] layer_64_1_sum <- layer_64_1_conv_expand
I0528 19:00:47.291748 11123 net.cpp:380] layer_64_1_sum -> layer_64_1_sum
I0528 19:00:47.291774 11123 net.cpp:122] Setting up layer_64_1_sum
I0528 19:00:47.291781 11123 net.cpp:129] Top shape: 20 256 56 56 (16056320)
I0528 19:00:47.291785 11123 net.cpp:137] Memory required for data: 662323280
I0528 19:00:47.291788 11123 layer_factory.hpp:77] Creating layer layer_64_1_sum_layer_64_1_sum_0_split
I0528 19:00:47.291795 11123 net.cpp:84] Creating Layer layer_64_1_sum_layer_64_1_sum_0_split
I0528 19:00:47.291797 11123 net.cpp:406] layer_64_1_sum_layer_64_1_sum_0_split <- layer_64_1_sum
I0528 19:00:47.291802 11123 net.cpp:380] layer_64_1_sum_layer_64_1_sum_0_split -> layer_64_1_sum_layer_64_1_sum_0_split_0
I0528 19:00:47.291808 11123 net.cpp:380] layer_64_1_sum_layer_64_1_sum_0_split -> layer_64_1_sum_layer_64_1_sum_0_split_1
I0528 19:00:47.291839 11123 net.cpp:122] Setting up layer_64_1_sum_layer_64_1_sum_0_split
I0528 19:00:47.291846 11123 net.cpp:129] Top shape: 20 256 56 56 (16056320)
I0528 19:00:47.291851 11123 net.cpp:129] Top shape: 20 256 56 56 (16056320)
I0528 19:00:47.291853 11123 net.cpp:137] Memory required for data: 790773840
I0528 19:00:47.291857 11123 layer_factory.hpp:77] Creating layer layer_64_2_bn1
I0528 19:00:47.291863 11123 net.cpp:84] Creating Layer layer_64_2_bn1
I0528 19:00:47.291867 11123 net.cpp:406] layer_64_2_bn1 <- layer_64_1_sum_layer_64_1_sum_0_split_0
I0528 19:00:47.291872 11123 net.cpp:380] layer_64_2_bn1 -> layer_64_2_bn1
I0528 19:00:47.292023 11123 net.cpp:122] Setting up layer_64_2_bn1
I0528 19:00:47.292032 11123 net.cpp:129] Top shape: 20 256 56 56 (16056320)
I0528 19:00:47.292035 11123 net.cpp:137] Memory required for data: 854999120
I0528 19:00:47.292042 11123 layer_factory.hpp:77] Creating layer layer_64_2_scale1
I0528 19:00:47.292049 11123 net.cpp:84] Creating Layer layer_64_2_scale1
I0528 19:00:47.292052 11123 net.cpp:406] layer_64_2_scale1 <- layer_64_2_bn1
I0528 19:00:47.292057 11123 net.cpp:367] layer_64_2_scale1 -> layer_64_2_bn1 (in-place)
I0528 19:00:47.292093 11123 layer_factory.hpp:77] Creating layer layer_64_2_scale1
I0528 19:00:47.292183 11123 net.cpp:122] Setting up layer_64_2_scale1
I0528 19:00:47.292191 11123 net.cpp:129] Top shape: 20 256 56 56 (16056320)
I0528 19:00:47.292196 11123 net.cpp:137] Memory required for data: 919224400
I0528 19:00:47.292201 11123 layer_factory.hpp:77] Creating layer layer_64_2_relu1
I0528 19:00:47.292206 11123 net.cpp:84] Creating Layer layer_64_2_relu1
I0528 19:00:47.292210 11123 net.cpp:406] layer_64_2_relu1 <- layer_64_2_bn1
I0528 19:00:47.292217 11123 net.cpp:367] layer_64_2_relu1 -> layer_64_2_bn1 (in-place)
I0528 19:00:47.292358 11123 net.cpp:122] Setting up layer_64_2_relu1
I0528 19:00:47.292369 11123 net.cpp:129] Top shape: 20 256 56 56 (16056320)
I0528 19:00:47.292382 11123 net.cpp:137] Memory required for data: 983449680
I0528 19:00:47.292385 11123 layer_factory.hpp:77] Creating layer layer_64_2_conv1
I0528 19:00:47.292397 11123 net.cpp:84] Creating Layer layer_64_2_conv1
I0528 19:00:47.292402 11123 net.cpp:406] layer_64_2_conv1 <- layer_64_2_bn1
I0528 19:00:47.292407 11123 net.cpp:380] layer_64_2_conv1 -> layer_64_2_conv1
I0528 19:00:47.293643 11123 net.cpp:122] Setting up layer_64_2_conv1
I0528 19:00:47.293655 11123 net.cpp:129] Top shape: 20 64 56 56 (4014080)
I0528 19:00:47.293660 11123 net.cpp:137] Memory required for data: 999506000
I0528 19:00:47.293665 11123 layer_factory.hpp:77] Creating layer layer_64_2_bn2
I0528 19:00:47.293673 11123 net.cpp:84] Creating Layer layer_64_2_bn2
I0528 19:00:47.293678 11123 net.cpp:406] layer_64_2_bn2 <- layer_64_2_conv1
I0528 19:00:47.293684 11123 net.cpp:367] layer_64_2_bn2 -> layer_64_2_conv1 (in-place)
I0528 19:00:47.293839 11123 net.cpp:122] Setting up layer_64_2_bn2
I0528 19:00:47.293848 11123 net.cpp:129] Top shape: 20 64 56 56 (4014080)
I0528 19:00:47.293851 11123 net.cpp:137] Memory required for data: 1015562320
I0528 19:00:47.293862 11123 layer_factory.hpp:77] Creating layer layer_64_2_scale2
I0528 19:00:47.293870 11123 net.cpp:84] Creating Layer layer_64_2_scale2
I0528 19:00:47.293874 11123 net.cpp:406] layer_64_2_scale2 <- layer_64_2_conv1
I0528 19:00:47.293879 11123 net.cpp:367] layer_64_2_scale2 -> layer_64_2_conv1 (in-place)
I0528 19:00:47.293915 11123 layer_factory.hpp:77] Creating layer layer_64_2_scale2
I0528 19:00:47.294010 11123 net.cpp:122] Setting up layer_64_2_scale2
I0528 19:00:47.294020 11123 net.cpp:129] Top shape: 20 64 56 56 (4014080)
I0528 19:00:47.294023 11123 net.cpp:137] Memory required for data: 1031618640
I0528 19:00:47.294029 11123 layer_factory.hpp:77] Creating layer layer_64_2_relu2
I0528 19:00:47.294034 11123 net.cpp:84] Creating Layer layer_64_2_relu2
I0528 19:00:47.294039 11123 net.cpp:406] layer_64_2_relu2 <- layer_64_2_conv1
I0528 19:00:47.294044 11123 net.cpp:367] layer_64_2_relu2 -> layer_64_2_conv1 (in-place)
I0528 19:00:47.294184 11123 net.cpp:122] Setting up layer_64_2_relu2
I0528 19:00:47.294193 11123 net.cpp:129] Top shape: 20 64 56 56 (4014080)
I0528 19:00:47.294196 11123 net.cpp:137] Memory required for data: 1047674960
I0528 19:00:47.294200 11123 layer_factory.hpp:77] Creating layer layer_64_2_conv2
I0528 19:00:47.294209 11123 net.cpp:84] Creating Layer layer_64_2_conv2
I0528 19:00:47.294214 11123 net.cpp:406] layer_64_2_conv2 <- layer_64_2_conv1
I0528 19:00:47.294220 11123 net.cpp:380] layer_64_2_conv2 -> layer_64_2_conv2
I0528 19:00:47.295693 11123 net.cpp:122] Setting up layer_64_2_conv2
I0528 19:00:47.295709 11123 net.cpp:129] Top shape: 20 64 56 56 (4014080)
I0528 19:00:47.295713 11123 net.cpp:137] Memory required for data: 1063731280
I0528 19:00:47.295718 11123 layer_factory.hpp:77] Creating layer layer_64_2_bn3
I0528 19:00:47.295724 11123 net.cpp:84] Creating Layer layer_64_2_bn3
I0528 19:00:47.295728 11123 net.cpp:406] layer_64_2_bn3 <- layer_64_2_conv2
I0528 19:00:47.295735 11123 net.cpp:367] layer_64_2_bn3 -> layer_64_2_conv2 (in-place)
I0528 19:00:47.295897 11123 net.cpp:122] Setting up layer_64_2_bn3
I0528 19:00:47.295907 11123 net.cpp:129] Top shape: 20 64 56 56 (4014080)
I0528 19:00:47.295910 11123 net.cpp:137] Memory required for data: 1079787600
I0528 19:00:47.295918 11123 layer_factory.hpp:77] Creating layer layer_64_2_scale3
I0528 19:00:47.295925 11123 net.cpp:84] Creating Layer layer_64_2_scale3
I0528 19:00:47.295930 11123 net.cpp:406] layer_64_2_scale3 <- layer_64_2_conv2
I0528 19:00:47.295935 11123 net.cpp:367] layer_64_2_scale3 -> layer_64_2_conv2 (in-place)
I0528 19:00:47.295972 11123 layer_factory.hpp:77] Creating layer layer_64_2_scale3
I0528 19:00:47.296072 11123 net.cpp:122] Setting up layer_64_2_scale3
I0528 19:00:47.296082 11123 net.cpp:129] Top shape: 20 64 56 56 (4014080)
I0528 19:00:47.296084 11123 net.cpp:137] Memory required for data: 1095843920
I0528 19:00:47.296089 11123 layer_factory.hpp:77] Creating layer layer_64_2_relu3
I0528 19:00:47.296105 11123 net.cpp:84] Creating Layer layer_64_2_relu3
I0528 19:00:47.296110 11123 net.cpp:406] layer_64_2_relu3 <- layer_64_2_conv2
I0528 19:00:47.296114 11123 net.cpp:367] layer_64_2_relu3 -> layer_64_2_conv2 (in-place)
I0528 19:00:47.296258 11123 net.cpp:122] Setting up layer_64_2_relu3
I0528 19:00:47.296267 11123 net.cpp:129] Top shape: 20 64 56 56 (4014080)
I0528 19:00:47.296272 11123 net.cpp:137] Memory required for data: 1111900240
I0528 19:00:47.296274 11123 layer_factory.hpp:77] Creating layer layer_64_2_conv3
I0528 19:00:47.296288 11123 net.cpp:84] Creating Layer layer_64_2_conv3
I0528 19:00:47.296293 11123 net.cpp:406] layer_64_2_conv3 <- layer_64_2_conv2
I0528 19:00:47.296299 11123 net.cpp:380] layer_64_2_conv3 -> layer_64_2_conv3
I0528 19:00:47.298002 11123 net.cpp:122] Setting up layer_64_2_conv3
I0528 19:00:47.298017 11123 net.cpp:129] Top shape: 20 256 56 56 (16056320)
I0528 19:00:47.298022 11123 net.cpp:137] Memory required for data: 1176125520
I0528 19:00:47.298027 11123 layer_factory.hpp:77] Creating layer layer_64_2_sum
I0528 19:00:47.298032 11123 net.cpp:84] Creating Layer layer_64_2_sum
I0528 19:00:47.298036 11123 net.cpp:406] layer_64_2_sum <- layer_64_2_conv3
I0528 19:00:47.298041 11123 net.cpp:406] layer_64_2_sum <- layer_64_1_sum_layer_64_1_sum_0_split_1
I0528 19:00:47.298049 11123 net.cpp:380] layer_64_2_sum -> layer_64_2_sum
I0528 19:00:47.298074 11123 net.cpp:122] Setting up layer_64_2_sum
I0528 19:00:47.298081 11123 net.cpp:129] Top shape: 20 256 56 56 (16056320)
I0528 19:00:47.298086 11123 net.cpp:137] Memory required for data: 1240350800
I0528 19:00:47.298089 11123 layer_factory.hpp:77] Creating layer layer_64_2_sum_layer_64_2_sum_0_split
I0528 19:00:47.298096 11123 net.cpp:84] Creating Layer layer_64_2_sum_layer_64_2_sum_0_split
I0528 19:00:47.298101 11123 net.cpp:406] layer_64_2_sum_layer_64_2_sum_0_split <- layer_64_2_sum
I0528 19:00:47.298107 11123 net.cpp:380] layer_64_2_sum_layer_64_2_sum_0_split -> layer_64_2_sum_layer_64_2_sum_0_split_0
I0528 19:00:47.298115 11123 net.cpp:380] layer_64_2_sum_layer_64_2_sum_0_split -> layer_64_2_sum_layer_64_2_sum_0_split_1
I0528 19:00:47.298144 11123 net.cpp:122] Setting up layer_64_2_sum_layer_64_2_sum_0_split
I0528 19:00:47.298152 11123 net.cpp:129] Top shape: 20 256 56 56 (16056320)
I0528 19:00:47.298157 11123 net.cpp:129] Top shape: 20 256 56 56 (16056320)
I0528 19:00:47.298159 11123 net.cpp:137] Memory required for data: 1368801360
I0528 19:00:47.298162 11123 layer_factory.hpp:77] Creating layer layer_64_3_bn1
I0528 19:00:47.298168 11123 net.cpp:84] Creating Layer layer_64_3_bn1
I0528 19:00:47.298171 11123 net.cpp:406] layer_64_3_bn1 <- layer_64_2_sum_layer_64_2_sum_0_split_0
I0528 19:00:47.298177 11123 net.cpp:380] layer_64_3_bn1 -> layer_64_3_bn1
I0528 19:00:47.298332 11123 net.cpp:122] Setting up layer_64_3_bn1
I0528 19:00:47.298341 11123 net.cpp:129] Top shape: 20 256 56 56 (16056320)
I0528 19:00:47.298343 11123 net.cpp:137] Memory required for data: 1433026640
I0528 19:00:47.298351 11123 layer_factory.hpp:77] Creating layer layer_64_3_scale1
I0528 19:00:47.298357 11123 net.cpp:84] Creating Layer layer_64_3_scale1
I0528 19:00:47.298362 11123 net.cpp:406] layer_64_3_scale1 <- layer_64_3_bn1
I0528 19:00:47.298367 11123 net.cpp:367] layer_64_3_scale1 -> layer_64_3_bn1 (in-place)
I0528 19:00:47.298403 11123 layer_factory.hpp:77] Creating layer layer_64_3_scale1
I0528 19:00:47.298501 11123 net.cpp:122] Setting up layer_64_3_scale1
I0528 19:00:47.298511 11123 net.cpp:129] Top shape: 20 256 56 56 (16056320)
I0528 19:00:47.298514 11123 net.cpp:137] Memory required for data: 1497251920
I0528 19:00:47.298519 11123 layer_factory.hpp:77] Creating layer layer_64_3_relu1
I0528 19:00:47.298527 11123 net.cpp:84] Creating Layer layer_64_3_relu1
I0528 19:00:47.298532 11123 net.cpp:406] layer_64_3_relu1 <- layer_64_3_bn1
I0528 19:00:47.298537 11123 net.cpp:367] layer_64_3_relu1 -> layer_64_3_bn1 (in-place)
I0528 19:00:47.298681 11123 net.cpp:122] Setting up layer_64_3_relu1
I0528 19:00:47.298691 11123 net.cpp:129] Top shape: 20 256 56 56 (16056320)
I0528 19:00:47.298705 11123 net.cpp:137] Memory required for data: 1561477200
I0528 19:00:47.298709 11123 layer_factory.hpp:77] Creating layer layer_64_3_conv1
I0528 19:00:47.298718 11123 net.cpp:84] Creating Layer layer_64_3_conv1
I0528 19:00:47.298723 11123 net.cpp:406] layer_64_3_conv1 <- layer_64_3_bn1
I0528 19:00:47.298730 11123 net.cpp:380] layer_64_3_conv1 -> layer_64_3_conv1
I0528 19:00:47.299964 11123 net.cpp:122] Setting up layer_64_3_conv1
I0528 19:00:47.299978 11123 net.cpp:129] Top shape: 20 64 56 56 (4014080)
I0528 19:00:47.299983 11123 net.cpp:137] Memory required for data: 1577533520
I0528 19:00:47.299988 11123 layer_factory.hpp:77] Creating layer layer_64_3_bn2
I0528 19:00:47.299994 11123 net.cpp:84] Creating Layer layer_64_3_bn2
I0528 19:00:47.299998 11123 net.cpp:406] layer_64_3_bn2 <- layer_64_3_conv1
I0528 19:00:47.300004 11123 net.cpp:367] layer_64_3_bn2 -> layer_64_3_conv1 (in-place)
I0528 19:00:47.300163 11123 net.cpp:122] Setting up layer_64_3_bn2
I0528 19:00:47.300171 11123 net.cpp:129] Top shape: 20 64 56 56 (4014080)
I0528 19:00:47.300174 11123 net.cpp:137] Memory required for data: 1593589840
I0528 19:00:47.300181 11123 layer_factory.hpp:77] Creating layer layer_64_3_scale2
I0528 19:00:47.300187 11123 net.cpp:84] Creating Layer layer_64_3_scale2
I0528 19:00:47.300191 11123 net.cpp:406] layer_64_3_scale2 <- layer_64_3_conv1
I0528 19:00:47.300195 11123 net.cpp:367] layer_64_3_scale2 -> layer_64_3_conv1 (in-place)
I0528 19:00:47.300232 11123 layer_factory.hpp:77] Creating layer layer_64_3_scale2
I0528 19:00:47.300333 11123 net.cpp:122] Setting up layer_64_3_scale2
I0528 19:00:47.300341 11123 net.cpp:129] Top shape: 20 64 56 56 (4014080)
I0528 19:00:47.300344 11123 net.cpp:137] Memory required for data: 1609646160
I0528 19:00:47.300350 11123 layer_factory.hpp:77] Creating layer layer_64_3_relu2
I0528 19:00:47.300355 11123 net.cpp:84] Creating Layer layer_64_3_relu2
I0528 19:00:47.300359 11123 net.cpp:406] layer_64_3_relu2 <- layer_64_3_conv1
I0528 19:00:47.300364 11123 net.cpp:367] layer_64_3_relu2 -> layer_64_3_conv1 (in-place)
I0528 19:00:47.300511 11123 net.cpp:122] Setting up layer_64_3_relu2
I0528 19:00:47.300521 11123 net.cpp:129] Top shape: 20 64 56 56 (4014080)
I0528 19:00:47.300524 11123 net.cpp:137] Memory required for data: 1625702480
I0528 19:00:47.300528 11123 layer_factory.hpp:77] Creating layer layer_64_3_conv2
I0528 19:00:47.300537 11123 net.cpp:84] Creating Layer layer_64_3_conv2
I0528 19:00:47.300542 11123 net.cpp:406] layer_64_3_conv2 <- layer_64_3_conv1
I0528 19:00:47.300549 11123 net.cpp:380] layer_64_3_conv2 -> layer_64_3_conv2
I0528 19:00:47.302465 11123 net.cpp:122] Setting up layer_64_3_conv2
I0528 19:00:47.302480 11123 net.cpp:129] Top shape: 20 64 56 56 (4014080)
I0528 19:00:47.302484 11123 net.cpp:137] Memory required for data: 1641758800
I0528 19:00:47.302490 11123 layer_factory.hpp:77] Creating layer layer_64_3_bn3
I0528 19:00:47.302496 11123 net.cpp:84] Creating Layer layer_64_3_bn3
I0528 19:00:47.302501 11123 net.cpp:406] layer_64_3_bn3 <- layer_64_3_conv2
I0528 19:00:47.302507 11123 net.cpp:367] layer_64_3_bn3 -> layer_64_3_conv2 (in-place)
I0528 19:00:47.302672 11123 net.cpp:122] Setting up layer_64_3_bn3
I0528 19:00:47.302681 11123 net.cpp:129] Top shape: 20 64 56 56 (4014080)
I0528 19:00:47.302685 11123 net.cpp:137] Memory required for data: 1657815120
I0528 19:00:47.302692 11123 layer_factory.hpp:77] Creating layer layer_64_3_scale3
I0528 19:00:47.302700 11123 net.cpp:84] Creating Layer layer_64_3_scale3
I0528 19:00:47.302703 11123 net.cpp:406] layer_64_3_scale3 <- layer_64_3_conv2
I0528 19:00:47.302709 11123 net.cpp:367] layer_64_3_scale3 -> layer_64_3_conv2 (in-place)
I0528 19:00:47.302747 11123 layer_factory.hpp:77] Creating layer layer_64_3_scale3
I0528 19:00:47.302848 11123 net.cpp:122] Setting up layer_64_3_scale3
I0528 19:00:47.302856 11123 net.cpp:129] Top shape: 20 64 56 56 (4014080)
I0528 19:00:47.302860 11123 net.cpp:137] Memory required for data: 1673871440
I0528 19:00:47.302866 11123 layer_factory.hpp:77] Creating layer layer_64_3_relu3
I0528 19:00:47.302882 11123 net.cpp:84] Creating Layer layer_64_3_relu3
I0528 19:00:47.302887 11123 net.cpp:406] layer_64_3_relu3 <- layer_64_3_conv2
I0528 19:00:47.302892 11123 net.cpp:367] layer_64_3_relu3 -> layer_64_3_conv2 (in-place)
I0528 19:00:47.303514 11123 net.cpp:122] Setting up layer_64_3_relu3
I0528 19:00:47.303526 11123 net.cpp:129] Top shape: 20 64 56 56 (4014080)
I0528 19:00:47.303530 11123 net.cpp:137] Memory required for data: 1689927760
I0528 19:00:47.303534 11123 layer_factory.hpp:77] Creating layer layer_64_3_conv3
I0528 19:00:47.303544 11123 net.cpp:84] Creating Layer layer_64_3_conv3
I0528 19:00:47.303549 11123 net.cpp:406] layer_64_3_conv3 <- layer_64_3_conv2
I0528 19:00:47.303555 11123 net.cpp:380] layer_64_3_conv3 -> layer_64_3_conv3
I0528 19:00:47.304792 11123 net.cpp:122] Setting up layer_64_3_conv3
I0528 19:00:47.304805 11123 net.cpp:129] Top shape: 20 256 56 56 (16056320)
I0528 19:00:47.304810 11123 net.cpp:137] Memory required for data: 1754153040
I0528 19:00:47.304814 11123 layer_factory.hpp:77] Creating layer layer_64_3_sum
I0528 19:00:47.304821 11123 net.cpp:84] Creating Layer layer_64_3_sum
I0528 19:00:47.304826 11123 net.cpp:406] layer_64_3_sum <- layer_64_3_conv3
I0528 19:00:47.304829 11123 net.cpp:406] layer_64_3_sum <- layer_64_2_sum_layer_64_2_sum_0_split_1
I0528 19:00:47.304837 11123 net.cpp:380] layer_64_3_sum -> layer_64_3_sum
I0528 19:00:47.304862 11123 net.cpp:122] Setting up layer_64_3_sum
I0528 19:00:47.304870 11123 net.cpp:129] Top shape: 20 256 56 56 (16056320)
I0528 19:00:47.304874 11123 net.cpp:137] Memory required for data: 1818378320
I0528 19:00:47.304877 11123 layer_factory.hpp:77] Creating layer layer_128_1_bn1
I0528 19:00:47.304883 11123 net.cpp:84] Creating Layer layer_128_1_bn1
I0528 19:00:47.304888 11123 net.cpp:406] layer_128_1_bn1 <- layer_64_3_sum
I0528 19:00:47.304894 11123 net.cpp:380] layer_128_1_bn1 -> layer_128_1_bn1
I0528 19:00:47.305068 11123 net.cpp:122] Setting up layer_128_1_bn1
I0528 19:00:47.305078 11123 net.cpp:129] Top shape: 20 256 56 56 (16056320)
I0528 19:00:47.305083 11123 net.cpp:137] Memory required for data: 1882603600
I0528 19:00:47.305096 11123 layer_factory.hpp:77] Creating layer layer_128_1_scale1
I0528 19:00:47.305105 11123 net.cpp:84] Creating Layer layer_128_1_scale1
I0528 19:00:47.305109 11123 net.cpp:406] layer_128_1_scale1 <- layer_128_1_bn1
I0528 19:00:47.305114 11123 net.cpp:367] layer_128_1_scale1 -> layer_128_1_bn1 (in-place)
I0528 19:00:47.305151 11123 layer_factory.hpp:77] Creating layer layer_128_1_scale1
I0528 19:00:47.305248 11123 net.cpp:122] Setting up layer_128_1_scale1
I0528 19:00:47.305258 11123 net.cpp:129] Top shape: 20 256 56 56 (16056320)
I0528 19:00:47.305261 11123 net.cpp:137] Memory required for data: 1946828880
I0528 19:00:47.305268 11123 layer_factory.hpp:77] Creating layer layer_128_1_relu1
I0528 19:00:47.305274 11123 net.cpp:84] Creating Layer layer_128_1_relu1
I0528 19:00:47.305279 11123 net.cpp:406] layer_128_1_relu1 <- layer_128_1_bn1
I0528 19:00:47.305284 11123 net.cpp:367] layer_128_1_relu1 -> layer_128_1_bn1 (in-place)
I0528 19:00:47.305429 11123 net.cpp:122] Setting up layer_128_1_relu1
I0528 19:00:47.305439 11123 net.cpp:129] Top shape: 20 256 56 56 (16056320)
I0528 19:00:47.305444 11123 net.cpp:137] Memory required for data: 2011054160
I0528 19:00:47.305446 11123 layer_factory.hpp:77] Creating layer layer_128_1_bn1_layer_128_1_relu1_0_split
I0528 19:00:47.305454 11123 net.cpp:84] Creating Layer layer_128_1_bn1_layer_128_1_relu1_0_split
I0528 19:00:47.305457 11123 net.cpp:406] layer_128_1_bn1_layer_128_1_relu1_0_split <- layer_128_1_bn1
I0528 19:00:47.305462 11123 net.cpp:380] layer_128_1_bn1_layer_128_1_relu1_0_split -> layer_128_1_bn1_layer_128_1_relu1_0_split_0
I0528 19:00:47.305471 11123 net.cpp:380] layer_128_1_bn1_layer_128_1_relu1_0_split -> layer_128_1_bn1_layer_128_1_relu1_0_split_1
I0528 19:00:47.305505 11123 net.cpp:122] Setting up layer_128_1_bn1_layer_128_1_relu1_0_split
I0528 19:00:47.305513 11123 net.cpp:129] Top shape: 20 256 56 56 (16056320)
I0528 19:00:47.305527 11123 net.cpp:129] Top shape: 20 256 56 56 (16056320)
I0528 19:00:47.305531 11123 net.cpp:137] Memory required for data: 2139504720
I0528 19:00:47.305534 11123 layer_factory.hpp:77] Creating layer layer_128_1_conv1
I0528 19:00:47.305544 11123 net.cpp:84] Creating Layer layer_128_1_conv1
I0528 19:00:47.305549 11123 net.cpp:406] layer_128_1_conv1 <- layer_128_1_bn1_layer_128_1_relu1_0_split_0
I0528 19:00:47.305554 11123 net.cpp:380] layer_128_1_conv1 -> layer_128_1_conv1
I0528 19:00:47.306960 11123 net.cpp:122] Setting up layer_128_1_conv1
I0528 19:00:47.306972 11123 net.cpp:129] Top shape: 20 128 56 56 (8028160)
I0528 19:00:47.306977 11123 net.cpp:137] Memory required for data: 2171617360
I0528 19:00:47.306982 11123 layer_factory.hpp:77] Creating layer layer_128_1_bn2
I0528 19:00:47.306990 11123 net.cpp:84] Creating Layer layer_128_1_bn2
I0528 19:00:47.306994 11123 net.cpp:406] layer_128_1_bn2 <- layer_128_1_conv1
I0528 19:00:47.307001 11123 net.cpp:367] layer_128_1_bn2 -> layer_128_1_conv1 (in-place)
I0528 19:00:47.307157 11123 net.cpp:122] Setting up layer_128_1_bn2
I0528 19:00:47.307166 11123 net.cpp:129] Top shape: 20 128 56 56 (8028160)
I0528 19:00:47.307170 11123 net.cpp:137] Memory required for data: 2203730000
I0528 19:00:47.307178 11123 layer_factory.hpp:77] Creating layer layer_128_1_scale2
I0528 19:00:47.307185 11123 net.cpp:84] Creating Layer layer_128_1_scale2
I0528 19:00:47.307190 11123 net.cpp:406] layer_128_1_scale2 <- layer_128_1_conv1
I0528 19:00:47.307195 11123 net.cpp:367] layer_128_1_scale2 -> layer_128_1_conv1 (in-place)
I0528 19:00:47.307230 11123 layer_factory.hpp:77] Creating layer layer_128_1_scale2
I0528 19:00:47.307328 11123 net.cpp:122] Setting up layer_128_1_scale2
I0528 19:00:47.307337 11123 net.cpp:129] Top shape: 20 128 56 56 (8028160)
I0528 19:00:47.307340 11123 net.cpp:137] Memory required for data: 2235842640
I0528 19:00:47.307346 11123 layer_factory.hpp:77] Creating layer layer_128_1_relu2
I0528 19:00:47.307354 11123 net.cpp:84] Creating Layer layer_128_1_relu2
I0528 19:00:47.307358 11123 net.cpp:406] layer_128_1_relu2 <- layer_128_1_conv1
I0528 19:00:47.307364 11123 net.cpp:367] layer_128_1_relu2 -> layer_128_1_conv1 (in-place)
I0528 19:00:47.307509 11123 net.cpp:122] Setting up layer_128_1_relu2
I0528 19:00:47.307519 11123 net.cpp:129] Top shape: 20 128 56 56 (8028160)
I0528 19:00:47.307523 11123 net.cpp:137] Memory required for data: 2267955280
I0528 19:00:47.307526 11123 layer_factory.hpp:77] Creating layer layer_128_1_conv2
I0528 19:00:47.307536 11123 net.cpp:84] Creating Layer layer_128_1_conv2
I0528 19:00:47.307540 11123 net.cpp:406] layer_128_1_conv2 <- layer_128_1_conv1
I0528 19:00:47.307548 11123 net.cpp:380] layer_128_1_conv2 -> layer_128_1_conv2
I0528 19:00:47.311069 11123 net.cpp:122] Setting up layer_128_1_conv2
I0528 19:00:47.311081 11123 net.cpp:129] Top shape: 20 128 28 28 (2007040)
I0528 19:00:47.311085 11123 net.cpp:137] Memory required for data: 2275983440
I0528 19:00:47.311091 11123 layer_factory.hpp:77] Creating layer layer_128_1_bn3
I0528 19:00:47.311100 11123 net.cpp:84] Creating Layer layer_128_1_bn3
I0528 19:00:47.311105 11123 net.cpp:406] layer_128_1_bn3 <- layer_128_1_conv2
I0528 19:00:47.311110 11123 net.cpp:367] layer_128_1_bn3 -> layer_128_1_conv2 (in-place)
I0528 19:00:47.312005 11123 net.cpp:122] Setting up layer_128_1_bn3
I0528 19:00:47.312021 11123 net.cpp:129] Top shape: 20 128 28 28 (2007040)
I0528 19:00:47.312024 11123 net.cpp:137] Memory required for data: 2284011600
I0528 19:00:47.312033 11123 layer_factory.hpp:77] Creating layer layer_128_1_scale3
I0528 19:00:47.312042 11123 net.cpp:84] Creating Layer layer_128_1_scale3
I0528 19:00:47.312047 11123 net.cpp:406] layer_128_1_scale3 <- layer_128_1_conv2
I0528 19:00:47.312053 11123 net.cpp:367] layer_128_1_scale3 -> layer_128_1_conv2 (in-place)
I0528 19:00:47.312096 11123 layer_factory.hpp:77] Creating layer layer_128_1_scale3
I0528 19:00:47.312194 11123 net.cpp:122] Setting up layer_128_1_scale3
I0528 19:00:47.312204 11123 net.cpp:129] Top shape: 20 128 28 28 (2007040)
I0528 19:00:47.312219 11123 net.cpp:137] Memory required for data: 2292039760
I0528 19:00:47.312227 11123 layer_factory.hpp:77] Creating layer layer_128_1_relu3
I0528 19:00:47.312232 11123 net.cpp:84] Creating Layer layer_128_1_relu3
I0528 19:00:47.312237 11123 net.cpp:406] layer_128_1_relu3 <- layer_128_1_conv2
I0528 19:00:47.312242 11123 net.cpp:367] layer_128_1_relu3 -> layer_128_1_conv2 (in-place)
I0528 19:00:47.312419 11123 net.cpp:122] Setting up layer_128_1_relu3
I0528 19:00:47.312428 11123 net.cpp:129] Top shape: 20 128 28 28 (2007040)
I0528 19:00:47.312433 11123 net.cpp:137] Memory required for data: 2300067920
I0528 19:00:47.312436 11123 layer_factory.hpp:77] Creating layer layer_128_1_conv3
I0528 19:00:47.312446 11123 net.cpp:84] Creating Layer layer_128_1_conv3
I0528 19:00:47.312451 11123 net.cpp:406] layer_128_1_conv3 <- layer_128_1_conv2
I0528 19:00:47.312458 11123 net.cpp:380] layer_128_1_conv3 -> layer_128_1_conv3
I0528 19:00:47.314561 11123 net.cpp:122] Setting up layer_128_1_conv3
I0528 19:00:47.314579 11123 net.cpp:129] Top shape: 20 512 28 28 (8028160)
I0528 19:00:47.314584 11123 net.cpp:137] Memory required for data: 2332180560
I0528 19:00:47.314589 11123 layer_factory.hpp:77] Creating layer layer_128_1_conv_expand
I0528 19:00:47.314601 11123 net.cpp:84] Creating Layer layer_128_1_conv_expand
I0528 19:00:47.314605 11123 net.cpp:406] layer_128_1_conv_expand <- layer_128_1_bn1_layer_128_1_relu1_0_split_1
I0528 19:00:47.314612 11123 net.cpp:380] layer_128_1_conv_expand -> layer_128_1_conv_expand
I0528 19:00:47.317370 11123 net.cpp:122] Setting up layer_128_1_conv_expand
I0528 19:00:47.317387 11123 net.cpp:129] Top shape: 20 512 28 28 (8028160)
I0528 19:00:47.317391 11123 net.cpp:137] Memory required for data: 2364293200
I0528 19:00:47.317397 11123 layer_factory.hpp:77] Creating layer layer_128_1_sum
I0528 19:00:47.317404 11123 net.cpp:84] Creating Layer layer_128_1_sum
I0528 19:00:47.317409 11123 net.cpp:406] layer_128_1_sum <- layer_128_1_conv3
I0528 19:00:47.317414 11123 net.cpp:406] layer_128_1_sum <- layer_128_1_conv_expand
I0528 19:00:47.317425 11123 net.cpp:380] layer_128_1_sum -> layer_128_1_sum
I0528 19:00:47.317451 11123 net.cpp:122] Setting up layer_128_1_sum
I0528 19:00:47.317461 11123 net.cpp:129] Top shape: 20 512 28 28 (8028160)
I0528 19:00:47.317466 11123 net.cpp:137] Memory required for data: 2396405840
I0528 19:00:47.317468 11123 layer_factory.hpp:77] Creating layer layer_128_1_sum_layer_128_1_sum_0_split
I0528 19:00:47.317474 11123 net.cpp:84] Creating Layer layer_128_1_sum_layer_128_1_sum_0_split
I0528 19:00:47.317477 11123 net.cpp:406] layer_128_1_sum_layer_128_1_sum_0_split <- layer_128_1_sum
I0528 19:00:47.317482 11123 net.cpp:380] layer_128_1_sum_layer_128_1_sum_0_split -> layer_128_1_sum_layer_128_1_sum_0_split_0
I0528 19:00:47.317489 11123 net.cpp:380] layer_128_1_sum_layer_128_1_sum_0_split -> layer_128_1_sum_layer_128_1_sum_0_split_1
I0528 19:00:47.317523 11123 net.cpp:122] Setting up layer_128_1_sum_layer_128_1_sum_0_split
I0528 19:00:47.317531 11123 net.cpp:129] Top shape: 20 512 28 28 (8028160)
I0528 19:00:47.317535 11123 net.cpp:129] Top shape: 20 512 28 28 (8028160)
I0528 19:00:47.317538 11123 net.cpp:137] Memory required for data: 2460631120
I0528 19:00:47.317541 11123 layer_factory.hpp:77] Creating layer layer_128_2_bn1
I0528 19:00:47.317559 11123 net.cpp:84] Creating Layer layer_128_2_bn1
I0528 19:00:47.317564 11123 net.cpp:406] layer_128_2_bn1 <- layer_128_1_sum_layer_128_1_sum_0_split_0
I0528 19:00:47.317569 11123 net.cpp:380] layer_128_2_bn1 -> layer_128_2_bn1
I0528 19:00:47.317734 11123 net.cpp:122] Setting up layer_128_2_bn1
I0528 19:00:47.317744 11123 net.cpp:129] Top shape: 20 512 28 28 (8028160)
I0528 19:00:47.317746 11123 net.cpp:137] Memory required for data: 2492743760
I0528 19:00:47.317754 11123 layer_factory.hpp:77] Creating layer layer_128_2_scale1
I0528 19:00:47.317764 11123 net.cpp:84] Creating Layer layer_128_2_scale1
I0528 19:00:47.317767 11123 net.cpp:406] layer_128_2_scale1 <- layer_128_2_bn1
I0528 19:00:47.317772 11123 net.cpp:367] layer_128_2_scale1 -> layer_128_2_bn1 (in-place)
I0528 19:00:47.317823 11123 layer_factory.hpp:77] Creating layer layer_128_2_scale1
I0528 19:00:47.317921 11123 net.cpp:122] Setting up layer_128_2_scale1
I0528 19:00:47.317930 11123 net.cpp:129] Top shape: 20 512 28 28 (8028160)
I0528 19:00:47.317934 11123 net.cpp:137] Memory required for data: 2524856400
I0528 19:00:47.317939 11123 layer_factory.hpp:77] Creating layer layer_128_2_relu1
I0528 19:00:47.317945 11123 net.cpp:84] Creating Layer layer_128_2_relu1
I0528 19:00:47.317950 11123 net.cpp:406] layer_128_2_relu1 <- layer_128_2_bn1
I0528 19:00:47.317955 11123 net.cpp:367] layer_128_2_relu1 -> layer_128_2_bn1 (in-place)
I0528 19:00:47.318114 11123 net.cpp:122] Setting up layer_128_2_relu1
I0528 19:00:47.318125 11123 net.cpp:129] Top shape: 20 512 28 28 (8028160)
I0528 19:00:47.318127 11123 net.cpp:137] Memory required for data: 2556969040
I0528 19:00:47.318131 11123 layer_factory.hpp:77] Creating layer layer_128_2_conv1
I0528 19:00:47.318140 11123 net.cpp:84] Creating Layer layer_128_2_conv1
I0528 19:00:47.318145 11123 net.cpp:406] layer_128_2_conv1 <- layer_128_2_bn1
I0528 19:00:47.318153 11123 net.cpp:380] layer_128_2_conv1 -> layer_128_2_conv1
I0528 19:00:47.323379 11123 net.cpp:122] Setting up layer_128_2_conv1
I0528 19:00:47.323395 11123 net.cpp:129] Top shape: 20 128 28 28 (2007040)
I0528 19:00:47.323398 11123 net.cpp:137] Memory required for data: 2564997200
I0528 19:00:47.323403 11123 layer_factory.hpp:77] Creating layer layer_128_2_bn2
I0528 19:00:47.323411 11123 net.cpp:84] Creating Layer layer_128_2_bn2
I0528 19:00:47.323415 11123 net.cpp:406] layer_128_2_bn2 <- layer_128_2_conv1
I0528 19:00:47.323421 11123 net.cpp:367] layer_128_2_bn2 -> layer_128_2_conv1 (in-place)
I0528 19:00:47.323585 11123 net.cpp:122] Setting up layer_128_2_bn2
I0528 19:00:47.323593 11123 net.cpp:129] Top shape: 20 128 28 28 (2007040)
I0528 19:00:47.323596 11123 net.cpp:137] Memory required for data: 2573025360
I0528 19:00:47.323604 11123 layer_factory.hpp:77] Creating layer layer_128_2_scale2
I0528 19:00:47.323611 11123 net.cpp:84] Creating Layer layer_128_2_scale2
I0528 19:00:47.323616 11123 net.cpp:406] layer_128_2_scale2 <- layer_128_2_conv1
I0528 19:00:47.323621 11123 net.cpp:367] layer_128_2_scale2 -> layer_128_2_conv1 (in-place)
I0528 19:00:47.323658 11123 layer_factory.hpp:77] Creating layer layer_128_2_scale2
I0528 19:00:47.323753 11123 net.cpp:122] Setting up layer_128_2_scale2
I0528 19:00:47.323761 11123 net.cpp:129] Top shape: 20 128 28 28 (2007040)
I0528 19:00:47.323766 11123 net.cpp:137] Memory required for data: 2581053520
I0528 19:00:47.323772 11123 layer_factory.hpp:77] Creating layer layer_128_2_relu2
I0528 19:00:47.323777 11123 net.cpp:84] Creating Layer layer_128_2_relu2
I0528 19:00:47.323781 11123 net.cpp:406] layer_128_2_relu2 <- layer_128_2_conv1
I0528 19:00:47.323786 11123 net.cpp:367] layer_128_2_relu2 -> layer_128_2_conv1 (in-place)
I0528 19:00:47.323935 11123 net.cpp:122] Setting up layer_128_2_relu2
I0528 19:00:47.323945 11123 net.cpp:129] Top shape: 20 128 28 28 (2007040)
I0528 19:00:47.323949 11123 net.cpp:137] Memory required for data: 2589081680
I0528 19:00:47.323952 11123 layer_factory.hpp:77] Creating layer layer_128_2_conv2
I0528 19:00:47.323962 11123 net.cpp:84] Creating Layer layer_128_2_conv2
I0528 19:00:47.323966 11123 net.cpp:406] layer_128_2_conv2 <- layer_128_2_conv1
I0528 19:00:47.323973 11123 net.cpp:380] layer_128_2_conv2 -> layer_128_2_conv2
I0528 19:00:47.327715 11123 net.cpp:122] Setting up layer_128_2_conv2
I0528 19:00:47.327729 11123 net.cpp:129] Top shape: 20 128 28 28 (2007040)
I0528 19:00:47.327733 11123 net.cpp:137] Memory required for data: 2597109840
I0528 19:00:47.327739 11123 layer_factory.hpp:77] Creating layer layer_128_2_bn3
I0528 19:00:47.327745 11123 net.cpp:84] Creating Layer layer_128_2_bn3
I0528 19:00:47.327749 11123 net.cpp:406] layer_128_2_bn3 <- layer_128_2_conv2
I0528 19:00:47.327755 11123 net.cpp:367] layer_128_2_bn3 -> layer_128_2_conv2 (in-place)
I0528 19:00:47.327924 11123 net.cpp:122] Setting up layer_128_2_bn3
I0528 19:00:47.327932 11123 net.cpp:129] Top shape: 20 128 28 28 (2007040)
I0528 19:00:47.327946 11123 net.cpp:137] Memory required for data: 2605138000
I0528 19:00:47.327955 11123 layer_factory.hpp:77] Creating layer layer_128_2_scale3
I0528 19:00:47.327961 11123 net.cpp:84] Creating Layer layer_128_2_scale3
I0528 19:00:47.327965 11123 net.cpp:406] layer_128_2_scale3 <- layer_128_2_conv2
I0528 19:00:47.327971 11123 net.cpp:367] layer_128_2_scale3 -> layer_128_2_conv2 (in-place)
I0528 19:00:47.328008 11123 layer_factory.hpp:77] Creating layer layer_128_2_scale3
I0528 19:00:47.328109 11123 net.cpp:122] Setting up layer_128_2_scale3
I0528 19:00:47.328117 11123 net.cpp:129] Top shape: 20 128 28 28 (2007040)
I0528 19:00:47.328120 11123 net.cpp:137] Memory required for data: 2613166160
I0528 19:00:47.328126 11123 layer_factory.hpp:77] Creating layer layer_128_2_relu3
I0528 19:00:47.328131 11123 net.cpp:84] Creating Layer layer_128_2_relu3
I0528 19:00:47.328135 11123 net.cpp:406] layer_128_2_relu3 <- layer_128_2_conv2
I0528 19:00:47.328140 11123 net.cpp:367] layer_128_2_relu3 -> layer_128_2_conv2 (in-place)
I0528 19:00:47.328768 11123 net.cpp:122] Setting up layer_128_2_relu3
I0528 19:00:47.328779 11123 net.cpp:129] Top shape: 20 128 28 28 (2007040)
I0528 19:00:47.328784 11123 net.cpp:137] Memory required for data: 2621194320
I0528 19:00:47.328788 11123 layer_factory.hpp:77] Creating layer layer_128_2_conv3
I0528 19:00:47.328799 11123 net.cpp:84] Creating Layer layer_128_2_conv3
I0528 19:00:47.328802 11123 net.cpp:406] layer_128_2_conv3 <- layer_128_2_conv2
I0528 19:00:47.328809 11123 net.cpp:380] layer_128_2_conv3 -> layer_128_2_conv3
I0528 19:00:47.330101 11123 net.cpp:122] Setting up layer_128_2_conv3
I0528 19:00:47.330112 11123 net.cpp:129] Top shape: 20 512 28 28 (8028160)
I0528 19:00:47.330116 11123 net.cpp:137] Memory required for data: 2653306960
I0528 19:00:47.330121 11123 layer_factory.hpp:77] Creating layer layer_128_2_sum
I0528 19:00:47.330128 11123 net.cpp:84] Creating Layer layer_128_2_sum
I0528 19:00:47.330133 11123 net.cpp:406] layer_128_2_sum <- layer_128_2_conv3
I0528 19:00:47.330137 11123 net.cpp:406] layer_128_2_sum <- layer_128_1_sum_layer_128_1_sum_0_split_1
I0528 19:00:47.330142 11123 net.cpp:380] layer_128_2_sum -> layer_128_2_sum
I0528 19:00:47.330168 11123 net.cpp:122] Setting up layer_128_2_sum
I0528 19:00:47.330176 11123 net.cpp:129] Top shape: 20 512 28 28 (8028160)
I0528 19:00:47.330179 11123 net.cpp:137] Memory required for data: 2685419600
I0528 19:00:47.330183 11123 layer_factory.hpp:77] Creating layer layer_128_2_sum_layer_128_2_sum_0_split
I0528 19:00:47.330188 11123 net.cpp:84] Creating Layer layer_128_2_sum_layer_128_2_sum_0_split
I0528 19:00:47.330191 11123 net.cpp:406] layer_128_2_sum_layer_128_2_sum_0_split <- layer_128_2_sum
I0528 19:00:47.330199 11123 net.cpp:380] layer_128_2_sum_layer_128_2_sum_0_split -> layer_128_2_sum_layer_128_2_sum_0_split_0
I0528 19:00:47.330204 11123 net.cpp:380] layer_128_2_sum_layer_128_2_sum_0_split -> layer_128_2_sum_layer_128_2_sum_0_split_1
I0528 19:00:47.330240 11123 net.cpp:122] Setting up layer_128_2_sum_layer_128_2_sum_0_split
I0528 19:00:47.330247 11123 net.cpp:129] Top shape: 20 512 28 28 (8028160)
I0528 19:00:47.330251 11123 net.cpp:129] Top shape: 20 512 28 28 (8028160)
I0528 19:00:47.330255 11123 net.cpp:137] Memory required for data: 2749644880
I0528 19:00:47.330257 11123 layer_factory.hpp:77] Creating layer layer_128_3_bn1
I0528 19:00:47.330263 11123 net.cpp:84] Creating Layer layer_128_3_bn1
I0528 19:00:47.330268 11123 net.cpp:406] layer_128_3_bn1 <- layer_128_2_sum_layer_128_2_sum_0_split_0
I0528 19:00:47.330273 11123 net.cpp:380] layer_128_3_bn1 -> layer_128_3_bn1
I0528 19:00:47.330436 11123 net.cpp:122] Setting up layer_128_3_bn1
I0528 19:00:47.330446 11123 net.cpp:129] Top shape: 20 512 28 28 (8028160)
I0528 19:00:47.330448 11123 net.cpp:137] Memory required for data: 2781757520
I0528 19:00:47.330456 11123 layer_factory.hpp:77] Creating layer layer_128_3_scale1
I0528 19:00:47.330462 11123 net.cpp:84] Creating Layer layer_128_3_scale1
I0528 19:00:47.330467 11123 net.cpp:406] layer_128_3_scale1 <- layer_128_3_bn1
I0528 19:00:47.330483 11123 net.cpp:367] layer_128_3_scale1 -> layer_128_3_bn1 (in-place)
I0528 19:00:47.330525 11123 layer_factory.hpp:77] Creating layer layer_128_3_scale1
I0528 19:00:47.330626 11123 net.cpp:122] Setting up layer_128_3_scale1
I0528 19:00:47.330634 11123 net.cpp:129] Top shape: 20 512 28 28 (8028160)
I0528 19:00:47.330638 11123 net.cpp:137] Memory required for data: 2813870160
I0528 19:00:47.330644 11123 layer_factory.hpp:77] Creating layer layer_128_3_relu1
I0528 19:00:47.330649 11123 net.cpp:84] Creating Layer layer_128_3_relu1
I0528 19:00:47.330653 11123 net.cpp:406] layer_128_3_relu1 <- layer_128_3_bn1
I0528 19:00:47.330659 11123 net.cpp:367] layer_128_3_relu1 -> layer_128_3_bn1 (in-place)
I0528 19:00:47.331285 11123 net.cpp:122] Setting up layer_128_3_relu1
I0528 19:00:47.331296 11123 net.cpp:129] Top shape: 20 512 28 28 (8028160)
I0528 19:00:47.331300 11123 net.cpp:137] Memory required for data: 2845982800
I0528 19:00:47.331305 11123 layer_factory.hpp:77] Creating layer layer_128_3_conv1
I0528 19:00:47.331313 11123 net.cpp:84] Creating Layer layer_128_3_conv1
I0528 19:00:47.331318 11123 net.cpp:406] layer_128_3_conv1 <- layer_128_3_bn1
I0528 19:00:47.331326 11123 net.cpp:380] layer_128_3_conv1 -> layer_128_3_conv1
I0528 19:00:47.333778 11123 net.cpp:122] Setting up layer_128_3_conv1
I0528 19:00:47.333791 11123 net.cpp:129] Top shape: 20 128 28 28 (2007040)
I0528 19:00:47.333796 11123 net.cpp:137] Memory required for data: 2854010960
I0528 19:00:47.333801 11123 layer_factory.hpp:77] Creating layer layer_128_3_bn2
I0528 19:00:47.333808 11123 net.cpp:84] Creating Layer layer_128_3_bn2
I0528 19:00:47.333814 11123 net.cpp:406] layer_128_3_bn2 <- layer_128_3_conv1
I0528 19:00:47.333822 11123 net.cpp:367] layer_128_3_bn2 -> layer_128_3_conv1 (in-place)
I0528 19:00:47.333987 11123 net.cpp:122] Setting up layer_128_3_bn2
I0528 19:00:47.333997 11123 net.cpp:129] Top shape: 20 128 28 28 (2007040)
I0528 19:00:47.333999 11123 net.cpp:137] Memory required for data: 2862039120
I0528 19:00:47.334007 11123 layer_factory.hpp:77] Creating layer layer_128_3_scale2
I0528 19:00:47.334015 11123 net.cpp:84] Creating Layer layer_128_3_scale2
I0528 19:00:47.334019 11123 net.cpp:406] layer_128_3_scale2 <- layer_128_3_conv1
I0528 19:00:47.334024 11123 net.cpp:367] layer_128_3_scale2 -> layer_128_3_conv1 (in-place)
I0528 19:00:47.334062 11123 layer_factory.hpp:77] Creating layer layer_128_3_scale2
I0528 19:00:47.334161 11123 net.cpp:122] Setting up layer_128_3_scale2
I0528 19:00:47.334169 11123 net.cpp:129] Top shape: 20 128 28 28 (2007040)
I0528 19:00:47.334172 11123 net.cpp:137] Memory required for data: 2870067280
I0528 19:00:47.334177 11123 layer_factory.hpp:77] Creating layer layer_128_3_relu2
I0528 19:00:47.334183 11123 net.cpp:84] Creating Layer layer_128_3_relu2
I0528 19:00:47.334188 11123 net.cpp:406] layer_128_3_relu2 <- layer_128_3_conv1
I0528 19:00:47.334194 11123 net.cpp:367] layer_128_3_relu2 -> layer_128_3_conv1 (in-place)
I0528 19:00:47.334344 11123 net.cpp:122] Setting up layer_128_3_relu2
I0528 19:00:47.334354 11123 net.cpp:129] Top shape: 20 128 28 28 (2007040)
I0528 19:00:47.334358 11123 net.cpp:137] Memory required for data: 2878095440
I0528 19:00:47.334362 11123 layer_factory.hpp:77] Creating layer layer_128_3_conv2
I0528 19:00:47.334372 11123 net.cpp:84] Creating Layer layer_128_3_conv2
I0528 19:00:47.334377 11123 net.cpp:406] layer_128_3_conv2 <- layer_128_3_conv1
I0528 19:00:47.334383 11123 net.cpp:380] layer_128_3_conv2 -> layer_128_3_conv2
I0528 19:00:47.337419 11123 net.cpp:122] Setting up layer_128_3_conv2
I0528 19:00:47.337432 11123 net.cpp:129] Top shape: 20 128 28 28 (2007040)
I0528 19:00:47.337436 11123 net.cpp:137] Memory required for data: 2886123600
I0528 19:00:47.337441 11123 layer_factory.hpp:77] Creating layer layer_128_3_bn3
I0528 19:00:47.337448 11123 net.cpp:84] Creating Layer layer_128_3_bn3
I0528 19:00:47.337452 11123 net.cpp:406] layer_128_3_bn3 <- layer_128_3_conv2
I0528 19:00:47.337457 11123 net.cpp:367] layer_128_3_bn3 -> layer_128_3_conv2 (in-place)
I0528 19:00:47.337637 11123 net.cpp:122] Setting up layer_128_3_bn3
I0528 19:00:47.337646 11123 net.cpp:129] Top shape: 20 128 28 28 (2007040)
I0528 19:00:47.337649 11123 net.cpp:137] Memory required for data: 2894151760
I0528 19:00:47.337656 11123 layer_factory.hpp:77] Creating layer layer_128_3_scale3
I0528 19:00:47.337662 11123 net.cpp:84] Creating Layer layer_128_3_scale3
I0528 19:00:47.337667 11123 net.cpp:406] layer_128_3_scale3 <- layer_128_3_conv2
I0528 19:00:47.337676 11123 net.cpp:367] layer_128_3_scale3 -> layer_128_3_conv2 (in-place)
I0528 19:00:47.337714 11123 layer_factory.hpp:77] Creating layer layer_128_3_scale3
I0528 19:00:47.337813 11123 net.cpp:122] Setting up layer_128_3_scale3
I0528 19:00:47.337822 11123 net.cpp:129] Top shape: 20 128 28 28 (2007040)
I0528 19:00:47.337826 11123 net.cpp:137] Memory required for data: 2902179920
I0528 19:00:47.337831 11123 layer_factory.hpp:77] Creating layer layer_128_3_relu3
I0528 19:00:47.337836 11123 net.cpp:84] Creating Layer layer_128_3_relu3
I0528 19:00:47.337841 11123 net.cpp:406] layer_128_3_relu3 <- layer_128_3_conv2
I0528 19:00:47.337847 11123 net.cpp:367] layer_128_3_relu3 -> layer_128_3_conv2 (in-place)
I0528 19:00:47.338001 11123 net.cpp:122] Setting up layer_128_3_relu3
I0528 19:00:47.338011 11123 net.cpp:129] Top shape: 20 128 28 28 (2007040)
I0528 19:00:47.338014 11123 net.cpp:137] Memory required for data: 2910208080
I0528 19:00:47.338017 11123 layer_factory.hpp:77] Creating layer layer_128_3_conv3
I0528 19:00:47.338027 11123 net.cpp:84] Creating Layer layer_128_3_conv3
I0528 19:00:47.338032 11123 net.cpp:406] layer_128_3_conv3 <- layer_128_3_conv2
I0528 19:00:47.338038 11123 net.cpp:380] layer_128_3_conv3 -> layer_128_3_conv3
I0528 19:00:47.339792 11123 net.cpp:122] Setting up layer_128_3_conv3
I0528 19:00:47.339805 11123 net.cpp:129] Top shape: 20 512 28 28 (8028160)
I0528 19:00:47.339809 11123 net.cpp:137] Memory required for data: 2942320720
I0528 19:00:47.339815 11123 layer_factory.hpp:77] Creating layer layer_128_3_sum
I0528 19:00:47.339820 11123 net.cpp:84] Creating Layer layer_128_3_sum
I0528 19:00:47.339824 11123 net.cpp:406] layer_128_3_sum <- layer_128_3_conv3
I0528 19:00:47.339828 11123 net.cpp:406] layer_128_3_sum <- layer_128_2_sum_layer_128_2_sum_0_split_1
I0528 19:00:47.339835 11123 net.cpp:380] layer_128_3_sum -> layer_128_3_sum
I0528 19:00:47.339860 11123 net.cpp:122] Setting up layer_128_3_sum
I0528 19:00:47.339869 11123 net.cpp:129] Top shape: 20 512 28 28 (8028160)
I0528 19:00:47.339871 11123 net.cpp:137] Memory required for data: 2974433360
I0528 19:00:47.339874 11123 layer_factory.hpp:77] Creating layer layer_128_3_sum_layer_128_3_sum_0_split
I0528 19:00:47.339881 11123 net.cpp:84] Creating Layer layer_128_3_sum_layer_128_3_sum_0_split
I0528 19:00:47.339884 11123 net.cpp:406] layer_128_3_sum_layer_128_3_sum_0_split <- layer_128_3_sum
I0528 19:00:47.339890 11123 net.cpp:380] layer_128_3_sum_layer_128_3_sum_0_split -> layer_128_3_sum_layer_128_3_sum_0_split_0
I0528 19:00:47.339897 11123 net.cpp:380] layer_128_3_sum_layer_128_3_sum_0_split -> layer_128_3_sum_layer_128_3_sum_0_split_1
I0528 19:00:47.339931 11123 net.cpp:122] Setting up layer_128_3_sum_layer_128_3_sum_0_split
I0528 19:00:47.339938 11123 net.cpp:129] Top shape: 20 512 28 28 (8028160)
I0528 19:00:47.339942 11123 net.cpp:129] Top shape: 20 512 28 28 (8028160)
I0528 19:00:47.339946 11123 net.cpp:137] Memory required for data: 3038658640
I0528 19:00:47.339948 11123 layer_factory.hpp:77] Creating layer layer_128_4_bn1
I0528 19:00:47.339954 11123 net.cpp:84] Creating Layer layer_128_4_bn1
I0528 19:00:47.339958 11123 net.cpp:406] layer_128_4_bn1 <- layer_128_3_sum_layer_128_3_sum_0_split_0
I0528 19:00:47.339964 11123 net.cpp:380] layer_128_4_bn1 -> layer_128_4_bn1
I0528 19:00:47.340132 11123 net.cpp:122] Setting up layer_128_4_bn1
I0528 19:00:47.340142 11123 net.cpp:129] Top shape: 20 512 28 28 (8028160)
I0528 19:00:47.340144 11123 net.cpp:137] Memory required for data: 3070771280
I0528 19:00:47.340152 11123 layer_factory.hpp:77] Creating layer layer_128_4_scale1
I0528 19:00:47.340168 11123 net.cpp:84] Creating Layer layer_128_4_scale1
I0528 19:00:47.340173 11123 net.cpp:406] layer_128_4_scale1 <- layer_128_4_bn1
I0528 19:00:47.340178 11123 net.cpp:367] layer_128_4_scale1 -> layer_128_4_bn1 (in-place)
I0528 19:00:47.340217 11123 layer_factory.hpp:77] Creating layer layer_128_4_scale1
I0528 19:00:47.340315 11123 net.cpp:122] Setting up layer_128_4_scale1
I0528 19:00:47.340324 11123 net.cpp:129] Top shape: 20 512 28 28 (8028160)
I0528 19:00:47.340327 11123 net.cpp:137] Memory required for data: 3102883920
I0528 19:00:47.340332 11123 layer_factory.hpp:77] Creating layer layer_128_4_relu1
I0528 19:00:47.340339 11123 net.cpp:84] Creating Layer layer_128_4_relu1
I0528 19:00:47.340344 11123 net.cpp:406] layer_128_4_relu1 <- layer_128_4_bn1
I0528 19:00:47.340350 11123 net.cpp:367] layer_128_4_relu1 -> layer_128_4_bn1 (in-place)
I0528 19:00:47.340499 11123 net.cpp:122] Setting up layer_128_4_relu1
I0528 19:00:47.340509 11123 net.cpp:129] Top shape: 20 512 28 28 (8028160)
I0528 19:00:47.340513 11123 net.cpp:137] Memory required for data: 3134996560
I0528 19:00:47.340517 11123 layer_factory.hpp:77] Creating layer layer_128_4_conv1
I0528 19:00:47.340526 11123 net.cpp:84] Creating Layer layer_128_4_conv1
I0528 19:00:47.340531 11123 net.cpp:406] layer_128_4_conv1 <- layer_128_4_bn1
I0528 19:00:47.340538 11123 net.cpp:380] layer_128_4_conv1 -> layer_128_4_conv1
I0528 19:00:47.342293 11123 net.cpp:122] Setting up layer_128_4_conv1
I0528 19:00:47.342306 11123 net.cpp:129] Top shape: 20 128 28 28 (2007040)
I0528 19:00:47.342309 11123 net.cpp:137] Memory required for data: 3143024720
I0528 19:00:47.342314 11123 layer_factory.hpp:77] Creating layer layer_128_4_bn2
I0528 19:00:47.342322 11123 net.cpp:84] Creating Layer layer_128_4_bn2
I0528 19:00:47.342327 11123 net.cpp:406] layer_128_4_bn2 <- layer_128_4_conv1
I0528 19:00:47.342334 11123 net.cpp:367] layer_128_4_bn2 -> layer_128_4_conv1 (in-place)
I0528 19:00:47.342500 11123 net.cpp:122] Setting up layer_128_4_bn2
I0528 19:00:47.342509 11123 net.cpp:129] Top shape: 20 128 28 28 (2007040)
I0528 19:00:47.342514 11123 net.cpp:137] Memory required for data: 3151052880
I0528 19:00:47.342520 11123 layer_factory.hpp:77] Creating layer layer_128_4_scale2
I0528 19:00:47.342530 11123 net.cpp:84] Creating Layer layer_128_4_scale2
I0528 19:00:47.342535 11123 net.cpp:406] layer_128_4_scale2 <- layer_128_4_conv1
I0528 19:00:47.342540 11123 net.cpp:367] layer_128_4_scale2 -> layer_128_4_conv1 (in-place)
I0528 19:00:47.342578 11123 layer_factory.hpp:77] Creating layer layer_128_4_scale2
I0528 19:00:47.342679 11123 net.cpp:122] Setting up layer_128_4_scale2
I0528 19:00:47.342686 11123 net.cpp:129] Top shape: 20 128 28 28 (2007040)
I0528 19:00:47.342690 11123 net.cpp:137] Memory required for data: 3159081040
I0528 19:00:47.342695 11123 layer_factory.hpp:77] Creating layer layer_128_4_relu2
I0528 19:00:47.342701 11123 net.cpp:84] Creating Layer layer_128_4_relu2
I0528 19:00:47.342705 11123 net.cpp:406] layer_128_4_relu2 <- layer_128_4_conv1
I0528 19:00:47.342711 11123 net.cpp:367] layer_128_4_relu2 -> layer_128_4_conv1 (in-place)
I0528 19:00:47.342864 11123 net.cpp:122] Setting up layer_128_4_relu2
I0528 19:00:47.342874 11123 net.cpp:129] Top shape: 20 128 28 28 (2007040)
I0528 19:00:47.342876 11123 net.cpp:137] Memory required for data: 3167109200
I0528 19:00:47.342880 11123 layer_factory.hpp:77] Creating layer layer_128_4_conv2
I0528 19:00:47.342890 11123 net.cpp:84] Creating Layer layer_128_4_conv2
I0528 19:00:47.342893 11123 net.cpp:406] layer_128_4_conv2 <- layer_128_4_conv1
I0528 19:00:47.342900 11123 net.cpp:380] layer_128_4_conv2 -> layer_128_4_conv2
I0528 19:00:47.345942 11123 net.cpp:122] Setting up layer_128_4_conv2
I0528 19:00:47.345954 11123 net.cpp:129] Top shape: 20 128 28 28 (2007040)
I0528 19:00:47.345957 11123 net.cpp:137] Memory required for data: 3175137360
I0528 19:00:47.345978 11123 layer_factory.hpp:77] Creating layer layer_128_4_bn3
I0528 19:00:47.345988 11123 net.cpp:84] Creating Layer layer_128_4_bn3
I0528 19:00:47.345993 11123 net.cpp:406] layer_128_4_bn3 <- layer_128_4_conv2
I0528 19:00:47.346009 11123 net.cpp:367] layer_128_4_bn3 -> layer_128_4_conv2 (in-place)
I0528 19:00:47.346179 11123 net.cpp:122] Setting up layer_128_4_bn3
I0528 19:00:47.346189 11123 net.cpp:129] Top shape: 20 128 28 28 (2007040)
I0528 19:00:47.346194 11123 net.cpp:137] Memory required for data: 3183165520
I0528 19:00:47.346200 11123 layer_factory.hpp:77] Creating layer layer_128_4_scale3
I0528 19:00:47.346207 11123 net.cpp:84] Creating Layer layer_128_4_scale3
I0528 19:00:47.346211 11123 net.cpp:406] layer_128_4_scale3 <- layer_128_4_conv2
I0528 19:00:47.346216 11123 net.cpp:367] layer_128_4_scale3 -> layer_128_4_conv2 (in-place)
I0528 19:00:47.346256 11123 layer_factory.hpp:77] Creating layer layer_128_4_scale3
I0528 19:00:47.346356 11123 net.cpp:122] Setting up layer_128_4_scale3
I0528 19:00:47.346365 11123 net.cpp:129] Top shape: 20 128 28 28 (2007040)
I0528 19:00:47.346369 11123 net.cpp:137] Memory required for data: 3191193680
I0528 19:00:47.346375 11123 layer_factory.hpp:77] Creating layer layer_128_4_relu3
I0528 19:00:47.346381 11123 net.cpp:84] Creating Layer layer_128_4_relu3
I0528 19:00:47.346385 11123 net.cpp:406] layer_128_4_relu3 <- layer_128_4_conv2
I0528 19:00:47.346392 11123 net.cpp:367] layer_128_4_relu3 -> layer_128_4_conv2 (in-place)
I0528 19:00:47.347020 11123 net.cpp:122] Setting up layer_128_4_relu3
I0528 19:00:47.347031 11123 net.cpp:129] Top shape: 20 128 28 28 (2007040)
I0528 19:00:47.347035 11123 net.cpp:137] Memory required for data: 3199221840
I0528 19:00:47.347039 11123 layer_factory.hpp:77] Creating layer layer_128_4_conv3
I0528 19:00:47.347050 11123 net.cpp:84] Creating Layer layer_128_4_conv3
I0528 19:00:47.347055 11123 net.cpp:406] layer_128_4_conv3 <- layer_128_4_conv2
I0528 19:00:47.347061 11123 net.cpp:380] layer_128_4_conv3 -> layer_128_4_conv3
I0528 19:00:47.349426 11123 net.cpp:122] Setting up layer_128_4_conv3
I0528 19:00:47.349439 11123 net.cpp:129] Top shape: 20 512 28 28 (8028160)
I0528 19:00:47.349442 11123 net.cpp:137] Memory required for data: 3231334480
I0528 19:00:47.349447 11123 layer_factory.hpp:77] Creating layer layer_128_4_sum
I0528 19:00:47.349453 11123 net.cpp:84] Creating Layer layer_128_4_sum
I0528 19:00:47.349457 11123 net.cpp:406] layer_128_4_sum <- layer_128_4_conv3
I0528 19:00:47.349462 11123 net.cpp:406] layer_128_4_sum <- layer_128_3_sum_layer_128_3_sum_0_split_1
I0528 19:00:47.349467 11123 net.cpp:380] layer_128_4_sum -> layer_128_4_sum
I0528 19:00:47.349494 11123 net.cpp:122] Setting up layer_128_4_sum
I0528 19:00:47.349504 11123 net.cpp:129] Top shape: 20 512 28 28 (8028160)
I0528 19:00:47.349508 11123 net.cpp:137] Memory required for data: 3263447120
I0528 19:00:47.349510 11123 layer_factory.hpp:77] Creating layer layer_256_1_bn1
I0528 19:00:47.349515 11123 net.cpp:84] Creating Layer layer_256_1_bn1
I0528 19:00:47.349519 11123 net.cpp:406] layer_256_1_bn1 <- layer_128_4_sum
I0528 19:00:47.349525 11123 net.cpp:380] layer_256_1_bn1 -> layer_256_1_bn1
I0528 19:00:47.349704 11123 net.cpp:122] Setting up layer_256_1_bn1
I0528 19:00:47.349712 11123 net.cpp:129] Top shape: 20 512 28 28 (8028160)
I0528 19:00:47.349715 11123 net.cpp:137] Memory required for data: 3295559760
I0528 19:00:47.349722 11123 layer_factory.hpp:77] Creating layer layer_256_1_scale1
I0528 19:00:47.349731 11123 net.cpp:84] Creating Layer layer_256_1_scale1
I0528 19:00:47.349735 11123 net.cpp:406] layer_256_1_scale1 <- layer_256_1_bn1
I0528 19:00:47.349740 11123 net.cpp:367] layer_256_1_scale1 -> layer_256_1_bn1 (in-place)
I0528 19:00:47.349781 11123 layer_factory.hpp:77] Creating layer layer_256_1_scale1
I0528 19:00:47.349884 11123 net.cpp:122] Setting up layer_256_1_scale1
I0528 19:00:47.349892 11123 net.cpp:129] Top shape: 20 512 28 28 (8028160)
I0528 19:00:47.349895 11123 net.cpp:137] Memory required for data: 3327672400
I0528 19:00:47.349900 11123 layer_factory.hpp:77] Creating layer layer_256_1_relu1
I0528 19:00:47.349906 11123 net.cpp:84] Creating Layer layer_256_1_relu1
I0528 19:00:47.349910 11123 net.cpp:406] layer_256_1_relu1 <- layer_256_1_bn1
I0528 19:00:47.349926 11123 net.cpp:367] layer_256_1_relu1 -> layer_256_1_bn1 (in-place)
I0528 19:00:47.350575 11123 net.cpp:122] Setting up layer_256_1_relu1
I0528 19:00:47.350589 11123 net.cpp:129] Top shape: 20 512 28 28 (8028160)
I0528 19:00:47.350592 11123 net.cpp:137] Memory required for data: 3359785040
I0528 19:00:47.350595 11123 layer_factory.hpp:77] Creating layer layer_256_1_bn1_layer_256_1_relu1_0_split
I0528 19:00:47.350601 11123 net.cpp:84] Creating Layer layer_256_1_bn1_layer_256_1_relu1_0_split
I0528 19:00:47.350605 11123 net.cpp:406] layer_256_1_bn1_layer_256_1_relu1_0_split <- layer_256_1_bn1
I0528 19:00:47.350610 11123 net.cpp:380] layer_256_1_bn1_layer_256_1_relu1_0_split -> layer_256_1_bn1_layer_256_1_relu1_0_split_0
I0528 19:00:47.350620 11123 net.cpp:380] layer_256_1_bn1_layer_256_1_relu1_0_split -> layer_256_1_bn1_layer_256_1_relu1_0_split_1
I0528 19:00:47.350661 11123 net.cpp:122] Setting up layer_256_1_bn1_layer_256_1_relu1_0_split
I0528 19:00:47.350668 11123 net.cpp:129] Top shape: 20 512 28 28 (8028160)
I0528 19:00:47.350673 11123 net.cpp:129] Top shape: 20 512 28 28 (8028160)
I0528 19:00:47.350677 11123 net.cpp:137] Memory required for data: 3424010320
I0528 19:00:47.350680 11123 layer_factory.hpp:77] Creating layer layer_256_1_conv1
I0528 19:00:47.350692 11123 net.cpp:84] Creating Layer layer_256_1_conv1
I0528 19:00:47.350697 11123 net.cpp:406] layer_256_1_conv1 <- layer_256_1_bn1_layer_256_1_relu1_0_split_0
I0528 19:00:47.350702 11123 net.cpp:380] layer_256_1_conv1 -> layer_256_1_conv1
I0528 19:00:47.353844 11123 net.cpp:122] Setting up layer_256_1_conv1
I0528 19:00:47.353858 11123 net.cpp:129] Top shape: 20 256 28 28 (4014080)
I0528 19:00:47.353863 11123 net.cpp:137] Memory required for data: 3440066640
I0528 19:00:47.353868 11123 layer_factory.hpp:77] Creating layer layer_256_1_bn2
I0528 19:00:47.353875 11123 net.cpp:84] Creating Layer layer_256_1_bn2
I0528 19:00:47.353880 11123 net.cpp:406] layer_256_1_bn2 <- layer_256_1_conv1
I0528 19:00:47.353886 11123 net.cpp:367] layer_256_1_bn2 -> layer_256_1_conv1 (in-place)
I0528 19:00:47.354060 11123 net.cpp:122] Setting up layer_256_1_bn2
I0528 19:00:47.354068 11123 net.cpp:129] Top shape: 20 256 28 28 (4014080)
I0528 19:00:47.354073 11123 net.cpp:137] Memory required for data: 3456122960
I0528 19:00:47.354079 11123 layer_factory.hpp:77] Creating layer layer_256_1_scale2
I0528 19:00:47.354086 11123 net.cpp:84] Creating Layer layer_256_1_scale2
I0528 19:00:47.354091 11123 net.cpp:406] layer_256_1_scale2 <- layer_256_1_conv1
I0528 19:00:47.354095 11123 net.cpp:367] layer_256_1_scale2 -> layer_256_1_conv1 (in-place)
I0528 19:00:47.354135 11123 layer_factory.hpp:77] Creating layer layer_256_1_scale2
I0528 19:00:47.354240 11123 net.cpp:122] Setting up layer_256_1_scale2
I0528 19:00:47.354250 11123 net.cpp:129] Top shape: 20 256 28 28 (4014080)
I0528 19:00:47.354254 11123 net.cpp:137] Memory required for data: 3472179280
I0528 19:00:47.354260 11123 layer_factory.hpp:77] Creating layer layer_256_1_relu2
I0528 19:00:47.354266 11123 net.cpp:84] Creating Layer layer_256_1_relu2
I0528 19:00:47.354271 11123 net.cpp:406] layer_256_1_relu2 <- layer_256_1_conv1
I0528 19:00:47.354275 11123 net.cpp:367] layer_256_1_relu2 -> layer_256_1_conv1 (in-place)
I0528 19:00:47.354431 11123 net.cpp:122] Setting up layer_256_1_relu2
I0528 19:00:47.354441 11123 net.cpp:129] Top shape: 20 256 28 28 (4014080)
I0528 19:00:47.354445 11123 net.cpp:137] Memory required for data: 3488235600
I0528 19:00:47.354449 11123 layer_factory.hpp:77] Creating layer layer_256_1_conv2
I0528 19:00:47.354459 11123 net.cpp:84] Creating Layer layer_256_1_conv2
I0528 19:00:47.354463 11123 net.cpp:406] layer_256_1_conv2 <- layer_256_1_conv1
I0528 19:00:47.354470 11123 net.cpp:380] layer_256_1_conv2 -> layer_256_1_conv2
I0528 19:00:47.362171 11123 net.cpp:122] Setting up layer_256_1_conv2
I0528 19:00:47.362187 11123 net.cpp:129] Top shape: 20 256 14 14 (1003520)
I0528 19:00:47.362192 11123 net.cpp:137] Memory required for data: 3492249680
I0528 19:00:47.362198 11123 layer_factory.hpp:77] Creating layer layer_256_1_bn3
I0528 19:00:47.362215 11123 net.cpp:84] Creating Layer layer_256_1_bn3
I0528 19:00:47.362220 11123 net.cpp:406] layer_256_1_bn3 <- layer_256_1_conv2
I0528 19:00:47.362226 11123 net.cpp:367] layer_256_1_bn3 -> layer_256_1_conv2 (in-place)
I0528 19:00:47.362403 11123 net.cpp:122] Setting up layer_256_1_bn3
I0528 19:00:47.362412 11123 net.cpp:129] Top shape: 20 256 14 14 (1003520)
I0528 19:00:47.362416 11123 net.cpp:137] Memory required for data: 3496263760
I0528 19:00:47.362423 11123 layer_factory.hpp:77] Creating layer layer_256_1_scale3
I0528 19:00:47.362431 11123 net.cpp:84] Creating Layer layer_256_1_scale3
I0528 19:00:47.362434 11123 net.cpp:406] layer_256_1_scale3 <- layer_256_1_conv2
I0528 19:00:47.362439 11123 net.cpp:367] layer_256_1_scale3 -> layer_256_1_conv2 (in-place)
I0528 19:00:47.362480 11123 layer_factory.hpp:77] Creating layer layer_256_1_scale3
I0528 19:00:47.362581 11123 net.cpp:122] Setting up layer_256_1_scale3
I0528 19:00:47.362592 11123 net.cpp:129] Top shape: 20 256 14 14 (1003520)
I0528 19:00:47.362596 11123 net.cpp:137] Memory required for data: 3500277840
I0528 19:00:47.362602 11123 layer_factory.hpp:77] Creating layer layer_256_1_relu3
I0528 19:00:47.362608 11123 net.cpp:84] Creating Layer layer_256_1_relu3
I0528 19:00:47.362612 11123 net.cpp:406] layer_256_1_relu3 <- layer_256_1_conv2
I0528 19:00:47.362617 11123 net.cpp:367] layer_256_1_relu3 -> layer_256_1_conv2 (in-place)
I0528 19:00:47.362769 11123 net.cpp:122] Setting up layer_256_1_relu3
I0528 19:00:47.362779 11123 net.cpp:129] Top shape: 20 256 14 14 (1003520)
I0528 19:00:47.362783 11123 net.cpp:137] Memory required for data: 3504291920
I0528 19:00:47.362787 11123 layer_factory.hpp:77] Creating layer layer_256_1_conv3
I0528 19:00:47.362797 11123 net.cpp:84] Creating Layer layer_256_1_conv3
I0528 19:00:47.362802 11123 net.cpp:406] layer_256_1_conv3 <- layer_256_1_conv2
I0528 19:00:47.362808 11123 net.cpp:380] layer_256_1_conv3 -> layer_256_1_conv3
I0528 19:00:47.366541 11123 net.cpp:122] Setting up layer_256_1_conv3
I0528 19:00:47.366554 11123 net.cpp:129] Top shape: 20 1024 14 14 (4014080)
I0528 19:00:47.366557 11123 net.cpp:137] Memory required for data: 3520348240
I0528 19:00:47.366564 11123 layer_factory.hpp:77] Creating layer layer_256_1_conv_expand
I0528 19:00:47.366572 11123 net.cpp:84] Creating Layer layer_256_1_conv_expand
I0528 19:00:47.366577 11123 net.cpp:406] layer_256_1_conv_expand <- layer_256_1_bn1_layer_256_1_relu1_0_split_1
I0528 19:00:47.366585 11123 net.cpp:380] layer_256_1_conv_expand -> layer_256_1_conv_expand
I0528 19:00:47.373598 11123 net.cpp:122] Setting up layer_256_1_conv_expand
I0528 19:00:47.373611 11123 net.cpp:129] Top shape: 20 1024 14 14 (4014080)
I0528 19:00:47.373615 11123 net.cpp:137] Memory required for data: 3536404560
I0528 19:00:47.373621 11123 layer_factory.hpp:77] Creating layer layer_256_1_sum
I0528 19:00:47.373631 11123 net.cpp:84] Creating Layer layer_256_1_sum
I0528 19:00:47.373636 11123 net.cpp:406] layer_256_1_sum <- layer_256_1_conv3
I0528 19:00:47.373639 11123 net.cpp:406] layer_256_1_sum <- layer_256_1_conv_expand
I0528 19:00:47.373646 11123 net.cpp:380] layer_256_1_sum -> layer_256_1_sum
I0528 19:00:47.373675 11123 net.cpp:122] Setting up layer_256_1_sum
I0528 19:00:47.373683 11123 net.cpp:129] Top shape: 20 1024 14 14 (4014080)
I0528 19:00:47.373687 11123 net.cpp:137] Memory required for data: 3552460880
I0528 19:00:47.373690 11123 layer_factory.hpp:77] Creating layer layer_256_1_sum_layer_256_1_sum_0_split
I0528 19:00:47.373695 11123 net.cpp:84] Creating Layer layer_256_1_sum_layer_256_1_sum_0_split
I0528 19:00:47.373700 11123 net.cpp:406] layer_256_1_sum_layer_256_1_sum_0_split <- layer_256_1_sum
I0528 19:00:47.373706 11123 net.cpp:380] layer_256_1_sum_layer_256_1_sum_0_split -> layer_256_1_sum_layer_256_1_sum_0_split_0
I0528 19:00:47.373713 11123 net.cpp:380] layer_256_1_sum_layer_256_1_sum_0_split -> layer_256_1_sum_layer_256_1_sum_0_split_1
I0528 19:00:47.373762 11123 net.cpp:122] Setting up layer_256_1_sum_layer_256_1_sum_0_split
I0528 19:00:47.373770 11123 net.cpp:129] Top shape: 20 1024 14 14 (4014080)
I0528 19:00:47.373785 11123 net.cpp:129] Top shape: 20 1024 14 14 (4014080)
I0528 19:00:47.373790 11123 net.cpp:137] Memory required for data: 3584573520
I0528 19:00:47.373792 11123 layer_factory.hpp:77] Creating layer layer_256_2_bn1
I0528 19:00:47.373798 11123 net.cpp:84] Creating Layer layer_256_2_bn1
I0528 19:00:47.373802 11123 net.cpp:406] layer_256_2_bn1 <- layer_256_1_sum_layer_256_1_sum_0_split_0
I0528 19:00:47.373811 11123 net.cpp:380] layer_256_2_bn1 -> layer_256_2_bn1
I0528 19:00:47.374001 11123 net.cpp:122] Setting up layer_256_2_bn1
I0528 19:00:47.374011 11123 net.cpp:129] Top shape: 20 1024 14 14 (4014080)
I0528 19:00:47.374013 11123 net.cpp:137] Memory required for data: 3600629840
I0528 19:00:47.374022 11123 layer_factory.hpp:77] Creating layer layer_256_2_scale1
I0528 19:00:47.374029 11123 net.cpp:84] Creating Layer layer_256_2_scale1
I0528 19:00:47.374034 11123 net.cpp:406] layer_256_2_scale1 <- layer_256_2_bn1
I0528 19:00:47.374039 11123 net.cpp:367] layer_256_2_scale1 -> layer_256_2_bn1 (in-place)
I0528 19:00:47.374079 11123 layer_factory.hpp:77] Creating layer layer_256_2_scale1
I0528 19:00:47.374187 11123 net.cpp:122] Setting up layer_256_2_scale1
I0528 19:00:47.374195 11123 net.cpp:129] Top shape: 20 1024 14 14 (4014080)
I0528 19:00:47.374199 11123 net.cpp:137] Memory required for data: 3616686160
I0528 19:00:47.374205 11123 layer_factory.hpp:77] Creating layer layer_256_2_relu1
I0528 19:00:47.374213 11123 net.cpp:84] Creating Layer layer_256_2_relu1
I0528 19:00:47.374217 11123 net.cpp:406] layer_256_2_relu1 <- layer_256_2_bn1
I0528 19:00:47.374222 11123 net.cpp:367] layer_256_2_relu1 -> layer_256_2_bn1 (in-place)
I0528 19:00:47.374858 11123 net.cpp:122] Setting up layer_256_2_relu1
I0528 19:00:47.374871 11123 net.cpp:129] Top shape: 20 1024 14 14 (4014080)
I0528 19:00:47.374874 11123 net.cpp:137] Memory required for data: 3632742480
I0528 19:00:47.374877 11123 layer_factory.hpp:77] Creating layer layer_256_2_conv1
I0528 19:00:47.374887 11123 net.cpp:84] Creating Layer layer_256_2_conv1
I0528 19:00:47.374892 11123 net.cpp:406] layer_256_2_conv1 <- layer_256_2_bn1
I0528 19:00:47.374900 11123 net.cpp:380] layer_256_2_conv1 -> layer_256_2_conv1
I0528 19:00:47.379329 11123 net.cpp:122] Setting up layer_256_2_conv1
I0528 19:00:47.379344 11123 net.cpp:129] Top shape: 20 256 14 14 (1003520)
I0528 19:00:47.379348 11123 net.cpp:137] Memory required for data: 3636756560
I0528 19:00:47.379354 11123 layer_factory.hpp:77] Creating layer layer_256_2_bn2
I0528 19:00:47.379361 11123 net.cpp:84] Creating Layer layer_256_2_bn2
I0528 19:00:47.379365 11123 net.cpp:406] layer_256_2_bn2 <- layer_256_2_conv1
I0528 19:00:47.379372 11123 net.cpp:367] layer_256_2_bn2 -> layer_256_2_conv1 (in-place)
I0528 19:00:47.379549 11123 net.cpp:122] Setting up layer_256_2_bn2
I0528 19:00:47.379557 11123 net.cpp:129] Top shape: 20 256 14 14 (1003520)
I0528 19:00:47.379561 11123 net.cpp:137] Memory required for data: 3640770640
I0528 19:00:47.379568 11123 layer_factory.hpp:77] Creating layer layer_256_2_scale2
I0528 19:00:47.379575 11123 net.cpp:84] Creating Layer layer_256_2_scale2
I0528 19:00:47.379580 11123 net.cpp:406] layer_256_2_scale2 <- layer_256_2_conv1
I0528 19:00:47.379586 11123 net.cpp:367] layer_256_2_scale2 -> layer_256_2_conv1 (in-place)
I0528 19:00:47.379626 11123 layer_factory.hpp:77] Creating layer layer_256_2_scale2
I0528 19:00:47.379726 11123 net.cpp:122] Setting up layer_256_2_scale2
I0528 19:00:47.379736 11123 net.cpp:129] Top shape: 20 256 14 14 (1003520)
I0528 19:00:47.379739 11123 net.cpp:137] Memory required for data: 3644784720
I0528 19:00:47.379745 11123 layer_factory.hpp:77] Creating layer layer_256_2_relu2
I0528 19:00:47.379751 11123 net.cpp:84] Creating Layer layer_256_2_relu2
I0528 19:00:47.379755 11123 net.cpp:406] layer_256_2_relu2 <- layer_256_2_conv1
I0528 19:00:47.379760 11123 net.cpp:367] layer_256_2_relu2 -> layer_256_2_conv1 (in-place)
I0528 19:00:47.379909 11123 net.cpp:122] Setting up layer_256_2_relu2
I0528 19:00:47.379920 11123 net.cpp:129] Top shape: 20 256 14 14 (1003520)
I0528 19:00:47.379931 11123 net.cpp:137] Memory required for data: 3648798800
I0528 19:00:47.379935 11123 layer_factory.hpp:77] Creating layer layer_256_2_conv2
I0528 19:00:47.379967 11123 net.cpp:84] Creating Layer layer_256_2_conv2
I0528 19:00:47.379972 11123 net.cpp:406] layer_256_2_conv2 <- layer_256_2_conv1
I0528 19:00:47.379978 11123 net.cpp:380] layer_256_2_conv2 -> layer_256_2_conv2
I0528 19:00:47.388291 11123 net.cpp:122] Setting up layer_256_2_conv2
I0528 19:00:47.388312 11123 net.cpp:129] Top shape: 20 256 14 14 (1003520)
I0528 19:00:47.388315 11123 net.cpp:137] Memory required for data: 3652812880
I0528 19:00:47.388324 11123 layer_factory.hpp:77] Creating layer layer_256_2_bn3
I0528 19:00:47.388334 11123 net.cpp:84] Creating Layer layer_256_2_bn3
I0528 19:00:47.388339 11123 net.cpp:406] layer_256_2_bn3 <- layer_256_2_conv2
I0528 19:00:47.388345 11123 net.cpp:367] layer_256_2_bn3 -> layer_256_2_conv2 (in-place)
I0528 19:00:47.388531 11123 net.cpp:122] Setting up layer_256_2_bn3
I0528 19:00:47.388540 11123 net.cpp:129] Top shape: 20 256 14 14 (1003520)
I0528 19:00:47.388543 11123 net.cpp:137] Memory required for data: 3656826960
I0528 19:00:47.388551 11123 layer_factory.hpp:77] Creating layer layer_256_2_scale3
I0528 19:00:47.388561 11123 net.cpp:84] Creating Layer layer_256_2_scale3
I0528 19:00:47.388566 11123 net.cpp:406] layer_256_2_scale3 <- layer_256_2_conv2
I0528 19:00:47.388571 11123 net.cpp:367] layer_256_2_scale3 -> layer_256_2_conv2 (in-place)
I0528 19:00:47.388617 11123 layer_factory.hpp:77] Creating layer layer_256_2_scale3
I0528 19:00:47.388723 11123 net.cpp:122] Setting up layer_256_2_scale3
I0528 19:00:47.388731 11123 net.cpp:129] Top shape: 20 256 14 14 (1003520)
I0528 19:00:47.388736 11123 net.cpp:137] Memory required for data: 3660841040
I0528 19:00:47.388741 11123 layer_factory.hpp:77] Creating layer layer_256_2_relu3
I0528 19:00:47.388747 11123 net.cpp:84] Creating Layer layer_256_2_relu3
I0528 19:00:47.388751 11123 net.cpp:406] layer_256_2_relu3 <- layer_256_2_conv2
I0528 19:00:47.388757 11123 net.cpp:367] layer_256_2_relu3 -> layer_256_2_conv2 (in-place)
I0528 19:00:47.388912 11123 net.cpp:122] Setting up layer_256_2_relu3
I0528 19:00:47.388922 11123 net.cpp:129] Top shape: 20 256 14 14 (1003520)
I0528 19:00:47.388931 11123 net.cpp:137] Memory required for data: 3664855120
I0528 19:00:47.388936 11123 layer_factory.hpp:77] Creating layer layer_256_2_conv3
I0528 19:00:47.388945 11123 net.cpp:84] Creating Layer layer_256_2_conv3
I0528 19:00:47.388950 11123 net.cpp:406] layer_256_2_conv3 <- layer_256_2_conv2
I0528 19:00:47.388957 11123 net.cpp:380] layer_256_2_conv3 -> layer_256_2_conv3
I0528 19:00:47.392727 11123 net.cpp:122] Setting up layer_256_2_conv3
I0528 19:00:47.392740 11123 net.cpp:129] Top shape: 20 1024 14 14 (4014080)
I0528 19:00:47.392743 11123 net.cpp:137] Memory required for data: 3680911440
I0528 19:00:47.392748 11123 layer_factory.hpp:77] Creating layer layer_256_2_sum
I0528 19:00:47.392757 11123 net.cpp:84] Creating Layer layer_256_2_sum
I0528 19:00:47.392762 11123 net.cpp:406] layer_256_2_sum <- layer_256_2_conv3
I0528 19:00:47.392766 11123 net.cpp:406] layer_256_2_sum <- layer_256_1_sum_layer_256_1_sum_0_split_1
I0528 19:00:47.392772 11123 net.cpp:380] layer_256_2_sum -> layer_256_2_sum
I0528 19:00:47.392803 11123 net.cpp:122] Setting up layer_256_2_sum
I0528 19:00:47.392810 11123 net.cpp:129] Top shape: 20 1024 14 14 (4014080)
I0528 19:00:47.392814 11123 net.cpp:137] Memory required for data: 3696967760
I0528 19:00:47.392817 11123 layer_factory.hpp:77] Creating layer layer_256_2_sum_layer_256_2_sum_0_split
I0528 19:00:47.392823 11123 net.cpp:84] Creating Layer layer_256_2_sum_layer_256_2_sum_0_split
I0528 19:00:47.392827 11123 net.cpp:406] layer_256_2_sum_layer_256_2_sum_0_split <- layer_256_2_sum
I0528 19:00:47.392834 11123 net.cpp:380] layer_256_2_sum_layer_256_2_sum_0_split -> layer_256_2_sum_layer_256_2_sum_0_split_0
I0528 19:00:47.392841 11123 net.cpp:380] layer_256_2_sum_layer_256_2_sum_0_split -> layer_256_2_sum_layer_256_2_sum_0_split_1
I0528 19:00:47.392894 11123 net.cpp:122] Setting up layer_256_2_sum_layer_256_2_sum_0_split
I0528 19:00:47.392902 11123 net.cpp:129] Top shape: 20 1024 14 14 (4014080)
I0528 19:00:47.392907 11123 net.cpp:129] Top shape: 20 1024 14 14 (4014080)
I0528 19:00:47.392910 11123 net.cpp:137] Memory required for data: 3729080400
I0528 19:00:47.392913 11123 layer_factory.hpp:77] Creating layer layer_256_3_bn1
I0528 19:00:47.392920 11123 net.cpp:84] Creating Layer layer_256_3_bn1
I0528 19:00:47.392927 11123 net.cpp:406] layer_256_3_bn1 <- layer_256_2_sum_layer_256_2_sum_0_split_0
I0528 19:00:47.392935 11123 net.cpp:380] layer_256_3_bn1 -> layer_256_3_bn1
I0528 19:00:47.393121 11123 net.cpp:122] Setting up layer_256_3_bn1
I0528 19:00:47.393131 11123 net.cpp:129] Top shape: 20 1024 14 14 (4014080)
I0528 19:00:47.393133 11123 net.cpp:137] Memory required for data: 3745136720
I0528 19:00:47.393141 11123 layer_factory.hpp:77] Creating layer layer_256_3_scale1
I0528 19:00:47.393149 11123 net.cpp:84] Creating Layer layer_256_3_scale1
I0528 19:00:47.393153 11123 net.cpp:406] layer_256_3_scale1 <- layer_256_3_bn1
I0528 19:00:47.393158 11123 net.cpp:367] layer_256_3_scale1 -> layer_256_3_bn1 (in-place)
I0528 19:00:47.393198 11123 layer_factory.hpp:77] Creating layer layer_256_3_scale1
I0528 19:00:47.393307 11123 net.cpp:122] Setting up layer_256_3_scale1
I0528 19:00:47.393316 11123 net.cpp:129] Top shape: 20 1024 14 14 (4014080)
I0528 19:00:47.393321 11123 net.cpp:137] Memory required for data: 3761193040
I0528 19:00:47.393326 11123 layer_factory.hpp:77] Creating layer layer_256_3_relu1
I0528 19:00:47.393335 11123 net.cpp:84] Creating Layer layer_256_3_relu1
I0528 19:00:47.393339 11123 net.cpp:406] layer_256_3_relu1 <- layer_256_3_bn1
I0528 19:00:47.393344 11123 net.cpp:367] layer_256_3_relu1 -> layer_256_3_bn1 (in-place)
I0528 19:00:47.393985 11123 net.cpp:122] Setting up layer_256_3_relu1
I0528 19:00:47.393996 11123 net.cpp:129] Top shape: 20 1024 14 14 (4014080)
I0528 19:00:47.393999 11123 net.cpp:137] Memory required for data: 3777249360
I0528 19:00:47.394003 11123 layer_factory.hpp:77] Creating layer layer_256_3_conv1
I0528 19:00:47.394013 11123 net.cpp:84] Creating Layer layer_256_3_conv1
I0528 19:00:47.394017 11123 net.cpp:406] layer_256_3_conv1 <- layer_256_3_bn1
I0528 19:00:47.394026 11123 net.cpp:380] layer_256_3_conv1 -> layer_256_3_conv1
I0528 19:00:47.397975 11123 net.cpp:122] Setting up layer_256_3_conv1
I0528 19:00:47.397989 11123 net.cpp:129] Top shape: 20 256 14 14 (1003520)
I0528 19:00:47.397994 11123 net.cpp:137] Memory required for data: 3781263440
I0528 19:00:47.398000 11123 layer_factory.hpp:77] Creating layer layer_256_3_bn2
I0528 19:00:47.398007 11123 net.cpp:84] Creating Layer layer_256_3_bn2
I0528 19:00:47.398012 11123 net.cpp:406] layer_256_3_bn2 <- layer_256_3_conv1
I0528 19:00:47.398018 11123 net.cpp:367] layer_256_3_bn2 -> layer_256_3_conv1 (in-place)
I0528 19:00:47.398196 11123 net.cpp:122] Setting up layer_256_3_bn2
I0528 19:00:47.398205 11123 net.cpp:129] Top shape: 20 256 14 14 (1003520)
I0528 19:00:47.398208 11123 net.cpp:137] Memory required for data: 3785277520
I0528 19:00:47.398216 11123 layer_factory.hpp:77] Creating layer layer_256_3_scale2
I0528 19:00:47.398223 11123 net.cpp:84] Creating Layer layer_256_3_scale2
I0528 19:00:47.398228 11123 net.cpp:406] layer_256_3_scale2 <- layer_256_3_conv1
I0528 19:00:47.398233 11123 net.cpp:367] layer_256_3_scale2 -> layer_256_3_conv1 (in-place)
I0528 19:00:47.398274 11123 layer_factory.hpp:77] Creating layer layer_256_3_scale2
I0528 19:00:47.398380 11123 net.cpp:122] Setting up layer_256_3_scale2
I0528 19:00:47.398387 11123 net.cpp:129] Top shape: 20 256 14 14 (1003520)
I0528 19:00:47.398391 11123 net.cpp:137] Memory required for data: 3789291600
I0528 19:00:47.398397 11123 layer_factory.hpp:77] Creating layer layer_256_3_relu2
I0528 19:00:47.398404 11123 net.cpp:84] Creating Layer layer_256_3_relu2
I0528 19:00:47.398409 11123 net.cpp:406] layer_256_3_relu2 <- layer_256_3_conv1
I0528 19:00:47.398413 11123 net.cpp:367] layer_256_3_relu2 -> layer_256_3_conv1 (in-place)
I0528 19:00:47.399075 11123 net.cpp:122] Setting up layer_256_3_relu2
I0528 19:00:47.399087 11123 net.cpp:129] Top shape: 20 256 14 14 (1003520)
I0528 19:00:47.399091 11123 net.cpp:137] Memory required for data: 3793305680
I0528 19:00:47.399094 11123 layer_factory.hpp:77] Creating layer layer_256_3_conv2
I0528 19:00:47.399104 11123 net.cpp:84] Creating Layer layer_256_3_conv2
I0528 19:00:47.399108 11123 net.cpp:406] layer_256_3_conv2 <- layer_256_3_conv1
I0528 19:00:47.399116 11123 net.cpp:380] layer_256_3_conv2 -> layer_256_3_conv2
I0528 19:00:47.407308 11123 net.cpp:122] Setting up layer_256_3_conv2
I0528 19:00:47.407321 11123 net.cpp:129] Top shape: 20 256 14 14 (1003520)
I0528 19:00:47.407325 11123 net.cpp:137] Memory required for data: 3797319760
I0528 19:00:47.407330 11123 layer_factory.hpp:77] Creating layer layer_256_3_bn3
I0528 19:00:47.407337 11123 net.cpp:84] Creating Layer layer_256_3_bn3
I0528 19:00:47.407342 11123 net.cpp:406] layer_256_3_bn3 <- layer_256_3_conv2
I0528 19:00:47.407349 11123 net.cpp:367] layer_256_3_bn3 -> layer_256_3_conv2 (in-place)
I0528 19:00:47.407532 11123 net.cpp:122] Setting up layer_256_3_bn3
I0528 19:00:47.407541 11123 net.cpp:129] Top shape: 20 256 14 14 (1003520)
I0528 19:00:47.407546 11123 net.cpp:137] Memory required for data: 3801333840
I0528 19:00:47.407553 11123 layer_factory.hpp:77] Creating layer layer_256_3_scale3
I0528 19:00:47.407560 11123 net.cpp:84] Creating Layer layer_256_3_scale3
I0528 19:00:47.407564 11123 net.cpp:406] layer_256_3_scale3 <- layer_256_3_conv2
I0528 19:00:47.407572 11123 net.cpp:367] layer_256_3_scale3 -> layer_256_3_conv2 (in-place)
I0528 19:00:47.407613 11123 layer_factory.hpp:77] Creating layer layer_256_3_scale3
I0528 19:00:47.407718 11123 net.cpp:122] Setting up layer_256_3_scale3
I0528 19:00:47.407727 11123 net.cpp:129] Top shape: 20 256 14 14 (1003520)
I0528 19:00:47.407730 11123 net.cpp:137] Memory required for data: 3805347920
I0528 19:00:47.407737 11123 layer_factory.hpp:77] Creating layer layer_256_3_relu3
I0528 19:00:47.407743 11123 net.cpp:84] Creating Layer layer_256_3_relu3
I0528 19:00:47.407747 11123 net.cpp:406] layer_256_3_relu3 <- layer_256_3_conv2
I0528 19:00:47.407752 11123 net.cpp:367] layer_256_3_relu3 -> layer_256_3_conv2 (in-place)
I0528 19:00:47.407910 11123 net.cpp:122] Setting up layer_256_3_relu3
I0528 19:00:47.407920 11123 net.cpp:129] Top shape: 20 256 14 14 (1003520)
I0528 19:00:47.407923 11123 net.cpp:137] Memory required for data: 3809362000
I0528 19:00:47.407927 11123 layer_factory.hpp:77] Creating layer layer_256_3_conv3
I0528 19:00:47.407937 11123 net.cpp:84] Creating Layer layer_256_3_conv3
I0528 19:00:47.407941 11123 net.cpp:406] layer_256_3_conv3 <- layer_256_3_conv2
I0528 19:00:47.407949 11123 net.cpp:380] layer_256_3_conv3 -> layer_256_3_conv3
I0528 19:00:47.411700 11123 net.cpp:122] Setting up layer_256_3_conv3
I0528 19:00:47.411712 11123 net.cpp:129] Top shape: 20 1024 14 14 (4014080)
I0528 19:00:47.411718 11123 net.cpp:137] Memory required for data: 3825418320
I0528 19:00:47.411725 11123 layer_factory.hpp:77] Creating layer layer_256_3_sum
I0528 19:00:47.411731 11123 net.cpp:84] Creating Layer layer_256_3_sum
I0528 19:00:47.411736 11123 net.cpp:406] layer_256_3_sum <- layer_256_3_conv3
I0528 19:00:47.411739 11123 net.cpp:406] layer_256_3_sum <- layer_256_2_sum_layer_256_2_sum_0_split_1
I0528 19:00:47.411747 11123 net.cpp:380] layer_256_3_sum -> layer_256_3_sum
I0528 19:00:47.411778 11123 net.cpp:122] Setting up layer_256_3_sum
I0528 19:00:47.411787 11123 net.cpp:129] Top shape: 20 1024 14 14 (4014080)
I0528 19:00:47.411789 11123 net.cpp:137] Memory required for data: 3841474640
I0528 19:00:47.411793 11123 layer_factory.hpp:77] Creating layer layer_256_3_sum_layer_256_3_sum_0_split
I0528 19:00:47.411798 11123 net.cpp:84] Creating Layer layer_256_3_sum_layer_256_3_sum_0_split
I0528 19:00:47.411803 11123 net.cpp:406] layer_256_3_sum_layer_256_3_sum_0_split <- layer_256_3_sum
I0528 19:00:47.411809 11123 net.cpp:380] layer_256_3_sum_layer_256_3_sum_0_split -> layer_256_3_sum_layer_256_3_sum_0_split_0
I0528 19:00:47.411826 11123 net.cpp:380] layer_256_3_sum_layer_256_3_sum_0_split -> layer_256_3_sum_layer_256_3_sum_0_split_1
I0528 19:00:47.411866 11123 net.cpp:122] Setting up layer_256_3_sum_layer_256_3_sum_0_split
I0528 19:00:47.411875 11123 net.cpp:129] Top shape: 20 1024 14 14 (4014080)
I0528 19:00:47.411880 11123 net.cpp:129] Top shape: 20 1024 14 14 (4014080)
I0528 19:00:47.411882 11123 net.cpp:137] Memory required for data: 3873587280
I0528 19:00:47.411885 11123 layer_factory.hpp:77] Creating layer layer_256_4_bn1
I0528 19:00:47.411892 11123 net.cpp:84] Creating Layer layer_256_4_bn1
I0528 19:00:47.411896 11123 net.cpp:406] layer_256_4_bn1 <- layer_256_3_sum_layer_256_3_sum_0_split_0
I0528 19:00:47.411905 11123 net.cpp:380] layer_256_4_bn1 -> layer_256_4_bn1
I0528 19:00:47.412096 11123 net.cpp:122] Setting up layer_256_4_bn1
I0528 19:00:47.412104 11123 net.cpp:129] Top shape: 20 1024 14 14 (4014080)
I0528 19:00:47.412108 11123 net.cpp:137] Memory required for data: 3889643600
I0528 19:00:47.412116 11123 layer_factory.hpp:77] Creating layer layer_256_4_scale1
I0528 19:00:47.412122 11123 net.cpp:84] Creating Layer layer_256_4_scale1
I0528 19:00:47.412127 11123 net.cpp:406] layer_256_4_scale1 <- layer_256_4_bn1
I0528 19:00:47.412132 11123 net.cpp:367] layer_256_4_scale1 -> layer_256_4_bn1 (in-place)
I0528 19:00:47.412173 11123 layer_factory.hpp:77] Creating layer layer_256_4_scale1
I0528 19:00:47.412283 11123 net.cpp:122] Setting up layer_256_4_scale1
I0528 19:00:47.412292 11123 net.cpp:129] Top shape: 20 1024 14 14 (4014080)
I0528 19:00:47.412295 11123 net.cpp:137] Memory required for data: 3905699920
I0528 19:00:47.412302 11123 layer_factory.hpp:77] Creating layer layer_256_4_relu1
I0528 19:00:47.412308 11123 net.cpp:84] Creating Layer layer_256_4_relu1
I0528 19:00:47.412313 11123 net.cpp:406] layer_256_4_relu1 <- layer_256_4_bn1
I0528 19:00:47.412317 11123 net.cpp:367] layer_256_4_relu1 -> layer_256_4_bn1 (in-place)
I0528 19:00:47.412472 11123 net.cpp:122] Setting up layer_256_4_relu1
I0528 19:00:47.412482 11123 net.cpp:129] Top shape: 20 1024 14 14 (4014080)
I0528 19:00:47.412484 11123 net.cpp:137] Memory required for data: 3921756240
I0528 19:00:47.412488 11123 layer_factory.hpp:77] Creating layer layer_256_4_conv1
I0528 19:00:47.412497 11123 net.cpp:84] Creating Layer layer_256_4_conv1
I0528 19:00:47.412503 11123 net.cpp:406] layer_256_4_conv1 <- layer_256_4_bn1
I0528 19:00:47.412509 11123 net.cpp:380] layer_256_4_conv1 -> layer_256_4_conv1
I0528 19:00:47.417362 11123 net.cpp:122] Setting up layer_256_4_conv1
I0528 19:00:47.417379 11123 net.cpp:129] Top shape: 20 256 14 14 (1003520)
I0528 19:00:47.417382 11123 net.cpp:137] Memory required for data: 3925770320
I0528 19:00:47.417388 11123 layer_factory.hpp:77] Creating layer layer_256_4_bn2
I0528 19:00:47.417399 11123 net.cpp:84] Creating Layer layer_256_4_bn2
I0528 19:00:47.417404 11123 net.cpp:406] layer_256_4_bn2 <- layer_256_4_conv1
I0528 19:00:47.417410 11123 net.cpp:367] layer_256_4_bn2 -> layer_256_4_conv1 (in-place)
I0528 19:00:47.417594 11123 net.cpp:122] Setting up layer_256_4_bn2
I0528 19:00:47.417603 11123 net.cpp:129] Top shape: 20 256 14 14 (1003520)
I0528 19:00:47.417606 11123 net.cpp:137] Memory required for data: 3929784400
I0528 19:00:47.417613 11123 layer_factory.hpp:77] Creating layer layer_256_4_scale2
I0528 19:00:47.417623 11123 net.cpp:84] Creating Layer layer_256_4_scale2
I0528 19:00:47.417626 11123 net.cpp:406] layer_256_4_scale2 <- layer_256_4_conv1
I0528 19:00:47.417631 11123 net.cpp:367] layer_256_4_scale2 -> layer_256_4_conv1 (in-place)
I0528 19:00:47.417677 11123 layer_factory.hpp:77] Creating layer layer_256_4_scale2
I0528 19:00:47.417784 11123 net.cpp:122] Setting up layer_256_4_scale2
I0528 19:00:47.417793 11123 net.cpp:129] Top shape: 20 256 14 14 (1003520)
I0528 19:00:47.417796 11123 net.cpp:137] Memory required for data: 3933798480
I0528 19:00:47.417803 11123 layer_factory.hpp:77] Creating layer layer_256_4_relu2
I0528 19:00:47.417809 11123 net.cpp:84] Creating Layer layer_256_4_relu2
I0528 19:00:47.417814 11123 net.cpp:406] layer_256_4_relu2 <- layer_256_4_conv1
I0528 19:00:47.417830 11123 net.cpp:367] layer_256_4_relu2 -> layer_256_4_conv1 (in-place)
I0528 19:00:47.417985 11123 net.cpp:122] Setting up layer_256_4_relu2
I0528 19:00:47.417996 11123 net.cpp:129] Top shape: 20 256 14 14 (1003520)
I0528 19:00:47.418000 11123 net.cpp:137] Memory required for data: 3937812560
I0528 19:00:47.418004 11123 layer_factory.hpp:77] Creating layer layer_256_4_conv2
I0528 19:00:47.418012 11123 net.cpp:84] Creating Layer layer_256_4_conv2
I0528 19:00:47.418017 11123 net.cpp:406] layer_256_4_conv2 <- layer_256_4_conv1
I0528 19:00:47.418025 11123 net.cpp:380] layer_256_4_conv2 -> layer_256_4_conv2
I0528 19:00:47.426270 11123 net.cpp:122] Setting up layer_256_4_conv2
I0528 19:00:47.426285 11123 net.cpp:129] Top shape: 20 256 14 14 (1003520)
I0528 19:00:47.426288 11123 net.cpp:137] Memory required for data: 3941826640
I0528 19:00:47.426295 11123 layer_factory.hpp:77] Creating layer layer_256_4_bn3
I0528 19:00:47.426301 11123 net.cpp:84] Creating Layer layer_256_4_bn3
I0528 19:00:47.426306 11123 net.cpp:406] layer_256_4_bn3 <- layer_256_4_conv2
I0528 19:00:47.426313 11123 net.cpp:367] layer_256_4_bn3 -> layer_256_4_conv2 (in-place)
I0528 19:00:47.426499 11123 net.cpp:122] Setting up layer_256_4_bn3
I0528 19:00:47.426508 11123 net.cpp:129] Top shape: 20 256 14 14 (1003520)
I0528 19:00:47.426512 11123 net.cpp:137] Memory required for data: 3945840720
I0528 19:00:47.426519 11123 layer_factory.hpp:77] Creating layer layer_256_4_scale3
I0528 19:00:47.426527 11123 net.cpp:84] Creating Layer layer_256_4_scale3
I0528 19:00:47.426530 11123 net.cpp:406] layer_256_4_scale3 <- layer_256_4_conv2
I0528 19:00:47.426537 11123 net.cpp:367] layer_256_4_scale3 -> layer_256_4_conv2 (in-place)
I0528 19:00:47.426578 11123 layer_factory.hpp:77] Creating layer layer_256_4_scale3
I0528 19:00:47.426687 11123 net.cpp:122] Setting up layer_256_4_scale3
I0528 19:00:47.426695 11123 net.cpp:129] Top shape: 20 256 14 14 (1003520)
I0528 19:00:47.426699 11123 net.cpp:137] Memory required for data: 3949854800
I0528 19:00:47.426705 11123 layer_factory.hpp:77] Creating layer layer_256_4_relu3
I0528 19:00:47.426712 11123 net.cpp:84] Creating Layer layer_256_4_relu3
I0528 19:00:47.426715 11123 net.cpp:406] layer_256_4_relu3 <- layer_256_4_conv2
I0528 19:00:47.426720 11123 net.cpp:367] layer_256_4_relu3 -> layer_256_4_conv2 (in-place)
I0528 19:00:47.426880 11123 net.cpp:122] Setting up layer_256_4_relu3
I0528 19:00:47.426890 11123 net.cpp:129] Top shape: 20 256 14 14 (1003520)
I0528 19:00:47.426893 11123 net.cpp:137] Memory required for data: 3953868880
I0528 19:00:47.426898 11123 layer_factory.hpp:77] Creating layer layer_256_4_conv3
I0528 19:00:47.426906 11123 net.cpp:84] Creating Layer layer_256_4_conv3
I0528 19:00:47.426911 11123 net.cpp:406] layer_256_4_conv3 <- layer_256_4_conv2
I0528 19:00:47.426918 11123 net.cpp:380] layer_256_4_conv3 -> layer_256_4_conv3
I0528 19:00:47.430704 11123 net.cpp:122] Setting up layer_256_4_conv3
I0528 19:00:47.430717 11123 net.cpp:129] Top shape: 20 1024 14 14 (4014080)
I0528 19:00:47.430722 11123 net.cpp:137] Memory required for data: 3969925200
I0528 19:00:47.430727 11123 layer_factory.hpp:77] Creating layer layer_256_4_sum
I0528 19:00:47.430734 11123 net.cpp:84] Creating Layer layer_256_4_sum
I0528 19:00:47.430739 11123 net.cpp:406] layer_256_4_sum <- layer_256_4_conv3
I0528 19:00:47.430743 11123 net.cpp:406] layer_256_4_sum <- layer_256_3_sum_layer_256_3_sum_0_split_1
I0528 19:00:47.430752 11123 net.cpp:380] layer_256_4_sum -> layer_256_4_sum
I0528 19:00:47.430780 11123 net.cpp:122] Setting up layer_256_4_sum
I0528 19:00:47.430790 11123 net.cpp:129] Top shape: 20 1024 14 14 (4014080)
I0528 19:00:47.430794 11123 net.cpp:137] Memory required for data: 3985981520
I0528 19:00:47.430797 11123 layer_factory.hpp:77] Creating layer layer_256_4_sum_layer_256_4_sum_0_split
I0528 19:00:47.430804 11123 net.cpp:84] Creating Layer layer_256_4_sum_layer_256_4_sum_0_split
I0528 19:00:47.430807 11123 net.cpp:406] layer_256_4_sum_layer_256_4_sum_0_split <- layer_256_4_sum
I0528 19:00:47.430824 11123 net.cpp:380] layer_256_4_sum_layer_256_4_sum_0_split -> layer_256_4_sum_layer_256_4_sum_0_split_0
I0528 19:00:47.430832 11123 net.cpp:380] layer_256_4_sum_layer_256_4_sum_0_split -> layer_256_4_sum_layer_256_4_sum_0_split_1
I0528 19:00:47.430872 11123 net.cpp:122] Setting up layer_256_4_sum_layer_256_4_sum_0_split
I0528 19:00:47.430879 11123 net.cpp:129] Top shape: 20 1024 14 14 (4014080)
I0528 19:00:47.430884 11123 net.cpp:129] Top shape: 20 1024 14 14 (4014080)
I0528 19:00:47.430887 11123 net.cpp:137] Memory required for data: 4018094160
I0528 19:00:47.430891 11123 layer_factory.hpp:77] Creating layer layer_256_5_bn1
I0528 19:00:47.430897 11123 net.cpp:84] Creating Layer layer_256_5_bn1
I0528 19:00:47.430902 11123 net.cpp:406] layer_256_5_bn1 <- layer_256_4_sum_layer_256_4_sum_0_split_0
I0528 19:00:47.430908 11123 net.cpp:380] layer_256_5_bn1 -> layer_256_5_bn1
I0528 19:00:47.431102 11123 net.cpp:122] Setting up layer_256_5_bn1
I0528 19:00:47.431110 11123 net.cpp:129] Top shape: 20 1024 14 14 (4014080)
I0528 19:00:47.431114 11123 net.cpp:137] Memory required for data: 4034150480
I0528 19:00:47.431121 11123 layer_factory.hpp:77] Creating layer layer_256_5_scale1
I0528 19:00:47.431128 11123 net.cpp:84] Creating Layer layer_256_5_scale1
I0528 19:00:47.431133 11123 net.cpp:406] layer_256_5_scale1 <- layer_256_5_bn1
I0528 19:00:47.431138 11123 net.cpp:367] layer_256_5_scale1 -> layer_256_5_bn1 (in-place)
I0528 19:00:47.431179 11123 layer_factory.hpp:77] Creating layer layer_256_5_scale1
I0528 19:00:47.431290 11123 net.cpp:122] Setting up layer_256_5_scale1
I0528 19:00:47.431299 11123 net.cpp:129] Top shape: 20 1024 14 14 (4014080)
I0528 19:00:47.431303 11123 net.cpp:137] Memory required for data: 4050206800
I0528 19:00:47.431309 11123 layer_factory.hpp:77] Creating layer layer_256_5_relu1
I0528 19:00:47.431316 11123 net.cpp:84] Creating Layer layer_256_5_relu1
I0528 19:00:47.431320 11123 net.cpp:406] layer_256_5_relu1 <- layer_256_5_bn1
I0528 19:00:47.431325 11123 net.cpp:367] layer_256_5_relu1 -> layer_256_5_bn1 (in-place)
I0528 19:00:47.431975 11123 net.cpp:122] Setting up layer_256_5_relu1
I0528 19:00:47.431988 11123 net.cpp:129] Top shape: 20 1024 14 14 (4014080)
I0528 19:00:47.431993 11123 net.cpp:137] Memory required for data: 4066263120
I0528 19:00:47.431996 11123 layer_factory.hpp:77] Creating layer layer_256_5_conv1
I0528 19:00:47.432006 11123 net.cpp:84] Creating Layer layer_256_5_conv1
I0528 19:00:47.432010 11123 net.cpp:406] layer_256_5_conv1 <- layer_256_5_bn1
I0528 19:00:47.432018 11123 net.cpp:380] layer_256_5_conv1 -> layer_256_5_conv1
I0528 19:00:47.435987 11123 net.cpp:122] Setting up layer_256_5_conv1
I0528 19:00:47.436000 11123 net.cpp:129] Top shape: 20 256 14 14 (1003520)
I0528 19:00:47.436004 11123 net.cpp:137] Memory required for data: 4070277200
I0528 19:00:47.436010 11123 layer_factory.hpp:77] Creating layer layer_256_5_bn2
I0528 19:00:47.436018 11123 net.cpp:84] Creating Layer layer_256_5_bn2
I0528 19:00:47.436023 11123 net.cpp:406] layer_256_5_bn2 <- layer_256_5_conv1
I0528 19:00:47.436028 11123 net.cpp:367] layer_256_5_bn2 -> layer_256_5_conv1 (in-place)
I0528 19:00:47.436210 11123 net.cpp:122] Setting up layer_256_5_bn2
I0528 19:00:47.436218 11123 net.cpp:129] Top shape: 20 256 14 14 (1003520)
I0528 19:00:47.436223 11123 net.cpp:137] Memory required for data: 4074291280
I0528 19:00:47.436230 11123 layer_factory.hpp:77] Creating layer layer_256_5_scale2
I0528 19:00:47.436239 11123 net.cpp:84] Creating Layer layer_256_5_scale2
I0528 19:00:47.436244 11123 net.cpp:406] layer_256_5_scale2 <- layer_256_5_conv1
I0528 19:00:47.436249 11123 net.cpp:367] layer_256_5_scale2 -> layer_256_5_conv1 (in-place)
I0528 19:00:47.436290 11123 layer_factory.hpp:77] Creating layer layer_256_5_scale2
I0528 19:00:47.436398 11123 net.cpp:122] Setting up layer_256_5_scale2
I0528 19:00:47.436408 11123 net.cpp:129] Top shape: 20 256 14 14 (1003520)
I0528 19:00:47.436411 11123 net.cpp:137] Memory required for data: 4078305360
I0528 19:00:47.436416 11123 layer_factory.hpp:77] Creating layer layer_256_5_relu2
I0528 19:00:47.436432 11123 net.cpp:84] Creating Layer layer_256_5_relu2
I0528 19:00:47.436436 11123 net.cpp:406] layer_256_5_relu2 <- layer_256_5_conv1
I0528 19:00:47.436444 11123 net.cpp:367] layer_256_5_relu2 -> layer_256_5_conv1 (in-place)
I0528 19:00:47.437094 11123 net.cpp:122] Setting up layer_256_5_relu2
I0528 19:00:47.437105 11123 net.cpp:129] Top shape: 20 256 14 14 (1003520)
I0528 19:00:47.437110 11123 net.cpp:137] Memory required for data: 4082319440
I0528 19:00:47.437114 11123 layer_factory.hpp:77] Creating layer layer_256_5_conv2
I0528 19:00:47.437124 11123 net.cpp:84] Creating Layer layer_256_5_conv2
I0528 19:00:47.437129 11123 net.cpp:406] layer_256_5_conv2 <- layer_256_5_conv1
I0528 19:00:47.437135 11123 net.cpp:380] layer_256_5_conv2 -> layer_256_5_conv2
I0528 19:00:47.445379 11123 net.cpp:122] Setting up layer_256_5_conv2
I0528 19:00:47.445394 11123 net.cpp:129] Top shape: 20 256 14 14 (1003520)
I0528 19:00:47.445399 11123 net.cpp:137] Memory required for data: 4086333520
I0528 19:00:47.445405 11123 layer_factory.hpp:77] Creating layer layer_256_5_bn3
I0528 19:00:47.445411 11123 net.cpp:84] Creating Layer layer_256_5_bn3
I0528 19:00:47.445415 11123 net.cpp:406] layer_256_5_bn3 <- layer_256_5_conv2
I0528 19:00:47.445422 11123 net.cpp:367] layer_256_5_bn3 -> layer_256_5_conv2 (in-place)
I0528 19:00:47.445610 11123 net.cpp:122] Setting up layer_256_5_bn3
I0528 19:00:47.445618 11123 net.cpp:129] Top shape: 20 256 14 14 (1003520)
I0528 19:00:47.445621 11123 net.cpp:137] Memory required for data: 4090347600
I0528 19:00:47.445629 11123 layer_factory.hpp:77] Creating layer layer_256_5_scale3
I0528 19:00:47.445637 11123 net.cpp:84] Creating Layer layer_256_5_scale3
I0528 19:00:47.445641 11123 net.cpp:406] layer_256_5_scale3 <- layer_256_5_conv2
I0528 19:00:47.445647 11123 net.cpp:367] layer_256_5_scale3 -> layer_256_5_conv2 (in-place)
I0528 19:00:47.445691 11123 layer_factory.hpp:77] Creating layer layer_256_5_scale3
I0528 19:00:47.445802 11123 net.cpp:122] Setting up layer_256_5_scale3
I0528 19:00:47.445811 11123 net.cpp:129] Top shape: 20 256 14 14 (1003520)
I0528 19:00:47.445816 11123 net.cpp:137] Memory required for data: 4094361680
I0528 19:00:47.445821 11123 layer_factory.hpp:77] Creating layer layer_256_5_relu3
I0528 19:00:47.445828 11123 net.cpp:84] Creating Layer layer_256_5_relu3
I0528 19:00:47.445832 11123 net.cpp:406] layer_256_5_relu3 <- layer_256_5_conv2
I0528 19:00:47.445837 11123 net.cpp:367] layer_256_5_relu3 -> layer_256_5_conv2 (in-place)
I0528 19:00:47.445998 11123 net.cpp:122] Setting up layer_256_5_relu3
I0528 19:00:47.446008 11123 net.cpp:129] Top shape: 20 256 14 14 (1003520)
I0528 19:00:47.446012 11123 net.cpp:137] Memory required for data: 4098375760
I0528 19:00:47.446015 11123 layer_factory.hpp:77] Creating layer layer_256_5_conv3
I0528 19:00:47.446024 11123 net.cpp:84] Creating Layer layer_256_5_conv3
I0528 19:00:47.446029 11123 net.cpp:406] layer_256_5_conv3 <- layer_256_5_conv2
I0528 19:00:47.446036 11123 net.cpp:380] layer_256_5_conv3 -> layer_256_5_conv3
I0528 19:00:47.449834 11123 net.cpp:122] Setting up layer_256_5_conv3
I0528 19:00:47.449849 11123 net.cpp:129] Top shape: 20 1024 14 14 (4014080)
I0528 19:00:47.449852 11123 net.cpp:137] Memory required for data: 4114432080
I0528 19:00:47.449858 11123 layer_factory.hpp:77] Creating layer layer_256_5_sum
I0528 19:00:47.449865 11123 net.cpp:84] Creating Layer layer_256_5_sum
I0528 19:00:47.449869 11123 net.cpp:406] layer_256_5_sum <- layer_256_5_conv3
I0528 19:00:47.449874 11123 net.cpp:406] layer_256_5_sum <- layer_256_4_sum_layer_256_4_sum_0_split_1
I0528 19:00:47.449880 11123 net.cpp:380] layer_256_5_sum -> layer_256_5_sum
I0528 19:00:47.449909 11123 net.cpp:122] Setting up layer_256_5_sum
I0528 19:00:47.449918 11123 net.cpp:129] Top shape: 20 1024 14 14 (4014080)
I0528 19:00:47.449920 11123 net.cpp:137] Memory required for data: 4130488400
I0528 19:00:47.449924 11123 layer_factory.hpp:77] Creating layer layer_256_5_sum_layer_256_5_sum_0_split
I0528 19:00:47.449931 11123 net.cpp:84] Creating Layer layer_256_5_sum_layer_256_5_sum_0_split
I0528 19:00:47.449946 11123 net.cpp:406] layer_256_5_sum_layer_256_5_sum_0_split <- layer_256_5_sum
I0528 19:00:47.449952 11123 net.cpp:380] layer_256_5_sum_layer_256_5_sum_0_split -> layer_256_5_sum_layer_256_5_sum_0_split_0
I0528 19:00:47.449960 11123 net.cpp:380] layer_256_5_sum_layer_256_5_sum_0_split -> layer_256_5_sum_layer_256_5_sum_0_split_1
I0528 19:00:47.450000 11123 net.cpp:122] Setting up layer_256_5_sum_layer_256_5_sum_0_split
I0528 19:00:47.450008 11123 net.cpp:129] Top shape: 20 1024 14 14 (4014080)
I0528 19:00:47.450013 11123 net.cpp:129] Top shape: 20 1024 14 14 (4014080)
I0528 19:00:47.450016 11123 net.cpp:137] Memory required for data: 4162601040
I0528 19:00:47.450021 11123 layer_factory.hpp:77] Creating layer layer_256_6_bn1
I0528 19:00:47.450027 11123 net.cpp:84] Creating Layer layer_256_6_bn1
I0528 19:00:47.450031 11123 net.cpp:406] layer_256_6_bn1 <- layer_256_5_sum_layer_256_5_sum_0_split_0
I0528 19:00:47.450037 11123 net.cpp:380] layer_256_6_bn1 -> layer_256_6_bn1
I0528 19:00:47.450235 11123 net.cpp:122] Setting up layer_256_6_bn1
I0528 19:00:47.450244 11123 net.cpp:129] Top shape: 20 1024 14 14 (4014080)
I0528 19:00:47.450248 11123 net.cpp:137] Memory required for data: 4178657360
I0528 19:00:47.450255 11123 layer_factory.hpp:77] Creating layer layer_256_6_scale1
I0528 19:00:47.450263 11123 net.cpp:84] Creating Layer layer_256_6_scale1
I0528 19:00:47.450268 11123 net.cpp:406] layer_256_6_scale1 <- layer_256_6_bn1
I0528 19:00:47.450273 11123 net.cpp:367] layer_256_6_scale1 -> layer_256_6_bn1 (in-place)
I0528 19:00:47.450314 11123 layer_factory.hpp:77] Creating layer layer_256_6_scale1
I0528 19:00:47.450429 11123 net.cpp:122] Setting up layer_256_6_scale1
I0528 19:00:47.450438 11123 net.cpp:129] Top shape: 20 1024 14 14 (4014080)
I0528 19:00:47.450441 11123 net.cpp:137] Memory required for data: 4194713680
I0528 19:00:47.450448 11123 layer_factory.hpp:77] Creating layer layer_256_6_relu1
I0528 19:00:47.450453 11123 net.cpp:84] Creating Layer layer_256_6_relu1
I0528 19:00:47.450458 11123 net.cpp:406] layer_256_6_relu1 <- layer_256_6_bn1
I0528 19:00:47.450464 11123 net.cpp:367] layer_256_6_relu1 -> layer_256_6_bn1 (in-place)
I0528 19:00:47.450619 11123 net.cpp:122] Setting up layer_256_6_relu1
I0528 19:00:47.450629 11123 net.cpp:129] Top shape: 20 1024 14 14 (4014080)
I0528 19:00:47.450634 11123 net.cpp:137] Memory required for data: 4210770000
I0528 19:00:47.450636 11123 layer_factory.hpp:77] Creating layer layer_256_6_conv1
I0528 19:00:47.450646 11123 net.cpp:84] Creating Layer layer_256_6_conv1
I0528 19:00:47.450651 11123 net.cpp:406] layer_256_6_conv1 <- layer_256_6_bn1
I0528 19:00:47.450657 11123 net.cpp:380] layer_256_6_conv1 -> layer_256_6_conv1
I0528 19:00:47.455214 11123 net.cpp:122] Setting up layer_256_6_conv1
I0528 19:00:47.455230 11123 net.cpp:129] Top shape: 20 256 14 14 (1003520)
I0528 19:00:47.455235 11123 net.cpp:137] Memory required for data: 4214784080
I0528 19:00:47.455245 11123 layer_factory.hpp:77] Creating layer layer_256_6_bn2
I0528 19:00:47.455256 11123 net.cpp:84] Creating Layer layer_256_6_bn2
I0528 19:00:47.455265 11123 net.cpp:406] layer_256_6_bn2 <- layer_256_6_conv1
I0528 19:00:47.455277 11123 net.cpp:367] layer_256_6_bn2 -> layer_256_6_conv1 (in-place)
I0528 19:00:47.455476 11123 net.cpp:122] Setting up layer_256_6_bn2
I0528 19:00:47.455485 11123 net.cpp:129] Top shape: 20 256 14 14 (1003520)
I0528 19:00:47.455493 11123 net.cpp:137] Memory required for data: 4218798160
I0528 19:00:47.455507 11123 layer_factory.hpp:77] Creating layer layer_256_6_scale2
I0528 19:00:47.455516 11123 net.cpp:84] Creating Layer layer_256_6_scale2
I0528 19:00:47.455523 11123 net.cpp:406] layer_256_6_scale2 <- layer_256_6_conv1
I0528 19:00:47.455535 11123 net.cpp:367] layer_256_6_scale2 -> layer_256_6_conv1 (in-place)
I0528 19:00:47.455585 11123 layer_factory.hpp:77] Creating layer layer_256_6_scale2
I0528 19:00:47.455701 11123 net.cpp:122] Setting up layer_256_6_scale2
I0528 19:00:47.455711 11123 net.cpp:129] Top shape: 20 256 14 14 (1003520)
I0528 19:00:47.455718 11123 net.cpp:137] Memory required for data: 4222812240
I0528 19:00:47.455739 11123 layer_factory.hpp:77] Creating layer layer_256_6_relu2
I0528 19:00:47.455749 11123 net.cpp:84] Creating Layer layer_256_6_relu2
I0528 19:00:47.455756 11123 net.cpp:406] layer_256_6_relu2 <- layer_256_6_conv1
I0528 19:00:47.455766 11123 net.cpp:367] layer_256_6_relu2 -> layer_256_6_conv1 (in-place)
I0528 19:00:47.455930 11123 net.cpp:122] Setting up layer_256_6_relu2
I0528 19:00:47.455941 11123 net.cpp:129] Top shape: 20 256 14 14 (1003520)
I0528 19:00:47.455948 11123 net.cpp:137] Memory required for data: 4226826320
I0528 19:00:47.455955 11123 layer_factory.hpp:77] Creating layer layer_256_6_conv2
I0528 19:00:47.455971 11123 net.cpp:84] Creating Layer layer_256_6_conv2
I0528 19:00:47.455976 11123 net.cpp:406] layer_256_6_conv2 <- layer_256_6_conv1
I0528 19:00:47.455989 11123 net.cpp:380] layer_256_6_conv2 -> layer_256_6_conv2
I0528 19:00:47.464251 11123 net.cpp:122] Setting up layer_256_6_conv2
I0528 19:00:47.464264 11123 net.cpp:129] Top shape: 20 256 14 14 (1003520)
I0528 19:00:47.464272 11123 net.cpp:137] Memory required for data: 4230840400
I0528 19:00:47.464282 11123 layer_factory.hpp:77] Creating layer layer_256_6_bn3
I0528 19:00:47.464294 11123 net.cpp:84] Creating Layer layer_256_6_bn3
I0528 19:00:47.464300 11123 net.cpp:406] layer_256_6_bn3 <- layer_256_6_conv2
I0528 19:00:47.464311 11123 net.cpp:367] layer_256_6_bn3 -> layer_256_6_conv2 (in-place)
I0528 19:00:47.464509 11123 net.cpp:122] Setting up layer_256_6_bn3
I0528 19:00:47.464519 11123 net.cpp:129] Top shape: 20 256 14 14 (1003520)
I0528 19:00:47.464524 11123 net.cpp:137] Memory required for data: 4234854480
I0528 19:00:47.464539 11123 layer_factory.hpp:77] Creating layer layer_256_6_scale3
I0528 19:00:47.464550 11123 net.cpp:84] Creating Layer layer_256_6_scale3
I0528 19:00:47.464555 11123 net.cpp:406] layer_256_6_scale3 <- layer_256_6_conv2
I0528 19:00:47.464565 11123 net.cpp:367] layer_256_6_scale3 -> layer_256_6_conv2 (in-place)
I0528 19:00:47.464617 11123 layer_factory.hpp:77] Creating layer layer_256_6_scale3
I0528 19:00:47.464736 11123 net.cpp:122] Setting up layer_256_6_scale3
I0528 19:00:47.464746 11123 net.cpp:129] Top shape: 20 256 14 14 (1003520)
I0528 19:00:47.464753 11123 net.cpp:137] Memory required for data: 4238868560
I0528 19:00:47.464766 11123 layer_factory.hpp:77] Creating layer layer_256_6_relu3
I0528 19:00:47.464776 11123 net.cpp:84] Creating Layer layer_256_6_relu3
I0528 19:00:47.464782 11123 net.cpp:406] layer_256_6_relu3 <- layer_256_6_conv2
I0528 19:00:47.464792 11123 net.cpp:367] layer_256_6_relu3 -> layer_256_6_conv2 (in-place)
I0528 19:00:47.464969 11123 net.cpp:122] Setting up layer_256_6_relu3
I0528 19:00:47.464980 11123 net.cpp:129] Top shape: 20 256 14 14 (1003520)
I0528 19:00:47.464987 11123 net.cpp:137] Memory required for data: 4242882640
I0528 19:00:47.464994 11123 layer_factory.hpp:77] Creating layer layer_256_6_conv3
I0528 19:00:47.465009 11123 net.cpp:84] Creating Layer layer_256_6_conv3
I0528 19:00:47.465015 11123 net.cpp:406] layer_256_6_conv3 <- layer_256_6_conv2
I0528 19:00:47.465029 11123 net.cpp:380] layer_256_6_conv3 -> layer_256_6_conv3
I0528 19:00:47.468824 11123 net.cpp:122] Setting up layer_256_6_conv3
I0528 19:00:47.468838 11123 net.cpp:129] Top shape: 20 1024 14 14 (4014080)
I0528 19:00:47.468847 11123 net.cpp:137] Memory required for data: 4258938960
I0528 19:00:47.468857 11123 layer_factory.hpp:77] Creating layer layer_256_6_sum
I0528 19:00:47.468869 11123 net.cpp:84] Creating Layer layer_256_6_sum
I0528 19:00:47.468875 11123 net.cpp:406] layer_256_6_sum <- layer_256_6_conv3
I0528 19:00:47.468884 11123 net.cpp:406] layer_256_6_sum <- layer_256_5_sum_layer_256_5_sum_0_split_1
I0528 19:00:47.468894 11123 net.cpp:380] layer_256_6_sum -> layer_256_6_sum
I0528 19:00:47.468935 11123 net.cpp:122] Setting up layer_256_6_sum
I0528 19:00:47.468945 11123 net.cpp:129] Top shape: 20 1024 14 14 (4014080)
I0528 19:00:47.468951 11123 net.cpp:137] Memory required for data: 4274995280
I0528 19:00:47.468958 11123 layer_factory.hpp:77] Creating layer layer_512_1_bn1
I0528 19:00:47.468981 11123 net.cpp:84] Creating Layer layer_512_1_bn1
I0528 19:00:47.468987 11123 net.cpp:406] layer_512_1_bn1 <- layer_256_6_sum
I0528 19:00:47.468997 11123 net.cpp:380] layer_512_1_bn1 -> layer_512_1_bn1
I0528 19:00:47.469208 11123 net.cpp:122] Setting up layer_512_1_bn1
I0528 19:00:47.469218 11123 net.cpp:129] Top shape: 20 1024 14 14 (4014080)
I0528 19:00:47.469224 11123 net.cpp:137] Memory required for data: 4291051600
I0528 19:00:47.469238 11123 layer_factory.hpp:77] Creating layer layer_512_1_scale1
I0528 19:00:47.469249 11123 net.cpp:84] Creating Layer layer_512_1_scale1
I0528 19:00:47.469255 11123 net.cpp:406] layer_512_1_scale1 <- layer_512_1_bn1
I0528 19:00:47.469265 11123 net.cpp:367] layer_512_1_scale1 -> layer_512_1_bn1 (in-place)
I0528 19:00:47.469312 11123 layer_factory.hpp:77] Creating layer layer_512_1_scale1
I0528 19:00:47.469439 11123 net.cpp:122] Setting up layer_512_1_scale1
I0528 19:00:47.469449 11123 net.cpp:129] Top shape: 20 1024 14 14 (4014080)
I0528 19:00:47.469455 11123 net.cpp:137] Memory required for data: 4307107920
I0528 19:00:47.469467 11123 layer_factory.hpp:77] Creating layer layer_512_1_relu1
I0528 19:00:47.469475 11123 net.cpp:84] Creating Layer layer_512_1_relu1
I0528 19:00:47.469482 11123 net.cpp:406] layer_512_1_relu1 <- layer_512_1_bn1
I0528 19:00:47.469493 11123 net.cpp:367] layer_512_1_relu1 -> layer_512_1_bn1 (in-place)
I0528 19:00:47.470160 11123 net.cpp:122] Setting up layer_512_1_relu1
I0528 19:00:47.470173 11123 net.cpp:129] Top shape: 20 1024 14 14 (4014080)
I0528 19:00:47.470180 11123 net.cpp:137] Memory required for data: 4323164240
I0528 19:00:47.470188 11123 layer_factory.hpp:77] Creating layer layer_512_1_bn1_layer_512_1_relu1_0_split
I0528 19:00:47.470198 11123 net.cpp:84] Creating Layer layer_512_1_bn1_layer_512_1_relu1_0_split
I0528 19:00:47.470206 11123 net.cpp:406] layer_512_1_bn1_layer_512_1_relu1_0_split <- layer_512_1_bn1
I0528 19:00:47.470218 11123 net.cpp:380] layer_512_1_bn1_layer_512_1_relu1_0_split -> layer_512_1_bn1_layer_512_1_relu1_0_split_0
I0528 19:00:47.470229 11123 net.cpp:380] layer_512_1_bn1_layer_512_1_relu1_0_split -> layer_512_1_bn1_layer_512_1_relu1_0_split_1
I0528 19:00:47.470281 11123 net.cpp:122] Setting up layer_512_1_bn1_layer_512_1_relu1_0_split
I0528 19:00:47.470290 11123 net.cpp:129] Top shape: 20 1024 14 14 (4014080)
I0528 19:00:47.470299 11123 net.cpp:129] Top shape: 20 1024 14 14 (4014080)
I0528 19:00:47.470305 11123 net.cpp:137] Memory required for data: 4355276880
I0528 19:00:47.470312 11123 layer_factory.hpp:77] Creating layer layer_512_1_conv1
I0528 19:00:47.470327 11123 net.cpp:84] Creating Layer layer_512_1_conv1
I0528 19:00:47.470333 11123 net.cpp:406] layer_512_1_conv1 <- layer_512_1_bn1_layer_512_1_relu1_0_split_0
I0528 19:00:47.470346 11123 net.cpp:380] layer_512_1_conv1 -> layer_512_1_conv1
I0528 19:00:47.476902 11123 net.cpp:122] Setting up layer_512_1_conv1
I0528 19:00:47.476915 11123 net.cpp:129] Top shape: 20 512 14 14 (2007040)
I0528 19:00:47.476920 11123 net.cpp:137] Memory required for data: 4363305040
I0528 19:00:47.476934 11123 layer_factory.hpp:77] Creating layer layer_512_1_bn2
I0528 19:00:47.476948 11123 net.cpp:84] Creating Layer layer_512_1_bn2
I0528 19:00:47.476955 11123 net.cpp:406] layer_512_1_bn2 <- layer_512_1_conv1
I0528 19:00:47.476968 11123 net.cpp:367] layer_512_1_bn2 -> layer_512_1_conv1 (in-place)
I0528 19:00:47.477174 11123 net.cpp:122] Setting up layer_512_1_bn2
I0528 19:00:47.477185 11123 net.cpp:129] Top shape: 20 512 14 14 (2007040)
I0528 19:00:47.477191 11123 net.cpp:137] Memory required for data: 4371333200
I0528 19:00:47.477205 11123 layer_factory.hpp:77] Creating layer layer_512_1_scale2
I0528 19:00:47.477214 11123 net.cpp:84] Creating Layer layer_512_1_scale2
I0528 19:00:47.477221 11123 net.cpp:406] layer_512_1_scale2 <- layer_512_1_conv1
I0528 19:00:47.477231 11123 net.cpp:367] layer_512_1_scale2 -> layer_512_1_conv1 (in-place)
I0528 19:00:47.477279 11123 layer_factory.hpp:77] Creating layer layer_512_1_scale2
I0528 19:00:47.477404 11123 net.cpp:122] Setting up layer_512_1_scale2
I0528 19:00:47.477423 11123 net.cpp:129] Top shape: 20 512 14 14 (2007040)
I0528 19:00:47.477430 11123 net.cpp:137] Memory required for data: 4379361360
I0528 19:00:47.477442 11123 layer_factory.hpp:77] Creating layer layer_512_1_relu2
I0528 19:00:47.477453 11123 net.cpp:84] Creating Layer layer_512_1_relu2
I0528 19:00:47.477459 11123 net.cpp:406] layer_512_1_relu2 <- layer_512_1_conv1
I0528 19:00:47.477468 11123 net.cpp:367] layer_512_1_relu2 -> layer_512_1_conv1 (in-place)
I0528 19:00:47.478634 11123 net.cpp:122] Setting up layer_512_1_relu2
I0528 19:00:47.478649 11123 net.cpp:129] Top shape: 20 512 14 14 (2007040)
I0528 19:00:47.478657 11123 net.cpp:137] Memory required for data: 4387389520
I0528 19:00:47.478663 11123 layer_factory.hpp:77] Creating layer layer_512_1_conv2
I0528 19:00:47.478679 11123 net.cpp:84] Creating Layer layer_512_1_conv2
I0528 19:00:47.478685 11123 net.cpp:406] layer_512_1_conv2 <- layer_512_1_conv1
I0528 19:00:47.478698 11123 net.cpp:380] layer_512_1_conv2 -> layer_512_1_conv2
I0528 19:00:47.506172 11123 net.cpp:122] Setting up layer_512_1_conv2
I0528 19:00:47.506203 11123 net.cpp:129] Top shape: 20 512 7 7 (501760)
I0528 19:00:47.506208 11123 net.cpp:137] Memory required for data: 4389396560
I0528 19:00:47.506222 11123 layer_factory.hpp:77] Creating layer layer_512_1_bn3
I0528 19:00:47.506237 11123 net.cpp:84] Creating Layer layer_512_1_bn3
I0528 19:00:47.506245 11123 net.cpp:406] layer_512_1_bn3 <- layer_512_1_conv2
I0528 19:00:47.506258 11123 net.cpp:367] layer_512_1_bn3 -> layer_512_1_conv2 (in-place)
I0528 19:00:47.506489 11123 net.cpp:122] Setting up layer_512_1_bn3
I0528 19:00:47.506497 11123 net.cpp:129] Top shape: 20 512 7 7 (501760)
I0528 19:00:47.506503 11123 net.cpp:137] Memory required for data: 4391403600
I0528 19:00:47.506552 11123 layer_factory.hpp:77] Creating layer layer_512_1_scale3
I0528 19:00:47.506564 11123 net.cpp:84] Creating Layer layer_512_1_scale3
I0528 19:00:47.506572 11123 net.cpp:406] layer_512_1_scale3 <- layer_512_1_conv2
I0528 19:00:47.506590 11123 net.cpp:367] layer_512_1_scale3 -> layer_512_1_conv2 (in-place)
I0528 19:00:47.506651 11123 layer_factory.hpp:77] Creating layer layer_512_1_scale3
I0528 19:00:47.506791 11123 net.cpp:122] Setting up layer_512_1_scale3
I0528 19:00:47.506800 11123 net.cpp:129] Top shape: 20 512 7 7 (501760)
I0528 19:00:47.506808 11123 net.cpp:137] Memory required for data: 4393410640
I0528 19:00:47.506829 11123 layer_factory.hpp:77] Creating layer layer_512_1_relu3
I0528 19:00:47.506839 11123 net.cpp:84] Creating Layer layer_512_1_relu3
I0528 19:00:47.506845 11123 net.cpp:406] layer_512_1_relu3 <- layer_512_1_conv2
I0528 19:00:47.506856 11123 net.cpp:367] layer_512_1_relu3 -> layer_512_1_conv2 (in-place)
I0528 19:00:47.507030 11123 net.cpp:122] Setting up layer_512_1_relu3
I0528 19:00:47.507040 11123 net.cpp:129] Top shape: 20 512 7 7 (501760)
I0528 19:00:47.507056 11123 net.cpp:137] Memory required for data: 4395417680
I0528 19:00:47.507061 11123 layer_factory.hpp:77] Creating layer layer_512_1_conv3
I0528 19:00:47.507074 11123 net.cpp:84] Creating Layer layer_512_1_conv3
I0528 19:00:47.507081 11123 net.cpp:406] layer_512_1_conv3 <- layer_512_1_conv2
I0528 19:00:47.507091 11123 net.cpp:380] layer_512_1_conv3 -> layer_512_1_conv3
I0528 19:00:47.519778 11123 net.cpp:122] Setting up layer_512_1_conv3
I0528 19:00:47.519798 11123 net.cpp:129] Top shape: 20 2048 7 7 (2007040)
I0528 19:00:47.519803 11123 net.cpp:137] Memory required for data: 4403445840
I0528 19:00:47.519809 11123 layer_factory.hpp:77] Creating layer layer_512_1_conv_expand
…
I0528 19:00:47.833590 11123 net.cpp:406] layer_256_4_scale2 <- layer_256_4_conv1
I0528 19:00:47.833600 11123 net.cpp:367] layer_256_4_scale2 -> layer_256_4_conv1 (in-place)
I0528 19:00:47.833688 11123 layer_factory.hpp:77] Creating layer layer_256_4_scale2
I0528 19:00:47.833843 11123 net.cpp:122] Setting up layer_256_4_scale2
I0528 19:00:47.833855 11123 net.cpp:129] Top shape: 10 256 14 14 (501760)
I0528 19:00:47.833861 11123 net.cpp:137] Memory required for data: 1966899320
I0528 19:00:47.833873 11123 layer_factory.hpp:77] Creating layer layer_256_4_relu2
I0528 19:00:47.833884 11123 net.cpp:84] Creating Layer layer_256_4_relu2
I0528 19:00:47.833892 11123 net.cpp:406] layer_256_4_relu2 <- layer_256_4_conv1
I0528 19:00:47.833904 11123 net.cpp:367] layer_256_4_relu2 -> layer_256_4_conv1 (in-place)
I0528 19:00:47.834647 11123 net.cpp:122] Setting up layer_256_4_relu2
I0528 19:00:47.834661 11123 net.cpp:129] Top shape: 10 256 14 14 (501760)
I0528 19:00:47.834667 11123 net.cpp:137] Memory required for data: 1968906360
I0528 19:00:47.834674 11123 layer_factory.hpp:77] Creating layer layer_256_4_conv2
I0528 19:00:47.834692 11123 net.cpp:84] Creating Layer layer_256_4_conv2
I0528 19:00:47.834699 11123 net.cpp:406] layer_256_4_conv2 <- layer_256_4_conv1
I0528 19:00:47.834712 11123 net.cpp:380] layer_256_4_conv2 -> layer_256_4_conv2
I0528 19:00:47.842679 11123 net.cpp:122] Setting up layer_256_4_conv2
I0528 19:00:47.842694 11123 net.cpp:129] Top shape: 10 256 14 14 (501760)
I0528 19:00:47.842700 11123 net.cpp:137] Memory required for data: 1970913400
I0528 19:00:47.842710 11123 layer_factory.hpp:77] Creating layer layer_256_4_bn3
I0528 19:00:47.842722 11123 net.cpp:84] Creating Layer layer_256_4_bn3
I0528 19:00:47.842731 11123 net.cpp:406] layer_256_4_bn3 <- layer_256_4_conv2
I0528 19:00:47.842746 11123 net.cpp:367] layer_256_4_bn3 -> layer_256_4_conv2 (in-place)
I0528 19:00:47.843009 11123 net.cpp:122] Setting up layer_256_4_bn3
I0528 19:00:47.843021 11123 net.cpp:129] Top shape: 10 256 14 14 (501760)
I0528 19:00:47.843027 11123 net.cpp:137] Memory required for data: 1972920440
I0528 19:00:47.843040 11123 layer_factory.hpp:77] Creating layer layer_256_4_scale3
I0528 19:00:47.843051 11123 net.cpp:84] Creating Layer layer_256_4_scale3
I0528 19:00:47.843060 11123 net.cpp:406] layer_256_4_scale3 <- layer_256_4_conv2
I0528 19:00:47.843073 11123 net.cpp:367] layer_256_4_scale3 -> layer_256_4_conv2 (in-place)
I0528 19:00:47.843133 11123 layer_factory.hpp:77] Creating layer layer_256_4_scale3
I0528 19:00:47.843286 11123 net.cpp:122] Setting up layer_256_4_scale3
I0528 19:00:47.843297 11123 net.cpp:129] Top shape: 10 256 14 14 (501760)
I0528 19:00:47.843302 11123 net.cpp:137] Memory required for data: 1974927480
I0528 19:00:47.843313 11123 layer_factory.hpp:77] Creating layer layer_256_4_relu3
I0528 19:00:47.843323 11123 net.cpp:84] Creating Layer layer_256_4_relu3
I0528 19:00:47.843331 11123 net.cpp:406] layer_256_4_relu3 <- layer_256_4_conv2
I0528 19:00:47.843340 11123 net.cpp:367] layer_256_4_relu3 -> layer_256_4_conv2 (in-place)
I0528 19:00:47.844040 11123 net.cpp:122] Setting up layer_256_4_relu3
I0528 19:00:47.844053 11123 net.cpp:129] Top shape: 10 256 14 14 (501760)
I0528 19:00:47.844059 11123 net.cpp:137] Memory required for data: 1976934520
I0528 19:00:47.844065 11123 layer_factory.hpp:77] Creating layer layer_256_4_conv3
I0528 19:00:47.844084 11123 net.cpp:84] Creating Layer layer_256_4_conv3
I0528 19:00:47.844090 11123 net.cpp:406] layer_256_4_conv3 <- layer_256_4_conv2
I0528 19:00:47.844105 11123 net.cpp:380] layer_256_4_conv3 -> layer_256_4_conv3
I0528 19:00:47.848700 11123 net.cpp:122] Setting up layer_256_4_conv3
I0528 19:00:47.848714 11123 net.cpp:129] Top shape: 10 1024 14 14 (2007040)
I0528 19:00:47.848721 11123 net.cpp:137] Memory required for data: 1984962680
I0528 19:00:47.848731 11123 layer_factory.hpp:77] Creating layer layer_256_4_sum
I0528 19:00:47.848742 11123 net.cpp:84] Creating Layer layer_256_4_sum
I0528 19:00:47.848752 11123 net.cpp:406] layer_256_4_sum <- layer_256_4_conv3
I0528 19:00:47.848759 11123 net.cpp:406] layer_256_4_sum <- layer_256_3_sum_layer_256_3_sum_0_split_1
I0528 19:00:47.848770 11123 net.cpp:380] layer_256_4_sum -> layer_256_4_sum
I0528 19:00:47.848819 11123 net.cpp:122] Setting up layer_256_4_sum
I0528 19:00:47.848837 11123 net.cpp:129] Top shape: 10 1024 14 14 (2007040)
I0528 19:00:47.848845 11123 net.cpp:137] Memory required for data: 1992990840
I0528 19:00:47.848850 11123 layer_factory.hpp:77] Creating layer layer_256_4_sum_layer_256_4_sum_0_split
I0528 19:00:47.848861 11123 net.cpp:84] Creating Layer layer_256_4_sum_layer_256_4_sum_0_split
I0528 19:00:47.848870 11123 net.cpp:406] layer_256_4_sum_layer_256_4_sum_0_split <- layer_256_4_sum
I0528 19:00:47.848881 11123 net.cpp:380] layer_256_4_sum_layer_256_4_sum_0_split -> layer_256_4_sum_layer_256_4_sum_0_split_0
I0528 19:00:47.848893 11123 net.cpp:380] layer_256_4_sum_layer_256_4_sum_0_split -> layer_256_4_sum_layer_256_4_sum_0_split_1
I0528 19:00:47.848985 11123 net.cpp:122] Setting up layer_256_4_sum_layer_256_4_sum_0_split
I0528 19:00:47.848996 11123 net.cpp:129] Top shape: 10 1024 14 14 (2007040)
I0528 19:00:47.849004 11123 net.cpp:129] Top shape: 10 1024 14 14 (2007040)
I0528 19:00:47.849010 11123 net.cpp:137] Memory required for data: 2009047160
I0528 19:00:47.849017 11123 layer_factory.hpp:77] Creating layer layer_256_5_bn1
I0528 19:00:47.849030 11123 net.cpp:84] Creating Layer layer_256_5_bn1
I0528 19:00:47.849047 11123 net.cpp:406] layer_256_5_bn1 <- layer_256_4_sum_layer_256_4_sum_0_split_0
I0528 19:00:47.849056 11123 net.cpp:380] layer_256_5_bn1 -> layer_256_5_bn1
I0528 19:00:47.849333 11123 net.cpp:122] Setting up layer_256_5_bn1
I0528 19:00:47.849344 11123 net.cpp:129] Top shape: 10 1024 14 14 (2007040)
I0528 19:00:47.849361 11123 net.cpp:137] Memory required for data: 2017075320
I0528 19:00:47.849377 11123 layer_factory.hpp:77] Creating layer layer_256_5_scale1
I0528 19:00:47.849388 11123 net.cpp:84] Creating Layer layer_256_5_scale1
I0528 19:00:47.849396 11123 net.cpp:406] layer_256_5_scale1 <- layer_256_5_bn1
I0528 19:00:47.849409 11123 net.cpp:367] layer_256_5_scale1 -> layer_256_5_bn1 (in-place)
I0528 19:00:47.849480 11123 layer_factory.hpp:77] Creating layer layer_256_5_scale1
I0528 19:00:47.849663 11123 net.cpp:122] Setting up layer_256_5_scale1
I0528 19:00:47.849674 11123 net.cpp:129] Top shape: 10 1024 14 14 (2007040)
I0528 19:00:47.849680 11123 net.cpp:137] Memory required for data: 2025103480
I0528 19:00:47.849702 11123 layer_factory.hpp:77] Creating layer layer_256_5_relu1
I0528 19:00:47.849711 11123 net.cpp:84] Creating Layer layer_256_5_relu1
I0528 19:00:47.849720 11123 net.cpp:406] layer_256_5_relu1 <- layer_256_5_bn1
I0528 19:00:47.849728 11123 net.cpp:367] layer_256_5_relu1 -> layer_256_5_bn1 (in-place)
I0528 19:00:47.849915 11123 net.cpp:122] Setting up layer_256_5_relu1
I0528 19:00:47.849926 11123 net.cpp:129] Top shape: 10 1024 14 14 (2007040)
I0528 19:00:47.849932 11123 net.cpp:137] Memory required for data: 2033131640
I0528 19:00:47.849949 11123 layer_factory.hpp:77] Creating layer layer_256_5_conv1
I0528 19:00:47.849966 11123 net.cpp:84] Creating Layer layer_256_5_conv1
I0528 19:00:47.849973 11123 net.cpp:406] layer_256_5_conv1 <- layer_256_5_bn1
I0528 19:00:47.849985 11123 net.cpp:380] layer_256_5_conv1 -> layer_256_5_conv1
I0528 19:00:47.853984 11123 net.cpp:122] Setting up layer_256_5_conv1
I0528 19:00:47.853999 11123 net.cpp:129] Top shape: 10 256 14 14 (501760)
I0528 19:00:47.854007 11123 net.cpp:137] Memory required for data: 2035138680
I0528 19:00:47.854015 11123 layer_factory.hpp:77] Creating layer layer_256_5_bn2
I0528 19:00:47.854029 11123 net.cpp:84] Creating Layer layer_256_5_bn2
I0528 19:00:47.854038 11123 net.cpp:406] layer_256_5_bn2 <- layer_256_5_conv1
I0528 19:00:47.854048 11123 net.cpp:367] layer_256_5_bn2 -> layer_256_5_conv1 (in-place)
I0528 19:00:47.854297 11123 net.cpp:122] Setting up layer_256_5_bn2
I0528 19:00:47.854310 11123 net.cpp:129] Top shape: 10 256 14 14 (501760)
I0528 19:00:47.854315 11123 net.cpp:137] Memory required for data: 2037145720
I0528 19:00:47.854327 11123 layer_factory.hpp:77] Creating layer layer_256_5_scale2
I0528 19:00:47.854338 11123 net.cpp:84] Creating Layer layer_256_5_scale2
I0528 19:00:47.854346 11123 net.cpp:406] layer_256_5_scale2 <- layer_256_5_conv1
I0528 19:00:47.854368 11123 net.cpp:367] layer_256_5_scale2 -> layer_256_5_conv1 (in-place)
I0528 19:00:47.854431 11123 layer_factory.hpp:77] Creating layer layer_256_5_scale2
I0528 19:00:47.854586 11123 net.cpp:122] Setting up layer_256_5_scale2
I0528 19:00:47.854598 11123 net.cpp:129] Top shape: 10 256 14 14 (501760)
I0528 19:00:47.854604 11123 net.cpp:137] Memory required for data: 2039152760
I0528 19:00:47.854614 11123 layer_factory.hpp:77] Creating layer layer_256_5_relu2
I0528 19:00:47.854625 11123 net.cpp:84] Creating Layer layer_256_5_relu2
I0528 19:00:47.854634 11123 net.cpp:406] layer_256_5_relu2 <- layer_256_5_conv1
I0528 19:00:47.854645 11123 net.cpp:367] layer_256_5_relu2 -> layer_256_5_conv1 (in-place)
I0528 19:00:47.854817 11123 net.cpp:122] Setting up layer_256_5_relu2
I0528 19:00:47.854830 11123 net.cpp:129] Top shape: 10 256 14 14 (501760)
I0528 19:00:47.854835 11123 net.cpp:137] Memory required for data: 2041159800
I0528 19:00:47.854841 11123 layer_factory.hpp:77] Creating layer layer_256_5_conv2
I0528 19:00:47.854857 11123 net.cpp:84] Creating Layer layer_256_5_conv2
I0528 19:00:47.854864 11123 net.cpp:406] layer_256_5_conv2 <- layer_256_5_conv1
I0528 19:00:47.854876 11123 net.cpp:380] layer_256_5_conv2 -> layer_256_5_conv2
I0528 19:00:47.863343 11123 net.cpp:122] Setting up layer_256_5_conv2
I0528 19:00:47.863364 11123 net.cpp:129] Top shape: 10 256 14 14 (501760)
I0528 19:00:47.863371 11123 net.cpp:137] Memory required for data: 2043166840
I0528 19:00:47.863382 11123 layer_factory.hpp:77] Creating layer layer_256_5_bn3
I0528 19:00:47.863395 11123 net.cpp:84] Creating Layer layer_256_5_bn3
I0528 19:00:47.863415 11123 net.cpp:406] layer_256_5_bn3 <- layer_256_5_conv2
I0528 19:00:47.863427 11123 net.cpp:367] layer_256_5_bn3 -> layer_256_5_conv2 (in-place)
I0528 19:00:47.863709 11123 net.cpp:122] Setting up layer_256_5_bn3
I0528 19:00:47.863721 11123 net.cpp:129] Top shape: 10 256 14 14 (501760)
I0528 19:00:47.863728 11123 net.cpp:137] Memory required for data: 2045173880
I0528 19:00:47.863754 11123 layer_factory.hpp:77] Creating layer layer_256_5_scale3
I0528 19:00:47.863767 11123 net.cpp:84] Creating Layer layer_256_5_scale3
I0528 19:00:47.863777 11123 net.cpp:406] layer_256_5_scale3 <- layer_256_5_conv2
I0528 19:00:47.863787 11123 net.cpp:367] layer_256_5_scale3 -> layer_256_5_conv2 (in-place)
I0528 19:00:47.863864 11123 layer_factory.hpp:77] Creating layer layer_256_5_scale3
I0528 19:00:47.864054 11123 net.cpp:122] Setting up layer_256_5_scale3
I0528 19:00:47.864066 11123 net.cpp:129] Top shape: 10 256 14 14 (501760)
I0528 19:00:47.864073 11123 net.cpp:137] Memory required for data: 2047180920
I0528 19:00:47.864084 11123 layer_factory.hpp:77] Creating layer layer_256_5_relu3
I0528 19:00:47.864096 11123 net.cpp:84] Creating Layer layer_256_5_relu3
I0528 19:00:47.864105 11123 net.cpp:406] layer_256_5_relu3 <- layer_256_5_conv2
I0528 19:00:47.864114 11123 net.cpp:367] layer_256_5_relu3 -> layer_256_5_conv2 (in-place)
I0528 19:00:47.864323 11123 net.cpp:122] Setting up layer_256_5_relu3
I0528 19:00:47.864336 11123 net.cpp:129] Top shape: 10 256 14 14 (501760)
I0528 19:00:47.864341 11123 net.cpp:137] Memory required for data: 2049187960
I0528 19:00:47.864359 11123 layer_factory.hpp:77] Creating layer layer_256_5_conv3
I0528 19:00:47.864377 11123 net.cpp:84] Creating Layer layer_256_5_conv3
I0528 19:00:47.864384 11123 net.cpp:406] layer_256_5_conv3 <- layer_256_5_conv2
I0528 19:00:47.864398 11123 net.cpp:380] layer_256_5_conv3 -> layer_256_5_conv3
I0528 19:00:47.869112 11123 net.cpp:122] Setting up layer_256_5_conv3
I0528 19:00:47.869128 11123 net.cpp:129] Top shape: 10 1024 14 14 (2007040)
I0528 19:00:47.869135 11123 net.cpp:137] Memory required for data: 2057216120
I0528 19:00:47.869155 11123 layer_factory.hpp:77] Creating layer layer_256_5_sum
I0528 19:00:47.869170 11123 net.cpp:84] Creating Layer layer_256_5_sum
I0528 19:00:47.869179 11123 net.cpp:406] layer_256_5_sum <- layer_256_5_conv3
I0528 19:00:47.869187 11123 net.cpp:406] layer_256_5_sum <- layer_256_4_sum_layer_256_4_sum_0_split_1
I0528 19:00:47.869210 11123 net.cpp:380] layer_256_5_sum -> layer_256_5_sum
I0528 19:00:47.869256 11123 net.cpp:122] Setting up layer_256_5_sum
I0528 19:00:47.869266 11123 net.cpp:129] Top shape: 10 1024 14 14 (2007040)
I0528 19:00:47.869283 11123 net.cpp:137] Memory required for data: 2065244280
I0528 19:00:47.869292 11123 layer_factory.hpp:77] Creating layer layer_256_5_sum_layer_256_5_sum_0_split
I0528 19:00:47.869302 11123 net.cpp:84] Creating Layer layer_256_5_sum_layer_256_5_sum_0_split
I0528 19:00:47.869310 11123 net.cpp:406] layer_256_5_sum_layer_256_5_sum_0_split <- layer_256_5_sum
I0528 19:00:47.869323 11123 net.cpp:380] layer_256_5_sum_layer_256_5_sum_0_split -> layer_256_5_sum_layer_256_5_sum_0_split_0
I0528 19:00:47.869345 11123 net.cpp:380] layer_256_5_sum_layer_256_5_sum_0_split -> layer_256_5_sum_layer_256_5_sum_0_split_1
I0528 19:00:47.869405 11123 net.cpp:122] Setting up layer_256_5_sum_layer_256_5_sum_0_split
I0528 19:00:47.869428 11123 net.cpp:129] Top shape: 10 1024 14 14 (2007040)
I0528 19:00:47.869436 11123 net.cpp:129] Top shape: 10 1024 14 14 (2007040)
I0528 19:00:47.869443 11123 net.cpp:137] Memory required for data: 2081300600
I0528 19:00:47.869449 11123 layer_factory.hpp:77] Creating layer layer_256_6_bn1
I0528 19:00:47.869463 11123 net.cpp:84] Creating Layer layer_256_6_bn1
I0528 19:00:47.869482 11123 net.cpp:406] layer_256_6_bn1 <- layer_256_5_sum_layer_256_5_sum_0_split_0
I0528 19:00:47.869491 11123 net.cpp:380] layer_256_6_bn1 -> layer_256_6_bn1
I0528 19:00:47.869791 11123 net.cpp:122] Setting up layer_256_6_bn1
I0528 19:00:47.869803 11123 net.cpp:129] Top shape: 10 1024 14 14 (2007040)
I0528 19:00:47.869809 11123 net.cpp:137] Memory required for data: 2089328760
I0528 19:00:47.869823 11123 layer_factory.hpp:77] Creating layer layer_256_6_scale1
I0528 19:00:47.869834 11123 net.cpp:84] Creating Layer layer_256_6_scale1
I0528 19:00:47.869843 11123 net.cpp:406] layer_256_6_scale1 <- layer_256_6_bn1
I0528 19:00:47.869854 11123 net.cpp:367] layer_256_6_scale1 -> layer_256_6_bn1 (in-place)
I0528 19:00:47.869930 11123 layer_factory.hpp:77] Creating layer layer_256_6_scale1
I0528 19:00:47.870105 11123 net.cpp:122] Setting up layer_256_6_scale1
I0528 19:00:47.870116 11123 net.cpp:129] Top shape: 10 1024 14 14 (2007040)
I0528 19:00:47.870122 11123 net.cpp:137] Memory required for data: 2097356920
I0528 19:00:47.870133 11123 layer_factory.hpp:77] Creating layer layer_256_6_relu1
I0528 19:00:47.870144 11123 net.cpp:84] Creating Layer layer_256_6_relu1
I0528 19:00:47.870152 11123 net.cpp:406] layer_256_6_relu1 <- layer_256_6_bn1
I0528 19:00:47.870162 11123 net.cpp:367] layer_256_6_relu1 -> layer_256_6_bn1 (in-place)
I0528 19:00:47.870342 11123 net.cpp:122] Setting up layer_256_6_relu1
I0528 19:00:47.870354 11123 net.cpp:129] Top shape: 10 1024 14 14 (2007040)
I0528 19:00:47.870360 11123 net.cpp:137] Memory required for data: 2105385080
I0528 19:00:47.870367 11123 layer_factory.hpp:77] Creating layer layer_256_6_conv1
I0528 19:00:47.870381 11123 net.cpp:84] Creating Layer layer_256_6_conv1
I0528 19:00:47.870388 11123 net.cpp:406] layer_256_6_conv1 <- layer_256_6_bn1
I0528 19:00:47.870403 11123 net.cpp:380] layer_256_6_conv1 -> layer_256_6_conv1
I0528 19:00:47.874289 11123 net.cpp:122] Setting up layer_256_6_conv1
I0528 19:00:47.874305 11123 net.cpp:129] Top shape: 10 256 14 14 (501760)
I0528 19:00:47.874311 11123 net.cpp:137] Memory required for data: 2107392120
I0528 19:00:47.874330 11123 layer_factory.hpp:77] Creating layer layer_256_6_bn2
I0528 19:00:47.874343 11123 net.cpp:84] Creating Layer layer_256_6_bn2
I0528 19:00:47.874352 11123 net.cpp:406] layer_256_6_bn2 <- layer_256_6_conv1
I0528 19:00:47.874364 11123 net.cpp:367] layer_256_6_bn2 -> layer_256_6_conv1 (in-place)
I0528 19:00:47.874626 11123 net.cpp:122] Setting up layer_256_6_bn2
I0528 19:00:47.874639 11123 net.cpp:129] Top shape: 10 256 14 14 (501760)
I0528 19:00:47.874655 11123 net.cpp:137] Memory required for data: 2109399160
I0528 19:00:47.874671 11123 layer_factory.hpp:77] Creating layer layer_256_6_scale2
I0528 19:00:47.874681 11123 net.cpp:84] Creating Layer layer_256_6_scale2
I0528 19:00:47.874698 11123 net.cpp:406] layer_256_6_scale2 <- layer_256_6_conv1
I0528 19:00:47.874711 11123 net.cpp:367] layer_256_6_scale2 -> layer_256_6_conv1 (in-place)
I0528 19:00:47.874773 11123 layer_factory.hpp:77] Creating layer layer_256_6_scale2
I0528 19:00:47.874967 11123 net.cpp:122] Setting up layer_256_6_scale2
I0528 19:00:47.874979 11123 net.cpp:129] Top shape: 10 256 14 14 (501760)
I0528 19:00:47.874984 11123 net.cpp:137] Memory required for data: 2111406200
I0528 19:00:47.875006 11123 layer_factory.hpp:77] Creating layer layer_256_6_relu2
I0528 19:00:47.875016 11123 net.cpp:84] Creating Layer layer_256_6_relu2
I0528 19:00:47.875025 11123 net.cpp:406] layer_256_6_relu2 <- layer_256_6_conv1
I0528 19:00:47.875035 11123 net.cpp:367] layer_256_6_relu2 -> layer_256_6_conv1 (in-place)
I0528 19:00:47.875777 11123 net.cpp:122] Setting up layer_256_6_relu2
I0528 19:00:47.875790 11123 net.cpp:129] Top shape: 10 256 14 14 (501760)
I0528 19:00:47.875797 11123 net.cpp:137] Memory required for data: 2113413240
I0528 19:00:47.875803 11123 layer_factory.hpp:77] Creating layer layer_256_6_conv2
I0528 19:00:47.875818 11123 net.cpp:84] Creating Layer layer_256_6_conv2
I0528 19:00:47.875826 11123 net.cpp:406] layer_256_6_conv2 <- layer_256_6_conv1
I0528 19:00:47.875840 11123 net.cpp:380] layer_256_6_conv2 -> layer_256_6_conv2
I0528 19:00:47.883816 11123 net.cpp:122] Setting up layer_256_6_conv2
I0528 19:00:47.883836 11123 net.cpp:129] Top shape: 10 256 14 14 (501760)
I0528 19:00:47.883841 11123 net.cpp:137] Memory required for data: 2115420280
I0528 19:00:47.883852 11123 layer_factory.hpp:77] Creating layer layer_256_6_bn3
I0528 19:00:47.883863 11123 net.cpp:84] Creating Layer layer_256_6_bn3
I0528 19:00:47.883872 11123 net.cpp:406] layer_256_6_bn3 <- layer_256_6_conv2
I0528 19:00:47.883884 11123 net.cpp:367] layer_256_6_bn3 -> layer_256_6_conv2 (in-place)
I0528 19:00:47.884187 11123 net.cpp:122] Setting up layer_256_6_bn3
I0528 19:00:47.884199 11123 net.cpp:129] Top shape: 10 256 14 14 (501760)
I0528 19:00:47.884205 11123 net.cpp:137] Memory required for data: 2117427320
I0528 19:00:47.884232 11123 layer_factory.hpp:77] Creating layer layer_256_6_scale3
I0528 19:00:47.884244 11123 net.cpp:84] Creating Layer layer_256_6_scale3
I0528 19:00:47.884253 11123 net.cpp:406] layer_256_6_scale3 <- layer_256_6_conv2
I0528 19:00:47.884263 11123 net.cpp:367] layer_256_6_scale3 -> layer_256_6_conv2 (in-place)
I0528 19:00:47.884338 11123 layer_factory.hpp:77] Creating layer layer_256_6_scale3
I0528 19:00:47.884518 11123 net.cpp:122] Setting up layer_256_6_scale3
I0528 19:00:47.884531 11123 net.cpp:129] Top shape: 10 256 14 14 (501760)
I0528 19:00:47.884536 11123 net.cpp:137] Memory required for data: 2119434360
I0528 19:00:47.884557 11123 layer_factory.hpp:77] Creating layer layer_256_6_relu3
I0528 19:00:47.884570 11123 net.cpp:84] Creating Layer layer_256_6_relu3
I0528 19:00:47.884578 11123 net.cpp:406] layer_256_6_relu3 <- layer_256_6_conv2
I0528 19:00:47.884588 11123 net.cpp:367] layer_256_6_relu3 -> layer_256_6_conv2 (in-place)
I0528 19:00:47.885365 11123 net.cpp:122] Setting up layer_256_6_relu3
I0528 19:00:47.885380 11123 net.cpp:129] Top shape: 10 256 14 14 (501760)
I0528 19:00:47.885397 11123 net.cpp:137] Memory required for data: 2121441400
I0528 19:00:47.885406 11123 layer_factory.hpp:77] Creating layer layer_256_6_conv3
I0528 19:00:47.885423 11123 net.cpp:84] Creating Layer layer_256_6_conv3
I0528 19:00:47.885431 11123 net.cpp:406] layer_256_6_conv3 <- layer_256_6_conv2
I0528 19:00:47.885444 11123 net.cpp:380] layer_256_6_conv3 -> layer_256_6_conv3
I0528 19:00:47.890199 11123 net.cpp:122] Setting up layer_256_6_conv3
I0528 19:00:47.890215 11123 net.cpp:129] Top shape: 10 1024 14 14 (2007040)
I0528 19:00:47.890223 11123 net.cpp:137] Memory required for data: 2129469560
I0528 19:00:47.890231 11123 layer_factory.hpp:77] Creating layer layer_256_6_sum
I0528 19:00:47.890244 11123 net.cpp:84] Creating Layer layer_256_6_sum
I0528 19:00:47.890251 11123 net.cpp:406] layer_256_6_sum <- layer_256_6_conv3
I0528 19:00:47.890281 11123 net.cpp:406] layer_256_6_sum <- layer_256_5_sum_layer_256_5_sum_0_split_1
I0528 19:00:47.890296 11123 net.cpp:380] layer_256_6_sum -> layer_256_6_sum
I0528 19:00:47.890341 11123 net.cpp:122] Setting up layer_256_6_sum
I0528 19:00:47.890352 11123 net.cpp:129] Top shape: 10 1024 14 14 (2007040)
I0528 19:00:47.890368 11123 net.cpp:137] Memory required for data: 2137497720
I0528 19:00:47.890374 11123 layer_factory.hpp:77] Creating layer layer_512_1_bn1
I0528 19:00:47.890388 11123 net.cpp:84] Creating Layer layer_512_1_bn1
I0528 19:00:47.890396 11123 net.cpp:406] layer_512_1_bn1 <- layer_256_6_sum
I0528 19:00:47.890408 11123 net.cpp:380] layer_512_1_bn1 -> layer_512_1_bn1
I0528 19:00:47.890707 11123 net.cpp:122] Setting up layer_512_1_bn1
I0528 19:00:47.890718 11123 net.cpp:129] Top shape: 10 1024 14 14 (2007040)
I0528 19:00:47.890724 11123 net.cpp:137] Memory required for data: 2145525880
I0528 19:00:47.890748 11123 layer_factory.hpp:77] Creating layer layer_512_1_scale1
I0528 19:00:47.890759 11123 net.cpp:84] Creating Layer layer_512_1_scale1
I0528 19:00:47.890769 11123 net.cpp:406] layer_512_1_scale1 <- layer_512_1_bn1
I0528 19:00:47.890777 11123 net.cpp:367] layer_512_1_scale1 -> layer_512_1_bn1 (in-place)
I0528 19:00:47.890851 11123 layer_factory.hpp:77] Creating layer layer_512_1_scale1
I0528 19:00:47.891026 11123 net.cpp:122] Setting up layer_512_1_scale1
I0528 19:00:47.891038 11123 net.cpp:129] Top shape: 10 1024 14 14 (2007040)
I0528 19:00:47.891044 11123 net.cpp:137] Memory required for data: 2153554040
I0528 19:00:47.891055 11123 layer_factory.hpp:77] Creating layer layer_512_1_relu1
I0528 19:00:47.891068 11123 net.cpp:84] Creating Layer layer_512_1_relu1
I0528 19:00:47.891077 11123 net.cpp:406] layer_512_1_relu1 <- layer_512_1_bn1
I0528 19:00:47.891086 11123 net.cpp:367] layer_512_1_relu1 -> layer_512_1_bn1 (in-place)
I0528 19:00:47.891268 11123 net.cpp:122] Setting up layer_512_1_relu1
I0528 19:00:47.891279 11123 net.cpp:129] Top shape: 10 1024 14 14 (2007040)
I0528 19:00:47.891286 11123 net.cpp:137] Memory required for data: 2161582200
I0528 19:00:47.891293 11123 layer_factory.hpp:77] Creating layer layer_512_1_bn1_layer_512_1_relu1_0_split
I0528 19:00:47.891301 11123 net.cpp:84] Creating Layer layer_512_1_bn1_layer_512_1_relu1_0_split
I0528 19:00:47.891310 11123 net.cpp:406] layer_512_1_bn1_layer_512_1_relu1_0_split <- layer_512_1_bn1
I0528 19:00:47.891324 11123 net.cpp:380] layer_512_1_bn1_layer_512_1_relu1_0_split -> layer_512_1_bn1_layer_512_1_relu1_0_split_0
I0528 19:00:47.891336 11123 net.cpp:380] layer_512_1_bn1_layer_512_1_relu1_0_split -> layer_512_1_bn1_layer_512_1_relu1_0_split_1
I0528 19:00:47.891403 11123 net.cpp:122] Setting up layer_512_1_bn1_layer_512_1_relu1_0_split
I0528 19:00:47.891414 11123 net.cpp:129] Top shape: 10 1024 14 14 (2007040)
I0528 19:00:47.891422 11123 net.cpp:129] Top shape: 10 1024 14 14 (2007040)
I0528 19:00:47.891430 11123 net.cpp:137] Memory required for data: 2177638520
I0528 19:00:47.891436 11123 layer_factory.hpp:77] Creating layer layer_512_1_conv1
I0528 19:00:47.891451 11123 net.cpp:84] Creating Layer layer_512_1_conv1
I0528 19:00:47.891458 11123 net.cpp:406] layer_512_1_conv1 <- layer_512_1_bn1_layer_512_1_relu1_0_split_0
I0528 19:00:47.891471 11123 net.cpp:380] layer_512_1_conv1 -> layer_512_1_conv1
I0528 19:00:47.898815 11123 net.cpp:122] Setting up layer_512_1_conv1
I0528 19:00:47.898834 11123 net.cpp:129] Top shape: 10 512 14 14 (1003520)
I0528 19:00:47.898841 11123 net.cpp:137] Memory required for data: 2181652600
I0528 19:00:47.898851 11123 layer_factory.hpp:77] Creating layer layer_512_1_bn2
I0528 19:00:47.898865 11123 net.cpp:84] Creating Layer layer_512_1_bn2
I0528 19:00:47.898874 11123 net.cpp:406] layer_512_1_bn2 <- layer_512_1_conv1
I0528 19:00:47.898885 11123 net.cpp:367] layer_512_1_bn2 -> layer_512_1_conv1 (in-place)
I0528 19:00:47.899154 11123 net.cpp:122] Setting up layer_512_1_bn2
I0528 19:00:47.899166 11123 net.cpp:129] Top shape: 10 512 14 14 (1003520)
I0528 19:00:47.899173 11123 net.cpp:137] Memory required for data: 2185666680
I0528 19:00:47.899199 11123 layer_factory.hpp:77] Creating layer layer_512_1_scale2
I0528 19:00:47.899210 11123 net.cpp:84] Creating Layer layer_512_1_scale2
I0528 19:00:47.899219 11123 net.cpp:406] layer_512_1_scale2 <- layer_512_1_conv1
I0528 19:00:47.899231 11123 net.cpp:367] layer_512_1_scale2 -> layer_512_1_conv1 (in-place)
I0528 19:00:47.899292 11123 layer_factory.hpp:77] Creating layer layer_512_1_scale2
I0528 19:00:47.899459 11123 net.cpp:122] Setting up layer_512_1_scale2
I0528 19:00:47.899471 11123 net.cpp:129] Top shape: 10 512 14 14 (1003520)
I0528 19:00:47.899477 11123 net.cpp:137] Memory required for data: 2189680760
I0528 19:00:47.899488 11123 layer_factory.hpp:77] Creating layer layer_512_1_relu2
I0528 19:00:47.899499 11123 net.cpp:84] Creating Layer layer_512_1_relu2
I0528 19:00:47.899507 11123 net.cpp:406] layer_512_1_relu2 <- layer_512_1_conv1
I0528 19:00:47.899519 11123 net.cpp:367] layer_512_1_relu2 -> layer_512_1_conv1 (in-place)
I0528 19:00:47.899701 11123 net.cpp:122] Setting up layer_512_1_relu2
I0528 19:00:47.899713 11123 net.cpp:129] Top shape: 10 512 14 14 (1003520)
I0528 19:00:47.899719 11123 net.cpp:137] Memory required for data: 2193694840
I0528 19:00:47.899725 11123 layer_factory.hpp:77] Creating layer layer_512_1_conv2
I0528 19:00:47.899741 11123 net.cpp:84] Creating Layer layer_512_1_conv2
I0528 19:00:47.899749 11123 net.cpp:406] layer_512_1_conv2 <- layer_512_1_conv1
I0528 19:00:47.899760 11123 net.cpp:380] layer_512_1_conv2 -> layer_512_1_conv2
I0528 19:00:47.927194 11123 net.cpp:122] Setting up layer_512_1_conv2
I0528 19:00:47.927227 11123 net.cpp:129] Top shape: 10 512 7 7 (250880)
I0528 19:00:47.927232 11123 net.cpp:137] Memory required for data: 2194698360
I0528 19:00:47.927245 11123 layer_factory.hpp:77] Creating layer layer_512_1_bn3
I0528 19:00:47.927259 11123 net.cpp:84] Creating Layer layer_512_1_bn3
I0528 19:00:47.927269 11123 net.cpp:406] layer_512_1_bn3 <- layer_512_1_conv2
I0528 19:00:47.927284 11123 net.cpp:367] layer_512_1_bn3 -> layer_512_1_conv2 (in-place)
I0528 19:00:47.927563 11123 net.cpp:122] Setting up layer_512_1_bn3
I0528 19:00:47.927575 11123 net.cpp:129] Top shape: 10 512 7 7 (250880)
I0528 19:00:47.927582 11123 net.cpp:137] Memory required for data: 2195701880
I0528 19:00:47.927619 11123 layer_factory.hpp:77] Creating layer layer_512_1_scale3
I0528 19:00:47.927633 11123 net.cpp:84] Creating Layer layer_512_1_scale3
I0528 19:00:47.927640 11123 net.cpp:406] layer_512_1_scale3 <- layer_512_1_conv2
I0528 19:00:47.927650 11123 net.cpp:367] layer_512_1_scale3 -> layer_512_1_conv2 (in-place)
I0528 19:00:47.927717 11123 layer_factory.hpp:77] Creating layer layer_512_1_scale3
I0528 19:00:47.927882 11123 net.cpp:122] Setting up layer_512_1_scale3
I0528 19:00:47.927893 11123 net.cpp:129] Top shape: 10 512 7 7 (250880)
I0528 19:00:47.927899 11123 net.cpp:137] Memory required for data: 2196705400
I0528 19:00:47.927911 11123 layer_factory.hpp:77] Creating layer layer_512_1_relu3
I0528 19:00:47.927922 11123 net.cpp:84] Creating Layer layer_512_1_relu3
I0528 19:00:47.927929 11123 net.cpp:406] layer_512_1_relu3 <- layer_512_1_conv2
I0528 19:00:47.927939 11123 net.cpp:367] layer_512_1_relu3 -> layer_512_1_conv2 (in-place)
I0528 19:00:47.928119 11123 net.cpp:122] Setting up layer_512_1_relu3
I0528 19:00:47.928131 11123 net.cpp:129] Top shape: 10 512 7 7 (250880)
I0528 19:00:47.928138 11123 net.cpp:137] Memory required for data: 2197708920
I0528 19:00:47.928144 11123 layer_factory.hpp:77] Creating layer layer_512_1_conv3
I0528 19:00:47.928160 11123 net.cpp:84] Creating Layer layer_512_1_conv3
I0528 19:00:47.928167 11123 net.cpp:406] layer_512_1_conv3 <- layer_512_1_conv2
I0528 19:00:47.928179 11123 net.cpp:380] layer_512_1_conv3 -> layer_512_1_conv3
I0528 19:00:47.941507 11123 net.cpp:122] Setting up layer_512_1_conv3
I0528 19:00:47.941534 11123 net.cpp:129] Top shape: 10 2048 7 7 (1003520)
I0528 19:00:47.941540 11123 net.cpp:137] Memory required for data: 2201723000
I0528 19:00:47.941553 11123 layer_factory.hpp:77] Creating layer layer_512_1_conv_expand
I0528 19:00:47.941591 11123 net.cpp:84] Creating Layer layer_512_1_conv_expand
I0528 19:00:47.941601 11123 net.cpp:406] layer_512_1_conv_expand <- layer_512_1_bn1_layer_512_1_relu1_0_split_1
I0528 19:00:47.941615 11123 net.cpp:380] layer_512_1_conv_expand -> layer_512_1_conv_expand
I0528 19:00:47.966297 11123 net.cpp:122] Setting up layer_512_1_conv_expand
I0528 19:00:47.966327 11123 net.cpp:129] Top shape: 10 2048 7 7 (1003520)
I0528 19:00:47.966333 11123 net.cpp:137] Memory required for data: 2205737080
I0528 19:00:47.966346 11123 layer_factory.hpp:77] Creating layer layer_512_1_sum
I0528 19:00:47.966361 11123 net.cpp:84] Creating Layer layer_512_1_sum
I0528 19:00:47.966370 11123 net.cpp:406] layer_512_1_sum <- layer_512_1_conv3
I0528 19:00:47.966382 11123 net.cpp:406] layer_512_1_sum <- layer_512_1_conv_expand
I0528 19:00:47.966392 11123 net.cpp:380] layer_512_1_sum -> layer_512_1_sum
I0528 19:00:47.966440 11123 net.cpp:122] Setting up layer_512_1_sum
I0528 19:00:47.966451 11123 net.cpp:129] Top shape: 10 2048 7 7 (1003520)
I0528 19:00:47.966457 11123 net.cpp:137] Memory required for data: 2209751160
I0528 19:00:47.966465 11123 layer_factory.hpp:77] Creating layer layer_512_1_sum_layer_512_1_sum_0_split
I0528 19:00:47.966476 11123 net.cpp:84] Creating Layer layer_512_1_sum_layer_512_1_sum_0_split
I0528 19:00:47.966483 11123 net.cpp:406] layer_512_1_sum_layer_512_1_sum_0_split <- layer_512_1_sum
I0528 19:00:47.966495 11123 net.cpp:380] layer_512_1_sum_layer_512_1_sum_0_split -> layer_512_1_sum_layer_512_1_sum_0_split_0
I0528 19:00:47.966508 11123 net.cpp:380] layer_512_1_sum_layer_512_1_sum_0_split -> layer_512_1_sum_layer_512_1_sum_0_split_1
I0528 19:00:47.966569 11123 net.cpp:122] Setting up layer_512_1_sum_layer_512_1_sum_0_split
I0528 19:00:47.966580 11123 net.cpp:129] Top shape: 10 2048 7 7 (1003520)
I0528 19:00:47.966588 11123 net.cpp:129] Top shape: 10 2048 7 7 (1003520)
I0528 19:00:47.966595 11123 net.cpp:137] Memory required for data: 2217779320
I0528 19:00:47.966601 11123 layer_factory.hpp:77] Creating layer layer_512_2_bn1
I0528 19:00:47.966614 11123 net.cpp:84] Creating Layer layer_512_2_bn1
I0528 19:00:47.966621 11123 net.cpp:406] layer_512_2_bn1 <- layer_512_1_sum_layer_512_1_sum_0_split_0
I0528 19:00:47.966631 11123 net.cpp:380] layer_512_2_bn1 -> layer_512_2_bn1
I0528 19:00:47.966933 11123 net.cpp:122] Setting up layer_512_2_bn1
I0528 19:00:47.966945 11123 net.cpp:129] Top shape: 10 2048 7 7 (1003520)
I0528 19:00:47.966950 11123 net.cpp:137] Memory required for data: 2221793400
I0528 19:00:47.966965 11123 layer_factory.hpp:77] Creating layer layer_512_2_scale1
I0528 19:00:47.966990 11123 net.cpp:84] Creating Layer layer_512_2_scale1
I0528 19:00:47.966998 11123 net.cpp:406] layer_512_2_scale1 <- layer_512_2_bn1
I0528 19:00:47.967007 11123 net.cpp:367] layer_512_2_scale1 -> layer_512_2_bn1 (in-place)
I0528 19:00:47.967089 11123 layer_factory.hpp:77] Creating layer layer_512_2_scale1
I0528 19:00:47.967259 11123 net.cpp:122] Setting up layer_512_2_scale1
I0528 19:00:47.967272 11123 net.cpp:129] Top shape: 10 2048 7 7 (1003520)
I0528 19:00:47.967278 11123 net.cpp:137] Memory required for data: 2225807480
I0528 19:00:47.967288 11123 layer_factory.hpp:77] Creating layer layer_512_2_relu1
I0528 19:00:47.967300 11123 net.cpp:84] Creating Layer layer_512_2_relu1
I0528 19:00:47.967309 11123 net.cpp:406] layer_512_2_relu1 <- layer_512_2_bn1
I0528 19:00:47.967320 11123 net.cpp:367] layer_512_2_relu1 -> layer_512_2_bn1 (in-place)
I0528 19:00:47.967522 11123 net.cpp:122] Setting up layer_512_2_relu1
I0528 19:00:47.967545 11123 net.cpp:129] Top shape: 10 2048 7 7 (1003520)
I0528 19:00:47.967551 11123 net.cpp:137] Memory required for data: 2229821560
I0528 19:00:47.967558 11123 layer_factory.hpp:77] Creating layer layer_512_2_conv1
I0528 19:00:47.967576 11123 net.cpp:84] Creating Layer layer_512_2_conv1
I0528 19:00:47.967584 11123 net.cpp:406] layer_512_2_conv1 <- layer_512_2_bn1
I0528 19:00:47.967595 11123 net.cpp:380] layer_512_2_conv1 -> layer_512_2_conv1
I0528 19:00:47.980680 11123 net.cpp:122] Setting up layer_512_2_conv1
I0528 19:00:47.980717 11123 net.cpp:129] Top shape: 10 512 7 7 (250880)
I0528 19:00:47.980723 11123 net.cpp:137] Memory required for data: 2230825080
I0528 19:00:47.980746 11123 layer_factory.hpp:77] Creating layer layer_512_2_bn2
I0528 19:00:47.980762 11123 net.cpp:84] Creating Layer layer_512_2_bn2
I0528 19:00:47.980772 11123 net.cpp:406] layer_512_2_bn2 <- layer_512_2_conv1
I0528 19:00:47.980787 11123 net.cpp:367] layer_512_2_bn2 -> layer_512_2_conv1 (in-place)
I0528 19:00:47.981097 11123 net.cpp:122] Setting up layer_512_2_bn2
I0528 19:00:47.981109 11123 net.cpp:129] Top shape: 10 512 7 7 (250880)
I0528 19:00:47.981115 11123 net.cpp:137] Memory required for data: 2231828600
I0528 19:00:47.981129 11123 layer_factory.hpp:77] Creating layer layer_512_2_scale2
I0528 19:00:47.981151 11123 net.cpp:84] Creating Layer layer_512_2_scale2
I0528 19:00:47.981160 11123 net.cpp:406] layer_512_2_scale2 <- layer_512_2_conv1
I0528 19:00:47.981174 11123 net.cpp:367] layer_512_2_scale2 -> layer_512_2_conv1 (in-place)
I0528 19:00:47.981250 11123 layer_factory.hpp:77] Creating layer layer_512_2_scale2
I0528 19:00:47.981432 11123 net.cpp:122] Setting up layer_512_2_scale2
I0528 19:00:47.981444 11123 net.cpp:129] Top shape: 10 512 7 7 (250880)
I0528 19:00:47.981451 11123 net.cpp:137] Memory required for data: 2232832120
I0528 19:00:47.981462 11123 layer_factory.hpp:77] Creating layer layer_512_2_relu2
I0528 19:00:47.981473 11123 net.cpp:84] Creating Layer layer_512_2_relu2
I0528 19:00:47.981482 11123 net.cpp:406] layer_512_2_relu2 <- layer_512_2_conv1
I0528 19:00:47.981492 11123 net.cpp:367] layer_512_2_relu2 -> layer_512_2_conv1 (in-place)
I0528 19:00:47.981678 11123 net.cpp:122] Setting up layer_512_2_relu2
I0528 19:00:47.981689 11123 net.cpp:129] Top shape: 10 512 7 7 (250880)
I0528 19:00:47.981695 11123 net.cpp:137] Memory required for data: 2233835640
I0528 19:00:47.981703 11123 layer_factory.hpp:77] Creating layer layer_512_2_conv2
I0528 19:00:47.981719 11123 net.cpp:84] Creating Layer layer_512_2_conv2
I0528 19:00:47.981726 11123 net.cpp:406] layer_512_2_conv2 <- layer_512_2_conv1
I0528 19:00:47.981740 11123 net.cpp:380] layer_512_2_conv2 -> layer_512_2_conv2
I0528 19:00:48.009387 11123 net.cpp:122] Setting up layer_512_2_conv2
I0528 19:00:48.009420 11123 net.cpp:129] Top shape: 10 512 7 7 (250880)
I0528 19:00:48.009426 11123 net.cpp:137] Memory required for data: 2234839160
I0528 19:00:48.009449 11123 layer_factory.hpp:77] Creating layer layer_512_2_bn3
I0528 19:00:48.009467 11123 net.cpp:84] Creating Layer layer_512_2_bn3
I0528 19:00:48.009479 11123 net.cpp:406] layer_512_2_bn3 <- layer_512_2_conv2
I0528 19:00:48.009493 11123 net.cpp:367] layer_512_2_bn3 -> layer_512_2_conv2 (in-place)
I0528 19:00:48.009795 11123 net.cpp:122] Setting up layer_512_2_bn3
I0528 19:00:48.009807 11123 net.cpp:129] Top shape: 10 512 7 7 (250880)
I0528 19:00:48.009814 11123 net.cpp:137] Memory required for data: 2235842680
I0528 19:00:48.009837 11123 layer_factory.hpp:77] Creating layer layer_512_2_scale3
I0528 19:00:48.009850 11123 net.cpp:84] Creating Layer layer_512_2_scale3
I0528 19:00:48.009858 11123 net.cpp:406] layer_512_2_scale3 <- layer_512_2_conv2
I0528 19:00:48.009868 11123 net.cpp:367] layer_512_2_scale3 -> layer_512_2_conv2 (in-place)
I0528 19:00:48.009948 11123 layer_factory.hpp:77] Creating layer layer_512_2_scale3
I0528 19:00:48.010140 11123 net.cpp:122] Setting up layer_512_2_scale3
I0528 19:00:48.010152 11123 net.cpp:129] Top shape: 10 512 7 7 (250880)
I0528 19:00:48.010169 11123 net.cpp:137] Memory required for data: 2236846200
I0528 19:00:48.010180 11123 layer_factory.hpp:77] Creating layer layer_512_2_relu3
I0528 19:00:48.010195 11123 net.cpp:84] Creating Layer layer_512_2_relu3
I0528 19:00:48.010202 11123 net.cpp:406] layer_512_2_relu3 <- layer_512_2_conv2
I0528 19:00:48.010212 11123 net.cpp:367] layer_512_2_relu3 -> layer_512_2_conv2 (in-place)
I0528 19:00:48.010988 11123 net.cpp:122] Setting up layer_512_2_relu3
I0528 19:00:48.011005 11123 net.cpp:129] Top shape: 10 512 7 7 (250880)
I0528 19:00:48.011025 11123 net.cpp:137] Memory required for data: 2237849720
I0528 19:00:48.011045 11123 layer_factory.hpp:77] Creating layer layer_512_2_conv3
I0528 19:00:48.011062 11123 net.cpp:84] Creating Layer layer_512_2_conv3
I0528 19:00:48.011070 11123 net.cpp:406] layer_512_2_conv3 <- layer_512_2_conv2
I0528 19:00:48.011082 11123 net.cpp:380] layer_512_2_conv3 -> layer_512_2_conv3
I0528 19:00:48.024267 11123 net.cpp:122] Setting up layer_512_2_conv3
I0528 19:00:48.024293 11123 net.cpp:129] Top shape: 10 2048 7 7 (1003520)
I0528 19:00:48.024300 11123 net.cpp:137] Memory required for data: 2241863800
I0528 19:00:48.024310 11123 layer_factory.hpp:77] Creating layer layer_512_2_sum
I0528 19:00:48.024323 11123 net.cpp:84] Creating Layer layer_512_2_sum
I0528 19:00:48.024333 11123 net.cpp:406] layer_512_2_sum <- layer_512_2_conv3
I0528 19:00:48.024343 11123 net.cpp:406] layer_512_2_sum <- layer_512_1_sum_layer_512_1_sum_0_split_1
I0528 19:00:48.024356 11123 net.cpp:380] layer_512_2_sum -> layer_512_2_sum
I0528 19:00:48.024402 11123 net.cpp:122] Setting up layer_512_2_sum
I0528 19:00:48.024416 11123 net.cpp:129] Top shape: 10 2048 7 7 (1003520)
I0528 19:00:48.024425 11123 net.cpp:137] Memory required for data: 2245877880
I0528 19:00:48.024432 11123 layer_factory.hpp:77] Creating layer layer_512_2_sum_layer_512_2_sum_0_split
I0528 19:00:48.024443 11123 net.cpp:84] Creating Layer layer_512_2_sum_layer_512_2_sum_0_split
I0528 19:00:48.024451 11123 net.cpp:406] layer_512_2_sum_layer_512_2_sum_0_split <- layer_512_2_sum
I0528 19:00:48.024461 11123 net.cpp:380] layer_512_2_sum_layer_512_2_sum_0_split -> layer_512_2_sum_layer_512_2_sum_0_split_0
I0528 19:00:48.024477 11123 net.cpp:380] layer_512_2_sum_layer_512_2_sum_0_split -> layer_512_2_sum_layer_512_2_sum_0_split_1
I0528 19:00:48.024540 11123 net.cpp:122] Setting up layer_512_2_sum_layer_512_2_sum_0_split
I0528 19:00:48.024552 11123 net.cpp:129] Top shape: 10 2048 7 7 (1003520)
I0528 19:00:48.024560 11123 net.cpp:129] Top shape: 10 2048 7 7 (1003520)
I0528 19:00:48.024567 11123 net.cpp:137] Memory required for data: 2253906040
I0528 19:00:48.024574 11123 layer_factory.hpp:77] Creating layer layer_512_3_bn1
I0528 19:00:48.024586 11123 net.cpp:84] Creating Layer layer_512_3_bn1
I0528 19:00:48.024595 11123 net.cpp:406] layer_512_3_bn1 <- layer_512_2_sum_layer_512_2_sum_0_split_0
I0528 19:00:48.024606 11123 net.cpp:380] layer_512_3_bn1 -> layer_512_3_bn1
I0528 19:00:48.024910 11123 net.cpp:122] Setting up layer_512_3_bn1
I0528 19:00:48.024922 11123 net.cpp:129] Top shape: 10 2048 7 7 (1003520)
I0528 19:00:48.024935 11123 net.cpp:137] Memory required for data: 2257920120
I0528 19:00:48.024948 11123 layer_factory.hpp:77] Creating layer layer_512_3_scale1
I0528 19:00:48.024960 11123 net.cpp:84] Creating Layer layer_512_3_scale1
I0528 19:00:48.024967 11123 net.cpp:406] layer_512_3_scale1 <- layer_512_3_bn1
I0528 19:00:48.024977 11123 net.cpp:367] layer_512_3_scale1 -> layer_512_3_bn1 (in-place)
I0528 19:00:48.025046 11123 layer_factory.hpp:77] Creating layer layer_512_3_scale1
I0528 19:00:48.025223 11123 net.cpp:122] Setting up layer_512_3_scale1
I0528 19:00:48.025235 11123 net.cpp:129] Top shape: 10 2048 7 7 (1003520)
I0528 19:00:48.025241 11123 net.cpp:137] Memory required for data: 2261934200
I0528 19:00:48.025254 11123 layer_factory.hpp:77] Creating layer layer_512_3_relu1
I0528 19:00:48.025265 11123 net.cpp:84] Creating Layer layer_512_3_relu1
I0528 19:00:48.025274 11123 net.cpp:406] layer_512_3_relu1 <- layer_512_3_bn1
I0528 19:00:48.025283 11123 net.cpp:367] layer_512_3_relu1 -> layer_512_3_bn1 (in-place)
I0528 19:00:48.025470 11123 net.cpp:122] Setting up layer_512_3_relu1
I0528 19:00:48.025481 11123 net.cpp:129] Top shape: 10 2048 7 7 (1003520)
I0528 19:00:48.025487 11123 net.cpp:137] Memory required for data: 2265948280
I0528 19:00:48.025493 11123 layer_factory.hpp:77] Creating layer layer_512_3_conv1
I0528 19:00:48.025509 11123 net.cpp:84] Creating Layer layer_512_3_conv1
I0528 19:00:48.025516 11123 net.cpp:406] layer_512_3_conv1 <- layer_512_3_bn1
I0528 19:00:48.025529 11123 net.cpp:380] layer_512_3_conv1 -> layer_512_3_conv1
I0528 19:00:48.038760 11123 net.cpp:122] Setting up layer_512_3_conv1
I0528 19:00:48.038787 11123 net.cpp:129] Top shape: 10 512 7 7 (250880)
I0528 19:00:48.038794 11123 net.cpp:137] Memory required for data: 2266951800
I0528 19:00:48.038806 11123 layer_factory.hpp:77] Creating layer layer_512_3_bn2
I0528 19:00:48.038821 11123 net.cpp:84] Creating Layer layer_512_3_bn2
I0528 19:00:48.038831 11123 net.cpp:406] layer_512_3_bn2 <- layer_512_3_conv1
I0528 19:00:48.038846 11123 net.cpp:367] layer_512_3_bn2 -> layer_512_3_conv1 (in-place)
I0528 19:00:48.039140 11123 net.cpp:122] Setting up layer_512_3_bn2
I0528 19:00:48.039152 11123 net.cpp:129] Top shape: 10 512 7 7 (250880)
I0528 19:00:48.039158 11123 net.cpp:137] Memory required for data: 2267955320
I0528 19:00:48.039175 11123 layer_factory.hpp:77] Creating layer layer_512_3_scale2
I0528 19:00:48.039188 11123 net.cpp:84] Creating Layer layer_512_3_scale2
I0528 19:00:48.039197 11123 net.cpp:406] layer_512_3_scale2 <- layer_512_3_conv1
I0528 19:00:48.039207 11123 net.cpp:367] layer_512_3_scale2 -> layer_512_3_conv1 (in-place)
I0528 19:00:48.039278 11123 layer_factory.hpp:77] Creating layer layer_512_3_scale2
I0528 19:00:48.039455 11123 net.cpp:122] Setting up layer_512_3_scale2
I0528 19:00:48.039468 11123 net.cpp:129] Top shape: 10 512 7 7 (250880)
I0528 19:00:48.039474 11123 net.cpp:137] Memory required for data: 2268958840
I0528 19:00:48.039484 11123 layer_factory.hpp:77] Creating layer layer_512_3_relu2
I0528 19:00:48.039496 11123 net.cpp:84] Creating Layer layer_512_3_relu2
I0528 19:00:48.039505 11123 net.cpp:406] layer_512_3_relu2 <- layer_512_3_conv1
I0528 19:00:48.039516 11123 net.cpp:367] layer_512_3_relu2 -> layer_512_3_conv1 (in-place)
I0528 19:00:48.040266 11123 net.cpp:122] Setting up layer_512_3_relu2
I0528 19:00:48.040279 11123 net.cpp:129] Top shape: 10 512 7 7 (250880)
I0528 19:00:48.040285 11123 net.cpp:137] Memory required for data: 2269962360
I0528 19:00:48.040292 11123 layer_factory.hpp:77] Creating layer layer_512_3_conv2
I0528 19:00:48.040309 11123 net.cpp:84] Creating Layer layer_512_3_conv2
I0528 19:00:48.040316 11123 net.cpp:406] layer_512_3_conv2 <- layer_512_3_conv1
I0528 19:00:48.040330 11123 net.cpp:380] layer_512_3_conv2 -> layer_512_3_conv2
I0528 19:00:48.068109 11123 net.cpp:122] Setting up layer_512_3_conv2
I0528 19:00:48.068138 11123 net.cpp:129] Top shape: 10 512 7 7 (250880)
I0528 19:00:48.068145 11123 net.cpp:137] Memory required for data: 2270965880
I0528 19:00:48.068158 11123 layer_factory.hpp:77] Creating layer layer_512_3_bn3
I0528 19:00:48.068176 11123 net.cpp:84] Creating Layer layer_512_3_bn3
I0528 19:00:48.068186 11123 net.cpp:406] layer_512_3_bn3 <- layer_512_3_conv2
I0528 19:00:48.068199 11123 net.cpp:367] layer_512_3_bn3 -> layer_512_3_conv2 (in-place)
I0528 19:00:48.068511 11123 net.cpp:122] Setting up layer_512_3_bn3
I0528 19:00:48.068522 11123 net.cpp:129] Top shape: 10 512 7 7 (250880)
I0528 19:00:48.068528 11123 net.cpp:137] Memory required for data: 2271969400
I0528 19:00:48.068557 11123 layer_factory.hpp:77] Creating layer layer_512_3_scale3
I0528 19:00:48.068567 11123 net.cpp:84] Creating Layer layer_512_3_scale3
I0528 19:00:48.068577 11123 net.cpp:406] layer_512_3_scale3 <- layer_512_3_conv2
I0528 19:00:48.068585 11123 net.cpp:367] layer_512_3_scale3 -> layer_512_3_conv2 (in-place)
I0528 19:00:48.068657 11123 layer_factory.hpp:77] Creating layer layer_512_3_scale3
I0528 19:00:48.068867 11123 net.cpp:122] Setting up layer_512_3_scale3
I0528 19:00:48.068879 11123 net.cpp:129] Top shape: 10 512 7 7 (250880)
I0528 19:00:48.068897 11123 net.cpp:137] Memory required for data: 2272972920
I0528 19:00:48.068907 11123 layer_factory.hpp:77] Creating layer layer_512_3_relu3
I0528 19:00:48.068922 11123 net.cpp:84] Creating Layer layer_512_3_relu3
I0528 19:00:48.068935 11123 net.cpp:406] layer_512_3_relu3 <- layer_512_3_conv2
I0528 19:00:48.068944 11123 net.cpp:367] layer_512_3_relu3 -> layer_512_3_conv2 (in-place)
I0528 19:00:48.069131 11123 net.cpp:122] Setting up layer_512_3_relu3
I0528 19:00:48.069144 11123 net.cpp:129] Top shape: 10 512 7 7 (250880)
I0528 19:00:48.069161 11123 net.cpp:137] Memory required for data: 2273976440
I0528 19:00:48.069169 11123 layer_factory.hpp:77] Creating layer layer_512_3_conv3
I0528 19:00:48.069186 11123 net.cpp:84] Creating Layer layer_512_3_conv3
I0528 19:00:48.069193 11123 net.cpp:406] layer_512_3_conv3 <- layer_512_3_conv2
I0528 19:00:48.069208 11123 net.cpp:380] layer_512_3_conv3 -> layer_512_3_conv3
I0528 19:00:48.082309 11123 net.cpp:122] Setting up layer_512_3_conv3
I0528 19:00:48.082329 11123 net.cpp:129] Top shape: 10 2048 7 7 (1003520)
I0528 19:00:48.082335 11123 net.cpp:137] Memory required for data: 2277990520
I0528 19:00:48.082355 11123 layer_factory.hpp:77] Creating layer layer_512_3_sum
I0528 19:00:48.082366 11123 net.cpp:84] Creating Layer layer_512_3_sum
I0528 19:00:48.082376 11123 net.cpp:406] layer_512_3_sum <- layer_512_3_conv3
I0528 19:00:48.082386 11123 net.cpp:406] layer_512_3_sum <- layer_512_2_sum_layer_512_2_sum_0_split_1
I0528 19:00:48.082399 11123 net.cpp:380] layer_512_3_sum -> layer_512_3_sum
I0528 19:00:48.082445 11123 net.cpp:122] Setting up layer_512_3_sum
I0528 19:00:48.082456 11123 net.cpp:129] Top shape: 10 2048 7 7 (1003520)
I0528 19:00:48.082463 11123 net.cpp:137] Memory required for data: 2282004600
I0528 19:00:48.082468 11123 layer_factory.hpp:77] Creating layer last_bn
I0528 19:00:48.082482 11123 net.cpp:84] Creating Layer last_bn
I0528 19:00:48.082490 11123 net.cpp:406] last_bn <- layer_512_3_sum
I0528 19:00:48.082502 11123 net.cpp:367] last_bn -> layer_512_3_sum (in-place)
I0528 19:00:48.082795 11123 net.cpp:122] Setting up last_bn
I0528 19:00:48.082808 11123 net.cpp:129] Top shape: 10 2048 7 7 (1003520)
I0528 19:00:48.082813 11123 net.cpp:137] Memory required for data: 2286018680
I0528 19:00:48.082826 11123 layer_factory.hpp:77] Creating layer last_scale
I0528 19:00:48.082839 11123 net.cpp:84] Creating Layer last_scale
I0528 19:00:48.082847 11123 net.cpp:406] last_scale <- layer_512_3_sum
I0528 19:00:48.082857 11123 net.cpp:367] last_scale -> layer_512_3_sum (in-place)
I0528 19:00:48.082926 11123 layer_factory.hpp:77] Creating layer last_scale
I0528 19:00:48.083104 11123 net.cpp:122] Setting up last_scale
I0528 19:00:48.083115 11123 net.cpp:129] Top shape: 10 2048 7 7 (1003520)
I0528 19:00:48.083122 11123 net.cpp:137] Memory required for data: 2290032760
I0528 19:00:48.083133 11123 layer_factory.hpp:77] Creating layer last_relu
I0528 19:00:48.083143 11123 net.cpp:84] Creating Layer last_relu
I0528 19:00:48.083151 11123 net.cpp:406] last_relu <- layer_512_3_sum
I0528 19:00:48.083163 11123 net.cpp:367] last_relu -> layer_512_3_sum (in-place)
I0528 19:00:48.083348 11123 net.cpp:122] Setting up last_relu
I0528 19:00:48.083359 11123 net.cpp:129] Top shape: 10 2048 7 7 (1003520)
I0528 19:00:48.083365 11123 net.cpp:137] Memory required for data: 2294046840
I0528 19:00:48.083371 11123 layer_factory.hpp:77] Creating layer global_pool
I0528 19:00:48.083384 11123 net.cpp:84] Creating Layer global_pool
I0528 19:00:48.083391 11123 net.cpp:406] global_pool <- layer_512_3_sum
I0528 19:00:48.083403 11123 net.cpp:380] global_pool -> global_pool
I0528 19:00:48.084197 11123 net.cpp:122] Setting up global_pool
I0528 19:00:48.084211 11123 net.cpp:129] Top shape: 10 2048 1 1 (20480)
I0528 19:00:48.084218 11123 net.cpp:137] Memory required for data: 2294128760
I0528 19:00:48.084224 11123 layer_factory.hpp:77] Creating layer score
I0528 19:00:48.084237 11123 net.cpp:84] Creating Layer score
I0528 19:00:48.084245 11123 net.cpp:406] score <- global_pool
I0528 19:00:48.084256 11123 net.cpp:380] score -> score
I0528 19:00:48.084424 11123 net.cpp:122] Setting up score
I0528 19:00:48.084434 11123 net.cpp:129] Top shape: 10 2 (20)
I0528 19:00:48.084440 11123 net.cpp:137] Memory required for data: 2294128840
I0528 19:00:48.084451 11123 layer_factory.hpp:77] Creating layer score_score_0_split
I0528 19:00:48.084462 11123 net.cpp:84] Creating Layer score_score_0_split
I0528 19:00:48.084471 11123 net.cpp:406] score_score_0_split <- score
I0528 19:00:48.084482 11123 net.cpp:380] score_score_0_split -> score_score_0_split_0
I0528 19:00:48.084507 11123 net.cpp:380] score_score_0_split -> score_score_0_split_1
I0528 19:00:48.084575 11123 net.cpp:122] Setting up score_score_0_split
I0528 19:00:48.084586 11123 net.cpp:129] Top shape: 10 2 (20)
I0528 19:00:48.084594 11123 net.cpp:129] Top shape: 10 2 (20)
I0528 19:00:48.084599 11123 net.cpp:137] Memory required for data: 2294129000
I0528 19:00:48.084607 11123 layer_factory.hpp:77] Creating layer loss
I0528 19:00:48.084619 11123 net.cpp:84] Creating Layer loss
I0528 19:00:48.084625 11123 net.cpp:406] loss <- score_score_0_split_0
I0528 19:00:48.084633 11123 net.cpp:406] loss <- label_data_1_split_0
I0528 19:00:48.084647 11123 net.cpp:380] loss -> loss
…
