…
I0525 21:05:46.839967  2079 net.cpp:51] Initializing net from parameters: 
name: "Pre-ResNet-18"
state {
  phase: TRAIN
  level: 0
  stage: ""
}
layer {
  name: "data"
  type: "Data"
  top: "data"
  top: "label"
  include {
    phase: TRAIN
  }
  transform_param {
    mirror: true
    crop_size: 224
    mean_file: "/home/k/PycharmProjects/AgeGenderDeepLearning-master/Folds/lmdb/Test_fold_is_0/mean.binaryproto"
  }
  data_param {
    source: "/home/k/PycharmProjects/AgeGenderDeepLearning-master/Folds/lmdb/Test_fold_is_0/age_train_lmdb"
    batch_size: 50
    backend: LMDB
  }
}
layer {
  name: "data_bn"
  type: "BatchNorm"
  bottom: "data"
  top: "data_bn"
  param {
    lr_mult: 0
    decay_mult: 0
  }
  param {
    lr_mult: 0
    decay_mult: 0
  }
  param {
    lr_mult: 0
    decay_mult: 0
  }
}
layer {
  name: "data_scale"
  type: "Scale"
  bottom: "data_bn"
  top: "data_bn"
  param {
    lr_mult: 1
    decay_mult: 1
  }
  param {
    lr_mult: 2
    decay_mult: 1
  }
  scale_param {
    bias_term: true
  }
}
layer {
  name: "conv1"
  type: "Convolution"
  bottom: "data_bn"
  top: "conv1"
  param {
    lr_mult: 1
    decay_mult: 1
  }
  param {
    lr_mult: 2
    decay_mult: 1
  }
  convolution_param {
    num_output: 64
    pad: 3
    kernel_size: 7
    stride: 2
    weight_filler {
      type: "msra"
      variance_norm: FAN_OUT
    }
    bias_filler {
      type: "constant"
      value: 0
    }
  }
}
layer {
  name: "conv1_bn"
  type: "BatchNorm"
  bottom: "conv1"
  top: "conv1"
  param {
    lr_mult: 0
    decay_mult: 0
  }
  param {
    lr_mult: 0
    decay_mult: 0
  }
  param {
    lr_mult: 0
    decay_mult: 0
  }
}
layer {
  name: "conv1_scale"
  type: "Scale"
  bottom: "conv1"
  top: "conv1"
  param {
    lr_mult: 1
    decay_mult: 1
  }
  param {
    lr_mult: 2
    decay_mult: 1
  }
  scale_param {
    bias_term: true
  }
}
layer {
  name: "conv1_relu"
  type: "ReLU"
  bottom: "conv1"
  top: "conv1"
}
layer {
  name: "conv1_pool"
  type: "Pooling"
  bottom: "conv1"
  top: "conv1_pool"
  pooling_param {
    kernel_size: 3
    stride: 2
  }
}
layer {
  name: "layer_64_1_conv1"
  type: "Convolution"
  bottom: "conv1_pool"
  top: "layer_64_1_conv1"
  param {
    lr_mult: 1
    decay_mult: 1
  }
  convolution_param {
    num_output: 64
    bias_term: false
    pad: 1
    kernel_size: 3
    stride: 1
    weight_filler {
      type: "msra"
    }
    bias_filler {
      type: "constant"
      value: 0
    }
  }
}
layer {
  name: "layer_64_1_bn2"
  type: "BatchNorm"
  bottom: "layer_64_1_conv1"
  top: "layer_64_1_conv1"
  param {
    lr_mult: 0
    decay_mult: 0
  }
  param {
    lr_mult: 0
    decay_mult: 0
  }
  param {
    lr_mult: 0
    decay_mult: 0
  }
}
layer {
  name: "layer_64_1_scale2"
  type: "Scale"
  bottom: "layer_64_1_conv1"
  top: "layer_64_1_conv1"
  param {
    lr_mult: 1
    decay_mult: 1
  }
  param {
    lr_mult: 2
    decay_mult: 1
  }
  scale_param {
    bias_term: true
  }
}
layer {
  name: "layer_64_1_relu2"
  type: "ReLU"
  bottom: "layer_64_1_conv1"
  top: "layer_64_1_conv1"
}
layer {
  name: "layer_64_1_conv2"
  type: "Convolution"
  bottom: "layer_64_1_conv1"
  top: "layer_64_1_conv2"
  param {
    lr_mult: 1
    decay_mult: 1
  }
  convolution_param {
    num_output: 64
    bias_term: false
    pad: 1
    kernel_size: 3
    stride: 1
    weight_filler {
      type: "msra"
    }
    bias_filler {
      type: "constant"
      value: 0
    }
  }
}
layer {
  name: "layer_64_1_sum"
  type: "Eltwise"
  bottom: "layer_64_1_conv2"
  bottom: "conv1_pool"
  top: "layer_64_1_sum"
}
layer {
  name: "layer_64_2_bn1"
  type: "BatchNorm"
  bottom: "layer_64_1_sum"
  top: "layer_64_2_bn1"
  param {
    lr_mult: 0
    decay_mult: 0
  }
  param {
    lr_mult: 0
    decay_mult: 0
  }
  param {
    lr_mult: 0
    decay_mult: 0
  }
}
layer {
  name: "layer_64_2_scale1"
  type: "Scale"
  bottom: "layer_64_2_bn1"
  top: "layer_64_2_bn1"
  param {
    lr_mult: 1
    decay_mult: 1
  }
  param {
    lr_mult: 2
    decay_mult: 1
  }
  scale_param {
    bias_term: true
  }
}
layer {
  name: "layer_64_2_relu1"
  type: "ReLU"
  bottom: "layer_64_2_bn1"
  top: "layer_64_2_bn1"
}
layer {
  name: "layer_64_2_conv1"
  type: "Convolution"
  bottom: "layer_64_2_bn1"
  top: "layer_64_2_conv1"
  param {
    lr_mult: 1
    decay_mult: 1
  }
  convolution_param {
    num_output: 64
    bias_term: false
    pad: 1
    kernel_size: 3
    stride: 1
    weight_filler {
      type: "msra"
    }
    bias_filler {
      type: "constant"
      value: 0
    }
  }
}
layer {
  name: "layer_64_2_bn2"
  type: "BatchNorm"
  bottom: "layer_64_2_conv1"
  top: "layer_64_2_conv1"
  param {
    lr_mult: 0
    decay_mult: 0
  }
  param {
    lr_mult: 0
    decay_mult: 0
  }
  param {
    lr_mult: 0
    decay_mult: 0
  }
}
layer {
  name: "layer_64_2_scale2"
  type: "Scale"
  bottom: "layer_64_2_conv1"
  top: "layer_64_2_conv1"
  param {
    lr_mult: 1
    decay_mult: 1
  }
  param {
    lr_mult: 2
    decay_mult: 1
  }
  scale_param {
    bias_term: true
  }
}
layer {
  name: "layer_64_2_relu2"
  type: "ReLU"
  bottom: "layer_64_2_conv1"
  top: "layer_64_2_conv1"
}
layer {
  name: "layer_64_2_conv2"
  type: "Convolution"
  bottom: "layer_64_2_conv1"
  top: "layer_64_2_conv2"
  param {
    lr_mult: 1
    decay_mult: 1
  }
  convolution_param {
    num_output: 64
    bias_term: false
    pad: 1
    kernel_size: 3
    stride: 1
    weight_filler {
      type: "msra"
    }
    bias_filler {
      type: "constant"
      value: 0
    }
  }
}
layer {
  name: "layer_64_2_sum"
  type: "Eltwise"
  bottom: "layer_64_2_conv2"
  bottom: "layer_64_1_sum"
  top: "layer_64_2_sum"
}
layer {
  name: "layer_128_1_bn1"
  type: "BatchNorm"
  bottom: "layer_64_2_sum"
  top: "layer_128_1_bn1"
  param {
    lr_mult: 0
    decay_mult: 0
  }
  param {
    lr_mult: 0
    decay_mult: 0
  }
  param {
    lr_mult: 0
    decay_mult: 0
  }
}
layer {
  name: "layer_128_1_scale1"
  type: "Scale"
  bottom: "layer_128_1_bn1"
  top: "layer_128_1_bn1"
  param {
    lr_mult: 1
    decay_mult: 1
  }
  param {
    lr_mult: 2
    decay_mult: 1
  }
  scale_param {
    bias_term: true
  }
}
layer {
  name: "layer_128_1_relu1"
  type: "ReLU"
  bottom: "layer_128_1_bn1"
  top: "layer_128_1_bn1"
}
layer {
  name: "layer_128_1_conv1"
  type: "Convolution"
  bottom: "layer_128_1_bn1"
  top: "layer_128_1_conv1"
  param {
    lr_mult: 1
    decay_mult: 1
  }
  convolution_param {
    num_output: 128
    bias_term: false
    pad: 1
    kernel_size: 3
    stride: 2
    weight_filler {
      type: "msra"
    }
    bias_filler {
      type: "constant"
      value: 0
    }
  }
}
layer {
  name: "layer_128_1_bn2"
  type: "BatchNorm"
  bottom: "layer_128_1_conv1"
  top: "layer_128_1_conv1"
  param {
    lr_mult: 0
    decay_mult: 0
  }
  param {
    lr_mult: 0
    decay_mult: 0
  }
  param {
    lr_mult: 0
    decay_mult: 0
  }
}
layer {
  name: "layer_128_1_scale2"
  type: "Scale"
  bottom: "layer_128_1_conv1"
  top: "layer_128_1_conv1"
  param {
    lr_mult: 1
    decay_mult: 1
  }
  param {
    lr_mult: 2
    decay_mult: 1
  }
  scale_param {
    bias_term: true
  }
}
layer {
  name: "layer_128_1_relu2"
  type: "ReLU"
  bottom: "layer_128_1_conv1"
  top: "layer_128_1_conv1"
}
layer {
  name: "layer_128_1_conv2"
  type: "Convolution"
  bottom: "layer_128_1_conv1"
  top: "layer_128_1_conv2"
  param {
    lr_mult: 1
    decay_mult: 1
  }
  convolution_param {
    num_output: 128
    bias_term: false
    pad: 1
    kernel_size: 3
    stride: 1
    weight_filler {
      type: "msra"
    }
    bias_filler {
      type: "constant"
      value: 0
    }
  }
}
layer {
  name: "layer_128_1_conv_expand"
  type: "Convolution"
  bottom: "layer_128_1_bn1"
  top: "layer_128_1_conv_expand"
  param {
    lr_mult: 1
    decay_mult: 1
  }
  convolution_param {
    num_output: 128
    bias_term: false
    pad: 0
    kernel_size: 1
    stride: 2
    weight_filler {
      type: "msra"
    }
    bias_filler {
      type: "constant"
      value: 0
    }
  }
}
layer {
  name: "layer_128_1_sum"
  type: "Eltwise"
  bottom: "layer_128_1_conv_expand"
  bottom: "layer_128_1_conv2"
  top: "layer_128_1_sum"
}
layer {
  name: "layer_128_2_bn1"
  type: "BatchNorm"
  bottom: "layer_128_1_sum"
  top: "layer_128_2_bn1"
  param {
    lr_mult: 0
    decay_mult: 0
  }
  param {
    lr_mult: 0
    decay_mult: 0
  }
  param {
    lr_mult: 0
    decay_mult: 0
  }
}
layer {
  name: "layer_128_2_scale1"
  type: "Scale"
  bottom: "layer_128_2_bn1"
  top: "layer_128_2_bn1"
  param {
    lr_mult: 1
    decay_mult: 1
  }
  param {
    lr_mult: 2
    decay_mult: 1
  }
  scale_param {
    bias_term: true
  }
}
layer {
  name: "layer_128_2_relu1"
  type: "ReLU"
  bottom: "layer_128_2_bn1"
  top: "layer_128_2_bn1"
}
layer {
  name: "layer_128_2_conv1"
  type: "Convolution"
  bottom: "layer_128_2_bn1"
  top: "layer_128_2_conv1"
  param {
    lr_mult: 1
    decay_mult: 1
  }
  convolution_param {
    num_output: 128
    bias_term: false
    pad: 1
    kernel_size: 3
    stride: 1
    weight_filler {
      type: "msra"
    }
    bias_filler {
      type: "constant"
      value: 0
    }
  }
}
layer {
  name: "layer_128_2_bn2"
  type: "BatchNorm"
  bottom: "layer_128_2_conv1"
  top: "layer_128_2_conv1"
  param {
    lr_mult: 0
    decay_mult: 0
  }
  param {
    lr_mult: 0
    decay_mult: 0
  }
  param {
    lr_mult: 0
    decay_mult: 0
  }
}
layer {
  name: "layer_128_2_scale2"
  type: "Scale"
  bottom: "layer_128_2_conv1"
  top: "layer_128_2_conv1"
  param {
    lr_mult: 1
    decay_mult: 1
  }
  param {
    lr_mult: 2
    decay_mult: 1
  }
  scale_param {
    bias_term: true
  }
}
layer {
  name: "layer_128_2_relu2"
  type: "ReLU"
  bottom: "layer_128_2_conv1"
  top: "layer_128_2_conv1"
}
layer {
  name: "layer_128_2_conv2"
  type: "Convolution"
  bottom: "layer_128_2_conv1"
  top: "layer_128_2_conv2"
  param {
    lr_mult: 1
    decay_mult: 1
  }
  convolution_param {
    num_output: 128
    bias_term: false
    pad: 1
    kernel_size: 3
    stride: 1
    weight_filler {
      type: "msra"
    }
    bias_filler {
      type: "constant"
      value: 0
    }
  }
}
layer {
  name: "layer_128_2_sum"
  type: "Eltwise"
  bottom: "layer_128_2_conv2"
  bottom: "layer_128_1_sum"
  top: "layer_128_2_sum"
}
layer {
  name: "layer_256_1_bn1"
  type: "BatchNorm"
  bottom: "layer_128_2_sum"
  top: "layer_256_1_bn1"
  param {
    lr_mult: 0
    decay_mult: 0
  }
  param {
    lr_mult: 0
    decay_mult: 0
  }
  param {
    lr_mult: 0
    decay_mult: 0
  }
}
layer {
  name: "layer_256_1_scale1"
  type: "Scale"
  bottom: "layer_256_1_bn1"
  top: "layer_256_1_bn1"
  param {
    lr_mult: 1
    decay_mult: 1
  }
  param {
    lr_mult: 2
    decay_mult: 1
  }
  scale_param {
    bias_term: true
  }
}
layer {
  name: "layer_256_1_relu1"
  type: "ReLU"
  bottom: "layer_256_1_bn1"
  top: "layer_256_1_bn1"
}
layer {
  name: "layer_256_1_conv1"
  type: "Convolution"
  bottom: "layer_256_1_bn1"
  top: "layer_256_1_conv1"
  param {
    lr_mult: 1
    decay_mult: 1
  }
  convolution_param {
    num_output: 256
    bias_term: false
    pad: 1
    kernel_size: 3
    stride: 2
    weight_filler {
      type: "msra"
    }
    bias_filler {
      type: "constant"
      value: 0
    }
  }
}
layer {
  name: "layer_256_1_bn2"
  type: "BatchNorm"
  bottom: "layer_256_1_conv1"
  top: "layer_256_1_conv1"
  param {
    lr_mult: 0
    decay_mult: 0
  }
  param {
    lr_mult: 0
    decay_mult: 0
  }
  param {
    lr_mult: 0
    decay_mult: 0
  }
}
layer {
  name: "layer_256_1_scale2"
  type: "Scale"
  bottom: "layer_256_1_conv1"
  top: "layer_256_1_conv1"
  param {
    lr_mult: 1
    decay_mult: 1
  }
  param {
    lr_mult: 2
    decay_mult: 1
  }
  scale_param {
    bias_term: true
  }
}
layer {
  name: "layer_256_1_relu2"
  type: "ReLU"
  bottom: "layer_256_1_conv1"
  top: "layer_256_1_conv1"
}
layer {
  name: "layer_256_1_conv2"
  type: "Convolution"
  bottom: "layer_256_1_conv1"
  top: "layer_256_1_conv2"
  param {
    lr_mult: 1
    decay_mult: 1
  }
  convolution_param {
    num_output: 256
    bias_term: false
    pad: 1
    kernel_size: 3
    stride: 1
    weight_filler {
      type: "msra"
    }
    bias_filler {
      type: "constant"
      value: 0
    }
  }
}
layer {
  name: "layer_256_1_conv_expand"
  type: "Convolution"
  bottom: "layer_256_1_bn1"
  top: "layer_256_1_conv_expand"
  param {
    lr_mult: 1
    decay_mult: 1
  }
  convolution_param {
    num_output: 256
    bias_term: false
    pad: 0
    kernel_size: 1
    stride: 2
    weight_filler {
      type: "msra"
    }
    bias_filler {
      type: "constant"
      value: 0
    }
  }
}
layer {
  name: "layer_256_1_sum"
  type: "Eltwise"
  bottom: "layer_256_1_conv_expand"
  bottom: "layer_256_1_conv2"
  top: "layer_256_1_sum"
}
layer {
  name: "layer_256_2_bn1"
  type: "BatchNorm"
  bottom: "layer_256_1_sum"
  top: "layer_256_2_bn1"
  param {
    lr_mult: 0
    decay_mult: 0
  }
  param {
    lr_mult: 0
    decay_mult: 0
  }
  param {
    lr_mult: 0
    decay_mult: 0
  }
}
layer {
  name: "layer_256_2_scale1"
  type: "Scale"
  bottom: "layer_256_2_bn1"
  top: "layer_256_2_bn1"
  param {
    lr_mult: 1
    decay_mult: 1
  }
  param {
    lr_mult: 2
    decay_mult: 1
  }
  scale_param {
    bias_term: true
  }
}
layer {
  name: "layer_256_2_relu1"
  type: "ReLU"
  bottom: "layer_256_2_bn1"
  top: "layer_256_2_bn1"
}
layer {
  name: "layer_256_2_conv1"
  type: "Convolution"
  bottom: "layer_256_2_bn1"
  top: "layer_256_2_conv1"
  param {
    lr_mult: 1
    decay_mult: 1
  }
  convolution_param {
    num_output: 256
    bias_term: false
    pad: 1
    kernel_size: 3
    stride: 1
    weight_filler {
      type: "msra"
    }
    bias_filler {
      type: "constant"
      value: 0
    }
  }
}
layer {
  name: "layer_256_2_bn2"
  type: "BatchNorm"
  bottom: "layer_256_2_conv1"
  top: "layer_256_2_conv1"
  param {
    lr_mult: 0
    decay_mult: 0
  }
  param {
    lr_mult: 0
    decay_mult: 0
  }
  param {
    lr_mult: 0
    decay_mult: 0
  }
}
layer {
  name: "layer_256_2_scale2"
  type: "Scale"
  bottom: "layer_256_2_conv1"
  top: "layer_256_2_conv1"
  param {
    lr_mult: 1
    decay_mult: 1
  }
  param {
    lr_mult: 2
    decay_mult: 1
  }
  scale_param {
    bias_term: true
  }
}
layer {
  name: "layer_256_2_relu2"
  type: "ReLU"
  bottom: "layer_256_2_conv1"
  top: "layer_256_2_conv1"
}
layer {
  name: "layer_256_2_conv2"
  type: "Convolution"
  bottom: "layer_256_2_conv1"
  top: "layer_256_2_conv2"
  param {
    lr_mult: 1
    decay_mult: 1
  }
  convolution_param {
    num_output: 256
    bias_term: false
    pad: 1
    kernel_size: 3
    stride: 1
    weight_filler {
      type: "msra"
    }
    bias_filler {
      type: "constant"
      value: 0
    }
  }
}
layer {
  name: "layer_256_2_sum"
  type: "Eltwise"
  bottom: "layer_256_2_conv2"
  bottom: "layer_256_1_sum"
  top: "layer_256_2_sum"
}
layer {
  name: "layer_512_1_bn1"
  type: "BatchNorm"
  bottom: "layer_256_2_sum"
  top: "layer_512_1_bn1"
  param {
    lr_mult: 0
    decay_mult: 0
  }
  param {
    lr_mult: 0
    decay_mult: 0
  }
  param {
    lr_mult: 0
    decay_mult: 0
  }
}
layer {
  name: "layer_512_1_scale1"
  type: "Scale"
  bottom: "layer_512_1_bn1"
  top: "layer_512_1_bn1"
  param {
    lr_mult: 1
    decay_mult: 1
  }
  param {
    lr_mult: 2
    decay_mult: 1
  }
  scale_param {
    bias_term: true
  }
}
layer {
  name: "layer_512_1_relu1"
  type: "ReLU"
  bottom: "layer_512_1_bn1"
  top: "layer_512_1_bn1"
}
layer {
  name: "layer_512_1_conv1"
  type: "Convolution"
  bottom: "layer_512_1_bn1"
  top: "layer_512_1_conv1"
  param {
    lr_mult: 1
    decay_mult: 1
  }
  convolution_param {
    num_output: 512
    bias_term: false
    pad: 1
    kernel_size: 3
    stride: 2
    weight_filler {
      type: "msra"
    }
    bias_filler {
      type: "constant"
      value: 0
    }
  }
}
layer {
  name: "layer_512_1_bn2"
  type: "BatchNorm"
  bottom: "layer_512_1_conv1"
  top: "layer_512_1_conv1"
  param {
    lr_mult: 0
    decay_mult: 0
  }
  param {
    lr_mult: 0
    decay_mult: 0
  }
  param {
    lr_mult: 0
    decay_mult: 0
  }
}
layer {
  name: "layer_512_1_scale2"
  type: "Scale"
  bottom: "layer_512_1_conv1"
  top: "layer_512_1_conv1"
  param {
    lr_mult: 1
    decay_mult: 1
  }
  param {
    lr_mult: 2
    decay_mult: 1
  }
  scale_param {
    bias_term: true
  }
}
layer {
  name: "layer_512_1_relu2"
  type: "ReLU"
  bottom: "layer_512_1_conv1"
  top: "layer_512_1_conv1"
}
layer {
  name: "layer_512_1_conv2"
  type: "Convolution"
  bottom: "layer_512_1_conv1"
  top: "layer_512_1_conv2"
  param {
    lr_mult: 1
    decay_mult: 1
  }
  convolution_param {
    num_output: 512
    bias_term: false
    pad: 1
    kernel_size: 3
    stride: 1
    weight_filler {
      type: "msra"
    }
    bias_filler {
      type: "constant"
      value: 0
    }
  }
}
layer {
  name: "layer_512_1_conv_expand"
  type: "Convolution"
  bottom: "layer_512_1_bn1"
  top: "layer_512_1_conv_expand"
  param {
    lr_mult: 1
    decay_mult: 1
  }
  convolution_param {
    num_output: 512
    bias_term: false
    pad: 0
    kernel_size: 1
    stride: 2
    weight_filler {
      type: "msra"
    }
    bias_filler {
      type: "constant"
      value: 0
    }
  }
}
layer {
  name: "layer_512_1_sum"
  type: "Eltwise"
  bottom: "layer_512_1_conv_expand"
  bottom: "layer_512_1_conv2"
  top: "layer_512_1_sum"
}
layer {
  name: "layer_512_2_bn1"
  type: "BatchNorm"
  bottom: "layer_512_1_sum"
  top: "layer_512_2_bn1"
  param {
    lr_mult: 0
    decay_mult: 0
  }
  param {
    lr_mult: 0
    decay_mult: 0
  }
  param {
    lr_mult: 0
    decay_mult: 0
  }
}
layer {
  name: "layer_512_2_scale1"
  type: "Scale"
  bottom: "layer_512_2_bn1"
  top: "layer_512_2_bn1"
  param {
    lr_mult: 1
    decay_mult: 1
  }
  param {
    lr_mult: 2
    decay_mult: 1
  }
  scale_param {
    bias_term: true
  }
}
layer {
  name: "layer_512_2_relu1"
  type: "ReLU"
  bottom: "layer_512_2_bn1"
  top: "layer_512_2_bn1"
}
layer {
  name: "layer_512_2_conv1"
  type: "Convolution"
  bottom: "layer_512_2_bn1"
  top: "layer_512_2_conv1"
  param {
    lr_mult: 1
    decay_mult: 1
  }
  convolution_param {
    num_output: 512
    bias_term: false
    pad: 1
    kernel_size: 3
    stride: 1
    weight_filler {
      type: "msra"
    }
    bias_filler {
      type: "constant"
      value: 0
    }
  }
}
layer {
  name: "layer_512_2_bn2"
  type: "BatchNorm"
  bottom: "layer_512_2_conv1"
  top: "layer_512_2_conv1"
  param {
    lr_mult: 0
    decay_mult: 0
  }
  param {
    lr_mult: 0
    decay_mult: 0
  }
  param {
    lr_mult: 0
    decay_mult: 0
  }
}
layer {
  name: "layer_512_2_scale2"
  type: "Scale"
  bottom: "layer_512_2_conv1"
  top: "layer_512_2_conv1"
  param {
    lr_mult: 1
    decay_mult: 1
  }
  param {
    lr_mult: 2
    decay_mult: 1
  }
  scale_param {
    bias_term: true
  }
}
layer {
  name: "layer_512_2_relu2"
  type: "ReLU"
  bottom: "layer_512_2_conv1"
  top: "layer_512_2_conv1"
}
layer {
  name: "layer_512_2_conv2"
  type: "Convolution"
  bottom: "layer_512_2_conv1"
  top: "layer_512_2_conv2"
  param {
    lr_mult: 1
    decay_mult: 1
  }
  convolution_param {
    num_output: 512
    bias_term: false
    pad: 1
    kernel_size: 3
    stride: 1
    weight_filler {
      type: "msra"
    }
    bias_filler {
      type: "constant"
      value: 0
    }
  }
}
layer {
  name: "layer_512_2_sum"
  type: "Eltwise"
  bottom: "layer_512_2_conv2"
  bottom: "layer_512_1_sum"
  top: "layer_512_2_sum"
}
layer {
  name: "last_bn"
  type: "BatchNorm"
  bottom: "layer_512_2_sum"
  top: "layer_512_2_sum"
  param {
    lr_mult: 0
    decay_mult: 0
  }
  param {
    lr_mult: 0
    decay_mult: 0
  }
  param {
    lr_mult: 0
    decay_mult: 0
  }
}
layer {
  name: "last_scale"
  type: "Scale"
  bottom: "layer_512_2_sum"
  top: "layer_512_2_sum"
  param {
    lr_mult: 1
    decay_mult: 1
  }
  param {
    lr_mult: 2
    decay_mult: 1
  }
  scale_param {
    bias_term: true
  }
}
layer {
  name: "last_relu"
  type: "ReLU"
  bottom: "layer_512_2_sum"
  top: "layer_512_2_sum"
}
layer {
  name: "global_pool"
  type: "Pooling"
  bottom: "layer_512_2_sum"
  top: "global_pool"
  pooling_param {
    pool: AVE
    global_pooling: true
  }
}
layer {
  name: "score"
  type: "InnerProduct"
  bottom: "global_pool"
  top: "score"
  param {
    lr_mult: 1
    decay_mult: 1
  }
  param {
    lr_mult: 2
    decay_mult: 1
  }
  inner_product_param {
    num_output: 8
  }
}
layer {
  name: "loss"
  type: "SoftmaxWithLoss"
  bottom: "score"
  bottom: "label"
  top: "loss"
}
I0525 21:05:46.840293  2079 layer_factory.hpp:77] Creating layer data
I0525 21:05:46.840405  2079 db_lmdb.cpp:35] Opened lmdb /home/k/PycharmProjects/AgeGenderDeepLearning-master/Folds/lmdb/Test_fold_is_0/age_train_lmdb
I0525 21:05:46.840432  2079 net.cpp:84] Creating Layer data
I0525 21:05:46.840441  2079 net.cpp:380] data -> data
I0525 21:05:46.840461  2079 net.cpp:380] data -> label
I0525 21:05:46.840474  2079 data_transformer.cpp:25] Loading mean file from: /home/k/PycharmProjects/AgeGenderDeepLearning-master/Folds/lmdb/Test_fold_is_0/mean.binaryproto
I0525 21:05:46.843276  2079 data_layer.cpp:45] output data size: 50,3,224,224
I0525 21:05:46.914613  2079 net.cpp:122] Setting up data
I0525 21:05:46.914651  2079 net.cpp:129] Top shape: 50 3 224 224 (7526400)
I0525 21:05:46.914659  2079 net.cpp:129] Top shape: 50 (50)
I0525 21:05:46.914661  2079 net.cpp:137] Memory required for data: 30105800
I0525 21:05:46.914674  2079 layer_factory.hpp:77] Creating layer data_bn
I0525 21:05:46.914702  2079 net.cpp:84] Creating Layer data_bn
I0525 21:05:46.914710  2079 net.cpp:406] data_bn <- data
I0525 21:05:46.914722  2079 net.cpp:380] data_bn -> data_bn
I0525 21:05:46.915905  2079 net.cpp:122] Setting up data_bn
I0525 21:05:46.915923  2079 net.cpp:129] Top shape: 50 3 224 224 (7526400)
I0525 21:05:46.915927  2079 net.cpp:137] Memory required for data: 60211400
I0525 21:05:46.915987  2079 layer_factory.hpp:77] Creating layer data_scale
I0525 21:05:46.915998  2079 net.cpp:84] Creating Layer data_scale
I0525 21:05:46.916003  2079 net.cpp:406] data_scale <- data_bn
I0525 21:05:46.916008  2079 net.cpp:367] data_scale -> data_bn (in-place)
I0525 21:05:46.916066  2079 layer_factory.hpp:77] Creating layer data_scale
I0525 21:05:46.916224  2079 net.cpp:122] Setting up data_scale
I0525 21:05:46.916236  2079 net.cpp:129] Top shape: 50 3 224 224 (7526400)
I0525 21:05:46.916240  2079 net.cpp:137] Memory required for data: 90317000
I0525 21:05:46.916249  2079 layer_factory.hpp:77] Creating layer conv1
I0525 21:05:46.916266  2079 net.cpp:84] Creating Layer conv1
I0525 21:05:46.916273  2079 net.cpp:406] conv1 <- data_bn
I0525 21:05:46.916280  2079 net.cpp:380] conv1 -> conv1
I0525 21:05:47.164065  2079 net.cpp:122] Setting up conv1
I0525 21:05:47.164109  2079 net.cpp:129] Top shape: 50 64 112 112 (40140800)
I0525 21:05:47.164114  2079 net.cpp:137] Memory required for data: 250880200
I0525 21:05:47.164125  2079 layer_factory.hpp:77] Creating layer conv1_bn
I0525 21:05:47.164139  2079 net.cpp:84] Creating Layer conv1_bn
I0525 21:05:47.164144  2079 net.cpp:406] conv1_bn <- conv1
I0525 21:05:47.164150  2079 net.cpp:367] conv1_bn -> conv1 (in-place)
I0525 21:05:47.164317  2079 net.cpp:122] Setting up conv1_bn
I0525 21:05:47.164326  2079 net.cpp:129] Top shape: 50 64 112 112 (40140800)
I0525 21:05:47.164340  2079 net.cpp:137] Memory required for data: 411443400
I0525 21:05:47.164351  2079 layer_factory.hpp:77] Creating layer conv1_scale
I0525 21:05:47.164377  2079 net.cpp:84] Creating Layer conv1_scale
I0525 21:05:47.164383  2079 net.cpp:406] conv1_scale <- conv1
I0525 21:05:47.164388  2079 net.cpp:367] conv1_scale -> conv1 (in-place)
I0525 21:05:47.164427  2079 layer_factory.hpp:77] Creating layer conv1_scale
I0525 21:05:47.164526  2079 net.cpp:122] Setting up conv1_scale
I0525 21:05:47.164535  2079 net.cpp:129] Top shape: 50 64 112 112 (40140800)
I0525 21:05:47.164538  2079 net.cpp:137] Memory required for data: 572006600
I0525 21:05:47.164546  2079 layer_factory.hpp:77] Creating layer conv1_relu
I0525 21:05:47.164552  2079 net.cpp:84] Creating Layer conv1_relu
I0525 21:05:47.164556  2079 net.cpp:406] conv1_relu <- conv1
I0525 21:05:47.164561  2079 net.cpp:367] conv1_relu -> conv1 (in-place)
I0525 21:05:47.164701  2079 net.cpp:122] Setting up conv1_relu
I0525 21:05:47.164711  2079 net.cpp:129] Top shape: 50 64 112 112 (40140800)
I0525 21:05:47.164714  2079 net.cpp:137] Memory required for data: 732569800
I0525 21:05:47.164718  2079 layer_factory.hpp:77] Creating layer conv1_pool
I0525 21:05:47.164724  2079 net.cpp:84] Creating Layer conv1_pool
I0525 21:05:47.164728  2079 net.cpp:406] conv1_pool <- conv1
I0525 21:05:47.164733  2079 net.cpp:380] conv1_pool -> conv1_pool
I0525 21:05:47.164778  2079 net.cpp:122] Setting up conv1_pool
I0525 21:05:47.164786  2079 net.cpp:129] Top shape: 50 64 56 56 (10035200)
I0525 21:05:47.164789  2079 net.cpp:137] Memory required for data: 772710600
I0525 21:05:47.164793  2079 layer_factory.hpp:77] Creating layer conv1_pool_conv1_pool_0_split
I0525 21:05:47.164799  2079 net.cpp:84] Creating Layer conv1_pool_conv1_pool_0_split
I0525 21:05:47.164803  2079 net.cpp:406] conv1_pool_conv1_pool_0_split <- conv1_pool
I0525 21:05:47.164808  2079 net.cpp:380] conv1_pool_conv1_pool_0_split -> conv1_pool_conv1_pool_0_split_0
I0525 21:05:47.164813  2079 net.cpp:380] conv1_pool_conv1_pool_0_split -> conv1_pool_conv1_pool_0_split_1
I0525 21:05:47.164841  2079 net.cpp:122] Setting up conv1_pool_conv1_pool_0_split
I0525 21:05:47.164849  2079 net.cpp:129] Top shape: 50 64 56 56 (10035200)
I0525 21:05:47.164852  2079 net.cpp:129] Top shape: 50 64 56 56 (10035200)
I0525 21:05:47.164855  2079 net.cpp:137] Memory required for data: 852992200
I0525 21:05:47.164858  2079 layer_factory.hpp:77] Creating layer layer_64_1_conv1
I0525 21:05:47.164868  2079 net.cpp:84] Creating Layer layer_64_1_conv1
I0525 21:05:47.164873  2079 net.cpp:406] layer_64_1_conv1 <- conv1_pool_conv1_pool_0_split_0
I0525 21:05:47.164878  2079 net.cpp:380] layer_64_1_conv1 -> layer_64_1_conv1
I0525 21:05:47.166316  2079 net.cpp:122] Setting up layer_64_1_conv1
I0525 21:05:47.166337  2079 net.cpp:129] Top shape: 50 64 56 56 (10035200)
I0525 21:05:47.166340  2079 net.cpp:137] Memory required for data: 893133000
I0525 21:05:47.166347  2079 layer_factory.hpp:77] Creating layer layer_64_1_bn2
I0525 21:05:47.166354  2079 net.cpp:84] Creating Layer layer_64_1_bn2
I0525 21:05:47.166359  2079 net.cpp:406] layer_64_1_bn2 <- layer_64_1_conv1
I0525 21:05:47.166368  2079 net.cpp:367] layer_64_1_bn2 -> layer_64_1_conv1 (in-place)
I0525 21:05:47.167238  2079 net.cpp:122] Setting up layer_64_1_bn2
I0525 21:05:47.167254  2079 net.cpp:129] Top shape: 50 64 56 56 (10035200)
I0525 21:05:47.167258  2079 net.cpp:137] Memory required for data: 933273800
I0525 21:05:47.167266  2079 layer_factory.hpp:77] Creating layer layer_64_1_scale2
I0525 21:05:47.167274  2079 net.cpp:84] Creating Layer layer_64_1_scale2
I0525 21:05:47.167279  2079 net.cpp:406] layer_64_1_scale2 <- layer_64_1_conv1
I0525 21:05:47.167286  2079 net.cpp:367] layer_64_1_scale2 -> layer_64_1_conv1 (in-place)
I0525 21:05:47.167328  2079 layer_factory.hpp:77] Creating layer layer_64_1_scale2
I0525 21:05:47.167426  2079 net.cpp:122] Setting up layer_64_1_scale2
I0525 21:05:47.167435  2079 net.cpp:129] Top shape: 50 64 56 56 (10035200)
I0525 21:05:47.167438  2079 net.cpp:137] Memory required for data: 973414600
I0525 21:05:47.167449  2079 layer_factory.hpp:77] Creating layer layer_64_1_relu2
I0525 21:05:47.167457  2079 net.cpp:84] Creating Layer layer_64_1_relu2
I0525 21:05:47.167474  2079 net.cpp:406] layer_64_1_relu2 <- layer_64_1_conv1
I0525 21:05:47.167479  2079 net.cpp:367] layer_64_1_relu2 -> layer_64_1_conv1 (in-place)
I0525 21:05:47.168121  2079 net.cpp:122] Setting up layer_64_1_relu2
I0525 21:05:47.168134  2079 net.cpp:129] Top shape: 50 64 56 56 (10035200)
I0525 21:05:47.168139  2079 net.cpp:137] Memory required for data: 1013555400
I0525 21:05:47.168143  2079 layer_factory.hpp:77] Creating layer layer_64_1_conv2
I0525 21:05:47.168154  2079 net.cpp:84] Creating Layer layer_64_1_conv2
I0525 21:05:47.168159  2079 net.cpp:406] layer_64_1_conv2 <- layer_64_1_conv1
I0525 21:05:47.168164  2079 net.cpp:380] layer_64_1_conv2 -> layer_64_1_conv2
I0525 21:05:47.169114  2079 net.cpp:122] Setting up layer_64_1_conv2
I0525 21:05:47.169127  2079 net.cpp:129] Top shape: 50 64 56 56 (10035200)
I0525 21:05:47.169131  2079 net.cpp:137] Memory required for data: 1053696200
I0525 21:05:47.169137  2079 layer_factory.hpp:77] Creating layer layer_64_1_sum
I0525 21:05:47.169144  2079 net.cpp:84] Creating Layer layer_64_1_sum
I0525 21:05:47.169148  2079 net.cpp:406] layer_64_1_sum <- layer_64_1_conv2
I0525 21:05:47.169152  2079 net.cpp:406] layer_64_1_sum <- conv1_pool_conv1_pool_0_split_1
I0525 21:05:47.169157  2079 net.cpp:380] layer_64_1_sum -> layer_64_1_sum
I0525 21:05:47.169184  2079 net.cpp:122] Setting up layer_64_1_sum
I0525 21:05:47.169191  2079 net.cpp:129] Top shape: 50 64 56 56 (10035200)
I0525 21:05:47.169195  2079 net.cpp:137] Memory required for data: 1093837000
I0525 21:05:47.169198  2079 layer_factory.hpp:77] Creating layer layer_64_1_sum_layer_64_1_sum_0_split
I0525 21:05:47.169205  2079 net.cpp:84] Creating Layer layer_64_1_sum_layer_64_1_sum_0_split
I0525 21:05:47.169209  2079 net.cpp:406] layer_64_1_sum_layer_64_1_sum_0_split <- layer_64_1_sum
I0525 21:05:47.169214  2079 net.cpp:380] layer_64_1_sum_layer_64_1_sum_0_split -> layer_64_1_sum_layer_64_1_sum_0_split_0
I0525 21:05:47.169219  2079 net.cpp:380] layer_64_1_sum_layer_64_1_sum_0_split -> layer_64_1_sum_layer_64_1_sum_0_split_1
I0525 21:05:47.169250  2079 net.cpp:122] Setting up layer_64_1_sum_layer_64_1_sum_0_split
I0525 21:05:47.169257  2079 net.cpp:129] Top shape: 50 64 56 56 (10035200)
I0525 21:05:47.169261  2079 net.cpp:129] Top shape: 50 64 56 56 (10035200)
I0525 21:05:47.169265  2079 net.cpp:137] Memory required for data: 1174118600
I0525 21:05:47.169267  2079 layer_factory.hpp:77] Creating layer layer_64_2_bn1
I0525 21:05:47.169277  2079 net.cpp:84] Creating Layer layer_64_2_bn1
I0525 21:05:47.169281  2079 net.cpp:406] layer_64_2_bn1 <- layer_64_1_sum_layer_64_1_sum_0_split_0
I0525 21:05:47.169286  2079 net.cpp:380] layer_64_2_bn1 -> layer_64_2_bn1
I0525 21:05:47.169443  2079 net.cpp:122] Setting up layer_64_2_bn1
I0525 21:05:47.169452  2079 net.cpp:129] Top shape: 50 64 56 56 (10035200)
I0525 21:05:47.169456  2079 net.cpp:137] Memory required for data: 1214259400
I0525 21:05:47.169462  2079 layer_factory.hpp:77] Creating layer layer_64_2_scale1
I0525 21:05:47.169469  2079 net.cpp:84] Creating Layer layer_64_2_scale1
I0525 21:05:47.169473  2079 net.cpp:406] layer_64_2_scale1 <- layer_64_2_bn1
I0525 21:05:47.169478  2079 net.cpp:367] layer_64_2_scale1 -> layer_64_2_bn1 (in-place)
I0525 21:05:47.169513  2079 layer_factory.hpp:77] Creating layer layer_64_2_scale1
I0525 21:05:47.169608  2079 net.cpp:122] Setting up layer_64_2_scale1
I0525 21:05:47.169617  2079 net.cpp:129] Top shape: 50 64 56 56 (10035200)
I0525 21:05:47.169620  2079 net.cpp:137] Memory required for data: 1254400200
I0525 21:05:47.169625  2079 layer_factory.hpp:77] Creating layer layer_64_2_relu1
I0525 21:05:47.169632  2079 net.cpp:84] Creating Layer layer_64_2_relu1
I0525 21:05:47.169636  2079 net.cpp:406] layer_64_2_relu1 <- layer_64_2_bn1
I0525 21:05:47.169641  2079 net.cpp:367] layer_64_2_relu1 -> layer_64_2_bn1 (in-place)
I0525 21:05:47.170251  2079 net.cpp:122] Setting up layer_64_2_relu1
I0525 21:05:47.170264  2079 net.cpp:129] Top shape: 50 64 56 56 (10035200)
I0525 21:05:47.170269  2079 net.cpp:137] Memory required for data: 1294541000
I0525 21:05:47.170281  2079 layer_factory.hpp:77] Creating layer layer_64_2_conv1
I0525 21:05:47.170292  2079 net.cpp:84] Creating Layer layer_64_2_conv1
I0525 21:05:47.170297  2079 net.cpp:406] layer_64_2_conv1 <- layer_64_2_bn1
I0525 21:05:47.170305  2079 net.cpp:380] layer_64_2_conv1 -> layer_64_2_conv1
I0525 21:05:47.171715  2079 net.cpp:122] Setting up layer_64_2_conv1
I0525 21:05:47.171728  2079 net.cpp:129] Top shape: 50 64 56 56 (10035200)
I0525 21:05:47.171731  2079 net.cpp:137] Memory required for data: 1334681800
I0525 21:05:47.171736  2079 layer_factory.hpp:77] Creating layer layer_64_2_bn2
I0525 21:05:47.171744  2079 net.cpp:84] Creating Layer layer_64_2_bn2
I0525 21:05:47.171749  2079 net.cpp:406] layer_64_2_bn2 <- layer_64_2_conv1
I0525 21:05:47.171754  2079 net.cpp:367] layer_64_2_bn2 -> layer_64_2_conv1 (in-place)
I0525 21:05:47.171906  2079 net.cpp:122] Setting up layer_64_2_bn2
I0525 21:05:47.171916  2079 net.cpp:129] Top shape: 50 64 56 56 (10035200)
I0525 21:05:47.171918  2079 net.cpp:137] Memory required for data: 1374822600
I0525 21:05:47.171926  2079 layer_factory.hpp:77] Creating layer layer_64_2_scale2
I0525 21:05:47.171932  2079 net.cpp:84] Creating Layer layer_64_2_scale2
I0525 21:05:47.171936  2079 net.cpp:406] layer_64_2_scale2 <- layer_64_2_conv1
I0525 21:05:47.171941  2079 net.cpp:367] layer_64_2_scale2 -> layer_64_2_conv1 (in-place)
I0525 21:05:47.171982  2079 layer_factory.hpp:77] Creating layer layer_64_2_scale2
I0525 21:05:47.172078  2079 net.cpp:122] Setting up layer_64_2_scale2
I0525 21:05:47.172087  2079 net.cpp:129] Top shape: 50 64 56 56 (10035200)
I0525 21:05:47.172091  2079 net.cpp:137] Memory required for data: 1414963400
I0525 21:05:47.172096  2079 layer_factory.hpp:77] Creating layer layer_64_2_relu2
I0525 21:05:47.172101  2079 net.cpp:84] Creating Layer layer_64_2_relu2
I0525 21:05:47.172106  2079 net.cpp:406] layer_64_2_relu2 <- layer_64_2_conv1
I0525 21:05:47.172111  2079 net.cpp:367] layer_64_2_relu2 -> layer_64_2_conv1 (in-place)
I0525 21:05:47.172251  2079 net.cpp:122] Setting up layer_64_2_relu2
I0525 21:05:47.172261  2079 net.cpp:129] Top shape: 50 64 56 56 (10035200)
I0525 21:05:47.172264  2079 net.cpp:137] Memory required for data: 1455104200
I0525 21:05:47.172268  2079 layer_factory.hpp:77] Creating layer layer_64_2_conv2
I0525 21:05:47.172278  2079 net.cpp:84] Creating Layer layer_64_2_conv2
I0525 21:05:47.172283  2079 net.cpp:406] layer_64_2_conv2 <- layer_64_2_conv1
I0525 21:05:47.172289  2079 net.cpp:380] layer_64_2_conv2 -> layer_64_2_conv2
I0525 21:05:47.173699  2079 net.cpp:122] Setting up layer_64_2_conv2
I0525 21:05:47.173712  2079 net.cpp:129] Top shape: 50 64 56 56 (10035200)
I0525 21:05:47.173718  2079 net.cpp:137] Memory required for data: 1495245000
I0525 21:05:47.173723  2079 layer_factory.hpp:77] Creating layer layer_64_2_sum
I0525 21:05:47.173729  2079 net.cpp:84] Creating Layer layer_64_2_sum
I0525 21:05:47.173733  2079 net.cpp:406] layer_64_2_sum <- layer_64_2_conv2
I0525 21:05:47.173738  2079 net.cpp:406] layer_64_2_sum <- layer_64_1_sum_layer_64_1_sum_0_split_1
I0525 21:05:47.173743  2079 net.cpp:380] layer_64_2_sum -> layer_64_2_sum
I0525 21:05:47.173765  2079 net.cpp:122] Setting up layer_64_2_sum
I0525 21:05:47.173773  2079 net.cpp:129] Top shape: 50 64 56 56 (10035200)
I0525 21:05:47.173775  2079 net.cpp:137] Memory required for data: 1535385800
I0525 21:05:47.173779  2079 layer_factory.hpp:77] Creating layer layer_128_1_bn1
I0525 21:05:47.173785  2079 net.cpp:84] Creating Layer layer_128_1_bn1
I0525 21:05:47.173789  2079 net.cpp:406] layer_128_1_bn1 <- layer_64_2_sum
I0525 21:05:47.173794  2079 net.cpp:380] layer_128_1_bn1 -> layer_128_1_bn1
I0525 21:05:47.173950  2079 net.cpp:122] Setting up layer_128_1_bn1
I0525 21:05:47.173960  2079 net.cpp:129] Top shape: 50 64 56 56 (10035200)
I0525 21:05:47.173965  2079 net.cpp:137] Memory required for data: 1575526600
I0525 21:05:47.173976  2079 layer_factory.hpp:77] Creating layer layer_128_1_scale1
I0525 21:05:47.173985  2079 net.cpp:84] Creating Layer layer_128_1_scale1
I0525 21:05:47.173998  2079 net.cpp:406] layer_128_1_scale1 <- layer_128_1_bn1
I0525 21:05:47.174005  2079 net.cpp:367] layer_128_1_scale1 -> layer_128_1_bn1 (in-place)
I0525 21:05:47.174042  2079 layer_factory.hpp:77] Creating layer layer_128_1_scale1
I0525 21:05:47.174137  2079 net.cpp:122] Setting up layer_128_1_scale1
I0525 21:05:47.174146  2079 net.cpp:129] Top shape: 50 64 56 56 (10035200)
I0525 21:05:47.174149  2079 net.cpp:137] Memory required for data: 1615667400
I0525 21:05:47.174155  2079 layer_factory.hpp:77] Creating layer layer_128_1_relu1
I0525 21:05:47.174161  2079 net.cpp:84] Creating Layer layer_128_1_relu1
I0525 21:05:47.174166  2079 net.cpp:406] layer_128_1_relu1 <- layer_128_1_bn1
I0525 21:05:47.174170  2079 net.cpp:367] layer_128_1_relu1 -> layer_128_1_bn1 (in-place)
I0525 21:05:47.174310  2079 net.cpp:122] Setting up layer_128_1_relu1
I0525 21:05:47.174319  2079 net.cpp:129] Top shape: 50 64 56 56 (10035200)
I0525 21:05:47.174322  2079 net.cpp:137] Memory required for data: 1655808200
I0525 21:05:47.174326  2079 layer_factory.hpp:77] Creating layer layer_128_1_bn1_layer_128_1_relu1_0_split
I0525 21:05:47.174331  2079 net.cpp:84] Creating Layer layer_128_1_bn1_layer_128_1_relu1_0_split
I0525 21:05:47.174335  2079 net.cpp:406] layer_128_1_bn1_layer_128_1_relu1_0_split <- layer_128_1_bn1
I0525 21:05:47.174340  2079 net.cpp:380] layer_128_1_bn1_layer_128_1_relu1_0_split -> layer_128_1_bn1_layer_128_1_relu1_0_split_0
I0525 21:05:47.174347  2079 net.cpp:380] layer_128_1_bn1_layer_128_1_relu1_0_split -> layer_128_1_bn1_layer_128_1_relu1_0_split_1
I0525 21:05:47.174381  2079 net.cpp:122] Setting up layer_128_1_bn1_layer_128_1_relu1_0_split
I0525 21:05:47.174388  2079 net.cpp:129] Top shape: 50 64 56 56 (10035200)
I0525 21:05:47.174392  2079 net.cpp:129] Top shape: 50 64 56 56 (10035200)
I0525 21:05:47.174396  2079 net.cpp:137] Memory required for data: 1736089800
I0525 21:05:47.174398  2079 layer_factory.hpp:77] Creating layer layer_128_1_conv1
I0525 21:05:47.174408  2079 net.cpp:84] Creating Layer layer_128_1_conv1
I0525 21:05:47.174413  2079 net.cpp:406] layer_128_1_conv1 <- layer_128_1_bn1_layer_128_1_relu1_0_split_0
I0525 21:05:47.174420  2079 net.cpp:380] layer_128_1_conv1 -> layer_128_1_conv1
I0525 21:05:47.176678  2079 net.cpp:122] Setting up layer_128_1_conv1
I0525 21:05:47.176707  2079 net.cpp:129] Top shape: 50 128 28 28 (5017600)
I0525 21:05:47.176712  2079 net.cpp:137] Memory required for data: 1756160200
I0525 21:05:47.176719  2079 layer_factory.hpp:77] Creating layer layer_128_1_bn2
I0525 21:05:47.176730  2079 net.cpp:84] Creating Layer layer_128_1_bn2
I0525 21:05:47.176738  2079 net.cpp:406] layer_128_1_bn2 <- layer_128_1_conv1
I0525 21:05:47.176759  2079 net.cpp:367] layer_128_1_bn2 -> layer_128_1_conv1 (in-place)
I0525 21:05:47.177605  2079 net.cpp:122] Setting up layer_128_1_bn2
I0525 21:05:47.177618  2079 net.cpp:129] Top shape: 50 128 28 28 (5017600)
I0525 21:05:47.177623  2079 net.cpp:137] Memory required for data: 1776230600
I0525 21:05:47.177631  2079 layer_factory.hpp:77] Creating layer layer_128_1_scale2
I0525 21:05:47.177639  2079 net.cpp:84] Creating Layer layer_128_1_scale2
I0525 21:05:47.177644  2079 net.cpp:406] layer_128_1_scale2 <- layer_128_1_conv1
I0525 21:05:47.177651  2079 net.cpp:367] layer_128_1_scale2 -> layer_128_1_conv1 (in-place)
I0525 21:05:47.177690  2079 layer_factory.hpp:77] Creating layer layer_128_1_scale2
I0525 21:05:47.177783  2079 net.cpp:122] Setting up layer_128_1_scale2
I0525 21:05:47.177791  2079 net.cpp:129] Top shape: 50 128 28 28 (5017600)
I0525 21:05:47.177794  2079 net.cpp:137] Memory required for data: 1796301000
I0525 21:05:47.177800  2079 layer_factory.hpp:77] Creating layer layer_128_1_relu2
I0525 21:05:47.177814  2079 net.cpp:84] Creating Layer layer_128_1_relu2
I0525 21:05:47.177824  2079 net.cpp:406] layer_128_1_relu2 <- layer_128_1_conv1
I0525 21:05:47.177832  2079 net.cpp:367] layer_128_1_relu2 -> layer_128_1_conv1 (in-place)
I0525 21:05:47.178038  2079 net.cpp:122] Setting up layer_128_1_relu2
I0525 21:05:47.178050  2079 net.cpp:129] Top shape: 50 128 28 28 (5017600)
I0525 21:05:47.178068  2079 net.cpp:137] Memory required for data: 1816371400
I0525 21:05:47.178076  2079 layer_factory.hpp:77] Creating layer layer_128_1_conv2
I0525 21:05:47.178092  2079 net.cpp:84] Creating Layer layer_128_1_conv2
I0525 21:05:47.178100  2079 net.cpp:406] layer_128_1_conv2 <- layer_128_1_conv1
I0525 21:05:47.178112  2079 net.cpp:380] layer_128_1_conv2 -> layer_128_1_conv2
I0525 21:05:47.181550  2079 net.cpp:122] Setting up layer_128_1_conv2
I0525 21:05:47.181565  2079 net.cpp:129] Top shape: 50 128 28 28 (5017600)
I0525 21:05:47.181568  2079 net.cpp:137] Memory required for data: 1836441800
I0525 21:05:47.181573  2079 layer_factory.hpp:77] Creating layer layer_128_1_conv_expand
I0525 21:05:47.181584  2079 net.cpp:84] Creating Layer layer_128_1_conv_expand
I0525 21:05:47.181589  2079 net.cpp:406] layer_128_1_conv_expand <- layer_128_1_bn1_layer_128_1_relu1_0_split_1
I0525 21:05:47.181596  2079 net.cpp:380] layer_128_1_conv_expand -> layer_128_1_conv_expand
I0525 21:05:47.182761  2079 net.cpp:122] Setting up layer_128_1_conv_expand
I0525 21:05:47.182776  2079 net.cpp:129] Top shape: 50 128 28 28 (5017600)
I0525 21:05:47.182781  2079 net.cpp:137] Memory required for data: 1856512200
I0525 21:05:47.182786  2079 layer_factory.hpp:77] Creating layer layer_128_1_sum
I0525 21:05:47.182793  2079 net.cpp:84] Creating Layer layer_128_1_sum
I0525 21:05:47.182797  2079 net.cpp:406] layer_128_1_sum <- layer_128_1_conv_expand
I0525 21:05:47.182802  2079 net.cpp:406] layer_128_1_sum <- layer_128_1_conv2
I0525 21:05:47.182808  2079 net.cpp:380] layer_128_1_sum -> layer_128_1_sum
I0525 21:05:47.182832  2079 net.cpp:122] Setting up layer_128_1_sum
I0525 21:05:47.182839  2079 net.cpp:129] Top shape: 50 128 28 28 (5017600)
I0525 21:05:47.182843  2079 net.cpp:137] Memory required for data: 1876582600
I0525 21:05:47.182847  2079 layer_factory.hpp:77] Creating layer layer_128_1_sum_layer_128_1_sum_0_split
I0525 21:05:47.182854  2079 net.cpp:84] Creating Layer layer_128_1_sum_layer_128_1_sum_0_split
I0525 21:05:47.182858  2079 net.cpp:406] layer_128_1_sum_layer_128_1_sum_0_split <- layer_128_1_sum
I0525 21:05:47.182863  2079 net.cpp:380] layer_128_1_sum_layer_128_1_sum_0_split -> layer_128_1_sum_layer_128_1_sum_0_split_0
I0525 21:05:47.182873  2079 net.cpp:380] layer_128_1_sum_layer_128_1_sum_0_split -> layer_128_1_sum_layer_128_1_sum_0_split_1
I0525 21:05:47.182905  2079 net.cpp:122] Setting up layer_128_1_sum_layer_128_1_sum_0_split
I0525 21:05:47.182914  2079 net.cpp:129] Top shape: 50 128 28 28 (5017600)
I0525 21:05:47.182919  2079 net.cpp:129] Top shape: 50 128 28 28 (5017600)
I0525 21:05:47.182921  2079 net.cpp:137] Memory required for data: 1916723400
I0525 21:05:47.182924  2079 layer_factory.hpp:77] Creating layer layer_128_2_bn1
I0525 21:05:47.182931  2079 net.cpp:84] Creating Layer layer_128_2_bn1
I0525 21:05:47.182935  2079 net.cpp:406] layer_128_2_bn1 <- layer_128_1_sum_layer_128_1_sum_0_split_0
I0525 21:05:47.182940  2079 net.cpp:380] layer_128_2_bn1 -> layer_128_2_bn1
I0525 21:05:47.183095  2079 net.cpp:122] Setting up layer_128_2_bn1
I0525 21:05:47.183104  2079 net.cpp:129] Top shape: 50 128 28 28 (5017600)
I0525 21:05:47.183107  2079 net.cpp:137] Memory required for data: 1936793800
I0525 21:05:47.183115  2079 layer_factory.hpp:77] Creating layer layer_128_2_scale1
I0525 21:05:47.183121  2079 net.cpp:84] Creating Layer layer_128_2_scale1
I0525 21:05:47.183126  2079 net.cpp:406] layer_128_2_scale1 <- layer_128_2_bn1
I0525 21:05:47.183132  2079 net.cpp:367] layer_128_2_scale1 -> layer_128_2_bn1 (in-place)
I0525 21:05:47.183169  2079 layer_factory.hpp:77] Creating layer layer_128_2_scale1
I0525 21:05:47.183260  2079 net.cpp:122] Setting up layer_128_2_scale1
I0525 21:05:47.183269  2079 net.cpp:129] Top shape: 50 128 28 28 (5017600)
I0525 21:05:47.183272  2079 net.cpp:137] Memory required for data: 1956864200
I0525 21:05:47.183279  2079 layer_factory.hpp:77] Creating layer layer_128_2_relu1
I0525 21:05:47.183284  2079 net.cpp:84] Creating Layer layer_128_2_relu1
I0525 21:05:47.183298  2079 net.cpp:406] layer_128_2_relu1 <- layer_128_2_bn1
I0525 21:05:47.183305  2079 net.cpp:367] layer_128_2_relu1 -> layer_128_2_bn1 (in-place)
I0525 21:05:47.183445  2079 net.cpp:122] Setting up layer_128_2_relu1
I0525 21:05:47.183455  2079 net.cpp:129] Top shape: 50 128 28 28 (5017600)
I0525 21:05:47.183459  2079 net.cpp:137] Memory required for data: 1976934600
I0525 21:05:47.183462  2079 layer_factory.hpp:77] Creating layer layer_128_2_conv1
I0525 21:05:47.183472  2079 net.cpp:84] Creating Layer layer_128_2_conv1
I0525 21:05:47.183477  2079 net.cpp:406] layer_128_2_conv1 <- layer_128_2_bn1
I0525 21:05:47.183482  2079 net.cpp:380] layer_128_2_conv1 -> layer_128_2_conv1
I0525 21:05:47.187172  2079 net.cpp:122] Setting up layer_128_2_conv1
I0525 21:05:47.187186  2079 net.cpp:129] Top shape: 50 128 28 28 (5017600)
I0525 21:05:47.187191  2079 net.cpp:137] Memory required for data: 1997005000
I0525 21:05:47.187196  2079 layer_factory.hpp:77] Creating layer layer_128_2_bn2
I0525 21:05:47.187202  2079 net.cpp:84] Creating Layer layer_128_2_bn2
I0525 21:05:47.187206  2079 net.cpp:406] layer_128_2_bn2 <- layer_128_2_conv1
I0525 21:05:47.187213  2079 net.cpp:367] layer_128_2_bn2 -> layer_128_2_conv1 (in-place)
I0525 21:05:47.187371  2079 net.cpp:122] Setting up layer_128_2_bn2
I0525 21:05:47.187379  2079 net.cpp:129] Top shape: 50 128 28 28 (5017600)
I0525 21:05:47.187382  2079 net.cpp:137] Memory required for data: 2017075400
I0525 21:05:47.187389  2079 layer_factory.hpp:77] Creating layer layer_128_2_scale2
I0525 21:05:47.187397  2079 net.cpp:84] Creating Layer layer_128_2_scale2
I0525 21:05:47.187402  2079 net.cpp:406] layer_128_2_scale2 <- layer_128_2_conv1
I0525 21:05:47.187407  2079 net.cpp:367] layer_128_2_scale2 -> layer_128_2_conv1 (in-place)
I0525 21:05:47.187441  2079 layer_factory.hpp:77] Creating layer layer_128_2_scale2
I0525 21:05:47.187536  2079 net.cpp:122] Setting up layer_128_2_scale2
I0525 21:05:47.187544  2079 net.cpp:129] Top shape: 50 128 28 28 (5017600)
I0525 21:05:47.187548  2079 net.cpp:137] Memory required for data: 2037145800
I0525 21:05:47.187553  2079 layer_factory.hpp:77] Creating layer layer_128_2_relu2
I0525 21:05:47.187561  2079 net.cpp:84] Creating Layer layer_128_2_relu2
I0525 21:05:47.187566  2079 net.cpp:406] layer_128_2_relu2 <- layer_128_2_conv1
I0525 21:05:47.187569  2079 net.cpp:367] layer_128_2_relu2 -> layer_128_2_conv1 (in-place)
I0525 21:05:47.187714  2079 net.cpp:122] Setting up layer_128_2_relu2
I0525 21:05:47.187724  2079 net.cpp:129] Top shape: 50 128 28 28 (5017600)
I0525 21:05:47.187727  2079 net.cpp:137] Memory required for data: 2057216200
I0525 21:05:47.187731  2079 layer_factory.hpp:77] Creating layer layer_128_2_conv2
I0525 21:05:47.187739  2079 net.cpp:84] Creating Layer layer_128_2_conv2
I0525 21:05:47.187744  2079 net.cpp:406] layer_128_2_conv2 <- layer_128_2_conv1
I0525 21:05:47.187752  2079 net.cpp:380] layer_128_2_conv2 -> layer_128_2_conv2
I0525 21:05:47.190737  2079 net.cpp:122] Setting up layer_128_2_conv2
I0525 21:05:47.190749  2079 net.cpp:129] Top shape: 50 128 28 28 (5017600)
I0525 21:05:47.190754  2079 net.cpp:137] Memory required for data: 2077286600
I0525 21:05:47.190760  2079 layer_factory.hpp:77] Creating layer layer_128_2_sum
I0525 21:05:47.190767  2079 net.cpp:84] Creating Layer layer_128_2_sum
I0525 21:05:47.190771  2079 net.cpp:406] layer_128_2_sum <- layer_128_2_conv2
I0525 21:05:47.190778  2079 net.cpp:406] layer_128_2_sum <- layer_128_1_sum_layer_128_1_sum_0_split_1
I0525 21:05:47.190784  2079 net.cpp:380] layer_128_2_sum -> layer_128_2_sum
I0525 21:05:47.190810  2079 net.cpp:122] Setting up layer_128_2_sum
I0525 21:05:47.190819  2079 net.cpp:129] Top shape: 50 128 28 28 (5017600)
I0525 21:05:47.190821  2079 net.cpp:137] Memory required for data: 2097357000
I0525 21:05:47.190824  2079 layer_factory.hpp:77] Creating layer layer_256_1_bn1
I0525 21:05:47.190830  2079 net.cpp:84] Creating Layer layer_256_1_bn1
I0525 21:05:47.190834  2079 net.cpp:406] layer_256_1_bn1 <- layer_128_2_sum
I0525 21:05:47.190840  2079 net.cpp:380] layer_256_1_bn1 -> layer_256_1_bn1
I0525 21:05:47.191014  2079 net.cpp:122] Setting up layer_256_1_bn1
I0525 21:05:47.191023  2079 net.cpp:129] Top shape: 50 128 28 28 (5017600)
I0525 21:05:47.191027  2079 net.cpp:137] Memory required for data: 2117427400
I0525 21:05:47.191036  2079 layer_factory.hpp:77] Creating layer layer_256_1_scale1
I0525 21:05:47.191045  2079 net.cpp:84] Creating Layer layer_256_1_scale1
I0525 21:05:47.191049  2079 net.cpp:406] layer_256_1_scale1 <- layer_256_1_bn1
I0525 21:05:47.191054  2079 net.cpp:367] layer_256_1_scale1 -> layer_256_1_bn1 (in-place)
I0525 21:05:47.191089  2079 layer_factory.hpp:77] Creating layer layer_256_1_scale1
I0525 21:05:47.191181  2079 net.cpp:122] Setting up layer_256_1_scale1
I0525 21:05:47.191190  2079 net.cpp:129] Top shape: 50 128 28 28 (5017600)
I0525 21:05:47.191193  2079 net.cpp:137] Memory required for data: 2137497800
I0525 21:05:47.191198  2079 layer_factory.hpp:77] Creating layer layer_256_1_relu1
I0525 21:05:47.191205  2079 net.cpp:84] Creating Layer layer_256_1_relu1
I0525 21:05:47.191210  2079 net.cpp:406] layer_256_1_relu1 <- layer_256_1_bn1
I0525 21:05:47.191215  2079 net.cpp:367] layer_256_1_relu1 -> layer_256_1_bn1 (in-place)
I0525 21:05:47.191845  2079 net.cpp:122] Setting up layer_256_1_relu1
I0525 21:05:47.191857  2079 net.cpp:129] Top shape: 50 128 28 28 (5017600)
I0525 21:05:47.191860  2079 net.cpp:137] Memory required for data: 2157568200
I0525 21:05:47.191864  2079 layer_factory.hpp:77] Creating layer layer_256_1_bn1_layer_256_1_relu1_0_split
I0525 21:05:47.191869  2079 net.cpp:84] Creating Layer layer_256_1_bn1_layer_256_1_relu1_0_split
I0525 21:05:47.191874  2079 net.cpp:406] layer_256_1_bn1_layer_256_1_relu1_0_split <- layer_256_1_bn1
I0525 21:05:47.191879  2079 net.cpp:380] layer_256_1_bn1_layer_256_1_relu1_0_split -> layer_256_1_bn1_layer_256_1_relu1_0_split_0
I0525 21:05:47.191886  2079 net.cpp:380] layer_256_1_bn1_layer_256_1_relu1_0_split -> layer_256_1_bn1_layer_256_1_relu1_0_split_1
I0525 21:05:47.191925  2079 net.cpp:122] Setting up layer_256_1_bn1_layer_256_1_relu1_0_split
I0525 21:05:47.191932  2079 net.cpp:129] Top shape: 50 128 28 28 (5017600)
I0525 21:05:47.191936  2079 net.cpp:129] Top shape: 50 128 28 28 (5017600)
I0525 21:05:47.191939  2079 net.cpp:137] Memory required for data: 2197709000
I0525 21:05:47.191943  2079 layer_factory.hpp:77] Creating layer layer_256_1_conv1
I0525 21:05:47.191958  2079 net.cpp:84] Creating Layer layer_256_1_conv1
I0525 21:05:47.191963  2079 net.cpp:406] layer_256_1_conv1 <- layer_256_1_bn1_layer_256_1_relu1_0_split_0
I0525 21:05:47.191972  2079 net.cpp:380] layer_256_1_conv1 -> layer_256_1_conv1
I0525 21:05:47.197217  2079 net.cpp:122] Setting up layer_256_1_conv1
I0525 21:05:47.197235  2079 net.cpp:129] Top shape: 50 256 14 14 (2508800)
I0525 21:05:47.197239  2079 net.cpp:137] Memory required for data: 2207744200
I0525 21:05:47.197245  2079 layer_factory.hpp:77] Creating layer layer_256_1_bn2
I0525 21:05:47.197257  2079 net.cpp:84] Creating Layer layer_256_1_bn2
I0525 21:05:47.197262  2079 net.cpp:406] layer_256_1_bn2 <- layer_256_1_conv1
I0525 21:05:47.197266  2079 net.cpp:367] layer_256_1_bn2 -> layer_256_1_conv1 (in-place)
I0525 21:05:47.197438  2079 net.cpp:122] Setting up layer_256_1_bn2
I0525 21:05:47.197445  2079 net.cpp:129] Top shape: 50 256 14 14 (2508800)
I0525 21:05:47.197460  2079 net.cpp:137] Memory required for data: 2217779400
I0525 21:05:47.197476  2079 layer_factory.hpp:77] Creating layer layer_256_1_scale2
I0525 21:05:47.197484  2079 net.cpp:84] Creating Layer layer_256_1_scale2
I0525 21:05:47.197486  2079 net.cpp:406] layer_256_1_scale2 <- layer_256_1_conv1
I0525 21:05:47.197491  2079 net.cpp:367] layer_256_1_scale2 -> layer_256_1_conv1 (in-place)
I0525 21:05:47.197542  2079 layer_factory.hpp:77] Creating layer layer_256_1_scale2
I0525 21:05:47.197657  2079 net.cpp:122] Setting up layer_256_1_scale2
I0525 21:05:47.197665  2079 net.cpp:129] Top shape: 50 256 14 14 (2508800)
I0525 21:05:47.197669  2079 net.cpp:137] Memory required for data: 2227814600
I0525 21:05:47.197674  2079 layer_factory.hpp:77] Creating layer layer_256_1_relu2
I0525 21:05:47.197690  2079 net.cpp:84] Creating Layer layer_256_1_relu2
I0525 21:05:47.197695  2079 net.cpp:406] layer_256_1_relu2 <- layer_256_1_conv1
I0525 21:05:47.197700  2079 net.cpp:367] layer_256_1_relu2 -> layer_256_1_conv1 (in-place)
I0525 21:05:47.197868  2079 net.cpp:122] Setting up layer_256_1_relu2
I0525 21:05:47.197878  2079 net.cpp:129] Top shape: 50 256 14 14 (2508800)
I0525 21:05:47.197881  2079 net.cpp:137] Memory required for data: 2237849800
I0525 21:05:47.197885  2079 layer_factory.hpp:77] Creating layer layer_256_1_conv2
I0525 21:05:47.197893  2079 net.cpp:84] Creating Layer layer_256_1_conv2
I0525 21:05:47.197897  2079 net.cpp:406] layer_256_1_conv2 <- layer_256_1_conv1
I0525 21:05:47.197904  2079 net.cpp:380] layer_256_1_conv2 -> layer_256_1_conv2
I0525 21:05:47.205850  2079 net.cpp:122] Setting up layer_256_1_conv2
I0525 21:05:47.205863  2079 net.cpp:129] Top shape: 50 256 14 14 (2508800)
I0525 21:05:47.205866  2079 net.cpp:137] Memory required for data: 2247885000
I0525 21:05:47.205873  2079 layer_factory.hpp:77] Creating layer layer_256_1_conv_expand
I0525 21:05:47.205884  2079 net.cpp:84] Creating Layer layer_256_1_conv_expand
I0525 21:05:47.205888  2079 net.cpp:406] layer_256_1_conv_expand <- layer_256_1_bn1_layer_256_1_relu1_0_split_1
I0525 21:05:47.205894  2079 net.cpp:380] layer_256_1_conv_expand -> layer_256_1_conv_expand
I0525 21:05:47.207314  2079 net.cpp:122] Setting up layer_256_1_conv_expand
I0525 21:05:47.207326  2079 net.cpp:129] Top shape: 50 256 14 14 (2508800)
I0525 21:05:47.207330  2079 net.cpp:137] Memory required for data: 2257920200
I0525 21:05:47.207334  2079 layer_factory.hpp:77] Creating layer layer_256_1_sum
I0525 21:05:47.207342  2079 net.cpp:84] Creating Layer layer_256_1_sum
I0525 21:05:47.207345  2079 net.cpp:406] layer_256_1_sum <- layer_256_1_conv_expand
I0525 21:05:47.207350  2079 net.cpp:406] layer_256_1_sum <- layer_256_1_conv2
I0525 21:05:47.207355  2079 net.cpp:380] layer_256_1_sum -> layer_256_1_sum
I0525 21:05:47.207393  2079 net.cpp:122] Setting up layer_256_1_sum
I0525 21:05:47.207401  2079 net.cpp:129] Top shape: 50 256 14 14 (2508800)
I0525 21:05:47.207404  2079 net.cpp:137] Memory required for data: 2267955400
I0525 21:05:47.207408  2079 layer_factory.hpp:77] Creating layer layer_256_1_sum_layer_256_1_sum_0_split
I0525 21:05:47.207413  2079 net.cpp:84] Creating Layer layer_256_1_sum_layer_256_1_sum_0_split
I0525 21:05:47.207417  2079 net.cpp:406] layer_256_1_sum_layer_256_1_sum_0_split <- layer_256_1_sum
I0525 21:05:47.207423  2079 net.cpp:380] layer_256_1_sum_layer_256_1_sum_0_split -> layer_256_1_sum_layer_256_1_sum_0_split_0
I0525 21:05:47.207430  2079 net.cpp:380] layer_256_1_sum_layer_256_1_sum_0_split -> layer_256_1_sum_layer_256_1_sum_0_split_1
I0525 21:05:47.207474  2079 net.cpp:122] Setting up layer_256_1_sum_layer_256_1_sum_0_split
I0525 21:05:47.207481  2079 net.cpp:129] Top shape: 50 256 14 14 (2508800)
I0525 21:05:47.207485  2079 net.cpp:129] Top shape: 50 256 14 14 (2508800)
I0525 21:05:47.207489  2079 net.cpp:137] Memory required for data: 2288025800
I0525 21:05:47.207491  2079 layer_factory.hpp:77] Creating layer layer_256_2_bn1
I0525 21:05:47.207510  2079 net.cpp:84] Creating Layer layer_256_2_bn1
I0525 21:05:47.207515  2079 net.cpp:406] layer_256_2_bn1 <- layer_256_1_sum_layer_256_1_sum_0_split_0
I0525 21:05:47.207520  2079 net.cpp:380] layer_256_2_bn1 -> layer_256_2_bn1
I0525 21:05:47.207687  2079 net.cpp:122] Setting up layer_256_2_bn1
I0525 21:05:47.207696  2079 net.cpp:129] Top shape: 50 256 14 14 (2508800)
I0525 21:05:47.207700  2079 net.cpp:137] Memory required for data: 2298061000
I0525 21:05:47.207718  2079 layer_factory.hpp:77] Creating layer layer_256_2_scale1
I0525 21:05:47.207726  2079 net.cpp:84] Creating Layer layer_256_2_scale1
I0525 21:05:47.207729  2079 net.cpp:406] layer_256_2_scale1 <- layer_256_2_bn1
I0525 21:05:47.207736  2079 net.cpp:367] layer_256_2_scale1 -> layer_256_2_bn1 (in-place)
I0525 21:05:47.207785  2079 layer_factory.hpp:77] Creating layer layer_256_2_scale1
I0525 21:05:47.207913  2079 net.cpp:122] Setting up layer_256_2_scale1
I0525 21:05:47.207922  2079 net.cpp:129] Top shape: 50 256 14 14 (2508800)
I0525 21:05:47.207926  2079 net.cpp:137] Memory required for data: 2308096200
I0525 21:05:47.207931  2079 layer_factory.hpp:77] Creating layer layer_256_2_relu1
I0525 21:05:47.207937  2079 net.cpp:84] Creating Layer layer_256_2_relu1
I0525 21:05:47.207939  2079 net.cpp:406] layer_256_2_relu1 <- layer_256_2_bn1
I0525 21:05:47.207943  2079 net.cpp:367] layer_256_2_relu1 -> layer_256_2_bn1 (in-place)
I0525 21:05:47.208114  2079 net.cpp:122] Setting up layer_256_2_relu1
I0525 21:05:47.208124  2079 net.cpp:129] Top shape: 50 256 14 14 (2508800)
I0525 21:05:47.208138  2079 net.cpp:137] Memory required for data: 2318131400
I0525 21:05:47.208142  2079 layer_factory.hpp:77] Creating layer layer_256_2_conv1
I0525 21:05:47.208151  2079 net.cpp:84] Creating Layer layer_256_2_conv1
I0525 21:05:47.208155  2079 net.cpp:406] layer_256_2_conv1 <- layer_256_2_bn1
I0525 21:05:47.208163  2079 net.cpp:380] layer_256_2_conv1 -> layer_256_2_conv1
I0525 21:05:47.216197  2079 net.cpp:122] Setting up layer_256_2_conv1
I0525 21:05:47.216209  2079 net.cpp:129] Top shape: 50 256 14 14 (2508800)
I0525 21:05:47.216224  2079 net.cpp:137] Memory required for data: 2328166600
I0525 21:05:47.216229  2079 layer_factory.hpp:77] Creating layer layer_256_2_bn2
I0525 21:05:47.216238  2079 net.cpp:84] Creating Layer layer_256_2_bn2
I0525 21:05:47.216241  2079 net.cpp:406] layer_256_2_bn2 <- layer_256_2_conv1
I0525 21:05:47.216248  2079 net.cpp:367] layer_256_2_bn2 -> layer_256_2_conv1 (in-place)
I0525 21:05:47.216423  2079 net.cpp:122] Setting up layer_256_2_bn2
I0525 21:05:47.216433  2079 net.cpp:129] Top shape: 50 256 14 14 (2508800)
I0525 21:05:47.216446  2079 net.cpp:137] Memory required for data: 2338201800
I0525 21:05:47.216454  2079 layer_factory.hpp:77] Creating layer layer_256_2_scale2
I0525 21:05:47.216462  2079 net.cpp:84] Creating Layer layer_256_2_scale2
I0525 21:05:47.216466  2079 net.cpp:406] layer_256_2_scale2 <- layer_256_2_conv1
I0525 21:05:47.216471  2079 net.cpp:367] layer_256_2_scale2 -> layer_256_2_conv1 (in-place)
I0525 21:05:47.216521  2079 layer_factory.hpp:77] Creating layer layer_256_2_scale2
I0525 21:05:47.216641  2079 net.cpp:122] Setting up layer_256_2_scale2
I0525 21:05:47.216650  2079 net.cpp:129] Top shape: 50 256 14 14 (2508800)
I0525 21:05:47.216653  2079 net.cpp:137] Memory required for data: 2348237000
I0525 21:05:47.216658  2079 layer_factory.hpp:77] Creating layer layer_256_2_relu2
I0525 21:05:47.216675  2079 net.cpp:84] Creating Layer layer_256_2_relu2
I0525 21:05:47.216678  2079 net.cpp:406] layer_256_2_relu2 <- layer_256_2_conv1
I0525 21:05:47.216683  2079 net.cpp:367] layer_256_2_relu2 -> layer_256_2_conv1 (in-place)
I0525 21:05:47.216856  2079 net.cpp:122] Setting up layer_256_2_relu2
I0525 21:05:47.216864  2079 net.cpp:129] Top shape: 50 256 14 14 (2508800)
I0525 21:05:47.216867  2079 net.cpp:137] Memory required for data: 2358272200
I0525 21:05:47.216871  2079 layer_factory.hpp:77] Creating layer layer_256_2_conv2
I0525 21:05:47.216881  2079 net.cpp:84] Creating Layer layer_256_2_conv2
I0525 21:05:47.216884  2079 net.cpp:406] layer_256_2_conv2 <- layer_256_2_conv1
I0525 21:05:47.216892  2079 net.cpp:380] layer_256_2_conv2 -> layer_256_2_conv2
I0525 21:05:47.224828  2079 net.cpp:122] Setting up layer_256_2_conv2
I0525 21:05:47.224841  2079 net.cpp:129] Top shape: 50 256 14 14 (2508800)
I0525 21:05:47.224855  2079 net.cpp:137] Memory required for data: 2368307400
I0525 21:05:47.224861  2079 layer_factory.hpp:77] Creating layer layer_256_2_sum
I0525 21:05:47.224869  2079 net.cpp:84] Creating Layer layer_256_2_sum
I0525 21:05:47.224874  2079 net.cpp:406] layer_256_2_sum <- layer_256_2_conv2
I0525 21:05:47.224877  2079 net.cpp:406] layer_256_2_sum <- layer_256_1_sum_layer_256_1_sum_0_split_1
I0525 21:05:47.224882  2079 net.cpp:380] layer_256_2_sum -> layer_256_2_sum
I0525 21:05:47.224911  2079 net.cpp:122] Setting up layer_256_2_sum
I0525 21:05:47.224920  2079 net.cpp:129] Top shape: 50 256 14 14 (2508800)
I0525 21:05:47.224933  2079 net.cpp:137] Memory required for data: 2378342600
I0525 21:05:47.224937  2079 layer_factory.hpp:77] Creating layer layer_512_1_bn1
I0525 21:05:47.224943  2079 net.cpp:84] Creating Layer layer_512_1_bn1
I0525 21:05:47.224946  2079 net.cpp:406] layer_512_1_bn1 <- layer_256_2_sum
I0525 21:05:47.224953  2079 net.cpp:380] layer_512_1_bn1 -> layer_512_1_bn1
I0525 21:05:47.225121  2079 net.cpp:122] Setting up layer_512_1_bn1
I0525 21:05:47.225131  2079 net.cpp:129] Top shape: 50 256 14 14 (2508800)
I0525 21:05:47.225134  2079 net.cpp:137] Memory required for data: 2388377800
I0525 21:05:47.225142  2079 layer_factory.hpp:77] Creating layer layer_512_1_scale1
I0525 21:05:47.225149  2079 net.cpp:84] Creating Layer layer_512_1_scale1
I0525 21:05:47.225154  2079 net.cpp:406] layer_512_1_scale1 <- layer_512_1_bn1
I0525 21:05:47.225159  2079 net.cpp:367] layer_512_1_scale1 -> layer_512_1_bn1 (in-place)
I0525 21:05:47.225196  2079 layer_factory.hpp:77] Creating layer layer_512_1_scale1
I0525 21:05:47.225292  2079 net.cpp:122] Setting up layer_512_1_scale1
I0525 21:05:47.225301  2079 net.cpp:129] Top shape: 50 256 14 14 (2508800)
I0525 21:05:47.225304  2079 net.cpp:137] Memory required for data: 2398413000
I0525 21:05:47.225309  2079 layer_factory.hpp:77] Creating layer layer_512_1_relu1
I0525 21:05:47.225319  2079 net.cpp:84] Creating Layer layer_512_1_relu1
I0525 21:05:47.225324  2079 net.cpp:406] layer_512_1_relu1 <- layer_512_1_bn1
I0525 21:05:47.225328  2079 net.cpp:367] layer_512_1_relu1 -> layer_512_1_bn1 (in-place)
I0525 21:05:47.225494  2079 net.cpp:122] Setting up layer_512_1_relu1
I0525 21:05:47.225504  2079 net.cpp:129] Top shape: 50 256 14 14 (2508800)
I0525 21:05:47.225508  2079 net.cpp:137] Memory required for data: 2408448200
I0525 21:05:47.225512  2079 layer_factory.hpp:77] Creating layer layer_512_1_bn1_layer_512_1_relu1_0_split
I0525 21:05:47.225519  2079 net.cpp:84] Creating Layer layer_512_1_bn1_layer_512_1_relu1_0_split
I0525 21:05:47.225523  2079 net.cpp:406] layer_512_1_bn1_layer_512_1_relu1_0_split <- layer_512_1_bn1
I0525 21:05:47.225528  2079 net.cpp:380] layer_512_1_bn1_layer_512_1_relu1_0_split -> layer_512_1_bn1_layer_512_1_relu1_0_split_0
I0525 21:05:47.225536  2079 net.cpp:380] layer_512_1_bn1_layer_512_1_relu1_0_split -> layer_512_1_bn1_layer_512_1_relu1_0_split_1
I0525 21:05:47.225574  2079 net.cpp:122] Setting up layer_512_1_bn1_layer_512_1_relu1_0_split
I0525 21:05:47.225582  2079 net.cpp:129] Top shape: 50 256 14 14 (2508800)
I0525 21:05:47.225587  2079 net.cpp:129] Top shape: 50 256 14 14 (2508800)
I0525 21:05:47.225590  2079 net.cpp:137] Memory required for data: 2428518600
I0525 21:05:47.225594  2079 layer_factory.hpp:77] Creating layer layer_512_1_conv1
I0525 21:05:47.225603  2079 net.cpp:84] Creating Layer layer_512_1_conv1
I0525 21:05:47.225608  2079 net.cpp:406] layer_512_1_conv1 <- layer_512_1_bn1_layer_512_1_relu1_0_split_0
I0525 21:05:47.225615  2079 net.cpp:380] layer_512_1_conv1 -> layer_512_1_conv1
I0525 21:05:47.240330  2079 net.cpp:122] Setting up layer_512_1_conv1
I0525 21:05:47.240355  2079 net.cpp:129] Top shape: 50 512 7 7 (1254400)
I0525 21:05:47.240358  2079 net.cpp:137] Memory required for data: 2433536200
I0525 21:05:47.240366  2079 layer_factory.hpp:77] Creating layer layer_512_1_bn2
I0525 21:05:47.240377  2079 net.cpp:84] Creating Layer layer_512_1_bn2
I0525 21:05:47.240383  2079 net.cpp:406] layer_512_1_bn2 <- layer_512_1_conv1
I0525 21:05:47.240393  2079 net.cpp:367] layer_512_1_bn2 -> layer_512_1_conv1 (in-place)
I0525 21:05:47.240576  2079 net.cpp:122] Setting up layer_512_1_bn2
I0525 21:05:47.240584  2079 net.cpp:129] Top shape: 50 512 7 7 (1254400)
I0525 21:05:47.240588  2079 net.cpp:137] Memory required for data: 2438553800
I0525 21:05:47.240595  2079 layer_factory.hpp:77] Creating layer layer_512_1_scale2
I0525 21:05:47.240604  2079 net.cpp:84] Creating Layer layer_512_1_scale2
I0525 21:05:47.240607  2079 net.cpp:406] layer_512_1_scale2 <- layer_512_1_conv1
I0525 21:05:47.240614  2079 net.cpp:367] layer_512_1_scale2 -> layer_512_1_conv1 (in-place)
I0525 21:05:47.240674  2079 layer_factory.hpp:77] Creating layer layer_512_1_scale2
I0525 21:05:47.240800  2079 net.cpp:122] Setting up layer_512_1_scale2
I0525 21:05:47.240813  2079 net.cpp:129] Top shape: 50 512 7 7 (1254400)
I0525 21:05:47.240816  2079 net.cpp:137] Memory required for data: 2443571400
I0525 21:05:47.240821  2079 layer_factory.hpp:77] Creating layer layer_512_1_relu2
I0525 21:05:47.240828  2079 net.cpp:84] Creating Layer layer_512_1_relu2
I0525 21:05:47.240831  2079 net.cpp:406] layer_512_1_relu2 <- layer_512_1_conv1
I0525 21:05:47.240835  2079 net.cpp:367] layer_512_1_relu2 -> layer_512_1_conv1 (in-place)
I0525 21:05:47.241004  2079 net.cpp:122] Setting up layer_512_1_relu2
I0525 21:05:47.241014  2079 net.cpp:129] Top shape: 50 512 7 7 (1254400)
I0525 21:05:47.241016  2079 net.cpp:137] Memory required for data: 2448589000
I0525 21:05:47.241020  2079 layer_factory.hpp:77] Creating layer layer_512_1_conv2
I0525 21:05:47.241031  2079 net.cpp:84] Creating Layer layer_512_1_conv2
I0525 21:05:47.241034  2079 net.cpp:406] layer_512_1_conv2 <- layer_512_1_conv1
I0525 21:05:47.241041  2079 net.cpp:380] layer_512_1_conv2 -> layer_512_1_conv2
I0525 21:05:47.269075  2079 net.cpp:122] Setting up layer_512_1_conv2
I0525 21:05:47.269114  2079 net.cpp:129] Top shape: 50 512 7 7 (1254400)
I0525 21:05:47.269117  2079 net.cpp:137] Memory required for data: 2453606600
I0525 21:05:47.269126  2079 layer_factory.hpp:77] Creating layer layer_512_1_conv_expand
I0525 21:05:47.269143  2079 net.cpp:84] Creating Layer layer_512_1_conv_expand
I0525 21:05:47.269150  2079 net.cpp:406] layer_512_1_conv_expand <- layer_512_1_bn1_layer_512_1_relu1_0_split_1
I0525 21:05:47.269158  2079 net.cpp:380] layer_512_1_conv_expand -> layer_512_1_conv_expand
I0525 21:05:47.271592  2079 net.cpp:122] Setting up layer_512_1_conv_expand
I0525 21:05:47.271605  2079 net.cpp:129] Top shape: 50 512 7 7 (1254400)
I0525 21:05:47.271620  2079 net.cpp:137] Memory required for data: 2458624200
I0525 21:05:47.271625  2079 layer_factory.hpp:77] Creating layer layer_512_1_sum
I0525 21:05:47.271632  2079 net.cpp:84] Creating Layer layer_512_1_sum
I0525 21:05:47.271636  2079 net.cpp:406] layer_512_1_sum <- layer_512_1_conv_expand
I0525 21:05:47.271641  2079 net.cpp:406] layer_512_1_sum <- layer_512_1_conv2
I0525 21:05:47.271646  2079 net.cpp:380] layer_512_1_sum -> layer_512_1_sum
I0525 21:05:47.271674  2079 net.cpp:122] Setting up layer_512_1_sum
I0525 21:05:47.271682  2079 net.cpp:129] Top shape: 50 512 7 7 (1254400)
I0525 21:05:47.271685  2079 net.cpp:137] Memory required for data: 2463641800
I0525 21:05:47.271689  2079 layer_factory.hpp:77] Creating layer layer_512_1_sum_layer_512_1_sum_0_split
I0525 21:05:47.271694  2079 net.cpp:84] Creating Layer layer_512_1_sum_layer_512_1_sum_0_split
I0525 21:05:47.271698  2079 net.cpp:406] layer_512_1_sum_layer_512_1_sum_0_split <- layer_512_1_sum
I0525 21:05:47.271704  2079 net.cpp:380] layer_512_1_sum_layer_512_1_sum_0_split -> layer_512_1_sum_layer_512_1_sum_0_split_0
I0525 21:05:47.271711  2079 net.cpp:380] layer_512_1_sum_layer_512_1_sum_0_split -> layer_512_1_sum_layer_512_1_sum_0_split_1
I0525 21:05:47.271745  2079 net.cpp:122] Setting up layer_512_1_sum_layer_512_1_sum_0_split
I0525 21:05:47.271754  2079 net.cpp:129] Top shape: 50 512 7 7 (1254400)
I0525 21:05:47.271757  2079 net.cpp:129] Top shape: 50 512 7 7 (1254400)
I0525 21:05:47.271760  2079 net.cpp:137] Memory required for data: 2473677000
I0525 21:05:47.271764  2079 layer_factory.hpp:77] Creating layer layer_512_2_bn1
I0525 21:05:47.271771  2079 net.cpp:84] Creating Layer layer_512_2_bn1
I0525 21:05:47.271775  2079 net.cpp:406] layer_512_2_bn1 <- layer_512_1_sum_layer_512_1_sum_0_split_0
I0525 21:05:47.271780  2079 net.cpp:380] layer_512_2_bn1 -> layer_512_2_bn1
I0525 21:05:47.271965  2079 net.cpp:122] Setting up layer_512_2_bn1
I0525 21:05:47.271973  2079 net.cpp:129] Top shape: 50 512 7 7 (1254400)
I0525 21:05:47.271976  2079 net.cpp:137] Memory required for data: 2478694600
I0525 21:05:47.271984  2079 layer_factory.hpp:77] Creating layer layer_512_2_scale1
I0525 21:05:47.272003  2079 net.cpp:84] Creating Layer layer_512_2_scale1
I0525 21:05:47.272009  2079 net.cpp:406] layer_512_2_scale1 <- layer_512_2_bn1
I0525 21:05:47.272016  2079 net.cpp:367] layer_512_2_scale1 -> layer_512_2_bn1 (in-place)
I0525 21:05:47.272055  2079 layer_factory.hpp:77] Creating layer layer_512_2_scale1
I0525 21:05:47.272163  2079 net.cpp:122] Setting up layer_512_2_scale1
I0525 21:05:47.272172  2079 net.cpp:129] Top shape: 50 512 7 7 (1254400)
I0525 21:05:47.272176  2079 net.cpp:137] Memory required for data: 2483712200
I0525 21:05:47.272182  2079 layer_factory.hpp:77] Creating layer layer_512_2_relu1
I0525 21:05:47.272188  2079 net.cpp:84] Creating Layer layer_512_2_relu1
I0525 21:05:47.272192  2079 net.cpp:406] layer_512_2_relu1 <- layer_512_2_bn1
I0525 21:05:47.272195  2079 net.cpp:367] layer_512_2_relu1 -> layer_512_2_bn1 (in-place)
I0525 21:05:47.272348  2079 net.cpp:122] Setting up layer_512_2_relu1
I0525 21:05:47.272358  2079 net.cpp:129] Top shape: 50 512 7 7 (1254400)
I0525 21:05:47.272361  2079 net.cpp:137] Memory required for data: 2488729800
I0525 21:05:47.272364  2079 layer_factory.hpp:77] Creating layer layer_512_2_conv1
I0525 21:05:47.272374  2079 net.cpp:84] Creating Layer layer_512_2_conv1
I0525 21:05:47.272378  2079 net.cpp:406] layer_512_2_conv1 <- layer_512_2_bn1
I0525 21:05:47.272387  2079 net.cpp:380] layer_512_2_conv1 -> layer_512_2_conv1
I0525 21:05:47.300335  2079 net.cpp:122] Setting up layer_512_2_conv1
I0525 21:05:47.300362  2079 net.cpp:129] Top shape: 50 512 7 7 (1254400)
I0525 21:05:47.300366  2079 net.cpp:137] Memory required for data: 2493747400
I0525 21:05:47.300375  2079 layer_factory.hpp:77] Creating layer layer_512_2_bn2
I0525 21:05:47.300386  2079 net.cpp:84] Creating Layer layer_512_2_bn2
I0525 21:05:47.300391  2079 net.cpp:406] layer_512_2_bn2 <- layer_512_2_conv1
I0525 21:05:47.300400  2079 net.cpp:367] layer_512_2_bn2 -> layer_512_2_conv1 (in-place)
I0525 21:05:47.300606  2079 net.cpp:122] Setting up layer_512_2_bn2
I0525 21:05:47.300616  2079 net.cpp:129] Top shape: 50 512 7 7 (1254400)
I0525 21:05:47.300618  2079 net.cpp:137] Memory required for data: 2498765000
I0525 21:05:47.300626  2079 layer_factory.hpp:77] Creating layer layer_512_2_scale2
I0525 21:05:47.300632  2079 net.cpp:84] Creating Layer layer_512_2_scale2
I0525 21:05:47.300635  2079 net.cpp:406] layer_512_2_scale2 <- layer_512_2_conv1
I0525 21:05:47.300640  2079 net.cpp:367] layer_512_2_scale2 -> layer_512_2_conv1 (in-place)
I0525 21:05:47.300691  2079 layer_factory.hpp:77] Creating layer layer_512_2_scale2
I0525 21:05:47.300808  2079 net.cpp:122] Setting up layer_512_2_scale2
I0525 21:05:47.300817  2079 net.cpp:129] Top shape: 50 512 7 7 (1254400)
I0525 21:05:47.300820  2079 net.cpp:137] Memory required for data: 2503782600
I0525 21:05:47.300825  2079 layer_factory.hpp:77] Creating layer layer_512_2_relu2
I0525 21:05:47.300833  2079 net.cpp:84] Creating Layer layer_512_2_relu2
I0525 21:05:47.300837  2079 net.cpp:406] layer_512_2_relu2 <- layer_512_2_conv1
I0525 21:05:47.300842  2079 net.cpp:367] layer_512_2_relu2 -> layer_512_2_conv1 (in-place)
I0525 21:05:47.301492  2079 net.cpp:122] Setting up layer_512_2_relu2
I0525 21:05:47.301504  2079 net.cpp:129] Top shape: 50 512 7 7 (1254400)
I0525 21:05:47.301508  2079 net.cpp:137] Memory required for data: 2508800200
I0525 21:05:47.301512  2079 layer_factory.hpp:77] Creating layer layer_512_2_conv2
I0525 21:05:47.301522  2079 net.cpp:84] Creating Layer layer_512_2_conv2
I0525 21:05:47.301527  2079 net.cpp:406] layer_512_2_conv2 <- layer_512_2_conv1
I0525 21:05:47.301533  2079 net.cpp:380] layer_512_2_conv2 -> layer_512_2_conv2
I0525 21:05:47.327714  2079 net.cpp:122] Setting up layer_512_2_conv2
I0525 21:05:47.327759  2079 net.cpp:129] Top shape: 50 512 7 7 (1254400)
I0525 21:05:47.327761  2079 net.cpp:137] Memory required for data: 2513817800
I0525 21:05:47.327770  2079 layer_factory.hpp:77] Creating layer layer_512_2_sum
I0525 21:05:47.327792  2079 net.cpp:84] Creating Layer layer_512_2_sum
I0525 21:05:47.327823  2079 net.cpp:406] layer_512_2_sum <- layer_512_2_conv2
I0525 21:05:47.327831  2079 net.cpp:406] layer_512_2_sum <- layer_512_1_sum_layer_512_1_sum_0_split_1
I0525 21:05:47.327836  2079 net.cpp:380] layer_512_2_sum -> layer_512_2_sum
I0525 21:05:47.327870  2079 net.cpp:122] Setting up layer_512_2_sum
I0525 21:05:47.327878  2079 net.cpp:129] Top shape: 50 512 7 7 (1254400)
I0525 21:05:47.327883  2079 net.cpp:137] Memory required for data: 2518835400
I0525 21:05:47.327885  2079 layer_factory.hpp:77] Creating layer last_bn
I0525 21:05:47.327891  2079 net.cpp:84] Creating Layer last_bn
I0525 21:05:47.327898  2079 net.cpp:406] last_bn <- layer_512_2_sum
I0525 21:05:47.327903  2079 net.cpp:367] last_bn -> layer_512_2_sum (in-place)
I0525 21:05:47.328086  2079 net.cpp:122] Setting up last_bn
I0525 21:05:47.328095  2079 net.cpp:129] Top shape: 50 512 7 7 (1254400)
I0525 21:05:47.328099  2079 net.cpp:137] Memory required for data: 2523853000
I0525 21:05:47.328105  2079 layer_factory.hpp:77] Creating layer last_scale
I0525 21:05:47.328114  2079 net.cpp:84] Creating Layer last_scale
I0525 21:05:47.328119  2079 net.cpp:406] last_scale <- layer_512_2_sum
I0525 21:05:47.328124  2079 net.cpp:367] last_scale -> layer_512_2_sum (in-place)
I0525 21:05:47.328176  2079 layer_factory.hpp:77] Creating layer last_scale
I0525 21:05:47.328306  2079 net.cpp:122] Setting up last_scale
I0525 21:05:47.328315  2079 net.cpp:129] Top shape: 50 512 7 7 (1254400)
I0525 21:05:47.328317  2079 net.cpp:137] Memory required for data: 2528870600
I0525 21:05:47.328323  2079 layer_factory.hpp:77] Creating layer last_relu
I0525 21:05:47.328330  2079 net.cpp:84] Creating Layer last_relu
I0525 21:05:47.328335  2079 net.cpp:406] last_relu <- layer_512_2_sum
I0525 21:05:47.328338  2079 net.cpp:367] last_relu -> layer_512_2_sum (in-place)
I0525 21:05:47.329116  2079 net.cpp:122] Setting up last_relu
I0525 21:05:47.329128  2079 net.cpp:129] Top shape: 50 512 7 7 (1254400)
I0525 21:05:47.329130  2079 net.cpp:137] Memory required for data: 2533888200
I0525 21:05:47.329134  2079 layer_factory.hpp:77] Creating layer global_pool
I0525 21:05:47.329140  2079 net.cpp:84] Creating Layer global_pool
I0525 21:05:47.329144  2079 net.cpp:406] global_pool <- layer_512_2_sum
I0525 21:05:47.329151  2079 net.cpp:380] global_pool -> global_pool
I0525 21:05:47.329907  2079 net.cpp:122] Setting up global_pool
I0525 21:05:47.329919  2079 net.cpp:129] Top shape: 50 512 1 1 (25600)
I0525 21:05:47.329922  2079 net.cpp:137] Memory required for data: 2533990600
I0525 21:05:47.329926  2079 layer_factory.hpp:77] Creating layer score
I0525 21:05:47.329932  2079 net.cpp:84] Creating Layer score
I0525 21:05:47.329936  2079 net.cpp:406] score <- global_pool
I0525 21:05:47.329941  2079 net.cpp:380] score -> score
I0525 21:05:47.330106  2079 net.cpp:122] Setting up score
I0525 21:05:47.330116  2079 net.cpp:129] Top shape: 50 8 (400)
I0525 21:05:47.330129  2079 net.cpp:137] Memory required for data: 2533992200
I0525 21:05:47.330137  2079 layer_factory.hpp:77] Creating layer loss
I0525 21:05:47.330143  2079 net.cpp:84] Creating Layer loss
I0525 21:05:47.330147  2079 net.cpp:406] loss <- score
I0525 21:05:47.330152  2079 net.cpp:406] loss <- label
I0525 21:05:47.330157  2079 net.cpp:380] loss -> loss
I0525 21:05:47.330168  2079 layer_factory.hpp:77] Creating layer loss
…
I0525 21:05:47.332895  2079 net.cpp:51] Initializing net from parameters: 
name: "Pre-ResNet-18"
state {
  phase: TEST
}
layer {
  name: "data"
  type: "Data"
  top: "data"
  top: "label"
  include {
    phase: TEST
  }
  transform_param {
    mirror: false
    crop_size: 224
    mean_file: "/home/k/PycharmProjects/AgeGenderDeepLearning-master/Folds/lmdb/Test_fold_is_0/mean.binaryproto"
  }
  data_param {
    source: "/home/k/PycharmProjects/AgeGenderDeepLearning-master/Folds/lmdb/Test_fold_is_0/age_val_lmdb"
    batch_size: 50
    backend: LMDB
  }
}
layer {
  name: "data_bn"
  type: "BatchNorm"
  bottom: "data"
  top: "data_bn"
  param {
    lr_mult: 0
    decay_mult: 0
  }
  param {
    lr_mult: 0
    decay_mult: 0
  }
  param {
    lr_mult: 0
    decay_mult: 0
  }
}
layer {
  name: "data_scale"
  type: "Scale"
  bottom: "data_bn"
  top: "data_bn"
  param {
    lr_mult: 1
    decay_mult: 1
  }
  param {
    lr_mult: 2
    decay_mult: 1
  }
  scale_param {
    bias_term: true
  }
}
layer {
  name: "conv1"
  type: "Convolution"
  bottom: "data_bn"
  top: "conv1"
  param {
    lr_mult: 1
    decay_mult: 1
  }
  param {
    lr_mult: 2
    decay_mult: 1
  }
  convolution_param {
    num_output: 64
    pad: 3
    kernel_size: 7
    stride: 2
    weight_filler {
      type: "msra"
      variance_norm: FAN_OUT
    }
    bias_filler {
      type: "constant"
      value: 0
    }
  }
}
layer {
  name: "conv1_bn"
  type: "BatchNorm"
  bottom: "conv1"
  top: "conv1"
  param {
    lr_mult: 0
    decay_mult: 0
  }
  param {
    lr_mult: 0
    decay_mult: 0
  }
  param {
    lr_mult: 0
    decay_mult: 0
  }
}
layer {
  name: "conv1_scale"
  type: "Scale"
  bottom: "conv1"
  top: "conv1"
  param {
    lr_mult: 1
    decay_mult: 1
  }
  param {
    lr_mult: 2
    decay_mult: 1
  }
  scale_param {
    bias_term: true
  }
}
layer {
  name: "conv1_relu"
  type: "ReLU"
  bottom: "conv1"
  top: "conv1"
}
layer {
  name: "conv1_pool"
  type: "Pooling"
  bottom: "conv1"
  top: "conv1_pool"
  pooling_param {
    kernel_size: 3
    stride: 2
  }
}
layer {
  name: "layer_64_1_conv1"
  type: "Convolution"
  bottom: "conv1_pool"
  top: "layer_64_1_conv1"
  param {
    lr_mult: 1
    decay_mult: 1
  }
  convolution_param {
    num_output: 64
    bias_term: false
    pad: 1
    kernel_size: 3
    stride: 1
    weight_filler {
      type: "msra"
    }
    bias_filler {
      type: "constant"
      value: 0
    }
  }
}
layer {
  name: "layer_64_1_bn2"
  type: "BatchNorm"
  bottom: "layer_64_1_conv1"
  top: "layer_64_1_conv1"
  param {
    lr_mult: 0
    decay_mult: 0
  }
  param {
    lr_mult: 0
    decay_mult: 0
  }
  param {
    lr_mult: 0
    decay_mult: 0
  }
}
layer {
  name: "layer_64_1_scale2"
  type: "Scale"
  bottom: "layer_64_1_conv1"
  top: "layer_64_1_conv1"
  param {
    lr_mult: 1
    decay_mult: 1
  }
  param {
    lr_mult: 2
    decay_mult: 1
  }
  scale_param {
    bias_term: true
  }
}
layer {
  name: "layer_64_1_relu2"
  type: "ReLU"
  bottom: "layer_64_1_conv1"
  top: "layer_64_1_conv1"
}
layer {
  name: "layer_64_1_conv2"
  type: "Convolution"
  bottom: "layer_64_1_conv1"
  top: "layer_64_1_conv2"
  param {
    lr_mult: 1
    decay_mult: 1
  }
  convolution_param {
    num_output: 64
    bias_term: false
    pad: 1
    kernel_size: 3
    stride: 1
    weight_filler {
      type: "msra"
    }
    bias_filler {
      type: "constant"
      value: 0
    }
  }
}
layer {
  name: "layer_64_1_sum"
  type: "Eltwise"
  bottom: "layer_64_1_conv2"
  bottom: "conv1_pool"
  top: "layer_64_1_sum"
}
layer {
  name: "layer_64_2_bn1"
  type: "BatchNorm"
  bottom: "layer_64_1_sum"
  top: "layer_64_2_bn1"
  param {
    lr_mult: 0
    decay_mult: 0
  }
  param {
    lr_mult: 0
    decay_mult: 0
  }
  param {
    lr_mult: 0
    decay_mult: 0
  }
}
layer {
  name: "layer_64_2_scale1"
  type: "Scale"
  bottom: "layer_64_2_bn1"
  top: "layer_64_2_bn1"
  param {
    lr_mult: 1
    decay_mult: 1
  }
  param {
    lr_mult: 2
    decay_mult: 1
  }
  scale_param {
    bias_term: true
  }
}
layer {
  name: "layer_64_2_relu1"
  type: "ReLU"
  bottom: "layer_64_2_bn1"
  top: "layer_64_2_bn1"
}
layer {
  name: "layer_64_2_conv1"
  type: "Convolution"
  bottom: "layer_64_2_bn1"
  top: "layer_64_2_conv1"
  param {
    lr_mult: 1
    decay_mult: 1
  }
  convolution_param {
    num_output: 64
    bias_term: false
    pad: 1
    kernel_size: 3
    stride: 1
    weight_filler {
      type: "msra"
    }
    bias_filler {
      type: "constant"
      value: 0
    }
  }
}
layer {
  name: "layer_64_2_bn2"
  type: "BatchNorm"
  bottom: "layer_64_2_conv1"
  top: "layer_64_2_conv1"
  param {
    lr_mult: 0
    decay_mult: 0
  }
  param {
    lr_mult: 0
    decay_mult: 0
  }
  param {
    lr_mult: 0
    decay_mult: 0
  }
}
layer {
  name: "layer_64_2_scale2"
  type: "Scale"
  bottom: "layer_64_2_conv1"
  top: "layer_64_2_conv1"
  param {
    lr_mult: 1
    decay_mult: 1
  }
  param {
    lr_mult: 2
    decay_mult: 1
  }
  scale_param {
    bias_term: true
  }
}
layer {
  name: "layer_64_2_relu2"
  type: "ReLU"
  bottom: "layer_64_2_conv1"
  top: "layer_64_2_conv1"
}
layer {
  name: "layer_64_2_conv2"
  type: "Convolution"
  bottom: "layer_64_2_conv1"
  top: "layer_64_2_conv2"
  param {
    lr_mult: 1
    decay_mult: 1
  }
  convolution_param {
    num_output: 64
    bias_term: false
    pad: 1
    kernel_size: 3
    stride: 1
    weight_filler {
      type: "msra"
    }
    bias_filler {
      type: "constant"
      value: 0
    }
  }
}
layer {
  name: "layer_64_2_sum"
  type: "Eltwise"
  bottom: "layer_64_2_conv2"
  bottom: "layer_64_1_sum"
  top: "layer_64_2_sum"
}
layer {
  name: "layer_128_1_bn1"
  type: "BatchNorm"
  bottom: "layer_64_2_sum"
  top: "layer_128_1_bn1"
  param {
    lr_mult: 0
    decay_mult: 0
  }
  param {
    lr_mult: 0
    decay_mult: 0
  }
  param {
    lr_mult: 0
    decay_mult: 0
  }
}
layer {
  name: "layer_128_1_scale1"
  type: "Scale"
  bottom: "layer_128_1_bn1"
  top: "layer_128_1_bn1"
  param {
    lr_mult: 1
    decay_mult: 1
  }
  param {
    lr_mult: 2
    decay_mult: 1
  }
  scale_param {
    bias_term: true
  }
}
layer {
  name: "layer_128_1_relu1"
  type: "ReLU"
  bottom: "layer_128_1_bn1"
  top: "layer_128_1_bn1"
}
layer {
  name: "layer_128_1_conv1"
  type: "Convolution"
  bottom: "layer_128_1_bn1"
  top: "layer_128_1_conv1"
  param {
    lr_mult: 1
    decay_mult: 1
  }
  convolution_param {
    num_output: 128
    bias_term: false
    pad: 1
    kernel_size: 3
    stride: 2
    weight_filler {
      type: "msra"
    }
    bias_filler {
      type: "constant"
      value: 0
    }
  }
}
layer {
  name: "layer_128_1_bn2"
  type: "BatchNorm"
  bottom: "layer_128_1_conv1"
  top: "layer_128_1_conv1"
  param {
    lr_mult: 0
    decay_mult: 0
  }
  param {
    lr_mult: 0
    decay_mult: 0
  }
  param {
    lr_mult: 0
    decay_mult: 0
  }
}
layer {
  name: "layer_128_1_scale2"
  type: "Scale"
  bottom: "layer_128_1_conv1"
  top: "layer_128_1_conv1"
  param {
    lr_mult: 1
    decay_mult: 1
  }
  param {
    lr_mult: 2
    decay_mult: 1
  }
  scale_param {
    bias_term: true
  }
}
layer {
  name: "layer_128_1_relu2"
  type: "ReLU"
  bottom: "layer_128_1_conv1"
  top: "layer_128_1_conv1"
}
layer {
  name: "layer_128_1_conv2"
  type: "Convolution"
  bottom: "layer_128_1_conv1"
  top: "layer_128_1_conv2"
  param {
    lr_mult: 1
    decay_mult: 1
  }
  convolution_param {
    num_output: 128
    bias_term: false
    pad: 1
    kernel_size: 3
    stride: 1
    weight_filler {
      type: "msra"
    }
    bias_filler {
      type: "constant"
      value: 0
    }
  }
}
layer {
  name: "layer_128_1_conv_expand"
  type: "Convolution"
  bottom: "layer_128_1_bn1"
  top: "layer_128_1_conv_expand"
  param {
    lr_mult: 1
    decay_mult: 1
  }
  convolution_param {
    num_output: 128
    bias_term: false
    pad: 0
    kernel_size: 1
    stride: 2
    weight_filler {
      type: "msra"
    }
    bias_filler {
      type: "constant"
      value: 0
    }
  }
}
layer {
  name: "layer_128_1_sum"
  type: "Eltwise"
  bottom: "layer_128_1_conv_expand"
  bottom: "layer_128_1_conv2"
  top: "layer_128_1_sum"
}
layer {
  name: "layer_128_2_bn1"
  type: "BatchNorm"
  bottom: "layer_128_1_sum"
  top: "layer_128_2_bn1"
  param {
    lr_mult: 0
    decay_mult: 0
  }
  param {
    lr_mult: 0
    decay_mult: 0
  }
  param {
    lr_mult: 0
    decay_mult: 0
  }
}
layer {
  name: "layer_128_2_scale1"
  type: "Scale"
  bottom: "layer_128_2_bn1"
  top: "layer_128_2_bn1"
  param {
    lr_mult: 1
    decay_mult: 1
  }
  param {
    lr_mult: 2
    decay_mult: 1
  }
  scale_param {
    bias_term: true
  }
}
layer {
  name: "layer_128_2_relu1"
  type: "ReLU"
  bottom: "layer_128_2_bn1"
  top: "layer_128_2_bn1"
}
layer {
  name: "layer_128_2_conv1"
  type: "Convolution"
  bottom: "layer_128_2_bn1"
  top: "layer_128_2_conv1"
  param {
    lr_mult: 1
    decay_mult: 1
  }
  convolution_param {
    num_output: 128
    bias_term: false
    pad: 1
    kernel_size: 3
    stride: 1
    weight_filler {
      type: "msra"
    }
    bias_filler {
      type: "constant"
      value: 0
    }
  }
}
layer {
  name: "layer_128_2_bn2"
  type: "BatchNorm"
  bottom: "layer_128_2_conv1"
  top: "layer_128_2_conv1"
  param {
    lr_mult: 0
    decay_mult: 0
  }
  param {
    lr_mult: 0
    decay_mult: 0
  }
  param {
    lr_mult: 0
    decay_mult: 0
  }
}
layer {
  name: "layer_128_2_scale2"
  type: "Scale"
  bottom: "layer_128_2_conv1"
  top: "layer_128_2_conv1"
  param {
    lr_mult: 1
    decay_mult: 1
  }
  param {
    lr_mult: 2
    decay_mult: 1
  }
  scale_param {
    bias_term: true
  }
}
layer {
  name: "layer_128_2_relu2"
  type: "ReLU"
  bottom: "layer_128_2_conv1"
  top: "layer_128_2_conv1"
}
layer {
  name: "layer_128_2_conv2"
  type: "Convolution"
  bottom: "layer_128_2_conv1"
  top: "layer_128_2_conv2"
  param {
    lr_mult: 1
    decay_mult: 1
  }
  convolution_param {
    num_output: 128
    bias_term: false
    pad: 1
    kernel_size: 3
    stride: 1
    weight_filler {
      type: "msra"
    }
    bias_filler {
      type: "constant"
      value: 0
    }
  }
}
layer {
  name: "layer_128_2_sum"
  type: "Eltwise"
  bottom: "layer_128_2_conv2"
  bottom: "layer_128_1_sum"
  top: "layer_128_2_sum"
}
layer {
  name: "layer_256_1_bn1"
  type: "BatchNorm"
  bottom: "layer_128_2_sum"
  top: "layer_256_1_bn1"
  param {
    lr_mult: 0
    decay_mult: 0
  }
  param {
    lr_mult: 0
    decay_mult: 0
  }
  param {
    lr_mult: 0
    decay_mult: 0
  }
}
layer {
  name: "layer_256_1_scale1"
  type: "Scale"
  bottom: "layer_256_1_bn1"
  top: "layer_256_1_bn1"
  param {
    lr_mult: 1
    decay_mult: 1
  }
  param {
    lr_mult: 2
    decay_mult: 1
  }
  scale_param {
    bias_term: true
  }
}
layer {
  name: "layer_256_1_relu1"
  type: "ReLU"
  bottom: "layer_256_1_bn1"
  top: "layer_256_1_bn1"
}
layer {
  name: "layer_256_1_conv1"
  type: "Convolution"
  bottom: "layer_256_1_bn1"
  top: "layer_256_1_conv1"
  param {
    lr_mult: 1
    decay_mult: 1
  }
  convolution_param {
    num_output: 256
    bias_term: false
    pad: 1
    kernel_size: 3
    stride: 2
    weight_filler {
      type: "msra"
    }
    bias_filler {
      type: "constant"
      value: 0
    }
  }
}
layer {
  name: "layer_256_1_bn2"
  type: "BatchNorm"
  bottom: "layer_256_1_conv1"
  top: "layer_256_1_conv1"
  param {
    lr_mult: 0
    decay_mult: 0
  }
  param {
    lr_mult: 0
    decay_mult: 0
  }
  param {
    lr_mult: 0
    decay_mult: 0
  }
}
layer {
  name: "layer_256_1_scale2"
  type: "Scale"
  bottom: "layer_256_1_conv1"
  top: "layer_256_1_conv1"
  param {
    lr_mult: 1
    decay_mult: 1
  }
  param {
    lr_mult: 2
    decay_mult: 1
  }
  scale_param {
    bias_term: true
  }
}
layer {
  name: "layer_256_1_relu2"
  type: "ReLU"
  bottom: "layer_256_1_conv1"
  top: "layer_256_1_conv1"
}
layer {
  name: "layer_256_1_conv2"
  type: "Convolution"
  bottom: "layer_256_1_conv1"
  top: "layer_256_1_conv2"
  param {
    lr_mult: 1
    decay_mult: 1
  }
  convolution_param {
    num_output: 256
    bias_term: false
    pad: 1
    kernel_size: 3
    stride: 1
    weight_filler {
      type: "msra"
    }
    bias_filler {
      type: "constant"
      value: 0
    }
  }
}
layer {
  name: "layer_256_1_conv_expand"
  type: "Convolution"
  bottom: "layer_256_1_bn1"
  top: "layer_256_1_conv_expand"
  param {
    lr_mult: 1
    decay_mult: 1
  }
  convolution_param {
    num_output: 256
    bias_term: false
    pad: 0
    kernel_size: 1
    stride: 2
    weight_filler {
      type: "msra"
    }
    bias_filler {
      type: "constant"
      value: 0
    }
  }
}
layer {
  name: "layer_256_1_sum"
  type: "Eltwise"
  bottom: "layer_256_1_conv_expand"
  bottom: "layer_256_1_conv2"
  top: "layer_256_1_sum"
}
layer {
  name: "layer_256_2_bn1"
  type: "BatchNorm"
  bottom: "layer_256_1_sum"
  top: "layer_256_2_bn1"
  param {
    lr_mult: 0
    decay_mult: 0
  }
  param {
    lr_mult: 0
    decay_mult: 0
  }
  param {
    lr_mult: 0
    decay_mult: 0
  }
}
layer {
  name: "layer_256_2_scale1"
  type: "Scale"
  bottom: "layer_256_2_bn1"
  top: "layer_256_2_bn1"
  param {
    lr_mult: 1
    decay_mult: 1
  }
  param {
    lr_mult: 2
    decay_mult: 1
  }
  scale_param {
    bias_term: true
  }
}
layer {
  name: "layer_256_2_relu1"
  type: "ReLU"
  bottom: "layer_256_2_bn1"
  top: "layer_256_2_bn1"
}
layer {
  name: "layer_256_2_conv1"
  type: "Convolution"
  bottom: "layer_256_2_bn1"
  top: "layer_256_2_conv1"
  param {
    lr_mult: 1
    decay_mult: 1
  }
  convolution_param {
    num_output: 256
    bias_term: false
    pad: 1
    kernel_size: 3
    stride: 1
    weight_filler {
      type: "msra"
    }
    bias_filler {
      type: "constant"
      value: 0
    }
  }
}
layer {
  name: "layer_256_2_bn2"
  type: "BatchNorm"
  bottom: "layer_256_2_conv1"
  top: "layer_256_2_conv1"
  param {
    lr_mult: 0
    decay_mult: 0
  }
  param {
    lr_mult: 0
    decay_mult: 0
  }
  param {
    lr_mult: 0
    decay_mult: 0
  }
}
layer {
  name: "layer_256_2_scale2"
  type: "Scale"
  bottom: "layer_256_2_conv1"
  top: "layer_256_2_conv1"
  param {
    lr_mult: 1
    decay_mult: 1
  }
  param {
    lr_mult: 2
    decay_mult: 1
  }
  scale_param {
    bias_term: true
  }
}
layer {
  name: "layer_256_2_relu2"
  type: "ReLU"
  bottom: "layer_256_2_conv1"
  top: "layer_256_2_conv1"
}
layer {
  name: "layer_256_2_conv2"
  type: "Convolution"
  bottom: "layer_256_2_conv1"
  top: "layer_256_2_conv2"
  param {
    lr_mult: 1
    decay_mult: 1
  }
  convolution_param {
    num_output: 256
    bias_term: false
    pad: 1
    kernel_size: 3
    stride: 1
    weight_filler {
      type: "msra"
    }
    bias_filler {
      type: "constant"
      value: 0
    }
  }
}
layer {
  name: "layer_256_2_sum"
  type: "Eltwise"
  bottom: "layer_256_2_conv2"
  bottom: "layer_256_1_sum"
  top: "layer_256_2_sum"
}
layer {
  name: "layer_512_1_bn1"
  type: "BatchNorm"
  bottom: "layer_256_2_sum"
  top: "layer_512_1_bn1"
  param {
    lr_mult: 0
    decay_mult: 0
  }
  param {
    lr_mult: 0
    decay_mult: 0
  }
  param {
    lr_mult: 0
    decay_mult: 0
  }
}
layer {
  name: "layer_512_1_scale1"
  type: "Scale"
  bottom: "layer_512_1_bn1"
  top: "layer_512_1_bn1"
  param {
    lr_mult: 1
    decay_mult: 1
  }
  param {
    lr_mult: 2
    decay_mult: 1
  }
  scale_param {
    bias_term: true
  }
}
layer {
  name: "layer_512_1_relu1"
  type: "ReLU"
  bottom: "layer_512_1_bn1"
  top: "layer_512_1_bn1"
}
layer {
  name: "layer_512_1_conv1"
  type: "Convolution"
  bottom: "layer_512_1_bn1"
  top: "layer_512_1_conv1"
  param {
    lr_mult: 1
    decay_mult: 1
  }
  convolution_param {
    num_output: 512
    bias_term: false
    pad: 1
    kernel_size: 3
    stride: 2
    weight_filler {
      type: "msra"
    }
    bias_filler {
      type: "constant"
      value: 0
    }
  }
}
layer {
  name: "layer_512_1_bn2"
  type: "BatchNorm"
  bottom: "layer_512_1_conv1"
  top: "layer_512_1_conv1"
  param {
    lr_mult: 0
    decay_mult: 0
  }
  param {
    lr_mult: 0
    decay_mult: 0
  }
  param {
    lr_mult: 0
    decay_mult: 0
  }
}
layer {
  name: "layer_512_1_scale2"
  type: "Scale"
  bottom: "layer_512_1_conv1"
  top: "layer_512_1_conv1"
  param {
    lr_mult: 1
    decay_mult: 1
  }
  param {
    lr_mult: 2
    decay_mult: 1
  }
  scale_param {
    bias_term: true
  }
}
layer {
  name: "layer_512_1_relu2"
  type: "ReLU"
  bottom: "layer_512_1_conv1"
  top: "layer_512_1_conv1"
}
layer {
  name: "layer_512_1_conv2"
  type: "Convolution"
  bottom: "layer_512_1_conv1"
  top: "layer_512_1_conv2"
  param {
    lr_mult: 1
    decay_mult: 1
  }
  convolution_param {
    num_output: 512
    bias_term: false
    pad: 1
    kernel_size: 3
    stride: 1
    weight_filler {
      type: "msra"
    }
    bias_filler {
      type: "constant"
      value: 0
    }
  }
}
layer {
  name: "layer_512_1_conv_expand"
  type: "Convolution"
  bottom: "layer_512_1_bn1"
  top: "layer_512_1_conv_expand"
  param {
    lr_mult: 1
    decay_mult: 1
  }
  convolution_param {
    num_output: 512
    bias_term: false
    pad: 0
    kernel_size: 1
    stride: 2
    weight_filler {
      type: "msra"
    }
    bias_filler {
      type: "constant"
      value: 0
    }
  }
}
layer {
  name: "layer_512_1_sum"
  type: "Eltwise"
  bottom: "layer_512_1_conv_expand"
  bottom: "layer_512_1_conv2"
  top: "layer_512_1_sum"
}
layer {
  name: "layer_512_2_bn1"
  type: "BatchNorm"
  bottom: "layer_512_1_sum"
  top: "layer_512_2_bn1"
  param {
    lr_mult: 0
    decay_mult: 0
  }
  param {
    lr_mult: 0
    decay_mult: 0
  }
  param {
    lr_mult: 0
    decay_mult: 0
  }
}
layer {
  name: "layer_512_2_scale1"
  type: "Scale"
  bottom: "layer_512_2_bn1"
  top: "layer_512_2_bn1"
  param {
    lr_mult: 1
    decay_mult: 1
  }
  param {
    lr_mult: 2
    decay_mult: 1
  }
  scale_param {
    bias_term: true
  }
}
layer {
  name: "layer_512_2_relu1"
  type: "ReLU"
  bottom: "layer_512_2_bn1"
  top: "layer_512_2_bn1"
}
layer {
  name: "layer_512_2_conv1"
  type: "Convolution"
  bottom: "layer_512_2_bn1"
  top: "layer_512_2_conv1"
  param {
    lr_mult: 1
    decay_mult: 1
  }
  convolution_param {
    num_output: 512
    bias_term: false
    pad: 1
    kernel_size: 3
    stride: 1
    weight_filler {
      type: "msra"
    }
    bias_filler {
      type: "constant"
      value: 0
    }
  }
}
layer {
  name: "layer_512_2_bn2"
  type: "BatchNorm"
  bottom: "layer_512_2_conv1"
  top: "layer_512_2_conv1"
  param {
    lr_mult: 0
    decay_mult: 0
  }
  param {
    lr_mult: 0
    decay_mult: 0
  }
  param {
    lr_mult: 0
    decay_mult: 0
  }
}
layer {
  name: "layer_512_2_scale2"
  type: "Scale"
  bottom: "layer_512_2_conv1"
  top: "layer_512_2_conv1"
  param {
    lr_mult: 1
    decay_mult: 1
  }
  param {
    lr_mult: 2
    decay_mult: 1
  }
  scale_param {
    bias_term: true
  }
}
layer {
  name: "layer_512_2_relu2"
  type: "ReLU"
  bottom: "layer_512_2_conv1"
  top: "layer_512_2_conv1"
}
layer {
  name: "layer_512_2_conv2"
  type: "Convolution"
  bottom: "layer_512_2_conv1"
  top: "layer_512_2_conv2"
  param {
    lr_mult: 1
    decay_mult: 1
  }
  convolution_param {
    num_output: 512
    bias_term: false
    pad: 1
    kernel_size: 3
    stride: 1
    weight_filler {
      type: "msra"
    }
    bias_filler {
      type: "constant"
      value: 0
    }
  }
}
layer {
  name: "layer_512_2_sum"
  type: "Eltwise"
  bottom: "layer_512_2_conv2"
  bottom: "layer_512_1_sum"
  top: "layer_512_2_sum"
}
layer {
  name: "last_bn"
  type: "BatchNorm"
  bottom: "layer_512_2_sum"
  top: "layer_512_2_sum"
  param {
    lr_mult: 0
    decay_mult: 0
  }
  param {
    lr_mult: 0
    decay_mult: 0
  }
  param {
    lr_mult: 0
    decay_mult: 0
  }
}
layer {
  name: "last_scale"
  type: "Scale"
  bottom: "layer_512_2_sum"
  top: "layer_512_2_sum"
  param {
    lr_mult: 1
    decay_mult: 1
  }
  param {
    lr_mult: 2
    decay_mult: 1
  }
  scale_param {
    bias_term: true
  }
}
layer {
  name: "last_relu"
  type: "ReLU"
  bottom: "layer_512_2_sum"
  top: "layer_512_2_sum"
}
layer {
  name: "global_pool"
  type: "Pooling"
  bottom: "layer_512_2_sum"
  top: "global_pool"
  pooling_param {
    pool: AVE
    global_pooling: true
  }
}
layer {
  name: "score"
  type: "InnerProduct"
  bottom: "global_pool"
  top: "score"
  param {
    lr_mult: 1
    decay_mult: 1
  }
  param {
    lr_mult: 2
    decay_mult: 1
  }
  inner_product_param {
    num_output: 8
  }
}
layer {
  name: "loss"
  type: "SoftmaxWithLoss"
  bottom: "score"
  bottom: "label"
  top: "loss"
}
layer {
  name: "accuracy"
  type: "Accuracy"
  bottom: "score"
  bottom: "label"
  top: "accuracy"
  include {
    phase: TEST
  }
}
I0525 21:05:47.333222  2079 layer_factory.hpp:77] Creating layer data
I0525 21:05:47.333284  2079 db_lmdb.cpp:35] Opened lmdb /home/k/PycharmProjects/AgeGenderDeepLearning-master/Folds/lmdb/Test_fold_is_0/age_val_lmdb
I0525 21:05:47.333300  2079 net.cpp:84] Creating Layer data
I0525 21:05:47.333307  2079 net.cpp:380] data -> data
I0525 21:05:47.333315  2079 net.cpp:380] data -> label
I0525 21:05:47.333323  2079 data_transformer.cpp:25] Loading mean file from: /home/k/PycharmProjects/AgeGenderDeepLearning-master/Folds/lmdb/Test_fold_is_0/mean.binaryproto
I0525 21:05:47.334692  2079 data_layer.cpp:45] output data size: 50,3,224,224
I0525 21:05:47.396797  2079 net.cpp:122] Setting up data
I0525 21:05:47.396831  2079 net.cpp:129] Top shape: 50 3 224 224 (7526400)
I0525 21:05:47.396836  2079 net.cpp:129] Top shape: 50 (50)
I0525 21:05:47.396838  2079 net.cpp:137] Memory required for data: 30105800
I0525 21:05:47.396844  2079 layer_factory.hpp:77] Creating layer label_data_1_split
I0525 21:05:47.396857  2079 net.cpp:84] Creating Layer label_data_1_split
I0525 21:05:47.396862  2079 net.cpp:406] label_data_1_split <- label
I0525 21:05:47.396869  2079 net.cpp:380] label_data_1_split -> label_data_1_split_0
I0525 21:05:47.396880  2079 net.cpp:380] label_data_1_split -> label_data_1_split_1
I0525 21:05:47.396947  2079 net.cpp:122] Setting up label_data_1_split
I0525 21:05:47.396956  2079 net.cpp:129] Top shape: 50 (50)
I0525 21:05:47.396960  2079 net.cpp:129] Top shape: 50 (50)
I0525 21:05:47.396962  2079 net.cpp:137] Memory required for data: 30106200
I0525 21:05:47.396965  2079 layer_factory.hpp:77] Creating layer data_bn
I0525 21:05:47.396973  2079 net.cpp:84] Creating Layer data_bn
I0525 21:05:47.396976  2079 net.cpp:406] data_bn <- data
I0525 21:05:47.396981  2079 net.cpp:380] data_bn -> data_bn
I0525 21:05:47.397217  2079 net.cpp:122] Setting up data_bn
I0525 21:05:47.397227  2079 net.cpp:129] Top shape: 50 3 224 224 (7526400)
I0525 21:05:47.397229  2079 net.cpp:137] Memory required for data: 60211800
I0525 21:05:47.397243  2079 layer_factory.hpp:77] Creating layer data_scale
I0525 21:05:47.397249  2079 net.cpp:84] Creating Layer data_scale
I0525 21:05:47.397253  2079 net.cpp:406] data_scale <- data_bn
I0525 21:05:47.397258  2079 net.cpp:367] data_scale -> data_bn (in-place)
I0525 21:05:47.397300  2079 layer_factory.hpp:77] Creating layer data_scale
I0525 21:05:47.397476  2079 net.cpp:122] Setting up data_scale
I0525 21:05:47.397485  2079 net.cpp:129] Top shape: 50 3 224 224 (7526400)
I0525 21:05:47.397488  2079 net.cpp:137] Memory required for data: 90317400
I0525 21:05:47.397496  2079 layer_factory.hpp:77] Creating layer conv1
I0525 21:05:47.397507  2079 net.cpp:84] Creating Layer conv1
I0525 21:05:47.397511  2079 net.cpp:406] conv1 <- data_bn
I0525 21:05:47.397516  2079 net.cpp:380] conv1 -> conv1
I0525 21:05:47.403410  2079 net.cpp:122] Setting up conv1
I0525 21:05:47.403427  2079 net.cpp:129] Top shape: 50 64 112 112 (40140800)
I0525 21:05:47.403431  2079 net.cpp:137] Memory required for data: 250880600
I0525 21:05:47.403437  2079 layer_factory.hpp:77] Creating layer conv1_bn
I0525 21:05:47.403445  2079 net.cpp:84] Creating Layer conv1_bn
I0525 21:05:47.403448  2079 net.cpp:406] conv1_bn <- conv1
I0525 21:05:47.403453  2079 net.cpp:367] conv1_bn -> conv1 (in-place)
I0525 21:05:47.403635  2079 net.cpp:122] Setting up conv1_bn
I0525 21:05:47.403645  2079 net.cpp:129] Top shape: 50 64 112 112 (40140800)
I0525 21:05:47.403647  2079 net.cpp:137] Memory required for data: 411443800
I0525 21:05:47.403657  2079 layer_factory.hpp:77] Creating layer conv1_scale
I0525 21:05:47.403663  2079 net.cpp:84] Creating Layer conv1_scale
I0525 21:05:47.403666  2079 net.cpp:406] conv1_scale <- conv1
I0525 21:05:47.403686  2079 net.cpp:367] conv1_scale -> conv1 (in-place)
I0525 21:05:47.403728  2079 layer_factory.hpp:77] Creating layer conv1_scale
I0525 21:05:47.403844  2079 net.cpp:122] Setting up conv1_scale
I0525 21:05:47.403854  2079 net.cpp:129] Top shape: 50 64 112 112 (40140800)
I0525 21:05:47.403858  2079 net.cpp:137] Memory required for data: 572007000
I0525 21:05:47.403863  2079 layer_factory.hpp:77] Creating layer conv1_relu
I0525 21:05:47.403870  2079 net.cpp:84] Creating Layer conv1_relu
I0525 21:05:47.403873  2079 net.cpp:406] conv1_relu <- conv1
I0525 21:05:47.403877  2079 net.cpp:367] conv1_relu -> conv1 (in-place)
I0525 21:05:47.404042  2079 net.cpp:122] Setting up conv1_relu
I0525 21:05:47.404052  2079 net.cpp:129] Top shape: 50 64 112 112 (40140800)
I0525 21:05:47.404057  2079 net.cpp:137] Memory required for data: 732570200
I0525 21:05:47.404059  2079 layer_factory.hpp:77] Creating layer conv1_pool
I0525 21:05:47.404067  2079 net.cpp:84] Creating Layer conv1_pool
I0525 21:05:47.404083  2079 net.cpp:406] conv1_pool <- conv1
I0525 21:05:47.404088  2079 net.cpp:380] conv1_pool -> conv1_pool
I0525 21:05:47.404127  2079 net.cpp:122] Setting up conv1_pool
I0525 21:05:47.404135  2079 net.cpp:129] Top shape: 50 64 56 56 (10035200)
I0525 21:05:47.404139  2079 net.cpp:137] Memory required for data: 772711000
I0525 21:05:47.404141  2079 layer_factory.hpp:77] Creating layer conv1_pool_conv1_pool_0_split
I0525 21:05:47.404146  2079 net.cpp:84] Creating Layer conv1_pool_conv1_pool_0_split
I0525 21:05:47.404150  2079 net.cpp:406] conv1_pool_conv1_pool_0_split <- conv1_pool
I0525 21:05:47.404155  2079 net.cpp:380] conv1_pool_conv1_pool_0_split -> conv1_pool_conv1_pool_0_split_0
I0525 21:05:47.404160  2079 net.cpp:380] conv1_pool_conv1_pool_0_split -> conv1_pool_conv1_pool_0_split_1
I0525 21:05:47.404194  2079 net.cpp:122] Setting up conv1_pool_conv1_pool_0_split
I0525 21:05:47.404202  2079 net.cpp:129] Top shape: 50 64 56 56 (10035200)
I0525 21:05:47.404206  2079 net.cpp:129] Top shape: 50 64 56 56 (10035200)
I0525 21:05:47.404209  2079 net.cpp:137] Memory required for data: 852992600
I0525 21:05:47.404213  2079 layer_factory.hpp:77] Creating layer layer_64_1_conv1
I0525 21:05:47.404222  2079 net.cpp:84] Creating Layer layer_64_1_conv1
I0525 21:05:47.404227  2079 net.cpp:406] layer_64_1_conv1 <- conv1_pool_conv1_pool_0_split_0
I0525 21:05:47.404232  2079 net.cpp:380] layer_64_1_conv1 -> layer_64_1_conv1
I0525 21:05:47.405817  2079 net.cpp:122] Setting up layer_64_1_conv1
I0525 21:05:47.405836  2079 net.cpp:129] Top shape: 50 64 56 56 (10035200)
I0525 21:05:47.405839  2079 net.cpp:137] Memory required for data: 893133400
I0525 21:05:47.405848  2079 layer_factory.hpp:77] Creating layer layer_64_1_bn2
I0525 21:05:47.405855  2079 net.cpp:84] Creating Layer layer_64_1_bn2
I0525 21:05:47.405861  2079 net.cpp:406] layer_64_1_bn2 <- layer_64_1_conv1
I0525 21:05:47.405867  2079 net.cpp:367] layer_64_1_bn2 -> layer_64_1_conv1 (in-place)
I0525 21:05:47.406049  2079 net.cpp:122] Setting up layer_64_1_bn2
I0525 21:05:47.406059  2079 net.cpp:129] Top shape: 50 64 56 56 (10035200)
I0525 21:05:47.406062  2079 net.cpp:137] Memory required for data: 933274200
I0525 21:05:47.406070  2079 layer_factory.hpp:77] Creating layer layer_64_1_scale2
I0525 21:05:47.406077  2079 net.cpp:84] Creating Layer layer_64_1_scale2
I0525 21:05:47.406081  2079 net.cpp:406] layer_64_1_scale2 <- layer_64_1_conv1
I0525 21:05:47.406086  2079 net.cpp:367] layer_64_1_scale2 -> layer_64_1_conv1 (in-place)
I0525 21:05:47.406129  2079 layer_factory.hpp:77] Creating layer layer_64_1_scale2
I0525 21:05:47.406241  2079 net.cpp:122] Setting up layer_64_1_scale2
I0525 21:05:47.406250  2079 net.cpp:129] Top shape: 50 64 56 56 (10035200)
I0525 21:05:47.406253  2079 net.cpp:137] Memory required for data: 973415000
I0525 21:05:47.406263  2079 layer_factory.hpp:77] Creating layer layer_64_1_relu2
I0525 21:05:47.406270  2079 net.cpp:84] Creating Layer layer_64_1_relu2
I0525 21:05:47.406273  2079 net.cpp:406] layer_64_1_relu2 <- layer_64_1_conv1
I0525 21:05:47.406293  2079 net.cpp:367] layer_64_1_relu2 -> layer_64_1_conv1 (in-place)
I0525 21:05:47.406960  2079 net.cpp:122] Setting up layer_64_1_relu2
I0525 21:05:47.406973  2079 net.cpp:129] Top shape: 50 64 56 56 (10035200)
I0525 21:05:47.406976  2079 net.cpp:137] Memory required for data: 1013555800
I0525 21:05:47.406980  2079 layer_factory.hpp:77] Creating layer layer_64_1_conv2
I0525 21:05:47.406991  2079 net.cpp:84] Creating Layer layer_64_1_conv2
I0525 21:05:47.406994  2079 net.cpp:406] layer_64_1_conv2 <- layer_64_1_conv1
I0525 21:05:47.407001  2079 net.cpp:380] layer_64_1_conv2 -> layer_64_1_conv2
I0525 21:05:47.409489  2079 net.cpp:122] Setting up layer_64_1_conv2
I0525 21:05:47.409517  2079 net.cpp:129] Top shape: 50 64 56 56 (10035200)
I0525 21:05:47.409519  2079 net.cpp:137] Memory required for data: 1053696600
I0525 21:05:47.409528  2079 layer_factory.hpp:77] Creating layer layer_64_1_sum
I0525 21:05:47.409538  2079 net.cpp:84] Creating Layer layer_64_1_sum
I0525 21:05:47.409543  2079 net.cpp:406] layer_64_1_sum <- layer_64_1_conv2
I0525 21:05:47.409550  2079 net.cpp:406] layer_64_1_sum <- conv1_pool_conv1_pool_0_split_1
I0525 21:05:47.409556  2079 net.cpp:380] layer_64_1_sum -> layer_64_1_sum
I0525 21:05:47.409586  2079 net.cpp:122] Setting up layer_64_1_sum
I0525 21:05:47.409595  2079 net.cpp:129] Top shape: 50 64 56 56 (10035200)
I0525 21:05:47.409598  2079 net.cpp:137] Memory required for data: 1093837400
I0525 21:05:47.409601  2079 layer_factory.hpp:77] Creating layer layer_64_1_sum_layer_64_1_sum_0_split
I0525 21:05:47.409610  2079 net.cpp:84] Creating Layer layer_64_1_sum_layer_64_1_sum_0_split
I0525 21:05:47.409615  2079 net.cpp:406] layer_64_1_sum_layer_64_1_sum_0_split <- layer_64_1_sum
I0525 21:05:47.409621  2079 net.cpp:380] layer_64_1_sum_layer_64_1_sum_0_split -> layer_64_1_sum_layer_64_1_sum_0_split_0
I0525 21:05:47.409626  2079 net.cpp:380] layer_64_1_sum_layer_64_1_sum_0_split -> layer_64_1_sum_layer_64_1_sum_0_split_1
I0525 21:05:47.409660  2079 net.cpp:122] Setting up layer_64_1_sum_layer_64_1_sum_0_split
I0525 21:05:47.409667  2079 net.cpp:129] Top shape: 50 64 56 56 (10035200)
I0525 21:05:47.409672  2079 net.cpp:129] Top shape: 50 64 56 56 (10035200)
I0525 21:05:47.409675  2079 net.cpp:137] Memory required for data: 1174119000
I0525 21:05:47.409678  2079 layer_factory.hpp:77] Creating layer layer_64_2_bn1
I0525 21:05:47.409685  2079 net.cpp:84] Creating Layer layer_64_2_bn1
I0525 21:05:47.409689  2079 net.cpp:406] layer_64_2_bn1 <- layer_64_1_sum_layer_64_1_sum_0_split_0
I0525 21:05:47.409694  2079 net.cpp:380] layer_64_2_bn1 -> layer_64_2_bn1
I0525 21:05:47.409952  2079 net.cpp:122] Setting up layer_64_2_bn1
I0525 21:05:47.409986  2079 net.cpp:129] Top shape: 50 64 56 56 (10035200)
I0525 21:05:47.410007  2079 net.cpp:137] Memory required for data: 1214259800
I0525 21:05:47.410023  2079 layer_factory.hpp:77] Creating layer layer_64_2_scale1
I0525 21:05:47.410035  2079 net.cpp:84] Creating Layer layer_64_2_scale1
I0525 21:05:47.410043  2079 net.cpp:406] layer_64_2_scale1 <- layer_64_2_bn1
I0525 21:05:47.410049  2079 net.cpp:367] layer_64_2_scale1 -> layer_64_2_bn1 (in-place)
I0525 21:05:47.410111  2079 layer_factory.hpp:77] Creating layer layer_64_2_scale1
I0525 21:05:47.410279  2079 net.cpp:122] Setting up layer_64_2_scale1
I0525 21:05:47.410292  2079 net.cpp:129] Top shape: 50 64 56 56 (10035200)
I0525 21:05:47.410298  2079 net.cpp:137] Memory required for data: 1254400600
I0525 21:05:47.410308  2079 layer_factory.hpp:77] Creating layer layer_64_2_relu1
I0525 21:05:47.410320  2079 net.cpp:84] Creating Layer layer_64_2_relu1
I0525 21:05:47.410328  2079 net.cpp:406] layer_64_2_relu1 <- layer_64_2_bn1
I0525 21:05:47.410337  2079 net.cpp:367] layer_64_2_relu1 -> layer_64_2_bn1 (in-place)
I0525 21:05:47.410606  2079 net.cpp:122] Setting up layer_64_2_relu1
I0525 21:05:47.410624  2079 net.cpp:129] Top shape: 50 64 56 56 (10035200)
I0525 21:05:47.410631  2079 net.cpp:137] Memory required for data: 1294541400
I0525 21:05:47.410639  2079 layer_factory.hpp:77] Creating layer layer_64_2_conv1
I0525 21:05:47.410678  2079 net.cpp:84] Creating Layer layer_64_2_conv1
I0525 21:05:47.410689  2079 net.cpp:406] layer_64_2_conv1 <- layer_64_2_bn1
I0525 21:05:47.410701  2079 net.cpp:380] layer_64_2_conv1 -> layer_64_2_conv1
I0525 21:05:47.412748  2079 net.cpp:122] Setting up layer_64_2_conv1
I0525 21:05:47.412773  2079 net.cpp:129] Top shape: 50 64 56 56 (10035200)
I0525 21:05:47.412776  2079 net.cpp:137] Memory required for data: 1334682200
I0525 21:05:47.412784  2079 layer_factory.hpp:77] Creating layer layer_64_2_bn2
I0525 21:05:47.412794  2079 net.cpp:84] Creating Layer layer_64_2_bn2
I0525 21:05:47.412799  2079 net.cpp:406] layer_64_2_bn2 <- layer_64_2_conv1
I0525 21:05:47.412806  2079 net.cpp:367] layer_64_2_bn2 -> layer_64_2_conv1 (in-place)
I0525 21:05:47.413003  2079 net.cpp:122] Setting up layer_64_2_bn2
I0525 21:05:47.413012  2079 net.cpp:129] Top shape: 50 64 56 56 (10035200)
I0525 21:05:47.413015  2079 net.cpp:137] Memory required for data: 1374823000
I0525 21:05:47.413023  2079 layer_factory.hpp:77] Creating layer layer_64_2_scale2
I0525 21:05:47.413031  2079 net.cpp:84] Creating Layer layer_64_2_scale2
I0525 21:05:47.413034  2079 net.cpp:406] layer_64_2_scale2 <- layer_64_2_conv1
I0525 21:05:47.413039  2079 net.cpp:367] layer_64_2_scale2 -> layer_64_2_conv1 (in-place)
I0525 21:05:47.413084  2079 layer_factory.hpp:77] Creating layer layer_64_2_scale2
I0525 21:05:47.413202  2079 net.cpp:122] Setting up layer_64_2_scale2
I0525 21:05:47.413210  2079 net.cpp:129] Top shape: 50 64 56 56 (10035200)
I0525 21:05:47.413213  2079 net.cpp:137] Memory required for data: 1414963800
I0525 21:05:47.413219  2079 layer_factory.hpp:77] Creating layer layer_64_2_relu2
I0525 21:05:47.413226  2079 net.cpp:84] Creating Layer layer_64_2_relu2
I0525 21:05:47.413229  2079 net.cpp:406] layer_64_2_relu2 <- layer_64_2_conv1
I0525 21:05:47.413234  2079 net.cpp:367] layer_64_2_relu2 -> layer_64_2_conv1 (in-place)
I0525 21:05:47.413378  2079 net.cpp:122] Setting up layer_64_2_relu2
I0525 21:05:47.413388  2079 net.cpp:129] Top shape: 50 64 56 56 (10035200)
I0525 21:05:47.413391  2079 net.cpp:137] Memory required for data: 1455104600
I0525 21:05:47.413395  2079 layer_factory.hpp:77] Creating layer layer_64_2_conv2
I0525 21:05:47.413404  2079 net.cpp:84] Creating Layer layer_64_2_conv2
I0525 21:05:47.413408  2079 net.cpp:406] layer_64_2_conv2 <- layer_64_2_conv1
I0525 21:05:47.413414  2079 net.cpp:380] layer_64_2_conv2 -> layer_64_2_conv2
I0525 21:05:47.414990  2079 net.cpp:122] Setting up layer_64_2_conv2
I0525 21:05:47.415009  2079 net.cpp:129] Top shape: 50 64 56 56 (10035200)
I0525 21:05:47.415014  2079 net.cpp:137] Memory required for data: 1495245400
I0525 21:05:47.415020  2079 layer_factory.hpp:77] Creating layer layer_64_2_sum
I0525 21:05:47.415029  2079 net.cpp:84] Creating Layer layer_64_2_sum
I0525 21:05:47.415035  2079 net.cpp:406] layer_64_2_sum <- layer_64_2_conv2
I0525 21:05:47.415040  2079 net.cpp:406] layer_64_2_sum <- layer_64_1_sum_layer_64_1_sum_0_split_1
I0525 21:05:47.415045  2079 net.cpp:380] layer_64_2_sum -> layer_64_2_sum
I0525 21:05:47.415076  2079 net.cpp:122] Setting up layer_64_2_sum
I0525 21:05:47.415083  2079 net.cpp:129] Top shape: 50 64 56 56 (10035200)
I0525 21:05:47.415086  2079 net.cpp:137] Memory required for data: 1535386200
I0525 21:05:47.415089  2079 layer_factory.hpp:77] Creating layer layer_128_1_bn1
I0525 21:05:47.415096  2079 net.cpp:84] Creating Layer layer_128_1_bn1
I0525 21:05:47.415099  2079 net.cpp:406] layer_128_1_bn1 <- layer_64_2_sum
I0525 21:05:47.415104  2079 net.cpp:380] layer_128_1_bn1 -> layer_128_1_bn1
I0525 21:05:47.415304  2079 net.cpp:122] Setting up layer_128_1_bn1
I0525 21:05:47.415313  2079 net.cpp:129] Top shape: 50 64 56 56 (10035200)
I0525 21:05:47.415316  2079 net.cpp:137] Memory required for data: 1575527000
I0525 21:05:47.415329  2079 layer_factory.hpp:77] Creating layer layer_128_1_scale1
I0525 21:05:47.415336  2079 net.cpp:84] Creating Layer layer_128_1_scale1
I0525 21:05:47.415340  2079 net.cpp:406] layer_128_1_scale1 <- layer_128_1_bn1
I0525 21:05:47.415345  2079 net.cpp:367] layer_128_1_scale1 -> layer_128_1_bn1 (in-place)
I0525 21:05:47.415405  2079 layer_factory.hpp:77] Creating layer layer_128_1_scale1
I0525 21:05:47.415518  2079 net.cpp:122] Setting up layer_128_1_scale1
I0525 21:05:47.415529  2079 net.cpp:129] Top shape: 50 64 56 56 (10035200)
I0525 21:05:47.415531  2079 net.cpp:137] Memory required for data: 1615667800
I0525 21:05:47.415537  2079 layer_factory.hpp:77] Creating layer layer_128_1_relu1
I0525 21:05:47.415544  2079 net.cpp:84] Creating Layer layer_128_1_relu1
I0525 21:05:47.415546  2079 net.cpp:406] layer_128_1_relu1 <- layer_128_1_bn1
I0525 21:05:47.415550  2079 net.cpp:367] layer_128_1_relu1 -> layer_128_1_bn1 (in-place)
I0525 21:05:47.415704  2079 net.cpp:122] Setting up layer_128_1_relu1
I0525 21:05:47.415714  2079 net.cpp:129] Top shape: 50 64 56 56 (10035200)
I0525 21:05:47.415717  2079 net.cpp:137] Memory required for data: 1655808600
I0525 21:05:47.415720  2079 layer_factory.hpp:77] Creating layer layer_128_1_bn1_layer_128_1_relu1_0_split
I0525 21:05:47.415726  2079 net.cpp:84] Creating Layer layer_128_1_bn1_layer_128_1_relu1_0_split
I0525 21:05:47.415729  2079 net.cpp:406] layer_128_1_bn1_layer_128_1_relu1_0_split <- layer_128_1_bn1
I0525 21:05:47.415735  2079 net.cpp:380] layer_128_1_bn1_layer_128_1_relu1_0_split -> layer_128_1_bn1_layer_128_1_relu1_0_split_0
I0525 21:05:47.415741  2079 net.cpp:380] layer_128_1_bn1_layer_128_1_relu1_0_split -> layer_128_1_bn1_layer_128_1_relu1_0_split_1
I0525 21:05:47.415779  2079 net.cpp:122] Setting up layer_128_1_bn1_layer_128_1_relu1_0_split
I0525 21:05:47.415787  2079 net.cpp:129] Top shape: 50 64 56 56 (10035200)
I0525 21:05:47.415791  2079 net.cpp:129] Top shape: 50 64 56 56 (10035200)
I0525 21:05:47.415796  2079 net.cpp:137] Memory required for data: 1736090200
I0525 21:05:47.415799  2079 layer_factory.hpp:77] Creating layer layer_128_1_conv1
I0525 21:05:47.415808  2079 net.cpp:84] Creating Layer layer_128_1_conv1
I0525 21:05:47.415813  2079 net.cpp:406] layer_128_1_conv1 <- layer_128_1_bn1_layer_128_1_relu1_0_split_0
I0525 21:05:47.415827  2079 net.cpp:380] layer_128_1_conv1 -> layer_128_1_conv1
I0525 21:05:47.417925  2079 net.cpp:122] Setting up layer_128_1_conv1
I0525 21:05:47.417953  2079 net.cpp:129] Top shape: 50 128 28 28 (5017600)
I0525 21:05:47.417958  2079 net.cpp:137] Memory required for data: 1756160600
I0525 21:05:47.417965  2079 layer_factory.hpp:77] Creating layer layer_128_1_bn2
I0525 21:05:47.417976  2079 net.cpp:84] Creating Layer layer_128_1_bn2
I0525 21:05:47.417982  2079 net.cpp:406] layer_128_1_bn2 <- layer_128_1_conv1
I0525 21:05:47.417989  2079 net.cpp:367] layer_128_1_bn2 -> layer_128_1_conv1 (in-place)
I0525 21:05:47.418174  2079 net.cpp:122] Setting up layer_128_1_bn2
I0525 21:05:47.418184  2079 net.cpp:129] Top shape: 50 128 28 28 (5017600)
I0525 21:05:47.418186  2079 net.cpp:137] Memory required for data: 1776231000
I0525 21:05:47.418195  2079 layer_factory.hpp:77] Creating layer layer_128_1_scale2
I0525 21:05:47.418208  2079 net.cpp:84] Creating Layer layer_128_1_scale2
I0525 21:05:47.418213  2079 net.cpp:406] layer_128_1_scale2 <- layer_128_1_conv1
I0525 21:05:47.418218  2079 net.cpp:367] layer_128_1_scale2 -> layer_128_1_conv1 (in-place)
I0525 21:05:47.418274  2079 layer_factory.hpp:77] Creating layer layer_128_1_scale2
I0525 21:05:47.418392  2079 net.cpp:122] Setting up layer_128_1_scale2
I0525 21:05:47.418403  2079 net.cpp:129] Top shape: 50 128 28 28 (5017600)
I0525 21:05:47.418406  2079 net.cpp:137] Memory required for data: 1796301400
I0525 21:05:47.418412  2079 layer_factory.hpp:77] Creating layer layer_128_1_relu2
I0525 21:05:47.418418  2079 net.cpp:84] Creating Layer layer_128_1_relu2
I0525 21:05:47.418421  2079 net.cpp:406] layer_128_1_relu2 <- layer_128_1_conv1
I0525 21:05:47.418426  2079 net.cpp:367] layer_128_1_relu2 -> layer_128_1_conv1 (in-place)
I0525 21:05:47.418572  2079 net.cpp:122] Setting up layer_128_1_relu2
I0525 21:05:47.418581  2079 net.cpp:129] Top shape: 50 128 28 28 (5017600)
I0525 21:05:47.418586  2079 net.cpp:137] Memory required for data: 1816371800
I0525 21:05:47.418601  2079 layer_factory.hpp:77] Creating layer layer_128_1_conv2
I0525 21:05:47.418611  2079 net.cpp:84] Creating Layer layer_128_1_conv2
I0525 21:05:47.418615  2079 net.cpp:406] layer_128_1_conv2 <- layer_128_1_conv1
I0525 21:05:47.418622  2079 net.cpp:380] layer_128_1_conv2 -> layer_128_1_conv2
I0525 21:05:47.424477  2079 net.cpp:122] Setting up layer_128_1_conv2
I0525 21:05:47.424500  2079 net.cpp:129] Top shape: 50 128 28 28 (5017600)
I0525 21:05:47.424504  2079 net.cpp:137] Memory required for data: 1836442200
I0525 21:05:47.424511  2079 layer_factory.hpp:77] Creating layer layer_128_1_conv_expand
I0525 21:05:47.424522  2079 net.cpp:84] Creating Layer layer_128_1_conv_expand
I0525 21:05:47.424527  2079 net.cpp:406] layer_128_1_conv_expand <- layer_128_1_bn1_layer_128_1_relu1_0_split_1
I0525 21:05:47.424535  2079 net.cpp:380] layer_128_1_conv_expand -> layer_128_1_conv_expand
I0525 21:05:47.430671  2079 net.cpp:122] Setting up layer_128_1_conv_expand
I0525 21:05:47.430708  2079 net.cpp:129] Top shape: 50 128 28 28 (5017600)
I0525 21:05:47.430712  2079 net.cpp:137] Memory required for data: 1856512600
I0525 21:05:47.430719  2079 layer_factory.hpp:77] Creating layer layer_128_1_sum
I0525 21:05:47.430727  2079 net.cpp:84] Creating Layer layer_128_1_sum
I0525 21:05:47.430732  2079 net.cpp:406] layer_128_1_sum <- layer_128_1_conv_expand
I0525 21:05:47.430737  2079 net.cpp:406] layer_128_1_sum <- layer_128_1_conv2
I0525 21:05:47.430743  2079 net.cpp:380] layer_128_1_sum -> layer_128_1_sum
I0525 21:05:47.430774  2079 net.cpp:122] Setting up layer_128_1_sum
I0525 21:05:47.430783  2079 net.cpp:129] Top shape: 50 128 28 28 (5017600)
I0525 21:05:47.430786  2079 net.cpp:137] Memory required for data: 1876583000
I0525 21:05:47.430789  2079 layer_factory.hpp:77] Creating layer layer_128_1_sum_layer_128_1_sum_0_split
I0525 21:05:47.430796  2079 net.cpp:84] Creating Layer layer_128_1_sum_layer_128_1_sum_0_split
I0525 21:05:47.430800  2079 net.cpp:406] layer_128_1_sum_layer_128_1_sum_0_split <- layer_128_1_sum
I0525 21:05:47.430805  2079 net.cpp:380] layer_128_1_sum_layer_128_1_sum_0_split -> layer_128_1_sum_layer_128_1_sum_0_split_0
I0525 21:05:47.430811  2079 net.cpp:380] layer_128_1_sum_layer_128_1_sum_0_split -> layer_128_1_sum_layer_128_1_sum_0_split_1
I0525 21:05:47.430850  2079 net.cpp:122] Setting up layer_128_1_sum_layer_128_1_sum_0_split
I0525 21:05:47.430857  2079 net.cpp:129] Top shape: 50 128 28 28 (5017600)
I0525 21:05:47.430861  2079 net.cpp:129] Top shape: 50 128 28 28 (5017600)
I0525 21:05:47.430865  2079 net.cpp:137] Memory required for data: 1916723800
I0525 21:05:47.430867  2079 layer_factory.hpp:77] Creating layer layer_128_2_bn1
I0525 21:05:47.430876  2079 net.cpp:84] Creating Layer layer_128_2_bn1
I0525 21:05:47.430881  2079 net.cpp:406] layer_128_2_bn1 <- layer_128_1_sum_layer_128_1_sum_0_split_0
I0525 21:05:47.430886  2079 net.cpp:380] layer_128_2_bn1 -> layer_128_2_bn1
I0525 21:05:47.431087  2079 net.cpp:122] Setting up layer_128_2_bn1
I0525 21:05:47.431095  2079 net.cpp:129] Top shape: 50 128 28 28 (5017600)
I0525 21:05:47.431098  2079 net.cpp:137] Memory required for data: 1936794200
I0525 21:05:47.431105  2079 layer_factory.hpp:77] Creating layer layer_128_2_scale1
I0525 21:05:47.431113  2079 net.cpp:84] Creating Layer layer_128_2_scale1
I0525 21:05:47.431116  2079 net.cpp:406] layer_128_2_scale1 <- layer_128_2_bn1
I0525 21:05:47.431121  2079 net.cpp:367] layer_128_2_scale1 -> layer_128_2_bn1 (in-place)
I0525 21:05:47.431170  2079 layer_factory.hpp:77] Creating layer layer_128_2_scale1
I0525 21:05:47.431295  2079 net.cpp:122] Setting up layer_128_2_scale1
I0525 21:05:47.431303  2079 net.cpp:129] Top shape: 50 128 28 28 (5017600)
I0525 21:05:47.431306  2079 net.cpp:137] Memory required for data: 1956864600
I0525 21:05:47.431324  2079 layer_factory.hpp:77] Creating layer layer_128_2_relu1
I0525 21:05:47.431330  2079 net.cpp:84] Creating Layer layer_128_2_relu1
I0525 21:05:47.431334  2079 net.cpp:406] layer_128_2_relu1 <- layer_128_2_bn1
I0525 21:05:47.431340  2079 net.cpp:367] layer_128_2_relu1 -> layer_128_2_bn1 (in-place)
I0525 21:05:47.431522  2079 net.cpp:122] Setting up layer_128_2_relu1
I0525 21:05:47.431531  2079 net.cpp:129] Top shape: 50 128 28 28 (5017600)
I0525 21:05:47.431546  2079 net.cpp:137] Memory required for data: 1976935000
I0525 21:05:47.431550  2079 layer_factory.hpp:77] Creating layer layer_128_2_conv1
I0525 21:05:47.431560  2079 net.cpp:84] Creating Layer layer_128_2_conv1
I0525 21:05:47.431565  2079 net.cpp:406] layer_128_2_conv1 <- layer_128_2_bn1
I0525 21:05:47.431572  2079 net.cpp:380] layer_128_2_conv1 -> layer_128_2_conv1
I0525 21:05:47.434916  2079 net.cpp:122] Setting up layer_128_2_conv1
I0525 21:05:47.434945  2079 net.cpp:129] Top shape: 50 128 28 28 (5017600)
I0525 21:05:47.434949  2079 net.cpp:137] Memory required for data: 1997005400
I0525 21:05:47.434958  2079 layer_factory.hpp:77] Creating layer layer_128_2_bn2
I0525 21:05:47.434968  2079 net.cpp:84] Creating Layer layer_128_2_bn2
I0525 21:05:47.434974  2079 net.cpp:406] layer_128_2_bn2 <- layer_128_2_conv1
I0525 21:05:47.434983  2079 net.cpp:367] layer_128_2_bn2 -> layer_128_2_conv1 (in-place)
I0525 21:05:47.435194  2079 net.cpp:122] Setting up layer_128_2_bn2
I0525 21:05:47.435202  2079 net.cpp:129] Top shape: 50 128 28 28 (5017600)
I0525 21:05:47.435217  2079 net.cpp:137] Memory required for data: 2017075800
I0525 21:05:47.435225  2079 layer_factory.hpp:77] Creating layer layer_128_2_scale2
I0525 21:05:47.435235  2079 net.cpp:84] Creating Layer layer_128_2_scale2
I0525 21:05:47.435238  2079 net.cpp:406] layer_128_2_scale2 <- layer_128_2_conv1
I0525 21:05:47.435243  2079 net.cpp:367] layer_128_2_scale2 -> layer_128_2_conv1 (in-place)
I0525 21:05:47.435292  2079 layer_factory.hpp:77] Creating layer layer_128_2_scale2
I0525 21:05:47.435442  2079 net.cpp:122] Setting up layer_128_2_scale2
I0525 21:05:47.435451  2079 net.cpp:129] Top shape: 50 128 28 28 (5017600)
I0525 21:05:47.435454  2079 net.cpp:137] Memory required for data: 2037146200
I0525 21:05:47.435459  2079 layer_factory.hpp:77] Creating layer layer_128_2_relu2
I0525 21:05:47.435467  2079 net.cpp:84] Creating Layer layer_128_2_relu2
I0525 21:05:47.435470  2079 net.cpp:406] layer_128_2_relu2 <- layer_128_2_conv1
I0525 21:05:47.435474  2079 net.cpp:367] layer_128_2_relu2 -> layer_128_2_conv1 (in-place)
I0525 21:05:47.436218  2079 net.cpp:122] Setting up layer_128_2_relu2
I0525 21:05:47.436230  2079 net.cpp:129] Top shape: 50 128 28 28 (5017600)
I0525 21:05:47.436245  2079 net.cpp:137] Memory required for data: 2057216600
I0525 21:05:47.436249  2079 layer_factory.hpp:77] Creating layer layer_128_2_conv2
I0525 21:05:47.436260  2079 net.cpp:84] Creating Layer layer_128_2_conv2
I0525 21:05:47.436265  2079 net.cpp:406] layer_128_2_conv2 <- layer_128_2_conv1
I0525 21:05:47.436273  2079 net.cpp:380] layer_128_2_conv2 -> layer_128_2_conv2
I0525 21:05:47.439030  2079 net.cpp:122] Setting up layer_128_2_conv2
I0525 21:05:47.439066  2079 net.cpp:129] Top shape: 50 128 28 28 (5017600)
I0525 21:05:47.439070  2079 net.cpp:137] Memory required for data: 2077287000
I0525 21:05:47.439079  2079 layer_factory.hpp:77] Creating layer layer_128_2_sum
I0525 21:05:47.439088  2079 net.cpp:84] Creating Layer layer_128_2_sum
I0525 21:05:47.439092  2079 net.cpp:406] layer_128_2_sum <- layer_128_2_conv2
I0525 21:05:47.439101  2079 net.cpp:406] layer_128_2_sum <- layer_128_1_sum_layer_128_1_sum_0_split_1
I0525 21:05:47.439110  2079 net.cpp:380] layer_128_2_sum -> layer_128_2_sum
I0525 21:05:47.439143  2079 net.cpp:122] Setting up layer_128_2_sum
I0525 21:05:47.439153  2079 net.cpp:129] Top shape: 50 128 28 28 (5017600)
I0525 21:05:47.439158  2079 net.cpp:137] Memory required for data: 2097357400
I0525 21:05:47.439162  2079 layer_factory.hpp:77] Creating layer layer_256_1_bn1
I0525 21:05:47.439168  2079 net.cpp:84] Creating Layer layer_256_1_bn1
I0525 21:05:47.439172  2079 net.cpp:406] layer_256_1_bn1 <- layer_128_2_sum
I0525 21:05:47.439177  2079 net.cpp:380] layer_256_1_bn1 -> layer_256_1_bn1
I0525 21:05:47.439380  2079 net.cpp:122] Setting up layer_256_1_bn1
I0525 21:05:47.439390  2079 net.cpp:129] Top shape: 50 128 28 28 (5017600)
I0525 21:05:47.439405  2079 net.cpp:137] Memory required for data: 2117427800
I0525 21:05:47.439414  2079 layer_factory.hpp:77] Creating layer layer_256_1_scale1
I0525 21:05:47.439425  2079 net.cpp:84] Creating Layer layer_256_1_scale1
I0525 21:05:47.439429  2079 net.cpp:406] layer_256_1_scale1 <- layer_256_1_bn1
I0525 21:05:47.439435  2079 net.cpp:367] layer_256_1_scale1 -> layer_256_1_bn1 (in-place)
I0525 21:05:47.439482  2079 layer_factory.hpp:77] Creating layer layer_256_1_scale1
I0525 21:05:47.439596  2079 net.cpp:122] Setting up layer_256_1_scale1
I0525 21:05:47.439605  2079 net.cpp:129] Top shape: 50 128 28 28 (5017600)
I0525 21:05:47.439609  2079 net.cpp:137] Memory required for data: 2137498200
I0525 21:05:47.439613  2079 layer_factory.hpp:77] Creating layer layer_256_1_relu1
I0525 21:05:47.439620  2079 net.cpp:84] Creating Layer layer_256_1_relu1
I0525 21:05:47.439623  2079 net.cpp:406] layer_256_1_relu1 <- layer_256_1_bn1
I0525 21:05:47.439630  2079 net.cpp:367] layer_256_1_relu1 -> layer_256_1_bn1 (in-place)
I0525 21:05:47.440325  2079 net.cpp:122] Setting up layer_256_1_relu1
I0525 21:05:47.440338  2079 net.cpp:129] Top shape: 50 128 28 28 (5017600)
I0525 21:05:47.440343  2079 net.cpp:137] Memory required for data: 2157568600
I0525 21:05:47.440346  2079 layer_factory.hpp:77] Creating layer layer_256_1_bn1_layer_256_1_relu1_0_split
I0525 21:05:47.440353  2079 net.cpp:84] Creating Layer layer_256_1_bn1_layer_256_1_relu1_0_split
I0525 21:05:47.440356  2079 net.cpp:406] layer_256_1_bn1_layer_256_1_relu1_0_split <- layer_256_1_bn1
I0525 21:05:47.440363  2079 net.cpp:380] layer_256_1_bn1_layer_256_1_relu1_0_split -> layer_256_1_bn1_layer_256_1_relu1_0_split_0
I0525 21:05:47.440377  2079 net.cpp:380] layer_256_1_bn1_layer_256_1_relu1_0_split -> layer_256_1_bn1_layer_256_1_relu1_0_split_1
I0525 21:05:47.440421  2079 net.cpp:122] Setting up layer_256_1_bn1_layer_256_1_relu1_0_split
I0525 21:05:47.440431  2079 net.cpp:129] Top shape: 50 128 28 28 (5017600)
I0525 21:05:47.440438  2079 net.cpp:129] Top shape: 50 128 28 28 (5017600)
I0525 21:05:47.440440  2079 net.cpp:137] Memory required for data: 2197709400
I0525 21:05:47.440443  2079 layer_factory.hpp:77] Creating layer layer_256_1_conv1
I0525 21:05:47.440454  2079 net.cpp:84] Creating Layer layer_256_1_conv1
I0525 21:05:47.440459  2079 net.cpp:406] layer_256_1_conv1 <- layer_256_1_bn1_layer_256_1_relu1_0_split_0
I0525 21:05:47.440465  2079 net.cpp:380] layer_256_1_conv1 -> layer_256_1_conv1
I0525 21:05:47.445654  2079 net.cpp:122] Setting up layer_256_1_conv1
I0525 21:05:47.445685  2079 net.cpp:129] Top shape: 50 256 14 14 (2508800)
I0525 21:05:47.445689  2079 net.cpp:137] Memory required for data: 2207744600
I0525 21:05:47.445699  2079 layer_factory.hpp:77] Creating layer layer_256_1_bn2
I0525 21:05:47.445713  2079 net.cpp:84] Creating Layer layer_256_1_bn2
I0525 21:05:47.445719  2079 net.cpp:406] layer_256_1_bn2 <- layer_256_1_conv1
I0525 21:05:47.445727  2079 net.cpp:367] layer_256_1_bn2 -> layer_256_1_conv1 (in-place)
I0525 21:05:47.445930  2079 net.cpp:122] Setting up layer_256_1_bn2
I0525 21:05:47.445940  2079 net.cpp:129] Top shape: 50 256 14 14 (2508800)
I0525 21:05:47.445943  2079 net.cpp:137] Memory required for data: 2217779800
I0525 21:05:47.445960  2079 layer_factory.hpp:77] Creating layer layer_256_1_scale2
I0525 21:05:47.445969  2079 net.cpp:84] Creating Layer layer_256_1_scale2
I0525 21:05:47.445972  2079 net.cpp:406] layer_256_1_scale2 <- layer_256_1_conv1
I0525 21:05:47.445978  2079 net.cpp:367] layer_256_1_scale2 -> layer_256_1_conv1 (in-place)
I0525 21:05:47.446029  2079 layer_factory.hpp:77] Creating layer layer_256_1_scale2
I0525 21:05:47.446142  2079 net.cpp:122] Setting up layer_256_1_scale2
I0525 21:05:47.446151  2079 net.cpp:129] Top shape: 50 256 14 14 (2508800)
I0525 21:05:47.446154  2079 net.cpp:137] Memory required for data: 2227815000
I0525 21:05:47.446159  2079 layer_factory.hpp:77] Creating layer layer_256_1_relu2
I0525 21:05:47.446166  2079 net.cpp:84] Creating Layer layer_256_1_relu2
I0525 21:05:47.446182  2079 net.cpp:406] layer_256_1_relu2 <- layer_256_1_conv1
I0525 21:05:47.446188  2079 net.cpp:367] layer_256_1_relu2 -> layer_256_1_conv1 (in-place)
I0525 21:05:47.446348  2079 net.cpp:122] Setting up layer_256_1_relu2
I0525 21:05:47.446358  2079 net.cpp:129] Top shape: 50 256 14 14 (2508800)
I0525 21:05:47.446362  2079 net.cpp:137] Memory required for data: 2237850200
I0525 21:05:47.446367  2079 layer_factory.hpp:77] Creating layer layer_256_1_conv2
I0525 21:05:47.446377  2079 net.cpp:84] Creating Layer layer_256_1_conv2
I0525 21:05:47.446382  2079 net.cpp:406] layer_256_1_conv2 <- layer_256_1_conv1
I0525 21:05:47.446389  2079 net.cpp:380] layer_256_1_conv2 -> layer_256_1_conv2
I0525 21:05:47.457864  2079 net.cpp:122] Setting up layer_256_1_conv2
I0525 21:05:47.457895  2079 net.cpp:129] Top shape: 50 256 14 14 (2508800)
I0525 21:05:47.457898  2079 net.cpp:137] Memory required for data: 2247885400
I0525 21:05:47.457907  2079 layer_factory.hpp:77] Creating layer layer_256_1_conv_expand
I0525 21:05:47.457924  2079 net.cpp:84] Creating Layer layer_256_1_conv_expand
I0525 21:05:47.457931  2079 net.cpp:406] layer_256_1_conv_expand <- layer_256_1_bn1_layer_256_1_relu1_0_split_1
I0525 21:05:47.457942  2079 net.cpp:380] layer_256_1_conv_expand -> layer_256_1_conv_expand
I0525 21:05:47.460127  2079 net.cpp:122] Setting up layer_256_1_conv_expand
I0525 21:05:47.460151  2079 net.cpp:129] Top shape: 50 256 14 14 (2508800)
I0525 21:05:47.460155  2079 net.cpp:137] Memory required for data: 2257920600
I0525 21:05:47.460163  2079 layer_factory.hpp:77] Creating layer layer_256_1_sum
I0525 21:05:47.460171  2079 net.cpp:84] Creating Layer layer_256_1_sum
I0525 21:05:47.460176  2079 net.cpp:406] layer_256_1_sum <- layer_256_1_conv_expand
I0525 21:05:47.460182  2079 net.cpp:406] layer_256_1_sum <- layer_256_1_conv2
I0525 21:05:47.460189  2079 net.cpp:380] layer_256_1_sum -> layer_256_1_sum
I0525 21:05:47.460222  2079 net.cpp:122] Setting up layer_256_1_sum
I0525 21:05:47.460229  2079 net.cpp:129] Top shape: 50 256 14 14 (2508800)
I0525 21:05:47.460232  2079 net.cpp:137] Memory required for data: 2267955800
I0525 21:05:47.460235  2079 layer_factory.hpp:77] Creating layer layer_256_1_sum_layer_256_1_sum_0_split
I0525 21:05:47.460243  2079 net.cpp:84] Creating Layer layer_256_1_sum_layer_256_1_sum_0_split
I0525 21:05:47.460247  2079 net.cpp:406] layer_256_1_sum_layer_256_1_sum_0_split <- layer_256_1_sum
I0525 21:05:47.460253  2079 net.cpp:380] layer_256_1_sum_layer_256_1_sum_0_split -> layer_256_1_sum_layer_256_1_sum_0_split_0
I0525 21:05:47.460259  2079 net.cpp:380] layer_256_1_sum_layer_256_1_sum_0_split -> layer_256_1_sum_layer_256_1_sum_0_split_1
I0525 21:05:47.460299  2079 net.cpp:122] Setting up layer_256_1_sum_layer_256_1_sum_0_split
I0525 21:05:47.460309  2079 net.cpp:129] Top shape: 50 256 14 14 (2508800)
I0525 21:05:47.460314  2079 net.cpp:129] Top shape: 50 256 14 14 (2508800)
I0525 21:05:47.460317  2079 net.cpp:137] Memory required for data: 2288026200
I0525 21:05:47.460320  2079 layer_factory.hpp:77] Creating layer layer_256_2_bn1
I0525 21:05:47.460326  2079 net.cpp:84] Creating Layer layer_256_2_bn1
I0525 21:05:47.460330  2079 net.cpp:406] layer_256_2_bn1 <- layer_256_1_sum_layer_256_1_sum_0_split_0
I0525 21:05:47.460336  2079 net.cpp:380] layer_256_2_bn1 -> layer_256_2_bn1
I0525 21:05:47.460539  2079 net.cpp:122] Setting up layer_256_2_bn1
I0525 21:05:47.460548  2079 net.cpp:129] Top shape: 50 256 14 14 (2508800)
I0525 21:05:47.460551  2079 net.cpp:137] Memory required for data: 2298061400
I0525 21:05:47.460559  2079 layer_factory.hpp:77] Creating layer layer_256_2_scale1
I0525 21:05:47.460568  2079 net.cpp:84] Creating Layer layer_256_2_scale1
I0525 21:05:47.460572  2079 net.cpp:406] layer_256_2_scale1 <- layer_256_2_bn1
I0525 21:05:47.460577  2079 net.cpp:367] layer_256_2_scale1 -> layer_256_2_bn1 (in-place)
I0525 21:05:47.460626  2079 layer_factory.hpp:77] Creating layer layer_256_2_scale1
I0525 21:05:47.460741  2079 net.cpp:122] Setting up layer_256_2_scale1
I0525 21:05:47.460750  2079 net.cpp:129] Top shape: 50 256 14 14 (2508800)
I0525 21:05:47.460768  2079 net.cpp:137] Memory required for data: 2308096600
I0525 21:05:47.460774  2079 layer_factory.hpp:77] Creating layer layer_256_2_relu1
I0525 21:05:47.460782  2079 net.cpp:84] Creating Layer layer_256_2_relu1
I0525 21:05:47.460785  2079 net.cpp:406] layer_256_2_relu1 <- layer_256_2_bn1
I0525 21:05:47.460790  2079 net.cpp:367] layer_256_2_relu1 -> layer_256_2_bn1 (in-place)
I0525 21:05:47.460947  2079 net.cpp:122] Setting up layer_256_2_relu1
I0525 21:05:47.460957  2079 net.cpp:129] Top shape: 50 256 14 14 (2508800)
I0525 21:05:47.460963  2079 net.cpp:137] Memory required for data: 2318131800
I0525 21:05:47.460966  2079 layer_factory.hpp:77] Creating layer layer_256_2_conv1
I0525 21:05:47.460978  2079 net.cpp:84] Creating Layer layer_256_2_conv1
I0525 21:05:47.460983  2079 net.cpp:406] layer_256_2_conv1 <- layer_256_2_bn1
I0525 21:05:47.460988  2079 net.cpp:380] layer_256_2_conv1 -> layer_256_2_conv1
I0525 21:05:47.470233  2079 net.cpp:122] Setting up layer_256_2_conv1
I0525 21:05:47.470274  2079 net.cpp:129] Top shape: 50 256 14 14 (2508800)
I0525 21:05:47.470279  2079 net.cpp:137] Memory required for data: 2328167000
I0525 21:05:47.470289  2079 layer_factory.hpp:77] Creating layer layer_256_2_bn2
I0525 21:05:47.470302  2079 net.cpp:84] Creating Layer layer_256_2_bn2
I0525 21:05:47.470309  2079 net.cpp:406] layer_256_2_bn2 <- layer_256_2_conv1
I0525 21:05:47.470316  2079 net.cpp:367] layer_256_2_bn2 -> layer_256_2_conv1 (in-place)
I0525 21:05:47.470542  2079 net.cpp:122] Setting up layer_256_2_bn2
I0525 21:05:47.470551  2079 net.cpp:129] Top shape: 50 256 14 14 (2508800)
I0525 21:05:47.470556  2079 net.cpp:137] Memory required for data: 2338202200
I0525 21:05:47.470562  2079 layer_factory.hpp:77] Creating layer layer_256_2_scale2
I0525 21:05:47.470597  2079 net.cpp:84] Creating Layer layer_256_2_scale2
I0525 21:05:47.470602  2079 net.cpp:406] layer_256_2_scale2 <- layer_256_2_conv1
I0525 21:05:47.470607  2079 net.cpp:367] layer_256_2_scale2 -> layer_256_2_conv1 (in-place)
I0525 21:05:47.470656  2079 layer_factory.hpp:77] Creating layer layer_256_2_scale2
I0525 21:05:47.470819  2079 net.cpp:122] Setting up layer_256_2_scale2
I0525 21:05:47.470829  2079 net.cpp:129] Top shape: 50 256 14 14 (2508800)
I0525 21:05:47.470831  2079 net.cpp:137] Memory required for data: 2348237400
I0525 21:05:47.470837  2079 layer_factory.hpp:77] Creating layer layer_256_2_relu2
I0525 21:05:47.470857  2079 net.cpp:84] Creating Layer layer_256_2_relu2
I0525 21:05:47.470861  2079 net.cpp:406] layer_256_2_relu2 <- layer_256_2_conv1
I0525 21:05:47.470865  2079 net.cpp:367] layer_256_2_relu2 -> layer_256_2_conv1 (in-place)
I0525 21:05:47.471042  2079 net.cpp:122] Setting up layer_256_2_relu2
I0525 21:05:47.471052  2079 net.cpp:129] Top shape: 50 256 14 14 (2508800)
I0525 21:05:47.471067  2079 net.cpp:137] Memory required for data: 2358272600
I0525 21:05:47.471071  2079 layer_factory.hpp:77] Creating layer layer_256_2_conv2
I0525 21:05:47.471082  2079 net.cpp:84] Creating Layer layer_256_2_conv2
I0525 21:05:47.471087  2079 net.cpp:406] layer_256_2_conv2 <- layer_256_2_conv1
I0525 21:05:47.471096  2079 net.cpp:380] layer_256_2_conv2 -> layer_256_2_conv2
I0525 21:05:47.483103  2079 net.cpp:122] Setting up layer_256_2_conv2
I0525 21:05:47.483144  2079 net.cpp:129] Top shape: 50 256 14 14 (2508800)
I0525 21:05:47.483150  2079 net.cpp:137] Memory required for data: 2368307800
I0525 21:05:47.483158  2079 layer_factory.hpp:77] Creating layer layer_256_2_sum
I0525 21:05:47.483168  2079 net.cpp:84] Creating Layer layer_256_2_sum
I0525 21:05:47.483173  2079 net.cpp:406] layer_256_2_sum <- layer_256_2_conv2
I0525 21:05:47.483180  2079 net.cpp:406] layer_256_2_sum <- layer_256_1_sum_layer_256_1_sum_0_split_1
I0525 21:05:47.483191  2079 net.cpp:380] layer_256_2_sum -> layer_256_2_sum
I0525 21:05:47.483227  2079 net.cpp:122] Setting up layer_256_2_sum
I0525 21:05:47.483235  2079 net.cpp:129] Top shape: 50 256 14 14 (2508800)
I0525 21:05:47.483238  2079 net.cpp:137] Memory required for data: 2378343000
I0525 21:05:47.483259  2079 layer_factory.hpp:77] Creating layer layer_512_1_bn1
I0525 21:05:47.483268  2079 net.cpp:84] Creating Layer layer_512_1_bn1
I0525 21:05:47.483273  2079 net.cpp:406] layer_512_1_bn1 <- layer_256_2_sum
I0525 21:05:47.483278  2079 net.cpp:380] layer_512_1_bn1 -> layer_512_1_bn1
I0525 21:05:47.483499  2079 net.cpp:122] Setting up layer_512_1_bn1
I0525 21:05:47.483507  2079 net.cpp:129] Top shape: 50 256 14 14 (2508800)
I0525 21:05:47.483521  2079 net.cpp:137] Memory required for data: 2388378200
I0525 21:05:47.483530  2079 layer_factory.hpp:77] Creating layer layer_512_1_scale1
I0525 21:05:47.483536  2079 net.cpp:84] Creating Layer layer_512_1_scale1
I0525 21:05:47.483541  2079 net.cpp:406] layer_512_1_scale1 <- layer_512_1_bn1
I0525 21:05:47.483546  2079 net.cpp:367] layer_512_1_scale1 -> layer_512_1_bn1 (in-place)
I0525 21:05:47.483597  2079 layer_factory.hpp:77] Creating layer layer_512_1_scale1
I0525 21:05:47.483712  2079 net.cpp:122] Setting up layer_512_1_scale1
I0525 21:05:47.483721  2079 net.cpp:129] Top shape: 50 256 14 14 (2508800)
I0525 21:05:47.483724  2079 net.cpp:137] Memory required for data: 2398413400
I0525 21:05:47.483729  2079 layer_factory.hpp:77] Creating layer layer_512_1_relu1
I0525 21:05:47.483737  2079 net.cpp:84] Creating Layer layer_512_1_relu1
I0525 21:05:47.483741  2079 net.cpp:406] layer_512_1_relu1 <- layer_512_1_bn1
I0525 21:05:47.483745  2079 net.cpp:367] layer_512_1_relu1 -> layer_512_1_bn1 (in-place)
I0525 21:05:47.483921  2079 net.cpp:122] Setting up layer_512_1_relu1
I0525 21:05:47.483930  2079 net.cpp:129] Top shape: 50 256 14 14 (2508800)
I0525 21:05:47.483933  2079 net.cpp:137] Memory required for data: 2408448600
I0525 21:05:47.483937  2079 layer_factory.hpp:77] Creating layer layer_512_1_bn1_layer_512_1_relu1_0_split
I0525 21:05:47.483942  2079 net.cpp:84] Creating Layer layer_512_1_bn1_layer_512_1_relu1_0_split
I0525 21:05:47.483947  2079 net.cpp:406] layer_512_1_bn1_layer_512_1_relu1_0_split <- layer_512_1_bn1
I0525 21:05:47.483961  2079 net.cpp:380] layer_512_1_bn1_layer_512_1_relu1_0_split -> layer_512_1_bn1_layer_512_1_relu1_0_split_0
I0525 21:05:47.483968  2079 net.cpp:380] layer_512_1_bn1_layer_512_1_relu1_0_split -> layer_512_1_bn1_layer_512_1_relu1_0_split_1
I0525 21:05:47.484014  2079 net.cpp:122] Setting up layer_512_1_bn1_layer_512_1_relu1_0_split
I0525 21:05:47.484021  2079 net.cpp:129] Top shape: 50 256 14 14 (2508800)
I0525 21:05:47.484026  2079 net.cpp:129] Top shape: 50 256 14 14 (2508800)
I0525 21:05:47.484028  2079 net.cpp:137] Memory required for data: 2428519000
I0525 21:05:47.484032  2079 layer_factory.hpp:77] Creating layer layer_512_1_conv1
I0525 21:05:47.484050  2079 net.cpp:84] Creating Layer layer_512_1_conv1
I0525 21:05:47.484055  2079 net.cpp:406] layer_512_1_conv1 <- layer_512_1_bn1_layer_512_1_relu1_0_split_0
I0525 21:05:47.484060  2079 net.cpp:380] layer_512_1_conv1 -> layer_512_1_conv1
I0525 21:05:47.500720  2079 net.cpp:122] Setting up layer_512_1_conv1
I0525 21:05:47.500759  2079 net.cpp:129] Top shape: 50 512 7 7 (1254400)
I0525 21:05:47.500764  2079 net.cpp:137] Memory required for data: 2433536600
I0525 21:05:47.500774  2079 layer_factory.hpp:77] Creating layer layer_512_1_bn2
I0525 21:05:47.500787  2079 net.cpp:84] Creating Layer layer_512_1_bn2
I0525 21:05:47.500792  2079 net.cpp:406] layer_512_1_bn2 <- layer_512_1_conv1
I0525 21:05:47.500799  2079 net.cpp:367] layer_512_1_bn2 -> layer_512_1_conv1 (in-place)
I0525 21:05:47.501030  2079 net.cpp:122] Setting up layer_512_1_bn2
I0525 21:05:47.501040  2079 net.cpp:129] Top shape: 50 512 7 7 (1254400)
I0525 21:05:47.501055  2079 net.cpp:137] Memory required for data: 2438554200
I0525 21:05:47.501065  2079 layer_factory.hpp:77] Creating layer layer_512_1_scale2
I0525 21:05:47.501076  2079 net.cpp:84] Creating Layer layer_512_1_scale2
I0525 21:05:47.501080  2079 net.cpp:406] layer_512_1_scale2 <- layer_512_1_conv1
I0525 21:05:47.501085  2079 net.cpp:367] layer_512_1_scale2 -> layer_512_1_conv1 (in-place)
I0525 21:05:47.501134  2079 layer_factory.hpp:77] Creating layer layer_512_1_scale2
I0525 21:05:47.501296  2079 net.cpp:122] Setting up layer_512_1_scale2
I0525 21:05:47.501305  2079 net.cpp:129] Top shape: 50 512 7 7 (1254400)
I0525 21:05:47.501308  2079 net.cpp:137] Memory required for data: 2443571800
I0525 21:05:47.501314  2079 layer_factory.hpp:77] Creating layer layer_512_1_relu2
I0525 21:05:47.501320  2079 net.cpp:84] Creating Layer layer_512_1_relu2
I0525 21:05:47.501323  2079 net.cpp:406] layer_512_1_relu2 <- layer_512_1_conv1
I0525 21:05:47.501332  2079 net.cpp:367] layer_512_1_relu2 -> layer_512_1_conv1 (in-place)
I0525 21:05:47.501500  2079 net.cpp:122] Setting up layer_512_1_relu2
I0525 21:05:47.501510  2079 net.cpp:129] Top shape: 50 512 7 7 (1254400)
I0525 21:05:47.501523  2079 net.cpp:137] Memory required for data: 2448589400
I0525 21:05:47.501528  2079 layer_factory.hpp:77] Creating layer layer_512_1_conv2
I0525 21:05:47.501540  2079 net.cpp:84] Creating Layer layer_512_1_conv2
I0525 21:05:47.501544  2079 net.cpp:406] layer_512_1_conv2 <- layer_512_1_conv1
I0525 21:05:47.501550  2079 net.cpp:380] layer_512_1_conv2 -> layer_512_1_conv2
I0525 21:05:47.528839  2079 net.cpp:122] Setting up layer_512_1_conv2
I0525 21:05:47.528879  2079 net.cpp:129] Top shape: 50 512 7 7 (1254400)
I0525 21:05:47.528883  2079 net.cpp:137] Memory required for data: 2453607000
I0525 21:05:47.528893  2079 layer_factory.hpp:77] Creating layer layer_512_1_conv_expand
I0525 21:05:47.528910  2079 net.cpp:84] Creating Layer layer_512_1_conv_expand
I0525 21:05:47.528916  2079 net.cpp:406] layer_512_1_conv_expand <- layer_512_1_bn1_layer_512_1_relu1_0_split_1
I0525 21:05:47.528928  2079 net.cpp:380] layer_512_1_conv_expand -> layer_512_1_conv_expand
I0525 21:05:47.531738  2079 net.cpp:122] Setting up layer_512_1_conv_expand
I0525 21:05:47.531767  2079 net.cpp:129] Top shape: 50 512 7 7 (1254400)
I0525 21:05:47.531774  2079 net.cpp:137] Memory required for data: 2458624600
I0525 21:05:47.531785  2079 layer_factory.hpp:77] Creating layer layer_512_1_sum
I0525 21:05:47.531795  2079 net.cpp:84] Creating Layer layer_512_1_sum
I0525 21:05:47.531805  2079 net.cpp:406] layer_512_1_sum <- layer_512_1_conv_expand
I0525 21:05:47.531813  2079 net.cpp:406] layer_512_1_sum <- layer_512_1_conv2
I0525 21:05:47.531826  2079 net.cpp:380] layer_512_1_sum -> layer_512_1_sum
I0525 21:05:47.531875  2079 net.cpp:122] Setting up layer_512_1_sum
I0525 21:05:47.531899  2079 net.cpp:129] Top shape: 50 512 7 7 (1254400)
I0525 21:05:47.531906  2079 net.cpp:137] Memory required for data: 2463642200
I0525 21:05:47.531913  2079 layer_factory.hpp:77] Creating layer layer_512_1_sum_layer_512_1_sum_0_split
I0525 21:05:47.531922  2079 net.cpp:84] Creating Layer layer_512_1_sum_layer_512_1_sum_0_split
I0525 21:05:47.531929  2079 net.cpp:406] layer_512_1_sum_layer_512_1_sum_0_split <- layer_512_1_sum
I0525 21:05:47.531957  2079 net.cpp:380] layer_512_1_sum_layer_512_1_sum_0_split -> layer_512_1_sum_layer_512_1_sum_0_split_0
I0525 21:05:47.531971  2079 net.cpp:380] layer_512_1_sum_layer_512_1_sum_0_split -> layer_512_1_sum_layer_512_1_sum_0_split_1
I0525 21:05:47.532048  2079 net.cpp:122] Setting up layer_512_1_sum_layer_512_1_sum_0_split
I0525 21:05:47.532061  2079 net.cpp:129] Top shape: 50 512 7 7 (1254400)
I0525 21:05:47.532065  2079 net.cpp:129] Top shape: 50 512 7 7 (1254400)
I0525 21:05:47.532068  2079 net.cpp:137] Memory required for data: 2473677400
I0525 21:05:47.532071  2079 layer_factory.hpp:77] Creating layer layer_512_2_bn1
I0525 21:05:47.532079  2079 net.cpp:84] Creating Layer layer_512_2_bn1
I0525 21:05:47.532085  2079 net.cpp:406] layer_512_2_bn1 <- layer_512_1_sum_layer_512_1_sum_0_split_0
I0525 21:05:47.532106  2079 net.cpp:380] layer_512_2_bn1 -> layer_512_2_bn1
I0525 21:05:47.532460  2079 net.cpp:122] Setting up layer_512_2_bn1
I0525 21:05:47.532476  2079 net.cpp:129] Top shape: 50 512 7 7 (1254400)
I0525 21:05:47.532493  2079 net.cpp:137] Memory required for data: 2478695000
I0525 21:05:47.532507  2079 layer_factory.hpp:77] Creating layer layer_512_2_scale1
I0525 21:05:47.532521  2079 net.cpp:84] Creating Layer layer_512_2_scale1
I0525 21:05:47.532549  2079 net.cpp:406] layer_512_2_scale1 <- layer_512_2_bn1
I0525 21:05:47.532564  2079 net.cpp:367] layer_512_2_scale1 -> layer_512_2_bn1 (in-place)
I0525 21:05:47.532649  2079 layer_factory.hpp:77] Creating layer layer_512_2_scale1
I0525 21:05:47.532876  2079 net.cpp:122] Setting up layer_512_2_scale1
I0525 21:05:47.532891  2079 net.cpp:129] Top shape: 50 512 7 7 (1254400)
I0525 21:05:47.532898  2079 net.cpp:137] Memory required for data: 2483712600
I0525 21:05:47.532908  2079 layer_factory.hpp:77] Creating layer layer_512_2_relu1
I0525 21:05:47.532920  2079 net.cpp:84] Creating Layer layer_512_2_relu1
I0525 21:05:47.532927  2079 net.cpp:406] layer_512_2_relu1 <- layer_512_2_bn1
I0525 21:05:47.532937  2079 net.cpp:367] layer_512_2_relu1 -> layer_512_2_bn1 (in-place)
I0525 21:05:47.533674  2079 net.cpp:122] Setting up layer_512_2_relu1
I0525 21:05:47.533686  2079 net.cpp:129] Top shape: 50 512 7 7 (1254400)
I0525 21:05:47.533690  2079 net.cpp:137] Memory required for data: 2488730200
I0525 21:05:47.533694  2079 layer_factory.hpp:77] Creating layer layer_512_2_conv1
I0525 21:05:47.533704  2079 net.cpp:84] Creating Layer layer_512_2_conv1
I0525 21:05:47.533710  2079 net.cpp:406] layer_512_2_conv1 <- layer_512_2_bn1
I0525 21:05:47.533717  2079 net.cpp:380] layer_512_2_conv1 -> layer_512_2_conv1
I0525 21:05:47.560489  2079 net.cpp:122] Setting up layer_512_2_conv1
I0525 21:05:47.560523  2079 net.cpp:129] Top shape: 50 512 7 7 (1254400)
I0525 21:05:47.560525  2079 net.cpp:137] Memory required for data: 2493747800
I0525 21:05:47.560534  2079 layer_factory.hpp:77] Creating layer layer_512_2_bn2
I0525 21:05:47.560546  2079 net.cpp:84] Creating Layer layer_512_2_bn2
I0525 21:05:47.560552  2079 net.cpp:406] layer_512_2_bn2 <- layer_512_2_conv1
I0525 21:05:47.560572  2079 net.cpp:367] layer_512_2_bn2 -> layer_512_2_conv1 (in-place)
I0525 21:05:47.560801  2079 net.cpp:122] Setting up layer_512_2_bn2
I0525 21:05:47.560811  2079 net.cpp:129] Top shape: 50 512 7 7 (1254400)
I0525 21:05:47.560813  2079 net.cpp:137] Memory required for data: 2498765400
I0525 21:05:47.560832  2079 layer_factory.hpp:77] Creating layer layer_512_2_scale2
I0525 21:05:47.560842  2079 net.cpp:84] Creating Layer layer_512_2_scale2
I0525 21:05:47.560847  2079 net.cpp:406] layer_512_2_scale2 <- layer_512_2_conv1
I0525 21:05:47.560850  2079 net.cpp:367] layer_512_2_scale2 -> layer_512_2_conv1 (in-place)
I0525 21:05:47.560909  2079 layer_factory.hpp:77] Creating layer layer_512_2_scale2
I0525 21:05:47.561056  2079 net.cpp:122] Setting up layer_512_2_scale2
I0525 21:05:47.561065  2079 net.cpp:129] Top shape: 50 512 7 7 (1254400)
I0525 21:05:47.561069  2079 net.cpp:137] Memory required for data: 2503783000
I0525 21:05:47.561074  2079 layer_factory.hpp:77] Creating layer layer_512_2_relu2
I0525 21:05:47.561092  2079 net.cpp:84] Creating Layer layer_512_2_relu2
I0525 21:05:47.561098  2079 net.cpp:406] layer_512_2_relu2 <- layer_512_2_conv1
I0525 21:05:47.561103  2079 net.cpp:367] layer_512_2_relu2 -> layer_512_2_conv1 (in-place)
I0525 21:05:47.561883  2079 net.cpp:122] Setting up layer_512_2_relu2
I0525 21:05:47.561895  2079 net.cpp:129] Top shape: 50 512 7 7 (1254400)
I0525 21:05:47.561899  2079 net.cpp:137] Memory required for data: 2508800600
I0525 21:05:47.561902  2079 layer_factory.hpp:77] Creating layer layer_512_2_conv2
I0525 21:05:47.561925  2079 net.cpp:84] Creating Layer layer_512_2_conv2
I0525 21:05:47.561930  2079 net.cpp:406] layer_512_2_conv2 <- layer_512_2_conv1
I0525 21:05:47.561936  2079 net.cpp:380] layer_512_2_conv2 -> layer_512_2_conv2
I0525 21:05:47.590041  2079 net.cpp:122] Setting up layer_512_2_conv2
I0525 21:05:47.590071  2079 net.cpp:129] Top shape: 50 512 7 7 (1254400)
I0525 21:05:47.590075  2079 net.cpp:137] Memory required for data: 2513818200
I0525 21:05:47.590083  2079 layer_factory.hpp:77] Creating layer layer_512_2_sum
I0525 21:05:47.590093  2079 net.cpp:84] Creating Layer layer_512_2_sum
I0525 21:05:47.590098  2079 net.cpp:406] layer_512_2_sum <- layer_512_2_conv2
I0525 21:05:47.590116  2079 net.cpp:406] layer_512_2_sum <- layer_512_1_sum_layer_512_1_sum_0_split_1
I0525 21:05:47.590142  2079 net.cpp:380] layer_512_2_sum -> layer_512_2_sum
I0525 21:05:47.590176  2079 net.cpp:122] Setting up layer_512_2_sum
I0525 21:05:47.590188  2079 net.cpp:129] Top shape: 50 512 7 7 (1254400)
I0525 21:05:47.590190  2079 net.cpp:137] Memory required for data: 2518835800
I0525 21:05:47.590205  2079 layer_factory.hpp:77] Creating layer last_bn
I0525 21:05:47.590211  2079 net.cpp:84] Creating Layer last_bn
I0525 21:05:47.590215  2079 net.cpp:406] last_bn <- layer_512_2_sum
I0525 21:05:47.590222  2079 net.cpp:367] last_bn -> layer_512_2_sum (in-place)
I0525 21:05:47.590451  2079 net.cpp:122] Setting up last_bn
I0525 21:05:47.590461  2079 net.cpp:129] Top shape: 50 512 7 7 (1254400)
I0525 21:05:47.590463  2079 net.cpp:137] Memory required for data: 2523853400
I0525 21:05:47.590471  2079 layer_factory.hpp:77] Creating layer last_scale
I0525 21:05:47.590477  2079 net.cpp:84] Creating Layer last_scale
I0525 21:05:47.590481  2079 net.cpp:406] last_scale <- layer_512_2_sum
I0525 21:05:47.590487  2079 net.cpp:367] last_scale -> layer_512_2_sum (in-place)
I0525 21:05:47.590544  2079 layer_factory.hpp:77] Creating layer last_scale
I0525 21:05:47.590703  2079 net.cpp:122] Setting up last_scale
I0525 21:05:47.590711  2079 net.cpp:129] Top shape: 50 512 7 7 (1254400)
I0525 21:05:47.590714  2079 net.cpp:137] Memory required for data: 2528871000
I0525 21:05:47.590720  2079 layer_factory.hpp:77] Creating layer last_relu
I0525 21:05:47.590726  2079 net.cpp:84] Creating Layer last_relu
I0525 21:05:47.590730  2079 net.cpp:406] last_relu <- layer_512_2_sum
I0525 21:05:47.590749  2079 net.cpp:367] last_relu -> layer_512_2_sum (in-place)
I0525 21:05:47.590919  2079 net.cpp:122] Setting up last_relu
I0525 21:05:47.590929  2079 net.cpp:129] Top shape: 50 512 7 7 (1254400)
I0525 21:05:47.590932  2079 net.cpp:137] Memory required for data: 2533888600
I0525 21:05:47.590947  2079 layer_factory.hpp:77] Creating layer global_pool
I0525 21:05:47.590955  2079 net.cpp:84] Creating Layer global_pool
I0525 21:05:47.590960  2079 net.cpp:406] global_pool <- layer_512_2_sum
I0525 21:05:47.590965  2079 net.cpp:380] global_pool -> global_pool
I0525 21:05:47.591150  2079 net.cpp:122] Setting up global_pool
I0525 21:05:47.591159  2079 net.cpp:129] Top shape: 50 512 1 1 (25600)
I0525 21:05:47.591162  2079 net.cpp:137] Memory required for data: 2533991000
I0525 21:05:47.591166  2079 layer_factory.hpp:77] Creating layer score
I0525 21:05:47.591187  2079 net.cpp:84] Creating Layer score
I0525 21:05:47.591192  2079 net.cpp:406] score <- global_pool
I0525 21:05:47.591197  2079 net.cpp:380] score -> score
I0525 21:05:47.591344  2079 net.cpp:122] Setting up score
I0525 21:05:47.591353  2079 net.cpp:129] Top shape: 50 8 (400)
I0525 21:05:47.591356  2079 net.cpp:137] Memory required for data: 2533992600
I0525 21:05:47.591373  2079 layer_factory.hpp:77] Creating layer score_score_0_split
I0525 21:05:47.591382  2079 net.cpp:84] Creating Layer score_score_0_split
I0525 21:05:47.591387  2079 net.cpp:406] score_score_0_split <- score
I0525 21:05:47.591392  2079 net.cpp:380] score_score_0_split -> score_score_0_split_0
I0525 21:05:47.591398  2079 net.cpp:380] score_score_0_split -> score_score_0_split_1
I0525 21:05:47.591439  2079 net.cpp:122] Setting up score_score_0_split
I0525 21:05:47.591446  2079 net.cpp:129] Top shape: 50 8 (400)
I0525 21:05:47.591449  2079 net.cpp:129] Top shape: 50 8 (400)
I0525 21:05:47.591452  2079 net.cpp:137] Memory required for data: 2533995800
I0525 21:05:47.591455  2079 layer_factory.hpp:77] Creating layer loss
I0525 21:05:47.591462  2079 net.cpp:84] Creating Layer loss
I0525 21:05:47.591467  2079 net.cpp:406] loss <- score_score_0_split_0
I0525 21:05:47.591471  2079 net.cpp:406] loss <- label_data_1_split_0
I0525 21:05:47.591476  2079 net.cpp:380] loss -> loss
…
