…
I0522 11:19:31.435350  2182 net.cpp:51] Initializing net from parameters: 
name: "CaffeNet"
state {
  phase: TRAIN
  level: 0
  stage: ""
}
layer {
  name: "data"
  type: "Data"
  top: "data"
  top: "label"
  include {
    phase: TRAIN
  }
  transform_param {
    mirror: true
    crop_size: 227
    mean_file: "/home/k/PycharmProjects/AgeGenderDeepLearning-master/Folds/lmdb/Test_fold_is_2/mean.binaryproto"
  }
  data_param {
    source: "/home/k/PycharmProjects/AgeGenderDeepLearning-master/Folds/lmdb/Test_fold_is_2/gender_train_lmdb"
    batch_size: 50
    backend: LMDB
  }
}
layer {
  name: "conv1"
  type: "Convolution"
  bottom: "data"
  top: "conv1"
  param {
    lr_mult: 1
    decay_mult: 1
  }
  param {
    lr_mult: 2
    decay_mult: 0
  }
  convolution_param {
    num_output: 96
    kernel_size: 7
    stride: 4
    weight_filler {
      type: "gaussian"
      std: 0.01
    }
    bias_filler {
      type: "constant"
      value: 0
    }
  }
}
layer {
  name: "relu1"
  type: "ReLU"
  bottom: "conv1"
  top: "conv1"
}
layer {
  name: "pool1"
  type: "Pooling"
  bottom: "conv1"
  top: "pool1"
  pooling_param {
    pool: MAX
    kernel_size: 3
    stride: 2
  }
}
layer {
  name: "norm1"
  type: "LRN"
  bottom: "pool1"
  top: "norm1"
  lrn_param {
    local_size: 5
    alpha: 0.0001
    beta: 0.75
  }
}
layer {
  name: "conv2"
  type: "Convolution"
  bottom: "norm1"
  top: "conv2"
  param {
    lr_mult: 1
    decay_mult: 1
  }
  param {
    lr_mult: 2
    decay_mult: 0
  }
  convolution_param {
    num_output: 256
    pad: 2
    kernel_size: 5
    weight_filler {
      type: "gaussian"
      std: 0.01
    }
    bias_filler {
      type: "constant"
      value: 1
    }
  }
}
layer {
  name: "relu2"
  type: "ReLU"
  bottom: "conv2"
  top: "conv2"
}
layer {
  name: "pool2"
  type: "Pooling"
  bottom: "conv2"
  top: "pool2"
  pooling_param {
    pool: MAX
    kernel_size: 3
    stride: 2
  }
}
layer {
  name: "norm2"
  type: "LRN"
  bottom: "pool2"
  top: "norm2"
  lrn_param {
    local_size: 5
    alpha: 0.0001
    beta: 0.75
  }
}
layer {
  name: "conv3"
  type: "Convolution"
  bottom: "norm2"
  top: "conv3"
  param {
    lr_mult: 1
    decay_mult: 1
  }
  param {
    lr_mult: 2
    decay_mult: 0
  }
  convolution_param {
    num_output: 384
    pad: 1
    kernel_size: 3
    weight_filler {
      type: "gaussian"
      std: 0.01
    }
    bias_filler {
      type: "constant"
      value: 0
    }
  }
}
layer {
  name: "relu3"
  type: "ReLU"
  bottom: "conv3"
  top: "conv3"
}
layer {
  name: "pool5"
  type: "Pooling"
  bottom: "conv3"
  top: "pool5"
  pooling_param {
    pool: MAX
    kernel_size: 3
    stride: 2
  }
}
layer {
  name: "fc6"
  type: "InnerProduct"
  bottom: "pool5"
  top: "fc6"
  param {
    lr_mult: 1
    decay_mult: 1
  }
  param {
    lr_mult: 2
    decay_mult: 0
  }
  inner_product_param {
    num_output: 512
    weight_filler {
      type: "gaussian"
      std: 0.005
    }
    bias_filler {
      type: "constant"
      value: 1
    }
  }
}
layer {
  name: "relu6"
  type: "ReLU"
  bottom: "fc6"
  top: "fc6"
}
layer {
  name: "drop6"
  type: "Dropout"
  bottom: "fc6"
  top: "fc6"
  dropout_param {
    dropout_ratio: 0.5
  }
}
layer {
  name: "fc7"
  type: "InnerProduct"
  bottom: "fc6"
  top: "fc7"
  param {
    lr_mult: 1
    decay_mult: 1
  }
  param {
    lr_mult: 2
    decay_mult: 0
  }
  inner_product_param {
    num_output: 512
    weight_filler {
      type: "gaussian"
      std: 0.005
    }
    bias_filler {
      type: "constant"
      value: 1
    }
  }
}
layer {
  name: "relu7"
  type: "ReLU"
  bottom: "fc7"
  top: "fc7"
}
layer {
  name: "drop7"
  type: "Dropout"
  bottom: "fc7"
  top: "fc7"
  dropout_param {
    dropout_ratio: 0.5
  }
}
layer {
  name: "fc8"
  type: "InnerProduct"
  bottom: "fc7"
  top: "fc8"
  param {
    lr_mult: 10
    decay_mult: 1
  }
  param {
    lr_mult: 20
    decay_mult: 0
  }
  inner_product_param {
    num_output: 2
    weight_filler {
      type: "gaussian"
      std: 0.01
    }
    bias_filler {
      type: "constant"
      value: 0
    }
  }
}
layer {
  name: "loss"
  type: "SoftmaxWithLoss"
  bottom: "fc8"
  bottom: "label"
  top: "loss"
}
I0522 11:19:31.435466  2182 layer_factory.hpp:77] Creating layer data
I0522 11:19:31.491765  2182 db_lmdb.cpp:35] Opened lmdb /home/k/PycharmProjects/AgeGenderDeepLearning-master/Folds/lmdb/Test_fold_is_2/gender_train_lmdb
I0522 11:19:31.509615  2182 net.cpp:84] Creating Layer data
I0522 11:19:31.509668  2182 net.cpp:380] data -> data
I0522 11:19:31.509723  2182 net.cpp:380] data -> label
I0522 11:19:31.509762  2182 data_transformer.cpp:25] Loading mean file from: /home/k/PycharmProjects/AgeGenderDeepLearning-master/Folds/lmdb/Test_fold_is_2/mean.binaryproto
I0522 11:19:31.518868  2182 data_layer.cpp:45] output data size: 50,3,227,227
I0522 11:19:31.609117  2182 net.cpp:122] Setting up data
I0522 11:19:31.609153  2182 net.cpp:129] Top shape: 50 3 227 227 (7729350)
I0522 11:19:31.609159  2182 net.cpp:129] Top shape: 50 (50)
I0522 11:19:31.609164  2182 net.cpp:137] Memory required for data: 30917600
I0522 11:19:31.609176  2182 layer_factory.hpp:77] Creating layer conv1
I0522 11:19:31.609200  2182 net.cpp:84] Creating Layer conv1
I0522 11:19:31.609208  2182 net.cpp:406] conv1 <- data
I0522 11:19:31.609225  2182 net.cpp:380] conv1 -> conv1
I0522 11:19:31.877383  2182 net.cpp:122] Setting up conv1
I0522 11:19:31.877415  2182 net.cpp:129] Top shape: 50 96 56 56 (15052800)
I0522 11:19:31.877423  2182 net.cpp:137] Memory required for data: 91128800
I0522 11:19:31.877467  2182 layer_factory.hpp:77] Creating layer relu1
I0522 11:19:31.877487  2182 net.cpp:84] Creating Layer relu1
I0522 11:19:31.877493  2182 net.cpp:406] relu1 <- conv1
I0522 11:19:31.877501  2182 net.cpp:367] relu1 -> conv1 (in-place)
I0522 11:19:31.877667  2182 net.cpp:122] Setting up relu1
I0522 11:19:31.877679  2182 net.cpp:129] Top shape: 50 96 56 56 (15052800)
I0522 11:19:31.877686  2182 net.cpp:137] Memory required for data: 151340000
I0522 11:19:31.877693  2182 layer_factory.hpp:77] Creating layer pool1
I0522 11:19:31.877707  2182 net.cpp:84] Creating Layer pool1
I0522 11:19:31.877713  2182 net.cpp:406] pool1 <- conv1
I0522 11:19:31.877722  2182 net.cpp:380] pool1 -> pool1
I0522 11:19:31.877771  2182 net.cpp:122] Setting up pool1
I0522 11:19:31.877780  2182 net.cpp:129] Top shape: 50 96 28 28 (3763200)
I0522 11:19:31.877784  2182 net.cpp:137] Memory required for data: 166392800
I0522 11:19:31.877786  2182 layer_factory.hpp:77] Creating layer norm1
I0522 11:19:31.877795  2182 net.cpp:84] Creating Layer norm1
I0522 11:19:31.877800  2182 net.cpp:406] norm1 <- pool1
I0522 11:19:31.877805  2182 net.cpp:380] norm1 -> norm1
I0522 11:19:31.878451  2182 net.cpp:122] Setting up norm1
I0522 11:19:31.878463  2182 net.cpp:129] Top shape: 50 96 28 28 (3763200)
I0522 11:19:31.878468  2182 net.cpp:137] Memory required for data: 181445600
I0522 11:19:31.878471  2182 layer_factory.hpp:77] Creating layer conv2
I0522 11:19:31.878484  2182 net.cpp:84] Creating Layer conv2
I0522 11:19:31.878487  2182 net.cpp:406] conv2 <- norm1
I0522 11:19:31.878507  2182 net.cpp:380] conv2 -> conv2
I0522 11:19:31.887104  2182 net.cpp:122] Setting up conv2
I0522 11:19:31.887122  2182 net.cpp:129] Top shape: 50 256 28 28 (10035200)
I0522 11:19:31.887126  2182 net.cpp:137] Memory required for data: 221586400
I0522 11:19:31.887137  2182 layer_factory.hpp:77] Creating layer relu2
I0522 11:19:31.887145  2182 net.cpp:84] Creating Layer relu2
I0522 11:19:31.887150  2182 net.cpp:406] relu2 <- conv2
I0522 11:19:31.887156  2182 net.cpp:367] relu2 -> conv2 (in-place)
I0522 11:19:31.887320  2182 net.cpp:122] Setting up relu2
I0522 11:19:31.887331  2182 net.cpp:129] Top shape: 50 256 28 28 (10035200)
I0522 11:19:31.887346  2182 net.cpp:137] Memory required for data: 261727200
I0522 11:19:31.887349  2182 layer_factory.hpp:77] Creating layer pool2
I0522 11:19:31.887356  2182 net.cpp:84] Creating Layer pool2
I0522 11:19:31.887358  2182 net.cpp:406] pool2 <- conv2
I0522 11:19:31.887365  2182 net.cpp:380] pool2 -> pool2
I0522 11:19:31.887410  2182 net.cpp:122] Setting up pool2
I0522 11:19:31.887419  2182 net.cpp:129] Top shape: 50 256 14 14 (2508800)
I0522 11:19:31.887423  2182 net.cpp:137] Memory required for data: 271762400
I0522 11:19:31.887425  2182 layer_factory.hpp:77] Creating layer norm2
I0522 11:19:31.887434  2182 net.cpp:84] Creating Layer norm2
I0522 11:19:31.887439  2182 net.cpp:406] norm2 <- pool2
I0522 11:19:31.887444  2182 net.cpp:380] norm2 -> norm2
I0522 11:19:31.887614  2182 net.cpp:122] Setting up norm2
I0522 11:19:31.887624  2182 net.cpp:129] Top shape: 50 256 14 14 (2508800)
I0522 11:19:31.887626  2182 net.cpp:137] Memory required for data: 281797600
I0522 11:19:31.887630  2182 layer_factory.hpp:77] Creating layer conv3
I0522 11:19:31.887639  2182 net.cpp:84] Creating Layer conv3
I0522 11:19:31.887642  2182 net.cpp:406] conv3 <- norm2
I0522 11:19:31.887650  2182 net.cpp:380] conv3 -> conv3
I0522 11:19:31.899538  2182 net.cpp:122] Setting up conv3
I0522 11:19:31.899574  2182 net.cpp:129] Top shape: 50 384 14 14 (3763200)
I0522 11:19:31.899580  2182 net.cpp:137] Memory required for data: 296850400
I0522 11:19:31.899591  2182 layer_factory.hpp:77] Creating layer relu3
I0522 11:19:31.899602  2182 net.cpp:84] Creating Layer relu3
I0522 11:19:31.899610  2182 net.cpp:406] relu3 <- conv3
I0522 11:19:31.899621  2182 net.cpp:367] relu3 -> conv3 (in-place)
I0522 11:19:31.899786  2182 net.cpp:122] Setting up relu3
I0522 11:19:31.899797  2182 net.cpp:129] Top shape: 50 384 14 14 (3763200)
I0522 11:19:31.899812  2182 net.cpp:137] Memory required for data: 311903200
I0522 11:19:31.899816  2182 layer_factory.hpp:77] Creating layer pool5
I0522 11:19:31.899822  2182 net.cpp:84] Creating Layer pool5
I0522 11:19:31.899827  2182 net.cpp:406] pool5 <- conv3
I0522 11:19:31.899833  2182 net.cpp:380] pool5 -> pool5
I0522 11:19:31.899885  2182 net.cpp:122] Setting up pool5
I0522 11:19:31.899894  2182 net.cpp:129] Top shape: 50 384 7 7 (940800)
I0522 11:19:31.899897  2182 net.cpp:137] Memory required for data: 315666400
I0522 11:19:31.899912  2182 layer_factory.hpp:77] Creating layer fc6
I0522 11:19:31.899920  2182 net.cpp:84] Creating Layer fc6
I0522 11:19:31.899924  2182 net.cpp:406] fc6 <- pool5
I0522 11:19:31.899930  2182 net.cpp:380] fc6 -> fc6
I0522 11:19:32.004465  2182 net.cpp:122] Setting up fc6
I0522 11:19:32.004500  2182 net.cpp:129] Top shape: 50 512 (25600)
I0522 11:19:32.004504  2182 net.cpp:137] Memory required for data: 315768800
I0522 11:19:32.004515  2182 layer_factory.hpp:77] Creating layer relu6
I0522 11:19:32.004526  2182 net.cpp:84] Creating Layer relu6
I0522 11:19:32.004530  2182 net.cpp:406] relu6 <- fc6
I0522 11:19:32.004540  2182 net.cpp:367] relu6 -> fc6 (in-place)
I0522 11:19:32.005358  2182 net.cpp:122] Setting up relu6
I0522 11:19:32.005369  2182 net.cpp:129] Top shape: 50 512 (25600)
I0522 11:19:32.005373  2182 net.cpp:137] Memory required for data: 315871200
I0522 11:19:32.005376  2182 layer_factory.hpp:77] Creating layer drop6
I0522 11:19:32.005384  2182 net.cpp:84] Creating Layer drop6
I0522 11:19:32.005388  2182 net.cpp:406] drop6 <- fc6
I0522 11:19:32.005424  2182 net.cpp:367] drop6 -> fc6 (in-place)
I0522 11:19:32.005462  2182 net.cpp:122] Setting up drop6
I0522 11:19:32.005481  2182 net.cpp:129] Top shape: 50 512 (25600)
I0522 11:19:32.005484  2182 net.cpp:137] Memory required for data: 315973600
I0522 11:19:32.005487  2182 layer_factory.hpp:77] Creating layer fc7
I0522 11:19:32.005496  2182 net.cpp:84] Creating Layer fc7
I0522 11:19:32.005501  2182 net.cpp:406] fc7 <- fc6
I0522 11:19:32.005513  2182 net.cpp:380] fc7 -> fc7
I0522 11:19:32.008261  2182 net.cpp:122] Setting up fc7
I0522 11:19:32.008273  2182 net.cpp:129] Top shape: 50 512 (25600)
I0522 11:19:32.008276  2182 net.cpp:137] Memory required for data: 316076000
I0522 11:19:32.008286  2182 layer_factory.hpp:77] Creating layer relu7
I0522 11:19:32.008296  2182 net.cpp:84] Creating Layer relu7
I0522 11:19:32.008302  2182 net.cpp:406] relu7 <- fc7
I0522 11:19:32.008311  2182 net.cpp:367] relu7 -> fc7 (in-place)
I0522 11:19:32.008483  2182 net.cpp:122] Setting up relu7
I0522 11:19:32.008493  2182 net.cpp:129] Top shape: 50 512 (25600)
I0522 11:19:32.008496  2182 net.cpp:137] Memory required for data: 316178400
I0522 11:19:32.008499  2182 layer_factory.hpp:77] Creating layer drop7
I0522 11:19:32.008508  2182 net.cpp:84] Creating Layer drop7
I0522 11:19:32.008512  2182 net.cpp:406] drop7 <- fc7
I0522 11:19:32.008519  2182 net.cpp:367] drop7 -> fc7 (in-place)
I0522 11:19:32.008548  2182 net.cpp:122] Setting up drop7
I0522 11:19:32.008566  2182 net.cpp:129] Top shape: 50 512 (25600)
I0522 11:19:32.008569  2182 net.cpp:137] Memory required for data: 316280800
I0522 11:19:32.008572  2182 layer_factory.hpp:77] Creating layer fc8
I0522 11:19:32.008579  2182 net.cpp:84] Creating Layer fc8
I0522 11:19:32.008581  2182 net.cpp:406] fc8 <- fc7
I0522 11:19:32.008587  2182 net.cpp:380] fc8 -> fc8
I0522 11:19:32.008711  2182 net.cpp:122] Setting up fc8
I0522 11:19:32.008720  2182 net.cpp:129] Top shape: 50 2 (100)
I0522 11:19:32.008723  2182 net.cpp:137] Memory required for data: 316281200
I0522 11:19:32.008728  2182 layer_factory.hpp:77] Creating layer loss
I0522 11:19:32.008734  2182 net.cpp:84] Creating Layer loss
I0522 11:19:32.008749  2182 net.cpp:406] loss <- fc8
I0522 11:19:32.008754  2182 net.cpp:406] loss <- label
I0522 11:19:32.008760  2182 net.cpp:380] loss -> loss
I0522 11:19:32.008770  2182 layer_factory.hpp:77] Creating layer loss
…
I0522 11:19:32.009670  2182 net.cpp:51] Initializing net from parameters: 
name: "CaffeNet"
state {
  phase: TEST
}
layer {
  name: "data"
  type: "Data"
  top: "data"
  top: "label"
  include {
    phase: TEST
  }
  transform_param {
    mirror: false
    crop_size: 227
    mean_file: "/home/k/PycharmProjects/AgeGenderDeepLearning-master/Folds/lmdb/Test_fold_is_2/mean.binaryproto"
  }
  data_param {
    source: "/home/k/PycharmProjects/AgeGenderDeepLearning-master/Folds/lmdb/Test_fold_is_2/gender_val_lmdb"
    batch_size: 50
    backend: LMDB
  }
}
layer {
  name: "conv1"
  type: "Convolution"
  bottom: "data"
  top: "conv1"
  param {
    lr_mult: 1
    decay_mult: 1
  }
  param {
    lr_mult: 2
    decay_mult: 0
  }
  convolution_param {
    num_output: 96
    kernel_size: 7
    stride: 4
    weight_filler {
      type: "gaussian"
      std: 0.01
    }
    bias_filler {
      type: "constant"
      value: 0
    }
  }
}
layer {
  name: "relu1"
  type: "ReLU"
  bottom: "conv1"
  top: "conv1"
}
layer {
  name: "pool1"
  type: "Pooling"
  bottom: "conv1"
  top: "pool1"
  pooling_param {
    pool: MAX
    kernel_size: 3
    stride: 2
  }
}
layer {
  name: "norm1"
  type: "LRN"
  bottom: "pool1"
  top: "norm1"
  lrn_param {
    local_size: 5
    alpha: 0.0001
    beta: 0.75
  }
}
layer {
  name: "conv2"
  type: "Convolution"
  bottom: "norm1"
  top: "conv2"
  param {
    lr_mult: 1
    decay_mult: 1
  }
  param {
    lr_mult: 2
    decay_mult: 0
  }
  convolution_param {
    num_output: 256
    pad: 2
    kernel_size: 5
    weight_filler {
      type: "gaussian"
      std: 0.01
    }
    bias_filler {
      type: "constant"
      value: 1
    }
  }
}
layer {
  name: "relu2"
  type: "ReLU"
  bottom: "conv2"
  top: "conv2"
}
layer {
  name: "pool2"
  type: "Pooling"
  bottom: "conv2"
  top: "pool2"
  pooling_param {
    pool: MAX
    kernel_size: 3
    stride: 2
  }
}
layer {
  name: "norm2"
  type: "LRN"
  bottom: "pool2"
  top: "norm2"
  lrn_param {
    local_size: 5
    alpha: 0.0001
    beta: 0.75
  }
}
layer {
  name: "conv3"
  type: "Convolution"
  bottom: "norm2"
  top: "conv3"
  param {
    lr_mult: 1
    decay_mult: 1
  }
  param {
    lr_mult: 2
    decay_mult: 0
  }
  convolution_param {
    num_output: 384
    pad: 1
    kernel_size: 3
    weight_filler {
      type: "gaussian"
      std: 0.01
    }
    bias_filler {
      type: "constant"
      value: 0
    }
  }
}
layer {
  name: "relu3"
  type: "ReLU"
  bottom: "conv3"
  top: "conv3"
}
layer {
  name: "pool5"
  type: "Pooling"
  bottom: "conv3"
  top: "pool5"
  pooling_param {
    pool: MAX
    kernel_size: 3
    stride: 2
  }
}
layer {
  name: "fc6"
  type: "InnerProduct"
  bottom: "pool5"
  top: "fc6"
  param {
    lr_mult: 1
    decay_mult: 1
  }
  param {
    lr_mult: 2
    decay_mult: 0
  }
  inner_product_param {
    num_output: 512
    weight_filler {
      type: "gaussian"
      std: 0.005
    }
    bias_filler {
      type: "constant"
      value: 1
    }
  }
}
layer {
  name: "relu6"
  type: "ReLU"
  bottom: "fc6"
  top: "fc6"
}
layer {
  name: "drop6"
  type: "Dropout"
  bottom: "fc6"
  top: "fc6"
  dropout_param {
    dropout_ratio: 0.5
  }
}
layer {
  name: "fc7"
  type: "InnerProduct"
  bottom: "fc6"
  top: "fc7"
  param {
    lr_mult: 1
    decay_mult: 1
  }
  param {
    lr_mult: 2
    decay_mult: 0
  }
  inner_product_param {
    num_output: 512
    weight_filler {
      type: "gaussian"
      std: 0.005
    }
    bias_filler {
      type: "constant"
      value: 1
    }
  }
}
layer {
  name: "relu7"
  type: "ReLU"
  bottom: "fc7"
  top: "fc7"
}
layer {
  name: "drop7"
  type: "Dropout"
  bottom: "fc7"
  top: "fc7"
  dropout_param {
    dropout_ratio: 0.5
  }
}
layer {
  name: "fc8"
  type: "InnerProduct"
  bottom: "fc7"
  top: "fc8"
  param {
    lr_mult: 10
    decay_mult: 1
  }
  param {
    lr_mult: 20
    decay_mult: 0
  }
  inner_product_param {
    num_output: 2
    weight_filler {
      type: "gaussian"
      std: 0.01
    }
    bias_filler {
      type: "constant"
      value: 0
    }
  }
}
layer {
  name: "accuracy"
  type: "Accuracy"
  bottom: "fc8"
  bottom: "label"
  top: "accuracy"
  include {
    phase: TEST
  }
}
layer {
  name: "loss"
  type: "SoftmaxWithLoss"
  bottom: "fc8"
  bottom: "label"
  top: "loss"
}
I0522 11:19:32.009783  2182 layer_factory.hpp:77] Creating layer data
I0522 11:19:32.026302  2182 db_lmdb.cpp:35] Opened lmdb /home/k/PycharmProjects/AgeGenderDeepLearning-master/Folds/lmdb/Test_fold_is_2/gender_val_lmdb
I0522 11:19:32.036684  2182 net.cpp:84] Creating Layer data
I0522 11:19:32.036701  2182 net.cpp:380] data -> data
I0522 11:19:32.036712  2182 net.cpp:380] data -> label
I0522 11:19:32.036723  2182 data_transformer.cpp:25] Loading mean file from: /home/k/PycharmProjects/AgeGenderDeepLearning-master/Folds/lmdb/Test_fold_is_2/mean.binaryproto
I0522 11:19:32.045517  2182 data_layer.cpp:45] output data size: 50,3,227,227
I0522 11:19:32.109174  2182 net.cpp:122] Setting up data
I0522 11:19:32.109215  2182 net.cpp:129] Top shape: 50 3 227 227 (7729350)
I0522 11:19:32.109220  2182 net.cpp:129] Top shape: 50 (50)
I0522 11:19:32.109223  2182 net.cpp:137] Memory required for data: 30917600
I0522 11:19:32.109230  2182 layer_factory.hpp:77] Creating layer label_data_1_split
I0522 11:19:32.109246  2182 net.cpp:84] Creating Layer label_data_1_split
I0522 11:19:32.109253  2182 net.cpp:406] label_data_1_split <- label
I0522 11:19:32.109264  2182 net.cpp:380] label_data_1_split -> label_data_1_split_0
I0522 11:19:32.109279  2182 net.cpp:380] label_data_1_split -> label_data_1_split_1
I0522 11:19:32.109354  2182 net.cpp:122] Setting up label_data_1_split
I0522 11:19:32.109364  2182 net.cpp:129] Top shape: 50 (50)
I0522 11:19:32.109367  2182 net.cpp:129] Top shape: 50 (50)
I0522 11:19:32.109369  2182 net.cpp:137] Memory required for data: 30918000
I0522 11:19:32.109372  2182 layer_factory.hpp:77] Creating layer conv1
I0522 11:19:32.109385  2182 net.cpp:84] Creating Layer conv1
I0522 11:19:32.109387  2182 net.cpp:406] conv1 <- data
I0522 11:19:32.109393  2182 net.cpp:380] conv1 -> conv1
I0522 11:19:32.115619  2182 net.cpp:122] Setting up conv1
I0522 11:19:32.115648  2182 net.cpp:129] Top shape: 50 96 56 56 (15052800)
I0522 11:19:32.115651  2182 net.cpp:137] Memory required for data: 91129200
I0522 11:19:32.115664  2182 layer_factory.hpp:77] Creating layer relu1
I0522 11:19:32.115672  2182 net.cpp:84] Creating Layer relu1
I0522 11:19:32.115679  2182 net.cpp:406] relu1 <- conv1
I0522 11:19:32.115689  2182 net.cpp:367] relu1 -> conv1 (in-place)
I0522 11:19:32.115870  2182 net.cpp:122] Setting up relu1
I0522 11:19:32.115880  2182 net.cpp:129] Top shape: 50 96 56 56 (15052800)
I0522 11:19:32.115895  2182 net.cpp:137] Memory required for data: 151340400
I0522 11:19:32.115898  2182 layer_factory.hpp:77] Creating layer pool1
I0522 11:19:32.115906  2182 net.cpp:84] Creating Layer pool1
I0522 11:19:32.115911  2182 net.cpp:406] pool1 <- conv1
I0522 11:19:32.115917  2182 net.cpp:380] pool1 -> pool1
I0522 11:19:32.115972  2182 net.cpp:122] Setting up pool1
I0522 11:19:32.115980  2182 net.cpp:129] Top shape: 50 96 28 28 (3763200)
I0522 11:19:32.115983  2182 net.cpp:137] Memory required for data: 166393200
I0522 11:19:32.115986  2182 layer_factory.hpp:77] Creating layer norm1
I0522 11:19:32.115993  2182 net.cpp:84] Creating Layer norm1
I0522 11:19:32.115996  2182 net.cpp:406] norm1 <- pool1
I0522 11:19:32.116001  2182 net.cpp:380] norm1 -> norm1
I0522 11:19:32.116693  2182 net.cpp:122] Setting up norm1
I0522 11:19:32.116703  2182 net.cpp:129] Top shape: 50 96 28 28 (3763200)
I0522 11:19:32.116719  2182 net.cpp:137] Memory required for data: 181446000
I0522 11:19:32.116722  2182 layer_factory.hpp:77] Creating layer conv2
I0522 11:19:32.116730  2182 net.cpp:84] Creating Layer conv2
I0522 11:19:32.116734  2182 net.cpp:406] conv2 <- norm1
I0522 11:19:32.116745  2182 net.cpp:380] conv2 -> conv2
I0522 11:19:32.124827  2182 net.cpp:122] Setting up conv2
I0522 11:19:32.124851  2182 net.cpp:129] Top shape: 50 256 28 28 (10035200)
I0522 11:19:32.124855  2182 net.cpp:137] Memory required for data: 221586800
I0522 11:19:32.124866  2182 layer_factory.hpp:77] Creating layer relu2
I0522 11:19:32.124876  2182 net.cpp:84] Creating Layer relu2
I0522 11:19:32.124881  2182 net.cpp:406] relu2 <- conv2
I0522 11:19:32.124891  2182 net.cpp:367] relu2 -> conv2 (in-place)
I0522 11:19:32.125604  2182 net.cpp:122] Setting up relu2
I0522 11:19:32.125615  2182 net.cpp:129] Top shape: 50 256 28 28 (10035200)
I0522 11:19:32.125619  2182 net.cpp:137] Memory required for data: 261727600
I0522 11:19:32.125622  2182 layer_factory.hpp:77] Creating layer pool2
I0522 11:19:32.125630  2182 net.cpp:84] Creating Layer pool2
I0522 11:19:32.125634  2182 net.cpp:406] pool2 <- conv2
I0522 11:19:32.125640  2182 net.cpp:380] pool2 -> pool2
I0522 11:19:32.125695  2182 net.cpp:122] Setting up pool2
I0522 11:19:32.125705  2182 net.cpp:129] Top shape: 50 256 14 14 (2508800)
I0522 11:19:32.125707  2182 net.cpp:137] Memory required for data: 271762800
I0522 11:19:32.125722  2182 layer_factory.hpp:77] Creating layer norm2
I0522 11:19:32.125730  2182 net.cpp:84] Creating Layer norm2
I0522 11:19:32.125732  2182 net.cpp:406] norm2 <- pool2
I0522 11:19:32.125737  2182 net.cpp:380] norm2 -> norm2
I0522 11:19:32.125928  2182 net.cpp:122] Setting up norm2
I0522 11:19:32.125939  2182 net.cpp:129] Top shape: 50 256 14 14 (2508800)
I0522 11:19:32.125942  2182 net.cpp:137] Memory required for data: 281798000
I0522 11:19:32.125946  2182 layer_factory.hpp:77] Creating layer conv3
I0522 11:19:32.125954  2182 net.cpp:84] Creating Layer conv3
I0522 11:19:32.125958  2182 net.cpp:406] conv3 <- norm2
I0522 11:19:32.125964  2182 net.cpp:380] conv3 -> conv3
I0522 11:19:32.137611  2182 net.cpp:122] Setting up conv3
I0522 11:19:32.137645  2182 net.cpp:129] Top shape: 50 384 14 14 (3763200)
I0522 11:19:32.137650  2182 net.cpp:137] Memory required for data: 296850800
I0522 11:19:32.137666  2182 layer_factory.hpp:77] Creating layer relu3
I0522 11:19:32.137679  2182 net.cpp:84] Creating Layer relu3
I0522 11:19:32.137686  2182 net.cpp:406] relu3 <- conv3
I0522 11:19:32.137701  2182 net.cpp:367] relu3 -> conv3 (in-place)
I0522 11:19:32.137900  2182 net.cpp:122] Setting up relu3
I0522 11:19:32.137923  2182 net.cpp:129] Top shape: 50 384 14 14 (3763200)
I0522 11:19:32.137926  2182 net.cpp:137] Memory required for data: 311903600
I0522 11:19:32.137930  2182 layer_factory.hpp:77] Creating layer pool5
I0522 11:19:32.137938  2182 net.cpp:84] Creating Layer pool5
I0522 11:19:32.137940  2182 net.cpp:406] pool5 <- conv3
I0522 11:19:32.137946  2182 net.cpp:380] pool5 -> pool5
I0522 11:19:32.138016  2182 net.cpp:122] Setting up pool5
I0522 11:19:32.138025  2182 net.cpp:129] Top shape: 50 384 7 7 (940800)
I0522 11:19:32.138028  2182 net.cpp:137] Memory required for data: 315666800
I0522 11:19:32.138031  2182 layer_factory.hpp:77] Creating layer fc6
I0522 11:19:32.138041  2182 net.cpp:84] Creating Layer fc6
I0522 11:19:32.138043  2182 net.cpp:406] fc6 <- pool5
I0522 11:19:32.138048  2182 net.cpp:380] fc6 -> fc6
I0522 11:19:32.246251  2182 net.cpp:122] Setting up fc6
I0522 11:19:32.246292  2182 net.cpp:129] Top shape: 50 512 (25600)
I0522 11:19:32.246296  2182 net.cpp:137] Memory required for data: 315769200
I0522 11:19:32.246309  2182 layer_factory.hpp:77] Creating layer relu6
I0522 11:19:32.246318  2182 net.cpp:84] Creating Layer relu6
I0522 11:19:32.246323  2182 net.cpp:406] relu6 <- fc6
I0522 11:19:32.246340  2182 net.cpp:367] relu6 -> fc6 (in-place)
I0522 11:19:32.246580  2182 net.cpp:122] Setting up relu6
I0522 11:19:32.246589  2182 net.cpp:129] Top shape: 50 512 (25600)
I0522 11:19:32.246604  2182 net.cpp:137] Memory required for data: 315871600
I0522 11:19:32.246608  2182 layer_factory.hpp:77] Creating layer drop6
I0522 11:19:32.246614  2182 net.cpp:84] Creating Layer drop6
I0522 11:19:32.246618  2182 net.cpp:406] drop6 <- fc6
I0522 11:19:32.246623  2182 net.cpp:367] drop6 -> fc6 (in-place)
I0522 11:19:32.246651  2182 net.cpp:122] Setting up drop6
I0522 11:19:32.246659  2182 net.cpp:129] Top shape: 50 512 (25600)
I0522 11:19:32.246661  2182 net.cpp:137] Memory required for data: 315974000
I0522 11:19:32.246665  2182 layer_factory.hpp:77] Creating layer fc7
I0522 11:19:32.246675  2182 net.cpp:84] Creating Layer fc7
I0522 11:19:32.246678  2182 net.cpp:406] fc7 <- fc6
I0522 11:19:32.246683  2182 net.cpp:380] fc7 -> fc7
I0522 11:19:32.249372  2182 net.cpp:122] Setting up fc7
I0522 11:19:32.249382  2182 net.cpp:129] Top shape: 50 512 (25600)
I0522 11:19:32.249384  2182 net.cpp:137] Memory required for data: 316076400
I0522 11:19:32.249405  2182 layer_factory.hpp:77] Creating layer relu7
I0522 11:19:32.249410  2182 net.cpp:84] Creating Layer relu7
I0522 11:19:32.249414  2182 net.cpp:406] relu7 <- fc7
I0522 11:19:32.249418  2182 net.cpp:367] relu7 -> fc7 (in-place)
I0522 11:19:32.250237  2182 net.cpp:122] Setting up relu7
I0522 11:19:32.250249  2182 net.cpp:129] Top shape: 50 512 (25600)
I0522 11:19:32.250252  2182 net.cpp:137] Memory required for data: 316178800
I0522 11:19:32.250255  2182 layer_factory.hpp:77] Creating layer drop7
I0522 11:19:32.250262  2182 net.cpp:84] Creating Layer drop7
I0522 11:19:32.250264  2182 net.cpp:406] drop7 <- fc7
I0522 11:19:32.250269  2182 net.cpp:367] drop7 -> fc7 (in-place)
I0522 11:19:32.250306  2182 net.cpp:122] Setting up drop7
I0522 11:19:32.250313  2182 net.cpp:129] Top shape: 50 512 (25600)
I0522 11:19:32.250316  2182 net.cpp:137] Memory required for data: 316281200
I0522 11:19:32.250319  2182 layer_factory.hpp:77] Creating layer fc8
I0522 11:19:32.250325  2182 net.cpp:84] Creating Layer fc8
I0522 11:19:32.250329  2182 net.cpp:406] fc8 <- fc7
I0522 11:19:32.250334  2182 net.cpp:380] fc8 -> fc8
I0522 11:19:32.250438  2182 net.cpp:122] Setting up fc8
I0522 11:19:32.250447  2182 net.cpp:129] Top shape: 50 2 (100)
I0522 11:19:32.250449  2182 net.cpp:137] Memory required for data: 316281600
I0522 11:19:32.250455  2182 layer_factory.hpp:77] Creating layer fc8_fc8_0_split
I0522 11:19:32.250461  2182 net.cpp:84] Creating Layer fc8_fc8_0_split
I0522 11:19:32.250464  2182 net.cpp:406] fc8_fc8_0_split <- fc8
I0522 11:19:32.250468  2182 net.cpp:380] fc8_fc8_0_split -> fc8_fc8_0_split_0
I0522 11:19:32.250474  2182 net.cpp:380] fc8_fc8_0_split -> fc8_fc8_0_split_1
I0522 11:19:32.250519  2182 net.cpp:122] Setting up fc8_fc8_0_split
I0522 11:19:32.250525  2182 net.cpp:129] Top shape: 50 2 (100)
I0522 11:19:32.250538  2182 net.cpp:129] Top shape: 50 2 (100)
I0522 11:19:32.250542  2182 net.cpp:137] Memory required for data: 316282400
I0522 11:19:32.250545  2182 layer_factory.hpp:77] Creating layer accuracy
I0522 11:19:32.250552  2182 net.cpp:84] Creating Layer accuracy
I0522 11:19:32.250555  2182 net.cpp:406] accuracy <- fc8_fc8_0_split_0
I0522 11:19:32.250560  2182 net.cpp:406] accuracy <- label_data_1_split_0
I0522 11:19:32.250566  2182 net.cpp:380] accuracy -> accuracy
…
