…
I0521 17:42:24.185659 16868 net.cpp:51] Initializing net from parameters: 
name: "CaffeNet"
state {
  phase: TRAIN
  level: 0
  stage: ""
}
layer {
  name: "data"
  type: "Data"
  top: "data"
  top: "label"
  include {
    phase: TRAIN
  }
  transform_param {
    mirror: true
    crop_size: 227
    mean_file: "/home/k/PycharmProjects/AgeGenderDeepLearning-master/Folds/lmdb/Test_fold_is_2/mean.binaryproto"
  }
  data_param {
    source: "/home/k/PycharmProjects/AgeGenderDeepLearning-master/Folds/lmdb/Test_fold_is_2/age_train_lmdb"
    batch_size: 50
    backend: LMDB
  }
}
layer {
  name: "conv1"
  type: "Convolution"
  bottom: "data"
  top: "conv1"
  param {
    lr_mult: 1
    decay_mult: 1
  }
  param {
    lr_mult: 2
    decay_mult: 0
  }
  convolution_param {
    num_output: 96
    kernel_size: 7
    stride: 4
    weight_filler {
      type: "gaussian"
      std: 0.01
    }
    bias_filler {
      type: "constant"
      value: 0
    }
  }
}
layer {
  name: "relu1"
  type: "ReLU"
  bottom: "conv1"
  top: "conv1"
}
layer {
  name: "pool1"
  type: "Pooling"
  bottom: "conv1"
  top: "pool1"
  pooling_param {
    pool: MAX
    kernel_size: 3
    stride: 2
  }
}
layer {
  name: "norm1"
  type: "LRN"
  bottom: "pool1"
  top: "norm1"
  lrn_param {
    local_size: 5
    alpha: 0.0001
    beta: 0.75
  }
}
layer {
  name: "conv2"
  type: "Convolution"
  bottom: "norm1"
  top: "conv2"
  param {
    lr_mult: 1
    decay_mult: 1
  }
  param {
    lr_mult: 2
    decay_mult: 0
  }
  convolution_param {
    num_output: 256
    pad: 2
    kernel_size: 5
    weight_filler {
      type: "gaussian"
      std: 0.01
    }
    bias_filler {
      type: "constant"
      value: 1
    }
  }
}
layer {
  name: "relu2"
  type: "ReLU"
  bottom: "conv2"
  top: "conv2"
}
layer {
  name: "pool2"
  type: "Pooling"
  bottom: "conv2"
  top: "pool2"
  pooling_param {
    pool: MAX
    kernel_size: 3
    stride: 2
  }
}
layer {
  name: "norm2"
  type: "LRN"
  bottom: "pool2"
  top: "norm2"
  lrn_param {
    local_size: 5
    alpha: 0.0001
    beta: 0.75
  }
}
layer {
  name: "conv3"
  type: "Convolution"
  bottom: "norm2"
  top: "conv3"
  param {
    lr_mult: 1
    decay_mult: 1
  }
  param {
    lr_mult: 2
    decay_mult: 0
  }
  convolution_param {
    num_output: 384
    pad: 1
    kernel_size: 3
    weight_filler {
      type: "gaussian"
      std: 0.01
    }
    bias_filler {
      type: "constant"
      value: 0
    }
  }
}
layer {
  name: "relu3"
  type: "ReLU"
  bottom: "conv3"
  top: "conv3"
}
layer {
  name: "pool5"
  type: "Pooling"
  bottom: "conv3"
  top: "pool5"
  pooling_param {
    pool: MAX
    kernel_size: 3
    stride: 2
  }
}
layer {
  name: "fc6"
  type: "InnerProduct"
  bottom: "pool5"
  top: "fc6"
  param {
    lr_mult: 1
    decay_mult: 1
  }
  param {
    lr_mult: 2
    decay_mult: 0
  }
  inner_product_param {
    num_output: 512
    weight_filler {
      type: "gaussian"
      std: 0.005
    }
    bias_filler {
      type: "constant"
      value: 1
    }
  }
}
layer {
  name: "relu6"
  type: "ReLU"
  bottom: "fc6"
  top: "fc6"
}
layer {
  name: "drop6"
  type: "Dropout"
  bottom: "fc6"
  top: "fc6"
  dropout_param {
    dropout_ratio: 0.5
  }
}
layer {
  name: "fc7"
  type: "InnerProduct"
  bottom: "fc6"
  top: "fc7"
  param {
    lr_mult: 1
    decay_mult: 1
  }
  param {
    lr_mult: 2
    decay_mult: 0
  }
  inner_product_param {
    num_output: 512
    weight_filler {
      type: "gaussian"
      std: 0.005
    }
    bias_filler {
      type: "constant"
      value: 1
    }
  }
}
layer {
  name: "relu7"
  type: "ReLU"
  bottom: "fc7"
  top: "fc7"
}
layer {
  name: "drop7"
  type: "Dropout"
  bottom: "fc7"
  top: "fc7"
  dropout_param {
    dropout_ratio: 0.5
  }
}
layer {
  name: "fc8"
  type: "InnerProduct"
  bottom: "fc7"
  top: "fc8"
  param {
    lr_mult: 10
    decay_mult: 1
  }
  param {
    lr_mult: 20
    decay_mult: 0
  }
  inner_product_param {
    num_output: 8
    weight_filler {
      type: "gaussian"
      std: 0.01
    }
    bias_filler {
      type: "constant"
      value: 0
    }
  }
}
layer {
  name: "loss"
  type: "SoftmaxWithLoss"
  bottom: "fc8"
  bottom: "label"
  top: "loss"
}
I0521 17:42:24.185802 16868 layer_factory.hpp:77] Creating layer data
I0521 17:42:24.207501 16868 db_lmdb.cpp:35] Opened lmdb /home/k/PycharmProjects/AgeGenderDeepLearning-master/Folds/lmdb/Test_fold_is_2/age_train_lmdb
I0521 17:42:24.225486 16868 net.cpp:84] Creating Layer data
I0521 17:42:24.225507 16868 net.cpp:380] data -> data
I0521 17:42:24.225538 16868 net.cpp:380] data -> label
I0521 17:42:24.225550 16868 data_transformer.cpp:25] Loading mean file from: /home/k/PycharmProjects/AgeGenderDeepLearning-master/Folds/lmdb/Test_fold_is_2/mean.binaryproto
I0521 17:42:24.266641 16868 data_layer.cpp:45] output data size: 50,3,227,227
I0521 17:42:24.350184 16868 net.cpp:122] Setting up data
I0521 17:42:24.350219 16868 net.cpp:129] Top shape: 50 3 227 227 (7729350)
I0521 17:42:24.350237 16868 net.cpp:129] Top shape: 50 (50)
I0521 17:42:24.350241 16868 net.cpp:137] Memory required for data: 30917600
I0521 17:42:24.350252 16868 layer_factory.hpp:77] Creating layer conv1
I0521 17:42:24.350275 16868 net.cpp:84] Creating Layer conv1
I0521 17:42:24.350281 16868 net.cpp:406] conv1 <- data
I0521 17:42:24.350297 16868 net.cpp:380] conv1 -> conv1
I0521 17:42:24.606482 16868 net.cpp:122] Setting up conv1
I0521 17:42:24.606521 16868 net.cpp:129] Top shape: 50 96 56 56 (15052800)
I0521 17:42:24.606526 16868 net.cpp:137] Memory required for data: 91128800
I0521 17:42:24.606550 16868 layer_factory.hpp:77] Creating layer relu1
I0521 17:42:24.606564 16868 net.cpp:84] Creating Layer relu1
I0521 17:42:24.606567 16868 net.cpp:406] relu1 <- conv1
I0521 17:42:24.606575 16868 net.cpp:367] relu1 -> conv1 (in-place)
I0521 17:42:24.606762 16868 net.cpp:122] Setting up relu1
I0521 17:42:24.606771 16868 net.cpp:129] Top shape: 50 96 56 56 (15052800)
I0521 17:42:24.606775 16868 net.cpp:137] Memory required for data: 151340000
I0521 17:42:24.606778 16868 layer_factory.hpp:77] Creating layer pool1
I0521 17:42:24.606786 16868 net.cpp:84] Creating Layer pool1
I0521 17:42:24.606788 16868 net.cpp:406] pool1 <- conv1
I0521 17:42:24.606793 16868 net.cpp:380] pool1 -> pool1
I0521 17:42:24.606837 16868 net.cpp:122] Setting up pool1
I0521 17:42:24.606844 16868 net.cpp:129] Top shape: 50 96 28 28 (3763200)
I0521 17:42:24.606848 16868 net.cpp:137] Memory required for data: 166392800
I0521 17:42:24.606850 16868 layer_factory.hpp:77] Creating layer norm1
I0521 17:42:24.606859 16868 net.cpp:84] Creating Layer norm1
I0521 17:42:24.606863 16868 net.cpp:406] norm1 <- pool1
I0521 17:42:24.606868 16868 net.cpp:380] norm1 -> norm1
I0521 17:42:24.607568 16868 net.cpp:122] Setting up norm1
I0521 17:42:24.607579 16868 net.cpp:129] Top shape: 50 96 28 28 (3763200)
I0521 17:42:24.607594 16868 net.cpp:137] Memory required for data: 181445600
I0521 17:42:24.607597 16868 layer_factory.hpp:77] Creating layer conv2
I0521 17:42:24.607609 16868 net.cpp:84] Creating Layer conv2
I0521 17:42:24.607614 16868 net.cpp:406] conv2 <- norm1
I0521 17:42:24.607640 16868 net.cpp:380] conv2 -> conv2
I0521 17:42:24.616072 16868 net.cpp:122] Setting up conv2
I0521 17:42:24.616102 16868 net.cpp:129] Top shape: 50 256 28 28 (10035200)
I0521 17:42:24.616106 16868 net.cpp:137] Memory required for data: 221586400
I0521 17:42:24.616117 16868 layer_factory.hpp:77] Creating layer relu2
I0521 17:42:24.616125 16868 net.cpp:84] Creating Layer relu2
I0521 17:42:24.616129 16868 net.cpp:406] relu2 <- conv2
I0521 17:42:24.616134 16868 net.cpp:367] relu2 -> conv2 (in-place)
I0521 17:42:24.616287 16868 net.cpp:122] Setting up relu2
I0521 17:42:24.616297 16868 net.cpp:129] Top shape: 50 256 28 28 (10035200)
I0521 17:42:24.616312 16868 net.cpp:137] Memory required for data: 261727200
I0521 17:42:24.616315 16868 layer_factory.hpp:77] Creating layer pool2
I0521 17:42:24.616322 16868 net.cpp:84] Creating Layer pool2
I0521 17:42:24.616325 16868 net.cpp:406] pool2 <- conv2
I0521 17:42:24.616330 16868 net.cpp:380] pool2 -> pool2
I0521 17:42:24.616366 16868 net.cpp:122] Setting up pool2
I0521 17:42:24.616374 16868 net.cpp:129] Top shape: 50 256 14 14 (2508800)
I0521 17:42:24.616377 16868 net.cpp:137] Memory required for data: 271762400
I0521 17:42:24.616380 16868 layer_factory.hpp:77] Creating layer norm2
I0521 17:42:24.616389 16868 net.cpp:84] Creating Layer norm2
I0521 17:42:24.616391 16868 net.cpp:406] norm2 <- pool2
I0521 17:42:24.616396 16868 net.cpp:380] norm2 -> norm2
I0521 17:42:24.616564 16868 net.cpp:122] Setting up norm2
I0521 17:42:24.616572 16868 net.cpp:129] Top shape: 50 256 14 14 (2508800)
I0521 17:42:24.616587 16868 net.cpp:137] Memory required for data: 281797600
I0521 17:42:24.616590 16868 layer_factory.hpp:77] Creating layer conv3
I0521 17:42:24.616600 16868 net.cpp:84] Creating Layer conv3
I0521 17:42:24.616605 16868 net.cpp:406] conv3 <- norm2
I0521 17:42:24.616610 16868 net.cpp:380] conv3 -> conv3
I0521 17:42:24.627914 16868 net.cpp:122] Setting up conv3
I0521 17:42:24.627939 16868 net.cpp:129] Top shape: 50 384 14 14 (3763200)
I0521 17:42:24.627943 16868 net.cpp:137] Memory required for data: 296850400
I0521 17:42:24.627967 16868 layer_factory.hpp:77] Creating layer relu3
I0521 17:42:24.627979 16868 net.cpp:84] Creating Layer relu3
I0521 17:42:24.627984 16868 net.cpp:406] relu3 <- conv3
I0521 17:42:24.627990 16868 net.cpp:367] relu3 -> conv3 (in-place)
I0521 17:42:24.628140 16868 net.cpp:122] Setting up relu3
I0521 17:42:24.628149 16868 net.cpp:129] Top shape: 50 384 14 14 (3763200)
I0521 17:42:24.628152 16868 net.cpp:137] Memory required for data: 311903200
I0521 17:42:24.628156 16868 layer_factory.hpp:77] Creating layer pool5
I0521 17:42:24.628162 16868 net.cpp:84] Creating Layer pool5
I0521 17:42:24.628165 16868 net.cpp:406] pool5 <- conv3
I0521 17:42:24.628170 16868 net.cpp:380] pool5 -> pool5
I0521 17:42:24.628226 16868 net.cpp:122] Setting up pool5
I0521 17:42:24.628233 16868 net.cpp:129] Top shape: 50 384 7 7 (940800)
I0521 17:42:24.628237 16868 net.cpp:137] Memory required for data: 315666400
I0521 17:42:24.628239 16868 layer_factory.hpp:77] Creating layer fc6
I0521 17:42:24.628247 16868 net.cpp:84] Creating Layer fc6
I0521 17:42:24.628250 16868 net.cpp:406] fc6 <- pool5
I0521 17:42:24.628257 16868 net.cpp:380] fc6 -> fc6
I0521 17:42:24.732717 16868 net.cpp:122] Setting up fc6
I0521 17:42:24.732753 16868 net.cpp:129] Top shape: 50 512 (25600)
I0521 17:42:24.732755 16868 net.cpp:137] Memory required for data: 315768800
I0521 17:42:24.732766 16868 layer_factory.hpp:77] Creating layer relu6
I0521 17:42:24.732777 16868 net.cpp:84] Creating Layer relu6
I0521 17:42:24.732781 16868 net.cpp:406] relu6 <- fc6
I0521 17:42:24.732798 16868 net.cpp:367] relu6 -> fc6 (in-place)
I0521 17:42:24.733588 16868 net.cpp:122] Setting up relu6
I0521 17:42:24.733598 16868 net.cpp:129] Top shape: 50 512 (25600)
I0521 17:42:24.733603 16868 net.cpp:137] Memory required for data: 315871200
I0521 17:42:24.733605 16868 layer_factory.hpp:77] Creating layer drop6
I0521 17:42:24.733611 16868 net.cpp:84] Creating Layer drop6
I0521 17:42:24.733615 16868 net.cpp:406] drop6 <- fc6
I0521 17:42:24.733650 16868 net.cpp:367] drop6 -> fc6 (in-place)
I0521 17:42:24.733682 16868 net.cpp:122] Setting up drop6
I0521 17:42:24.733690 16868 net.cpp:129] Top shape: 50 512 (25600)
I0521 17:42:24.733692 16868 net.cpp:137] Memory required for data: 315973600
I0521 17:42:24.733695 16868 layer_factory.hpp:77] Creating layer fc7
I0521 17:42:24.733703 16868 net.cpp:84] Creating Layer fc7
I0521 17:42:24.733706 16868 net.cpp:406] fc7 <- fc6
I0521 17:42:24.733711 16868 net.cpp:380] fc7 -> fc7
I0521 17:42:24.736377 16868 net.cpp:122] Setting up fc7
I0521 17:42:24.736387 16868 net.cpp:129] Top shape: 50 512 (25600)
I0521 17:42:24.736389 16868 net.cpp:137] Memory required for data: 316076000
I0521 17:42:24.736399 16868 layer_factory.hpp:77] Creating layer relu7
I0521 17:42:24.736407 16868 net.cpp:84] Creating Layer relu7
I0521 17:42:24.736409 16868 net.cpp:406] relu7 <- fc7
I0521 17:42:24.736414 16868 net.cpp:367] relu7 -> fc7 (in-place)
I0521 17:42:24.736572 16868 net.cpp:122] Setting up relu7
I0521 17:42:24.736580 16868 net.cpp:129] Top shape: 50 512 (25600)
I0521 17:42:24.736583 16868 net.cpp:137] Memory required for data: 316178400
I0521 17:42:24.736587 16868 layer_factory.hpp:77] Creating layer drop7
I0521 17:42:24.736591 16868 net.cpp:84] Creating Layer drop7
I0521 17:42:24.736594 16868 net.cpp:406] drop7 <- fc7
I0521 17:42:24.736599 16868 net.cpp:367] drop7 -> fc7 (in-place)
I0521 17:42:24.736632 16868 net.cpp:122] Setting up drop7
I0521 17:42:24.736639 16868 net.cpp:129] Top shape: 50 512 (25600)
I0521 17:42:24.736642 16868 net.cpp:137] Memory required for data: 316280800
I0521 17:42:24.736645 16868 layer_factory.hpp:77] Creating layer fc8
I0521 17:42:24.736650 16868 net.cpp:84] Creating Layer fc8
I0521 17:42:24.736654 16868 net.cpp:406] fc8 <- fc7
I0521 17:42:24.736660 16868 net.cpp:380] fc8 -> fc8
I0521 17:42:24.736800 16868 net.cpp:122] Setting up fc8
I0521 17:42:24.736809 16868 net.cpp:129] Top shape: 50 8 (400)
I0521 17:42:24.736811 16868 net.cpp:137] Memory required for data: 316282400
I0521 17:42:24.736817 16868 layer_factory.hpp:77] Creating layer loss
I0521 17:42:24.736822 16868 net.cpp:84] Creating Layer loss
I0521 17:42:24.736825 16868 net.cpp:406] loss <- fc8
I0521 17:42:24.736829 16868 net.cpp:406] loss <- label
I0521 17:42:24.736835 16868 net.cpp:380] loss -> loss
I0521 17:42:24.736855 16868 layer_factory.hpp:77] Creating layer loss
…
I0521 17:42:24.737527 16868 net.cpp:294] The NetState phase (1) differed from the phase (0) specified by a rule in layer data
I0521 17:42:24.737671 16868 net.cpp:51] Initializing net from parameters: 
name: "CaffeNet"
state {
  phase: TEST
}
layer {
  name: "data"
  type: "Data"
  top: "data"
  top: "label"
  include {
    phase: TEST
  }
  transform_param {
    mirror: false
    crop_size: 227
    mean_file: "/home/k/PycharmProjects/AgeGenderDeepLearning-master/Folds/lmdb/Test_fold_is_2/mean.binaryproto"
  }
  data_param {
    source: "/home/k/PycharmProjects/AgeGenderDeepLearning-master/Folds/lmdb/Test_fold_is_2/age_val_lmdb"
    batch_size: 50
    backend: LMDB
  }
}
layer {
  name: "conv1"
  type: "Convolution"
  bottom: "data"
  top: "conv1"
  param {
    lr_mult: 1
    decay_mult: 1
  }
  param {
    lr_mult: 2
    decay_mult: 0
  }
  convolution_param {
    num_output: 96
    kernel_size: 7
    stride: 4
    weight_filler {
      type: "gaussian"
      std: 0.01
    }
    bias_filler {
      type: "constant"
      value: 0
    }
  }
}
layer {
  name: "relu1"
  type: "ReLU"
  bottom: "conv1"
  top: "conv1"
}
layer {
  name: "pool1"
  type: "Pooling"
  bottom: "conv1"
  top: "pool1"
  pooling_param {
    pool: MAX
    kernel_size: 3
    stride: 2
  }
}
layer {
  name: "norm1"
  type: "LRN"
  bottom: "pool1"
  top: "norm1"
  lrn_param {
    local_size: 5
    alpha: 0.0001
    beta: 0.75
  }
}
layer {
  name: "conv2"
  type: "Convolution"
  bottom: "norm1"
  top: "conv2"
  param {
    lr_mult: 1
    decay_mult: 1
  }
  param {
    lr_mult: 2
    decay_mult: 0
  }
  convolution_param {
    num_output: 256
    pad: 2
    kernel_size: 5
    weight_filler {
      type: "gaussian"
      std: 0.01
    }
    bias_filler {
      type: "constant"
      value: 1
    }
  }
}
layer {
  name: "relu2"
  type: "ReLU"
  bottom: "conv2"
  top: "conv2"
}
layer {
  name: "pool2"
  type: "Pooling"
  bottom: "conv2"
  top: "pool2"
  pooling_param {
    pool: MAX
    kernel_size: 3
    stride: 2
  }
}
layer {
  name: "norm2"
  type: "LRN"
  bottom: "pool2"
  top: "norm2"
  lrn_param {
    local_size: 5
    alpha: 0.0001
    beta: 0.75
  }
}
layer {
  name: "conv3"
  type: "Convolution"
  bottom: "norm2"
  top: "conv3"
  param {
    lr_mult: 1
    decay_mult: 1
  }
  param {
    lr_mult: 2
    decay_mult: 0
  }
  convolution_param {
    num_output: 384
    pad: 1
    kernel_size: 3
    weight_filler {
      type: "gaussian"
      std: 0.01
    }
    bias_filler {
      type: "constant"
      value: 0
    }
  }
}
layer {
  name: "relu3"
  type: "ReLU"
  bottom: "conv3"
  top: "conv3"
}
layer {
  name: "pool5"
  type: "Pooling"
  bottom: "conv3"
  top: "pool5"
  pooling_param {
    pool: MAX
    kernel_size: 3
    stride: 2
  }
}
layer {
  name: "fc6"
  type: "InnerProduct"
  bottom: "pool5"
  top: "fc6"
  param {
    lr_mult: 1
    decay_mult: 1
  }
  param {
    lr_mult: 2
    decay_mult: 0
  }
  inner_product_param {
    num_output: 512
    weight_filler {
      type: "gaussian"
      std: 0.005
    }
    bias_filler {
      type: "constant"
      value: 1
    }
  }
}
layer {
  name: "relu6"
  type: "ReLU"
  bottom: "fc6"
  top: "fc6"
}
layer {
  name: "drop6"
  type: "Dropout"
  bottom: "fc6"
  top: "fc6"
  dropout_param {
    dropout_ratio: 0.5
  }
}
layer {
  name: "fc7"
  type: "InnerProduct"
  bottom: "fc6"
  top: "fc7"
  param {
    lr_mult: 1
    decay_mult: 1
  }
  param {
    lr_mult: 2
    decay_mult: 0
  }
  inner_product_param {
    num_output: 512
    weight_filler {
      type: "gaussian"
      std: 0.005
    }
    bias_filler {
      type: "constant"
      value: 1
    }
  }
}
layer {
  name: "relu7"
  type: "ReLU"
  bottom: "fc7"
  top: "fc7"
}
layer {
  name: "drop7"
  type: "Dropout"
  bottom: "fc7"
  top: "fc7"
  dropout_param {
    dropout_ratio: 0.5
  }
}
layer {
  name: "fc8"
  type: "InnerProduct"
  bottom: "fc7"
  top: "fc8"
  param {
    lr_mult: 10
    decay_mult: 1
  }
  param {
    lr_mult: 20
    decay_mult: 0
  }
  inner_product_param {
    num_output: 8
    weight_filler {
      type: "gaussian"
      std: 0.01
    }
    bias_filler {
      type: "constant"
      value: 0
    }
  }
}
layer {
  name: "accuracy"
  type: "Accuracy"
  bottom: "fc8"
  bottom: "label"
  top: "accuracy"
  include {
    phase: TEST
  }
}
layer {
  name: "loss"
  type: "SoftmaxWithLoss"
  bottom: "fc8"
  bottom: "label"
  top: "loss"
}
I0521 17:42:24.737761 16868 layer_factory.hpp:77] Creating layer data
I0521 17:42:24.791852 16868 db_lmdb.cpp:35] Opened lmdb /home/k/PycharmProjects/AgeGenderDeepLearning-master/Folds/lmdb/Test_fold_is_2/age_val_lmdb
I0521 17:42:24.795892 16868 net.cpp:84] Creating Layer data
I0521 17:42:24.795914 16868 net.cpp:380] data -> data
I0521 17:42:24.795928 16868 net.cpp:380] data -> label
I0521 17:42:24.795938 16868 data_transformer.cpp:25] Loading mean file from: /home/k/PycharmProjects/AgeGenderDeepLearning-master/Folds/lmdb/Test_fold_is_2/mean.binaryproto
I0521 17:42:24.811085 16868 data_layer.cpp:45] output data size: 50,3,227,227
I0521 17:42:24.881511 16868 net.cpp:122] Setting up data
I0521 17:42:24.881544 16868 net.cpp:129] Top shape: 50 3 227 227 (7729350)
I0521 17:42:24.881551 16868 net.cpp:129] Top shape: 50 (50)
I0521 17:42:24.881553 16868 net.cpp:137] Memory required for data: 30917600
I0521 17:42:24.881561 16868 layer_factory.hpp:77] Creating layer label_data_1_split
I0521 17:42:24.881575 16868 net.cpp:84] Creating Layer label_data_1_split
I0521 17:42:24.881580 16868 net.cpp:406] label_data_1_split <- label
I0521 17:42:24.881588 16868 net.cpp:380] label_data_1_split -> label_data_1_split_0
I0521 17:42:24.881600 16868 net.cpp:380] label_data_1_split -> label_data_1_split_1
I0521 17:42:24.881675 16868 net.cpp:122] Setting up label_data_1_split
I0521 17:42:24.881693 16868 net.cpp:129] Top shape: 50 (50)
I0521 17:42:24.881697 16868 net.cpp:129] Top shape: 50 (50)
I0521 17:42:24.881700 16868 net.cpp:137] Memory required for data: 30918000
I0521 17:42:24.881703 16868 layer_factory.hpp:77] Creating layer conv1
I0521 17:42:24.881716 16868 net.cpp:84] Creating Layer conv1
I0521 17:42:24.881719 16868 net.cpp:406] conv1 <- data
I0521 17:42:24.881724 16868 net.cpp:380] conv1 -> conv1
I0521 17:42:24.888097 16868 net.cpp:122] Setting up conv1
I0521 17:42:24.888113 16868 net.cpp:129] Top shape: 50 96 56 56 (15052800)
I0521 17:42:24.888118 16868 net.cpp:137] Memory required for data: 91129200
I0521 17:42:24.888129 16868 layer_factory.hpp:77] Creating layer relu1
I0521 17:42:24.888137 16868 net.cpp:84] Creating Layer relu1
I0521 17:42:24.888141 16868 net.cpp:406] relu1 <- conv1
I0521 17:42:24.888147 16868 net.cpp:367] relu1 -> conv1 (in-place)
I0521 17:42:24.888319 16868 net.cpp:122] Setting up relu1
I0521 17:42:24.888329 16868 net.cpp:129] Top shape: 50 96 56 56 (15052800)
I0521 17:42:24.888334 16868 net.cpp:137] Memory required for data: 151340400
I0521 17:42:24.888336 16868 layer_factory.hpp:77] Creating layer pool1
I0521 17:42:24.888345 16868 net.cpp:84] Creating Layer pool1
I0521 17:42:24.888348 16868 net.cpp:406] pool1 <- conv1
I0521 17:42:24.888355 16868 net.cpp:380] pool1 -> pool1
I0521 17:42:24.888396 16868 net.cpp:122] Setting up pool1
I0521 17:42:24.888404 16868 net.cpp:129] Top shape: 50 96 28 28 (3763200)
I0521 17:42:24.888407 16868 net.cpp:137] Memory required for data: 166393200
I0521 17:42:24.888411 16868 layer_factory.hpp:77] Creating layer norm1
I0521 17:42:24.888419 16868 net.cpp:84] Creating Layer norm1
I0521 17:42:24.888422 16868 net.cpp:406] norm1 <- pool1
I0521 17:42:24.888428 16868 net.cpp:380] norm1 -> norm1
I0521 17:42:24.889156 16868 net.cpp:122] Setting up norm1
I0521 17:42:24.889169 16868 net.cpp:129] Top shape: 50 96 28 28 (3763200)
I0521 17:42:24.889173 16868 net.cpp:137] Memory required for data: 181446000
I0521 17:42:24.889178 16868 layer_factory.hpp:77] Creating layer conv2
I0521 17:42:24.889186 16868 net.cpp:84] Creating Layer conv2
I0521 17:42:24.889190 16868 net.cpp:406] conv2 <- norm1
I0521 17:42:24.889196 16868 net.cpp:380] conv2 -> conv2
I0521 17:42:24.897425 16868 net.cpp:122] Setting up conv2
I0521 17:42:24.897449 16868 net.cpp:129] Top shape: 50 256 28 28 (10035200)
I0521 17:42:24.897454 16868 net.cpp:137] Memory required for data: 221586800
I0521 17:42:24.897466 16868 layer_factory.hpp:77] Creating layer relu2
I0521 17:42:24.897475 16868 net.cpp:84] Creating Layer relu2
I0521 17:42:24.897480 16868 net.cpp:406] relu2 <- conv2
I0521 17:42:24.897485 16868 net.cpp:367] relu2 -> conv2 (in-place)
I0521 17:42:24.898243 16868 net.cpp:122] Setting up relu2
I0521 17:42:24.898257 16868 net.cpp:129] Top shape: 50 256 28 28 (10035200)
I0521 17:42:24.898260 16868 net.cpp:137] Memory required for data: 261727600
I0521 17:42:24.898263 16868 layer_factory.hpp:77] Creating layer pool2
I0521 17:42:24.898272 16868 net.cpp:84] Creating Layer pool2
I0521 17:42:24.898277 16868 net.cpp:406] pool2 <- conv2
I0521 17:42:24.898283 16868 net.cpp:380] pool2 -> pool2
I0521 17:42:24.898324 16868 net.cpp:122] Setting up pool2
I0521 17:42:24.898332 16868 net.cpp:129] Top shape: 50 256 14 14 (2508800)
I0521 17:42:24.898336 16868 net.cpp:137] Memory required for data: 271762800
I0521 17:42:24.898339 16868 layer_factory.hpp:77] Creating layer norm2
I0521 17:42:24.898346 16868 net.cpp:84] Creating Layer norm2
I0521 17:42:24.898350 16868 net.cpp:406] norm2 <- pool2
I0521 17:42:24.898355 16868 net.cpp:380] norm2 -> norm2
I0521 17:42:24.898525 16868 net.cpp:122] Setting up norm2
I0521 17:42:24.898535 16868 net.cpp:129] Top shape: 50 256 14 14 (2508800)
I0521 17:42:24.898540 16868 net.cpp:137] Memory required for data: 281798000
I0521 17:42:24.898542 16868 layer_factory.hpp:77] Creating layer conv3
I0521 17:42:24.898552 16868 net.cpp:84] Creating Layer conv3
I0521 17:42:24.898556 16868 net.cpp:406] conv3 <- norm2
I0521 17:42:24.898562 16868 net.cpp:380] conv3 -> conv3
I0521 17:42:24.911597 16868 net.cpp:122] Setting up conv3
I0521 17:42:24.911633 16868 net.cpp:129] Top shape: 50 384 14 14 (3763200)
I0521 17:42:24.911638 16868 net.cpp:137] Memory required for data: 296850800
I0521 17:42:24.911653 16868 layer_factory.hpp:77] Creating layer relu3
I0521 17:42:24.911662 16868 net.cpp:84] Creating Layer relu3
I0521 17:42:24.911667 16868 net.cpp:406] relu3 <- conv3
I0521 17:42:24.911674 16868 net.cpp:367] relu3 -> conv3 (in-place)
I0521 17:42:24.911839 16868 net.cpp:122] Setting up relu3
I0521 17:42:24.911850 16868 net.cpp:129] Top shape: 50 384 14 14 (3763200)
I0521 17:42:24.911854 16868 net.cpp:137] Memory required for data: 311903600
I0521 17:42:24.911856 16868 layer_factory.hpp:77] Creating layer pool5
I0521 17:42:24.911864 16868 net.cpp:84] Creating Layer pool5
I0521 17:42:24.911867 16868 net.cpp:406] pool5 <- conv3
I0521 17:42:24.911872 16868 net.cpp:380] pool5 -> pool5
I0521 17:42:24.911932 16868 net.cpp:122] Setting up pool5
I0521 17:42:24.911941 16868 net.cpp:129] Top shape: 50 384 7 7 (940800)
I0521 17:42:24.911943 16868 net.cpp:137] Memory required for data: 315666800
I0521 17:42:24.911947 16868 layer_factory.hpp:77] Creating layer fc6
I0521 17:42:24.911965 16868 net.cpp:84] Creating Layer fc6
I0521 17:42:24.911969 16868 net.cpp:406] fc6 <- pool5
I0521 17:42:24.911975 16868 net.cpp:380] fc6 -> fc6
I0521 17:42:25.018728 16868 net.cpp:122] Setting up fc6
I0521 17:42:25.018771 16868 net.cpp:129] Top shape: 50 512 (25600)
I0521 17:42:25.018776 16868 net.cpp:137] Memory required for data: 315769200
I0521 17:42:25.018790 16868 layer_factory.hpp:77] Creating layer relu6
I0521 17:42:25.018800 16868 net.cpp:84] Creating Layer relu6
I0521 17:42:25.018805 16868 net.cpp:406] relu6 <- fc6
I0521 17:42:25.018812 16868 net.cpp:367] relu6 -> fc6 (in-place)
I0521 17:42:25.019042 16868 net.cpp:122] Setting up relu6
I0521 17:42:25.019053 16868 net.cpp:129] Top shape: 50 512 (25600)
I0521 17:42:25.019057 16868 net.cpp:137] Memory required for data: 315871600
I0521 17:42:25.019059 16868 layer_factory.hpp:77] Creating layer drop6
I0521 17:42:25.019068 16868 net.cpp:84] Creating Layer drop6
I0521 17:42:25.019070 16868 net.cpp:406] drop6 <- fc6
I0521 17:42:25.019076 16868 net.cpp:367] drop6 -> fc6 (in-place)
I0521 17:42:25.019106 16868 net.cpp:122] Setting up drop6
I0521 17:42:25.019114 16868 net.cpp:129] Top shape: 50 512 (25600)
I0521 17:42:25.019117 16868 net.cpp:137] Memory required for data: 315974000
I0521 17:42:25.019120 16868 layer_factory.hpp:77] Creating layer fc7
I0521 17:42:25.019130 16868 net.cpp:84] Creating Layer fc7
I0521 17:42:25.019134 16868 net.cpp:406] fc7 <- fc6
I0521 17:42:25.019140 16868 net.cpp:380] fc7 -> fc7
I0521 17:42:25.024425 16868 net.cpp:122] Setting up fc7
I0521 17:42:25.024436 16868 net.cpp:129] Top shape: 50 512 (25600)
I0521 17:42:25.024451 16868 net.cpp:137] Memory required for data: 316076400
I0521 17:42:25.024462 16868 layer_factory.hpp:77] Creating layer relu7
I0521 17:42:25.024469 16868 net.cpp:84] Creating Layer relu7
I0521 17:42:25.024472 16868 net.cpp:406] relu7 <- fc7
I0521 17:42:25.024477 16868 net.cpp:367] relu7 -> fc7 (in-place)
I0521 17:42:25.025362 16868 net.cpp:122] Setting up relu7
I0521 17:42:25.025373 16868 net.cpp:129] Top shape: 50 512 (25600)
I0521 17:42:25.025377 16868 net.cpp:137] Memory required for data: 316178800
I0521 17:42:25.025382 16868 layer_factory.hpp:77] Creating layer drop7
I0521 17:42:25.025387 16868 net.cpp:84] Creating Layer drop7
I0521 17:42:25.025390 16868 net.cpp:406] drop7 <- fc7
I0521 17:42:25.025395 16868 net.cpp:367] drop7 -> fc7 (in-place)
I0521 17:42:25.025431 16868 net.cpp:122] Setting up drop7
I0521 17:42:25.025439 16868 net.cpp:129] Top shape: 50 512 (25600)
I0521 17:42:25.025441 16868 net.cpp:137] Memory required for data: 316281200
I0521 17:42:25.025444 16868 layer_factory.hpp:77] Creating layer fc8
I0521 17:42:25.025462 16868 net.cpp:84] Creating Layer fc8
I0521 17:42:25.025466 16868 net.cpp:406] fc8 <- fc7
I0521 17:42:25.025472 16868 net.cpp:380] fc8 -> fc8
I0521 17:42:25.025619 16868 net.cpp:122] Setting up fc8
I0521 17:42:25.025626 16868 net.cpp:129] Top shape: 50 8 (400)
I0521 17:42:25.025629 16868 net.cpp:137] Memory required for data: 316282800
I0521 17:42:25.025635 16868 layer_factory.hpp:77] Creating layer fc8_fc8_0_split
I0521 17:42:25.025652 16868 net.cpp:84] Creating Layer fc8_fc8_0_split
I0521 17:42:25.025657 16868 net.cpp:406] fc8_fc8_0_split <- fc8
I0521 17:42:25.025663 16868 net.cpp:380] fc8_fc8_0_split -> fc8_fc8_0_split_0
I0521 17:42:25.025669 16868 net.cpp:380] fc8_fc8_0_split -> fc8_fc8_0_split_1
I0521 17:42:25.025704 16868 net.cpp:122] Setting up fc8_fc8_0_split
I0521 17:42:25.025712 16868 net.cpp:129] Top shape: 50 8 (400)
I0521 17:42:25.025717 16868 net.cpp:129] Top shape: 50 8 (400)
I0521 17:42:25.025718 16868 net.cpp:137] Memory required for data: 316286000
I0521 17:42:25.025722 16868 layer_factory.hpp:77] Creating layer accuracy
I0521 17:42:25.025728 16868 net.cpp:84] Creating Layer accuracy
I0521 17:42:25.025732 16868 net.cpp:406] accuracy <- fc8_fc8_0_split_0
I0521 17:42:25.025737 16868 net.cpp:406] accuracy <- label_data_1_split_0
I0521 17:42:25.025741 16868 net.cpp:380] accuracy -> accuracy
…
