…
I0524 17:57:35.164003   808 net.cpp:51] Initializing net from parameters: 
name: "ResNet-18"
state {
  phase: TRAIN
  level: 0
  stage: ""
}
layer {
  name: "data"
  type: "Data"
  top: "data"
  top: "label"
  include {
    phase: TRAIN
  }
  transform_param {
    mirror: true
    crop_size: 224
    mean_file: "/home/k/PycharmProjects/AgeGenderDeepLearning-master/Folds/lmdb/Test_fold_is_0/mean.binaryproto"
  }
  data_param {
    source: "/home/k/PycharmProjects/AgeGenderDeepLearning-master/Folds/lmdb/Test_fold_is_0/age_train_lmdb"
    batch_size: 50
    backend: LMDB
  }
}
layer {
  name: "conv1"
  type: "Convolution"
  bottom: "data"
  top: "conv1"
  convolution_param {
    num_output: 64
    bias_term: false
    pad: 3
    kernel_size: 7
    stride: 2
    weight_filler {
      type: "msra"
    }
  }
}
layer {
  name: "bn_conv1"
  type: "BatchNorm"
  bottom: "conv1"
  top: "conv1"
  batch_norm_param {
    moving_average_fraction: 0.9
  }
}
layer {
  name: "scale_conv1"
  type: "Scale"
  bottom: "conv1"
  top: "conv1"
  scale_param {
    bias_term: true
  }
}
layer {
  name: "conv1_relu"
  type: "ReLU"
  bottom: "conv1"
  top: "conv1"
}
layer {
  name: "pool1"
  type: "Pooling"
  bottom: "conv1"
  top: "pool1"
  pooling_param {
    pool: MAX
    kernel_size: 3
    stride: 2
  }
}
layer {
  name: "res2a_branch1"
  type: "Convolution"
  bottom: "pool1"
  top: "res2a_branch1"
  convolution_param {
    num_output: 64
    bias_term: false
    pad: 0
    kernel_size: 1
    stride: 1
    weight_filler {
      type: "msra"
    }
  }
}
layer {
  name: "bn2a_branch1"
  type: "BatchNorm"
  bottom: "res2a_branch1"
  top: "res2a_branch1"
  batch_norm_param {
    moving_average_fraction: 0.9
  }
}
layer {
  name: "scale2a_branch1"
  type: "Scale"
  bottom: "res2a_branch1"
  top: "res2a_branch1"
  scale_param {
    bias_term: true
  }
}
layer {
  name: "res2a_branch2a"
  type: "Convolution"
  bottom: "pool1"
  top: "res2a_branch2a"
  convolution_param {
    num_output: 64
    bias_term: false
    pad: 1
    kernel_size: 3
    stride: 1
    weight_filler {
      type: "msra"
    }
  }
}
layer {
  name: "bn2a_branch2a"
  type: "BatchNorm"
  bottom: "res2a_branch2a"
  top: "res2a_branch2a"
  batch_norm_param {
    moving_average_fraction: 0.9
  }
}
layer {
  name: "scale2a_branch2a"
  type: "Scale"
  bottom: "res2a_branch2a"
  top: "res2a_branch2a"
  scale_param {
    bias_term: true
  }
}
layer {
  name: "res2a_branch2a_relu"
  type: "ReLU"
  bottom: "res2a_branch2a"
  top: "res2a_branch2a"
}
layer {
  name: "res2a_branch2b"
  type: "Convolution"
  bottom: "res2a_branch2a"
  top: "res2a_branch2b"
  convolution_param {
    num_output: 64
    bias_term: false
    pad: 1
    kernel_size: 3
    stride: 1
    weight_filler {
      type: "msra"
    }
  }
}
layer {
  name: "bn2a_branch2b"
  type: "BatchNorm"
  bottom: "res2a_branch2b"
  top: "res2a_branch2b"
  batch_norm_param {
    moving_average_fraction: 0.9
  }
}
layer {
  name: "scale2a_branch2b"
  type: "Scale"
  bottom: "res2a_branch2b"
  top: "res2a_branch2b"
  scale_param {
    bias_term: true
  }
}
layer {
  name: "res2a"
  type: "Eltwise"
  bottom: "res2a_branch1"
  bottom: "res2a_branch2b"
  top: "res2a"
  eltwise_param {
    operation: SUM
  }
}
layer {
  name: "res2a_relu"
  type: "ReLU"
  bottom: "res2a"
  top: "res2a"
}
layer {
  name: "res2b_branch2a"
  type: "Convolution"
  bottom: "res2a"
  top: "res2b_branch2a"
  convolution_param {
    num_output: 64
    bias_term: false
    pad: 1
    kernel_size: 3
    stride: 1
    weight_filler {
      type: "msra"
    }
  }
}
layer {
  name: "bn2b_branch2a"
  type: "BatchNorm"
  bottom: "res2b_branch2a"
  top: "res2b_branch2a"
  batch_norm_param {
    moving_average_fraction: 0.9
  }
}
layer {
  name: "scale2b_branch2a"
  type: "Scale"
  bottom: "res2b_branch2a"
  top: "res2b_branch2a"
  scale_param {
    bias_term: true
  }
}
layer {
  name: "res2b_branch2a_relu"
  type: "ReLU"
  bottom: "res2b_branch2a"
  top: "res2b_branch2a"
}
layer {
  name: "res2b_branch2b"
  type: "Convolution"
  bottom: "res2b_branch2a"
  top: "res2b_branch2b"
  convolution_param {
    num_output: 64
    bias_term: false
    pad: 1
    kernel_size: 3
    stride: 1
    weight_filler {
      type: "msra"
    }
  }
}
layer {
  name: "bn2b_branch2b"
  type: "BatchNorm"
  bottom: "res2b_branch2b"
  top: "res2b_branch2b"
  batch_norm_param {
    moving_average_fraction: 0.9
  }
}
layer {
  name: "scale2b_branch2b"
  type: "Scale"
  bottom: "res2b_branch2b"
  top: "res2b_branch2b"
  scale_param {
    bias_term: true
  }
}
layer {
  name: "res2b"
  type: "Eltwise"
  bottom: "res2a"
  bottom: "res2b_branch2b"
  top: "res2b"
  eltwise_param {
    operation: SUM
  }
}
layer {
  name: "res2b_relu"
  type: "ReLU"
  bottom: "res2b"
  top: "res2b"
}
layer {
  name: "res3a_branch1"
  type: "Convolution"
  bottom: "res2b"
  top: "res3a_branch1"
  convolution_param {
    num_output: 128
    bias_term: false
    pad: 0
    kernel_size: 1
    stride: 2
    weight_filler {
      type: "msra"
    }
  }
}
layer {
  name: "bn3a_branch1"
  type: "BatchNorm"
  bottom: "res3a_branch1"
  top: "res3a_branch1"
  batch_norm_param {
    moving_average_fraction: 0.9
  }
}
layer {
  name: "scale3a_branch1"
  type: "Scale"
  bottom: "res3a_branch1"
  top: "res3a_branch1"
  scale_param {
    bias_term: true
  }
}
layer {
  name: "res3a_branch2a"
  type: "Convolution"
  bottom: "res2b"
  top: "res3a_branch2a"
  convolution_param {
    num_output: 128
    bias_term: false
    pad: 1
    kernel_size: 3
    stride: 2
    weight_filler {
      type: "msra"
    }
  }
}
layer {
  name: "bn3a_branch2a"
  type: "BatchNorm"
  bottom: "res3a_branch2a"
  top: "res3a_branch2a"
  batch_norm_param {
    moving_average_fraction: 0.9
  }
}
layer {
  name: "scale3a_branch2a"
  type: "Scale"
  bottom: "res3a_branch2a"
  top: "res3a_branch2a"
  scale_param {
    bias_term: true
  }
}
layer {
  name: "res3a_branch2a_relu"
  type: "ReLU"
  bottom: "res3a_branch2a"
  top: "res3a_branch2a"
}
layer {
  name: "res3a_branch2b"
  type: "Convolution"
  bottom: "res3a_branch2a"
  top: "res3a_branch2b"
  convolution_param {
    num_output: 128
    bias_term: false
    pad: 1
    kernel_size: 3
    stride: 1
    weight_filler {
      type: "msra"
    }
  }
}
layer {
  name: "bn3a_branch2b"
  type: "BatchNorm"
  bottom: "res3a_branch2b"
  top: "res3a_branch2b"
  batch_norm_param {
    moving_average_fraction: 0.9
  }
}
layer {
  name: "scale3a_branch2b"
  type: "Scale"
  bottom: "res3a_branch2b"
  top: "res3a_branch2b"
  scale_param {
    bias_term: true
  }
}
layer {
  name: "res3a"
  type: "Eltwise"
  bottom: "res3a_branch1"
  bottom: "res3a_branch2b"
  top: "res3a"
  eltwise_param {
    operation: SUM
  }
}
layer {
  name: "res3a_relu"
  type: "ReLU"
  bottom: "res3a"
  top: "res3a"
}
layer {
  name: "res3b_branch2a"
  type: "Convolution"
  bottom: "res3a"
  top: "res3b_branch2a"
  convolution_param {
    num_output: 128
    bias_term: false
    pad: 1
    kernel_size: 3
    stride: 1
    weight_filler {
      type: "msra"
    }
  }
}
layer {
  name: "bn3b_branch2a"
  type: "BatchNorm"
  bottom: "res3b_branch2a"
  top: "res3b_branch2a"
  batch_norm_param {
    moving_average_fraction: 0.9
  }
}
layer {
  name: "scale3b_branch2a"
  type: "Scale"
  bottom: "res3b_branch2a"
  top: "res3b_branch2a"
  scale_param {
    bias_term: true
  }
}
layer {
  name: "res3b_branch2a_relu"
  type: "ReLU"
  bottom: "res3b_branch2a"
  top: "res3b_branch2a"
}
layer {
  name: "res3b_branch2b"
  type: "Convolution"
  bottom: "res3b_branch2a"
  top: "res3b_branch2b"
  convolution_param {
    num_output: 128
    bias_term: false
    pad: 1
    kernel_size: 3
    stride: 1
    weight_filler {
      type: "msra"
    }
  }
}
layer {
  name: "bn3b_branch2b"
  type: "BatchNorm"
  bottom: "res3b_branch2b"
  top: "res3b_branch2b"
  batch_norm_param {
    moving_average_fraction: 0.9
  }
}
layer {
  name: "scale3b_branch2b"
  type: "Scale"
  bottom: "res3b_branch2b"
  top: "res3b_branch2b"
  scale_param {
    bias_term: true
  }
}
layer {
  name: "res3b"
  type: "Eltwise"
  bottom: "res3a"
  bottom: "res3b_branch2b"
  top: "res3b"
  eltwise_param {
    operation: SUM
  }
}
layer {
  name: "res3b_relu"
  type: "ReLU"
  bottom: "res3b"
  top: "res3b"
}
layer {
  name: "res4a_branch1"
  type: "Convolution"
  bottom: "res3b"
  top: "res4a_branch1"
  convolution_param {
    num_output: 256
    bias_term: false
    pad: 0
    kernel_size: 1
    stride: 2
    weight_filler {
      type: "msra"
    }
  }
}
layer {
  name: "bn4a_branch1"
  type: "BatchNorm"
  bottom: "res4a_branch1"
  top: "res4a_branch1"
  batch_norm_param {
    moving_average_fraction: 0.9
  }
}
layer {
  name: "scale4a_branch1"
  type: "Scale"
  bottom: "res4a_branch1"
  top: "res4a_branch1"
  scale_param {
    bias_term: true
  }
}
layer {
  name: "res4a_branch2a"
  type: "Convolution"
  bottom: "res3b"
  top: "res4a_branch2a"
  convolution_param {
    num_output: 256
    bias_term: false
    pad: 1
    kernel_size: 3
    stride: 2
    weight_filler {
      type: "msra"
    }
  }
}
layer {
  name: "bn4a_branch2a"
  type: "BatchNorm"
  bottom: "res4a_branch2a"
  top: "res4a_branch2a"
  batch_norm_param {
    moving_average_fraction: 0.9
  }
}
layer {
  name: "scale4a_branch2a"
  type: "Scale"
  bottom: "res4a_branch2a"
  top: "res4a_branch2a"
  scale_param {
    bias_term: true
  }
}
layer {
  name: "res4a_branch2a_relu"
  type: "ReLU"
  bottom: "res4a_branch2a"
  top: "res4a_branch2a"
}
layer {
  name: "res4a_branch2b"
  type: "Convolution"
  bottom: "res4a_branch2a"
  top: "res4a_branch2b"
  convolution_param {
    num_output: 256
    bias_term: false
    pad: 1
    kernel_size: 3
    stride: 1
    weight_filler {
      type: "msra"
    }
  }
}
layer {
  name: "bn4a_branch2b"
  type: "BatchNorm"
  bottom: "res4a_branch2b"
  top: "res4a_branch2b"
  batch_norm_param {
    moving_average_fraction: 0.9
  }
}
layer {
  name: "scale4a_branch2b"
  type: "Scale"
  bottom: "res4a_branch2b"
  top: "res4a_branch2b"
  scale_param {
    bias_term: true
  }
}
layer {
  name: "res4a"
  type: "Eltwise"
  bottom: "res4a_branch1"
  bottom: "res4a_branch2b"
  top: "res4a"
  eltwise_param {
    operation: SUM
  }
}
layer {
  name: "res4a_relu"
  type: "ReLU"
  bottom: "res4a"
  top: "res4a"
}
layer {
  name: "res4b_branch2a"
  type: "Convolution"
  bottom: "res4a"
  top: "res4b_branch2a"
  convolution_param {
    num_output: 256
    bias_term: false
    pad: 1
    kernel_size: 3
    stride: 1
    weight_filler {
      type: "msra"
    }
  }
}
layer {
  name: "bn4b_branch2a"
  type: "BatchNorm"
  bottom: "res4b_branch2a"
  top: "res4b_branch2a"
  batch_norm_param {
    moving_average_fraction: 0.9
  }
}
layer {
  name: "scale4b_branch2a"
  type: "Scale"
  bottom: "res4b_branch2a"
  top: "res4b_branch2a"
  scale_param {
    bias_term: true
  }
}
layer {
  name: "res4b_branch2a_relu"
  type: "ReLU"
  bottom: "res4b_branch2a"
  top: "res4b_branch2a"
}
layer {
  name: "res4b_branch2b"
  type: "Convolution"
  bottom: "res4b_branch2a"
  top: "res4b_branch2b"
  convolution_param {
    num_output: 256
    bias_term: false
    pad: 1
    kernel_size: 3
    stride: 1
    weight_filler {
      type: "msra"
    }
  }
}
layer {
  name: "bn4b_branch2b"
  type: "BatchNorm"
  bottom: "res4b_branch2b"
  top: "res4b_branch2b"
  batch_norm_param {
    moving_average_fraction: 0.9
  }
}
layer {
  name: "scale4b_branch2b"
  type: "Scale"
  bottom: "res4b_branch2b"
  top: "res4b_branch2b"
  scale_param {
    bias_term: true
  }
}
layer {
  name: "res4b"
  type: "Eltwise"
  bottom: "res4a"
  bottom: "res4b_branch2b"
  top: "res4b"
  eltwise_param {
    operation: SUM
  }
}
layer {
  name: "res4b_relu"
  type: "ReLU"
  bottom: "res4b"
  top: "res4b"
}
layer {
  name: "res5a_branch1"
  type: "Convolution"
  bottom: "res4b"
  top: "res5a_branch1"
  convolution_param {
    num_output: 512
    bias_term: false
    pad: 0
    kernel_size: 1
    stride: 2
    weight_filler {
      type: "msra"
    }
  }
}
layer {
  name: "bn5a_branch1"
  type: "BatchNorm"
  bottom: "res5a_branch1"
  top: "res5a_branch1"
  batch_norm_param {
    moving_average_fraction: 0.9
  }
}
layer {
  name: "scale5a_branch1"
  type: "Scale"
  bottom: "res5a_branch1"
  top: "res5a_branch1"
  scale_param {
    bias_term: true
  }
}
layer {
  name: "res5a_branch2a"
  type: "Convolution"
  bottom: "res4b"
  top: "res5a_branch2a"
  convolution_param {
    num_output: 512
    bias_term: false
    pad: 1
    kernel_size: 3
    stride: 2
    weight_filler {
      type: "msra"
    }
  }
}
layer {
  name: "bn5a_branch2a"
  type: "BatchNorm"
  bottom: "res5a_branch2a"
  top: "res5a_branch2a"
  batch_norm_param {
    moving_average_fraction: 0.9
  }
}
layer {
  name: "scale5a_branch2a"
  type: "Scale"
  bottom: "res5a_branch2a"
  top: "res5a_branch2a"
  scale_param {
    bias_term: true
  }
}
layer {
  name: "res5a_branch2a_relu"
  type: "ReLU"
  bottom: "res5a_branch2a"
  top: "res5a_branch2a"
}
layer {
  name: "res5a_branch2b"
  type: "Convolution"
  bottom: "res5a_branch2a"
  top: "res5a_branch2b"
  convolution_param {
    num_output: 512
    bias_term: false
    pad: 1
    kernel_size: 3
    stride: 1
    weight_filler {
      type: "msra"
    }
  }
}
layer {
  name: "bn5a_branch2b"
  type: "BatchNorm"
  bottom: "res5a_branch2b"
  top: "res5a_branch2b"
  batch_norm_param {
    moving_average_fraction: 0.9
  }
}
layer {
  name: "scale5a_branch2b"
  type: "Scale"
  bottom: "res5a_branch2b"
  top: "res5a_branch2b"
  scale_param {
    bias_term: true
  }
}
layer {
  name: "res5a"
  type: "Eltwise"
  bottom: "res5a_branch1"
  bottom: "res5a_branch2b"
  top: "res5a"
  eltwise_param {
    operation: SUM
  }
}
layer {
  name: "res5a_relu"
  type: "ReLU"
  bottom: "res5a"
  top: "res5a"
}
layer {
  name: "res5b_branch2a"
  type: "Convolution"
  bottom: "res5a"
  top: "res5b_branch2a"
  convolution_param {
    num_output: 512
    bias_term: false
    pad: 1
    kernel_size: 3
    stride: 1
    weight_filler {
      type: "msra"
    }
  }
}
layer {
  name: "bn5b_branch2a"
  type: "BatchNorm"
  bottom: "res5b_branch2a"
  top: "res5b_branch2a"
  batch_norm_param {
    moving_average_fraction: 0.9
  }
}
layer {
  name: "scale5b_branch2a"
  type: "Scale"
  bottom: "res5b_branch2a"
  top: "res5b_branch2a"
  scale_param {
    bias_term: true
  }
}
layer {
  name: "res5b_branch2a_relu"
  type: "ReLU"
  bottom: "res5b_branch2a"
  top: "res5b_branch2a"
}
layer {
  name: "res5b_branch2b"
  type: "Convolution"
  bottom: "res5b_branch2a"
  top: "res5b_branch2b"
  convolution_param {
    num_output: 512
    bias_term: false
    pad: 1
    kernel_size: 3
    stride: 1
    weight_filler {
      type: "msra"
    }
  }
}
layer {
  name: "bn5b_branch2b"
  type: "BatchNorm"
  bottom: "res5b_branch2b"
  top: "res5b_branch2b"
  batch_norm_param {
    moving_average_fraction: 0.9
  }
}
layer {
  name: "scale5b_branch2b"
  type: "Scale"
  bottom: "res5b_branch2b"
  top: "res5b_branch2b"
  scale_param {
    bias_term: true
  }
}
layer {
  name: "res5b"
  type: "Eltwise"
  bottom: "res5a"
  bottom: "res5b_branch2b"
  top: "res5b"
  eltwise_param {
    operation: SUM
  }
}
layer {
  name: "res5b_relu"
  type: "ReLU"
  bottom: "res5b"
  top: "res5b"
}
layer {
  name: "pool5"
  type: "Pooling"
  bottom: "res5b"
  top: "pool5"
  pooling_param {
    pool: AVE
    kernel_size: 7
    stride: 1
  }
}
layer {
  name: "fc8"
  type: "InnerProduct"
  bottom: "pool5"
  top: "fc8"
  param {
    lr_mult: 1
    decay_mult: 1
  }
  param {
    lr_mult: 2
    decay_mult: 1
  }
  inner_product_param {
    num_output: 8
    weight_filler {
      type: "xavier"
    }
    bias_filler {
      type: "constant"
      value: 0
    }
  }
}
layer {
  name: "loss"
  type: "SoftmaxWithLoss"
  bottom: "fc8"
  bottom: "label"
  top: "loss"
}
I0524 17:57:35.164286   808 layer_factory.hpp:77] Creating layer data
I0524 17:57:35.164384   808 db_lmdb.cpp:35] Opened lmdb /home/k/PycharmProjects/AgeGenderDeepLearning-master/Folds/lmdb/Test_fold_is_0/age_train_lmdb
I0524 17:57:35.164414   808 net.cpp:84] Creating Layer data
I0524 17:57:35.164423   808 net.cpp:380] data -> data
I0524 17:57:35.164444   808 net.cpp:380] data -> label
I0524 17:57:35.164456   808 data_transformer.cpp:25] Loading mean file from: /home/k/PycharmProjects/AgeGenderDeepLearning-master/Folds/lmdb/Test_fold_is_0/mean.binaryproto
I0524 17:57:35.167209   808 data_layer.cpp:45] output data size: 50,3,224,224
I0524 17:57:35.228636   808 net.cpp:122] Setting up data
I0524 17:57:35.228665   808 net.cpp:129] Top shape: 50 3 224 224 (7526400)
I0524 17:57:35.228672   808 net.cpp:129] Top shape: 50 (50)
I0524 17:57:35.228674   808 net.cpp:137] Memory required for data: 30105800
I0524 17:57:35.228695   808 layer_factory.hpp:77] Creating layer conv1
I0524 17:57:35.228718   808 net.cpp:84] Creating Layer conv1
I0524 17:57:35.228725   808 net.cpp:406] conv1 <- data
I0524 17:57:35.228739   808 net.cpp:380] conv1 -> conv1
I0524 17:57:35.473549   808 net.cpp:122] Setting up conv1
I0524 17:57:35.473582   808 net.cpp:129] Top shape: 50 64 112 112 (40140800)
I0524 17:57:35.473587   808 net.cpp:137] Memory required for data: 190669000
I0524 17:57:35.473608   808 layer_factory.hpp:77] Creating layer bn_conv1
I0524 17:57:35.473633   808 net.cpp:84] Creating Layer bn_conv1
I0524 17:57:35.473637   808 net.cpp:406] bn_conv1 <- conv1
I0524 17:57:35.473644   808 net.cpp:367] bn_conv1 -> conv1 (in-place)
I0524 17:57:35.473817   808 net.cpp:122] Setting up bn_conv1
I0524 17:57:35.473826   808 net.cpp:129] Top shape: 50 64 112 112 (40140800)
I0524 17:57:35.473830   808 net.cpp:137] Memory required for data: 351232200
I0524 17:57:35.473840   808 layer_factory.hpp:77] Creating layer scale_conv1
I0524 17:57:35.473847   808 net.cpp:84] Creating Layer scale_conv1
I0524 17:57:35.473850   808 net.cpp:406] scale_conv1 <- conv1
I0524 17:57:35.473855   808 net.cpp:367] scale_conv1 -> conv1 (in-place)
I0524 17:57:35.473906   808 layer_factory.hpp:77] Creating layer scale_conv1
I0524 17:57:35.474022   808 net.cpp:122] Setting up scale_conv1
I0524 17:57:35.474031   808 net.cpp:129] Top shape: 50 64 112 112 (40140800)
I0524 17:57:35.474035   808 net.cpp:137] Memory required for data: 511795400
I0524 17:57:35.474042   808 layer_factory.hpp:77] Creating layer conv1_relu
I0524 17:57:35.474050   808 net.cpp:84] Creating Layer conv1_relu
I0524 17:57:35.474052   808 net.cpp:406] conv1_relu <- conv1
I0524 17:57:35.474057   808 net.cpp:367] conv1_relu -> conv1 (in-place)
I0524 17:57:35.474215   808 net.cpp:122] Setting up conv1_relu
I0524 17:57:35.474225   808 net.cpp:129] Top shape: 50 64 112 112 (40140800)
I0524 17:57:35.474227   808 net.cpp:137] Memory required for data: 672358600
I0524 17:57:35.474231   808 layer_factory.hpp:77] Creating layer pool1
I0524 17:57:35.474236   808 net.cpp:84] Creating Layer pool1
I0524 17:57:35.474239   808 net.cpp:406] pool1 <- conv1
I0524 17:57:35.474244   808 net.cpp:380] pool1 -> pool1
I0524 17:57:35.474298   808 net.cpp:122] Setting up pool1
I0524 17:57:35.474306   808 net.cpp:129] Top shape: 50 64 56 56 (10035200)
I0524 17:57:35.474309   808 net.cpp:137] Memory required for data: 712499400
I0524 17:57:35.474313   808 layer_factory.hpp:77] Creating layer pool1_pool1_0_split
I0524 17:57:35.474318   808 net.cpp:84] Creating Layer pool1_pool1_0_split
I0524 17:57:35.474320   808 net.cpp:406] pool1_pool1_0_split <- pool1
I0524 17:57:35.474325   808 net.cpp:380] pool1_pool1_0_split -> pool1_pool1_0_split_0
I0524 17:57:35.474333   808 net.cpp:380] pool1_pool1_0_split -> pool1_pool1_0_split_1
I0524 17:57:35.474359   808 net.cpp:122] Setting up pool1_pool1_0_split
I0524 17:57:35.474366   808 net.cpp:129] Top shape: 50 64 56 56 (10035200)
I0524 17:57:35.474386   808 net.cpp:129] Top shape: 50 64 56 56 (10035200)
I0524 17:57:35.474390   808 net.cpp:137] Memory required for data: 792781000
I0524 17:57:35.474393   808 layer_factory.hpp:77] Creating layer res2a_branch1
I0524 17:57:35.474403   808 net.cpp:84] Creating Layer res2a_branch1
I0524 17:57:35.474406   808 net.cpp:406] res2a_branch1 <- pool1_pool1_0_split_0
I0524 17:57:35.474412   808 net.cpp:380] res2a_branch1 -> res2a_branch1
I0524 17:57:35.476001   808 net.cpp:122] Setting up res2a_branch1
I0524 17:57:35.476013   808 net.cpp:129] Top shape: 50 64 56 56 (10035200)
I0524 17:57:35.476029   808 net.cpp:137] Memory required for data: 832921800
I0524 17:57:35.476035   808 layer_factory.hpp:77] Creating layer bn2a_branch1
I0524 17:57:35.476044   808 net.cpp:84] Creating Layer bn2a_branch1
I0524 17:57:35.476049   808 net.cpp:406] bn2a_branch1 <- res2a_branch1
I0524 17:57:35.476054   808 net.cpp:367] bn2a_branch1 -> res2a_branch1 (in-place)
I0524 17:57:35.476203   808 net.cpp:122] Setting up bn2a_branch1
I0524 17:57:35.476212   808 net.cpp:129] Top shape: 50 64 56 56 (10035200)
I0524 17:57:35.476227   808 net.cpp:137] Memory required for data: 873062600
I0524 17:57:35.476236   808 layer_factory.hpp:77] Creating layer scale2a_branch1
I0524 17:57:35.476243   808 net.cpp:84] Creating Layer scale2a_branch1
I0524 17:57:35.476248   808 net.cpp:406] scale2a_branch1 <- res2a_branch1
I0524 17:57:35.476253   808 net.cpp:367] scale2a_branch1 -> res2a_branch1 (in-place)
I0524 17:57:35.476285   808 layer_factory.hpp:77] Creating layer scale2a_branch1
I0524 17:57:35.476372   808 net.cpp:122] Setting up scale2a_branch1
I0524 17:57:35.476382   808 net.cpp:129] Top shape: 50 64 56 56 (10035200)
I0524 17:57:35.476385   808 net.cpp:137] Memory required for data: 913203400
I0524 17:57:35.476392   808 layer_factory.hpp:77] Creating layer res2a_branch2a
I0524 17:57:35.476399   808 net.cpp:84] Creating Layer res2a_branch2a
I0524 17:57:35.476403   808 net.cpp:406] res2a_branch2a <- pool1_pool1_0_split_1
I0524 17:57:35.476409   808 net.cpp:380] res2a_branch2a -> res2a_branch2a
I0524 17:57:35.478343   808 net.cpp:122] Setting up res2a_branch2a
I0524 17:57:35.478358   808 net.cpp:129] Top shape: 50 64 56 56 (10035200)
I0524 17:57:35.478363   808 net.cpp:137] Memory required for data: 953344200
I0524 17:57:35.478368   808 layer_factory.hpp:77] Creating layer bn2a_branch2a
I0524 17:57:35.478376   808 net.cpp:84] Creating Layer bn2a_branch2a
I0524 17:57:35.478380   808 net.cpp:406] bn2a_branch2a <- res2a_branch2a
I0524 17:57:35.478386   808 net.cpp:367] bn2a_branch2a -> res2a_branch2a (in-place)
I0524 17:57:35.478535   808 net.cpp:122] Setting up bn2a_branch2a
I0524 17:57:35.478544   808 net.cpp:129] Top shape: 50 64 56 56 (10035200)
I0524 17:57:35.478549   808 net.cpp:137] Memory required for data: 993485000
I0524 17:57:35.478556   808 layer_factory.hpp:77] Creating layer scale2a_branch2a
I0524 17:57:35.478564   808 net.cpp:84] Creating Layer scale2a_branch2a
I0524 17:57:35.478567   808 net.cpp:406] scale2a_branch2a <- res2a_branch2a
I0524 17:57:35.478572   808 net.cpp:367] scale2a_branch2a -> res2a_branch2a (in-place)
I0524 17:57:35.478605   808 layer_factory.hpp:77] Creating layer scale2a_branch2a
I0524 17:57:35.478695   808 net.cpp:122] Setting up scale2a_branch2a
I0524 17:57:35.478704   808 net.cpp:129] Top shape: 50 64 56 56 (10035200)
I0524 17:57:35.478708   808 net.cpp:137] Memory required for data: 1033625800
I0524 17:57:35.478716   808 layer_factory.hpp:77] Creating layer res2a_branch2a_relu
I0524 17:57:35.478724   808 net.cpp:84] Creating Layer res2a_branch2a_relu
I0524 17:57:35.478727   808 net.cpp:406] res2a_branch2a_relu <- res2a_branch2a
I0524 17:57:35.478732   808 net.cpp:367] res2a_branch2a_relu -> res2a_branch2a (in-place)
I0524 17:57:35.478863   808 net.cpp:122] Setting up res2a_branch2a_relu
I0524 17:57:35.478873   808 net.cpp:129] Top shape: 50 64 56 56 (10035200)
I0524 17:57:35.478876   808 net.cpp:137] Memory required for data: 1073766600
I0524 17:57:35.478880   808 layer_factory.hpp:77] Creating layer res2a_branch2b
I0524 17:57:35.478899   808 net.cpp:84] Creating Layer res2a_branch2b
I0524 17:57:35.478904   808 net.cpp:406] res2a_branch2b <- res2a_branch2a
I0524 17:57:35.478910   808 net.cpp:380] res2a_branch2b -> res2a_branch2b
I0524 17:57:35.480165   808 net.cpp:122] Setting up res2a_branch2b
I0524 17:57:35.480176   808 net.cpp:129] Top shape: 50 64 56 56 (10035200)
I0524 17:57:35.480181   808 net.cpp:137] Memory required for data: 1113907400
I0524 17:57:35.480186   808 layer_factory.hpp:77] Creating layer bn2a_branch2b
I0524 17:57:35.480193   808 net.cpp:84] Creating Layer bn2a_branch2b
I0524 17:57:35.480197   808 net.cpp:406] bn2a_branch2b <- res2a_branch2b
I0524 17:57:35.480202   808 net.cpp:367] bn2a_branch2b -> res2a_branch2b (in-place)
I0524 17:57:35.480348   808 net.cpp:122] Setting up bn2a_branch2b
I0524 17:57:35.480356   808 net.cpp:129] Top shape: 50 64 56 56 (10035200)
I0524 17:57:35.480360   808 net.cpp:137] Memory required for data: 1154048200
I0524 17:57:35.480368   808 layer_factory.hpp:77] Creating layer scale2a_branch2b
I0524 17:57:35.480376   808 net.cpp:84] Creating Layer scale2a_branch2b
I0524 17:57:35.480381   808 net.cpp:406] scale2a_branch2b <- res2a_branch2b
I0524 17:57:35.480386   808 net.cpp:367] scale2a_branch2b -> res2a_branch2b (in-place)
I0524 17:57:35.480419   808 layer_factory.hpp:77] Creating layer scale2a_branch2b
I0524 17:57:35.480507   808 net.cpp:122] Setting up scale2a_branch2b
I0524 17:57:35.480516   808 net.cpp:129] Top shape: 50 64 56 56 (10035200)
I0524 17:57:35.480520   808 net.cpp:137] Memory required for data: 1194189000
I0524 17:57:35.480526   808 layer_factory.hpp:77] Creating layer res2a
I0524 17:57:35.480533   808 net.cpp:84] Creating Layer res2a
I0524 17:57:35.480538   808 net.cpp:406] res2a <- res2a_branch1
I0524 17:57:35.480542   808 net.cpp:406] res2a <- res2a_branch2b
I0524 17:57:35.480546   808 net.cpp:380] res2a -> res2a
I0524 17:57:35.480571   808 net.cpp:122] Setting up res2a
I0524 17:57:35.480579   808 net.cpp:129] Top shape: 50 64 56 56 (10035200)
I0524 17:57:35.480583   808 net.cpp:137] Memory required for data: 1234329800
I0524 17:57:35.480587   808 layer_factory.hpp:77] Creating layer res2a_relu
I0524 17:57:35.480592   808 net.cpp:84] Creating Layer res2a_relu
I0524 17:57:35.480595   808 net.cpp:406] res2a_relu <- res2a
I0524 17:57:35.480600   808 net.cpp:367] res2a_relu -> res2a (in-place)
I0524 17:57:35.481086   808 net.cpp:122] Setting up res2a_relu
I0524 17:57:35.481097   808 net.cpp:129] Top shape: 50 64 56 56 (10035200)
I0524 17:57:35.481101   808 net.cpp:137] Memory required for data: 1274470600
I0524 17:57:35.481106   808 layer_factory.hpp:77] Creating layer res2a_res2a_relu_0_split
I0524 17:57:35.481112   808 net.cpp:84] Creating Layer res2a_res2a_relu_0_split
I0524 17:57:35.481115   808 net.cpp:406] res2a_res2a_relu_0_split <- res2a
I0524 17:57:35.481120   808 net.cpp:380] res2a_res2a_relu_0_split -> res2a_res2a_relu_0_split_0
I0524 17:57:35.481128   808 net.cpp:380] res2a_res2a_relu_0_split -> res2a_res2a_relu_0_split_1
I0524 17:57:35.481160   808 net.cpp:122] Setting up res2a_res2a_relu_0_split
I0524 17:57:35.481168   808 net.cpp:129] Top shape: 50 64 56 56 (10035200)
I0524 17:57:35.481173   808 net.cpp:129] Top shape: 50 64 56 56 (10035200)
I0524 17:57:35.481176   808 net.cpp:137] Memory required for data: 1354752200
I0524 17:57:35.481179   808 layer_factory.hpp:77] Creating layer res2b_branch2a
I0524 17:57:35.481186   808 net.cpp:84] Creating Layer res2b_branch2a
I0524 17:57:35.481191   808 net.cpp:406] res2b_branch2a <- res2a_res2a_relu_0_split_0
I0524 17:57:35.481196   808 net.cpp:380] res2b_branch2a -> res2b_branch2a
I0524 17:57:35.482130   808 net.cpp:122] Setting up res2b_branch2a
I0524 17:57:35.482141   808 net.cpp:129] Top shape: 50 64 56 56 (10035200)
I0524 17:57:35.482144   808 net.cpp:137] Memory required for data: 1394893000
I0524 17:57:35.482149   808 layer_factory.hpp:77] Creating layer bn2b_branch2a
I0524 17:57:35.482156   808 net.cpp:84] Creating Layer bn2b_branch2a
I0524 17:57:35.482161   808 net.cpp:406] bn2b_branch2a <- res2b_branch2a
I0524 17:57:35.482178   808 net.cpp:367] bn2b_branch2a -> res2b_branch2a (in-place)
I0524 17:57:35.482334   808 net.cpp:122] Setting up bn2b_branch2a
I0524 17:57:35.482343   808 net.cpp:129] Top shape: 50 64 56 56 (10035200)
I0524 17:57:35.482347   808 net.cpp:137] Memory required for data: 1435033800
I0524 17:57:35.482354   808 layer_factory.hpp:77] Creating layer scale2b_branch2a
I0524 17:57:35.482362   808 net.cpp:84] Creating Layer scale2b_branch2a
I0524 17:57:35.482367   808 net.cpp:406] scale2b_branch2a <- res2b_branch2a
I0524 17:57:35.482372   808 net.cpp:367] scale2b_branch2a -> res2b_branch2a (in-place)
I0524 17:57:35.482406   808 layer_factory.hpp:77] Creating layer scale2b_branch2a
I0524 17:57:35.482503   808 net.cpp:122] Setting up scale2b_branch2a
I0524 17:57:35.482512   808 net.cpp:129] Top shape: 50 64 56 56 (10035200)
I0524 17:57:35.482517   808 net.cpp:137] Memory required for data: 1475174600
I0524 17:57:35.482522   808 layer_factory.hpp:77] Creating layer res2b_branch2a_relu
I0524 17:57:35.482529   808 net.cpp:84] Creating Layer res2b_branch2a_relu
I0524 17:57:35.482534   808 net.cpp:406] res2b_branch2a_relu <- res2b_branch2a
I0524 17:57:35.482539   808 net.cpp:367] res2b_branch2a_relu -> res2b_branch2a (in-place)
I0524 17:57:35.483027   808 net.cpp:122] Setting up res2b_branch2a_relu
I0524 17:57:35.483039   808 net.cpp:129] Top shape: 50 64 56 56 (10035200)
I0524 17:57:35.483042   808 net.cpp:137] Memory required for data: 1515315400
I0524 17:57:35.483047   808 layer_factory.hpp:77] Creating layer res2b_branch2b
I0524 17:57:35.483054   808 net.cpp:84] Creating Layer res2b_branch2b
I0524 17:57:35.483060   808 net.cpp:406] res2b_branch2b <- res2b_branch2a
I0524 17:57:35.483067   808 net.cpp:380] res2b_branch2b -> res2b_branch2b
I0524 17:57:35.484367   808 net.cpp:122] Setting up res2b_branch2b
I0524 17:57:35.484380   808 net.cpp:129] Top shape: 50 64 56 56 (10035200)
I0524 17:57:35.484385   808 net.cpp:137] Memory required for data: 1555456200
I0524 17:57:35.484390   808 layer_factory.hpp:77] Creating layer bn2b_branch2b
I0524 17:57:35.484397   808 net.cpp:84] Creating Layer bn2b_branch2b
I0524 17:57:35.484402   808 net.cpp:406] bn2b_branch2b <- res2b_branch2b
I0524 17:57:35.484407   808 net.cpp:367] bn2b_branch2b -> res2b_branch2b (in-place)
I0524 17:57:35.484562   808 net.cpp:122] Setting up bn2b_branch2b
I0524 17:57:35.484570   808 net.cpp:129] Top shape: 50 64 56 56 (10035200)
I0524 17:57:35.484575   808 net.cpp:137] Memory required for data: 1595597000
I0524 17:57:35.484586   808 layer_factory.hpp:77] Creating layer scale2b_branch2b
I0524 17:57:35.484596   808 net.cpp:84] Creating Layer scale2b_branch2b
I0524 17:57:35.484599   808 net.cpp:406] scale2b_branch2b <- res2b_branch2b
I0524 17:57:35.484604   808 net.cpp:367] scale2b_branch2b -> res2b_branch2b (in-place)
I0524 17:57:35.484642   808 layer_factory.hpp:77] Creating layer scale2b_branch2b
I0524 17:57:35.484740   808 net.cpp:122] Setting up scale2b_branch2b
I0524 17:57:35.484750   808 net.cpp:129] Top shape: 50 64 56 56 (10035200)
I0524 17:57:35.484753   808 net.cpp:137] Memory required for data: 1635737800
I0524 17:57:35.484760   808 layer_factory.hpp:77] Creating layer res2b
I0524 17:57:35.484767   808 net.cpp:84] Creating Layer res2b
I0524 17:57:35.484771   808 net.cpp:406] res2b <- res2a_res2a_relu_0_split_1
I0524 17:57:35.484776   808 net.cpp:406] res2b <- res2b_branch2b
I0524 17:57:35.484782   808 net.cpp:380] res2b -> res2b
I0524 17:57:35.484805   808 net.cpp:122] Setting up res2b
I0524 17:57:35.484813   808 net.cpp:129] Top shape: 50 64 56 56 (10035200)
I0524 17:57:35.484817   808 net.cpp:137] Memory required for data: 1675878600
I0524 17:57:35.484820   808 layer_factory.hpp:77] Creating layer res2b_relu
I0524 17:57:35.484825   808 net.cpp:84] Creating Layer res2b_relu
I0524 17:57:35.484829   808 net.cpp:406] res2b_relu <- res2b
I0524 17:57:35.484834   808 net.cpp:367] res2b_relu -> res2b (in-place)
I0524 17:57:35.484973   808 net.cpp:122] Setting up res2b_relu
I0524 17:57:35.484984   808 net.cpp:129] Top shape: 50 64 56 56 (10035200)
I0524 17:57:35.484997   808 net.cpp:137] Memory required for data: 1716019400
I0524 17:57:35.485002   808 layer_factory.hpp:77] Creating layer res2b_res2b_relu_0_split
I0524 17:57:35.485007   808 net.cpp:84] Creating Layer res2b_res2b_relu_0_split
I0524 17:57:35.485010   808 net.cpp:406] res2b_res2b_relu_0_split <- res2b
I0524 17:57:35.485015   808 net.cpp:380] res2b_res2b_relu_0_split -> res2b_res2b_relu_0_split_0
I0524 17:57:35.485026   808 net.cpp:380] res2b_res2b_relu_0_split -> res2b_res2b_relu_0_split_1
I0524 17:57:35.485064   808 net.cpp:122] Setting up res2b_res2b_relu_0_split
I0524 17:57:35.485072   808 net.cpp:129] Top shape: 50 64 56 56 (10035200)
I0524 17:57:35.485079   808 net.cpp:129] Top shape: 50 64 56 56 (10035200)
I0524 17:57:35.485082   808 net.cpp:137] Memory required for data: 1796301000
I0524 17:57:35.485085   808 layer_factory.hpp:77] Creating layer res3a_branch1
I0524 17:57:35.485095   808 net.cpp:84] Creating Layer res3a_branch1
I0524 17:57:35.485100   808 net.cpp:406] res3a_branch1 <- res2b_res2b_relu_0_split_0
I0524 17:57:35.485105   808 net.cpp:380] res3a_branch1 -> res3a_branch1
I0524 17:57:35.486521   808 net.cpp:122] Setting up res3a_branch1
I0524 17:57:35.486536   808 net.cpp:129] Top shape: 50 128 28 28 (5017600)
I0524 17:57:35.486539   808 net.cpp:137] Memory required for data: 1816371400
I0524 17:57:35.486544   808 layer_factory.hpp:77] Creating layer bn3a_branch1
I0524 17:57:35.486552   808 net.cpp:84] Creating Layer bn3a_branch1
I0524 17:57:35.486557   808 net.cpp:406] bn3a_branch1 <- res3a_branch1
I0524 17:57:35.486563   808 net.cpp:367] bn3a_branch1 -> res3a_branch1 (in-place)
I0524 17:57:35.487404   808 net.cpp:122] Setting up bn3a_branch1
I0524 17:57:35.487418   808 net.cpp:129] Top shape: 50 128 28 28 (5017600)
I0524 17:57:35.487421   808 net.cpp:137] Memory required for data: 1836441800
I0524 17:57:35.487431   808 layer_factory.hpp:77] Creating layer scale3a_branch1
I0524 17:57:35.487444   808 net.cpp:84] Creating Layer scale3a_branch1
I0524 17:57:35.487449   808 net.cpp:406] scale3a_branch1 <- res3a_branch1
I0524 17:57:35.487455   808 net.cpp:367] scale3a_branch1 -> res3a_branch1 (in-place)
I0524 17:57:35.487494   808 layer_factory.hpp:77] Creating layer scale3a_branch1
I0524 17:57:35.487587   808 net.cpp:122] Setting up scale3a_branch1
I0524 17:57:35.487596   808 net.cpp:129] Top shape: 50 128 28 28 (5017600)
I0524 17:57:35.487599   808 net.cpp:137] Memory required for data: 1856512200
I0524 17:57:35.487606   808 layer_factory.hpp:77] Creating layer res3a_branch2a
I0524 17:57:35.487615   808 net.cpp:84] Creating Layer res3a_branch2a
I0524 17:57:35.487620   808 net.cpp:406] res3a_branch2a <- res2b_res2b_relu_0_split_1
I0524 17:57:35.487627   808 net.cpp:380] res3a_branch2a -> res3a_branch2a
I0524 17:57:35.489367   808 net.cpp:122] Setting up res3a_branch2a
I0524 17:57:35.489379   808 net.cpp:129] Top shape: 50 128 28 28 (5017600)
I0524 17:57:35.489382   808 net.cpp:137] Memory required for data: 1876582600
I0524 17:57:35.489388   808 layer_factory.hpp:77] Creating layer bn3a_branch2a
I0524 17:57:35.489397   808 net.cpp:84] Creating Layer bn3a_branch2a
I0524 17:57:35.489403   808 net.cpp:406] bn3a_branch2a <- res3a_branch2a
I0524 17:57:35.489408   808 net.cpp:367] bn3a_branch2a -> res3a_branch2a (in-place)
I0524 17:57:35.489569   808 net.cpp:122] Setting up bn3a_branch2a
I0524 17:57:35.489580   808 net.cpp:129] Top shape: 50 128 28 28 (5017600)
I0524 17:57:35.489585   808 net.cpp:137] Memory required for data: 1896653000
I0524 17:57:35.489593   808 layer_factory.hpp:77] Creating layer scale3a_branch2a
I0524 17:57:35.489599   808 net.cpp:84] Creating Layer scale3a_branch2a
I0524 17:57:35.489603   808 net.cpp:406] scale3a_branch2a <- res3a_branch2a
I0524 17:57:35.489609   808 net.cpp:367] scale3a_branch2a -> res3a_branch2a (in-place)
I0524 17:57:35.489645   808 layer_factory.hpp:77] Creating layer scale3a_branch2a
I0524 17:57:35.489735   808 net.cpp:122] Setting up scale3a_branch2a
I0524 17:57:35.489744   808 net.cpp:129] Top shape: 50 128 28 28 (5017600)
I0524 17:57:35.489758   808 net.cpp:137] Memory required for data: 1916723400
I0524 17:57:35.489765   808 layer_factory.hpp:77] Creating layer res3a_branch2a_relu
I0524 17:57:35.489773   808 net.cpp:84] Creating Layer res3a_branch2a_relu
I0524 17:57:35.489778   808 net.cpp:406] res3a_branch2a_relu <- res3a_branch2a
I0524 17:57:35.489783   808 net.cpp:367] res3a_branch2a_relu -> res3a_branch2a (in-place)
I0524 17:57:35.489926   808 net.cpp:122] Setting up res3a_branch2a_relu
I0524 17:57:35.489936   808 net.cpp:129] Top shape: 50 128 28 28 (5017600)
I0524 17:57:35.489940   808 net.cpp:137] Memory required for data: 1936793800
I0524 17:57:35.489943   808 layer_factory.hpp:77] Creating layer res3a_branch2b
I0524 17:57:35.489953   808 net.cpp:84] Creating Layer res3a_branch2b
I0524 17:57:35.489958   808 net.cpp:406] res3a_branch2b <- res3a_branch2a
I0524 17:57:35.489964   808 net.cpp:380] res3a_branch2b -> res3a_branch2b
I0524 17:57:35.492738   808 net.cpp:122] Setting up res3a_branch2b
I0524 17:57:35.492751   808 net.cpp:129] Top shape: 50 128 28 28 (5017600)
I0524 17:57:35.492755   808 net.cpp:137] Memory required for data: 1956864200
I0524 17:57:35.492761   808 layer_factory.hpp:77] Creating layer bn3a_branch2b
I0524 17:57:35.492768   808 net.cpp:84] Creating Layer bn3a_branch2b
I0524 17:57:35.492772   808 net.cpp:406] bn3a_branch2b <- res3a_branch2b
I0524 17:57:35.492779   808 net.cpp:367] bn3a_branch2b -> res3a_branch2b (in-place)
I0524 17:57:35.492938   808 net.cpp:122] Setting up bn3a_branch2b
I0524 17:57:35.492946   808 net.cpp:129] Top shape: 50 128 28 28 (5017600)
I0524 17:57:35.492950   808 net.cpp:137] Memory required for data: 1976934600
I0524 17:57:35.492957   808 layer_factory.hpp:77] Creating layer scale3a_branch2b
I0524 17:57:35.492964   808 net.cpp:84] Creating Layer scale3a_branch2b
I0524 17:57:35.492969   808 net.cpp:406] scale3a_branch2b <- res3a_branch2b
I0524 17:57:35.492974   808 net.cpp:367] scale3a_branch2b -> res3a_branch2b (in-place)
I0524 17:57:35.493008   808 layer_factory.hpp:77] Creating layer scale3a_branch2b
I0524 17:57:35.493099   808 net.cpp:122] Setting up scale3a_branch2b
I0524 17:57:35.493108   808 net.cpp:129] Top shape: 50 128 28 28 (5017600)
I0524 17:57:35.493113   808 net.cpp:137] Memory required for data: 1997005000
I0524 17:57:35.493119   808 layer_factory.hpp:77] Creating layer res3a
I0524 17:57:35.493126   808 net.cpp:84] Creating Layer res3a
I0524 17:57:35.493131   808 net.cpp:406] res3a <- res3a_branch1
I0524 17:57:35.493135   808 net.cpp:406] res3a <- res3a_branch2b
I0524 17:57:35.493140   808 net.cpp:380] res3a -> res3a
I0524 17:57:35.493165   808 net.cpp:122] Setting up res3a
I0524 17:57:35.493173   808 net.cpp:129] Top shape: 50 128 28 28 (5017600)
I0524 17:57:35.493177   808 net.cpp:137] Memory required for data: 2017075400
I0524 17:57:35.493180   808 layer_factory.hpp:77] Creating layer res3a_relu
I0524 17:57:35.493185   808 net.cpp:84] Creating Layer res3a_relu
I0524 17:57:35.493190   808 net.cpp:406] res3a_relu <- res3a
I0524 17:57:35.493196   808 net.cpp:367] res3a_relu -> res3a (in-place)
I0524 17:57:35.493340   808 net.cpp:122] Setting up res3a_relu
I0524 17:57:35.493351   808 net.cpp:129] Top shape: 50 128 28 28 (5017600)
I0524 17:57:35.493355   808 net.cpp:137] Memory required for data: 2037145800
I0524 17:57:35.493360   808 layer_factory.hpp:77] Creating layer res3a_res3a_relu_0_split
I0524 17:57:35.493365   808 net.cpp:84] Creating Layer res3a_res3a_relu_0_split
I0524 17:57:35.493368   808 net.cpp:406] res3a_res3a_relu_0_split <- res3a
I0524 17:57:35.493374   808 net.cpp:380] res3a_res3a_relu_0_split -> res3a_res3a_relu_0_split_0
I0524 17:57:35.493381   808 net.cpp:380] res3a_res3a_relu_0_split -> res3a_res3a_relu_0_split_1
I0524 17:57:35.493418   808 net.cpp:122] Setting up res3a_res3a_relu_0_split
I0524 17:57:35.493427   808 net.cpp:129] Top shape: 50 128 28 28 (5017600)
I0524 17:57:35.493432   808 net.cpp:129] Top shape: 50 128 28 28 (5017600)
I0524 17:57:35.493434   808 net.cpp:137] Memory required for data: 2077286600
I0524 17:57:35.493438   808 layer_factory.hpp:77] Creating layer res3b_branch2a
I0524 17:57:35.493455   808 net.cpp:84] Creating Layer res3b_branch2a
I0524 17:57:35.493461   808 net.cpp:406] res3b_branch2a <- res3a_res3a_relu_0_split_0
I0524 17:57:35.493468   808 net.cpp:380] res3b_branch2a -> res3b_branch2a
I0524 17:57:35.496893   808 net.cpp:122] Setting up res3b_branch2a
I0524 17:57:35.496911   808 net.cpp:129] Top shape: 50 128 28 28 (5017600)
I0524 17:57:35.496915   808 net.cpp:137] Memory required for data: 2097357000
I0524 17:57:35.496922   808 layer_factory.hpp:77] Creating layer bn3b_branch2a
I0524 17:57:35.496928   808 net.cpp:84] Creating Layer bn3b_branch2a
I0524 17:57:35.496933   808 net.cpp:406] bn3b_branch2a <- res3b_branch2a
I0524 17:57:35.496939   808 net.cpp:367] bn3b_branch2a -> res3b_branch2a (in-place)
I0524 17:57:35.497103   808 net.cpp:122] Setting up bn3b_branch2a
I0524 17:57:35.497112   808 net.cpp:129] Top shape: 50 128 28 28 (5017600)
I0524 17:57:35.497117   808 net.cpp:137] Memory required for data: 2117427400
I0524 17:57:35.497124   808 layer_factory.hpp:77] Creating layer scale3b_branch2a
I0524 17:57:35.497133   808 net.cpp:84] Creating Layer scale3b_branch2a
I0524 17:57:35.497141   808 net.cpp:406] scale3b_branch2a <- res3b_branch2a
I0524 17:57:35.497150   808 net.cpp:367] scale3b_branch2a -> res3b_branch2a (in-place)
I0524 17:57:35.497206   808 layer_factory.hpp:77] Creating layer scale3b_branch2a
I0524 17:57:35.497304   808 net.cpp:122] Setting up scale3b_branch2a
I0524 17:57:35.497314   808 net.cpp:129] Top shape: 50 128 28 28 (5017600)
I0524 17:57:35.497319   808 net.cpp:137] Memory required for data: 2137497800
I0524 17:57:35.497331   808 layer_factory.hpp:77] Creating layer res3b_branch2a_relu
I0524 17:57:35.497342   808 net.cpp:84] Creating Layer res3b_branch2a_relu
I0524 17:57:35.497350   808 net.cpp:406] res3b_branch2a_relu <- res3b_branch2a
I0524 17:57:35.497360   808 net.cpp:367] res3b_branch2a_relu -> res3b_branch2a (in-place)
I0524 17:57:35.497512   808 net.cpp:122] Setting up res3b_branch2a_relu
I0524 17:57:35.497524   808 net.cpp:129] Top shape: 50 128 28 28 (5017600)
I0524 17:57:35.497527   808 net.cpp:137] Memory required for data: 2157568200
I0524 17:57:35.497530   808 layer_factory.hpp:77] Creating layer res3b_branch2b
I0524 17:57:35.497540   808 net.cpp:84] Creating Layer res3b_branch2b
I0524 17:57:35.497545   808 net.cpp:406] res3b_branch2b <- res3b_branch2a
I0524 17:57:35.497551   808 net.cpp:380] res3b_branch2b -> res3b_branch2b
I0524 17:57:35.500288   808 net.cpp:122] Setting up res3b_branch2b
I0524 17:57:35.500300   808 net.cpp:129] Top shape: 50 128 28 28 (5017600)
I0524 17:57:35.500305   808 net.cpp:137] Memory required for data: 2177638600
I0524 17:57:35.500310   808 layer_factory.hpp:77] Creating layer bn3b_branch2b
I0524 17:57:35.500319   808 net.cpp:84] Creating Layer bn3b_branch2b
I0524 17:57:35.500324   808 net.cpp:406] bn3b_branch2b <- res3b_branch2b
I0524 17:57:35.500329   808 net.cpp:367] bn3b_branch2b -> res3b_branch2b (in-place)
I0524 17:57:35.500490   808 net.cpp:122] Setting up bn3b_branch2b
I0524 17:57:35.500499   808 net.cpp:129] Top shape: 50 128 28 28 (5017600)
I0524 17:57:35.500504   808 net.cpp:137] Memory required for data: 2197709000
I0524 17:57:35.500510   808 layer_factory.hpp:77] Creating layer scale3b_branch2b
I0524 17:57:35.500517   808 net.cpp:84] Creating Layer scale3b_branch2b
I0524 17:57:35.500521   808 net.cpp:406] scale3b_branch2b <- res3b_branch2b
I0524 17:57:35.500526   808 net.cpp:367] scale3b_branch2b -> res3b_branch2b (in-place)
I0524 17:57:35.500563   808 layer_factory.hpp:77] Creating layer scale3b_branch2b
I0524 17:57:35.500660   808 net.cpp:122] Setting up scale3b_branch2b
I0524 17:57:35.500669   808 net.cpp:129] Top shape: 50 128 28 28 (5017600)
I0524 17:57:35.500674   808 net.cpp:137] Memory required for data: 2217779400
I0524 17:57:35.500689   808 layer_factory.hpp:77] Creating layer res3b
I0524 17:57:35.500697   808 net.cpp:84] Creating Layer res3b
I0524 17:57:35.500701   808 net.cpp:406] res3b <- res3a_res3a_relu_0_split_1
I0524 17:57:35.500716   808 net.cpp:406] res3b <- res3b_branch2b
I0524 17:57:35.500722   808 net.cpp:380] res3b -> res3b
I0524 17:57:35.500751   808 net.cpp:122] Setting up res3b
I0524 17:57:35.500758   808 net.cpp:129] Top shape: 50 128 28 28 (5017600)
I0524 17:57:35.500762   808 net.cpp:137] Memory required for data: 2237849800
I0524 17:57:35.500766   808 layer_factory.hpp:77] Creating layer res3b_relu
I0524 17:57:35.500771   808 net.cpp:84] Creating Layer res3b_relu
I0524 17:57:35.500775   808 net.cpp:406] res3b_relu <- res3b
I0524 17:57:35.500780   808 net.cpp:367] res3b_relu -> res3b (in-place)
I0524 17:57:35.500926   808 net.cpp:122] Setting up res3b_relu
I0524 17:57:35.500937   808 net.cpp:129] Top shape: 50 128 28 28 (5017600)
I0524 17:57:35.500941   808 net.cpp:137] Memory required for data: 2257920200
I0524 17:57:35.500944   808 layer_factory.hpp:77] Creating layer res3b_res3b_relu_0_split
I0524 17:57:35.500949   808 net.cpp:84] Creating Layer res3b_res3b_relu_0_split
I0524 17:57:35.500953   808 net.cpp:406] res3b_res3b_relu_0_split <- res3b
I0524 17:57:35.500959   808 net.cpp:380] res3b_res3b_relu_0_split -> res3b_res3b_relu_0_split_0
I0524 17:57:35.500967   808 net.cpp:380] res3b_res3b_relu_0_split -> res3b_res3b_relu_0_split_1
I0524 17:57:35.501003   808 net.cpp:122] Setting up res3b_res3b_relu_0_split
I0524 17:57:35.501011   808 net.cpp:129] Top shape: 50 128 28 28 (5017600)
I0524 17:57:35.501016   808 net.cpp:129] Top shape: 50 128 28 28 (5017600)
I0524 17:57:35.501019   808 net.cpp:137] Memory required for data: 2298061000
I0524 17:57:35.501025   808 layer_factory.hpp:77] Creating layer res4a_branch1
I0524 17:57:35.501040   808 net.cpp:84] Creating Layer res4a_branch1
I0524 17:57:35.501049   808 net.cpp:406] res4a_branch1 <- res3b_res3b_relu_0_split_0
I0524 17:57:35.501061   808 net.cpp:380] res4a_branch1 -> res4a_branch1
I0524 17:57:35.502614   808 net.cpp:122] Setting up res4a_branch1
I0524 17:57:35.502627   808 net.cpp:129] Top shape: 50 256 14 14 (2508800)
I0524 17:57:35.502631   808 net.cpp:137] Memory required for data: 2308096200
I0524 17:57:35.502636   808 layer_factory.hpp:77] Creating layer bn4a_branch1
I0524 17:57:35.502645   808 net.cpp:84] Creating Layer bn4a_branch1
I0524 17:57:35.502650   808 net.cpp:406] bn4a_branch1 <- res4a_branch1
I0524 17:57:35.502655   808 net.cpp:367] bn4a_branch1 -> res4a_branch1 (in-place)
I0524 17:57:35.502820   808 net.cpp:122] Setting up bn4a_branch1
I0524 17:57:35.502828   808 net.cpp:129] Top shape: 50 256 14 14 (2508800)
I0524 17:57:35.502832   808 net.cpp:137] Memory required for data: 2318131400
I0524 17:57:35.502840   808 layer_factory.hpp:77] Creating layer scale4a_branch1
I0524 17:57:35.502846   808 net.cpp:84] Creating Layer scale4a_branch1
I0524 17:57:35.502851   808 net.cpp:406] scale4a_branch1 <- res4a_branch1
I0524 17:57:35.502856   808 net.cpp:367] scale4a_branch1 -> res4a_branch1 (in-place)
I0524 17:57:35.502893   808 layer_factory.hpp:77] Creating layer scale4a_branch1
I0524 17:57:35.502988   808 net.cpp:122] Setting up scale4a_branch1
I0524 17:57:35.502997   808 net.cpp:129] Top shape: 50 256 14 14 (2508800)
I0524 17:57:35.503001   808 net.cpp:137] Memory required for data: 2328166600
I0524 17:57:35.503007   808 layer_factory.hpp:77] Creating layer res4a_branch2a
I0524 17:57:35.503016   808 net.cpp:84] Creating Layer res4a_branch2a
I0524 17:57:35.503021   808 net.cpp:406] res4a_branch2a <- res3b_res3b_relu_0_split_1
I0524 17:57:35.503027   808 net.cpp:380] res4a_branch2a -> res4a_branch2a
I0524 17:57:35.507608   808 net.cpp:122] Setting up res4a_branch2a
I0524 17:57:35.507627   808 net.cpp:129] Top shape: 50 256 14 14 (2508800)
I0524 17:57:35.507630   808 net.cpp:137] Memory required for data: 2338201800
I0524 17:57:35.507637   808 layer_factory.hpp:77] Creating layer bn4a_branch2a
I0524 17:57:35.507647   808 net.cpp:84] Creating Layer bn4a_branch2a
I0524 17:57:35.507652   808 net.cpp:406] bn4a_branch2a <- res4a_branch2a
I0524 17:57:35.507658   808 net.cpp:367] bn4a_branch2a -> res4a_branch2a (in-place)
I0524 17:57:35.507822   808 net.cpp:122] Setting up bn4a_branch2a
I0524 17:57:35.507843   808 net.cpp:129] Top shape: 50 256 14 14 (2508800)
I0524 17:57:35.507848   808 net.cpp:137] Memory required for data: 2348237000
I0524 17:57:35.507855   808 layer_factory.hpp:77] Creating layer scale4a_branch2a
I0524 17:57:35.507861   808 net.cpp:84] Creating Layer scale4a_branch2a
I0524 17:57:35.507866   808 net.cpp:406] scale4a_branch2a <- res4a_branch2a
I0524 17:57:35.507870   808 net.cpp:367] scale4a_branch2a -> res4a_branch2a (in-place)
I0524 17:57:35.507910   808 layer_factory.hpp:77] Creating layer scale4a_branch2a
I0524 17:57:35.508003   808 net.cpp:122] Setting up scale4a_branch2a
I0524 17:57:35.508013   808 net.cpp:129] Top shape: 50 256 14 14 (2508800)
I0524 17:57:35.508016   808 net.cpp:137] Memory required for data: 2358272200
I0524 17:57:35.508023   808 layer_factory.hpp:77] Creating layer res4a_branch2a_relu
I0524 17:57:35.508030   808 net.cpp:84] Creating Layer res4a_branch2a_relu
I0524 17:57:35.508035   808 net.cpp:406] res4a_branch2a_relu <- res4a_branch2a
I0524 17:57:35.508041   808 net.cpp:367] res4a_branch2a_relu -> res4a_branch2a (in-place)
I0524 17:57:35.508541   808 net.cpp:122] Setting up res4a_branch2a_relu
I0524 17:57:35.508553   808 net.cpp:129] Top shape: 50 256 14 14 (2508800)
I0524 17:57:35.508558   808 net.cpp:137] Memory required for data: 2368307400
I0524 17:57:35.508560   808 layer_factory.hpp:77] Creating layer res4a_branch2b
I0524 17:57:35.508570   808 net.cpp:84] Creating Layer res4a_branch2b
I0524 17:57:35.508575   808 net.cpp:406] res4a_branch2b <- res4a_branch2a
I0524 17:57:35.508582   808 net.cpp:380] res4a_branch2b -> res4a_branch2b
I0524 17:57:35.516119   808 net.cpp:122] Setting up res4a_branch2b
I0524 17:57:35.516134   808 net.cpp:129] Top shape: 50 256 14 14 (2508800)
I0524 17:57:35.516139   808 net.cpp:137] Memory required for data: 2378342600
I0524 17:57:35.516144   808 layer_factory.hpp:77] Creating layer bn4a_branch2b
I0524 17:57:35.516152   808 net.cpp:84] Creating Layer bn4a_branch2b
I0524 17:57:35.516158   808 net.cpp:406] bn4a_branch2b <- res4a_branch2b
I0524 17:57:35.516163   808 net.cpp:367] bn4a_branch2b -> res4a_branch2b (in-place)
I0524 17:57:35.516330   808 net.cpp:122] Setting up bn4a_branch2b
I0524 17:57:35.516340   808 net.cpp:129] Top shape: 50 256 14 14 (2508800)
I0524 17:57:35.516343   808 net.cpp:137] Memory required for data: 2388377800
I0524 17:57:35.516351   808 layer_factory.hpp:77] Creating layer scale4a_branch2b
I0524 17:57:35.516357   808 net.cpp:84] Creating Layer scale4a_branch2b
I0524 17:57:35.516361   808 net.cpp:406] scale4a_branch2b <- res4a_branch2b
I0524 17:57:35.516366   808 net.cpp:367] scale4a_branch2b -> res4a_branch2b (in-place)
I0524 17:57:35.516404   808 layer_factory.hpp:77] Creating layer scale4a_branch2b
I0524 17:57:35.516499   808 net.cpp:122] Setting up scale4a_branch2b
I0524 17:57:35.516507   808 net.cpp:129] Top shape: 50 256 14 14 (2508800)
I0524 17:57:35.516510   808 net.cpp:137] Memory required for data: 2398413000
I0524 17:57:35.516516   808 layer_factory.hpp:77] Creating layer res4a
I0524 17:57:35.516525   808 net.cpp:84] Creating Layer res4a
I0524 17:57:35.516530   808 net.cpp:406] res4a <- res4a_branch1
I0524 17:57:35.516535   808 net.cpp:406] res4a <- res4a_branch2b
I0524 17:57:35.516541   808 net.cpp:380] res4a -> res4a
I0524 17:57:35.516566   808 net.cpp:122] Setting up res4a
I0524 17:57:35.516573   808 net.cpp:129] Top shape: 50 256 14 14 (2508800)
I0524 17:57:35.516577   808 net.cpp:137] Memory required for data: 2408448200
I0524 17:57:35.516582   808 layer_factory.hpp:77] Creating layer res4a_relu
I0524 17:57:35.516597   808 net.cpp:84] Creating Layer res4a_relu
I0524 17:57:35.516602   808 net.cpp:406] res4a_relu <- res4a
I0524 17:57:35.516607   808 net.cpp:367] res4a_relu -> res4a (in-place)
I0524 17:57:35.517105   808 net.cpp:122] Setting up res4a_relu
I0524 17:57:35.517117   808 net.cpp:129] Top shape: 50 256 14 14 (2508800)
I0524 17:57:35.517122   808 net.cpp:137] Memory required for data: 2418483400
I0524 17:57:35.517125   808 layer_factory.hpp:77] Creating layer res4a_res4a_relu_0_split
I0524 17:57:35.517143   808 net.cpp:84] Creating Layer res4a_res4a_relu_0_split
I0524 17:57:35.517148   808 net.cpp:406] res4a_res4a_relu_0_split <- res4a
I0524 17:57:35.517153   808 net.cpp:380] res4a_res4a_relu_0_split -> res4a_res4a_relu_0_split_0
I0524 17:57:35.517166   808 net.cpp:380] res4a_res4a_relu_0_split -> res4a_res4a_relu_0_split_1
I0524 17:57:35.517204   808 net.cpp:122] Setting up res4a_res4a_relu_0_split
I0524 17:57:35.517215   808 net.cpp:129] Top shape: 50 256 14 14 (2508800)
I0524 17:57:35.517220   808 net.cpp:129] Top shape: 50 256 14 14 (2508800)
I0524 17:57:35.517223   808 net.cpp:137] Memory required for data: 2438553800
I0524 17:57:35.517226   808 layer_factory.hpp:77] Creating layer res4b_branch2a
I0524 17:57:35.517235   808 net.cpp:84] Creating Layer res4b_branch2a
I0524 17:57:35.517241   808 net.cpp:406] res4b_branch2a <- res4a_res4a_relu_0_split_0
I0524 17:57:35.517246   808 net.cpp:380] res4b_branch2a -> res4b_branch2a
I0524 17:57:35.525106   808 net.cpp:122] Setting up res4b_branch2a
I0524 17:57:35.525121   808 net.cpp:129] Top shape: 50 256 14 14 (2508800)
I0524 17:57:35.525125   808 net.cpp:137] Memory required for data: 2448589000
I0524 17:57:35.525132   808 layer_factory.hpp:77] Creating layer bn4b_branch2a
I0524 17:57:35.525140   808 net.cpp:84] Creating Layer bn4b_branch2a
I0524 17:57:35.525144   808 net.cpp:406] bn4b_branch2a <- res4b_branch2a
I0524 17:57:35.525151   808 net.cpp:367] bn4b_branch2a -> res4b_branch2a (in-place)
I0524 17:57:35.525319   808 net.cpp:122] Setting up bn4b_branch2a
I0524 17:57:35.525329   808 net.cpp:129] Top shape: 50 256 14 14 (2508800)
I0524 17:57:35.525333   808 net.cpp:137] Memory required for data: 2458624200
I0524 17:57:35.525341   808 layer_factory.hpp:77] Creating layer scale4b_branch2a
I0524 17:57:35.525348   808 net.cpp:84] Creating Layer scale4b_branch2a
I0524 17:57:35.525352   808 net.cpp:406] scale4b_branch2a <- res4b_branch2a
I0524 17:57:35.525357   808 net.cpp:367] scale4b_branch2a -> res4b_branch2a (in-place)
I0524 17:57:35.525394   808 layer_factory.hpp:77] Creating layer scale4b_branch2a
I0524 17:57:35.525496   808 net.cpp:122] Setting up scale4b_branch2a
I0524 17:57:35.525506   808 net.cpp:129] Top shape: 50 256 14 14 (2508800)
I0524 17:57:35.525509   808 net.cpp:137] Memory required for data: 2468659400
I0524 17:57:35.525516   808 layer_factory.hpp:77] Creating layer res4b_branch2a_relu
I0524 17:57:35.525523   808 net.cpp:84] Creating Layer res4b_branch2a_relu
I0524 17:57:35.525528   808 net.cpp:406] res4b_branch2a_relu <- res4b_branch2a
I0524 17:57:35.525533   808 net.cpp:367] res4b_branch2a_relu -> res4b_branch2a (in-place)
I0524 17:57:35.525686   808 net.cpp:122] Setting up res4b_branch2a_relu
I0524 17:57:35.525696   808 net.cpp:129] Top shape: 50 256 14 14 (2508800)
I0524 17:57:35.525699   808 net.cpp:137] Memory required for data: 2478694600
I0524 17:57:35.525702   808 layer_factory.hpp:77] Creating layer res4b_branch2b
I0524 17:57:35.525712   808 net.cpp:84] Creating Layer res4b_branch2b
I0524 17:57:35.525717   808 net.cpp:406] res4b_branch2b <- res4b_branch2a
I0524 17:57:35.525723   808 net.cpp:380] res4b_branch2b -> res4b_branch2b
I0524 17:57:35.533591   808 net.cpp:122] Setting up res4b_branch2b
I0524 17:57:35.533607   808 net.cpp:129] Top shape: 50 256 14 14 (2508800)
I0524 17:57:35.533612   808 net.cpp:137] Memory required for data: 2488729800
I0524 17:57:35.533617   808 layer_factory.hpp:77] Creating layer bn4b_branch2b
I0524 17:57:35.533623   808 net.cpp:84] Creating Layer bn4b_branch2b
I0524 17:57:35.533627   808 net.cpp:406] bn4b_branch2b <- res4b_branch2b
I0524 17:57:35.533634   808 net.cpp:367] bn4b_branch2b -> res4b_branch2b (in-place)
I0524 17:57:35.533800   808 net.cpp:122] Setting up bn4b_branch2b
I0524 17:57:35.533810   808 net.cpp:129] Top shape: 50 256 14 14 (2508800)
I0524 17:57:35.533815   808 net.cpp:137] Memory required for data: 2498765000
I0524 17:57:35.533823   808 layer_factory.hpp:77] Creating layer scale4b_branch2b
I0524 17:57:35.533829   808 net.cpp:84] Creating Layer scale4b_branch2b
I0524 17:57:35.533845   808 net.cpp:406] scale4b_branch2b <- res4b_branch2b
I0524 17:57:35.533851   808 net.cpp:367] scale4b_branch2b -> res4b_branch2b (in-place)
I0524 17:57:35.533888   808 layer_factory.hpp:77] Creating layer scale4b_branch2b
I0524 17:57:35.533985   808 net.cpp:122] Setting up scale4b_branch2b
I0524 17:57:35.533994   808 net.cpp:129] Top shape: 50 256 14 14 (2508800)
I0524 17:57:35.533998   808 net.cpp:137] Memory required for data: 2508800200
I0524 17:57:35.534003   808 layer_factory.hpp:77] Creating layer res4b
I0524 17:57:35.534013   808 net.cpp:84] Creating Layer res4b
I0524 17:57:35.534018   808 net.cpp:406] res4b <- res4a_res4a_relu_0_split_1
I0524 17:57:35.534021   808 net.cpp:406] res4b <- res4b_branch2b
I0524 17:57:35.534027   808 net.cpp:380] res4b -> res4b
I0524 17:57:35.534054   808 net.cpp:122] Setting up res4b
I0524 17:57:35.534061   808 net.cpp:129] Top shape: 50 256 14 14 (2508800)
I0524 17:57:35.534065   808 net.cpp:137] Memory required for data: 2518835400
I0524 17:57:35.534070   808 layer_factory.hpp:77] Creating layer res4b_relu
I0524 17:57:35.534073   808 net.cpp:84] Creating Layer res4b_relu
I0524 17:57:35.534078   808 net.cpp:406] res4b_relu <- res4b
I0524 17:57:35.534085   808 net.cpp:367] res4b_relu -> res4b (in-place)
I0524 17:57:35.534579   808 net.cpp:122] Setting up res4b_relu
I0524 17:57:35.534595   808 net.cpp:129] Top shape: 50 256 14 14 (2508800)
I0524 17:57:35.534598   808 net.cpp:137] Memory required for data: 2528870600
I0524 17:57:35.534602   808 layer_factory.hpp:77] Creating layer res4b_res4b_relu_0_split
I0524 17:57:35.534607   808 net.cpp:84] Creating Layer res4b_res4b_relu_0_split
I0524 17:57:35.534612   808 net.cpp:406] res4b_res4b_relu_0_split <- res4b
I0524 17:57:35.534617   808 net.cpp:380] res4b_res4b_relu_0_split -> res4b_res4b_relu_0_split_0
I0524 17:57:35.534626   808 net.cpp:380] res4b_res4b_relu_0_split -> res4b_res4b_relu_0_split_1
I0524 17:57:35.534664   808 net.cpp:122] Setting up res4b_res4b_relu_0_split
I0524 17:57:35.534672   808 net.cpp:129] Top shape: 50 256 14 14 (2508800)
I0524 17:57:35.534677   808 net.cpp:129] Top shape: 50 256 14 14 (2508800)
I0524 17:57:35.534680   808 net.cpp:137] Memory required for data: 2548941000
I0524 17:57:35.534684   808 layer_factory.hpp:77] Creating layer res5a_branch1
I0524 17:57:35.534693   808 net.cpp:84] Creating Layer res5a_branch1
I0524 17:57:35.534698   808 net.cpp:406] res5a_branch1 <- res4b_res4b_relu_0_split_0
I0524 17:57:35.534704   808 net.cpp:380] res5a_branch1 -> res5a_branch1
I0524 17:57:35.537027   808 net.cpp:122] Setting up res5a_branch1
I0524 17:57:35.537039   808 net.cpp:129] Top shape: 50 512 7 7 (1254400)
I0524 17:57:35.537045   808 net.cpp:137] Memory required for data: 2553958600
I0524 17:57:35.537050   808 layer_factory.hpp:77] Creating layer bn5a_branch1
I0524 17:57:35.537057   808 net.cpp:84] Creating Layer bn5a_branch1
I0524 17:57:35.537062   808 net.cpp:406] bn5a_branch1 <- res5a_branch1
I0524 17:57:35.537068   808 net.cpp:367] bn5a_branch1 -> res5a_branch1 (in-place)
I0524 17:57:35.537242   808 net.cpp:122] Setting up bn5a_branch1
I0524 17:57:35.537251   808 net.cpp:129] Top shape: 50 512 7 7 (1254400)
I0524 17:57:35.537256   808 net.cpp:137] Memory required for data: 2558976200
I0524 17:57:35.537263   808 layer_factory.hpp:77] Creating layer scale5a_branch1
I0524 17:57:35.537269   808 net.cpp:84] Creating Layer scale5a_branch1
I0524 17:57:35.537274   808 net.cpp:406] scale5a_branch1 <- res5a_branch1
I0524 17:57:35.537281   808 net.cpp:367] scale5a_branch1 -> res5a_branch1 (in-place)
I0524 17:57:35.537314   808 layer_factory.hpp:77] Creating layer scale5a_branch1
I0524 17:57:35.537416   808 net.cpp:122] Setting up scale5a_branch1
I0524 17:57:35.537425   808 net.cpp:129] Top shape: 50 512 7 7 (1254400)
I0524 17:57:35.537430   808 net.cpp:137] Memory required for data: 2563993800
I0524 17:57:35.537436   808 layer_factory.hpp:77] Creating layer res5a_branch2a
I0524 17:57:35.537444   808 net.cpp:84] Creating Layer res5a_branch2a
I0524 17:57:35.537449   808 net.cpp:406] res5a_branch2a <- res4b_res4b_relu_0_split_1
I0524 17:57:35.537466   808 net.cpp:380] res5a_branch2a -> res5a_branch2a
I0524 17:57:35.551386   808 net.cpp:122] Setting up res5a_branch2a
I0524 17:57:35.551404   808 net.cpp:129] Top shape: 50 512 7 7 (1254400)
I0524 17:57:35.551409   808 net.cpp:137] Memory required for data: 2569011400
I0524 17:57:35.551414   808 layer_factory.hpp:77] Creating layer bn5a_branch2a
I0524 17:57:35.551425   808 net.cpp:84] Creating Layer bn5a_branch2a
I0524 17:57:35.551431   808 net.cpp:406] bn5a_branch2a <- res5a_branch2a
I0524 17:57:35.551437   808 net.cpp:367] bn5a_branch2a -> res5a_branch2a (in-place)
I0524 17:57:35.551617   808 net.cpp:122] Setting up bn5a_branch2a
I0524 17:57:35.551627   808 net.cpp:129] Top shape: 50 512 7 7 (1254400)
I0524 17:57:35.551632   808 net.cpp:137] Memory required for data: 2574029000
I0524 17:57:35.551651   808 layer_factory.hpp:77] Creating layer scale5a_branch2a
I0524 17:57:35.551658   808 net.cpp:84] Creating Layer scale5a_branch2a
I0524 17:57:35.551661   808 net.cpp:406] scale5a_branch2a <- res5a_branch2a
I0524 17:57:35.551666   808 net.cpp:367] scale5a_branch2a -> res5a_branch2a (in-place)
I0524 17:57:35.551702   808 layer_factory.hpp:77] Creating layer scale5a_branch2a
I0524 17:57:35.551826   808 net.cpp:122] Setting up scale5a_branch2a
I0524 17:57:35.551836   808 net.cpp:129] Top shape: 50 512 7 7 (1254400)
I0524 17:57:35.551839   808 net.cpp:137] Memory required for data: 2579046600
I0524 17:57:35.551856   808 layer_factory.hpp:77] Creating layer res5a_branch2a_relu
I0524 17:57:35.551864   808 net.cpp:84] Creating Layer res5a_branch2a_relu
I0524 17:57:35.551868   808 net.cpp:406] res5a_branch2a_relu <- res5a_branch2a
I0524 17:57:35.551873   808 net.cpp:367] res5a_branch2a_relu -> res5a_branch2a (in-place)
I0524 17:57:35.552039   808 net.cpp:122] Setting up res5a_branch2a_relu
I0524 17:57:35.552048   808 net.cpp:129] Top shape: 50 512 7 7 (1254400)
I0524 17:57:35.552052   808 net.cpp:137] Memory required for data: 2584064200
I0524 17:57:35.552067   808 layer_factory.hpp:77] Creating layer res5a_branch2b
I0524 17:57:35.552078   808 net.cpp:84] Creating Layer res5a_branch2b
I0524 17:57:35.552083   808 net.cpp:406] res5a_branch2b <- res5a_branch2a
I0524 17:57:35.552089   808 net.cpp:380] res5a_branch2b -> res5a_branch2b
I0524 17:57:35.578970   808 net.cpp:122] Setting up res5a_branch2b
I0524 17:57:35.578996   808 net.cpp:129] Top shape: 50 512 7 7 (1254400)
I0524 17:57:35.579000   808 net.cpp:137] Memory required for data: 2589081800
I0524 17:57:35.579010   808 layer_factory.hpp:77] Creating layer bn5a_branch2b
I0524 17:57:35.579020   808 net.cpp:84] Creating Layer bn5a_branch2b
I0524 17:57:35.579025   808 net.cpp:406] bn5a_branch2b <- res5a_branch2b
I0524 17:57:35.579046   808 net.cpp:367] bn5a_branch2b -> res5a_branch2b (in-place)
I0524 17:57:35.579236   808 net.cpp:122] Setting up bn5a_branch2b
I0524 17:57:35.579246   808 net.cpp:129] Top shape: 50 512 7 7 (1254400)
I0524 17:57:35.579248   808 net.cpp:137] Memory required for data: 2594099400
I0524 17:57:35.579255   808 layer_factory.hpp:77] Creating layer scale5a_branch2b
I0524 17:57:35.579262   808 net.cpp:84] Creating Layer scale5a_branch2b
I0524 17:57:35.579265   808 net.cpp:406] scale5a_branch2b <- res5a_branch2b
I0524 17:57:35.579272   808 net.cpp:367] scale5a_branch2b -> res5a_branch2b (in-place)
I0524 17:57:35.579321   808 layer_factory.hpp:77] Creating layer scale5a_branch2b
I0524 17:57:35.579437   808 net.cpp:122] Setting up scale5a_branch2b
I0524 17:57:35.579447   808 net.cpp:129] Top shape: 50 512 7 7 (1254400)
I0524 17:57:35.579450   808 net.cpp:137] Memory required for data: 2599117000
I0524 17:57:35.579457   808 layer_factory.hpp:77] Creating layer res5a
I0524 17:57:35.579463   808 net.cpp:84] Creating Layer res5a
I0524 17:57:35.579466   808 net.cpp:406] res5a <- res5a_branch1
I0524 17:57:35.579470   808 net.cpp:406] res5a <- res5a_branch2b
I0524 17:57:35.579485   808 net.cpp:380] res5a -> res5a
I0524 17:57:35.579512   808 net.cpp:122] Setting up res5a
I0524 17:57:35.579520   808 net.cpp:129] Top shape: 50 512 7 7 (1254400)
I0524 17:57:35.579537   808 net.cpp:137] Memory required for data: 2604134600
I0524 17:57:35.579541   808 layer_factory.hpp:77] Creating layer res5a_relu
I0524 17:57:35.579560   808 net.cpp:84] Creating Layer res5a_relu
I0524 17:57:35.579565   808 net.cpp:406] res5a_relu <- res5a
I0524 17:57:35.579569   808 net.cpp:367] res5a_relu -> res5a (in-place)
I0524 17:57:35.579711   808 net.cpp:122] Setting up res5a_relu
I0524 17:57:35.579721   808 net.cpp:129] Top shape: 50 512 7 7 (1254400)
I0524 17:57:35.579725   808 net.cpp:137] Memory required for data: 2609152200
I0524 17:57:35.579727   808 layer_factory.hpp:77] Creating layer res5a_res5a_relu_0_split
I0524 17:57:35.579733   808 net.cpp:84] Creating Layer res5a_res5a_relu_0_split
I0524 17:57:35.579736   808 net.cpp:406] res5a_res5a_relu_0_split <- res5a
I0524 17:57:35.579742   808 net.cpp:380] res5a_res5a_relu_0_split -> res5a_res5a_relu_0_split_0
I0524 17:57:35.579761   808 net.cpp:380] res5a_res5a_relu_0_split -> res5a_res5a_relu_0_split_1
I0524 17:57:35.579797   808 net.cpp:122] Setting up res5a_res5a_relu_0_split
I0524 17:57:35.579805   808 net.cpp:129] Top shape: 50 512 7 7 (1254400)
I0524 17:57:35.579810   808 net.cpp:129] Top shape: 50 512 7 7 (1254400)
I0524 17:57:35.579813   808 net.cpp:137] Memory required for data: 2619187400
I0524 17:57:35.579816   808 layer_factory.hpp:77] Creating layer res5b_branch2a
I0524 17:57:35.579828   808 net.cpp:84] Creating Layer res5b_branch2a
I0524 17:57:35.579833   808 net.cpp:406] res5b_branch2a <- res5a_res5a_relu_0_split_0
I0524 17:57:35.579838   808 net.cpp:380] res5b_branch2a -> res5b_branch2a
I0524 17:57:35.606557   808 net.cpp:122] Setting up res5b_branch2a
I0524 17:57:35.606598   808 net.cpp:129] Top shape: 50 512 7 7 (1254400)
I0524 17:57:35.606602   808 net.cpp:137] Memory required for data: 2624205000
I0524 17:57:35.606611   808 layer_factory.hpp:77] Creating layer bn5b_branch2a
I0524 17:57:35.606622   808 net.cpp:84] Creating Layer bn5b_branch2a
I0524 17:57:35.606627   808 net.cpp:406] bn5b_branch2a <- res5b_branch2a
I0524 17:57:35.606636   808 net.cpp:367] bn5b_branch2a -> res5b_branch2a (in-place)
I0524 17:57:35.606832   808 net.cpp:122] Setting up bn5b_branch2a
I0524 17:57:35.606840   808 net.cpp:129] Top shape: 50 512 7 7 (1254400)
I0524 17:57:35.606843   808 net.cpp:137] Memory required for data: 2629222600
I0524 17:57:35.606850   808 layer_factory.hpp:77] Creating layer scale5b_branch2a
I0524 17:57:35.606858   808 net.cpp:84] Creating Layer scale5b_branch2a
I0524 17:57:35.606860   808 net.cpp:406] scale5b_branch2a <- res5b_branch2a
I0524 17:57:35.606866   808 net.cpp:367] scale5b_branch2a -> res5b_branch2a (in-place)
I0524 17:57:35.606916   808 layer_factory.hpp:77] Creating layer scale5b_branch2a
I0524 17:57:35.607035   808 net.cpp:122] Setting up scale5b_branch2a
I0524 17:57:35.607045   808 net.cpp:129] Top shape: 50 512 7 7 (1254400)
I0524 17:57:35.607048   808 net.cpp:137] Memory required for data: 2634240200
I0524 17:57:35.607054   808 layer_factory.hpp:77] Creating layer res5b_branch2a_relu
I0524 17:57:35.607060   808 net.cpp:84] Creating Layer res5b_branch2a_relu
I0524 17:57:35.607064   808 net.cpp:406] res5b_branch2a_relu <- res5b_branch2a
I0524 17:57:35.607067   808 net.cpp:367] res5b_branch2a_relu -> res5b_branch2a (in-place)
I0524 17:57:35.607234   808 net.cpp:122] Setting up res5b_branch2a_relu
I0524 17:57:35.607244   808 net.cpp:129] Top shape: 50 512 7 7 (1254400)
I0524 17:57:35.607247   808 net.cpp:137] Memory required for data: 2639257800
I0524 17:57:35.607250   808 layer_factory.hpp:77] Creating layer res5b_branch2b
I0524 17:57:35.607261   808 net.cpp:84] Creating Layer res5b_branch2b
I0524 17:57:35.607265   808 net.cpp:406] res5b_branch2b <- res5b_branch2a
I0524 17:57:35.607270   808 net.cpp:380] res5b_branch2b -> res5b_branch2b
I0524 17:57:35.633996   808 net.cpp:122] Setting up res5b_branch2b
I0524 17:57:35.634033   808 net.cpp:129] Top shape: 50 512 7 7 (1254400)
I0524 17:57:35.634038   808 net.cpp:137] Memory required for data: 2644275400
I0524 17:57:35.634047   808 layer_factory.hpp:77] Creating layer bn5b_branch2b
I0524 17:57:35.634083   808 net.cpp:84] Creating Layer bn5b_branch2b
I0524 17:57:35.634089   808 net.cpp:406] bn5b_branch2b <- res5b_branch2b
I0524 17:57:35.634097   808 net.cpp:367] bn5b_branch2b -> res5b_branch2b (in-place)
I0524 17:57:35.634299   808 net.cpp:122] Setting up bn5b_branch2b
I0524 17:57:35.634307   808 net.cpp:129] Top shape: 50 512 7 7 (1254400)
I0524 17:57:35.634322   808 net.cpp:137] Memory required for data: 2649293000
I0524 17:57:35.634330   808 layer_factory.hpp:77] Creating layer scale5b_branch2b
I0524 17:57:35.634337   808 net.cpp:84] Creating Layer scale5b_branch2b
I0524 17:57:35.634341   808 net.cpp:406] scale5b_branch2b <- res5b_branch2b
I0524 17:57:35.634346   808 net.cpp:367] scale5b_branch2b -> res5b_branch2b (in-place)
I0524 17:57:35.634399   808 layer_factory.hpp:77] Creating layer scale5b_branch2b
I0524 17:57:35.634531   808 net.cpp:122] Setting up scale5b_branch2b
I0524 17:57:35.634539   808 net.cpp:129] Top shape: 50 512 7 7 (1254400)
I0524 17:57:35.634542   808 net.cpp:137] Memory required for data: 2654310600
I0524 17:57:35.634548   808 layer_factory.hpp:77] Creating layer res5b
I0524 17:57:35.634555   808 net.cpp:84] Creating Layer res5b
I0524 17:57:35.634572   808 net.cpp:406] res5b <- res5a_res5a_relu_0_split_1
I0524 17:57:35.634575   808 net.cpp:406] res5b <- res5b_branch2b
I0524 17:57:35.634582   808 net.cpp:380] res5b -> res5b
I0524 17:57:35.634608   808 net.cpp:122] Setting up res5b
I0524 17:57:35.634616   808 net.cpp:129] Top shape: 50 512 7 7 (1254400)
I0524 17:57:35.634619   808 net.cpp:137] Memory required for data: 2659328200
I0524 17:57:35.634623   808 layer_factory.hpp:77] Creating layer res5b_relu
I0524 17:57:35.634630   808 net.cpp:84] Creating Layer res5b_relu
I0524 17:57:35.634634   808 net.cpp:406] res5b_relu <- res5b
I0524 17:57:35.634639   808 net.cpp:367] res5b_relu -> res5b (in-place)
I0524 17:57:35.635162   808 net.cpp:122] Setting up res5b_relu
I0524 17:57:35.635174   808 net.cpp:129] Top shape: 50 512 7 7 (1254400)
I0524 17:57:35.635188   808 net.cpp:137] Memory required for data: 2664345800
I0524 17:57:35.635192   808 layer_factory.hpp:77] Creating layer pool5
I0524 17:57:35.635198   808 net.cpp:84] Creating Layer pool5
I0524 17:57:35.635203   808 net.cpp:406] pool5 <- res5b
I0524 17:57:35.635210   808 net.cpp:380] pool5 -> pool5
I0524 17:57:35.635396   808 net.cpp:122] Setting up pool5
I0524 17:57:35.635406   808 net.cpp:129] Top shape: 50 512 1 1 (25600)
I0524 17:57:35.635419   808 net.cpp:137] Memory required for data: 2664448200
I0524 17:57:35.635423   808 layer_factory.hpp:77] Creating layer fc8
I0524 17:57:35.635432   808 net.cpp:84] Creating Layer fc8
I0524 17:57:35.635435   808 net.cpp:406] fc8 <- pool5
I0524 17:57:35.635442   808 net.cpp:380] fc8 -> fc8
I0524 17:57:35.635601   808 net.cpp:122] Setting up fc8
I0524 17:57:35.635608   808 net.cpp:129] Top shape: 50 8 (400)
I0524 17:57:35.635612   808 net.cpp:137] Memory required for data: 2664449800
I0524 17:57:35.635618   808 layer_factory.hpp:77] Creating layer loss
I0524 17:57:35.635624   808 net.cpp:84] Creating Layer loss
I0524 17:57:35.635629   808 net.cpp:406] loss <- fc8
I0524 17:57:35.635633   808 net.cpp:406] loss <- label
I0524 17:57:35.635640   808 net.cpp:380] loss -> loss
I0524 17:57:35.635651   808 layer_factory.hpp:77] Creating layer loss
…
