…
I0525 16:18:44.319563  5268 net.cpp:51] Initializing net from parameters: 
name: "Pre-ResNet-18"
state {
  phase: TRAIN
  level: 0
  stage: ""
}
layer {
  name: "data"
  type: "Data"
  top: "data"
  top: "label"
  include {
    phase: TRAIN
  }
  transform_param {
    mirror: true
    crop_size: 224
    mean_file: "/home/k/PycharmProjects/AgeGenderDeepLearning-master/Folds/lmdb/Test_fold_is_0/mean.binaryproto"
  }
  data_param {
    source: "/home/k/PycharmProjects/AgeGenderDeepLearning-master/Folds/lmdb/Test_fold_is_0/age_train_lmdb"
    batch_size: 50
    backend: LMDB
  }
}
layer {
  name: "data_bn"
  type: "BatchNorm"
  bottom: "data"
  top: "data_bn"
  param {
    lr_mult: 0
    decay_mult: 0
  }
  param {
    lr_mult: 0
    decay_mult: 0
  }
  param {
    lr_mult: 0
    decay_mult: 0
  }
}
layer {
  name: "data_scale"
  type: "Scale"
  bottom: "data_bn"
  top: "data_bn"
  param {
    lr_mult: 1
    decay_mult: 1
  }
  param {
    lr_mult: 2
    decay_mult: 1
  }
  scale_param {
    bias_term: true
  }
}
layer {
  name: "conv1"
  type: "Convolution"
  bottom: "data_bn"
  top: "conv1"
  param {
    lr_mult: 1
    decay_mult: 1
  }
  param {
    lr_mult: 2
    decay_mult: 1
  }
  convolution_param {
    num_output: 64
    pad: 3
    kernel_size: 7
    stride: 2
    weight_filler {
      type: "msra"
      variance_norm: FAN_OUT
    }
    bias_filler {
      type: "constant"
      value: 0
    }
  }
}
layer {
  name: "conv1_bn"
  type: "BatchNorm"
  bottom: "conv1"
  top: "conv1"
  param {
    lr_mult: 0
    decay_mult: 0
  }
  param {
    lr_mult: 0
    decay_mult: 0
  }
  param {
    lr_mult: 0
    decay_mult: 0
  }
}
layer {
  name: "conv1_scale"
  type: "Scale"
  bottom: "conv1"
  top: "conv1"
  param {
    lr_mult: 1
    decay_mult: 1
  }
  param {
    lr_mult: 2
    decay_mult: 1
  }
  scale_param {
    bias_term: true
  }
}
layer {
  name: "conv1_relu"
  type: "ReLU"
  bottom: "conv1"
  top: "conv1"
}
layer {
  name: "conv1_pool"
  type: "Pooling"
  bottom: "conv1"
  top: "conv1_pool"
  pooling_param {
    kernel_size: 3
    stride: 2
  }
}
layer {
  name: "layer_64_1_conv1"
  type: "Convolution"
  bottom: "conv1_pool"
  top: "layer_64_1_conv1"
  param {
    lr_mult: 1
    decay_mult: 1
  }
  convolution_param {
    num_output: 64
    bias_term: false
    pad: 1
    kernel_size: 3
    stride: 1
    weight_filler {
      type: "msra"
    }
    bias_filler {
      type: "constant"
      value: 0
    }
  }
}
layer {
  name: "layer_64_1_bn2"
  type: "BatchNorm"
  bottom: "layer_64_1_conv1"
  top: "layer_64_1_conv1"
  param {
    lr_mult: 0
    decay_mult: 0
  }
  param {
    lr_mult: 0
    decay_mult: 0
  }
  param {
    lr_mult: 0
    decay_mult: 0
  }
}
layer {
  name: "layer_64_1_scale2"
  type: "Scale"
  bottom: "layer_64_1_conv1"
  top: "layer_64_1_conv1"
  param {
    lr_mult: 1
    decay_mult: 1
  }
  param {
    lr_mult: 2
    decay_mult: 1
  }
  scale_param {
    bias_term: true
  }
}
layer {
  name: "layer_64_1_relu2"
  type: "ReLU"
  bottom: "layer_64_1_conv1"
  top: "layer_64_1_conv1"
}
layer {
  name: "layer_64_1_conv2"
  type: "Convolution"
  bottom: "layer_64_1_conv1"
  top: "layer_64_1_conv2"
  param {
    lr_mult: 1
    decay_mult: 1
  }
  convolution_param {
    num_output: 64
    bias_term: false
    pad: 1
    kernel_size: 3
    stride: 1
    weight_filler {
      type: "msra"
    }
    bias_filler {
      type: "constant"
      value: 0
    }
  }
}
layer {
  name: "layer_64_1_sum"
  type: "Eltwise"
  bottom: "layer_64_1_conv2"
  bottom: "conv1_pool"
  top: "layer_64_1_sum"
}
layer {
  name: "layer_64_2_bn1"
  type: "BatchNorm"
  bottom: "layer_64_1_sum"
  top: "layer_64_2_bn1"
  param {
    lr_mult: 0
    decay_mult: 0
  }
  param {
    lr_mult: 0
    decay_mult: 0
  }
  param {
    lr_mult: 0
    decay_mult: 0
  }
}
layer {
  name: "layer_64_2_scale1"
  type: "Scale"
  bottom: "layer_64_2_bn1"
  top: "layer_64_2_bn1"
  param {
    lr_mult: 1
    decay_mult: 1
  }
  param {
    lr_mult: 2
    decay_mult: 1
  }
  scale_param {
    bias_term: true
  }
}
layer {
  name: "layer_64_2_relu1"
  type: "ReLU"
  bottom: "layer_64_2_bn1"
  top: "layer_64_2_bn1"
}
layer {
  name: "layer_64_2_conv1"
  type: "Convolution"
  bottom: "layer_64_2_bn1"
  top: "layer_64_2_conv1"
  param {
    lr_mult: 1
    decay_mult: 1
  }
  convolution_param {
    num_output: 64
    bias_term: false
    pad: 1
    kernel_size: 3
    stride: 1
    weight_filler {
      type: "msra"
    }
    bias_filler {
      type: "constant"
      value: 0
    }
  }
}
layer {
  name: "layer_64_2_bn2"
  type: "BatchNorm"
  bottom: "layer_64_2_conv1"
  top: "layer_64_2_conv1"
  param {
    lr_mult: 0
    decay_mult: 0
  }
  param {
    lr_mult: 0
    decay_mult: 0
  }
  param {
    lr_mult: 0
    decay_mult: 0
  }
}
layer {
  name: "layer_64_2_scale2"
  type: "Scale"
  bottom: "layer_64_2_conv1"
  top: "layer_64_2_conv1"
  param {
    lr_mult: 1
    decay_mult: 1
  }
  param {
    lr_mult: 2
    decay_mult: 1
  }
  scale_param {
    bias_term: true
  }
}
layer {
  name: "layer_64_2_relu2"
  type: "ReLU"
  bottom: "layer_64_2_conv1"
  top: "layer_64_2_conv1"
}
layer {
  name: "layer_64_2_conv2"
  type: "Convolution"
  bottom: "layer_64_2_conv1"
  top: "layer_64_2_conv2"
  param {
    lr_mult: 1
    decay_mult: 1
  }
  convolution_param {
    num_output: 64
    bias_term: false
    pad: 1
    kernel_size: 3
    stride: 1
    weight_filler {
      type: "msra"
    }
    bias_filler {
      type: "constant"
      value: 0
    }
  }
}
layer {
  name: "layer_64_2_sum"
  type: "Eltwise"
  bottom: "layer_64_2_conv2"
  bottom: "layer_64_1_sum"
  top: "layer_64_2_sum"
}
layer {
  name: "layer_128_1_bn1"
  type: "BatchNorm"
  bottom: "layer_64_2_sum"
  top: "layer_128_1_bn1"
  param {
    lr_mult: 0
    decay_mult: 0
  }
  param {
    lr_mult: 0
    decay_mult: 0
  }
  param {
    lr_mult: 0
    decay_mult: 0
  }
}
layer {
  name: "layer_128_1_scale1"
  type: "Scale"
  bottom: "layer_128_1_bn1"
  top: "layer_128_1_bn1"
  param {
    lr_mult: 1
    decay_mult: 1
  }
  param {
    lr_mult: 2
    decay_mult: 1
  }
  scale_param {
    bias_term: true
  }
}
layer {
  name: "layer_128_1_relu1"
  type: "ReLU"
  bottom: "layer_128_1_bn1"
  top: "layer_128_1_bn1"
}
layer {
  name: "layer_128_1_conv1"
  type: "Convolution"
  bottom: "layer_128_1_bn1"
  top: "layer_128_1_conv1"
  param {
    lr_mult: 1
    decay_mult: 1
  }
  convolution_param {
    num_output: 128
    bias_term: false
    pad: 1
    kernel_size: 3
    stride: 2
    weight_filler {
      type: "msra"
    }
    bias_filler {
      type: "constant"
      value: 0
    }
  }
}
layer {
  name: "layer_128_1_bn2"
  type: "BatchNorm"
  bottom: "layer_128_1_conv1"
  top: "layer_128_1_conv1"
  param {
    lr_mult: 0
    decay_mult: 0
  }
  param {
    lr_mult: 0
    decay_mult: 0
  }
  param {
    lr_mult: 0
    decay_mult: 0
  }
}
layer {
  name: "layer_128_1_scale2"
  type: "Scale"
  bottom: "layer_128_1_conv1"
  top: "layer_128_1_conv1"
  param {
    lr_mult: 1
    decay_mult: 1
  }
  param {
    lr_mult: 2
    decay_mult: 1
  }
  scale_param {
    bias_term: true
  }
}
layer {
  name: "layer_128_1_relu2"
  type: "ReLU"
  bottom: "layer_128_1_conv1"
  top: "layer_128_1_conv1"
}
layer {
  name: "layer_128_1_conv2"
  type: "Convolution"
  bottom: "layer_128_1_conv1"
  top: "layer_128_1_conv2"
  param {
    lr_mult: 1
    decay_mult: 1
  }
  convolution_param {
    num_output: 128
    bias_term: false
    pad: 1
    kernel_size: 3
    stride: 1
    weight_filler {
      type: "msra"
    }
    bias_filler {
      type: "constant"
      value: 0
    }
  }
}
layer {
  name: "layer_128_1_conv_expand"
  type: "Convolution"
  bottom: "layer_128_1_bn1"
  top: "layer_128_1_conv_expand"
  param {
    lr_mult: 1
    decay_mult: 1
  }
  convolution_param {
    num_output: 128
    bias_term: false
    pad: 0
    kernel_size: 1
    stride: 2
    weight_filler {
      type: "msra"
    }
    bias_filler {
      type: "constant"
      value: 0
    }
  }
}
layer {
  name: "layer_128_1_sum"
  type: "Eltwise"
  bottom: "layer_128_1_conv_expand"
  bottom: "layer_128_1_conv2"
  top: "layer_128_1_sum"
}
layer {
  name: "layer_128_2_bn1"
  type: "BatchNorm"
  bottom: "layer_128_1_sum"
  top: "layer_128_2_bn1"
  param {
    lr_mult: 0
    decay_mult: 0
  }
  param {
    lr_mult: 0
    decay_mult: 0
  }
  param {
    lr_mult: 0
    decay_mult: 0
  }
}
layer {
  name: "layer_128_2_scale1"
  type: "Scale"
  bottom: "layer_128_2_bn1"
  top: "layer_128_2_bn1"
  param {
    lr_mult: 1
    decay_mult: 1
  }
  param {
    lr_mult: 2
    decay_mult: 1
  }
  scale_param {
    bias_term: true
  }
}
layer {
  name: "layer_128_2_relu1"
  type: "ReLU"
  bottom: "layer_128_2_bn1"
  top: "layer_128_2_bn1"
}
layer {
  name: "layer_128_2_conv1"
  type: "Convolution"
  bottom: "layer_128_2_bn1"
  top: "layer_128_2_conv1"
  param {
    lr_mult: 1
    decay_mult: 1
  }
  convolution_param {
    num_output: 128
    bias_term: false
    pad: 1
    kernel_size: 3
    stride: 1
    weight_filler {
      type: "msra"
    }
    bias_filler {
      type: "constant"
      value: 0
    }
  }
}
layer {
  name: "layer_128_2_bn2"
  type: "BatchNorm"
  bottom: "layer_128_2_conv1"
  top: "layer_128_2_conv1"
  param {
    lr_mult: 0
    decay_mult: 0
  }
  param {
    lr_mult: 0
    decay_mult: 0
  }
  param {
    lr_mult: 0
    decay_mult: 0
  }
}
layer {
  name: "layer_128_2_scale2"
  type: "Scale"
  bottom: "layer_128_2_conv1"
  top: "layer_128_2_conv1"
  param {
    lr_mult: 1
    decay_mult: 1
  }
  param {
    lr_mult: 2
    decay_mult: 1
  }
  scale_param {
    bias_term: true
  }
}
layer {
  name: "layer_128_2_relu2"
  type: "ReLU"
  bottom: "layer_128_2_conv1"
  top: "layer_128_2_conv1"
}
layer {
  name: "layer_128_2_conv2"
  type: "Convolution"
  bottom: "layer_128_2_conv1"
  top: "layer_128_2_conv2"
  param {
    lr_mult: 1
    decay_mult: 1
  }
  convolution_param {
    num_output: 128
    bias_term: false
    pad: 1
    kernel_size: 3
    stride: 1
    weight_filler {
      type: "msra"
    }
    bias_filler {
      type: "constant"
      value: 0
    }
  }
}
layer {
  name: "layer_128_2_sum"
  type: "Eltwise"
  bottom: "layer_128_2_conv2"
  bottom: "layer_128_1_sum"
  top: "layer_128_2_sum"
}
layer {
  name: "layer_256_1_bn1"
  type: "BatchNorm"
  bottom: "layer_128_2_sum"
  top: "layer_256_1_bn1"
  param {
    lr_mult: 0
    decay_mult: 0
  }
  param {
    lr_mult: 0
    decay_mult: 0
  }
  param {
    lr_mult: 0
    decay_mult: 0
  }
}
layer {
  name: "layer_256_1_scale1"
  type: "Scale"
  bottom: "layer_256_1_bn1"
  top: "layer_256_1_bn1"
  param {
    lr_mult: 1
    decay_mult: 1
  }
  param {
    lr_mult: 2
    decay_mult: 1
  }
  scale_param {
    bias_term: true
  }
}
layer {
  name: "layer_256_1_relu1"
  type: "ReLU"
  bottom: "layer_256_1_bn1"
  top: "layer_256_1_bn1"
}
layer {
  name: "layer_256_1_conv1"
  type: "Convolution"
  bottom: "layer_256_1_bn1"
  top: "layer_256_1_conv1"
  param {
    lr_mult: 1
    decay_mult: 1
  }
  convolution_param {
    num_output: 256
    bias_term: false
    pad: 1
    kernel_size: 3
    stride: 2
    weight_filler {
      type: "msra"
    }
    bias_filler {
      type: "constant"
      value: 0
    }
  }
}
layer {
  name: "layer_256_1_bn2"
  type: "BatchNorm"
  bottom: "layer_256_1_conv1"
  top: "layer_256_1_conv1"
  param {
    lr_mult: 0
    decay_mult: 0
  }
  param {
    lr_mult: 0
    decay_mult: 0
  }
  param {
    lr_mult: 0
    decay_mult: 0
  }
}
layer {
  name: "layer_256_1_scale2"
  type: "Scale"
  bottom: "layer_256_1_conv1"
  top: "layer_256_1_conv1"
  param {
    lr_mult: 1
    decay_mult: 1
  }
  param {
    lr_mult: 2
    decay_mult: 1
  }
  scale_param {
    bias_term: true
  }
}
layer {
  name: "layer_256_1_relu2"
  type: "ReLU"
  bottom: "layer_256_1_conv1"
  top: "layer_256_1_conv1"
}
layer {
  name: "layer_256_1_conv2"
  type: "Convolution"
  bottom: "layer_256_1_conv1"
  top: "layer_256_1_conv2"
  param {
    lr_mult: 1
    decay_mult: 1
  }
  convolution_param {
    num_output: 256
    bias_term: false
    pad: 1
    kernel_size: 3
    stride: 1
    weight_filler {
      type: "msra"
    }
    bias_filler {
      type: "constant"
      value: 0
    }
  }
}
layer {
  name: "layer_256_1_conv_expand"
  type: "Convolution"
  bottom: "layer_256_1_bn1"
  top: "layer_256_1_conv_expand"
  param {
    lr_mult: 1
    decay_mult: 1
  }
  convolution_param {
    num_output: 256
    bias_term: false
    pad: 0
    kernel_size: 1
    stride: 2
    weight_filler {
      type: "msra"
    }
    bias_filler {
      type: "constant"
      value: 0
    }
  }
}
layer {
  name: "layer_256_1_sum"
  type: "Eltwise"
  bottom: "layer_256_1_conv_expand"
  bottom: "layer_256_1_conv2"
  top: "layer_256_1_sum"
}
layer {
  name: "layer_256_2_bn1"
  type: "BatchNorm"
  bottom: "layer_256_1_sum"
  top: "layer_256_2_bn1"
  param {
    lr_mult: 0
    decay_mult: 0
  }
  param {
    lr_mult: 0
    decay_mult: 0
  }
  param {
    lr_mult: 0
    decay_mult: 0
  }
}
layer {
  name: "layer_256_2_scale1"
  type: "Scale"
  bottom: "layer_256_2_bn1"
  top: "layer_256_2_bn1"
  param {
    lr_mult: 1
    decay_mult: 1
  }
  param {
    lr_mult: 2
    decay_mult: 1
  }
  scale_param {
    bias_term: true
  }
}
layer {
  name: "layer_256_2_relu1"
  type: "ReLU"
  bottom: "layer_256_2_bn1"
  top: "layer_256_2_bn1"
}
layer {
  name: "layer_256_2_conv1"
  type: "Convolution"
  bottom: "layer_256_2_bn1"
  top: "layer_256_2_conv1"
  param {
    lr_mult: 1
    decay_mult: 1
  }
  convolution_param {
    num_output: 256
    bias_term: false
    pad: 1
    kernel_size: 3
    stride: 1
    weight_filler {
      type: "msra"
    }
    bias_filler {
      type: "constant"
      value: 0
    }
  }
}
layer {
  name: "layer_256_2_bn2"
  type: "BatchNorm"
  bottom: "layer_256_2_conv1"
  top: "layer_256_2_conv1"
  param {
    lr_mult: 0
    decay_mult: 0
  }
  param {
    lr_mult: 0
    decay_mult: 0
  }
  param {
    lr_mult: 0
    decay_mult: 0
  }
}
layer {
  name: "layer_256_2_scale2"
  type: "Scale"
  bottom: "layer_256_2_conv1"
  top: "layer_256_2_conv1"
  param {
    lr_mult: 1
    decay_mult: 1
  }
  param {
    lr_mult: 2
    decay_mult: 1
  }
  scale_param {
    bias_term: true
  }
}
layer {
  name: "layer_256_2_relu2"
  type: "ReLU"
  bottom: "layer_256_2_conv1"
  top: "layer_256_2_conv1"
}
layer {
  name: "layer_256_2_conv2"
  type: "Convolution"
  bottom: "layer_256_2_conv1"
  top: "layer_256_2_conv2"
  param {
    lr_mult: 1
    decay_mult: 1
  }
  convolution_param {
    num_output: 256
    bias_term: false
    pad: 1
    kernel_size: 3
    stride: 1
    weight_filler {
      type: "msra"
    }
    bias_filler {
      type: "constant"
      value: 0
    }
  }
}
layer {
  name: "layer_256_2_sum"
  type: "Eltwise"
  bottom: "layer_256_2_conv2"
  bottom: "layer_256_1_sum"
  top: "layer_256_2_sum"
}
layer {
  name: "layer_512_1_bn1"
  type: "BatchNorm"
  bottom: "layer_256_2_sum"
  top: "layer_512_1_bn1"
  param {
    lr_mult: 0
    decay_mult: 0
  }
  param {
    lr_mult: 0
    decay_mult: 0
  }
  param {
    lr_mult: 0
    decay_mult: 0
  }
}
layer {
  name: "layer_512_1_scale1"
  type: "Scale"
  bottom: "layer_512_1_bn1"
  top: "layer_512_1_bn1"
  param {
    lr_mult: 1
    decay_mult: 1
  }
  param {
    lr_mult: 2
    decay_mult: 1
  }
  scale_param {
    bias_term: true
  }
}
layer {
  name: "layer_512_1_relu1"
  type: "ReLU"
  bottom: "layer_512_1_bn1"
  top: "layer_512_1_bn1"
}
layer {
  name: "layer_512_1_conv1"
  type: "Convolution"
  bottom: "layer_512_1_bn1"
  top: "layer_512_1_conv1"
  param {
    lr_mult: 1
    decay_mult: 1
  }
  convolution_param {
    num_output: 512
    bias_term: false
    pad: 1
    kernel_size: 3
    stride: 2
    weight_filler {
      type: "msra"
    }
    bias_filler {
      type: "constant"
      value: 0
    }
  }
}
layer {
  name: "layer_512_1_bn2"
  type: "BatchNorm"
  bottom: "layer_512_1_conv1"
  top: "layer_512_1_conv1"
  param {
    lr_mult: 0
    decay_mult: 0
  }
  param {
    lr_mult: 0
    decay_mult: 0
  }
  param {
    lr_mult: 0
    decay_mult: 0
  }
}
layer {
  name: "layer_512_1_scale2"
  type: "Scale"
  bottom: "layer_512_1_conv1"
  top: "layer_512_1_conv1"
  param {
    lr_mult: 1
    decay_mult: 1
  }
  param {
    lr_mult: 2
    decay_mult: 1
  }
  scale_param {
    bias_term: true
  }
}
layer {
  name: "layer_512_1_relu2"
  type: "ReLU"
  bottom: "layer_512_1_conv1"
  top: "layer_512_1_conv1"
}
layer {
  name: "layer_512_1_conv2"
  type: "Convolution"
  bottom: "layer_512_1_conv1"
  top: "layer_512_1_conv2"
  param {
    lr_mult: 1
    decay_mult: 1
  }
  convolution_param {
    num_output: 512
    bias_term: false
    pad: 1
    kernel_size: 3
    stride: 1
    weight_filler {
      type: "msra"
    }
    bias_filler {
      type: "constant"
      value: 0
    }
  }
}
layer {
  name: "layer_512_1_conv_expand"
  type: "Convolution"
  bottom: "layer_512_1_bn1"
  top: "layer_512_1_conv_expand"
  param {
    lr_mult: 1
    decay_mult: 1
  }
  convolution_param {
    num_output: 512
    bias_term: false
    pad: 0
    kernel_size: 1
    stride: 2
    weight_filler {
      type: "msra"
    }
    bias_filler {
      type: "constant"
      value: 0
    }
  }
}
layer {
  name: "layer_512_1_sum"
  type: "Eltwise"
  bottom: "layer_512_1_conv_expand"
  bottom: "layer_512_1_conv2"
  top: "layer_512_1_sum"
}
layer {
  name: "layer_512_2_bn1"
  type: "BatchNorm"
  bottom: "layer_512_1_sum"
  top: "layer_512_2_bn1"
  param {
    lr_mult: 0
    decay_mult: 0
  }
  param {
    lr_mult: 0
    decay_mult: 0
  }
  param {
    lr_mult: 0
    decay_mult: 0
  }
}
layer {
  name: "layer_512_2_scale1"
  type: "Scale"
  bottom: "layer_512_2_bn1"
  top: "layer_512_2_bn1"
  param {
    lr_mult: 1
    decay_mult: 1
  }
  param {
    lr_mult: 2
    decay_mult: 1
  }
  scale_param {
    bias_term: true
  }
}
layer {
  name: "layer_512_2_relu1"
  type: "ReLU"
  bottom: "layer_512_2_bn1"
  top: "layer_512_2_bn1"
}
layer {
  name: "layer_512_2_conv1"
  type: "Convolution"
  bottom: "layer_512_2_bn1"
  top: "layer_512_2_conv1"
  param {
    lr_mult: 1
    decay_mult: 1
  }
  convolution_param {
    num_output: 512
    bias_term: false
    pad: 1
    kernel_size: 3
    stride: 1
    weight_filler {
      type: "msra"
    }
    bias_filler {
      type: "constant"
      value: 0
    }
  }
}
layer {
  name: "layer_512_2_bn2"
  type: "BatchNorm"
  bottom: "layer_512_2_conv1"
  top: "layer_512_2_conv1"
  param {
    lr_mult: 0
    decay_mult: 0
  }
  param {
    lr_mult: 0
    decay_mult: 0
  }
  param {
    lr_mult: 0
    decay_mult: 0
  }
}
layer {
  name: "layer_512_2_scale2"
  type: "Scale"
  bottom: "layer_512_2_conv1"
  top: "layer_512_2_conv1"
  param {
    lr_mult: 1
    decay_mult: 1
  }
  param {
    lr_mult: 2
    decay_mult: 1
  }
  scale_param {
    bias_term: true
  }
}
layer {
  name: "layer_512_2_relu2"
  type: "ReLU"
  bottom: "layer_512_2_conv1"
  top: "layer_512_2_conv1"
}
layer {
  name: "layer_512_2_conv2"
  type: "Convolution"
  bottom: "layer_512_2_conv1"
  top: "layer_512_2_conv2"
  param {
    lr_mult: 1
    decay_mult: 1
  }
  convolution_param {
    num_output: 512
    bias_term: false
    pad: 1
    kernel_size: 3
    stride: 1
    weight_filler {
      type: "msra"
    }
    bias_filler {
      type: "constant"
      value: 0
    }
  }
}
layer {
  name: "layer_512_2_sum"
  type: "Eltwise"
  bottom: "layer_512_2_conv2"
  bottom: "layer_512_1_sum"
  top: "layer_512_2_sum"
}
layer {
  name: "last_bn"
  type: "BatchNorm"
  bottom: "layer_512_2_sum"
  top: "layer_512_2_sum"
  param {
    lr_mult: 0
    decay_mult: 0
  }
  param {
    lr_mult: 0
    decay_mult: 0
  }
  param {
    lr_mult: 0
    decay_mult: 0
  }
}
layer {
  name: "last_scale"
  type: "Scale"
  bottom: "layer_512_2_sum"
  top: "layer_512_2_sum"
  param {
    lr_mult: 1
    decay_mult: 1
  }
  param {
    lr_mult: 2
    decay_mult: 1
  }
  scale_param {
    bias_term: true
  }
}
layer {
  name: "last_relu"
  type: "ReLU"
  bottom: "layer_512_2_sum"
  top: "layer_512_2_sum"
}
layer {
  name: "global_pool"
  type: "Pooling"
  bottom: "layer_512_2_sum"
  top: "global_pool"
  pooling_param {
    pool: AVE
    global_pooling: true
  }
}
layer {
  name: "score"
  type: "InnerProduct"
  bottom: "global_pool"
  top: "score"
  param {
    lr_mult: 1
    decay_mult: 1
  }
  param {
    lr_mult: 2
    decay_mult: 1
  }
  inner_product_param {
    num_output: 8
  }
}
layer {
  name: "loss"
  type: "SoftmaxWithLoss"
  bottom: "score"
  bottom: "label"
  top: "loss"
}
I0525 16:18:44.319869  5268 layer_factory.hpp:77] Creating layer data
I0525 16:18:44.319983  5268 db_lmdb.cpp:35] Opened lmdb /home/k/PycharmProjects/AgeGenderDeepLearning-master/Folds/lmdb/Test_fold_is_0/age_train_lmdb
I0525 16:18:44.320014  5268 net.cpp:84] Creating Layer data
I0525 16:18:44.320024  5268 net.cpp:380] data -> data
I0525 16:18:44.320044  5268 net.cpp:380] data -> label
I0525 16:18:44.320055  5268 data_transformer.cpp:25] Loading mean file from: /home/k/PycharmProjects/AgeGenderDeepLearning-master/Folds/lmdb/Test_fold_is_0/mean.binaryproto
I0525 16:18:44.322754  5268 data_layer.cpp:45] output data size: 50,3,224,224
I0525 16:18:44.382797  5268 net.cpp:122] Setting up data
I0525 16:18:44.382836  5268 net.cpp:129] Top shape: 50 3 224 224 (7526400)
I0525 16:18:44.382843  5268 net.cpp:129] Top shape: 50 (50)
I0525 16:18:44.382845  5268 net.cpp:137] Memory required for data: 30105800
I0525 16:18:44.382855  5268 layer_factory.hpp:77] Creating layer data_bn
I0525 16:18:44.382869  5268 net.cpp:84] Creating Layer data_bn
I0525 16:18:44.382875  5268 net.cpp:406] data_bn <- data
I0525 16:18:44.382887  5268 net.cpp:380] data_bn -> data_bn
I0525 16:18:44.383808  5268 net.cpp:122] Setting up data_bn
I0525 16:18:44.383821  5268 net.cpp:129] Top shape: 50 3 224 224 (7526400)
I0525 16:18:44.383836  5268 net.cpp:137] Memory required for data: 60211400
I0525 16:18:44.383858  5268 layer_factory.hpp:77] Creating layer data_scale
I0525 16:18:44.383868  5268 net.cpp:84] Creating Layer data_scale
I0525 16:18:44.383872  5268 net.cpp:406] data_scale <- data_bn
I0525 16:18:44.383878  5268 net.cpp:367] data_scale -> data_bn (in-place)
I0525 16:18:44.383919  5268 layer_factory.hpp:77] Creating layer data_scale
I0525 16:18:44.388604  5268 net.cpp:122] Setting up data_scale
I0525 16:18:44.388618  5268 net.cpp:129] Top shape: 50 3 224 224 (7526400)
I0525 16:18:44.388633  5268 net.cpp:137] Memory required for data: 90317000
I0525 16:18:44.388643  5268 layer_factory.hpp:77] Creating layer conv1
I0525 16:18:44.388656  5268 net.cpp:84] Creating Layer conv1
I0525 16:18:44.388660  5268 net.cpp:406] conv1 <- data_bn
I0525 16:18:44.388666  5268 net.cpp:380] conv1 -> conv1
I0525 16:18:44.628396  5268 net.cpp:122] Setting up conv1
I0525 16:18:44.628425  5268 net.cpp:129] Top shape: 50 64 112 112 (40140800)
I0525 16:18:44.628429  5268 net.cpp:137] Memory required for data: 250880200
I0525 16:18:44.628442  5268 layer_factory.hpp:77] Creating layer conv1_bn
I0525 16:18:44.628453  5268 net.cpp:84] Creating Layer conv1_bn
I0525 16:18:44.628470  5268 net.cpp:406] conv1_bn <- conv1
I0525 16:18:44.628478  5268 net.cpp:367] conv1_bn -> conv1 (in-place)
I0525 16:18:44.628655  5268 net.cpp:122] Setting up conv1_bn
I0525 16:18:44.628665  5268 net.cpp:129] Top shape: 50 64 112 112 (40140800)
I0525 16:18:44.628669  5268 net.cpp:137] Memory required for data: 411443400
I0525 16:18:44.628680  5268 layer_factory.hpp:77] Creating layer conv1_scale
I0525 16:18:44.628715  5268 net.cpp:84] Creating Layer conv1_scale
I0525 16:18:44.628720  5268 net.cpp:406] conv1_scale <- conv1
I0525 16:18:44.628726  5268 net.cpp:367] conv1_scale -> conv1 (in-place)
I0525 16:18:44.628782  5268 layer_factory.hpp:77] Creating layer conv1_scale
I0525 16:18:44.628904  5268 net.cpp:122] Setting up conv1_scale
I0525 16:18:44.628913  5268 net.cpp:129] Top shape: 50 64 112 112 (40140800)
I0525 16:18:44.628916  5268 net.cpp:137] Memory required for data: 572006600
I0525 16:18:44.628922  5268 layer_factory.hpp:77] Creating layer conv1_relu
I0525 16:18:44.628928  5268 net.cpp:84] Creating Layer conv1_relu
I0525 16:18:44.628931  5268 net.cpp:406] conv1_relu <- conv1
I0525 16:18:44.628937  5268 net.cpp:367] conv1_relu -> conv1 (in-place)
I0525 16:18:44.629094  5268 net.cpp:122] Setting up conv1_relu
I0525 16:18:44.629104  5268 net.cpp:129] Top shape: 50 64 112 112 (40140800)
I0525 16:18:44.629107  5268 net.cpp:137] Memory required for data: 732569800
I0525 16:18:44.629112  5268 layer_factory.hpp:77] Creating layer conv1_pool
I0525 16:18:44.629117  5268 net.cpp:84] Creating Layer conv1_pool
I0525 16:18:44.629120  5268 net.cpp:406] conv1_pool <- conv1
I0525 16:18:44.629125  5268 net.cpp:380] conv1_pool -> conv1_pool
I0525 16:18:44.629180  5268 net.cpp:122] Setting up conv1_pool
I0525 16:18:44.629189  5268 net.cpp:129] Top shape: 50 64 56 56 (10035200)
I0525 16:18:44.629192  5268 net.cpp:137] Memory required for data: 772710600
I0525 16:18:44.629195  5268 layer_factory.hpp:77] Creating layer conv1_pool_conv1_pool_0_split
I0525 16:18:44.629201  5268 net.cpp:84] Creating Layer conv1_pool_conv1_pool_0_split
I0525 16:18:44.629205  5268 net.cpp:406] conv1_pool_conv1_pool_0_split <- conv1_pool
I0525 16:18:44.629210  5268 net.cpp:380] conv1_pool_conv1_pool_0_split -> conv1_pool_conv1_pool_0_split_0
I0525 16:18:44.629227  5268 net.cpp:380] conv1_pool_conv1_pool_0_split -> conv1_pool_conv1_pool_0_split_1
I0525 16:18:44.629257  5268 net.cpp:122] Setting up conv1_pool_conv1_pool_0_split
I0525 16:18:44.629264  5268 net.cpp:129] Top shape: 50 64 56 56 (10035200)
I0525 16:18:44.629268  5268 net.cpp:129] Top shape: 50 64 56 56 (10035200)
I0525 16:18:44.629271  5268 net.cpp:137] Memory required for data: 852992200
I0525 16:18:44.629287  5268 layer_factory.hpp:77] Creating layer layer_64_1_conv1
I0525 16:18:44.629297  5268 net.cpp:84] Creating Layer layer_64_1_conv1
I0525 16:18:44.629300  5268 net.cpp:406] layer_64_1_conv1 <- conv1_pool_conv1_pool_0_split_0
I0525 16:18:44.629305  5268 net.cpp:380] layer_64_1_conv1 -> layer_64_1_conv1
I0525 16:18:44.630666  5268 net.cpp:122] Setting up layer_64_1_conv1
I0525 16:18:44.630678  5268 net.cpp:129] Top shape: 50 64 56 56 (10035200)
I0525 16:18:44.630681  5268 net.cpp:137] Memory required for data: 893133000
I0525 16:18:44.630687  5268 layer_factory.hpp:77] Creating layer layer_64_1_bn2
I0525 16:18:44.630693  5268 net.cpp:84] Creating Layer layer_64_1_bn2
I0525 16:18:44.630708  5268 net.cpp:406] layer_64_1_bn2 <- layer_64_1_conv1
I0525 16:18:44.630715  5268 net.cpp:367] layer_64_1_bn2 -> layer_64_1_conv1 (in-place)
I0525 16:18:44.631532  5268 net.cpp:122] Setting up layer_64_1_bn2
I0525 16:18:44.631543  5268 net.cpp:129] Top shape: 50 64 56 56 (10035200)
I0525 16:18:44.631547  5268 net.cpp:137] Memory required for data: 933273800
I0525 16:18:44.631554  5268 layer_factory.hpp:77] Creating layer layer_64_1_scale2
I0525 16:18:44.631561  5268 net.cpp:84] Creating Layer layer_64_1_scale2
I0525 16:18:44.631577  5268 net.cpp:406] layer_64_1_scale2 <- layer_64_1_conv1
I0525 16:18:44.631583  5268 net.cpp:367] layer_64_1_scale2 -> layer_64_1_conv1 (in-place)
I0525 16:18:44.631618  5268 layer_factory.hpp:77] Creating layer layer_64_1_scale2
I0525 16:18:44.631706  5268 net.cpp:122] Setting up layer_64_1_scale2
I0525 16:18:44.631716  5268 net.cpp:129] Top shape: 50 64 56 56 (10035200)
I0525 16:18:44.631721  5268 net.cpp:137] Memory required for data: 973414600
I0525 16:18:44.631728  5268 layer_factory.hpp:77] Creating layer layer_64_1_relu2
I0525 16:18:44.631736  5268 net.cpp:84] Creating Layer layer_64_1_relu2
I0525 16:18:44.631748  5268 net.cpp:406] layer_64_1_relu2 <- layer_64_1_conv1
I0525 16:18:44.631753  5268 net.cpp:367] layer_64_1_relu2 -> layer_64_1_conv1 (in-place)
I0525 16:18:44.632395  5268 net.cpp:122] Setting up layer_64_1_relu2
I0525 16:18:44.632407  5268 net.cpp:129] Top shape: 50 64 56 56 (10035200)
I0525 16:18:44.632411  5268 net.cpp:137] Memory required for data: 1013555400
I0525 16:18:44.632426  5268 layer_factory.hpp:77] Creating layer layer_64_1_conv2
I0525 16:18:44.632436  5268 net.cpp:84] Creating Layer layer_64_1_conv2
I0525 16:18:44.632441  5268 net.cpp:406] layer_64_1_conv2 <- layer_64_1_conv1
I0525 16:18:44.632447  5268 net.cpp:380] layer_64_1_conv2 -> layer_64_1_conv2
I0525 16:18:44.633389  5268 net.cpp:122] Setting up layer_64_1_conv2
I0525 16:18:44.633400  5268 net.cpp:129] Top shape: 50 64 56 56 (10035200)
I0525 16:18:44.633404  5268 net.cpp:137] Memory required for data: 1053696200
I0525 16:18:44.633421  5268 layer_factory.hpp:77] Creating layer layer_64_1_sum
I0525 16:18:44.633430  5268 net.cpp:84] Creating Layer layer_64_1_sum
I0525 16:18:44.633435  5268 net.cpp:406] layer_64_1_sum <- layer_64_1_conv2
I0525 16:18:44.633440  5268 net.cpp:406] layer_64_1_sum <- conv1_pool_conv1_pool_0_split_1
I0525 16:18:44.633445  5268 net.cpp:380] layer_64_1_sum -> layer_64_1_sum
I0525 16:18:44.633472  5268 net.cpp:122] Setting up layer_64_1_sum
I0525 16:18:44.633481  5268 net.cpp:129] Top shape: 50 64 56 56 (10035200)
I0525 16:18:44.633484  5268 net.cpp:137] Memory required for data: 1093837000
I0525 16:18:44.633487  5268 layer_factory.hpp:77] Creating layer layer_64_1_sum_layer_64_1_sum_0_split
I0525 16:18:44.633492  5268 net.cpp:84] Creating Layer layer_64_1_sum_layer_64_1_sum_0_split
I0525 16:18:44.633497  5268 net.cpp:406] layer_64_1_sum_layer_64_1_sum_0_split <- layer_64_1_sum
I0525 16:18:44.633503  5268 net.cpp:380] layer_64_1_sum_layer_64_1_sum_0_split -> layer_64_1_sum_layer_64_1_sum_0_split_0
I0525 16:18:44.633510  5268 net.cpp:380] layer_64_1_sum_layer_64_1_sum_0_split -> layer_64_1_sum_layer_64_1_sum_0_split_1
I0525 16:18:44.633543  5268 net.cpp:122] Setting up layer_64_1_sum_layer_64_1_sum_0_split
I0525 16:18:44.633549  5268 net.cpp:129] Top shape: 50 64 56 56 (10035200)
I0525 16:18:44.633554  5268 net.cpp:129] Top shape: 50 64 56 56 (10035200)
I0525 16:18:44.633558  5268 net.cpp:137] Memory required for data: 1174118600
I0525 16:18:44.633563  5268 layer_factory.hpp:77] Creating layer layer_64_2_bn1
I0525 16:18:44.633571  5268 net.cpp:84] Creating Layer layer_64_2_bn1
I0525 16:18:44.633575  5268 net.cpp:406] layer_64_2_bn1 <- layer_64_1_sum_layer_64_1_sum_0_split_0
I0525 16:18:44.633582  5268 net.cpp:380] layer_64_2_bn1 -> layer_64_2_bn1
I0525 16:18:44.633739  5268 net.cpp:122] Setting up layer_64_2_bn1
I0525 16:18:44.633749  5268 net.cpp:129] Top shape: 50 64 56 56 (10035200)
I0525 16:18:44.633752  5268 net.cpp:137] Memory required for data: 1214259400
I0525 16:18:44.633759  5268 layer_factory.hpp:77] Creating layer layer_64_2_scale1
I0525 16:18:44.633767  5268 net.cpp:84] Creating Layer layer_64_2_scale1
I0525 16:18:44.633772  5268 net.cpp:406] layer_64_2_scale1 <- layer_64_2_bn1
I0525 16:18:44.633777  5268 net.cpp:367] layer_64_2_scale1 -> layer_64_2_bn1 (in-place)
I0525 16:18:44.633813  5268 layer_factory.hpp:77] Creating layer layer_64_2_scale1
I0525 16:18:44.633909  5268 net.cpp:122] Setting up layer_64_2_scale1
I0525 16:18:44.633919  5268 net.cpp:129] Top shape: 50 64 56 56 (10035200)
I0525 16:18:44.633922  5268 net.cpp:137] Memory required for data: 1254400200
I0525 16:18:44.633929  5268 layer_factory.hpp:77] Creating layer layer_64_2_relu1
I0525 16:18:44.633936  5268 net.cpp:84] Creating Layer layer_64_2_relu1
I0525 16:18:44.633940  5268 net.cpp:406] layer_64_2_relu1 <- layer_64_2_bn1
I0525 16:18:44.633945  5268 net.cpp:367] layer_64_2_relu1 -> layer_64_2_bn1 (in-place)
I0525 16:18:44.634558  5268 net.cpp:122] Setting up layer_64_2_relu1
I0525 16:18:44.634572  5268 net.cpp:129] Top shape: 50 64 56 56 (10035200)
I0525 16:18:44.634575  5268 net.cpp:137] Memory required for data: 1294541000
I0525 16:18:44.634588  5268 layer_factory.hpp:77] Creating layer layer_64_2_conv1
I0525 16:18:44.634600  5268 net.cpp:84] Creating Layer layer_64_2_conv1
I0525 16:18:44.634604  5268 net.cpp:406] layer_64_2_conv1 <- layer_64_2_bn1
I0525 16:18:44.634611  5268 net.cpp:380] layer_64_2_conv1 -> layer_64_2_conv1
I0525 16:18:44.636039  5268 net.cpp:122] Setting up layer_64_2_conv1
I0525 16:18:44.636052  5268 net.cpp:129] Top shape: 50 64 56 56 (10035200)
I0525 16:18:44.636057  5268 net.cpp:137] Memory required for data: 1334681800
I0525 16:18:44.636063  5268 layer_factory.hpp:77] Creating layer layer_64_2_bn2
I0525 16:18:44.636070  5268 net.cpp:84] Creating Layer layer_64_2_bn2
I0525 16:18:44.636075  5268 net.cpp:406] layer_64_2_bn2 <- layer_64_2_conv1
I0525 16:18:44.636081  5268 net.cpp:367] layer_64_2_bn2 -> layer_64_2_conv1 (in-place)
I0525 16:18:44.636237  5268 net.cpp:122] Setting up layer_64_2_bn2
I0525 16:18:44.636246  5268 net.cpp:129] Top shape: 50 64 56 56 (10035200)
I0525 16:18:44.636250  5268 net.cpp:137] Memory required for data: 1374822600
I0525 16:18:44.636258  5268 layer_factory.hpp:77] Creating layer layer_64_2_scale2
I0525 16:18:44.636265  5268 net.cpp:84] Creating Layer layer_64_2_scale2
I0525 16:18:44.636270  5268 net.cpp:406] layer_64_2_scale2 <- layer_64_2_conv1
I0525 16:18:44.636274  5268 net.cpp:367] layer_64_2_scale2 -> layer_64_2_conv1 (in-place)
I0525 16:18:44.636310  5268 layer_factory.hpp:77] Creating layer layer_64_2_scale2
I0525 16:18:44.636409  5268 net.cpp:122] Setting up layer_64_2_scale2
I0525 16:18:44.636417  5268 net.cpp:129] Top shape: 50 64 56 56 (10035200)
I0525 16:18:44.636421  5268 net.cpp:137] Memory required for data: 1414963400
I0525 16:18:44.636427  5268 layer_factory.hpp:77] Creating layer layer_64_2_relu2
I0525 16:18:44.636435  5268 net.cpp:84] Creating Layer layer_64_2_relu2
I0525 16:18:44.636438  5268 net.cpp:406] layer_64_2_relu2 <- layer_64_2_conv1
I0525 16:18:44.636443  5268 net.cpp:367] layer_64_2_relu2 -> layer_64_2_conv1 (in-place)
I0525 16:18:44.636581  5268 net.cpp:122] Setting up layer_64_2_relu2
I0525 16:18:44.636591  5268 net.cpp:129] Top shape: 50 64 56 56 (10035200)
I0525 16:18:44.636595  5268 net.cpp:137] Memory required for data: 1455104200
I0525 16:18:44.636598  5268 layer_factory.hpp:77] Creating layer layer_64_2_conv2
I0525 16:18:44.636608  5268 net.cpp:84] Creating Layer layer_64_2_conv2
I0525 16:18:44.636613  5268 net.cpp:406] layer_64_2_conv2 <- layer_64_2_conv1
I0525 16:18:44.636620  5268 net.cpp:380] layer_64_2_conv2 -> layer_64_2_conv2
I0525 16:18:44.638038  5268 net.cpp:122] Setting up layer_64_2_conv2
I0525 16:18:44.638051  5268 net.cpp:129] Top shape: 50 64 56 56 (10035200)
I0525 16:18:44.638056  5268 net.cpp:137] Memory required for data: 1495245000
I0525 16:18:44.638061  5268 layer_factory.hpp:77] Creating layer layer_64_2_sum
I0525 16:18:44.638068  5268 net.cpp:84] Creating Layer layer_64_2_sum
I0525 16:18:44.638073  5268 net.cpp:406] layer_64_2_sum <- layer_64_2_conv2
I0525 16:18:44.638077  5268 net.cpp:406] layer_64_2_sum <- layer_64_1_sum_layer_64_1_sum_0_split_1
I0525 16:18:44.638083  5268 net.cpp:380] layer_64_2_sum -> layer_64_2_sum
I0525 16:18:44.638108  5268 net.cpp:122] Setting up layer_64_2_sum
I0525 16:18:44.638115  5268 net.cpp:129] Top shape: 50 64 56 56 (10035200)
I0525 16:18:44.638119  5268 net.cpp:137] Memory required for data: 1535385800
I0525 16:18:44.638123  5268 layer_factory.hpp:77] Creating layer layer_128_1_bn1
I0525 16:18:44.638128  5268 net.cpp:84] Creating Layer layer_128_1_bn1
I0525 16:18:44.638134  5268 net.cpp:406] layer_128_1_bn1 <- layer_64_2_sum
I0525 16:18:44.638139  5268 net.cpp:380] layer_128_1_bn1 -> layer_128_1_bn1
I0525 16:18:44.638303  5268 net.cpp:122] Setting up layer_128_1_bn1
I0525 16:18:44.638311  5268 net.cpp:129] Top shape: 50 64 56 56 (10035200)
I0525 16:18:44.638315  5268 net.cpp:137] Memory required for data: 1575526600
I0525 16:18:44.638327  5268 layer_factory.hpp:77] Creating layer layer_128_1_scale1
I0525 16:18:44.638334  5268 net.cpp:84] Creating Layer layer_128_1_scale1
I0525 16:18:44.638348  5268 net.cpp:406] layer_128_1_scale1 <- layer_128_1_bn1
I0525 16:18:44.638356  5268 net.cpp:367] layer_128_1_scale1 -> layer_128_1_bn1 (in-place)
I0525 16:18:44.638394  5268 layer_factory.hpp:77] Creating layer layer_128_1_scale1
I0525 16:18:44.638489  5268 net.cpp:122] Setting up layer_128_1_scale1
I0525 16:18:44.638500  5268 net.cpp:129] Top shape: 50 64 56 56 (10035200)
I0525 16:18:44.638504  5268 net.cpp:137] Memory required for data: 1615667400
I0525 16:18:44.638510  5268 layer_factory.hpp:77] Creating layer layer_128_1_relu1
I0525 16:18:44.638517  5268 net.cpp:84] Creating Layer layer_128_1_relu1
I0525 16:18:44.638521  5268 net.cpp:406] layer_128_1_relu1 <- layer_128_1_bn1
I0525 16:18:44.638526  5268 net.cpp:367] layer_128_1_relu1 -> layer_128_1_bn1 (in-place)
I0525 16:18:44.638664  5268 net.cpp:122] Setting up layer_128_1_relu1
I0525 16:18:44.638674  5268 net.cpp:129] Top shape: 50 64 56 56 (10035200)
I0525 16:18:44.638677  5268 net.cpp:137] Memory required for data: 1655808200
I0525 16:18:44.638681  5268 layer_factory.hpp:77] Creating layer layer_128_1_bn1_layer_128_1_relu1_0_split
I0525 16:18:44.638686  5268 net.cpp:84] Creating Layer layer_128_1_bn1_layer_128_1_relu1_0_split
I0525 16:18:44.638690  5268 net.cpp:406] layer_128_1_bn1_layer_128_1_relu1_0_split <- layer_128_1_bn1
I0525 16:18:44.638696  5268 net.cpp:380] layer_128_1_bn1_layer_128_1_relu1_0_split -> layer_128_1_bn1_layer_128_1_relu1_0_split_0
I0525 16:18:44.638705  5268 net.cpp:380] layer_128_1_bn1_layer_128_1_relu1_0_split -> layer_128_1_bn1_layer_128_1_relu1_0_split_1
I0525 16:18:44.638738  5268 net.cpp:122] Setting up layer_128_1_bn1_layer_128_1_relu1_0_split
I0525 16:18:44.638746  5268 net.cpp:129] Top shape: 50 64 56 56 (10035200)
I0525 16:18:44.638751  5268 net.cpp:129] Top shape: 50 64 56 56 (10035200)
I0525 16:18:44.638754  5268 net.cpp:137] Memory required for data: 1736089800
I0525 16:18:44.638757  5268 layer_factory.hpp:77] Creating layer layer_128_1_conv1
I0525 16:18:44.638768  5268 net.cpp:84] Creating Layer layer_128_1_conv1
I0525 16:18:44.638772  5268 net.cpp:406] layer_128_1_conv1 <- layer_128_1_bn1_layer_128_1_relu1_0_split_0
I0525 16:18:44.638779  5268 net.cpp:380] layer_128_1_conv1 -> layer_128_1_conv1
I0525 16:18:44.641067  5268 net.cpp:122] Setting up layer_128_1_conv1
I0525 16:18:44.641083  5268 net.cpp:129] Top shape: 50 128 28 28 (5017600)
I0525 16:18:44.641086  5268 net.cpp:137] Memory required for data: 1756160200
I0525 16:18:44.641093  5268 layer_factory.hpp:77] Creating layer layer_128_1_bn2
I0525 16:18:44.641099  5268 net.cpp:84] Creating Layer layer_128_1_bn2
I0525 16:18:44.641104  5268 net.cpp:406] layer_128_1_bn2 <- layer_128_1_conv1
I0525 16:18:44.641111  5268 net.cpp:367] layer_128_1_bn2 -> layer_128_1_conv1 (in-place)
I0525 16:18:44.641950  5268 net.cpp:122] Setting up layer_128_1_bn2
I0525 16:18:44.641964  5268 net.cpp:129] Top shape: 50 128 28 28 (5017600)
I0525 16:18:44.641968  5268 net.cpp:137] Memory required for data: 1776230600
I0525 16:18:44.641976  5268 layer_factory.hpp:77] Creating layer layer_128_1_scale2
I0525 16:18:44.641986  5268 net.cpp:84] Creating Layer layer_128_1_scale2
I0525 16:18:44.641991  5268 net.cpp:406] layer_128_1_scale2 <- layer_128_1_conv1
I0525 16:18:44.641997  5268 net.cpp:367] layer_128_1_scale2 -> layer_128_1_conv1 (in-place)
I0525 16:18:44.642038  5268 layer_factory.hpp:77] Creating layer layer_128_1_scale2
I0525 16:18:44.642135  5268 net.cpp:122] Setting up layer_128_1_scale2
I0525 16:18:44.642144  5268 net.cpp:129] Top shape: 50 128 28 28 (5017600)
I0525 16:18:44.642148  5268 net.cpp:137] Memory required for data: 1796301000
I0525 16:18:44.642154  5268 layer_factory.hpp:77] Creating layer layer_128_1_relu2
I0525 16:18:44.642168  5268 net.cpp:84] Creating Layer layer_128_1_relu2
I0525 16:18:44.642174  5268 net.cpp:406] layer_128_1_relu2 <- layer_128_1_conv1
I0525 16:18:44.642179  5268 net.cpp:367] layer_128_1_relu2 -> layer_128_1_conv1 (in-place)
I0525 16:18:44.642333  5268 net.cpp:122] Setting up layer_128_1_relu2
I0525 16:18:44.642343  5268 net.cpp:129] Top shape: 50 128 28 28 (5017600)
I0525 16:18:44.642357  5268 net.cpp:137] Memory required for data: 1816371400
I0525 16:18:44.642360  5268 layer_factory.hpp:77] Creating layer layer_128_1_conv2
I0525 16:18:44.642371  5268 net.cpp:84] Creating Layer layer_128_1_conv2
I0525 16:18:44.642376  5268 net.cpp:406] layer_128_1_conv2 <- layer_128_1_conv1
I0525 16:18:44.642385  5268 net.cpp:380] layer_128_1_conv2 -> layer_128_1_conv2
I0525 16:18:44.645465  5268 net.cpp:122] Setting up layer_128_1_conv2
I0525 16:18:44.645480  5268 net.cpp:129] Top shape: 50 128 28 28 (5017600)
I0525 16:18:44.645483  5268 net.cpp:137] Memory required for data: 1836441800
I0525 16:18:44.645489  5268 layer_factory.hpp:77] Creating layer layer_128_1_conv_expand
I0525 16:18:44.645501  5268 net.cpp:84] Creating Layer layer_128_1_conv_expand
I0525 16:18:44.645506  5268 net.cpp:406] layer_128_1_conv_expand <- layer_128_1_bn1_layer_128_1_relu1_0_split_1
I0525 16:18:44.645514  5268 net.cpp:380] layer_128_1_conv_expand -> layer_128_1_conv_expand
I0525 16:18:44.646682  5268 net.cpp:122] Setting up layer_128_1_conv_expand
I0525 16:18:44.646693  5268 net.cpp:129] Top shape: 50 128 28 28 (5017600)
I0525 16:18:44.646697  5268 net.cpp:137] Memory required for data: 1856512200
I0525 16:18:44.646703  5268 layer_factory.hpp:77] Creating layer layer_128_1_sum
I0525 16:18:44.646711  5268 net.cpp:84] Creating Layer layer_128_1_sum
I0525 16:18:44.646716  5268 net.cpp:406] layer_128_1_sum <- layer_128_1_conv_expand
I0525 16:18:44.646721  5268 net.cpp:406] layer_128_1_sum <- layer_128_1_conv2
I0525 16:18:44.646728  5268 net.cpp:380] layer_128_1_sum -> layer_128_1_sum
I0525 16:18:44.646754  5268 net.cpp:122] Setting up layer_128_1_sum
I0525 16:18:44.646761  5268 net.cpp:129] Top shape: 50 128 28 28 (5017600)
I0525 16:18:44.646765  5268 net.cpp:137] Memory required for data: 1876582600
I0525 16:18:44.646770  5268 layer_factory.hpp:77] Creating layer layer_128_1_sum_layer_128_1_sum_0_split
I0525 16:18:44.646775  5268 net.cpp:84] Creating Layer layer_128_1_sum_layer_128_1_sum_0_split
I0525 16:18:44.646780  5268 net.cpp:406] layer_128_1_sum_layer_128_1_sum_0_split <- layer_128_1_sum
I0525 16:18:44.646785  5268 net.cpp:380] layer_128_1_sum_layer_128_1_sum_0_split -> layer_128_1_sum_layer_128_1_sum_0_split_0
I0525 16:18:44.646792  5268 net.cpp:380] layer_128_1_sum_layer_128_1_sum_0_split -> layer_128_1_sum_layer_128_1_sum_0_split_1
I0525 16:18:44.646826  5268 net.cpp:122] Setting up layer_128_1_sum_layer_128_1_sum_0_split
I0525 16:18:44.646833  5268 net.cpp:129] Top shape: 50 128 28 28 (5017600)
I0525 16:18:44.646838  5268 net.cpp:129] Top shape: 50 128 28 28 (5017600)
I0525 16:18:44.646842  5268 net.cpp:137] Memory required for data: 1916723400
I0525 16:18:44.646844  5268 layer_factory.hpp:77] Creating layer layer_128_2_bn1
I0525 16:18:44.646852  5268 net.cpp:84] Creating Layer layer_128_2_bn1
I0525 16:18:44.646857  5268 net.cpp:406] layer_128_2_bn1 <- layer_128_1_sum_layer_128_1_sum_0_split_0
I0525 16:18:44.646862  5268 net.cpp:380] layer_128_2_bn1 -> layer_128_2_bn1
I0525 16:18:44.647018  5268 net.cpp:122] Setting up layer_128_2_bn1
I0525 16:18:44.647027  5268 net.cpp:129] Top shape: 50 128 28 28 (5017600)
I0525 16:18:44.647032  5268 net.cpp:137] Memory required for data: 1936793800
I0525 16:18:44.647038  5268 layer_factory.hpp:77] Creating layer layer_128_2_scale1
I0525 16:18:44.647045  5268 net.cpp:84] Creating Layer layer_128_2_scale1
I0525 16:18:44.647049  5268 net.cpp:406] layer_128_2_scale1 <- layer_128_2_bn1
I0525 16:18:44.647054  5268 net.cpp:367] layer_128_2_scale1 -> layer_128_2_bn1 (in-place)
I0525 16:18:44.647091  5268 layer_factory.hpp:77] Creating layer layer_128_2_scale1
I0525 16:18:44.647186  5268 net.cpp:122] Setting up layer_128_2_scale1
I0525 16:18:44.647194  5268 net.cpp:129] Top shape: 50 128 28 28 (5017600)
I0525 16:18:44.647198  5268 net.cpp:137] Memory required for data: 1956864200
I0525 16:18:44.647204  5268 layer_factory.hpp:77] Creating layer layer_128_2_relu1
I0525 16:18:44.647210  5268 net.cpp:84] Creating Layer layer_128_2_relu1
I0525 16:18:44.647223  5268 net.cpp:406] layer_128_2_relu1 <- layer_128_2_bn1
I0525 16:18:44.647230  5268 net.cpp:367] layer_128_2_relu1 -> layer_128_2_bn1 (in-place)
I0525 16:18:44.647372  5268 net.cpp:122] Setting up layer_128_2_relu1
I0525 16:18:44.647382  5268 net.cpp:129] Top shape: 50 128 28 28 (5017600)
I0525 16:18:44.647387  5268 net.cpp:137] Memory required for data: 1976934600
I0525 16:18:44.647389  5268 layer_factory.hpp:77] Creating layer layer_128_2_conv1
I0525 16:18:44.647398  5268 net.cpp:84] Creating Layer layer_128_2_conv1
I0525 16:18:44.647403  5268 net.cpp:406] layer_128_2_conv1 <- layer_128_2_bn1
I0525 16:18:44.647410  5268 net.cpp:380] layer_128_2_conv1 -> layer_128_2_conv1
I0525 16:18:44.651062  5268 net.cpp:122] Setting up layer_128_2_conv1
I0525 16:18:44.651077  5268 net.cpp:129] Top shape: 50 128 28 28 (5017600)
I0525 16:18:44.651082  5268 net.cpp:137] Memory required for data: 1997005000
I0525 16:18:44.651087  5268 layer_factory.hpp:77] Creating layer layer_128_2_bn2
I0525 16:18:44.651095  5268 net.cpp:84] Creating Layer layer_128_2_bn2
I0525 16:18:44.651100  5268 net.cpp:406] layer_128_2_bn2 <- layer_128_2_conv1
I0525 16:18:44.651106  5268 net.cpp:367] layer_128_2_bn2 -> layer_128_2_conv1 (in-place)
I0525 16:18:44.651265  5268 net.cpp:122] Setting up layer_128_2_bn2
I0525 16:18:44.651274  5268 net.cpp:129] Top shape: 50 128 28 28 (5017600)
I0525 16:18:44.651278  5268 net.cpp:137] Memory required for data: 2017075400
I0525 16:18:44.651285  5268 layer_factory.hpp:77] Creating layer layer_128_2_scale2
I0525 16:18:44.651293  5268 net.cpp:84] Creating Layer layer_128_2_scale2
I0525 16:18:44.651296  5268 net.cpp:406] layer_128_2_scale2 <- layer_128_2_conv1
I0525 16:18:44.651301  5268 net.cpp:367] layer_128_2_scale2 -> layer_128_2_conv1 (in-place)
I0525 16:18:44.651337  5268 layer_factory.hpp:77] Creating layer layer_128_2_scale2
I0525 16:18:44.651428  5268 net.cpp:122] Setting up layer_128_2_scale2
I0525 16:18:44.651437  5268 net.cpp:129] Top shape: 50 128 28 28 (5017600)
I0525 16:18:44.651442  5268 net.cpp:137] Memory required for data: 2037145800
I0525 16:18:44.651448  5268 layer_factory.hpp:77] Creating layer layer_128_2_relu2
I0525 16:18:44.651455  5268 net.cpp:84] Creating Layer layer_128_2_relu2
I0525 16:18:44.651459  5268 net.cpp:406] layer_128_2_relu2 <- layer_128_2_conv1
I0525 16:18:44.651464  5268 net.cpp:367] layer_128_2_relu2 -> layer_128_2_conv1 (in-place)
I0525 16:18:44.651618  5268 net.cpp:122] Setting up layer_128_2_relu2
I0525 16:18:44.651628  5268 net.cpp:129] Top shape: 50 128 28 28 (5017600)
I0525 16:18:44.651631  5268 net.cpp:137] Memory required for data: 2057216200
I0525 16:18:44.651634  5268 layer_factory.hpp:77] Creating layer layer_128_2_conv2
I0525 16:18:44.651644  5268 net.cpp:84] Creating Layer layer_128_2_conv2
I0525 16:18:44.651648  5268 net.cpp:406] layer_128_2_conv2 <- layer_128_2_conv1
I0525 16:18:44.651655  5268 net.cpp:380] layer_128_2_conv2 -> layer_128_2_conv2
I0525 16:18:44.654642  5268 net.cpp:122] Setting up layer_128_2_conv2
I0525 16:18:44.654655  5268 net.cpp:129] Top shape: 50 128 28 28 (5017600)
I0525 16:18:44.654659  5268 net.cpp:137] Memory required for data: 2077286600
I0525 16:18:44.654665  5268 layer_factory.hpp:77] Creating layer layer_128_2_sum
I0525 16:18:44.654671  5268 net.cpp:84] Creating Layer layer_128_2_sum
I0525 16:18:44.654676  5268 net.cpp:406] layer_128_2_sum <- layer_128_2_conv2
I0525 16:18:44.654681  5268 net.cpp:406] layer_128_2_sum <- layer_128_1_sum_layer_128_1_sum_0_split_1
I0525 16:18:44.654690  5268 net.cpp:380] layer_128_2_sum -> layer_128_2_sum
I0525 16:18:44.654716  5268 net.cpp:122] Setting up layer_128_2_sum
I0525 16:18:44.654723  5268 net.cpp:129] Top shape: 50 128 28 28 (5017600)
I0525 16:18:44.654727  5268 net.cpp:137] Memory required for data: 2097357000
I0525 16:18:44.654731  5268 layer_factory.hpp:77] Creating layer layer_256_1_bn1
I0525 16:18:44.654738  5268 net.cpp:84] Creating Layer layer_256_1_bn1
I0525 16:18:44.654742  5268 net.cpp:406] layer_256_1_bn1 <- layer_128_2_sum
I0525 16:18:44.654749  5268 net.cpp:380] layer_256_1_bn1 -> layer_256_1_bn1
I0525 16:18:44.654919  5268 net.cpp:122] Setting up layer_256_1_bn1
I0525 16:18:44.654930  5268 net.cpp:129] Top shape: 50 128 28 28 (5017600)
I0525 16:18:44.654933  5268 net.cpp:137] Memory required for data: 2117427400
I0525 16:18:44.654940  5268 layer_factory.hpp:77] Creating layer layer_256_1_scale1
I0525 16:18:44.654947  5268 net.cpp:84] Creating Layer layer_256_1_scale1
I0525 16:18:44.654952  5268 net.cpp:406] layer_256_1_scale1 <- layer_256_1_bn1
I0525 16:18:44.654956  5268 net.cpp:367] layer_256_1_scale1 -> layer_256_1_bn1 (in-place)
I0525 16:18:44.654994  5268 layer_factory.hpp:77] Creating layer layer_256_1_scale1
I0525 16:18:44.655087  5268 net.cpp:122] Setting up layer_256_1_scale1
I0525 16:18:44.655097  5268 net.cpp:129] Top shape: 50 128 28 28 (5017600)
I0525 16:18:44.655099  5268 net.cpp:137] Memory required for data: 2137497800
I0525 16:18:44.655105  5268 layer_factory.hpp:77] Creating layer layer_256_1_relu1
I0525 16:18:44.655112  5268 net.cpp:84] Creating Layer layer_256_1_relu1
I0525 16:18:44.655117  5268 net.cpp:406] layer_256_1_relu1 <- layer_256_1_bn1
I0525 16:18:44.655122  5268 net.cpp:367] layer_256_1_relu1 -> layer_256_1_bn1 (in-place)
I0525 16:18:44.655755  5268 net.cpp:122] Setting up layer_256_1_relu1
I0525 16:18:44.655767  5268 net.cpp:129] Top shape: 50 128 28 28 (5017600)
I0525 16:18:44.655772  5268 net.cpp:137] Memory required for data: 2157568200
I0525 16:18:44.655776  5268 layer_factory.hpp:77] Creating layer layer_256_1_bn1_layer_256_1_relu1_0_split
I0525 16:18:44.655781  5268 net.cpp:84] Creating Layer layer_256_1_bn1_layer_256_1_relu1_0_split
I0525 16:18:44.655786  5268 net.cpp:406] layer_256_1_bn1_layer_256_1_relu1_0_split <- layer_256_1_bn1
I0525 16:18:44.655792  5268 net.cpp:380] layer_256_1_bn1_layer_256_1_relu1_0_split -> layer_256_1_bn1_layer_256_1_relu1_0_split_0
I0525 16:18:44.655800  5268 net.cpp:380] layer_256_1_bn1_layer_256_1_relu1_0_split -> layer_256_1_bn1_layer_256_1_relu1_0_split_1
I0525 16:18:44.655838  5268 net.cpp:122] Setting up layer_256_1_bn1_layer_256_1_relu1_0_split
I0525 16:18:44.655845  5268 net.cpp:129] Top shape: 50 128 28 28 (5017600)
I0525 16:18:44.655850  5268 net.cpp:129] Top shape: 50 128 28 28 (5017600)
I0525 16:18:44.655853  5268 net.cpp:137] Memory required for data: 2197709000
I0525 16:18:44.655856  5268 layer_factory.hpp:77] Creating layer layer_256_1_conv1
I0525 16:18:44.655866  5268 net.cpp:84] Creating Layer layer_256_1_conv1
I0525 16:18:44.655870  5268 net.cpp:406] layer_256_1_conv1 <- layer_256_1_bn1_layer_256_1_relu1_0_split_0
I0525 16:18:44.655879  5268 net.cpp:380] layer_256_1_conv1 -> layer_256_1_conv1
I0525 16:18:44.660621  5268 net.cpp:122] Setting up layer_256_1_conv1
I0525 16:18:44.660642  5268 net.cpp:129] Top shape: 50 256 14 14 (2508800)
I0525 16:18:44.660646  5268 net.cpp:137] Memory required for data: 2207744200
I0525 16:18:44.660653  5268 layer_factory.hpp:77] Creating layer layer_256_1_bn2
I0525 16:18:44.660661  5268 net.cpp:84] Creating Layer layer_256_1_bn2
I0525 16:18:44.660667  5268 net.cpp:406] layer_256_1_bn2 <- layer_256_1_conv1
I0525 16:18:44.660675  5268 net.cpp:367] layer_256_1_bn2 -> layer_256_1_conv1 (in-place)
I0525 16:18:44.660840  5268 net.cpp:122] Setting up layer_256_1_bn2
I0525 16:18:44.660850  5268 net.cpp:129] Top shape: 50 256 14 14 (2508800)
I0525 16:18:44.660853  5268 net.cpp:137] Memory required for data: 2217779400
I0525 16:18:44.660868  5268 layer_factory.hpp:77] Creating layer layer_256_1_scale2
I0525 16:18:44.660877  5268 net.cpp:84] Creating Layer layer_256_1_scale2
I0525 16:18:44.660882  5268 net.cpp:406] layer_256_1_scale2 <- layer_256_1_conv1
I0525 16:18:44.660887  5268 net.cpp:367] layer_256_1_scale2 -> layer_256_1_conv1 (in-place)
I0525 16:18:44.660928  5268 layer_factory.hpp:77] Creating layer layer_256_1_scale2
I0525 16:18:44.661022  5268 net.cpp:122] Setting up layer_256_1_scale2
I0525 16:18:44.661031  5268 net.cpp:129] Top shape: 50 256 14 14 (2508800)
I0525 16:18:44.661036  5268 net.cpp:137] Memory required for data: 2227814600
I0525 16:18:44.661041  5268 layer_factory.hpp:77] Creating layer layer_256_1_relu2
I0525 16:18:44.661058  5268 net.cpp:84] Creating Layer layer_256_1_relu2
I0525 16:18:44.661063  5268 net.cpp:406] layer_256_1_relu2 <- layer_256_1_conv1
I0525 16:18:44.661069  5268 net.cpp:367] layer_256_1_relu2 -> layer_256_1_conv1 (in-place)
I0525 16:18:44.661213  5268 net.cpp:122] Setting up layer_256_1_relu2
I0525 16:18:44.661223  5268 net.cpp:129] Top shape: 50 256 14 14 (2508800)
I0525 16:18:44.661227  5268 net.cpp:137] Memory required for data: 2237849800
I0525 16:18:44.661231  5268 layer_factory.hpp:77] Creating layer layer_256_1_conv2
I0525 16:18:44.661242  5268 net.cpp:84] Creating Layer layer_256_1_conv2
I0525 16:18:44.661247  5268 net.cpp:406] layer_256_1_conv2 <- layer_256_1_conv1
I0525 16:18:44.661253  5268 net.cpp:380] layer_256_1_conv2 -> layer_256_1_conv2
I0525 16:18:44.669461  5268 net.cpp:122] Setting up layer_256_1_conv2
I0525 16:18:44.669473  5268 net.cpp:129] Top shape: 50 256 14 14 (2508800)
I0525 16:18:44.669477  5268 net.cpp:137] Memory required for data: 2247885000
I0525 16:18:44.669483  5268 layer_factory.hpp:77] Creating layer layer_256_1_conv_expand
I0525 16:18:44.669494  5268 net.cpp:84] Creating Layer layer_256_1_conv_expand
I0525 16:18:44.669499  5268 net.cpp:406] layer_256_1_conv_expand <- layer_256_1_bn1_layer_256_1_relu1_0_split_1
I0525 16:18:44.669507  5268 net.cpp:380] layer_256_1_conv_expand -> layer_256_1_conv_expand
I0525 16:18:44.670940  5268 net.cpp:122] Setting up layer_256_1_conv_expand
I0525 16:18:44.670953  5268 net.cpp:129] Top shape: 50 256 14 14 (2508800)
I0525 16:18:44.670958  5268 net.cpp:137] Memory required for data: 2257920200
I0525 16:18:44.670963  5268 layer_factory.hpp:77] Creating layer layer_256_1_sum
I0525 16:18:44.670971  5268 net.cpp:84] Creating Layer layer_256_1_sum
I0525 16:18:44.670976  5268 net.cpp:406] layer_256_1_sum <- layer_256_1_conv_expand
I0525 16:18:44.670980  5268 net.cpp:406] layer_256_1_sum <- layer_256_1_conv2
I0525 16:18:44.670986  5268 net.cpp:380] layer_256_1_sum -> layer_256_1_sum
I0525 16:18:44.671013  5268 net.cpp:122] Setting up layer_256_1_sum
I0525 16:18:44.671021  5268 net.cpp:129] Top shape: 50 256 14 14 (2508800)
I0525 16:18:44.671025  5268 net.cpp:137] Memory required for data: 2267955400
I0525 16:18:44.671030  5268 layer_factory.hpp:77] Creating layer layer_256_1_sum_layer_256_1_sum_0_split
I0525 16:18:44.671035  5268 net.cpp:84] Creating Layer layer_256_1_sum_layer_256_1_sum_0_split
I0525 16:18:44.671038  5268 net.cpp:406] layer_256_1_sum_layer_256_1_sum_0_split <- layer_256_1_sum
I0525 16:18:44.671046  5268 net.cpp:380] layer_256_1_sum_layer_256_1_sum_0_split -> layer_256_1_sum_layer_256_1_sum_0_split_0
I0525 16:18:44.671052  5268 net.cpp:380] layer_256_1_sum_layer_256_1_sum_0_split -> layer_256_1_sum_layer_256_1_sum_0_split_1
I0525 16:18:44.671087  5268 net.cpp:122] Setting up layer_256_1_sum_layer_256_1_sum_0_split
I0525 16:18:44.671094  5268 net.cpp:129] Top shape: 50 256 14 14 (2508800)
I0525 16:18:44.671099  5268 net.cpp:129] Top shape: 50 256 14 14 (2508800)
I0525 16:18:44.671103  5268 net.cpp:137] Memory required for data: 2288025800
I0525 16:18:44.671108  5268 layer_factory.hpp:77] Creating layer layer_256_2_bn1
I0525 16:18:44.671113  5268 net.cpp:84] Creating Layer layer_256_2_bn1
I0525 16:18:44.671118  5268 net.cpp:406] layer_256_2_bn1 <- layer_256_1_sum_layer_256_1_sum_0_split_0
I0525 16:18:44.671123  5268 net.cpp:380] layer_256_2_bn1 -> layer_256_2_bn1
I0525 16:18:44.671288  5268 net.cpp:122] Setting up layer_256_2_bn1
I0525 16:18:44.671296  5268 net.cpp:129] Top shape: 50 256 14 14 (2508800)
I0525 16:18:44.671300  5268 net.cpp:137] Memory required for data: 2298061000
I0525 16:18:44.671308  5268 layer_factory.hpp:77] Creating layer layer_256_2_scale1
I0525 16:18:44.671319  5268 net.cpp:84] Creating Layer layer_256_2_scale1
I0525 16:18:44.671324  5268 net.cpp:406] layer_256_2_scale1 <- layer_256_2_bn1
I0525 16:18:44.671329  5268 net.cpp:367] layer_256_2_scale1 -> layer_256_2_bn1 (in-place)
I0525 16:18:44.671366  5268 layer_factory.hpp:77] Creating layer layer_256_2_scale1
I0525 16:18:44.671473  5268 net.cpp:122] Setting up layer_256_2_scale1
I0525 16:18:44.671483  5268 net.cpp:129] Top shape: 50 256 14 14 (2508800)
I0525 16:18:44.671486  5268 net.cpp:137] Memory required for data: 2308096200
I0525 16:18:44.671492  5268 layer_factory.hpp:77] Creating layer layer_256_2_relu1
I0525 16:18:44.671499  5268 net.cpp:84] Creating Layer layer_256_2_relu1
I0525 16:18:44.671504  5268 net.cpp:406] layer_256_2_relu1 <- layer_256_2_bn1
I0525 16:18:44.671509  5268 net.cpp:367] layer_256_2_relu1 -> layer_256_2_bn1 (in-place)
I0525 16:18:44.671654  5268 net.cpp:122] Setting up layer_256_2_relu1
I0525 16:18:44.671664  5268 net.cpp:129] Top shape: 50 256 14 14 (2508800)
I0525 16:18:44.671669  5268 net.cpp:137] Memory required for data: 2318131400
I0525 16:18:44.671672  5268 layer_factory.hpp:77] Creating layer layer_256_2_conv1
I0525 16:18:44.671681  5268 net.cpp:84] Creating Layer layer_256_2_conv1
I0525 16:18:44.671685  5268 net.cpp:406] layer_256_2_conv1 <- layer_256_2_bn1
I0525 16:18:44.671692  5268 net.cpp:380] layer_256_2_conv1 -> layer_256_2_conv1
I0525 16:18:44.679836  5268 net.cpp:122] Setting up layer_256_2_conv1
I0525 16:18:44.679852  5268 net.cpp:129] Top shape: 50 256 14 14 (2508800)
I0525 16:18:44.679855  5268 net.cpp:137] Memory required for data: 2328166600
I0525 16:18:44.679862  5268 layer_factory.hpp:77] Creating layer layer_256_2_bn2
I0525 16:18:44.679870  5268 net.cpp:84] Creating Layer layer_256_2_bn2
I0525 16:18:44.679877  5268 net.cpp:406] layer_256_2_bn2 <- layer_256_2_conv1
I0525 16:18:44.679882  5268 net.cpp:367] layer_256_2_bn2 -> layer_256_2_conv1 (in-place)
I0525 16:18:44.680057  5268 net.cpp:122] Setting up layer_256_2_bn2
I0525 16:18:44.680065  5268 net.cpp:129] Top shape: 50 256 14 14 (2508800)
I0525 16:18:44.680070  5268 net.cpp:137] Memory required for data: 2338201800
I0525 16:18:44.680078  5268 layer_factory.hpp:77] Creating layer layer_256_2_scale2
I0525 16:18:44.680085  5268 net.cpp:84] Creating Layer layer_256_2_scale2
I0525 16:18:44.680089  5268 net.cpp:406] layer_256_2_scale2 <- layer_256_2_conv1
I0525 16:18:44.680094  5268 net.cpp:367] layer_256_2_scale2 -> layer_256_2_conv1 (in-place)
I0525 16:18:44.680136  5268 layer_factory.hpp:77] Creating layer layer_256_2_scale2
I0525 16:18:44.680234  5268 net.cpp:122] Setting up layer_256_2_scale2
I0525 16:18:44.680243  5268 net.cpp:129] Top shape: 50 256 14 14 (2508800)
I0525 16:18:44.680248  5268 net.cpp:137] Memory required for data: 2348237000
I0525 16:18:44.680253  5268 layer_factory.hpp:77] Creating layer layer_256_2_relu2
I0525 16:18:44.680270  5268 net.cpp:84] Creating Layer layer_256_2_relu2
I0525 16:18:44.680275  5268 net.cpp:406] layer_256_2_relu2 <- layer_256_2_conv1
I0525 16:18:44.680280  5268 net.cpp:367] layer_256_2_relu2 -> layer_256_2_conv1 (in-place)
I0525 16:18:44.680435  5268 net.cpp:122] Setting up layer_256_2_relu2
I0525 16:18:44.680445  5268 net.cpp:129] Top shape: 50 256 14 14 (2508800)
I0525 16:18:44.680449  5268 net.cpp:137] Memory required for data: 2358272200
I0525 16:18:44.680454  5268 layer_factory.hpp:77] Creating layer layer_256_2_conv2
I0525 16:18:44.680464  5268 net.cpp:84] Creating Layer layer_256_2_conv2
I0525 16:18:44.680469  5268 net.cpp:406] layer_256_2_conv2 <- layer_256_2_conv1
I0525 16:18:44.680475  5268 net.cpp:380] layer_256_2_conv2 -> layer_256_2_conv2
I0525 16:18:44.688592  5268 net.cpp:122] Setting up layer_256_2_conv2
I0525 16:18:44.688609  5268 net.cpp:129] Top shape: 50 256 14 14 (2508800)
I0525 16:18:44.688613  5268 net.cpp:137] Memory required for data: 2368307400
I0525 16:18:44.688619  5268 layer_factory.hpp:77] Creating layer layer_256_2_sum
I0525 16:18:44.688628  5268 net.cpp:84] Creating Layer layer_256_2_sum
I0525 16:18:44.688634  5268 net.cpp:406] layer_256_2_sum <- layer_256_2_conv2
I0525 16:18:44.688639  5268 net.cpp:406] layer_256_2_sum <- layer_256_1_sum_layer_256_1_sum_0_split_1
I0525 16:18:44.688645  5268 net.cpp:380] layer_256_2_sum -> layer_256_2_sum
I0525 16:18:44.688676  5268 net.cpp:122] Setting up layer_256_2_sum
I0525 16:18:44.688684  5268 net.cpp:129] Top shape: 50 256 14 14 (2508800)
I0525 16:18:44.688699  5268 net.cpp:137] Memory required for data: 2378342600
I0525 16:18:44.688704  5268 layer_factory.hpp:77] Creating layer layer_512_1_bn1
I0525 16:18:44.688709  5268 net.cpp:84] Creating Layer layer_512_1_bn1
I0525 16:18:44.688714  5268 net.cpp:406] layer_512_1_bn1 <- layer_256_2_sum
I0525 16:18:44.688720  5268 net.cpp:380] layer_512_1_bn1 -> layer_512_1_bn1
I0525 16:18:44.688894  5268 net.cpp:122] Setting up layer_512_1_bn1
I0525 16:18:44.688904  5268 net.cpp:129] Top shape: 50 256 14 14 (2508800)
I0525 16:18:44.688908  5268 net.cpp:137] Memory required for data: 2388377800
I0525 16:18:44.688915  5268 layer_factory.hpp:77] Creating layer layer_512_1_scale1
I0525 16:18:44.688923  5268 net.cpp:84] Creating Layer layer_512_1_scale1
I0525 16:18:44.688927  5268 net.cpp:406] layer_512_1_scale1 <- layer_512_1_bn1
I0525 16:18:44.688935  5268 net.cpp:367] layer_512_1_scale1 -> layer_512_1_bn1 (in-place)
I0525 16:18:44.688974  5268 layer_factory.hpp:77] Creating layer layer_512_1_scale1
I0525 16:18:44.689070  5268 net.cpp:122] Setting up layer_512_1_scale1
I0525 16:18:44.689080  5268 net.cpp:129] Top shape: 50 256 14 14 (2508800)
I0525 16:18:44.689085  5268 net.cpp:137] Memory required for data: 2398413000
I0525 16:18:44.689090  5268 layer_factory.hpp:77] Creating layer layer_512_1_relu1
I0525 16:18:44.689097  5268 net.cpp:84] Creating Layer layer_512_1_relu1
I0525 16:18:44.689101  5268 net.cpp:406] layer_512_1_relu1 <- layer_512_1_bn1
I0525 16:18:44.689106  5268 net.cpp:367] layer_512_1_relu1 -> layer_512_1_bn1 (in-place)
I0525 16:18:44.689275  5268 net.cpp:122] Setting up layer_512_1_relu1
I0525 16:18:44.689285  5268 net.cpp:129] Top shape: 50 256 14 14 (2508800)
I0525 16:18:44.689288  5268 net.cpp:137] Memory required for data: 2408448200
I0525 16:18:44.689292  5268 layer_factory.hpp:77] Creating layer layer_512_1_bn1_layer_512_1_relu1_0_split
I0525 16:18:44.689297  5268 net.cpp:84] Creating Layer layer_512_1_bn1_layer_512_1_relu1_0_split
I0525 16:18:44.689301  5268 net.cpp:406] layer_512_1_bn1_layer_512_1_relu1_0_split <- layer_512_1_bn1
I0525 16:18:44.689308  5268 net.cpp:380] layer_512_1_bn1_layer_512_1_relu1_0_split -> layer_512_1_bn1_layer_512_1_relu1_0_split_0
I0525 16:18:44.689316  5268 net.cpp:380] layer_512_1_bn1_layer_512_1_relu1_0_split -> layer_512_1_bn1_layer_512_1_relu1_0_split_1
I0525 16:18:44.689354  5268 net.cpp:122] Setting up layer_512_1_bn1_layer_512_1_relu1_0_split
I0525 16:18:44.689363  5268 net.cpp:129] Top shape: 50 256 14 14 (2508800)
I0525 16:18:44.689368  5268 net.cpp:129] Top shape: 50 256 14 14 (2508800)
I0525 16:18:44.689373  5268 net.cpp:137] Memory required for data: 2428518600
I0525 16:18:44.689375  5268 layer_factory.hpp:77] Creating layer layer_512_1_conv1
I0525 16:18:44.689385  5268 net.cpp:84] Creating Layer layer_512_1_conv1
I0525 16:18:44.689389  5268 net.cpp:406] layer_512_1_conv1 <- layer_512_1_bn1_layer_512_1_relu1_0_split_0
I0525 16:18:44.689396  5268 net.cpp:380] layer_512_1_conv1 -> layer_512_1_conv1
I0525 16:18:44.707213  5268 net.cpp:122] Setting up layer_512_1_conv1
I0525 16:18:44.707244  5268 net.cpp:129] Top shape: 50 512 7 7 (1254400)
I0525 16:18:44.707252  5268 net.cpp:137] Memory required for data: 2433536200
I0525 16:18:44.707264  5268 layer_factory.hpp:77] Creating layer layer_512_1_bn2
I0525 16:18:44.707281  5268 net.cpp:84] Creating Layer layer_512_1_bn2
I0525 16:18:44.707288  5268 net.cpp:406] layer_512_1_bn2 <- layer_512_1_conv1
I0525 16:18:44.707298  5268 net.cpp:367] layer_512_1_bn2 -> layer_512_1_conv1 (in-place)
I0525 16:18:44.707485  5268 net.cpp:122] Setting up layer_512_1_bn2
I0525 16:18:44.707495  5268 net.cpp:129] Top shape: 50 512 7 7 (1254400)
I0525 16:18:44.707499  5268 net.cpp:137] Memory required for data: 2438553800
I0525 16:18:44.707506  5268 layer_factory.hpp:77] Creating layer layer_512_1_scale2
I0525 16:18:44.707516  5268 net.cpp:84] Creating Layer layer_512_1_scale2
I0525 16:18:44.707521  5268 net.cpp:406] layer_512_1_scale2 <- layer_512_1_conv1
I0525 16:18:44.707526  5268 net.cpp:367] layer_512_1_scale2 -> layer_512_1_conv1 (in-place)
I0525 16:18:44.707578  5268 layer_factory.hpp:77] Creating layer layer_512_1_scale2
I0525 16:18:44.707682  5268 net.cpp:122] Setting up layer_512_1_scale2
I0525 16:18:44.707691  5268 net.cpp:129] Top shape: 50 512 7 7 (1254400)
I0525 16:18:44.707695  5268 net.cpp:137] Memory required for data: 2443571400
I0525 16:18:44.707702  5268 layer_factory.hpp:77] Creating layer layer_512_1_relu2
I0525 16:18:44.707711  5268 net.cpp:84] Creating Layer layer_512_1_relu2
I0525 16:18:44.707715  5268 net.cpp:406] layer_512_1_relu2 <- layer_512_1_conv1
I0525 16:18:44.707720  5268 net.cpp:367] layer_512_1_relu2 -> layer_512_1_conv1 (in-place)
I0525 16:18:44.707864  5268 net.cpp:122] Setting up layer_512_1_relu2
I0525 16:18:44.707873  5268 net.cpp:129] Top shape: 50 512 7 7 (1254400)
I0525 16:18:44.707877  5268 net.cpp:137] Memory required for data: 2448589000
I0525 16:18:44.707881  5268 layer_factory.hpp:77] Creating layer layer_512_1_conv2
I0525 16:18:44.707893  5268 net.cpp:84] Creating Layer layer_512_1_conv2
I0525 16:18:44.707898  5268 net.cpp:406] layer_512_1_conv2 <- layer_512_1_conv1
I0525 16:18:44.707904  5268 net.cpp:380] layer_512_1_conv2 -> layer_512_1_conv2
I0525 16:18:44.735738  5268 net.cpp:122] Setting up layer_512_1_conv2
I0525 16:18:44.735765  5268 net.cpp:129] Top shape: 50 512 7 7 (1254400)
I0525 16:18:44.735769  5268 net.cpp:137] Memory required for data: 2453606600
I0525 16:18:44.735790  5268 layer_factory.hpp:77] Creating layer layer_512_1_conv_expand
I0525 16:18:44.735806  5268 net.cpp:84] Creating Layer layer_512_1_conv_expand
I0525 16:18:44.735813  5268 net.cpp:406] layer_512_1_conv_expand <- layer_512_1_bn1_layer_512_1_relu1_0_split_1
I0525 16:18:44.735826  5268 net.cpp:380] layer_512_1_conv_expand -> layer_512_1_conv_expand
I0525 16:18:44.738273  5268 net.cpp:122] Setting up layer_512_1_conv_expand
I0525 16:18:44.738286  5268 net.cpp:129] Top shape: 50 512 7 7 (1254400)
I0525 16:18:44.738289  5268 net.cpp:137] Memory required for data: 2458624200
I0525 16:18:44.738294  5268 layer_factory.hpp:77] Creating layer layer_512_1_sum
I0525 16:18:44.738302  5268 net.cpp:84] Creating Layer layer_512_1_sum
I0525 16:18:44.738306  5268 net.cpp:406] layer_512_1_sum <- layer_512_1_conv_expand
I0525 16:18:44.738312  5268 net.cpp:406] layer_512_1_sum <- layer_512_1_conv2
I0525 16:18:44.738327  5268 net.cpp:380] layer_512_1_sum -> layer_512_1_sum
I0525 16:18:44.738355  5268 net.cpp:122] Setting up layer_512_1_sum
I0525 16:18:44.738363  5268 net.cpp:129] Top shape: 50 512 7 7 (1254400)
I0525 16:18:44.738366  5268 net.cpp:137] Memory required for data: 2463641800
I0525 16:18:44.738370  5268 layer_factory.hpp:77] Creating layer layer_512_1_sum_layer_512_1_sum_0_split
I0525 16:18:44.738376  5268 net.cpp:84] Creating Layer layer_512_1_sum_layer_512_1_sum_0_split
I0525 16:18:44.738379  5268 net.cpp:406] layer_512_1_sum_layer_512_1_sum_0_split <- layer_512_1_sum
I0525 16:18:44.738385  5268 net.cpp:380] layer_512_1_sum_layer_512_1_sum_0_split -> layer_512_1_sum_layer_512_1_sum_0_split_0
I0525 16:18:44.738392  5268 net.cpp:380] layer_512_1_sum_layer_512_1_sum_0_split -> layer_512_1_sum_layer_512_1_sum_0_split_1
I0525 16:18:44.738428  5268 net.cpp:122] Setting up layer_512_1_sum_layer_512_1_sum_0_split
I0525 16:18:44.738436  5268 net.cpp:129] Top shape: 50 512 7 7 (1254400)
I0525 16:18:44.738441  5268 net.cpp:129] Top shape: 50 512 7 7 (1254400)
I0525 16:18:44.738445  5268 net.cpp:137] Memory required for data: 2473677000
I0525 16:18:44.738450  5268 layer_factory.hpp:77] Creating layer layer_512_2_bn1
I0525 16:18:44.738456  5268 net.cpp:84] Creating Layer layer_512_2_bn1
I0525 16:18:44.738461  5268 net.cpp:406] layer_512_2_bn1 <- layer_512_1_sum_layer_512_1_sum_0_split_0
I0525 16:18:44.738468  5268 net.cpp:380] layer_512_2_bn1 -> layer_512_2_bn1
I0525 16:18:44.738661  5268 net.cpp:122] Setting up layer_512_2_bn1
I0525 16:18:44.738669  5268 net.cpp:129] Top shape: 50 512 7 7 (1254400)
I0525 16:18:44.738672  5268 net.cpp:137] Memory required for data: 2478694600
I0525 16:18:44.738693  5268 layer_factory.hpp:77] Creating layer layer_512_2_scale1
I0525 16:18:44.738714  5268 net.cpp:84] Creating Layer layer_512_2_scale1
I0525 16:18:44.738719  5268 net.cpp:406] layer_512_2_scale1 <- layer_512_2_bn1
I0525 16:18:44.738724  5268 net.cpp:367] layer_512_2_scale1 -> layer_512_2_bn1 (in-place)
I0525 16:18:44.738765  5268 layer_factory.hpp:77] Creating layer layer_512_2_scale1
I0525 16:18:44.738873  5268 net.cpp:122] Setting up layer_512_2_scale1
I0525 16:18:44.738881  5268 net.cpp:129] Top shape: 50 512 7 7 (1254400)
I0525 16:18:44.738884  5268 net.cpp:137] Memory required for data: 2483712200
I0525 16:18:44.738890  5268 layer_factory.hpp:77] Creating layer layer_512_2_relu1
I0525 16:18:44.738898  5268 net.cpp:84] Creating Layer layer_512_2_relu1
I0525 16:18:44.738901  5268 net.cpp:406] layer_512_2_relu1 <- layer_512_2_bn1
I0525 16:18:44.738905  5268 net.cpp:367] layer_512_2_relu1 -> layer_512_2_bn1 (in-place)
I0525 16:18:44.739078  5268 net.cpp:122] Setting up layer_512_2_relu1
I0525 16:18:44.739091  5268 net.cpp:129] Top shape: 50 512 7 7 (1254400)
I0525 16:18:44.739096  5268 net.cpp:137] Memory required for data: 2488729800
I0525 16:18:44.739101  5268 layer_factory.hpp:77] Creating layer layer_512_2_conv1
I0525 16:18:44.739115  5268 net.cpp:84] Creating Layer layer_512_2_conv1
I0525 16:18:44.739125  5268 net.cpp:406] layer_512_2_conv1 <- layer_512_2_bn1
I0525 16:18:44.739132  5268 net.cpp:380] layer_512_2_conv1 -> layer_512_2_conv1
I0525 16:18:44.766588  5268 net.cpp:122] Setting up layer_512_2_conv1
I0525 16:18:44.766616  5268 net.cpp:129] Top shape: 50 512 7 7 (1254400)
I0525 16:18:44.766619  5268 net.cpp:137] Memory required for data: 2493747400
I0525 16:18:44.766629  5268 layer_factory.hpp:77] Creating layer layer_512_2_bn2
I0525 16:18:44.766641  5268 net.cpp:84] Creating Layer layer_512_2_bn2
I0525 16:18:44.766647  5268 net.cpp:406] layer_512_2_bn2 <- layer_512_2_conv1
I0525 16:18:44.766657  5268 net.cpp:367] layer_512_2_bn2 -> layer_512_2_conv1 (in-place)
I0525 16:18:44.766841  5268 net.cpp:122] Setting up layer_512_2_bn2
I0525 16:18:44.766851  5268 net.cpp:129] Top shape: 50 512 7 7 (1254400)
I0525 16:18:44.766855  5268 net.cpp:137] Memory required for data: 2498765000
I0525 16:18:44.766862  5268 layer_factory.hpp:77] Creating layer layer_512_2_scale2
I0525 16:18:44.766875  5268 net.cpp:84] Creating Layer layer_512_2_scale2
I0525 16:18:44.766880  5268 net.cpp:406] layer_512_2_scale2 <- layer_512_2_conv1
I0525 16:18:44.766885  5268 net.cpp:367] layer_512_2_scale2 -> layer_512_2_conv1 (in-place)
I0525 16:18:44.766924  5268 layer_factory.hpp:77] Creating layer layer_512_2_scale2
I0525 16:18:44.767030  5268 net.cpp:122] Setting up layer_512_2_scale2
I0525 16:18:44.767040  5268 net.cpp:129] Top shape: 50 512 7 7 (1254400)
I0525 16:18:44.767043  5268 net.cpp:137] Memory required for data: 2503782600
I0525 16:18:44.767050  5268 layer_factory.hpp:77] Creating layer layer_512_2_relu2
I0525 16:18:44.767057  5268 net.cpp:84] Creating Layer layer_512_2_relu2
I0525 16:18:44.767061  5268 net.cpp:406] layer_512_2_relu2 <- layer_512_2_conv1
I0525 16:18:44.767068  5268 net.cpp:367] layer_512_2_relu2 -> layer_512_2_conv1 (in-place)
I0525 16:18:44.767707  5268 net.cpp:122] Setting up layer_512_2_relu2
I0525 16:18:44.767721  5268 net.cpp:129] Top shape: 50 512 7 7 (1254400)
I0525 16:18:44.767725  5268 net.cpp:137] Memory required for data: 2508800200
I0525 16:18:44.767729  5268 layer_factory.hpp:77] Creating layer layer_512_2_conv2
I0525 16:18:44.767741  5268 net.cpp:84] Creating Layer layer_512_2_conv2
I0525 16:18:44.767746  5268 net.cpp:406] layer_512_2_conv2 <- layer_512_2_conv1
I0525 16:18:44.767753  5268 net.cpp:380] layer_512_2_conv2 -> layer_512_2_conv2
I0525 16:18:44.794236  5268 net.cpp:122] Setting up layer_512_2_conv2
I0525 16:18:44.794268  5268 net.cpp:129] Top shape: 50 512 7 7 (1254400)
I0525 16:18:44.794271  5268 net.cpp:137] Memory required for data: 2513817800
I0525 16:18:44.794281  5268 layer_factory.hpp:77] Creating layer layer_512_2_sum
I0525 16:18:44.794291  5268 net.cpp:84] Creating Layer layer_512_2_sum
I0525 16:18:44.794332  5268 net.cpp:406] layer_512_2_sum <- layer_512_2_conv2
I0525 16:18:44.794339  5268 net.cpp:406] layer_512_2_sum <- layer_512_1_sum_layer_512_1_sum_0_split_1
I0525 16:18:44.794348  5268 net.cpp:380] layer_512_2_sum -> layer_512_2_sum
I0525 16:18:44.794391  5268 net.cpp:122] Setting up layer_512_2_sum
I0525 16:18:44.794399  5268 net.cpp:129] Top shape: 50 512 7 7 (1254400)
I0525 16:18:44.794402  5268 net.cpp:137] Memory required for data: 2518835400
I0525 16:18:44.794405  5268 layer_factory.hpp:77] Creating layer last_bn
I0525 16:18:44.794411  5268 net.cpp:84] Creating Layer last_bn
I0525 16:18:44.794414  5268 net.cpp:406] last_bn <- layer_512_2_sum
I0525 16:18:44.794420  5268 net.cpp:367] last_bn -> layer_512_2_sum (in-place)
I0525 16:18:44.794620  5268 net.cpp:122] Setting up last_bn
I0525 16:18:44.794628  5268 net.cpp:129] Top shape: 50 512 7 7 (1254400)
I0525 16:18:44.794631  5268 net.cpp:137] Memory required for data: 2523853000
I0525 16:18:44.794638  5268 layer_factory.hpp:77] Creating layer last_scale
I0525 16:18:44.794646  5268 net.cpp:84] Creating Layer last_scale
I0525 16:18:44.794649  5268 net.cpp:406] last_scale <- layer_512_2_sum
I0525 16:18:44.794653  5268 net.cpp:367] last_scale -> layer_512_2_sum (in-place)
I0525 16:18:44.794704  5268 layer_factory.hpp:77] Creating layer last_scale
I0525 16:18:44.794834  5268 net.cpp:122] Setting up last_scale
I0525 16:18:44.794843  5268 net.cpp:129] Top shape: 50 512 7 7 (1254400)
I0525 16:18:44.794847  5268 net.cpp:137] Memory required for data: 2528870600
I0525 16:18:44.794853  5268 layer_factory.hpp:77] Creating layer last_relu
I0525 16:18:44.794862  5268 net.cpp:84] Creating Layer last_relu
I0525 16:18:44.794865  5268 net.cpp:406] last_relu <- layer_512_2_sum
I0525 16:18:44.794870  5268 net.cpp:367] last_relu -> layer_512_2_sum (in-place)
I0525 16:18:44.795604  5268 net.cpp:122] Setting up last_relu
I0525 16:18:44.795617  5268 net.cpp:129] Top shape: 50 512 7 7 (1254400)
I0525 16:18:44.795622  5268 net.cpp:137] Memory required for data: 2533888200
I0525 16:18:44.795626  5268 layer_factory.hpp:77] Creating layer global_pool
I0525 16:18:44.795632  5268 net.cpp:84] Creating Layer global_pool
I0525 16:18:44.795636  5268 net.cpp:406] global_pool <- layer_512_2_sum
I0525 16:18:44.795642  5268 net.cpp:380] global_pool -> global_pool
I0525 16:18:44.795817  5268 net.cpp:122] Setting up global_pool
I0525 16:18:44.795827  5268 net.cpp:129] Top shape: 50 512 1 1 (25600)
I0525 16:18:44.795831  5268 net.cpp:137] Memory required for data: 2533990600
I0525 16:18:44.795835  5268 layer_factory.hpp:77] Creating layer score
I0525 16:18:44.795842  5268 net.cpp:84] Creating Layer score
I0525 16:18:44.795846  5268 net.cpp:406] score <- global_pool
I0525 16:18:44.795852  5268 net.cpp:380] score -> score
I0525 16:18:44.795976  5268 net.cpp:122] Setting up score
I0525 16:18:44.795987  5268 net.cpp:129] Top shape: 50 8 (400)
I0525 16:18:44.795990  5268 net.cpp:137] Memory required for data: 2533992200
I0525 16:18:44.795996  5268 layer_factory.hpp:77] Creating layer loss
I0525 16:18:44.796001  5268 net.cpp:84] Creating Layer loss
I0525 16:18:44.796005  5268 net.cpp:406] loss <- score
I0525 16:18:44.796010  5268 net.cpp:406] loss <- label
I0525 16:18:44.796016  5268 net.cpp:380] loss -> loss
I0525 16:18:44.796026  5268 layer_factory.hpp:77] Creating layer loss
…
I0525 16:18:44.797950  5268 net.cpp:51] Initializing net from parameters: 
name: "Pre-ResNet-18"
state {
  phase: TEST
}
layer {
  name: "data"
  type: "Data"
  top: "data"
  top: "label"
  include {
    phase: TEST
  }
  transform_param {
    mirror: false
    crop_size: 224
    mean_file: "/home/k/PycharmProjects/AgeGenderDeepLearning-master/Folds/lmdb/Test_fold_is_0/mean.binaryproto"
  }
  data_param {
    source: "/home/k/PycharmProjects/AgeGenderDeepLearning-master/Folds/lmdb/Test_fold_is_0/age_val_lmdb"
    batch_size: 50
    backend: LMDB
  }
}
layer {
  name: "data_bn"
  type: "BatchNorm"
  bottom: "data"
  top: "data_bn"
  param {
    lr_mult: 0
    decay_mult: 0
  }
  param {
    lr_mult: 0
    decay_mult: 0
  }
  param {
    lr_mult: 0
    decay_mult: 0
  }
}
layer {
  name: "data_scale"
  type: "Scale"
  bottom: "data_bn"
  top: "data_bn"
  param {
    lr_mult: 1
    decay_mult: 1
  }
  param {
    lr_mult: 2
    decay_mult: 1
  }
  scale_param {
    bias_term: true
  }
}
layer {
  name: "conv1"
  type: "Convolution"
  bottom: "data_bn"
  top: "conv1"
  param {
    lr_mult: 1
    decay_mult: 1
  }
  param {
    lr_mult: 2
    decay_mult: 1
  }
  convolution_param {
    num_output: 64
    pad: 3
    kernel_size: 7
    stride: 2
    weight_filler {
      type: "msra"
      variance_norm: FAN_OUT
    }
    bias_filler {
      type: "constant"
      value: 0
    }
  }
}
layer {
  name: "conv1_bn"
  type: "BatchNorm"
  bottom: "conv1"
  top: "conv1"
  param {
    lr_mult: 0
    decay_mult: 0
  }
  param {
    lr_mult: 0
    decay_mult: 0
  }
  param {
    lr_mult: 0
    decay_mult: 0
  }
}
layer {
  name: "conv1_scale"
  type: "Scale"
  bottom: "conv1"
  top: "conv1"
  param {
    lr_mult: 1
    decay_mult: 1
  }
  param {
    lr_mult: 2
    decay_mult: 1
  }
  scale_param {
    bias_term: true
  }
}
layer {
  name: "conv1_relu"
  type: "ReLU"
  bottom: "conv1"
  top: "conv1"
}
layer {
  name: "conv1_pool"
  type: "Pooling"
  bottom: "conv1"
  top: "conv1_pool"
  pooling_param {
    kernel_size: 3
    stride: 2
  }
}
layer {
  name: "layer_64_1_conv1"
  type: "Convolution"
  bottom: "conv1_pool"
  top: "layer_64_1_conv1"
  param {
    lr_mult: 1
    decay_mult: 1
  }
  convolution_param {
    num_output: 64
    bias_term: false
    pad: 1
    kernel_size: 3
    stride: 1
    weight_filler {
      type: "msra"
    }
    bias_filler {
      type: "constant"
      value: 0
    }
  }
}
layer {
  name: "layer_64_1_bn2"
  type: "BatchNorm"
  bottom: "layer_64_1_conv1"
  top: "layer_64_1_conv1"
  param {
    lr_mult: 0
    decay_mult: 0
  }
  param {
    lr_mult: 0
    decay_mult: 0
  }
  param {
    lr_mult: 0
    decay_mult: 0
  }
}
layer {
  name: "layer_64_1_scale2"
  type: "Scale"
  bottom: "layer_64_1_conv1"
  top: "layer_64_1_conv1"
  param {
    lr_mult: 1
    decay_mult: 1
  }
  param {
    lr_mult: 2
    decay_mult: 1
  }
  scale_param {
    bias_term: true
  }
}
layer {
  name: "layer_64_1_relu2"
  type: "ReLU"
  bottom: "layer_64_1_conv1"
  top: "layer_64_1_conv1"
}
layer {
  name: "layer_64_1_conv2"
  type: "Convolution"
  bottom: "layer_64_1_conv1"
  top: "layer_64_1_conv2"
  param {
    lr_mult: 1
    decay_mult: 1
  }
  convolution_param {
    num_output: 64
    bias_term: false
    pad: 1
    kernel_size: 3
    stride: 1
    weight_filler {
      type: "msra"
    }
    bias_filler {
      type: "constant"
      value: 0
    }
  }
}
layer {
  name: "layer_64_1_sum"
  type: "Eltwise"
  bottom: "layer_64_1_conv2"
  bottom: "conv1_pool"
  top: "layer_64_1_sum"
}
layer {
  name: "layer_64_2_bn1"
  type: "BatchNorm"
  bottom: "layer_64_1_sum"
  top: "layer_64_2_bn1"
  param {
    lr_mult: 0
    decay_mult: 0
  }
  param {
    lr_mult: 0
    decay_mult: 0
  }
  param {
    lr_mult: 0
    decay_mult: 0
  }
}
layer {
  name: "layer_64_2_scale1"
  type: "Scale"
  bottom: "layer_64_2_bn1"
  top: "layer_64_2_bn1"
  param {
    lr_mult: 1
    decay_mult: 1
  }
  param {
    lr_mult: 2
    decay_mult: 1
  }
  scale_param {
    bias_term: true
  }
}
layer {
  name: "layer_64_2_relu1"
  type: "ReLU"
  bottom: "layer_64_2_bn1"
  top: "layer_64_2_bn1"
}
layer {
  name: "layer_64_2_conv1"
  type: "Convolution"
  bottom: "layer_64_2_bn1"
  top: "layer_64_2_conv1"
  param {
    lr_mult: 1
    decay_mult: 1
  }
  convolution_param {
    num_output: 64
    bias_term: false
    pad: 1
    kernel_size: 3
    stride: 1
    weight_filler {
      type: "msra"
    }
    bias_filler {
      type: "constant"
      value: 0
    }
  }
}
layer {
  name: "layer_64_2_bn2"
  type: "BatchNorm"
  bottom: "layer_64_2_conv1"
  top: "layer_64_2_conv1"
  param {
    lr_mult: 0
    decay_mult: 0
  }
  param {
    lr_mult: 0
    decay_mult: 0
  }
  param {
    lr_mult: 0
    decay_mult: 0
  }
}
layer {
  name: "layer_64_2_scale2"
  type: "Scale"
  bottom: "layer_64_2_conv1"
  top: "layer_64_2_conv1"
  param {
    lr_mult: 1
    decay_mult: 1
  }
  param {
    lr_mult: 2
    decay_mult: 1
  }
  scale_param {
    bias_term: true
  }
}
layer {
  name: "layer_64_2_relu2"
  type: "ReLU"
  bottom: "layer_64_2_conv1"
  top: "layer_64_2_conv1"
}
layer {
  name: "layer_64_2_conv2"
  type: "Convolution"
  bottom: "layer_64_2_conv1"
  top: "layer_64_2_conv2"
  param {
    lr_mult: 1
    decay_mult: 1
  }
  convolution_param {
    num_output: 64
    bias_term: false
    pad: 1
    kernel_size: 3
    stride: 1
    weight_filler {
      type: "msra"
    }
    bias_filler {
      type: "constant"
      value: 0
    }
  }
}
layer {
  name: "layer_64_2_sum"
  type: "Eltwise"
  bottom: "layer_64_2_conv2"
  bottom: "layer_64_1_sum"
  top: "layer_64_2_sum"
}
layer {
  name: "layer_128_1_bn1"
  type: "BatchNorm"
  bottom: "layer_64_2_sum"
  top: "layer_128_1_bn1"
  param {
    lr_mult: 0
    decay_mult: 0
  }
  param {
    lr_mult: 0
    decay_mult: 0
  }
  param {
    lr_mult: 0
    decay_mult: 0
  }
}
layer {
  name: "layer_128_1_scale1"
  type: "Scale"
  bottom: "layer_128_1_bn1"
  top: "layer_128_1_bn1"
  param {
    lr_mult: 1
    decay_mult: 1
  }
  param {
    lr_mult: 2
    decay_mult: 1
  }
  scale_param {
    bias_term: true
  }
}
layer {
  name: "layer_128_1_relu1"
  type: "ReLU"
  bottom: "layer_128_1_bn1"
  top: "layer_128_1_bn1"
}
layer {
  name: "layer_128_1_conv1"
  type: "Convolution"
  bottom: "layer_128_1_bn1"
  top: "layer_128_1_conv1"
  param {
    lr_mult: 1
    decay_mult: 1
  }
  convolution_param {
    num_output: 128
    bias_term: false
    pad: 1
    kernel_size: 3
    stride: 2
    weight_filler {
      type: "msra"
    }
    bias_filler {
      type: "constant"
      value: 0
    }
  }
}
layer {
  name: "layer_128_1_bn2"
  type: "BatchNorm"
  bottom: "layer_128_1_conv1"
  top: "layer_128_1_conv1"
  param {
    lr_mult: 0
    decay_mult: 0
  }
  param {
    lr_mult: 0
    decay_mult: 0
  }
  param {
    lr_mult: 0
    decay_mult: 0
  }
}
layer {
  name: "layer_128_1_scale2"
  type: "Scale"
  bottom: "layer_128_1_conv1"
  top: "layer_128_1_conv1"
  param {
    lr_mult: 1
    decay_mult: 1
  }
  param {
    lr_mult: 2
    decay_mult: 1
  }
  scale_param {
    bias_term: true
  }
}
layer {
  name: "layer_128_1_relu2"
  type: "ReLU"
  bottom: "layer_128_1_conv1"
  top: "layer_128_1_conv1"
}
layer {
  name: "layer_128_1_conv2"
  type: "Convolution"
  bottom: "layer_128_1_conv1"
  top: "layer_128_1_conv2"
  param {
    lr_mult: 1
    decay_mult: 1
  }
  convolution_param {
    num_output: 128
    bias_term: false
    pad: 1
    kernel_size: 3
    stride: 1
    weight_filler {
      type: "msra"
    }
    bias_filler {
      type: "constant"
      value: 0
    }
  }
}
layer {
  name: "layer_128_1_conv_expand"
  type: "Convolution"
  bottom: "layer_128_1_bn1"
  top: "layer_128_1_conv_expand"
  param {
    lr_mult: 1
    decay_mult: 1
  }
  convolution_param {
    num_output: 128
    bias_term: false
    pad: 0
    kernel_size: 1
    stride: 2
    weight_filler {
      type: "msra"
    }
    bias_filler {
      type: "constant"
      value: 0
    }
  }
}
layer {
  name: "layer_128_1_sum"
  type: "Eltwise"
  bottom: "layer_128_1_conv_expand"
  bottom: "layer_128_1_conv2"
  top: "layer_128_1_sum"
}
layer {
  name: "layer_128_2_bn1"
  type: "BatchNorm"
  bottom: "layer_128_1_sum"
  top: "layer_128_2_bn1"
  param {
    lr_mult: 0
    decay_mult: 0
  }
  param {
    lr_mult: 0
    decay_mult: 0
  }
  param {
    lr_mult: 0
    decay_mult: 0
  }
}
layer {
  name: "layer_128_2_scale1"
  type: "Scale"
  bottom: "layer_128_2_bn1"
  top: "layer_128_2_bn1"
  param {
    lr_mult: 1
    decay_mult: 1
  }
  param {
    lr_mult: 2
    decay_mult: 1
  }
  scale_param {
    bias_term: true
  }
}
layer {
  name: "layer_128_2_relu1"
  type: "ReLU"
  bottom: "layer_128_2_bn1"
  top: "layer_128_2_bn1"
}
layer {
  name: "layer_128_2_conv1"
  type: "Convolution"
  bottom: "layer_128_2_bn1"
  top: "layer_128_2_conv1"
  param {
    lr_mult: 1
    decay_mult: 1
  }
  convolution_param {
    num_output: 128
    bias_term: false
    pad: 1
    kernel_size: 3
    stride: 1
    weight_filler {
      type: "msra"
    }
    bias_filler {
      type: "constant"
      value: 0
    }
  }
}
layer {
  name: "layer_128_2_bn2"
  type: "BatchNorm"
  bottom: "layer_128_2_conv1"
  top: "layer_128_2_conv1"
  param {
    lr_mult: 0
    decay_mult: 0
  }
  param {
    lr_mult: 0
    decay_mult: 0
  }
  param {
    lr_mult: 0
    decay_mult: 0
  }
}
layer {
  name: "layer_128_2_scale2"
  type: "Scale"
  bottom: "layer_128_2_conv1"
  top: "layer_128_2_conv1"
  param {
    lr_mult: 1
    decay_mult: 1
  }
  param {
    lr_mult: 2
    decay_mult: 1
  }
  scale_param {
    bias_term: true
  }
}
layer {
  name: "layer_128_2_relu2"
  type: "ReLU"
  bottom: "layer_128_2_conv1"
  top: "layer_128_2_conv1"
}
layer {
  name: "layer_128_2_conv2"
  type: "Convolution"
  bottom: "layer_128_2_conv1"
  top: "layer_128_2_conv2"
  param {
    lr_mult: 1
    decay_mult: 1
  }
  convolution_param {
    num_output: 128
    bias_term: false
    pad: 1
    kernel_size: 3
    stride: 1
    weight_filler {
      type: "msra"
    }
    bias_filler {
      type: "constant"
      value: 0
    }
  }
}
layer {
  name: "layer_128_2_sum"
  type: "Eltwise"
  bottom: "layer_128_2_conv2"
  bottom: "layer_128_1_sum"
  top: "layer_128_2_sum"
}
layer {
  name: "layer_256_1_bn1"
  type: "BatchNorm"
  bottom: "layer_128_2_sum"
  top: "layer_256_1_bn1"
  param {
    lr_mult: 0
    decay_mult: 0
  }
  param {
    lr_mult: 0
    decay_mult: 0
  }
  param {
    lr_mult: 0
    decay_mult: 0
  }
}
layer {
  name: "layer_256_1_scale1"
  type: "Scale"
  bottom: "layer_256_1_bn1"
  top: "layer_256_1_bn1"
  param {
    lr_mult: 1
    decay_mult: 1
  }
  param {
    lr_mult: 2
    decay_mult: 1
  }
  scale_param {
    bias_term: true
  }
}
layer {
  name: "layer_256_1_relu1"
  type: "ReLU"
  bottom: "layer_256_1_bn1"
  top: "layer_256_1_bn1"
}
layer {
  name: "layer_256_1_conv1"
  type: "Convolution"
  bottom: "layer_256_1_bn1"
  top: "layer_256_1_conv1"
  param {
    lr_mult: 1
    decay_mult: 1
  }
  convolution_param {
    num_output: 256
    bias_term: false
    pad: 1
    kernel_size: 3
    stride: 2
    weight_filler {
      type: "msra"
    }
    bias_filler {
      type: "constant"
      value: 0
    }
  }
}
layer {
  name: "layer_256_1_bn2"
  type: "BatchNorm"
  bottom: "layer_256_1_conv1"
  top: "layer_256_1_conv1"
  param {
    lr_mult: 0
    decay_mult: 0
  }
  param {
    lr_mult: 0
    decay_mult: 0
  }
  param {
    lr_mult: 0
    decay_mult: 0
  }
}
layer {
  name: "layer_256_1_scale2"
  type: "Scale"
  bottom: "layer_256_1_conv1"
  top: "layer_256_1_conv1"
  param {
    lr_mult: 1
    decay_mult: 1
  }
  param {
    lr_mult: 2
    decay_mult: 1
  }
  scale_param {
    bias_term: true
  }
}
layer {
  name: "layer_256_1_relu2"
  type: "ReLU"
  bottom: "layer_256_1_conv1"
  top: "layer_256_1_conv1"
}
layer {
  name: "layer_256_1_conv2"
  type: "Convolution"
  bottom: "layer_256_1_conv1"
  top: "layer_256_1_conv2"
  param {
    lr_mult: 1
    decay_mult: 1
  }
  convolution_param {
    num_output: 256
    bias_term: false
    pad: 1
    kernel_size: 3
    stride: 1
    weight_filler {
      type: "msra"
    }
    bias_filler {
      type: "constant"
      value: 0
    }
  }
}
layer {
  name: "layer_256_1_conv_expand"
  type: "Convolution"
  bottom: "layer_256_1_bn1"
  top: "layer_256_1_conv_expand"
  param {
    lr_mult: 1
    decay_mult: 1
  }
  convolution_param {
    num_output: 256
    bias_term: false
    pad: 0
    kernel_size: 1
    stride: 2
    weight_filler {
      type: "msra"
    }
    bias_filler {
      type: "constant"
      value: 0
    }
  }
}
layer {
  name: "layer_256_1_sum"
  type: "Eltwise"
  bottom: "layer_256_1_conv_expand"
  bottom: "layer_256_1_conv2"
  top: "layer_256_1_sum"
}
layer {
  name: "layer_256_2_bn1"
  type: "BatchNorm"
  bottom: "layer_256_1_sum"
  top: "layer_256_2_bn1"
  param {
    lr_mult: 0
    decay_mult: 0
  }
  param {
    lr_mult: 0
    decay_mult: 0
  }
  param {
    lr_mult: 0
    decay_mult: 0
  }
}
layer {
  name: "layer_256_2_scale1"
  type: "Scale"
  bottom: "layer_256_2_bn1"
  top: "layer_256_2_bn1"
  param {
    lr_mult: 1
    decay_mult: 1
  }
  param {
    lr_mult: 2
    decay_mult: 1
  }
  scale_param {
    bias_term: true
  }
}
layer {
  name: "layer_256_2_relu1"
  type: "ReLU"
  bottom: "layer_256_2_bn1"
  top: "layer_256_2_bn1"
}
layer {
  name: "layer_256_2_conv1"
  type: "Convolution"
  bottom: "layer_256_2_bn1"
  top: "layer_256_2_conv1"
  param {
    lr_mult: 1
    decay_mult: 1
  }
  convolution_param {
    num_output: 256
    bias_term: false
    pad: 1
    kernel_size: 3
    stride: 1
    weight_filler {
      type: "msra"
    }
    bias_filler {
      type: "constant"
      value: 0
    }
  }
}
layer {
  name: "layer_256_2_bn2"
  type: "BatchNorm"
  bottom: "layer_256_2_conv1"
  top: "layer_256_2_conv1"
  param {
    lr_mult: 0
    decay_mult: 0
  }
  param {
    lr_mult: 0
    decay_mult: 0
  }
  param {
    lr_mult: 0
    decay_mult: 0
  }
}
layer {
  name: "layer_256_2_scale2"
  type: "Scale"
  bottom: "layer_256_2_conv1"
  top: "layer_256_2_conv1"
  param {
    lr_mult: 1
    decay_mult: 1
  }
  param {
    lr_mult: 2
    decay_mult: 1
  }
  scale_param {
    bias_term: true
  }
}
layer {
  name: "layer_256_2_relu2"
  type: "ReLU"
  bottom: "layer_256_2_conv1"
  top: "layer_256_2_conv1"
}
layer {
  name: "layer_256_2_conv2"
  type: "Convolution"
  bottom: "layer_256_2_conv1"
  top: "layer_256_2_conv2"
  param {
    lr_mult: 1
    decay_mult: 1
  }
  convolution_param {
    num_output: 256
    bias_term: false
    pad: 1
    kernel_size: 3
    stride: 1
    weight_filler {
      type: "msra"
    }
    bias_filler {
      type: "constant"
      value: 0
    }
  }
}
layer {
  name: "layer_256_2_sum"
  type: "Eltwise"
  bottom: "layer_256_2_conv2"
  bottom: "layer_256_1_sum"
  top: "layer_256_2_sum"
}
layer {
  name: "layer_512_1_bn1"
  type: "BatchNorm"
  bottom: "layer_256_2_sum"
  top: "layer_512_1_bn1"
  param {
    lr_mult: 0
    decay_mult: 0
  }
  param {
    lr_mult: 0
    decay_mult: 0
  }
  param {
    lr_mult: 0
    decay_mult: 0
  }
}
layer {
  name: "layer_512_1_scale1"
  type: "Scale"
  bottom: "layer_512_1_bn1"
  top: "layer_512_1_bn1"
  param {
    lr_mult: 1
    decay_mult: 1
  }
  param {
    lr_mult: 2
    decay_mult: 1
  }
  scale_param {
    bias_term: true
  }
}
layer {
  name: "layer_512_1_relu1"
  type: "ReLU"
  bottom: "layer_512_1_bn1"
  top: "layer_512_1_bn1"
}
layer {
  name: "layer_512_1_conv1"
  type: "Convolution"
  bottom: "layer_512_1_bn1"
  top: "layer_512_1_conv1"
  param {
    lr_mult: 1
    decay_mult: 1
  }
  convolution_param {
    num_output: 512
    bias_term: false
    pad: 1
    kernel_size: 3
    stride: 2
    weight_filler {
      type: "msra"
    }
    bias_filler {
      type: "constant"
      value: 0
    }
  }
}
layer {
  name: "layer_512_1_bn2"
  type: "BatchNorm"
  bottom: "layer_512_1_conv1"
  top: "layer_512_1_conv1"
  param {
    lr_mult: 0
    decay_mult: 0
  }
  param {
    lr_mult: 0
    decay_mult: 0
  }
  param {
    lr_mult: 0
    decay_mult: 0
  }
}
layer {
  name: "layer_512_1_scale2"
  type: "Scale"
  bottom: "layer_512_1_conv1"
  top: "layer_512_1_conv1"
  param {
    lr_mult: 1
    decay_mult: 1
  }
  param {
    lr_mult: 2
    decay_mult: 1
  }
  scale_param {
    bias_term: true
  }
}
layer {
  name: "layer_512_1_relu2"
  type: "ReLU"
  bottom: "layer_512_1_conv1"
  top: "layer_512_1_conv1"
}
layer {
  name: "layer_512_1_conv2"
  type: "Convolution"
  bottom: "layer_512_1_conv1"
  top: "layer_512_1_conv2"
  param {
    lr_mult: 1
    decay_mult: 1
  }
  convolution_param {
    num_output: 512
    bias_term: false
    pad: 1
    kernel_size: 3
    stride: 1
    weight_filler {
      type: "msra"
    }
    bias_filler {
      type: "constant"
      value: 0
    }
  }
}
layer {
  name: "layer_512_1_conv_expand"
  type: "Convolution"
  bottom: "layer_512_1_bn1"
  top: "layer_512_1_conv_expand"
  param {
    lr_mult: 1
    decay_mult: 1
  }
  convolution_param {
    num_output: 512
    bias_term: false
    pad: 0
    kernel_size: 1
    stride: 2
    weight_filler {
      type: "msra"
    }
    bias_filler {
      type: "constant"
      value: 0
    }
  }
}
layer {
  name: "layer_512_1_sum"
  type: "Eltwise"
  bottom: "layer_512_1_conv_expand"
  bottom: "layer_512_1_conv2"
  top: "layer_512_1_sum"
}
layer {
  name: "layer_512_2_bn1"
  type: "BatchNorm"
  bottom: "layer_512_1_sum"
  top: "layer_512_2_bn1"
  param {
    lr_mult: 0
    decay_mult: 0
  }
  param {
    lr_mult: 0
    decay_mult: 0
  }
  param {
    lr_mult: 0
    decay_mult: 0
  }
}
layer {
  name: "layer_512_2_scale1"
  type: "Scale"
  bottom: "layer_512_2_bn1"
  top: "layer_512_2_bn1"
  param {
    lr_mult: 1
    decay_mult: 1
  }
  param {
    lr_mult: 2
    decay_mult: 1
  }
  scale_param {
    bias_term: true
  }
}
layer {
  name: "layer_512_2_relu1"
  type: "ReLU"
  bottom: "layer_512_2_bn1"
  top: "layer_512_2_bn1"
}
layer {
  name: "layer_512_2_conv1"
  type: "Convolution"
  bottom: "layer_512_2_bn1"
  top: "layer_512_2_conv1"
  param {
    lr_mult: 1
    decay_mult: 1
  }
  convolution_param {
    num_output: 512
    bias_term: false
    pad: 1
    kernel_size: 3
    stride: 1
    weight_filler {
      type: "msra"
    }
    bias_filler {
      type: "constant"
      value: 0
    }
  }
}
layer {
  name: "layer_512_2_bn2"
  type: "BatchNorm"
  bottom: "layer_512_2_conv1"
  top: "layer_512_2_conv1"
  param {
    lr_mult: 0
    decay_mult: 0
  }
  param {
    lr_mult: 0
    decay_mult: 0
  }
  param {
    lr_mult: 0
    decay_mult: 0
  }
}
layer {
  name: "layer_512_2_scale2"
  type: "Scale"
  bottom: "layer_512_2_conv1"
  top: "layer_512_2_conv1"
  param {
    lr_mult: 1
    decay_mult: 1
  }
  param {
    lr_mult: 2
    decay_mult: 1
  }
  scale_param {
    bias_term: true
  }
}
layer {
  name: "layer_512_2_relu2"
  type: "ReLU"
  bottom: "layer_512_2_conv1"
  top: "layer_512_2_conv1"
}
layer {
  name: "layer_512_2_conv2"
  type: "Convolution"
  bottom: "layer_512_2_conv1"
  top: "layer_512_2_conv2"
  param {
    lr_mult: 1
    decay_mult: 1
  }
  convolution_param {
    num_output: 512
    bias_term: false
    pad: 1
    kernel_size: 3
    stride: 1
    weight_filler {
      type: "msra"
    }
    bias_filler {
      type: "constant"
      value: 0
    }
  }
}
layer {
  name: "layer_512_2_sum"
  type: "Eltwise"
  bottom: "layer_512_2_conv2"
  bottom: "layer_512_1_sum"
  top: "layer_512_2_sum"
}
layer {
  name: "last_bn"
  type: "BatchNorm"
  bottom: "layer_512_2_sum"
  top: "layer_512_2_sum"
  param {
    lr_mult: 0
    decay_mult: 0
  }
  param {
    lr_mult: 0
    decay_mult: 0
  }
  param {
    lr_mult: 0
    decay_mult: 0
  }
}
layer {
  name: "last_scale"
  type: "Scale"
  bottom: "layer_512_2_sum"
  top: "layer_512_2_sum"
  param {
    lr_mult: 1
    decay_mult: 1
  }
  param {
    lr_mult: 2
    decay_mult: 1
  }
  scale_param {
    bias_term: true
  }
}
layer {
  name: "last_relu"
  type: "ReLU"
  bottom: "layer_512_2_sum"
  top: "layer_512_2_sum"
}
layer {
  name: "global_pool"
  type: "Pooling"
  bottom: "layer_512_2_sum"
  top: "global_pool"
  pooling_param {
    pool: AVE
    global_pooling: true
  }
}
layer {
  name: "score"
  type: "InnerProduct"
  bottom: "global_pool"
  top: "score"
  param {
    lr_mult: 1
    decay_mult: 1
  }
  param {
    lr_mult: 2
    decay_mult: 1
  }
  inner_product_param {
    num_output: 8
  }
}
layer {
  name: "loss"
  type: "SoftmaxWithLoss"
  bottom: "score"
  bottom: "label"
  top: "loss"
}
layer {
  name: "accuracy"
  type: "Accuracy"
  bottom: "score"
  bottom: "label"
  top: "accuracy"
  include {
    phase: TEST
  }
}
I0525 16:18:44.798213  5268 layer_factory.hpp:77] Creating layer data
I0525 16:18:44.798272  5268 db_lmdb.cpp:35] Opened lmdb /home/k/PycharmProjects/AgeGenderDeepLearning-master/Folds/lmdb/Test_fold_is_0/age_val_lmdb
I0525 16:18:44.798288  5268 net.cpp:84] Creating Layer data
I0525 16:18:44.798295  5268 net.cpp:380] data -> data
I0525 16:18:44.798302  5268 net.cpp:380] data -> label
I0525 16:18:44.798310  5268 data_transformer.cpp:25] Loading mean file from: /home/k/PycharmProjects/AgeGenderDeepLearning-master/Folds/lmdb/Test_fold_is_0/mean.binaryproto
I0525 16:18:44.799634  5268 data_layer.cpp:45] output data size: 50,3,224,224
I0525 16:18:44.860185  5268 net.cpp:122] Setting up data
I0525 16:18:44.860229  5268 net.cpp:129] Top shape: 50 3 224 224 (7526400)
I0525 16:18:44.860234  5268 net.cpp:129] Top shape: 50 (50)
I0525 16:18:44.860237  5268 net.cpp:137] Memory required for data: 30105800
I0525 16:18:44.860244  5268 layer_factory.hpp:77] Creating layer label_data_1_split
I0525 16:18:44.860257  5268 net.cpp:84] Creating Layer label_data_1_split
I0525 16:18:44.860261  5268 net.cpp:406] label_data_1_split <- label
I0525 16:18:44.860268  5268 net.cpp:380] label_data_1_split -> label_data_1_split_0
I0525 16:18:44.860281  5268 net.cpp:380] label_data_1_split -> label_data_1_split_1
I0525 16:18:44.860365  5268 net.cpp:122] Setting up label_data_1_split
I0525 16:18:44.860374  5268 net.cpp:129] Top shape: 50 (50)
I0525 16:18:44.860378  5268 net.cpp:129] Top shape: 50 (50)
I0525 16:18:44.860381  5268 net.cpp:137] Memory required for data: 30106200
I0525 16:18:44.860384  5268 layer_factory.hpp:77] Creating layer data_bn
I0525 16:18:44.860393  5268 net.cpp:84] Creating Layer data_bn
I0525 16:18:44.860395  5268 net.cpp:406] data_bn <- data
I0525 16:18:44.860411  5268 net.cpp:380] data_bn -> data_bn
I0525 16:18:44.860658  5268 net.cpp:122] Setting up data_bn
I0525 16:18:44.860668  5268 net.cpp:129] Top shape: 50 3 224 224 (7526400)
I0525 16:18:44.860682  5268 net.cpp:137] Memory required for data: 60211800
I0525 16:18:44.860695  5268 layer_factory.hpp:77] Creating layer data_scale
I0525 16:18:44.860703  5268 net.cpp:84] Creating Layer data_scale
I0525 16:18:44.860707  5268 net.cpp:406] data_scale <- data_bn
I0525 16:18:44.860712  5268 net.cpp:367] data_scale -> data_bn (in-place)
I0525 16:18:44.860754  5268 layer_factory.hpp:77] Creating layer data_scale
I0525 16:18:44.860944  5268 net.cpp:122] Setting up data_scale
I0525 16:18:44.860952  5268 net.cpp:129] Top shape: 50 3 224 224 (7526400)
I0525 16:18:44.860956  5268 net.cpp:137] Memory required for data: 90317400
I0525 16:18:44.860975  5268 layer_factory.hpp:77] Creating layer conv1
I0525 16:18:44.860986  5268 net.cpp:84] Creating Layer conv1
I0525 16:18:44.860991  5268 net.cpp:406] conv1 <- data_bn
I0525 16:18:44.860996  5268 net.cpp:380] conv1 -> conv1
I0525 16:18:44.866942  5268 net.cpp:122] Setting up conv1
I0525 16:18:44.866971  5268 net.cpp:129] Top shape: 50 64 112 112 (40140800)
I0525 16:18:44.866976  5268 net.cpp:137] Memory required for data: 250880600
I0525 16:18:44.866982  5268 layer_factory.hpp:77] Creating layer conv1_bn
I0525 16:18:44.866989  5268 net.cpp:84] Creating Layer conv1_bn
I0525 16:18:44.866993  5268 net.cpp:406] conv1_bn <- conv1
I0525 16:18:44.866998  5268 net.cpp:367] conv1_bn -> conv1 (in-place)
I0525 16:18:44.867189  5268 net.cpp:122] Setting up conv1_bn
I0525 16:18:44.867198  5268 net.cpp:129] Top shape: 50 64 112 112 (40140800)
I0525 16:18:44.867213  5268 net.cpp:137] Memory required for data: 411443800
I0525 16:18:44.867223  5268 layer_factory.hpp:77] Creating layer conv1_scale
I0525 16:18:44.867229  5268 net.cpp:84] Creating Layer conv1_scale
I0525 16:18:44.867233  5268 net.cpp:406] conv1_scale <- conv1
I0525 16:18:44.867256  5268 net.cpp:367] conv1_scale -> conv1 (in-place)
I0525 16:18:44.867300  5268 layer_factory.hpp:77] Creating layer conv1_scale
I0525 16:18:44.867441  5268 net.cpp:122] Setting up conv1_scale
I0525 16:18:44.867451  5268 net.cpp:129] Top shape: 50 64 112 112 (40140800)
I0525 16:18:44.867455  5268 net.cpp:137] Memory required for data: 572007000
I0525 16:18:44.867461  5268 layer_factory.hpp:77] Creating layer conv1_relu
I0525 16:18:44.867467  5268 net.cpp:84] Creating Layer conv1_relu
I0525 16:18:44.867470  5268 net.cpp:406] conv1_relu <- conv1
I0525 16:18:44.867475  5268 net.cpp:367] conv1_relu -> conv1 (in-place)
I0525 16:18:44.867635  5268 net.cpp:122] Setting up conv1_relu
I0525 16:18:44.867645  5268 net.cpp:129] Top shape: 50 64 112 112 (40140800)
I0525 16:18:44.867660  5268 net.cpp:137] Memory required for data: 732570200
I0525 16:18:44.867662  5268 layer_factory.hpp:77] Creating layer conv1_pool
I0525 16:18:44.867671  5268 net.cpp:84] Creating Layer conv1_pool
I0525 16:18:44.867674  5268 net.cpp:406] conv1_pool <- conv1
I0525 16:18:44.867679  5268 net.cpp:380] conv1_pool -> conv1_pool
I0525 16:18:44.867719  5268 net.cpp:122] Setting up conv1_pool
I0525 16:18:44.867727  5268 net.cpp:129] Top shape: 50 64 56 56 (10035200)
I0525 16:18:44.867732  5268 net.cpp:137] Memory required for data: 772711000
I0525 16:18:44.867734  5268 layer_factory.hpp:77] Creating layer conv1_pool_conv1_pool_0_split
I0525 16:18:44.867739  5268 net.cpp:84] Creating Layer conv1_pool_conv1_pool_0_split
I0525 16:18:44.867743  5268 net.cpp:406] conv1_pool_conv1_pool_0_split <- conv1_pool
I0525 16:18:44.867748  5268 net.cpp:380] conv1_pool_conv1_pool_0_split -> conv1_pool_conv1_pool_0_split_0
I0525 16:18:44.867754  5268 net.cpp:380] conv1_pool_conv1_pool_0_split -> conv1_pool_conv1_pool_0_split_1
I0525 16:18:44.867787  5268 net.cpp:122] Setting up conv1_pool_conv1_pool_0_split
I0525 16:18:44.867795  5268 net.cpp:129] Top shape: 50 64 56 56 (10035200)
I0525 16:18:44.867799  5268 net.cpp:129] Top shape: 50 64 56 56 (10035200)
I0525 16:18:44.867802  5268 net.cpp:137] Memory required for data: 852992600
I0525 16:18:44.867805  5268 layer_factory.hpp:77] Creating layer layer_64_1_conv1
I0525 16:18:44.867815  5268 net.cpp:84] Creating Layer layer_64_1_conv1
I0525 16:18:44.867818  5268 net.cpp:406] layer_64_1_conv1 <- conv1_pool_conv1_pool_0_split_0
I0525 16:18:44.867825  5268 net.cpp:380] layer_64_1_conv1 -> layer_64_1_conv1
I0525 16:18:44.869375  5268 net.cpp:122] Setting up layer_64_1_conv1
I0525 16:18:44.869402  5268 net.cpp:129] Top shape: 50 64 56 56 (10035200)
I0525 16:18:44.869407  5268 net.cpp:137] Memory required for data: 893133400
I0525 16:18:44.869413  5268 layer_factory.hpp:77] Creating layer layer_64_1_bn2
I0525 16:18:44.869421  5268 net.cpp:84] Creating Layer layer_64_1_bn2
I0525 16:18:44.869426  5268 net.cpp:406] layer_64_1_bn2 <- layer_64_1_conv1
I0525 16:18:44.869431  5268 net.cpp:367] layer_64_1_bn2 -> layer_64_1_conv1 (in-place)
I0525 16:18:44.869614  5268 net.cpp:122] Setting up layer_64_1_bn2
I0525 16:18:44.869623  5268 net.cpp:129] Top shape: 50 64 56 56 (10035200)
I0525 16:18:44.869627  5268 net.cpp:137] Memory required for data: 933274200
I0525 16:18:44.869634  5268 layer_factory.hpp:77] Creating layer layer_64_1_scale2
I0525 16:18:44.869642  5268 net.cpp:84] Creating Layer layer_64_1_scale2
I0525 16:18:44.869645  5268 net.cpp:406] layer_64_1_scale2 <- layer_64_1_conv1
I0525 16:18:44.869650  5268 net.cpp:367] layer_64_1_scale2 -> layer_64_1_conv1 (in-place)
I0525 16:18:44.869693  5268 layer_factory.hpp:77] Creating layer layer_64_1_scale2
I0525 16:18:44.869807  5268 net.cpp:122] Setting up layer_64_1_scale2
I0525 16:18:44.869817  5268 net.cpp:129] Top shape: 50 64 56 56 (10035200)
I0525 16:18:44.869820  5268 net.cpp:137] Memory required for data: 973415000
I0525 16:18:44.869830  5268 layer_factory.hpp:77] Creating layer layer_64_1_relu2
I0525 16:18:44.869837  5268 net.cpp:84] Creating Layer layer_64_1_relu2
I0525 16:18:44.869841  5268 net.cpp:406] layer_64_1_relu2 <- layer_64_1_conv1
I0525 16:18:44.869863  5268 net.cpp:367] layer_64_1_relu2 -> layer_64_1_conv1 (in-place)
I0525 16:18:44.870517  5268 net.cpp:122] Setting up layer_64_1_relu2
I0525 16:18:44.870529  5268 net.cpp:129] Top shape: 50 64 56 56 (10035200)
I0525 16:18:44.870533  5268 net.cpp:137] Memory required for data: 1013555800
I0525 16:18:44.870537  5268 layer_factory.hpp:77] Creating layer layer_64_1_conv2
I0525 16:18:44.870546  5268 net.cpp:84] Creating Layer layer_64_1_conv2
I0525 16:18:44.870551  5268 net.cpp:406] layer_64_1_conv2 <- layer_64_1_conv1
I0525 16:18:44.870558  5268 net.cpp:380] layer_64_1_conv2 -> layer_64_1_conv2
I0525 16:18:44.872951  5268 net.cpp:122] Setting up layer_64_1_conv2
I0525 16:18:44.872975  5268 net.cpp:129] Top shape: 50 64 56 56 (10035200)
I0525 16:18:44.872979  5268 net.cpp:137] Memory required for data: 1053696600
I0525 16:18:44.872988  5268 layer_factory.hpp:77] Creating layer layer_64_1_sum
I0525 16:18:44.872998  5268 net.cpp:84] Creating Layer layer_64_1_sum
I0525 16:18:44.873005  5268 net.cpp:406] layer_64_1_sum <- layer_64_1_conv2
I0525 16:18:44.873013  5268 net.cpp:406] layer_64_1_sum <- conv1_pool_conv1_pool_0_split_1
I0525 16:18:44.873020  5268 net.cpp:380] layer_64_1_sum -> layer_64_1_sum
I0525 16:18:44.873052  5268 net.cpp:122] Setting up layer_64_1_sum
I0525 16:18:44.873060  5268 net.cpp:129] Top shape: 50 64 56 56 (10035200)
I0525 16:18:44.873064  5268 net.cpp:137] Memory required for data: 1093837400
I0525 16:18:44.873067  5268 layer_factory.hpp:77] Creating layer layer_64_1_sum_layer_64_1_sum_0_split
I0525 16:18:44.873076  5268 net.cpp:84] Creating Layer layer_64_1_sum_layer_64_1_sum_0_split
I0525 16:18:44.873081  5268 net.cpp:406] layer_64_1_sum_layer_64_1_sum_0_split <- layer_64_1_sum
I0525 16:18:44.873086  5268 net.cpp:380] layer_64_1_sum_layer_64_1_sum_0_split -> layer_64_1_sum_layer_64_1_sum_0_split_0
I0525 16:18:44.873092  5268 net.cpp:380] layer_64_1_sum_layer_64_1_sum_0_split -> layer_64_1_sum_layer_64_1_sum_0_split_1
I0525 16:18:44.873127  5268 net.cpp:122] Setting up layer_64_1_sum_layer_64_1_sum_0_split
I0525 16:18:44.873137  5268 net.cpp:129] Top shape: 50 64 56 56 (10035200)
I0525 16:18:44.873142  5268 net.cpp:129] Top shape: 50 64 56 56 (10035200)
I0525 16:18:44.873144  5268 net.cpp:137] Memory required for data: 1174119000
I0525 16:18:44.873147  5268 layer_factory.hpp:77] Creating layer layer_64_2_bn1
I0525 16:18:44.873154  5268 net.cpp:84] Creating Layer layer_64_2_bn1
I0525 16:18:44.873157  5268 net.cpp:406] layer_64_2_bn1 <- layer_64_1_sum_layer_64_1_sum_0_split_0
I0525 16:18:44.873162  5268 net.cpp:380] layer_64_2_bn1 -> layer_64_2_bn1
I0525 16:18:44.873383  5268 net.cpp:122] Setting up layer_64_2_bn1
I0525 16:18:44.873396  5268 net.cpp:129] Top shape: 50 64 56 56 (10035200)
I0525 16:18:44.873402  5268 net.cpp:137] Memory required for data: 1214259800
I0525 16:18:44.873417  5268 layer_factory.hpp:77] Creating layer layer_64_2_scale1
I0525 16:18:44.873430  5268 net.cpp:84] Creating Layer layer_64_2_scale1
I0525 16:18:44.873440  5268 net.cpp:406] layer_64_2_scale1 <- layer_64_2_bn1
I0525 16:18:44.873450  5268 net.cpp:367] layer_64_2_scale1 -> layer_64_2_bn1 (in-place)
I0525 16:18:44.873508  5268 layer_factory.hpp:77] Creating layer layer_64_2_scale1
I0525 16:18:44.873632  5268 net.cpp:122] Setting up layer_64_2_scale1
I0525 16:18:44.873643  5268 net.cpp:129] Top shape: 50 64 56 56 (10035200)
I0525 16:18:44.873649  5268 net.cpp:137] Memory required for data: 1254400600
I0525 16:18:44.873661  5268 layer_factory.hpp:77] Creating layer layer_64_2_relu1
I0525 16:18:44.873673  5268 net.cpp:84] Creating Layer layer_64_2_relu1
I0525 16:18:44.873682  5268 net.cpp:406] layer_64_2_relu1 <- layer_64_2_bn1
I0525 16:18:44.873692  5268 net.cpp:367] layer_64_2_relu1 -> layer_64_2_bn1 (in-place)
I0525 16:18:44.873862  5268 net.cpp:122] Setting up layer_64_2_relu1
I0525 16:18:44.873873  5268 net.cpp:129] Top shape: 50 64 56 56 (10035200)
I0525 16:18:44.873879  5268 net.cpp:137] Memory required for data: 1294541400
I0525 16:18:44.873885  5268 layer_factory.hpp:77] Creating layer layer_64_2_conv1
I0525 16:18:44.873920  5268 net.cpp:84] Creating Layer layer_64_2_conv1
I0525 16:18:44.873929  5268 net.cpp:406] layer_64_2_conv1 <- layer_64_2_bn1
I0525 16:18:44.873941  5268 net.cpp:380] layer_64_2_conv1 -> layer_64_2_conv1
I0525 16:18:44.875576  5268 net.cpp:122] Setting up layer_64_2_conv1
I0525 16:18:44.875597  5268 net.cpp:129] Top shape: 50 64 56 56 (10035200)
I0525 16:18:44.875603  5268 net.cpp:137] Memory required for data: 1334682200
I0525 16:18:44.875615  5268 layer_factory.hpp:77] Creating layer layer_64_2_bn2
I0525 16:18:44.875630  5268 net.cpp:84] Creating Layer layer_64_2_bn2
I0525 16:18:44.875639  5268 net.cpp:406] layer_64_2_bn2 <- layer_64_2_conv1
I0525 16:18:44.875651  5268 net.cpp:367] layer_64_2_bn2 -> layer_64_2_conv1 (in-place)
I0525 16:18:44.875854  5268 net.cpp:122] Setting up layer_64_2_bn2
I0525 16:18:44.875865  5268 net.cpp:129] Top shape: 50 64 56 56 (10035200)
I0525 16:18:44.875872  5268 net.cpp:137] Memory required for data: 1374823000
I0525 16:18:44.875886  5268 layer_factory.hpp:77] Creating layer layer_64_2_scale2
I0525 16:18:44.875898  5268 net.cpp:84] Creating Layer layer_64_2_scale2
I0525 16:18:44.875907  5268 net.cpp:406] layer_64_2_scale2 <- layer_64_2_conv1
I0525 16:18:44.875918  5268 net.cpp:367] layer_64_2_scale2 -> layer_64_2_conv1 (in-place)
I0525 16:18:44.875984  5268 layer_factory.hpp:77] Creating layer layer_64_2_scale2
I0525 16:18:44.876112  5268 net.cpp:122] Setting up layer_64_2_scale2
I0525 16:18:44.876123  5268 net.cpp:129] Top shape: 50 64 56 56 (10035200)
I0525 16:18:44.876130  5268 net.cpp:137] Memory required for data: 1414963800
I0525 16:18:44.876142  5268 layer_factory.hpp:77] Creating layer layer_64_2_relu2
I0525 16:18:44.876152  5268 net.cpp:84] Creating Layer layer_64_2_relu2
I0525 16:18:44.876161  5268 net.cpp:406] layer_64_2_relu2 <- layer_64_2_conv1
I0525 16:18:44.876170  5268 net.cpp:367] layer_64_2_relu2 -> layer_64_2_conv1 (in-place)
I0525 16:18:44.876322  5268 net.cpp:122] Setting up layer_64_2_relu2
I0525 16:18:44.876334  5268 net.cpp:129] Top shape: 50 64 56 56 (10035200)
I0525 16:18:44.876341  5268 net.cpp:137] Memory required for data: 1455104600
I0525 16:18:44.876348  5268 layer_factory.hpp:77] Creating layer layer_64_2_conv2
I0525 16:18:44.876364  5268 net.cpp:84] Creating Layer layer_64_2_conv2
I0525 16:18:44.876371  5268 net.cpp:406] layer_64_2_conv2 <- layer_64_2_conv1
I0525 16:18:44.876382  5268 net.cpp:380] layer_64_2_conv2 -> layer_64_2_conv2
I0525 16:18:44.877972  5268 net.cpp:122] Setting up layer_64_2_conv2
I0525 16:18:44.877991  5268 net.cpp:129] Top shape: 50 64 56 56 (10035200)
I0525 16:18:44.877997  5268 net.cpp:137] Memory required for data: 1495245400
I0525 16:18:44.878007  5268 layer_factory.hpp:77] Creating layer layer_64_2_sum
I0525 16:18:44.878021  5268 net.cpp:84] Creating Layer layer_64_2_sum
I0525 16:18:44.878029  5268 net.cpp:406] layer_64_2_sum <- layer_64_2_conv2
I0525 16:18:44.878038  5268 net.cpp:406] layer_64_2_sum <- layer_64_1_sum_layer_64_1_sum_0_split_1
I0525 16:18:44.878049  5268 net.cpp:380] layer_64_2_sum -> layer_64_2_sum
I0525 16:18:44.878084  5268 net.cpp:122] Setting up layer_64_2_sum
I0525 16:18:44.878095  5268 net.cpp:129] Top shape: 50 64 56 56 (10035200)
I0525 16:18:44.878101  5268 net.cpp:137] Memory required for data: 1535386200
I0525 16:18:44.878109  5268 layer_factory.hpp:77] Creating layer layer_128_1_bn1
I0525 16:18:44.878121  5268 net.cpp:84] Creating Layer layer_128_1_bn1
I0525 16:18:44.878129  5268 net.cpp:406] layer_128_1_bn1 <- layer_64_2_sum
I0525 16:18:44.878139  5268 net.cpp:380] layer_128_1_bn1 -> layer_128_1_bn1
I0525 16:18:44.878346  5268 net.cpp:122] Setting up layer_128_1_bn1
I0525 16:18:44.878358  5268 net.cpp:129] Top shape: 50 64 56 56 (10035200)
I0525 16:18:44.878365  5268 net.cpp:137] Memory required for data: 1575527000
I0525 16:18:44.878382  5268 layer_factory.hpp:77] Creating layer layer_128_1_scale1
I0525 16:18:44.878394  5268 net.cpp:84] Creating Layer layer_128_1_scale1
I0525 16:18:44.878403  5268 net.cpp:406] layer_128_1_scale1 <- layer_128_1_bn1
I0525 16:18:44.878413  5268 net.cpp:367] layer_128_1_scale1 -> layer_128_1_bn1 (in-place)
I0525 16:18:44.878480  5268 layer_factory.hpp:77] Creating layer layer_128_1_scale1
I0525 16:18:44.878603  5268 net.cpp:122] Setting up layer_128_1_scale1
I0525 16:18:44.878615  5268 net.cpp:129] Top shape: 50 64 56 56 (10035200)
I0525 16:18:44.878621  5268 net.cpp:137] Memory required for data: 1615667800
I0525 16:18:44.878633  5268 layer_factory.hpp:77] Creating layer layer_128_1_relu1
I0525 16:18:44.878644  5268 net.cpp:84] Creating Layer layer_128_1_relu1
I0525 16:18:44.878653  5268 net.cpp:406] layer_128_1_relu1 <- layer_128_1_bn1
I0525 16:18:44.878661  5268 net.cpp:367] layer_128_1_relu1 -> layer_128_1_bn1 (in-place)
I0525 16:18:44.878818  5268 net.cpp:122] Setting up layer_128_1_relu1
I0525 16:18:44.878829  5268 net.cpp:129] Top shape: 50 64 56 56 (10035200)
I0525 16:18:44.878835  5268 net.cpp:137] Memory required for data: 1655808600
I0525 16:18:44.878842  5268 layer_factory.hpp:77] Creating layer layer_128_1_bn1_layer_128_1_relu1_0_split
I0525 16:18:44.878852  5268 net.cpp:84] Creating Layer layer_128_1_bn1_layer_128_1_relu1_0_split
I0525 16:18:44.878859  5268 net.cpp:406] layer_128_1_bn1_layer_128_1_relu1_0_split <- layer_128_1_bn1
I0525 16:18:44.878868  5268 net.cpp:380] layer_128_1_bn1_layer_128_1_relu1_0_split -> layer_128_1_bn1_layer_128_1_relu1_0_split_0
I0525 16:18:44.878880  5268 net.cpp:380] layer_128_1_bn1_layer_128_1_relu1_0_split -> layer_128_1_bn1_layer_128_1_relu1_0_split_1
I0525 16:18:44.878927  5268 net.cpp:122] Setting up layer_128_1_bn1_layer_128_1_relu1_0_split
I0525 16:18:44.878939  5268 net.cpp:129] Top shape: 50 64 56 56 (10035200)
I0525 16:18:44.878947  5268 net.cpp:129] Top shape: 50 64 56 56 (10035200)
I0525 16:18:44.878955  5268 net.cpp:137] Memory required for data: 1736090200
I0525 16:18:44.878962  5268 layer_factory.hpp:77] Creating layer layer_128_1_conv1
I0525 16:18:44.878978  5268 net.cpp:84] Creating Layer layer_128_1_conv1
I0525 16:18:44.878984  5268 net.cpp:406] layer_128_1_conv1 <- layer_128_1_bn1_layer_128_1_relu1_0_split_0
I0525 16:18:44.878995  5268 net.cpp:380] layer_128_1_conv1 -> layer_128_1_conv1
I0525 16:18:44.881050  5268 net.cpp:122] Setting up layer_128_1_conv1
I0525 16:18:44.881074  5268 net.cpp:129] Top shape: 50 128 28 28 (5017600)
I0525 16:18:44.881080  5268 net.cpp:137] Memory required for data: 1756160600
I0525 16:18:44.881091  5268 layer_factory.hpp:77] Creating layer layer_128_1_bn2
I0525 16:18:44.881104  5268 net.cpp:84] Creating Layer layer_128_1_bn2
I0525 16:18:44.881114  5268 net.cpp:406] layer_128_1_bn2 <- layer_128_1_conv1
I0525 16:18:44.881124  5268 net.cpp:367] layer_128_1_bn2 -> layer_128_1_conv1 (in-place)
I0525 16:18:44.881314  5268 net.cpp:122] Setting up layer_128_1_bn2
I0525 16:18:44.881326  5268 net.cpp:129] Top shape: 50 128 28 28 (5017600)
I0525 16:18:44.881333  5268 net.cpp:137] Memory required for data: 1776231000
I0525 16:18:44.881347  5268 layer_factory.hpp:77] Creating layer layer_128_1_scale2
I0525 16:18:44.881366  5268 net.cpp:84] Creating Layer layer_128_1_scale2
I0525 16:18:44.881372  5268 net.cpp:406] layer_128_1_scale2 <- layer_128_1_conv1
I0525 16:18:44.881383  5268 net.cpp:367] layer_128_1_scale2 -> layer_128_1_conv1 (in-place)
I0525 16:18:44.881440  5268 layer_factory.hpp:77] Creating layer layer_128_1_scale2
I0525 16:18:44.881553  5268 net.cpp:122] Setting up layer_128_1_scale2
I0525 16:18:44.881566  5268 net.cpp:129] Top shape: 50 128 28 28 (5017600)
I0525 16:18:44.881572  5268 net.cpp:137] Memory required for data: 1796301400
I0525 16:18:44.881583  5268 layer_factory.hpp:77] Creating layer layer_128_1_relu2
I0525 16:18:44.881594  5268 net.cpp:84] Creating Layer layer_128_1_relu2
I0525 16:18:44.881603  5268 net.cpp:406] layer_128_1_relu2 <- layer_128_1_conv1
I0525 16:18:44.881613  5268 net.cpp:367] layer_128_1_relu2 -> layer_128_1_conv1 (in-place)
I0525 16:18:44.881767  5268 net.cpp:122] Setting up layer_128_1_relu2
I0525 16:18:44.881778  5268 net.cpp:129] Top shape: 50 128 28 28 (5017600)
I0525 16:18:44.881784  5268 net.cpp:137] Memory required for data: 1816371800
I0525 16:18:44.881808  5268 layer_factory.hpp:77] Creating layer layer_128_1_conv2
I0525 16:18:44.881824  5268 net.cpp:84] Creating Layer layer_128_1_conv2
I0525 16:18:44.881832  5268 net.cpp:406] layer_128_1_conv2 <- layer_128_1_conv1
I0525 16:18:44.881844  5268 net.cpp:380] layer_128_1_conv2 -> layer_128_1_conv2
I0525 16:18:44.887645  5268 net.cpp:122] Setting up layer_128_1_conv2
I0525 16:18:44.887661  5268 net.cpp:129] Top shape: 50 128 28 28 (5017600)
I0525 16:18:44.887668  5268 net.cpp:137] Memory required for data: 1836442200
I0525 16:18:44.887678  5268 layer_factory.hpp:77] Creating layer layer_128_1_conv_expand
I0525 16:18:44.887704  5268 net.cpp:84] Creating Layer layer_128_1_conv_expand
I0525 16:18:44.887712  5268 net.cpp:406] layer_128_1_conv_expand <- layer_128_1_bn1_layer_128_1_relu1_0_split_1
I0525 16:18:44.887728  5268 net.cpp:380] layer_128_1_conv_expand -> layer_128_1_conv_expand
I0525 16:18:44.893718  5268 net.cpp:122] Setting up layer_128_1_conv_expand
I0525 16:18:44.893743  5268 net.cpp:129] Top shape: 50 128 28 28 (5017600)
I0525 16:18:44.893750  5268 net.cpp:137] Memory required for data: 1856512600
I0525 16:18:44.893761  5268 layer_factory.hpp:77] Creating layer layer_128_1_sum
I0525 16:18:44.893775  5268 net.cpp:84] Creating Layer layer_128_1_sum
I0525 16:18:44.893784  5268 net.cpp:406] layer_128_1_sum <- layer_128_1_conv_expand
I0525 16:18:44.893795  5268 net.cpp:406] layer_128_1_sum <- layer_128_1_conv2
I0525 16:18:44.893806  5268 net.cpp:380] layer_128_1_sum -> layer_128_1_sum
I0525 16:18:44.893847  5268 net.cpp:122] Setting up layer_128_1_sum
I0525 16:18:44.893858  5268 net.cpp:129] Top shape: 50 128 28 28 (5017600)
I0525 16:18:44.893864  5268 net.cpp:137] Memory required for data: 1876583000
I0525 16:18:44.893872  5268 layer_factory.hpp:77] Creating layer layer_128_1_sum_layer_128_1_sum_0_split
I0525 16:18:44.893882  5268 net.cpp:84] Creating Layer layer_128_1_sum_layer_128_1_sum_0_split
I0525 16:18:44.893890  5268 net.cpp:406] layer_128_1_sum_layer_128_1_sum_0_split <- layer_128_1_sum
I0525 16:18:44.893903  5268 net.cpp:380] layer_128_1_sum_layer_128_1_sum_0_split -> layer_128_1_sum_layer_128_1_sum_0_split_0
I0525 16:18:44.893914  5268 net.cpp:380] layer_128_1_sum_layer_128_1_sum_0_split -> layer_128_1_sum_layer_128_1_sum_0_split_1
I0525 16:18:44.893962  5268 net.cpp:122] Setting up layer_128_1_sum_layer_128_1_sum_0_split
I0525 16:18:44.893973  5268 net.cpp:129] Top shape: 50 128 28 28 (5017600)
I0525 16:18:44.893981  5268 net.cpp:129] Top shape: 50 128 28 28 (5017600)
I0525 16:18:44.893988  5268 net.cpp:137] Memory required for data: 1916723800
I0525 16:18:44.893996  5268 layer_factory.hpp:77] Creating layer layer_128_2_bn1
I0525 16:18:44.894011  5268 net.cpp:84] Creating Layer layer_128_2_bn1
I0525 16:18:44.894017  5268 net.cpp:406] layer_128_2_bn1 <- layer_128_1_sum_layer_128_1_sum_0_split_0
I0525 16:18:44.894027  5268 net.cpp:380] layer_128_2_bn1 -> layer_128_2_bn1
I0525 16:18:44.894229  5268 net.cpp:122] Setting up layer_128_2_bn1
I0525 16:18:44.894242  5268 net.cpp:129] Top shape: 50 128 28 28 (5017600)
I0525 16:18:44.894248  5268 net.cpp:137] Memory required for data: 1936794200
I0525 16:18:44.894263  5268 layer_factory.hpp:77] Creating layer layer_128_2_scale1
I0525 16:18:44.894275  5268 net.cpp:84] Creating Layer layer_128_2_scale1
I0525 16:18:44.894284  5268 net.cpp:406] layer_128_2_scale1 <- layer_128_2_bn1
I0525 16:18:44.894294  5268 net.cpp:367] layer_128_2_scale1 -> layer_128_2_bn1 (in-place)
I0525 16:18:44.894352  5268 layer_factory.hpp:77] Creating layer layer_128_2_scale1
I0525 16:18:44.894475  5268 net.cpp:122] Setting up layer_128_2_scale1
I0525 16:18:44.894487  5268 net.cpp:129] Top shape: 50 128 28 28 (5017600)
I0525 16:18:44.894493  5268 net.cpp:137] Memory required for data: 1956864600
I0525 16:18:44.894505  5268 layer_factory.hpp:77] Creating layer layer_128_2_relu1
I0525 16:18:44.894516  5268 net.cpp:84] Creating Layer layer_128_2_relu1
I0525 16:18:44.894523  5268 net.cpp:406] layer_128_2_relu1 <- layer_128_2_bn1
I0525 16:18:44.894533  5268 net.cpp:367] layer_128_2_relu1 -> layer_128_2_bn1 (in-place)
I0525 16:18:44.894712  5268 net.cpp:122] Setting up layer_128_2_relu1
I0525 16:18:44.894724  5268 net.cpp:129] Top shape: 50 128 28 28 (5017600)
I0525 16:18:44.894731  5268 net.cpp:137] Memory required for data: 1976935000
I0525 16:18:44.894737  5268 layer_factory.hpp:77] Creating layer layer_128_2_conv1
I0525 16:18:44.894754  5268 net.cpp:84] Creating Layer layer_128_2_conv1
I0525 16:18:44.894762  5268 net.cpp:406] layer_128_2_conv1 <- layer_128_2_bn1
I0525 16:18:44.894774  5268 net.cpp:380] layer_128_2_conv1 -> layer_128_2_conv1
I0525 16:18:44.898154  5268 net.cpp:122] Setting up layer_128_2_conv1
I0525 16:18:44.898182  5268 net.cpp:129] Top shape: 50 128 28 28 (5017600)
I0525 16:18:44.898190  5268 net.cpp:137] Memory required for data: 1997005400
I0525 16:18:44.898203  5268 layer_factory.hpp:77] Creating layer layer_128_2_bn2
I0525 16:18:44.898218  5268 net.cpp:84] Creating Layer layer_128_2_bn2
I0525 16:18:44.898227  5268 net.cpp:406] layer_128_2_bn2 <- layer_128_2_conv1
I0525 16:18:44.898243  5268 net.cpp:367] layer_128_2_bn2 -> layer_128_2_conv1 (in-place)
I0525 16:18:44.898447  5268 net.cpp:122] Setting up layer_128_2_bn2
I0525 16:18:44.898458  5268 net.cpp:129] Top shape: 50 128 28 28 (5017600)
I0525 16:18:44.898464  5268 net.cpp:137] Memory required for data: 2017075800
I0525 16:18:44.898478  5268 layer_factory.hpp:77] Creating layer layer_128_2_scale2
I0525 16:18:44.898490  5268 net.cpp:84] Creating Layer layer_128_2_scale2
I0525 16:18:44.898499  5268 net.cpp:406] layer_128_2_scale2 <- layer_128_2_conv1
I0525 16:18:44.898509  5268 net.cpp:367] layer_128_2_scale2 -> layer_128_2_conv1 (in-place)
I0525 16:18:44.898566  5268 layer_factory.hpp:77] Creating layer layer_128_2_scale2
I0525 16:18:44.898686  5268 net.cpp:122] Setting up layer_128_2_scale2
I0525 16:18:44.898699  5268 net.cpp:129] Top shape: 50 128 28 28 (5017600)
I0525 16:18:44.898705  5268 net.cpp:137] Memory required for data: 2037146200
I0525 16:18:44.898715  5268 layer_factory.hpp:77] Creating layer layer_128_2_relu2
I0525 16:18:44.898730  5268 net.cpp:84] Creating Layer layer_128_2_relu2
I0525 16:18:44.898736  5268 net.cpp:406] layer_128_2_relu2 <- layer_128_2_conv1
I0525 16:18:44.898746  5268 net.cpp:367] layer_128_2_relu2 -> layer_128_2_conv1 (in-place)
I0525 16:18:44.899469  5268 net.cpp:122] Setting up layer_128_2_relu2
I0525 16:18:44.899487  5268 net.cpp:129] Top shape: 50 128 28 28 (5017600)
I0525 16:18:44.899494  5268 net.cpp:137] Memory required for data: 2057216600
I0525 16:18:44.899502  5268 layer_factory.hpp:77] Creating layer layer_128_2_conv2
I0525 16:18:44.899519  5268 net.cpp:84] Creating Layer layer_128_2_conv2
I0525 16:18:44.899528  5268 net.cpp:406] layer_128_2_conv2 <- layer_128_2_conv1
I0525 16:18:44.899541  5268 net.cpp:380] layer_128_2_conv2 -> layer_128_2_conv2
I0525 16:18:44.902436  5268 net.cpp:122] Setting up layer_128_2_conv2
I0525 16:18:44.902462  5268 net.cpp:129] Top shape: 50 128 28 28 (5017600)
I0525 16:18:44.902469  5268 net.cpp:137] Memory required for data: 2077287000
I0525 16:18:44.902482  5268 layer_factory.hpp:77] Creating layer layer_128_2_sum
I0525 16:18:44.902494  5268 net.cpp:84] Creating Layer layer_128_2_sum
I0525 16:18:44.902504  5268 net.cpp:406] layer_128_2_sum <- layer_128_2_conv2
I0525 16:18:44.902515  5268 net.cpp:406] layer_128_2_sum <- layer_128_1_sum_layer_128_1_sum_0_split_1
I0525 16:18:44.902530  5268 net.cpp:380] layer_128_2_sum -> layer_128_2_sum
I0525 16:18:44.902571  5268 net.cpp:122] Setting up layer_128_2_sum
I0525 16:18:44.902581  5268 net.cpp:129] Top shape: 50 128 28 28 (5017600)
I0525 16:18:44.902587  5268 net.cpp:137] Memory required for data: 2097357400
I0525 16:18:44.902595  5268 layer_factory.hpp:77] Creating layer layer_256_1_bn1
I0525 16:18:44.902609  5268 net.cpp:84] Creating Layer layer_256_1_bn1
I0525 16:18:44.902616  5268 net.cpp:406] layer_256_1_bn1 <- layer_128_2_sum
I0525 16:18:44.902628  5268 net.cpp:380] layer_256_1_bn1 -> layer_256_1_bn1
I0525 16:18:44.902842  5268 net.cpp:122] Setting up layer_256_1_bn1
I0525 16:18:44.902853  5268 net.cpp:129] Top shape: 50 128 28 28 (5017600)
I0525 16:18:44.902870  5268 net.cpp:137] Memory required for data: 2117427800
I0525 16:18:44.902887  5268 layer_factory.hpp:77] Creating layer layer_256_1_scale1
I0525 16:18:44.902899  5268 net.cpp:84] Creating Layer layer_256_1_scale1
I0525 16:18:44.902907  5268 net.cpp:406] layer_256_1_scale1 <- layer_256_1_bn1
I0525 16:18:44.902917  5268 net.cpp:367] layer_256_1_scale1 -> layer_256_1_bn1 (in-place)
I0525 16:18:44.902977  5268 layer_factory.hpp:77] Creating layer layer_256_1_scale1
I0525 16:18:44.903098  5268 net.cpp:122] Setting up layer_256_1_scale1
I0525 16:18:44.903110  5268 net.cpp:129] Top shape: 50 128 28 28 (5017600)
I0525 16:18:44.903115  5268 net.cpp:137] Memory required for data: 2137498200
I0525 16:18:44.903127  5268 layer_factory.hpp:77] Creating layer layer_256_1_relu1
I0525 16:18:44.903138  5268 net.cpp:84] Creating Layer layer_256_1_relu1
I0525 16:18:44.903147  5268 net.cpp:406] layer_256_1_relu1 <- layer_256_1_bn1
I0525 16:18:44.903159  5268 net.cpp:367] layer_256_1_relu1 -> layer_256_1_bn1 (in-place)
I0525 16:18:44.903847  5268 net.cpp:122] Setting up layer_256_1_relu1
I0525 16:18:44.903861  5268 net.cpp:129] Top shape: 50 128 28 28 (5017600)
I0525 16:18:44.903867  5268 net.cpp:137] Memory required for data: 2157568600
I0525 16:18:44.903873  5268 layer_factory.hpp:77] Creating layer layer_256_1_bn1_layer_256_1_relu1_0_split
I0525 16:18:44.903889  5268 net.cpp:84] Creating Layer layer_256_1_bn1_layer_256_1_relu1_0_split
I0525 16:18:44.903898  5268 net.cpp:406] layer_256_1_bn1_layer_256_1_relu1_0_split <- layer_256_1_bn1
I0525 16:18:44.903909  5268 net.cpp:380] layer_256_1_bn1_layer_256_1_relu1_0_split -> layer_256_1_bn1_layer_256_1_relu1_0_split_0
I0525 16:18:44.903931  5268 net.cpp:380] layer_256_1_bn1_layer_256_1_relu1_0_split -> layer_256_1_bn1_layer_256_1_relu1_0_split_1
I0525 16:18:44.903995  5268 net.cpp:122] Setting up layer_256_1_bn1_layer_256_1_relu1_0_split
I0525 16:18:44.904006  5268 net.cpp:129] Top shape: 50 128 28 28 (5017600)
I0525 16:18:44.904016  5268 net.cpp:129] Top shape: 50 128 28 28 (5017600)
I0525 16:18:44.904023  5268 net.cpp:137] Memory required for data: 2197709400
I0525 16:18:44.904031  5268 layer_factory.hpp:77] Creating layer layer_256_1_conv1
I0525 16:18:44.904050  5268 net.cpp:84] Creating Layer layer_256_1_conv1
I0525 16:18:44.904057  5268 net.cpp:406] layer_256_1_conv1 <- layer_256_1_bn1_layer_256_1_relu1_0_split_0
I0525 16:18:44.904068  5268 net.cpp:380] layer_256_1_conv1 -> layer_256_1_conv1
I0525 16:18:44.910506  5268 net.cpp:122] Setting up layer_256_1_conv1
I0525 16:18:44.910537  5268 net.cpp:129] Top shape: 50 256 14 14 (2508800)
I0525 16:18:44.910545  5268 net.cpp:137] Memory required for data: 2207744600
I0525 16:18:44.910558  5268 layer_factory.hpp:77] Creating layer layer_256_1_bn2
I0525 16:18:44.910574  5268 net.cpp:84] Creating Layer layer_256_1_bn2
I0525 16:18:44.910584  5268 net.cpp:406] layer_256_1_bn2 <- layer_256_1_conv1
I0525 16:18:44.910601  5268 net.cpp:367] layer_256_1_bn2 -> layer_256_1_conv1 (in-place)
I0525 16:18:44.910814  5268 net.cpp:122] Setting up layer_256_1_bn2
I0525 16:18:44.910826  5268 net.cpp:129] Top shape: 50 256 14 14 (2508800)
I0525 16:18:44.910832  5268 net.cpp:137] Memory required for data: 2217779800
I0525 16:18:44.910857  5268 layer_factory.hpp:77] Creating layer layer_256_1_scale2
I0525 16:18:44.910872  5268 net.cpp:84] Creating Layer layer_256_1_scale2
I0525 16:18:44.910881  5268 net.cpp:406] layer_256_1_scale2 <- layer_256_1_conv1
I0525 16:18:44.910890  5268 net.cpp:367] layer_256_1_scale2 -> layer_256_1_conv1 (in-place)
I0525 16:18:44.910953  5268 layer_factory.hpp:77] Creating layer layer_256_1_scale2
I0525 16:18:44.911077  5268 net.cpp:122] Setting up layer_256_1_scale2
I0525 16:18:44.911089  5268 net.cpp:129] Top shape: 50 256 14 14 (2508800)
I0525 16:18:44.911095  5268 net.cpp:137] Memory required for data: 2227815000
I0525 16:18:44.911108  5268 layer_factory.hpp:77] Creating layer layer_256_1_relu2
I0525 16:18:44.911118  5268 net.cpp:84] Creating Layer layer_256_1_relu2
I0525 16:18:44.911142  5268 net.cpp:406] layer_256_1_relu2 <- layer_256_1_conv1
I0525 16:18:44.911155  5268 net.cpp:367] layer_256_1_relu2 -> layer_256_1_conv1 (in-place)
I0525 16:18:44.911319  5268 net.cpp:122] Setting up layer_256_1_relu2
I0525 16:18:44.911332  5268 net.cpp:129] Top shape: 50 256 14 14 (2508800)
I0525 16:18:44.911339  5268 net.cpp:137] Memory required for data: 2237850200
I0525 16:18:44.911345  5268 layer_factory.hpp:77] Creating layer layer_256_1_conv2
I0525 16:18:44.911365  5268 net.cpp:84] Creating Layer layer_256_1_conv2
I0525 16:18:44.911371  5268 net.cpp:406] layer_256_1_conv2 <- layer_256_1_conv1
I0525 16:18:44.911382  5268 net.cpp:380] layer_256_1_conv2 -> layer_256_1_conv2
I0525 16:18:44.920696  5268 net.cpp:122] Setting up layer_256_1_conv2
I0525 16:18:44.920728  5268 net.cpp:129] Top shape: 50 256 14 14 (2508800)
I0525 16:18:44.920735  5268 net.cpp:137] Memory required for data: 2247885400
I0525 16:18:44.920747  5268 layer_factory.hpp:77] Creating layer layer_256_1_conv_expand
I0525 16:18:44.920771  5268 net.cpp:84] Creating Layer layer_256_1_conv_expand
I0525 16:18:44.920781  5268 net.cpp:406] layer_256_1_conv_expand <- layer_256_1_bn1_layer_256_1_relu1_0_split_1
I0525 16:18:44.920797  5268 net.cpp:380] layer_256_1_conv_expand -> layer_256_1_conv_expand
I0525 16:18:44.923295  5268 net.cpp:122] Setting up layer_256_1_conv_expand
I0525 16:18:44.923324  5268 net.cpp:129] Top shape: 50 256 14 14 (2508800)
I0525 16:18:44.923331  5268 net.cpp:137] Memory required for data: 2257920600
I0525 16:18:44.923342  5268 layer_factory.hpp:77] Creating layer layer_256_1_sum
I0525 16:18:44.923357  5268 net.cpp:84] Creating Layer layer_256_1_sum
I0525 16:18:44.923365  5268 net.cpp:406] layer_256_1_sum <- layer_256_1_conv_expand
I0525 16:18:44.923377  5268 net.cpp:406] layer_256_1_sum <- layer_256_1_conv2
I0525 16:18:44.923390  5268 net.cpp:380] layer_256_1_sum -> layer_256_1_sum
I0525 16:18:44.923435  5268 net.cpp:122] Setting up layer_256_1_sum
I0525 16:18:44.923454  5268 net.cpp:129] Top shape: 50 256 14 14 (2508800)
I0525 16:18:44.923460  5268 net.cpp:137] Memory required for data: 2267955800
I0525 16:18:44.923463  5268 layer_factory.hpp:77] Creating layer layer_256_1_sum_layer_256_1_sum_0_split
I0525 16:18:44.923470  5268 net.cpp:84] Creating Layer layer_256_1_sum_layer_256_1_sum_0_split
I0525 16:18:44.923473  5268 net.cpp:406] layer_256_1_sum_layer_256_1_sum_0_split <- layer_256_1_sum
I0525 16:18:44.923480  5268 net.cpp:380] layer_256_1_sum_layer_256_1_sum_0_split -> layer_256_1_sum_layer_256_1_sum_0_split_0
I0525 16:18:44.923491  5268 net.cpp:380] layer_256_1_sum_layer_256_1_sum_0_split -> layer_256_1_sum_layer_256_1_sum_0_split_1
I0525 16:18:44.923533  5268 net.cpp:122] Setting up layer_256_1_sum_layer_256_1_sum_0_split
I0525 16:18:44.923547  5268 net.cpp:129] Top shape: 50 256 14 14 (2508800)
I0525 16:18:44.923554  5268 net.cpp:129] Top shape: 50 256 14 14 (2508800)
I0525 16:18:44.923559  5268 net.cpp:137] Memory required for data: 2288026200
I0525 16:18:44.923565  5268 layer_factory.hpp:77] Creating layer layer_256_2_bn1
I0525 16:18:44.923578  5268 net.cpp:84] Creating Layer layer_256_2_bn1
I0525 16:18:44.923585  5268 net.cpp:406] layer_256_2_bn1 <- layer_256_1_sum_layer_256_1_sum_0_split_0
I0525 16:18:44.923596  5268 net.cpp:380] layer_256_2_bn1 -> layer_256_2_bn1
I0525 16:18:44.923812  5268 net.cpp:122] Setting up layer_256_2_bn1
I0525 16:18:44.923821  5268 net.cpp:129] Top shape: 50 256 14 14 (2508800)
I0525 16:18:44.923825  5268 net.cpp:137] Memory required for data: 2298061400
I0525 16:18:44.923833  5268 layer_factory.hpp:77] Creating layer layer_256_2_scale1
I0525 16:18:44.923846  5268 net.cpp:84] Creating Layer layer_256_2_scale1
I0525 16:18:44.923851  5268 net.cpp:406] layer_256_2_scale1 <- layer_256_2_bn1
I0525 16:18:44.923856  5268 net.cpp:367] layer_256_2_scale1 -> layer_256_2_bn1 (in-place)
I0525 16:18:44.923908  5268 layer_factory.hpp:77] Creating layer layer_256_2_scale1
I0525 16:18:44.924043  5268 net.cpp:122] Setting up layer_256_2_scale1
I0525 16:18:44.924054  5268 net.cpp:129] Top shape: 50 256 14 14 (2508800)
I0525 16:18:44.924068  5268 net.cpp:137] Memory required for data: 2308096600
I0525 16:18:44.924075  5268 layer_factory.hpp:77] Creating layer layer_256_2_relu1
I0525 16:18:44.924082  5268 net.cpp:84] Creating Layer layer_256_2_relu1
I0525 16:18:44.924088  5268 net.cpp:406] layer_256_2_relu1 <- layer_256_2_bn1
I0525 16:18:44.924093  5268 net.cpp:367] layer_256_2_relu1 -> layer_256_2_bn1 (in-place)
I0525 16:18:44.924258  5268 net.cpp:122] Setting up layer_256_2_relu1
I0525 16:18:44.924274  5268 net.cpp:129] Top shape: 50 256 14 14 (2508800)
I0525 16:18:44.924280  5268 net.cpp:137] Memory required for data: 2318131800
I0525 16:18:44.924285  5268 layer_factory.hpp:77] Creating layer layer_256_2_conv1
I0525 16:18:44.924301  5268 net.cpp:84] Creating Layer layer_256_2_conv1
I0525 16:18:44.924314  5268 net.cpp:406] layer_256_2_conv1 <- layer_256_2_bn1
I0525 16:18:44.924324  5268 net.cpp:380] layer_256_2_conv1 -> layer_256_2_conv1
I0525 16:18:44.933076  5268 net.cpp:122] Setting up layer_256_2_conv1
I0525 16:18:44.933106  5268 net.cpp:129] Top shape: 50 256 14 14 (2508800)
I0525 16:18:44.933110  5268 net.cpp:137] Memory required for data: 2328167000
I0525 16:18:44.933126  5268 layer_factory.hpp:77] Creating layer layer_256_2_bn2
I0525 16:18:44.933138  5268 net.cpp:84] Creating Layer layer_256_2_bn2
I0525 16:18:44.933145  5268 net.cpp:406] layer_256_2_bn2 <- layer_256_2_conv1
I0525 16:18:44.933152  5268 net.cpp:367] layer_256_2_bn2 -> layer_256_2_conv1 (in-place)
I0525 16:18:44.933358  5268 net.cpp:122] Setting up layer_256_2_bn2
I0525 16:18:44.933368  5268 net.cpp:129] Top shape: 50 256 14 14 (2508800)
I0525 16:18:44.933372  5268 net.cpp:137] Memory required for data: 2338202200
I0525 16:18:44.933379  5268 layer_factory.hpp:77] Creating layer layer_256_2_scale2
I0525 16:18:44.933401  5268 net.cpp:84] Creating Layer layer_256_2_scale2
I0525 16:18:44.933405  5268 net.cpp:406] layer_256_2_scale2 <- layer_256_2_conv1
I0525 16:18:44.933411  5268 net.cpp:367] layer_256_2_scale2 -> layer_256_2_conv1 (in-place)
I0525 16:18:44.933461  5268 layer_factory.hpp:77] Creating layer layer_256_2_scale2
I0525 16:18:44.933575  5268 net.cpp:122] Setting up layer_256_2_scale2
I0525 16:18:44.933583  5268 net.cpp:129] Top shape: 50 256 14 14 (2508800)
I0525 16:18:44.933588  5268 net.cpp:137] Memory required for data: 2348237400
I0525 16:18:44.933593  5268 layer_factory.hpp:77] Creating layer layer_256_2_relu2
I0525 16:18:44.933601  5268 net.cpp:84] Creating Layer layer_256_2_relu2
I0525 16:18:44.933604  5268 net.cpp:406] layer_256_2_relu2 <- layer_256_2_conv1
I0525 16:18:44.933609  5268 net.cpp:367] layer_256_2_relu2 -> layer_256_2_conv1 (in-place)
I0525 16:18:44.933778  5268 net.cpp:122] Setting up layer_256_2_relu2
I0525 16:18:44.933787  5268 net.cpp:129] Top shape: 50 256 14 14 (2508800)
I0525 16:18:44.933790  5268 net.cpp:137] Memory required for data: 2358272600
I0525 16:18:44.933794  5268 layer_factory.hpp:77] Creating layer layer_256_2_conv2
I0525 16:18:44.933805  5268 net.cpp:84] Creating Layer layer_256_2_conv2
I0525 16:18:44.933809  5268 net.cpp:406] layer_256_2_conv2 <- layer_256_2_conv1
I0525 16:18:44.933816  5268 net.cpp:380] layer_256_2_conv2 -> layer_256_2_conv2
I0525 16:18:44.945900  5268 net.cpp:122] Setting up layer_256_2_conv2
I0525 16:18:44.945933  5268 net.cpp:129] Top shape: 50 256 14 14 (2508800)
I0525 16:18:44.945937  5268 net.cpp:137] Memory required for data: 2368307800
I0525 16:18:44.945947  5268 layer_factory.hpp:77] Creating layer layer_256_2_sum
I0525 16:18:44.945958  5268 net.cpp:84] Creating Layer layer_256_2_sum
I0525 16:18:44.945964  5268 net.cpp:406] layer_256_2_sum <- layer_256_2_conv2
I0525 16:18:44.945971  5268 net.cpp:406] layer_256_2_sum <- layer_256_1_sum_layer_256_1_sum_0_split_1
I0525 16:18:44.945979  5268 net.cpp:380] layer_256_2_sum -> layer_256_2_sum
I0525 16:18:44.946017  5268 net.cpp:122] Setting up layer_256_2_sum
I0525 16:18:44.946027  5268 net.cpp:129] Top shape: 50 256 14 14 (2508800)
I0525 16:18:44.946029  5268 net.cpp:137] Memory required for data: 2378343000
I0525 16:18:44.946048  5268 layer_factory.hpp:77] Creating layer layer_512_1_bn1
I0525 16:18:44.946054  5268 net.cpp:84] Creating Layer layer_512_1_bn1
I0525 16:18:44.946058  5268 net.cpp:406] layer_512_1_bn1 <- layer_256_2_sum
I0525 16:18:44.946064  5268 net.cpp:380] layer_512_1_bn1 -> layer_512_1_bn1
I0525 16:18:44.946280  5268 net.cpp:122] Setting up layer_512_1_bn1
I0525 16:18:44.946290  5268 net.cpp:129] Top shape: 50 256 14 14 (2508800)
I0525 16:18:44.946292  5268 net.cpp:137] Memory required for data: 2388378200
I0525 16:18:44.946300  5268 layer_factory.hpp:77] Creating layer layer_512_1_scale1
I0525 16:18:44.946310  5268 net.cpp:84] Creating Layer layer_512_1_scale1
I0525 16:18:44.946315  5268 net.cpp:406] layer_512_1_scale1 <- layer_512_1_bn1
I0525 16:18:44.946321  5268 net.cpp:367] layer_512_1_scale1 -> layer_512_1_bn1 (in-place)
I0525 16:18:44.946372  5268 layer_factory.hpp:77] Creating layer layer_512_1_scale1
I0525 16:18:44.946488  5268 net.cpp:122] Setting up layer_512_1_scale1
I0525 16:18:44.946498  5268 net.cpp:129] Top shape: 50 256 14 14 (2508800)
I0525 16:18:44.946501  5268 net.cpp:137] Memory required for data: 2398413400
I0525 16:18:44.946507  5268 layer_factory.hpp:77] Creating layer layer_512_1_relu1
I0525 16:18:44.946514  5268 net.cpp:84] Creating Layer layer_512_1_relu1
I0525 16:18:44.946518  5268 net.cpp:406] layer_512_1_relu1 <- layer_512_1_bn1
I0525 16:18:44.946526  5268 net.cpp:367] layer_512_1_relu1 -> layer_512_1_bn1 (in-place)
I0525 16:18:44.946694  5268 net.cpp:122] Setting up layer_512_1_relu1
I0525 16:18:44.946704  5268 net.cpp:129] Top shape: 50 256 14 14 (2508800)
I0525 16:18:44.946707  5268 net.cpp:137] Memory required for data: 2408448600
I0525 16:18:44.946712  5268 layer_factory.hpp:77] Creating layer layer_512_1_bn1_layer_512_1_relu1_0_split
I0525 16:18:44.946717  5268 net.cpp:84] Creating Layer layer_512_1_bn1_layer_512_1_relu1_0_split
I0525 16:18:44.946722  5268 net.cpp:406] layer_512_1_bn1_layer_512_1_relu1_0_split <- layer_512_1_bn1
I0525 16:18:44.946727  5268 net.cpp:380] layer_512_1_bn1_layer_512_1_relu1_0_split -> layer_512_1_bn1_layer_512_1_relu1_0_split_0
I0525 16:18:44.946733  5268 net.cpp:380] layer_512_1_bn1_layer_512_1_relu1_0_split -> layer_512_1_bn1_layer_512_1_relu1_0_split_1
I0525 16:18:44.946775  5268 net.cpp:122] Setting up layer_512_1_bn1_layer_512_1_relu1_0_split
I0525 16:18:44.946785  5268 net.cpp:129] Top shape: 50 256 14 14 (2508800)
I0525 16:18:44.946789  5268 net.cpp:129] Top shape: 50 256 14 14 (2508800)
I0525 16:18:44.946792  5268 net.cpp:137] Memory required for data: 2428519000
I0525 16:18:44.946795  5268 layer_factory.hpp:77] Creating layer layer_512_1_conv1
I0525 16:18:44.946806  5268 net.cpp:84] Creating Layer layer_512_1_conv1
I0525 16:18:44.946812  5268 net.cpp:406] layer_512_1_conv1 <- layer_512_1_bn1_layer_512_1_relu1_0_split_0
I0525 16:18:44.946818  5268 net.cpp:380] layer_512_1_conv1 -> layer_512_1_conv1
I0525 16:18:44.961457  5268 net.cpp:122] Setting up layer_512_1_conv1
I0525 16:18:44.961486  5268 net.cpp:129] Top shape: 50 512 7 7 (1254400)
I0525 16:18:44.961490  5268 net.cpp:137] Memory required for data: 2433536600
I0525 16:18:44.961499  5268 layer_factory.hpp:77] Creating layer layer_512_1_bn2
I0525 16:18:44.961511  5268 net.cpp:84] Creating Layer layer_512_1_bn2
I0525 16:18:44.961516  5268 net.cpp:406] layer_512_1_bn2 <- layer_512_1_conv1
I0525 16:18:44.961525  5268 net.cpp:367] layer_512_1_bn2 -> layer_512_1_conv1 (in-place)
I0525 16:18:44.961741  5268 net.cpp:122] Setting up layer_512_1_bn2
I0525 16:18:44.961750  5268 net.cpp:129] Top shape: 50 512 7 7 (1254400)
I0525 16:18:44.961753  5268 net.cpp:137] Memory required for data: 2438554200
I0525 16:18:44.961761  5268 layer_factory.hpp:77] Creating layer layer_512_1_scale2
I0525 16:18:44.961768  5268 net.cpp:84] Creating Layer layer_512_1_scale2
I0525 16:18:44.961771  5268 net.cpp:406] layer_512_1_scale2 <- layer_512_1_conv1
I0525 16:18:44.961776  5268 net.cpp:367] layer_512_1_scale2 -> layer_512_1_conv1 (in-place)
I0525 16:18:44.961822  5268 layer_factory.hpp:77] Creating layer layer_512_1_scale2
I0525 16:18:44.961957  5268 net.cpp:122] Setting up layer_512_1_scale2
I0525 16:18:44.961967  5268 net.cpp:129] Top shape: 50 512 7 7 (1254400)
I0525 16:18:44.961971  5268 net.cpp:137] Memory required for data: 2443571800
I0525 16:18:44.961977  5268 layer_factory.hpp:77] Creating layer layer_512_1_relu2
I0525 16:18:44.961982  5268 net.cpp:84] Creating Layer layer_512_1_relu2
I0525 16:18:44.961987  5268 net.cpp:406] layer_512_1_relu2 <- layer_512_1_conv1
I0525 16:18:44.961993  5268 net.cpp:367] layer_512_1_relu2 -> layer_512_1_conv1 (in-place)
I0525 16:18:44.962151  5268 net.cpp:122] Setting up layer_512_1_relu2
I0525 16:18:44.962162  5268 net.cpp:129] Top shape: 50 512 7 7 (1254400)
I0525 16:18:44.962165  5268 net.cpp:137] Memory required for data: 2448589400
I0525 16:18:44.962168  5268 layer_factory.hpp:77] Creating layer layer_512_1_conv2
I0525 16:18:44.962180  5268 net.cpp:84] Creating Layer layer_512_1_conv2
I0525 16:18:44.962184  5268 net.cpp:406] layer_512_1_conv2 <- layer_512_1_conv1
I0525 16:18:44.962190  5268 net.cpp:380] layer_512_1_conv2 -> layer_512_1_conv2
I0525 16:18:44.989799  5268 net.cpp:122] Setting up layer_512_1_conv2
I0525 16:18:44.989827  5268 net.cpp:129] Top shape: 50 512 7 7 (1254400)
I0525 16:18:44.989831  5268 net.cpp:137] Memory required for data: 2453607000
I0525 16:18:44.989840  5268 layer_factory.hpp:77] Creating layer layer_512_1_conv_expand
I0525 16:18:44.989856  5268 net.cpp:84] Creating Layer layer_512_1_conv_expand
I0525 16:18:44.989863  5268 net.cpp:406] layer_512_1_conv_expand <- layer_512_1_bn1_layer_512_1_relu1_0_split_1
I0525 16:18:44.989874  5268 net.cpp:380] layer_512_1_conv_expand -> layer_512_1_conv_expand
I0525 16:18:44.992470  5268 net.cpp:122] Setting up layer_512_1_conv_expand
I0525 16:18:44.992485  5268 net.cpp:129] Top shape: 50 512 7 7 (1254400)
I0525 16:18:44.992488  5268 net.cpp:137] Memory required for data: 2458624600
I0525 16:18:44.992494  5268 layer_factory.hpp:77] Creating layer layer_512_1_sum
I0525 16:18:44.992501  5268 net.cpp:84] Creating Layer layer_512_1_sum
I0525 16:18:44.992506  5268 net.cpp:406] layer_512_1_sum <- layer_512_1_conv_expand
I0525 16:18:44.992511  5268 net.cpp:406] layer_512_1_sum <- layer_512_1_conv2
I0525 16:18:44.992516  5268 net.cpp:380] layer_512_1_sum -> layer_512_1_sum
I0525 16:18:44.992547  5268 net.cpp:122] Setting up layer_512_1_sum
I0525 16:18:44.992555  5268 net.cpp:129] Top shape: 50 512 7 7 (1254400)
I0525 16:18:44.992559  5268 net.cpp:137] Memory required for data: 2463642200
I0525 16:18:44.992563  5268 layer_factory.hpp:77] Creating layer layer_512_1_sum_layer_512_1_sum_0_split
I0525 16:18:44.992569  5268 net.cpp:84] Creating Layer layer_512_1_sum_layer_512_1_sum_0_split
I0525 16:18:44.992573  5268 net.cpp:406] layer_512_1_sum_layer_512_1_sum_0_split <- layer_512_1_sum
I0525 16:18:44.992579  5268 net.cpp:380] layer_512_1_sum_layer_512_1_sum_0_split -> layer_512_1_sum_layer_512_1_sum_0_split_0
I0525 16:18:44.992588  5268 net.cpp:380] layer_512_1_sum_layer_512_1_sum_0_split -> layer_512_1_sum_layer_512_1_sum_0_split_1
I0525 16:18:44.992626  5268 net.cpp:122] Setting up layer_512_1_sum_layer_512_1_sum_0_split
I0525 16:18:44.992635  5268 net.cpp:129] Top shape: 50 512 7 7 (1254400)
I0525 16:18:44.992640  5268 net.cpp:129] Top shape: 50 512 7 7 (1254400)
I0525 16:18:44.992643  5268 net.cpp:137] Memory required for data: 2473677400
I0525 16:18:44.992646  5268 layer_factory.hpp:77] Creating layer layer_512_2_bn1
I0525 16:18:44.992652  5268 net.cpp:84] Creating Layer layer_512_2_bn1
I0525 16:18:44.992656  5268 net.cpp:406] layer_512_2_bn1 <- layer_512_1_sum_layer_512_1_sum_0_split_0
I0525 16:18:44.992662  5268 net.cpp:380] layer_512_2_bn1 -> layer_512_2_bn1
I0525 16:18:44.992873  5268 net.cpp:122] Setting up layer_512_2_bn1
I0525 16:18:44.992883  5268 net.cpp:129] Top shape: 50 512 7 7 (1254400)
I0525 16:18:44.992887  5268 net.cpp:137] Memory required for data: 2478695000
I0525 16:18:44.992893  5268 layer_factory.hpp:77] Creating layer layer_512_2_scale1
I0525 16:18:44.992902  5268 net.cpp:84] Creating Layer layer_512_2_scale1
I0525 16:18:44.992920  5268 net.cpp:406] layer_512_2_scale1 <- layer_512_2_bn1
I0525 16:18:44.992926  5268 net.cpp:367] layer_512_2_scale1 -> layer_512_2_bn1 (in-place)
I0525 16:18:44.992972  5268 layer_factory.hpp:77] Creating layer layer_512_2_scale1
I0525 16:18:44.993094  5268 net.cpp:122] Setting up layer_512_2_scale1
I0525 16:18:44.993103  5268 net.cpp:129] Top shape: 50 512 7 7 (1254400)
I0525 16:18:44.993108  5268 net.cpp:137] Memory required for data: 2483712600
I0525 16:18:44.993114  5268 layer_factory.hpp:77] Creating layer layer_512_2_relu1
I0525 16:18:44.993121  5268 net.cpp:84] Creating Layer layer_512_2_relu1
I0525 16:18:44.993125  5268 net.cpp:406] layer_512_2_relu1 <- layer_512_2_bn1
I0525 16:18:44.993132  5268 net.cpp:367] layer_512_2_relu1 -> layer_512_2_bn1 (in-place)
I0525 16:18:44.993805  5268 net.cpp:122] Setting up layer_512_2_relu1
I0525 16:18:44.993818  5268 net.cpp:129] Top shape: 50 512 7 7 (1254400)
I0525 16:18:44.993821  5268 net.cpp:137] Memory required for data: 2488730200
I0525 16:18:44.993825  5268 layer_factory.hpp:77] Creating layer layer_512_2_conv1
I0525 16:18:44.993834  5268 net.cpp:84] Creating Layer layer_512_2_conv1
I0525 16:18:44.993839  5268 net.cpp:406] layer_512_2_conv1 <- layer_512_2_bn1
I0525 16:18:44.993847  5268 net.cpp:380] layer_512_2_conv1 -> layer_512_2_conv1
I0525 16:18:45.021458  5268 net.cpp:122] Setting up layer_512_2_conv1
I0525 16:18:45.021487  5268 net.cpp:129] Top shape: 50 512 7 7 (1254400)
I0525 16:18:45.021492  5268 net.cpp:137] Memory required for data: 2493747800
I0525 16:18:45.021500  5268 layer_factory.hpp:77] Creating layer layer_512_2_bn2
I0525 16:18:45.021512  5268 net.cpp:84] Creating Layer layer_512_2_bn2
I0525 16:18:45.021519  5268 net.cpp:406] layer_512_2_bn2 <- layer_512_2_conv1
I0525 16:18:45.021528  5268 net.cpp:367] layer_512_2_bn2 -> layer_512_2_conv1 (in-place)
I0525 16:18:45.021744  5268 net.cpp:122] Setting up layer_512_2_bn2
I0525 16:18:45.021754  5268 net.cpp:129] Top shape: 50 512 7 7 (1254400)
I0525 16:18:45.021759  5268 net.cpp:137] Memory required for data: 2498765400
I0525 16:18:45.021766  5268 layer_factory.hpp:77] Creating layer layer_512_2_scale2
I0525 16:18:45.021775  5268 net.cpp:84] Creating Layer layer_512_2_scale2
I0525 16:18:45.021780  5268 net.cpp:406] layer_512_2_scale2 <- layer_512_2_conv1
I0525 16:18:45.021785  5268 net.cpp:367] layer_512_2_scale2 -> layer_512_2_conv1 (in-place)
I0525 16:18:45.021831  5268 layer_factory.hpp:77] Creating layer layer_512_2_scale2
I0525 16:18:45.021955  5268 net.cpp:122] Setting up layer_512_2_scale2
I0525 16:18:45.021963  5268 net.cpp:129] Top shape: 50 512 7 7 (1254400)
I0525 16:18:45.021967  5268 net.cpp:137] Memory required for data: 2503783000
I0525 16:18:45.021973  5268 layer_factory.hpp:77] Creating layer layer_512_2_relu2
I0525 16:18:45.021981  5268 net.cpp:84] Creating Layer layer_512_2_relu2
I0525 16:18:45.021986  5268 net.cpp:406] layer_512_2_relu2 <- layer_512_2_conv1
I0525 16:18:45.021992  5268 net.cpp:367] layer_512_2_relu2 -> layer_512_2_conv1 (in-place)
I0525 16:18:45.022817  5268 net.cpp:122] Setting up layer_512_2_relu2
I0525 16:18:45.022831  5268 net.cpp:129] Top shape: 50 512 7 7 (1254400)
I0525 16:18:45.022835  5268 net.cpp:137] Memory required for data: 2508800600
I0525 16:18:45.022838  5268 layer_factory.hpp:77] Creating layer layer_512_2_conv2
I0525 16:18:45.022850  5268 net.cpp:84] Creating Layer layer_512_2_conv2
I0525 16:18:45.022855  5268 net.cpp:406] layer_512_2_conv2 <- layer_512_2_conv1
I0525 16:18:45.022861  5268 net.cpp:380] layer_512_2_conv2 -> layer_512_2_conv2
I0525 16:18:45.050184  5268 net.cpp:122] Setting up layer_512_2_conv2
I0525 16:18:45.050215  5268 net.cpp:129] Top shape: 50 512 7 7 (1254400)
I0525 16:18:45.050220  5268 net.cpp:137] Memory required for data: 2513818200
I0525 16:18:45.050230  5268 layer_factory.hpp:77] Creating layer layer_512_2_sum
I0525 16:18:45.050251  5268 net.cpp:84] Creating Layer layer_512_2_sum
I0525 16:18:45.050257  5268 net.cpp:406] layer_512_2_sum <- layer_512_2_conv2
I0525 16:18:45.050264  5268 net.cpp:406] layer_512_2_sum <- layer_512_1_sum_layer_512_1_sum_0_split_1
I0525 16:18:45.050285  5268 net.cpp:380] layer_512_2_sum -> layer_512_2_sum
I0525 16:18:45.050321  5268 net.cpp:122] Setting up layer_512_2_sum
I0525 16:18:45.050329  5268 net.cpp:129] Top shape: 50 512 7 7 (1254400)
I0525 16:18:45.050343  5268 net.cpp:137] Memory required for data: 2518835800
I0525 16:18:45.050348  5268 layer_factory.hpp:77] Creating layer last_bn
I0525 16:18:45.050355  5268 net.cpp:84] Creating Layer last_bn
I0525 16:18:45.050360  5268 net.cpp:406] last_bn <- layer_512_2_sum
I0525 16:18:45.050366  5268 net.cpp:367] last_bn -> layer_512_2_sum (in-place)
I0525 16:18:45.050592  5268 net.cpp:122] Setting up last_bn
I0525 16:18:45.050601  5268 net.cpp:129] Top shape: 50 512 7 7 (1254400)
I0525 16:18:45.050604  5268 net.cpp:137] Memory required for data: 2523853400
I0525 16:18:45.050623  5268 layer_factory.hpp:77] Creating layer last_scale
I0525 16:18:45.050633  5268 net.cpp:84] Creating Layer last_scale
I0525 16:18:45.050638  5268 net.cpp:406] last_scale <- layer_512_2_sum
I0525 16:18:45.050643  5268 net.cpp:367] last_scale -> layer_512_2_sum (in-place)
I0525 16:18:45.050699  5268 layer_factory.hpp:77] Creating layer last_scale
I0525 16:18:45.050845  5268 net.cpp:122] Setting up last_scale
I0525 16:18:45.050854  5268 net.cpp:129] Top shape: 50 512 7 7 (1254400)
I0525 16:18:45.050858  5268 net.cpp:137] Memory required for data: 2528871000
I0525 16:18:45.050875  5268 layer_factory.hpp:77] Creating layer last_relu
I0525 16:18:45.050882  5268 net.cpp:84] Creating Layer last_relu
I0525 16:18:45.050887  5268 net.cpp:406] last_relu <- layer_512_2_sum
I0525 16:18:45.050895  5268 net.cpp:367] last_relu -> layer_512_2_sum (in-place)
I0525 16:18:45.051065  5268 net.cpp:122] Setting up last_relu
I0525 16:18:45.051075  5268 net.cpp:129] Top shape: 50 512 7 7 (1254400)
I0525 16:18:45.051079  5268 net.cpp:137] Memory required for data: 2533888600
I0525 16:18:45.051095  5268 layer_factory.hpp:77] Creating layer global_pool
I0525 16:18:45.051103  5268 net.cpp:84] Creating Layer global_pool
I0525 16:18:45.051108  5268 net.cpp:406] global_pool <- layer_512_2_sum
I0525 16:18:45.051113  5268 net.cpp:380] global_pool -> global_pool
I0525 16:18:45.051290  5268 net.cpp:122] Setting up global_pool
I0525 16:18:45.051300  5268 net.cpp:129] Top shape: 50 512 1 1 (25600)
I0525 16:18:45.051303  5268 net.cpp:137] Memory required for data: 2533991000
I0525 16:18:45.051307  5268 layer_factory.hpp:77] Creating layer score
I0525 16:18:45.051313  5268 net.cpp:84] Creating Layer score
I0525 16:18:45.051316  5268 net.cpp:406] score <- global_pool
I0525 16:18:45.051323  5268 net.cpp:380] score -> score
I0525 16:18:45.051458  5268 net.cpp:122] Setting up score
I0525 16:18:45.051466  5268 net.cpp:129] Top shape: 50 8 (400)
I0525 16:18:45.051471  5268 net.cpp:137] Memory required for data: 2533992600
I0525 16:18:45.051477  5268 layer_factory.hpp:77] Creating layer score_score_0_split
I0525 16:18:45.051483  5268 net.cpp:84] Creating Layer score_score_0_split
I0525 16:18:45.051489  5268 net.cpp:406] score_score_0_split <- score
I0525 16:18:45.051494  5268 net.cpp:380] score_score_0_split -> score_score_0_split_0
I0525 16:18:45.051501  5268 net.cpp:380] score_score_0_split -> score_score_0_split_1
I0525 16:18:45.051542  5268 net.cpp:122] Setting up score_score_0_split
I0525 16:18:45.051550  5268 net.cpp:129] Top shape: 50 8 (400)
I0525 16:18:45.051554  5268 net.cpp:129] Top shape: 50 8 (400)
I0525 16:18:45.051558  5268 net.cpp:137] Memory required for data: 2533995800
I0525 16:18:45.051560  5268 layer_factory.hpp:77] Creating layer loss
I0525 16:18:45.051565  5268 net.cpp:84] Creating Layer loss
I0525 16:18:45.051569  5268 net.cpp:406] loss <- score_score_0_split_0
I0525 16:18:45.051573  5268 net.cpp:406] loss <- label_data_1_split_0
I0525 16:18:45.051580  5268 net.cpp:380] loss -> loss
…
