…
I0522 09:08:06.607980 29237 net.cpp:51] Initializing net from parameters: 
name: "CaffeNet"
state {
  phase: TRAIN
  level: 0
  stage: ""
}
layer {
  name: "data"
  type: "Data"
  top: "data"
  top: "label"
  include {
    phase: TRAIN
  }
  transform_param {
    mirror: true
    crop_size: 227
    mean_file: "/home/k/PycharmProjects/AgeGenderDeepLearning-master/Folds/lmdb/Test_fold_is_4/mean.binaryproto"
  }
  data_param {
    source: "/home/k/PycharmProjects/AgeGenderDeepLearning-master/Folds/lmdb/Test_fold_is_4/age_train_lmdb"
    batch_size: 50
    backend: LMDB
  }
}
layer {
  name: "conv1"
  type: "Convolution"
  bottom: "data"
  top: "conv1"
  param {
    lr_mult: 1
    decay_mult: 1
  }
  param {
    lr_mult: 2
    decay_mult: 0
  }
  convolution_param {
    num_output: 96
    kernel_size: 7
    stride: 4
    weight_filler {
      type: "gaussian"
      std: 0.01
    }
    bias_filler {
      type: "constant"
      value: 0
    }
  }
}
layer {
  name: "relu1"
  type: "ReLU"
  bottom: "conv1"
  top: "conv1"
}
layer {
  name: "pool1"
  type: "Pooling"
  bottom: "conv1"
  top: "pool1"
  pooling_param {
    pool: MAX
    kernel_size: 3
    stride: 2
  }
}
layer {
  name: "norm1"
  type: "LRN"
  bottom: "pool1"
  top: "norm1"
  lrn_param {
    local_size: 5
    alpha: 0.0001
    beta: 0.75
  }
}
layer {
  name: "conv2"
  type: "Convolution"
  bottom: "norm1"
  top: "conv2"
  param {
    lr_mult: 1
    decay_mult: 1
  }
  param {
    lr_mult: 2
    decay_mult: 0
  }
  convolution_param {
    num_output: 256
    pad: 2
    kernel_size: 5
    weight_filler {
      type: "gaussian"
      std: 0.01
    }
    bias_filler {
      type: "constant"
      value: 1
    }
  }
}
layer {
  name: "relu2"
  type: "ReLU"
  bottom: "conv2"
  top: "conv2"
}
layer {
  name: "pool2"
  type: "Pooling"
  bottom: "conv2"
  top: "pool2"
  pooling_param {
    pool: MAX
    kernel_size: 3
    stride: 2
  }
}
layer {
  name: "norm2"
  type: "LRN"
  bottom: "pool2"
  top: "norm2"
  lrn_param {
    local_size: 5
    alpha: 0.0001
    beta: 0.75
  }
}
layer {
  name: "conv3"
  type: "Convolution"
  bottom: "norm2"
  top: "conv3"
  param {
    lr_mult: 1
    decay_mult: 1
  }
  param {
    lr_mult: 2
    decay_mult: 0
  }
  convolution_param {
    num_output: 384
    pad: 1
    kernel_size: 3
    weight_filler {
      type: "gaussian"
      std: 0.01
    }
    bias_filler {
      type: "constant"
      value: 0
    }
  }
}
layer {
  name: "relu3"
  type: "ReLU"
  bottom: "conv3"
  top: "conv3"
}
layer {
  name: "pool5"
  type: "Pooling"
  bottom: "conv3"
  top: "pool5"
  pooling_param {
    pool: MAX
    kernel_size: 3
    stride: 2
  }
}
layer {
  name: "fc6"
  type: "InnerProduct"
  bottom: "pool5"
  top: "fc6"
  param {
    lr_mult: 1
    decay_mult: 1
  }
  param {
    lr_mult: 2
    decay_mult: 0
  }
  inner_product_param {
    num_output: 512
    weight_filler {
      type: "gaussian"
      std: 0.005
    }
    bias_filler {
      type: "constant"
      value: 1
    }
  }
}
layer {
  name: "relu6"
  type: "ReLU"
  bottom: "fc6"
  top: "fc6"
}
layer {
  name: "drop6"
  type: "Dropout"
  bottom: "fc6"
  top: "fc6"
  dropout_param {
    dropout_ratio: 0.5
  }
}
layer {
  name: "fc7"
  type: "InnerProduct"
  bottom: "fc6"
  top: "fc7"
  param {
    lr_mult: 1
    decay_mult: 1
  }
  param {
    lr_mult: 2
    decay_mult: 0
  }
  inner_product_param {
    num_output: 512
    weight_filler {
      type: "gaussian"
      std: 0.005
    }
    bias_filler {
      type: "constant"
      value: 1
    }
  }
}
layer {
  name: "relu7"
  type: "ReLU"
  bottom: "fc7"
  top: "fc7"
}
layer {
  name: "drop7"
  type: "Dropout"
  bottom: "fc7"
  top: "fc7"
  dropout_param {
    dropout_ratio: 0.5
  }
}
layer {
  name: "fc8"
  type: "InnerProduct"
  bottom: "fc7"
  top: "fc8"
  param {
    lr_mult: 10
    decay_mult: 1
  }
  param {
    lr_mult: 20
    decay_mult: 0
  }
  inner_product_param {
    num_output: 8
    weight_filler {
      type: "gaussian"
      std: 0.01
    }
    bias_filler {
      type: "constant"
      value: 0
    }
  }
}
layer {
  name: "loss"
  type: "SoftmaxWithLoss"
  bottom: "fc8"
  bottom: "label"
  top: "loss"
}
I0522 09:08:06.608081 29237 layer_factory.hpp:77] Creating layer data
I0522 09:08:06.651947 29237 db_lmdb.cpp:35] Opened lmdb /home/k/PycharmProjects/AgeGenderDeepLearning-master/Folds/lmdb/Test_fold_is_4/age_train_lmdb
I0522 09:08:06.671777 29237 net.cpp:84] Creating Layer data
I0522 09:08:06.671816 29237 net.cpp:380] data -> data
I0522 09:08:06.671847 29237 net.cpp:380] data -> label
I0522 09:08:06.671869 29237 data_transformer.cpp:25] Loading mean file from: /home/k/PycharmProjects/AgeGenderDeepLearning-master/Folds/lmdb/Test_fold_is_4/mean.binaryproto
I0522 09:08:06.695240 29237 data_layer.cpp:45] output data size: 50,3,227,227
I0522 09:08:06.796574 29237 net.cpp:122] Setting up data
I0522 09:08:06.796617 29237 net.cpp:129] Top shape: 50 3 227 227 (7729350)
I0522 09:08:06.796627 29237 net.cpp:129] Top shape: 50 (50)
I0522 09:08:06.796633 29237 net.cpp:137] Memory required for data: 30917600
I0522 09:08:06.796646 29237 layer_factory.hpp:77] Creating layer conv1
I0522 09:08:06.796674 29237 net.cpp:84] Creating Layer conv1
I0522 09:08:06.796684 29237 net.cpp:406] conv1 <- data
I0522 09:08:06.796715 29237 net.cpp:380] conv1 -> conv1
I0522 09:08:07.040863 29237 net.cpp:122] Setting up conv1
I0522 09:08:07.040895 29237 net.cpp:129] Top shape: 50 96 56 56 (15052800)
I0522 09:08:07.040900 29237 net.cpp:137] Memory required for data: 91128800
I0522 09:08:07.040923 29237 layer_factory.hpp:77] Creating layer relu1
I0522 09:08:07.040935 29237 net.cpp:84] Creating Layer relu1
I0522 09:08:07.040951 29237 net.cpp:406] relu1 <- conv1
I0522 09:08:07.040957 29237 net.cpp:367] relu1 -> conv1 (in-place)
I0522 09:08:07.041124 29237 net.cpp:122] Setting up relu1
I0522 09:08:07.041134 29237 net.cpp:129] Top shape: 50 96 56 56 (15052800)
I0522 09:08:07.041137 29237 net.cpp:137] Memory required for data: 151340000
I0522 09:08:07.041141 29237 layer_factory.hpp:77] Creating layer pool1
I0522 09:08:07.041147 29237 net.cpp:84] Creating Layer pool1
I0522 09:08:07.041151 29237 net.cpp:406] pool1 <- conv1
I0522 09:08:07.041155 29237 net.cpp:380] pool1 -> pool1
I0522 09:08:07.041208 29237 net.cpp:122] Setting up pool1
I0522 09:08:07.041218 29237 net.cpp:129] Top shape: 50 96 28 28 (3763200)
I0522 09:08:07.041220 29237 net.cpp:137] Memory required for data: 166392800
I0522 09:08:07.041224 29237 layer_factory.hpp:77] Creating layer norm1
I0522 09:08:07.041234 29237 net.cpp:84] Creating Layer norm1
I0522 09:08:07.041236 29237 net.cpp:406] norm1 <- pool1
I0522 09:08:07.041252 29237 net.cpp:380] norm1 -> norm1
I0522 09:08:07.041900 29237 net.cpp:122] Setting up norm1
I0522 09:08:07.041913 29237 net.cpp:129] Top shape: 50 96 28 28 (3763200)
I0522 09:08:07.041916 29237 net.cpp:137] Memory required for data: 181445600
I0522 09:08:07.041919 29237 layer_factory.hpp:77] Creating layer conv2
I0522 09:08:07.041942 29237 net.cpp:84] Creating Layer conv2
I0522 09:08:07.041946 29237 net.cpp:406] conv2 <- norm1
I0522 09:08:07.041968 29237 net.cpp:380] conv2 -> conv2
I0522 09:08:07.050683 29237 net.cpp:122] Setting up conv2
I0522 09:08:07.050709 29237 net.cpp:129] Top shape: 50 256 28 28 (10035200)
I0522 09:08:07.050712 29237 net.cpp:137] Memory required for data: 221586400
I0522 09:08:07.050737 29237 layer_factory.hpp:77] Creating layer relu2
I0522 09:08:07.050747 29237 net.cpp:84] Creating Layer relu2
I0522 09:08:07.050755 29237 net.cpp:406] relu2 <- conv2
I0522 09:08:07.050761 29237 net.cpp:367] relu2 -> conv2 (in-place)
I0522 09:08:07.050915 29237 net.cpp:122] Setting up relu2
I0522 09:08:07.050925 29237 net.cpp:129] Top shape: 50 256 28 28 (10035200)
I0522 09:08:07.050928 29237 net.cpp:137] Memory required for data: 261727200
I0522 09:08:07.050931 29237 layer_factory.hpp:77] Creating layer pool2
I0522 09:08:07.050951 29237 net.cpp:84] Creating Layer pool2
I0522 09:08:07.050954 29237 net.cpp:406] pool2 <- conv2
I0522 09:08:07.050961 29237 net.cpp:380] pool2 -> pool2
I0522 09:08:07.050998 29237 net.cpp:122] Setting up pool2
I0522 09:08:07.051005 29237 net.cpp:129] Top shape: 50 256 14 14 (2508800)
I0522 09:08:07.051010 29237 net.cpp:137] Memory required for data: 271762400
I0522 09:08:07.051013 29237 layer_factory.hpp:77] Creating layer norm2
I0522 09:08:07.051023 29237 net.cpp:84] Creating Layer norm2
I0522 09:08:07.051026 29237 net.cpp:406] norm2 <- pool2
I0522 09:08:07.051031 29237 net.cpp:380] norm2 -> norm2
I0522 09:08:07.051203 29237 net.cpp:122] Setting up norm2
I0522 09:08:07.051213 29237 net.cpp:129] Top shape: 50 256 14 14 (2508800)
I0522 09:08:07.051216 29237 net.cpp:137] Memory required for data: 281797600
I0522 09:08:07.051219 29237 layer_factory.hpp:77] Creating layer conv3
I0522 09:08:07.051230 29237 net.cpp:84] Creating Layer conv3
I0522 09:08:07.051234 29237 net.cpp:406] conv3 <- norm2
I0522 09:08:07.051240 29237 net.cpp:380] conv3 -> conv3
I0522 09:08:07.063308 29237 net.cpp:122] Setting up conv3
I0522 09:08:07.063336 29237 net.cpp:129] Top shape: 50 384 14 14 (3763200)
I0522 09:08:07.063340 29237 net.cpp:137] Memory required for data: 296850400
I0522 09:08:07.063354 29237 layer_factory.hpp:77] Creating layer relu3
I0522 09:08:07.063364 29237 net.cpp:84] Creating Layer relu3
I0522 09:08:07.063369 29237 net.cpp:406] relu3 <- conv3
I0522 09:08:07.063380 29237 net.cpp:367] relu3 -> conv3 (in-place)
I0522 09:08:07.063555 29237 net.cpp:122] Setting up relu3
I0522 09:08:07.063566 29237 net.cpp:129] Top shape: 50 384 14 14 (3763200)
I0522 09:08:07.063570 29237 net.cpp:137] Memory required for data: 311903200
I0522 09:08:07.063572 29237 layer_factory.hpp:77] Creating layer pool5
I0522 09:08:07.063580 29237 net.cpp:84] Creating Layer pool5
I0522 09:08:07.063583 29237 net.cpp:406] pool5 <- conv3
I0522 09:08:07.063591 29237 net.cpp:380] pool5 -> pool5
I0522 09:08:07.063637 29237 net.cpp:122] Setting up pool5
I0522 09:08:07.063645 29237 net.cpp:129] Top shape: 50 384 7 7 (940800)
I0522 09:08:07.063649 29237 net.cpp:137] Memory required for data: 315666400
I0522 09:08:07.063652 29237 layer_factory.hpp:77] Creating layer fc6
I0522 09:08:07.063660 29237 net.cpp:84] Creating Layer fc6
I0522 09:08:07.063665 29237 net.cpp:406] fc6 <- pool5
I0522 09:08:07.063670 29237 net.cpp:380] fc6 -> fc6
I0522 09:08:07.170073 29237 net.cpp:122] Setting up fc6
I0522 09:08:07.170102 29237 net.cpp:129] Top shape: 50 512 (25600)
I0522 09:08:07.170106 29237 net.cpp:137] Memory required for data: 315768800
I0522 09:08:07.170130 29237 layer_factory.hpp:77] Creating layer relu6
I0522 09:08:07.170140 29237 net.cpp:84] Creating Layer relu6
I0522 09:08:07.170145 29237 net.cpp:406] relu6 <- fc6
I0522 09:08:07.170155 29237 net.cpp:367] relu6 -> fc6 (in-place)
I0522 09:08:07.171015 29237 net.cpp:122] Setting up relu6
I0522 09:08:07.171025 29237 net.cpp:129] Top shape: 50 512 (25600)
I0522 09:08:07.171028 29237 net.cpp:137] Memory required for data: 315871200
I0522 09:08:07.171031 29237 layer_factory.hpp:77] Creating layer drop6
I0522 09:08:07.171053 29237 net.cpp:84] Creating Layer drop6
I0522 09:08:07.171058 29237 net.cpp:406] drop6 <- fc6
I0522 09:08:07.171077 29237 net.cpp:367] drop6 -> fc6 (in-place)
I0522 09:08:07.171111 29237 net.cpp:122] Setting up drop6
I0522 09:08:07.171119 29237 net.cpp:129] Top shape: 50 512 (25600)
I0522 09:08:07.171123 29237 net.cpp:137] Memory required for data: 315973600
I0522 09:08:07.171139 29237 layer_factory.hpp:77] Creating layer fc7
I0522 09:08:07.171145 29237 net.cpp:84] Creating Layer fc7
I0522 09:08:07.171150 29237 net.cpp:406] fc7 <- fc6
I0522 09:08:07.171156 29237 net.cpp:380] fc7 -> fc7
I0522 09:08:07.173930 29237 net.cpp:122] Setting up fc7
I0522 09:08:07.173943 29237 net.cpp:129] Top shape: 50 512 (25600)
I0522 09:08:07.173945 29237 net.cpp:137] Memory required for data: 316076000
I0522 09:08:07.173969 29237 layer_factory.hpp:77] Creating layer relu7
I0522 09:08:07.173980 29237 net.cpp:84] Creating Layer relu7
I0522 09:08:07.173985 29237 net.cpp:406] relu7 <- fc7
I0522 09:08:07.173990 29237 net.cpp:367] relu7 -> fc7 (in-place)
I0522 09:08:07.174160 29237 net.cpp:122] Setting up relu7
I0522 09:08:07.174172 29237 net.cpp:129] Top shape: 50 512 (25600)
I0522 09:08:07.174175 29237 net.cpp:137] Memory required for data: 316178400
I0522 09:08:07.174178 29237 layer_factory.hpp:77] Creating layer drop7
I0522 09:08:07.174196 29237 net.cpp:84] Creating Layer drop7
I0522 09:08:07.174199 29237 net.cpp:406] drop7 <- fc7
I0522 09:08:07.174204 29237 net.cpp:367] drop7 -> fc7 (in-place)
I0522 09:08:07.174228 29237 net.cpp:122] Setting up drop7
I0522 09:08:07.174235 29237 net.cpp:129] Top shape: 50 512 (25600)
I0522 09:08:07.174238 29237 net.cpp:137] Memory required for data: 316280800
I0522 09:08:07.174242 29237 layer_factory.hpp:77] Creating layer fc8
I0522 09:08:07.174248 29237 net.cpp:84] Creating Layer fc8
I0522 09:08:07.174253 29237 net.cpp:406] fc8 <- fc7
I0522 09:08:07.174258 29237 net.cpp:380] fc8 -> fc8
I0522 09:08:07.174405 29237 net.cpp:122] Setting up fc8
I0522 09:08:07.174413 29237 net.cpp:129] Top shape: 50 8 (400)
I0522 09:08:07.174417 29237 net.cpp:137] Memory required for data: 316282400
I0522 09:08:07.174434 29237 layer_factory.hpp:77] Creating layer loss
I0522 09:08:07.174443 29237 net.cpp:84] Creating Layer loss
I0522 09:08:07.174446 29237 net.cpp:406] loss <- fc8
I0522 09:08:07.174450 29237 net.cpp:406] loss <- label
I0522 09:08:07.174458 29237 net.cpp:380] loss -> loss
I0522 09:08:07.174468 29237 layer_factory.hpp:77] Creating layer loss
…
I0522 09:08:07.175127 29237 net.cpp:294] The NetState phase (1) differed from the phase (0) specified by a rule in layer data
I0522 09:08:07.175266 29237 net.cpp:51] Initializing net from parameters: 
name: "CaffeNet"
state {
  phase: TEST
}
layer {
  name: "data"
  type: "Data"
  top: "data"
  top: "label"
  include {
    phase: TEST
  }
  transform_param {
    mirror: false
    crop_size: 227
    mean_file: "/home/k/PycharmProjects/AgeGenderDeepLearning-master/Folds/lmdb/Test_fold_is_4/mean.binaryproto"
  }
  data_param {
    source: "/home/k/PycharmProjects/AgeGenderDeepLearning-master/Folds/lmdb/Test_fold_is_4/age_val_lmdb"
    batch_size: 50
    backend: LMDB
  }
}
layer {
  name: "conv1"
  type: "Convolution"
  bottom: "data"
  top: "conv1"
  param {
    lr_mult: 1
    decay_mult: 1
  }
  param {
    lr_mult: 2
    decay_mult: 0
  }
  convolution_param {
    num_output: 96
    kernel_size: 7
    stride: 4
    weight_filler {
      type: "gaussian"
      std: 0.01
    }
    bias_filler {
      type: "constant"
      value: 0
    }
  }
}
layer {
  name: "relu1"
  type: "ReLU"
  bottom: "conv1"
  top: "conv1"
}
layer {
  name: "pool1"
  type: "Pooling"
  bottom: "conv1"
  top: "pool1"
  pooling_param {
    pool: MAX
    kernel_size: 3
    stride: 2
  }
}
layer {
  name: "norm1"
  type: "LRN"
  bottom: "pool1"
  top: "norm1"
  lrn_param {
    local_size: 5
    alpha: 0.0001
    beta: 0.75
  }
}
layer {
  name: "conv2"
  type: "Convolution"
  bottom: "norm1"
  top: "conv2"
  param {
    lr_mult: 1
    decay_mult: 1
  }
  param {
    lr_mult: 2
    decay_mult: 0
  }
  convolution_param {
    num_output: 256
    pad: 2
    kernel_size: 5
    weight_filler {
      type: "gaussian"
      std: 0.01
    }
    bias_filler {
      type: "constant"
      value: 1
    }
  }
}
layer {
  name: "relu2"
  type: "ReLU"
  bottom: "conv2"
  top: "conv2"
}
layer {
  name: "pool2"
  type: "Pooling"
  bottom: "conv2"
  top: "pool2"
  pooling_param {
    pool: MAX
    kernel_size: 3
    stride: 2
  }
}
layer {
  name: "norm2"
  type: "LRN"
  bottom: "pool2"
  top: "norm2"
  lrn_param {
    local_size: 5
    alpha: 0.0001
    beta: 0.75
  }
}
layer {
  name: "conv3"
  type: "Convolution"
  bottom: "norm2"
  top: "conv3"
  param {
    lr_mult: 1
    decay_mult: 1
  }
  param {
    lr_mult: 2
    decay_mult: 0
  }
  convolution_param {
    num_output: 384
    pad: 1
    kernel_size: 3
    weight_filler {
      type: "gaussian"
      std: 0.01
    }
    bias_filler {
      type: "constant"
      value: 0
    }
  }
}
layer {
  name: "relu3"
  type: "ReLU"
  bottom: "conv3"
  top: "conv3"
}
layer {
  name: "pool5"
  type: "Pooling"
  bottom: "conv3"
  top: "pool5"
  pooling_param {
    pool: MAX
    kernel_size: 3
    stride: 2
  }
}
layer {
  name: "fc6"
  type: "InnerProduct"
  bottom: "pool5"
  top: "fc6"
  param {
    lr_mult: 1
    decay_mult: 1
  }
  param {
    lr_mult: 2
    decay_mult: 0
  }
  inner_product_param {
    num_output: 512
    weight_filler {
      type: "gaussian"
      std: 0.005
    }
    bias_filler {
      type: "constant"
      value: 1
    }
  }
}
layer {
  name: "relu6"
  type: "ReLU"
  bottom: "fc6"
  top: "fc6"
}
layer {
  name: "drop6"
  type: "Dropout"
  bottom: "fc6"
  top: "fc6"
  dropout_param {
    dropout_ratio: 0.5
  }
}
layer {
  name: "fc7"
  type: "InnerProduct"
  bottom: "fc6"
  top: "fc7"
  param {
    lr_mult: 1
    decay_mult: 1
  }
  param {
    lr_mult: 2
    decay_mult: 0
  }
  inner_product_param {
    num_output: 512
    weight_filler {
      type: "gaussian"
      std: 0.005
    }
    bias_filler {
      type: "constant"
      value: 1
    }
  }
}
layer {
  name: "relu7"
  type: "ReLU"
  bottom: "fc7"
  top: "fc7"
}
layer {
  name: "drop7"
  type: "Dropout"
  bottom: "fc7"
  top: "fc7"
  dropout_param {
    dropout_ratio: 0.5
  }
}
layer {
  name: "fc8"
  type: "InnerProduct"
  bottom: "fc7"
  top: "fc8"
  param {
    lr_mult: 10
    decay_mult: 1
  }
  param {
    lr_mult: 20
    decay_mult: 0
  }
  inner_product_param {
    num_output: 8
    weight_filler {
      type: "gaussian"
      std: 0.01
    }
    bias_filler {
      type: "constant"
      value: 0
    }
  }
}
layer {
  name: "accuracy"
  type: "Accuracy"
  bottom: "fc8"
  bottom: "label"
  top: "accuracy"
  include {
    phase: TEST
  }
}
layer {
  name: "loss"
  type: "SoftmaxWithLoss"
  bottom: "fc8"
  bottom: "label"
  top: "loss"
}
I0522 09:08:07.175354 29237 layer_factory.hpp:77] Creating layer data
I0522 09:08:07.198988 29237 db_lmdb.cpp:35] Opened lmdb /home/k/PycharmProjects/AgeGenderDeepLearning-master/Folds/lmdb/Test_fold_is_4/age_val_lmdb
I0522 09:08:07.206499 29237 net.cpp:84] Creating Layer data
I0522 09:08:07.206524 29237 net.cpp:380] data -> data
I0522 09:08:07.206544 29237 net.cpp:380] data -> label
I0522 09:08:07.206557 29237 data_transformer.cpp:25] Loading mean file from: /home/k/PycharmProjects/AgeGenderDeepLearning-master/Folds/lmdb/Test_fold_is_4/mean.binaryproto
I0522 09:08:07.209753 29237 data_layer.cpp:45] output data size: 50,3,227,227
I0522 09:08:07.279585 29237 net.cpp:122] Setting up data
I0522 09:08:07.279628 29237 net.cpp:129] Top shape: 50 3 227 227 (7729350)
I0522 09:08:07.279633 29237 net.cpp:129] Top shape: 50 (50)
I0522 09:08:07.279636 29237 net.cpp:137] Memory required for data: 30917600
I0522 09:08:07.279642 29237 layer_factory.hpp:77] Creating layer label_data_1_split
I0522 09:08:07.279656 29237 net.cpp:84] Creating Layer label_data_1_split
I0522 09:08:07.279661 29237 net.cpp:406] label_data_1_split <- label
I0522 09:08:07.279669 29237 net.cpp:380] label_data_1_split -> label_data_1_split_0
I0522 09:08:07.279680 29237 net.cpp:380] label_data_1_split -> label_data_1_split_1
I0522 09:08:07.279772 29237 net.cpp:122] Setting up label_data_1_split
I0522 09:08:07.279803 29237 net.cpp:129] Top shape: 50 (50)
I0522 09:08:07.279806 29237 net.cpp:129] Top shape: 50 (50)
I0522 09:08:07.279809 29237 net.cpp:137] Memory required for data: 30918000
I0522 09:08:07.279813 29237 layer_factory.hpp:77] Creating layer conv1
I0522 09:08:07.279826 29237 net.cpp:84] Creating Layer conv1
I0522 09:08:07.279829 29237 net.cpp:406] conv1 <- data
I0522 09:08:07.279846 29237 net.cpp:380] conv1 -> conv1
I0522 09:08:07.286309 29237 net.cpp:122] Setting up conv1
I0522 09:08:07.286335 29237 net.cpp:129] Top shape: 50 96 56 56 (15052800)
I0522 09:08:07.286339 29237 net.cpp:137] Memory required for data: 91129200
I0522 09:08:07.286353 29237 layer_factory.hpp:77] Creating layer relu1
I0522 09:08:07.286365 29237 net.cpp:84] Creating Layer relu1
I0522 09:08:07.286371 29237 net.cpp:406] relu1 <- conv1
I0522 09:08:07.286381 29237 net.cpp:367] relu1 -> conv1 (in-place)
I0522 09:08:07.286530 29237 net.cpp:122] Setting up relu1
I0522 09:08:07.286540 29237 net.cpp:129] Top shape: 50 96 56 56 (15052800)
I0522 09:08:07.286543 29237 net.cpp:137] Memory required for data: 151340400
I0522 09:08:07.286546 29237 layer_factory.hpp:77] Creating layer pool1
I0522 09:08:07.286554 29237 net.cpp:84] Creating Layer pool1
I0522 09:08:07.286558 29237 net.cpp:406] pool1 <- conv1
I0522 09:08:07.286563 29237 net.cpp:380] pool1 -> pool1
I0522 09:08:07.286607 29237 net.cpp:122] Setting up pool1
I0522 09:08:07.286617 29237 net.cpp:129] Top shape: 50 96 28 28 (3763200)
I0522 09:08:07.286619 29237 net.cpp:137] Memory required for data: 166393200
I0522 09:08:07.286623 29237 layer_factory.hpp:77] Creating layer norm1
I0522 09:08:07.286629 29237 net.cpp:84] Creating Layer norm1
I0522 09:08:07.286633 29237 net.cpp:406] norm1 <- pool1
I0522 09:08:07.286636 29237 net.cpp:380] norm1 -> norm1
I0522 09:08:07.287374 29237 net.cpp:122] Setting up norm1
I0522 09:08:07.287386 29237 net.cpp:129] Top shape: 50 96 28 28 (3763200)
I0522 09:08:07.287390 29237 net.cpp:137] Memory required for data: 181446000
I0522 09:08:07.287394 29237 layer_factory.hpp:77] Creating layer conv2
I0522 09:08:07.287405 29237 net.cpp:84] Creating Layer conv2
I0522 09:08:07.287408 29237 net.cpp:406] conv2 <- norm1
I0522 09:08:07.287415 29237 net.cpp:380] conv2 -> conv2
I0522 09:08:07.295233 29237 net.cpp:122] Setting up conv2
I0522 09:08:07.295270 29237 net.cpp:129] Top shape: 50 256 28 28 (10035200)
I0522 09:08:07.295275 29237 net.cpp:137] Memory required for data: 221586800
I0522 09:08:07.295289 29237 layer_factory.hpp:77] Creating layer relu2
I0522 09:08:07.295296 29237 net.cpp:84] Creating Layer relu2
I0522 09:08:07.295300 29237 net.cpp:406] relu2 <- conv2
I0522 09:08:07.295307 29237 net.cpp:367] relu2 -> conv2 (in-place)
I0522 09:08:07.296015 29237 net.cpp:122] Setting up relu2
I0522 09:08:07.296036 29237 net.cpp:129] Top shape: 50 256 28 28 (10035200)
I0522 09:08:07.296041 29237 net.cpp:137] Memory required for data: 261727600
I0522 09:08:07.296044 29237 layer_factory.hpp:77] Creating layer pool2
I0522 09:08:07.296053 29237 net.cpp:84] Creating Layer pool2
I0522 09:08:07.296059 29237 net.cpp:406] pool2 <- conv2
I0522 09:08:07.296069 29237 net.cpp:380] pool2 -> pool2
I0522 09:08:07.296115 29237 net.cpp:122] Setting up pool2
I0522 09:08:07.296124 29237 net.cpp:129] Top shape: 50 256 14 14 (2508800)
I0522 09:08:07.296128 29237 net.cpp:137] Memory required for data: 271762800
I0522 09:08:07.296142 29237 layer_factory.hpp:77] Creating layer norm2
I0522 09:08:07.296149 29237 net.cpp:84] Creating Layer norm2
I0522 09:08:07.296152 29237 net.cpp:406] norm2 <- pool2
I0522 09:08:07.296157 29237 net.cpp:380] norm2 -> norm2
I0522 09:08:07.296341 29237 net.cpp:122] Setting up norm2
I0522 09:08:07.296351 29237 net.cpp:129] Top shape: 50 256 14 14 (2508800)
I0522 09:08:07.296365 29237 net.cpp:137] Memory required for data: 281798000
I0522 09:08:07.296370 29237 layer_factory.hpp:77] Creating layer conv3
I0522 09:08:07.296381 29237 net.cpp:84] Creating Layer conv3
I0522 09:08:07.296388 29237 net.cpp:406] conv3 <- norm2
I0522 09:08:07.296399 29237 net.cpp:380] conv3 -> conv3
I0522 09:08:07.307868 29237 net.cpp:122] Setting up conv3
I0522 09:08:07.307890 29237 net.cpp:129] Top shape: 50 384 14 14 (3763200)
I0522 09:08:07.307893 29237 net.cpp:137] Memory required for data: 296850800
I0522 09:08:07.307904 29237 layer_factory.hpp:77] Creating layer relu3
I0522 09:08:07.307914 29237 net.cpp:84] Creating Layer relu3
I0522 09:08:07.307920 29237 net.cpp:406] relu3 <- conv3
I0522 09:08:07.307931 29237 net.cpp:367] relu3 -> conv3 (in-place)
I0522 09:08:07.308094 29237 net.cpp:122] Setting up relu3
I0522 09:08:07.308104 29237 net.cpp:129] Top shape: 50 384 14 14 (3763200)
I0522 09:08:07.308117 29237 net.cpp:137] Memory required for data: 311903600
I0522 09:08:07.308121 29237 layer_factory.hpp:77] Creating layer pool5
I0522 09:08:07.308127 29237 net.cpp:84] Creating Layer pool5
I0522 09:08:07.308131 29237 net.cpp:406] pool5 <- conv3
I0522 09:08:07.308137 29237 net.cpp:380] pool5 -> pool5
I0522 09:08:07.308198 29237 net.cpp:122] Setting up pool5
I0522 09:08:07.308207 29237 net.cpp:129] Top shape: 50 384 7 7 (940800)
I0522 09:08:07.308209 29237 net.cpp:137] Memory required for data: 315666800
I0522 09:08:07.308212 29237 layer_factory.hpp:77] Creating layer fc6
I0522 09:08:07.308219 29237 net.cpp:84] Creating Layer fc6
I0522 09:08:07.308223 29237 net.cpp:406] fc6 <- pool5
I0522 09:08:07.308228 29237 net.cpp:380] fc6 -> fc6
I0522 09:08:07.412199 29237 net.cpp:122] Setting up fc6
I0522 09:08:07.412227 29237 net.cpp:129] Top shape: 50 512 (25600)
I0522 09:08:07.412230 29237 net.cpp:137] Memory required for data: 315769200
I0522 09:08:07.412240 29237 layer_factory.hpp:77] Creating layer relu6
I0522 09:08:07.412250 29237 net.cpp:84] Creating Layer relu6
I0522 09:08:07.412256 29237 net.cpp:406] relu6 <- fc6
I0522 09:08:07.412266 29237 net.cpp:367] relu6 -> fc6 (in-place)
I0522 09:08:07.412523 29237 net.cpp:122] Setting up relu6
I0522 09:08:07.412533 29237 net.cpp:129] Top shape: 50 512 (25600)
I0522 09:08:07.412536 29237 net.cpp:137] Memory required for data: 315871600
I0522 09:08:07.412539 29237 layer_factory.hpp:77] Creating layer drop6
I0522 09:08:07.412546 29237 net.cpp:84] Creating Layer drop6
I0522 09:08:07.412549 29237 net.cpp:406] drop6 <- fc6
I0522 09:08:07.412554 29237 net.cpp:367] drop6 -> fc6 (in-place)
I0522 09:08:07.412596 29237 net.cpp:122] Setting up drop6
I0522 09:08:07.412605 29237 net.cpp:129] Top shape: 50 512 (25600)
I0522 09:08:07.412607 29237 net.cpp:137] Memory required for data: 315974000
I0522 09:08:07.412611 29237 layer_factory.hpp:77] Creating layer fc7
I0522 09:08:07.412621 29237 net.cpp:84] Creating Layer fc7
I0522 09:08:07.412624 29237 net.cpp:406] fc7 <- fc6
I0522 09:08:07.412633 29237 net.cpp:380] fc7 -> fc7
I0522 09:08:07.415333 29237 net.cpp:122] Setting up fc7
I0522 09:08:07.415343 29237 net.cpp:129] Top shape: 50 512 (25600)
I0522 09:08:07.415345 29237 net.cpp:137] Memory required for data: 316076400
I0522 09:08:07.415354 29237 layer_factory.hpp:77] Creating layer relu7
I0522 09:08:07.415359 29237 net.cpp:84] Creating Layer relu7
I0522 09:08:07.415364 29237 net.cpp:406] relu7 <- fc7
I0522 09:08:07.415367 29237 net.cpp:367] relu7 -> fc7 (in-place)
I0522 09:08:07.416134 29237 net.cpp:122] Setting up relu7
I0522 09:08:07.416146 29237 net.cpp:129] Top shape: 50 512 (25600)
I0522 09:08:07.416148 29237 net.cpp:137] Memory required for data: 316178800
I0522 09:08:07.416152 29237 layer_factory.hpp:77] Creating layer drop7
I0522 09:08:07.416157 29237 net.cpp:84] Creating Layer drop7
I0522 09:08:07.416160 29237 net.cpp:406] drop7 <- fc7
I0522 09:08:07.416165 29237 net.cpp:367] drop7 -> fc7 (in-place)
I0522 09:08:07.416205 29237 net.cpp:122] Setting up drop7
I0522 09:08:07.416214 29237 net.cpp:129] Top shape: 50 512 (25600)
I0522 09:08:07.416218 29237 net.cpp:137] Memory required for data: 316281200
I0522 09:08:07.416220 29237 layer_factory.hpp:77] Creating layer fc8
I0522 09:08:07.416226 29237 net.cpp:84] Creating Layer fc8
I0522 09:08:07.416230 29237 net.cpp:406] fc8 <- fc7
I0522 09:08:07.416235 29237 net.cpp:380] fc8 -> fc8
I0522 09:08:07.416386 29237 net.cpp:122] Setting up fc8
I0522 09:08:07.416395 29237 net.cpp:129] Top shape: 50 8 (400)
I0522 09:08:07.416399 29237 net.cpp:137] Memory required for data: 316282800
I0522 09:08:07.416404 29237 layer_factory.hpp:77] Creating layer fc8_fc8_0_split
I0522 09:08:07.416410 29237 net.cpp:84] Creating Layer fc8_fc8_0_split
I0522 09:08:07.416414 29237 net.cpp:406] fc8_fc8_0_split <- fc8
I0522 09:08:07.416419 29237 net.cpp:380] fc8_fc8_0_split -> fc8_fc8_0_split_0
I0522 09:08:07.416425 29237 net.cpp:380] fc8_fc8_0_split -> fc8_fc8_0_split_1
I0522 09:08:07.416477 29237 net.cpp:122] Setting up fc8_fc8_0_split
I0522 09:08:07.416486 29237 net.cpp:129] Top shape: 50 8 (400)
I0522 09:08:07.416489 29237 net.cpp:129] Top shape: 50 8 (400)
I0522 09:08:07.416492 29237 net.cpp:137] Memory required for data: 316286000
I0522 09:08:07.416507 29237 layer_factory.hpp:77] Creating layer accuracy
I0522 09:08:07.416513 29237 net.cpp:84] Creating Layer accuracy
I0522 09:08:07.416517 29237 net.cpp:406] accuracy <- fc8_fc8_0_split_0
I0522 09:08:07.416520 29237 net.cpp:406] accuracy <- label_data_1_split_0
I0522 09:08:07.416529 29237 net.cpp:380] accuracy -> accuracy
…
