…
I0522 15:20:33.574100  5776 net.cpp:51] Initializing net from parameters: 
name: "CaffeNet"
state {
  phase: TRAIN
  level: 0
  stage: ""
}
layer {
  name: "data"
  type: "Data"
  top: "data"
  top: "label"
  include {
    phase: TRAIN
  }
  transform_param {
    mirror: true
    crop_size: 227
    mean_file: "/home/k/PycharmProjects/AgeGenderDeepLearning-master/Folds/lmdb/Test_fold_is_4/mean.binaryproto"
  }
  data_param {
    source: "/home/k/PycharmProjects/AgeGenderDeepLearning-master/Folds/lmdb/Test_fold_is_4/gender_train_lmdb"
    batch_size: 50
    backend: LMDB
  }
}
layer {
  name: "conv1"
  type: "Convolution"
  bottom: "data"
  top: "conv1"
  param {
    lr_mult: 1
    decay_mult: 1
  }
  param {
    lr_mult: 2
    decay_mult: 0
  }
  convolution_param {
    num_output: 96
    kernel_size: 7
    stride: 4
    weight_filler {
      type: "gaussian"
      std: 0.01
    }
    bias_filler {
      type: "constant"
      value: 0
    }
  }
}
layer {
  name: "relu1"
  type: "ReLU"
  bottom: "conv1"
  top: "conv1"
}
layer {
  name: "pool1"
  type: "Pooling"
  bottom: "conv1"
  top: "pool1"
  pooling_param {
    pool: MAX
    kernel_size: 3
    stride: 2
  }
}
layer {
  name: "norm1"
  type: "LRN"
  bottom: "pool1"
  top: "norm1"
  lrn_param {
    local_size: 5
    alpha: 0.0001
    beta: 0.75
  }
}
layer {
  name: "conv2"
  type: "Convolution"
  bottom: "norm1"
  top: "conv2"
  param {
    lr_mult: 1
    decay_mult: 1
  }
  param {
    lr_mult: 2
    decay_mult: 0
  }
  convolution_param {
    num_output: 256
    pad: 2
    kernel_size: 5
    weight_filler {
      type: "gaussian"
      std: 0.01
    }
    bias_filler {
      type: "constant"
      value: 1
    }
  }
}
layer {
  name: "relu2"
  type: "ReLU"
  bottom: "conv2"
  top: "conv2"
}
layer {
  name: "pool2"
  type: "Pooling"
  bottom: "conv2"
  top: "pool2"
  pooling_param {
    pool: MAX
    kernel_size: 3
    stride: 2
  }
}
layer {
  name: "norm2"
  type: "LRN"
  bottom: "pool2"
  top: "norm2"
  lrn_param {
    local_size: 5
    alpha: 0.0001
    beta: 0.75
  }
}
layer {
  name: "conv3"
  type: "Convolution"
  bottom: "norm2"
  top: "conv3"
  param {
    lr_mult: 1
    decay_mult: 1
  }
  param {
    lr_mult: 2
    decay_mult: 0
  }
  convolution_param {
    num_output: 384
    pad: 1
    kernel_size: 3
    weight_filler {
      type: "gaussian"
      std: 0.01
    }
    bias_filler {
      type: "constant"
      value: 0
    }
  }
}
layer {
  name: "relu3"
  type: "ReLU"
  bottom: "conv3"
  top: "conv3"
}
layer {
  name: "pool5"
  type: "Pooling"
  bottom: "conv3"
  top: "pool5"
  pooling_param {
    pool: MAX
    kernel_size: 3
    stride: 2
  }
}
layer {
  name: "fc6"
  type: "InnerProduct"
  bottom: "pool5"
  top: "fc6"
  param {
    lr_mult: 1
    decay_mult: 1
  }
  param {
    lr_mult: 2
    decay_mult: 0
  }
  inner_product_param {
    num_output: 512
    weight_filler {
      type: "gaussian"
      std: 0.005
    }
    bias_filler {
      type: "constant"
      value: 1
    }
  }
}
layer {
  name: "relu6"
  type: "ReLU"
  bottom: "fc6"
  top: "fc6"
}
layer {
  name: "drop6"
  type: "Dropout"
  bottom: "fc6"
  top: "fc6"
  dropout_param {
    dropout_ratio: 0.5
  }
}
layer {
  name: "fc7"
  type: "InnerProduct"
  bottom: "fc6"
  top: "fc7"
  param {
    lr_mult: 1
    decay_mult: 1
  }
  param {
    lr_mult: 2
    decay_mult: 0
  }
  inner_product_param {
    num_output: 512
    weight_filler {
      type: "gaussian"
      std: 0.005
    }
    bias_filler {
      type: "constant"
      value: 1
    }
  }
}
layer {
  name: "relu7"
  type: "ReLU"
  bottom: "fc7"
  top: "fc7"
}
layer {
  name: "drop7"
  type: "Dropout"
  bottom: "fc7"
  top: "fc7"
  dropout_param {
    dropout_ratio: 0.5
  }
}
layer {
  name: "fc8"
  type: "InnerProduct"
  bottom: "fc7"
  top: "fc8"
  param {
    lr_mult: 10
    decay_mult: 1
  }
  param {
    lr_mult: 20
    decay_mult: 0
  }
  inner_product_param {
    num_output: 2
    weight_filler {
      type: "gaussian"
      std: 0.01
    }
    bias_filler {
      type: "constant"
      value: 0
    }
  }
}
layer {
  name: "loss"
  type: "SoftmaxWithLoss"
  bottom: "fc8"
  bottom: "label"
  top: "loss"
}
I0522 15:20:33.574204  5776 layer_factory.hpp:77] Creating layer data
I0522 15:20:33.574311  5776 db_lmdb.cpp:35] Opened lmdb /home/k/PycharmProjects/AgeGenderDeepLearning-master/Folds/lmdb/Test_fold_is_4/gender_train_lmdb
I0522 15:20:33.574344  5776 net.cpp:84] Creating Layer data
I0522 15:20:33.574358  5776 net.cpp:380] data -> data
I0522 15:20:33.574380  5776 net.cpp:380] data -> label
I0522 15:20:33.574395  5776 data_transformer.cpp:25] Loading mean file from: /home/k/PycharmProjects/AgeGenderDeepLearning-master/Folds/lmdb/Test_fold_is_4/mean.binaryproto
I0522 15:20:33.577397  5776 data_layer.cpp:45] output data size: 50,3,227,227
I0522 15:20:33.642292  5776 net.cpp:122] Setting up data
I0522 15:20:33.642328  5776 net.cpp:129] Top shape: 50 3 227 227 (7729350)
I0522 15:20:33.642333  5776 net.cpp:129] Top shape: 50 (50)
I0522 15:20:33.642338  5776 net.cpp:137] Memory required for data: 30917600
I0522 15:20:33.642348  5776 layer_factory.hpp:77] Creating layer conv1
I0522 15:20:33.642371  5776 net.cpp:84] Creating Layer conv1
I0522 15:20:33.642380  5776 net.cpp:406] conv1 <- data
I0522 15:20:33.642396  5776 net.cpp:380] conv1 -> conv1
I0522 15:20:33.899791  5776 net.cpp:122] Setting up conv1
I0522 15:20:33.899821  5776 net.cpp:129] Top shape: 50 96 56 56 (15052800)
I0522 15:20:33.899824  5776 net.cpp:137] Memory required for data: 91128800
I0522 15:20:33.899848  5776 layer_factory.hpp:77] Creating layer relu1
I0522 15:20:33.899863  5776 net.cpp:84] Creating Layer relu1
I0522 15:20:33.899870  5776 net.cpp:406] relu1 <- conv1
I0522 15:20:33.899878  5776 net.cpp:367] relu1 -> conv1 (in-place)
I0522 15:20:33.900051  5776 net.cpp:122] Setting up relu1
I0522 15:20:33.900061  5776 net.cpp:129] Top shape: 50 96 56 56 (15052800)
I0522 15:20:33.900076  5776 net.cpp:137] Memory required for data: 151340000
I0522 15:20:33.900082  5776 layer_factory.hpp:77] Creating layer pool1
I0522 15:20:33.900089  5776 net.cpp:84] Creating Layer pool1
I0522 15:20:33.900094  5776 net.cpp:406] pool1 <- conv1
I0522 15:20:33.900099  5776 net.cpp:380] pool1 -> pool1
I0522 15:20:33.900142  5776 net.cpp:122] Setting up pool1
I0522 15:20:33.900151  5776 net.cpp:129] Top shape: 50 96 28 28 (3763200)
I0522 15:20:33.900156  5776 net.cpp:137] Memory required for data: 166392800
I0522 15:20:33.900158  5776 layer_factory.hpp:77] Creating layer norm1
I0522 15:20:33.900168  5776 net.cpp:84] Creating Layer norm1
I0522 15:20:33.900173  5776 net.cpp:406] norm1 <- pool1
I0522 15:20:33.900177  5776 net.cpp:380] norm1 -> norm1
I0522 15:20:33.900799  5776 net.cpp:122] Setting up norm1
I0522 15:20:33.900811  5776 net.cpp:129] Top shape: 50 96 28 28 (3763200)
I0522 15:20:33.900815  5776 net.cpp:137] Memory required for data: 181445600
I0522 15:20:33.900820  5776 layer_factory.hpp:77] Creating layer conv2
I0522 15:20:33.900830  5776 net.cpp:84] Creating Layer conv2
I0522 15:20:33.900835  5776 net.cpp:406] conv2 <- norm1
I0522 15:20:33.900856  5776 net.cpp:380] conv2 -> conv2
I0522 15:20:33.909787  5776 net.cpp:122] Setting up conv2
I0522 15:20:33.909821  5776 net.cpp:129] Top shape: 50 256 28 28 (10035200)
I0522 15:20:33.909826  5776 net.cpp:137] Memory required for data: 221586400
I0522 15:20:33.909838  5776 layer_factory.hpp:77] Creating layer relu2
I0522 15:20:33.909848  5776 net.cpp:84] Creating Layer relu2
I0522 15:20:33.909853  5776 net.cpp:406] relu2 <- conv2
I0522 15:20:33.909860  5776 net.cpp:367] relu2 -> conv2 (in-place)
I0522 15:20:33.909998  5776 net.cpp:122] Setting up relu2
I0522 15:20:33.910007  5776 net.cpp:129] Top shape: 50 256 28 28 (10035200)
I0522 15:20:33.910012  5776 net.cpp:137] Memory required for data: 261727200
I0522 15:20:33.910015  5776 layer_factory.hpp:77] Creating layer pool2
I0522 15:20:33.910022  5776 net.cpp:84] Creating Layer pool2
I0522 15:20:33.910027  5776 net.cpp:406] pool2 <- conv2
I0522 15:20:33.910032  5776 net.cpp:380] pool2 -> pool2
I0522 15:20:33.910069  5776 net.cpp:122] Setting up pool2
I0522 15:20:33.910076  5776 net.cpp:129] Top shape: 50 256 14 14 (2508800)
I0522 15:20:33.910080  5776 net.cpp:137] Memory required for data: 271762400
I0522 15:20:33.910084  5776 layer_factory.hpp:77] Creating layer norm2
I0522 15:20:33.910092  5776 net.cpp:84] Creating Layer norm2
I0522 15:20:33.910097  5776 net.cpp:406] norm2 <- pool2
I0522 15:20:33.910102  5776 net.cpp:380] norm2 -> norm2
I0522 15:20:33.910251  5776 net.cpp:122] Setting up norm2
I0522 15:20:33.910261  5776 net.cpp:129] Top shape: 50 256 14 14 (2508800)
I0522 15:20:33.910265  5776 net.cpp:137] Memory required for data: 281797600
I0522 15:20:33.910269  5776 layer_factory.hpp:77] Creating layer conv3
I0522 15:20:33.910279  5776 net.cpp:84] Creating Layer conv3
I0522 15:20:33.910295  5776 net.cpp:406] conv3 <- norm2
I0522 15:20:33.910300  5776 net.cpp:380] conv3 -> conv3
I0522 15:20:33.921759  5776 net.cpp:122] Setting up conv3
I0522 15:20:33.921782  5776 net.cpp:129] Top shape: 50 384 14 14 (3763200)
I0522 15:20:33.921787  5776 net.cpp:137] Memory required for data: 296850400
I0522 15:20:33.921798  5776 layer_factory.hpp:77] Creating layer relu3
I0522 15:20:33.921808  5776 net.cpp:84] Creating Layer relu3
I0522 15:20:33.921818  5776 net.cpp:406] relu3 <- conv3
I0522 15:20:33.921824  5776 net.cpp:367] relu3 -> conv3 (in-place)
I0522 15:20:33.921963  5776 net.cpp:122] Setting up relu3
I0522 15:20:33.921973  5776 net.cpp:129] Top shape: 50 384 14 14 (3763200)
I0522 15:20:33.921977  5776 net.cpp:137] Memory required for data: 311903200
I0522 15:20:33.921979  5776 layer_factory.hpp:77] Creating layer pool5
I0522 15:20:33.921985  5776 net.cpp:84] Creating Layer pool5
I0522 15:20:33.921989  5776 net.cpp:406] pool5 <- conv3
I0522 15:20:33.921995  5776 net.cpp:380] pool5 -> pool5
I0522 15:20:33.922039  5776 net.cpp:122] Setting up pool5
I0522 15:20:33.922047  5776 net.cpp:129] Top shape: 50 384 7 7 (940800)
I0522 15:20:33.922050  5776 net.cpp:137] Memory required for data: 315666400
I0522 15:20:33.922053  5776 layer_factory.hpp:77] Creating layer fc6
I0522 15:20:33.922060  5776 net.cpp:84] Creating Layer fc6
I0522 15:20:33.922065  5776 net.cpp:406] fc6 <- pool5
I0522 15:20:33.922070  5776 net.cpp:380] fc6 -> fc6
I0522 15:20:34.029896  5776 net.cpp:122] Setting up fc6
I0522 15:20:34.029927  5776 net.cpp:129] Top shape: 50 512 (25600)
I0522 15:20:34.029929  5776 net.cpp:137] Memory required for data: 315768800
I0522 15:20:34.029940  5776 layer_factory.hpp:77] Creating layer relu6
I0522 15:20:34.029950  5776 net.cpp:84] Creating Layer relu6
I0522 15:20:34.029955  5776 net.cpp:406] relu6 <- fc6
I0522 15:20:34.029961  5776 net.cpp:367] relu6 -> fc6 (in-place)
I0522 15:20:34.030732  5776 net.cpp:122] Setting up relu6
I0522 15:20:34.030743  5776 net.cpp:129] Top shape: 50 512 (25600)
I0522 15:20:34.030758  5776 net.cpp:137] Memory required for data: 315871200
I0522 15:20:34.030761  5776 layer_factory.hpp:77] Creating layer drop6
I0522 15:20:34.030768  5776 net.cpp:84] Creating Layer drop6
I0522 15:20:34.030771  5776 net.cpp:406] drop6 <- fc6
I0522 15:20:34.030797  5776 net.cpp:367] drop6 -> fc6 (in-place)
I0522 15:20:34.030828  5776 net.cpp:122] Setting up drop6
I0522 15:20:34.030836  5776 net.cpp:129] Top shape: 50 512 (25600)
I0522 15:20:34.030838  5776 net.cpp:137] Memory required for data: 315973600
I0522 15:20:34.030843  5776 layer_factory.hpp:77] Creating layer fc7
I0522 15:20:34.030849  5776 net.cpp:84] Creating Layer fc7
I0522 15:20:34.030853  5776 net.cpp:406] fc7 <- fc6
I0522 15:20:34.030858  5776 net.cpp:380] fc7 -> fc7
I0522 15:20:34.033624  5776 net.cpp:122] Setting up fc7
I0522 15:20:34.033634  5776 net.cpp:129] Top shape: 50 512 (25600)
I0522 15:20:34.033638  5776 net.cpp:137] Memory required for data: 316076000
I0522 15:20:34.033648  5776 layer_factory.hpp:77] Creating layer relu7
I0522 15:20:34.033655  5776 net.cpp:84] Creating Layer relu7
I0522 15:20:34.033658  5776 net.cpp:406] relu7 <- fc7
I0522 15:20:34.033663  5776 net.cpp:367] relu7 -> fc7 (in-place)
I0522 15:20:34.033793  5776 net.cpp:122] Setting up relu7
I0522 15:20:34.033802  5776 net.cpp:129] Top shape: 50 512 (25600)
I0522 15:20:34.033805  5776 net.cpp:137] Memory required for data: 316178400
I0522 15:20:34.033808  5776 layer_factory.hpp:77] Creating layer drop7
I0522 15:20:34.033818  5776 net.cpp:84] Creating Layer drop7
I0522 15:20:34.033823  5776 net.cpp:406] drop7 <- fc7
I0522 15:20:34.033828  5776 net.cpp:367] drop7 -> fc7 (in-place)
I0522 15:20:34.033849  5776 net.cpp:122] Setting up drop7
I0522 15:20:34.033855  5776 net.cpp:129] Top shape: 50 512 (25600)
I0522 15:20:34.033859  5776 net.cpp:137] Memory required for data: 316280800
I0522 15:20:34.033861  5776 layer_factory.hpp:77] Creating layer fc8
I0522 15:20:34.033867  5776 net.cpp:84] Creating Layer fc8
I0522 15:20:34.033870  5776 net.cpp:406] fc8 <- fc7
I0522 15:20:34.033875  5776 net.cpp:380] fc8 -> fc8
I0522 15:20:34.033962  5776 net.cpp:122] Setting up fc8
I0522 15:20:34.033969  5776 net.cpp:129] Top shape: 50 2 (100)
I0522 15:20:34.033973  5776 net.cpp:137] Memory required for data: 316281200
I0522 15:20:34.033979  5776 layer_factory.hpp:77] Creating layer loss
I0522 15:20:34.033987  5776 net.cpp:84] Creating Layer loss
I0522 15:20:34.033990  5776 net.cpp:406] loss <- fc8
I0522 15:20:34.033994  5776 net.cpp:406] loss <- label
I0522 15:20:34.034000  5776 net.cpp:380] loss -> loss
I0522 15:20:34.034010  5776 layer_factory.hpp:77] Creating layer loss
…
I0522 15:20:34.034780  5776 net.cpp:51] Initializing net from parameters: 
name: "CaffeNet"
state {
  phase: TEST
}
layer {
  name: "data"
  type: "Data"
  top: "data"
  top: "label"
  include {
    phase: TEST
  }
  transform_param {
    mirror: false
    crop_size: 227
    mean_file: "/home/k/PycharmProjects/AgeGenderDeepLearning-master/Folds/lmdb/Test_fold_is_4/mean.binaryproto"
  }
  data_param {
    source: "/home/k/PycharmProjects/AgeGenderDeepLearning-master/Folds/lmdb/Test_fold_is_4/gender_val_lmdb"
    batch_size: 50
    backend: LMDB
  }
}
layer {
  name: "conv1"
  type: "Convolution"
  bottom: "data"
  top: "conv1"
  param {
    lr_mult: 1
    decay_mult: 1
  }
  param {
    lr_mult: 2
    decay_mult: 0
  }
  convolution_param {
    num_output: 96
    kernel_size: 7
    stride: 4
    weight_filler {
      type: "gaussian"
      std: 0.01
    }
    bias_filler {
      type: "constant"
      value: 0
    }
  }
}
layer {
  name: "relu1"
  type: "ReLU"
  bottom: "conv1"
  top: "conv1"
}
layer {
  name: "pool1"
  type: "Pooling"
  bottom: "conv1"
  top: "pool1"
  pooling_param {
    pool: MAX
    kernel_size: 3
    stride: 2
  }
}
layer {
  name: "norm1"
  type: "LRN"
  bottom: "pool1"
  top: "norm1"
  lrn_param {
    local_size: 5
    alpha: 0.0001
    beta: 0.75
  }
}
layer {
  name: "conv2"
  type: "Convolution"
  bottom: "norm1"
  top: "conv2"
  param {
    lr_mult: 1
    decay_mult: 1
  }
  param {
    lr_mult: 2
    decay_mult: 0
  }
  convolution_param {
    num_output: 256
    pad: 2
    kernel_size: 5
    weight_filler {
      type: "gaussian"
      std: 0.01
    }
    bias_filler {
      type: "constant"
      value: 1
    }
  }
}
layer {
  name: "relu2"
  type: "ReLU"
  bottom: "conv2"
  top: "conv2"
}
layer {
  name: "pool2"
  type: "Pooling"
  bottom: "conv2"
  top: "pool2"
  pooling_param {
    pool: MAX
    kernel_size: 3
    stride: 2
  }
}
layer {
  name: "norm2"
  type: "LRN"
  bottom: "pool2"
  top: "norm2"
  lrn_param {
    local_size: 5
    alpha: 0.0001
    beta: 0.75
  }
}
layer {
  name: "conv3"
  type: "Convolution"
  bottom: "norm2"
  top: "conv3"
  param {
    lr_mult: 1
    decay_mult: 1
  }
  param {
    lr_mult: 2
    decay_mult: 0
  }
  convolution_param {
    num_output: 384
    pad: 1
    kernel_size: 3
    weight_filler {
      type: "gaussian"
      std: 0.01
    }
    bias_filler {
      type: "constant"
      value: 0
    }
  }
}
layer {
  name: "relu3"
  type: "ReLU"
  bottom: "conv3"
  top: "conv3"
}
layer {
  name: "pool5"
  type: "Pooling"
  bottom: "conv3"
  top: "pool5"
  pooling_param {
    pool: MAX
    kernel_size: 3
    stride: 2
  }
}
layer {
  name: "fc6"
  type: "InnerProduct"
  bottom: "pool5"
  top: "fc6"
  param {
    lr_mult: 1
    decay_mult: 1
  }
  param {
    lr_mult: 2
    decay_mult: 0
  }
  inner_product_param {
    num_output: 512
    weight_filler {
      type: "gaussian"
      std: 0.005
    }
    bias_filler {
      type: "constant"
      value: 1
    }
  }
}
layer {
  name: "relu6"
  type: "ReLU"
  bottom: "fc6"
  top: "fc6"
}
layer {
  name: "drop6"
  type: "Dropout"
  bottom: "fc6"
  top: "fc6"
  dropout_param {
    dropout_ratio: 0.5
  }
}
layer {
  name: "fc7"
  type: "InnerProduct"
  bottom: "fc6"
  top: "fc7"
  param {
    lr_mult: 1
    decay_mult: 1
  }
  param {
    lr_mult: 2
    decay_mult: 0
  }
  inner_product_param {
    num_output: 512
    weight_filler {
      type: "gaussian"
      std: 0.005
    }
    bias_filler {
      type: "constant"
      value: 1
    }
  }
}
layer {
  name: "relu7"
  type: "ReLU"
  bottom: "fc7"
  top: "fc7"
}
layer {
  name: "drop7"
  type: "Dropout"
  bottom: "fc7"
  top: "fc7"
  dropout_param {
    dropout_ratio: 0.5
  }
}
layer {
  name: "fc8"
  type: "InnerProduct"
  bottom: "fc7"
  top: "fc8"
  param {
    lr_mult: 10
    decay_mult: 1
  }
  param {
    lr_mult: 20
    decay_mult: 0
  }
  inner_product_param {
    num_output: 2
    weight_filler {
      type: "gaussian"
      std: 0.01
    }
    bias_filler {
      type: "constant"
      value: 0
    }
  }
}
layer {
  name: "accuracy"
  type: "Accuracy"
  bottom: "fc8"
  bottom: "label"
  top: "accuracy"
  include {
    phase: TEST
  }
}
layer {
  name: "loss"
  type: "SoftmaxWithLoss"
  bottom: "fc8"
  bottom: "label"
  top: "loss"
}
I0522 15:20:34.034859  5776 layer_factory.hpp:77] Creating layer data
I0522 15:20:34.034919  5776 db_lmdb.cpp:35] Opened lmdb /home/k/PycharmProjects/AgeGenderDeepLearning-master/Folds/lmdb/Test_fold_is_4/gender_val_lmdb
I0522 15:20:34.034934  5776 net.cpp:84] Creating Layer data
I0522 15:20:34.034940  5776 net.cpp:380] data -> data
I0522 15:20:34.034947  5776 net.cpp:380] data -> label
I0522 15:20:34.034955  5776 data_transformer.cpp:25] Loading mean file from: /home/k/PycharmProjects/AgeGenderDeepLearning-master/Folds/lmdb/Test_fold_is_4/mean.binaryproto
I0522 15:20:34.064954  5776 data_layer.cpp:45] output data size: 50,3,227,227
I0522 15:20:34.134778  5776 net.cpp:122] Setting up data
I0522 15:20:34.134817  5776 net.cpp:129] Top shape: 50 3 227 227 (7729350)
I0522 15:20:34.134824  5776 net.cpp:129] Top shape: 50 (50)
I0522 15:20:34.134826  5776 net.cpp:137] Memory required for data: 30917600
I0522 15:20:34.134832  5776 layer_factory.hpp:77] Creating layer label_data_1_split
I0522 15:20:34.134845  5776 net.cpp:84] Creating Layer label_data_1_split
I0522 15:20:34.134850  5776 net.cpp:406] label_data_1_split <- label
I0522 15:20:34.134858  5776 net.cpp:380] label_data_1_split -> label_data_1_split_0
I0522 15:20:34.134869  5776 net.cpp:380] label_data_1_split -> label_data_1_split_1
I0522 15:20:34.134932  5776 net.cpp:122] Setting up label_data_1_split
I0522 15:20:34.134951  5776 net.cpp:129] Top shape: 50 (50)
I0522 15:20:34.134955  5776 net.cpp:129] Top shape: 50 (50)
I0522 15:20:34.134959  5776 net.cpp:137] Memory required for data: 30918000
I0522 15:20:34.134963  5776 layer_factory.hpp:77] Creating layer conv1
I0522 15:20:34.134976  5776 net.cpp:84] Creating Layer conv1
I0522 15:20:34.134981  5776 net.cpp:406] conv1 <- data
I0522 15:20:34.134987  5776 net.cpp:380] conv1 -> conv1
I0522 15:20:34.141233  5776 net.cpp:122] Setting up conv1
I0522 15:20:34.141260  5776 net.cpp:129] Top shape: 50 96 56 56 (15052800)
I0522 15:20:34.141265  5776 net.cpp:137] Memory required for data: 91129200
I0522 15:20:34.141279  5776 layer_factory.hpp:77] Creating layer relu1
I0522 15:20:34.141289  5776 net.cpp:84] Creating Layer relu1
I0522 15:20:34.141294  5776 net.cpp:406] relu1 <- conv1
I0522 15:20:34.141300  5776 net.cpp:367] relu1 -> conv1 (in-place)
I0522 15:20:34.141448  5776 net.cpp:122] Setting up relu1
I0522 15:20:34.141458  5776 net.cpp:129] Top shape: 50 96 56 56 (15052800)
I0522 15:20:34.141460  5776 net.cpp:137] Memory required for data: 151340400
I0522 15:20:34.141464  5776 layer_factory.hpp:77] Creating layer pool1
I0522 15:20:34.141471  5776 net.cpp:84] Creating Layer pool1
I0522 15:20:34.141476  5776 net.cpp:406] pool1 <- conv1
I0522 15:20:34.141481  5776 net.cpp:380] pool1 -> pool1
I0522 15:20:34.141518  5776 net.cpp:122] Setting up pool1
I0522 15:20:34.141527  5776 net.cpp:129] Top shape: 50 96 28 28 (3763200)
I0522 15:20:34.141530  5776 net.cpp:137] Memory required for data: 166393200
I0522 15:20:34.141533  5776 layer_factory.hpp:77] Creating layer norm1
I0522 15:20:34.141541  5776 net.cpp:84] Creating Layer norm1
I0522 15:20:34.141543  5776 net.cpp:406] norm1 <- pool1
I0522 15:20:34.141548  5776 net.cpp:380] norm1 -> norm1
I0522 15:20:34.142293  5776 net.cpp:122] Setting up norm1
I0522 15:20:34.142305  5776 net.cpp:129] Top shape: 50 96 28 28 (3763200)
I0522 15:20:34.142309  5776 net.cpp:137] Memory required for data: 181446000
I0522 15:20:34.142313  5776 layer_factory.hpp:77] Creating layer conv2
I0522 15:20:34.142323  5776 net.cpp:84] Creating Layer conv2
I0522 15:20:34.142328  5776 net.cpp:406] conv2 <- norm1
I0522 15:20:34.142334  5776 net.cpp:380] conv2 -> conv2
I0522 15:20:34.149955  5776 net.cpp:122] Setting up conv2
I0522 15:20:34.149973  5776 net.cpp:129] Top shape: 50 256 28 28 (10035200)
I0522 15:20:34.149976  5776 net.cpp:137] Memory required for data: 221586800
I0522 15:20:34.149986  5776 layer_factory.hpp:77] Creating layer relu2
I0522 15:20:34.149994  5776 net.cpp:84] Creating Layer relu2
I0522 15:20:34.149997  5776 net.cpp:406] relu2 <- conv2
I0522 15:20:34.150003  5776 net.cpp:367] relu2 -> conv2 (in-place)
I0522 15:20:34.150657  5776 net.cpp:122] Setting up relu2
I0522 15:20:34.150668  5776 net.cpp:129] Top shape: 50 256 28 28 (10035200)
I0522 15:20:34.150672  5776 net.cpp:137] Memory required for data: 261727600
I0522 15:20:34.150676  5776 layer_factory.hpp:77] Creating layer pool2
I0522 15:20:34.150683  5776 net.cpp:84] Creating Layer pool2
I0522 15:20:34.150687  5776 net.cpp:406] pool2 <- conv2
I0522 15:20:34.150692  5776 net.cpp:380] pool2 -> pool2
I0522 15:20:34.150732  5776 net.cpp:122] Setting up pool2
I0522 15:20:34.150740  5776 net.cpp:129] Top shape: 50 256 14 14 (2508800)
I0522 15:20:34.150744  5776 net.cpp:137] Memory required for data: 271762800
I0522 15:20:34.150748  5776 layer_factory.hpp:77] Creating layer norm2
I0522 15:20:34.150753  5776 net.cpp:84] Creating Layer norm2
I0522 15:20:34.150758  5776 net.cpp:406] norm2 <- pool2
I0522 15:20:34.150763  5776 net.cpp:380] norm2 -> norm2
I0522 15:20:34.150918  5776 net.cpp:122] Setting up norm2
I0522 15:20:34.150928  5776 net.cpp:129] Top shape: 50 256 14 14 (2508800)
I0522 15:20:34.150933  5776 net.cpp:137] Memory required for data: 281798000
I0522 15:20:34.150935  5776 layer_factory.hpp:77] Creating layer conv3
I0522 15:20:34.150944  5776 net.cpp:84] Creating Layer conv3
I0522 15:20:34.150949  5776 net.cpp:406] conv3 <- norm2
I0522 15:20:34.150954  5776 net.cpp:380] conv3 -> conv3
I0522 15:20:34.162657  5776 net.cpp:122] Setting up conv3
I0522 15:20:34.162684  5776 net.cpp:129] Top shape: 50 384 14 14 (3763200)
I0522 15:20:34.162688  5776 net.cpp:137] Memory required for data: 296850800
I0522 15:20:34.162703  5776 layer_factory.hpp:77] Creating layer relu3
I0522 15:20:34.162711  5776 net.cpp:84] Creating Layer relu3
I0522 15:20:34.162717  5776 net.cpp:406] relu3 <- conv3
I0522 15:20:34.162724  5776 net.cpp:367] relu3 -> conv3 (in-place)
I0522 15:20:34.162869  5776 net.cpp:122] Setting up relu3
I0522 15:20:34.162879  5776 net.cpp:129] Top shape: 50 384 14 14 (3763200)
I0522 15:20:34.162884  5776 net.cpp:137] Memory required for data: 311903600
I0522 15:20:34.162888  5776 layer_factory.hpp:77] Creating layer pool5
I0522 15:20:34.162894  5776 net.cpp:84] Creating Layer pool5
I0522 15:20:34.162897  5776 net.cpp:406] pool5 <- conv3
I0522 15:20:34.162902  5776 net.cpp:380] pool5 -> pool5
I0522 15:20:34.162948  5776 net.cpp:122] Setting up pool5
I0522 15:20:34.162956  5776 net.cpp:129] Top shape: 50 384 7 7 (940800)
I0522 15:20:34.162959  5776 net.cpp:137] Memory required for data: 315666800
I0522 15:20:34.162962  5776 layer_factory.hpp:77] Creating layer fc6
I0522 15:20:34.162969  5776 net.cpp:84] Creating Layer fc6
I0522 15:20:34.162973  5776 net.cpp:406] fc6 <- pool5
I0522 15:20:34.162978  5776 net.cpp:380] fc6 -> fc6
I0522 15:20:34.269783  5776 net.cpp:122] Setting up fc6
I0522 15:20:34.269834  5776 net.cpp:129] Top shape: 50 512 (25600)
I0522 15:20:34.269840  5776 net.cpp:137] Memory required for data: 315769200
I0522 15:20:34.269850  5776 layer_factory.hpp:77] Creating layer relu6
I0522 15:20:34.269860  5776 net.cpp:84] Creating Layer relu6
I0522 15:20:34.269865  5776 net.cpp:406] relu6 <- fc6
I0522 15:20:34.269872  5776 net.cpp:367] relu6 -> fc6 (in-place)
I0522 15:20:34.270118  5776 net.cpp:122] Setting up relu6
I0522 15:20:34.270128  5776 net.cpp:129] Top shape: 50 512 (25600)
I0522 15:20:34.270143  5776 net.cpp:137] Memory required for data: 315871600
I0522 15:20:34.270146  5776 layer_factory.hpp:77] Creating layer drop6
I0522 15:20:34.270153  5776 net.cpp:84] Creating Layer drop6
I0522 15:20:34.270156  5776 net.cpp:406] drop6 <- fc6
I0522 15:20:34.270161  5776 net.cpp:367] drop6 -> fc6 (in-place)
I0522 15:20:34.270190  5776 net.cpp:122] Setting up drop6
I0522 15:20:34.270196  5776 net.cpp:129] Top shape: 50 512 (25600)
I0522 15:20:34.270200  5776 net.cpp:137] Memory required for data: 315974000
I0522 15:20:34.270202  5776 layer_factory.hpp:77] Creating layer fc7
I0522 15:20:34.270212  5776 net.cpp:84] Creating Layer fc7
I0522 15:20:34.270215  5776 net.cpp:406] fc7 <- fc6
I0522 15:20:34.270221  5776 net.cpp:380] fc7 -> fc7
I0522 15:20:34.273286  5776 net.cpp:122] Setting up fc7
I0522 15:20:34.273310  5776 net.cpp:129] Top shape: 50 512 (25600)
I0522 15:20:34.273313  5776 net.cpp:137] Memory required for data: 316076400
I0522 15:20:34.273329  5776 layer_factory.hpp:77] Creating layer relu7
I0522 15:20:34.273337  5776 net.cpp:84] Creating Layer relu7
I0522 15:20:34.273341  5776 net.cpp:406] relu7 <- fc7
I0522 15:20:34.273349  5776 net.cpp:367] relu7 -> fc7 (in-place)
I0522 15:20:34.274296  5776 net.cpp:122] Setting up relu7
I0522 15:20:34.274312  5776 net.cpp:129] Top shape: 50 512 (25600)
I0522 15:20:34.274315  5776 net.cpp:137] Memory required for data: 316178800
I0522 15:20:34.274332  5776 layer_factory.hpp:77] Creating layer drop7
I0522 15:20:34.274340  5776 net.cpp:84] Creating Layer drop7
I0522 15:20:34.274344  5776 net.cpp:406] drop7 <- fc7
I0522 15:20:34.274350  5776 net.cpp:367] drop7 -> fc7 (in-place)
I0522 15:20:34.274384  5776 net.cpp:122] Setting up drop7
I0522 15:20:34.274394  5776 net.cpp:129] Top shape: 50 512 (25600)
I0522 15:20:34.274399  5776 net.cpp:137] Memory required for data: 316281200
I0522 15:20:34.274407  5776 layer_factory.hpp:77] Creating layer fc8
I0522 15:20:34.274420  5776 net.cpp:84] Creating Layer fc8
I0522 15:20:34.274435  5776 net.cpp:406] fc8 <- fc7
I0522 15:20:34.274446  5776 net.cpp:380] fc8 -> fc8
I0522 15:20:34.274560  5776 net.cpp:122] Setting up fc8
I0522 15:20:34.274571  5776 net.cpp:129] Top shape: 50 2 (100)
I0522 15:20:34.274576  5776 net.cpp:137] Memory required for data: 316281600
I0522 15:20:34.274590  5776 layer_factory.hpp:77] Creating layer fc8_fc8_0_split
I0522 15:20:34.274601  5776 net.cpp:84] Creating Layer fc8_fc8_0_split
I0522 15:20:34.274611  5776 net.cpp:406] fc8_fc8_0_split <- fc8
I0522 15:20:34.274621  5776 net.cpp:380] fc8_fc8_0_split -> fc8_fc8_0_split_0
I0522 15:20:34.274636  5776 net.cpp:380] fc8_fc8_0_split -> fc8_fc8_0_split_1
I0522 15:20:34.274679  5776 net.cpp:122] Setting up fc8_fc8_0_split
I0522 15:20:34.274690  5776 net.cpp:129] Top shape: 50 2 (100)
I0522 15:20:34.274698  5776 net.cpp:129] Top shape: 50 2 (100)
I0522 15:20:34.274706  5776 net.cpp:137] Memory required for data: 316282400
I0522 15:20:34.274713  5776 layer_factory.hpp:77] Creating layer accuracy
I0522 15:20:34.274725  5776 net.cpp:84] Creating Layer accuracy
I0522 15:20:34.274734  5776 net.cpp:406] accuracy <- fc8_fc8_0_split_0
I0522 15:20:34.274741  5776 net.cpp:406] accuracy <- label_data_1_split_0
I0522 15:20:34.274752  5776 net.cpp:380] accuracy -> accuracy
…
