…
I0521 16:31:04.274885 14436 net.cpp:51] Initializing net from parameters: 
name: "CaffeNet"
state {
  phase: TRAIN
  level: 0
  stage: ""
}
layer {
  name: "data"
  type: "Data"
  top: "data"
  top: "label"
  include {
    phase: TRAIN
  }
  transform_param {
    mirror: true
    crop_size: 227
    mean_file: "/home/k/PycharmProjects/AgeGenderDeepLearning-master/Folds/lmdb/Test_fold_is_1/mean.binaryproto"
  }
  data_param {
    source: "/home/k/PycharmProjects/AgeGenderDeepLearning-master/Folds/lmdb/Test_fold_is_1/age_train_lmdb"
    batch_size: 50
    backend: LMDB
  }
}
layer {
  name: "conv1"
  type: "Convolution"
  bottom: "data"
  top: "conv1"
  param {
    lr_mult: 1
    decay_mult: 1
  }
  param {
    lr_mult: 2
    decay_mult: 0
  }
  convolution_param {
    num_output: 96
    kernel_size: 7
    stride: 4
    weight_filler {
      type: "gaussian"
      std: 0.01
    }
    bias_filler {
      type: "constant"
      value: 0
    }
  }
}
layer {
  name: "relu1"
  type: "ReLU"
  bottom: "conv1"
  top: "conv1"
}
layer {
  name: "pool1"
  type: "Pooling"
  bottom: "conv1"
  top: "pool1"
  pooling_param {
    pool: MAX
    kernel_size: 3
    stride: 2
  }
}
layer {
  name: "norm1"
  type: "LRN"
  bottom: "pool1"
  top: "norm1"
  lrn_param {
    local_size: 5
    alpha: 0.0001
    beta: 0.75
  }
}
layer {
  name: "conv2"
  type: "Convolution"
  bottom: "norm1"
  top: "conv2"
  param {
    lr_mult: 1
    decay_mult: 1
  }
  param {
    lr_mult: 2
    decay_mult: 0
  }
  convolution_param {
    num_output: 256
    pad: 2
    kernel_size: 5
    weight_filler {
      type: "gaussian"
      std: 0.01
    }
    bias_filler {
      type: "constant"
      value: 1
    }
  }
}
layer {
  name: "relu2"
  type: "ReLU"
  bottom: "conv2"
  top: "conv2"
}
layer {
  name: "pool2"
  type: "Pooling"
  bottom: "conv2"
  top: "pool2"
  pooling_param {
    pool: MAX
    kernel_size: 3
    stride: 2
  }
}
layer {
  name: "norm2"
  type: "LRN"
  bottom: "pool2"
  top: "norm2"
  lrn_param {
    local_size: 5
    alpha: 0.0001
    beta: 0.75
  }
}
layer {
  name: "conv3"
  type: "Convolution"
  bottom: "norm2"
  top: "conv3"
  param {
    lr_mult: 1
    decay_mult: 1
  }
  param {
    lr_mult: 2
    decay_mult: 0
  }
  convolution_param {
    num_output: 384
    pad: 1
    kernel_size: 3
    weight_filler {
      type: "gaussian"
      std: 0.01
    }
    bias_filler {
      type: "constant"
      value: 0
    }
  }
}
layer {
  name: "relu3"
  type: "ReLU"
  bottom: "conv3"
  top: "conv3"
}
layer {
  name: "pool5"
  type: "Pooling"
  bottom: "conv3"
  top: "pool5"
  pooling_param {
    pool: MAX
    kernel_size: 3
    stride: 2
  }
}
layer {
  name: "fc6"
  type: "InnerProduct"
  bottom: "pool5"
  top: "fc6"
  param {
    lr_mult: 1
    decay_mult: 1
  }
  param {
    lr_mult: 2
    decay_mult: 0
  }
  inner_product_param {
    num_output: 512
    weight_filler {
      type: "gaussian"
      std: 0.005
    }
    bias_filler {
      type: "constant"
      value: 1
    }
  }
}
layer {
  name: "relu6"
  type: "ReLU"
  bottom: "fc6"
  top: "fc6"
}
layer {
  name: "drop6"
  type: "Dropout"
  bottom: "fc6"
  top: "fc6"
  dropout_param {
    dropout_ratio: 0.5
  }
}
layer {
  name: "fc7"
  type: "InnerProduct"
  bottom: "fc6"
  top: "fc7"
  param {
    lr_mult: 1
    decay_mult: 1
  }
  param {
    lr_mult: 2
    decay_mult: 0
  }
  inner_product_param {
    num_output: 512
    weight_filler {
      type: "gaussian"
      std: 0.005
    }
    bias_filler {
      type: "constant"
      value: 1
    }
  }
}
layer {
  name: "relu7"
  type: "ReLU"
  bottom: "fc7"
  top: "fc7"
}
layer {
  name: "drop7"
  type: "Dropout"
  bottom: "fc7"
  top: "fc7"
  dropout_param {
    dropout_ratio: 0.5
  }
}
layer {
  name: "fc8"
  type: "InnerProduct"
  bottom: "fc7"
  top: "fc8"
  param {
    lr_mult: 10
    decay_mult: 1
  }
  param {
    lr_mult: 20
    decay_mult: 0
  }
  inner_product_param {
    num_output: 8
    weight_filler {
      type: "gaussian"
      std: 0.01
    }
    bias_filler {
      type: "constant"
      value: 0
    }
  }
}
layer {
  name: "loss"
  type: "SoftmaxWithLoss"
  bottom: "fc8"
  bottom: "label"
  top: "loss"
}
I0521 16:31:04.275063 14436 layer_factory.hpp:77] Creating layer data
I0521 16:31:04.307209 14436 db_lmdb.cpp:35] Opened lmdb /home/k/PycharmProjects/AgeGenderDeepLearning-master/Folds/lmdb/Test_fold_is_1/age_train_lmdb
I0521 16:31:04.323545 14436 net.cpp:84] Creating Layer data
I0521 16:31:04.323571 14436 net.cpp:380] data -> data
I0521 16:31:04.323601 14436 net.cpp:380] data -> label
I0521 16:31:04.323626 14436 data_transformer.cpp:25] Loading mean file from: /home/k/PycharmProjects/AgeGenderDeepLearning-master/Folds/lmdb/Test_fold_is_1/mean.binaryproto
I0521 16:31:04.339817 14436 data_layer.cpp:45] output data size: 50,3,227,227
I0521 16:31:04.422191 14436 net.cpp:122] Setting up data
I0521 16:31:04.422230 14436 net.cpp:129] Top shape: 50 3 227 227 (7729350)
I0521 16:31:04.422247 14436 net.cpp:129] Top shape: 50 (50)
I0521 16:31:04.422251 14436 net.cpp:137] Memory required for data: 30917600
I0521 16:31:04.422262 14436 layer_factory.hpp:77] Creating layer conv1
I0521 16:31:04.422287 14436 net.cpp:84] Creating Layer conv1
I0521 16:31:04.422300 14436 net.cpp:406] conv1 <- data
I0521 16:31:04.422322 14436 net.cpp:380] conv1 -> conv1
I0521 16:31:04.678318 14436 net.cpp:122] Setting up conv1
I0521 16:31:04.678345 14436 net.cpp:129] Top shape: 50 96 56 56 (15052800)
I0521 16:31:04.678349 14436 net.cpp:137] Memory required for data: 91128800
I0521 16:31:04.678385 14436 layer_factory.hpp:77] Creating layer relu1
I0521 16:31:04.678406 14436 net.cpp:84] Creating Layer relu1
I0521 16:31:04.678416 14436 net.cpp:406] relu1 <- conv1
I0521 16:31:04.678424 14436 net.cpp:367] relu1 -> conv1 (in-place)
I0521 16:31:04.678580 14436 net.cpp:122] Setting up relu1
I0521 16:31:04.678589 14436 net.cpp:129] Top shape: 50 96 56 56 (15052800)
I0521 16:31:04.678594 14436 net.cpp:137] Memory required for data: 151340000
I0521 16:31:04.678597 14436 layer_factory.hpp:77] Creating layer pool1
I0521 16:31:04.678616 14436 net.cpp:84] Creating Layer pool1
I0521 16:31:04.678619 14436 net.cpp:406] pool1 <- conv1
I0521 16:31:04.678624 14436 net.cpp:380] pool1 -> pool1
I0521 16:31:04.678678 14436 net.cpp:122] Setting up pool1
I0521 16:31:04.678688 14436 net.cpp:129] Top shape: 50 96 28 28 (3763200)
I0521 16:31:04.678690 14436 net.cpp:137] Memory required for data: 166392800
I0521 16:31:04.678694 14436 layer_factory.hpp:77] Creating layer norm1
I0521 16:31:04.678702 14436 net.cpp:84] Creating Layer norm1
I0521 16:31:04.678706 14436 net.cpp:406] norm1 <- pool1
I0521 16:31:04.678711 14436 net.cpp:380] norm1 -> norm1
I0521 16:31:04.679396 14436 net.cpp:122] Setting up norm1
I0521 16:31:04.679407 14436 net.cpp:129] Top shape: 50 96 28 28 (3763200)
I0521 16:31:04.679411 14436 net.cpp:137] Memory required for data: 181445600
I0521 16:31:04.679414 14436 layer_factory.hpp:77] Creating layer conv2
I0521 16:31:04.679438 14436 net.cpp:84] Creating Layer conv2
I0521 16:31:04.679442 14436 net.cpp:406] conv2 <- norm1
I0521 16:31:04.679461 14436 net.cpp:380] conv2 -> conv2
I0521 16:31:04.688215 14436 net.cpp:122] Setting up conv2
I0521 16:31:04.688238 14436 net.cpp:129] Top shape: 50 256 28 28 (10035200)
I0521 16:31:04.688242 14436 net.cpp:137] Memory required for data: 221586400
I0521 16:31:04.688267 14436 layer_factory.hpp:77] Creating layer relu2
I0521 16:31:04.688282 14436 net.cpp:84] Creating Layer relu2
I0521 16:31:04.688287 14436 net.cpp:406] relu2 <- conv2
I0521 16:31:04.688293 14436 net.cpp:367] relu2 -> conv2 (in-place)
I0521 16:31:04.688477 14436 net.cpp:122] Setting up relu2
I0521 16:31:04.688488 14436 net.cpp:129] Top shape: 50 256 28 28 (10035200)
I0521 16:31:04.688491 14436 net.cpp:137] Memory required for data: 261727200
I0521 16:31:04.688494 14436 layer_factory.hpp:77] Creating layer pool2
I0521 16:31:04.688513 14436 net.cpp:84] Creating Layer pool2
I0521 16:31:04.688518 14436 net.cpp:406] pool2 <- conv2
I0521 16:31:04.688522 14436 net.cpp:380] pool2 -> pool2
I0521 16:31:04.688561 14436 net.cpp:122] Setting up pool2
I0521 16:31:04.688571 14436 net.cpp:129] Top shape: 50 256 14 14 (2508800)
I0521 16:31:04.688575 14436 net.cpp:137] Memory required for data: 271762400
I0521 16:31:04.688577 14436 layer_factory.hpp:77] Creating layer norm2
I0521 16:31:04.688586 14436 net.cpp:84] Creating Layer norm2
I0521 16:31:04.688591 14436 net.cpp:406] norm2 <- pool2
I0521 16:31:04.688596 14436 net.cpp:380] norm2 -> norm2
I0521 16:31:04.688760 14436 net.cpp:122] Setting up norm2
I0521 16:31:04.688771 14436 net.cpp:129] Top shape: 50 256 14 14 (2508800)
I0521 16:31:04.688774 14436 net.cpp:137] Memory required for data: 281797600
I0521 16:31:04.688777 14436 layer_factory.hpp:77] Creating layer conv3
I0521 16:31:04.688791 14436 net.cpp:84] Creating Layer conv3
I0521 16:31:04.688796 14436 net.cpp:406] conv3 <- norm2
I0521 16:31:04.688802 14436 net.cpp:380] conv3 -> conv3
I0521 16:31:04.700422 14436 net.cpp:122] Setting up conv3
I0521 16:31:04.700445 14436 net.cpp:129] Top shape: 50 384 14 14 (3763200)
I0521 16:31:04.700449 14436 net.cpp:137] Memory required for data: 296850400
I0521 16:31:04.700461 14436 layer_factory.hpp:77] Creating layer relu3
I0521 16:31:04.700472 14436 net.cpp:84] Creating Layer relu3
I0521 16:31:04.700477 14436 net.cpp:406] relu3 <- conv3
I0521 16:31:04.700484 14436 net.cpp:367] relu3 -> conv3 (in-place)
I0521 16:31:04.700642 14436 net.cpp:122] Setting up relu3
I0521 16:31:04.700654 14436 net.cpp:129] Top shape: 50 384 14 14 (3763200)
I0521 16:31:04.700670 14436 net.cpp:137] Memory required for data: 311903200
I0521 16:31:04.700673 14436 layer_factory.hpp:77] Creating layer pool5
I0521 16:31:04.700680 14436 net.cpp:84] Creating Layer pool5
I0521 16:31:04.700685 14436 net.cpp:406] pool5 <- conv3
I0521 16:31:04.700691 14436 net.cpp:380] pool5 -> pool5
I0521 16:31:04.700736 14436 net.cpp:122] Setting up pool5
I0521 16:31:04.700744 14436 net.cpp:129] Top shape: 50 384 7 7 (940800)
I0521 16:31:04.700759 14436 net.cpp:137] Memory required for data: 315666400
I0521 16:31:04.700763 14436 layer_factory.hpp:77] Creating layer fc6
I0521 16:31:04.700772 14436 net.cpp:84] Creating Layer fc6
I0521 16:31:04.700776 14436 net.cpp:406] fc6 <- pool5
I0521 16:31:04.700783 14436 net.cpp:380] fc6 -> fc6
I0521 16:31:04.804288 14436 net.cpp:122] Setting up fc6
I0521 16:31:04.804324 14436 net.cpp:129] Top shape: 50 512 (25600)
I0521 16:31:04.804327 14436 net.cpp:137] Memory required for data: 315768800
I0521 16:31:04.804338 14436 layer_factory.hpp:77] Creating layer relu6
I0521 16:31:04.804348 14436 net.cpp:84] Creating Layer relu6
I0521 16:31:04.804352 14436 net.cpp:406] relu6 <- fc6
I0521 16:31:04.804373 14436 net.cpp:367] relu6 -> fc6 (in-place)
I0521 16:31:04.805171 14436 net.cpp:122] Setting up relu6
I0521 16:31:04.805181 14436 net.cpp:129] Top shape: 50 512 (25600)
I0521 16:31:04.805184 14436 net.cpp:137] Memory required for data: 315871200
I0521 16:31:04.805187 14436 layer_factory.hpp:77] Creating layer drop6
I0521 16:31:04.805196 14436 net.cpp:84] Creating Layer drop6
I0521 16:31:04.805199 14436 net.cpp:406] drop6 <- fc6
I0521 16:31:04.805232 14436 net.cpp:367] drop6 -> fc6 (in-place)
I0521 16:31:04.805263 14436 net.cpp:122] Setting up drop6
I0521 16:31:04.805271 14436 net.cpp:129] Top shape: 50 512 (25600)
I0521 16:31:04.805275 14436 net.cpp:137] Memory required for data: 315973600
I0521 16:31:04.805289 14436 layer_factory.hpp:77] Creating layer fc7
I0521 16:31:04.805299 14436 net.cpp:84] Creating Layer fc7
I0521 16:31:04.805302 14436 net.cpp:406] fc7 <- fc6
I0521 16:31:04.805308 14436 net.cpp:380] fc7 -> fc7
I0521 16:31:04.808017 14436 net.cpp:122] Setting up fc7
I0521 16:31:04.808027 14436 net.cpp:129] Top shape: 50 512 (25600)
I0521 16:31:04.808029 14436 net.cpp:137] Memory required for data: 316076000
I0521 16:31:04.808039 14436 layer_factory.hpp:77] Creating layer relu7
I0521 16:31:04.808048 14436 net.cpp:84] Creating Layer relu7
I0521 16:31:04.808051 14436 net.cpp:406] relu7 <- fc7
I0521 16:31:04.808066 14436 net.cpp:367] relu7 -> fc7 (in-place)
I0521 16:31:04.808217 14436 net.cpp:122] Setting up relu7
I0521 16:31:04.808225 14436 net.cpp:129] Top shape: 50 512 (25600)
I0521 16:31:04.808228 14436 net.cpp:137] Memory required for data: 316178400
I0521 16:31:04.808231 14436 layer_factory.hpp:77] Creating layer drop7
I0521 16:31:04.808236 14436 net.cpp:84] Creating Layer drop7
I0521 16:31:04.808239 14436 net.cpp:406] drop7 <- fc7
I0521 16:31:04.808243 14436 net.cpp:367] drop7 -> fc7 (in-place)
I0521 16:31:04.808279 14436 net.cpp:122] Setting up drop7
I0521 16:31:04.808285 14436 net.cpp:129] Top shape: 50 512 (25600)
I0521 16:31:04.808289 14436 net.cpp:137] Memory required for data: 316280800
I0521 16:31:04.808291 14436 layer_factory.hpp:77] Creating layer fc8
I0521 16:31:04.808298 14436 net.cpp:84] Creating Layer fc8
I0521 16:31:04.808302 14436 net.cpp:406] fc8 <- fc7
I0521 16:31:04.808307 14436 net.cpp:380] fc8 -> fc8
I0521 16:31:04.808457 14436 net.cpp:122] Setting up fc8
I0521 16:31:04.808465 14436 net.cpp:129] Top shape: 50 8 (400)
I0521 16:31:04.808470 14436 net.cpp:137] Memory required for data: 316282400
I0521 16:31:04.808486 14436 layer_factory.hpp:77] Creating layer loss
I0521 16:31:04.808495 14436 net.cpp:84] Creating Layer loss
I0521 16:31:04.808498 14436 net.cpp:406] loss <- fc8
I0521 16:31:04.808502 14436 net.cpp:406] loss <- label
I0521 16:31:04.808508 14436 net.cpp:380] loss -> loss
I0521 16:31:04.808518 14436 layer_factory.hpp:77] Creating layer loss
…
I0521 16:31:04.809196 14436 net.cpp:294] The NetState phase (1) differed from the phase (0) specified by a rule in layer data
I0521 16:31:04.809334 14436 net.cpp:51] Initializing net from parameters: 
name: "CaffeNet"
state {
  phase: TEST
}
layer {
  name: "data"
  type: "Data"
  top: "data"
  top: "label"
  include {
    phase: TEST
  }
  transform_param {
    mirror: false
    crop_size: 227
    mean_file: "/home/k/PycharmProjects/AgeGenderDeepLearning-master/Folds/lmdb/Test_fold_is_1/mean.binaryproto"
  }
  data_param {
    source: "/home/k/PycharmProjects/AgeGenderDeepLearning-master/Folds/lmdb/Test_fold_is_1/age_val_lmdb"
    batch_size: 50
    backend: LMDB
  }
}
layer {
  name: "conv1"
  type: "Convolution"
  bottom: "data"
  top: "conv1"
  param {
    lr_mult: 1
    decay_mult: 1
  }
  param {
    lr_mult: 2
    decay_mult: 0
  }
  convolution_param {
    num_output: 96
    kernel_size: 7
    stride: 4
    weight_filler {
      type: "gaussian"
      std: 0.01
    }
    bias_filler {
      type: "constant"
      value: 0
    }
  }
}
layer {
  name: "relu1"
  type: "ReLU"
  bottom: "conv1"
  top: "conv1"
}
layer {
  name: "pool1"
  type: "Pooling"
  bottom: "conv1"
  top: "pool1"
  pooling_param {
    pool: MAX
    kernel_size: 3
    stride: 2
  }
}
layer {
  name: "norm1"
  type: "LRN"
  bottom: "pool1"
  top: "norm1"
  lrn_param {
    local_size: 5
    alpha: 0.0001
    beta: 0.75
  }
}
layer {
  name: "conv2"
  type: "Convolution"
  bottom: "norm1"
  top: "conv2"
  param {
    lr_mult: 1
    decay_mult: 1
  }
  param {
    lr_mult: 2
    decay_mult: 0
  }
  convolution_param {
    num_output: 256
    pad: 2
    kernel_size: 5
    weight_filler {
      type: "gaussian"
      std: 0.01
    }
    bias_filler {
      type: "constant"
      value: 1
    }
  }
}
layer {
  name: "relu2"
  type: "ReLU"
  bottom: "conv2"
  top: "conv2"
}
layer {
  name: "pool2"
  type: "Pooling"
  bottom: "conv2"
  top: "pool2"
  pooling_param {
    pool: MAX
    kernel_size: 3
    stride: 2
  }
}
layer {
  name: "norm2"
  type: "LRN"
  bottom: "pool2"
  top: "norm2"
  lrn_param {
    local_size: 5
    alpha: 0.0001
    beta: 0.75
  }
}
layer {
  name: "conv3"
  type: "Convolution"
  bottom: "norm2"
  top: "conv3"
  param {
    lr_mult: 1
    decay_mult: 1
  }
  param {
    lr_mult: 2
    decay_mult: 0
  }
  convolution_param {
    num_output: 384
    pad: 1
    kernel_size: 3
    weight_filler {
      type: "gaussian"
      std: 0.01
    }
    bias_filler {
      type: "constant"
      value: 0
    }
  }
}
layer {
  name: "relu3"
  type: "ReLU"
  bottom: "conv3"
  top: "conv3"
}
layer {
  name: "pool5"
  type: "Pooling"
  bottom: "conv3"
  top: "pool5"
  pooling_param {
    pool: MAX
    kernel_size: 3
    stride: 2
  }
}
layer {
  name: "fc6"
  type: "InnerProduct"
  bottom: "pool5"
  top: "fc6"
  param {
    lr_mult: 1
    decay_mult: 1
  }
  param {
    lr_mult: 2
    decay_mult: 0
  }
  inner_product_param {
    num_output: 512
    weight_filler {
      type: "gaussian"
      std: 0.005
    }
    bias_filler {
      type: "constant"
      value: 1
    }
  }
}
layer {
  name: "relu6"
  type: "ReLU"
  bottom: "fc6"
  top: "fc6"
}
layer {
  name: "drop6"
  type: "Dropout"
  bottom: "fc6"
  top: "fc6"
  dropout_param {
    dropout_ratio: 0.5
  }
}
layer {
  name: "fc7"
  type: "InnerProduct"
  bottom: "fc6"
  top: "fc7"
  param {
    lr_mult: 1
    decay_mult: 1
  }
  param {
    lr_mult: 2
    decay_mult: 0
  }
  inner_product_param {
    num_output: 512
    weight_filler {
      type: "gaussian"
      std: 0.005
    }
    bias_filler {
      type: "constant"
      value: 1
    }
  }
}
layer {
  name: "relu7"
  type: "ReLU"
  bottom: "fc7"
  top: "fc7"
}
layer {
  name: "drop7"
  type: "Dropout"
  bottom: "fc7"
  top: "fc7"
  dropout_param {
    dropout_ratio: 0.5
  }
}
layer {
  name: "fc8"
  type: "InnerProduct"
  bottom: "fc7"
  top: "fc8"
  param {
    lr_mult: 10
    decay_mult: 1
  }
  param {
    lr_mult: 20
    decay_mult: 0
  }
  inner_product_param {
    num_output: 8
    weight_filler {
      type: "gaussian"
      std: 0.01
    }
    bias_filler {
      type: "constant"
      value: 0
    }
  }
}
layer {
  name: "accuracy"
  type: "Accuracy"
  bottom: "fc8"
  bottom: "label"
  top: "accuracy"
  include {
    phase: TEST
  }
}
layer {
  name: "loss"
  type: "SoftmaxWithLoss"
  bottom: "fc8"
  bottom: "label"
  top: "loss"
}
I0521 16:31:04.809422 14436 layer_factory.hpp:77] Creating layer data
I0521 16:31:04.825242 14436 db_lmdb.cpp:35] Opened lmdb /home/k/PycharmProjects/AgeGenderDeepLearning-master/Folds/lmdb/Test_fold_is_1/age_val_lmdb
I0521 16:31:04.832340 14436 net.cpp:84] Creating Layer data
I0521 16:31:04.832357 14436 net.cpp:380] data -> data
I0521 16:31:04.832373 14436 net.cpp:380] data -> label
I0521 16:31:04.832393 14436 data_transformer.cpp:25] Loading mean file from: /home/k/PycharmProjects/AgeGenderDeepLearning-master/Folds/lmdb/Test_fold_is_1/mean.binaryproto
I0521 16:31:04.844638 14436 data_layer.cpp:45] output data size: 50,3,227,227
I0521 16:31:04.907829 14436 net.cpp:122] Setting up data
I0521 16:31:04.907872 14436 net.cpp:129] Top shape: 50 3 227 227 (7729350)
I0521 16:31:04.907878 14436 net.cpp:129] Top shape: 50 (50)
I0521 16:31:04.907881 14436 net.cpp:137] Memory required for data: 30917600
I0521 16:31:04.907888 14436 layer_factory.hpp:77] Creating layer label_data_1_split
I0521 16:31:04.907902 14436 net.cpp:84] Creating Layer label_data_1_split
I0521 16:31:04.907907 14436 net.cpp:406] label_data_1_split <- label
I0521 16:31:04.907913 14436 net.cpp:380] label_data_1_split -> label_data_1_split_0
I0521 16:31:04.907928 14436 net.cpp:380] label_data_1_split -> label_data_1_split_1
I0521 16:31:04.908012 14436 net.cpp:122] Setting up label_data_1_split
I0521 16:31:04.908022 14436 net.cpp:129] Top shape: 50 (50)
I0521 16:31:04.908026 14436 net.cpp:129] Top shape: 50 (50)
I0521 16:31:04.908030 14436 net.cpp:137] Memory required for data: 30918000
I0521 16:31:04.908033 14436 layer_factory.hpp:77] Creating layer conv1
I0521 16:31:04.908046 14436 net.cpp:84] Creating Layer conv1
I0521 16:31:04.908051 14436 net.cpp:406] conv1 <- data
I0521 16:31:04.908056 14436 net.cpp:380] conv1 -> conv1
I0521 16:31:04.914222 14436 net.cpp:122] Setting up conv1
I0521 16:31:04.914242 14436 net.cpp:129] Top shape: 50 96 56 56 (15052800)
I0521 16:31:04.914247 14436 net.cpp:137] Memory required for data: 91129200
I0521 16:31:04.914258 14436 layer_factory.hpp:77] Creating layer relu1
I0521 16:31:04.914266 14436 net.cpp:84] Creating Layer relu1
I0521 16:31:04.914271 14436 net.cpp:406] relu1 <- conv1
I0521 16:31:04.914276 14436 net.cpp:367] relu1 -> conv1 (in-place)
I0521 16:31:04.914543 14436 net.cpp:122] Setting up relu1
I0521 16:31:04.914558 14436 net.cpp:129] Top shape: 50 96 56 56 (15052800)
I0521 16:31:04.914563 14436 net.cpp:137] Memory required for data: 151340400
I0521 16:31:04.914566 14436 layer_factory.hpp:77] Creating layer pool1
I0521 16:31:04.914577 14436 net.cpp:84] Creating Layer pool1
I0521 16:31:04.914582 14436 net.cpp:406] pool1 <- conv1
I0521 16:31:04.914587 14436 net.cpp:380] pool1 -> pool1
I0521 16:31:04.914628 14436 net.cpp:122] Setting up pool1
I0521 16:31:04.914635 14436 net.cpp:129] Top shape: 50 96 28 28 (3763200)
I0521 16:31:04.914639 14436 net.cpp:137] Memory required for data: 166393200
I0521 16:31:04.914643 14436 layer_factory.hpp:77] Creating layer norm1
I0521 16:31:04.914650 14436 net.cpp:84] Creating Layer norm1
I0521 16:31:04.914654 14436 net.cpp:406] norm1 <- pool1
I0521 16:31:04.914659 14436 net.cpp:380] norm1 -> norm1
I0521 16:31:04.915343 14436 net.cpp:122] Setting up norm1
I0521 16:31:04.915354 14436 net.cpp:129] Top shape: 50 96 28 28 (3763200)
I0521 16:31:04.915359 14436 net.cpp:137] Memory required for data: 181446000
I0521 16:31:04.915362 14436 layer_factory.hpp:77] Creating layer conv2
I0521 16:31:04.915372 14436 net.cpp:84] Creating Layer conv2
I0521 16:31:04.915376 14436 net.cpp:406] conv2 <- norm1
I0521 16:31:04.915383 14436 net.cpp:380] conv2 -> conv2
I0521 16:31:04.923012 14436 net.cpp:122] Setting up conv2
I0521 16:31:04.923034 14436 net.cpp:129] Top shape: 50 256 28 28 (10035200)
I0521 16:31:04.923038 14436 net.cpp:137] Memory required for data: 221586800
I0521 16:31:04.923050 14436 layer_factory.hpp:77] Creating layer relu2
I0521 16:31:04.923058 14436 net.cpp:84] Creating Layer relu2
I0521 16:31:04.923063 14436 net.cpp:406] relu2 <- conv2
I0521 16:31:04.923069 14436 net.cpp:367] relu2 -> conv2 (in-place)
I0521 16:31:04.923761 14436 net.cpp:122] Setting up relu2
I0521 16:31:04.923774 14436 net.cpp:129] Top shape: 50 256 28 28 (10035200)
I0521 16:31:04.923787 14436 net.cpp:137] Memory required for data: 261727600
I0521 16:31:04.923791 14436 layer_factory.hpp:77] Creating layer pool2
I0521 16:31:04.923799 14436 net.cpp:84] Creating Layer pool2
I0521 16:31:04.923804 14436 net.cpp:406] pool2 <- conv2
I0521 16:31:04.923809 14436 net.cpp:380] pool2 -> pool2
I0521 16:31:04.923859 14436 net.cpp:122] Setting up pool2
I0521 16:31:04.923868 14436 net.cpp:129] Top shape: 50 256 14 14 (2508800)
I0521 16:31:04.923871 14436 net.cpp:137] Memory required for data: 271762800
I0521 16:31:04.923874 14436 layer_factory.hpp:77] Creating layer norm2
I0521 16:31:04.923882 14436 net.cpp:84] Creating Layer norm2
I0521 16:31:04.923884 14436 net.cpp:406] norm2 <- pool2
I0521 16:31:04.923888 14436 net.cpp:380] norm2 -> norm2
I0521 16:31:04.924064 14436 net.cpp:122] Setting up norm2
I0521 16:31:04.924073 14436 net.cpp:129] Top shape: 50 256 14 14 (2508800)
I0521 16:31:04.924088 14436 net.cpp:137] Memory required for data: 281798000
I0521 16:31:04.924091 14436 layer_factory.hpp:77] Creating layer conv3
I0521 16:31:04.924101 14436 net.cpp:84] Creating Layer conv3
I0521 16:31:04.924105 14436 net.cpp:406] conv3 <- norm2
I0521 16:31:04.924111 14436 net.cpp:380] conv3 -> conv3
I0521 16:31:04.935614 14436 net.cpp:122] Setting up conv3
I0521 16:31:04.935638 14436 net.cpp:129] Top shape: 50 384 14 14 (3763200)
I0521 16:31:04.935642 14436 net.cpp:137] Memory required for data: 296850800
I0521 16:31:04.935655 14436 layer_factory.hpp:77] Creating layer relu3
I0521 16:31:04.935676 14436 net.cpp:84] Creating Layer relu3
I0521 16:31:04.935680 14436 net.cpp:406] relu3 <- conv3
I0521 16:31:04.935703 14436 net.cpp:367] relu3 -> conv3 (in-place)
I0521 16:31:04.935916 14436 net.cpp:122] Setting up relu3
I0521 16:31:04.935933 14436 net.cpp:129] Top shape: 50 384 14 14 (3763200)
I0521 16:31:04.935940 14436 net.cpp:137] Memory required for data: 311903600
I0521 16:31:04.935946 14436 layer_factory.hpp:77] Creating layer pool5
I0521 16:31:04.935957 14436 net.cpp:84] Creating Layer pool5
I0521 16:31:04.935967 14436 net.cpp:406] pool5 <- conv3
I0521 16:31:04.935977 14436 net.cpp:380] pool5 -> pool5
I0521 16:31:04.936033 14436 net.cpp:122] Setting up pool5
I0521 16:31:04.936044 14436 net.cpp:129] Top shape: 50 384 7 7 (940800)
I0521 16:31:04.936050 14436 net.cpp:137] Memory required for data: 315666800
I0521 16:31:04.936058 14436 layer_factory.hpp:77] Creating layer fc6
I0521 16:31:04.936072 14436 net.cpp:84] Creating Layer fc6
I0521 16:31:04.936080 14436 net.cpp:406] fc6 <- pool5
I0521 16:31:04.936091 14436 net.cpp:380] fc6 -> fc6
I0521 16:31:05.042106 14436 net.cpp:122] Setting up fc6
I0521 16:31:05.042135 14436 net.cpp:129] Top shape: 50 512 (25600)
I0521 16:31:05.042142 14436 net.cpp:137] Memory required for data: 315769200
I0521 16:31:05.042168 14436 layer_factory.hpp:77] Creating layer relu6
I0521 16:31:05.042183 14436 net.cpp:84] Creating Layer relu6
I0521 16:31:05.042196 14436 net.cpp:406] relu6 <- fc6
I0521 16:31:05.042207 14436 net.cpp:367] relu6 -> fc6 (in-place)
I0521 16:31:05.042454 14436 net.cpp:122] Setting up relu6
I0521 16:31:05.042465 14436 net.cpp:129] Top shape: 50 512 (25600)
I0521 16:31:05.042479 14436 net.cpp:137] Memory required for data: 315871600
I0521 16:31:05.042484 14436 layer_factory.hpp:77] Creating layer drop6
I0521 16:31:05.042490 14436 net.cpp:84] Creating Layer drop6
I0521 16:31:05.042493 14436 net.cpp:406] drop6 <- fc6
I0521 16:31:05.042498 14436 net.cpp:367] drop6 -> fc6 (in-place)
I0521 16:31:05.042528 14436 net.cpp:122] Setting up drop6
I0521 16:31:05.042536 14436 net.cpp:129] Top shape: 50 512 (25600)
I0521 16:31:05.042538 14436 net.cpp:137] Memory required for data: 315974000
I0521 16:31:05.042541 14436 layer_factory.hpp:77] Creating layer fc7
I0521 16:31:05.042552 14436 net.cpp:84] Creating Layer fc7
I0521 16:31:05.042556 14436 net.cpp:406] fc7 <- fc6
I0521 16:31:05.042562 14436 net.cpp:380] fc7 -> fc7
I0521 16:31:05.047696 14436 net.cpp:122] Setting up fc7
I0521 16:31:05.047713 14436 net.cpp:129] Top shape: 50 512 (25600)
I0521 16:31:05.047727 14436 net.cpp:137] Memory required for data: 316076400
I0521 16:31:05.047739 14436 layer_factory.hpp:77] Creating layer relu7
I0521 16:31:05.047745 14436 net.cpp:84] Creating Layer relu7
I0521 16:31:05.047749 14436 net.cpp:406] relu7 <- fc7
I0521 16:31:05.047755 14436 net.cpp:367] relu7 -> fc7 (in-place)
I0521 16:31:05.048584 14436 net.cpp:122] Setting up relu7
I0521 16:31:05.048596 14436 net.cpp:129] Top shape: 50 512 (25600)
I0521 16:31:05.048599 14436 net.cpp:137] Memory required for data: 316178800
I0521 16:31:05.048602 14436 layer_factory.hpp:77] Creating layer drop7
I0521 16:31:05.048609 14436 net.cpp:84] Creating Layer drop7
I0521 16:31:05.048612 14436 net.cpp:406] drop7 <- fc7
I0521 16:31:05.048617 14436 net.cpp:367] drop7 -> fc7 (in-place)
I0521 16:31:05.048643 14436 net.cpp:122] Setting up drop7
I0521 16:31:05.048651 14436 net.cpp:129] Top shape: 50 512 (25600)
I0521 16:31:05.048655 14436 net.cpp:137] Memory required for data: 316281200
I0521 16:31:05.048657 14436 layer_factory.hpp:77] Creating layer fc8
I0521 16:31:05.048663 14436 net.cpp:84] Creating Layer fc8
I0521 16:31:05.048668 14436 net.cpp:406] fc8 <- fc7
I0521 16:31:05.048673 14436 net.cpp:380] fc8 -> fc8
I0521 16:31:05.048830 14436 net.cpp:122] Setting up fc8
I0521 16:31:05.048838 14436 net.cpp:129] Top shape: 50 8 (400)
I0521 16:31:05.048841 14436 net.cpp:137] Memory required for data: 316282800
I0521 16:31:05.048847 14436 layer_factory.hpp:77] Creating layer fc8_fc8_0_split
I0521 16:31:05.048853 14436 net.cpp:84] Creating Layer fc8_fc8_0_split
I0521 16:31:05.048858 14436 net.cpp:406] fc8_fc8_0_split <- fc8
I0521 16:31:05.048863 14436 net.cpp:380] fc8_fc8_0_split -> fc8_fc8_0_split_0
I0521 16:31:05.048871 14436 net.cpp:380] fc8_fc8_0_split -> fc8_fc8_0_split_1
I0521 16:31:05.048905 14436 net.cpp:122] Setting up fc8_fc8_0_split
I0521 16:31:05.048913 14436 net.cpp:129] Top shape: 50 8 (400)
I0521 16:31:05.048918 14436 net.cpp:129] Top shape: 50 8 (400)
I0521 16:31:05.048920 14436 net.cpp:137] Memory required for data: 316286000
I0521 16:31:05.048923 14436 layer_factory.hpp:77] Creating layer accuracy
I0521 16:31:05.048930 14436 net.cpp:84] Creating Layer accuracy
I0521 16:31:05.048934 14436 net.cpp:406] accuracy <- fc8_fc8_0_split_0
I0521 16:31:05.048938 14436 net.cpp:406] accuracy <- label_data_1_split_0
I0521 16:31:05.048943 14436 net.cpp:380] accuracy -> accuracy
…
