…
I0528 21:52:09.582949 142708 net.cpp:294] The NetState phase (0) differed from the phase (1) specified by a rule in layer accuracy
I0528 21:52:09.583482 142708 net.cpp:51] Initializing net from parameters: 
name: "Pre-ResNet-18"
state {
  phase: TRAIN
  level: 0
  stage: ""
}
layer {
  name: "data"
  type: "Data"
  top: "data"
  top: "label"
  include {
    phase: TRAIN
  }
  transform_param {
    mirror: true
    crop_size: 224
    mean_file: "/storage/Test_fold_is_01/mean.binaryproto"
  }
  data_param {
    source: "/storage/Test_fold_is_01/gender_train_lmdb"
    batch_size: 100
    backend: LMDB
  }
}
layer {
  name: "data_bn"
  type: "BatchNorm"
  bottom: "data"
  top: "data_bn"
  param {
    lr_mult: 0
    decay_mult: 0
  }
  param {
    lr_mult: 0
    decay_mult: 0
  }
  param {
    lr_mult: 0
    decay_mult: 0
  }
}
layer {
  name: "data_scale"
  type: "Scale"
  bottom: "data_bn"
  top: "data_bn"
  param {
    lr_mult: 1
    decay_mult: 1
  }
  param {
    lr_mult: 2
    decay_mult: 1
  }
  scale_param {
    bias_term: true
  }
}
layer {
  name: "conv1"
  type: "Convolution"
  bottom: "data_bn"
  top: "conv1"
  param {
    lr_mult: 1
    decay_mult: 1
  }
  param {
    lr_mult: 2
    decay_mult: 1
  }
  convolution_param {
    num_output: 64
    pad: 3
    kernel_size: 7
    stride: 2
    weight_filler {
      type: "msra"
      variance_norm: FAN_OUT
    }
    bias_filler {
      type: "constant"
      value: 0
    }
  }
}
layer {
  name: "conv1_bn"
  type: "BatchNorm"
  bottom: "conv1"
  top: "conv1"
  param {
    lr_mult: 0
    decay_mult: 0
  }
  param {
    lr_mult: 0
    decay_mult: 0
  }
  param {
    lr_mult: 0
    decay_mult: 0
  }
}
layer {
  name: "conv1_scale"
  type: "Scale"
  bottom: "conv1"
  top: "conv1"
  param {
    lr_mult: 1
    decay_mult: 1
  }
  param {
    lr_mult: 2
    decay_mult: 1
  }
  scale_param {
    bias_term: true
  }
}
layer {
  name: "conv1_relu"
  type: "ReLU"
  bottom: "conv1"
  top: "conv1"
}
layer {
  name: "conv1_pool"
  type: "Pooling"
  bottom: "conv1"
  top: "conv1_pool"
  pooling_param {
    kernel_size: 3
    stride: 2
  }
}
layer {
  name: "layer_64_1_conv1"
  type: "Convolution"
  bottom: "conv1_pool"
  top: "layer_64_1_conv1"
  param {
    lr_mult: 1
    decay_mult: 1
  }
  convolution_param {
    num_output: 64
    bias_term: false
    pad: 1
    kernel_size: 3
    stride: 1
    weight_filler {
      type: "msra"
    }
    bias_filler {
      type: "constant"
      value: 0
    }
  }
}
layer {
  name: "layer_64_1_bn2"
  type: "BatchNorm"
  bottom: "layer_64_1_conv1"
  top: "layer_64_1_conv1"
  param {
    lr_mult: 0
    decay_mult: 0
  }
  param {
    lr_mult: 0
    decay_mult: 0
  }
  param {
    lr_mult: 0
    decay_mult: 0
  }
}
layer {
  name: "layer_64_1_scale2"
  type: "Scale"
  bottom: "layer_64_1_conv1"
  top: "layer_64_1_conv1"
  param {
    lr_mult: 1
    decay_mult: 1
  }
  param {
    lr_mult: 2
    decay_mult: 1
  }
  scale_param {
    bias_term: true
  }
}
layer {
  name: "layer_64_1_relu2"
  type: "ReLU"
  bottom: "layer_64_1_conv1"
  top: "layer_64_1_conv1"
}
layer {
  name: "layer_64_1_conv2"
  type: "Convolution"
  bottom: "layer_64_1_conv1"
  top: "layer_64_1_conv2"
  param {
    lr_mult: 1
    decay_mult: 1
  }
  convolution_param {
    num_output: 64
    bias_term: false
    pad: 1
    kernel_size: 3
    stride: 1
    weight_filler {
      type: "msra"
    }
    bias_filler {
      type: "constant"
      value: 0
    }
  }
}
layer {
  name: "layer_64_1_sum"
  type: "Eltwise"
  bottom: "layer_64_1_conv2"
  bottom: "conv1_pool"
  top: "layer_64_1_sum"
}
layer {
  name: "layer_64_2_bn1"
  type: "BatchNorm"
  bottom: "layer_64_1_sum"
  top: "layer_64_2_bn1"
  param {
    lr_mult: 0
    decay_mult: 0
  }
  param {
    lr_mult: 0
    decay_mult: 0
  }
  param {
    lr_mult: 0
    decay_mult: 0
  }
}
layer {
  name: "layer_64_2_scale1"
  type: "Scale"
  bottom: "layer_64_2_bn1"
  top: "layer_64_2_bn1"
  param {
    lr_mult: 1
    decay_mult: 1
  }
  param {
    lr_mult: 2
    decay_mult: 1
  }
  scale_param {
    bias_term: true
  }
}
layer {
  name: "layer_64_2_relu1"
  type: "ReLU"
  bottom: "layer_64_2_bn1"
  top: "layer_64_2_bn1"
}
layer {
  name: "layer_64_2_conv1"
  type: "Convolution"
  bottom: "layer_64_2_bn1"
  top: "layer_64_2_conv1"
  param {
    lr_mult: 1
    decay_mult: 1
  }
  convolution_param {
    num_output: 64
    bias_term: false
    pad: 1
    kernel_size: 3
    stride: 1
    weight_filler {
      type: "msra"
    }
    bias_filler {
      type: "constant"
      value: 0
    }
  }
}
layer {
  name: "layer_64_2_bn2"
  type: "BatchNorm"
  bottom: "layer_64_2_conv1"
  top: "layer_64_2_conv1"
  param {
    lr_mult: 0
    decay_mult: 0
  }
  param {
    lr_mult: 0
    decay_mult: 0
  }
  param {
    lr_mult: 0
    decay_mult: 0
  }
}
layer {
  name: "layer_64_2_scale2"
  type: "Scale"
  bottom: "layer_64_2_conv1"
  top: "layer_64_2_conv1"
  param {
    lr_mult: 1
    decay_mult: 1
  }
  param {
    lr_mult: 2
    decay_mult: 1
  }
  scale_param {
    bias_term: true
  }
}
layer {
  name: "layer_64_2_relu2"
  type: "ReLU"
  bottom: "layer_64_2_conv1"
  top: "layer_64_2_conv1"
}
layer {
  name: "layer_64_2_conv2"
  type: "Convolution"
  bottom: "layer_64_2_conv1"
  top: "layer_64_2_conv2"
  param {
    lr_mult: 1
    decay_mult: 1
  }
  convolution_param {
    num_output: 64
    bias_term: false
    pad: 1
    kernel_size: 3
    stride: 1
    weight_filler {
      type: "msra"
    }
    bias_filler {
      type: "constant"
      value: 0
    }
  }
}
layer {
  name: "layer_64_2_sum"
  type: "Eltwise"
  bottom: "layer_64_2_conv2"
  bottom: "layer_64_1_sum"
  top: "layer_64_2_sum"
}
layer {
  name: "layer_128_1_bn1"
  type: "BatchNorm"
  bottom: "layer_64_2_sum"
  top: "layer_128_1_bn1"
  param {
    lr_mult: 0
    decay_mult: 0
  }
  param {
    lr_mult: 0
    decay_mult: 0
  }
  param {
    lr_mult: 0
    decay_mult: 0
  }
}
layer {
  name: "layer_128_1_scale1"
  type: "Scale"
  bottom: "layer_128_1_bn1"
  top: "layer_128_1_bn1"
  param {
    lr_mult: 1
    decay_mult: 1
  }
  param {
    lr_mult: 2
    decay_mult: 1
  }
  scale_param {
    bias_term: true
  }
}
layer {
  name: "layer_128_1_relu1"
  type: "ReLU"
  bottom: "layer_128_1_bn1"
  top: "layer_128_1_bn1"
}
layer {
  name: "layer_128_1_conv1"
  type: "Convolution"
  bottom: "layer_128_1_bn1"
  top: "layer_128_1_conv1"
  param {
    lr_mult: 1
    decay_mult: 1
  }
  convolution_param {
    num_output: 128
    bias_term: false
    pad: 1
    kernel_size: 3
    stride: 2
    weight_filler {
      type: "msra"
    }
    bias_filler {
      type: "constant"
      value: 0
    }
  }
}
layer {
  name: "layer_128_1_bn2"
  type: "BatchNorm"
  bottom: "layer_128_1_conv1"
  top: "layer_128_1_conv1"
  param {
    lr_mult: 0
    decay_mult: 0
  }
  param {
    lr_mult: 0
    decay_mult: 0
  }
  param {
    lr_mult: 0
    decay_mult: 0
  }
}
layer {
  name: "layer_128_1_scale2"
  type: "Scale"
  bottom: "layer_128_1_conv1"
  top: "layer_128_1_conv1"
  param {
    lr_mult: 1
    decay_mult: 1
  }
  param {
    lr_mult: 2
    decay_mult: 1
  }
  scale_param {
    bias_term: true
  }
}
layer {
  name: "layer_128_1_relu2"
  type: "ReLU"
  bottom: "layer_128_1_conv1"
  top: "layer_128_1_conv1"
}
layer {
  name: "layer_128_1_conv2"
  type: "Convolution"
  bottom: "layer_128_1_conv1"
  top: "layer_128_1_conv2"
  param {
    lr_mult: 1
    decay_mult: 1
  }
  convolution_param {
    num_output: 128
    bias_term: false
    pad: 1
    kernel_size: 3
    stride: 1
    weight_filler {
      type: "msra"
    }
    bias_filler {
      type: "constant"
      value: 0
    }
  }
}
layer {
  name: "layer_128_1_conv_expand"
  type: "Convolution"
  bottom: "layer_128_1_bn1"
  top: "layer_128_1_conv_expand"
  param {
    lr_mult: 1
    decay_mult: 1
  }
  convolution_param {
    num_output: 128
    bias_term: false
    pad: 0
    kernel_size: 1
    stride: 2
    weight_filler {
      type: "msra"
    }
    bias_filler {
      type: "constant"
      value: 0
    }
  }
}
layer {
  name: "layer_128_1_sum"
  type: "Eltwise"
  bottom: "layer_128_1_conv_expand"
  bottom: "layer_128_1_conv2"
  top: "layer_128_1_sum"
}
layer {
  name: "layer_128_2_bn1"
  type: "BatchNorm"
  bottom: "layer_128_1_sum"
  top: "layer_128_2_bn1"
  param {
    lr_mult: 0
    decay_mult: 0
  }
  param {
    lr_mult: 0
    decay_mult: 0
  }
  param {
    lr_mult: 0
    decay_mult: 0
  }
}
layer {
  name: "layer_128_2_scale1"
  type: "Scale"
  bottom: "layer_128_2_bn1"
  top: "layer_128_2_bn1"
  param {
    lr_mult: 1
    decay_mult: 1
  }
  param {
    lr_mult: 2
    decay_mult: 1
  }
  scale_param {
    bias_term: true
  }
}
layer {
  name: "layer_128_2_relu1"
  type: "ReLU"
  bottom: "layer_128_2_bn1"
  top: "layer_128_2_bn1"
}
layer {
  name: "layer_128_2_conv1"
  type: "Convolution"
  bottom: "layer_128_2_bn1"
  top: "layer_128_2_conv1"
  param {
    lr_mult: 1
    decay_mult: 1
  }
  convolution_param {
    num_output: 128
    bias_term: false
    pad: 1
    kernel_size: 3
    stride: 1
    weight_filler {
      type: "msra"
    }
    bias_filler {
      type: "constant"
      value: 0
    }
  }
}
layer {
  name: "layer_128_2_bn2"
  type: "BatchNorm"
  bottom: "layer_128_2_conv1"
  top: "layer_128_2_conv1"
  param {
    lr_mult: 0
    decay_mult: 0
  }
  param {
    lr_mult: 0
    decay_mult: 0
  }
  param {
    lr_mult: 0
    decay_mult: 0
  }
}
layer {
  name: "layer_128_2_scale2"
  type: "Scale"
  bottom: "layer_128_2_conv1"
  top: "layer_128_2_conv1"
  param {
    lr_mult: 1
    decay_mult: 1
  }
  param {
    lr_mult: 2
    decay_mult: 1
  }
  scale_param {
    bias_term: true
  }
}
layer {
  name: "layer_128_2_relu2"
  type: "ReLU"
  bottom: "layer_128_2_conv1"
  top: "layer_128_2_conv1"
}
layer {
  name: "layer_128_2_conv2"
  type: "Convolution"
  bottom: "layer_128_2_conv1"
  top: "layer_128_2_conv2"
  param {
    lr_mult: 1
    decay_mult: 1
  }
  convolution_param {
    num_output: 128
    bias_term: false
    pad: 1
    kernel_size: 3
    stride: 1
    weight_filler {
      type: "msra"
    }
    bias_filler {
      type: "constant"
      value: 0
    }
  }
}
layer {
  name: "layer_128_2_sum"
  type: "Eltwise"
  bottom: "layer_128_2_conv2"
  bottom: "layer_128_1_sum"
  top: "layer_128_2_sum"
}
layer {
  name: "layer_256_1_bn1"
  type: "BatchNorm"
  bottom: "layer_128_2_sum"
  top: "layer_256_1_bn1"
  param {
    lr_mult: 0
    decay_mult: 0
  }
  param {
    lr_mult: 0
    decay_mult: 0
  }
  param {
    lr_mult: 0
    decay_mult: 0
  }
}
layer {
  name: "layer_256_1_scale1"
  type: "Scale"
  bottom: "layer_256_1_bn1"
  top: "layer_256_1_bn1"
  param {
    lr_mult: 1
    decay_mult: 1
  }
  param {
    lr_mult: 2
    decay_mult: 1
  }
  scale_param {
    bias_term: true
  }
}
layer {
  name: "layer_256_1_relu1"
  type: "ReLU"
  bottom: "layer_256_1_bn1"
  top: "layer_256_1_bn1"
}
layer {
  name: "layer_256_1_conv1"
  type: "Convolution"
  bottom: "layer_256_1_bn1"
  top: "layer_256_1_conv1"
  param {
    lr_mult: 1
    decay_mult: 1
  }
  convolution_param {
    num_output: 256
    bias_term: false
    pad: 1
    kernel_size: 3
    stride: 2
    weight_filler {
      type: "msra"
    }
    bias_filler {
      type: "constant"
      value: 0
    }
  }
}
layer {
  name: "layer_256_1_bn2"
  type: "BatchNorm"
  bottom: "layer_256_1_conv1"
  top: "layer_256_1_conv1"
  param {
    lr_mult: 0
    decay_mult: 0
  }
  param {
    lr_mult: 0
    decay_mult: 0
  }
  param {
    lr_mult: 0
    decay_mult: 0
  }
}
layer {
  name: "layer_256_1_scale2"
  type: "Scale"
  bottom: "layer_256_1_conv1"
  top: "layer_256_1_conv1"
  param {
    lr_mult: 1
    decay_mult: 1
  }
  param {
    lr_mult: 2
    decay_mult: 1
  }
  scale_param {
    bias_term: true
  }
}
layer {
  name: "layer_256_1_relu2"
  type: "ReLU"
  bottom: "layer_256_1_conv1"
  top: "layer_256_1_conv1"
}
layer {
  name: "layer_256_1_conv2"
  type: "Convolution"
  bottom: "layer_256_1_conv1"
  top: "layer_256_1_conv2"
  param {
    lr_mult: 1
    decay_mult: 1
  }
  convolution_param {
    num_output: 256
    bias_term: false
    pad: 1
    kernel_size: 3
    stride: 1
    weight_filler {
      type: "msra"
    }
    bias_filler {
      type: "constant"
      value: 0
    }
  }
}
layer {
  name: "layer_256_1_conv_expand"
  type: "Convolution"
  bottom: "layer_256_1_bn1"
  top: "layer_256_1_conv_expand"
  param {
    lr_mult: 1
    decay_mult: 1
  }
  convolution_param {
    num_output: 256
    bias_term: false
    pad: 0
    kernel_size: 1
    stride: 2
    weight_filler {
      type: "msra"
    }
    bias_filler {
      type: "constant"
      value: 0
    }
  }
}
layer {
  name: "layer_256_1_sum"
  type: "Eltwise"
  bottom: "layer_256_1_conv_expand"
  bottom: "layer_256_1_conv2"
  top: "layer_256_1_sum"
}
layer {
  name: "layer_256_2_bn1"
  type: "BatchNorm"
  bottom: "layer_256_1_sum"
  top: "layer_256_2_bn1"
  param {
    lr_mult: 0
    decay_mult: 0
  }
  param {
    lr_mult: 0
    decay_mult: 0
  }
  param {
    lr_mult: 0
    decay_mult: 0
  }
}
layer {
  name: "layer_256_2_scale1"
  type: "Scale"
  bottom: "layer_256_2_bn1"
  top: "layer_256_2_bn1"
  param {
    lr_mult: 1
    decay_mult: 1
  }
  param {
    lr_mult: 2
    decay_mult: 1
  }
  scale_param {
    bias_term: true
  }
}
layer {
  name: "layer_256_2_relu1"
  type: "ReLU"
  bottom: "layer_256_2_bn1"
  top: "layer_256_2_bn1"
}
layer {
  name: "layer_256_2_conv1"
  type: "Convolution"
  bottom: "layer_256_2_bn1"
  top: "layer_256_2_conv1"
  param {
    lr_mult: 1
    decay_mult: 1
  }
  convolution_param {
    num_output: 256
    bias_term: false
    pad: 1
    kernel_size: 3
    stride: 1
    weight_filler {
      type: "msra"
    }
    bias_filler {
      type: "constant"
      value: 0
    }
  }
}
layer {
  name: "layer_256_2_bn2"
  type: "BatchNorm"
  bottom: "layer_256_2_conv1"
  top: "layer_256_2_conv1"
  param {
    lr_mult: 0
    decay_mult: 0
  }
  param {
    lr_mult: 0
    decay_mult: 0
  }
  param {
    lr_mult: 0
    decay_mult: 0
  }
}
layer {
  name: "layer_256_2_scale2"
  type: "Scale"
  bottom: "layer_256_2_conv1"
  top: "layer_256_2_conv1"
  param {
    lr_mult: 1
    decay_mult: 1
  }
  param {
    lr_mult: 2
    decay_mult: 1
  }
  scale_param {
    bias_term: true
  }
}
layer {
  name: "layer_256_2_relu2"
  type: "ReLU"
  bottom: "layer_256_2_conv1"
  top: "layer_256_2_conv1"
}
layer {
  name: "layer_256_2_conv2"
  type: "Convolution"
  bottom: "layer_256_2_conv1"
  top: "layer_256_2_conv2"
  param {
    lr_mult: 1
    decay_mult: 1
  }
  convolution_param {
    num_output: 256
    bias_term: false
    pad: 1
    kernel_size: 3
    stride: 1
    weight_filler {
      type: "msra"
    }
    bias_filler {
      type: "constant"
      value: 0
    }
  }
}
layer {
  name: "layer_256_2_sum"
  type: "Eltwise"
  bottom: "layer_256_2_conv2"
  bottom: "layer_256_1_sum"
  top: "layer_256_2_sum"
}
layer {
  name: "layer_512_1_bn1"
  type: "BatchNorm"
  bottom: "layer_256_2_sum"
  top: "layer_512_1_bn1"
  param {
    lr_mult: 0
    decay_mult: 0
  }
  param {
    lr_mult: 0
    decay_mult: 0
  }
  param {
    lr_mult: 0
    decay_mult: 0
  }
}
layer {
  name: "layer_512_1_scale1"
  type: "Scale"
  bottom: "layer_512_1_bn1"
  top: "layer_512_1_bn1"
  param {
    lr_mult: 1
    decay_mult: 1
  }
  param {
    lr_mult: 2
    decay_mult: 1
  }
  scale_param {
    bias_term: true
  }
}
layer {
  name: "layer_512_1_relu1"
  type: "ReLU"
  bottom: "layer_512_1_bn1"
  top: "layer_512_1_bn1"
}
layer {
  name: "layer_512_1_conv1"
  type: "Convolution"
  bottom: "layer_512_1_bn1"
  top: "layer_512_1_conv1"
  param {
    lr_mult: 1
    decay_mult: 1
  }
  convolution_param {
    num_output: 512
    bias_term: false
    pad: 1
    kernel_size: 3
    stride: 2
    weight_filler {
      type: "msra"
    }
    bias_filler {
      type: "constant"
      value: 0
    }
  }
}
layer {
  name: "layer_512_1_bn2"
  type: "BatchNorm"
  bottom: "layer_512_1_conv1"
  top: "layer_512_1_conv1"
  param {
    lr_mult: 0
    decay_mult: 0
  }
  param {
    lr_mult: 0
    decay_mult: 0
  }
  param {
    lr_mult: 0
    decay_mult: 0
  }
}
layer {
  name: "layer_512_1_scale2"
  type: "Scale"
  bottom: "layer_512_1_conv1"
  top: "layer_512_1_conv1"
  param {
    lr_mult: 1
    decay_mult: 1
  }
  param {
    lr_mult: 2
    decay_mult: 1
  }
  scale_param {
    bias_term: true
  }
}
layer {
  name: "layer_512_1_relu2"
  type: "ReLU"
  bottom: "layer_512_1_conv1"
  top: "layer_512_1_conv1"
}
layer {
  name: "layer_512_1_conv2"
  type: "Convolution"
  bottom: "layer_512_1_conv1"
  top: "layer_512_1_conv2"
  param {
    lr_mult: 1
    decay_mult: 1
  }
  convolution_param {
    num_output: 512
    bias_term: false
    pad: 1
    kernel_size: 3
    stride: 1
    weight_filler {
      type: "msra"
    }
    bias_filler {
      type: "constant"
      value: 0
    }
  }
}
layer {
  name: "layer_512_1_conv_expand"
  type: "Convolution"
  bottom: "layer_512_1_bn1"
  top: "layer_512_1_conv_expand"
  param {
    lr_mult: 1
    decay_mult: 1
  }
  convolution_param {
    num_output: 512
    bias_term: false
    pad: 0
    kernel_size: 1
    stride: 2
    weight_filler {
      type: "msra"
    }
    bias_filler {
      type: "constant"
      value: 0
    }
  }
}
layer {
  name: "layer_512_1_sum"
  type: "Eltwise"
  bottom: "layer_512_1_conv_expand"
  bottom: "layer_512_1_conv2"
  top: "layer_512_1_sum"
}
layer {
  name: "layer_512_2_bn1"
  type: "BatchNorm"
  bottom: "layer_512_1_sum"
  top: "layer_512_2_bn1"
  param {
    lr_mult: 0
    decay_mult: 0
  }
  param {
    lr_mult: 0
    decay_mult: 0
  }
  param {
    lr_mult: 0
    decay_mult: 0
  }
}
layer {
  name: "layer_512_2_scale1"
  type: "Scale"
  bottom: "layer_512_2_bn1"
  top: "layer_512_2_bn1"
  param {
    lr_mult: 1
    decay_mult: 1
  }
  param {
    lr_mult: 2
    decay_mult: 1
  }
  scale_param {
    bias_term: true
  }
}
layer {
  name: "layer_512_2_relu1"
  type: "ReLU"
  bottom: "layer_512_2_bn1"
  top: "layer_512_2_bn1"
}
layer {
  name: "layer_512_2_conv1"
  type: "Convolution"
  bottom: "layer_512_2_bn1"
  top: "layer_512_2_conv1"
  param {
    lr_mult: 1
    decay_mult: 1
  }
  convolution_param {
    num_output: 512
    bias_term: false
    pad: 1
    kernel_size: 3
    stride: 1
    weight_filler {
      type: "msra"
    }
    bias_filler {
      type: "constant"
      value: 0
    }
  }
}
layer {
  name: "layer_512_2_bn2"
  type: "BatchNorm"
  bottom: "layer_512_2_conv1"
  top: "layer_512_2_conv1"
  param {
    lr_mult: 0
    decay_mult: 0
  }
  param {
    lr_mult: 0
    decay_mult: 0
  }
  param {
    lr_mult: 0
    decay_mult: 0
  }
}
layer {
  name: "layer_512_2_scale2"
  type: "Scale"
  bottom: "layer_512_2_conv1"
  top: "layer_512_2_conv1"
  param {
    lr_mult: 1
    decay_mult: 1
  }
  param {
    lr_mult: 2
    decay_mult: 1
  }
  scale_param {
    bias_term: true
  }
}
layer {
  name: "layer_512_2_relu2"
  type: "ReLU"
  bottom: "layer_512_2_conv1"
  top: "layer_512_2_conv1"
}
layer {
  name: "layer_512_2_conv2"
  type: "Convolution"
  bottom: "layer_512_2_conv1"
  top: "layer_512_2_conv2"
  param {
    lr_mult: 1
    decay_mult: 1
  }
  convolution_param {
    num_output: 512
    bias_term: false
    pad: 1
    kernel_size: 3
    stride: 1
    weight_filler {
      type: "msra"
    }
    bias_filler {
      type: "constant"
      value: 0
    }
  }
}
layer {
  name: "layer_512_2_sum"
  type: "Eltwise"
  bottom: "layer_512_2_conv2"
  bottom: "layer_512_1_sum"
  top: "layer_512_2_sum"
}
layer {
  name: "last_bn"
  type: "BatchNorm"
  bottom: "layer_512_2_sum"
  top: "layer_512_2_sum"
  param {
    lr_mult: 0
    decay_mult: 0
  }
  param {
    lr_mult: 0
    decay_mult: 0
  }
  param {
    lr_mult: 0
    decay_mult: 0
  }
}
layer {
  name: "last_scale"
  type: "Scale"
  bottom: "layer_512_2_sum"
  top: "layer_512_2_sum"
  param {
    lr_mult: 1
    decay_mult: 1
  }
  param {
    lr_mult: 2
    decay_mult: 1
  }
  scale_param {
    bias_term: true
  }
}
layer {
  name: "last_relu"
  type: "ReLU"
  bottom: "layer_512_2_sum"
  top: "layer_512_2_sum"
}
layer {
  name: "global_pool"
  type: "Pooling"
  bottom: "layer_512_2_sum"
  top: "global_pool"
  pooling_param {
    pool: AVE
    global_pooling: true
  }
}
layer {
  name: "score"
  type: "InnerProduct"
  bottom: "global_pool"
  top: "score"
  param {
    lr_mult: 1
    decay_mult: 1
  }
  param {
    lr_mult: 2
    decay_mult: 1
  }
  inner_product_param {
    num_output: 2
  }
}
layer {
  name: "loss"
  type: "SoftmaxWithLoss"
  bottom: "score"
  bottom: "label"
  top: "loss"
}
I0528 21:52:09.583875 142708 layer_factory.hpp:77] Creating layer data
I0528 21:52:09.583993 142708 db_lmdb.cpp:35] Opened lmdb /storage/Test_fold_is_01/gender_train_lmdb
I0528 21:52:09.584030 142708 net.cpp:84] Creating Layer data
I0528 21:52:09.584051 142708 net.cpp:380] data -> data
I0528 21:52:09.584084 142708 net.cpp:380] data -> label
I0528 21:52:09.584103 142708 data_transformer.cpp:25] Loading mean file from: /storage/Test_fold_is_01/mean.binaryproto
I0528 21:52:09.587141 142708 data_layer.cpp:45] output data size: 100,3,224,224
I0528 21:52:09.724511 142708 net.cpp:122] Setting up data
I0528 21:52:09.724583 142708 net.cpp:129] Top shape: 100 3 224 224 (15052800)
I0528 21:52:09.724591 142708 net.cpp:129] Top shape: 100 (100)
I0528 21:52:09.724596 142708 net.cpp:137] Memory required for data: 60211600
I0528 21:52:09.724606 142708 layer_factory.hpp:77] Creating layer data_bn
I0528 21:52:09.724623 142708 net.cpp:84] Creating Layer data_bn
I0528 21:52:09.724629 142708 net.cpp:406] data_bn <- data
I0528 21:52:09.724645 142708 net.cpp:380] data_bn -> data_bn
I0528 21:52:09.725599 142708 net.cpp:122] Setting up data_bn
I0528 21:52:09.725616 142708 net.cpp:129] Top shape: 100 3 224 224 (15052800)
I0528 21:52:09.725621 142708 net.cpp:137] Memory required for data: 120422800
I0528 21:52:09.725642 142708 layer_factory.hpp:77] Creating layer data_scale
I0528 21:52:09.725656 142708 net.cpp:84] Creating Layer data_scale
I0528 21:52:09.725661 142708 net.cpp:406] data_scale <- data_bn
I0528 21:52:09.725668 142708 net.cpp:367] data_scale -> data_bn (in-place)
I0528 21:52:09.725718 142708 layer_factory.hpp:77] Creating layer data_scale
I0528 21:52:09.725870 142708 net.cpp:122] Setting up data_scale
I0528 21:52:09.725879 142708 net.cpp:129] Top shape: 100 3 224 224 (15052800)
I0528 21:52:09.725883 142708 net.cpp:137] Memory required for data: 180634000
I0528 21:52:09.725891 142708 layer_factory.hpp:77] Creating layer conv1
I0528 21:52:09.725909 142708 net.cpp:84] Creating Layer conv1
I0528 21:52:09.725914 142708 net.cpp:406] conv1 <- data_bn
I0528 21:52:09.725921 142708 net.cpp:380] conv1 -> conv1
I0528 21:52:09.921434 142708 net.cpp:122] Setting up conv1
I0528 21:52:09.921478 142708 net.cpp:129] Top shape: 100 64 112 112 (80281600)
I0528 21:52:09.921483 142708 net.cpp:137] Memory required for data: 501760400
I0528 21:52:09.921494 142708 layer_factory.hpp:77] Creating layer conv1_bn
I0528 21:52:09.921509 142708 net.cpp:84] Creating Layer conv1_bn
I0528 21:52:09.921514 142708 net.cpp:406] conv1_bn <- conv1
I0528 21:52:09.921522 142708 net.cpp:367] conv1_bn -> conv1 (in-place)
I0528 21:52:09.921682 142708 net.cpp:122] Setting up conv1_bn
I0528 21:52:09.921691 142708 net.cpp:129] Top shape: 100 64 112 112 (80281600)
I0528 21:52:09.921695 142708 net.cpp:137] Memory required for data: 822886800
I0528 21:52:09.921707 142708 layer_factory.hpp:77] Creating layer conv1_scale
I0528 21:52:09.921716 142708 net.cpp:84] Creating Layer conv1_scale
I0528 21:52:09.921730 142708 net.cpp:406] conv1_scale <- conv1
I0528 21:52:09.921747 142708 net.cpp:367] conv1_scale -> conv1 (in-place)
I0528 21:52:09.921788 142708 layer_factory.hpp:77] Creating layer conv1_scale
I0528 21:52:09.921896 142708 net.cpp:122] Setting up conv1_scale
I0528 21:52:09.921905 142708 net.cpp:129] Top shape: 100 64 112 112 (80281600)
I0528 21:52:09.921908 142708 net.cpp:137] Memory required for data: 1144013200
I0528 21:52:09.921914 142708 layer_factory.hpp:77] Creating layer conv1_relu
I0528 21:52:09.921924 142708 net.cpp:84] Creating Layer conv1_relu
I0528 21:52:09.921928 142708 net.cpp:406] conv1_relu <- conv1
I0528 21:52:09.921933 142708 net.cpp:367] conv1_relu -> conv1 (in-place)
I0528 21:52:09.922513 142708 net.cpp:122] Setting up conv1_relu
I0528 21:52:09.922530 142708 net.cpp:129] Top shape: 100 64 112 112 (80281600)
I0528 21:52:09.922534 142708 net.cpp:137] Memory required for data: 1465139600
I0528 21:52:09.922538 142708 layer_factory.hpp:77] Creating layer conv1_pool
I0528 21:52:09.922547 142708 net.cpp:84] Creating Layer conv1_pool
I0528 21:52:09.922551 142708 net.cpp:406] conv1_pool <- conv1
I0528 21:52:09.922557 142708 net.cpp:380] conv1_pool -> conv1_pool
I0528 21:52:09.922610 142708 net.cpp:122] Setting up conv1_pool
I0528 21:52:09.922617 142708 net.cpp:129] Top shape: 100 64 56 56 (20070400)
I0528 21:52:09.922621 142708 net.cpp:137] Memory required for data: 1545421200
I0528 21:52:09.922624 142708 layer_factory.hpp:77] Creating layer conv1_pool_conv1_pool_0_split
I0528 21:52:09.922633 142708 net.cpp:84] Creating Layer conv1_pool_conv1_pool_0_split
I0528 21:52:09.922637 142708 net.cpp:406] conv1_pool_conv1_pool_0_split <- conv1_pool
I0528 21:52:09.922642 142708 net.cpp:380] conv1_pool_conv1_pool_0_split -> conv1_pool_conv1_pool_0_split_0
I0528 21:52:09.922649 142708 net.cpp:380] conv1_pool_conv1_pool_0_split -> conv1_pool_conv1_pool_0_split_1
I0528 21:52:09.922679 142708 net.cpp:122] Setting up conv1_pool_conv1_pool_0_split
I0528 21:52:09.922685 142708 net.cpp:129] Top shape: 100 64 56 56 (20070400)
I0528 21:52:09.922689 142708 net.cpp:129] Top shape: 100 64 56 56 (20070400)
I0528 21:52:09.922693 142708 net.cpp:137] Memory required for data: 1705984400
I0528 21:52:09.922696 142708 layer_factory.hpp:77] Creating layer layer_64_1_conv1
I0528 21:52:09.922708 142708 net.cpp:84] Creating Layer layer_64_1_conv1
I0528 21:52:09.922713 142708 net.cpp:406] layer_64_1_conv1 <- conv1_pool_conv1_pool_0_split_0
I0528 21:52:09.922719 142708 net.cpp:380] layer_64_1_conv1 -> layer_64_1_conv1
I0528 21:52:09.925156 142708 net.cpp:122] Setting up layer_64_1_conv1
I0528 21:52:09.925173 142708 net.cpp:129] Top shape: 100 64 56 56 (20070400)
I0528 21:52:09.925178 142708 net.cpp:137] Memory required for data: 1786266000
I0528 21:52:09.925184 142708 layer_factory.hpp:77] Creating layer layer_64_1_bn2
I0528 21:52:09.925191 142708 net.cpp:84] Creating Layer layer_64_1_bn2
I0528 21:52:09.925195 142708 net.cpp:406] layer_64_1_bn2 <- layer_64_1_conv1
I0528 21:52:09.925201 142708 net.cpp:367] layer_64_1_bn2 -> layer_64_1_conv1 (in-place)
I0528 21:52:09.925952 142708 net.cpp:122] Setting up layer_64_1_bn2
I0528 21:52:09.925966 142708 net.cpp:129] Top shape: 100 64 56 56 (20070400)
I0528 21:52:09.925971 142708 net.cpp:137] Memory required for data: 1866547600
I0528 21:52:09.925978 142708 layer_factory.hpp:77] Creating layer layer_64_1_scale2
I0528 21:52:09.925987 142708 net.cpp:84] Creating Layer layer_64_1_scale2
I0528 21:52:09.925990 142708 net.cpp:406] layer_64_1_scale2 <- layer_64_1_conv1
I0528 21:52:09.925997 142708 net.cpp:367] layer_64_1_scale2 -> layer_64_1_conv1 (in-place)
I0528 21:52:09.926033 142708 layer_factory.hpp:77] Creating layer layer_64_1_scale2
I0528 21:52:09.926134 142708 net.cpp:122] Setting up layer_64_1_scale2
I0528 21:52:09.926146 142708 net.cpp:129] Top shape: 100 64 56 56 (20070400)
I0528 21:52:09.926149 142708 net.cpp:137] Memory required for data: 1946829200
I0528 21:52:09.926159 142708 layer_factory.hpp:77] Creating layer layer_64_1_relu2
I0528 21:52:09.926165 142708 net.cpp:84] Creating Layer layer_64_1_relu2
I0528 21:52:09.926175 142708 net.cpp:406] layer_64_1_relu2 <- layer_64_1_conv1
I0528 21:52:09.926187 142708 net.cpp:367] layer_64_1_relu2 -> layer_64_1_conv1 (in-place)
I0528 21:52:09.926336 142708 net.cpp:122] Setting up layer_64_1_relu2
I0528 21:52:09.926345 142708 net.cpp:129] Top shape: 100 64 56 56 (20070400)
I0528 21:52:09.926348 142708 net.cpp:137] Memory required for data: 2027110800
I0528 21:52:09.926352 142708 layer_factory.hpp:77] Creating layer layer_64_1_conv2
I0528 21:52:09.926362 142708 net.cpp:84] Creating Layer layer_64_1_conv2
I0528 21:52:09.926367 142708 net.cpp:406] layer_64_1_conv2 <- layer_64_1_conv1
I0528 21:52:09.926373 142708 net.cpp:380] layer_64_1_conv2 -> layer_64_1_conv2
I0528 21:52:09.928795 142708 net.cpp:122] Setting up layer_64_1_conv2
I0528 21:52:09.928813 142708 net.cpp:129] Top shape: 100 64 56 56 (20070400)
I0528 21:52:09.928817 142708 net.cpp:137] Memory required for data: 2107392400
I0528 21:52:09.928823 142708 layer_factory.hpp:77] Creating layer layer_64_1_sum
I0528 21:52:09.928833 142708 net.cpp:84] Creating Layer layer_64_1_sum
I0528 21:52:09.928838 142708 net.cpp:406] layer_64_1_sum <- layer_64_1_conv2
I0528 21:52:09.928843 142708 net.cpp:406] layer_64_1_sum <- conv1_pool_conv1_pool_0_split_1
I0528 21:52:09.928849 142708 net.cpp:380] layer_64_1_sum -> layer_64_1_sum
I0528 21:52:09.928879 142708 net.cpp:122] Setting up layer_64_1_sum
I0528 21:52:09.928885 142708 net.cpp:129] Top shape: 100 64 56 56 (20070400)
I0528 21:52:09.928889 142708 net.cpp:137] Memory required for data: 2187674000
I0528 21:52:09.928892 142708 layer_factory.hpp:77] Creating layer layer_64_1_sum_layer_64_1_sum_0_split
I0528 21:52:09.928897 142708 net.cpp:84] Creating Layer layer_64_1_sum_layer_64_1_sum_0_split
I0528 21:52:09.928901 142708 net.cpp:406] layer_64_1_sum_layer_64_1_sum_0_split <- layer_64_1_sum
I0528 21:52:09.928906 142708 net.cpp:380] layer_64_1_sum_layer_64_1_sum_0_split -> layer_64_1_sum_layer_64_1_sum_0_split_0
I0528 21:52:09.928913 142708 net.cpp:380] layer_64_1_sum_layer_64_1_sum_0_split -> layer_64_1_sum_layer_64_1_sum_0_split_1
I0528 21:52:09.928941 142708 net.cpp:122] Setting up layer_64_1_sum_layer_64_1_sum_0_split
I0528 21:52:09.928947 142708 net.cpp:129] Top shape: 100 64 56 56 (20070400)
I0528 21:52:09.928951 142708 net.cpp:129] Top shape: 100 64 56 56 (20070400)
I0528 21:52:09.928954 142708 net.cpp:137] Memory required for data: 2348237200
I0528 21:52:09.928957 142708 layer_factory.hpp:77] Creating layer layer_64_2_bn1
I0528 21:52:09.928966 142708 net.cpp:84] Creating Layer layer_64_2_bn1
I0528 21:52:09.928969 142708 net.cpp:406] layer_64_2_bn1 <- layer_64_1_sum_layer_64_1_sum_0_split_0
I0528 21:52:09.928975 142708 net.cpp:380] layer_64_2_bn1 -> layer_64_2_bn1
I0528 21:52:09.929141 142708 net.cpp:122] Setting up layer_64_2_bn1
I0528 21:52:09.929150 142708 net.cpp:129] Top shape: 100 64 56 56 (20070400)
I0528 21:52:09.929154 142708 net.cpp:137] Memory required for data: 2428518800
I0528 21:52:09.929162 142708 layer_factory.hpp:77] Creating layer layer_64_2_scale1
I0528 21:52:09.929168 142708 net.cpp:84] Creating Layer layer_64_2_scale1
I0528 21:52:09.929173 142708 net.cpp:406] layer_64_2_scale1 <- layer_64_2_bn1
I0528 21:52:09.929178 142708 net.cpp:367] layer_64_2_scale1 -> layer_64_2_bn1 (in-place)
I0528 21:52:09.929214 142708 layer_factory.hpp:77] Creating layer layer_64_2_scale1
I0528 21:52:09.929306 142708 net.cpp:122] Setting up layer_64_2_scale1
I0528 21:52:09.929313 142708 net.cpp:129] Top shape: 100 64 56 56 (20070400)
I0528 21:52:09.929317 142708 net.cpp:137] Memory required for data: 2508800400
I0528 21:52:09.929323 142708 layer_factory.hpp:77] Creating layer layer_64_2_relu1
I0528 21:52:09.929329 142708 net.cpp:84] Creating Layer layer_64_2_relu1
I0528 21:52:09.929333 142708 net.cpp:406] layer_64_2_relu1 <- layer_64_2_bn1
I0528 21:52:09.929338 142708 net.cpp:367] layer_64_2_relu1 -> layer_64_2_bn1 (in-place)
I0528 21:52:09.929486 142708 net.cpp:122] Setting up layer_64_2_relu1
I0528 21:52:09.929497 142708 net.cpp:129] Top shape: 100 64 56 56 (20070400)
I0528 21:52:09.929505 142708 net.cpp:137] Memory required for data: 2589082000
I0528 21:52:09.929517 142708 layer_factory.hpp:77] Creating layer layer_64_2_conv1
I0528 21:52:09.929527 142708 net.cpp:84] Creating Layer layer_64_2_conv1
I0528 21:52:09.929530 142708 net.cpp:406] layer_64_2_conv1 <- layer_64_2_bn1
I0528 21:52:09.929538 142708 net.cpp:380] layer_64_2_conv1 -> layer_64_2_conv1
I0528 21:52:09.932029 142708 net.cpp:122] Setting up layer_64_2_conv1
I0528 21:52:09.932052 142708 net.cpp:129] Top shape: 100 64 56 56 (20070400)
I0528 21:52:09.932059 142708 net.cpp:137] Memory required for data: 2669363600
I0528 21:52:09.932065 142708 layer_factory.hpp:77] Creating layer layer_64_2_bn2
I0528 21:52:09.932072 142708 net.cpp:84] Creating Layer layer_64_2_bn2
I0528 21:52:09.932076 142708 net.cpp:406] layer_64_2_bn2 <- layer_64_2_conv1
I0528 21:52:09.932085 142708 net.cpp:367] layer_64_2_bn2 -> layer_64_2_conv1 (in-place)
I0528 21:52:09.932255 142708 net.cpp:122] Setting up layer_64_2_bn2
I0528 21:52:09.932263 142708 net.cpp:129] Top shape: 100 64 56 56 (20070400)
I0528 21:52:09.932267 142708 net.cpp:137] Memory required for data: 2749645200
I0528 21:52:09.932274 142708 layer_factory.hpp:77] Creating layer layer_64_2_scale2
I0528 21:52:09.932281 142708 net.cpp:84] Creating Layer layer_64_2_scale2
I0528 21:52:09.932286 142708 net.cpp:406] layer_64_2_scale2 <- layer_64_2_conv1
I0528 21:52:09.932294 142708 net.cpp:367] layer_64_2_scale2 -> layer_64_2_conv1 (in-place)
I0528 21:52:09.932330 142708 layer_factory.hpp:77] Creating layer layer_64_2_scale2
I0528 21:52:09.932433 142708 net.cpp:122] Setting up layer_64_2_scale2
I0528 21:52:09.932441 142708 net.cpp:129] Top shape: 100 64 56 56 (20070400)
I0528 21:52:09.932446 142708 net.cpp:137] Memory required for data: 2829926800
I0528 21:52:09.932451 142708 layer_factory.hpp:77] Creating layer layer_64_2_relu2
I0528 21:52:09.932456 142708 net.cpp:84] Creating Layer layer_64_2_relu2
I0528 21:52:09.932461 142708 net.cpp:406] layer_64_2_relu2 <- layer_64_2_conv1
I0528 21:52:09.932467 142708 net.cpp:367] layer_64_2_relu2 -> layer_64_2_conv1 (in-place)
I0528 21:52:09.933122 142708 net.cpp:122] Setting up layer_64_2_relu2
I0528 21:52:09.933138 142708 net.cpp:129] Top shape: 100 64 56 56 (20070400)
I0528 21:52:09.933143 142708 net.cpp:137] Memory required for data: 2910208400
I0528 21:52:09.933146 142708 layer_factory.hpp:77] Creating layer layer_64_2_conv2
I0528 21:52:09.933161 142708 net.cpp:84] Creating Layer layer_64_2_conv2
I0528 21:52:09.933166 142708 net.cpp:406] layer_64_2_conv2 <- layer_64_2_conv1
I0528 21:52:09.933174 142708 net.cpp:380] layer_64_2_conv2 -> layer_64_2_conv2
I0528 21:52:09.936282 142708 net.cpp:122] Setting up layer_64_2_conv2
I0528 21:52:09.936300 142708 net.cpp:129] Top shape: 100 64 56 56 (20070400)
I0528 21:52:09.936305 142708 net.cpp:137] Memory required for data: 2990490000
I0528 21:52:09.936311 142708 layer_factory.hpp:77] Creating layer layer_64_2_sum
I0528 21:52:09.936321 142708 net.cpp:84] Creating Layer layer_64_2_sum
I0528 21:52:09.936324 142708 net.cpp:406] layer_64_2_sum <- layer_64_2_conv2
I0528 21:52:09.936329 142708 net.cpp:406] layer_64_2_sum <- layer_64_1_sum_layer_64_1_sum_0_split_1
I0528 21:52:09.936336 142708 net.cpp:380] layer_64_2_sum -> layer_64_2_sum
I0528 21:52:09.936360 142708 net.cpp:122] Setting up layer_64_2_sum
I0528 21:52:09.936369 142708 net.cpp:129] Top shape: 100 64 56 56 (20070400)
I0528 21:52:09.936372 142708 net.cpp:137] Memory required for data: 3070771600
I0528 21:52:09.936377 142708 layer_factory.hpp:77] Creating layer layer_128_1_bn1
I0528 21:52:09.936383 142708 net.cpp:84] Creating Layer layer_128_1_bn1
I0528 21:52:09.936386 142708 net.cpp:406] layer_128_1_bn1 <- layer_64_2_sum
I0528 21:52:09.936393 142708 net.cpp:380] layer_128_1_bn1 -> layer_128_1_bn1
I0528 21:52:09.936573 142708 net.cpp:122] Setting up layer_128_1_bn1
I0528 21:52:09.936581 142708 net.cpp:129] Top shape: 100 64 56 56 (20070400)
I0528 21:52:09.936585 142708 net.cpp:137] Memory required for data: 3151053200
I0528 21:52:09.936599 142708 layer_factory.hpp:77] Creating layer layer_128_1_scale1
I0528 21:52:09.936611 142708 net.cpp:84] Creating Layer layer_128_1_scale1
I0528 21:52:09.936624 142708 net.cpp:406] layer_128_1_scale1 <- layer_128_1_bn1
I0528 21:52:09.936631 142708 net.cpp:367] layer_128_1_scale1 -> layer_128_1_bn1 (in-place)
I0528 21:52:09.936674 142708 layer_factory.hpp:77] Creating layer layer_128_1_scale1
I0528 21:52:09.936780 142708 net.cpp:122] Setting up layer_128_1_scale1
I0528 21:52:09.936789 142708 net.cpp:129] Top shape: 100 64 56 56 (20070400)
I0528 21:52:09.936792 142708 net.cpp:137] Memory required for data: 3231334800
I0528 21:52:09.936799 142708 layer_factory.hpp:77] Creating layer layer_128_1_relu1
I0528 21:52:09.936805 142708 net.cpp:84] Creating Layer layer_128_1_relu1
I0528 21:52:09.936808 142708 net.cpp:406] layer_128_1_relu1 <- layer_128_1_bn1
I0528 21:52:09.936815 142708 net.cpp:367] layer_128_1_relu1 -> layer_128_1_bn1 (in-place)
I0528 21:52:09.936982 142708 net.cpp:122] Setting up layer_128_1_relu1
I0528 21:52:09.936993 142708 net.cpp:129] Top shape: 100 64 56 56 (20070400)
I0528 21:52:09.936996 142708 net.cpp:137] Memory required for data: 3311616400
I0528 21:52:09.937000 142708 layer_factory.hpp:77] Creating layer layer_128_1_bn1_layer_128_1_relu1_0_split
I0528 21:52:09.937007 142708 net.cpp:84] Creating Layer layer_128_1_bn1_layer_128_1_relu1_0_split
I0528 21:52:09.937011 142708 net.cpp:406] layer_128_1_bn1_layer_128_1_relu1_0_split <- layer_128_1_bn1
I0528 21:52:09.937017 142708 net.cpp:380] layer_128_1_bn1_layer_128_1_relu1_0_split -> layer_128_1_bn1_layer_128_1_relu1_0_split_0
I0528 21:52:09.937024 142708 net.cpp:380] layer_128_1_bn1_layer_128_1_relu1_0_split -> layer_128_1_bn1_layer_128_1_relu1_0_split_1
I0528 21:52:09.937074 142708 net.cpp:122] Setting up layer_128_1_bn1_layer_128_1_relu1_0_split
I0528 21:52:09.937085 142708 net.cpp:129] Top shape: 100 64 56 56 (20070400)
I0528 21:52:09.937089 142708 net.cpp:129] Top shape: 100 64 56 56 (20070400)
I0528 21:52:09.937093 142708 net.cpp:137] Memory required for data: 3472179600
I0528 21:52:09.937096 142708 layer_factory.hpp:77] Creating layer layer_128_1_conv1
I0528 21:52:09.937108 142708 net.cpp:84] Creating Layer layer_128_1_conv1
I0528 21:52:09.937113 142708 net.cpp:406] layer_128_1_conv1 <- layer_128_1_bn1_layer_128_1_relu1_0_split_0
I0528 21:52:09.937120 142708 net.cpp:380] layer_128_1_conv1 -> layer_128_1_conv1
I0528 21:52:09.948493 142708 net.cpp:122] Setting up layer_128_1_conv1
I0528 21:52:09.948515 142708 net.cpp:129] Top shape: 100 128 28 28 (10035200)
I0528 21:52:09.948520 142708 net.cpp:137] Memory required for data: 3512320400
I0528 21:52:09.948526 142708 layer_factory.hpp:77] Creating layer layer_128_1_bn2
I0528 21:52:09.948536 142708 net.cpp:84] Creating Layer layer_128_1_bn2
I0528 21:52:09.948540 142708 net.cpp:406] layer_128_1_bn2 <- layer_128_1_conv1
I0528 21:52:09.948547 142708 net.cpp:367] layer_128_1_bn2 -> layer_128_1_conv1 (in-place)
I0528 21:52:09.949277 142708 net.cpp:122] Setting up layer_128_1_bn2
I0528 21:52:09.949293 142708 net.cpp:129] Top shape: 100 128 28 28 (10035200)
I0528 21:52:09.949297 142708 net.cpp:137] Memory required for data: 3552461200
I0528 21:52:09.949306 142708 layer_factory.hpp:77] Creating layer layer_128_1_scale2
I0528 21:52:09.949313 142708 net.cpp:84] Creating Layer layer_128_1_scale2
I0528 21:52:09.949318 142708 net.cpp:406] layer_128_1_scale2 <- layer_128_1_conv1
I0528 21:52:09.949323 142708 net.cpp:367] layer_128_1_scale2 -> layer_128_1_conv1 (in-place)
I0528 21:52:09.949368 142708 layer_factory.hpp:77] Creating layer layer_128_1_scale2
I0528 21:52:09.949470 142708 net.cpp:122] Setting up layer_128_1_scale2
I0528 21:52:09.949478 142708 net.cpp:129] Top shape: 100 128 28 28 (10035200)
I0528 21:52:09.949482 142708 net.cpp:137] Memory required for data: 3592602000
I0528 21:52:09.949488 142708 layer_factory.hpp:77] Creating layer layer_128_1_relu2
I0528 21:52:09.949499 142708 net.cpp:84] Creating Layer layer_128_1_relu2
I0528 21:52:09.949504 142708 net.cpp:406] layer_128_1_relu2 <- layer_128_1_conv1
I0528 21:52:09.949509 142708 net.cpp:367] layer_128_1_relu2 -> layer_128_1_conv1 (in-place)
I0528 21:52:09.949693 142708 net.cpp:122] Setting up layer_128_1_relu2
I0528 21:52:09.949705 142708 net.cpp:129] Top shape: 100 128 28 28 (10035200)
I0528 21:52:09.949709 142708 net.cpp:137] Memory required for data: 3632742800
I0528 21:52:09.949713 142708 layer_factory.hpp:77] Creating layer layer_128_1_conv2
I0528 21:52:09.949725 142708 net.cpp:84] Creating Layer layer_128_1_conv2
I0528 21:52:09.949729 142708 net.cpp:406] layer_128_1_conv2 <- layer_128_1_conv1
I0528 21:52:09.949736 142708 net.cpp:380] layer_128_1_conv2 -> layer_128_1_conv2
I0528 21:52:09.955294 142708 net.cpp:122] Setting up layer_128_1_conv2
I0528 21:52:09.955312 142708 net.cpp:129] Top shape: 100 128 28 28 (10035200)
I0528 21:52:09.955317 142708 net.cpp:137] Memory required for data: 3672883600
I0528 21:52:09.955322 142708 layer_factory.hpp:77] Creating layer layer_128_1_conv_expand
I0528 21:52:09.955335 142708 net.cpp:84] Creating Layer layer_128_1_conv_expand
I0528 21:52:09.955340 142708 net.cpp:406] layer_128_1_conv_expand <- layer_128_1_bn1_layer_128_1_relu1_0_split_1
I0528 21:52:09.955349 142708 net.cpp:380] layer_128_1_conv_expand -> layer_128_1_conv_expand
I0528 21:52:09.957110 142708 net.cpp:122] Setting up layer_128_1_conv_expand
I0528 21:52:09.957129 142708 net.cpp:129] Top shape: 100 128 28 28 (10035200)
I0528 21:52:09.957136 142708 net.cpp:137] Memory required for data: 3713024400
I0528 21:52:09.957142 142708 layer_factory.hpp:77] Creating layer layer_128_1_sum
I0528 21:52:09.957151 142708 net.cpp:84] Creating Layer layer_128_1_sum
I0528 21:52:09.957156 142708 net.cpp:406] layer_128_1_sum <- layer_128_1_conv_expand
I0528 21:52:09.957161 142708 net.cpp:406] layer_128_1_sum <- layer_128_1_conv2
I0528 21:52:09.957167 142708 net.cpp:380] layer_128_1_sum -> layer_128_1_sum
I0528 21:52:09.957201 142708 net.cpp:122] Setting up layer_128_1_sum
I0528 21:52:09.957208 142708 net.cpp:129] Top shape: 100 128 28 28 (10035200)
I0528 21:52:09.957211 142708 net.cpp:137] Memory required for data: 3753165200
I0528 21:52:09.957216 142708 layer_factory.hpp:77] Creating layer layer_128_1_sum_layer_128_1_sum_0_split
I0528 21:52:09.957222 142708 net.cpp:84] Creating Layer layer_128_1_sum_layer_128_1_sum_0_split
I0528 21:52:09.957226 142708 net.cpp:406] layer_128_1_sum_layer_128_1_sum_0_split <- layer_128_1_sum
I0528 21:52:09.957231 142708 net.cpp:380] layer_128_1_sum_layer_128_1_sum_0_split -> layer_128_1_sum_layer_128_1_sum_0_split_0
I0528 21:52:09.957239 142708 net.cpp:380] layer_128_1_sum_layer_128_1_sum_0_split -> layer_128_1_sum_layer_128_1_sum_0_split_1
I0528 21:52:09.957274 142708 net.cpp:122] Setting up layer_128_1_sum_layer_128_1_sum_0_split
I0528 21:52:09.957281 142708 net.cpp:129] Top shape: 100 128 28 28 (10035200)
I0528 21:52:09.957285 142708 net.cpp:129] Top shape: 100 128 28 28 (10035200)
I0528 21:52:09.957288 142708 net.cpp:137] Memory required for data: 3833446800
I0528 21:52:09.957291 142708 layer_factory.hpp:77] Creating layer layer_128_2_bn1
I0528 21:52:09.957300 142708 net.cpp:84] Creating Layer layer_128_2_bn1
I0528 21:52:09.957304 142708 net.cpp:406] layer_128_2_bn1 <- layer_128_1_sum_layer_128_1_sum_0_split_0
I0528 21:52:09.957311 142708 net.cpp:380] layer_128_2_bn1 -> layer_128_2_bn1
I0528 21:52:09.957487 142708 net.cpp:122] Setting up layer_128_2_bn1
I0528 21:52:09.957495 142708 net.cpp:129] Top shape: 100 128 28 28 (10035200)
I0528 21:52:09.957499 142708 net.cpp:137] Memory required for data: 3873587600
I0528 21:52:09.957509 142708 layer_factory.hpp:77] Creating layer layer_128_2_scale1
I0528 21:52:09.957515 142708 net.cpp:84] Creating Layer layer_128_2_scale1
I0528 21:52:09.957520 142708 net.cpp:406] layer_128_2_scale1 <- layer_128_2_bn1
I0528 21:52:09.957525 142708 net.cpp:367] layer_128_2_scale1 -> layer_128_2_bn1 (in-place)
I0528 21:52:09.957564 142708 layer_factory.hpp:77] Creating layer layer_128_2_scale1
I0528 21:52:09.957665 142708 net.cpp:122] Setting up layer_128_2_scale1
I0528 21:52:09.957674 142708 net.cpp:129] Top shape: 100 128 28 28 (10035200)
I0528 21:52:09.957676 142708 net.cpp:137] Memory required for data: 3913728400
I0528 21:52:09.957695 142708 layer_factory.hpp:77] Creating layer layer_128_2_relu1
I0528 21:52:09.957703 142708 net.cpp:84] Creating Layer layer_128_2_relu1
I0528 21:52:09.957707 142708 net.cpp:406] layer_128_2_relu1 <- layer_128_2_bn1
I0528 21:52:09.957712 142708 net.cpp:367] layer_128_2_relu1 -> layer_128_2_bn1 (in-place)
I0528 21:52:09.958730 142708 net.cpp:122] Setting up layer_128_2_relu1
I0528 21:52:09.958750 142708 net.cpp:129] Top shape: 100 128 28 28 (10035200)
I0528 21:52:09.958755 142708 net.cpp:137] Memory required for data: 3953869200
I0528 21:52:09.958758 142708 layer_factory.hpp:77] Creating layer layer_128_2_conv1
I0528 21:52:09.958770 142708 net.cpp:84] Creating Layer layer_128_2_conv1
I0528 21:52:09.958775 142708 net.cpp:406] layer_128_2_conv1 <- layer_128_2_bn1
I0528 21:52:09.958782 142708 net.cpp:380] layer_128_2_conv1 -> layer_128_2_conv1
I0528 21:52:09.964496 142708 net.cpp:122] Setting up layer_128_2_conv1
I0528 21:52:09.964514 142708 net.cpp:129] Top shape: 100 128 28 28 (10035200)
I0528 21:52:09.964519 142708 net.cpp:137] Memory required for data: 3994010000
I0528 21:52:09.964524 142708 layer_factory.hpp:77] Creating layer layer_128_2_bn2
I0528 21:52:09.964534 142708 net.cpp:84] Creating Layer layer_128_2_bn2
I0528 21:52:09.964539 142708 net.cpp:406] layer_128_2_bn2 <- layer_128_2_conv1
I0528 21:52:09.964545 142708 net.cpp:367] layer_128_2_bn2 -> layer_128_2_conv1 (in-place)
I0528 21:52:09.964715 142708 net.cpp:122] Setting up layer_128_2_bn2
I0528 21:52:09.964723 142708 net.cpp:129] Top shape: 100 128 28 28 (10035200)
I0528 21:52:09.964726 142708 net.cpp:137] Memory required for data: 4034150800
I0528 21:52:09.964733 142708 layer_factory.hpp:77] Creating layer layer_128_2_scale2
I0528 21:52:09.964740 142708 net.cpp:84] Creating Layer layer_128_2_scale2
I0528 21:52:09.964745 142708 net.cpp:406] layer_128_2_scale2 <- layer_128_2_conv1
I0528 21:52:09.964752 142708 net.cpp:367] layer_128_2_scale2 -> layer_128_2_conv1 (in-place)
I0528 21:52:09.964789 142708 layer_factory.hpp:77] Creating layer layer_128_2_scale2
I0528 21:52:09.964889 142708 net.cpp:122] Setting up layer_128_2_scale2
I0528 21:52:09.964895 142708 net.cpp:129] Top shape: 100 128 28 28 (10035200)
I0528 21:52:09.964900 142708 net.cpp:137] Memory required for data: 4074291600
I0528 21:52:09.964905 142708 layer_factory.hpp:77] Creating layer layer_128_2_relu2
I0528 21:52:09.964913 142708 net.cpp:84] Creating Layer layer_128_2_relu2
I0528 21:52:09.964917 142708 net.cpp:406] layer_128_2_relu2 <- layer_128_2_conv1
I0528 21:52:09.964922 142708 net.cpp:367] layer_128_2_relu2 -> layer_128_2_conv1 (in-place)
I0528 21:52:09.965471 142708 net.cpp:122] Setting up layer_128_2_relu2
I0528 21:52:09.965487 142708 net.cpp:129] Top shape: 100 128 28 28 (10035200)
I0528 21:52:09.965490 142708 net.cpp:137] Memory required for data: 4114432400
I0528 21:52:09.965494 142708 layer_factory.hpp:77] Creating layer layer_128_2_conv2
I0528 21:52:09.965509 142708 net.cpp:84] Creating Layer layer_128_2_conv2
I0528 21:52:09.965514 142708 net.cpp:406] layer_128_2_conv2 <- layer_128_2_conv1
I0528 21:52:09.965528 142708 net.cpp:380] layer_128_2_conv2 -> layer_128_2_conv2
I0528 21:52:09.971638 142708 net.cpp:122] Setting up layer_128_2_conv2
I0528 21:52:09.971658 142708 net.cpp:129] Top shape: 100 128 28 28 (10035200)
I0528 21:52:09.971662 142708 net.cpp:137] Memory required for data: 4154573200
I0528 21:52:09.971668 142708 layer_factory.hpp:77] Creating layer layer_128_2_sum
I0528 21:52:09.971675 142708 net.cpp:84] Creating Layer layer_128_2_sum
I0528 21:52:09.971680 142708 net.cpp:406] layer_128_2_sum <- layer_128_2_conv2
I0528 21:52:09.971685 142708 net.cpp:406] layer_128_2_sum <- layer_128_1_sum_layer_128_1_sum_0_split_1
I0528 21:52:09.971691 142708 net.cpp:380] layer_128_2_sum -> layer_128_2_sum
I0528 21:52:09.971720 142708 net.cpp:122] Setting up layer_128_2_sum
I0528 21:52:09.971727 142708 net.cpp:129] Top shape: 100 128 28 28 (10035200)
I0528 21:52:09.971731 142708 net.cpp:137] Memory required for data: 4194714000
I0528 21:52:09.971741 142708 layer_factory.hpp:77] Creating layer layer_256_1_bn1
I0528 21:52:09.971758 142708 net.cpp:84] Creating Layer layer_256_1_bn1
I0528 21:52:09.971763 142708 net.cpp:406] layer_256_1_bn1 <- layer_128_2_sum
I0528 21:52:09.971768 142708 net.cpp:380] layer_256_1_bn1 -> layer_256_1_bn1
I0528 21:52:09.971947 142708 net.cpp:122] Setting up layer_256_1_bn1
I0528 21:52:09.971954 142708 net.cpp:129] Top shape: 100 128 28 28 (10035200)
I0528 21:52:09.971958 142708 net.cpp:137] Memory required for data: 4234854800
I0528 21:52:09.971967 142708 layer_factory.hpp:77] Creating layer layer_256_1_scale1
I0528 21:52:09.971974 142708 net.cpp:84] Creating Layer layer_256_1_scale1
I0528 21:52:09.971978 142708 net.cpp:406] layer_256_1_scale1 <- layer_256_1_bn1
I0528 21:52:09.971983 142708 net.cpp:367] layer_256_1_scale1 -> layer_256_1_bn1 (in-place)
I0528 21:52:09.972023 142708 layer_factory.hpp:77] Creating layer layer_256_1_scale1
I0528 21:52:09.972134 142708 net.cpp:122] Setting up layer_256_1_scale1
I0528 21:52:09.972146 142708 net.cpp:129] Top shape: 100 128 28 28 (10035200)
I0528 21:52:09.972149 142708 net.cpp:137] Memory required for data: 4274995600
I0528 21:52:09.972156 142708 layer_factory.hpp:77] Creating layer layer_256_1_relu1
I0528 21:52:09.972163 142708 net.cpp:84] Creating Layer layer_256_1_relu1
I0528 21:52:09.972167 142708 net.cpp:406] layer_256_1_relu1 <- layer_256_1_bn1
I0528 21:52:09.972172 142708 net.cpp:367] layer_256_1_relu1 -> layer_256_1_bn1 (in-place)
I0528 21:52:09.972344 142708 net.cpp:122] Setting up layer_256_1_relu1
I0528 21:52:09.972357 142708 net.cpp:129] Top shape: 100 128 28 28 (10035200)
I0528 21:52:09.972360 142708 net.cpp:137] Memory required for data: 4315136400
I0528 21:52:09.972364 142708 layer_factory.hpp:77] Creating layer layer_256_1_bn1_layer_256_1_relu1_0_split
I0528 21:52:09.972370 142708 net.cpp:84] Creating Layer layer_256_1_bn1_layer_256_1_relu1_0_split
I0528 21:52:09.972374 142708 net.cpp:406] layer_256_1_bn1_layer_256_1_relu1_0_split <- layer_256_1_bn1
I0528 21:52:09.972379 142708 net.cpp:380] layer_256_1_bn1_layer_256_1_relu1_0_split -> layer_256_1_bn1_layer_256_1_relu1_0_split_0
I0528 21:52:09.972386 142708 net.cpp:380] layer_256_1_bn1_layer_256_1_relu1_0_split -> layer_256_1_bn1_layer_256_1_relu1_0_split_1
I0528 21:52:09.972427 142708 net.cpp:122] Setting up layer_256_1_bn1_layer_256_1_relu1_0_split
I0528 21:52:09.972434 142708 net.cpp:129] Top shape: 100 128 28 28 (10035200)
I0528 21:52:09.972439 142708 net.cpp:129] Top shape: 100 128 28 28 (10035200)
I0528 21:52:09.972441 142708 net.cpp:137] Memory required for data: 4395418000
I0528 21:52:09.972445 142708 layer_factory.hpp:77] Creating layer layer_256_1_conv1
I0528 21:52:09.972455 142708 net.cpp:84] Creating Layer layer_256_1_conv1
I0528 21:52:09.972460 142708 net.cpp:406] layer_256_1_conv1 <- layer_256_1_bn1_layer_256_1_relu1_0_split_0
I0528 21:52:09.972468 142708 net.cpp:380] layer_256_1_conv1 -> layer_256_1_conv1
I0528 21:52:09.982668 142708 net.cpp:122] Setting up layer_256_1_conv1
I0528 21:52:09.982688 142708 net.cpp:129] Top shape: 100 256 14 14 (5017600)
I0528 21:52:09.982693 142708 net.cpp:137] Memory required for data: 4415488400
I0528 21:52:09.982699 142708 layer_factory.hpp:77] Creating layer layer_256_1_bn2
I0528 21:52:09.982709 142708 net.cpp:84] Creating Layer layer_256_1_bn2
I0528 21:52:09.982714 142708 net.cpp:406] layer_256_1_bn2 <- layer_256_1_conv1
I0528 21:52:09.982720 142708 net.cpp:367] layer_256_1_bn2 -> layer_256_1_conv1 (in-place)
I0528 21:52:09.982899 142708 net.cpp:122] Setting up layer_256_1_bn2
I0528 21:52:09.982908 142708 net.cpp:129] Top shape: 100 256 14 14 (5017600)
I0528 21:52:09.982910 142708 net.cpp:137] Memory required for data: 4435558800
I0528 21:52:09.982931 142708 layer_factory.hpp:77] Creating layer layer_256_1_scale2
I0528 21:52:09.982939 142708 net.cpp:84] Creating Layer layer_256_1_scale2
I0528 21:52:09.982944 142708 net.cpp:406] layer_256_1_scale2 <- layer_256_1_conv1
I0528 21:52:09.982949 142708 net.cpp:367] layer_256_1_scale2 -> layer_256_1_conv1 (in-place)
I0528 21:52:09.983005 142708 layer_factory.hpp:77] Creating layer layer_256_1_scale2
I0528 21:52:09.983122 142708 net.cpp:122] Setting up layer_256_1_scale2
I0528 21:52:09.983134 142708 net.cpp:129] Top shape: 100 256 14 14 (5017600)
I0528 21:52:09.983137 142708 net.cpp:137] Memory required for data: 4455629200
I0528 21:52:09.983144 142708 layer_factory.hpp:77] Creating layer layer_256_1_relu2
I0528 21:52:09.983150 142708 net.cpp:84] Creating Layer layer_256_1_relu2
I0528 21:52:09.983153 142708 net.cpp:406] layer_256_1_relu2 <- layer_256_1_conv1
I0528 21:52:09.983160 142708 net.cpp:367] layer_256_1_relu2 -> layer_256_1_conv1 (in-place)
I0528 21:52:09.983741 142708 net.cpp:122] Setting up layer_256_1_relu2
I0528 21:52:09.983755 142708 net.cpp:129] Top shape: 100 256 14 14 (5017600)
I0528 21:52:09.983759 142708 net.cpp:137] Memory required for data: 4475699600
I0528 21:52:09.983763 142708 layer_factory.hpp:77] Creating layer layer_256_1_conv2
I0528 21:52:09.983777 142708 net.cpp:84] Creating Layer layer_256_1_conv2
I0528 21:52:09.983781 142708 net.cpp:406] layer_256_1_conv2 <- layer_256_1_conv1
I0528 21:52:09.983790 142708 net.cpp:380] layer_256_1_conv2 -> layer_256_1_conv2
I0528 21:52:10.002204 142708 net.cpp:122] Setting up layer_256_1_conv2
I0528 21:52:10.002236 142708 net.cpp:129] Top shape: 100 256 14 14 (5017600)
I0528 21:52:10.002241 142708 net.cpp:137] Memory required for data: 4495770000
I0528 21:52:10.002249 142708 layer_factory.hpp:77] Creating layer layer_256_1_conv_expand
I0528 21:52:10.002262 142708 net.cpp:84] Creating Layer layer_256_1_conv_expand
I0528 21:52:10.002269 142708 net.cpp:406] layer_256_1_conv_expand <- layer_256_1_bn1_layer_256_1_relu1_0_split_1
I0528 21:52:10.002277 142708 net.cpp:380] layer_256_1_conv_expand -> layer_256_1_conv_expand
I0528 21:52:10.005177 142708 net.cpp:122] Setting up layer_256_1_conv_expand
I0528 21:52:10.005195 142708 net.cpp:129] Top shape: 100 256 14 14 (5017600)
I0528 21:52:10.005199 142708 net.cpp:137] Memory required for data: 4515840400
I0528 21:52:10.005205 142708 layer_factory.hpp:77] Creating layer layer_256_1_sum
I0528 21:52:10.005215 142708 net.cpp:84] Creating Layer layer_256_1_sum
I0528 21:52:10.005220 142708 net.cpp:406] layer_256_1_sum <- layer_256_1_conv_expand
I0528 21:52:10.005225 142708 net.cpp:406] layer_256_1_sum <- layer_256_1_conv2
I0528 21:52:10.005231 142708 net.cpp:380] layer_256_1_sum -> layer_256_1_sum
I0528 21:52:10.005264 142708 net.cpp:122] Setting up layer_256_1_sum
I0528 21:52:10.005271 142708 net.cpp:129] Top shape: 100 256 14 14 (5017600)
I0528 21:52:10.005275 142708 net.cpp:137] Memory required for data: 4535910800
I0528 21:52:10.005278 142708 layer_factory.hpp:77] Creating layer layer_256_1_sum_layer_256_1_sum_0_split
I0528 21:52:10.005286 142708 net.cpp:84] Creating Layer layer_256_1_sum_layer_256_1_sum_0_split
I0528 21:52:10.005290 142708 net.cpp:406] layer_256_1_sum_layer_256_1_sum_0_split <- layer_256_1_sum
I0528 21:52:10.005297 142708 net.cpp:380] layer_256_1_sum_layer_256_1_sum_0_split -> layer_256_1_sum_layer_256_1_sum_0_split_0
I0528 21:52:10.005304 142708 net.cpp:380] layer_256_1_sum_layer_256_1_sum_0_split -> layer_256_1_sum_layer_256_1_sum_0_split_1
I0528 21:52:10.005339 142708 net.cpp:122] Setting up layer_256_1_sum_layer_256_1_sum_0_split
I0528 21:52:10.005347 142708 net.cpp:129] Top shape: 100 256 14 14 (5017600)
I0528 21:52:10.005352 142708 net.cpp:129] Top shape: 100 256 14 14 (5017600)
I0528 21:52:10.005355 142708 net.cpp:137] Memory required for data: 4576051600
I0528 21:52:10.005359 142708 layer_factory.hpp:77] Creating layer layer_256_2_bn1
I0528 21:52:10.005367 142708 net.cpp:84] Creating Layer layer_256_2_bn1
I0528 21:52:10.005370 142708 net.cpp:406] layer_256_2_bn1 <- layer_256_1_sum_layer_256_1_sum_0_split_0
I0528 21:52:10.005378 142708 net.cpp:380] layer_256_2_bn1 -> layer_256_2_bn1
I0528 21:52:10.005564 142708 net.cpp:122] Setting up layer_256_2_bn1
I0528 21:52:10.005571 142708 net.cpp:129] Top shape: 100 256 14 14 (5017600)
I0528 21:52:10.005575 142708 net.cpp:137] Memory required for data: 4596122000
I0528 21:52:10.005592 142708 layer_factory.hpp:77] Creating layer layer_256_2_scale1
I0528 21:52:10.005610 142708 net.cpp:84] Creating Layer layer_256_2_scale1
I0528 21:52:10.005614 142708 net.cpp:406] layer_256_2_scale1 <- layer_256_2_bn1
I0528 21:52:10.005625 142708 net.cpp:367] layer_256_2_scale1 -> layer_256_2_bn1 (in-place)
I0528 21:52:10.005668 142708 layer_factory.hpp:77] Creating layer layer_256_2_scale1
I0528 21:52:10.005781 142708 net.cpp:122] Setting up layer_256_2_scale1
I0528 21:52:10.005790 142708 net.cpp:129] Top shape: 100 256 14 14 (5017600)
I0528 21:52:10.005794 142708 net.cpp:137] Memory required for data: 4616192400
I0528 21:52:10.005800 142708 layer_factory.hpp:77] Creating layer layer_256_2_relu1
I0528 21:52:10.005806 142708 net.cpp:84] Creating Layer layer_256_2_relu1
I0528 21:52:10.005810 142708 net.cpp:406] layer_256_2_relu1 <- layer_256_2_bn1
I0528 21:52:10.005815 142708 net.cpp:367] layer_256_2_relu1 -> layer_256_2_bn1 (in-place)
I0528 21:52:10.006419 142708 net.cpp:122] Setting up layer_256_2_relu1
I0528 21:52:10.006438 142708 net.cpp:129] Top shape: 100 256 14 14 (5017600)
I0528 21:52:10.006441 142708 net.cpp:137] Memory required for data: 4636262800
I0528 21:52:10.006445 142708 layer_factory.hpp:77] Creating layer layer_256_2_conv1
I0528 21:52:10.006458 142708 net.cpp:84] Creating Layer layer_256_2_conv1
I0528 21:52:10.006464 142708 net.cpp:406] layer_256_2_conv1 <- layer_256_2_bn1
I0528 21:52:10.006471 142708 net.cpp:380] layer_256_2_conv1 -> layer_256_2_conv1
I0528 21:52:10.024773 142708 net.cpp:122] Setting up layer_256_2_conv1
I0528 21:52:10.024799 142708 net.cpp:129] Top shape: 100 256 14 14 (5017600)
I0528 21:52:10.024804 142708 net.cpp:137] Memory required for data: 4656333200
I0528 21:52:10.024809 142708 layer_factory.hpp:77] Creating layer layer_256_2_bn2
I0528 21:52:10.024818 142708 net.cpp:84] Creating Layer layer_256_2_bn2
I0528 21:52:10.024822 142708 net.cpp:406] layer_256_2_bn2 <- layer_256_2_conv1
I0528 21:52:10.024832 142708 net.cpp:367] layer_256_2_bn2 -> layer_256_2_conv1 (in-place)
I0528 21:52:10.025015 142708 net.cpp:122] Setting up layer_256_2_bn2
I0528 21:52:10.025024 142708 net.cpp:129] Top shape: 100 256 14 14 (5017600)
I0528 21:52:10.025027 142708 net.cpp:137] Memory required for data: 4676403600
I0528 21:52:10.025035 142708 layer_factory.hpp:77] Creating layer layer_256_2_scale2
I0528 21:52:10.025048 142708 net.cpp:84] Creating Layer layer_256_2_scale2
I0528 21:52:10.025055 142708 net.cpp:406] layer_256_2_scale2 <- layer_256_2_conv1
I0528 21:52:10.025061 142708 net.cpp:367] layer_256_2_scale2 -> layer_256_2_conv1 (in-place)
I0528 21:52:10.025106 142708 layer_factory.hpp:77] Creating layer layer_256_2_scale2
I0528 21:52:10.025213 142708 net.cpp:122] Setting up layer_256_2_scale2
I0528 21:52:10.025221 142708 net.cpp:129] Top shape: 100 256 14 14 (5017600)
I0528 21:52:10.025224 142708 net.cpp:137] Memory required for data: 4696474000
I0528 21:52:10.025230 142708 layer_factory.hpp:77] Creating layer layer_256_2_relu2
I0528 21:52:10.025248 142708 net.cpp:84] Creating Layer layer_256_2_relu2
I0528 21:52:10.025252 142708 net.cpp:406] layer_256_2_relu2 <- layer_256_2_conv1
I0528 21:52:10.025257 142708 net.cpp:367] layer_256_2_relu2 -> layer_256_2_conv1 (in-place)
I0528 21:52:10.025836 142708 net.cpp:122] Setting up layer_256_2_relu2
I0528 21:52:10.025851 142708 net.cpp:129] Top shape: 100 256 14 14 (5017600)
I0528 21:52:10.025854 142708 net.cpp:137] Memory required for data: 4716544400
I0528 21:52:10.025858 142708 layer_factory.hpp:77] Creating layer layer_256_2_conv2
I0528 21:52:10.025874 142708 net.cpp:84] Creating Layer layer_256_2_conv2
I0528 21:52:10.025879 142708 net.cpp:406] layer_256_2_conv2 <- layer_256_2_conv1
I0528 21:52:10.025887 142708 net.cpp:380] layer_256_2_conv2 -> layer_256_2_conv2
I0528 21:52:10.044703 142708 net.cpp:122] Setting up layer_256_2_conv2
I0528 21:52:10.044739 142708 net.cpp:129] Top shape: 100 256 14 14 (5017600)
I0528 21:52:10.044745 142708 net.cpp:137] Memory required for data: 4736614800
I0528 21:52:10.044754 142708 layer_factory.hpp:77] Creating layer layer_256_2_sum
I0528 21:52:10.044775 142708 net.cpp:84] Creating Layer layer_256_2_sum
I0528 21:52:10.044791 142708 net.cpp:406] layer_256_2_sum <- layer_256_2_conv2
I0528 21:52:10.044798 142708 net.cpp:406] layer_256_2_sum <- layer_256_1_sum_layer_256_1_sum_0_split_1
I0528 21:52:10.044805 142708 net.cpp:380] layer_256_2_sum -> layer_256_2_sum
I0528 21:52:10.044838 142708 net.cpp:122] Setting up layer_256_2_sum
I0528 21:52:10.044847 142708 net.cpp:129] Top shape: 100 256 14 14 (5017600)
I0528 21:52:10.044849 142708 net.cpp:137] Memory required for data: 4756685200
I0528 21:52:10.044852 142708 layer_factory.hpp:77] Creating layer layer_512_1_bn1
I0528 21:52:10.044862 142708 net.cpp:84] Creating Layer layer_512_1_bn1
I0528 21:52:10.044865 142708 net.cpp:406] layer_512_1_bn1 <- layer_256_2_sum
I0528 21:52:10.044872 142708 net.cpp:380] layer_512_1_bn1 -> layer_512_1_bn1
I0528 21:52:10.045068 142708 net.cpp:122] Setting up layer_512_1_bn1
I0528 21:52:10.045079 142708 net.cpp:129] Top shape: 100 256 14 14 (5017600)
I0528 21:52:10.045083 142708 net.cpp:137] Memory required for data: 4776755600
I0528 21:52:10.045092 142708 layer_factory.hpp:77] Creating layer layer_512_1_scale1
I0528 21:52:10.045100 142708 net.cpp:84] Creating Layer layer_512_1_scale1
I0528 21:52:10.045104 142708 net.cpp:406] layer_512_1_scale1 <- layer_512_1_bn1
I0528 21:52:10.045110 142708 net.cpp:367] layer_512_1_scale1 -> layer_512_1_bn1 (in-place)
I0528 21:52:10.045156 142708 layer_factory.hpp:77] Creating layer layer_512_1_scale1
I0528 21:52:10.045264 142708 net.cpp:122] Setting up layer_512_1_scale1
I0528 21:52:10.045271 142708 net.cpp:129] Top shape: 100 256 14 14 (5017600)
I0528 21:52:10.045274 142708 net.cpp:137] Memory required for data: 4796826000
I0528 21:52:10.045280 142708 layer_factory.hpp:77] Creating layer layer_512_1_relu1
I0528 21:52:10.045289 142708 net.cpp:84] Creating Layer layer_512_1_relu1
I0528 21:52:10.045294 142708 net.cpp:406] layer_512_1_relu1 <- layer_512_1_bn1
I0528 21:52:10.045298 142708 net.cpp:367] layer_512_1_relu1 -> layer_512_1_bn1 (in-place)
I0528 21:52:10.045485 142708 net.cpp:122] Setting up layer_512_1_relu1
I0528 21:52:10.045495 142708 net.cpp:129] Top shape: 100 256 14 14 (5017600)
I0528 21:52:10.045500 142708 net.cpp:137] Memory required for data: 4816896400
I0528 21:52:10.045502 142708 layer_factory.hpp:77] Creating layer layer_512_1_bn1_layer_512_1_relu1_0_split
I0528 21:52:10.045511 142708 net.cpp:84] Creating Layer layer_512_1_bn1_layer_512_1_relu1_0_split
I0528 21:52:10.045516 142708 net.cpp:406] layer_512_1_bn1_layer_512_1_relu1_0_split <- layer_512_1_bn1
I0528 21:52:10.045521 142708 net.cpp:380] layer_512_1_bn1_layer_512_1_relu1_0_split -> layer_512_1_bn1_layer_512_1_relu1_0_split_0
I0528 21:52:10.045528 142708 net.cpp:380] layer_512_1_bn1_layer_512_1_relu1_0_split -> layer_512_1_bn1_layer_512_1_relu1_0_split_1
I0528 21:52:10.045572 142708 net.cpp:122] Setting up layer_512_1_bn1_layer_512_1_relu1_0_split
I0528 21:52:10.045578 142708 net.cpp:129] Top shape: 100 256 14 14 (5017600)
I0528 21:52:10.045583 142708 net.cpp:129] Top shape: 100 256 14 14 (5017600)
I0528 21:52:10.045585 142708 net.cpp:137] Memory required for data: 4857037200
I0528 21:52:10.045588 142708 layer_factory.hpp:77] Creating layer layer_512_1_conv1
I0528 21:52:10.045600 142708 net.cpp:84] Creating Layer layer_512_1_conv1
I0528 21:52:10.045605 142708 net.cpp:406] layer_512_1_conv1 <- layer_512_1_bn1_layer_512_1_relu1_0_split_0
I0528 21:52:10.045614 142708 net.cpp:380] layer_512_1_conv1 -> layer_512_1_conv1
I0528 21:52:10.082109 142708 net.cpp:122] Setting up layer_512_1_conv1
I0528 21:52:10.082155 142708 net.cpp:129] Top shape: 100 512 7 7 (2508800)
I0528 21:52:10.082160 142708 net.cpp:137] Memory required for data: 4867072400
I0528 21:52:10.082168 142708 layer_factory.hpp:77] Creating layer layer_512_1_bn2
I0528 21:52:10.082182 142708 net.cpp:84] Creating Layer layer_512_1_bn2
I0528 21:52:10.082190 142708 net.cpp:406] layer_512_1_bn2 <- layer_512_1_conv1
I0528 21:52:10.082197 142708 net.cpp:367] layer_512_1_bn2 -> layer_512_1_conv1 (in-place)
I0528 21:52:10.082425 142708 net.cpp:122] Setting up layer_512_1_bn2
I0528 21:52:10.082448 142708 net.cpp:129] Top shape: 100 512 7 7 (2508800)
I0528 21:52:10.082451 142708 net.cpp:137] Memory required for data: 4877107600
I0528 21:52:10.082458 142708 layer_factory.hpp:77] Creating layer layer_512_1_scale2
I0528 21:52:10.082468 142708 net.cpp:84] Creating Layer layer_512_1_scale2
I0528 21:52:10.082471 142708 net.cpp:406] layer_512_1_scale2 <- layer_512_1_conv1
I0528 21:52:10.082479 142708 net.cpp:367] layer_512_1_scale2 -> layer_512_1_conv1 (in-place)
I0528 21:52:10.082522 142708 layer_factory.hpp:77] Creating layer layer_512_1_scale2
I0528 21:52:10.082636 142708 net.cpp:122] Setting up layer_512_1_scale2
I0528 21:52:10.082644 142708 net.cpp:129] Top shape: 100 512 7 7 (2508800)
I0528 21:52:10.082648 142708 net.cpp:137] Memory required for data: 4887142800
I0528 21:52:10.082653 142708 layer_factory.hpp:77] Creating layer layer_512_1_relu2
I0528 21:52:10.082660 142708 net.cpp:84] Creating Layer layer_512_1_relu2
I0528 21:52:10.082665 142708 net.cpp:406] layer_512_1_relu2 <- layer_512_1_conv1
I0528 21:52:10.082669 142708 net.cpp:367] layer_512_1_relu2 -> layer_512_1_conv1 (in-place)
I0528 21:52:10.087035 142708 net.cpp:122] Setting up layer_512_1_relu2
I0528 21:52:10.087059 142708 net.cpp:129] Top shape: 100 512 7 7 (2508800)
I0528 21:52:10.087062 142708 net.cpp:137] Memory required for data: 4897178000
I0528 21:52:10.087066 142708 layer_factory.hpp:77] Creating layer layer_512_1_conv2
I0528 21:52:10.087080 142708 net.cpp:84] Creating Layer layer_512_1_conv2
I0528 21:52:10.087085 142708 net.cpp:406] layer_512_1_conv2 <- layer_512_1_conv1
I0528 21:52:10.087092 142708 net.cpp:380] layer_512_1_conv2 -> layer_512_1_conv2
I0528 21:52:10.156656 142708 net.cpp:122] Setting up layer_512_1_conv2
I0528 21:52:10.156682 142708 net.cpp:129] Top shape: 100 512 7 7 (2508800)
I0528 21:52:10.156687 142708 net.cpp:137] Memory required for data: 4907213200
I0528 21:52:10.156692 142708 layer_factory.hpp:77] Creating layer layer_512_1_conv_expand
I0528 21:52:10.156704 142708 net.cpp:84] Creating Layer layer_512_1_conv_expand
I0528 21:52:10.156710 142708 net.cpp:406] layer_512_1_conv_expand <- layer_512_1_bn1_layer_512_1_relu1_0_split_1
I0528 21:52:10.156718 142708 net.cpp:380] layer_512_1_conv_expand -> layer_512_1_conv_expand
I0528 21:52:10.162515 142708 net.cpp:122] Setting up layer_512_1_conv_expand
I0528 21:52:10.162533 142708 net.cpp:129] Top shape: 100 512 7 7 (2508800)
I0528 21:52:10.162539 142708 net.cpp:137] Memory required for data: 4917248400
I0528 21:52:10.162544 142708 layer_factory.hpp:77] Creating layer layer_512_1_sum
I0528 21:52:10.162551 142708 net.cpp:84] Creating Layer layer_512_1_sum
I0528 21:52:10.162556 142708 net.cpp:406] layer_512_1_sum <- layer_512_1_conv_expand
I0528 21:52:10.162561 142708 net.cpp:406] layer_512_1_sum <- layer_512_1_conv2
I0528 21:52:10.162567 142708 net.cpp:380] layer_512_1_sum -> layer_512_1_sum
I0528 21:52:10.162598 142708 net.cpp:122] Setting up layer_512_1_sum
I0528 21:52:10.162606 142708 net.cpp:129] Top shape: 100 512 7 7 (2508800)
I0528 21:52:10.162611 142708 net.cpp:137] Memory required for data: 4927283600
I0528 21:52:10.162614 142708 layer_factory.hpp:77] Creating layer layer_512_1_sum_layer_512_1_sum_0_split
I0528 21:52:10.162621 142708 net.cpp:84] Creating Layer layer_512_1_sum_layer_512_1_sum_0_split
I0528 21:52:10.162626 142708 net.cpp:406] layer_512_1_sum_layer_512_1_sum_0_split <- layer_512_1_sum
I0528 21:52:10.162631 142708 net.cpp:380] layer_512_1_sum_layer_512_1_sum_0_split -> layer_512_1_sum_layer_512_1_sum_0_split_0
I0528 21:52:10.162637 142708 net.cpp:380] layer_512_1_sum_layer_512_1_sum_0_split -> layer_512_1_sum_layer_512_1_sum_0_split_1
I0528 21:52:10.162674 142708 net.cpp:122] Setting up layer_512_1_sum_layer_512_1_sum_0_split
I0528 21:52:10.162681 142708 net.cpp:129] Top shape: 100 512 7 7 (2508800)
I0528 21:52:10.162685 142708 net.cpp:129] Top shape: 100 512 7 7 (2508800)
I0528 21:52:10.162688 142708 net.cpp:137] Memory required for data: 4947354000
I0528 21:52:10.162693 142708 layer_factory.hpp:77] Creating layer layer_512_2_bn1
I0528 21:52:10.162710 142708 net.cpp:84] Creating Layer layer_512_2_bn1
I0528 21:52:10.162715 142708 net.cpp:406] layer_512_2_bn1 <- layer_512_1_sum_layer_512_1_sum_0_split_0
I0528 21:52:10.162724 142708 net.cpp:380] layer_512_2_bn1 -> layer_512_2_bn1
I0528 21:52:10.162914 142708 net.cpp:122] Setting up layer_512_2_bn1
I0528 21:52:10.162921 142708 net.cpp:129] Top shape: 100 512 7 7 (2508800)
I0528 21:52:10.162925 142708 net.cpp:137] Memory required for data: 4957389200
I0528 21:52:10.162932 142708 layer_factory.hpp:77] Creating layer layer_512_2_scale1
I0528 21:52:10.162941 142708 net.cpp:84] Creating Layer layer_512_2_scale1
I0528 21:52:10.162945 142708 net.cpp:406] layer_512_2_scale1 <- layer_512_2_bn1
I0528 21:52:10.162951 142708 net.cpp:367] layer_512_2_scale1 -> layer_512_2_bn1 (in-place)
I0528 21:52:10.162992 142708 layer_factory.hpp:77] Creating layer layer_512_2_scale1
I0528 21:52:10.163120 142708 net.cpp:122] Setting up layer_512_2_scale1
I0528 21:52:10.163131 142708 net.cpp:129] Top shape: 100 512 7 7 (2508800)
I0528 21:52:10.163136 142708 net.cpp:137] Memory required for data: 4967424400
I0528 21:52:10.163141 142708 layer_factory.hpp:77] Creating layer layer_512_2_relu1
I0528 21:52:10.163147 142708 net.cpp:84] Creating Layer layer_512_2_relu1
I0528 21:52:10.163151 142708 net.cpp:406] layer_512_2_relu1 <- layer_512_2_bn1
I0528 21:52:10.163161 142708 net.cpp:367] layer_512_2_relu1 -> layer_512_2_bn1 (in-place)
I0528 21:52:10.163753 142708 net.cpp:122] Setting up layer_512_2_relu1
I0528 21:52:10.163766 142708 net.cpp:129] Top shape: 100 512 7 7 (2508800)
I0528 21:52:10.163770 142708 net.cpp:137] Memory required for data: 4977459600
I0528 21:52:10.163774 142708 layer_factory.hpp:77] Creating layer layer_512_2_conv1
I0528 21:52:10.163786 142708 net.cpp:84] Creating Layer layer_512_2_conv1
I0528 21:52:10.163791 142708 net.cpp:406] layer_512_2_conv1 <- layer_512_2_bn1
I0528 21:52:10.163800 142708 net.cpp:380] layer_512_2_conv1 -> layer_512_2_conv1
I0528 21:52:10.233665 142708 net.cpp:122] Setting up layer_512_2_conv1
I0528 21:52:10.233688 142708 net.cpp:129] Top shape: 100 512 7 7 (2508800)
I0528 21:52:10.233693 142708 net.cpp:137] Memory required for data: 4987494800
I0528 21:52:10.233700 142708 layer_factory.hpp:77] Creating layer layer_512_2_bn2
I0528 21:52:10.233707 142708 net.cpp:84] Creating Layer layer_512_2_bn2
I0528 21:52:10.233712 142708 net.cpp:406] layer_512_2_bn2 <- layer_512_2_conv1
I0528 21:52:10.233721 142708 net.cpp:367] layer_512_2_bn2 -> layer_512_2_conv1 (in-place)
I0528 21:52:10.233921 142708 net.cpp:122] Setting up layer_512_2_bn2
I0528 21:52:10.233929 142708 net.cpp:129] Top shape: 100 512 7 7 (2508800)
I0528 21:52:10.233933 142708 net.cpp:137] Memory required for data: 4997530000
I0528 21:52:10.233942 142708 layer_factory.hpp:77] Creating layer layer_512_2_scale2
I0528 21:52:10.233948 142708 net.cpp:84] Creating Layer layer_512_2_scale2
I0528 21:52:10.233952 142708 net.cpp:406] layer_512_2_scale2 <- layer_512_2_conv1
I0528 21:52:10.233958 142708 net.cpp:367] layer_512_2_scale2 -> layer_512_2_conv1 (in-place)
I0528 21:52:10.233999 142708 layer_factory.hpp:77] Creating layer layer_512_2_scale2
I0528 21:52:10.234122 142708 net.cpp:122] Setting up layer_512_2_scale2
I0528 21:52:10.234133 142708 net.cpp:129] Top shape: 100 512 7 7 (2508800)
I0528 21:52:10.234138 142708 net.cpp:137] Memory required for data: 5007565200
I0528 21:52:10.234143 142708 layer_factory.hpp:77] Creating layer layer_512_2_relu2
I0528 21:52:10.234149 142708 net.cpp:84] Creating Layer layer_512_2_relu2
I0528 21:52:10.234153 142708 net.cpp:406] layer_512_2_relu2 <- layer_512_2_conv1
I0528 21:52:10.234159 142708 net.cpp:367] layer_512_2_relu2 -> layer_512_2_conv1 (in-place)
I0528 21:52:10.234334 142708 net.cpp:122] Setting up layer_512_2_relu2
I0528 21:52:10.234345 142708 net.cpp:129] Top shape: 100 512 7 7 (2508800)
I0528 21:52:10.234349 142708 net.cpp:137] Memory required for data: 5017600400
I0528 21:52:10.234352 142708 layer_factory.hpp:77] Creating layer layer_512_2_conv2
I0528 21:52:10.234369 142708 net.cpp:84] Creating Layer layer_512_2_conv2
I0528 21:52:10.234382 142708 net.cpp:406] layer_512_2_conv2 <- layer_512_2_conv1
I0528 21:52:10.234390 142708 net.cpp:380] layer_512_2_conv2 -> layer_512_2_conv2
I0528 21:52:10.304488 142708 net.cpp:122] Setting up layer_512_2_conv2
I0528 21:52:10.304512 142708 net.cpp:129] Top shape: 100 512 7 7 (2508800)
I0528 21:52:10.304517 142708 net.cpp:137] Memory required for data: 5027635600
I0528 21:52:10.304522 142708 layer_factory.hpp:77] Creating layer layer_512_2_sum
I0528 21:52:10.304529 142708 net.cpp:84] Creating Layer layer_512_2_sum
I0528 21:52:10.304534 142708 net.cpp:406] layer_512_2_sum <- layer_512_2_conv2
I0528 21:52:10.304539 142708 net.cpp:406] layer_512_2_sum <- layer_512_1_sum_layer_512_1_sum_0_split_1
I0528 21:52:10.304546 142708 net.cpp:380] layer_512_2_sum -> layer_512_2_sum
I0528 21:52:10.304581 142708 net.cpp:122] Setting up layer_512_2_sum
I0528 21:52:10.304589 142708 net.cpp:129] Top shape: 100 512 7 7 (2508800)
I0528 21:52:10.304592 142708 net.cpp:137] Memory required for data: 5037670800
I0528 21:52:10.304595 142708 layer_factory.hpp:77] Creating layer last_bn
I0528 21:52:10.304605 142708 net.cpp:84] Creating Layer last_bn
I0528 21:52:10.304610 142708 net.cpp:406] last_bn <- layer_512_2_sum
I0528 21:52:10.304615 142708 net.cpp:367] last_bn -> layer_512_2_sum (in-place)
I0528 21:52:10.304807 142708 net.cpp:122] Setting up last_bn
I0528 21:52:10.304816 142708 net.cpp:129] Top shape: 100 512 7 7 (2508800)
I0528 21:52:10.304819 142708 net.cpp:137] Memory required for data: 5047706000
I0528 21:52:10.304827 142708 layer_factory.hpp:77] Creating layer last_scale
I0528 21:52:10.304834 142708 net.cpp:84] Creating Layer last_scale
I0528 21:52:10.304838 142708 net.cpp:406] last_scale <- layer_512_2_sum
I0528 21:52:10.304846 142708 net.cpp:367] last_scale -> layer_512_2_sum (in-place)
I0528 21:52:10.304884 142708 layer_factory.hpp:77] Creating layer last_scale
I0528 21:52:10.305002 142708 net.cpp:122] Setting up last_scale
I0528 21:52:10.305011 142708 net.cpp:129] Top shape: 100 512 7 7 (2508800)
I0528 21:52:10.305016 142708 net.cpp:137] Memory required for data: 5057741200
I0528 21:52:10.305022 142708 layer_factory.hpp:77] Creating layer last_relu
I0528 21:52:10.305028 142708 net.cpp:84] Creating Layer last_relu
I0528 21:52:10.305032 142708 net.cpp:406] last_relu <- layer_512_2_sum
I0528 21:52:10.305037 142708 net.cpp:367] last_relu -> layer_512_2_sum (in-place)
I0528 21:52:10.305225 142708 net.cpp:122] Setting up last_relu
I0528 21:52:10.305238 142708 net.cpp:129] Top shape: 100 512 7 7 (2508800)
I0528 21:52:10.305241 142708 net.cpp:137] Memory required for data: 5067776400
I0528 21:52:10.305245 142708 layer_factory.hpp:77] Creating layer global_pool
I0528 21:52:10.305253 142708 net.cpp:84] Creating Layer global_pool
I0528 21:52:10.305256 142708 net.cpp:406] global_pool <- layer_512_2_sum
I0528 21:52:10.305263 142708 net.cpp:380] global_pool -> global_pool
I0528 21:52:10.305915 142708 net.cpp:122] Setting up global_pool
I0528 21:52:10.305932 142708 net.cpp:129] Top shape: 100 512 1 1 (51200)
I0528 21:52:10.305935 142708 net.cpp:137] Memory required for data: 5067981200
I0528 21:52:10.305939 142708 layer_factory.hpp:77] Creating layer score
I0528 21:52:10.305950 142708 net.cpp:84] Creating Layer score
I0528 21:52:10.305954 142708 net.cpp:406] score <- global_pool
I0528 21:52:10.305965 142708 net.cpp:380] score -> score
I0528 21:52:10.306092 142708 net.cpp:122] Setting up score
I0528 21:52:10.306104 142708 net.cpp:129] Top shape: 100 2 (200)
I0528 21:52:10.306108 142708 net.cpp:137] Memory required for data: 5067982000
I0528 21:52:10.306114 142708 layer_factory.hpp:77] Creating layer loss
I0528 21:52:10.306125 142708 net.cpp:84] Creating Layer loss
I0528 21:52:10.306129 142708 net.cpp:406] loss <- score
I0528 21:52:10.306134 142708 net.cpp:406] loss <- label
I0528 21:52:10.306141 142708 net.cpp:380] loss -> loss
I0528 21:52:10.306154 142708 layer_factory.hpp:77] Creating layer loss
…
I0528 21:52:10.309661 142708 net.cpp:294] The NetState phase (1) differed from the phase (0) specified by a rule in layer data
I0528 21:52:10.310272 142708 net.cpp:51] Initializing net from parameters: 
name: "Pre-ResNet-18"
state {
  phase: TEST
}
layer {
  name: "data"
  type: "Data"
  top: "data"
  top: "label"
  include {
    phase: TEST
  }
  transform_param {
    mirror: false
    crop_size: 224
    mean_file: "/storage/Test_fold_is_01/mean.binaryproto"
  }
  data_param {
    source: "/storage/Test_fold_is_01/gender_val_lmdb"
    batch_size: 50
    backend: LMDB
  }
}
layer {
  name: "data_bn"
  type: "BatchNorm"
  bottom: "data"
  top: "data_bn"
  param {
    lr_mult: 0
    decay_mult: 0
  }
  param {
    lr_mult: 0
    decay_mult: 0
  }
  param {
    lr_mult: 0
    decay_mult: 0
  }
}
layer {
  name: "data_scale"
  type: "Scale"
  bottom: "data_bn"
  top: "data_bn"
  param {
    lr_mult: 1
    decay_mult: 1
  }
  param {
    lr_mult: 2
    decay_mult: 1
  }
  scale_param {
    bias_term: true
  }
}
layer {
  name: "conv1"
  type: "Convolution"
  bottom: "data_bn"
  top: "conv1"
  param {
    lr_mult: 1
    decay_mult: 1
  }
  param {
    lr_mult: 2
    decay_mult: 1
  }
  convolution_param {
    num_output: 64
    pad: 3
    kernel_size: 7
    stride: 2
    weight_filler {
      type: "msra"
      variance_norm: FAN_OUT
    }
    bias_filler {
      type: "constant"
      value: 0
    }
  }
}
layer {
  name: "conv1_bn"
  type: "BatchNorm"
  bottom: "conv1"
  top: "conv1"
  param {
    lr_mult: 0
    decay_mult: 0
  }
  param {
    lr_mult: 0
    decay_mult: 0
  }
  param {
    lr_mult: 0
    decay_mult: 0
  }
}
layer {
  name: "conv1_scale"
  type: "Scale"
  bottom: "conv1"
  top: "conv1"
  param {
    lr_mult: 1
    decay_mult: 1
  }
  param {
    lr_mult: 2
    decay_mult: 1
  }
  scale_param {
    bias_term: true
  }
}
layer {
  name: "conv1_relu"
  type: "ReLU"
  bottom: "conv1"
  top: "conv1"
}
layer {
  name: "conv1_pool"
  type: "Pooling"
  bottom: "conv1"
  top: "conv1_pool"
  pooling_param {
    kernel_size: 3
    stride: 2
  }
}
layer {
  name: "layer_64_1_conv1"
  type: "Convolution"
  bottom: "conv1_pool"
  top: "layer_64_1_conv1"
  param {
    lr_mult: 1
    decay_mult: 1
  }
  convolution_param {
    num_output: 64
    bias_term: false
    pad: 1
    kernel_size: 3
    stride: 1
    weight_filler {
      type: "msra"
    }
    bias_filler {
      type: "constant"
      value: 0
    }
  }
}
layer {
  name: "layer_64_1_bn2"
  type: "BatchNorm"
  bottom: "layer_64_1_conv1"
  top: "layer_64_1_conv1"
  param {
    lr_mult: 0
    decay_mult: 0
  }
  param {
    lr_mult: 0
    decay_mult: 0
  }
  param {
    lr_mult: 0
    decay_mult: 0
  }
}
layer {
  name: "layer_64_1_scale2"
  type: "Scale"
  bottom: "layer_64_1_conv1"
  top: "layer_64_1_conv1"
  param {
    lr_mult: 1
    decay_mult: 1
  }
  param {
    lr_mult: 2
    decay_mult: 1
  }
  scale_param {
    bias_term: true
  }
}
layer {
  name: "layer_64_1_relu2"
  type: "ReLU"
  bottom: "layer_64_1_conv1"
  top: "layer_64_1_conv1"
}
layer {
  name: "layer_64_1_conv2"
  type: "Convolution"
  bottom: "layer_64_1_conv1"
  top: "layer_64_1_conv2"
  param {
    lr_mult: 1
    decay_mult: 1
  }
  convolution_param {
    num_output: 64
    bias_term: false
    pad: 1
    kernel_size: 3
    stride: 1
    weight_filler {
      type: "msra"
    }
    bias_filler {
      type: "constant"
      value: 0
    }
  }
}
layer {
  name: "layer_64_1_sum"
  type: "Eltwise"
  bottom: "layer_64_1_conv2"
  bottom: "conv1_pool"
  top: "layer_64_1_sum"
}
layer {
  name: "layer_64_2_bn1"
  type: "BatchNorm"
  bottom: "layer_64_1_sum"
  top: "layer_64_2_bn1"
  param {
    lr_mult: 0
    decay_mult: 0
  }
  param {
    lr_mult: 0
    decay_mult: 0
  }
  param {
    lr_mult: 0
    decay_mult: 0
  }
}
layer {
  name: "layer_64_2_scale1"
  type: "Scale"
  bottom: "layer_64_2_bn1"
  top: "layer_64_2_bn1"
  param {
    lr_mult: 1
    decay_mult: 1
  }
  param {
    lr_mult: 2
    decay_mult: 1
  }
  scale_param {
    bias_term: true
  }
}
layer {
  name: "layer_64_2_relu1"
  type: "ReLU"
  bottom: "layer_64_2_bn1"
  top: "layer_64_2_bn1"
}
layer {
  name: "layer_64_2_conv1"
  type: "Convolution"
  bottom: "layer_64_2_bn1"
  top: "layer_64_2_conv1"
  param {
    lr_mult: 1
    decay_mult: 1
  }
  convolution_param {
    num_output: 64
    bias_term: false
    pad: 1
    kernel_size: 3
    stride: 1
    weight_filler {
      type: "msra"
    }
    bias_filler {
      type: "constant"
      value: 0
    }
  }
}
layer {
  name: "layer_64_2_bn2"
  type: "BatchNorm"
  bottom: "layer_64_2_conv1"
  top: "layer_64_2_conv1"
  param {
    lr_mult: 0
    decay_mult: 0
  }
  param {
    lr_mult: 0
    decay_mult: 0
  }
  param {
    lr_mult: 0
    decay_mult: 0
  }
}
layer {
  name: "layer_64_2_scale2"
  type: "Scale"
  bottom: "layer_64_2_conv1"
  top: "layer_64_2_conv1"
  param {
    lr_mult: 1
    decay_mult: 1
  }
  param {
    lr_mult: 2
    decay_mult: 1
  }
  scale_param {
    bias_term: true
  }
}
layer {
  name: "layer_64_2_relu2"
  type: "ReLU"
  bottom: "layer_64_2_conv1"
  top: "layer_64_2_conv1"
}
layer {
  name: "layer_64_2_conv2"
  type: "Convolution"
  bottom: "layer_64_2_conv1"
  top: "layer_64_2_conv2"
  param {
    lr_mult: 1
    decay_mult: 1
  }
  convolution_param {
    num_output: 64
    bias_term: false
    pad: 1
    kernel_size: 3
    stride: 1
    weight_filler {
      type: "msra"
    }
    bias_filler {
      type: "constant"
      value: 0
    }
  }
}
layer {
  name: "layer_64_2_sum"
  type: "Eltwise"
  bottom: "layer_64_2_conv2"
  bottom: "layer_64_1_sum"
  top: "layer_64_2_sum"
}
layer {
  name: "layer_128_1_bn1"
  type: "BatchNorm"
  bottom: "layer_64_2_sum"
  top: "layer_128_1_bn1"
  param {
    lr_mult: 0
    decay_mult: 0
  }
  param {
    lr_mult: 0
    decay_mult: 0
  }
  param {
    lr_mult: 0
    decay_mult: 0
  }
}
layer {
  name: "layer_128_1_scale1"
  type: "Scale"
  bottom: "layer_128_1_bn1"
  top: "layer_128_1_bn1"
  param {
    lr_mult: 1
    decay_mult: 1
  }
  param {
    lr_mult: 2
    decay_mult: 1
  }
  scale_param {
    bias_term: true
  }
}
layer {
  name: "layer_128_1_relu1"
  type: "ReLU"
  bottom: "layer_128_1_bn1"
  top: "layer_128_1_bn1"
}
layer {
  name: "layer_128_1_conv1"
  type: "Convolution"
  bottom: "layer_128_1_bn1"
  top: "layer_128_1_conv1"
  param {
    lr_mult: 1
    decay_mult: 1
  }
  convolution_param {
    num_output: 128
    bias_term: false
    pad: 1
    kernel_size: 3
    stride: 2
    weight_filler {
      type: "msra"
    }
    bias_filler {
      type: "constant"
      value: 0
    }
  }
}
layer {
  name: "layer_128_1_bn2"
  type: "BatchNorm"
  bottom: "layer_128_1_conv1"
  top: "layer_128_1_conv1"
  param {
    lr_mult: 0
    decay_mult: 0
  }
  param {
    lr_mult: 0
    decay_mult: 0
  }
  param {
    lr_mult: 0
    decay_mult: 0
  }
}
layer {
  name: "layer_128_1_scale2"
  type: "Scale"
  bottom: "layer_128_1_conv1"
  top: "layer_128_1_conv1"
  param {
    lr_mult: 1
    decay_mult: 1
  }
  param {
    lr_mult: 2
    decay_mult: 1
  }
  scale_param {
    bias_term: true
  }
}
layer {
  name: "layer_128_1_relu2"
  type: "ReLU"
  bottom: "layer_128_1_conv1"
  top: "layer_128_1_conv1"
}
layer {
  name: "layer_128_1_conv2"
  type: "Convolution"
  bottom: "layer_128_1_conv1"
  top: "layer_128_1_conv2"
  param {
    lr_mult: 1
    decay_mult: 1
  }
  convolution_param {
    num_output: 128
    bias_term: false
    pad: 1
    kernel_size: 3
    stride: 1
    weight_filler {
      type: "msra"
    }
    bias_filler {
      type: "constant"
      value: 0
    }
  }
}
layer {
  name: "layer_128_1_conv_expand"
  type: "Convolution"
  bottom: "layer_128_1_bn1"
  top: "layer_128_1_conv_expand"
  param {
    lr_mult: 1
    decay_mult: 1
  }
  convolution_param {
    num_output: 128
    bias_term: false
    pad: 0
    kernel_size: 1
    stride: 2
    weight_filler {
      type: "msra"
    }
    bias_filler {
      type: "constant"
      value: 0
    }
  }
}
layer {
  name: "layer_128_1_sum"
  type: "Eltwise"
  bottom: "layer_128_1_conv_expand"
  bottom: "layer_128_1_conv2"
  top: "layer_128_1_sum"
}
layer {
  name: "layer_128_2_bn1"
  type: "BatchNorm"
  bottom: "layer_128_1_sum"
  top: "layer_128_2_bn1"
  param {
    lr_mult: 0
    decay_mult: 0
  }
  param {
    lr_mult: 0
    decay_mult: 0
  }
  param {
    lr_mult: 0
    decay_mult: 0
  }
}
layer {
  name: "layer_128_2_scale1"
  type: "Scale"
  bottom: "layer_128_2_bn1"
  top: "layer_128_2_bn1"
  param {
    lr_mult: 1
    decay_mult: 1
  }
  param {
    lr_mult: 2
    decay_mult: 1
  }
  scale_param {
    bias_term: true
  }
}
layer {
  name: "layer_128_2_relu1"
  type: "ReLU"
  bottom: "layer_128_2_bn1"
  top: "layer_128_2_bn1"
}
layer {
  name: "layer_128_2_conv1"
  type: "Convolution"
  bottom: "layer_128_2_bn1"
  top: "layer_128_2_conv1"
  param {
    lr_mult: 1
    decay_mult: 1
  }
  convolution_param {
    num_output: 128
    bias_term: false
    pad: 1
    kernel_size: 3
    stride: 1
    weight_filler {
      type: "msra"
    }
    bias_filler {
      type: "constant"
      value: 0
    }
  }
}
layer {
  name: "layer_128_2_bn2"
  type: "BatchNorm"
  bottom: "layer_128_2_conv1"
  top: "layer_128_2_conv1"
  param {
    lr_mult: 0
    decay_mult: 0
  }
  param {
    lr_mult: 0
    decay_mult: 0
  }
  param {
    lr_mult: 0
    decay_mult: 0
  }
}
layer {
  name: "layer_128_2_scale2"
  type: "Scale"
  bottom: "layer_128_2_conv1"
  top: "layer_128_2_conv1"
  param {
    lr_mult: 1
    decay_mult: 1
  }
  param {
    lr_mult: 2
    decay_mult: 1
  }
  scale_param {
    bias_term: true
  }
}
layer {
  name: "layer_128_2_relu2"
  type: "ReLU"
  bottom: "layer_128_2_conv1"
  top: "layer_128_2_conv1"
}
layer {
  name: "layer_128_2_conv2"
  type: "Convolution"
  bottom: "layer_128_2_conv1"
  top: "layer_128_2_conv2"
  param {
    lr_mult: 1
    decay_mult: 1
  }
  convolution_param {
    num_output: 128
    bias_term: false
    pad: 1
    kernel_size: 3
    stride: 1
    weight_filler {
      type: "msra"
    }
    bias_filler {
      type: "constant"
      value: 0
    }
  }
}
layer {
  name: "layer_128_2_sum"
  type: "Eltwise"
  bottom: "layer_128_2_conv2"
  bottom: "layer_128_1_sum"
  top: "layer_128_2_sum"
}
layer {
  name: "layer_256_1_bn1"
  type: "BatchNorm"
  bottom: "layer_128_2_sum"
  top: "layer_256_1_bn1"
  param {
    lr_mult: 0
    decay_mult: 0
  }
  param {
    lr_mult: 0
    decay_mult: 0
  }
  param {
    lr_mult: 0
    decay_mult: 0
  }
}
layer {
  name: "layer_256_1_scale1"
  type: "Scale"
  bottom: "layer_256_1_bn1"
  top: "layer_256_1_bn1"
  param {
    lr_mult: 1
    decay_mult: 1
  }
  param {
    lr_mult: 2
    decay_mult: 1
  }
  scale_param {
    bias_term: true
  }
}
layer {
  name: "layer_256_1_relu1"
  type: "ReLU"
  bottom: "layer_256_1_bn1"
  top: "layer_256_1_bn1"
}
layer {
  name: "layer_256_1_conv1"
  type: "Convolution"
  bottom: "layer_256_1_bn1"
  top: "layer_256_1_conv1"
  param {
    lr_mult: 1
    decay_mult: 1
  }
  convolution_param {
    num_output: 256
    bias_term: false
    pad: 1
    kernel_size: 3
    stride: 2
    weight_filler {
      type: "msra"
    }
    bias_filler {
      type: "constant"
      value: 0
    }
  }
}
layer {
  name: "layer_256_1_bn2"
  type: "BatchNorm"
  bottom: "layer_256_1_conv1"
  top: "layer_256_1_conv1"
  param {
    lr_mult: 0
    decay_mult: 0
  }
  param {
    lr_mult: 0
    decay_mult: 0
  }
  param {
    lr_mult: 0
    decay_mult: 0
  }
}
layer {
  name: "layer_256_1_scale2"
  type: "Scale"
  bottom: "layer_256_1_conv1"
  top: "layer_256_1_conv1"
  param {
    lr_mult: 1
    decay_mult: 1
  }
  param {
    lr_mult: 2
    decay_mult: 1
  }
  scale_param {
    bias_term: true
  }
}
layer {
  name: "layer_256_1_relu2"
  type: "ReLU"
  bottom: "layer_256_1_conv1"
  top: "layer_256_1_conv1"
}
layer {
  name: "layer_256_1_conv2"
  type: "Convolution"
  bottom: "layer_256_1_conv1"
  top: "layer_256_1_conv2"
  param {
    lr_mult: 1
    decay_mult: 1
  }
  convolution_param {
    num_output: 256
    bias_term: false
    pad: 1
    kernel_size: 3
    stride: 1
    weight_filler {
      type: "msra"
    }
    bias_filler {
      type: "constant"
      value: 0
    }
  }
}
layer {
  name: "layer_256_1_conv_expand"
  type: "Convolution"
  bottom: "layer_256_1_bn1"
  top: "layer_256_1_conv_expand"
  param {
    lr_mult: 1
    decay_mult: 1
  }
  convolution_param {
    num_output: 256
    bias_term: false
    pad: 0
    kernel_size: 1
    stride: 2
    weight_filler {
      type: "msra"
    }
    bias_filler {
      type: "constant"
      value: 0
    }
  }
}
layer {
  name: "layer_256_1_sum"
  type: "Eltwise"
  bottom: "layer_256_1_conv_expand"
  bottom: "layer_256_1_conv2"
  top: "layer_256_1_sum"
}
layer {
  name: "layer_256_2_bn1"
  type: "BatchNorm"
  bottom: "layer_256_1_sum"
  top: "layer_256_2_bn1"
  param {
    lr_mult: 0
    decay_mult: 0
  }
  param {
    lr_mult: 0
    decay_mult: 0
  }
  param {
    lr_mult: 0
    decay_mult: 0
  }
}
layer {
  name: "layer_256_2_scale1"
  type: "Scale"
  bottom: "layer_256_2_bn1"
  top: "layer_256_2_bn1"
  param {
    lr_mult: 1
    decay_mult: 1
  }
  param {
    lr_mult: 2
    decay_mult: 1
  }
  scale_param {
    bias_term: true
  }
}
layer {
  name: "layer_256_2_relu1"
  type: "ReLU"
  bottom: "layer_256_2_bn1"
  top: "layer_256_2_bn1"
}
layer {
  name: "layer_256_2_conv1"
  type: "Convolution"
  bottom: "layer_256_2_bn1"
  top: "layer_256_2_conv1"
  param {
    lr_mult: 1
    decay_mult: 1
  }
  convolution_param {
    num_output: 256
    bias_term: false
    pad: 1
    kernel_size: 3
    stride: 1
    weight_filler {
      type: "msra"
    }
    bias_filler {
      type: "constant"
      value: 0
    }
  }
}
layer {
  name: "layer_256_2_bn2"
  type: "BatchNorm"
  bottom: "layer_256_2_conv1"
  top: "layer_256_2_conv1"
  param {
    lr_mult: 0
    decay_mult: 0
  }
  param {
    lr_mult: 0
    decay_mult: 0
  }
  param {
    lr_mult: 0
    decay_mult: 0
  }
}
layer {
  name: "layer_256_2_scale2"
  type: "Scale"
  bottom: "layer_256_2_conv1"
  top: "layer_256_2_conv1"
  param {
    lr_mult: 1
    decay_mult: 1
  }
  param {
    lr_mult: 2
    decay_mult: 1
  }
  scale_param {
    bias_term: true
  }
}
layer {
  name: "layer_256_2_relu2"
  type: "ReLU"
  bottom: "layer_256_2_conv1"
  top: "layer_256_2_conv1"
}
layer {
  name: "layer_256_2_conv2"
  type: "Convolution"
  bottom: "layer_256_2_conv1"
  top: "layer_256_2_conv2"
  param {
    lr_mult: 1
    decay_mult: 1
  }
  convolution_param {
    num_output: 256
    bias_term: false
    pad: 1
    kernel_size: 3
    stride: 1
    weight_filler {
      type: "msra"
    }
    bias_filler {
      type: "constant"
      value: 0
    }
  }
}
layer {
  name: "layer_256_2_sum"
  type: "Eltwise"
  bottom: "layer_256_2_conv2"
  bottom: "layer_256_1_sum"
  top: "layer_256_2_sum"
}
layer {
  name: "layer_512_1_bn1"
  type: "BatchNorm"
  bottom: "layer_256_2_sum"
  top: "layer_512_1_bn1"
  param {
    lr_mult: 0
    decay_mult: 0
  }
  param {
    lr_mult: 0
    decay_mult: 0
  }
  param {
    lr_mult: 0
    decay_mult: 0
  }
}
layer {
  name: "layer_512_1_scale1"
  type: "Scale"
  bottom: "layer_512_1_bn1"
  top: "layer_512_1_bn1"
  param {
    lr_mult: 1
    decay_mult: 1
  }
  param {
    lr_mult: 2
    decay_mult: 1
  }
  scale_param {
    bias_term: true
  }
}
layer {
  name: "layer_512_1_relu1"
  type: "ReLU"
  bottom: "layer_512_1_bn1"
  top: "layer_512_1_bn1"
}
layer {
  name: "layer_512_1_conv1"
  type: "Convolution"
  bottom: "layer_512_1_bn1"
  top: "layer_512_1_conv1"
  param {
    lr_mult: 1
    decay_mult: 1
  }
  convolution_param {
    num_output: 512
    bias_term: false
    pad: 1
    kernel_size: 3
    stride: 2
    weight_filler {
      type: "msra"
    }
    bias_filler {
      type: "constant"
      value: 0
    }
  }
}
layer {
  name: "layer_512_1_bn2"
  type: "BatchNorm"
  bottom: "layer_512_1_conv1"
  top: "layer_512_1_conv1"
  param {
    lr_mult: 0
    decay_mult: 0
  }
  param {
    lr_mult: 0
    decay_mult: 0
  }
  param {
    lr_mult: 0
    decay_mult: 0
  }
}
layer {
  name: "layer_512_1_scale2"
  type: "Scale"
  bottom: "layer_512_1_conv1"
  top: "layer_512_1_conv1"
  param {
    lr_mult: 1
    decay_mult: 1
  }
  param {
    lr_mult: 2
    decay_mult: 1
  }
  scale_param {
    bias_term: true
  }
}
layer {
  name: "layer_512_1_relu2"
  type: "ReLU"
  bottom: "layer_512_1_conv1"
  top: "layer_512_1_conv1"
}
layer {
  name: "layer_512_1_conv2"
  type: "Convolution"
  bottom: "layer_512_1_conv1"
  top: "layer_512_1_conv2"
  param {
    lr_mult: 1
    decay_mult: 1
  }
  convolution_param {
    num_output: 512
    bias_term: false
    pad: 1
    kernel_size: 3
    stride: 1
    weight_filler {
      type: "msra"
    }
    bias_filler {
      type: "constant"
      value: 0
    }
  }
}
layer {
  name: "layer_512_1_conv_expand"
  type: "Convolution"
  bottom: "layer_512_1_bn1"
  top: "layer_512_1_conv_expand"
  param {
    lr_mult: 1
    decay_mult: 1
  }
  convolution_param {
    num_output: 512
    bias_term: false
    pad: 0
    kernel_size: 1
    stride: 2
    weight_filler {
      type: "msra"
    }
    bias_filler {
      type: "constant"
      value: 0
    }
  }
}
layer {
  name: "layer_512_1_sum"
  type: "Eltwise"
  bottom: "layer_512_1_conv_expand"
  bottom: "layer_512_1_conv2"
  top: "layer_512_1_sum"
}
layer {
  name: "layer_512_2_bn1"
  type: "BatchNorm"
  bottom: "layer_512_1_sum"
  top: "layer_512_2_bn1"
  param {
    lr_mult: 0
    decay_mult: 0
  }
  param {
    lr_mult: 0
    decay_mult: 0
  }
  param {
    lr_mult: 0
    decay_mult: 0
  }
}
layer {
  name: "layer_512_2_scale1"
  type: "Scale"
  bottom: "layer_512_2_bn1"
  top: "layer_512_2_bn1"
  param {
    lr_mult: 1
    decay_mult: 1
  }
  param {
    lr_mult: 2
    decay_mult: 1
  }
  scale_param {
    bias_term: true
  }
}
layer {
  name: "layer_512_2_relu1"
  type: "ReLU"
  bottom: "layer_512_2_bn1"
  top: "layer_512_2_bn1"
}
layer {
  name: "layer_512_2_conv1"
  type: "Convolution"
  bottom: "layer_512_2_bn1"
  top: "layer_512_2_conv1"
  param {
    lr_mult: 1
    decay_mult: 1
  }
  convolution_param {
    num_output: 512
    bias_term: false
    pad: 1
    kernel_size: 3
    stride: 1
    weight_filler {
      type: "msra"
    }
    bias_filler {
      type: "constant"
      value: 0
    }
  }
}
layer {
  name: "layer_512_2_bn2"
  type: "BatchNorm"
  bottom: "layer_512_2_conv1"
  top: "layer_512_2_conv1"
  param {
    lr_mult: 0
    decay_mult: 0
  }
  param {
    lr_mult: 0
    decay_mult: 0
  }
  param {
    lr_mult: 0
    decay_mult: 0
  }
}
layer {
  name: "layer_512_2_scale2"
  type: "Scale"
  bottom: "layer_512_2_conv1"
  top: "layer_512_2_conv1"
  param {
    lr_mult: 1
    decay_mult: 1
  }
  param {
    lr_mult: 2
    decay_mult: 1
  }
  scale_param {
    bias_term: true
  }
}
layer {
  name: "layer_512_2_relu2"
  type: "ReLU"
  bottom: "layer_512_2_conv1"
  top: "layer_512_2_conv1"
}
layer {
  name: "layer_512_2_conv2"
  type: "Convolution"
  bottom: "layer_512_2_conv1"
  top: "layer_512_2_conv2"
  param {
    lr_mult: 1
    decay_mult: 1
  }
  convolution_param {
    num_output: 512
    bias_term: false
    pad: 1
    kernel_size: 3
    stride: 1
    weight_filler {
      type: "msra"
    }
    bias_filler {
      type: "constant"
      value: 0
    }
  }
}
layer {
  name: "layer_512_2_sum"
  type: "Eltwise"
  bottom: "layer_512_2_conv2"
  bottom: "layer_512_1_sum"
  top: "layer_512_2_sum"
}
layer {
  name: "last_bn"
  type: "BatchNorm"
  bottom: "layer_512_2_sum"
  top: "layer_512_2_sum"
  param {
    lr_mult: 0
    decay_mult: 0
  }
  param {
    lr_mult: 0
    decay_mult: 0
  }
  param {
    lr_mult: 0
    decay_mult: 0
  }
}
layer {
  name: "last_scale"
  type: "Scale"
  bottom: "layer_512_2_sum"
  top: "layer_512_2_sum"
  param {
    lr_mult: 1
    decay_mult: 1
  }
  param {
    lr_mult: 2
    decay_mult: 1
  }
  scale_param {
    bias_term: true
  }
}
layer {
  name: "last_relu"
  type: "ReLU"
  bottom: "layer_512_2_sum"
  top: "layer_512_2_sum"
}
layer {
  name: "global_pool"
  type: "Pooling"
  bottom: "layer_512_2_sum"
  top: "global_pool"
  pooling_param {
    pool: AVE
    global_pooling: true
  }
}
layer {
  name: "score"
  type: "InnerProduct"
  bottom: "global_pool"
  top: "score"
  param {
    lr_mult: 1
    decay_mult: 1
  }
  param {
    lr_mult: 2
    decay_mult: 1
  }
  inner_product_param {
    num_output: 2
  }
}
layer {
  name: "loss"
  type: "SoftmaxWithLoss"
  bottom: "score"
  bottom: "label"
  top: "loss"
}
layer {
  name: "accuracy"
  type: "Accuracy"
  bottom: "score"
  bottom: "label"
  top: "accuracy"
  include {
    phase: TEST
  }
}
I0528 21:52:10.310667 142708 layer_factory.hpp:77] Creating layer data
I0528 21:52:10.310740 142708 db_lmdb.cpp:35] Opened lmdb /storage/Test_fold_is_01/gender_val_lmdb
I0528 21:52:10.310760 142708 net.cpp:84] Creating Layer data
I0528 21:52:10.310767 142708 net.cpp:380] data -> data
I0528 21:52:10.310777 142708 net.cpp:380] data -> label
I0528 21:52:10.310786 142708 data_transformer.cpp:25] Loading mean file from: /storage/Test_fold_is_01/mean.binaryproto
I0528 21:52:10.313367 142708 data_layer.cpp:45] output data size: 50,3,224,224
I0528 21:52:10.386911 142708 net.cpp:122] Setting up data
I0528 21:52:10.387008 142708 net.cpp:129] Top shape: 50 3 224 224 (7526400)
I0528 21:52:10.387017 142708 net.cpp:129] Top shape: 50 (50)
I0528 21:52:10.387022 142708 net.cpp:137] Memory required for data: 30105800
I0528 21:52:10.387029 142708 layer_factory.hpp:77] Creating layer label_data_1_split
I0528 21:52:10.387068 142708 net.cpp:84] Creating Layer label_data_1_split
I0528 21:52:10.387076 142708 net.cpp:406] label_data_1_split <- label
I0528 21:52:10.387087 142708 net.cpp:380] label_data_1_split -> label_data_1_split_0
I0528 21:52:10.387099 142708 net.cpp:380] label_data_1_split -> label_data_1_split_1
I0528 21:52:10.387249 142708 net.cpp:122] Setting up label_data_1_split
I0528 21:52:10.387259 142708 net.cpp:129] Top shape: 50 (50)
I0528 21:52:10.387264 142708 net.cpp:129] Top shape: 50 (50)
I0528 21:52:10.387267 142708 net.cpp:137] Memory required for data: 30106200
I0528 21:52:10.387272 142708 layer_factory.hpp:77] Creating layer data_bn
I0528 21:52:10.387300 142708 net.cpp:84] Creating Layer data_bn
I0528 21:52:10.387305 142708 net.cpp:406] data_bn <- data
I0528 21:52:10.387313 142708 net.cpp:380] data_bn -> data_bn
I0528 21:52:10.387640 142708 net.cpp:122] Setting up data_bn
I0528 21:52:10.387655 142708 net.cpp:129] Top shape: 50 3 224 224 (7526400)
I0528 21:52:10.387660 142708 net.cpp:137] Memory required for data: 60211800
I0528 21:52:10.387679 142708 layer_factory.hpp:77] Creating layer data_scale
I0528 21:52:10.387692 142708 net.cpp:84] Creating Layer data_scale
I0528 21:52:10.387698 142708 net.cpp:406] data_scale <- data_bn
I0528 21:52:10.387707 142708 net.cpp:367] data_scale -> data_bn (in-place)
I0528 21:52:10.387769 142708 layer_factory.hpp:77] Creating layer data_scale
I0528 21:52:10.388028 142708 net.cpp:122] Setting up data_scale
I0528 21:52:10.388048 142708 net.cpp:129] Top shape: 50 3 224 224 (7526400)
I0528 21:52:10.388070 142708 net.cpp:137] Memory required for data: 90317400
I0528 21:52:10.388083 142708 layer_factory.hpp:77] Creating layer conv1
I0528 21:52:10.388106 142708 net.cpp:84] Creating Layer conv1
I0528 21:52:10.388113 142708 net.cpp:406] conv1 <- data_bn
I0528 21:52:10.388124 142708 net.cpp:380] conv1 -> conv1
I0528 21:52:10.392850 142708 net.cpp:122] Setting up conv1
I0528 21:52:10.392875 142708 net.cpp:129] Top shape: 50 64 112 112 (40140800)
I0528 21:52:10.392882 142708 net.cpp:137] Memory required for data: 250880600
I0528 21:52:10.392894 142708 layer_factory.hpp:77] Creating layer conv1_bn
I0528 21:52:10.392918 142708 net.cpp:84] Creating Layer conv1_bn
I0528 21:52:10.392936 142708 net.cpp:406] conv1_bn <- conv1
I0528 21:52:10.392946 142708 net.cpp:367] conv1_bn -> conv1 (in-place)
I0528 21:52:10.393242 142708 net.cpp:122] Setting up conv1_bn
I0528 21:52:10.393259 142708 net.cpp:129] Top shape: 50 64 112 112 (40140800)
I0528 21:52:10.393263 142708 net.cpp:137] Memory required for data: 411443800
I0528 21:52:10.393280 142708 layer_factory.hpp:77] Creating layer conv1_scale
I0528 21:52:10.393292 142708 net.cpp:84] Creating Layer conv1_scale
I0528 21:52:10.393298 142708 net.cpp:406] conv1_scale <- conv1
I0528 21:52:10.393307 142708 net.cpp:367] conv1_scale -> conv1 (in-place)
I0528 21:52:10.393368 142708 layer_factory.hpp:77] Creating layer conv1_scale
I0528 21:52:10.393543 142708 net.cpp:122] Setting up conv1_scale
I0528 21:52:10.393553 142708 net.cpp:129] Top shape: 50 64 112 112 (40140800)
I0528 21:52:10.393558 142708 net.cpp:137] Memory required for data: 572007000
I0528 21:52:10.393566 142708 layer_factory.hpp:77] Creating layer conv1_relu
I0528 21:52:10.393589 142708 net.cpp:84] Creating Layer conv1_relu
I0528 21:52:10.393594 142708 net.cpp:406] conv1_relu <- conv1
I0528 21:52:10.393602 142708 net.cpp:367] conv1_relu -> conv1 (in-place)
I0528 21:52:10.394343 142708 net.cpp:122] Setting up conv1_relu
I0528 21:52:10.394364 142708 net.cpp:129] Top shape: 50 64 112 112 (40140800)
I0528 21:52:10.394371 142708 net.cpp:137] Memory required for data: 732570200
I0528 21:52:10.394377 142708 layer_factory.hpp:77] Creating layer conv1_pool
I0528 21:52:10.394389 142708 net.cpp:84] Creating Layer conv1_pool
I0528 21:52:10.394395 142708 net.cpp:406] conv1_pool <- conv1
I0528 21:52:10.394405 142708 net.cpp:380] conv1_pool -> conv1_pool
I0528 21:52:10.394465 142708 net.cpp:122] Setting up conv1_pool
I0528 21:52:10.394476 142708 net.cpp:129] Top shape: 50 64 56 56 (10035200)
I0528 21:52:10.394480 142708 net.cpp:137] Memory required for data: 772711000
I0528 21:52:10.394486 142708 layer_factory.hpp:77] Creating layer conv1_pool_conv1_pool_0_split
I0528 21:52:10.394495 142708 net.cpp:84] Creating Layer conv1_pool_conv1_pool_0_split
I0528 21:52:10.394501 142708 net.cpp:406] conv1_pool_conv1_pool_0_split <- conv1_pool
I0528 21:52:10.394508 142708 net.cpp:380] conv1_pool_conv1_pool_0_split -> conv1_pool_conv1_pool_0_split_0
I0528 21:52:10.394517 142708 net.cpp:380] conv1_pool_conv1_pool_0_split -> conv1_pool_conv1_pool_0_split_1
I0528 21:52:10.394567 142708 net.cpp:122] Setting up conv1_pool_conv1_pool_0_split
I0528 21:52:10.394574 142708 net.cpp:129] Top shape: 50 64 56 56 (10035200)
I0528 21:52:10.394582 142708 net.cpp:129] Top shape: 50 64 56 56 (10035200)
I0528 21:52:10.394585 142708 net.cpp:137] Memory required for data: 852992600
I0528 21:52:10.394590 142708 layer_factory.hpp:77] Creating layer layer_64_1_conv1
I0528 21:52:10.394606 142708 net.cpp:84] Creating Layer layer_64_1_conv1
I0528 21:52:10.394613 142708 net.cpp:406] layer_64_1_conv1 <- conv1_pool_conv1_pool_0_split_0
I0528 21:52:10.394623 142708 net.cpp:380] layer_64_1_conv1 -> layer_64_1_conv1
I0528 21:52:10.398362 142708 net.cpp:122] Setting up layer_64_1_conv1
I0528 21:52:10.398385 142708 net.cpp:129] Top shape: 50 64 56 56 (10035200)
I0528 21:52:10.398391 142708 net.cpp:137] Memory required for data: 893133400
I0528 21:52:10.398399 142708 layer_factory.hpp:77] Creating layer layer_64_1_bn2
I0528 21:52:10.398412 142708 net.cpp:84] Creating Layer layer_64_1_bn2
I0528 21:52:10.398418 142708 net.cpp:406] layer_64_1_bn2 <- layer_64_1_conv1
I0528 21:52:10.398428 142708 net.cpp:367] layer_64_1_bn2 -> layer_64_1_conv1 (in-place)
I0528 21:52:10.398689 142708 net.cpp:122] Setting up layer_64_1_bn2
I0528 21:52:10.398699 142708 net.cpp:129] Top shape: 50 64 56 56 (10035200)
I0528 21:52:10.398703 142708 net.cpp:137] Memory required for data: 933274200
I0528 21:52:10.398715 142708 layer_factory.hpp:77] Creating layer layer_64_1_scale2
I0528 21:52:10.398725 142708 net.cpp:84] Creating Layer layer_64_1_scale2
I0528 21:52:10.398730 142708 net.cpp:406] layer_64_1_scale2 <- layer_64_1_conv1
I0528 21:52:10.398758 142708 net.cpp:367] layer_64_1_scale2 -> layer_64_1_conv1 (in-place)
I0528 21:52:10.398816 142708 layer_factory.hpp:77] Creating layer layer_64_1_scale2
I0528 21:52:10.398974 142708 net.cpp:122] Setting up layer_64_1_scale2
I0528 21:52:10.398984 142708 net.cpp:129] Top shape: 50 64 56 56 (10035200)
I0528 21:52:10.398989 142708 net.cpp:137] Memory required for data: 973415000
I0528 21:52:10.399004 142708 layer_factory.hpp:77] Creating layer layer_64_1_relu2
I0528 21:52:10.399013 142708 net.cpp:84] Creating Layer layer_64_1_relu2
I0528 21:52:10.399019 142708 net.cpp:406] layer_64_1_relu2 <- layer_64_1_conv1
I0528 21:52:10.399026 142708 net.cpp:367] layer_64_1_relu2 -> layer_64_1_conv1 (in-place)
I0528 21:52:10.399258 142708 net.cpp:122] Setting up layer_64_1_relu2
I0528 21:52:10.399277 142708 net.cpp:129] Top shape: 50 64 56 56 (10035200)
I0528 21:52:10.399282 142708 net.cpp:137] Memory required for data: 1013555800
I0528 21:52:10.399287 142708 layer_factory.hpp:77] Creating layer layer_64_1_conv2
I0528 21:52:10.399303 142708 net.cpp:84] Creating Layer layer_64_1_conv2
I0528 21:52:10.399308 142708 net.cpp:406] layer_64_1_conv2 <- layer_64_1_conv1
I0528 21:52:10.399318 142708 net.cpp:380] layer_64_1_conv2 -> layer_64_1_conv2
I0528 21:52:10.403162 142708 net.cpp:122] Setting up layer_64_1_conv2
I0528 21:52:10.403185 142708 net.cpp:129] Top shape: 50 64 56 56 (10035200)
I0528 21:52:10.403192 142708 net.cpp:137] Memory required for data: 1053696600
I0528 21:52:10.403201 142708 layer_factory.hpp:77] Creating layer layer_64_1_sum
I0528 21:52:10.403214 142708 net.cpp:84] Creating Layer layer_64_1_sum
I0528 21:52:10.403220 142708 net.cpp:406] layer_64_1_sum <- layer_64_1_conv2
I0528 21:52:10.403228 142708 net.cpp:406] layer_64_1_sum <- conv1_pool_conv1_pool_0_split_1
I0528 21:52:10.403239 142708 net.cpp:380] layer_64_1_sum -> layer_64_1_sum
I0528 21:52:10.403275 142708 net.cpp:122] Setting up layer_64_1_sum
I0528 21:52:10.403281 142708 net.cpp:129] Top shape: 50 64 56 56 (10035200)
I0528 21:52:10.403285 142708 net.cpp:137] Memory required for data: 1093837400
I0528 21:52:10.403290 142708 layer_factory.hpp:77] Creating layer layer_64_1_sum_layer_64_1_sum_0_split
I0528 21:52:10.403297 142708 net.cpp:84] Creating Layer layer_64_1_sum_layer_64_1_sum_0_split
I0528 21:52:10.403301 142708 net.cpp:406] layer_64_1_sum_layer_64_1_sum_0_split <- layer_64_1_sum
I0528 21:52:10.403307 142708 net.cpp:380] layer_64_1_sum_layer_64_1_sum_0_split -> layer_64_1_sum_layer_64_1_sum_0_split_0
I0528 21:52:10.403313 142708 net.cpp:380] layer_64_1_sum_layer_64_1_sum_0_split -> layer_64_1_sum_layer_64_1_sum_0_split_1
I0528 21:52:10.403355 142708 net.cpp:122] Setting up layer_64_1_sum_layer_64_1_sum_0_split
I0528 21:52:10.403362 142708 net.cpp:129] Top shape: 50 64 56 56 (10035200)
I0528 21:52:10.403367 142708 net.cpp:129] Top shape: 50 64 56 56 (10035200)
I0528 21:52:10.403369 142708 net.cpp:137] Memory required for data: 1174119000
I0528 21:52:10.403373 142708 layer_factory.hpp:77] Creating layer layer_64_2_bn1
I0528 21:52:10.403381 142708 net.cpp:84] Creating Layer layer_64_2_bn1
I0528 21:52:10.403385 142708 net.cpp:406] layer_64_2_bn1 <- layer_64_1_sum_layer_64_1_sum_0_split_0
I0528 21:52:10.403391 142708 net.cpp:380] layer_64_2_bn1 -> layer_64_2_bn1
I0528 21:52:10.403614 142708 net.cpp:122] Setting up layer_64_2_bn1
I0528 21:52:10.403622 142708 net.cpp:129] Top shape: 50 64 56 56 (10035200)
I0528 21:52:10.403625 142708 net.cpp:137] Memory required for data: 1214259800
I0528 21:52:10.403633 142708 layer_factory.hpp:77] Creating layer layer_64_2_scale1
I0528 21:52:10.403643 142708 net.cpp:84] Creating Layer layer_64_2_scale1
I0528 21:52:10.403647 142708 net.cpp:406] layer_64_2_scale1 <- layer_64_2_bn1
I0528 21:52:10.403654 142708 net.cpp:367] layer_64_2_scale1 -> layer_64_2_bn1 (in-place)
I0528 21:52:10.403702 142708 layer_factory.hpp:77] Creating layer layer_64_2_scale1
I0528 21:52:10.403838 142708 net.cpp:122] Setting up layer_64_2_scale1
I0528 21:52:10.403846 142708 net.cpp:129] Top shape: 50 64 56 56 (10035200)
I0528 21:52:10.403856 142708 net.cpp:137] Memory required for data: 1254400600
I0528 21:52:10.403869 142708 layer_factory.hpp:77] Creating layer layer_64_2_relu1
I0528 21:52:10.403877 142708 net.cpp:84] Creating Layer layer_64_2_relu1
I0528 21:52:10.403882 142708 net.cpp:406] layer_64_2_relu1 <- layer_64_2_bn1
I0528 21:52:10.403887 142708 net.cpp:367] layer_64_2_relu1 -> layer_64_2_bn1 (in-place)
I0528 21:52:10.404500 142708 net.cpp:122] Setting up layer_64_2_relu1
I0528 21:52:10.404516 142708 net.cpp:129] Top shape: 50 64 56 56 (10035200)
I0528 21:52:10.404520 142708 net.cpp:137] Memory required for data: 1294541400
I0528 21:52:10.404525 142708 layer_factory.hpp:77] Creating layer layer_64_2_conv1
I0528 21:52:10.404539 142708 net.cpp:84] Creating Layer layer_64_2_conv1
I0528 21:52:10.404544 142708 net.cpp:406] layer_64_2_conv1 <- layer_64_2_bn1
I0528 21:52:10.404552 142708 net.cpp:380] layer_64_2_conv1 -> layer_64_2_conv1
I0528 21:52:10.406718 142708 net.cpp:122] Setting up layer_64_2_conv1
I0528 21:52:10.406736 142708 net.cpp:129] Top shape: 50 64 56 56 (10035200)
I0528 21:52:10.406740 142708 net.cpp:137] Memory required for data: 1334682200
I0528 21:52:10.406746 142708 layer_factory.hpp:77] Creating layer layer_64_2_bn2
I0528 21:52:10.406755 142708 net.cpp:84] Creating Layer layer_64_2_bn2
I0528 21:52:10.406760 142708 net.cpp:406] layer_64_2_bn2 <- layer_64_2_conv1
I0528 21:52:10.406767 142708 net.cpp:367] layer_64_2_bn2 -> layer_64_2_conv1 (in-place)
I0528 21:52:10.406988 142708 net.cpp:122] Setting up layer_64_2_bn2
I0528 21:52:10.406996 142708 net.cpp:129] Top shape: 50 64 56 56 (10035200)
I0528 21:52:10.406999 142708 net.cpp:137] Memory required for data: 1374823000
I0528 21:52:10.407007 142708 layer_factory.hpp:77] Creating layer layer_64_2_scale2
I0528 21:52:10.407016 142708 net.cpp:84] Creating Layer layer_64_2_scale2
I0528 21:52:10.407019 142708 net.cpp:406] layer_64_2_scale2 <- layer_64_2_conv1
I0528 21:52:10.407027 142708 net.cpp:367] layer_64_2_scale2 -> layer_64_2_conv1 (in-place)
I0528 21:52:10.407079 142708 layer_factory.hpp:77] Creating layer layer_64_2_scale2
I0528 21:52:10.407220 142708 net.cpp:122] Setting up layer_64_2_scale2
I0528 21:52:10.407228 142708 net.cpp:129] Top shape: 50 64 56 56 (10035200)
I0528 21:52:10.407232 142708 net.cpp:137] Memory required for data: 1414963800
I0528 21:52:10.407238 142708 layer_factory.hpp:77] Creating layer layer_64_2_relu2
I0528 21:52:10.407245 142708 net.cpp:84] Creating Layer layer_64_2_relu2
I0528 21:52:10.407249 142708 net.cpp:406] layer_64_2_relu2 <- layer_64_2_conv1
I0528 21:52:10.407255 142708 net.cpp:367] layer_64_2_relu2 -> layer_64_2_conv1 (in-place)
I0528 21:52:10.407853 142708 net.cpp:122] Setting up layer_64_2_relu2
I0528 21:52:10.407867 142708 net.cpp:129] Top shape: 50 64 56 56 (10035200)
I0528 21:52:10.407871 142708 net.cpp:137] Memory required for data: 1455104600
I0528 21:52:10.407876 142708 layer_factory.hpp:77] Creating layer layer_64_2_conv2
I0528 21:52:10.407887 142708 net.cpp:84] Creating Layer layer_64_2_conv2
I0528 21:52:10.407891 142708 net.cpp:406] layer_64_2_conv2 <- layer_64_2_conv1
I0528 21:52:10.407901 142708 net.cpp:380] layer_64_2_conv2 -> layer_64_2_conv2
I0528 21:52:10.410495 142708 net.cpp:122] Setting up layer_64_2_conv2
I0528 21:52:10.410514 142708 net.cpp:129] Top shape: 50 64 56 56 (10035200)
I0528 21:52:10.410518 142708 net.cpp:137] Memory required for data: 1495245400
I0528 21:52:10.410524 142708 layer_factory.hpp:77] Creating layer layer_64_2_sum
I0528 21:52:10.410532 142708 net.cpp:84] Creating Layer layer_64_2_sum
I0528 21:52:10.410537 142708 net.cpp:406] layer_64_2_sum <- layer_64_2_conv2
I0528 21:52:10.410542 142708 net.cpp:406] layer_64_2_sum <- layer_64_1_sum_layer_64_1_sum_0_split_1
I0528 21:52:10.410548 142708 net.cpp:380] layer_64_2_sum -> layer_64_2_sum
I0528 21:52:10.410580 142708 net.cpp:122] Setting up layer_64_2_sum
I0528 21:52:10.410588 142708 net.cpp:129] Top shape: 50 64 56 56 (10035200)
I0528 21:52:10.410591 142708 net.cpp:137] Memory required for data: 1535386200
I0528 21:52:10.410600 142708 layer_factory.hpp:77] Creating layer layer_128_1_bn1
I0528 21:52:10.410615 142708 net.cpp:84] Creating Layer layer_128_1_bn1
I0528 21:52:10.410620 142708 net.cpp:406] layer_128_1_bn1 <- layer_64_2_sum
I0528 21:52:10.410627 142708 net.cpp:380] layer_128_1_bn1 -> layer_128_1_bn1
I0528 21:52:10.410853 142708 net.cpp:122] Setting up layer_128_1_bn1
I0528 21:52:10.410861 142708 net.cpp:129] Top shape: 50 64 56 56 (10035200)
I0528 21:52:10.410864 142708 net.cpp:137] Memory required for data: 1575527000
I0528 21:52:10.410878 142708 layer_factory.hpp:77] Creating layer layer_128_1_scale1
I0528 21:52:10.410887 142708 net.cpp:84] Creating Layer layer_128_1_scale1
I0528 21:52:10.410892 142708 net.cpp:406] layer_128_1_scale1 <- layer_128_1_bn1
I0528 21:52:10.410897 142708 net.cpp:367] layer_128_1_scale1 -> layer_128_1_bn1 (in-place)
I0528 21:52:10.410946 142708 layer_factory.hpp:77] Creating layer layer_128_1_scale1
I0528 21:52:10.411094 142708 net.cpp:122] Setting up layer_128_1_scale1
I0528 21:52:10.411105 142708 net.cpp:129] Top shape: 50 64 56 56 (10035200)
I0528 21:52:10.411109 142708 net.cpp:137] Memory required for data: 1615667800
I0528 21:52:10.411115 142708 layer_factory.hpp:77] Creating layer layer_128_1_relu1
I0528 21:52:10.411123 142708 net.cpp:84] Creating Layer layer_128_1_relu1
I0528 21:52:10.411128 142708 net.cpp:406] layer_128_1_relu1 <- layer_128_1_bn1
I0528 21:52:10.411133 142708 net.cpp:367] layer_128_1_relu1 -> layer_128_1_bn1 (in-place)
I0528 21:52:10.411310 142708 net.cpp:122] Setting up layer_128_1_relu1
I0528 21:52:10.411321 142708 net.cpp:129] Top shape: 50 64 56 56 (10035200)
I0528 21:52:10.411324 142708 net.cpp:137] Memory required for data: 1655808600
I0528 21:52:10.411329 142708 layer_factory.hpp:77] Creating layer layer_128_1_bn1_layer_128_1_relu1_0_split
I0528 21:52:10.411334 142708 net.cpp:84] Creating Layer layer_128_1_bn1_layer_128_1_relu1_0_split
I0528 21:52:10.411339 142708 net.cpp:406] layer_128_1_bn1_layer_128_1_relu1_0_split <- layer_128_1_bn1
I0528 21:52:10.411345 142708 net.cpp:380] layer_128_1_bn1_layer_128_1_relu1_0_split -> layer_128_1_bn1_layer_128_1_relu1_0_split_0
I0528 21:52:10.411352 142708 net.cpp:380] layer_128_1_bn1_layer_128_1_relu1_0_split -> layer_128_1_bn1_layer_128_1_relu1_0_split_1
I0528 21:52:10.411401 142708 net.cpp:122] Setting up layer_128_1_bn1_layer_128_1_relu1_0_split
I0528 21:52:10.411407 142708 net.cpp:129] Top shape: 50 64 56 56 (10035200)
I0528 21:52:10.411412 142708 net.cpp:129] Top shape: 50 64 56 56 (10035200)
I0528 21:52:10.411414 142708 net.cpp:137] Memory required for data: 1736090200
I0528 21:52:10.411418 142708 layer_factory.hpp:77] Creating layer layer_128_1_conv1
I0528 21:52:10.411432 142708 net.cpp:84] Creating Layer layer_128_1_conv1
I0528 21:52:10.411435 142708 net.cpp:406] layer_128_1_conv1 <- layer_128_1_bn1_layer_128_1_relu1_0_split_0
I0528 21:52:10.411443 142708 net.cpp:380] layer_128_1_conv1 -> layer_128_1_conv1
I0528 21:52:10.415117 142708 net.cpp:122] Setting up layer_128_1_conv1
I0528 21:52:10.415134 142708 net.cpp:129] Top shape: 50 128 28 28 (5017600)
I0528 21:52:10.415139 142708 net.cpp:137] Memory required for data: 1756160600
I0528 21:52:10.415145 142708 layer_factory.hpp:77] Creating layer layer_128_1_bn2
I0528 21:52:10.415154 142708 net.cpp:84] Creating Layer layer_128_1_bn2
I0528 21:52:10.415159 142708 net.cpp:406] layer_128_1_bn2 <- layer_128_1_conv1
I0528 21:52:10.415166 142708 net.cpp:367] layer_128_1_bn2 -> layer_128_1_conv1 (in-place)
I0528 21:52:10.415375 142708 net.cpp:122] Setting up layer_128_1_bn2
I0528 21:52:10.415383 142708 net.cpp:129] Top shape: 50 128 28 28 (5017600)
I0528 21:52:10.415386 142708 net.cpp:137] Memory required for data: 1776231000
I0528 21:52:10.415395 142708 layer_factory.hpp:77] Creating layer layer_128_1_scale2
I0528 21:52:10.415407 142708 net.cpp:84] Creating Layer layer_128_1_scale2
I0528 21:52:10.415411 142708 net.cpp:406] layer_128_1_scale2 <- layer_128_1_conv1
I0528 21:52:10.415417 142708 net.cpp:367] layer_128_1_scale2 -> layer_128_1_conv1 (in-place)
I0528 21:52:10.415462 142708 layer_factory.hpp:77] Creating layer layer_128_1_scale2
I0528 21:52:10.415604 142708 net.cpp:122] Setting up layer_128_1_scale2
I0528 21:52:10.415613 142708 net.cpp:129] Top shape: 50 128 28 28 (5017600)
I0528 21:52:10.415616 142708 net.cpp:137] Memory required for data: 1796301400
I0528 21:52:10.415622 142708 layer_factory.hpp:77] Creating layer layer_128_1_relu2
I0528 21:52:10.415628 142708 net.cpp:84] Creating Layer layer_128_1_relu2
I0528 21:52:10.415632 142708 net.cpp:406] layer_128_1_relu2 <- layer_128_1_conv1
I0528 21:52:10.415638 142708 net.cpp:367] layer_128_1_relu2 -> layer_128_1_conv1 (in-place)
I0528 21:52:10.416249 142708 net.cpp:122] Setting up layer_128_1_relu2
I0528 21:52:10.416266 142708 net.cpp:129] Top shape: 50 128 28 28 (5017600)
I0528 21:52:10.416271 142708 net.cpp:137] Memory required for data: 1816371800
I0528 21:52:10.416275 142708 layer_factory.hpp:77] Creating layer layer_128_1_conv2
I0528 21:52:10.416285 142708 net.cpp:84] Creating Layer layer_128_1_conv2
I0528 21:52:10.416290 142708 net.cpp:406] layer_128_1_conv2 <- layer_128_1_conv1
I0528 21:52:10.416298 142708 net.cpp:380] layer_128_1_conv2 -> layer_128_1_conv2
I0528 21:52:10.422082 142708 net.cpp:122] Setting up layer_128_1_conv2
I0528 21:52:10.422101 142708 net.cpp:129] Top shape: 50 128 28 28 (5017600)
I0528 21:52:10.422106 142708 net.cpp:137] Memory required for data: 1836442200
I0528 21:52:10.422111 142708 layer_factory.hpp:77] Creating layer layer_128_1_conv_expand
I0528 21:52:10.422124 142708 net.cpp:84] Creating Layer layer_128_1_conv_expand
I0528 21:52:10.422129 142708 net.cpp:406] layer_128_1_conv_expand <- layer_128_1_bn1_layer_128_1_relu1_0_split_1
I0528 21:52:10.422137 142708 net.cpp:380] layer_128_1_conv_expand -> layer_128_1_conv_expand
I0528 21:52:10.423969 142708 net.cpp:122] Setting up layer_128_1_conv_expand
I0528 21:52:10.423987 142708 net.cpp:129] Top shape: 50 128 28 28 (5017600)
I0528 21:52:10.423991 142708 net.cpp:137] Memory required for data: 1856512600
I0528 21:52:10.423997 142708 layer_factory.hpp:77] Creating layer layer_128_1_sum
I0528 21:52:10.424005 142708 net.cpp:84] Creating Layer layer_128_1_sum
I0528 21:52:10.424008 142708 net.cpp:406] layer_128_1_sum <- layer_128_1_conv_expand
I0528 21:52:10.424013 142708 net.cpp:406] layer_128_1_sum <- layer_128_1_conv2
I0528 21:52:10.424019 142708 net.cpp:380] layer_128_1_sum -> layer_128_1_sum
I0528 21:52:10.424057 142708 net.cpp:122] Setting up layer_128_1_sum
I0528 21:52:10.424068 142708 net.cpp:129] Top shape: 50 128 28 28 (5017600)
I0528 21:52:10.424072 142708 net.cpp:137] Memory required for data: 1876583000
I0528 21:52:10.424075 142708 layer_factory.hpp:77] Creating layer layer_128_1_sum_layer_128_1_sum_0_split
I0528 21:52:10.424087 142708 net.cpp:84] Creating Layer layer_128_1_sum_layer_128_1_sum_0_split
I0528 21:52:10.424090 142708 net.cpp:406] layer_128_1_sum_layer_128_1_sum_0_split <- layer_128_1_sum
I0528 21:52:10.424096 142708 net.cpp:380] layer_128_1_sum_layer_128_1_sum_0_split -> layer_128_1_sum_layer_128_1_sum_0_split_0
I0528 21:52:10.424103 142708 net.cpp:380] layer_128_1_sum_layer_128_1_sum_0_split -> layer_128_1_sum_layer_128_1_sum_0_split_1
I0528 21:52:10.424147 142708 net.cpp:122] Setting up layer_128_1_sum_layer_128_1_sum_0_split
I0528 21:52:10.424154 142708 net.cpp:129] Top shape: 50 128 28 28 (5017600)
I0528 21:52:10.424159 142708 net.cpp:129] Top shape: 50 128 28 28 (5017600)
I0528 21:52:10.424161 142708 net.cpp:137] Memory required for data: 1916723800
I0528 21:52:10.424165 142708 layer_factory.hpp:77] Creating layer layer_128_2_bn1
I0528 21:52:10.424171 142708 net.cpp:84] Creating Layer layer_128_2_bn1
I0528 21:52:10.424175 142708 net.cpp:406] layer_128_2_bn1 <- layer_128_1_sum_layer_128_1_sum_0_split_0
I0528 21:52:10.424182 142708 net.cpp:380] layer_128_2_bn1 -> layer_128_2_bn1
I0528 21:52:10.424398 142708 net.cpp:122] Setting up layer_128_2_bn1
I0528 21:52:10.424407 142708 net.cpp:129] Top shape: 50 128 28 28 (5017600)
I0528 21:52:10.424409 142708 net.cpp:137] Memory required for data: 1936794200
I0528 21:52:10.424417 142708 layer_factory.hpp:77] Creating layer layer_128_2_scale1
I0528 21:52:10.424437 142708 net.cpp:84] Creating Layer layer_128_2_scale1
I0528 21:52:10.424441 142708 net.cpp:406] layer_128_2_scale1 <- layer_128_2_bn1
I0528 21:52:10.424448 142708 net.cpp:367] layer_128_2_scale1 -> layer_128_2_bn1 (in-place)
I0528 21:52:10.424495 142708 layer_factory.hpp:77] Creating layer layer_128_2_scale1
I0528 21:52:10.424619 142708 net.cpp:122] Setting up layer_128_2_scale1
I0528 21:52:10.424628 142708 net.cpp:129] Top shape: 50 128 28 28 (5017600)
I0528 21:52:10.424631 142708 net.cpp:137] Memory required for data: 1956864600
I0528 21:52:10.424636 142708 layer_factory.hpp:77] Creating layer layer_128_2_relu1
I0528 21:52:10.424643 142708 net.cpp:84] Creating Layer layer_128_2_relu1
I0528 21:52:10.424646 142708 net.cpp:406] layer_128_2_relu1 <- layer_128_2_bn1
I0528 21:52:10.424654 142708 net.cpp:367] layer_128_2_relu1 -> layer_128_2_bn1 (in-place)
I0528 21:52:10.425266 142708 net.cpp:122] Setting up layer_128_2_relu1
I0528 21:52:10.425282 142708 net.cpp:129] Top shape: 50 128 28 28 (5017600)
I0528 21:52:10.425287 142708 net.cpp:137] Memory required for data: 1976935000
I0528 21:52:10.425290 142708 layer_factory.hpp:77] Creating layer layer_128_2_conv1
I0528 21:52:10.425302 142708 net.cpp:84] Creating Layer layer_128_2_conv1
I0528 21:52:10.425307 142708 net.cpp:406] layer_128_2_conv1 <- layer_128_2_bn1
I0528 21:52:10.425315 142708 net.cpp:380] layer_128_2_conv1 -> layer_128_2_conv1
I0528 21:52:10.431517 142708 net.cpp:122] Setting up layer_128_2_conv1
I0528 21:52:10.431537 142708 net.cpp:129] Top shape: 50 128 28 28 (5017600)
I0528 21:52:10.431542 142708 net.cpp:137] Memory required for data: 1997005400
I0528 21:52:10.431548 142708 layer_factory.hpp:77] Creating layer layer_128_2_bn2
I0528 21:52:10.431555 142708 net.cpp:84] Creating Layer layer_128_2_bn2
I0528 21:52:10.431560 142708 net.cpp:406] layer_128_2_bn2 <- layer_128_2_conv1
I0528 21:52:10.431567 142708 net.cpp:367] layer_128_2_bn2 -> layer_128_2_conv1 (in-place)
I0528 21:52:10.431778 142708 net.cpp:122] Setting up layer_128_2_bn2
I0528 21:52:10.431787 142708 net.cpp:129] Top shape: 50 128 28 28 (5017600)
I0528 21:52:10.431790 142708 net.cpp:137] Memory required for data: 2017075800
I0528 21:52:10.431798 142708 layer_factory.hpp:77] Creating layer layer_128_2_scale2
I0528 21:52:10.431807 142708 net.cpp:84] Creating Layer layer_128_2_scale2
I0528 21:52:10.431810 142708 net.cpp:406] layer_128_2_scale2 <- layer_128_2_conv1
I0528 21:52:10.431815 142708 net.cpp:367] layer_128_2_scale2 -> layer_128_2_conv1 (in-place)
I0528 21:52:10.431862 142708 layer_factory.hpp:77] Creating layer layer_128_2_scale2
I0528 21:52:10.431987 142708 net.cpp:122] Setting up layer_128_2_scale2
I0528 21:52:10.431993 142708 net.cpp:129] Top shape: 50 128 28 28 (5017600)
I0528 21:52:10.431998 142708 net.cpp:137] Memory required for data: 2037146200
I0528 21:52:10.432003 142708 layer_factory.hpp:77] Creating layer layer_128_2_relu2
I0528 21:52:10.432009 142708 net.cpp:84] Creating Layer layer_128_2_relu2
I0528 21:52:10.432013 142708 net.cpp:406] layer_128_2_relu2 <- layer_128_2_conv1
I0528 21:52:10.432019 142708 net.cpp:367] layer_128_2_relu2 -> layer_128_2_conv1 (in-place)
I0528 21:52:10.432205 142708 net.cpp:122] Setting up layer_128_2_relu2
I0528 21:52:10.432219 142708 net.cpp:129] Top shape: 50 128 28 28 (5017600)
I0528 21:52:10.432222 142708 net.cpp:137] Memory required for data: 2057216600
I0528 21:52:10.432225 142708 layer_factory.hpp:77] Creating layer layer_128_2_conv2
I0528 21:52:10.432236 142708 net.cpp:84] Creating Layer layer_128_2_conv2
I0528 21:52:10.432241 142708 net.cpp:406] layer_128_2_conv2 <- layer_128_2_conv1
I0528 21:52:10.432250 142708 net.cpp:380] layer_128_2_conv2 -> layer_128_2_conv2
I0528 21:52:10.441216 142708 net.cpp:122] Setting up layer_128_2_conv2
I0528 21:52:10.441234 142708 net.cpp:129] Top shape: 50 128 28 28 (5017600)
I0528 21:52:10.441239 142708 net.cpp:137] Memory required for data: 2077287000
I0528 21:52:10.441246 142708 layer_factory.hpp:77] Creating layer layer_128_2_sum
I0528 21:52:10.441258 142708 net.cpp:84] Creating Layer layer_128_2_sum
I0528 21:52:10.441270 142708 net.cpp:406] layer_128_2_sum <- layer_128_2_conv2
I0528 21:52:10.441277 142708 net.cpp:406] layer_128_2_sum <- layer_128_1_sum_layer_128_1_sum_0_split_1
I0528 21:52:10.441284 142708 net.cpp:380] layer_128_2_sum -> layer_128_2_sum
I0528 21:52:10.441316 142708 net.cpp:122] Setting up layer_128_2_sum
I0528 21:52:10.441325 142708 net.cpp:129] Top shape: 50 128 28 28 (5017600)
I0528 21:52:10.441329 142708 net.cpp:137] Memory required for data: 2097357400
I0528 21:52:10.441334 142708 layer_factory.hpp:77] Creating layer layer_256_1_bn1
I0528 21:52:10.441340 142708 net.cpp:84] Creating Layer layer_256_1_bn1
I0528 21:52:10.441344 142708 net.cpp:406] layer_256_1_bn1 <- layer_128_2_sum
I0528 21:52:10.441351 142708 net.cpp:380] layer_256_1_bn1 -> layer_256_1_bn1
I0528 21:52:10.441571 142708 net.cpp:122] Setting up layer_256_1_bn1
I0528 21:52:10.441579 142708 net.cpp:129] Top shape: 50 128 28 28 (5017600)
I0528 21:52:10.441583 142708 net.cpp:137] Memory required for data: 2117427800
I0528 21:52:10.441591 142708 layer_factory.hpp:77] Creating layer layer_256_1_scale1
I0528 21:52:10.441597 142708 net.cpp:84] Creating Layer layer_256_1_scale1
I0528 21:52:10.441601 142708 net.cpp:406] layer_256_1_scale1 <- layer_256_1_bn1
I0528 21:52:10.441613 142708 net.cpp:367] layer_256_1_scale1 -> layer_256_1_bn1 (in-place)
I0528 21:52:10.441661 142708 layer_factory.hpp:77] Creating layer layer_256_1_scale1
I0528 21:52:10.441786 142708 net.cpp:122] Setting up layer_256_1_scale1
I0528 21:52:10.441793 142708 net.cpp:129] Top shape: 50 128 28 28 (5017600)
I0528 21:52:10.441797 142708 net.cpp:137] Memory required for data: 2137498200
I0528 21:52:10.441802 142708 layer_factory.hpp:77] Creating layer layer_256_1_relu1
I0528 21:52:10.441808 142708 net.cpp:84] Creating Layer layer_256_1_relu1
I0528 21:52:10.441812 142708 net.cpp:406] layer_256_1_relu1 <- layer_256_1_bn1
I0528 21:52:10.441817 142708 net.cpp:367] layer_256_1_relu1 -> layer_256_1_bn1 (in-place)
I0528 21:52:10.442001 142708 net.cpp:122] Setting up layer_256_1_relu1
I0528 21:52:10.442011 142708 net.cpp:129] Top shape: 50 128 28 28 (5017600)
I0528 21:52:10.442014 142708 net.cpp:137] Memory required for data: 2157568600
I0528 21:52:10.442018 142708 layer_factory.hpp:77] Creating layer layer_256_1_bn1_layer_256_1_relu1_0_split
I0528 21:52:10.442025 142708 net.cpp:84] Creating Layer layer_256_1_bn1_layer_256_1_relu1_0_split
I0528 21:52:10.442029 142708 net.cpp:406] layer_256_1_bn1_layer_256_1_relu1_0_split <- layer_256_1_bn1
I0528 21:52:10.442034 142708 net.cpp:380] layer_256_1_bn1_layer_256_1_relu1_0_split -> layer_256_1_bn1_layer_256_1_relu1_0_split_0
I0528 21:52:10.442054 142708 net.cpp:380] layer_256_1_bn1_layer_256_1_relu1_0_split -> layer_256_1_bn1_layer_256_1_relu1_0_split_1
I0528 21:52:10.442111 142708 net.cpp:122] Setting up layer_256_1_bn1_layer_256_1_relu1_0_split
I0528 21:52:10.442121 142708 net.cpp:129] Top shape: 50 128 28 28 (5017600)
I0528 21:52:10.442126 142708 net.cpp:129] Top shape: 50 128 28 28 (5017600)
I0528 21:52:10.442128 142708 net.cpp:137] Memory required for data: 2197709400
I0528 21:52:10.442132 142708 layer_factory.hpp:77] Creating layer layer_256_1_conv1
I0528 21:52:10.442143 142708 net.cpp:84] Creating Layer layer_256_1_conv1
I0528 21:52:10.442148 142708 net.cpp:406] layer_256_1_conv1 <- layer_256_1_bn1_layer_256_1_relu1_0_split_0
I0528 21:52:10.442155 142708 net.cpp:380] layer_256_1_conv1 -> layer_256_1_conv1
I0528 21:52:10.452440 142708 net.cpp:122] Setting up layer_256_1_conv1
I0528 21:52:10.452461 142708 net.cpp:129] Top shape: 50 256 14 14 (2508800)
I0528 21:52:10.452466 142708 net.cpp:137] Memory required for data: 2207744600
I0528 21:52:10.452472 142708 layer_factory.hpp:77] Creating layer layer_256_1_bn2
I0528 21:52:10.452481 142708 net.cpp:84] Creating Layer layer_256_1_bn2
I0528 21:52:10.452486 142708 net.cpp:406] layer_256_1_bn2 <- layer_256_1_conv1
I0528 21:52:10.452492 142708 net.cpp:367] layer_256_1_bn2 -> layer_256_1_conv1 (in-place)
I0528 21:52:10.452736 142708 net.cpp:122] Setting up layer_256_1_bn2
I0528 21:52:10.452750 142708 net.cpp:129] Top shape: 50 256 14 14 (2508800)
I0528 21:52:10.452761 142708 net.cpp:137] Memory required for data: 2217779800
I0528 21:52:10.452785 142708 layer_factory.hpp:77] Creating layer layer_256_1_scale2
I0528 21:52:10.452792 142708 net.cpp:84] Creating Layer layer_256_1_scale2
I0528 21:52:10.452797 142708 net.cpp:406] layer_256_1_scale2 <- layer_256_1_conv1
I0528 21:52:10.452805 142708 net.cpp:367] layer_256_1_scale2 -> layer_256_1_conv1 (in-place)
I0528 21:52:10.452855 142708 layer_factory.hpp:77] Creating layer layer_256_1_scale2
I0528 21:52:10.452980 142708 net.cpp:122] Setting up layer_256_1_scale2
I0528 21:52:10.452988 142708 net.cpp:129] Top shape: 50 256 14 14 (2508800)
I0528 21:52:10.452991 142708 net.cpp:137] Memory required for data: 2227815000
I0528 21:52:10.452998 142708 layer_factory.hpp:77] Creating layer layer_256_1_relu2
I0528 21:52:10.453004 142708 net.cpp:84] Creating Layer layer_256_1_relu2
I0528 21:52:10.453008 142708 net.cpp:406] layer_256_1_relu2 <- layer_256_1_conv1
I0528 21:52:10.453016 142708 net.cpp:367] layer_256_1_relu2 -> layer_256_1_conv1 (in-place)
I0528 21:52:10.453627 142708 net.cpp:122] Setting up layer_256_1_relu2
I0528 21:52:10.453644 142708 net.cpp:129] Top shape: 50 256 14 14 (2508800)
I0528 21:52:10.453649 142708 net.cpp:137] Memory required for data: 2237850200
I0528 21:52:10.453651 142708 layer_factory.hpp:77] Creating layer layer_256_1_conv2
I0528 21:52:10.453665 142708 net.cpp:84] Creating Layer layer_256_1_conv2
I0528 21:52:10.453670 142708 net.cpp:406] layer_256_1_conv2 <- layer_256_1_conv1
I0528 21:52:10.453677 142708 net.cpp:380] layer_256_1_conv2 -> layer_256_1_conv2
I0528 21:52:10.472559 142708 net.cpp:122] Setting up layer_256_1_conv2
I0528 21:52:10.472591 142708 net.cpp:129] Top shape: 50 256 14 14 (2508800)
I0528 21:52:10.472596 142708 net.cpp:137] Memory required for data: 2247885400
I0528 21:52:10.472604 142708 layer_factory.hpp:77] Creating layer layer_256_1_conv_expand
I0528 21:52:10.472620 142708 net.cpp:84] Creating Layer layer_256_1_conv_expand
I0528 21:52:10.472626 142708 net.cpp:406] layer_256_1_conv_expand <- layer_256_1_bn1_layer_256_1_relu1_0_split_1
I0528 21:52:10.472636 142708 net.cpp:380] layer_256_1_conv_expand -> layer_256_1_conv_expand
I0528 21:52:10.478945 142708 net.cpp:122] Setting up layer_256_1_conv_expand
I0528 21:52:10.478968 142708 net.cpp:129] Top shape: 50 256 14 14 (2508800)
I0528 21:52:10.478973 142708 net.cpp:137] Memory required for data: 2257920600
I0528 21:52:10.478979 142708 layer_factory.hpp:77] Creating layer layer_256_1_sum
I0528 21:52:10.478986 142708 net.cpp:84] Creating Layer layer_256_1_sum
I0528 21:52:10.478992 142708 net.cpp:406] layer_256_1_sum <- layer_256_1_conv_expand
I0528 21:52:10.478997 142708 net.cpp:406] layer_256_1_sum <- layer_256_1_conv2
I0528 21:52:10.479003 142708 net.cpp:380] layer_256_1_sum -> layer_256_1_sum
I0528 21:52:10.479044 142708 net.cpp:122] Setting up layer_256_1_sum
I0528 21:52:10.479055 142708 net.cpp:129] Top shape: 50 256 14 14 (2508800)
I0528 21:52:10.479059 142708 net.cpp:137] Memory required for data: 2267955800
I0528 21:52:10.479063 142708 layer_factory.hpp:77] Creating layer layer_256_1_sum_layer_256_1_sum_0_split
I0528 21:52:10.479070 142708 net.cpp:84] Creating Layer layer_256_1_sum_layer_256_1_sum_0_split
I0528 21:52:10.479075 142708 net.cpp:406] layer_256_1_sum_layer_256_1_sum_0_split <- layer_256_1_sum
I0528 21:52:10.479082 142708 net.cpp:380] layer_256_1_sum_layer_256_1_sum_0_split -> layer_256_1_sum_layer_256_1_sum_0_split_0
I0528 21:52:10.479090 142708 net.cpp:380] layer_256_1_sum_layer_256_1_sum_0_split -> layer_256_1_sum_layer_256_1_sum_0_split_1
I0528 21:52:10.479135 142708 net.cpp:122] Setting up layer_256_1_sum_layer_256_1_sum_0_split
I0528 21:52:10.479143 142708 net.cpp:129] Top shape: 50 256 14 14 (2508800)
I0528 21:52:10.479147 142708 net.cpp:129] Top shape: 50 256 14 14 (2508800)
I0528 21:52:10.479151 142708 net.cpp:137] Memory required for data: 2288026200
I0528 21:52:10.479154 142708 layer_factory.hpp:77] Creating layer layer_256_2_bn1
I0528 21:52:10.479169 142708 net.cpp:84] Creating Layer layer_256_2_bn1
I0528 21:52:10.479183 142708 net.cpp:406] layer_256_2_bn1 <- layer_256_1_sum_layer_256_1_sum_0_split_0
I0528 21:52:10.479192 142708 net.cpp:380] layer_256_2_bn1 -> layer_256_2_bn1
I0528 21:52:10.479427 142708 net.cpp:122] Setting up layer_256_2_bn1
I0528 21:52:10.479436 142708 net.cpp:129] Top shape: 50 256 14 14 (2508800)
I0528 21:52:10.479439 142708 net.cpp:137] Memory required for data: 2298061400
I0528 21:52:10.479447 142708 layer_factory.hpp:77] Creating layer layer_256_2_scale1
I0528 21:52:10.479457 142708 net.cpp:84] Creating Layer layer_256_2_scale1
I0528 21:52:10.479461 142708 net.cpp:406] layer_256_2_scale1 <- layer_256_2_bn1
I0528 21:52:10.479467 142708 net.cpp:367] layer_256_2_scale1 -> layer_256_2_bn1 (in-place)
I0528 21:52:10.479523 142708 layer_factory.hpp:77] Creating layer layer_256_2_scale1
I0528 21:52:10.479648 142708 net.cpp:122] Setting up layer_256_2_scale1
I0528 21:52:10.479656 142708 net.cpp:129] Top shape: 50 256 14 14 (2508800)
I0528 21:52:10.479660 142708 net.cpp:137] Memory required for data: 2308096600
I0528 21:52:10.479666 142708 layer_factory.hpp:77] Creating layer layer_256_2_relu1
I0528 21:52:10.479672 142708 net.cpp:84] Creating Layer layer_256_2_relu1
I0528 21:52:10.479676 142708 net.cpp:406] layer_256_2_relu1 <- layer_256_2_bn1
I0528 21:52:10.479681 142708 net.cpp:367] layer_256_2_relu1 -> layer_256_2_bn1 (in-place)
I0528 21:52:10.480337 142708 net.cpp:122] Setting up layer_256_2_relu1
I0528 21:52:10.480355 142708 net.cpp:129] Top shape: 50 256 14 14 (2508800)
I0528 21:52:10.480360 142708 net.cpp:137] Memory required for data: 2318131800
I0528 21:52:10.480365 142708 layer_factory.hpp:77] Creating layer layer_256_2_conv1
I0528 21:52:10.480377 142708 net.cpp:84] Creating Layer layer_256_2_conv1
I0528 21:52:10.480382 142708 net.cpp:406] layer_256_2_conv1 <- layer_256_2_bn1
I0528 21:52:10.480389 142708 net.cpp:380] layer_256_2_conv1 -> layer_256_2_conv1
I0528 21:52:10.500461 142708 net.cpp:122] Setting up layer_256_2_conv1
I0528 21:52:10.500483 142708 net.cpp:129] Top shape: 50 256 14 14 (2508800)
I0528 21:52:10.500486 142708 net.cpp:137] Memory required for data: 2328167000
I0528 21:52:10.500494 142708 layer_factory.hpp:77] Creating layer layer_256_2_bn2
I0528 21:52:10.500504 142708 net.cpp:84] Creating Layer layer_256_2_bn2
I0528 21:52:10.500509 142708 net.cpp:406] layer_256_2_bn2 <- layer_256_2_conv1
I0528 21:52:10.500515 142708 net.cpp:367] layer_256_2_bn2 -> layer_256_2_conv1 (in-place)
I0528 21:52:10.500746 142708 net.cpp:122] Setting up layer_256_2_bn2
I0528 21:52:10.500754 142708 net.cpp:129] Top shape: 50 256 14 14 (2508800)
I0528 21:52:10.500758 142708 net.cpp:137] Memory required for data: 2338202200
I0528 21:52:10.500766 142708 layer_factory.hpp:77] Creating layer layer_256_2_scale2
I0528 21:52:10.500784 142708 net.cpp:84] Creating Layer layer_256_2_scale2
I0528 21:52:10.500789 142708 net.cpp:406] layer_256_2_scale2 <- layer_256_2_conv1
I0528 21:52:10.500795 142708 net.cpp:367] layer_256_2_scale2 -> layer_256_2_conv1 (in-place)
I0528 21:52:10.500852 142708 layer_factory.hpp:77] Creating layer layer_256_2_scale2
I0528 21:52:10.500986 142708 net.cpp:122] Setting up layer_256_2_scale2
I0528 21:52:10.500994 142708 net.cpp:129] Top shape: 50 256 14 14 (2508800)
I0528 21:52:10.500998 142708 net.cpp:137] Memory required for data: 2348237400
I0528 21:52:10.501005 142708 layer_factory.hpp:77] Creating layer layer_256_2_relu2
I0528 21:52:10.501013 142708 net.cpp:84] Creating Layer layer_256_2_relu2
I0528 21:52:10.501018 142708 net.cpp:406] layer_256_2_relu2 <- layer_256_2_conv1
I0528 21:52:10.501024 142708 net.cpp:367] layer_256_2_relu2 -> layer_256_2_conv1 (in-place)
I0528 21:52:10.501240 142708 net.cpp:122] Setting up layer_256_2_relu2
I0528 21:52:10.501255 142708 net.cpp:129] Top shape: 50 256 14 14 (2508800)
I0528 21:52:10.501260 142708 net.cpp:137] Memory required for data: 2358272600
I0528 21:52:10.501263 142708 layer_factory.hpp:77] Creating layer layer_256_2_conv2
I0528 21:52:10.501284 142708 net.cpp:84] Creating Layer layer_256_2_conv2
I0528 21:52:10.501302 142708 net.cpp:406] layer_256_2_conv2 <- layer_256_2_conv1
I0528 21:52:10.501312 142708 net.cpp:380] layer_256_2_conv2 -> layer_256_2_conv2
I0528 21:52:10.521272 142708 net.cpp:122] Setting up layer_256_2_conv2
I0528 21:52:10.521296 142708 net.cpp:129] Top shape: 50 256 14 14 (2508800)
I0528 21:52:10.521301 142708 net.cpp:137] Memory required for data: 2368307800
I0528 21:52:10.521307 142708 layer_factory.hpp:77] Creating layer layer_256_2_sum
I0528 21:52:10.521316 142708 net.cpp:84] Creating Layer layer_256_2_sum
I0528 21:52:10.521320 142708 net.cpp:406] layer_256_2_sum <- layer_256_2_conv2
I0528 21:52:10.521327 142708 net.cpp:406] layer_256_2_sum <- layer_256_1_sum_layer_256_1_sum_0_split_1
I0528 21:52:10.521334 142708 net.cpp:380] layer_256_2_sum -> layer_256_2_sum
I0528 21:52:10.521370 142708 net.cpp:122] Setting up layer_256_2_sum
I0528 21:52:10.521378 142708 net.cpp:129] Top shape: 50 256 14 14 (2508800)
I0528 21:52:10.521381 142708 net.cpp:137] Memory required for data: 2378343000
I0528 21:52:10.521384 142708 layer_factory.hpp:77] Creating layer layer_512_1_bn1
I0528 21:52:10.521394 142708 net.cpp:84] Creating Layer layer_512_1_bn1
I0528 21:52:10.521399 142708 net.cpp:406] layer_512_1_bn1 <- layer_256_2_sum
I0528 21:52:10.521407 142708 net.cpp:380] layer_512_1_bn1 -> layer_512_1_bn1
I0528 21:52:10.521646 142708 net.cpp:122] Setting up layer_512_1_bn1
I0528 21:52:10.521656 142708 net.cpp:129] Top shape: 50 256 14 14 (2508800)
I0528 21:52:10.521659 142708 net.cpp:137] Memory required for data: 2388378200
I0528 21:52:10.521668 142708 layer_factory.hpp:77] Creating layer layer_512_1_scale1
I0528 21:52:10.521675 142708 net.cpp:84] Creating Layer layer_512_1_scale1
I0528 21:52:10.521679 142708 net.cpp:406] layer_512_1_scale1 <- layer_512_1_bn1
I0528 21:52:10.521685 142708 net.cpp:367] layer_512_1_scale1 -> layer_512_1_bn1 (in-place)
I0528 21:52:10.521740 142708 layer_factory.hpp:77] Creating layer layer_512_1_scale1
I0528 21:52:10.521872 142708 net.cpp:122] Setting up layer_512_1_scale1
I0528 21:52:10.521880 142708 net.cpp:129] Top shape: 50 256 14 14 (2508800)
I0528 21:52:10.521884 142708 net.cpp:137] Memory required for data: 2398413400
I0528 21:52:10.521890 142708 layer_factory.hpp:77] Creating layer layer_512_1_relu1
I0528 21:52:10.521899 142708 net.cpp:84] Creating Layer layer_512_1_relu1
I0528 21:52:10.521903 142708 net.cpp:406] layer_512_1_relu1 <- layer_512_1_bn1
I0528 21:52:10.521908 142708 net.cpp:367] layer_512_1_relu1 -> layer_512_1_bn1 (in-place)
I0528 21:52:10.522553 142708 net.cpp:122] Setting up layer_512_1_relu1
I0528 21:52:10.522572 142708 net.cpp:129] Top shape: 50 256 14 14 (2508800)
I0528 21:52:10.522578 142708 net.cpp:137] Memory required for data: 2408448600
I0528 21:52:10.522581 142708 layer_factory.hpp:77] Creating layer layer_512_1_bn1_layer_512_1_relu1_0_split
I0528 21:52:10.522588 142708 net.cpp:84] Creating Layer layer_512_1_bn1_layer_512_1_relu1_0_split
I0528 21:52:10.522593 142708 net.cpp:406] layer_512_1_bn1_layer_512_1_relu1_0_split <- layer_512_1_bn1
I0528 21:52:10.522599 142708 net.cpp:380] layer_512_1_bn1_layer_512_1_relu1_0_split -> layer_512_1_bn1_layer_512_1_relu1_0_split_0
I0528 21:52:10.522608 142708 net.cpp:380] layer_512_1_bn1_layer_512_1_relu1_0_split -> layer_512_1_bn1_layer_512_1_relu1_0_split_1
I0528 21:52:10.522665 142708 net.cpp:122] Setting up layer_512_1_bn1_layer_512_1_relu1_0_split
I0528 21:52:10.522673 142708 net.cpp:129] Top shape: 50 256 14 14 (2508800)
I0528 21:52:10.522678 142708 net.cpp:129] Top shape: 50 256 14 14 (2508800)
I0528 21:52:10.522683 142708 net.cpp:137] Memory required for data: 2428519000
I0528 21:52:10.522686 142708 layer_factory.hpp:77] Creating layer layer_512_1_conv1
I0528 21:52:10.522699 142708 net.cpp:84] Creating Layer layer_512_1_conv1
I0528 21:52:10.522704 142708 net.cpp:406] layer_512_1_conv1 <- layer_512_1_bn1_layer_512_1_relu1_0_split_0
I0528 21:52:10.522713 142708 net.cpp:380] layer_512_1_conv1 -> layer_512_1_conv1
I0528 21:52:10.560547 142708 net.cpp:122] Setting up layer_512_1_conv1
I0528 21:52:10.560602 142708 net.cpp:129] Top shape: 50 512 7 7 (1254400)
I0528 21:52:10.560619 142708 net.cpp:137] Memory required for data: 2433536600
I0528 21:52:10.560631 142708 layer_factory.hpp:77] Creating layer layer_512_1_bn2
I0528 21:52:10.560642 142708 net.cpp:84] Creating Layer layer_512_1_bn2
I0528 21:52:10.560649 142708 net.cpp:406] layer_512_1_bn2 <- layer_512_1_conv1
I0528 21:52:10.560657 142708 net.cpp:367] layer_512_1_bn2 -> layer_512_1_conv1 (in-place)
I0528 21:52:10.560942 142708 net.cpp:122] Setting up layer_512_1_bn2
I0528 21:52:10.560951 142708 net.cpp:129] Top shape: 50 512 7 7 (1254400)
I0528 21:52:10.560956 142708 net.cpp:137] Memory required for data: 2438554200
I0528 21:52:10.560963 142708 layer_factory.hpp:77] Creating layer layer_512_1_scale2
I0528 21:52:10.560972 142708 net.cpp:84] Creating Layer layer_512_1_scale2
I0528 21:52:10.560976 142708 net.cpp:406] layer_512_1_scale2 <- layer_512_1_conv1
I0528 21:52:10.560982 142708 net.cpp:367] layer_512_1_scale2 -> layer_512_1_conv1 (in-place)
I0528 21:52:10.561048 142708 layer_factory.hpp:77] Creating layer layer_512_1_scale2
I0528 21:52:10.561200 142708 net.cpp:122] Setting up layer_512_1_scale2
I0528 21:52:10.561209 142708 net.cpp:129] Top shape: 50 512 7 7 (1254400)
I0528 21:52:10.561213 142708 net.cpp:137] Memory required for data: 2443571800
I0528 21:52:10.561219 142708 layer_factory.hpp:77] Creating layer layer_512_1_relu2
I0528 21:52:10.561226 142708 net.cpp:84] Creating Layer layer_512_1_relu2
I0528 21:52:10.561231 142708 net.cpp:406] layer_512_1_relu2 <- layer_512_1_conv1
I0528 21:52:10.561239 142708 net.cpp:367] layer_512_1_relu2 -> layer_512_1_conv1 (in-place)
I0528 21:52:10.561892 142708 net.cpp:122] Setting up layer_512_1_relu2
I0528 21:52:10.561906 142708 net.cpp:129] Top shape: 50 512 7 7 (1254400)
I0528 21:52:10.561910 142708 net.cpp:137] Memory required for data: 2448589400
I0528 21:52:10.561914 142708 layer_factory.hpp:77] Creating layer layer_512_1_conv2
I0528 21:52:10.561929 142708 net.cpp:84] Creating Layer layer_512_1_conv2
I0528 21:52:10.561934 142708 net.cpp:406] layer_512_1_conv2 <- layer_512_1_conv1
I0528 21:52:10.561944 142708 net.cpp:380] layer_512_1_conv2 -> layer_512_1_conv2
I0528 21:52:10.635731 142708 net.cpp:122] Setting up layer_512_1_conv2
I0528 21:52:10.635779 142708 net.cpp:129] Top shape: 50 512 7 7 (1254400)
I0528 21:52:10.635784 142708 net.cpp:137] Memory required for data: 2453607000
I0528 21:52:10.635795 142708 layer_factory.hpp:77] Creating layer layer_512_1_conv_expand
I0528 21:52:10.635815 142708 net.cpp:84] Creating Layer layer_512_1_conv_expand
I0528 21:52:10.635823 142708 net.cpp:406] layer_512_1_conv_expand <- layer_512_1_bn1_layer_512_1_relu1_0_split_1
I0528 21:52:10.635834 142708 net.cpp:380] layer_512_1_conv_expand -> layer_512_1_conv_expand
I0528 21:52:10.641273 142708 net.cpp:122] Setting up layer_512_1_conv_expand
I0528 21:52:10.641293 142708 net.cpp:129] Top shape: 50 512 7 7 (1254400)
I0528 21:52:10.641296 142708 net.cpp:137] Memory required for data: 2458624600
I0528 21:52:10.641302 142708 layer_factory.hpp:77] Creating layer layer_512_1_sum
I0528 21:52:10.641310 142708 net.cpp:84] Creating Layer layer_512_1_sum
I0528 21:52:10.641315 142708 net.cpp:406] layer_512_1_sum <- layer_512_1_conv_expand
I0528 21:52:10.641320 142708 net.cpp:406] layer_512_1_sum <- layer_512_1_conv2
I0528 21:52:10.641329 142708 net.cpp:380] layer_512_1_sum -> layer_512_1_sum
I0528 21:52:10.641363 142708 net.cpp:122] Setting up layer_512_1_sum
I0528 21:52:10.641373 142708 net.cpp:129] Top shape: 50 512 7 7 (1254400)
I0528 21:52:10.641377 142708 net.cpp:137] Memory required for data: 2463642200
I0528 21:52:10.641381 142708 layer_factory.hpp:77] Creating layer layer_512_1_sum_layer_512_1_sum_0_split
I0528 21:52:10.641388 142708 net.cpp:84] Creating Layer layer_512_1_sum_layer_512_1_sum_0_split
I0528 21:52:10.641392 142708 net.cpp:406] layer_512_1_sum_layer_512_1_sum_0_split <- layer_512_1_sum
I0528 21:52:10.641398 142708 net.cpp:380] layer_512_1_sum_layer_512_1_sum_0_split -> layer_512_1_sum_layer_512_1_sum_0_split_0
I0528 21:52:10.641414 142708 net.cpp:380] layer_512_1_sum_layer_512_1_sum_0_split -> layer_512_1_sum_layer_512_1_sum_0_split_1
I0528 21:52:10.641475 142708 net.cpp:122] Setting up layer_512_1_sum_layer_512_1_sum_0_split
I0528 21:52:10.641484 142708 net.cpp:129] Top shape: 50 512 7 7 (1254400)
I0528 21:52:10.641487 142708 net.cpp:129] Top shape: 50 512 7 7 (1254400)
I0528 21:52:10.641490 142708 net.cpp:137] Memory required for data: 2473677400
I0528 21:52:10.641494 142708 layer_factory.hpp:77] Creating layer layer_512_2_bn1
I0528 21:52:10.641505 142708 net.cpp:84] Creating Layer layer_512_2_bn1
I0528 21:52:10.641508 142708 net.cpp:406] layer_512_2_bn1 <- layer_512_1_sum_layer_512_1_sum_0_split_0
I0528 21:52:10.641515 142708 net.cpp:380] layer_512_2_bn1 -> layer_512_2_bn1
I0528 21:52:10.641757 142708 net.cpp:122] Setting up layer_512_2_bn1
I0528 21:52:10.641764 142708 net.cpp:129] Top shape: 50 512 7 7 (1254400)
I0528 21:52:10.641768 142708 net.cpp:137] Memory required for data: 2478695000
I0528 21:52:10.641777 142708 layer_factory.hpp:77] Creating layer layer_512_2_scale1
I0528 21:52:10.641785 142708 net.cpp:84] Creating Layer layer_512_2_scale1
I0528 21:52:10.641789 142708 net.cpp:406] layer_512_2_scale1 <- layer_512_2_bn1
I0528 21:52:10.641795 142708 net.cpp:367] layer_512_2_scale1 -> layer_512_2_bn1 (in-place)
I0528 21:52:10.641847 142708 layer_factory.hpp:77] Creating layer layer_512_2_scale1
I0528 21:52:10.641986 142708 net.cpp:122] Setting up layer_512_2_scale1
I0528 21:52:10.641994 142708 net.cpp:129] Top shape: 50 512 7 7 (1254400)
I0528 21:52:10.641997 142708 net.cpp:137] Memory required for data: 2483712600
I0528 21:52:10.642004 142708 layer_factory.hpp:77] Creating layer layer_512_2_relu1
I0528 21:52:10.642012 142708 net.cpp:84] Creating Layer layer_512_2_relu1
I0528 21:52:10.642016 142708 net.cpp:406] layer_512_2_relu1 <- layer_512_2_bn1
I0528 21:52:10.642021 142708 net.cpp:367] layer_512_2_relu1 -> layer_512_2_bn1 (in-place)
I0528 21:52:10.642643 142708 net.cpp:122] Setting up layer_512_2_relu1
I0528 21:52:10.642660 142708 net.cpp:129] Top shape: 50 512 7 7 (1254400)
I0528 21:52:10.642665 142708 net.cpp:137] Memory required for data: 2488730200
I0528 21:52:10.642668 142708 layer_factory.hpp:77] Creating layer layer_512_2_conv1
I0528 21:52:10.642680 142708 net.cpp:84] Creating Layer layer_512_2_conv1
I0528 21:52:10.642686 142708 net.cpp:406] layer_512_2_conv1 <- layer_512_2_bn1
I0528 21:52:10.642695 142708 net.cpp:380] layer_512_2_conv1 -> layer_512_2_conv1
I0528 21:52:10.712517 142708 net.cpp:122] Setting up layer_512_2_conv1
I0528 21:52:10.712538 142708 net.cpp:129] Top shape: 50 512 7 7 (1254400)
I0528 21:52:10.712543 142708 net.cpp:137] Memory required for data: 2493747800
I0528 21:52:10.712549 142708 layer_factory.hpp:77] Creating layer layer_512_2_bn2
I0528 21:52:10.712558 142708 net.cpp:84] Creating Layer layer_512_2_bn2
I0528 21:52:10.712561 142708 net.cpp:406] layer_512_2_bn2 <- layer_512_2_conv1
I0528 21:52:10.712569 142708 net.cpp:367] layer_512_2_bn2 -> layer_512_2_conv1 (in-place)
I0528 21:52:10.712806 142708 net.cpp:122] Setting up layer_512_2_bn2
I0528 21:52:10.712815 142708 net.cpp:129] Top shape: 50 512 7 7 (1254400)
I0528 21:52:10.712819 142708 net.cpp:137] Memory required for data: 2498765400
I0528 21:52:10.712827 142708 layer_factory.hpp:77] Creating layer layer_512_2_scale2
I0528 21:52:10.712834 142708 net.cpp:84] Creating Layer layer_512_2_scale2
I0528 21:52:10.712838 142708 net.cpp:406] layer_512_2_scale2 <- layer_512_2_conv1
I0528 21:52:10.712844 142708 net.cpp:367] layer_512_2_scale2 -> layer_512_2_conv1 (in-place)
I0528 21:52:10.712894 142708 layer_factory.hpp:77] Creating layer layer_512_2_scale2
I0528 21:52:10.713032 142708 net.cpp:122] Setting up layer_512_2_scale2
I0528 21:52:10.713047 142708 net.cpp:129] Top shape: 50 512 7 7 (1254400)
I0528 21:52:10.713052 142708 net.cpp:137] Memory required for data: 2503783000
I0528 21:52:10.713059 142708 layer_factory.hpp:77] Creating layer layer_512_2_relu2
I0528 21:52:10.713066 142708 net.cpp:84] Creating Layer layer_512_2_relu2
I0528 21:52:10.713076 142708 net.cpp:406] layer_512_2_relu2 <- layer_512_2_conv1
I0528 21:52:10.713091 142708 net.cpp:367] layer_512_2_relu2 -> layer_512_2_conv1 (in-place)
I0528 21:52:10.713275 142708 net.cpp:122] Setting up layer_512_2_relu2
I0528 21:52:10.713286 142708 net.cpp:129] Top shape: 50 512 7 7 (1254400)
I0528 21:52:10.713289 142708 net.cpp:137] Memory required for data: 2508800600
I0528 21:52:10.713294 142708 layer_factory.hpp:77] Creating layer layer_512_2_conv2
I0528 21:52:10.713304 142708 net.cpp:84] Creating Layer layer_512_2_conv2
I0528 21:52:10.713310 142708 net.cpp:406] layer_512_2_conv2 <- layer_512_2_conv1
I0528 21:52:10.713321 142708 net.cpp:380] layer_512_2_conv2 -> layer_512_2_conv2
I0528 21:52:10.781801 142708 net.cpp:122] Setting up layer_512_2_conv2
I0528 21:52:10.781841 142708 net.cpp:129] Top shape: 50 512 7 7 (1254400)
I0528 21:52:10.781846 142708 net.cpp:137] Memory required for data: 2513818200
I0528 21:52:10.781855 142708 layer_factory.hpp:77] Creating layer layer_512_2_sum
I0528 21:52:10.781873 142708 net.cpp:84] Creating Layer layer_512_2_sum
I0528 21:52:10.781878 142708 net.cpp:406] layer_512_2_sum <- layer_512_2_conv2
I0528 21:52:10.781883 142708 net.cpp:406] layer_512_2_sum <- layer_512_1_sum_layer_512_1_sum_0_split_1
I0528 21:52:10.781888 142708 net.cpp:380] layer_512_2_sum -> layer_512_2_sum
I0528 21:52:10.781924 142708 net.cpp:122] Setting up layer_512_2_sum
I0528 21:52:10.781934 142708 net.cpp:129] Top shape: 50 512 7 7 (1254400)
I0528 21:52:10.781936 142708 net.cpp:137] Memory required for data: 2518835800
I0528 21:52:10.781940 142708 layer_factory.hpp:77] Creating layer last_bn
I0528 21:52:10.781946 142708 net.cpp:84] Creating Layer last_bn
I0528 21:52:10.781949 142708 net.cpp:406] last_bn <- layer_512_2_sum
I0528 21:52:10.781956 142708 net.cpp:367] last_bn -> layer_512_2_sum (in-place)
I0528 21:52:10.782183 142708 net.cpp:122] Setting up last_bn
I0528 21:52:10.782196 142708 net.cpp:129] Top shape: 50 512 7 7 (1254400)
I0528 21:52:10.782198 142708 net.cpp:137] Memory required for data: 2523853400
I0528 21:52:10.782207 142708 layer_factory.hpp:77] Creating layer last_scale
I0528 21:52:10.782215 142708 net.cpp:84] Creating Layer last_scale
I0528 21:52:10.782219 142708 net.cpp:406] last_scale <- layer_512_2_sum
I0528 21:52:10.782224 142708 net.cpp:367] last_scale -> layer_512_2_sum (in-place)
I0528 21:52:10.782272 142708 layer_factory.hpp:77] Creating layer last_scale
I0528 21:52:10.782404 142708 net.cpp:122] Setting up last_scale
I0528 21:52:10.782411 142708 net.cpp:129] Top shape: 50 512 7 7 (1254400)
I0528 21:52:10.782415 142708 net.cpp:137] Memory required for data: 2528871000
I0528 21:52:10.782420 142708 layer_factory.hpp:77] Creating layer last_relu
I0528 21:52:10.782426 142708 net.cpp:84] Creating Layer last_relu
I0528 21:52:10.782430 142708 net.cpp:406] last_relu <- layer_512_2_sum
I0528 21:52:10.782436 142708 net.cpp:367] last_relu -> layer_512_2_sum (in-place)
I0528 21:52:10.783023 142708 net.cpp:122] Setting up last_relu
I0528 21:52:10.783036 142708 net.cpp:129] Top shape: 50 512 7 7 (1254400)
I0528 21:52:10.783046 142708 net.cpp:137] Memory required for data: 2533888600
I0528 21:52:10.783053 142708 layer_factory.hpp:77] Creating layer global_pool
I0528 21:52:10.783061 142708 net.cpp:84] Creating Layer global_pool
I0528 21:52:10.783066 142708 net.cpp:406] global_pool <- layer_512_2_sum
I0528 21:52:10.783073 142708 net.cpp:380] global_pool -> global_pool
I0528 21:52:10.783269 142708 net.cpp:122] Setting up global_pool
I0528 21:52:10.783280 142708 net.cpp:129] Top shape: 50 512 1 1 (25600)
I0528 21:52:10.783283 142708 net.cpp:137] Memory required for data: 2533991000
I0528 21:52:10.783287 142708 layer_factory.hpp:77] Creating layer score
I0528 21:52:10.783296 142708 net.cpp:84] Creating Layer score
I0528 21:52:10.783300 142708 net.cpp:406] score <- global_pool
I0528 21:52:10.783305 142708 net.cpp:380] score -> score
I0528 21:52:10.783434 142708 net.cpp:122] Setting up score
I0528 21:52:10.783442 142708 net.cpp:129] Top shape: 50 2 (100)
I0528 21:52:10.783452 142708 net.cpp:137] Memory required for data: 2533991400
I0528 21:52:10.783465 142708 layer_factory.hpp:77] Creating layer score_score_0_split
I0528 21:52:10.783471 142708 net.cpp:84] Creating Layer score_score_0_split
I0528 21:52:10.783475 142708 net.cpp:406] score_score_0_split <- score
I0528 21:52:10.783483 142708 net.cpp:380] score_score_0_split -> score_score_0_split_0
I0528 21:52:10.783489 142708 net.cpp:380] score_score_0_split -> score_score_0_split_1
I0528 21:52:10.783535 142708 net.cpp:122] Setting up score_score_0_split
I0528 21:52:10.783541 142708 net.cpp:129] Top shape: 50 2 (100)
I0528 21:52:10.783547 142708 net.cpp:129] Top shape: 50 2 (100)
I0528 21:52:10.783550 142708 net.cpp:137] Memory required for data: 2533992200
I0528 21:52:10.783553 142708 layer_factory.hpp:77] Creating layer loss
I0528 21:52:10.783560 142708 net.cpp:84] Creating Layer loss
I0528 21:52:10.783562 142708 net.cpp:406] loss <- score_score_0_split_0
I0528 21:52:10.783567 142708 net.cpp:406] loss <- label_data_1_split_0
I0528 21:52:10.783578 142708 net.cpp:380] loss -> loss
…
