…
I0527 16:59:44.647825 19106 net.cpp:51] Initializing net from parameters: 
name: "Pre-ResNet-18"
state {
  phase: TRAIN
  level: 0
  stage: ""
}
layer {
  name: "data"
  type: "Data"
  top: "data"
  top: "label"
  include {
    phase: TRAIN
  }
  transform_param {
    mirror: true
    crop_size: 224
    mean_file: "/home/k/PycharmProjects/AgeGenderDeepLearning-master/Folds/lmdb/Test_fold_is_0/mean.binaryproto"
  }
  data_param {
    source: "/home/k/PycharmProjects/AgeGenderDeepLearning-master/Folds/lmdb/Test_fold_is_0/gender_train_lmdb"
    batch_size: 50
    backend: LMDB
  }
}
layer {
  name: "data_bn"
  type: "BatchNorm"
  bottom: "data"
  top: "data_bn"
  param {
    lr_mult: 0
    decay_mult: 0
  }
  param {
    lr_mult: 0
    decay_mult: 0
  }
  param {
    lr_mult: 0
    decay_mult: 0
  }
}
layer {
  name: "data_scale"
  type: "Scale"
  bottom: "data_bn"
  top: "data_bn"
  param {
    lr_mult: 1
    decay_mult: 1
  }
  param {
    lr_mult: 2
    decay_mult: 1
  }
  scale_param {
    bias_term: true
  }
}
layer {
  name: "conv1"
  type: "Convolution"
  bottom: "data_bn"
  top: "conv1"
  param {
    lr_mult: 1
    decay_mult: 1
  }
  param {
    lr_mult: 2
    decay_mult: 1
  }
  convolution_param {
    num_output: 64
    pad: 3
    kernel_size: 7
    stride: 2
    weight_filler {
      type: "msra"
      variance_norm: FAN_OUT
    }
    bias_filler {
      type: "constant"
      value: 0
    }
  }
}
layer {
  name: "conv1_bn"
  type: "BatchNorm"
  bottom: "conv1"
  top: "conv1"
  param {
    lr_mult: 0
    decay_mult: 0
  }
  param {
    lr_mult: 0
    decay_mult: 0
  }
  param {
    lr_mult: 0
    decay_mult: 0
  }
}
layer {
  name: "conv1_scale"
  type: "Scale"
  bottom: "conv1"
  top: "conv1"
  param {
    lr_mult: 1
    decay_mult: 1
  }
  param {
    lr_mult: 2
    decay_mult: 1
  }
  scale_param {
    bias_term: true
  }
}
layer {
  name: "conv1_relu"
  type: "ReLU"
  bottom: "conv1"
  top: "conv1"
}
layer {
  name: "conv1_pool"
  type: "Pooling"
  bottom: "conv1"
  top: "conv1_pool"
  pooling_param {
    kernel_size: 3
    stride: 2
  }
}
layer {
  name: "layer_64_1_conv1"
  type: "Convolution"
  bottom: "conv1_pool"
  top: "layer_64_1_conv1"
  param {
    lr_mult: 1
    decay_mult: 1
  }
  convolution_param {
    num_output: 64
    bias_term: false
    pad: 1
    kernel_size: 3
    stride: 1
    weight_filler {
      type: "msra"
    }
    bias_filler {
      type: "constant"
      value: 0
    }
  }
}
layer {
  name: "layer_64_1_bn2"
  type: "BatchNorm"
  bottom: "layer_64_1_conv1"
  top: "layer_64_1_conv1"
  param {
    lr_mult: 0
    decay_mult: 0
  }
  param {
    lr_mult: 0
    decay_mult: 0
  }
  param {
    lr_mult: 0
    decay_mult: 0
  }
}
layer {
  name: "layer_64_1_scale2"
  type: "Scale"
  bottom: "layer_64_1_conv1"
  top: "layer_64_1_conv1"
  param {
    lr_mult: 1
    decay_mult: 1
  }
  param {
    lr_mult: 2
    decay_mult: 1
  }
  scale_param {
    bias_term: true
  }
}
layer {
  name: "layer_64_1_relu2"
  type: "ReLU"
  bottom: "layer_64_1_conv1"
  top: "layer_64_1_conv1"
}
layer {
  name: "layer_64_1_conv2"
  type: "Convolution"
  bottom: "layer_64_1_conv1"
  top: "layer_64_1_conv2"
  param {
    lr_mult: 1
    decay_mult: 1
  }
  convolution_param {
    num_output: 64
    bias_term: false
    pad: 1
    kernel_size: 3
    stride: 1
    weight_filler {
      type: "msra"
    }
    bias_filler {
      type: "constant"
      value: 0
    }
  }
}
layer {
  name: "layer_64_1_sum"
  type: "Eltwise"
  bottom: "layer_64_1_conv2"
  bottom: "conv1_pool"
  top: "layer_64_1_sum"
}
layer {
  name: "layer_64_2_bn1"
  type: "BatchNorm"
  bottom: "layer_64_1_sum"
  top: "layer_64_2_bn1"
  param {
    lr_mult: 0
    decay_mult: 0
  }
  param {
    lr_mult: 0
    decay_mult: 0
  }
  param {
    lr_mult: 0
    decay_mult: 0
  }
}
layer {
  name: "layer_64_2_scale1"
  type: "Scale"
  bottom: "layer_64_2_bn1"
  top: "layer_64_2_bn1"
  param {
    lr_mult: 1
    decay_mult: 1
  }
  param {
    lr_mult: 2
    decay_mult: 1
  }
  scale_param {
    bias_term: true
  }
}
layer {
  name: "layer_64_2_relu1"
  type: "ReLU"
  bottom: "layer_64_2_bn1"
  top: "layer_64_2_bn1"
}
layer {
  name: "layer_64_2_conv1"
  type: "Convolution"
  bottom: "layer_64_2_bn1"
  top: "layer_64_2_conv1"
  param {
    lr_mult: 1
    decay_mult: 1
  }
  convolution_param {
    num_output: 64
    bias_term: false
    pad: 1
    kernel_size: 3
    stride: 1
    weight_filler {
      type: "msra"
    }
    bias_filler {
      type: "constant"
      value: 0
    }
  }
}
layer {
  name: "layer_64_2_bn2"
  type: "BatchNorm"
  bottom: "layer_64_2_conv1"
  top: "layer_64_2_conv1"
  param {
    lr_mult: 0
    decay_mult: 0
  }
  param {
    lr_mult: 0
    decay_mult: 0
  }
  param {
    lr_mult: 0
    decay_mult: 0
  }
}
layer {
  name: "layer_64_2_scale2"
  type: "Scale"
  bottom: "layer_64_2_conv1"
  top: "layer_64_2_conv1"
  param {
    lr_mult: 1
    decay_mult: 1
  }
  param {
    lr_mult: 2
    decay_mult: 1
  }
  scale_param {
    bias_term: true
  }
}
layer {
  name: "layer_64_2_relu2"
  type: "ReLU"
  bottom: "layer_64_2_conv1"
  top: "layer_64_2_conv1"
}
layer {
  name: "layer_64_2_conv2"
  type: "Convolution"
  bottom: "layer_64_2_conv1"
  top: "layer_64_2_conv2"
  param {
    lr_mult: 1
    decay_mult: 1
  }
  convolution_param {
    num_output: 64
    bias_term: false
    pad: 1
    kernel_size: 3
    stride: 1
    weight_filler {
      type: "msra"
    }
    bias_filler {
      type: "constant"
      value: 0
    }
  }
}
layer {
  name: "layer_64_2_sum"
  type: "Eltwise"
  bottom: "layer_64_2_conv2"
  bottom: "layer_64_1_sum"
  top: "layer_64_2_sum"
}
layer {
  name: "layer_128_1_bn1"
  type: "BatchNorm"
  bottom: "layer_64_2_sum"
  top: "layer_128_1_bn1"
  param {
    lr_mult: 0
    decay_mult: 0
  }
  param {
    lr_mult: 0
    decay_mult: 0
  }
  param {
    lr_mult: 0
    decay_mult: 0
  }
}
layer {
  name: "layer_128_1_scale1"
  type: "Scale"
  bottom: "layer_128_1_bn1"
  top: "layer_128_1_bn1"
  param {
    lr_mult: 1
    decay_mult: 1
  }
  param {
    lr_mult: 2
    decay_mult: 1
  }
  scale_param {
    bias_term: true
  }
}
layer {
  name: "layer_128_1_relu1"
  type: "ReLU"
  bottom: "layer_128_1_bn1"
  top: "layer_128_1_bn1"
}
layer {
  name: "layer_128_1_conv1"
  type: "Convolution"
  bottom: "layer_128_1_bn1"
  top: "layer_128_1_conv1"
  param {
    lr_mult: 1
    decay_mult: 1
  }
  convolution_param {
    num_output: 128
    bias_term: false
    pad: 1
    kernel_size: 3
    stride: 2
    weight_filler {
      type: "msra"
    }
    bias_filler {
      type: "constant"
      value: 0
    }
  }
}
layer {
  name: "layer_128_1_bn2"
  type: "BatchNorm"
  bottom: "layer_128_1_conv1"
  top: "layer_128_1_conv1"
  param {
    lr_mult: 0
    decay_mult: 0
  }
  param {
    lr_mult: 0
    decay_mult: 0
  }
  param {
    lr_mult: 0
    decay_mult: 0
  }
}
layer {
  name: "layer_128_1_scale2"
  type: "Scale"
  bottom: "layer_128_1_conv1"
  top: "layer_128_1_conv1"
  param {
    lr_mult: 1
    decay_mult: 1
  }
  param {
    lr_mult: 2
    decay_mult: 1
  }
  scale_param {
    bias_term: true
  }
}
layer {
  name: "layer_128_1_relu2"
  type: "ReLU"
  bottom: "layer_128_1_conv1"
  top: "layer_128_1_conv1"
}
layer {
  name: "layer_128_1_conv2"
  type: "Convolution"
  bottom: "layer_128_1_conv1"
  top: "layer_128_1_conv2"
  param {
    lr_mult: 1
    decay_mult: 1
  }
  convolution_param {
    num_output: 128
    bias_term: false
    pad: 1
    kernel_size: 3
    stride: 1
    weight_filler {
      type: "msra"
    }
    bias_filler {
      type: "constant"
      value: 0
    }
  }
}
layer {
  name: "layer_128_1_conv_expand"
  type: "Convolution"
  bottom: "layer_128_1_bn1"
  top: "layer_128_1_conv_expand"
  param {
    lr_mult: 1
    decay_mult: 1
  }
  convolution_param {
    num_output: 128
    bias_term: false
    pad: 0
    kernel_size: 1
    stride: 2
    weight_filler {
      type: "msra"
    }
    bias_filler {
      type: "constant"
      value: 0
    }
  }
}
layer {
  name: "layer_128_1_sum"
  type: "Eltwise"
  bottom: "layer_128_1_conv_expand"
  bottom: "layer_128_1_conv2"
  top: "layer_128_1_sum"
}
layer {
  name: "layer_128_2_bn1"
  type: "BatchNorm"
  bottom: "layer_128_1_sum"
  top: "layer_128_2_bn1"
  param {
    lr_mult: 0
    decay_mult: 0
  }
  param {
    lr_mult: 0
    decay_mult: 0
  }
  param {
    lr_mult: 0
    decay_mult: 0
  }
}
layer {
  name: "layer_128_2_scale1"
  type: "Scale"
  bottom: "layer_128_2_bn1"
  top: "layer_128_2_bn1"
  param {
    lr_mult: 1
    decay_mult: 1
  }
  param {
    lr_mult: 2
    decay_mult: 1
  }
  scale_param {
    bias_term: true
  }
}
layer {
  name: "layer_128_2_relu1"
  type: "ReLU"
  bottom: "layer_128_2_bn1"
  top: "layer_128_2_bn1"
}
layer {
  name: "layer_128_2_conv1"
  type: "Convolution"
  bottom: "layer_128_2_bn1"
  top: "layer_128_2_conv1"
  param {
    lr_mult: 1
    decay_mult: 1
  }
  convolution_param {
    num_output: 128
    bias_term: false
    pad: 1
    kernel_size: 3
    stride: 1
    weight_filler {
      type: "msra"
    }
    bias_filler {
      type: "constant"
      value: 0
    }
  }
}
layer {
  name: "layer_128_2_bn2"
  type: "BatchNorm"
  bottom: "layer_128_2_conv1"
  top: "layer_128_2_conv1"
  param {
    lr_mult: 0
    decay_mult: 0
  }
  param {
    lr_mult: 0
    decay_mult: 0
  }
  param {
    lr_mult: 0
    decay_mult: 0
  }
}
layer {
  name: "layer_128_2_scale2"
  type: "Scale"
  bottom: "layer_128_2_conv1"
  top: "layer_128_2_conv1"
  param {
    lr_mult: 1
    decay_mult: 1
  }
  param {
    lr_mult: 2
    decay_mult: 1
  }
  scale_param {
    bias_term: true
  }
}
layer {
  name: "layer_128_2_relu2"
  type: "ReLU"
  bottom: "layer_128_2_conv1"
  top: "layer_128_2_conv1"
}
layer {
  name: "layer_128_2_conv2"
  type: "Convolution"
  bottom: "layer_128_2_conv1"
  top: "layer_128_2_conv2"
  param {
    lr_mult: 1
    decay_mult: 1
  }
  convolution_param {
    num_output: 128
    bias_term: false
    pad: 1
    kernel_size: 3
    stride: 1
    weight_filler {
      type: "msra"
    }
    bias_filler {
      type: "constant"
      value: 0
    }
  }
}
layer {
  name: "layer_128_2_sum"
  type: "Eltwise"
  bottom: "layer_128_2_conv2"
  bottom: "layer_128_1_sum"
  top: "layer_128_2_sum"
}
layer {
  name: "layer_256_1_bn1"
  type: "BatchNorm"
  bottom: "layer_128_2_sum"
  top: "layer_256_1_bn1"
  param {
    lr_mult: 0
    decay_mult: 0
  }
  param {
    lr_mult: 0
    decay_mult: 0
  }
  param {
    lr_mult: 0
    decay_mult: 0
  }
}
layer {
  name: "layer_256_1_scale1"
  type: "Scale"
  bottom: "layer_256_1_bn1"
  top: "layer_256_1_bn1"
  param {
    lr_mult: 1
    decay_mult: 1
  }
  param {
    lr_mult: 2
    decay_mult: 1
  }
  scale_param {
    bias_term: true
  }
}
layer {
  name: "layer_256_1_relu1"
  type: "ReLU"
  bottom: "layer_256_1_bn1"
  top: "layer_256_1_bn1"
}
layer {
  name: "layer_256_1_conv1"
  type: "Convolution"
  bottom: "layer_256_1_bn1"
  top: "layer_256_1_conv1"
  param {
    lr_mult: 1
    decay_mult: 1
  }
  convolution_param {
    num_output: 256
    bias_term: false
    pad: 1
    kernel_size: 3
    stride: 2
    weight_filler {
      type: "msra"
    }
    bias_filler {
      type: "constant"
      value: 0
    }
  }
}
layer {
  name: "layer_256_1_bn2"
  type: "BatchNorm"
  bottom: "layer_256_1_conv1"
  top: "layer_256_1_conv1"
  param {
    lr_mult: 0
    decay_mult: 0
  }
  param {
    lr_mult: 0
    decay_mult: 0
  }
  param {
    lr_mult: 0
    decay_mult: 0
  }
}
layer {
  name: "layer_256_1_scale2"
  type: "Scale"
  bottom: "layer_256_1_conv1"
  top: "layer_256_1_conv1"
  param {
    lr_mult: 1
    decay_mult: 1
  }
  param {
    lr_mult: 2
    decay_mult: 1
  }
  scale_param {
    bias_term: true
  }
}
layer {
  name: "layer_256_1_relu2"
  type: "ReLU"
  bottom: "layer_256_1_conv1"
  top: "layer_256_1_conv1"
}
layer {
  name: "layer_256_1_conv2"
  type: "Convolution"
  bottom: "layer_256_1_conv1"
  top: "layer_256_1_conv2"
  param {
    lr_mult: 1
    decay_mult: 1
  }
  convolution_param {
    num_output: 256
    bias_term: false
    pad: 1
    kernel_size: 3
    stride: 1
    weight_filler {
      type: "msra"
    }
    bias_filler {
      type: "constant"
      value: 0
    }
  }
}
layer {
  name: "layer_256_1_conv_expand"
  type: "Convolution"
  bottom: "layer_256_1_bn1"
  top: "layer_256_1_conv_expand"
  param {
    lr_mult: 1
    decay_mult: 1
  }
  convolution_param {
    num_output: 256
    bias_term: false
    pad: 0
    kernel_size: 1
    stride: 2
    weight_filler {
      type: "msra"
    }
    bias_filler {
      type: "constant"
      value: 0
    }
  }
}
layer {
  name: "layer_256_1_sum"
  type: "Eltwise"
  bottom: "layer_256_1_conv_expand"
  bottom: "layer_256_1_conv2"
  top: "layer_256_1_sum"
}
layer {
  name: "layer_256_2_bn1"
  type: "BatchNorm"
  bottom: "layer_256_1_sum"
  top: "layer_256_2_bn1"
  param {
    lr_mult: 0
    decay_mult: 0
  }
  param {
    lr_mult: 0
    decay_mult: 0
  }
  param {
    lr_mult: 0
    decay_mult: 0
  }
}
layer {
  name: "layer_256_2_scale1"
  type: "Scale"
  bottom: "layer_256_2_bn1"
  top: "layer_256_2_bn1"
  param {
    lr_mult: 1
    decay_mult: 1
  }
  param {
    lr_mult: 2
    decay_mult: 1
  }
  scale_param {
    bias_term: true
  }
}
layer {
  name: "layer_256_2_relu1"
  type: "ReLU"
  bottom: "layer_256_2_bn1"
  top: "layer_256_2_bn1"
}
layer {
  name: "layer_256_2_conv1"
  type: "Convolution"
  bottom: "layer_256_2_bn1"
  top: "layer_256_2_conv1"
  param {
    lr_mult: 1
    decay_mult: 1
  }
  convolution_param {
    num_output: 256
    bias_term: false
    pad: 1
    kernel_size: 3
    stride: 1
    weight_filler {
      type: "msra"
    }
    bias_filler {
      type: "constant"
      value: 0
    }
  }
}
layer {
  name: "layer_256_2_bn2"
  type: "BatchNorm"
  bottom: "layer_256_2_conv1"
  top: "layer_256_2_conv1"
  param {
    lr_mult: 0
    decay_mult: 0
  }
  param {
    lr_mult: 0
    decay_mult: 0
  }
  param {
    lr_mult: 0
    decay_mult: 0
  }
}
layer {
  name: "layer_256_2_scale2"
  type: "Scale"
  bottom: "layer_256_2_conv1"
  top: "layer_256_2_conv1"
  param {
    lr_mult: 1
    decay_mult: 1
  }
  param {
    lr_mult: 2
    decay_mult: 1
  }
  scale_param {
    bias_term: true
  }
}
layer {
  name: "layer_256_2_relu2"
  type: "ReLU"
  bottom: "layer_256_2_conv1"
  top: "layer_256_2_conv1"
}
layer {
  name: "layer_256_2_conv2"
  type: "Convolution"
  bottom: "layer_256_2_conv1"
  top: "layer_256_2_conv2"
  param {
    lr_mult: 1
    decay_mult: 1
  }
  convolution_param {
    num_output: 256
    bias_term: false
    pad: 1
    kernel_size: 3
    stride: 1
    weight_filler {
      type: "msra"
    }
    bias_filler {
      type: "constant"
      value: 0
    }
  }
}
layer {
  name: "layer_256_2_sum"
  type: "Eltwise"
  bottom: "layer_256_2_conv2"
  bottom: "layer_256_1_sum"
  top: "layer_256_2_sum"
}
layer {
  name: "layer_512_1_bn1"
  type: "BatchNorm"
  bottom: "layer_256_2_sum"
  top: "layer_512_1_bn1"
  param {
    lr_mult: 0
    decay_mult: 0
  }
  param {
    lr_mult: 0
    decay_mult: 0
  }
  param {
    lr_mult: 0
    decay_mult: 0
  }
}
layer {
  name: "layer_512_1_scale1"
  type: "Scale"
  bottom: "layer_512_1_bn1"
  top: "layer_512_1_bn1"
  param {
    lr_mult: 1
    decay_mult: 1
  }
  param {
    lr_mult: 2
    decay_mult: 1
  }
  scale_param {
    bias_term: true
  }
}
layer {
  name: "layer_512_1_relu1"
  type: "ReLU"
  bottom: "layer_512_1_bn1"
  top: "layer_512_1_bn1"
}
layer {
  name: "layer_512_1_conv1"
  type: "Convolution"
  bottom: "layer_512_1_bn1"
  top: "layer_512_1_conv1"
  param {
    lr_mult: 1
    decay_mult: 1
  }
  convolution_param {
    num_output: 512
    bias_term: false
    pad: 1
    kernel_size: 3
    stride: 2
    weight_filler {
      type: "msra"
    }
    bias_filler {
      type: "constant"
      value: 0
    }
  }
}
layer {
  name: "layer_512_1_bn2"
  type: "BatchNorm"
  bottom: "layer_512_1_conv1"
  top: "layer_512_1_conv1"
  param {
    lr_mult: 0
    decay_mult: 0
  }
  param {
    lr_mult: 0
    decay_mult: 0
  }
  param {
    lr_mult: 0
    decay_mult: 0
  }
}
layer {
  name: "layer_512_1_scale2"
  type: "Scale"
  bottom: "layer_512_1_conv1"
  top: "layer_512_1_conv1"
  param {
    lr_mult: 1
    decay_mult: 1
  }
  param {
    lr_mult: 2
    decay_mult: 1
  }
  scale_param {
    bias_term: true
  }
}
layer {
  name: "layer_512_1_relu2"
  type: "ReLU"
  bottom: "layer_512_1_conv1"
  top: "layer_512_1_conv1"
}
layer {
  name: "layer_512_1_conv2"
  type: "Convolution"
  bottom: "layer_512_1_conv1"
  top: "layer_512_1_conv2"
  param {
    lr_mult: 1
    decay_mult: 1
  }
  convolution_param {
    num_output: 512
    bias_term: false
    pad: 1
    kernel_size: 3
    stride: 1
    weight_filler {
      type: "msra"
    }
    bias_filler {
      type: "constant"
      value: 0
    }
  }
}
layer {
  name: "layer_512_1_conv_expand"
  type: "Convolution"
  bottom: "layer_512_1_bn1"
  top: "layer_512_1_conv_expand"
  param {
    lr_mult: 1
    decay_mult: 1
  }
  convolution_param {
    num_output: 512
    bias_term: false
    pad: 0
    kernel_size: 1
    stride: 2
    weight_filler {
      type: "msra"
    }
    bias_filler {
      type: "constant"
      value: 0
    }
  }
}
layer {
  name: "layer_512_1_sum"
  type: "Eltwise"
  bottom: "layer_512_1_conv_expand"
  bottom: "layer_512_1_conv2"
  top: "layer_512_1_sum"
}
layer {
  name: "layer_512_2_bn1"
  type: "BatchNorm"
  bottom: "layer_512_1_sum"
  top: "layer_512_2_bn1"
  param {
    lr_mult: 0
    decay_mult: 0
  }
  param {
    lr_mult: 0
    decay_mult: 0
  }
  param {
    lr_mult: 0
    decay_mult: 0
  }
}
layer {
  name: "layer_512_2_scale1"
  type: "Scale"
  bottom: "layer_512_2_bn1"
  top: "layer_512_2_bn1"
  param {
    lr_mult: 1
    decay_mult: 1
  }
  param {
    lr_mult: 2
    decay_mult: 1
  }
  scale_param {
    bias_term: true
  }
}
layer {
  name: "layer_512_2_relu1"
  type: "ReLU"
  bottom: "layer_512_2_bn1"
  top: "layer_512_2_bn1"
}
layer {
  name: "layer_512_2_conv1"
  type: "Convolution"
  bottom: "layer_512_2_bn1"
  top: "layer_512_2_conv1"
  param {
    lr_mult: 1
    decay_mult: 1
  }
  convolution_param {
    num_output: 512
    bias_term: false
    pad: 1
    kernel_size: 3
    stride: 1
    weight_filler {
      type: "msra"
    }
    bias_filler {
      type: "constant"
      value: 0
    }
  }
}
layer {
  name: "layer_512_2_bn2"
  type: "BatchNorm"
  bottom: "layer_512_2_conv1"
  top: "layer_512_2_conv1"
  param {
    lr_mult: 0
    decay_mult: 0
  }
  param {
    lr_mult: 0
    decay_mult: 0
  }
  param {
    lr_mult: 0
    decay_mult: 0
  }
}
layer {
  name: "layer_512_2_scale2"
  type: "Scale"
  bottom: "layer_512_2_conv1"
  top: "layer_512_2_conv1"
  param {
    lr_mult: 1
    decay_mult: 1
  }
  param {
    lr_mult: 2
    decay_mult: 1
  }
  scale_param {
    bias_term: true
  }
}
layer {
  name: "layer_512_2_relu2"
  type: "ReLU"
  bottom: "layer_512_2_conv1"
  top: "layer_512_2_conv1"
}
layer {
  name: "layer_512_2_conv2"
  type: "Convolution"
  bottom: "layer_512_2_conv1"
  top: "layer_512_2_conv2"
  param {
    lr_mult: 1
    decay_mult: 1
  }
  convolution_param {
    num_output: 512
    bias_term: false
    pad: 1
    kernel_size: 3
    stride: 1
    weight_filler {
      type: "msra"
    }
    bias_filler {
      type: "constant"
      value: 0
    }
  }
}
layer {
  name: "layer_512_2_sum"
  type: "Eltwise"
  bottom: "layer_512_2_conv2"
  bottom: "layer_512_1_sum"
  top: "layer_512_2_sum"
}
layer {
  name: "last_bn"
  type: "BatchNorm"
  bottom: "layer_512_2_sum"
  top: "layer_512_2_sum"
  param {
    lr_mult: 0
    decay_mult: 0
  }
  param {
    lr_mult: 0
    decay_mult: 0
  }
  param {
    lr_mult: 0
    decay_mult: 0
  }
}
layer {
  name: "last_scale"
  type: "Scale"
  bottom: "layer_512_2_sum"
  top: "layer_512_2_sum"
  param {
    lr_mult: 1
    decay_mult: 1
  }
  param {
    lr_mult: 2
    decay_mult: 1
  }
  scale_param {
    bias_term: true
  }
}
layer {
  name: "last_relu"
  type: "ReLU"
  bottom: "layer_512_2_sum"
  top: "layer_512_2_sum"
}
layer {
  name: "global_pool"
  type: "Pooling"
  bottom: "layer_512_2_sum"
  top: "global_pool"
  pooling_param {
    pool: AVE
    global_pooling: true
  }
}
layer {
  name: "score"
  type: "InnerProduct"
  bottom: "global_pool"
  top: "score"
  param {
    lr_mult: 1
    decay_mult: 1
  }
  param {
    lr_mult: 2
    decay_mult: 1
  }
  inner_product_param {
    num_output: 2
  }
}
layer {
  name: "loss"
  type: "SoftmaxWithLoss"
  bottom: "score"
  bottom: "label"
  top: "loss"
}
I0527 16:59:44.648183 19106 layer_factory.hpp:77] Creating layer data
I0527 16:59:44.688431 19106 db_lmdb.cpp:35] Opened lmdb /home/k/PycharmProjects/AgeGenderDeepLearning-master/Folds/lmdb/Test_fold_is_0/gender_train_lmdb
I0527 16:59:44.698180 19106 net.cpp:84] Creating Layer data
I0527 16:59:44.698206 19106 net.cpp:380] data -> data
I0527 16:59:44.698233 19106 net.cpp:380] data -> label
I0527 16:59:44.698251 19106 data_transformer.cpp:25] Loading mean file from: /home/k/PycharmProjects/AgeGenderDeepLearning-master/Folds/lmdb/Test_fold_is_0/mean.binaryproto
I0527 16:59:44.707087 19106 data_layer.cpp:45] output data size: 50,3,224,224
I0527 16:59:44.771998 19106 net.cpp:122] Setting up data
I0527 16:59:44.772032 19106 net.cpp:129] Top shape: 50 3 224 224 (7526400)
I0527 16:59:44.772037 19106 net.cpp:129] Top shape: 50 (50)
I0527 16:59:44.772040 19106 net.cpp:137] Memory required for data: 30105800
I0527 16:59:44.772061 19106 layer_factory.hpp:77] Creating layer data_bn
I0527 16:59:44.772078 19106 net.cpp:84] Creating Layer data_bn
I0527 16:59:44.772088 19106 net.cpp:406] data_bn <- data
I0527 16:59:44.772106 19106 net.cpp:380] data_bn -> data_bn
I0527 16:59:44.773150 19106 net.cpp:122] Setting up data_bn
I0527 16:59:44.773165 19106 net.cpp:129] Top shape: 50 3 224 224 (7526400)
I0527 16:59:44.773170 19106 net.cpp:137] Memory required for data: 60211400
I0527 16:59:44.773205 19106 layer_factory.hpp:77] Creating layer data_scale
I0527 16:59:44.773221 19106 net.cpp:84] Creating Layer data_scale
I0527 16:59:44.773229 19106 net.cpp:406] data_scale <- data_bn
I0527 16:59:44.773239 19106 net.cpp:367] data_scale -> data_bn (in-place)
I0527 16:59:44.773296 19106 layer_factory.hpp:77] Creating layer data_scale
I0527 16:59:44.778051 19106 net.cpp:122] Setting up data_scale
I0527 16:59:44.778069 19106 net.cpp:129] Top shape: 50 3 224 224 (7526400)
I0527 16:59:44.778072 19106 net.cpp:137] Memory required for data: 90317000
I0527 16:59:44.778081 19106 layer_factory.hpp:77] Creating layer conv1
I0527 16:59:44.778096 19106 net.cpp:84] Creating Layer conv1
I0527 16:59:44.778101 19106 net.cpp:406] conv1 <- data_bn
I0527 16:59:44.778111 19106 net.cpp:380] conv1 -> conv1
I0527 16:59:45.027346 19106 net.cpp:122] Setting up conv1
I0527 16:59:45.027377 19106 net.cpp:129] Top shape: 50 64 112 112 (40140800)
I0527 16:59:45.027381 19106 net.cpp:137] Memory required for data: 250880200
I0527 16:59:45.027405 19106 layer_factory.hpp:77] Creating layer conv1_bn
I0527 16:59:45.027422 19106 net.cpp:84] Creating Layer conv1_bn
I0527 16:59:45.027429 19106 net.cpp:406] conv1_bn <- conv1
I0527 16:59:45.027438 19106 net.cpp:367] conv1_bn -> conv1 (in-place)
I0527 16:59:45.027634 19106 net.cpp:122] Setting up conv1_bn
I0527 16:59:45.027643 19106 net.cpp:129] Top shape: 50 64 112 112 (40140800)
I0527 16:59:45.027647 19106 net.cpp:137] Memory required for data: 411443400
I0527 16:59:45.027657 19106 layer_factory.hpp:77] Creating layer conv1_scale
I0527 16:59:45.027693 19106 net.cpp:84] Creating Layer conv1_scale
I0527 16:59:45.027698 19106 net.cpp:406] conv1_scale <- conv1
I0527 16:59:45.027704 19106 net.cpp:367] conv1_scale -> conv1 (in-place)
I0527 16:59:45.027761 19106 layer_factory.hpp:77] Creating layer conv1_scale
I0527 16:59:45.027895 19106 net.cpp:122] Setting up conv1_scale
I0527 16:59:45.027906 19106 net.cpp:129] Top shape: 50 64 112 112 (40140800)
I0527 16:59:45.027921 19106 net.cpp:137] Memory required for data: 572006600
I0527 16:59:45.027927 19106 layer_factory.hpp:77] Creating layer conv1_relu
I0527 16:59:45.027933 19106 net.cpp:84] Creating Layer conv1_relu
I0527 16:59:45.027937 19106 net.cpp:406] conv1_relu <- conv1
I0527 16:59:45.027943 19106 net.cpp:367] conv1_relu -> conv1 (in-place)
I0527 16:59:45.028107 19106 net.cpp:122] Setting up conv1_relu
I0527 16:59:45.028118 19106 net.cpp:129] Top shape: 50 64 112 112 (40140800)
I0527 16:59:45.028133 19106 net.cpp:137] Memory required for data: 732569800
I0527 16:59:45.028136 19106 layer_factory.hpp:77] Creating layer conv1_pool
I0527 16:59:45.028143 19106 net.cpp:84] Creating Layer conv1_pool
I0527 16:59:45.028147 19106 net.cpp:406] conv1_pool <- conv1
I0527 16:59:45.028152 19106 net.cpp:380] conv1_pool -> conv1_pool
I0527 16:59:45.028209 19106 net.cpp:122] Setting up conv1_pool
I0527 16:59:45.028219 19106 net.cpp:129] Top shape: 50 64 56 56 (10035200)
I0527 16:59:45.028225 19106 net.cpp:137] Memory required for data: 772710600
I0527 16:59:45.028231 19106 layer_factory.hpp:77] Creating layer conv1_pool_conv1_pool_0_split
I0527 16:59:45.028245 19106 net.cpp:84] Creating Layer conv1_pool_conv1_pool_0_split
I0527 16:59:45.028255 19106 net.cpp:406] conv1_pool_conv1_pool_0_split <- conv1_pool
I0527 16:59:45.028270 19106 net.cpp:380] conv1_pool_conv1_pool_0_split -> conv1_pool_conv1_pool_0_split_0
I0527 16:59:45.028283 19106 net.cpp:380] conv1_pool_conv1_pool_0_split -> conv1_pool_conv1_pool_0_split_1
I0527 16:59:45.028329 19106 net.cpp:122] Setting up conv1_pool_conv1_pool_0_split
I0527 16:59:45.028340 19106 net.cpp:129] Top shape: 50 64 56 56 (10035200)
I0527 16:59:45.028349 19106 net.cpp:129] Top shape: 50 64 56 56 (10035200)
I0527 16:59:45.028357 19106 net.cpp:137] Memory required for data: 852992200
I0527 16:59:45.028364 19106 layer_factory.hpp:77] Creating layer layer_64_1_conv1
I0527 16:59:45.028384 19106 net.cpp:84] Creating Layer layer_64_1_conv1
I0527 16:59:45.028393 19106 net.cpp:406] layer_64_1_conv1 <- conv1_pool_conv1_pool_0_split_0
I0527 16:59:45.028403 19106 net.cpp:380] layer_64_1_conv1 -> layer_64_1_conv1
I0527 16:59:45.029850 19106 net.cpp:122] Setting up layer_64_1_conv1
I0527 16:59:45.029863 19106 net.cpp:129] Top shape: 50 64 56 56 (10035200)
I0527 16:59:45.029867 19106 net.cpp:137] Memory required for data: 893133000
I0527 16:59:45.029876 19106 layer_factory.hpp:77] Creating layer layer_64_1_bn2
I0527 16:59:45.029891 19106 net.cpp:84] Creating Layer layer_64_1_bn2
I0527 16:59:45.029909 19106 net.cpp:406] layer_64_1_bn2 <- layer_64_1_conv1
I0527 16:59:45.029924 19106 net.cpp:367] layer_64_1_bn2 -> layer_64_1_conv1 (in-place)
I0527 16:59:45.030778 19106 net.cpp:122] Setting up layer_64_1_bn2
I0527 16:59:45.030791 19106 net.cpp:129] Top shape: 50 64 56 56 (10035200)
I0527 16:59:45.030805 19106 net.cpp:137] Memory required for data: 933273800
I0527 16:59:45.030815 19106 layer_factory.hpp:77] Creating layer layer_64_1_scale2
I0527 16:59:45.030824 19106 net.cpp:84] Creating Layer layer_64_1_scale2
I0527 16:59:45.030833 19106 net.cpp:406] layer_64_1_scale2 <- layer_64_1_conv1
I0527 16:59:45.030845 19106 net.cpp:367] layer_64_1_scale2 -> layer_64_1_conv1 (in-place)
I0527 16:59:45.030910 19106 layer_factory.hpp:77] Creating layer layer_64_1_scale2
I0527 16:59:45.031047 19106 net.cpp:122] Setting up layer_64_1_scale2
I0527 16:59:45.031056 19106 net.cpp:129] Top shape: 50 64 56 56 (10035200)
I0527 16:59:45.031060 19106 net.cpp:137] Memory required for data: 973414600
I0527 16:59:45.031083 19106 layer_factory.hpp:77] Creating layer layer_64_1_relu2
I0527 16:59:45.031090 19106 net.cpp:84] Creating Layer layer_64_1_relu2
I0527 16:59:45.031110 19106 net.cpp:406] layer_64_1_relu2 <- layer_64_1_conv1
I0527 16:59:45.031121 19106 net.cpp:367] layer_64_1_relu2 -> layer_64_1_conv1 (in-place)
I0527 16:59:45.031749 19106 net.cpp:122] Setting up layer_64_1_relu2
I0527 16:59:45.031761 19106 net.cpp:129] Top shape: 50 64 56 56 (10035200)
I0527 16:59:45.031779 19106 net.cpp:137] Memory required for data: 1013555400
I0527 16:59:45.031785 19106 layer_factory.hpp:77] Creating layer layer_64_1_conv2
I0527 16:59:45.031802 19106 net.cpp:84] Creating Layer layer_64_1_conv2
I0527 16:59:45.031811 19106 net.cpp:406] layer_64_1_conv2 <- layer_64_1_conv1
I0527 16:59:45.031823 19106 net.cpp:380] layer_64_1_conv2 -> layer_64_1_conv2
I0527 16:59:45.032771 19106 net.cpp:122] Setting up layer_64_1_conv2
I0527 16:59:45.032784 19106 net.cpp:129] Top shape: 50 64 56 56 (10035200)
I0527 16:59:45.032791 19106 net.cpp:137] Memory required for data: 1053696200
I0527 16:59:45.032801 19106 layer_factory.hpp:77] Creating layer layer_64_1_sum
I0527 16:59:45.032824 19106 net.cpp:84] Creating Layer layer_64_1_sum
I0527 16:59:45.032832 19106 net.cpp:406] layer_64_1_sum <- layer_64_1_conv2
I0527 16:59:45.032841 19106 net.cpp:406] layer_64_1_sum <- conv1_pool_conv1_pool_0_split_1
I0527 16:59:45.032852 19106 net.cpp:380] layer_64_1_sum -> layer_64_1_sum
I0527 16:59:45.032893 19106 net.cpp:122] Setting up layer_64_1_sum
I0527 16:59:45.032902 19106 net.cpp:129] Top shape: 50 64 56 56 (10035200)
I0527 16:59:45.032908 19106 net.cpp:137] Memory required for data: 1093837000
I0527 16:59:45.032915 19106 layer_factory.hpp:77] Creating layer layer_64_1_sum_layer_64_1_sum_0_split
I0527 16:59:45.032935 19106 net.cpp:84] Creating Layer layer_64_1_sum_layer_64_1_sum_0_split
I0527 16:59:45.032945 19106 net.cpp:406] layer_64_1_sum_layer_64_1_sum_0_split <- layer_64_1_sum
I0527 16:59:45.032956 19106 net.cpp:380] layer_64_1_sum_layer_64_1_sum_0_split -> layer_64_1_sum_layer_64_1_sum_0_split_0
I0527 16:59:45.032970 19106 net.cpp:380] layer_64_1_sum_layer_64_1_sum_0_split -> layer_64_1_sum_layer_64_1_sum_0_split_1
I0527 16:59:45.033017 19106 net.cpp:122] Setting up layer_64_1_sum_layer_64_1_sum_0_split
I0527 16:59:45.033028 19106 net.cpp:129] Top shape: 50 64 56 56 (10035200)
I0527 16:59:45.033033 19106 net.cpp:129] Top shape: 50 64 56 56 (10035200)
I0527 16:59:45.033037 19106 net.cpp:137] Memory required for data: 1174118600
I0527 16:59:45.033041 19106 layer_factory.hpp:77] Creating layer layer_64_2_bn1
I0527 16:59:45.033051 19106 net.cpp:84] Creating Layer layer_64_2_bn1
I0527 16:59:45.033058 19106 net.cpp:406] layer_64_2_bn1 <- layer_64_1_sum_layer_64_1_sum_0_split_0
I0527 16:59:45.033071 19106 net.cpp:380] layer_64_2_bn1 -> layer_64_2_bn1
I0527 16:59:45.033246 19106 net.cpp:122] Setting up layer_64_2_bn1
I0527 16:59:45.033255 19106 net.cpp:129] Top shape: 50 64 56 56 (10035200)
I0527 16:59:45.033262 19106 net.cpp:137] Memory required for data: 1214259400
I0527 16:59:45.033275 19106 layer_factory.hpp:77] Creating layer layer_64_2_scale1
I0527 16:59:45.033288 19106 net.cpp:84] Creating Layer layer_64_2_scale1
I0527 16:59:45.033298 19106 net.cpp:406] layer_64_2_scale1 <- layer_64_2_bn1
I0527 16:59:45.033310 19106 net.cpp:367] layer_64_2_scale1 -> layer_64_2_bn1 (in-place)
I0527 16:59:45.033362 19106 layer_factory.hpp:77] Creating layer layer_64_2_scale1
I0527 16:59:45.033476 19106 net.cpp:122] Setting up layer_64_2_scale1
I0527 16:59:45.033486 19106 net.cpp:129] Top shape: 50 64 56 56 (10035200)
I0527 16:59:45.033493 19106 net.cpp:137] Memory required for data: 1254400200
I0527 16:59:45.033504 19106 layer_factory.hpp:77] Creating layer layer_64_2_relu1
I0527 16:59:45.033519 19106 net.cpp:84] Creating Layer layer_64_2_relu1
I0527 16:59:45.033527 19106 net.cpp:406] layer_64_2_relu1 <- layer_64_2_bn1
I0527 16:59:45.033538 19106 net.cpp:367] layer_64_2_relu1 -> layer_64_2_bn1 (in-place)
I0527 16:59:45.034168 19106 net.cpp:122] Setting up layer_64_2_relu1
I0527 16:59:45.034179 19106 net.cpp:129] Top shape: 50 64 56 56 (10035200)
I0527 16:59:45.034186 19106 net.cpp:137] Memory required for data: 1294541000
I0527 16:59:45.034206 19106 layer_factory.hpp:77] Creating layer layer_64_2_conv1
I0527 16:59:45.034225 19106 net.cpp:84] Creating Layer layer_64_2_conv1
I0527 16:59:45.034235 19106 net.cpp:406] layer_64_2_conv1 <- layer_64_2_bn1
I0527 16:59:45.034250 19106 net.cpp:380] layer_64_2_conv1 -> layer_64_2_conv1
I0527 16:59:45.035688 19106 net.cpp:122] Setting up layer_64_2_conv1
I0527 16:59:45.035701 19106 net.cpp:129] Top shape: 50 64 56 56 (10035200)
I0527 16:59:45.035708 19106 net.cpp:137] Memory required for data: 1334681800
I0527 16:59:45.035718 19106 layer_factory.hpp:77] Creating layer layer_64_2_bn2
I0527 16:59:45.035730 19106 net.cpp:84] Creating Layer layer_64_2_bn2
I0527 16:59:45.035739 19106 net.cpp:406] layer_64_2_bn2 <- layer_64_2_conv1
I0527 16:59:45.035753 19106 net.cpp:367] layer_64_2_bn2 -> layer_64_2_conv1 (in-place)
I0527 16:59:45.035926 19106 net.cpp:122] Setting up layer_64_2_bn2
I0527 16:59:45.035936 19106 net.cpp:129] Top shape: 50 64 56 56 (10035200)
I0527 16:59:45.035943 19106 net.cpp:137] Memory required for data: 1374822600
I0527 16:59:45.035959 19106 layer_factory.hpp:77] Creating layer layer_64_2_scale2
I0527 16:59:45.035974 19106 net.cpp:84] Creating Layer layer_64_2_scale2
I0527 16:59:45.035981 19106 net.cpp:406] layer_64_2_scale2 <- layer_64_2_conv1
I0527 16:59:45.035993 19106 net.cpp:367] layer_64_2_scale2 -> layer_64_2_conv1 (in-place)
I0527 16:59:45.036044 19106 layer_factory.hpp:77] Creating layer layer_64_2_scale2
I0527 16:59:45.036161 19106 net.cpp:122] Setting up layer_64_2_scale2
I0527 16:59:45.036170 19106 net.cpp:129] Top shape: 50 64 56 56 (10035200)
I0527 16:59:45.036177 19106 net.cpp:137] Memory required for data: 1414963400
I0527 16:59:45.036190 19106 layer_factory.hpp:77] Creating layer layer_64_2_relu2
I0527 16:59:45.036201 19106 net.cpp:84] Creating Layer layer_64_2_relu2
I0527 16:59:45.036209 19106 net.cpp:406] layer_64_2_relu2 <- layer_64_2_conv1
I0527 16:59:45.036222 19106 net.cpp:367] layer_64_2_relu2 -> layer_64_2_conv1 (in-place)
I0527 16:59:45.036381 19106 net.cpp:122] Setting up layer_64_2_relu2
I0527 16:59:45.036392 19106 net.cpp:129] Top shape: 50 64 56 56 (10035200)
I0527 16:59:45.036398 19106 net.cpp:137] Memory required for data: 1455104200
I0527 16:59:45.036406 19106 layer_factory.hpp:77] Creating layer layer_64_2_conv2
I0527 16:59:45.036423 19106 net.cpp:84] Creating Layer layer_64_2_conv2
I0527 16:59:45.036433 19106 net.cpp:406] layer_64_2_conv2 <- layer_64_2_conv1
I0527 16:59:45.036448 19106 net.cpp:380] layer_64_2_conv2 -> layer_64_2_conv2
I0527 16:59:45.037901 19106 net.cpp:122] Setting up layer_64_2_conv2
I0527 16:59:45.037914 19106 net.cpp:129] Top shape: 50 64 56 56 (10035200)
I0527 16:59:45.037921 19106 net.cpp:137] Memory required for data: 1495245000
I0527 16:59:45.037931 19106 layer_factory.hpp:77] Creating layer layer_64_2_sum
I0527 16:59:45.037946 19106 net.cpp:84] Creating Layer layer_64_2_sum
I0527 16:59:45.037956 19106 net.cpp:406] layer_64_2_sum <- layer_64_2_conv2
I0527 16:59:45.037966 19106 net.cpp:406] layer_64_2_sum <- layer_64_1_sum_layer_64_1_sum_0_split_1
I0527 16:59:45.037977 19106 net.cpp:380] layer_64_2_sum -> layer_64_2_sum
I0527 16:59:45.038015 19106 net.cpp:122] Setting up layer_64_2_sum
I0527 16:59:45.038024 19106 net.cpp:129] Top shape: 50 64 56 56 (10035200)
I0527 16:59:45.038030 19106 net.cpp:137] Memory required for data: 1535385800
I0527 16:59:45.038038 19106 layer_factory.hpp:77] Creating layer layer_128_1_bn1
I0527 16:59:45.038053 19106 net.cpp:84] Creating Layer layer_128_1_bn1
I0527 16:59:45.038063 19106 net.cpp:406] layer_128_1_bn1 <- layer_64_2_sum
I0527 16:59:45.038074 19106 net.cpp:380] layer_128_1_bn1 -> layer_128_1_bn1
I0527 16:59:45.038254 19106 net.cpp:122] Setting up layer_128_1_bn1
I0527 16:59:45.038264 19106 net.cpp:129] Top shape: 50 64 56 56 (10035200)
I0527 16:59:45.038270 19106 net.cpp:137] Memory required for data: 1575526600
I0527 16:59:45.038292 19106 layer_factory.hpp:77] Creating layer layer_128_1_scale1
I0527 16:59:45.038305 19106 net.cpp:84] Creating Layer layer_128_1_scale1
I0527 16:59:45.038326 19106 net.cpp:406] layer_128_1_scale1 <- layer_128_1_bn1
I0527 16:59:45.038339 19106 net.cpp:367] layer_128_1_scale1 -> layer_128_1_bn1 (in-place)
I0527 16:59:45.038394 19106 layer_factory.hpp:77] Creating layer layer_128_1_scale1
I0527 16:59:45.038506 19106 net.cpp:122] Setting up layer_128_1_scale1
I0527 16:59:45.038516 19106 net.cpp:129] Top shape: 50 64 56 56 (10035200)
I0527 16:59:45.038522 19106 net.cpp:137] Memory required for data: 1615667400
I0527 16:59:45.038534 19106 layer_factory.hpp:77] Creating layer layer_128_1_relu1
I0527 16:59:45.038548 19106 net.cpp:84] Creating Layer layer_128_1_relu1
I0527 16:59:45.038558 19106 net.cpp:406] layer_128_1_relu1 <- layer_128_1_bn1
I0527 16:59:45.038569 19106 net.cpp:367] layer_128_1_relu1 -> layer_128_1_bn1 (in-place)
I0527 16:59:45.038722 19106 net.cpp:122] Setting up layer_128_1_relu1
I0527 16:59:45.038733 19106 net.cpp:129] Top shape: 50 64 56 56 (10035200)
I0527 16:59:45.038738 19106 net.cpp:137] Memory required for data: 1655808200
I0527 16:59:45.038745 19106 layer_factory.hpp:77] Creating layer layer_128_1_bn1_layer_128_1_relu1_0_split
I0527 16:59:45.038758 19106 net.cpp:84] Creating Layer layer_128_1_bn1_layer_128_1_relu1_0_split
I0527 16:59:45.038766 19106 net.cpp:406] layer_128_1_bn1_layer_128_1_relu1_0_split <- layer_128_1_bn1
I0527 16:59:45.038779 19106 net.cpp:380] layer_128_1_bn1_layer_128_1_relu1_0_split -> layer_128_1_bn1_layer_128_1_relu1_0_split_0
I0527 16:59:45.038794 19106 net.cpp:380] layer_128_1_bn1_layer_128_1_relu1_0_split -> layer_128_1_bn1_layer_128_1_relu1_0_split_1
I0527 16:59:45.038843 19106 net.cpp:122] Setting up layer_128_1_bn1_layer_128_1_relu1_0_split
I0527 16:59:45.038852 19106 net.cpp:129] Top shape: 50 64 56 56 (10035200)
I0527 16:59:45.038861 19106 net.cpp:129] Top shape: 50 64 56 56 (10035200)
I0527 16:59:45.038867 19106 net.cpp:137] Memory required for data: 1736089800
I0527 16:59:45.038875 19106 layer_factory.hpp:77] Creating layer layer_128_1_conv1
I0527 16:59:45.038892 19106 net.cpp:84] Creating Layer layer_128_1_conv1
I0527 16:59:45.038902 19106 net.cpp:406] layer_128_1_conv1 <- layer_128_1_bn1_layer_128_1_relu1_0_split_0
I0527 16:59:45.038916 19106 net.cpp:380] layer_128_1_conv1 -> layer_128_1_conv1
I0527 16:59:45.041198 19106 net.cpp:122] Setting up layer_128_1_conv1
I0527 16:59:45.041210 19106 net.cpp:129] Top shape: 50 128 28 28 (5017600)
I0527 16:59:45.041218 19106 net.cpp:137] Memory required for data: 1756160200
I0527 16:59:45.041229 19106 layer_factory.hpp:77] Creating layer layer_128_1_bn2
I0527 16:59:45.041244 19106 net.cpp:84] Creating Layer layer_128_1_bn2
I0527 16:59:45.041252 19106 net.cpp:406] layer_128_1_bn2 <- layer_128_1_conv1
I0527 16:59:45.041265 19106 net.cpp:367] layer_128_1_bn2 -> layer_128_1_conv1 (in-place)
I0527 16:59:45.042099 19106 net.cpp:122] Setting up layer_128_1_bn2
I0527 16:59:45.042111 19106 net.cpp:129] Top shape: 50 128 28 28 (5017600)
I0527 16:59:45.042116 19106 net.cpp:137] Memory required for data: 1776230600
I0527 16:59:45.042130 19106 layer_factory.hpp:77] Creating layer layer_128_1_scale2
I0527 16:59:45.042143 19106 net.cpp:84] Creating Layer layer_128_1_scale2
I0527 16:59:45.042152 19106 net.cpp:406] layer_128_1_scale2 <- layer_128_1_conv1
I0527 16:59:45.042165 19106 net.cpp:367] layer_128_1_scale2 -> layer_128_1_conv1 (in-place)
I0527 16:59:45.042222 19106 layer_factory.hpp:77] Creating layer layer_128_1_scale2
I0527 16:59:45.042333 19106 net.cpp:122] Setting up layer_128_1_scale2
I0527 16:59:45.042343 19106 net.cpp:129] Top shape: 50 128 28 28 (5017600)
I0527 16:59:45.042349 19106 net.cpp:137] Memory required for data: 1796301000
I0527 16:59:45.042362 19106 layer_factory.hpp:77] Creating layer layer_128_1_relu2
I0527 16:59:45.042382 19106 net.cpp:84] Creating Layer layer_128_1_relu2
I0527 16:59:45.042392 19106 net.cpp:406] layer_128_1_relu2 <- layer_128_1_conv1
I0527 16:59:45.042403 19106 net.cpp:367] layer_128_1_relu2 -> layer_128_1_conv1 (in-place)
I0527 16:59:45.042567 19106 net.cpp:122] Setting up layer_128_1_relu2
I0527 16:59:45.042577 19106 net.cpp:129] Top shape: 50 128 28 28 (5017600)
I0527 16:59:45.042596 19106 net.cpp:137] Memory required for data: 1816371400
I0527 16:59:45.042605 19106 layer_factory.hpp:77] Creating layer layer_128_1_conv2
I0527 16:59:45.042623 19106 net.cpp:84] Creating Layer layer_128_1_conv2
I0527 16:59:45.042631 19106 net.cpp:406] layer_128_1_conv2 <- layer_128_1_conv1
I0527 16:59:45.042645 19106 net.cpp:380] layer_128_1_conv2 -> layer_128_1_conv2
I0527 16:59:45.045702 19106 net.cpp:122] Setting up layer_128_1_conv2
I0527 16:59:45.045716 19106 net.cpp:129] Top shape: 50 128 28 28 (5017600)
I0527 16:59:45.045722 19106 net.cpp:137] Memory required for data: 1836441800
I0527 16:59:45.045732 19106 layer_factory.hpp:77] Creating layer layer_128_1_conv_expand
I0527 16:59:45.045752 19106 net.cpp:84] Creating Layer layer_128_1_conv_expand
I0527 16:59:45.045761 19106 net.cpp:406] layer_128_1_conv_expand <- layer_128_1_bn1_layer_128_1_relu1_0_split_1
I0527 16:59:45.045776 19106 net.cpp:380] layer_128_1_conv_expand -> layer_128_1_conv_expand
I0527 16:59:45.046957 19106 net.cpp:122] Setting up layer_128_1_conv_expand
I0527 16:59:45.046968 19106 net.cpp:129] Top shape: 50 128 28 28 (5017600)
I0527 16:59:45.046975 19106 net.cpp:137] Memory required for data: 1856512200
I0527 16:59:45.046985 19106 layer_factory.hpp:77] Creating layer layer_128_1_sum
I0527 16:59:45.046999 19106 net.cpp:84] Creating Layer layer_128_1_sum
I0527 16:59:45.047008 19106 net.cpp:406] layer_128_1_sum <- layer_128_1_conv_expand
I0527 16:59:45.047019 19106 net.cpp:406] layer_128_1_sum <- layer_128_1_conv2
I0527 16:59:45.047030 19106 net.cpp:380] layer_128_1_sum -> layer_128_1_sum
I0527 16:59:45.047071 19106 net.cpp:122] Setting up layer_128_1_sum
I0527 16:59:45.047080 19106 net.cpp:129] Top shape: 50 128 28 28 (5017600)
I0527 16:59:45.047086 19106 net.cpp:137] Memory required for data: 1876582600
I0527 16:59:45.047094 19106 layer_factory.hpp:77] Creating layer layer_128_1_sum_layer_128_1_sum_0_split
I0527 16:59:45.047106 19106 net.cpp:84] Creating Layer layer_128_1_sum_layer_128_1_sum_0_split
I0527 16:59:45.047114 19106 net.cpp:406] layer_128_1_sum_layer_128_1_sum_0_split <- layer_128_1_sum
I0527 16:59:45.047127 19106 net.cpp:380] layer_128_1_sum_layer_128_1_sum_0_split -> layer_128_1_sum_layer_128_1_sum_0_split_0
I0527 16:59:45.047142 19106 net.cpp:380] layer_128_1_sum_layer_128_1_sum_0_split -> layer_128_1_sum_layer_128_1_sum_0_split_1
I0527 16:59:45.047191 19106 net.cpp:122] Setting up layer_128_1_sum_layer_128_1_sum_0_split
I0527 16:59:45.047200 19106 net.cpp:129] Top shape: 50 128 28 28 (5017600)
I0527 16:59:45.047209 19106 net.cpp:129] Top shape: 50 128 28 28 (5017600)
I0527 16:59:45.047216 19106 net.cpp:137] Memory required for data: 1916723400
I0527 16:59:45.047224 19106 layer_factory.hpp:77] Creating layer layer_128_2_bn1
I0527 16:59:45.047238 19106 net.cpp:84] Creating Layer layer_128_2_bn1
I0527 16:59:45.047247 19106 net.cpp:406] layer_128_2_bn1 <- layer_128_1_sum_layer_128_1_sum_0_split_0
I0527 16:59:45.047258 19106 net.cpp:380] layer_128_2_bn1 -> layer_128_2_bn1
I0527 16:59:45.047428 19106 net.cpp:122] Setting up layer_128_2_bn1
I0527 16:59:45.047437 19106 net.cpp:129] Top shape: 50 128 28 28 (5017600)
I0527 16:59:45.047444 19106 net.cpp:137] Memory required for data: 1936793800
I0527 16:59:45.047459 19106 layer_factory.hpp:77] Creating layer layer_128_2_scale1
I0527 16:59:45.047472 19106 net.cpp:84] Creating Layer layer_128_2_scale1
I0527 16:59:45.047480 19106 net.cpp:406] layer_128_2_scale1 <- layer_128_2_bn1
I0527 16:59:45.047493 19106 net.cpp:367] layer_128_2_scale1 -> layer_128_2_bn1 (in-place)
I0527 16:59:45.047547 19106 layer_factory.hpp:77] Creating layer layer_128_2_scale1
I0527 16:59:45.047657 19106 net.cpp:122] Setting up layer_128_2_scale1
I0527 16:59:45.047667 19106 net.cpp:129] Top shape: 50 128 28 28 (5017600)
I0527 16:59:45.047673 19106 net.cpp:137] Memory required for data: 1956864200
I0527 16:59:45.047685 19106 layer_factory.hpp:77] Creating layer layer_128_2_relu1
I0527 16:59:45.047696 19106 net.cpp:84] Creating Layer layer_128_2_relu1
I0527 16:59:45.047718 19106 net.cpp:406] layer_128_2_relu1 <- layer_128_2_bn1
I0527 16:59:45.047731 19106 net.cpp:367] layer_128_2_relu1 -> layer_128_2_bn1 (in-place)
I0527 16:59:45.047888 19106 net.cpp:122] Setting up layer_128_2_relu1
I0527 16:59:45.047899 19106 net.cpp:129] Top shape: 50 128 28 28 (5017600)
I0527 16:59:45.047904 19106 net.cpp:137] Memory required for data: 1976934600
I0527 16:59:45.047912 19106 layer_factory.hpp:77] Creating layer layer_128_2_conv1
I0527 16:59:45.047930 19106 net.cpp:84] Creating Layer layer_128_2_conv1
I0527 16:59:45.047940 19106 net.cpp:406] layer_128_2_conv1 <- layer_128_2_bn1
I0527 16:59:45.047953 19106 net.cpp:380] layer_128_2_conv1 -> layer_128_2_conv1
I0527 16:59:45.051635 19106 net.cpp:122] Setting up layer_128_2_conv1
I0527 16:59:45.051650 19106 net.cpp:129] Top shape: 50 128 28 28 (5017600)
I0527 16:59:45.051656 19106 net.cpp:137] Memory required for data: 1997005000
I0527 16:59:45.051666 19106 layer_factory.hpp:77] Creating layer layer_128_2_bn2
I0527 16:59:45.051681 19106 net.cpp:84] Creating Layer layer_128_2_bn2
I0527 16:59:45.051689 19106 net.cpp:406] layer_128_2_bn2 <- layer_128_2_conv1
I0527 16:59:45.051702 19106 net.cpp:367] layer_128_2_bn2 -> layer_128_2_conv1 (in-place)
I0527 16:59:45.051872 19106 net.cpp:122] Setting up layer_128_2_bn2
I0527 16:59:45.051882 19106 net.cpp:129] Top shape: 50 128 28 28 (5017600)
I0527 16:59:45.051888 19106 net.cpp:137] Memory required for data: 2017075400
I0527 16:59:45.051904 19106 layer_factory.hpp:77] Creating layer layer_128_2_scale2
I0527 16:59:45.051918 19106 net.cpp:84] Creating Layer layer_128_2_scale2
I0527 16:59:45.051928 19106 net.cpp:406] layer_128_2_scale2 <- layer_128_2_conv1
I0527 16:59:45.051939 19106 net.cpp:367] layer_128_2_scale2 -> layer_128_2_conv1 (in-place)
I0527 16:59:45.051990 19106 layer_factory.hpp:77] Creating layer layer_128_2_scale2
I0527 16:59:45.052098 19106 net.cpp:122] Setting up layer_128_2_scale2
I0527 16:59:45.052108 19106 net.cpp:129] Top shape: 50 128 28 28 (5017600)
I0527 16:59:45.052114 19106 net.cpp:137] Memory required for data: 2037145800
I0527 16:59:45.052126 19106 layer_factory.hpp:77] Creating layer layer_128_2_relu2
I0527 16:59:45.052141 19106 net.cpp:84] Creating Layer layer_128_2_relu2
I0527 16:59:45.052151 19106 net.cpp:406] layer_128_2_relu2 <- layer_128_2_conv1
I0527 16:59:45.052162 19106 net.cpp:367] layer_128_2_relu2 -> layer_128_2_conv1 (in-place)
I0527 16:59:45.052325 19106 net.cpp:122] Setting up layer_128_2_relu2
I0527 16:59:45.052335 19106 net.cpp:129] Top shape: 50 128 28 28 (5017600)
I0527 16:59:45.052341 19106 net.cpp:137] Memory required for data: 2057216200
I0527 16:59:45.052347 19106 layer_factory.hpp:77] Creating layer layer_128_2_conv2
I0527 16:59:45.052364 19106 net.cpp:84] Creating Layer layer_128_2_conv2
I0527 16:59:45.052373 19106 net.cpp:406] layer_128_2_conv2 <- layer_128_2_conv1
I0527 16:59:45.052387 19106 net.cpp:380] layer_128_2_conv2 -> layer_128_2_conv2
I0527 16:59:45.055397 19106 net.cpp:122] Setting up layer_128_2_conv2
I0527 16:59:45.055409 19106 net.cpp:129] Top shape: 50 128 28 28 (5017600)
I0527 16:59:45.055416 19106 net.cpp:137] Memory required for data: 2077286600
I0527 16:59:45.055428 19106 layer_factory.hpp:77] Creating layer layer_128_2_sum
I0527 16:59:45.055438 19106 net.cpp:84] Creating Layer layer_128_2_sum
I0527 16:59:45.055447 19106 net.cpp:406] layer_128_2_sum <- layer_128_2_conv2
I0527 16:59:45.055457 19106 net.cpp:406] layer_128_2_sum <- layer_128_1_sum_layer_128_1_sum_0_split_1
I0527 16:59:45.055471 19106 net.cpp:380] layer_128_2_sum -> layer_128_2_sum
I0527 16:59:45.055515 19106 net.cpp:122] Setting up layer_128_2_sum
I0527 16:59:45.055523 19106 net.cpp:129] Top shape: 50 128 28 28 (5017600)
I0527 16:59:45.055529 19106 net.cpp:137] Memory required for data: 2097357000
I0527 16:59:45.055536 19106 layer_factory.hpp:77] Creating layer layer_256_1_bn1
I0527 16:59:45.055546 19106 net.cpp:84] Creating Layer layer_256_1_bn1
I0527 16:59:45.055555 19106 net.cpp:406] layer_256_1_bn1 <- layer_128_2_sum
I0527 16:59:45.055569 19106 net.cpp:380] layer_256_1_bn1 -> layer_256_1_bn1
I0527 16:59:45.055761 19106 net.cpp:122] Setting up layer_256_1_bn1
I0527 16:59:45.055771 19106 net.cpp:129] Top shape: 50 128 28 28 (5017600)
I0527 16:59:45.055778 19106 net.cpp:137] Memory required for data: 2117427400
I0527 16:59:45.055790 19106 layer_factory.hpp:77] Creating layer layer_256_1_scale1
I0527 16:59:45.055805 19106 net.cpp:84] Creating Layer layer_256_1_scale1
I0527 16:59:45.055814 19106 net.cpp:406] layer_256_1_scale1 <- layer_256_1_bn1
I0527 16:59:45.055825 19106 net.cpp:367] layer_256_1_scale1 -> layer_256_1_bn1 (in-place)
I0527 16:59:45.055877 19106 layer_factory.hpp:77] Creating layer layer_256_1_scale1
I0527 16:59:45.055989 19106 net.cpp:122] Setting up layer_256_1_scale1
I0527 16:59:45.055997 19106 net.cpp:129] Top shape: 50 128 28 28 (5017600)
I0527 16:59:45.056005 19106 net.cpp:137] Memory required for data: 2137497800
I0527 16:59:45.056017 19106 layer_factory.hpp:77] Creating layer layer_256_1_relu1
I0527 16:59:45.056031 19106 net.cpp:84] Creating Layer layer_256_1_relu1
I0527 16:59:45.056041 19106 net.cpp:406] layer_256_1_relu1 <- layer_256_1_bn1
I0527 16:59:45.056051 19106 net.cpp:367] layer_256_1_relu1 -> layer_256_1_bn1 (in-place)
I0527 16:59:45.056697 19106 net.cpp:122] Setting up layer_256_1_relu1
I0527 16:59:45.056710 19106 net.cpp:129] Top shape: 50 128 28 28 (5017600)
I0527 16:59:45.056715 19106 net.cpp:137] Memory required for data: 2157568200
I0527 16:59:45.056723 19106 layer_factory.hpp:77] Creating layer layer_256_1_bn1_layer_256_1_relu1_0_split
I0527 16:59:45.056733 19106 net.cpp:84] Creating Layer layer_256_1_bn1_layer_256_1_relu1_0_split
I0527 16:59:45.056741 19106 net.cpp:406] layer_256_1_bn1_layer_256_1_relu1_0_split <- layer_256_1_bn1
I0527 16:59:45.056752 19106 net.cpp:380] layer_256_1_bn1_layer_256_1_relu1_0_split -> layer_256_1_bn1_layer_256_1_relu1_0_split_0
I0527 16:59:45.056766 19106 net.cpp:380] layer_256_1_bn1_layer_256_1_relu1_0_split -> layer_256_1_bn1_layer_256_1_relu1_0_split_1
I0527 16:59:45.056818 19106 net.cpp:122] Setting up layer_256_1_bn1_layer_256_1_relu1_0_split
I0527 16:59:45.056829 19106 net.cpp:129] Top shape: 50 128 28 28 (5017600)
I0527 16:59:45.056836 19106 net.cpp:129] Top shape: 50 128 28 28 (5017600)
I0527 16:59:45.056843 19106 net.cpp:137] Memory required for data: 2197709000
I0527 16:59:45.056848 19106 layer_factory.hpp:77] Creating layer layer_256_1_conv1
I0527 16:59:45.056862 19106 net.cpp:84] Creating Layer layer_256_1_conv1
I0527 16:59:45.056870 19106 net.cpp:406] layer_256_1_conv1 <- layer_256_1_bn1_layer_256_1_relu1_0_split_0
I0527 16:59:45.056884 19106 net.cpp:380] layer_256_1_conv1 -> layer_256_1_conv1
I0527 16:59:45.063478 19106 net.cpp:122] Setting up layer_256_1_conv1
I0527 16:59:45.063496 19106 net.cpp:129] Top shape: 50 256 14 14 (2508800)
I0527 16:59:45.063500 19106 net.cpp:137] Memory required for data: 2207744200
I0527 16:59:45.063509 19106 layer_factory.hpp:77] Creating layer layer_256_1_bn2
I0527 16:59:45.063524 19106 net.cpp:84] Creating Layer layer_256_1_bn2
I0527 16:59:45.063534 19106 net.cpp:406] layer_256_1_bn2 <- layer_256_1_conv1
I0527 16:59:45.063546 19106 net.cpp:367] layer_256_1_bn2 -> layer_256_1_conv1 (in-place)
I0527 16:59:45.063729 19106 net.cpp:122] Setting up layer_256_1_bn2
I0527 16:59:45.063738 19106 net.cpp:129] Top shape: 50 256 14 14 (2508800)
I0527 16:59:45.063742 19106 net.cpp:137] Memory required for data: 2217779400
I0527 16:59:45.063768 19106 layer_factory.hpp:77] Creating layer layer_256_1_scale2
I0527 16:59:45.063782 19106 net.cpp:84] Creating Layer layer_256_1_scale2
I0527 16:59:45.063791 19106 net.cpp:406] layer_256_1_scale2 <- layer_256_1_conv1
I0527 16:59:45.063802 19106 net.cpp:367] layer_256_1_scale2 -> layer_256_1_conv1 (in-place)
I0527 16:59:45.063856 19106 layer_factory.hpp:77] Creating layer layer_256_1_scale2
I0527 16:59:45.063968 19106 net.cpp:122] Setting up layer_256_1_scale2
I0527 16:59:45.063978 19106 net.cpp:129] Top shape: 50 256 14 14 (2508800)
I0527 16:59:45.063984 19106 net.cpp:137] Memory required for data: 2227814600
I0527 16:59:45.063994 19106 layer_factory.hpp:77] Creating layer layer_256_1_relu2
I0527 16:59:45.064019 19106 net.cpp:84] Creating Layer layer_256_1_relu2
I0527 16:59:45.064028 19106 net.cpp:406] layer_256_1_relu2 <- layer_256_1_conv1
I0527 16:59:45.064039 19106 net.cpp:367] layer_256_1_relu2 -> layer_256_1_conv1 (in-place)
I0527 16:59:45.064204 19106 net.cpp:122] Setting up layer_256_1_relu2
I0527 16:59:45.064214 19106 net.cpp:129] Top shape: 50 256 14 14 (2508800)
I0527 16:59:45.064218 19106 net.cpp:137] Memory required for data: 2237849800
I0527 16:59:45.064223 19106 layer_factory.hpp:77] Creating layer layer_256_1_conv2
I0527 16:59:45.064235 19106 net.cpp:84] Creating Layer layer_256_1_conv2
I0527 16:59:45.064244 19106 net.cpp:406] layer_256_1_conv2 <- layer_256_1_conv1
I0527 16:59:45.064260 19106 net.cpp:380] layer_256_1_conv2 -> layer_256_1_conv2
I0527 16:59:45.072412 19106 net.cpp:122] Setting up layer_256_1_conv2
I0527 16:59:45.072427 19106 net.cpp:129] Top shape: 50 256 14 14 (2508800)
I0527 16:59:45.072432 19106 net.cpp:137] Memory required for data: 2247885000
I0527 16:59:45.072439 19106 layer_factory.hpp:77] Creating layer layer_256_1_conv_expand
I0527 16:59:45.072458 19106 net.cpp:84] Creating Layer layer_256_1_conv_expand
I0527 16:59:45.072468 19106 net.cpp:406] layer_256_1_conv_expand <- layer_256_1_bn1_layer_256_1_relu1_0_split_1
I0527 16:59:45.072481 19106 net.cpp:380] layer_256_1_conv_expand -> layer_256_1_conv_expand
I0527 16:59:45.073933 19106 net.cpp:122] Setting up layer_256_1_conv_expand
I0527 16:59:45.073946 19106 net.cpp:129] Top shape: 50 256 14 14 (2508800)
I0527 16:59:45.073952 19106 net.cpp:137] Memory required for data: 2257920200
I0527 16:59:45.073962 19106 layer_factory.hpp:77] Creating layer layer_256_1_sum
I0527 16:59:45.073976 19106 net.cpp:84] Creating Layer layer_256_1_sum
I0527 16:59:45.073985 19106 net.cpp:406] layer_256_1_sum <- layer_256_1_conv_expand
I0527 16:59:45.074005 19106 net.cpp:406] layer_256_1_sum <- layer_256_1_conv2
I0527 16:59:45.074018 19106 net.cpp:380] layer_256_1_sum -> layer_256_1_sum
I0527 16:59:45.074067 19106 net.cpp:122] Setting up layer_256_1_sum
I0527 16:59:45.074077 19106 net.cpp:129] Top shape: 50 256 14 14 (2508800)
I0527 16:59:45.074081 19106 net.cpp:137] Memory required for data: 2267955400
I0527 16:59:45.074084 19106 layer_factory.hpp:77] Creating layer layer_256_1_sum_layer_256_1_sum_0_split
I0527 16:59:45.074091 19106 net.cpp:84] Creating Layer layer_256_1_sum_layer_256_1_sum_0_split
I0527 16:59:45.074095 19106 net.cpp:406] layer_256_1_sum_layer_256_1_sum_0_split <- layer_256_1_sum
I0527 16:59:45.074102 19106 net.cpp:380] layer_256_1_sum_layer_256_1_sum_0_split -> layer_256_1_sum_layer_256_1_sum_0_split_0
I0527 16:59:45.074110 19106 net.cpp:380] layer_256_1_sum_layer_256_1_sum_0_split -> layer_256_1_sum_layer_256_1_sum_0_split_1
I0527 16:59:45.074167 19106 net.cpp:122] Setting up layer_256_1_sum_layer_256_1_sum_0_split
I0527 16:59:45.074189 19106 net.cpp:129] Top shape: 50 256 14 14 (2508800)
I0527 16:59:45.074195 19106 net.cpp:129] Top shape: 50 256 14 14 (2508800)
I0527 16:59:45.074198 19106 net.cpp:137] Memory required for data: 2288025800
I0527 16:59:45.074203 19106 layer_factory.hpp:77] Creating layer layer_256_2_bn1
I0527 16:59:45.074210 19106 net.cpp:84] Creating Layer layer_256_2_bn1
I0527 16:59:45.074214 19106 net.cpp:406] layer_256_2_bn1 <- layer_256_1_sum_layer_256_1_sum_0_split_0
I0527 16:59:45.074220 19106 net.cpp:380] layer_256_2_bn1 -> layer_256_2_bn1
I0527 16:59:45.074422 19106 net.cpp:122] Setting up layer_256_2_bn1
I0527 16:59:45.074431 19106 net.cpp:129] Top shape: 50 256 14 14 (2508800)
I0527 16:59:45.074446 19106 net.cpp:137] Memory required for data: 2298061000
I0527 16:59:45.074455 19106 layer_factory.hpp:77] Creating layer layer_256_2_scale1
I0527 16:59:45.074463 19106 net.cpp:84] Creating Layer layer_256_2_scale1
I0527 16:59:45.074471 19106 net.cpp:406] layer_256_2_scale1 <- layer_256_2_bn1
I0527 16:59:45.074484 19106 net.cpp:367] layer_256_2_scale1 -> layer_256_2_bn1 (in-place)
I0527 16:59:45.074551 19106 layer_factory.hpp:77] Creating layer layer_256_2_scale1
I0527 16:59:45.074699 19106 net.cpp:122] Setting up layer_256_2_scale1
I0527 16:59:45.074709 19106 net.cpp:129] Top shape: 50 256 14 14 (2508800)
I0527 16:59:45.074724 19106 net.cpp:137] Memory required for data: 2308096200
I0527 16:59:45.074731 19106 layer_factory.hpp:77] Creating layer layer_256_2_relu1
I0527 16:59:45.074738 19106 net.cpp:84] Creating Layer layer_256_2_relu1
I0527 16:59:45.074746 19106 net.cpp:406] layer_256_2_relu1 <- layer_256_2_bn1
I0527 16:59:45.074755 19106 net.cpp:367] layer_256_2_relu1 -> layer_256_2_bn1 (in-place)
I0527 16:59:45.074949 19106 net.cpp:122] Setting up layer_256_2_relu1
I0527 16:59:45.074959 19106 net.cpp:129] Top shape: 50 256 14 14 (2508800)
I0527 16:59:45.074962 19106 net.cpp:137] Memory required for data: 2318131400
I0527 16:59:45.074966 19106 layer_factory.hpp:77] Creating layer layer_256_2_conv1
I0527 16:59:45.074975 19106 net.cpp:84] Creating Layer layer_256_2_conv1
I0527 16:59:45.074992 19106 net.cpp:406] layer_256_2_conv1 <- layer_256_2_bn1
I0527 16:59:45.075003 19106 net.cpp:380] layer_256_2_conv1 -> layer_256_2_conv1
I0527 16:59:45.083063 19106 net.cpp:122] Setting up layer_256_2_conv1
I0527 16:59:45.083076 19106 net.cpp:129] Top shape: 50 256 14 14 (2508800)
I0527 16:59:45.083092 19106 net.cpp:137] Memory required for data: 2328166600
I0527 16:59:45.083099 19106 layer_factory.hpp:77] Creating layer layer_256_2_bn2
I0527 16:59:45.083109 19106 net.cpp:84] Creating Layer layer_256_2_bn2
I0527 16:59:45.083118 19106 net.cpp:406] layer_256_2_bn2 <- layer_256_2_conv1
I0527 16:59:45.083130 19106 net.cpp:367] layer_256_2_bn2 -> layer_256_2_conv1 (in-place)
I0527 16:59:45.083318 19106 net.cpp:122] Setting up layer_256_2_bn2
I0527 16:59:45.083328 19106 net.cpp:129] Top shape: 50 256 14 14 (2508800)
I0527 16:59:45.083343 19106 net.cpp:137] Memory required for data: 2338201800
I0527 16:59:45.083353 19106 layer_factory.hpp:77] Creating layer layer_256_2_scale2
I0527 16:59:45.083361 19106 net.cpp:84] Creating Layer layer_256_2_scale2
I0527 16:59:45.083369 19106 net.cpp:406] layer_256_2_scale2 <- layer_256_2_conv1
I0527 16:59:45.083384 19106 net.cpp:367] layer_256_2_scale2 -> layer_256_2_conv1 (in-place)
I0527 16:59:45.083441 19106 layer_factory.hpp:77] Creating layer layer_256_2_scale2
I0527 16:59:45.083556 19106 net.cpp:122] Setting up layer_256_2_scale2
I0527 16:59:45.083565 19106 net.cpp:129] Top shape: 50 256 14 14 (2508800)
I0527 16:59:45.083572 19106 net.cpp:137] Memory required for data: 2348237000
I0527 16:59:45.083585 19106 layer_factory.hpp:77] Creating layer layer_256_2_relu2
I0527 16:59:45.083616 19106 net.cpp:84] Creating Layer layer_256_2_relu2
I0527 16:59:45.083623 19106 net.cpp:406] layer_256_2_relu2 <- layer_256_2_conv1
I0527 16:59:45.083632 19106 net.cpp:367] layer_256_2_relu2 -> layer_256_2_conv1 (in-place)
I0527 16:59:45.083796 19106 net.cpp:122] Setting up layer_256_2_relu2
I0527 16:59:45.083807 19106 net.cpp:129] Top shape: 50 256 14 14 (2508800)
I0527 16:59:45.083813 19106 net.cpp:137] Memory required for data: 2358272200
I0527 16:59:45.083822 19106 layer_factory.hpp:77] Creating layer layer_256_2_conv2
I0527 16:59:45.083840 19106 net.cpp:84] Creating Layer layer_256_2_conv2
I0527 16:59:45.083849 19106 net.cpp:406] layer_256_2_conv2 <- layer_256_2_conv1
I0527 16:59:45.083864 19106 net.cpp:380] layer_256_2_conv2 -> layer_256_2_conv2
I0527 16:59:45.092018 19106 net.cpp:122] Setting up layer_256_2_conv2
I0527 16:59:45.092033 19106 net.cpp:129] Top shape: 50 256 14 14 (2508800)
I0527 16:59:45.092037 19106 net.cpp:137] Memory required for data: 2368307400
I0527 16:59:45.092042 19106 layer_factory.hpp:77] Creating layer layer_256_2_sum
I0527 16:59:45.092051 19106 net.cpp:84] Creating Layer layer_256_2_sum
I0527 16:59:45.092054 19106 net.cpp:406] layer_256_2_sum <- layer_256_2_conv2
I0527 16:59:45.092059 19106 net.cpp:406] layer_256_2_sum <- layer_256_1_sum_layer_256_1_sum_0_split_1
I0527 16:59:45.092067 19106 net.cpp:380] layer_256_2_sum -> layer_256_2_sum
I0527 16:59:45.092105 19106 net.cpp:122] Setting up layer_256_2_sum
I0527 16:59:45.092115 19106 net.cpp:129] Top shape: 50 256 14 14 (2508800)
I0527 16:59:45.092130 19106 net.cpp:137] Memory required for data: 2378342600
I0527 16:59:45.092135 19106 layer_factory.hpp:77] Creating layer layer_512_1_bn1
I0527 16:59:45.092144 19106 net.cpp:84] Creating Layer layer_512_1_bn1
I0527 16:59:45.092154 19106 net.cpp:406] layer_512_1_bn1 <- layer_256_2_sum
I0527 16:59:45.092165 19106 net.cpp:380] layer_512_1_bn1 -> layer_512_1_bn1
I0527 16:59:45.092358 19106 net.cpp:122] Setting up layer_512_1_bn1
I0527 16:59:45.092368 19106 net.cpp:129] Top shape: 50 256 14 14 (2508800)
I0527 16:59:45.092375 19106 net.cpp:137] Memory required for data: 2388377800
I0527 16:59:45.092389 19106 layer_factory.hpp:77] Creating layer layer_512_1_scale1
I0527 16:59:45.092404 19106 net.cpp:84] Creating Layer layer_512_1_scale1
I0527 16:59:45.092413 19106 net.cpp:406] layer_512_1_scale1 <- layer_512_1_bn1
I0527 16:59:45.092425 19106 net.cpp:367] layer_512_1_scale1 -> layer_512_1_bn1 (in-place)
I0527 16:59:45.092478 19106 layer_factory.hpp:77] Creating layer layer_512_1_scale1
I0527 16:59:45.092592 19106 net.cpp:122] Setting up layer_512_1_scale1
I0527 16:59:45.092602 19106 net.cpp:129] Top shape: 50 256 14 14 (2508800)
I0527 16:59:45.092608 19106 net.cpp:137] Memory required for data: 2398413000
I0527 16:59:45.092620 19106 layer_factory.hpp:77] Creating layer layer_512_1_relu1
I0527 16:59:45.092634 19106 net.cpp:84] Creating Layer layer_512_1_relu1
I0527 16:59:45.092643 19106 net.cpp:406] layer_512_1_relu1 <- layer_512_1_bn1
I0527 16:59:45.092650 19106 net.cpp:367] layer_512_1_relu1 -> layer_512_1_bn1 (in-place)
I0527 16:59:45.092890 19106 net.cpp:122] Setting up layer_512_1_relu1
I0527 16:59:45.092903 19106 net.cpp:129] Top shape: 50 256 14 14 (2508800)
I0527 16:59:45.092910 19106 net.cpp:137] Memory required for data: 2408448200
I0527 16:59:45.092916 19106 layer_factory.hpp:77] Creating layer layer_512_1_bn1_layer_512_1_relu1_0_split
I0527 16:59:45.092931 19106 net.cpp:84] Creating Layer layer_512_1_bn1_layer_512_1_relu1_0_split
I0527 16:59:45.092941 19106 net.cpp:406] layer_512_1_bn1_layer_512_1_relu1_0_split <- layer_512_1_bn1
I0527 16:59:45.092952 19106 net.cpp:380] layer_512_1_bn1_layer_512_1_relu1_0_split -> layer_512_1_bn1_layer_512_1_relu1_0_split_0
I0527 16:59:45.092963 19106 net.cpp:380] layer_512_1_bn1_layer_512_1_relu1_0_split -> layer_512_1_bn1_layer_512_1_relu1_0_split_1
I0527 16:59:45.093019 19106 net.cpp:122] Setting up layer_512_1_bn1_layer_512_1_relu1_0_split
I0527 16:59:45.093030 19106 net.cpp:129] Top shape: 50 256 14 14 (2508800)
I0527 16:59:45.093039 19106 net.cpp:129] Top shape: 50 256 14 14 (2508800)
I0527 16:59:45.093045 19106 net.cpp:137] Memory required for data: 2428518600
I0527 16:59:45.093052 19106 layer_factory.hpp:77] Creating layer layer_512_1_conv1
I0527 16:59:45.093067 19106 net.cpp:84] Creating Layer layer_512_1_conv1
I0527 16:59:45.093075 19106 net.cpp:406] layer_512_1_conv1 <- layer_512_1_bn1_layer_512_1_relu1_0_split_0
I0527 16:59:45.093086 19106 net.cpp:380] layer_512_1_conv1 -> layer_512_1_conv1
I0527 16:59:45.108180 19106 net.cpp:122] Setting up layer_512_1_conv1
I0527 16:59:45.108207 19106 net.cpp:129] Top shape: 50 512 7 7 (1254400)
I0527 16:59:45.108211 19106 net.cpp:137] Memory required for data: 2433536200
I0527 16:59:45.108219 19106 layer_factory.hpp:77] Creating layer layer_512_1_bn2
I0527 16:59:45.108232 19106 net.cpp:84] Creating Layer layer_512_1_bn2
I0527 16:59:45.108238 19106 net.cpp:406] layer_512_1_bn2 <- layer_512_1_conv1
I0527 16:59:45.108252 19106 net.cpp:367] layer_512_1_bn2 -> layer_512_1_conv1 (in-place)
I0527 16:59:45.108451 19106 net.cpp:122] Setting up layer_512_1_bn2
I0527 16:59:45.108461 19106 net.cpp:129] Top shape: 50 512 7 7 (1254400)
I0527 16:59:45.108467 19106 net.cpp:137] Memory required for data: 2438553800
I0527 16:59:45.108482 19106 layer_factory.hpp:77] Creating layer layer_512_1_scale2
I0527 16:59:45.108496 19106 net.cpp:84] Creating Layer layer_512_1_scale2
I0527 16:59:45.108505 19106 net.cpp:406] layer_512_1_scale2 <- layer_512_1_conv1
I0527 16:59:45.108520 19106 net.cpp:367] layer_512_1_scale2 -> layer_512_1_conv1 (in-place)
I0527 16:59:45.108588 19106 layer_factory.hpp:77] Creating layer layer_512_1_scale2
I0527 16:59:45.108711 19106 net.cpp:122] Setting up layer_512_1_scale2
I0527 16:59:45.108721 19106 net.cpp:129] Top shape: 50 512 7 7 (1254400)
I0527 16:59:45.108728 19106 net.cpp:137] Memory required for data: 2443571400
I0527 16:59:45.108741 19106 layer_factory.hpp:77] Creating layer layer_512_1_relu2
I0527 16:59:45.108753 19106 net.cpp:84] Creating Layer layer_512_1_relu2
I0527 16:59:45.108762 19106 net.cpp:406] layer_512_1_relu2 <- layer_512_1_conv1
I0527 16:59:45.108773 19106 net.cpp:367] layer_512_1_relu2 -> layer_512_1_conv1 (in-place)
I0527 16:59:45.108938 19106 net.cpp:122] Setting up layer_512_1_relu2
I0527 16:59:45.108948 19106 net.cpp:129] Top shape: 50 512 7 7 (1254400)
I0527 16:59:45.108954 19106 net.cpp:137] Memory required for data: 2448589000
I0527 16:59:45.108961 19106 layer_factory.hpp:77] Creating layer layer_512_1_conv2
I0527 16:59:45.108981 19106 net.cpp:84] Creating Layer layer_512_1_conv2
I0527 16:59:45.108991 19106 net.cpp:406] layer_512_1_conv2 <- layer_512_1_conv1
I0527 16:59:45.109004 19106 net.cpp:380] layer_512_1_conv2 -> layer_512_1_conv2
I0527 16:59:45.137692 19106 net.cpp:122] Setting up layer_512_1_conv2
I0527 16:59:45.137732 19106 net.cpp:129] Top shape: 50 512 7 7 (1254400)
I0527 16:59:45.137735 19106 net.cpp:137] Memory required for data: 2453606600
I0527 16:59:45.137744 19106 layer_factory.hpp:77] Creating layer layer_512_1_conv_expand
I0527 16:59:45.137761 19106 net.cpp:84] Creating Layer layer_512_1_conv_expand
I0527 16:59:45.137769 19106 net.cpp:406] layer_512_1_conv_expand <- layer_512_1_bn1_layer_512_1_relu1_0_split_1
I0527 16:59:45.137785 19106 net.cpp:380] layer_512_1_conv_expand -> layer_512_1_conv_expand
I0527 16:59:45.140208 19106 net.cpp:122] Setting up layer_512_1_conv_expand
I0527 16:59:45.140220 19106 net.cpp:129] Top shape: 50 512 7 7 (1254400)
I0527 16:59:45.140235 19106 net.cpp:137] Memory required for data: 2458624200
I0527 16:59:45.140240 19106 layer_factory.hpp:77] Creating layer layer_512_1_sum
I0527 16:59:45.140249 19106 net.cpp:84] Creating Layer layer_512_1_sum
I0527 16:59:45.140252 19106 net.cpp:406] layer_512_1_sum <- layer_512_1_conv_expand
I0527 16:59:45.140260 19106 net.cpp:406] layer_512_1_sum <- layer_512_1_conv2
I0527 16:59:45.140271 19106 net.cpp:380] layer_512_1_sum -> layer_512_1_sum
I0527 16:59:45.140316 19106 net.cpp:122] Setting up layer_512_1_sum
I0527 16:59:45.140324 19106 net.cpp:129] Top shape: 50 512 7 7 (1254400)
I0527 16:59:45.140328 19106 net.cpp:137] Memory required for data: 2463641800
I0527 16:59:45.140332 19106 layer_factory.hpp:77] Creating layer layer_512_1_sum_layer_512_1_sum_0_split
I0527 16:59:45.140339 19106 net.cpp:84] Creating Layer layer_512_1_sum_layer_512_1_sum_0_split
I0527 16:59:45.140346 19106 net.cpp:406] layer_512_1_sum_layer_512_1_sum_0_split <- layer_512_1_sum
I0527 16:59:45.140357 19106 net.cpp:380] layer_512_1_sum_layer_512_1_sum_0_split -> layer_512_1_sum_layer_512_1_sum_0_split_0
I0527 16:59:45.140372 19106 net.cpp:380] layer_512_1_sum_layer_512_1_sum_0_split -> layer_512_1_sum_layer_512_1_sum_0_split_1
I0527 16:59:45.140421 19106 net.cpp:122] Setting up layer_512_1_sum_layer_512_1_sum_0_split
I0527 16:59:45.140430 19106 net.cpp:129] Top shape: 50 512 7 7 (1254400)
I0527 16:59:45.140439 19106 net.cpp:129] Top shape: 50 512 7 7 (1254400)
I0527 16:59:45.140446 19106 net.cpp:137] Memory required for data: 2473677000
I0527 16:59:45.140455 19106 layer_factory.hpp:77] Creating layer layer_512_2_bn1
I0527 16:59:45.140468 19106 net.cpp:84] Creating Layer layer_512_2_bn1
I0527 16:59:45.140477 19106 net.cpp:406] layer_512_2_bn1 <- layer_512_1_sum_layer_512_1_sum_0_split_0
I0527 16:59:45.140489 19106 net.cpp:380] layer_512_2_bn1 -> layer_512_2_bn1
I0527 16:59:45.140683 19106 net.cpp:122] Setting up layer_512_2_bn1
I0527 16:59:45.140693 19106 net.cpp:129] Top shape: 50 512 7 7 (1254400)
I0527 16:59:45.140700 19106 net.cpp:137] Memory required for data: 2478694600
I0527 16:59:45.140715 19106 layer_factory.hpp:77] Creating layer layer_512_2_scale1
I0527 16:59:45.140741 19106 net.cpp:84] Creating Layer layer_512_2_scale1
I0527 16:59:45.140751 19106 net.cpp:406] layer_512_2_scale1 <- layer_512_2_bn1
I0527 16:59:45.140765 19106 net.cpp:367] layer_512_2_scale1 -> layer_512_2_bn1 (in-place)
I0527 16:59:45.140820 19106 layer_factory.hpp:77] Creating layer layer_512_2_scale1
I0527 16:59:45.140956 19106 net.cpp:122] Setting up layer_512_2_scale1
I0527 16:59:45.140966 19106 net.cpp:129] Top shape: 50 512 7 7 (1254400)
I0527 16:59:45.140972 19106 net.cpp:137] Memory required for data: 2483712200
I0527 16:59:45.140985 19106 layer_factory.hpp:77] Creating layer layer_512_2_relu1
I0527 16:59:45.140996 19106 net.cpp:84] Creating Layer layer_512_2_relu1
I0527 16:59:45.141005 19106 net.cpp:406] layer_512_2_relu1 <- layer_512_2_bn1
I0527 16:59:45.141016 19106 net.cpp:367] layer_512_2_relu1 -> layer_512_2_bn1 (in-place)
I0527 16:59:45.141178 19106 net.cpp:122] Setting up layer_512_2_relu1
I0527 16:59:45.141188 19106 net.cpp:129] Top shape: 50 512 7 7 (1254400)
I0527 16:59:45.141194 19106 net.cpp:137] Memory required for data: 2488729800
I0527 16:59:45.141202 19106 layer_factory.hpp:77] Creating layer layer_512_2_conv1
I0527 16:59:45.141219 19106 net.cpp:84] Creating Layer layer_512_2_conv1
I0527 16:59:45.141228 19106 net.cpp:406] layer_512_2_conv1 <- layer_512_2_bn1
I0527 16:59:45.141242 19106 net.cpp:380] layer_512_2_conv1 -> layer_512_2_conv1
I0527 16:59:45.169083 19106 net.cpp:122] Setting up layer_512_2_conv1
I0527 16:59:45.169122 19106 net.cpp:129] Top shape: 50 512 7 7 (1254400)
I0527 16:59:45.169127 19106 net.cpp:137] Memory required for data: 2493747400
I0527 16:59:45.169136 19106 layer_factory.hpp:77] Creating layer layer_512_2_bn2
I0527 16:59:45.169147 19106 net.cpp:84] Creating Layer layer_512_2_bn2
I0527 16:59:45.169154 19106 net.cpp:406] layer_512_2_bn2 <- layer_512_2_conv1
I0527 16:59:45.169167 19106 net.cpp:367] layer_512_2_bn2 -> layer_512_2_conv1 (in-place)
I0527 16:59:45.169374 19106 net.cpp:122] Setting up layer_512_2_bn2
I0527 16:59:45.169384 19106 net.cpp:129] Top shape: 50 512 7 7 (1254400)
I0527 16:59:45.169399 19106 net.cpp:137] Memory required for data: 2498765000
I0527 16:59:45.169406 19106 layer_factory.hpp:77] Creating layer layer_512_2_scale2
I0527 16:59:45.169414 19106 net.cpp:84] Creating Layer layer_512_2_scale2
I0527 16:59:45.169419 19106 net.cpp:406] layer_512_2_scale2 <- layer_512_2_conv1
I0527 16:59:45.169427 19106 net.cpp:367] layer_512_2_scale2 -> layer_512_2_conv1 (in-place)
I0527 16:59:45.169492 19106 layer_factory.hpp:77] Creating layer layer_512_2_scale2
I0527 16:59:45.169639 19106 net.cpp:122] Setting up layer_512_2_scale2
I0527 16:59:45.169649 19106 net.cpp:129] Top shape: 50 512 7 7 (1254400)
I0527 16:59:45.169652 19106 net.cpp:137] Memory required for data: 2503782600
I0527 16:59:45.169657 19106 layer_factory.hpp:77] Creating layer layer_512_2_relu2
I0527 16:59:45.169665 19106 net.cpp:84] Creating Layer layer_512_2_relu2
I0527 16:59:45.169669 19106 net.cpp:406] layer_512_2_relu2 <- layer_512_2_conv1
I0527 16:59:45.169673 19106 net.cpp:367] layer_512_2_relu2 -> layer_512_2_conv1 (in-place)
I0527 16:59:45.170336 19106 net.cpp:122] Setting up layer_512_2_relu2
I0527 16:59:45.170349 19106 net.cpp:129] Top shape: 50 512 7 7 (1254400)
I0527 16:59:45.170352 19106 net.cpp:137] Memory required for data: 2508800200
I0527 16:59:45.170356 19106 layer_factory.hpp:77] Creating layer layer_512_2_conv2
I0527 16:59:45.170367 19106 net.cpp:84] Creating Layer layer_512_2_conv2
I0527 16:59:45.170372 19106 net.cpp:406] layer_512_2_conv2 <- layer_512_2_conv1
I0527 16:59:45.170377 19106 net.cpp:380] layer_512_2_conv2 -> layer_512_2_conv2
I0527 16:59:45.196363 19106 net.cpp:122] Setting up layer_512_2_conv2
I0527 16:59:45.196394 19106 net.cpp:129] Top shape: 50 512 7 7 (1254400)
I0527 16:59:45.196398 19106 net.cpp:137] Memory required for data: 2513817800
I0527 16:59:45.196406 19106 layer_factory.hpp:77] Creating layer layer_512_2_sum
I0527 16:59:45.196418 19106 net.cpp:84] Creating Layer layer_512_2_sum
I0527 16:59:45.196460 19106 net.cpp:406] layer_512_2_sum <- layer_512_2_conv2
I0527 16:59:45.196470 19106 net.cpp:406] layer_512_2_sum <- layer_512_1_sum_layer_512_1_sum_0_split_1
I0527 16:59:45.196480 19106 net.cpp:380] layer_512_2_sum -> layer_512_2_sum
I0527 16:59:45.196537 19106 net.cpp:122] Setting up layer_512_2_sum
I0527 16:59:45.196549 19106 net.cpp:129] Top shape: 50 512 7 7 (1254400)
I0527 16:59:45.196555 19106 net.cpp:137] Memory required for data: 2518835400
I0527 16:59:45.196563 19106 layer_factory.hpp:77] Creating layer last_bn
I0527 16:59:45.196573 19106 net.cpp:84] Creating Layer last_bn
I0527 16:59:45.196590 19106 net.cpp:406] last_bn <- layer_512_2_sum
I0527 16:59:45.196601 19106 net.cpp:367] last_bn -> layer_512_2_sum (in-place)
I0527 16:59:45.196863 19106 net.cpp:122] Setting up last_bn
I0527 16:59:45.196877 19106 net.cpp:129] Top shape: 50 512 7 7 (1254400)
I0527 16:59:45.196893 19106 net.cpp:137] Memory required for data: 2523853000
I0527 16:59:45.196907 19106 layer_factory.hpp:77] Creating layer last_scale
I0527 16:59:45.196919 19106 net.cpp:84] Creating Layer last_scale
I0527 16:59:45.196934 19106 net.cpp:406] last_scale <- layer_512_2_sum
I0527 16:59:45.196943 19106 net.cpp:367] last_scale -> layer_512_2_sum (in-place)
I0527 16:59:45.197000 19106 layer_factory.hpp:77] Creating layer last_scale
I0527 16:59:45.197155 19106 net.cpp:122] Setting up last_scale
I0527 16:59:45.197167 19106 net.cpp:129] Top shape: 50 512 7 7 (1254400)
I0527 16:59:45.197172 19106 net.cpp:137] Memory required for data: 2528870600
I0527 16:59:45.197182 19106 layer_factory.hpp:77] Creating layer last_relu
I0527 16:59:45.197192 19106 net.cpp:84] Creating Layer last_relu
I0527 16:59:45.197198 19106 net.cpp:406] last_relu <- layer_512_2_sum
I0527 16:59:45.197206 19106 net.cpp:367] last_relu -> layer_512_2_sum (in-place)
I0527 16:59:45.198205 19106 net.cpp:122] Setting up last_relu
I0527 16:59:45.198223 19106 net.cpp:129] Top shape: 50 512 7 7 (1254400)
I0527 16:59:45.198230 19106 net.cpp:137] Memory required for data: 2533888200
I0527 16:59:45.198238 19106 layer_factory.hpp:77] Creating layer global_pool
I0527 16:59:45.198251 19106 net.cpp:84] Creating Layer global_pool
I0527 16:59:45.198258 19106 net.cpp:406] global_pool <- layer_512_2_sum
I0527 16:59:45.198271 19106 net.cpp:380] global_pool -> global_pool
I0527 16:59:45.198525 19106 net.cpp:122] Setting up global_pool
I0527 16:59:45.198540 19106 net.cpp:129] Top shape: 50 512 1 1 (25600)
I0527 16:59:45.198547 19106 net.cpp:137] Memory required for data: 2533990600
I0527 16:59:45.198554 19106 layer_factory.hpp:77] Creating layer score
I0527 16:59:45.198566 19106 net.cpp:84] Creating Layer score
I0527 16:59:45.198573 19106 net.cpp:406] score <- global_pool
I0527 16:59:45.198585 19106 net.cpp:380] score -> score
I0527 16:59:45.198736 19106 net.cpp:122] Setting up score
I0527 16:59:45.198748 19106 net.cpp:129] Top shape: 50 2 (100)
I0527 16:59:45.198755 19106 net.cpp:137] Memory required for data: 2533991000
I0527 16:59:45.198765 19106 layer_factory.hpp:77] Creating layer loss
I0527 16:59:45.198776 19106 net.cpp:84] Creating Layer loss
I0527 16:59:45.198784 19106 net.cpp:406] loss <- score
I0527 16:59:45.198791 19106 net.cpp:406] loss <- label
I0527 16:59:45.198802 19106 net.cpp:380] loss -> loss
I0527 16:59:45.198815 19106 layer_factory.hpp:77] Creating layer loss
…
I0527 16:59:45.200912 19106 net.cpp:51] Initializing net from parameters: 
name: "Pre-ResNet-18"
state {
  phase: TEST
}
layer {
  name: "data"
  type: "Data"
  top: "data"
  top: "label"
  include {
    phase: TEST
  }
  transform_param {
    mirror: false
    crop_size: 224
    mean_file: "/home/k/PycharmProjects/AgeGenderDeepLearning-master/Folds/lmdb/Test_fold_is_0/mean.binaryproto"
  }
  data_param {
    source: "/home/k/PycharmProjects/AgeGenderDeepLearning-master/Folds/lmdb/Test_fold_is_0/gender_val_lmdb"
    batch_size: 50
    backend: LMDB
  }
}
layer {
  name: "data_bn"
  type: "BatchNorm"
  bottom: "data"
  top: "data_bn"
  param {
    lr_mult: 0
    decay_mult: 0
  }
  param {
    lr_mult: 0
    decay_mult: 0
  }
  param {
    lr_mult: 0
    decay_mult: 0
  }
}
layer {
  name: "data_scale"
  type: "Scale"
  bottom: "data_bn"
  top: "data_bn"
  param {
    lr_mult: 1
    decay_mult: 1
  }
  param {
    lr_mult: 2
    decay_mult: 1
  }
  scale_param {
    bias_term: true
  }
}
layer {
  name: "conv1"
  type: "Convolution"
  bottom: "data_bn"
  top: "conv1"
  param {
    lr_mult: 1
    decay_mult: 1
  }
  param {
    lr_mult: 2
    decay_mult: 1
  }
  convolution_param {
    num_output: 64
    pad: 3
    kernel_size: 7
    stride: 2
    weight_filler {
      type: "msra"
      variance_norm: FAN_OUT
    }
    bias_filler {
      type: "constant"
      value: 0
    }
  }
}
layer {
  name: "conv1_bn"
  type: "BatchNorm"
  bottom: "conv1"
  top: "conv1"
  param {
    lr_mult: 0
    decay_mult: 0
  }
  param {
    lr_mult: 0
    decay_mult: 0
  }
  param {
    lr_mult: 0
    decay_mult: 0
  }
}
layer {
  name: "conv1_scale"
  type: "Scale"
  bottom: "conv1"
  top: "conv1"
  param {
    lr_mult: 1
    decay_mult: 1
  }
  param {
    lr_mult: 2
    decay_mult: 1
  }
  scale_param {
    bias_term: true
  }
}
layer {
  name: "conv1_relu"
  type: "ReLU"
  bottom: "conv1"
  top: "conv1"
}
layer {
  name: "conv1_pool"
  type: "Pooling"
  bottom: "conv1"
  top: "conv1_pool"
  pooling_param {
    kernel_size: 3
    stride: 2
  }
}
layer {
  name: "layer_64_1_conv1"
  type: "Convolution"
  bottom: "conv1_pool"
  top: "layer_64_1_conv1"
  param {
    lr_mult: 1
    decay_mult: 1
  }
  convolution_param {
    num_output: 64
    bias_term: false
    pad: 1
    kernel_size: 3
    stride: 1
    weight_filler {
      type: "msra"
    }
    bias_filler {
      type: "constant"
      value: 0
    }
  }
}
layer {
  name: "layer_64_1_bn2"
  type: "BatchNorm"
  bottom: "layer_64_1_conv1"
  top: "layer_64_1_conv1"
  param {
    lr_mult: 0
    decay_mult: 0
  }
  param {
    lr_mult: 0
    decay_mult: 0
  }
  param {
    lr_mult: 0
    decay_mult: 0
  }
}
layer {
  name: "layer_64_1_scale2"
  type: "Scale"
  bottom: "layer_64_1_conv1"
  top: "layer_64_1_conv1"
  param {
    lr_mult: 1
    decay_mult: 1
  }
  param {
    lr_mult: 2
    decay_mult: 1
  }
  scale_param {
    bias_term: true
  }
}
layer {
  name: "layer_64_1_relu2"
  type: "ReLU"
  bottom: "layer_64_1_conv1"
  top: "layer_64_1_conv1"
}
layer {
  name: "layer_64_1_conv2"
  type: "Convolution"
  bottom: "layer_64_1_conv1"
  top: "layer_64_1_conv2"
  param {
    lr_mult: 1
    decay_mult: 1
  }
  convolution_param {
    num_output: 64
    bias_term: false
    pad: 1
    kernel_size: 3
    stride: 1
    weight_filler {
      type: "msra"
    }
    bias_filler {
      type: "constant"
      value: 0
    }
  }
}
layer {
  name: "layer_64_1_sum"
  type: "Eltwise"
  bottom: "layer_64_1_conv2"
  bottom: "conv1_pool"
  top: "layer_64_1_sum"
}
layer {
  name: "layer_64_2_bn1"
  type: "BatchNorm"
  bottom: "layer_64_1_sum"
  top: "layer_64_2_bn1"
  param {
    lr_mult: 0
    decay_mult: 0
  }
  param {
    lr_mult: 0
    decay_mult: 0
  }
  param {
    lr_mult: 0
    decay_mult: 0
  }
}
layer {
  name: "layer_64_2_scale1"
  type: "Scale"
  bottom: "layer_64_2_bn1"
  top: "layer_64_2_bn1"
  param {
    lr_mult: 1
    decay_mult: 1
  }
  param {
    lr_mult: 2
    decay_mult: 1
  }
  scale_param {
    bias_term: true
  }
}
layer {
  name: "layer_64_2_relu1"
  type: "ReLU"
  bottom: "layer_64_2_bn1"
  top: "layer_64_2_bn1"
}
layer {
  name: "layer_64_2_conv1"
  type: "Convolution"
  bottom: "layer_64_2_bn1"
  top: "layer_64_2_conv1"
  param {
    lr_mult: 1
    decay_mult: 1
  }
  convolution_param {
    num_output: 64
    bias_term: false
    pad: 1
    kernel_size: 3
    stride: 1
    weight_filler {
      type: "msra"
    }
    bias_filler {
      type: "constant"
      value: 0
    }
  }
}
layer {
  name: "layer_64_2_bn2"
  type: "BatchNorm"
  bottom: "layer_64_2_conv1"
  top: "layer_64_2_conv1"
  param {
    lr_mult: 0
    decay_mult: 0
  }
  param {
    lr_mult: 0
    decay_mult: 0
  }
  param {
    lr_mult: 0
    decay_mult: 0
  }
}
layer {
  name: "layer_64_2_scale2"
  type: "Scale"
  bottom: "layer_64_2_conv1"
  top: "layer_64_2_conv1"
  param {
    lr_mult: 1
    decay_mult: 1
  }
  param {
    lr_mult: 2
    decay_mult: 1
  }
  scale_param {
    bias_term: true
  }
}
layer {
  name: "layer_64_2_relu2"
  type: "ReLU"
  bottom: "layer_64_2_conv1"
  top: "layer_64_2_conv1"
}
layer {
  name: "layer_64_2_conv2"
  type: "Convolution"
  bottom: "layer_64_2_conv1"
  top: "layer_64_2_conv2"
  param {
    lr_mult: 1
    decay_mult: 1
  }
  convolution_param {
    num_output: 64
    bias_term: false
    pad: 1
    kernel_size: 3
    stride: 1
    weight_filler {
      type: "msra"
    }
    bias_filler {
      type: "constant"
      value: 0
    }
  }
}
layer {
  name: "layer_64_2_sum"
  type: "Eltwise"
  bottom: "layer_64_2_conv2"
  bottom: "layer_64_1_sum"
  top: "layer_64_2_sum"
}
layer {
  name: "layer_128_1_bn1"
  type: "BatchNorm"
  bottom: "layer_64_2_sum"
  top: "layer_128_1_bn1"
  param {
    lr_mult: 0
    decay_mult: 0
  }
  param {
    lr_mult: 0
    decay_mult: 0
  }
  param {
    lr_mult: 0
    decay_mult: 0
  }
}
layer {
  name: "layer_128_1_scale1"
  type: "Scale"
  bottom: "layer_128_1_bn1"
  top: "layer_128_1_bn1"
  param {
    lr_mult: 1
    decay_mult: 1
  }
  param {
    lr_mult: 2
    decay_mult: 1
  }
  scale_param {
    bias_term: true
  }
}
layer {
  name: "layer_128_1_relu1"
  type: "ReLU"
  bottom: "layer_128_1_bn1"
  top: "layer_128_1_bn1"
}
layer {
  name: "layer_128_1_conv1"
  type: "Convolution"
  bottom: "layer_128_1_bn1"
  top: "layer_128_1_conv1"
  param {
    lr_mult: 1
    decay_mult: 1
  }
  convolution_param {
    num_output: 128
    bias_term: false
    pad: 1
    kernel_size: 3
    stride: 2
    weight_filler {
      type: "msra"
    }
    bias_filler {
      type: "constant"
      value: 0
    }
  }
}
layer {
  name: "layer_128_1_bn2"
  type: "BatchNorm"
  bottom: "layer_128_1_conv1"
  top: "layer_128_1_conv1"
  param {
    lr_mult: 0
    decay_mult: 0
  }
  param {
    lr_mult: 0
    decay_mult: 0
  }
  param {
    lr_mult: 0
    decay_mult: 0
  }
}
layer {
  name: "layer_128_1_scale2"
  type: "Scale"
  bottom: "layer_128_1_conv1"
  top: "layer_128_1_conv1"
  param {
    lr_mult: 1
    decay_mult: 1
  }
  param {
    lr_mult: 2
    decay_mult: 1
  }
  scale_param {
    bias_term: true
  }
}
layer {
  name: "layer_128_1_relu2"
  type: "ReLU"
  bottom: "layer_128_1_conv1"
  top: "layer_128_1_conv1"
}
layer {
  name: "layer_128_1_conv2"
  type: "Convolution"
  bottom: "layer_128_1_conv1"
  top: "layer_128_1_conv2"
  param {
    lr_mult: 1
    decay_mult: 1
  }
  convolution_param {
    num_output: 128
    bias_term: false
    pad: 1
    kernel_size: 3
    stride: 1
    weight_filler {
      type: "msra"
    }
    bias_filler {
      type: "constant"
      value: 0
    }
  }
}
layer {
  name: "layer_128_1_conv_expand"
  type: "Convolution"
  bottom: "layer_128_1_bn1"
  top: "layer_128_1_conv_expand"
  param {
    lr_mult: 1
    decay_mult: 1
  }
  convolution_param {
    num_output: 128
    bias_term: false
    pad: 0
    kernel_size: 1
    stride: 2
    weight_filler {
      type: "msra"
    }
    bias_filler {
      type: "constant"
      value: 0
    }
  }
}
layer {
  name: "layer_128_1_sum"
  type: "Eltwise"
  bottom: "layer_128_1_conv_expand"
  bottom: "layer_128_1_conv2"
  top: "layer_128_1_sum"
}
layer {
  name: "layer_128_2_bn1"
  type: "BatchNorm"
  bottom: "layer_128_1_sum"
  top: "layer_128_2_bn1"
  param {
    lr_mult: 0
    decay_mult: 0
  }
  param {
    lr_mult: 0
    decay_mult: 0
  }
  param {
    lr_mult: 0
    decay_mult: 0
  }
}
layer {
  name: "layer_128_2_scale1"
  type: "Scale"
  bottom: "layer_128_2_bn1"
  top: "layer_128_2_bn1"
  param {
    lr_mult: 1
    decay_mult: 1
  }
  param {
    lr_mult: 2
    decay_mult: 1
  }
  scale_param {
    bias_term: true
  }
}
layer {
  name: "layer_128_2_relu1"
  type: "ReLU"
  bottom: "layer_128_2_bn1"
  top: "layer_128_2_bn1"
}
layer {
  name: "layer_128_2_conv1"
  type: "Convolution"
  bottom: "layer_128_2_bn1"
  top: "layer_128_2_conv1"
  param {
    lr_mult: 1
    decay_mult: 1
  }
  convolution_param {
    num_output: 128
    bias_term: false
    pad: 1
    kernel_size: 3
    stride: 1
    weight_filler {
      type: "msra"
    }
    bias_filler {
      type: "constant"
      value: 0
    }
  }
}
layer {
  name: "layer_128_2_bn2"
  type: "BatchNorm"
  bottom: "layer_128_2_conv1"
  top: "layer_128_2_conv1"
  param {
    lr_mult: 0
    decay_mult: 0
  }
  param {
    lr_mult: 0
    decay_mult: 0
  }
  param {
    lr_mult: 0
    decay_mult: 0
  }
}
layer {
  name: "layer_128_2_scale2"
  type: "Scale"
  bottom: "layer_128_2_conv1"
  top: "layer_128_2_conv1"
  param {
    lr_mult: 1
    decay_mult: 1
  }
  param {
    lr_mult: 2
    decay_mult: 1
  }
  scale_param {
    bias_term: true
  }
}
layer {
  name: "layer_128_2_relu2"
  type: "ReLU"
  bottom: "layer_128_2_conv1"
  top: "layer_128_2_conv1"
}
layer {
  name: "layer_128_2_conv2"
  type: "Convolution"
  bottom: "layer_128_2_conv1"
  top: "layer_128_2_conv2"
  param {
    lr_mult: 1
    decay_mult: 1
  }
  convolution_param {
    num_output: 128
    bias_term: false
    pad: 1
    kernel_size: 3
    stride: 1
    weight_filler {
      type: "msra"
    }
    bias_filler {
      type: "constant"
      value: 0
    }
  }
}
layer {
  name: "layer_128_2_sum"
  type: "Eltwise"
  bottom: "layer_128_2_conv2"
  bottom: "layer_128_1_sum"
  top: "layer_128_2_sum"
}
layer {
  name: "layer_256_1_bn1"
  type: "BatchNorm"
  bottom: "layer_128_2_sum"
  top: "layer_256_1_bn1"
  param {
    lr_mult: 0
    decay_mult: 0
  }
  param {
    lr_mult: 0
    decay_mult: 0
  }
  param {
    lr_mult: 0
    decay_mult: 0
  }
}
layer {
  name: "layer_256_1_scale1"
  type: "Scale"
  bottom: "layer_256_1_bn1"
  top: "layer_256_1_bn1"
  param {
    lr_mult: 1
    decay_mult: 1
  }
  param {
    lr_mult: 2
    decay_mult: 1
  }
  scale_param {
    bias_term: true
  }
}
layer {
  name: "layer_256_1_relu1"
  type: "ReLU"
  bottom: "layer_256_1_bn1"
  top: "layer_256_1_bn1"
}
layer {
  name: "layer_256_1_conv1"
  type: "Convolution"
  bottom: "layer_256_1_bn1"
  top: "layer_256_1_conv1"
  param {
    lr_mult: 1
    decay_mult: 1
  }
  convolution_param {
    num_output: 256
    bias_term: false
    pad: 1
    kernel_size: 3
    stride: 2
    weight_filler {
      type: "msra"
    }
    bias_filler {
      type: "constant"
      value: 0
    }
  }
}
layer {
  name: "layer_256_1_bn2"
  type: "BatchNorm"
  bottom: "layer_256_1_conv1"
  top: "layer_256_1_conv1"
  param {
    lr_mult: 0
    decay_mult: 0
  }
  param {
    lr_mult: 0
    decay_mult: 0
  }
  param {
    lr_mult: 0
    decay_mult: 0
  }
}
layer {
  name: "layer_256_1_scale2"
  type: "Scale"
  bottom: "layer_256_1_conv1"
  top: "layer_256_1_conv1"
  param {
    lr_mult: 1
    decay_mult: 1
  }
  param {
    lr_mult: 2
    decay_mult: 1
  }
  scale_param {
    bias_term: true
  }
}
layer {
  name: "layer_256_1_relu2"
  type: "ReLU"
  bottom: "layer_256_1_conv1"
  top: "layer_256_1_conv1"
}
layer {
  name: "layer_256_1_conv2"
  type: "Convolution"
  bottom: "layer_256_1_conv1"
  top: "layer_256_1_conv2"
  param {
    lr_mult: 1
    decay_mult: 1
  }
  convolution_param {
    num_output: 256
    bias_term: false
    pad: 1
    kernel_size: 3
    stride: 1
    weight_filler {
      type: "msra"
    }
    bias_filler {
      type: "constant"
      value: 0
    }
  }
}
layer {
  name: "layer_256_1_conv_expand"
  type: "Convolution"
  bottom: "layer_256_1_bn1"
  top: "layer_256_1_conv_expand"
  param {
    lr_mult: 1
    decay_mult: 1
  }
  convolution_param {
    num_output: 256
    bias_term: false
    pad: 0
    kernel_size: 1
    stride: 2
    weight_filler {
      type: "msra"
    }
    bias_filler {
      type: "constant"
      value: 0
    }
  }
}
layer {
  name: "layer_256_1_sum"
  type: "Eltwise"
  bottom: "layer_256_1_conv_expand"
  bottom: "layer_256_1_conv2"
  top: "layer_256_1_sum"
}
layer {
  name: "layer_256_2_bn1"
  type: "BatchNorm"
  bottom: "layer_256_1_sum"
  top: "layer_256_2_bn1"
  param {
    lr_mult: 0
    decay_mult: 0
  }
  param {
    lr_mult: 0
    decay_mult: 0
  }
  param {
    lr_mult: 0
    decay_mult: 0
  }
}
layer {
  name: "layer_256_2_scale1"
  type: "Scale"
  bottom: "layer_256_2_bn1"
  top: "layer_256_2_bn1"
  param {
    lr_mult: 1
    decay_mult: 1
  }
  param {
    lr_mult: 2
    decay_mult: 1
  }
  scale_param {
    bias_term: true
  }
}
layer {
  name: "layer_256_2_relu1"
  type: "ReLU"
  bottom: "layer_256_2_bn1"
  top: "layer_256_2_bn1"
}
layer {
  name: "layer_256_2_conv1"
  type: "Convolution"
  bottom: "layer_256_2_bn1"
  top: "layer_256_2_conv1"
  param {
    lr_mult: 1
    decay_mult: 1
  }
  convolution_param {
    num_output: 256
    bias_term: false
    pad: 1
    kernel_size: 3
    stride: 1
    weight_filler {
      type: "msra"
    }
    bias_filler {
      type: "constant"
      value: 0
    }
  }
}
layer {
  name: "layer_256_2_bn2"
  type: "BatchNorm"
  bottom: "layer_256_2_conv1"
  top: "layer_256_2_conv1"
  param {
    lr_mult: 0
    decay_mult: 0
  }
  param {
    lr_mult: 0
    decay_mult: 0
  }
  param {
    lr_mult: 0
    decay_mult: 0
  }
}
layer {
  name: "layer_256_2_scale2"
  type: "Scale"
  bottom: "layer_256_2_conv1"
  top: "layer_256_2_conv1"
  param {
    lr_mult: 1
    decay_mult: 1
  }
  param {
    lr_mult: 2
    decay_mult: 1
  }
  scale_param {
    bias_term: true
  }
}
layer {
  name: "layer_256_2_relu2"
  type: "ReLU"
  bottom: "layer_256_2_conv1"
  top: "layer_256_2_conv1"
}
layer {
  name: "layer_256_2_conv2"
  type: "Convolution"
  bottom: "layer_256_2_conv1"
  top: "layer_256_2_conv2"
  param {
    lr_mult: 1
    decay_mult: 1
  }
  convolution_param {
    num_output: 256
    bias_term: false
    pad: 1
    kernel_size: 3
    stride: 1
    weight_filler {
      type: "msra"
    }
    bias_filler {
      type: "constant"
      value: 0
    }
  }
}
layer {
  name: "layer_256_2_sum"
  type: "Eltwise"
  bottom: "layer_256_2_conv2"
  bottom: "layer_256_1_sum"
  top: "layer_256_2_sum"
}
layer {
  name: "layer_512_1_bn1"
  type: "BatchNorm"
  bottom: "layer_256_2_sum"
  top: "layer_512_1_bn1"
  param {
    lr_mult: 0
    decay_mult: 0
  }
  param {
    lr_mult: 0
    decay_mult: 0
  }
  param {
    lr_mult: 0
    decay_mult: 0
  }
}
layer {
  name: "layer_512_1_scale1"
  type: "Scale"
  bottom: "layer_512_1_bn1"
  top: "layer_512_1_bn1"
  param {
    lr_mult: 1
    decay_mult: 1
  }
  param {
    lr_mult: 2
    decay_mult: 1
  }
  scale_param {
    bias_term: true
  }
}
layer {
  name: "layer_512_1_relu1"
  type: "ReLU"
  bottom: "layer_512_1_bn1"
  top: "layer_512_1_bn1"
}
layer {
  name: "layer_512_1_conv1"
  type: "Convolution"
  bottom: "layer_512_1_bn1"
  top: "layer_512_1_conv1"
  param {
    lr_mult: 1
    decay_mult: 1
  }
  convolution_param {
    num_output: 512
    bias_term: false
    pad: 1
    kernel_size: 3
    stride: 2
    weight_filler {
      type: "msra"
    }
    bias_filler {
      type: "constant"
      value: 0
    }
  }
}
layer {
  name: "layer_512_1_bn2"
  type: "BatchNorm"
  bottom: "layer_512_1_conv1"
  top: "layer_512_1_conv1"
  param {
    lr_mult: 0
    decay_mult: 0
  }
  param {
    lr_mult: 0
    decay_mult: 0
  }
  param {
    lr_mult: 0
    decay_mult: 0
  }
}
layer {
  name: "layer_512_1_scale2"
  type: "Scale"
  bottom: "layer_512_1_conv1"
  top: "layer_512_1_conv1"
  param {
    lr_mult: 1
    decay_mult: 1
  }
  param {
    lr_mult: 2
    decay_mult: 1
  }
  scale_param {
    bias_term: true
  }
}
layer {
  name: "layer_512_1_relu2"
  type: "ReLU"
  bottom: "layer_512_1_conv1"
  top: "layer_512_1_conv1"
}
layer {
  name: "layer_512_1_conv2"
  type: "Convolution"
  bottom: "layer_512_1_conv1"
  top: "layer_512_1_conv2"
  param {
    lr_mult: 1
    decay_mult: 1
  }
  convolution_param {
    num_output: 512
    bias_term: false
    pad: 1
    kernel_size: 3
    stride: 1
    weight_filler {
      type: "msra"
    }
    bias_filler {
      type: "constant"
      value: 0
    }
  }
}
layer {
  name: "layer_512_1_conv_expand"
  type: "Convolution"
  bottom: "layer_512_1_bn1"
  top: "layer_512_1_conv_expand"
  param {
    lr_mult: 1
    decay_mult: 1
  }
  convolution_param {
    num_output: 512
    bias_term: false
    pad: 0
    kernel_size: 1
    stride: 2
    weight_filler {
      type: "msra"
    }
    bias_filler {
      type: "constant"
      value: 0
    }
  }
}
layer {
  name: "layer_512_1_sum"
  type: "Eltwise"
  bottom: "layer_512_1_conv_expand"
  bottom: "layer_512_1_conv2"
  top: "layer_512_1_sum"
}
layer {
  name: "layer_512_2_bn1"
  type: "BatchNorm"
  bottom: "layer_512_1_sum"
  top: "layer_512_2_bn1"
  param {
    lr_mult: 0
    decay_mult: 0
  }
  param {
    lr_mult: 0
    decay_mult: 0
  }
  param {
    lr_mult: 0
    decay_mult: 0
  }
}
layer {
  name: "layer_512_2_scale1"
  type: "Scale"
  bottom: "layer_512_2_bn1"
  top: "layer_512_2_bn1"
  param {
    lr_mult: 1
    decay_mult: 1
  }
  param {
    lr_mult: 2
    decay_mult: 1
  }
  scale_param {
    bias_term: true
  }
}
layer {
  name: "layer_512_2_relu1"
  type: "ReLU"
  bottom: "layer_512_2_bn1"
  top: "layer_512_2_bn1"
}
layer {
  name: "layer_512_2_conv1"
  type: "Convolution"
  bottom: "layer_512_2_bn1"
  top: "layer_512_2_conv1"
  param {
    lr_mult: 1
    decay_mult: 1
  }
  convolution_param {
    num_output: 512
    bias_term: false
    pad: 1
    kernel_size: 3
    stride: 1
    weight_filler {
      type: "msra"
    }
    bias_filler {
      type: "constant"
      value: 0
    }
  }
}
layer {
  name: "layer_512_2_bn2"
  type: "BatchNorm"
  bottom: "layer_512_2_conv1"
  top: "layer_512_2_conv1"
  param {
    lr_mult: 0
    decay_mult: 0
  }
  param {
    lr_mult: 0
    decay_mult: 0
  }
  param {
    lr_mult: 0
    decay_mult: 0
  }
}
layer {
  name: "layer_512_2_scale2"
  type: "Scale"
  bottom: "layer_512_2_conv1"
  top: "layer_512_2_conv1"
  param {
    lr_mult: 1
    decay_mult: 1
  }
  param {
    lr_mult: 2
    decay_mult: 1
  }
  scale_param {
    bias_term: true
  }
}
layer {
  name: "layer_512_2_relu2"
  type: "ReLU"
  bottom: "layer_512_2_conv1"
  top: "layer_512_2_conv1"
}
layer {
  name: "layer_512_2_conv2"
  type: "Convolution"
  bottom: "layer_512_2_conv1"
  top: "layer_512_2_conv2"
  param {
    lr_mult: 1
    decay_mult: 1
  }
  convolution_param {
    num_output: 512
    bias_term: false
    pad: 1
    kernel_size: 3
    stride: 1
    weight_filler {
      type: "msra"
    }
    bias_filler {
      type: "constant"
      value: 0
    }
  }
}
layer {
  name: "layer_512_2_sum"
  type: "Eltwise"
  bottom: "layer_512_2_conv2"
  bottom: "layer_512_1_sum"
  top: "layer_512_2_sum"
}
layer {
  name: "last_bn"
  type: "BatchNorm"
  bottom: "layer_512_2_sum"
  top: "layer_512_2_sum"
  param {
    lr_mult: 0
    decay_mult: 0
  }
  param {
    lr_mult: 0
    decay_mult: 0
  }
  param {
    lr_mult: 0
    decay_mult: 0
  }
}
layer {
  name: "last_scale"
  type: "Scale"
  bottom: "layer_512_2_sum"
  top: "layer_512_2_sum"
  param {
    lr_mult: 1
    decay_mult: 1
  }
  param {
    lr_mult: 2
    decay_mult: 1
  }
  scale_param {
    bias_term: true
  }
}
layer {
  name: "last_relu"
  type: "ReLU"
  bottom: "layer_512_2_sum"
  top: "layer_512_2_sum"
}
layer {
  name: "global_pool"
  type: "Pooling"
  bottom: "layer_512_2_sum"
  top: "global_pool"
  pooling_param {
    pool: AVE
    global_pooling: true
  }
}
layer {
  name: "score"
  type: "InnerProduct"
  bottom: "global_pool"
  top: "score"
  param {
    lr_mult: 1
    decay_mult: 1
  }
  param {
    lr_mult: 2
    decay_mult: 1
  }
  inner_product_param {
    num_output: 2
  }
}
layer {
  name: "loss"
  type: "SoftmaxWithLoss"
  bottom: "score"
  bottom: "label"
  top: "loss"
}
layer {
  name: "accuracy"
  type: "Accuracy"
  bottom: "score"
  bottom: "label"
  top: "accuracy"
  include {
    phase: TEST
  }
}
I0527 16:59:45.201323 19106 layer_factory.hpp:77] Creating layer data
I0527 16:59:45.253514 19106 db_lmdb.cpp:35] Opened lmdb /home/k/PycharmProjects/AgeGenderDeepLearning-master/Folds/lmdb/Test_fold_is_0/gender_val_lmdb
I0527 16:59:45.261446 19106 net.cpp:84] Creating Layer data
I0527 16:59:45.261479 19106 net.cpp:380] data -> data
I0527 16:59:45.261497 19106 net.cpp:380] data -> label
I0527 16:59:45.261508 19106 data_transformer.cpp:25] Loading mean file from: /home/k/PycharmProjects/AgeGenderDeepLearning-master/Folds/lmdb/Test_fold_is_0/mean.binaryproto
I0527 16:59:45.264012 19106 data_layer.cpp:45] output data size: 50,3,224,224
I0527 16:59:45.338641 19106 net.cpp:122] Setting up data
I0527 16:59:45.338688 19106 net.cpp:129] Top shape: 50 3 224 224 (7526400)
I0527 16:59:45.338696 19106 net.cpp:129] Top shape: 50 (50)
I0527 16:59:45.338701 19106 net.cpp:137] Memory required for data: 30105800
I0527 16:59:45.338711 19106 layer_factory.hpp:77] Creating layer label_data_1_split
I0527 16:59:45.338726 19106 net.cpp:84] Creating Layer label_data_1_split
I0527 16:59:45.338732 19106 net.cpp:406] label_data_1_split <- label
I0527 16:59:45.338742 19106 net.cpp:380] label_data_1_split -> label_data_1_split_0
I0527 16:59:45.338757 19106 net.cpp:380] label_data_1_split -> label_data_1_split_1
I0527 16:59:45.338838 19106 net.cpp:122] Setting up label_data_1_split
I0527 16:59:45.338850 19106 net.cpp:129] Top shape: 50 (50)
I0527 16:59:45.338855 19106 net.cpp:129] Top shape: 50 (50)
I0527 16:59:45.338860 19106 net.cpp:137] Memory required for data: 30106200
I0527 16:59:45.338865 19106 layer_factory.hpp:77] Creating layer data_bn
I0527 16:59:45.338886 19106 net.cpp:84] Creating Layer data_bn
I0527 16:59:45.338891 19106 net.cpp:406] data_bn <- data
I0527 16:59:45.338897 19106 net.cpp:380] data_bn -> data_bn
I0527 16:59:45.339237 19106 net.cpp:122] Setting up data_bn
I0527 16:59:45.339249 19106 net.cpp:129] Top shape: 50 3 224 224 (7526400)
I0527 16:59:45.339264 19106 net.cpp:137] Memory required for data: 60211800
I0527 16:59:45.339282 19106 layer_factory.hpp:77] Creating layer data_scale
I0527 16:59:45.339292 19106 net.cpp:84] Creating Layer data_scale
I0527 16:59:45.339298 19106 net.cpp:406] data_scale <- data_bn
I0527 16:59:45.339305 19106 net.cpp:367] data_scale -> data_bn (in-place)
I0527 16:59:45.339372 19106 layer_factory.hpp:77] Creating layer data_scale
I0527 16:59:45.339678 19106 net.cpp:122] Setting up data_scale
I0527 16:59:45.339700 19106 net.cpp:129] Top shape: 50 3 224 224 (7526400)
I0527 16:59:45.339705 19106 net.cpp:137] Memory required for data: 90317400
I0527 16:59:45.339717 19106 layer_factory.hpp:77] Creating layer conv1
I0527 16:59:45.339732 19106 net.cpp:84] Creating Layer conv1
I0527 16:59:45.339738 19106 net.cpp:406] conv1 <- data_bn
I0527 16:59:45.339747 19106 net.cpp:380] conv1 -> conv1
I0527 16:59:45.346483 19106 net.cpp:122] Setting up conv1
I0527 16:59:45.346501 19106 net.cpp:129] Top shape: 50 64 112 112 (40140800)
I0527 16:59:45.346506 19106 net.cpp:137] Memory required for data: 250880600
I0527 16:59:45.346516 19106 layer_factory.hpp:77] Creating layer conv1_bn
I0527 16:59:45.346525 19106 net.cpp:84] Creating Layer conv1_bn
I0527 16:59:45.346530 19106 net.cpp:406] conv1_bn <- conv1
I0527 16:59:45.346539 19106 net.cpp:367] conv1_bn -> conv1 (in-place)
I0527 16:59:45.346830 19106 net.cpp:122] Setting up conv1_bn
I0527 16:59:45.346844 19106 net.cpp:129] Top shape: 50 64 112 112 (40140800)
I0527 16:59:45.346851 19106 net.cpp:137] Memory required for data: 411443800
I0527 16:59:45.346868 19106 layer_factory.hpp:77] Creating layer conv1_scale
I0527 16:59:45.346879 19106 net.cpp:84] Creating Layer conv1_scale
I0527 16:59:45.346885 19106 net.cpp:406] conv1_scale <- conv1
I0527 16:59:45.346915 19106 net.cpp:367] conv1_scale -> conv1 (in-place)
I0527 16:59:45.346998 19106 layer_factory.hpp:77] Creating layer conv1_scale
I0527 16:59:45.347226 19106 net.cpp:122] Setting up conv1_scale
I0527 16:59:45.347240 19106 net.cpp:129] Top shape: 50 64 112 112 (40140800)
I0527 16:59:45.347247 19106 net.cpp:137] Memory required for data: 572007000
I0527 16:59:45.347259 19106 layer_factory.hpp:77] Creating layer conv1_relu
I0527 16:59:45.347268 19106 net.cpp:84] Creating Layer conv1_relu
I0527 16:59:45.347275 19106 net.cpp:406] conv1_relu <- conv1
I0527 16:59:45.347282 19106 net.cpp:367] conv1_relu -> conv1 (in-place)
I0527 16:59:45.347559 19106 net.cpp:122] Setting up conv1_relu
I0527 16:59:45.347575 19106 net.cpp:129] Top shape: 50 64 112 112 (40140800)
I0527 16:59:45.347581 19106 net.cpp:137] Memory required for data: 732570200
I0527 16:59:45.347587 19106 layer_factory.hpp:77] Creating layer conv1_pool
I0527 16:59:45.347600 19106 net.cpp:84] Creating Layer conv1_pool
I0527 16:59:45.347609 19106 net.cpp:406] conv1_pool <- conv1
I0527 16:59:45.347617 19106 net.cpp:380] conv1_pool -> conv1_pool
I0527 16:59:45.347688 19106 net.cpp:122] Setting up conv1_pool
I0527 16:59:45.347700 19106 net.cpp:129] Top shape: 50 64 56 56 (10035200)
I0527 16:59:45.347718 19106 net.cpp:137] Memory required for data: 772711000
I0527 16:59:45.347725 19106 layer_factory.hpp:77] Creating layer conv1_pool_conv1_pool_0_split
I0527 16:59:45.347734 19106 net.cpp:84] Creating Layer conv1_pool_conv1_pool_0_split
I0527 16:59:45.347743 19106 net.cpp:406] conv1_pool_conv1_pool_0_split <- conv1_pool
I0527 16:59:45.347751 19106 net.cpp:380] conv1_pool_conv1_pool_0_split -> conv1_pool_conv1_pool_0_split_0
I0527 16:59:45.347774 19106 net.cpp:380] conv1_pool_conv1_pool_0_split -> conv1_pool_conv1_pool_0_split_1
I0527 16:59:45.347839 19106 net.cpp:122] Setting up conv1_pool_conv1_pool_0_split
I0527 16:59:45.347852 19106 net.cpp:129] Top shape: 50 64 56 56 (10035200)
I0527 16:59:45.347862 19106 net.cpp:129] Top shape: 50 64 56 56 (10035200)
I0527 16:59:45.347870 19106 net.cpp:137] Memory required for data: 852992600
I0527 16:59:45.347877 19106 layer_factory.hpp:77] Creating layer layer_64_1_conv1
I0527 16:59:45.347890 19106 net.cpp:84] Creating Layer layer_64_1_conv1
I0527 16:59:45.347909 19106 net.cpp:406] layer_64_1_conv1 <- conv1_pool_conv1_pool_0_split_0
I0527 16:59:45.347918 19106 net.cpp:380] layer_64_1_conv1 -> layer_64_1_conv1
I0527 16:59:45.350455 19106 net.cpp:122] Setting up layer_64_1_conv1
I0527 16:59:45.350486 19106 net.cpp:129] Top shape: 50 64 56 56 (10035200)
I0527 16:59:45.350492 19106 net.cpp:137] Memory required for data: 893133400
I0527 16:59:45.350502 19106 layer_factory.hpp:77] Creating layer layer_64_1_bn2
I0527 16:59:45.350515 19106 net.cpp:84] Creating Layer layer_64_1_bn2
I0527 16:59:45.350522 19106 net.cpp:406] layer_64_1_bn2 <- layer_64_1_conv1
I0527 16:59:45.350534 19106 net.cpp:367] layer_64_1_bn2 -> layer_64_1_conv1 (in-place)
I0527 16:59:45.350879 19106 net.cpp:122] Setting up layer_64_1_bn2
I0527 16:59:45.350894 19106 net.cpp:129] Top shape: 50 64 56 56 (10035200)
I0527 16:59:45.350900 19106 net.cpp:137] Memory required for data: 933274200
I0527 16:59:45.350914 19106 layer_factory.hpp:77] Creating layer layer_64_1_scale2
I0527 16:59:45.350924 19106 net.cpp:84] Creating Layer layer_64_1_scale2
I0527 16:59:45.350929 19106 net.cpp:406] layer_64_1_scale2 <- layer_64_1_conv1
I0527 16:59:45.350939 19106 net.cpp:367] layer_64_1_scale2 -> layer_64_1_conv1 (in-place)
I0527 16:59:45.351022 19106 layer_factory.hpp:77] Creating layer layer_64_1_scale2
I0527 16:59:45.351224 19106 net.cpp:122] Setting up layer_64_1_scale2
I0527 16:59:45.351238 19106 net.cpp:129] Top shape: 50 64 56 56 (10035200)
I0527 16:59:45.351243 19106 net.cpp:137] Memory required for data: 973415000
I0527 16:59:45.351256 19106 layer_factory.hpp:77] Creating layer layer_64_1_relu2
I0527 16:59:45.351265 19106 net.cpp:84] Creating Layer layer_64_1_relu2
I0527 16:59:45.351270 19106 net.cpp:406] layer_64_1_relu2 <- layer_64_1_conv1
I0527 16:59:45.351294 19106 net.cpp:367] layer_64_1_relu2 -> layer_64_1_conv1 (in-place)
I0527 16:59:45.352330 19106 net.cpp:122] Setting up layer_64_1_relu2
I0527 16:59:45.352346 19106 net.cpp:129] Top shape: 50 64 56 56 (10035200)
I0527 16:59:45.352351 19106 net.cpp:137] Memory required for data: 1013555800
I0527 16:59:45.352357 19106 layer_factory.hpp:77] Creating layer layer_64_1_conv2
I0527 16:59:45.352370 19106 net.cpp:84] Creating Layer layer_64_1_conv2
I0527 16:59:45.352376 19106 net.cpp:406] layer_64_1_conv2 <- layer_64_1_conv1
I0527 16:59:45.352386 19106 net.cpp:380] layer_64_1_conv2 -> layer_64_1_conv2
I0527 16:59:45.356065 19106 net.cpp:122] Setting up layer_64_1_conv2
I0527 16:59:45.356092 19106 net.cpp:129] Top shape: 50 64 56 56 (10035200)
I0527 16:59:45.356099 19106 net.cpp:137] Memory required for data: 1053696600
I0527 16:59:45.356120 19106 layer_factory.hpp:77] Creating layer layer_64_1_sum
I0527 16:59:45.356132 19106 net.cpp:84] Creating Layer layer_64_1_sum
I0527 16:59:45.356140 19106 net.cpp:406] layer_64_1_sum <- layer_64_1_conv2
I0527 16:59:45.356150 19106 net.cpp:406] layer_64_1_sum <- conv1_pool_conv1_pool_0_split_1
I0527 16:59:45.356160 19106 net.cpp:380] layer_64_1_sum -> layer_64_1_sum
I0527 16:59:45.356212 19106 net.cpp:122] Setting up layer_64_1_sum
I0527 16:59:45.356225 19106 net.cpp:129] Top shape: 50 64 56 56 (10035200)
I0527 16:59:45.356241 19106 net.cpp:137] Memory required for data: 1093837400
I0527 16:59:45.356248 19106 layer_factory.hpp:77] Creating layer layer_64_1_sum_layer_64_1_sum_0_split
I0527 16:59:45.356263 19106 net.cpp:84] Creating Layer layer_64_1_sum_layer_64_1_sum_0_split
I0527 16:59:45.356271 19106 net.cpp:406] layer_64_1_sum_layer_64_1_sum_0_split <- layer_64_1_sum
I0527 16:59:45.356281 19106 net.cpp:380] layer_64_1_sum_layer_64_1_sum_0_split -> layer_64_1_sum_layer_64_1_sum_0_split_0
I0527 16:59:45.356302 19106 net.cpp:380] layer_64_1_sum_layer_64_1_sum_0_split -> layer_64_1_sum_layer_64_1_sum_0_split_1
I0527 16:59:45.356354 19106 net.cpp:122] Setting up layer_64_1_sum_layer_64_1_sum_0_split
I0527 16:59:45.356365 19106 net.cpp:129] Top shape: 50 64 56 56 (10035200)
I0527 16:59:45.356374 19106 net.cpp:129] Top shape: 50 64 56 56 (10035200)
I0527 16:59:45.356391 19106 net.cpp:137] Memory required for data: 1174119000
I0527 16:59:45.356398 19106 layer_factory.hpp:77] Creating layer layer_64_2_bn1
I0527 16:59:45.356408 19106 net.cpp:84] Creating Layer layer_64_2_bn1
I0527 16:59:45.356415 19106 net.cpp:406] layer_64_2_bn1 <- layer_64_1_sum_layer_64_1_sum_0_split_0
I0527 16:59:45.356425 19106 net.cpp:380] layer_64_2_bn1 -> layer_64_2_bn1
I0527 16:59:45.356727 19106 net.cpp:122] Setting up layer_64_2_bn1
I0527 16:59:45.356739 19106 net.cpp:129] Top shape: 50 64 56 56 (10035200)
I0527 16:59:45.356745 19106 net.cpp:137] Memory required for data: 1214259800
I0527 16:59:45.356758 19106 layer_factory.hpp:77] Creating layer layer_64_2_scale1
I0527 16:59:45.356770 19106 net.cpp:84] Creating Layer layer_64_2_scale1
I0527 16:59:45.356777 19106 net.cpp:406] layer_64_2_scale1 <- layer_64_2_bn1
I0527 16:59:45.356786 19106 net.cpp:367] layer_64_2_scale1 -> layer_64_2_bn1 (in-place)
I0527 16:59:45.356863 19106 layer_factory.hpp:77] Creating layer layer_64_2_scale1
I0527 16:59:45.357051 19106 net.cpp:122] Setting up layer_64_2_scale1
I0527 16:59:45.357064 19106 net.cpp:129] Top shape: 50 64 56 56 (10035200)
I0527 16:59:45.357069 19106 net.cpp:137] Memory required for data: 1254400600
I0527 16:59:45.357079 19106 layer_factory.hpp:77] Creating layer layer_64_2_relu1
I0527 16:59:45.357089 19106 net.cpp:84] Creating Layer layer_64_2_relu1
I0527 16:59:45.357096 19106 net.cpp:406] layer_64_2_relu1 <- layer_64_2_bn1
I0527 16:59:45.357105 19106 net.cpp:367] layer_64_2_relu1 -> layer_64_2_bn1 (in-place)
I0527 16:59:45.357326 19106 net.cpp:122] Setting up layer_64_2_relu1
I0527 16:59:45.357339 19106 net.cpp:129] Top shape: 50 64 56 56 (10035200)
I0527 16:59:45.357345 19106 net.cpp:137] Memory required for data: 1294541400
I0527 16:59:45.357352 19106 layer_factory.hpp:77] Creating layer layer_64_2_conv1
I0527 16:59:45.357383 19106 net.cpp:84] Creating Layer layer_64_2_conv1
I0527 16:59:45.357390 19106 net.cpp:406] layer_64_2_conv1 <- layer_64_2_bn1
I0527 16:59:45.357400 19106 net.cpp:380] layer_64_2_conv1 -> layer_64_2_conv1
I0527 16:59:45.359666 19106 net.cpp:122] Setting up layer_64_2_conv1
I0527 16:59:45.359683 19106 net.cpp:129] Top shape: 50 64 56 56 (10035200)
I0527 16:59:45.359689 19106 net.cpp:137] Memory required for data: 1334682200
I0527 16:59:45.359699 19106 layer_factory.hpp:77] Creating layer layer_64_2_bn2
I0527 16:59:45.359709 19106 net.cpp:84] Creating Layer layer_64_2_bn2
I0527 16:59:45.359716 19106 net.cpp:406] layer_64_2_bn2 <- layer_64_2_conv1
I0527 16:59:45.359725 19106 net.cpp:367] layer_64_2_bn2 -> layer_64_2_conv1 (in-place)
I0527 16:59:45.360055 19106 net.cpp:122] Setting up layer_64_2_bn2
I0527 16:59:45.360067 19106 net.cpp:129] Top shape: 50 64 56 56 (10035200)
I0527 16:59:45.360074 19106 net.cpp:137] Memory required for data: 1374823000
I0527 16:59:45.360086 19106 layer_factory.hpp:77] Creating layer layer_64_2_scale2
I0527 16:59:45.360096 19106 net.cpp:84] Creating Layer layer_64_2_scale2
I0527 16:59:45.360102 19106 net.cpp:406] layer_64_2_scale2 <- layer_64_2_conv1
I0527 16:59:45.360111 19106 net.cpp:367] layer_64_2_scale2 -> layer_64_2_conv1 (in-place)
I0527 16:59:45.360167 19106 layer_factory.hpp:77] Creating layer layer_64_2_scale2
I0527 16:59:45.360343 19106 net.cpp:122] Setting up layer_64_2_scale2
I0527 16:59:45.360357 19106 net.cpp:129] Top shape: 50 64 56 56 (10035200)
I0527 16:59:45.360363 19106 net.cpp:137] Memory required for data: 1414963800
I0527 16:59:45.360373 19106 layer_factory.hpp:77] Creating layer layer_64_2_relu2
I0527 16:59:45.360383 19106 net.cpp:84] Creating Layer layer_64_2_relu2
I0527 16:59:45.360389 19106 net.cpp:406] layer_64_2_relu2 <- layer_64_2_conv1
I0527 16:59:45.360399 19106 net.cpp:367] layer_64_2_relu2 -> layer_64_2_conv1 (in-place)
I0527 16:59:45.360625 19106 net.cpp:122] Setting up layer_64_2_relu2
I0527 16:59:45.360638 19106 net.cpp:129] Top shape: 50 64 56 56 (10035200)
I0527 16:59:45.360644 19106 net.cpp:137] Memory required for data: 1455104600
I0527 16:59:45.360651 19106 layer_factory.hpp:77] Creating layer layer_64_2_conv2
I0527 16:59:45.360663 19106 net.cpp:84] Creating Layer layer_64_2_conv2
I0527 16:59:45.360671 19106 net.cpp:406] layer_64_2_conv2 <- layer_64_2_conv1
I0527 16:59:45.360682 19106 net.cpp:380] layer_64_2_conv2 -> layer_64_2_conv2
I0527 16:59:45.362970 19106 net.cpp:122] Setting up layer_64_2_conv2
I0527 16:59:45.362988 19106 net.cpp:129] Top shape: 50 64 56 56 (10035200)
I0527 16:59:45.362995 19106 net.cpp:137] Memory required for data: 1495245400
I0527 16:59:45.363005 19106 layer_factory.hpp:77] Creating layer layer_64_2_sum
I0527 16:59:45.363015 19106 net.cpp:84] Creating Layer layer_64_2_sum
I0527 16:59:45.363023 19106 net.cpp:406] layer_64_2_sum <- layer_64_2_conv2
I0527 16:59:45.363031 19106 net.cpp:406] layer_64_2_sum <- layer_64_1_sum_layer_64_1_sum_0_split_1
I0527 16:59:45.363040 19106 net.cpp:380] layer_64_2_sum -> layer_64_2_sum
I0527 16:59:45.363078 19106 net.cpp:122] Setting up layer_64_2_sum
I0527 16:59:45.363090 19106 net.cpp:129] Top shape: 50 64 56 56 (10035200)
I0527 16:59:45.363096 19106 net.cpp:137] Memory required for data: 1535386200
I0527 16:59:45.363102 19106 layer_factory.hpp:77] Creating layer layer_128_1_bn1
I0527 16:59:45.363112 19106 net.cpp:84] Creating Layer layer_128_1_bn1
I0527 16:59:45.363119 19106 net.cpp:406] layer_128_1_bn1 <- layer_64_2_sum
I0527 16:59:45.363128 19106 net.cpp:380] layer_128_1_bn1 -> layer_128_1_bn1
I0527 16:59:45.363448 19106 net.cpp:122] Setting up layer_128_1_bn1
I0527 16:59:45.363461 19106 net.cpp:129] Top shape: 50 64 56 56 (10035200)
I0527 16:59:45.363466 19106 net.cpp:137] Memory required for data: 1575527000
I0527 16:59:45.363492 19106 layer_factory.hpp:77] Creating layer layer_128_1_scale1
I0527 16:59:45.363503 19106 net.cpp:84] Creating Layer layer_128_1_scale1
I0527 16:59:45.363510 19106 net.cpp:406] layer_128_1_scale1 <- layer_128_1_bn1
I0527 16:59:45.363531 19106 net.cpp:367] layer_128_1_scale1 -> layer_128_1_bn1 (in-place)
I0527 16:59:45.363590 19106 layer_factory.hpp:77] Creating layer layer_128_1_scale1
I0527 16:59:45.363752 19106 net.cpp:122] Setting up layer_128_1_scale1
I0527 16:59:45.363765 19106 net.cpp:129] Top shape: 50 64 56 56 (10035200)
I0527 16:59:45.363770 19106 net.cpp:137] Memory required for data: 1615667800
I0527 16:59:45.363780 19106 layer_factory.hpp:77] Creating layer layer_128_1_relu1
I0527 16:59:45.363790 19106 net.cpp:84] Creating Layer layer_128_1_relu1
I0527 16:59:45.363795 19106 net.cpp:406] layer_128_1_relu1 <- layer_128_1_bn1
I0527 16:59:45.363806 19106 net.cpp:367] layer_128_1_relu1 -> layer_128_1_bn1 (in-place)
I0527 16:59:45.364032 19106 net.cpp:122] Setting up layer_128_1_relu1
I0527 16:59:45.364045 19106 net.cpp:129] Top shape: 50 64 56 56 (10035200)
I0527 16:59:45.364051 19106 net.cpp:137] Memory required for data: 1655808600
I0527 16:59:45.364058 19106 layer_factory.hpp:77] Creating layer layer_128_1_bn1_layer_128_1_relu1_0_split
I0527 16:59:45.364068 19106 net.cpp:84] Creating Layer layer_128_1_bn1_layer_128_1_relu1_0_split
I0527 16:59:45.364074 19106 net.cpp:406] layer_128_1_bn1_layer_128_1_relu1_0_split <- layer_128_1_bn1
I0527 16:59:45.364084 19106 net.cpp:380] layer_128_1_bn1_layer_128_1_relu1_0_split -> layer_128_1_bn1_layer_128_1_relu1_0_split_0
I0527 16:59:45.364095 19106 net.cpp:380] layer_128_1_bn1_layer_128_1_relu1_0_split -> layer_128_1_bn1_layer_128_1_relu1_0_split_1
I0527 16:59:45.364163 19106 net.cpp:122] Setting up layer_128_1_bn1_layer_128_1_relu1_0_split
I0527 16:59:45.364176 19106 net.cpp:129] Top shape: 50 64 56 56 (10035200)
I0527 16:59:45.364183 19106 net.cpp:129] Top shape: 50 64 56 56 (10035200)
I0527 16:59:45.364189 19106 net.cpp:137] Memory required for data: 1736090200
I0527 16:59:45.364197 19106 layer_factory.hpp:77] Creating layer layer_128_1_conv1
I0527 16:59:45.364209 19106 net.cpp:84] Creating Layer layer_128_1_conv1
I0527 16:59:45.364217 19106 net.cpp:406] layer_128_1_conv1 <- layer_128_1_bn1_layer_128_1_relu1_0_split_0
I0527 16:59:45.364228 19106 net.cpp:380] layer_128_1_conv1 -> layer_128_1_conv1
I0527 16:59:45.367727 19106 net.cpp:122] Setting up layer_128_1_conv1
I0527 16:59:45.367748 19106 net.cpp:129] Top shape: 50 128 28 28 (5017600)
I0527 16:59:45.367764 19106 net.cpp:137] Memory required for data: 1756160600
I0527 16:59:45.367775 19106 layer_factory.hpp:77] Creating layer layer_128_1_bn2
I0527 16:59:45.367787 19106 net.cpp:84] Creating Layer layer_128_1_bn2
I0527 16:59:45.367794 19106 net.cpp:406] layer_128_1_bn2 <- layer_128_1_conv1
I0527 16:59:45.367805 19106 net.cpp:367] layer_128_1_bn2 -> layer_128_1_conv1 (in-place)
I0527 16:59:45.368086 19106 net.cpp:122] Setting up layer_128_1_bn2
I0527 16:59:45.368098 19106 net.cpp:129] Top shape: 50 128 28 28 (5017600)
I0527 16:59:45.368104 19106 net.cpp:137] Memory required for data: 1776231000
I0527 16:59:45.368118 19106 layer_factory.hpp:77] Creating layer layer_128_1_scale2
I0527 16:59:45.368134 19106 net.cpp:84] Creating Layer layer_128_1_scale2
I0527 16:59:45.368141 19106 net.cpp:406] layer_128_1_scale2 <- layer_128_1_conv1
I0527 16:59:45.368150 19106 net.cpp:367] layer_128_1_scale2 -> layer_128_1_conv1 (in-place)
I0527 16:59:45.368211 19106 layer_factory.hpp:77] Creating layer layer_128_1_scale2
I0527 16:59:45.368362 19106 net.cpp:122] Setting up layer_128_1_scale2
I0527 16:59:45.368376 19106 net.cpp:129] Top shape: 50 128 28 28 (5017600)
I0527 16:59:45.368381 19106 net.cpp:137] Memory required for data: 1796301400
I0527 16:59:45.368391 19106 layer_factory.hpp:77] Creating layer layer_128_1_relu2
I0527 16:59:45.368402 19106 net.cpp:84] Creating Layer layer_128_1_relu2
I0527 16:59:45.368407 19106 net.cpp:406] layer_128_1_relu2 <- layer_128_1_conv1
I0527 16:59:45.368417 19106 net.cpp:367] layer_128_1_relu2 -> layer_128_1_conv1 (in-place)
I0527 16:59:45.368635 19106 net.cpp:122] Setting up layer_128_1_relu2
I0527 16:59:45.368647 19106 net.cpp:129] Top shape: 50 128 28 28 (5017600)
I0527 16:59:45.368654 19106 net.cpp:137] Memory required for data: 1816371800
I0527 16:59:45.368674 19106 layer_factory.hpp:77] Creating layer layer_128_1_conv2
I0527 16:59:45.368685 19106 net.cpp:84] Creating Layer layer_128_1_conv2
I0527 16:59:45.368690 19106 net.cpp:406] layer_128_1_conv2 <- layer_128_1_conv1
I0527 16:59:45.368700 19106 net.cpp:380] layer_128_1_conv2 -> layer_128_1_conv2
I0527 16:59:45.374742 19106 net.cpp:122] Setting up layer_128_1_conv2
I0527 16:59:45.374768 19106 net.cpp:129] Top shape: 50 128 28 28 (5017600)
I0527 16:59:45.374785 19106 net.cpp:137] Memory required for data: 1836442200
I0527 16:59:45.374799 19106 layer_factory.hpp:77] Creating layer layer_128_1_conv_expand
I0527 16:59:45.374827 19106 net.cpp:84] Creating Layer layer_128_1_conv_expand
I0527 16:59:45.374835 19106 net.cpp:406] layer_128_1_conv_expand <- layer_128_1_bn1_layer_128_1_relu1_0_split_1
I0527 16:59:45.374848 19106 net.cpp:380] layer_128_1_conv_expand -> layer_128_1_conv_expand
I0527 16:59:45.376538 19106 net.cpp:122] Setting up layer_128_1_conv_expand
I0527 16:59:45.376559 19106 net.cpp:129] Top shape: 50 128 28 28 (5017600)
I0527 16:59:45.376564 19106 net.cpp:137] Memory required for data: 1856512600
I0527 16:59:45.376574 19106 layer_factory.hpp:77] Creating layer layer_128_1_sum
I0527 16:59:45.376585 19106 net.cpp:84] Creating Layer layer_128_1_sum
I0527 16:59:45.376591 19106 net.cpp:406] layer_128_1_sum <- layer_128_1_conv_expand
I0527 16:59:45.376600 19106 net.cpp:406] layer_128_1_sum <- layer_128_1_conv2
I0527 16:59:45.376608 19106 net.cpp:380] layer_128_1_sum -> layer_128_1_sum
I0527 16:59:45.376648 19106 net.cpp:122] Setting up layer_128_1_sum
I0527 16:59:45.376659 19106 net.cpp:129] Top shape: 50 128 28 28 (5017600)
I0527 16:59:45.376665 19106 net.cpp:137] Memory required for data: 1876583000
I0527 16:59:45.376672 19106 layer_factory.hpp:77] Creating layer layer_128_1_sum_layer_128_1_sum_0_split
I0527 16:59:45.376682 19106 net.cpp:84] Creating Layer layer_128_1_sum_layer_128_1_sum_0_split
I0527 16:59:45.376688 19106 net.cpp:406] layer_128_1_sum_layer_128_1_sum_0_split <- layer_128_1_sum
I0527 16:59:45.376698 19106 net.cpp:380] layer_128_1_sum_layer_128_1_sum_0_split -> layer_128_1_sum_layer_128_1_sum_0_split_0
I0527 16:59:45.376708 19106 net.cpp:380] layer_128_1_sum_layer_128_1_sum_0_split -> layer_128_1_sum_layer_128_1_sum_0_split_1
I0527 16:59:45.376761 19106 net.cpp:122] Setting up layer_128_1_sum_layer_128_1_sum_0_split
I0527 16:59:45.376772 19106 net.cpp:129] Top shape: 50 128 28 28 (5017600)
I0527 16:59:45.376780 19106 net.cpp:129] Top shape: 50 128 28 28 (5017600)
I0527 16:59:45.376786 19106 net.cpp:137] Memory required for data: 1916723800
I0527 16:59:45.376793 19106 layer_factory.hpp:77] Creating layer layer_128_2_bn1
I0527 16:59:45.376806 19106 net.cpp:84] Creating Layer layer_128_2_bn1
I0527 16:59:45.376812 19106 net.cpp:406] layer_128_2_bn1 <- layer_128_1_sum_layer_128_1_sum_0_split_0
I0527 16:59:45.376821 19106 net.cpp:380] layer_128_2_bn1 -> layer_128_2_bn1
I0527 16:59:45.377099 19106 net.cpp:122] Setting up layer_128_2_bn1
I0527 16:59:45.377111 19106 net.cpp:129] Top shape: 50 128 28 28 (5017600)
I0527 16:59:45.377117 19106 net.cpp:137] Memory required for data: 1936794200
I0527 16:59:45.377130 19106 layer_factory.hpp:77] Creating layer layer_128_2_scale1
I0527 16:59:45.377140 19106 net.cpp:84] Creating Layer layer_128_2_scale1
I0527 16:59:45.377146 19106 net.cpp:406] layer_128_2_scale1 <- layer_128_2_bn1
I0527 16:59:45.377154 19106 net.cpp:367] layer_128_2_scale1 -> layer_128_2_bn1 (in-place)
I0527 16:59:45.377218 19106 layer_factory.hpp:77] Creating layer layer_128_2_scale1
I0527 16:59:45.377367 19106 net.cpp:122] Setting up layer_128_2_scale1
I0527 16:59:45.377377 19106 net.cpp:129] Top shape: 50 128 28 28 (5017600)
I0527 16:59:45.377382 19106 net.cpp:137] Memory required for data: 1956864600
I0527 16:59:45.377388 19106 layer_factory.hpp:77] Creating layer layer_128_2_relu1
I0527 16:59:45.377395 19106 net.cpp:84] Creating Layer layer_128_2_relu1
I0527 16:59:45.377399 19106 net.cpp:406] layer_128_2_relu1 <- layer_128_2_bn1
I0527 16:59:45.377406 19106 net.cpp:367] layer_128_2_relu1 -> layer_128_2_bn1 (in-place)
I0527 16:59:45.377573 19106 net.cpp:122] Setting up layer_128_2_relu1
I0527 16:59:45.377583 19106 net.cpp:129] Top shape: 50 128 28 28 (5017600)
I0527 16:59:45.377588 19106 net.cpp:137] Memory required for data: 1976935000
I0527 16:59:45.377590 19106 layer_factory.hpp:77] Creating layer layer_128_2_conv1
I0527 16:59:45.377600 19106 net.cpp:84] Creating Layer layer_128_2_conv1
I0527 16:59:45.377605 19106 net.cpp:406] layer_128_2_conv1 <- layer_128_2_bn1
I0527 16:59:45.377612 19106 net.cpp:380] layer_128_2_conv1 -> layer_128_2_conv1
I0527 16:59:45.380875 19106 net.cpp:122] Setting up layer_128_2_conv1
I0527 16:59:45.380890 19106 net.cpp:129] Top shape: 50 128 28 28 (5017600)
I0527 16:59:45.380895 19106 net.cpp:137] Memory required for data: 1997005400
I0527 16:59:45.380901 19106 layer_factory.hpp:77] Creating layer layer_128_2_bn2
I0527 16:59:45.380910 19106 net.cpp:84] Creating Layer layer_128_2_bn2
I0527 16:59:45.380916 19106 net.cpp:406] layer_128_2_bn2 <- layer_128_2_conv1
I0527 16:59:45.380923 19106 net.cpp:367] layer_128_2_bn2 -> layer_128_2_conv1 (in-place)
I0527 16:59:45.381115 19106 net.cpp:122] Setting up layer_128_2_bn2
I0527 16:59:45.381124 19106 net.cpp:129] Top shape: 50 128 28 28 (5017600)
I0527 16:59:45.381127 19106 net.cpp:137] Memory required for data: 2017075800
I0527 16:59:45.381134 19106 layer_factory.hpp:77] Creating layer layer_128_2_scale2
I0527 16:59:45.381144 19106 net.cpp:84] Creating Layer layer_128_2_scale2
I0527 16:59:45.381148 19106 net.cpp:406] layer_128_2_scale2 <- layer_128_2_conv1
I0527 16:59:45.381153 19106 net.cpp:367] layer_128_2_scale2 -> layer_128_2_conv1 (in-place)
I0527 16:59:45.381196 19106 layer_factory.hpp:77] Creating layer layer_128_2_scale2
I0527 16:59:45.381306 19106 net.cpp:122] Setting up layer_128_2_scale2
I0527 16:59:45.381315 19106 net.cpp:129] Top shape: 50 128 28 28 (5017600)
I0527 16:59:45.381319 19106 net.cpp:137] Memory required for data: 2037146200
I0527 16:59:45.381325 19106 layer_factory.hpp:77] Creating layer layer_128_2_relu2
I0527 16:59:45.381345 19106 net.cpp:84] Creating Layer layer_128_2_relu2
I0527 16:59:45.381350 19106 net.cpp:406] layer_128_2_relu2 <- layer_128_2_conv1
I0527 16:59:45.381355 19106 net.cpp:367] layer_128_2_relu2 -> layer_128_2_conv1 (in-place)
I0527 16:59:45.382038 19106 net.cpp:122] Setting up layer_128_2_relu2
I0527 16:59:45.382050 19106 net.cpp:129] Top shape: 50 128 28 28 (5017600)
I0527 16:59:45.382055 19106 net.cpp:137] Memory required for data: 2057216600
I0527 16:59:45.382058 19106 layer_factory.hpp:77] Creating layer layer_128_2_conv2
I0527 16:59:45.382069 19106 net.cpp:84] Creating Layer layer_128_2_conv2
I0527 16:59:45.382074 19106 net.cpp:406] layer_128_2_conv2 <- layer_128_2_conv1
I0527 16:59:45.382082 19106 net.cpp:380] layer_128_2_conv2 -> layer_128_2_conv2
I0527 16:59:45.384773 19106 net.cpp:122] Setting up layer_128_2_conv2
I0527 16:59:45.384786 19106 net.cpp:129] Top shape: 50 128 28 28 (5017600)
I0527 16:59:45.384790 19106 net.cpp:137] Memory required for data: 2077287000
I0527 16:59:45.384796 19106 layer_factory.hpp:77] Creating layer layer_128_2_sum
I0527 16:59:45.384802 19106 net.cpp:84] Creating Layer layer_128_2_sum
I0527 16:59:45.384805 19106 net.cpp:406] layer_128_2_sum <- layer_128_2_conv2
I0527 16:59:45.384810 19106 net.cpp:406] layer_128_2_sum <- layer_128_1_sum_layer_128_1_sum_0_split_1
I0527 16:59:45.384817 19106 net.cpp:380] layer_128_2_sum -> layer_128_2_sum
I0527 16:59:45.384848 19106 net.cpp:122] Setting up layer_128_2_sum
I0527 16:59:45.384857 19106 net.cpp:129] Top shape: 50 128 28 28 (5017600)
I0527 16:59:45.384862 19106 net.cpp:137] Memory required for data: 2097357400
I0527 16:59:45.384865 19106 layer_factory.hpp:77] Creating layer layer_256_1_bn1
I0527 16:59:45.384871 19106 net.cpp:84] Creating Layer layer_256_1_bn1
I0527 16:59:45.384876 19106 net.cpp:406] layer_256_1_bn1 <- layer_128_2_sum
I0527 16:59:45.384881 19106 net.cpp:380] layer_256_1_bn1 -> layer_256_1_bn1
I0527 16:59:45.385102 19106 net.cpp:122] Setting up layer_256_1_bn1
I0527 16:59:45.385134 19106 net.cpp:129] Top shape: 50 128 28 28 (5017600)
I0527 16:59:45.385138 19106 net.cpp:137] Memory required for data: 2117427800
I0527 16:59:45.385145 19106 layer_factory.hpp:77] Creating layer layer_256_1_scale1
I0527 16:59:45.385154 19106 net.cpp:84] Creating Layer layer_256_1_scale1
I0527 16:59:45.385159 19106 net.cpp:406] layer_256_1_scale1 <- layer_256_1_bn1
I0527 16:59:45.385164 19106 net.cpp:367] layer_256_1_scale1 -> layer_256_1_bn1 (in-place)
I0527 16:59:45.385211 19106 layer_factory.hpp:77] Creating layer layer_256_1_scale1
I0527 16:59:45.385331 19106 net.cpp:122] Setting up layer_256_1_scale1
I0527 16:59:45.385340 19106 net.cpp:129] Top shape: 50 128 28 28 (5017600)
I0527 16:59:45.385344 19106 net.cpp:137] Memory required for data: 2137498200
I0527 16:59:45.385350 19106 layer_factory.hpp:77] Creating layer layer_256_1_relu1
I0527 16:59:45.385356 19106 net.cpp:84] Creating Layer layer_256_1_relu1
I0527 16:59:45.385361 19106 net.cpp:406] layer_256_1_relu1 <- layer_256_1_bn1
I0527 16:59:45.385370 19106 net.cpp:367] layer_256_1_relu1 -> layer_256_1_bn1 (in-place)
I0527 16:59:45.386032 19106 net.cpp:122] Setting up layer_256_1_relu1
I0527 16:59:45.386045 19106 net.cpp:129] Top shape: 50 128 28 28 (5017600)
I0527 16:59:45.386050 19106 net.cpp:137] Memory required for data: 2157568600
I0527 16:59:45.386054 19106 layer_factory.hpp:77] Creating layer layer_256_1_bn1_layer_256_1_relu1_0_split
I0527 16:59:45.386059 19106 net.cpp:84] Creating Layer layer_256_1_bn1_layer_256_1_relu1_0_split
I0527 16:59:45.386062 19106 net.cpp:406] layer_256_1_bn1_layer_256_1_relu1_0_split <- layer_256_1_bn1
I0527 16:59:45.386070 19106 net.cpp:380] layer_256_1_bn1_layer_256_1_relu1_0_split -> layer_256_1_bn1_layer_256_1_relu1_0_split_0
I0527 16:59:45.386083 19106 net.cpp:380] layer_256_1_bn1_layer_256_1_relu1_0_split -> layer_256_1_bn1_layer_256_1_relu1_0_split_1
I0527 16:59:45.386127 19106 net.cpp:122] Setting up layer_256_1_bn1_layer_256_1_relu1_0_split
I0527 16:59:45.386137 19106 net.cpp:129] Top shape: 50 128 28 28 (5017600)
I0527 16:59:45.386142 19106 net.cpp:129] Top shape: 50 128 28 28 (5017600)
I0527 16:59:45.386145 19106 net.cpp:137] Memory required for data: 2197709400
I0527 16:59:45.386149 19106 layer_factory.hpp:77] Creating layer layer_256_1_conv1
I0527 16:59:45.386158 19106 net.cpp:84] Creating Layer layer_256_1_conv1
I0527 16:59:45.386163 19106 net.cpp:406] layer_256_1_conv1 <- layer_256_1_bn1_layer_256_1_relu1_0_split_0
I0527 16:59:45.386169 19106 net.cpp:380] layer_256_1_conv1 -> layer_256_1_conv1
I0527 16:59:45.391111 19106 net.cpp:122] Setting up layer_256_1_conv1
I0527 16:59:45.391129 19106 net.cpp:129] Top shape: 50 256 14 14 (2508800)
I0527 16:59:45.391134 19106 net.cpp:137] Memory required for data: 2207744600
I0527 16:59:45.391140 19106 layer_factory.hpp:77] Creating layer layer_256_1_bn2
I0527 16:59:45.391150 19106 net.cpp:84] Creating Layer layer_256_1_bn2
I0527 16:59:45.391156 19106 net.cpp:406] layer_256_1_bn2 <- layer_256_1_conv1
I0527 16:59:45.391163 19106 net.cpp:367] layer_256_1_bn2 -> layer_256_1_conv1 (in-place)
I0527 16:59:45.391355 19106 net.cpp:122] Setting up layer_256_1_bn2
I0527 16:59:45.391365 19106 net.cpp:129] Top shape: 50 256 14 14 (2508800)
I0527 16:59:45.391367 19106 net.cpp:137] Memory required for data: 2217779800
I0527 16:59:45.391383 19106 layer_factory.hpp:77] Creating layer layer_256_1_scale2
I0527 16:59:45.391392 19106 net.cpp:84] Creating Layer layer_256_1_scale2
I0527 16:59:45.391396 19106 net.cpp:406] layer_256_1_scale2 <- layer_256_1_conv1
I0527 16:59:45.391402 19106 net.cpp:367] layer_256_1_scale2 -> layer_256_1_conv1 (in-place)
I0527 16:59:45.391449 19106 layer_factory.hpp:77] Creating layer layer_256_1_scale2
I0527 16:59:45.391573 19106 net.cpp:122] Setting up layer_256_1_scale2
I0527 16:59:45.391582 19106 net.cpp:129] Top shape: 50 256 14 14 (2508800)
I0527 16:59:45.391585 19106 net.cpp:137] Memory required for data: 2227815000
I0527 16:59:45.391592 19106 layer_factory.hpp:77] Creating layer layer_256_1_relu2
I0527 16:59:45.391597 19106 net.cpp:84] Creating Layer layer_256_1_relu2
I0527 16:59:45.391613 19106 net.cpp:406] layer_256_1_relu2 <- layer_256_1_conv1
I0527 16:59:45.391618 19106 net.cpp:367] layer_256_1_relu2 -> layer_256_1_conv1 (in-place)
I0527 16:59:45.391774 19106 net.cpp:122] Setting up layer_256_1_relu2
I0527 16:59:45.391784 19106 net.cpp:129] Top shape: 50 256 14 14 (2508800)
I0527 16:59:45.391788 19106 net.cpp:137] Memory required for data: 2237850200
I0527 16:59:45.391791 19106 layer_factory.hpp:77] Creating layer layer_256_1_conv2
I0527 16:59:45.391801 19106 net.cpp:84] Creating Layer layer_256_1_conv2
I0527 16:59:45.391806 19106 net.cpp:406] layer_256_1_conv2 <- layer_256_1_conv1
I0527 16:59:45.391813 19106 net.cpp:380] layer_256_1_conv2 -> layer_256_1_conv2
I0527 16:59:45.400328 19106 net.cpp:122] Setting up layer_256_1_conv2
I0527 16:59:45.400352 19106 net.cpp:129] Top shape: 50 256 14 14 (2508800)
I0527 16:59:45.400355 19106 net.cpp:137] Memory required for data: 2247885400
I0527 16:59:45.400364 19106 layer_factory.hpp:77] Creating layer layer_256_1_conv_expand
I0527 16:59:45.400379 19106 net.cpp:84] Creating Layer layer_256_1_conv_expand
I0527 16:59:45.400387 19106 net.cpp:406] layer_256_1_conv_expand <- layer_256_1_bn1_layer_256_1_relu1_0_split_1
I0527 16:59:45.400394 19106 net.cpp:380] layer_256_1_conv_expand -> layer_256_1_conv_expand
I0527 16:59:45.402439 19106 net.cpp:122] Setting up layer_256_1_conv_expand
I0527 16:59:45.402456 19106 net.cpp:129] Top shape: 50 256 14 14 (2508800)
I0527 16:59:45.402458 19106 net.cpp:137] Memory required for data: 2257920600
I0527 16:59:45.402464 19106 layer_factory.hpp:77] Creating layer layer_256_1_sum
I0527 16:59:45.402470 19106 net.cpp:84] Creating Layer layer_256_1_sum
I0527 16:59:45.402475 19106 net.cpp:406] layer_256_1_sum <- layer_256_1_conv_expand
I0527 16:59:45.402480 19106 net.cpp:406] layer_256_1_sum <- layer_256_1_conv2
I0527 16:59:45.402487 19106 net.cpp:380] layer_256_1_sum -> layer_256_1_sum
I0527 16:59:45.402518 19106 net.cpp:122] Setting up layer_256_1_sum
I0527 16:59:45.402525 19106 net.cpp:129] Top shape: 50 256 14 14 (2508800)
I0527 16:59:45.402529 19106 net.cpp:137] Memory required for data: 2267955800
I0527 16:59:45.402531 19106 layer_factory.hpp:77] Creating layer layer_256_1_sum_layer_256_1_sum_0_split
I0527 16:59:45.402539 19106 net.cpp:84] Creating Layer layer_256_1_sum_layer_256_1_sum_0_split
I0527 16:59:45.402542 19106 net.cpp:406] layer_256_1_sum_layer_256_1_sum_0_split <- layer_256_1_sum
I0527 16:59:45.402549 19106 net.cpp:380] layer_256_1_sum_layer_256_1_sum_0_split -> layer_256_1_sum_layer_256_1_sum_0_split_0
I0527 16:59:45.402554 19106 net.cpp:380] layer_256_1_sum_layer_256_1_sum_0_split -> layer_256_1_sum_layer_256_1_sum_0_split_1
I0527 16:59:45.402593 19106 net.cpp:122] Setting up layer_256_1_sum_layer_256_1_sum_0_split
I0527 16:59:45.402603 19106 net.cpp:129] Top shape: 50 256 14 14 (2508800)
I0527 16:59:45.402609 19106 net.cpp:129] Top shape: 50 256 14 14 (2508800)
I0527 16:59:45.402612 19106 net.cpp:137] Memory required for data: 2288026200
I0527 16:59:45.402616 19106 layer_factory.hpp:77] Creating layer layer_256_2_bn1
I0527 16:59:45.402621 19106 net.cpp:84] Creating Layer layer_256_2_bn1
I0527 16:59:45.402626 19106 net.cpp:406] layer_256_2_bn1 <- layer_256_1_sum_layer_256_1_sum_0_split_0
I0527 16:59:45.402631 19106 net.cpp:380] layer_256_2_bn1 -> layer_256_2_bn1
I0527 16:59:45.402829 19106 net.cpp:122] Setting up layer_256_2_bn1
I0527 16:59:45.402838 19106 net.cpp:129] Top shape: 50 256 14 14 (2508800)
I0527 16:59:45.402842 19106 net.cpp:137] Memory required for data: 2298061400
I0527 16:59:45.402849 19106 layer_factory.hpp:77] Creating layer layer_256_2_scale1
I0527 16:59:45.402859 19106 net.cpp:84] Creating Layer layer_256_2_scale1
I0527 16:59:45.402863 19106 net.cpp:406] layer_256_2_scale1 <- layer_256_2_bn1
I0527 16:59:45.402868 19106 net.cpp:367] layer_256_2_scale1 -> layer_256_2_bn1 (in-place)
I0527 16:59:45.402917 19106 layer_factory.hpp:77] Creating layer layer_256_2_scale1
I0527 16:59:45.403030 19106 net.cpp:122] Setting up layer_256_2_scale1
I0527 16:59:45.403039 19106 net.cpp:129] Top shape: 50 256 14 14 (2508800)
I0527 16:59:45.403054 19106 net.cpp:137] Memory required for data: 2308096600
I0527 16:59:45.403061 19106 layer_factory.hpp:77] Creating layer layer_256_2_relu1
I0527 16:59:45.403067 19106 net.cpp:84] Creating Layer layer_256_2_relu1
I0527 16:59:45.403071 19106 net.cpp:406] layer_256_2_relu1 <- layer_256_2_bn1
I0527 16:59:45.403077 19106 net.cpp:367] layer_256_2_relu1 -> layer_256_2_bn1 (in-place)
I0527 16:59:45.403225 19106 net.cpp:122] Setting up layer_256_2_relu1
I0527 16:59:45.403235 19106 net.cpp:129] Top shape: 50 256 14 14 (2508800)
I0527 16:59:45.403239 19106 net.cpp:137] Memory required for data: 2318131800
I0527 16:59:45.403241 19106 layer_factory.hpp:77] Creating layer layer_256_2_conv1
I0527 16:59:45.403251 19106 net.cpp:84] Creating Layer layer_256_2_conv1
I0527 16:59:45.403256 19106 net.cpp:406] layer_256_2_conv1 <- layer_256_2_bn1
I0527 16:59:45.403262 19106 net.cpp:380] layer_256_2_conv1 -> layer_256_2_conv1
I0527 16:59:45.411577 19106 net.cpp:122] Setting up layer_256_2_conv1
I0527 16:59:45.411594 19106 net.cpp:129] Top shape: 50 256 14 14 (2508800)
I0527 16:59:45.411597 19106 net.cpp:137] Memory required for data: 2328167000
I0527 16:59:45.411603 19106 layer_factory.hpp:77] Creating layer layer_256_2_bn2
I0527 16:59:45.411612 19106 net.cpp:84] Creating Layer layer_256_2_bn2
I0527 16:59:45.411617 19106 net.cpp:406] layer_256_2_bn2 <- layer_256_2_conv1
I0527 16:59:45.411623 19106 net.cpp:367] layer_256_2_bn2 -> layer_256_2_conv1 (in-place)
I0527 16:59:45.411814 19106 net.cpp:122] Setting up layer_256_2_bn2
I0527 16:59:45.411824 19106 net.cpp:129] Top shape: 50 256 14 14 (2508800)
I0527 16:59:45.411828 19106 net.cpp:137] Memory required for data: 2338202200
I0527 16:59:45.411834 19106 layer_factory.hpp:77] Creating layer layer_256_2_scale2
I0527 16:59:45.411854 19106 net.cpp:84] Creating Layer layer_256_2_scale2
I0527 16:59:45.411860 19106 net.cpp:406] layer_256_2_scale2 <- layer_256_2_conv1
I0527 16:59:45.411865 19106 net.cpp:367] layer_256_2_scale2 -> layer_256_2_conv1 (in-place)
I0527 16:59:45.411909 19106 layer_factory.hpp:77] Creating layer layer_256_2_scale2
I0527 16:59:45.412021 19106 net.cpp:122] Setting up layer_256_2_scale2
I0527 16:59:45.412030 19106 net.cpp:129] Top shape: 50 256 14 14 (2508800)
I0527 16:59:45.412034 19106 net.cpp:137] Memory required for data: 2348237400
I0527 16:59:45.412039 19106 layer_factory.hpp:77] Creating layer layer_256_2_relu2
I0527 16:59:45.412047 19106 net.cpp:84] Creating Layer layer_256_2_relu2
I0527 16:59:45.412052 19106 net.cpp:406] layer_256_2_relu2 <- layer_256_2_conv1
I0527 16:59:45.412056 19106 net.cpp:367] layer_256_2_relu2 -> layer_256_2_conv1 (in-place)
I0527 16:59:45.412214 19106 net.cpp:122] Setting up layer_256_2_relu2
I0527 16:59:45.412223 19106 net.cpp:129] Top shape: 50 256 14 14 (2508800)
I0527 16:59:45.412228 19106 net.cpp:137] Memory required for data: 2358272600
I0527 16:59:45.412231 19106 layer_factory.hpp:77] Creating layer layer_256_2_conv2
I0527 16:59:45.412241 19106 net.cpp:84] Creating Layer layer_256_2_conv2
I0527 16:59:45.412246 19106 net.cpp:406] layer_256_2_conv2 <- layer_256_2_conv1
I0527 16:59:45.412253 19106 net.cpp:380] layer_256_2_conv2 -> layer_256_2_conv2
I0527 16:59:45.420616 19106 net.cpp:122] Setting up layer_256_2_conv2
I0527 16:59:45.420636 19106 net.cpp:129] Top shape: 50 256 14 14 (2508800)
I0527 16:59:45.420640 19106 net.cpp:137] Memory required for data: 2368307800
I0527 16:59:45.420647 19106 layer_factory.hpp:77] Creating layer layer_256_2_sum
I0527 16:59:45.420655 19106 net.cpp:84] Creating Layer layer_256_2_sum
I0527 16:59:45.420661 19106 net.cpp:406] layer_256_2_sum <- layer_256_2_conv2
I0527 16:59:45.420666 19106 net.cpp:406] layer_256_2_sum <- layer_256_1_sum_layer_256_1_sum_0_split_1
I0527 16:59:45.420673 19106 net.cpp:380] layer_256_2_sum -> layer_256_2_sum
I0527 16:59:45.420708 19106 net.cpp:122] Setting up layer_256_2_sum
I0527 16:59:45.420717 19106 net.cpp:129] Top shape: 50 256 14 14 (2508800)
I0527 16:59:45.420719 19106 net.cpp:137] Memory required for data: 2378343000
I0527 16:59:45.420737 19106 layer_factory.hpp:77] Creating layer layer_512_1_bn1
I0527 16:59:45.420745 19106 net.cpp:84] Creating Layer layer_512_1_bn1
I0527 16:59:45.420749 19106 net.cpp:406] layer_512_1_bn1 <- layer_256_2_sum
I0527 16:59:45.420754 19106 net.cpp:380] layer_512_1_bn1 -> layer_512_1_bn1
I0527 16:59:45.420982 19106 net.cpp:122] Setting up layer_512_1_bn1
I0527 16:59:45.420992 19106 net.cpp:129] Top shape: 50 256 14 14 (2508800)
I0527 16:59:45.420995 19106 net.cpp:137] Memory required for data: 2388378200
I0527 16:59:45.421003 19106 layer_factory.hpp:77] Creating layer layer_512_1_scale1
I0527 16:59:45.421011 19106 net.cpp:84] Creating Layer layer_512_1_scale1
I0527 16:59:45.421016 19106 net.cpp:406] layer_512_1_scale1 <- layer_512_1_bn1
I0527 16:59:45.421020 19106 net.cpp:367] layer_512_1_scale1 -> layer_512_1_bn1 (in-place)
I0527 16:59:45.421079 19106 layer_factory.hpp:77] Creating layer layer_512_1_scale1
I0527 16:59:45.421195 19106 net.cpp:122] Setting up layer_512_1_scale1
I0527 16:59:45.421205 19106 net.cpp:129] Top shape: 50 256 14 14 (2508800)
I0527 16:59:45.421208 19106 net.cpp:137] Memory required for data: 2398413400
I0527 16:59:45.421214 19106 layer_factory.hpp:77] Creating layer layer_512_1_relu1
I0527 16:59:45.421219 19106 net.cpp:84] Creating Layer layer_512_1_relu1
I0527 16:59:45.421224 19106 net.cpp:406] layer_512_1_relu1 <- layer_512_1_bn1
I0527 16:59:45.421231 19106 net.cpp:367] layer_512_1_relu1 -> layer_512_1_bn1 (in-place)
I0527 16:59:45.421404 19106 net.cpp:122] Setting up layer_512_1_relu1
I0527 16:59:45.421416 19106 net.cpp:129] Top shape: 50 256 14 14 (2508800)
I0527 16:59:45.421421 19106 net.cpp:137] Memory required for data: 2408448600
I0527 16:59:45.421423 19106 layer_factory.hpp:77] Creating layer layer_512_1_bn1_layer_512_1_relu1_0_split
I0527 16:59:45.421429 19106 net.cpp:84] Creating Layer layer_512_1_bn1_layer_512_1_relu1_0_split
I0527 16:59:45.421432 19106 net.cpp:406] layer_512_1_bn1_layer_512_1_relu1_0_split <- layer_512_1_bn1
I0527 16:59:45.421438 19106 net.cpp:380] layer_512_1_bn1_layer_512_1_relu1_0_split -> layer_512_1_bn1_layer_512_1_relu1_0_split_0
I0527 16:59:45.421445 19106 net.cpp:380] layer_512_1_bn1_layer_512_1_relu1_0_split -> layer_512_1_bn1_layer_512_1_relu1_0_split_1
I0527 16:59:45.421489 19106 net.cpp:122] Setting up layer_512_1_bn1_layer_512_1_relu1_0_split
I0527 16:59:45.421497 19106 net.cpp:129] Top shape: 50 256 14 14 (2508800)
I0527 16:59:45.421501 19106 net.cpp:129] Top shape: 50 256 14 14 (2508800)
I0527 16:59:45.421514 19106 net.cpp:137] Memory required for data: 2428519000
I0527 16:59:45.421519 19106 layer_factory.hpp:77] Creating layer layer_512_1_conv1
I0527 16:59:45.421530 19106 net.cpp:84] Creating Layer layer_512_1_conv1
I0527 16:59:45.421535 19106 net.cpp:406] layer_512_1_conv1 <- layer_512_1_bn1_layer_512_1_relu1_0_split_0
I0527 16:59:45.421541 19106 net.cpp:380] layer_512_1_conv1 -> layer_512_1_conv1
I0527 16:59:45.436655 19106 net.cpp:122] Setting up layer_512_1_conv1
I0527 16:59:45.436703 19106 net.cpp:129] Top shape: 50 512 7 7 (1254400)
I0527 16:59:45.436708 19106 net.cpp:137] Memory required for data: 2433536600
I0527 16:59:45.436718 19106 layer_factory.hpp:77] Creating layer layer_512_1_bn2
I0527 16:59:45.436729 19106 net.cpp:84] Creating Layer layer_512_1_bn2
I0527 16:59:45.436734 19106 net.cpp:406] layer_512_1_bn2 <- layer_512_1_conv1
I0527 16:59:45.436743 19106 net.cpp:367] layer_512_1_bn2 -> layer_512_1_conv1 (in-place)
I0527 16:59:45.437006 19106 net.cpp:122] Setting up layer_512_1_bn2
I0527 16:59:45.437016 19106 net.cpp:129] Top shape: 50 512 7 7 (1254400)
I0527 16:59:45.437031 19106 net.cpp:137] Memory required for data: 2438554200
I0527 16:59:45.437038 19106 layer_factory.hpp:77] Creating layer layer_512_1_scale2
I0527 16:59:45.437046 19106 net.cpp:84] Creating Layer layer_512_1_scale2
I0527 16:59:45.437049 19106 net.cpp:406] layer_512_1_scale2 <- layer_512_1_conv1
I0527 16:59:45.437057 19106 net.cpp:367] layer_512_1_scale2 -> layer_512_1_conv1 (in-place)
I0527 16:59:45.437103 19106 layer_factory.hpp:77] Creating layer layer_512_1_scale2
I0527 16:59:45.437237 19106 net.cpp:122] Setting up layer_512_1_scale2
I0527 16:59:45.437245 19106 net.cpp:129] Top shape: 50 512 7 7 (1254400)
I0527 16:59:45.437248 19106 net.cpp:137] Memory required for data: 2443571800
I0527 16:59:45.437254 19106 layer_factory.hpp:77] Creating layer layer_512_1_relu2
I0527 16:59:45.437271 19106 net.cpp:84] Creating Layer layer_512_1_relu2
I0527 16:59:45.437275 19106 net.cpp:406] layer_512_1_relu2 <- layer_512_1_conv1
I0527 16:59:45.437281 19106 net.cpp:367] layer_512_1_relu2 -> layer_512_1_conv1 (in-place)
I0527 16:59:45.437443 19106 net.cpp:122] Setting up layer_512_1_relu2
I0527 16:59:45.437453 19106 net.cpp:129] Top shape: 50 512 7 7 (1254400)
I0527 16:59:45.437458 19106 net.cpp:137] Memory required for data: 2448589400
I0527 16:59:45.437460 19106 layer_factory.hpp:77] Creating layer layer_512_1_conv2
I0527 16:59:45.437474 19106 net.cpp:84] Creating Layer layer_512_1_conv2
I0527 16:59:45.437479 19106 net.cpp:406] layer_512_1_conv2 <- layer_512_1_conv1
I0527 16:59:45.437485 19106 net.cpp:380] layer_512_1_conv2 -> layer_512_1_conv2
I0527 16:59:45.465586 19106 net.cpp:122] Setting up layer_512_1_conv2
I0527 16:59:45.465623 19106 net.cpp:129] Top shape: 50 512 7 7 (1254400)
I0527 16:59:45.465628 19106 net.cpp:137] Memory required for data: 2453607000
I0527 16:59:45.465637 19106 layer_factory.hpp:77] Creating layer layer_512_1_conv_expand
I0527 16:59:45.465653 19106 net.cpp:84] Creating Layer layer_512_1_conv_expand
I0527 16:59:45.465659 19106 net.cpp:406] layer_512_1_conv_expand <- layer_512_1_bn1_layer_512_1_relu1_0_split_1
I0527 16:59:45.465669 19106 net.cpp:380] layer_512_1_conv_expand -> layer_512_1_conv_expand
I0527 16:59:45.468232 19106 net.cpp:122] Setting up layer_512_1_conv_expand
I0527 16:59:45.468245 19106 net.cpp:129] Top shape: 50 512 7 7 (1254400)
I0527 16:59:45.468248 19106 net.cpp:137] Memory required for data: 2458624600
I0527 16:59:45.468253 19106 layer_factory.hpp:77] Creating layer layer_512_1_sum
I0527 16:59:45.468260 19106 net.cpp:84] Creating Layer layer_512_1_sum
I0527 16:59:45.468263 19106 net.cpp:406] layer_512_1_sum <- layer_512_1_conv_expand
I0527 16:59:45.468268 19106 net.cpp:406] layer_512_1_sum <- layer_512_1_conv2
I0527 16:59:45.468274 19106 net.cpp:380] layer_512_1_sum -> layer_512_1_sum
I0527 16:59:45.468305 19106 net.cpp:122] Setting up layer_512_1_sum
I0527 16:59:45.468313 19106 net.cpp:129] Top shape: 50 512 7 7 (1254400)
I0527 16:59:45.468317 19106 net.cpp:137] Memory required for data: 2463642200
I0527 16:59:45.468320 19106 layer_factory.hpp:77] Creating layer layer_512_1_sum_layer_512_1_sum_0_split
I0527 16:59:45.468327 19106 net.cpp:84] Creating Layer layer_512_1_sum_layer_512_1_sum_0_split
I0527 16:59:45.468330 19106 net.cpp:406] layer_512_1_sum_layer_512_1_sum_0_split <- layer_512_1_sum
I0527 16:59:45.468336 19106 net.cpp:380] layer_512_1_sum_layer_512_1_sum_0_split -> layer_512_1_sum_layer_512_1_sum_0_split_0
I0527 16:59:45.468344 19106 net.cpp:380] layer_512_1_sum_layer_512_1_sum_0_split -> layer_512_1_sum_layer_512_1_sum_0_split_1
I0527 16:59:45.468384 19106 net.cpp:122] Setting up layer_512_1_sum_layer_512_1_sum_0_split
I0527 16:59:45.468392 19106 net.cpp:129] Top shape: 50 512 7 7 (1254400)
I0527 16:59:45.468397 19106 net.cpp:129] Top shape: 50 512 7 7 (1254400)
I0527 16:59:45.468401 19106 net.cpp:137] Memory required for data: 2473677400
I0527 16:59:45.468405 19106 layer_factory.hpp:77] Creating layer layer_512_2_bn1
I0527 16:59:45.468413 19106 net.cpp:84] Creating Layer layer_512_2_bn1
I0527 16:59:45.468418 19106 net.cpp:406] layer_512_2_bn1 <- layer_512_1_sum_layer_512_1_sum_0_split_0
I0527 16:59:45.468425 19106 net.cpp:380] layer_512_2_bn1 -> layer_512_2_bn1
I0527 16:59:45.468652 19106 net.cpp:122] Setting up layer_512_2_bn1
I0527 16:59:45.468662 19106 net.cpp:129] Top shape: 50 512 7 7 (1254400)
I0527 16:59:45.468667 19106 net.cpp:137] Memory required for data: 2478695000
I0527 16:59:45.468674 19106 layer_factory.hpp:77] Creating layer layer_512_2_scale1
I0527 16:59:45.468683 19106 net.cpp:84] Creating Layer layer_512_2_scale1
I0527 16:59:45.468698 19106 net.cpp:406] layer_512_2_scale1 <- layer_512_2_bn1
I0527 16:59:45.468704 19106 net.cpp:367] layer_512_2_scale1 -> layer_512_2_bn1 (in-place)
I0527 16:59:45.468753 19106 layer_factory.hpp:77] Creating layer layer_512_2_scale1
I0527 16:59:45.468874 19106 net.cpp:122] Setting up layer_512_2_scale1
I0527 16:59:45.468883 19106 net.cpp:129] Top shape: 50 512 7 7 (1254400)
I0527 16:59:45.468888 19106 net.cpp:137] Memory required for data: 2483712600
I0527 16:59:45.468894 19106 layer_factory.hpp:77] Creating layer layer_512_2_relu1
I0527 16:59:45.468902 19106 net.cpp:84] Creating Layer layer_512_2_relu1
I0527 16:59:45.468906 19106 net.cpp:406] layer_512_2_relu1 <- layer_512_2_bn1
I0527 16:59:45.468911 19106 net.cpp:367] layer_512_2_relu1 -> layer_512_2_bn1 (in-place)
I0527 16:59:45.469631 19106 net.cpp:122] Setting up layer_512_2_relu1
I0527 16:59:45.469645 19106 net.cpp:129] Top shape: 50 512 7 7 (1254400)
I0527 16:59:45.469650 19106 net.cpp:137] Memory required for data: 2488730200
I0527 16:59:45.469653 19106 layer_factory.hpp:77] Creating layer layer_512_2_conv1
I0527 16:59:45.469663 19106 net.cpp:84] Creating Layer layer_512_2_conv1
I0527 16:59:45.469668 19106 net.cpp:406] layer_512_2_conv1 <- layer_512_2_bn1
I0527 16:59:45.469676 19106 net.cpp:380] layer_512_2_conv1 -> layer_512_2_conv1
I0527 16:59:45.507300 19106 net.cpp:122] Setting up layer_512_2_conv1
I0527 16:59:45.507328 19106 net.cpp:129] Top shape: 50 512 7 7 (1254400)
I0527 16:59:45.507333 19106 net.cpp:137] Memory required for data: 2493747800
I0527 16:59:45.507345 19106 layer_factory.hpp:77] Creating layer layer_512_2_bn2
I0527 16:59:45.507359 19106 net.cpp:84] Creating Layer layer_512_2_bn2
I0527 16:59:45.507369 19106 net.cpp:406] layer_512_2_bn2 <- layer_512_2_conv1
I0527 16:59:45.507378 19106 net.cpp:367] layer_512_2_bn2 -> layer_512_2_conv1 (in-place)
I0527 16:59:45.507694 19106 net.cpp:122] Setting up layer_512_2_bn2
I0527 16:59:45.507705 19106 net.cpp:129] Top shape: 50 512 7 7 (1254400)
I0527 16:59:45.507710 19106 net.cpp:137] Memory required for data: 2498765400
I0527 16:59:45.507721 19106 layer_factory.hpp:77] Creating layer layer_512_2_scale2
I0527 16:59:45.507732 19106 net.cpp:84] Creating Layer layer_512_2_scale2
I0527 16:59:45.507751 19106 net.cpp:406] layer_512_2_scale2 <- layer_512_2_conv1
I0527 16:59:45.507761 19106 net.cpp:367] layer_512_2_scale2 -> layer_512_2_conv1 (in-place)
I0527 16:59:45.507836 19106 layer_factory.hpp:77] Creating layer layer_512_2_scale2
I0527 16:59:45.508016 19106 net.cpp:122] Setting up layer_512_2_scale2
I0527 16:59:45.508028 19106 net.cpp:129] Top shape: 50 512 7 7 (1254400)
I0527 16:59:45.508033 19106 net.cpp:137] Memory required for data: 2503783000
I0527 16:59:45.508043 19106 layer_factory.hpp:77] Creating layer layer_512_2_relu2
I0527 16:59:45.508050 19106 net.cpp:84] Creating Layer layer_512_2_relu2
I0527 16:59:45.508055 19106 net.cpp:406] layer_512_2_relu2 <- layer_512_2_conv1
I0527 16:59:45.508065 19106 net.cpp:367] layer_512_2_relu2 -> layer_512_2_conv1 (in-place)
I0527 16:59:45.511335 19106 net.cpp:122] Setting up layer_512_2_relu2
I0527 16:59:45.511355 19106 net.cpp:129] Top shape: 50 512 7 7 (1254400)
I0527 16:59:45.511391 19106 net.cpp:137] Memory required for data: 2508800600
I0527 16:59:45.511399 19106 layer_factory.hpp:77] Creating layer layer_512_2_conv2
I0527 16:59:45.511452 19106 net.cpp:84] Creating Layer layer_512_2_conv2
I0527 16:59:45.511461 19106 net.cpp:406] layer_512_2_conv2 <- layer_512_2_conv1
I0527 16:59:45.511490 19106 net.cpp:380] layer_512_2_conv2 -> layer_512_2_conv2
I0527 16:59:45.546838 19106 net.cpp:122] Setting up layer_512_2_conv2
I0527 16:59:45.546866 19106 net.cpp:129] Top shape: 50 512 7 7 (1254400)
I0527 16:59:45.546870 19106 net.cpp:137] Memory required for data: 2513818200
I0527 16:59:45.546880 19106 layer_factory.hpp:77] Creating layer layer_512_2_sum
I0527 16:59:45.546890 19106 net.cpp:84] Creating Layer layer_512_2_sum
I0527 16:59:45.546898 19106 net.cpp:406] layer_512_2_sum <- layer_512_2_conv2
I0527 16:59:45.546919 19106 net.cpp:406] layer_512_2_sum <- layer_512_1_sum_layer_512_1_sum_0_split_1
I0527 16:59:45.546948 19106 net.cpp:380] layer_512_2_sum -> layer_512_2_sum
I0527 16:59:45.546988 19106 net.cpp:122] Setting up layer_512_2_sum
I0527 16:59:45.547004 19106 net.cpp:129] Top shape: 50 512 7 7 (1254400)
I0527 16:59:45.547010 19106 net.cpp:137] Memory required for data: 2518835800
I0527 16:59:45.547014 19106 layer_factory.hpp:77] Creating layer last_bn
I0527 16:59:45.547024 19106 net.cpp:84] Creating Layer last_bn
I0527 16:59:45.547031 19106 net.cpp:406] last_bn <- layer_512_2_sum
I0527 16:59:45.547039 19106 net.cpp:367] last_bn -> layer_512_2_sum (in-place)
I0527 16:59:45.547279 19106 net.cpp:122] Setting up last_bn
I0527 16:59:45.547288 19106 net.cpp:129] Top shape: 50 512 7 7 (1254400)
I0527 16:59:45.547292 19106 net.cpp:137] Memory required for data: 2523853400
I0527 16:59:45.547299 19106 layer_factory.hpp:77] Creating layer last_scale
I0527 16:59:45.547307 19106 net.cpp:84] Creating Layer last_scale
I0527 16:59:45.547310 19106 net.cpp:406] last_scale <- layer_512_2_sum
I0527 16:59:45.547314 19106 net.cpp:367] last_scale -> layer_512_2_sum (in-place)
I0527 16:59:45.547374 19106 layer_factory.hpp:77] Creating layer last_scale
I0527 16:59:45.547524 19106 net.cpp:122] Setting up last_scale
I0527 16:59:45.547533 19106 net.cpp:129] Top shape: 50 512 7 7 (1254400)
I0527 16:59:45.547536 19106 net.cpp:137] Memory required for data: 2528871000
I0527 16:59:45.547543 19106 layer_factory.hpp:77] Creating layer last_relu
I0527 16:59:45.547549 19106 net.cpp:84] Creating Layer last_relu
I0527 16:59:45.547551 19106 net.cpp:406] last_relu <- layer_512_2_sum
I0527 16:59:45.547557 19106 net.cpp:367] last_relu -> layer_512_2_sum (in-place)
I0527 16:59:45.547718 19106 net.cpp:122] Setting up last_relu
I0527 16:59:45.547729 19106 net.cpp:129] Top shape: 50 512 7 7 (1254400)
I0527 16:59:45.547731 19106 net.cpp:137] Memory required for data: 2533888600
I0527 16:59:45.547734 19106 layer_factory.hpp:77] Creating layer global_pool
I0527 16:59:45.547741 19106 net.cpp:84] Creating Layer global_pool
I0527 16:59:45.547744 19106 net.cpp:406] global_pool <- layer_512_2_sum
I0527 16:59:45.547749 19106 net.cpp:380] global_pool -> global_pool
I0527 16:59:45.547945 19106 net.cpp:122] Setting up global_pool
I0527 16:59:45.547955 19106 net.cpp:129] Top shape: 50 512 1 1 (25600)
I0527 16:59:45.547958 19106 net.cpp:137] Memory required for data: 2533991000
I0527 16:59:45.547961 19106 layer_factory.hpp:77] Creating layer score
I0527 16:59:45.547971 19106 net.cpp:84] Creating Layer score
I0527 16:59:45.547978 19106 net.cpp:406] score <- global_pool
I0527 16:59:45.547988 19106 net.cpp:380] score -> score
I0527 16:59:45.548110 19106 net.cpp:122] Setting up score
I0527 16:59:45.548118 19106 net.cpp:129] Top shape: 50 2 (100)
I0527 16:59:45.548121 19106 net.cpp:137] Memory required for data: 2533991400
I0527 16:59:45.548127 19106 layer_factory.hpp:77] Creating layer score_score_0_split
I0527 16:59:45.548135 19106 net.cpp:84] Creating Layer score_score_0_split
I0527 16:59:45.548142 19106 net.cpp:406] score_score_0_split <- score
I0527 16:59:45.548153 19106 net.cpp:380] score_score_0_split -> score_score_0_split_0
I0527 16:59:45.548174 19106 net.cpp:380] score_score_0_split -> score_score_0_split_1
I0527 16:59:45.548235 19106 net.cpp:122] Setting up score_score_0_split
I0527 16:59:45.548244 19106 net.cpp:129] Top shape: 50 2 (100)
I0527 16:59:45.548254 19106 net.cpp:129] Top shape: 50 2 (100)
I0527 16:59:45.548259 19106 net.cpp:137] Memory required for data: 2533992200
I0527 16:59:45.548264 19106 layer_factory.hpp:77] Creating layer loss
I0527 16:59:45.548276 19106 net.cpp:84] Creating Layer loss
I0527 16:59:45.548282 19106 net.cpp:406] loss <- score_score_0_split_0
I0527 16:59:45.548290 19106 net.cpp:406] loss <- label_data_1_split_0
I0527 16:59:45.548302 19106 net.cpp:380] loss -> loss
…
