…
I0526 09:18:13.751417 13987 net.cpp:51] Initializing net from parameters: 
name: "Pre-ResNet-34"
state {
  phase: TRAIN
  level: 0
  stage: ""
}
layer {
  name: "data"
  type: "Data"
  top: "data"
  top: "label"
  include {
    phase: TRAIN
  }
  transform_param {
    mirror: true
    crop_size: 224
    mean_file: "/home/k/PycharmProjects/AgeGenderDeepLearning-master/Folds/lmdb/Test_fold_is_0/mean.binaryproto"
  }
  data_param {
    source: "/home/k/PycharmProjects/AgeGenderDeepLearning-master/Folds/lmdb/Test_fold_is_0/age_train_lmdb"
    batch_size: 50
    backend: LMDB
  }
}
layer {
  name: "data_bn"
  type: "BatchNorm"
  bottom: "data"
  top: "data_bn"
  param {
    lr_mult: 0
    decay_mult: 0
  }
  param {
    lr_mult: 0
    decay_mult: 0
  }
  param {
    lr_mult: 0
    decay_mult: 0
  }
}
layer {
  name: "data_scale"
  type: "Scale"
  bottom: "data_bn"
  top: "data_bn"
  param {
    lr_mult: 1
    decay_mult: 1
  }
  param {
    lr_mult: 2
    decay_mult: 1
  }
  scale_param {
    bias_term: true
  }
}
layer {
  name: "conv1"
  type: "Convolution"
  bottom: "data_bn"
  top: "conv1"
  param {
    lr_mult: 1
    decay_mult: 1
  }
  param {
    lr_mult: 2
    decay_mult: 1
  }
  convolution_param {
    num_output: 64
    pad: 3
    kernel_size: 7
    stride: 2
    weight_filler {
      type: "msra"
      variance_norm: FAN_OUT
    }
    bias_filler {
      type: "constant"
      value: 0
    }
  }
}
layer {
  name: "conv1_bn"
  type: "BatchNorm"
  bottom: "conv1"
  top: "conv1"
  param {
    lr_mult: 0
    decay_mult: 0
  }
  param {
    lr_mult: 0
    decay_mult: 0
  }
  param {
    lr_mult: 0
    decay_mult: 0
  }
}
layer {
  name: "conv1_scale"
  type: "Scale"
  bottom: "conv1"
  top: "conv1"
  param {
    lr_mult: 1
    decay_mult: 1
  }
  param {
    lr_mult: 2
    decay_mult: 1
  }
  scale_param {
    bias_term: true
  }
}
layer {
  name: "conv1_relu"
  type: "ReLU"
  bottom: "conv1"
  top: "conv1"
}
layer {
  name: "conv1_pool"
  type: "Pooling"
  bottom: "conv1"
  top: "conv1_pool"
  pooling_param {
    kernel_size: 3
    stride: 2
  }
}
layer {
  name: "layer_64_1_conv1"
  type: "Convolution"
  bottom: "conv1_pool"
  top: "layer_64_1_conv1"
  param {
    lr_mult: 1
    decay_mult: 1
  }
  convolution_param {
    num_output: 64
    bias_term: false
    pad: 1
    kernel_size: 3
    stride: 1
    weight_filler {
      type: "msra"
    }
    bias_filler {
      type: "constant"
      value: 0
    }
  }
}
layer {
  name: "layer_64_1_bn2"
  type: "BatchNorm"
  bottom: "layer_64_1_conv1"
  top: "layer_64_1_conv1"
  param {
    lr_mult: 0
    decay_mult: 0
  }
  param {
    lr_mult: 0
    decay_mult: 0
  }
  param {
    lr_mult: 0
    decay_mult: 0
  }
}
layer {
  name: "layer_64_1_scale2"
  type: "Scale"
  bottom: "layer_64_1_conv1"
  top: "layer_64_1_conv1"
  param {
    lr_mult: 1
    decay_mult: 1
  }
  param {
    lr_mult: 2
    decay_mult: 1
  }
  scale_param {
    bias_term: true
  }
}
layer {
  name: "layer_64_1_relu2"
  type: "ReLU"
  bottom: "layer_64_1_conv1"
  top: "layer_64_1_conv1"
}
layer {
  name: "layer_64_1_conv2"
  type: "Convolution"
  bottom: "layer_64_1_conv1"
  top: "layer_64_1_conv2"
  param {
    lr_mult: 1
    decay_mult: 1
  }
  convolution_param {
    num_output: 64
    bias_term: false
    pad: 1
    kernel_size: 3
    stride: 1
    weight_filler {
      type: "msra"
    }
    bias_filler {
      type: "constant"
      value: 0
    }
  }
}
layer {
  name: "layer_64_1_sum"
  type: "Eltwise"
  bottom: "layer_64_1_conv2"
  bottom: "conv1_pool"
  top: "layer_64_1_sum"
}
layer {
  name: "layer_64_2_bn1"
  type: "BatchNorm"
  bottom: "layer_64_1_sum"
  top: "layer_64_2_bn1"
  param {
    lr_mult: 0
    decay_mult: 0
  }
  param {
    lr_mult: 0
    decay_mult: 0
  }
  param {
    lr_mult: 0
    decay_mult: 0
  }
}
layer {
  name: "layer_64_2_scale1"
  type: "Scale"
  bottom: "layer_64_2_bn1"
  top: "layer_64_2_bn1"
  param {
    lr_mult: 1
    decay_mult: 1
  }
  param {
    lr_mult: 2
    decay_mult: 1
  }
  scale_param {
    bias_term: true
  }
}
layer {
  name: "layer_64_2_relu1"
  type: "ReLU"
  bottom: "layer_64_2_bn1"
  top: "layer_64_2_bn1"
}
layer {
  name: "layer_64_2_conv1"
  type: "Convolution"
  bottom: "layer_64_2_bn1"
  top: "layer_64_2_conv1"
  param {
    lr_mult: 1
    decay_mult: 1
  }
  convolution_param {
    num_output: 64
    bias_term: false
    pad: 1
    kernel_size: 3
    stride: 1
    weight_filler {
      type: "msra"
    }
    bias_filler {
      type: "constant"
      value: 0
    }
  }
}
layer {
  name: "layer_64_2_bn2"
  type: "BatchNorm"
  bottom: "layer_64_2_conv1"
  top: "layer_64_2_conv1"
  param {
    lr_mult: 0
    decay_mult: 0
  }
  param {
    lr_mult: 0
    decay_mult: 0
  }
  param {
    lr_mult: 0
    decay_mult: 0
  }
}
layer {
  name: "layer_64_2_scale2"
  type: "Scale"
  bottom: "layer_64_2_conv1"
  top: "layer_64_2_conv1"
  param {
    lr_mult: 1
    decay_mult: 1
  }
  param {
    lr_mult: 2
    decay_mult: 1
  }
  scale_param {
    bias_term: true
  }
}
layer {
  name: "layer_64_2_relu2"
  type: "ReLU"
  bottom: "layer_64_2_conv1"
  top: "layer_64_2_conv1"
}
layer {
  name: "layer_64_2_conv2"
  type: "Convolution"
  bottom: "layer_64_2_conv1"
  top: "layer_64_2_conv2"
  param {
    lr_mult: 1
    decay_mult: 1
  }
  convolution_param {
    num_output: 64
    bias_term: false
    pad: 1
    kernel_size: 3
    stride: 1
    weight_filler {
      type: "msra"
    }
    bias_filler {
      type: "constant"
      value: 0
    }
  }
}
layer {
  name: "layer_64_2_sum"
  type: "Eltwise"
  bottom: "layer_64_2_conv2"
  bottom: "layer_64_1_sum"
  top: "layer_64_2_sum"
}
layer {
  name: "layer_64_3_bn1"
  type: "BatchNorm"
  bottom: "layer_64_2_sum"
  top: "layer_64_3_bn1"
  param {
    lr_mult: 0
    decay_mult: 0
  }
  param {
    lr_mult: 0
    decay_mult: 0
  }
  param {
    lr_mult: 0
    decay_mult: 0
  }
}
layer {
  name: "layer_64_3_scale1"
  type: "Scale"
  bottom: "layer_64_3_bn1"
  top: "layer_64_3_bn1"
  param {
    lr_mult: 1
    decay_mult: 1
  }
  param {
    lr_mult: 2
    decay_mult: 1
  }
  scale_param {
    bias_term: true
  }
}
layer {
  name: "layer_64_3_relu1"
  type: "ReLU"
  bottom: "layer_64_3_bn1"
  top: "layer_64_3_bn1"
}
layer {
  name: "layer_64_3_conv1"
  type: "Convolution"
  bottom: "layer_64_3_bn1"
  top: "layer_64_3_conv1"
  param {
    lr_mult: 1
    decay_mult: 1
  }
  convolution_param {
    num_output: 64
    bias_term: false
    pad: 1
    kernel_size: 3
    stride: 1
    weight_filler {
      type: "msra"
    }
    bias_filler {
      type: "constant"
      value: 0
    }
  }
}
layer {
  name: "layer_64_3_bn2"
  type: "BatchNorm"
  bottom: "layer_64_3_conv1"
  top: "layer_64_3_conv1"
  param {
    lr_mult: 0
    decay_mult: 0
  }
  param {
    lr_mult: 0
    decay_mult: 0
  }
  param {
    lr_mult: 0
    decay_mult: 0
  }
}
layer {
  name: "layer_64_3_scale2"
  type: "Scale"
  bottom: "layer_64_3_conv1"
  top: "layer_64_3_conv1"
  param {
    lr_mult: 1
    decay_mult: 1
  }
  param {
    lr_mult: 2
    decay_mult: 1
  }
  scale_param {
    bias_term: true
  }
}
layer {
  name: "layer_64_3_relu2"
  type: "ReLU"
  bottom: "layer_64_3_conv1"
  top: "layer_64_3_conv1"
}
layer {
  name: "layer_64_3_conv2"
  type: "Convolution"
  bottom: "layer_64_3_conv1"
  top: "layer_64_3_conv2"
  param {
    lr_mult: 1
    decay_mult: 1
  }
  convolution_param {
    num_output: 64
    bias_term: false
    pad: 1
    kernel_size: 3
    stride: 1
    weight_filler {
      type: "msra"
    }
    bias_filler {
      type: "constant"
      value: 0
    }
  }
}
layer {
  name: "layer_64_3_sum"
  type: "Eltwise"
  bottom: "layer_64_3_conv2"
  bottom: "layer_64_2_sum"
  top: "layer_64_3_sum"
}
layer {
  name: "layer_128_1_bn1"
  type: "BatchNorm"
  bottom: "layer_64_3_sum"
  top: "layer_128_1_bn1"
  param {
    lr_mult: 0
    decay_mult: 0
  }
  param {
    lr_mult: 0
    decay_mult: 0
  }
  param {
    lr_mult: 0
    decay_mult: 0
  }
}
layer {
  name: "layer_128_1_scale1"
  type: "Scale"
  bottom: "layer_128_1_bn1"
  top: "layer_128_1_bn1"
  param {
    lr_mult: 1
    decay_mult: 1
  }
  param {
    lr_mult: 2
    decay_mult: 1
  }
  scale_param {
    bias_term: true
  }
}
layer {
  name: "layer_128_1_relu1"
  type: "ReLU"
  bottom: "layer_128_1_bn1"
  top: "layer_128_1_bn1"
}
layer {
  name: "layer_128_1_conv1"
  type: "Convolution"
  bottom: "layer_128_1_bn1"
  top: "layer_128_1_conv1"
  param {
    lr_mult: 1
    decay_mult: 1
  }
  convolution_param {
    num_output: 128
    bias_term: false
    pad: 1
    kernel_size: 3
    stride: 2
    weight_filler {
      type: "msra"
    }
    bias_filler {
      type: "constant"
      value: 0
    }
  }
}
layer {
  name: "layer_128_1_bn2"
  type: "BatchNorm"
  bottom: "layer_128_1_conv1"
  top: "layer_128_1_conv1"
  param {
    lr_mult: 0
    decay_mult: 0
  }
  param {
    lr_mult: 0
    decay_mult: 0
  }
  param {
    lr_mult: 0
    decay_mult: 0
  }
}
layer {
  name: "layer_128_1_scale2"
  type: "Scale"
  bottom: "layer_128_1_conv1"
  top: "layer_128_1_conv1"
  param {
    lr_mult: 1
    decay_mult: 1
  }
  param {
    lr_mult: 2
    decay_mult: 1
  }
  scale_param {
    bias_term: true
  }
}
layer {
  name: "layer_128_1_relu2"
  type: "ReLU"
  bottom: "layer_128_1_conv1"
  top: "layer_128_1_conv1"
}
layer {
  name: "layer_128_1_conv2"
  type: "Convolution"
  bottom: "layer_128_1_conv1"
  top: "layer_128_1_conv2"
  param {
    lr_mult: 1
    decay_mult: 1
  }
  convolution_param {
    num_output: 128
    bias_term: false
    pad: 1
    kernel_size: 3
    stride: 1
    weight_filler {
      type: "msra"
    }
    bias_filler {
      type: "constant"
      value: 0
    }
  }
}
layer {
  name: "layer_128_1_conv_expand"
  type: "Convolution"
  bottom: "layer_128_1_bn1"
  top: "layer_128_1_conv_expand"
  param {
    lr_mult: 1
    decay_mult: 1
  }
  convolution_param {
    num_output: 128
    bias_term: false
    pad: 0
    kernel_size: 1
    stride: 2
    weight_filler {
      type: "msra"
    }
    bias_filler {
      type: "constant"
      value: 0
    }
  }
}
layer {
  name: "layer_128_1_sum"
  type: "Eltwise"
  bottom: "layer_128_1_conv_expand"
  bottom: "layer_128_1_conv2"
  top: "layer_128_1_sum"
}
layer {
  name: "layer_128_2_bn1"
  type: "BatchNorm"
  bottom: "layer_128_1_sum"
  top: "layer_128_2_bn1"
  param {
    lr_mult: 0
    decay_mult: 0
  }
  param {
    lr_mult: 0
    decay_mult: 0
  }
  param {
    lr_mult: 0
    decay_mult: 0
  }
}
layer {
  name: "layer_128_2_scale1"
  type: "Scale"
  bottom: "layer_128_2_bn1"
  top: "layer_128_2_bn1"
  param {
    lr_mult: 1
    decay_mult: 1
  }
  param {
    lr_mult: 2
    decay_mult: 1
  }
  scale_param {
    bias_term: true
  }
}
layer {
  name: "layer_128_2_relu1"
  type: "ReLU"
  bottom: "layer_128_2_bn1"
  top: "layer_128_2_bn1"
}
layer {
  name: "layer_128_2_conv1"
  type: "Convolution"
  bottom: "layer_128_2_bn1"
  top: "layer_128_2_conv1"
  param {
    lr_mult: 1
    decay_mult: 1
  }
  convolution_param {
    num_output: 128
    bias_term: false
    pad: 1
    kernel_size: 3
    stride: 1
    weight_filler {
      type: "msra"
    }
    bias_filler {
      type: "constant"
      value: 0
    }
  }
}
layer {
  name: "layer_128_2_bn2"
  type: "BatchNorm"
  bottom: "layer_128_2_conv1"
  top: "layer_128_2_conv1"
  param {
    lr_mult: 0
    decay_mult: 0
  }
  param {
    lr_mult: 0
    decay_mult: 0
  }
  param {
    lr_mult: 0
    decay_mult: 0
  }
}
layer {
  name: "layer_128_2_scale2"
  type: "Scale"
  bottom: "layer_128_2_conv1"
  top: "layer_128_2_conv1"
  param {
    lr_mult: 1
    decay_mult: 1
  }
  param {
    lr_mult: 2
    decay_mult: 1
  }
  scale_param {
    bias_term: true
  }
}
layer {
  name: "layer_128_2_relu2"
  type: "ReLU"
  bottom: "layer_128_2_conv1"
  top: "layer_128_2_conv1"
}
layer {
  name: "layer_128_2_conv2"
  type: "Convolution"
  bottom: "layer_128_2_conv1"
  top: "layer_128_2_conv2"
  param {
    lr_mult: 1
    decay_mult: 1
  }
  convolution_param {
    num_output: 128
    bias_term: false
    pad: 1
    kernel_size: 3
    stride: 1
    weight_filler {
      type: "msra"
    }
    bias_filler {
      type: "constant"
      value: 0
    }
  }
}
layer {
  name: "layer_128_2_sum"
  type: "Eltwise"
  bottom: "layer_128_2_conv2"
  bottom: "layer_128_1_sum"
  top: "layer_128_2_sum"
}
layer {
  name: "layer_128_3_bn1"
  type: "BatchNorm"
  bottom: "layer_128_2_sum"
  top: "layer_128_3_bn1"
  param {
    lr_mult: 0
    decay_mult: 0
  }
  param {
    lr_mult: 0
    decay_mult: 0
  }
  param {
    lr_mult: 0
    decay_mult: 0
  }
}
layer {
  name: "layer_128_3_scale1"
  type: "Scale"
  bottom: "layer_128_3_bn1"
  top: "layer_128_3_bn1"
  param {
    lr_mult: 1
    decay_mult: 1
  }
  param {
    lr_mult: 2
    decay_mult: 1
  }
  scale_param {
    bias_term: true
  }
}
layer {
  name: "layer_128_3_relu1"
  type: "ReLU"
  bottom: "layer_128_3_bn1"
  top: "layer_128_3_bn1"
}
layer {
  name: "layer_128_3_conv1"
  type: "Convolution"
  bottom: "layer_128_3_bn1"
  top: "layer_128_3_conv1"
  param {
    lr_mult: 1
    decay_mult: 1
  }
  convolution_param {
    num_output: 128
    bias_term: false
    pad: 1
    kernel_size: 3
    stride: 1
    weight_filler {
      type: "msra"
    }
    bias_filler {
      type: "constant"
      value: 0
    }
  }
}
layer {
  name: "layer_128_3_bn2"
  type: "BatchNorm"
  bottom: "layer_128_3_conv1"
  top: "layer_128_3_conv1"
  param {
    lr_mult: 0
    decay_mult: 0
  }
  param {
    lr_mult: 0
    decay_mult: 0
  }
  param {
    lr_mult: 0
    decay_mult: 0
  }
}
layer {
  name: "layer_128_3_scale2"
  type: "Scale"
  bottom: "layer_128_3_conv1"
  top: "layer_128_3_conv1"
  param {
    lr_mult: 1
    decay_mult: 1
  }
  param {
    lr_mult: 2
    decay_mult: 1
  }
  scale_param {
    bias_term: true
  }
}
layer {
  name: "layer_128_3_relu2"
  type: "ReLU"
  bottom: "layer_128_3_conv1"
  top: "layer_128_3_conv1"
}
layer {
  name: "layer_128_3_conv2"
  type: "Convolution"
  bottom: "layer_128_3_conv1"
  top: "layer_128_3_conv2"
  param {
    lr_mult: 1
    decay_mult: 1
  }
  convolution_param {
    num_output: 128
    bias_term: false
    pad: 1
    kernel_size: 3
    stride: 1
    weight_filler {
      type: "msra"
    }
    bias_filler {
      type: "constant"
      value: 0
    }
  }
}
layer {
  name: "layer_128_3_sum"
  type: "Eltwise"
  bottom: "layer_128_3_conv2"
  bottom: "layer_128_2_sum"
  top: "layer_128_3_sum"
}
layer {
  name: "layer_128_4_bn1"
  type: "BatchNorm"
  bottom: "layer_128_3_sum"
  top: "layer_128_4_bn1"
  param {
    lr_mult: 0
    decay_mult: 0
  }
  param {
    lr_mult: 0
    decay_mult: 0
  }
  param {
    lr_mult: 0
    decay_mult: 0
  }
}
layer {
  name: "layer_128_4_scale1"
  type: "Scale"
  bottom: "layer_128_4_bn1"
  top: "layer_128_4_bn1"
  param {
    lr_mult: 1
    decay_mult: 1
  }
  param {
    lr_mult: 2
    decay_mult: 1
  }
  scale_param {
    bias_term: true
  }
}
layer {
  name: "layer_128_4_relu1"
  type: "ReLU"
  bottom: "layer_128_4_bn1"
  top: "layer_128_4_bn1"
}
layer {
  name: "layer_128_4_conv1"
  type: "Convolution"
  bottom: "layer_128_4_bn1"
  top: "layer_128_4_conv1"
  param {
    lr_mult: 1
    decay_mult: 1
  }
  convolution_param {
    num_output: 128
    bias_term: false
    pad: 1
    kernel_size: 3
    stride: 1
    weight_filler {
      type: "msra"
    }
    bias_filler {
      type: "constant"
      value: 0
    }
  }
}
layer {
  name: "layer_128_4_bn2"
  type: "BatchNorm"
  bottom: "layer_128_4_conv1"
  top: "layer_128_4_conv1"
  param {
    lr_mult: 0
    decay_mult: 0
  }
  param {
    lr_mult: 0
    decay_mult: 0
  }
  param {
    lr_mult: 0
    decay_mult: 0
  }
}
layer {
  name: "layer_128_4_scale2"
  type: "Scale"
  bottom: "layer_128_4_conv1"
  top: "layer_128_4_conv1"
  param {
    lr_mult: 1
    decay_mult: 1
  }
  param {
    lr_mult: 2
    decay_mult: 1
  }
  scale_param {
    bias_term: true
  }
}
layer {
  name: "layer_128_4_relu2"
  type: "ReLU"
  bottom: "layer_128_4_conv1"
  top: "layer_128_4_conv1"
}
layer {
  name: "layer_128_4_conv2"
  type: "Convolution"
  bottom: "layer_128_4_conv1"
  top: "layer_128_4_conv2"
  param {
    lr_mult: 1
    decay_mult: 1
  }
  convolution_param {
    num_output: 128
    bias_term: false
    pad: 1
    kernel_size: 3
    stride: 1
    weight_filler {
      type: "msra"
    }
    bias_filler {
      type: "constant"
      value: 0
    }
  }
}
layer {
  name: "layer_128_4_sum"
  type: "Eltwise"
  bottom: "layer_128_4_conv2"
  bottom: "layer_128_3_sum"
  top: "layer_128_4_sum"
}
layer {
  name: "layer_256_1_bn1"
  type: "BatchNorm"
  bottom: "layer_128_4_sum"
  top: "layer_256_1_bn1"
  param {
    lr_mult: 0
    decay_mult: 0
  }
  param {
    lr_mult: 0
    decay_mult: 0
  }
  param {
    lr_mult: 0
    decay_mult: 0
  }
}
layer {
  name: "layer_256_1_scale1"
  type: "Scale"
  bottom: "layer_256_1_bn1"
  top: "layer_256_1_bn1"
  param {
    lr_mult: 1
    decay_mult: 1
  }
  param {
    lr_mult: 2
    decay_mult: 1
  }
  scale_param {
    bias_term: true
  }
}
layer {
  name: "layer_256_1_relu1"
  type: "ReLU"
  bottom: "layer_256_1_bn1"
  top: "layer_256_1_bn1"
}
layer {
  name: "layer_256_1_conv1"
  type: "Convolution"
  bottom: "layer_256_1_bn1"
  top: "layer_256_1_conv1"
  param {
    lr_mult: 1
    decay_mult: 1
  }
  convolution_param {
    num_output: 256
    bias_term: false
    pad: 1
    kernel_size: 3
    stride: 2
    weight_filler {
      type: "msra"
    }
    bias_filler {
      type: "constant"
      value: 0
    }
  }
}
layer {
  name: "layer_256_1_bn2"
  type: "BatchNorm"
  bottom: "layer_256_1_conv1"
  top: "layer_256_1_conv1"
  param {
    lr_mult: 0
    decay_mult: 0
  }
  param {
    lr_mult: 0
    decay_mult: 0
  }
  param {
    lr_mult: 0
    decay_mult: 0
  }
}
layer {
  name: "layer_256_1_scale2"
  type: "Scale"
  bottom: "layer_256_1_conv1"
  top: "layer_256_1_conv1"
  param {
    lr_mult: 1
    decay_mult: 1
  }
  param {
    lr_mult: 2
    decay_mult: 1
  }
  scale_param {
    bias_term: true
  }
}
layer {
  name: "layer_256_1_relu2"
  type: "ReLU"
  bottom: "layer_256_1_conv1"
  top: "layer_256_1_conv1"
}
layer {
  name: "layer_256_1_conv2"
  type: "Convolution"
  bottom: "layer_256_1_conv1"
  top: "layer_256_1_conv2"
  param {
    lr_mult: 1
    decay_mult: 1
  }
  convolution_param {
    num_output: 256
    bias_term: false
    pad: 1
    kernel_size: 3
    stride: 1
    weight_filler {
      type: "msra"
    }
    bias_filler {
      type: "constant"
      value: 0
    }
  }
}
layer {
  name: "layer_256_1_conv_expand"
  type: "Convolution"
  bottom: "layer_256_1_bn1"
  top: "layer_256_1_conv_expand"
  param {
    lr_mult: 1
    decay_mult: 1
  }
  convolution_param {
    num_output: 256
    bias_term: false
    pad: 0
    kernel_size: 1
    stride: 2
    weight_filler {
      type: "msra"
    }
    bias_filler {
      type: "constant"
      value: 0
    }
  }
}
layer {
  name: "layer_256_1_sum"
  type: "Eltwise"
  bottom: "layer_256_1_conv_expand"
  bottom: "layer_256_1_conv2"
  top: "layer_256_1_sum"
}
layer {
  name: "layer_256_2_bn1"
  type: "BatchNorm"
  bottom: "layer_256_1_sum"
  top: "layer_256_2_bn1"
  param {
    lr_mult: 0
    decay_mult: 0
  }
  param {
    lr_mult: 0
    decay_mult: 0
  }
  param {
    lr_mult: 0
    decay_mult: 0
  }
}
layer {
  name: "layer_256_2_scale1"
  type: "Scale"
  bottom: "layer_256_2_bn1"
  top: "layer_256_2_bn1"
  param {
    lr_mult: 1
    decay_mult: 1
  }
  param {
    lr_mult: 2
    decay_mult: 1
  }
  scale_param {
    bias_term: true
  }
}
layer {
  name: "layer_256_2_relu1"
  type: "ReLU"
  bottom: "layer_256_2_bn1"
  top: "layer_256_2_bn1"
}
layer {
  name: "layer_256_2_conv1"
  type: "Convolution"
  bottom: "layer_256_2_bn1"
  top: "layer_256_2_conv1"
  param {
    lr_mult: 1
    decay_mult: 1
  }
  convolution_param {
    num_output: 256
    bias_term: false
    pad: 1
    kernel_size: 3
    stride: 1
    weight_filler {
      type: "msra"
    }
    bias_filler {
      type: "constant"
      value: 0
    }
  }
}
layer {
  name: "layer_256_2_bn2"
  type: "BatchNorm"
  bottom: "layer_256_2_conv1"
  top: "layer_256_2_conv1"
  param {
    lr_mult: 0
    decay_mult: 0
  }
  param {
    lr_mult: 0
    decay_mult: 0
  }
  param {
    lr_mult: 0
    decay_mult: 0
  }
}
layer {
  name: "layer_256_2_scale2"
  type: "Scale"
  bottom: "layer_256_2_conv1"
  top: "layer_256_2_conv1"
  param {
    lr_mult: 1
    decay_mult: 1
  }
  param {
    lr_mult: 2
    decay_mult: 1
  }
  scale_param {
    bias_term: true
  }
}
layer {
  name: "layer_256_2_relu2"
  type: "ReLU"
  bottom: "layer_256_2_conv1"
  top: "layer_256_2_conv1"
}
layer {
  name: "layer_256_2_conv2"
  type: "Convolution"
  bottom: "layer_256_2_conv1"
  top: "layer_256_2_conv2"
  param {
    lr_mult: 1
    decay_mult: 1
  }
  convolution_param {
    num_output: 256
    bias_term: false
    pad: 1
    kernel_size: 3
    stride: 1
    weight_filler {
      type: "msra"
    }
    bias_filler {
      type: "constant"
      value: 0
    }
  }
}
layer {
  name: "layer_256_2_sum"
  type: "Eltwise"
  bottom: "layer_256_2_conv2"
  bottom: "layer_256_1_sum"
  top: "layer_256_2_sum"
}
layer {
  name: "layer_256_3_bn1"
  type: "BatchNorm"
  bottom: "layer_256_2_sum"
  top: "layer_256_3_bn1"
  param {
    lr_mult: 0
    decay_mult: 0
  }
  param {
    lr_mult: 0
    decay_mult: 0
  }
  param {
    lr_mult: 0
    decay_mult: 0
  }
}
layer {
  name: "layer_256_3_scale1"
  type: "Scale"
  bottom: "layer_256_3_bn1"
  top: "layer_256_3_bn1"
  param {
    lr_mult: 1
    decay_mult: 1
  }
  param {
    lr_mult: 2
    decay_mult: 1
  }
  scale_param {
    bias_term: true
  }
}
layer {
  name: "layer_256_3_relu1"
  type: "ReLU"
  bottom: "layer_256_3_bn1"
  top: "layer_256_3_bn1"
}
layer {
  name: "layer_256_3_conv1"
  type: "Convolution"
  bottom: "layer_256_3_bn1"
  top: "layer_256_3_conv1"
  param {
    lr_mult: 1
    decay_mult: 1
  }
  convolution_param {
    num_output: 256
    bias_term: false
    pad: 1
    kernel_size: 3
    stride: 1
    weight_filler {
      type: "msra"
    }
    bias_filler {
      type: "constant"
      value: 0
    }
  }
}
layer {
  name: "layer_256_3_bn2"
  type: "BatchNorm"
  bottom: "layer_256_3_conv1"
  top: "layer_256_3_conv1"
  param {
    lr_mult: 0
    decay_mult: 0
  }
  param {
    lr_mult: 0
    decay_mult: 0
  }
  param {
    lr_mult: 0
    decay_mult: 0
  }
}
layer {
  name: "layer_256_3_scale2"
  type: "Scale"
  bottom: "layer_256_3_conv1"
  top: "layer_256_3_conv1"
  param {
    lr_mult: 1
    decay_mult: 1
  }
  param {
    lr_mult: 2
    decay_mult: 1
  }
  scale_param {
    bias_term: true
  }
}
layer {
  name: "layer_256_3_relu2"
  type: "ReLU"
  bottom: "layer_256_3_conv1"
  top: "layer_256_3_conv1"
}
layer {
  name: "layer_256_3_conv2"
  type: "Convolution"
  bottom: "layer_256_3_conv1"
  top: "layer_256_3_conv2"
  param {
    lr_mult: 1
    decay_mult: 1
  }
  convolution_param {
    num_output: 256
    bias_term: false
    pad: 1
    kernel_size: 3
    stride: 1
    weight_filler {
      type: "msra"
    }
    bias_filler {
      type: "constant"
      value: 0
    }
  }
}
layer {
  name: "layer_256_3_sum"
  type: "Eltwise"
  bottom: "layer_256_3_conv2"
  bottom: "layer_256_2_sum"
  top: "layer_256_3_sum"
}
layer {
  name: "layer_256_4_bn1"
  type: "BatchNorm"
  bottom: "layer_256_3_sum"
  top: "layer_256_4_bn1"
  param {
    lr_mult: 0
    decay_mult: 0
  }
  param {
    lr_mult: 0
    decay_mult: 0
  }
  param {
    lr_mult: 0
    decay_mult: 0
  }
}
layer {
  name: "layer_256_4_scale1"
  type: "Scale"
  bottom: "layer_256_4_bn1"
  top: "layer_256_4_bn1"
  param {
    lr_mult: 1
    decay_mult: 1
  }
  param {
    lr_mult: 2
    decay_mult: 1
  }
  scale_param {
    bias_term: true
  }
}
layer {
  name: "layer_256_4_relu1"
  type: "ReLU"
  bottom: "layer_256_4_bn1"
  top: "layer_256_4_bn1"
}
layer {
  name: "layer_256_4_conv1"
  type: "Convolution"
  bottom: "layer_256_4_bn1"
  top: "layer_256_4_conv1"
  param {
    lr_mult: 1
    decay_mult: 1
  }
  convolution_param {
    num_output: 256
    bias_term: false
    pad: 1
    kernel_size: 3
    stride: 1
    weight_filler {
      type: "msra"
    }
    bias_filler {
      type: "constant"
      value: 0
    }
  }
}
layer {
  name: "layer_256_4_bn2"
  type: "BatchNorm"
  bottom: "layer_256_4_conv1"
  top: "layer_256_4_conv1"
  param {
    lr_mult: 0
    decay_mult: 0
  }
  param {
    lr_mult: 0
    decay_mult: 0
  }
  param {
    lr_mult: 0
    decay_mult: 0
  }
}
layer {
  name: "layer_256_4_scale2"
  type: "Scale"
  bottom: "layer_256_4_conv1"
  top: "layer_256_4_conv1"
  param {
    lr_mult: 1
    decay_mult: 1
  }
  param {
    lr_mult: 2
    decay_mult: 1
  }
  scale_param {
    bias_term: true
  }
}
layer {
  name: "layer_256_4_relu2"
  type: "ReLU"
  bottom: "layer_256_4_conv1"
  top: "layer_256_4_conv1"
}
layer {
  name: "layer_256_4_conv2"
  type: "Convolution"
  bottom: "layer_256_4_conv1"
  top: "layer_256_4_conv2"
  param {
    lr_mult: 1
    decay_mult: 1
  }
  convolution_param {
    num_output: 256
    bias_term: false
    pad: 1
    kernel_size: 3
    stride: 1
    weight_filler {
      type: "msra"
    }
    bias_filler {
      type: "constant"
      value: 0
    }
  }
}
layer {
  name: "layer_256_4_sum"
  type: "Eltwise"
  bottom: "layer_256_4_conv2"
  bottom: "layer_256_3_sum"
  top: "layer_256_4_sum"
}
layer {
  name: "layer_256_5_bn1"
  type: "BatchNorm"
  bottom: "layer_256_4_sum"
  top: "layer_256_5_bn1"
  param {
    lr_mult: 0
    decay_mult: 0
  }
  param {
    lr_mult: 0
    decay_mult: 0
  }
  param {
    lr_mult: 0
    decay_mult: 0
  }
}
layer {
  name: "layer_256_5_scale1"
  type: "Scale"
  bottom: "layer_256_5_bn1"
  top: "layer_256_5_bn1"
  param {
    lr_mult: 1
    decay_mult: 1
  }
  param {
    lr_mult: 2
    decay_mult: 1
  }
  scale_param {
    bias_term: true
  }
}
layer {
  name: "layer_256_5_relu1"
  type: "ReLU"
  bottom: "layer_256_5_bn1"
  top: "layer_256_5_bn1"
}
layer {
  name: "layer_256_5_conv1"
  type: "Convolution"
  bottom: "layer_256_5_bn1"
  top: "layer_256_5_conv1"
  param {
    lr_mult: 1
    decay_mult: 1
  }
  convolution_param {
    num_output: 256
    bias_term: false
    pad: 1
    kernel_size: 3
    stride: 1
    weight_filler {
      type: "msra"
    }
    bias_filler {
      type: "constant"
      value: 0
    }
  }
}
layer {
  name: "layer_256_5_bn2"
  type: "BatchNorm"
  bottom: "layer_256_5_conv1"
  top: "layer_256_5_conv1"
  param {
    lr_mult: 0
    decay_mult: 0
  }
  param {
    lr_mult: 0
    decay_mult: 0
  }
  param {
    lr_mult: 0
    decay_mult: 0
  }
}
layer {
  name: "layer_256_5_scale2"
  type: "Scale"
  bottom: "layer_256_5_conv1"
  top: "layer_256_5_conv1"
  param {
    lr_mult: 1
    decay_mult: 1
  }
  param {
    lr_mult: 2
    decay_mult: 1
  }
  scale_param {
    bias_term: true
  }
}
layer {
  name: "layer_256_5_relu2"
  type: "ReLU"
  bottom: "layer_256_5_conv1"
  top: "layer_256_5_conv1"
}
layer {
  name: "layer_256_5_conv2"
  type: "Convolution"
  bottom: "layer_256_5_conv1"
  top: "layer_256_5_conv2"
  param {
    lr_mult: 1
    decay_mult: 1
  }
  convolution_param {
    num_output: 256
    bias_term: false
    pad: 1
    kernel_size: 3
    stride: 1
    weight_filler {
      type: "msra"
    }
    bias_filler {
      type: "constant"
      value: 0
    }
  }
}
layer {
  name: "layer_256_5_sum"
  type: "Eltwise"
  bottom: "layer_256_5_conv2"
  bottom: "layer_256_4_sum"
  top: "layer_256_5_sum"
}
layer {
  name: "layer_256_6_bn1"
  type: "BatchNorm"
  bottom: "layer_256_5_sum"
  top: "layer_256_6_bn1"
  param {
    lr_mult: 0
    decay_mult: 0
  }
  param {
    lr_mult: 0
    decay_mult: 0
  }
  param {
    lr_mult: 0
    decay_mult: 0
  }
}
layer {
  name: "layer_256_6_scale1"
  type: "Scale"
  bottom: "layer_256_6_bn1"
  top: "layer_256_6_bn1"
  param {
    lr_mult: 1
    decay_mult: 1
  }
  param {
    lr_mult: 2
    decay_mult: 1
  }
  scale_param {
    bias_term: true
  }
}
layer {
  name: "layer_256_6_relu1"
  type: "ReLU"
  bottom: "layer_256_6_bn1"
  top: "layer_256_6_bn1"
}
layer {
  name: "layer_256_6_conv1"
  type: "Convolution"
  bottom: "layer_256_6_bn1"
  top: "layer_256_6_conv1"
  param {
    lr_mult: 1
    decay_mult: 1
  }
  convolution_param {
    num_output: 256
    bias_term: false
    pad: 1
    kernel_size: 3
    stride: 1
    weight_filler {
      type: "msra"
    }
    bias_filler {
      type: "constant"
      value: 0
    }
  }
}
layer {
  name: "layer_256_6_bn2"
  type: "BatchNorm"
  bottom: "layer_256_6_conv1"
  top: "layer_256_6_conv1"
  param {
    lr_mult: 0
    decay_mult: 0
  }
  param {
    lr_mult: 0
    decay_mult: 0
  }
  param {
    lr_mult: 0
    decay_mult: 0
  }
}
layer {
  name: "layer_256_6_scale2"
  type: "Scale"
  bottom: "layer_256_6_conv1"
  top: "layer_256_6_conv1"
  param {
    lr_mult: 1
    decay_mult: 1
  }
  param {
    lr_mult: 2
    decay_mult: 1
  }
  scale_param {
    bias_term: true
  }
}
layer {
  name: "layer_256_6_relu2"
  type: "ReLU"
  bottom: "layer_256_6_conv1"
  top: "layer_256_6_conv1"
}
layer {
  name: "layer_256_6_conv2"
  type: "Convolution"
  bottom: "layer_256_6_conv1"
  top: "layer_256_6_conv2"
  param {
    lr_mult: 1
    decay_mult: 1
  }
  convolution_param {
    num_output: 256
    bias_term: false
    pad: 1
    kernel_size: 3
    stride: 1
    weight_filler {
      type: "msra"
    }
    bias_filler {
      type: "constant"
      value: 0
    }
  }
}
layer {
  name: "layer_256_6_sum"
  type: "Eltwise"
  bottom: "layer_256_6_conv2"
  bottom: "layer_256_5_sum"
  top: "layer_256_6_sum"
}
layer {
  name: "layer_512_1_bn1"
  type: "BatchNorm"
  bottom: "layer_256_6_sum"
  top: "layer_512_1_bn1"
  param {
    lr_mult: 0
    decay_mult: 0
  }
  param {
    lr_mult: 0
    decay_mult: 0
  }
  param {
    lr_mult: 0
    decay_mult: 0
  }
}
layer {
  name: "layer_512_1_scale1"
  type: "Scale"
  bottom: "layer_512_1_bn1"
  top: "layer_512_1_bn1"
  param {
    lr_mult: 1
    decay_mult: 1
  }
  para
I0526 09:18:13.751955 13987 layer_factory.hpp:77] Creating layer data
I0526 09:18:13.752054 13987 db_lmdb.cpp:35] Opened lmdb /home/k/PycharmProjects/AgeGenderDeepLearning-master/Folds/lmdb/Test_fold_is_0/age_train_lmdb
I0526 09:18:13.752084 13987 net.cpp:84] Creating Layer data
I0526 09:18:13.752091 13987 net.cpp:380] data -> data
I0526 09:18:13.752111 13987 net.cpp:380] data -> label
I0526 09:18:13.752123 13987 data_transformer.cpp:25] Loading mean file from: /home/k/PycharmProjects/AgeGenderDeepLearning-master/Folds/lmdb/Test_fold_is_0/mean.binaryproto
I0526 09:18:13.754954 13987 data_layer.cpp:45] output data size: 50,3,224,224
I0526 09:18:13.818192 13987 net.cpp:122] Setting up data
I0526 09:18:13.818222 13987 net.cpp:129] Top shape: 50 3 224 224 (7526400)
I0526 09:18:13.818226 13987 net.cpp:129] Top shape: 50 (50)
I0526 09:18:13.818229 13987 net.cpp:137] Memory required for data: 30105800
I0526 09:18:13.818239 13987 layer_factory.hpp:77] Creating layer data_bn
I0526 09:18:13.818254 13987 net.cpp:84] Creating Layer data_bn
I0526 09:18:13.818259 13987 net.cpp:406] data_bn <- data
I0526 09:18:13.818272 13987 net.cpp:380] data_bn -> data_bn
I0526 09:18:13.819217 13987 net.cpp:122] Setting up data_bn
I0526 09:18:13.819228 13987 net.cpp:129] Top shape: 50 3 224 224 (7526400)
I0526 09:18:13.819232 13987 net.cpp:137] Memory required for data: 60211400
I0526 09:18:13.819254 13987 layer_factory.hpp:77] Creating layer data_scale
I0526 09:18:13.819262 13987 net.cpp:84] Creating Layer data_scale
I0526 09:18:13.819267 13987 net.cpp:406] data_scale <- data_bn
I0526 09:18:13.819273 13987 net.cpp:367] data_scale -> data_bn (in-place)
I0526 09:18:13.819314 13987 layer_factory.hpp:77] Creating layer data_scale
I0526 09:18:13.819456 13987 net.cpp:122] Setting up data_scale
I0526 09:18:13.819465 13987 net.cpp:129] Top shape: 50 3 224 224 (7526400)
I0526 09:18:13.819468 13987 net.cpp:137] Memory required for data: 90317000
I0526 09:18:13.819476 13987 layer_factory.hpp:77] Creating layer conv1
I0526 09:18:13.819489 13987 net.cpp:84] Creating Layer conv1
I0526 09:18:13.819494 13987 net.cpp:406] conv1 <- data_bn
I0526 09:18:13.819499 13987 net.cpp:380] conv1 -> conv1
I0526 09:18:14.060876 13987 net.cpp:122] Setting up conv1
I0526 09:18:14.060907 13987 net.cpp:129] Top shape: 50 64 112 112 (40140800)
I0526 09:18:14.060911 13987 net.cpp:137] Memory required for data: 250880200
I0526 09:18:14.060923 13987 layer_factory.hpp:77] Creating layer conv1_bn
I0526 09:18:14.060936 13987 net.cpp:84] Creating Layer conv1_bn
I0526 09:18:14.060941 13987 net.cpp:406] conv1_bn <- conv1
I0526 09:18:14.060961 13987 net.cpp:367] conv1_bn -> conv1 (in-place)
I0526 09:18:14.061151 13987 net.cpp:122] Setting up conv1_bn
I0526 09:18:14.061161 13987 net.cpp:129] Top shape: 50 64 112 112 (40140800)
I0526 09:18:14.061163 13987 net.cpp:137] Memory required for data: 411443400
I0526 09:18:14.061174 13987 layer_factory.hpp:77] Creating layer conv1_scale
I0526 09:18:14.061182 13987 net.cpp:84] Creating Layer conv1_scale
I0526 09:18:14.061184 13987 net.cpp:406] conv1_scale <- conv1
I0526 09:18:14.061189 13987 net.cpp:367] conv1_scale -> conv1 (in-place)
I0526 09:18:14.061238 13987 layer_factory.hpp:77] Creating layer conv1_scale
I0526 09:18:14.061358 13987 net.cpp:122] Setting up conv1_scale
I0526 09:18:14.061367 13987 net.cpp:129] Top shape: 50 64 112 112 (40140800)
I0526 09:18:14.061370 13987 net.cpp:137] Memory required for data: 572006600
I0526 09:18:14.061377 13987 layer_factory.hpp:77] Creating layer conv1_relu
I0526 09:18:14.061383 13987 net.cpp:84] Creating Layer conv1_relu
I0526 09:18:14.061385 13987 net.cpp:406] conv1_relu <- conv1
I0526 09:18:14.061390 13987 net.cpp:367] conv1_relu -> conv1 (in-place)
I0526 09:18:14.061537 13987 net.cpp:122] Setting up conv1_relu
I0526 09:18:14.061547 13987 net.cpp:129] Top shape: 50 64 112 112 (40140800)
I0526 09:18:14.061561 13987 net.cpp:137] Memory required for data: 732569800
I0526 09:18:14.061565 13987 layer_factory.hpp:77] Creating layer conv1_pool
I0526 09:18:14.061571 13987 net.cpp:84] Creating Layer conv1_pool
I0526 09:18:14.061574 13987 net.cpp:406] conv1_pool <- conv1
I0526 09:18:14.061579 13987 net.cpp:380] conv1_pool -> conv1_pool
I0526 09:18:14.061635 13987 net.cpp:122] Setting up conv1_pool
I0526 09:18:14.061642 13987 net.cpp:129] Top shape: 50 64 56 56 (10035200)
I0526 09:18:14.061646 13987 net.cpp:137] Memory required for data: 772710600
I0526 09:18:14.061650 13987 layer_factory.hpp:77] Creating layer conv1_pool_conv1_pool_0_split
I0526 09:18:14.061655 13987 net.cpp:84] Creating Layer conv1_pool_conv1_pool_0_split
I0526 09:18:14.061658 13987 net.cpp:406] conv1_pool_conv1_pool_0_split <- conv1_pool
I0526 09:18:14.061663 13987 net.cpp:380] conv1_pool_conv1_pool_0_split -> conv1_pool_conv1_pool_0_split_0
I0526 09:18:14.061669 13987 net.cpp:380] conv1_pool_conv1_pool_0_split -> conv1_pool_conv1_pool_0_split_1
I0526 09:18:14.061708 13987 net.cpp:122] Setting up conv1_pool_conv1_pool_0_split
I0526 09:18:14.061715 13987 net.cpp:129] Top shape: 50 64 56 56 (10035200)
I0526 09:18:14.061719 13987 net.cpp:129] Top shape: 50 64 56 56 (10035200)
I0526 09:18:14.061722 13987 net.cpp:137] Memory required for data: 852992200
I0526 09:18:14.061725 13987 layer_factory.hpp:77] Creating layer layer_64_1_conv1
I0526 09:18:14.061736 13987 net.cpp:84] Creating Layer layer_64_1_conv1
I0526 09:18:14.061739 13987 net.cpp:406] layer_64_1_conv1 <- conv1_pool_conv1_pool_0_split_0
I0526 09:18:14.061745 13987 net.cpp:380] layer_64_1_conv1 -> layer_64_1_conv1
I0526 09:18:14.063089 13987 net.cpp:122] Setting up layer_64_1_conv1
I0526 09:18:14.063102 13987 net.cpp:129] Top shape: 50 64 56 56 (10035200)
I0526 09:18:14.063107 13987 net.cpp:137] Memory required for data: 893133000
I0526 09:18:14.063139 13987 layer_factory.hpp:77] Creating layer layer_64_1_bn2
I0526 09:18:14.063146 13987 net.cpp:84] Creating Layer layer_64_1_bn2
I0526 09:18:14.063150 13987 net.cpp:406] layer_64_1_bn2 <- layer_64_1_conv1
I0526 09:18:14.063155 13987 net.cpp:367] layer_64_1_bn2 -> layer_64_1_conv1 (in-place)
I0526 09:18:14.064049 13987 net.cpp:122] Setting up layer_64_1_bn2
I0526 09:18:14.064061 13987 net.cpp:129] Top shape: 50 64 56 56 (10035200)
I0526 09:18:14.064077 13987 net.cpp:137] Memory required for data: 933273800
I0526 09:18:14.064085 13987 layer_factory.hpp:77] Creating layer layer_64_1_scale2
I0526 09:18:14.064091 13987 net.cpp:84] Creating Layer layer_64_1_scale2
I0526 09:18:14.064095 13987 net.cpp:406] layer_64_1_scale2 <- layer_64_1_conv1
I0526 09:18:14.064100 13987 net.cpp:367] layer_64_1_scale2 -> layer_64_1_conv1 (in-place)
I0526 09:18:14.064144 13987 layer_factory.hpp:77] Creating layer layer_64_1_scale2
I0526 09:18:14.064234 13987 net.cpp:122] Setting up layer_64_1_scale2
I0526 09:18:14.064242 13987 net.cpp:129] Top shape: 50 64 56 56 (10035200)
I0526 09:18:14.064246 13987 net.cpp:137] Memory required for data: 973414600
I0526 09:18:14.064255 13987 layer_factory.hpp:77] Creating layer layer_64_1_relu2
I0526 09:18:14.064261 13987 net.cpp:84] Creating Layer layer_64_1_relu2
I0526 09:18:14.064265 13987 net.cpp:406] layer_64_1_relu2 <- layer_64_1_conv1
I0526 09:18:14.064270 13987 net.cpp:367] layer_64_1_relu2 -> layer_64_1_conv1 (in-place)
I0526 09:18:14.064885 13987 net.cpp:122] Setting up layer_64_1_relu2
I0526 09:18:14.064896 13987 net.cpp:129] Top shape: 50 64 56 56 (10035200)
I0526 09:18:14.064911 13987 net.cpp:137] Memory required for data: 1013555400
I0526 09:18:14.064915 13987 layer_factory.hpp:77] Creating layer layer_64_1_conv2
I0526 09:18:14.064924 13987 net.cpp:84] Creating Layer layer_64_1_conv2
I0526 09:18:14.064927 13987 net.cpp:406] layer_64_1_conv2 <- layer_64_1_conv1
I0526 09:18:14.064934 13987 net.cpp:380] layer_64_1_conv2 -> layer_64_1_conv2
I0526 09:18:14.065819 13987 net.cpp:122] Setting up layer_64_1_conv2
I0526 09:18:14.065841 13987 net.cpp:129] Top shape: 50 64 56 56 (10035200)
I0526 09:18:14.065845 13987 net.cpp:137] Memory required for data: 1053696200
I0526 09:18:14.065850 13987 layer_factory.hpp:77] Creating layer layer_64_1_sum
I0526 09:18:14.065856 13987 net.cpp:84] Creating Layer layer_64_1_sum
I0526 09:18:14.065860 13987 net.cpp:406] layer_64_1_sum <- layer_64_1_conv2
I0526 09:18:14.065865 13987 net.cpp:406] layer_64_1_sum <- conv1_pool_conv1_pool_0_split_1
I0526 09:18:14.065868 13987 net.cpp:380] layer_64_1_sum -> layer_64_1_sum
I0526 09:18:14.065893 13987 net.cpp:122] Setting up layer_64_1_sum
I0526 09:18:14.065901 13987 net.cpp:129] Top shape: 50 64 56 56 (10035200)
I0526 09:18:14.065903 13987 net.cpp:137] Memory required for data: 1093837000
I0526 09:18:14.065907 13987 layer_factory.hpp:77] Creating layer layer_64_1_sum_layer_64_1_sum_0_split
I0526 09:18:14.065912 13987 net.cpp:84] Creating Layer layer_64_1_sum_layer_64_1_sum_0_split
I0526 09:18:14.065915 13987 net.cpp:406] layer_64_1_sum_layer_64_1_sum_0_split <- layer_64_1_sum
I0526 09:18:14.065920 13987 net.cpp:380] layer_64_1_sum_layer_64_1_sum_0_split -> layer_64_1_sum_layer_64_1_sum_0_split_0
I0526 09:18:14.065927 13987 net.cpp:380] layer_64_1_sum_layer_64_1_sum_0_split -> layer_64_1_sum_layer_64_1_sum_0_split_1
I0526 09:18:14.065954 13987 net.cpp:122] Setting up layer_64_1_sum_layer_64_1_sum_0_split
I0526 09:18:14.065961 13987 net.cpp:129] Top shape: 50 64 56 56 (10035200)
I0526 09:18:14.065966 13987 net.cpp:129] Top shape: 50 64 56 56 (10035200)
I0526 09:18:14.065969 13987 net.cpp:137] Memory required for data: 1174118600
I0526 09:18:14.065973 13987 layer_factory.hpp:77] Creating layer layer_64_2_bn1
I0526 09:18:14.065980 13987 net.cpp:84] Creating Layer layer_64_2_bn1
I0526 09:18:14.065984 13987 net.cpp:406] layer_64_2_bn1 <- layer_64_1_sum_layer_64_1_sum_0_split_0
I0526 09:18:14.065989 13987 net.cpp:380] layer_64_2_bn1 -> layer_64_2_bn1
I0526 09:18:14.066143 13987 net.cpp:122] Setting up layer_64_2_bn1
I0526 09:18:14.066160 13987 net.cpp:129] Top shape: 50 64 56 56 (10035200)
I0526 09:18:14.066164 13987 net.cpp:137] Memory required for data: 1214259400
I0526 09:18:14.066172 13987 layer_factory.hpp:77] Creating layer layer_64_2_scale1
I0526 09:18:14.066179 13987 net.cpp:84] Creating Layer layer_64_2_scale1
I0526 09:18:14.066184 13987 net.cpp:406] layer_64_2_scale1 <- layer_64_2_bn1
I0526 09:18:14.066189 13987 net.cpp:367] layer_64_2_scale1 -> layer_64_2_bn1 (in-place)
I0526 09:18:14.066222 13987 layer_factory.hpp:77] Creating layer layer_64_2_scale1
I0526 09:18:14.066311 13987 net.cpp:122] Setting up layer_64_2_scale1
I0526 09:18:14.066319 13987 net.cpp:129] Top shape: 50 64 56 56 (10035200)
I0526 09:18:14.066323 13987 net.cpp:137] Memory required for data: 1254400200
I0526 09:18:14.066329 13987 layer_factory.hpp:77] Creating layer layer_64_2_relu1
I0526 09:18:14.066335 13987 net.cpp:84] Creating Layer layer_64_2_relu1
I0526 09:18:14.066339 13987 net.cpp:406] layer_64_2_relu1 <- layer_64_2_bn1
I0526 09:18:14.066344 13987 net.cpp:367] layer_64_2_relu1 -> layer_64_2_bn1 (in-place)
I0526 09:18:14.066956 13987 net.cpp:122] Setting up layer_64_2_relu1
I0526 09:18:14.066967 13987 net.cpp:129] Top shape: 50 64 56 56 (10035200)
I0526 09:18:14.066972 13987 net.cpp:137] Memory required for data: 1294541000
I0526 09:18:14.066975 13987 layer_factory.hpp:77] Creating layer layer_64_2_conv1
I0526 09:18:14.066984 13987 net.cpp:84] Creating Layer layer_64_2_conv1
I0526 09:18:14.066988 13987 net.cpp:406] layer_64_2_conv1 <- layer_64_2_bn1
I0526 09:18:14.066994 13987 net.cpp:380] layer_64_2_conv1 -> layer_64_2_conv1
I0526 09:18:14.068428 13987 net.cpp:122] Setting up layer_64_2_conv1
I0526 09:18:14.068439 13987 net.cpp:129] Top shape: 50 64 56 56 (10035200)
I0526 09:18:14.068444 13987 net.cpp:137] Memory required for data: 1334681800
I0526 09:18:14.068449 13987 layer_factory.hpp:77] Creating layer layer_64_2_bn2
I0526 09:18:14.068459 13987 net.cpp:84] Creating Layer layer_64_2_bn2
I0526 09:18:14.068464 13987 net.cpp:406] layer_64_2_bn2 <- layer_64_2_conv1
I0526 09:18:14.068470 13987 net.cpp:367] layer_64_2_bn2 -> layer_64_2_conv1 (in-place)
I0526 09:18:14.068626 13987 net.cpp:122] Setting up layer_64_2_bn2
I0526 09:18:14.068635 13987 net.cpp:129] Top shape: 50 64 56 56 (10035200)
I0526 09:18:14.068639 13987 net.cpp:137] Memory required for data: 1374822600
I0526 09:18:14.068646 13987 layer_factory.hpp:77] Creating layer layer_64_2_scale2
I0526 09:18:14.068655 13987 net.cpp:84] Creating Layer layer_64_2_scale2
I0526 09:18:14.068660 13987 net.cpp:406] layer_64_2_scale2 <- layer_64_2_conv1
I0526 09:18:14.068665 13987 net.cpp:367] layer_64_2_scale2 -> layer_64_2_conv1 (in-place)
I0526 09:18:14.068699 13987 layer_factory.hpp:77] Creating layer layer_64_2_scale2
I0526 09:18:14.068795 13987 net.cpp:122] Setting up layer_64_2_scale2
I0526 09:18:14.068804 13987 net.cpp:129] Top shape: 50 64 56 56 (10035200)
I0526 09:18:14.068809 13987 net.cpp:137] Memory required for data: 1414963400
I0526 09:18:14.068814 13987 layer_factory.hpp:77] Creating layer layer_64_2_relu2
I0526 09:18:14.068820 13987 net.cpp:84] Creating Layer layer_64_2_relu2
I0526 09:18:14.068825 13987 net.cpp:406] layer_64_2_relu2 <- layer_64_2_conv1
I0526 09:18:14.068830 13987 net.cpp:367] layer_64_2_relu2 -> layer_64_2_conv1 (in-place)
I0526 09:18:14.068967 13987 net.cpp:122] Setting up layer_64_2_relu2
I0526 09:18:14.068979 13987 net.cpp:129] Top shape: 50 64 56 56 (10035200)
I0526 09:18:14.068982 13987 net.cpp:137] Memory required for data: 1455104200
I0526 09:18:14.068985 13987 layer_factory.hpp:77] Creating layer layer_64_2_conv2
I0526 09:18:14.068994 13987 net.cpp:84] Creating Layer layer_64_2_conv2
I0526 09:18:14.069000 13987 net.cpp:406] layer_64_2_conv2 <- layer_64_2_conv1
I0526 09:18:14.069005 13987 net.cpp:380] layer_64_2_conv2 -> layer_64_2_conv2
I0526 09:18:14.070426 13987 net.cpp:122] Setting up layer_64_2_conv2
I0526 09:18:14.070439 13987 net.cpp:129] Top shape: 50 64 56 56 (10035200)
I0526 09:18:14.070444 13987 net.cpp:137] Memory required for data: 1495245000
I0526 09:18:14.070449 13987 layer_factory.hpp:77] Creating layer layer_64_2_sum
I0526 09:18:14.070466 13987 net.cpp:84] Creating Layer layer_64_2_sum
I0526 09:18:14.070471 13987 net.cpp:406] layer_64_2_sum <- layer_64_2_conv2
I0526 09:18:14.070474 13987 net.cpp:406] layer_64_2_sum <- layer_64_1_sum_layer_64_1_sum_0_split_1
I0526 09:18:14.070479 13987 net.cpp:380] layer_64_2_sum -> layer_64_2_sum
I0526 09:18:14.070503 13987 net.cpp:122] Setting up layer_64_2_sum
I0526 09:18:14.070511 13987 net.cpp:129] Top shape: 50 64 56 56 (10035200)
I0526 09:18:14.070515 13987 net.cpp:137] Memory required for data: 1535385800
I0526 09:18:14.070518 13987 layer_factory.hpp:77] Creating layer layer_64_2_sum_layer_64_2_sum_0_split
I0526 09:18:14.070525 13987 net.cpp:84] Creating Layer layer_64_2_sum_layer_64_2_sum_0_split
I0526 09:18:14.070529 13987 net.cpp:406] layer_64_2_sum_layer_64_2_sum_0_split <- layer_64_2_sum
I0526 09:18:14.070534 13987 net.cpp:380] layer_64_2_sum_layer_64_2_sum_0_split -> layer_64_2_sum_layer_64_2_sum_0_split_0
I0526 09:18:14.070544 13987 net.cpp:380] layer_64_2_sum_layer_64_2_sum_0_split -> layer_64_2_sum_layer_64_2_sum_0_split_1
I0526 09:18:14.070576 13987 net.cpp:122] Setting up layer_64_2_sum_layer_64_2_sum_0_split
I0526 09:18:14.070585 13987 net.cpp:129] Top shape: 50 64 56 56 (10035200)
I0526 09:18:14.070590 13987 net.cpp:129] Top shape: 50 64 56 56 (10035200)
I0526 09:18:14.070592 13987 net.cpp:137] Memory required for data: 1615667400
I0526 09:18:14.070595 13987 layer_factory.hpp:77] Creating layer layer_64_3_bn1
I0526 09:18:14.070602 13987 net.cpp:84] Creating Layer layer_64_3_bn1
I0526 09:18:14.070606 13987 net.cpp:406] layer_64_3_bn1 <- layer_64_2_sum_layer_64_2_sum_0_split_0
I0526 09:18:14.070612 13987 net.cpp:380] layer_64_3_bn1 -> layer_64_3_bn1
I0526 09:18:14.070768 13987 net.cpp:122] Setting up layer_64_3_bn1
I0526 09:18:14.070776 13987 net.cpp:129] Top shape: 50 64 56 56 (10035200)
I0526 09:18:14.070780 13987 net.cpp:137] Memory required for data: 1655808200
I0526 09:18:14.070791 13987 layer_factory.hpp:77] Creating layer layer_64_3_scale1
I0526 09:18:14.070801 13987 net.cpp:84] Creating Layer layer_64_3_scale1
I0526 09:18:14.070804 13987 net.cpp:406] layer_64_3_scale1 <- layer_64_3_bn1
I0526 09:18:14.070809 13987 net.cpp:367] layer_64_3_scale1 -> layer_64_3_bn1 (in-place)
I0526 09:18:14.070845 13987 layer_factory.hpp:77] Creating layer layer_64_3_scale1
I0526 09:18:14.070940 13987 net.cpp:122] Setting up layer_64_3_scale1
I0526 09:18:14.070950 13987 net.cpp:129] Top shape: 50 64 56 56 (10035200)
I0526 09:18:14.070953 13987 net.cpp:137] Memory required for data: 1695949000
I0526 09:18:14.070960 13987 layer_factory.hpp:77] Creating layer layer_64_3_relu1
I0526 09:18:14.070966 13987 net.cpp:84] Creating Layer layer_64_3_relu1
I0526 09:18:14.070969 13987 net.cpp:406] layer_64_3_relu1 <- layer_64_3_bn1
I0526 09:18:14.070973 13987 net.cpp:367] layer_64_3_relu1 -> layer_64_3_bn1 (in-place)
I0526 09:18:14.071115 13987 net.cpp:122] Setting up layer_64_3_relu1
I0526 09:18:14.071123 13987 net.cpp:129] Top shape: 50 64 56 56 (10035200)
I0526 09:18:14.071127 13987 net.cpp:137] Memory required for data: 1736089800
I0526 09:18:14.071130 13987 layer_factory.hpp:77] Creating layer layer_64_3_conv1
I0526 09:18:14.071140 13987 net.cpp:84] Creating Layer layer_64_3_conv1
I0526 09:18:14.071144 13987 net.cpp:406] layer_64_3_conv1 <- layer_64_3_bn1
I0526 09:18:14.071151 13987 net.cpp:380] layer_64_3_conv1 -> layer_64_3_conv1
I0526 09:18:14.073062 13987 net.cpp:122] Setting up layer_64_3_conv1
I0526 09:18:14.073076 13987 net.cpp:129] Top shape: 50 64 56 56 (10035200)
I0526 09:18:14.073081 13987 net.cpp:137] Memory required for data: 1776230600
I0526 09:18:14.073086 13987 layer_factory.hpp:77] Creating layer layer_64_3_bn2
I0526 09:18:14.073094 13987 net.cpp:84] Creating Layer layer_64_3_bn2
I0526 09:18:14.073099 13987 net.cpp:406] layer_64_3_bn2 <- layer_64_3_conv1
I0526 09:18:14.073106 13987 net.cpp:367] layer_64_3_bn2 -> layer_64_3_conv1 (in-place)
I0526 09:18:14.073285 13987 net.cpp:122] Setting up layer_64_3_bn2
I0526 09:18:14.073299 13987 net.cpp:129] Top shape: 50 64 56 56 (10035200)
I0526 09:18:14.073318 13987 net.cpp:137] Memory required for data: 1816371400
I0526 09:18:14.073330 13987 layer_factory.hpp:77] Creating layer layer_64_3_scale2
I0526 09:18:14.073340 13987 net.cpp:84] Creating Layer layer_64_3_scale2
I0526 09:18:14.073348 13987 net.cpp:406] layer_64_3_scale2 <- layer_64_3_conv1
I0526 09:18:14.073359 13987 net.cpp:367] layer_64_3_scale2 -> layer_64_3_conv1 (in-place)
I0526 09:18:14.073416 13987 layer_factory.hpp:77] Creating layer layer_64_3_scale2
I0526 09:18:14.073531 13987 net.cpp:122] Setting up layer_64_3_scale2
I0526 09:18:14.073541 13987 net.cpp:129] Top shape: 50 64 56 56 (10035200)
I0526 09:18:14.073545 13987 net.cpp:137] Memory required for data: 1856512200
I0526 09:18:14.073551 13987 layer_factory.hpp:77] Creating layer layer_64_3_relu2
I0526 09:18:14.073565 13987 net.cpp:84] Creating Layer layer_64_3_relu2
I0526 09:18:14.073568 13987 net.cpp:406] layer_64_3_relu2 <- layer_64_3_conv1
I0526 09:18:14.073573 13987 net.cpp:367] layer_64_3_relu2 -> layer_64_3_conv1 (in-place)
I0526 09:18:14.073724 13987 net.cpp:122] Setting up layer_64_3_relu2
I0526 09:18:14.073734 13987 net.cpp:129] Top shape: 50 64 56 56 (10035200)
I0526 09:18:14.073737 13987 net.cpp:137] Memory required for data: 1896653000
I0526 09:18:14.073740 13987 layer_factory.hpp:77] Creating layer layer_64_3_conv2
I0526 09:18:14.073750 13987 net.cpp:84] Creating Layer layer_64_3_conv2
I0526 09:18:14.073755 13987 net.cpp:406] layer_64_3_conv2 <- layer_64_3_conv1
I0526 09:18:14.073762 13987 net.cpp:380] layer_64_3_conv2 -> layer_64_3_conv2
I0526 09:18:14.075219 13987 net.cpp:122] Setting up layer_64_3_conv2
I0526 09:18:14.075232 13987 net.cpp:129] Top shape: 50 64 56 56 (10035200)
I0526 09:18:14.075235 13987 net.cpp:137] Memory required for data: 1936793800
I0526 09:18:14.075242 13987 layer_factory.hpp:77] Creating layer layer_64_3_sum
I0526 09:18:14.075248 13987 net.cpp:84] Creating Layer layer_64_3_sum
I0526 09:18:14.075253 13987 net.cpp:406] layer_64_3_sum <- layer_64_3_conv2
I0526 09:18:14.075258 13987 net.cpp:406] layer_64_3_sum <- layer_64_2_sum_layer_64_2_sum_0_split_1
I0526 09:18:14.075263 13987 net.cpp:380] layer_64_3_sum -> layer_64_3_sum
I0526 09:18:14.075290 13987 net.cpp:122] Setting up layer_64_3_sum
I0526 09:18:14.075304 13987 net.cpp:129] Top shape: 50 64 56 56 (10035200)
I0526 09:18:14.075309 13987 net.cpp:137] Memory required for data: 1976934600
I0526 09:18:14.075315 13987 layer_factory.hpp:77] Creating layer layer_128_1_bn1
I0526 09:18:14.075327 13987 net.cpp:84] Creating Layer layer_128_1_bn1
I0526 09:18:14.075337 13987 net.cpp:406] layer_128_1_bn1 <- layer_64_3_sum
I0526 09:18:14.075347 13987 net.cpp:380] layer_128_1_bn1 -> layer_128_1_bn1
I0526 09:18:14.075525 13987 net.cpp:122] Setting up layer_128_1_bn1
I0526 09:18:14.075536 13987 net.cpp:129] Top shape: 50 64 56 56 (10035200)
I0526 09:18:14.075539 13987 net.cpp:137] Memory required for data: 2017075400
I0526 09:18:14.075547 13987 layer_factory.hpp:77] Creating layer layer_128_1_scale1
I0526 09:18:14.075556 13987 net.cpp:84] Creating Layer layer_128_1_scale1
I0526 09:18:14.075561 13987 net.cpp:406] layer_128_1_scale1 <- layer_128_1_bn1
I0526 09:18:14.075567 13987 net.cpp:367] layer_128_1_scale1 -> layer_128_1_bn1 (in-place)
I0526 09:18:14.075603 13987 layer_factory.hpp:77] Creating layer layer_128_1_scale1
I0526 09:18:14.075703 13987 net.cpp:122] Setting up layer_128_1_scale1
I0526 09:18:14.075711 13987 net.cpp:129] Top shape: 50 64 56 56 (10035200)
I0526 09:18:14.075716 13987 net.cpp:137] Memory required for data: 2057216200
I0526 09:18:14.075722 13987 layer_factory.hpp:77] Creating layer layer_128_1_relu1
I0526 09:18:14.075727 13987 net.cpp:84] Creating Layer layer_128_1_relu1
I0526 09:18:14.075731 13987 net.cpp:406] layer_128_1_relu1 <- layer_128_1_bn1
I0526 09:18:14.075736 13987 net.cpp:367] layer_128_1_relu1 -> layer_128_1_bn1 (in-place)
I0526 09:18:14.075875 13987 net.cpp:122] Setting up layer_128_1_relu1
I0526 09:18:14.075886 13987 net.cpp:129] Top shape: 50 64 56 56 (10035200)
I0526 09:18:14.075897 13987 net.cpp:137] Memory required for data: 2097357000
I0526 09:18:14.075901 13987 layer_factory.hpp:77] Creating layer layer_128_1_bn1_layer_128_1_relu1_0_split
I0526 09:18:14.075908 13987 net.cpp:84] Creating Layer layer_128_1_bn1_layer_128_1_relu1_0_split
I0526 09:18:14.075912 13987 net.cpp:406] layer_128_1_bn1_layer_128_1_relu1_0_split <- layer_128_1_bn1
I0526 09:18:14.075917 13987 net.cpp:380] layer_128_1_bn1_layer_128_1_relu1_0_split -> layer_128_1_bn1_layer_128_1_relu1_0_split_0
I0526 09:18:14.075923 13987 net.cpp:380] layer_128_1_bn1_layer_128_1_relu1_0_split -> layer_128_1_bn1_layer_128_1_relu1_0_split_1
I0526 09:18:14.075966 13987 net.cpp:122] Setting up layer_128_1_bn1_layer_128_1_relu1_0_split
I0526 09:18:14.075975 13987 net.cpp:129] Top shape: 50 64 56 56 (10035200)
I0526 09:18:14.075979 13987 net.cpp:129] Top shape: 50 64 56 56 (10035200)
I0526 09:18:14.075983 13987 net.cpp:137] Memory required for data: 2177638600
I0526 09:18:14.075985 13987 layer_factory.hpp:77] Creating layer layer_128_1_conv1
I0526 09:18:14.075995 13987 net.cpp:84] Creating Layer layer_128_1_conv1
I0526 09:18:14.076001 13987 net.cpp:406] layer_128_1_conv1 <- layer_128_1_bn1_layer_128_1_relu1_0_split_0
I0526 09:18:14.076011 13987 net.cpp:380] layer_128_1_conv1 -> layer_128_1_conv1
I0526 09:18:14.078307 13987 net.cpp:122] Setting up layer_128_1_conv1
I0526 09:18:14.078321 13987 net.cpp:129] Top shape: 50 128 28 28 (5017600)
I0526 09:18:14.078326 13987 net.cpp:137] Memory required for data: 2197709000
I0526 09:18:14.078331 13987 layer_factory.hpp:77] Creating layer layer_128_1_bn2
I0526 09:18:14.078338 13987 net.cpp:84] Creating Layer layer_128_1_bn2
I0526 09:18:14.078342 13987 net.cpp:406] layer_128_1_bn2 <- layer_128_1_conv1
I0526 09:18:14.078349 13987 net.cpp:367] layer_128_1_bn2 -> layer_128_1_conv1 (in-place)
I0526 09:18:14.079211 13987 net.cpp:122] Setting up layer_128_1_bn2
I0526 09:18:14.079224 13987 net.cpp:129] Top shape: 50 128 28 28 (5017600)
I0526 09:18:14.079227 13987 net.cpp:137] Memory required for data: 2217779400
I0526 09:18:14.079236 13987 layer_factory.hpp:77] Creating layer layer_128_1_scale2
I0526 09:18:14.079244 13987 net.cpp:84] Creating Layer layer_128_1_scale2
I0526 09:18:14.079249 13987 net.cpp:406] layer_128_1_scale2 <- layer_128_1_conv1
I0526 09:18:14.079255 13987 net.cpp:367] layer_128_1_scale2 -> layer_128_1_conv1 (in-place)
I0526 09:18:14.079293 13987 layer_factory.hpp:77] Creating layer layer_128_1_scale2
I0526 09:18:14.079385 13987 net.cpp:122] Setting up layer_128_1_scale2
I0526 09:18:14.079392 13987 net.cpp:129] Top shape: 50 128 28 28 (5017600)
I0526 09:18:14.079396 13987 net.cpp:137] Memory required for data: 2237849800
I0526 09:18:14.079401 13987 layer_factory.hpp:77] Creating layer layer_128_1_relu2
I0526 09:18:14.079411 13987 net.cpp:84] Creating Layer layer_128_1_relu2
I0526 09:18:14.079414 13987 net.cpp:406] layer_128_1_relu2 <- layer_128_1_conv1
I0526 09:18:14.079419 13987 net.cpp:367] layer_128_1_relu2 -> layer_128_1_conv1 (in-place)
I0526 09:18:14.080051 13987 net.cpp:122] Setting up layer_128_1_relu2
I0526 09:18:14.080063 13987 net.cpp:129] Top shape: 50 128 28 28 (5017600)
I0526 09:18:14.080066 13987 net.cpp:137] Memory required for data: 2257920200
I0526 09:18:14.080070 13987 layer_factory.hpp:77] Creating layer layer_128_1_conv2
I0526 09:18:14.080080 13987 net.cpp:84] Creating Layer layer_128_1_conv2
I0526 09:18:14.080085 13987 net.cpp:406] layer_128_1_conv2 <- layer_128_1_conv1
I0526 09:18:14.080092 13987 net.cpp:380] layer_128_1_conv2 -> layer_128_1_conv2
I0526 09:18:14.082628 13987 net.cpp:122] Setting up layer_128_1_conv2
I0526 09:18:14.082640 13987 net.cpp:129] Top shape: 50 128 28 28 (5017600)
I0526 09:18:14.082644 13987 net.cpp:137] Memory required for data: 2277990600
I0526 09:18:14.082650 13987 layer_factory.hpp:77] Creating layer layer_128_1_conv_expand
I0526 09:18:14.082659 13987 net.cpp:84] Creating Layer layer_128_1_conv_expand
I0526 09:18:14.082664 13987 net.cpp:406] layer_128_1_conv_expand <- layer_128_1_bn1_layer_128_1_relu1_0_split_1
I0526 09:18:14.082672 13987 net.cpp:380] layer_128_1_conv_expand -> layer_128_1_conv_expand
I0526 09:18:14.083832 13987 net.cpp:122] Setting up layer_128_1_conv_expand
I0526 09:18:14.083844 13987 net.cpp:129] Top shape: 50 128 28 28 (5017600)
I0526 09:18:14.083848 13987 net.cpp:137] Memory required for data: 2298061000
I0526 09:18:14.083854 13987 layer_factory.hpp:77] Creating layer layer_128_1_sum
I0526 09:18:14.083860 13987 net.cpp:84] Creating Layer layer_128_1_sum
I0526 09:18:14.083863 13987 net.cpp:406] layer_128_1_sum <- layer_128_1_conv_expand
I0526 09:18:14.083868 13987 net.cpp:406] layer_128_1_sum <- layer_128_1_conv2
I0526 09:18:14.083874 13987 net.cpp:380] layer_128_1_sum -> layer_128_1_sum
I0526 09:18:14.083901 13987 net.cpp:122] Setting up layer_128_1_sum
I0526 09:18:14.083909 13987 net.cpp:129] Top shape: 50 128 28 28 (5017600)
I0526 09:18:14.083912 13987 net.cpp:137] Memory required for data: 2318131400
I0526 09:18:14.083915 13987 layer_factory.hpp:77] Creating layer layer_128_1_sum_layer_128_1_sum_0_split
I0526 09:18:14.083921 13987 net.cpp:84] Creating Layer layer_128_1_sum_layer_128_1_sum_0_split
I0526 09:18:14.083925 13987 net.cpp:406] layer_128_1_sum_layer_128_1_sum_0_split <- layer_128_1_sum
I0526 09:18:14.083930 13987 net.cpp:380] layer_128_1_sum_layer_128_1_sum_0_split -> layer_128_1_sum_layer_128_1_sum_0_split_0
I0526 09:18:14.083937 13987 net.cpp:380] layer_128_1_sum_layer_128_1_sum_0_split -> layer_128_1_sum_layer_128_1_sum_0_split_1
I0526 09:18:14.083976 13987 net.cpp:122] Setting up layer_128_1_sum_layer_128_1_sum_0_split
I0526 09:18:14.083984 13987 net.cpp:129] Top shape: 50 128 28 28 (5017600)
I0526 09:18:14.083988 13987 net.cpp:129] Top shape: 50 128 28 28 (5017600)
I0526 09:18:14.083992 13987 net.cpp:137] Memory required for data: 2358272200
I0526 09:18:14.083994 13987 layer_factory.hpp:77] Creating layer layer_128_2_bn1
I0526 09:18:14.084000 13987 net.cpp:84] Creating Layer layer_128_2_bn1
I0526 09:18:14.084003 13987 net.cpp:406] layer_128_2_bn1 <- layer_128_1_sum_layer_128_1_sum_0_split_0
I0526 09:18:14.084010 13987 net.cpp:380] layer_128_2_bn1 -> layer_128_2_bn1
I0526 09:18:14.084167 13987 net.cpp:122] Setting up layer_128_2_bn1
I0526 09:18:14.084175 13987 net.cpp:129] Top shape: 50 128 28 28 (5017600)
I0526 09:18:14.084179 13987 net.cpp:137] Memory required for data: 2378342600
I0526 09:18:14.084187 13987 layer_factory.hpp:77] Creating layer layer_128_2_scale1
I0526 09:18:14.084193 13987 net.cpp:84] Creating Layer layer_128_2_scale1
I0526 09:18:14.084197 13987 net.cpp:406] layer_128_2_scale1 <- layer_128_2_bn1
I0526 09:18:14.084205 13987 net.cpp:367] layer_128_2_scale1 -> layer_128_2_bn1 (in-place)
I0526 09:18:14.084241 13987 layer_factory.hpp:77] Creating layer layer_128_2_scale1
I0526 09:18:14.084334 13987 net.cpp:122] Setting up layer_128_2_scale1
I0526 09:18:14.084344 13987 net.cpp:129] Top shape: 50 128 28 28 (5017600)
I0526 09:18:14.084348 13987 net.cpp:137] Memory required for data: 2398413000
I0526 09:18:14.084353 13987 layer_factory.hpp:77] Creating layer layer_128_2_relu1
I0526 09:18:14.084359 13987 net.cpp:84] Creating Layer layer_128_2_relu1
I0526 09:18:14.084362 13987 net.cpp:406] layer_128_2_relu1 <- layer_128_2_bn1
I0526 09:18:14.084367 13987 net.cpp:367] layer_128_2_relu1 -> layer_128_2_bn1 (in-place)
I0526 09:18:14.084985 13987 net.cpp:122] Setting up layer_128_2_relu1
I0526 09:18:14.084996 13987 net.cpp:129] Top shape: 50 128 28 28 (5017600)
I0526 09:18:14.085000 13987 net.cpp:137] Memory required for data: 2418483400
I0526 09:18:14.085003 13987 layer_factory.hpp:77] Creating layer layer_128_2_conv1
I0526 09:18:14.085013 13987 net.cpp:84] Creating Layer layer_128_2_conv1
I0526 09:18:14.085017 13987 net.cpp:406] layer_128_2_conv1 <- layer_128_2_bn1
I0526 09:18:14.085026 13987 net.cpp:380] layer_128_2_conv1 -> layer_128_2_conv1
I0526 09:18:14.088806 13987 net.cpp:122] Setting up layer_128_2_conv1
I0526 09:18:14.088825 13987 net.cpp:129] Top shape: 50 128 28 28 (5017600)
I0526 09:18:14.088829 13987 net.cpp:137] Memory required for data: 2438553800
I0526 09:18:14.088836 13987 layer_factory.hpp:77] Creating layer layer_128_2_bn2
I0526 09:18:14.088855 13987 net.cpp:84] Creating Layer layer_128_2_bn2
I0526 09:18:14.088862 13987 net.cpp:406] layer_128_2_bn2 <- layer_128_2_conv1
I0526 09:18:14.088876 13987 net.cpp:367] layer_128_2_bn2 -> layer_128_2_conv1 (in-place)
I0526 09:18:14.089054 13987 net.cpp:122] Setting up layer_128_2_bn2
I0526 09:18:14.089063 13987 net.cpp:129] Top shape: 50 128 28 28 (5017600)
I0526 09:18:14.089067 13987 net.cpp:137] Memory required for data: 2458624200
I0526 09:18:14.089082 13987 layer_factory.hpp:77] Creating layer layer_128_2_scale2
I0526 09:18:14.089092 13987 net.cpp:84] Creating Layer layer_128_2_scale2
I0526 09:18:14.089095 13987 net.cpp:406] layer_128_2_scale2 <- layer_128_2_conv1
I0526 09:18:14.089102 13987 net.cpp:367] layer_128_2_scale2 -> layer_128_2_conv1 (in-place)
I0526 09:18:14.089143 13987 layer_factory.hpp:77] Creating layer layer_128_2_scale2
I0526 09:18:14.089238 13987 net.cpp:122] Setting up layer_128_2_scale2
I0526 09:18:14.089246 13987 net.cpp:129] Top shape: 50 128 28 28 (5017600)
I0526 09:18:14.089251 13987 net.cpp:137] Memory required for data: 2478694600
I0526 09:18:14.089256 13987 layer_factory.hpp:77] Creating layer layer_128_2_relu2
I0526 09:18:14.089263 13987 net.cpp:84] Creating Layer layer_128_2_relu2
I0526 09:18:14.089267 13987 net.cpp:406] layer_128_2_relu2 <- layer_128_2_conv1
I0526 09:18:14.089275 13987 net.cpp:367] layer_128_2_relu2 -> layer_128_2_conv1 (in-place)
I0526 09:18:14.089424 13987 net.cpp:122] Setting up layer_128_2_relu2
I0526 09:18:14.089437 13987 net.cpp:129] Top shape: 50 128 28 28 (5017600)
I0526 09:18:14.089443 13987 net.cpp:137] Memory required for data: 2498765000
I0526 09:18:14.089450 13987 layer_factory.hpp:77] Creating layer layer_128_2_conv2
I0526 09:18:14.089467 13987 net.cpp:84] Creating Layer layer_128_2_conv2
I0526 09:18:14.089473 13987 net.cpp:406] layer_128_2_conv2 <- layer_128_2_conv1
I0526 09:18:14.089484 13987 net.cpp:380] layer_128_2_conv2 -> layer_128_2_conv2
I0526 09:18:14.093027 13987 net.cpp:122] Setting up layer_128_2_conv2
I0526 09:18:14.093041 13987 net.cpp:129] Top shape: 50 128 28 28 (5017600)
I0526 09:18:14.093044 13987 net.cpp:137] Memory required for data: 2518835400
I0526 09:18:14.093050 13987 layer_factory.hpp:77] Creating layer layer_128_2_sum
I0526 09:18:14.093058 13987 net.cpp:84] Creating Layer layer_128_2_sum
I0526 09:18:14.093063 13987 net.cpp:406] layer_128_2_sum <- layer_128_2_conv2
I0526 09:18:14.093067 13987 net.cpp:406] layer_128_2_sum <- layer_128_1_sum_layer_128_1_sum_0_split_1
I0526 09:18:14.093076 13987 net.cpp:380] layer_128_2_sum -> layer_128_2_sum
I0526 09:18:14.093106 13987 net.cpp:122] Setting up layer_128_2_sum
I0526 09:18:14.093113 13987 net.cpp:129] Top shape: 50 128 28 28 (5017600)
I0526 09:18:14.093117 13987 net.cpp:137] Memory required for data: 2538905800
I0526 09:18:14.093120 13987 layer_factory.hpp:77] Creating layer layer_128_2_sum_layer_128_2_sum_0_split
I0526 09:18:14.093125 13987 net.cpp:84] Creating Layer layer_128_2_sum_layer_128_2_sum_0_split
I0526 09:18:14.093128 13987 net.cpp:406] layer_128_2_sum_layer_128_2_sum_0_split <- layer_128_2_sum
I0526 09:18:14.093135 13987 net.cpp:380] layer_128_2_sum_layer_128_2_sum_0_split -> layer_128_2_sum_layer_128_2_sum_0_split_0
I0526 09:18:14.093142 13987 net.cpp:380] layer_128_2_sum_layer_128_2_sum_0_split -> layer_128_2_sum_layer_128_2_sum_0_split_1
I0526 09:18:14.093176 13987 net.cpp:122] Setting up layer_128_2_sum_layer_128_2_sum_0_split
I0526 09:18:14.093183 13987 net.cpp:129] Top shape: 50 128 28 28 (5017600)
I0526 09:18:14.093189 13987 net.cpp:129] Top shape: 50 128 28 28 (5017600)
I0526 09:18:14.093190 13987 net.cpp:137] Memory required for data: 2579046600
I0526 09:18:14.093194 13987 layer_factory.hpp:77] Creating layer layer_128_3_bn1
I0526 09:18:14.093201 13987 net.cpp:84] Creating Layer layer_128_3_bn1
I0526 09:18:14.093204 13987 net.cpp:406] layer_128_3_bn1 <- layer_128_2_sum_layer_128_2_sum_0_split_0
I0526 09:18:14.093210 13987 net.cpp:380] layer_128_3_bn1 -> layer_128_3_bn1
I0526 09:18:14.093374 13987 net.cpp:122] Setting up layer_128_3_bn1
I0526 09:18:14.093391 13987 net.cpp:129] Top shape: 50 128 28 28 (5017600)
I0526 09:18:14.093395 13987 net.cpp:137] Memory required for data: 2599117000
I0526 09:18:14.093403 13987 layer_factory.hpp:77] Creating layer layer_128_3_scale1
I0526 09:18:14.093410 13987 net.cpp:84] Creating Layer layer_128_3_scale1
I0526 09:18:14.093415 13987 net.cpp:406] layer_128_3_scale1 <- layer_128_3_bn1
I0526 09:18:14.093420 13987 net.cpp:367] layer_128_3_scale1 -> layer_128_3_bn1 (in-place)
I0526 09:18:14.093458 13987 layer_factory.hpp:77] Creating layer layer_128_3_scale1
I0526 09:18:14.093552 13987 net.cpp:122] Setting up layer_128_3_scale1
I0526 09:18:14.093564 13987 net.cpp:129] Top shape: 50 128 28 28 (5017600)
I0526 09:18:14.093570 13987 net.cpp:137] Memory required for data: 2619187400
I0526 09:18:14.093582 13987 layer_factory.hpp:77] Creating layer layer_128_3_relu1
I0526 09:18:14.093595 13987 net.cpp:84] Creating Layer layer_128_3_relu1
I0526 09:18:14.093605 13987 net.cpp:406] layer_128_3_relu1 <- layer_128_3_bn1
I0526 09:18:14.093611 13987 net.cpp:367] layer_128_3_relu1 -> layer_128_3_bn1 (in-place)
I0526 09:18:14.093799 13987 net.cpp:122] Setting up layer_128_3_relu1
I0526 09:18:14.093811 13987 net.cpp:129] Top shape: 50 128 28 28 (5017600)
I0526 09:18:14.093813 13987 net.cpp:137] Memory required for data: 2639257800
I0526 09:18:14.093817 13987 layer_factory.hpp:77] Creating layer layer_128_3_conv1
I0526 09:18:14.093827 13987 net.cpp:84] Creating Layer layer_128_3_conv1
I0526 09:18:14.093832 13987 net.cpp:406] layer_128_3_conv1 <- layer_128_3_bn1
I0526 09:18:14.093838 13987 net.cpp:380] layer_128_3_conv1 -> layer_128_3_conv1
I0526 09:18:14.096891 13987 net.cpp:122] Setting up layer_128_3_conv1
I0526 09:18:14.096904 13987 net.cpp:129] Top shape: 50 128 28 28 (5017600)
I0526 09:18:14.096909 13987 net.cpp:137] Memory required for data: 2659328200
I0526 09:18:14.096915 13987 layer_factory.hpp:77] Creating layer layer_128_3_bn2
I0526 09:18:14.096923 13987 net.cpp:84] Creating Layer layer_128_3_bn2
I0526 09:18:14.096928 13987 net.cpp:406] layer_128_3_bn2 <- layer_128_3_conv1
I0526 09:18:14.096933 13987 net.cpp:367] layer_128_3_bn2 -> layer_128_3_conv1 (in-place)
I0526 09:18:14.097092 13987 net.cpp:122] Setting up layer_128_3_bn2
I0526 09:18:14.097101 13987 net.cpp:129] Top shape: 50 128 28 28 (5017600)
I0526 09:18:14.097105 13987 net.cpp:137] Memory required for data: 2679398600
I0526 09:18:14.097111 13987 layer_factory.hpp:77] Creating layer layer_128_3_scale2
I0526 09:18:14.097121 13987 net.cpp:84] Creating Layer layer_128_3_scale2
I0526 09:18:14.097126 13987 net.cpp:406] layer_128_3_scale2 <- layer_128_3_conv1
I0526 09:18:14.097131 13987 net.cpp:367] layer_128_3_scale2 -> layer_128_3_conv1 (in-place)
I0526 09:18:14.097167 13987 layer_factory.hpp:77] Creating layer layer_128_3_scale2
I0526 09:18:14.097262 13987 net.cpp:122] Setting up layer_128_3_scale2
I0526 09:18:14.097271 13987 net.cpp:129] Top shape: 50 128 28 28 (5017600)
I0526 09:18:14.097275 13987 net.cpp:137] Memory required for data: 2699469000
I0526 09:18:14.097280 13987 layer_factory.hpp:77] Creating layer layer_128_3_relu2
I0526 09:18:14.097285 13987 net.cpp:84] Creating Layer layer_128_3_relu2
I0526 09:18:14.097290 13987 net.cpp:406] layer_128_3_relu2 <- layer_128_3_conv1
I0526 09:18:14.097296 13987 net.cpp:367] layer_128_3_relu2 -> layer_128_3_conv1 (in-place)
I0526 09:18:14.097443 13987 net.cpp:122] Setting up layer_128_3_relu2
I0526 09:18:14.097455 13987 net.cpp:129] Top shape: 50 128 28 28 (5017600)
I0526 09:18:14.097458 13987 net.cpp:137] Memory required for data: 2719539400
I0526 09:18:14.097461 13987 layer_factory.hpp:77] Creating layer layer_128_3_conv2
I0526 09:18:14.097481 13987 net.cpp:84] Creating Layer layer_128_3_conv2
I0526 09:18:14.097486 13987 net.cpp:406] layer_128_3_conv2 <- layer_128_3_conv1
I0526 09:18:14.097491 13987 net.cpp:380] layer_128_3_conv2 -> layer_128_3_conv2
I0526 09:18:14.101222 13987 net.cpp:122] Setting up layer_128_3_conv2
I0526 09:18:14.101235 13987 net.cpp:129] Top shape: 50 128 28 28 (5017600)
I0526 09:18:14.101239 13987 net.cpp:137] Memory required for data: 2739609800
I0526 09:18:14.101255 13987 layer_factory.hpp:77] Creating layer layer_128_3_sum
I0526 09:18:14.101263 13987 net.cpp:84] Creating Layer layer_128_3_sum
I0526 09:18:14.101270 13987 net.cpp:406] layer_128_3_sum <- layer_128_3_conv2
I0526 09:18:14.101275 13987 net.cpp:406] layer_128_3_sum <- layer_128_2_sum_layer_128_2_sum_0_split_1
I0526 09:18:14.101280 13987 net.cpp:380] layer_128_3_sum -> layer_128_3_sum
I0526 09:18:14.101308 13987 net.cpp:122] Setting up layer_128_3_sum
I0526 09:18:14.101316 13987 net.cpp:129] Top shape: 50 128 28 28 (5017600)
I0526 09:18:14.101320 13987 net.cpp:137] Memory required for data: 2759680200
I0526 09:18:14.101322 13987 layer_factory.hpp:77] Creating layer layer_128_3_sum_layer_128_3_sum_0_split
I0526 09:18:14.101327 13987 net.cpp:84] Creating Layer layer_128_3_sum_layer_128_3_sum_0_split
I0526 09:18:14.101331 13987 net.cpp:406] layer_128_3_sum_layer_128_3_sum_0_split <- layer_128_3_sum
I0526 09:18:14.101337 13987 net.cpp:380] layer_128_3_sum_layer_128_3_sum_0_split -> layer_128_3_sum_layer_128_3_sum_0_split_0
I0526 09:18:14.101344 13987 net.cpp:380] layer_128_3_sum_layer_128_3_sum_0_split -> layer_128_3_sum_layer_128_3_sum_0_split_1
I0526 09:18:14.101379 13987 net.cpp:122] Setting up layer_128_3_sum_layer_128_3_sum_0_split
I0526 09:18:14.101387 13987 net.cpp:129] Top shape: 50 128 28 28 (5017600)
I0526 09:18:14.101392 13987 net.cpp:129] Top shape: 50 128 28 28 (5017600)
I0526 09:18:14.101395 13987 net.cpp:137] Memory required for data: 2799821000
I0526 09:18:14.101398 13987 layer_factory.hpp:77] Creating layer layer_128_4_bn1
I0526 09:18:14.101403 13987 net.cpp:84] Creating Layer layer_128_4_bn1
I0526 09:18:14.101408 13987 net.cpp:406] layer_128_4_bn1 <- layer_128_3_sum_layer_128_3_sum_0_split_0
I0526 09:18:14.101414 13987 net.cpp:380] layer_128_4_bn1 -> layer_128_4_bn1
I0526 09:18:14.101582 13987 net.cpp:122] Setting up layer_128_4_bn1
I0526 09:18:14.101590 13987 net.cpp:129] Top shape: 50 128 28 28 (5017600)
I0526 09:18:14.101594 13987 net.cpp:137] Memory required for data: 2819891400
I0526 09:18:14.101601 13987 layer_factory.hpp:77] Creating layer layer_128_4_scale1
I0526 09:18:14.101609 13987 net.cpp:84] Creating Layer layer_128_4_scale1
I0526 09:18:14.101613 13987 net.cpp:406] layer_128_4_scale1 <- layer_128_4_bn1
I0526 09:18:14.101619 13987 net.cpp:367] layer_128_4_scale1 -> layer_128_4_bn1 (in-place)
I0526 09:18:14.101657 13987 layer_factory.hpp:77] Creating layer layer_128_4_scale1
I0526 09:18:14.101799 13987 net.cpp:122] Setting up layer_128_4_scale1
I0526 09:18:14.101809 13987 net.cpp:129] Top shape: 50 128 28 28 (5017600)
I0526 09:18:14.101814 13987 net.cpp:137] Memory required for data: 2839961800
I0526 09:18:14.101819 13987 layer_factory.hpp:77] Creating layer layer_128_4_relu1
I0526 09:18:14.101826 13987 net.cpp:84] Creating Layer layer_128_4_relu1
I0526 09:18:14.101831 13987 net.cpp:406] layer_128_4_relu1 <- layer_128_4_bn1
I0526 09:18:14.101835 13987 net.cpp:367] layer_128_4_relu1 -> layer_128_4_bn1 (in-place)
I0526 09:18:14.101984 13987 net.cpp:122] Setting up layer_128_4_relu1
I0526 09:18:14.101994 13987 net.cpp:129] Top shape: 50 128 28 28 (5017600)
I0526 09:18:14.101997 13987 net.cpp:137] Memory required for data: 2860032200
I0526 09:18:14.102000 13987 layer_factory.hpp:77] Creating layer layer_128_4_conv1
I0526 09:18:14.102010 13987 net.cpp:84] Creating Layer layer_128_4_conv1
I0526 09:18:14.102013 13987 net.cpp:406] layer_128_4_conv1 <- layer_128_4_bn1
I0526 09:18:14.102020 13987 net.cpp:380] layer_128_4_conv1 -> layer_128_4_conv1
I0526 09:18:14.105062 13987 net.cpp:122] Setting up layer_128_4_conv1
I0526 09:18:14.105075 13987 net.cpp:129] Top shape: 50 128 28 28 (5017600)
I0526 09:18:14.105080 13987 net.cpp:137] Memory required for data: 2880102600
I0526 09:18:14.105085 13987 layer_factory.hpp:77] Creating layer layer_128_4_bn2
I0526 09:18:14.105093 13987 net.cpp:84] Creating Layer layer_128_4_bn2
I0526 09:18:14.105098 13987 net.cpp:406] layer_128_4_bn2 <- layer_128_4_conv1
I0526 09:18:14.105103 13987 net.cpp:367] layer_128_4_bn2 -> layer_128_4_conv1 (in-place)
I0526 09:18:14.105278 13987 net.cpp:122] Setting up layer_128_4_bn2
I0526 09:18:14.105286 13987 net.cpp:129] Top shape: 50 128 28 28 (5017600)
I0526 09:18:14.105289 13987 net.cpp:137] Memory required for data: 2900173000
I0526 09:18:14.105298 13987 layer_factory.hpp:77] Creating layer layer_128_4_scale2
I0526 09:18:14.105304 13987 net.cpp:84] Creating Layer layer_128_4_scale2
I0526 09:18:14.105307 13987 net.cpp:406] layer_128_4_scale2 <- layer_128_4_conv1
I0526 09:18:14.105314 13987 net.cpp:367] layer_128_4_scale2 -> layer_128_4_conv1 (in-place)
I0526 09:18:14.105351 13987 layer_factory.hpp:77] Creating layer layer_128_4_scale2
I0526 09:18:14.105451 13987 net.cpp:122] Setting up layer_128_4_scale2
I0526 09:18:14.105460 13987 net.cpp:129] Top shape: 50 128 28 28 (5017600)
I0526 09:18:14.105465 13987 net.cpp:137] Memory required for data: 2920243400
I0526 09:18:14.105471 13987 layer_factory.hpp:77] Creating layer layer_128_4_relu2
I0526 09:18:14.105476 13987 net.cpp:84] Creating Layer layer_128_4_relu2
I0526 09:18:14.105480 13987 net.cpp:406] layer_128_4_relu2 <- layer_128_4_conv1
I0526 09:18:14.105485 13987 net.cpp:367] layer_128_4_relu2 -> layer_128_4_conv1 (in-place)
I0526 09:18:14.105638 13987 net.cpp:122] Setting up layer_128_4_relu2
I0526 09:18:14.105646 13987 net.cpp:129] Top shape: 50 128 28 28 (5017600)
I0526 09:18:14.105650 13987 net.cpp:137] Memory required for data: 2940313800
I0526 09:18:14.105654 13987 layer_factory.hpp:77] Creating layer layer_128_4_conv2
I0526 09:18:14.105664 13987 net.cpp:84] Creating Layer layer_128_4_conv2
I0526 09:18:14.105669 13987 net.cpp:406] layer_128_4_conv2 <- layer_128_4_conv1
I0526 09:18:14.105674 13987 net.cpp:380] layer_128_4_conv2 -> layer_128_4_conv2
I0526 09:18:14.108685 13987 net.cpp:122] Setting up layer_128_4_conv2
I0526 09:18:14.108698 13987 net.cpp:129] Top shape: 50 128 28 28 (5017600)
I0526 09:18:14.108703 13987 net.cpp:137] Memory required for data: 2960384200
I0526 09:18:14.108708 13987 layer_factory.hpp:77] Creating layer layer_128_4_sum
I0526 09:18:14.108714 13987 net.cpp:84] Creating Layer layer_128_4_sum
I0526 09:18:14.108719 13987 net.cpp:406] layer_128_4_sum <- layer_128_4_conv2
I0526 09:18:14.108724 13987 net.cpp:406] layer_128_4_sum <- layer_128_3_sum_layer_128_3_sum_0_split_1
I0526 09:18:14.108729 13987 net.cpp:380] layer_128_4_sum -> layer_128_4_sum
I0526 09:18:14.108757 13987 net.cpp:122] Setting up layer_128_4_sum
I0526 09:18:14.108764 13987 net.cpp:129] Top shape: 50 128 28 28 (5017600)
I0526 09:18:14.108770 13987 net.cpp:137] Memory required for data: 2980454600
I0526 09:18:14.108777 13987 layer_factory.hpp:77] Creating layer layer_256_1_bn1
I0526 09:18:14.108788 13987 net.cpp:84] Creating Layer layer_256_1_bn1
I0526 09:18:14.108796 13987 net.cpp:406] layer_256_1_bn1 <- layer_128_4_sum
I0526 09:18:14.108806 13987 net.cpp:380] layer_256_1_bn1 -> layer_256_1_bn1
I0526 09:18:14.108981 13987 net.cpp:122] Setting up layer_256_1_bn1
I0526 09:18:14.108990 13987 net.cpp:129] Top shape: 50 128 28 28 (5017600)
I0526 09:18:14.108994 13987 net.cpp:137] Memory required for data: 3000525000
I0526 09:18:14.109001 13987 layer_factory.hpp:77] Creating layer layer_256_1_scale1
I0526 09:18:14.109009 13987 net.cpp:84] Creating Layer layer_256_1_scale1
I0526 09:18:14.109014 13987 net.cpp:406] layer_256_1_scale1 <- layer_256_1_bn1
I0526 09:18:14.109019 13987 net.cpp:367] layer_256_1_scale1 -> layer_256_1_bn1 (in-place)
I0526 09:18:14.109058 13987 layer_factory.hpp:77] Creating layer layer_256_1_scale1
I0526 09:18:14.109158 13987 net.cpp:122] Setting up layer_256_1_scale1
I0526 09:18:14.109165 13987 net.cpp:129] Top shape: 50 128 28 28 (5017600)
I0526 09:18:14.109169 13987 net.cpp:137] Memory required for data: 3020595400
I0526 09:18:14.109174 13987 layer_factory.hpp:77] Creating layer layer_256_1_relu1
I0526 09:18:14.109180 13987 net.cpp:84] Creating Layer layer_256_1_relu1
I0526 09:18:14.109184 13987 net.cpp:406] layer_256_1_relu1 <- layer_256_1_bn1
I0526 09:18:14.109190 13987 net.cpp:367] layer_256_1_relu1 -> layer_256_1_bn1 (in-place)
I0526 09:18:14.110332 13987 net.cpp:122] Setting up layer_256_1_relu1
I0526 09:18:14.110343 13987 net.cpp:129] Top shape: 50 128 28 28 (5017600)
I0526 09:18:14.110347 13987 net.cpp:137] Memory required for data: 3040665800
I0526 09:18:14.110352 13987 layer_factory.hpp:77] Creating layer layer_256_1_bn1_layer_256_1_relu1_0_split
I0526 09:18:14.110358 13987 net.cpp:84] Creating Layer layer_256_1_bn1_layer_256_1_relu1_0_split
I0526 09:18:14.110361 13987 net.cpp:406] layer_256_1_bn1_layer_256_1_relu1_0_split <- layer_256_1_bn1
I0526 09:18:14.110368 13987 net.cpp:380] layer_256_1_bn1_layer_256_1_relu1_0_split -> layer_256_1_bn1_layer_256_1_relu1_0_split_0
I0526 09:18:14.110375 13987 net.cpp:380] layer_256_1_bn1_layer_256_1_relu1_0_split -> layer_256_1_bn1_layer_256_1_relu1_0_split_1
I0526 09:18:14.110414 13987 net.cpp:122] Setting up layer_256_1_bn1_layer_256_1_relu1_0_split
I0526 09:18:14.110424 13987 net.cpp:129] Top shape: 50 128 28 28 (5017600)
I0526 09:18:14.110429 13987 net.cpp:129] Top shape: 50 128 28 28 (5017600)
I0526 09:18:14.110431 13987 net.cpp:137] Memory required for data: 3080806600
I0526 09:18:14.110435 13987 layer_factory.hpp:77] Creating layer layer_256_1_conv1
I0526 09:18:14.110445 13987 net.cpp:84] Creating Layer layer_256_1_conv1
I0526 09:18:14.110450 13987 net.cpp:406] layer_256_1_conv1 <- layer_256_1_bn1_layer_256_1_relu1_0_split_0
I0526 09:18:14.110455 13987 net.cpp:380] layer_256_1_conv1 -> layer_256_1_conv1
I0526 09:18:14.115201 13987 net.cpp:122] Setting up layer_256_1_conv1
I0526 09:18:14.115217 13987 net.cpp:129] Top shape: 50 256 14 14 (2508800)
I0526 09:18:14.115221 13987 net.cpp:137] Memory required for data: 3090841800
I0526 09:18:14.115227 13987 layer_factory.hpp:77] Creating layer layer_256_1_bn2
I0526 09:18:14.115236 13987 net.cpp:84] Creating Layer layer_256_1_bn2
I0526 09:18:14.115239 13987 net.cpp:406] layer_256_1_bn2 <- layer_256_1_conv1
I0526 09:18:14.115247 13987 net.cpp:367] layer_256_1_bn2 -> layer_256_1_conv1 (in-place)
I0526 09:18:14.115417 13987 net.cpp:122] Setting up layer_256_1_bn2
I0526 09:18:14.115424 13987 net.cpp:129] Top shape: 50 256 14 14 (2508800)
I0526 09:18:14.115428 13987 net.cpp:137] Memory required for data: 3100877000
I0526 09:18:14.115437 13987 layer_factory.hpp:77] Creating layer layer_256_1_scale2
I0526 09:18:14.115444 13987 net.cpp:84] Creating Layer layer_256_1_scale2
I0526 09:18:14.115448 13987 net.cpp:406] layer_256_1_scale2 <- layer_256_1_conv1
I0526 09:18:14.115453 13987 net.cpp:367] layer_256_1_scale2 -> layer_256_1_conv1 (in-place)
I0526 09:18:14.115492 13987 layer_factory.hpp:77] Creating layer layer_256_1_scale2
I0526 09:18:14.115589 13987 net.cpp:122] Setting up layer_256_1_scale2
I0526 09:18:14.115597 13987 net.cpp:129] Top shape: 50 256 14 14 (2508800)
I0526 09:18:14.115602 13987 net.cpp:137] Memory required for data: 3110912200
I0526 09:18:14.115607 13987 layer_factory.hpp:77] Creating layer layer_256_1_relu2
I0526 09:18:14.115615 13987 net.cpp:84] Creating Layer layer_256_1_relu2
I0526 09:18:14.115619 13987 net.cpp:406] layer_256_1_relu2 <- layer_256_1_conv1
I0526 09:18:14.115623 13987 net.cpp:367] layer_256_1_relu2 -> layer_256_1_conv1 (in-place)
I0526 09:18:14.115768 13987 net.cpp:122] Setting up layer_256_1_relu2
I0526 09:18:14.115778 13987 net.cpp:129] Top shape: 50 256 14 14 (2508800)
I0526 09:18:14.115782 13987 net.cpp:137] Memory required for data: 3120947400
I0526 09:18:14.115785 13987 layer_factory.hpp:77] Creating layer layer_256_1_conv2
I0526 09:18:14.115795 13987 net.cpp:84] Creating Layer layer_256_1_conv2
I0526 09:18:14.115800 13987 net.cpp:406] layer_256_1_conv2 <- layer_256_1_conv1
I0526 09:18:14.115808 13987 net.cpp:380] layer_256_1_conv2 -> layer_256_1_conv2
I0526 09:18:14.123996 13987 net.cpp:122] Setting up layer_256_1_conv2
I0526 09:18:14.124013 13987 net.cpp:129] Top shape: 50 256 14 14 (2508800)
I0526 09:18:14.124017 13987 net.cpp:137] Memory required for data: 3130982600
I0526 09:18:14.124024 13987 layer_factory.hpp:77] Creating layer layer_256_1_conv_expand
I0526 09:18:14.124037 13987 net.cpp:84] Creating Layer layer_256_1_conv_expand
I0526 09:18:14.124053 13987 net.cpp:406] layer_256_1_conv_expand <- layer_256_1_bn1_layer_256_1_relu1_0_split_1
I0526 09:18:14.124063 13987 net.cpp:380] layer_256_1_conv_expand -> layer_256_1_conv_expand
I0526 09:18:14.126255 13987 net.cpp:122] Setting up layer_256_1_conv_expand
I0526 09:18:14.126267 13987 net.cpp:129] Top shape: 50 256 14 14 (2508800)
I0526 09:18:14.126272 13987 net.cpp:137] Memory required for data: 3141017800
I0526 09:18:14.126277 13987 layer_factory.hpp:77] Creating layer layer_256_1_sum
I0526 09:18:14.126286 13987 net.cpp:84] Creating Layer layer_256_1_sum
I0526 09:18:14.126291 13987 net.cpp:406] layer_256_1_sum <- layer_256_1_conv_expand
I0526 09:18:14.126296 13987 net.cpp:406] layer_256_1_sum <- layer_256_1_conv2
I0526 09:18:14.126302 13987 net.cpp:380] layer_256_1_sum -> layer_256_1_sum
I0526 09:18:14.126328 13987 net.cpp:122] Setting up layer_256_1_sum
I0526 09:18:14.126337 13987 net.cpp:129] Top shape: 50 256 14 14 (2508800)
I0526 09:18:14.126340 13987 net.cpp:137] Memory required for data: 3151053000
I0526 09:18:14.126343 13987 layer_factory.hpp:77] Creating layer layer_256_1_sum_layer_256_1_sum_0_split
I0526 09:18:14.126349 13987 net.cpp:84] Creating Layer layer_256_1_sum_layer_256_1_sum_0_split
I0526 09:18:14.126353 13987 net.cpp:406] layer_256_1_sum_layer_256_1_sum_0_split <- layer_256_1_sum
I0526 09:18:14.126359 13987 net.cpp:380] layer_256_1_sum_layer_256_1_sum_0_split -> layer_256_1_sum_layer_256_1_sum_0_split_0
I0526 09:18:14.126368 13987 net.cpp:380] layer_256_1_sum_layer_256_1_sum_0_split -> layer_256_1_sum_layer_256_1_sum_0_split_1
I0526 09:18:14.126402 13987 net.cpp:122] Setting up layer_256_1_sum_layer_256_1_sum_0_split
I0526 09:18:14.126410 13987 net.cpp:129] Top shape: 50 256 14 14 (2508800)
I0526 09:18:14.126415 13987 net.cpp:129] Top shape: 50 256 14 14 (2508800)
I0526 09:18:14.126418 13987 net.cpp:137] Memory required for data: 3171123400
I0526 09:18:14.126421 13987 layer_factory.hpp:77] Creating layer layer_256_2_bn1
I0526 09:18:14.126427 13987 net.cpp:84] Creating Layer layer_256_2_bn1
I0526 09:18:14.126431 13987 net.cpp:406] layer_256_2_bn1 <- layer_256_1_sum_layer_256_1_sum_0_split_0
I0526 09:18:14.126442 13987 net.cpp:380] layer_256_2_bn1 -> layer_256_2_bn1
I0526 09:18:14.126623 13987 net.cpp:122] Setting up layer_256_2_bn1
I0526 09:18:14.126632 13987 net.cpp:129] Top shape: 50 256 14 14 (2508800)
I0526 09:18:14.126637 13987 net.cpp:137] Memory required for data: 3181158600
I0526 09:18:14.126652 13987 layer_factory.hpp:77] Creating layer layer_256_2_scale1
I0526 09:18:14.126665 13987 net.cpp:84] Creating Layer layer_256_2_scale1
I0526 09:18:14.126674 13987 net.cpp:406] layer_256_2_scale1 <- layer_256_2_bn1
I0526 09:18:14.126682 13987 net.cpp:367] layer_256_2_scale1 -> layer_256_2_bn1 (in-place)
I0526 09:18:14.126725 13987 layer_factory.hpp:77] Creating layer layer_256_2_scale1
I0526 09:18:14.126863 13987 net.cpp:122] Setting up layer_256_2_scale1
I0526 09:18:14.126874 13987 net.cpp:129] Top shape: 50 256 14 14 (2508800)
I0526 09:18:14.126878 13987 net.cpp:137] Memory required for data: 3191193800
I0526 09:18:14.126883 13987 layer_factory.hpp:77] Creating layer layer_256_2_relu1
I0526 09:18:14.126890 13987 net.cpp:84] Creating Layer layer_256_2_relu1
I0526 09:18:14.126894 13987 net.cpp:406] layer_256_2_relu1 <- layer_256_2_bn1
I0526 09:18:14.126899 13987 net.cpp:367] layer_256_2_relu1 -> layer_256_2_bn1 (in-place)
I0526 09:18:14.127048 13987 net.cpp:122] Setting up layer_256_2_relu1
I0526 09:18:14.127058 13987 net.cpp:129] Top shape: 50 256 14 14 (2508800)
I0526 09:18:14.127061 13987 net.cpp:137] Memory required for data: 3201229000
I0526 09:18:14.127064 13987 layer_factory.hpp:77] Creating layer layer_256_2_conv1
I0526 09:18:14.127074 13987 net.cpp:84] Creating Layer layer_256_2_conv1
I0526 09:18:14.127079 13987 net.cpp:406] layer_256_2_conv1 <- layer_256_2_bn1
I0526 09:18:14.127085 13987 net.cpp:380] layer_256_2_conv1 -> layer_256_2_conv1
I0526 09:18:14.135391 13987 net.cpp:122] Setting up layer_256_2_conv1
I0526 09:18:14.135408 13987 net.cpp:129] Top shape: 50 256 14 14 (2508800)
I0526 09:18:14.135422 13987 net.cpp:137] Memory required for data: 3211264200
I0526 09:18:14.135429 13987 layer_factory.hpp:77] Creating layer layer_256_2_bn2
I0526 09:18:14.135437 13987 net.cpp:84] Creating Layer layer_256_2_bn2
I0526 09:18:14.135442 13987 net.cpp:406] layer_256_2_bn2 <- layer_256_2_conv1
I0526 09:18:14.135449 13987 net.cpp:367] layer_256_2_bn2 -> layer_256_2_conv1 (in-place)
I0526 09:18:14.135625 13987 net.cpp:122] Setting up layer_256_2_bn2
I0526 09:18:14.135634 13987 net.cpp:129] Top shape: 50 256 14 14 (2508800)
I0526 09:18:14.135637 13987 net.cpp:137] Memory required for data: 3221299400
I0526 09:18:14.135644 13987 layer_factory.hpp:77] Creating layer layer_256_2_scale2
I0526 09:18:14.135651 13987 net.cpp:84] Creating Layer layer_256_2_scale2
I0526 09:18:14.135655 13987 net.cpp:406] layer_256_2_scale2 <- layer_256_2_conv1
I0526 09:18:14.135660 13987 net.cpp:367] layer_256_2_scale2 -> layer_256_2_conv1 (in-place)
I0526 09:18:14.135702 13987 layer_factory.hpp:77] Creating layer layer_256_2_scale2
I0526 09:18:14.135805 13987 net.cpp:122] Setting up layer_256_2_scale2
I0526 09:18:14.135813 13987 net.cpp:129] Top shape: 50 256 14 14 (2508800)
I0526 09:18:14.135817 13987 net.cpp:137] Memory required for data: 3231334600
I0526 09:18:14.135823 13987 layer_factory.hpp:77] Creating layer layer_256_2_relu2
I0526 09:18:14.135829 13987 net.cpp:84] Creating Layer layer_256_2_relu2
I0526 09:18:14.135833 13987 net.cpp:406] layer_256_2_relu2 <- layer_256_2_conv1
I0526 09:18:14.135838 13987 net.cpp:367] layer_256_2_relu2 -> layer_256_2_conv1 (in-place)
I0526 09:18:14.136014 13987 net.cpp:122] Setting up layer_256_2_relu2
I0526 09:18:14.136025 13987 net.cpp:129] Top shape: 50 256 14 14 (2508800)
I0526 09:18:14.136029 13987 net.cpp:137] Memory required for data: 3241369800
I0526 09:18:14.136031 13987 layer_factory.hpp:77] Creating layer layer_256_2_conv2
I0526 09:18:14.136041 13987 net.cpp:84] Creating Layer layer_256_2_conv2
I0526 09:18:14.136046 13987 net.cpp:406] layer_256_2_conv2 <- layer_256_2_conv1
I0526 09:18:14.136054 13987 net.cpp:380] layer_256_2_conv2 -> layer_256_2_conv2
I0526 09:18:14.144245 13987 net.cpp:122] Setting up layer_256_2_conv2
I0526 09:18:14.144259 13987 net.cpp:129] Top shape: 50 256 14 14 (2508800)
I0526 09:18:14.144263 13987 net.cpp:137] Memory required for data: 3251405000
I0526 09:18:14.144268 13987 layer_factory.hpp:77] Creating layer layer_256_2_sum
I0526 09:18:14.144274 13987 net.cpp:84] Creating Layer layer_256_2_sum
I0526 09:18:14.144280 13987 net.cpp:406] layer_256_2_sum <- layer_256_2_conv2
I0526 09:18:14.144284 13987 net.cpp:406] layer_256_2_sum <- layer_256_1_sum_layer_256_1_sum_0_split_1
I0526 09:18:14.144291 13987 net.cpp:380] layer_256_2_sum -> layer_256_2_sum
I0526 09:18:14.144320 13987 net.cpp:122] Setting up layer_256_2_sum
I0526 09:18:14.144328 13987 net.cpp:129] Top shape: 50 256 14 14 (2508800)
I0526 09:18:14.144331 13987 net.cpp:137] Memory required for data: 3261440200
I0526 09:18:14.144335 13987 layer_factory.hpp:77] Creating layer layer_256_2_sum_layer_256_2_sum_0_split
I0526 09:18:14.144340 13987 net.cpp:84] Creating Layer layer_256_2_sum_layer_256_2_sum_0_split
I0526 09:18:14.144345 13987 net.cpp:406] layer_256_2_sum_layer_256_2_sum_0_split <- layer_256_2_sum
I0526 09:18:14.144349 13987 net.cpp:380] layer_256_2_sum_layer_256_2_sum_0_split -> layer_256_2_sum_layer_256_2_sum_0_split_0
I0526 09:18:14.144356 13987 net.cpp:380] layer_256_2_sum_layer_256_2_sum_0_split -> layer_256_2_sum_layer_256_2_sum_0_split_1
I0526 09:18:14.144393 13987 net.cpp:122] Setting up layer_256_2_sum_layer_256_2_sum_0_split
I0526 09:18:14.144400 13987 net.cpp:129] Top shape: 50 256 14 14 (2508800)
I0526 09:18:14.144405 13987 net.cpp:129] Top shape: 50 256 14 14 (2508800)
I0526 09:18:14.144408 13987 net.cpp:137] Memory required for data: 3281510600
I0526 09:18:14.144412 13987 layer_factory.hpp:77] Creating layer layer_256_3_bn1
I0526 09:18:14.144418 13987 net.cpp:84] Creating Layer layer_256_3_bn1
I0526 09:18:14.144423 13987 net.cpp:406] layer_256_3_bn1 <- layer_256_2_sum_layer_256_2_sum_0_split_0
I0526 09:18:14.144438 13987 net.cpp:380] layer_256_3_bn1 -> layer_256_3_bn1
I0526 09:18:14.144615 13987 net.cpp:122] Setting up layer_256_3_bn1
I0526 09:18:14.144623 13987 net.cpp:129] Top shape: 50 256 14 14 (2508800)
I0526 09:18:14.144628 13987 net.cpp:137] Memory required for data: 3291545800
I0526 09:18:14.144634 13987 layer_factory.hpp:77] Creating layer layer_256_3_scale1
I0526 09:18:14.144641 13987 net.cpp:84] Creating Layer layer_256_3_scale1
I0526 09:18:14.144644 13987 net.cpp:406] layer_256_3_scale1 <- layer_256_3_bn1
I0526 09:18:14.144649 13987 net.cpp:367] layer_256_3_scale1 -> layer_256_3_bn1 (in-place)
I0526 09:18:14.144690 13987 layer_factory.hpp:77] Creating layer layer_256_3_scale1
I0526 09:18:14.144788 13987 net.cpp:122] Setting up layer_256_3_scale1
I0526 09:18:14.144796 13987 net.cpp:129] Top shape: 50 256 14 14 (2508800)
I0526 09:18:14.144799 13987 net.cpp:137] Memory required for data: 3301581000
I0526 09:18:14.144805 13987 layer_factory.hpp:77] Creating layer layer_256_3_relu1
I0526 09:18:14.144811 13987 net.cpp:84] Creating Layer layer_256_3_relu1
I0526 09:18:14.144815 13987 net.cpp:406] layer_256_3_relu1 <- layer_256_3_bn1
I0526 09:18:14.144819 13987 net.cpp:367] layer_256_3_relu1 -> layer_256_3_bn1 (in-place)
I0526 09:18:14.144978 13987 net.cpp:122] Setting up layer_256_3_relu1
I0526 09:18:14.144987 13987 net.cpp:129] Top shape: 50 256 14 14 (2508800)
I0526 09:18:14.144990 13987 net.cpp:137] Memory required for data: 3311616200
I0526 09:18:14.144994 13987 layer_factory.hpp:77] Creating layer layer_256_3_conv1
I0526 09:18:14.145002 13987 net.cpp:84] Creating Layer layer_256_3_conv1
I0526 09:18:14.145007 13987 net.cpp:406] layer_256_3_conv1 <- layer_256_3_bn1
I0526 09:18:14.145016 13987 net.cpp:380] layer_256_3_conv1 -> layer_256_3_conv1
I0526 09:18:14.153169 13987 net.cpp:122] Setting up layer_256_3_conv1
I0526 09:18:14.153184 13987 net.cpp:129] Top shape: 50 256 14 14 (2508800)
I0526 09:18:14.153188 13987 net.cpp:137] Memory required for data: 3321651400
I0526 09:18:14.153193 13987 layer_factory.hpp:77] Creating layer layer_256_3_bn2
I0526 09:18:14.153200 13987 net.cpp:84] Creating Layer layer_256_3_bn2
I0526 09:18:14.153204 13987 net.cpp:406] layer_256_3_bn2 <- layer_256_3_conv1
I0526 09:18:14.153210 13987 net.cpp:367] layer_256_3_bn2 -> layer_256_3_conv1 (in-place)
I0526 09:18:14.153389 13987 net.cpp:122] Setting up layer_256_3_bn2
I0526 09:18:14.153398 13987 net.cpp:129] Top shape: 50 256 14 14 (2508800)
I0526 09:18:14.153401 13987 net.cpp:137] Memory required for data: 3331686600
I0526 09:18:14.153409 13987 layer_factory.hpp:77] Creating layer layer_256_3_scale2
I0526 09:18:14.153414 13987 net.cpp:84] Creating Layer layer_256_3_scale2
I0526 09:18:14.153419 13987 net.cpp:406] layer_256_3_scale2 <- layer_256_3_conv1
I0526 09:18:14.153426 13987 net.cpp:367] layer_256_3_scale2 -> layer_256_3_conv1 (in-place)
I0526 09:18:14.153465 13987 layer_factory.hpp:77] Creating layer layer_256_3_scale2
I0526 09:18:14.153563 13987 net.cpp:122] Setting up layer_256_3_scale2
I0526 09:18:14.153573 13987 net.cpp:129] Top shape: 50 256 14 14 (2508800)
I0526 09:18:14.153576 13987 net.cpp:137] Memory required for data: 3341721800
I0526 09:18:14.153583 13987 layer_factory.hpp:77] Creating layer layer_256_3_relu2
I0526 09:18:14.153589 13987 net.cpp:84] Creating Layer layer_256_3_relu2
I0526 09:18:14.153591 13987 net.cpp:406] layer_256_3_relu2 <- layer_256_3_conv1
I0526 09:18:14.153595 13987 net.cpp:367] layer_256_3_relu2 -> layer_256_3_conv1 (in-place)
I0526 09:18:14.153751 13987 net.cpp:122] Setting up layer_256_3_relu2
I0526 09:18:14.153761 13987 net.cpp:129] Top shape: 50 256 14 14 (2508800)
I0526 09:18:14.153764 13987 net.cpp:137] Memory required for data: 3351757000
I0526 09:18:14.153767 13987 layer_factory.hpp:77] Creating layer layer_256_3_conv2
I0526 09:18:14.153776 13987 net.cpp:84] Creating Layer layer_256_3_conv2
I0526 09:18:14.153781 13987 net.cpp:406] layer_256_3_conv2 <- layer_256_3_conv1
I0526 09:18:14.153789 13987 net.cpp:380] layer_256_3_conv2 -> layer_256_3_conv2
I0526 09:18:14.162616 13987 net.cpp:122] Setting up layer_256_3_conv2
I0526 09:18:14.162638 13987 net.cpp:129] Top shape: 50 256 14 14 (2508800)
I0526 09:18:14.162642 13987 net.cpp:137] Memory required for data: 3361792200
I0526 09:18:14.162664 13987 layer_factory.hpp:77] Creating layer layer_256_3_sum
I0526 09:18:14.162674 13987 net.cpp:84] Creating Layer layer_256_3_sum
I0526 09:18:14.162681 13987 net.cpp:406] layer_256_3_sum <- layer_256_3_conv2
I0526 09:18:14.162686 13987 net.cpp:406] layer_256_3_sum <- layer_256_2_sum_layer_256_2_sum_0_split_1
I0526 09:18:14.162693 13987 net.cpp:380] layer_256_3_sum -> layer_256_3_sum
I0526 09:18:14.162724 13987 net.cpp:122] Setting up layer_256_3_sum
I0526 09:18:14.162732 13987 net.cpp:129] Top shape: 50 256 14 14 (2508800)
I0526 09:18:14.162735 13987 net.cpp:137] Memory required for data: 3371827400
I0526 09:18:14.162739 13987 layer_factory.hpp:77] Creating layer layer_256_3_sum_layer_256_3_sum_0_split
I0526 09:18:14.162744 13987 net.cpp:84] Creating Layer layer_256_3_sum_layer_256_3_sum_0_split
I0526 09:18:14.162748 13987 net.cpp:406] layer_256_3_sum_layer_256_3_sum_0_split <- layer_256_3_sum
I0526 09:18:14.162755 13987 net.cpp:380] layer_256_3_sum_layer_256_3_sum_0_split -> layer_256_3_sum_layer_256_3_sum_0_split_0
I0526 09:18:14.162763 13987 net.cpp:380] layer_256_3_sum_layer_256_3_sum_0_split -> layer_256_3_sum_layer_256_3_sum_0_split_1
I0526 09:18:14.162798 13987 net.cpp:122] Setting up layer_256_3_sum_layer_256_3_sum_0_split
I0526 09:18:14.162807 13987 net.cpp:129] Top shape: 50 256 14 14 (2508800)
I0526 09:18:14.162813 13987 net.cpp:129] Top shape: 50 256 14 14 (2508800)
I0526 09:18:14.162817 13987 net.cpp:137] Memory required for data: 3391897800
I0526 09:18:14.162819 13987 layer_factory.hpp:77] Creating layer layer_256_4_bn1
I0526 09:18:14.162824 13987 net.cpp:84] Creating Layer layer_256_4_bn1
I0526 09:18:14.162828 13987 net.cpp:406] layer_256_4_bn1 <- layer_256_3_sum_layer_256_3_sum_0_split_0
I0526 09:18:14.162834 13987 net.cpp:380] layer_256_4_bn1 -> layer_256_4_bn1
I0526 09:18:14.163019 13987 net.cpp:122] Setting up layer_256_4_bn1
I0526 09:18:14.163028 13987 net.cpp:129] Top shape: 50 256 14 14 (2508800)
I0526 09:18:14.163031 13987 net.cpp:137] Memory required for data: 3401933000
I0526 09:18:14.163038 13987 layer_factory.hpp:77] Creating layer layer_256_4_scale1
I0526 09:18:14.163046 13987 net.cpp:84] Creating Layer layer_256_4_scale1
I0526 09:18:14.163051 13987 net.cpp:406] layer_256_4_scale1 <- layer_256_4_bn1
I0526 09:18:14.163055 13987 net.cpp:367] layer_256_4_scale1 -> layer_256_4_bn1 (in-place)
I0526 09:18:14.163099 13987 layer_factory.hpp:77] Creating layer layer_256_4_scale1
I0526 09:18:14.163203 13987 net.cpp:122] Setting up layer_256_4_scale1
I0526 09:18:14.163211 13987 net.cpp:129] Top shape: 50 256 14 14 (2508800)
I0526 09:18:14.163214 13987 net.cpp:137] Memory required for data: 3411968200
I0526 09:18:14.163219 13987 layer_factory.hpp:77] Creating layer layer_256_4_relu1
I0526 09:18:14.163225 13987 net.cpp:84] Creating Layer layer_256_4_relu1
I0526 09:18:14.163229 13987 net.cpp:406] layer_256_4_relu1 <- layer_256_4_bn1
I0526 09:18:14.163234 13987 net.cpp:367] layer_256_4_relu1 -> layer_256_4_bn1 (in-place)
I0526 09:18:14.163874 13987 net.cpp:122] Setting up layer_256_4_relu1
I0526 09:18:14.163885 13987 net.cpp:129] Top shape: 50 256 14 14 (2508800)
I0526 09:18:14.163890 13987 net.cpp:137] Memory required for data: 3422003400
I0526 09:18:14.163893 13987 layer_factory.hpp:77] Creating layer layer_256_4_conv1
I0526 09:18:14.163904 13987 net.cpp:84] Creating Layer layer_256_4_conv1
I0526 09:18:14.163909 13987 net.cpp:406] layer_256_4_conv1 <- layer_256_4_bn1
I0526 09:18:14.163915 13987 net.cpp:380] layer_256_4_conv1 -> layer_256_4_conv1
I0526 09:18:14.171690 13987 net.cpp:122] Setting up layer_256_4_conv1
I0526 09:18:14.171705 13987 net.cpp:129] Top shape: 50 256 14 14 (2508800)
I0526 09:18:14.171708 13987 net.cpp:137] Memory required for data: 3432038600
I0526 09:18:14.171715 13987 layer_factory.hpp:77] Creating layer layer_256_4_bn2
I0526 09:18:14.171736 13987 net.cpp:84] Creating Layer layer_256_4_bn2
I0526 09:18:14.171741 13987 net.cpp:406] layer_256_4_bn2 <- layer_256_4_conv1
I0526 09:18:14.171746 13987 net.cpp:367] layer_256_4_bn2 -> layer_256_4_conv1 (in-place)
I0526 09:18:14.171926 13987 net.cpp:122] Setting up layer_256_4_bn2
I0526 09:18:14.171934 13987 net.cpp:129] Top shape: 50 256 14 14 (2508800)
I0526 09:18:14.171937 13987 net.cpp:137] Memory required for data: 3442073800
I0526 09:18:14.171944 13987 layer_factory.hpp:77] Creating layer layer_256_4_scale2
I0526 09:18:14.171957 13987 net.cpp:84] Creating Layer layer_256_4_scale2
I0526 09:18:14.171962 13987 net.cpp:406] layer_256_4_scale2 <- layer_256_4_conv1
I0526 09:18:14.171967 13987 net.cpp:367] layer_256_4_scale2 -> layer_256_4_conv1 (in-place)
I0526 09:18:14.172009 13987 layer_factory.hpp:77] Creating layer layer_256_4_scale2
I0526 09:18:14.172111 13987 net.cpp:122] Setting up layer_256_4_scale2
I0526 09:18:14.172119 13987 net.cpp:129] Top shape: 50 256 14 14 (2508800)
I0526 09:18:14.172122 13987 net.cpp:137] Memory required for data: 3452109000
I0526 09:18:14.172128 13987 layer_factory.hpp:77] Creating layer layer_256_4_relu2
I0526 09:18:14.172135 13987 net.cpp:84] Creating Layer layer_256_4_relu2
I0526 09:18:14.172140 13987 net.cpp:406] layer_256_4_relu2 <- layer_256_4_conv1
I0526 09:18:14.172147 13987 net.cpp:367] layer_256_4_relu2 -> layer_256_4_conv1 (in-place)
I0526 09:18:14.172785 13987 net.cpp:122] Setting up layer_256_4_relu2
I0526 09:18:14.172796 13987 net.cpp:129] Top shape: 50 256 14 14 (2508800)
I0526 09:18:14.172799 13987 net.cpp:137] Memory required for data: 3462144200
I0526 09:18:14.172803 13987 layer_factory.hpp:77] Creating layer layer_256_4_conv2
I0526 09:18:14.172812 13987 net.cpp:84] Creating Layer layer_256_4_conv2
I0526 09:18:14.172817 13987 net.cpp:406] layer_256_4_conv2 <- layer_256_4_conv1
I0526 09:18:14.172825 13987 net.cpp:380] layer_256_4_conv2 -> layer_256_4_conv2
I0526 09:18:14.181049 13987 net.cpp:122] Setting up layer_256_4_conv2
I0526 09:18:14.181064 13987 net.cpp:129] Top shape: 50 256 14 14 (2508800)
I0526 09:18:14.181068 13987 net.cpp:137] Memory required for data: 3472179400
I0526 09:18:14.181073 13987 layer_factory.hpp:77] Creating layer layer_256_4_sum
I0526 09:18:14.181080 13987 net.cpp:84] Creating Layer layer_256_4_sum
I0526 09:18:14.181084 13987 net.cpp:406] layer_256_4_sum <- layer_256_4_conv2
I0526 09:18:14.181088 13987 net.cpp:406] layer_256_4_sum <- layer_256_3_sum_layer_256_3_sum_0_split_1
I0526 09:18:14.181095 13987 net.cpp:380] layer_256_4_sum -> layer_256_4_sum
I0526 09:18:14.181125 13987 net.cpp:122] Setting up layer_256_4_sum
I0526 09:18:14.181133 13987 net.cpp:129] Top shape: 50 256 14 14 (2508800)
I0526 09:18:14.181136 13987 net.cpp:137] Memory required for data: 3482214600
I0526 09:18:14.181140 13987 layer_factory.hpp:77] Creating layer layer_256_4_sum_layer_256_4_sum_0_split
I0526 09:18:14.181145 13987 net.cpp:84] Creating Layer layer_256_4_sum_layer_256_4_sum_0_split
I0526 09:18:14.181149 13987 net.cpp:406] layer_256_4_sum_layer_256_4_sum_0_split <- layer_256_4_sum
I0526 09:18:14.181155 13987 net.cpp:380] layer_256_4_sum_layer_256_4_sum_0_split -> layer_256_4_sum_layer_256_4_sum_0_split_0
I0526 09:18:14.181164 13987 net.cpp:380] layer_256_4_sum_layer_256_4_sum_0_split -> layer_256_4_sum_layer_256_4_sum_0_split_1
I0526 09:18:14.181200 13987 net.cpp:122] Setting up layer_256_4_sum_layer_256_4_sum_0_split
I0526 09:18:14.181207 13987 net.cpp:129] Top shape: 50 256 14 14 (2508800)
I0526 09:18:14.181212 13987 net.cpp:129] Top shape: 50 256 14 14 (2508800)
I0526 09:18:14.181215 13987 net.cpp:137] Memory required for data: 3502285000
I0526 09:18:14.181218 13987 layer_factory.hpp:77] Creating layer layer_256_5_bn1
I0526 09:18:14.181224 13987 net.cpp:84] Creating Layer layer_256_5_bn1
I0526 09:18:14.181231 13987 net.cpp:406] layer_256_5_bn1 <- layer_256_4_sum_layer_256_4_sum_0_split_0
I0526 09:18:14.181236 13987 net.cpp:380] layer_256_5_bn1 -> layer_256_5_bn1
I0526 09:18:14.181418 13987 net.cpp:122] Setting up layer_256_5_bn1
I0526 09:18:14.181427 13987 net.cpp:129] Top shape: 50 256 14 14 (2508800)
I0526 09:18:14.181440 13987 net.cpp:137] Memory required for data: 3512320200
I0526 09:18:14.181448 13987 layer_factory.hpp:77] Creating layer layer_256_5_scale1
I0526 09:18:14.181455 13987 net.cpp:84] Creating Layer layer_256_5_scale1
I0526 09:18:14.181459 13987 net.cpp:406] layer_256_5_scale1 <- layer_256_5_bn1
I0526 09:18:14.181465 13987 net.cpp:367] layer_256_5_scale1 -> layer_256_5_bn1 (in-place)
I0526 09:18:14.181507 13987 layer_factory.hpp:77] Creating layer layer_256_5_scale1
I0526 09:18:14.181612 13987 net.cpp:122] Setting up layer_256_5_scale1
I0526 09:18:14.181624 13987 net.cpp:129] Top shape: 50 256 14 14 (2508800)
I0526 09:18:14.181628 13987 net.cpp:137] Memory required for data: 3522355400
I0526 09:18:14.181634 13987 layer_factory.hpp:77] Creating layer layer_256_5_relu1
I0526 09:18:14.181640 13987 net.cpp:84] Creating Layer layer_256_5_relu1
I0526 09:18:14.181644 13987 net.cpp:406] layer_256_5_relu1 <- layer_256_5_bn1
I0526 09:18:14.181649 13987 net.cpp:367] layer_256_5_relu1 -> layer_256_5_bn1 (in-place)
I0526 09:18:14.181805 13987 net.cpp:122] Setting up layer_256_5_relu1
I0526 09:18:14.181814 13987 net.cpp:129] Top shape: 50 256 14 14 (2508800)
I0526 09:18:14.181818 13987 net.cpp:137] Memory required for data: 3532390600
I0526 09:18:14.181823 13987 layer_factory.hpp:77] Creating layer layer_256_5_conv1
I0526 09:18:14.181833 13987 net.cpp:84] Creating Layer layer_256_5_conv1
I0526 09:18:14.181838 13987 net.cpp:406] layer_256_5_conv1 <- layer_256_5_bn1
I0526 09:18:14.181844 13987 net.cpp:380] layer_256_5_conv1 -> layer_256_5_conv1
I0526 09:18:14.190068 13987 net.cpp:122] Setting up layer_256_5_conv1
I0526 09:18:14.190081 13987 net.cpp:129] Top shape: 50 256 14 14 (2508800)
I0526 09:18:14.190085 13987 net.cpp:137] Memory required for data: 3542425800
I0526 09:18:14.190091 13987 layer_factory.hpp:77] Creating layer layer_256_5_bn2
I0526 09:18:14.190099 13987 net.cpp:84] Creating Layer layer_256_5_bn2
I0526 09:18:14.190105 13987 net.cpp:406] layer_256_5_bn2 <- layer_256_5_conv1
I0526 09:18:14.190110 13987 net.cpp:367] layer_256_5_bn2 -> layer_256_5_conv1 (in-place)
I0526 09:18:14.190292 13987 net.cpp:122] Setting up layer_256_5_bn2
I0526 09:18:14.190300 13987 net.cpp:129] Top shape: 50 256 14 14 (2508800)
I0526 09:18:14.190304 13987 net.cpp:137] Memory required for data: 3552461000
I0526 09:18:14.190311 13987 layer_factory.hpp:77] Creating layer layer_256_5_scale2
I0526 09:18:14.190318 13987 net.cpp:84] Creating Layer layer_256_5_scale2
I0526 09:18:14.190322 13987 net.cpp:406] layer_256_5_scale2 <- layer_256_5_conv1
I0526 09:18:14.190328 13987 net.cpp:367] layer_256_5_scale2 -> layer_256_5_conv1 (in-place)
I0526 09:18:14.190371 13987 layer_factory.hpp:77] Creating layer layer_256_5_scale2
I0526 09:18:14.190474 13987 net.cpp:122] Setting up layer_256_5_scale2
I0526 09:18:14.190484 13987 net.cpp:129] Top shape: 50 256 14 14 (2508800)
I0526 09:18:14.190486 13987 net.cpp:137] Memory required for data: 3562496200
I0526 09:18:14.190491 13987 layer_factory.hpp:77] Creating layer layer_256_5_relu2
I0526 09:18:14.190500 13987 net.cpp:84] Creating Layer layer_256_5_relu2
I0526 09:18:14.190503 13987 net.cpp:406] layer_256_5_relu2 <- layer_256_5_conv1
I0526 09:18:14.190510 13987 net.cpp:367] layer_256_5_relu2 -> layer_256_5_conv1 (in-place)
I0526 09:18:14.190668 13987 net.cpp:122] Setting up layer_256_5_relu2
I0526 09:18:14.190678 13987 net.cpp:129] Top shape: 50 256 14 14 (2508800)
I0526 09:18:14.190681 13987 net.cpp:137] Memory required for data: 3572531400
I0526 09:18:14.190685 13987 layer_factory.hpp:77] Creating layer layer_256_5_conv2
I0526 09:18:14.190696 13987 net.cpp:84] Creating Layer layer_256_5_conv2
I0526 09:18:14.190701 13987 net.cpp:406] layer_256_5_conv2 <- layer_256_5_conv1
I0526 09:18:14.190707 13987 net.cpp:380] layer_256_5_conv2 -> layer_256_5_conv2
I0526 09:18:14.199527 13987 net.cpp:122] Setting up layer_256_5_conv2
I0526 09:18:14.199548 13987 net.cpp:129] Top shape: 50 256 14 14 (2508800)
I0526 09:18:14.199553 13987 net.cpp:137] Memory required for data: 3582566600
I0526 09:18:14.199574 13987 layer_factory.hpp:77] Creating layer layer_256_5_sum
I0526 09:18:14.199585 13987 net.cpp:84] Creating Layer layer_256_5_sum
I0526 09:18:14.199590 13987 net.cpp:406] layer_256_5_sum <- layer_256_5_conv2
I0526 09:18:14.199595 13987 net.cpp:406] layer_256_5_sum <- layer_256_4_sum_layer_256_4_sum_0_split_1
I0526 09:18:14.199601 13987 net.cpp:380] layer_256_5_sum -> layer_256_5_sum
I0526 09:18:14.199633 13987 net.cpp:122] Setting up layer_256_5_sum
I0526 09:18:14.199641 13987 net.cpp:129] Top shape: 50 256 14 14 (2508800)
I0526 09:18:14.199645 13987 net.cpp:137] Memory required for data: 3592601800
I0526 09:18:14.199648 13987 layer_factory.hpp:77] Creating layer layer_256_5_sum_layer_256_5_sum_0_split
I0526 09:18:14.199654 13987 net.cpp:84] Creating Layer layer_256_5_sum_layer_256_5_sum_0_split
I0526 09:18:14.199657 13987 net.cpp:406] layer_256_5_sum_layer_256_5_sum_0_split <- layer_256_5_sum
I0526 09:18:14.199664 13987 net.cpp:380] layer_256_5_sum_layer_256_5_sum_0_split -> layer_256_5_sum_layer_256_5_sum_0_split_0
I0526 09:18:14.199672 13987 net.cpp:380] layer_256_5_sum_layer_256_5_sum_0_split -> layer_256_5_sum_layer_256_5_sum_0_split_1
I0526 09:18:14.199710 13987 net.cpp:122] Setting up layer_256_5_sum_layer_256_5_sum_0_split
I0526 09:18:14.199717 13987 net.cpp:129] Top shape: 50 256 14 14 (2508800)
I0526 09:18:14.199721 13987 net.cpp:129] Top shape: 50 256 14 14 (2508800)
I0526 09:18:14.199724 13987 net.cpp:137] Memory required for data: 3612672200
I0526 09:18:14.199728 13987 layer_factory.hpp:77] Creating layer layer_256_6_bn1
I0526 09:18:14.199757 13987 net.cpp:84] Creating Layer layer_256_6_bn1
I0526 09:18:14.199762 13987 net.cpp:406] layer_256_6_bn1 <- layer_256_5_sum_layer_256_5_sum_0_split_0
I0526 09:18:14.199767 13987 net.cpp:380] layer_256_6_bn1 -> layer_256_6_bn1
I0526 09:18:14.199961 13987 net.cpp:122] Setting up layer_256_6_bn1
I0526 09:18:14.199970 13987 net.cpp:129] Top shape: 50 256 14 14 (2508800)
I0526 09:18:14.199973 13987 net.cpp:137] Memory required for data: 3622707400
I0526 09:18:14.199981 13987 layer_factory.hpp:77] Creating layer layer_256_6_scale1
I0526 09:18:14.199991 13987 net.cpp:84] Creating Layer layer_256_6_scale1
I0526 09:18:14.199995 13987 net.cpp:406] layer_256_6_scale1 <- layer_256_6_bn1
I0526 09:18:14.200001 13987 net.cpp:367] layer_256_6_scale1 -> layer_256_6_bn1 (in-place)
I0526 09:18:14.200047 13987 layer_factory.hpp:77] Creating layer layer_256_6_scale1
I0526 09:18:14.200152 13987 net.cpp:122] Setting up layer_256_6_scale1
I0526 09:18:14.200161 13987 net.cpp:129] Top shape: 50 256 14 14 (2508800)
I0526 09:18:14.200165 13987 net.cpp:137] Memory required for data: 3632742600
I0526 09:18:14.200170 13987 layer_factory.hpp:77] Creating layer layer_256_6_relu1
I0526 09:18:14.200177 13987 net.cpp:84] Creating Layer layer_256_6_relu1
I0526 09:18:14.200182 13987 net.cpp:406] layer_256_6_relu1 <- layer_256_6_bn1
I0526 09:18:14.200186 13987 net.cpp:367] layer_256_6_relu1 -> layer_256_6_bn1 (in-place)
I0526 09:18:14.200345 13987 net.cpp:122] Setting up layer_256_6_relu1
I0526 09:18:14.200353 13987 net.cpp:129] Top shape: 50 256 14 14 (2508800)
I0526 09:18:14.200356 13987 net.cpp:137] Memory required for data: 3642777800
I0526 09:18:14.200361 13987 layer_factory.hpp:77] Creating layer layer_256_6_conv1
I0526 09:18:14.200369 13987 net.cpp:84] Creating Layer layer_256_6_conv1
I0526 09:18:14.200374 13987 net.cpp:406] layer_256_6_conv1 <- layer_256_6_bn1
I0526 09:18:14.200381 13987 net.cpp:380] layer_256_6_conv1 -> layer_256_6_conv1
I0526 09:18:14.208582 13987 net.cpp:122] Setting up layer_256_6_conv1
I0526 09:18:14.208595 13987 net.cpp:129] Top shape: 50 256 14 14 (2508800)
I0526 09:18:14.208598 13987 net.cpp:137] Memory required for data: 3652813000
I0526 09:18:14.208605 13987 layer_factory.hpp:77] Creating layer layer_256_6_bn2
I0526 09:18:14.208611 13987 net.cpp:84] Creating Layer layer_256_6_bn2
I0526 09:18:14.208616 13987 net.cpp:406] layer_256_6_bn2 <- layer_256_6_conv1
I0526 09:18:14.208621 13987 net.cpp:367] layer_256_6_bn2 -> layer_256_6_conv1 (in-place)
I0526 09:18:14.208817 13987 net.cpp:122] Setting up layer_256_6_bn2
I0526 09:18:14.208827 13987 net.cpp:129] Top shape: 50 256 14 14 (2508800)
I0526 09:18:14.208829 13987 net.cpp:137] Memory required for data: 3662848200
I0526 09:18:14.208837 13987 layer_factory.hpp:77] Creating layer layer_256_6_scale2
I0526 09:18:14.208843 13987 net.cpp:84] Creating Layer layer_256_6_scale2
I0526 09:18:14.208848 13987 net.cpp:406] layer_256_6_scale2 <- layer_256_6_conv1
I0526 09:18:14.208853 13987 net.cpp:367] layer_256_6_scale2 -> layer_256_6_conv1 (in-place)
I0526 09:18:14.208894 13987 layer_factory.hpp:77] Creating layer layer_256_6_scale2
I0526 09:18:14.209000 13987 net.cpp:122] Setting up layer_256_6_scale2
I0526 09:18:14.209008 13987 net.cpp:129] Top shape: 50 256 14 14 (2508800)
I0526 09:18:14.209012 13987 net.cpp:137] Memory required for data: 3672883400
I0526 09:18:14.209017 13987 layer_factory.hpp:77] Creating layer layer_256_6_relu2
I0526 09:18:14.209023 13987 net.cpp:84] Creating Layer layer_256_6_relu2
I0526 09:18:14.209026 13987 net.cpp:406] layer_256_6_relu2 <- layer_256_6_conv1
I0526 09:18:14.209033 13987 net.cpp:367] layer_256_6_relu2 -> layer_256_6_conv1 (in-place)
I0526 09:18:14.209187 13987 net.cpp:122] Setting up layer_256_6_relu2
I0526 09:18:14.209198 13987 net.cpp:129] Top shape: 50 256 14 14 (2508800)
I0526 09:18:14.209202 13987 net.cpp:137] Memory required for data: 3682918600
I0526 09:18:14.209204 13987 layer_factory.hpp:77] Creating layer layer_256_6_conv2
I0526 09:18:14.209214 13987 net.cpp:84] Creating Layer layer_256_6_conv2
I0526 09:18:14.209219 13987 net.cpp:406] layer_256_6_conv2 <- layer_256_6_conv1
I0526 09:18:14.209225 13987 net.cpp:380] layer_256_6_conv2 -> layer_256_6_conv2
I0526 09:18:14.217417 13987 net.cpp:122] Setting up layer_256_6_conv2
I0526 09:18:14.217432 13987 net.cpp:129] Top shape: 50 256 14 14 (2508800)
I0526 09:18:14.217434 13987 net.cpp:137] Memory required for data: 3692953800
I0526 09:18:14.217440 13987 layer_factory.hpp:77] Creating layer layer_256_6_sum
I0526 09:18:14.217447 13987 net.cpp:84] Creating Layer layer_256_6_sum
I0526 09:18:14.217452 13987 net.cpp:406] layer_256_6_sum <- layer_256_6_conv2
I0526 09:18:14.217456 13987 net.cpp:406] layer_256_6_sum <- layer_256_5_sum_layer_256_5_sum_0_split_1
I0526 09:18:14.217463 13987 net.cpp:380] layer_256_6_sum -> layer_256_6_sum
I0526 09:18:14.217491 13987 net.cpp:122] Setting up layer_256_6_sum
I0526 09:18:14.217501 13987 net.cpp:129] Top shape: 50 256 14 14 (2508800)
I0526 09:18:14.217505 13987 net.cpp:137] Memory required for data: 3702989000
I0526 09:18:14.217509 13987 layer_factory.hpp:77] Creating layer layer_512_1_bn1
I0526 09:18:14.217514 13987 net.cpp:84] Creating Layer layer_512_1_bn1
I0526 09:18:14.217519 13987 net.cpp:406] layer_512_1_bn1 <- layer_256_6_sum
I0526 09:18:14.217525 13987 net.cpp:380] layer_512_1_bn1 -> layer_512_1_bn1
I0526 09:18:14.217715 13987 net.cpp:122] Setting up layer_512_1_bn1
I0526 09:18:14.217722 13987 net.cpp:129] Top shape: 50 256 14 14 (2508800)
I0526 09:18:14.217725 13987 net.cpp:137] Memory required for data: 3713024200
I0526 09:18:14.217733 13987 layer_factory.hpp:77] Creating layer layer_512_1_scale1
I0526 09:18:14.217741 13987 net.cpp:84] Creating Layer layer_512_1_scale1
I0526 09:18:14.217746 13987 net.cpp:406] layer_512_1_scale1 <- layer_512_1_bn1
I0526 09:18:14.217751 13987 net.cpp:367] layer_512_1_scale1 -> layer_512_1_bn1 (in-place)
I0526 09:18:14.217792 13987 layer_factory.hpp:77] Creating layer layer_512_1_scale1
I0526 09:18:14.217898 13987 net.cpp:122] Setting up layer_512_1_scale1
I0526 09:18:14.217907 13987 net.cpp:129] Top shape: 50 256 14 14 (2508800)
I0526 09:18:14.217911 13987 net.cpp:137] Memory required for data: 3723059400
I0526 09:18:14.217916 13987 layer_factory.hpp:77] Creating layer layer_512_1_relu1
I0526 09:18:14.217921 13987 net.cpp:84] Creating Layer layer_512_1_relu1
I0526 09:18:14.217924 13987 net.cpp:406] layer_512_1_relu1 <- layer_512_1_bn1
I0526 09:18:14.217931 13987 net.cpp:367] layer_512_1_relu1 -> layer_512_1_bn1 (in-place)
I0526 09:18:14.218583 13987 net.cpp:122] Setting up layer_512_1_relu1
I0526 09:18:14.218603 13987 net.cpp:129] Top shape: 50 256 14 14 (2508800)
I0526 09:18:14.218607 13987 net.cpp:137] Memory required for data: 3733094600
I0526 09:18:14.218611 13987 layer_factory.hpp:77] Creating layer layer_512_1_bn1_layer_512_1_relu1_0_split
I0526 09:18:14.218621 13987 net.cpp:84] Creating Layer layer_512_1_bn1_layer_512_1_relu1_0_split
I0526 09:18:14.218626 13987 net.cpp:406] layer_512_1_bn1_layer_512_1_relu1_0_split <- layer_512_1_bn1
I0526 09:18:14.218631 13987 net.cpp:380] layer_512_1_bn1_layer_512_1_relu1_0_split -> layer_512_1_bn1_layer_512_1_relu1_0_split_0
I0526 09:18:14.218638 13987 net.cpp:380] layer_512_1_bn1_layer_512_1_relu1_0_split -> layer_512_1_bn1_layer_512_1_relu1_0_split_1
I0526 09:18:14.218682 13987 net.cpp:122] Setting up layer_512_1_bn1_layer_512_1_relu1_0_split
I0526 09:18:14.218689 13987 net.cpp:129] Top shape: 50 256 14 14 (2508800)
I0526 09:18:14.218693 13987 net.cpp:129] Top shape: 50 256 14 14 (2508800)
I0526 09:18:14.218696 13987 net.cpp:137] Memory required for data: 3753165000
I0526 09:18:14.218699 13987 layer_factory.hpp:77] Creating layer layer_512_1_conv1
I0526 09:18:14.218710 13987 net.cpp:84] Creating Layer layer_512_1_conv1
I0526 09:18:14.218715 13987 net.cpp:406] layer_512_1_conv1 <- layer_512_1_bn1_layer_512_1_relu1_0_split_0
I0526 09:18:14.218722 13987 net.cpp:380] layer_512_1_conv1 -> layer_512_1_conv1
I0526 09:18:14.232987 13987 net.cpp:122] Setting up layer_512_1_conv1
I0526 09:18:14.233018 13987 net.cpp:129] Top shape: 50 512 7 7 (1254400)
I0526 09:18:14.233021 13987 net.cpp:137] Memory required for data: 3758182600
I0526 09:18:14.233031 13987 layer_factory.hpp:77] Creating layer layer_512_1_bn2
I0526 09:18:14.233042 13987 net.cpp:84] Creating Layer layer_512_1_bn2
I0526 09:18:14.233047 13987 net.cpp:406] layer_512_1_bn2 <- layer_512_1_conv1
I0526 09:18:14.233055 13987 net.cpp:367] layer_512_1_bn2 -> layer_512_1_conv1 (in-place)
I0526 09:18:14.233263 13987 net.cpp:122] Setting up layer_512_1_bn2
I0526 09:18:14.233270 13987 net.cpp:129] Top shape: 50 512 7 7 (1254400)
I0526 09:18:14.233274 13987 net.cpp:137] Memory required for data: 3763200200
I0526 09:18:14.233281 13987 layer_factory.hpp:77] Creating layer layer_512_1_scale2
I0526 09:18:14.233291 13987 net.cpp:84] Creating Layer layer_512_1_scale2
I0526 09:18:14.233296 13987 net.cpp:406] layer_512_1_scale2 <- layer_512_1_conv1
I0526 09:18:14.233300 13987 net.cpp:367] layer_512_1_scale2 -> layer_512_1_conv1 (in-place)
I0526 09:18:14.233342 13987 layer_factory.hpp:77] Creating layer layer_512_1_scale2
I0526 09:18:14.233458 13987 net.cpp:122] Setting up layer_512_1_scale2
I0526 09:18:14.233466 13987 net.cpp:129] Top shape: 50 512 7 7 (1254400)
I0526 09:18:14.233469 13987 net.cpp:137] Memory required for data: 3768217800
I0526 09:18:14.233475 13987 layer_factory.hpp:77] Creating layer layer_512_1_relu2
I0526 09:18:14.233482 13987 net.cpp:84] Creating Layer layer_512_1_relu2
I0526 09:18:14.233487 13987 net.cpp:406] layer_512_1_relu2 <- layer_512_1_conv1
I0526 09:18:14.233492 13987 net.cpp:367] layer_512_1_relu2 -> layer_512_1_conv1 (in-place)
I0526 09:18:14.234226 13987 net.cpp:122] Setting up layer_512_1_relu2
I0526 09:18:14.234237 13987 net.cpp:129] Top shape: 50 512 7 7 (1254400)
I0526 09:18:14.234241 13987 net.cpp:137] Memory required for data: 3773235400
I0526 09:18:14.234244 13987 layer_factory.hpp:77] Creating layer layer_512_1_conv2
I0526 09:18:14.234256 13987 net.cpp:84] Creating Layer layer_512_1_conv2
I0526 09:18:14.234261 13987 net.cpp:406] layer_512_1_conv2 <- layer_512_1_conv1
I0526 09:18:14.234268 13987 net.cpp:380] layer_512_1_conv2 -> layer_512_1_conv2
I0526 09:18:14.262539 13987 net.cpp:122] Setting up layer_512_1_conv2
I0526 09:18:14.262567 13987 net.cpp:129] Top shape: 50 512 7 7 (1254400)
I0526 09:18:14.262572 13987 net.cpp:137] Memory required for data: 3778253000
I0526 09:18:14.262580 13987 layer_factory.hpp:77] Creating layer layer_512_1_conv_expand
I0526 09:18:14.262608 13987 net.cpp:84] Creating Layer layer_512_1_conv_expand
I0526 09:18:14.262632 13987 net.cpp:406] layer_512_1_conv_expand <- layer_512_1_bn1_layer_512_1_relu1_0_split_1
I0526 09:18:14.262643 13987 net.cpp:380] layer_512_1_conv_expand -> layer_512_1_conv_expand
I0526 09:18:14.264801 13987 net.cpp:122] Setting up layer_512_1_conv_expand
I0526 09:18:14.264812 13987 net.cpp:129] Top shape: 50 512 7 7 (1254400)
I0526 09:18:14.264816 13987 net.cpp:137] Memory required for data: 3783270600
I0526 09:18:14.264820 13987 layer_factory.hpp:77] Creating layer layer_512_1_sum
I0526 09:18:14.264827 13987 net.cpp:84] Creating Layer layer_512_1_sum
I0526 09:18:14.264830 13987 net.cpp:406] layer_512_1_sum <- layer_512_1_conv_expand
I0526 09:18:14.264835 13987 net.cpp:406] layer_512_1_sum <- layer_512_1_conv2
I0526 09:18:14.264842 13987 net.cpp:380] layer_512_1_sum -> layer_512_1_sum
I0526 09:18:14.264881 13987 net.cpp:122] Setting up layer_512_1_sum
I0526 09:18:14.264889 13987 net.cpp:129] Top shape: 50 512 7 7 (1254400)
I0526 09:18:14.264894 13987 net.cpp:137] Memory required for data: 3788288200
I0526 09:18:14.264896 13987 layer_factory.hpp:77] Creating layer layer_512_1_sum_layer_512_1_sum_0_split
I0526 09:18:14.264904 13987 net.cpp:84] Creating Layer layer_512_1_sum_layer_512_1_sum_0_split
I0526 09:18:14.264909 13987 net.cpp:406] layer_512_1_sum_layer_512_1_sum_0_split <- layer_512_1_sum
I0526 09:18:14.264915 13987 net.cpp:380] layer_512_1_sum_layer_512_1_sum_0_split -> layer_512_1_sum_layer_512_1_sum_0_split_0
I0526 09:18:14.264922 13987 net.cpp:380] layer_512_1_sum_layer_512_1_sum_0_split -> layer_512_1_sum_layer_512_1_sum_0_split_1
I0526 09:18:14.264971 13987 net.cpp:122] Setting up layer_512_1_sum_layer_512_1_sum_0_split
I0526 09:18:14.264978 13987 net.cpp:129] Top shape: 50 512 7 7 (1254400)
I0526 09:18:14.264982 13987 net.cpp:129] Top shape: 50 512 7 7 (1254400)
I0526 09:18:14.264986 13987 net.cpp:137] Memory required for data: 3798323400
I0526 09:18:14.264988 13987 layer_factory.hpp:77] Creating layer layer_512_2_bn1
I0526 09:18:14.264994 13987 net.cpp:84] Creating Layer layer_512_2_bn1
I0526 09:18:14.264998 13987 net.cpp:406] layer_512_2_bn1 <- layer_512_1_sum_layer_512_1_sum_0_split_0
I0526 09:18:14.265004 13987 net.cpp:380] layer_512_2_bn1 -> layer_512_2_bn1
I0526 09:18:14.265226 13987 net.cpp:122] Setting up layer_512_2_bn1
I0526 09:18:14.265235 13987 net.cpp:129] Top shape: 50 512 7 7 (1254400)
I0526 09:18:14.265239 13987 net.cpp:137] Memory required for data: 3803341000
I0526 09:18:14.265245 13987 layer_factory.hpp:77] Creating layer layer_512_2_scale1
I0526 09:18:14.265254 13987 net.cpp:84] Creating Layer layer_512_2_scale1
I0526 09:18:14.265257 13987 net.cpp:406] layer_512_2_scale1 <- layer_512_2_bn1
I0526 09:18:14.265261 13987 net.cpp:367] layer_512_2_scale1 -> layer_512_2_bn1 (in-place)
I0526 09:18:14.265314 13987 layer_factory.hpp:77] Creating layer layer_512_2_scale1
I0526 09:18:14.265441 13987 net.cpp:122] Setting up layer_512_2_scale1
I0526 09:18:14.265450 13987 net.cpp:129] Top shape: 50 512 7 7 (1254400)
I0526 09:18:14.265453 13987 net.cpp:137] Memory required for data: 3808358600
I0526 09:18:14.265458 13987 layer_factory.hpp:77] Creating layer layer_512_2_relu1
I0526 09:18:14.265466 13987 net.cpp:84] Creating Layer layer_512_2_relu1
I0526 09:18:14.265470 13987 net.cpp:406] layer_512_2_relu1 <- layer_512_2_bn1
I0526 09:18:14.265475 13987 net.cpp:367] layer_512_2_relu1 -> layer_512_2_bn1 (in-place)
I0526 09:18:14.266136 13987 net.cpp:122] Setting up layer_512_2_relu1
I0526 09:18:14.266149 13987 net.cpp:129] Top shape: 50 512 7 7 (1254400)
I0526 09:18:14.266151 13987 net.cpp:137] Memory required for data: 3813376200
I0526 09:18:14.266155 13987 layer_factory.hpp:77] Creating layer layer_512_2_conv1
I0526 09:18:14.266163 13987 net.cpp:84] Creating Layer layer_512_2_conv1
I0526 09:18:14.266167 13987 net.cpp:406] layer_512_2_conv1 <- layer_512_2_bn1
I0526 09:18:14.266175 13987 net.cpp:380] layer_512_2_conv1 -> layer_512_2_conv1
I0526 09:18:14.293406 13987 net.cpp:122] Setting up layer_512_2_conv1
I0526 09:18:14.293437 13987 net.cpp:129] Top shape: 50 512 7 7 (1254400)
I0526 09:18:14.293439 13987 net.cpp:137] Memory required for data: 3818393800
I0526 09:18:14.293486 13987 layer_factory.hpp:77] Creating layer layer_512_2_bn2
I0526 09:18:14.293500 13987 net.cpp:84] Creating Layer layer_512_2_bn2
I0526 09:18:14.293506 13987 net.cpp:406] layer_512_2_bn2 <- layer_512_2_conv1
I0526 09:18:14.293516 13987 net.cpp:367] layer_512_2_bn2 -> layer_512_2_conv1 (in-place)
I0526 09:18:14.293792 13987 net.cpp:122] Setting up layer_512_2_bn2
I0526 09:18:14.293802 13987 net.cpp:129] Top shape: 50 512 7 7 (1254400)
I0526 09:18:14.293804 13987 net.cpp:137] Memory required for data: 3823411400
I0526 09:18:14.293812 13987 layer_factory.hpp:77] Creating layer layer_512_2_scale2
I0526 09:18:14.293820 13987 net.cpp:84] Creating Layer layer_512_2_scale2
I0526 09:18:14.293824 13987 net.cpp:406] layer_512_2_scale2 <- layer_512_2_conv1
I0526 09:18:14.293831 13987 net.cpp:367] layer_512_2_scale2 -> layer_512_2_conv1 (in-place)
I0526 09:18:14.293875 13987 layer_factory.hpp:77] Creating layer layer_512_2_scale2
I0526 09:18:14.293995 13987 net.cpp:122] Setting up layer_512_2_scale2
I0526 09:18:14.294008 13987 net.cpp:129] Top shape: 50 512 7 7 (1254400)
I0526 09:18:14.294013 13987 net.cpp:137] Memory required for data: 3828429000
I0526 09:18:14.294023 13987 layer_factory.hpp:77] Creating layer layer_512_2_relu2
I0526 09:18:14.294035 13987 net.cpp:84] Creating Layer layer_512_2_relu2
I0526 09:18:14.294040 13987 net.cpp:406] layer_512_2_relu2 <- layer_512_2_conv1
I0526 09:18:14.294045 13987 net.cpp:367] layer_512_2_relu2 -> layer_512_2_conv1 (in-place)
I0526 09:18:14.294203 13987 net.cpp:122] Setting up layer_512_2_relu2
I0526 09:18:14.294212 13987 net.cpp:129] Top shape: 50 512 7 7 (1254400)
I0526 09:18:14.294215 13987 net.cpp:137] Memory required for data: 3833446600
I0526 09:18:14.294219 13987 layer_factory.hpp:77] Creating layer layer_512_2_conv2
I0526 09:18:14.294230 13987 net.cpp:84] Creating Layer layer_512_2_conv2
I0526 09:18:14.294235 13987 net.cpp:406] layer_512_2_conv2 <- layer_512_2_conv1
I0526 09:18:14.294242 13987 net.cpp:380] layer_512_2_conv2 -> layer_512_2_conv2
I0526 09:18:14.322028 13987 net.cpp:122] Setting up layer_512_2_conv2
I0526 09:18:14.322069 13987 net.cpp:129] Top shape: 50 512 7 7 (1254400)
I0526 09:18:14.322074 13987 net.cpp:137] Memory required for data: 3838464200
I0526 09:18:14.322083 13987 layer_factory.hpp:77] Creating layer layer_512_2_sum
I0526 09:18:14.322093 13987 net.cpp:84] Creating Layer layer_512_2_sum
I0526 09:18:14.322098 13987 net.cpp:406] layer_512_2_sum <- layer_512_2_conv2
I0526 09:18:14.322106 13987 net.cpp:406] layer_512_2_sum <- layer_512_1_sum_layer_512_1_sum_0_split_1
I0526 09:18:14.322113 13987 net.cpp:380] layer_512_2_sum -> layer_512_2_sum
I0526 09:18:14.322149 13987 net.cpp:122] Setting up layer_512_2_sum
I0526 09:18:14.322157 13987 net.cpp:129] Top shape: 50 512 7 7 (1254400)
I0526 09:18:14.322161 13987 net.cpp:137] Memory required for data: 3843481800
I0526 09:18:14.322165 13987 layer_factory.hpp:77] Creating layer layer_512_2_sum_layer_512_2_sum_0_split
I0526 09:18:14.322170 13987 net.cpp:84] Creating Layer layer_512_2_sum_layer_512_2_sum_0_split
I0526 09:18:14.322173 13987 net.cpp:406] layer_512_2_sum_layer_512_2_sum_0_split <- layer_512_2_sum
I0526 09:18:14.322178 13987 net.cpp:380] layer_512_2_sum_layer_512_2_sum_0_split -> layer_512_2_sum_layer_512_2_sum_0_split_0
I0526 09:18:14.322186 13987 net.cpp:380] layer_512_2_sum_layer_512_2_sum_0_split -> layer_512_2_sum_layer_512_2_sum_0_split_1
I0526 09:18:14.322226 13987 net.cpp:122] Setting up layer_512_2_sum_layer_512_2_sum_0_split
I0526 09:18:14.322233 13987 net.cpp:129] Top shape: 50 512 7 7 (1254400)
I0526 09:18:14.322238 13987 net.cpp:129] Top shape: 50 512 7 7 (1254400)
I0526 09:18:14.322240 13987 net.cpp:137] Memory required for data: 3853517000
I0526 09:18:14.322244 13987 layer_factory.hpp:77] Creating layer layer_512_3_bn1
I0526 09:18:14.322252 13987 net.cpp:84] Creating Layer layer_512_3_bn1
I0526 09:18:14.322255 13987 net.cpp:406] layer_512_3_bn1 <- layer_512_2_sum_layer_512_2_sum_0_split_0
I0526 09:18:14.322262 13987 net.cpp:380] layer_512_3_bn1 -> layer_512_3_bn1
I0526 09:18:14.322492 13987 net.cpp:122] Setting up layer_512_3_bn1
I0526 09:18:14.322501 13987 net.cpp:129] Top shape: 50 512 7 7 (1254400)
I0526 09:18:14.322504 13987 net.cpp:137] Memory required for data: 3858534600
I0526 09:18:14.322523 13987 layer_factory.hpp:77] Creating layer layer_512_3_scale1
I0526 09:18:14.322530 13987 net.cpp:84] Creating Layer layer_512_3_scale1
I0526 09:18:14.322533 13987 net.cpp:406] layer_512_3_scale1 <- layer_512_3_bn1
I0526 09:18:14.322538 13987 net.cpp:367] layer_512_3_scale1 -> layer_512_3_bn1 (in-place)
I0526 09:18:14.322584 13987 layer_factory.hpp:77] Creating layer layer_512_3_scale1
I0526 09:18:14.322716 13987 net.cpp:122] Setting up layer_512_3_scale1
I0526 09:18:14.322724 13987 net.cpp:129] Top shape: 50 512 7 7 (1254400)
I0526 09:18:14.322727 13987 net.cpp:137] Memory required for data: 3863552200
I0526 09:18:14.322733 13987 layer_factory.hpp:77] Creating layer layer_512_3_relu1
I0526 09:18:14.322739 13987 net.cpp:84] Creating Layer layer_512_3_relu1
I0526 09:18:14.322742 13987 net.cpp:406] layer_512_3_relu1 <- layer_512_3_bn1
I0526 09:18:14.322748 13987 net.cpp:367] layer_512_3_relu1 -> layer_512_3_bn1 (in-place)
I0526 09:18:14.322924 13987 net.cpp:122] Setting up layer_512_3_relu1
I0526 09:18:14.322934 13987 net.cpp:129] Top shape: 50 512 7 7 (1254400)
I0526 09:18:14.322949 13987 net.cpp:137] Memory required for data: 3868569800
I0526 09:18:14.322953 13987 layer_factory.hpp:77] Creating layer layer_512_3_conv1
I0526 09:18:14.322964 13987 net.cpp:84] Creating Layer layer_512_3_conv1
I0526 09:18:14.322968 13987 net.cpp:406] layer_512_3_conv1 <- layer_512_3_bn1
I0526 09:18:14.322973 13987 net.cpp:380] layer_512_3_conv1 -> layer_512_3_conv1
I0526 09:18:14.350718 13987 net.cpp:122] Setting up layer_512_3_conv1
I0526 09:18:14.350749 13987 net.cpp:129] Top shape: 50 512 7 7 (1254400)
I0526 09:18:14.350752 13987 net.cpp:137] Memory required for data: 3873587400
I0526 09:18:14.350761 13987 layer_factory.hpp:77] Creating layer layer_512_3_bn2
I0526 09:18:14.350771 13987 net.cpp:84] Creating Layer layer_512_3_bn2
I0526 09:18:14.350777 13987 net.cpp:406] layer_512_3_bn2 <- layer_512_3_conv1
I0526 09:18:14.350797 13987 net.cpp:367] layer_512_3_bn2 -> layer_512_3_conv1 (in-place)
I0526 09:18:14.351013 13987 net.cpp:122] Setting up layer_512_3_bn2
I0526 09:18:14.351022 13987 net.cpp:129] Top shape: 50 512 7 7 (1254400)
I0526 09:18:14.351027 13987 net.cpp:137] Memory required for data: 3878605000
I0526 09:18:14.351033 13987 layer_factory.hpp:77] Creating layer layer_512_3_scale2
I0526 09:18:14.351042 13987 net.cpp:84] Creating Layer layer_512_3_scale2
I0526 09:18:14.351047 13987 net.cpp:406] layer_512_3_scale2 <- layer_512_3_conv1
I0526 09:18:14.351050 13987 net.cpp:367] layer_512_3_scale2 -> layer_512_3_conv1 (in-place)
I0526 09:18:14.351109 13987 layer_factory.hpp:77] Creating layer layer_512_3_scale2
I0526 09:18:14.351261 13987 net.cpp:122] Setting up layer_512_3_scale2
I0526 09:18:14.351270 13987 net.cpp:129] Top shape: 50 512 7 7 (1254400)
I0526 09:18:14.351274 13987 net.cpp:137] Memory required for data: 3883622600
I0526 09:18:14.351279 13987 layer_factory.hpp:77] Creating layer layer_512_3_relu2
I0526 09:18:14.351286 13987 net.cpp:84] Creating Layer layer_512_3_relu2
I0526 09:18:14.351290 13987 net.cpp:406] layer_512_3_relu2 <- layer_512_3_conv1
I0526 09:18:14.351294 13987 net.cpp:367] layer_512_3_relu2 -> layer_512_3_conv1 (in-place)
I0526 09:18:14.351469 13987 net.cpp:122] Setting up layer_512_3_relu2
I0526 09:18:14.351478 13987 net.cpp:129] Top shape: 50 512 7 7 (1254400)
I0526 09:18:14.351481 13987 net.cpp:137] Memory required for data: 3888640200
I0526 09:18:14.351485 13987 layer_factory.hpp:77] Creating layer layer_512_3_conv2
I0526 09:18:14.351495 13987 net.cpp:84] Creating Layer layer_512_3_conv2
I0526 09:18:14.351498 13987 net.cpp:406] layer_512_3_conv2 <- layer_512_3_conv1
I0526 09:18:14.351505 13987 net.cpp:380] layer_512_3_conv2 -> layer_512_3_conv2
I0526 09:18:14.379110 13987 net.cpp:122] Setting up layer_512_3_conv2
I0526 09:18:14.379163 13987 net.cpp:129] Top shape: 50 512 7 7 (1254400)
I0526 09:18:14.379168 13987 net.cpp:137] Memory required for data: 3893657800
I0526 09:18:14.379178 13987 layer_factory.hpp:77] Creating layer layer_512_3_sum
I0526 09:18:14.379189 13987 net.cpp:84] Creating Layer layer_512_3_sum
I0526 09:18:14.379194 13987 net.cpp:406] layer_512_3_sum <- layer_512_3_conv2
I0526 09:18:14.379200 13987 net.cpp:406] layer_512_3_sum <- layer_512_2_sum_layer_512_2_sum_0_split_1
I0526 09:18:14.379205 13987 net.cpp:380] layer_512_3_sum -> layer_512_3_sum
I0526 09:18:14.379251 13987 net.cpp:122] Setting up layer_512_3_sum
I0526 09:18:14.379261 13987 net.cpp:129] Top shape: 50 512 7 7 (1254400)
I0526 09:18:14.379263 13987 net.cpp:137] Memory required for data: 3898675400
I0526 09:18:14.379266 13987 layer_factory.hpp:77] Creating layer last_bn
I0526 09:18:14.379274 13987 net.cpp:84] Creating Layer last_bn
I0526 09:18:14.379279 13987 net.cpp:406] last_bn <- layer_512_3_sum
I0526 09:18:14.379284 13987 net.cpp:367] last_bn -> layer_512_3_sum (in-place)
I0526 09:18:14.379495 13987 net.cpp:122] Setting up last_bn
I0526 09:18:14.379504 13987 net.cpp:129] Top shape: 50 512 7 7 (1254400)
I0526 09:18:14.379508 13987 net.cpp:137] Memory required for data: 3903693000
I0526 09:18:14.379515 13987 layer_factory.hpp:77] Creating layer last_scale
I0526 09:18:14.379521 13987 net.cpp:84] Creating Layer last_scale
I0526 09:18:14.379525 13987 net.cpp:406] last_scale <- layer_512_3_sum
I0526 09:18:14.379530 13987 net.cpp:367] last_scale -> layer_512_3_sum (in-place)
I0526 09:18:14.379586 13987 layer_factory.hpp:77] Creating layer last_scale
I0526 09:18:14.379730 13987 net.cpp:122] Setting up last_scale
I0526 09:18:14.379739 13987 net.cpp:129] Top shape: 50 512 7 7 (1254400)
I0526 09:18:14.379753 13987 net.cpp:137] Memory required for data: 3908710600
I0526 09:18:14.379760 13987 layer_factory.hpp:77] Creating layer last_relu
I0526 09:18:14.379765 13987 net.cpp:84] Creating Layer last_relu
I0526 09:18:14.379768 13987 net.cpp:406] last_relu <- layer_512_3_sum
I0526 09:18:14.379772 13987 net.cpp:367] last_relu -> layer_512_3_sum (in-place)
I0526 09:18:14.379973 13987 net.cpp:122] Setting up last_relu
I0526 09:18:14.379983 13987 net.cpp:129] Top shape: 50 512 7 7 (1254400)
I0526 09:18:14.379987 13987 net.cpp:137] Memory required for data: 3913728200
I0526 09:18:14.379989 13987 layer_factory.hpp:77] Creating layer global_pool
I0526 09:18:14.379997 13987 net.cpp:84] Creating Layer global_pool
I0526 09:18:14.380002 13987 net.cpp:406] global_pool <- layer_512_3_sum
I0526 09:18:14.380007 13987 net.cpp:380] global_pool -> global_pool
I0526 09:18:14.380704 13987 net.cpp:122] Setting up global_pool
I0526 09:18:14.380715 13987 net.cpp:129] Top shape: 50 512 1 1 (25600)
I0526 09:18:14.380719 13987 net.cpp:137] Memory required for data: 3913830600
I0526 09:18:14.380722 13987 layer_factory.hpp:77] Creating layer score
I0526 09:18:14.380729 13987 net.cpp:84] Creating Layer score
I0526 09:18:14.380733 13987 net.cpp:406] score <- global_pool
I0526 09:18:14.380740 13987 net.cpp:380] score -> score
I0526 09:18:14.380901 13987 net.cpp:122] Setting up score
I0526 09:18:14.380910 13987 net.cpp:129] Top shape: 50 8 (400)
I0526 09:18:14.380913 13987 net.cpp:137] Memory required for data: 3913832200
I0526 09:18:14.380918 13987 layer_factory.hpp:77] Creating layer loss
I0526 09:18:14.380924 13987 net.cpp:84] Creating Layer loss
I0526 09:18:14.380928 13987 net.cpp:406] loss <- score
I0526 09:18:14.380931 13987 net.cpp:406] loss <- label
I0526 09:18:14.380939 13987 net.cpp:380] loss -> loss
I0526 09:18:14.380959 13987 layer_factory.hpp:77] Creating layer loss
…
I0526 09:18:14.384271 13987 net.cpp:51] Initializing net from parameters: 
name: "Pre-ResNet-34"
state {
  phase: TEST
}
layer {
  name: "data"
  type: "Data"
  top: "data"
  top: "label"
  include {
    phase: TEST
  }
  transform_param {
    mirror: false
    crop_size: 224
    mean_file: "/home/k/PycharmProjects/AgeGenderDeepLearning-master/Folds/lmdb/Test_fold_is_0/mean.binaryproto"
  }
  data_param {
    source: "/home/k/PycharmProjects/AgeGenderDeepLearning-master/Folds/lmdb/Test_fold_is_0/age_val_lmdb"
    batch_size: 1
    backend: LMDB
  }
}
layer {
  name: "data_bn"
  type: "BatchNorm"
  bottom: "data"
  top: "data_bn"
  param {
    lr_mult: 0
    decay_mult: 0
  }
  param {
    lr_mult: 0
    decay_mult: 0
  }
  param {
    lr_mult: 0
    decay_mult: 0
  }
}
layer {
  name: "data_scale"
  type: "Scale"
  bottom: "data_bn"
  top: "data_bn"
  param {
    lr_mult: 1
    decay_mult: 1
  }
  param {
    lr_mult: 2
    decay_mult: 1
  }
  scale_param {
    bias_term: true
  }
}
layer {
  name: "conv1"
  type: "Convolution"
  bottom: "data_bn"
  top: "conv1"
  param {
    lr_mult: 1
    decay_mult: 1
  }
  param {
    lr_mult: 2
    decay_mult: 1
  }
  convolution_param {
    num_output: 64
    pad: 3
    kernel_size: 7
    stride: 2
    weight_filler {
      type: "msra"
      variance_norm: FAN_OUT
    }
    bias_filler {
      type: "constant"
      value: 0
    }
  }
}
layer {
  name: "conv1_bn"
  type: "BatchNorm"
  bottom: "conv1"
  top: "conv1"
  param {
    lr_mult: 0
    decay_mult: 0
  }
  param {
    lr_mult: 0
    decay_mult: 0
  }
  param {
    lr_mult: 0
    decay_mult: 0
  }
}
layer {
  name: "conv1_scale"
  type: "Scale"
  bottom: "conv1"
  top: "conv1"
  param {
    lr_mult: 1
    decay_mult: 1
  }
  param {
    lr_mult: 2
    decay_mult: 1
  }
  scale_param {
    bias_term: true
  }
}
layer {
  name: "conv1_relu"
  type: "ReLU"
  bottom: "conv1"
  top: "conv1"
}
layer {
  name: "conv1_pool"
  type: "Pooling"
  bottom: "conv1"
  top: "conv1_pool"
  pooling_param {
    kernel_size: 3
    stride: 2
  }
}
layer {
  name: "layer_64_1_conv1"
  type: "Convolution"
  bottom: "conv1_pool"
  top: "layer_64_1_conv1"
  param {
    lr_mult: 1
    decay_mult: 1
  }
  convolution_param {
    num_output: 64
    bias_term: false
    pad: 1
    kernel_size: 3
    stride: 1
    weight_filler {
      type: "msra"
    }
    bias_filler {
      type: "constant"
      value: 0
    }
  }
}
layer {
  name: "layer_64_1_bn2"
  type: "BatchNorm"
  bottom: "layer_64_1_conv1"
  top: "layer_64_1_conv1"
  param {
    lr_mult: 0
    decay_mult: 0
  }
  param {
    lr_mult: 0
    decay_mult: 0
  }
  param {
    lr_mult: 0
    decay_mult: 0
  }
}
layer {
  name: "layer_64_1_scale2"
  type: "Scale"
  bottom: "layer_64_1_conv1"
  top: "layer_64_1_conv1"
  param {
    lr_mult: 1
    decay_mult: 1
  }
  param {
    lr_mult: 2
    decay_mult: 1
  }
  scale_param {
    bias_term: true
  }
}
layer {
  name: "layer_64_1_relu2"
  type: "ReLU"
  bottom: "layer_64_1_conv1"
  top: "layer_64_1_conv1"
}
layer {
  name: "layer_64_1_conv2"
  type: "Convolution"
  bottom: "layer_64_1_conv1"
  top: "layer_64_1_conv2"
  param {
    lr_mult: 1
    decay_mult: 1
  }
  convolution_param {
    num_output: 64
    bias_term: false
    pad: 1
    kernel_size: 3
    stride: 1
    weight_filler {
      type: "msra"
    }
    bias_filler {
      type: "constant"
      value: 0
    }
  }
}
layer {
  name: "layer_64_1_sum"
  type: "Eltwise"
  bottom: "layer_64_1_conv2"
  bottom: "conv1_pool"
  top: "layer_64_1_sum"
}
layer {
  name: "layer_64_2_bn1"
  type: "BatchNorm"
  bottom: "layer_64_1_sum"
  top: "layer_64_2_bn1"
  param {
    lr_mult: 0
    decay_mult: 0
  }
  param {
    lr_mult: 0
    decay_mult: 0
  }
  param {
    lr_mult: 0
    decay_mult: 0
  }
}
layer {
  name: "layer_64_2_scale1"
  type: "Scale"
  bottom: "layer_64_2_bn1"
  top: "layer_64_2_bn1"
  param {
    lr_mult: 1
    decay_mult: 1
  }
  param {
    lr_mult: 2
    decay_mult: 1
  }
  scale_param {
    bias_term: true
  }
}
layer {
  name: "layer_64_2_relu1"
  type: "ReLU"
  bottom: "layer_64_2_bn1"
  top: "layer_64_2_bn1"
}
layer {
  name: "layer_64_2_conv1"
  type: "Convolution"
  bottom: "layer_64_2_bn1"
  top: "layer_64_2_conv1"
  param {
    lr_mult: 1
    decay_mult: 1
  }
  convolution_param {
    num_output: 64
    bias_term: false
    pad: 1
    kernel_size: 3
    stride: 1
    weight_filler {
      type: "msra"
    }
    bias_filler {
      type: "constant"
      value: 0
    }
  }
}
layer {
  name: "layer_64_2_bn2"
  type: "BatchNorm"
  bottom: "layer_64_2_conv1"
  top: "layer_64_2_conv1"
  param {
    lr_mult: 0
    decay_mult: 0
  }
  param {
    lr_mult: 0
    decay_mult: 0
  }
  param {
    lr_mult: 0
    decay_mult: 0
  }
}
layer {
  name: "layer_64_2_scale2"
  type: "Scale"
  bottom: "layer_64_2_conv1"
  top: "layer_64_2_conv1"
  param {
    lr_mult: 1
    decay_mult: 1
  }
  param {
    lr_mult: 2
    decay_mult: 1
  }
  scale_param {
    bias_term: true
  }
}
layer {
  name: "layer_64_2_relu2"
  type: "ReLU"
  bottom: "layer_64_2_conv1"
  top: "layer_64_2_conv1"
}
layer {
  name: "layer_64_2_conv2"
  type: "Convolution"
  bottom: "layer_64_2_conv1"
  top: "layer_64_2_conv2"
  param {
    lr_mult: 1
    decay_mult: 1
  }
  convolution_param {
    num_output: 64
    bias_term: false
    pad: 1
    kernel_size: 3
    stride: 1
    weight_filler {
      type: "msra"
    }
    bias_filler {
      type: "constant"
      value: 0
    }
  }
}
layer {
  name: "layer_64_2_sum"
  type: "Eltwise"
  bottom: "layer_64_2_conv2"
  bottom: "layer_64_1_sum"
  top: "layer_64_2_sum"
}
layer {
  name: "layer_64_3_bn1"
  type: "BatchNorm"
  bottom: "layer_64_2_sum"
  top: "layer_64_3_bn1"
  param {
    lr_mult: 0
    decay_mult: 0
  }
  param {
    lr_mult: 0
    decay_mult: 0
  }
  param {
    lr_mult: 0
    decay_mult: 0
  }
}
layer {
  name: "layer_64_3_scale1"
  type: "Scale"
  bottom: "layer_64_3_bn1"
  top: "layer_64_3_bn1"
  param {
    lr_mult: 1
    decay_mult: 1
  }
  param {
    lr_mult: 2
    decay_mult: 1
  }
  scale_param {
    bias_term: true
  }
}
layer {
  name: "layer_64_3_relu1"
  type: "ReLU"
  bottom: "layer_64_3_bn1"
  top: "layer_64_3_bn1"
}
layer {
  name: "layer_64_3_conv1"
  type: "Convolution"
  bottom: "layer_64_3_bn1"
  top: "layer_64_3_conv1"
  param {
    lr_mult: 1
    decay_mult: 1
  }
  convolution_param {
    num_output: 64
    bias_term: false
    pad: 1
    kernel_size: 3
    stride: 1
    weight_filler {
      type: "msra"
    }
    bias_filler {
      type: "constant"
      value: 0
    }
  }
}
layer {
  name: "layer_64_3_bn2"
  type: "BatchNorm"
  bottom: "layer_64_3_conv1"
  top: "layer_64_3_conv1"
  param {
    lr_mult: 0
    decay_mult: 0
  }
  param {
    lr_mult: 0
    decay_mult: 0
  }
  param {
    lr_mult: 0
    decay_mult: 0
  }
}
layer {
  name: "layer_64_3_scale2"
  type: "Scale"
  bottom: "layer_64_3_conv1"
  top: "layer_64_3_conv1"
  param {
    lr_mult: 1
    decay_mult: 1
  }
  param {
    lr_mult: 2
    decay_mult: 1
  }
  scale_param {
    bias_term: true
  }
}
layer {
  name: "layer_64_3_relu2"
  type: "ReLU"
  bottom: "layer_64_3_conv1"
  top: "layer_64_3_conv1"
}
layer {
  name: "layer_64_3_conv2"
  type: "Convolution"
  bottom: "layer_64_3_conv1"
  top: "layer_64_3_conv2"
  param {
    lr_mult: 1
    decay_mult: 1
  }
  convolution_param {
    num_output: 64
    bias_term: false
    pad: 1
    kernel_size: 3
    stride: 1
    weight_filler {
      type: "msra"
    }
    bias_filler {
      type: "constant"
      value: 0
    }
  }
}
layer {
  name: "layer_64_3_sum"
  type: "Eltwise"
  bottom: "layer_64_3_conv2"
  bottom: "layer_64_2_sum"
  top: "layer_64_3_sum"
}
layer {
  name: "layer_128_1_bn1"
  type: "BatchNorm"
  bottom: "layer_64_3_sum"
  top: "layer_128_1_bn1"
  param {
    lr_mult: 0
    decay_mult: 0
  }
  param {
    lr_mult: 0
    decay_mult: 0
  }
  param {
    lr_mult: 0
    decay_mult: 0
  }
}
layer {
  name: "layer_128_1_scale1"
  type: "Scale"
  bottom: "layer_128_1_bn1"
  top: "layer_128_1_bn1"
  param {
    lr_mult: 1
    decay_mult: 1
  }
  param {
    lr_mult: 2
    decay_mult: 1
  }
  scale_param {
    bias_term: true
  }
}
layer {
  name: "layer_128_1_relu1"
  type: "ReLU"
  bottom: "layer_128_1_bn1"
  top: "layer_128_1_bn1"
}
layer {
  name: "layer_128_1_conv1"
  type: "Convolution"
  bottom: "layer_128_1_bn1"
  top: "layer_128_1_conv1"
  param {
    lr_mult: 1
    decay_mult: 1
  }
  convolution_param {
    num_output: 128
    bias_term: false
    pad: 1
    kernel_size: 3
    stride: 2
    weight_filler {
      type: "msra"
    }
    bias_filler {
      type: "constant"
      value: 0
    }
  }
}
layer {
  name: "layer_128_1_bn2"
  type: "BatchNorm"
  bottom: "layer_128_1_conv1"
  top: "layer_128_1_conv1"
  param {
    lr_mult: 0
    decay_mult: 0
  }
  param {
    lr_mult: 0
    decay_mult: 0
  }
  param {
    lr_mult: 0
    decay_mult: 0
  }
}
layer {
  name: "layer_128_1_scale2"
  type: "Scale"
  bottom: "layer_128_1_conv1"
  top: "layer_128_1_conv1"
  param {
    lr_mult: 1
    decay_mult: 1
  }
  param {
    lr_mult: 2
    decay_mult: 1
  }
  scale_param {
    bias_term: true
  }
}
layer {
  name: "layer_128_1_relu2"
  type: "ReLU"
  bottom: "layer_128_1_conv1"
  top: "layer_128_1_conv1"
}
layer {
  name: "layer_128_1_conv2"
  type: "Convolution"
  bottom: "layer_128_1_conv1"
  top: "layer_128_1_conv2"
  param {
    lr_mult: 1
    decay_mult: 1
  }
  convolution_param {
    num_output: 128
    bias_term: false
    pad: 1
    kernel_size: 3
    stride: 1
    weight_filler {
      type: "msra"
    }
    bias_filler {
      type: "constant"
      value: 0
    }
  }
}
layer {
  name: "layer_128_1_conv_expand"
  type: "Convolution"
  bottom: "layer_128_1_bn1"
  top: "layer_128_1_conv_expand"
  param {
    lr_mult: 1
    decay_mult: 1
  }
  convolution_param {
    num_output: 128
    bias_term: false
    pad: 0
    kernel_size: 1
    stride: 2
    weight_filler {
      type: "msra"
    }
    bias_filler {
      type: "constant"
      value: 0
    }
  }
}
layer {
  name: "layer_128_1_sum"
  type: "Eltwise"
  bottom: "layer_128_1_conv_expand"
  bottom: "layer_128_1_conv2"
  top: "layer_128_1_sum"
}
layer {
  name: "layer_128_2_bn1"
  type: "BatchNorm"
  bottom: "layer_128_1_sum"
  top: "layer_128_2_bn1"
  param {
    lr_mult: 0
    decay_mult: 0
  }
  param {
    lr_mult: 0
    decay_mult: 0
  }
  param {
    lr_mult: 0
    decay_mult: 0
  }
}
layer {
  name: "layer_128_2_scale1"
  type: "Scale"
  bottom: "layer_128_2_bn1"
  top: "layer_128_2_bn1"
  param {
    lr_mult: 1
    decay_mult: 1
  }
  param {
    lr_mult: 2
    decay_mult: 1
  }
  scale_param {
    bias_term: true
  }
}
layer {
  name: "layer_128_2_relu1"
  type: "ReLU"
  bottom: "layer_128_2_bn1"
  top: "layer_128_2_bn1"
}
layer {
  name: "layer_128_2_conv1"
  type: "Convolution"
  bottom: "layer_128_2_bn1"
  top: "layer_128_2_conv1"
  param {
    lr_mult: 1
    decay_mult: 1
  }
  convolution_param {
    num_output: 128
    bias_term: false
    pad: 1
    kernel_size: 3
    stride: 1
    weight_filler {
      type: "msra"
    }
    bias_filler {
      type: "constant"
      value: 0
    }
  }
}
layer {
  name: "layer_128_2_bn2"
  type: "BatchNorm"
  bottom: "layer_128_2_conv1"
  top: "layer_128_2_conv1"
  param {
    lr_mult: 0
    decay_mult: 0
  }
  param {
    lr_mult: 0
    decay_mult: 0
  }
  param {
    lr_mult: 0
    decay_mult: 0
  }
}
layer {
  name: "layer_128_2_scale2"
  type: "Scale"
  bottom: "layer_128_2_conv1"
  top: "layer_128_2_conv1"
  param {
    lr_mult: 1
    decay_mult: 1
  }
  param {
    lr_mult: 2
    decay_mult: 1
  }
  scale_param {
    bias_term: true
  }
}
layer {
  name: "layer_128_2_relu2"
  type: "ReLU"
  bottom: "layer_128_2_conv1"
  top: "layer_128_2_conv1"
}
layer {
  name: "layer_128_2_conv2"
  type: "Convolution"
  bottom: "layer_128_2_conv1"
  top: "layer_128_2_conv2"
  param {
    lr_mult: 1
    decay_mult: 1
  }
  convolution_param {
    num_output: 128
    bias_term: false
    pad: 1
    kernel_size: 3
    stride: 1
    weight_filler {
      type: "msra"
    }
    bias_filler {
      type: "constant"
      value: 0
    }
  }
}
layer {
  name: "layer_128_2_sum"
  type: "Eltwise"
  bottom: "layer_128_2_conv2"
  bottom: "layer_128_1_sum"
  top: "layer_128_2_sum"
}
layer {
  name: "layer_128_3_bn1"
  type: "BatchNorm"
  bottom: "layer_128_2_sum"
  top: "layer_128_3_bn1"
  param {
    lr_mult: 0
    decay_mult: 0
  }
  param {
    lr_mult: 0
    decay_mult: 0
  }
  param {
    lr_mult: 0
    decay_mult: 0
  }
}
layer {
  name: "layer_128_3_scale1"
  type: "Scale"
  bottom: "layer_128_3_bn1"
  top: "layer_128_3_bn1"
  param {
    lr_mult: 1
    decay_mult: 1
  }
  param {
    lr_mult: 2
    decay_mult: 1
  }
  scale_param {
    bias_term: true
  }
}
layer {
  name: "layer_128_3_relu1"
  type: "ReLU"
  bottom: "layer_128_3_bn1"
  top: "layer_128_3_bn1"
}
layer {
  name: "layer_128_3_conv1"
  type: "Convolution"
  bottom: "layer_128_3_bn1"
  top: "layer_128_3_conv1"
  param {
    lr_mult: 1
    decay_mult: 1
  }
  convolution_param {
    num_output: 128
    bias_term: false
    pad: 1
    kernel_size: 3
    stride: 1
    weight_filler {
      type: "msra"
    }
    bias_filler {
      type: "constant"
      value: 0
    }
  }
}
layer {
  name: "layer_128_3_bn2"
  type: "BatchNorm"
  bottom: "layer_128_3_conv1"
  top: "layer_128_3_conv1"
  param {
    lr_mult: 0
    decay_mult: 0
  }
  param {
    lr_mult: 0
    decay_mult: 0
  }
  param {
    lr_mult: 0
    decay_mult: 0
  }
}
layer {
  name: "layer_128_3_scale2"
  type: "Scale"
  bottom: "layer_128_3_conv1"
  top: "layer_128_3_conv1"
  param {
    lr_mult: 1
    decay_mult: 1
  }
  param {
    lr_mult: 2
    decay_mult: 1
  }
  scale_param {
    bias_term: true
  }
}
layer {
  name: "layer_128_3_relu2"
  type: "ReLU"
  bottom: "layer_128_3_conv1"
  top: "layer_128_3_conv1"
}
layer {
  name: "layer_128_3_conv2"
  type: "Convolution"
  bottom: "layer_128_3_conv1"
  top: "layer_128_3_conv2"
  param {
    lr_mult: 1
    decay_mult: 1
  }
  convolution_param {
    num_output: 128
    bias_term: false
    pad: 1
    kernel_size: 3
    stride: 1
    weight_filler {
      type: "msra"
    }
    bias_filler {
      type: "constant"
      value: 0
    }
  }
}
layer {
  name: "layer_128_3_sum"
  type: "Eltwise"
  bottom: "layer_128_3_conv2"
  bottom: "layer_128_2_sum"
  top: "layer_128_3_sum"
}
layer {
  name: "layer_128_4_bn1"
  type: "BatchNorm"
  bottom: "layer_128_3_sum"
  top: "layer_128_4_bn1"
  param {
    lr_mult: 0
    decay_mult: 0
  }
  param {
    lr_mult: 0
    decay_mult: 0
  }
  param {
    lr_mult: 0
    decay_mult: 0
  }
}
layer {
  name: "layer_128_4_scale1"
  type: "Scale"
  bottom: "layer_128_4_bn1"
  top: "layer_128_4_bn1"
  param {
    lr_mult: 1
    decay_mult: 1
  }
  param {
    lr_mult: 2
    decay_mult: 1
  }
  scale_param {
    bias_term: true
  }
}
layer {
  name: "layer_128_4_relu1"
  type: "ReLU"
  bottom: "layer_128_4_bn1"
  top: "layer_128_4_bn1"
}
layer {
  name: "layer_128_4_conv1"
  type: "Convolution"
  bottom: "layer_128_4_bn1"
  top: "layer_128_4_conv1"
  param {
    lr_mult: 1
    decay_mult: 1
  }
  convolution_param {
    num_output: 128
    bias_term: false
    pad: 1
    kernel_size: 3
    stride: 1
    weight_filler {
      type: "msra"
    }
    bias_filler {
      type: "constant"
      value: 0
    }
  }
}
layer {
  name: "layer_128_4_bn2"
  type: "BatchNorm"
  bottom: "layer_128_4_conv1"
  top: "layer_128_4_conv1"
  param {
    lr_mult: 0
    decay_mult: 0
  }
  param {
    lr_mult: 0
    decay_mult: 0
  }
  param {
    lr_mult: 0
    decay_mult: 0
  }
}
layer {
  name: "layer_128_4_scale2"
  type: "Scale"
  bottom: "layer_128_4_conv1"
  top: "layer_128_4_conv1"
  param {
    lr_mult: 1
    decay_mult: 1
  }
  param {
    lr_mult: 2
    decay_mult: 1
  }
  scale_param {
    bias_term: true
  }
}
layer {
  name: "layer_128_4_relu2"
  type: "ReLU"
  bottom: "layer_128_4_conv1"
  top: "layer_128_4_conv1"
}
layer {
  name: "layer_128_4_conv2"
  type: "Convolution"
  bottom: "layer_128_4_conv1"
  top: "layer_128_4_conv2"
  param {
    lr_mult: 1
    decay_mult: 1
  }
  convolution_param {
    num_output: 128
    bias_term: false
    pad: 1
    kernel_size: 3
    stride: 1
    weight_filler {
      type: "msra"
    }
    bias_filler {
…
I0526 09:18:14.465957 13987 net.cpp:129] Top shape: 1 256 14 14 (50176)
I0526 09:18:14.465960 13987 net.cpp:137] Memory required for data: 63823884
I0526 09:18:14.465967 13987 layer_factory.hpp:77] Creating layer layer_256_2_relu1
I0526 09:18:14.465973 13987 net.cpp:84] Creating Layer layer_256_2_relu1
I0526 09:18:14.465977 13987 net.cpp:406] layer_256_2_relu1 <- layer_256_2_bn1
I0526 09:18:14.465983 13987 net.cpp:367] layer_256_2_relu1 -> layer_256_2_bn1 (in-place)
I0526 09:18:14.466666 13987 net.cpp:122] Setting up layer_256_2_relu1
I0526 09:18:14.466677 13987 net.cpp:129] Top shape: 1 256 14 14 (50176)
I0526 09:18:14.466681 13987 net.cpp:137] Memory required for data: 64024588
I0526 09:18:14.466686 13987 layer_factory.hpp:77] Creating layer layer_256_2_conv1
I0526 09:18:14.466696 13987 net.cpp:84] Creating Layer layer_256_2_conv1
I0526 09:18:14.466701 13987 net.cpp:406] layer_256_2_conv1 <- layer_256_2_bn1
I0526 09:18:14.466707 13987 net.cpp:380] layer_256_2_conv1 -> layer_256_2_conv1
I0526 09:18:14.475800 13987 net.cpp:122] Setting up layer_256_2_conv1
I0526 09:18:14.475822 13987 net.cpp:129] Top shape: 1 256 14 14 (50176)
I0526 09:18:14.475826 13987 net.cpp:137] Memory required for data: 64225292
I0526 09:18:14.475833 13987 layer_factory.hpp:77] Creating layer layer_256_2_bn2
I0526 09:18:14.475843 13987 net.cpp:84] Creating Layer layer_256_2_bn2
I0526 09:18:14.475849 13987 net.cpp:406] layer_256_2_bn2 <- layer_256_2_conv1
I0526 09:18:14.475859 13987 net.cpp:367] layer_256_2_bn2 -> layer_256_2_conv1 (in-place)
I0526 09:18:14.476121 13987 net.cpp:122] Setting up layer_256_2_bn2
I0526 09:18:14.476131 13987 net.cpp:129] Top shape: 1 256 14 14 (50176)
I0526 09:18:14.476135 13987 net.cpp:137] Memory required for data: 64425996
I0526 09:18:14.476143 13987 layer_factory.hpp:77] Creating layer layer_256_2_scale2
I0526 09:18:14.476153 13987 net.cpp:84] Creating Layer layer_256_2_scale2
I0526 09:18:14.476158 13987 net.cpp:406] layer_256_2_scale2 <- layer_256_2_conv1
I0526 09:18:14.476163 13987 net.cpp:367] layer_256_2_scale2 -> layer_256_2_conv1 (in-place)
I0526 09:18:14.476213 13987 layer_factory.hpp:77] Creating layer layer_256_2_scale2
I0526 09:18:14.476341 13987 net.cpp:122] Setting up layer_256_2_scale2
I0526 09:18:14.476351 13987 net.cpp:129] Top shape: 1 256 14 14 (50176)
I0526 09:18:14.476354 13987 net.cpp:137] Memory required for data: 64626700
I0526 09:18:14.476361 13987 layer_factory.hpp:77] Creating layer layer_256_2_relu2
I0526 09:18:14.476367 13987 net.cpp:84] Creating Layer layer_256_2_relu2
I0526 09:18:14.476372 13987 net.cpp:406] layer_256_2_relu2 <- layer_256_2_conv1
I0526 09:18:14.476390 13987 net.cpp:367] layer_256_2_relu2 -> layer_256_2_conv1 (in-place)
I0526 09:18:14.476563 13987 net.cpp:122] Setting up layer_256_2_relu2
I0526 09:18:14.476572 13987 net.cpp:129] Top shape: 1 256 14 14 (50176)
I0526 09:18:14.476577 13987 net.cpp:137] Memory required for data: 64827404
I0526 09:18:14.476580 13987 layer_factory.hpp:77] Creating layer layer_256_2_conv2
I0526 09:18:14.476591 13987 net.cpp:84] Creating Layer layer_256_2_conv2
I0526 09:18:14.476596 13987 net.cpp:406] layer_256_2_conv2 <- layer_256_2_conv1
I0526 09:18:14.476603 13987 net.cpp:380] layer_256_2_conv2 -> layer_256_2_conv2
I0526 09:18:14.485000 13987 net.cpp:122] Setting up layer_256_2_conv2
I0526 09:18:14.485013 13987 net.cpp:129] Top shape: 1 256 14 14 (50176)
I0526 09:18:14.485018 13987 net.cpp:137] Memory required for data: 65028108
I0526 09:18:14.485023 13987 layer_factory.hpp:77] Creating layer layer_256_2_sum
I0526 09:18:14.485030 13987 net.cpp:84] Creating Layer layer_256_2_sum
I0526 09:18:14.485035 13987 net.cpp:406] layer_256_2_sum <- layer_256_2_conv2
I0526 09:18:14.485040 13987 net.cpp:406] layer_256_2_sum <- layer_256_1_sum_layer_256_1_sum_0_split_1
I0526 09:18:14.485047 13987 net.cpp:380] layer_256_2_sum -> layer_256_2_sum
I0526 09:18:14.485081 13987 net.cpp:122] Setting up layer_256_2_sum
I0526 09:18:14.485090 13987 net.cpp:129] Top shape: 1 256 14 14 (50176)
I0526 09:18:14.485093 13987 net.cpp:137] Memory required for data: 65228812
I0526 09:18:14.485097 13987 layer_factory.hpp:77] Creating layer layer_256_2_sum_layer_256_2_sum_0_split
I0526 09:18:14.485105 13987 net.cpp:84] Creating Layer layer_256_2_sum_layer_256_2_sum_0_split
I0526 09:18:14.485110 13987 net.cpp:406] layer_256_2_sum_layer_256_2_sum_0_split <- layer_256_2_sum
I0526 09:18:14.485116 13987 net.cpp:380] layer_256_2_sum_layer_256_2_sum_0_split -> layer_256_2_sum_layer_256_2_sum_0_split_0
I0526 09:18:14.485122 13987 net.cpp:380] layer_256_2_sum_layer_256_2_sum_0_split -> layer_256_2_sum_layer_256_2_sum_0_split_1
I0526 09:18:14.485167 13987 net.cpp:122] Setting up layer_256_2_sum_layer_256_2_sum_0_split
I0526 09:18:14.485175 13987 net.cpp:129] Top shape: 1 256 14 14 (50176)
I0526 09:18:14.485180 13987 net.cpp:129] Top shape: 1 256 14 14 (50176)
I0526 09:18:14.485183 13987 net.cpp:137] Memory required for data: 65630220
I0526 09:18:14.485188 13987 layer_factory.hpp:77] Creating layer layer_256_3_bn1
I0526 09:18:14.485193 13987 net.cpp:84] Creating Layer layer_256_3_bn1
I0526 09:18:14.485198 13987 net.cpp:406] layer_256_3_bn1 <- layer_256_2_sum_layer_256_2_sum_0_split_0
I0526 09:18:14.485204 13987 net.cpp:380] layer_256_3_bn1 -> layer_256_3_bn1
I0526 09:18:14.485433 13987 net.cpp:122] Setting up layer_256_3_bn1
I0526 09:18:14.485442 13987 net.cpp:129] Top shape: 1 256 14 14 (50176)
I0526 09:18:14.485446 13987 net.cpp:137] Memory required for data: 65830924
I0526 09:18:14.485453 13987 layer_factory.hpp:77] Creating layer layer_256_3_scale1
I0526 09:18:14.485461 13987 net.cpp:84] Creating Layer layer_256_3_scale1
I0526 09:18:14.485466 13987 net.cpp:406] layer_256_3_scale1 <- layer_256_3_bn1
I0526 09:18:14.485471 13987 net.cpp:367] layer_256_3_scale1 -> layer_256_3_bn1 (in-place)
I0526 09:18:14.485518 13987 layer_factory.hpp:77] Creating layer layer_256_3_scale1
I0526 09:18:14.485649 13987 net.cpp:122] Setting up layer_256_3_scale1
I0526 09:18:14.485658 13987 net.cpp:129] Top shape: 1 256 14 14 (50176)
I0526 09:18:14.485662 13987 net.cpp:137] Memory required for data: 66031628
I0526 09:18:14.485668 13987 layer_factory.hpp:77] Creating layer layer_256_3_relu1
I0526 09:18:14.485674 13987 net.cpp:84] Creating Layer layer_256_3_relu1
I0526 09:18:14.485678 13987 net.cpp:406] layer_256_3_relu1 <- layer_256_3_bn1
I0526 09:18:14.485684 13987 net.cpp:367] layer_256_3_relu1 -> layer_256_3_bn1 (in-place)
I0526 09:18:14.485852 13987 net.cpp:122] Setting up layer_256_3_relu1
I0526 09:18:14.485862 13987 net.cpp:129] Top shape: 1 256 14 14 (50176)
I0526 09:18:14.485867 13987 net.cpp:137] Memory required for data: 66232332
I0526 09:18:14.485879 13987 layer_factory.hpp:77] Creating layer layer_256_3_conv1
I0526 09:18:14.485890 13987 net.cpp:84] Creating Layer layer_256_3_conv1
I0526 09:18:14.485895 13987 net.cpp:406] layer_256_3_conv1 <- layer_256_3_bn1
I0526 09:18:14.485901 13987 net.cpp:380] layer_256_3_conv1 -> layer_256_3_conv1
I0526 09:18:14.494276 13987 net.cpp:122] Setting up layer_256_3_conv1
I0526 09:18:14.494292 13987 net.cpp:129] Top shape: 1 256 14 14 (50176)
I0526 09:18:14.494297 13987 net.cpp:137] Memory required for data: 66433036
I0526 09:18:14.494302 13987 layer_factory.hpp:77] Creating layer layer_256_3_bn2
I0526 09:18:14.494309 13987 net.cpp:84] Creating Layer layer_256_3_bn2
I0526 09:18:14.494314 13987 net.cpp:406] layer_256_3_bn2 <- layer_256_3_conv1
I0526 09:18:14.494321 13987 net.cpp:367] layer_256_3_bn2 -> layer_256_3_conv1 (in-place)
I0526 09:18:14.494540 13987 net.cpp:122] Setting up layer_256_3_bn2
I0526 09:18:14.494549 13987 net.cpp:129] Top shape: 1 256 14 14 (50176)
I0526 09:18:14.494554 13987 net.cpp:137] Memory required for data: 66633740
I0526 09:18:14.494560 13987 layer_factory.hpp:77] Creating layer layer_256_3_scale2
I0526 09:18:14.494570 13987 net.cpp:84] Creating Layer layer_256_3_scale2
I0526 09:18:14.494573 13987 net.cpp:406] layer_256_3_scale2 <- layer_256_3_conv1
I0526 09:18:14.494578 13987 net.cpp:367] layer_256_3_scale2 -> layer_256_3_conv1 (in-place)
I0526 09:18:14.494626 13987 layer_factory.hpp:77] Creating layer layer_256_3_scale2
I0526 09:18:14.494755 13987 net.cpp:122] Setting up layer_256_3_scale2
I0526 09:18:14.494765 13987 net.cpp:129] Top shape: 1 256 14 14 (50176)
I0526 09:18:14.494768 13987 net.cpp:137] Memory required for data: 66834444
I0526 09:18:14.494774 13987 layer_factory.hpp:77] Creating layer layer_256_3_relu2
I0526 09:18:14.494781 13987 net.cpp:84] Creating Layer layer_256_3_relu2
I0526 09:18:14.494786 13987 net.cpp:406] layer_256_3_relu2 <- layer_256_3_conv1
I0526 09:18:14.494791 13987 net.cpp:367] layer_256_3_relu2 -> layer_256_3_conv1 (in-place)
I0526 09:18:14.494961 13987 net.cpp:122] Setting up layer_256_3_relu2
I0526 09:18:14.494969 13987 net.cpp:129] Top shape: 1 256 14 14 (50176)
I0526 09:18:14.494973 13987 net.cpp:137] Memory required for data: 67035148
I0526 09:18:14.494977 13987 layer_factory.hpp:77] Creating layer layer_256_3_conv2
I0526 09:18:14.494987 13987 net.cpp:84] Creating Layer layer_256_3_conv2
I0526 09:18:14.494992 13987 net.cpp:406] layer_256_3_conv2 <- layer_256_3_conv1
I0526 09:18:14.494999 13987 net.cpp:380] layer_256_3_conv2 -> layer_256_3_conv2
I0526 09:18:14.503377 13987 net.cpp:122] Setting up layer_256_3_conv2
I0526 09:18:14.503393 13987 net.cpp:129] Top shape: 1 256 14 14 (50176)
I0526 09:18:14.503398 13987 net.cpp:137] Memory required for data: 67235852
I0526 09:18:14.503418 13987 layer_factory.hpp:77] Creating layer layer_256_3_sum
I0526 09:18:14.503427 13987 net.cpp:84] Creating Layer layer_256_3_sum
I0526 09:18:14.503432 13987 net.cpp:406] layer_256_3_sum <- layer_256_3_conv2
I0526 09:18:14.503437 13987 net.cpp:406] layer_256_3_sum <- layer_256_2_sum_layer_256_2_sum_0_split_1
I0526 09:18:14.503443 13987 net.cpp:380] layer_256_3_sum -> layer_256_3_sum
I0526 09:18:14.503479 13987 net.cpp:122] Setting up layer_256_3_sum
I0526 09:18:14.503486 13987 net.cpp:129] Top shape: 1 256 14 14 (50176)
I0526 09:18:14.503490 13987 net.cpp:137] Memory required for data: 67436556
I0526 09:18:14.503494 13987 layer_factory.hpp:77] Creating layer layer_256_3_sum_layer_256_3_sum_0_split
I0526 09:18:14.503499 13987 net.cpp:84] Creating Layer layer_256_3_sum_layer_256_3_sum_0_split
I0526 09:18:14.503504 13987 net.cpp:406] layer_256_3_sum_layer_256_3_sum_0_split <- layer_256_3_sum
I0526 09:18:14.503509 13987 net.cpp:380] layer_256_3_sum_layer_256_3_sum_0_split -> layer_256_3_sum_layer_256_3_sum_0_split_0
I0526 09:18:14.503518 13987 net.cpp:380] layer_256_3_sum_layer_256_3_sum_0_split -> layer_256_3_sum_layer_256_3_sum_0_split_1
I0526 09:18:14.503563 13987 net.cpp:122] Setting up layer_256_3_sum_layer_256_3_sum_0_split
I0526 09:18:14.503572 13987 net.cpp:129] Top shape: 1 256 14 14 (50176)
I0526 09:18:14.503587 13987 net.cpp:129] Top shape: 1 256 14 14 (50176)
I0526 09:18:14.503592 13987 net.cpp:137] Memory required for data: 67837964
I0526 09:18:14.503595 13987 layer_factory.hpp:77] Creating layer layer_256_4_bn1
I0526 09:18:14.503603 13987 net.cpp:84] Creating Layer layer_256_4_bn1
I0526 09:18:14.503607 13987 net.cpp:406] layer_256_4_bn1 <- layer_256_3_sum_layer_256_3_sum_0_split_0
I0526 09:18:14.503614 13987 net.cpp:380] layer_256_4_bn1 -> layer_256_4_bn1
I0526 09:18:14.503840 13987 net.cpp:122] Setting up layer_256_4_bn1
I0526 09:18:14.503849 13987 net.cpp:129] Top shape: 1 256 14 14 (50176)
I0526 09:18:14.503854 13987 net.cpp:137] Memory required for data: 68038668
I0526 09:18:14.503861 13987 layer_factory.hpp:77] Creating layer layer_256_4_scale1
I0526 09:18:14.503867 13987 net.cpp:84] Creating Layer layer_256_4_scale1
I0526 09:18:14.503872 13987 net.cpp:406] layer_256_4_scale1 <- layer_256_4_bn1
I0526 09:18:14.503876 13987 net.cpp:367] layer_256_4_scale1 -> layer_256_4_bn1 (in-place)
I0526 09:18:14.503927 13987 layer_factory.hpp:77] Creating layer layer_256_4_scale1
I0526 09:18:14.504063 13987 net.cpp:122] Setting up layer_256_4_scale1
I0526 09:18:14.504073 13987 net.cpp:129] Top shape: 1 256 14 14 (50176)
I0526 09:18:14.504076 13987 net.cpp:137] Memory required for data: 68239372
I0526 09:18:14.504081 13987 layer_factory.hpp:77] Creating layer layer_256_4_relu1
I0526 09:18:14.504089 13987 net.cpp:84] Creating Layer layer_256_4_relu1
I0526 09:18:14.504094 13987 net.cpp:406] layer_256_4_relu1 <- layer_256_4_bn1
I0526 09:18:14.504098 13987 net.cpp:367] layer_256_4_relu1 -> layer_256_4_bn1 (in-place)
I0526 09:18:14.504325 13987 net.cpp:122] Setting up layer_256_4_relu1
I0526 09:18:14.504335 13987 net.cpp:129] Top shape: 1 256 14 14 (50176)
I0526 09:18:14.504339 13987 net.cpp:137] Memory required for data: 68440076
I0526 09:18:14.504343 13987 layer_factory.hpp:77] Creating layer layer_256_4_conv1
I0526 09:18:14.504351 13987 net.cpp:84] Creating Layer layer_256_4_conv1
I0526 09:18:14.504355 13987 net.cpp:406] layer_256_4_conv1 <- layer_256_4_bn1
I0526 09:18:14.504361 13987 net.cpp:380] layer_256_4_conv1 -> layer_256_4_conv1
I0526 09:18:14.513389 13987 net.cpp:122] Setting up layer_256_4_conv1
I0526 09:18:14.513407 13987 net.cpp:129] Top shape: 1 256 14 14 (50176)
I0526 09:18:14.513411 13987 net.cpp:137] Memory required for data: 68640780
I0526 09:18:14.513430 13987 layer_factory.hpp:77] Creating layer layer_256_4_bn2
I0526 09:18:14.513439 13987 net.cpp:84] Creating Layer layer_256_4_bn2
I0526 09:18:14.513445 13987 net.cpp:406] layer_256_4_bn2 <- layer_256_4_conv1
I0526 09:18:14.513456 13987 net.cpp:367] layer_256_4_bn2 -> layer_256_4_conv1 (in-place)
I0526 09:18:14.513695 13987 net.cpp:122] Setting up layer_256_4_bn2
I0526 09:18:14.513705 13987 net.cpp:129] Top shape: 1 256 14 14 (50176)
I0526 09:18:14.513707 13987 net.cpp:137] Memory required for data: 68841484
I0526 09:18:14.513726 13987 layer_factory.hpp:77] Creating layer layer_256_4_scale2
I0526 09:18:14.513734 13987 net.cpp:84] Creating Layer layer_256_4_scale2
I0526 09:18:14.513739 13987 net.cpp:406] layer_256_4_scale2 <- layer_256_4_conv1
I0526 09:18:14.513746 13987 net.cpp:367] layer_256_4_scale2 -> layer_256_4_conv1 (in-place)
I0526 09:18:14.513797 13987 layer_factory.hpp:77] Creating layer layer_256_4_scale2
I0526 09:18:14.513953 13987 net.cpp:122] Setting up layer_256_4_scale2
I0526 09:18:14.513973 13987 net.cpp:129] Top shape: 1 256 14 14 (50176)
I0526 09:18:14.513978 13987 net.cpp:137] Memory required for data: 69042188
I0526 09:18:14.513983 13987 layer_factory.hpp:77] Creating layer layer_256_4_relu2
I0526 09:18:14.513989 13987 net.cpp:84] Creating Layer layer_256_4_relu2
I0526 09:18:14.513994 13987 net.cpp:406] layer_256_4_relu2 <- layer_256_4_conv1
I0526 09:18:14.513998 13987 net.cpp:367] layer_256_4_relu2 -> layer_256_4_conv1 (in-place)
I0526 09:18:14.514192 13987 net.cpp:122] Setting up layer_256_4_relu2
I0526 09:18:14.514202 13987 net.cpp:129] Top shape: 1 256 14 14 (50176)
I0526 09:18:14.514216 13987 net.cpp:137] Memory required for data: 69242892
I0526 09:18:14.514231 13987 layer_factory.hpp:77] Creating layer layer_256_4_conv2
I0526 09:18:14.514242 13987 net.cpp:84] Creating Layer layer_256_4_conv2
I0526 09:18:14.514247 13987 net.cpp:406] layer_256_4_conv2 <- layer_256_4_conv1
I0526 09:18:14.514255 13987 net.cpp:380] layer_256_4_conv2 -> layer_256_4_conv2
I0526 09:18:14.522713 13987 net.cpp:122] Setting up layer_256_4_conv2
I0526 09:18:14.522727 13987 net.cpp:129] Top shape: 1 256 14 14 (50176)
I0526 09:18:14.522730 13987 net.cpp:137] Memory required for data: 69443596
I0526 09:18:14.522737 13987 layer_factory.hpp:77] Creating layer layer_256_4_sum
I0526 09:18:14.522745 13987 net.cpp:84] Creating Layer layer_256_4_sum
I0526 09:18:14.522750 13987 net.cpp:406] layer_256_4_sum <- layer_256_4_conv2
I0526 09:18:14.522754 13987 net.cpp:406] layer_256_4_sum <- layer_256_3_sum_layer_256_3_sum_0_split_1
I0526 09:18:14.522761 13987 net.cpp:380] layer_256_4_sum -> layer_256_4_sum
I0526 09:18:14.522797 13987 net.cpp:122] Setting up layer_256_4_sum
I0526 09:18:14.522805 13987 net.cpp:129] Top shape: 1 256 14 14 (50176)
I0526 09:18:14.522809 13987 net.cpp:137] Memory required for data: 69644300
I0526 09:18:14.522812 13987 layer_factory.hpp:77] Creating layer layer_256_4_sum_layer_256_4_sum_0_split
I0526 09:18:14.522819 13987 net.cpp:84] Creating Layer layer_256_4_sum_layer_256_4_sum_0_split
I0526 09:18:14.522822 13987 net.cpp:406] layer_256_4_sum_layer_256_4_sum_0_split <- layer_256_4_sum
I0526 09:18:14.522830 13987 net.cpp:380] layer_256_4_sum_layer_256_4_sum_0_split -> layer_256_4_sum_layer_256_4_sum_0_split_0
I0526 09:18:14.522837 13987 net.cpp:380] layer_256_4_sum_layer_256_4_sum_0_split -> layer_256_4_sum_layer_256_4_sum_0_split_1
I0526 09:18:14.522883 13987 net.cpp:122] Setting up layer_256_4_sum_layer_256_4_sum_0_split
I0526 09:18:14.522891 13987 net.cpp:129] Top shape: 1 256 14 14 (50176)
I0526 09:18:14.522897 13987 net.cpp:129] Top shape: 1 256 14 14 (50176)
I0526 09:18:14.522898 13987 net.cpp:137] Memory required for data: 70045708
I0526 09:18:14.522902 13987 layer_factory.hpp:77] Creating layer layer_256_5_bn1
I0526 09:18:14.522909 13987 net.cpp:84] Creating Layer layer_256_5_bn1
I0526 09:18:14.522913 13987 net.cpp:406] layer_256_5_bn1 <- layer_256_4_sum_layer_256_4_sum_0_split_0
I0526 09:18:14.522918 13987 net.cpp:380] layer_256_5_bn1 -> layer_256_5_bn1
I0526 09:18:14.523149 13987 net.cpp:122] Setting up layer_256_5_bn1
I0526 09:18:14.523157 13987 net.cpp:129] Top shape: 1 256 14 14 (50176)
I0526 09:18:14.523161 13987 net.cpp:137] Memory required for data: 70246412
I0526 09:18:14.523169 13987 layer_factory.hpp:77] Creating layer layer_256_5_scale1
I0526 09:18:14.523175 13987 net.cpp:84] Creating Layer layer_256_5_scale1
I0526 09:18:14.523180 13987 net.cpp:406] layer_256_5_scale1 <- layer_256_5_bn1
I0526 09:18:14.523186 13987 net.cpp:367] layer_256_5_scale1 -> layer_256_5_bn1 (in-place)
I0526 09:18:14.523236 13987 layer_factory.hpp:77] Creating layer layer_256_5_scale1
I0526 09:18:14.523368 13987 net.cpp:122] Setting up layer_256_5_scale1
I0526 09:18:14.523377 13987 net.cpp:129] Top shape: 1 256 14 14 (50176)
I0526 09:18:14.523380 13987 net.cpp:137] Memory required for data: 70447116
I0526 09:18:14.523386 13987 layer_factory.hpp:77] Creating layer layer_256_5_relu1
I0526 09:18:14.523393 13987 net.cpp:84] Creating Layer layer_256_5_relu1
I0526 09:18:14.523397 13987 net.cpp:406] layer_256_5_relu1 <- layer_256_5_bn1
I0526 09:18:14.523401 13987 net.cpp:367] layer_256_5_relu1 -> layer_256_5_bn1 (in-place)
I0526 09:18:14.524111 13987 net.cpp:122] Setting up layer_256_5_relu1
I0526 09:18:14.524122 13987 net.cpp:129] Top shape: 1 256 14 14 (50176)
I0526 09:18:14.524127 13987 net.cpp:137] Memory required for data: 70647820
I0526 09:18:14.524130 13987 layer_factory.hpp:77] Creating layer layer_256_5_conv1
I0526 09:18:14.524139 13987 net.cpp:84] Creating Layer layer_256_5_conv1
I0526 09:18:14.524144 13987 net.cpp:406] layer_256_5_conv1 <- layer_256_5_bn1
I0526 09:18:14.524152 13987 net.cpp:380] layer_256_5_conv1 -> layer_256_5_conv1
I0526 09:18:14.532608 13987 net.cpp:122] Setting up layer_256_5_conv1
I0526 09:18:14.532622 13987 net.cpp:129] Top shape: 1 256 14 14 (50176)
I0526 09:18:14.532627 13987 net.cpp:137] Memory required for data: 70848524
I0526 09:18:14.532634 13987 layer_factory.hpp:77] Creating layer layer_256_5_bn2
I0526 09:18:14.532642 13987 net.cpp:84] Creating Layer layer_256_5_bn2
I0526 09:18:14.532647 13987 net.cpp:406] layer_256_5_bn2 <- layer_256_5_conv1
I0526 09:18:14.532654 13987 net.cpp:367] layer_256_5_bn2 -> layer_256_5_conv1 (in-place)
I0526 09:18:14.532881 13987 net.cpp:122] Setting up layer_256_5_bn2
I0526 09:18:14.532888 13987 net.cpp:129] Top shape: 1 256 14 14 (50176)
I0526 09:18:14.532892 13987 net.cpp:137] Memory required for data: 71049228
I0526 09:18:14.532901 13987 layer_factory.hpp:77] Creating layer layer_256_5_scale2
I0526 09:18:14.532907 13987 net.cpp:84] Creating Layer layer_256_5_scale2
I0526 09:18:14.532912 13987 net.cpp:406] layer_256_5_scale2 <- layer_256_5_conv1
I0526 09:18:14.532917 13987 net.cpp:367] layer_256_5_scale2 -> layer_256_5_conv1 (in-place)
I0526 09:18:14.532968 13987 layer_factory.hpp:77] Creating layer layer_256_5_scale2
I0526 09:18:14.533099 13987 net.cpp:122] Setting up layer_256_5_scale2
I0526 09:18:14.533108 13987 net.cpp:129] Top shape: 1 256 14 14 (50176)
I0526 09:18:14.533113 13987 net.cpp:137] Memory required for data: 71249932
I0526 09:18:14.533118 13987 layer_factory.hpp:77] Creating layer layer_256_5_relu2
I0526 09:18:14.533124 13987 net.cpp:84] Creating Layer layer_256_5_relu2
I0526 09:18:14.533129 13987 net.cpp:406] layer_256_5_relu2 <- layer_256_5_conv1
I0526 09:18:14.533135 13987 net.cpp:367] layer_256_5_relu2 -> layer_256_5_conv1 (in-place)
I0526 09:18:14.533308 13987 net.cpp:122] Setting up layer_256_5_relu2
I0526 09:18:14.533316 13987 net.cpp:129] Top shape: 1 256 14 14 (50176)
I0526 09:18:14.533320 13987 net.cpp:137] Memory required for data: 71450636
I0526 09:18:14.533324 13987 layer_factory.hpp:77] Creating layer layer_256_5_conv2
I0526 09:18:14.533335 13987 net.cpp:84] Creating Layer layer_256_5_conv2
I0526 09:18:14.533340 13987 net.cpp:406] layer_256_5_conv2 <- layer_256_5_conv1
I0526 09:18:14.533346 13987 net.cpp:380] layer_256_5_conv2 -> layer_256_5_conv2
I0526 09:18:14.542263 13987 net.cpp:122] Setting up layer_256_5_conv2
I0526 09:18:14.542284 13987 net.cpp:129] Top shape: 1 256 14 14 (50176)
I0526 09:18:14.542287 13987 net.cpp:137] Memory required for data: 71651340
I0526 09:18:14.542294 13987 layer_factory.hpp:77] Creating layer layer_256_5_sum
I0526 09:18:14.542302 13987 net.cpp:84] Creating Layer layer_256_5_sum
I0526 09:18:14.542309 13987 net.cpp:406] layer_256_5_sum <- layer_256_5_conv2
I0526 09:18:14.542315 13987 net.cpp:406] layer_256_5_sum <- layer_256_4_sum_layer_256_4_sum_0_split_1
I0526 09:18:14.542321 13987 net.cpp:380] layer_256_5_sum -> layer_256_5_sum
I0526 09:18:14.542359 13987 net.cpp:122] Setting up layer_256_5_sum
I0526 09:18:14.542368 13987 net.cpp:129] Top shape: 1 256 14 14 (50176)
I0526 09:18:14.542372 13987 net.cpp:137] Memory required for data: 71852044
I0526 09:18:14.542376 13987 layer_factory.hpp:77] Creating layer layer_256_5_sum_layer_256_5_sum_0_split
I0526 09:18:14.542404 13987 net.cpp:84] Creating Layer layer_256_5_sum_layer_256_5_sum_0_split
I0526 09:18:14.542409 13987 net.cpp:406] layer_256_5_sum_layer_256_5_sum_0_split <- layer_256_5_sum
I0526 09:18:14.542414 13987 net.cpp:380] layer_256_5_sum_layer_256_5_sum_0_split -> layer_256_5_sum_layer_256_5_sum_0_split_0
I0526 09:18:14.542423 13987 net.cpp:380] layer_256_5_sum_layer_256_5_sum_0_split -> layer_256_5_sum_layer_256_5_sum_0_split_1
I0526 09:18:14.542466 13987 net.cpp:122] Setting up layer_256_5_sum_layer_256_5_sum_0_split
I0526 09:18:14.542474 13987 net.cpp:129] Top shape: 1 256 14 14 (50176)
I0526 09:18:14.542479 13987 net.cpp:129] Top shape: 1 256 14 14 (50176)
I0526 09:18:14.542484 13987 net.cpp:137] Memory required for data: 72253452
I0526 09:18:14.542487 13987 layer_factory.hpp:77] Creating layer layer_256_6_bn1
I0526 09:18:14.542495 13987 net.cpp:84] Creating Layer layer_256_6_bn1
I0526 09:18:14.542512 13987 net.cpp:406] layer_256_6_bn1 <- layer_256_5_sum_layer_256_5_sum_0_split_0
I0526 09:18:14.542520 13987 net.cpp:380] layer_256_6_bn1 -> layer_256_6_bn1
I0526 09:18:14.542786 13987 net.cpp:122] Setting up layer_256_6_bn1
I0526 09:18:14.542796 13987 net.cpp:129] Top shape: 1 256 14 14 (50176)
I0526 09:18:14.542801 13987 net.cpp:137] Memory required for data: 72454156
I0526 09:18:14.542814 13987 layer_factory.hpp:77] Creating layer layer_256_6_scale1
I0526 09:18:14.542826 13987 net.cpp:84] Creating Layer layer_256_6_scale1
I0526 09:18:14.542834 13987 net.cpp:406] layer_256_6_scale1 <- layer_256_6_bn1
I0526 09:18:14.542846 13987 net.cpp:367] layer_256_6_scale1 -> layer_256_6_bn1 (in-place)
I0526 09:18:14.542906 13987 layer_factory.hpp:77] Creating layer layer_256_6_scale1
I0526 09:18:14.543042 13987 net.cpp:122] Setting up layer_256_6_scale1
I0526 09:18:14.543051 13987 net.cpp:129] Top shape: 1 256 14 14 (50176)
I0526 09:18:14.543056 13987 net.cpp:137] Memory required for data: 72654860
I0526 09:18:14.543061 13987 layer_factory.hpp:77] Creating layer layer_256_6_relu1
I0526 09:18:14.543067 13987 net.cpp:84] Creating Layer layer_256_6_relu1
I0526 09:18:14.543071 13987 net.cpp:406] layer_256_6_relu1 <- layer_256_6_bn1
I0526 09:18:14.543077 13987 net.cpp:367] layer_256_6_relu1 -> layer_256_6_bn1 (in-place)
I0526 09:18:14.543253 13987 net.cpp:122] Setting up layer_256_6_relu1
I0526 09:18:14.543263 13987 net.cpp:129] Top shape: 1 256 14 14 (50176)
I0526 09:18:14.543267 13987 net.cpp:137] Memory required for data: 72855564
I0526 09:18:14.543270 13987 layer_factory.hpp:77] Creating layer layer_256_6_conv1
I0526 09:18:14.543282 13987 net.cpp:84] Creating Layer layer_256_6_conv1
I0526 09:18:14.543287 13987 net.cpp:406] layer_256_6_conv1 <- layer_256_6_bn1
I0526 09:18:14.543292 13987 net.cpp:380] layer_256_6_conv1 -> layer_256_6_conv1
I0526 09:18:14.552475 13987 net.cpp:122] Setting up layer_256_6_conv1
I0526 09:18:14.552491 13987 net.cpp:129] Top shape: 1 256 14 14 (50176)
I0526 09:18:14.552495 13987 net.cpp:137] Memory required for data: 73056268
I0526 09:18:14.552500 13987 layer_factory.hpp:77] Creating layer layer_256_6_bn2
I0526 09:18:14.552508 13987 net.cpp:84] Creating Layer layer_256_6_bn2
I0526 09:18:14.552513 13987 net.cpp:406] layer_256_6_bn2 <- layer_256_6_conv1
I0526 09:18:14.552520 13987 net.cpp:367] layer_256_6_bn2 -> layer_256_6_conv1 (in-place)
I0526 09:18:14.552753 13987 net.cpp:122] Setting up layer_256_6_bn2
I0526 09:18:14.552763 13987 net.cpp:129] Top shape: 1 256 14 14 (50176)
I0526 09:18:14.552767 13987 net.cpp:137] Memory required for data: 73256972
I0526 09:18:14.552774 13987 layer_factory.hpp:77] Creating layer layer_256_6_scale2
I0526 09:18:14.552781 13987 net.cpp:84] Creating Layer layer_256_6_scale2
I0526 09:18:14.552785 13987 net.cpp:406] layer_256_6_scale2 <- layer_256_6_conv1
I0526 09:18:14.552790 13987 net.cpp:367] layer_256_6_scale2 -> layer_256_6_conv1 (in-place)
I0526 09:18:14.552841 13987 layer_factory.hpp:77] Creating layer layer_256_6_scale2
I0526 09:18:14.552976 13987 net.cpp:122] Setting up layer_256_6_scale2
I0526 09:18:14.552985 13987 net.cpp:129] Top shape: 1 256 14 14 (50176)
I0526 09:18:14.552989 13987 net.cpp:137] Memory required for data: 73457676
I0526 09:18:14.552995 13987 layer_factory.hpp:77] Creating layer layer_256_6_relu2
I0526 09:18:14.553001 13987 net.cpp:84] Creating Layer layer_256_6_relu2
I0526 09:18:14.553005 13987 net.cpp:406] layer_256_6_relu2 <- layer_256_6_conv1
I0526 09:18:14.553011 13987 net.cpp:367] layer_256_6_relu2 -> layer_256_6_conv1 (in-place)
I0526 09:18:14.553185 13987 net.cpp:122] Setting up layer_256_6_relu2
I0526 09:18:14.553196 13987 net.cpp:129] Top shape: 1 256 14 14 (50176)
I0526 09:18:14.553200 13987 net.cpp:137] Memory required for data: 73658380
I0526 09:18:14.553205 13987 layer_factory.hpp:77] Creating layer layer_256_6_conv2
I0526 09:18:14.553215 13987 net.cpp:84] Creating Layer layer_256_6_conv2
I0526 09:18:14.553220 13987 net.cpp:406] layer_256_6_conv2 <- layer_256_6_conv1
I0526 09:18:14.553225 13987 net.cpp:380] layer_256_6_conv2 -> layer_256_6_conv2
I0526 09:18:14.561684 13987 net.cpp:122] Setting up layer_256_6_conv2
I0526 09:18:14.561699 13987 net.cpp:129] Top shape: 1 256 14 14 (50176)
I0526 09:18:14.561703 13987 net.cpp:137] Memory required for data: 73859084
I0526 09:18:14.561708 13987 layer_factory.hpp:77] Creating layer layer_256_6_sum
I0526 09:18:14.561717 13987 net.cpp:84] Creating Layer layer_256_6_sum
I0526 09:18:14.561720 13987 net.cpp:406] layer_256_6_sum <- layer_256_6_conv2
I0526 09:18:14.561727 13987 net.cpp:406] layer_256_6_sum <- layer_256_5_sum_layer_256_5_sum_0_split_1
I0526 09:18:14.561733 13987 net.cpp:380] layer_256_6_sum -> layer_256_6_sum
I0526 09:18:14.561769 13987 net.cpp:122] Setting up layer_256_6_sum
I0526 09:18:14.561780 13987 net.cpp:129] Top shape: 1 256 14 14 (50176)
I0526 09:18:14.561784 13987 net.cpp:137] Memory required for data: 74059788
I0526 09:18:14.561787 13987 layer_factory.hpp:77] Creating layer layer_512_1_bn1
I0526 09:18:14.561792 13987 net.cpp:84] Creating Layer layer_512_1_bn1
I0526 09:18:14.561796 13987 net.cpp:406] layer_512_1_bn1 <- layer_256_6_sum
I0526 09:18:14.561805 13987 net.cpp:380] layer_512_1_bn1 -> layer_512_1_bn1
I0526 09:18:14.562052 13987 net.cpp:122] Setting up layer_512_1_bn1
I0526 09:18:14.562060 13987 net.cpp:129] Top shape: 1 256 14 14 (50176)
I0526 09:18:14.562063 13987 net.cpp:137] Memory required for data: 74260492
I0526 09:18:14.562070 13987 layer_factory.hpp:77] Creating layer layer_512_1_scale1
I0526 09:18:14.562078 13987 net.cpp:84] Creating Layer layer_512_1_scale1
I0526 09:18:14.562083 13987 net.cpp:406] layer_512_1_scale1 <- layer_512_1_bn1
I0526 09:18:14.562088 13987 net.cpp:367] layer_512_1_scale1 -> layer_512_1_bn1 (in-place)
I0526 09:18:14.562136 13987 layer_factory.hpp:77] Creating layer layer_512_1_scale1
I0526 09:18:14.562273 13987 net.cpp:122] Setting up layer_512_1_scale1
I0526 09:18:14.562281 13987 net.cpp:129] Top shape: 1 256 14 14 (50176)
I0526 09:18:14.562284 13987 net.cpp:137] Memory required for data: 74461196
I0526 09:18:14.562289 13987 layer_factory.hpp:77] Creating layer layer_512_1_relu1
I0526 09:18:14.562295 13987 net.cpp:84] Creating Layer layer_512_1_relu1
I0526 09:18:14.562299 13987 net.cpp:406] layer_512_1_relu1 <- layer_512_1_bn1
I0526 09:18:14.562304 13987 net.cpp:367] layer_512_1_relu1 -> layer_512_1_bn1 (in-place)
I0526 09:18:14.562472 13987 net.cpp:122] Setting up layer_512_1_relu1
I0526 09:18:14.562484 13987 net.cpp:129] Top shape: 1 256 14 14 (50176)
I0526 09:18:14.562486 13987 net.cpp:137] Memory required for data: 74661900
I0526 09:18:14.562489 13987 layer_factory.hpp:77] Creating layer layer_512_1_bn1_layer_512_1_relu1_0_split
I0526 09:18:14.562496 13987 net.cpp:84] Creating Layer layer_512_1_bn1_layer_512_1_relu1_0_split
I0526 09:18:14.562500 13987 net.cpp:406] layer_512_1_bn1_layer_512_1_relu1_0_split <- layer_512_1_bn1
I0526 09:18:14.562506 13987 net.cpp:380] layer_512_1_bn1_layer_512_1_relu1_0_split -> layer_512_1_bn1_layer_512_1_relu1_0_split_0
I0526 09:18:14.562513 13987 net.cpp:380] layer_512_1_bn1_layer_512_1_relu1_0_split -> layer_512_1_bn1_layer_512_1_relu1_0_split_1
I0526 09:18:14.562564 13987 net.cpp:122] Setting up layer_512_1_bn1_layer_512_1_relu1_0_split
I0526 09:18:14.562574 13987 net.cpp:129] Top shape: 1 256 14 14 (50176)
I0526 09:18:14.562580 13987 net.cpp:129] Top shape: 1 256 14 14 (50176)
I0526 09:18:14.562583 13987 net.cpp:137] Memory required for data: 75063308
I0526 09:18:14.562587 13987 layer_factory.hpp:77] Creating layer layer_512_1_conv1
I0526 09:18:14.562595 13987 net.cpp:84] Creating Layer layer_512_1_conv1
I0526 09:18:14.562600 13987 net.cpp:406] layer_512_1_conv1 <- layer_512_1_bn1_layer_512_1_relu1_0_split_0
I0526 09:18:14.562607 13987 net.cpp:380] layer_512_1_conv1 -> layer_512_1_conv1
I0526 09:18:14.577627 13987 net.cpp:122] Setting up layer_512_1_conv1
I0526 09:18:14.577656 13987 net.cpp:129] Top shape: 1 512 7 7 (25088)
I0526 09:18:14.577659 13987 net.cpp:137] Memory required for data: 75163660
I0526 09:18:14.577667 13987 layer_factory.hpp:77] Creating layer layer_512_1_bn2
I0526 09:18:14.577695 13987 net.cpp:84] Creating Layer layer_512_1_bn2
I0526 09:18:14.577703 13987 net.cpp:406] layer_512_1_bn2 <- layer_512_1_conv1
I0526 09:18:14.577710 13987 net.cpp:367] layer_512_1_bn2 -> layer_512_1_conv1 (in-place)
I0526 09:18:14.577980 13987 net.cpp:122] Setting up layer_512_1_bn2
I0526 09:18:14.577992 13987 net.cpp:129] Top shape: 1 512 7 7 (25088)
I0526 09:18:14.577999 13987 net.cpp:137] Memory required for data: 75264012
I0526 09:18:14.578012 13987 layer_factory.hpp:77] Creating layer layer_512_1_scale2
I0526 09:18:14.578022 13987 net.cpp:84] Creating Layer layer_512_1_scale2
I0526 09:18:14.578027 13987 net.cpp:406] layer_512_1_scale2 <- layer_512_1_conv1
I0526 09:18:14.578032 13987 net.cpp:367] layer_512_1_scale2 -> layer_512_1_conv1 (in-place)
I0526 09:18:14.578100 13987 layer_factory.hpp:77] Creating layer layer_512_1_scale2
I0526 09:18:14.578249 13987 net.cpp:122] Setting up layer_512_1_scale2
I0526 09:18:14.578258 13987 net.cpp:129] Top shape: 1 512 7 7 (25088)
I0526 09:18:14.578261 13987 net.cpp:137] Memory required for data: 75364364
I0526 09:18:14.578268 13987 layer_factory.hpp:77] Creating layer layer_512_1_relu2
I0526 09:18:14.578275 13987 net.cpp:84] Creating Layer layer_512_1_relu2
I0526 09:18:14.578279 13987 net.cpp:406] layer_512_1_relu2 <- layer_512_1_conv1
I0526 09:18:14.578284 13987 net.cpp:367] layer_512_1_relu2 -> layer_512_1_conv1 (in-place)
I0526 09:18:14.578452 13987 net.cpp:122] Setting up layer_512_1_relu2
I0526 09:18:14.578462 13987 net.cpp:129] Top shape: 1 512 7 7 (25088)
I0526 09:18:14.578466 13987 net.cpp:137] Memory required for data: 75464716
I0526 09:18:14.578470 13987 layer_factory.hpp:77] Creating layer layer_512_1_conv2
I0526 09:18:14.578482 13987 net.cpp:84] Creating Layer layer_512_1_conv2
I0526 09:18:14.578486 13987 net.cpp:406] layer_512_1_conv2 <- layer_512_1_conv1
I0526 09:18:14.578493 13987 net.cpp:380] layer_512_1_conv2 -> layer_512_1_conv2
I0526 09:18:14.607033 13987 net.cpp:122] Setting up layer_512_1_conv2
I0526 09:18:14.607064 13987 net.cpp:129] Top shape: 1 512 7 7 (25088)
I0526 09:18:14.607067 13987 net.cpp:137] Memory required for data: 75565068
I0526 09:18:14.607077 13987 layer_factory.hpp:77] Creating layer layer_512_1_conv_expand
I0526 09:18:14.607092 13987 net.cpp:84] Creating Layer layer_512_1_conv_expand
I0526 09:18:14.607101 13987 net.cpp:406] layer_512_1_conv_expand <- layer_512_1_bn1_layer_512_1_relu1_0_split_1
I0526 09:18:14.607111 13987 net.cpp:380] layer_512_1_conv_expand -> layer_512_1_conv_expand
I0526 09:18:14.610265 13987 net.cpp:122] Setting up layer_512_1_conv_expand
I0526 09:18:14.610277 13987 net.cpp:129] Top shape: 1 512 7 7 (25088)
I0526 09:18:14.610292 13987 net.cpp:137] Memory required for data: 75665420
I0526 09:18:14.610298 13987 layer_factory.hpp:77] Creating layer layer_512_1_sum
I0526 09:18:14.610306 13987 net.cpp:84] Creating Layer layer_512_1_sum
I0526 09:18:14.610309 13987 net.cpp:406] layer_512_1_sum <- layer_512_1_conv_expand
I0526 09:18:14.610314 13987 net.cpp:406] layer_512_1_sum <- layer_512_1_conv2
I0526 09:18:14.610321 13987 net.cpp:380] layer_512_1_sum -> layer_512_1_sum
I0526 09:18:14.610354 13987 net.cpp:122] Setting up layer_512_1_sum
I0526 09:18:14.610364 13987 net.cpp:129] Top shape: 1 512 7 7 (25088)
I0526 09:18:14.610368 13987 net.cpp:137] Memory required for data: 75765772
I0526 09:18:14.610371 13987 layer_factory.hpp:77] Creating layer layer_512_1_sum_layer_512_1_sum_0_split
I0526 09:18:14.610378 13987 net.cpp:84] Creating Layer layer_512_1_sum_layer_512_1_sum_0_split
I0526 09:18:14.610380 13987 net.cpp:406] layer_512_1_sum_layer_512_1_sum_0_split <- layer_512_1_sum
I0526 09:18:14.610385 13987 net.cpp:380] layer_512_1_sum_layer_512_1_sum_0_split -> layer_512_1_sum_layer_512_1_sum_0_split_0
I0526 09:18:14.610394 13987 net.cpp:380] layer_512_1_sum_layer_512_1_sum_0_split -> layer_512_1_sum_layer_512_1_sum_0_split_1
I0526 09:18:14.610442 13987 net.cpp:122] Setting up layer_512_1_sum_layer_512_1_sum_0_split
I0526 09:18:14.610461 13987 net.cpp:129] Top shape: 1 512 7 7 (25088)
I0526 09:18:14.610466 13987 net.cpp:129] Top shape: 1 512 7 7 (25088)
I0526 09:18:14.610486 13987 net.cpp:137] Memory required for data: 75966476
I0526 09:18:14.610489 13987 layer_factory.hpp:77] Creating layer layer_512_2_bn1
I0526 09:18:14.610497 13987 net.cpp:84] Creating Layer layer_512_2_bn1
I0526 09:18:14.610502 13987 net.cpp:406] layer_512_2_bn1 <- layer_512_1_sum_layer_512_1_sum_0_split_0
I0526 09:18:14.610507 13987 net.cpp:380] layer_512_2_bn1 -> layer_512_2_bn1
I0526 09:18:14.610862 13987 net.cpp:122] Setting up layer_512_2_bn1
I0526 09:18:14.610872 13987 net.cpp:129] Top shape: 1 512 7 7 (25088)
I0526 09:18:14.610877 13987 net.cpp:137] Memory required for data: 76066828
I0526 09:18:14.610883 13987 layer_factory.hpp:77] Creating layer layer_512_2_scale1
I0526 09:18:14.610891 13987 net.cpp:84] Creating Layer layer_512_2_scale1
I0526 09:18:14.610895 13987 net.cpp:406] layer_512_2_scale1 <- layer_512_2_bn1
I0526 09:18:14.610900 13987 net.cpp:367] layer_512_2_scale1 -> layer_512_2_bn1 (in-place)
I0526 09:18:14.610951 13987 layer_factory.hpp:77] Creating layer layer_512_2_scale1
I0526 09:18:14.611099 13987 net.cpp:122] Setting up layer_512_2_scale1
I0526 09:18:14.611107 13987 net.cpp:129] Top shape: 1 512 7 7 (25088)
I0526 09:18:14.611110 13987 net.cpp:137] Memory required for data: 76167180
I0526 09:18:14.611116 13987 layer_factory.hpp:77] Creating layer layer_512_2_relu1
I0526 09:18:14.611124 13987 net.cpp:84] Creating Layer layer_512_2_relu1
I0526 09:18:14.611129 13987 net.cpp:406] layer_512_2_relu1 <- layer_512_2_bn1
I0526 09:18:14.611133 13987 net.cpp:367] layer_512_2_relu1 -> layer_512_2_bn1 (in-place)
I0526 09:18:14.611893 13987 net.cpp:122] Setting up layer_512_2_relu1
I0526 09:18:14.611907 13987 net.cpp:129] Top shape: 1 512 7 7 (25088)
I0526 09:18:14.611912 13987 net.cpp:137] Memory required for data: 76267532
I0526 09:18:14.611915 13987 layer_factory.hpp:77] Creating layer layer_512_2_conv1
I0526 09:18:14.611925 13987 net.cpp:84] Creating Layer layer_512_2_conv1
I0526 09:18:14.611930 13987 net.cpp:406] layer_512_2_conv1 <- layer_512_2_bn1
I0526 09:18:14.611937 13987 net.cpp:380] layer_512_2_conv1 -> layer_512_2_conv1
I0526 09:18:14.639142 13987 net.cpp:122] Setting up layer_512_2_conv1
I0526 09:18:14.639170 13987 net.cpp:129] Top shape: 1 512 7 7 (25088)
I0526 09:18:14.639174 13987 net.cpp:137] Memory required for data: 76367884
I0526 09:18:14.639183 13987 layer_factory.hpp:77] Creating layer layer_512_2_bn2
I0526 09:18:14.639194 13987 net.cpp:84] Creating Layer layer_512_2_bn2
I0526 09:18:14.639200 13987 net.cpp:406] layer_512_2_bn2 <- layer_512_2_conv1
I0526 09:18:14.639220 13987 net.cpp:367] layer_512_2_bn2 -> layer_512_2_conv1 (in-place)
I0526 09:18:14.639489 13987 net.cpp:122] Setting up layer_512_2_bn2
I0526 09:18:14.639498 13987 net.cpp:129] Top shape: 1 512 7 7 (25088)
I0526 09:18:14.639502 13987 net.cpp:137] Memory required for data: 76468236
I0526 09:18:14.639509 13987 layer_factory.hpp:77] Creating layer layer_512_2_scale2
I0526 09:18:14.639516 13987 net.cpp:84] Creating Layer layer_512_2_scale2
I0526 09:18:14.639520 13987 net.cpp:406] layer_512_2_scale2 <- layer_512_2_conv1
I0526 09:18:14.639539 13987 net.cpp:367] layer_512_2_scale2 -> layer_512_2_conv1 (in-place)
I0526 09:18:14.639601 13987 layer_factory.hpp:77] Creating layer layer_512_2_scale2
I0526 09:18:14.639775 13987 net.cpp:122] Setting up layer_512_2_scale2
I0526 09:18:14.639783 13987 net.cpp:129] Top shape: 1 512 7 7 (25088)
I0526 09:18:14.639786 13987 net.cpp:137] Memory required for data: 76568588
I0526 09:18:14.639802 13987 layer_factory.hpp:77] Creating layer layer_512_2_relu2
I0526 09:18:14.639811 13987 net.cpp:84] Creating Layer layer_512_2_relu2
I0526 09:18:14.639814 13987 net.cpp:406] layer_512_2_relu2 <- layer_512_2_conv1
I0526 09:18:14.639820 13987 net.cpp:367] layer_512_2_relu2 -> layer_512_2_conv1 (in-place)
I0526 09:18:14.640554 13987 net.cpp:122] Setting up layer_512_2_relu2
I0526 09:18:14.640568 13987 net.cpp:129] Top shape: 1 512 7 7 (25088)
I0526 09:18:14.640570 13987 net.cpp:137] Memory required for data: 76668940
I0526 09:18:14.640574 13987 layer_factory.hpp:77] Creating layer layer_512_2_conv2
I0526 09:18:14.640611 13987 net.cpp:84] Creating Layer layer_512_2_conv2
I0526 09:18:14.640617 13987 net.cpp:406] layer_512_2_conv2 <- layer_512_2_conv1
I0526 09:18:14.640625 13987 net.cpp:380] layer_512_2_conv2 -> layer_512_2_conv2
I0526 09:18:14.668939 13987 net.cpp:122] Setting up layer_512_2_conv2
I0526 09:18:14.668968 13987 net.cpp:129] Top shape: 1 512 7 7 (25088)
I0526 09:18:14.668972 13987 net.cpp:137] Memory required for data: 76769292
I0526 09:18:14.668980 13987 layer_factory.hpp:77] Creating layer layer_512_2_sum
I0526 09:18:14.668990 13987 net.cpp:84] Creating Layer layer_512_2_sum
I0526 09:18:14.668997 13987 net.cpp:406] layer_512_2_sum <- layer_512_2_conv2
I0526 09:18:14.669015 13987 net.cpp:406] layer_512_2_sum <- layer_512_1_sum_layer_512_1_sum_0_split_1
I0526 09:18:14.669023 13987 net.cpp:380] layer_512_2_sum -> layer_512_2_sum
I0526 09:18:14.669064 13987 net.cpp:122] Setting up layer_512_2_sum
I0526 09:18:14.669072 13987 net.cpp:129] Top shape: 1 512 7 7 (25088)
I0526 09:18:14.669087 13987 net.cpp:137] Memory required for data: 76869644
I0526 09:18:14.669090 13987 layer_factory.hpp:77] Creating layer layer_512_2_sum_layer_512_2_sum_0_split
I0526 09:18:14.669097 13987 net.cpp:84] Creating Layer layer_512_2_sum_layer_512_2_sum_0_split
I0526 09:18:14.669101 13987 net.cpp:406] layer_512_2_sum_layer_512_2_sum_0_split <- layer_512_2_sum
I0526 09:18:14.669106 13987 net.cpp:380] layer_512_2_sum_layer_512_2_sum_0_split -> layer_512_2_sum_layer_512_2_sum_0_split_0
I0526 09:18:14.669112 13987 net.cpp:380] layer_512_2_sum_layer_512_2_sum_0_split -> layer_512_2_sum_layer_512_2_sum_0_split_1
I0526 09:18:14.669174 13987 net.cpp:122] Setting up layer_512_2_sum_layer_512_2_sum_0_split
I0526 09:18:14.669183 13987 net.cpp:129] Top shape: 1 512 7 7 (25088)
I0526 09:18:14.669188 13987 net.cpp:129] Top shape: 1 512 7 7 (25088)
I0526 09:18:14.669190 13987 net.cpp:137] Memory required for data: 77070348
I0526 09:18:14.669193 13987 layer_factory.hpp:77] Creating layer layer_512_3_bn1
I0526 09:18:14.669201 13987 net.cpp:84] Creating Layer layer_512_3_bn1
I0526 09:18:14.669205 13987 net.cpp:406] layer_512_3_bn1 <- layer_512_2_sum_layer_512_2_sum_0_split_0
I0526 09:18:14.669211 13987 net.cpp:380] layer_512_3_bn1 -> layer_512_3_bn1
I0526 09:18:14.669483 13987 net.cpp:122] Setting up layer_512_3_bn1
I0526 09:18:14.669492 13987 net.cpp:129] Top shape: 1 512 7 7 (25088)
I0526 09:18:14.669495 13987 net.cpp:137] Memory required for data: 77170700
I0526 09:18:14.669502 13987 layer_factory.hpp:77] Creating layer layer_512_3_scale1
I0526 09:18:14.669509 13987 net.cpp:84] Creating Layer layer_512_3_scale1
I0526 09:18:14.669513 13987 net.cpp:406] layer_512_3_scale1 <- layer_512_3_bn1
I0526 09:18:14.669517 13987 net.cpp:367] layer_512_3_scale1 -> layer_512_3_bn1 (in-place)
I0526 09:18:14.669580 13987 layer_factory.hpp:77] Creating layer layer_512_3_scale1
I0526 09:18:14.669767 13987 net.cpp:122] Setting up layer_512_3_scale1
I0526 09:18:14.669775 13987 net.cpp:129] Top shape: 1 512 7 7 (25088)
I0526 09:18:14.669778 13987 net.cpp:137] Memory required for data: 77271052
I0526 09:18:14.669785 13987 layer_factory.hpp:77] Creating layer layer_512_3_relu1
I0526 09:18:14.669803 13987 net.cpp:84] Creating Layer layer_512_3_relu1
I0526 09:18:14.669808 13987 net.cpp:406] layer_512_3_relu1 <- layer_512_3_bn1
I0526 09:18:14.669814 13987 net.cpp:367] layer_512_3_relu1 -> layer_512_3_bn1 (in-place)
I0526 09:18:14.670001 13987 net.cpp:122] Setting up layer_512_3_relu1
I0526 09:18:14.670011 13987 net.cpp:129] Top shape: 1 512 7 7 (25088)
I0526 09:18:14.670014 13987 net.cpp:137] Memory required for data: 77371404
I0526 09:18:14.670017 13987 layer_factory.hpp:77] Creating layer layer_512_3_conv1
I0526 09:18:14.670027 13987 net.cpp:84] Creating Layer layer_512_3_conv1
I0526 09:18:14.670032 13987 net.cpp:406] layer_512_3_conv1 <- layer_512_3_bn1
I0526 09:18:14.670037 13987 net.cpp:380] layer_512_3_conv1 -> layer_512_3_conv1
I0526 09:18:14.698401 13987 net.cpp:122] Setting up layer_512_3_conv1
I0526 09:18:14.698451 13987 net.cpp:129] Top shape: 1 512 7 7 (25088)
I0526 09:18:14.698457 13987 net.cpp:137] Memory required for data: 77471756
I0526 09:18:14.698465 13987 layer_factory.hpp:77] Creating layer layer_512_3_bn2
I0526 09:18:14.698477 13987 net.cpp:84] Creating Layer layer_512_3_bn2
I0526 09:18:14.698483 13987 net.cpp:406] layer_512_3_bn2 <- layer_512_3_conv1
I0526 09:18:14.698501 13987 net.cpp:367] layer_512_3_bn2 -> layer_512_3_conv1 (in-place)
I0526 09:18:14.698784 13987 net.cpp:122] Setting up layer_512_3_bn2
I0526 09:18:14.698793 13987 net.cpp:129] Top shape: 1 512 7 7 (25088)
I0526 09:18:14.698796 13987 net.cpp:137] Memory required for data: 77572108
I0526 09:18:14.698804 13987 layer_factory.hpp:77] Creating layer layer_512_3_scale2
I0526 09:18:14.698812 13987 net.cpp:84] Creating Layer layer_512_3_scale2
I0526 09:18:14.698815 13987 net.cpp:406] layer_512_3_scale2 <- layer_512_3_conv1
I0526 09:18:14.698822 13987 net.cpp:367] layer_512_3_scale2 -> layer_512_3_conv1 (in-place)
I0526 09:18:14.698884 13987 layer_factory.hpp:77] Creating layer layer_512_3_scale2
I0526 09:18:14.699071 13987 net.cpp:122] Setting up layer_512_3_scale2
I0526 09:18:14.699080 13987 net.cpp:129] Top shape: 1 512 7 7 (25088)
I0526 09:18:14.699084 13987 net.cpp:137] Memory required for data: 77672460
I0526 09:18:14.699089 13987 layer_factory.hpp:77] Creating layer layer_512_3_relu2
I0526 09:18:14.699095 13987 net.cpp:84] Creating Layer layer_512_3_relu2
I0526 09:18:14.699098 13987 net.cpp:406] layer_512_3_relu2 <- layer_512_3_conv1
I0526 09:18:14.699105 13987 net.cpp:367] layer_512_3_relu2 -> layer_512_3_conv1 (in-place)
I0526 09:18:14.699303 13987 net.cpp:122] Setting up layer_512_3_relu2
I0526 09:18:14.699313 13987 net.cpp:129] Top shape: 1 512 7 7 (25088)
I0526 09:18:14.699316 13987 net.cpp:137] Memory required for data: 77772812
I0526 09:18:14.699319 13987 layer_factory.hpp:77] Creating layer layer_512_3_conv2
I0526 09:18:14.699331 13987 net.cpp:84] Creating Layer layer_512_3_conv2
I0526 09:18:14.699347 13987 net.cpp:406] layer_512_3_conv2 <- layer_512_3_conv1
I0526 09:18:14.699353 13987 net.cpp:380] layer_512_3_conv2 -> layer_512_3_conv2
I0526 09:18:14.727779 13987 net.cpp:122] Setting up layer_512_3_conv2
I0526 09:18:14.727807 13987 net.cpp:129] Top shape: 1 512 7 7 (25088)
I0526 09:18:14.727811 13987 net.cpp:137] Memory required for data: 77873164
I0526 09:18:14.727820 13987 layer_factory.hpp:77] Creating layer layer_512_3_sum
I0526 09:18:14.727831 13987 net.cpp:84] Creating Layer layer_512_3_sum
I0526 09:18:14.727838 13987 net.cpp:406] layer_512_3_sum <- layer_512_3_conv2
I0526 09:18:14.727856 13987 net.cpp:406] layer_512_3_sum <- layer_512_2_sum_layer_512_2_sum_0_split_1
I0526 09:18:14.727864 13987 net.cpp:380] layer_512_3_sum -> layer_512_3_sum
I0526 09:18:14.727905 13987 net.cpp:122] Setting up layer_512_3_sum
I0526 09:18:14.727913 13987 net.cpp:129] Top shape: 1 512 7 7 (25088)
I0526 09:18:14.727916 13987 net.cpp:137] Memory required for data: 77973516
I0526 09:18:14.727921 13987 layer_factory.hpp:77] Creating layer last_bn
I0526 09:18:14.727928 13987 net.cpp:84] Creating Layer last_bn
I0526 09:18:14.727933 13987 net.cpp:406] last_bn <- layer_512_3_sum
I0526 09:18:14.727938 13987 net.cpp:367] last_bn -> layer_512_3_sum (in-place)
I0526 09:18:14.728267 13987 net.cpp:122] Setting up last_bn
I0526 09:18:14.728289 13987 net.cpp:129] Top shape: 1 512 7 7 (25088)
I0526 09:18:14.728293 13987 net.cpp:137] Memory required for data: 78073868
I0526 09:18:14.728302 13987 layer_factory.hpp:77] Creating layer last_scale
I0526 09:18:14.728308 13987 net.cpp:84] Creating Layer last_scale
I0526 09:18:14.728312 13987 net.cpp:406] last_scale <- layer_512_3_sum
I0526 09:18:14.728318 13987 net.cpp:367] last_scale -> layer_512_3_sum (in-place)
I0526 09:18:14.728368 13987 layer_factory.hpp:77] Creating layer last_scale
I0526 09:18:14.728555 13987 net.cpp:122] Setting up last_scale
I0526 09:18:14.728564 13987 net.cpp:129] Top shape: 1 512 7 7 (25088)
I0526 09:18:14.728567 13987 net.cpp:137] Memory required for data: 78174220
I0526 09:18:14.728572 13987 layer_factory.hpp:77] Creating layer last_relu
I0526 09:18:14.728606 13987 net.cpp:84] Creating Layer last_relu
I0526 09:18:14.728610 13987 net.cpp:406] last_relu <- layer_512_3_sum
I0526 09:18:14.728615 13987 net.cpp:367] last_relu -> layer_512_3_sum (in-place)
I0526 09:18:14.728809 13987 net.cpp:122] Setting up last_relu
I0526 09:18:14.728819 13987 net.cpp:129] Top shape: 1 512 7 7 (25088)
I0526 09:18:14.728822 13987 net.cpp:137] Memory required for data: 78274572
I0526 09:18:14.728837 13987 layer_factory.hpp:77] Creating layer global_pool
I0526 09:18:14.728843 13987 net.cpp:84] Creating Layer global_pool
I0526 09:18:14.728847 13987 net.cpp:406] global_pool <- layer_512_3_sum
I0526 09:18:14.728854 13987 net.cpp:380] global_pool -> global_pool
I0526 09:18:14.729066 13987 net.cpp:122] Setting up global_pool
I0526 09:18:14.729076 13987 net.cpp:129] Top shape: 1 512 1 1 (512)
I0526 09:18:14.729090 13987 net.cpp:137] Memory required for data: 78276620
I0526 09:18:14.729094 13987 layer_factory.hpp:77] Creating layer score
I0526 09:18:14.729100 13987 net.cpp:84] Creating Layer score
I0526 09:18:14.729104 13987 net.cpp:406] score <- global_pool
I0526 09:18:14.729110 13987 net.cpp:380] score -> score
I0526 09:18:14.729287 13987 net.cpp:122] Setting up score
I0526 09:18:14.729296 13987 net.cpp:129] Top shape: 1 8 (8)
I0526 09:18:14.729300 13987 net.cpp:137] Memory required for data: 78276652
I0526 09:18:14.729316 13987 layer_factory.hpp:77] Creating layer score_score_0_split
I0526 09:18:14.729322 13987 net.cpp:84] Creating Layer score_score_0_split
I0526 09:18:14.729326 13987 net.cpp:406] score_score_0_split <- score
I0526 09:18:14.729332 13987 net.cpp:380] score_score_0_split -> score_score_0_split_0
I0526 09:18:14.729339 13987 net.cpp:380] score_score_0_split -> score_score_0_split_1
I0526 09:18:14.729400 13987 net.cpp:122] Setting up score_score_0_split
I0526 09:18:14.729408 13987 net.cpp:129] Top shape: 1 8 (8)
I0526 09:18:14.729413 13987 net.cpp:129] Top shape: 1 8 (8)
I0526 09:18:14.729416 13987 net.cpp:137] Memory required for data: 78276716
I0526 09:18:14.729419 13987 layer_factory.hpp:77] Creating layer loss
I0526 09:18:14.729425 13987 net.cpp:84] Creating Layer loss
I0526 09:18:14.729429 13987 net.cpp:406] loss <- score_score_0_split_0
I0526 09:18:14.729445 13987 net.cpp:406] loss <- label_data_1_split_0
I0526 09:18:14.729450 13987 net.cpp:380] loss -> loss
…
