…
I0527 21:00:36.767415 12761 net.cpp:51] Initializing net from parameters: 
name: "Pre-ResNet-34"
state {
  phase: TRAIN
  level: 0
  stage: ""
}
layer {
  name: "data"
  type: "Data"
  top: "data"
  top: "label"
  include {
    phase: TRAIN
  }
  transform_param {
    mirror: true
    crop_size: 224
    mean_file: "/home/k/PycharmProjects/AgeGenderDeepLearning-master/Folds/lmdb/Test_fold_is_0/mean.binaryproto"
  }
  data_param {
    source: "/home/k/PycharmProjects/AgeGenderDeepLearning-master/Folds/lmdb/Test_fold_is_0/gender_train_lmdb"
    batch_size: 50
    backend: LMDB
  }
}
layer {
  name: "data_bn"
  type: "BatchNorm"
  bottom: "data"
  top: "data_bn"
  param {
    lr_mult: 0
    decay_mult: 0
  }
  param {
    lr_mult: 0
    decay_mult: 0
  }
  param {
    lr_mult: 0
    decay_mult: 0
  }
}
layer {
  name: "data_scale"
  type: "Scale"
  bottom: "data_bn"
  top: "data_bn"
  param {
    lr_mult: 1
    decay_mult: 1
  }
  param {
    lr_mult: 2
    decay_mult: 1
  }
  scale_param {
    bias_term: true
  }
}
layer {
  name: "conv1"
  type: "Convolution"
  bottom: "data_bn"
  top: "conv1"
  param {
    lr_mult: 1
    decay_mult: 1
  }
  param {
    lr_mult: 2
    decay_mult: 1
  }
  convolution_param {
    num_output: 64
    pad: 3
    kernel_size: 7
    stride: 2
    weight_filler {
      type: "msra"
      variance_norm: FAN_OUT
    }
    bias_filler {
      type: "constant"
      value: 0
    }
  }
}
layer {
  name: "conv1_bn"
  type: "BatchNorm"
  bottom: "conv1"
  top: "conv1"
  param {
    lr_mult: 0
    decay_mult: 0
  }
  param {
    lr_mult: 0
    decay_mult: 0
  }
  param {
    lr_mult: 0
    decay_mult: 0
  }
}
layer {
  name: "conv1_scale"
  type: "Scale"
  bottom: "conv1"
  top: "conv1"
  param {
    lr_mult: 1
    decay_mult: 1
  }
  param {
    lr_mult: 2
    decay_mult: 1
  }
  scale_param {
    bias_term: true
  }
}
layer {
  name: "conv1_relu"
  type: "ReLU"
  bottom: "conv1"
  top: "conv1"
}
layer {
  name: "conv1_pool"
  type: "Pooling"
  bottom: "conv1"
  top: "conv1_pool"
  pooling_param {
    kernel_size: 3
    stride: 2
  }
}
layer {
  name: "layer_64_1_conv1"
  type: "Convolution"
  bottom: "conv1_pool"
  top: "layer_64_1_conv1"
  param {
    lr_mult: 1
    decay_mult: 1
  }
  convolution_param {
    num_output: 64
    bias_term: false
    pad: 1
    kernel_size: 3
    stride: 1
    weight_filler {
      type: "msra"
    }
    bias_filler {
      type: "constant"
      value: 0
    }
  }
}
layer {
  name: "layer_64_1_bn2"
  type: "BatchNorm"
  bottom: "layer_64_1_conv1"
  top: "layer_64_1_conv1"
  param {
    lr_mult: 0
    decay_mult: 0
  }
  param {
    lr_mult: 0
    decay_mult: 0
  }
  param {
    lr_mult: 0
    decay_mult: 0
  }
}
layer {
  name: "layer_64_1_scale2"
  type: "Scale"
  bottom: "layer_64_1_conv1"
  top: "layer_64_1_conv1"
  param {
    lr_mult: 1
    decay_mult: 1
  }
  param {
    lr_mult: 2
    decay_mult: 1
  }
  scale_param {
    bias_term: true
  }
}
layer {
  name: "layer_64_1_relu2"
  type: "ReLU"
  bottom: "layer_64_1_conv1"
  top: "layer_64_1_conv1"
}
layer {
  name: "layer_64_1_conv2"
  type: "Convolution"
  bottom: "layer_64_1_conv1"
  top: "layer_64_1_conv2"
  param {
    lr_mult: 1
    decay_mult: 1
  }
  convolution_param {
    num_output: 64
    bias_term: false
    pad: 1
    kernel_size: 3
    stride: 1
    weight_filler {
      type: "msra"
    }
    bias_filler {
      type: "constant"
      value: 0
    }
  }
}
layer {
  name: "layer_64_1_sum"
  type: "Eltwise"
  bottom: "layer_64_1_conv2"
  bottom: "conv1_pool"
  top: "layer_64_1_sum"
}
layer {
  name: "layer_64_2_bn1"
  type: "BatchNorm"
  bottom: "layer_64_1_sum"
  top: "layer_64_2_bn1"
  param {
    lr_mult: 0
    decay_mult: 0
  }
  param {
    lr_mult: 0
    decay_mult: 0
  }
  param {
    lr_mult: 0
    decay_mult: 0
  }
}
layer {
  name: "layer_64_2_scale1"
  type: "Scale"
  bottom: "layer_64_2_bn1"
  top: "layer_64_2_bn1"
  param {
    lr_mult: 1
    decay_mult: 1
  }
  param {
    lr_mult: 2
    decay_mult: 1
  }
  scale_param {
    bias_term: true
  }
}
layer {
  name: "layer_64_2_relu1"
  type: "ReLU"
  bottom: "layer_64_2_bn1"
  top: "layer_64_2_bn1"
}
layer {
  name: "layer_64_2_conv1"
  type: "Convolution"
  bottom: "layer_64_2_bn1"
  top: "layer_64_2_conv1"
  param {
    lr_mult: 1
    decay_mult: 1
  }
  convolution_param {
    num_output: 64
    bias_term: false
    pad: 1
    kernel_size: 3
    stride: 1
    weight_filler {
      type: "msra"
    }
    bias_filler {
      type: "constant"
      value: 0
    }
  }
}
layer {
  name: "layer_64_2_bn2"
  type: "BatchNorm"
  bottom: "layer_64_2_conv1"
  top: "layer_64_2_conv1"
  param {
    lr_mult: 0
    decay_mult: 0
  }
  param {
    lr_mult: 0
    decay_mult: 0
  }
  param {
    lr_mult: 0
    decay_mult: 0
  }
}
layer {
  name: "layer_64_2_scale2"
  type: "Scale"
  bottom: "layer_64_2_conv1"
  top: "layer_64_2_conv1"
  param {
    lr_mult: 1
    decay_mult: 1
  }
  param {
    lr_mult: 2
    decay_mult: 1
  }
  scale_param {
    bias_term: true
  }
}
layer {
  name: "layer_64_2_relu2"
  type: "ReLU"
  bottom: "layer_64_2_conv1"
  top: "layer_64_2_conv1"
}
layer {
  name: "layer_64_2_conv2"
  type: "Convolution"
  bottom: "layer_64_2_conv1"
  top: "layer_64_2_conv2"
  param {
    lr_mult: 1
    decay_mult: 1
  }
  convolution_param {
    num_output: 64
    bias_term: false
    pad: 1
    kernel_size: 3
    stride: 1
    weight_filler {
      type: "msra"
    }
    bias_filler {
      type: "constant"
      value: 0
    }
  }
}
layer {
  name: "layer_64_2_sum"
  type: "Eltwise"
  bottom: "layer_64_2_conv2"
  bottom: "layer_64_1_sum"
  top: "layer_64_2_sum"
}
layer {
  name: "layer_64_3_bn1"
  type: "BatchNorm"
  bottom: "layer_64_2_sum"
  top: "layer_64_3_bn1"
  param {
    lr_mult: 0
    decay_mult: 0
  }
  param {
    lr_mult: 0
    decay_mult: 0
  }
  param {
    lr_mult: 0
    decay_mult: 0
  }
}
layer {
  name: "layer_64_3_scale1"
  type: "Scale"
  bottom: "layer_64_3_bn1"
  top: "layer_64_3_bn1"
  param {
    lr_mult: 1
    decay_mult: 1
  }
  param {
    lr_mult: 2
    decay_mult: 1
  }
  scale_param {
    bias_term: true
  }
}
layer {
  name: "layer_64_3_relu1"
  type: "ReLU"
  bottom: "layer_64_3_bn1"
  top: "layer_64_3_bn1"
}
layer {
  name: "layer_64_3_conv1"
  type: "Convolution"
  bottom: "layer_64_3_bn1"
  top: "layer_64_3_conv1"
  param {
    lr_mult: 1
    decay_mult: 1
  }
  convolution_param {
    num_output: 64
    bias_term: false
    pad: 1
    kernel_size: 3
    stride: 1
    weight_filler {
      type: "msra"
    }
    bias_filler {
      type: "constant"
      value: 0
    }
  }
}
layer {
  name: "layer_64_3_bn2"
  type: "BatchNorm"
  bottom: "layer_64_3_conv1"
  top: "layer_64_3_conv1"
  param {
    lr_mult: 0
    decay_mult: 0
  }
  param {
    lr_mult: 0
    decay_mult: 0
  }
  param {
    lr_mult: 0
    decay_mult: 0
  }
}
layer {
  name: "layer_64_3_scale2"
  type: "Scale"
  bottom: "layer_64_3_conv1"
  top: "layer_64_3_conv1"
  param {
    lr_mult: 1
    decay_mult: 1
  }
  param {
    lr_mult: 2
    decay_mult: 1
  }
  scale_param {
    bias_term: true
  }
}
layer {
  name: "layer_64_3_relu2"
  type: "ReLU"
  bottom: "layer_64_3_conv1"
  top: "layer_64_3_conv1"
}
layer {
  name: "layer_64_3_conv2"
  type: "Convolution"
  bottom: "layer_64_3_conv1"
  top: "layer_64_3_conv2"
  param {
    lr_mult: 1
    decay_mult: 1
  }
  convolution_param {
    num_output: 64
    bias_term: false
    pad: 1
    kernel_size: 3
    stride: 1
    weight_filler {
      type: "msra"
    }
    bias_filler {
      type: "constant"
      value: 0
    }
  }
}
layer {
  name: "layer_64_3_sum"
  type: "Eltwise"
  bottom: "layer_64_3_conv2"
  bottom: "layer_64_2_sum"
  top: "layer_64_3_sum"
}
layer {
  name: "layer_128_1_bn1"
  type: "BatchNorm"
  bottom: "layer_64_3_sum"
  top: "layer_128_1_bn1"
  param {
    lr_mult: 0
    decay_mult: 0
  }
  param {
    lr_mult: 0
    decay_mult: 0
  }
  param {
    lr_mult: 0
    decay_mult: 0
  }
}
layer {
  name: "layer_128_1_scale1"
  type: "Scale"
  bottom: "layer_128_1_bn1"
  top: "layer_128_1_bn1"
  param {
    lr_mult: 1
    decay_mult: 1
  }
  param {
    lr_mult: 2
    decay_mult: 1
  }
  scale_param {
    bias_term: true
  }
}
layer {
  name: "layer_128_1_relu1"
  type: "ReLU"
  bottom: "layer_128_1_bn1"
  top: "layer_128_1_bn1"
}
layer {
  name: "layer_128_1_conv1"
  type: "Convolution"
  bottom: "layer_128_1_bn1"
  top: "layer_128_1_conv1"
  param {
    lr_mult: 1
    decay_mult: 1
  }
  convolution_param {
    num_output: 128
    bias_term: false
    pad: 1
    kernel_size: 3
    stride: 2
    weight_filler {
      type: "msra"
    }
    bias_filler {
      type: "constant"
      value: 0
    }
  }
}
layer {
  name: "layer_128_1_bn2"
  type: "BatchNorm"
  bottom: "layer_128_1_conv1"
  top: "layer_128_1_conv1"
  param {
    lr_mult: 0
    decay_mult: 0
  }
  param {
    lr_mult: 0
    decay_mult: 0
  }
  param {
    lr_mult: 0
    decay_mult: 0
  }
}
layer {
  name: "layer_128_1_scale2"
  type: "Scale"
  bottom: "layer_128_1_conv1"
  top: "layer_128_1_conv1"
  param {
    lr_mult: 1
    decay_mult: 1
  }
  param {
    lr_mult: 2
    decay_mult: 1
  }
  scale_param {
    bias_term: true
  }
}
layer {
  name: "layer_128_1_relu2"
  type: "ReLU"
  bottom: "layer_128_1_conv1"
  top: "layer_128_1_conv1"
}
layer {
  name: "layer_128_1_conv2"
  type: "Convolution"
  bottom: "layer_128_1_conv1"
  top: "layer_128_1_conv2"
  param {
    lr_mult: 1
    decay_mult: 1
  }
  convolution_param {
    num_output: 128
    bias_term: false
    pad: 1
    kernel_size: 3
    stride: 1
    weight_filler {
      type: "msra"
    }
    bias_filler {
      type: "constant"
      value: 0
    }
  }
}
layer {
  name: "layer_128_1_conv_expand"
  type: "Convolution"
  bottom: "layer_128_1_bn1"
  top: "layer_128_1_conv_expand"
  param {
    lr_mult: 1
    decay_mult: 1
  }
  convolution_param {
    num_output: 128
    bias_term: false
    pad: 0
    kernel_size: 1
    stride: 2
    weight_filler {
      type: "msra"
    }
    bias_filler {
      type: "constant"
      value: 0
    }
  }
}
layer {
  name: "layer_128_1_sum"
  type: "Eltwise"
  bottom: "layer_128_1_conv_expand"
  bottom: "layer_128_1_conv2"
  top: "layer_128_1_sum"
}
layer {
  name: "layer_128_2_bn1"
  type: "BatchNorm"
  bottom: "layer_128_1_sum"
  top: "layer_128_2_bn1"
  param {
    lr_mult: 0
    decay_mult: 0
  }
  param {
    lr_mult: 0
    decay_mult: 0
  }
  param {
    lr_mult: 0
    decay_mult: 0
  }
}
layer {
  name: "layer_128_2_scale1"
  type: "Scale"
  bottom: "layer_128_2_bn1"
  top: "layer_128_2_bn1"
  param {
    lr_mult: 1
    decay_mult: 1
  }
  param {
    lr_mult: 2
    decay_mult: 1
  }
  scale_param {
    bias_term: true
  }
}
layer {
  name: "layer_128_2_relu1"
  type: "ReLU"
  bottom: "layer_128_2_bn1"
  top: "layer_128_2_bn1"
}
layer {
  name: "layer_128_2_conv1"
  type: "Convolution"
  bottom: "layer_128_2_bn1"
  top: "layer_128_2_conv1"
  param {
    lr_mult: 1
    decay_mult: 1
  }
  convolution_param {
    num_output: 128
    bias_term: false
    pad: 1
    kernel_size: 3
    stride: 1
    weight_filler {
      type: "msra"
    }
    bias_filler {
      type: "constant"
      value: 0
    }
  }
}
layer {
  name: "layer_128_2_bn2"
  type: "BatchNorm"
  bottom: "layer_128_2_conv1"
  top: "layer_128_2_conv1"
  param {
    lr_mult: 0
    decay_mult: 0
  }
  param {
    lr_mult: 0
    decay_mult: 0
  }
  param {
    lr_mult: 0
    decay_mult: 0
  }
}
layer {
  name: "layer_128_2_scale2"
  type: "Scale"
  bottom: "layer_128_2_conv1"
  top: "layer_128_2_conv1"
  param {
    lr_mult: 1
    decay_mult: 1
  }
  param {
    lr_mult: 2
    decay_mult: 1
  }
  scale_param {
    bias_term: true
  }
}
layer {
  name: "layer_128_2_relu2"
  type: "ReLU"
  bottom: "layer_128_2_conv1"
  top: "layer_128_2_conv1"
}
layer {
  name: "layer_128_2_conv2"
  type: "Convolution"
  bottom: "layer_128_2_conv1"
  top: "layer_128_2_conv2"
  param {
    lr_mult: 1
    decay_mult: 1
  }
  convolution_param {
    num_output: 128
    bias_term: false
    pad: 1
    kernel_size: 3
    stride: 1
    weight_filler {
      type: "msra"
    }
    bias_filler {
      type: "constant"
      value: 0
    }
  }
}
layer {
  name: "layer_128_2_sum"
  type: "Eltwise"
  bottom: "layer_128_2_conv2"
  bottom: "layer_128_1_sum"
  top: "layer_128_2_sum"
}
layer {
  name: "layer_128_3_bn1"
  type: "BatchNorm"
  bottom: "layer_128_2_sum"
  top: "layer_128_3_bn1"
  param {
    lr_mult: 0
    decay_mult: 0
  }
  param {
    lr_mult: 0
    decay_mult: 0
  }
  param {
    lr_mult: 0
    decay_mult: 0
  }
}
layer {
  name: "layer_128_3_scale1"
  type: "Scale"
  bottom: "layer_128_3_bn1"
  top: "layer_128_3_bn1"
  param {
    lr_mult: 1
    decay_mult: 1
  }
  param {
    lr_mult: 2
    decay_mult: 1
  }
  scale_param {
    bias_term: true
  }
}
layer {
  name: "layer_128_3_relu1"
  type: "ReLU"
  bottom: "layer_128_3_bn1"
  top: "layer_128_3_bn1"
}
layer {
  name: "layer_128_3_conv1"
  type: "Convolution"
  bottom: "layer_128_3_bn1"
  top: "layer_128_3_conv1"
  param {
    lr_mult: 1
    decay_mult: 1
  }
  convolution_param {
    num_output: 128
    bias_term: false
    pad: 1
    kernel_size: 3
    stride: 1
    weight_filler {
      type: "msra"
    }
    bias_filler {
      type: "constant"
      value: 0
    }
  }
}
layer {
  name: "layer_128_3_bn2"
  type: "BatchNorm"
  bottom: "layer_128_3_conv1"
  top: "layer_128_3_conv1"
  param {
    lr_mult: 0
    decay_mult: 0
  }
  param {
    lr_mult: 0
    decay_mult: 0
  }
  param {
    lr_mult: 0
    decay_mult: 0
  }
}
layer {
  name: "layer_128_3_scale2"
  type: "Scale"
  bottom: "layer_128_3_conv1"
  top: "layer_128_3_conv1"
  param {
    lr_mult: 1
    decay_mult: 1
  }
  param {
    lr_mult: 2
    decay_mult: 1
  }
  scale_param {
    bias_term: true
  }
}
layer {
  name: "layer_128_3_relu2"
  type: "ReLU"
  bottom: "layer_128_3_conv1"
  top: "layer_128_3_conv1"
}
layer {
  name: "layer_128_3_conv2"
  type: "Convolution"
  bottom: "layer_128_3_conv1"
  top: "layer_128_3_conv2"
  param {
    lr_mult: 1
    decay_mult: 1
  }
  convolution_param {
    num_output: 128
    bias_term: false
    pad: 1
    kernel_size: 3
    stride: 1
    weight_filler {
      type: "msra"
    }
    bias_filler {
      type: "constant"
      value: 0
    }
  }
}
layer {
  name: "layer_128_3_sum"
  type: "Eltwise"
  bottom: "layer_128_3_conv2"
  bottom: "layer_128_2_sum"
  top: "layer_128_3_sum"
}
layer {
  name: "layer_128_4_bn1"
  type: "BatchNorm"
  bottom: "layer_128_3_sum"
  top: "layer_128_4_bn1"
  param {
    lr_mult: 0
    decay_mult: 0
  }
  param {
    lr_mult: 0
    decay_mult: 0
  }
  param {
    lr_mult: 0
    decay_mult: 0
  }
}
layer {
  name: "layer_128_4_scale1"
  type: "Scale"
  bottom: "layer_128_4_bn1"
  top: "layer_128_4_bn1"
  param {
    lr_mult: 1
    decay_mult: 1
  }
  param {
    lr_mult: 2
    decay_mult: 1
  }
  scale_param {
    bias_term: true
  }
}
layer {
  name: "layer_128_4_relu1"
  type: "ReLU"
  bottom: "layer_128_4_bn1"
  top: "layer_128_4_bn1"
}
layer {
  name: "layer_128_4_conv1"
  type: "Convolution"
  bottom: "layer_128_4_bn1"
  top: "layer_128_4_conv1"
  param {
    lr_mult: 1
    decay_mult: 1
  }
  convolution_param {
    num_output: 128
    bias_term: false
    pad: 1
    kernel_size: 3
    stride: 1
    weight_filler {
      type: "msra"
    }
    bias_filler {
      type: "constant"
      value: 0
    }
  }
}
layer {
  name: "layer_128_4_bn2"
  type: "BatchNorm"
  bottom: "layer_128_4_conv1"
  top: "layer_128_4_conv1"
  param {
    lr_mult: 0
    decay_mult: 0
  }
  param {
    lr_mult: 0
    decay_mult: 0
  }
  param {
    lr_mult: 0
    decay_mult: 0
  }
}
layer {
  name: "layer_128_4_scale2"
  type: "Scale"
  bottom: "layer_128_4_conv1"
  top: "layer_128_4_conv1"
  param {
    lr_mult: 1
    decay_mult: 1
  }
  param {
    lr_mult: 2
    decay_mult: 1
  }
  scale_param {
    bias_term: true
  }
}
layer {
  name: "layer_128_4_relu2"
  type: "ReLU"
  bottom: "layer_128_4_conv1"
  top: "layer_128_4_conv1"
}
layer {
  name: "layer_128_4_conv2"
  type: "Convolution"
  bottom: "layer_128_4_conv1"
  top: "layer_128_4_conv2"
  param {
    lr_mult: 1
    decay_mult: 1
  }
  convolution_param {
    num_output: 128
    bias_term: false
    pad: 1
    kernel_size: 3
    stride: 1
    weight_filler {
      type: "msra"
    }
    bias_filler {
      type: "constant"
      value: 0
    }
  }
}
layer {
  name: "layer_128_4_sum"
  type: "Eltwise"
  bottom: "layer_128_4_conv2"
  bottom: "layer_128_3_sum"
  top: "layer_128_4_sum"
}
layer {
  name: "layer_256_1_bn1"
  type: "BatchNorm"
  bottom: "layer_128_4_sum"
  top: "layer_256_1_bn1"
  param {
    lr_mult: 0
    decay_mult: 0
  }
  param {
    lr_mult: 0
    decay_mult: 0
  }
  param {
    lr_mult: 0
    decay_mult: 0
  }
}
layer {
  name: "layer_256_1_scale1"
  type: "Scale"
  bottom: "layer_256_1_bn1"
  top: "layer_256_1_bn1"
  param {
    lr_mult: 1
    decay_mult: 1
  }
  param {
    lr_mult: 2
    decay_mult: 1
  }
  scale_param {
    bias_term: true
  }
}
layer {
  name: "layer_256_1_relu1"
  type: "ReLU"
  bottom: "layer_256_1_bn1"
  top: "layer_256_1_bn1"
}
layer {
  name: "layer_256_1_conv1"
  type: "Convolution"
  bottom: "layer_256_1_bn1"
  top: "layer_256_1_conv1"
  param {
    lr_mult: 1
    decay_mult: 1
  }
  convolution_param {
    num_output: 256
    bias_term: false
    pad: 1
    kernel_size: 3
    stride: 2
    weight_filler {
      type: "msra"
    }
    bias_filler {
      type: "constant"
      value: 0
    }
  }
}
layer {
  name: "layer_256_1_bn2"
  type: "BatchNorm"
  bottom: "layer_256_1_conv1"
  top: "layer_256_1_conv1"
  param {
    lr_mult: 0
    decay_mult: 0
  }
  param {
    lr_mult: 0
    decay_mult: 0
  }
  param {
    lr_mult: 0
    decay_mult: 0
  }
}
layer {
  name: "layer_256_1_scale2"
  type: "Scale"
  bottom: "layer_256_1_conv1"
  top: "layer_256_1_conv1"
  param {
    lr_mult: 1
    decay_mult: 1
  }
  param {
    lr_mult: 2
    decay_mult: 1
  }
  scale_param {
    bias_term: true
  }
}
layer {
  name: "layer_256_1_relu2"
  type: "ReLU"
  bottom: "layer_256_1_conv1"
  top: "layer_256_1_conv1"
}
layer {
  name: "layer_256_1_conv2"
  type: "Convolution"
  bottom: "layer_256_1_conv1"
  top: "layer_256_1_conv2"
  param {
    lr_mult: 1
    decay_mult: 1
  }
  convolution_param {
    num_output: 256
    bias_term: false
    pad: 1
    kernel_size: 3
    stride: 1
    weight_filler {
      type: "msra"
    }
    bias_filler {
      type: "constant"
      value: 0
    }
  }
}
layer {
  name: "layer_256_1_conv_expand"
  type: "Convolution"
  bottom: "layer_256_1_bn1"
  top: "layer_256_1_conv_expand"
  param {
    lr_mult: 1
    decay_mult: 1
  }
  convolution_param {
    num_output: 256
    bias_term: false
    pad: 0
    kernel_size: 1
    stride: 2
    weight_filler {
      type: "msra"
    }
    bias_filler {
      type: "constant"
      value: 0
    }
  }
}
layer {
  name: "layer_256_1_sum"
  type: "Eltwise"
  bottom: "layer_256_1_conv_expand"
  bottom: "layer_256_1_conv2"
  top: "layer_256_1_sum"
}
layer {
  name: "layer_256_2_bn1"
  type: "BatchNorm"
  bottom: "layer_256_1_sum"
  top: "layer_256_2_bn1"
  param {
    lr_mult: 0
    decay_mult: 0
  }
  param {
    lr_mult: 0
    decay_mult: 0
  }
  param {
    lr_mult: 0
    decay_mult: 0
  }
}
layer {
  name: "layer_256_2_scale1"
  type: "Scale"
  bottom: "layer_256_2_bn1"
  top: "layer_256_2_bn1"
  param {
    lr_mult: 1
    decay_mult: 1
  }
  param {
    lr_mult: 2
    decay_mult: 1
  }
  scale_param {
    bias_term: true
  }
}
layer {
  name: "layer_256_2_relu1"
  type: "ReLU"
  bottom: "layer_256_2_bn1"
  top: "layer_256_2_bn1"
}
layer {
  name: "layer_256_2_conv1"
  type: "Convolution"
  bottom: "layer_256_2_bn1"
  top: "layer_256_2_conv1"
  param {
    lr_mult: 1
    decay_mult: 1
  }
  convolution_param {
    num_output: 256
    bias_term: false
    pad: 1
    kernel_size: 3
    stride: 1
    weight_filler {
      type: "msra"
    }
    bias_filler {
      type: "constant"
      value: 0
    }
  }
}
layer {
  name: "layer_256_2_bn2"
  type: "BatchNorm"
  bottom: "layer_256_2_conv1"
  top: "layer_256_2_conv1"
  param {
    lr_mult: 0
    decay_mult: 0
  }
  param {
    lr_mult: 0
    decay_mult: 0
  }
  param {
    lr_mult: 0
    decay_mult: 0
  }
}
layer {
  name: "layer_256_2_scale2"
  type: "Scale"
  bottom: "layer_256_2_conv1"
  top: "layer_256_2_conv1"
  param {
    lr_mult: 1
    decay_mult: 1
  }
  param {
    lr_mult: 2
    decay_mult: 1
  }
  scale_param {
    bias_term: true
  }
}
layer {
  name: "layer_256_2_relu2"
  type: "ReLU"
  bottom: "layer_256_2_conv1"
  top: "layer_256_2_conv1"
}
layer {
  name: "layer_256_2_conv2"
  type: "Convolution"
  bottom: "layer_256_2_conv1"
  top: "layer_256_2_conv2"
  param {
    lr_mult: 1
    decay_mult: 1
  }
  convolution_param {
    num_output: 256
    bias_term: false
    pad: 1
    kernel_size: 3
    stride: 1
    weight_filler {
      type: "msra"
    }
    bias_filler {
      type: "constant"
      value: 0
    }
  }
}
layer {
  name: "layer_256_2_sum"
  type: "Eltwise"
  bottom: "layer_256_2_conv2"
  bottom: "layer_256_1_sum"
  top: "layer_256_2_sum"
}
layer {
  name: "layer_256_3_bn1"
  type: "BatchNorm"
  bottom: "layer_256_2_sum"
  top: "layer_256_3_bn1"
  param {
    lr_mult: 0
    decay_mult: 0
  }
  param {
    lr_mult: 0
    decay_mult: 0
  }
  param {
    lr_mult: 0
    decay_mult: 0
  }
}
layer {
  name: "layer_256_3_scale1"
  type: "Scale"
  bottom: "layer_256_3_bn1"
  top: "layer_256_3_bn1"
  param {
    lr_mult: 1
    decay_mult: 1
  }
  param {
    lr_mult: 2
    decay_mult: 1
  }
  scale_param {
    bias_term: true
  }
}
layer {
  name: "layer_256_3_relu1"
  type: "ReLU"
  bottom: "layer_256_3_bn1"
  top: "layer_256_3_bn1"
}
layer {
  name: "layer_256_3_conv1"
  type: "Convolution"
  bottom: "layer_256_3_bn1"
  top: "layer_256_3_conv1"
  param {
    lr_mult: 1
    decay_mult: 1
  }
  convolution_param {
    num_output: 256
    bias_term: false
    pad: 1
    kernel_size: 3
    stride: 1
    weight_filler {
      type: "msra"
    }
    bias_filler {
      type: "constant"
      value: 0
    }
  }
}
layer {
  name: "layer_256_3_bn2"
  type: "BatchNorm"
  bottom: "layer_256_3_conv1"
  top: "layer_256_3_conv1"
  param {
    lr_mult: 0
    decay_mult: 0
  }
  param {
    lr_mult: 0
    decay_mult: 0
  }
  param {
    lr_mult: 0
    decay_mult: 0
  }
}
layer {
  name: "layer_256_3_scale2"
  type: "Scale"
  bottom: "layer_256_3_conv1"
  top: "layer_256_3_conv1"
  param {
    lr_mult: 1
    decay_mult: 1
  }
  param {
    lr_mult: 2
    decay_mult: 1
  }
  scale_param {
    bias_term: true
  }
}
layer {
  name: "layer_256_3_relu2"
  type: "ReLU"
  bottom: "layer_256_3_conv1"
  top: "layer_256_3_conv1"
}
layer {
  name: "layer_256_3_conv2"
  type: "Convolution"
  bottom: "layer_256_3_conv1"
  top: "layer_256_3_conv2"
  param {
    lr_mult: 1
    decay_mult: 1
  }
  convolution_param {
    num_output: 256
    bias_term: false
    pad: 1
    kernel_size: 3
    stride: 1
    weight_filler {
      type: "msra"
    }
    bias_filler {
      type: "constant"
      value: 0
    }
  }
}
layer {
  name: "layer_256_3_sum"
  type: "Eltwise"
  bottom: "layer_256_3_conv2"
  bottom: "layer_256_2_sum"
  top: "layer_256_3_sum"
}
layer {
  name: "layer_256_4_bn1"
  type: "BatchNorm"
  bottom: "layer_256_3_sum"
  top: "layer_256_4_bn1"
  param {
    lr_mult: 0
    decay_mult: 0
  }
  param {
    lr_mult: 0
    decay_mult: 0
  }
  param {
    lr_mult: 0
    decay_mult: 0
  }
}
layer {
  name: "layer_256_4_scale1"
  type: "Scale"
  bottom: "layer_256_4_bn1"
  top: "layer_256_4_bn1"
  param {
    lr_mult: 1
    decay_mult: 1
  }
  param {
    lr_mult: 2
    decay_mult: 1
  }
  scale_param {
    bias_term: true
  }
}
layer {
  name: "layer_256_4_relu1"
  type: "ReLU"
  bottom: "layer_256_4_bn1"
  top: "layer_256_4_bn1"
}
layer {
  name: "layer_256_4_conv1"
  type: "Convolution"
  bottom: "layer_256_4_bn1"
  top: "layer_256_4_conv1"
  param {
    lr_mult: 1
    decay_mult: 1
  }
  convolution_param {
    num_output: 256
    bias_term: false
    pad: 1
    kernel_size: 3
    stride: 1
    weight_filler {
      type: "msra"
    }
    bias_filler {
      type: "constant"
      value: 0
    }
  }
}
layer {
  name: "layer_256_4_bn2"
  type: "BatchNorm"
  bottom: "layer_256_4_conv1"
  top: "layer_256_4_conv1"
  param {
    lr_mult: 0
    decay_mult: 0
  }
  param {
    lr_mult: 0
    decay_mult: 0
  }
  param {
    lr_mult: 0
    decay_mult: 0
  }
}
layer {
  name: "layer_256_4_scale2"
  type: "Scale"
  bottom: "layer_256_4_conv1"
  top: "layer_256_4_conv1"
  param {
    lr_mult: 1
    decay_mult: 1
  }
  param {
    lr_mult: 2
    decay_mult: 1
  }
  scale_param {
    bias_term: true
  }
}
layer {
  name: "layer_256_4_relu2"
  type: "ReLU"
  bottom: "layer_256_4_conv1"
  top: "layer_256_4_conv1"
}
layer {
  name: "layer_256_4_conv2"
  type: "Convolution"
  bottom: "layer_256_4_conv1"
  top: "layer_256_4_conv2"
  param {
    lr_mult: 1
    decay_mult: 1
  }
  convolution_param {
    num_output: 256
    bias_term: false
    pad: 1
    kernel_size: 3
    stride: 1
    weight_filler {
      type: "msra"
    }
    bias_filler {
      type: "constant"
      value: 0
    }
  }
}
layer {
  name: "layer_256_4_sum"
  type: "Eltwise"
  bottom: "layer_256_4_conv2"
  bottom: "layer_256_3_sum"
  top: "layer_256_4_sum"
}
layer {
  name: "layer_256_5_bn1"
  type: "BatchNorm"
  bottom: "layer_256_4_sum"
  top: "layer_256_5_bn1"
  param {
    lr_mult: 0
    decay_mult: 0
  }
  param {
    lr_mult: 0
    decay_mult: 0
  }
  param {
    lr_mult: 0
    decay_mult: 0
  }
}
layer {
  name: "layer_256_5_scale1"
  type: "Scale"
  bottom: "layer_256_5_bn1"
  top: "layer_256_5_bn1"
  param {
    lr_mult: 1
    decay_mult: 1
  }
  param {
    lr_mult: 2
    decay_mult: 1
  }
  scale_param {
    bias_term: true
  }
}
layer {
  name: "layer_256_5_relu1"
  type: "ReLU"
  bottom: "layer_256_5_bn1"
  top: "layer_256_5_bn1"
}
layer {
  name: "layer_256_5_conv1"
  type: "Convolution"
  bottom: "layer_256_5_bn1"
  top: "layer_256_5_conv1"
  param {
    lr_mult: 1
    decay_mult: 1
  }
  convolution_param {
    num_output: 256
    bias_term: false
    pad: 1
    kernel_size: 3
    stride: 1
    weight_filler {
      type: "msra"
    }
    bias_filler {
      type: "constant"
      value: 0
    }
  }
}
layer {
  name: "layer_256_5_bn2"
  type: "BatchNorm"
  bottom: "layer_256_5_conv1"
  top: "layer_256_5_conv1"
  param {
    lr_mult: 0
    decay_mult: 0
  }
  param {
    lr_mult: 0
    decay_mult: 0
  }
  param {
    lr_mult: 0
    decay_mult: 0
  }
}
layer {
  name: "layer_256_5_scale2"
  type: "Scale"
  bottom: "layer_256_5_conv1"
  top: "layer_256_5_conv1"
  param {
    lr_mult: 1
    decay_mult: 1
  }
  param {
    lr_mult: 2
    decay_mult: 1
  }
  scale_param {
    bias_term: true
  }
}
layer {
  name: "layer_256_5_relu2"
  type: "ReLU"
  bottom: "layer_256_5_conv1"
  top: "layer_256_5_conv1"
}
layer {
  name: "layer_256_5_conv2"
  type: "Convolution"
  bottom: "layer_256_5_conv1"
  top: "layer_256_5_conv2"
  param {
    lr_mult: 1
    decay_mult: 1
  }
  convolution_param {
    num_output: 256
    bias_term: false
    pad: 1
    kernel_size: 3
    stride: 1
    weight_filler {
      type: "msra"
    }
    bias_filler {
      type: "constant"
      value: 0
    }
  }
}
layer {
  name: "layer_256_5_sum"
  type: "Eltwise"
  bottom: "layer_256_5_conv2"
  bottom: "layer_256_4_sum"
  top: "layer_256_5_sum"
}
layer {
  name: "layer_256_6_bn1"
  type: "BatchNorm"
  bottom: "layer_256_5_sum"
  top: "layer_256_6_bn1"
  param {
    lr_mult: 0
    decay_mult: 0
  }
  param {
    lr_mult: 0
    decay_mult: 0
  }
  param {
    lr_mult: 0
    decay_mult: 0
  }
}
layer {
  name: "layer_256_6_scale1"
  type: "Scale"
  bottom: "layer_256_6_bn1"
  top: "layer_256_6_bn1"
  param {
    lr_mult: 1
    decay_mult: 1
  }
  param {
    lr_mult: 2
    decay_mult: 1
  }
  scale_param {
    bias_term: true
  }
}
layer {
  name: "layer_256_6_relu1"
  type: "ReLU"
  bottom: "layer_256_6_bn1"
  top: "layer_256_6_bn1"
}
layer {
  name: "layer_256_6_conv1"
  type: "Convolution"
  bottom: "layer_256_6_bn1"
  top: "layer_256_6_conv1"
  param {
    lr_mult: 1
    decay_mult: 1
  }
  convolution_param {
    num_output: 256
    bias_term: false
    pad: 1
    kernel_size: 3
    stride: 1
    weight_filler {
      type: "msra"
    }
    bias_filler {
      type: "constant"
      value: 0
    }
  }
}
layer {
  name: "layer_256_6_bn2"
  type: "BatchNorm"
  bottom: "layer_256_6_conv1"
  top: "layer_256_6_conv1"
  param {
    lr_mult: 0
    decay_mult: 0
  }
  param {
    lr_mult: 0
    decay_mult: 0
  }
  param {
    lr_mult: 0
    decay_mult: 0
  }
}
layer {
  name: "layer_256_6_scale2"
  type: "Scale"
  bottom: "layer_256_6_conv1"
  top: "layer_256_6_conv1"
  param {
    lr_mult: 1
    decay_mult: 1
  }
  param {
    lr_mult: 2
    decay_mult: 1
  }
  scale_param {
    bias_term: true
  }
}
layer {
  name: "layer_256_6_relu2"
  type: "ReLU"
  bottom: "layer_256_6_conv1"
  top: "layer_256_6_conv1"
}
layer {
  name: "layer_256_6_conv2"
  type: "Convolution"
  bottom: "layer_256_6_conv1"
  top: "layer_256_6_conv2"
  param {
    lr_mult: 1
    decay_mult: 1
  }
  convolution_param {
    num_output: 256
    bias_term: false
    pad: 1
    kernel_size: 3
    stride: 1
    weight_filler {
      type: "msra"
    }
    bias_filler {
      type: "constant"
      value: 0
    }
  }
}
layer {
  name: "layer_256_6_sum"
  type: "Eltwise"
  bottom: "layer_256_6_conv2"
  bottom: "layer_256_5_sum"
  top: "layer_256_6_sum"
}
layer {
  name: "layer_512_1_bn1"
  type: "BatchNorm"
  bottom: "layer_256_6_sum"
  top: "layer_512_1_bn1"
  param {
    lr_mult: 0
    decay_mult: 0
  }
  param {
    lr_mult: 0
    decay_mult: 0
  }
  param {
    lr_mult: 0
    decay_mult: 0
  }
}
layer {
  name: "layer_512_1_scale1"
  type: "Scale"
  bottom: "layer_512_1_bn1"
  top: "layer_512_1_bn1"
  param {
    lr_mult: 1
    decay_mult: 1
  }
  p
I0527 21:00:36.767925 12761 layer_factory.hpp:77] Creating layer data
I0527 21:00:36.768031 12761 db_lmdb.cpp:35] Opened lmdb /home/k/PycharmProjects/AgeGenderDeepLearning-master/Folds/lmdb/Test_fold_is_0/gender_train_lmdb
I0527 21:00:36.768059 12761 net.cpp:84] Creating Layer data
I0527 21:00:36.768067 12761 net.cpp:380] data -> data
I0527 21:00:36.768087 12761 net.cpp:380] data -> label
I0527 21:00:36.768102 12761 data_transformer.cpp:25] Loading mean file from: /home/k/PycharmProjects/AgeGenderDeepLearning-master/Folds/lmdb/Test_fold_is_0/mean.binaryproto
I0527 21:00:36.770934 12761 data_layer.cpp:45] output data size: 50,3,224,224
I0527 21:00:36.838541 12761 net.cpp:122] Setting up data
I0527 21:00:36.838575 12761 net.cpp:129] Top shape: 50 3 224 224 (7526400)
I0527 21:00:36.838580 12761 net.cpp:129] Top shape: 50 (50)
I0527 21:00:36.838584 12761 net.cpp:137] Memory required for data: 30105800
I0527 21:00:36.838593 12761 layer_factory.hpp:77] Creating layer data_bn
I0527 21:00:36.838608 12761 net.cpp:84] Creating Layer data_bn
I0527 21:00:36.838613 12761 net.cpp:406] data_bn <- data
I0527 21:00:36.838626 12761 net.cpp:380] data_bn -> data_bn
I0527 21:00:36.839596 12761 net.cpp:122] Setting up data_bn
I0527 21:00:36.839608 12761 net.cpp:129] Top shape: 50 3 224 224 (7526400)
I0527 21:00:36.839612 12761 net.cpp:137] Memory required for data: 60211400
I0527 21:00:36.839635 12761 layer_factory.hpp:77] Creating layer data_scale
I0527 21:00:36.839644 12761 net.cpp:84] Creating Layer data_scale
I0527 21:00:36.839648 12761 net.cpp:406] data_scale <- data_bn
I0527 21:00:36.839653 12761 net.cpp:367] data_scale -> data_bn (in-place)
I0527 21:00:36.839694 12761 layer_factory.hpp:77] Creating layer data_scale
I0527 21:00:36.845371 12761 net.cpp:122] Setting up data_scale
I0527 21:00:36.845391 12761 net.cpp:129] Top shape: 50 3 224 224 (7526400)
I0527 21:00:36.845397 12761 net.cpp:137] Memory required for data: 90317000
I0527 21:00:36.845412 12761 layer_factory.hpp:77] Creating layer conv1
I0527 21:00:36.845438 12761 net.cpp:84] Creating Layer conv1
I0527 21:00:36.845448 12761 net.cpp:406] conv1 <- data_bn
I0527 21:00:36.845460 12761 net.cpp:380] conv1 -> conv1
I0527 21:00:37.159315 12761 net.cpp:122] Setting up conv1
I0527 21:00:37.159363 12761 net.cpp:129] Top shape: 50 64 112 112 (40140800)
I0527 21:00:37.159366 12761 net.cpp:137] Memory required for data: 250880200
I0527 21:00:37.159379 12761 layer_factory.hpp:77] Creating layer conv1_bn
I0527 21:00:37.159392 12761 net.cpp:84] Creating Layer conv1_bn
I0527 21:00:37.159399 12761 net.cpp:406] conv1_bn <- conv1
I0527 21:00:37.159410 12761 net.cpp:367] conv1_bn -> conv1 (in-place)
I0527 21:00:37.159593 12761 net.cpp:122] Setting up conv1_bn
I0527 21:00:37.159605 12761 net.cpp:129] Top shape: 50 64 112 112 (40140800)
I0527 21:00:37.159607 12761 net.cpp:137] Memory required for data: 411443400
I0527 21:00:37.159621 12761 layer_factory.hpp:77] Creating layer conv1_scale
I0527 21:00:37.159638 12761 net.cpp:84] Creating Layer conv1_scale
I0527 21:00:37.159669 12761 net.cpp:406] conv1_scale <- conv1
I0527 21:00:37.159684 12761 net.cpp:367] conv1_scale -> conv1 (in-place)
I0527 21:00:37.159741 12761 layer_factory.hpp:77] Creating layer conv1_scale
I0527 21:00:37.159873 12761 net.cpp:122] Setting up conv1_scale
I0527 21:00:37.159885 12761 net.cpp:129] Top shape: 50 64 112 112 (40140800)
I0527 21:00:37.159893 12761 net.cpp:137] Memory required for data: 572006600
I0527 21:00:37.159904 12761 layer_factory.hpp:77] Creating layer conv1_relu
I0527 21:00:37.159916 12761 net.cpp:84] Creating Layer conv1_relu
I0527 21:00:37.159924 12761 net.cpp:406] conv1_relu <- conv1
I0527 21:00:37.159936 12761 net.cpp:367] conv1_relu -> conv1 (in-place)
I0527 21:00:37.160135 12761 net.cpp:122] Setting up conv1_relu
I0527 21:00:37.160148 12761 net.cpp:129] Top shape: 50 64 112 112 (40140800)
I0527 21:00:37.160154 12761 net.cpp:137] Memory required for data: 732569800
I0527 21:00:37.160161 12761 layer_factory.hpp:77] Creating layer conv1_pool
I0527 21:00:37.160177 12761 net.cpp:84] Creating Layer conv1_pool
I0527 21:00:37.160185 12761 net.cpp:406] conv1_pool <- conv1
I0527 21:00:37.160197 12761 net.cpp:380] conv1_pool -> conv1_pool
I0527 21:00:37.160256 12761 net.cpp:122] Setting up conv1_pool
I0527 21:00:37.160269 12761 net.cpp:129] Top shape: 50 64 56 56 (10035200)
I0527 21:00:37.160274 12761 net.cpp:137] Memory required for data: 772710600
I0527 21:00:37.160284 12761 layer_factory.hpp:77] Creating layer conv1_pool_conv1_pool_0_split
I0527 21:00:37.160298 12761 net.cpp:84] Creating Layer conv1_pool_conv1_pool_0_split
I0527 21:00:37.160305 12761 net.cpp:406] conv1_pool_conv1_pool_0_split <- conv1_pool
I0527 21:00:37.160315 12761 net.cpp:380] conv1_pool_conv1_pool_0_split -> conv1_pool_conv1_pool_0_split_0
I0527 21:00:37.160328 12761 net.cpp:380] conv1_pool_conv1_pool_0_split -> conv1_pool_conv1_pool_0_split_1
I0527 21:00:37.160372 12761 net.cpp:122] Setting up conv1_pool_conv1_pool_0_split
I0527 21:00:37.160382 12761 net.cpp:129] Top shape: 50 64 56 56 (10035200)
I0527 21:00:37.160390 12761 net.cpp:129] Top shape: 50 64 56 56 (10035200)
I0527 21:00:37.160398 12761 net.cpp:137] Memory required for data: 852992200
I0527 21:00:37.160404 12761 layer_factory.hpp:77] Creating layer layer_64_1_conv1
I0527 21:00:37.160425 12761 net.cpp:84] Creating Layer layer_64_1_conv1
I0527 21:00:37.160432 12761 net.cpp:406] layer_64_1_conv1 <- conv1_pool_conv1_pool_0_split_0
I0527 21:00:37.160444 12761 net.cpp:380] layer_64_1_conv1 -> layer_64_1_conv1
I0527 21:00:37.162148 12761 net.cpp:122] Setting up layer_64_1_conv1
I0527 21:00:37.162194 12761 net.cpp:129] Top shape: 50 64 56 56 (10035200)
I0527 21:00:37.162200 12761 net.cpp:137] Memory required for data: 893133000
I0527 21:00:37.162246 12761 layer_factory.hpp:77] Creating layer layer_64_1_bn2
I0527 21:00:37.162267 12761 net.cpp:84] Creating Layer layer_64_1_bn2
I0527 21:00:37.162278 12761 net.cpp:406] layer_64_1_bn2 <- layer_64_1_conv1
I0527 21:00:37.162293 12761 net.cpp:367] layer_64_1_bn2 -> layer_64_1_conv1 (in-place)
I0527 21:00:37.163388 12761 net.cpp:122] Setting up layer_64_1_bn2
I0527 21:00:37.163421 12761 net.cpp:129] Top shape: 50 64 56 56 (10035200)
I0527 21:00:37.163427 12761 net.cpp:137] Memory required for data: 933273800
I0527 21:00:37.163446 12761 layer_factory.hpp:77] Creating layer layer_64_1_scale2
I0527 21:00:37.163463 12761 net.cpp:84] Creating Layer layer_64_1_scale2
I0527 21:00:37.163471 12761 net.cpp:406] layer_64_1_scale2 <- layer_64_1_conv1
I0527 21:00:37.163481 12761 net.cpp:367] layer_64_1_scale2 -> layer_64_1_conv1 (in-place)
I0527 21:00:37.163556 12761 layer_factory.hpp:77] Creating layer layer_64_1_scale2
I0527 21:00:37.163688 12761 net.cpp:122] Setting up layer_64_1_scale2
I0527 21:00:37.163702 12761 net.cpp:129] Top shape: 50 64 56 56 (10035200)
I0527 21:00:37.163709 12761 net.cpp:137] Memory required for data: 973414600
I0527 21:00:37.163729 12761 layer_factory.hpp:77] Creating layer layer_64_1_relu2
I0527 21:00:37.163743 12761 net.cpp:84] Creating Layer layer_64_1_relu2
I0527 21:00:37.163750 12761 net.cpp:406] layer_64_1_relu2 <- layer_64_1_conv1
I0527 21:00:37.163763 12761 net.cpp:367] layer_64_1_relu2 -> layer_64_1_conv1 (in-place)
I0527 21:00:37.164659 12761 net.cpp:122] Setting up layer_64_1_relu2
I0527 21:00:37.164698 12761 net.cpp:129] Top shape: 50 64 56 56 (10035200)
I0527 21:00:37.164707 12761 net.cpp:137] Memory required for data: 1013555400
I0527 21:00:37.164716 12761 layer_factory.hpp:77] Creating layer layer_64_1_conv2
I0527 21:00:37.164741 12761 net.cpp:84] Creating Layer layer_64_1_conv2
I0527 21:00:37.164750 12761 net.cpp:406] layer_64_1_conv2 <- layer_64_1_conv1
I0527 21:00:37.164764 12761 net.cpp:380] layer_64_1_conv2 -> layer_64_1_conv2
I0527 21:00:37.165877 12761 net.cpp:122] Setting up layer_64_1_conv2
I0527 21:00:37.165906 12761 net.cpp:129] Top shape: 50 64 56 56 (10035200)
I0527 21:00:37.165912 12761 net.cpp:137] Memory required for data: 1053696200
I0527 21:00:37.165925 12761 layer_factory.hpp:77] Creating layer layer_64_1_sum
I0527 21:00:37.165938 12761 net.cpp:84] Creating Layer layer_64_1_sum
I0527 21:00:37.165947 12761 net.cpp:406] layer_64_1_sum <- layer_64_1_conv2
I0527 21:00:37.165957 12761 net.cpp:406] layer_64_1_sum <- conv1_pool_conv1_pool_0_split_1
I0527 21:00:37.165966 12761 net.cpp:380] layer_64_1_sum -> layer_64_1_sum
I0527 21:00:37.166012 12761 net.cpp:122] Setting up layer_64_1_sum
I0527 21:00:37.166025 12761 net.cpp:129] Top shape: 50 64 56 56 (10035200)
I0527 21:00:37.166034 12761 net.cpp:137] Memory required for data: 1093837000
I0527 21:00:37.166040 12761 layer_factory.hpp:77] Creating layer layer_64_1_sum_layer_64_1_sum_0_split
I0527 21:00:37.166051 12761 net.cpp:84] Creating Layer layer_64_1_sum_layer_64_1_sum_0_split
I0527 21:00:37.166059 12761 net.cpp:406] layer_64_1_sum_layer_64_1_sum_0_split <- layer_64_1_sum
I0527 21:00:37.166070 12761 net.cpp:380] layer_64_1_sum_layer_64_1_sum_0_split -> layer_64_1_sum_layer_64_1_sum_0_split_0
I0527 21:00:37.166085 12761 net.cpp:380] layer_64_1_sum_layer_64_1_sum_0_split -> layer_64_1_sum_layer_64_1_sum_0_split_1
I0527 21:00:37.166141 12761 net.cpp:122] Setting up layer_64_1_sum_layer_64_1_sum_0_split
I0527 21:00:37.166153 12761 net.cpp:129] Top shape: 50 64 56 56 (10035200)
I0527 21:00:37.166162 12761 net.cpp:129] Top shape: 50 64 56 56 (10035200)
I0527 21:00:37.166169 12761 net.cpp:137] Memory required for data: 1174118600
I0527 21:00:37.166177 12761 layer_factory.hpp:77] Creating layer layer_64_2_bn1
I0527 21:00:37.166193 12761 net.cpp:84] Creating Layer layer_64_2_bn1
I0527 21:00:37.166201 12761 net.cpp:406] layer_64_2_bn1 <- layer_64_1_sum_layer_64_1_sum_0_split_0
I0527 21:00:37.166215 12761 net.cpp:380] layer_64_2_bn1 -> layer_64_2_bn1
I0527 21:00:37.166409 12761 net.cpp:122] Setting up layer_64_2_bn1
I0527 21:00:37.166437 12761 net.cpp:129] Top shape: 50 64 56 56 (10035200)
I0527 21:00:37.166445 12761 net.cpp:137] Memory required for data: 1214259400
I0527 21:00:37.166458 12761 layer_factory.hpp:77] Creating layer layer_64_2_scale1
I0527 21:00:37.166476 12761 net.cpp:84] Creating Layer layer_64_2_scale1
I0527 21:00:37.166484 12761 net.cpp:406] layer_64_2_scale1 <- layer_64_2_bn1
I0527 21:00:37.166493 12761 net.cpp:367] layer_64_2_scale1 -> layer_64_2_bn1 (in-place)
I0527 21:00:37.166563 12761 layer_factory.hpp:77] Creating layer layer_64_2_scale1
I0527 21:00:37.166692 12761 net.cpp:122] Setting up layer_64_2_scale1
I0527 21:00:37.166704 12761 net.cpp:129] Top shape: 50 64 56 56 (10035200)
I0527 21:00:37.166710 12761 net.cpp:137] Memory required for data: 1254400200
I0527 21:00:37.166723 12761 layer_factory.hpp:77] Creating layer layer_64_2_relu1
I0527 21:00:37.166735 12761 net.cpp:84] Creating Layer layer_64_2_relu1
I0527 21:00:37.166745 12761 net.cpp:406] layer_64_2_relu1 <- layer_64_2_bn1
I0527 21:00:37.166755 12761 net.cpp:367] layer_64_2_relu1 -> layer_64_2_bn1 (in-place)
I0527 21:00:37.167651 12761 net.cpp:122] Setting up layer_64_2_relu1
I0527 21:00:37.167693 12761 net.cpp:129] Top shape: 50 64 56 56 (10035200)
I0527 21:00:37.167699 12761 net.cpp:137] Memory required for data: 1294541000
I0527 21:00:37.167707 12761 layer_factory.hpp:77] Creating layer layer_64_2_conv1
I0527 21:00:37.167733 12761 net.cpp:84] Creating Layer layer_64_2_conv1
I0527 21:00:37.167762 12761 net.cpp:406] layer_64_2_conv1 <- layer_64_2_bn1
I0527 21:00:37.167793 12761 net.cpp:380] layer_64_2_conv1 -> layer_64_2_conv1
I0527 21:00:37.169473 12761 net.cpp:122] Setting up layer_64_2_conv1
I0527 21:00:37.169514 12761 net.cpp:129] Top shape: 50 64 56 56 (10035200)
I0527 21:00:37.169522 12761 net.cpp:137] Memory required for data: 1334681800
I0527 21:00:37.169535 12761 layer_factory.hpp:77] Creating layer layer_64_2_bn2
I0527 21:00:37.169551 12761 net.cpp:84] Creating Layer layer_64_2_bn2
I0527 21:00:37.169579 12761 net.cpp:406] layer_64_2_bn2 <- layer_64_2_conv1
I0527 21:00:37.169606 12761 net.cpp:367] layer_64_2_bn2 -> layer_64_2_conv1 (in-place)
I0527 21:00:37.169821 12761 net.cpp:122] Setting up layer_64_2_bn2
I0527 21:00:37.169833 12761 net.cpp:129] Top shape: 50 64 56 56 (10035200)
I0527 21:00:37.169839 12761 net.cpp:137] Memory required for data: 1374822600
I0527 21:00:37.169855 12761 layer_factory.hpp:77] Creating layer layer_64_2_scale2
I0527 21:00:37.169884 12761 net.cpp:84] Creating Layer layer_64_2_scale2
I0527 21:00:37.169895 12761 net.cpp:406] layer_64_2_scale2 <- layer_64_2_conv1
I0527 21:00:37.169905 12761 net.cpp:367] layer_64_2_scale2 -> layer_64_2_conv1 (in-place)
I0527 21:00:37.169981 12761 layer_factory.hpp:77] Creating layer layer_64_2_scale2
I0527 21:00:37.170114 12761 net.cpp:122] Setting up layer_64_2_scale2
I0527 21:00:37.170130 12761 net.cpp:129] Top shape: 50 64 56 56 (10035200)
I0527 21:00:37.170136 12761 net.cpp:137] Memory required for data: 1414963400
I0527 21:00:37.170150 12761 layer_factory.hpp:77] Creating layer layer_64_2_relu2
I0527 21:00:37.170179 12761 net.cpp:84] Creating Layer layer_64_2_relu2
I0527 21:00:37.170191 12761 net.cpp:406] layer_64_2_relu2 <- layer_64_2_conv1
I0527 21:00:37.170202 12761 net.cpp:367] layer_64_2_relu2 -> layer_64_2_conv1 (in-place)
I0527 21:00:37.170428 12761 net.cpp:122] Setting up layer_64_2_relu2
I0527 21:00:37.170441 12761 net.cpp:129] Top shape: 50 64 56 56 (10035200)
I0527 21:00:37.170447 12761 net.cpp:137] Memory required for data: 1455104200
I0527 21:00:37.170454 12761 layer_factory.hpp:77] Creating layer layer_64_2_conv2
I0527 21:00:37.170475 12761 net.cpp:84] Creating Layer layer_64_2_conv2
I0527 21:00:37.170483 12761 net.cpp:406] layer_64_2_conv2 <- layer_64_2_conv1
I0527 21:00:37.170497 12761 net.cpp:380] layer_64_2_conv2 -> layer_64_2_conv2
I0527 21:00:37.172127 12761 net.cpp:122] Setting up layer_64_2_conv2
I0527 21:00:37.172153 12761 net.cpp:129] Top shape: 50 64 56 56 (10035200)
I0527 21:00:37.172159 12761 net.cpp:137] Memory required for data: 1495245000
I0527 21:00:37.172170 12761 layer_factory.hpp:77] Creating layer layer_64_2_sum
I0527 21:00:37.172220 12761 net.cpp:84] Creating Layer layer_64_2_sum
I0527 21:00:37.172243 12761 net.cpp:406] layer_64_2_sum <- layer_64_2_conv2
I0527 21:00:37.172273 12761 net.cpp:406] layer_64_2_sum <- layer_64_1_sum_layer_64_1_sum_0_split_1
I0527 21:00:37.172288 12761 net.cpp:380] layer_64_2_sum -> layer_64_2_sum
I0527 21:00:37.172338 12761 net.cpp:122] Setting up layer_64_2_sum
I0527 21:00:37.172353 12761 net.cpp:129] Top shape: 50 64 56 56 (10035200)
I0527 21:00:37.172360 12761 net.cpp:137] Memory required for data: 1535385800
I0527 21:00:37.172366 12761 layer_factory.hpp:77] Creating layer layer_64_2_sum_layer_64_2_sum_0_split
I0527 21:00:37.172379 12761 net.cpp:84] Creating Layer layer_64_2_sum_layer_64_2_sum_0_split
I0527 21:00:37.172386 12761 net.cpp:406] layer_64_2_sum_layer_64_2_sum_0_split <- layer_64_2_sum
I0527 21:00:37.172399 12761 net.cpp:380] layer_64_2_sum_layer_64_2_sum_0_split -> layer_64_2_sum_layer_64_2_sum_0_split_0
I0527 21:00:37.172418 12761 net.cpp:380] layer_64_2_sum_layer_64_2_sum_0_split -> layer_64_2_sum_layer_64_2_sum_0_split_1
I0527 21:00:37.172477 12761 net.cpp:122] Setting up layer_64_2_sum_layer_64_2_sum_0_split
I0527 21:00:37.172490 12761 net.cpp:129] Top shape: 50 64 56 56 (10035200)
I0527 21:00:37.172498 12761 net.cpp:129] Top shape: 50 64 56 56 (10035200)
I0527 21:00:37.172507 12761 net.cpp:137] Memory required for data: 1615667400
I0527 21:00:37.172513 12761 layer_factory.hpp:77] Creating layer layer_64_3_bn1
I0527 21:00:37.172528 12761 net.cpp:84] Creating Layer layer_64_3_bn1
I0527 21:00:37.172534 12761 net.cpp:406] layer_64_3_bn1 <- layer_64_2_sum_layer_64_2_sum_0_split_0
I0527 21:00:37.172544 12761 net.cpp:380] layer_64_3_bn1 -> layer_64_3_bn1
I0527 21:00:37.172765 12761 net.cpp:122] Setting up layer_64_3_bn1
I0527 21:00:37.172777 12761 net.cpp:129] Top shape: 50 64 56 56 (10035200)
I0527 21:00:37.172783 12761 net.cpp:137] Memory required for data: 1655808200
I0527 21:00:37.172811 12761 layer_factory.hpp:77] Creating layer layer_64_3_scale1
I0527 21:00:37.172827 12761 net.cpp:84] Creating Layer layer_64_3_scale1
I0527 21:00:37.172835 12761 net.cpp:406] layer_64_3_scale1 <- layer_64_3_bn1
I0527 21:00:37.172850 12761 net.cpp:367] layer_64_3_scale1 -> layer_64_3_bn1 (in-place)
I0527 21:00:37.172917 12761 layer_factory.hpp:77] Creating layer layer_64_3_scale1
I0527 21:00:37.173058 12761 net.cpp:122] Setting up layer_64_3_scale1
I0527 21:00:37.173071 12761 net.cpp:129] Top shape: 50 64 56 56 (10035200)
I0527 21:00:37.173079 12761 net.cpp:137] Memory required for data: 1695949000
I0527 21:00:37.173089 12761 layer_factory.hpp:77] Creating layer layer_64_3_relu1
I0527 21:00:37.173120 12761 net.cpp:84] Creating Layer layer_64_3_relu1
I0527 21:00:37.173130 12761 net.cpp:406] layer_64_3_relu1 <- layer_64_3_bn1
I0527 21:00:37.173142 12761 net.cpp:367] layer_64_3_relu1 -> layer_64_3_bn1 (in-place)
I0527 21:00:37.173364 12761 net.cpp:122] Setting up layer_64_3_relu1
I0527 21:00:37.173377 12761 net.cpp:129] Top shape: 50 64 56 56 (10035200)
I0527 21:00:37.173383 12761 net.cpp:137] Memory required for data: 1736089800
I0527 21:00:37.173390 12761 layer_factory.hpp:77] Creating layer layer_64_3_conv1
I0527 21:00:37.173411 12761 net.cpp:84] Creating Layer layer_64_3_conv1
I0527 21:00:37.173420 12761 net.cpp:406] layer_64_3_conv1 <- layer_64_3_bn1
I0527 21:00:37.173432 12761 net.cpp:380] layer_64_3_conv1 -> layer_64_3_conv1
I0527 21:00:37.175652 12761 net.cpp:122] Setting up layer_64_3_conv1
I0527 21:00:37.175691 12761 net.cpp:129] Top shape: 50 64 56 56 (10035200)
I0527 21:00:37.175698 12761 net.cpp:137] Memory required for data: 1776230600
I0527 21:00:37.175710 12761 layer_factory.hpp:77] Creating layer layer_64_3_bn2
I0527 21:00:37.175725 12761 net.cpp:84] Creating Layer layer_64_3_bn2
I0527 21:00:37.175753 12761 net.cpp:406] layer_64_3_bn2 <- layer_64_3_conv1
I0527 21:00:37.175781 12761 net.cpp:367] layer_64_3_bn2 -> layer_64_3_conv1 (in-place)
I0527 21:00:37.175987 12761 net.cpp:122] Setting up layer_64_3_bn2
I0527 21:00:37.175999 12761 net.cpp:129] Top shape: 50 64 56 56 (10035200)
I0527 21:00:37.176020 12761 net.cpp:137] Memory required for data: 1816371400
I0527 21:00:37.176049 12761 layer_factory.hpp:77] Creating layer layer_64_3_scale2
I0527 21:00:37.176077 12761 net.cpp:84] Creating Layer layer_64_3_scale2
I0527 21:00:37.176100 12761 net.cpp:406] layer_64_3_scale2 <- layer_64_3_conv1
I0527 21:00:37.176129 12761 net.cpp:367] layer_64_3_scale2 -> layer_64_3_conv1 (in-place)
I0527 21:00:37.176196 12761 layer_factory.hpp:77] Creating layer layer_64_3_scale2
I0527 21:00:37.176324 12761 net.cpp:122] Setting up layer_64_3_scale2
I0527 21:00:37.176337 12761 net.cpp:129] Top shape: 50 64 56 56 (10035200)
I0527 21:00:37.176343 12761 net.cpp:137] Memory required for data: 1856512200
I0527 21:00:37.176355 12761 layer_factory.hpp:77] Creating layer layer_64_3_relu2
I0527 21:00:37.176393 12761 net.cpp:84] Creating Layer layer_64_3_relu2
I0527 21:00:37.176401 12761 net.cpp:406] layer_64_3_relu2 <- layer_64_3_conv1
I0527 21:00:37.176411 12761 net.cpp:367] layer_64_3_relu2 -> layer_64_3_conv1 (in-place)
I0527 21:00:37.176606 12761 net.cpp:122] Setting up layer_64_3_relu2
I0527 21:00:37.176620 12761 net.cpp:129] Top shape: 50 64 56 56 (10035200)
I0527 21:00:37.176625 12761 net.cpp:137] Memory required for data: 1896653000
I0527 21:00:37.176631 12761 layer_factory.hpp:77] Creating layer layer_64_3_conv2
I0527 21:00:37.176664 12761 net.cpp:84] Creating Layer layer_64_3_conv2
I0527 21:00:37.176676 12761 net.cpp:406] layer_64_3_conv2 <- layer_64_3_conv1
I0527 21:00:37.176690 12761 net.cpp:380] layer_64_3_conv2 -> layer_64_3_conv2
I0527 21:00:37.178283 12761 net.cpp:122] Setting up layer_64_3_conv2
I0527 21:00:37.178313 12761 net.cpp:129] Top shape: 50 64 56 56 (10035200)
I0527 21:00:37.178319 12761 net.cpp:137] Memory required for data: 1936793800
I0527 21:00:37.178331 12761 layer_factory.hpp:77] Creating layer layer_64_3_sum
I0527 21:00:37.178362 12761 net.cpp:84] Creating Layer layer_64_3_sum
I0527 21:00:37.178385 12761 net.cpp:406] layer_64_3_sum <- layer_64_3_conv2
I0527 21:00:37.178411 12761 net.cpp:406] layer_64_3_sum <- layer_64_2_sum_layer_64_2_sum_0_split_1
I0527 21:00:37.178439 12761 net.cpp:380] layer_64_3_sum -> layer_64_3_sum
I0527 21:00:37.178483 12761 net.cpp:122] Setting up layer_64_3_sum
I0527 21:00:37.178501 12761 net.cpp:129] Top shape: 50 64 56 56 (10035200)
I0527 21:00:37.178508 12761 net.cpp:137] Memory required for data: 1976934600
I0527 21:00:37.178527 12761 layer_factory.hpp:77] Creating layer layer_128_1_bn1
I0527 21:00:37.178553 12761 net.cpp:84] Creating Layer layer_128_1_bn1
I0527 21:00:37.178575 12761 net.cpp:406] layer_128_1_bn1 <- layer_64_3_sum
I0527 21:00:37.178603 12761 net.cpp:380] layer_128_1_bn1 -> layer_128_1_bn1
I0527 21:00:37.178807 12761 net.cpp:122] Setting up layer_128_1_bn1
I0527 21:00:37.178820 12761 net.cpp:129] Top shape: 50 64 56 56 (10035200)
I0527 21:00:37.178827 12761 net.cpp:137] Memory required for data: 2017075400
I0527 21:00:37.178841 12761 layer_factory.hpp:77] Creating layer layer_128_1_scale1
I0527 21:00:37.178855 12761 net.cpp:84] Creating Layer layer_128_1_scale1
I0527 21:00:37.178864 12761 net.cpp:406] layer_128_1_scale1 <- layer_128_1_bn1
I0527 21:00:37.178874 12761 net.cpp:367] layer_128_1_scale1 -> layer_128_1_bn1 (in-place)
I0527 21:00:37.178942 12761 layer_factory.hpp:77] Creating layer layer_128_1_scale1
I0527 21:00:37.179069 12761 net.cpp:122] Setting up layer_128_1_scale1
I0527 21:00:37.179082 12761 net.cpp:129] Top shape: 50 64 56 56 (10035200)
I0527 21:00:37.179090 12761 net.cpp:137] Memory required for data: 2057216200
I0527 21:00:37.179114 12761 layer_factory.hpp:77] Creating layer layer_128_1_relu1
I0527 21:00:37.179141 12761 net.cpp:84] Creating Layer layer_128_1_relu1
I0527 21:00:37.179164 12761 net.cpp:406] layer_128_1_relu1 <- layer_128_1_bn1
I0527 21:00:37.179189 12761 net.cpp:367] layer_128_1_relu1 -> layer_128_1_bn1 (in-place)
I0527 21:00:37.179363 12761 net.cpp:122] Setting up layer_128_1_relu1
I0527 21:00:37.179376 12761 net.cpp:129] Top shape: 50 64 56 56 (10035200)
I0527 21:00:37.179419 12761 net.cpp:137] Memory required for data: 2097357000
I0527 21:00:37.179428 12761 layer_factory.hpp:77] Creating layer layer_128_1_bn1_layer_128_1_relu1_0_split
I0527 21:00:37.179440 12761 net.cpp:84] Creating Layer layer_128_1_bn1_layer_128_1_relu1_0_split
I0527 21:00:37.179460 12761 net.cpp:406] layer_128_1_bn1_layer_128_1_relu1_0_split <- layer_128_1_bn1
I0527 21:00:37.179488 12761 net.cpp:380] layer_128_1_bn1_layer_128_1_relu1_0_split -> layer_128_1_bn1_layer_128_1_relu1_0_split_0
I0527 21:00:37.179517 12761 net.cpp:380] layer_128_1_bn1_layer_128_1_relu1_0_split -> layer_128_1_bn1_layer_128_1_relu1_0_split_1
I0527 21:00:37.179580 12761 net.cpp:122] Setting up layer_128_1_bn1_layer_128_1_relu1_0_split
I0527 21:00:37.179594 12761 net.cpp:129] Top shape: 50 64 56 56 (10035200)
I0527 21:00:37.179601 12761 net.cpp:129] Top shape: 50 64 56 56 (10035200)
I0527 21:00:37.179620 12761 net.cpp:137] Memory required for data: 2177638600
I0527 21:00:37.179642 12761 layer_factory.hpp:77] Creating layer layer_128_1_conv1
I0527 21:00:37.179674 12761 net.cpp:84] Creating Layer layer_128_1_conv1
I0527 21:00:37.179683 12761 net.cpp:406] layer_128_1_conv1 <- layer_128_1_bn1_layer_128_1_relu1_0_split_0
I0527 21:00:37.179698 12761 net.cpp:380] layer_128_1_conv1 -> layer_128_1_conv1
I0527 21:00:37.182261 12761 net.cpp:122] Setting up layer_128_1_conv1
I0527 21:00:37.182328 12761 net.cpp:129] Top shape: 50 128 28 28 (5017600)
I0527 21:00:37.182346 12761 net.cpp:137] Memory required for data: 2197709000
I0527 21:00:37.182368 12761 layer_factory.hpp:77] Creating layer layer_128_1_bn2
I0527 21:00:37.182394 12761 net.cpp:84] Creating Layer layer_128_1_bn2
I0527 21:00:37.182413 12761 net.cpp:406] layer_128_1_bn2 <- layer_128_1_conv1
I0527 21:00:37.182435 12761 net.cpp:367] layer_128_1_bn2 -> layer_128_1_conv1 (in-place)
I0527 21:00:37.183717 12761 net.cpp:122] Setting up layer_128_1_bn2
I0527 21:00:37.183751 12761 net.cpp:129] Top shape: 50 128 28 28 (5017600)
I0527 21:00:37.183770 12761 net.cpp:137] Memory required for data: 2217779400
I0527 21:00:37.183794 12761 layer_factory.hpp:77] Creating layer layer_128_1_scale2
I0527 21:00:37.183818 12761 net.cpp:84] Creating Layer layer_128_1_scale2
I0527 21:00:37.183836 12761 net.cpp:406] layer_128_1_scale2 <- layer_128_1_conv1
I0527 21:00:37.183857 12761 net.cpp:367] layer_128_1_scale2 -> layer_128_1_conv1 (in-place)
I0527 21:00:37.183935 12761 layer_factory.hpp:77] Creating layer layer_128_1_scale2
I0527 21:00:37.184093 12761 net.cpp:122] Setting up layer_128_1_scale2
I0527 21:00:37.184119 12761 net.cpp:129] Top shape: 50 128 28 28 (5017600)
I0527 21:00:37.184136 12761 net.cpp:137] Memory required for data: 2237849800
I0527 21:00:37.184159 12761 layer_factory.hpp:77] Creating layer layer_128_1_relu2
I0527 21:00:37.184180 12761 net.cpp:84] Creating Layer layer_128_1_relu2
I0527 21:00:37.184195 12761 net.cpp:406] layer_128_1_relu2 <- layer_128_1_conv1
I0527 21:00:37.184217 12761 net.cpp:367] layer_128_1_relu2 -> layer_128_1_conv1 (in-place)
I0527 21:00:37.185082 12761 net.cpp:122] Setting up layer_128_1_relu2
I0527 21:00:37.185097 12761 net.cpp:129] Top shape: 50 128 28 28 (5017600)
I0527 21:00:37.185104 12761 net.cpp:137] Memory required for data: 2257920200
I0527 21:00:37.185111 12761 layer_factory.hpp:77] Creating layer layer_128_1_conv2
I0527 21:00:37.185129 12761 net.cpp:84] Creating Layer layer_128_1_conv2
I0527 21:00:37.185137 12761 net.cpp:406] layer_128_1_conv2 <- layer_128_1_conv1
I0527 21:00:37.185148 12761 net.cpp:380] layer_128_1_conv2 -> layer_128_1_conv2
I0527 21:00:37.189157 12761 net.cpp:122] Setting up layer_128_1_conv2
I0527 21:00:37.189174 12761 net.cpp:129] Top shape: 50 128 28 28 (5017600)
I0527 21:00:37.189182 12761 net.cpp:137] Memory required for data: 2277990600
I0527 21:00:37.189193 12761 layer_factory.hpp:77] Creating layer layer_128_1_conv_expand
I0527 21:00:37.189213 12761 net.cpp:84] Creating Layer layer_128_1_conv_expand
I0527 21:00:37.189220 12761 net.cpp:406] layer_128_1_conv_expand <- layer_128_1_bn1_layer_128_1_relu1_0_split_1
I0527 21:00:37.189232 12761 net.cpp:380] layer_128_1_conv_expand -> layer_128_1_conv_expand
I0527 21:00:37.193500 12761 net.cpp:122] Setting up layer_128_1_conv_expand
I0527 21:00:37.193518 12761 net.cpp:129] Top shape: 50 128 28 28 (5017600)
I0527 21:00:37.193526 12761 net.cpp:137] Memory required for data: 2298061000
I0527 21:00:37.193536 12761 layer_factory.hpp:77] Creating layer layer_128_1_sum
I0527 21:00:37.193548 12761 net.cpp:84] Creating Layer layer_128_1_sum
I0527 21:00:37.193554 12761 net.cpp:406] layer_128_1_sum <- layer_128_1_conv_expand
I0527 21:00:37.193562 12761 net.cpp:406] layer_128_1_sum <- layer_128_1_conv2
I0527 21:00:37.193573 12761 net.cpp:380] layer_128_1_sum -> layer_128_1_sum
I0527 21:00:37.193609 12761 net.cpp:122] Setting up layer_128_1_sum
I0527 21:00:37.193621 12761 net.cpp:129] Top shape: 50 128 28 28 (5017600)
I0527 21:00:37.193627 12761 net.cpp:137] Memory required for data: 2318131400
I0527 21:00:37.193634 12761 layer_factory.hpp:77] Creating layer layer_128_1_sum_layer_128_1_sum_0_split
I0527 21:00:37.193650 12761 net.cpp:84] Creating Layer layer_128_1_sum_layer_128_1_sum_0_split
I0527 21:00:37.193656 12761 net.cpp:406] layer_128_1_sum_layer_128_1_sum_0_split <- layer_128_1_sum
I0527 21:00:37.193666 12761 net.cpp:380] layer_128_1_sum_layer_128_1_sum_0_split -> layer_128_1_sum_layer_128_1_sum_0_split_0
I0527 21:00:37.193681 12761 net.cpp:380] layer_128_1_sum_layer_128_1_sum_0_split -> layer_128_1_sum_layer_128_1_sum_0_split_1
I0527 21:00:37.193722 12761 net.cpp:122] Setting up layer_128_1_sum_layer_128_1_sum_0_split
I0527 21:00:37.193734 12761 net.cpp:129] Top shape: 50 128 28 28 (5017600)
I0527 21:00:37.193744 12761 net.cpp:129] Top shape: 50 128 28 28 (5017600)
I0527 21:00:37.193752 12761 net.cpp:137] Memory required for data: 2358272200
I0527 21:00:37.193758 12761 layer_factory.hpp:77] Creating layer layer_128_2_bn1
I0527 21:00:37.193773 12761 net.cpp:84] Creating Layer layer_128_2_bn1
I0527 21:00:37.193779 12761 net.cpp:406] layer_128_2_bn1 <- layer_128_1_sum_layer_128_1_sum_0_split_0
I0527 21:00:37.193789 12761 net.cpp:380] layer_128_2_bn1 -> layer_128_2_bn1
I0527 21:00:37.193956 12761 net.cpp:122] Setting up layer_128_2_bn1
I0527 21:00:37.193969 12761 net.cpp:129] Top shape: 50 128 28 28 (5017600)
I0527 21:00:37.193974 12761 net.cpp:137] Memory required for data: 2378342600
I0527 21:00:37.193989 12761 layer_factory.hpp:77] Creating layer layer_128_2_scale1
I0527 21:00:37.194000 12761 net.cpp:84] Creating Layer layer_128_2_scale1
I0527 21:00:37.194007 12761 net.cpp:406] layer_128_2_scale1 <- layer_128_2_bn1
I0527 21:00:37.194020 12761 net.cpp:367] layer_128_2_scale1 -> layer_128_2_bn1 (in-place)
I0527 21:00:37.194073 12761 layer_factory.hpp:77] Creating layer layer_128_2_scale1
I0527 21:00:37.194177 12761 net.cpp:122] Setting up layer_128_2_scale1
I0527 21:00:37.194190 12761 net.cpp:129] Top shape: 50 128 28 28 (5017600)
I0527 21:00:37.194195 12761 net.cpp:137] Memory required for data: 2398413000
I0527 21:00:37.194206 12761 layer_factory.hpp:77] Creating layer layer_128_2_relu1
I0527 21:00:37.194217 12761 net.cpp:84] Creating Layer layer_128_2_relu1
I0527 21:00:37.194226 12761 net.cpp:406] layer_128_2_relu1 <- layer_128_2_bn1
I0527 21:00:37.194236 12761 net.cpp:367] layer_128_2_relu1 -> layer_128_2_bn1 (in-place)
I0527 21:00:37.194867 12761 net.cpp:122] Setting up layer_128_2_relu1
I0527 21:00:37.194881 12761 net.cpp:129] Top shape: 50 128 28 28 (5017600)
I0527 21:00:37.194890 12761 net.cpp:137] Memory required for data: 2418483400
I0527 21:00:37.194900 12761 layer_factory.hpp:77] Creating layer layer_128_2_conv1
I0527 21:00:37.194916 12761 net.cpp:84] Creating Layer layer_128_2_conv1
I0527 21:00:37.194923 12761 net.cpp:406] layer_128_2_conv1 <- layer_128_2_bn1
I0527 21:00:37.194934 12761 net.cpp:380] layer_128_2_conv1 -> layer_128_2_conv1
I0527 21:00:37.200584 12761 net.cpp:122] Setting up layer_128_2_conv1
I0527 21:00:37.200603 12761 net.cpp:129] Top shape: 50 128 28 28 (5017600)
I0527 21:00:37.200609 12761 net.cpp:137] Memory required for data: 2438553800
I0527 21:00:37.200619 12761 layer_factory.hpp:77] Creating layer layer_128_2_bn2
I0527 21:00:37.200644 12761 net.cpp:84] Creating Layer layer_128_2_bn2
I0527 21:00:37.200654 12761 net.cpp:406] layer_128_2_bn2 <- layer_128_2_conv1
I0527 21:00:37.200667 12761 net.cpp:367] layer_128_2_bn2 -> layer_128_2_conv1 (in-place)
I0527 21:00:37.200840 12761 net.cpp:122] Setting up layer_128_2_bn2
I0527 21:00:37.200851 12761 net.cpp:129] Top shape: 50 128 28 28 (5017600)
I0527 21:00:37.200857 12761 net.cpp:137] Memory required for data: 2458624200
I0527 21:00:37.200880 12761 layer_factory.hpp:77] Creating layer layer_128_2_scale2
I0527 21:00:37.200893 12761 net.cpp:84] Creating Layer layer_128_2_scale2
I0527 21:00:37.200901 12761 net.cpp:406] layer_128_2_scale2 <- layer_128_2_conv1
I0527 21:00:37.200911 12761 net.cpp:367] layer_128_2_scale2 -> layer_128_2_conv1 (in-place)
I0527 21:00:37.200971 12761 layer_factory.hpp:77] Creating layer layer_128_2_scale2
I0527 21:00:37.201082 12761 net.cpp:122] Setting up layer_128_2_scale2
I0527 21:00:37.201093 12761 net.cpp:129] Top shape: 50 128 28 28 (5017600)
I0527 21:00:37.201100 12761 net.cpp:137] Memory required for data: 2478694600
I0527 21:00:37.201112 12761 layer_factory.hpp:77] Creating layer layer_128_2_relu2
I0527 21:00:37.201122 12761 net.cpp:84] Creating Layer layer_128_2_relu2
I0527 21:00:37.201130 12761 net.cpp:406] layer_128_2_relu2 <- layer_128_2_conv1
I0527 21:00:37.201139 12761 net.cpp:367] layer_128_2_relu2 -> layer_128_2_conv1 (in-place)
I0527 21:00:37.201299 12761 net.cpp:122] Setting up layer_128_2_relu2
I0527 21:00:37.201311 12761 net.cpp:129] Top shape: 50 128 28 28 (5017600)
I0527 21:00:37.201318 12761 net.cpp:137] Memory required for data: 2498765000
I0527 21:00:37.201323 12761 layer_factory.hpp:77] Creating layer layer_128_2_conv2
I0527 21:00:37.201341 12761 net.cpp:84] Creating Layer layer_128_2_conv2
I0527 21:00:37.201349 12761 net.cpp:406] layer_128_2_conv2 <- layer_128_2_conv1
I0527 21:00:37.201364 12761 net.cpp:380] layer_128_2_conv2 -> layer_128_2_conv2
I0527 21:00:37.206153 12761 net.cpp:122] Setting up layer_128_2_conv2
I0527 21:00:37.206168 12761 net.cpp:129] Top shape: 50 128 28 28 (5017600)
I0527 21:00:37.206176 12761 net.cpp:137] Memory required for data: 2518835400
I0527 21:00:37.206185 12761 layer_factory.hpp:77] Creating layer layer_128_2_sum
I0527 21:00:37.206197 12761 net.cpp:84] Creating Layer layer_128_2_sum
I0527 21:00:37.206208 12761 net.cpp:406] layer_128_2_sum <- layer_128_2_conv2
I0527 21:00:37.206218 12761 net.cpp:406] layer_128_2_sum <- layer_128_1_sum_layer_128_1_sum_0_split_1
I0527 21:00:37.206231 12761 net.cpp:380] layer_128_2_sum -> layer_128_2_sum
I0527 21:00:37.206269 12761 net.cpp:122] Setting up layer_128_2_sum
I0527 21:00:37.206280 12761 net.cpp:129] Top shape: 50 128 28 28 (5017600)
I0527 21:00:37.206286 12761 net.cpp:137] Memory required for data: 2538905800
I0527 21:00:37.206293 12761 layer_factory.hpp:77] Creating layer layer_128_2_sum_layer_128_2_sum_0_split
I0527 21:00:37.206302 12761 net.cpp:84] Creating Layer layer_128_2_sum_layer_128_2_sum_0_split
I0527 21:00:37.206311 12761 net.cpp:406] layer_128_2_sum_layer_128_2_sum_0_split <- layer_128_2_sum
I0527 21:00:37.206323 12761 net.cpp:380] layer_128_2_sum_layer_128_2_sum_0_split -> layer_128_2_sum_layer_128_2_sum_0_split_0
I0527 21:00:37.206336 12761 net.cpp:380] layer_128_2_sum_layer_128_2_sum_0_split -> layer_128_2_sum_layer_128_2_sum_0_split_1
I0527 21:00:37.206384 12761 net.cpp:122] Setting up layer_128_2_sum_layer_128_2_sum_0_split
I0527 21:00:37.206395 12761 net.cpp:129] Top shape: 50 128 28 28 (5017600)
I0527 21:00:37.206404 12761 net.cpp:129] Top shape: 50 128 28 28 (5017600)
I0527 21:00:37.206411 12761 net.cpp:137] Memory required for data: 2579046600
I0527 21:00:37.206418 12761 layer_factory.hpp:77] Creating layer layer_128_3_bn1
I0527 21:00:37.206432 12761 net.cpp:84] Creating Layer layer_128_3_bn1
I0527 21:00:37.206440 12761 net.cpp:406] layer_128_3_bn1 <- layer_128_2_sum_layer_128_2_sum_0_split_0
I0527 21:00:37.206450 12761 net.cpp:380] layer_128_3_bn1 -> layer_128_3_bn1
I0527 21:00:37.206627 12761 net.cpp:122] Setting up layer_128_3_bn1
I0527 21:00:37.206647 12761 net.cpp:129] Top shape: 50 128 28 28 (5017600)
I0527 21:00:37.206655 12761 net.cpp:137] Memory required for data: 2599117000
I0527 21:00:37.206668 12761 layer_factory.hpp:77] Creating layer layer_128_3_scale1
I0527 21:00:37.206679 12761 net.cpp:84] Creating Layer layer_128_3_scale1
I0527 21:00:37.206687 12761 net.cpp:406] layer_128_3_scale1 <- layer_128_3_bn1
I0527 21:00:37.206699 12761 net.cpp:367] layer_128_3_scale1 -> layer_128_3_bn1 (in-place)
I0527 21:00:37.206749 12761 layer_factory.hpp:77] Creating layer layer_128_3_scale1
I0527 21:00:37.206857 12761 net.cpp:122] Setting up layer_128_3_scale1
I0527 21:00:37.206868 12761 net.cpp:129] Top shape: 50 128 28 28 (5017600)
I0527 21:00:37.206874 12761 net.cpp:137] Memory required for data: 2619187400
I0527 21:00:37.206887 12761 layer_factory.hpp:77] Creating layer layer_128_3_relu1
I0527 21:00:37.206897 12761 net.cpp:84] Creating Layer layer_128_3_relu1
I0527 21:00:37.206904 12761 net.cpp:406] layer_128_3_relu1 <- layer_128_3_bn1
I0527 21:00:37.206915 12761 net.cpp:367] layer_128_3_relu1 -> layer_128_3_bn1 (in-place)
I0527 21:00:37.207074 12761 net.cpp:122] Setting up layer_128_3_relu1
I0527 21:00:37.207087 12761 net.cpp:129] Top shape: 50 128 28 28 (5017600)
I0527 21:00:37.207093 12761 net.cpp:137] Memory required for data: 2639257800
I0527 21:00:37.207099 12761 layer_factory.hpp:77] Creating layer layer_128_3_conv1
I0527 21:00:37.207120 12761 net.cpp:84] Creating Layer layer_128_3_conv1
I0527 21:00:37.207128 12761 net.cpp:406] layer_128_3_conv1 <- layer_128_3_bn1
I0527 21:00:37.207139 12761 net.cpp:380] layer_128_3_conv1 -> layer_128_3_conv1
I0527 21:00:37.211804 12761 net.cpp:122] Setting up layer_128_3_conv1
I0527 21:00:37.211822 12761 net.cpp:129] Top shape: 50 128 28 28 (5017600)
I0527 21:00:37.211829 12761 net.cpp:137] Memory required for data: 2659328200
I0527 21:00:37.211838 12761 layer_factory.hpp:77] Creating layer layer_128_3_bn2
I0527 21:00:37.211850 12761 net.cpp:84] Creating Layer layer_128_3_bn2
I0527 21:00:37.211859 12761 net.cpp:406] layer_128_3_bn2 <- layer_128_3_conv1
I0527 21:00:37.211872 12761 net.cpp:367] layer_128_3_bn2 -> layer_128_3_conv1 (in-place)
I0527 21:00:37.212044 12761 net.cpp:122] Setting up layer_128_3_bn2
I0527 21:00:37.212056 12761 net.cpp:129] Top shape: 50 128 28 28 (5017600)
I0527 21:00:37.212062 12761 net.cpp:137] Memory required for data: 2679398600
I0527 21:00:37.212077 12761 layer_factory.hpp:77] Creating layer layer_128_3_scale2
I0527 21:00:37.212088 12761 net.cpp:84] Creating Layer layer_128_3_scale2
I0527 21:00:37.212096 12761 net.cpp:406] layer_128_3_scale2 <- layer_128_3_conv1
I0527 21:00:37.212108 12761 net.cpp:367] layer_128_3_scale2 -> layer_128_3_conv1 (in-place)
I0527 21:00:37.212154 12761 layer_factory.hpp:77] Creating layer layer_128_3_scale2
I0527 21:00:37.212261 12761 net.cpp:122] Setting up layer_128_3_scale2
I0527 21:00:37.212275 12761 net.cpp:129] Top shape: 50 128 28 28 (5017600)
I0527 21:00:37.212282 12761 net.cpp:137] Memory required for data: 2699469000
I0527 21:00:37.212293 12761 layer_factory.hpp:77] Creating layer layer_128_3_relu2
I0527 21:00:37.212304 12761 net.cpp:84] Creating Layer layer_128_3_relu2
I0527 21:00:37.212312 12761 net.cpp:406] layer_128_3_relu2 <- layer_128_3_conv1
I0527 21:00:37.212321 12761 net.cpp:367] layer_128_3_relu2 -> layer_128_3_conv1 (in-place)
I0527 21:00:37.212484 12761 net.cpp:122] Setting up layer_128_3_relu2
I0527 21:00:37.212496 12761 net.cpp:129] Top shape: 50 128 28 28 (5017600)
I0527 21:00:37.212502 12761 net.cpp:137] Memory required for data: 2719539400
I0527 21:00:37.212508 12761 layer_factory.hpp:77] Creating layer layer_128_3_conv2
I0527 21:00:37.212535 12761 net.cpp:84] Creating Layer layer_128_3_conv2
I0527 21:00:37.212543 12761 net.cpp:406] layer_128_3_conv2 <- layer_128_3_conv1
I0527 21:00:37.212554 12761 net.cpp:380] layer_128_3_conv2 -> layer_128_3_conv2
I0527 21:00:37.217495 12761 net.cpp:122] Setting up layer_128_3_conv2
I0527 21:00:37.217514 12761 net.cpp:129] Top shape: 50 128 28 28 (5017600)
I0527 21:00:37.217520 12761 net.cpp:137] Memory required for data: 2739609800
I0527 21:00:37.217546 12761 layer_factory.hpp:77] Creating layer layer_128_3_sum
I0527 21:00:37.217561 12761 net.cpp:84] Creating Layer layer_128_3_sum
I0527 21:00:37.217569 12761 net.cpp:406] layer_128_3_sum <- layer_128_3_conv2
I0527 21:00:37.217579 12761 net.cpp:406] layer_128_3_sum <- layer_128_2_sum_layer_128_2_sum_0_split_1
I0527 21:00:37.217592 12761 net.cpp:380] layer_128_3_sum -> layer_128_3_sum
I0527 21:00:37.217629 12761 net.cpp:122] Setting up layer_128_3_sum
I0527 21:00:37.217640 12761 net.cpp:129] Top shape: 50 128 28 28 (5017600)
I0527 21:00:37.217646 12761 net.cpp:137] Memory required for data: 2759680200
I0527 21:00:37.217653 12761 layer_factory.hpp:77] Creating layer layer_128_3_sum_layer_128_3_sum_0_split
I0527 21:00:37.217669 12761 net.cpp:84] Creating Layer layer_128_3_sum_layer_128_3_sum_0_split
I0527 21:00:37.217675 12761 net.cpp:406] layer_128_3_sum_layer_128_3_sum_0_split <- layer_128_3_sum
I0527 21:00:37.217685 12761 net.cpp:380] layer_128_3_sum_layer_128_3_sum_0_split -> layer_128_3_sum_layer_128_3_sum_0_split_0
I0527 21:00:37.217700 12761 net.cpp:380] layer_128_3_sum_layer_128_3_sum_0_split -> layer_128_3_sum_layer_128_3_sum_0_split_1
I0527 21:00:37.217744 12761 net.cpp:122] Setting up layer_128_3_sum_layer_128_3_sum_0_split
I0527 21:00:37.217756 12761 net.cpp:129] Top shape: 50 128 28 28 (5017600)
I0527 21:00:37.217764 12761 net.cpp:129] Top shape: 50 128 28 28 (5017600)
I0527 21:00:37.217772 12761 net.cpp:137] Memory required for data: 2799821000
I0527 21:00:37.217778 12761 layer_factory.hpp:77] Creating layer layer_128_4_bn1
I0527 21:00:37.217792 12761 net.cpp:84] Creating Layer layer_128_4_bn1
I0527 21:00:37.217799 12761 net.cpp:406] layer_128_4_bn1 <- layer_128_3_sum_layer_128_3_sum_0_split_0
I0527 21:00:37.217811 12761 net.cpp:380] layer_128_4_bn1 -> layer_128_4_bn1
I0527 21:00:37.217993 12761 net.cpp:122] Setting up layer_128_4_bn1
I0527 21:00:37.218004 12761 net.cpp:129] Top shape: 50 128 28 28 (5017600)
I0527 21:00:37.218010 12761 net.cpp:137] Memory required for data: 2819891400
I0527 21:00:37.218024 12761 layer_factory.hpp:77] Creating layer layer_128_4_scale1
I0527 21:00:37.218035 12761 net.cpp:84] Creating Layer layer_128_4_scale1
I0527 21:00:37.218044 12761 net.cpp:406] layer_128_4_scale1 <- layer_128_4_bn1
I0527 21:00:37.218053 12761 net.cpp:367] layer_128_4_scale1 -> layer_128_4_bn1 (in-place)
I0527 21:00:37.218106 12761 layer_factory.hpp:77] Creating layer layer_128_4_scale1
I0527 21:00:37.218216 12761 net.cpp:122] Setting up layer_128_4_scale1
I0527 21:00:37.218228 12761 net.cpp:129] Top shape: 50 128 28 28 (5017600)
I0527 21:00:37.218235 12761 net.cpp:137] Memory required for data: 2839961800
I0527 21:00:37.218245 12761 layer_factory.hpp:77] Creating layer layer_128_4_relu1
I0527 21:00:37.218255 12761 net.cpp:84] Creating Layer layer_128_4_relu1
I0527 21:00:37.218263 12761 net.cpp:406] layer_128_4_relu1 <- layer_128_4_bn1
I0527 21:00:37.218276 12761 net.cpp:367] layer_128_4_relu1 -> layer_128_4_bn1 (in-place)
I0527 21:00:37.218432 12761 net.cpp:122] Setting up layer_128_4_relu1
I0527 21:00:37.218446 12761 net.cpp:129] Top shape: 50 128 28 28 (5017600)
I0527 21:00:37.218452 12761 net.cpp:137] Memory required for data: 2860032200
I0527 21:00:37.218461 12761 layer_factory.hpp:77] Creating layer layer_128_4_conv1
I0527 21:00:37.218475 12761 net.cpp:84] Creating Layer layer_128_4_conv1
I0527 21:00:37.218482 12761 net.cpp:406] layer_128_4_conv1 <- layer_128_4_bn1
I0527 21:00:37.218493 12761 net.cpp:380] layer_128_4_conv1 -> layer_128_4_conv1
I0527 21:00:37.223139 12761 net.cpp:122] Setting up layer_128_4_conv1
I0527 21:00:37.223157 12761 net.cpp:129] Top shape: 50 128 28 28 (5017600)
I0527 21:00:37.223165 12761 net.cpp:137] Memory required for data: 2880102600
I0527 21:00:37.223176 12761 layer_factory.hpp:77] Creating layer layer_128_4_bn2
I0527 21:00:37.223211 12761 net.cpp:84] Creating Layer layer_128_4_bn2
I0527 21:00:37.223219 12761 net.cpp:406] layer_128_4_bn2 <- layer_128_4_conv1
I0527 21:00:37.223232 12761 net.cpp:367] layer_128_4_bn2 -> layer_128_4_conv1 (in-place)
I0527 21:00:37.223426 12761 net.cpp:122] Setting up layer_128_4_bn2
I0527 21:00:37.223438 12761 net.cpp:129] Top shape: 50 128 28 28 (5017600)
I0527 21:00:37.223444 12761 net.cpp:137] Memory required for data: 2900173000
I0527 21:00:37.223459 12761 layer_factory.hpp:77] Creating layer layer_128_4_scale2
I0527 21:00:37.223475 12761 net.cpp:84] Creating Layer layer_128_4_scale2
I0527 21:00:37.223484 12761 net.cpp:406] layer_128_4_scale2 <- layer_128_4_conv1
I0527 21:00:37.223493 12761 net.cpp:367] layer_128_4_scale2 -> layer_128_4_conv1 (in-place)
I0527 21:00:37.223546 12761 layer_factory.hpp:77] Creating layer layer_128_4_scale2
I0527 21:00:37.223688 12761 net.cpp:122] Setting up layer_128_4_scale2
I0527 21:00:37.223716 12761 net.cpp:129] Top shape: 50 128 28 28 (5017600)
I0527 21:00:37.223724 12761 net.cpp:137] Memory required for data: 2920243400
I0527 21:00:37.223737 12761 layer_factory.hpp:77] Creating layer layer_128_4_relu2
I0527 21:00:37.223749 12761 net.cpp:84] Creating Layer layer_128_4_relu2
I0527 21:00:37.223757 12761 net.cpp:406] layer_128_4_relu2 <- layer_128_4_conv1
I0527 21:00:37.223767 12761 net.cpp:367] layer_128_4_relu2 -> layer_128_4_conv1 (in-place)
I0527 21:00:37.223934 12761 net.cpp:122] Setting up layer_128_4_relu2
I0527 21:00:37.223948 12761 net.cpp:129] Top shape: 50 128 28 28 (5017600)
I0527 21:00:37.223953 12761 net.cpp:137] Memory required for data: 2940313800
I0527 21:00:37.223960 12761 layer_factory.hpp:77] Creating layer layer_128_4_conv2
I0527 21:00:37.223976 12761 net.cpp:84] Creating Layer layer_128_4_conv2
I0527 21:00:37.223984 12761 net.cpp:406] layer_128_4_conv2 <- layer_128_4_conv1
I0527 21:00:37.223997 12761 net.cpp:380] layer_128_4_conv2 -> layer_128_4_conv2
I0527 21:00:37.230706 12761 net.cpp:122] Setting up layer_128_4_conv2
I0527 21:00:37.230723 12761 net.cpp:129] Top shape: 50 128 28 28 (5017600)
I0527 21:00:37.230729 12761 net.cpp:137] Memory required for data: 2960384200
I0527 21:00:37.230741 12761 layer_factory.hpp:77] Creating layer layer_128_4_sum
I0527 21:00:37.230751 12761 net.cpp:84] Creating Layer layer_128_4_sum
I0527 21:00:37.230757 12761 net.cpp:406] layer_128_4_sum <- layer_128_4_conv2
I0527 21:00:37.230764 12761 net.cpp:406] layer_128_4_sum <- layer_128_3_sum_layer_128_3_sum_0_split_1
I0527 21:00:37.230777 12761 net.cpp:380] layer_128_4_sum -> layer_128_4_sum
I0527 21:00:37.230818 12761 net.cpp:122] Setting up layer_128_4_sum
I0527 21:00:37.230830 12761 net.cpp:129] Top shape: 50 128 28 28 (5017600)
I0527 21:00:37.230837 12761 net.cpp:137] Memory required for data: 2980454600
I0527 21:00:37.230844 12761 layer_factory.hpp:77] Creating layer layer_256_1_bn1
I0527 21:00:37.230854 12761 net.cpp:84] Creating Layer layer_256_1_bn1
I0527 21:00:37.230861 12761 net.cpp:406] layer_256_1_bn1 <- layer_128_4_sum
I0527 21:00:37.230872 12761 net.cpp:380] layer_256_1_bn1 -> layer_256_1_bn1
I0527 21:00:37.231066 12761 net.cpp:122] Setting up layer_256_1_bn1
I0527 21:00:37.231078 12761 net.cpp:129] Top shape: 50 128 28 28 (5017600)
I0527 21:00:37.231084 12761 net.cpp:137] Memory required for data: 3000525000
I0527 21:00:37.231097 12761 layer_factory.hpp:77] Creating layer layer_256_1_scale1
I0527 21:00:37.231112 12761 net.cpp:84] Creating Layer layer_256_1_scale1
I0527 21:00:37.231118 12761 net.cpp:406] layer_256_1_scale1 <- layer_256_1_bn1
I0527 21:00:37.231128 12761 net.cpp:367] layer_256_1_scale1 -> layer_256_1_bn1 (in-place)
I0527 21:00:37.231196 12761 layer_factory.hpp:77] Creating layer layer_256_1_scale1
I0527 21:00:37.231384 12761 net.cpp:122] Setting up layer_256_1_scale1
I0527 21:00:37.231396 12761 net.cpp:129] Top shape: 50 128 28 28 (5017600)
I0527 21:00:37.231402 12761 net.cpp:137] Memory required for data: 3020595400
I0527 21:00:37.231413 12761 layer_factory.hpp:77] Creating layer layer_256_1_relu1
I0527 21:00:37.231426 12761 net.cpp:84] Creating Layer layer_256_1_relu1
I0527 21:00:37.231433 12761 net.cpp:406] layer_256_1_relu1 <- layer_256_1_bn1
I0527 21:00:37.231443 12761 net.cpp:367] layer_256_1_relu1 -> layer_256_1_bn1 (in-place)
I0527 21:00:37.232717 12761 net.cpp:122] Setting up layer_256_1_relu1
I0527 21:00:37.232730 12761 net.cpp:129] Top shape: 50 128 28 28 (5017600)
I0527 21:00:37.232738 12761 net.cpp:137] Memory required for data: 3040665800
I0527 21:00:37.232743 12761 layer_factory.hpp:77] Creating layer layer_256_1_bn1_layer_256_1_relu1_0_split
I0527 21:00:37.232753 12761 net.cpp:84] Creating Layer layer_256_1_bn1_layer_256_1_relu1_0_split
I0527 21:00:37.232760 12761 net.cpp:406] layer_256_1_bn1_layer_256_1_relu1_0_split <- layer_256_1_bn1
I0527 21:00:37.232774 12761 net.cpp:380] layer_256_1_bn1_layer_256_1_relu1_0_split -> layer_256_1_bn1_layer_256_1_relu1_0_split_0
I0527 21:00:37.232787 12761 net.cpp:380] layer_256_1_bn1_layer_256_1_relu1_0_split -> layer_256_1_bn1_layer_256_1_relu1_0_split_1
I0527 21:00:37.232853 12761 net.cpp:122] Setting up layer_256_1_bn1_layer_256_1_relu1_0_split
I0527 21:00:37.232866 12761 net.cpp:129] Top shape: 50 128 28 28 (5017600)
I0527 21:00:37.232874 12761 net.cpp:129] Top shape: 50 128 28 28 (5017600)
I0527 21:00:37.232880 12761 net.cpp:137] Memory required for data: 3080806600
I0527 21:00:37.232887 12761 layer_factory.hpp:77] Creating layer layer_256_1_conv1
I0527 21:00:37.232903 12761 net.cpp:84] Creating Layer layer_256_1_conv1
I0527 21:00:37.232913 12761 net.cpp:406] layer_256_1_conv1 <- layer_256_1_bn1_layer_256_1_relu1_0_split_0
I0527 21:00:37.232930 12761 net.cpp:380] layer_256_1_conv1 -> layer_256_1_conv1
I0527 21:00:37.240483 12761 net.cpp:122] Setting up layer_256_1_conv1
I0527 21:00:37.240500 12761 net.cpp:129] Top shape: 50 256 14 14 (2508800)
I0527 21:00:37.240506 12761 net.cpp:137] Memory required for data: 3090841800
I0527 21:00:37.240528 12761 layer_factory.hpp:77] Creating layer layer_256_1_bn2
I0527 21:00:37.240545 12761 net.cpp:84] Creating Layer layer_256_1_bn2
I0527 21:00:37.240552 12761 net.cpp:406] layer_256_1_bn2 <- layer_256_1_conv1
I0527 21:00:37.240562 12761 net.cpp:367] layer_256_1_bn2 -> layer_256_1_conv1 (in-place)
I0527 21:00:37.240768 12761 net.cpp:122] Setting up layer_256_1_bn2
I0527 21:00:37.240777 12761 net.cpp:129] Top shape: 50 256 14 14 (2508800)
I0527 21:00:37.240792 12761 net.cpp:137] Memory required for data: 3100877000
I0527 21:00:37.240800 12761 layer_factory.hpp:77] Creating layer layer_256_1_scale2
I0527 21:00:37.240808 12761 net.cpp:84] Creating Layer layer_256_1_scale2
I0527 21:00:37.240810 12761 net.cpp:406] layer_256_1_scale2 <- layer_256_1_conv1
I0527 21:00:37.240815 12761 net.cpp:367] layer_256_1_scale2 -> layer_256_1_conv1 (in-place)
I0527 21:00:37.240881 12761 layer_factory.hpp:77] Creating layer layer_256_1_scale2
I0527 21:00:37.241020 12761 net.cpp:122] Setting up layer_256_1_scale2
I0527 21:00:37.241030 12761 net.cpp:129] Top shape: 50 256 14 14 (2508800)
I0527 21:00:37.241034 12761 net.cpp:137] Memory required for data: 3110912200
I0527 21:00:37.241040 12761 layer_factory.hpp:77] Creating layer layer_256_1_relu2
I0527 21:00:37.241046 12761 net.cpp:84] Creating Layer layer_256_1_relu2
I0527 21:00:37.241050 12761 net.cpp:406] layer_256_1_relu2 <- layer_256_1_conv1
I0527 21:00:37.241055 12761 net.cpp:367] layer_256_1_relu2 -> layer_256_1_conv1 (in-place)
I0527 21:00:37.241220 12761 net.cpp:122] Setting up layer_256_1_relu2
I0527 21:00:37.241232 12761 net.cpp:129] Top shape: 50 256 14 14 (2508800)
I0527 21:00:37.241235 12761 net.cpp:137] Memory required for data: 3120947400
I0527 21:00:37.241238 12761 layer_factory.hpp:77] Creating layer layer_256_1_conv2
I0527 21:00:37.241248 12761 net.cpp:84] Creating Layer layer_256_1_conv2
I0527 21:00:37.241252 12761 net.cpp:406] layer_256_1_conv2 <- layer_256_1_conv1
I0527 21:00:37.241258 12761 net.cpp:380] layer_256_1_conv2 -> layer_256_1_conv2
I0527 21:00:37.249416 12761 net.cpp:122] Setting up layer_256_1_conv2
I0527 21:00:37.249436 12761 net.cpp:129] Top shape: 50 256 14 14 (2508800)
I0527 21:00:37.249451 12761 net.cpp:137] Memory required for data: 3130982600
I0527 21:00:37.249459 12761 layer_factory.hpp:77] Creating layer layer_256_1_conv_expand
I0527 21:00:37.249472 12761 net.cpp:84] Creating Layer layer_256_1_conv_expand
I0527 21:00:37.249491 12761 net.cpp:406] layer_256_1_conv_expand <- layer_256_1_bn1_layer_256_1_relu1_0_split_1
I0527 21:00:37.249505 12761 net.cpp:380] layer_256_1_conv_expand -> layer_256_1_conv_expand
I0527 21:00:37.250986 12761 net.cpp:122] Setting up layer_256_1_conv_expand
I0527 21:00:37.251000 12761 net.cpp:129] Top shape: 50 256 14 14 (2508800)
I0527 21:00:37.251015 12761 net.cpp:137] Memory required for data: 3141017800
I0527 21:00:37.251021 12761 layer_factory.hpp:77] Creating layer layer_256_1_sum
I0527 21:00:37.251027 12761 net.cpp:84] Creating Layer layer_256_1_sum
I0527 21:00:37.251031 12761 net.cpp:406] layer_256_1_sum <- layer_256_1_conv_expand
I0527 21:00:37.251036 12761 net.cpp:406] layer_256_1_sum <- layer_256_1_conv2
I0527 21:00:37.251042 12761 net.cpp:380] layer_256_1_sum -> layer_256_1_sum
I0527 21:00:37.251076 12761 net.cpp:122] Setting up layer_256_1_sum
I0527 21:00:37.251092 12761 net.cpp:129] Top shape: 50 256 14 14 (2508800)
I0527 21:00:37.251097 12761 net.cpp:137] Memory required for data: 3151053000
I0527 21:00:37.251101 12761 layer_factory.hpp:77] Creating layer layer_256_1_sum_layer_256_1_sum_0_split
I0527 21:00:37.251107 12761 net.cpp:84] Creating Layer layer_256_1_sum_layer_256_1_sum_0_split
I0527 21:00:37.251111 12761 net.cpp:406] layer_256_1_sum_layer_256_1_sum_0_split <- layer_256_1_sum
I0527 21:00:37.251117 12761 net.cpp:380] layer_256_1_sum_layer_256_1_sum_0_split -> layer_256_1_sum_layer_256_1_sum_0_split_0
I0527 21:00:37.251132 12761 net.cpp:380] layer_256_1_sum_layer_256_1_sum_0_split -> layer_256_1_sum_layer_256_1_sum_0_split_1
I0527 21:00:37.251178 12761 net.cpp:122] Setting up layer_256_1_sum_layer_256_1_sum_0_split
I0527 21:00:37.251189 12761 net.cpp:129] Top shape: 50 256 14 14 (2508800)
I0527 21:00:37.251199 12761 net.cpp:129] Top shape: 50 256 14 14 (2508800)
I0527 21:00:37.251205 12761 net.cpp:137] Memory required for data: 3171123400
I0527 21:00:37.251211 12761 layer_factory.hpp:77] Creating layer layer_256_2_bn1
I0527 21:00:37.251225 12761 net.cpp:84] Creating Layer layer_256_2_bn1
I0527 21:00:37.251235 12761 net.cpp:406] layer_256_2_bn1 <- layer_256_1_sum_layer_256_1_sum_0_split_0
I0527 21:00:37.251248 12761 net.cpp:380] layer_256_2_bn1 -> layer_256_2_bn1
I0527 21:00:37.251452 12761 net.cpp:122] Setting up layer_256_2_bn1
I0527 21:00:37.251463 12761 net.cpp:129] Top shape: 50 256 14 14 (2508800)
I0527 21:00:37.251469 12761 net.cpp:137] Memory required for data: 3181158600
I0527 21:00:37.251484 12761 layer_factory.hpp:77] Creating layer layer_256_2_scale1
I0527 21:00:37.251497 12761 net.cpp:84] Creating Layer layer_256_2_scale1
I0527 21:00:37.251507 12761 net.cpp:406] layer_256_2_scale1 <- layer_256_2_bn1
I0527 21:00:37.251518 12761 net.cpp:367] layer_256_2_scale1 -> layer_256_2_bn1 (in-place)
I0527 21:00:37.251579 12761 layer_factory.hpp:77] Creating layer layer_256_2_scale1
I0527 21:00:37.251703 12761 net.cpp:122] Setting up layer_256_2_scale1
I0527 21:00:37.251714 12761 net.cpp:129] Top shape: 50 256 14 14 (2508800)
I0527 21:00:37.251720 12761 net.cpp:137] Memory required for data: 3191193800
I0527 21:00:37.251732 12761 layer_factory.hpp:77] Creating layer layer_256_2_relu1
I0527 21:00:37.251745 12761 net.cpp:84] Creating Layer layer_256_2_relu1
I0527 21:00:37.251754 12761 net.cpp:406] layer_256_2_relu1 <- layer_256_2_bn1
I0527 21:00:37.251766 12761 net.cpp:367] layer_256_2_relu1 -> layer_256_2_bn1 (in-place)
I0527 21:00:37.251947 12761 net.cpp:122] Setting up layer_256_2_relu1
I0527 21:00:37.251960 12761 net.cpp:129] Top shape: 50 256 14 14 (2508800)
I0527 21:00:37.251966 12761 net.cpp:137] Memory required for data: 3201229000
I0527 21:00:37.251973 12761 layer_factory.hpp:77] Creating layer layer_256_2_conv1
I0527 21:00:37.251991 12761 net.cpp:84] Creating Layer layer_256_2_conv1
I0527 21:00:37.252001 12761 net.cpp:406] layer_256_2_conv1 <- layer_256_2_bn1
I0527 21:00:37.252013 12761 net.cpp:380] layer_256_2_conv1 -> layer_256_2_conv1
I0527 21:00:37.262676 12761 net.cpp:122] Setting up layer_256_2_conv1
I0527 21:00:37.262712 12761 net.cpp:129] Top shape: 50 256 14 14 (2508800)
I0527 21:00:37.262740 12761 net.cpp:137] Memory required for data: 3211264200
I0527 21:00:37.262753 12761 layer_factory.hpp:77] Creating layer layer_256_2_bn2
I0527 21:00:37.262766 12761 net.cpp:84] Creating Layer layer_256_2_bn2
I0527 21:00:37.262773 12761 net.cpp:406] layer_256_2_bn2 <- layer_256_2_conv1
I0527 21:00:37.262780 12761 net.cpp:367] layer_256_2_bn2 -> layer_256_2_conv1 (in-place)
I0527 21:00:37.262989 12761 net.cpp:122] Setting up layer_256_2_bn2
I0527 21:00:37.262998 12761 net.cpp:129] Top shape: 50 256 14 14 (2508800)
I0527 21:00:37.263012 12761 net.cpp:137] Memory required for data: 3221299400
I0527 21:00:37.263021 12761 layer_factory.hpp:77] Creating layer layer_256_2_scale2
I0527 21:00:37.263028 12761 net.cpp:84] Creating Layer layer_256_2_scale2
I0527 21:00:37.263031 12761 net.cpp:406] layer_256_2_scale2 <- layer_256_2_conv1
I0527 21:00:37.263039 12761 net.cpp:367] layer_256_2_scale2 -> layer_256_2_conv1 (in-place)
I0527 21:00:37.263088 12761 layer_factory.hpp:77] Creating layer layer_256_2_scale2
I0527 21:00:37.263193 12761 net.cpp:122] Setting up layer_256_2_scale2
I0527 21:00:37.263213 12761 net.cpp:129] Top shape: 50 256 14 14 (2508800)
I0527 21:00:37.263216 12761 net.cpp:137] Memory required for data: 3231334600
I0527 21:00:37.263222 12761 layer_factory.hpp:77] Creating layer layer_256_2_relu2
I0527 21:00:37.263228 12761 net.cpp:84] Creating Layer layer_256_2_relu2
I0527 21:00:37.263232 12761 net.cpp:406] layer_256_2_relu2 <- layer_256_2_conv1
I0527 21:00:37.263237 12761 net.cpp:367] layer_256_2_relu2 -> layer_256_2_conv1 (in-place)
I0527 21:00:37.263492 12761 net.cpp:122] Setting up layer_256_2_relu2
I0527 21:00:37.263520 12761 net.cpp:129] Top shape: 50 256 14 14 (2508800)
I0527 21:00:37.263522 12761 net.cpp:137] Memory required for data: 3241369800
I0527 21:00:37.263526 12761 layer_factory.hpp:77] Creating layer layer_256_2_conv2
I0527 21:00:37.263540 12761 net.cpp:84] Creating Layer layer_256_2_conv2
I0527 21:00:37.263547 12761 net.cpp:406] layer_256_2_conv2 <- layer_256_2_conv1
I0527 21:00:37.263555 12761 net.cpp:380] layer_256_2_conv2 -> layer_256_2_conv2
I0527 21:00:37.272812 12761 net.cpp:122] Setting up layer_256_2_conv2
I0527 21:00:37.272861 12761 net.cpp:129] Top shape: 50 256 14 14 (2508800)
I0527 21:00:37.272868 12761 net.cpp:137] Memory required for data: 3251405000
I0527 21:00:37.272886 12761 layer_factory.hpp:77] Creating layer layer_256_2_sum
I0527 21:00:37.272904 12761 net.cpp:84] Creating Layer layer_256_2_sum
I0527 21:00:37.272914 12761 net.cpp:406] layer_256_2_sum <- layer_256_2_conv2
I0527 21:00:37.272934 12761 net.cpp:406] layer_256_2_sum <- layer_256_1_sum_layer_256_1_sum_0_split_1
I0527 21:00:37.272946 12761 net.cpp:380] layer_256_2_sum -> layer_256_2_sum
I0527 21:00:37.273036 12761 net.cpp:122] Setting up layer_256_2_sum
I0527 21:00:37.273048 12761 net.cpp:129] Top shape: 50 256 14 14 (2508800)
I0527 21:00:37.273054 12761 net.cpp:137] Memory required for data: 3261440200
I0527 21:00:37.273061 12761 layer_factory.hpp:77] Creating layer layer_256_2_sum_layer_256_2_sum_0_split
I0527 21:00:37.273072 12761 net.cpp:84] Creating Layer layer_256_2_sum_layer_256_2_sum_0_split
I0527 21:00:37.273077 12761 net.cpp:406] layer_256_2_sum_layer_256_2_sum_0_split <- layer_256_2_sum
I0527 21:00:37.273089 12761 net.cpp:380] layer_256_2_sum_layer_256_2_sum_0_split -> layer_256_2_sum_layer_256_2_sum_0_split_0
I0527 21:00:37.273102 12761 net.cpp:380] layer_256_2_sum_layer_256_2_sum_0_split -> layer_256_2_sum_layer_256_2_sum_0_split_1
I0527 21:00:37.273162 12761 net.cpp:122] Setting up layer_256_2_sum_layer_256_2_sum_0_split
I0527 21:00:37.273174 12761 net.cpp:129] Top shape: 50 256 14 14 (2508800)
I0527 21:00:37.273182 12761 net.cpp:129] Top shape: 50 256 14 14 (2508800)
I0527 21:00:37.273188 12761 net.cpp:137] Memory required for data: 3281510600
I0527 21:00:37.273195 12761 layer_factory.hpp:77] Creating layer layer_256_3_bn1
I0527 21:00:37.273211 12761 net.cpp:84] Creating Layer layer_256_3_bn1
I0527 21:00:37.273218 12761 net.cpp:406] layer_256_3_bn1 <- layer_256_2_sum_layer_256_2_sum_0_split_0
I0527 21:00:37.273254 12761 net.cpp:380] layer_256_3_bn1 -> layer_256_3_bn1
I0527 21:00:37.273478 12761 net.cpp:122] Setting up layer_256_3_bn1
I0527 21:00:37.273497 12761 net.cpp:129] Top shape: 50 256 14 14 (2508800)
I0527 21:00:37.273504 12761 net.cpp:137] Memory required for data: 3291545800
I0527 21:00:37.273519 12761 layer_factory.hpp:77] Creating layer layer_256_3_scale1
I0527 21:00:37.273532 12761 net.cpp:84] Creating Layer layer_256_3_scale1
I0527 21:00:37.273540 12761 net.cpp:406] layer_256_3_scale1 <- layer_256_3_bn1
I0527 21:00:37.273553 12761 net.cpp:367] layer_256_3_scale1 -> layer_256_3_bn1 (in-place)
I0527 21:00:37.273622 12761 layer_factory.hpp:77] Creating layer layer_256_3_scale1
I0527 21:00:37.273744 12761 net.cpp:122] Setting up layer_256_3_scale1
I0527 21:00:37.273756 12761 net.cpp:129] Top shape: 50 256 14 14 (2508800)
I0527 21:00:37.273762 12761 net.cpp:137] Memory required for data: 3301581000
I0527 21:00:37.273774 12761 layer_factory.hpp:77] Creating layer layer_256_3_relu1
I0527 21:00:37.273785 12761 net.cpp:84] Creating Layer layer_256_3_relu1
I0527 21:00:37.273792 12761 net.cpp:406] layer_256_3_relu1 <- layer_256_3_bn1
I0527 21:00:37.273803 12761 net.cpp:367] layer_256_3_relu1 -> layer_256_3_bn1 (in-place)
I0527 21:00:37.274031 12761 net.cpp:122] Setting up layer_256_3_relu1
I0527 21:00:37.274044 12761 net.cpp:129] Top shape: 50 256 14 14 (2508800)
I0527 21:00:37.274049 12761 net.cpp:137] Memory required for data: 3311616200
I0527 21:00:37.274056 12761 layer_factory.hpp:77] Creating layer layer_256_3_conv1
I0527 21:00:37.274075 12761 net.cpp:84] Creating Layer layer_256_3_conv1
I0527 21:00:37.274083 12761 net.cpp:406] layer_256_3_conv1 <- layer_256_3_bn1
I0527 21:00:37.274096 12761 net.cpp:380] layer_256_3_conv1 -> layer_256_3_conv1
I0527 21:00:37.283253 12761 net.cpp:122] Setting up layer_256_3_conv1
I0527 21:00:37.283291 12761 net.cpp:129] Top shape: 50 256 14 14 (2508800)
I0527 21:00:37.283298 12761 net.cpp:137] Memory required for data: 3321651400
I0527 21:00:37.283313 12761 layer_factory.hpp:77] Creating layer layer_256_3_bn2
I0527 21:00:37.283331 12761 net.cpp:84] Creating Layer layer_256_3_bn2
I0527 21:00:37.283339 12761 net.cpp:406] layer_256_3_bn2 <- layer_256_3_conv1
I0527 21:00:37.283354 12761 net.cpp:367] layer_256_3_bn2 -> layer_256_3_conv1 (in-place)
I0527 21:00:37.283586 12761 net.cpp:122] Setting up layer_256_3_bn2
I0527 21:00:37.283598 12761 net.cpp:129] Top shape: 50 256 14 14 (2508800)
I0527 21:00:37.283604 12761 net.cpp:137] Memory required for data: 3331686600
I0527 21:00:37.283619 12761 layer_factory.hpp:77] Creating layer layer_256_3_scale2
I0527 21:00:37.283632 12761 net.cpp:84] Creating Layer layer_256_3_scale2
I0527 21:00:37.283638 12761 net.cpp:406] layer_256_3_scale2 <- layer_256_3_conv1
I0527 21:00:37.283653 12761 net.cpp:367] layer_256_3_scale2 -> layer_256_3_conv1 (in-place)
I0527 21:00:37.283720 12761 layer_factory.hpp:77] Creating layer layer_256_3_scale2
I0527 21:00:37.283844 12761 net.cpp:122] Setting up layer_256_3_scale2
I0527 21:00:37.283857 12761 net.cpp:129] Top shape: 50 256 14 14 (2508800)
I0527 21:00:37.283864 12761 net.cpp:137] Memory required for data: 3341721800
I0527 21:00:37.283874 12761 layer_factory.hpp:77] Creating layer layer_256_3_relu2
I0527 21:00:37.283886 12761 net.cpp:84] Creating Layer layer_256_3_relu2
I0527 21:00:37.283893 12761 net.cpp:406] layer_256_3_relu2 <- layer_256_3_conv1
I0527 21:00:37.283905 12761 net.cpp:367] layer_256_3_relu2 -> layer_256_3_conv1 (in-place)
I0527 21:00:37.284114 12761 net.cpp:122] Setting up layer_256_3_relu2
I0527 21:00:37.284126 12761 net.cpp:129] Top shape: 50 256 14 14 (2508800)
I0527 21:00:37.284132 12761 net.cpp:137] Memory required for data: 3351757000
I0527 21:00:37.284138 12761 layer_factory.hpp:77] Creating layer layer_256_3_conv2
I0527 21:00:37.284160 12761 net.cpp:84] Creating Layer layer_256_3_conv2
I0527 21:00:37.284168 12761 net.cpp:406] layer_256_3_conv2 <- layer_256_3_conv1
I0527 21:00:37.284180 12761 net.cpp:380] layer_256_3_conv2 -> layer_256_3_conv2
I0527 21:00:37.297489 12761 net.cpp:122] Setting up layer_256_3_conv2
I0527 21:00:37.297559 12761 net.cpp:129] Top shape: 50 256 14 14 (2508800)
I0527 21:00:37.297585 12761 net.cpp:137] Memory required for data: 3361792200
I0527 21:00:37.297639 12761 layer_factory.hpp:77] Creating layer layer_256_3_sum
I0527 21:00:37.297659 12761 net.cpp:84] Creating Layer layer_256_3_sum
I0527 21:00:37.297669 12761 net.cpp:406] layer_256_3_sum <- layer_256_3_conv2
I0527 21:00:37.297679 12761 net.cpp:406] layer_256_3_sum <- layer_256_2_sum_layer_256_2_sum_0_split_1
I0527 21:00:37.297690 12761 net.cpp:380] layer_256_3_sum -> layer_256_3_sum
I0527 21:00:37.297736 12761 net.cpp:122] Setting up layer_256_3_sum
I0527 21:00:37.297749 12761 net.cpp:129] Top shape: 50 256 14 14 (2508800)
I0527 21:00:37.297755 12761 net.cpp:137] Memory required for data: 3371827400
I0527 21:00:37.297762 12761 layer_factory.hpp:77] Creating layer layer_256_3_sum_layer_256_3_sum_0_split
I0527 21:00:37.297772 12761 net.cpp:84] Creating Layer layer_256_3_sum_layer_256_3_sum_0_split
I0527 21:00:37.297780 12761 net.cpp:406] layer_256_3_sum_layer_256_3_sum_0_split <- layer_256_3_sum
I0527 21:00:37.297791 12761 net.cpp:380] layer_256_3_sum_layer_256_3_sum_0_split -> layer_256_3_sum_layer_256_3_sum_0_split_0
I0527 21:00:37.297804 12761 net.cpp:380] layer_256_3_sum_layer_256_3_sum_0_split -> layer_256_3_sum_layer_256_3_sum_0_split_1
I0527 21:00:37.297858 12761 net.cpp:122] Setting up layer_256_3_sum_layer_256_3_sum_0_split
I0527 21:00:37.297870 12761 net.cpp:129] Top shape: 50 256 14 14 (2508800)
I0527 21:00:37.297878 12761 net.cpp:129] Top shape: 50 256 14 14 (2508800)
I0527 21:00:37.297884 12761 net.cpp:137] Memory required for data: 3391897800
I0527 21:00:37.297890 12761 layer_factory.hpp:77] Creating layer layer_256_4_bn1
I0527 21:00:37.297904 12761 net.cpp:84] Creating Layer layer_256_4_bn1
I0527 21:00:37.297911 12761 net.cpp:406] layer_256_4_bn1 <- layer_256_3_sum_layer_256_3_sum_0_split_0
I0527 21:00:37.297922 12761 net.cpp:380] layer_256_4_bn1 -> layer_256_4_bn1
I0527 21:00:37.298131 12761 net.cpp:122] Setting up layer_256_4_bn1
I0527 21:00:37.298143 12761 net.cpp:129] Top shape: 50 256 14 14 (2508800)
I0527 21:00:37.298149 12761 net.cpp:137] Memory required for data: 3401933000
I0527 21:00:37.298163 12761 layer_factory.hpp:77] Creating layer layer_256_4_scale1
I0527 21:00:37.298178 12761 net.cpp:84] Creating Layer layer_256_4_scale1
I0527 21:00:37.298185 12761 net.cpp:406] layer_256_4_scale1 <- layer_256_4_bn1
I0527 21:00:37.298195 12761 net.cpp:367] layer_256_4_scale1 -> layer_256_4_bn1 (in-place)
I0527 21:00:37.298259 12761 layer_factory.hpp:77] Creating layer layer_256_4_scale1
I0527 21:00:37.298378 12761 net.cpp:122] Setting up layer_256_4_scale1
I0527 21:00:37.298390 12761 net.cpp:129] Top shape: 50 256 14 14 (2508800)
I0527 21:00:37.298396 12761 net.cpp:137] Memory required for data: 3411968200
I0527 21:00:37.298408 12761 layer_factory.hpp:77] Creating layer layer_256_4_relu1
I0527 21:00:37.298419 12761 net.cpp:84] Creating Layer layer_256_4_relu1
I0527 21:00:37.298426 12761 net.cpp:406] layer_256_4_relu1 <- layer_256_4_bn1
I0527 21:00:37.298437 12761 net.cpp:367] layer_256_4_relu1 -> layer_256_4_bn1 (in-place)
I0527 21:00:37.299111 12761 net.cpp:122] Setting up layer_256_4_relu1
I0527 21:00:37.299125 12761 net.cpp:129] Top shape: 50 256 14 14 (2508800)
I0527 21:00:37.299132 12761 net.cpp:137] Memory required for data: 3422003400
I0527 21:00:37.299139 12761 layer_factory.hpp:77] Creating layer layer_256_4_conv1
I0527 21:00:37.299157 12761 net.cpp:84] Creating Layer layer_256_4_conv1
I0527 21:00:37.299165 12761 net.cpp:406] layer_256_4_conv1 <- layer_256_4_bn1
I0527 21:00:37.299180 12761 net.cpp:380] layer_256_4_conv1 -> layer_256_4_conv1
I0527 21:00:37.309551 12761 net.cpp:122] Setting up layer_256_4_conv1
I0527 21:00:37.309571 12761 net.cpp:129] Top shape: 50 256 14 14 (2508800)
I0527 21:00:37.309578 12761 net.cpp:137] Memory required for data: 3432038600
I0527 21:00:37.309589 12761 layer_factory.hpp:77] Creating layer layer_256_4_bn2
I0527 21:00:37.309630 12761 net.cpp:84] Creating Layer layer_256_4_bn2
I0527 21:00:37.309640 12761 net.cpp:406] layer_256_4_bn2 <- layer_256_4_conv1
I0527 21:00:37.309654 12761 net.cpp:367] layer_256_4_bn2 -> layer_256_4_conv1 (in-place)
I0527 21:00:37.309850 12761 net.cpp:122] Setting up layer_256_4_bn2
I0527 21:00:37.309862 12761 net.cpp:129] Top shape: 50 256 14 14 (2508800)
I0527 21:00:37.309870 12761 net.cpp:137] Memory required for data: 3442073800
I0527 21:00:37.309882 12761 layer_factory.hpp:77] Creating layer layer_256_4_scale2
I0527 21:00:37.309893 12761 net.cpp:84] Creating Layer layer_256_4_scale2
I0527 21:00:37.309900 12761 net.cpp:406] layer_256_4_scale2 <- layer_256_4_conv1
I0527 21:00:37.309909 12761 net.cpp:367] layer_256_4_scale2 -> layer_256_4_conv1 (in-place)
I0527 21:00:37.309973 12761 layer_factory.hpp:77] Creating layer layer_256_4_scale2
I0527 21:00:37.310096 12761 net.cpp:122] Setting up layer_256_4_scale2
I0527 21:00:37.310107 12761 net.cpp:129] Top shape: 50 256 14 14 (2508800)
I0527 21:00:37.310114 12761 net.cpp:137] Memory required for data: 3452109000
I0527 21:00:37.310125 12761 layer_factory.hpp:77] Creating layer layer_256_4_relu2
I0527 21:00:37.310138 12761 net.cpp:84] Creating Layer layer_256_4_relu2
I0527 21:00:37.310145 12761 net.cpp:406] layer_256_4_relu2 <- layer_256_4_conv1
I0527 21:00:37.310154 12761 net.cpp:367] layer_256_4_relu2 -> layer_256_4_conv1 (in-place)
I0527 21:00:37.310824 12761 net.cpp:122] Setting up layer_256_4_relu2
I0527 21:00:37.310838 12761 net.cpp:129] Top shape: 50 256 14 14 (2508800)
I0527 21:00:37.310844 12761 net.cpp:137] Memory required for data: 3462144200
I0527 21:00:37.310850 12761 layer_factory.hpp:77] Creating layer layer_256_4_conv2
I0527 21:00:37.310869 12761 net.cpp:84] Creating Layer layer_256_4_conv2
I0527 21:00:37.310878 12761 net.cpp:406] layer_256_4_conv2 <- layer_256_4_conv1
I0527 21:00:37.310890 12761 net.cpp:380] layer_256_4_conv2 -> layer_256_4_conv2
I0527 21:00:37.320611 12761 net.cpp:122] Setting up layer_256_4_conv2
I0527 21:00:37.320629 12761 net.cpp:129] Top shape: 50 256 14 14 (2508800)
I0527 21:00:37.320636 12761 net.cpp:137] Memory required for data: 3472179400
I0527 21:00:37.320647 12761 layer_factory.hpp:77] Creating layer layer_256_4_sum
I0527 21:00:37.320662 12761 net.cpp:84] Creating Layer layer_256_4_sum
I0527 21:00:37.320670 12761 net.cpp:406] layer_256_4_sum <- layer_256_4_conv2
I0527 21:00:37.320678 12761 net.cpp:406] layer_256_4_sum <- layer_256_3_sum_layer_256_3_sum_0_split_1
I0527 21:00:37.320688 12761 net.cpp:380] layer_256_4_sum -> layer_256_4_sum
I0527 21:00:37.320734 12761 net.cpp:122] Setting up layer_256_4_sum
I0527 21:00:37.320746 12761 net.cpp:129] Top shape: 50 256 14 14 (2508800)
I0527 21:00:37.320752 12761 net.cpp:137] Memory required for data: 3482214600
I0527 21:00:37.320760 12761 layer_factory.hpp:77] Creating layer layer_256_4_sum_layer_256_4_sum_0_split
I0527 21:00:37.320771 12761 net.cpp:84] Creating Layer layer_256_4_sum_layer_256_4_sum_0_split
I0527 21:00:37.320778 12761 net.cpp:406] layer_256_4_sum_layer_256_4_sum_0_split <- layer_256_4_sum
I0527 21:00:37.320788 12761 net.cpp:380] layer_256_4_sum_layer_256_4_sum_0_split -> layer_256_4_sum_layer_256_4_sum_0_split_0
I0527 21:00:37.320801 12761 net.cpp:380] layer_256_4_sum_layer_256_4_sum_0_split -> layer_256_4_sum_layer_256_4_sum_0_split_1
I0527 21:00:37.320858 12761 net.cpp:122] Setting up layer_256_4_sum_layer_256_4_sum_0_split
I0527 21:00:37.320868 12761 net.cpp:129] Top shape: 50 256 14 14 (2508800)
I0527 21:00:37.320878 12761 net.cpp:129] Top shape: 50 256 14 14 (2508800)
I0527 21:00:37.320883 12761 net.cpp:137] Memory required for data: 3502285000
I0527 21:00:37.320889 12761 layer_factory.hpp:77] Creating layer layer_256_5_bn1
I0527 21:00:37.320901 12761 net.cpp:84] Creating Layer layer_256_5_bn1
I0527 21:00:37.320909 12761 net.cpp:406] layer_256_5_bn1 <- layer_256_4_sum_layer_256_4_sum_0_split_0
I0527 21:00:37.320919 12761 net.cpp:380] layer_256_5_bn1 -> layer_256_5_bn1
I0527 21:00:37.321135 12761 net.cpp:122] Setting up layer_256_5_bn1
I0527 21:00:37.321147 12761 net.cpp:129] Top shape: 50 256 14 14 (2508800)
I0527 21:00:37.321167 12761 net.cpp:137] Memory required for data: 3512320200
I0527 21:00:37.321183 12761 layer_factory.hpp:77] Creating layer layer_256_5_scale1
I0527 21:00:37.321194 12761 net.cpp:84] Creating Layer layer_256_5_scale1
I0527 21:00:37.321207 12761 net.cpp:406] layer_256_5_scale1 <- layer_256_5_bn1
I0527 21:00:37.321220 12761 net.cpp:367] layer_256_5_scale1 -> layer_256_5_bn1 (in-place)
I0527 21:00:37.321279 12761 layer_factory.hpp:77] Creating layer layer_256_5_scale1
I0527 21:00:37.321400 12761 net.cpp:122] Setting up layer_256_5_scale1
I0527 21:00:37.321413 12761 net.cpp:129] Top shape: 50 256 14 14 (2508800)
I0527 21:00:37.321419 12761 net.cpp:137] Memory required for data: 3522355400
I0527 21:00:37.321430 12761 layer_factory.hpp:77] Creating layer layer_256_5_relu1
I0527 21:00:37.321440 12761 net.cpp:84] Creating Layer layer_256_5_relu1
I0527 21:00:37.321447 12761 net.cpp:406] layer_256_5_relu1 <- layer_256_5_bn1
I0527 21:00:37.321458 12761 net.cpp:367] layer_256_5_relu1 -> layer_256_5_bn1 (in-place)
I0527 21:00:37.321631 12761 net.cpp:122] Setting up layer_256_5_relu1
I0527 21:00:37.321643 12761 net.cpp:129] Top shape: 50 256 14 14 (2508800)
I0527 21:00:37.321650 12761 net.cpp:137] Memory required for data: 3532390600
I0527 21:00:37.321655 12761 layer_factory.hpp:77] Creating layer layer_256_5_conv1
I0527 21:00:37.321672 12761 net.cpp:84] Creating Layer layer_256_5_conv1
I0527 21:00:37.321681 12761 net.cpp:406] layer_256_5_conv1 <- layer_256_5_bn1
I0527 21:00:37.321691 12761 net.cpp:380] layer_256_5_conv1 -> layer_256_5_conv1
I0527 21:00:37.332904 12761 net.cpp:122] Setting up layer_256_5_conv1
I0527 21:00:37.332949 12761 net.cpp:129] Top shape: 50 256 14 14 (2508800)
I0527 21:00:37.332957 12761 net.cpp:137] Memory required for data: 3542425800
I0527 21:00:37.332968 12761 layer_factory.hpp:77] Creating layer layer_256_5_bn2
I0527 21:00:37.332981 12761 net.cpp:84] Creating Layer layer_256_5_bn2
I0527 21:00:37.332988 12761 net.cpp:406] layer_256_5_bn2 <- layer_256_5_conv1
I0527 21:00:37.333000 12761 net.cpp:367] layer_256_5_bn2 -> layer_256_5_conv1 (in-place)
I0527 21:00:37.333314 12761 net.cpp:122] Setting up layer_256_5_bn2
I0527 21:00:37.333329 12761 net.cpp:129] Top shape: 50 256 14 14 (2508800)
I0527 21:00:37.333336 12761 net.cpp:137] Memory required for data: 3552461000
I0527 21:00:37.333349 12761 layer_factory.hpp:77] Creating layer layer_256_5_scale2
I0527 21:00:37.333369 12761 net.cpp:84] Creating Layer layer_256_5_scale2
I0527 21:00:37.333379 12761 net.cpp:406] layer_256_5_scale2 <- layer_256_5_conv1
I0527 21:00:37.333389 12761 net.cpp:367] layer_256_5_scale2 -> layer_256_5_conv1 (in-place)
I0527 21:00:37.333464 12761 layer_factory.hpp:77] Creating layer layer_256_5_scale2
I0527 21:00:37.333645 12761 net.cpp:122] Setting up layer_256_5_scale2
I0527 21:00:37.333660 12761 net.cpp:129] Top shape: 50 256 14 14 (2508800)
I0527 21:00:37.333665 12761 net.cpp:137] Memory required for data: 3562496200
I0527 21:00:37.333674 12761 layer_factory.hpp:77] Creating layer layer_256_5_relu2
I0527 21:00:37.333685 12761 net.cpp:84] Creating Layer layer_256_5_relu2
I0527 21:00:37.333690 12761 net.cpp:406] layer_256_5_relu2 <- layer_256_5_conv1
I0527 21:00:37.333698 12761 net.cpp:367] layer_256_5_relu2 -> layer_256_5_conv1 (in-place)
I0527 21:00:37.333945 12761 net.cpp:122] Setting up layer_256_5_relu2
I0527 21:00:37.333961 12761 net.cpp:129] Top shape: 50 256 14 14 (2508800)
I0527 21:00:37.333969 12761 net.cpp:137] Memory required for data: 3572531400
I0527 21:00:37.333976 12761 layer_factory.hpp:77] Creating layer layer_256_5_conv2
I0527 21:00:37.333993 12761 net.cpp:84] Creating Layer layer_256_5_conv2
I0527 21:00:37.334004 12761 net.cpp:406] layer_256_5_conv2 <- layer_256_5_conv1
I0527 21:00:37.334018 12761 net.cpp:380] layer_256_5_conv2 -> layer_256_5_conv2
I0527 21:00:37.344295 12761 net.cpp:122] Setting up layer_256_5_conv2
I0527 21:00:37.344326 12761 net.cpp:129] Top shape: 50 256 14 14 (2508800)
I0527 21:00:37.344329 12761 net.cpp:137] Memory required for data: 3582566600
I0527 21:00:37.344353 12761 layer_factory.hpp:77] Creating layer layer_256_5_sum
I0527 21:00:37.344363 12761 net.cpp:84] Creating Layer layer_256_5_sum
I0527 21:00:37.344369 12761 net.cpp:406] layer_256_5_sum <- layer_256_5_conv2
I0527 21:00:37.344374 12761 net.cpp:406] layer_256_5_sum <- layer_256_4_sum_layer_256_4_sum_0_split_1
I0527 21:00:37.344382 12761 net.cpp:380] layer_256_5_sum -> layer_256_5_sum
I0527 21:00:37.344413 12761 net.cpp:122] Setting up layer_256_5_sum
I0527 21:00:37.344421 12761 net.cpp:129] Top shape: 50 256 14 14 (2508800)
I0527 21:00:37.344425 12761 net.cpp:137] Memory required for data: 3592601800
I0527 21:00:37.344429 12761 layer_factory.hpp:77] Creating layer layer_256_5_sum_layer_256_5_sum_0_split
I0527 21:00:37.344437 12761 net.cpp:84] Creating Layer layer_256_5_sum_layer_256_5_sum_0_split
I0527 21:00:37.344441 12761 net.cpp:406] layer_256_5_sum_layer_256_5_sum_0_split <- layer_256_5_sum
I0527 21:00:37.344449 12761 net.cpp:380] layer_256_5_sum_layer_256_5_sum_0_split -> layer_256_5_sum_layer_256_5_sum_0_split_0
I0527 21:00:37.344457 12761 net.cpp:380] layer_256_5_sum_layer_256_5_sum_0_split -> layer_256_5_sum_layer_256_5_sum_0_split_1
I0527 21:00:37.344494 12761 net.cpp:122] Setting up layer_256_5_sum_layer_256_5_sum_0_split
I0527 21:00:37.344506 12761 net.cpp:129] Top shape: 50 256 14 14 (2508800)
I0527 21:00:37.344511 12761 net.cpp:129] Top shape: 50 256 14 14 (2508800)
I0527 21:00:37.344514 12761 net.cpp:137] Memory required for data: 3612672200
I0527 21:00:37.344518 12761 layer_factory.hpp:77] Creating layer layer_256_6_bn1
I0527 21:00:37.344548 12761 net.cpp:84] Creating Layer layer_256_6_bn1
I0527 21:00:37.344553 12761 net.cpp:406] layer_256_6_bn1 <- layer_256_5_sum_layer_256_5_sum_0_split_0
I0527 21:00:37.344559 12761 net.cpp:380] layer_256_6_bn1 -> layer_256_6_bn1
I0527 21:00:37.344748 12761 net.cpp:122] Setting up layer_256_6_bn1
I0527 21:00:37.344758 12761 net.cpp:129] Top shape: 50 256 14 14 (2508800)
I0527 21:00:37.344760 12761 net.cpp:137] Memory required for data: 3622707400
I0527 21:00:37.344769 12761 layer_factory.hpp:77] Creating layer layer_256_6_scale1
I0527 21:00:37.344777 12761 net.cpp:84] Creating Layer layer_256_6_scale1
I0527 21:00:37.344782 12761 net.cpp:406] layer_256_6_scale1 <- layer_256_6_bn1
I0527 21:00:37.344787 12761 net.cpp:367] layer_256_6_scale1 -> layer_256_6_bn1 (in-place)
I0527 21:00:37.344830 12761 layer_factory.hpp:77] Creating layer layer_256_6_scale1
I0527 21:00:37.344945 12761 net.cpp:122] Setting up layer_256_6_scale1
I0527 21:00:37.344955 12761 net.cpp:129] Top shape: 50 256 14 14 (2508800)
I0527 21:00:37.344959 12761 net.cpp:137] Memory required for data: 3632742600
I0527 21:00:37.344964 12761 layer_factory.hpp:77] Creating layer layer_256_6_relu1
I0527 21:00:37.344970 12761 net.cpp:84] Creating Layer layer_256_6_relu1
I0527 21:00:37.344974 12761 net.cpp:406] layer_256_6_relu1 <- layer_256_6_bn1
I0527 21:00:37.344980 12761 net.cpp:367] layer_256_6_relu1 -> layer_256_6_bn1 (in-place)
I0527 21:00:37.345141 12761 net.cpp:122] Setting up layer_256_6_relu1
I0527 21:00:37.345152 12761 net.cpp:129] Top shape: 50 256 14 14 (2508800)
I0527 21:00:37.345156 12761 net.cpp:137] Memory required for data: 3642777800
I0527 21:00:37.345160 12761 layer_factory.hpp:77] Creating layer layer_256_6_conv1
I0527 21:00:37.345168 12761 net.cpp:84] Creating Layer layer_256_6_conv1
I0527 21:00:37.345173 12761 net.cpp:406] layer_256_6_conv1 <- layer_256_6_bn1
I0527 21:00:37.345180 12761 net.cpp:380] layer_256_6_conv1 -> layer_256_6_conv1
I0527 21:00:37.353533 12761 net.cpp:122] Setting up layer_256_6_conv1
I0527 21:00:37.353555 12761 net.cpp:129] Top shape: 50 256 14 14 (2508800)
I0527 21:00:37.353559 12761 net.cpp:137] Memory required for data: 3652813000
I0527 21:00:37.353566 12761 layer_factory.hpp:77] Creating layer layer_256_6_bn2
I0527 21:00:37.353574 12761 net.cpp:84] Creating Layer layer_256_6_bn2
I0527 21:00:37.353580 12761 net.cpp:406] layer_256_6_bn2 <- layer_256_6_conv1
I0527 21:00:37.353588 12761 net.cpp:367] layer_256_6_bn2 -> layer_256_6_conv1 (in-place)
I0527 21:00:37.353794 12761 net.cpp:122] Setting up layer_256_6_bn2
I0527 21:00:37.353804 12761 net.cpp:129] Top shape: 50 256 14 14 (2508800)
I0527 21:00:37.353807 12761 net.cpp:137] Memory required for data: 3662848200
I0527 21:00:37.353816 12761 layer_factory.hpp:77] Creating layer layer_256_6_scale2
I0527 21:00:37.353823 12761 net.cpp:84] Creating Layer layer_256_6_scale2
I0527 21:00:37.353827 12761 net.cpp:406] layer_256_6_scale2 <- layer_256_6_conv1
I0527 21:00:37.353834 12761 net.cpp:367] layer_256_6_scale2 -> layer_256_6_conv1 (in-place)
I0527 21:00:37.353879 12761 layer_factory.hpp:77] Creating layer layer_256_6_scale2
I0527 21:00:37.353988 12761 net.cpp:122] Setting up layer_256_6_scale2
I0527 21:00:37.353997 12761 net.cpp:129] Top shape: 50 256 14 14 (2508800)
I0527 21:00:37.354002 12761 net.cpp:137] Memory required for data: 3672883400
I0527 21:00:37.354008 12761 layer_factory.hpp:77] Creating layer layer_256_6_relu2
I0527 21:00:37.354014 12761 net.cpp:84] Creating Layer layer_256_6_relu2
I0527 21:00:37.354018 12761 net.cpp:406] layer_256_6_relu2 <- layer_256_6_conv1
I0527 21:00:37.354023 12761 net.cpp:367] layer_256_6_relu2 -> layer_256_6_conv1 (in-place)
I0527 21:00:37.354187 12761 net.cpp:122] Setting up layer_256_6_relu2
I0527 21:00:37.354197 12761 net.cpp:129] Top shape: 50 256 14 14 (2508800)
I0527 21:00:37.354199 12761 net.cpp:137] Memory required for data: 3682918600
I0527 21:00:37.354202 12761 layer_factory.hpp:77] Creating layer layer_256_6_conv2
I0527 21:00:37.354213 12761 net.cpp:84] Creating Layer layer_256_6_conv2
I0527 21:00:37.354218 12761 net.cpp:406] layer_256_6_conv2 <- layer_256_6_conv1
I0527 21:00:37.354226 12761 net.cpp:380] layer_256_6_conv2 -> layer_256_6_conv2
I0527 21:00:37.362874 12761 net.cpp:122] Setting up layer_256_6_conv2
I0527 21:00:37.362910 12761 net.cpp:129] Top shape: 50 256 14 14 (2508800)
I0527 21:00:37.362915 12761 net.cpp:137] Memory required for data: 3692953800
I0527 21:00:37.362926 12761 layer_factory.hpp:77] Creating layer layer_256_6_sum
I0527 21:00:37.362938 12761 net.cpp:84] Creating Layer layer_256_6_sum
I0527 21:00:37.362946 12761 net.cpp:406] layer_256_6_sum <- layer_256_6_conv2
I0527 21:00:37.362952 12761 net.cpp:406] layer_256_6_sum <- layer_256_5_sum_layer_256_5_sum_0_split_1
I0527 21:00:37.362959 12761 net.cpp:380] layer_256_6_sum -> layer_256_6_sum
I0527 21:00:37.362996 12761 net.cpp:122] Setting up layer_256_6_sum
I0527 21:00:37.363005 12761 net.cpp:129] Top shape: 50 256 14 14 (2508800)
I0527 21:00:37.363008 12761 net.cpp:137] Memory required for data: 3702989000
I0527 21:00:37.363011 12761 layer_factory.hpp:77] Creating layer layer_512_1_bn1
I0527 21:00:37.363021 12761 net.cpp:84] Creating Layer layer_512_1_bn1
I0527 21:00:37.363025 12761 net.cpp:406] layer_512_1_bn1 <- layer_256_6_sum
I0527 21:00:37.363031 12761 net.cpp:380] layer_512_1_bn1 -> layer_512_1_bn1
I0527 21:00:37.363234 12761 net.cpp:122] Setting up layer_512_1_bn1
I0527 21:00:37.363242 12761 net.cpp:129] Top shape: 50 256 14 14 (2508800)
I0527 21:00:37.363245 12761 net.cpp:137] Memory required for data: 3713024200
I0527 21:00:37.363253 12761 layer_factory.hpp:77] Creating layer layer_512_1_scale1
I0527 21:00:37.363263 12761 net.cpp:84] Creating Layer layer_512_1_scale1
I0527 21:00:37.363268 12761 net.cpp:406] layer_512_1_scale1 <- layer_512_1_bn1
I0527 21:00:37.363273 12761 net.cpp:367] layer_512_1_scale1 -> layer_512_1_bn1 (in-place)
I0527 21:00:37.363323 12761 layer_factory.hpp:77] Creating layer layer_512_1_scale1
I0527 21:00:37.363435 12761 net.cpp:122] Setting up layer_512_1_scale1
I0527 21:00:37.363445 12761 net.cpp:129] Top shape: 50 256 14 14 (2508800)
I0527 21:00:37.363447 12761 net.cpp:137] Memory required for data: 3723059400
I0527 21:00:37.363452 12761 layer_factory.hpp:77] Creating layer layer_512_1_relu1
I0527 21:00:37.363461 12761 net.cpp:84] Creating Layer layer_512_1_relu1
I0527 21:00:37.363466 12761 net.cpp:406] layer_512_1_relu1 <- layer_512_1_bn1
I0527 21:00:37.363469 12761 net.cpp:367] layer_512_1_relu1 -> layer_512_1_bn1 (in-place)
I0527 21:00:37.364215 12761 net.cpp:122] Setting up layer_512_1_relu1
I0527 21:00:37.364228 12761 net.cpp:129] Top shape: 50 256 14 14 (2508800)
I0527 21:00:37.364233 12761 net.cpp:137] Memory required for data: 3733094600
I0527 21:00:37.364235 12761 layer_factory.hpp:77] Creating layer layer_512_1_bn1_layer_512_1_relu1_0_split
I0527 21:00:37.364241 12761 net.cpp:84] Creating Layer layer_512_1_bn1_layer_512_1_relu1_0_split
I0527 21:00:37.364245 12761 net.cpp:406] layer_512_1_bn1_layer_512_1_relu1_0_split <- layer_512_1_bn1
I0527 21:00:37.364253 12761 net.cpp:380] layer_512_1_bn1_layer_512_1_relu1_0_split -> layer_512_1_bn1_layer_512_1_relu1_0_split_0
I0527 21:00:37.364259 12761 net.cpp:380] layer_512_1_bn1_layer_512_1_relu1_0_split -> layer_512_1_bn1_layer_512_1_relu1_0_split_1
I0527 21:00:37.364308 12761 net.cpp:122] Setting up layer_512_1_bn1_layer_512_1_relu1_0_split
I0527 21:00:37.364316 12761 net.cpp:129] Top shape: 50 256 14 14 (2508800)
I0527 21:00:37.364320 12761 net.cpp:129] Top shape: 50 256 14 14 (2508800)
I0527 21:00:37.364323 12761 net.cpp:137] Memory required for data: 3753165000
I0527 21:00:37.364326 12761 layer_factory.hpp:77] Creating layer layer_512_1_conv1
I0527 21:00:37.364338 12761 net.cpp:84] Creating Layer layer_512_1_conv1
I0527 21:00:37.364343 12761 net.cpp:406] layer_512_1_conv1 <- layer_512_1_bn1_layer_512_1_relu1_0_split_0
I0527 21:00:37.364351 12761 net.cpp:380] layer_512_1_conv1 -> layer_512_1_conv1
I0527 21:00:37.379014 12761 net.cpp:122] Setting up layer_512_1_conv1
I0527 21:00:37.379052 12761 net.cpp:129] Top shape: 50 512 7 7 (1254400)
I0527 21:00:37.379056 12761 net.cpp:137] Memory required for data: 3758182600
I0527 21:00:37.379067 12761 layer_factory.hpp:77] Creating layer layer_512_1_bn2
I0527 21:00:37.379081 12761 net.cpp:84] Creating Layer layer_512_1_bn2
I0527 21:00:37.379087 12761 net.cpp:406] layer_512_1_bn2 <- layer_512_1_conv1
I0527 21:00:37.379094 12761 net.cpp:367] layer_512_1_bn2 -> layer_512_1_conv1 (in-place)
I0527 21:00:37.379305 12761 net.cpp:122] Setting up layer_512_1_bn2
I0527 21:00:37.379314 12761 net.cpp:129] Top shape: 50 512 7 7 (1254400)
I0527 21:00:37.379317 12761 net.cpp:137] Memory required for data: 3763200200
I0527 21:00:37.379325 12761 layer_factory.hpp:77] Creating layer layer_512_1_scale2
I0527 21:00:37.379334 12761 net.cpp:84] Creating Layer layer_512_1_scale2
I0527 21:00:37.379338 12761 net.cpp:406] layer_512_1_scale2 <- layer_512_1_conv1
I0527 21:00:37.379343 12761 net.cpp:367] layer_512_1_scale2 -> layer_512_1_conv1 (in-place)
I0527 21:00:37.379387 12761 layer_factory.hpp:77] Creating layer layer_512_1_scale2
I0527 21:00:37.379503 12761 net.cpp:122] Setting up layer_512_1_scale2
I0527 21:00:37.379511 12761 net.cpp:129] Top shape: 50 512 7 7 (1254400)
I0527 21:00:37.379514 12761 net.cpp:137] Memory required for data: 3768217800
I0527 21:00:37.379520 12761 layer_factory.hpp:77] Creating layer layer_512_1_relu2
I0527 21:00:37.379528 12761 net.cpp:84] Creating Layer layer_512_1_relu2
I0527 21:00:37.379531 12761 net.cpp:406] layer_512_1_relu2 <- layer_512_1_conv1
I0527 21:00:37.379536 12761 net.cpp:367] layer_512_1_relu2 -> layer_512_1_conv1 (in-place)
I0527 21:00:37.380421 12761 net.cpp:122] Setting up layer_512_1_relu2
I0527 21:00:37.380450 12761 net.cpp:129] Top shape: 50 512 7 7 (1254400)
I0527 21:00:37.380453 12761 net.cpp:137] Memory required for data: 3773235400
I0527 21:00:37.380458 12761 layer_factory.hpp:77] Creating layer layer_512_1_conv2
I0527 21:00:37.380475 12761 net.cpp:84] Creating Layer layer_512_1_conv2
I0527 21:00:37.380481 12761 net.cpp:406] layer_512_1_conv2 <- layer_512_1_conv1
I0527 21:00:37.380491 12761 net.cpp:380] layer_512_1_conv2 -> layer_512_1_conv2
I0527 21:00:37.412348 12761 net.cpp:122] Setting up layer_512_1_conv2
I0527 21:00:37.412375 12761 net.cpp:129] Top shape: 50 512 7 7 (1254400)
I0527 21:00:37.412379 12761 net.cpp:137] Memory required for data: 3778253000
I0527 21:00:37.412390 12761 layer_factory.hpp:77] Creating layer layer_512_1_conv_expand
I0527 21:00:37.412406 12761 net.cpp:84] Creating Layer layer_512_1_conv_expand
I0527 21:00:37.412431 12761 net.cpp:406] layer_512_1_conv_expand <- layer_512_1_bn1_layer_512_1_relu1_0_split_1
I0527 21:00:37.412441 12761 net.cpp:380] layer_512_1_conv_expand -> layer_512_1_conv_expand
I0527 21:00:37.417943 12761 net.cpp:122] Setting up layer_512_1_conv_expand
I0527 21:00:37.417958 12761 net.cpp:129] Top shape: 50 512 7 7 (1254400)
I0527 21:00:37.417963 12761 net.cpp:137] Memory required for data: 3783270600
I0527 21:00:37.417968 12761 layer_factory.hpp:77] Creating layer layer_512_1_sum
I0527 21:00:37.417974 12761 net.cpp:84] Creating Layer layer_512_1_sum
I0527 21:00:37.417979 12761 net.cpp:406] layer_512_1_sum <- layer_512_1_conv_expand
I0527 21:00:37.417984 12761 net.cpp:406] layer_512_1_sum <- layer_512_1_conv2
I0527 21:00:37.417989 12761 net.cpp:380] layer_512_1_sum -> layer_512_1_sum
I0527 21:00:37.418018 12761 net.cpp:122] Setting up layer_512_1_sum
I0527 21:00:37.418025 12761 net.cpp:129] Top shape: 50 512 7 7 (1254400)
I0527 21:00:37.418028 12761 net.cpp:137] Memory required for data: 3788288200
I0527 21:00:37.418031 12761 layer_factory.hpp:77] Creating layer layer_512_1_sum_layer_512_1_sum_0_split
I0527 21:00:37.418037 12761 net.cpp:84] Creating Layer layer_512_1_sum_layer_512_1_sum_0_split
I0527 21:00:37.418041 12761 net.cpp:406] layer_512_1_sum_layer_512_1_sum_0_split <- layer_512_1_sum
I0527 21:00:37.418046 12761 net.cpp:380] layer_512_1_sum_layer_512_1_sum_0_split -> layer_512_1_sum_layer_512_1_sum_0_split_0
I0527 21:00:37.418053 12761 net.cpp:380] layer_512_1_sum_layer_512_1_sum_0_split -> layer_512_1_sum_layer_512_1_sum_0_split_1
I0527 21:00:37.418090 12761 net.cpp:122] Setting up layer_512_1_sum_layer_512_1_sum_0_split
I0527 21:00:37.418097 12761 net.cpp:129] Top shape: 50 512 7 7 (1254400)
I0527 21:00:37.418102 12761 net.cpp:129] Top shape: 50 512 7 7 (1254400)
I0527 21:00:37.418103 12761 net.cpp:137] Memory required for data: 3798323400
I0527 21:00:37.418107 12761 layer_factory.hpp:77] Creating layer layer_512_2_bn1
I0527 21:00:37.418114 12761 net.cpp:84] Creating Layer layer_512_2_bn1
I0527 21:00:37.418118 12761 net.cpp:406] layer_512_2_bn1 <- layer_512_1_sum_layer_512_1_sum_0_split_0
I0527 21:00:37.418123 12761 net.cpp:380] layer_512_2_bn1 -> layer_512_2_bn1
I0527 21:00:37.418329 12761 net.cpp:122] Setting up layer_512_2_bn1
I0527 21:00:37.418337 12761 net.cpp:129] Top shape: 50 512 7 7 (1254400)
I0527 21:00:37.418340 12761 net.cpp:137] Memory required for data: 3803341000
I0527 21:00:37.418347 12761 layer_factory.hpp:77] Creating layer layer_512_2_scale1
I0527 21:00:37.418354 12761 net.cpp:84] Creating Layer layer_512_2_scale1
I0527 21:00:37.418359 12761 net.cpp:406] layer_512_2_scale1 <- layer_512_2_bn1
I0527 21:00:37.418364 12761 net.cpp:367] layer_512_2_scale1 -> layer_512_2_bn1 (in-place)
I0527 21:00:37.418406 12761 layer_factory.hpp:77] Creating layer layer_512_2_scale1
I0527 21:00:37.418521 12761 net.cpp:122] Setting up layer_512_2_scale1
I0527 21:00:37.418529 12761 net.cpp:129] Top shape: 50 512 7 7 (1254400)
I0527 21:00:37.418532 12761 net.cpp:137] Memory required for data: 3808358600
I0527 21:00:37.418539 12761 layer_factory.hpp:77] Creating layer layer_512_2_relu1
I0527 21:00:37.418545 12761 net.cpp:84] Creating Layer layer_512_2_relu1
I0527 21:00:37.418547 12761 net.cpp:406] layer_512_2_relu1 <- layer_512_2_bn1
I0527 21:00:37.418553 12761 net.cpp:367] layer_512_2_relu1 -> layer_512_2_bn1 (in-place)
I0527 21:00:37.419230 12761 net.cpp:122] Setting up layer_512_2_relu1
I0527 21:00:37.419240 12761 net.cpp:129] Top shape: 50 512 7 7 (1254400)
I0527 21:00:37.419244 12761 net.cpp:137] Memory required for data: 3813376200
I0527 21:00:37.419246 12761 layer_factory.hpp:77] Creating layer layer_512_2_conv1
I0527 21:00:37.419257 12761 net.cpp:84] Creating Layer layer_512_2_conv1
I0527 21:00:37.419261 12761 net.cpp:406] layer_512_2_conv1 <- layer_512_2_bn1
I0527 21:00:37.419268 12761 net.cpp:380] layer_512_2_conv1 -> layer_512_2_conv1
I0527 21:00:37.447902 12761 net.cpp:122] Setting up layer_512_2_conv1
I0527 21:00:37.447933 12761 net.cpp:129] Top shape: 50 512 7 7 (1254400)
I0527 21:00:37.447962 12761 net.cpp:137] Memory required for data: 3818393800
I0527 21:00:37.447973 12761 layer_factory.hpp:77] Creating layer layer_512_2_bn2
I0527 21:00:37.447984 12761 net.cpp:84] Creating Layer layer_512_2_bn2
I0527 21:00:37.447989 12761 net.cpp:406] layer_512_2_bn2 <- layer_512_2_conv1
I0527 21:00:37.447999 12761 net.cpp:367] layer_512_2_bn2 -> layer_512_2_conv1 (in-place)
I0527 21:00:37.448202 12761 net.cpp:122] Setting up layer_512_2_bn2
I0527 21:00:37.448210 12761 net.cpp:129] Top shape: 50 512 7 7 (1254400)
I0527 21:00:37.448213 12761 net.cpp:137] Memory required for data: 3823411400
I0527 21:00:37.448221 12761 layer_factory.hpp:77] Creating layer layer_512_2_scale2
I0527 21:00:37.448230 12761 net.cpp:84] Creating Layer layer_512_2_scale2
I0527 21:00:37.448233 12761 net.cpp:406] layer_512_2_scale2 <- layer_512_2_conv1
I0527 21:00:37.448238 12761 net.cpp:367] layer_512_2_scale2 -> layer_512_2_conv1 (in-place)
I0527 21:00:37.448282 12761 layer_factory.hpp:77] Creating layer layer_512_2_scale2
I0527 21:00:37.448396 12761 net.cpp:122] Setting up layer_512_2_scale2
I0527 21:00:37.448403 12761 net.cpp:129] Top shape: 50 512 7 7 (1254400)
I0527 21:00:37.448406 12761 net.cpp:137] Memory required for data: 3828429000
I0527 21:00:37.448412 12761 layer_factory.hpp:77] Creating layer layer_512_2_relu2
I0527 21:00:37.448418 12761 net.cpp:84] Creating Layer layer_512_2_relu2
I0527 21:00:37.448422 12761 net.cpp:406] layer_512_2_relu2 <- layer_512_2_conv1
I0527 21:00:37.448429 12761 net.cpp:367] layer_512_2_relu2 -> layer_512_2_conv1 (in-place)
I0527 21:00:37.448989 12761 net.cpp:122] Setting up layer_512_2_relu2
I0527 21:00:37.449002 12761 net.cpp:129] Top shape: 50 512 7 7 (1254400)
I0527 21:00:37.449005 12761 net.cpp:137] Memory required for data: 3833446600
I0527 21:00:37.449008 12761 layer_factory.hpp:77] Creating layer layer_512_2_conv2
I0527 21:00:37.449020 12761 net.cpp:84] Creating Layer layer_512_2_conv2
I0527 21:00:37.449023 12761 net.cpp:406] layer_512_2_conv2 <- layer_512_2_conv1
I0527 21:00:37.449031 12761 net.cpp:380] layer_512_2_conv2 -> layer_512_2_conv2
I0527 21:00:37.477313 12761 net.cpp:122] Setting up layer_512_2_conv2
I0527 21:00:37.477349 12761 net.cpp:129] Top shape: 50 512 7 7 (1254400)
I0527 21:00:37.477354 12761 net.cpp:137] Memory required for data: 3838464200
I0527 21:00:37.477363 12761 layer_factory.hpp:77] Creating layer layer_512_2_sum
I0527 21:00:37.477376 12761 net.cpp:84] Creating Layer layer_512_2_sum
I0527 21:00:37.477382 12761 net.cpp:406] layer_512_2_sum <- layer_512_2_conv2
I0527 21:00:37.477391 12761 net.cpp:406] layer_512_2_sum <- layer_512_1_sum_layer_512_1_sum_0_split_1
I0527 21:00:37.477396 12761 net.cpp:380] layer_512_2_sum -> layer_512_2_sum
I0527 21:00:37.477432 12761 net.cpp:122] Setting up layer_512_2_sum
I0527 21:00:37.477440 12761 net.cpp:129] Top shape: 50 512 7 7 (1254400)
I0527 21:00:37.477443 12761 net.cpp:137] Memory required for data: 3843481800
I0527 21:00:37.477447 12761 layer_factory.hpp:77] Creating layer layer_512_2_sum_layer_512_2_sum_0_split
I0527 21:00:37.477452 12761 net.cpp:84] Creating Layer layer_512_2_sum_layer_512_2_sum_0_split
I0527 21:00:37.477458 12761 net.cpp:406] layer_512_2_sum_layer_512_2_sum_0_split <- layer_512_2_sum
I0527 21:00:37.477463 12761 net.cpp:380] layer_512_2_sum_layer_512_2_sum_0_split -> layer_512_2_sum_layer_512_2_sum_0_split_0
I0527 21:00:37.477471 12761 net.cpp:380] layer_512_2_sum_layer_512_2_sum_0_split -> layer_512_2_sum_layer_512_2_sum_0_split_1
I0527 21:00:37.477514 12761 net.cpp:122] Setting up layer_512_2_sum_layer_512_2_sum_0_split
I0527 21:00:37.477521 12761 net.cpp:129] Top shape: 50 512 7 7 (1254400)
I0527 21:00:37.477526 12761 net.cpp:129] Top shape: 50 512 7 7 (1254400)
I0527 21:00:37.477530 12761 net.cpp:137] Memory required for data: 3853517000
I0527 21:00:37.477532 12761 layer_factory.hpp:77] Creating layer layer_512_3_bn1
I0527 21:00:37.477540 12761 net.cpp:84] Creating Layer layer_512_3_bn1
I0527 21:00:37.477545 12761 net.cpp:406] layer_512_3_bn1 <- layer_512_2_sum_layer_512_2_sum_0_split_0
I0527 21:00:37.477550 12761 net.cpp:380] layer_512_3_bn1 -> layer_512_3_bn1
I0527 21:00:37.477779 12761 net.cpp:122] Setting up layer_512_3_bn1
I0527 21:00:37.477790 12761 net.cpp:129] Top shape: 50 512 7 7 (1254400)
I0527 21:00:37.477794 12761 net.cpp:137] Memory required for data: 3858534600
I0527 21:00:37.477803 12761 layer_factory.hpp:77] Creating layer layer_512_3_scale1
I0527 21:00:37.477811 12761 net.cpp:84] Creating Layer layer_512_3_scale1
I0527 21:00:37.477816 12761 net.cpp:406] layer_512_3_scale1 <- layer_512_3_bn1
I0527 21:00:37.477823 12761 net.cpp:367] layer_512_3_scale1 -> layer_512_3_bn1 (in-place)
I0527 21:00:37.477870 12761 layer_factory.hpp:77] Creating layer layer_512_3_scale1
I0527 21:00:37.477991 12761 net.cpp:122] Setting up layer_512_3_scale1
I0527 21:00:37.478003 12761 net.cpp:129] Top shape: 50 512 7 7 (1254400)
I0527 21:00:37.478008 12761 net.cpp:137] Memory required for data: 3863552200
I0527 21:00:37.478013 12761 layer_factory.hpp:77] Creating layer layer_512_3_relu1
I0527 21:00:37.478019 12761 net.cpp:84] Creating Layer layer_512_3_relu1
I0527 21:00:37.478024 12761 net.cpp:406] layer_512_3_relu1 <- layer_512_3_bn1
I0527 21:00:37.478027 12761 net.cpp:367] layer_512_3_relu1 -> layer_512_3_bn1 (in-place)
I0527 21:00:37.478222 12761 net.cpp:122] Setting up layer_512_3_relu1
I0527 21:00:37.478233 12761 net.cpp:129] Top shape: 50 512 7 7 (1254400)
I0527 21:00:37.478236 12761 net.cpp:137] Memory required for data: 3868569800
I0527 21:00:37.478240 12761 layer_factory.hpp:77] Creating layer layer_512_3_conv1
I0527 21:00:37.478252 12761 net.cpp:84] Creating Layer layer_512_3_conv1
I0527 21:00:37.478257 12761 net.cpp:406] layer_512_3_conv1 <- layer_512_3_bn1
I0527 21:00:37.478265 12761 net.cpp:380] layer_512_3_conv1 -> layer_512_3_conv1
I0527 21:00:37.506625 12761 net.cpp:122] Setting up layer_512_3_conv1
I0527 21:00:37.506660 12761 net.cpp:129] Top shape: 50 512 7 7 (1254400)
I0527 21:00:37.506667 12761 net.cpp:137] Memory required for data: 3873587400
I0527 21:00:37.506682 12761 layer_factory.hpp:77] Creating layer layer_512_3_bn2
I0527 21:00:37.506701 12761 net.cpp:84] Creating Layer layer_512_3_bn2
I0527 21:00:37.506711 12761 net.cpp:406] layer_512_3_bn2 <- layer_512_3_conv1
I0527 21:00:37.506721 12761 net.cpp:367] layer_512_3_bn2 -> layer_512_3_conv1 (in-place)
I0527 21:00:37.507031 12761 net.cpp:122] Setting up layer_512_3_bn2
I0527 21:00:37.507047 12761 net.cpp:129] Top shape: 50 512 7 7 (1254400)
I0527 21:00:37.507056 12761 net.cpp:137] Memory required for data: 3878605000
I0527 21:00:37.507071 12761 layer_factory.hpp:77] Creating layer layer_512_3_scale2
I0527 21:00:37.507086 12761 net.cpp:84] Creating Layer layer_512_3_scale2
I0527 21:00:37.507095 12761 net.cpp:406] layer_512_3_scale2 <- layer_512_3_conv1
I0527 21:00:37.507107 12761 net.cpp:367] layer_512_3_scale2 -> layer_512_3_conv1 (in-place)
I0527 21:00:37.507184 12761 layer_factory.hpp:77] Creating layer layer_512_3_scale2
I0527 21:00:37.507396 12761 net.cpp:122] Setting up layer_512_3_scale2
I0527 21:00:37.507407 12761 net.cpp:129] Top shape: 50 512 7 7 (1254400)
I0527 21:00:37.507412 12761 net.cpp:137] Memory required for data: 3883622600
I0527 21:00:37.507424 12761 layer_factory.hpp:77] Creating layer layer_512_3_relu2
I0527 21:00:37.507436 12761 net.cpp:84] Creating Layer layer_512_3_relu2
I0527 21:00:37.507444 12761 net.cpp:406] layer_512_3_relu2 <- layer_512_3_conv1
I0527 21:00:37.507457 12761 net.cpp:367] layer_512_3_relu2 -> layer_512_3_conv1 (in-place)
I0527 21:00:37.507710 12761 net.cpp:122] Setting up layer_512_3_relu2
I0527 21:00:37.507727 12761 net.cpp:129] Top shape: 50 512 7 7 (1254400)
I0527 21:00:37.507735 12761 net.cpp:137] Memory required for data: 3888640200
I0527 21:00:37.507741 12761 layer_factory.hpp:77] Creating layer layer_512_3_conv2
I0527 21:00:37.507760 12761 net.cpp:84] Creating Layer layer_512_3_conv2
I0527 21:00:37.507769 12761 net.cpp:406] layer_512_3_conv2 <- layer_512_3_conv1
I0527 21:00:37.507782 12761 net.cpp:380] layer_512_3_conv2 -> layer_512_3_conv2
I0527 21:00:37.535663 12761 net.cpp:122] Setting up layer_512_3_conv2
I0527 21:00:37.535720 12761 net.cpp:129] Top shape: 50 512 7 7 (1254400)
I0527 21:00:37.535725 12761 net.cpp:137] Memory required for data: 3893657800
I0527 21:00:37.535735 12761 layer_factory.hpp:77] Creating layer layer_512_3_sum
I0527 21:00:37.535745 12761 net.cpp:84] Creating Layer layer_512_3_sum
I0527 21:00:37.535764 12761 net.cpp:406] layer_512_3_sum <- layer_512_3_conv2
I0527 21:00:37.535771 12761 net.cpp:406] layer_512_3_sum <- layer_512_2_sum_layer_512_2_sum_0_split_1
I0527 21:00:37.535780 12761 net.cpp:380] layer_512_3_sum -> layer_512_3_sum
I0527 21:00:37.535817 12761 net.cpp:122] Setting up layer_512_3_sum
I0527 21:00:37.535825 12761 net.cpp:129] Top shape: 50 512 7 7 (1254400)
I0527 21:00:37.535830 12761 net.cpp:137] Memory required for data: 3898675400
I0527 21:00:37.535832 12761 layer_factory.hpp:77] Creating layer last_bn
I0527 21:00:37.535840 12761 net.cpp:84] Creating Layer last_bn
I0527 21:00:37.535842 12761 net.cpp:406] last_bn <- layer_512_3_sum
I0527 21:00:37.535850 12761 net.cpp:367] last_bn -> layer_512_3_sum (in-place)
I0527 21:00:37.536054 12761 net.cpp:122] Setting up last_bn
I0527 21:00:37.536063 12761 net.cpp:129] Top shape: 50 512 7 7 (1254400)
I0527 21:00:37.536067 12761 net.cpp:137] Memory required for data: 3903693000
I0527 21:00:37.536074 12761 layer_factory.hpp:77] Creating layer last_scale
I0527 21:00:37.536089 12761 net.cpp:84] Creating Layer last_scale
I0527 21:00:37.536094 12761 net.cpp:406] last_scale <- layer_512_3_sum
I0527 21:00:37.536099 12761 net.cpp:367] last_scale -> layer_512_3_sum (in-place)
I0527 21:00:37.536146 12761 layer_factory.hpp:77] Creating layer last_scale
I0527 21:00:37.536267 12761 net.cpp:122] Setting up last_scale
I0527 21:00:37.536275 12761 net.cpp:129] Top shape: 50 512 7 7 (1254400)
I0527 21:00:37.536279 12761 net.cpp:137] Memory required for data: 3908710600
I0527 21:00:37.536284 12761 layer_factory.hpp:77] Creating layer last_relu
I0527 21:00:37.536293 12761 net.cpp:84] Creating Layer last_relu
I0527 21:00:37.536298 12761 net.cpp:406] last_relu <- layer_512_3_sum
I0527 21:00:37.536301 12761 net.cpp:367] last_relu -> layer_512_3_sum (in-place)
I0527 21:00:37.537668 12761 net.cpp:122] Setting up last_relu
I0527 21:00:37.537678 12761 net.cpp:129] Top shape: 50 512 7 7 (1254400)
I0527 21:00:37.537683 12761 net.cpp:137] Memory required for data: 3913728200
I0527 21:00:37.537685 12761 layer_factory.hpp:77] Creating layer global_pool
I0527 21:00:37.537693 12761 net.cpp:84] Creating Layer global_pool
I0527 21:00:37.537695 12761 net.cpp:406] global_pool <- layer_512_3_sum
I0527 21:00:37.537703 12761 net.cpp:380] global_pool -> global_pool
I0527 21:00:37.539888 12761 net.cpp:122] Setting up global_pool
I0527 21:00:37.539901 12761 net.cpp:129] Top shape: 50 512 1 1 (25600)
I0527 21:00:37.539903 12761 net.cpp:137] Memory required for data: 3913830600
I0527 21:00:37.539907 12761 layer_factory.hpp:77] Creating layer score
I0527 21:00:37.539917 12761 net.cpp:84] Creating Layer score
I0527 21:00:37.539921 12761 net.cpp:406] score <- global_pool
I0527 21:00:37.539927 12761 net.cpp:380] score -> score
I0527 21:00:37.540041 12761 net.cpp:122] Setting up score
I0527 21:00:37.540050 12761 net.cpp:129] Top shape: 50 2 (100)
I0527 21:00:37.540053 12761 net.cpp:137] Memory required for data: 3913831000
I0527 21:00:37.540060 12761 layer_factory.hpp:77] Creating layer loss
I0527 21:00:37.540065 12761 net.cpp:84] Creating Layer loss
I0527 21:00:37.540068 12761 net.cpp:406] loss <- score
I0527 21:00:37.540072 12761 net.cpp:406] loss <- label
I0527 21:00:37.540081 12761 net.cpp:380] loss -> loss
I0527 21:00:37.540089 12761 layer_factory.hpp:77] Creating layer loss
…
I0527 21:00:37.545632 12761 net.cpp:51] Initializing net from parameters: 
name: "Pre-ResNet-34"
state {
  phase: TEST
}
layer {
  name: "data"
  type: "Data"
  top: "data"
  top: "label"
  include {
    phase: TEST
  }
  transform_param {
    mirror: false
    crop_size: 224
    mean_file: "/home/k/PycharmProjects/AgeGenderDeepLearning-master/Folds/lmdb/Test_fold_is_0/mean.binaryproto"
  }
  data_param {
    source: "/home/k/PycharmProjects/AgeGenderDeepLearning-master/Folds/lmdb/Test_fold_is_0/gender_val_lmdb"
    batch_size: 30
    backend: LMDB
  }
}
layer {
  name: "data_bn"
  type: "BatchNorm"
  bottom: "data"
  top: "data_bn"
  param {
    lr_mult: 0
    decay_mult: 0
  }
  param {
    lr_mult: 0
    decay_mult: 0
  }
  param {
    lr_mult: 0
    decay_mult: 0
  }
}
layer {
  name: "data_scale"
  type: "Scale"
  bottom: "data_bn"
  top: "data_bn"
  param {
    lr_mult: 1
    decay_mult: 1
  }
  param {
    lr_mult: 2
    decay_mult: 1
  }
  scale_param {
    bias_term: true
  }
}
layer {
  name: "conv1"
  type: "Convolution"
  bottom: "data_bn"
  top: "conv1"
  param {
    lr_mult: 1
    decay_mult: 1
  }
  param {
    lr_mult: 2
    decay_mult: 1
  }
  convolution_param {
    num_output: 64
    pad: 3
    kernel_size: 7
    stride: 2
    weight_filler {
      type: "msra"
      variance_norm: FAN_OUT
    }
    bias_filler {
      type: "constant"
      value: 0
    }
  }
}
layer {
  name: "conv1_bn"
  type: "BatchNorm"
  bottom: "conv1"
  top: "conv1"
  param {
    lr_mult: 0
    decay_mult: 0
  }
  param {
    lr_mult: 0
    decay_mult: 0
  }
  param {
    lr_mult: 0
    decay_mult: 0
  }
}
layer {
  name: "conv1_scale"
  type: "Scale"
  bottom: "conv1"
  top: "conv1"
  param {
    lr_mult: 1
    decay_mult: 1
  }
  param {
    lr_mult: 2
    decay_mult: 1
  }
  scale_param {
    bias_term: true
  }
}
layer {
  name: "conv1_relu"
  type: "ReLU"
  bottom: "conv1"
  top: "conv1"
}
layer {
  name: "conv1_pool"
  type: "Pooling"
  bottom: "conv1"
  top: "conv1_pool"
  pooling_param {
    kernel_size: 3
    stride: 2
  }
}
layer {
  name: "layer_64_1_conv1"
  type: "Convolution"
  bottom: "conv1_pool"
  top: "layer_64_1_conv1"
  param {
    lr_mult: 1
    decay_mult: 1
  }
  convolution_param {
    num_output: 64
    bias_term: false
    pad: 1
    kernel_size: 3
    stride: 1
    weight_filler {
      type: "msra"
    }
    bias_filler {
      type: "constant"
      value: 0
    }
  }
}
layer {
  name: "layer_64_1_bn2"
  type: "BatchNorm"
  bottom: "layer_64_1_conv1"
  top: "layer_64_1_conv1"
  param {
    lr_mult: 0
    decay_mult: 0
  }
  param {
    lr_mult: 0
    decay_mult: 0
  }
  param {
    lr_mult: 0
    decay_mult: 0
  }
}
layer {
  name: "layer_64_1_scale2"
  type: "Scale"
  bottom: "layer_64_1_conv1"
  top: "layer_64_1_conv1"
  param {
    lr_mult: 1
    decay_mult: 1
  }
  param {
    lr_mult: 2
    decay_mult: 1
  }
  scale_param {
    bias_term: true
  }
}
layer {
  name: "layer_64_1_relu2"
  type: "ReLU"
  bottom: "layer_64_1_conv1"
  top: "layer_64_1_conv1"
}
layer {
  name: "layer_64_1_conv2"
  type: "Convolution"
  bottom: "layer_64_1_conv1"
  top: "layer_64_1_conv2"
  param {
    lr_mult: 1
    decay_mult: 1
  }
  convolution_param {
    num_output: 64
    bias_term: false
    pad: 1
    kernel_size: 3
    stride: 1
    weight_filler {
      type: "msra"
    }
    bias_filler {
      type: "constant"
      value: 0
    }
  }
}
layer {
  name: "layer_64_1_sum"
  type: "Eltwise"
  bottom: "layer_64_1_conv2"
  bottom: "conv1_pool"
  top: "layer_64_1_sum"
}
layer {
  name: "layer_64_2_bn1"
  type: "BatchNorm"
  bottom: "layer_64_1_sum"
  top: "layer_64_2_bn1"
  param {
    lr_mult: 0
    decay_mult: 0
  }
  param {
    lr_mult: 0
    decay_mult: 0
  }
  param {
    lr_mult: 0
    decay_mult: 0
  }
}
layer {
  name: "layer_64_2_scale1"
  type: "Scale"
  bottom: "layer_64_2_bn1"
  top: "layer_64_2_bn1"
  param {
    lr_mult: 1
    decay_mult: 1
  }
  param {
    lr_mult: 2
    decay_mult: 1
  }
  scale_param {
    bias_term: true
  }
}
layer {
  name: "layer_64_2_relu1"
  type: "ReLU"
  bottom: "layer_64_2_bn1"
  top: "layer_64_2_bn1"
}
layer {
  name: "layer_64_2_conv1"
  type: "Convolution"
  bottom: "layer_64_2_bn1"
  top: "layer_64_2_conv1"
  param {
    lr_mult: 1
    decay_mult: 1
  }
  convolution_param {
    num_output: 64
    bias_term: false
    pad: 1
    kernel_size: 3
    stride: 1
    weight_filler {
      type: "msra"
    }
    bias_filler {
      type: "constant"
      value: 0
    }
  }
}
layer {
  name: "layer_64_2_bn2"
  type: "BatchNorm"
  bottom: "layer_64_2_conv1"
  top: "layer_64_2_conv1"
  param {
    lr_mult: 0
    decay_mult: 0
  }
  param {
    lr_mult: 0
    decay_mult: 0
  }
  param {
    lr_mult: 0
    decay_mult: 0
  }
}
layer {
  name: "layer_64_2_scale2"
  type: "Scale"
  bottom: "layer_64_2_conv1"
  top: "layer_64_2_conv1"
  param {
    lr_mult: 1
    decay_mult: 1
  }
  param {
    lr_mult: 2
    decay_mult: 1
  }
  scale_param {
    bias_term: true
  }
}
layer {
  name: "layer_64_2_relu2"
  type: "ReLU"
  bottom: "layer_64_2_conv1"
  top: "layer_64_2_conv1"
}
layer {
  name: "layer_64_2_conv2"
  type: "Convolution"
  bottom: "layer_64_2_conv1"
  top: "layer_64_2_conv2"
  param {
    lr_mult: 1
    decay_mult: 1
  }
  convolution_param {
    num_output: 64
    bias_term: false
    pad: 1
    kernel_size: 3
    stride: 1
    weight_filler {
      type: "msra"
    }
    bias_filler {
      type: "constant"
      value: 0
    }
  }
}
layer {
  name: "layer_64_2_sum"
  type: "Eltwise"
  bottom: "layer_64_2_conv2"
  bottom: "layer_64_1_sum"
  top: "layer_64_2_sum"
}
layer {
  name: "layer_64_3_bn1"
  type: "BatchNorm"
  bottom: "layer_64_2_sum"
  top: "layer_64_3_bn1"
  param {
    lr_mult: 0
    decay_mult: 0
  }
  param {
    lr_mult: 0
    decay_mult: 0
  }
  param {
    lr_mult: 0
    decay_mult: 0
  }
}
layer {
  name: "layer_64_3_scale1"
  type: "Scale"
  bottom: "layer_64_3_bn1"
  top: "layer_64_3_bn1"
  param {
    lr_mult: 1
    decay_mult: 1
  }
  param {
    lr_mult: 2
    decay_mult: 1
  }
  scale_param {
    bias_term: true
  }
}
layer {
  name: "layer_64_3_relu1"
  type: "ReLU"
  bottom: "layer_64_3_bn1"
  top: "layer_64_3_bn1"
}
layer {
  name: "layer_64_3_conv1"
  type: "Convolution"
  bottom: "layer_64_3_bn1"
  top: "layer_64_3_conv1"
  param {
    lr_mult: 1
    decay_mult: 1
  }
  convolution_param {
    num_output: 64
    bias_term: false
    pad: 1
    kernel_size: 3
    stride: 1
    weight_filler {
      type: "msra"
    }
    bias_filler {
      type: "constant"
      value: 0
    }
  }
}
layer {
  name: "layer_64_3_bn2"
  type: "BatchNorm"
  bottom: "layer_64_3_conv1"
  top: "layer_64_3_conv1"
  param {
    lr_mult: 0
    decay_mult: 0
  }
  param {
    lr_mult: 0
    decay_mult: 0
  }
  param {
    lr_mult: 0
    decay_mult: 0
  }
}
layer {
  name: "layer_64_3_scale2"
  type: "Scale"
  bottom: "layer_64_3_conv1"
  top: "layer_64_3_conv1"
  param {
    lr_mult: 1
    decay_mult: 1
  }
  param {
    lr_mult: 2
    decay_mult: 1
  }
  scale_param {
    bias_term: true
  }
}
layer {
  name: "layer_64_3_relu2"
  type: "ReLU"
  bottom: "layer_64_3_conv1"
  top: "layer_64_3_conv1"
}
layer {
  name: "layer_64_3_conv2"
  type: "Convolution"
  bottom: "layer_64_3_conv1"
  top: "layer_64_3_conv2"
  param {
    lr_mult: 1
    decay_mult: 1
  }
  convolution_param {
    num_output: 64
    bias_term: false
    pad: 1
    kernel_size: 3
    stride: 1
    weight_filler {
      type: "msra"
    }
    bias_filler {
      type: "constant"
      value: 0
    }
  }
}
layer {
  name: "layer_64_3_sum"
  type: "Eltwise"
  bottom: "layer_64_3_conv2"
  bottom: "layer_64_2_sum"
  top: "layer_64_3_sum"
}
layer {
  name: "layer_128_1_bn1"
  type: "BatchNorm"
  bottom: "layer_64_3_sum"
  top: "layer_128_1_bn1"
  param {
    lr_mult: 0
    decay_mult: 0
  }
  param {
    lr_mult: 0
    decay_mult: 0
  }
  param {
    lr_mult: 0
    decay_mult: 0
  }
}
layer {
  name: "layer_128_1_scale1"
  type: "Scale"
  bottom: "layer_128_1_bn1"
  top: "layer_128_1_bn1"
  param {
    lr_mult: 1
    decay_mult: 1
  }
  param {
    lr_mult: 2
    decay_mult: 1
  }
  scale_param {
    bias_term: true
  }
}
layer {
  name: "layer_128_1_relu1"
  type: "ReLU"
  bottom: "layer_128_1_bn1"
  top: "layer_128_1_bn1"
}
layer {
  name: "layer_128_1_conv1"
  type: "Convolution"
  bottom: "layer_128_1_bn1"
  top: "layer_128_1_conv1"
  param {
    lr_mult: 1
    decay_mult: 1
  }
  convolution_param {
    num_output: 128
    bias_term: false
    pad: 1
    kernel_size: 3
    stride: 2
    weight_filler {
      type: "msra"
    }
    bias_filler {
      type: "constant"
      value: 0
    }
  }
}
layer {
  name: "layer_128_1_bn2"
  type: "BatchNorm"
  bottom: "layer_128_1_conv1"
  top: "layer_128_1_conv1"
  param {
    lr_mult: 0
    decay_mult: 0
  }
  param {
    lr_mult: 0
    decay_mult: 0
  }
  param {
    lr_mult: 0
    decay_mult: 0
  }
}
layer {
  name: "layer_128_1_scale2"
  type: "Scale"
  bottom: "layer_128_1_conv1"
  top: "layer_128_1_conv1"
  param {
    lr_mult: 1
    decay_mult: 1
  }
  param {
    lr_mult: 2
    decay_mult: 1
  }
  scale_param {
    bias_term: true
  }
}
layer {
  name: "layer_128_1_relu2"
  type: "ReLU"
  bottom: "layer_128_1_conv1"
  top: "layer_128_1_conv1"
}
layer {
  name: "layer_128_1_conv2"
  type: "Convolution"
  bottom: "layer_128_1_conv1"
  top: "layer_128_1_conv2"
  param {
    lr_mult: 1
    decay_mult: 1
  }
  convolution_param {
    num_output: 128
    bias_term: false
    pad: 1
    kernel_size: 3
    stride: 1
    weight_filler {
      type: "msra"
    }
    bias_filler {
      type: "constant"
      value: 0
    }
  }
}
layer {
  name: "layer_128_1_conv_expand"
  type: "Convolution"
  bottom: "layer_128_1_bn1"
  top: "layer_128_1_conv_expand"
  param {
    lr_mult: 1
    decay_mult: 1
  }
  convolution_param {
    num_output: 128
    bias_term: false
    pad: 0
    kernel_size: 1
    stride: 2
    weight_filler {
      type: "msra"
    }
    bias_filler {
      type: "constant"
      value: 0
    }
  }
}
layer {
  name: "layer_128_1_sum"
  type: "Eltwise"
  bottom: "layer_128_1_conv_expand"
  bottom: "layer_128_1_conv2"
  top: "layer_128_1_sum"
}
layer {
  name: "layer_128_2_bn1"
  type: "BatchNorm"
  bottom: "layer_128_1_sum"
  top: "layer_128_2_bn1"
  param {
    lr_mult: 0
    decay_mult: 0
  }
  param {
    lr_mult: 0
    decay_mult: 0
  }
  param {
    lr_mult: 0
    decay_mult: 0
  }
}
layer {
  name: "layer_128_2_scale1"
  type: "Scale"
  bottom: "layer_128_2_bn1"
  top: "layer_128_2_bn1"
  param {
    lr_mult: 1
    decay_mult: 1
  }
  param {
    lr_mult: 2
    decay_mult: 1
  }
  scale_param {
    bias_term: true
  }
}
layer {
  name: "layer_128_2_relu1"
  type: "ReLU"
  bottom: "layer_128_2_bn1"
  top: "layer_128_2_bn1"
}
layer {
  name: "layer_128_2_conv1"
  type: "Convolution"
  bottom: "layer_128_2_bn1"
  top: "layer_128_2_conv1"
  param {
    lr_mult: 1
    decay_mult: 1
  }
  convolution_param {
    num_output: 128
    bias_term: false
    pad: 1
    kernel_size: 3
    stride: 1
    weight_filler {
      type: "msra"
    }
    bias_filler {
      type: "constant"
      value: 0
    }
  }
}
layer {
  name: "layer_128_2_bn2"
  type: "BatchNorm"
  bottom: "layer_128_2_conv1"
  top: "layer_128_2_conv1"
  param {
    lr_mult: 0
    decay_mult: 0
  }
  param {
    lr_mult: 0
    decay_mult: 0
  }
  param {
    lr_mult: 0
    decay_mult: 0
  }
}
layer {
  name: "layer_128_2_scale2"
  type: "Scale"
  bottom: "layer_128_2_conv1"
  top: "layer_128_2_conv1"
  param {
    lr_mult: 1
    decay_mult: 1
  }
  param {
    lr_mult: 2
    decay_mult: 1
  }
  scale_param {
    bias_term: true
  }
}
layer {
  name: "layer_128_2_relu2"
  type: "ReLU"
  bottom: "layer_128_2_conv1"
  top: "layer_128_2_conv1"
}
layer {
  name: "layer_128_2_conv2"
  type: "Convolution"
  bottom: "layer_128_2_conv1"
  top: "layer_128_2_conv2"
  param {
    lr_mult: 1
    decay_mult: 1
  }
  convolution_param {
    num_output: 128
    bias_term: false
    pad: 1
    kernel_size: 3
    stride: 1
    weight_filler {
      type: "msra"
    }
    bias_filler {
      type: "constant"
      value: 0
    }
  }
}
layer {
  name: "layer_128_2_sum"
  type: "Eltwise"
  bottom: "layer_128_2_conv2"
  bottom: "layer_128_1_sum"
  top: "layer_128_2_sum"
}
layer {
  name: "layer_128_3_bn1"
  type: "BatchNorm"
  bottom: "layer_128_2_sum"
  top: "layer_128_3_bn1"
  param {
    lr_mult: 0
    decay_mult: 0
  }
  param {
    lr_mult: 0
    decay_mult: 0
  }
  param {
    lr_mult: 0
    decay_mult: 0
  }
}
layer {
  name: "layer_128_3_scale1"
  type: "Scale"
  bottom: "layer_128_3_bn1"
  top: "layer_128_3_bn1"
  param {
    lr_mult: 1
    decay_mult: 1
  }
  param {
    lr_mult: 2
    decay_mult: 1
  }
  scale_param {
    bias_term: true
  }
}
layer {
  name: "layer_128_3_relu1"
  type: "ReLU"
  bottom: "layer_128_3_bn1"
  top: "layer_128_3_bn1"
}
layer {
  name: "layer_128_3_conv1"
  type: "Convolution"
  bottom: "layer_128_3_bn1"
  top: "layer_128_3_conv1"
  param {
    lr_mult: 1
    decay_mult: 1
  }
  convolution_param {
    num_output: 128
    bias_term: false
    pad: 1
    kernel_size: 3
    stride: 1
    weight_filler {
      type: "msra"
    }
    bias_filler {
      type: "constant"
      value: 0
    }
  }
}
layer {
  name: "layer_128_3_bn2"
  type: "BatchNorm"
  bottom: "layer_128_3_conv1"
  top: "layer_128_3_conv1"
  param {
    lr_mult: 0
    decay_mult: 0
  }
  param {
    lr_mult: 0
    decay_mult: 0
  }
  param {
    lr_mult: 0
    decay_mult: 0
  }
}
layer {
  name: "layer_128_3_scale2"
  type: "Scale"
  bottom: "layer_128_3_conv1"
  top: "layer_128_3_conv1"
  param {
    lr_mult: 1
    decay_mult: 1
  }
  param {
    lr_mult: 2
    decay_mult: 1
  }
  scale_param {
    bias_term: true
  }
}
layer {
  name: "layer_128_3_relu2"
  type: "ReLU"
  bottom: "layer_128_3_conv1"
  top: "layer_128_3_conv1"
}
layer {
  name: "layer_128_3_conv2"
  type: "Convolution"
  bottom: "layer_128_3_conv1"
  top: "layer_128_3_conv2"
  param {
    lr_mult: 1
    decay_mult: 1
  }
  convolution_param {
    num_output: 128
    bias_term: false
    pad: 1
    kernel_size: 3
    stride: 1
    weight_filler {
      type: "msra"
    }
    bias_filler {
      type: "constant"
      value: 0
    }
  }
}
layer {
  name: "layer_128_3_sum"
  type: "Eltwise"
  bottom: "layer_128_3_conv2"
  bottom: "layer_128_2_sum"
  top: "layer_128_3_sum"
}
layer {
  name: "layer_128_4_bn1"
  type: "BatchNorm"
  bottom: "layer_128_3_sum"
  top: "layer_128_4_bn1"
  param {
    lr_mult: 0
    decay_mult: 0
  }
  param {
    lr_mult: 0
    decay_mult: 0
  }
  param {
    lr_mult: 0
    decay_mult: 0
  }
}
layer {
  name: "layer_128_4_scale1"
  type: "Scale"
  bottom: "layer_128_4_bn1"
  top: "layer_128_4_bn1"
  param {
    lr_mult: 1
    decay_mult: 1
  }
  param {
    lr_mult: 2
    decay_mult: 1
  }
  scale_param {
    bias_term: true
  }
}
layer {
  name: "layer_128_4_relu1"
  type: "ReLU"
  bottom: "layer_128_4_bn1"
  top: "layer_128_4_bn1"
}
layer {
  name: "layer_128_4_conv1"
  type: "Convolution"
  bottom: "layer_128_4_bn1"
  top: "layer_128_4_conv1"
  param {
    lr_mult: 1
    decay_mult: 1
  }
  convolution_param {
    num_output: 128
    bias_term: false
    pad: 1
    kernel_size: 3
    stride: 1
    weight_filler {
      type: "msra"
    }
    bias_filler {
      type: "constant"
      value: 0
    }
  }
}
layer {
  name: "layer_128_4_bn2"
  type: "BatchNorm"
  bottom: "layer_128_4_conv1"
  top: "layer_128_4_conv1"
  param {
    lr_mult: 0
    decay_mult: 0
  }
  param {
    lr_mult: 0
    decay_mult: 0
  }
  param {
    lr_mult: 0
    decay_mult: 0
  }
}
layer {
  name: "layer_128_4_scale2"
  type: "Scale"
  bottom: "layer_128_4_conv1"
  top: "layer_128_4_conv1"
  param {
    lr_mult: 1
    decay_mult: 1
  }
  param {
    lr_mult: 2
    decay_mult: 1
  }
  scale_param {
    bias_term: true
  }
}
layer {
  name: "layer_128_4_relu2"
  type: "ReLU"
  bottom: "layer_128_4_conv1"
  top: "layer_128_4_conv1"
}
layer {
  name: "layer_128_4_conv2"
  type: "Convolution"
  bottom: "layer_128_4_conv1"
  top: "layer_128_4_conv2"
  param {
    lr_mult: 1
    decay_mult: 1
  }
  convolution_param {
    num_output: 128
    bias_term: false
    pad: 1
    kernel_size: 3
    stride: 1
    weight_filler {
      type: "msra"
    }
    bias_filler {
…
I0527 21:00:37.713011 12761 net.cpp:367] layer_256_2_relu1 -> layer_256_2_bn1 (in-place)
I0527 21:00:37.714002 12761 net.cpp:122] Setting up layer_256_2_relu1
I0527 21:00:37.714035 12761 net.cpp:129] Top shape: 30 256 14 14 (1505280)
I0527 21:00:37.714040 12761 net.cpp:137] Memory required for data: 1920737640
I0527 21:00:37.714048 12761 layer_factory.hpp:77] Creating layer layer_256_2_conv1
I0527 21:00:37.714073 12761 net.cpp:84] Creating Layer layer_256_2_conv1
I0527 21:00:37.714082 12761 net.cpp:406] layer_256_2_conv1 <- layer_256_2_bn1
I0527 21:00:37.714097 12761 net.cpp:380] layer_256_2_conv1 -> layer_256_2_conv1
I0527 21:00:37.723570 12761 net.cpp:122] Setting up layer_256_2_conv1
I0527 21:00:37.723616 12761 net.cpp:129] Top shape: 30 256 14 14 (1505280)
I0527 21:00:37.723623 12761 net.cpp:137] Memory required for data: 1926758760
I0527 21:00:37.723639 12761 layer_factory.hpp:77] Creating layer layer_256_2_bn2
I0527 21:00:37.723654 12761 net.cpp:84] Creating Layer layer_256_2_bn2
I0527 21:00:37.723672 12761 net.cpp:406] layer_256_2_bn2 <- layer_256_2_conv1
I0527 21:00:37.723695 12761 net.cpp:367] layer_256_2_bn2 -> layer_256_2_conv1 (in-place)
I0527 21:00:37.724014 12761 net.cpp:122] Setting up layer_256_2_bn2
I0527 21:00:37.724026 12761 net.cpp:129] Top shape: 30 256 14 14 (1505280)
I0527 21:00:37.724032 12761 net.cpp:137] Memory required for data: 1932779880
I0527 21:00:37.724047 12761 layer_factory.hpp:77] Creating layer layer_256_2_scale2
I0527 21:00:37.724067 12761 net.cpp:84] Creating Layer layer_256_2_scale2
I0527 21:00:37.724076 12761 net.cpp:406] layer_256_2_scale2 <- layer_256_2_conv1
I0527 21:00:37.724086 12761 net.cpp:367] layer_256_2_scale2 -> layer_256_2_conv1 (in-place)
I0527 21:00:37.724159 12761 layer_factory.hpp:77] Creating layer layer_256_2_scale2
I0527 21:00:37.724411 12761 net.cpp:122] Setting up layer_256_2_scale2
I0527 21:00:37.724426 12761 net.cpp:129] Top shape: 30 256 14 14 (1505280)
I0527 21:00:37.724431 12761 net.cpp:137] Memory required for data: 1938801000
I0527 21:00:37.724443 12761 layer_factory.hpp:77] Creating layer layer_256_2_relu2
I0527 21:00:37.724459 12761 net.cpp:84] Creating Layer layer_256_2_relu2
I0527 21:00:37.724467 12761 net.cpp:406] layer_256_2_relu2 <- layer_256_2_conv1
I0527 21:00:37.724476 12761 net.cpp:367] layer_256_2_relu2 -> layer_256_2_conv1 (in-place)
I0527 21:00:37.724726 12761 net.cpp:122] Setting up layer_256_2_relu2
I0527 21:00:37.724740 12761 net.cpp:129] Top shape: 30 256 14 14 (1505280)
I0527 21:00:37.724745 12761 net.cpp:137] Memory required for data: 1944822120
I0527 21:00:37.724751 12761 layer_factory.hpp:77] Creating layer layer_256_2_conv2
I0527 21:00:37.724771 12761 net.cpp:84] Creating Layer layer_256_2_conv2
I0527 21:00:37.724778 12761 net.cpp:406] layer_256_2_conv2 <- layer_256_2_conv1
I0527 21:00:37.724793 12761 net.cpp:380] layer_256_2_conv2 -> layer_256_2_conv2
I0527 21:00:37.733963 12761 net.cpp:122] Setting up layer_256_2_conv2
I0527 21:00:37.733995 12761 net.cpp:129] Top shape: 30 256 14 14 (1505280)
I0527 21:00:37.734001 12761 net.cpp:137] Memory required for data: 1950843240
I0527 21:00:37.734015 12761 layer_factory.hpp:77] Creating layer layer_256_2_sum
I0527 21:00:37.734030 12761 net.cpp:84] Creating Layer layer_256_2_sum
I0527 21:00:37.734045 12761 net.cpp:406] layer_256_2_sum <- layer_256_2_conv2
I0527 21:00:37.734063 12761 net.cpp:406] layer_256_2_sum <- layer_256_1_sum_layer_256_1_sum_0_split_1
I0527 21:00:37.734076 12761 net.cpp:380] layer_256_2_sum -> layer_256_2_sum
I0527 21:00:37.734123 12761 net.cpp:122] Setting up layer_256_2_sum
I0527 21:00:37.734134 12761 net.cpp:129] Top shape: 30 256 14 14 (1505280)
I0527 21:00:37.734140 12761 net.cpp:137] Memory required for data: 1956864360
I0527 21:00:37.734146 12761 layer_factory.hpp:77] Creating layer layer_256_2_sum_layer_256_2_sum_0_split
I0527 21:00:37.734156 12761 net.cpp:84] Creating Layer layer_256_2_sum_layer_256_2_sum_0_split
I0527 21:00:37.734166 12761 net.cpp:406] layer_256_2_sum_layer_256_2_sum_0_split <- layer_256_2_sum
I0527 21:00:37.734179 12761 net.cpp:380] layer_256_2_sum_layer_256_2_sum_0_split -> layer_256_2_sum_layer_256_2_sum_0_split_0
I0527 21:00:37.734194 12761 net.cpp:380] layer_256_2_sum_layer_256_2_sum_0_split -> layer_256_2_sum_layer_256_2_sum_0_split_1
I0527 21:00:37.734254 12761 net.cpp:122] Setting up layer_256_2_sum_layer_256_2_sum_0_split
I0527 21:00:37.734266 12761 net.cpp:129] Top shape: 30 256 14 14 (1505280)
I0527 21:00:37.734273 12761 net.cpp:129] Top shape: 30 256 14 14 (1505280)
I0527 21:00:37.734279 12761 net.cpp:137] Memory required for data: 1968906600
I0527 21:00:37.734285 12761 layer_factory.hpp:77] Creating layer layer_256_3_bn1
I0527 21:00:37.734297 12761 net.cpp:84] Creating Layer layer_256_3_bn1
I0527 21:00:37.734307 12761 net.cpp:406] layer_256_3_bn1 <- layer_256_2_sum_layer_256_2_sum_0_split_0
I0527 21:00:37.734319 12761 net.cpp:380] layer_256_3_bn1 -> layer_256_3_bn1
I0527 21:00:37.734580 12761 net.cpp:122] Setting up layer_256_3_bn1
I0527 21:00:37.734594 12761 net.cpp:129] Top shape: 30 256 14 14 (1505280)
I0527 21:00:37.734602 12761 net.cpp:137] Memory required for data: 1974927720
I0527 21:00:37.734616 12761 layer_factory.hpp:77] Creating layer layer_256_3_scale1
I0527 21:00:37.734628 12761 net.cpp:84] Creating Layer layer_256_3_scale1
I0527 21:00:37.734637 12761 net.cpp:406] layer_256_3_scale1 <- layer_256_3_bn1
I0527 21:00:37.734649 12761 net.cpp:367] layer_256_3_scale1 -> layer_256_3_bn1 (in-place)
I0527 21:00:37.734715 12761 layer_factory.hpp:77] Creating layer layer_256_3_scale1
I0527 21:00:37.734864 12761 net.cpp:122] Setting up layer_256_3_scale1
I0527 21:00:37.734875 12761 net.cpp:129] Top shape: 30 256 14 14 (1505280)
I0527 21:00:37.734881 12761 net.cpp:137] Memory required for data: 1980948840
I0527 21:00:37.734892 12761 layer_factory.hpp:77] Creating layer layer_256_3_relu1
I0527 21:00:37.734920 12761 net.cpp:84] Creating Layer layer_256_3_relu1
I0527 21:00:37.734930 12761 net.cpp:406] layer_256_3_relu1 <- layer_256_3_bn1
I0527 21:00:37.734939 12761 net.cpp:367] layer_256_3_relu1 -> layer_256_3_bn1 (in-place)
I0527 21:00:37.735121 12761 net.cpp:122] Setting up layer_256_3_relu1
I0527 21:00:37.735132 12761 net.cpp:129] Top shape: 30 256 14 14 (1505280)
I0527 21:00:37.735139 12761 net.cpp:137] Memory required for data: 1986969960
I0527 21:00:37.735146 12761 layer_factory.hpp:77] Creating layer layer_256_3_conv1
I0527 21:00:37.735162 12761 net.cpp:84] Creating Layer layer_256_3_conv1
I0527 21:00:37.735169 12761 net.cpp:406] layer_256_3_conv1 <- layer_256_3_bn1
I0527 21:00:37.735183 12761 net.cpp:380] layer_256_3_conv1 -> layer_256_3_conv1
I0527 21:00:37.746759 12761 net.cpp:122] Setting up layer_256_3_conv1
I0527 21:00:37.746778 12761 net.cpp:129] Top shape: 30 256 14 14 (1505280)
I0527 21:00:37.746784 12761 net.cpp:137] Memory required for data: 1992991080
I0527 21:00:37.746794 12761 layer_factory.hpp:77] Creating layer layer_256_3_bn2
I0527 21:00:37.746807 12761 net.cpp:84] Creating Layer layer_256_3_bn2
I0527 21:00:37.746820 12761 net.cpp:406] layer_256_3_bn2 <- layer_256_3_conv1
I0527 21:00:37.746831 12761 net.cpp:367] layer_256_3_bn2 -> layer_256_3_conv1 (in-place)
I0527 21:00:37.747071 12761 net.cpp:122] Setting up layer_256_3_bn2
I0527 21:00:37.747081 12761 net.cpp:129] Top shape: 30 256 14 14 (1505280)
I0527 21:00:37.747088 12761 net.cpp:137] Memory required for data: 1999012200
I0527 21:00:37.747102 12761 layer_factory.hpp:77] Creating layer layer_256_3_scale2
I0527 21:00:37.747117 12761 net.cpp:84] Creating Layer layer_256_3_scale2
I0527 21:00:37.747125 12761 net.cpp:406] layer_256_3_scale2 <- layer_256_3_conv1
I0527 21:00:37.747136 12761 net.cpp:367] layer_256_3_scale2 -> layer_256_3_conv1 (in-place)
I0527 21:00:37.747201 12761 layer_factory.hpp:77] Creating layer layer_256_3_scale2
I0527 21:00:37.747344 12761 net.cpp:122] Setting up layer_256_3_scale2
I0527 21:00:37.747356 12761 net.cpp:129] Top shape: 30 256 14 14 (1505280)
I0527 21:00:37.747362 12761 net.cpp:137] Memory required for data: 2005033320
I0527 21:00:37.747373 12761 layer_factory.hpp:77] Creating layer layer_256_3_relu2
I0527 21:00:37.747401 12761 net.cpp:84] Creating Layer layer_256_3_relu2
I0527 21:00:37.747409 12761 net.cpp:406] layer_256_3_relu2 <- layer_256_3_conv1
I0527 21:00:37.747421 12761 net.cpp:367] layer_256_3_relu2 -> layer_256_3_conv1 (in-place)
I0527 21:00:37.747602 12761 net.cpp:122] Setting up layer_256_3_relu2
I0527 21:00:37.747614 12761 net.cpp:129] Top shape: 30 256 14 14 (1505280)
I0527 21:00:37.747620 12761 net.cpp:137] Memory required for data: 2011054440
I0527 21:00:37.747627 12761 layer_factory.hpp:77] Creating layer layer_256_3_conv2
I0527 21:00:37.747643 12761 net.cpp:84] Creating Layer layer_256_3_conv2
I0527 21:00:37.747650 12761 net.cpp:406] layer_256_3_conv2 <- layer_256_3_conv1
I0527 21:00:37.747664 12761 net.cpp:380] layer_256_3_conv2 -> layer_256_3_conv2
I0527 21:00:37.757997 12761 net.cpp:122] Setting up layer_256_3_conv2
I0527 21:00:37.758023 12761 net.cpp:129] Top shape: 30 256 14 14 (1505280)
I0527 21:00:37.758029 12761 net.cpp:137] Memory required for data: 2017075560
I0527 21:00:37.758060 12761 layer_factory.hpp:77] Creating layer layer_256_3_sum
I0527 21:00:37.758076 12761 net.cpp:84] Creating Layer layer_256_3_sum
I0527 21:00:37.758086 12761 net.cpp:406] layer_256_3_sum <- layer_256_3_conv2
I0527 21:00:37.758096 12761 net.cpp:406] layer_256_3_sum <- layer_256_2_sum_layer_256_2_sum_0_split_1
I0527 21:00:37.758108 12761 net.cpp:380] layer_256_3_sum -> layer_256_3_sum
I0527 21:00:37.758154 12761 net.cpp:122] Setting up layer_256_3_sum
I0527 21:00:37.758165 12761 net.cpp:129] Top shape: 30 256 14 14 (1505280)
I0527 21:00:37.758172 12761 net.cpp:137] Memory required for data: 2023096680
I0527 21:00:37.758177 12761 layer_factory.hpp:77] Creating layer layer_256_3_sum_layer_256_3_sum_0_split
I0527 21:00:37.758188 12761 net.cpp:84] Creating Layer layer_256_3_sum_layer_256_3_sum_0_split
I0527 21:00:37.758209 12761 net.cpp:406] layer_256_3_sum_layer_256_3_sum_0_split <- layer_256_3_sum
I0527 21:00:37.758222 12761 net.cpp:380] layer_256_3_sum_layer_256_3_sum_0_split -> layer_256_3_sum_layer_256_3_sum_0_split_0
I0527 21:00:37.758235 12761 net.cpp:380] layer_256_3_sum_layer_256_3_sum_0_split -> layer_256_3_sum_layer_256_3_sum_0_split_1
I0527 21:00:37.758294 12761 net.cpp:122] Setting up layer_256_3_sum_layer_256_3_sum_0_split
I0527 21:00:37.758306 12761 net.cpp:129] Top shape: 30 256 14 14 (1505280)
I0527 21:00:37.758313 12761 net.cpp:129] Top shape: 30 256 14 14 (1505280)
I0527 21:00:37.758321 12761 net.cpp:137] Memory required for data: 2035138920
I0527 21:00:37.758327 12761 layer_factory.hpp:77] Creating layer layer_256_4_bn1
I0527 21:00:37.758342 12761 net.cpp:84] Creating Layer layer_256_4_bn1
I0527 21:00:37.758348 12761 net.cpp:406] layer_256_4_bn1 <- layer_256_3_sum_layer_256_3_sum_0_split_0
I0527 21:00:37.758358 12761 net.cpp:380] layer_256_4_bn1 -> layer_256_4_bn1
I0527 21:00:37.758608 12761 net.cpp:122] Setting up layer_256_4_bn1
I0527 21:00:37.758620 12761 net.cpp:129] Top shape: 30 256 14 14 (1505280)
I0527 21:00:37.758626 12761 net.cpp:137] Memory required for data: 2041160040
I0527 21:00:37.758641 12761 layer_factory.hpp:77] Creating layer layer_256_4_scale1
I0527 21:00:37.758652 12761 net.cpp:84] Creating Layer layer_256_4_scale1
I0527 21:00:37.758661 12761 net.cpp:406] layer_256_4_scale1 <- layer_256_4_bn1
I0527 21:00:37.758672 12761 net.cpp:367] layer_256_4_scale1 -> layer_256_4_bn1 (in-place)
I0527 21:00:37.758739 12761 layer_factory.hpp:77] Creating layer layer_256_4_scale1
I0527 21:00:37.758883 12761 net.cpp:122] Setting up layer_256_4_scale1
I0527 21:00:37.758898 12761 net.cpp:129] Top shape: 30 256 14 14 (1505280)
I0527 21:00:37.758903 12761 net.cpp:137] Memory required for data: 2047181160
I0527 21:00:37.758914 12761 layer_factory.hpp:77] Creating layer layer_256_4_relu1
I0527 21:00:37.758925 12761 net.cpp:84] Creating Layer layer_256_4_relu1
I0527 21:00:37.758934 12761 net.cpp:406] layer_256_4_relu1 <- layer_256_4_bn1
I0527 21:00:37.758944 12761 net.cpp:367] layer_256_4_relu1 -> layer_256_4_bn1 (in-place)
I0527 21:00:37.759459 12761 net.cpp:122] Setting up layer_256_4_relu1
I0527 21:00:37.759470 12761 net.cpp:129] Top shape: 30 256 14 14 (1505280)
I0527 21:00:37.759476 12761 net.cpp:137] Memory required for data: 2053202280
I0527 21:00:37.759483 12761 layer_factory.hpp:77] Creating layer layer_256_4_conv1
I0527 21:00:37.759500 12761 net.cpp:84] Creating Layer layer_256_4_conv1
I0527 21:00:37.759506 12761 net.cpp:406] layer_256_4_conv1 <- layer_256_4_bn1
I0527 21:00:37.759517 12761 net.cpp:380] layer_256_4_conv1 -> layer_256_4_conv1
I0527 21:00:37.770364 12761 net.cpp:122] Setting up layer_256_4_conv1
I0527 21:00:37.770390 12761 net.cpp:129] Top shape: 30 256 14 14 (1505280)
I0527 21:00:37.770395 12761 net.cpp:137] Memory required for data: 2059223400
I0527 21:00:37.770407 12761 layer_factory.hpp:77] Creating layer layer_256_4_bn2
I0527 21:00:37.770426 12761 net.cpp:84] Creating Layer layer_256_4_bn2
I0527 21:00:37.770437 12761 net.cpp:406] layer_256_4_bn2 <- layer_256_4_conv1
I0527 21:00:37.770452 12761 net.cpp:367] layer_256_4_bn2 -> layer_256_4_conv1 (in-place)
I0527 21:00:37.770702 12761 net.cpp:122] Setting up layer_256_4_bn2
I0527 21:00:37.770714 12761 net.cpp:129] Top shape: 30 256 14 14 (1505280)
I0527 21:00:37.770720 12761 net.cpp:137] Memory required for data: 2065244520
I0527 21:00:37.770735 12761 layer_factory.hpp:77] Creating layer layer_256_4_scale2
I0527 21:00:37.770751 12761 net.cpp:84] Creating Layer layer_256_4_scale2
I0527 21:00:37.770762 12761 net.cpp:406] layer_256_4_scale2 <- layer_256_4_conv1
I0527 21:00:37.770772 12761 net.cpp:367] layer_256_4_scale2 -> layer_256_4_conv1 (in-place)
I0527 21:00:37.770840 12761 layer_factory.hpp:77] Creating layer layer_256_4_scale2
I0527 21:00:37.770987 12761 net.cpp:122] Setting up layer_256_4_scale2
I0527 21:00:37.770998 12761 net.cpp:129] Top shape: 30 256 14 14 (1505280)
I0527 21:00:37.771004 12761 net.cpp:137] Memory required for data: 2071265640
I0527 21:00:37.771028 12761 layer_factory.hpp:77] Creating layer layer_256_4_relu2
I0527 21:00:37.771039 12761 net.cpp:84] Creating Layer layer_256_4_relu2
I0527 21:00:37.771049 12761 net.cpp:406] layer_256_4_relu2 <- layer_256_4_conv1
I0527 21:00:37.771060 12761 net.cpp:367] layer_256_4_relu2 -> layer_256_4_conv1 (in-place)
I0527 21:00:37.771240 12761 net.cpp:122] Setting up layer_256_4_relu2
I0527 21:00:37.771252 12761 net.cpp:129] Top shape: 30 256 14 14 (1505280)
I0527 21:00:37.771258 12761 net.cpp:137] Memory required for data: 2077286760
I0527 21:00:37.771265 12761 layer_factory.hpp:77] Creating layer layer_256_4_conv2
I0527 21:00:37.771282 12761 net.cpp:84] Creating Layer layer_256_4_conv2
I0527 21:00:37.771289 12761 net.cpp:406] layer_256_4_conv2 <- layer_256_4_conv1
I0527 21:00:37.771301 12761 net.cpp:380] layer_256_4_conv2 -> layer_256_4_conv2
I0527 21:00:37.782758 12761 net.cpp:122] Setting up layer_256_4_conv2
I0527 21:00:37.782779 12761 net.cpp:129] Top shape: 30 256 14 14 (1505280)
I0527 21:00:37.782786 12761 net.cpp:137] Memory required for data: 2083307880
I0527 21:00:37.782795 12761 layer_factory.hpp:77] Creating layer layer_256_4_sum
I0527 21:00:37.782819 12761 net.cpp:84] Creating Layer layer_256_4_sum
I0527 21:00:37.782846 12761 net.cpp:406] layer_256_4_sum <- layer_256_4_conv2
I0527 21:00:37.782856 12761 net.cpp:406] layer_256_4_sum <- layer_256_3_sum_layer_256_3_sum_0_split_1
I0527 21:00:37.782871 12761 net.cpp:380] layer_256_4_sum -> layer_256_4_sum
I0527 21:00:37.782915 12761 net.cpp:122] Setting up layer_256_4_sum
I0527 21:00:37.782927 12761 net.cpp:129] Top shape: 30 256 14 14 (1505280)
I0527 21:00:37.782933 12761 net.cpp:137] Memory required for data: 2089329000
I0527 21:00:37.782939 12761 layer_factory.hpp:77] Creating layer layer_256_4_sum_layer_256_4_sum_0_split
I0527 21:00:37.782953 12761 net.cpp:84] Creating Layer layer_256_4_sum_layer_256_4_sum_0_split
I0527 21:00:37.782961 12761 net.cpp:406] layer_256_4_sum_layer_256_4_sum_0_split <- layer_256_4_sum
I0527 21:00:37.782971 12761 net.cpp:380] layer_256_4_sum_layer_256_4_sum_0_split -> layer_256_4_sum_layer_256_4_sum_0_split_0
I0527 21:00:37.782989 12761 net.cpp:380] layer_256_4_sum_layer_256_4_sum_0_split -> layer_256_4_sum_layer_256_4_sum_0_split_1
I0527 21:00:37.783047 12761 net.cpp:122] Setting up layer_256_4_sum_layer_256_4_sum_0_split
I0527 21:00:37.783061 12761 net.cpp:129] Top shape: 30 256 14 14 (1505280)
I0527 21:00:37.783069 12761 net.cpp:129] Top shape: 30 256 14 14 (1505280)
I0527 21:00:37.783076 12761 net.cpp:137] Memory required for data: 2101371240
I0527 21:00:37.783082 12761 layer_factory.hpp:77] Creating layer layer_256_5_bn1
I0527 21:00:37.783092 12761 net.cpp:84] Creating Layer layer_256_5_bn1
I0527 21:00:37.783100 12761 net.cpp:406] layer_256_5_bn1 <- layer_256_4_sum_layer_256_4_sum_0_split_0
I0527 21:00:37.783113 12761 net.cpp:380] layer_256_5_bn1 -> layer_256_5_bn1
I0527 21:00:37.783363 12761 net.cpp:122] Setting up layer_256_5_bn1
I0527 21:00:37.783375 12761 net.cpp:129] Top shape: 30 256 14 14 (1505280)
I0527 21:00:37.783381 12761 net.cpp:137] Memory required for data: 2107392360
I0527 21:00:37.783396 12761 layer_factory.hpp:77] Creating layer layer_256_5_scale1
I0527 21:00:37.783409 12761 net.cpp:84] Creating Layer layer_256_5_scale1
I0527 21:00:37.783417 12761 net.cpp:406] layer_256_5_scale1 <- layer_256_5_bn1
I0527 21:00:37.783427 12761 net.cpp:367] layer_256_5_scale1 -> layer_256_5_bn1 (in-place)
I0527 21:00:37.783490 12761 layer_factory.hpp:77] Creating layer layer_256_5_scale1
I0527 21:00:37.783634 12761 net.cpp:122] Setting up layer_256_5_scale1
I0527 21:00:37.783645 12761 net.cpp:129] Top shape: 30 256 14 14 (1505280)
I0527 21:00:37.783651 12761 net.cpp:137] Memory required for data: 2113413480
I0527 21:00:37.783663 12761 layer_factory.hpp:77] Creating layer layer_256_5_relu1
I0527 21:00:37.783674 12761 net.cpp:84] Creating Layer layer_256_5_relu1
I0527 21:00:37.783681 12761 net.cpp:406] layer_256_5_relu1 <- layer_256_5_bn1
I0527 21:00:37.783694 12761 net.cpp:367] layer_256_5_relu1 -> layer_256_5_bn1 (in-place)
I0527 21:00:37.784433 12761 net.cpp:122] Setting up layer_256_5_relu1
I0527 21:00:37.784446 12761 net.cpp:129] Top shape: 30 256 14 14 (1505280)
I0527 21:00:37.784453 12761 net.cpp:137] Memory required for data: 2119434600
I0527 21:00:37.784459 12761 layer_factory.hpp:77] Creating layer layer_256_5_conv1
I0527 21:00:37.784476 12761 net.cpp:84] Creating Layer layer_256_5_conv1
I0527 21:00:37.784484 12761 net.cpp:406] layer_256_5_conv1 <- layer_256_5_bn1
I0527 21:00:37.784497 12761 net.cpp:380] layer_256_5_conv1 -> layer_256_5_conv1
I0527 21:00:37.793617 12761 net.cpp:122] Setting up layer_256_5_conv1
I0527 21:00:37.793648 12761 net.cpp:129] Top shape: 30 256 14 14 (1505280)
I0527 21:00:37.793651 12761 net.cpp:137] Memory required for data: 2125455720
I0527 21:00:37.793664 12761 layer_factory.hpp:77] Creating layer layer_256_5_bn2
I0527 21:00:37.793679 12761 net.cpp:84] Creating Layer layer_256_5_bn2
I0527 21:00:37.793687 12761 net.cpp:406] layer_256_5_bn2 <- layer_256_5_conv1
I0527 21:00:37.793700 12761 net.cpp:367] layer_256_5_bn2 -> layer_256_5_conv1 (in-place)
I0527 21:00:37.793972 12761 net.cpp:122] Setting up layer_256_5_bn2
I0527 21:00:37.793982 12761 net.cpp:129] Top shape: 30 256 14 14 (1505280)
I0527 21:00:37.793985 12761 net.cpp:137] Memory required for data: 2131476840
I0527 21:00:37.793998 12761 layer_factory.hpp:77] Creating layer layer_256_5_scale2
I0527 21:00:37.794008 12761 net.cpp:84] Creating Layer layer_256_5_scale2
I0527 21:00:37.794016 12761 net.cpp:406] layer_256_5_scale2 <- layer_256_5_conv1
I0527 21:00:37.794023 12761 net.cpp:367] layer_256_5_scale2 -> layer_256_5_conv1 (in-place)
I0527 21:00:37.794090 12761 layer_factory.hpp:77] Creating layer layer_256_5_scale2
I0527 21:00:37.794237 12761 net.cpp:122] Setting up layer_256_5_scale2
I0527 21:00:37.794246 12761 net.cpp:129] Top shape: 30 256 14 14 (1505280)
I0527 21:00:37.794250 12761 net.cpp:137] Memory required for data: 2137497960
I0527 21:00:37.794255 12761 layer_factory.hpp:77] Creating layer layer_256_5_relu2
I0527 21:00:37.794265 12761 net.cpp:84] Creating Layer layer_256_5_relu2
I0527 21:00:37.794271 12761 net.cpp:406] layer_256_5_relu2 <- layer_256_5_conv1
I0527 21:00:37.794281 12761 net.cpp:367] layer_256_5_relu2 -> layer_256_5_conv1 (in-place)
I0527 21:00:37.794471 12761 net.cpp:122] Setting up layer_256_5_relu2
I0527 21:00:37.794482 12761 net.cpp:129] Top shape: 30 256 14 14 (1505280)
I0527 21:00:37.794486 12761 net.cpp:137] Memory required for data: 2143519080
I0527 21:00:37.794492 12761 layer_factory.hpp:77] Creating layer layer_256_5_conv2
I0527 21:00:37.794507 12761 net.cpp:84] Creating Layer layer_256_5_conv2
I0527 21:00:37.794513 12761 net.cpp:406] layer_256_5_conv2 <- layer_256_5_conv1
I0527 21:00:37.794526 12761 net.cpp:380] layer_256_5_conv2 -> layer_256_5_conv2
I0527 21:00:37.803462 12761 net.cpp:122] Setting up layer_256_5_conv2
I0527 21:00:37.803495 12761 net.cpp:129] Top shape: 30 256 14 14 (1505280)
I0527 21:00:37.803499 12761 net.cpp:137] Memory required for data: 2149540200
I0527 21:00:37.803509 12761 layer_factory.hpp:77] Creating layer layer_256_5_sum
I0527 21:00:37.803519 12761 net.cpp:84] Creating Layer layer_256_5_sum
I0527 21:00:37.803526 12761 net.cpp:406] layer_256_5_sum <- layer_256_5_conv2
I0527 21:00:37.803537 12761 net.cpp:406] layer_256_5_sum <- layer_256_4_sum_layer_256_4_sum_0_split_1
I0527 21:00:37.803547 12761 net.cpp:380] layer_256_5_sum -> layer_256_5_sum
I0527 21:00:37.803596 12761 net.cpp:122] Setting up layer_256_5_sum
I0527 21:00:37.803606 12761 net.cpp:129] Top shape: 30 256 14 14 (1505280)
I0527 21:00:37.803609 12761 net.cpp:137] Memory required for data: 2155561320
I0527 21:00:37.803612 12761 layer_factory.hpp:77] Creating layer layer_256_5_sum_layer_256_5_sum_0_split
I0527 21:00:37.803647 12761 net.cpp:84] Creating Layer layer_256_5_sum_layer_256_5_sum_0_split
I0527 21:00:37.803653 12761 net.cpp:406] layer_256_5_sum_layer_256_5_sum_0_split <- layer_256_5_sum
I0527 21:00:37.803659 12761 net.cpp:380] layer_256_5_sum_layer_256_5_sum_0_split -> layer_256_5_sum_layer_256_5_sum_0_split_0
I0527 21:00:37.803684 12761 net.cpp:380] layer_256_5_sum_layer_256_5_sum_0_split -> layer_256_5_sum_layer_256_5_sum_0_split_1
I0527 21:00:37.803740 12761 net.cpp:122] Setting up layer_256_5_sum_layer_256_5_sum_0_split
I0527 21:00:37.803750 12761 net.cpp:129] Top shape: 30 256 14 14 (1505280)
I0527 21:00:37.803753 12761 net.cpp:129] Top shape: 30 256 14 14 (1505280)
I0527 21:00:37.803756 12761 net.cpp:137] Memory required for data: 2167603560
I0527 21:00:37.803761 12761 layer_factory.hpp:77] Creating layer layer_256_6_bn1
I0527 21:00:37.803769 12761 net.cpp:84] Creating Layer layer_256_6_bn1
I0527 21:00:37.803773 12761 net.cpp:406] layer_256_6_bn1 <- layer_256_5_sum_layer_256_5_sum_0_split_0
I0527 21:00:37.803781 12761 net.cpp:380] layer_256_6_bn1 -> layer_256_6_bn1
I0527 21:00:37.804045 12761 net.cpp:122] Setting up layer_256_6_bn1
I0527 21:00:37.804054 12761 net.cpp:129] Top shape: 30 256 14 14 (1505280)
I0527 21:00:37.804057 12761 net.cpp:137] Memory required for data: 2173624680
I0527 21:00:37.804065 12761 layer_factory.hpp:77] Creating layer layer_256_6_scale1
I0527 21:00:37.804075 12761 net.cpp:84] Creating Layer layer_256_6_scale1
I0527 21:00:37.804078 12761 net.cpp:406] layer_256_6_scale1 <- layer_256_6_bn1
I0527 21:00:37.804085 12761 net.cpp:367] layer_256_6_scale1 -> layer_256_6_bn1 (in-place)
I0527 21:00:37.804153 12761 layer_factory.hpp:77] Creating layer layer_256_6_scale1
I0527 21:00:37.804306 12761 net.cpp:122] Setting up layer_256_6_scale1
I0527 21:00:37.804314 12761 net.cpp:129] Top shape: 30 256 14 14 (1505280)
I0527 21:00:37.804317 12761 net.cpp:137] Memory required for data: 2179645800
I0527 21:00:37.804323 12761 layer_factory.hpp:77] Creating layer layer_256_6_relu1
I0527 21:00:37.804330 12761 net.cpp:84] Creating Layer layer_256_6_relu1
I0527 21:00:37.804333 12761 net.cpp:406] layer_256_6_relu1 <- layer_256_6_bn1
I0527 21:00:37.804339 12761 net.cpp:367] layer_256_6_relu1 -> layer_256_6_bn1 (in-place)
I0527 21:00:37.804543 12761 net.cpp:122] Setting up layer_256_6_relu1
I0527 21:00:37.804553 12761 net.cpp:129] Top shape: 30 256 14 14 (1505280)
I0527 21:00:37.804556 12761 net.cpp:137] Memory required for data: 2185666920
I0527 21:00:37.804560 12761 layer_factory.hpp:77] Creating layer layer_256_6_conv1
I0527 21:00:37.804572 12761 net.cpp:84] Creating Layer layer_256_6_conv1
I0527 21:00:37.804576 12761 net.cpp:406] layer_256_6_conv1 <- layer_256_6_bn1
I0527 21:00:37.804587 12761 net.cpp:380] layer_256_6_conv1 -> layer_256_6_conv1
I0527 21:00:37.813825 12761 net.cpp:122] Setting up layer_256_6_conv1
I0527 21:00:37.813861 12761 net.cpp:129] Top shape: 30 256 14 14 (1505280)
I0527 21:00:37.813866 12761 net.cpp:137] Memory required for data: 2191688040
I0527 21:00:37.813876 12761 layer_factory.hpp:77] Creating layer layer_256_6_bn2
I0527 21:00:37.813887 12761 net.cpp:84] Creating Layer layer_256_6_bn2
I0527 21:00:37.813895 12761 net.cpp:406] layer_256_6_bn2 <- layer_256_6_conv1
I0527 21:00:37.813910 12761 net.cpp:367] layer_256_6_bn2 -> layer_256_6_conv1 (in-place)
I0527 21:00:37.814211 12761 net.cpp:122] Setting up layer_256_6_bn2
I0527 21:00:37.814224 12761 net.cpp:129] Top shape: 30 256 14 14 (1505280)
I0527 21:00:37.814226 12761 net.cpp:137] Memory required for data: 2197709160
I0527 21:00:37.814235 12761 layer_factory.hpp:77] Creating layer layer_256_6_scale2
I0527 21:00:37.814244 12761 net.cpp:84] Creating Layer layer_256_6_scale2
I0527 21:00:37.814249 12761 net.cpp:406] layer_256_6_scale2 <- layer_256_6_conv1
I0527 21:00:37.814255 12761 net.cpp:367] layer_256_6_scale2 -> layer_256_6_conv1 (in-place)
I0527 21:00:37.814326 12761 layer_factory.hpp:77] Creating layer layer_256_6_scale2
I0527 21:00:37.814471 12761 net.cpp:122] Setting up layer_256_6_scale2
I0527 21:00:37.814481 12761 net.cpp:129] Top shape: 30 256 14 14 (1505280)
I0527 21:00:37.814486 12761 net.cpp:137] Memory required for data: 2203730280
I0527 21:00:37.814491 12761 layer_factory.hpp:77] Creating layer layer_256_6_relu2
I0527 21:00:37.814502 12761 net.cpp:84] Creating Layer layer_256_6_relu2
I0527 21:00:37.814505 12761 net.cpp:406] layer_256_6_relu2 <- layer_256_6_conv1
I0527 21:00:37.814524 12761 net.cpp:367] layer_256_6_relu2 -> layer_256_6_conv1 (in-place)
I0527 21:00:37.814776 12761 net.cpp:122] Setting up layer_256_6_relu2
I0527 21:00:37.814791 12761 net.cpp:129] Top shape: 30 256 14 14 (1505280)
I0527 21:00:37.814795 12761 net.cpp:137] Memory required for data: 2209751400
I0527 21:00:37.814798 12761 layer_factory.hpp:77] Creating layer layer_256_6_conv2
I0527 21:00:37.814815 12761 net.cpp:84] Creating Layer layer_256_6_conv2
I0527 21:00:37.814820 12761 net.cpp:406] layer_256_6_conv2 <- layer_256_6_conv1
I0527 21:00:37.814827 12761 net.cpp:380] layer_256_6_conv2 -> layer_256_6_conv2
I0527 21:00:37.824995 12761 net.cpp:122] Setting up layer_256_6_conv2
I0527 21:00:37.825026 12761 net.cpp:129] Top shape: 30 256 14 14 (1505280)
I0527 21:00:37.825029 12761 net.cpp:137] Memory required for data: 2215772520
I0527 21:00:37.825039 12761 layer_factory.hpp:77] Creating layer layer_256_6_sum
I0527 21:00:37.825048 12761 net.cpp:84] Creating Layer layer_256_6_sum
I0527 21:00:37.825054 12761 net.cpp:406] layer_256_6_sum <- layer_256_6_conv2
I0527 21:00:37.825062 12761 net.cpp:406] layer_256_6_sum <- layer_256_5_sum_layer_256_5_sum_0_split_1
I0527 21:00:37.825068 12761 net.cpp:380] layer_256_6_sum -> layer_256_6_sum
I0527 21:00:37.825114 12761 net.cpp:122] Setting up layer_256_6_sum
I0527 21:00:37.825122 12761 net.cpp:129] Top shape: 30 256 14 14 (1505280)
I0527 21:00:37.825125 12761 net.cpp:137] Memory required for data: 2221793640
I0527 21:00:37.825129 12761 layer_factory.hpp:77] Creating layer layer_512_1_bn1
I0527 21:00:37.825134 12761 net.cpp:84] Creating Layer layer_512_1_bn1
I0527 21:00:37.825139 12761 net.cpp:406] layer_512_1_bn1 <- layer_256_6_sum
I0527 21:00:37.825145 12761 net.cpp:380] layer_512_1_bn1 -> layer_512_1_bn1
I0527 21:00:37.825428 12761 net.cpp:122] Setting up layer_512_1_bn1
I0527 21:00:37.825441 12761 net.cpp:129] Top shape: 30 256 14 14 (1505280)
I0527 21:00:37.825444 12761 net.cpp:137] Memory required for data: 2227814760
I0527 21:00:37.825455 12761 layer_factory.hpp:77] Creating layer layer_512_1_scale1
I0527 21:00:37.825466 12761 net.cpp:84] Creating Layer layer_512_1_scale1
I0527 21:00:37.825470 12761 net.cpp:406] layer_512_1_scale1 <- layer_512_1_bn1
I0527 21:00:37.825476 12761 net.cpp:367] layer_512_1_scale1 -> layer_512_1_bn1 (in-place)
I0527 21:00:37.825548 12761 layer_factory.hpp:77] Creating layer layer_512_1_scale1
I0527 21:00:37.825700 12761 net.cpp:122] Setting up layer_512_1_scale1
I0527 21:00:37.825711 12761 net.cpp:129] Top shape: 30 256 14 14 (1505280)
I0527 21:00:37.825714 12761 net.cpp:137] Memory required for data: 2233835880
I0527 21:00:37.825721 12761 layer_factory.hpp:77] Creating layer layer_512_1_relu1
I0527 21:00:37.825728 12761 net.cpp:84] Creating Layer layer_512_1_relu1
I0527 21:00:37.825733 12761 net.cpp:406] layer_512_1_relu1 <- layer_512_1_bn1
I0527 21:00:37.825737 12761 net.cpp:367] layer_512_1_relu1 -> layer_512_1_bn1 (in-place)
I0527 21:00:37.826001 12761 net.cpp:122] Setting up layer_512_1_relu1
I0527 21:00:37.826017 12761 net.cpp:129] Top shape: 30 256 14 14 (1505280)
I0527 21:00:37.826020 12761 net.cpp:137] Memory required for data: 2239857000
I0527 21:00:37.826025 12761 layer_factory.hpp:77] Creating layer layer_512_1_bn1_layer_512_1_relu1_0_split
I0527 21:00:37.826031 12761 net.cpp:84] Creating Layer layer_512_1_bn1_layer_512_1_relu1_0_split
I0527 21:00:37.826035 12761 net.cpp:406] layer_512_1_bn1_layer_512_1_relu1_0_split <- layer_512_1_bn1
I0527 21:00:37.826042 12761 net.cpp:380] layer_512_1_bn1_layer_512_1_relu1_0_split -> layer_512_1_bn1_layer_512_1_relu1_0_split_0
I0527 21:00:37.826050 12761 net.cpp:380] layer_512_1_bn1_layer_512_1_relu1_0_split -> layer_512_1_bn1_layer_512_1_relu1_0_split_1
I0527 21:00:37.826122 12761 net.cpp:122] Setting up layer_512_1_bn1_layer_512_1_relu1_0_split
I0527 21:00:37.826130 12761 net.cpp:129] Top shape: 30 256 14 14 (1505280)
I0527 21:00:37.826134 12761 net.cpp:129] Top shape: 30 256 14 14 (1505280)
I0527 21:00:37.826138 12761 net.cpp:137] Memory required for data: 2251899240
I0527 21:00:37.826159 12761 layer_factory.hpp:77] Creating layer layer_512_1_conv1
I0527 21:00:37.826175 12761 net.cpp:84] Creating Layer layer_512_1_conv1
I0527 21:00:37.826180 12761 net.cpp:406] layer_512_1_conv1 <- layer_512_1_bn1_layer_512_1_relu1_0_split_0
I0527 21:00:37.826189 12761 net.cpp:380] layer_512_1_conv1 -> layer_512_1_conv1
I0527 21:00:37.841464 12761 net.cpp:122] Setting up layer_512_1_conv1
I0527 21:00:37.841497 12761 net.cpp:129] Top shape: 30 512 7 7 (752640)
I0527 21:00:37.841501 12761 net.cpp:137] Memory required for data: 2254909800
I0527 21:00:37.841511 12761 layer_factory.hpp:77] Creating layer layer_512_1_bn2
I0527 21:00:37.841522 12761 net.cpp:84] Creating Layer layer_512_1_bn2
I0527 21:00:37.841528 12761 net.cpp:406] layer_512_1_bn2 <- layer_512_1_conv1
I0527 21:00:37.841536 12761 net.cpp:367] layer_512_1_bn2 -> layer_512_1_conv1 (in-place)
I0527 21:00:37.841805 12761 net.cpp:122] Setting up layer_512_1_bn2
I0527 21:00:37.841815 12761 net.cpp:129] Top shape: 30 512 7 7 (752640)
I0527 21:00:37.841819 12761 net.cpp:137] Memory required for data: 2257920360
I0527 21:00:37.841825 12761 layer_factory.hpp:77] Creating layer layer_512_1_scale2
I0527 21:00:37.841833 12761 net.cpp:84] Creating Layer layer_512_1_scale2
I0527 21:00:37.841837 12761 net.cpp:406] layer_512_1_scale2 <- layer_512_1_conv1
I0527 21:00:37.841841 12761 net.cpp:367] layer_512_1_scale2 -> layer_512_1_conv1 (in-place)
I0527 21:00:37.841912 12761 layer_factory.hpp:77] Creating layer layer_512_1_scale2
I0527 21:00:37.842067 12761 net.cpp:122] Setting up layer_512_1_scale2
I0527 21:00:37.842077 12761 net.cpp:129] Top shape: 30 512 7 7 (752640)
I0527 21:00:37.842080 12761 net.cpp:137] Memory required for data: 2260930920
I0527 21:00:37.842092 12761 layer_factory.hpp:77] Creating layer layer_512_1_relu2
I0527 21:00:37.842100 12761 net.cpp:84] Creating Layer layer_512_1_relu2
I0527 21:00:37.842104 12761 net.cpp:406] layer_512_1_relu2 <- layer_512_1_conv1
I0527 21:00:37.842108 12761 net.cpp:367] layer_512_1_relu2 -> layer_512_1_conv1 (in-place)
I0527 21:00:37.842286 12761 net.cpp:122] Setting up layer_512_1_relu2
I0527 21:00:37.842298 12761 net.cpp:129] Top shape: 30 512 7 7 (752640)
I0527 21:00:37.842303 12761 net.cpp:137] Memory required for data: 2263941480
I0527 21:00:37.842308 12761 layer_factory.hpp:77] Creating layer layer_512_1_conv2
I0527 21:00:37.842329 12761 net.cpp:84] Creating Layer layer_512_1_conv2
I0527 21:00:37.842335 12761 net.cpp:406] layer_512_1_conv2 <- layer_512_1_conv1
I0527 21:00:37.842346 12761 net.cpp:380] layer_512_1_conv2 -> layer_512_1_conv2
I0527 21:00:37.870084 12761 net.cpp:122] Setting up layer_512_1_conv2
I0527 21:00:37.870113 12761 net.cpp:129] Top shape: 30 512 7 7 (752640)
I0527 21:00:37.870117 12761 net.cpp:137] Memory required for data: 2266952040
I0527 21:00:37.870131 12761 layer_factory.hpp:77] Creating layer layer_512_1_conv_expand
I0527 21:00:37.870151 12761 net.cpp:84] Creating Layer layer_512_1_conv_expand
I0527 21:00:37.870159 12761 net.cpp:406] layer_512_1_conv_expand <- layer_512_1_bn1_layer_512_1_relu1_0_split_1
I0527 21:00:37.870174 12761 net.cpp:380] layer_512_1_conv_expand -> layer_512_1_conv_expand
I0527 21:00:37.875247 12761 net.cpp:122] Setting up layer_512_1_conv_expand
I0527 21:00:37.875262 12761 net.cpp:129] Top shape: 30 512 7 7 (752640)
I0527 21:00:37.875267 12761 net.cpp:137] Memory required for data: 2269962600
I0527 21:00:37.875277 12761 layer_factory.hpp:77] Creating layer layer_512_1_sum
I0527 21:00:37.875288 12761 net.cpp:84] Creating Layer layer_512_1_sum
I0527 21:00:37.875295 12761 net.cpp:406] layer_512_1_sum <- layer_512_1_conv_expand
I0527 21:00:37.875303 12761 net.cpp:406] layer_512_1_sum <- layer_512_1_conv2
I0527 21:00:37.875311 12761 net.cpp:380] layer_512_1_sum -> layer_512_1_sum
I0527 21:00:37.875351 12761 net.cpp:122] Setting up layer_512_1_sum
I0527 21:00:37.875360 12761 net.cpp:129] Top shape: 30 512 7 7 (752640)
I0527 21:00:37.875367 12761 net.cpp:137] Memory required for data: 2272973160
I0527 21:00:37.875373 12761 layer_factory.hpp:77] Creating layer layer_512_1_sum_layer_512_1_sum_0_split
I0527 21:00:37.875394 12761 net.cpp:84] Creating Layer layer_512_1_sum_layer_512_1_sum_0_split
I0527 21:00:37.875401 12761 net.cpp:406] layer_512_1_sum_layer_512_1_sum_0_split <- layer_512_1_sum
I0527 21:00:37.875414 12761 net.cpp:380] layer_512_1_sum_layer_512_1_sum_0_split -> layer_512_1_sum_layer_512_1_sum_0_split_0
I0527 21:00:37.875423 12761 net.cpp:380] layer_512_1_sum_layer_512_1_sum_0_split -> layer_512_1_sum_layer_512_1_sum_0_split_1
I0527 21:00:37.875478 12761 net.cpp:122] Setting up layer_512_1_sum_layer_512_1_sum_0_split
I0527 21:00:37.875488 12761 net.cpp:129] Top shape: 30 512 7 7 (752640)
I0527 21:00:37.875495 12761 net.cpp:129] Top shape: 30 512 7 7 (752640)
I0527 21:00:37.875501 12761 net.cpp:137] Memory required for data: 2278994280
I0527 21:00:37.875506 12761 layer_factory.hpp:77] Creating layer layer_512_2_bn1
I0527 21:00:37.875517 12761 net.cpp:84] Creating Layer layer_512_2_bn1
I0527 21:00:37.875524 12761 net.cpp:406] layer_512_2_bn1 <- layer_512_1_sum_layer_512_1_sum_0_split_0
I0527 21:00:37.875531 12761 net.cpp:380] layer_512_2_bn1 -> layer_512_2_bn1
I0527 21:00:37.875803 12761 net.cpp:122] Setting up layer_512_2_bn1
I0527 21:00:37.875813 12761 net.cpp:129] Top shape: 30 512 7 7 (752640)
I0527 21:00:37.875819 12761 net.cpp:137] Memory required for data: 2282004840
I0527 21:00:37.875831 12761 layer_factory.hpp:77] Creating layer layer_512_2_scale1
I0527 21:00:37.875846 12761 net.cpp:84] Creating Layer layer_512_2_scale1
I0527 21:00:37.875855 12761 net.cpp:406] layer_512_2_scale1 <- layer_512_2_bn1
I0527 21:00:37.875866 12761 net.cpp:367] layer_512_2_scale1 -> layer_512_2_bn1 (in-place)
I0527 21:00:37.875938 12761 layer_factory.hpp:77] Creating layer layer_512_2_scale1
I0527 21:00:37.876104 12761 net.cpp:122] Setting up layer_512_2_scale1
I0527 21:00:37.876114 12761 net.cpp:129] Top shape: 30 512 7 7 (752640)
I0527 21:00:37.876118 12761 net.cpp:137] Memory required for data: 2285015400
I0527 21:00:37.876128 12761 layer_factory.hpp:77] Creating layer layer_512_2_relu1
I0527 21:00:37.876142 12761 net.cpp:84] Creating Layer layer_512_2_relu1
I0527 21:00:37.876150 12761 net.cpp:406] layer_512_2_relu1 <- layer_512_2_bn1
I0527 21:00:37.876161 12761 net.cpp:367] layer_512_2_relu1 -> layer_512_2_bn1 (in-place)
I0527 21:00:37.876899 12761 net.cpp:122] Setting up layer_512_2_relu1
I0527 21:00:37.876909 12761 net.cpp:129] Top shape: 30 512 7 7 (752640)
I0527 21:00:37.876915 12761 net.cpp:137] Memory required for data: 2288025960
I0527 21:00:37.876921 12761 layer_factory.hpp:77] Creating layer layer_512_2_conv1
I0527 21:00:37.876941 12761 net.cpp:84] Creating Layer layer_512_2_conv1
I0527 21:00:37.876951 12761 net.cpp:406] layer_512_2_conv1 <- layer_512_2_bn1
I0527 21:00:37.876967 12761 net.cpp:380] layer_512_2_conv1 -> layer_512_2_conv1
I0527 21:00:37.904920 12761 net.cpp:122] Setting up layer_512_2_conv1
I0527 21:00:37.904960 12761 net.cpp:129] Top shape: 30 512 7 7 (752640)
I0527 21:00:37.904965 12761 net.cpp:137] Memory required for data: 2291036520
I0527 21:00:37.904974 12761 layer_factory.hpp:77] Creating layer layer_512_2_bn2
I0527 21:00:37.904986 12761 net.cpp:84] Creating Layer layer_512_2_bn2
I0527 21:00:37.904992 12761 net.cpp:406] layer_512_2_bn2 <- layer_512_2_conv1
I0527 21:00:37.905001 12761 net.cpp:367] layer_512_2_bn2 -> layer_512_2_conv1 (in-place)
I0527 21:00:37.905293 12761 net.cpp:122] Setting up layer_512_2_bn2
I0527 21:00:37.905303 12761 net.cpp:129] Top shape: 30 512 7 7 (752640)
I0527 21:00:37.905318 12761 net.cpp:137] Memory required for data: 2294047080
I0527 21:00:37.905325 12761 layer_factory.hpp:77] Creating layer layer_512_2_scale2
I0527 21:00:37.905334 12761 net.cpp:84] Creating Layer layer_512_2_scale2
I0527 21:00:37.905340 12761 net.cpp:406] layer_512_2_scale2 <- layer_512_2_conv1
I0527 21:00:37.905350 12761 net.cpp:367] layer_512_2_scale2 -> layer_512_2_conv1 (in-place)
I0527 21:00:37.905426 12761 layer_factory.hpp:77] Creating layer layer_512_2_scale2
I0527 21:00:37.905598 12761 net.cpp:122] Setting up layer_512_2_scale2
I0527 21:00:37.905620 12761 net.cpp:129] Top shape: 30 512 7 7 (752640)
I0527 21:00:37.905627 12761 net.cpp:137] Memory required for data: 2297057640
I0527 21:00:37.905635 12761 layer_factory.hpp:77] Creating layer layer_512_2_relu2
I0527 21:00:37.905647 12761 net.cpp:84] Creating Layer layer_512_2_relu2
I0527 21:00:37.905653 12761 net.cpp:406] layer_512_2_relu2 <- layer_512_2_conv1
I0527 21:00:37.905658 12761 net.cpp:367] layer_512_2_relu2 -> layer_512_2_conv1 (in-place)
I0527 21:00:37.906512 12761 net.cpp:122] Setting up layer_512_2_relu2
I0527 21:00:37.906523 12761 net.cpp:129] Top shape: 30 512 7 7 (752640)
I0527 21:00:37.906538 12761 net.cpp:137] Memory required for data: 2300068200
I0527 21:00:37.906541 12761 layer_factory.hpp:77] Creating layer layer_512_2_conv2
I0527 21:00:37.906558 12761 net.cpp:84] Creating Layer layer_512_2_conv2
I0527 21:00:37.906564 12761 net.cpp:406] layer_512_2_conv2 <- layer_512_2_conv1
I0527 21:00:37.906572 12761 net.cpp:380] layer_512_2_conv2 -> layer_512_2_conv2
I0527 21:00:37.935163 12761 net.cpp:122] Setting up layer_512_2_conv2
I0527 21:00:37.935204 12761 net.cpp:129] Top shape: 30 512 7 7 (752640)
I0527 21:00:37.935209 12761 net.cpp:137] Memory required for data: 2303078760
I0527 21:00:37.935220 12761 layer_factory.hpp:77] Creating layer layer_512_2_sum
I0527 21:00:37.935231 12761 net.cpp:84] Creating Layer layer_512_2_sum
I0527 21:00:37.935240 12761 net.cpp:406] layer_512_2_sum <- layer_512_2_conv2
I0527 21:00:37.935247 12761 net.cpp:406] layer_512_2_sum <- layer_512_1_sum_layer_512_1_sum_0_split_1
I0527 21:00:37.935253 12761 net.cpp:380] layer_512_2_sum -> layer_512_2_sum
I0527 21:00:37.935304 12761 net.cpp:122] Setting up layer_512_2_sum
I0527 21:00:37.935317 12761 net.cpp:129] Top shape: 30 512 7 7 (752640)
I0527 21:00:37.935324 12761 net.cpp:137] Memory required for data: 2306089320
I0527 21:00:37.935333 12761 layer_factory.hpp:77] Creating layer layer_512_2_sum_layer_512_2_sum_0_split
I0527 21:00:37.935364 12761 net.cpp:84] Creating Layer layer_512_2_sum_layer_512_2_sum_0_split
I0527 21:00:37.935372 12761 net.cpp:406] layer_512_2_sum_layer_512_2_sum_0_split <- layer_512_2_sum
I0527 21:00:37.935387 12761 net.cpp:380] layer_512_2_sum_layer_512_2_sum_0_split -> layer_512_2_sum_layer_512_2_sum_0_split_0
I0527 21:00:37.935415 12761 net.cpp:380] layer_512_2_sum_layer_512_2_sum_0_split -> layer_512_2_sum_layer_512_2_sum_0_split_1
I0527 21:00:37.935484 12761 net.cpp:122] Setting up layer_512_2_sum_layer_512_2_sum_0_split
I0527 21:00:37.935497 12761 net.cpp:129] Top shape: 30 512 7 7 (752640)
I0527 21:00:37.935504 12761 net.cpp:129] Top shape: 30 512 7 7 (752640)
I0527 21:00:37.935523 12761 net.cpp:137] Memory required for data: 2312110440
I0527 21:00:37.935528 12761 layer_factory.hpp:77] Creating layer layer_512_3_bn1
I0527 21:00:37.935540 12761 net.cpp:84] Creating Layer layer_512_3_bn1
I0527 21:00:37.935549 12761 net.cpp:406] layer_512_3_bn1 <- layer_512_2_sum_layer_512_2_sum_0_split_0
I0527 21:00:37.935562 12761 net.cpp:380] layer_512_3_bn1 -> layer_512_3_bn1
I0527 21:00:37.935861 12761 net.cpp:122] Setting up layer_512_3_bn1
I0527 21:00:37.935878 12761 net.cpp:129] Top shape: 30 512 7 7 (752640)
I0527 21:00:37.935883 12761 net.cpp:137] Memory required for data: 2315121000
I0527 21:00:37.935899 12761 layer_factory.hpp:77] Creating layer layer_512_3_scale1
I0527 21:00:37.935914 12761 net.cpp:84] Creating Layer layer_512_3_scale1
I0527 21:00:37.935921 12761 net.cpp:406] layer_512_3_scale1 <- layer_512_3_bn1
I0527 21:00:37.935931 12761 net.cpp:367] layer_512_3_scale1 -> layer_512_3_bn1 (in-place)
I0527 21:00:37.936000 12761 layer_factory.hpp:77] Creating layer layer_512_3_scale1
I0527 21:00:37.936166 12761 net.cpp:122] Setting up layer_512_3_scale1
I0527 21:00:37.936177 12761 net.cpp:129] Top shape: 30 512 7 7 (752640)
I0527 21:00:37.936183 12761 net.cpp:137] Memory required for data: 2318131560
I0527 21:00:37.936194 12761 layer_factory.hpp:77] Creating layer layer_512_3_relu1
I0527 21:00:37.936208 12761 net.cpp:84] Creating Layer layer_512_3_relu1
I0527 21:00:37.936216 12761 net.cpp:406] layer_512_3_relu1 <- layer_512_3_bn1
I0527 21:00:37.936249 12761 net.cpp:367] layer_512_3_relu1 -> layer_512_3_bn1 (in-place)
I0527 21:00:37.936486 12761 net.cpp:122] Setting up layer_512_3_relu1
I0527 21:00:37.936497 12761 net.cpp:129] Top shape: 30 512 7 7 (752640)
I0527 21:00:37.936503 12761 net.cpp:137] Memory required for data: 2321142120
I0527 21:00:37.936511 12761 layer_factory.hpp:77] Creating layer layer_512_3_conv1
I0527 21:00:37.936538 12761 net.cpp:84] Creating Layer layer_512_3_conv1
I0527 21:00:37.936545 12761 net.cpp:406] layer_512_3_conv1 <- layer_512_3_bn1
I0527 21:00:37.936559 12761 net.cpp:380] layer_512_3_conv1 -> layer_512_3_conv1
I0527 21:00:37.964857 12761 net.cpp:122] Setting up layer_512_3_conv1
I0527 21:00:37.964890 12761 net.cpp:129] Top shape: 30 512 7 7 (752640)
I0527 21:00:37.964896 12761 net.cpp:137] Memory required for data: 2324152680
I0527 21:00:37.964910 12761 layer_factory.hpp:77] Creating layer layer_512_3_bn2
I0527 21:00:37.964933 12761 net.cpp:84] Creating Layer layer_512_3_bn2
I0527 21:00:37.964963 12761 net.cpp:406] layer_512_3_bn2 <- layer_512_3_conv1
I0527 21:00:37.964980 12761 net.cpp:367] layer_512_3_bn2 -> layer_512_3_conv1 (in-place)
I0527 21:00:37.965270 12761 net.cpp:122] Setting up layer_512_3_bn2
I0527 21:00:37.965281 12761 net.cpp:129] Top shape: 30 512 7 7 (752640)
I0527 21:00:37.965287 12761 net.cpp:137] Memory required for data: 2327163240
I0527 21:00:37.965302 12761 layer_factory.hpp:77] Creating layer layer_512_3_scale2
I0527 21:00:37.965318 12761 net.cpp:84] Creating Layer layer_512_3_scale2
I0527 21:00:37.965328 12761 net.cpp:406] layer_512_3_scale2 <- layer_512_3_conv1
I0527 21:00:37.965351 12761 net.cpp:367] layer_512_3_scale2 -> layer_512_3_conv1 (in-place)
I0527 21:00:37.965421 12761 layer_factory.hpp:77] Creating layer layer_512_3_scale2
I0527 21:00:37.965586 12761 net.cpp:122] Setting up layer_512_3_scale2
I0527 21:00:37.965598 12761 net.cpp:129] Top shape: 30 512 7 7 (752640)
I0527 21:00:37.965605 12761 net.cpp:137] Memory required for data: 2330173800
I0527 21:00:37.965616 12761 layer_factory.hpp:77] Creating layer layer_512_3_relu2
I0527 21:00:37.965628 12761 net.cpp:84] Creating Layer layer_512_3_relu2
I0527 21:00:37.965636 12761 net.cpp:406] layer_512_3_relu2 <- layer_512_3_conv1
I0527 21:00:37.965648 12761 net.cpp:367] layer_512_3_relu2 -> layer_512_3_conv1 (in-place)
I0527 21:00:37.966281 12761 net.cpp:122] Setting up layer_512_3_relu2
I0527 21:00:37.966294 12761 net.cpp:129] Top shape: 30 512 7 7 (752640)
I0527 21:00:37.966300 12761 net.cpp:137] Memory required for data: 2333184360
I0527 21:00:37.966306 12761 layer_factory.hpp:77] Creating layer layer_512_3_conv2
I0527 21:00:37.966333 12761 net.cpp:84] Creating Layer layer_512_3_conv2
I0527 21:00:37.966341 12761 net.cpp:406] layer_512_3_conv2 <- layer_512_3_conv1
I0527 21:00:37.966356 12761 net.cpp:380] layer_512_3_conv2 -> layer_512_3_conv2
I0527 21:00:37.997414 12761 net.cpp:122] Setting up layer_512_3_conv2
I0527 21:00:37.997449 12761 net.cpp:129] Top shape: 30 512 7 7 (752640)
I0527 21:00:37.997457 12761 net.cpp:137] Memory required for data: 2336194920
I0527 21:00:37.997470 12761 layer_factory.hpp:77] Creating layer layer_512_3_sum
I0527 21:00:37.997485 12761 net.cpp:84] Creating Layer layer_512_3_sum
I0527 21:00:37.997501 12761 net.cpp:406] layer_512_3_sum <- layer_512_3_conv2
I0527 21:00:37.997514 12761 net.cpp:406] layer_512_3_sum <- layer_512_2_sum_layer_512_2_sum_0_split_1
I0527 21:00:37.997529 12761 net.cpp:380] layer_512_3_sum -> layer_512_3_sum
I0527 21:00:37.997592 12761 net.cpp:122] Setting up layer_512_3_sum
I0527 21:00:37.997607 12761 net.cpp:129] Top shape: 30 512 7 7 (752640)
I0527 21:00:37.997613 12761 net.cpp:137] Memory required for data: 2339205480
I0527 21:00:37.997619 12761 layer_factory.hpp:77] Creating layer last_bn
I0527 21:00:37.997633 12761 net.cpp:84] Creating Layer last_bn
I0527 21:00:37.997642 12761 net.cpp:406] last_bn <- layer_512_3_sum
I0527 21:00:37.997654 12761 net.cpp:367] last_bn -> layer_512_3_sum (in-place)
I0527 21:00:37.997937 12761 net.cpp:122] Setting up last_bn
I0527 21:00:37.997959 12761 net.cpp:129] Top shape: 30 512 7 7 (752640)
I0527 21:00:37.997967 12761 net.cpp:137] Memory required for data: 2342216040
I0527 21:00:37.997983 12761 layer_factory.hpp:77] Creating layer last_scale
I0527 21:00:37.997995 12761 net.cpp:84] Creating Layer last_scale
I0527 21:00:37.998003 12761 net.cpp:406] last_scale <- layer_512_3_sum
I0527 21:00:37.998016 12761 net.cpp:367] last_scale -> layer_512_3_sum (in-place)
I0527 21:00:37.998085 12761 layer_factory.hpp:77] Creating layer last_scale
I0527 21:00:37.998250 12761 net.cpp:122] Setting up last_scale
I0527 21:00:37.998262 12761 net.cpp:129] Top shape: 30 512 7 7 (752640)
I0527 21:00:37.998268 12761 net.cpp:137] Memory required for data: 2345226600
I0527 21:00:37.998280 12761 layer_factory.hpp:77] Creating layer last_relu
I0527 21:00:37.998291 12761 net.cpp:84] Creating Layer last_relu
I0527 21:00:37.998301 12761 net.cpp:406] last_relu <- layer_512_3_sum
I0527 21:00:37.998311 12761 net.cpp:367] last_relu -> layer_512_3_sum (in-place)
I0527 21:00:37.998494 12761 net.cpp:122] Setting up last_relu
I0527 21:00:37.998508 12761 net.cpp:129] Top shape: 30 512 7 7 (752640)
I0527 21:00:37.998514 12761 net.cpp:137] Memory required for data: 2348237160
I0527 21:00:37.998534 12761 layer_factory.hpp:77] Creating layer global_pool
I0527 21:00:37.998546 12761 net.cpp:84] Creating Layer global_pool
I0527 21:00:37.998564 12761 net.cpp:406] global_pool <- layer_512_3_sum
I0527 21:00:37.998574 12761 net.cpp:380] global_pool -> global_pool
I0527 21:00:37.998778 12761 net.cpp:122] Setting up global_pool
I0527 21:00:37.998790 12761 net.cpp:129] Top shape: 30 512 1 1 (15360)
I0527 21:00:37.998797 12761 net.cpp:137] Memory required for data: 2348298600
I0527 21:00:37.998805 12761 layer_factory.hpp:77] Creating layer score
I0527 21:00:37.998818 12761 net.cpp:84] Creating Layer score
I0527 21:00:37.998826 12761 net.cpp:406] score <- global_pool
I0527 21:00:37.998837 12761 net.cpp:380] score -> score
I0527 21:00:37.998987 12761 net.cpp:122] Setting up score
I0527 21:00:37.998998 12761 net.cpp:129] Top shape: 30 2 (60)
I0527 21:00:37.999004 12761 net.cpp:137] Memory required for data: 2348298840
I0527 21:00:37.999017 12761 layer_factory.hpp:77] Creating layer score_score_0_split
I0527 21:00:37.999027 12761 net.cpp:84] Creating Layer score_score_0_split
I0527 21:00:37.999035 12761 net.cpp:406] score_score_0_split <- score
I0527 21:00:37.999047 12761 net.cpp:380] score_score_0_split -> score_score_0_split_0
I0527 21:00:37.999059 12761 net.cpp:380] score_score_0_split -> score_score_0_split_1
I0527 21:00:37.999122 12761 net.cpp:122] Setting up score_score_0_split
I0527 21:00:37.999133 12761 net.cpp:129] Top shape: 30 2 (60)
I0527 21:00:37.999140 12761 net.cpp:129] Top shape: 30 2 (60)
I0527 21:00:37.999160 12761 net.cpp:137] Memory required for data: 2348299320
I0527 21:00:37.999166 12761 layer_factory.hpp:77] Creating layer loss
I0527 21:00:37.999176 12761 net.cpp:84] Creating Layer loss
I0527 21:00:37.999184 12761 net.cpp:406] loss <- score_score_0_split_0
I0527 21:00:37.999193 12761 net.cpp:406] loss <- label_data_1_split_0
I0527 21:00:37.999207 12761 net.cpp:380] loss -> loss
…
