…
I0529 17:44:38.799304  5562 net.cpp:294] The NetState phase (0) differed from the phase (1) specified by a rule in layer accuracy
I0529 17:44:38.800096  5562 net.cpp:51] Initializing net from parameters: 
name: "Pre-ResNet-34"
state {
  phase: TRAIN
  level: 0
  stage: ""
}
layer {
  name: "data"
  type: "Data"
  top: "data"
  top: "label"
  include {
    phase: TRAIN
  }
  transform_param {
    mirror: true
    crop_size: 224
    mean_file: "/storage/Adience/Test_fold_is_0/mean.binaryproto"
  }
  data_param {
    source: "/storage/Adience/Test_fold_is_0/gender_train_lmdb"
    batch_size: 50
    backend: LMDB
  }
}
layer {
  name: "data_bn"
  type: "BatchNorm"
  bottom: "data"
  top: "data_bn"
  param {
    lr_mult: 0
    decay_mult: 0
  }
  param {
    lr_mult: 0
    decay_mult: 0
  }
  param {
    lr_mult: 0
    decay_mult: 0
  }
}
layer {
  name: "data_scale"
  type: "Scale"
  bottom: "data_bn"
  top: "data_bn"
  param {
    lr_mult: 1
    decay_mult: 1
  }
  param {
    lr_mult: 2
    decay_mult: 1
  }
  scale_param {
    bias_term: true
  }
}
layer {
  name: "conv1"
  type: "Convolution"
  bottom: "data_bn"
  top: "conv1"
  param {
    lr_mult: 1
    decay_mult: 1
  }
  param {
    lr_mult: 2
    decay_mult: 1
  }
  convolution_param {
    num_output: 64
    pad: 3
    kernel_size: 7
    stride: 2
    weight_filler {
      type: "msra"
      variance_norm: FAN_OUT
    }
    bias_filler {
      type: "constant"
      value: 0
    }
  }
}
layer {
  name: "conv1_bn"
  type: "BatchNorm"
  bottom: "conv1"
  top: "conv1"
  param {
    lr_mult: 0
    decay_mult: 0
  }
  param {
    lr_mult: 0
    decay_mult: 0
  }
  param {
    lr_mult: 0
    decay_mult: 0
  }
}
layer {
  name: "conv1_scale"
  type: "Scale"
  bottom: "conv1"
  top: "conv1"
  param {
    lr_mult: 1
    decay_mult: 1
  }
  param {
    lr_mult: 2
    decay_mult: 1
  }
  scale_param {
    bias_term: true
  }
}
layer {
  name: "conv1_relu"
  type: "ReLU"
  bottom: "conv1"
  top: "conv1"
}
layer {
  name: "conv1_pool"
  type: "Pooling"
  bottom: "conv1"
  top: "conv1_pool"
  pooling_param {
    kernel_size: 3
    stride: 2
  }
}
layer {
  name: "layer_64_1_conv1"
  type: "Convolution"
  bottom: "conv1_pool"
  top: "layer_64_1_conv1"
  param {
    lr_mult: 1
    decay_mult: 1
  }
  convolution_param {
    num_output: 64
    bias_term: false
    pad: 1
    kernel_size: 3
    stride: 1
    weight_filler {
      type: "msra"
    }
    bias_filler {
      type: "constant"
      value: 0
    }
  }
}
layer {
  name: "layer_64_1_bn2"
  type: "BatchNorm"
  bottom: "layer_64_1_conv1"
  top: "layer_64_1_conv1"
  param {
    lr_mult: 0
    decay_mult: 0
  }
  param {
    lr_mult: 0
    decay_mult: 0
  }
  param {
    lr_mult: 0
    decay_mult: 0
  }
}
layer {
  name: "layer_64_1_scale2"
  type: "Scale"
  bottom: "layer_64_1_conv1"
  top: "layer_64_1_conv1"
  param {
    lr_mult: 1
    decay_mult: 1
  }
  param {
    lr_mult: 2
    decay_mult: 1
  }
  scale_param {
    bias_term: true
  }
}
layer {
  name: "layer_64_1_relu2"
  type: "ReLU"
  bottom: "layer_64_1_conv1"
  top: "layer_64_1_conv1"
}
layer {
  name: "layer_64_1_conv2"
  type: "Convolution"
  bottom: "layer_64_1_conv1"
  top: "layer_64_1_conv2"
  param {
    lr_mult: 1
    decay_mult: 1
  }
  convolution_param {
    num_output: 64
    bias_term: false
    pad: 1
    kernel_size: 3
    stride: 1
    weight_filler {
      type: "msra"
    }
    bias_filler {
      type: "constant"
      value: 0
    }
  }
}
layer {
  name: "layer_64_1_sum"
  type: "Eltwise"
  bottom: "layer_64_1_conv2"
  bottom: "conv1_pool"
  top: "layer_64_1_sum"
}
layer {
  name: "layer_64_2_bn1"
  type: "BatchNorm"
  bottom: "layer_64_1_sum"
  top: "layer_64_2_bn1"
  param {
    lr_mult: 0
    decay_mult: 0
  }
  param {
    lr_mult: 0
    decay_mult: 0
  }
  param {
    lr_mult: 0
    decay_mult: 0
  }
}
layer {
  name: "layer_64_2_scale1"
  type: "Scale"
  bottom: "layer_64_2_bn1"
  top: "layer_64_2_bn1"
  param {
    lr_mult: 1
    decay_mult: 1
  }
  param {
    lr_mult: 2
    decay_mult: 1
  }
  scale_param {
    bias_term: true
  }
}
layer {
  name: "layer_64_2_relu1"
  type: "ReLU"
  bottom: "layer_64_2_bn1"
  top: "layer_64_2_bn1"
}
layer {
  name: "layer_64_2_conv1"
  type: "Convolution"
  bottom: "layer_64_2_bn1"
  top: "layer_64_2_conv1"
  param {
    lr_mult: 1
    decay_mult: 1
  }
  convolution_param {
    num_output: 64
    bias_term: false
    pad: 1
    kernel_size: 3
    stride: 1
    weight_filler {
      type: "msra"
    }
    bias_filler {
      type: "constant"
      value: 0
    }
  }
}
layer {
  name: "layer_64_2_bn2"
  type: "BatchNorm"
  bottom: "layer_64_2_conv1"
  top: "layer_64_2_conv1"
  param {
    lr_mult: 0
    decay_mult: 0
  }
  param {
    lr_mult: 0
    decay_mult: 0
  }
  param {
    lr_mult: 0
    decay_mult: 0
  }
}
layer {
  name: "layer_64_2_scale2"
  type: "Scale"
  bottom: "layer_64_2_conv1"
  top: "layer_64_2_conv1"
  param {
    lr_mult: 1
    decay_mult: 1
  }
  param {
    lr_mult: 2
    decay_mult: 1
  }
  scale_param {
    bias_term: true
  }
}
layer {
  name: "layer_64_2_relu2"
  type: "ReLU"
  bottom: "layer_64_2_conv1"
  top: "layer_64_2_conv1"
}
layer {
  name: "layer_64_2_conv2"
  type: "Convolution"
  bottom: "layer_64_2_conv1"
  top: "layer_64_2_conv2"
  param {
    lr_mult: 1
    decay_mult: 1
  }
  convolution_param {
    num_output: 64
    bias_term: false
    pad: 1
    kernel_size: 3
    stride: 1
    weight_filler {
      type: "msra"
    }
    bias_filler {
      type: "constant"
      value: 0
    }
  }
}
layer {
  name: "layer_64_2_sum"
  type: "Eltwise"
  bottom: "layer_64_2_conv2"
  bottom: "layer_64_1_sum"
  top: "layer_64_2_sum"
}
layer {
  name: "layer_64_3_bn1"
  type: "BatchNorm"
  bottom: "layer_64_2_sum"
  top: "layer_64_3_bn1"
  param {
    lr_mult: 0
    decay_mult: 0
  }
  param {
    lr_mult: 0
    decay_mult: 0
  }
  param {
    lr_mult: 0
    decay_mult: 0
  }
}
layer {
  name: "layer_64_3_scale1"
  type: "Scale"
  bottom: "layer_64_3_bn1"
  top: "layer_64_3_bn1"
  param {
    lr_mult: 1
    decay_mult: 1
  }
  param {
    lr_mult: 2
    decay_mult: 1
  }
  scale_param {
    bias_term: true
  }
}
layer {
  name: "layer_64_3_relu1"
  type: "ReLU"
  bottom: "layer_64_3_bn1"
  top: "layer_64_3_bn1"
}
layer {
  name: "layer_64_3_conv1"
  type: "Convolution"
  bottom: "layer_64_3_bn1"
  top: "layer_64_3_conv1"
  param {
    lr_mult: 1
    decay_mult: 1
  }
  convolution_param {
    num_output: 64
    bias_term: false
    pad: 1
    kernel_size: 3
    stride: 1
    weight_filler {
      type: "msra"
    }
    bias_filler {
      type: "constant"
      value: 0
    }
  }
}
layer {
  name: "layer_64_3_bn2"
  type: "BatchNorm"
  bottom: "layer_64_3_conv1"
  top: "layer_64_3_conv1"
  param {
    lr_mult: 0
    decay_mult: 0
  }
  param {
    lr_mult: 0
    decay_mult: 0
  }
  param {
    lr_mult: 0
    decay_mult: 0
  }
}
layer {
  name: "layer_64_3_scale2"
  type: "Scale"
  bottom: "layer_64_3_conv1"
  top: "layer_64_3_conv1"
  param {
    lr_mult: 1
    decay_mult: 1
  }
  param {
    lr_mult: 2
    decay_mult: 1
  }
  scale_param {
    bias_term: true
  }
}
layer {
  name: "layer_64_3_relu2"
  type: "ReLU"
  bottom: "layer_64_3_conv1"
  top: "layer_64_3_conv1"
}
layer {
  name: "layer_64_3_conv2"
  type: "Convolution"
  bottom: "layer_64_3_conv1"
  top: "layer_64_3_conv2"
  param {
    lr_mult: 1
    decay_mult: 1
  }
  convolution_param {
    num_output: 64
    bias_term: false
    pad: 1
    kernel_size: 3
    stride: 1
    weight_filler {
      type: "msra"
    }
    bias_filler {
      type: "constant"
      value: 0
    }
  }
}
layer {
  name: "layer_64_3_sum"
  type: "Eltwise"
  bottom: "layer_64_3_conv2"
  bottom: "layer_64_2_sum"
  top: "layer_64_3_sum"
}
layer {
  name: "layer_128_1_bn1"
  type: "BatchNorm"
  bottom: "layer_64_3_sum"
  top: "layer_128_1_bn1"
  param {
    lr_mult: 0
    decay_mult: 0
  }
  param {
    lr_mult: 0
    decay_mult: 0
  }
  param {
    lr_mult: 0
    decay_mult: 0
  }
}
layer {
  name: "layer_128_1_scale1"
  type: "Scale"
  bottom: "layer_128_1_bn1"
  top: "layer_128_1_bn1"
  param {
    lr_mult: 1
    decay_mult: 1
  }
  param {
    lr_mult: 2
    decay_mult: 1
  }
  scale_param {
    bias_term: true
  }
}
layer {
  name: "layer_128_1_relu1"
  type: "ReLU"
  bottom: "layer_128_1_bn1"
  top: "layer_128_1_bn1"
}
layer {
  name: "layer_128_1_conv1"
  type: "Convolution"
  bottom: "layer_128_1_bn1"
  top: "layer_128_1_conv1"
  param {
    lr_mult: 1
    decay_mult: 1
  }
  convolution_param {
    num_output: 128
    bias_term: false
    pad: 1
    kernel_size: 3
    stride: 2
    weight_filler {
      type: "msra"
    }
    bias_filler {
      type: "constant"
      value: 0
    }
  }
}
layer {
  name: "layer_128_1_bn2"
  type: "BatchNorm"
  bottom: "layer_128_1_conv1"
  top: "layer_128_1_conv1"
  param {
    lr_mult: 0
    decay_mult: 0
  }
  param {
    lr_mult: 0
    decay_mult: 0
  }
  param {
    lr_mult: 0
    decay_mult: 0
  }
}
layer {
  name: "layer_128_1_scale2"
  type: "Scale"
  bottom: "layer_128_1_conv1"
  top: "layer_128_1_conv1"
  param {
    lr_mult: 1
    decay_mult: 1
  }
  param {
    lr_mult: 2
    decay_mult: 1
  }
  scale_param {
    bias_term: true
  }
}
layer {
  name: "layer_128_1_relu2"
  type: "ReLU"
  bottom: "layer_128_1_conv1"
  top: "layer_128_1_conv1"
}
layer {
  name: "layer_128_1_conv2"
  type: "Convolution"
  bottom: "layer_128_1_conv1"
  top: "layer_128_1_conv2"
  param {
    lr_mult: 1
    decay_mult: 1
  }
  convolution_param {
    num_output: 128
    bias_term: false
    pad: 1
    kernel_size: 3
    stride: 1
    weight_filler {
      type: "msra"
    }
    bias_filler {
      type: "constant"
      value: 0
    }
  }
}
layer {
  name: "layer_128_1_conv_expand"
  type: "Convolution"
  bottom: "layer_128_1_bn1"
  top: "layer_128_1_conv_expand"
  param {
    lr_mult: 1
    decay_mult: 1
  }
  convolution_param {
    num_output: 128
    bias_term: false
    pad: 0
    kernel_size: 1
    stride: 2
    weight_filler {
      type: "msra"
    }
    bias_filler {
      type: "constant"
      value: 0
    }
  }
}
layer {
  name: "layer_128_1_sum"
  type: "Eltwise"
  bottom: "layer_128_1_conv_expand"
  bottom: "layer_128_1_conv2"
  top: "layer_128_1_sum"
}
layer {
  name: "layer_128_2_bn1"
  type: "BatchNorm"
  bottom: "layer_128_1_sum"
  top: "layer_128_2_bn1"
  param {
    lr_mult: 0
    decay_mult: 0
  }
  param {
    lr_mult: 0
    decay_mult: 0
  }
  param {
    lr_mult: 0
    decay_mult: 0
  }
}
layer {
  name: "layer_128_2_scale1"
  type: "Scale"
  bottom: "layer_128_2_bn1"
  top: "layer_128_2_bn1"
  param {
    lr_mult: 1
    decay_mult: 1
  }
  param {
    lr_mult: 2
    decay_mult: 1
  }
  scale_param {
    bias_term: true
  }
}
layer {
  name: "layer_128_2_relu1"
  type: "ReLU"
  bottom: "layer_128_2_bn1"
  top: "layer_128_2_bn1"
}
layer {
  name: "layer_128_2_conv1"
  type: "Convolution"
  bottom: "layer_128_2_bn1"
  top: "layer_128_2_conv1"
  param {
    lr_mult: 1
    decay_mult: 1
  }
  convolution_param {
    num_output: 128
    bias_term: false
    pad: 1
    kernel_size: 3
    stride: 1
    weight_filler {
      type: "msra"
    }
    bias_filler {
      type: "constant"
      value: 0
    }
  }
}
layer {
  name: "layer_128_2_bn2"
  type: "BatchNorm"
  bottom: "layer_128_2_conv1"
  top: "layer_128_2_conv1"
  param {
    lr_mult: 0
    decay_mult: 0
  }
  param {
    lr_mult: 0
    decay_mult: 0
  }
  param {
    lr_mult: 0
    decay_mult: 0
  }
}
layer {
  name: "layer_128_2_scale2"
  type: "Scale"
  bottom: "layer_128_2_conv1"
  top: "layer_128_2_conv1"
  param {
    lr_mult: 1
    decay_mult: 1
  }
  param {
    lr_mult: 2
    decay_mult: 1
  }
  scale_param {
    bias_term: true
  }
}
layer {
  name: "layer_128_2_relu2"
  type: "ReLU"
  bottom: "layer_128_2_conv1"
  top: "layer_128_2_conv1"
}
layer {
  name: "layer_128_2_conv2"
  type: "Convolution"
  bottom: "layer_128_2_conv1"
  top: "layer_128_2_conv2"
  param {
    lr_mult: 1
    decay_mult: 1
  }
  convolution_param {
    num_output: 128
    bias_term: false
    pad: 1
    kernel_size: 3
    stride: 1
    weight_filler {
      type: "msra"
    }
    bias_filler {
      type: "constant"
      value: 0
    }
  }
}
layer {
  name: "layer_128_2_sum"
  type: "Eltwise"
  bottom: "layer_128_2_conv2"
  bottom: "layer_128_1_sum"
  top: "layer_128_2_sum"
}
layer {
  name: "layer_128_3_bn1"
  type: "BatchNorm"
  bottom: "layer_128_2_sum"
  top: "layer_128_3_bn1"
  param {
    lr_mult: 0
    decay_mult: 0
  }
  param {
    lr_mult: 0
    decay_mult: 0
  }
  param {
    lr_mult: 0
    decay_mult: 0
  }
}
layer {
  name: "layer_128_3_scale1"
  type: "Scale"
  bottom: "layer_128_3_bn1"
  top: "layer_128_3_bn1"
  param {
    lr_mult: 1
    decay_mult: 1
  }
  param {
    lr_mult: 2
    decay_mult: 1
  }
  scale_param {
    bias_term: true
  }
}
layer {
  name: "layer_128_3_relu1"
  type: "ReLU"
  bottom: "layer_128_3_bn1"
  top: "layer_128_3_bn1"
}
layer {
  name: "layer_128_3_conv1"
  type: "Convolution"
  bottom: "layer_128_3_bn1"
  top: "layer_128_3_conv1"
  param {
    lr_mult: 1
    decay_mult: 1
  }
  convolution_param {
    num_output: 128
    bias_term: false
    pad: 1
    kernel_size: 3
    stride: 1
    weight_filler {
      type: "msra"
    }
    bias_filler {
      type: "constant"
      value: 0
    }
  }
}
layer {
  name: "layer_128_3_bn2"
  type: "BatchNorm"
  bottom: "layer_128_3_conv1"
  top: "layer_128_3_conv1"
  param {
    lr_mult: 0
    decay_mult: 0
  }
  param {
    lr_mult: 0
    decay_mult: 0
  }
  param {
    lr_mult: 0
    decay_mult: 0
  }
}
layer {
  name: "layer_128_3_scale2"
  type: "Scale"
  bottom: "layer_128_3_conv1"
  top: "layer_128_3_conv1"
  param {
    lr_mult: 1
    decay_mult: 1
  }
  param {
    lr_mult: 2
    decay_mult: 1
  }
  scale_param {
    bias_term: true
  }
}
layer {
  name: "layer_128_3_relu2"
  type: "ReLU"
  bottom: "layer_128_3_conv1"
  top: "layer_128_3_conv1"
}
layer {
  name: "layer_128_3_conv2"
  type: "Convolution"
  bottom: "layer_128_3_conv1"
  top: "layer_128_3_conv2"
  param {
    lr_mult: 1
    decay_mult: 1
  }
  convolution_param {
    num_output: 128
    bias_term: false
    pad: 1
    kernel_size: 3
    stride: 1
    weight_filler {
      type: "msra"
    }
    bias_filler {
      type: "constant"
      value: 0
    }
  }
}
layer {
  name: "layer_128_3_sum"
  type: "Eltwise"
  bottom: "layer_128_3_conv2"
  bottom: "layer_128_2_sum"
  top: "layer_128_3_sum"
}
layer {
  name: "layer_128_4_bn1"
  type: "BatchNorm"
  bottom: "layer_128_3_sum"
  top: "layer_128_4_bn1"
  param {
    lr_mult: 0
    decay_mult: 0
  }
  param {
    lr_mult: 0
    decay_mult: 0
  }
  param {
    lr_mult: 0
    decay_mult: 0
  }
}
layer {
  name: "layer_128_4_scale1"
  type: "Scale"
  bottom: "layer_128_4_bn1"
  top: "layer_128_4_bn1"
  param {
    lr_mult: 1
    decay_mult: 1
  }
  param {
    lr_mult: 2
    decay_mult: 1
  }
  scale_param {
    bias_term: true
  }
}
layer {
  name: "layer_128_4_relu1"
  type: "ReLU"
  bottom: "layer_128_4_bn1"
  top: "layer_128_4_bn1"
}
layer {
  name: "layer_128_4_conv1"
  type: "Convolution"
  bottom: "layer_128_4_bn1"
  top: "layer_128_4_conv1"
  param {
    lr_mult: 1
    decay_mult: 1
  }
  convolution_param {
    num_output: 128
    bias_term: false
    pad: 1
    kernel_size: 3
    stride: 1
    weight_filler {
      type: "msra"
    }
    bias_filler {
      type: "constant"
      value: 0
    }
  }
}
layer {
  name: "layer_128_4_bn2"
  type: "BatchNorm"
  bottom: "layer_128_4_conv1"
  top: "layer_128_4_conv1"
  param {
    lr_mult: 0
    decay_mult: 0
  }
  param {
    lr_mult: 0
    decay_mult: 0
  }
  param {
    lr_mult: 0
    decay_mult: 0
  }
}
layer {
  name: "layer_128_4_scale2"
  type: "Scale"
  bottom: "layer_128_4_conv1"
  top: "layer_128_4_conv1"
  param {
    lr_mult: 1
    decay_mult: 1
  }
  param {
    lr_mult: 2
    decay_mult: 1
  }
  scale_param {
    bias_term: true
  }
}
layer {
  name: "layer_128_4_relu2"
  type: "ReLU"
  bottom: "layer_128_4_conv1"
  top: "layer_128_4_conv1"
}
layer {
  name: "layer_128_4_conv2"
  type: "Convolution"
  bottom: "layer_128_4_conv1"
  top: "layer_128_4_conv2"
  param {
    lr_mult: 1
    decay_mult: 1
  }
  convolution_param {
    num_output: 128
    bias_term: false
    pad: 1
    kernel_size: 3
    stride: 1
    weight_filler {
      type: "msra"
    }
    bias_filler {
      type: "constant"
      value: 0
    }
  }
}
layer {
  name: "layer_128_4_sum"
  type: "Eltwise"
  bottom: "layer_128_4_conv2"
  bottom: "layer_128_3_sum"
  top: "layer_128_4_sum"
}
layer {
  name: "layer_256_1_bn1"
  type: "BatchNorm"
  bottom: "layer_128_4_sum"
  top: "layer_256_1_bn1"
  param {
    lr_mult: 0
    decay_mult: 0
  }
  param {
    lr_mult: 0
    decay_mult: 0
  }
  param {
    lr_mult: 0
    decay_mult: 0
  }
}
layer {
  name: "layer_256_1_scale1"
  type: "Scale"
  bottom: "layer_256_1_bn1"
  top: "layer_256_1_bn1"
  param {
    lr_mult: 1
    decay_mult: 1
  }
  param {
    lr_mult: 2
    decay_mult: 1
  }
  scale_param {
    bias_term: true
  }
}
layer {
  name: "layer_256_1_relu1"
  type: "ReLU"
  bottom: "layer_256_1_bn1"
  top: "layer_256_1_bn1"
}
layer {
  name: "layer_256_1_conv1"
  type: "Convolution"
  bottom: "layer_256_1_bn1"
  top: "layer_256_1_conv1"
  param {
    lr_mult: 1
    decay_mult: 1
  }
  convolution_param {
    num_output: 256
    bias_term: false
    pad: 1
    kernel_size: 3
    stride: 2
    weight_filler {
      type: "msra"
    }
    bias_filler {
      type: "constant"
      value: 0
    }
  }
}
layer {
  name: "layer_256_1_bn2"
  type: "BatchNorm"
  bottom: "layer_256_1_conv1"
  top: "layer_256_1_conv1"
  param {
    lr_mult: 0
    decay_mult: 0
  }
  param {
    lr_mult: 0
    decay_mult: 0
  }
  param {
    lr_mult: 0
    decay_mult: 0
  }
}
layer {
  name: "layer_256_1_scale2"
  type: "Scale"
  bottom: "layer_256_1_conv1"
  top: "layer_256_1_conv1"
  param {
    lr_mult: 1
    decay_mult: 1
  }
  param {
    lr_mult: 2
    decay_mult: 1
  }
  scale_param {
    bias_term: true
  }
}
layer {
  name: "layer_256_1_relu2"
  type: "ReLU"
  bottom: "layer_256_1_conv1"
  top: "layer_256_1_conv1"
}
layer {
  name: "layer_256_1_conv2"
  type: "Convolution"
  bottom: "layer_256_1_conv1"
  top: "layer_256_1_conv2"
  param {
    lr_mult: 1
    decay_mult: 1
  }
  convolution_param {
    num_output: 256
    bias_term: false
    pad: 1
    kernel_size: 3
    stride: 1
    weight_filler {
      type: "msra"
    }
    bias_filler {
      type: "constant"
      value: 0
    }
  }
}
layer {
  name: "layer_256_1_conv_expand"
  type: "Convolution"
  bottom: "layer_256_1_bn1"
  top: "layer_256_1_conv_expand"
  param {
    lr_mult: 1
    decay_mult: 1
  }
  convolution_param {
    num_output: 256
    bias_term: false
    pad: 0
    kernel_size: 1
    stride: 2
    weight_filler {
      type: "msra"
    }
    bias_filler {
      type: "constant"
      value: 0
    }
  }
}
layer {
  name: "layer_256_1_sum"
  type: "Eltwise"
  bottom: "layer_256_1_conv_expand"
  bottom: "layer_256_1_conv2"
  top: "layer_256_1_sum"
}
layer {
  name: "layer_256_2_bn1"
  type: "BatchNorm"
  bottom: "layer_256_1_sum"
  top: "layer_256_2_bn1"
  param {
    lr_mult: 0
    decay_mult: 0
  }
  param {
    lr_mult: 0
    decay_mult: 0
  }
  param {
    lr_mult: 0
    decay_mult: 0
  }
}
layer {
  name: "layer_256_2_scale1"
  type: "Scale"
  bottom: "layer_256_2_bn1"
  top: "layer_256_2_bn1"
  param {
    lr_mult: 1
    decay_mult: 1
  }
  param {
    lr_mult: 2
    decay_mult: 1
  }
  scale_param {
    bias_term: true
  }
}
layer {
  name: "layer_256_2_relu1"
  type: "ReLU"
  bottom: "layer_256_2_bn1"
  top: "layer_256_2_bn1"
}
layer {
  name: "layer_256_2_conv1"
  type: "Convolution"
  bottom: "layer_256_2_bn1"
  top: "layer_256_2_conv1"
  param {
    lr_mult: 1
    decay_mult: 1
  }
  convolution_param {
    num_output: 256
    bias_term: false
    pad: 1
    kernel_size: 3
    stride: 1
    weight_filler {
      type: "msra"
    }
    bias_filler {
      type: "constant"
      value: 0
    }
  }
}
layer {
  name: "layer_256_2_bn2"
  type: "BatchNorm"
  bottom: "layer_256_2_conv1"
  top: "layer_256_2_conv1"
  param {
    lr_mult: 0
    decay_mult: 0
  }
  param {
    lr_mult: 0
    decay_mult: 0
  }
  param {
    lr_mult: 0
    decay_mult: 0
  }
}
layer {
  name: "layer_256_2_scale2"
  type: "Scale"
  bottom: "layer_256_2_conv1"
  top: "layer_256_2_conv1"
  param {
    lr_mult: 1
    decay_mult: 1
  }
  param {
    lr_mult: 2
    decay_mult: 1
  }
  scale_param {
    bias_term: true
  }
}
layer {
  name: "layer_256_2_relu2"
  type: "ReLU"
  bottom: "layer_256_2_conv1"
  top: "layer_256_2_conv1"
}
layer {
  name: "layer_256_2_conv2"
  type: "Convolution"
  bottom: "layer_256_2_conv1"
  top: "layer_256_2_conv2"
  param {
    lr_mult: 1
    decay_mult: 1
  }
  convolution_param {
    num_output: 256
    bias_term: false
    pad: 1
    kernel_size: 3
    stride: 1
    weight_filler {
      type: "msra"
    }
    bias_filler {
      type: "constant"
      value: 0
    }
  }
}
layer {
  name: "layer_256_2_sum"
  type: "Eltwise"
  bottom: "layer_256_2_conv2"
  bottom: "layer_256_1_sum"
  top: "layer_256_2_sum"
}
layer {
  name: "layer_256_3_bn1"
  type: "BatchNorm"
  bottom: "layer_256_2_sum"
  top: "layer_256_3_bn1"
  param {
    lr_mult: 0
    decay_mult: 0
  }
  param {
    lr_mult: 0
    decay_mult: 0
  }
  param {
    lr_mult: 0
    decay_mult: 0
  }
}
layer {
  name: "layer_256_3_scale1"
  type: "Scale"
  bottom: "layer_256_3_bn1"
  top: "layer_256_3_bn1"
  param {
    lr_mult: 1
    decay_mult: 1
  }
  param {
    lr_mult: 2
    decay_mult: 1
  }
  scale_param {
    bias_term: true
  }
}
layer {
  name: "layer_256_3_relu1"
  type: "ReLU"
  bottom: "layer_256_3_bn1"
  top: "layer_256_3_bn1"
}
layer {
  name: "layer_256_3_conv1"
  type: "Convolution"
  bottom: "layer_256_3_bn1"
  top: "layer_256_3_conv1"
  param {
    lr_mult: 1
    decay_mult: 1
  }
  convolution_param {
    num_output: 256
    bias_term: false
    pad: 1
    kernel_size: 3
    stride: 1
    weight_filler {
      type: "msra"
    }
    bias_filler {
      type: "constant"
      value: 0
    }
  }
}
layer {
  name: "layer_256_3_bn2"
  type: "BatchNorm"
  bottom: "layer_256_3_conv1"
  top: "layer_256_3_conv1"
  param {
    lr_mult: 0
    decay_mult: 0
  }
  param {
    lr_mult: 0
    decay_mult: 0
  }
  param {
    lr_mult: 0
    decay_mult: 0
  }
}
layer {
  name: "layer_256_3_scale2"
  type: "Scale"
  bottom: "layer_256_3_conv1"
  top: "layer_256_3_conv1"
  param {
    lr_mult: 1
    decay_mult: 1
  }
  param {
    lr_mult: 2
    decay_mult: 1
  }
  scale_param {
    bias_term: true
  }
}
layer {
  name: "layer_256_3_relu2"
  type: "ReLU"
  bottom: "layer_256_3_conv1"
  top: "layer_256_3_conv1"
}
layer {
  name: "layer_256_3_conv2"
  type: "Convolution"
  bottom: "layer_256_3_conv1"
  top: "layer_256_3_conv2"
  param {
    lr_mult: 1
    decay_mult: 1
  }
  convolution_param {
    num_output: 256
    bias_term: false
    pad: 1
    kernel_size: 3
    stride: 1
    weight_filler {
      type: "msra"
    }
    bias_filler {
      type: "constant"
      value: 0
    }
  }
}
layer {
  name: "layer_256_3_sum"
  type: "Eltwise"
  bottom: "layer_256_3_conv2"
  bottom: "layer_256_2_sum"
  top: "layer_256_3_sum"
}
layer {
  name: "layer_256_4_bn1"
  type: "BatchNorm"
  bottom: "layer_256_3_sum"
  top: "layer_256_4_bn1"
  param {
    lr_mult: 0
    decay_mult: 0
  }
  param {
    lr_mult: 0
    decay_mult: 0
  }
  param {
    lr_mult: 0
    decay_mult: 0
  }
}
layer {
  name: "layer_256_4_scale1"
  type: "Scale"
  bottom: "layer_256_4_bn1"
  top: "layer_256_4_bn1"
  param {
    lr_mult: 1
    decay_mult: 1
  }
  param {
    lr_mult: 2
    decay_mult: 1
  }
  scale_param {
    bias_term: true
  }
}
layer {
  name: "layer_256_4_relu1"
  type: "ReLU"
  bottom: "layer_256_4_bn1"
  top: "layer_256_4_bn1"
}
layer {
  name: "layer_256_4_conv1"
  type: "Convolution"
  bottom: "layer_256_4_bn1"
  top: "layer_256_4_conv1"
  param {
    lr_mult: 1
    decay_mult: 1
  }
  convolution_param {
    num_output: 256
    bias_term: false
    pad: 1
    kernel_size: 3
    stride: 1
    weight_filler {
      type: "msra"
    }
    bias_filler {
      type: "constant"
      value: 0
    }
  }
}
layer {
  name: "layer_256_4_bn2"
  type: "BatchNorm"
  bottom: "layer_256_4_conv1"
  top: "layer_256_4_conv1"
  param {
    lr_mult: 0
    decay_mult: 0
  }
  param {
    lr_mult: 0
    decay_mult: 0
  }
  param {
    lr_mult: 0
    decay_mult: 0
  }
}
layer {
  name: "layer_256_4_scale2"
  type: "Scale"
  bottom: "layer_256_4_conv1"
  top: "layer_256_4_conv1"
  param {
    lr_mult: 1
    decay_mult: 1
  }
  param {
    lr_mult: 2
    decay_mult: 1
  }
  scale_param {
    bias_term: true
  }
}
layer {
  name: "layer_256_4_relu2"
  type: "ReLU"
  bottom: "layer_256_4_conv1"
  top: "layer_256_4_conv1"
}
layer {
  name: "layer_256_4_conv2"
  type: "Convolution"
  bottom: "layer_256_4_conv1"
  top: "layer_256_4_conv2"
  param {
    lr_mult: 1
    decay_mult: 1
  }
  convolution_param {
    num_output: 256
    bias_term: false
    pad: 1
    kernel_size: 3
    stride: 1
    weight_filler {
      type: "msra"
    }
    bias_filler {
      type: "constant"
      value: 0
    }
  }
}
layer {
  name: "layer_256_4_sum"
  type: "Eltwise"
  bottom: "layer_256_4_conv2"
  bottom: "layer_256_3_sum"
  top: "layer_256_4_sum"
}
layer {
  name: "layer_256_5_bn1"
  type: "BatchNorm"
  bottom: "layer_256_4_sum"
  top: "layer_256_5_bn1"
  param {
    lr_mult: 0
    decay_mult: 0
  }
  param {
    lr_mult: 0
    decay_mult: 0
  }
  param {
    lr_mult: 0
    decay_mult: 0
  }
}
layer {
  name: "layer_256_5_scale1"
  type: "Scale"
  bottom: "layer_256_5_bn1"
  top: "layer_256_5_bn1"
  param {
    lr_mult: 1
    decay_mult: 1
  }
  param {
    lr_mult: 2
    decay_mult: 1
  }
  scale_param {
    bias_term: true
  }
}
layer {
  name: "layer_256_5_relu1"
  type: "ReLU"
  bottom: "layer_256_5_bn1"
  top: "layer_256_5_bn1"
}
layer {
  name: "layer_256_5_conv1"
  type: "Convolution"
  bottom: "layer_256_5_bn1"
  top: "layer_256_5_conv1"
  param {
    lr_mult: 1
    decay_mult: 1
  }
  convolution_param {
    num_output: 256
    bias_term: false
    pad: 1
    kernel_size: 3
    stride: 1
    weight_filler {
      type: "msra"
    }
    bias_filler {
      type: "constant"
      value: 0
    }
  }
}
layer {
  name: "layer_256_5_bn2"
  type: "BatchNorm"
  bottom: "layer_256_5_conv1"
  top: "layer_256_5_conv1"
  param {
    lr_mult: 0
    decay_mult: 0
  }
  param {
    lr_mult: 0
    decay_mult: 0
  }
  param {
    lr_mult: 0
    decay_mult: 0
  }
}
layer {
  name: "layer_256_5_scale2"
  type: "Scale"
  bottom: "layer_256_5_conv1"
  top: "layer_256_5_conv1"
  param {
    lr_mult: 1
    decay_mult: 1
  }
  param {
    lr_mult: 2
    decay_mult: 1
  }
  scale_param {
    bias_term: true
  }
}
layer {
  name: "layer_256_5_relu2"
  type: "ReLU"
  bottom: "layer_256_5_conv1"
  top: "layer_256_5_conv1"
}
layer {
  name: "layer_256_5_conv2"
  type: "Convolution"
  bottom: "layer_256_5_conv1"
  top: "layer_256_5_conv2"
  param {
    lr_mult: 1
    decay_mult: 1
  }
  convolution_param {
    num_output: 256
    bias_term: false
    pad: 1
    kernel_size: 3
    stride: 1
    weight_filler {
      type: "msra"
    }
    bias_filler {
      type: "constant"
      value: 0
    }
  }
}
layer {
  name: "layer_256_5_sum"
  type: "Eltwise"
  bottom: "layer_256_5_conv2"
  bottom: "layer_256_4_sum"
  top: "layer_256_5_sum"
}
layer {
  name: "layer_256_6_bn1"
  type: "BatchNorm"
  bottom: "layer_256_5_sum"
  top: "layer_256_6_bn1"
  param {
    lr_mult: 0
    decay_mult: 0
  }
  param {
    lr_mult: 0
    decay_mult: 0
  }
  param {
    lr_mult: 0
    decay_mult: 0
  }
}
layer {
  name: "layer_256_6_scale1"
  type: "Scale"
  bottom: "layer_256_6_bn1"
  top: "layer_256_6_bn1"
  param {
    lr_mult: 1
    decay_mult: 1
  }
  param {
    lr_mult: 2
    decay_mult: 1
  }
  scale_param {
    bias_term: true
  }
}
layer {
  name: "layer_256_6_relu1"
  type: "ReLU"
  bottom: "layer_256_6_bn1"
  top: "layer_256_6_bn1"
}
layer {
  name: "layer_256_6_conv1"
  type: "Convolution"
  bottom: "layer_256_6_bn1"
  top: "layer_256_6_conv1"
  param {
    lr_mult: 1
    decay_mult: 1
  }
  convolution_param {
    num_output: 256
    bias_term: false
    pad: 1
    kernel_size: 3
    stride: 1
    weight_filler {
      type: "msra"
    }
    bias_filler {
      type: "constant"
      value: 0
    }
  }
}
layer {
  name: "layer_256_6_bn2"
  type: "BatchNorm"
  bottom: "layer_256_6_conv1"
  top: "layer_256_6_conv1"
  param {
    lr_mult: 0
    decay_mult: 0
  }
  param {
    lr_mult: 0
    decay_mult: 0
  }
  param {
    lr_mult: 0
    decay_mult: 0
  }
}
layer {
  name: "layer_256_6_scale2"
  type: "Scale"
  bottom: "layer_256_6_conv1"
  top: "layer_256_6_conv1"
  param {
    lr_mult: 1
    decay_mult: 1
  }
  param {
    lr_mult: 2
    decay_mult: 1
  }
  scale_param {
    bias_term: true
  }
}
layer {
  name: "layer_256_6_relu2"
  type: "ReLU"
  bottom: "layer_256_6_conv1"
  top: "layer_256_6_conv1"
}
layer {
  name: "layer_256_6_conv2"
  type: "Convolution"
  bottom: "layer_256_6_conv1"
  top: "layer_256_6_conv2"
  param {
    lr_mult: 1
    decay_mult: 1
  }
  convolution_param {
    num_output: 256
    bias_term: false
    pad: 1
    kernel_size: 3
    stride: 1
    weight_filler {
      type: "msra"
    }
    bias_filler {
      type: "constant"
      value: 0
    }
  }
}
layer {
  name: "layer_256_6_sum"
  type: "Eltwise"
  bottom: "layer_256_6_conv2"
  bottom: "layer_256_5_sum"
  top: "layer_256_6_sum"
}
layer {
  name: "layer_512_1_bn1"
  type: "BatchNorm"
  bottom: "layer_256_6_sum"
  top: "layer_512_1_bn1"
  param {
    lr_mult: 0
    decay_mult: 0
  }
  param {
    lr_mult: 0
    decay_mult: 0
  }
  param {
    lr_mult: 0
    decay_mult: 0
  }
}
layer {
  name: "layer_512_1_scale1"
  type: "Scale"
  bottom: "layer_512_1_bn1"
  top: "layer_512_1_bn1"
  param {
    lr_mult: 1
    decay_mult: 1
  }
  param {
    lr_mult: 2
    decay_mult: 1
  }
  scale_param {
    bias_term: true
  }
}
layer {
I0529 17:44:38.800770  5562 layer_factory.hpp:77] Creating layer data
I0529 17:44:38.801398  5562 db_lmdb.cpp:35] Opened lmdb /storage/Adience/Test_fold_is_0/gender_train_lmdb
I0529 17:44:38.801447  5562 net.cpp:84] Creating Layer data
I0529 17:44:38.801460  5562 net.cpp:380] data -> data
I0529 17:44:38.801487  5562 net.cpp:380] data -> label
I0529 17:44:38.801506  5562 data_transformer.cpp:25] Loading mean file from: /storage/Adience/Test_fold_is_0/mean.binaryproto
I0529 17:44:38.805687  5562 data_layer.cpp:45] output data size: 50,3,224,224
I0529 17:44:38.874987  5562 net.cpp:122] Setting up data
I0529 17:44:38.875068  5562 net.cpp:129] Top shape: 50 3 224 224 (7526400)
I0529 17:44:38.875077  5562 net.cpp:129] Top shape: 50 (50)
I0529 17:44:38.875079  5562 net.cpp:137] Memory required for data: 30105800
I0529 17:44:38.875089  5562 layer_factory.hpp:77] Creating layer data_bn
I0529 17:44:38.875107  5562 net.cpp:84] Creating Layer data_bn
I0529 17:44:38.875113  5562 net.cpp:406] data_bn <- data
I0529 17:44:38.875128  5562 net.cpp:380] data_bn -> data_bn
I0529 17:44:38.876163  5562 net.cpp:122] Setting up data_bn
I0529 17:44:38.876190  5562 net.cpp:129] Top shape: 50 3 224 224 (7526400)
I0529 17:44:38.876194  5562 net.cpp:137] Memory required for data: 60211400
I0529 17:44:38.876215  5562 layer_factory.hpp:77] Creating layer data_scale
I0529 17:44:38.876229  5562 net.cpp:84] Creating Layer data_scale
I0529 17:44:38.876232  5562 net.cpp:406] data_scale <- data_bn
I0529 17:44:38.876238  5562 net.cpp:367] data_scale -> data_bn (in-place)
I0529 17:44:38.876284  5562 layer_factory.hpp:77] Creating layer data_scale
I0529 17:44:38.876451  5562 net.cpp:122] Setting up data_scale
I0529 17:44:38.876498  5562 net.cpp:129] Top shape: 50 3 224 224 (7526400)
I0529 17:44:38.876502  5562 net.cpp:137] Memory required for data: 90317000
I0529 17:44:38.876521  5562 layer_factory.hpp:77] Creating layer conv1
I0529 17:44:38.876549  5562 net.cpp:84] Creating Layer conv1
I0529 17:44:38.876554  5562 net.cpp:406] conv1 <- data_bn
I0529 17:44:38.876560  5562 net.cpp:380] conv1 -> conv1
I0529 17:44:39.051836  5562 net.cpp:122] Setting up conv1
I0529 17:44:39.051884  5562 net.cpp:129] Top shape: 50 64 112 112 (40140800)
I0529 17:44:39.051888  5562 net.cpp:137] Memory required for data: 250880200
I0529 17:44:39.051898  5562 layer_factory.hpp:77] Creating layer conv1_bn
I0529 17:44:39.051911  5562 net.cpp:84] Creating Layer conv1_bn
I0529 17:44:39.051916  5562 net.cpp:406] conv1_bn <- conv1
I0529 17:44:39.051924  5562 net.cpp:367] conv1_bn -> conv1 (in-place)
I0529 17:44:39.052083  5562 net.cpp:122] Setting up conv1_bn
I0529 17:44:39.052089  5562 net.cpp:129] Top shape: 50 64 112 112 (40140800)
I0529 17:44:39.052093  5562 net.cpp:137] Memory required for data: 411443400
I0529 17:44:39.052103  5562 layer_factory.hpp:77] Creating layer conv1_scale
I0529 17:44:39.052111  5562 net.cpp:84] Creating Layer conv1_scale
I0529 17:44:39.052114  5562 net.cpp:406] conv1_scale <- conv1
I0529 17:44:39.052119  5562 net.cpp:367] conv1_scale -> conv1 (in-place)
I0529 17:44:39.052166  5562 layer_factory.hpp:77] Creating layer conv1_scale
I0529 17:44:39.052297  5562 net.cpp:122] Setting up conv1_scale
I0529 17:44:39.052319  5562 net.cpp:129] Top shape: 50 64 112 112 (40140800)
I0529 17:44:39.052333  5562 net.cpp:137] Memory required for data: 572006600
I0529 17:44:39.052340  5562 layer_factory.hpp:77] Creating layer conv1_relu
I0529 17:44:39.052350  5562 net.cpp:84] Creating Layer conv1_relu
I0529 17:44:39.052353  5562 net.cpp:406] conv1_relu <- conv1
I0529 17:44:39.052357  5562 net.cpp:367] conv1_relu -> conv1 (in-place)
I0529 17:44:39.053081  5562 net.cpp:122] Setting up conv1_relu
I0529 17:44:39.053107  5562 net.cpp:129] Top shape: 50 64 112 112 (40140800)
I0529 17:44:39.053110  5562 net.cpp:137] Memory required for data: 732569800
I0529 17:44:39.053114  5562 layer_factory.hpp:77] Creating layer conv1_pool
I0529 17:44:39.053122  5562 net.cpp:84] Creating Layer conv1_pool
I0529 17:44:39.053128  5562 net.cpp:406] conv1_pool <- conv1
I0529 17:44:39.053133  5562 net.cpp:380] conv1_pool -> conv1_pool
I0529 17:44:39.053184  5562 net.cpp:122] Setting up conv1_pool
I0529 17:44:39.053192  5562 net.cpp:129] Top shape: 50 64 56 56 (10035200)
I0529 17:44:39.053195  5562 net.cpp:137] Memory required for data: 772710600
I0529 17:44:39.053198  5562 layer_factory.hpp:77] Creating layer conv1_pool_conv1_pool_0_split
I0529 17:44:39.053207  5562 net.cpp:84] Creating Layer conv1_pool_conv1_pool_0_split
I0529 17:44:39.053210  5562 net.cpp:406] conv1_pool_conv1_pool_0_split <- conv1_pool
I0529 17:44:39.053220  5562 net.cpp:380] conv1_pool_conv1_pool_0_split -> conv1_pool_conv1_pool_0_split_0
I0529 17:44:39.053226  5562 net.cpp:380] conv1_pool_conv1_pool_0_split -> conv1_pool_conv1_pool_0_split_1
I0529 17:44:39.053257  5562 net.cpp:122] Setting up conv1_pool_conv1_pool_0_split
I0529 17:44:39.053277  5562 net.cpp:129] Top shape: 50 64 56 56 (10035200)
I0529 17:44:39.053282  5562 net.cpp:129] Top shape: 50 64 56 56 (10035200)
I0529 17:44:39.053284  5562 net.cpp:137] Memory required for data: 852992200
I0529 17:44:39.053287  5562 layer_factory.hpp:77] Creating layer layer_64_1_conv1
I0529 17:44:39.053298  5562 net.cpp:84] Creating Layer layer_64_1_conv1
I0529 17:44:39.053303  5562 net.cpp:406] layer_64_1_conv1 <- conv1_pool_conv1_pool_0_split_0
I0529 17:44:39.053308  5562 net.cpp:380] layer_64_1_conv1 -> layer_64_1_conv1
I0529 17:44:39.055827  5562 net.cpp:122] Setting up layer_64_1_conv1
I0529 17:44:39.055852  5562 net.cpp:129] Top shape: 50 64 56 56 (10035200)
I0529 17:44:39.055856  5562 net.cpp:137] Memory required for data: 893133000
I0529 17:44:39.055862  5562 layer_factory.hpp:77] Creating layer layer_64_1_bn2
I0529 17:44:39.055871  5562 net.cpp:84] Creating Layer layer_64_1_bn2
I0529 17:44:39.055896  5562 net.cpp:406] layer_64_1_bn2 <- layer_64_1_conv1
I0529 17:44:39.055904  5562 net.cpp:367] layer_64_1_bn2 -> layer_64_1_conv1 (in-place)
I0529 17:44:39.056689  5562 net.cpp:122] Setting up layer_64_1_bn2
I0529 17:44:39.056702  5562 net.cpp:129] Top shape: 50 64 56 56 (10035200)
I0529 17:44:39.056717  5562 net.cpp:137] Memory required for data: 933273800
I0529 17:44:39.056726  5562 layer_factory.hpp:77] Creating layer layer_64_1_scale2
I0529 17:44:39.056733  5562 net.cpp:84] Creating Layer layer_64_1_scale2
I0529 17:44:39.056737  5562 net.cpp:406] layer_64_1_scale2 <- layer_64_1_conv1
I0529 17:44:39.056742  5562 net.cpp:367] layer_64_1_scale2 -> layer_64_1_conv1 (in-place)
I0529 17:44:39.056783  5562 layer_factory.hpp:77] Creating layer layer_64_1_scale2
I0529 17:44:39.056888  5562 net.cpp:122] Setting up layer_64_1_scale2
I0529 17:44:39.056898  5562 net.cpp:129] Top shape: 50 64 56 56 (10035200)
I0529 17:44:39.056901  5562 net.cpp:137] Memory required for data: 973414600
I0529 17:44:39.056910  5562 layer_factory.hpp:77] Creating layer layer_64_1_relu2
I0529 17:44:39.056916  5562 net.cpp:84] Creating Layer layer_64_1_relu2
I0529 17:44:39.056919  5562 net.cpp:406] layer_64_1_relu2 <- layer_64_1_conv1
I0529 17:44:39.056926  5562 net.cpp:367] layer_64_1_relu2 -> layer_64_1_conv1 (in-place)
I0529 17:44:39.057139  5562 net.cpp:122] Setting up layer_64_1_relu2
I0529 17:44:39.057150  5562 net.cpp:129] Top shape: 50 64 56 56 (10035200)
I0529 17:44:39.057164  5562 net.cpp:137] Memory required for data: 1013555400
I0529 17:44:39.057168  5562 layer_factory.hpp:77] Creating layer layer_64_1_conv2
I0529 17:44:39.057178  5562 net.cpp:84] Creating Layer layer_64_1_conv2
I0529 17:44:39.057183  5562 net.cpp:406] layer_64_1_conv2 <- layer_64_1_conv1
I0529 17:44:39.057190  5562 net.cpp:380] layer_64_1_conv2 -> layer_64_1_conv2
I0529 17:44:39.059665  5562 net.cpp:122] Setting up layer_64_1_conv2
I0529 17:44:39.059692  5562 net.cpp:129] Top shape: 50 64 56 56 (10035200)
I0529 17:44:39.059696  5562 net.cpp:137] Memory required for data: 1053696200
I0529 17:44:39.059701  5562 layer_factory.hpp:77] Creating layer layer_64_1_sum
I0529 17:44:39.059713  5562 net.cpp:84] Creating Layer layer_64_1_sum
I0529 17:44:39.059717  5562 net.cpp:406] layer_64_1_sum <- layer_64_1_conv2
I0529 17:44:39.059722  5562 net.cpp:406] layer_64_1_sum <- conv1_pool_conv1_pool_0_split_1
I0529 17:44:39.059727  5562 net.cpp:380] layer_64_1_sum -> layer_64_1_sum
I0529 17:44:39.059757  5562 net.cpp:122] Setting up layer_64_1_sum
I0529 17:44:39.059764  5562 net.cpp:129] Top shape: 50 64 56 56 (10035200)
I0529 17:44:39.059767  5562 net.cpp:137] Memory required for data: 1093837000
I0529 17:44:39.059770  5562 layer_factory.hpp:77] Creating layer layer_64_1_sum_layer_64_1_sum_0_split
I0529 17:44:39.059775  5562 net.cpp:84] Creating Layer layer_64_1_sum_layer_64_1_sum_0_split
I0529 17:44:39.059778  5562 net.cpp:406] layer_64_1_sum_layer_64_1_sum_0_split <- layer_64_1_sum
I0529 17:44:39.059785  5562 net.cpp:380] layer_64_1_sum_layer_64_1_sum_0_split -> layer_64_1_sum_layer_64_1_sum_0_split_0
I0529 17:44:39.059792  5562 net.cpp:380] layer_64_1_sum_layer_64_1_sum_0_split -> layer_64_1_sum_layer_64_1_sum_0_split_1
I0529 17:44:39.059821  5562 net.cpp:122] Setting up layer_64_1_sum_layer_64_1_sum_0_split
I0529 17:44:39.059828  5562 net.cpp:129] Top shape: 50 64 56 56 (10035200)
I0529 17:44:39.059831  5562 net.cpp:129] Top shape: 50 64 56 56 (10035200)
I0529 17:44:39.059834  5562 net.cpp:137] Memory required for data: 1174118600
I0529 17:44:39.059837  5562 layer_factory.hpp:77] Creating layer layer_64_2_bn1
I0529 17:44:39.059845  5562 net.cpp:84] Creating Layer layer_64_2_bn1
I0529 17:44:39.059849  5562 net.cpp:406] layer_64_2_bn1 <- layer_64_1_sum_layer_64_1_sum_0_split_0
I0529 17:44:39.059866  5562 net.cpp:380] layer_64_2_bn1 -> layer_64_2_bn1
I0529 17:44:39.060075  5562 net.cpp:122] Setting up layer_64_2_bn1
I0529 17:44:39.060106  5562 net.cpp:129] Top shape: 50 64 56 56 (10035200)
I0529 17:44:39.060109  5562 net.cpp:137] Memory required for data: 1214259400
I0529 17:44:39.060142  5562 layer_factory.hpp:77] Creating layer layer_64_2_scale1
I0529 17:44:39.060149  5562 net.cpp:84] Creating Layer layer_64_2_scale1
I0529 17:44:39.060153  5562 net.cpp:406] layer_64_2_scale1 <- layer_64_2_bn1
I0529 17:44:39.060158  5562 net.cpp:367] layer_64_2_scale1 -> layer_64_2_bn1 (in-place)
I0529 17:44:39.060210  5562 layer_factory.hpp:77] Creating layer layer_64_2_scale1
I0529 17:44:39.060351  5562 net.cpp:122] Setting up layer_64_2_scale1
I0529 17:44:39.060361  5562 net.cpp:129] Top shape: 50 64 56 56 (10035200)
I0529 17:44:39.060382  5562 net.cpp:137] Memory required for data: 1254400200
I0529 17:44:39.060389  5562 layer_factory.hpp:77] Creating layer layer_64_2_relu1
I0529 17:44:39.060396  5562 net.cpp:84] Creating Layer layer_64_2_relu1
I0529 17:44:39.060400  5562 net.cpp:406] layer_64_2_relu1 <- layer_64_2_bn1
I0529 17:44:39.060407  5562 net.cpp:367] layer_64_2_relu1 -> layer_64_2_bn1 (in-place)
I0529 17:44:39.060637  5562 net.cpp:122] Setting up layer_64_2_relu1
I0529 17:44:39.060658  5562 net.cpp:129] Top shape: 50 64 56 56 (10035200)
I0529 17:44:39.060662  5562 net.cpp:137] Memory required for data: 1294541000
I0529 17:44:39.060664  5562 layer_factory.hpp:77] Creating layer layer_64_2_conv1
I0529 17:44:39.060685  5562 net.cpp:84] Creating Layer layer_64_2_conv1
I0529 17:44:39.060689  5562 net.cpp:406] layer_64_2_conv1 <- layer_64_2_bn1
I0529 17:44:39.060698  5562 net.cpp:380] layer_64_2_conv1 -> layer_64_2_conv1
I0529 17:44:39.063175  5562 net.cpp:122] Setting up layer_64_2_conv1
I0529 17:44:39.063201  5562 net.cpp:129] Top shape: 50 64 56 56 (10035200)
I0529 17:44:39.063205  5562 net.cpp:137] Memory required for data: 1334681800
I0529 17:44:39.063210  5562 layer_factory.hpp:77] Creating layer layer_64_2_bn2
I0529 17:44:39.063217  5562 net.cpp:84] Creating Layer layer_64_2_bn2
I0529 17:44:39.063222  5562 net.cpp:406] layer_64_2_bn2 <- layer_64_2_conv1
I0529 17:44:39.063230  5562 net.cpp:367] layer_64_2_bn2 -> layer_64_2_conv1 (in-place)
I0529 17:44:39.063426  5562 net.cpp:122] Setting up layer_64_2_bn2
I0529 17:44:39.063436  5562 net.cpp:129] Top shape: 50 64 56 56 (10035200)
I0529 17:44:39.063450  5562 net.cpp:137] Memory required for data: 1374822600
I0529 17:44:39.063457  5562 layer_factory.hpp:77] Creating layer layer_64_2_scale2
I0529 17:44:39.063475  5562 net.cpp:84] Creating Layer layer_64_2_scale2
I0529 17:44:39.063479  5562 net.cpp:406] layer_64_2_scale2 <- layer_64_2_conv1
I0529 17:44:39.063488  5562 net.cpp:367] layer_64_2_scale2 -> layer_64_2_conv1 (in-place)
I0529 17:44:39.063534  5562 layer_factory.hpp:77] Creating layer layer_64_2_scale2
I0529 17:44:39.063657  5562 net.cpp:122] Setting up layer_64_2_scale2
I0529 17:44:39.063668  5562 net.cpp:129] Top shape: 50 64 56 56 (10035200)
I0529 17:44:39.063670  5562 net.cpp:137] Memory required for data: 1414963400
I0529 17:44:39.063675  5562 layer_factory.hpp:77] Creating layer layer_64_2_relu2
I0529 17:44:39.063681  5562 net.cpp:84] Creating Layer layer_64_2_relu2
I0529 17:44:39.063684  5562 net.cpp:406] layer_64_2_relu2 <- layer_64_2_conv1
I0529 17:44:39.063691  5562 net.cpp:367] layer_64_2_relu2 -> layer_64_2_conv1 (in-place)
I0529 17:44:39.064401  5562 net.cpp:122] Setting up layer_64_2_relu2
I0529 17:44:39.064419  5562 net.cpp:129] Top shape: 50 64 56 56 (10035200)
I0529 17:44:39.064435  5562 net.cpp:137] Memory required for data: 1455104200
I0529 17:44:39.064437  5562 layer_factory.hpp:77] Creating layer layer_64_2_conv2
I0529 17:44:39.064450  5562 net.cpp:84] Creating Layer layer_64_2_conv2
I0529 17:44:39.064453  5562 net.cpp:406] layer_64_2_conv2 <- layer_64_2_conv1
I0529 17:44:39.064461  5562 net.cpp:380] layer_64_2_conv2 -> layer_64_2_conv2
I0529 17:44:39.067404  5562 net.cpp:122] Setting up layer_64_2_conv2
I0529 17:44:39.067420  5562 net.cpp:129] Top shape: 50 64 56 56 (10035200)
I0529 17:44:39.067435  5562 net.cpp:137] Memory required for data: 1495245000
I0529 17:44:39.067440  5562 layer_factory.hpp:77] Creating layer layer_64_2_sum
I0529 17:44:39.067447  5562 net.cpp:84] Creating Layer layer_64_2_sum
I0529 17:44:39.067463  5562 net.cpp:406] layer_64_2_sum <- layer_64_2_conv2
I0529 17:44:39.067468  5562 net.cpp:406] layer_64_2_sum <- layer_64_1_sum_layer_64_1_sum_0_split_1
I0529 17:44:39.067474  5562 net.cpp:380] layer_64_2_sum -> layer_64_2_sum
I0529 17:44:39.067498  5562 net.cpp:122] Setting up layer_64_2_sum
I0529 17:44:39.067507  5562 net.cpp:129] Top shape: 50 64 56 56 (10035200)
I0529 17:44:39.067509  5562 net.cpp:137] Memory required for data: 1535385800
I0529 17:44:39.067513  5562 layer_factory.hpp:77] Creating layer layer_64_2_sum_layer_64_2_sum_0_split
I0529 17:44:39.067518  5562 net.cpp:84] Creating Layer layer_64_2_sum_layer_64_2_sum_0_split
I0529 17:44:39.067522  5562 net.cpp:406] layer_64_2_sum_layer_64_2_sum_0_split <- layer_64_2_sum
I0529 17:44:39.067526  5562 net.cpp:380] layer_64_2_sum_layer_64_2_sum_0_split -> layer_64_2_sum_layer_64_2_sum_0_split_0
I0529 17:44:39.067535  5562 net.cpp:380] layer_64_2_sum_layer_64_2_sum_0_split -> layer_64_2_sum_layer_64_2_sum_0_split_1
I0529 17:44:39.067566  5562 net.cpp:122] Setting up layer_64_2_sum_layer_64_2_sum_0_split
I0529 17:44:39.067574  5562 net.cpp:129] Top shape: 50 64 56 56 (10035200)
I0529 17:44:39.067579  5562 net.cpp:129] Top shape: 50 64 56 56 (10035200)
I0529 17:44:39.067581  5562 net.cpp:137] Memory required for data: 1615667400
I0529 17:44:39.067584  5562 layer_factory.hpp:77] Creating layer layer_64_3_bn1
I0529 17:44:39.067601  5562 net.cpp:84] Creating Layer layer_64_3_bn1
I0529 17:44:39.067605  5562 net.cpp:406] layer_64_3_bn1 <- layer_64_2_sum_layer_64_2_sum_0_split_0
I0529 17:44:39.067612  5562 net.cpp:380] layer_64_3_bn1 -> layer_64_3_bn1
I0529 17:44:39.067821  5562 net.cpp:122] Setting up layer_64_3_bn1
I0529 17:44:39.067840  5562 net.cpp:129] Top shape: 50 64 56 56 (10035200)
I0529 17:44:39.067843  5562 net.cpp:137] Memory required for data: 1655808200
I0529 17:44:39.067867  5562 layer_factory.hpp:77] Creating layer layer_64_3_scale1
I0529 17:44:39.067874  5562 net.cpp:84] Creating Layer layer_64_3_scale1
I0529 17:44:39.067878  5562 net.cpp:406] layer_64_3_scale1 <- layer_64_3_bn1
I0529 17:44:39.067883  5562 net.cpp:367] layer_64_3_scale1 -> layer_64_3_bn1 (in-place)
I0529 17:44:39.067937  5562 layer_factory.hpp:77] Creating layer layer_64_3_scale1
I0529 17:44:39.068096  5562 net.cpp:122] Setting up layer_64_3_scale1
I0529 17:44:39.068105  5562 net.cpp:129] Top shape: 50 64 56 56 (10035200)
I0529 17:44:39.068120  5562 net.cpp:137] Memory required for data: 1695949000
I0529 17:44:39.068125  5562 layer_factory.hpp:77] Creating layer layer_64_3_relu1
I0529 17:44:39.068141  5562 net.cpp:84] Creating Layer layer_64_3_relu1
I0529 17:44:39.068145  5562 net.cpp:406] layer_64_3_relu1 <- layer_64_3_bn1
I0529 17:44:39.068161  5562 net.cpp:367] layer_64_3_relu1 -> layer_64_3_bn1 (in-place)
I0529 17:44:39.068382  5562 net.cpp:122] Setting up layer_64_3_relu1
I0529 17:44:39.068392  5562 net.cpp:129] Top shape: 50 64 56 56 (10035200)
I0529 17:44:39.068408  5562 net.cpp:137] Memory required for data: 1736089800
I0529 17:44:39.068411  5562 layer_factory.hpp:77] Creating layer layer_64_3_conv1
I0529 17:44:39.068421  5562 net.cpp:84] Creating Layer layer_64_3_conv1
I0529 17:44:39.068426  5562 net.cpp:406] layer_64_3_conv1 <- layer_64_3_bn1
I0529 17:44:39.068434  5562 net.cpp:380] layer_64_3_conv1 -> layer_64_3_conv1
I0529 17:44:39.070998  5562 net.cpp:122] Setting up layer_64_3_conv1
I0529 17:44:39.071013  5562 net.cpp:129] Top shape: 50 64 56 56 (10035200)
I0529 17:44:39.071028  5562 net.cpp:137] Memory required for data: 1776230600
I0529 17:44:39.071034  5562 layer_factory.hpp:77] Creating layer layer_64_3_bn2
I0529 17:44:39.071043  5562 net.cpp:84] Creating Layer layer_64_3_bn2
I0529 17:44:39.071048  5562 net.cpp:406] layer_64_3_bn2 <- layer_64_3_conv1
I0529 17:44:39.071055  5562 net.cpp:367] layer_64_3_bn2 -> layer_64_3_conv1 (in-place)
I0529 17:44:39.071241  5562 net.cpp:122] Setting up layer_64_3_bn2
I0529 17:44:39.071250  5562 net.cpp:129] Top shape: 50 64 56 56 (10035200)
I0529 17:44:39.071265  5562 net.cpp:137] Memory required for data: 1816371400
I0529 17:44:39.071285  5562 layer_factory.hpp:77] Creating layer layer_64_3_scale2
I0529 17:44:39.071293  5562 net.cpp:84] Creating Layer layer_64_3_scale2
I0529 17:44:39.071297  5562 net.cpp:406] layer_64_3_scale2 <- layer_64_3_conv1
I0529 17:44:39.071303  5562 net.cpp:367] layer_64_3_scale2 -> layer_64_3_conv1 (in-place)
I0529 17:44:39.071343  5562 layer_factory.hpp:77] Creating layer layer_64_3_scale2
I0529 17:44:39.071462  5562 net.cpp:122] Setting up layer_64_3_scale2
I0529 17:44:39.071485  5562 net.cpp:129] Top shape: 50 64 56 56 (10035200)
I0529 17:44:39.071488  5562 net.cpp:137] Memory required for data: 1856512200
I0529 17:44:39.071493  5562 layer_factory.hpp:77] Creating layer layer_64_3_relu2
I0529 17:44:39.071514  5562 net.cpp:84] Creating Layer layer_64_3_relu2
I0529 17:44:39.071518  5562 net.cpp:406] layer_64_3_relu2 <- layer_64_3_conv1
I0529 17:44:39.071523  5562 net.cpp:367] layer_64_3_relu2 -> layer_64_3_conv1 (in-place)
I0529 17:44:39.071733  5562 net.cpp:122] Setting up layer_64_3_relu2
I0529 17:44:39.071744  5562 net.cpp:129] Top shape: 50 64 56 56 (10035200)
I0529 17:44:39.071759  5562 net.cpp:137] Memory required for data: 1896653000
I0529 17:44:39.071763  5562 layer_factory.hpp:77] Creating layer layer_64_3_conv2
I0529 17:44:39.071784  5562 net.cpp:84] Creating Layer layer_64_3_conv2
I0529 17:44:39.071799  5562 net.cpp:406] layer_64_3_conv2 <- layer_64_3_conv1
I0529 17:44:39.071805  5562 net.cpp:380] layer_64_3_conv2 -> layer_64_3_conv2
I0529 17:44:39.074390  5562 net.cpp:122] Setting up layer_64_3_conv2
I0529 17:44:39.074417  5562 net.cpp:129] Top shape: 50 64 56 56 (10035200)
I0529 17:44:39.074421  5562 net.cpp:137] Memory required for data: 1936793800
I0529 17:44:39.074427  5562 layer_factory.hpp:77] Creating layer layer_64_3_sum
I0529 17:44:39.074436  5562 net.cpp:84] Creating Layer layer_64_3_sum
I0529 17:44:39.074440  5562 net.cpp:406] layer_64_3_sum <- layer_64_3_conv2
I0529 17:44:39.074445  5562 net.cpp:406] layer_64_3_sum <- layer_64_2_sum_layer_64_2_sum_0_split_1
I0529 17:44:39.074450  5562 net.cpp:380] layer_64_3_sum -> layer_64_3_sum
I0529 17:44:39.074477  5562 net.cpp:122] Setting up layer_64_3_sum
I0529 17:44:39.074484  5562 net.cpp:129] Top shape: 50 64 56 56 (10035200)
I0529 17:44:39.074487  5562 net.cpp:137] Memory required for data: 1976934600
I0529 17:44:39.074491  5562 layer_factory.hpp:77] Creating layer layer_128_1_bn1
I0529 17:44:39.074496  5562 net.cpp:84] Creating Layer layer_128_1_bn1
I0529 17:44:39.074501  5562 net.cpp:406] layer_128_1_bn1 <- layer_64_3_sum
I0529 17:44:39.074506  5562 net.cpp:380] layer_128_1_bn1 -> layer_128_1_bn1
I0529 17:44:39.074723  5562 net.cpp:122] Setting up layer_128_1_bn1
I0529 17:44:39.074733  5562 net.cpp:129] Top shape: 50 64 56 56 (10035200)
I0529 17:44:39.074748  5562 net.cpp:137] Memory required for data: 2017075400
I0529 17:44:39.074753  5562 layer_factory.hpp:77] Creating layer layer_128_1_scale1
I0529 17:44:39.074771  5562 net.cpp:84] Creating Layer layer_128_1_scale1
I0529 17:44:39.074774  5562 net.cpp:406] layer_128_1_scale1 <- layer_128_1_bn1
I0529 17:44:39.074784  5562 net.cpp:367] layer_128_1_scale1 -> layer_128_1_bn1 (in-place)
I0529 17:44:39.074836  5562 layer_factory.hpp:77] Creating layer layer_128_1_scale1
I0529 17:44:39.074942  5562 net.cpp:122] Setting up layer_128_1_scale1
I0529 17:44:39.074951  5562 net.cpp:129] Top shape: 50 64 56 56 (10035200)
I0529 17:44:39.074954  5562 net.cpp:137] Memory required for data: 2057216200
I0529 17:44:39.074960  5562 layer_factory.hpp:77] Creating layer layer_128_1_relu1
I0529 17:44:39.074965  5562 net.cpp:84] Creating Layer layer_128_1_relu1
I0529 17:44:39.074970  5562 net.cpp:406] layer_128_1_relu1 <- layer_128_1_bn1
I0529 17:44:39.074975  5562 net.cpp:367] layer_128_1_relu1 -> layer_128_1_bn1 (in-place)
I0529 17:44:39.075690  5562 net.cpp:122] Setting up layer_128_1_relu1
I0529 17:44:39.075702  5562 net.cpp:129] Top shape: 50 64 56 56 (10035200)
I0529 17:44:39.075717  5562 net.cpp:137] Memory required for data: 2097357000
I0529 17:44:39.075721  5562 layer_factory.hpp:77] Creating layer layer_128_1_bn1_layer_128_1_relu1_0_split
I0529 17:44:39.075739  5562 net.cpp:84] Creating Layer layer_128_1_bn1_layer_128_1_relu1_0_split
I0529 17:44:39.075744  5562 net.cpp:406] layer_128_1_bn1_layer_128_1_relu1_0_split <- layer_128_1_bn1
I0529 17:44:39.075752  5562 net.cpp:380] layer_128_1_bn1_layer_128_1_relu1_0_split -> layer_128_1_bn1_layer_128_1_relu1_0_split_0
I0529 17:44:39.075759  5562 net.cpp:380] layer_128_1_bn1_layer_128_1_relu1_0_split -> layer_128_1_bn1_layer_128_1_relu1_0_split_1
I0529 17:44:39.075801  5562 net.cpp:122] Setting up layer_128_1_bn1_layer_128_1_relu1_0_split
I0529 17:44:39.075809  5562 net.cpp:129] Top shape: 50 64 56 56 (10035200)
I0529 17:44:39.075814  5562 net.cpp:129] Top shape: 50 64 56 56 (10035200)
I0529 17:44:39.075817  5562 net.cpp:137] Memory required for data: 2177638600
I0529 17:44:39.075820  5562 layer_factory.hpp:77] Creating layer layer_128_1_conv1
I0529 17:44:39.075829  5562 net.cpp:84] Creating Layer layer_128_1_conv1
I0529 17:44:39.075834  5562 net.cpp:406] layer_128_1_conv1 <- layer_128_1_bn1_layer_128_1_relu1_0_split_0
I0529 17:44:39.075839  5562 net.cpp:380] layer_128_1_conv1 -> layer_128_1_conv1
I0529 17:44:39.083155  5562 net.cpp:122] Setting up layer_128_1_conv1
I0529 17:44:39.083184  5562 net.cpp:129] Top shape: 50 128 28 28 (5017600)
I0529 17:44:39.083189  5562 net.cpp:137] Memory required for data: 2197709000
I0529 17:44:39.083194  5562 layer_factory.hpp:77] Creating layer layer_128_1_bn2
I0529 17:44:39.083204  5562 net.cpp:84] Creating Layer layer_128_1_bn2
I0529 17:44:39.083209  5562 net.cpp:406] layer_128_1_bn2 <- layer_128_1_conv1
I0529 17:44:39.083215  5562 net.cpp:367] layer_128_1_bn2 -> layer_128_1_conv1 (in-place)
I0529 17:44:39.083956  5562 net.cpp:122] Setting up layer_128_1_bn2
I0529 17:44:39.083981  5562 net.cpp:129] Top shape: 50 128 28 28 (5017600)
I0529 17:44:39.083986  5562 net.cpp:137] Memory required for data: 2217779400
I0529 17:44:39.083993  5562 layer_factory.hpp:77] Creating layer layer_128_1_scale2
I0529 17:44:39.084002  5562 net.cpp:84] Creating Layer layer_128_1_scale2
I0529 17:44:39.084007  5562 net.cpp:406] layer_128_1_scale2 <- layer_128_1_conv1
I0529 17:44:39.084012  5562 net.cpp:367] layer_128_1_scale2 -> layer_128_1_conv1 (in-place)
I0529 17:44:39.084056  5562 layer_factory.hpp:77] Creating layer layer_128_1_scale2
I0529 17:44:39.084161  5562 net.cpp:122] Setting up layer_128_1_scale2
I0529 17:44:39.084172  5562 net.cpp:129] Top shape: 50 128 28 28 (5017600)
I0529 17:44:39.084174  5562 net.cpp:137] Memory required for data: 2237849800
I0529 17:44:39.084180  5562 layer_factory.hpp:77] Creating layer layer_128_1_relu2
I0529 17:44:39.084187  5562 net.cpp:84] Creating Layer layer_128_1_relu2
I0529 17:44:39.084189  5562 net.cpp:406] layer_128_1_relu2 <- layer_128_1_conv1
I0529 17:44:39.084197  5562 net.cpp:367] layer_128_1_relu2 -> layer_128_1_conv1 (in-place)
I0529 17:44:39.084431  5562 net.cpp:122] Setting up layer_128_1_relu2
I0529 17:44:39.084442  5562 net.cpp:129] Top shape: 50 128 28 28 (5017600)
I0529 17:44:39.084457  5562 net.cpp:137] Memory required for data: 2257920200
I0529 17:44:39.084460  5562 layer_factory.hpp:77] Creating layer layer_128_1_conv2
I0529 17:44:39.084483  5562 net.cpp:84] Creating Layer layer_128_1_conv2
I0529 17:44:39.084487  5562 net.cpp:406] layer_128_1_conv2 <- layer_128_1_conv1
I0529 17:44:39.084496  5562 net.cpp:380] layer_128_1_conv2 -> layer_128_1_conv2
I0529 17:44:39.089828  5562 net.cpp:122] Setting up layer_128_1_conv2
I0529 17:44:39.089854  5562 net.cpp:129] Top shape: 50 128 28 28 (5017600)
I0529 17:44:39.089859  5562 net.cpp:137] Memory required for data: 2277990600
I0529 17:44:39.089864  5562 layer_factory.hpp:77] Creating layer layer_128_1_conv_expand
I0529 17:44:39.089877  5562 net.cpp:84] Creating Layer layer_128_1_conv_expand
I0529 17:44:39.089882  5562 net.cpp:406] layer_128_1_conv_expand <- layer_128_1_bn1_layer_128_1_relu1_0_split_1
I0529 17:44:39.089890  5562 net.cpp:380] layer_128_1_conv_expand -> layer_128_1_conv_expand
I0529 17:44:39.091621  5562 net.cpp:122] Setting up layer_128_1_conv_expand
I0529 17:44:39.091665  5562 net.cpp:129] Top shape: 50 128 28 28 (5017600)
I0529 17:44:39.091668  5562 net.cpp:137] Memory required for data: 2298061000
I0529 17:44:39.091675  5562 layer_factory.hpp:77] Creating layer layer_128_1_sum
I0529 17:44:39.091681  5562 net.cpp:84] Creating Layer layer_128_1_sum
I0529 17:44:39.091686  5562 net.cpp:406] layer_128_1_sum <- layer_128_1_conv_expand
I0529 17:44:39.091691  5562 net.cpp:406] layer_128_1_sum <- layer_128_1_conv2
I0529 17:44:39.091696  5562 net.cpp:380] layer_128_1_sum -> layer_128_1_sum
I0529 17:44:39.091724  5562 net.cpp:122] Setting up layer_128_1_sum
I0529 17:44:39.091730  5562 net.cpp:129] Top shape: 50 128 28 28 (5017600)
I0529 17:44:39.091733  5562 net.cpp:137] Memory required for data: 2318131400
I0529 17:44:39.091737  5562 layer_factory.hpp:77] Creating layer layer_128_1_sum_layer_128_1_sum_0_split
I0529 17:44:39.091743  5562 net.cpp:84] Creating Layer layer_128_1_sum_layer_128_1_sum_0_split
I0529 17:44:39.091747  5562 net.cpp:406] layer_128_1_sum_layer_128_1_sum_0_split <- layer_128_1_sum
I0529 17:44:39.091753  5562 net.cpp:380] layer_128_1_sum_layer_128_1_sum_0_split -> layer_128_1_sum_layer_128_1_sum_0_split_0
I0529 17:44:39.091758  5562 net.cpp:380] layer_128_1_sum_layer_128_1_sum_0_split -> layer_128_1_sum_layer_128_1_sum_0_split_1
I0529 17:44:39.091791  5562 net.cpp:122] Setting up layer_128_1_sum_layer_128_1_sum_0_split
I0529 17:44:39.091797  5562 net.cpp:129] Top shape: 50 128 28 28 (5017600)
I0529 17:44:39.091801  5562 net.cpp:129] Top shape: 50 128 28 28 (5017600)
I0529 17:44:39.091804  5562 net.cpp:137] Memory required for data: 2358272200
I0529 17:44:39.091807  5562 layer_factory.hpp:77] Creating layer layer_128_2_bn1
I0529 17:44:39.091812  5562 net.cpp:84] Creating Layer layer_128_2_bn1
I0529 17:44:39.091827  5562 net.cpp:406] layer_128_2_bn1 <- layer_128_1_sum_layer_128_1_sum_0_split_0
I0529 17:44:39.091835  5562 net.cpp:380] layer_128_2_bn1 -> layer_128_2_bn1
I0529 17:44:39.092056  5562 net.cpp:122] Setting up layer_128_2_bn1
I0529 17:44:39.092077  5562 net.cpp:129] Top shape: 50 128 28 28 (5017600)
I0529 17:44:39.092079  5562 net.cpp:137] Memory required for data: 2378342600
I0529 17:44:39.092097  5562 layer_factory.hpp:77] Creating layer layer_128_2_scale1
I0529 17:44:39.092116  5562 net.cpp:84] Creating Layer layer_128_2_scale1
I0529 17:44:39.092120  5562 net.cpp:406] layer_128_2_scale1 <- layer_128_2_bn1
I0529 17:44:39.092125  5562 net.cpp:367] layer_128_2_scale1 -> layer_128_2_bn1 (in-place)
I0529 17:44:39.092175  5562 layer_factory.hpp:77] Creating layer layer_128_2_scale1
I0529 17:44:39.092319  5562 net.cpp:122] Setting up layer_128_2_scale1
I0529 17:44:39.092337  5562 net.cpp:129] Top shape: 50 128 28 28 (5017600)
I0529 17:44:39.092340  5562 net.cpp:137] Memory required for data: 2398413000
I0529 17:44:39.092357  5562 layer_factory.hpp:77] Creating layer layer_128_2_relu1
I0529 17:44:39.092362  5562 net.cpp:84] Creating Layer layer_128_2_relu1
I0529 17:44:39.092366  5562 net.cpp:406] layer_128_2_relu1 <- layer_128_2_bn1
I0529 17:44:39.092373  5562 net.cpp:367] layer_128_2_relu1 -> layer_128_2_bn1 (in-place)
I0529 17:44:39.092605  5562 net.cpp:122] Setting up layer_128_2_relu1
I0529 17:44:39.092617  5562 net.cpp:129] Top shape: 50 128 28 28 (5017600)
I0529 17:44:39.092631  5562 net.cpp:137] Memory required for data: 2418483400
I0529 17:44:39.092635  5562 layer_factory.hpp:77] Creating layer layer_128_2_conv1
I0529 17:44:39.092649  5562 net.cpp:84] Creating Layer layer_128_2_conv1
I0529 17:44:39.092653  5562 net.cpp:406] layer_128_2_conv1 <- layer_128_2_bn1
I0529 17:44:39.092660  5562 net.cpp:380] layer_128_2_conv1 -> layer_128_2_conv1
I0529 17:44:39.098798  5562 net.cpp:122] Setting up layer_128_2_conv1
I0529 17:44:39.098825  5562 net.cpp:129] Top shape: 50 128 28 28 (5017600)
I0529 17:44:39.098830  5562 net.cpp:137] Memory required for data: 2438553800
I0529 17:44:39.098836  5562 layer_factory.hpp:77] Creating layer layer_128_2_bn2
I0529 17:44:39.098845  5562 net.cpp:84] Creating Layer layer_128_2_bn2
I0529 17:44:39.098861  5562 net.cpp:406] layer_128_2_bn2 <- layer_128_2_conv1
I0529 17:44:39.098868  5562 net.cpp:367] layer_128_2_bn2 -> layer_128_2_conv1 (in-place)
I0529 17:44:39.099046  5562 net.cpp:122] Setting up layer_128_2_bn2
I0529 17:44:39.099056  5562 net.cpp:129] Top shape: 50 128 28 28 (5017600)
I0529 17:44:39.099061  5562 net.cpp:137] Memory required for data: 2458624200
I0529 17:44:39.099076  5562 layer_factory.hpp:77] Creating layer layer_128_2_scale2
I0529 17:44:39.099083  5562 net.cpp:84] Creating Layer layer_128_2_scale2
I0529 17:44:39.099087  5562 net.cpp:406] layer_128_2_scale2 <- layer_128_2_conv1
I0529 17:44:39.099094  5562 net.cpp:367] layer_128_2_scale2 -> layer_128_2_conv1 (in-place)
I0529 17:44:39.099134  5562 layer_factory.hpp:77] Creating layer layer_128_2_scale2
I0529 17:44:39.099252  5562 net.cpp:122] Setting up layer_128_2_scale2
I0529 17:44:39.099261  5562 net.cpp:129] Top shape: 50 128 28 28 (5017600)
I0529 17:44:39.099275  5562 net.cpp:137] Memory required for data: 2478694600
I0529 17:44:39.099280  5562 layer_factory.hpp:77] Creating layer layer_128_2_relu2
I0529 17:44:39.099287  5562 net.cpp:84] Creating Layer layer_128_2_relu2
I0529 17:44:39.099292  5562 net.cpp:406] layer_128_2_relu2 <- layer_128_2_conv1
I0529 17:44:39.099298  5562 net.cpp:367] layer_128_2_relu2 -> layer_128_2_conv1 (in-place)
I0529 17:44:39.099967  5562 net.cpp:122] Setting up layer_128_2_relu2
I0529 17:44:39.099983  5562 net.cpp:129] Top shape: 50 128 28 28 (5017600)
I0529 17:44:39.099998  5562 net.cpp:137] Memory required for data: 2498765000
I0529 17:44:39.100003  5562 layer_factory.hpp:77] Creating layer layer_128_2_conv2
I0529 17:44:39.100013  5562 net.cpp:84] Creating Layer layer_128_2_conv2
I0529 17:44:39.100018  5562 net.cpp:406] layer_128_2_conv2 <- layer_128_2_conv1
I0529 17:44:39.100026  5562 net.cpp:380] layer_128_2_conv2 -> layer_128_2_conv2
I0529 17:44:39.105437  5562 net.cpp:122] Setting up layer_128_2_conv2
I0529 17:44:39.105463  5562 net.cpp:129] Top shape: 50 128 28 28 (5017600)
I0529 17:44:39.105466  5562 net.cpp:137] Memory required for data: 2518835400
I0529 17:44:39.105473  5562 layer_factory.hpp:77] Creating layer layer_128_2_sum
I0529 17:44:39.105479  5562 net.cpp:84] Creating Layer layer_128_2_sum
I0529 17:44:39.105482  5562 net.cpp:406] layer_128_2_sum <- layer_128_2_conv2
I0529 17:44:39.105486  5562 net.cpp:406] layer_128_2_sum <- layer_128_1_sum_layer_128_1_sum_0_split_1
I0529 17:44:39.105492  5562 net.cpp:380] layer_128_2_sum -> layer_128_2_sum
I0529 17:44:39.105520  5562 net.cpp:122] Setting up layer_128_2_sum
I0529 17:44:39.105526  5562 net.cpp:129] Top shape: 50 128 28 28 (5017600)
I0529 17:44:39.105530  5562 net.cpp:137] Memory required for data: 2538905800
I0529 17:44:39.105532  5562 layer_factory.hpp:77] Creating layer layer_128_2_sum_layer_128_2_sum_0_split
I0529 17:44:39.105538  5562 net.cpp:84] Creating Layer layer_128_2_sum_layer_128_2_sum_0_split
I0529 17:44:39.105541  5562 net.cpp:406] layer_128_2_sum_layer_128_2_sum_0_split <- layer_128_2_sum
I0529 17:44:39.105548  5562 net.cpp:380] layer_128_2_sum_layer_128_2_sum_0_split -> layer_128_2_sum_layer_128_2_sum_0_split_0
I0529 17:44:39.105559  5562 net.cpp:380] layer_128_2_sum_layer_128_2_sum_0_split -> layer_128_2_sum_layer_128_2_sum_0_split_1
I0529 17:44:39.105592  5562 net.cpp:122] Setting up layer_128_2_sum_layer_128_2_sum_0_split
I0529 17:44:39.105599  5562 net.cpp:129] Top shape: 50 128 28 28 (5017600)
I0529 17:44:39.105603  5562 net.cpp:129] Top shape: 50 128 28 28 (5017600)
I0529 17:44:39.105607  5562 net.cpp:137] Memory required for data: 2579046600
I0529 17:44:39.105609  5562 layer_factory.hpp:77] Creating layer layer_128_3_bn1
I0529 17:44:39.105614  5562 net.cpp:84] Creating Layer layer_128_3_bn1
I0529 17:44:39.105618  5562 net.cpp:406] layer_128_3_bn1 <- layer_128_2_sum_layer_128_2_sum_0_split_0
I0529 17:44:39.105625  5562 net.cpp:380] layer_128_3_bn1 -> layer_128_3_bn1
I0529 17:44:39.105850  5562 net.cpp:122] Setting up layer_128_3_bn1
I0529 17:44:39.105870  5562 net.cpp:129] Top shape: 50 128 28 28 (5017600)
I0529 17:44:39.105909  5562 net.cpp:137] Memory required for data: 2599117000
I0529 17:44:39.105917  5562 layer_factory.hpp:77] Creating layer layer_128_3_scale1
I0529 17:44:39.105924  5562 net.cpp:84] Creating Layer layer_128_3_scale1
I0529 17:44:39.105928  5562 net.cpp:406] layer_128_3_scale1 <- layer_128_3_bn1
I0529 17:44:39.105933  5562 net.cpp:367] layer_128_3_scale1 -> layer_128_3_bn1 (in-place)
I0529 17:44:39.105978  5562 layer_factory.hpp:77] Creating layer layer_128_3_scale1
I0529 17:44:39.106119  5562 net.cpp:122] Setting up layer_128_3_scale1
I0529 17:44:39.106138  5562 net.cpp:129] Top shape: 50 128 28 28 (5017600)
I0529 17:44:39.106142  5562 net.cpp:137] Memory required for data: 2619187400
I0529 17:44:39.106158  5562 layer_factory.hpp:77] Creating layer layer_128_3_relu1
I0529 17:44:39.106164  5562 net.cpp:84] Creating Layer layer_128_3_relu1
I0529 17:44:39.106168  5562 net.cpp:406] layer_128_3_relu1 <- layer_128_3_bn1
I0529 17:44:39.106175  5562 net.cpp:367] layer_128_3_relu1 -> layer_128_3_bn1 (in-place)
I0529 17:44:39.106861  5562 net.cpp:122] Setting up layer_128_3_relu1
I0529 17:44:39.106886  5562 net.cpp:129] Top shape: 50 128 28 28 (5017600)
I0529 17:44:39.106890  5562 net.cpp:137] Memory required for data: 2639257800
I0529 17:44:39.106894  5562 layer_factory.hpp:77] Creating layer layer_128_3_conv1
I0529 17:44:39.106905  5562 net.cpp:84] Creating Layer layer_128_3_conv1
I0529 17:44:39.106910  5562 net.cpp:406] layer_128_3_conv1 <- layer_128_3_bn1
I0529 17:44:39.106919  5562 net.cpp:380] layer_128_3_conv1 -> layer_128_3_conv1
I0529 17:44:39.113015  5562 net.cpp:122] Setting up layer_128_3_conv1
I0529 17:44:39.113042  5562 net.cpp:129] Top shape: 50 128 28 28 (5017600)
I0529 17:44:39.113046  5562 net.cpp:137] Memory required for data: 2659328200
I0529 17:44:39.113051  5562 layer_factory.hpp:77] Creating layer layer_128_3_bn2
I0529 17:44:39.113060  5562 net.cpp:84] Creating Layer layer_128_3_bn2
I0529 17:44:39.113065  5562 net.cpp:406] layer_128_3_bn2 <- layer_128_3_conv1
I0529 17:44:39.113072  5562 net.cpp:367] layer_128_3_bn2 -> layer_128_3_conv1 (in-place)
I0529 17:44:39.113250  5562 net.cpp:122] Setting up layer_128_3_bn2
I0529 17:44:39.113260  5562 net.cpp:129] Top shape: 50 128 28 28 (5017600)
I0529 17:44:39.113262  5562 net.cpp:137] Memory required for data: 2679398600
I0529 17:44:39.113270  5562 layer_factory.hpp:77] Creating layer layer_128_3_scale2
I0529 17:44:39.113276  5562 net.cpp:84] Creating Layer layer_128_3_scale2
I0529 17:44:39.113279  5562 net.cpp:406] layer_128_3_scale2 <- layer_128_3_conv1
I0529 17:44:39.113286  5562 net.cpp:367] layer_128_3_scale2 -> layer_128_3_conv1 (in-place)
I0529 17:44:39.113324  5562 layer_factory.hpp:77] Creating layer layer_128_3_scale2
I0529 17:44:39.113450  5562 net.cpp:122] Setting up layer_128_3_scale2
I0529 17:44:39.113471  5562 net.cpp:129] Top shape: 50 128 28 28 (5017600)
I0529 17:44:39.113474  5562 net.cpp:137] Memory required for data: 2699469000
I0529 17:44:39.113481  5562 layer_factory.hpp:77] Creating layer layer_128_3_relu2
I0529 17:44:39.113487  5562 net.cpp:84] Creating Layer layer_128_3_relu2
I0529 17:44:39.113490  5562 net.cpp:406] layer_128_3_relu2 <- layer_128_3_conv1
I0529 17:44:39.113494  5562 net.cpp:367] layer_128_3_relu2 -> layer_128_3_conv1 (in-place)
I0529 17:44:39.113682  5562 net.cpp:122] Setting up layer_128_3_relu2
I0529 17:44:39.113706  5562 net.cpp:129] Top shape: 50 128 28 28 (5017600)
I0529 17:44:39.113710  5562 net.cpp:137] Memory required for data: 2719539400
I0529 17:44:39.113724  5562 layer_factory.hpp:77] Creating layer layer_128_3_conv2
I0529 17:44:39.113741  5562 net.cpp:84] Creating Layer layer_128_3_conv2
I0529 17:44:39.113746  5562 net.cpp:406] layer_128_3_conv2 <- layer_128_3_conv1
I0529 17:44:39.113752  5562 net.cpp:380] layer_128_3_conv2 -> layer_128_3_conv2
I0529 17:44:39.119904  5562 net.cpp:122] Setting up layer_128_3_conv2
I0529 17:44:39.119932  5562 net.cpp:129] Top shape: 50 128 28 28 (5017600)
I0529 17:44:39.119936  5562 net.cpp:137] Memory required for data: 2739609800
I0529 17:44:39.119943  5562 layer_factory.hpp:77] Creating layer layer_128_3_sum
I0529 17:44:39.119961  5562 net.cpp:84] Creating Layer layer_128_3_sum
I0529 17:44:39.119966  5562 net.cpp:406] layer_128_3_sum <- layer_128_3_conv2
I0529 17:44:39.119971  5562 net.cpp:406] layer_128_3_sum <- layer_128_2_sum_layer_128_2_sum_0_split_1
I0529 17:44:39.119976  5562 net.cpp:380] layer_128_3_sum -> layer_128_3_sum
I0529 17:44:39.120007  5562 net.cpp:122] Setting up layer_128_3_sum
I0529 17:44:39.120013  5562 net.cpp:129] Top shape: 50 128 28 28 (5017600)
I0529 17:44:39.120016  5562 net.cpp:137] Memory required for data: 2759680200
I0529 17:44:39.120019  5562 layer_factory.hpp:77] Creating layer layer_128_3_sum_layer_128_3_sum_0_split
I0529 17:44:39.120025  5562 net.cpp:84] Creating Layer layer_128_3_sum_layer_128_3_sum_0_split
I0529 17:44:39.120028  5562 net.cpp:406] layer_128_3_sum_layer_128_3_sum_0_split <- layer_128_3_sum
I0529 17:44:39.120035  5562 net.cpp:380] layer_128_3_sum_layer_128_3_sum_0_split -> layer_128_3_sum_layer_128_3_sum_0_split_0
I0529 17:44:39.120043  5562 net.cpp:380] layer_128_3_sum_layer_128_3_sum_0_split -> layer_128_3_sum_layer_128_3_sum_0_split_1
I0529 17:44:39.120075  5562 net.cpp:122] Setting up layer_128_3_sum_layer_128_3_sum_0_split
I0529 17:44:39.120086  5562 net.cpp:129] Top shape: 50 128 28 28 (5017600)
I0529 17:44:39.120090  5562 net.cpp:129] Top shape: 50 128 28 28 (5017600)
I0529 17:44:39.120093  5562 net.cpp:137] Memory required for data: 2799821000
I0529 17:44:39.120096  5562 layer_factory.hpp:77] Creating layer layer_128_4_bn1
I0529 17:44:39.120101  5562 net.cpp:84] Creating Layer layer_128_4_bn1
I0529 17:44:39.120105  5562 net.cpp:406] layer_128_4_bn1 <- layer_128_3_sum_layer_128_3_sum_0_split_0
I0529 17:44:39.120113  5562 net.cpp:380] layer_128_4_bn1 -> layer_128_4_bn1
I0529 17:44:39.120291  5562 net.cpp:122] Setting up layer_128_4_bn1
I0529 17:44:39.120301  5562 net.cpp:129] Top shape: 50 128 28 28 (5017600)
I0529 17:44:39.120306  5562 net.cpp:137] Memory required for data: 2819891400
I0529 17:44:39.120312  5562 layer_factory.hpp:77] Creating layer layer_128_4_scale1
I0529 17:44:39.120318  5562 net.cpp:84] Creating Layer layer_128_4_scale1
I0529 17:44:39.120322  5562 net.cpp:406] layer_128_4_scale1 <- layer_128_4_bn1
I0529 17:44:39.120328  5562 net.cpp:367] layer_128_4_scale1 -> layer_128_4_bn1 (in-place)
I0529 17:44:39.120371  5562 layer_factory.hpp:77] Creating layer layer_128_4_scale1
I0529 17:44:39.120507  5562 net.cpp:122] Setting up layer_128_4_scale1
I0529 17:44:39.120517  5562 net.cpp:129] Top shape: 50 128 28 28 (5017600)
I0529 17:44:39.120530  5562 net.cpp:137] Memory required for data: 2839961800
I0529 17:44:39.120535  5562 layer_factory.hpp:77] Creating layer layer_128_4_relu1
I0529 17:44:39.120542  5562 net.cpp:84] Creating Layer layer_128_4_relu1
I0529 17:44:39.120545  5562 net.cpp:406] layer_128_4_relu1 <- layer_128_4_bn1
I0529 17:44:39.120553  5562 net.cpp:367] layer_128_4_relu1 -> layer_128_4_bn1 (in-place)
I0529 17:44:39.121232  5562 net.cpp:122] Setting up layer_128_4_relu1
I0529 17:44:39.121244  5562 net.cpp:129] Top shape: 50 128 28 28 (5017600)
I0529 17:44:39.121259  5562 net.cpp:137] Memory required for data: 2860032200
I0529 17:44:39.121264  5562 layer_factory.hpp:77] Creating layer layer_128_4_conv1
I0529 17:44:39.121275  5562 net.cpp:84] Creating Layer layer_128_4_conv1
I0529 17:44:39.121279  5562 net.cpp:406] layer_128_4_conv1 <- layer_128_4_bn1
I0529 17:44:39.121289  5562 net.cpp:380] layer_128_4_conv1 -> layer_128_4_conv1
I0529 17:44:39.126991  5562 net.cpp:122] Setting up layer_128_4_conv1
I0529 17:44:39.127019  5562 net.cpp:129] Top shape: 50 128 28 28 (5017600)
I0529 17:44:39.127023  5562 net.cpp:137] Memory required for data: 2880102600
I0529 17:44:39.127029  5562 layer_factory.hpp:77] Creating layer layer_128_4_bn2
I0529 17:44:39.127037  5562 net.cpp:84] Creating Layer layer_128_4_bn2
I0529 17:44:39.127040  5562 net.cpp:406] layer_128_4_bn2 <- layer_128_4_conv1
I0529 17:44:39.127048  5562 net.cpp:367] layer_128_4_bn2 -> layer_128_4_conv1 (in-place)
I0529 17:44:39.127248  5562 net.cpp:122] Setting up layer_128_4_bn2
I0529 17:44:39.127267  5562 net.cpp:129] Top shape: 50 128 28 28 (5017600)
I0529 17:44:39.127284  5562 net.cpp:137] Memory required for data: 2900173000
I0529 17:44:39.127290  5562 layer_factory.hpp:77] Creating layer layer_128_4_scale2
I0529 17:44:39.127297  5562 net.cpp:84] Creating Layer layer_128_4_scale2
I0529 17:44:39.127301  5562 net.cpp:406] layer_128_4_scale2 <- layer_128_4_conv1
I0529 17:44:39.127306  5562 net.cpp:367] layer_128_4_scale2 -> layer_128_4_conv1 (in-place)
I0529 17:44:39.127349  5562 layer_factory.hpp:77] Creating layer layer_128_4_scale2
I0529 17:44:39.127465  5562 net.cpp:122] Setting up layer_128_4_scale2
I0529 17:44:39.127475  5562 net.cpp:129] Top shape: 50 128 28 28 (5017600)
I0529 17:44:39.127478  5562 net.cpp:137] Memory required for data: 2920243400
I0529 17:44:39.127496  5562 layer_factory.hpp:77] Creating layer layer_128_4_relu2
I0529 17:44:39.127507  5562 net.cpp:84] Creating Layer layer_128_4_relu2
I0529 17:44:39.127511  5562 net.cpp:406] layer_128_4_relu2 <- layer_128_4_conv1
I0529 17:44:39.127526  5562 net.cpp:367] layer_128_4_relu2 -> layer_128_4_conv1 (in-place)
I0529 17:44:39.128190  5562 net.cpp:122] Setting up layer_128_4_relu2
I0529 17:44:39.128216  5562 net.cpp:129] Top shape: 50 128 28 28 (5017600)
I0529 17:44:39.128219  5562 net.cpp:137] Memory required for data: 2940313800
I0529 17:44:39.128223  5562 layer_factory.hpp:77] Creating layer layer_128_4_conv2
I0529 17:44:39.128233  5562 net.cpp:84] Creating Layer layer_128_4_conv2
I0529 17:44:39.128237  5562 net.cpp:406] layer_128_4_conv2 <- layer_128_4_conv1
I0529 17:44:39.128244  5562 net.cpp:380] layer_128_4_conv2 -> layer_128_4_conv2
I0529 17:44:39.134363  5562 net.cpp:122] Setting up layer_128_4_conv2
I0529 17:44:39.134395  5562 net.cpp:129] Top shape: 50 128 28 28 (5017600)
I0529 17:44:39.134399  5562 net.cpp:137] Memory required for data: 2960384200
I0529 17:44:39.134407  5562 layer_factory.hpp:77] Creating layer layer_128_4_sum
I0529 17:44:39.134413  5562 net.cpp:84] Creating Layer layer_128_4_sum
I0529 17:44:39.134416  5562 net.cpp:406] layer_128_4_sum <- layer_128_4_conv2
I0529 17:44:39.134421  5562 net.cpp:406] layer_128_4_sum <- layer_128_3_sum_layer_128_3_sum_0_split_1
I0529 17:44:39.134428  5562 net.cpp:380] layer_128_4_sum -> layer_128_4_sum
I0529 17:44:39.134457  5562 net.cpp:122] Setting up layer_128_4_sum
I0529 17:44:39.134466  5562 net.cpp:129] Top shape: 50 128 28 28 (5017600)
I0529 17:44:39.134469  5562 net.cpp:137] Memory required for data: 2980454600
I0529 17:44:39.134472  5562 layer_factory.hpp:77] Creating layer layer_256_1_bn1
I0529 17:44:39.134479  5562 net.cpp:84] Creating Layer layer_256_1_bn1
I0529 17:44:39.134482  5562 net.cpp:406] layer_256_1_bn1 <- layer_128_4_sum
I0529 17:44:39.134490  5562 net.cpp:380] layer_256_1_bn1 -> layer_256_1_bn1
I0529 17:44:39.134713  5562 net.cpp:122] Setting up layer_256_1_bn1
I0529 17:44:39.134723  5562 net.cpp:129] Top shape: 50 128 28 28 (5017600)
I0529 17:44:39.134737  5562 net.cpp:137] Memory required for data: 3000525000
I0529 17:44:39.134744  5562 layer_factory.hpp:77] Creating layer layer_256_1_scale1
I0529 17:44:39.134763  5562 net.cpp:84] Creating Layer layer_256_1_scale1
I0529 17:44:39.134778  5562 net.cpp:406] layer_256_1_scale1 <- layer_256_1_bn1
I0529 17:44:39.134784  5562 net.cpp:367] layer_256_1_scale1 -> layer_256_1_bn1 (in-place)
I0529 17:44:39.134835  5562 layer_factory.hpp:77] Creating layer layer_256_1_scale1
I0529 17:44:39.134964  5562 net.cpp:122] Setting up layer_256_1_scale1
I0529 17:44:39.134974  5562 net.cpp:129] Top shape: 50 128 28 28 (5017600)
I0529 17:44:39.134987  5562 net.cpp:137] Memory required for data: 3020595400
I0529 17:44:39.134992  5562 layer_factory.hpp:77] Creating layer layer_256_1_relu1
I0529 17:44:39.134999  5562 net.cpp:84] Creating Layer layer_256_1_relu1
I0529 17:44:39.135013  5562 net.cpp:406] layer_256_1_relu1 <- layer_256_1_bn1
I0529 17:44:39.135018  5562 net.cpp:367] layer_256_1_relu1 -> layer_256_1_bn1 (in-place)
I0529 17:44:39.135722  5562 net.cpp:122] Setting up layer_256_1_relu1
I0529 17:44:39.135758  5562 net.cpp:129] Top shape: 50 128 28 28 (5017600)
I0529 17:44:39.135763  5562 net.cpp:137] Memory required for data: 3040665800
I0529 17:44:39.135766  5562 layer_factory.hpp:77] Creating layer layer_256_1_bn1_layer_256_1_relu1_0_split
I0529 17:44:39.135772  5562 net.cpp:84] Creating Layer layer_256_1_bn1_layer_256_1_relu1_0_split
I0529 17:44:39.135776  5562 net.cpp:406] layer_256_1_bn1_layer_256_1_relu1_0_split <- layer_256_1_bn1
I0529 17:44:39.135783  5562 net.cpp:380] layer_256_1_bn1_layer_256_1_relu1_0_split -> layer_256_1_bn1_layer_256_1_relu1_0_split_0
I0529 17:44:39.135792  5562 net.cpp:380] layer_256_1_bn1_layer_256_1_relu1_0_split -> layer_256_1_bn1_layer_256_1_relu1_0_split_1
I0529 17:44:39.135834  5562 net.cpp:122] Setting up layer_256_1_bn1_layer_256_1_relu1_0_split
I0529 17:44:39.135840  5562 net.cpp:129] Top shape: 50 128 28 28 (5017600)
I0529 17:44:39.135844  5562 net.cpp:129] Top shape: 50 128 28 28 (5017600)
I0529 17:44:39.135848  5562 net.cpp:137] Memory required for data: 3080806600
I0529 17:44:39.135850  5562 layer_factory.hpp:77] Creating layer layer_256_1_conv1
I0529 17:44:39.135860  5562 net.cpp:84] Creating Layer layer_256_1_conv1
I0529 17:44:39.135864  5562 net.cpp:406] layer_256_1_conv1 <- layer_256_1_bn1_layer_256_1_relu1_0_split_0
I0529 17:44:39.135872  5562 net.cpp:380] layer_256_1_conv1 -> layer_256_1_conv1
I0529 17:44:39.145576  5562 net.cpp:122] Setting up layer_256_1_conv1
I0529 17:44:39.145604  5562 net.cpp:129] Top shape: 50 256 14 14 (2508800)
I0529 17:44:39.145608  5562 net.cpp:137] Memory required for data: 3090841800
I0529 17:44:39.145613  5562 layer_factory.hpp:77] Creating layer layer_256_1_bn2
I0529 17:44:39.145620  5562 net.cpp:84] Creating Layer layer_256_1_bn2
I0529 17:44:39.145625  5562 net.cpp:406] layer_256_1_bn2 <- layer_256_1_conv1
I0529 17:44:39.145632  5562 net.cpp:367] layer_256_1_bn2 -> layer_256_1_conv1 (in-place)
I0529 17:44:39.145843  5562 net.cpp:122] Setting up layer_256_1_bn2
I0529 17:44:39.145851  5562 net.cpp:129] Top shape: 50 256 14 14 (2508800)
I0529 17:44:39.145865  5562 net.cpp:137] Memory required for data: 3100877000
I0529 17:44:39.145884  5562 layer_factory.hpp:77] Creating layer layer_256_1_scale2
I0529 17:44:39.145891  5562 net.cpp:84] Creating Layer layer_256_1_scale2
I0529 17:44:39.145906  5562 net.cpp:406] layer_256_1_scale2 <- layer_256_1_conv1
I0529 17:44:39.145911  5562 net.cpp:367] layer_256_1_scale2 -> layer_256_1_conv1 (in-place)
I0529 17:44:39.145953  5562 layer_factory.hpp:77] Creating layer layer_256_1_scale2
I0529 17:44:39.146065  5562 net.cpp:122] Setting up layer_256_1_scale2
I0529 17:44:39.146073  5562 net.cpp:129] Top shape: 50 256 14 14 (2508800)
I0529 17:44:39.146088  5562 net.cpp:137] Memory required for data: 3110912200
I0529 17:44:39.146093  5562 layer_factory.hpp:77] Creating layer layer_256_1_relu2
I0529 17:44:39.146112  5562 net.cpp:84] Creating Layer layer_256_1_relu2
I0529 17:44:39.146116  5562 net.cpp:406] layer_256_1_relu2 <- layer_256_1_conv1
I0529 17:44:39.146122  5562 net.cpp:367] layer_256_1_relu2 -> layer_256_1_conv1 (in-place)
I0529 17:44:39.146797  5562 net.cpp:122] Setting up layer_256_1_relu2
I0529 17:44:39.146826  5562 net.cpp:129] Top shape: 50 256 14 14 (2508800)
I0529 17:44:39.146829  5562 net.cpp:137] Memory required for data: 3120947400
I0529 17:44:39.146833  5562 layer_factory.hpp:77] Creating layer layer_256_1_conv2
I0529 17:44:39.146843  5562 net.cpp:84] Creating Layer layer_256_1_conv2
I0529 17:44:39.146848  5562 net.cpp:406] layer_256_1_conv2 <- layer_256_1_conv1
I0529 17:44:39.146854  5562 net.cpp:380] layer_256_1_conv2 -> layer_256_1_conv2
I0529 17:44:39.164089  5562 net.cpp:122] Setting up layer_256_1_conv2
I0529 17:44:39.164105  5562 net.cpp:129] Top shape: 50 256 14 14 (2508800)
I0529 17:44:39.164120  5562 net.cpp:137] Memory required for data: 3130982600
I0529 17:44:39.164125  5562 layer_factory.hpp:77] Creating layer layer_256_1_conv_expand
I0529 17:44:39.164137  5562 net.cpp:84] Creating Layer layer_256_1_conv_expand
I0529 17:44:39.164142  5562 net.cpp:406] layer_256_1_conv_expand <- layer_256_1_bn1_layer_256_1_relu1_0_split_1
I0529 17:44:39.164160  5562 net.cpp:380] layer_256_1_conv_expand -> layer_256_1_conv_expand
I0529 17:44:39.166985  5562 net.cpp:122] Setting up layer_256_1_conv_expand
I0529 17:44:39.167011  5562 net.cpp:129] Top shape: 50 256 14 14 (2508800)
I0529 17:44:39.167016  5562 net.cpp:137] Memory required for data: 3141017800
I0529 17:44:39.167021  5562 layer_factory.hpp:77] Creating layer layer_256_1_sum
I0529 17:44:39.167029  5562 net.cpp:84] Creating Layer layer_256_1_sum
I0529 17:44:39.167034  5562 net.cpp:406] layer_256_1_sum <- layer_256_1_conv_expand
I0529 17:44:39.167039  5562 net.cpp:406] layer_256_1_sum <- layer_256_1_conv2
I0529 17:44:39.167044  5562 net.cpp:380] layer_256_1_sum -> layer_256_1_sum
I0529 17:44:39.167078  5562 net.cpp:122] Setting up layer_256_1_sum
I0529 17:44:39.167083  5562 net.cpp:129] Top shape: 50 256 14 14 (2508800)
I0529 17:44:39.167086  5562 net.cpp:137] Memory required for data: 3151053000
I0529 17:44:39.167090  5562 layer_factory.hpp:77] Creating layer layer_256_1_sum_layer_256_1_sum_0_split
I0529 17:44:39.167095  5562 net.cpp:84] Creating Layer layer_256_1_sum_layer_256_1_sum_0_split
I0529 17:44:39.167098  5562 net.cpp:406] layer_256_1_sum_layer_256_1_sum_0_split <- layer_256_1_sum
I0529 17:44:39.167105  5562 net.cpp:380] layer_256_1_sum_layer_256_1_sum_0_split -> layer_256_1_sum_layer_256_1_sum_0_split_0
I0529 17:44:39.167111  5562 net.cpp:380] layer_256_1_sum_layer_256_1_sum_0_split -> layer_256_1_sum_layer_256_1_sum_0_split_1
I0529 17:44:39.167146  5562 net.cpp:122] Setting up layer_256_1_sum_layer_256_1_sum_0_split
I0529 17:44:39.167155  5562 net.cpp:129] Top shape: 50 256 14 14 (2508800)
I0529 17:44:39.167158  5562 net.cpp:129] Top shape: 50 256 14 14 (2508800)
I0529 17:44:39.167161  5562 net.cpp:137] Memory required for data: 3171123400
I0529 17:44:39.167165  5562 layer_factory.hpp:77] Creating layer layer_256_2_bn1
I0529 17:44:39.167170  5562 net.cpp:84] Creating Layer layer_256_2_bn1
I0529 17:44:39.167173  5562 net.cpp:406] layer_256_2_bn1 <- layer_256_1_sum_layer_256_1_sum_0_split_0
I0529 17:44:39.167179  5562 net.cpp:380] layer_256_2_bn1 -> layer_256_2_bn1
I0529 17:44:39.167443  5562 net.cpp:122] Setting up layer_256_2_bn1
I0529 17:44:39.167464  5562 net.cpp:129] Top shape: 50 256 14 14 (2508800)
I0529 17:44:39.167477  5562 net.cpp:137] Memory required for data: 3181158600
I0529 17:44:39.167484  5562 layer_factory.hpp:77] Creating layer layer_256_2_scale1
I0529 17:44:39.167491  5562 net.cpp:84] Creating Layer layer_256_2_scale1
I0529 17:44:39.167495  5562 net.cpp:406] layer_256_2_scale1 <- layer_256_2_bn1
I0529 17:44:39.167502  5562 net.cpp:367] layer_256_2_scale1 -> layer_256_2_bn1 (in-place)
I0529 17:44:39.167567  5562 layer_factory.hpp:77] Creating layer layer_256_2_scale1
I0529 17:44:39.167711  5562 net.cpp:122] Setting up layer_256_2_scale1
I0529 17:44:39.167721  5562 net.cpp:129] Top shape: 50 256 14 14 (2508800)
I0529 17:44:39.167734  5562 net.cpp:137] Memory required for data: 3191193800
I0529 17:44:39.167739  5562 layer_factory.hpp:77] Creating layer layer_256_2_relu1
I0529 17:44:39.167757  5562 net.cpp:84] Creating Layer layer_256_2_relu1
I0529 17:44:39.167760  5562 net.cpp:406] layer_256_2_relu1 <- layer_256_2_bn1
I0529 17:44:39.167776  5562 net.cpp:367] layer_256_2_relu1 -> layer_256_2_bn1 (in-place)
I0529 17:44:39.168473  5562 net.cpp:122] Setting up layer_256_2_relu1
I0529 17:44:39.168500  5562 net.cpp:129] Top shape: 50 256 14 14 (2508800)
I0529 17:44:39.168504  5562 net.cpp:137] Memory required for data: 3201229000
I0529 17:44:39.168507  5562 layer_factory.hpp:77] Creating layer layer_256_2_conv1
I0529 17:44:39.168521  5562 net.cpp:84] Creating Layer layer_256_2_conv1
I0529 17:44:39.168525  5562 net.cpp:406] layer_256_2_conv1 <- layer_256_2_bn1
I0529 17:44:39.168532  5562 net.cpp:380] layer_256_2_conv1 -> layer_256_2_conv1
I0529 17:44:39.185724  5562 net.cpp:122] Setting up layer_256_2_conv1
I0529 17:44:39.185751  5562 net.cpp:129] Top shape: 50 256 14 14 (2508800)
I0529 17:44:39.185755  5562 net.cpp:137] Memory required for data: 3211264200
I0529 17:44:39.185772  5562 layer_factory.hpp:77] Creating layer layer_256_2_bn2
I0529 17:44:39.185781  5562 net.cpp:84] Creating Layer layer_256_2_bn2
I0529 17:44:39.185784  5562 net.cpp:406] layer_256_2_bn2 <- layer_256_2_conv1
I0529 17:44:39.185791  5562 net.cpp:367] layer_256_2_bn2 -> layer_256_2_conv1 (in-place)
I0529 17:44:39.186018  5562 net.cpp:122] Setting up layer_256_2_bn2
I0529 17:44:39.186028  5562 net.cpp:129] Top shape: 50 256 14 14 (2508800)
I0529 17:44:39.186043  5562 net.cpp:137] Memory required for data: 3221299400
I0529 17:44:39.186060  5562 layer_factory.hpp:77] Creating layer layer_256_2_scale2
I0529 17:44:39.186069  5562 net.cpp:84] Creating Layer layer_256_2_scale2
I0529 17:44:39.186072  5562 net.cpp:406] layer_256_2_scale2 <- layer_256_2_conv1
I0529 17:44:39.186077  5562 net.cpp:367] layer_256_2_scale2 -> layer_256_2_conv1 (in-place)
I0529 17:44:39.186120  5562 layer_factory.hpp:77] Creating layer layer_256_2_scale2
I0529 17:44:39.186270  5562 net.cpp:122] Setting up layer_256_2_scale2
I0529 17:44:39.186291  5562 net.cpp:129] Top shape: 50 256 14 14 (2508800)
I0529 17:44:39.186303  5562 net.cpp:137] Memory required for data: 3231334600
I0529 17:44:39.186309  5562 layer_factory.hpp:77] Creating layer layer_256_2_relu2
I0529 17:44:39.186326  5562 net.cpp:84] Creating Layer layer_256_2_relu2
I0529 17:44:39.186328  5562 net.cpp:406] layer_256_2_relu2 <- layer_256_2_conv1
I0529 17:44:39.186344  5562 net.cpp:367] layer_256_2_relu2 -> layer_256_2_conv1 (in-place)
I0529 17:44:39.187023  5562 net.cpp:122] Setting up layer_256_2_relu2
I0529 17:44:39.187050  5562 net.cpp:129] Top shape: 50 256 14 14 (2508800)
I0529 17:44:39.187054  5562 net.cpp:137] Memory required for data: 3241369800
I0529 17:44:39.187058  5562 layer_factory.hpp:77] Creating layer layer_256_2_conv2
I0529 17:44:39.187070  5562 net.cpp:84] Creating Layer layer_256_2_conv2
I0529 17:44:39.187074  5562 net.cpp:406] layer_256_2_conv2 <- layer_256_2_conv1
I0529 17:44:39.187081  5562 net.cpp:380] layer_256_2_conv2 -> layer_256_2_conv2
I0529 17:44:39.204712  5562 net.cpp:122] Setting up layer_256_2_conv2
I0529 17:44:39.204738  5562 net.cpp:129] Top shape: 50 256 14 14 (2508800)
I0529 17:44:39.204742  5562 net.cpp:137] Memory required for data: 3251405000
I0529 17:44:39.204747  5562 layer_factory.hpp:77] Creating layer layer_256_2_sum
I0529 17:44:39.204754  5562 net.cpp:84] Creating Layer layer_256_2_sum
I0529 17:44:39.204758  5562 net.cpp:406] layer_256_2_sum <- layer_256_2_conv2
I0529 17:44:39.204763  5562 net.cpp:406] layer_256_2_sum <- layer_256_1_sum_layer_256_1_sum_0_split_1
I0529 17:44:39.204768  5562 net.cpp:380] layer_256_2_sum -> layer_256_2_sum
I0529 17:44:39.204798  5562 net.cpp:122] Setting up layer_256_2_sum
I0529 17:44:39.204807  5562 net.cpp:129] Top shape: 50 256 14 14 (2508800)
I0529 17:44:39.204809  5562 net.cpp:137] Memory required for data: 3261440200
I0529 17:44:39.204813  5562 layer_factory.hpp:77] Creating layer layer_256_2_sum_layer_256_2_sum_0_split
I0529 17:44:39.204818  5562 net.cpp:84] Creating Layer layer_256_2_sum_layer_256_2_sum_0_split
I0529 17:44:39.204821  5562 net.cpp:406] layer_256_2_sum_layer_256_2_sum_0_split <- layer_256_2_sum
I0529 17:44:39.204826  5562 net.cpp:380] layer_256_2_sum_layer_256_2_sum_0_split -> layer_256_2_sum_layer_256_2_sum_0_split_0
I0529 17:44:39.204833  5562 net.cpp:380] layer_256_2_sum_layer_256_2_sum_0_split -> layer_256_2_sum_layer_256_2_sum_0_split_1
I0529 17:44:39.204869  5562 net.cpp:122] Setting up layer_256_2_sum_layer_256_2_sum_0_split
I0529 17:44:39.204875  5562 net.cpp:129] Top shape: 50 256 14 14 (2508800)
I0529 17:44:39.204879  5562 net.cpp:129] Top shape: 50 256 14 14 (2508800)
I0529 17:44:39.204881  5562 net.cpp:137] Memory required for data: 3281510600
I0529 17:44:39.204885  5562 layer_factory.hpp:77] Creating layer layer_256_3_bn1
I0529 17:44:39.204892  5562 net.cpp:84] Creating Layer layer_256_3_bn1
I0529 17:44:39.204896  5562 net.cpp:406] layer_256_3_bn1 <- layer_256_2_sum_layer_256_2_sum_0_split_0
I0529 17:44:39.204901  5562 net.cpp:380] layer_256_3_bn1 -> layer_256_3_bn1
I0529 17:44:39.205178  5562 net.cpp:122] Setting up layer_256_3_bn1
I0529 17:44:39.205189  5562 net.cpp:129] Top shape: 50 256 14 14 (2508800)
I0529 17:44:39.205204  5562 net.cpp:137] Memory required for data: 3291545800
I0529 17:44:39.205210  5562 layer_factory.hpp:77] Creating layer layer_256_3_scale1
I0529 17:44:39.205219  5562 net.cpp:84] Creating Layer layer_256_3_scale1
I0529 17:44:39.205222  5562 net.cpp:406] layer_256_3_scale1 <- layer_256_3_bn1
I0529 17:44:39.205227  5562 net.cpp:367] layer_256_3_scale1 -> layer_256_3_bn1 (in-place)
I0529 17:44:39.205283  5562 layer_factory.hpp:77] Creating layer layer_256_3_scale1
I0529 17:44:39.205456  5562 net.cpp:122] Setting up layer_256_3_scale1
I0529 17:44:39.205477  5562 net.cpp:129] Top shape: 50 256 14 14 (2508800)
I0529 17:44:39.205492  5562 net.cpp:137] Memory required for data: 3301581000
I0529 17:44:39.205497  5562 layer_factory.hpp:77] Creating layer layer_256_3_relu1
I0529 17:44:39.205503  5562 net.cpp:84] Creating Layer layer_256_3_relu1
I0529 17:44:39.205507  5562 net.cpp:406] layer_256_3_relu1 <- layer_256_3_bn1
I0529 17:44:39.205513  5562 net.cpp:367] layer_256_3_relu1 -> layer_256_3_bn1 (in-place)
I0529 17:44:39.205741  5562 net.cpp:122] Setting up layer_256_3_relu1
I0529 17:44:39.205752  5562 net.cpp:129] Top shape: 50 256 14 14 (2508800)
I0529 17:44:39.205766  5562 net.cpp:137] Memory required for data: 3311616200
I0529 17:44:39.205770  5562 layer_factory.hpp:77] Creating layer layer_256_3_conv1
I0529 17:44:39.205792  5562 net.cpp:84] Creating Layer layer_256_3_conv1
I0529 17:44:39.205807  5562 net.cpp:406] layer_256_3_conv1 <- layer_256_3_bn1
I0529 17:44:39.205826  5562 net.cpp:380] layer_256_3_conv1 -> layer_256_3_conv1
I0529 17:44:39.223511  5562 net.cpp:122] Setting up layer_256_3_conv1
I0529 17:44:39.223537  5562 net.cpp:129] Top shape: 50 256 14 14 (2508800)
I0529 17:44:39.223541  5562 net.cpp:137] Memory required for data: 3321651400
I0529 17:44:39.223547  5562 layer_factory.hpp:77] Creating layer layer_256_3_bn2
I0529 17:44:39.223556  5562 net.cpp:84] Creating Layer layer_256_3_bn2
I0529 17:44:39.223561  5562 net.cpp:406] layer_256_3_bn2 <- layer_256_3_conv1
I0529 17:44:39.223565  5562 net.cpp:367] layer_256_3_bn2 -> layer_256_3_conv1 (in-place)
I0529 17:44:39.223783  5562 net.cpp:122] Setting up layer_256_3_bn2
I0529 17:44:39.223793  5562 net.cpp:129] Top shape: 50 256 14 14 (2508800)
I0529 17:44:39.223808  5562 net.cpp:137] Memory required for data: 3331686600
I0529 17:44:39.223814  5562 layer_factory.hpp:77] Creating layer layer_256_3_scale2
I0529 17:44:39.223834  5562 net.cpp:84] Creating Layer layer_256_3_scale2
I0529 17:44:39.223837  5562 net.cpp:406] layer_256_3_scale2 <- layer_256_3_conv1
I0529 17:44:39.223855  5562 net.cpp:367] layer_256_3_scale2 -> layer_256_3_conv1 (in-place)
I0529 17:44:39.223897  5562 layer_factory.hpp:77] Creating layer layer_256_3_scale2
I0529 17:44:39.224026  5562 net.cpp:122] Setting up layer_256_3_scale2
I0529 17:44:39.224037  5562 net.cpp:129] Top shape: 50 256 14 14 (2508800)
I0529 17:44:39.224052  5562 net.cpp:137] Memory required for data: 3341721800
I0529 17:44:39.224058  5562 layer_factory.hpp:77] Creating layer layer_256_3_relu2
I0529 17:44:39.224063  5562 net.cpp:84] Creating Layer layer_256_3_relu2
I0529 17:44:39.224078  5562 net.cpp:406] layer_256_3_relu2 <- layer_256_3_conv1
I0529 17:44:39.224083  5562 net.cpp:367] layer_256_3_relu2 -> layer_256_3_conv1 (in-place)
I0529 17:44:39.224794  5562 net.cpp:122] Setting up layer_256_3_relu2
I0529 17:44:39.224808  5562 net.cpp:129] Top shape: 50 256 14 14 (2508800)
I0529 17:44:39.224823  5562 net.cpp:137] Memory required for data: 3351757000
I0529 17:44:39.224828  5562 layer_factory.hpp:77] Creating layer layer_256_3_conv2
I0529 17:44:39.224838  5562 net.cpp:84] Creating Layer layer_256_3_conv2
I0529 17:44:39.224843  5562 net.cpp:406] layer_256_3_conv2 <- layer_256_3_conv1
I0529 17:44:39.224851  5562 net.cpp:380] layer_256_3_conv2 -> layer_256_3_conv2
I0529 17:44:39.243119  5562 net.cpp:122] Setting up layer_256_3_conv2
I0529 17:44:39.243146  5562 net.cpp:129] Top shape: 50 256 14 14 (2508800)
I0529 17:44:39.243161  5562 net.cpp:137] Memory required for data: 3361792200
I0529 17:44:39.243187  5562 layer_factory.hpp:77] Creating layer layer_256_3_sum
I0529 17:44:39.243196  5562 net.cpp:84] Creating Layer layer_256_3_sum
I0529 17:44:39.243201  5562 net.cpp:406] layer_256_3_sum <- layer_256_3_conv2
I0529 17:44:39.243206  5562 net.cpp:406] layer_256_3_sum <- layer_256_2_sum_layer_256_2_sum_0_split_1
I0529 17:44:39.243211  5562 net.cpp:380] layer_256_3_sum -> layer_256_3_sum
I0529 17:44:39.243242  5562 net.cpp:122] Setting up layer_256_3_sum
I0529 17:44:39.243249  5562 net.cpp:129] Top shape: 50 256 14 14 (2508800)
I0529 17:44:39.243252  5562 net.cpp:137] Memory required for data: 3371827400
I0529 17:44:39.243255  5562 layer_factory.hpp:77] Creating layer layer_256_3_sum_layer_256_3_sum_0_split
I0529 17:44:39.243260  5562 net.cpp:84] Creating Layer layer_256_3_sum_layer_256_3_sum_0_split
I0529 17:44:39.243264  5562 net.cpp:406] layer_256_3_sum_layer_256_3_sum_0_split <- layer_256_3_sum
I0529 17:44:39.243269  5562 net.cpp:380] layer_256_3_sum_layer_256_3_sum_0_split -> layer_256_3_sum_layer_256_3_sum_0_split_0
I0529 17:44:39.243275  5562 net.cpp:380] layer_256_3_sum_layer_256_3_sum_0_split -> layer_256_3_sum_layer_256_3_sum_0_split_1
I0529 17:44:39.243314  5562 net.cpp:122] Setting up layer_256_3_sum_layer_256_3_sum_0_split
I0529 17:44:39.243319  5562 net.cpp:129] Top shape: 50 256 14 14 (2508800)
I0529 17:44:39.243324  5562 net.cpp:129] Top shape: 50 256 14 14 (2508800)
I0529 17:44:39.243326  5562 net.cpp:137] Memory required for data: 3391897800
I0529 17:44:39.243330  5562 layer_factory.hpp:77] Creating layer layer_256_4_bn1
I0529 17:44:39.243337  5562 net.cpp:84] Creating Layer layer_256_4_bn1
I0529 17:44:39.243340  5562 net.cpp:406] layer_256_4_bn1 <- layer_256_3_sum_layer_256_3_sum_0_split_0
I0529 17:44:39.243345  5562 net.cpp:380] layer_256_4_bn1 -> layer_256_4_bn1
I0529 17:44:39.243549  5562 net.cpp:122] Setting up layer_256_4_bn1
I0529 17:44:39.243566  5562 net.cpp:129] Top shape: 50 256 14 14 (2508800)
I0529 17:44:39.243571  5562 net.cpp:137] Memory required for data: 3401933000
I0529 17:44:39.243578  5562 layer_factory.hpp:77] Creating layer layer_256_4_scale1
I0529 17:44:39.243585  5562 net.cpp:84] Creating Layer layer_256_4_scale1
I0529 17:44:39.243589  5562 net.cpp:406] layer_256_4_scale1 <- layer_256_4_bn1
I0529 17:44:39.243594  5562 net.cpp:367] layer_256_4_scale1 -> layer_256_4_bn1 (in-place)
I0529 17:44:39.243638  5562 layer_factory.hpp:77] Creating layer layer_256_4_scale1
I0529 17:44:39.243785  5562 net.cpp:122] Setting up layer_256_4_scale1
I0529 17:44:39.243794  5562 net.cpp:129] Top shape: 50 256 14 14 (2508800)
I0529 17:44:39.243808  5562 net.cpp:137] Memory required for data: 3411968200
I0529 17:44:39.243814  5562 layer_factory.hpp:77] Creating layer layer_256_4_relu1
I0529 17:44:39.243823  5562 net.cpp:84] Creating Layer layer_256_4_relu1
I0529 17:44:39.243826  5562 net.cpp:406] layer_256_4_relu1 <- layer_256_4_bn1
I0529 17:44:39.243830  5562 net.cpp:367] layer_256_4_relu1 -> layer_256_4_bn1 (in-place)
I0529 17:44:39.244936  5562 net.cpp:122] Setting up layer_256_4_relu1
I0529 17:44:39.244951  5562 net.cpp:129] Top shape: 50 256 14 14 (2508800)
I0529 17:44:39.244966  5562 net.cpp:137] Memory required for data: 3422003400
I0529 17:44:39.244971  5562 layer_factory.hpp:77] Creating layer layer_256_4_conv1
I0529 17:44:39.244981  5562 net.cpp:84] Creating Layer layer_256_4_conv1
I0529 17:44:39.244985  5562 net.cpp:406] layer_256_4_conv1 <- layer_256_4_bn1
I0529 17:44:39.244994  5562 net.cpp:380] layer_256_4_conv1 -> layer_256_4_conv1
I0529 17:44:39.263666  5562 net.cpp:122] Setting up layer_256_4_conv1
I0529 17:44:39.263694  5562 net.cpp:129] Top shape: 50 256 14 14 (2508800)
I0529 17:44:39.263697  5562 net.cpp:137] Memory required for data: 3432038600
I0529 17:44:39.263702  5562 layer_factory.hpp:77] Creating layer layer_256_4_bn2
I0529 17:44:39.263711  5562 net.cpp:84] Creating Layer layer_256_4_bn2
I0529 17:44:39.263716  5562 net.cpp:406] layer_256_4_bn2 <- layer_256_4_conv1
I0529 17:44:39.263736  5562 net.cpp:367] layer_256_4_bn2 -> layer_256_4_conv1 (in-place)
I0529 17:44:39.263931  5562 net.cpp:122] Setting up layer_256_4_bn2
I0529 17:44:39.263942  5562 net.cpp:129] Top shape: 50 256 14 14 (2508800)
I0529 17:44:39.263947  5562 net.cpp:137] Memory required for data: 3442073800
I0529 17:44:39.263953  5562 layer_factory.hpp:77] Creating layer layer_256_4_scale2
I0529 17:44:39.263959  5562 net.cpp:84] Creating Layer layer_256_4_scale2
I0529 17:44:39.263963  5562 net.cpp:406] layer_256_4_scale2 <- layer_256_4_conv1
I0529 17:44:39.263972  5562 net.cpp:367] layer_256_4_scale2 -> layer_256_4_conv1 (in-place)
I0529 17:44:39.264014  5562 layer_factory.hpp:77] Creating layer layer_256_4_scale2
I0529 17:44:39.264137  5562 net.cpp:122] Setting up layer_256_4_scale2
I0529 17:44:39.264145  5562 net.cpp:129] Top shape: 50 256 14 14 (2508800)
I0529 17:44:39.264159  5562 net.cpp:137] Memory required for data: 3452109000
I0529 17:44:39.264165  5562 layer_factory.hpp:77] Creating layer layer_256_4_relu2
I0529 17:44:39.264171  5562 net.cpp:84] Creating Layer layer_256_4_relu2
I0529 17:44:39.264174  5562 net.cpp:406] layer_256_4_relu2 <- layer_256_4_conv1
I0529 17:44:39.264179  5562 net.cpp:367] layer_256_4_relu2 -> layer_256_4_conv1 (in-place)
I0529 17:44:39.264391  5562 net.cpp:122] Setting up layer_256_4_relu2
I0529 17:44:39.264403  5562 net.cpp:129] Top shape: 50 256 14 14 (2508800)
I0529 17:44:39.264406  5562 net.cpp:137] Memory required for data: 3462144200
I0529 17:44:39.264410  5562 layer_factory.hpp:77] Creating layer layer_256_4_conv2
I0529 17:44:39.264431  5562 net.cpp:84] Creating Layer layer_256_4_conv2
I0529 17:44:39.264436  5562 net.cpp:406] layer_256_4_conv2 <- layer_256_4_conv1
I0529 17:44:39.264441  5562 net.cpp:380] layer_256_4_conv2 -> layer_256_4_conv2
I0529 17:44:39.282083  5562 net.cpp:122] Setting up layer_256_4_conv2
I0529 17:44:39.282111  5562 net.cpp:129] Top shape: 50 256 14 14 (2508800)
I0529 17:44:39.282115  5562 net.cpp:137] Memory required for data: 3472179400
I0529 17:44:39.282120  5562 layer_factory.hpp:77] Creating layer layer_256_4_sum
I0529 17:44:39.282127  5562 net.cpp:84] Creating Layer layer_256_4_sum
I0529 17:44:39.282131  5562 net.cpp:406] layer_256_4_sum <- layer_256_4_conv2
I0529 17:44:39.282136  5562 net.cpp:406] layer_256_4_sum <- layer_256_3_sum_layer_256_3_sum_0_split_1
I0529 17:44:39.282141  5562 net.cpp:380] layer_256_4_sum -> layer_256_4_sum
I0529 17:44:39.282173  5562 net.cpp:122] Setting up layer_256_4_sum
I0529 17:44:39.282179  5562 net.cpp:129] Top shape: 50 256 14 14 (2508800)
I0529 17:44:39.282182  5562 net.cpp:137] Memory required for data: 3482214600
I0529 17:44:39.282186  5562 layer_factory.hpp:77] Creating layer layer_256_4_sum_layer_256_4_sum_0_split
I0529 17:44:39.282191  5562 net.cpp:84] Creating Layer layer_256_4_sum_layer_256_4_sum_0_split
I0529 17:44:39.282194  5562 net.cpp:406] layer_256_4_sum_layer_256_4_sum_0_split <- layer_256_4_sum
I0529 17:44:39.282202  5562 net.cpp:380] layer_256_4_sum_layer_256_4_sum_0_split -> layer_256_4_sum_layer_256_4_sum_0_split_0
I0529 17:44:39.282207  5562 net.cpp:380] layer_256_4_sum_layer_256_4_sum_0_split -> layer_256_4_sum_layer_256_4_sum_0_split_1
I0529 17:44:39.282244  5562 net.cpp:122] Setting up layer_256_4_sum_layer_256_4_sum_0_split
I0529 17:44:39.282251  5562 net.cpp:129] Top shape: 50 256 14 14 (2508800)
I0529 17:44:39.282255  5562 net.cpp:129] Top shape: 50 256 14 14 (2508800)
I0529 17:44:39.282258  5562 net.cpp:137] Memory required for data: 3502285000
I0529 17:44:39.282261  5562 layer_factory.hpp:77] Creating layer layer_256_5_bn1
I0529 17:44:39.282268  5562 net.cpp:84] Creating Layer layer_256_5_bn1
I0529 17:44:39.282270  5562 net.cpp:406] layer_256_5_bn1 <- layer_256_4_sum_layer_256_4_sum_0_split_0
I0529 17:44:39.282280  5562 net.cpp:380] layer_256_5_bn1 -> layer_256_5_bn1
I0529 17:44:39.282526  5562 net.cpp:122] Setting up layer_256_5_bn1
I0529 17:44:39.282536  5562 net.cpp:129] Top shape: 50 256 14 14 (2508800)
I0529 17:44:39.282539  5562 net.cpp:137] Memory required for data: 3512320200
I0529 17:44:39.282570  5562 layer_factory.hpp:77] Creating layer layer_256_5_scale1
I0529 17:44:39.282589  5562 net.cpp:84] Creating Layer layer_256_5_scale1
I0529 17:44:39.282593  5562 net.cpp:406] layer_256_5_scale1 <- layer_256_5_bn1
I0529 17:44:39.282598  5562 net.cpp:367] layer_256_5_scale1 -> layer_256_5_bn1 (in-place)
I0529 17:44:39.282645  5562 layer_factory.hpp:77] Creating layer layer_256_5_scale1
I0529 17:44:39.282833  5562 net.cpp:122] Setting up layer_256_5_scale1
I0529 17:44:39.282842  5562 net.cpp:129] Top shape: 50 256 14 14 (2508800)
I0529 17:44:39.282856  5562 net.cpp:137] Memory required for data: 3522355400
I0529 17:44:39.282862  5562 layer_factory.hpp:77] Creating layer layer_256_5_relu1
I0529 17:44:39.282867  5562 net.cpp:84] Creating Layer layer_256_5_relu1
I0529 17:44:39.282871  5562 net.cpp:406] layer_256_5_relu1 <- layer_256_5_bn1
I0529 17:44:39.282878  5562 net.cpp:367] layer_256_5_relu1 -> layer_256_5_bn1 (in-place)
I0529 17:44:39.283583  5562 net.cpp:122] Setting up layer_256_5_relu1
I0529 17:44:39.283598  5562 net.cpp:129] Top shape: 50 256 14 14 (2508800)
I0529 17:44:39.283613  5562 net.cpp:137] Memory required for data: 3532390600
I0529 17:44:39.283617  5562 layer_factory.hpp:77] Creating layer layer_256_5_conv1
I0529 17:44:39.283627  5562 net.cpp:84] Creating Layer layer_256_5_conv1
I0529 17:44:39.283632  5562 net.cpp:406] layer_256_5_conv1 <- layer_256_5_bn1
I0529 17:44:39.283638  5562 net.cpp:380] layer_256_5_conv1 -> layer_256_5_conv1
I0529 17:44:39.301908  5562 net.cpp:122] Setting up layer_256_5_conv1
I0529 17:44:39.301923  5562 net.cpp:129] Top shape: 50 256 14 14 (2508800)
I0529 17:44:39.301939  5562 net.cpp:137] Memory required for data: 3542425800
I0529 17:44:39.301944  5562 layer_factory.hpp:77] Creating layer layer_256_5_bn2
I0529 17:44:39.301954  5562 net.cpp:84] Creating Layer layer_256_5_bn2
I0529 17:44:39.301959  5562 net.cpp:406] layer_256_5_bn2 <- layer_256_5_conv1
I0529 17:44:39.301964  5562 net.cpp:367] layer_256_5_bn2 -> layer_256_5_conv1 (in-place)
I0529 17:44:39.302170  5562 net.cpp:122] Setting up layer_256_5_bn2
I0529 17:44:39.302181  5562 net.cpp:129] Top shape: 50 256 14 14 (2508800)
I0529 17:44:39.302184  5562 net.cpp:137] Memory required for data: 3552461000
I0529 17:44:39.302191  5562 layer_factory.hpp:77] Creating layer layer_256_5_scale2
I0529 17:44:39.302198  5562 net.cpp:84] Creating Layer layer_256_5_scale2
I0529 17:44:39.302202  5562 net.cpp:406] layer_256_5_scale2 <- layer_256_5_conv1
I0529 17:44:39.302209  5562 net.cpp:367] layer_256_5_scale2 -> layer_256_5_conv1 (in-place)
I0529 17:44:39.302276  5562 layer_factory.hpp:77] Creating layer layer_256_5_scale2
I0529 17:44:39.302431  5562 net.cpp:122] Setting up layer_256_5_scale2
I0529 17:44:39.302443  5562 net.cpp:129] Top shape: 50 256 14 14 (2508800)
I0529 17:44:39.302458  5562 net.cpp:137] Memory required for data: 3562496200
I0529 17:44:39.302464  5562 layer_factory.hpp:77] Creating layer layer_256_5_relu2
I0529 17:44:39.302469  5562 net.cpp:84] Creating Layer layer_256_5_relu2
I0529 17:44:39.302474  5562 net.cpp:406] layer_256_5_relu2 <- layer_256_5_conv1
I0529 17:44:39.302479  5562 net.cpp:367] layer_256_5_relu2 -> layer_256_5_conv1 (in-place)
I0529 17:44:39.303195  5562 net.cpp:122] Setting up layer_256_5_relu2
I0529 17:44:39.303210  5562 net.cpp:129] Top shape: 50 256 14 14 (2508800)
I0529 17:44:39.303225  5562 net.cpp:137] Memory required for data: 3572531400
I0529 17:44:39.303227  5562 layer_factory.hpp:77] Creating layer layer_256_5_conv2
I0529 17:44:39.303237  5562 net.cpp:84] Creating Layer layer_256_5_conv2
I0529 17:44:39.303242  5562 net.cpp:406] layer_256_5_conv2 <- layer_256_5_conv1
I0529 17:44:39.303251  5562 net.cpp:380] layer_256_5_conv2 -> layer_256_5_conv2
I0529 17:44:39.320865  5562 net.cpp:122] Setting up layer_256_5_conv2
I0529 17:44:39.320891  5562 net.cpp:129] Top shape: 50 256 14 14 (2508800)
I0529 17:44:39.320895  5562 net.cpp:137] Memory required for data: 3582566600
I0529 17:44:39.320901  5562 layer_factory.hpp:77] Creating layer layer_256_5_sum
I0529 17:44:39.320920  5562 net.cpp:84] Creating Layer layer_256_5_sum
I0529 17:44:39.320925  5562 net.cpp:406] layer_256_5_sum <- layer_256_5_conv2
I0529 17:44:39.320930  5562 net.cpp:406] layer_256_5_sum <- layer_256_4_sum_layer_256_4_sum_0_split_1
I0529 17:44:39.320936  5562 net.cpp:380] layer_256_5_sum -> layer_256_5_sum
I0529 17:44:39.320969  5562 net.cpp:122] Setting up layer_256_5_sum
I0529 17:44:39.320976  5562 net.cpp:129] Top shape: 50 256 14 14 (2508800)
I0529 17:44:39.320979  5562 net.cpp:137] Memory required for data: 3592601800
I0529 17:44:39.320982  5562 layer_factory.hpp:77] Creating layer layer_256_5_sum_layer_256_5_sum_0_split
I0529 17:44:39.320987  5562 net.cpp:84] Creating Layer layer_256_5_sum_layer_256_5_sum_0_split
I0529 17:44:39.320991  5562 net.cpp:406] layer_256_5_sum_layer_256_5_sum_0_split <- layer_256_5_sum
I0529 17:44:39.320998  5562 net.cpp:380] layer_256_5_sum_layer_256_5_sum_0_split -> layer_256_5_sum_layer_256_5_sum_0_split_0
I0529 17:44:39.321004  5562 net.cpp:380] layer_256_5_sum_layer_256_5_sum_0_split -> layer_256_5_sum_layer_256_5_sum_0_split_1
I0529 17:44:39.321041  5562 net.cpp:122] Setting up layer_256_5_sum_layer_256_5_sum_0_split
I0529 17:44:39.321050  5562 net.cpp:129] Top shape: 50 256 14 14 (2508800)
I0529 17:44:39.321054  5562 net.cpp:129] Top shape: 50 256 14 14 (2508800)
I0529 17:44:39.321056  5562 net.cpp:137] Memory required for data: 3612672200
I0529 17:44:39.321059  5562 layer_factory.hpp:77] Creating layer layer_256_6_bn1
I0529 17:44:39.321084  5562 net.cpp:84] Creating Layer layer_256_6_bn1
I0529 17:44:39.321099  5562 net.cpp:406] layer_256_6_bn1 <- layer_256_5_sum_layer_256_5_sum_0_split_0
I0529 17:44:39.321105  5562 net.cpp:380] layer_256_6_bn1 -> layer_256_6_bn1
I0529 17:44:39.321365  5562 net.cpp:122] Setting up layer_256_6_bn1
I0529 17:44:39.321390  5562 net.cpp:129] Top shape: 50 256 14 14 (2508800)
I0529 17:44:39.321394  5562 net.cpp:137] Memory required for data: 3622707400
I0529 17:44:39.321414  5562 layer_factory.hpp:77] Creating layer layer_256_6_scale1
I0529 17:44:39.321421  5562 net.cpp:84] Creating Layer layer_256_6_scale1
I0529 17:44:39.321436  5562 net.cpp:406] layer_256_6_scale1 <- layer_256_6_bn1
I0529 17:44:39.321441  5562 net.cpp:367] layer_256_6_scale1 -> layer_256_6_bn1 (in-place)
I0529 17:44:39.321499  5562 layer_factory.hpp:77] Creating layer layer_256_6_scale1
I0529 17:44:39.321640  5562 net.cpp:122] Setting up layer_256_6_scale1
I0529 17:44:39.321648  5562 net.cpp:129] Top shape: 50 256 14 14 (2508800)
I0529 17:44:39.321662  5562 net.cpp:137] Memory required for data: 3632742600
I0529 17:44:39.321668  5562 layer_factory.hpp:77] Creating layer layer_256_6_relu1
I0529 17:44:39.321686  5562 net.cpp:84] Creating Layer layer_256_6_relu1
I0529 17:44:39.321689  5562 net.cpp:406] layer_256_6_relu1 <- layer_256_6_bn1
I0529 17:44:39.321709  5562 net.cpp:367] layer_256_6_relu1 -> layer_256_6_bn1 (in-place)
I0529 17:44:39.321938  5562 net.cpp:122] Setting up layer_256_6_relu1
I0529 17:44:39.321949  5562 net.cpp:129] Top shape: 50 256 14 14 (2508800)
I0529 17:44:39.321962  5562 net.cpp:137] Memory required for data: 3642777800
I0529 17:44:39.321966  5562 layer_factory.hpp:77] Creating layer layer_256_6_conv1
I0529 17:44:39.321977  5562 net.cpp:84] Creating Layer layer_256_6_conv1
I0529 17:44:39.321982  5562 net.cpp:406] layer_256_6_conv1 <- layer_256_6_bn1
I0529 17:44:39.321990  5562 net.cpp:380] layer_256_6_conv1 -> layer_256_6_conv1
I0529 17:44:39.339704  5562 net.cpp:122] Setting up layer_256_6_conv1
I0529 17:44:39.339720  5562 net.cpp:129] Top shape: 50 256 14 14 (2508800)
I0529 17:44:39.339735  5562 net.cpp:137] Memory required for data: 3652813000
I0529 17:44:39.339740  5562 layer_factory.hpp:77] Creating layer layer_256_6_bn2
I0529 17:44:39.339750  5562 net.cpp:84] Creating Layer layer_256_6_bn2
I0529 17:44:39.339753  5562 net.cpp:406] layer_256_6_bn2 <- layer_256_6_conv1
I0529 17:44:39.339759  5562 net.cpp:367] layer_256_6_bn2 -> layer_256_6_conv1 (in-place)
I0529 17:44:39.339985  5562 net.cpp:122] Setting up layer_256_6_bn2
I0529 17:44:39.340008  5562 net.cpp:129] Top shape: 50 256 14 14 (2508800)
I0529 17:44:39.340023  5562 net.cpp:137] Memory required for data: 3662848200
I0529 17:44:39.340030  5562 layer_factory.hpp:77] Creating layer layer_256_6_scale2
I0529 17:44:39.340049  5562 net.cpp:84] Creating Layer layer_256_6_scale2
I0529 17:44:39.340052  5562 net.cpp:406] layer_256_6_scale2 <- layer_256_6_conv1
I0529 17:44:39.340060  5562 net.cpp:367] layer_256_6_scale2 -> layer_256_6_conv1 (in-place)
I0529 17:44:39.340131  5562 layer_factory.hpp:77] Creating layer layer_256_6_scale2
I0529 17:44:39.340255  5562 net.cpp:122] Setting up layer_256_6_scale2
I0529 17:44:39.340266  5562 net.cpp:129] Top shape: 50 256 14 14 (2508800)
I0529 17:44:39.340270  5562 net.cpp:137] Memory required for data: 3672883400
I0529 17:44:39.340276  5562 layer_factory.hpp:77] Creating layer layer_256_6_relu2
I0529 17:44:39.340281  5562 net.cpp:84] Creating Layer layer_256_6_relu2
I0529 17:44:39.340284  5562 net.cpp:406] layer_256_6_relu2 <- layer_256_6_conv1
I0529 17:44:39.340289  5562 net.cpp:367] layer_256_6_relu2 -> layer_256_6_conv1 (in-place)
I0529 17:44:39.341029  5562 net.cpp:122] Setting up layer_256_6_relu2
I0529 17:44:39.341054  5562 net.cpp:129] Top shape: 50 256 14 14 (2508800)
I0529 17:44:39.341058  5562 net.cpp:137] Memory required for data: 3682918600
I0529 17:44:39.341063  5562 layer_factory.hpp:77] Creating layer layer_256_6_conv2
I0529 17:44:39.341075  5562 net.cpp:84] Creating Layer layer_256_6_conv2
I0529 17:44:39.341080  5562 net.cpp:406] layer_256_6_conv2 <- layer_256_6_conv1
I0529 17:44:39.341086  5562 net.cpp:380] layer_256_6_conv2 -> layer_256_6_conv2
I0529 17:44:39.358338  5562 net.cpp:122] Setting up layer_256_6_conv2
I0529 17:44:39.358366  5562 net.cpp:129] Top shape: 50 256 14 14 (2508800)
I0529 17:44:39.358371  5562 net.cpp:137] Memory required for data: 3692953800
I0529 17:44:39.358381  5562 layer_factory.hpp:77] Creating layer layer_256_6_sum
I0529 17:44:39.358388  5562 net.cpp:84] Creating Layer layer_256_6_sum
I0529 17:44:39.358392  5562 net.cpp:406] layer_256_6_sum <- layer_256_6_conv2
I0529 17:44:39.358397  5562 net.cpp:406] layer_256_6_sum <- layer_256_5_sum_layer_256_5_sum_0_split_1
I0529 17:44:39.358402  5562 net.cpp:380] layer_256_6_sum -> layer_256_6_sum
I0529 17:44:39.358448  5562 net.cpp:122] Setting up layer_256_6_sum
I0529 17:44:39.358455  5562 net.cpp:129] Top shape: 50 256 14 14 (2508800)
I0529 17:44:39.358458  5562 net.cpp:137] Memory required for data: 3702989000
I0529 17:44:39.358461  5562 layer_factory.hpp:77] Creating layer layer_512_1_bn1
I0529 17:44:39.358469  5562 net.cpp:84] Creating Layer layer_512_1_bn1
I0529 17:44:39.358474  5562 net.cpp:406] layer_512_1_bn1 <- layer_256_6_sum
I0529 17:44:39.358479  5562 net.cpp:380] layer_512_1_bn1 -> layer_512_1_bn1
I0529 17:44:39.358731  5562 net.cpp:122] Setting up layer_512_1_bn1
I0529 17:44:39.358741  5562 net.cpp:129] Top shape: 50 256 14 14 (2508800)
I0529 17:44:39.358743  5562 net.cpp:137] Memory required for data: 3713024200
I0529 17:44:39.358762  5562 layer_factory.hpp:77] Creating layer layer_512_1_scale1
I0529 17:44:39.358767  5562 net.cpp:84] Creating Layer layer_512_1_scale1
I0529 17:44:39.358772  5562 net.cpp:406] layer_512_1_scale1 <- layer_512_1_bn1
I0529 17:44:39.358779  5562 net.cpp:367] layer_512_1_scale1 -> layer_512_1_bn1 (in-place)
I0529 17:44:39.358860  5562 layer_factory.hpp:77] Creating layer layer_512_1_scale1
I0529 17:44:39.359009  5562 net.cpp:122] Setting up layer_512_1_scale1
I0529 17:44:39.359031  5562 net.cpp:129] Top shape: 50 256 14 14 (2508800)
I0529 17:44:39.359045  5562 net.cpp:137] Memory required for data: 3723059400
I0529 17:44:39.359051  5562 layer_factory.hpp:77] Creating layer layer_512_1_relu1
I0529 17:44:39.359056  5562 net.cpp:84] Creating Layer layer_512_1_relu1
I0529 17:44:39.359072  5562 net.cpp:406] layer_512_1_relu1 <- layer_512_1_bn1
I0529 17:44:39.359077  5562 net.cpp:367] layer_512_1_relu1 -> layer_512_1_bn1 (in-place)
I0529 17:44:39.359813  5562 net.cpp:122] Setting up layer_512_1_relu1
I0529 17:44:39.359827  5562 net.cpp:129] Top shape: 50 256 14 14 (2508800)
I0529 17:44:39.359854  5562 net.cpp:137] Memory required for data: 3733094600
I0529 17:44:39.359858  5562 layer_factory.hpp:77] Creating layer layer_512_1_bn1_layer_512_1_relu1_0_split
I0529 17:44:39.359868  5562 net.cpp:84] Creating Layer layer_512_1_bn1_layer_512_1_relu1_0_split
I0529 17:44:39.359871  5562 net.cpp:406] layer_512_1_bn1_layer_512_1_relu1_0_split <- layer_512_1_bn1
I0529 17:44:39.359877  5562 net.cpp:380] layer_512_1_bn1_layer_512_1_relu1_0_split -> layer_512_1_bn1_layer_512_1_relu1_0_split_0
I0529 17:44:39.359895  5562 net.cpp:380] layer_512_1_bn1_layer_512_1_relu1_0_split -> layer_512_1_bn1_layer_512_1_relu1_0_split_1
I0529 17:44:39.359947  5562 net.cpp:122] Setting up layer_512_1_bn1_layer_512_1_relu1_0_split
I0529 17:44:39.359954  5562 net.cpp:129] Top shape: 50 256 14 14 (2508800)
I0529 17:44:39.359958  5562 net.cpp:129] Top shape: 50 256 14 14 (2508800)
I0529 17:44:39.359961  5562 net.cpp:137] Memory required for data: 3753165000
I0529 17:44:39.359964  5562 layer_factory.hpp:77] Creating layer layer_512_1_conv1
I0529 17:44:39.359973  5562 net.cpp:84] Creating Layer layer_512_1_conv1
I0529 17:44:39.359978  5562 net.cpp:406] layer_512_1_conv1 <- layer_512_1_bn1_layer_512_1_relu1_0_split_0
I0529 17:44:39.359987  5562 net.cpp:380] layer_512_1_conv1 -> layer_512_1_conv1
I0529 17:44:39.394058  5562 net.cpp:122] Setting up layer_512_1_conv1
I0529 17:44:39.394084  5562 net.cpp:129] Top shape: 50 512 7 7 (1254400)
I0529 17:44:39.394088  5562 net.cpp:137] Memory required for data: 3758182600
I0529 17:44:39.394094  5562 layer_factory.hpp:77] Creating layer layer_512_1_bn2
I0529 17:44:39.394101  5562 net.cpp:84] Creating Layer layer_512_1_bn2
I0529 17:44:39.394105  5562 net.cpp:406] layer_512_1_bn2 <- layer_512_1_conv1
I0529 17:44:39.394114  5562 net.cpp:367] layer_512_1_bn2 -> layer_512_1_conv1 (in-place)
I0529 17:44:39.394382  5562 net.cpp:122] Setting up layer_512_1_bn2
I0529 17:44:39.394392  5562 net.cpp:129] Top shape: 50 512 7 7 (1254400)
I0529 17:44:39.394407  5562 net.cpp:137] Memory required for data: 3763200200
I0529 17:44:39.394414  5562 layer_factory.hpp:77] Creating layer layer_512_1_scale2
I0529 17:44:39.394420  5562 net.cpp:84] Creating Layer layer_512_1_scale2
I0529 17:44:39.394424  5562 net.cpp:406] layer_512_1_scale2 <- layer_512_1_conv1
I0529 17:44:39.394431  5562 net.cpp:367] layer_512_1_scale2 -> layer_512_1_conv1 (in-place)
I0529 17:44:39.394510  5562 layer_factory.hpp:77] Creating layer layer_512_1_scale2
I0529 17:44:39.394651  5562 net.cpp:122] Setting up layer_512_1_scale2
I0529 17:44:39.394671  5562 net.cpp:129] Top shape: 50 512 7 7 (1254400)
I0529 17:44:39.394675  5562 net.cpp:137] Memory required for data: 3768217800
I0529 17:44:39.394690  5562 layer_factory.hpp:77] Creating layer layer_512_1_relu2
I0529 17:44:39.394700  5562 net.cpp:84] Creating Layer layer_512_1_relu2
I0529 17:44:39.394703  5562 net.cpp:406] layer_512_1_relu2 <- layer_512_1_conv1
I0529 17:44:39.394709  5562 net.cpp:367] layer_512_1_relu2 -> layer_512_1_conv1 (in-place)
I0529 17:44:39.394912  5562 net.cpp:122] Setting up layer_512_1_relu2
I0529 17:44:39.394925  5562 net.cpp:129] Top shape: 50 512 7 7 (1254400)
I0529 17:44:39.394929  5562 net.cpp:137] Memory required for data: 3773235400
I0529 17:44:39.394932  5562 layer_factory.hpp:77] Creating layer layer_512_1_conv2
I0529 17:44:39.394942  5562 net.cpp:84] Creating Layer layer_512_1_conv2
I0529 17:44:39.394945  5562 net.cpp:406] layer_512_1_conv2 <- layer_512_1_conv1
I0529 17:44:39.394958  5562 net.cpp:380] layer_512_1_conv2 -> layer_512_1_conv2
I0529 17:44:39.464416  5562 net.cpp:122] Setting up layer_512_1_conv2
I0529 17:44:39.464445  5562 net.cpp:129] Top shape: 50 512 7 7 (1254400)
I0529 17:44:39.464450  5562 net.cpp:137] Memory required for data: 3778253000
I0529 17:44:39.464455  5562 layer_factory.hpp:77] Creating layer layer_512_1_conv_expand
I0529 17:44:39.464468  5562 net.cpp:84] Creating Layer layer_512_1_conv_expand
I0529 17:44:39.464473  5562 net.cpp:406] layer_512_1_conv_expand <- layer_512_1_bn1_layer_512_1_relu1_0_split_1
I0529 17:44:39.464491  5562 net.cpp:380] layer_512_1_conv_expand -> layer_512_1_conv_expand
I0529 17:44:39.469945  5562 net.cpp:122] Setting up layer_512_1_conv_expand
I0529 17:44:39.469974  5562 net.cpp:129] Top shape: 50 512 7 7 (1254400)
I0529 17:44:39.469977  5562 net.cpp:137] Memory required for data: 3783270600
I0529 17:44:39.469983  5562 layer_factory.hpp:77] Creating layer layer_512_1_sum
I0529 17:44:39.469990  5562 net.cpp:84] Creating Layer layer_512_1_sum
I0529 17:44:39.469995  5562 net.cpp:406] layer_512_1_sum <- layer_512_1_conv_expand
I0529 17:44:39.470000  5562 net.cpp:406] layer_512_1_sum <- layer_512_1_conv2
I0529 17:44:39.470005  5562 net.cpp:380] layer_512_1_sum -> layer_512_1_sum
I0529 17:44:39.470052  5562 net.cpp:122] Setting up layer_512_1_sum
I0529 17:44:39.470058  5562 net.cpp:129] Top shape: 50 512 7 7 (1254400)
I0529 17:44:39.470062  5562 net.cpp:137] Memory required for data: 3788288200
I0529 17:44:39.470064  5562 layer_factory.hpp:77] Creating layer layer_512_1_sum_layer_512_1_sum_0_split
I0529 17:44:39.470072  5562 net.cpp:84] Creating Layer layer_512_1_sum_layer_512_1_sum_0_split
I0529 17:44:39.470075  5562 net.cpp:406] layer_512_1_sum_layer_512_1_sum_0_split <- layer_512_1_sum
I0529 17:44:39.470080  5562 net.cpp:380] layer_512_1_sum_layer_512_1_sum_0_split -> layer_512_1_sum_layer_512_1_sum_0_split_0
I0529 17:44:39.470088  5562 net.cpp:380] layer_512_1_sum_layer_512_1_sum_0_split -> layer_512_1_sum_layer_512_1_sum_0_split_1
I0529 17:44:39.470129  5562 net.cpp:122] Setting up layer_512_1_sum_layer_512_1_sum_0_split
I0529 17:44:39.470134  5562 net.cpp:129] Top shape: 50 512 7 7 (1254400)
I0529 17:44:39.470139  5562 net.cpp:129] Top shape: 50 512 7 7 (1254400)
I0529 17:44:39.470141  5562 net.cpp:137] Memory required for data: 3798323400
I0529 17:44:39.470144  5562 layer_factory.hpp:77] Creating layer layer_512_2_bn1
I0529 17:44:39.470150  5562 net.cpp:84] Creating Layer layer_512_2_bn1
I0529 17:44:39.470155  5562 net.cpp:406] layer_512_2_bn1 <- layer_512_1_sum_layer_512_1_sum_0_split_0
I0529 17:44:39.470161  5562 net.cpp:380] layer_512_2_bn1 -> layer_512_2_bn1
I0529 17:44:39.470432  5562 net.cpp:122] Setting up layer_512_2_bn1
I0529 17:44:39.470443  5562 net.cpp:129] Top shape: 50 512 7 7 (1254400)
I0529 17:44:39.470458  5562 net.cpp:137] Memory required for data: 3803341000
I0529 17:44:39.470475  5562 layer_factory.hpp:77] Creating layer layer_512_2_scale1
I0529 17:44:39.470485  5562 net.cpp:84] Creating Layer layer_512_2_scale1
I0529 17:44:39.470489  5562 net.cpp:406] layer_512_2_scale1 <- layer_512_2_bn1
I0529 17:44:39.470494  5562 net.cpp:367] layer_512_2_scale1 -> layer_512_2_bn1 (in-place)
I0529 17:44:39.470553  5562 layer_factory.hpp:77] Creating layer layer_512_2_scale1
I0529 17:44:39.470711  5562 net.cpp:122] Setting up layer_512_2_scale1
I0529 17:44:39.470719  5562 net.cpp:129] Top shape: 50 512 7 7 (1254400)
I0529 17:44:39.470723  5562 net.cpp:137] Memory required for data: 3808358600
I0529 17:44:39.470739  5562 layer_factory.hpp:77] Creating layer layer_512_2_relu1
I0529 17:44:39.470746  5562 net.cpp:84] Creating Layer layer_512_2_relu1
I0529 17:44:39.470749  5562 net.cpp:406] layer_512_2_relu1 <- layer_512_2_bn1
I0529 17:44:39.470757  5562 net.cpp:367] layer_512_2_relu1 -> layer_512_2_bn1 (in-place)
I0529 17:44:39.470950  5562 net.cpp:122] Setting up layer_512_2_relu1
I0529 17:44:39.470962  5562 net.cpp:129] Top shape: 50 512 7 7 (1254400)
I0529 17:44:39.470964  5562 net.cpp:137] Memory required for data: 3813376200
I0529 17:44:39.470968  5562 layer_factory.hpp:77] Creating layer layer_512_2_conv1
I0529 17:44:39.470978  5562 net.cpp:84] Creating Layer layer_512_2_conv1
I0529 17:44:39.470983  5562 net.cpp:406] layer_512_2_conv1 <- layer_512_2_bn1
I0529 17:44:39.470990  5562 net.cpp:380] layer_512_2_conv1 -> layer_512_2_conv1
I0529 17:44:39.536350  5562 net.cpp:122] Setting up layer_512_2_conv1
I0529 17:44:39.536383  5562 net.cpp:129] Top shape: 50 512 7 7 (1254400)
I0529 17:44:39.536388  5562 net.cpp:137] Memory required for data: 3818393800
I0529 17:44:39.536393  5562 layer_factory.hpp:77] Creating layer layer_512_2_bn2
I0529 17:44:39.536414  5562 net.cpp:84] Creating Layer layer_512_2_bn2
I0529 17:44:39.536420  5562 net.cpp:406] layer_512_2_bn2 <- layer_512_2_conv1
I0529 17:44:39.536437  5562 net.cpp:367] layer_512_2_bn2 -> layer_512_2_conv1 (in-place)
I0529 17:44:39.536664  5562 net.cpp:122] Setting up layer_512_2_bn2
I0529 17:44:39.536674  5562 net.cpp:129] Top shape: 50 512 7 7 (1254400)
I0529 17:44:39.536689  5562 net.cpp:137] Memory required for data: 3823411400
I0529 17:44:39.536696  5562 layer_factory.hpp:77] Creating layer layer_512_2_scale2
I0529 17:44:39.536702  5562 net.cpp:84] Creating Layer layer_512_2_scale2
I0529 17:44:39.536707  5562 net.cpp:406] layer_512_2_scale2 <- layer_512_2_conv1
I0529 17:44:39.536725  5562 net.cpp:367] layer_512_2_scale2 -> layer_512_2_conv1 (in-place)
I0529 17:44:39.536789  5562 layer_factory.hpp:77] Creating layer layer_512_2_scale2
I0529 17:44:39.536943  5562 net.cpp:122] Setting up layer_512_2_scale2
I0529 17:44:39.536963  5562 net.cpp:129] Top shape: 50 512 7 7 (1254400)
I0529 17:44:39.536967  5562 net.cpp:137] Memory required for data: 3828429000
I0529 17:44:39.536983  5562 layer_factory.hpp:77] Creating layer layer_512_2_relu2
I0529 17:44:39.536989  5562 net.cpp:84] Creating Layer layer_512_2_relu2
I0529 17:44:39.536993  5562 net.cpp:406] layer_512_2_relu2 <- layer_512_2_conv1
I0529 17:44:39.536998  5562 net.cpp:367] layer_512_2_relu2 -> layer_512_2_conv1 (in-place)
I0529 17:44:39.537732  5562 net.cpp:122] Setting up layer_512_2_relu2
I0529 17:44:39.537757  5562 net.cpp:129] Top shape: 50 512 7 7 (1254400)
I0529 17:44:39.537761  5562 net.cpp:137] Memory required for data: 3833446600
I0529 17:44:39.537765  5562 layer_factory.hpp:77] Creating layer layer_512_2_conv2
I0529 17:44:39.537776  5562 net.cpp:84] Creating Layer layer_512_2_conv2
I0529 17:44:39.537781  5562 net.cpp:406] layer_512_2_conv2 <- layer_512_2_conv1
I0529 17:44:39.537788  5562 net.cpp:380] layer_512_2_conv2 -> layer_512_2_conv2
I0529 17:44:39.603361  5562 net.cpp:122] Setting up layer_512_2_conv2
I0529 17:44:39.603394  5562 net.cpp:129] Top shape: 50 512 7 7 (1254400)
I0529 17:44:39.603399  5562 net.cpp:137] Memory required for data: 3838464200
I0529 17:44:39.603404  5562 layer_factory.hpp:77] Creating layer layer_512_2_sum
I0529 17:44:39.603412  5562 net.cpp:84] Creating Layer layer_512_2_sum
I0529 17:44:39.603417  5562 net.cpp:406] layer_512_2_sum <- layer_512_2_conv2
I0529 17:44:39.603422  5562 net.cpp:406] layer_512_2_sum <- layer_512_1_sum_layer_512_1_sum_0_split_1
I0529 17:44:39.603427  5562 net.cpp:380] layer_512_2_sum -> layer_512_2_sum
I0529 17:44:39.603474  5562 net.cpp:122] Setting up layer_512_2_sum
I0529 17:44:39.603480  5562 net.cpp:129] Top shape: 50 512 7 7 (1254400)
I0529 17:44:39.603484  5562 net.cpp:137] Memory required for data: 3843481800
I0529 17:44:39.603487  5562 layer_factory.hpp:77] Creating layer layer_512_2_sum_layer_512_2_sum_0_split
I0529 17:44:39.603492  5562 net.cpp:84] Creating Layer layer_512_2_sum_layer_512_2_sum_0_split
I0529 17:44:39.603497  5562 net.cpp:406] layer_512_2_sum_layer_512_2_sum_0_split <- layer_512_2_sum
I0529 17:44:39.603503  5562 net.cpp:380] layer_512_2_sum_layer_512_2_sum_0_split -> layer_512_2_sum_layer_512_2_sum_0_split_0
I0529 17:44:39.603509  5562 net.cpp:380] layer_512_2_sum_layer_512_2_sum_0_split -> layer_512_2_sum_layer_512_2_sum_0_split_1
I0529 17:44:39.603552  5562 net.cpp:122] Setting up layer_512_2_sum_layer_512_2_sum_0_split
I0529 17:44:39.603560  5562 net.cpp:129] Top shape: 50 512 7 7 (1254400)
I0529 17:44:39.603564  5562 net.cpp:129] Top shape: 50 512 7 7 (1254400)
I0529 17:44:39.603566  5562 net.cpp:137] Memory required for data: 3853517000
I0529 17:44:39.603570  5562 layer_factory.hpp:77] Creating layer layer_512_3_bn1
I0529 17:44:39.603575  5562 net.cpp:84] Creating Layer layer_512_3_bn1
I0529 17:44:39.603579  5562 net.cpp:406] layer_512_3_bn1 <- layer_512_2_sum_layer_512_2_sum_0_split_0
I0529 17:44:39.603586  5562 net.cpp:380] layer_512_3_bn1 -> layer_512_3_bn1
I0529 17:44:39.603873  5562 net.cpp:122] Setting up layer_512_3_bn1
I0529 17:44:39.603895  5562 net.cpp:129] Top shape: 50 512 7 7 (1254400)
I0529 17:44:39.603910  5562 net.cpp:137] Memory required for data: 3858534600
I0529 17:44:39.603917  5562 layer_factory.hpp:77] Creating layer layer_512_3_scale1
I0529 17:44:39.603924  5562 net.cpp:84] Creating Layer layer_512_3_scale1
I0529 17:44:39.603929  5562 net.cpp:406] layer_512_3_scale1 <- layer_512_3_bn1
I0529 17:44:39.603935  5562 net.cpp:367] layer_512_3_scale1 -> layer_512_3_bn1 (in-place)
I0529 17:44:39.604008  5562 layer_factory.hpp:77] Creating layer layer_512_3_scale1
I0529 17:44:39.604161  5562 net.cpp:122] Setting up layer_512_3_scale1
I0529 17:44:39.604169  5562 net.cpp:129] Top shape: 50 512 7 7 (1254400)
I0529 17:44:39.604173  5562 net.cpp:137] Memory required for data: 3863552200
I0529 17:44:39.604178  5562 layer_factory.hpp:77] Creating layer layer_512_3_relu1
I0529 17:44:39.604184  5562 net.cpp:84] Creating Layer layer_512_3_relu1
I0529 17:44:39.604188  5562 net.cpp:406] layer_512_3_relu1 <- layer_512_3_bn1
I0529 17:44:39.604195  5562 net.cpp:367] layer_512_3_relu1 -> layer_512_3_bn1 (in-place)
I0529 17:44:39.604437  5562 net.cpp:122] Setting up layer_512_3_relu1
I0529 17:44:39.604449  5562 net.cpp:129] Top shape: 50 512 7 7 (1254400)
I0529 17:44:39.604463  5562 net.cpp:137] Memory required for data: 3868569800
I0529 17:44:39.604467  5562 layer_factory.hpp:77] Creating layer layer_512_3_conv1
I0529 17:44:39.604487  5562 net.cpp:84] Creating Layer layer_512_3_conv1
I0529 17:44:39.604492  5562 net.cpp:406] layer_512_3_conv1 <- layer_512_3_bn1
I0529 17:44:39.604501  5562 net.cpp:380] layer_512_3_conv1 -> layer_512_3_conv1
I0529 17:44:39.674228  5562 net.cpp:122] Setting up layer_512_3_conv1
I0529 17:44:39.674264  5562 net.cpp:129] Top shape: 50 512 7 7 (1254400)
I0529 17:44:39.674268  5562 net.cpp:137] Memory required for data: 3873587400
I0529 17:44:39.674280  5562 layer_factory.hpp:77] Creating layer layer_512_3_bn2
I0529 17:44:39.674293  5562 net.cpp:84] Creating Layer layer_512_3_bn2
I0529 17:44:39.674304  5562 net.cpp:406] layer_512_3_bn2 <- layer_512_3_conv1
I0529 17:44:39.674312  5562 net.cpp:367] layer_512_3_bn2 -> layer_512_3_conv1 (in-place)
I0529 17:44:39.674630  5562 net.cpp:122] Setting up layer_512_3_bn2
I0529 17:44:39.674643  5562 net.cpp:129] Top shape: 50 512 7 7 (1254400)
I0529 17:44:39.674657  5562 net.cpp:137] Memory required for data: 3878605000
I0529 17:44:39.674669  5562 layer_factory.hpp:77] Creating layer layer_512_3_scale2
I0529 17:44:39.674690  5562 net.cpp:84] Creating Layer layer_512_3_scale2
I0529 17:44:39.674693  5562 net.cpp:406] layer_512_3_scale2 <- layer_512_3_conv1
I0529 17:44:39.674698  5562 net.cpp:367] layer_512_3_scale2 -> layer_512_3_conv1 (in-place)
I0529 17:44:39.674748  5562 layer_factory.hpp:77] Creating layer layer_512_3_scale2
I0529 17:44:39.674922  5562 net.cpp:122] Setting up layer_512_3_scale2
I0529 17:44:39.674942  5562 net.cpp:129] Top shape: 50 512 7 7 (1254400)
I0529 17:44:39.674944  5562 net.cpp:137] Memory required for data: 3883622600
I0529 17:44:39.674960  5562 layer_factory.hpp:77] Creating layer layer_512_3_relu2
I0529 17:44:39.674980  5562 net.cpp:84] Creating Layer layer_512_3_relu2
I0529 17:44:39.674984  5562 net.cpp:406] layer_512_3_relu2 <- layer_512_3_conv1
I0529 17:44:39.674990  5562 net.cpp:367] layer_512_3_relu2 -> layer_512_3_conv1 (in-place)
I0529 17:44:39.675225  5562 net.cpp:122] Setting up layer_512_3_relu2
I0529 17:44:39.675247  5562 net.cpp:129] Top shape: 50 512 7 7 (1254400)
I0529 17:44:39.675261  5562 net.cpp:137] Memory required for data: 3888640200
I0529 17:44:39.675266  5562 layer_factory.hpp:77] Creating layer layer_512_3_conv2
I0529 17:44:39.675303  5562 net.cpp:84] Creating Layer layer_512_3_conv2
I0529 17:44:39.675307  5562 net.cpp:406] layer_512_3_conv2 <- layer_512_3_conv1
I0529 17:44:39.675314  5562 net.cpp:380] layer_512_3_conv2 -> layer_512_3_conv2
I0529 17:44:39.741359  5562 net.cpp:122] Setting up layer_512_3_conv2
I0529 17:44:39.741394  5562 net.cpp:129] Top shape: 50 512 7 7 (1254400)
I0529 17:44:39.741397  5562 net.cpp:137] Memory required for data: 3893657800
I0529 17:44:39.741425  5562 layer_factory.hpp:77] Creating layer layer_512_3_sum
I0529 17:44:39.741435  5562 net.cpp:84] Creating Layer layer_512_3_sum
I0529 17:44:39.741438  5562 net.cpp:406] layer_512_3_sum <- layer_512_3_conv2
I0529 17:44:39.741444  5562 net.cpp:406] layer_512_3_sum <- layer_512_2_sum_layer_512_2_sum_0_split_1
I0529 17:44:39.741449  5562 net.cpp:380] layer_512_3_sum -> layer_512_3_sum
I0529 17:44:39.741492  5562 net.cpp:122] Setting up layer_512_3_sum
I0529 17:44:39.741498  5562 net.cpp:129] Top shape: 50 512 7 7 (1254400)
I0529 17:44:39.741502  5562 net.cpp:137] Memory required for data: 3898675400
I0529 17:44:39.741504  5562 layer_factory.hpp:77] Creating layer last_bn
I0529 17:44:39.741513  5562 net.cpp:84] Creating Layer last_bn
I0529 17:44:39.741518  5562 net.cpp:406] last_bn <- layer_512_3_sum
I0529 17:44:39.741521  5562 net.cpp:367] last_bn -> layer_512_3_sum (in-place)
I0529 17:44:39.741777  5562 net.cpp:122] Setting up last_bn
I0529 17:44:39.741787  5562 net.cpp:129] Top shape: 50 512 7 7 (1254400)
I0529 17:44:39.741801  5562 net.cpp:137] Memory required for data: 3903693000
I0529 17:44:39.741821  5562 layer_factory.hpp:77] Creating layer last_scale
I0529 17:44:39.741829  5562 net.cpp:84] Creating Layer last_scale
I0529 17:44:39.741845  5562 net.cpp:406] last_scale <- layer_512_3_sum
I0529 17:44:39.741850  5562 net.cpp:367] last_scale -> layer_512_3_sum (in-place)
I0529 17:44:39.741909  5562 layer_factory.hpp:77] Creating layer last_scale
I0529 17:44:39.742090  5562 net.cpp:122] Setting up last_scale
I0529 17:44:39.742100  5562 net.cpp:129] Top shape: 50 512 7 7 (1254400)
I0529 17:44:39.742115  5562 net.cpp:137] Memory required for data: 3908710600
I0529 17:44:39.742120  5562 layer_factory.hpp:77] Creating layer last_relu
I0529 17:44:39.742125  5562 net.cpp:84] Creating Layer last_relu
I0529 17:44:39.742130  5562 net.cpp:406] last_relu <- layer_512_3_sum
I0529 17:44:39.742147  5562 net.cpp:367] last_relu -> layer_512_3_sum (in-place)
I0529 17:44:39.742880  5562 net.cpp:122] Setting up last_relu
I0529 17:44:39.742894  5562 net.cpp:129] Top shape: 50 512 7 7 (1254400)
I0529 17:44:39.742908  5562 net.cpp:137] Memory required for data: 3913728200
I0529 17:44:39.742913  5562 layer_factory.hpp:77] Creating layer global_pool
I0529 17:44:39.742918  5562 net.cpp:84] Creating Layer global_pool
I0529 17:44:39.742923  5562 net.cpp:406] global_pool <- layer_512_3_sum
I0529 17:44:39.742935  5562 net.cpp:380] global_pool -> global_pool
I0529 17:44:39.743190  5562 net.cpp:122] Setting up global_pool
I0529 17:44:39.743202  5562 net.cpp:129] Top shape: 50 512 1 1 (25600)
I0529 17:44:39.743217  5562 net.cpp:137] Memory required for data: 3913830600
I0529 17:44:39.743221  5562 layer_factory.hpp:77] Creating layer score
I0529 17:44:39.743237  5562 net.cpp:84] Creating Layer score
I0529 17:44:39.743242  5562 net.cpp:406] score <- global_pool
I0529 17:44:39.743263  5562 net.cpp:380] score -> score
I0529 17:44:39.743433  5562 net.cpp:122] Setting up score
I0529 17:44:39.743443  5562 net.cpp:129] Top shape: 50 2 (100)
I0529 17:44:39.743458  5562 net.cpp:137] Memory required for data: 3913831000
I0529 17:44:39.743475  5562 layer_factory.hpp:77] Creating layer loss
I0529 17:44:39.743484  5562 net.cpp:84] Creating Layer loss
I0529 17:44:39.743489  5562 net.cpp:406] loss <- score
I0529 17:44:39.743505  5562 net.cpp:406] loss <- label
I0529 17:44:39.743522  5562 net.cpp:380] loss -> loss
I0529 17:44:39.743536  5562 layer_factory.hpp:77] Creating layer loss
…
I0529 17:44:39.748858  5562 net.cpp:294] The NetState phase (1) differed from the phase (0) specified by a rule in layer data
I0529 17:44:39.749799  5562 net.cpp:51] Initializing net from parameters: 
name: "Pre-ResNet-34"
state {
  phase: TEST
}
layer {
  name: "data"
  type: "Data"
  top: "data"
  top: "label"
  include {
    phase: TEST
  }
  transform_param {
    mirror: false
    crop_size: 224
    mean_file: "/storage/Adience/Test_fold_is_0/mean.binaryproto"
  }
  data_param {
    source: "/storage/Adience/Test_fold_is_0/gender_val_lmdb"
    batch_size: 30
    backend: LMDB
  }
}
layer {
  name: "data_bn"
  type: "BatchNorm"
  bottom: "data"
  top: "data_bn"
  param {
    lr_mult: 0
    decay_mult: 0
  }
  param {
    lr_mult: 0
    decay_mult: 0
  }
  param {
    lr_mult: 0
    decay_mult: 0
  }
}
layer {
  name: "data_scale"
  type: "Scale"
  bottom: "data_bn"
  top: "data_bn"
  param {
    lr_mult: 1
    decay_mult: 1
  }
  param {
    lr_mult: 2
    decay_mult: 1
  }
  scale_param {
    bias_term: true
  }
}
layer {
  name: "conv1"
  type: "Convolution"
  bottom: "data_bn"
  top: "conv1"
  param {
    lr_mult: 1
    decay_mult: 1
  }
  param {
    lr_mult: 2
    decay_mult: 1
  }
  convolution_param {
    num_output: 64
    pad: 3
    kernel_size: 7
    stride: 2
    weight_filler {
      type: "msra"
      variance_norm: FAN_OUT
    }
    bias_filler {
      type: "constant"
      value: 0
    }
  }
}
layer {
  name: "conv1_bn"
  type: "BatchNorm"
  bottom: "conv1"
  top: "conv1"
  param {
    lr_mult: 0
    decay_mult: 0
  }
  param {
    lr_mult: 0
    decay_mult: 0
  }
  param {
    lr_mult: 0
    decay_mult: 0
  }
}
layer {
  name: "conv1_scale"
  type: "Scale"
  bottom: "conv1"
  top: "conv1"
  param {
    lr_mult: 1
    decay_mult: 1
  }
  param {
    lr_mult: 2
    decay_mult: 1
  }
  scale_param {
    bias_term: true
  }
}
layer {
  name: "conv1_relu"
  type: "ReLU"
  bottom: "conv1"
  top: "conv1"
}
layer {
  name: "conv1_pool"
  type: "Pooling"
  bottom: "conv1"
  top: "conv1_pool"
  pooling_param {
    kernel_size: 3
    stride: 2
  }
}
layer {
  name: "layer_64_1_conv1"
  type: "Convolution"
  bottom: "conv1_pool"
  top: "layer_64_1_conv1"
  param {
    lr_mult: 1
    decay_mult: 1
  }
  convolution_param {
    num_output: 64
    bias_term: false
    pad: 1
    kernel_size: 3
    stride: 1
    weight_filler {
      type: "msra"
    }
    bias_filler {
      type: "constant"
      value: 0
    }
  }
}
layer {
  name: "layer_64_1_bn2"
  type: "BatchNorm"
  bottom: "layer_64_1_conv1"
  top: "layer_64_1_conv1"
  param {
    lr_mult: 0
    decay_mult: 0
  }
  param {
    lr_mult: 0
    decay_mult: 0
  }
  param {
    lr_mult: 0
    decay_mult: 0
  }
}
layer {
  name: "layer_64_1_scale2"
  type: "Scale"
  bottom: "layer_64_1_conv1"
  top: "layer_64_1_conv1"
  param {
    lr_mult: 1
    decay_mult: 1
  }
  param {
    lr_mult: 2
    decay_mult: 1
  }
  scale_param {
    bias_term: true
  }
}
layer {
  name: "layer_64_1_relu2"
  type: "ReLU"
  bottom: "layer_64_1_conv1"
  top: "layer_64_1_conv1"
}
layer {
  name: "layer_64_1_conv2"
  type: "Convolution"
  bottom: "layer_64_1_conv1"
  top: "layer_64_1_conv2"
  param {
    lr_mult: 1
    decay_mult: 1
  }
  convolution_param {
    num_output: 64
    bias_term: false
    pad: 1
    kernel_size: 3
    stride: 1
    weight_filler {
      type: "msra"
    }
    bias_filler {
      type: "constant"
      value: 0
    }
  }
}
layer {
  name: "layer_64_1_sum"
  type: "Eltwise"
  bottom: "layer_64_1_conv2"
  bottom: "conv1_pool"
  top: "layer_64_1_sum"
}
layer {
  name: "layer_64_2_bn1"
  type: "BatchNorm"
  bottom: "layer_64_1_sum"
  top: "layer_64_2_bn1"
  param {
    lr_mult: 0
    decay_mult: 0
  }
  param {
    lr_mult: 0
    decay_mult: 0
  }
  param {
    lr_mult: 0
    decay_mult: 0
  }
}
layer {
  name: "layer_64_2_scale1"
  type: "Scale"
  bottom: "layer_64_2_bn1"
  top: "layer_64_2_bn1"
  param {
    lr_mult: 1
    decay_mult: 1
  }
  param {
    lr_mult: 2
    decay_mult: 1
  }
  scale_param {
    bias_term: true
  }
}
layer {
  name: "layer_64_2_relu1"
  type: "ReLU"
  bottom: "layer_64_2_bn1"
  top: "layer_64_2_bn1"
}
layer {
  name: "layer_64_2_conv1"
  type: "Convolution"
  bottom: "layer_64_2_bn1"
  top: "layer_64_2_conv1"
  param {
    lr_mult: 1
    decay_mult: 1
  }
  convolution_param {
    num_output: 64
    bias_term: false
    pad: 1
    kernel_size: 3
    stride: 1
    weight_filler {
      type: "msra"
    }
    bias_filler {
      type: "constant"
      value: 0
    }
  }
}
layer {
  name: "layer_64_2_bn2"
  type: "BatchNorm"
  bottom: "layer_64_2_conv1"
  top: "layer_64_2_conv1"
  param {
    lr_mult: 0
    decay_mult: 0
  }
  param {
    lr_mult: 0
    decay_mult: 0
  }
  param {
    lr_mult: 0
    decay_mult: 0
  }
}
layer {
  name: "layer_64_2_scale2"
  type: "Scale"
  bottom: "layer_64_2_conv1"
  top: "layer_64_2_conv1"
  param {
    lr_mult: 1
    decay_mult: 1
  }
  param {
    lr_mult: 2
    decay_mult: 1
  }
  scale_param {
    bias_term: true
  }
}
layer {
  name: "layer_64_2_relu2"
  type: "ReLU"
  bottom: "layer_64_2_conv1"
  top: "layer_64_2_conv1"
}
layer {
  name: "layer_64_2_conv2"
  type: "Convolution"
  bottom: "layer_64_2_conv1"
  top: "layer_64_2_conv2"
  param {
    lr_mult: 1
    decay_mult: 1
  }
  convolution_param {
    num_output: 64
    bias_term: false
    pad: 1
    kernel_size: 3
    stride: 1
    weight_filler {
      type: "msra"
    }
    bias_filler {
      type: "constant"
      value: 0
    }
  }
}
layer {
  name: "layer_64_2_sum"
  type: "Eltwise"
  bottom: "layer_64_2_conv2"
  bottom: "layer_64_1_sum"
  top: "layer_64_2_sum"
}
layer {
  name: "layer_64_3_bn1"
  type: "BatchNorm"
  bottom: "layer_64_2_sum"
  top: "layer_64_3_bn1"
  param {
    lr_mult: 0
    decay_mult: 0
  }
  param {
    lr_mult: 0
    decay_mult: 0
  }
  param {
    lr_mult: 0
    decay_mult: 0
  }
}
layer {
  name: "layer_64_3_scale1"
  type: "Scale"
  bottom: "layer_64_3_bn1"
  top: "layer_64_3_bn1"
  param {
    lr_mult: 1
    decay_mult: 1
  }
  param {
    lr_mult: 2
    decay_mult: 1
  }
  scale_param {
    bias_term: true
  }
}
layer {
  name: "layer_64_3_relu1"
  type: "ReLU"
  bottom: "layer_64_3_bn1"
  top: "layer_64_3_bn1"
}
layer {
  name: "layer_64_3_conv1"
  type: "Convolution"
  bottom: "layer_64_3_bn1"
  top: "layer_64_3_conv1"
  param {
    lr_mult: 1
    decay_mult: 1
  }
  convolution_param {
    num_output: 64
    bias_term: false
    pad: 1
    kernel_size: 3
    stride: 1
    weight_filler {
      type: "msra"
    }
    bias_filler {
      type: "constant"
      value: 0
    }
  }
}
layer {
  name: "layer_64_3_bn2"
  type: "BatchNorm"
  bottom: "layer_64_3_conv1"
  top: "layer_64_3_conv1"
  param {
    lr_mult: 0
    decay_mult: 0
  }
  param {
    lr_mult: 0
    decay_mult: 0
  }
  param {
    lr_mult: 0
    decay_mult: 0
  }
}
layer {
  name: "layer_64_3_scale2"
  type: "Scale"
  bottom: "layer_64_3_conv1"
  top: "layer_64_3_conv1"
  param {
    lr_mult: 1
    decay_mult: 1
  }
  param {
    lr_mult: 2
    decay_mult: 1
  }
  scale_param {
    bias_term: true
  }
}
layer {
  name: "layer_64_3_relu2"
  type: "ReLU"
  bottom: "layer_64_3_conv1"
  top: "layer_64_3_conv1"
}
layer {
  name: "layer_64_3_conv2"
  type: "Convolution"
  bottom: "layer_64_3_conv1"
  top: "layer_64_3_conv2"
  param {
    lr_mult: 1
    decay_mult: 1
  }
  convolution_param {
    num_output: 64
    bias_term: false
    pad: 1
    kernel_size: 3
    stride: 1
    weight_filler {
      type: "msra"
    }
    bias_filler {
      type: "constant"
      value: 0
    }
  }
}
layer {
  name: "layer_64_3_sum"
  type: "Eltwise"
  bottom: "layer_64_3_conv2"
  bottom: "layer_64_2_sum"
  top: "layer_64_3_sum"
}
layer {
  name: "layer_128_1_bn1"
  type: "BatchNorm"
  bottom: "layer_64_3_sum"
  top: "layer_128_1_bn1"
  param {
    lr_mult: 0
    decay_mult: 0
  }
  param {
    lr_mult: 0
    decay_mult: 0
  }
  param {
    lr_mult: 0
    decay_mult: 0
  }
}
layer {
  name: "layer_128_1_scale1"
  type: "Scale"
  bottom: "layer_128_1_bn1"
  top: "layer_128_1_bn1"
  param {
    lr_mult: 1
    decay_mult: 1
  }
  param {
    lr_mult: 2
    decay_mult: 1
  }
  scale_param {
    bias_term: true
  }
}
layer {
  name: "layer_128_1_relu1"
  type: "ReLU"
  bottom: "layer_128_1_bn1"
  top: "layer_128_1_bn1"
}
layer {
  name: "layer_128_1_conv1"
  type: "Convolution"
  bottom: "layer_128_1_bn1"
  top: "layer_128_1_conv1"
  param {
    lr_mult: 1
    decay_mult: 1
  }
  convolution_param {
    num_output: 128
    bias_term: false
    pad: 1
    kernel_size: 3
    stride: 2
    weight_filler {
      type: "msra"
    }
    bias_filler {
      type: "constant"
      value: 0
    }
  }
}
layer {
  name: "layer_128_1_bn2"
  type: "BatchNorm"
  bottom: "layer_128_1_conv1"
  top: "layer_128_1_conv1"
  param {
    lr_mult: 0
    decay_mult: 0
  }
  param {
    lr_mult: 0
    decay_mult: 0
  }
  param {
    lr_mult: 0
    decay_mult: 0
  }
}
layer {
  name: "layer_128_1_scale2"
  type: "Scale"
  bottom: "layer_128_1_conv1"
  top: "layer_128_1_conv1"
  param {
    lr_mult: 1
    decay_mult: 1
  }
  param {
    lr_mult: 2
    decay_mult: 1
  }
  scale_param {
    bias_term: true
  }
}
layer {
  name: "layer_128_1_relu2"
  type: "ReLU"
  bottom: "layer_128_1_conv1"
  top: "layer_128_1_conv1"
}
layer {
  name: "layer_128_1_conv2"
  type: "Convolution"
  bottom: "layer_128_1_conv1"
  top: "layer_128_1_conv2"
  param {
    lr_mult: 1
    decay_mult: 1
  }
  convolution_param {
    num_output: 128
    bias_term: false
    pad: 1
    kernel_size: 3
    stride: 1
    weight_filler {
      type: "msra"
    }
    bias_filler {
      type: "constant"
      value: 0
    }
  }
}
layer {
  name: "layer_128_1_conv_expand"
  type: "Convolution"
  bottom: "layer_128_1_bn1"
  top: "layer_128_1_conv_expand"
  param {
    lr_mult: 1
    decay_mult: 1
  }
  convolution_param {
    num_output: 128
    bias_term: false
    pad: 0
    kernel_size: 1
    stride: 2
    weight_filler {
      type: "msra"
    }
    bias_filler {
      type: "constant"
      value: 0
    }
  }
}
layer {
  name: "layer_128_1_sum"
  type: "Eltwise"
  bottom: "layer_128_1_conv_expand"
  bottom: "layer_128_1_conv2"
  top: "layer_128_1_sum"
}
layer {
  name: "layer_128_2_bn1"
  type: "BatchNorm"
  bottom: "layer_128_1_sum"
  top: "layer_128_2_bn1"
  param {
    lr_mult: 0
    decay_mult: 0
  }
  param {
    lr_mult: 0
    decay_mult: 0
  }
  param {
    lr_mult: 0
    decay_mult: 0
  }
}
layer {
  name: "layer_128_2_scale1"
  type: "Scale"
  bottom: "layer_128_2_bn1"
  top: "layer_128_2_bn1"
  param {
    lr_mult: 1
    decay_mult: 1
  }
  param {
    lr_mult: 2
    decay_mult: 1
  }
  scale_param {
    bias_term: true
  }
}
layer {
  name: "layer_128_2_relu1"
  type: "ReLU"
  bottom: "layer_128_2_bn1"
  top: "layer_128_2_bn1"
}
layer {
  name: "layer_128_2_conv1"
  type: "Convolution"
  bottom: "layer_128_2_bn1"
  top: "layer_128_2_conv1"
  param {
    lr_mult: 1
    decay_mult: 1
  }
  convolution_param {
    num_output: 128
    bias_term: false
    pad: 1
    kernel_size: 3
    stride: 1
    weight_filler {
      type: "msra"
    }
    bias_filler {
      type: "constant"
      value: 0
    }
  }
}
layer {
  name: "layer_128_2_bn2"
  type: "BatchNorm"
  bottom: "layer_128_2_conv1"
  top: "layer_128_2_conv1"
  param {
    lr_mult: 0
    decay_mult: 0
  }
  param {
    lr_mult: 0
    decay_mult: 0
  }
  param {
    lr_mult: 0
    decay_mult: 0
  }
}
layer {
  name: "layer_128_2_scale2"
  type: "Scale"
  bottom: "layer_128_2_conv1"
  top: "layer_128_2_conv1"
  param {
    lr_mult: 1
    decay_mult: 1
  }
  param {
    lr_mult: 2
    decay_mult: 1
  }
  scale_param {
    bias_term: true
  }
}
layer {
  name: "layer_128_2_relu2"
  type: "ReLU"
  bottom: "layer_128_2_conv1"
  top: "layer_128_2_conv1"
}
layer {
  name: "layer_128_2_conv2"
  type: "Convolution"
  bottom: "layer_128_2_conv1"
  top: "layer_128_2_conv2"
  param {
    lr_mult: 1
    decay_mult: 1
  }
  convolution_param {
    num_output: 128
    bias_term: false
    pad: 1
    kernel_size: 3
    stride: 1
    weight_filler {
      type: "msra"
    }
    bias_filler {
      type: "constant"
      value: 0
    }
  }
}
layer {
  name: "layer_128_2_sum"
  type: "Eltwise"
  bottom: "layer_128_2_conv2"
  bottom: "layer_128_1_sum"
  top: "layer_128_2_sum"
}
layer {
  name: "layer_128_3_bn1"
  type: "BatchNorm"
  bottom: "layer_128_2_sum"
  top: "layer_128_3_bn1"
  param {
    lr_mult: 0
    decay_mult: 0
  }
  param {
    lr_mult: 0
    decay_mult: 0
  }
  param {
    lr_mult: 0
    decay_mult: 0
  }
}
layer {
  name: "layer_128_3_scale1"
  type: "Scale"
  bottom: "layer_128_3_bn1"
  top: "layer_128_3_bn1"
  param {
    lr_mult: 1
    decay_mult: 1
  }
  param {
    lr_mult: 2
    decay_mult: 1
  }
  scale_param {
    bias_term: true
  }
}
layer {
  name: "layer_128_3_relu1"
  type: "ReLU"
  bottom: "layer_128_3_bn1"
  top: "layer_128_3_bn1"
}
layer {
  name: "layer_128_3_conv1"
  type: "Convolution"
  bottom: "layer_128_3_bn1"
  top: "layer_128_3_conv1"
  param {
    lr_mult: 1
    decay_mult: 1
  }
  convolution_param {
    num_output: 128
    bias_term: false
    pad: 1
    kernel_size: 3
    stride: 1
    weight_filler {
      type: "msra"
    }
    bias_filler {
      type: "constant"
      value: 0
    }
  }
}
layer {
  name: "layer_128_3_bn2"
  type: "BatchNorm"
  bottom: "layer_128_3_conv1"
  top: "layer_128_3_conv1"
  param {
    lr_mult: 0
    decay_mult: 0
  }
  param {
    lr_mult: 0
    decay_mult: 0
  }
  param {
    lr_mult: 0
    decay_mult: 0
  }
}
layer {
  name: "layer_128_3_scale2"
  type: "Scale"
  bottom: "layer_128_3_conv1"
  top: "layer_128_3_conv1"
  param {
    lr_mult: 1
    decay_mult: 1
  }
  param {
    lr_mult: 2
    decay_mult: 1
  }
  scale_param {
    bias_term: true
  }
}
layer {
  name: "layer_128_3_relu2"
  type: "ReLU"
  bottom: "layer_128_3_conv1"
  top: "layer_128_3_conv1"
}
layer {
  name: "layer_128_3_conv2"
  type: "Convolution"
  bottom: "layer_128_3_conv1"
  top: "layer_128_3_conv2"
  param {
    lr_mult: 1
    decay_mult: 1
  }
  convolution_param {
    num_output: 128
    bias_term: false
    pad: 1
    kernel_size: 3
    stride: 1
    weight_filler {
      type: "msra"
    }
    bias_filler {
      type: "constant"
      value: 0
    }
  }
}
layer {
  name: "layer_128_3_sum"
  type: "Eltwise"
  bottom: "layer_128_3_conv2"
  bottom: "layer_128_2_sum"
  top: "layer_128_3_sum"
}
layer {
  name: "layer_128_4_bn1"
  type: "BatchNorm"
  bottom: "layer_128_3_sum"
  top: "layer_128_4_bn1"
  param {
    lr_mult: 0
    decay_mult: 0
  }
  param {
    lr_mult: 0
    decay_mult: 0
  }
  param {
    lr_mult: 0
    decay_mult: 0
  }
}
layer {
  name: "layer_128_4_scale1"
  type: "Scale"
  bottom: "layer_128_4_bn1"
  top: "layer_128_4_bn1"
  param {
    lr_mult: 1
    decay_mult: 1
  }
  param {
    lr_mult: 2
    decay_mult: 1
  }
  scale_param {
    bias_term: true
  }
}
layer {
  name: "layer_128_4_relu1"
  type: "ReLU"
  bottom: "layer_128_4_bn1"
  top: "layer_128_4_bn1"
}
layer {
  name: "layer_128_4_conv1"
  type: "Convolution"
  bottom: "layer_128_4_bn1"
  top: "layer_128_4_conv1"
  param {
    lr_mult: 1
    decay_mult: 1
  }
  convolution_param {
    num_output: 128
    bias_term: false
    pad: 1
    kernel_size: 3
    stride: 1
    weight_filler {
      type: "msra"
    }
    bias_filler {
      type: "constant"
      value: 0
    }
  }
}
layer {
  name: "layer_128_4_bn2"
  type: "BatchNorm"
  bottom: "layer_128_4_conv1"
  top: "layer_128_4_conv1"
  param {
    lr_mult: 0
    decay_mult: 0
  }
  param {
    lr_mult: 0
    decay_mult: 0
  }
  param {
    lr_mult: 0
    decay_mult: 0
  }
}
layer {
  name: "layer_128_4_scale2"
  type: "Scale"
  bottom: "layer_128_4_conv1"
  top: "layer_128_4_conv1"
  param {
    lr_mult: 1
    decay_mult: 1
  }
  param {
    lr_mult: 2
    decay_mult: 1
  }
  scale_param {
    bias_term: true
  }
}
layer {
  name: "layer_128_4_relu2"
  type: "ReLU"
  bottom: "layer_128_4_conv1"
  top: "layer_128_4_conv1"
}
layer {
  name: "layer_128_4_conv2"
  type: "Convolution"
  bottom: "layer_128_4_conv1"
  top: "layer_128_4_conv2"
  param {
    lr_mult: 1
    decay_mult: 1
  }
  convolution_param {
    num_output: 128
    bias_term: false
    pad: 1
    kernel_size: 3
    stride: 1
…
I0529 17:44:39.925400  5562 net.cpp:367] layer_256_2_relu1 -> layer_256_2_bn1 (in-place)
I0529 17:44:39.925624  5562 net.cpp:122] Setting up layer_256_2_relu1
I0529 17:44:39.925635  5562 net.cpp:129] Top shape: 30 256 14 14 (1505280)
I0529 17:44:39.925649  5562 net.cpp:137] Memory required for data: 1920737640
I0529 17:44:39.925653  5562 layer_factory.hpp:77] Creating layer layer_256_2_conv1
I0529 17:44:39.925663  5562 net.cpp:84] Creating Layer layer_256_2_conv1
I0529 17:44:39.925668  5562 net.cpp:406] layer_256_2_conv1 <- layer_256_2_bn1
I0529 17:44:39.925676  5562 net.cpp:380] layer_256_2_conv1 -> layer_256_2_conv1
I0529 17:44:39.944412  5562 net.cpp:122] Setting up layer_256_2_conv1
I0529 17:44:39.944439  5562 net.cpp:129] Top shape: 30 256 14 14 (1505280)
I0529 17:44:39.944444  5562 net.cpp:137] Memory required for data: 1926758760
I0529 17:44:39.944449  5562 layer_factory.hpp:77] Creating layer layer_256_2_bn2
I0529 17:44:39.944458  5562 net.cpp:84] Creating Layer layer_256_2_bn2
I0529 17:44:39.944463  5562 net.cpp:406] layer_256_2_bn2 <- layer_256_2_conv1
I0529 17:44:39.944469  5562 net.cpp:367] layer_256_2_bn2 -> layer_256_2_conv1 (in-place)
I0529 17:44:39.944640  5562 net.cpp:122] Setting up layer_256_2_bn2
I0529 17:44:39.944650  5562 net.cpp:129] Top shape: 30 256 14 14 (1505280)
I0529 17:44:39.944664  5562 net.cpp:137] Memory required for data: 1932779880
I0529 17:44:39.944670  5562 layer_factory.hpp:77] Creating layer layer_256_2_scale2
I0529 17:44:39.944676  5562 net.cpp:84] Creating Layer layer_256_2_scale2
I0529 17:44:39.944681  5562 net.cpp:406] layer_256_2_scale2 <- layer_256_2_conv1
I0529 17:44:39.944686  5562 net.cpp:367] layer_256_2_scale2 -> layer_256_2_conv1 (in-place)
I0529 17:44:39.944736  5562 layer_factory.hpp:77] Creating layer layer_256_2_scale2
I0529 17:44:39.944872  5562 net.cpp:122] Setting up layer_256_2_scale2
I0529 17:44:39.944881  5562 net.cpp:129] Top shape: 30 256 14 14 (1505280)
I0529 17:44:39.944895  5562 net.cpp:137] Memory required for data: 1938801000
I0529 17:44:39.944913  5562 layer_factory.hpp:77] Creating layer layer_256_2_relu2
I0529 17:44:39.944921  5562 net.cpp:84] Creating Layer layer_256_2_relu2
I0529 17:44:39.944936  5562 net.cpp:406] layer_256_2_relu2 <- layer_256_2_conv1
I0529 17:44:39.944941  5562 net.cpp:367] layer_256_2_relu2 -> layer_256_2_conv1 (in-place)
I0529 17:44:39.945632  5562 net.cpp:122] Setting up layer_256_2_relu2
I0529 17:44:39.945647  5562 net.cpp:129] Top shape: 30 256 14 14 (1505280)
I0529 17:44:39.945662  5562 net.cpp:137] Memory required for data: 1944822120
I0529 17:44:39.945665  5562 layer_factory.hpp:77] Creating layer layer_256_2_conv2
I0529 17:44:39.945677  5562 net.cpp:84] Creating Layer layer_256_2_conv2
I0529 17:44:39.945682  5562 net.cpp:406] layer_256_2_conv2 <- layer_256_2_conv1
I0529 17:44:39.945688  5562 net.cpp:380] layer_256_2_conv2 -> layer_256_2_conv2
I0529 17:44:39.962937  5562 net.cpp:122] Setting up layer_256_2_conv2
I0529 17:44:39.962963  5562 net.cpp:129] Top shape: 30 256 14 14 (1505280)
I0529 17:44:39.962968  5562 net.cpp:137] Memory required for data: 1950843240
I0529 17:44:39.962973  5562 layer_factory.hpp:77] Creating layer layer_256_2_sum
I0529 17:44:39.962981  5562 net.cpp:84] Creating Layer layer_256_2_sum
I0529 17:44:39.962986  5562 net.cpp:406] layer_256_2_sum <- layer_256_2_conv2
I0529 17:44:39.962991  5562 net.cpp:406] layer_256_2_sum <- layer_256_1_sum_layer_256_1_sum_0_split_1
I0529 17:44:39.962996  5562 net.cpp:380] layer_256_2_sum -> layer_256_2_sum
I0529 17:44:39.963032  5562 net.cpp:122] Setting up layer_256_2_sum
I0529 17:44:39.963043  5562 net.cpp:129] Top shape: 30 256 14 14 (1505280)
I0529 17:44:39.963047  5562 net.cpp:137] Memory required for data: 1956864360
I0529 17:44:39.963050  5562 layer_factory.hpp:77] Creating layer layer_256_2_sum_layer_256_2_sum_0_split
I0529 17:44:39.963055  5562 net.cpp:84] Creating Layer layer_256_2_sum_layer_256_2_sum_0_split
I0529 17:44:39.963059  5562 net.cpp:406] layer_256_2_sum_layer_256_2_sum_0_split <- layer_256_2_sum
I0529 17:44:39.963064  5562 net.cpp:380] layer_256_2_sum_layer_256_2_sum_0_split -> layer_256_2_sum_layer_256_2_sum_0_split_0
I0529 17:44:39.963073  5562 net.cpp:380] layer_256_2_sum_layer_256_2_sum_0_split -> layer_256_2_sum_layer_256_2_sum_0_split_1
I0529 17:44:39.963104  5562 net.cpp:122] Setting up layer_256_2_sum_layer_256_2_sum_0_split
I0529 17:44:39.963125  5562 net.cpp:129] Top shape: 30 256 14 14 (1505280)
I0529 17:44:39.963141  5562 net.cpp:129] Top shape: 30 256 14 14 (1505280)
I0529 17:44:39.963145  5562 net.cpp:137] Memory required for data: 1968906600
I0529 17:44:39.963148  5562 layer_factory.hpp:77] Creating layer layer_256_3_bn1
I0529 17:44:39.963156  5562 net.cpp:84] Creating Layer layer_256_3_bn1
I0529 17:44:39.963160  5562 net.cpp:406] layer_256_3_bn1 <- layer_256_2_sum_layer_256_2_sum_0_split_0
I0529 17:44:39.963166  5562 net.cpp:380] layer_256_3_bn1 -> layer_256_3_bn1
I0529 17:44:39.963372  5562 net.cpp:122] Setting up layer_256_3_bn1
I0529 17:44:39.963390  5562 net.cpp:129] Top shape: 30 256 14 14 (1505280)
I0529 17:44:39.963393  5562 net.cpp:137] Memory required for data: 1974927720
I0529 17:44:39.963402  5562 layer_factory.hpp:77] Creating layer layer_256_3_scale1
I0529 17:44:39.963409  5562 net.cpp:84] Creating Layer layer_256_3_scale1
I0529 17:44:39.963424  5562 net.cpp:406] layer_256_3_scale1 <- layer_256_3_bn1
I0529 17:44:39.963431  5562 net.cpp:367] layer_256_3_scale1 -> layer_256_3_bn1 (in-place)
I0529 17:44:39.963484  5562 layer_factory.hpp:77] Creating layer layer_256_3_scale1
I0529 17:44:39.963596  5562 net.cpp:122] Setting up layer_256_3_scale1
I0529 17:44:39.963604  5562 net.cpp:129] Top shape: 30 256 14 14 (1505280)
I0529 17:44:39.963619  5562 net.cpp:137] Memory required for data: 1980948840
I0529 17:44:39.963624  5562 layer_factory.hpp:77] Creating layer layer_256_3_relu1
I0529 17:44:39.963631  5562 net.cpp:84] Creating Layer layer_256_3_relu1
I0529 17:44:39.963635  5562 net.cpp:406] layer_256_3_relu1 <- layer_256_3_bn1
I0529 17:44:39.963640  5562 net.cpp:367] layer_256_3_relu1 -> layer_256_3_bn1 (in-place)
I0529 17:44:39.964324  5562 net.cpp:122] Setting up layer_256_3_relu1
I0529 17:44:39.964350  5562 net.cpp:129] Top shape: 30 256 14 14 (1505280)
I0529 17:44:39.964355  5562 net.cpp:137] Memory required for data: 1986969960
I0529 17:44:39.964359  5562 layer_factory.hpp:77] Creating layer layer_256_3_conv1
I0529 17:44:39.964370  5562 net.cpp:84] Creating Layer layer_256_3_conv1
I0529 17:44:39.964380  5562 net.cpp:406] layer_256_3_conv1 <- layer_256_3_bn1
I0529 17:44:39.964390  5562 net.cpp:380] layer_256_3_conv1 -> layer_256_3_conv1
I0529 17:44:39.983659  5562 net.cpp:122] Setting up layer_256_3_conv1
I0529 17:44:39.983675  5562 net.cpp:129] Top shape: 30 256 14 14 (1505280)
I0529 17:44:39.983692  5562 net.cpp:137] Memory required for data: 1992991080
I0529 17:44:39.983700  5562 layer_factory.hpp:77] Creating layer layer_256_3_bn2
I0529 17:44:39.983706  5562 net.cpp:84] Creating Layer layer_256_3_bn2
I0529 17:44:39.983711  5562 net.cpp:406] layer_256_3_bn2 <- layer_256_3_conv1
I0529 17:44:39.983716  5562 net.cpp:367] layer_256_3_bn2 -> layer_256_3_conv1 (in-place)
I0529 17:44:39.983894  5562 net.cpp:122] Setting up layer_256_3_bn2
I0529 17:44:39.983906  5562 net.cpp:129] Top shape: 30 256 14 14 (1505280)
I0529 17:44:39.983908  5562 net.cpp:137] Memory required for data: 1999012200
I0529 17:44:39.983916  5562 layer_factory.hpp:77] Creating layer layer_256_3_scale2
I0529 17:44:39.983922  5562 net.cpp:84] Creating Layer layer_256_3_scale2
I0529 17:44:39.983927  5562 net.cpp:406] layer_256_3_scale2 <- layer_256_3_conv1
I0529 17:44:39.983932  5562 net.cpp:367] layer_256_3_scale2 -> layer_256_3_conv1 (in-place)
I0529 17:44:39.983974  5562 layer_factory.hpp:77] Creating layer layer_256_3_scale2
I0529 17:44:39.984071  5562 net.cpp:122] Setting up layer_256_3_scale2
I0529 17:44:39.984091  5562 net.cpp:129] Top shape: 30 256 14 14 (1505280)
I0529 17:44:39.984093  5562 net.cpp:137] Memory required for data: 2005033320
I0529 17:44:39.984109  5562 layer_factory.hpp:77] Creating layer layer_256_3_relu2
I0529 17:44:39.984122  5562 net.cpp:84] Creating Layer layer_256_3_relu2
I0529 17:44:39.984125  5562 net.cpp:406] layer_256_3_relu2 <- layer_256_3_conv1
I0529 17:44:39.984130  5562 net.cpp:367] layer_256_3_relu2 -> layer_256_3_conv1 (in-place)
I0529 17:44:39.984817  5562 net.cpp:122] Setting up layer_256_3_relu2
I0529 17:44:39.984830  5562 net.cpp:129] Top shape: 30 256 14 14 (1505280)
I0529 17:44:39.984845  5562 net.cpp:137] Memory required for data: 2011054440
I0529 17:44:39.984849  5562 layer_factory.hpp:77] Creating layer layer_256_3_conv2
I0529 17:44:39.984859  5562 net.cpp:84] Creating Layer layer_256_3_conv2
I0529 17:44:39.984864  5562 net.cpp:406] layer_256_3_conv2 <- layer_256_3_conv1
I0529 17:44:39.984870  5562 net.cpp:380] layer_256_3_conv2 -> layer_256_3_conv2
I0529 17:44:40.002733  5562 net.cpp:122] Setting up layer_256_3_conv2
I0529 17:44:40.002763  5562 net.cpp:129] Top shape: 30 256 14 14 (1505280)
I0529 17:44:40.002766  5562 net.cpp:137] Memory required for data: 2017075560
I0529 17:44:40.002794  5562 layer_factory.hpp:77] Creating layer layer_256_3_sum
I0529 17:44:40.002812  5562 net.cpp:84] Creating Layer layer_256_3_sum
I0529 17:44:40.002817  5562 net.cpp:406] layer_256_3_sum <- layer_256_3_conv2
I0529 17:44:40.002822  5562 net.cpp:406] layer_256_3_sum <- layer_256_2_sum_layer_256_2_sum_0_split_1
I0529 17:44:40.002830  5562 net.cpp:380] layer_256_3_sum -> layer_256_3_sum
I0529 17:44:40.002856  5562 net.cpp:122] Setting up layer_256_3_sum
I0529 17:44:40.002863  5562 net.cpp:129] Top shape: 30 256 14 14 (1505280)
I0529 17:44:40.002866  5562 net.cpp:137] Memory required for data: 2023096680
I0529 17:44:40.002869  5562 layer_factory.hpp:77] Creating layer layer_256_3_sum_layer_256_3_sum_0_split
I0529 17:44:40.002874  5562 net.cpp:84] Creating Layer layer_256_3_sum_layer_256_3_sum_0_split
I0529 17:44:40.002878  5562 net.cpp:406] layer_256_3_sum_layer_256_3_sum_0_split <- layer_256_3_sum
I0529 17:44:40.002883  5562 net.cpp:380] layer_256_3_sum_layer_256_3_sum_0_split -> layer_256_3_sum_layer_256_3_sum_0_split_0
I0529 17:44:40.002904  5562 net.cpp:380] layer_256_3_sum_layer_256_3_sum_0_split -> layer_256_3_sum_layer_256_3_sum_0_split_1
I0529 17:44:40.002941  5562 net.cpp:122] Setting up layer_256_3_sum_layer_256_3_sum_0_split
I0529 17:44:40.002948  5562 net.cpp:129] Top shape: 30 256 14 14 (1505280)
I0529 17:44:40.002951  5562 net.cpp:129] Top shape: 30 256 14 14 (1505280)
I0529 17:44:40.002954  5562 net.cpp:137] Memory required for data: 2035138920
I0529 17:44:40.002957  5562 layer_factory.hpp:77] Creating layer layer_256_4_bn1
I0529 17:44:40.002966  5562 net.cpp:84] Creating Layer layer_256_4_bn1
I0529 17:44:40.002970  5562 net.cpp:406] layer_256_4_bn1 <- layer_256_3_sum_layer_256_3_sum_0_split_0
I0529 17:44:40.002975  5562 net.cpp:380] layer_256_4_bn1 -> layer_256_4_bn1
I0529 17:44:40.003180  5562 net.cpp:122] Setting up layer_256_4_bn1
I0529 17:44:40.003190  5562 net.cpp:129] Top shape: 30 256 14 14 (1505280)
I0529 17:44:40.003204  5562 net.cpp:137] Memory required for data: 2041160040
I0529 17:44:40.003211  5562 layer_factory.hpp:77] Creating layer layer_256_4_scale1
I0529 17:44:40.003217  5562 net.cpp:84] Creating Layer layer_256_4_scale1
I0529 17:44:40.003221  5562 net.cpp:406] layer_256_4_scale1 <- layer_256_4_bn1
I0529 17:44:40.003228  5562 net.cpp:367] layer_256_4_scale1 -> layer_256_4_bn1 (in-place)
I0529 17:44:40.003300  5562 layer_factory.hpp:77] Creating layer layer_256_4_scale1
I0529 17:44:40.003443  5562 net.cpp:122] Setting up layer_256_4_scale1
I0529 17:44:40.003465  5562 net.cpp:129] Top shape: 30 256 14 14 (1505280)
I0529 17:44:40.003469  5562 net.cpp:137] Memory required for data: 2047181160
I0529 17:44:40.003475  5562 layer_factory.hpp:77] Creating layer layer_256_4_relu1
I0529 17:44:40.003480  5562 net.cpp:84] Creating Layer layer_256_4_relu1
I0529 17:44:40.003485  5562 net.cpp:406] layer_256_4_relu1 <- layer_256_4_bn1
I0529 17:44:40.003500  5562 net.cpp:367] layer_256_4_relu1 -> layer_256_4_bn1 (in-place)
I0529 17:44:40.004266  5562 net.cpp:122] Setting up layer_256_4_relu1
I0529 17:44:40.004281  5562 net.cpp:129] Top shape: 30 256 14 14 (1505280)
I0529 17:44:40.004295  5562 net.cpp:137] Memory required for data: 2053202280
I0529 17:44:40.004299  5562 layer_factory.hpp:77] Creating layer layer_256_4_conv1
I0529 17:44:40.004308  5562 net.cpp:84] Creating Layer layer_256_4_conv1
I0529 17:44:40.004313  5562 net.cpp:406] layer_256_4_conv1 <- layer_256_4_bn1
I0529 17:44:40.004319  5562 net.cpp:380] layer_256_4_conv1 -> layer_256_4_conv1
I0529 17:44:40.021567  5562 net.cpp:122] Setting up layer_256_4_conv1
I0529 17:44:40.021596  5562 net.cpp:129] Top shape: 30 256 14 14 (1505280)
I0529 17:44:40.021601  5562 net.cpp:137] Memory required for data: 2059223400
I0529 17:44:40.021606  5562 layer_factory.hpp:77] Creating layer layer_256_4_bn2
I0529 17:44:40.021615  5562 net.cpp:84] Creating Layer layer_256_4_bn2
I0529 17:44:40.021620  5562 net.cpp:406] layer_256_4_bn2 <- layer_256_4_conv1
I0529 17:44:40.021627  5562 net.cpp:367] layer_256_4_bn2 -> layer_256_4_conv1 (in-place)
I0529 17:44:40.021814  5562 net.cpp:122] Setting up layer_256_4_bn2
I0529 17:44:40.021836  5562 net.cpp:129] Top shape: 30 256 14 14 (1505280)
I0529 17:44:40.021839  5562 net.cpp:137] Memory required for data: 2065244520
I0529 17:44:40.021857  5562 layer_factory.hpp:77] Creating layer layer_256_4_scale2
I0529 17:44:40.021875  5562 net.cpp:84] Creating Layer layer_256_4_scale2
I0529 17:44:40.021880  5562 net.cpp:406] layer_256_4_scale2 <- layer_256_4_conv1
I0529 17:44:40.021895  5562 net.cpp:367] layer_256_4_scale2 -> layer_256_4_conv1 (in-place)
I0529 17:44:40.021947  5562 layer_factory.hpp:77] Creating layer layer_256_4_scale2
I0529 17:44:40.022078  5562 net.cpp:122] Setting up layer_256_4_scale2
I0529 17:44:40.022099  5562 net.cpp:129] Top shape: 30 256 14 14 (1505280)
I0529 17:44:40.022101  5562 net.cpp:137] Memory required for data: 2071265640
I0529 17:44:40.022119  5562 layer_factory.hpp:77] Creating layer layer_256_4_relu2
I0529 17:44:40.022135  5562 net.cpp:84] Creating Layer layer_256_4_relu2
I0529 17:44:40.022140  5562 net.cpp:406] layer_256_4_relu2 <- layer_256_4_conv1
I0529 17:44:40.022181  5562 net.cpp:367] layer_256_4_relu2 -> layer_256_4_conv1 (in-place)
I0529 17:44:40.022902  5562 net.cpp:122] Setting up layer_256_4_relu2
I0529 17:44:40.022927  5562 net.cpp:129] Top shape: 30 256 14 14 (1505280)
I0529 17:44:40.022930  5562 net.cpp:137] Memory required for data: 2077286760
I0529 17:44:40.022934  5562 layer_factory.hpp:77] Creating layer layer_256_4_conv2
I0529 17:44:40.022944  5562 net.cpp:84] Creating Layer layer_256_4_conv2
I0529 17:44:40.022949  5562 net.cpp:406] layer_256_4_conv2 <- layer_256_4_conv1
I0529 17:44:40.022958  5562 net.cpp:380] layer_256_4_conv2 -> layer_256_4_conv2
I0529 17:44:40.040714  5562 net.cpp:122] Setting up layer_256_4_conv2
I0529 17:44:40.040740  5562 net.cpp:129] Top shape: 30 256 14 14 (1505280)
I0529 17:44:40.040745  5562 net.cpp:137] Memory required for data: 2083307880
I0529 17:44:40.040750  5562 layer_factory.hpp:77] Creating layer layer_256_4_sum
I0529 17:44:40.040756  5562 net.cpp:84] Creating Layer layer_256_4_sum
I0529 17:44:40.040760  5562 net.cpp:406] layer_256_4_sum <- layer_256_4_conv2
I0529 17:44:40.040766  5562 net.cpp:406] layer_256_4_sum <- layer_256_3_sum_layer_256_3_sum_0_split_1
I0529 17:44:40.040773  5562 net.cpp:380] layer_256_4_sum -> layer_256_4_sum
I0529 17:44:40.040810  5562 net.cpp:122] Setting up layer_256_4_sum
I0529 17:44:40.040818  5562 net.cpp:129] Top shape: 30 256 14 14 (1505280)
I0529 17:44:40.040822  5562 net.cpp:137] Memory required for data: 2089329000
I0529 17:44:40.040825  5562 layer_factory.hpp:77] Creating layer layer_256_4_sum_layer_256_4_sum_0_split
I0529 17:44:40.040830  5562 net.cpp:84] Creating Layer layer_256_4_sum_layer_256_4_sum_0_split
I0529 17:44:40.040834  5562 net.cpp:406] layer_256_4_sum_layer_256_4_sum_0_split <- layer_256_4_sum
I0529 17:44:40.040839  5562 net.cpp:380] layer_256_4_sum_layer_256_4_sum_0_split -> layer_256_4_sum_layer_256_4_sum_0_split_0
I0529 17:44:40.040846  5562 net.cpp:380] layer_256_4_sum_layer_256_4_sum_0_split -> layer_256_4_sum_layer_256_4_sum_0_split_1
I0529 17:44:40.040880  5562 net.cpp:122] Setting up layer_256_4_sum_layer_256_4_sum_0_split
I0529 17:44:40.040886  5562 net.cpp:129] Top shape: 30 256 14 14 (1505280)
I0529 17:44:40.040890  5562 net.cpp:129] Top shape: 30 256 14 14 (1505280)
I0529 17:44:40.040892  5562 net.cpp:137] Memory required for data: 2101371240
I0529 17:44:40.040896  5562 layer_factory.hpp:77] Creating layer layer_256_5_bn1
I0529 17:44:40.040904  5562 net.cpp:84] Creating Layer layer_256_5_bn1
I0529 17:44:40.040907  5562 net.cpp:406] layer_256_5_bn1 <- layer_256_4_sum_layer_256_4_sum_0_split_0
I0529 17:44:40.040913  5562 net.cpp:380] layer_256_5_bn1 -> layer_256_5_bn1
I0529 17:44:40.041101  5562 net.cpp:122] Setting up layer_256_5_bn1
I0529 17:44:40.041112  5562 net.cpp:129] Top shape: 30 256 14 14 (1505280)
I0529 17:44:40.041126  5562 net.cpp:137] Memory required for data: 2107392360
I0529 17:44:40.041134  5562 layer_factory.hpp:77] Creating layer layer_256_5_scale1
I0529 17:44:40.041141  5562 net.cpp:84] Creating Layer layer_256_5_scale1
I0529 17:44:40.041146  5562 net.cpp:406] layer_256_5_scale1 <- layer_256_5_bn1
I0529 17:44:40.041162  5562 net.cpp:367] layer_256_5_scale1 -> layer_256_5_bn1 (in-place)
I0529 17:44:40.041201  5562 layer_factory.hpp:77] Creating layer layer_256_5_scale1
I0529 17:44:40.041340  5562 net.cpp:122] Setting up layer_256_5_scale1
I0529 17:44:40.041348  5562 net.cpp:129] Top shape: 30 256 14 14 (1505280)
I0529 17:44:40.041363  5562 net.cpp:137] Memory required for data: 2113413480
I0529 17:44:40.041369  5562 layer_factory.hpp:77] Creating layer layer_256_5_relu1
I0529 17:44:40.041393  5562 net.cpp:84] Creating Layer layer_256_5_relu1
I0529 17:44:40.041409  5562 net.cpp:406] layer_256_5_relu1 <- layer_256_5_bn1
I0529 17:44:40.041414  5562 net.cpp:367] layer_256_5_relu1 -> layer_256_5_bn1 (in-place)
I0529 17:44:40.041651  5562 net.cpp:122] Setting up layer_256_5_relu1
I0529 17:44:40.041673  5562 net.cpp:129] Top shape: 30 256 14 14 (1505280)
I0529 17:44:40.041688  5562 net.cpp:137] Memory required for data: 2119434600
I0529 17:44:40.041704  5562 layer_factory.hpp:77] Creating layer layer_256_5_conv1
I0529 17:44:40.041718  5562 net.cpp:84] Creating Layer layer_256_5_conv1
I0529 17:44:40.041733  5562 net.cpp:406] layer_256_5_conv1 <- layer_256_5_bn1
I0529 17:44:40.041738  5562 net.cpp:380] layer_256_5_conv1 -> layer_256_5_conv1
I0529 17:44:40.060552  5562 net.cpp:122] Setting up layer_256_5_conv1
I0529 17:44:40.060569  5562 net.cpp:129] Top shape: 30 256 14 14 (1505280)
I0529 17:44:40.060585  5562 net.cpp:137] Memory required for data: 2125455720
I0529 17:44:40.060590  5562 layer_factory.hpp:77] Creating layer layer_256_5_bn2
I0529 17:44:40.060598  5562 net.cpp:84] Creating Layer layer_256_5_bn2
I0529 17:44:40.060603  5562 net.cpp:406] layer_256_5_bn2 <- layer_256_5_conv1
I0529 17:44:40.060609  5562 net.cpp:367] layer_256_5_bn2 -> layer_256_5_conv1 (in-place)
I0529 17:44:40.060796  5562 net.cpp:122] Setting up layer_256_5_bn2
I0529 17:44:40.060806  5562 net.cpp:129] Top shape: 30 256 14 14 (1505280)
I0529 17:44:40.060809  5562 net.cpp:137] Memory required for data: 2131476840
I0529 17:44:40.060817  5562 layer_factory.hpp:77] Creating layer layer_256_5_scale2
I0529 17:44:40.060823  5562 net.cpp:84] Creating Layer layer_256_5_scale2
I0529 17:44:40.060827  5562 net.cpp:406] layer_256_5_scale2 <- layer_256_5_conv1
I0529 17:44:40.060835  5562 net.cpp:367] layer_256_5_scale2 -> layer_256_5_conv1 (in-place)
I0529 17:44:40.060874  5562 layer_factory.hpp:77] Creating layer layer_256_5_scale2
I0529 17:44:40.061018  5562 net.cpp:122] Setting up layer_256_5_scale2
I0529 17:44:40.061039  5562 net.cpp:129] Top shape: 30 256 14 14 (1505280)
I0529 17:44:40.061043  5562 net.cpp:137] Memory required for data: 2137497960
I0529 17:44:40.061059  5562 layer_factory.hpp:77] Creating layer layer_256_5_relu2
I0529 17:44:40.061064  5562 net.cpp:84] Creating Layer layer_256_5_relu2
I0529 17:44:40.061069  5562 net.cpp:406] layer_256_5_relu2 <- layer_256_5_conv1
I0529 17:44:40.061074  5562 net.cpp:367] layer_256_5_relu2 -> layer_256_5_conv1 (in-place)
I0529 17:44:40.061794  5562 net.cpp:122] Setting up layer_256_5_relu2
I0529 17:44:40.061808  5562 net.cpp:129] Top shape: 30 256 14 14 (1505280)
I0529 17:44:40.061823  5562 net.cpp:137] Memory required for data: 2143519080
I0529 17:44:40.061827  5562 layer_factory.hpp:77] Creating layer layer_256_5_conv2
I0529 17:44:40.061842  5562 net.cpp:84] Creating Layer layer_256_5_conv2
I0529 17:44:40.061847  5562 net.cpp:406] layer_256_5_conv2 <- layer_256_5_conv1
I0529 17:44:40.061854  5562 net.cpp:380] layer_256_5_conv2 -> layer_256_5_conv2
I0529 17:44:40.079149  5562 net.cpp:122] Setting up layer_256_5_conv2
I0529 17:44:40.079164  5562 net.cpp:129] Top shape: 30 256 14 14 (1505280)
I0529 17:44:40.079180  5562 net.cpp:137] Memory required for data: 2149540200
I0529 17:44:40.079185  5562 layer_factory.hpp:77] Creating layer layer_256_5_sum
I0529 17:44:40.079192  5562 net.cpp:84] Creating Layer layer_256_5_sum
I0529 17:44:40.079196  5562 net.cpp:406] layer_256_5_sum <- layer_256_5_conv2
I0529 17:44:40.079201  5562 net.cpp:406] layer_256_5_sum <- layer_256_4_sum_layer_256_4_sum_0_split_1
I0529 17:44:40.079206  5562 net.cpp:380] layer_256_5_sum -> layer_256_5_sum
I0529 17:44:40.079246  5562 net.cpp:122] Setting up layer_256_5_sum
I0529 17:44:40.079253  5562 net.cpp:129] Top shape: 30 256 14 14 (1505280)
I0529 17:44:40.079257  5562 net.cpp:137] Memory required for data: 2155561320
I0529 17:44:40.079259  5562 layer_factory.hpp:77] Creating layer layer_256_5_sum_layer_256_5_sum_0_split
I0529 17:44:40.079282  5562 net.cpp:84] Creating Layer layer_256_5_sum_layer_256_5_sum_0_split
I0529 17:44:40.079285  5562 net.cpp:406] layer_256_5_sum_layer_256_5_sum_0_split <- layer_256_5_sum
I0529 17:44:40.079291  5562 net.cpp:380] layer_256_5_sum_layer_256_5_sum_0_split -> layer_256_5_sum_layer_256_5_sum_0_split_0
I0529 17:44:40.079298  5562 net.cpp:380] layer_256_5_sum_layer_256_5_sum_0_split -> layer_256_5_sum_layer_256_5_sum_0_split_1
I0529 17:44:40.079332  5562 net.cpp:122] Setting up layer_256_5_sum_layer_256_5_sum_0_split
I0529 17:44:40.079350  5562 net.cpp:129] Top shape: 30 256 14 14 (1505280)
I0529 17:44:40.079355  5562 net.cpp:129] Top shape: 30 256 14 14 (1505280)
I0529 17:44:40.079358  5562 net.cpp:137] Memory required for data: 2167603560
I0529 17:44:40.079362  5562 layer_factory.hpp:77] Creating layer layer_256_6_bn1
I0529 17:44:40.079370  5562 net.cpp:84] Creating Layer layer_256_6_bn1
I0529 17:44:40.079381  5562 net.cpp:406] layer_256_6_bn1 <- layer_256_5_sum_layer_256_5_sum_0_split_0
I0529 17:44:40.079399  5562 net.cpp:380] layer_256_6_bn1 -> layer_256_6_bn1
I0529 17:44:40.079620  5562 net.cpp:122] Setting up layer_256_6_bn1
I0529 17:44:40.079643  5562 net.cpp:129] Top shape: 30 256 14 14 (1505280)
I0529 17:44:40.079656  5562 net.cpp:137] Memory required for data: 2173624680
I0529 17:44:40.079663  5562 layer_factory.hpp:77] Creating layer layer_256_6_scale1
I0529 17:44:40.079681  5562 net.cpp:84] Creating Layer layer_256_6_scale1
I0529 17:44:40.079685  5562 net.cpp:406] layer_256_6_scale1 <- layer_256_6_bn1
I0529 17:44:40.079692  5562 net.cpp:367] layer_256_6_scale1 -> layer_256_6_bn1 (in-place)
I0529 17:44:40.079735  5562 layer_factory.hpp:77] Creating layer layer_256_6_scale1
I0529 17:44:40.079860  5562 net.cpp:122] Setting up layer_256_6_scale1
I0529 17:44:40.079881  5562 net.cpp:129] Top shape: 30 256 14 14 (1505280)
I0529 17:44:40.079885  5562 net.cpp:137] Memory required for data: 2179645800
I0529 17:44:40.079902  5562 layer_factory.hpp:77] Creating layer layer_256_6_relu1
I0529 17:44:40.079918  5562 net.cpp:84] Creating Layer layer_256_6_relu1
I0529 17:44:40.079922  5562 net.cpp:406] layer_256_6_relu1 <- layer_256_6_bn1
I0529 17:44:40.079927  5562 net.cpp:367] layer_256_6_relu1 -> layer_256_6_bn1 (in-place)
I0529 17:44:40.080627  5562 net.cpp:122] Setting up layer_256_6_relu1
I0529 17:44:40.080641  5562 net.cpp:129] Top shape: 30 256 14 14 (1505280)
I0529 17:44:40.080657  5562 net.cpp:137] Memory required for data: 2185666920
I0529 17:44:40.080659  5562 layer_factory.hpp:77] Creating layer layer_256_6_conv1
I0529 17:44:40.080672  5562 net.cpp:84] Creating Layer layer_256_6_conv1
I0529 17:44:40.080677  5562 net.cpp:406] layer_256_6_conv1 <- layer_256_6_bn1
I0529 17:44:40.080682  5562 net.cpp:380] layer_256_6_conv1 -> layer_256_6_conv1
I0529 17:44:40.098424  5562 net.cpp:122] Setting up layer_256_6_conv1
I0529 17:44:40.098453  5562 net.cpp:129] Top shape: 30 256 14 14 (1505280)
I0529 17:44:40.098456  5562 net.cpp:137] Memory required for data: 2191688040
I0529 17:44:40.098462  5562 layer_factory.hpp:77] Creating layer layer_256_6_bn2
I0529 17:44:40.098469  5562 net.cpp:84] Creating Layer layer_256_6_bn2
I0529 17:44:40.098474  5562 net.cpp:406] layer_256_6_bn2 <- layer_256_6_conv1
I0529 17:44:40.098480  5562 net.cpp:367] layer_256_6_bn2 -> layer_256_6_conv1 (in-place)
I0529 17:44:40.098708  5562 net.cpp:122] Setting up layer_256_6_bn2
I0529 17:44:40.098728  5562 net.cpp:129] Top shape: 30 256 14 14 (1505280)
I0529 17:44:40.098731  5562 net.cpp:137] Memory required for data: 2197709160
I0529 17:44:40.098749  5562 layer_factory.hpp:77] Creating layer layer_256_6_scale2
I0529 17:44:40.098769  5562 net.cpp:84] Creating Layer layer_256_6_scale2
I0529 17:44:40.098773  5562 net.cpp:406] layer_256_6_scale2 <- layer_256_6_conv1
I0529 17:44:40.098778  5562 net.cpp:367] layer_256_6_scale2 -> layer_256_6_conv1 (in-place)
I0529 17:44:40.098844  5562 layer_factory.hpp:77] Creating layer layer_256_6_scale2
I0529 17:44:40.098981  5562 net.cpp:122] Setting up layer_256_6_scale2
I0529 17:44:40.098989  5562 net.cpp:129] Top shape: 30 256 14 14 (1505280)
I0529 17:44:40.099004  5562 net.cpp:137] Memory required for data: 2203730280
I0529 17:44:40.099009  5562 layer_factory.hpp:77] Creating layer layer_256_6_relu2
I0529 17:44:40.099015  5562 net.cpp:84] Creating Layer layer_256_6_relu2
I0529 17:44:40.099021  5562 net.cpp:406] layer_256_6_relu2 <- layer_256_6_conv1
I0529 17:44:40.099025  5562 net.cpp:367] layer_256_6_relu2 -> layer_256_6_conv1 (in-place)
I0529 17:44:40.099274  5562 net.cpp:122] Setting up layer_256_6_relu2
I0529 17:44:40.099309  5562 net.cpp:129] Top shape: 30 256 14 14 (1505280)
I0529 17:44:40.099324  5562 net.cpp:137] Memory required for data: 2209751400
I0529 17:44:40.099328  5562 layer_factory.hpp:77] Creating layer layer_256_6_conv2
I0529 17:44:40.099350  5562 net.cpp:84] Creating Layer layer_256_6_conv2
I0529 17:44:40.099355  5562 net.cpp:406] layer_256_6_conv2 <- layer_256_6_conv1
I0529 17:44:40.099364  5562 net.cpp:380] layer_256_6_conv2 -> layer_256_6_conv2
I0529 17:44:40.117508  5562 net.cpp:122] Setting up layer_256_6_conv2
I0529 17:44:40.117537  5562 net.cpp:129] Top shape: 30 256 14 14 (1505280)
I0529 17:44:40.117542  5562 net.cpp:137] Memory required for data: 2215772520
I0529 17:44:40.117547  5562 layer_factory.hpp:77] Creating layer layer_256_6_sum
I0529 17:44:40.117553  5562 net.cpp:84] Creating Layer layer_256_6_sum
I0529 17:44:40.117558  5562 net.cpp:406] layer_256_6_sum <- layer_256_6_conv2
I0529 17:44:40.117563  5562 net.cpp:406] layer_256_6_sum <- layer_256_5_sum_layer_256_5_sum_0_split_1
I0529 17:44:40.117569  5562 net.cpp:380] layer_256_6_sum -> layer_256_6_sum
I0529 17:44:40.117609  5562 net.cpp:122] Setting up layer_256_6_sum
I0529 17:44:40.117615  5562 net.cpp:129] Top shape: 30 256 14 14 (1505280)
I0529 17:44:40.117619  5562 net.cpp:137] Memory required for data: 2221793640
I0529 17:44:40.117621  5562 layer_factory.hpp:77] Creating layer layer_512_1_bn1
I0529 17:44:40.117630  5562 net.cpp:84] Creating Layer layer_512_1_bn1
I0529 17:44:40.117633  5562 net.cpp:406] layer_512_1_bn1 <- layer_256_6_sum
I0529 17:44:40.117640  5562 net.cpp:380] layer_512_1_bn1 -> layer_512_1_bn1
I0529 17:44:40.117862  5562 net.cpp:122] Setting up layer_512_1_bn1
I0529 17:44:40.117872  5562 net.cpp:129] Top shape: 30 256 14 14 (1505280)
I0529 17:44:40.117887  5562 net.cpp:137] Memory required for data: 2227814760
I0529 17:44:40.117893  5562 layer_factory.hpp:77] Creating layer layer_512_1_scale1
I0529 17:44:40.117911  5562 net.cpp:84] Creating Layer layer_512_1_scale1
I0529 17:44:40.117915  5562 net.cpp:406] layer_512_1_scale1 <- layer_512_1_bn1
I0529 17:44:40.117920  5562 net.cpp:367] layer_512_1_scale1 -> layer_512_1_bn1 (in-place)
I0529 17:44:40.117985  5562 layer_factory.hpp:77] Creating layer layer_512_1_scale1
I0529 17:44:40.118134  5562 net.cpp:122] Setting up layer_512_1_scale1
I0529 17:44:40.118142  5562 net.cpp:129] Top shape: 30 256 14 14 (1505280)
I0529 17:44:40.118157  5562 net.cpp:137] Memory required for data: 2233835880
I0529 17:44:40.118162  5562 layer_factory.hpp:77] Creating layer layer_512_1_relu1
I0529 17:44:40.118170  5562 net.cpp:84] Creating Layer layer_512_1_relu1
I0529 17:44:40.118173  5562 net.cpp:406] layer_512_1_relu1 <- layer_512_1_bn1
I0529 17:44:40.118178  5562 net.cpp:367] layer_512_1_relu1 -> layer_512_1_bn1 (in-place)
I0529 17:44:40.118932  5562 net.cpp:122] Setting up layer_512_1_relu1
I0529 17:44:40.118959  5562 net.cpp:129] Top shape: 30 256 14 14 (1505280)
I0529 17:44:40.118963  5562 net.cpp:137] Memory required for data: 2239857000
I0529 17:44:40.118966  5562 layer_factory.hpp:77] Creating layer layer_512_1_bn1_layer_512_1_relu1_0_split
I0529 17:44:40.118973  5562 net.cpp:84] Creating Layer layer_512_1_bn1_layer_512_1_relu1_0_split
I0529 17:44:40.118976  5562 net.cpp:406] layer_512_1_bn1_layer_512_1_relu1_0_split <- layer_512_1_bn1
I0529 17:44:40.118983  5562 net.cpp:380] layer_512_1_bn1_layer_512_1_relu1_0_split -> layer_512_1_bn1_layer_512_1_relu1_0_split_0
I0529 17:44:40.118989  5562 net.cpp:380] layer_512_1_bn1_layer_512_1_relu1_0_split -> layer_512_1_bn1_layer_512_1_relu1_0_split_1
I0529 17:44:40.119045  5562 net.cpp:122] Setting up layer_512_1_bn1_layer_512_1_relu1_0_split
I0529 17:44:40.119051  5562 net.cpp:129] Top shape: 30 256 14 14 (1505280)
I0529 17:44:40.119055  5562 net.cpp:129] Top shape: 30 256 14 14 (1505280)
I0529 17:44:40.119058  5562 net.cpp:137] Memory required for data: 2251899240
I0529 17:44:40.119061  5562 layer_factory.hpp:77] Creating layer layer_512_1_conv1
I0529 17:44:40.119072  5562 net.cpp:84] Creating Layer layer_512_1_conv1
I0529 17:44:40.119076  5562 net.cpp:406] layer_512_1_conv1 <- layer_512_1_bn1_layer_512_1_relu1_0_split_0
I0529 17:44:40.119096  5562 net.cpp:380] layer_512_1_conv1 -> layer_512_1_conv1
I0529 17:44:40.152385  5562 net.cpp:122] Setting up layer_512_1_conv1
I0529 17:44:40.152411  5562 net.cpp:129] Top shape: 30 512 7 7 (752640)
I0529 17:44:40.152415  5562 net.cpp:137] Memory required for data: 2254909800
I0529 17:44:40.152421  5562 layer_factory.hpp:77] Creating layer layer_512_1_bn2
I0529 17:44:40.152431  5562 net.cpp:84] Creating Layer layer_512_1_bn2
I0529 17:44:40.152436  5562 net.cpp:406] layer_512_1_bn2 <- layer_512_1_conv1
I0529 17:44:40.152441  5562 net.cpp:367] layer_512_1_bn2 -> layer_512_1_conv1 (in-place)
I0529 17:44:40.152707  5562 net.cpp:122] Setting up layer_512_1_bn2
I0529 17:44:40.152717  5562 net.cpp:129] Top shape: 30 512 7 7 (752640)
I0529 17:44:40.152732  5562 net.cpp:137] Memory required for data: 2257920360
I0529 17:44:40.152740  5562 layer_factory.hpp:77] Creating layer layer_512_1_scale2
I0529 17:44:40.152745  5562 net.cpp:84] Creating Layer layer_512_1_scale2
I0529 17:44:40.152750  5562 net.cpp:406] layer_512_1_scale2 <- layer_512_1_conv1
I0529 17:44:40.152755  5562 net.cpp:367] layer_512_1_scale2 -> layer_512_1_conv1 (in-place)
I0529 17:44:40.152838  5562 layer_factory.hpp:77] Creating layer layer_512_1_scale2
I0529 17:44:40.152995  5562 net.cpp:122] Setting up layer_512_1_scale2
I0529 17:44:40.153005  5562 net.cpp:129] Top shape: 30 512 7 7 (752640)
I0529 17:44:40.153019  5562 net.cpp:137] Memory required for data: 2260930920
I0529 17:44:40.153025  5562 layer_factory.hpp:77] Creating layer layer_512_1_relu2
I0529 17:44:40.153031  5562 net.cpp:84] Creating Layer layer_512_1_relu2
I0529 17:44:40.153035  5562 net.cpp:406] layer_512_1_relu2 <- layer_512_1_conv1
I0529 17:44:40.153051  5562 net.cpp:367] layer_512_1_relu2 -> layer_512_1_conv1 (in-place)
I0529 17:44:40.153779  5562 net.cpp:122] Setting up layer_512_1_relu2
I0529 17:44:40.153792  5562 net.cpp:129] Top shape: 30 512 7 7 (752640)
I0529 17:44:40.153807  5562 net.cpp:137] Memory required for data: 2263941480
I0529 17:44:40.153811  5562 layer_factory.hpp:77] Creating layer layer_512_1_conv2
I0529 17:44:40.153821  5562 net.cpp:84] Creating Layer layer_512_1_conv2
I0529 17:44:40.153826  5562 net.cpp:406] layer_512_1_conv2 <- layer_512_1_conv1
I0529 17:44:40.153836  5562 net.cpp:380] layer_512_1_conv2 -> layer_512_1_conv2
I0529 17:44:40.219424  5562 net.cpp:122] Setting up layer_512_1_conv2
I0529 17:44:40.219455  5562 net.cpp:129] Top shape: 30 512 7 7 (752640)
I0529 17:44:40.219458  5562 net.cpp:137] Memory required for data: 2266952040
I0529 17:44:40.219465  5562 layer_factory.hpp:77] Creating layer layer_512_1_conv_expand
I0529 17:44:40.219476  5562 net.cpp:84] Creating Layer layer_512_1_conv_expand
I0529 17:44:40.219481  5562 net.cpp:406] layer_512_1_conv_expand <- layer_512_1_bn1_layer_512_1_relu1_0_split_1
I0529 17:44:40.219488  5562 net.cpp:380] layer_512_1_conv_expand -> layer_512_1_conv_expand
I0529 17:44:40.224673  5562 net.cpp:122] Setting up layer_512_1_conv_expand
I0529 17:44:40.224687  5562 net.cpp:129] Top shape: 30 512 7 7 (752640)
I0529 17:44:40.224704  5562 net.cpp:137] Memory required for data: 2269962600
I0529 17:44:40.224709  5562 layer_factory.hpp:77] Creating layer layer_512_1_sum
I0529 17:44:40.224715  5562 net.cpp:84] Creating Layer layer_512_1_sum
I0529 17:44:40.224720  5562 net.cpp:406] layer_512_1_sum <- layer_512_1_conv_expand
I0529 17:44:40.224725  5562 net.cpp:406] layer_512_1_sum <- layer_512_1_conv2
I0529 17:44:40.224732  5562 net.cpp:380] layer_512_1_sum -> layer_512_1_sum
I0529 17:44:40.224771  5562 net.cpp:122] Setting up layer_512_1_sum
I0529 17:44:40.224779  5562 net.cpp:129] Top shape: 30 512 7 7 (752640)
I0529 17:44:40.224782  5562 net.cpp:137] Memory required for data: 2272973160
I0529 17:44:40.224786  5562 layer_factory.hpp:77] Creating layer layer_512_1_sum_layer_512_1_sum_0_split
I0529 17:44:40.224792  5562 net.cpp:84] Creating Layer layer_512_1_sum_layer_512_1_sum_0_split
I0529 17:44:40.224795  5562 net.cpp:406] layer_512_1_sum_layer_512_1_sum_0_split <- layer_512_1_sum
I0529 17:44:40.224813  5562 net.cpp:380] layer_512_1_sum_layer_512_1_sum_0_split -> layer_512_1_sum_layer_512_1_sum_0_split_0
I0529 17:44:40.224822  5562 net.cpp:380] layer_512_1_sum_layer_512_1_sum_0_split -> layer_512_1_sum_layer_512_1_sum_0_split_1
I0529 17:44:40.224864  5562 net.cpp:122] Setting up layer_512_1_sum_layer_512_1_sum_0_split
I0529 17:44:40.224870  5562 net.cpp:129] Top shape: 30 512 7 7 (752640)
I0529 17:44:40.224874  5562 net.cpp:129] Top shape: 30 512 7 7 (752640)
I0529 17:44:40.224877  5562 net.cpp:137] Memory required for data: 2278994280
I0529 17:44:40.224880  5562 layer_factory.hpp:77] Creating layer layer_512_2_bn1
I0529 17:44:40.224889  5562 net.cpp:84] Creating Layer layer_512_2_bn1
I0529 17:44:40.224892  5562 net.cpp:406] layer_512_2_bn1 <- layer_512_1_sum_layer_512_1_sum_0_split_0
I0529 17:44:40.224897  5562 net.cpp:380] layer_512_2_bn1 -> layer_512_2_bn1
I0529 17:44:40.225152  5562 net.cpp:122] Setting up layer_512_2_bn1
I0529 17:44:40.225162  5562 net.cpp:129] Top shape: 30 512 7 7 (752640)
I0529 17:44:40.225177  5562 net.cpp:137] Memory required for data: 2282004840
I0529 17:44:40.225184  5562 layer_factory.hpp:77] Creating layer layer_512_2_scale1
I0529 17:44:40.225190  5562 net.cpp:84] Creating Layer layer_512_2_scale1
I0529 17:44:40.225195  5562 net.cpp:406] layer_512_2_scale1 <- layer_512_2_bn1
I0529 17:44:40.225213  5562 net.cpp:367] layer_512_2_scale1 -> layer_512_2_bn1 (in-place)
I0529 17:44:40.225275  5562 layer_factory.hpp:77] Creating layer layer_512_2_scale1
I0529 17:44:40.225440  5562 net.cpp:122] Setting up layer_512_2_scale1
I0529 17:44:40.225463  5562 net.cpp:129] Top shape: 30 512 7 7 (752640)
I0529 17:44:40.225478  5562 net.cpp:137] Memory required for data: 2285015400
I0529 17:44:40.225494  5562 layer_factory.hpp:77] Creating layer layer_512_2_relu1
I0529 17:44:40.225500  5562 net.cpp:84] Creating Layer layer_512_2_relu1
I0529 17:44:40.225505  5562 net.cpp:406] layer_512_2_relu1 <- layer_512_2_bn1
I0529 17:44:40.225509  5562 net.cpp:367] layer_512_2_relu1 -> layer_512_2_bn1 (in-place)
I0529 17:44:40.226191  5562 net.cpp:122] Setting up layer_512_2_relu1
I0529 17:44:40.226205  5562 net.cpp:129] Top shape: 30 512 7 7 (752640)
I0529 17:44:40.226220  5562 net.cpp:137] Memory required for data: 2288025960
I0529 17:44:40.226224  5562 layer_factory.hpp:77] Creating layer layer_512_2_conv1
I0529 17:44:40.226234  5562 net.cpp:84] Creating Layer layer_512_2_conv1
I0529 17:44:40.226239  5562 net.cpp:406] layer_512_2_conv1 <- layer_512_2_bn1
I0529 17:44:40.226248  5562 net.cpp:380] layer_512_2_conv1 -> layer_512_2_conv1
I0529 17:44:40.291710  5562 net.cpp:122] Setting up layer_512_2_conv1
I0529 17:44:40.291740  5562 net.cpp:129] Top shape: 30 512 7 7 (752640)
I0529 17:44:40.291744  5562 net.cpp:137] Memory required for data: 2291036520
I0529 17:44:40.291750  5562 layer_factory.hpp:77] Creating layer layer_512_2_bn2
I0529 17:44:40.291757  5562 net.cpp:84] Creating Layer layer_512_2_bn2
I0529 17:44:40.291761  5562 net.cpp:406] layer_512_2_bn2 <- layer_512_2_conv1
I0529 17:44:40.291769  5562 net.cpp:367] layer_512_2_bn2 -> layer_512_2_conv1 (in-place)
I0529 17:44:40.292021  5562 net.cpp:122] Setting up layer_512_2_bn2
I0529 17:44:40.292032  5562 net.cpp:129] Top shape: 30 512 7 7 (752640)
I0529 17:44:40.292045  5562 net.cpp:137] Memory required for data: 2294047080
I0529 17:44:40.292052  5562 layer_factory.hpp:77] Creating layer layer_512_2_scale2
I0529 17:44:40.292064  5562 net.cpp:84] Creating Layer layer_512_2_scale2
I0529 17:44:40.292068  5562 net.cpp:406] layer_512_2_scale2 <- layer_512_2_conv1
I0529 17:44:40.292074  5562 net.cpp:367] layer_512_2_scale2 -> layer_512_2_conv1 (in-place)
I0529 17:44:40.292155  5562 layer_factory.hpp:77] Creating layer layer_512_2_scale2
I0529 17:44:40.292320  5562 net.cpp:122] Setting up layer_512_2_scale2
I0529 17:44:40.292330  5562 net.cpp:129] Top shape: 30 512 7 7 (752640)
I0529 17:44:40.292345  5562 net.cpp:137] Memory required for data: 2297057640
I0529 17:44:40.292351  5562 layer_factory.hpp:77] Creating layer layer_512_2_relu2
I0529 17:44:40.292368  5562 net.cpp:84] Creating Layer layer_512_2_relu2
I0529 17:44:40.292402  5562 net.cpp:406] layer_512_2_relu2 <- layer_512_2_conv1
I0529 17:44:40.292409  5562 net.cpp:367] layer_512_2_relu2 -> layer_512_2_conv1 (in-place)
I0529 17:44:40.292614  5562 net.cpp:122] Setting up layer_512_2_relu2
I0529 17:44:40.292639  5562 net.cpp:129] Top shape: 30 512 7 7 (752640)
I0529 17:44:40.292652  5562 net.cpp:137] Memory required for data: 2300068200
I0529 17:44:40.292655  5562 layer_factory.hpp:77] Creating layer layer_512_2_conv2
I0529 17:44:40.292676  5562 net.cpp:84] Creating Layer layer_512_2_conv2
I0529 17:44:40.292681  5562 net.cpp:406] layer_512_2_conv2 <- layer_512_2_conv1
I0529 17:44:40.292701  5562 net.cpp:380] layer_512_2_conv2 -> layer_512_2_conv2
I0529 17:44:40.358156  5562 net.cpp:122] Setting up layer_512_2_conv2
I0529 17:44:40.358173  5562 net.cpp:129] Top shape: 30 512 7 7 (752640)
I0529 17:44:40.358189  5562 net.cpp:137] Memory required for data: 2303078760
I0529 17:44:40.358194  5562 layer_factory.hpp:77] Creating layer layer_512_2_sum
I0529 17:44:40.358201  5562 net.cpp:84] Creating Layer layer_512_2_sum
I0529 17:44:40.358206  5562 net.cpp:406] layer_512_2_sum <- layer_512_2_conv2
I0529 17:44:40.358211  5562 net.cpp:406] layer_512_2_sum <- layer_512_1_sum_layer_512_1_sum_0_split_1
I0529 17:44:40.358217  5562 net.cpp:380] layer_512_2_sum -> layer_512_2_sum
I0529 17:44:40.358258  5562 net.cpp:122] Setting up layer_512_2_sum
I0529 17:44:40.358266  5562 net.cpp:129] Top shape: 30 512 7 7 (752640)
I0529 17:44:40.358270  5562 net.cpp:137] Memory required for data: 2306089320
I0529 17:44:40.358273  5562 layer_factory.hpp:77] Creating layer layer_512_2_sum_layer_512_2_sum_0_split
I0529 17:44:40.358278  5562 net.cpp:84] Creating Layer layer_512_2_sum_layer_512_2_sum_0_split
I0529 17:44:40.358283  5562 net.cpp:406] layer_512_2_sum_layer_512_2_sum_0_split <- layer_512_2_sum
I0529 17:44:40.358288  5562 net.cpp:380] layer_512_2_sum_layer_512_2_sum_0_split -> layer_512_2_sum_layer_512_2_sum_0_split_0
I0529 17:44:40.358294  5562 net.cpp:380] layer_512_2_sum_layer_512_2_sum_0_split -> layer_512_2_sum_layer_512_2_sum_0_split_1
I0529 17:44:40.358332  5562 net.cpp:122] Setting up layer_512_2_sum_layer_512_2_sum_0_split
I0529 17:44:40.358340  5562 net.cpp:129] Top shape: 30 512 7 7 (752640)
I0529 17:44:40.358343  5562 net.cpp:129] Top shape: 30 512 7 7 (752640)
I0529 17:44:40.358345  5562 net.cpp:137] Memory required for data: 2312110440
I0529 17:44:40.358350  5562 layer_factory.hpp:77] Creating layer layer_512_3_bn1
I0529 17:44:40.358356  5562 net.cpp:84] Creating Layer layer_512_3_bn1
I0529 17:44:40.358362  5562 net.cpp:406] layer_512_3_bn1 <- layer_512_2_sum_layer_512_2_sum_0_split_0
I0529 17:44:40.358367  5562 net.cpp:380] layer_512_3_bn1 -> layer_512_3_bn1
I0529 17:44:40.358634  5562 net.cpp:122] Setting up layer_512_3_bn1
I0529 17:44:40.358645  5562 net.cpp:129] Top shape: 30 512 7 7 (752640)
I0529 17:44:40.358649  5562 net.cpp:137] Memory required for data: 2315121000
I0529 17:44:40.358667  5562 layer_factory.hpp:77] Creating layer layer_512_3_scale1
I0529 17:44:40.358675  5562 net.cpp:84] Creating Layer layer_512_3_scale1
I0529 17:44:40.358680  5562 net.cpp:406] layer_512_3_scale1 <- layer_512_3_bn1
I0529 17:44:40.358685  5562 net.cpp:367] layer_512_3_scale1 -> layer_512_3_bn1 (in-place)
I0529 17:44:40.358738  5562 layer_factory.hpp:77] Creating layer layer_512_3_scale1
I0529 17:44:40.358918  5562 net.cpp:122] Setting up layer_512_3_scale1
I0529 17:44:40.358927  5562 net.cpp:129] Top shape: 30 512 7 7 (752640)
I0529 17:44:40.358942  5562 net.cpp:137] Memory required for data: 2318131560
I0529 17:44:40.358947  5562 layer_factory.hpp:77] Creating layer layer_512_3_relu1
I0529 17:44:40.358964  5562 net.cpp:84] Creating Layer layer_512_3_relu1
I0529 17:44:40.358968  5562 net.cpp:406] layer_512_3_relu1 <- layer_512_3_bn1
I0529 17:44:40.358978  5562 net.cpp:367] layer_512_3_relu1 -> layer_512_3_bn1 (in-place)
I0529 17:44:40.359724  5562 net.cpp:122] Setting up layer_512_3_relu1
I0529 17:44:40.359760  5562 net.cpp:129] Top shape: 30 512 7 7 (752640)
I0529 17:44:40.359763  5562 net.cpp:137] Memory required for data: 2321142120
I0529 17:44:40.359767  5562 layer_factory.hpp:77] Creating layer layer_512_3_conv1
I0529 17:44:40.359777  5562 net.cpp:84] Creating Layer layer_512_3_conv1
I0529 17:44:40.359782  5562 net.cpp:406] layer_512_3_conv1 <- layer_512_3_bn1
I0529 17:44:40.359791  5562 net.cpp:380] layer_512_3_conv1 -> layer_512_3_conv1
I0529 17:44:40.425429  5562 net.cpp:122] Setting up layer_512_3_conv1
I0529 17:44:40.425457  5562 net.cpp:129] Top shape: 30 512 7 7 (752640)
I0529 17:44:40.425463  5562 net.cpp:137] Memory required for data: 2324152680
I0529 17:44:40.425468  5562 layer_factory.hpp:77] Creating layer layer_512_3_bn2
I0529 17:44:40.425475  5562 net.cpp:84] Creating Layer layer_512_3_bn2
I0529 17:44:40.425480  5562 net.cpp:406] layer_512_3_bn2 <- layer_512_3_conv1
I0529 17:44:40.425488  5562 net.cpp:367] layer_512_3_bn2 -> layer_512_3_conv1 (in-place)
I0529 17:44:40.425752  5562 net.cpp:122] Setting up layer_512_3_bn2
I0529 17:44:40.425762  5562 net.cpp:129] Top shape: 30 512 7 7 (752640)
I0529 17:44:40.425776  5562 net.cpp:137] Memory required for data: 2327163240
I0529 17:44:40.425796  5562 layer_factory.hpp:77] Creating layer layer_512_3_scale2
I0529 17:44:40.425802  5562 net.cpp:84] Creating Layer layer_512_3_scale2
I0529 17:44:40.425818  5562 net.cpp:406] layer_512_3_scale2 <- layer_512_3_conv1
I0529 17:44:40.425823  5562 net.cpp:367] layer_512_3_scale2 -> layer_512_3_conv1 (in-place)
I0529 17:44:40.425899  5562 layer_factory.hpp:77] Creating layer layer_512_3_scale2
I0529 17:44:40.426049  5562 net.cpp:122] Setting up layer_512_3_scale2
I0529 17:44:40.426059  5562 net.cpp:129] Top shape: 30 512 7 7 (752640)
I0529 17:44:40.426072  5562 net.cpp:137] Memory required for data: 2330173800
I0529 17:44:40.426079  5562 layer_factory.hpp:77] Creating layer layer_512_3_relu2
I0529 17:44:40.426096  5562 net.cpp:84] Creating Layer layer_512_3_relu2
I0529 17:44:40.426101  5562 net.cpp:406] layer_512_3_relu2 <- layer_512_3_conv1
I0529 17:44:40.426118  5562 net.cpp:367] layer_512_3_relu2 -> layer_512_3_conv1 (in-place)
I0529 17:44:40.426846  5562 net.cpp:122] Setting up layer_512_3_relu2
I0529 17:44:40.426872  5562 net.cpp:129] Top shape: 30 512 7 7 (752640)
I0529 17:44:40.426877  5562 net.cpp:137] Memory required for data: 2333184360
I0529 17:44:40.426880  5562 layer_factory.hpp:77] Creating layer layer_512_3_conv2
I0529 17:44:40.426890  5562 net.cpp:84] Creating Layer layer_512_3_conv2
I0529 17:44:40.426895  5562 net.cpp:406] layer_512_3_conv2 <- layer_512_3_conv1
I0529 17:44:40.426901  5562 net.cpp:380] layer_512_3_conv2 -> layer_512_3_conv2
I0529 17:44:40.492372  5562 net.cpp:122] Setting up layer_512_3_conv2
I0529 17:44:40.492405  5562 net.cpp:129] Top shape: 30 512 7 7 (752640)
I0529 17:44:40.492409  5562 net.cpp:137] Memory required for data: 2336194920
I0529 17:44:40.492415  5562 layer_factory.hpp:77] Creating layer layer_512_3_sum
I0529 17:44:40.492421  5562 net.cpp:84] Creating Layer layer_512_3_sum
I0529 17:44:40.492426  5562 net.cpp:406] layer_512_3_sum <- layer_512_3_conv2
I0529 17:44:40.492431  5562 net.cpp:406] layer_512_3_sum <- layer_512_2_sum_layer_512_2_sum_0_split_1
I0529 17:44:40.492437  5562 net.cpp:380] layer_512_3_sum -> layer_512_3_sum
I0529 17:44:40.492482  5562 net.cpp:122] Setting up layer_512_3_sum
I0529 17:44:40.492489  5562 net.cpp:129] Top shape: 30 512 7 7 (752640)
I0529 17:44:40.492492  5562 net.cpp:137] Memory required for data: 2339205480
I0529 17:44:40.492496  5562 layer_factory.hpp:77] Creating layer last_bn
I0529 17:44:40.492504  5562 net.cpp:84] Creating Layer last_bn
I0529 17:44:40.492508  5562 net.cpp:406] last_bn <- layer_512_3_sum
I0529 17:44:40.492513  5562 net.cpp:367] last_bn -> layer_512_3_sum (in-place)
I0529 17:44:40.492734  5562 net.cpp:122] Setting up last_bn
I0529 17:44:40.492745  5562 net.cpp:129] Top shape: 30 512 7 7 (752640)
I0529 17:44:40.492760  5562 net.cpp:137] Memory required for data: 2342216040
I0529 17:44:40.492779  5562 layer_factory.hpp:77] Creating layer last_scale
I0529 17:44:40.492822  5562 net.cpp:84] Creating Layer last_scale
I0529 17:44:40.492827  5562 net.cpp:406] last_scale <- layer_512_3_sum
I0529 17:44:40.492833  5562 net.cpp:367] last_scale -> layer_512_3_sum (in-place)
I0529 17:44:40.492909  5562 layer_factory.hpp:77] Creating layer last_scale
I0529 17:44:40.493036  5562 net.cpp:122] Setting up last_scale
I0529 17:44:40.493046  5562 net.cpp:129] Top shape: 30 512 7 7 (752640)
I0529 17:44:40.493062  5562 net.cpp:137] Memory required for data: 2345226600
I0529 17:44:40.493067  5562 layer_factory.hpp:77] Creating layer last_relu
I0529 17:44:40.493088  5562 net.cpp:84] Creating Layer last_relu
I0529 17:44:40.493091  5562 net.cpp:406] last_relu <- layer_512_3_sum
I0529 17:44:40.493095  5562 net.cpp:367] last_relu -> layer_512_3_sum (in-place)
I0529 17:44:40.493338  5562 net.cpp:122] Setting up last_relu
I0529 17:44:40.493362  5562 net.cpp:129] Top shape: 30 512 7 7 (752640)
I0529 17:44:40.493366  5562 net.cpp:137] Memory required for data: 2348237160
I0529 17:44:40.493369  5562 layer_factory.hpp:77] Creating layer global_pool
I0529 17:44:40.493382  5562 net.cpp:84] Creating Layer global_pool
I0529 17:44:40.493387  5562 net.cpp:406] global_pool <- layer_512_3_sum
I0529 17:44:40.493396  5562 net.cpp:380] global_pool -> global_pool
I0529 17:44:40.494138  5562 net.cpp:122] Setting up global_pool
I0529 17:44:40.494164  5562 net.cpp:129] Top shape: 30 512 1 1 (15360)
I0529 17:44:40.494169  5562 net.cpp:137] Memory required for data: 2348298600
I0529 17:44:40.494173  5562 layer_factory.hpp:77] Creating layer score
I0529 17:44:40.494180  5562 net.cpp:84] Creating Layer score
I0529 17:44:40.494184  5562 net.cpp:406] score <- global_pool
I0529 17:44:40.494192  5562 net.cpp:380] score -> score
I0529 17:44:40.494340  5562 net.cpp:122] Setting up score
I0529 17:44:40.494362  5562 net.cpp:129] Top shape: 30 2 (60)
I0529 17:44:40.494366  5562 net.cpp:137] Memory required for data: 2348298840
I0529 17:44:40.494372  5562 layer_factory.hpp:77] Creating layer score_score_0_split
I0529 17:44:40.494385  5562 net.cpp:84] Creating Layer score_score_0_split
I0529 17:44:40.494390  5562 net.cpp:406] score_score_0_split <- score
I0529 17:44:40.494395  5562 net.cpp:380] score_score_0_split -> score_score_0_split_0
I0529 17:44:40.494401  5562 net.cpp:380] score_score_0_split -> score_score_0_split_1
I0529 17:44:40.494454  5562 net.cpp:122] Setting up score_score_0_split
I0529 17:44:40.494472  5562 net.cpp:129] Top shape: 30 2 (60)
I0529 17:44:40.494475  5562 net.cpp:129] Top shape: 30 2 (60)
I0529 17:44:40.494478  5562 net.cpp:137] Memory required for data: 2348299320
I0529 17:44:40.494482  5562 layer_factory.hpp:77] Creating layer loss
I0529 17:44:40.494498  5562 net.cpp:84] Creating Layer loss
I0529 17:44:40.494503  5562 net.cpp:406] loss <- score_score_0_split_0
I0529 17:44:40.494508  5562 net.cpp:406] loss <- label_data_1_split_0
I0529 17:44:40.494514  5562 net.cpp:380] loss -> loss
…
