…
I0528 22:24:53.532595 16815 net.cpp:294] The NetState phase (0) differed from the phase (1) specified by a rule in layer accuracy
I0528 22:24:53.533623 16815 net.cpp:51] Initializing net from parameters: 
name: "Pre-ResNet-34"
state {
  phase: TRAIN
  level: 0
  stage: ""
}
layer {
  name: "data"
  type: "Data"
  top: "data"
  top: "label"
  include {
    phase: TRAIN
  }
  transform_param {
    mirror: true
    crop_size: 224
    mean_file: "/storage/Test_fold_is_01/mean.binaryproto"
  }
  data_param {
    source: "/storage/Test_fold_is_01/gender_train_lmdb"
    batch_size: 50
    backend: LMDB
  }
}
layer {
  name: "data_bn"
  type: "BatchNorm"
  bottom: "data"
  top: "data_bn"
  param {
    lr_mult: 0
    decay_mult: 0
  }
  param {
    lr_mult: 0
    decay_mult: 0
  }
  param {
    lr_mult: 0
    decay_mult: 0
  }
}
layer {
  name: "data_scale"
  type: "Scale"
  bottom: "data_bn"
  top: "data_bn"
  param {
    lr_mult: 1
    decay_mult: 1
  }
  param {
    lr_mult: 2
    decay_mult: 1
  }
  scale_param {
    bias_term: true
  }
}
layer {
  name: "conv1"
  type: "Convolution"
  bottom: "data_bn"
  top: "conv1"
  param {
    lr_mult: 1
    decay_mult: 1
  }
  param {
    lr_mult: 2
    decay_mult: 1
  }
  convolution_param {
    num_output: 64
    pad: 3
    kernel_size: 7
    stride: 2
    weight_filler {
      type: "msra"
      variance_norm: FAN_OUT
    }
    bias_filler {
      type: "constant"
      value: 0
    }
  }
}
layer {
  name: "conv1_bn"
  type: "BatchNorm"
  bottom: "conv1"
  top: "conv1"
  param {
    lr_mult: 0
    decay_mult: 0
  }
  param {
    lr_mult: 0
    decay_mult: 0
  }
  param {
    lr_mult: 0
    decay_mult: 0
  }
}
layer {
  name: "conv1_scale"
  type: "Scale"
  bottom: "conv1"
  top: "conv1"
  param {
    lr_mult: 1
    decay_mult: 1
  }
  param {
    lr_mult: 2
    decay_mult: 1
  }
  scale_param {
    bias_term: true
  }
}
layer {
  name: "conv1_relu"
  type: "ReLU"
  bottom: "conv1"
  top: "conv1"
}
layer {
  name: "conv1_pool"
  type: "Pooling"
  bottom: "conv1"
  top: "conv1_pool"
  pooling_param {
    kernel_size: 3
    stride: 2
  }
}
layer {
  name: "layer_64_1_conv1"
  type: "Convolution"
  bottom: "conv1_pool"
  top: "layer_64_1_conv1"
  param {
    lr_mult: 1
    decay_mult: 1
  }
  convolution_param {
    num_output: 64
    bias_term: false
    pad: 1
    kernel_size: 3
    stride: 1
    weight_filler {
      type: "msra"
    }
    bias_filler {
      type: "constant"
      value: 0
    }
  }
}
layer {
  name: "layer_64_1_bn2"
  type: "BatchNorm"
  bottom: "layer_64_1_conv1"
  top: "layer_64_1_conv1"
  param {
    lr_mult: 0
    decay_mult: 0
  }
  param {
    lr_mult: 0
    decay_mult: 0
  }
  param {
    lr_mult: 0
    decay_mult: 0
  }
}
layer {
  name: "layer_64_1_scale2"
  type: "Scale"
  bottom: "layer_64_1_conv1"
  top: "layer_64_1_conv1"
  param {
    lr_mult: 1
    decay_mult: 1
  }
  param {
    lr_mult: 2
    decay_mult: 1
  }
  scale_param {
    bias_term: true
  }
}
layer {
  name: "layer_64_1_relu2"
  type: "ReLU"
  bottom: "layer_64_1_conv1"
  top: "layer_64_1_conv1"
}
layer {
  name: "layer_64_1_conv2"
  type: "Convolution"
  bottom: "layer_64_1_conv1"
  top: "layer_64_1_conv2"
  param {
    lr_mult: 1
    decay_mult: 1
  }
  convolution_param {
    num_output: 64
    bias_term: false
    pad: 1
    kernel_size: 3
    stride: 1
    weight_filler {
      type: "msra"
    }
    bias_filler {
      type: "constant"
      value: 0
    }
  }
}
layer {
  name: "layer_64_1_sum"
  type: "Eltwise"
  bottom: "layer_64_1_conv2"
  bottom: "conv1_pool"
  top: "layer_64_1_sum"
}
layer {
  name: "layer_64_2_bn1"
  type: "BatchNorm"
  bottom: "layer_64_1_sum"
  top: "layer_64_2_bn1"
  param {
    lr_mult: 0
    decay_mult: 0
  }
  param {
    lr_mult: 0
    decay_mult: 0
  }
  param {
    lr_mult: 0
    decay_mult: 0
  }
}
layer {
  name: "layer_64_2_scale1"
  type: "Scale"
  bottom: "layer_64_2_bn1"
  top: "layer_64_2_bn1"
  param {
    lr_mult: 1
    decay_mult: 1
  }
  param {
    lr_mult: 2
    decay_mult: 1
  }
  scale_param {
    bias_term: true
  }
}
layer {
  name: "layer_64_2_relu1"
  type: "ReLU"
  bottom: "layer_64_2_bn1"
  top: "layer_64_2_bn1"
}
layer {
  name: "layer_64_2_conv1"
  type: "Convolution"
  bottom: "layer_64_2_bn1"
  top: "layer_64_2_conv1"
  param {
    lr_mult: 1
    decay_mult: 1
  }
  convolution_param {
    num_output: 64
    bias_term: false
    pad: 1
    kernel_size: 3
    stride: 1
    weight_filler {
      type: "msra"
    }
    bias_filler {
      type: "constant"
      value: 0
    }
  }
}
layer {
  name: "layer_64_2_bn2"
  type: "BatchNorm"
  bottom: "layer_64_2_conv1"
  top: "layer_64_2_conv1"
  param {
    lr_mult: 0
    decay_mult: 0
  }
  param {
    lr_mult: 0
    decay_mult: 0
  }
  param {
    lr_mult: 0
    decay_mult: 0
  }
}
layer {
  name: "layer_64_2_scale2"
  type: "Scale"
  bottom: "layer_64_2_conv1"
  top: "layer_64_2_conv1"
  param {
    lr_mult: 1
    decay_mult: 1
  }
  param {
    lr_mult: 2
    decay_mult: 1
  }
  scale_param {
    bias_term: true
  }
}
layer {
  name: "layer_64_2_relu2"
  type: "ReLU"
  bottom: "layer_64_2_conv1"
  top: "layer_64_2_conv1"
}
layer {
  name: "layer_64_2_conv2"
  type: "Convolution"
  bottom: "layer_64_2_conv1"
  top: "layer_64_2_conv2"
  param {
    lr_mult: 1
    decay_mult: 1
  }
  convolution_param {
    num_output: 64
    bias_term: false
    pad: 1
    kernel_size: 3
    stride: 1
    weight_filler {
      type: "msra"
    }
    bias_filler {
      type: "constant"
      value: 0
    }
  }
}
layer {
  name: "layer_64_2_sum"
  type: "Eltwise"
  bottom: "layer_64_2_conv2"
  bottom: "layer_64_1_sum"
  top: "layer_64_2_sum"
}
layer {
  name: "layer_64_3_bn1"
  type: "BatchNorm"
  bottom: "layer_64_2_sum"
  top: "layer_64_3_bn1"
  param {
    lr_mult: 0
    decay_mult: 0
  }
  param {
    lr_mult: 0
    decay_mult: 0
  }
  param {
    lr_mult: 0
    decay_mult: 0
  }
}
layer {
  name: "layer_64_3_scale1"
  type: "Scale"
  bottom: "layer_64_3_bn1"
  top: "layer_64_3_bn1"
  param {
    lr_mult: 1
    decay_mult: 1
  }
  param {
    lr_mult: 2
    decay_mult: 1
  }
  scale_param {
    bias_term: true
  }
}
layer {
  name: "layer_64_3_relu1"
  type: "ReLU"
  bottom: "layer_64_3_bn1"
  top: "layer_64_3_bn1"
}
layer {
  name: "layer_64_3_conv1"
  type: "Convolution"
  bottom: "layer_64_3_bn1"
  top: "layer_64_3_conv1"
  param {
    lr_mult: 1
    decay_mult: 1
  }
  convolution_param {
    num_output: 64
    bias_term: false
    pad: 1
    kernel_size: 3
    stride: 1
    weight_filler {
      type: "msra"
    }
    bias_filler {
      type: "constant"
      value: 0
    }
  }
}
layer {
  name: "layer_64_3_bn2"
  type: "BatchNorm"
  bottom: "layer_64_3_conv1"
  top: "layer_64_3_conv1"
  param {
    lr_mult: 0
    decay_mult: 0
  }
  param {
    lr_mult: 0
    decay_mult: 0
  }
  param {
    lr_mult: 0
    decay_mult: 0
  }
}
layer {
  name: "layer_64_3_scale2"
  type: "Scale"
  bottom: "layer_64_3_conv1"
  top: "layer_64_3_conv1"
  param {
    lr_mult: 1
    decay_mult: 1
  }
  param {
    lr_mult: 2
    decay_mult: 1
  }
  scale_param {
    bias_term: true
  }
}
layer {
  name: "layer_64_3_relu2"
  type: "ReLU"
  bottom: "layer_64_3_conv1"
  top: "layer_64_3_conv1"
}
layer {
  name: "layer_64_3_conv2"
  type: "Convolution"
  bottom: "layer_64_3_conv1"
  top: "layer_64_3_conv2"
  param {
    lr_mult: 1
    decay_mult: 1
  }
  convolution_param {
    num_output: 64
    bias_term: false
    pad: 1
    kernel_size: 3
    stride: 1
    weight_filler {
      type: "msra"
    }
    bias_filler {
      type: "constant"
      value: 0
    }
  }
}
layer {
  name: "layer_64_3_sum"
  type: "Eltwise"
  bottom: "layer_64_3_conv2"
  bottom: "layer_64_2_sum"
  top: "layer_64_3_sum"
}
layer {
  name: "layer_128_1_bn1"
  type: "BatchNorm"
  bottom: "layer_64_3_sum"
  top: "layer_128_1_bn1"
  param {
    lr_mult: 0
    decay_mult: 0
  }
  param {
    lr_mult: 0
    decay_mult: 0
  }
  param {
    lr_mult: 0
    decay_mult: 0
  }
}
layer {
  name: "layer_128_1_scale1"
  type: "Scale"
  bottom: "layer_128_1_bn1"
  top: "layer_128_1_bn1"
  param {
    lr_mult: 1
    decay_mult: 1
  }
  param {
    lr_mult: 2
    decay_mult: 1
  }
  scale_param {
    bias_term: true
  }
}
layer {
  name: "layer_128_1_relu1"
  type: "ReLU"
  bottom: "layer_128_1_bn1"
  top: "layer_128_1_bn1"
}
layer {
  name: "layer_128_1_conv1"
  type: "Convolution"
  bottom: "layer_128_1_bn1"
  top: "layer_128_1_conv1"
  param {
    lr_mult: 1
    decay_mult: 1
  }
  convolution_param {
    num_output: 128
    bias_term: false
    pad: 1
    kernel_size: 3
    stride: 2
    weight_filler {
      type: "msra"
    }
    bias_filler {
      type: "constant"
      value: 0
    }
  }
}
layer {
  name: "layer_128_1_bn2"
  type: "BatchNorm"
  bottom: "layer_128_1_conv1"
  top: "layer_128_1_conv1"
  param {
    lr_mult: 0
    decay_mult: 0
  }
  param {
    lr_mult: 0
    decay_mult: 0
  }
  param {
    lr_mult: 0
    decay_mult: 0
  }
}
layer {
  name: "layer_128_1_scale2"
  type: "Scale"
  bottom: "layer_128_1_conv1"
  top: "layer_128_1_conv1"
  param {
    lr_mult: 1
    decay_mult: 1
  }
  param {
    lr_mult: 2
    decay_mult: 1
  }
  scale_param {
    bias_term: true
  }
}
layer {
  name: "layer_128_1_relu2"
  type: "ReLU"
  bottom: "layer_128_1_conv1"
  top: "layer_128_1_conv1"
}
layer {
  name: "layer_128_1_conv2"
  type: "Convolution"
  bottom: "layer_128_1_conv1"
  top: "layer_128_1_conv2"
  param {
    lr_mult: 1
    decay_mult: 1
  }
  convolution_param {
    num_output: 128
    bias_term: false
    pad: 1
    kernel_size: 3
    stride: 1
    weight_filler {
      type: "msra"
    }
    bias_filler {
      type: "constant"
      value: 0
    }
  }
}
layer {
  name: "layer_128_1_conv_expand"
  type: "Convolution"
  bottom: "layer_128_1_bn1"
  top: "layer_128_1_conv_expand"
  param {
    lr_mult: 1
    decay_mult: 1
  }
  convolution_param {
    num_output: 128
    bias_term: false
    pad: 0
    kernel_size: 1
    stride: 2
    weight_filler {
      type: "msra"
    }
    bias_filler {
      type: "constant"
      value: 0
    }
  }
}
layer {
  name: "layer_128_1_sum"
  type: "Eltwise"
  bottom: "layer_128_1_conv_expand"
  bottom: "layer_128_1_conv2"
  top: "layer_128_1_sum"
}
layer {
  name: "layer_128_2_bn1"
  type: "BatchNorm"
  bottom: "layer_128_1_sum"
  top: "layer_128_2_bn1"
  param {
    lr_mult: 0
    decay_mult: 0
  }
  param {
    lr_mult: 0
    decay_mult: 0
  }
  param {
    lr_mult: 0
    decay_mult: 0
  }
}
layer {
  name: "layer_128_2_scale1"
  type: "Scale"
  bottom: "layer_128_2_bn1"
  top: "layer_128_2_bn1"
  param {
    lr_mult: 1
    decay_mult: 1
  }
  param {
    lr_mult: 2
    decay_mult: 1
  }
  scale_param {
    bias_term: true
  }
}
layer {
  name: "layer_128_2_relu1"
  type: "ReLU"
  bottom: "layer_128_2_bn1"
  top: "layer_128_2_bn1"
}
layer {
  name: "layer_128_2_conv1"
  type: "Convolution"
  bottom: "layer_128_2_bn1"
  top: "layer_128_2_conv1"
  param {
    lr_mult: 1
    decay_mult: 1
  }
  convolution_param {
    num_output: 128
    bias_term: false
    pad: 1
    kernel_size: 3
    stride: 1
    weight_filler {
      type: "msra"
    }
    bias_filler {
      type: "constant"
      value: 0
    }
  }
}
layer {
  name: "layer_128_2_bn2"
  type: "BatchNorm"
  bottom: "layer_128_2_conv1"
  top: "layer_128_2_conv1"
  param {
    lr_mult: 0
    decay_mult: 0
  }
  param {
    lr_mult: 0
    decay_mult: 0
  }
  param {
    lr_mult: 0
    decay_mult: 0
  }
}
layer {
  name: "layer_128_2_scale2"
  type: "Scale"
  bottom: "layer_128_2_conv1"
  top: "layer_128_2_conv1"
  param {
    lr_mult: 1
    decay_mult: 1
  }
  param {
    lr_mult: 2
    decay_mult: 1
  }
  scale_param {
    bias_term: true
  }
}
layer {
  name: "layer_128_2_relu2"
  type: "ReLU"
  bottom: "layer_128_2_conv1"
  top: "layer_128_2_conv1"
}
layer {
  name: "layer_128_2_conv2"
  type: "Convolution"
  bottom: "layer_128_2_conv1"
  top: "layer_128_2_conv2"
  param {
    lr_mult: 1
    decay_mult: 1
  }
  convolution_param {
    num_output: 128
    bias_term: false
    pad: 1
    kernel_size: 3
    stride: 1
    weight_filler {
      type: "msra"
    }
    bias_filler {
      type: "constant"
      value: 0
    }
  }
}
layer {
  name: "layer_128_2_sum"
  type: "Eltwise"
  bottom: "layer_128_2_conv2"
  bottom: "layer_128_1_sum"
  top: "layer_128_2_sum"
}
layer {
  name: "layer_128_3_bn1"
  type: "BatchNorm"
  bottom: "layer_128_2_sum"
  top: "layer_128_3_bn1"
  param {
    lr_mult: 0
    decay_mult: 0
  }
  param {
    lr_mult: 0
    decay_mult: 0
  }
  param {
    lr_mult: 0
    decay_mult: 0
  }
}
layer {
  name: "layer_128_3_scale1"
  type: "Scale"
  bottom: "layer_128_3_bn1"
  top: "layer_128_3_bn1"
  param {
    lr_mult: 1
    decay_mult: 1
  }
  param {
    lr_mult: 2
    decay_mult: 1
  }
  scale_param {
    bias_term: true
  }
}
layer {
  name: "layer_128_3_relu1"
  type: "ReLU"
  bottom: "layer_128_3_bn1"
  top: "layer_128_3_bn1"
}
layer {
  name: "layer_128_3_conv1"
  type: "Convolution"
  bottom: "layer_128_3_bn1"
  top: "layer_128_3_conv1"
  param {
    lr_mult: 1
    decay_mult: 1
  }
  convolution_param {
    num_output: 128
    bias_term: false
    pad: 1
    kernel_size: 3
    stride: 1
    weight_filler {
      type: "msra"
    }
    bias_filler {
      type: "constant"
      value: 0
    }
  }
}
layer {
  name: "layer_128_3_bn2"
  type: "BatchNorm"
  bottom: "layer_128_3_conv1"
  top: "layer_128_3_conv1"
  param {
    lr_mult: 0
    decay_mult: 0
  }
  param {
    lr_mult: 0
    decay_mult: 0
  }
  param {
    lr_mult: 0
    decay_mult: 0
  }
}
layer {
  name: "layer_128_3_scale2"
  type: "Scale"
  bottom: "layer_128_3_conv1"
  top: "layer_128_3_conv1"
  param {
    lr_mult: 1
    decay_mult: 1
  }
  param {
    lr_mult: 2
    decay_mult: 1
  }
  scale_param {
    bias_term: true
  }
}
layer {
  name: "layer_128_3_relu2"
  type: "ReLU"
  bottom: "layer_128_3_conv1"
  top: "layer_128_3_conv1"
}
layer {
  name: "layer_128_3_conv2"
  type: "Convolution"
  bottom: "layer_128_3_conv1"
  top: "layer_128_3_conv2"
  param {
    lr_mult: 1
    decay_mult: 1
  }
  convolution_param {
    num_output: 128
    bias_term: false
    pad: 1
    kernel_size: 3
    stride: 1
    weight_filler {
      type: "msra"
    }
    bias_filler {
      type: "constant"
      value: 0
    }
  }
}
layer {
  name: "layer_128_3_sum"
  type: "Eltwise"
  bottom: "layer_128_3_conv2"
  bottom: "layer_128_2_sum"
  top: "layer_128_3_sum"
}
layer {
  name: "layer_128_4_bn1"
  type: "BatchNorm"
  bottom: "layer_128_3_sum"
  top: "layer_128_4_bn1"
  param {
    lr_mult: 0
    decay_mult: 0
  }
  param {
    lr_mult: 0
    decay_mult: 0
  }
  param {
    lr_mult: 0
    decay_mult: 0
  }
}
layer {
  name: "layer_128_4_scale1"
  type: "Scale"
  bottom: "layer_128_4_bn1"
  top: "layer_128_4_bn1"
  param {
    lr_mult: 1
    decay_mult: 1
  }
  param {
    lr_mult: 2
    decay_mult: 1
  }
  scale_param {
    bias_term: true
  }
}
layer {
  name: "layer_128_4_relu1"
  type: "ReLU"
  bottom: "layer_128_4_bn1"
  top: "layer_128_4_bn1"
}
layer {
  name: "layer_128_4_conv1"
  type: "Convolution"
  bottom: "layer_128_4_bn1"
  top: "layer_128_4_conv1"
  param {
    lr_mult: 1
    decay_mult: 1
  }
  convolution_param {
    num_output: 128
    bias_term: false
    pad: 1
    kernel_size: 3
    stride: 1
    weight_filler {
      type: "msra"
    }
    bias_filler {
      type: "constant"
      value: 0
    }
  }
}
layer {
  name: "layer_128_4_bn2"
  type: "BatchNorm"
  bottom: "layer_128_4_conv1"
  top: "layer_128_4_conv1"
  param {
    lr_mult: 0
    decay_mult: 0
  }
  param {
    lr_mult: 0
    decay_mult: 0
  }
  param {
    lr_mult: 0
    decay_mult: 0
  }
}
layer {
  name: "layer_128_4_scale2"
  type: "Scale"
  bottom: "layer_128_4_conv1"
  top: "layer_128_4_conv1"
  param {
    lr_mult: 1
    decay_mult: 1
  }
  param {
    lr_mult: 2
    decay_mult: 1
  }
  scale_param {
    bias_term: true
  }
}
layer {
  name: "layer_128_4_relu2"
  type: "ReLU"
  bottom: "layer_128_4_conv1"
  top: "layer_128_4_conv1"
}
layer {
  name: "layer_128_4_conv2"
  type: "Convolution"
  bottom: "layer_128_4_conv1"
  top: "layer_128_4_conv2"
  param {
    lr_mult: 1
    decay_mult: 1
  }
  convolution_param {
    num_output: 128
    bias_term: false
    pad: 1
    kernel_size: 3
    stride: 1
    weight_filler {
      type: "msra"
    }
    bias_filler {
      type: "constant"
      value: 0
    }
  }
}
layer {
  name: "layer_128_4_sum"
  type: "Eltwise"
  bottom: "layer_128_4_conv2"
  bottom: "layer_128_3_sum"
  top: "layer_128_4_sum"
}
layer {
  name: "layer_256_1_bn1"
  type: "BatchNorm"
  bottom: "layer_128_4_sum"
  top: "layer_256_1_bn1"
  param {
    lr_mult: 0
    decay_mult: 0
  }
  param {
    lr_mult: 0
    decay_mult: 0
  }
  param {
    lr_mult: 0
    decay_mult: 0
  }
}
layer {
  name: "layer_256_1_scale1"
  type: "Scale"
  bottom: "layer_256_1_bn1"
  top: "layer_256_1_bn1"
  param {
    lr_mult: 1
    decay_mult: 1
  }
  param {
    lr_mult: 2
    decay_mult: 1
  }
  scale_param {
    bias_term: true
  }
}
layer {
  name: "layer_256_1_relu1"
  type: "ReLU"
  bottom: "layer_256_1_bn1"
  top: "layer_256_1_bn1"
}
layer {
  name: "layer_256_1_conv1"
  type: "Convolution"
  bottom: "layer_256_1_bn1"
  top: "layer_256_1_conv1"
  param {
    lr_mult: 1
    decay_mult: 1
  }
  convolution_param {
    num_output: 256
    bias_term: false
    pad: 1
    kernel_size: 3
    stride: 2
    weight_filler {
      type: "msra"
    }
    bias_filler {
      type: "constant"
      value: 0
    }
  }
}
layer {
  name: "layer_256_1_bn2"
  type: "BatchNorm"
  bottom: "layer_256_1_conv1"
  top: "layer_256_1_conv1"
  param {
    lr_mult: 0
    decay_mult: 0
  }
  param {
    lr_mult: 0
    decay_mult: 0
  }
  param {
    lr_mult: 0
    decay_mult: 0
  }
}
layer {
  name: "layer_256_1_scale2"
  type: "Scale"
  bottom: "layer_256_1_conv1"
  top: "layer_256_1_conv1"
  param {
    lr_mult: 1
    decay_mult: 1
  }
  param {
    lr_mult: 2
    decay_mult: 1
  }
  scale_param {
    bias_term: true
  }
}
layer {
  name: "layer_256_1_relu2"
  type: "ReLU"
  bottom: "layer_256_1_conv1"
  top: "layer_256_1_conv1"
}
layer {
  name: "layer_256_1_conv2"
  type: "Convolution"
  bottom: "layer_256_1_conv1"
  top: "layer_256_1_conv2"
  param {
    lr_mult: 1
    decay_mult: 1
  }
  convolution_param {
    num_output: 256
    bias_term: false
    pad: 1
    kernel_size: 3
    stride: 1
    weight_filler {
      type: "msra"
    }
    bias_filler {
      type: "constant"
      value: 0
    }
  }
}
layer {
  name: "layer_256_1_conv_expand"
  type: "Convolution"
  bottom: "layer_256_1_bn1"
  top: "layer_256_1_conv_expand"
  param {
    lr_mult: 1
    decay_mult: 1
  }
  convolution_param {
    num_output: 256
    bias_term: false
    pad: 0
    kernel_size: 1
    stride: 2
    weight_filler {
      type: "msra"
    }
    bias_filler {
      type: "constant"
      value: 0
    }
  }
}
layer {
  name: "layer_256_1_sum"
  type: "Eltwise"
  bottom: "layer_256_1_conv_expand"
  bottom: "layer_256_1_conv2"
  top: "layer_256_1_sum"
}
layer {
  name: "layer_256_2_bn1"
  type: "BatchNorm"
  bottom: "layer_256_1_sum"
  top: "layer_256_2_bn1"
  param {
    lr_mult: 0
    decay_mult: 0
  }
  param {
    lr_mult: 0
    decay_mult: 0
  }
  param {
    lr_mult: 0
    decay_mult: 0
  }
}
layer {
  name: "layer_256_2_scale1"
  type: "Scale"
  bottom: "layer_256_2_bn1"
  top: "layer_256_2_bn1"
  param {
    lr_mult: 1
    decay_mult: 1
  }
  param {
    lr_mult: 2
    decay_mult: 1
  }
  scale_param {
    bias_term: true
  }
}
layer {
  name: "layer_256_2_relu1"
  type: "ReLU"
  bottom: "layer_256_2_bn1"
  top: "layer_256_2_bn1"
}
layer {
  name: "layer_256_2_conv1"
  type: "Convolution"
  bottom: "layer_256_2_bn1"
  top: "layer_256_2_conv1"
  param {
    lr_mult: 1
    decay_mult: 1
  }
  convolution_param {
    num_output: 256
    bias_term: false
    pad: 1
    kernel_size: 3
    stride: 1
    weight_filler {
      type: "msra"
    }
    bias_filler {
      type: "constant"
      value: 0
    }
  }
}
layer {
  name: "layer_256_2_bn2"
  type: "BatchNorm"
  bottom: "layer_256_2_conv1"
  top: "layer_256_2_conv1"
  param {
    lr_mult: 0
    decay_mult: 0
  }
  param {
    lr_mult: 0
    decay_mult: 0
  }
  param {
    lr_mult: 0
    decay_mult: 0
  }
}
layer {
  name: "layer_256_2_scale2"
  type: "Scale"
  bottom: "layer_256_2_conv1"
  top: "layer_256_2_conv1"
  param {
    lr_mult: 1
    decay_mult: 1
  }
  param {
    lr_mult: 2
    decay_mult: 1
  }
  scale_param {
    bias_term: true
  }
}
layer {
  name: "layer_256_2_relu2"
  type: "ReLU"
  bottom: "layer_256_2_conv1"
  top: "layer_256_2_conv1"
}
layer {
  name: "layer_256_2_conv2"
  type: "Convolution"
  bottom: "layer_256_2_conv1"
  top: "layer_256_2_conv2"
  param {
    lr_mult: 1
    decay_mult: 1
  }
  convolution_param {
    num_output: 256
    bias_term: false
    pad: 1
    kernel_size: 3
    stride: 1
    weight_filler {
      type: "msra"
    }
    bias_filler {
      type: "constant"
      value: 0
    }
  }
}
layer {
  name: "layer_256_2_sum"
  type: "Eltwise"
  bottom: "layer_256_2_conv2"
  bottom: "layer_256_1_sum"
  top: "layer_256_2_sum"
}
layer {
  name: "layer_256_3_bn1"
  type: "BatchNorm"
  bottom: "layer_256_2_sum"
  top: "layer_256_3_bn1"
  param {
    lr_mult: 0
    decay_mult: 0
  }
  param {
    lr_mult: 0
    decay_mult: 0
  }
  param {
    lr_mult: 0
    decay_mult: 0
  }
}
layer {
  name: "layer_256_3_scale1"
  type: "Scale"
  bottom: "layer_256_3_bn1"
  top: "layer_256_3_bn1"
  param {
    lr_mult: 1
    decay_mult: 1
  }
  param {
    lr_mult: 2
    decay_mult: 1
  }
  scale_param {
    bias_term: true
  }
}
layer {
  name: "layer_256_3_relu1"
  type: "ReLU"
  bottom: "layer_256_3_bn1"
  top: "layer_256_3_bn1"
}
layer {
  name: "layer_256_3_conv1"
  type: "Convolution"
  bottom: "layer_256_3_bn1"
  top: "layer_256_3_conv1"
  param {
    lr_mult: 1
    decay_mult: 1
  }
  convolution_param {
    num_output: 256
    bias_term: false
    pad: 1
    kernel_size: 3
    stride: 1
    weight_filler {
      type: "msra"
    }
    bias_filler {
      type: "constant"
      value: 0
    }
  }
}
layer {
  name: "layer_256_3_bn2"
  type: "BatchNorm"
  bottom: "layer_256_3_conv1"
  top: "layer_256_3_conv1"
  param {
    lr_mult: 0
    decay_mult: 0
  }
  param {
    lr_mult: 0
    decay_mult: 0
  }
  param {
    lr_mult: 0
    decay_mult: 0
  }
}
layer {
  name: "layer_256_3_scale2"
  type: "Scale"
  bottom: "layer_256_3_conv1"
  top: "layer_256_3_conv1"
  param {
    lr_mult: 1
    decay_mult: 1
  }
  param {
    lr_mult: 2
    decay_mult: 1
  }
  scale_param {
    bias_term: true
  }
}
layer {
  name: "layer_256_3_relu2"
  type: "ReLU"
  bottom: "layer_256_3_conv1"
  top: "layer_256_3_conv1"
}
layer {
  name: "layer_256_3_conv2"
  type: "Convolution"
  bottom: "layer_256_3_conv1"
  top: "layer_256_3_conv2"
  param {
    lr_mult: 1
    decay_mult: 1
  }
  convolution_param {
    num_output: 256
    bias_term: false
    pad: 1
    kernel_size: 3
    stride: 1
    weight_filler {
      type: "msra"
    }
    bias_filler {
      type: "constant"
      value: 0
    }
  }
}
layer {
  name: "layer_256_3_sum"
  type: "Eltwise"
  bottom: "layer_256_3_conv2"
  bottom: "layer_256_2_sum"
  top: "layer_256_3_sum"
}
layer {
  name: "layer_256_4_bn1"
  type: "BatchNorm"
  bottom: "layer_256_3_sum"
  top: "layer_256_4_bn1"
  param {
    lr_mult: 0
    decay_mult: 0
  }
  param {
    lr_mult: 0
    decay_mult: 0
  }
  param {
    lr_mult: 0
    decay_mult: 0
  }
}
layer {
  name: "layer_256_4_scale1"
  type: "Scale"
  bottom: "layer_256_4_bn1"
  top: "layer_256_4_bn1"
  param {
    lr_mult: 1
    decay_mult: 1
  }
  param {
    lr_mult: 2
    decay_mult: 1
  }
  scale_param {
    bias_term: true
  }
}
layer {
  name: "layer_256_4_relu1"
  type: "ReLU"
  bottom: "layer_256_4_bn1"
  top: "layer_256_4_bn1"
}
layer {
  name: "layer_256_4_conv1"
  type: "Convolution"
  bottom: "layer_256_4_bn1"
  top: "layer_256_4_conv1"
  param {
    lr_mult: 1
    decay_mult: 1
  }
  convolution_param {
    num_output: 256
    bias_term: false
    pad: 1
    kernel_size: 3
    stride: 1
    weight_filler {
      type: "msra"
    }
    bias_filler {
      type: "constant"
      value: 0
    }
  }
}
layer {
  name: "layer_256_4_bn2"
  type: "BatchNorm"
  bottom: "layer_256_4_conv1"
  top: "layer_256_4_conv1"
  param {
    lr_mult: 0
    decay_mult: 0
  }
  param {
    lr_mult: 0
    decay_mult: 0
  }
  param {
    lr_mult: 0
    decay_mult: 0
  }
}
layer {
  name: "layer_256_4_scale2"
  type: "Scale"
  bottom: "layer_256_4_conv1"
  top: "layer_256_4_conv1"
  param {
    lr_mult: 1
    decay_mult: 1
  }
  param {
    lr_mult: 2
    decay_mult: 1
  }
  scale_param {
    bias_term: true
  }
}
layer {
  name: "layer_256_4_relu2"
  type: "ReLU"
  bottom: "layer_256_4_conv1"
  top: "layer_256_4_conv1"
}
layer {
  name: "layer_256_4_conv2"
  type: "Convolution"
  bottom: "layer_256_4_conv1"
  top: "layer_256_4_conv2"
  param {
    lr_mult: 1
    decay_mult: 1
  }
  convolution_param {
    num_output: 256
    bias_term: false
    pad: 1
    kernel_size: 3
    stride: 1
    weight_filler {
      type: "msra"
    }
    bias_filler {
      type: "constant"
      value: 0
    }
  }
}
layer {
  name: "layer_256_4_sum"
  type: "Eltwise"
  bottom: "layer_256_4_conv2"
  bottom: "layer_256_3_sum"
  top: "layer_256_4_sum"
}
layer {
  name: "layer_256_5_bn1"
  type: "BatchNorm"
  bottom: "layer_256_4_sum"
  top: "layer_256_5_bn1"
  param {
    lr_mult: 0
    decay_mult: 0
  }
  param {
    lr_mult: 0
    decay_mult: 0
  }
  param {
    lr_mult: 0
    decay_mult: 0
  }
}
layer {
  name: "layer_256_5_scale1"
  type: "Scale"
  bottom: "layer_256_5_bn1"
  top: "layer_256_5_bn1"
  param {
    lr_mult: 1
    decay_mult: 1
  }
  param {
    lr_mult: 2
    decay_mult: 1
  }
  scale_param {
    bias_term: true
  }
}
layer {
  name: "layer_256_5_relu1"
  type: "ReLU"
  bottom: "layer_256_5_bn1"
  top: "layer_256_5_bn1"
}
layer {
  name: "layer_256_5_conv1"
  type: "Convolution"
  bottom: "layer_256_5_bn1"
  top: "layer_256_5_conv1"
  param {
    lr_mult: 1
    decay_mult: 1
  }
  convolution_param {
    num_output: 256
    bias_term: false
    pad: 1
    kernel_size: 3
    stride: 1
    weight_filler {
      type: "msra"
    }
    bias_filler {
      type: "constant"
      value: 0
    }
  }
}
layer {
  name: "layer_256_5_bn2"
  type: "BatchNorm"
  bottom: "layer_256_5_conv1"
  top: "layer_256_5_conv1"
  param {
    lr_mult: 0
    decay_mult: 0
  }
  param {
    lr_mult: 0
    decay_mult: 0
  }
  param {
    lr_mult: 0
    decay_mult: 0
  }
}
layer {
  name: "layer_256_5_scale2"
  type: "Scale"
  bottom: "layer_256_5_conv1"
  top: "layer_256_5_conv1"
  param {
    lr_mult: 1
    decay_mult: 1
  }
  param {
    lr_mult: 2
    decay_mult: 1
  }
  scale_param {
    bias_term: true
  }
}
layer {
  name: "layer_256_5_relu2"
  type: "ReLU"
  bottom: "layer_256_5_conv1"
  top: "layer_256_5_conv1"
}
layer {
  name: "layer_256_5_conv2"
  type: "Convolution"
  bottom: "layer_256_5_conv1"
  top: "layer_256_5_conv2"
  param {
    lr_mult: 1
    decay_mult: 1
  }
  convolution_param {
    num_output: 256
    bias_term: false
    pad: 1
    kernel_size: 3
    stride: 1
    weight_filler {
      type: "msra"
    }
    bias_filler {
      type: "constant"
      value: 0
    }
  }
}
layer {
  name: "layer_256_5_sum"
  type: "Eltwise"
  bottom: "layer_256_5_conv2"
  bottom: "layer_256_4_sum"
  top: "layer_256_5_sum"
}
layer {
  name: "layer_256_6_bn1"
  type: "BatchNorm"
  bottom: "layer_256_5_sum"
  top: "layer_256_6_bn1"
  param {
    lr_mult: 0
    decay_mult: 0
  }
  param {
    lr_mult: 0
    decay_mult: 0
  }
  param {
    lr_mult: 0
    decay_mult: 0
  }
}
layer {
  name: "layer_256_6_scale1"
  type: "Scale"
  bottom: "layer_256_6_bn1"
  top: "layer_256_6_bn1"
  param {
    lr_mult: 1
    decay_mult: 1
  }
  param {
    lr_mult: 2
    decay_mult: 1
  }
  scale_param {
    bias_term: true
  }
}
layer {
  name: "layer_256_6_relu1"
  type: "ReLU"
  bottom: "layer_256_6_bn1"
  top: "layer_256_6_bn1"
}
layer {
  name: "layer_256_6_conv1"
  type: "Convolution"
  bottom: "layer_256_6_bn1"
  top: "layer_256_6_conv1"
  param {
    lr_mult: 1
    decay_mult: 1
  }
  convolution_param {
    num_output: 256
    bias_term: false
    pad: 1
    kernel_size: 3
    stride: 1
    weight_filler {
      type: "msra"
    }
    bias_filler {
      type: "constant"
      value: 0
    }
  }
}
layer {
  name: "layer_256_6_bn2"
  type: "BatchNorm"
  bottom: "layer_256_6_conv1"
  top: "layer_256_6_conv1"
  param {
    lr_mult: 0
    decay_mult: 0
  }
  param {
    lr_mult: 0
    decay_mult: 0
  }
  param {
    lr_mult: 0
    decay_mult: 0
  }
}
layer {
  name: "layer_256_6_scale2"
  type: "Scale"
  bottom: "layer_256_6_conv1"
  top: "layer_256_6_conv1"
  param {
    lr_mult: 1
    decay_mult: 1
  }
  param {
    lr_mult: 2
    decay_mult: 1
  }
  scale_param {
    bias_term: true
  }
}
layer {
  name: "layer_256_6_relu2"
  type: "ReLU"
  bottom: "layer_256_6_conv1"
  top: "layer_256_6_conv1"
}
layer {
  name: "layer_256_6_conv2"
  type: "Convolution"
  bottom: "layer_256_6_conv1"
  top: "layer_256_6_conv2"
  param {
    lr_mult: 1
    decay_mult: 1
  }
  convolution_param {
    num_output: 256
    bias_term: false
    pad: 1
    kernel_size: 3
    stride: 1
    weight_filler {
      type: "msra"
    }
    bias_filler {
      type: "constant"
      value: 0
    }
  }
}
layer {
  name: "layer_256_6_sum"
  type: "Eltwise"
  bottom: "layer_256_6_conv2"
  bottom: "layer_256_5_sum"
  top: "layer_256_6_sum"
}
layer {
  name: "layer_512_1_bn1"
  type: "BatchNorm"
  bottom: "layer_256_6_sum"
  top: "layer_512_1_bn1"
  param {
    lr_mult: 0
    decay_mult: 0
  }
  param {
    lr_mult: 0
    decay_mult: 0
  }
  param {
    lr_mult: 0
    decay_mult: 0
  }
}
layer {
  name: "layer_512_1_scale1"
  type: "Scale"
  bottom: "layer_512_1_bn1"
  top: "layer_512_1_bn1"
  param {
    lr_mult: 1
    decay_mult: 1
  }
  param {
    lr_mult: 2
    decay_mult: 1
  }
  scale_param {
    bias_term: true
  }
}
layer {
  name: "layer
I0528 22:24:53.534370 16815 layer_factory.hpp:77] Creating layer data
I0528 22:24:53.534492 16815 db_lmdb.cpp:35] Opened lmdb /storage/Test_fold_is_01/gender_train_lmdb
I0528 22:24:53.534530 16815 net.cpp:84] Creating Layer data
I0528 22:24:53.534543 16815 net.cpp:380] data -> data
I0528 22:24:53.534567 16815 net.cpp:380] data -> label
I0528 22:24:53.534586 16815 data_transformer.cpp:25] Loading mean file from: /storage/Test_fold_is_01/mean.binaryproto
I0528 22:24:53.537745 16815 data_layer.cpp:45] output data size: 50,3,224,224
I0528 22:24:53.609789 16815 net.cpp:122] Setting up data
I0528 22:24:53.609855 16815 net.cpp:129] Top shape: 50 3 224 224 (7526400)
I0528 22:24:53.609864 16815 net.cpp:129] Top shape: 50 (50)
I0528 22:24:53.609869 16815 net.cpp:137] Memory required for data: 30105800
I0528 22:24:53.609879 16815 layer_factory.hpp:77] Creating layer data_bn
I0528 22:24:53.609896 16815 net.cpp:84] Creating Layer data_bn
I0528 22:24:53.609904 16815 net.cpp:406] data_bn <- data
I0528 22:24:53.609918 16815 net.cpp:380] data_bn -> data_bn
I0528 22:24:53.610846 16815 net.cpp:122] Setting up data_bn
I0528 22:24:53.610864 16815 net.cpp:129] Top shape: 50 3 224 224 (7526400)
I0528 22:24:53.610869 16815 net.cpp:137] Memory required for data: 60211400
I0528 22:24:53.610891 16815 layer_factory.hpp:77] Creating layer data_scale
I0528 22:24:53.610904 16815 net.cpp:84] Creating Layer data_scale
I0528 22:24:53.610909 16815 net.cpp:406] data_scale <- data_bn
I0528 22:24:53.610916 16815 net.cpp:367] data_scale -> data_bn (in-place)
I0528 22:24:53.610967 16815 layer_factory.hpp:77] Creating layer data_scale
I0528 22:24:53.611147 16815 net.cpp:122] Setting up data_scale
I0528 22:24:53.611169 16815 net.cpp:129] Top shape: 50 3 224 224 (7526400)
I0528 22:24:53.611173 16815 net.cpp:137] Memory required for data: 90317000
I0528 22:24:53.611183 16815 layer_factory.hpp:77] Creating layer conv1
I0528 22:24:53.611199 16815 net.cpp:84] Creating Layer conv1
I0528 22:24:53.611204 16815 net.cpp:406] conv1 <- data_bn
I0528 22:24:53.611212 16815 net.cpp:380] conv1 -> conv1
I0528 22:24:53.815270 16815 net.cpp:122] Setting up conv1
I0528 22:24:53.815313 16815 net.cpp:129] Top shape: 50 64 112 112 (40140800)
I0528 22:24:53.815320 16815 net.cpp:137] Memory required for data: 250880200
I0528 22:24:53.815330 16815 layer_factory.hpp:77] Creating layer conv1_bn
I0528 22:24:53.815343 16815 net.cpp:84] Creating Layer conv1_bn
I0528 22:24:53.815349 16815 net.cpp:406] conv1_bn <- conv1
I0528 22:24:53.815357 16815 net.cpp:367] conv1_bn -> conv1 (in-place)
I0528 22:24:53.815532 16815 net.cpp:122] Setting up conv1_bn
I0528 22:24:53.815541 16815 net.cpp:129] Top shape: 50 64 112 112 (40140800)
I0528 22:24:53.815546 16815 net.cpp:137] Memory required for data: 411443400
I0528 22:24:53.815557 16815 layer_factory.hpp:77] Creating layer conv1_scale
I0528 22:24:53.815565 16815 net.cpp:84] Creating Layer conv1_scale
I0528 22:24:53.815570 16815 net.cpp:406] conv1_scale <- conv1
I0528 22:24:53.815575 16815 net.cpp:367] conv1_scale -> conv1 (in-place)
I0528 22:24:53.815614 16815 layer_factory.hpp:77] Creating layer conv1_scale
I0528 22:24:53.815726 16815 net.cpp:122] Setting up conv1_scale
I0528 22:24:53.815734 16815 net.cpp:129] Top shape: 50 64 112 112 (40140800)
I0528 22:24:53.815738 16815 net.cpp:137] Memory required for data: 572006600
I0528 22:24:53.815745 16815 layer_factory.hpp:77] Creating layer conv1_relu
I0528 22:24:53.815755 16815 net.cpp:84] Creating Layer conv1_relu
I0528 22:24:53.815759 16815 net.cpp:406] conv1_relu <- conv1
I0528 22:24:53.815764 16815 net.cpp:367] conv1_relu -> conv1 (in-place)
I0528 22:24:53.816375 16815 net.cpp:122] Setting up conv1_relu
I0528 22:24:53.816396 16815 net.cpp:129] Top shape: 50 64 112 112 (40140800)
I0528 22:24:53.816401 16815 net.cpp:137] Memory required for data: 732569800
I0528 22:24:53.816406 16815 layer_factory.hpp:77] Creating layer conv1_pool
I0528 22:24:53.816413 16815 net.cpp:84] Creating Layer conv1_pool
I0528 22:24:53.816417 16815 net.cpp:406] conv1_pool <- conv1
I0528 22:24:53.816424 16815 net.cpp:380] conv1_pool -> conv1_pool
I0528 22:24:53.816476 16815 net.cpp:122] Setting up conv1_pool
I0528 22:24:53.816485 16815 net.cpp:129] Top shape: 50 64 56 56 (10035200)
I0528 22:24:53.816489 16815 net.cpp:137] Memory required for data: 772710600
I0528 22:24:53.816493 16815 layer_factory.hpp:77] Creating layer conv1_pool_conv1_pool_0_split
I0528 22:24:53.816503 16815 net.cpp:84] Creating Layer conv1_pool_conv1_pool_0_split
I0528 22:24:53.816507 16815 net.cpp:406] conv1_pool_conv1_pool_0_split <- conv1_pool
I0528 22:24:53.816512 16815 net.cpp:380] conv1_pool_conv1_pool_0_split -> conv1_pool_conv1_pool_0_split_0
I0528 22:24:53.816519 16815 net.cpp:380] conv1_pool_conv1_pool_0_split -> conv1_pool_conv1_pool_0_split_1
I0528 22:24:53.816551 16815 net.cpp:122] Setting up conv1_pool_conv1_pool_0_split
I0528 22:24:53.816558 16815 net.cpp:129] Top shape: 50 64 56 56 (10035200)
I0528 22:24:53.816563 16815 net.cpp:129] Top shape: 50 64 56 56 (10035200)
I0528 22:24:53.816567 16815 net.cpp:137] Memory required for data: 852992200
I0528 22:24:53.816570 16815 layer_factory.hpp:77] Creating layer layer_64_1_conv1
I0528 22:24:53.816582 16815 net.cpp:84] Creating Layer layer_64_1_conv1
I0528 22:24:53.816587 16815 net.cpp:406] layer_64_1_conv1 <- conv1_pool_conv1_pool_0_split_0
I0528 22:24:53.816593 16815 net.cpp:380] layer_64_1_conv1 -> layer_64_1_conv1
I0528 22:24:53.819159 16815 net.cpp:122] Setting up layer_64_1_conv1
I0528 22:24:53.819175 16815 net.cpp:129] Top shape: 50 64 56 56 (10035200)
I0528 22:24:53.819180 16815 net.cpp:137] Memory required for data: 893133000
I0528 22:24:53.819186 16815 layer_factory.hpp:77] Creating layer layer_64_1_bn2
I0528 22:24:53.819211 16815 net.cpp:84] Creating Layer layer_64_1_bn2
I0528 22:24:53.819226 16815 net.cpp:406] layer_64_1_bn2 <- layer_64_1_conv1
I0528 22:24:53.819233 16815 net.cpp:367] layer_64_1_bn2 -> layer_64_1_conv1 (in-place)
I0528 22:24:53.820011 16815 net.cpp:122] Setting up layer_64_1_bn2
I0528 22:24:53.820025 16815 net.cpp:129] Top shape: 50 64 56 56 (10035200)
I0528 22:24:53.820029 16815 net.cpp:137] Memory required for data: 933273800
I0528 22:24:53.820039 16815 layer_factory.hpp:77] Creating layer layer_64_1_scale2
I0528 22:24:53.820046 16815 net.cpp:84] Creating Layer layer_64_1_scale2
I0528 22:24:53.820051 16815 net.cpp:406] layer_64_1_scale2 <- layer_64_1_conv1
I0528 22:24:53.820057 16815 net.cpp:367] layer_64_1_scale2 -> layer_64_1_conv1 (in-place)
I0528 22:24:53.820097 16815 layer_factory.hpp:77] Creating layer layer_64_1_scale2
I0528 22:24:53.820204 16815 net.cpp:122] Setting up layer_64_1_scale2
I0528 22:24:53.820214 16815 net.cpp:129] Top shape: 50 64 56 56 (10035200)
I0528 22:24:53.820219 16815 net.cpp:137] Memory required for data: 973414600
I0528 22:24:53.820230 16815 layer_factory.hpp:77] Creating layer layer_64_1_relu2
I0528 22:24:53.820236 16815 net.cpp:84] Creating Layer layer_64_1_relu2
I0528 22:24:53.820240 16815 net.cpp:406] layer_64_1_relu2 <- layer_64_1_conv1
I0528 22:24:53.820246 16815 net.cpp:367] layer_64_1_relu2 -> layer_64_1_conv1 (in-place)
I0528 22:24:53.820407 16815 net.cpp:122] Setting up layer_64_1_relu2
I0528 22:24:53.820418 16815 net.cpp:129] Top shape: 50 64 56 56 (10035200)
I0528 22:24:53.820422 16815 net.cpp:137] Memory required for data: 1013555400
I0528 22:24:53.820426 16815 layer_factory.hpp:77] Creating layer layer_64_1_conv2
I0528 22:24:53.820437 16815 net.cpp:84] Creating Layer layer_64_1_conv2
I0528 22:24:53.820441 16815 net.cpp:406] layer_64_1_conv2 <- layer_64_1_conv1
I0528 22:24:53.820448 16815 net.cpp:380] layer_64_1_conv2 -> layer_64_1_conv2
I0528 22:24:53.823024 16815 net.cpp:122] Setting up layer_64_1_conv2
I0528 22:24:53.823042 16815 net.cpp:129] Top shape: 50 64 56 56 (10035200)
I0528 22:24:53.823047 16815 net.cpp:137] Memory required for data: 1053696200
I0528 22:24:53.823055 16815 layer_factory.hpp:77] Creating layer layer_64_1_sum
I0528 22:24:53.823065 16815 net.cpp:84] Creating Layer layer_64_1_sum
I0528 22:24:53.823070 16815 net.cpp:406] layer_64_1_sum <- layer_64_1_conv2
I0528 22:24:53.823076 16815 net.cpp:406] layer_64_1_sum <- conv1_pool_conv1_pool_0_split_1
I0528 22:24:53.823081 16815 net.cpp:380] layer_64_1_sum -> layer_64_1_sum
I0528 22:24:53.823110 16815 net.cpp:122] Setting up layer_64_1_sum
I0528 22:24:53.823124 16815 net.cpp:129] Top shape: 50 64 56 56 (10035200)
I0528 22:24:53.823130 16815 net.cpp:137] Memory required for data: 1093837000
I0528 22:24:53.823134 16815 layer_factory.hpp:77] Creating layer layer_64_1_sum_layer_64_1_sum_0_split
I0528 22:24:53.823141 16815 net.cpp:84] Creating Layer layer_64_1_sum_layer_64_1_sum_0_split
I0528 22:24:53.823145 16815 net.cpp:406] layer_64_1_sum_layer_64_1_sum_0_split <- layer_64_1_sum
I0528 22:24:53.823151 16815 net.cpp:380] layer_64_1_sum_layer_64_1_sum_0_split -> layer_64_1_sum_layer_64_1_sum_0_split_0
I0528 22:24:53.823158 16815 net.cpp:380] layer_64_1_sum_layer_64_1_sum_0_split -> layer_64_1_sum_layer_64_1_sum_0_split_1
I0528 22:24:53.823189 16815 net.cpp:122] Setting up layer_64_1_sum_layer_64_1_sum_0_split
I0528 22:24:53.823196 16815 net.cpp:129] Top shape: 50 64 56 56 (10035200)
I0528 22:24:53.823201 16815 net.cpp:129] Top shape: 50 64 56 56 (10035200)
I0528 22:24:53.823204 16815 net.cpp:137] Memory required for data: 1174118600
I0528 22:24:53.823209 16815 layer_factory.hpp:77] Creating layer layer_64_2_bn1
I0528 22:24:53.823216 16815 net.cpp:84] Creating Layer layer_64_2_bn1
I0528 22:24:53.823221 16815 net.cpp:406] layer_64_2_bn1 <- layer_64_1_sum_layer_64_1_sum_0_split_0
I0528 22:24:53.823227 16815 net.cpp:380] layer_64_2_bn1 -> layer_64_2_bn1
I0528 22:24:53.823400 16815 net.cpp:122] Setting up layer_64_2_bn1
I0528 22:24:53.823407 16815 net.cpp:129] Top shape: 50 64 56 56 (10035200)
I0528 22:24:53.823416 16815 net.cpp:137] Memory required for data: 1214259400
I0528 22:24:53.823432 16815 layer_factory.hpp:77] Creating layer layer_64_2_scale1
I0528 22:24:53.823441 16815 net.cpp:84] Creating Layer layer_64_2_scale1
I0528 22:24:53.823446 16815 net.cpp:406] layer_64_2_scale1 <- layer_64_2_bn1
I0528 22:24:53.823452 16815 net.cpp:367] layer_64_2_scale1 -> layer_64_2_bn1 (in-place)
I0528 22:24:53.823492 16815 layer_factory.hpp:77] Creating layer layer_64_2_scale1
I0528 22:24:53.823590 16815 net.cpp:122] Setting up layer_64_2_scale1
I0528 22:24:53.823598 16815 net.cpp:129] Top shape: 50 64 56 56 (10035200)
I0528 22:24:53.823601 16815 net.cpp:137] Memory required for data: 1254400200
I0528 22:24:53.823608 16815 layer_factory.hpp:77] Creating layer layer_64_2_relu1
I0528 22:24:53.823616 16815 net.cpp:84] Creating Layer layer_64_2_relu1
I0528 22:24:53.823619 16815 net.cpp:406] layer_64_2_relu1 <- layer_64_2_bn1
I0528 22:24:53.823626 16815 net.cpp:367] layer_64_2_relu1 -> layer_64_2_bn1 (in-place)
I0528 22:24:53.823781 16815 net.cpp:122] Setting up layer_64_2_relu1
I0528 22:24:53.823791 16815 net.cpp:129] Top shape: 50 64 56 56 (10035200)
I0528 22:24:53.823796 16815 net.cpp:137] Memory required for data: 1294541000
I0528 22:24:53.823799 16815 layer_factory.hpp:77] Creating layer layer_64_2_conv1
I0528 22:24:53.823810 16815 net.cpp:84] Creating Layer layer_64_2_conv1
I0528 22:24:53.823814 16815 net.cpp:406] layer_64_2_conv1 <- layer_64_2_bn1
I0528 22:24:53.823822 16815 net.cpp:380] layer_64_2_conv1 -> layer_64_2_conv1
I0528 22:24:53.826376 16815 net.cpp:122] Setting up layer_64_2_conv1
I0528 22:24:53.826395 16815 net.cpp:129] Top shape: 50 64 56 56 (10035200)
I0528 22:24:53.826400 16815 net.cpp:137] Memory required for data: 1334681800
I0528 22:24:53.826406 16815 layer_factory.hpp:77] Creating layer layer_64_2_bn2
I0528 22:24:53.826413 16815 net.cpp:84] Creating Layer layer_64_2_bn2
I0528 22:24:53.826418 16815 net.cpp:406] layer_64_2_bn2 <- layer_64_2_conv1
I0528 22:24:53.826424 16815 net.cpp:367] layer_64_2_bn2 -> layer_64_2_conv1 (in-place)
I0528 22:24:53.826596 16815 net.cpp:122] Setting up layer_64_2_bn2
I0528 22:24:53.826603 16815 net.cpp:129] Top shape: 50 64 56 56 (10035200)
I0528 22:24:53.826607 16815 net.cpp:137] Memory required for data: 1374822600
I0528 22:24:53.826616 16815 layer_factory.hpp:77] Creating layer layer_64_2_scale2
I0528 22:24:53.826623 16815 net.cpp:84] Creating Layer layer_64_2_scale2
I0528 22:24:53.826627 16815 net.cpp:406] layer_64_2_scale2 <- layer_64_2_conv1
I0528 22:24:53.826633 16815 net.cpp:367] layer_64_2_scale2 -> layer_64_2_conv1 (in-place)
I0528 22:24:53.826670 16815 layer_factory.hpp:77] Creating layer layer_64_2_scale2
I0528 22:24:53.826772 16815 net.cpp:122] Setting up layer_64_2_scale2
I0528 22:24:53.826779 16815 net.cpp:129] Top shape: 50 64 56 56 (10035200)
I0528 22:24:53.826783 16815 net.cpp:137] Memory required for data: 1414963400
I0528 22:24:53.826791 16815 layer_factory.hpp:77] Creating layer layer_64_2_relu2
I0528 22:24:53.826797 16815 net.cpp:84] Creating Layer layer_64_2_relu2
I0528 22:24:53.826802 16815 net.cpp:406] layer_64_2_relu2 <- layer_64_2_conv1
I0528 22:24:53.826807 16815 net.cpp:367] layer_64_2_relu2 -> layer_64_2_conv1 (in-place)
I0528 22:24:53.827452 16815 net.cpp:122] Setting up layer_64_2_relu2
I0528 22:24:53.827471 16815 net.cpp:129] Top shape: 50 64 56 56 (10035200)
I0528 22:24:53.827474 16815 net.cpp:137] Memory required for data: 1455104200
I0528 22:24:53.827479 16815 layer_factory.hpp:77] Creating layer layer_64_2_conv2
I0528 22:24:53.827491 16815 net.cpp:84] Creating Layer layer_64_2_conv2
I0528 22:24:53.827495 16815 net.cpp:406] layer_64_2_conv2 <- layer_64_2_conv1
I0528 22:24:53.827502 16815 net.cpp:380] layer_64_2_conv2 -> layer_64_2_conv2
I0528 22:24:53.832378 16815 net.cpp:122] Setting up layer_64_2_conv2
I0528 22:24:53.832397 16815 net.cpp:129] Top shape: 50 64 56 56 (10035200)
I0528 22:24:53.832402 16815 net.cpp:137] Memory required for data: 1495245000
I0528 22:24:53.832408 16815 layer_factory.hpp:77] Creating layer layer_64_2_sum
I0528 22:24:53.832422 16815 net.cpp:84] Creating Layer layer_64_2_sum
I0528 22:24:53.832433 16815 net.cpp:406] layer_64_2_sum <- layer_64_2_conv2
I0528 22:24:53.832439 16815 net.cpp:406] layer_64_2_sum <- layer_64_1_sum_layer_64_1_sum_0_split_1
I0528 22:24:53.832445 16815 net.cpp:380] layer_64_2_sum -> layer_64_2_sum
I0528 22:24:53.832473 16815 net.cpp:122] Setting up layer_64_2_sum
I0528 22:24:53.832480 16815 net.cpp:129] Top shape: 50 64 56 56 (10035200)
I0528 22:24:53.832484 16815 net.cpp:137] Memory required for data: 1535385800
I0528 22:24:53.832489 16815 layer_factory.hpp:77] Creating layer layer_64_2_sum_layer_64_2_sum_0_split
I0528 22:24:53.832495 16815 net.cpp:84] Creating Layer layer_64_2_sum_layer_64_2_sum_0_split
I0528 22:24:53.832499 16815 net.cpp:406] layer_64_2_sum_layer_64_2_sum_0_split <- layer_64_2_sum
I0528 22:24:53.832505 16815 net.cpp:380] layer_64_2_sum_layer_64_2_sum_0_split -> layer_64_2_sum_layer_64_2_sum_0_split_0
I0528 22:24:53.832515 16815 net.cpp:380] layer_64_2_sum_layer_64_2_sum_0_split -> layer_64_2_sum_layer_64_2_sum_0_split_1
I0528 22:24:53.832546 16815 net.cpp:122] Setting up layer_64_2_sum_layer_64_2_sum_0_split
I0528 22:24:53.832554 16815 net.cpp:129] Top shape: 50 64 56 56 (10035200)
I0528 22:24:53.832558 16815 net.cpp:129] Top shape: 50 64 56 56 (10035200)
I0528 22:24:53.832562 16815 net.cpp:137] Memory required for data: 1615667400
I0528 22:24:53.832566 16815 layer_factory.hpp:77] Creating layer layer_64_3_bn1
I0528 22:24:53.832572 16815 net.cpp:84] Creating Layer layer_64_3_bn1
I0528 22:24:53.832576 16815 net.cpp:406] layer_64_3_bn1 <- layer_64_2_sum_layer_64_2_sum_0_split_0
I0528 22:24:53.832582 16815 net.cpp:380] layer_64_3_bn1 -> layer_64_3_bn1
I0528 22:24:53.832761 16815 net.cpp:122] Setting up layer_64_3_bn1
I0528 22:24:53.832769 16815 net.cpp:129] Top shape: 50 64 56 56 (10035200)
I0528 22:24:53.832772 16815 net.cpp:137] Memory required for data: 1655808200
I0528 22:24:53.832785 16815 layer_factory.hpp:77] Creating layer layer_64_3_scale1
I0528 22:24:53.832794 16815 net.cpp:84] Creating Layer layer_64_3_scale1
I0528 22:24:53.832798 16815 net.cpp:406] layer_64_3_scale1 <- layer_64_3_bn1
I0528 22:24:53.832804 16815 net.cpp:367] layer_64_3_scale1 -> layer_64_3_bn1 (in-place)
I0528 22:24:53.832842 16815 layer_factory.hpp:77] Creating layer layer_64_3_scale1
I0528 22:24:53.832949 16815 net.cpp:122] Setting up layer_64_3_scale1
I0528 22:24:53.832957 16815 net.cpp:129] Top shape: 50 64 56 56 (10035200)
I0528 22:24:53.832960 16815 net.cpp:137] Memory required for data: 1695949000
I0528 22:24:53.832967 16815 layer_factory.hpp:77] Creating layer layer_64_3_relu1
I0528 22:24:53.832973 16815 net.cpp:84] Creating Layer layer_64_3_relu1
I0528 22:24:53.832978 16815 net.cpp:406] layer_64_3_relu1 <- layer_64_3_bn1
I0528 22:24:53.832983 16815 net.cpp:367] layer_64_3_relu1 -> layer_64_3_bn1 (in-place)
I0528 22:24:53.833151 16815 net.cpp:122] Setting up layer_64_3_relu1
I0528 22:24:53.833165 16815 net.cpp:129] Top shape: 50 64 56 56 (10035200)
I0528 22:24:53.833169 16815 net.cpp:137] Memory required for data: 1736089800
I0528 22:24:53.833173 16815 layer_factory.hpp:77] Creating layer layer_64_3_conv1
I0528 22:24:53.833184 16815 net.cpp:84] Creating Layer layer_64_3_conv1
I0528 22:24:53.833189 16815 net.cpp:406] layer_64_3_conv1 <- layer_64_3_bn1
I0528 22:24:53.833196 16815 net.cpp:380] layer_64_3_conv1 -> layer_64_3_conv1
I0528 22:24:53.835813 16815 net.cpp:122] Setting up layer_64_3_conv1
I0528 22:24:53.835830 16815 net.cpp:129] Top shape: 50 64 56 56 (10035200)
I0528 22:24:53.835834 16815 net.cpp:137] Memory required for data: 1776230600
I0528 22:24:53.835840 16815 layer_factory.hpp:77] Creating layer layer_64_3_bn2
I0528 22:24:53.835850 16815 net.cpp:84] Creating Layer layer_64_3_bn2
I0528 22:24:53.835855 16815 net.cpp:406] layer_64_3_bn2 <- layer_64_3_conv1
I0528 22:24:53.835861 16815 net.cpp:367] layer_64_3_bn2 -> layer_64_3_conv1 (in-place)
I0528 22:24:53.836041 16815 net.cpp:122] Setting up layer_64_3_bn2
I0528 22:24:53.836050 16815 net.cpp:129] Top shape: 50 64 56 56 (10035200)
I0528 22:24:53.836060 16815 net.cpp:137] Memory required for data: 1816371400
I0528 22:24:53.836074 16815 layer_factory.hpp:77] Creating layer layer_64_3_scale2
I0528 22:24:53.836083 16815 net.cpp:84] Creating Layer layer_64_3_scale2
I0528 22:24:53.836087 16815 net.cpp:406] layer_64_3_scale2 <- layer_64_3_conv1
I0528 22:24:53.836093 16815 net.cpp:367] layer_64_3_scale2 -> layer_64_3_conv1 (in-place)
I0528 22:24:53.836143 16815 layer_factory.hpp:77] Creating layer layer_64_3_scale2
I0528 22:24:53.836261 16815 net.cpp:122] Setting up layer_64_3_scale2
I0528 22:24:53.836271 16815 net.cpp:129] Top shape: 50 64 56 56 (10035200)
I0528 22:24:53.836273 16815 net.cpp:137] Memory required for data: 1856512200
I0528 22:24:53.836280 16815 layer_factory.hpp:77] Creating layer layer_64_3_relu2
I0528 22:24:53.836289 16815 net.cpp:84] Creating Layer layer_64_3_relu2
I0528 22:24:53.836293 16815 net.cpp:406] layer_64_3_relu2 <- layer_64_3_conv1
I0528 22:24:53.836299 16815 net.cpp:367] layer_64_3_relu2 -> layer_64_3_conv1 (in-place)
I0528 22:24:53.836491 16815 net.cpp:122] Setting up layer_64_3_relu2
I0528 22:24:53.836503 16815 net.cpp:129] Top shape: 50 64 56 56 (10035200)
I0528 22:24:53.836506 16815 net.cpp:137] Memory required for data: 1896653000
I0528 22:24:53.836511 16815 layer_factory.hpp:77] Creating layer layer_64_3_conv2
I0528 22:24:53.836522 16815 net.cpp:84] Creating Layer layer_64_3_conv2
I0528 22:24:53.836527 16815 net.cpp:406] layer_64_3_conv2 <- layer_64_3_conv1
I0528 22:24:53.836534 16815 net.cpp:380] layer_64_3_conv2 -> layer_64_3_conv2
I0528 22:24:53.839186 16815 net.cpp:122] Setting up layer_64_3_conv2
I0528 22:24:53.839203 16815 net.cpp:129] Top shape: 50 64 56 56 (10035200)
I0528 22:24:53.839208 16815 net.cpp:137] Memory required for data: 1936793800
I0528 22:24:53.839215 16815 layer_factory.hpp:77] Creating layer layer_64_3_sum
I0528 22:24:53.839221 16815 net.cpp:84] Creating Layer layer_64_3_sum
I0528 22:24:53.839226 16815 net.cpp:406] layer_64_3_sum <- layer_64_3_conv2
I0528 22:24:53.839231 16815 net.cpp:406] layer_64_3_sum <- layer_64_2_sum_layer_64_2_sum_0_split_1
I0528 22:24:53.839236 16815 net.cpp:380] layer_64_3_sum -> layer_64_3_sum
I0528 22:24:53.839267 16815 net.cpp:122] Setting up layer_64_3_sum
I0528 22:24:53.839275 16815 net.cpp:129] Top shape: 50 64 56 56 (10035200)
I0528 22:24:53.839279 16815 net.cpp:137] Memory required for data: 1976934600
I0528 22:24:53.839283 16815 layer_factory.hpp:77] Creating layer layer_128_1_bn1
I0528 22:24:53.839290 16815 net.cpp:84] Creating Layer layer_128_1_bn1
I0528 22:24:53.839294 16815 net.cpp:406] layer_128_1_bn1 <- layer_64_3_sum
I0528 22:24:53.839300 16815 net.cpp:380] layer_128_1_bn1 -> layer_128_1_bn1
I0528 22:24:53.839493 16815 net.cpp:122] Setting up layer_128_1_bn1
I0528 22:24:53.839500 16815 net.cpp:129] Top shape: 50 64 56 56 (10035200)
I0528 22:24:53.839504 16815 net.cpp:137] Memory required for data: 2017075400
I0528 22:24:53.839512 16815 layer_factory.hpp:77] Creating layer layer_128_1_scale1
I0528 22:24:53.839521 16815 net.cpp:84] Creating Layer layer_128_1_scale1
I0528 22:24:53.839526 16815 net.cpp:406] layer_128_1_scale1 <- layer_128_1_bn1
I0528 22:24:53.839534 16815 net.cpp:367] layer_128_1_scale1 -> layer_128_1_bn1 (in-place)
I0528 22:24:53.839582 16815 layer_factory.hpp:77] Creating layer layer_128_1_scale1
I0528 22:24:53.839701 16815 net.cpp:122] Setting up layer_128_1_scale1
I0528 22:24:53.839709 16815 net.cpp:129] Top shape: 50 64 56 56 (10035200)
I0528 22:24:53.839714 16815 net.cpp:137] Memory required for data: 2057216200
I0528 22:24:53.839720 16815 layer_factory.hpp:77] Creating layer layer_128_1_relu1
I0528 22:24:53.839726 16815 net.cpp:84] Creating Layer layer_128_1_relu1
I0528 22:24:53.839730 16815 net.cpp:406] layer_128_1_relu1 <- layer_128_1_bn1
I0528 22:24:53.839735 16815 net.cpp:367] layer_128_1_relu1 -> layer_128_1_bn1 (in-place)
I0528 22:24:53.840350 16815 net.cpp:122] Setting up layer_128_1_relu1
I0528 22:24:53.840369 16815 net.cpp:129] Top shape: 50 64 56 56 (10035200)
I0528 22:24:53.840374 16815 net.cpp:137] Memory required for data: 2097357000
I0528 22:24:53.840386 16815 layer_factory.hpp:77] Creating layer layer_128_1_bn1_layer_128_1_relu1_0_split
I0528 22:24:53.840399 16815 net.cpp:84] Creating Layer layer_128_1_bn1_layer_128_1_relu1_0_split
I0528 22:24:53.840404 16815 net.cpp:406] layer_128_1_bn1_layer_128_1_relu1_0_split <- layer_128_1_bn1
I0528 22:24:53.840410 16815 net.cpp:380] layer_128_1_bn1_layer_128_1_relu1_0_split -> layer_128_1_bn1_layer_128_1_relu1_0_split_0
I0528 22:24:53.840418 16815 net.cpp:380] layer_128_1_bn1_layer_128_1_relu1_0_split -> layer_128_1_bn1_layer_128_1_relu1_0_split_1
I0528 22:24:53.840463 16815 net.cpp:122] Setting up layer_128_1_bn1_layer_128_1_relu1_0_split
I0528 22:24:53.840471 16815 net.cpp:129] Top shape: 50 64 56 56 (10035200)
I0528 22:24:53.840476 16815 net.cpp:129] Top shape: 50 64 56 56 (10035200)
I0528 22:24:53.840479 16815 net.cpp:137] Memory required for data: 2177638600
I0528 22:24:53.840482 16815 layer_factory.hpp:77] Creating layer layer_128_1_conv1
I0528 22:24:53.840494 16815 net.cpp:84] Creating Layer layer_128_1_conv1
I0528 22:24:53.840499 16815 net.cpp:406] layer_128_1_conv1 <- layer_128_1_bn1_layer_128_1_relu1_0_split_0
I0528 22:24:53.840508 16815 net.cpp:380] layer_128_1_conv1 -> layer_128_1_conv1
I0528 22:24:53.845719 16815 net.cpp:122] Setting up layer_128_1_conv1
I0528 22:24:53.845738 16815 net.cpp:129] Top shape: 50 128 28 28 (5017600)
I0528 22:24:53.845743 16815 net.cpp:137] Memory required for data: 2197709000
I0528 22:24:53.845749 16815 layer_factory.hpp:77] Creating layer layer_128_1_bn2
I0528 22:24:53.845759 16815 net.cpp:84] Creating Layer layer_128_1_bn2
I0528 22:24:53.845764 16815 net.cpp:406] layer_128_1_bn2 <- layer_128_1_conv1
I0528 22:24:53.845772 16815 net.cpp:367] layer_128_1_bn2 -> layer_128_1_conv1 (in-place)
I0528 22:24:53.846515 16815 net.cpp:122] Setting up layer_128_1_bn2
I0528 22:24:53.846532 16815 net.cpp:129] Top shape: 50 128 28 28 (5017600)
I0528 22:24:53.846537 16815 net.cpp:137] Memory required for data: 2217779400
I0528 22:24:53.846547 16815 layer_factory.hpp:77] Creating layer layer_128_1_scale2
I0528 22:24:53.846556 16815 net.cpp:84] Creating Layer layer_128_1_scale2
I0528 22:24:53.846561 16815 net.cpp:406] layer_128_1_scale2 <- layer_128_1_conv1
I0528 22:24:53.846567 16815 net.cpp:367] layer_128_1_scale2 -> layer_128_1_conv1 (in-place)
I0528 22:24:53.846611 16815 layer_factory.hpp:77] Creating layer layer_128_1_scale2
I0528 22:24:53.846717 16815 net.cpp:122] Setting up layer_128_1_scale2
I0528 22:24:53.846725 16815 net.cpp:129] Top shape: 50 128 28 28 (5017600)
I0528 22:24:53.846729 16815 net.cpp:137] Memory required for data: 2237849800
I0528 22:24:53.846736 16815 layer_factory.hpp:77] Creating layer layer_128_1_relu2
I0528 22:24:53.846745 16815 net.cpp:84] Creating Layer layer_128_1_relu2
I0528 22:24:53.846748 16815 net.cpp:406] layer_128_1_relu2 <- layer_128_1_conv1
I0528 22:24:53.846755 16815 net.cpp:367] layer_128_1_relu2 -> layer_128_1_conv1 (in-place)
I0528 22:24:53.846935 16815 net.cpp:122] Setting up layer_128_1_relu2
I0528 22:24:53.846947 16815 net.cpp:129] Top shape: 50 128 28 28 (5017600)
I0528 22:24:53.846951 16815 net.cpp:137] Memory required for data: 2257920200
I0528 22:24:53.846956 16815 layer_factory.hpp:77] Creating layer layer_128_1_conv2
I0528 22:24:53.846967 16815 net.cpp:84] Creating Layer layer_128_1_conv2
I0528 22:24:53.846971 16815 net.cpp:406] layer_128_1_conv2 <- layer_128_1_conv1
I0528 22:24:53.846978 16815 net.cpp:380] layer_128_1_conv2 -> layer_128_1_conv2
I0528 22:24:53.852892 16815 net.cpp:122] Setting up layer_128_1_conv2
I0528 22:24:53.852910 16815 net.cpp:129] Top shape: 50 128 28 28 (5017600)
I0528 22:24:53.852916 16815 net.cpp:137] Memory required for data: 2277990600
I0528 22:24:53.852921 16815 layer_factory.hpp:77] Creating layer layer_128_1_conv_expand
I0528 22:24:53.852936 16815 net.cpp:84] Creating Layer layer_128_1_conv_expand
I0528 22:24:53.852941 16815 net.cpp:406] layer_128_1_conv_expand <- layer_128_1_bn1_layer_128_1_relu1_0_split_1
I0528 22:24:53.852951 16815 net.cpp:380] layer_128_1_conv_expand -> layer_128_1_conv_expand
I0528 22:24:53.854818 16815 net.cpp:122] Setting up layer_128_1_conv_expand
I0528 22:24:53.854843 16815 net.cpp:129] Top shape: 50 128 28 28 (5017600)
I0528 22:24:53.854848 16815 net.cpp:137] Memory required for data: 2298061000
I0528 22:24:53.854856 16815 layer_factory.hpp:77] Creating layer layer_128_1_sum
I0528 22:24:53.854864 16815 net.cpp:84] Creating Layer layer_128_1_sum
I0528 22:24:53.854869 16815 net.cpp:406] layer_128_1_sum <- layer_128_1_conv_expand
I0528 22:24:53.854876 16815 net.cpp:406] layer_128_1_sum <- layer_128_1_conv2
I0528 22:24:53.854882 16815 net.cpp:380] layer_128_1_sum -> layer_128_1_sum
I0528 22:24:53.854915 16815 net.cpp:122] Setting up layer_128_1_sum
I0528 22:24:53.854923 16815 net.cpp:129] Top shape: 50 128 28 28 (5017600)
I0528 22:24:53.854928 16815 net.cpp:137] Memory required for data: 2318131400
I0528 22:24:53.854931 16815 layer_factory.hpp:77] Creating layer layer_128_1_sum_layer_128_1_sum_0_split
I0528 22:24:53.854938 16815 net.cpp:84] Creating Layer layer_128_1_sum_layer_128_1_sum_0_split
I0528 22:24:53.854941 16815 net.cpp:406] layer_128_1_sum_layer_128_1_sum_0_split <- layer_128_1_sum
I0528 22:24:53.854949 16815 net.cpp:380] layer_128_1_sum_layer_128_1_sum_0_split -> layer_128_1_sum_layer_128_1_sum_0_split_0
I0528 22:24:53.854956 16815 net.cpp:380] layer_128_1_sum_layer_128_1_sum_0_split -> layer_128_1_sum_layer_128_1_sum_0_split_1
I0528 22:24:53.854991 16815 net.cpp:122] Setting up layer_128_1_sum_layer_128_1_sum_0_split
I0528 22:24:53.854998 16815 net.cpp:129] Top shape: 50 128 28 28 (5017600)
I0528 22:24:53.855006 16815 net.cpp:129] Top shape: 50 128 28 28 (5017600)
I0528 22:24:53.855010 16815 net.cpp:137] Memory required for data: 2358272200
I0528 22:24:53.855013 16815 layer_factory.hpp:77] Creating layer layer_128_2_bn1
I0528 22:24:53.855020 16815 net.cpp:84] Creating Layer layer_128_2_bn1
I0528 22:24:53.855024 16815 net.cpp:406] layer_128_2_bn1 <- layer_128_1_sum_layer_128_1_sum_0_split_0
I0528 22:24:53.855031 16815 net.cpp:380] layer_128_2_bn1 -> layer_128_2_bn1
I0528 22:24:53.855221 16815 net.cpp:122] Setting up layer_128_2_bn1
I0528 22:24:53.855234 16815 net.cpp:129] Top shape: 50 128 28 28 (5017600)
I0528 22:24:53.855238 16815 net.cpp:137] Memory required for data: 2378342600
I0528 22:24:53.855247 16815 layer_factory.hpp:77] Creating layer layer_128_2_scale1
I0528 22:24:53.855253 16815 net.cpp:84] Creating Layer layer_128_2_scale1
I0528 22:24:53.855258 16815 net.cpp:406] layer_128_2_scale1 <- layer_128_2_bn1
I0528 22:24:53.855267 16815 net.cpp:367] layer_128_2_scale1 -> layer_128_2_bn1 (in-place)
I0528 22:24:53.855309 16815 layer_factory.hpp:77] Creating layer layer_128_2_scale1
I0528 22:24:53.855417 16815 net.cpp:122] Setting up layer_128_2_scale1
I0528 22:24:53.855424 16815 net.cpp:129] Top shape: 50 128 28 28 (5017600)
I0528 22:24:53.855428 16815 net.cpp:137] Memory required for data: 2398413000
I0528 22:24:53.855434 16815 layer_factory.hpp:77] Creating layer layer_128_2_relu1
I0528 22:24:53.855442 16815 net.cpp:84] Creating Layer layer_128_2_relu1
I0528 22:24:53.855445 16815 net.cpp:406] layer_128_2_relu1 <- layer_128_2_bn1
I0528 22:24:53.855450 16815 net.cpp:367] layer_128_2_relu1 -> layer_128_2_bn1 (in-place)
I0528 22:24:53.855630 16815 net.cpp:122] Setting up layer_128_2_relu1
I0528 22:24:53.855640 16815 net.cpp:129] Top shape: 50 128 28 28 (5017600)
I0528 22:24:53.855644 16815 net.cpp:137] Memory required for data: 2418483400
I0528 22:24:53.855648 16815 layer_factory.hpp:77] Creating layer layer_128_2_conv1
I0528 22:24:53.855660 16815 net.cpp:84] Creating Layer layer_128_2_conv1
I0528 22:24:53.855665 16815 net.cpp:406] layer_128_2_conv1 <- layer_128_2_bn1
I0528 22:24:53.855674 16815 net.cpp:380] layer_128_2_conv1 -> layer_128_2_conv1
I0528 22:24:53.862131 16815 net.cpp:122] Setting up layer_128_2_conv1
I0528 22:24:53.862152 16815 net.cpp:129] Top shape: 50 128 28 28 (5017600)
I0528 22:24:53.862157 16815 net.cpp:137] Memory required for data: 2438553800
I0528 22:24:53.862164 16815 layer_factory.hpp:77] Creating layer layer_128_2_bn2
I0528 22:24:53.862174 16815 net.cpp:84] Creating Layer layer_128_2_bn2
I0528 22:24:53.862184 16815 net.cpp:406] layer_128_2_bn2 <- layer_128_2_conv1
I0528 22:24:53.862197 16815 net.cpp:367] layer_128_2_bn2 -> layer_128_2_conv1 (in-place)
I0528 22:24:53.862383 16815 net.cpp:122] Setting up layer_128_2_bn2
I0528 22:24:53.862393 16815 net.cpp:129] Top shape: 50 128 28 28 (5017600)
I0528 22:24:53.862397 16815 net.cpp:137] Memory required for data: 2458624200
I0528 22:24:53.862414 16815 layer_factory.hpp:77] Creating layer layer_128_2_scale2
I0528 22:24:53.862424 16815 net.cpp:84] Creating Layer layer_128_2_scale2
I0528 22:24:53.862428 16815 net.cpp:406] layer_128_2_scale2 <- layer_128_2_conv1
I0528 22:24:53.862434 16815 net.cpp:367] layer_128_2_scale2 -> layer_128_2_conv1 (in-place)
I0528 22:24:53.862480 16815 layer_factory.hpp:77] Creating layer layer_128_2_scale2
I0528 22:24:53.862588 16815 net.cpp:122] Setting up layer_128_2_scale2
I0528 22:24:53.862596 16815 net.cpp:129] Top shape: 50 128 28 28 (5017600)
I0528 22:24:53.862601 16815 net.cpp:137] Memory required for data: 2478694600
I0528 22:24:53.862607 16815 layer_factory.hpp:77] Creating layer layer_128_2_relu2
I0528 22:24:53.862613 16815 net.cpp:84] Creating Layer layer_128_2_relu2
I0528 22:24:53.862617 16815 net.cpp:406] layer_128_2_relu2 <- layer_128_2_conv1
I0528 22:24:53.862622 16815 net.cpp:367] layer_128_2_relu2 -> layer_128_2_conv1 (in-place)
I0528 22:24:53.863240 16815 net.cpp:122] Setting up layer_128_2_relu2
I0528 22:24:53.863260 16815 net.cpp:129] Top shape: 50 128 28 28 (5017600)
I0528 22:24:53.863265 16815 net.cpp:137] Memory required for data: 2498765000
I0528 22:24:53.863268 16815 layer_factory.hpp:77] Creating layer layer_128_2_conv2
I0528 22:24:53.863281 16815 net.cpp:84] Creating Layer layer_128_2_conv2
I0528 22:24:53.863286 16815 net.cpp:406] layer_128_2_conv2 <- layer_128_2_conv1
I0528 22:24:53.863293 16815 net.cpp:380] layer_128_2_conv2 -> layer_128_2_conv2
I0528 22:24:53.869313 16815 net.cpp:122] Setting up layer_128_2_conv2
I0528 22:24:53.869331 16815 net.cpp:129] Top shape: 50 128 28 28 (5017600)
I0528 22:24:53.869336 16815 net.cpp:137] Memory required for data: 2518835400
I0528 22:24:53.869343 16815 layer_factory.hpp:77] Creating layer layer_128_2_sum
I0528 22:24:53.869349 16815 net.cpp:84] Creating Layer layer_128_2_sum
I0528 22:24:53.869354 16815 net.cpp:406] layer_128_2_sum <- layer_128_2_conv2
I0528 22:24:53.869359 16815 net.cpp:406] layer_128_2_sum <- layer_128_1_sum_layer_128_1_sum_0_split_1
I0528 22:24:53.869367 16815 net.cpp:380] layer_128_2_sum -> layer_128_2_sum
I0528 22:24:53.869398 16815 net.cpp:122] Setting up layer_128_2_sum
I0528 22:24:53.869406 16815 net.cpp:129] Top shape: 50 128 28 28 (5017600)
I0528 22:24:53.869410 16815 net.cpp:137] Memory required for data: 2538905800
I0528 22:24:53.869413 16815 layer_factory.hpp:77] Creating layer layer_128_2_sum_layer_128_2_sum_0_split
I0528 22:24:53.869419 16815 net.cpp:84] Creating Layer layer_128_2_sum_layer_128_2_sum_0_split
I0528 22:24:53.869423 16815 net.cpp:406] layer_128_2_sum_layer_128_2_sum_0_split <- layer_128_2_sum
I0528 22:24:53.869429 16815 net.cpp:380] layer_128_2_sum_layer_128_2_sum_0_split -> layer_128_2_sum_layer_128_2_sum_0_split_0
I0528 22:24:53.869436 16815 net.cpp:380] layer_128_2_sum_layer_128_2_sum_0_split -> layer_128_2_sum_layer_128_2_sum_0_split_1
I0528 22:24:53.869473 16815 net.cpp:122] Setting up layer_128_2_sum_layer_128_2_sum_0_split
I0528 22:24:53.869480 16815 net.cpp:129] Top shape: 50 128 28 28 (5017600)
I0528 22:24:53.869485 16815 net.cpp:129] Top shape: 50 128 28 28 (5017600)
I0528 22:24:53.869489 16815 net.cpp:137] Memory required for data: 2579046600
I0528 22:24:53.869493 16815 layer_factory.hpp:77] Creating layer layer_128_3_bn1
I0528 22:24:53.869501 16815 net.cpp:84] Creating Layer layer_128_3_bn1
I0528 22:24:53.869505 16815 net.cpp:406] layer_128_3_bn1 <- layer_128_2_sum_layer_128_2_sum_0_split_0
I0528 22:24:53.869511 16815 net.cpp:380] layer_128_3_bn1 -> layer_128_3_bn1
I0528 22:24:53.869701 16815 net.cpp:122] Setting up layer_128_3_bn1
I0528 22:24:53.869709 16815 net.cpp:129] Top shape: 50 128 28 28 (5017600)
I0528 22:24:53.869721 16815 net.cpp:137] Memory required for data: 2599117000
I0528 22:24:53.869741 16815 layer_factory.hpp:77] Creating layer layer_128_3_scale1
I0528 22:24:53.869750 16815 net.cpp:84] Creating Layer layer_128_3_scale1
I0528 22:24:53.869755 16815 net.cpp:406] layer_128_3_scale1 <- layer_128_3_bn1
I0528 22:24:53.869760 16815 net.cpp:367] layer_128_3_scale1 -> layer_128_3_bn1 (in-place)
I0528 22:24:53.869806 16815 layer_factory.hpp:77] Creating layer layer_128_3_scale1
I0528 22:24:53.869917 16815 net.cpp:122] Setting up layer_128_3_scale1
I0528 22:24:53.869926 16815 net.cpp:129] Top shape: 50 128 28 28 (5017600)
I0528 22:24:53.869930 16815 net.cpp:137] Memory required for data: 2619187400
I0528 22:24:53.869936 16815 layer_factory.hpp:77] Creating layer layer_128_3_relu1
I0528 22:24:53.869946 16815 net.cpp:84] Creating Layer layer_128_3_relu1
I0528 22:24:53.869951 16815 net.cpp:406] layer_128_3_relu1 <- layer_128_3_bn1
I0528 22:24:53.869956 16815 net.cpp:367] layer_128_3_relu1 -> layer_128_3_bn1 (in-place)
I0528 22:24:53.870545 16815 net.cpp:122] Setting up layer_128_3_relu1
I0528 22:24:53.870564 16815 net.cpp:129] Top shape: 50 128 28 28 (5017600)
I0528 22:24:53.870568 16815 net.cpp:137] Memory required for data: 2639257800
I0528 22:24:53.870573 16815 layer_factory.hpp:77] Creating layer layer_128_3_conv1
I0528 22:24:53.870584 16815 net.cpp:84] Creating Layer layer_128_3_conv1
I0528 22:24:53.870589 16815 net.cpp:406] layer_128_3_conv1 <- layer_128_3_bn1
I0528 22:24:53.870597 16815 net.cpp:380] layer_128_3_conv1 -> layer_128_3_conv1
I0528 22:24:53.877068 16815 net.cpp:122] Setting up layer_128_3_conv1
I0528 22:24:53.877085 16815 net.cpp:129] Top shape: 50 128 28 28 (5017600)
I0528 22:24:53.877090 16815 net.cpp:137] Memory required for data: 2659328200
I0528 22:24:53.877096 16815 layer_factory.hpp:77] Creating layer layer_128_3_bn2
I0528 22:24:53.877104 16815 net.cpp:84] Creating Layer layer_128_3_bn2
I0528 22:24:53.877109 16815 net.cpp:406] layer_128_3_bn2 <- layer_128_3_conv1
I0528 22:24:53.877125 16815 net.cpp:367] layer_128_3_bn2 -> layer_128_3_conv1 (in-place)
I0528 22:24:53.877318 16815 net.cpp:122] Setting up layer_128_3_bn2
I0528 22:24:53.877327 16815 net.cpp:129] Top shape: 50 128 28 28 (5017600)
I0528 22:24:53.877331 16815 net.cpp:137] Memory required for data: 2679398600
I0528 22:24:53.877339 16815 layer_factory.hpp:77] Creating layer layer_128_3_scale2
I0528 22:24:53.877346 16815 net.cpp:84] Creating Layer layer_128_3_scale2
I0528 22:24:53.877351 16815 net.cpp:406] layer_128_3_scale2 <- layer_128_3_conv1
I0528 22:24:53.877357 16815 net.cpp:367] layer_128_3_scale2 -> layer_128_3_conv1 (in-place)
I0528 22:24:53.877400 16815 layer_factory.hpp:77] Creating layer layer_128_3_scale2
I0528 22:24:53.877513 16815 net.cpp:122] Setting up layer_128_3_scale2
I0528 22:24:53.877521 16815 net.cpp:129] Top shape: 50 128 28 28 (5017600)
I0528 22:24:53.877526 16815 net.cpp:137] Memory required for data: 2699469000
I0528 22:24:53.877532 16815 layer_factory.hpp:77] Creating layer layer_128_3_relu2
I0528 22:24:53.877537 16815 net.cpp:84] Creating Layer layer_128_3_relu2
I0528 22:24:53.877542 16815 net.cpp:406] layer_128_3_relu2 <- layer_128_3_conv1
I0528 22:24:53.877549 16815 net.cpp:367] layer_128_3_relu2 -> layer_128_3_conv1 (in-place)
I0528 22:24:53.877722 16815 net.cpp:122] Setting up layer_128_3_relu2
I0528 22:24:53.877732 16815 net.cpp:129] Top shape: 50 128 28 28 (5017600)
I0528 22:24:53.877735 16815 net.cpp:137] Memory required for data: 2719539400
I0528 22:24:53.877740 16815 layer_factory.hpp:77] Creating layer layer_128_3_conv2
I0528 22:24:53.877758 16815 net.cpp:84] Creating Layer layer_128_3_conv2
I0528 22:24:53.877764 16815 net.cpp:406] layer_128_3_conv2 <- layer_128_3_conv1
I0528 22:24:53.877774 16815 net.cpp:380] layer_128_3_conv2 -> layer_128_3_conv2
I0528 22:24:53.884241 16815 net.cpp:122] Setting up layer_128_3_conv2
I0528 22:24:53.884259 16815 net.cpp:129] Top shape: 50 128 28 28 (5017600)
I0528 22:24:53.884264 16815 net.cpp:137] Memory required for data: 2739609800
I0528 22:24:53.884275 16815 layer_factory.hpp:77] Creating layer layer_128_3_sum
I0528 22:24:53.884289 16815 net.cpp:84] Creating Layer layer_128_3_sum
I0528 22:24:53.884294 16815 net.cpp:406] layer_128_3_sum <- layer_128_3_conv2
I0528 22:24:53.884300 16815 net.cpp:406] layer_128_3_sum <- layer_128_2_sum_layer_128_2_sum_0_split_1
I0528 22:24:53.884312 16815 net.cpp:380] layer_128_3_sum -> layer_128_3_sum
I0528 22:24:53.884346 16815 net.cpp:122] Setting up layer_128_3_sum
I0528 22:24:53.884353 16815 net.cpp:129] Top shape: 50 128 28 28 (5017600)
I0528 22:24:53.884357 16815 net.cpp:137] Memory required for data: 2759680200
I0528 22:24:53.884361 16815 layer_factory.hpp:77] Creating layer layer_128_3_sum_layer_128_3_sum_0_split
I0528 22:24:53.884367 16815 net.cpp:84] Creating Layer layer_128_3_sum_layer_128_3_sum_0_split
I0528 22:24:53.884371 16815 net.cpp:406] layer_128_3_sum_layer_128_3_sum_0_split <- layer_128_3_sum
I0528 22:24:53.884377 16815 net.cpp:380] layer_128_3_sum_layer_128_3_sum_0_split -> layer_128_3_sum_layer_128_3_sum_0_split_0
I0528 22:24:53.884384 16815 net.cpp:380] layer_128_3_sum_layer_128_3_sum_0_split -> layer_128_3_sum_layer_128_3_sum_0_split_1
I0528 22:24:53.884428 16815 net.cpp:122] Setting up layer_128_3_sum_layer_128_3_sum_0_split
I0528 22:24:53.884435 16815 net.cpp:129] Top shape: 50 128 28 28 (5017600)
I0528 22:24:53.884439 16815 net.cpp:129] Top shape: 50 128 28 28 (5017600)
I0528 22:24:53.884443 16815 net.cpp:137] Memory required for data: 2799821000
I0528 22:24:53.884446 16815 layer_factory.hpp:77] Creating layer layer_128_4_bn1
I0528 22:24:53.884455 16815 net.cpp:84] Creating Layer layer_128_4_bn1
I0528 22:24:53.884460 16815 net.cpp:406] layer_128_4_bn1 <- layer_128_3_sum_layer_128_3_sum_0_split_0
I0528 22:24:53.884466 16815 net.cpp:380] layer_128_4_bn1 -> layer_128_4_bn1
I0528 22:24:53.884655 16815 net.cpp:122] Setting up layer_128_4_bn1
I0528 22:24:53.884665 16815 net.cpp:129] Top shape: 50 128 28 28 (5017600)
I0528 22:24:53.884667 16815 net.cpp:137] Memory required for data: 2819891400
I0528 22:24:53.884677 16815 layer_factory.hpp:77] Creating layer layer_128_4_scale1
I0528 22:24:53.884685 16815 net.cpp:84] Creating Layer layer_128_4_scale1
I0528 22:24:53.884690 16815 net.cpp:406] layer_128_4_scale1 <- layer_128_4_bn1
I0528 22:24:53.884696 16815 net.cpp:367] layer_128_4_scale1 -> layer_128_4_bn1 (in-place)
I0528 22:24:53.884739 16815 layer_factory.hpp:77] Creating layer layer_128_4_scale1
I0528 22:24:53.884850 16815 net.cpp:122] Setting up layer_128_4_scale1
I0528 22:24:53.884858 16815 net.cpp:129] Top shape: 50 128 28 28 (5017600)
I0528 22:24:53.884862 16815 net.cpp:137] Memory required for data: 2839961800
I0528 22:24:53.884868 16815 layer_factory.hpp:77] Creating layer layer_128_4_relu1
I0528 22:24:53.884879 16815 net.cpp:84] Creating Layer layer_128_4_relu1
I0528 22:24:53.884884 16815 net.cpp:406] layer_128_4_relu1 <- layer_128_4_bn1
I0528 22:24:53.884889 16815 net.cpp:367] layer_128_4_relu1 -> layer_128_4_bn1 (in-place)
I0528 22:24:53.885478 16815 net.cpp:122] Setting up layer_128_4_relu1
I0528 22:24:53.885496 16815 net.cpp:129] Top shape: 50 128 28 28 (5017600)
I0528 22:24:53.885500 16815 net.cpp:137] Memory required for data: 2860032200
I0528 22:24:53.885505 16815 layer_factory.hpp:77] Creating layer layer_128_4_conv1
I0528 22:24:53.885515 16815 net.cpp:84] Creating Layer layer_128_4_conv1
I0528 22:24:53.885520 16815 net.cpp:406] layer_128_4_conv1 <- layer_128_4_bn1
I0528 22:24:53.885529 16815 net.cpp:380] layer_128_4_conv1 -> layer_128_4_conv1
I0528 22:24:53.891584 16815 net.cpp:122] Setting up layer_128_4_conv1
I0528 22:24:53.891603 16815 net.cpp:129] Top shape: 50 128 28 28 (5017600)
I0528 22:24:53.891608 16815 net.cpp:137] Memory required for data: 2880102600
I0528 22:24:53.891614 16815 layer_factory.hpp:77] Creating layer layer_128_4_bn2
I0528 22:24:53.891624 16815 net.cpp:84] Creating Layer layer_128_4_bn2
I0528 22:24:53.891629 16815 net.cpp:406] layer_128_4_bn2 <- layer_128_4_conv1
I0528 22:24:53.891636 16815 net.cpp:367] layer_128_4_bn2 -> layer_128_4_conv1 (in-place)
I0528 22:24:53.891830 16815 net.cpp:122] Setting up layer_128_4_bn2
I0528 22:24:53.891847 16815 net.cpp:129] Top shape: 50 128 28 28 (5017600)
I0528 22:24:53.891851 16815 net.cpp:137] Memory required for data: 2900173000
I0528 22:24:53.891861 16815 layer_factory.hpp:77] Creating layer layer_128_4_scale2
I0528 22:24:53.891870 16815 net.cpp:84] Creating Layer layer_128_4_scale2
I0528 22:24:53.891875 16815 net.cpp:406] layer_128_4_scale2 <- layer_128_4_conv1
I0528 22:24:53.891880 16815 net.cpp:367] layer_128_4_scale2 -> layer_128_4_conv1 (in-place)
I0528 22:24:53.891924 16815 layer_factory.hpp:77] Creating layer layer_128_4_scale2
I0528 22:24:53.892036 16815 net.cpp:122] Setting up layer_128_4_scale2
I0528 22:24:53.892045 16815 net.cpp:129] Top shape: 50 128 28 28 (5017600)
I0528 22:24:53.892048 16815 net.cpp:137] Memory required for data: 2920243400
I0528 22:24:53.892055 16815 layer_factory.hpp:77] Creating layer layer_128_4_relu2
I0528 22:24:53.892061 16815 net.cpp:84] Creating Layer layer_128_4_relu2
I0528 22:24:53.892066 16815 net.cpp:406] layer_128_4_relu2 <- layer_128_4_conv1
I0528 22:24:53.892074 16815 net.cpp:367] layer_128_4_relu2 -> layer_128_4_conv1 (in-place)
I0528 22:24:53.892695 16815 net.cpp:122] Setting up layer_128_4_relu2
I0528 22:24:53.892712 16815 net.cpp:129] Top shape: 50 128 28 28 (5017600)
I0528 22:24:53.892716 16815 net.cpp:137] Memory required for data: 2940313800
I0528 22:24:53.892720 16815 layer_factory.hpp:77] Creating layer layer_128_4_conv2
I0528 22:24:53.892734 16815 net.cpp:84] Creating Layer layer_128_4_conv2
I0528 22:24:53.892738 16815 net.cpp:406] layer_128_4_conv2 <- layer_128_4_conv1
I0528 22:24:53.892750 16815 net.cpp:380] layer_128_4_conv2 -> layer_128_4_conv2
I0528 22:24:53.899224 16815 net.cpp:122] Setting up layer_128_4_conv2
I0528 22:24:53.899242 16815 net.cpp:129] Top shape: 50 128 28 28 (5017600)
I0528 22:24:53.899250 16815 net.cpp:137] Memory required for data: 2960384200
I0528 22:24:53.899256 16815 layer_factory.hpp:77] Creating layer layer_128_4_sum
I0528 22:24:53.899263 16815 net.cpp:84] Creating Layer layer_128_4_sum
I0528 22:24:53.899268 16815 net.cpp:406] layer_128_4_sum <- layer_128_4_conv2
I0528 22:24:53.899273 16815 net.cpp:406] layer_128_4_sum <- layer_128_3_sum_layer_128_3_sum_0_split_1
I0528 22:24:53.899279 16815 net.cpp:380] layer_128_4_sum -> layer_128_4_sum
I0528 22:24:53.899310 16815 net.cpp:122] Setting up layer_128_4_sum
I0528 22:24:53.899318 16815 net.cpp:129] Top shape: 50 128 28 28 (5017600)
I0528 22:24:53.899322 16815 net.cpp:137] Memory required for data: 2980454600
I0528 22:24:53.899327 16815 layer_factory.hpp:77] Creating layer layer_256_1_bn1
I0528 22:24:53.899334 16815 net.cpp:84] Creating Layer layer_256_1_bn1
I0528 22:24:53.899339 16815 net.cpp:406] layer_256_1_bn1 <- layer_128_4_sum
I0528 22:24:53.899345 16815 net.cpp:380] layer_256_1_bn1 -> layer_256_1_bn1
I0528 22:24:53.899547 16815 net.cpp:122] Setting up layer_256_1_bn1
I0528 22:24:53.899556 16815 net.cpp:129] Top shape: 50 128 28 28 (5017600)
I0528 22:24:53.899560 16815 net.cpp:137] Memory required for data: 3000525000
I0528 22:24:53.899569 16815 layer_factory.hpp:77] Creating layer layer_256_1_scale1
I0528 22:24:53.899575 16815 net.cpp:84] Creating Layer layer_256_1_scale1
I0528 22:24:53.899580 16815 net.cpp:406] layer_256_1_scale1 <- layer_256_1_bn1
I0528 22:24:53.899585 16815 net.cpp:367] layer_256_1_scale1 -> layer_256_1_bn1 (in-place)
I0528 22:24:53.899631 16815 layer_factory.hpp:77] Creating layer layer_256_1_scale1
I0528 22:24:53.899744 16815 net.cpp:122] Setting up layer_256_1_scale1
I0528 22:24:53.899751 16815 net.cpp:129] Top shape: 50 128 28 28 (5017600)
I0528 22:24:53.899755 16815 net.cpp:137] Memory required for data: 3020595400
I0528 22:24:53.899761 16815 layer_factory.hpp:77] Creating layer layer_256_1_relu1
I0528 22:24:53.899770 16815 net.cpp:84] Creating Layer layer_256_1_relu1
I0528 22:24:53.899775 16815 net.cpp:406] layer_256_1_relu1 <- layer_256_1_bn1
I0528 22:24:53.899780 16815 net.cpp:367] layer_256_1_relu1 -> layer_256_1_bn1 (in-place)
I0528 22:24:53.900418 16815 net.cpp:122] Setting up layer_256_1_relu1
I0528 22:24:53.900439 16815 net.cpp:129] Top shape: 50 128 28 28 (5017600)
I0528 22:24:53.900449 16815 net.cpp:137] Memory required for data: 3040665800
I0528 22:24:53.900454 16815 layer_factory.hpp:77] Creating layer layer_256_1_bn1_layer_256_1_relu1_0_split
I0528 22:24:53.900462 16815 net.cpp:84] Creating Layer layer_256_1_bn1_layer_256_1_relu1_0_split
I0528 22:24:53.900467 16815 net.cpp:406] layer_256_1_bn1_layer_256_1_relu1_0_split <- layer_256_1_bn1
I0528 22:24:53.900473 16815 net.cpp:380] layer_256_1_bn1_layer_256_1_relu1_0_split -> layer_256_1_bn1_layer_256_1_relu1_0_split_0
I0528 22:24:53.900481 16815 net.cpp:380] layer_256_1_bn1_layer_256_1_relu1_0_split -> layer_256_1_bn1_layer_256_1_relu1_0_split_1
I0528 22:24:53.900530 16815 net.cpp:122] Setting up layer_256_1_bn1_layer_256_1_relu1_0_split
I0528 22:24:53.900538 16815 net.cpp:129] Top shape: 50 128 28 28 (5017600)
I0528 22:24:53.900542 16815 net.cpp:129] Top shape: 50 128 28 28 (5017600)
I0528 22:24:53.900547 16815 net.cpp:137] Memory required for data: 3080806600
I0528 22:24:53.900549 16815 layer_factory.hpp:77] Creating layer layer_256_1_conv1
I0528 22:24:53.900560 16815 net.cpp:84] Creating Layer layer_256_1_conv1
I0528 22:24:53.900565 16815 net.cpp:406] layer_256_1_conv1 <- layer_256_1_bn1_layer_256_1_relu1_0_split_0
I0528 22:24:53.900574 16815 net.cpp:380] layer_256_1_conv1 -> layer_256_1_conv1
I0528 22:24:53.911381 16815 net.cpp:122] Setting up layer_256_1_conv1
I0528 22:24:53.911399 16815 net.cpp:129] Top shape: 50 256 14 14 (2508800)
I0528 22:24:53.911404 16815 net.cpp:137] Memory required for data: 3090841800
I0528 22:24:53.911411 16815 layer_factory.hpp:77] Creating layer layer_256_1_bn2
I0528 22:24:53.911420 16815 net.cpp:84] Creating Layer layer_256_1_bn2
I0528 22:24:53.911425 16815 net.cpp:406] layer_256_1_bn2 <- layer_256_1_conv1
I0528 22:24:53.911432 16815 net.cpp:367] layer_256_1_bn2 -> layer_256_1_conv1 (in-place)
I0528 22:24:53.911634 16815 net.cpp:122] Setting up layer_256_1_bn2
I0528 22:24:53.911643 16815 net.cpp:129] Top shape: 50 256 14 14 (2508800)
I0528 22:24:53.911648 16815 net.cpp:137] Memory required for data: 3100877000
I0528 22:24:53.911655 16815 layer_factory.hpp:77] Creating layer layer_256_1_scale2
I0528 22:24:53.911664 16815 net.cpp:84] Creating Layer layer_256_1_scale2
I0528 22:24:53.911669 16815 net.cpp:406] layer_256_1_scale2 <- layer_256_1_conv1
I0528 22:24:53.911674 16815 net.cpp:367] layer_256_1_scale2 -> layer_256_1_conv1 (in-place)
I0528 22:24:53.911723 16815 layer_factory.hpp:77] Creating layer layer_256_1_scale2
I0528 22:24:53.911837 16815 net.cpp:122] Setting up layer_256_1_scale2
I0528 22:24:53.911846 16815 net.cpp:129] Top shape: 50 256 14 14 (2508800)
I0528 22:24:53.911849 16815 net.cpp:137] Memory required for data: 3110912200
I0528 22:24:53.911856 16815 layer_factory.hpp:77] Creating layer layer_256_1_relu2
I0528 22:24:53.911862 16815 net.cpp:84] Creating Layer layer_256_1_relu2
I0528 22:24:53.911866 16815 net.cpp:406] layer_256_1_relu2 <- layer_256_1_conv1
I0528 22:24:53.911873 16815 net.cpp:367] layer_256_1_relu2 -> layer_256_1_conv1 (in-place)
I0528 22:24:53.912474 16815 net.cpp:122] Setting up layer_256_1_relu2
I0528 22:24:53.912492 16815 net.cpp:129] Top shape: 50 256 14 14 (2508800)
I0528 22:24:53.912497 16815 net.cpp:137] Memory required for data: 3120947400
I0528 22:24:53.912500 16815 layer_factory.hpp:77] Creating layer layer_256_1_conv2
I0528 22:24:53.912513 16815 net.cpp:84] Creating Layer layer_256_1_conv2
I0528 22:24:53.912518 16815 net.cpp:406] layer_256_1_conv2 <- layer_256_1_conv1
I0528 22:24:53.912528 16815 net.cpp:380] layer_256_1_conv2 -> layer_256_1_conv2
I0528 22:24:53.931929 16815 net.cpp:122] Setting up layer_256_1_conv2
I0528 22:24:53.931947 16815 net.cpp:129] Top shape: 50 256 14 14 (2508800)
I0528 22:24:53.931952 16815 net.cpp:137] Memory required for data: 3130982600
I0528 22:24:53.931958 16815 layer_factory.hpp:77] Creating layer layer_256_1_conv_expand
I0528 22:24:53.931974 16815 net.cpp:84] Creating Layer layer_256_1_conv_expand
I0528 22:24:53.931979 16815 net.cpp:406] layer_256_1_conv_expand <- layer_256_1_bn1_layer_256_1_relu1_0_split_1
I0528 22:24:53.931998 16815 net.cpp:380] layer_256_1_conv_expand -> layer_256_1_conv_expand
I0528 22:24:53.935078 16815 net.cpp:122] Setting up layer_256_1_conv_expand
I0528 22:24:53.935097 16815 net.cpp:129] Top shape: 50 256 14 14 (2508800)
I0528 22:24:53.935103 16815 net.cpp:137] Memory required for data: 3141017800
I0528 22:24:53.935109 16815 layer_factory.hpp:77] Creating layer layer_256_1_sum
I0528 22:24:53.935122 16815 net.cpp:84] Creating Layer layer_256_1_sum
I0528 22:24:53.935129 16815 net.cpp:406] layer_256_1_sum <- layer_256_1_conv_expand
I0528 22:24:53.935135 16815 net.cpp:406] layer_256_1_sum <- layer_256_1_conv2
I0528 22:24:53.935143 16815 net.cpp:380] layer_256_1_sum -> layer_256_1_sum
I0528 22:24:53.935178 16815 net.cpp:122] Setting up layer_256_1_sum
I0528 22:24:53.935184 16815 net.cpp:129] Top shape: 50 256 14 14 (2508800)
I0528 22:24:53.935189 16815 net.cpp:137] Memory required for data: 3151053000
I0528 22:24:53.935191 16815 layer_factory.hpp:77] Creating layer layer_256_1_sum_layer_256_1_sum_0_split
I0528 22:24:53.935200 16815 net.cpp:84] Creating Layer layer_256_1_sum_layer_256_1_sum_0_split
I0528 22:24:53.935204 16815 net.cpp:406] layer_256_1_sum_layer_256_1_sum_0_split <- layer_256_1_sum
I0528 22:24:53.935210 16815 net.cpp:380] layer_256_1_sum_layer_256_1_sum_0_split -> layer_256_1_sum_layer_256_1_sum_0_split_0
I0528 22:24:53.935217 16815 net.cpp:380] layer_256_1_sum_layer_256_1_sum_0_split -> layer_256_1_sum_layer_256_1_sum_0_split_1
I0528 22:24:53.935258 16815 net.cpp:122] Setting up layer_256_1_sum_layer_256_1_sum_0_split
I0528 22:24:53.935266 16815 net.cpp:129] Top shape: 50 256 14 14 (2508800)
I0528 22:24:53.935271 16815 net.cpp:129] Top shape: 50 256 14 14 (2508800)
I0528 22:24:53.935274 16815 net.cpp:137] Memory required for data: 3171123400
I0528 22:24:53.935278 16815 layer_factory.hpp:77] Creating layer layer_256_2_bn1
I0528 22:24:53.935286 16815 net.cpp:84] Creating Layer layer_256_2_bn1
I0528 22:24:53.935290 16815 net.cpp:406] layer_256_2_bn1 <- layer_256_1_sum_layer_256_1_sum_0_split_0
I0528 22:24:53.935297 16815 net.cpp:380] layer_256_2_bn1 -> layer_256_2_bn1
I0528 22:24:53.935497 16815 net.cpp:122] Setting up layer_256_2_bn1
I0528 22:24:53.935505 16815 net.cpp:129] Top shape: 50 256 14 14 (2508800)
I0528 22:24:53.935509 16815 net.cpp:137] Memory required for data: 3181158600
I0528 22:24:53.935518 16815 layer_factory.hpp:77] Creating layer layer_256_2_scale1
I0528 22:24:53.935524 16815 net.cpp:84] Creating Layer layer_256_2_scale1
I0528 22:24:53.935529 16815 net.cpp:406] layer_256_2_scale1 <- layer_256_2_bn1
I0528 22:24:53.935534 16815 net.cpp:367] layer_256_2_scale1 -> layer_256_2_bn1 (in-place)
I0528 22:24:53.935582 16815 layer_factory.hpp:77] Creating layer layer_256_2_scale1
I0528 22:24:53.935701 16815 net.cpp:122] Setting up layer_256_2_scale1
I0528 22:24:53.935710 16815 net.cpp:129] Top shape: 50 256 14 14 (2508800)
I0528 22:24:53.935714 16815 net.cpp:137] Memory required for data: 3191193800
I0528 22:24:53.935720 16815 layer_factory.hpp:77] Creating layer layer_256_2_relu1
I0528 22:24:53.935726 16815 net.cpp:84] Creating Layer layer_256_2_relu1
I0528 22:24:53.935734 16815 net.cpp:406] layer_256_2_relu1 <- layer_256_2_bn1
I0528 22:24:53.935739 16815 net.cpp:367] layer_256_2_relu1 -> layer_256_2_bn1 (in-place)
I0528 22:24:53.936466 16815 net.cpp:122] Setting up layer_256_2_relu1
I0528 22:24:53.936483 16815 net.cpp:129] Top shape: 50 256 14 14 (2508800)
I0528 22:24:53.936488 16815 net.cpp:137] Memory required for data: 3201229000
I0528 22:24:53.936492 16815 layer_factory.hpp:77] Creating layer layer_256_2_conv1
I0528 22:24:53.936506 16815 net.cpp:84] Creating Layer layer_256_2_conv1
I0528 22:24:53.936511 16815 net.cpp:406] layer_256_2_conv1 <- layer_256_2_bn1
I0528 22:24:53.936519 16815 net.cpp:380] layer_256_2_conv1 -> layer_256_2_conv1
I0528 22:24:53.955816 16815 net.cpp:122] Setting up layer_256_2_conv1
I0528 22:24:53.955833 16815 net.cpp:129] Top shape: 50 256 14 14 (2508800)
I0528 22:24:53.955842 16815 net.cpp:137] Memory required for data: 3211264200
I0528 22:24:53.955854 16815 layer_factory.hpp:77] Creating layer layer_256_2_bn2
I0528 22:24:53.955864 16815 net.cpp:84] Creating Layer layer_256_2_bn2
I0528 22:24:53.955869 16815 net.cpp:406] layer_256_2_bn2 <- layer_256_2_conv1
I0528 22:24:53.955875 16815 net.cpp:367] layer_256_2_bn2 -> layer_256_2_conv1 (in-place)
I0528 22:24:53.956077 16815 net.cpp:122] Setting up layer_256_2_bn2
I0528 22:24:53.956086 16815 net.cpp:129] Top shape: 50 256 14 14 (2508800)
I0528 22:24:53.956090 16815 net.cpp:137] Memory required for data: 3221299400
I0528 22:24:53.956100 16815 layer_factory.hpp:77] Creating layer layer_256_2_scale2
I0528 22:24:53.956107 16815 net.cpp:84] Creating Layer layer_256_2_scale2
I0528 22:24:53.956112 16815 net.cpp:406] layer_256_2_scale2 <- layer_256_2_conv1
I0528 22:24:53.956125 16815 net.cpp:367] layer_256_2_scale2 -> layer_256_2_conv1 (in-place)
I0528 22:24:53.956174 16815 layer_factory.hpp:77] Creating layer layer_256_2_scale2
I0528 22:24:53.956287 16815 net.cpp:122] Setting up layer_256_2_scale2
I0528 22:24:53.956296 16815 net.cpp:129] Top shape: 50 256 14 14 (2508800)
I0528 22:24:53.956300 16815 net.cpp:137] Memory required for data: 3231334600
I0528 22:24:53.956306 16815 layer_factory.hpp:77] Creating layer layer_256_2_relu2
I0528 22:24:53.956315 16815 net.cpp:84] Creating Layer layer_256_2_relu2
I0528 22:24:53.956318 16815 net.cpp:406] layer_256_2_relu2 <- layer_256_2_conv1
I0528 22:24:53.956323 16815 net.cpp:367] layer_256_2_relu2 -> layer_256_2_conv1 (in-place)
I0528 22:24:53.956923 16815 net.cpp:122] Setting up layer_256_2_relu2
I0528 22:24:53.956935 16815 net.cpp:129] Top shape: 50 256 14 14 (2508800)
I0528 22:24:53.956939 16815 net.cpp:137] Memory required for data: 3241369800
I0528 22:24:53.956943 16815 layer_factory.hpp:77] Creating layer layer_256_2_conv2
I0528 22:24:53.956956 16815 net.cpp:84] Creating Layer layer_256_2_conv2
I0528 22:24:53.956962 16815 net.cpp:406] layer_256_2_conv2 <- layer_256_2_conv1
I0528 22:24:53.956970 16815 net.cpp:380] layer_256_2_conv2 -> layer_256_2_conv2
I0528 22:24:53.976442 16815 net.cpp:122] Setting up layer_256_2_conv2
I0528 22:24:53.976459 16815 net.cpp:129] Top shape: 50 256 14 14 (2508800)
I0528 22:24:53.976464 16815 net.cpp:137] Memory required for data: 3251405000
I0528 22:24:53.976470 16815 layer_factory.hpp:77] Creating layer layer_256_2_sum
I0528 22:24:53.976480 16815 net.cpp:84] Creating Layer layer_256_2_sum
I0528 22:24:53.976485 16815 net.cpp:406] layer_256_2_sum <- layer_256_2_conv2
I0528 22:24:53.976490 16815 net.cpp:406] layer_256_2_sum <- layer_256_1_sum_layer_256_1_sum_0_split_1
I0528 22:24:53.976495 16815 net.cpp:380] layer_256_2_sum -> layer_256_2_sum
I0528 22:24:53.976528 16815 net.cpp:122] Setting up layer_256_2_sum
I0528 22:24:53.976536 16815 net.cpp:129] Top shape: 50 256 14 14 (2508800)
I0528 22:24:53.976539 16815 net.cpp:137] Memory required for data: 3261440200
I0528 22:24:53.976543 16815 layer_factory.hpp:77] Creating layer layer_256_2_sum_layer_256_2_sum_0_split
I0528 22:24:53.976549 16815 net.cpp:84] Creating Layer layer_256_2_sum_layer_256_2_sum_0_split
I0528 22:24:53.976553 16815 net.cpp:406] layer_256_2_sum_layer_256_2_sum_0_split <- layer_256_2_sum
I0528 22:24:53.976560 16815 net.cpp:380] layer_256_2_sum_layer_256_2_sum_0_split -> layer_256_2_sum_layer_256_2_sum_0_split_0
I0528 22:24:53.976568 16815 net.cpp:380] layer_256_2_sum_layer_256_2_sum_0_split -> layer_256_2_sum_layer_256_2_sum_0_split_1
I0528 22:24:53.976608 16815 net.cpp:122] Setting up layer_256_2_sum_layer_256_2_sum_0_split
I0528 22:24:53.976616 16815 net.cpp:129] Top shape: 50 256 14 14 (2508800)
I0528 22:24:53.976620 16815 net.cpp:129] Top shape: 50 256 14 14 (2508800)
I0528 22:24:53.976624 16815 net.cpp:137] Memory required for data: 3281510600
I0528 22:24:53.976627 16815 layer_factory.hpp:77] Creating layer layer_256_3_bn1
I0528 22:24:53.976634 16815 net.cpp:84] Creating Layer layer_256_3_bn1
I0528 22:24:53.976639 16815 net.cpp:406] layer_256_3_bn1 <- layer_256_2_sum_layer_256_2_sum_0_split_0
I0528 22:24:53.976650 16815 net.cpp:380] layer_256_3_bn1 -> layer_256_3_bn1
I0528 22:24:53.976861 16815 net.cpp:122] Setting up layer_256_3_bn1
I0528 22:24:53.976869 16815 net.cpp:129] Top shape: 50 256 14 14 (2508800)
I0528 22:24:53.976873 16815 net.cpp:137] Memory required for data: 3291545800
I0528 22:24:53.976881 16815 layer_factory.hpp:77] Creating layer layer_256_3_scale1
I0528 22:24:53.976888 16815 net.cpp:84] Creating Layer layer_256_3_scale1
I0528 22:24:53.976892 16815 net.cpp:406] layer_256_3_scale1 <- layer_256_3_bn1
I0528 22:24:53.976900 16815 net.cpp:367] layer_256_3_scale1 -> layer_256_3_bn1 (in-place)
I0528 22:24:53.976945 16815 layer_factory.hpp:77] Creating layer layer_256_3_scale1
I0528 22:24:53.977062 16815 net.cpp:122] Setting up layer_256_3_scale1
I0528 22:24:53.977071 16815 net.cpp:129] Top shape: 50 256 14 14 (2508800)
I0528 22:24:53.977074 16815 net.cpp:137] Memory required for data: 3301581000
I0528 22:24:53.977080 16815 layer_factory.hpp:77] Creating layer layer_256_3_relu1
I0528 22:24:53.977087 16815 net.cpp:84] Creating Layer layer_256_3_relu1
I0528 22:24:53.977090 16815 net.cpp:406] layer_256_3_relu1 <- layer_256_3_bn1
I0528 22:24:53.977095 16815 net.cpp:367] layer_256_3_relu1 -> layer_256_3_bn1 (in-place)
I0528 22:24:53.977277 16815 net.cpp:122] Setting up layer_256_3_relu1
I0528 22:24:53.977291 16815 net.cpp:129] Top shape: 50 256 14 14 (2508800)
I0528 22:24:53.977295 16815 net.cpp:137] Memory required for data: 3311616200
I0528 22:24:53.977298 16815 layer_factory.hpp:77] Creating layer layer_256_3_conv1
I0528 22:24:53.977310 16815 net.cpp:84] Creating Layer layer_256_3_conv1
I0528 22:24:53.977316 16815 net.cpp:406] layer_256_3_conv1 <- layer_256_3_bn1
I0528 22:24:53.977324 16815 net.cpp:380] layer_256_3_conv1 -> layer_256_3_conv1
I0528 22:24:53.996613 16815 net.cpp:122] Setting up layer_256_3_conv1
I0528 22:24:53.996635 16815 net.cpp:129] Top shape: 50 256 14 14 (2508800)
I0528 22:24:53.996640 16815 net.cpp:137] Memory required for data: 3321651400
I0528 22:24:53.996646 16815 layer_factory.hpp:77] Creating layer layer_256_3_bn2
I0528 22:24:53.996654 16815 net.cpp:84] Creating Layer layer_256_3_bn2
I0528 22:24:53.996659 16815 net.cpp:406] layer_256_3_bn2 <- layer_256_3_conv1
I0528 22:24:53.996667 16815 net.cpp:367] layer_256_3_bn2 -> layer_256_3_conv1 (in-place)
I0528 22:24:53.996871 16815 net.cpp:122] Setting up layer_256_3_bn2
I0528 22:24:53.996881 16815 net.cpp:129] Top shape: 50 256 14 14 (2508800)
I0528 22:24:53.996884 16815 net.cpp:137] Memory required for data: 3331686600
I0528 22:24:53.996892 16815 layer_factory.hpp:77] Creating layer layer_256_3_scale2
I0528 22:24:53.996899 16815 net.cpp:84] Creating Layer layer_256_3_scale2
I0528 22:24:53.996903 16815 net.cpp:406] layer_256_3_scale2 <- layer_256_3_conv1
I0528 22:24:53.996909 16815 net.cpp:367] layer_256_3_scale2 -> layer_256_3_conv1 (in-place)
I0528 22:24:53.996955 16815 layer_factory.hpp:77] Creating layer layer_256_3_scale2
I0528 22:24:53.997071 16815 net.cpp:122] Setting up layer_256_3_scale2
I0528 22:24:53.997078 16815 net.cpp:129] Top shape: 50 256 14 14 (2508800)
I0528 22:24:53.997081 16815 net.cpp:137] Memory required for data: 3341721800
I0528 22:24:53.997088 16815 layer_factory.hpp:77] Creating layer layer_256_3_relu2
I0528 22:24:53.997094 16815 net.cpp:84] Creating Layer layer_256_3_relu2
I0528 22:24:53.997098 16815 net.cpp:406] layer_256_3_relu2 <- layer_256_3_conv1
I0528 22:24:53.997105 16815 net.cpp:367] layer_256_3_relu2 -> layer_256_3_conv1 (in-place)
I0528 22:24:53.997720 16815 net.cpp:122] Setting up layer_256_3_relu2
I0528 22:24:53.997735 16815 net.cpp:129] Top shape: 50 256 14 14 (2508800)
I0528 22:24:53.997740 16815 net.cpp:137] Memory required for data: 3351757000
I0528 22:24:53.997745 16815 layer_factory.hpp:77] Creating layer layer_256_3_conv2
I0528 22:24:53.997757 16815 net.cpp:84] Creating Layer layer_256_3_conv2
I0528 22:24:53.997763 16815 net.cpp:406] layer_256_3_conv2 <- layer_256_3_conv1
I0528 22:24:53.997772 16815 net.cpp:380] layer_256_3_conv2 -> layer_256_3_conv2
I0528 22:24:54.016618 16815 net.cpp:122] Setting up layer_256_3_conv2
I0528 22:24:54.016640 16815 net.cpp:129] Top shape: 50 256 14 14 (2508800)
I0528 22:24:54.016651 16815 net.cpp:137] Memory required for data: 3361792200
I0528 22:24:54.016680 16815 layer_factory.hpp:77] Creating layer layer_256_3_sum
I0528 22:24:54.016690 16815 net.cpp:84] Creating Layer layer_256_3_sum
I0528 22:24:54.016695 16815 net.cpp:406] layer_256_3_sum <- layer_256_3_conv2
I0528 22:24:54.016700 16815 net.cpp:406] layer_256_3_sum <- layer_256_2_sum_layer_256_2_sum_0_split_1
I0528 22:24:54.016705 16815 net.cpp:380] layer_256_3_sum -> layer_256_3_sum
I0528 22:24:54.016737 16815 net.cpp:122] Setting up layer_256_3_sum
I0528 22:24:54.016746 16815 net.cpp:129] Top shape: 50 256 14 14 (2508800)
I0528 22:24:54.016748 16815 net.cpp:137] Memory required for data: 3371827400
I0528 22:24:54.016752 16815 layer_factory.hpp:77] Creating layer layer_256_3_sum_layer_256_3_sum_0_split
I0528 22:24:54.016757 16815 net.cpp:84] Creating Layer layer_256_3_sum_layer_256_3_sum_0_split
I0528 22:24:54.016762 16815 net.cpp:406] layer_256_3_sum_layer_256_3_sum_0_split <- layer_256_3_sum
I0528 22:24:54.016770 16815 net.cpp:380] layer_256_3_sum_layer_256_3_sum_0_split -> layer_256_3_sum_layer_256_3_sum_0_split_0
I0528 22:24:54.016777 16815 net.cpp:380] layer_256_3_sum_layer_256_3_sum_0_split -> layer_256_3_sum_layer_256_3_sum_0_split_1
I0528 22:24:54.016824 16815 net.cpp:122] Setting up layer_256_3_sum_layer_256_3_sum_0_split
I0528 22:24:54.016835 16815 net.cpp:129] Top shape: 50 256 14 14 (2508800)
I0528 22:24:54.016840 16815 net.cpp:129] Top shape: 50 256 14 14 (2508800)
I0528 22:24:54.016844 16815 net.cpp:137] Memory required for data: 3391897800
I0528 22:24:54.016847 16815 layer_factory.hpp:77] Creating layer layer_256_4_bn1
I0528 22:24:54.016854 16815 net.cpp:84] Creating Layer layer_256_4_bn1
I0528 22:24:54.016857 16815 net.cpp:406] layer_256_4_bn1 <- layer_256_3_sum_layer_256_3_sum_0_split_0
I0528 22:24:54.016865 16815 net.cpp:380] layer_256_4_bn1 -> layer_256_4_bn1
I0528 22:24:54.017067 16815 net.cpp:122] Setting up layer_256_4_bn1
I0528 22:24:54.017076 16815 net.cpp:129] Top shape: 50 256 14 14 (2508800)
I0528 22:24:54.017078 16815 net.cpp:137] Memory required for data: 3401933000
I0528 22:24:54.017086 16815 layer_factory.hpp:77] Creating layer layer_256_4_scale1
I0528 22:24:54.017096 16815 net.cpp:84] Creating Layer layer_256_4_scale1
I0528 22:24:54.017101 16815 net.cpp:406] layer_256_4_scale1 <- layer_256_4_bn1
I0528 22:24:54.017107 16815 net.cpp:367] layer_256_4_scale1 -> layer_256_4_bn1 (in-place)
I0528 22:24:54.017159 16815 layer_factory.hpp:77] Creating layer layer_256_4_scale1
I0528 22:24:54.017285 16815 net.cpp:122] Setting up layer_256_4_scale1
I0528 22:24:54.017293 16815 net.cpp:129] Top shape: 50 256 14 14 (2508800)
I0528 22:24:54.017297 16815 net.cpp:137] Memory required for data: 3411968200
I0528 22:24:54.017304 16815 layer_factory.hpp:77] Creating layer layer_256_4_relu1
I0528 22:24:54.017310 16815 net.cpp:84] Creating Layer layer_256_4_relu1
I0528 22:24:54.017314 16815 net.cpp:406] layer_256_4_relu1 <- layer_256_4_bn1
I0528 22:24:54.017319 16815 net.cpp:367] layer_256_4_relu1 -> layer_256_4_bn1 (in-place)
I0528 22:24:54.018362 16815 net.cpp:122] Setting up layer_256_4_relu1
I0528 22:24:54.018378 16815 net.cpp:129] Top shape: 50 256 14 14 (2508800)
I0528 22:24:54.018383 16815 net.cpp:137] Memory required for data: 3422003400
I0528 22:24:54.018388 16815 layer_factory.hpp:77] Creating layer layer_256_4_conv1
I0528 22:24:54.018399 16815 net.cpp:84] Creating Layer layer_256_4_conv1
I0528 22:24:54.018405 16815 net.cpp:406] layer_256_4_conv1 <- layer_256_4_bn1
I0528 22:24:54.018414 16815 net.cpp:380] layer_256_4_conv1 -> layer_256_4_conv1
I0528 22:24:54.037624 16815 net.cpp:122] Setting up layer_256_4_conv1
I0528 22:24:54.037642 16815 net.cpp:129] Top shape: 50 256 14 14 (2508800)
I0528 22:24:54.037647 16815 net.cpp:137] Memory required for data: 3432038600
I0528 22:24:54.037652 16815 layer_factory.hpp:77] Creating layer layer_256_4_bn2
I0528 22:24:54.037662 16815 net.cpp:84] Creating Layer layer_256_4_bn2
I0528 22:24:54.037672 16815 net.cpp:406] layer_256_4_bn2 <- layer_256_4_conv1
I0528 22:24:54.037685 16815 net.cpp:367] layer_256_4_bn2 -> layer_256_4_conv1 (in-place)
I0528 22:24:54.037889 16815 net.cpp:122] Setting up layer_256_4_bn2
I0528 22:24:54.037897 16815 net.cpp:129] Top shape: 50 256 14 14 (2508800)
I0528 22:24:54.037901 16815 net.cpp:137] Memory required for data: 3442073800
I0528 22:24:54.037909 16815 layer_factory.hpp:77] Creating layer layer_256_4_scale2
I0528 22:24:54.037915 16815 net.cpp:84] Creating Layer layer_256_4_scale2
I0528 22:24:54.037920 16815 net.cpp:406] layer_256_4_scale2 <- layer_256_4_conv1
I0528 22:24:54.037925 16815 net.cpp:367] layer_256_4_scale2 -> layer_256_4_conv1 (in-place)
I0528 22:24:54.037971 16815 layer_factory.hpp:77] Creating layer layer_256_4_scale2
I0528 22:24:54.038086 16815 net.cpp:122] Setting up layer_256_4_scale2
I0528 22:24:54.038094 16815 net.cpp:129] Top shape: 50 256 14 14 (2508800)
I0528 22:24:54.038099 16815 net.cpp:137] Memory required for data: 3452109000
I0528 22:24:54.038105 16815 layer_factory.hpp:77] Creating layer layer_256_4_relu2
I0528 22:24:54.038110 16815 net.cpp:84] Creating Layer layer_256_4_relu2
I0528 22:24:54.038120 16815 net.cpp:406] layer_256_4_relu2 <- layer_256_4_conv1
I0528 22:24:54.038130 16815 net.cpp:367] layer_256_4_relu2 -> layer_256_4_conv1 (in-place)
I0528 22:24:54.038310 16815 net.cpp:122] Setting up layer_256_4_relu2
I0528 22:24:54.038321 16815 net.cpp:129] Top shape: 50 256 14 14 (2508800)
I0528 22:24:54.038324 16815 net.cpp:137] Memory required for data: 3462144200
I0528 22:24:54.038328 16815 layer_factory.hpp:77] Creating layer layer_256_4_conv2
I0528 22:24:54.038341 16815 net.cpp:84] Creating Layer layer_256_4_conv2
I0528 22:24:54.038345 16815 net.cpp:406] layer_256_4_conv2 <- layer_256_4_conv1
I0528 22:24:54.038354 16815 net.cpp:380] layer_256_4_conv2 -> layer_256_4_conv2
I0528 22:24:54.057579 16815 net.cpp:122] Setting up layer_256_4_conv2
I0528 22:24:54.057597 16815 net.cpp:129] Top shape: 50 256 14 14 (2508800)
I0528 22:24:54.057602 16815 net.cpp:137] Memory required for data: 3472179400
I0528 22:24:54.057608 16815 layer_factory.hpp:77] Creating layer layer_256_4_sum
I0528 22:24:54.057617 16815 net.cpp:84] Creating Layer layer_256_4_sum
I0528 22:24:54.057622 16815 net.cpp:406] layer_256_4_sum <- layer_256_4_conv2
I0528 22:24:54.057627 16815 net.cpp:406] layer_256_4_sum <- layer_256_3_sum_layer_256_3_sum_0_split_1
I0528 22:24:54.057633 16815 net.cpp:380] layer_256_4_sum -> layer_256_4_sum
I0528 22:24:54.057664 16815 net.cpp:122] Setting up layer_256_4_sum
I0528 22:24:54.057674 16815 net.cpp:129] Top shape: 50 256 14 14 (2508800)
I0528 22:24:54.057677 16815 net.cpp:137] Memory required for data: 3482214600
I0528 22:24:54.057682 16815 layer_factory.hpp:77] Creating layer layer_256_4_sum_layer_256_4_sum_0_split
I0528 22:24:54.057687 16815 net.cpp:84] Creating Layer layer_256_4_sum_layer_256_4_sum_0_split
I0528 22:24:54.057692 16815 net.cpp:406] layer_256_4_sum_layer_256_4_sum_0_split <- layer_256_4_sum
I0528 22:24:54.057698 16815 net.cpp:380] layer_256_4_sum_layer_256_4_sum_0_split -> layer_256_4_sum_layer_256_4_sum_0_split_0
I0528 22:24:54.057706 16815 net.cpp:380] layer_256_4_sum_layer_256_4_sum_0_split -> layer_256_4_sum_layer_256_4_sum_0_split_1
I0528 22:24:54.057745 16815 net.cpp:122] Setting up layer_256_4_sum_layer_256_4_sum_0_split
I0528 22:24:54.057752 16815 net.cpp:129] Top shape: 50 256 14 14 (2508800)
I0528 22:24:54.057757 16815 net.cpp:129] Top shape: 50 256 14 14 (2508800)
I0528 22:24:54.057760 16815 net.cpp:137] Memory required for data: 3502285000
I0528 22:24:54.057765 16815 layer_factory.hpp:77] Creating layer layer_256_5_bn1
I0528 22:24:54.057772 16815 net.cpp:84] Creating Layer layer_256_5_bn1
I0528 22:24:54.057776 16815 net.cpp:406] layer_256_5_bn1 <- layer_256_4_sum_layer_256_4_sum_0_split_0
I0528 22:24:54.057782 16815 net.cpp:380] layer_256_5_bn1 -> layer_256_5_bn1
I0528 22:24:54.057989 16815 net.cpp:122] Setting up layer_256_5_bn1
I0528 22:24:54.057997 16815 net.cpp:129] Top shape: 50 256 14 14 (2508800)
I0528 22:24:54.058006 16815 net.cpp:137] Memory required for data: 3512320200
I0528 22:24:54.058020 16815 layer_factory.hpp:77] Creating layer layer_256_5_scale1
I0528 22:24:54.058027 16815 net.cpp:84] Creating Layer layer_256_5_scale1
I0528 22:24:54.058032 16815 net.cpp:406] layer_256_5_scale1 <- layer_256_5_bn1
I0528 22:24:54.058043 16815 net.cpp:367] layer_256_5_scale1 -> layer_256_5_bn1 (in-place)
I0528 22:24:54.058091 16815 layer_factory.hpp:77] Creating layer layer_256_5_scale1
I0528 22:24:54.058220 16815 net.cpp:122] Setting up layer_256_5_scale1
I0528 22:24:54.058233 16815 net.cpp:129] Top shape: 50 256 14 14 (2508800)
I0528 22:24:54.058238 16815 net.cpp:137] Memory required for data: 3522355400
I0528 22:24:54.058243 16815 layer_factory.hpp:77] Creating layer layer_256_5_relu1
I0528 22:24:54.058250 16815 net.cpp:84] Creating Layer layer_256_5_relu1
I0528 22:24:54.058254 16815 net.cpp:406] layer_256_5_relu1 <- layer_256_5_bn1
I0528 22:24:54.058259 16815 net.cpp:367] layer_256_5_relu1 -> layer_256_5_bn1 (in-place)
I0528 22:24:54.058877 16815 net.cpp:122] Setting up layer_256_5_relu1
I0528 22:24:54.058890 16815 net.cpp:129] Top shape: 50 256 14 14 (2508800)
I0528 22:24:54.058894 16815 net.cpp:137] Memory required for data: 3532390600
I0528 22:24:54.058898 16815 layer_factory.hpp:77] Creating layer layer_256_5_conv1
I0528 22:24:54.058912 16815 net.cpp:84] Creating Layer layer_256_5_conv1
I0528 22:24:54.058917 16815 net.cpp:406] layer_256_5_conv1 <- layer_256_5_bn1
I0528 22:24:54.058924 16815 net.cpp:380] layer_256_5_conv1 -> layer_256_5_conv1
I0528 22:24:54.077946 16815 net.cpp:122] Setting up layer_256_5_conv1
I0528 22:24:54.077966 16815 net.cpp:129] Top shape: 50 256 14 14 (2508800)
I0528 22:24:54.077971 16815 net.cpp:137] Memory required for data: 3542425800
I0528 22:24:54.077977 16815 layer_factory.hpp:77] Creating layer layer_256_5_bn2
I0528 22:24:54.077985 16815 net.cpp:84] Creating Layer layer_256_5_bn2
I0528 22:24:54.077989 16815 net.cpp:406] layer_256_5_bn2 <- layer_256_5_conv1
I0528 22:24:54.077997 16815 net.cpp:367] layer_256_5_bn2 -> layer_256_5_conv1 (in-place)
I0528 22:24:54.078215 16815 net.cpp:122] Setting up layer_256_5_bn2
I0528 22:24:54.078227 16815 net.cpp:129] Top shape: 50 256 14 14 (2508800)
I0528 22:24:54.078230 16815 net.cpp:137] Memory required for data: 3552461000
I0528 22:24:54.078238 16815 layer_factory.hpp:77] Creating layer layer_256_5_scale2
I0528 22:24:54.078246 16815 net.cpp:84] Creating Layer layer_256_5_scale2
I0528 22:24:54.078250 16815 net.cpp:406] layer_256_5_scale2 <- layer_256_5_conv1
I0528 22:24:54.078256 16815 net.cpp:367] layer_256_5_scale2 -> layer_256_5_conv1 (in-place)
I0528 22:24:54.078305 16815 layer_factory.hpp:77] Creating layer layer_256_5_scale2
I0528 22:24:54.078425 16815 net.cpp:122] Setting up layer_256_5_scale2
I0528 22:24:54.078434 16815 net.cpp:129] Top shape: 50 256 14 14 (2508800)
I0528 22:24:54.078438 16815 net.cpp:137] Memory required for data: 3562496200
I0528 22:24:54.078444 16815 layer_factory.hpp:77] Creating layer layer_256_5_relu2
I0528 22:24:54.078450 16815 net.cpp:84] Creating Layer layer_256_5_relu2
I0528 22:24:54.078454 16815 net.cpp:406] layer_256_5_relu2 <- layer_256_5_conv1
I0528 22:24:54.078461 16815 net.cpp:367] layer_256_5_relu2 -> layer_256_5_conv1 (in-place)
I0528 22:24:54.079071 16815 net.cpp:122] Setting up layer_256_5_relu2
I0528 22:24:54.079084 16815 net.cpp:129] Top shape: 50 256 14 14 (2508800)
I0528 22:24:54.079088 16815 net.cpp:137] Memory required for data: 3572531400
I0528 22:24:54.079092 16815 layer_factory.hpp:77] Creating layer layer_256_5_conv2
I0528 22:24:54.079104 16815 net.cpp:84] Creating Layer layer_256_5_conv2
I0528 22:24:54.079109 16815 net.cpp:406] layer_256_5_conv2 <- layer_256_5_conv1
I0528 22:24:54.079125 16815 net.cpp:380] layer_256_5_conv2 -> layer_256_5_conv2
I0528 22:24:54.098353 16815 net.cpp:122] Setting up layer_256_5_conv2
I0528 22:24:54.098371 16815 net.cpp:129] Top shape: 50 256 14 14 (2508800)
I0528 22:24:54.098376 16815 net.cpp:137] Memory required for data: 3582566600
I0528 22:24:54.098381 16815 layer_factory.hpp:77] Creating layer layer_256_5_sum
I0528 22:24:54.098398 16815 net.cpp:84] Creating Layer layer_256_5_sum
I0528 22:24:54.098403 16815 net.cpp:406] layer_256_5_sum <- layer_256_5_conv2
I0528 22:24:54.098409 16815 net.cpp:406] layer_256_5_sum <- layer_256_4_sum_layer_256_4_sum_0_split_1
I0528 22:24:54.098417 16815 net.cpp:380] layer_256_5_sum -> layer_256_5_sum
I0528 22:24:54.098449 16815 net.cpp:122] Setting up layer_256_5_sum
I0528 22:24:54.098459 16815 net.cpp:129] Top shape: 50 256 14 14 (2508800)
I0528 22:24:54.098464 16815 net.cpp:137] Memory required for data: 3592601800
I0528 22:24:54.098467 16815 layer_factory.hpp:77] Creating layer layer_256_5_sum_layer_256_5_sum_0_split
I0528 22:24:54.098472 16815 net.cpp:84] Creating Layer layer_256_5_sum_layer_256_5_sum_0_split
I0528 22:24:54.098477 16815 net.cpp:406] layer_256_5_sum_layer_256_5_sum_0_split <- layer_256_5_sum
I0528 22:24:54.098482 16815 net.cpp:380] layer_256_5_sum_layer_256_5_sum_0_split -> layer_256_5_sum_layer_256_5_sum_0_split_0
I0528 22:24:54.098489 16815 net.cpp:380] layer_256_5_sum_layer_256_5_sum_0_split -> layer_256_5_sum_layer_256_5_sum_0_split_1
I0528 22:24:54.098531 16815 net.cpp:122] Setting up layer_256_5_sum_layer_256_5_sum_0_split
I0528 22:24:54.098538 16815 net.cpp:129] Top shape: 50 256 14 14 (2508800)
I0528 22:24:54.098543 16815 net.cpp:129] Top shape: 50 256 14 14 (2508800)
I0528 22:24:54.098546 16815 net.cpp:137] Memory required for data: 3612672200
I0528 22:24:54.098551 16815 layer_factory.hpp:77] Creating layer layer_256_6_bn1
I0528 22:24:54.098574 16815 net.cpp:84] Creating Layer layer_256_6_bn1
I0528 22:24:54.098579 16815 net.cpp:406] layer_256_6_bn1 <- layer_256_5_sum_layer_256_5_sum_0_split_0
I0528 22:24:54.098585 16815 net.cpp:380] layer_256_6_bn1 -> layer_256_6_bn1
I0528 22:24:54.098798 16815 net.cpp:122] Setting up layer_256_6_bn1
I0528 22:24:54.098805 16815 net.cpp:129] Top shape: 50 256 14 14 (2508800)
I0528 22:24:54.098809 16815 net.cpp:137] Memory required for data: 3622707400
I0528 22:24:54.098817 16815 layer_factory.hpp:77] Creating layer layer_256_6_scale1
I0528 22:24:54.098826 16815 net.cpp:84] Creating Layer layer_256_6_scale1
I0528 22:24:54.098831 16815 net.cpp:406] layer_256_6_scale1 <- layer_256_6_bn1
I0528 22:24:54.098836 16815 net.cpp:367] layer_256_6_scale1 -> layer_256_6_bn1 (in-place)
I0528 22:24:54.098883 16815 layer_factory.hpp:77] Creating layer layer_256_6_scale1
I0528 22:24:54.099000 16815 net.cpp:122] Setting up layer_256_6_scale1
I0528 22:24:54.099009 16815 net.cpp:129] Top shape: 50 256 14 14 (2508800)
I0528 22:24:54.099012 16815 net.cpp:137] Memory required for data: 3632742600
I0528 22:24:54.099020 16815 layer_factory.hpp:77] Creating layer layer_256_6_relu1
I0528 22:24:54.099025 16815 net.cpp:84] Creating Layer layer_256_6_relu1
I0528 22:24:54.099030 16815 net.cpp:406] layer_256_6_relu1 <- layer_256_6_bn1
I0528 22:24:54.099035 16815 net.cpp:367] layer_256_6_relu1 -> layer_256_6_bn1 (in-place)
I0528 22:24:54.099230 16815 net.cpp:122] Setting up layer_256_6_relu1
I0528 22:24:54.099243 16815 net.cpp:129] Top shape: 50 256 14 14 (2508800)
I0528 22:24:54.099247 16815 net.cpp:137] Memory required for data: 3642777800
I0528 22:24:54.099251 16815 layer_factory.hpp:77] Creating layer layer_256_6_conv1
I0528 22:24:54.099263 16815 net.cpp:84] Creating Layer layer_256_6_conv1
I0528 22:24:54.099268 16815 net.cpp:406] layer_256_6_conv1 <- layer_256_6_bn1
I0528 22:24:54.099277 16815 net.cpp:380] layer_256_6_conv1 -> layer_256_6_conv1
I0528 22:24:54.118453 16815 net.cpp:122] Setting up layer_256_6_conv1
I0528 22:24:54.118470 16815 net.cpp:129] Top shape: 50 256 14 14 (2508800)
I0528 22:24:54.118475 16815 net.cpp:137] Memory required for data: 3652813000
I0528 22:24:54.118481 16815 layer_factory.hpp:77] Creating layer layer_256_6_bn2
I0528 22:24:54.118489 16815 net.cpp:84] Creating Layer layer_256_6_bn2
I0528 22:24:54.118494 16815 net.cpp:406] layer_256_6_bn2 <- layer_256_6_conv1
I0528 22:24:54.118501 16815 net.cpp:367] layer_256_6_bn2 -> layer_256_6_conv1 (in-place)
I0528 22:24:54.118711 16815 net.cpp:122] Setting up layer_256_6_bn2
I0528 22:24:54.118726 16815 net.cpp:129] Top shape: 50 256 14 14 (2508800)
I0528 22:24:54.118736 16815 net.cpp:137] Memory required for data: 3662848200
I0528 22:24:54.118743 16815 layer_factory.hpp:77] Creating layer layer_256_6_scale2
I0528 22:24:54.118752 16815 net.cpp:84] Creating Layer layer_256_6_scale2
I0528 22:24:54.118755 16815 net.cpp:406] layer_256_6_scale2 <- layer_256_6_conv1
I0528 22:24:54.118762 16815 net.cpp:367] layer_256_6_scale2 -> layer_256_6_conv1 (in-place)
I0528 22:24:54.118810 16815 layer_factory.hpp:77] Creating layer layer_256_6_scale2
I0528 22:24:54.118932 16815 net.cpp:122] Setting up layer_256_6_scale2
I0528 22:24:54.118939 16815 net.cpp:129] Top shape: 50 256 14 14 (2508800)
I0528 22:24:54.118942 16815 net.cpp:137] Memory required for data: 3672883400
I0528 22:24:54.118949 16815 layer_factory.hpp:77] Creating layer layer_256_6_relu2
I0528 22:24:54.118955 16815 net.cpp:84] Creating Layer layer_256_6_relu2
I0528 22:24:54.118959 16815 net.cpp:406] layer_256_6_relu2 <- layer_256_6_conv1
I0528 22:24:54.118966 16815 net.cpp:367] layer_256_6_relu2 -> layer_256_6_conv1 (in-place)
I0528 22:24:54.119595 16815 net.cpp:122] Setting up layer_256_6_relu2
I0528 22:24:54.119611 16815 net.cpp:129] Top shape: 50 256 14 14 (2508800)
I0528 22:24:54.119614 16815 net.cpp:137] Memory required for data: 3682918600
I0528 22:24:54.119618 16815 layer_factory.hpp:77] Creating layer layer_256_6_conv2
I0528 22:24:54.119632 16815 net.cpp:84] Creating Layer layer_256_6_conv2
I0528 22:24:54.119637 16815 net.cpp:406] layer_256_6_conv2 <- layer_256_6_conv1
I0528 22:24:54.119645 16815 net.cpp:380] layer_256_6_conv2 -> layer_256_6_conv2
I0528 22:24:54.138993 16815 net.cpp:122] Setting up layer_256_6_conv2
I0528 22:24:54.139010 16815 net.cpp:129] Top shape: 50 256 14 14 (2508800)
I0528 22:24:54.139015 16815 net.cpp:137] Memory required for data: 3692953800
I0528 22:24:54.139021 16815 layer_factory.hpp:77] Creating layer layer_256_6_sum
I0528 22:24:54.139030 16815 net.cpp:84] Creating Layer layer_256_6_sum
I0528 22:24:54.139035 16815 net.cpp:406] layer_256_6_sum <- layer_256_6_conv2
I0528 22:24:54.139041 16815 net.cpp:406] layer_256_6_sum <- layer_256_5_sum_layer_256_5_sum_0_split_1
I0528 22:24:54.139047 16815 net.cpp:380] layer_256_6_sum -> layer_256_6_sum
I0528 22:24:54.139081 16815 net.cpp:122] Setting up layer_256_6_sum
I0528 22:24:54.139091 16815 net.cpp:129] Top shape: 50 256 14 14 (2508800)
I0528 22:24:54.139094 16815 net.cpp:137] Memory required for data: 3702989000
I0528 22:24:54.139098 16815 layer_factory.hpp:77] Creating layer layer_512_1_bn1
I0528 22:24:54.139104 16815 net.cpp:84] Creating Layer layer_512_1_bn1
I0528 22:24:54.139109 16815 net.cpp:406] layer_512_1_bn1 <- layer_256_6_sum
I0528 22:24:54.139124 16815 net.cpp:380] layer_512_1_bn1 -> layer_512_1_bn1
I0528 22:24:54.139355 16815 net.cpp:122] Setting up layer_512_1_bn1
I0528 22:24:54.139364 16815 net.cpp:129] Top shape: 50 256 14 14 (2508800)
I0528 22:24:54.139369 16815 net.cpp:137] Memory required for data: 3713024200
I0528 22:24:54.139376 16815 layer_factory.hpp:77] Creating layer layer_512_1_scale1
I0528 22:24:54.139384 16815 net.cpp:84] Creating Layer layer_512_1_scale1
I0528 22:24:54.139389 16815 net.cpp:406] layer_512_1_scale1 <- layer_512_1_bn1
I0528 22:24:54.139394 16815 net.cpp:367] layer_512_1_scale1 -> layer_512_1_bn1 (in-place)
I0528 22:24:54.139446 16815 layer_factory.hpp:77] Creating layer layer_512_1_scale1
I0528 22:24:54.139569 16815 net.cpp:122] Setting up layer_512_1_scale1
I0528 22:24:54.139577 16815 net.cpp:129] Top shape: 50 256 14 14 (2508800)
I0528 22:24:54.139580 16815 net.cpp:137] Memory required for data: 3723059400
I0528 22:24:54.139587 16815 layer_factory.hpp:77] Creating layer layer_512_1_relu1
I0528 22:24:54.139593 16815 net.cpp:84] Creating Layer layer_512_1_relu1
I0528 22:24:54.139598 16815 net.cpp:406] layer_512_1_relu1 <- layer_512_1_bn1
I0528 22:24:54.139605 16815 net.cpp:367] layer_512_1_relu1 -> layer_512_1_bn1 (in-place)
I0528 22:24:54.140239 16815 net.cpp:122] Setting up layer_512_1_relu1
I0528 22:24:54.140260 16815 net.cpp:129] Top shape: 50 256 14 14 (2508800)
I0528 22:24:54.140270 16815 net.cpp:137] Memory required for data: 3733094600
I0528 22:24:54.140275 16815 layer_factory.hpp:77] Creating layer layer_512_1_bn1_layer_512_1_relu1_0_split
I0528 22:24:54.140281 16815 net.cpp:84] Creating Layer layer_512_1_bn1_layer_512_1_relu1_0_split
I0528 22:24:54.140286 16815 net.cpp:406] layer_512_1_bn1_layer_512_1_relu1_0_split <- layer_512_1_bn1
I0528 22:24:54.140295 16815 net.cpp:380] layer_512_1_bn1_layer_512_1_relu1_0_split -> layer_512_1_bn1_layer_512_1_relu1_0_split_0
I0528 22:24:54.140302 16815 net.cpp:380] layer_512_1_bn1_layer_512_1_relu1_0_split -> layer_512_1_bn1_layer_512_1_relu1_0_split_1
I0528 22:24:54.140353 16815 net.cpp:122] Setting up layer_512_1_bn1_layer_512_1_relu1_0_split
I0528 22:24:54.140362 16815 net.cpp:129] Top shape: 50 256 14 14 (2508800)
I0528 22:24:54.140367 16815 net.cpp:129] Top shape: 50 256 14 14 (2508800)
I0528 22:24:54.140369 16815 net.cpp:137] Memory required for data: 3753165000
I0528 22:24:54.140373 16815 layer_factory.hpp:77] Creating layer layer_512_1_conv1
I0528 22:24:54.140388 16815 net.cpp:84] Creating Layer layer_512_1_conv1
I0528 22:24:54.140393 16815 net.cpp:406] layer_512_1_conv1 <- layer_512_1_bn1_layer_512_1_relu1_0_split_0
I0528 22:24:54.140399 16815 net.cpp:380] layer_512_1_conv1 -> layer_512_1_conv1
I0528 22:24:54.178782 16815 net.cpp:122] Setting up layer_512_1_conv1
I0528 22:24:54.178800 16815 net.cpp:129] Top shape: 50 512 7 7 (1254400)
I0528 22:24:54.178805 16815 net.cpp:137] Memory required for data: 3758182600
I0528 22:24:54.178812 16815 layer_factory.hpp:77] Creating layer layer_512_1_bn2
I0528 22:24:54.178822 16815 net.cpp:84] Creating Layer layer_512_1_bn2
I0528 22:24:54.178827 16815 net.cpp:406] layer_512_1_bn2 <- layer_512_1_conv1
I0528 22:24:54.178833 16815 net.cpp:367] layer_512_1_bn2 -> layer_512_1_conv1 (in-place)
I0528 22:24:54.179060 16815 net.cpp:122] Setting up layer_512_1_bn2
I0528 22:24:54.179069 16815 net.cpp:129] Top shape: 50 512 7 7 (1254400)
I0528 22:24:54.179074 16815 net.cpp:137] Memory required for data: 3763200200
I0528 22:24:54.179081 16815 layer_factory.hpp:77] Creating layer layer_512_1_scale2
I0528 22:24:54.179090 16815 net.cpp:84] Creating Layer layer_512_1_scale2
I0528 22:24:54.179093 16815 net.cpp:406] layer_512_1_scale2 <- layer_512_1_conv1
I0528 22:24:54.179100 16815 net.cpp:367] layer_512_1_scale2 -> layer_512_1_conv1 (in-place)
I0528 22:24:54.179154 16815 layer_factory.hpp:77] Creating layer layer_512_1_scale2
I0528 22:24:54.179293 16815 net.cpp:122] Setting up layer_512_1_scale2
I0528 22:24:54.179302 16815 net.cpp:129] Top shape: 50 512 7 7 (1254400)
I0528 22:24:54.179306 16815 net.cpp:137] Memory required for data: 3768217800
I0528 22:24:54.179312 16815 layer_factory.hpp:77] Creating layer layer_512_1_relu2
I0528 22:24:54.179319 16815 net.cpp:84] Creating Layer layer_512_1_relu2
I0528 22:24:54.179323 16815 net.cpp:406] layer_512_1_relu2 <- layer_512_1_conv1
I0528 22:24:54.179330 16815 net.cpp:367] layer_512_1_relu2 -> layer_512_1_conv1 (in-place)
I0528 22:24:54.179513 16815 net.cpp:122] Setting up layer_512_1_relu2
I0528 22:24:54.179524 16815 net.cpp:129] Top shape: 50 512 7 7 (1254400)
I0528 22:24:54.179528 16815 net.cpp:137] Memory required for data: 3773235400
I0528 22:24:54.179533 16815 layer_factory.hpp:77] Creating layer layer_512_1_conv2
I0528 22:24:54.179544 16815 net.cpp:84] Creating Layer layer_512_1_conv2
I0528 22:24:54.179549 16815 net.cpp:406] layer_512_1_conv2 <- layer_512_1_conv1
I0528 22:24:54.179558 16815 net.cpp:380] layer_512_1_conv2 -> layer_512_1_conv2
I0528 22:24:54.253525 16815 net.cpp:122] Setting up layer_512_1_conv2
I0528 22:24:54.253551 16815 net.cpp:129] Top shape: 50 512 7 7 (1254400)
I0528 22:24:54.253556 16815 net.cpp:137] Memory required for data: 3778253000
I0528 22:24:54.253561 16815 layer_factory.hpp:77] Creating layer layer_512_1_conv_expand
I0528 22:24:54.253576 16815 net.cpp:84] Creating Layer layer_512_1_conv_expand
I0528 22:24:54.253582 16815 net.cpp:406] layer_512_1_conv_expand <- layer_512_1_bn1_layer_512_1_relu1_0_split_1
I0528 22:24:54.253607 16815 net.cpp:380] layer_512_1_conv_expand -> layer_512_1_conv_expand
I0528 22:24:54.259650 16815 net.cpp:122] Setting up layer_512_1_conv_expand
I0528 22:24:54.259670 16815 net.cpp:129] Top shape: 50 512 7 7 (1254400)
I0528 22:24:54.259675 16815 net.cpp:137] Memory required for data: 3783270600
I0528 22:24:54.259680 16815 layer_factory.hpp:77] Creating layer layer_512_1_sum
I0528 22:24:54.259690 16815 net.cpp:84] Creating Layer layer_512_1_sum
I0528 22:24:54.259696 16815 net.cpp:406] layer_512_1_sum <- layer_512_1_conv_expand
I0528 22:24:54.259701 16815 net.cpp:406] layer_512_1_sum <- layer_512_1_conv2
I0528 22:24:54.259707 16815 net.cpp:380] layer_512_1_sum -> layer_512_1_sum
I0528 22:24:54.259742 16815 net.cpp:122] Setting up layer_512_1_sum
I0528 22:24:54.259750 16815 net.cpp:129] Top shape: 50 512 7 7 (1254400)
I0528 22:24:54.259754 16815 net.cpp:137] Memory required for data: 3788288200
I0528 22:24:54.259758 16815 layer_factory.hpp:77] Creating layer layer_512_1_sum_layer_512_1_sum_0_split
I0528 22:24:54.259764 16815 net.cpp:84] Creating Layer layer_512_1_sum_layer_512_1_sum_0_split
I0528 22:24:54.259769 16815 net.cpp:406] layer_512_1_sum_layer_512_1_sum_0_split <- layer_512_1_sum
I0528 22:24:54.259776 16815 net.cpp:380] layer_512_1_sum_layer_512_1_sum_0_split -> layer_512_1_sum_layer_512_1_sum_0_split_0
I0528 22:24:54.259784 16815 net.cpp:380] layer_512_1_sum_layer_512_1_sum_0_split -> layer_512_1_sum_layer_512_1_sum_0_split_1
I0528 22:24:54.259829 16815 net.cpp:122] Setting up layer_512_1_sum_layer_512_1_sum_0_split
I0528 22:24:54.259837 16815 net.cpp:129] Top shape: 50 512 7 7 (1254400)
I0528 22:24:54.259842 16815 net.cpp:129] Top shape: 50 512 7 7 (1254400)
I0528 22:24:54.259845 16815 net.cpp:137] Memory required for data: 3798323400
I0528 22:24:54.259850 16815 layer_factory.hpp:77] Creating layer layer_512_2_bn1
I0528 22:24:54.259857 16815 net.cpp:84] Creating Layer layer_512_2_bn1
I0528 22:24:54.259862 16815 net.cpp:406] layer_512_2_bn1 <- layer_512_1_sum_layer_512_1_sum_0_split_0
I0528 22:24:54.259868 16815 net.cpp:380] layer_512_2_bn1 -> layer_512_2_bn1
I0528 22:24:54.260104 16815 net.cpp:122] Setting up layer_512_2_bn1
I0528 22:24:54.260113 16815 net.cpp:129] Top shape: 50 512 7 7 (1254400)
I0528 22:24:54.260125 16815 net.cpp:137] Memory required for data: 3803341000
I0528 22:24:54.260135 16815 layer_factory.hpp:77] Creating layer layer_512_2_scale1
I0528 22:24:54.260143 16815 net.cpp:84] Creating Layer layer_512_2_scale1
I0528 22:24:54.260148 16815 net.cpp:406] layer_512_2_scale1 <- layer_512_2_bn1
I0528 22:24:54.260155 16815 net.cpp:367] layer_512_2_scale1 -> layer_512_2_bn1 (in-place)
I0528 22:24:54.260207 16815 layer_factory.hpp:77] Creating layer layer_512_2_scale1
I0528 22:24:54.260342 16815 net.cpp:122] Setting up layer_512_2_scale1
I0528 22:24:54.260351 16815 net.cpp:129] Top shape: 50 512 7 7 (1254400)
I0528 22:24:54.260355 16815 net.cpp:137] Memory required for data: 3808358600
I0528 22:24:54.260361 16815 layer_factory.hpp:77] Creating layer layer_512_2_relu1
I0528 22:24:54.260368 16815 net.cpp:84] Creating Layer layer_512_2_relu1
I0528 22:24:54.260373 16815 net.cpp:406] layer_512_2_relu1 <- layer_512_2_bn1
I0528 22:24:54.260378 16815 net.cpp:367] layer_512_2_relu1 -> layer_512_2_bn1 (in-place)
I0528 22:24:54.260567 16815 net.cpp:122] Setting up layer_512_2_relu1
I0528 22:24:54.260579 16815 net.cpp:129] Top shape: 50 512 7 7 (1254400)
I0528 22:24:54.260583 16815 net.cpp:137] Memory required for data: 3813376200
I0528 22:24:54.260587 16815 layer_factory.hpp:77] Creating layer layer_512_2_conv1
I0528 22:24:54.260599 16815 net.cpp:84] Creating Layer layer_512_2_conv1
I0528 22:24:54.260604 16815 net.cpp:406] layer_512_2_conv1 <- layer_512_2_bn1
I0528 22:24:54.260612 16815 net.cpp:380] layer_512_2_conv1 -> layer_512_2_conv1
I0528 22:24:54.334527 16815 net.cpp:122] Setting up layer_512_2_conv1
I0528 22:24:54.334570 16815 net.cpp:129] Top shape: 50 512 7 7 (1254400)
I0528 22:24:54.334575 16815 net.cpp:137] Memory required for data: 3818393800
I0528 22:24:54.334597 16815 layer_factory.hpp:77] Creating layer layer_512_2_bn2
I0528 22:24:54.334620 16815 net.cpp:84] Creating Layer layer_512_2_bn2
I0528 22:24:54.334633 16815 net.cpp:406] layer_512_2_bn2 <- layer_512_2_conv1
I0528 22:24:54.334645 16815 net.cpp:367] layer_512_2_bn2 -> layer_512_2_conv1 (in-place)
I0528 22:24:54.334913 16815 net.cpp:122] Setting up layer_512_2_bn2
I0528 22:24:54.334923 16815 net.cpp:129] Top shape: 50 512 7 7 (1254400)
I0528 22:24:54.334926 16815 net.cpp:137] Memory required for data: 3823411400
I0528 22:24:54.334933 16815 layer_factory.hpp:77] Creating layer layer_512_2_scale2
I0528 22:24:54.334944 16815 net.cpp:84] Creating Layer layer_512_2_scale2
I0528 22:24:54.334947 16815 net.cpp:406] layer_512_2_scale2 <- layer_512_2_conv1
I0528 22:24:54.334954 16815 net.cpp:367] layer_512_2_scale2 -> layer_512_2_conv1 (in-place)
I0528 22:24:54.335003 16815 layer_factory.hpp:77] Creating layer layer_512_2_scale2
I0528 22:24:54.335142 16815 net.cpp:122] Setting up layer_512_2_scale2
I0528 22:24:54.335153 16815 net.cpp:129] Top shape: 50 512 7 7 (1254400)
I0528 22:24:54.335157 16815 net.cpp:137] Memory required for data: 3828429000
I0528 22:24:54.335163 16815 layer_factory.hpp:77] Creating layer layer_512_2_relu2
I0528 22:24:54.335171 16815 net.cpp:84] Creating Layer layer_512_2_relu2
I0528 22:24:54.335175 16815 net.cpp:406] layer_512_2_relu2 <- layer_512_2_conv1
I0528 22:24:54.335183 16815 net.cpp:367] layer_512_2_relu2 -> layer_512_2_conv1 (in-place)
I0528 22:24:54.335791 16815 net.cpp:122] Setting up layer_512_2_relu2
I0528 22:24:54.335804 16815 net.cpp:129] Top shape: 50 512 7 7 (1254400)
I0528 22:24:54.335808 16815 net.cpp:137] Memory required for data: 3833446600
I0528 22:24:54.335813 16815 layer_factory.hpp:77] Creating layer layer_512_2_conv2
I0528 22:24:54.335827 16815 net.cpp:84] Creating Layer layer_512_2_conv2
I0528 22:24:54.335832 16815 net.cpp:406] layer_512_2_conv2 <- layer_512_2_conv1
I0528 22:24:54.335842 16815 net.cpp:380] layer_512_2_conv2 -> layer_512_2_conv2
I0528 22:24:54.405854 16815 net.cpp:122] Setting up layer_512_2_conv2
I0528 22:24:54.405872 16815 net.cpp:129] Top shape: 50 512 7 7 (1254400)
I0528 22:24:54.405876 16815 net.cpp:137] Memory required for data: 3838464200
I0528 22:24:54.405882 16815 layer_factory.hpp:77] Creating layer layer_512_2_sum
I0528 22:24:54.405889 16815 net.cpp:84] Creating Layer layer_512_2_sum
I0528 22:24:54.405894 16815 net.cpp:406] layer_512_2_sum <- layer_512_2_conv2
I0528 22:24:54.405901 16815 net.cpp:406] layer_512_2_sum <- layer_512_1_sum_layer_512_1_sum_0_split_1
I0528 22:24:54.405910 16815 net.cpp:380] layer_512_2_sum -> layer_512_2_sum
I0528 22:24:54.405946 16815 net.cpp:122] Setting up layer_512_2_sum
I0528 22:24:54.405954 16815 net.cpp:129] Top shape: 50 512 7 7 (1254400)
I0528 22:24:54.405958 16815 net.cpp:137] Memory required for data: 3843481800
I0528 22:24:54.405961 16815 layer_factory.hpp:77] Creating layer layer_512_2_sum_layer_512_2_sum_0_split
I0528 22:24:54.405969 16815 net.cpp:84] Creating Layer layer_512_2_sum_layer_512_2_sum_0_split
I0528 22:24:54.405973 16815 net.cpp:406] layer_512_2_sum_layer_512_2_sum_0_split <- layer_512_2_sum
I0528 22:24:54.405979 16815 net.cpp:380] layer_512_2_sum_layer_512_2_sum_0_split -> layer_512_2_sum_layer_512_2_sum_0_split_0
I0528 22:24:54.405987 16815 net.cpp:380] layer_512_2_sum_layer_512_2_sum_0_split -> layer_512_2_sum_layer_512_2_sum_0_split_1
I0528 22:24:54.406031 16815 net.cpp:122] Setting up layer_512_2_sum_layer_512_2_sum_0_split
I0528 22:24:54.406038 16815 net.cpp:129] Top shape: 50 512 7 7 (1254400)
I0528 22:24:54.406042 16815 net.cpp:129] Top shape: 50 512 7 7 (1254400)
I0528 22:24:54.406045 16815 net.cpp:137] Memory required for data: 3853517000
I0528 22:24:54.406049 16815 layer_factory.hpp:77] Creating layer layer_512_3_bn1
I0528 22:24:54.406057 16815 net.cpp:84] Creating Layer layer_512_3_bn1
I0528 22:24:54.406062 16815 net.cpp:406] layer_512_3_bn1 <- layer_512_2_sum_layer_512_2_sum_0_split_0
I0528 22:24:54.406067 16815 net.cpp:380] layer_512_3_bn1 -> layer_512_3_bn1
I0528 22:24:54.406297 16815 net.cpp:122] Setting up layer_512_3_bn1
I0528 22:24:54.406314 16815 net.cpp:129] Top shape: 50 512 7 7 (1254400)
I0528 22:24:54.406318 16815 net.cpp:137] Memory required for data: 3858534600
I0528 22:24:54.406328 16815 layer_factory.hpp:77] Creating layer layer_512_3_scale1
I0528 22:24:54.406337 16815 net.cpp:84] Creating Layer layer_512_3_scale1
I0528 22:24:54.406342 16815 net.cpp:406] layer_512_3_scale1 <- layer_512_3_bn1
I0528 22:24:54.406347 16815 net.cpp:367] layer_512_3_scale1 -> layer_512_3_bn1 (in-place)
I0528 22:24:54.406397 16815 layer_factory.hpp:77] Creating layer layer_512_3_scale1
I0528 22:24:54.406532 16815 net.cpp:122] Setting up layer_512_3_scale1
I0528 22:24:54.406539 16815 net.cpp:129] Top shape: 50 512 7 7 (1254400)
I0528 22:24:54.406543 16815 net.cpp:137] Memory required for data: 3863552200
I0528 22:24:54.406549 16815 layer_factory.hpp:77] Creating layer layer_512_3_relu1
I0528 22:24:54.406558 16815 net.cpp:84] Creating Layer layer_512_3_relu1
I0528 22:24:54.406561 16815 net.cpp:406] layer_512_3_relu1 <- layer_512_3_bn1
I0528 22:24:54.406568 16815 net.cpp:367] layer_512_3_relu1 -> layer_512_3_bn1 (in-place)
I0528 22:24:54.406744 16815 net.cpp:122] Setting up layer_512_3_relu1
I0528 22:24:54.406756 16815 net.cpp:129] Top shape: 50 512 7 7 (1254400)
I0528 22:24:54.406760 16815 net.cpp:137] Memory required for data: 3868569800
I0528 22:24:54.406764 16815 layer_factory.hpp:77] Creating layer layer_512_3_conv1
I0528 22:24:54.406775 16815 net.cpp:84] Creating Layer layer_512_3_conv1
I0528 22:24:54.406780 16815 net.cpp:406] layer_512_3_conv1 <- layer_512_3_bn1
I0528 22:24:54.406788 16815 net.cpp:380] layer_512_3_conv1 -> layer_512_3_conv1
I0528 22:24:54.476634 16815 net.cpp:122] Setting up layer_512_3_conv1
I0528 22:24:54.476655 16815 net.cpp:129] Top shape: 50 512 7 7 (1254400)
I0528 22:24:54.476660 16815 net.cpp:137] Memory required for data: 3873587400
I0528 22:24:54.476666 16815 layer_factory.hpp:77] Creating layer layer_512_3_bn2
I0528 22:24:54.476675 16815 net.cpp:84] Creating Layer layer_512_3_bn2
I0528 22:24:54.476680 16815 net.cpp:406] layer_512_3_bn2 <- layer_512_3_conv1
I0528 22:24:54.476687 16815 net.cpp:367] layer_512_3_bn2 -> layer_512_3_conv1 (in-place)
I0528 22:24:54.476905 16815 net.cpp:122] Setting up layer_512_3_bn2
I0528 22:24:54.476913 16815 net.cpp:129] Top shape: 50 512 7 7 (1254400)
I0528 22:24:54.476917 16815 net.cpp:137] Memory required for data: 3878605000
I0528 22:24:54.476925 16815 layer_factory.hpp:77] Creating layer layer_512_3_scale2
I0528 22:24:54.476938 16815 net.cpp:84] Creating Layer layer_512_3_scale2
I0528 22:24:54.476943 16815 net.cpp:406] layer_512_3_scale2 <- layer_512_3_conv1
I0528 22:24:54.476948 16815 net.cpp:367] layer_512_3_scale2 -> layer_512_3_conv1 (in-place)
I0528 22:24:54.476992 16815 layer_factory.hpp:77] Creating layer layer_512_3_scale2
I0528 22:24:54.477126 16815 net.cpp:122] Setting up layer_512_3_scale2
I0528 22:24:54.477138 16815 net.cpp:129] Top shape: 50 512 7 7 (1254400)
I0528 22:24:54.477143 16815 net.cpp:137] Memory required for data: 3883622600
I0528 22:24:54.477149 16815 layer_factory.hpp:77] Creating layer layer_512_3_relu2
I0528 22:24:54.477154 16815 net.cpp:84] Creating Layer layer_512_3_relu2
I0528 22:24:54.477159 16815 net.cpp:406] layer_512_3_relu2 <- layer_512_3_conv1
I0528 22:24:54.477164 16815 net.cpp:367] layer_512_3_relu2 -> layer_512_3_conv1 (in-place)
I0528 22:24:54.477344 16815 net.cpp:122] Setting up layer_512_3_relu2
I0528 22:24:54.477355 16815 net.cpp:129] Top shape: 50 512 7 7 (1254400)
I0528 22:24:54.477358 16815 net.cpp:137] Memory required for data: 3888640200
I0528 22:24:54.477362 16815 layer_factory.hpp:77] Creating layer layer_512_3_conv2
I0528 22:24:54.477375 16815 net.cpp:84] Creating Layer layer_512_3_conv2
I0528 22:24:54.477380 16815 net.cpp:406] layer_512_3_conv2 <- layer_512_3_conv1
I0528 22:24:54.477387 16815 net.cpp:380] layer_512_3_conv2 -> layer_512_3_conv2
I0528 22:24:54.547376 16815 net.cpp:122] Setting up layer_512_3_conv2
I0528 22:24:54.547397 16815 net.cpp:129] Top shape: 50 512 7 7 (1254400)
I0528 22:24:54.547410 16815 net.cpp:137] Memory required for data: 3893657800
I0528 22:24:54.547426 16815 layer_factory.hpp:77] Creating layer layer_512_3_sum
I0528 22:24:54.547435 16815 net.cpp:84] Creating Layer layer_512_3_sum
I0528 22:24:54.547439 16815 net.cpp:406] layer_512_3_sum <- layer_512_3_conv2
I0528 22:24:54.547444 16815 net.cpp:406] layer_512_3_sum <- layer_512_2_sum_layer_512_2_sum_0_split_1
I0528 22:24:54.547451 16815 net.cpp:380] layer_512_3_sum -> layer_512_3_sum
I0528 22:24:54.547485 16815 net.cpp:122] Setting up layer_512_3_sum
I0528 22:24:54.547493 16815 net.cpp:129] Top shape: 50 512 7 7 (1254400)
I0528 22:24:54.547497 16815 net.cpp:137] Memory required for data: 3898675400
I0528 22:24:54.547500 16815 layer_factory.hpp:77] Creating layer last_bn
I0528 22:24:54.547508 16815 net.cpp:84] Creating Layer last_bn
I0528 22:24:54.547513 16815 net.cpp:406] last_bn <- layer_512_3_sum
I0528 22:24:54.547520 16815 net.cpp:367] last_bn -> layer_512_3_sum (in-place)
I0528 22:24:54.547729 16815 net.cpp:122] Setting up last_bn
I0528 22:24:54.547737 16815 net.cpp:129] Top shape: 50 512 7 7 (1254400)
I0528 22:24:54.547740 16815 net.cpp:137] Memory required for data: 3903693000
I0528 22:24:54.547749 16815 layer_factory.hpp:77] Creating layer last_scale
I0528 22:24:54.547756 16815 net.cpp:84] Creating Layer last_scale
I0528 22:24:54.547760 16815 net.cpp:406] last_scale <- layer_512_3_sum
I0528 22:24:54.547768 16815 net.cpp:367] last_scale -> layer_512_3_sum (in-place)
I0528 22:24:54.547812 16815 layer_factory.hpp:77] Creating layer last_scale
I0528 22:24:54.547942 16815 net.cpp:122] Setting up last_scale
I0528 22:24:54.547950 16815 net.cpp:129] Top shape: 50 512 7 7 (1254400)
I0528 22:24:54.547953 16815 net.cpp:137] Memory required for data: 3908710600
I0528 22:24:54.547960 16815 layer_factory.hpp:77] Creating layer last_relu
I0528 22:24:54.547966 16815 net.cpp:84] Creating Layer last_relu
I0528 22:24:54.547971 16815 net.cpp:406] last_relu <- layer_512_3_sum
I0528 22:24:54.547976 16815 net.cpp:367] last_relu -> layer_512_3_sum (in-place)
I0528 22:24:54.548599 16815 net.cpp:122] Setting up last_relu
I0528 22:24:54.548617 16815 net.cpp:129] Top shape: 50 512 7 7 (1254400)
I0528 22:24:54.548621 16815 net.cpp:137] Memory required for data: 3913728200
I0528 22:24:54.548626 16815 layer_factory.hpp:77] Creating layer global_pool
I0528 22:24:54.548633 16815 net.cpp:84] Creating Layer global_pool
I0528 22:24:54.548638 16815 net.cpp:406] global_pool <- layer_512_3_sum
I0528 22:24:54.548650 16815 net.cpp:380] global_pool -> global_pool
I0528 22:24:54.548871 16815 net.cpp:122] Setting up global_pool
I0528 22:24:54.548882 16815 net.cpp:129] Top shape: 50 512 1 1 (25600)
I0528 22:24:54.548885 16815 net.cpp:137] Memory required for data: 3913830600
I0528 22:24:54.548889 16815 layer_factory.hpp:77] Creating layer score
I0528 22:24:54.548898 16815 net.cpp:84] Creating Layer score
I0528 22:24:54.548903 16815 net.cpp:406] score <- global_pool
I0528 22:24:54.548915 16815 net.cpp:380] score -> score
I0528 22:24:54.549089 16815 net.cpp:122] Setting up score
I0528 22:24:54.549098 16815 net.cpp:129] Top shape: 50 8 (400)
I0528 22:24:54.549101 16815 net.cpp:137] Memory required for data: 3913832200
I0528 22:24:54.549108 16815 layer_factory.hpp:77] Creating layer loss
I0528 22:24:54.549124 16815 net.cpp:84] Creating Layer loss
I0528 22:24:54.549132 16815 net.cpp:406] loss <- score
I0528 22:24:54.549137 16815 net.cpp:406] loss <- label
I0528 22:24:54.549146 16815 net.cpp:380] loss -> loss
I0528 22:24:54.549160 16815 layer_factory.hpp:77] Creating layer loss
…
I0528 22:24:54.554806 16815 net.cpp:294] The NetState phase (1) differed from the phase (0) specified by a rule in layer data
I0528 22:24:54.555847 16815 net.cpp:51] Initializing net from parameters: 
name: "Pre-ResNet-34"
state {
  phase: TEST
}
layer {
  name: "data"
  type: "Data"
  top: "data"
  top: "label"
  include {
    phase: TEST
  }
  transform_param {
    mirror: false
    crop_size: 224
    mean_file: "/storage/Test_fold_is_01/mean.binaryproto"
  }
  data_param {
    source: "/storage/Test_fold_is_01/gender_val_lmdb"
    batch_size: 20
    backend: LMDB
  }
}
layer {
  name: "data_bn"
  type: "BatchNorm"
  bottom: "data"
  top: "data_bn"
  param {
    lr_mult: 0
    decay_mult: 0
  }
  param {
    lr_mult: 0
    decay_mult: 0
  }
  param {
    lr_mult: 0
    decay_mult: 0
  }
}
layer {
  name: "data_scale"
  type: "Scale"
  bottom: "data_bn"
  top: "data_bn"
  param {
    lr_mult: 1
    decay_mult: 1
  }
  param {
    lr_mult: 2
    decay_mult: 1
  }
  scale_param {
    bias_term: true
  }
}
layer {
  name: "conv1"
  type: "Convolution"
  bottom: "data_bn"
  top: "conv1"
  param {
    lr_mult: 1
    decay_mult: 1
  }
  param {
    lr_mult: 2
    decay_mult: 1
  }
  convolution_param {
    num_output: 64
    pad: 3
    kernel_size: 7
    stride: 2
    weight_filler {
      type: "msra"
      variance_norm: FAN_OUT
    }
    bias_filler {
      type: "constant"
      value: 0
    }
  }
}
layer {
  name: "conv1_bn"
  type: "BatchNorm"
  bottom: "conv1"
  top: "conv1"
  param {
    lr_mult: 0
    decay_mult: 0
  }
  param {
    lr_mult: 0
    decay_mult: 0
  }
  param {
    lr_mult: 0
    decay_mult: 0
  }
}
layer {
  name: "conv1_scale"
  type: "Scale"
  bottom: "conv1"
  top: "conv1"
  param {
    lr_mult: 1
    decay_mult: 1
  }
  param {
    lr_mult: 2
    decay_mult: 1
  }
  scale_param {
    bias_term: true
  }
}
layer {
  name: "conv1_relu"
  type: "ReLU"
  bottom: "conv1"
  top: "conv1"
}
layer {
  name: "conv1_pool"
  type: "Pooling"
  bottom: "conv1"
  top: "conv1_pool"
  pooling_param {
    kernel_size: 3
    stride: 2
  }
}
layer {
  name: "layer_64_1_conv1"
  type: "Convolution"
  bottom: "conv1_pool"
  top: "layer_64_1_conv1"
  param {
    lr_mult: 1
    decay_mult: 1
  }
  convolution_param {
    num_output: 64
    bias_term: false
    pad: 1
    kernel_size: 3
    stride: 1
    weight_filler {
      type: "msra"
    }
    bias_filler {
      type: "constant"
      value: 0
    }
  }
}
layer {
  name: "layer_64_1_bn2"
  type: "BatchNorm"
  bottom: "layer_64_1_conv1"
  top: "layer_64_1_conv1"
  param {
    lr_mult: 0
    decay_mult: 0
  }
  param {
    lr_mult: 0
    decay_mult: 0
  }
  param {
    lr_mult: 0
    decay_mult: 0
  }
}
layer {
  name: "layer_64_1_scale2"
  type: "Scale"
  bottom: "layer_64_1_conv1"
  top: "layer_64_1_conv1"
  param {
    lr_mult: 1
    decay_mult: 1
  }
  param {
    lr_mult: 2
    decay_mult: 1
  }
  scale_param {
    bias_term: true
  }
}
layer {
  name: "layer_64_1_relu2"
  type: "ReLU"
  bottom: "layer_64_1_conv1"
  top: "layer_64_1_conv1"
}
layer {
  name: "layer_64_1_conv2"
  type: "Convolution"
  bottom: "layer_64_1_conv1"
  top: "layer_64_1_conv2"
  param {
    lr_mult: 1
    decay_mult: 1
  }
  convolution_param {
    num_output: 64
    bias_term: false
    pad: 1
    kernel_size: 3
    stride: 1
    weight_filler {
      type: "msra"
    }
    bias_filler {
      type: "constant"
      value: 0
    }
  }
}
layer {
  name: "layer_64_1_sum"
  type: "Eltwise"
  bottom: "layer_64_1_conv2"
  bottom: "conv1_pool"
  top: "layer_64_1_sum"
}
layer {
  name: "layer_64_2_bn1"
  type: "BatchNorm"
  bottom: "layer_64_1_sum"
  top: "layer_64_2_bn1"
  param {
    lr_mult: 0
    decay_mult: 0
  }
  param {
    lr_mult: 0
    decay_mult: 0
  }
  param {
    lr_mult: 0
    decay_mult: 0
  }
}
layer {
  name: "layer_64_2_scale1"
  type: "Scale"
  bottom: "layer_64_2_bn1"
  top: "layer_64_2_bn1"
  param {
    lr_mult: 1
    decay_mult: 1
  }
  param {
    lr_mult: 2
    decay_mult: 1
  }
  scale_param {
    bias_term: true
  }
}
layer {
  name: "layer_64_2_relu1"
  type: "ReLU"
  bottom: "layer_64_2_bn1"
  top: "layer_64_2_bn1"
}
layer {
  name: "layer_64_2_conv1"
  type: "Convolution"
  bottom: "layer_64_2_bn1"
  top: "layer_64_2_conv1"
  param {
    lr_mult: 1
    decay_mult: 1
  }
  convolution_param {
    num_output: 64
    bias_term: false
    pad: 1
    kernel_size: 3
    stride: 1
    weight_filler {
      type: "msra"
    }
    bias_filler {
      type: "constant"
      value: 0
    }
  }
}
layer {
  name: "layer_64_2_bn2"
  type: "BatchNorm"
  bottom: "layer_64_2_conv1"
  top: "layer_64_2_conv1"
  param {
    lr_mult: 0
    decay_mult: 0
  }
  param {
    lr_mult: 0
    decay_mult: 0
  }
  param {
    lr_mult: 0
    decay_mult: 0
  }
}
layer {
  name: "layer_64_2_scale2"
  type: "Scale"
  bottom: "layer_64_2_conv1"
  top: "layer_64_2_conv1"
  param {
    lr_mult: 1
    decay_mult: 1
  }
  param {
    lr_mult: 2
    decay_mult: 1
  }
  scale_param {
    bias_term: true
  }
}
layer {
  name: "layer_64_2_relu2"
  type: "ReLU"
  bottom: "layer_64_2_conv1"
  top: "layer_64_2_conv1"
}
layer {
  name: "layer_64_2_conv2"
  type: "Convolution"
  bottom: "layer_64_2_conv1"
  top: "layer_64_2_conv2"
  param {
    lr_mult: 1
    decay_mult: 1
  }
  convolution_param {
    num_output: 64
    bias_term: false
    pad: 1
    kernel_size: 3
    stride: 1
    weight_filler {
      type: "msra"
    }
    bias_filler {
      type: "constant"
      value: 0
    }
  }
}
layer {
  name: "layer_64_2_sum"
  type: "Eltwise"
  bottom: "layer_64_2_conv2"
  bottom: "layer_64_1_sum"
  top: "layer_64_2_sum"
}
layer {
  name: "layer_64_3_bn1"
  type: "BatchNorm"
  bottom: "layer_64_2_sum"
  top: "layer_64_3_bn1"
  param {
    lr_mult: 0
    decay_mult: 0
  }
  param {
    lr_mult: 0
    decay_mult: 0
  }
  param {
    lr_mult: 0
    decay_mult: 0
  }
}
layer {
  name: "layer_64_3_scale1"
  type: "Scale"
  bottom: "layer_64_3_bn1"
  top: "layer_64_3_bn1"
  param {
    lr_mult: 1
    decay_mult: 1
  }
  param {
    lr_mult: 2
    decay_mult: 1
  }
  scale_param {
    bias_term: true
  }
}
layer {
  name: "layer_64_3_relu1"
  type: "ReLU"
  bottom: "layer_64_3_bn1"
  top: "layer_64_3_bn1"
}
layer {
  name: "layer_64_3_conv1"
  type: "Convolution"
  bottom: "layer_64_3_bn1"
  top: "layer_64_3_conv1"
  param {
    lr_mult: 1
    decay_mult: 1
  }
  convolution_param {
    num_output: 64
    bias_term: false
    pad: 1
    kernel_size: 3
    stride: 1
    weight_filler {
      type: "msra"
    }
    bias_filler {
      type: "constant"
      value: 0
    }
  }
}
layer {
  name: "layer_64_3_bn2"
  type: "BatchNorm"
  bottom: "layer_64_3_conv1"
  top: "layer_64_3_conv1"
  param {
    lr_mult: 0
    decay_mult: 0
  }
  param {
    lr_mult: 0
    decay_mult: 0
  }
  param {
    lr_mult: 0
    decay_mult: 0
  }
}
layer {
  name: "layer_64_3_scale2"
  type: "Scale"
  bottom: "layer_64_3_conv1"
  top: "layer_64_3_conv1"
  param {
    lr_mult: 1
    decay_mult: 1
  }
  param {
    lr_mult: 2
    decay_mult: 1
  }
  scale_param {
    bias_term: true
  }
}
layer {
  name: "layer_64_3_relu2"
  type: "ReLU"
  bottom: "layer_64_3_conv1"
  top: "layer_64_3_conv1"
}
layer {
  name: "layer_64_3_conv2"
  type: "Convolution"
  bottom: "layer_64_3_conv1"
  top: "layer_64_3_conv2"
  param {
    lr_mult: 1
    decay_mult: 1
  }
  convolution_param {
    num_output: 64
    bias_term: false
    pad: 1
    kernel_size: 3
    stride: 1
    weight_filler {
      type: "msra"
    }
    bias_filler {
      type: "constant"
      value: 0
    }
  }
}
layer {
  name: "layer_64_3_sum"
  type: "Eltwise"
  bottom: "layer_64_3_conv2"
  bottom: "layer_64_2_sum"
  top: "layer_64_3_sum"
}
layer {
  name: "layer_128_1_bn1"
  type: "BatchNorm"
  bottom: "layer_64_3_sum"
  top: "layer_128_1_bn1"
  param {
    lr_mult: 0
    decay_mult: 0
  }
  param {
    lr_mult: 0
    decay_mult: 0
  }
  param {
    lr_mult: 0
    decay_mult: 0
  }
}
layer {
  name: "layer_128_1_scale1"
  type: "Scale"
  bottom: "layer_128_1_bn1"
  top: "layer_128_1_bn1"
  param {
    lr_mult: 1
    decay_mult: 1
  }
  param {
    lr_mult: 2
    decay_mult: 1
  }
  scale_param {
    bias_term: true
  }
}
layer {
  name: "layer_128_1_relu1"
  type: "ReLU"
  bottom: "layer_128_1_bn1"
  top: "layer_128_1_bn1"
}
layer {
  name: "layer_128_1_conv1"
  type: "Convolution"
  bottom: "layer_128_1_bn1"
  top: "layer_128_1_conv1"
  param {
    lr_mult: 1
    decay_mult: 1
  }
  convolution_param {
    num_output: 128
    bias_term: false
    pad: 1
    kernel_size: 3
    stride: 2
    weight_filler {
      type: "msra"
    }
    bias_filler {
      type: "constant"
      value: 0
    }
  }
}
layer {
  name: "layer_128_1_bn2"
  type: "BatchNorm"
  bottom: "layer_128_1_conv1"
  top: "layer_128_1_conv1"
  param {
    lr_mult: 0
    decay_mult: 0
  }
  param {
    lr_mult: 0
    decay_mult: 0
  }
  param {
    lr_mult: 0
    decay_mult: 0
  }
}
layer {
  name: "layer_128_1_scale2"
  type: "Scale"
  bottom: "layer_128_1_conv1"
  top: "layer_128_1_conv1"
  param {
    lr_mult: 1
    decay_mult: 1
  }
  param {
    lr_mult: 2
    decay_mult: 1
  }
  scale_param {
    bias_term: true
  }
}
layer {
  name: "layer_128_1_relu2"
  type: "ReLU"
  bottom: "layer_128_1_conv1"
  top: "layer_128_1_conv1"
}
layer {
  name: "layer_128_1_conv2"
  type: "Convolution"
  bottom: "layer_128_1_conv1"
  top: "layer_128_1_conv2"
  param {
    lr_mult: 1
    decay_mult: 1
  }
  convolution_param {
    num_output: 128
    bias_term: false
    pad: 1
    kernel_size: 3
    stride: 1
    weight_filler {
      type: "msra"
    }
    bias_filler {
      type: "constant"
      value: 0
    }
  }
}
layer {
  name: "layer_128_1_conv_expand"
  type: "Convolution"
  bottom: "layer_128_1_bn1"
  top: "layer_128_1_conv_expand"
  param {
    lr_mult: 1
    decay_mult: 1
  }
  convolution_param {
    num_output: 128
    bias_term: false
    pad: 0
    kernel_size: 1
    stride: 2
    weight_filler {
      type: "msra"
    }
    bias_filler {
      type: "constant"
      value: 0
    }
  }
}
layer {
  name: "layer_128_1_sum"
  type: "Eltwise"
  bottom: "layer_128_1_conv_expand"
  bottom: "layer_128_1_conv2"
  top: "layer_128_1_sum"
}
layer {
  name: "layer_128_2_bn1"
  type: "BatchNorm"
  bottom: "layer_128_1_sum"
  top: "layer_128_2_bn1"
  param {
    lr_mult: 0
    decay_mult: 0
  }
  param {
    lr_mult: 0
    decay_mult: 0
  }
  param {
    lr_mult: 0
    decay_mult: 0
  }
}
layer {
  name: "layer_128_2_scale1"
  type: "Scale"
  bottom: "layer_128_2_bn1"
  top: "layer_128_2_bn1"
  param {
    lr_mult: 1
    decay_mult: 1
  }
  param {
    lr_mult: 2
    decay_mult: 1
  }
  scale_param {
    bias_term: true
  }
}
layer {
  name: "layer_128_2_relu1"
  type: "ReLU"
  bottom: "layer_128_2_bn1"
  top: "layer_128_2_bn1"
}
layer {
  name: "layer_128_2_conv1"
  type: "Convolution"
  bottom: "layer_128_2_bn1"
  top: "layer_128_2_conv1"
  param {
    lr_mult: 1
    decay_mult: 1
  }
  convolution_param {
    num_output: 128
    bias_term: false
    pad: 1
    kernel_size: 3
    stride: 1
    weight_filler {
      type: "msra"
    }
    bias_filler {
      type: "constant"
      value: 0
    }
  }
}
layer {
  name: "layer_128_2_bn2"
  type: "BatchNorm"
  bottom: "layer_128_2_conv1"
  top: "layer_128_2_conv1"
  param {
    lr_mult: 0
    decay_mult: 0
  }
  param {
    lr_mult: 0
    decay_mult: 0
  }
  param {
    lr_mult: 0
    decay_mult: 0
  }
}
layer {
  name: "layer_128_2_scale2"
  type: "Scale"
  bottom: "layer_128_2_conv1"
  top: "layer_128_2_conv1"
  param {
    lr_mult: 1
    decay_mult: 1
  }
  param {
    lr_mult: 2
    decay_mult: 1
  }
  scale_param {
    bias_term: true
  }
}
layer {
  name: "layer_128_2_relu2"
  type: "ReLU"
  bottom: "layer_128_2_conv1"
  top: "layer_128_2_conv1"
}
layer {
  name: "layer_128_2_conv2"
  type: "Convolution"
  bottom: "layer_128_2_conv1"
  top: "layer_128_2_conv2"
  param {
    lr_mult: 1
    decay_mult: 1
  }
  convolution_param {
    num_output: 128
    bias_term: false
    pad: 1
    kernel_size: 3
    stride: 1
    weight_filler {
      type: "msra"
    }
    bias_filler {
      type: "constant"
      value: 0
    }
  }
}
layer {
  name: "layer_128_2_sum"
  type: "Eltwise"
  bottom: "layer_128_2_conv2"
  bottom: "layer_128_1_sum"
  top: "layer_128_2_sum"
}
layer {
  name: "layer_128_3_bn1"
  type: "BatchNorm"
  bottom: "layer_128_2_sum"
  top: "layer_128_3_bn1"
  param {
    lr_mult: 0
    decay_mult: 0
  }
  param {
    lr_mult: 0
    decay_mult: 0
  }
  param {
    lr_mult: 0
    decay_mult: 0
  }
}
layer {
  name: "layer_128_3_scale1"
  type: "Scale"
  bottom: "layer_128_3_bn1"
  top: "layer_128_3_bn1"
  param {
    lr_mult: 1
    decay_mult: 1
  }
  param {
    lr_mult: 2
    decay_mult: 1
  }
  scale_param {
    bias_term: true
  }
}
layer {
  name: "layer_128_3_relu1"
  type: "ReLU"
  bottom: "layer_128_3_bn1"
  top: "layer_128_3_bn1"
}
layer {
  name: "layer_128_3_conv1"
  type: "Convolution"
  bottom: "layer_128_3_bn1"
  top: "layer_128_3_conv1"
  param {
    lr_mult: 1
    decay_mult: 1
  }
  convolution_param {
    num_output: 128
    bias_term: false
    pad: 1
    kernel_size: 3
    stride: 1
    weight_filler {
      type: "msra"
    }
    bias_filler {
      type: "constant"
      value: 0
    }
  }
}
layer {
  name: "layer_128_3_bn2"
  type: "BatchNorm"
  bottom: "layer_128_3_conv1"
  top: "layer_128_3_conv1"
  param {
    lr_mult: 0
    decay_mult: 0
  }
  param {
    lr_mult: 0
    decay_mult: 0
  }
  param {
    lr_mult: 0
    decay_mult: 0
  }
}
layer {
  name: "layer_128_3_scale2"
  type: "Scale"
  bottom: "layer_128_3_conv1"
  top: "layer_128_3_conv1"
  param {
    lr_mult: 1
    decay_mult: 1
  }
  param {
    lr_mult: 2
    decay_mult: 1
  }
  scale_param {
    bias_term: true
  }
}
layer {
  name: "layer_128_3_relu2"
  type: "ReLU"
  bottom: "layer_128_3_conv1"
  top: "layer_128_3_conv1"
}
layer {
  name: "layer_128_3_conv2"
  type: "Convolution"
  bottom: "layer_128_3_conv1"
  top: "layer_128_3_conv2"
  param {
    lr_mult: 1
    decay_mult: 1
  }
  convolution_param {
    num_output: 128
    bias_term: false
    pad: 1
    kernel_size: 3
    stride: 1
    weight_filler {
      type: "msra"
    }
    bias_filler {
      type: "constant"
      value: 0
    }
  }
}
layer {
  name: "layer_128_3_sum"
  type: "Eltwise"
  bottom: "layer_128_3_conv2"
  bottom: "layer_128_2_sum"
  top: "layer_128_3_sum"
}
layer {
  name: "layer_128_4_bn1"
  type: "BatchNorm"
  bottom: "layer_128_3_sum"
  top: "layer_128_4_bn1"
  param {
    lr_mult: 0
    decay_mult: 0
  }
  param {
    lr_mult: 0
    decay_mult: 0
  }
  param {
    lr_mult: 0
    decay_mult: 0
  }
}
layer {
  name: "layer_128_4_scale1"
  type: "Scale"
  bottom: "layer_128_4_bn1"
  top: "layer_128_4_bn1"
  param {
    lr_mult: 1
    decay_mult: 1
  }
  param {
    lr_mult: 2
    decay_mult: 1
  }
  scale_param {
    bias_term: true
  }
}
layer {
  name: "layer_128_4_relu1"
  type: "ReLU"
  bottom: "layer_128_4_bn1"
  top: "layer_128_4_bn1"
}
layer {
  name: "layer_128_4_conv1"
  type: "Convolution"
  bottom: "layer_128_4_bn1"
  top: "layer_128_4_conv1"
  param {
    lr_mult: 1
    decay_mult: 1
  }
  convolution_param {
    num_output: 128
    bias_term: false
    pad: 1
    kernel_size: 3
    stride: 1
    weight_filler {
      type: "msra"
    }
    bias_filler {
      type: "constant"
      value: 0
    }
  }
}
layer {
  name: "layer_128_4_bn2"
  type: "BatchNorm"
  bottom: "layer_128_4_conv1"
  top: "layer_128_4_conv1"
  param {
    lr_mult: 0
    decay_mult: 0
  }
  param {
    lr_mult: 0
    decay_mult: 0
  }
  param {
    lr_mult: 0
    decay_mult: 0
  }
}
layer {
  name: "layer_128_4_scale2"
  type: "Scale"
  bottom: "layer_128_4_conv1"
  top: "layer_128_4_conv1"
  param {
    lr_mult: 1
    decay_mult: 1
  }
  param {
    lr_mult: 2
    decay_mult: 1
  }
  scale_param {
    bias_term: true
  }
}
layer {
  name: "layer_128_4_relu2"
  type: "ReLU"
  bottom: "layer_128_4_conv1"
  top: "layer_128_4_conv1"
}
layer {
  name: "layer_128_4_conv2"
  type: "Convolution"
  bottom: "layer_128_4_conv1"
  top: "layer_128_4_conv2"
  param {
    lr_mult: 1
    decay_mult: 1
  }
  convolution_param {
    num_output: 128
    bias_term: false
    pad: 1
    kernel_size: 3
    stride: 1
    weight_filler {
…
I0528 22:24:54.713937 16815 net.cpp:367] layer_256_2_relu1 -> layer_256_2_bn1 (in-place)
I0528 22:24:54.714138 16815 net.cpp:122] Setting up layer_256_2_relu1
I0528 22:24:54.714156 16815 net.cpp:129] Top shape: 20 256 14 14 (1003520)
I0528 22:24:54.714161 16815 net.cpp:137] Memory required for data: 1280491760
I0528 22:24:54.714165 16815 layer_factory.hpp:77] Creating layer layer_256_2_conv1
I0528 22:24:54.714176 16815 net.cpp:84] Creating Layer layer_256_2_conv1
I0528 22:24:54.714181 16815 net.cpp:406] layer_256_2_conv1 <- layer_256_2_bn1
I0528 22:24:54.714187 16815 net.cpp:380] layer_256_2_conv1 -> layer_256_2_conv1
I0528 22:24:54.732892 16815 net.cpp:122] Setting up layer_256_2_conv1
I0528 22:24:54.732911 16815 net.cpp:129] Top shape: 20 256 14 14 (1003520)
I0528 22:24:54.732915 16815 net.cpp:137] Memory required for data: 1284505840
I0528 22:24:54.732921 16815 layer_factory.hpp:77] Creating layer layer_256_2_bn2
I0528 22:24:54.732928 16815 net.cpp:84] Creating Layer layer_256_2_bn2
I0528 22:24:54.732933 16815 net.cpp:406] layer_256_2_bn2 <- layer_256_2_conv1
I0528 22:24:54.732941 16815 net.cpp:367] layer_256_2_bn2 -> layer_256_2_conv1 (in-place)
I0528 22:24:54.733111 16815 net.cpp:122] Setting up layer_256_2_bn2
I0528 22:24:54.733129 16815 net.cpp:129] Top shape: 20 256 14 14 (1003520)
I0528 22:24:54.733134 16815 net.cpp:137] Memory required for data: 1288519920
I0528 22:24:54.733140 16815 layer_factory.hpp:77] Creating layer layer_256_2_scale2
I0528 22:24:54.733148 16815 net.cpp:84] Creating Layer layer_256_2_scale2
I0528 22:24:54.733152 16815 net.cpp:406] layer_256_2_scale2 <- layer_256_2_conv1
I0528 22:24:54.733157 16815 net.cpp:367] layer_256_2_scale2 -> layer_256_2_conv1 (in-place)
I0528 22:24:54.733199 16815 layer_factory.hpp:77] Creating layer layer_256_2_scale2
I0528 22:24:54.733296 16815 net.cpp:122] Setting up layer_256_2_scale2
I0528 22:24:54.733304 16815 net.cpp:129] Top shape: 20 256 14 14 (1003520)
I0528 22:24:54.733307 16815 net.cpp:137] Memory required for data: 1292534000
I0528 22:24:54.733319 16815 layer_factory.hpp:77] Creating layer layer_256_2_relu2
I0528 22:24:54.733332 16815 net.cpp:84] Creating Layer layer_256_2_relu2
I0528 22:24:54.733337 16815 net.cpp:406] layer_256_2_relu2 <- layer_256_2_conv1
I0528 22:24:54.733345 16815 net.cpp:367] layer_256_2_relu2 -> layer_256_2_conv1 (in-place)
I0528 22:24:54.733963 16815 net.cpp:122] Setting up layer_256_2_relu2
I0528 22:24:54.733975 16815 net.cpp:129] Top shape: 20 256 14 14 (1003520)
I0528 22:24:54.733979 16815 net.cpp:137] Memory required for data: 1296548080
I0528 22:24:54.733983 16815 layer_factory.hpp:77] Creating layer layer_256_2_conv2
I0528 22:24:54.733995 16815 net.cpp:84] Creating Layer layer_256_2_conv2
I0528 22:24:54.734000 16815 net.cpp:406] layer_256_2_conv2 <- layer_256_2_conv1
I0528 22:24:54.734007 16815 net.cpp:380] layer_256_2_conv2 -> layer_256_2_conv2
I0528 22:24:54.752312 16815 net.cpp:122] Setting up layer_256_2_conv2
I0528 22:24:54.752331 16815 net.cpp:129] Top shape: 20 256 14 14 (1003520)
I0528 22:24:54.752336 16815 net.cpp:137] Memory required for data: 1300562160
I0528 22:24:54.752342 16815 layer_factory.hpp:77] Creating layer layer_256_2_sum
I0528 22:24:54.752349 16815 net.cpp:84] Creating Layer layer_256_2_sum
I0528 22:24:54.752353 16815 net.cpp:406] layer_256_2_sum <- layer_256_2_conv2
I0528 22:24:54.752359 16815 net.cpp:406] layer_256_2_sum <- layer_256_1_sum_layer_256_1_sum_0_split_1
I0528 22:24:54.752367 16815 net.cpp:380] layer_256_2_sum -> layer_256_2_sum
I0528 22:24:54.752393 16815 net.cpp:122] Setting up layer_256_2_sum
I0528 22:24:54.752399 16815 net.cpp:129] Top shape: 20 256 14 14 (1003520)
I0528 22:24:54.752403 16815 net.cpp:137] Memory required for data: 1304576240
I0528 22:24:54.752406 16815 layer_factory.hpp:77] Creating layer layer_256_2_sum_layer_256_2_sum_0_split
I0528 22:24:54.752414 16815 net.cpp:84] Creating Layer layer_256_2_sum_layer_256_2_sum_0_split
I0528 22:24:54.752419 16815 net.cpp:406] layer_256_2_sum_layer_256_2_sum_0_split <- layer_256_2_sum
I0528 22:24:54.752424 16815 net.cpp:380] layer_256_2_sum_layer_256_2_sum_0_split -> layer_256_2_sum_layer_256_2_sum_0_split_0
I0528 22:24:54.752431 16815 net.cpp:380] layer_256_2_sum_layer_256_2_sum_0_split -> layer_256_2_sum_layer_256_2_sum_0_split_1
I0528 22:24:54.752466 16815 net.cpp:122] Setting up layer_256_2_sum_layer_256_2_sum_0_split
I0528 22:24:54.752473 16815 net.cpp:129] Top shape: 20 256 14 14 (1003520)
I0528 22:24:54.752478 16815 net.cpp:129] Top shape: 20 256 14 14 (1003520)
I0528 22:24:54.752481 16815 net.cpp:137] Memory required for data: 1312604400
I0528 22:24:54.752485 16815 layer_factory.hpp:77] Creating layer layer_256_3_bn1
I0528 22:24:54.752492 16815 net.cpp:84] Creating Layer layer_256_3_bn1
I0528 22:24:54.752497 16815 net.cpp:406] layer_256_3_bn1 <- layer_256_2_sum_layer_256_2_sum_0_split_0
I0528 22:24:54.752502 16815 net.cpp:380] layer_256_3_bn1 -> layer_256_3_bn1
I0528 22:24:54.752681 16815 net.cpp:122] Setting up layer_256_3_bn1
I0528 22:24:54.752689 16815 net.cpp:129] Top shape: 20 256 14 14 (1003520)
I0528 22:24:54.752693 16815 net.cpp:137] Memory required for data: 1316618480
I0528 22:24:54.752701 16815 layer_factory.hpp:77] Creating layer layer_256_3_scale1
I0528 22:24:54.752709 16815 net.cpp:84] Creating Layer layer_256_3_scale1
I0528 22:24:54.752714 16815 net.cpp:406] layer_256_3_scale1 <- layer_256_3_bn1
I0528 22:24:54.752719 16815 net.cpp:367] layer_256_3_scale1 -> layer_256_3_bn1 (in-place)
I0528 22:24:54.752761 16815 layer_factory.hpp:77] Creating layer layer_256_3_scale1
I0528 22:24:54.752861 16815 net.cpp:122] Setting up layer_256_3_scale1
I0528 22:24:54.752868 16815 net.cpp:129] Top shape: 20 256 14 14 (1003520)
I0528 22:24:54.752871 16815 net.cpp:137] Memory required for data: 1320632560
I0528 22:24:54.752878 16815 layer_factory.hpp:77] Creating layer layer_256_3_relu1
I0528 22:24:54.752883 16815 net.cpp:84] Creating Layer layer_256_3_relu1
I0528 22:24:54.752887 16815 net.cpp:406] layer_256_3_relu1 <- layer_256_3_bn1
I0528 22:24:54.752894 16815 net.cpp:367] layer_256_3_relu1 -> layer_256_3_bn1 (in-place)
I0528 22:24:54.753520 16815 net.cpp:122] Setting up layer_256_3_relu1
I0528 22:24:54.753542 16815 net.cpp:129] Top shape: 20 256 14 14 (1003520)
I0528 22:24:54.753546 16815 net.cpp:137] Memory required for data: 1324646640
I0528 22:24:54.753551 16815 layer_factory.hpp:77] Creating layer layer_256_3_conv1
I0528 22:24:54.753562 16815 net.cpp:84] Creating Layer layer_256_3_conv1
I0528 22:24:54.753568 16815 net.cpp:406] layer_256_3_conv1 <- layer_256_3_bn1
I0528 22:24:54.753576 16815 net.cpp:380] layer_256_3_conv1 -> layer_256_3_conv1
I0528 22:24:54.772322 16815 net.cpp:122] Setting up layer_256_3_conv1
I0528 22:24:54.772341 16815 net.cpp:129] Top shape: 20 256 14 14 (1003520)
I0528 22:24:54.772346 16815 net.cpp:137] Memory required for data: 1328660720
I0528 22:24:54.772351 16815 layer_factory.hpp:77] Creating layer layer_256_3_bn2
I0528 22:24:54.772361 16815 net.cpp:84] Creating Layer layer_256_3_bn2
I0528 22:24:54.772367 16815 net.cpp:406] layer_256_3_bn2 <- layer_256_3_conv1
I0528 22:24:54.772372 16815 net.cpp:367] layer_256_3_bn2 -> layer_256_3_conv1 (in-place)
I0528 22:24:54.772562 16815 net.cpp:122] Setting up layer_256_3_bn2
I0528 22:24:54.772572 16815 net.cpp:129] Top shape: 20 256 14 14 (1003520)
I0528 22:24:54.772574 16815 net.cpp:137] Memory required for data: 1332674800
I0528 22:24:54.772584 16815 layer_factory.hpp:77] Creating layer layer_256_3_scale2
I0528 22:24:54.772591 16815 net.cpp:84] Creating Layer layer_256_3_scale2
I0528 22:24:54.772595 16815 net.cpp:406] layer_256_3_scale2 <- layer_256_3_conv1
I0528 22:24:54.772601 16815 net.cpp:367] layer_256_3_scale2 -> layer_256_3_conv1 (in-place)
I0528 22:24:54.772644 16815 layer_factory.hpp:77] Creating layer layer_256_3_scale2
I0528 22:24:54.772744 16815 net.cpp:122] Setting up layer_256_3_scale2
I0528 22:24:54.772753 16815 net.cpp:129] Top shape: 20 256 14 14 (1003520)
I0528 22:24:54.772756 16815 net.cpp:137] Memory required for data: 1336688880
I0528 22:24:54.772763 16815 layer_factory.hpp:77] Creating layer layer_256_3_relu2
I0528 22:24:54.772768 16815 net.cpp:84] Creating Layer layer_256_3_relu2
I0528 22:24:54.772773 16815 net.cpp:406] layer_256_3_relu2 <- layer_256_3_conv1
I0528 22:24:54.772779 16815 net.cpp:367] layer_256_3_relu2 -> layer_256_3_conv1 (in-place)
I0528 22:24:54.773427 16815 net.cpp:122] Setting up layer_256_3_relu2
I0528 22:24:54.773444 16815 net.cpp:129] Top shape: 20 256 14 14 (1003520)
I0528 22:24:54.773449 16815 net.cpp:137] Memory required for data: 1340702960
I0528 22:24:54.773453 16815 layer_factory.hpp:77] Creating layer layer_256_3_conv2
I0528 22:24:54.773463 16815 net.cpp:84] Creating Layer layer_256_3_conv2
I0528 22:24:54.773468 16815 net.cpp:406] layer_256_3_conv2 <- layer_256_3_conv1
I0528 22:24:54.773478 16815 net.cpp:380] layer_256_3_conv2 -> layer_256_3_conv2
I0528 22:24:54.792398 16815 net.cpp:122] Setting up layer_256_3_conv2
I0528 22:24:54.792415 16815 net.cpp:129] Top shape: 20 256 14 14 (1003520)
I0528 22:24:54.792420 16815 net.cpp:137] Memory required for data: 1344717040
I0528 22:24:54.792451 16815 layer_factory.hpp:77] Creating layer layer_256_3_sum
I0528 22:24:54.792459 16815 net.cpp:84] Creating Layer layer_256_3_sum
I0528 22:24:54.792464 16815 net.cpp:406] layer_256_3_sum <- layer_256_3_conv2
I0528 22:24:54.792469 16815 net.cpp:406] layer_256_3_sum <- layer_256_2_sum_layer_256_2_sum_0_split_1
I0528 22:24:54.792474 16815 net.cpp:380] layer_256_3_sum -> layer_256_3_sum
I0528 22:24:54.792502 16815 net.cpp:122] Setting up layer_256_3_sum
I0528 22:24:54.792510 16815 net.cpp:129] Top shape: 20 256 14 14 (1003520)
I0528 22:24:54.792513 16815 net.cpp:137] Memory required for data: 1348731120
I0528 22:24:54.792516 16815 layer_factory.hpp:77] Creating layer layer_256_3_sum_layer_256_3_sum_0_split
I0528 22:24:54.792524 16815 net.cpp:84] Creating Layer layer_256_3_sum_layer_256_3_sum_0_split
I0528 22:24:54.792529 16815 net.cpp:406] layer_256_3_sum_layer_256_3_sum_0_split <- layer_256_3_sum
I0528 22:24:54.792536 16815 net.cpp:380] layer_256_3_sum_layer_256_3_sum_0_split -> layer_256_3_sum_layer_256_3_sum_0_split_0
I0528 22:24:54.792546 16815 net.cpp:380] layer_256_3_sum_layer_256_3_sum_0_split -> layer_256_3_sum_layer_256_3_sum_0_split_1
I0528 22:24:54.792593 16815 net.cpp:122] Setting up layer_256_3_sum_layer_256_3_sum_0_split
I0528 22:24:54.792600 16815 net.cpp:129] Top shape: 20 256 14 14 (1003520)
I0528 22:24:54.792604 16815 net.cpp:129] Top shape: 20 256 14 14 (1003520)
I0528 22:24:54.792608 16815 net.cpp:137] Memory required for data: 1356759280
I0528 22:24:54.792611 16815 layer_factory.hpp:77] Creating layer layer_256_4_bn1
I0528 22:24:54.792619 16815 net.cpp:84] Creating Layer layer_256_4_bn1
I0528 22:24:54.792623 16815 net.cpp:406] layer_256_4_bn1 <- layer_256_3_sum_layer_256_3_sum_0_split_0
I0528 22:24:54.792629 16815 net.cpp:380] layer_256_4_bn1 -> layer_256_4_bn1
I0528 22:24:54.792804 16815 net.cpp:122] Setting up layer_256_4_bn1
I0528 22:24:54.792812 16815 net.cpp:129] Top shape: 20 256 14 14 (1003520)
I0528 22:24:54.792815 16815 net.cpp:137] Memory required for data: 1360773360
I0528 22:24:54.792824 16815 layer_factory.hpp:77] Creating layer layer_256_4_scale1
I0528 22:24:54.792830 16815 net.cpp:84] Creating Layer layer_256_4_scale1
I0528 22:24:54.792834 16815 net.cpp:406] layer_256_4_scale1 <- layer_256_4_bn1
I0528 22:24:54.792840 16815 net.cpp:367] layer_256_4_scale1 -> layer_256_4_bn1 (in-place)
I0528 22:24:54.792883 16815 layer_factory.hpp:77] Creating layer layer_256_4_scale1
I0528 22:24:54.792984 16815 net.cpp:122] Setting up layer_256_4_scale1
I0528 22:24:54.792991 16815 net.cpp:129] Top shape: 20 256 14 14 (1003520)
I0528 22:24:54.792995 16815 net.cpp:137] Memory required for data: 1364787440
I0528 22:24:54.793001 16815 layer_factory.hpp:77] Creating layer layer_256_4_relu1
I0528 22:24:54.793007 16815 net.cpp:84] Creating Layer layer_256_4_relu1
I0528 22:24:54.793011 16815 net.cpp:406] layer_256_4_relu1 <- layer_256_4_bn1
I0528 22:24:54.793018 16815 net.cpp:367] layer_256_4_relu1 -> layer_256_4_bn1 (in-place)
I0528 22:24:54.793742 16815 net.cpp:122] Setting up layer_256_4_relu1
I0528 22:24:54.793758 16815 net.cpp:129] Top shape: 20 256 14 14 (1003520)
I0528 22:24:54.793763 16815 net.cpp:137] Memory required for data: 1368801520
I0528 22:24:54.793767 16815 layer_factory.hpp:77] Creating layer layer_256_4_conv1
I0528 22:24:54.793777 16815 net.cpp:84] Creating Layer layer_256_4_conv1
I0528 22:24:54.793782 16815 net.cpp:406] layer_256_4_conv1 <- layer_256_4_bn1
I0528 22:24:54.793789 16815 net.cpp:380] layer_256_4_conv1 -> layer_256_4_conv1
I0528 22:24:54.812067 16815 net.cpp:122] Setting up layer_256_4_conv1
I0528 22:24:54.812085 16815 net.cpp:129] Top shape: 20 256 14 14 (1003520)
I0528 22:24:54.812089 16815 net.cpp:137] Memory required for data: 1372815600
I0528 22:24:54.812095 16815 layer_factory.hpp:77] Creating layer layer_256_4_bn2
I0528 22:24:54.812105 16815 net.cpp:84] Creating Layer layer_256_4_bn2
I0528 22:24:54.812110 16815 net.cpp:406] layer_256_4_bn2 <- layer_256_4_conv1
I0528 22:24:54.812121 16815 net.cpp:367] layer_256_4_bn2 -> layer_256_4_conv1 (in-place)
I0528 22:24:54.812302 16815 net.cpp:122] Setting up layer_256_4_bn2
I0528 22:24:54.812311 16815 net.cpp:129] Top shape: 20 256 14 14 (1003520)
I0528 22:24:54.812315 16815 net.cpp:137] Memory required for data: 1376829680
I0528 22:24:54.812324 16815 layer_factory.hpp:77] Creating layer layer_256_4_scale2
I0528 22:24:54.812330 16815 net.cpp:84] Creating Layer layer_256_4_scale2
I0528 22:24:54.812335 16815 net.cpp:406] layer_256_4_scale2 <- layer_256_4_conv1
I0528 22:24:54.812340 16815 net.cpp:367] layer_256_4_scale2 -> layer_256_4_conv1 (in-place)
I0528 22:24:54.812383 16815 layer_factory.hpp:77] Creating layer layer_256_4_scale2
I0528 22:24:54.812484 16815 net.cpp:122] Setting up layer_256_4_scale2
I0528 22:24:54.812490 16815 net.cpp:129] Top shape: 20 256 14 14 (1003520)
I0528 22:24:54.812494 16815 net.cpp:137] Memory required for data: 1380843760
I0528 22:24:54.812500 16815 layer_factory.hpp:77] Creating layer layer_256_4_relu2
I0528 22:24:54.812508 16815 net.cpp:84] Creating Layer layer_256_4_relu2
I0528 22:24:54.812512 16815 net.cpp:406] layer_256_4_relu2 <- layer_256_4_conv1
I0528 22:24:54.812532 16815 net.cpp:367] layer_256_4_relu2 -> layer_256_4_conv1 (in-place)
I0528 22:24:54.813158 16815 net.cpp:122] Setting up layer_256_4_relu2
I0528 22:24:54.813175 16815 net.cpp:129] Top shape: 20 256 14 14 (1003520)
I0528 22:24:54.813180 16815 net.cpp:137] Memory required for data: 1384857840
I0528 22:24:54.813184 16815 layer_factory.hpp:77] Creating layer layer_256_4_conv2
I0528 22:24:54.813196 16815 net.cpp:84] Creating Layer layer_256_4_conv2
I0528 22:24:54.813201 16815 net.cpp:406] layer_256_4_conv2 <- layer_256_4_conv1
I0528 22:24:54.813208 16815 net.cpp:380] layer_256_4_conv2 -> layer_256_4_conv2
I0528 22:24:54.831913 16815 net.cpp:122] Setting up layer_256_4_conv2
I0528 22:24:54.831933 16815 net.cpp:129] Top shape: 20 256 14 14 (1003520)
I0528 22:24:54.831938 16815 net.cpp:137] Memory required for data: 1388871920
I0528 22:24:54.831943 16815 layer_factory.hpp:77] Creating layer layer_256_4_sum
I0528 22:24:54.831949 16815 net.cpp:84] Creating Layer layer_256_4_sum
I0528 22:24:54.831954 16815 net.cpp:406] layer_256_4_sum <- layer_256_4_conv2
I0528 22:24:54.831959 16815 net.cpp:406] layer_256_4_sum <- layer_256_3_sum_layer_256_3_sum_0_split_1
I0528 22:24:54.831965 16815 net.cpp:380] layer_256_4_sum -> layer_256_4_sum
I0528 22:24:54.831997 16815 net.cpp:122] Setting up layer_256_4_sum
I0528 22:24:54.832005 16815 net.cpp:129] Top shape: 20 256 14 14 (1003520)
I0528 22:24:54.832008 16815 net.cpp:137] Memory required for data: 1392886000
I0528 22:24:54.832012 16815 layer_factory.hpp:77] Creating layer layer_256_4_sum_layer_256_4_sum_0_split
I0528 22:24:54.832018 16815 net.cpp:84] Creating Layer layer_256_4_sum_layer_256_4_sum_0_split
I0528 22:24:54.832025 16815 net.cpp:406] layer_256_4_sum_layer_256_4_sum_0_split <- layer_256_4_sum
I0528 22:24:54.832029 16815 net.cpp:380] layer_256_4_sum_layer_256_4_sum_0_split -> layer_256_4_sum_layer_256_4_sum_0_split_0
I0528 22:24:54.832037 16815 net.cpp:380] layer_256_4_sum_layer_256_4_sum_0_split -> layer_256_4_sum_layer_256_4_sum_0_split_1
I0528 22:24:54.832072 16815 net.cpp:122] Setting up layer_256_4_sum_layer_256_4_sum_0_split
I0528 22:24:54.832079 16815 net.cpp:129] Top shape: 20 256 14 14 (1003520)
I0528 22:24:54.832083 16815 net.cpp:129] Top shape: 20 256 14 14 (1003520)
I0528 22:24:54.832087 16815 net.cpp:137] Memory required for data: 1400914160
I0528 22:24:54.832090 16815 layer_factory.hpp:77] Creating layer layer_256_5_bn1
I0528 22:24:54.832096 16815 net.cpp:84] Creating Layer layer_256_5_bn1
I0528 22:24:54.832100 16815 net.cpp:406] layer_256_5_bn1 <- layer_256_4_sum_layer_256_4_sum_0_split_0
I0528 22:24:54.832108 16815 net.cpp:380] layer_256_5_bn1 -> layer_256_5_bn1
I0528 22:24:54.832295 16815 net.cpp:122] Setting up layer_256_5_bn1
I0528 22:24:54.832306 16815 net.cpp:129] Top shape: 20 256 14 14 (1003520)
I0528 22:24:54.832310 16815 net.cpp:137] Memory required for data: 1404928240
I0528 22:24:54.832319 16815 layer_factory.hpp:77] Creating layer layer_256_5_scale1
I0528 22:24:54.832327 16815 net.cpp:84] Creating Layer layer_256_5_scale1
I0528 22:24:54.832332 16815 net.cpp:406] layer_256_5_scale1 <- layer_256_5_bn1
I0528 22:24:54.832337 16815 net.cpp:367] layer_256_5_scale1 -> layer_256_5_bn1 (in-place)
I0528 22:24:54.832379 16815 layer_factory.hpp:77] Creating layer layer_256_5_scale1
I0528 22:24:54.832481 16815 net.cpp:122] Setting up layer_256_5_scale1
I0528 22:24:54.832489 16815 net.cpp:129] Top shape: 20 256 14 14 (1003520)
I0528 22:24:54.832492 16815 net.cpp:137] Memory required for data: 1408942320
I0528 22:24:54.832499 16815 layer_factory.hpp:77] Creating layer layer_256_5_relu1
I0528 22:24:54.832504 16815 net.cpp:84] Creating Layer layer_256_5_relu1
I0528 22:24:54.832509 16815 net.cpp:406] layer_256_5_relu1 <- layer_256_5_bn1
I0528 22:24:54.832516 16815 net.cpp:367] layer_256_5_relu1 -> layer_256_5_bn1 (in-place)
I0528 22:24:54.832712 16815 net.cpp:122] Setting up layer_256_5_relu1
I0528 22:24:54.832722 16815 net.cpp:129] Top shape: 20 256 14 14 (1003520)
I0528 22:24:54.832726 16815 net.cpp:137] Memory required for data: 1412956400
I0528 22:24:54.832741 16815 layer_factory.hpp:77] Creating layer layer_256_5_conv1
I0528 22:24:54.832752 16815 net.cpp:84] Creating Layer layer_256_5_conv1
I0528 22:24:54.832757 16815 net.cpp:406] layer_256_5_conv1 <- layer_256_5_bn1
I0528 22:24:54.832767 16815 net.cpp:380] layer_256_5_conv1 -> layer_256_5_conv1
I0528 22:24:54.851502 16815 net.cpp:122] Setting up layer_256_5_conv1
I0528 22:24:54.851521 16815 net.cpp:129] Top shape: 20 256 14 14 (1003520)
I0528 22:24:54.851526 16815 net.cpp:137] Memory required for data: 1416970480
I0528 22:24:54.851531 16815 layer_factory.hpp:77] Creating layer layer_256_5_bn2
I0528 22:24:54.851541 16815 net.cpp:84] Creating Layer layer_256_5_bn2
I0528 22:24:54.851546 16815 net.cpp:406] layer_256_5_bn2 <- layer_256_5_conv1
I0528 22:24:54.851552 16815 net.cpp:367] layer_256_5_bn2 -> layer_256_5_conv1 (in-place)
I0528 22:24:54.851728 16815 net.cpp:122] Setting up layer_256_5_bn2
I0528 22:24:54.851737 16815 net.cpp:129] Top shape: 20 256 14 14 (1003520)
I0528 22:24:54.851740 16815 net.cpp:137] Memory required for data: 1420984560
I0528 22:24:54.851748 16815 layer_factory.hpp:77] Creating layer layer_256_5_scale2
I0528 22:24:54.851755 16815 net.cpp:84] Creating Layer layer_256_5_scale2
I0528 22:24:54.851759 16815 net.cpp:406] layer_256_5_scale2 <- layer_256_5_conv1
I0528 22:24:54.851764 16815 net.cpp:367] layer_256_5_scale2 -> layer_256_5_conv1 (in-place)
I0528 22:24:54.851805 16815 layer_factory.hpp:77] Creating layer layer_256_5_scale2
I0528 22:24:54.851910 16815 net.cpp:122] Setting up layer_256_5_scale2
I0528 22:24:54.851918 16815 net.cpp:129] Top shape: 20 256 14 14 (1003520)
I0528 22:24:54.851922 16815 net.cpp:137] Memory required for data: 1424998640
I0528 22:24:54.851927 16815 layer_factory.hpp:77] Creating layer layer_256_5_relu2
I0528 22:24:54.851934 16815 net.cpp:84] Creating Layer layer_256_5_relu2
I0528 22:24:54.851938 16815 net.cpp:406] layer_256_5_relu2 <- layer_256_5_conv1
I0528 22:24:54.851944 16815 net.cpp:367] layer_256_5_relu2 -> layer_256_5_conv1 (in-place)
I0528 22:24:54.852596 16815 net.cpp:122] Setting up layer_256_5_relu2
I0528 22:24:54.852612 16815 net.cpp:129] Top shape: 20 256 14 14 (1003520)
I0528 22:24:54.852617 16815 net.cpp:137] Memory required for data: 1429012720
I0528 22:24:54.852620 16815 layer_factory.hpp:77] Creating layer layer_256_5_conv2
I0528 22:24:54.852636 16815 net.cpp:84] Creating Layer layer_256_5_conv2
I0528 22:24:54.852643 16815 net.cpp:406] layer_256_5_conv2 <- layer_256_5_conv1
I0528 22:24:54.852651 16815 net.cpp:380] layer_256_5_conv2 -> layer_256_5_conv2
I0528 22:24:54.871029 16815 net.cpp:122] Setting up layer_256_5_conv2
I0528 22:24:54.871047 16815 net.cpp:129] Top shape: 20 256 14 14 (1003520)
I0528 22:24:54.871052 16815 net.cpp:137] Memory required for data: 1433026800
I0528 22:24:54.871057 16815 layer_factory.hpp:77] Creating layer layer_256_5_sum
I0528 22:24:54.871069 16815 net.cpp:84] Creating Layer layer_256_5_sum
I0528 22:24:54.871074 16815 net.cpp:406] layer_256_5_sum <- layer_256_5_conv2
I0528 22:24:54.871079 16815 net.cpp:406] layer_256_5_sum <- layer_256_4_sum_layer_256_4_sum_0_split_1
I0528 22:24:54.871085 16815 net.cpp:380] layer_256_5_sum -> layer_256_5_sum
I0528 22:24:54.871120 16815 net.cpp:122] Setting up layer_256_5_sum
I0528 22:24:54.871131 16815 net.cpp:129] Top shape: 20 256 14 14 (1003520)
I0528 22:24:54.871135 16815 net.cpp:137] Memory required for data: 1437040880
I0528 22:24:54.871139 16815 layer_factory.hpp:77] Creating layer layer_256_5_sum_layer_256_5_sum_0_split
I0528 22:24:54.871160 16815 net.cpp:84] Creating Layer layer_256_5_sum_layer_256_5_sum_0_split
I0528 22:24:54.871165 16815 net.cpp:406] layer_256_5_sum_layer_256_5_sum_0_split <- layer_256_5_sum
I0528 22:24:54.871171 16815 net.cpp:380] layer_256_5_sum_layer_256_5_sum_0_split -> layer_256_5_sum_layer_256_5_sum_0_split_0
I0528 22:24:54.871179 16815 net.cpp:380] layer_256_5_sum_layer_256_5_sum_0_split -> layer_256_5_sum_layer_256_5_sum_0_split_1
I0528 22:24:54.871218 16815 net.cpp:122] Setting up layer_256_5_sum_layer_256_5_sum_0_split
I0528 22:24:54.871229 16815 net.cpp:129] Top shape: 20 256 14 14 (1003520)
I0528 22:24:54.871240 16815 net.cpp:129] Top shape: 20 256 14 14 (1003520)
I0528 22:24:54.871244 16815 net.cpp:137] Memory required for data: 1445069040
I0528 22:24:54.871248 16815 layer_factory.hpp:77] Creating layer layer_256_6_bn1
I0528 22:24:54.871256 16815 net.cpp:84] Creating Layer layer_256_6_bn1
I0528 22:24:54.871261 16815 net.cpp:406] layer_256_6_bn1 <- layer_256_5_sum_layer_256_5_sum_0_split_0
I0528 22:24:54.871268 16815 net.cpp:380] layer_256_6_bn1 -> layer_256_6_bn1
I0528 22:24:54.871451 16815 net.cpp:122] Setting up layer_256_6_bn1
I0528 22:24:54.871460 16815 net.cpp:129] Top shape: 20 256 14 14 (1003520)
I0528 22:24:54.871464 16815 net.cpp:137] Memory required for data: 1449083120
I0528 22:24:54.871471 16815 layer_factory.hpp:77] Creating layer layer_256_6_scale1
I0528 22:24:54.871479 16815 net.cpp:84] Creating Layer layer_256_6_scale1
I0528 22:24:54.871482 16815 net.cpp:406] layer_256_6_scale1 <- layer_256_6_bn1
I0528 22:24:54.871490 16815 net.cpp:367] layer_256_6_scale1 -> layer_256_6_bn1 (in-place)
I0528 22:24:54.871533 16815 layer_factory.hpp:77] Creating layer layer_256_6_scale1
I0528 22:24:54.871635 16815 net.cpp:122] Setting up layer_256_6_scale1
I0528 22:24:54.871644 16815 net.cpp:129] Top shape: 20 256 14 14 (1003520)
I0528 22:24:54.871646 16815 net.cpp:137] Memory required for data: 1453097200
I0528 22:24:54.871652 16815 layer_factory.hpp:77] Creating layer layer_256_6_relu1
I0528 22:24:54.871660 16815 net.cpp:84] Creating Layer layer_256_6_relu1
I0528 22:24:54.871665 16815 net.cpp:406] layer_256_6_relu1 <- layer_256_6_bn1
I0528 22:24:54.871670 16815 net.cpp:367] layer_256_6_relu1 -> layer_256_6_bn1 (in-place)
I0528 22:24:54.872304 16815 net.cpp:122] Setting up layer_256_6_relu1
I0528 22:24:54.872320 16815 net.cpp:129] Top shape: 20 256 14 14 (1003520)
I0528 22:24:54.872325 16815 net.cpp:137] Memory required for data: 1457111280
I0528 22:24:54.872328 16815 layer_factory.hpp:77] Creating layer layer_256_6_conv1
I0528 22:24:54.872340 16815 net.cpp:84] Creating Layer layer_256_6_conv1
I0528 22:24:54.872346 16815 net.cpp:406] layer_256_6_conv1 <- layer_256_6_bn1
I0528 22:24:54.872355 16815 net.cpp:380] layer_256_6_conv1 -> layer_256_6_conv1
I0528 22:24:54.891099 16815 net.cpp:122] Setting up layer_256_6_conv1
I0528 22:24:54.891122 16815 net.cpp:129] Top shape: 20 256 14 14 (1003520)
I0528 22:24:54.891129 16815 net.cpp:137] Memory required for data: 1461125360
I0528 22:24:54.891135 16815 layer_factory.hpp:77] Creating layer layer_256_6_bn2
I0528 22:24:54.891144 16815 net.cpp:84] Creating Layer layer_256_6_bn2
I0528 22:24:54.891149 16815 net.cpp:406] layer_256_6_bn2 <- layer_256_6_conv1
I0528 22:24:54.891155 16815 net.cpp:367] layer_256_6_bn2 -> layer_256_6_conv1 (in-place)
I0528 22:24:54.891341 16815 net.cpp:122] Setting up layer_256_6_bn2
I0528 22:24:54.891350 16815 net.cpp:129] Top shape: 20 256 14 14 (1003520)
I0528 22:24:54.891353 16815 net.cpp:137] Memory required for data: 1465139440
I0528 22:24:54.891361 16815 layer_factory.hpp:77] Creating layer layer_256_6_scale2
I0528 22:24:54.891368 16815 net.cpp:84] Creating Layer layer_256_6_scale2
I0528 22:24:54.891372 16815 net.cpp:406] layer_256_6_scale2 <- layer_256_6_conv1
I0528 22:24:54.891381 16815 net.cpp:367] layer_256_6_scale2 -> layer_256_6_conv1 (in-place)
I0528 22:24:54.891422 16815 layer_factory.hpp:77] Creating layer layer_256_6_scale2
I0528 22:24:54.891530 16815 net.cpp:122] Setting up layer_256_6_scale2
I0528 22:24:54.891540 16815 net.cpp:129] Top shape: 20 256 14 14 (1003520)
I0528 22:24:54.891543 16815 net.cpp:137] Memory required for data: 1469153520
I0528 22:24:54.891549 16815 layer_factory.hpp:77] Creating layer layer_256_6_relu2
I0528 22:24:54.891556 16815 net.cpp:84] Creating Layer layer_256_6_relu2
I0528 22:24:54.891559 16815 net.cpp:406] layer_256_6_relu2 <- layer_256_6_conv1
I0528 22:24:54.891564 16815 net.cpp:367] layer_256_6_relu2 -> layer_256_6_conv1 (in-place)
I0528 22:24:54.891757 16815 net.cpp:122] Setting up layer_256_6_relu2
I0528 22:24:54.891772 16815 net.cpp:129] Top shape: 20 256 14 14 (1003520)
I0528 22:24:54.891784 16815 net.cpp:137] Memory required for data: 1473167600
I0528 22:24:54.891789 16815 layer_factory.hpp:77] Creating layer layer_256_6_conv2
I0528 22:24:54.891801 16815 net.cpp:84] Creating Layer layer_256_6_conv2
I0528 22:24:54.891806 16815 net.cpp:406] layer_256_6_conv2 <- layer_256_6_conv1
I0528 22:24:54.891813 16815 net.cpp:380] layer_256_6_conv2 -> layer_256_6_conv2
I0528 22:24:54.910995 16815 net.cpp:122] Setting up layer_256_6_conv2
I0528 22:24:54.911013 16815 net.cpp:129] Top shape: 20 256 14 14 (1003520)
I0528 22:24:54.911018 16815 net.cpp:137] Memory required for data: 1477181680
I0528 22:24:54.911025 16815 layer_factory.hpp:77] Creating layer layer_256_6_sum
I0528 22:24:54.911033 16815 net.cpp:84] Creating Layer layer_256_6_sum
I0528 22:24:54.911038 16815 net.cpp:406] layer_256_6_sum <- layer_256_6_conv2
I0528 22:24:54.911043 16815 net.cpp:406] layer_256_6_sum <- layer_256_5_sum_layer_256_5_sum_0_split_1
I0528 22:24:54.911049 16815 net.cpp:380] layer_256_6_sum -> layer_256_6_sum
I0528 22:24:54.911079 16815 net.cpp:122] Setting up layer_256_6_sum
I0528 22:24:54.911087 16815 net.cpp:129] Top shape: 20 256 14 14 (1003520)
I0528 22:24:54.911089 16815 net.cpp:137] Memory required for data: 1481195760
I0528 22:24:54.911093 16815 layer_factory.hpp:77] Creating layer layer_512_1_bn1
I0528 22:24:54.911101 16815 net.cpp:84] Creating Layer layer_512_1_bn1
I0528 22:24:54.911106 16815 net.cpp:406] layer_512_1_bn1 <- layer_256_6_sum
I0528 22:24:54.911111 16815 net.cpp:380] layer_512_1_bn1 -> layer_512_1_bn1
I0528 22:24:54.911309 16815 net.cpp:122] Setting up layer_512_1_bn1
I0528 22:24:54.911320 16815 net.cpp:129] Top shape: 20 256 14 14 (1003520)
I0528 22:24:54.911324 16815 net.cpp:137] Memory required for data: 1485209840
I0528 22:24:54.911332 16815 layer_factory.hpp:77] Creating layer layer_512_1_scale1
I0528 22:24:54.911341 16815 net.cpp:84] Creating Layer layer_512_1_scale1
I0528 22:24:54.911346 16815 net.cpp:406] layer_512_1_scale1 <- layer_512_1_bn1
I0528 22:24:54.911351 16815 net.cpp:367] layer_512_1_scale1 -> layer_512_1_bn1 (in-place)
I0528 22:24:54.911394 16815 layer_factory.hpp:77] Creating layer layer_512_1_scale1
I0528 22:24:54.911502 16815 net.cpp:122] Setting up layer_512_1_scale1
I0528 22:24:54.911509 16815 net.cpp:129] Top shape: 20 256 14 14 (1003520)
I0528 22:24:54.911514 16815 net.cpp:137] Memory required for data: 1489223920
I0528 22:24:54.911519 16815 layer_factory.hpp:77] Creating layer layer_512_1_relu1
I0528 22:24:54.911525 16815 net.cpp:84] Creating Layer layer_512_1_relu1
I0528 22:24:54.911530 16815 net.cpp:406] layer_512_1_relu1 <- layer_512_1_bn1
I0528 22:24:54.911535 16815 net.cpp:367] layer_512_1_relu1 -> layer_512_1_bn1 (in-place)
I0528 22:24:54.912168 16815 net.cpp:122] Setting up layer_512_1_relu1
I0528 22:24:54.912185 16815 net.cpp:129] Top shape: 20 256 14 14 (1003520)
I0528 22:24:54.912189 16815 net.cpp:137] Memory required for data: 1493238000
I0528 22:24:54.912194 16815 layer_factory.hpp:77] Creating layer layer_512_1_bn1_layer_512_1_relu1_0_split
I0528 22:24:54.912199 16815 net.cpp:84] Creating Layer layer_512_1_bn1_layer_512_1_relu1_0_split
I0528 22:24:54.912206 16815 net.cpp:406] layer_512_1_bn1_layer_512_1_relu1_0_split <- layer_512_1_bn1
I0528 22:24:54.912212 16815 net.cpp:380] layer_512_1_bn1_layer_512_1_relu1_0_split -> layer_512_1_bn1_layer_512_1_relu1_0_split_0
I0528 22:24:54.912220 16815 net.cpp:380] layer_512_1_bn1_layer_512_1_relu1_0_split -> layer_512_1_bn1_layer_512_1_relu1_0_split_1
I0528 22:24:54.912266 16815 net.cpp:122] Setting up layer_512_1_bn1_layer_512_1_relu1_0_split
I0528 22:24:54.912273 16815 net.cpp:129] Top shape: 20 256 14 14 (1003520)
I0528 22:24:54.912278 16815 net.cpp:129] Top shape: 20 256 14 14 (1003520)
I0528 22:24:54.912281 16815 net.cpp:137] Memory required for data: 1501266160
I0528 22:24:54.912284 16815 layer_factory.hpp:77] Creating layer layer_512_1_conv1
I0528 22:24:54.912295 16815 net.cpp:84] Creating Layer layer_512_1_conv1
I0528 22:24:54.912300 16815 net.cpp:406] layer_512_1_conv1 <- layer_512_1_bn1_layer_512_1_relu1_0_split_0
I0528 22:24:54.912322 16815 net.cpp:380] layer_512_1_conv1 -> layer_512_1_conv1
I0528 22:24:54.947597 16815 net.cpp:122] Setting up layer_512_1_conv1
I0528 22:24:54.947614 16815 net.cpp:129] Top shape: 20 512 7 7 (501760)
I0528 22:24:54.947619 16815 net.cpp:137] Memory required for data: 1503273200
I0528 22:24:54.947625 16815 layer_factory.hpp:77] Creating layer layer_512_1_bn2
I0528 22:24:54.947634 16815 net.cpp:84] Creating Layer layer_512_1_bn2
I0528 22:24:54.947639 16815 net.cpp:406] layer_512_1_bn2 <- layer_512_1_conv1
I0528 22:24:54.947645 16815 net.cpp:367] layer_512_1_bn2 -> layer_512_1_conv1 (in-place)
I0528 22:24:54.947870 16815 net.cpp:122] Setting up layer_512_1_bn2
I0528 22:24:54.947877 16815 net.cpp:129] Top shape: 20 512 7 7 (501760)
I0528 22:24:54.947881 16815 net.cpp:137] Memory required for data: 1505280240
I0528 22:24:54.947890 16815 layer_factory.hpp:77] Creating layer layer_512_1_scale2
I0528 22:24:54.947898 16815 net.cpp:84] Creating Layer layer_512_1_scale2
I0528 22:24:54.947902 16815 net.cpp:406] layer_512_1_scale2 <- layer_512_1_conv1
I0528 22:24:54.947907 16815 net.cpp:367] layer_512_1_scale2 -> layer_512_1_conv1 (in-place)
I0528 22:24:54.947957 16815 layer_factory.hpp:77] Creating layer layer_512_1_scale2
I0528 22:24:54.948081 16815 net.cpp:122] Setting up layer_512_1_scale2
I0528 22:24:54.948089 16815 net.cpp:129] Top shape: 20 512 7 7 (501760)
I0528 22:24:54.948092 16815 net.cpp:137] Memory required for data: 1507287280
I0528 22:24:54.948098 16815 layer_factory.hpp:77] Creating layer layer_512_1_relu2
I0528 22:24:54.948107 16815 net.cpp:84] Creating Layer layer_512_1_relu2
I0528 22:24:54.948112 16815 net.cpp:406] layer_512_1_relu2 <- layer_512_1_conv1
I0528 22:24:54.948122 16815 net.cpp:367] layer_512_1_relu2 -> layer_512_1_conv1 (in-place)
I0528 22:24:54.948750 16815 net.cpp:122] Setting up layer_512_1_relu2
I0528 22:24:54.948770 16815 net.cpp:129] Top shape: 20 512 7 7 (501760)
I0528 22:24:54.948774 16815 net.cpp:137] Memory required for data: 1509294320
I0528 22:24:54.948778 16815 layer_factory.hpp:77] Creating layer layer_512_1_conv2
I0528 22:24:54.948791 16815 net.cpp:84] Creating Layer layer_512_1_conv2
I0528 22:24:54.948796 16815 net.cpp:406] layer_512_1_conv2 <- layer_512_1_conv1
I0528 22:24:54.948802 16815 net.cpp:380] layer_512_1_conv2 -> layer_512_1_conv2
I0528 22:24:55.018416 16815 net.cpp:122] Setting up layer_512_1_conv2
I0528 22:24:55.018435 16815 net.cpp:129] Top shape: 20 512 7 7 (501760)
I0528 22:24:55.018440 16815 net.cpp:137] Memory required for data: 1511301360
I0528 22:24:55.018446 16815 layer_factory.hpp:77] Creating layer layer_512_1_conv_expand
I0528 22:24:55.018458 16815 net.cpp:84] Creating Layer layer_512_1_conv_expand
I0528 22:24:55.018465 16815 net.cpp:406] layer_512_1_conv_expand <- layer_512_1_bn1_layer_512_1_relu1_0_split_1
I0528 22:24:55.018473 16815 net.cpp:380] layer_512_1_conv_expand -> layer_512_1_conv_expand
I0528 22:24:55.023831 16815 net.cpp:122] Setting up layer_512_1_conv_expand
I0528 22:24:55.023851 16815 net.cpp:129] Top shape: 20 512 7 7 (501760)
I0528 22:24:55.023856 16815 net.cpp:137] Memory required for data: 1513308400
I0528 22:24:55.023862 16815 layer_factory.hpp:77] Creating layer layer_512_1_sum
I0528 22:24:55.023869 16815 net.cpp:84] Creating Layer layer_512_1_sum
I0528 22:24:55.023874 16815 net.cpp:406] layer_512_1_sum <- layer_512_1_conv_expand
I0528 22:24:55.023880 16815 net.cpp:406] layer_512_1_sum <- layer_512_1_conv2
I0528 22:24:55.023885 16815 net.cpp:380] layer_512_1_sum -> layer_512_1_sum
I0528 22:24:55.023916 16815 net.cpp:122] Setting up layer_512_1_sum
I0528 22:24:55.023923 16815 net.cpp:129] Top shape: 20 512 7 7 (501760)
I0528 22:24:55.023926 16815 net.cpp:137] Memory required for data: 1515315440
I0528 22:24:55.023931 16815 layer_factory.hpp:77] Creating layer layer_512_1_sum_layer_512_1_sum_0_split
I0528 22:24:55.023936 16815 net.cpp:84] Creating Layer layer_512_1_sum_layer_512_1_sum_0_split
I0528 22:24:55.023941 16815 net.cpp:406] layer_512_1_sum_layer_512_1_sum_0_split <- layer_512_1_sum
I0528 22:24:55.023962 16815 net.cpp:380] layer_512_1_sum_layer_512_1_sum_0_split -> layer_512_1_sum_layer_512_1_sum_0_split_0
I0528 22:24:55.023972 16815 net.cpp:380] layer_512_1_sum_layer_512_1_sum_0_split -> layer_512_1_sum_layer_512_1_sum_0_split_1
I0528 22:24:55.024010 16815 net.cpp:122] Setting up layer_512_1_sum_layer_512_1_sum_0_split
I0528 22:24:55.024019 16815 net.cpp:129] Top shape: 20 512 7 7 (501760)
I0528 22:24:55.024024 16815 net.cpp:129] Top shape: 20 512 7 7 (501760)
I0528 22:24:55.024027 16815 net.cpp:137] Memory required for data: 1519329520
I0528 22:24:55.024030 16815 layer_factory.hpp:77] Creating layer layer_512_2_bn1
I0528 22:24:55.024037 16815 net.cpp:84] Creating Layer layer_512_2_bn1
I0528 22:24:55.024041 16815 net.cpp:406] layer_512_2_bn1 <- layer_512_1_sum_layer_512_1_sum_0_split_0
I0528 22:24:55.024049 16815 net.cpp:380] layer_512_2_bn1 -> layer_512_2_bn1
I0528 22:24:55.024266 16815 net.cpp:122] Setting up layer_512_2_bn1
I0528 22:24:55.024278 16815 net.cpp:129] Top shape: 20 512 7 7 (501760)
I0528 22:24:55.024281 16815 net.cpp:137] Memory required for data: 1521336560
I0528 22:24:55.024289 16815 layer_factory.hpp:77] Creating layer layer_512_2_scale1
I0528 22:24:55.024296 16815 net.cpp:84] Creating Layer layer_512_2_scale1
I0528 22:24:55.024302 16815 net.cpp:406] layer_512_2_scale1 <- layer_512_2_bn1
I0528 22:24:55.024307 16815 net.cpp:367] layer_512_2_scale1 -> layer_512_2_bn1 (in-place)
I0528 22:24:55.024359 16815 layer_factory.hpp:77] Creating layer layer_512_2_scale1
I0528 22:24:55.024484 16815 net.cpp:122] Setting up layer_512_2_scale1
I0528 22:24:55.024493 16815 net.cpp:129] Top shape: 20 512 7 7 (501760)
I0528 22:24:55.024497 16815 net.cpp:137] Memory required for data: 1523343600
I0528 22:24:55.024503 16815 layer_factory.hpp:77] Creating layer layer_512_2_relu1
I0528 22:24:55.024509 16815 net.cpp:84] Creating Layer layer_512_2_relu1
I0528 22:24:55.024513 16815 net.cpp:406] layer_512_2_relu1 <- layer_512_2_bn1
I0528 22:24:55.024520 16815 net.cpp:367] layer_512_2_relu1 -> layer_512_2_bn1 (in-place)
I0528 22:24:55.025152 16815 net.cpp:122] Setting up layer_512_2_relu1
I0528 22:24:55.025168 16815 net.cpp:129] Top shape: 20 512 7 7 (501760)
I0528 22:24:55.025172 16815 net.cpp:137] Memory required for data: 1525350640
I0528 22:24:55.025177 16815 layer_factory.hpp:77] Creating layer layer_512_2_conv1
I0528 22:24:55.025189 16815 net.cpp:84] Creating Layer layer_512_2_conv1
I0528 22:24:55.025194 16815 net.cpp:406] layer_512_2_conv1 <- layer_512_2_bn1
I0528 22:24:55.025203 16815 net.cpp:380] layer_512_2_conv1 -> layer_512_2_conv1
I0528 22:24:55.094950 16815 net.cpp:122] Setting up layer_512_2_conv1
I0528 22:24:55.094969 16815 net.cpp:129] Top shape: 20 512 7 7 (501760)
I0528 22:24:55.094974 16815 net.cpp:137] Memory required for data: 1527357680
I0528 22:24:55.094980 16815 layer_factory.hpp:77] Creating layer layer_512_2_bn2
I0528 22:24:55.094990 16815 net.cpp:84] Creating Layer layer_512_2_bn2
I0528 22:24:55.094995 16815 net.cpp:406] layer_512_2_bn2 <- layer_512_2_conv1
I0528 22:24:55.095005 16815 net.cpp:367] layer_512_2_bn2 -> layer_512_2_conv1 (in-place)
I0528 22:24:55.095223 16815 net.cpp:122] Setting up layer_512_2_bn2
I0528 22:24:55.095235 16815 net.cpp:129] Top shape: 20 512 7 7 (501760)
I0528 22:24:55.095238 16815 net.cpp:137] Memory required for data: 1529364720
I0528 22:24:55.095247 16815 layer_factory.hpp:77] Creating layer layer_512_2_scale2
I0528 22:24:55.095254 16815 net.cpp:84] Creating Layer layer_512_2_scale2
I0528 22:24:55.095258 16815 net.cpp:406] layer_512_2_scale2 <- layer_512_2_conv1
I0528 22:24:55.095265 16815 net.cpp:367] layer_512_2_scale2 -> layer_512_2_conv1 (in-place)
I0528 22:24:55.095316 16815 layer_factory.hpp:77] Creating layer layer_512_2_scale2
I0528 22:24:55.095440 16815 net.cpp:122] Setting up layer_512_2_scale2
I0528 22:24:55.095450 16815 net.cpp:129] Top shape: 20 512 7 7 (501760)
I0528 22:24:55.095453 16815 net.cpp:137] Memory required for data: 1531371760
I0528 22:24:55.095459 16815 layer_factory.hpp:77] Creating layer layer_512_2_relu2
I0528 22:24:55.095469 16815 net.cpp:84] Creating Layer layer_512_2_relu2
I0528 22:24:55.095482 16815 net.cpp:406] layer_512_2_relu2 <- layer_512_2_conv1
I0528 22:24:55.095489 16815 net.cpp:367] layer_512_2_relu2 -> layer_512_2_conv1 (in-place)
I0528 22:24:55.095688 16815 net.cpp:122] Setting up layer_512_2_relu2
I0528 22:24:55.095703 16815 net.cpp:129] Top shape: 20 512 7 7 (501760)
I0528 22:24:55.095708 16815 net.cpp:137] Memory required for data: 1533378800
I0528 22:24:55.095711 16815 layer_factory.hpp:77] Creating layer layer_512_2_conv2
I0528 22:24:55.095723 16815 net.cpp:84] Creating Layer layer_512_2_conv2
I0528 22:24:55.095728 16815 net.cpp:406] layer_512_2_conv2 <- layer_512_2_conv1
I0528 22:24:55.095736 16815 net.cpp:380] layer_512_2_conv2 -> layer_512_2_conv2
I0528 22:24:55.165457 16815 net.cpp:122] Setting up layer_512_2_conv2
I0528 22:24:55.165478 16815 net.cpp:129] Top shape: 20 512 7 7 (501760)
I0528 22:24:55.165483 16815 net.cpp:137] Memory required for data: 1535385840
I0528 22:24:55.165489 16815 layer_factory.hpp:77] Creating layer layer_512_2_sum
I0528 22:24:55.165496 16815 net.cpp:84] Creating Layer layer_512_2_sum
I0528 22:24:55.165500 16815 net.cpp:406] layer_512_2_sum <- layer_512_2_conv2
I0528 22:24:55.165506 16815 net.cpp:406] layer_512_2_sum <- layer_512_1_sum_layer_512_1_sum_0_split_1
I0528 22:24:55.165511 16815 net.cpp:380] layer_512_2_sum -> layer_512_2_sum
I0528 22:24:55.165542 16815 net.cpp:122] Setting up layer_512_2_sum
I0528 22:24:55.165549 16815 net.cpp:129] Top shape: 20 512 7 7 (501760)
I0528 22:24:55.165554 16815 net.cpp:137] Memory required for data: 1537392880
I0528 22:24:55.165556 16815 layer_factory.hpp:77] Creating layer layer_512_2_sum_layer_512_2_sum_0_split
I0528 22:24:55.165562 16815 net.cpp:84] Creating Layer layer_512_2_sum_layer_512_2_sum_0_split
I0528 22:24:55.165566 16815 net.cpp:406] layer_512_2_sum_layer_512_2_sum_0_split <- layer_512_2_sum
I0528 22:24:55.165575 16815 net.cpp:380] layer_512_2_sum_layer_512_2_sum_0_split -> layer_512_2_sum_layer_512_2_sum_0_split_0
I0528 22:24:55.165583 16815 net.cpp:380] layer_512_2_sum_layer_512_2_sum_0_split -> layer_512_2_sum_layer_512_2_sum_0_split_1
I0528 22:24:55.165619 16815 net.cpp:122] Setting up layer_512_2_sum_layer_512_2_sum_0_split
I0528 22:24:55.165628 16815 net.cpp:129] Top shape: 20 512 7 7 (501760)
I0528 22:24:55.165632 16815 net.cpp:129] Top shape: 20 512 7 7 (501760)
I0528 22:24:55.165635 16815 net.cpp:137] Memory required for data: 1541406960
I0528 22:24:55.165639 16815 layer_factory.hpp:77] Creating layer layer_512_3_bn1
I0528 22:24:55.165645 16815 net.cpp:84] Creating Layer layer_512_3_bn1
I0528 22:24:55.165649 16815 net.cpp:406] layer_512_3_bn1 <- layer_512_2_sum_layer_512_2_sum_0_split_0
I0528 22:24:55.165657 16815 net.cpp:380] layer_512_3_bn1 -> layer_512_3_bn1
I0528 22:24:55.165874 16815 net.cpp:122] Setting up layer_512_3_bn1
I0528 22:24:55.165882 16815 net.cpp:129] Top shape: 20 512 7 7 (501760)
I0528 22:24:55.165886 16815 net.cpp:137] Memory required for data: 1543414000
I0528 22:24:55.165894 16815 layer_factory.hpp:77] Creating layer layer_512_3_scale1
I0528 22:24:55.165904 16815 net.cpp:84] Creating Layer layer_512_3_scale1
I0528 22:24:55.165907 16815 net.cpp:406] layer_512_3_scale1 <- layer_512_3_bn1
I0528 22:24:55.165913 16815 net.cpp:367] layer_512_3_scale1 -> layer_512_3_bn1 (in-place)
I0528 22:24:55.165963 16815 layer_factory.hpp:77] Creating layer layer_512_3_scale1
I0528 22:24:55.166095 16815 net.cpp:122] Setting up layer_512_3_scale1
I0528 22:24:55.166105 16815 net.cpp:129] Top shape: 20 512 7 7 (501760)
I0528 22:24:55.166107 16815 net.cpp:137] Memory required for data: 1545421040
I0528 22:24:55.166113 16815 layer_factory.hpp:77] Creating layer layer_512_3_relu1
I0528 22:24:55.166128 16815 net.cpp:84] Creating Layer layer_512_3_relu1
I0528 22:24:55.166133 16815 net.cpp:406] layer_512_3_relu1 <- layer_512_3_bn1
I0528 22:24:55.166138 16815 net.cpp:367] layer_512_3_relu1 -> layer_512_3_bn1 (in-place)
I0528 22:24:55.166774 16815 net.cpp:122] Setting up layer_512_3_relu1
I0528 22:24:55.166793 16815 net.cpp:129] Top shape: 20 512 7 7 (501760)
I0528 22:24:55.166805 16815 net.cpp:137] Memory required for data: 1547428080
I0528 22:24:55.166810 16815 layer_factory.hpp:77] Creating layer layer_512_3_conv1
I0528 22:24:55.166821 16815 net.cpp:84] Creating Layer layer_512_3_conv1
I0528 22:24:55.166827 16815 net.cpp:406] layer_512_3_conv1 <- layer_512_3_bn1
I0528 22:24:55.166834 16815 net.cpp:380] layer_512_3_conv1 -> layer_512_3_conv1
I0528 22:24:55.236392 16815 net.cpp:122] Setting up layer_512_3_conv1
I0528 22:24:55.236413 16815 net.cpp:129] Top shape: 20 512 7 7 (501760)
I0528 22:24:55.236416 16815 net.cpp:137] Memory required for data: 1549435120
I0528 22:24:55.236423 16815 layer_factory.hpp:77] Creating layer layer_512_3_bn2
I0528 22:24:55.236433 16815 net.cpp:84] Creating Layer layer_512_3_bn2
I0528 22:24:55.236438 16815 net.cpp:406] layer_512_3_bn2 <- layer_512_3_conv1
I0528 22:24:55.236443 16815 net.cpp:367] layer_512_3_bn2 -> layer_512_3_conv1 (in-place)
I0528 22:24:55.236663 16815 net.cpp:122] Setting up layer_512_3_bn2
I0528 22:24:55.236672 16815 net.cpp:129] Top shape: 20 512 7 7 (501760)
I0528 22:24:55.236676 16815 net.cpp:137] Memory required for data: 1551442160
I0528 22:24:55.236686 16815 layer_factory.hpp:77] Creating layer layer_512_3_scale2
I0528 22:24:55.236693 16815 net.cpp:84] Creating Layer layer_512_3_scale2
I0528 22:24:55.236698 16815 net.cpp:406] layer_512_3_scale2 <- layer_512_3_conv1
I0528 22:24:55.236703 16815 net.cpp:367] layer_512_3_scale2 -> layer_512_3_conv1 (in-place)
I0528 22:24:55.236757 16815 layer_factory.hpp:77] Creating layer layer_512_3_scale2
I0528 22:24:55.236883 16815 net.cpp:122] Setting up layer_512_3_scale2
I0528 22:24:55.236892 16815 net.cpp:129] Top shape: 20 512 7 7 (501760)
I0528 22:24:55.236896 16815 net.cpp:137] Memory required for data: 1553449200
I0528 22:24:55.236901 16815 layer_factory.hpp:77] Creating layer layer_512_3_relu2
I0528 22:24:55.236909 16815 net.cpp:84] Creating Layer layer_512_3_relu2
I0528 22:24:55.236914 16815 net.cpp:406] layer_512_3_relu2 <- layer_512_3_conv1
I0528 22:24:55.236919 16815 net.cpp:367] layer_512_3_relu2 -> layer_512_3_conv1 (in-place)
I0528 22:24:55.237540 16815 net.cpp:122] Setting up layer_512_3_relu2
I0528 22:24:55.237555 16815 net.cpp:129] Top shape: 20 512 7 7 (501760)
I0528 22:24:55.237560 16815 net.cpp:137] Memory required for data: 1555456240
I0528 22:24:55.237565 16815 layer_factory.hpp:77] Creating layer layer_512_3_conv2
I0528 22:24:55.237576 16815 net.cpp:84] Creating Layer layer_512_3_conv2
I0528 22:24:55.237581 16815 net.cpp:406] layer_512_3_conv2 <- layer_512_3_conv1
I0528 22:24:55.237589 16815 net.cpp:380] layer_512_3_conv2 -> layer_512_3_conv2
I0528 22:24:55.310150 16815 net.cpp:122] Setting up layer_512_3_conv2
I0528 22:24:55.310176 16815 net.cpp:129] Top shape: 20 512 7 7 (501760)
I0528 22:24:55.310181 16815 net.cpp:137] Memory required for data: 1557463280
I0528 22:24:55.310194 16815 layer_factory.hpp:77] Creating layer layer_512_3_sum
I0528 22:24:55.310205 16815 net.cpp:84] Creating Layer layer_512_3_sum
I0528 22:24:55.310220 16815 net.cpp:406] layer_512_3_sum <- layer_512_3_conv2
I0528 22:24:55.310226 16815 net.cpp:406] layer_512_3_sum <- layer_512_2_sum_layer_512_2_sum_0_split_1
I0528 22:24:55.310235 16815 net.cpp:380] layer_512_3_sum -> layer_512_3_sum
I0528 22:24:55.310269 16815 net.cpp:122] Setting up layer_512_3_sum
I0528 22:24:55.310277 16815 net.cpp:129] Top shape: 20 512 7 7 (501760)
I0528 22:24:55.310281 16815 net.cpp:137] Memory required for data: 1559470320
I0528 22:24:55.310286 16815 layer_factory.hpp:77] Creating layer last_bn
I0528 22:24:55.310295 16815 net.cpp:84] Creating Layer last_bn
I0528 22:24:55.310300 16815 net.cpp:406] last_bn <- layer_512_3_sum
I0528 22:24:55.310305 16815 net.cpp:367] last_bn -> layer_512_3_sum (in-place)
I0528 22:24:55.310569 16815 net.cpp:122] Setting up last_bn
I0528 22:24:55.310576 16815 net.cpp:129] Top shape: 20 512 7 7 (501760)
I0528 22:24:55.310580 16815 net.cpp:137] Memory required for data: 1561477360
I0528 22:24:55.310588 16815 layer_factory.hpp:77] Creating layer last_scale
I0528 22:24:55.310616 16815 net.cpp:84] Creating Layer last_scale
I0528 22:24:55.310621 16815 net.cpp:406] last_scale <- layer_512_3_sum
I0528 22:24:55.310626 16815 net.cpp:367] last_scale -> layer_512_3_sum (in-place)
I0528 22:24:55.310690 16815 layer_factory.hpp:77] Creating layer last_scale
I0528 22:24:55.310819 16815 net.cpp:122] Setting up last_scale
I0528 22:24:55.310827 16815 net.cpp:129] Top shape: 20 512 7 7 (501760)
I0528 22:24:55.310832 16815 net.cpp:137] Memory required for data: 1563484400
I0528 22:24:55.310837 16815 layer_factory.hpp:77] Creating layer last_relu
I0528 22:24:55.310845 16815 net.cpp:84] Creating Layer last_relu
I0528 22:24:55.310849 16815 net.cpp:406] last_relu <- layer_512_3_sum
I0528 22:24:55.310855 16815 net.cpp:367] last_relu -> layer_512_3_sum (in-place)
I0528 22:24:55.311058 16815 net.cpp:122] Setting up last_relu
I0528 22:24:55.311069 16815 net.cpp:129] Top shape: 20 512 7 7 (501760)
I0528 22:24:55.311072 16815 net.cpp:137] Memory required for data: 1565491440
I0528 22:24:55.311077 16815 layer_factory.hpp:77] Creating layer global_pool
I0528 22:24:55.311087 16815 net.cpp:84] Creating Layer global_pool
I0528 22:24:55.311092 16815 net.cpp:406] global_pool <- layer_512_3_sum
I0528 22:24:55.311100 16815 net.cpp:380] global_pool -> global_pool
I0528 22:24:55.311776 16815 net.cpp:122] Setting up global_pool
I0528 22:24:55.311794 16815 net.cpp:129] Top shape: 20 512 1 1 (10240)
I0528 22:24:55.311797 16815 net.cpp:137] Memory required for data: 1565532400
I0528 22:24:55.311801 16815 layer_factory.hpp:77] Creating layer score
I0528 22:24:55.311812 16815 net.cpp:84] Creating Layer score
I0528 22:24:55.311816 16815 net.cpp:406] score <- global_pool
I0528 22:24:55.311828 16815 net.cpp:380] score -> score
I0528 22:24:55.312028 16815 net.cpp:122] Setting up score
I0528 22:24:55.312038 16815 net.cpp:129] Top shape: 20 8 (160)
I0528 22:24:55.312042 16815 net.cpp:137] Memory required for data: 1565533040
I0528 22:24:55.312049 16815 layer_factory.hpp:77] Creating layer score_score_0_split
I0528 22:24:55.312055 16815 net.cpp:84] Creating Layer score_score_0_split
I0528 22:24:55.312059 16815 net.cpp:406] score_score_0_split <- score
I0528 22:24:55.312065 16815 net.cpp:380] score_score_0_split -> score_score_0_split_0
I0528 22:24:55.312072 16815 net.cpp:380] score_score_0_split -> score_score_0_split_1
I0528 22:24:55.312114 16815 net.cpp:122] Setting up score_score_0_split
I0528 22:24:55.312131 16815 net.cpp:129] Top shape: 20 8 (160)
I0528 22:24:55.312135 16815 net.cpp:129] Top shape: 20 8 (160)
I0528 22:24:55.312139 16815 net.cpp:137] Memory required for data: 1565534320
I0528 22:24:55.312142 16815 layer_factory.hpp:77] Creating layer loss
I0528 22:24:55.312150 16815 net.cpp:84] Creating Layer loss
I0528 22:24:55.312155 16815 net.cpp:406] loss <- score_score_0_split_0
I0528 22:24:55.312158 16815 net.cpp:406] loss <- label_data_1_split_0
I0528 22:24:55.312166 16815 net.cpp:380] loss -> loss
…
