…
I0529 19:53:15.482741 26782 net.cpp:51] Initializing net from parameters: 
name: "Pre-ResNet-18"
state {
  phase: TRAIN
  level: 0
  stage: ""
}
layer {
  name: "data"
  type: "Data"
  top: "data"
  top: "label"
  include {
    phase: TRAIN
  }
  transform_param {
    mirror: true
    crop_size: 224
    mean_file: "/home/k/PycharmProjects/AgeGenderDeepLearning-master/Folds/lmdb/Test_fold_is_0/mean.binaryproto"
  }
  data_param {
    source: "/home/k/PycharmProjects/AgeGenderDeepLearning-master/Folds/lmdb/Test_fold_is_0/age_train_lmdb"
    batch_size: 50
    backend: LMDB
  }
}
layer {
  name: "data_bn"
  type: "BatchNorm"
  bottom: "data"
  top: "data_bn"
  param {
    lr_mult: 0
    decay_mult: 0
  }
  param {
    lr_mult: 0
    decay_mult: 0
  }
  param {
    lr_mult: 0
    decay_mult: 0
  }
}
layer {
  name: "data_scale"
  type: "Scale"
  bottom: "data_bn"
  top: "data_bn"
  param {
    lr_mult: 1
    decay_mult: 1
  }
  param {
    lr_mult: 2
    decay_mult: 1
  }
  scale_param {
    bias_term: true
  }
}
layer {
  name: "conv1"
  type: "Convolution"
  bottom: "data_bn"
  top: "conv1"
  param {
    lr_mult: 1
    decay_mult: 1
  }
  param {
    lr_mult: 2
    decay_mult: 1
  }
  convolution_param {
    num_output: 64
    pad: 3
    kernel_size: 7
    stride: 2
    weight_filler {
      type: "msra"
      variance_norm: FAN_OUT
    }
    bias_filler {
      type: "constant"
      value: 0
    }
  }
}
layer {
  name: "conv1_bn"
  type: "BatchNorm"
  bottom: "conv1"
  top: "conv1"
  param {
    lr_mult: 0
    decay_mult: 0
  }
  param {
    lr_mult: 0
    decay_mult: 0
  }
  param {
    lr_mult: 0
    decay_mult: 0
  }
}
layer {
  name: "conv1_scale"
  type: "Scale"
  bottom: "conv1"
  top: "conv1"
  param {
    lr_mult: 1
    decay_mult: 1
  }
  param {
    lr_mult: 2
    decay_mult: 1
  }
  scale_param {
    bias_term: true
  }
}
layer {
  name: "conv1_relu"
  type: "ReLU"
  bottom: "conv1"
  top: "conv1"
}
layer {
  name: "conv1_pool"
  type: "Pooling"
  bottom: "conv1"
  top: "conv1_pool"
  pooling_param {
    kernel_size: 3
    stride: 2
  }
}
layer {
  name: "layer_64_1_conv1"
  type: "Convolution"
  bottom: "conv1_pool"
  top: "layer_64_1_conv1"
  param {
    lr_mult: 1
    decay_mult: 1
  }
  convolution_param {
    num_output: 64
    bias_term: false
    pad: 1
    kernel_size: 3
    stride: 1
    weight_filler {
      type: "msra"
    }
    bias_filler {
      type: "constant"
      value: 0
    }
  }
}
layer {
  name: "layer_64_1_bn2"
  type: "BatchNorm"
  bottom: "layer_64_1_conv1"
  top: "layer_64_1_conv1"
  param {
    lr_mult: 0
    decay_mult: 0
  }
  param {
    lr_mult: 0
    decay_mult: 0
  }
  param {
    lr_mult: 0
    decay_mult: 0
  }
}
layer {
  name: "layer_64_1_scale2"
  type: "Scale"
  bottom: "layer_64_1_conv1"
  top: "layer_64_1_conv1"
  param {
    lr_mult: 1
    decay_mult: 1
  }
  param {
    lr_mult: 2
    decay_mult: 1
  }
  scale_param {
    bias_term: true
  }
}
layer {
  name: "layer_64_1_relu2"
  type: "ReLU"
  bottom: "layer_64_1_conv1"
  top: "layer_64_1_conv1"
}
layer {
  name: "layer_64_1_conv2"
  type: "Convolution"
  bottom: "layer_64_1_conv1"
  top: "layer_64_1_conv2"
  param {
    lr_mult: 1
    decay_mult: 1
  }
  convolution_param {
    num_output: 64
    bias_term: false
    pad: 1
    kernel_size: 3
    stride: 1
    weight_filler {
      type: "msra"
    }
    bias_filler {
      type: "constant"
      value: 0
    }
  }
}
layer {
  name: "layer_64_1_sum"
  type: "Eltwise"
  bottom: "layer_64_1_conv2"
  bottom: "conv1_pool"
  top: "layer_64_1_sum"
}
layer {
  name: "layer_64_2_bn1"
  type: "BatchNorm"
  bottom: "layer_64_1_sum"
  top: "layer_64_2_bn1"
  param {
    lr_mult: 0
    decay_mult: 0
  }
  param {
    lr_mult: 0
    decay_mult: 0
  }
  param {
    lr_mult: 0
    decay_mult: 0
  }
}
layer {
  name: "layer_64_2_scale1"
  type: "Scale"
  bottom: "layer_64_2_bn1"
  top: "layer_64_2_bn1"
  param {
    lr_mult: 1
    decay_mult: 1
  }
  param {
    lr_mult: 2
    decay_mult: 1
  }
  scale_param {
    bias_term: true
  }
}
layer {
  name: "layer_64_2_relu1"
  type: "ReLU"
  bottom: "layer_64_2_bn1"
  top: "layer_64_2_bn1"
}
layer {
  name: "layer_64_2_conv1"
  type: "Convolution"
  bottom: "layer_64_2_bn1"
  top: "layer_64_2_conv1"
  param {
    lr_mult: 1
    decay_mult: 1
  }
  convolution_param {
    num_output: 64
    bias_term: false
    pad: 1
    kernel_size: 3
    stride: 1
    weight_filler {
      type: "msra"
    }
    bias_filler {
      type: "constant"
      value: 0
    }
  }
}
layer {
  name: "layer_64_2_bn2"
  type: "BatchNorm"
  bottom: "layer_64_2_conv1"
  top: "layer_64_2_conv1"
  param {
    lr_mult: 0
    decay_mult: 0
  }
  param {
    lr_mult: 0
    decay_mult: 0
  }
  param {
    lr_mult: 0
    decay_mult: 0
  }
}
layer {
  name: "layer_64_2_scale2"
  type: "Scale"
  bottom: "layer_64_2_conv1"
  top: "layer_64_2_conv1"
  param {
    lr_mult: 1
    decay_mult: 1
  }
  param {
    lr_mult: 2
    decay_mult: 1
  }
  scale_param {
    bias_term: true
  }
}
layer {
  name: "layer_64_2_relu2"
  type: "ReLU"
  bottom: "layer_64_2_conv1"
  top: "layer_64_2_conv1"
}
layer {
  name: "layer_64_2_conv2"
  type: "Convolution"
  bottom: "layer_64_2_conv1"
  top: "layer_64_2_conv2"
  param {
    lr_mult: 1
    decay_mult: 1
  }
  convolution_param {
    num_output: 64
    bias_term: false
    pad: 1
    kernel_size: 3
    stride: 1
    weight_filler {
      type: "msra"
    }
    bias_filler {
      type: "constant"
      value: 0
    }
  }
}
layer {
  name: "layer_64_2_sum"
  type: "Eltwise"
  bottom: "layer_64_2_conv2"
  bottom: "layer_64_1_sum"
  top: "layer_64_2_sum"
}
layer {
  name: "layer_128_1_bn1"
  type: "BatchNorm"
  bottom: "layer_64_2_sum"
  top: "layer_128_1_bn1"
  param {
    lr_mult: 0
    decay_mult: 0
  }
  param {
    lr_mult: 0
    decay_mult: 0
  }
  param {
    lr_mult: 0
    decay_mult: 0
  }
}
layer {
  name: "layer_128_1_scale1"
  type: "Scale"
  bottom: "layer_128_1_bn1"
  top: "layer_128_1_bn1"
  param {
    lr_mult: 1
    decay_mult: 1
  }
  param {
    lr_mult: 2
    decay_mult: 1
  }
  scale_param {
    bias_term: true
  }
}
layer {
  name: "layer_128_1_relu1"
  type: "ReLU"
  bottom: "layer_128_1_bn1"
  top: "layer_128_1_bn1"
}
layer {
  name: "layer_128_1_conv1"
  type: "Convolution"
  bottom: "layer_128_1_bn1"
  top: "layer_128_1_conv1"
  param {
    lr_mult: 1
    decay_mult: 1
  }
  convolution_param {
    num_output: 128
    bias_term: false
    pad: 1
    kernel_size: 3
    stride: 2
    weight_filler {
      type: "msra"
    }
    bias_filler {
      type: "constant"
      value: 0
    }
  }
}
layer {
  name: "layer_128_1_bn2"
  type: "BatchNorm"
  bottom: "layer_128_1_conv1"
  top: "layer_128_1_conv1"
  param {
    lr_mult: 0
    decay_mult: 0
  }
  param {
    lr_mult: 0
    decay_mult: 0
  }
  param {
    lr_mult: 0
    decay_mult: 0
  }
}
layer {
  name: "layer_128_1_scale2"
  type: "Scale"
  bottom: "layer_128_1_conv1"
  top: "layer_128_1_conv1"
  param {
    lr_mult: 1
    decay_mult: 1
  }
  param {
    lr_mult: 2
    decay_mult: 1
  }
  scale_param {
    bias_term: true
  }
}
layer {
  name: "layer_128_1_relu2"
  type: "ReLU"
  bottom: "layer_128_1_conv1"
  top: "layer_128_1_conv1"
}
layer {
  name: "layer_128_1_conv2"
  type: "Convolution"
  bottom: "layer_128_1_conv1"
  top: "layer_128_1_conv2"
  param {
    lr_mult: 1
    decay_mult: 1
  }
  convolution_param {
    num_output: 128
    bias_term: false
    pad: 1
    kernel_size: 3
    stride: 1
    weight_filler {
      type: "msra"
    }
    bias_filler {
      type: "constant"
      value: 0
    }
  }
}
layer {
  name: "layer_128_1_conv_expand"
  type: "Convolution"
  bottom: "layer_128_1_bn1"
  top: "layer_128_1_conv_expand"
  param {
    lr_mult: 1
    decay_mult: 1
  }
  convolution_param {
    num_output: 128
    bias_term: false
    pad: 0
    kernel_size: 1
    stride: 2
    weight_filler {
      type: "msra"
    }
    bias_filler {
      type: "constant"
      value: 0
    }
  }
}
layer {
  name: "layer_128_1_sum"
  type: "Eltwise"
  bottom: "layer_128_1_conv_expand"
  bottom: "layer_128_1_conv2"
  top: "layer_128_1_sum"
}
layer {
  name: "layer_128_2_bn1"
  type: "BatchNorm"
  bottom: "layer_128_1_sum"
  top: "layer_128_2_bn1"
  param {
    lr_mult: 0
    decay_mult: 0
  }
  param {
    lr_mult: 0
    decay_mult: 0
  }
  param {
    lr_mult: 0
    decay_mult: 0
  }
}
layer {
  name: "layer_128_2_scale1"
  type: "Scale"
  bottom: "layer_128_2_bn1"
  top: "layer_128_2_bn1"
  param {
    lr_mult: 1
    decay_mult: 1
  }
  param {
    lr_mult: 2
    decay_mult: 1
  }
  scale_param {
    bias_term: true
  }
}
layer {
  name: "layer_128_2_relu1"
  type: "ReLU"
  bottom: "layer_128_2_bn1"
  top: "layer_128_2_bn1"
}
layer {
  name: "layer_128_2_conv1"
  type: "Convolution"
  bottom: "layer_128_2_bn1"
  top: "layer_128_2_conv1"
  param {
    lr_mult: 1
    decay_mult: 1
  }
  convolution_param {
    num_output: 128
    bias_term: false
    pad: 1
    kernel_size: 3
    stride: 1
    weight_filler {
      type: "msra"
    }
    bias_filler {
      type: "constant"
      value: 0
    }
  }
}
layer {
  name: "layer_128_2_bn2"
  type: "BatchNorm"
  bottom: "layer_128_2_conv1"
  top: "layer_128_2_conv1"
  param {
    lr_mult: 0
    decay_mult: 0
  }
  param {
    lr_mult: 0
    decay_mult: 0
  }
  param {
    lr_mult: 0
    decay_mult: 0
  }
}
layer {
  name: "layer_128_2_scale2"
  type: "Scale"
  bottom: "layer_128_2_conv1"
  top: "layer_128_2_conv1"
  param {
    lr_mult: 1
    decay_mult: 1
  }
  param {
    lr_mult: 2
    decay_mult: 1
  }
  scale_param {
    bias_term: true
  }
}
layer {
  name: "layer_128_2_relu2"
  type: "ReLU"
  bottom: "layer_128_2_conv1"
  top: "layer_128_2_conv1"
}
layer {
  name: "layer_128_2_conv2"
  type: "Convolution"
  bottom: "layer_128_2_conv1"
  top: "layer_128_2_conv2"
  param {
    lr_mult: 1
    decay_mult: 1
  }
  convolution_param {
    num_output: 128
    bias_term: false
    pad: 1
    kernel_size: 3
    stride: 1
    weight_filler {
      type: "msra"
    }
    bias_filler {
      type: "constant"
      value: 0
    }
  }
}
layer {
  name: "layer_128_2_sum"
  type: "Eltwise"
  bottom: "layer_128_2_conv2"
  bottom: "layer_128_1_sum"
  top: "layer_128_2_sum"
}
layer {
  name: "layer_256_1_bn1"
  type: "BatchNorm"
  bottom: "layer_128_2_sum"
  top: "layer_256_1_bn1"
  param {
    lr_mult: 0
    decay_mult: 0
  }
  param {
    lr_mult: 0
    decay_mult: 0
  }
  param {
    lr_mult: 0
    decay_mult: 0
  }
}
layer {
  name: "layer_256_1_scale1"
  type: "Scale"
  bottom: "layer_256_1_bn1"
  top: "layer_256_1_bn1"
  param {
    lr_mult: 1
    decay_mult: 1
  }
  param {
    lr_mult: 2
    decay_mult: 1
  }
  scale_param {
    bias_term: true
  }
}
layer {
  name: "layer_256_1_relu1"
  type: "ReLU"
  bottom: "layer_256_1_bn1"
  top: "layer_256_1_bn1"
}
layer {
  name: "layer_256_1_conv1"
  type: "Convolution"
  bottom: "layer_256_1_bn1"
  top: "layer_256_1_conv1"
  param {
    lr_mult: 1
    decay_mult: 1
  }
  convolution_param {
    num_output: 256
    bias_term: false
    pad: 1
    kernel_size: 3
    stride: 2
    weight_filler {
      type: "msra"
    }
    bias_filler {
      type: "constant"
      value: 0
    }
  }
}
layer {
  name: "layer_256_1_bn2"
  type: "BatchNorm"
  bottom: "layer_256_1_conv1"
  top: "layer_256_1_conv1"
  param {
    lr_mult: 0
    decay_mult: 0
  }
  param {
    lr_mult: 0
    decay_mult: 0
  }
  param {
    lr_mult: 0
    decay_mult: 0
  }
}
layer {
  name: "layer_256_1_scale2"
  type: "Scale"
  bottom: "layer_256_1_conv1"
  top: "layer_256_1_conv1"
  param {
    lr_mult: 1
    decay_mult: 1
  }
  param {
    lr_mult: 2
    decay_mult: 1
  }
  scale_param {
    bias_term: true
  }
}
layer {
  name: "layer_256_1_relu2"
  type: "ReLU"
  bottom: "layer_256_1_conv1"
  top: "layer_256_1_conv1"
}
layer {
  name: "layer_256_1_conv2"
  type: "Convolution"
  bottom: "layer_256_1_conv1"
  top: "layer_256_1_conv2"
  param {
    lr_mult: 1
    decay_mult: 1
  }
  convolution_param {
    num_output: 256
    bias_term: false
    pad: 1
    kernel_size: 3
    stride: 1
    weight_filler {
      type: "msra"
    }
    bias_filler {
      type: "constant"
      value: 0
    }
  }
}
layer {
  name: "layer_256_1_conv_expand"
  type: "Convolution"
  bottom: "layer_256_1_bn1"
  top: "layer_256_1_conv_expand"
  param {
    lr_mult: 1
    decay_mult: 1
  }
  convolution_param {
    num_output: 256
    bias_term: false
    pad: 0
    kernel_size: 1
    stride: 2
    weight_filler {
      type: "msra"
    }
    bias_filler {
      type: "constant"
      value: 0
    }
  }
}
layer {
  name: "layer_256_1_sum"
  type: "Eltwise"
  bottom: "layer_256_1_conv_expand"
  bottom: "layer_256_1_conv2"
  top: "layer_256_1_sum"
}
layer {
  name: "layer_256_2_bn1"
  type: "BatchNorm"
  bottom: "layer_256_1_sum"
  top: "layer_256_2_bn1"
  param {
    lr_mult: 0
    decay_mult: 0
  }
  param {
    lr_mult: 0
    decay_mult: 0
  }
  param {
    lr_mult: 0
    decay_mult: 0
  }
}
layer {
  name: "layer_256_2_scale1"
  type: "Scale"
  bottom: "layer_256_2_bn1"
  top: "layer_256_2_bn1"
  param {
    lr_mult: 1
    decay_mult: 1
  }
  param {
    lr_mult: 2
    decay_mult: 1
  }
  scale_param {
    bias_term: true
  }
}
layer {
  name: "layer_256_2_relu1"
  type: "ReLU"
  bottom: "layer_256_2_bn1"
  top: "layer_256_2_bn1"
}
layer {
  name: "layer_256_2_conv1"
  type: "Convolution"
  bottom: "layer_256_2_bn1"
  top: "layer_256_2_conv1"
  param {
    lr_mult: 1
    decay_mult: 1
  }
  convolution_param {
    num_output: 256
    bias_term: false
    pad: 1
    kernel_size: 3
    stride: 1
    weight_filler {
      type: "msra"
    }
    bias_filler {
      type: "constant"
      value: 0
    }
  }
}
layer {
  name: "layer_256_2_bn2"
  type: "BatchNorm"
  bottom: "layer_256_2_conv1"
  top: "layer_256_2_conv1"
  param {
    lr_mult: 0
    decay_mult: 0
  }
  param {
    lr_mult: 0
    decay_mult: 0
  }
  param {
    lr_mult: 0
    decay_mult: 0
  }
}
layer {
  name: "layer_256_2_scale2"
  type: "Scale"
  bottom: "layer_256_2_conv1"
  top: "layer_256_2_conv1"
  param {
    lr_mult: 1
    decay_mult: 1
  }
  param {
    lr_mult: 2
    decay_mult: 1
  }
  scale_param {
    bias_term: true
  }
}
layer {
  name: "layer_256_2_relu2"
  type: "ReLU"
  bottom: "layer_256_2_conv1"
  top: "layer_256_2_conv1"
}
layer {
  name: "layer_256_2_conv2"
  type: "Convolution"
  bottom: "layer_256_2_conv1"
  top: "layer_256_2_conv2"
  param {
    lr_mult: 1
    decay_mult: 1
  }
  convolution_param {
    num_output: 256
    bias_term: false
    pad: 1
    kernel_size: 3
    stride: 1
    weight_filler {
      type: "msra"
    }
    bias_filler {
      type: "constant"
      value: 0
    }
  }
}
layer {
  name: "layer_256_2_sum"
  type: "Eltwise"
  bottom: "layer_256_2_conv2"
  bottom: "layer_256_1_sum"
  top: "layer_256_2_sum"
}
layer {
  name: "layer_512_1_bn1"
  type: "BatchNorm"
  bottom: "layer_256_2_sum"
  top: "layer_512_1_bn1"
  param {
    lr_mult: 0
    decay_mult: 0
  }
  param {
    lr_mult: 0
    decay_mult: 0
  }
  param {
    lr_mult: 0
    decay_mult: 0
  }
}
layer {
  name: "layer_512_1_scale1"
  type: "Scale"
  bottom: "layer_512_1_bn1"
  top: "layer_512_1_bn1"
  param {
    lr_mult: 1
    decay_mult: 1
  }
  param {
    lr_mult: 2
    decay_mult: 1
  }
  scale_param {
    bias_term: true
  }
}
layer {
  name: "layer_512_1_relu1"
  type: "ReLU"
  bottom: "layer_512_1_bn1"
  top: "layer_512_1_bn1"
}
layer {
  name: "layer_512_1_conv1"
  type: "Convolution"
  bottom: "layer_512_1_bn1"
  top: "layer_512_1_conv1"
  param {
    lr_mult: 1
    decay_mult: 1
  }
  convolution_param {
    num_output: 512
    bias_term: false
    pad: 1
    kernel_size: 3
    stride: 2
    weight_filler {
      type: "msra"
    }
    bias_filler {
      type: "constant"
      value: 0
    }
  }
}
layer {
  name: "layer_512_1_bn2"
  type: "BatchNorm"
  bottom: "layer_512_1_conv1"
  top: "layer_512_1_conv1"
  param {
    lr_mult: 0
    decay_mult: 0
  }
  param {
    lr_mult: 0
    decay_mult: 0
  }
  param {
    lr_mult: 0
    decay_mult: 0
  }
}
layer {
  name: "layer_512_1_scale2"
  type: "Scale"
  bottom: "layer_512_1_conv1"
  top: "layer_512_1_conv1"
  param {
    lr_mult: 1
    decay_mult: 1
  }
  param {
    lr_mult: 2
    decay_mult: 1
  }
  scale_param {
    bias_term: true
  }
}
layer {
  name: "layer_512_1_relu2"
  type: "ReLU"
  bottom: "layer_512_1_conv1"
  top: "layer_512_1_conv1"
}
layer {
  name: "layer_512_1_conv2"
  type: "Convolution"
  bottom: "layer_512_1_conv1"
  top: "layer_512_1_conv2"
  param {
    lr_mult: 1
    decay_mult: 1
  }
  convolution_param {
    num_output: 512
    bias_term: false
    pad: 1
    kernel_size: 3
    stride: 1
    weight_filler {
      type: "msra"
    }
    bias_filler {
      type: "constant"
      value: 0
    }
  }
}
layer {
  name: "layer_512_1_conv_expand"
  type: "Convolution"
  bottom: "layer_512_1_bn1"
  top: "layer_512_1_conv_expand"
  param {
    lr_mult: 1
    decay_mult: 1
  }
  convolution_param {
    num_output: 512
    bias_term: false
    pad: 0
    kernel_size: 1
    stride: 2
    weight_filler {
      type: "msra"
    }
    bias_filler {
      type: "constant"
      value: 0
    }
  }
}
layer {
  name: "layer_512_1_sum"
  type: "Eltwise"
  bottom: "layer_512_1_conv_expand"
  bottom: "layer_512_1_conv2"
  top: "layer_512_1_sum"
}
layer {
  name: "layer_512_2_bn1"
  type: "BatchNorm"
  bottom: "layer_512_1_sum"
  top: "layer_512_2_bn1"
  param {
    lr_mult: 0
    decay_mult: 0
  }
  param {
    lr_mult: 0
    decay_mult: 0
  }
  param {
    lr_mult: 0
    decay_mult: 0
  }
}
layer {
  name: "layer_512_2_scale1"
  type: "Scale"
  bottom: "layer_512_2_bn1"
  top: "layer_512_2_bn1"
  param {
    lr_mult: 1
    decay_mult: 1
  }
  param {
    lr_mult: 2
    decay_mult: 1
  }
  scale_param {
    bias_term: true
  }
}
layer {
  name: "layer_512_2_relu1"
  type: "ReLU"
  bottom: "layer_512_2_bn1"
  top: "layer_512_2_bn1"
}
layer {
  name: "layer_512_2_conv1"
  type: "Convolution"
  bottom: "layer_512_2_bn1"
  top: "layer_512_2_conv1"
  param {
    lr_mult: 1
    decay_mult: 1
  }
  convolution_param {
    num_output: 512
    bias_term: false
    pad: 1
    kernel_size: 3
    stride: 1
    weight_filler {
      type: "msra"
    }
    bias_filler {
      type: "constant"
      value: 0
    }
  }
}
layer {
  name: "layer_512_2_bn2"
  type: "BatchNorm"
  bottom: "layer_512_2_conv1"
  top: "layer_512_2_conv1"
  param {
    lr_mult: 0
    decay_mult: 0
  }
  param {
    lr_mult: 0
    decay_mult: 0
  }
  param {
    lr_mult: 0
    decay_mult: 0
  }
}
layer {
  name: "layer_512_2_scale2"
  type: "Scale"
  bottom: "layer_512_2_conv1"
  top: "layer_512_2_conv1"
  param {
    lr_mult: 1
    decay_mult: 1
  }
  param {
    lr_mult: 2
    decay_mult: 1
  }
  scale_param {
    bias_term: true
  }
}
layer {
  name: "layer_512_2_relu2"
  type: "ReLU"
  bottom: "layer_512_2_conv1"
  top: "layer_512_2_conv1"
}
layer {
  name: "layer_512_2_conv2"
  type: "Convolution"
  bottom: "layer_512_2_conv1"
  top: "layer_512_2_conv2"
  param {
    lr_mult: 1
    decay_mult: 1
  }
  convolution_param {
    num_output: 512
    bias_term: false
    pad: 1
    kernel_size: 3
    stride: 1
    weight_filler {
      type: "msra"
    }
    bias_filler {
      type: "constant"
      value: 0
    }
  }
}
layer {
  name: "layer_512_2_sum"
  type: "Eltwise"
  bottom: "layer_512_2_conv2"
  bottom: "layer_512_1_sum"
  top: "layer_512_2_sum"
}
layer {
  name: "last_bn"
  type: "BatchNorm"
  bottom: "layer_512_2_sum"
  top: "layer_512_2_sum"
  param {
    lr_mult: 0
    decay_mult: 0
  }
  param {
    lr_mult: 0
    decay_mult: 0
  }
  param {
    lr_mult: 0
    decay_mult: 0
  }
}
layer {
  name: "last_scale"
  type: "Scale"
  bottom: "layer_512_2_sum"
  top: "layer_512_2_sum"
  param {
    lr_mult: 1
    decay_mult: 1
  }
  param {
    lr_mult: 2
    decay_mult: 1
  }
  scale_param {
    bias_term: true
  }
}
layer {
  name: "last_relu"
  type: "ReLU"
  bottom: "layer_512_2_sum"
  top: "layer_512_2_sum"
}
layer {
  name: "global_pool"
  type: "Pooling"
  bottom: "layer_512_2_sum"
  top: "global_pool"
  pooling_param {
    pool: AVE
    global_pooling: true
  }
}
layer {
  name: "score"
  type: "InnerProduct"
  bottom: "global_pool"
  top: "score"
  param {
    lr_mult: 1
    decay_mult: 1
  }
  param {
    lr_mult: 2
    decay_mult: 1
  }
  inner_product_param {
    num_output: 8
  }
}
layer {
  name: "loss"
  type: "SoftmaxWithLoss"
  bottom: "score"
  bottom: "label"
  top: "loss"
}
I0529 19:53:15.483192 26782 layer_factory.hpp:77] Creating layer data
I0529 19:53:15.483317 26782 db_lmdb.cpp:35] Opened lmdb /home/k/PycharmProjects/AgeGenderDeepLearning-master/Folds/lmdb/Test_fold_is_0/age_train_lmdb
I0529 19:53:15.483353 26782 net.cpp:84] Creating Layer data
I0529 19:53:15.483364 26782 net.cpp:380] data -> data
I0529 19:53:15.483392 26782 net.cpp:380] data -> label
I0529 19:53:15.483409 26782 data_transformer.cpp:25] Loading mean file from: /home/k/PycharmProjects/AgeGenderDeepLearning-master/Folds/lmdb/Test_fold_is_0/mean.binaryproto
I0529 19:53:15.486248 26782 data_layer.cpp:45] output data size: 50,3,224,224
I0529 19:53:15.553781 26782 net.cpp:122] Setting up data
I0529 19:53:15.553812 26782 net.cpp:129] Top shape: 50 3 224 224 (7526400)
I0529 19:53:15.553820 26782 net.cpp:129] Top shape: 50 (50)
I0529 19:53:15.553824 26782 net.cpp:137] Memory required for data: 30105800
I0529 19:53:15.553838 26782 layer_factory.hpp:77] Creating layer data_bn
I0529 19:53:15.553856 26782 net.cpp:84] Creating Layer data_bn
I0529 19:53:15.553865 26782 net.cpp:406] data_bn <- data
I0529 19:53:15.553884 26782 net.cpp:380] data_bn -> data_bn
I0529 19:53:15.554827 26782 net.cpp:122] Setting up data_bn
I0529 19:53:15.554842 26782 net.cpp:129] Top shape: 50 3 224 224 (7526400)
I0529 19:53:15.554850 26782 net.cpp:137] Memory required for data: 60211400
I0529 19:53:15.554883 26782 layer_factory.hpp:77] Creating layer data_scale
I0529 19:53:15.554898 26782 net.cpp:84] Creating Layer data_scale
I0529 19:53:15.554905 26782 net.cpp:406] data_scale <- data_bn
I0529 19:53:15.554916 26782 net.cpp:367] data_scale -> data_bn (in-place)
I0529 19:53:15.554970 26782 layer_factory.hpp:77] Creating layer data_scale
I0529 19:53:15.560705 26782 net.cpp:122] Setting up data_scale
I0529 19:53:15.560791 26782 net.cpp:129] Top shape: 50 3 224 224 (7526400)
I0529 19:53:15.560894 26782 net.cpp:137] Memory required for data: 90317000
I0529 19:53:15.561002 26782 layer_factory.hpp:77] Creating layer conv1
I0529 19:53:15.561094 26782 net.cpp:84] Creating Layer conv1
I0529 19:53:15.561173 26782 net.cpp:406] conv1 <- data_bn
I0529 19:53:15.561250 26782 net.cpp:380] conv1 -> conv1
I0529 19:53:15.887382 26782 net.cpp:122] Setting up conv1
I0529 19:53:15.887418 26782 net.cpp:129] Top shape: 50 64 112 112 (40140800)
I0529 19:53:15.887423 26782 net.cpp:137] Memory required for data: 250880200
I0529 19:53:15.887440 26782 layer_factory.hpp:77] Creating layer conv1_bn
I0529 19:53:15.887459 26782 net.cpp:84] Creating Layer conv1_bn
I0529 19:53:15.887486 26782 net.cpp:406] conv1_bn <- conv1
I0529 19:53:15.887512 26782 net.cpp:367] conv1_bn -> conv1 (in-place)
I0529 19:53:15.887704 26782 net.cpp:122] Setting up conv1_bn
I0529 19:53:15.887717 26782 net.cpp:129] Top shape: 50 64 112 112 (40140800)
I0529 19:53:15.887723 26782 net.cpp:137] Memory required for data: 411443400
I0529 19:53:15.887742 26782 layer_factory.hpp:77] Creating layer conv1_scale
I0529 19:53:15.887781 26782 net.cpp:84] Creating Layer conv1_scale
I0529 19:53:15.887789 26782 net.cpp:406] conv1_scale <- conv1
I0529 19:53:15.887799 26782 net.cpp:367] conv1_scale -> conv1 (in-place)
I0529 19:53:15.887861 26782 layer_factory.hpp:77] Creating layer conv1_scale
I0529 19:53:15.887977 26782 net.cpp:122] Setting up conv1_scale
I0529 19:53:15.887989 26782 net.cpp:129] Top shape: 50 64 112 112 (40140800)
I0529 19:53:15.887995 26782 net.cpp:137] Memory required for data: 572006600
I0529 19:53:15.888007 26782 layer_factory.hpp:77] Creating layer conv1_relu
I0529 19:53:15.888020 26782 net.cpp:84] Creating Layer conv1_relu
I0529 19:53:15.888038 26782 net.cpp:406] conv1_relu <- conv1
I0529 19:53:15.888049 26782 net.cpp:367] conv1_relu -> conv1 (in-place)
I0529 19:53:15.888217 26782 net.cpp:122] Setting up conv1_relu
I0529 19:53:15.888229 26782 net.cpp:129] Top shape: 50 64 112 112 (40140800)
I0529 19:53:15.888236 26782 net.cpp:137] Memory required for data: 732569800
I0529 19:53:15.888242 26782 layer_factory.hpp:77] Creating layer conv1_pool
I0529 19:53:15.888265 26782 net.cpp:84] Creating Layer conv1_pool
I0529 19:53:15.888273 26782 net.cpp:406] conv1_pool <- conv1
I0529 19:53:15.888283 26782 net.cpp:380] conv1_pool -> conv1_pool
I0529 19:53:15.888335 26782 net.cpp:122] Setting up conv1_pool
I0529 19:53:15.888347 26782 net.cpp:129] Top shape: 50 64 56 56 (10035200)
I0529 19:53:15.888353 26782 net.cpp:137] Memory required for data: 772710600
I0529 19:53:15.888372 26782 layer_factory.hpp:77] Creating layer conv1_pool_conv1_pool_0_split
I0529 19:53:15.888384 26782 net.cpp:84] Creating Layer conv1_pool_conv1_pool_0_split
I0529 19:53:15.888392 26782 net.cpp:406] conv1_pool_conv1_pool_0_split <- conv1_pool
I0529 19:53:15.888403 26782 net.cpp:380] conv1_pool_conv1_pool_0_split -> conv1_pool_conv1_pool_0_split_0
I0529 19:53:15.888417 26782 net.cpp:380] conv1_pool_conv1_pool_0_split -> conv1_pool_conv1_pool_0_split_1
I0529 19:53:15.888458 26782 net.cpp:122] Setting up conv1_pool_conv1_pool_0_split
I0529 19:53:15.888468 26782 net.cpp:129] Top shape: 50 64 56 56 (10035200)
I0529 19:53:15.888476 26782 net.cpp:129] Top shape: 50 64 56 56 (10035200)
I0529 19:53:15.888484 26782 net.cpp:137] Memory required for data: 852992200
I0529 19:53:15.888490 26782 layer_factory.hpp:77] Creating layer layer_64_1_conv1
I0529 19:53:15.888517 26782 net.cpp:84] Creating Layer layer_64_1_conv1
I0529 19:53:15.888525 26782 net.cpp:406] layer_64_1_conv1 <- conv1_pool_conv1_pool_0_split_0
I0529 19:53:15.888536 26782 net.cpp:380] layer_64_1_conv1 -> layer_64_1_conv1
I0529 19:53:15.890202 26782 net.cpp:122] Setting up layer_64_1_conv1
I0529 19:53:15.890220 26782 net.cpp:129] Top shape: 50 64 56 56 (10035200)
I0529 19:53:15.890226 26782 net.cpp:137] Memory required for data: 893133000
I0529 19:53:15.890236 26782 layer_factory.hpp:77] Creating layer layer_64_1_bn2
I0529 19:53:15.890249 26782 net.cpp:84] Creating Layer layer_64_1_bn2
I0529 19:53:15.890257 26782 net.cpp:406] layer_64_1_bn2 <- layer_64_1_conv1
I0529 19:53:15.890269 26782 net.cpp:367] layer_64_1_bn2 -> layer_64_1_conv1 (in-place)
I0529 19:53:15.891141 26782 net.cpp:122] Setting up layer_64_1_bn2
I0529 19:53:15.891155 26782 net.cpp:129] Top shape: 50 64 56 56 (10035200)
I0529 19:53:15.891160 26782 net.cpp:137] Memory required for data: 933273800
I0529 19:53:15.891175 26782 layer_factory.hpp:77] Creating layer layer_64_1_scale2
I0529 19:53:15.891189 26782 net.cpp:84] Creating Layer layer_64_1_scale2
I0529 19:53:15.891198 26782 net.cpp:406] layer_64_1_scale2 <- layer_64_1_conv1
I0529 19:53:15.891208 26782 net.cpp:367] layer_64_1_scale2 -> layer_64_1_conv1 (in-place)
I0529 19:53:15.891258 26782 layer_factory.hpp:77] Creating layer layer_64_1_scale2
I0529 19:53:15.891361 26782 net.cpp:122] Setting up layer_64_1_scale2
I0529 19:53:15.891373 26782 net.cpp:129] Top shape: 50 64 56 56 (10035200)
I0529 19:53:15.891379 26782 net.cpp:137] Memory required for data: 973414600
I0529 19:53:15.891408 26782 layer_factory.hpp:77] Creating layer layer_64_1_relu2
I0529 19:53:15.891419 26782 net.cpp:84] Creating Layer layer_64_1_relu2
I0529 19:53:15.891449 26782 net.cpp:406] layer_64_1_relu2 <- layer_64_1_conv1
I0529 19:53:15.891460 26782 net.cpp:367] layer_64_1_relu2 -> layer_64_1_conv1 (in-place)
I0529 19:53:15.892087 26782 net.cpp:122] Setting up layer_64_1_relu2
I0529 19:53:15.892101 26782 net.cpp:129] Top shape: 50 64 56 56 (10035200)
I0529 19:53:15.892107 26782 net.cpp:137] Memory required for data: 1013555400
I0529 19:53:15.892113 26782 layer_factory.hpp:77] Creating layer layer_64_1_conv2
I0529 19:53:15.892132 26782 net.cpp:84] Creating Layer layer_64_1_conv2
I0529 19:53:15.892139 26782 net.cpp:406] layer_64_1_conv2 <- layer_64_1_conv1
I0529 19:53:15.892151 26782 net.cpp:380] layer_64_1_conv2 -> layer_64_1_conv2
I0529 19:53:15.894837 26782 net.cpp:122] Setting up layer_64_1_conv2
I0529 19:53:15.894852 26782 net.cpp:129] Top shape: 50 64 56 56 (10035200)
I0529 19:53:15.894860 26782 net.cpp:137] Memory required for data: 1053696200
I0529 19:53:15.894868 26782 layer_factory.hpp:77] Creating layer layer_64_1_sum
I0529 19:53:15.894892 26782 net.cpp:84] Creating Layer layer_64_1_sum
I0529 19:53:15.894899 26782 net.cpp:406] layer_64_1_sum <- layer_64_1_conv2
I0529 19:53:15.894908 26782 net.cpp:406] layer_64_1_sum <- conv1_pool_conv1_pool_0_split_1
I0529 19:53:15.894919 26782 net.cpp:380] layer_64_1_sum -> layer_64_1_sum
I0529 19:53:15.894954 26782 net.cpp:122] Setting up layer_64_1_sum
I0529 19:53:15.894965 26782 net.cpp:129] Top shape: 50 64 56 56 (10035200)
I0529 19:53:15.894971 26782 net.cpp:137] Memory required for data: 1093837000
I0529 19:53:15.894979 26782 layer_factory.hpp:77] Creating layer layer_64_1_sum_layer_64_1_sum_0_split
I0529 19:53:15.894991 26782 net.cpp:84] Creating Layer layer_64_1_sum_layer_64_1_sum_0_split
I0529 19:53:15.894999 26782 net.cpp:406] layer_64_1_sum_layer_64_1_sum_0_split <- layer_64_1_sum
I0529 19:53:15.895009 26782 net.cpp:380] layer_64_1_sum_layer_64_1_sum_0_split -> layer_64_1_sum_layer_64_1_sum_0_split_0
I0529 19:53:15.895021 26782 net.cpp:380] layer_64_1_sum_layer_64_1_sum_0_split -> layer_64_1_sum_layer_64_1_sum_0_split_1
I0529 19:53:15.895062 26782 net.cpp:122] Setting up layer_64_1_sum_layer_64_1_sum_0_split
I0529 19:53:15.895073 26782 net.cpp:129] Top shape: 50 64 56 56 (10035200)
I0529 19:53:15.895081 26782 net.cpp:129] Top shape: 50 64 56 56 (10035200)
I0529 19:53:15.895088 26782 net.cpp:137] Memory required for data: 1174118600
I0529 19:53:15.895095 26782 layer_factory.hpp:77] Creating layer layer_64_2_bn1
I0529 19:53:15.895109 26782 net.cpp:84] Creating Layer layer_64_2_bn1
I0529 19:53:15.895117 26782 net.cpp:406] layer_64_2_bn1 <- layer_64_1_sum_layer_64_1_sum_0_split_0
I0529 19:53:15.895128 26782 net.cpp:380] layer_64_2_bn1 -> layer_64_2_bn1
I0529 19:53:15.895293 26782 net.cpp:122] Setting up layer_64_2_bn1
I0529 19:53:15.895304 26782 net.cpp:129] Top shape: 50 64 56 56 (10035200)
I0529 19:53:15.895311 26782 net.cpp:137] Memory required for data: 1214259400
I0529 19:53:15.895328 26782 layer_factory.hpp:77] Creating layer layer_64_2_scale1
I0529 19:53:15.895339 26782 net.cpp:84] Creating Layer layer_64_2_scale1
I0529 19:53:15.895347 26782 net.cpp:406] layer_64_2_scale1 <- layer_64_2_bn1
I0529 19:53:15.895356 26782 net.cpp:367] layer_64_2_scale1 -> layer_64_2_bn1 (in-place)
I0529 19:53:15.895401 26782 layer_factory.hpp:77] Creating layer layer_64_2_scale1
I0529 19:53:15.895501 26782 net.cpp:122] Setting up layer_64_2_scale1
I0529 19:53:15.895514 26782 net.cpp:129] Top shape: 50 64 56 56 (10035200)
I0529 19:53:15.895519 26782 net.cpp:137] Memory required for data: 1254400200
I0529 19:53:15.895531 26782 layer_factory.hpp:77] Creating layer layer_64_2_relu1
I0529 19:53:15.895541 26782 net.cpp:84] Creating Layer layer_64_2_relu1
I0529 19:53:15.895550 26782 net.cpp:406] layer_64_2_relu1 <- layer_64_2_bn1
I0529 19:53:15.895560 26782 net.cpp:367] layer_64_2_relu1 -> layer_64_2_bn1 (in-place)
I0529 19:53:15.896181 26782 net.cpp:122] Setting up layer_64_2_relu1
I0529 19:53:15.896195 26782 net.cpp:129] Top shape: 50 64 56 56 (10035200)
I0529 19:53:15.896203 26782 net.cpp:137] Memory required for data: 1294541000
I0529 19:53:15.896230 26782 layer_factory.hpp:77] Creating layer layer_64_2_conv1
I0529 19:53:15.896246 26782 net.cpp:84] Creating Layer layer_64_2_conv1
I0529 19:53:15.896255 26782 net.cpp:406] layer_64_2_conv1 <- layer_64_2_bn1
I0529 19:53:15.896267 26782 net.cpp:380] layer_64_2_conv1 -> layer_64_2_conv1
I0529 19:53:15.901691 26782 net.cpp:122] Setting up layer_64_2_conv1
I0529 19:53:15.901707 26782 net.cpp:129] Top shape: 50 64 56 56 (10035200)
I0529 19:53:15.901715 26782 net.cpp:137] Memory required for data: 1334681800
I0529 19:53:15.901724 26782 layer_factory.hpp:77] Creating layer layer_64_2_bn2
I0529 19:53:15.901749 26782 net.cpp:84] Creating Layer layer_64_2_bn2
I0529 19:53:15.901757 26782 net.cpp:406] layer_64_2_bn2 <- layer_64_2_conv1
I0529 19:53:15.901768 26782 net.cpp:367] layer_64_2_bn2 -> layer_64_2_conv1 (in-place)
I0529 19:53:15.901926 26782 net.cpp:122] Setting up layer_64_2_bn2
I0529 19:53:15.901938 26782 net.cpp:129] Top shape: 50 64 56 56 (10035200)
I0529 19:53:15.901944 26782 net.cpp:137] Memory required for data: 1374822600
I0529 19:53:15.901958 26782 layer_factory.hpp:77] Creating layer layer_64_2_scale2
I0529 19:53:15.901970 26782 net.cpp:84] Creating Layer layer_64_2_scale2
I0529 19:53:15.901978 26782 net.cpp:406] layer_64_2_scale2 <- layer_64_2_conv1
I0529 19:53:15.901988 26782 net.cpp:367] layer_64_2_scale2 -> layer_64_2_conv1 (in-place)
I0529 19:53:15.902034 26782 layer_factory.hpp:77] Creating layer layer_64_2_scale2
I0529 19:53:15.902135 26782 net.cpp:122] Setting up layer_64_2_scale2
I0529 19:53:15.902148 26782 net.cpp:129] Top shape: 50 64 56 56 (10035200)
I0529 19:53:15.902153 26782 net.cpp:137] Memory required for data: 1414963400
I0529 19:53:15.902168 26782 layer_factory.hpp:77] Creating layer layer_64_2_relu2
I0529 19:53:15.902179 26782 net.cpp:84] Creating Layer layer_64_2_relu2
I0529 19:53:15.902187 26782 net.cpp:406] layer_64_2_relu2 <- layer_64_2_conv1
I0529 19:53:15.902197 26782 net.cpp:367] layer_64_2_relu2 -> layer_64_2_conv1 (in-place)
I0529 19:53:15.903882 26782 net.cpp:122] Setting up layer_64_2_relu2
I0529 19:53:15.903895 26782 net.cpp:129] Top shape: 50 64 56 56 (10035200)
I0529 19:53:15.903901 26782 net.cpp:137] Memory required for data: 1455104200
I0529 19:53:15.903908 26782 layer_factory.hpp:77] Creating layer layer_64_2_conv2
I0529 19:53:15.903924 26782 net.cpp:84] Creating Layer layer_64_2_conv2
I0529 19:53:15.903933 26782 net.cpp:406] layer_64_2_conv2 <- layer_64_2_conv1
I0529 19:53:15.903944 26782 net.cpp:380] layer_64_2_conv2 -> layer_64_2_conv2
I0529 19:53:15.907107 26782 net.cpp:122] Setting up layer_64_2_conv2
I0529 19:53:15.907124 26782 net.cpp:129] Top shape: 50 64 56 56 (10035200)
I0529 19:53:15.907131 26782 net.cpp:137] Memory required for data: 1495245000
I0529 19:53:15.907141 26782 layer_factory.hpp:77] Creating layer layer_64_2_sum
I0529 19:53:15.907168 26782 net.cpp:84] Creating Layer layer_64_2_sum
I0529 19:53:15.907197 26782 net.cpp:406] layer_64_2_sum <- layer_64_2_conv2
I0529 19:53:15.907222 26782 net.cpp:406] layer_64_2_sum <- layer_64_1_sum_layer_64_1_sum_0_split_1
I0529 19:53:15.907248 26782 net.cpp:380] layer_64_2_sum -> layer_64_2_sum
I0529 19:53:15.907299 26782 net.cpp:122] Setting up layer_64_2_sum
I0529 19:53:15.907310 26782 net.cpp:129] Top shape: 50 64 56 56 (10035200)
I0529 19:53:15.907316 26782 net.cpp:137] Memory required for data: 1535385800
I0529 19:53:15.907322 26782 layer_factory.hpp:77] Creating layer layer_128_1_bn1
I0529 19:53:15.907335 26782 net.cpp:84] Creating Layer layer_128_1_bn1
I0529 19:53:15.907343 26782 net.cpp:406] layer_128_1_bn1 <- layer_64_2_sum
I0529 19:53:15.907354 26782 net.cpp:380] layer_128_1_bn1 -> layer_128_1_bn1
I0529 19:53:15.907531 26782 net.cpp:122] Setting up layer_128_1_bn1
I0529 19:53:15.907544 26782 net.cpp:129] Top shape: 50 64 56 56 (10035200)
I0529 19:53:15.907551 26782 net.cpp:137] Memory required for data: 1575526600
I0529 19:53:15.907572 26782 layer_factory.hpp:77] Creating layer layer_128_1_scale1
I0529 19:53:15.907587 26782 net.cpp:84] Creating Layer layer_128_1_scale1
I0529 19:53:15.907606 26782 net.cpp:406] layer_128_1_scale1 <- layer_128_1_bn1
I0529 19:53:15.907619 26782 net.cpp:367] layer_128_1_scale1 -> layer_128_1_bn1 (in-place)
I0529 19:53:15.907676 26782 layer_factory.hpp:77] Creating layer layer_128_1_scale1
I0529 19:53:15.907791 26782 net.cpp:122] Setting up layer_128_1_scale1
I0529 19:53:15.907804 26782 net.cpp:129] Top shape: 50 64 56 56 (10035200)
I0529 19:53:15.907809 26782 net.cpp:137] Memory required for data: 1615667400
I0529 19:53:15.907821 26782 layer_factory.hpp:77] Creating layer layer_128_1_relu1
I0529 19:53:15.907833 26782 net.cpp:84] Creating Layer layer_128_1_relu1
I0529 19:53:15.907840 26782 net.cpp:406] layer_128_1_relu1 <- layer_128_1_bn1
I0529 19:53:15.907850 26782 net.cpp:367] layer_128_1_relu1 -> layer_128_1_bn1 (in-place)
I0529 19:53:15.908942 26782 net.cpp:122] Setting up layer_128_1_relu1
I0529 19:53:15.908956 26782 net.cpp:129] Top shape: 50 64 56 56 (10035200)
I0529 19:53:15.908962 26782 net.cpp:137] Memory required for data: 1655808200
I0529 19:53:15.908967 26782 layer_factory.hpp:77] Creating layer layer_128_1_bn1_layer_128_1_relu1_0_split
I0529 19:53:15.908993 26782 net.cpp:84] Creating Layer layer_128_1_bn1_layer_128_1_relu1_0_split
I0529 19:53:15.909016 26782 net.cpp:406] layer_128_1_bn1_layer_128_1_relu1_0_split <- layer_128_1_bn1
I0529 19:53:15.909041 26782 net.cpp:380] layer_128_1_bn1_layer_128_1_relu1_0_split -> layer_128_1_bn1_layer_128_1_relu1_0_split_0
I0529 19:53:15.909068 26782 net.cpp:380] layer_128_1_bn1_layer_128_1_relu1_0_split -> layer_128_1_bn1_layer_128_1_relu1_0_split_1
I0529 19:53:15.909128 26782 net.cpp:122] Setting up layer_128_1_bn1_layer_128_1_relu1_0_split
I0529 19:53:15.909140 26782 net.cpp:129] Top shape: 50 64 56 56 (10035200)
I0529 19:53:15.909148 26782 net.cpp:129] Top shape: 50 64 56 56 (10035200)
I0529 19:53:15.909168 26782 net.cpp:137] Memory required for data: 1736089800
I0529 19:53:15.909189 26782 layer_factory.hpp:77] Creating layer layer_128_1_conv1
I0529 19:53:15.909220 26782 net.cpp:84] Creating Layer layer_128_1_conv1
I0529 19:53:15.909231 26782 net.cpp:406] layer_128_1_conv1 <- layer_128_1_bn1_layer_128_1_relu1_0_split_0
I0529 19:53:15.909243 26782 net.cpp:380] layer_128_1_conv1 -> layer_128_1_conv1
I0529 19:53:15.916229 26782 net.cpp:122] Setting up layer_128_1_conv1
I0529 19:53:15.916267 26782 net.cpp:129] Top shape: 50 128 28 28 (5017600)
I0529 19:53:15.916290 26782 net.cpp:137] Memory required for data: 1756160200
I0529 19:53:15.916316 26782 layer_factory.hpp:77] Creating layer layer_128_1_bn2
I0529 19:53:15.916342 26782 net.cpp:84] Creating Layer layer_128_1_bn2
I0529 19:53:15.916364 26782 net.cpp:406] layer_128_1_bn2 <- layer_128_1_conv1
I0529 19:53:15.916385 26782 net.cpp:367] layer_128_1_bn2 -> layer_128_1_conv1 (in-place)
I0529 19:53:15.917493 26782 net.cpp:122] Setting up layer_128_1_bn2
I0529 19:53:15.917510 26782 net.cpp:129] Top shape: 50 128 28 28 (5017600)
I0529 19:53:15.917515 26782 net.cpp:137] Memory required for data: 1776230600
I0529 19:53:15.917531 26782 layer_factory.hpp:77] Creating layer layer_128_1_scale2
I0529 19:53:15.917544 26782 net.cpp:84] Creating Layer layer_128_1_scale2
I0529 19:53:15.917568 26782 net.cpp:406] layer_128_1_scale2 <- layer_128_1_conv1
I0529 19:53:15.917579 26782 net.cpp:367] layer_128_1_scale2 -> layer_128_1_conv1 (in-place)
I0529 19:53:15.917634 26782 layer_factory.hpp:77] Creating layer layer_128_1_scale2
I0529 19:53:15.917729 26782 net.cpp:122] Setting up layer_128_1_scale2
I0529 19:53:15.917742 26782 net.cpp:129] Top shape: 50 128 28 28 (5017600)
I0529 19:53:15.917747 26782 net.cpp:137] Memory required for data: 1796301000
I0529 19:53:15.917759 26782 layer_factory.hpp:77] Creating layer layer_128_1_relu2
I0529 19:53:15.917778 26782 net.cpp:84] Creating Layer layer_128_1_relu2
I0529 19:53:15.917786 26782 net.cpp:406] layer_128_1_relu2 <- layer_128_1_conv1
I0529 19:53:15.917795 26782 net.cpp:367] layer_128_1_relu2 -> layer_128_1_conv1 (in-place)
I0529 19:53:15.917948 26782 net.cpp:122] Setting up layer_128_1_relu2
I0529 19:53:15.917960 26782 net.cpp:129] Top shape: 50 128 28 28 (5017600)
I0529 19:53:15.917976 26782 net.cpp:137] Memory required for data: 1816371400
I0529 19:53:15.917985 26782 layer_factory.hpp:77] Creating layer layer_128_1_conv2
I0529 19:53:15.917999 26782 net.cpp:84] Creating Layer layer_128_1_conv2
I0529 19:53:15.918006 26782 net.cpp:406] layer_128_1_conv2 <- layer_128_1_conv1
I0529 19:53:15.918018 26782 net.cpp:380] layer_128_1_conv2 -> layer_128_1_conv2
I0529 19:53:15.924145 26782 net.cpp:122] Setting up layer_128_1_conv2
I0529 19:53:15.924166 26782 net.cpp:129] Top shape: 50 128 28 28 (5017600)
I0529 19:53:15.924173 26782 net.cpp:137] Memory required for data: 1836441800
I0529 19:53:15.924183 26782 layer_factory.hpp:77] Creating layer layer_128_1_conv_expand
I0529 19:53:15.924202 26782 net.cpp:84] Creating Layer layer_128_1_conv_expand
I0529 19:53:15.924228 26782 net.cpp:406] layer_128_1_conv_expand <- layer_128_1_bn1_layer_128_1_relu1_0_split_1
I0529 19:53:15.924262 26782 net.cpp:380] layer_128_1_conv_expand -> layer_128_1_conv_expand
I0529 19:53:15.930043 26782 net.cpp:122] Setting up layer_128_1_conv_expand
I0529 19:53:15.930058 26782 net.cpp:129] Top shape: 50 128 28 28 (5017600)
I0529 19:53:15.930064 26782 net.cpp:137] Memory required for data: 1856512200
I0529 19:53:15.930074 26782 layer_factory.hpp:77] Creating layer layer_128_1_sum
I0529 19:53:15.930100 26782 net.cpp:84] Creating Layer layer_128_1_sum
I0529 19:53:15.930127 26782 net.cpp:406] layer_128_1_sum <- layer_128_1_conv_expand
I0529 19:53:15.930151 26782 net.cpp:406] layer_128_1_sum <- layer_128_1_conv2
I0529 19:53:15.930176 26782 net.cpp:380] layer_128_1_sum -> layer_128_1_sum
I0529 19:53:15.930228 26782 net.cpp:122] Setting up layer_128_1_sum
I0529 19:53:15.930240 26782 net.cpp:129] Top shape: 50 128 28 28 (5017600)
I0529 19:53:15.930246 26782 net.cpp:137] Memory required for data: 1876582600
I0529 19:53:15.930253 26782 layer_factory.hpp:77] Creating layer layer_128_1_sum_layer_128_1_sum_0_split
I0529 19:53:15.930275 26782 net.cpp:84] Creating Layer layer_128_1_sum_layer_128_1_sum_0_split
I0529 19:53:15.930299 26782 net.cpp:406] layer_128_1_sum_layer_128_1_sum_0_split <- layer_128_1_sum
I0529 19:53:15.930325 26782 net.cpp:380] layer_128_1_sum_layer_128_1_sum_0_split -> layer_128_1_sum_layer_128_1_sum_0_split_0
I0529 19:53:15.930354 26782 net.cpp:380] layer_128_1_sum_layer_128_1_sum_0_split -> layer_128_1_sum_layer_128_1_sum_0_split_1
I0529 19:53:15.930408 26782 net.cpp:122] Setting up layer_128_1_sum_layer_128_1_sum_0_split
I0529 19:53:15.930419 26782 net.cpp:129] Top shape: 50 128 28 28 (5017600)
I0529 19:53:15.930428 26782 net.cpp:129] Top shape: 50 128 28 28 (5017600)
I0529 19:53:15.930436 26782 net.cpp:137] Memory required for data: 1916723400
I0529 19:53:15.930444 26782 layer_factory.hpp:77] Creating layer layer_128_2_bn1
I0529 19:53:15.930455 26782 net.cpp:84] Creating Layer layer_128_2_bn1
I0529 19:53:15.930464 26782 net.cpp:406] layer_128_2_bn1 <- layer_128_1_sum_layer_128_1_sum_0_split_0
I0529 19:53:15.930475 26782 net.cpp:380] layer_128_2_bn1 -> layer_128_2_bn1
I0529 19:53:15.930641 26782 net.cpp:122] Setting up layer_128_2_bn1
I0529 19:53:15.930654 26782 net.cpp:129] Top shape: 50 128 28 28 (5017600)
I0529 19:53:15.930660 26782 net.cpp:137] Memory required for data: 1936793800
I0529 19:53:15.930675 26782 layer_factory.hpp:77] Creating layer layer_128_2_scale1
I0529 19:53:15.930688 26782 net.cpp:84] Creating Layer layer_128_2_scale1
I0529 19:53:15.930698 26782 net.cpp:406] layer_128_2_scale1 <- layer_128_2_bn1
I0529 19:53:15.930708 26782 net.cpp:367] layer_128_2_scale1 -> layer_128_2_bn1 (in-place)
I0529 19:53:15.930763 26782 layer_factory.hpp:77] Creating layer layer_128_2_scale1
I0529 19:53:15.930869 26782 net.cpp:122] Setting up layer_128_2_scale1
I0529 19:53:15.930882 26782 net.cpp:129] Top shape: 50 128 28 28 (5017600)
I0529 19:53:15.930888 26782 net.cpp:137] Memory required for data: 1956864200
I0529 19:53:15.930899 26782 layer_factory.hpp:77] Creating layer layer_128_2_relu1
I0529 19:53:15.930912 26782 net.cpp:84] Creating Layer layer_128_2_relu1
I0529 19:53:15.930938 26782 net.cpp:406] layer_128_2_relu1 <- layer_128_2_bn1
I0529 19:53:15.930948 26782 net.cpp:367] layer_128_2_relu1 -> layer_128_2_bn1 (in-place)
I0529 19:53:15.931102 26782 net.cpp:122] Setting up layer_128_2_relu1
I0529 19:53:15.931114 26782 net.cpp:129] Top shape: 50 128 28 28 (5017600)
I0529 19:53:15.931120 26782 net.cpp:137] Memory required for data: 1976934600
I0529 19:53:15.931128 26782 layer_factory.hpp:77] Creating layer layer_128_2_conv1
I0529 19:53:15.931143 26782 net.cpp:84] Creating Layer layer_128_2_conv1
I0529 19:53:15.931152 26782 net.cpp:406] layer_128_2_conv1 <- layer_128_2_bn1
I0529 19:53:15.931164 26782 net.cpp:380] layer_128_2_conv1 -> layer_128_2_conv1
I0529 19:53:15.937474 26782 net.cpp:122] Setting up layer_128_2_conv1
I0529 19:53:15.937490 26782 net.cpp:129] Top shape: 50 128 28 28 (5017600)
I0529 19:53:15.937496 26782 net.cpp:137] Memory required for data: 1997005000
I0529 19:53:15.937506 26782 layer_factory.hpp:77] Creating layer layer_128_2_bn2
I0529 19:53:15.937533 26782 net.cpp:84] Creating Layer layer_128_2_bn2
I0529 19:53:15.937556 26782 net.cpp:406] layer_128_2_bn2 <- layer_128_2_conv1
I0529 19:53:15.937582 26782 net.cpp:367] layer_128_2_bn2 -> layer_128_2_conv1 (in-place)
I0529 19:53:15.937754 26782 net.cpp:122] Setting up layer_128_2_bn2
I0529 19:53:15.937767 26782 net.cpp:129] Top shape: 50 128 28 28 (5017600)
I0529 19:53:15.937773 26782 net.cpp:137] Memory required for data: 2017075400
I0529 19:53:15.937788 26782 layer_factory.hpp:77] Creating layer layer_128_2_scale2
I0529 19:53:15.937801 26782 net.cpp:84] Creating Layer layer_128_2_scale2
I0529 19:53:15.937810 26782 net.cpp:406] layer_128_2_scale2 <- layer_128_2_conv1
I0529 19:53:15.937820 26782 net.cpp:367] layer_128_2_scale2 -> layer_128_2_conv1 (in-place)
I0529 19:53:15.937876 26782 layer_factory.hpp:77] Creating layer layer_128_2_scale2
I0529 19:53:15.937986 26782 net.cpp:122] Setting up layer_128_2_scale2
I0529 19:53:15.937999 26782 net.cpp:129] Top shape: 50 128 28 28 (5017600)
I0529 19:53:15.938005 26782 net.cpp:137] Memory required for data: 2037145800
I0529 19:53:15.938016 26782 layer_factory.hpp:77] Creating layer layer_128_2_relu2
I0529 19:53:15.938030 26782 net.cpp:84] Creating Layer layer_128_2_relu2
I0529 19:53:15.938038 26782 net.cpp:406] layer_128_2_relu2 <- layer_128_2_conv1
I0529 19:53:15.938048 26782 net.cpp:367] layer_128_2_relu2 -> layer_128_2_conv1 (in-place)
I0529 19:53:15.939157 26782 net.cpp:122] Setting up layer_128_2_relu2
I0529 19:53:15.939170 26782 net.cpp:129] Top shape: 50 128 28 28 (5017600)
I0529 19:53:15.939177 26782 net.cpp:137] Memory required for data: 2057216200
I0529 19:53:15.939183 26782 layer_factory.hpp:77] Creating layer layer_128_2_conv2
I0529 19:53:15.939213 26782 net.cpp:84] Creating Layer layer_128_2_conv2
I0529 19:53:15.939239 26782 net.cpp:406] layer_128_2_conv2 <- layer_128_2_conv1
I0529 19:53:15.939265 26782 net.cpp:380] layer_128_2_conv2 -> layer_128_2_conv2
I0529 19:53:15.942239 26782 net.cpp:122] Setting up layer_128_2_conv2
I0529 19:53:15.942252 26782 net.cpp:129] Top shape: 50 128 28 28 (5017600)
I0529 19:53:15.942267 26782 net.cpp:137] Memory required for data: 2077286600
I0529 19:53:15.942273 26782 layer_factory.hpp:77] Creating layer layer_128_2_sum
I0529 19:53:15.942279 26782 net.cpp:84] Creating Layer layer_128_2_sum
I0529 19:53:15.942283 26782 net.cpp:406] layer_128_2_sum <- layer_128_2_conv2
I0529 19:53:15.942291 26782 net.cpp:406] layer_128_2_sum <- layer_128_1_sum_layer_128_1_sum_0_split_1
I0529 19:53:15.942301 26782 net.cpp:380] layer_128_2_sum -> layer_128_2_sum
I0529 19:53:15.942332 26782 net.cpp:122] Setting up layer_128_2_sum
I0529 19:53:15.942340 26782 net.cpp:129] Top shape: 50 128 28 28 (5017600)
I0529 19:53:15.942343 26782 net.cpp:137] Memory required for data: 2097357000
I0529 19:53:15.942348 26782 layer_factory.hpp:77] Creating layer layer_256_1_bn1
I0529 19:53:15.942353 26782 net.cpp:84] Creating Layer layer_256_1_bn1
I0529 19:53:15.942356 26782 net.cpp:406] layer_256_1_bn1 <- layer_128_2_sum
I0529 19:53:15.942361 26782 net.cpp:380] layer_256_1_bn1 -> layer_256_1_bn1
I0529 19:53:15.942539 26782 net.cpp:122] Setting up layer_256_1_bn1
I0529 19:53:15.942548 26782 net.cpp:129] Top shape: 50 128 28 28 (5017600)
I0529 19:53:15.942564 26782 net.cpp:137] Memory required for data: 2117427400
I0529 19:53:15.942570 26782 layer_factory.hpp:77] Creating layer layer_256_1_scale1
I0529 19:53:15.942577 26782 net.cpp:84] Creating Layer layer_256_1_scale1
I0529 19:53:15.942584 26782 net.cpp:406] layer_256_1_scale1 <- layer_256_1_bn1
I0529 19:53:15.942591 26782 net.cpp:367] layer_256_1_scale1 -> layer_256_1_bn1 (in-place)
I0529 19:53:15.942632 26782 layer_factory.hpp:77] Creating layer layer_256_1_scale1
I0529 19:53:15.942721 26782 net.cpp:122] Setting up layer_256_1_scale1
I0529 19:53:15.942730 26782 net.cpp:129] Top shape: 50 128 28 28 (5017600)
I0529 19:53:15.942734 26782 net.cpp:137] Memory required for data: 2137497800
I0529 19:53:15.942739 26782 layer_factory.hpp:77] Creating layer layer_256_1_relu1
I0529 19:53:15.942744 26782 net.cpp:84] Creating Layer layer_256_1_relu1
I0529 19:53:15.942749 26782 net.cpp:406] layer_256_1_relu1 <- layer_256_1_bn1
I0529 19:53:15.942754 26782 net.cpp:367] layer_256_1_relu1 -> layer_256_1_bn1 (in-place)
I0529 19:53:15.943404 26782 net.cpp:122] Setting up layer_256_1_relu1
I0529 19:53:15.943426 26782 net.cpp:129] Top shape: 50 128 28 28 (5017600)
I0529 19:53:15.943430 26782 net.cpp:137] Memory required for data: 2157568200
I0529 19:53:15.943434 26782 layer_factory.hpp:77] Creating layer layer_256_1_bn1_layer_256_1_relu1_0_split
I0529 19:53:15.943439 26782 net.cpp:84] Creating Layer layer_256_1_bn1_layer_256_1_relu1_0_split
I0529 19:53:15.943442 26782 net.cpp:406] layer_256_1_bn1_layer_256_1_relu1_0_split <- layer_256_1_bn1
I0529 19:53:15.943451 26782 net.cpp:380] layer_256_1_bn1_layer_256_1_relu1_0_split -> layer_256_1_bn1_layer_256_1_relu1_0_split_0
I0529 19:53:15.943464 26782 net.cpp:380] layer_256_1_bn1_layer_256_1_relu1_0_split -> layer_256_1_bn1_layer_256_1_relu1_0_split_1
I0529 19:53:15.943502 26782 net.cpp:122] Setting up layer_256_1_bn1_layer_256_1_relu1_0_split
I0529 19:53:15.943511 26782 net.cpp:129] Top shape: 50 128 28 28 (5017600)
I0529 19:53:15.943514 26782 net.cpp:129] Top shape: 50 128 28 28 (5017600)
I0529 19:53:15.943517 26782 net.cpp:137] Memory required for data: 2197709000
I0529 19:53:15.943521 26782 layer_factory.hpp:77] Creating layer layer_256_1_conv1
I0529 19:53:15.943528 26782 net.cpp:84] Creating Layer layer_256_1_conv1
I0529 19:53:15.943533 26782 net.cpp:406] layer_256_1_conv1 <- layer_256_1_bn1_layer_256_1_relu1_0_split_0
I0529 19:53:15.943552 26782 net.cpp:380] layer_256_1_conv1 -> layer_256_1_conv1
I0529 19:53:15.950481 26782 net.cpp:122] Setting up layer_256_1_conv1
I0529 19:53:15.950498 26782 net.cpp:129] Top shape: 50 256 14 14 (2508800)
I0529 19:53:15.950505 26782 net.cpp:137] Memory required for data: 2207744200
I0529 19:53:15.950515 26782 layer_factory.hpp:77] Creating layer layer_256_1_bn2
I0529 19:53:15.950526 26782 net.cpp:84] Creating Layer layer_256_1_bn2
I0529 19:53:15.950533 26782 net.cpp:406] layer_256_1_bn2 <- layer_256_1_conv1
I0529 19:53:15.950541 26782 net.cpp:367] layer_256_1_bn2 -> layer_256_1_conv1 (in-place)
I0529 19:53:15.950695 26782 net.cpp:122] Setting up layer_256_1_bn2
I0529 19:53:15.950706 26782 net.cpp:129] Top shape: 50 256 14 14 (2508800)
I0529 19:53:15.950712 26782 net.cpp:137] Memory required for data: 2217779400
I0529 19:53:15.950733 26782 layer_factory.hpp:77] Creating layer layer_256_1_scale2
I0529 19:53:15.950747 26782 net.cpp:84] Creating Layer layer_256_1_scale2
I0529 19:53:15.950754 26782 net.cpp:406] layer_256_1_scale2 <- layer_256_1_conv1
I0529 19:53:15.950764 26782 net.cpp:367] layer_256_1_scale2 -> layer_256_1_conv1 (in-place)
I0529 19:53:15.950811 26782 layer_factory.hpp:77] Creating layer layer_256_1_scale2
I0529 19:53:15.950906 26782 net.cpp:122] Setting up layer_256_1_scale2
I0529 19:53:15.950917 26782 net.cpp:129] Top shape: 50 256 14 14 (2508800)
I0529 19:53:15.950923 26782 net.cpp:137] Memory required for data: 2227814600
I0529 19:53:15.950934 26782 layer_factory.hpp:77] Creating layer layer_256_1_relu2
I0529 19:53:15.950955 26782 net.cpp:84] Creating Layer layer_256_1_relu2
I0529 19:53:15.950964 26782 net.cpp:406] layer_256_1_relu2 <- layer_256_1_conv1
I0529 19:53:15.950974 26782 net.cpp:367] layer_256_1_relu2 -> layer_256_1_conv1 (in-place)
I0529 19:53:15.952615 26782 net.cpp:122] Setting up layer_256_1_relu2
I0529 19:53:15.952626 26782 net.cpp:129] Top shape: 50 256 14 14 (2508800)
I0529 19:53:15.952633 26782 net.cpp:137] Memory required for data: 2237849800
I0529 19:53:15.952639 26782 layer_factory.hpp:77] Creating layer layer_256_1_conv2
I0529 19:53:15.952654 26782 net.cpp:84] Creating Layer layer_256_1_conv2
I0529 19:53:15.952661 26782 net.cpp:406] layer_256_1_conv2 <- layer_256_1_conv1
I0529 19:53:15.952672 26782 net.cpp:380] layer_256_1_conv2 -> layer_256_1_conv2
I0529 19:53:15.964233 26782 net.cpp:122] Setting up layer_256_1_conv2
I0529 19:53:15.964263 26782 net.cpp:129] Top shape: 50 256 14 14 (2508800)
I0529 19:53:15.964270 26782 net.cpp:137] Memory required for data: 2247885000
I0529 19:53:15.964283 26782 layer_factory.hpp:77] Creating layer layer_256_1_conv_expand
I0529 19:53:15.964304 26782 net.cpp:84] Creating Layer layer_256_1_conv_expand
I0529 19:53:15.964314 26782 net.cpp:406] layer_256_1_conv_expand <- layer_256_1_bn1_layer_256_1_relu1_0_split_1
I0529 19:53:15.964329 26782 net.cpp:380] layer_256_1_conv_expand -> layer_256_1_conv_expand
I0529 19:53:15.966418 26782 net.cpp:122] Setting up layer_256_1_conv_expand
I0529 19:53:15.966434 26782 net.cpp:129] Top shape: 50 256 14 14 (2508800)
I0529 19:53:15.966440 26782 net.cpp:137] Memory required for data: 2257920200
I0529 19:53:15.966450 26782 layer_factory.hpp:77] Creating layer layer_256_1_sum
I0529 19:53:15.966462 26782 net.cpp:84] Creating Layer layer_256_1_sum
I0529 19:53:15.966470 26782 net.cpp:406] layer_256_1_sum <- layer_256_1_conv_expand
I0529 19:53:15.966480 26782 net.cpp:406] layer_256_1_sum <- layer_256_1_conv2
I0529 19:53:15.966490 26782 net.cpp:380] layer_256_1_sum -> layer_256_1_sum
I0529 19:53:15.966522 26782 net.cpp:122] Setting up layer_256_1_sum
I0529 19:53:15.966533 26782 net.cpp:129] Top shape: 50 256 14 14 (2508800)
I0529 19:53:15.966539 26782 net.cpp:137] Memory required for data: 2267955400
I0529 19:53:15.966545 26782 layer_factory.hpp:77] Creating layer layer_256_1_sum_layer_256_1_sum_0_split
I0529 19:53:15.966557 26782 net.cpp:84] Creating Layer layer_256_1_sum_layer_256_1_sum_0_split
I0529 19:53:15.966564 26782 net.cpp:406] layer_256_1_sum_layer_256_1_sum_0_split <- layer_256_1_sum
I0529 19:53:15.966574 26782 net.cpp:380] layer_256_1_sum_layer_256_1_sum_0_split -> layer_256_1_sum_layer_256_1_sum_0_split_0
I0529 19:53:15.966588 26782 net.cpp:380] layer_256_1_sum_layer_256_1_sum_0_split -> layer_256_1_sum_layer_256_1_sum_0_split_1
I0529 19:53:15.966627 26782 net.cpp:122] Setting up layer_256_1_sum_layer_256_1_sum_0_split
I0529 19:53:15.966639 26782 net.cpp:129] Top shape: 50 256 14 14 (2508800)
I0529 19:53:15.966646 26782 net.cpp:129] Top shape: 50 256 14 14 (2508800)
I0529 19:53:15.966653 26782 net.cpp:137] Memory required for data: 2288025800
I0529 19:53:15.966660 26782 layer_factory.hpp:77] Creating layer layer_256_2_bn1
I0529 19:53:15.966672 26782 net.cpp:84] Creating Layer layer_256_2_bn1
I0529 19:53:15.966681 26782 net.cpp:406] layer_256_2_bn1 <- layer_256_1_sum_layer_256_1_sum_0_split_0
I0529 19:53:15.966691 26782 net.cpp:380] layer_256_2_bn1 -> layer_256_2_bn1
I0529 19:53:15.966856 26782 net.cpp:122] Setting up layer_256_2_bn1
I0529 19:53:15.966867 26782 net.cpp:129] Top shape: 50 256 14 14 (2508800)
I0529 19:53:15.966873 26782 net.cpp:137] Memory required for data: 2298061000
I0529 19:53:15.966887 26782 layer_factory.hpp:77] Creating layer layer_256_2_scale1
I0529 19:53:15.966899 26782 net.cpp:84] Creating Layer layer_256_2_scale1
I0529 19:53:15.966907 26782 net.cpp:406] layer_256_2_scale1 <- layer_256_2_bn1
I0529 19:53:15.966917 26782 net.cpp:367] layer_256_2_scale1 -> layer_256_2_bn1 (in-place)
I0529 19:53:15.966966 26782 layer_factory.hpp:77] Creating layer layer_256_2_scale1
I0529 19:53:15.967080 26782 net.cpp:122] Setting up layer_256_2_scale1
I0529 19:53:15.967092 26782 net.cpp:129] Top shape: 50 256 14 14 (2508800)
I0529 19:53:15.967098 26782 net.cpp:137] Memory required for data: 2308096200
I0529 19:53:15.967109 26782 layer_factory.hpp:77] Creating layer layer_256_2_relu1
I0529 19:53:15.967120 26782 net.cpp:84] Creating Layer layer_256_2_relu1
I0529 19:53:15.967128 26782 net.cpp:406] layer_256_2_relu1 <- layer_256_2_bn1
I0529 19:53:15.967139 26782 net.cpp:367] layer_256_2_relu1 -> layer_256_2_bn1 (in-place)
I0529 19:53:15.968250 26782 net.cpp:122] Setting up layer_256_2_relu1
I0529 19:53:15.968261 26782 net.cpp:129] Top shape: 50 256 14 14 (2508800)
I0529 19:53:15.968267 26782 net.cpp:137] Memory required for data: 2318131400
I0529 19:53:15.968273 26782 layer_factory.hpp:77] Creating layer layer_256_2_conv1
I0529 19:53:15.968287 26782 net.cpp:84] Creating Layer layer_256_2_conv1
I0529 19:53:15.968294 26782 net.cpp:406] layer_256_2_conv1 <- layer_256_2_bn1
I0529 19:53:15.968305 26782 net.cpp:380] layer_256_2_conv1 -> layer_256_2_conv1
I0529 19:53:15.978189 26782 net.cpp:122] Setting up layer_256_2_conv1
I0529 19:53:15.978216 26782 net.cpp:129] Top shape: 50 256 14 14 (2508800)
I0529 19:53:15.978224 26782 net.cpp:137] Memory required for data: 2328166600
I0529 19:53:15.978235 26782 layer_factory.hpp:77] Creating layer layer_256_2_bn2
I0529 19:53:15.978250 26782 net.cpp:84] Creating Layer layer_256_2_bn2
I0529 19:53:15.978260 26782 net.cpp:406] layer_256_2_bn2 <- layer_256_2_conv1
I0529 19:53:15.978272 26782 net.cpp:367] layer_256_2_bn2 -> layer_256_2_conv1 (in-place)
I0529 19:53:15.978438 26782 net.cpp:122] Setting up layer_256_2_bn2
I0529 19:53:15.978451 26782 net.cpp:129] Top shape: 50 256 14 14 (2508800)
I0529 19:53:15.978456 26782 net.cpp:137] Memory required for data: 2338201800
I0529 19:53:15.978473 26782 layer_factory.hpp:77] Creating layer layer_256_2_scale2
I0529 19:53:15.978487 26782 net.cpp:84] Creating Layer layer_256_2_scale2
I0529 19:53:15.978494 26782 net.cpp:406] layer_256_2_scale2 <- layer_256_2_conv1
I0529 19:53:15.978504 26782 net.cpp:367] layer_256_2_scale2 -> layer_256_2_conv1 (in-place)
I0529 19:53:15.978556 26782 layer_factory.hpp:77] Creating layer layer_256_2_scale2
I0529 19:53:15.978657 26782 net.cpp:122] Setting up layer_256_2_scale2
I0529 19:53:15.978668 26782 net.cpp:129] Top shape: 50 256 14 14 (2508800)
I0529 19:53:15.978674 26782 net.cpp:137] Memory required for data: 2348237000
I0529 19:53:15.978688 26782 layer_factory.hpp:77] Creating layer layer_256_2_relu2
I0529 19:53:15.978709 26782 net.cpp:84] Creating Layer layer_256_2_relu2
I0529 19:53:15.978716 26782 net.cpp:406] layer_256_2_relu2 <- layer_256_2_conv1
I0529 19:53:15.978725 26782 net.cpp:367] layer_256_2_relu2 -> layer_256_2_conv1 (in-place)
I0529 19:53:15.979763 26782 net.cpp:122] Setting up layer_256_2_relu2
I0529 19:53:15.979775 26782 net.cpp:129] Top shape: 50 256 14 14 (2508800)
I0529 19:53:15.979781 26782 net.cpp:137] Memory required for data: 2358272200
I0529 19:53:15.979789 26782 layer_factory.hpp:77] Creating layer layer_256_2_conv2
I0529 19:53:15.979805 26782 net.cpp:84] Creating Layer layer_256_2_conv2
I0529 19:53:15.979812 26782 net.cpp:406] layer_256_2_conv2 <- layer_256_2_conv1
I0529 19:53:15.979823 26782 net.cpp:380] layer_256_2_conv2 -> layer_256_2_conv2
I0529 19:53:15.989990 26782 net.cpp:122] Setting up layer_256_2_conv2
I0529 19:53:15.990015 26782 net.cpp:129] Top shape: 50 256 14 14 (2508800)
I0529 19:53:15.990021 26782 net.cpp:137] Memory required for data: 2368307400
I0529 19:53:15.990034 26782 layer_factory.hpp:77] Creating layer layer_256_2_sum
I0529 19:53:15.990047 26782 net.cpp:84] Creating Layer layer_256_2_sum
I0529 19:53:15.990057 26782 net.cpp:406] layer_256_2_sum <- layer_256_2_conv2
I0529 19:53:15.990067 26782 net.cpp:406] layer_256_2_sum <- layer_256_1_sum_layer_256_1_sum_0_split_1
I0529 19:53:15.990080 26782 net.cpp:380] layer_256_2_sum -> layer_256_2_sum
I0529 19:53:15.990116 26782 net.cpp:122] Setting up layer_256_2_sum
I0529 19:53:15.990128 26782 net.cpp:129] Top shape: 50 256 14 14 (2508800)
I0529 19:53:15.990146 26782 net.cpp:137] Memory required for data: 2378342600
I0529 19:53:15.990154 26782 layer_factory.hpp:77] Creating layer layer_512_1_bn1
I0529 19:53:15.990166 26782 net.cpp:84] Creating Layer layer_512_1_bn1
I0529 19:53:15.990175 26782 net.cpp:406] layer_512_1_bn1 <- layer_256_2_sum
I0529 19:53:15.990185 26782 net.cpp:380] layer_512_1_bn1 -> layer_512_1_bn1
I0529 19:53:15.990353 26782 net.cpp:122] Setting up layer_512_1_bn1
I0529 19:53:15.990365 26782 net.cpp:129] Top shape: 50 256 14 14 (2508800)
I0529 19:53:15.990371 26782 net.cpp:137] Memory required for data: 2388377800
I0529 19:53:15.990386 26782 layer_factory.hpp:77] Creating layer layer_512_1_scale1
I0529 19:53:15.990397 26782 net.cpp:84] Creating Layer layer_512_1_scale1
I0529 19:53:15.990406 26782 net.cpp:406] layer_512_1_scale1 <- layer_512_1_bn1
I0529 19:53:15.990416 26782 net.cpp:367] layer_512_1_scale1 -> layer_512_1_bn1 (in-place)
I0529 19:53:15.990465 26782 layer_factory.hpp:77] Creating layer layer_512_1_scale1
I0529 19:53:15.990564 26782 net.cpp:122] Setting up layer_512_1_scale1
I0529 19:53:15.990576 26782 net.cpp:129] Top shape: 50 256 14 14 (2508800)
I0529 19:53:15.990581 26782 net.cpp:137] Memory required for data: 2398413000
I0529 19:53:15.990593 26782 layer_factory.hpp:77] Creating layer layer_512_1_relu1
I0529 19:53:15.990604 26782 net.cpp:84] Creating Layer layer_512_1_relu1
I0529 19:53:15.990612 26782 net.cpp:406] layer_512_1_relu1 <- layer_512_1_bn1
I0529 19:53:15.990620 26782 net.cpp:367] layer_512_1_relu1 -> layer_512_1_bn1 (in-place)
I0529 19:53:15.990785 26782 net.cpp:122] Setting up layer_512_1_relu1
I0529 19:53:15.990797 26782 net.cpp:129] Top shape: 50 256 14 14 (2508800)
I0529 19:53:15.990803 26782 net.cpp:137] Memory required for data: 2408448200
I0529 19:53:15.990809 26782 layer_factory.hpp:77] Creating layer layer_512_1_bn1_layer_512_1_relu1_0_split
I0529 19:53:15.990819 26782 net.cpp:84] Creating Layer layer_512_1_bn1_layer_512_1_relu1_0_split
I0529 19:53:15.990828 26782 net.cpp:406] layer_512_1_bn1_layer_512_1_relu1_0_split <- layer_512_1_bn1
I0529 19:53:15.990838 26782 net.cpp:380] layer_512_1_bn1_layer_512_1_relu1_0_split -> layer_512_1_bn1_layer_512_1_relu1_0_split_0
I0529 19:53:15.990850 26782 net.cpp:380] layer_512_1_bn1_layer_512_1_relu1_0_split -> layer_512_1_bn1_layer_512_1_relu1_0_split_1
I0529 19:53:15.990893 26782 net.cpp:122] Setting up layer_512_1_bn1_layer_512_1_relu1_0_split
I0529 19:53:15.990905 26782 net.cpp:129] Top shape: 50 256 14 14 (2508800)
I0529 19:53:15.990912 26782 net.cpp:129] Top shape: 50 256 14 14 (2508800)
I0529 19:53:15.990919 26782 net.cpp:137] Memory required for data: 2428518600
I0529 19:53:15.990926 26782 layer_factory.hpp:77] Creating layer layer_512_1_conv1
I0529 19:53:15.990942 26782 net.cpp:84] Creating Layer layer_512_1_conv1
I0529 19:53:15.990948 26782 net.cpp:406] layer_512_1_conv1 <- layer_512_1_bn1_layer_512_1_relu1_0_split_0
I0529 19:53:15.990958 26782 net.cpp:380] layer_512_1_conv1 -> layer_512_1_conv1
I0529 19:53:16.005336 26782 net.cpp:122] Setting up layer_512_1_conv1
I0529 19:53:16.005367 26782 net.cpp:129] Top shape: 50 512 7 7 (1254400)
I0529 19:53:16.005374 26782 net.cpp:137] Memory required for data: 2433536200
I0529 19:53:16.005388 26782 layer_factory.hpp:77] Creating layer layer_512_1_bn2
I0529 19:53:16.005403 26782 net.cpp:84] Creating Layer layer_512_1_bn2
I0529 19:53:16.005412 26782 net.cpp:406] layer_512_1_bn2 <- layer_512_1_conv1
I0529 19:53:16.005424 26782 net.cpp:367] layer_512_1_bn2 -> layer_512_1_conv1 (in-place)
I0529 19:53:16.005599 26782 net.cpp:122] Setting up layer_512_1_bn2
I0529 19:53:16.005610 26782 net.cpp:129] Top shape: 50 512 7 7 (1254400)
I0529 19:53:16.005616 26782 net.cpp:137] Memory required for data: 2438553800
I0529 19:53:16.005630 26782 layer_factory.hpp:77] Creating layer layer_512_1_scale2
I0529 19:53:16.005642 26782 net.cpp:84] Creating Layer layer_512_1_scale2
I0529 19:53:16.005652 26782 net.cpp:406] layer_512_1_scale2 <- layer_512_1_conv1
I0529 19:53:16.005662 26782 net.cpp:367] layer_512_1_scale2 -> layer_512_1_conv1 (in-place)
I0529 19:53:16.005722 26782 layer_factory.hpp:77] Creating layer layer_512_1_scale2
I0529 19:53:16.005825 26782 net.cpp:122] Setting up layer_512_1_scale2
I0529 19:53:16.005836 26782 net.cpp:129] Top shape: 50 512 7 7 (1254400)
I0529 19:53:16.005842 26782 net.cpp:137] Memory required for data: 2443571400
I0529 19:53:16.005853 26782 layer_factory.hpp:77] Creating layer layer_512_1_relu2
I0529 19:53:16.005866 26782 net.cpp:84] Creating Layer layer_512_1_relu2
I0529 19:53:16.005873 26782 net.cpp:406] layer_512_1_relu2 <- layer_512_1_conv1
I0529 19:53:16.005882 26782 net.cpp:367] layer_512_1_relu2 -> layer_512_1_conv1 (in-place)
I0529 19:53:16.006022 26782 net.cpp:122] Setting up layer_512_1_relu2
I0529 19:53:16.006034 26782 net.cpp:129] Top shape: 50 512 7 7 (1254400)
I0529 19:53:16.006041 26782 net.cpp:137] Memory required for data: 2448589000
I0529 19:53:16.006047 26782 layer_factory.hpp:77] Creating layer layer_512_1_conv2
I0529 19:53:16.006062 26782 net.cpp:84] Creating Layer layer_512_1_conv2
I0529 19:53:16.006068 26782 net.cpp:406] layer_512_1_conv2 <- layer_512_1_conv1
I0529 19:53:16.006079 26782 net.cpp:380] layer_512_1_conv2 -> layer_512_1_conv2
I0529 19:53:16.034329 26782 net.cpp:122] Setting up layer_512_1_conv2
I0529 19:53:16.034371 26782 net.cpp:129] Top shape: 50 512 7 7 (1254400)
I0529 19:53:16.034379 26782 net.cpp:137] Memory required for data: 2453606600
I0529 19:53:16.034394 26782 layer_factory.hpp:77] Creating layer layer_512_1_conv_expand
I0529 19:53:16.034418 26782 net.cpp:84] Creating Layer layer_512_1_conv_expand
I0529 19:53:16.034448 26782 net.cpp:406] layer_512_1_conv_expand <- layer_512_1_bn1_layer_512_1_relu1_0_split_1
I0529 19:53:16.034466 26782 net.cpp:380] layer_512_1_conv_expand -> layer_512_1_conv_expand
I0529 19:53:16.037209 26782 net.cpp:122] Setting up layer_512_1_conv_expand
I0529 19:53:16.037250 26782 net.cpp:129] Top shape: 50 512 7 7 (1254400)
I0529 19:53:16.037257 26782 net.cpp:137] Memory required for data: 2458624200
I0529 19:53:16.037272 26782 layer_factory.hpp:77] Creating layer layer_512_1_sum
I0529 19:53:16.037287 26782 net.cpp:84] Creating Layer layer_512_1_sum
I0529 19:53:16.037328 26782 net.cpp:406] layer_512_1_sum <- layer_512_1_conv_expand
I0529 19:53:16.037343 26782 net.cpp:406] layer_512_1_sum <- layer_512_1_conv2
I0529 19:53:16.037356 26782 net.cpp:380] layer_512_1_sum -> layer_512_1_sum
I0529 19:53:16.037402 26782 net.cpp:122] Setting up layer_512_1_sum
I0529 19:53:16.037415 26782 net.cpp:129] Top shape: 50 512 7 7 (1254400)
I0529 19:53:16.037420 26782 net.cpp:137] Memory required for data: 2463641800
I0529 19:53:16.037430 26782 layer_factory.hpp:77] Creating layer layer_512_1_sum_layer_512_1_sum_0_split
I0529 19:53:16.037441 26782 net.cpp:84] Creating Layer layer_512_1_sum_layer_512_1_sum_0_split
I0529 19:53:16.037447 26782 net.cpp:406] layer_512_1_sum_layer_512_1_sum_0_split <- layer_512_1_sum
I0529 19:53:16.037459 26782 net.cpp:380] layer_512_1_sum_layer_512_1_sum_0_split -> layer_512_1_sum_layer_512_1_sum_0_split_0
I0529 19:53:16.037473 26782 net.cpp:380] layer_512_1_sum_layer_512_1_sum_0_split -> layer_512_1_sum_layer_512_1_sum_0_split_1
I0529 19:53:16.037518 26782 net.cpp:122] Setting up layer_512_1_sum_layer_512_1_sum_0_split
I0529 19:53:16.037529 26782 net.cpp:129] Top shape: 50 512 7 7 (1254400)
I0529 19:53:16.037537 26782 net.cpp:129] Top shape: 50 512 7 7 (1254400)
I0529 19:53:16.037544 26782 net.cpp:137] Memory required for data: 2473677000
I0529 19:53:16.037551 26782 layer_factory.hpp:77] Creating layer layer_512_2_bn1
I0529 19:53:16.037564 26782 net.cpp:84] Creating Layer layer_512_2_bn1
I0529 19:53:16.037571 26782 net.cpp:406] layer_512_2_bn1 <- layer_512_1_sum_layer_512_1_sum_0_split_0
I0529 19:53:16.037582 26782 net.cpp:380] layer_512_2_bn1 -> layer_512_2_bn1
I0529 19:53:16.037786 26782 net.cpp:122] Setting up layer_512_2_bn1
I0529 19:53:16.037802 26782 net.cpp:129] Top shape: 50 512 7 7 (1254400)
I0529 19:53:16.037808 26782 net.cpp:137] Memory required for data: 2478694600
I0529 19:53:16.037824 26782 layer_factory.hpp:77] Creating layer layer_512_2_scale1
I0529 19:53:16.037853 26782 net.cpp:84] Creating Layer layer_512_2_scale1
I0529 19:53:16.037863 26782 net.cpp:406] layer_512_2_scale1 <- layer_512_2_bn1
I0529 19:53:16.037873 26782 net.cpp:367] layer_512_2_scale1 -> layer_512_2_bn1 (in-place)
I0529 19:53:16.037926 26782 layer_factory.hpp:77] Creating layer layer_512_2_scale1
I0529 19:53:16.038036 26782 net.cpp:122] Setting up layer_512_2_scale1
I0529 19:53:16.038049 26782 net.cpp:129] Top shape: 50 512 7 7 (1254400)
I0529 19:53:16.038055 26782 net.cpp:137] Memory required for data: 2483712200
I0529 19:53:16.038069 26782 layer_factory.hpp:77] Creating layer layer_512_2_relu1
I0529 19:53:16.038081 26782 net.cpp:84] Creating Layer layer_512_2_relu1
I0529 19:53:16.038090 26782 net.cpp:406] layer_512_2_relu1 <- layer_512_2_bn1
I0529 19:53:16.038100 26782 net.cpp:367] layer_512_2_relu1 -> layer_512_2_bn1 (in-place)
I0529 19:53:16.038311 26782 net.cpp:122] Setting up layer_512_2_relu1
I0529 19:53:16.038322 26782 net.cpp:129] Top shape: 50 512 7 7 (1254400)
I0529 19:53:16.038328 26782 net.cpp:137] Memory required for data: 2488729800
I0529 19:53:16.038336 26782 layer_factory.hpp:77] Creating layer layer_512_2_conv1
I0529 19:53:16.038353 26782 net.cpp:84] Creating Layer layer_512_2_conv1
I0529 19:53:16.038360 26782 net.cpp:406] layer_512_2_conv1 <- layer_512_2_bn1
I0529 19:53:16.038372 26782 net.cpp:380] layer_512_2_conv1 -> layer_512_2_conv1
I0529 19:53:16.069217 26782 net.cpp:122] Setting up layer_512_2_conv1
I0529 19:53:16.069252 26782 net.cpp:129] Top shape: 50 512 7 7 (1254400)
I0529 19:53:16.069258 26782 net.cpp:137] Memory required for data: 2493747400
I0529 19:53:16.069272 26782 layer_factory.hpp:77] Creating layer layer_512_2_bn2
I0529 19:53:16.069288 26782 net.cpp:84] Creating Layer layer_512_2_bn2
I0529 19:53:16.069316 26782 net.cpp:406] layer_512_2_bn2 <- layer_512_2_conv1
I0529 19:53:16.069331 26782 net.cpp:367] layer_512_2_bn2 -> layer_512_2_conv1 (in-place)
I0529 19:53:16.069519 26782 net.cpp:122] Setting up layer_512_2_bn2
I0529 19:53:16.069530 26782 net.cpp:129] Top shape: 50 512 7 7 (1254400)
I0529 19:53:16.069536 26782 net.cpp:137] Memory required for data: 2498765000
I0529 19:53:16.069551 26782 layer_factory.hpp:77] Creating layer layer_512_2_scale2
I0529 19:53:16.069566 26782 net.cpp:84] Creating Layer layer_512_2_scale2
I0529 19:53:16.069586 26782 net.cpp:406] layer_512_2_scale2 <- layer_512_2_conv1
I0529 19:53:16.069597 26782 net.cpp:367] layer_512_2_scale2 -> layer_512_2_conv1 (in-place)
I0529 19:53:16.069650 26782 layer_factory.hpp:77] Creating layer layer_512_2_scale2
I0529 19:53:16.069757 26782 net.cpp:122] Setting up layer_512_2_scale2
I0529 19:53:16.069768 26782 net.cpp:129] Top shape: 50 512 7 7 (1254400)
I0529 19:53:16.069775 26782 net.cpp:137] Memory required for data: 2503782600
I0529 19:53:16.069797 26782 layer_factory.hpp:77] Creating layer layer_512_2_relu2
I0529 19:53:16.069808 26782 net.cpp:84] Creating Layer layer_512_2_relu2
I0529 19:53:16.069826 26782 net.cpp:406] layer_512_2_relu2 <- layer_512_2_conv1
I0529 19:53:16.069836 26782 net.cpp:367] layer_512_2_relu2 -> layer_512_2_conv1 (in-place)
I0529 19:53:16.071280 26782 net.cpp:122] Setting up layer_512_2_relu2
I0529 19:53:16.071295 26782 net.cpp:129] Top shape: 50 512 7 7 (1254400)
I0529 19:53:16.071301 26782 net.cpp:137] Memory required for data: 2508800200
I0529 19:53:16.071307 26782 layer_factory.hpp:77] Creating layer layer_512_2_conv2
I0529 19:53:16.071336 26782 net.cpp:84] Creating Layer layer_512_2_conv2
I0529 19:53:16.071344 26782 net.cpp:406] layer_512_2_conv2 <- layer_512_2_conv1
I0529 19:53:16.071357 26782 net.cpp:380] layer_512_2_conv2 -> layer_512_2_conv2
I0529 19:53:16.103327 26782 net.cpp:122] Setting up layer_512_2_conv2
I0529 19:53:16.103361 26782 net.cpp:129] Top shape: 50 512 7 7 (1254400)
I0529 19:53:16.103368 26782 net.cpp:137] Memory required for data: 2513817800
I0529 19:53:16.103391 26782 layer_factory.hpp:77] Creating layer layer_512_2_sum
I0529 19:53:16.103405 26782 net.cpp:84] Creating Layer layer_512_2_sum
I0529 19:53:16.103435 26782 net.cpp:406] layer_512_2_sum <- layer_512_2_conv2
I0529 19:53:16.103447 26782 net.cpp:406] layer_512_2_sum <- layer_512_1_sum_layer_512_1_sum_0_split_1
I0529 19:53:16.103461 26782 net.cpp:380] layer_512_2_sum -> layer_512_2_sum
I0529 19:53:16.103498 26782 net.cpp:122] Setting up layer_512_2_sum
I0529 19:53:16.103509 26782 net.cpp:129] Top shape: 50 512 7 7 (1254400)
I0529 19:53:16.103516 26782 net.cpp:137] Memory required for data: 2518835400
I0529 19:53:16.103523 26782 layer_factory.hpp:77] Creating layer last_bn
I0529 19:53:16.103535 26782 net.cpp:84] Creating Layer last_bn
I0529 19:53:16.103543 26782 net.cpp:406] last_bn <- layer_512_2_sum
I0529 19:53:16.103552 26782 net.cpp:367] last_bn -> layer_512_2_sum (in-place)
I0529 19:53:16.103729 26782 net.cpp:122] Setting up last_bn
I0529 19:53:16.103739 26782 net.cpp:129] Top shape: 50 512 7 7 (1254400)
I0529 19:53:16.103745 26782 net.cpp:137] Memory required for data: 2523853000
I0529 19:53:16.103771 26782 layer_factory.hpp:77] Creating layer last_scale
I0529 19:53:16.103782 26782 net.cpp:84] Creating Layer last_scale
I0529 19:53:16.103790 26782 net.cpp:406] last_scale <- layer_512_2_sum
I0529 19:53:16.103801 26782 net.cpp:367] last_scale -> layer_512_2_sum (in-place)
I0529 19:53:16.103845 26782 layer_factory.hpp:77] Creating layer last_scale
I0529 19:53:16.103947 26782 net.cpp:122] Setting up last_scale
I0529 19:53:16.103958 26782 net.cpp:129] Top shape: 50 512 7 7 (1254400)
I0529 19:53:16.103965 26782 net.cpp:137] Memory required for data: 2528870600
I0529 19:53:16.103976 26782 layer_factory.hpp:77] Creating layer last_relu
I0529 19:53:16.103987 26782 net.cpp:84] Creating Layer last_relu
I0529 19:53:16.103996 26782 net.cpp:406] last_relu <- layer_512_2_sum
I0529 19:53:16.104004 26782 net.cpp:367] last_relu -> layer_512_2_sum (in-place)
I0529 19:53:16.105599 26782 net.cpp:122] Setting up last_relu
I0529 19:53:16.105614 26782 net.cpp:129] Top shape: 50 512 7 7 (1254400)
I0529 19:53:16.105621 26782 net.cpp:137] Memory required for data: 2533888200
I0529 19:53:16.105628 26782 layer_factory.hpp:77] Creating layer global_pool
I0529 19:53:16.105639 26782 net.cpp:84] Creating Layer global_pool
I0529 19:53:16.105648 26782 net.cpp:406] global_pool <- layer_512_2_sum
I0529 19:53:16.105657 26782 net.cpp:380] global_pool -> global_pool
I0529 19:53:16.107867 26782 net.cpp:122] Setting up global_pool
I0529 19:53:16.107879 26782 net.cpp:129] Top shape: 50 512 1 1 (25600)
I0529 19:53:16.107885 26782 net.cpp:137] Memory required for data: 2533990600
I0529 19:53:16.107892 26782 layer_factory.hpp:77] Creating layer score
I0529 19:53:16.107903 26782 net.cpp:84] Creating Layer score
I0529 19:53:16.107910 26782 net.cpp:406] score <- global_pool
I0529 19:53:16.107920 26782 net.cpp:380] score -> score
I0529 19:53:16.108039 26782 net.cpp:122] Setting up score
I0529 19:53:16.108050 26782 net.cpp:129] Top shape: 50 8 (400)
I0529 19:53:16.108057 26782 net.cpp:137] Memory required for data: 2533992200
I0529 19:53:16.108068 26782 layer_factory.hpp:77] Creating layer loss
I0529 19:53:16.108078 26782 net.cpp:84] Creating Layer loss
I0529 19:53:16.108086 26782 net.cpp:406] loss <- score
I0529 19:53:16.108094 26782 net.cpp:406] loss <- label
I0529 19:53:16.108106 26782 net.cpp:380] loss -> loss
I0529 19:53:16.108122 26782 layer_factory.hpp:77] Creating layer loss
…
I0529 19:53:16.110502 26782 net.cpp:51] Initializing net from parameters: 
name: "Pre-ResNet-18"
state {
  phase: TEST
}
layer {
  name: "data"
  type: "Data"
  top: "data"
  top: "label"
  include {
    phase: TEST
  }
  transform_param {
    mirror: false
    crop_size: 224
    mean_file: "/home/k/PycharmProjects/AgeGenderDeepLearning-master/Folds/lmdb/Test_fold_is_0/mean.binaryproto"
  }
  data_param {
    source: "/home/k/PycharmProjects/AgeGenderDeepLearning-master/Folds/lmdb/Test_fold_is_0/age_val_lmdb"
    batch_size: 50
    backend: LMDB
  }
}
layer {
  name: "data_bn"
  type: "BatchNorm"
  bottom: "data"
  top: "data_bn"
  param {
    lr_mult: 0
    decay_mult: 0
  }
  param {
    lr_mult: 0
    decay_mult: 0
  }
  param {
    lr_mult: 0
    decay_mult: 0
  }
}
layer {
  name: "data_scale"
  type: "Scale"
  bottom: "data_bn"
  top: "data_bn"
  param {
    lr_mult: 1
    decay_mult: 1
  }
  param {
    lr_mult: 2
    decay_mult: 1
  }
  scale_param {
    bias_term: true
  }
}
layer {
  name: "conv1"
  type: "Convolution"
  bottom: "data_bn"
  top: "conv1"
  param {
    lr_mult: 1
    decay_mult: 1
  }
  param {
    lr_mult: 2
    decay_mult: 1
  }
  convolution_param {
    num_output: 64
    pad: 3
    kernel_size: 7
    stride: 2
    weight_filler {
      type: "msra"
      variance_norm: FAN_OUT
    }
    bias_filler {
      type: "constant"
      value: 0
    }
  }
}
layer {
  name: "conv1_bn"
  type: "BatchNorm"
  bottom: "conv1"
  top: "conv1"
  param {
    lr_mult: 0
    decay_mult: 0
  }
  param {
    lr_mult: 0
    decay_mult: 0
  }
  param {
    lr_mult: 0
    decay_mult: 0
  }
}
layer {
  name: "conv1_scale"
  type: "Scale"
  bottom: "conv1"
  top: "conv1"
  param {
    lr_mult: 1
    decay_mult: 1
  }
  param {
    lr_mult: 2
    decay_mult: 1
  }
  scale_param {
    bias_term: true
  }
}
layer {
  name: "conv1_relu"
  type: "ReLU"
  bottom: "conv1"
  top: "conv1"
}
layer {
  name: "conv1_pool"
  type: "Pooling"
  bottom: "conv1"
  top: "conv1_pool"
  pooling_param {
    kernel_size: 3
    stride: 2
  }
}
layer {
  name: "layer_64_1_conv1"
  type: "Convolution"
  bottom: "conv1_pool"
  top: "layer_64_1_conv1"
  param {
    lr_mult: 1
    decay_mult: 1
  }
  convolution_param {
    num_output: 64
    bias_term: false
    pad: 1
    kernel_size: 3
    stride: 1
    weight_filler {
      type: "msra"
    }
    bias_filler {
      type: "constant"
      value: 0
    }
  }
}
layer {
  name: "layer_64_1_bn2"
  type: "BatchNorm"
  bottom: "layer_64_1_conv1"
  top: "layer_64_1_conv1"
  param {
    lr_mult: 0
    decay_mult: 0
  }
  param {
    lr_mult: 0
    decay_mult: 0
  }
  param {
    lr_mult: 0
    decay_mult: 0
  }
}
layer {
  name: "layer_64_1_scale2"
  type: "Scale"
  bottom: "layer_64_1_conv1"
  top: "layer_64_1_conv1"
  param {
    lr_mult: 1
    decay_mult: 1
  }
  param {
    lr_mult: 2
    decay_mult: 1
  }
  scale_param {
    bias_term: true
  }
}
layer {
  name: "layer_64_1_relu2"
  type: "ReLU"
  bottom: "layer_64_1_conv1"
  top: "layer_64_1_conv1"
}
layer {
  name: "layer_64_1_conv2"
  type: "Convolution"
  bottom: "layer_64_1_conv1"
  top: "layer_64_1_conv2"
  param {
    lr_mult: 1
    decay_mult: 1
  }
  convolution_param {
    num_output: 64
    bias_term: false
    pad: 1
    kernel_size: 3
    stride: 1
    weight_filler {
      type: "msra"
    }
    bias_filler {
      type: "constant"
      value: 0
    }
  }
}
layer {
  name: "layer_64_1_sum"
  type: "Eltwise"
  bottom: "layer_64_1_conv2"
  bottom: "conv1_pool"
  top: "layer_64_1_sum"
}
layer {
  name: "layer_64_2_bn1"
  type: "BatchNorm"
  bottom: "layer_64_1_sum"
  top: "layer_64_2_bn1"
  param {
    lr_mult: 0
    decay_mult: 0
  }
  param {
    lr_mult: 0
    decay_mult: 0
  }
  param {
    lr_mult: 0
    decay_mult: 0
  }
}
layer {
  name: "layer_64_2_scale1"
  type: "Scale"
  bottom: "layer_64_2_bn1"
  top: "layer_64_2_bn1"
  param {
    lr_mult: 1
    decay_mult: 1
  }
  param {
    lr_mult: 2
    decay_mult: 1
  }
  scale_param {
    bias_term: true
  }
}
layer {
  name: "layer_64_2_relu1"
  type: "ReLU"
  bottom: "layer_64_2_bn1"
  top: "layer_64_2_bn1"
}
layer {
  name: "layer_64_2_conv1"
  type: "Convolution"
  bottom: "layer_64_2_bn1"
  top: "layer_64_2_conv1"
  param {
    lr_mult: 1
    decay_mult: 1
  }
  convolution_param {
    num_output: 64
    bias_term: false
    pad: 1
    kernel_size: 3
    stride: 1
    weight_filler {
      type: "msra"
    }
    bias_filler {
      type: "constant"
      value: 0
    }
  }
}
layer {
  name: "layer_64_2_bn2"
  type: "BatchNorm"
  bottom: "layer_64_2_conv1"
  top: "layer_64_2_conv1"
  param {
    lr_mult: 0
    decay_mult: 0
  }
  param {
    lr_mult: 0
    decay_mult: 0
  }
  param {
    lr_mult: 0
    decay_mult: 0
  }
}
layer {
  name: "layer_64_2_scale2"
  type: "Scale"
  bottom: "layer_64_2_conv1"
  top: "layer_64_2_conv1"
  param {
    lr_mult: 1
    decay_mult: 1
  }
  param {
    lr_mult: 2
    decay_mult: 1
  }
  scale_param {
    bias_term: true
  }
}
layer {
  name: "layer_64_2_relu2"
  type: "ReLU"
  bottom: "layer_64_2_conv1"
  top: "layer_64_2_conv1"
}
layer {
  name: "layer_64_2_conv2"
  type: "Convolution"
  bottom: "layer_64_2_conv1"
  top: "layer_64_2_conv2"
  param {
    lr_mult: 1
    decay_mult: 1
  }
  convolution_param {
    num_output: 64
    bias_term: false
    pad: 1
    kernel_size: 3
    stride: 1
    weight_filler {
      type: "msra"
    }
    bias_filler {
      type: "constant"
      value: 0
    }
  }
}
layer {
  name: "layer_64_2_sum"
  type: "Eltwise"
  bottom: "layer_64_2_conv2"
  bottom: "layer_64_1_sum"
  top: "layer_64_2_sum"
}
layer {
  name: "layer_128_1_bn1"
  type: "BatchNorm"
  bottom: "layer_64_2_sum"
  top: "layer_128_1_bn1"
  param {
    lr_mult: 0
    decay_mult: 0
  }
  param {
    lr_mult: 0
    decay_mult: 0
  }
  param {
    lr_mult: 0
    decay_mult: 0
  }
}
layer {
  name: "layer_128_1_scale1"
  type: "Scale"
  bottom: "layer_128_1_bn1"
  top: "layer_128_1_bn1"
  param {
    lr_mult: 1
    decay_mult: 1
  }
  param {
    lr_mult: 2
    decay_mult: 1
  }
  scale_param {
    bias_term: true
  }
}
layer {
  name: "layer_128_1_relu1"
  type: "ReLU"
  bottom: "layer_128_1_bn1"
  top: "layer_128_1_bn1"
}
layer {
  name: "layer_128_1_conv1"
  type: "Convolution"
  bottom: "layer_128_1_bn1"
  top: "layer_128_1_conv1"
  param {
    lr_mult: 1
    decay_mult: 1
  }
  convolution_param {
    num_output: 128
    bias_term: false
    pad: 1
    kernel_size: 3
    stride: 2
    weight_filler {
      type: "msra"
    }
    bias_filler {
      type: "constant"
      value: 0
    }
  }
}
layer {
  name: "layer_128_1_bn2"
  type: "BatchNorm"
  bottom: "layer_128_1_conv1"
  top: "layer_128_1_conv1"
  param {
    lr_mult: 0
    decay_mult: 0
  }
  param {
    lr_mult: 0
    decay_mult: 0
  }
  param {
    lr_mult: 0
    decay_mult: 0
  }
}
layer {
  name: "layer_128_1_scale2"
  type: "Scale"
  bottom: "layer_128_1_conv1"
  top: "layer_128_1_conv1"
  param {
    lr_mult: 1
    decay_mult: 1
  }
  param {
    lr_mult: 2
    decay_mult: 1
  }
  scale_param {
    bias_term: true
  }
}
layer {
  name: "layer_128_1_relu2"
  type: "ReLU"
  bottom: "layer_128_1_conv1"
  top: "layer_128_1_conv1"
}
layer {
  name: "layer_128_1_conv2"
  type: "Convolution"
  bottom: "layer_128_1_conv1"
  top: "layer_128_1_conv2"
  param {
    lr_mult: 1
    decay_mult: 1
  }
  convolution_param {
    num_output: 128
    bias_term: false
    pad: 1
    kernel_size: 3
    stride: 1
    weight_filler {
      type: "msra"
    }
    bias_filler {
      type: "constant"
      value: 0
    }
  }
}
layer {
  name: "layer_128_1_conv_expand"
  type: "Convolution"
  bottom: "layer_128_1_bn1"
  top: "layer_128_1_conv_expand"
  param {
    lr_mult: 1
    decay_mult: 1
  }
  convolution_param {
    num_output: 128
    bias_term: false
    pad: 0
    kernel_size: 1
    stride: 2
    weight_filler {
      type: "msra"
    }
    bias_filler {
      type: "constant"
      value: 0
    }
  }
}
layer {
  name: "layer_128_1_sum"
  type: "Eltwise"
  bottom: "layer_128_1_conv_expand"
  bottom: "layer_128_1_conv2"
  top: "layer_128_1_sum"
}
layer {
  name: "layer_128_2_bn1"
  type: "BatchNorm"
  bottom: "layer_128_1_sum"
  top: "layer_128_2_bn1"
  param {
    lr_mult: 0
    decay_mult: 0
  }
  param {
    lr_mult: 0
    decay_mult: 0
  }
  param {
    lr_mult: 0
    decay_mult: 0
  }
}
layer {
  name: "layer_128_2_scale1"
  type: "Scale"
  bottom: "layer_128_2_bn1"
  top: "layer_128_2_bn1"
  param {
    lr_mult: 1
    decay_mult: 1
  }
  param {
    lr_mult: 2
    decay_mult: 1
  }
  scale_param {
    bias_term: true
  }
}
layer {
  name: "layer_128_2_relu1"
  type: "ReLU"
  bottom: "layer_128_2_bn1"
  top: "layer_128_2_bn1"
}
layer {
  name: "layer_128_2_conv1"
  type: "Convolution"
  bottom: "layer_128_2_bn1"
  top: "layer_128_2_conv1"
  param {
    lr_mult: 1
    decay_mult: 1
  }
  convolution_param {
    num_output: 128
    bias_term: false
    pad: 1
    kernel_size: 3
    stride: 1
    weight_filler {
      type: "msra"
    }
    bias_filler {
      type: "constant"
      value: 0
    }
  }
}
layer {
  name: "layer_128_2_bn2"
  type: "BatchNorm"
  bottom: "layer_128_2_conv1"
  top: "layer_128_2_conv1"
  param {
    lr_mult: 0
    decay_mult: 0
  }
  param {
    lr_mult: 0
    decay_mult: 0
  }
  param {
    lr_mult: 0
    decay_mult: 0
  }
}
layer {
  name: "layer_128_2_scale2"
  type: "Scale"
  bottom: "layer_128_2_conv1"
  top: "layer_128_2_conv1"
  param {
    lr_mult: 1
    decay_mult: 1
  }
  param {
    lr_mult: 2
    decay_mult: 1
  }
  scale_param {
    bias_term: true
  }
}
layer {
  name: "layer_128_2_relu2"
  type: "ReLU"
  bottom: "layer_128_2_conv1"
  top: "layer_128_2_conv1"
}
layer {
  name: "layer_128_2_conv2"
  type: "Convolution"
  bottom: "layer_128_2_conv1"
  top: "layer_128_2_conv2"
  param {
    lr_mult: 1
    decay_mult: 1
  }
  convolution_param {
    num_output: 128
    bias_term: false
    pad: 1
    kernel_size: 3
    stride: 1
    weight_filler {
      type: "msra"
    }
    bias_filler {
      type: "constant"
      value: 0
    }
  }
}
layer {
  name: "layer_128_2_sum"
  type: "Eltwise"
  bottom: "layer_128_2_conv2"
  bottom: "layer_128_1_sum"
  top: "layer_128_2_sum"
}
layer {
  name: "layer_256_1_bn1"
  type: "BatchNorm"
  bottom: "layer_128_2_sum"
  top: "layer_256_1_bn1"
  param {
    lr_mult: 0
    decay_mult: 0
  }
  param {
    lr_mult: 0
    decay_mult: 0
  }
  param {
    lr_mult: 0
    decay_mult: 0
  }
}
layer {
  name: "layer_256_1_scale1"
  type: "Scale"
  bottom: "layer_256_1_bn1"
  top: "layer_256_1_bn1"
  param {
    lr_mult: 1
    decay_mult: 1
  }
  param {
    lr_mult: 2
    decay_mult: 1
  }
  scale_param {
    bias_term: true
  }
}
layer {
  name: "layer_256_1_relu1"
  type: "ReLU"
  bottom: "layer_256_1_bn1"
  top: "layer_256_1_bn1"
}
layer {
  name: "layer_256_1_conv1"
  type: "Convolution"
  bottom: "layer_256_1_bn1"
  top: "layer_256_1_conv1"
  param {
    lr_mult: 1
    decay_mult: 1
  }
  convolution_param {
    num_output: 256
    bias_term: false
    pad: 1
    kernel_size: 3
    stride: 2
    weight_filler {
      type: "msra"
    }
    bias_filler {
      type: "constant"
      value: 0
    }
  }
}
layer {
  name: "layer_256_1_bn2"
  type: "BatchNorm"
  bottom: "layer_256_1_conv1"
  top: "layer_256_1_conv1"
  param {
    lr_mult: 0
    decay_mult: 0
  }
  param {
    lr_mult: 0
    decay_mult: 0
  }
  param {
    lr_mult: 0
    decay_mult: 0
  }
}
layer {
  name: "layer_256_1_scale2"
  type: "Scale"
  bottom: "layer_256_1_conv1"
  top: "layer_256_1_conv1"
  param {
    lr_mult: 1
    decay_mult: 1
  }
  param {
    lr_mult: 2
    decay_mult: 1
  }
  scale_param {
    bias_term: true
  }
}
layer {
  name: "layer_256_1_relu2"
  type: "ReLU"
  bottom: "layer_256_1_conv1"
  top: "layer_256_1_conv1"
}
layer {
  name: "layer_256_1_conv2"
  type: "Convolution"
  bottom: "layer_256_1_conv1"
  top: "layer_256_1_conv2"
  param {
    lr_mult: 1
    decay_mult: 1
  }
  convolution_param {
    num_output: 256
    bias_term: false
    pad: 1
    kernel_size: 3
    stride: 1
    weight_filler {
      type: "msra"
    }
    bias_filler {
      type: "constant"
      value: 0
    }
  }
}
layer {
  name: "layer_256_1_conv_expand"
  type: "Convolution"
  bottom: "layer_256_1_bn1"
  top: "layer_256_1_conv_expand"
  param {
    lr_mult: 1
    decay_mult: 1
  }
  convolution_param {
    num_output: 256
    bias_term: false
    pad: 0
    kernel_size: 1
    stride: 2
    weight_filler {
      type: "msra"
    }
    bias_filler {
      type: "constant"
      value: 0
    }
  }
}
layer {
  name: "layer_256_1_sum"
  type: "Eltwise"
  bottom: "layer_256_1_conv_expand"
  bottom: "layer_256_1_conv2"
  top: "layer_256_1_sum"
}
layer {
  name: "layer_256_2_bn1"
  type: "BatchNorm"
  bottom: "layer_256_1_sum"
  top: "layer_256_2_bn1"
  param {
    lr_mult: 0
    decay_mult: 0
  }
  param {
    lr_mult: 0
    decay_mult: 0
  }
  param {
    lr_mult: 0
    decay_mult: 0
  }
}
layer {
  name: "layer_256_2_scale1"
  type: "Scale"
  bottom: "layer_256_2_bn1"
  top: "layer_256_2_bn1"
  param {
    lr_mult: 1
    decay_mult: 1
  }
  param {
    lr_mult: 2
    decay_mult: 1
  }
  scale_param {
    bias_term: true
  }
}
layer {
  name: "layer_256_2_relu1"
  type: "ReLU"
  bottom: "layer_256_2_bn1"
  top: "layer_256_2_bn1"
}
layer {
  name: "layer_256_2_conv1"
  type: "Convolution"
  bottom: "layer_256_2_bn1"
  top: "layer_256_2_conv1"
  param {
    lr_mult: 1
    decay_mult: 1
  }
  convolution_param {
    num_output: 256
    bias_term: false
    pad: 1
    kernel_size: 3
    stride: 1
    weight_filler {
      type: "msra"
    }
    bias_filler {
      type: "constant"
      value: 0
    }
  }
}
layer {
  name: "layer_256_2_bn2"
  type: "BatchNorm"
  bottom: "layer_256_2_conv1"
  top: "layer_256_2_conv1"
  param {
    lr_mult: 0
    decay_mult: 0
  }
  param {
    lr_mult: 0
    decay_mult: 0
  }
  param {
    lr_mult: 0
    decay_mult: 0
  }
}
layer {
  name: "layer_256_2_scale2"
  type: "Scale"
  bottom: "layer_256_2_conv1"
  top: "layer_256_2_conv1"
  param {
    lr_mult: 1
    decay_mult: 1
  }
  param {
    lr_mult: 2
    decay_mult: 1
  }
  scale_param {
    bias_term: true
  }
}
layer {
  name: "layer_256_2_relu2"
  type: "ReLU"
  bottom: "layer_256_2_conv1"
  top: "layer_256_2_conv1"
}
layer {
  name: "layer_256_2_conv2"
  type: "Convolution"
  bottom: "layer_256_2_conv1"
  top: "layer_256_2_conv2"
  param {
    lr_mult: 1
    decay_mult: 1
  }
  convolution_param {
    num_output: 256
    bias_term: false
    pad: 1
    kernel_size: 3
    stride: 1
    weight_filler {
      type: "msra"
    }
    bias_filler {
      type: "constant"
      value: 0
    }
  }
}
layer {
  name: "layer_256_2_sum"
  type: "Eltwise"
  bottom: "layer_256_2_conv2"
  bottom: "layer_256_1_sum"
  top: "layer_256_2_sum"
}
layer {
  name: "layer_512_1_bn1"
  type: "BatchNorm"
  bottom: "layer_256_2_sum"
  top: "layer_512_1_bn1"
  param {
    lr_mult: 0
    decay_mult: 0
  }
  param {
    lr_mult: 0
    decay_mult: 0
  }
  param {
    lr_mult: 0
    decay_mult: 0
  }
}
layer {
  name: "layer_512_1_scale1"
  type: "Scale"
  bottom: "layer_512_1_bn1"
  top: "layer_512_1_bn1"
  param {
    lr_mult: 1
    decay_mult: 1
  }
  param {
    lr_mult: 2
    decay_mult: 1
  }
  scale_param {
    bias_term: true
  }
}
layer {
  name: "layer_512_1_relu1"
  type: "ReLU"
  bottom: "layer_512_1_bn1"
  top: "layer_512_1_bn1"
}
layer {
  name: "layer_512_1_conv1"
  type: "Convolution"
  bottom: "layer_512_1_bn1"
  top: "layer_512_1_conv1"
  param {
    lr_mult: 1
    decay_mult: 1
  }
  convolution_param {
    num_output: 512
    bias_term: false
    pad: 1
    kernel_size: 3
    stride: 2
    weight_filler {
      type: "msra"
    }
    bias_filler {
      type: "constant"
      value: 0
    }
  }
}
layer {
  name: "layer_512_1_bn2"
  type: "BatchNorm"
  bottom: "layer_512_1_conv1"
  top: "layer_512_1_conv1"
  param {
    lr_mult: 0
    decay_mult: 0
  }
  param {
    lr_mult: 0
    decay_mult: 0
  }
  param {
    lr_mult: 0
    decay_mult: 0
  }
}
layer {
  name: "layer_512_1_scale2"
  type: "Scale"
  bottom: "layer_512_1_conv1"
  top: "layer_512_1_conv1"
  param {
    lr_mult: 1
    decay_mult: 1
  }
  param {
    lr_mult: 2
    decay_mult: 1
  }
  scale_param {
    bias_term: true
  }
}
layer {
  name: "layer_512_1_relu2"
  type: "ReLU"
  bottom: "layer_512_1_conv1"
  top: "layer_512_1_conv1"
}
layer {
  name: "layer_512_1_conv2"
  type: "Convolution"
  bottom: "layer_512_1_conv1"
  top: "layer_512_1_conv2"
  param {
    lr_mult: 1
    decay_mult: 1
  }
  convolution_param {
    num_output: 512
    bias_term: false
    pad: 1
    kernel_size: 3
    stride: 1
    weight_filler {
      type: "msra"
    }
    bias_filler {
      type: "constant"
      value: 0
    }
  }
}
layer {
  name: "layer_512_1_conv_expand"
  type: "Convolution"
  bottom: "layer_512_1_bn1"
  top: "layer_512_1_conv_expand"
  param {
    lr_mult: 1
    decay_mult: 1
  }
  convolution_param {
    num_output: 512
    bias_term: false
    pad: 0
    kernel_size: 1
    stride: 2
    weight_filler {
      type: "msra"
    }
    bias_filler {
      type: "constant"
      value: 0
    }
  }
}
layer {
  name: "layer_512_1_sum"
  type: "Eltwise"
  bottom: "layer_512_1_conv_expand"
  bottom: "layer_512_1_conv2"
  top: "layer_512_1_sum"
}
layer {
  name: "layer_512_2_bn1"
  type: "BatchNorm"
  bottom: "layer_512_1_sum"
  top: "layer_512_2_bn1"
  param {
    lr_mult: 0
    decay_mult: 0
  }
  param {
    lr_mult: 0
    decay_mult: 0
  }
  param {
    lr_mult: 0
    decay_mult: 0
  }
}
layer {
  name: "layer_512_2_scale1"
  type: "Scale"
  bottom: "layer_512_2_bn1"
  top: "layer_512_2_bn1"
  param {
    lr_mult: 1
    decay_mult: 1
  }
  param {
    lr_mult: 2
    decay_mult: 1
  }
  scale_param {
    bias_term: true
  }
}
layer {
  name: "layer_512_2_relu1"
  type: "ReLU"
  bottom: "layer_512_2_bn1"
  top: "layer_512_2_bn1"
}
layer {
  name: "layer_512_2_conv1"
  type: "Convolution"
  bottom: "layer_512_2_bn1"
  top: "layer_512_2_conv1"
  param {
    lr_mult: 1
    decay_mult: 1
  }
  convolution_param {
    num_output: 512
    bias_term: false
    pad: 1
    kernel_size: 3
    stride: 1
    weight_filler {
      type: "msra"
    }
    bias_filler {
      type: "constant"
      value: 0
    }
  }
}
layer {
  name: "layer_512_2_bn2"
  type: "BatchNorm"
  bottom: "layer_512_2_conv1"
  top: "layer_512_2_conv1"
  param {
    lr_mult: 0
    decay_mult: 0
  }
  param {
    lr_mult: 0
    decay_mult: 0
  }
  param {
    lr_mult: 0
    decay_mult: 0
  }
}
layer {
  name: "layer_512_2_scale2"
  type: "Scale"
  bottom: "layer_512_2_conv1"
  top: "layer_512_2_conv1"
  param {
    lr_mult: 1
    decay_mult: 1
  }
  param {
    lr_mult: 2
    decay_mult: 1
  }
  scale_param {
    bias_term: true
  }
}
layer {
  name: "layer_512_2_relu2"
  type: "ReLU"
  bottom: "layer_512_2_conv1"
  top: "layer_512_2_conv1"
}
layer {
  name: "layer_512_2_conv2"
  type: "Convolution"
  bottom: "layer_512_2_conv1"
  top: "layer_512_2_conv2"
  param {
    lr_mult: 1
    decay_mult: 1
  }
  convolution_param {
    num_output: 512
    bias_term: false
    pad: 1
    kernel_size: 3
    stride: 1
    weight_filler {
      type: "msra"
    }
    bias_filler {
      type: "constant"
      value: 0
    }
  }
}
layer {
  name: "layer_512_2_sum"
  type: "Eltwise"
  bottom: "layer_512_2_conv2"
  bottom: "layer_512_1_sum"
  top: "layer_512_2_sum"
}
layer {
  name: "last_bn"
  type: "BatchNorm"
  bottom: "layer_512_2_sum"
  top: "layer_512_2_sum"
  param {
    lr_mult: 0
    decay_mult: 0
  }
  param {
    lr_mult: 0
    decay_mult: 0
  }
  param {
    lr_mult: 0
    decay_mult: 0
  }
}
layer {
  name: "last_scale"
  type: "Scale"
  bottom: "layer_512_2_sum"
  top: "layer_512_2_sum"
  param {
    lr_mult: 1
    decay_mult: 1
  }
  param {
    lr_mult: 2
    decay_mult: 1
  }
  scale_param {
    bias_term: true
  }
}
layer {
  name: "last_relu"
  type: "ReLU"
  bottom: "layer_512_2_sum"
  top: "layer_512_2_sum"
}
layer {
  name: "global_pool"
  type: "Pooling"
  bottom: "layer_512_2_sum"
  top: "global_pool"
  pooling_param {
    pool: AVE
    global_pooling: true
  }
}
layer {
  name: "score"
  type: "InnerProduct"
  bottom: "global_pool"
  top: "score"
  param {
    lr_mult: 1
    decay_mult: 1
  }
  param {
    lr_mult: 2
    decay_mult: 1
  }
  inner_product_param {
    num_output: 8
  }
}
layer {
  name: "loss"
  type: "SoftmaxWithLoss"
  bottom: "score"
  bottom: "label"
  top: "loss"
}
layer {
  name: "accuracy"
  type: "Accuracy"
  bottom: "score"
  bottom: "label"
  top: "accuracy"
  include {
    phase: TEST
  }
}
I0529 19:53:16.110883 26782 layer_factory.hpp:77] Creating layer data
I0529 19:53:16.110962 26782 db_lmdb.cpp:35] Opened lmdb /home/k/PycharmProjects/AgeGenderDeepLearning-master/Folds/lmdb/Test_fold_is_0/age_val_lmdb
I0529 19:53:16.110985 26782 net.cpp:84] Creating Layer data
I0529 19:53:16.110996 26782 net.cpp:380] data -> data
I0529 19:53:16.111008 26782 net.cpp:380] data -> label
I0529 19:53:16.111019 26782 data_transformer.cpp:25] Loading mean file from: /home/k/PycharmProjects/AgeGenderDeepLearning-master/Folds/lmdb/Test_fold_is_0/mean.binaryproto
I0529 19:53:16.112349 26782 data_layer.cpp:45] output data size: 50,3,224,224
I0529 19:53:16.178480 26782 net.cpp:122] Setting up data
I0529 19:53:16.178521 26782 net.cpp:129] Top shape: 50 3 224 224 (7526400)
I0529 19:53:16.178530 26782 net.cpp:129] Top shape: 50 (50)
I0529 19:53:16.178535 26782 net.cpp:137] Memory required for data: 30105800
I0529 19:53:16.178544 26782 layer_factory.hpp:77] Creating layer label_data_1_split
I0529 19:53:16.178565 26782 net.cpp:84] Creating Layer label_data_1_split
I0529 19:53:16.178571 26782 net.cpp:406] label_data_1_split <- label
I0529 19:53:16.178583 26782 net.cpp:380] label_data_1_split -> label_data_1_split_0
I0529 19:53:16.178601 26782 net.cpp:380] label_data_1_split -> label_data_1_split_1
I0529 19:53:16.178668 26782 net.cpp:122] Setting up label_data_1_split
I0529 19:53:16.178679 26782 net.cpp:129] Top shape: 50 (50)
I0529 19:53:16.178688 26782 net.cpp:129] Top shape: 50 (50)
I0529 19:53:16.178694 26782 net.cpp:137] Memory required for data: 30106200
I0529 19:53:16.178701 26782 layer_factory.hpp:77] Creating layer data_bn
I0529 19:53:16.178715 26782 net.cpp:84] Creating Layer data_bn
I0529 19:53:16.178722 26782 net.cpp:406] data_bn <- data
I0529 19:53:16.178731 26782 net.cpp:380] data_bn -> data_bn
I0529 19:53:16.178962 26782 net.cpp:122] Setting up data_bn
I0529 19:53:16.178974 26782 net.cpp:129] Top shape: 50 3 224 224 (7526400)
I0529 19:53:16.178980 26782 net.cpp:137] Memory required for data: 60211800
I0529 19:53:16.179000 26782 layer_factory.hpp:77] Creating layer data_scale
I0529 19:53:16.179011 26782 net.cpp:84] Creating Layer data_scale
I0529 19:53:16.179019 26782 net.cpp:406] data_scale <- data_bn
I0529 19:53:16.179028 26782 net.cpp:367] data_scale -> data_bn (in-place)
I0529 19:53:16.179077 26782 layer_factory.hpp:77] Creating layer data_scale
I0529 19:53:16.179283 26782 net.cpp:122] Setting up data_scale
I0529 19:53:16.179296 26782 net.cpp:129] Top shape: 50 3 224 224 (7526400)
I0529 19:53:16.179302 26782 net.cpp:137] Memory required for data: 90317400
I0529 19:53:16.179316 26782 layer_factory.hpp:77] Creating layer conv1
I0529 19:53:16.179333 26782 net.cpp:84] Creating Layer conv1
I0529 19:53:16.179340 26782 net.cpp:406] conv1 <- data_bn
I0529 19:53:16.179350 26782 net.cpp:380] conv1 -> conv1
I0529 19:53:16.185250 26782 net.cpp:122] Setting up conv1
I0529 19:53:16.185269 26782 net.cpp:129] Top shape: 50 64 112 112 (40140800)
I0529 19:53:16.185276 26782 net.cpp:137] Memory required for data: 250880600
I0529 19:53:16.185288 26782 layer_factory.hpp:77] Creating layer conv1_bn
I0529 19:53:16.185302 26782 net.cpp:84] Creating Layer conv1_bn
I0529 19:53:16.185310 26782 net.cpp:406] conv1_bn <- conv1
I0529 19:53:16.185322 26782 net.cpp:367] conv1_bn -> conv1 (in-place)
I0529 19:53:16.185498 26782 net.cpp:122] Setting up conv1_bn
I0529 19:53:16.185510 26782 net.cpp:129] Top shape: 50 64 112 112 (40140800)
I0529 19:53:16.185518 26782 net.cpp:137] Memory required for data: 411443800
I0529 19:53:16.185536 26782 layer_factory.hpp:77] Creating layer conv1_scale
I0529 19:53:16.185547 26782 net.cpp:84] Creating Layer conv1_scale
I0529 19:53:16.185554 26782 net.cpp:406] conv1_scale <- conv1
I0529 19:53:16.185578 26782 net.cpp:367] conv1_scale -> conv1 (in-place)
I0529 19:53:16.185629 26782 layer_factory.hpp:77] Creating layer conv1_scale
I0529 19:53:16.185752 26782 net.cpp:122] Setting up conv1_scale
I0529 19:53:16.185765 26782 net.cpp:129] Top shape: 50 64 112 112 (40140800)
I0529 19:53:16.185770 26782 net.cpp:137] Memory required for data: 572007000
I0529 19:53:16.185782 26782 layer_factory.hpp:77] Creating layer conv1_relu
I0529 19:53:16.185792 26782 net.cpp:84] Creating Layer conv1_relu
I0529 19:53:16.185801 26782 net.cpp:406] conv1_relu <- conv1
I0529 19:53:16.185811 26782 net.cpp:367] conv1_relu -> conv1 (in-place)
I0529 19:53:16.185961 26782 net.cpp:122] Setting up conv1_relu
I0529 19:53:16.185971 26782 net.cpp:129] Top shape: 50 64 112 112 (40140800)
I0529 19:53:16.185977 26782 net.cpp:137] Memory required for data: 732570200
I0529 19:53:16.185984 26782 layer_factory.hpp:77] Creating layer conv1_pool
I0529 19:53:16.185997 26782 net.cpp:84] Creating Layer conv1_pool
I0529 19:53:16.186003 26782 net.cpp:406] conv1_pool <- conv1
I0529 19:53:16.186013 26782 net.cpp:380] conv1_pool -> conv1_pool
I0529 19:53:16.186058 26782 net.cpp:122] Setting up conv1_pool
I0529 19:53:16.186069 26782 net.cpp:129] Top shape: 50 64 56 56 (10035200)
I0529 19:53:16.186074 26782 net.cpp:137] Memory required for data: 772711000
I0529 19:53:16.186080 26782 layer_factory.hpp:77] Creating layer conv1_pool_conv1_pool_0_split
I0529 19:53:16.186091 26782 net.cpp:84] Creating Layer conv1_pool_conv1_pool_0_split
I0529 19:53:16.186100 26782 net.cpp:406] conv1_pool_conv1_pool_0_split <- conv1_pool
I0529 19:53:16.186110 26782 net.cpp:380] conv1_pool_conv1_pool_0_split -> conv1_pool_conv1_pool_0_split_0
I0529 19:53:16.186121 26782 net.cpp:380] conv1_pool_conv1_pool_0_split -> conv1_pool_conv1_pool_0_split_1
I0529 19:53:16.186162 26782 net.cpp:122] Setting up conv1_pool_conv1_pool_0_split
I0529 19:53:16.186173 26782 net.cpp:129] Top shape: 50 64 56 56 (10035200)
I0529 19:53:16.186182 26782 net.cpp:129] Top shape: 50 64 56 56 (10035200)
I0529 19:53:16.186189 26782 net.cpp:137] Memory required for data: 852992600
I0529 19:53:16.186199 26782 layer_factory.hpp:77] Creating layer layer_64_1_conv1
I0529 19:53:16.186216 26782 net.cpp:84] Creating Layer layer_64_1_conv1
I0529 19:53:16.186223 26782 net.cpp:406] layer_64_1_conv1 <- conv1_pool_conv1_pool_0_split_0
I0529 19:53:16.186235 26782 net.cpp:380] layer_64_1_conv1 -> layer_64_1_conv1
I0529 19:53:16.187839 26782 net.cpp:122] Setting up layer_64_1_conv1
I0529 19:53:16.187868 26782 net.cpp:129] Top shape: 50 64 56 56 (10035200)
I0529 19:53:16.187875 26782 net.cpp:137] Memory required for data: 893133400
I0529 19:53:16.187886 26782 layer_factory.hpp:77] Creating layer layer_64_1_bn2
I0529 19:53:16.187901 26782 net.cpp:84] Creating Layer layer_64_1_bn2
I0529 19:53:16.187911 26782 net.cpp:406] layer_64_1_bn2 <- layer_64_1_conv1
I0529 19:53:16.187925 26782 net.cpp:367] layer_64_1_bn2 -> layer_64_1_conv1 (in-place)
I0529 19:53:16.188127 26782 net.cpp:122] Setting up layer_64_1_bn2
I0529 19:53:16.188139 26782 net.cpp:129] Top shape: 50 64 56 56 (10035200)
I0529 19:53:16.188146 26782 net.cpp:137] Memory required for data: 933274200
I0529 19:53:16.188160 26782 layer_factory.hpp:77] Creating layer layer_64_1_scale2
I0529 19:53:16.188174 26782 net.cpp:84] Creating Layer layer_64_1_scale2
I0529 19:53:16.188181 26782 net.cpp:406] layer_64_1_scale2 <- layer_64_1_conv1
I0529 19:53:16.188190 26782 net.cpp:367] layer_64_1_scale2 -> layer_64_1_conv1 (in-place)
I0529 19:53:16.188248 26782 layer_factory.hpp:77] Creating layer layer_64_1_scale2
I0529 19:53:16.188369 26782 net.cpp:122] Setting up layer_64_1_scale2
I0529 19:53:16.188381 26782 net.cpp:129] Top shape: 50 64 56 56 (10035200)
I0529 19:53:16.188387 26782 net.cpp:137] Memory required for data: 973415000
I0529 19:53:16.188405 26782 layer_factory.hpp:77] Creating layer layer_64_1_relu2
I0529 19:53:16.188418 26782 net.cpp:84] Creating Layer layer_64_1_relu2
I0529 19:53:16.188426 26782 net.cpp:406] layer_64_1_relu2 <- layer_64_1_conv1
I0529 19:53:16.188460 26782 net.cpp:367] layer_64_1_relu2 -> layer_64_1_conv1 (in-place)
I0529 19:53:16.189430 26782 net.cpp:122] Setting up layer_64_1_relu2
I0529 19:53:16.189466 26782 net.cpp:129] Top shape: 50 64 56 56 (10035200)
I0529 19:53:16.189472 26782 net.cpp:137] Memory required for data: 1013555800
I0529 19:53:16.189479 26782 layer_factory.hpp:77] Creating layer layer_64_1_conv2
I0529 19:53:16.189502 26782 net.cpp:84] Creating Layer layer_64_1_conv2
I0529 19:53:16.189512 26782 net.cpp:406] layer_64_1_conv2 <- layer_64_1_conv1
I0529 19:53:16.189528 26782 net.cpp:380] layer_64_1_conv2 -> layer_64_1_conv2
I0529 19:53:16.192863 26782 net.cpp:122] Setting up layer_64_1_conv2
I0529 19:53:16.192893 26782 net.cpp:129] Top shape: 50 64 56 56 (10035200)
I0529 19:53:16.192899 26782 net.cpp:137] Memory required for data: 1053696600
I0529 19:53:16.192912 26782 layer_factory.hpp:77] Creating layer layer_64_1_sum
I0529 19:53:16.192936 26782 net.cpp:84] Creating Layer layer_64_1_sum
I0529 19:53:16.192945 26782 net.cpp:406] layer_64_1_sum <- layer_64_1_conv2
I0529 19:53:16.192956 26782 net.cpp:406] layer_64_1_sum <- conv1_pool_conv1_pool_0_split_1
I0529 19:53:16.192970 26782 net.cpp:380] layer_64_1_sum -> layer_64_1_sum
I0529 19:53:16.193009 26782 net.cpp:122] Setting up layer_64_1_sum
I0529 19:53:16.193020 26782 net.cpp:129] Top shape: 50 64 56 56 (10035200)
I0529 19:53:16.193027 26782 net.cpp:137] Memory required for data: 1093837400
I0529 19:53:16.193033 26782 layer_factory.hpp:77] Creating layer layer_64_1_sum_layer_64_1_sum_0_split
I0529 19:53:16.193048 26782 net.cpp:84] Creating Layer layer_64_1_sum_layer_64_1_sum_0_split
I0529 19:53:16.193054 26782 net.cpp:406] layer_64_1_sum_layer_64_1_sum_0_split <- layer_64_1_sum
I0529 19:53:16.193065 26782 net.cpp:380] layer_64_1_sum_layer_64_1_sum_0_split -> layer_64_1_sum_layer_64_1_sum_0_split_0
I0529 19:53:16.193078 26782 net.cpp:380] layer_64_1_sum_layer_64_1_sum_0_split -> layer_64_1_sum_layer_64_1_sum_0_split_1
I0529 19:53:16.193120 26782 net.cpp:122] Setting up layer_64_1_sum_layer_64_1_sum_0_split
I0529 19:53:16.193130 26782 net.cpp:129] Top shape: 50 64 56 56 (10035200)
I0529 19:53:16.193138 26782 net.cpp:129] Top shape: 50 64 56 56 (10035200)
I0529 19:53:16.193145 26782 net.cpp:137] Memory required for data: 1174119000
I0529 19:53:16.193151 26782 layer_factory.hpp:77] Creating layer layer_64_2_bn1
I0529 19:53:16.193162 26782 net.cpp:84] Creating Layer layer_64_2_bn1
I0529 19:53:16.193169 26782 net.cpp:406] layer_64_2_bn1 <- layer_64_1_sum_layer_64_1_sum_0_split_0
I0529 19:53:16.193179 26782 net.cpp:380] layer_64_2_bn1 -> layer_64_2_bn1
I0529 19:53:16.193380 26782 net.cpp:122] Setting up layer_64_2_bn1
I0529 19:53:16.193392 26782 net.cpp:129] Top shape: 50 64 56 56 (10035200)
I0529 19:53:16.193398 26782 net.cpp:137] Memory required for data: 1214259800
I0529 19:53:16.193413 26782 layer_factory.hpp:77] Creating layer layer_64_2_scale1
I0529 19:53:16.193426 26782 net.cpp:84] Creating Layer layer_64_2_scale1
I0529 19:53:16.193434 26782 net.cpp:406] layer_64_2_scale1 <- layer_64_2_bn1
I0529 19:53:16.193444 26782 net.cpp:367] layer_64_2_scale1 -> layer_64_2_bn1 (in-place)
I0529 19:53:16.193498 26782 layer_factory.hpp:77] Creating layer layer_64_2_scale1
I0529 19:53:16.193614 26782 net.cpp:122] Setting up layer_64_2_scale1
I0529 19:53:16.193626 26782 net.cpp:129] Top shape: 50 64 56 56 (10035200)
I0529 19:53:16.193632 26782 net.cpp:137] Memory required for data: 1254400600
I0529 19:53:16.193644 26782 layer_factory.hpp:77] Creating layer layer_64_2_relu1
I0529 19:53:16.193655 26782 net.cpp:84] Creating Layer layer_64_2_relu1
I0529 19:53:16.193662 26782 net.cpp:406] layer_64_2_relu1 <- layer_64_2_bn1
I0529 19:53:16.193671 26782 net.cpp:367] layer_64_2_relu1 -> layer_64_2_bn1 (in-place)
I0529 19:53:16.193845 26782 net.cpp:122] Setting up layer_64_2_relu1
I0529 19:53:16.193857 26782 net.cpp:129] Top shape: 50 64 56 56 (10035200)
I0529 19:53:16.193863 26782 net.cpp:137] Memory required for data: 1294541400
I0529 19:53:16.193869 26782 layer_factory.hpp:77] Creating layer layer_64_2_conv1
I0529 19:53:16.193907 26782 net.cpp:84] Creating Layer layer_64_2_conv1
I0529 19:53:16.193915 26782 net.cpp:406] layer_64_2_conv1 <- layer_64_2_bn1
I0529 19:53:16.193927 26782 net.cpp:380] layer_64_2_conv1 -> layer_64_2_conv1
I0529 19:53:16.195616 26782 net.cpp:122] Setting up layer_64_2_conv1
I0529 19:53:16.195642 26782 net.cpp:129] Top shape: 50 64 56 56 (10035200)
I0529 19:53:16.195649 26782 net.cpp:137] Memory required for data: 1334682200
I0529 19:53:16.195663 26782 layer_factory.hpp:77] Creating layer layer_64_2_bn2
I0529 19:53:16.195678 26782 net.cpp:84] Creating Layer layer_64_2_bn2
I0529 19:53:16.195688 26782 net.cpp:406] layer_64_2_bn2 <- layer_64_2_conv1
I0529 19:53:16.195701 26782 net.cpp:367] layer_64_2_bn2 -> layer_64_2_conv1 (in-place)
I0529 19:53:16.195891 26782 net.cpp:122] Setting up layer_64_2_bn2
I0529 19:53:16.195904 26782 net.cpp:129] Top shape: 50 64 56 56 (10035200)
I0529 19:53:16.195909 26782 net.cpp:137] Memory required for data: 1374823000
I0529 19:53:16.195924 26782 layer_factory.hpp:77] Creating layer layer_64_2_scale2
I0529 19:53:16.195937 26782 net.cpp:84] Creating Layer layer_64_2_scale2
I0529 19:53:16.195945 26782 net.cpp:406] layer_64_2_scale2 <- layer_64_2_conv1
I0529 19:53:16.195955 26782 net.cpp:367] layer_64_2_scale2 -> layer_64_2_conv1 (in-place)
I0529 19:53:16.196008 26782 layer_factory.hpp:77] Creating layer layer_64_2_scale2
I0529 19:53:16.196128 26782 net.cpp:122] Setting up layer_64_2_scale2
I0529 19:53:16.196141 26782 net.cpp:129] Top shape: 50 64 56 56 (10035200)
I0529 19:53:16.196146 26782 net.cpp:137] Memory required for data: 1414963800
I0529 19:53:16.196157 26782 layer_factory.hpp:77] Creating layer layer_64_2_relu2
I0529 19:53:16.196168 26782 net.cpp:84] Creating Layer layer_64_2_relu2
I0529 19:53:16.196177 26782 net.cpp:406] layer_64_2_relu2 <- layer_64_2_conv1
I0529 19:53:16.196187 26782 net.cpp:367] layer_64_2_relu2 -> layer_64_2_conv1 (in-place)
I0529 19:53:16.196337 26782 net.cpp:122] Setting up layer_64_2_relu2
I0529 19:53:16.196351 26782 net.cpp:129] Top shape: 50 64 56 56 (10035200)
I0529 19:53:16.196357 26782 net.cpp:137] Memory required for data: 1455104600
I0529 19:53:16.196362 26782 layer_factory.hpp:77] Creating layer layer_64_2_conv2
I0529 19:53:16.196382 26782 net.cpp:84] Creating Layer layer_64_2_conv2
I0529 19:53:16.196388 26782 net.cpp:406] layer_64_2_conv2 <- layer_64_2_conv1
I0529 19:53:16.196399 26782 net.cpp:380] layer_64_2_conv2 -> layer_64_2_conv2
I0529 19:53:16.198112 26782 net.cpp:122] Setting up layer_64_2_conv2
I0529 19:53:16.198145 26782 net.cpp:129] Top shape: 50 64 56 56 (10035200)
I0529 19:53:16.198151 26782 net.cpp:137] Memory required for data: 1495245400
I0529 19:53:16.198165 26782 layer_factory.hpp:77] Creating layer layer_64_2_sum
I0529 19:53:16.198179 26782 net.cpp:84] Creating Layer layer_64_2_sum
I0529 19:53:16.198185 26782 net.cpp:406] layer_64_2_sum <- layer_64_2_conv2
I0529 19:53:16.198197 26782 net.cpp:406] layer_64_2_sum <- layer_64_1_sum_layer_64_1_sum_0_split_1
I0529 19:53:16.198210 26782 net.cpp:380] layer_64_2_sum -> layer_64_2_sum
I0529 19:53:16.198247 26782 net.cpp:122] Setting up layer_64_2_sum
I0529 19:53:16.198258 26782 net.cpp:129] Top shape: 50 64 56 56 (10035200)
I0529 19:53:16.198264 26782 net.cpp:137] Memory required for data: 1535386200
I0529 19:53:16.198271 26782 layer_factory.hpp:77] Creating layer layer_128_1_bn1
I0529 19:53:16.198283 26782 net.cpp:84] Creating Layer layer_128_1_bn1
I0529 19:53:16.198290 26782 net.cpp:406] layer_128_1_bn1 <- layer_64_2_sum
I0529 19:53:16.198300 26782 net.cpp:380] layer_128_1_bn1 -> layer_128_1_bn1
I0529 19:53:16.198504 26782 net.cpp:122] Setting up layer_128_1_bn1
I0529 19:53:16.198518 26782 net.cpp:129] Top shape: 50 64 56 56 (10035200)
I0529 19:53:16.198524 26782 net.cpp:137] Memory required for data: 1575527000
I0529 19:53:16.198545 26782 layer_factory.hpp:77] Creating layer layer_128_1_scale1
I0529 19:53:16.198585 26782 net.cpp:84] Creating Layer layer_128_1_scale1
I0529 19:53:16.198592 26782 net.cpp:406] layer_128_1_scale1 <- layer_128_1_bn1
I0529 19:53:16.198603 26782 net.cpp:367] layer_128_1_scale1 -> layer_128_1_bn1 (in-place)
I0529 19:53:16.198673 26782 layer_factory.hpp:77] Creating layer layer_128_1_scale1
I0529 19:53:16.198793 26782 net.cpp:122] Setting up layer_128_1_scale1
I0529 19:53:16.198806 26782 net.cpp:129] Top shape: 50 64 56 56 (10035200)
I0529 19:53:16.198812 26782 net.cpp:137] Memory required for data: 1615667800
I0529 19:53:16.198823 26782 layer_factory.hpp:77] Creating layer layer_128_1_relu1
I0529 19:53:16.198834 26782 net.cpp:84] Creating Layer layer_128_1_relu1
I0529 19:53:16.198843 26782 net.cpp:406] layer_128_1_relu1 <- layer_128_1_bn1
I0529 19:53:16.198851 26782 net.cpp:367] layer_128_1_relu1 -> layer_128_1_bn1 (in-place)
I0529 19:53:16.199018 26782 net.cpp:122] Setting up layer_128_1_relu1
I0529 19:53:16.199029 26782 net.cpp:129] Top shape: 50 64 56 56 (10035200)
I0529 19:53:16.199036 26782 net.cpp:137] Memory required for data: 1655808600
I0529 19:53:16.199043 26782 layer_factory.hpp:77] Creating layer layer_128_1_bn1_layer_128_1_relu1_0_split
I0529 19:53:16.199051 26782 net.cpp:84] Creating Layer layer_128_1_bn1_layer_128_1_relu1_0_split
I0529 19:53:16.199059 26782 net.cpp:406] layer_128_1_bn1_layer_128_1_relu1_0_split <- layer_128_1_bn1
I0529 19:53:16.199070 26782 net.cpp:380] layer_128_1_bn1_layer_128_1_relu1_0_split -> layer_128_1_bn1_layer_128_1_relu1_0_split_0
I0529 19:53:16.199084 26782 net.cpp:380] layer_128_1_bn1_layer_128_1_relu1_0_split -> layer_128_1_bn1_layer_128_1_relu1_0_split_1
I0529 19:53:16.199129 26782 net.cpp:122] Setting up layer_128_1_bn1_layer_128_1_relu1_0_split
I0529 19:53:16.199141 26782 net.cpp:129] Top shape: 50 64 56 56 (10035200)
I0529 19:53:16.199148 26782 net.cpp:129] Top shape: 50 64 56 56 (10035200)
I0529 19:53:16.199156 26782 net.cpp:137] Memory required for data: 1736090200
I0529 19:53:16.199162 26782 layer_factory.hpp:77] Creating layer layer_128_1_conv1
I0529 19:53:16.199178 26782 net.cpp:84] Creating Layer layer_128_1_conv1
I0529 19:53:16.199184 26782 net.cpp:406] layer_128_1_conv1 <- layer_128_1_bn1_layer_128_1_relu1_0_split_0
I0529 19:53:16.199195 26782 net.cpp:380] layer_128_1_conv1 -> layer_128_1_conv1
I0529 19:53:16.201503 26782 net.cpp:122] Setting up layer_128_1_conv1
I0529 19:53:16.201553 26782 net.cpp:129] Top shape: 50 128 28 28 (5017600)
I0529 19:53:16.201560 26782 net.cpp:137] Memory required for data: 1756160600
I0529 19:53:16.201576 26782 layer_factory.hpp:77] Creating layer layer_128_1_bn2
I0529 19:53:16.201594 26782 net.cpp:84] Creating Layer layer_128_1_bn2
I0529 19:53:16.201606 26782 net.cpp:406] layer_128_1_bn2 <- layer_128_1_conv1
I0529 19:53:16.201622 26782 net.cpp:367] layer_128_1_bn2 -> layer_128_1_conv1 (in-place)
I0529 19:53:16.201822 26782 net.cpp:122] Setting up layer_128_1_bn2
I0529 19:53:16.201834 26782 net.cpp:129] Top shape: 50 128 28 28 (5017600)
I0529 19:53:16.201840 26782 net.cpp:137] Memory required for data: 1776231000
I0529 19:53:16.201856 26782 layer_factory.hpp:77] Creating layer layer_128_1_scale2
I0529 19:53:16.201877 26782 net.cpp:84] Creating Layer layer_128_1_scale2
I0529 19:53:16.201884 26782 net.cpp:406] layer_128_1_scale2 <- layer_128_1_conv1
I0529 19:53:16.201894 26782 net.cpp:367] layer_128_1_scale2 -> layer_128_1_conv1 (in-place)
I0529 19:53:16.201956 26782 layer_factory.hpp:77] Creating layer layer_128_1_scale2
I0529 19:53:16.202071 26782 net.cpp:122] Setting up layer_128_1_scale2
I0529 19:53:16.202085 26782 net.cpp:129] Top shape: 50 128 28 28 (5017600)
I0529 19:53:16.202091 26782 net.cpp:137] Memory required for data: 1796301400
I0529 19:53:16.202103 26782 layer_factory.hpp:77] Creating layer layer_128_1_relu2
I0529 19:53:16.202117 26782 net.cpp:84] Creating Layer layer_128_1_relu2
I0529 19:53:16.202126 26782 net.cpp:406] layer_128_1_relu2 <- layer_128_1_conv1
I0529 19:53:16.202136 26782 net.cpp:367] layer_128_1_relu2 -> layer_128_1_conv1 (in-place)
I0529 19:53:16.202404 26782 net.cpp:122] Setting up layer_128_1_relu2
I0529 19:53:16.202419 26782 net.cpp:129] Top shape: 50 128 28 28 (5017600)
I0529 19:53:16.202425 26782 net.cpp:137] Memory required for data: 1816371800
I0529 19:53:16.202451 26782 layer_factory.hpp:77] Creating layer layer_128_1_conv2
I0529 19:53:16.202471 26782 net.cpp:84] Creating Layer layer_128_1_conv2
I0529 19:53:16.202478 26782 net.cpp:406] layer_128_1_conv2 <- layer_128_1_conv1
I0529 19:53:16.202491 26782 net.cpp:380] layer_128_1_conv2 -> layer_128_1_conv2
I0529 19:53:16.214527 26782 net.cpp:122] Setting up layer_128_1_conv2
I0529 19:53:16.214579 26782 net.cpp:129] Top shape: 50 128 28 28 (5017600)
I0529 19:53:16.214586 26782 net.cpp:137] Memory required for data: 1836442200
I0529 19:53:16.214602 26782 layer_factory.hpp:77] Creating layer layer_128_1_conv_expand
I0529 19:53:16.214627 26782 net.cpp:84] Creating Layer layer_128_1_conv_expand
I0529 19:53:16.214634 26782 net.cpp:406] layer_128_1_conv_expand <- layer_128_1_bn1_layer_128_1_relu1_0_split_1
I0529 19:53:16.214648 26782 net.cpp:380] layer_128_1_conv_expand -> layer_128_1_conv_expand
I0529 19:53:16.216742 26782 net.cpp:122] Setting up layer_128_1_conv_expand
I0529 19:53:16.216787 26782 net.cpp:129] Top shape: 50 128 28 28 (5017600)
I0529 19:53:16.216794 26782 net.cpp:137] Memory required for data: 1856512600
I0529 19:53:16.216809 26782 layer_factory.hpp:77] Creating layer layer_128_1_sum
I0529 19:53:16.216822 26782 net.cpp:84] Creating Layer layer_128_1_sum
I0529 19:53:16.216830 26782 net.cpp:406] layer_128_1_sum <- layer_128_1_conv_expand
I0529 19:53:16.216840 26782 net.cpp:406] layer_128_1_sum <- layer_128_1_conv2
I0529 19:53:16.216848 26782 net.cpp:380] layer_128_1_sum -> layer_128_1_sum
I0529 19:53:16.216895 26782 net.cpp:122] Setting up layer_128_1_sum
I0529 19:53:16.216907 26782 net.cpp:129] Top shape: 50 128 28 28 (5017600)
I0529 19:53:16.216912 26782 net.cpp:137] Memory required for data: 1876583000
I0529 19:53:16.216964 26782 layer_factory.hpp:77] Creating layer layer_128_1_sum_layer_128_1_sum_0_split
I0529 19:53:16.216976 26782 net.cpp:84] Creating Layer layer_128_1_sum_layer_128_1_sum_0_split
I0529 19:53:16.216982 26782 net.cpp:406] layer_128_1_sum_layer_128_1_sum_0_split <- layer_128_1_sum
I0529 19:53:16.216991 26782 net.cpp:380] layer_128_1_sum_layer_128_1_sum_0_split -> layer_128_1_sum_layer_128_1_sum_0_split_0
I0529 19:53:16.217002 26782 net.cpp:380] layer_128_1_sum_layer_128_1_sum_0_split -> layer_128_1_sum_layer_128_1_sum_0_split_1
I0529 19:53:16.217059 26782 net.cpp:122] Setting up layer_128_1_sum_layer_128_1_sum_0_split
I0529 19:53:16.217070 26782 net.cpp:129] Top shape: 50 128 28 28 (5017600)
I0529 19:53:16.217079 26782 net.cpp:129] Top shape: 50 128 28 28 (5017600)
I0529 19:53:16.217084 26782 net.cpp:137] Memory required for data: 1916723800
I0529 19:53:16.217090 26782 layer_factory.hpp:77] Creating layer layer_128_2_bn1
I0529 19:53:16.217102 26782 net.cpp:84] Creating Layer layer_128_2_bn1
I0529 19:53:16.217108 26782 net.cpp:406] layer_128_2_bn1 <- layer_128_1_sum_layer_128_1_sum_0_split_0
I0529 19:53:16.217116 26782 net.cpp:380] layer_128_2_bn1 -> layer_128_2_bn1
I0529 19:53:16.217403 26782 net.cpp:122] Setting up layer_128_2_bn1
I0529 19:53:16.217424 26782 net.cpp:129] Top shape: 50 128 28 28 (5017600)
I0529 19:53:16.217429 26782 net.cpp:137] Memory required for data: 1936794200
I0529 19:53:16.217448 26782 layer_factory.hpp:77] Creating layer layer_128_2_scale1
I0529 19:53:16.217463 26782 net.cpp:84] Creating Layer layer_128_2_scale1
I0529 19:53:16.217491 26782 net.cpp:406] layer_128_2_scale1 <- layer_128_2_bn1
I0529 19:53:16.217504 26782 net.cpp:367] layer_128_2_scale1 -> layer_128_2_bn1 (in-place)
I0529 19:53:16.217583 26782 layer_factory.hpp:77] Creating layer layer_128_2_scale1
I0529 19:53:16.217734 26782 net.cpp:122] Setting up layer_128_2_scale1
I0529 19:53:16.217747 26782 net.cpp:129] Top shape: 50 128 28 28 (5017600)
I0529 19:53:16.217752 26782 net.cpp:137] Memory required for data: 1956864600
I0529 19:53:16.217762 26782 layer_factory.hpp:77] Creating layer layer_128_2_relu1
I0529 19:53:16.217772 26782 net.cpp:84] Creating Layer layer_128_2_relu1
I0529 19:53:16.217778 26782 net.cpp:406] layer_128_2_relu1 <- layer_128_2_bn1
I0529 19:53:16.217815 26782 net.cpp:367] layer_128_2_relu1 -> layer_128_2_bn1 (in-place)
I0529 19:53:16.218106 26782 net.cpp:122] Setting up layer_128_2_relu1
I0529 19:53:16.218119 26782 net.cpp:129] Top shape: 50 128 28 28 (5017600)
I0529 19:53:16.218125 26782 net.cpp:137] Memory required for data: 1976935000
I0529 19:53:16.218130 26782 layer_factory.hpp:77] Creating layer layer_128_2_conv1
I0529 19:53:16.218145 26782 net.cpp:84] Creating Layer layer_128_2_conv1
I0529 19:53:16.218152 26782 net.cpp:406] layer_128_2_conv1 <- layer_128_2_bn1
I0529 19:53:16.218160 26782 net.cpp:380] layer_128_2_conv1 -> layer_128_2_conv1
I0529 19:53:16.223111 26782 net.cpp:122] Setting up layer_128_2_conv1
I0529 19:53:16.223151 26782 net.cpp:129] Top shape: 50 128 28 28 (5017600)
I0529 19:53:16.223157 26782 net.cpp:137] Memory required for data: 1997005400
I0529 19:53:16.223171 26782 layer_factory.hpp:77] Creating layer layer_128_2_bn2
I0529 19:53:16.223186 26782 net.cpp:84] Creating Layer layer_128_2_bn2
I0529 19:53:16.223193 26782 net.cpp:406] layer_128_2_bn2 <- layer_128_2_conv1
I0529 19:53:16.223204 26782 net.cpp:367] layer_128_2_bn2 -> layer_128_2_conv1 (in-place)
I0529 19:53:16.223533 26782 net.cpp:122] Setting up layer_128_2_bn2
I0529 19:53:16.223549 26782 net.cpp:129] Top shape: 50 128 28 28 (5017600)
I0529 19:53:16.223554 26782 net.cpp:137] Memory required for data: 2017075800
I0529 19:53:16.223568 26782 layer_factory.hpp:77] Creating layer layer_128_2_scale2
I0529 19:53:16.223579 26782 net.cpp:84] Creating Layer layer_128_2_scale2
I0529 19:53:16.223587 26782 net.cpp:406] layer_128_2_scale2 <- layer_128_2_conv1
I0529 19:53:16.223594 26782 net.cpp:367] layer_128_2_scale2 -> layer_128_2_conv1 (in-place)
I0529 19:53:16.223692 26782 layer_factory.hpp:77] Creating layer layer_128_2_scale2
I0529 19:53:16.223844 26782 net.cpp:122] Setting up layer_128_2_scale2
I0529 19:53:16.223856 26782 net.cpp:129] Top shape: 50 128 28 28 (5017600)
I0529 19:53:16.223862 26782 net.cpp:137] Memory required for data: 2037146200
I0529 19:53:16.223872 26782 layer_factory.hpp:77] Creating layer layer_128_2_relu2
I0529 19:53:16.223883 26782 net.cpp:84] Creating Layer layer_128_2_relu2
I0529 19:53:16.223892 26782 net.cpp:406] layer_128_2_relu2 <- layer_128_2_conv1
I0529 19:53:16.223901 26782 net.cpp:367] layer_128_2_relu2 -> layer_128_2_conv1 (in-place)
I0529 19:53:16.225101 26782 net.cpp:122] Setting up layer_128_2_relu2
I0529 19:53:16.225136 26782 net.cpp:129] Top shape: 50 128 28 28 (5017600)
I0529 19:53:16.225142 26782 net.cpp:137] Memory required for data: 2057216600
I0529 19:53:16.225149 26782 layer_factory.hpp:77] Creating layer layer_128_2_conv2
I0529 19:53:16.225169 26782 net.cpp:84] Creating Layer layer_128_2_conv2
I0529 19:53:16.225178 26782 net.cpp:406] layer_128_2_conv2 <- layer_128_2_conv1
I0529 19:53:16.225190 26782 net.cpp:380] layer_128_2_conv2 -> layer_128_2_conv2
I0529 19:53:16.229369 26782 net.cpp:122] Setting up layer_128_2_conv2
I0529 19:53:16.229447 26782 net.cpp:129] Top shape: 50 128 28 28 (5017600)
I0529 19:53:16.229470 26782 net.cpp:137] Memory required for data: 2077287000
I0529 19:53:16.229503 26782 layer_factory.hpp:77] Creating layer layer_128_2_sum
I0529 19:53:16.229532 26782 net.cpp:84] Creating Layer layer_128_2_sum
I0529 19:53:16.229553 26782 net.cpp:406] layer_128_2_sum <- layer_128_2_conv2
I0529 19:53:16.229575 26782 net.cpp:406] layer_128_2_sum <- layer_128_1_sum_layer_128_1_sum_0_split_1
I0529 19:53:16.229596 26782 net.cpp:380] layer_128_2_sum -> layer_128_2_sum
I0529 19:53:16.229694 26782 net.cpp:122] Setting up layer_128_2_sum
I0529 19:53:16.229722 26782 net.cpp:129] Top shape: 50 128 28 28 (5017600)
I0529 19:53:16.229742 26782 net.cpp:137] Memory required for data: 2097357400
I0529 19:53:16.229760 26782 layer_factory.hpp:77] Creating layer layer_256_1_bn1
I0529 19:53:16.229781 26782 net.cpp:84] Creating Layer layer_256_1_bn1
I0529 19:53:16.229804 26782 net.cpp:406] layer_256_1_bn1 <- layer_128_2_sum
I0529 19:53:16.229825 26782 net.cpp:380] layer_256_1_bn1 -> layer_256_1_bn1
I0529 19:53:16.230170 26782 net.cpp:122] Setting up layer_256_1_bn1
I0529 19:53:16.230221 26782 net.cpp:129] Top shape: 50 128 28 28 (5017600)
I0529 19:53:16.230252 26782 net.cpp:137] Memory required for data: 2117427800
I0529 19:53:16.230279 26782 layer_factory.hpp:77] Creating layer layer_256_1_scale1
I0529 19:53:16.230300 26782 net.cpp:84] Creating Layer layer_256_1_scale1
I0529 19:53:16.230317 26782 net.cpp:406] layer_256_1_scale1 <- layer_256_1_bn1
I0529 19:53:16.230336 26782 net.cpp:367] layer_256_1_scale1 -> layer_256_1_bn1 (in-place)
I0529 19:53:16.230417 26782 layer_factory.hpp:77] Creating layer layer_256_1_scale1
I0529 19:53:16.230578 26782 net.cpp:122] Setting up layer_256_1_scale1
I0529 19:53:16.230602 26782 net.cpp:129] Top shape: 50 128 28 28 (5017600)
I0529 19:53:16.230617 26782 net.cpp:137] Memory required for data: 2137498200
I0529 19:53:16.230636 26782 layer_factory.hpp:77] Creating layer layer_256_1_relu1
I0529 19:53:16.230655 26782 net.cpp:84] Creating Layer layer_256_1_relu1
I0529 19:53:16.230670 26782 net.cpp:406] layer_256_1_relu1 <- layer_256_1_bn1
I0529 19:53:16.230687 26782 net.cpp:367] layer_256_1_relu1 -> layer_256_1_bn1 (in-place)
I0529 19:53:16.231823 26782 net.cpp:122] Setting up layer_256_1_relu1
I0529 19:53:16.231848 26782 net.cpp:129] Top shape: 50 128 28 28 (5017600)
I0529 19:53:16.231853 26782 net.cpp:137] Memory required for data: 2157568600
I0529 19:53:16.231859 26782 layer_factory.hpp:77] Creating layer layer_256_1_bn1_layer_256_1_relu1_0_split
I0529 19:53:16.231870 26782 net.cpp:84] Creating Layer layer_256_1_bn1_layer_256_1_relu1_0_split
I0529 19:53:16.231896 26782 net.cpp:406] layer_256_1_bn1_layer_256_1_relu1_0_split <- layer_256_1_bn1
I0529 19:53:16.231910 26782 net.cpp:380] layer_256_1_bn1_layer_256_1_relu1_0_split -> layer_256_1_bn1_layer_256_1_relu1_0_split_0
I0529 19:53:16.231932 26782 net.cpp:380] layer_256_1_bn1_layer_256_1_relu1_0_split -> layer_256_1_bn1_layer_256_1_relu1_0_split_1
I0529 19:53:16.232007 26782 net.cpp:122] Setting up layer_256_1_bn1_layer_256_1_relu1_0_split
I0529 19:53:16.232018 26782 net.cpp:129] Top shape: 50 128 28 28 (5017600)
I0529 19:53:16.232026 26782 net.cpp:129] Top shape: 50 128 28 28 (5017600)
I0529 19:53:16.232031 26782 net.cpp:137] Memory required for data: 2197709400
I0529 19:53:16.232051 26782 layer_factory.hpp:77] Creating layer layer_256_1_conv1
I0529 19:53:16.232069 26782 net.cpp:84] Creating Layer layer_256_1_conv1
I0529 19:53:16.232076 26782 net.cpp:406] layer_256_1_conv1 <- layer_256_1_bn1_layer_256_1_relu1_0_split_0
I0529 19:53:16.232085 26782 net.cpp:380] layer_256_1_conv1 -> layer_256_1_conv1
I0529 19:53:16.242647 26782 net.cpp:122] Setting up layer_256_1_conv1
I0529 19:53:16.242715 26782 net.cpp:129] Top shape: 50 256 14 14 (2508800)
I0529 19:53:16.242734 26782 net.cpp:137] Memory required for data: 2207744600
I0529 19:53:16.242758 26782 layer_factory.hpp:77] Creating layer layer_256_1_bn2
I0529 19:53:16.242781 26782 net.cpp:84] Creating Layer layer_256_1_bn2
I0529 19:53:16.242799 26782 net.cpp:406] layer_256_1_bn2 <- layer_256_1_conv1
I0529 19:53:16.242821 26782 net.cpp:367] layer_256_1_bn2 -> layer_256_1_conv1 (in-place)
I0529 19:53:16.243090 26782 net.cpp:122] Setting up layer_256_1_bn2
I0529 19:53:16.243115 26782 net.cpp:129] Top shape: 50 256 14 14 (2508800)
I0529 19:53:16.243130 26782 net.cpp:137] Memory required for data: 2217779800
I0529 19:53:16.243162 26782 layer_factory.hpp:77] Creating layer layer_256_1_scale2
I0529 19:53:16.243185 26782 net.cpp:84] Creating Layer layer_256_1_scale2
I0529 19:53:16.243201 26782 net.cpp:406] layer_256_1_scale2 <- layer_256_1_conv1
I0529 19:53:16.243218 26782 net.cpp:367] layer_256_1_scale2 -> layer_256_1_conv1 (in-place)
I0529 19:53:16.243293 26782 layer_factory.hpp:77] Creating layer layer_256_1_scale2
I0529 19:53:16.243449 26782 net.cpp:122] Setting up layer_256_1_scale2
I0529 19:53:16.243472 26782 net.cpp:129] Top shape: 50 256 14 14 (2508800)
I0529 19:53:16.243489 26782 net.cpp:137] Memory required for data: 2227815000
I0529 19:53:16.243507 26782 layer_factory.hpp:77] Creating layer layer_256_1_relu2
I0529 19:53:16.243537 26782 net.cpp:84] Creating Layer layer_256_1_relu2
I0529 19:53:16.243563 26782 net.cpp:406] layer_256_1_relu2 <- layer_256_1_conv1
I0529 19:53:16.243582 26782 net.cpp:367] layer_256_1_relu2 -> layer_256_1_conv1 (in-place)
I0529 19:53:16.244738 26782 net.cpp:122] Setting up layer_256_1_relu2
I0529 19:53:16.244765 26782 net.cpp:129] Top shape: 50 256 14 14 (2508800)
I0529 19:53:16.244779 26782 net.cpp:137] Memory required for data: 2237850200
I0529 19:53:16.244796 26782 layer_factory.hpp:77] Creating layer layer_256_1_conv2
I0529 19:53:16.244819 26782 net.cpp:84] Creating Layer layer_256_1_conv2
I0529 19:53:16.244835 26782 net.cpp:406] layer_256_1_conv2 <- layer_256_1_conv1
I0529 19:53:16.244854 26782 net.cpp:380] layer_256_1_conv2 -> layer_256_1_conv2
I0529 19:53:16.259136 26782 net.cpp:122] Setting up layer_256_1_conv2
I0529 19:53:16.259227 26782 net.cpp:129] Top shape: 50 256 14 14 (2508800)
I0529 19:53:16.259249 26782 net.cpp:137] Memory required for data: 2247885400
I0529 19:53:16.259274 26782 layer_factory.hpp:77] Creating layer layer_256_1_conv_expand
I0529 19:53:16.259305 26782 net.cpp:84] Creating Layer layer_256_1_conv_expand
I0529 19:53:16.259325 26782 net.cpp:406] layer_256_1_conv_expand <- layer_256_1_bn1_layer_256_1_relu1_0_split_1
I0529 19:53:16.259349 26782 net.cpp:380] layer_256_1_conv_expand -> layer_256_1_conv_expand
I0529 19:53:16.263363 26782 net.cpp:122] Setting up layer_256_1_conv_expand
I0529 19:53:16.263392 26782 net.cpp:129] Top shape: 50 256 14 14 (2508800)
I0529 19:53:16.263398 26782 net.cpp:137] Memory required for data: 2257920600
I0529 19:53:16.263409 26782 layer_factory.hpp:77] Creating layer layer_256_1_sum
I0529 19:53:16.263422 26782 net.cpp:84] Creating Layer layer_256_1_sum
I0529 19:53:16.263428 26782 net.cpp:406] layer_256_1_sum <- layer_256_1_conv_expand
I0529 19:53:16.263437 26782 net.cpp:406] layer_256_1_sum <- layer_256_1_conv2
I0529 19:53:16.263449 26782 net.cpp:380] layer_256_1_sum -> layer_256_1_sum
I0529 19:53:16.263514 26782 net.cpp:122] Setting up layer_256_1_sum
I0529 19:53:16.263525 26782 net.cpp:129] Top shape: 50 256 14 14 (2508800)
I0529 19:53:16.263530 26782 net.cpp:137] Memory required for data: 2267955800
I0529 19:53:16.263535 26782 layer_factory.hpp:77] Creating layer layer_256_1_sum_layer_256_1_sum_0_split
I0529 19:53:16.263545 26782 net.cpp:84] Creating Layer layer_256_1_sum_layer_256_1_sum_0_split
I0529 19:53:16.263550 26782 net.cpp:406] layer_256_1_sum_layer_256_1_sum_0_split <- layer_256_1_sum
I0529 19:53:16.263559 26782 net.cpp:380] layer_256_1_sum_layer_256_1_sum_0_split -> layer_256_1_sum_layer_256_1_sum_0_split_0
I0529 19:53:16.263569 26782 net.cpp:380] layer_256_1_sum_layer_256_1_sum_0_split -> layer_256_1_sum_layer_256_1_sum_0_split_1
I0529 19:53:16.263636 26782 net.cpp:122] Setting up layer_256_1_sum_layer_256_1_sum_0_split
I0529 19:53:16.263648 26782 net.cpp:129] Top shape: 50 256 14 14 (2508800)
I0529 19:53:16.263655 26782 net.cpp:129] Top shape: 50 256 14 14 (2508800)
I0529 19:53:16.263660 26782 net.cpp:137] Memory required for data: 2288026200
I0529 19:53:16.263665 26782 layer_factory.hpp:77] Creating layer layer_256_2_bn1
I0529 19:53:16.263674 26782 net.cpp:84] Creating Layer layer_256_2_bn1
I0529 19:53:16.263695 26782 net.cpp:406] layer_256_2_bn1 <- layer_256_1_sum_layer_256_1_sum_0_split_0
I0529 19:53:16.263708 26782 net.cpp:380] layer_256_2_bn1 -> layer_256_2_bn1
I0529 19:53:16.263983 26782 net.cpp:122] Setting up layer_256_2_bn1
I0529 19:53:16.263994 26782 net.cpp:129] Top shape: 50 256 14 14 (2508800)
I0529 19:53:16.264000 26782 net.cpp:137] Memory required for data: 2298061400
I0529 19:53:16.264012 26782 layer_factory.hpp:77] Creating layer layer_256_2_scale1
I0529 19:53:16.264024 26782 net.cpp:84] Creating Layer layer_256_2_scale1
I0529 19:53:16.264045 26782 net.cpp:406] layer_256_2_scale1 <- layer_256_2_bn1
I0529 19:53:16.264056 26782 net.cpp:367] layer_256_2_scale1 -> layer_256_2_bn1 (in-place)
I0529 19:53:16.264124 26782 layer_factory.hpp:77] Creating layer layer_256_2_scale1
I0529 19:53:16.264272 26782 net.cpp:122] Setting up layer_256_2_scale1
I0529 19:53:16.264286 26782 net.cpp:129] Top shape: 50 256 14 14 (2508800)
I0529 19:53:16.264304 26782 net.cpp:137] Memory required for data: 2308096600
I0529 19:53:16.264314 26782 layer_factory.hpp:77] Creating layer layer_256_2_relu1
I0529 19:53:16.264336 26782 net.cpp:84] Creating Layer layer_256_2_relu1
I0529 19:53:16.264344 26782 net.cpp:406] layer_256_2_relu1 <- layer_256_2_bn1
I0529 19:53:16.264351 26782 net.cpp:367] layer_256_2_relu1 -> layer_256_2_bn1 (in-place)
I0529 19:53:16.265388 26782 net.cpp:122] Setting up layer_256_2_relu1
I0529 19:53:16.265403 26782 net.cpp:129] Top shape: 50 256 14 14 (2508800)
I0529 19:53:16.265408 26782 net.cpp:137] Memory required for data: 2318131800
I0529 19:53:16.265413 26782 layer_factory.hpp:77] Creating layer layer_256_2_conv1
I0529 19:53:16.265429 26782 net.cpp:84] Creating Layer layer_256_2_conv1
I0529 19:53:16.265435 26782 net.cpp:406] layer_256_2_conv1 <- layer_256_2_bn1
I0529 19:53:16.265446 26782 net.cpp:380] layer_256_2_conv1 -> layer_256_2_conv1
I0529 19:53:16.278578 26782 net.cpp:122] Setting up layer_256_2_conv1
I0529 19:53:16.278611 26782 net.cpp:129] Top shape: 50 256 14 14 (2508800)
I0529 19:53:16.278617 26782 net.cpp:137] Memory required for data: 2328167000
I0529 19:53:16.278630 26782 layer_factory.hpp:77] Creating layer layer_256_2_bn2
I0529 19:53:16.278646 26782 net.cpp:84] Creating Layer layer_256_2_bn2
I0529 19:53:16.278657 26782 net.cpp:406] layer_256_2_bn2 <- layer_256_2_conv1
I0529 19:53:16.278671 26782 net.cpp:367] layer_256_2_bn2 -> layer_256_2_conv1 (in-place)
I0529 19:53:16.278972 26782 net.cpp:122] Setting up layer_256_2_bn2
I0529 19:53:16.278985 26782 net.cpp:129] Top shape: 50 256 14 14 (2508800)
I0529 19:53:16.278990 26782 net.cpp:137] Memory required for data: 2338202200
I0529 19:53:16.279002 26782 layer_factory.hpp:77] Creating layer layer_256_2_scale2
I0529 19:53:16.279033 26782 net.cpp:84] Creating Layer layer_256_2_scale2
I0529 19:53:16.279040 26782 net.cpp:406] layer_256_2_scale2 <- layer_256_2_conv1
I0529 19:53:16.279049 26782 net.cpp:367] layer_256_2_scale2 -> layer_256_2_conv1 (in-place)
I0529 19:53:16.279116 26782 layer_factory.hpp:77] Creating layer layer_256_2_scale2
I0529 19:53:16.279270 26782 net.cpp:122] Setting up layer_256_2_scale2
I0529 19:53:16.279281 26782 net.cpp:129] Top shape: 50 256 14 14 (2508800)
I0529 19:53:16.279286 26782 net.cpp:137] Memory required for data: 2348237400
I0529 19:53:16.279296 26782 layer_factory.hpp:77] Creating layer layer_256_2_relu2
I0529 19:53:16.279305 26782 net.cpp:84] Creating Layer layer_256_2_relu2
I0529 19:53:16.279312 26782 net.cpp:406] layer_256_2_relu2 <- layer_256_2_conv1
I0529 19:53:16.279320 26782 net.cpp:367] layer_256_2_relu2 -> layer_256_2_conv1 (in-place)
I0529 19:53:16.279579 26782 net.cpp:122] Setting up layer_256_2_relu2
I0529 19:53:16.279592 26782 net.cpp:129] Top shape: 50 256 14 14 (2508800)
I0529 19:53:16.279597 26782 net.cpp:137] Memory required for data: 2358272600
I0529 19:53:16.279604 26782 layer_factory.hpp:77] Creating layer layer_256_2_conv2
I0529 19:53:16.279619 26782 net.cpp:84] Creating Layer layer_256_2_conv2
I0529 19:53:16.279626 26782 net.cpp:406] layer_256_2_conv2 <- layer_256_2_conv1
I0529 19:53:16.279639 26782 net.cpp:380] layer_256_2_conv2 -> layer_256_2_conv2
I0529 19:53:16.294257 26782 net.cpp:122] Setting up layer_256_2_conv2
I0529 19:53:16.294286 26782 net.cpp:129] Top shape: 50 256 14 14 (2508800)
I0529 19:53:16.294291 26782 net.cpp:137] Memory required for data: 2368307800
I0529 19:53:16.294301 26782 layer_factory.hpp:77] Creating layer layer_256_2_sum
I0529 19:53:16.294312 26782 net.cpp:84] Creating Layer layer_256_2_sum
I0529 19:53:16.294317 26782 net.cpp:406] layer_256_2_sum <- layer_256_2_conv2
I0529 19:53:16.294323 26782 net.cpp:406] layer_256_2_sum <- layer_256_1_sum_layer_256_1_sum_0_split_1
I0529 19:53:16.294332 26782 net.cpp:380] layer_256_2_sum -> layer_256_2_sum
I0529 19:53:16.294370 26782 net.cpp:122] Setting up layer_256_2_sum
I0529 19:53:16.294379 26782 net.cpp:129] Top shape: 50 256 14 14 (2508800)
I0529 19:53:16.294383 26782 net.cpp:137] Memory required for data: 2378343000
I0529 19:53:16.294405 26782 layer_factory.hpp:77] Creating layer layer_512_1_bn1
I0529 19:53:16.294414 26782 net.cpp:84] Creating Layer layer_512_1_bn1
I0529 19:53:16.294416 26782 net.cpp:406] layer_512_1_bn1 <- layer_256_2_sum
I0529 19:53:16.294423 26782 net.cpp:380] layer_512_1_bn1 -> layer_512_1_bn1
I0529 19:53:16.294626 26782 net.cpp:122] Setting up layer_512_1_bn1
I0529 19:53:16.294636 26782 net.cpp:129] Top shape: 50 256 14 14 (2508800)
I0529 19:53:16.294638 26782 net.cpp:137] Memory required for data: 2388378200
I0529 19:53:16.294647 26782 layer_factory.hpp:77] Creating layer layer_512_1_scale1
I0529 19:53:16.294656 26782 net.cpp:84] Creating Layer layer_512_1_scale1
I0529 19:53:16.294661 26782 net.cpp:406] layer_512_1_scale1 <- layer_512_1_bn1
I0529 19:53:16.294664 26782 net.cpp:367] layer_512_1_scale1 -> layer_512_1_bn1 (in-place)
I0529 19:53:16.294715 26782 layer_factory.hpp:77] Creating layer layer_512_1_scale1
I0529 19:53:16.294822 26782 net.cpp:122] Setting up layer_512_1_scale1
I0529 19:53:16.294831 26782 net.cpp:129] Top shape: 50 256 14 14 (2508800)
I0529 19:53:16.294834 26782 net.cpp:137] Memory required for data: 2398413400
I0529 19:53:16.294839 26782 layer_factory.hpp:77] Creating layer layer_512_1_relu1
I0529 19:53:16.294847 26782 net.cpp:84] Creating Layer layer_512_1_relu1
I0529 19:53:16.294850 26782 net.cpp:406] layer_512_1_relu1 <- layer_512_1_bn1
I0529 19:53:16.294854 26782 net.cpp:367] layer_512_1_relu1 -> layer_512_1_bn1 (in-place)
I0529 19:53:16.295042 26782 net.cpp:122] Setting up layer_512_1_relu1
I0529 19:53:16.295051 26782 net.cpp:129] Top shape: 50 256 14 14 (2508800)
I0529 19:53:16.295054 26782 net.cpp:137] Memory required for data: 2408448600
I0529 19:53:16.295058 26782 layer_factory.hpp:77] Creating layer layer_512_1_bn1_layer_512_1_relu1_0_split
I0529 19:53:16.295063 26782 net.cpp:84] Creating Layer layer_512_1_bn1_layer_512_1_relu1_0_split
I0529 19:53:16.295066 26782 net.cpp:406] layer_512_1_bn1_layer_512_1_relu1_0_split <- layer_512_1_bn1
I0529 19:53:16.295073 26782 net.cpp:380] layer_512_1_bn1_layer_512_1_relu1_0_split -> layer_512_1_bn1_layer_512_1_relu1_0_split_0
I0529 19:53:16.295079 26782 net.cpp:380] layer_512_1_bn1_layer_512_1_relu1_0_split -> layer_512_1_bn1_layer_512_1_relu1_0_split_1
I0529 19:53:16.295120 26782 net.cpp:122] Setting up layer_512_1_bn1_layer_512_1_relu1_0_split
I0529 19:53:16.295128 26782 net.cpp:129] Top shape: 50 256 14 14 (2508800)
I0529 19:53:16.295132 26782 net.cpp:129] Top shape: 50 256 14 14 (2508800)
I0529 19:53:16.295135 26782 net.cpp:137] Memory required for data: 2428519000
I0529 19:53:16.295138 26782 layer_factory.hpp:77] Creating layer layer_512_1_conv1
I0529 19:53:16.295150 26782 net.cpp:84] Creating Layer layer_512_1_conv1
I0529 19:53:16.295153 26782 net.cpp:406] layer_512_1_conv1 <- layer_512_1_bn1_layer_512_1_relu1_0_split_0
I0529 19:53:16.295161 26782 net.cpp:380] layer_512_1_conv1 -> layer_512_1_conv1
I0529 19:53:16.312125 26782 net.cpp:122] Setting up layer_512_1_conv1
I0529 19:53:16.312155 26782 net.cpp:129] Top shape: 50 512 7 7 (1254400)
I0529 19:53:16.312160 26782 net.cpp:137] Memory required for data: 2433536600
I0529 19:53:16.312170 26782 layer_factory.hpp:77] Creating layer layer_512_1_bn2
I0529 19:53:16.312181 26782 net.cpp:84] Creating Layer layer_512_1_bn2
I0529 19:53:16.312187 26782 net.cpp:406] layer_512_1_bn2 <- layer_512_1_conv1
I0529 19:53:16.312196 26782 net.cpp:367] layer_512_1_bn2 -> layer_512_1_conv1 (in-place)
I0529 19:53:16.312402 26782 net.cpp:122] Setting up layer_512_1_bn2
I0529 19:53:16.312412 26782 net.cpp:129] Top shape: 50 512 7 7 (1254400)
I0529 19:53:16.312415 26782 net.cpp:137] Memory required for data: 2438554200
I0529 19:53:16.312424 26782 layer_factory.hpp:77] Creating layer layer_512_1_scale2
I0529 19:53:16.312432 26782 net.cpp:84] Creating Layer layer_512_1_scale2
I0529 19:53:16.312439 26782 net.cpp:406] layer_512_1_scale2 <- layer_512_1_conv1
I0529 19:53:16.312444 26782 net.cpp:367] layer_512_1_scale2 -> layer_512_1_conv1 (in-place)
I0529 19:53:16.312492 26782 layer_factory.hpp:77] Creating layer layer_512_1_scale2
I0529 19:53:16.312624 26782 net.cpp:122] Setting up layer_512_1_scale2
I0529 19:53:16.312633 26782 net.cpp:129] Top shape: 50 512 7 7 (1254400)
I0529 19:53:16.312635 26782 net.cpp:137] Memory required for data: 2443571800
I0529 19:53:16.312641 26782 layer_factory.hpp:77] Creating layer layer_512_1_relu2
I0529 19:53:16.312650 26782 net.cpp:84] Creating Layer layer_512_1_relu2
I0529 19:53:16.312654 26782 net.cpp:406] layer_512_1_relu2 <- layer_512_1_conv1
I0529 19:53:16.312659 26782 net.cpp:367] layer_512_1_relu2 -> layer_512_1_conv1 (in-place)
I0529 19:53:16.312816 26782 net.cpp:122] Setting up layer_512_1_relu2
I0529 19:53:16.312824 26782 net.cpp:129] Top shape: 50 512 7 7 (1254400)
I0529 19:53:16.312827 26782 net.cpp:137] Memory required for data: 2448589400
I0529 19:53:16.312831 26782 layer_factory.hpp:77] Creating layer layer_512_1_conv2
I0529 19:53:16.312844 26782 net.cpp:84] Creating Layer layer_512_1_conv2
I0529 19:53:16.312847 26782 net.cpp:406] layer_512_1_conv2 <- layer_512_1_conv1
I0529 19:53:16.312855 26782 net.cpp:380] layer_512_1_conv2 -> layer_512_1_conv2
I0529 19:53:16.342492 26782 net.cpp:122] Setting up layer_512_1_conv2
I0529 19:53:16.342531 26782 net.cpp:129] Top shape: 50 512 7 7 (1254400)
I0529 19:53:16.342535 26782 net.cpp:137] Memory required for data: 2453607000
I0529 19:53:16.342545 26782 layer_factory.hpp:77] Creating layer layer_512_1_conv_expand
I0529 19:53:16.342561 26782 net.cpp:84] Creating Layer layer_512_1_conv_expand
I0529 19:53:16.342566 26782 net.cpp:406] layer_512_1_conv_expand <- layer_512_1_bn1_layer_512_1_relu1_0_split_1
I0529 19:53:16.342576 26782 net.cpp:380] layer_512_1_conv_expand -> layer_512_1_conv_expand
I0529 19:53:16.349009 26782 net.cpp:122] Setting up layer_512_1_conv_expand
I0529 19:53:16.349022 26782 net.cpp:129] Top shape: 50 512 7 7 (1254400)
I0529 19:53:16.349026 26782 net.cpp:137] Memory required for data: 2458624600
I0529 19:53:16.349031 26782 layer_factory.hpp:77] Creating layer layer_512_1_sum
I0529 19:53:16.349040 26782 net.cpp:84] Creating Layer layer_512_1_sum
I0529 19:53:16.349045 26782 net.cpp:406] layer_512_1_sum <- layer_512_1_conv_expand
I0529 19:53:16.349048 26782 net.cpp:406] layer_512_1_sum <- layer_512_1_conv2
I0529 19:53:16.349053 26782 net.cpp:380] layer_512_1_sum -> layer_512_1_sum
I0529 19:53:16.349081 26782 net.cpp:122] Setting up layer_512_1_sum
I0529 19:53:16.349089 26782 net.cpp:129] Top shape: 50 512 7 7 (1254400)
I0529 19:53:16.349093 26782 net.cpp:137] Memory required for data: 2463642200
I0529 19:53:16.349097 26782 layer_factory.hpp:77] Creating layer layer_512_1_sum_layer_512_1_sum_0_split
I0529 19:53:16.349102 26782 net.cpp:84] Creating Layer layer_512_1_sum_layer_512_1_sum_0_split
I0529 19:53:16.349107 26782 net.cpp:406] layer_512_1_sum_layer_512_1_sum_0_split <- layer_512_1_sum
I0529 19:53:16.349113 26782 net.cpp:380] layer_512_1_sum_layer_512_1_sum_0_split -> layer_512_1_sum_layer_512_1_sum_0_split_0
I0529 19:53:16.349120 26782 net.cpp:380] layer_512_1_sum_layer_512_1_sum_0_split -> layer_512_1_sum_layer_512_1_sum_0_split_1
I0529 19:53:16.349159 26782 net.cpp:122] Setting up layer_512_1_sum_layer_512_1_sum_0_split
I0529 19:53:16.349167 26782 net.cpp:129] Top shape: 50 512 7 7 (1254400)
I0529 19:53:16.349171 26782 net.cpp:129] Top shape: 50 512 7 7 (1254400)
I0529 19:53:16.349174 26782 net.cpp:137] Memory required for data: 2473677400
I0529 19:53:16.349179 26782 layer_factory.hpp:77] Creating layer layer_512_2_bn1
I0529 19:53:16.349184 26782 net.cpp:84] Creating Layer layer_512_2_bn1
I0529 19:53:16.349187 26782 net.cpp:406] layer_512_2_bn1 <- layer_512_1_sum_layer_512_1_sum_0_split_0
I0529 19:53:16.349194 26782 net.cpp:380] layer_512_2_bn1 -> layer_512_2_bn1
I0529 19:53:16.349400 26782 net.cpp:122] Setting up layer_512_2_bn1
I0529 19:53:16.349408 26782 net.cpp:129] Top shape: 50 512 7 7 (1254400)
I0529 19:53:16.349411 26782 net.cpp:137] Memory required for data: 2478695000
I0529 19:53:16.349419 26782 layer_factory.hpp:77] Creating layer layer_512_2_scale1
I0529 19:53:16.349427 26782 net.cpp:84] Creating Layer layer_512_2_scale1
I0529 19:53:16.349447 26782 net.cpp:406] layer_512_2_scale1 <- layer_512_2_bn1
I0529 19:53:16.349453 26782 net.cpp:367] layer_512_2_scale1 -> layer_512_2_bn1 (in-place)
I0529 19:53:16.349498 26782 layer_factory.hpp:77] Creating layer layer_512_2_scale1
I0529 19:53:16.349611 26782 net.cpp:122] Setting up layer_512_2_scale1
I0529 19:53:16.349619 26782 net.cpp:129] Top shape: 50 512 7 7 (1254400)
I0529 19:53:16.349622 26782 net.cpp:137] Memory required for data: 2483712600
I0529 19:53:16.349628 26782 layer_factory.hpp:77] Creating layer layer_512_2_relu1
I0529 19:53:16.349637 26782 net.cpp:84] Creating Layer layer_512_2_relu1
I0529 19:53:16.349642 26782 net.cpp:406] layer_512_2_relu1 <- layer_512_2_bn1
I0529 19:53:16.349645 26782 net.cpp:367] layer_512_2_relu1 -> layer_512_2_bn1 (in-place)
I0529 19:53:16.350390 26782 net.cpp:122] Setting up layer_512_2_relu1
I0529 19:53:16.350407 26782 net.cpp:129] Top shape: 50 512 7 7 (1254400)
I0529 19:53:16.350411 26782 net.cpp:137] Memory required for data: 2488730200
I0529 19:53:16.350415 26782 layer_factory.hpp:77] Creating layer layer_512_2_conv1
I0529 19:53:16.350426 26782 net.cpp:84] Creating Layer layer_512_2_conv1
I0529 19:53:16.350431 26782 net.cpp:406] layer_512_2_conv1 <- layer_512_2_bn1
I0529 19:53:16.350438 26782 net.cpp:380] layer_512_2_conv1 -> layer_512_2_conv1
I0529 19:53:16.377816 26782 net.cpp:122] Setting up layer_512_2_conv1
I0529 19:53:16.377859 26782 net.cpp:129] Top shape: 50 512 7 7 (1254400)
I0529 19:53:16.377866 26782 net.cpp:137] Memory required for data: 2493747800
I0529 19:53:16.377878 26782 layer_factory.hpp:77] Creating layer layer_512_2_bn2
I0529 19:53:16.377894 26782 net.cpp:84] Creating Layer layer_512_2_bn2
I0529 19:53:16.377902 26782 net.cpp:406] layer_512_2_bn2 <- layer_512_2_conv1
I0529 19:53:16.377914 26782 net.cpp:367] layer_512_2_bn2 -> layer_512_2_conv1 (in-place)
I0529 19:53:16.378219 26782 net.cpp:122] Setting up layer_512_2_bn2
I0529 19:53:16.378240 26782 net.cpp:129] Top shape: 50 512 7 7 (1254400)
I0529 19:53:16.378245 26782 net.cpp:137] Memory required for data: 2498765400
I0529 19:53:16.378260 26782 layer_factory.hpp:77] Creating layer layer_512_2_scale2
I0529 19:53:16.378274 26782 net.cpp:84] Creating Layer layer_512_2_scale2
I0529 19:53:16.378283 26782 net.cpp:406] layer_512_2_scale2 <- layer_512_2_conv1
I0529 19:53:16.378291 26782 net.cpp:367] layer_512_2_scale2 -> layer_512_2_conv1 (in-place)
I0529 19:53:16.378360 26782 layer_factory.hpp:77] Creating layer layer_512_2_scale2
I0529 19:53:16.378531 26782 net.cpp:122] Setting up layer_512_2_scale2
I0529 19:53:16.378545 26782 net.cpp:129] Top shape: 50 512 7 7 (1254400)
I0529 19:53:16.378551 26782 net.cpp:137] Memory required for data: 2503783000
I0529 19:53:16.378559 26782 layer_factory.hpp:77] Creating layer layer_512_2_relu2
I0529 19:53:16.378571 26782 net.cpp:84] Creating Layer layer_512_2_relu2
I0529 19:53:16.378582 26782 net.cpp:406] layer_512_2_relu2 <- layer_512_2_conv1
I0529 19:53:16.378590 26782 net.cpp:367] layer_512_2_relu2 -> layer_512_2_conv1 (in-place)
I0529 19:53:16.379873 26782 net.cpp:122] Setting up layer_512_2_relu2
I0529 19:53:16.379911 26782 net.cpp:129] Top shape: 50 512 7 7 (1254400)
I0529 19:53:16.379917 26782 net.cpp:137] Memory required for data: 2508800600
I0529 19:53:16.379925 26782 layer_factory.hpp:77] Creating layer layer_512_2_conv2
I0529 19:53:16.379950 26782 net.cpp:84] Creating Layer layer_512_2_conv2
I0529 19:53:16.379957 26782 net.cpp:406] layer_512_2_conv2 <- layer_512_2_conv1
I0529 19:53:16.379973 26782 net.cpp:380] layer_512_2_conv2 -> layer_512_2_conv2
I0529 19:53:16.418707 26782 net.cpp:122] Setting up layer_512_2_conv2
I0529 19:53:16.418736 26782 net.cpp:129] Top shape: 50 512 7 7 (1254400)
I0529 19:53:16.418741 26782 net.cpp:137] Memory required for data: 2513818200
I0529 19:53:16.418751 26782 layer_factory.hpp:77] Creating layer layer_512_2_sum
I0529 19:53:16.418761 26782 net.cpp:84] Creating Layer layer_512_2_sum
I0529 19:53:16.418766 26782 net.cpp:406] layer_512_2_sum <- layer_512_2_conv2
I0529 19:53:16.418772 26782 net.cpp:406] layer_512_2_sum <- layer_512_1_sum_layer_512_1_sum_0_split_1
I0529 19:53:16.418795 26782 net.cpp:380] layer_512_2_sum -> layer_512_2_sum
I0529 19:53:16.418831 26782 net.cpp:122] Setting up layer_512_2_sum
I0529 19:53:16.418839 26782 net.cpp:129] Top shape: 50 512 7 7 (1254400)
I0529 19:53:16.418843 26782 net.cpp:137] Memory required for data: 2518835800
I0529 19:53:16.418845 26782 layer_factory.hpp:77] Creating layer last_bn
I0529 19:53:16.418854 26782 net.cpp:84] Creating Layer last_bn
I0529 19:53:16.418861 26782 net.cpp:406] last_bn <- layer_512_2_sum
I0529 19:53:16.418867 26782 net.cpp:367] last_bn -> layer_512_2_sum (in-place)
I0529 19:53:16.419060 26782 net.cpp:122] Setting up last_bn
I0529 19:53:16.419070 26782 net.cpp:129] Top shape: 50 512 7 7 (1254400)
I0529 19:53:16.419072 26782 net.cpp:137] Memory required for data: 2523853400
I0529 19:53:16.419080 26782 layer_factory.hpp:77] Creating layer last_scale
I0529 19:53:16.419087 26782 net.cpp:84] Creating Layer last_scale
I0529 19:53:16.419091 26782 net.cpp:406] last_scale <- layer_512_2_sum
I0529 19:53:16.419096 26782 net.cpp:367] last_scale -> layer_512_2_sum (in-place)
I0529 19:53:16.419139 26782 layer_factory.hpp:77] Creating layer last_scale
I0529 19:53:16.419253 26782 net.cpp:122] Setting up last_scale
I0529 19:53:16.419262 26782 net.cpp:129] Top shape: 50 512 7 7 (1254400)
I0529 19:53:16.419265 26782 net.cpp:137] Memory required for data: 2528871000
I0529 19:53:16.419270 26782 layer_factory.hpp:77] Creating layer last_relu
I0529 19:53:16.419279 26782 net.cpp:84] Creating Layer last_relu
I0529 19:53:16.419284 26782 net.cpp:406] last_relu <- layer_512_2_sum
I0529 19:53:16.419288 26782 net.cpp:367] last_relu -> layer_512_2_sum (in-place)
I0529 19:53:16.420464 26782 net.cpp:122] Setting up last_relu
I0529 19:53:16.420473 26782 net.cpp:129] Top shape: 50 512 7 7 (1254400)
I0529 19:53:16.420476 26782 net.cpp:137] Memory required for data: 2533888600
I0529 19:53:16.420480 26782 layer_factory.hpp:77] Creating layer global_pool
I0529 19:53:16.420487 26782 net.cpp:84] Creating Layer global_pool
I0529 19:53:16.420493 26782 net.cpp:406] global_pool <- layer_512_2_sum
I0529 19:53:16.420500 26782 net.cpp:380] global_pool -> global_pool
I0529 19:53:16.420675 26782 net.cpp:122] Setting up global_pool
I0529 19:53:16.420683 26782 net.cpp:129] Top shape: 50 512 1 1 (25600)
I0529 19:53:16.420686 26782 net.cpp:137] Memory required for data: 2533991000
I0529 19:53:16.420691 26782 layer_factory.hpp:77] Creating layer score
I0529 19:53:16.420698 26782 net.cpp:84] Creating Layer score
I0529 19:53:16.420702 26782 net.cpp:406] score <- global_pool
I0529 19:53:16.420708 26782 net.cpp:380] score -> score
I0529 19:53:16.420838 26782 net.cpp:122] Setting up score
I0529 19:53:16.420848 26782 net.cpp:129] Top shape: 50 8 (400)
I0529 19:53:16.420851 26782 net.cpp:137] Memory required for data: 2533992600
I0529 19:53:16.420857 26782 layer_factory.hpp:77] Creating layer score_score_0_split
I0529 19:53:16.420862 26782 net.cpp:84] Creating Layer score_score_0_split
I0529 19:53:16.420866 26782 net.cpp:406] score_score_0_split <- score
I0529 19:53:16.420871 26782 net.cpp:380] score_score_0_split -> score_score_0_split_0
I0529 19:53:16.420876 26782 net.cpp:380] score_score_0_split -> score_score_0_split_1
I0529 19:53:16.420914 26782 net.cpp:122] Setting up score_score_0_split
I0529 19:53:16.420922 26782 net.cpp:129] Top shape: 50 8 (400)
I0529 19:53:16.420936 26782 net.cpp:129] Top shape: 50 8 (400)
I0529 19:53:16.420941 26782 net.cpp:137] Memory required for data: 2533995800
I0529 19:53:16.420948 26782 layer_factory.hpp:77] Creating layer loss
I0529 19:53:16.420959 26782 net.cpp:84] Creating Layer loss
I0529 19:53:16.420964 26782 net.cpp:406] loss <- score_score_0_split_0
I0529 19:53:16.420969 26782 net.cpp:406] loss <- label_data_1_split_0
I0529 19:53:16.420974 26782 net.cpp:380] loss -> loss
…
