…
I0528 21:50:16.644672 142602 net.cpp:294] The NetState phase (0) differed from the phase (1) specified by a rule in layer accuracy
I0528 21:50:16.645205 142602 net.cpp:51] Initializing net from parameters: 
name: "Pre-ResNet-18"
state {
  phase: TRAIN
  level: 0
  stage: ""
}
layer {
  name: "data"
  type: "Data"
  top: "data"
  top: "label"
  include {
    phase: TRAIN
  }
  transform_param {
    mirror: true
    crop_size: 224
    mean_file: "/storage/Test_fold_is_01/mean.binaryproto"
  }
  data_param {
    source: "/storage/Test_fold_is_01/age_train_lmdb"
    batch_size: 100
    backend: LMDB
  }
}
layer {
  name: "data_bn"
  type: "BatchNorm"
  bottom: "data"
  top: "data_bn"
  param {
    lr_mult: 0
    decay_mult: 0
  }
  param {
    lr_mult: 0
    decay_mult: 0
  }
  param {
    lr_mult: 0
    decay_mult: 0
  }
}
layer {
  name: "data_scale"
  type: "Scale"
  bottom: "data_bn"
  top: "data_bn"
  param {
    lr_mult: 1
    decay_mult: 1
  }
  param {
    lr_mult: 2
    decay_mult: 1
  }
  scale_param {
    bias_term: true
  }
}
layer {
  name: "conv1"
  type: "Convolution"
  bottom: "data_bn"
  top: "conv1"
  param {
    lr_mult: 1
    decay_mult: 1
  }
  param {
    lr_mult: 2
    decay_mult: 1
  }
  convolution_param {
    num_output: 64
    pad: 3
    kernel_size: 7
    stride: 2
    weight_filler {
      type: "msra"
      variance_norm: FAN_OUT
    }
    bias_filler {
      type: "constant"
      value: 0
    }
  }
}
layer {
  name: "conv1_bn"
  type: "BatchNorm"
  bottom: "conv1"
  top: "conv1"
  param {
    lr_mult: 0
    decay_mult: 0
  }
  param {
    lr_mult: 0
    decay_mult: 0
  }
  param {
    lr_mult: 0
    decay_mult: 0
  }
}
layer {
  name: "conv1_scale"
  type: "Scale"
  bottom: "conv1"
  top: "conv1"
  param {
    lr_mult: 1
    decay_mult: 1
  }
  param {
    lr_mult: 2
    decay_mult: 1
  }
  scale_param {
    bias_term: true
  }
}
layer {
  name: "conv1_relu"
  type: "ReLU"
  bottom: "conv1"
  top: "conv1"
}
layer {
  name: "conv1_pool"
  type: "Pooling"
  bottom: "conv1"
  top: "conv1_pool"
  pooling_param {
    kernel_size: 3
    stride: 2
  }
}
layer {
  name: "layer_64_1_conv1"
  type: "Convolution"
  bottom: "conv1_pool"
  top: "layer_64_1_conv1"
  param {
    lr_mult: 1
    decay_mult: 1
  }
  convolution_param {
    num_output: 64
    bias_term: false
    pad: 1
    kernel_size: 3
    stride: 1
    weight_filler {
      type: "msra"
    }
    bias_filler {
      type: "constant"
      value: 0
    }
  }
}
layer {
  name: "layer_64_1_bn2"
  type: "BatchNorm"
  bottom: "layer_64_1_conv1"
  top: "layer_64_1_conv1"
  param {
    lr_mult: 0
    decay_mult: 0
  }
  param {
    lr_mult: 0
    decay_mult: 0
  }
  param {
    lr_mult: 0
    decay_mult: 0
  }
}
layer {
  name: "layer_64_1_scale2"
  type: "Scale"
  bottom: "layer_64_1_conv1"
  top: "layer_64_1_conv1"
  param {
    lr_mult: 1
    decay_mult: 1
  }
  param {
    lr_mult: 2
    decay_mult: 1
  }
  scale_param {
    bias_term: true
  }
}
layer {
  name: "layer_64_1_relu2"
  type: "ReLU"
  bottom: "layer_64_1_conv1"
  top: "layer_64_1_conv1"
}
layer {
  name: "layer_64_1_conv2"
  type: "Convolution"
  bottom: "layer_64_1_conv1"
  top: "layer_64_1_conv2"
  param {
    lr_mult: 1
    decay_mult: 1
  }
  convolution_param {
    num_output: 64
    bias_term: false
    pad: 1
    kernel_size: 3
    stride: 1
    weight_filler {
      type: "msra"
    }
    bias_filler {
      type: "constant"
      value: 0
    }
  }
}
layer {
  name: "layer_64_1_sum"
  type: "Eltwise"
  bottom: "layer_64_1_conv2"
  bottom: "conv1_pool"
  top: "layer_64_1_sum"
}
layer {
  name: "layer_64_2_bn1"
  type: "BatchNorm"
  bottom: "layer_64_1_sum"
  top: "layer_64_2_bn1"
  param {
    lr_mult: 0
    decay_mult: 0
  }
  param {
    lr_mult: 0
    decay_mult: 0
  }
  param {
    lr_mult: 0
    decay_mult: 0
  }
}
layer {
  name: "layer_64_2_scale1"
  type: "Scale"
  bottom: "layer_64_2_bn1"
  top: "layer_64_2_bn1"
  param {
    lr_mult: 1
    decay_mult: 1
  }
  param {
    lr_mult: 2
    decay_mult: 1
  }
  scale_param {
    bias_term: true
  }
}
layer {
  name: "layer_64_2_relu1"
  type: "ReLU"
  bottom: "layer_64_2_bn1"
  top: "layer_64_2_bn1"
}
layer {
  name: "layer_64_2_conv1"
  type: "Convolution"
  bottom: "layer_64_2_bn1"
  top: "layer_64_2_conv1"
  param {
    lr_mult: 1
    decay_mult: 1
  }
  convolution_param {
    num_output: 64
    bias_term: false
    pad: 1
    kernel_size: 3
    stride: 1
    weight_filler {
      type: "msra"
    }
    bias_filler {
      type: "constant"
      value: 0
    }
  }
}
layer {
  name: "layer_64_2_bn2"
  type: "BatchNorm"
  bottom: "layer_64_2_conv1"
  top: "layer_64_2_conv1"
  param {
    lr_mult: 0
    decay_mult: 0
  }
  param {
    lr_mult: 0
    decay_mult: 0
  }
  param {
    lr_mult: 0
    decay_mult: 0
  }
}
layer {
  name: "layer_64_2_scale2"
  type: "Scale"
  bottom: "layer_64_2_conv1"
  top: "layer_64_2_conv1"
  param {
    lr_mult: 1
    decay_mult: 1
  }
  param {
    lr_mult: 2
    decay_mult: 1
  }
  scale_param {
    bias_term: true
  }
}
layer {
  name: "layer_64_2_relu2"
  type: "ReLU"
  bottom: "layer_64_2_conv1"
  top: "layer_64_2_conv1"
}
layer {
  name: "layer_64_2_conv2"
  type: "Convolution"
  bottom: "layer_64_2_conv1"
  top: "layer_64_2_conv2"
  param {
    lr_mult: 1
    decay_mult: 1
  }
  convolution_param {
    num_output: 64
    bias_term: false
    pad: 1
    kernel_size: 3
    stride: 1
    weight_filler {
      type: "msra"
    }
    bias_filler {
      type: "constant"
      value: 0
    }
  }
}
layer {
  name: "layer_64_2_sum"
  type: "Eltwise"
  bottom: "layer_64_2_conv2"
  bottom: "layer_64_1_sum"
  top: "layer_64_2_sum"
}
layer {
  name: "layer_128_1_bn1"
  type: "BatchNorm"
  bottom: "layer_64_2_sum"
  top: "layer_128_1_bn1"
  param {
    lr_mult: 0
    decay_mult: 0
  }
  param {
    lr_mult: 0
    decay_mult: 0
  }
  param {
    lr_mult: 0
    decay_mult: 0
  }
}
layer {
  name: "layer_128_1_scale1"
  type: "Scale"
  bottom: "layer_128_1_bn1"
  top: "layer_128_1_bn1"
  param {
    lr_mult: 1
    decay_mult: 1
  }
  param {
    lr_mult: 2
    decay_mult: 1
  }
  scale_param {
    bias_term: true
  }
}
layer {
  name: "layer_128_1_relu1"
  type: "ReLU"
  bottom: "layer_128_1_bn1"
  top: "layer_128_1_bn1"
}
layer {
  name: "layer_128_1_conv1"
  type: "Convolution"
  bottom: "layer_128_1_bn1"
  top: "layer_128_1_conv1"
  param {
    lr_mult: 1
    decay_mult: 1
  }
  convolution_param {
    num_output: 128
    bias_term: false
    pad: 1
    kernel_size: 3
    stride: 2
    weight_filler {
      type: "msra"
    }
    bias_filler {
      type: "constant"
      value: 0
    }
  }
}
layer {
  name: "layer_128_1_bn2"
  type: "BatchNorm"
  bottom: "layer_128_1_conv1"
  top: "layer_128_1_conv1"
  param {
    lr_mult: 0
    decay_mult: 0
  }
  param {
    lr_mult: 0
    decay_mult: 0
  }
  param {
    lr_mult: 0
    decay_mult: 0
  }
}
layer {
  name: "layer_128_1_scale2"
  type: "Scale"
  bottom: "layer_128_1_conv1"
  top: "layer_128_1_conv1"
  param {
    lr_mult: 1
    decay_mult: 1
  }
  param {
    lr_mult: 2
    decay_mult: 1
  }
  scale_param {
    bias_term: true
  }
}
layer {
  name: "layer_128_1_relu2"
  type: "ReLU"
  bottom: "layer_128_1_conv1"
  top: "layer_128_1_conv1"
}
layer {
  name: "layer_128_1_conv2"
  type: "Convolution"
  bottom: "layer_128_1_conv1"
  top: "layer_128_1_conv2"
  param {
    lr_mult: 1
    decay_mult: 1
  }
  convolution_param {
    num_output: 128
    bias_term: false
    pad: 1
    kernel_size: 3
    stride: 1
    weight_filler {
      type: "msra"
    }
    bias_filler {
      type: "constant"
      value: 0
    }
  }
}
layer {
  name: "layer_128_1_conv_expand"
  type: "Convolution"
  bottom: "layer_128_1_bn1"
  top: "layer_128_1_conv_expand"
  param {
    lr_mult: 1
    decay_mult: 1
  }
  convolution_param {
    num_output: 128
    bias_term: false
    pad: 0
    kernel_size: 1
    stride: 2
    weight_filler {
      type: "msra"
    }
    bias_filler {
      type: "constant"
      value: 0
    }
  }
}
layer {
  name: "layer_128_1_sum"
  type: "Eltwise"
  bottom: "layer_128_1_conv_expand"
  bottom: "layer_128_1_conv2"
  top: "layer_128_1_sum"
}
layer {
  name: "layer_128_2_bn1"
  type: "BatchNorm"
  bottom: "layer_128_1_sum"
  top: "layer_128_2_bn1"
  param {
    lr_mult: 0
    decay_mult: 0
  }
  param {
    lr_mult: 0
    decay_mult: 0
  }
  param {
    lr_mult: 0
    decay_mult: 0
  }
}
layer {
  name: "layer_128_2_scale1"
  type: "Scale"
  bottom: "layer_128_2_bn1"
  top: "layer_128_2_bn1"
  param {
    lr_mult: 1
    decay_mult: 1
  }
  param {
    lr_mult: 2
    decay_mult: 1
  }
  scale_param {
    bias_term: true
  }
}
layer {
  name: "layer_128_2_relu1"
  type: "ReLU"
  bottom: "layer_128_2_bn1"
  top: "layer_128_2_bn1"
}
layer {
  name: "layer_128_2_conv1"
  type: "Convolution"
  bottom: "layer_128_2_bn1"
  top: "layer_128_2_conv1"
  param {
    lr_mult: 1
    decay_mult: 1
  }
  convolution_param {
    num_output: 128
    bias_term: false
    pad: 1
    kernel_size: 3
    stride: 1
    weight_filler {
      type: "msra"
    }
    bias_filler {
      type: "constant"
      value: 0
    }
  }
}
layer {
  name: "layer_128_2_bn2"
  type: "BatchNorm"
  bottom: "layer_128_2_conv1"
  top: "layer_128_2_conv1"
  param {
    lr_mult: 0
    decay_mult: 0
  }
  param {
    lr_mult: 0
    decay_mult: 0
  }
  param {
    lr_mult: 0
    decay_mult: 0
  }
}
layer {
  name: "layer_128_2_scale2"
  type: "Scale"
  bottom: "layer_128_2_conv1"
  top: "layer_128_2_conv1"
  param {
    lr_mult: 1
    decay_mult: 1
  }
  param {
    lr_mult: 2
    decay_mult: 1
  }
  scale_param {
    bias_term: true
  }
}
layer {
  name: "layer_128_2_relu2"
  type: "ReLU"
  bottom: "layer_128_2_conv1"
  top: "layer_128_2_conv1"
}
layer {
  name: "layer_128_2_conv2"
  type: "Convolution"
  bottom: "layer_128_2_conv1"
  top: "layer_128_2_conv2"
  param {
    lr_mult: 1
    decay_mult: 1
  }
  convolution_param {
    num_output: 128
    bias_term: false
    pad: 1
    kernel_size: 3
    stride: 1
    weight_filler {
      type: "msra"
    }
    bias_filler {
      type: "constant"
      value: 0
    }
  }
}
layer {
  name: "layer_128_2_sum"
  type: "Eltwise"
  bottom: "layer_128_2_conv2"
  bottom: "layer_128_1_sum"
  top: "layer_128_2_sum"
}
layer {
  name: "layer_256_1_bn1"
  type: "BatchNorm"
  bottom: "layer_128_2_sum"
  top: "layer_256_1_bn1"
  param {
    lr_mult: 0
    decay_mult: 0
  }
  param {
    lr_mult: 0
    decay_mult: 0
  }
  param {
    lr_mult: 0
    decay_mult: 0
  }
}
layer {
  name: "layer_256_1_scale1"
  type: "Scale"
  bottom: "layer_256_1_bn1"
  top: "layer_256_1_bn1"
  param {
    lr_mult: 1
    decay_mult: 1
  }
  param {
    lr_mult: 2
    decay_mult: 1
  }
  scale_param {
    bias_term: true
  }
}
layer {
  name: "layer_256_1_relu1"
  type: "ReLU"
  bottom: "layer_256_1_bn1"
  top: "layer_256_1_bn1"
}
layer {
  name: "layer_256_1_conv1"
  type: "Convolution"
  bottom: "layer_256_1_bn1"
  top: "layer_256_1_conv1"
  param {
    lr_mult: 1
    decay_mult: 1
  }
  convolution_param {
    num_output: 256
    bias_term: false
    pad: 1
    kernel_size: 3
    stride: 2
    weight_filler {
      type: "msra"
    }
    bias_filler {
      type: "constant"
      value: 0
    }
  }
}
layer {
  name: "layer_256_1_bn2"
  type: "BatchNorm"
  bottom: "layer_256_1_conv1"
  top: "layer_256_1_conv1"
  param {
    lr_mult: 0
    decay_mult: 0
  }
  param {
    lr_mult: 0
    decay_mult: 0
  }
  param {
    lr_mult: 0
    decay_mult: 0
  }
}
layer {
  name: "layer_256_1_scale2"
  type: "Scale"
  bottom: "layer_256_1_conv1"
  top: "layer_256_1_conv1"
  param {
    lr_mult: 1
    decay_mult: 1
  }
  param {
    lr_mult: 2
    decay_mult: 1
  }
  scale_param {
    bias_term: true
  }
}
layer {
  name: "layer_256_1_relu2"
  type: "ReLU"
  bottom: "layer_256_1_conv1"
  top: "layer_256_1_conv1"
}
layer {
  name: "layer_256_1_conv2"
  type: "Convolution"
  bottom: "layer_256_1_conv1"
  top: "layer_256_1_conv2"
  param {
    lr_mult: 1
    decay_mult: 1
  }
  convolution_param {
    num_output: 256
    bias_term: false
    pad: 1
    kernel_size: 3
    stride: 1
    weight_filler {
      type: "msra"
    }
    bias_filler {
      type: "constant"
      value: 0
    }
  }
}
layer {
  name: "layer_256_1_conv_expand"
  type: "Convolution"
  bottom: "layer_256_1_bn1"
  top: "layer_256_1_conv_expand"
  param {
    lr_mult: 1
    decay_mult: 1
  }
  convolution_param {
    num_output: 256
    bias_term: false
    pad: 0
    kernel_size: 1
    stride: 2
    weight_filler {
      type: "msra"
    }
    bias_filler {
      type: "constant"
      value: 0
    }
  }
}
layer {
  name: "layer_256_1_sum"
  type: "Eltwise"
  bottom: "layer_256_1_conv_expand"
  bottom: "layer_256_1_conv2"
  top: "layer_256_1_sum"
}
layer {
  name: "layer_256_2_bn1"
  type: "BatchNorm"
  bottom: "layer_256_1_sum"
  top: "layer_256_2_bn1"
  param {
    lr_mult: 0
    decay_mult: 0
  }
  param {
    lr_mult: 0
    decay_mult: 0
  }
  param {
    lr_mult: 0
    decay_mult: 0
  }
}
layer {
  name: "layer_256_2_scale1"
  type: "Scale"
  bottom: "layer_256_2_bn1"
  top: "layer_256_2_bn1"
  param {
    lr_mult: 1
    decay_mult: 1
  }
  param {
    lr_mult: 2
    decay_mult: 1
  }
  scale_param {
    bias_term: true
  }
}
layer {
  name: "layer_256_2_relu1"
  type: "ReLU"
  bottom: "layer_256_2_bn1"
  top: "layer_256_2_bn1"
}
layer {
  name: "layer_256_2_conv1"
  type: "Convolution"
  bottom: "layer_256_2_bn1"
  top: "layer_256_2_conv1"
  param {
    lr_mult: 1
    decay_mult: 1
  }
  convolution_param {
    num_output: 256
    bias_term: false
    pad: 1
    kernel_size: 3
    stride: 1
    weight_filler {
      type: "msra"
    }
    bias_filler {
      type: "constant"
      value: 0
    }
  }
}
layer {
  name: "layer_256_2_bn2"
  type: "BatchNorm"
  bottom: "layer_256_2_conv1"
  top: "layer_256_2_conv1"
  param {
    lr_mult: 0
    decay_mult: 0
  }
  param {
    lr_mult: 0
    decay_mult: 0
  }
  param {
    lr_mult: 0
    decay_mult: 0
  }
}
layer {
  name: "layer_256_2_scale2"
  type: "Scale"
  bottom: "layer_256_2_conv1"
  top: "layer_256_2_conv1"
  param {
    lr_mult: 1
    decay_mult: 1
  }
  param {
    lr_mult: 2
    decay_mult: 1
  }
  scale_param {
    bias_term: true
  }
}
layer {
  name: "layer_256_2_relu2"
  type: "ReLU"
  bottom: "layer_256_2_conv1"
  top: "layer_256_2_conv1"
}
layer {
  name: "layer_256_2_conv2"
  type: "Convolution"
  bottom: "layer_256_2_conv1"
  top: "layer_256_2_conv2"
  param {
    lr_mult: 1
    decay_mult: 1
  }
  convolution_param {
    num_output: 256
    bias_term: false
    pad: 1
    kernel_size: 3
    stride: 1
    weight_filler {
      type: "msra"
    }
    bias_filler {
      type: "constant"
      value: 0
    }
  }
}
layer {
  name: "layer_256_2_sum"
  type: "Eltwise"
  bottom: "layer_256_2_conv2"
  bottom: "layer_256_1_sum"
  top: "layer_256_2_sum"
}
layer {
  name: "layer_512_1_bn1"
  type: "BatchNorm"
  bottom: "layer_256_2_sum"
  top: "layer_512_1_bn1"
  param {
    lr_mult: 0
    decay_mult: 0
  }
  param {
    lr_mult: 0
    decay_mult: 0
  }
  param {
    lr_mult: 0
    decay_mult: 0
  }
}
layer {
  name: "layer_512_1_scale1"
  type: "Scale"
  bottom: "layer_512_1_bn1"
  top: "layer_512_1_bn1"
  param {
    lr_mult: 1
    decay_mult: 1
  }
  param {
    lr_mult: 2
    decay_mult: 1
  }
  scale_param {
    bias_term: true
  }
}
layer {
  name: "layer_512_1_relu1"
  type: "ReLU"
  bottom: "layer_512_1_bn1"
  top: "layer_512_1_bn1"
}
layer {
  name: "layer_512_1_conv1"
  type: "Convolution"
  bottom: "layer_512_1_bn1"
  top: "layer_512_1_conv1"
  param {
    lr_mult: 1
    decay_mult: 1
  }
  convolution_param {
    num_output: 512
    bias_term: false
    pad: 1
    kernel_size: 3
    stride: 2
    weight_filler {
      type: "msra"
    }
    bias_filler {
      type: "constant"
      value: 0
    }
  }
}
layer {
  name: "layer_512_1_bn2"
  type: "BatchNorm"
  bottom: "layer_512_1_conv1"
  top: "layer_512_1_conv1"
  param {
    lr_mult: 0
    decay_mult: 0
  }
  param {
    lr_mult: 0
    decay_mult: 0
  }
  param {
    lr_mult: 0
    decay_mult: 0
  }
}
layer {
  name: "layer_512_1_scale2"
  type: "Scale"
  bottom: "layer_512_1_conv1"
  top: "layer_512_1_conv1"
  param {
    lr_mult: 1
    decay_mult: 1
  }
  param {
    lr_mult: 2
    decay_mult: 1
  }
  scale_param {
    bias_term: true
  }
}
layer {
  name: "layer_512_1_relu2"
  type: "ReLU"
  bottom: "layer_512_1_conv1"
  top: "layer_512_1_conv1"
}
layer {
  name: "layer_512_1_conv2"
  type: "Convolution"
  bottom: "layer_512_1_conv1"
  top: "layer_512_1_conv2"
  param {
    lr_mult: 1
    decay_mult: 1
  }
  convolution_param {
    num_output: 512
    bias_term: false
    pad: 1
    kernel_size: 3
    stride: 1
    weight_filler {
      type: "msra"
    }
    bias_filler {
      type: "constant"
      value: 0
    }
  }
}
layer {
  name: "layer_512_1_conv_expand"
  type: "Convolution"
  bottom: "layer_512_1_bn1"
  top: "layer_512_1_conv_expand"
  param {
    lr_mult: 1
    decay_mult: 1
  }
  convolution_param {
    num_output: 512
    bias_term: false
    pad: 0
    kernel_size: 1
    stride: 2
    weight_filler {
      type: "msra"
    }
    bias_filler {
      type: "constant"
      value: 0
    }
  }
}
layer {
  name: "layer_512_1_sum"
  type: "Eltwise"
  bottom: "layer_512_1_conv_expand"
  bottom: "layer_512_1_conv2"
  top: "layer_512_1_sum"
}
layer {
  name: "layer_512_2_bn1"
  type: "BatchNorm"
  bottom: "layer_512_1_sum"
  top: "layer_512_2_bn1"
  param {
    lr_mult: 0
    decay_mult: 0
  }
  param {
    lr_mult: 0
    decay_mult: 0
  }
  param {
    lr_mult: 0
    decay_mult: 0
  }
}
layer {
  name: "layer_512_2_scale1"
  type: "Scale"
  bottom: "layer_512_2_bn1"
  top: "layer_512_2_bn1"
  param {
    lr_mult: 1
    decay_mult: 1
  }
  param {
    lr_mult: 2
    decay_mult: 1
  }
  scale_param {
    bias_term: true
  }
}
layer {
  name: "layer_512_2_relu1"
  type: "ReLU"
  bottom: "layer_512_2_bn1"
  top: "layer_512_2_bn1"
}
layer {
  name: "layer_512_2_conv1"
  type: "Convolution"
  bottom: "layer_512_2_bn1"
  top: "layer_512_2_conv1"
  param {
    lr_mult: 1
    decay_mult: 1
  }
  convolution_param {
    num_output: 512
    bias_term: false
    pad: 1
    kernel_size: 3
    stride: 1
    weight_filler {
      type: "msra"
    }
    bias_filler {
      type: "constant"
      value: 0
    }
  }
}
layer {
  name: "layer_512_2_bn2"
  type: "BatchNorm"
  bottom: "layer_512_2_conv1"
  top: "layer_512_2_conv1"
  param {
    lr_mult: 0
    decay_mult: 0
  }
  param {
    lr_mult: 0
    decay_mult: 0
  }
  param {
    lr_mult: 0
    decay_mult: 0
  }
}
layer {
  name: "layer_512_2_scale2"
  type: "Scale"
  bottom: "layer_512_2_conv1"
  top: "layer_512_2_conv1"
  param {
    lr_mult: 1
    decay_mult: 1
  }
  param {
    lr_mult: 2
    decay_mult: 1
  }
  scale_param {
    bias_term: true
  }
}
layer {
  name: "layer_512_2_relu2"
  type: "ReLU"
  bottom: "layer_512_2_conv1"
  top: "layer_512_2_conv1"
}
layer {
  name: "layer_512_2_conv2"
  type: "Convolution"
  bottom: "layer_512_2_conv1"
  top: "layer_512_2_conv2"
  param {
    lr_mult: 1
    decay_mult: 1
  }
  convolution_param {
    num_output: 512
    bias_term: false
    pad: 1
    kernel_size: 3
    stride: 1
    weight_filler {
      type: "msra"
    }
    bias_filler {
      type: "constant"
      value: 0
    }
  }
}
layer {
  name: "layer_512_2_sum"
  type: "Eltwise"
  bottom: "layer_512_2_conv2"
  bottom: "layer_512_1_sum"
  top: "layer_512_2_sum"
}
layer {
  name: "last_bn"
  type: "BatchNorm"
  bottom: "layer_512_2_sum"
  top: "layer_512_2_sum"
  param {
    lr_mult: 0
    decay_mult: 0
  }
  param {
    lr_mult: 0
    decay_mult: 0
  }
  param {
    lr_mult: 0
    decay_mult: 0
  }
}
layer {
  name: "last_scale"
  type: "Scale"
  bottom: "layer_512_2_sum"
  top: "layer_512_2_sum"
  param {
    lr_mult: 1
    decay_mult: 1
  }
  param {
    lr_mult: 2
    decay_mult: 1
  }
  scale_param {
    bias_term: true
  }
}
layer {
  name: "last_relu"
  type: "ReLU"
  bottom: "layer_512_2_sum"
  top: "layer_512_2_sum"
}
layer {
  name: "global_pool"
  type: "Pooling"
  bottom: "layer_512_2_sum"
  top: "global_pool"
  pooling_param {
    pool: AVE
    global_pooling: true
  }
}
layer {
  name: "score"
  type: "InnerProduct"
  bottom: "global_pool"
  top: "score"
  param {
    lr_mult: 1
    decay_mult: 1
  }
  param {
    lr_mult: 2
    decay_mult: 1
  }
  inner_product_param {
    num_output: 8
  }
}
layer {
  name: "loss"
  type: "SoftmaxWithLoss"
  bottom: "score"
  bottom: "label"
  top: "loss"
}
I0528 21:50:16.645598 142602 layer_factory.hpp:77] Creating layer data
I0528 21:50:16.645978 142602 db_lmdb.cpp:35] Opened lmdb /storage/Test_fold_is_01/age_train_lmdb
I0528 21:50:16.646016 142602 net.cpp:84] Creating Layer data
I0528 21:50:16.646030 142602 net.cpp:380] data -> data
I0528 21:50:16.646065 142602 net.cpp:380] data -> label
I0528 21:50:16.646087 142602 data_transformer.cpp:25] Loading mean file from: /storage/Test_fold_is_01/mean.binaryproto
I0528 21:50:16.649178 142602 data_layer.cpp:45] output data size: 100,3,224,224
I0528 21:50:16.784145 142602 net.cpp:122] Setting up data
I0528 21:50:16.784207 142602 net.cpp:129] Top shape: 100 3 224 224 (15052800)
I0528 21:50:16.784215 142602 net.cpp:129] Top shape: 100 (100)
I0528 21:50:16.784219 142602 net.cpp:137] Memory required for data: 60211600
I0528 21:50:16.784231 142602 layer_factory.hpp:77] Creating layer data_bn
I0528 21:50:16.784251 142602 net.cpp:84] Creating Layer data_bn
I0528 21:50:16.784258 142602 net.cpp:406] data_bn <- data
I0528 21:50:16.784276 142602 net.cpp:380] data_bn -> data_bn
I0528 21:50:16.785209 142602 net.cpp:122] Setting up data_bn
I0528 21:50:16.785228 142602 net.cpp:129] Top shape: 100 3 224 224 (15052800)
I0528 21:50:16.785233 142602 net.cpp:137] Memory required for data: 120422800
I0528 21:50:16.785255 142602 layer_factory.hpp:77] Creating layer data_scale
I0528 21:50:16.785269 142602 net.cpp:84] Creating Layer data_scale
I0528 21:50:16.785274 142602 net.cpp:406] data_scale <- data_bn
I0528 21:50:16.785281 142602 net.cpp:367] data_scale -> data_bn (in-place)
I0528 21:50:16.785333 142602 layer_factory.hpp:77] Creating layer data_scale
I0528 21:50:16.785485 142602 net.cpp:122] Setting up data_scale
I0528 21:50:16.785493 142602 net.cpp:129] Top shape: 100 3 224 224 (15052800)
I0528 21:50:16.785496 142602 net.cpp:137] Memory required for data: 180634000
I0528 21:50:16.785506 142602 layer_factory.hpp:77] Creating layer conv1
I0528 21:50:16.785523 142602 net.cpp:84] Creating Layer conv1
I0528 21:50:16.785528 142602 net.cpp:406] conv1 <- data_bn
I0528 21:50:16.785536 142602 net.cpp:380] conv1 -> conv1
I0528 21:50:16.976056 142602 net.cpp:122] Setting up conv1
I0528 21:50:16.976104 142602 net.cpp:129] Top shape: 100 64 112 112 (80281600)
I0528 21:50:16.976109 142602 net.cpp:137] Memory required for data: 501760400
I0528 21:50:16.976120 142602 layer_factory.hpp:77] Creating layer conv1_bn
I0528 21:50:16.976136 142602 net.cpp:84] Creating Layer conv1_bn
I0528 21:50:16.976142 142602 net.cpp:406] conv1_bn <- conv1
I0528 21:50:16.976150 142602 net.cpp:367] conv1_bn -> conv1 (in-place)
I0528 21:50:16.976305 142602 net.cpp:122] Setting up conv1_bn
I0528 21:50:16.976312 142602 net.cpp:129] Top shape: 100 64 112 112 (80281600)
I0528 21:50:16.976316 142602 net.cpp:137] Memory required for data: 822886800
I0528 21:50:16.976328 142602 layer_factory.hpp:77] Creating layer conv1_scale
I0528 21:50:16.976337 142602 net.cpp:84] Creating Layer conv1_scale
I0528 21:50:16.976351 142602 net.cpp:406] conv1_scale <- conv1
I0528 21:50:16.976366 142602 net.cpp:367] conv1_scale -> conv1 (in-place)
I0528 21:50:16.976408 142602 layer_factory.hpp:77] Creating layer conv1_scale
I0528 21:50:16.976512 142602 net.cpp:122] Setting up conv1_scale
I0528 21:50:16.976519 142602 net.cpp:129] Top shape: 100 64 112 112 (80281600)
I0528 21:50:16.976523 142602 net.cpp:137] Memory required for data: 1144013200
I0528 21:50:16.976528 142602 layer_factory.hpp:77] Creating layer conv1_relu
I0528 21:50:16.976539 142602 net.cpp:84] Creating Layer conv1_relu
I0528 21:50:16.976542 142602 net.cpp:406] conv1_relu <- conv1
I0528 21:50:16.976547 142602 net.cpp:367] conv1_relu -> conv1 (in-place)
I0528 21:50:16.977114 142602 net.cpp:122] Setting up conv1_relu
I0528 21:50:16.977130 142602 net.cpp:129] Top shape: 100 64 112 112 (80281600)
I0528 21:50:16.977134 142602 net.cpp:137] Memory required for data: 1465139600
I0528 21:50:16.977138 142602 layer_factory.hpp:77] Creating layer conv1_pool
I0528 21:50:16.977145 142602 net.cpp:84] Creating Layer conv1_pool
I0528 21:50:16.977149 142602 net.cpp:406] conv1_pool <- conv1
I0528 21:50:16.977155 142602 net.cpp:380] conv1_pool -> conv1_pool
I0528 21:50:16.977208 142602 net.cpp:122] Setting up conv1_pool
I0528 21:50:16.977217 142602 net.cpp:129] Top shape: 100 64 56 56 (20070400)
I0528 21:50:16.977221 142602 net.cpp:137] Memory required for data: 1545421200
I0528 21:50:16.977223 142602 layer_factory.hpp:77] Creating layer conv1_pool_conv1_pool_0_split
I0528 21:50:16.977232 142602 net.cpp:84] Creating Layer conv1_pool_conv1_pool_0_split
I0528 21:50:16.977236 142602 net.cpp:406] conv1_pool_conv1_pool_0_split <- conv1_pool
I0528 21:50:16.977241 142602 net.cpp:380] conv1_pool_conv1_pool_0_split -> conv1_pool_conv1_pool_0_split_0
I0528 21:50:16.977247 142602 net.cpp:380] conv1_pool_conv1_pool_0_split -> conv1_pool_conv1_pool_0_split_1
I0528 21:50:16.977277 142602 net.cpp:122] Setting up conv1_pool_conv1_pool_0_split
I0528 21:50:16.977283 142602 net.cpp:129] Top shape: 100 64 56 56 (20070400)
I0528 21:50:16.977286 142602 net.cpp:129] Top shape: 100 64 56 56 (20070400)
I0528 21:50:16.977289 142602 net.cpp:137] Memory required for data: 1705984400
I0528 21:50:16.977293 142602 layer_factory.hpp:77] Creating layer layer_64_1_conv1
I0528 21:50:16.977304 142602 net.cpp:84] Creating Layer layer_64_1_conv1
I0528 21:50:16.977308 142602 net.cpp:406] layer_64_1_conv1 <- conv1_pool_conv1_pool_0_split_0
I0528 21:50:16.977313 142602 net.cpp:380] layer_64_1_conv1 -> layer_64_1_conv1
I0528 21:50:16.984407 142602 net.cpp:122] Setting up layer_64_1_conv1
I0528 21:50:16.984424 142602 net.cpp:129] Top shape: 100 64 56 56 (20070400)
I0528 21:50:16.984429 142602 net.cpp:137] Memory required for data: 1786266000
I0528 21:50:16.984434 142602 layer_factory.hpp:77] Creating layer layer_64_1_bn2
I0528 21:50:16.984442 142602 net.cpp:84] Creating Layer layer_64_1_bn2
I0528 21:50:16.984447 142602 net.cpp:406] layer_64_1_bn2 <- layer_64_1_conv1
I0528 21:50:16.984452 142602 net.cpp:367] layer_64_1_bn2 -> layer_64_1_conv1 (in-place)
I0528 21:50:16.990347 142602 net.cpp:122] Setting up layer_64_1_bn2
I0528 21:50:16.990367 142602 net.cpp:129] Top shape: 100 64 56 56 (20070400)
I0528 21:50:16.990371 142602 net.cpp:137] Memory required for data: 1866547600
I0528 21:50:16.990381 142602 layer_factory.hpp:77] Creating layer layer_64_1_scale2
I0528 21:50:16.990388 142602 net.cpp:84] Creating Layer layer_64_1_scale2
I0528 21:50:16.990393 142602 net.cpp:406] layer_64_1_scale2 <- layer_64_1_conv1
I0528 21:50:16.990399 142602 net.cpp:367] layer_64_1_scale2 -> layer_64_1_conv1 (in-place)
I0528 21:50:16.990438 142602 layer_factory.hpp:77] Creating layer layer_64_1_scale2
I0528 21:50:16.990540 142602 net.cpp:122] Setting up layer_64_1_scale2
I0528 21:50:16.990546 142602 net.cpp:129] Top shape: 100 64 56 56 (20070400)
I0528 21:50:16.990550 142602 net.cpp:137] Memory required for data: 1946829200
I0528 21:50:16.990561 142602 layer_factory.hpp:77] Creating layer layer_64_1_relu2
I0528 21:50:16.990567 142602 net.cpp:84] Creating Layer layer_64_1_relu2
I0528 21:50:16.990576 142602 net.cpp:406] layer_64_1_relu2 <- layer_64_1_conv1
I0528 21:50:16.990589 142602 net.cpp:367] layer_64_1_relu2 -> layer_64_1_conv1 (in-place)
I0528 21:50:16.990756 142602 net.cpp:122] Setting up layer_64_1_relu2
I0528 21:50:16.990768 142602 net.cpp:129] Top shape: 100 64 56 56 (20070400)
I0528 21:50:16.990772 142602 net.cpp:137] Memory required for data: 2027110800
I0528 21:50:16.990775 142602 layer_factory.hpp:77] Creating layer layer_64_1_conv2
I0528 21:50:16.990787 142602 net.cpp:84] Creating Layer layer_64_1_conv2
I0528 21:50:16.990790 142602 net.cpp:406] layer_64_1_conv2 <- layer_64_1_conv1
I0528 21:50:16.990797 142602 net.cpp:380] layer_64_1_conv2 -> layer_64_1_conv2
I0528 21:50:16.993199 142602 net.cpp:122] Setting up layer_64_1_conv2
I0528 21:50:16.993217 142602 net.cpp:129] Top shape: 100 64 56 56 (20070400)
I0528 21:50:16.993222 142602 net.cpp:137] Memory required for data: 2107392400
I0528 21:50:16.993227 142602 layer_factory.hpp:77] Creating layer layer_64_1_sum
I0528 21:50:16.993238 142602 net.cpp:84] Creating Layer layer_64_1_sum
I0528 21:50:16.993242 142602 net.cpp:406] layer_64_1_sum <- layer_64_1_conv2
I0528 21:50:16.993247 142602 net.cpp:406] layer_64_1_sum <- conv1_pool_conv1_pool_0_split_1
I0528 21:50:16.993252 142602 net.cpp:380] layer_64_1_sum -> layer_64_1_sum
I0528 21:50:16.993288 142602 net.cpp:122] Setting up layer_64_1_sum
I0528 21:50:16.993294 142602 net.cpp:129] Top shape: 100 64 56 56 (20070400)
I0528 21:50:16.993297 142602 net.cpp:137] Memory required for data: 2187674000
I0528 21:50:16.993300 142602 layer_factory.hpp:77] Creating layer layer_64_1_sum_layer_64_1_sum_0_split
I0528 21:50:16.993305 142602 net.cpp:84] Creating Layer layer_64_1_sum_layer_64_1_sum_0_split
I0528 21:50:16.993309 142602 net.cpp:406] layer_64_1_sum_layer_64_1_sum_0_split <- layer_64_1_sum
I0528 21:50:16.993316 142602 net.cpp:380] layer_64_1_sum_layer_64_1_sum_0_split -> layer_64_1_sum_layer_64_1_sum_0_split_0
I0528 21:50:16.993322 142602 net.cpp:380] layer_64_1_sum_layer_64_1_sum_0_split -> layer_64_1_sum_layer_64_1_sum_0_split_1
I0528 21:50:16.993352 142602 net.cpp:122] Setting up layer_64_1_sum_layer_64_1_sum_0_split
I0528 21:50:16.993360 142602 net.cpp:129] Top shape: 100 64 56 56 (20070400)
I0528 21:50:16.993365 142602 net.cpp:129] Top shape: 100 64 56 56 (20070400)
I0528 21:50:16.993366 142602 net.cpp:137] Memory required for data: 2348237200
I0528 21:50:16.993371 142602 layer_factory.hpp:77] Creating layer layer_64_2_bn1
I0528 21:50:16.993379 142602 net.cpp:84] Creating Layer layer_64_2_bn1
I0528 21:50:16.993382 142602 net.cpp:406] layer_64_2_bn1 <- layer_64_1_sum_layer_64_1_sum_0_split_0
I0528 21:50:16.993388 142602 net.cpp:380] layer_64_2_bn1 -> layer_64_2_bn1
I0528 21:50:16.993546 142602 net.cpp:122] Setting up layer_64_2_bn1
I0528 21:50:16.993553 142602 net.cpp:129] Top shape: 100 64 56 56 (20070400)
I0528 21:50:16.993556 142602 net.cpp:137] Memory required for data: 2428518800
I0528 21:50:16.993562 142602 layer_factory.hpp:77] Creating layer layer_64_2_scale1
I0528 21:50:16.993569 142602 net.cpp:84] Creating Layer layer_64_2_scale1
I0528 21:50:16.993572 142602 net.cpp:406] layer_64_2_scale1 <- layer_64_2_bn1
I0528 21:50:16.993579 142602 net.cpp:367] layer_64_2_scale1 -> layer_64_2_bn1 (in-place)
I0528 21:50:16.993620 142602 layer_factory.hpp:77] Creating layer layer_64_2_scale1
I0528 21:50:16.993721 142602 net.cpp:122] Setting up layer_64_2_scale1
I0528 21:50:16.993727 142602 net.cpp:129] Top shape: 100 64 56 56 (20070400)
I0528 21:50:16.993731 142602 net.cpp:137] Memory required for data: 2508800400
I0528 21:50:16.993736 142602 layer_factory.hpp:77] Creating layer layer_64_2_relu1
I0528 21:50:16.993741 142602 net.cpp:84] Creating Layer layer_64_2_relu1
I0528 21:50:16.993744 142602 net.cpp:406] layer_64_2_relu1 <- layer_64_2_bn1
I0528 21:50:16.993751 142602 net.cpp:367] layer_64_2_relu1 -> layer_64_2_bn1 (in-place)
I0528 21:50:16.993908 142602 net.cpp:122] Setting up layer_64_2_relu1
I0528 21:50:16.993918 142602 net.cpp:129] Top shape: 100 64 56 56 (20070400)
I0528 21:50:16.993927 142602 net.cpp:137] Memory required for data: 2589082000
I0528 21:50:16.993937 142602 layer_factory.hpp:77] Creating layer layer_64_2_conv1
I0528 21:50:16.993949 142602 net.cpp:84] Creating Layer layer_64_2_conv1
I0528 21:50:16.993953 142602 net.cpp:406] layer_64_2_conv1 <- layer_64_2_bn1
I0528 21:50:16.993959 142602 net.cpp:380] layer_64_2_conv1 -> layer_64_2_conv1
I0528 21:50:16.996379 142602 net.cpp:122] Setting up layer_64_2_conv1
I0528 21:50:16.996397 142602 net.cpp:129] Top shape: 100 64 56 56 (20070400)
I0528 21:50:16.996400 142602 net.cpp:137] Memory required for data: 2669363600
I0528 21:50:16.996407 142602 layer_factory.hpp:77] Creating layer layer_64_2_bn2
I0528 21:50:16.996415 142602 net.cpp:84] Creating Layer layer_64_2_bn2
I0528 21:50:16.996419 142602 net.cpp:406] layer_64_2_bn2 <- layer_64_2_conv1
I0528 21:50:16.996424 142602 net.cpp:367] layer_64_2_bn2 -> layer_64_2_conv1 (in-place)
I0528 21:50:16.996587 142602 net.cpp:122] Setting up layer_64_2_bn2
I0528 21:50:16.996594 142602 net.cpp:129] Top shape: 100 64 56 56 (20070400)
I0528 21:50:16.996598 142602 net.cpp:137] Memory required for data: 2749645200
I0528 21:50:16.996604 142602 layer_factory.hpp:77] Creating layer layer_64_2_scale2
I0528 21:50:16.996611 142602 net.cpp:84] Creating Layer layer_64_2_scale2
I0528 21:50:16.996614 142602 net.cpp:406] layer_64_2_scale2 <- layer_64_2_conv1
I0528 21:50:16.996619 142602 net.cpp:367] layer_64_2_scale2 -> layer_64_2_conv1 (in-place)
I0528 21:50:16.996661 142602 layer_factory.hpp:77] Creating layer layer_64_2_scale2
I0528 21:50:16.996758 142602 net.cpp:122] Setting up layer_64_2_scale2
I0528 21:50:16.996767 142602 net.cpp:129] Top shape: 100 64 56 56 (20070400)
I0528 21:50:16.996770 142602 net.cpp:137] Memory required for data: 2829926800
I0528 21:50:16.996776 142602 layer_factory.hpp:77] Creating layer layer_64_2_relu2
I0528 21:50:16.996781 142602 net.cpp:84] Creating Layer layer_64_2_relu2
I0528 21:50:16.996785 142602 net.cpp:406] layer_64_2_relu2 <- layer_64_2_conv1
I0528 21:50:16.996790 142602 net.cpp:367] layer_64_2_relu2 -> layer_64_2_conv1 (in-place)
I0528 21:50:16.997362 142602 net.cpp:122] Setting up layer_64_2_relu2
I0528 21:50:16.997378 142602 net.cpp:129] Top shape: 100 64 56 56 (20070400)
I0528 21:50:16.997382 142602 net.cpp:137] Memory required for data: 2910208400
I0528 21:50:16.997386 142602 layer_factory.hpp:77] Creating layer layer_64_2_conv2
I0528 21:50:16.997398 142602 net.cpp:84] Creating Layer layer_64_2_conv2
I0528 21:50:16.997403 142602 net.cpp:406] layer_64_2_conv2 <- layer_64_2_conv1
I0528 21:50:16.997412 142602 net.cpp:380] layer_64_2_conv2 -> layer_64_2_conv2
I0528 21:50:17.000355 142602 net.cpp:122] Setting up layer_64_2_conv2
I0528 21:50:17.000373 142602 net.cpp:129] Top shape: 100 64 56 56 (20070400)
I0528 21:50:17.000377 142602 net.cpp:137] Memory required for data: 2990490000
I0528 21:50:17.000383 142602 layer_factory.hpp:77] Creating layer layer_64_2_sum
I0528 21:50:17.000391 142602 net.cpp:84] Creating Layer layer_64_2_sum
I0528 21:50:17.000396 142602 net.cpp:406] layer_64_2_sum <- layer_64_2_conv2
I0528 21:50:17.000401 142602 net.cpp:406] layer_64_2_sum <- layer_64_1_sum_layer_64_1_sum_0_split_1
I0528 21:50:17.000406 142602 net.cpp:380] layer_64_2_sum -> layer_64_2_sum
I0528 21:50:17.000432 142602 net.cpp:122] Setting up layer_64_2_sum
I0528 21:50:17.000439 142602 net.cpp:129] Top shape: 100 64 56 56 (20070400)
I0528 21:50:17.000442 142602 net.cpp:137] Memory required for data: 3070771600
I0528 21:50:17.000445 142602 layer_factory.hpp:77] Creating layer layer_128_1_bn1
I0528 21:50:17.000453 142602 net.cpp:84] Creating Layer layer_128_1_bn1
I0528 21:50:17.000457 142602 net.cpp:406] layer_128_1_bn1 <- layer_64_2_sum
I0528 21:50:17.000461 142602 net.cpp:380] layer_128_1_bn1 -> layer_128_1_bn1
I0528 21:50:17.000638 142602 net.cpp:122] Setting up layer_128_1_bn1
I0528 21:50:17.000645 142602 net.cpp:129] Top shape: 100 64 56 56 (20070400)
I0528 21:50:17.000648 142602 net.cpp:137] Memory required for data: 3151053200
I0528 21:50:17.000659 142602 layer_factory.hpp:77] Creating layer layer_128_1_scale1
I0528 21:50:17.000672 142602 net.cpp:84] Creating Layer layer_128_1_scale1
I0528 21:50:17.000684 142602 net.cpp:406] layer_128_1_scale1 <- layer_128_1_bn1
I0528 21:50:17.000689 142602 net.cpp:367] layer_128_1_scale1 -> layer_128_1_bn1 (in-place)
I0528 21:50:17.000730 142602 layer_factory.hpp:77] Creating layer layer_128_1_scale1
I0528 21:50:17.000833 142602 net.cpp:122] Setting up layer_128_1_scale1
I0528 21:50:17.000839 142602 net.cpp:129] Top shape: 100 64 56 56 (20070400)
I0528 21:50:17.000843 142602 net.cpp:137] Memory required for data: 3231334800
I0528 21:50:17.000849 142602 layer_factory.hpp:77] Creating layer layer_128_1_relu1
I0528 21:50:17.000855 142602 net.cpp:84] Creating Layer layer_128_1_relu1
I0528 21:50:17.000859 142602 net.cpp:406] layer_128_1_relu1 <- layer_128_1_bn1
I0528 21:50:17.000864 142602 net.cpp:367] layer_128_1_relu1 -> layer_128_1_bn1 (in-place)
I0528 21:50:17.001022 142602 net.cpp:122] Setting up layer_128_1_relu1
I0528 21:50:17.001034 142602 net.cpp:129] Top shape: 100 64 56 56 (20070400)
I0528 21:50:17.001037 142602 net.cpp:137] Memory required for data: 3311616400
I0528 21:50:17.001052 142602 layer_factory.hpp:77] Creating layer layer_128_1_bn1_layer_128_1_relu1_0_split
I0528 21:50:17.001060 142602 net.cpp:84] Creating Layer layer_128_1_bn1_layer_128_1_relu1_0_split
I0528 21:50:17.001063 142602 net.cpp:406] layer_128_1_bn1_layer_128_1_relu1_0_split <- layer_128_1_bn1
I0528 21:50:17.001068 142602 net.cpp:380] layer_128_1_bn1_layer_128_1_relu1_0_split -> layer_128_1_bn1_layer_128_1_relu1_0_split_0
I0528 21:50:17.001075 142602 net.cpp:380] layer_128_1_bn1_layer_128_1_relu1_0_split -> layer_128_1_bn1_layer_128_1_relu1_0_split_1
I0528 21:50:17.001114 142602 net.cpp:122] Setting up layer_128_1_bn1_layer_128_1_relu1_0_split
I0528 21:50:17.001121 142602 net.cpp:129] Top shape: 100 64 56 56 (20070400)
I0528 21:50:17.001126 142602 net.cpp:129] Top shape: 100 64 56 56 (20070400)
I0528 21:50:17.001128 142602 net.cpp:137] Memory required for data: 3472179600
I0528 21:50:17.001132 142602 layer_factory.hpp:77] Creating layer layer_128_1_conv1
I0528 21:50:17.001142 142602 net.cpp:84] Creating Layer layer_128_1_conv1
I0528 21:50:17.001145 142602 net.cpp:406] layer_128_1_conv1 <- layer_128_1_bn1_layer_128_1_relu1_0_split_0
I0528 21:50:17.001153 142602 net.cpp:380] layer_128_1_conv1 -> layer_128_1_conv1
I0528 21:50:17.005470 142602 net.cpp:122] Setting up layer_128_1_conv1
I0528 21:50:17.005487 142602 net.cpp:129] Top shape: 100 128 28 28 (10035200)
I0528 21:50:17.005491 142602 net.cpp:137] Memory required for data: 3512320400
I0528 21:50:17.005497 142602 layer_factory.hpp:77] Creating layer layer_128_1_bn2
I0528 21:50:17.005506 142602 net.cpp:84] Creating Layer layer_128_1_bn2
I0528 21:50:17.005511 142602 net.cpp:406] layer_128_1_bn2 <- layer_128_1_conv1
I0528 21:50:17.005517 142602 net.cpp:367] layer_128_1_bn2 -> layer_128_1_conv1 (in-place)
I0528 21:50:17.006222 142602 net.cpp:122] Setting up layer_128_1_bn2
I0528 21:50:17.006237 142602 net.cpp:129] Top shape: 100 128 28 28 (10035200)
I0528 21:50:17.006242 142602 net.cpp:137] Memory required for data: 3552461200
I0528 21:50:17.006252 142602 layer_factory.hpp:77] Creating layer layer_128_1_scale2
I0528 21:50:17.006258 142602 net.cpp:84] Creating Layer layer_128_1_scale2
I0528 21:50:17.006263 142602 net.cpp:406] layer_128_1_scale2 <- layer_128_1_conv1
I0528 21:50:17.006268 142602 net.cpp:367] layer_128_1_scale2 -> layer_128_1_conv1 (in-place)
I0528 21:50:17.006309 142602 layer_factory.hpp:77] Creating layer layer_128_1_scale2
I0528 21:50:17.006407 142602 net.cpp:122] Setting up layer_128_1_scale2
I0528 21:50:17.006413 142602 net.cpp:129] Top shape: 100 128 28 28 (10035200)
I0528 21:50:17.006417 142602 net.cpp:137] Memory required for data: 3592602000
I0528 21:50:17.006422 142602 layer_factory.hpp:77] Creating layer layer_128_1_relu2
I0528 21:50:17.006433 142602 net.cpp:84] Creating Layer layer_128_1_relu2
I0528 21:50:17.006436 142602 net.cpp:406] layer_128_1_relu2 <- layer_128_1_conv1
I0528 21:50:17.006441 142602 net.cpp:367] layer_128_1_relu2 -> layer_128_1_conv1 (in-place)
I0528 21:50:17.006619 142602 net.cpp:122] Setting up layer_128_1_relu2
I0528 21:50:17.006631 142602 net.cpp:129] Top shape: 100 128 28 28 (10035200)
I0528 21:50:17.006635 142602 net.cpp:137] Memory required for data: 3632742800
I0528 21:50:17.006639 142602 layer_factory.hpp:77] Creating layer layer_128_1_conv2
I0528 21:50:17.006649 142602 net.cpp:84] Creating Layer layer_128_1_conv2
I0528 21:50:17.006654 142602 net.cpp:406] layer_128_1_conv2 <- layer_128_1_conv1
I0528 21:50:17.006659 142602 net.cpp:380] layer_128_1_conv2 -> layer_128_1_conv2
I0528 21:50:17.011922 142602 net.cpp:122] Setting up layer_128_1_conv2
I0528 21:50:17.011940 142602 net.cpp:129] Top shape: 100 128 28 28 (10035200)
I0528 21:50:17.011943 142602 net.cpp:137] Memory required for data: 3672883600
I0528 21:50:17.011948 142602 layer_factory.hpp:77] Creating layer layer_128_1_conv_expand
I0528 21:50:17.011962 142602 net.cpp:84] Creating Layer layer_128_1_conv_expand
I0528 21:50:17.011967 142602 net.cpp:406] layer_128_1_conv_expand <- layer_128_1_bn1_layer_128_1_relu1_0_split_1
I0528 21:50:17.011975 142602 net.cpp:380] layer_128_1_conv_expand -> layer_128_1_conv_expand
I0528 21:50:17.013674 142602 net.cpp:122] Setting up layer_128_1_conv_expand
I0528 21:50:17.013692 142602 net.cpp:129] Top shape: 100 128 28 28 (10035200)
I0528 21:50:17.013697 142602 net.cpp:137] Memory required for data: 3713024400
I0528 21:50:17.013702 142602 layer_factory.hpp:77] Creating layer layer_128_1_sum
I0528 21:50:17.013710 142602 net.cpp:84] Creating Layer layer_128_1_sum
I0528 21:50:17.013713 142602 net.cpp:406] layer_128_1_sum <- layer_128_1_conv_expand
I0528 21:50:17.013718 142602 net.cpp:406] layer_128_1_sum <- layer_128_1_conv2
I0528 21:50:17.013723 142602 net.cpp:380] layer_128_1_sum -> layer_128_1_sum
I0528 21:50:17.013751 142602 net.cpp:122] Setting up layer_128_1_sum
I0528 21:50:17.013759 142602 net.cpp:129] Top shape: 100 128 28 28 (10035200)
I0528 21:50:17.013762 142602 net.cpp:137] Memory required for data: 3753165200
I0528 21:50:17.013766 142602 layer_factory.hpp:77] Creating layer layer_128_1_sum_layer_128_1_sum_0_split
I0528 21:50:17.013772 142602 net.cpp:84] Creating Layer layer_128_1_sum_layer_128_1_sum_0_split
I0528 21:50:17.013774 142602 net.cpp:406] layer_128_1_sum_layer_128_1_sum_0_split <- layer_128_1_sum
I0528 21:50:17.013782 142602 net.cpp:380] layer_128_1_sum_layer_128_1_sum_0_split -> layer_128_1_sum_layer_128_1_sum_0_split_0
I0528 21:50:17.013788 142602 net.cpp:380] layer_128_1_sum_layer_128_1_sum_0_split -> layer_128_1_sum_layer_128_1_sum_0_split_1
I0528 21:50:17.013820 142602 net.cpp:122] Setting up layer_128_1_sum_layer_128_1_sum_0_split
I0528 21:50:17.013828 142602 net.cpp:129] Top shape: 100 128 28 28 (10035200)
I0528 21:50:17.013833 142602 net.cpp:129] Top shape: 100 128 28 28 (10035200)
I0528 21:50:17.013836 142602 net.cpp:137] Memory required for data: 3833446800
I0528 21:50:17.013839 142602 layer_factory.hpp:77] Creating layer layer_128_2_bn1
I0528 21:50:17.013845 142602 net.cpp:84] Creating Layer layer_128_2_bn1
I0528 21:50:17.013849 142602 net.cpp:406] layer_128_2_bn1 <- layer_128_1_sum_layer_128_1_sum_0_split_0
I0528 21:50:17.013855 142602 net.cpp:380] layer_128_2_bn1 -> layer_128_2_bn1
I0528 21:50:17.014026 142602 net.cpp:122] Setting up layer_128_2_bn1
I0528 21:50:17.014035 142602 net.cpp:129] Top shape: 100 128 28 28 (10035200)
I0528 21:50:17.014039 142602 net.cpp:137] Memory required for data: 3873587600
I0528 21:50:17.014055 142602 layer_factory.hpp:77] Creating layer layer_128_2_scale1
I0528 21:50:17.014063 142602 net.cpp:84] Creating Layer layer_128_2_scale1
I0528 21:50:17.014067 142602 net.cpp:406] layer_128_2_scale1 <- layer_128_2_bn1
I0528 21:50:17.014073 142602 net.cpp:367] layer_128_2_scale1 -> layer_128_2_bn1 (in-place)
I0528 21:50:17.014112 142602 layer_factory.hpp:77] Creating layer layer_128_2_scale1
I0528 21:50:17.014214 142602 net.cpp:122] Setting up layer_128_2_scale1
I0528 21:50:17.014221 142602 net.cpp:129] Top shape: 100 128 28 28 (10035200)
I0528 21:50:17.014225 142602 net.cpp:137] Memory required for data: 3913728400
I0528 21:50:17.014241 142602 layer_factory.hpp:77] Creating layer layer_128_2_relu1
I0528 21:50:17.014248 142602 net.cpp:84] Creating Layer layer_128_2_relu1
I0528 21:50:17.014251 142602 net.cpp:406] layer_128_2_relu1 <- layer_128_2_bn1
I0528 21:50:17.014257 142602 net.cpp:367] layer_128_2_relu1 -> layer_128_2_bn1 (in-place)
I0528 21:50:17.015238 142602 net.cpp:122] Setting up layer_128_2_relu1
I0528 21:50:17.015254 142602 net.cpp:129] Top shape: 100 128 28 28 (10035200)
I0528 21:50:17.015257 142602 net.cpp:137] Memory required for data: 3953869200
I0528 21:50:17.015261 142602 layer_factory.hpp:77] Creating layer layer_128_2_conv1
I0528 21:50:17.015272 142602 net.cpp:84] Creating Layer layer_128_2_conv1
I0528 21:50:17.015277 142602 net.cpp:406] layer_128_2_conv1 <- layer_128_2_bn1
I0528 21:50:17.015285 142602 net.cpp:380] layer_128_2_conv1 -> layer_128_2_conv1
I0528 21:50:17.020674 142602 net.cpp:122] Setting up layer_128_2_conv1
I0528 21:50:17.020691 142602 net.cpp:129] Top shape: 100 128 28 28 (10035200)
I0528 21:50:17.020695 142602 net.cpp:137] Memory required for data: 3994010000
I0528 21:50:17.020701 142602 layer_factory.hpp:77] Creating layer layer_128_2_bn2
I0528 21:50:17.020710 142602 net.cpp:84] Creating Layer layer_128_2_bn2
I0528 21:50:17.020714 142602 net.cpp:406] layer_128_2_bn2 <- layer_128_2_conv1
I0528 21:50:17.020720 142602 net.cpp:367] layer_128_2_bn2 -> layer_128_2_conv1 (in-place)
I0528 21:50:17.020890 142602 net.cpp:122] Setting up layer_128_2_bn2
I0528 21:50:17.020898 142602 net.cpp:129] Top shape: 100 128 28 28 (10035200)
I0528 21:50:17.020901 142602 net.cpp:137] Memory required for data: 4034150800
I0528 21:50:17.020910 142602 layer_factory.hpp:77] Creating layer layer_128_2_scale2
I0528 21:50:17.020917 142602 net.cpp:84] Creating Layer layer_128_2_scale2
I0528 21:50:17.020920 142602 net.cpp:406] layer_128_2_scale2 <- layer_128_2_conv1
I0528 21:50:17.020925 142602 net.cpp:367] layer_128_2_scale2 -> layer_128_2_conv1 (in-place)
I0528 21:50:17.020963 142602 layer_factory.hpp:77] Creating layer layer_128_2_scale2
I0528 21:50:17.021069 142602 net.cpp:122] Setting up layer_128_2_scale2
I0528 21:50:17.021080 142602 net.cpp:129] Top shape: 100 128 28 28 (10035200)
I0528 21:50:17.021083 142602 net.cpp:137] Memory required for data: 4074291600
I0528 21:50:17.021088 142602 layer_factory.hpp:77] Creating layer layer_128_2_relu2
I0528 21:50:17.021096 142602 net.cpp:84] Creating Layer layer_128_2_relu2
I0528 21:50:17.021100 142602 net.cpp:406] layer_128_2_relu2 <- layer_128_2_conv1
I0528 21:50:17.021106 142602 net.cpp:367] layer_128_2_relu2 -> layer_128_2_conv1 (in-place)
I0528 21:50:17.021672 142602 net.cpp:122] Setting up layer_128_2_relu2
I0528 21:50:17.021687 142602 net.cpp:129] Top shape: 100 128 28 28 (10035200)
I0528 21:50:17.021690 142602 net.cpp:137] Memory required for data: 4114432400
I0528 21:50:17.021694 142602 layer_factory.hpp:77] Creating layer layer_128_2_conv2
I0528 21:50:17.021704 142602 net.cpp:84] Creating Layer layer_128_2_conv2
I0528 21:50:17.021709 142602 net.cpp:406] layer_128_2_conv2 <- layer_128_2_conv1
I0528 21:50:17.021715 142602 net.cpp:380] layer_128_2_conv2 -> layer_128_2_conv2
I0528 21:50:17.027513 142602 net.cpp:122] Setting up layer_128_2_conv2
I0528 21:50:17.027530 142602 net.cpp:129] Top shape: 100 128 28 28 (10035200)
I0528 21:50:17.027534 142602 net.cpp:137] Memory required for data: 4154573200
I0528 21:50:17.027539 142602 layer_factory.hpp:77] Creating layer layer_128_2_sum
I0528 21:50:17.027546 142602 net.cpp:84] Creating Layer layer_128_2_sum
I0528 21:50:17.027550 142602 net.cpp:406] layer_128_2_sum <- layer_128_2_conv2
I0528 21:50:17.027555 142602 net.cpp:406] layer_128_2_sum <- layer_128_1_sum_layer_128_1_sum_0_split_1
I0528 21:50:17.027562 142602 net.cpp:380] layer_128_2_sum -> layer_128_2_sum
I0528 21:50:17.027588 142602 net.cpp:122] Setting up layer_128_2_sum
I0528 21:50:17.027597 142602 net.cpp:129] Top shape: 100 128 28 28 (10035200)
I0528 21:50:17.027601 142602 net.cpp:137] Memory required for data: 4194714000
I0528 21:50:17.027609 142602 layer_factory.hpp:77] Creating layer layer_256_1_bn1
I0528 21:50:17.027623 142602 net.cpp:84] Creating Layer layer_256_1_bn1
I0528 21:50:17.027627 142602 net.cpp:406] layer_256_1_bn1 <- layer_128_2_sum
I0528 21:50:17.027636 142602 net.cpp:380] layer_256_1_bn1 -> layer_256_1_bn1
I0528 21:50:17.027806 142602 net.cpp:122] Setting up layer_256_1_bn1
I0528 21:50:17.027814 142602 net.cpp:129] Top shape: 100 128 28 28 (10035200)
I0528 21:50:17.027817 142602 net.cpp:137] Memory required for data: 4234854800
I0528 21:50:17.027824 142602 layer_factory.hpp:77] Creating layer layer_256_1_scale1
I0528 21:50:17.027832 142602 net.cpp:84] Creating Layer layer_256_1_scale1
I0528 21:50:17.027837 142602 net.cpp:406] layer_256_1_scale1 <- layer_256_1_bn1
I0528 21:50:17.027842 142602 net.cpp:367] layer_256_1_scale1 -> layer_256_1_bn1 (in-place)
I0528 21:50:17.027879 142602 layer_factory.hpp:77] Creating layer layer_256_1_scale1
I0528 21:50:17.027976 142602 net.cpp:122] Setting up layer_256_1_scale1
I0528 21:50:17.027983 142602 net.cpp:129] Top shape: 100 128 28 28 (10035200)
I0528 21:50:17.027987 142602 net.cpp:137] Memory required for data: 4274995600
I0528 21:50:17.027992 142602 layer_factory.hpp:77] Creating layer layer_256_1_relu1
I0528 21:50:17.027997 142602 net.cpp:84] Creating Layer layer_256_1_relu1
I0528 21:50:17.028002 142602 net.cpp:406] layer_256_1_relu1 <- layer_256_1_bn1
I0528 21:50:17.028005 142602 net.cpp:367] layer_256_1_relu1 -> layer_256_1_bn1 (in-place)
I0528 21:50:17.028182 142602 net.cpp:122] Setting up layer_256_1_relu1
I0528 21:50:17.028195 142602 net.cpp:129] Top shape: 100 128 28 28 (10035200)
I0528 21:50:17.028199 142602 net.cpp:137] Memory required for data: 4315136400
I0528 21:50:17.028203 142602 layer_factory.hpp:77] Creating layer layer_256_1_bn1_layer_256_1_relu1_0_split
I0528 21:50:17.028211 142602 net.cpp:84] Creating Layer layer_256_1_bn1_layer_256_1_relu1_0_split
I0528 21:50:17.028215 142602 net.cpp:406] layer_256_1_bn1_layer_256_1_relu1_0_split <- layer_256_1_bn1
I0528 21:50:17.028220 142602 net.cpp:380] layer_256_1_bn1_layer_256_1_relu1_0_split -> layer_256_1_bn1_layer_256_1_relu1_0_split_0
I0528 21:50:17.028230 142602 net.cpp:380] layer_256_1_bn1_layer_256_1_relu1_0_split -> layer_256_1_bn1_layer_256_1_relu1_0_split_1
I0528 21:50:17.028268 142602 net.cpp:122] Setting up layer_256_1_bn1_layer_256_1_relu1_0_split
I0528 21:50:17.028275 142602 net.cpp:129] Top shape: 100 128 28 28 (10035200)
I0528 21:50:17.028280 142602 net.cpp:129] Top shape: 100 128 28 28 (10035200)
I0528 21:50:17.028282 142602 net.cpp:137] Memory required for data: 4395418000
I0528 21:50:17.028286 142602 layer_factory.hpp:77] Creating layer layer_256_1_conv1
I0528 21:50:17.028298 142602 net.cpp:84] Creating Layer layer_256_1_conv1
I0528 21:50:17.028302 142602 net.cpp:406] layer_256_1_conv1 <- layer_256_1_bn1_layer_256_1_relu1_0_split_0
I0528 21:50:17.028308 142602 net.cpp:380] layer_256_1_conv1 -> layer_256_1_conv1
I0528 21:50:17.037895 142602 net.cpp:122] Setting up layer_256_1_conv1
I0528 21:50:17.037912 142602 net.cpp:129] Top shape: 100 256 14 14 (5017600)
I0528 21:50:17.037917 142602 net.cpp:137] Memory required for data: 4415488400
I0528 21:50:17.037922 142602 layer_factory.hpp:77] Creating layer layer_256_1_bn2
I0528 21:50:17.037931 142602 net.cpp:84] Creating Layer layer_256_1_bn2
I0528 21:50:17.037936 142602 net.cpp:406] layer_256_1_bn2 <- layer_256_1_conv1
I0528 21:50:17.037941 142602 net.cpp:367] layer_256_1_bn2 -> layer_256_1_conv1 (in-place)
I0528 21:50:17.038120 142602 net.cpp:122] Setting up layer_256_1_bn2
I0528 21:50:17.038130 142602 net.cpp:129] Top shape: 100 256 14 14 (5017600)
I0528 21:50:17.038134 142602 net.cpp:137] Memory required for data: 4435558800
I0528 21:50:17.038151 142602 layer_factory.hpp:77] Creating layer layer_256_1_scale2
I0528 21:50:17.038157 142602 net.cpp:84] Creating Layer layer_256_1_scale2
I0528 21:50:17.038161 142602 net.cpp:406] layer_256_1_scale2 <- layer_256_1_conv1
I0528 21:50:17.038168 142602 net.cpp:367] layer_256_1_scale2 -> layer_256_1_conv1 (in-place)
I0528 21:50:17.038218 142602 layer_factory.hpp:77] Creating layer layer_256_1_scale2
I0528 21:50:17.038326 142602 net.cpp:122] Setting up layer_256_1_scale2
I0528 21:50:17.038333 142602 net.cpp:129] Top shape: 100 256 14 14 (5017600)
I0528 21:50:17.038336 142602 net.cpp:137] Memory required for data: 4455629200
I0528 21:50:17.038342 142602 layer_factory.hpp:77] Creating layer layer_256_1_relu2
I0528 21:50:17.038348 142602 net.cpp:84] Creating Layer layer_256_1_relu2
I0528 21:50:17.038352 142602 net.cpp:406] layer_256_1_relu2 <- layer_256_1_conv1
I0528 21:50:17.038359 142602 net.cpp:367] layer_256_1_relu2 -> layer_256_1_conv1 (in-place)
I0528 21:50:17.038920 142602 net.cpp:122] Setting up layer_256_1_relu2
I0528 21:50:17.038933 142602 net.cpp:129] Top shape: 100 256 14 14 (5017600)
I0528 21:50:17.038936 142602 net.cpp:137] Memory required for data: 4475699600
I0528 21:50:17.038940 142602 layer_factory.hpp:77] Creating layer layer_256_1_conv2
I0528 21:50:17.038951 142602 net.cpp:84] Creating Layer layer_256_1_conv2
I0528 21:50:17.038956 142602 net.cpp:406] layer_256_1_conv2 <- layer_256_1_conv1
I0528 21:50:17.038964 142602 net.cpp:380] layer_256_1_conv2 -> layer_256_1_conv2
I0528 21:50:17.059670 142602 net.cpp:122] Setting up layer_256_1_conv2
I0528 21:50:17.059689 142602 net.cpp:129] Top shape: 100 256 14 14 (5017600)
I0528 21:50:17.059695 142602 net.cpp:137] Memory required for data: 4495770000
I0528 21:50:17.059700 142602 layer_factory.hpp:77] Creating layer layer_256_1_conv_expand
I0528 21:50:17.059712 142602 net.cpp:84] Creating Layer layer_256_1_conv_expand
I0528 21:50:17.059717 142602 net.cpp:406] layer_256_1_conv_expand <- layer_256_1_bn1_layer_256_1_relu1_0_split_1
I0528 21:50:17.059725 142602 net.cpp:380] layer_256_1_conv_expand -> layer_256_1_conv_expand
I0528 21:50:17.062482 142602 net.cpp:122] Setting up layer_256_1_conv_expand
I0528 21:50:17.062500 142602 net.cpp:129] Top shape: 100 256 14 14 (5017600)
I0528 21:50:17.062503 142602 net.cpp:137] Memory required for data: 4515840400
I0528 21:50:17.062510 142602 layer_factory.hpp:77] Creating layer layer_256_1_sum
I0528 21:50:17.062517 142602 net.cpp:84] Creating Layer layer_256_1_sum
I0528 21:50:17.062522 142602 net.cpp:406] layer_256_1_sum <- layer_256_1_conv_expand
I0528 21:50:17.062527 142602 net.cpp:406] layer_256_1_sum <- layer_256_1_conv2
I0528 21:50:17.062532 142602 net.cpp:380] layer_256_1_sum -> layer_256_1_sum
I0528 21:50:17.062564 142602 net.cpp:122] Setting up layer_256_1_sum
I0528 21:50:17.062572 142602 net.cpp:129] Top shape: 100 256 14 14 (5017600)
I0528 21:50:17.062574 142602 net.cpp:137] Memory required for data: 4535910800
I0528 21:50:17.062577 142602 layer_factory.hpp:77] Creating layer layer_256_1_sum_layer_256_1_sum_0_split
I0528 21:50:17.062583 142602 net.cpp:84] Creating Layer layer_256_1_sum_layer_256_1_sum_0_split
I0528 21:50:17.062587 142602 net.cpp:406] layer_256_1_sum_layer_256_1_sum_0_split <- layer_256_1_sum
I0528 21:50:17.062593 142602 net.cpp:380] layer_256_1_sum_layer_256_1_sum_0_split -> layer_256_1_sum_layer_256_1_sum_0_split_0
I0528 21:50:17.062600 142602 net.cpp:380] layer_256_1_sum_layer_256_1_sum_0_split -> layer_256_1_sum_layer_256_1_sum_0_split_1
I0528 21:50:17.062633 142602 net.cpp:122] Setting up layer_256_1_sum_layer_256_1_sum_0_split
I0528 21:50:17.062641 142602 net.cpp:129] Top shape: 100 256 14 14 (5017600)
I0528 21:50:17.062645 142602 net.cpp:129] Top shape: 100 256 14 14 (5017600)
I0528 21:50:17.062649 142602 net.cpp:137] Memory required for data: 4576051600
I0528 21:50:17.062651 142602 layer_factory.hpp:77] Creating layer layer_256_2_bn1
I0528 21:50:17.062657 142602 net.cpp:84] Creating Layer layer_256_2_bn1
I0528 21:50:17.062660 142602 net.cpp:406] layer_256_2_bn1 <- layer_256_1_sum_layer_256_1_sum_0_split_0
I0528 21:50:17.062667 142602 net.cpp:380] layer_256_2_bn1 -> layer_256_2_bn1
I0528 21:50:17.062836 142602 net.cpp:122] Setting up layer_256_2_bn1
I0528 21:50:17.062844 142602 net.cpp:129] Top shape: 100 256 14 14 (5017600)
I0528 21:50:17.062847 142602 net.cpp:137] Memory required for data: 4596122000
I0528 21:50:17.062860 142602 layer_factory.hpp:77] Creating layer layer_256_2_scale1
I0528 21:50:17.062875 142602 net.cpp:84] Creating Layer layer_256_2_scale1
I0528 21:50:17.062880 142602 net.cpp:406] layer_256_2_scale1 <- layer_256_2_bn1
I0528 21:50:17.062885 142602 net.cpp:367] layer_256_2_scale1 -> layer_256_2_bn1 (in-place)
I0528 21:50:17.062929 142602 layer_factory.hpp:77] Creating layer layer_256_2_scale1
I0528 21:50:17.063045 142602 net.cpp:122] Setting up layer_256_2_scale1
I0528 21:50:17.063055 142602 net.cpp:129] Top shape: 100 256 14 14 (5017600)
I0528 21:50:17.063060 142602 net.cpp:137] Memory required for data: 4616192400
I0528 21:50:17.063066 142602 layer_factory.hpp:77] Creating layer layer_256_2_relu1
I0528 21:50:17.063071 142602 net.cpp:84] Creating Layer layer_256_2_relu1
I0528 21:50:17.063074 142602 net.cpp:406] layer_256_2_relu1 <- layer_256_2_bn1
I0528 21:50:17.063081 142602 net.cpp:367] layer_256_2_relu1 -> layer_256_2_bn1 (in-place)
I0528 21:50:17.063654 142602 net.cpp:122] Setting up layer_256_2_relu1
I0528 21:50:17.063668 142602 net.cpp:129] Top shape: 100 256 14 14 (5017600)
I0528 21:50:17.063670 142602 net.cpp:137] Memory required for data: 4636262800
I0528 21:50:17.063674 142602 layer_factory.hpp:77] Creating layer layer_256_2_conv1
I0528 21:50:17.063685 142602 net.cpp:84] Creating Layer layer_256_2_conv1
I0528 21:50:17.063690 142602 net.cpp:406] layer_256_2_conv1 <- layer_256_2_bn1
I0528 21:50:17.063699 142602 net.cpp:380] layer_256_2_conv1 -> layer_256_2_conv1
I0528 21:50:17.080912 142602 net.cpp:122] Setting up layer_256_2_conv1
I0528 21:50:17.080932 142602 net.cpp:129] Top shape: 100 256 14 14 (5017600)
I0528 21:50:17.080937 142602 net.cpp:137] Memory required for data: 4656333200
I0528 21:50:17.080943 142602 layer_factory.hpp:77] Creating layer layer_256_2_bn2
I0528 21:50:17.080952 142602 net.cpp:84] Creating Layer layer_256_2_bn2
I0528 21:50:17.080956 142602 net.cpp:406] layer_256_2_bn2 <- layer_256_2_conv1
I0528 21:50:17.080962 142602 net.cpp:367] layer_256_2_bn2 -> layer_256_2_conv1 (in-place)
I0528 21:50:17.081140 142602 net.cpp:122] Setting up layer_256_2_bn2
I0528 21:50:17.081151 142602 net.cpp:129] Top shape: 100 256 14 14 (5017600)
I0528 21:50:17.081156 142602 net.cpp:137] Memory required for data: 4676403600
I0528 21:50:17.081162 142602 layer_factory.hpp:77] Creating layer layer_256_2_scale2
I0528 21:50:17.081172 142602 net.cpp:84] Creating Layer layer_256_2_scale2
I0528 21:50:17.081176 142602 net.cpp:406] layer_256_2_scale2 <- layer_256_2_conv1
I0528 21:50:17.081182 142602 net.cpp:367] layer_256_2_scale2 -> layer_256_2_conv1 (in-place)
I0528 21:50:17.081223 142602 layer_factory.hpp:77] Creating layer layer_256_2_scale2
I0528 21:50:17.081323 142602 net.cpp:122] Setting up layer_256_2_scale2
I0528 21:50:17.081331 142602 net.cpp:129] Top shape: 100 256 14 14 (5017600)
I0528 21:50:17.081333 142602 net.cpp:137] Memory required for data: 4696474000
I0528 21:50:17.081338 142602 layer_factory.hpp:77] Creating layer layer_256_2_relu2
I0528 21:50:17.081351 142602 net.cpp:84] Creating Layer layer_256_2_relu2
I0528 21:50:17.081354 142602 net.cpp:406] layer_256_2_relu2 <- layer_256_2_conv1
I0528 21:50:17.081360 142602 net.cpp:367] layer_256_2_relu2 -> layer_256_2_conv1 (in-place)
I0528 21:50:17.081921 142602 net.cpp:122] Setting up layer_256_2_relu2
I0528 21:50:17.081934 142602 net.cpp:129] Top shape: 100 256 14 14 (5017600)
I0528 21:50:17.081938 142602 net.cpp:137] Memory required for data: 4716544400
I0528 21:50:17.081943 142602 layer_factory.hpp:77] Creating layer layer_256_2_conv2
I0528 21:50:17.081954 142602 net.cpp:84] Creating Layer layer_256_2_conv2
I0528 21:50:17.081959 142602 net.cpp:406] layer_256_2_conv2 <- layer_256_2_conv1
I0528 21:50:17.081965 142602 net.cpp:380] layer_256_2_conv2 -> layer_256_2_conv2
I0528 21:50:17.099561 142602 net.cpp:122] Setting up layer_256_2_conv2
I0528 21:50:17.099580 142602 net.cpp:129] Top shape: 100 256 14 14 (5017600)
I0528 21:50:17.099583 142602 net.cpp:137] Memory required for data: 4736614800
I0528 21:50:17.099589 142602 layer_factory.hpp:77] Creating layer layer_256_2_sum
I0528 21:50:17.099601 142602 net.cpp:84] Creating Layer layer_256_2_sum
I0528 21:50:17.099611 142602 net.cpp:406] layer_256_2_sum <- layer_256_2_conv2
I0528 21:50:17.099617 142602 net.cpp:406] layer_256_2_sum <- layer_256_1_sum_layer_256_1_sum_0_split_1
I0528 21:50:17.099624 142602 net.cpp:380] layer_256_2_sum -> layer_256_2_sum
I0528 21:50:17.099653 142602 net.cpp:122] Setting up layer_256_2_sum
I0528 21:50:17.099661 142602 net.cpp:129] Top shape: 100 256 14 14 (5017600)
I0528 21:50:17.099664 142602 net.cpp:137] Memory required for data: 4756685200
I0528 21:50:17.099668 142602 layer_factory.hpp:77] Creating layer layer_512_1_bn1
I0528 21:50:17.099674 142602 net.cpp:84] Creating Layer layer_512_1_bn1
I0528 21:50:17.099678 142602 net.cpp:406] layer_512_1_bn1 <- layer_256_2_sum
I0528 21:50:17.099685 142602 net.cpp:380] layer_512_1_bn1 -> layer_512_1_bn1
I0528 21:50:17.099861 142602 net.cpp:122] Setting up layer_512_1_bn1
I0528 21:50:17.099869 142602 net.cpp:129] Top shape: 100 256 14 14 (5017600)
I0528 21:50:17.099872 142602 net.cpp:137] Memory required for data: 4776755600
I0528 21:50:17.099879 142602 layer_factory.hpp:77] Creating layer layer_512_1_scale1
I0528 21:50:17.099885 142602 net.cpp:84] Creating Layer layer_512_1_scale1
I0528 21:50:17.099889 142602 net.cpp:406] layer_512_1_scale1 <- layer_512_1_bn1
I0528 21:50:17.099895 142602 net.cpp:367] layer_512_1_scale1 -> layer_512_1_bn1 (in-place)
I0528 21:50:17.099934 142602 layer_factory.hpp:77] Creating layer layer_512_1_scale1
I0528 21:50:17.100036 142602 net.cpp:122] Setting up layer_512_1_scale1
I0528 21:50:17.100054 142602 net.cpp:129] Top shape: 100 256 14 14 (5017600)
I0528 21:50:17.100057 142602 net.cpp:137] Memory required for data: 4796826000
I0528 21:50:17.100064 142602 layer_factory.hpp:77] Creating layer layer_512_1_relu1
I0528 21:50:17.100069 142602 net.cpp:84] Creating Layer layer_512_1_relu1
I0528 21:50:17.100072 142602 net.cpp:406] layer_512_1_relu1 <- layer_512_1_bn1
I0528 21:50:17.100077 142602 net.cpp:367] layer_512_1_relu1 -> layer_512_1_bn1 (in-place)
I0528 21:50:17.100262 142602 net.cpp:122] Setting up layer_512_1_relu1
I0528 21:50:17.100272 142602 net.cpp:129] Top shape: 100 256 14 14 (5017600)
I0528 21:50:17.100276 142602 net.cpp:137] Memory required for data: 4816896400
I0528 21:50:17.100280 142602 layer_factory.hpp:77] Creating layer layer_512_1_bn1_layer_512_1_relu1_0_split
I0528 21:50:17.100286 142602 net.cpp:84] Creating Layer layer_512_1_bn1_layer_512_1_relu1_0_split
I0528 21:50:17.100289 142602 net.cpp:406] layer_512_1_bn1_layer_512_1_relu1_0_split <- layer_512_1_bn1
I0528 21:50:17.100294 142602 net.cpp:380] layer_512_1_bn1_layer_512_1_relu1_0_split -> layer_512_1_bn1_layer_512_1_relu1_0_split_0
I0528 21:50:17.100303 142602 net.cpp:380] layer_512_1_bn1_layer_512_1_relu1_0_split -> layer_512_1_bn1_layer_512_1_relu1_0_split_1
I0528 21:50:17.100342 142602 net.cpp:122] Setting up layer_512_1_bn1_layer_512_1_relu1_0_split
I0528 21:50:17.100348 142602 net.cpp:129] Top shape: 100 256 14 14 (5017600)
I0528 21:50:17.100353 142602 net.cpp:129] Top shape: 100 256 14 14 (5017600)
I0528 21:50:17.100355 142602 net.cpp:137] Memory required for data: 4857037200
I0528 21:50:17.100358 142602 layer_factory.hpp:77] Creating layer layer_512_1_conv1
I0528 21:50:17.100370 142602 net.cpp:84] Creating Layer layer_512_1_conv1
I0528 21:50:17.100374 142602 net.cpp:406] layer_512_1_conv1 <- layer_512_1_bn1_layer_512_1_relu1_0_split_0
I0528 21:50:17.100380 142602 net.cpp:380] layer_512_1_conv1 -> layer_512_1_conv1
I0528 21:50:17.134327 142602 net.cpp:122] Setting up layer_512_1_conv1
I0528 21:50:17.134347 142602 net.cpp:129] Top shape: 100 512 7 7 (2508800)
I0528 21:50:17.134351 142602 net.cpp:137] Memory required for data: 4867072400
I0528 21:50:17.134357 142602 layer_factory.hpp:77] Creating layer layer_512_1_bn2
I0528 21:50:17.134364 142602 net.cpp:84] Creating Layer layer_512_1_bn2
I0528 21:50:17.134368 142602 net.cpp:406] layer_512_1_bn2 <- layer_512_1_conv1
I0528 21:50:17.134376 142602 net.cpp:367] layer_512_1_bn2 -> layer_512_1_conv1 (in-place)
I0528 21:50:17.134574 142602 net.cpp:122] Setting up layer_512_1_bn2
I0528 21:50:17.134591 142602 net.cpp:129] Top shape: 100 512 7 7 (2508800)
I0528 21:50:17.134595 142602 net.cpp:137] Memory required for data: 4877107600
I0528 21:50:17.134603 142602 layer_factory.hpp:77] Creating layer layer_512_1_scale2
I0528 21:50:17.134609 142602 net.cpp:84] Creating Layer layer_512_1_scale2
I0528 21:50:17.134613 142602 net.cpp:406] layer_512_1_scale2 <- layer_512_1_conv1
I0528 21:50:17.134618 142602 net.cpp:367] layer_512_1_scale2 -> layer_512_1_conv1 (in-place)
I0528 21:50:17.134658 142602 layer_factory.hpp:77] Creating layer layer_512_1_scale2
I0528 21:50:17.134763 142602 net.cpp:122] Setting up layer_512_1_scale2
I0528 21:50:17.134770 142602 net.cpp:129] Top shape: 100 512 7 7 (2508800)
I0528 21:50:17.134773 142602 net.cpp:137] Memory required for data: 4887142800
I0528 21:50:17.134778 142602 layer_factory.hpp:77] Creating layer layer_512_1_relu2
I0528 21:50:17.134784 142602 net.cpp:84] Creating Layer layer_512_1_relu2
I0528 21:50:17.134788 142602 net.cpp:406] layer_512_1_relu2 <- layer_512_1_conv1
I0528 21:50:17.134794 142602 net.cpp:367] layer_512_1_relu2 -> layer_512_1_conv1 (in-place)
I0528 21:50:17.135373 142602 net.cpp:122] Setting up layer_512_1_relu2
I0528 21:50:17.135390 142602 net.cpp:129] Top shape: 100 512 7 7 (2508800)
I0528 21:50:17.135393 142602 net.cpp:137] Memory required for data: 4897178000
I0528 21:50:17.135397 142602 layer_factory.hpp:77] Creating layer layer_512_1_conv2
I0528 21:50:17.135409 142602 net.cpp:84] Creating Layer layer_512_1_conv2
I0528 21:50:17.135414 142602 net.cpp:406] layer_512_1_conv2 <- layer_512_1_conv1
I0528 21:50:17.135422 142602 net.cpp:380] layer_512_1_conv2 -> layer_512_1_conv2
I0528 21:50:17.200327 142602 net.cpp:122] Setting up layer_512_1_conv2
I0528 21:50:17.200345 142602 net.cpp:129] Top shape: 100 512 7 7 (2508800)
I0528 21:50:17.200350 142602 net.cpp:137] Memory required for data: 4907213200
I0528 21:50:17.200356 142602 layer_factory.hpp:77] Creating layer layer_512_1_conv_expand
I0528 21:50:17.200366 142602 net.cpp:84] Creating Layer layer_512_1_conv_expand
I0528 21:50:17.200371 142602 net.cpp:406] layer_512_1_conv_expand <- layer_512_1_bn1_layer_512_1_relu1_0_split_1
I0528 21:50:17.200381 142602 net.cpp:380] layer_512_1_conv_expand -> layer_512_1_conv_expand
I0528 21:50:17.205739 142602 net.cpp:122] Setting up layer_512_1_conv_expand
I0528 21:50:17.205755 142602 net.cpp:129] Top shape: 100 512 7 7 (2508800)
I0528 21:50:17.205760 142602 net.cpp:137] Memory required for data: 4917248400
I0528 21:50:17.205765 142602 layer_factory.hpp:77] Creating layer layer_512_1_sum
I0528 21:50:17.205773 142602 net.cpp:84] Creating Layer layer_512_1_sum
I0528 21:50:17.205777 142602 net.cpp:406] layer_512_1_sum <- layer_512_1_conv_expand
I0528 21:50:17.205782 142602 net.cpp:406] layer_512_1_sum <- layer_512_1_conv2
I0528 21:50:17.205788 142602 net.cpp:380] layer_512_1_sum -> layer_512_1_sum
I0528 21:50:17.205816 142602 net.cpp:122] Setting up layer_512_1_sum
I0528 21:50:17.205824 142602 net.cpp:129] Top shape: 100 512 7 7 (2508800)
I0528 21:50:17.205828 142602 net.cpp:137] Memory required for data: 4927283600
I0528 21:50:17.205832 142602 layer_factory.hpp:77] Creating layer layer_512_1_sum_layer_512_1_sum_0_split
I0528 21:50:17.205837 142602 net.cpp:84] Creating Layer layer_512_1_sum_layer_512_1_sum_0_split
I0528 21:50:17.205840 142602 net.cpp:406] layer_512_1_sum_layer_512_1_sum_0_split <- layer_512_1_sum
I0528 21:50:17.205845 142602 net.cpp:380] layer_512_1_sum_layer_512_1_sum_0_split -> layer_512_1_sum_layer_512_1_sum_0_split_0
I0528 21:50:17.205853 142602 net.cpp:380] layer_512_1_sum_layer_512_1_sum_0_split -> layer_512_1_sum_layer_512_1_sum_0_split_1
I0528 21:50:17.205888 142602 net.cpp:122] Setting up layer_512_1_sum_layer_512_1_sum_0_split
I0528 21:50:17.205894 142602 net.cpp:129] Top shape: 100 512 7 7 (2508800)
I0528 21:50:17.205898 142602 net.cpp:129] Top shape: 100 512 7 7 (2508800)
I0528 21:50:17.205900 142602 net.cpp:137] Memory required for data: 4947354000
I0528 21:50:17.205904 142602 layer_factory.hpp:77] Creating layer layer_512_2_bn1
I0528 21:50:17.205922 142602 net.cpp:84] Creating Layer layer_512_2_bn1
I0528 21:50:17.205926 142602 net.cpp:406] layer_512_2_bn1 <- layer_512_1_sum_layer_512_1_sum_0_split_0
I0528 21:50:17.205932 142602 net.cpp:380] layer_512_2_bn1 -> layer_512_2_bn1
I0528 21:50:17.206121 142602 net.cpp:122] Setting up layer_512_2_bn1
I0528 21:50:17.206132 142602 net.cpp:129] Top shape: 100 512 7 7 (2508800)
I0528 21:50:17.206135 142602 net.cpp:137] Memory required for data: 4957389200
I0528 21:50:17.206143 142602 layer_factory.hpp:77] Creating layer layer_512_2_scale1
I0528 21:50:17.206149 142602 net.cpp:84] Creating Layer layer_512_2_scale1
I0528 21:50:17.206153 142602 net.cpp:406] layer_512_2_scale1 <- layer_512_2_bn1
I0528 21:50:17.206164 142602 net.cpp:367] layer_512_2_scale1 -> layer_512_2_bn1 (in-place)
I0528 21:50:17.206205 142602 layer_factory.hpp:77] Creating layer layer_512_2_scale1
I0528 21:50:17.206312 142602 net.cpp:122] Setting up layer_512_2_scale1
I0528 21:50:17.206321 142602 net.cpp:129] Top shape: 100 512 7 7 (2508800)
I0528 21:50:17.206324 142602 net.cpp:137] Memory required for data: 4967424400
I0528 21:50:17.206329 142602 layer_factory.hpp:77] Creating layer layer_512_2_relu1
I0528 21:50:17.206336 142602 net.cpp:84] Creating Layer layer_512_2_relu1
I0528 21:50:17.206338 142602 net.cpp:406] layer_512_2_relu1 <- layer_512_2_bn1
I0528 21:50:17.206343 142602 net.cpp:367] layer_512_2_relu1 -> layer_512_2_bn1 (in-place)
I0528 21:50:17.206918 142602 net.cpp:122] Setting up layer_512_2_relu1
I0528 21:50:17.206930 142602 net.cpp:129] Top shape: 100 512 7 7 (2508800)
I0528 21:50:17.206934 142602 net.cpp:137] Memory required for data: 4977459600
I0528 21:50:17.206938 142602 layer_factory.hpp:77] Creating layer layer_512_2_conv1
I0528 21:50:17.206950 142602 net.cpp:84] Creating Layer layer_512_2_conv1
I0528 21:50:17.206955 142602 net.cpp:406] layer_512_2_conv1 <- layer_512_2_bn1
I0528 21:50:17.206962 142602 net.cpp:380] layer_512_2_conv1 -> layer_512_2_conv1
I0528 21:50:17.272395 142602 net.cpp:122] Setting up layer_512_2_conv1
I0528 21:50:17.272420 142602 net.cpp:129] Top shape: 100 512 7 7 (2508800)
I0528 21:50:17.272424 142602 net.cpp:137] Memory required for data: 4987494800
I0528 21:50:17.272430 142602 layer_factory.hpp:77] Creating layer layer_512_2_bn2
I0528 21:50:17.272439 142602 net.cpp:84] Creating Layer layer_512_2_bn2
I0528 21:50:17.272444 142602 net.cpp:406] layer_512_2_bn2 <- layer_512_2_conv1
I0528 21:50:17.272450 142602 net.cpp:367] layer_512_2_bn2 -> layer_512_2_conv1 (in-place)
I0528 21:50:17.272639 142602 net.cpp:122] Setting up layer_512_2_bn2
I0528 21:50:17.272646 142602 net.cpp:129] Top shape: 100 512 7 7 (2508800)
I0528 21:50:17.272650 142602 net.cpp:137] Memory required for data: 4997530000
I0528 21:50:17.272656 142602 layer_factory.hpp:77] Creating layer layer_512_2_scale2
I0528 21:50:17.272665 142602 net.cpp:84] Creating Layer layer_512_2_scale2
I0528 21:50:17.272668 142602 net.cpp:406] layer_512_2_scale2 <- layer_512_2_conv1
I0528 21:50:17.272673 142602 net.cpp:367] layer_512_2_scale2 -> layer_512_2_conv1 (in-place)
I0528 21:50:17.272713 142602 layer_factory.hpp:77] Creating layer layer_512_2_scale2
I0528 21:50:17.272824 142602 net.cpp:122] Setting up layer_512_2_scale2
I0528 21:50:17.272831 142602 net.cpp:129] Top shape: 100 512 7 7 (2508800)
I0528 21:50:17.272835 142602 net.cpp:137] Memory required for data: 5007565200
I0528 21:50:17.272840 142602 layer_factory.hpp:77] Creating layer layer_512_2_relu2
I0528 21:50:17.272845 142602 net.cpp:84] Creating Layer layer_512_2_relu2
I0528 21:50:17.272850 142602 net.cpp:406] layer_512_2_relu2 <- layer_512_2_conv1
I0528 21:50:17.272855 142602 net.cpp:367] layer_512_2_relu2 -> layer_512_2_conv1 (in-place)
I0528 21:50:17.273016 142602 net.cpp:122] Setting up layer_512_2_relu2
I0528 21:50:17.273026 142602 net.cpp:129] Top shape: 100 512 7 7 (2508800)
I0528 21:50:17.273030 142602 net.cpp:137] Memory required for data: 5017600400
I0528 21:50:17.273033 142602 layer_factory.hpp:77] Creating layer layer_512_2_conv2
I0528 21:50:17.273056 142602 net.cpp:84] Creating Layer layer_512_2_conv2
I0528 21:50:17.273069 142602 net.cpp:406] layer_512_2_conv2 <- layer_512_2_conv1
I0528 21:50:17.273078 142602 net.cpp:380] layer_512_2_conv2 -> layer_512_2_conv2
I0528 21:50:17.341543 142602 net.cpp:122] Setting up layer_512_2_conv2
I0528 21:50:17.341572 142602 net.cpp:129] Top shape: 100 512 7 7 (2508800)
I0528 21:50:17.341578 142602 net.cpp:137] Memory required for data: 5027635600
I0528 21:50:17.341588 142602 layer_factory.hpp:77] Creating layer layer_512_2_sum
I0528 21:50:17.341608 142602 net.cpp:84] Creating Layer layer_512_2_sum
I0528 21:50:17.341616 142602 net.cpp:406] layer_512_2_sum <- layer_512_2_conv2
I0528 21:50:17.341624 142602 net.cpp:406] layer_512_2_sum <- layer_512_1_sum_layer_512_1_sum_0_split_1
I0528 21:50:17.341632 142602 net.cpp:380] layer_512_2_sum -> layer_512_2_sum
I0528 21:50:17.341668 142602 net.cpp:122] Setting up layer_512_2_sum
I0528 21:50:17.341678 142602 net.cpp:129] Top shape: 100 512 7 7 (2508800)
I0528 21:50:17.341682 142602 net.cpp:137] Memory required for data: 5037670800
I0528 21:50:17.341686 142602 layer_factory.hpp:77] Creating layer last_bn
I0528 21:50:17.341699 142602 net.cpp:84] Creating Layer last_bn
I0528 21:50:17.341703 142602 net.cpp:406] last_bn <- layer_512_2_sum
I0528 21:50:17.341711 142602 net.cpp:367] last_bn -> layer_512_2_sum (in-place)
I0528 21:50:17.341930 142602 net.cpp:122] Setting up last_bn
I0528 21:50:17.341938 142602 net.cpp:129] Top shape: 100 512 7 7 (2508800)
I0528 21:50:17.341941 142602 net.cpp:137] Memory required for data: 5047706000
I0528 21:50:17.341948 142602 layer_factory.hpp:77] Creating layer last_scale
I0528 21:50:17.341960 142602 net.cpp:84] Creating Layer last_scale
I0528 21:50:17.341964 142602 net.cpp:406] last_scale <- layer_512_2_sum
I0528 21:50:17.341970 142602 net.cpp:367] last_scale -> layer_512_2_sum (in-place)
I0528 21:50:17.342015 142602 layer_factory.hpp:77] Creating layer last_scale
I0528 21:50:17.342136 142602 net.cpp:122] Setting up last_scale
I0528 21:50:17.342149 142602 net.cpp:129] Top shape: 100 512 7 7 (2508800)
I0528 21:50:17.342151 142602 net.cpp:137] Memory required for data: 5057741200
I0528 21:50:17.342157 142602 layer_factory.hpp:77] Creating layer last_relu
I0528 21:50:17.342169 142602 net.cpp:84] Creating Layer last_relu
I0528 21:50:17.342172 142602 net.cpp:406] last_relu <- layer_512_2_sum
I0528 21:50:17.342177 142602 net.cpp:367] last_relu -> layer_512_2_sum (in-place)
I0528 21:50:17.342347 142602 net.cpp:122] Setting up last_relu
I0528 21:50:17.342358 142602 net.cpp:129] Top shape: 100 512 7 7 (2508800)
I0528 21:50:17.342361 142602 net.cpp:137] Memory required for data: 5067776400
I0528 21:50:17.342365 142602 layer_factory.hpp:77] Creating layer global_pool
I0528 21:50:17.342372 142602 net.cpp:84] Creating Layer global_pool
I0528 21:50:17.342376 142602 net.cpp:406] global_pool <- layer_512_2_sum
I0528 21:50:17.342386 142602 net.cpp:380] global_pool -> global_pool
I0528 21:50:17.343001 142602 net.cpp:122] Setting up global_pool
I0528 21:50:17.343014 142602 net.cpp:129] Top shape: 100 512 1 1 (51200)
I0528 21:50:17.343017 142602 net.cpp:137] Memory required for data: 5067981200
I0528 21:50:17.343021 142602 layer_factory.hpp:77] Creating layer score
I0528 21:50:17.343031 142602 net.cpp:84] Creating Layer score
I0528 21:50:17.343035 142602 net.cpp:406] score <- global_pool
I0528 21:50:17.343051 142602 net.cpp:380] score -> score
I0528 21:50:17.343214 142602 net.cpp:122] Setting up score
I0528 21:50:17.343221 142602 net.cpp:129] Top shape: 100 8 (800)
I0528 21:50:17.343225 142602 net.cpp:137] Memory required for data: 5067984400
I0528 21:50:17.343231 142602 layer_factory.hpp:77] Creating layer loss
I0528 21:50:17.343240 142602 net.cpp:84] Creating Layer loss
I0528 21:50:17.343243 142602 net.cpp:406] loss <- score
I0528 21:50:17.343250 142602 net.cpp:406] loss <- label
I0528 21:50:17.343257 142602 net.cpp:380] loss -> loss
I0528 21:50:17.343272 142602 layer_factory.hpp:77] Creating layer loss
…
I0528 21:50:17.346832 142602 net.cpp:294] The NetState phase (1) differed from the phase (0) specified by a rule in layer data
I0528 21:50:17.347395 142602 net.cpp:51] Initializing net from parameters: 
name: "Pre-ResNet-18"
state {
  phase: TEST
}
layer {
  name: "data"
  type: "Data"
  top: "data"
  top: "label"
  include {
    phase: TEST
  }
  transform_param {
    mirror: false
    crop_size: 224
    mean_file: "/storage/Test_fold_is_01/mean.binaryproto"
  }
  data_param {
    source: "/storage/Test_fold_is_01/age_val_lmdb"
    batch_size: 20
    backend: LMDB
  }
}
layer {
  name: "data_bn"
  type: "BatchNorm"
  bottom: "data"
  top: "data_bn"
  param {
    lr_mult: 0
    decay_mult: 0
  }
  param {
    lr_mult: 0
    decay_mult: 0
  }
  param {
    lr_mult: 0
    decay_mult: 0
  }
}
layer {
  name: "data_scale"
  type: "Scale"
  bottom: "data_bn"
  top: "data_bn"
  param {
    lr_mult: 1
    decay_mult: 1
  }
  param {
    lr_mult: 2
    decay_mult: 1
  }
  scale_param {
    bias_term: true
  }
}
layer {
  name: "conv1"
  type: "Convolution"
  bottom: "data_bn"
  top: "conv1"
  param {
    lr_mult: 1
    decay_mult: 1
  }
  param {
    lr_mult: 2
    decay_mult: 1
  }
  convolution_param {
    num_output: 64
    pad: 3
    kernel_size: 7
    stride: 2
    weight_filler {
      type: "msra"
      variance_norm: FAN_OUT
    }
    bias_filler {
      type: "constant"
      value: 0
    }
  }
}
layer {
  name: "conv1_bn"
  type: "BatchNorm"
  bottom: "conv1"
  top: "conv1"
  param {
    lr_mult: 0
    decay_mult: 0
  }
  param {
    lr_mult: 0
    decay_mult: 0
  }
  param {
    lr_mult: 0
    decay_mult: 0
  }
}
layer {
  name: "conv1_scale"
  type: "Scale"
  bottom: "conv1"
  top: "conv1"
  param {
    lr_mult: 1
    decay_mult: 1
  }
  param {
    lr_mult: 2
    decay_mult: 1
  }
  scale_param {
    bias_term: true
  }
}
layer {
  name: "conv1_relu"
  type: "ReLU"
  bottom: "conv1"
  top: "conv1"
}
layer {
  name: "conv1_pool"
  type: "Pooling"
  bottom: "conv1"
  top: "conv1_pool"
  pooling_param {
    kernel_size: 3
    stride: 2
  }
}
layer {
  name: "layer_64_1_conv1"
  type: "Convolution"
  bottom: "conv1_pool"
  top: "layer_64_1_conv1"
  param {
    lr_mult: 1
    decay_mult: 1
  }
  convolution_param {
    num_output: 64
    bias_term: false
    pad: 1
    kernel_size: 3
    stride: 1
    weight_filler {
      type: "msra"
    }
    bias_filler {
      type: "constant"
      value: 0
    }
  }
}
layer {
  name: "layer_64_1_bn2"
  type: "BatchNorm"
  bottom: "layer_64_1_conv1"
  top: "layer_64_1_conv1"
  param {
    lr_mult: 0
    decay_mult: 0
  }
  param {
    lr_mult: 0
    decay_mult: 0
  }
  param {
    lr_mult: 0
    decay_mult: 0
  }
}
layer {
  name: "layer_64_1_scale2"
  type: "Scale"
  bottom: "layer_64_1_conv1"
  top: "layer_64_1_conv1"
  param {
    lr_mult: 1
    decay_mult: 1
  }
  param {
    lr_mult: 2
    decay_mult: 1
  }
  scale_param {
    bias_term: true
  }
}
layer {
  name: "layer_64_1_relu2"
  type: "ReLU"
  bottom: "layer_64_1_conv1"
  top: "layer_64_1_conv1"
}
layer {
  name: "layer_64_1_conv2"
  type: "Convolution"
  bottom: "layer_64_1_conv1"
  top: "layer_64_1_conv2"
  param {
    lr_mult: 1
    decay_mult: 1
  }
  convolution_param {
    num_output: 64
    bias_term: false
    pad: 1
    kernel_size: 3
    stride: 1
    weight_filler {
      type: "msra"
    }
    bias_filler {
      type: "constant"
      value: 0
    }
  }
}
layer {
  name: "layer_64_1_sum"
  type: "Eltwise"
  bottom: "layer_64_1_conv2"
  bottom: "conv1_pool"
  top: "layer_64_1_sum"
}
layer {
  name: "layer_64_2_bn1"
  type: "BatchNorm"
  bottom: "layer_64_1_sum"
  top: "layer_64_2_bn1"
  param {
    lr_mult: 0
    decay_mult: 0
  }
  param {
    lr_mult: 0
    decay_mult: 0
  }
  param {
    lr_mult: 0
    decay_mult: 0
  }
}
layer {
  name: "layer_64_2_scale1"
  type: "Scale"
  bottom: "layer_64_2_bn1"
  top: "layer_64_2_bn1"
  param {
    lr_mult: 1
    decay_mult: 1
  }
  param {
    lr_mult: 2
    decay_mult: 1
  }
  scale_param {
    bias_term: true
  }
}
layer {
  name: "layer_64_2_relu1"
  type: "ReLU"
  bottom: "layer_64_2_bn1"
  top: "layer_64_2_bn1"
}
layer {
  name: "layer_64_2_conv1"
  type: "Convolution"
  bottom: "layer_64_2_bn1"
  top: "layer_64_2_conv1"
  param {
    lr_mult: 1
    decay_mult: 1
  }
  convolution_param {
    num_output: 64
    bias_term: false
    pad: 1
    kernel_size: 3
    stride: 1
    weight_filler {
      type: "msra"
    }
    bias_filler {
      type: "constant"
      value: 0
    }
  }
}
layer {
  name: "layer_64_2_bn2"
  type: "BatchNorm"
  bottom: "layer_64_2_conv1"
  top: "layer_64_2_conv1"
  param {
    lr_mult: 0
    decay_mult: 0
  }
  param {
    lr_mult: 0
    decay_mult: 0
  }
  param {
    lr_mult: 0
    decay_mult: 0
  }
}
layer {
  name: "layer_64_2_scale2"
  type: "Scale"
  bottom: "layer_64_2_conv1"
  top: "layer_64_2_conv1"
  param {
    lr_mult: 1
    decay_mult: 1
  }
  param {
    lr_mult: 2
    decay_mult: 1
  }
  scale_param {
    bias_term: true
  }
}
layer {
  name: "layer_64_2_relu2"
  type: "ReLU"
  bottom: "layer_64_2_conv1"
  top: "layer_64_2_conv1"
}
layer {
  name: "layer_64_2_conv2"
  type: "Convolution"
  bottom: "layer_64_2_conv1"
  top: "layer_64_2_conv2"
  param {
    lr_mult: 1
    decay_mult: 1
  }
  convolution_param {
    num_output: 64
    bias_term: false
    pad: 1
    kernel_size: 3
    stride: 1
    weight_filler {
      type: "msra"
    }
    bias_filler {
      type: "constant"
      value: 0
    }
  }
}
layer {
  name: "layer_64_2_sum"
  type: "Eltwise"
  bottom: "layer_64_2_conv2"
  bottom: "layer_64_1_sum"
  top: "layer_64_2_sum"
}
layer {
  name: "layer_128_1_bn1"
  type: "BatchNorm"
  bottom: "layer_64_2_sum"
  top: "layer_128_1_bn1"
  param {
    lr_mult: 0
    decay_mult: 0
  }
  param {
    lr_mult: 0
    decay_mult: 0
  }
  param {
    lr_mult: 0
    decay_mult: 0
  }
}
layer {
  name: "layer_128_1_scale1"
  type: "Scale"
  bottom: "layer_128_1_bn1"
  top: "layer_128_1_bn1"
  param {
    lr_mult: 1
    decay_mult: 1
  }
  param {
    lr_mult: 2
    decay_mult: 1
  }
  scale_param {
    bias_term: true
  }
}
layer {
  name: "layer_128_1_relu1"
  type: "ReLU"
  bottom: "layer_128_1_bn1"
  top: "layer_128_1_bn1"
}
layer {
  name: "layer_128_1_conv1"
  type: "Convolution"
  bottom: "layer_128_1_bn1"
  top: "layer_128_1_conv1"
  param {
    lr_mult: 1
    decay_mult: 1
  }
  convolution_param {
    num_output: 128
    bias_term: false
    pad: 1
    kernel_size: 3
    stride: 2
    weight_filler {
      type: "msra"
    }
    bias_filler {
      type: "constant"
      value: 0
    }
  }
}
layer {
  name: "layer_128_1_bn2"
  type: "BatchNorm"
  bottom: "layer_128_1_conv1"
  top: "layer_128_1_conv1"
  param {
    lr_mult: 0
    decay_mult: 0
  }
  param {
    lr_mult: 0
    decay_mult: 0
  }
  param {
    lr_mult: 0
    decay_mult: 0
  }
}
layer {
  name: "layer_128_1_scale2"
  type: "Scale"
  bottom: "layer_128_1_conv1"
  top: "layer_128_1_conv1"
  param {
    lr_mult: 1
    decay_mult: 1
  }
  param {
    lr_mult: 2
    decay_mult: 1
  }
  scale_param {
    bias_term: true
  }
}
layer {
  name: "layer_128_1_relu2"
  type: "ReLU"
  bottom: "layer_128_1_conv1"
  top: "layer_128_1_conv1"
}
layer {
  name: "layer_128_1_conv2"
  type: "Convolution"
  bottom: "layer_128_1_conv1"
  top: "layer_128_1_conv2"
  param {
    lr_mult: 1
    decay_mult: 1
  }
  convolution_param {
    num_output: 128
    bias_term: false
    pad: 1
    kernel_size: 3
    stride: 1
    weight_filler {
      type: "msra"
    }
    bias_filler {
      type: "constant"
      value: 0
    }
  }
}
layer {
  name: "layer_128_1_conv_expand"
  type: "Convolution"
  bottom: "layer_128_1_bn1"
  top: "layer_128_1_conv_expand"
  param {
    lr_mult: 1
    decay_mult: 1
  }
  convolution_param {
    num_output: 128
    bias_term: false
    pad: 0
    kernel_size: 1
    stride: 2
    weight_filler {
      type: "msra"
    }
    bias_filler {
      type: "constant"
      value: 0
    }
  }
}
layer {
  name: "layer_128_1_sum"
  type: "Eltwise"
  bottom: "layer_128_1_conv_expand"
  bottom: "layer_128_1_conv2"
  top: "layer_128_1_sum"
}
layer {
  name: "layer_128_2_bn1"
  type: "BatchNorm"
  bottom: "layer_128_1_sum"
  top: "layer_128_2_bn1"
  param {
    lr_mult: 0
    decay_mult: 0
  }
  param {
    lr_mult: 0
    decay_mult: 0
  }
  param {
    lr_mult: 0
    decay_mult: 0
  }
}
layer {
  name: "layer_128_2_scale1"
  type: "Scale"
  bottom: "layer_128_2_bn1"
  top: "layer_128_2_bn1"
  param {
    lr_mult: 1
    decay_mult: 1
  }
  param {
    lr_mult: 2
    decay_mult: 1
  }
  scale_param {
    bias_term: true
  }
}
layer {
  name: "layer_128_2_relu1"
  type: "ReLU"
  bottom: "layer_128_2_bn1"
  top: "layer_128_2_bn1"
}
layer {
  name: "layer_128_2_conv1"
  type: "Convolution"
  bottom: "layer_128_2_bn1"
  top: "layer_128_2_conv1"
  param {
    lr_mult: 1
    decay_mult: 1
  }
  convolution_param {
    num_output: 128
    bias_term: false
    pad: 1
    kernel_size: 3
    stride: 1
    weight_filler {
      type: "msra"
    }
    bias_filler {
      type: "constant"
      value: 0
    }
  }
}
layer {
  name: "layer_128_2_bn2"
  type: "BatchNorm"
  bottom: "layer_128_2_conv1"
  top: "layer_128_2_conv1"
  param {
    lr_mult: 0
    decay_mult: 0
  }
  param {
    lr_mult: 0
    decay_mult: 0
  }
  param {
    lr_mult: 0
    decay_mult: 0
  }
}
layer {
  name: "layer_128_2_scale2"
  type: "Scale"
  bottom: "layer_128_2_conv1"
  top: "layer_128_2_conv1"
  param {
    lr_mult: 1
    decay_mult: 1
  }
  param {
    lr_mult: 2
    decay_mult: 1
  }
  scale_param {
    bias_term: true
  }
}
layer {
  name: "layer_128_2_relu2"
  type: "ReLU"
  bottom: "layer_128_2_conv1"
  top: "layer_128_2_conv1"
}
layer {
  name: "layer_128_2_conv2"
  type: "Convolution"
  bottom: "layer_128_2_conv1"
  top: "layer_128_2_conv2"
  param {
    lr_mult: 1
    decay_mult: 1
  }
  convolution_param {
    num_output: 128
    bias_term: false
    pad: 1
    kernel_size: 3
    stride: 1
    weight_filler {
      type: "msra"
    }
    bias_filler {
      type: "constant"
      value: 0
    }
  }
}
layer {
  name: "layer_128_2_sum"
  type: "Eltwise"
  bottom: "layer_128_2_conv2"
  bottom: "layer_128_1_sum"
  top: "layer_128_2_sum"
}
layer {
  name: "layer_256_1_bn1"
  type: "BatchNorm"
  bottom: "layer_128_2_sum"
  top: "layer_256_1_bn1"
  param {
    lr_mult: 0
    decay_mult: 0
  }
  param {
    lr_mult: 0
    decay_mult: 0
  }
  param {
    lr_mult: 0
    decay_mult: 0
  }
}
layer {
  name: "layer_256_1_scale1"
  type: "Scale"
  bottom: "layer_256_1_bn1"
  top: "layer_256_1_bn1"
  param {
    lr_mult: 1
    decay_mult: 1
  }
  param {
    lr_mult: 2
    decay_mult: 1
  }
  scale_param {
    bias_term: true
  }
}
layer {
  name: "layer_256_1_relu1"
  type: "ReLU"
  bottom: "layer_256_1_bn1"
  top: "layer_256_1_bn1"
}
layer {
  name: "layer_256_1_conv1"
  type: "Convolution"
  bottom: "layer_256_1_bn1"
  top: "layer_256_1_conv1"
  param {
    lr_mult: 1
    decay_mult: 1
  }
  convolution_param {
    num_output: 256
    bias_term: false
    pad: 1
    kernel_size: 3
    stride: 2
    weight_filler {
      type: "msra"
    }
    bias_filler {
      type: "constant"
      value: 0
    }
  }
}
layer {
  name: "layer_256_1_bn2"
  type: "BatchNorm"
  bottom: "layer_256_1_conv1"
  top: "layer_256_1_conv1"
  param {
    lr_mult: 0
    decay_mult: 0
  }
  param {
    lr_mult: 0
    decay_mult: 0
  }
  param {
    lr_mult: 0
    decay_mult: 0
  }
}
layer {
  name: "layer_256_1_scale2"
  type: "Scale"
  bottom: "layer_256_1_conv1"
  top: "layer_256_1_conv1"
  param {
    lr_mult: 1
    decay_mult: 1
  }
  param {
    lr_mult: 2
    decay_mult: 1
  }
  scale_param {
    bias_term: true
  }
}
layer {
  name: "layer_256_1_relu2"
  type: "ReLU"
  bottom: "layer_256_1_conv1"
  top: "layer_256_1_conv1"
}
layer {
  name: "layer_256_1_conv2"
  type: "Convolution"
  bottom: "layer_256_1_conv1"
  top: "layer_256_1_conv2"
  param {
    lr_mult: 1
    decay_mult: 1
  }
  convolution_param {
    num_output: 256
    bias_term: false
    pad: 1
    kernel_size: 3
    stride: 1
    weight_filler {
      type: "msra"
    }
    bias_filler {
      type: "constant"
      value: 0
    }
  }
}
layer {
  name: "layer_256_1_conv_expand"
  type: "Convolution"
  bottom: "layer_256_1_bn1"
  top: "layer_256_1_conv_expand"
  param {
    lr_mult: 1
    decay_mult: 1
  }
  convolution_param {
    num_output: 256
    bias_term: false
    pad: 0
    kernel_size: 1
    stride: 2
    weight_filler {
      type: "msra"
    }
    bias_filler {
      type: "constant"
      value: 0
    }
  }
}
layer {
  name: "layer_256_1_sum"
  type: "Eltwise"
  bottom: "layer_256_1_conv_expand"
  bottom: "layer_256_1_conv2"
  top: "layer_256_1_sum"
}
layer {
  name: "layer_256_2_bn1"
  type: "BatchNorm"
  bottom: "layer_256_1_sum"
  top: "layer_256_2_bn1"
  param {
    lr_mult: 0
    decay_mult: 0
  }
  param {
    lr_mult: 0
    decay_mult: 0
  }
  param {
    lr_mult: 0
    decay_mult: 0
  }
}
layer {
  name: "layer_256_2_scale1"
  type: "Scale"
  bottom: "layer_256_2_bn1"
  top: "layer_256_2_bn1"
  param {
    lr_mult: 1
    decay_mult: 1
  }
  param {
    lr_mult: 2
    decay_mult: 1
  }
  scale_param {
    bias_term: true
  }
}
layer {
  name: "layer_256_2_relu1"
  type: "ReLU"
  bottom: "layer_256_2_bn1"
  top: "layer_256_2_bn1"
}
layer {
  name: "layer_256_2_conv1"
  type: "Convolution"
  bottom: "layer_256_2_bn1"
  top: "layer_256_2_conv1"
  param {
    lr_mult: 1
    decay_mult: 1
  }
  convolution_param {
    num_output: 256
    bias_term: false
    pad: 1
    kernel_size: 3
    stride: 1
    weight_filler {
      type: "msra"
    }
    bias_filler {
      type: "constant"
      value: 0
    }
  }
}
layer {
  name: "layer_256_2_bn2"
  type: "BatchNorm"
  bottom: "layer_256_2_conv1"
  top: "layer_256_2_conv1"
  param {
    lr_mult: 0
    decay_mult: 0
  }
  param {
    lr_mult: 0
    decay_mult: 0
  }
  param {
    lr_mult: 0
    decay_mult: 0
  }
}
layer {
  name: "layer_256_2_scale2"
  type: "Scale"
  bottom: "layer_256_2_conv1"
  top: "layer_256_2_conv1"
  param {
    lr_mult: 1
    decay_mult: 1
  }
  param {
    lr_mult: 2
    decay_mult: 1
  }
  scale_param {
    bias_term: true
  }
}
layer {
  name: "layer_256_2_relu2"
  type: "ReLU"
  bottom: "layer_256_2_conv1"
  top: "layer_256_2_conv1"
}
layer {
  name: "layer_256_2_conv2"
  type: "Convolution"
  bottom: "layer_256_2_conv1"
  top: "layer_256_2_conv2"
  param {
    lr_mult: 1
    decay_mult: 1
  }
  convolution_param {
    num_output: 256
    bias_term: false
    pad: 1
    kernel_size: 3
    stride: 1
    weight_filler {
      type: "msra"
    }
    bias_filler {
      type: "constant"
      value: 0
    }
  }
}
layer {
  name: "layer_256_2_sum"
  type: "Eltwise"
  bottom: "layer_256_2_conv2"
  bottom: "layer_256_1_sum"
  top: "layer_256_2_sum"
}
layer {
  name: "layer_512_1_bn1"
  type: "BatchNorm"
  bottom: "layer_256_2_sum"
  top: "layer_512_1_bn1"
  param {
    lr_mult: 0
    decay_mult: 0
  }
  param {
    lr_mult: 0
    decay_mult: 0
  }
  param {
    lr_mult: 0
    decay_mult: 0
  }
}
layer {
  name: "layer_512_1_scale1"
  type: "Scale"
  bottom: "layer_512_1_bn1"
  top: "layer_512_1_bn1"
  param {
    lr_mult: 1
    decay_mult: 1
  }
  param {
    lr_mult: 2
    decay_mult: 1
  }
  scale_param {
    bias_term: true
  }
}
layer {
  name: "layer_512_1_relu1"
  type: "ReLU"
  bottom: "layer_512_1_bn1"
  top: "layer_512_1_bn1"
}
layer {
  name: "layer_512_1_conv1"
  type: "Convolution"
  bottom: "layer_512_1_bn1"
  top: "layer_512_1_conv1"
  param {
    lr_mult: 1
    decay_mult: 1
  }
  convolution_param {
    num_output: 512
    bias_term: false
    pad: 1
    kernel_size: 3
    stride: 2
    weight_filler {
      type: "msra"
    }
    bias_filler {
      type: "constant"
      value: 0
    }
  }
}
layer {
  name: "layer_512_1_bn2"
  type: "BatchNorm"
  bottom: "layer_512_1_conv1"
  top: "layer_512_1_conv1"
  param {
    lr_mult: 0
    decay_mult: 0
  }
  param {
    lr_mult: 0
    decay_mult: 0
  }
  param {
    lr_mult: 0
    decay_mult: 0
  }
}
layer {
  name: "layer_512_1_scale2"
  type: "Scale"
  bottom: "layer_512_1_conv1"
  top: "layer_512_1_conv1"
  param {
    lr_mult: 1
    decay_mult: 1
  }
  param {
    lr_mult: 2
    decay_mult: 1
  }
  scale_param {
    bias_term: true
  }
}
layer {
  name: "layer_512_1_relu2"
  type: "ReLU"
  bottom: "layer_512_1_conv1"
  top: "layer_512_1_conv1"
}
layer {
  name: "layer_512_1_conv2"
  type: "Convolution"
  bottom: "layer_512_1_conv1"
  top: "layer_512_1_conv2"
  param {
    lr_mult: 1
    decay_mult: 1
  }
  convolution_param {
    num_output: 512
    bias_term: false
    pad: 1
    kernel_size: 3
    stride: 1
    weight_filler {
      type: "msra"
    }
    bias_filler {
      type: "constant"
      value: 0
    }
  }
}
layer {
  name: "layer_512_1_conv_expand"
  type: "Convolution"
  bottom: "layer_512_1_bn1"
  top: "layer_512_1_conv_expand"
  param {
    lr_mult: 1
    decay_mult: 1
  }
  convolution_param {
    num_output: 512
    bias_term: false
    pad: 0
    kernel_size: 1
    stride: 2
    weight_filler {
      type: "msra"
    }
    bias_filler {
      type: "constant"
      value: 0
    }
  }
}
layer {
  name: "layer_512_1_sum"
  type: "Eltwise"
  bottom: "layer_512_1_conv_expand"
  bottom: "layer_512_1_conv2"
  top: "layer_512_1_sum"
}
layer {
  name: "layer_512_2_bn1"
  type: "BatchNorm"
  bottom: "layer_512_1_sum"
  top: "layer_512_2_bn1"
  param {
    lr_mult: 0
    decay_mult: 0
  }
  param {
    lr_mult: 0
    decay_mult: 0
  }
  param {
    lr_mult: 0
    decay_mult: 0
  }
}
layer {
  name: "layer_512_2_scale1"
  type: "Scale"
  bottom: "layer_512_2_bn1"
  top: "layer_512_2_bn1"
  param {
    lr_mult: 1
    decay_mult: 1
  }
  param {
    lr_mult: 2
    decay_mult: 1
  }
  scale_param {
    bias_term: true
  }
}
layer {
  name: "layer_512_2_relu1"
  type: "ReLU"
  bottom: "layer_512_2_bn1"
  top: "layer_512_2_bn1"
}
layer {
  name: "layer_512_2_conv1"
  type: "Convolution"
  bottom: "layer_512_2_bn1"
  top: "layer_512_2_conv1"
  param {
    lr_mult: 1
    decay_mult: 1
  }
  convolution_param {
    num_output: 512
    bias_term: false
    pad: 1
    kernel_size: 3
    stride: 1
    weight_filler {
      type: "msra"
    }
    bias_filler {
      type: "constant"
      value: 0
    }
  }
}
layer {
  name: "layer_512_2_bn2"
  type: "BatchNorm"
  bottom: "layer_512_2_conv1"
  top: "layer_512_2_conv1"
  param {
    lr_mult: 0
    decay_mult: 0
  }
  param {
    lr_mult: 0
    decay_mult: 0
  }
  param {
    lr_mult: 0
    decay_mult: 0
  }
}
layer {
  name: "layer_512_2_scale2"
  type: "Scale"
  bottom: "layer_512_2_conv1"
  top: "layer_512_2_conv1"
  param {
    lr_mult: 1
    decay_mult: 1
  }
  param {
    lr_mult: 2
    decay_mult: 1
  }
  scale_param {
    bias_term: true
  }
}
layer {
  name: "layer_512_2_relu2"
  type: "ReLU"
  bottom: "layer_512_2_conv1"
  top: "layer_512_2_conv1"
}
layer {
  name: "layer_512_2_conv2"
  type: "Convolution"
  bottom: "layer_512_2_conv1"
  top: "layer_512_2_conv2"
  param {
    lr_mult: 1
    decay_mult: 1
  }
  convolution_param {
    num_output: 512
    bias_term: false
    pad: 1
    kernel_size: 3
    stride: 1
    weight_filler {
      type: "msra"
    }
    bias_filler {
      type: "constant"
      value: 0
    }
  }
}
layer {
  name: "layer_512_2_sum"
  type: "Eltwise"
  bottom: "layer_512_2_conv2"
  bottom: "layer_512_1_sum"
  top: "layer_512_2_sum"
}
layer {
  name: "last_bn"
  type: "BatchNorm"
  bottom: "layer_512_2_sum"
  top: "layer_512_2_sum"
  param {
    lr_mult: 0
    decay_mult: 0
  }
  param {
    lr_mult: 0
    decay_mult: 0
  }
  param {
    lr_mult: 0
    decay_mult: 0
  }
}
layer {
  name: "last_scale"
  type: "Scale"
  bottom: "layer_512_2_sum"
  top: "layer_512_2_sum"
  param {
    lr_mult: 1
    decay_mult: 1
  }
  param {
    lr_mult: 2
    decay_mult: 1
  }
  scale_param {
    bias_term: true
  }
}
layer {
  name: "last_relu"
  type: "ReLU"
  bottom: "layer_512_2_sum"
  top: "layer_512_2_sum"
}
layer {
  name: "global_pool"
  type: "Pooling"
  bottom: "layer_512_2_sum"
  top: "global_pool"
  pooling_param {
    pool: AVE
    global_pooling: true
  }
}
layer {
  name: "score"
  type: "InnerProduct"
  bottom: "global_pool"
  top: "score"
  param {
    lr_mult: 1
    decay_mult: 1
  }
  param {
    lr_mult: 2
    decay_mult: 1
  }
  inner_product_param {
    num_output: 8
  }
}
layer {
  name: "loss"
  type: "SoftmaxWithLoss"
  bottom: "score"
  bottom: "label"
  top: "loss"
}
layer {
  name: "accuracy"
  type: "Accuracy"
  bottom: "score"
  bottom: "label"
  top: "accuracy"
  include {
    phase: TEST
  }
}
I0528 21:50:17.347759 142602 layer_factory.hpp:77] Creating layer data
I0528 21:50:17.347823 142602 db_lmdb.cpp:35] Opened lmdb /storage/Test_fold_is_01/age_val_lmdb
I0528 21:50:17.347841 142602 net.cpp:84] Creating Layer data
I0528 21:50:17.347848 142602 net.cpp:380] data -> data
I0528 21:50:17.347857 142602 net.cpp:380] data -> label
I0528 21:50:17.347865 142602 data_transformer.cpp:25] Loading mean file from: /storage/Test_fold_is_01/mean.binaryproto
I0528 21:50:17.350347 142602 data_layer.cpp:45] output data size: 20,3,224,224
I0528 21:50:17.377262 142602 net.cpp:122] Setting up data
I0528 21:50:17.377313 142602 net.cpp:129] Top shape: 20 3 224 224 (3010560)
I0528 21:50:17.377321 142602 net.cpp:129] Top shape: 20 (20)
I0528 21:50:17.377326 142602 net.cpp:137] Memory required for data: 12042320
I0528 21:50:17.377333 142602 layer_factory.hpp:77] Creating layer label_data_1_split
I0528 21:50:17.377349 142602 net.cpp:84] Creating Layer label_data_1_split
I0528 21:50:17.377354 142602 net.cpp:406] label_data_1_split <- label
I0528 21:50:17.377363 142602 net.cpp:380] label_data_1_split -> label_data_1_split_0
I0528 21:50:17.377375 142602 net.cpp:380] label_data_1_split -> label_data_1_split_1
I0528 21:50:17.377552 142602 net.cpp:122] Setting up label_data_1_split
I0528 21:50:17.377562 142602 net.cpp:129] Top shape: 20 (20)
I0528 21:50:17.377566 142602 net.cpp:129] Top shape: 20 (20)
I0528 21:50:17.377569 142602 net.cpp:137] Memory required for data: 12042480
I0528 21:50:17.377573 142602 layer_factory.hpp:77] Creating layer data_bn
I0528 21:50:17.377583 142602 net.cpp:84] Creating Layer data_bn
I0528 21:50:17.377588 142602 net.cpp:406] data_bn <- data
I0528 21:50:17.377593 142602 net.cpp:380] data_bn -> data_bn
I0528 21:50:17.377856 142602 net.cpp:122] Setting up data_bn
I0528 21:50:17.377863 142602 net.cpp:129] Top shape: 20 3 224 224 (3010560)
I0528 21:50:17.377867 142602 net.cpp:137] Memory required for data: 24084720
I0528 21:50:17.377882 142602 layer_factory.hpp:77] Creating layer data_scale
I0528 21:50:17.377889 142602 net.cpp:84] Creating Layer data_scale
I0528 21:50:17.377893 142602 net.cpp:406] data_scale <- data_bn
I0528 21:50:17.377898 142602 net.cpp:367] data_scale -> data_bn (in-place)
I0528 21:50:17.377944 142602 layer_factory.hpp:77] Creating layer data_scale
I0528 21:50:17.378154 142602 net.cpp:122] Setting up data_scale
I0528 21:50:17.378166 142602 net.cpp:129] Top shape: 20 3 224 224 (3010560)
I0528 21:50:17.378170 142602 net.cpp:137] Memory required for data: 36126960
I0528 21:50:17.378178 142602 layer_factory.hpp:77] Creating layer conv1
I0528 21:50:17.378191 142602 net.cpp:84] Creating Layer conv1
I0528 21:50:17.378196 142602 net.cpp:406] conv1 <- data_bn
I0528 21:50:17.378202 142602 net.cpp:380] conv1 -> conv1
I0528 21:50:17.380802 142602 net.cpp:122] Setting up conv1
I0528 21:50:17.380823 142602 net.cpp:129] Top shape: 20 64 112 112 (16056320)
I0528 21:50:17.380828 142602 net.cpp:137] Memory required for data: 100352240
I0528 21:50:17.380836 142602 layer_factory.hpp:77] Creating layer conv1_bn
I0528 21:50:17.380853 142602 net.cpp:84] Creating Layer conv1_bn
I0528 21:50:17.380867 142602 net.cpp:406] conv1_bn <- conv1
I0528 21:50:17.380874 142602 net.cpp:367] conv1_bn -> conv1 (in-place)
I0528 21:50:17.381095 142602 net.cpp:122] Setting up conv1_bn
I0528 21:50:17.381106 142602 net.cpp:129] Top shape: 20 64 112 112 (16056320)
I0528 21:50:17.381110 142602 net.cpp:137] Memory required for data: 164577520
I0528 21:50:17.381120 142602 layer_factory.hpp:77] Creating layer conv1_scale
I0528 21:50:17.381129 142602 net.cpp:84] Creating Layer conv1_scale
I0528 21:50:17.381132 142602 net.cpp:406] conv1_scale <- conv1
I0528 21:50:17.381137 142602 net.cpp:367] conv1_scale -> conv1 (in-place)
I0528 21:50:17.381182 142602 layer_factory.hpp:77] Creating layer conv1_scale
I0528 21:50:17.381317 142602 net.cpp:122] Setting up conv1_scale
I0528 21:50:17.381325 142602 net.cpp:129] Top shape: 20 64 112 112 (16056320)
I0528 21:50:17.381327 142602 net.cpp:137] Memory required for data: 228802800
I0528 21:50:17.381333 142602 layer_factory.hpp:77] Creating layer conv1_relu
I0528 21:50:17.381340 142602 net.cpp:84] Creating Layer conv1_relu
I0528 21:50:17.381343 142602 net.cpp:406] conv1_relu <- conv1
I0528 21:50:17.381348 142602 net.cpp:367] conv1_relu -> conv1 (in-place)
I0528 21:50:17.381976 142602 net.cpp:122] Setting up conv1_relu
I0528 21:50:17.381990 142602 net.cpp:129] Top shape: 20 64 112 112 (16056320)
I0528 21:50:17.381994 142602 net.cpp:137] Memory required for data: 293028080
I0528 21:50:17.381999 142602 layer_factory.hpp:77] Creating layer conv1_pool
I0528 21:50:17.382007 142602 net.cpp:84] Creating Layer conv1_pool
I0528 21:50:17.382011 142602 net.cpp:406] conv1_pool <- conv1
I0528 21:50:17.382017 142602 net.cpp:380] conv1_pool -> conv1_pool
I0528 21:50:17.382076 142602 net.cpp:122] Setting up conv1_pool
I0528 21:50:17.382089 142602 net.cpp:129] Top shape: 20 64 56 56 (4014080)
I0528 21:50:17.382093 142602 net.cpp:137] Memory required for data: 309084400
I0528 21:50:17.382097 142602 layer_factory.hpp:77] Creating layer conv1_pool_conv1_pool_0_split
I0528 21:50:17.382103 142602 net.cpp:84] Creating Layer conv1_pool_conv1_pool_0_split
I0528 21:50:17.382107 142602 net.cpp:406] conv1_pool_conv1_pool_0_split <- conv1_pool
I0528 21:50:17.382113 142602 net.cpp:380] conv1_pool_conv1_pool_0_split -> conv1_pool_conv1_pool_0_split_0
I0528 21:50:17.382120 142602 net.cpp:380] conv1_pool_conv1_pool_0_split -> conv1_pool_conv1_pool_0_split_1
I0528 21:50:17.382160 142602 net.cpp:122] Setting up conv1_pool_conv1_pool_0_split
I0528 21:50:17.382166 142602 net.cpp:129] Top shape: 20 64 56 56 (4014080)
I0528 21:50:17.382170 142602 net.cpp:129] Top shape: 20 64 56 56 (4014080)
I0528 21:50:17.382174 142602 net.cpp:137] Memory required for data: 341197040
I0528 21:50:17.382176 142602 layer_factory.hpp:77] Creating layer layer_64_1_conv1
I0528 21:50:17.382186 142602 net.cpp:84] Creating Layer layer_64_1_conv1
I0528 21:50:17.382190 142602 net.cpp:406] layer_64_1_conv1 <- conv1_pool_conv1_pool_0_split_0
I0528 21:50:17.382196 142602 net.cpp:380] layer_64_1_conv1 -> layer_64_1_conv1
I0528 21:50:17.385063 142602 net.cpp:122] Setting up layer_64_1_conv1
I0528 21:50:17.385080 142602 net.cpp:129] Top shape: 20 64 56 56 (4014080)
I0528 21:50:17.385085 142602 net.cpp:137] Memory required for data: 357253360
I0528 21:50:17.385090 142602 layer_factory.hpp:77] Creating layer layer_64_1_bn2
I0528 21:50:17.385098 142602 net.cpp:84] Creating Layer layer_64_1_bn2
I0528 21:50:17.385102 142602 net.cpp:406] layer_64_1_bn2 <- layer_64_1_conv1
I0528 21:50:17.385108 142602 net.cpp:367] layer_64_1_bn2 -> layer_64_1_conv1 (in-place)
I0528 21:50:17.385305 142602 net.cpp:122] Setting up layer_64_1_bn2
I0528 21:50:17.385313 142602 net.cpp:129] Top shape: 20 64 56 56 (4014080)
I0528 21:50:17.385316 142602 net.cpp:137] Memory required for data: 373309680
I0528 21:50:17.385324 142602 layer_factory.hpp:77] Creating layer layer_64_1_scale2
I0528 21:50:17.385330 142602 net.cpp:84] Creating Layer layer_64_1_scale2
I0528 21:50:17.385334 142602 net.cpp:406] layer_64_1_scale2 <- layer_64_1_conv1
I0528 21:50:17.385344 142602 net.cpp:367] layer_64_1_scale2 -> layer_64_1_conv1 (in-place)
I0528 21:50:17.385397 142602 layer_factory.hpp:77] Creating layer layer_64_1_scale2
I0528 21:50:17.385522 142602 net.cpp:122] Setting up layer_64_1_scale2
I0528 21:50:17.385530 142602 net.cpp:129] Top shape: 20 64 56 56 (4014080)
I0528 21:50:17.385534 142602 net.cpp:137] Memory required for data: 389366000
I0528 21:50:17.385543 142602 layer_factory.hpp:77] Creating layer layer_64_1_relu2
I0528 21:50:17.385550 142602 net.cpp:84] Creating Layer layer_64_1_relu2
I0528 21:50:17.385553 142602 net.cpp:406] layer_64_1_relu2 <- layer_64_1_conv1
I0528 21:50:17.385560 142602 net.cpp:367] layer_64_1_relu2 -> layer_64_1_conv1 (in-place)
I0528 21:50:17.385722 142602 net.cpp:122] Setting up layer_64_1_relu2
I0528 21:50:17.385732 142602 net.cpp:129] Top shape: 20 64 56 56 (4014080)
I0528 21:50:17.385736 142602 net.cpp:137] Memory required for data: 405422320
I0528 21:50:17.385740 142602 layer_factory.hpp:77] Creating layer layer_64_1_conv2
I0528 21:50:17.385751 142602 net.cpp:84] Creating Layer layer_64_1_conv2
I0528 21:50:17.385754 142602 net.cpp:406] layer_64_1_conv2 <- layer_64_1_conv1
I0528 21:50:17.385761 142602 net.cpp:380] layer_64_1_conv2 -> layer_64_1_conv2
I0528 21:50:17.388761 142602 net.cpp:122] Setting up layer_64_1_conv2
I0528 21:50:17.388778 142602 net.cpp:129] Top shape: 20 64 56 56 (4014080)
I0528 21:50:17.388782 142602 net.cpp:137] Memory required for data: 421478640
I0528 21:50:17.388788 142602 layer_factory.hpp:77] Creating layer layer_64_1_sum
I0528 21:50:17.388797 142602 net.cpp:84] Creating Layer layer_64_1_sum
I0528 21:50:17.388800 142602 net.cpp:406] layer_64_1_sum <- layer_64_1_conv2
I0528 21:50:17.388805 142602 net.cpp:406] layer_64_1_sum <- conv1_pool_conv1_pool_0_split_1
I0528 21:50:17.388811 142602 net.cpp:380] layer_64_1_sum -> layer_64_1_sum
I0528 21:50:17.388844 142602 net.cpp:122] Setting up layer_64_1_sum
I0528 21:50:17.388850 142602 net.cpp:129] Top shape: 20 64 56 56 (4014080)
I0528 21:50:17.388854 142602 net.cpp:137] Memory required for data: 437534960
I0528 21:50:17.388856 142602 layer_factory.hpp:77] Creating layer layer_64_1_sum_layer_64_1_sum_0_split
I0528 21:50:17.388864 142602 net.cpp:84] Creating Layer layer_64_1_sum_layer_64_1_sum_0_split
I0528 21:50:17.388869 142602 net.cpp:406] layer_64_1_sum_layer_64_1_sum_0_split <- layer_64_1_sum
I0528 21:50:17.388873 142602 net.cpp:380] layer_64_1_sum_layer_64_1_sum_0_split -> layer_64_1_sum_layer_64_1_sum_0_split_0
I0528 21:50:17.388880 142602 net.cpp:380] layer_64_1_sum_layer_64_1_sum_0_split -> layer_64_1_sum_layer_64_1_sum_0_split_1
I0528 21:50:17.388917 142602 net.cpp:122] Setting up layer_64_1_sum_layer_64_1_sum_0_split
I0528 21:50:17.388923 142602 net.cpp:129] Top shape: 20 64 56 56 (4014080)
I0528 21:50:17.388927 142602 net.cpp:129] Top shape: 20 64 56 56 (4014080)
I0528 21:50:17.388931 142602 net.cpp:137] Memory required for data: 469647600
I0528 21:50:17.388933 142602 layer_factory.hpp:77] Creating layer layer_64_2_bn1
I0528 21:50:17.388939 142602 net.cpp:84] Creating Layer layer_64_2_bn1
I0528 21:50:17.388943 142602 net.cpp:406] layer_64_2_bn1 <- layer_64_1_sum_layer_64_1_sum_0_split_0
I0528 21:50:17.388949 142602 net.cpp:380] layer_64_2_bn1 -> layer_64_2_bn1
I0528 21:50:17.389171 142602 net.cpp:122] Setting up layer_64_2_bn1
I0528 21:50:17.389183 142602 net.cpp:129] Top shape: 20 64 56 56 (4014080)
I0528 21:50:17.389188 142602 net.cpp:137] Memory required for data: 485703920
I0528 21:50:17.389194 142602 layer_factory.hpp:77] Creating layer layer_64_2_scale1
I0528 21:50:17.389202 142602 net.cpp:84] Creating Layer layer_64_2_scale1
I0528 21:50:17.389206 142602 net.cpp:406] layer_64_2_scale1 <- layer_64_2_bn1
I0528 21:50:17.389211 142602 net.cpp:367] layer_64_2_scale1 -> layer_64_2_bn1 (in-place)
I0528 21:50:17.389257 142602 layer_factory.hpp:77] Creating layer layer_64_2_scale1
I0528 21:50:17.389380 142602 net.cpp:122] Setting up layer_64_2_scale1
I0528 21:50:17.389389 142602 net.cpp:129] Top shape: 20 64 56 56 (4014080)
I0528 21:50:17.389395 142602 net.cpp:137] Memory required for data: 501760240
I0528 21:50:17.389408 142602 layer_factory.hpp:77] Creating layer layer_64_2_relu1
I0528 21:50:17.389415 142602 net.cpp:84] Creating Layer layer_64_2_relu1
I0528 21:50:17.389420 142602 net.cpp:406] layer_64_2_relu1 <- layer_64_2_bn1
I0528 21:50:17.389425 142602 net.cpp:367] layer_64_2_relu1 -> layer_64_2_bn1 (in-place)
I0528 21:50:17.390000 142602 net.cpp:122] Setting up layer_64_2_relu1
I0528 21:50:17.390013 142602 net.cpp:129] Top shape: 20 64 56 56 (4014080)
I0528 21:50:17.390017 142602 net.cpp:137] Memory required for data: 517816560
I0528 21:50:17.390022 142602 layer_factory.hpp:77] Creating layer layer_64_2_conv1
I0528 21:50:17.390031 142602 net.cpp:84] Creating Layer layer_64_2_conv1
I0528 21:50:17.390036 142602 net.cpp:406] layer_64_2_conv1 <- layer_64_2_bn1
I0528 21:50:17.390049 142602 net.cpp:380] layer_64_2_conv1 -> layer_64_2_conv1
I0528 21:50:17.392089 142602 net.cpp:122] Setting up layer_64_2_conv1
I0528 21:50:17.392107 142602 net.cpp:129] Top shape: 20 64 56 56 (4014080)
I0528 21:50:17.392110 142602 net.cpp:137] Memory required for data: 533872880
I0528 21:50:17.392115 142602 layer_factory.hpp:77] Creating layer layer_64_2_bn2
I0528 21:50:17.392123 142602 net.cpp:84] Creating Layer layer_64_2_bn2
I0528 21:50:17.392127 142602 net.cpp:406] layer_64_2_bn2 <- layer_64_2_conv1
I0528 21:50:17.392133 142602 net.cpp:367] layer_64_2_bn2 -> layer_64_2_conv1 (in-place)
I0528 21:50:17.392338 142602 net.cpp:122] Setting up layer_64_2_bn2
I0528 21:50:17.392344 142602 net.cpp:129] Top shape: 20 64 56 56 (4014080)
I0528 21:50:17.392349 142602 net.cpp:137] Memory required for data: 549929200
I0528 21:50:17.392355 142602 layer_factory.hpp:77] Creating layer layer_64_2_scale2
I0528 21:50:17.392362 142602 net.cpp:84] Creating Layer layer_64_2_scale2
I0528 21:50:17.392366 142602 net.cpp:406] layer_64_2_scale2 <- layer_64_2_conv1
I0528 21:50:17.392371 142602 net.cpp:367] layer_64_2_scale2 -> layer_64_2_conv1 (in-place)
I0528 21:50:17.392416 142602 layer_factory.hpp:77] Creating layer layer_64_2_scale2
I0528 21:50:17.392539 142602 net.cpp:122] Setting up layer_64_2_scale2
I0528 21:50:17.392546 142602 net.cpp:129] Top shape: 20 64 56 56 (4014080)
I0528 21:50:17.392549 142602 net.cpp:137] Memory required for data: 565985520
I0528 21:50:17.392555 142602 layer_factory.hpp:77] Creating layer layer_64_2_relu2
I0528 21:50:17.392561 142602 net.cpp:84] Creating Layer layer_64_2_relu2
I0528 21:50:17.392565 142602 net.cpp:406] layer_64_2_relu2 <- layer_64_2_conv1
I0528 21:50:17.392570 142602 net.cpp:367] layer_64_2_relu2 -> layer_64_2_conv1 (in-place)
I0528 21:50:17.393151 142602 net.cpp:122] Setting up layer_64_2_relu2
I0528 21:50:17.393167 142602 net.cpp:129] Top shape: 20 64 56 56 (4014080)
I0528 21:50:17.393172 142602 net.cpp:137] Memory required for data: 582041840
I0528 21:50:17.393174 142602 layer_factory.hpp:77] Creating layer layer_64_2_conv2
I0528 21:50:17.393184 142602 net.cpp:84] Creating Layer layer_64_2_conv2
I0528 21:50:17.393188 142602 net.cpp:406] layer_64_2_conv2 <- layer_64_2_conv1
I0528 21:50:17.393196 142602 net.cpp:380] layer_64_2_conv2 -> layer_64_2_conv2
I0528 21:50:17.395634 142602 net.cpp:122] Setting up layer_64_2_conv2
I0528 21:50:17.395651 142602 net.cpp:129] Top shape: 20 64 56 56 (4014080)
I0528 21:50:17.395655 142602 net.cpp:137] Memory required for data: 598098160
I0528 21:50:17.395661 142602 layer_factory.hpp:77] Creating layer layer_64_2_sum
I0528 21:50:17.395668 142602 net.cpp:84] Creating Layer layer_64_2_sum
I0528 21:50:17.395673 142602 net.cpp:406] layer_64_2_sum <- layer_64_2_conv2
I0528 21:50:17.395678 142602 net.cpp:406] layer_64_2_sum <- layer_64_1_sum_layer_64_1_sum_0_split_1
I0528 21:50:17.395683 142602 net.cpp:380] layer_64_2_sum -> layer_64_2_sum
I0528 21:50:17.395712 142602 net.cpp:122] Setting up layer_64_2_sum
I0528 21:50:17.395720 142602 net.cpp:129] Top shape: 20 64 56 56 (4014080)
I0528 21:50:17.395722 142602 net.cpp:137] Memory required for data: 614154480
I0528 21:50:17.395725 142602 layer_factory.hpp:77] Creating layer layer_128_1_bn1
I0528 21:50:17.395737 142602 net.cpp:84] Creating Layer layer_128_1_bn1
I0528 21:50:17.395747 142602 net.cpp:406] layer_128_1_bn1 <- layer_64_2_sum
I0528 21:50:17.395753 142602 net.cpp:380] layer_128_1_bn1 -> layer_128_1_bn1
I0528 21:50:17.395964 142602 net.cpp:122] Setting up layer_128_1_bn1
I0528 21:50:17.395972 142602 net.cpp:129] Top shape: 20 64 56 56 (4014080)
I0528 21:50:17.395974 142602 net.cpp:137] Memory required for data: 630210800
I0528 21:50:17.395987 142602 layer_factory.hpp:77] Creating layer layer_128_1_scale1
I0528 21:50:17.395994 142602 net.cpp:84] Creating Layer layer_128_1_scale1
I0528 21:50:17.395998 142602 net.cpp:406] layer_128_1_scale1 <- layer_128_1_bn1
I0528 21:50:17.396004 142602 net.cpp:367] layer_128_1_scale1 -> layer_128_1_bn1 (in-place)
I0528 21:50:17.396057 142602 layer_factory.hpp:77] Creating layer layer_128_1_scale1
I0528 21:50:17.396190 142602 net.cpp:122] Setting up layer_128_1_scale1
I0528 21:50:17.396198 142602 net.cpp:129] Top shape: 20 64 56 56 (4014080)
I0528 21:50:17.396201 142602 net.cpp:137] Memory required for data: 646267120
I0528 21:50:17.396224 142602 layer_factory.hpp:77] Creating layer layer_128_1_relu1
I0528 21:50:17.396230 142602 net.cpp:84] Creating Layer layer_128_1_relu1
I0528 21:50:17.396234 142602 net.cpp:406] layer_128_1_relu1 <- layer_128_1_bn1
I0528 21:50:17.396240 142602 net.cpp:367] layer_128_1_relu1 -> layer_128_1_bn1 (in-place)
I0528 21:50:17.396407 142602 net.cpp:122] Setting up layer_128_1_relu1
I0528 21:50:17.396419 142602 net.cpp:129] Top shape: 20 64 56 56 (4014080)
I0528 21:50:17.396421 142602 net.cpp:137] Memory required for data: 662323440
I0528 21:50:17.396425 142602 layer_factory.hpp:77] Creating layer layer_128_1_bn1_layer_128_1_relu1_0_split
I0528 21:50:17.396430 142602 net.cpp:84] Creating Layer layer_128_1_bn1_layer_128_1_relu1_0_split
I0528 21:50:17.396435 142602 net.cpp:406] layer_128_1_bn1_layer_128_1_relu1_0_split <- layer_128_1_bn1
I0528 21:50:17.396440 142602 net.cpp:380] layer_128_1_bn1_layer_128_1_relu1_0_split -> layer_128_1_bn1_layer_128_1_relu1_0_split_0
I0528 21:50:17.396447 142602 net.cpp:380] layer_128_1_bn1_layer_128_1_relu1_0_split -> layer_128_1_bn1_layer_128_1_relu1_0_split_1
I0528 21:50:17.396492 142602 net.cpp:122] Setting up layer_128_1_bn1_layer_128_1_relu1_0_split
I0528 21:50:17.396498 142602 net.cpp:129] Top shape: 20 64 56 56 (4014080)
I0528 21:50:17.396502 142602 net.cpp:129] Top shape: 20 64 56 56 (4014080)
I0528 21:50:17.396505 142602 net.cpp:137] Memory required for data: 694436080
I0528 21:50:17.396508 142602 layer_factory.hpp:77] Creating layer layer_128_1_conv1
I0528 21:50:17.396517 142602 net.cpp:84] Creating Layer layer_128_1_conv1
I0528 21:50:17.396522 142602 net.cpp:406] layer_128_1_conv1 <- layer_128_1_bn1_layer_128_1_relu1_0_split_0
I0528 21:50:17.396528 142602 net.cpp:380] layer_128_1_conv1 -> layer_128_1_conv1
I0528 21:50:17.399962 142602 net.cpp:122] Setting up layer_128_1_conv1
I0528 21:50:17.399979 142602 net.cpp:129] Top shape: 20 128 28 28 (2007040)
I0528 21:50:17.399984 142602 net.cpp:137] Memory required for data: 702464240
I0528 21:50:17.399989 142602 layer_factory.hpp:77] Creating layer layer_128_1_bn2
I0528 21:50:17.399997 142602 net.cpp:84] Creating Layer layer_128_1_bn2
I0528 21:50:17.400002 142602 net.cpp:406] layer_128_1_bn2 <- layer_128_1_conv1
I0528 21:50:17.400008 142602 net.cpp:367] layer_128_1_bn2 -> layer_128_1_conv1 (in-place)
I0528 21:50:17.400216 142602 net.cpp:122] Setting up layer_128_1_bn2
I0528 21:50:17.400228 142602 net.cpp:129] Top shape: 20 128 28 28 (2007040)
I0528 21:50:17.400230 142602 net.cpp:137] Memory required for data: 710492400
I0528 21:50:17.400238 142602 layer_factory.hpp:77] Creating layer layer_128_1_scale2
I0528 21:50:17.400249 142602 net.cpp:84] Creating Layer layer_128_1_scale2
I0528 21:50:17.400252 142602 net.cpp:406] layer_128_1_scale2 <- layer_128_1_conv1
I0528 21:50:17.400259 142602 net.cpp:367] layer_128_1_scale2 -> layer_128_1_conv1 (in-place)
I0528 21:50:17.400302 142602 layer_factory.hpp:77] Creating layer layer_128_1_scale2
I0528 21:50:17.400426 142602 net.cpp:122] Setting up layer_128_1_scale2
I0528 21:50:17.400441 142602 net.cpp:129] Top shape: 20 128 28 28 (2007040)
I0528 21:50:17.400444 142602 net.cpp:137] Memory required for data: 718520560
I0528 21:50:17.400450 142602 layer_factory.hpp:77] Creating layer layer_128_1_relu2
I0528 21:50:17.400456 142602 net.cpp:84] Creating Layer layer_128_1_relu2
I0528 21:50:17.400460 142602 net.cpp:406] layer_128_1_relu2 <- layer_128_1_conv1
I0528 21:50:17.400465 142602 net.cpp:367] layer_128_1_relu2 -> layer_128_1_conv1 (in-place)
I0528 21:50:17.401046 142602 net.cpp:122] Setting up layer_128_1_relu2
I0528 21:50:17.401062 142602 net.cpp:129] Top shape: 20 128 28 28 (2007040)
I0528 21:50:17.401067 142602 net.cpp:137] Memory required for data: 726548720
I0528 21:50:17.401069 142602 layer_factory.hpp:77] Creating layer layer_128_1_conv2
I0528 21:50:17.401079 142602 net.cpp:84] Creating Layer layer_128_1_conv2
I0528 21:50:17.401084 142602 net.cpp:406] layer_128_1_conv2 <- layer_128_1_conv1
I0528 21:50:17.401091 142602 net.cpp:380] layer_128_1_conv2 -> layer_128_1_conv2
I0528 21:50:17.406623 142602 net.cpp:122] Setting up layer_128_1_conv2
I0528 21:50:17.406641 142602 net.cpp:129] Top shape: 20 128 28 28 (2007040)
I0528 21:50:17.406646 142602 net.cpp:137] Memory required for data: 734576880
I0528 21:50:17.406651 142602 layer_factory.hpp:77] Creating layer layer_128_1_conv_expand
I0528 21:50:17.406661 142602 net.cpp:84] Creating Layer layer_128_1_conv_expand
I0528 21:50:17.406666 142602 net.cpp:406] layer_128_1_conv_expand <- layer_128_1_bn1_layer_128_1_relu1_0_split_1
I0528 21:50:17.406672 142602 net.cpp:380] layer_128_1_conv_expand -> layer_128_1_conv_expand
I0528 21:50:17.409606 142602 net.cpp:122] Setting up layer_128_1_conv_expand
I0528 21:50:17.409623 142602 net.cpp:129] Top shape: 20 128 28 28 (2007040)
I0528 21:50:17.409627 142602 net.cpp:137] Memory required for data: 742605040
I0528 21:50:17.409633 142602 layer_factory.hpp:77] Creating layer layer_128_1_sum
I0528 21:50:17.409642 142602 net.cpp:84] Creating Layer layer_128_1_sum
I0528 21:50:17.409647 142602 net.cpp:406] layer_128_1_sum <- layer_128_1_conv_expand
I0528 21:50:17.409652 142602 net.cpp:406] layer_128_1_sum <- layer_128_1_conv2
I0528 21:50:17.409657 142602 net.cpp:380] layer_128_1_sum -> layer_128_1_sum
I0528 21:50:17.409688 142602 net.cpp:122] Setting up layer_128_1_sum
I0528 21:50:17.409696 142602 net.cpp:129] Top shape: 20 128 28 28 (2007040)
I0528 21:50:17.409700 142602 net.cpp:137] Memory required for data: 750633200
I0528 21:50:17.409703 142602 layer_factory.hpp:77] Creating layer layer_128_1_sum_layer_128_1_sum_0_split
I0528 21:50:17.409708 142602 net.cpp:84] Creating Layer layer_128_1_sum_layer_128_1_sum_0_split
I0528 21:50:17.409713 142602 net.cpp:406] layer_128_1_sum_layer_128_1_sum_0_split <- layer_128_1_sum
I0528 21:50:17.409718 142602 net.cpp:380] layer_128_1_sum_layer_128_1_sum_0_split -> layer_128_1_sum_layer_128_1_sum_0_split_0
I0528 21:50:17.409723 142602 net.cpp:380] layer_128_1_sum_layer_128_1_sum_0_split -> layer_128_1_sum_layer_128_1_sum_0_split_1
I0528 21:50:17.409765 142602 net.cpp:122] Setting up layer_128_1_sum_layer_128_1_sum_0_split
I0528 21:50:17.409771 142602 net.cpp:129] Top shape: 20 128 28 28 (2007040)
I0528 21:50:17.409775 142602 net.cpp:129] Top shape: 20 128 28 28 (2007040)
I0528 21:50:17.409778 142602 net.cpp:137] Memory required for data: 766689520
I0528 21:50:17.409781 142602 layer_factory.hpp:77] Creating layer layer_128_2_bn1
I0528 21:50:17.409790 142602 net.cpp:84] Creating Layer layer_128_2_bn1
I0528 21:50:17.409792 142602 net.cpp:406] layer_128_2_bn1 <- layer_128_1_sum_layer_128_1_sum_0_split_0
I0528 21:50:17.409798 142602 net.cpp:380] layer_128_2_bn1 -> layer_128_2_bn1
I0528 21:50:17.410003 142602 net.cpp:122] Setting up layer_128_2_bn1
I0528 21:50:17.410010 142602 net.cpp:129] Top shape: 20 128 28 28 (2007040)
I0528 21:50:17.410013 142602 net.cpp:137] Memory required for data: 774717680
I0528 21:50:17.410020 142602 layer_factory.hpp:77] Creating layer layer_128_2_scale1
I0528 21:50:17.410033 142602 net.cpp:84] Creating Layer layer_128_2_scale1
I0528 21:50:17.410054 142602 net.cpp:406] layer_128_2_scale1 <- layer_128_2_bn1
I0528 21:50:17.410063 142602 net.cpp:367] layer_128_2_scale1 -> layer_128_2_bn1 (in-place)
I0528 21:50:17.410111 142602 layer_factory.hpp:77] Creating layer layer_128_2_scale1
I0528 21:50:17.410231 142602 net.cpp:122] Setting up layer_128_2_scale1
I0528 21:50:17.410240 142602 net.cpp:129] Top shape: 20 128 28 28 (2007040)
I0528 21:50:17.410244 142602 net.cpp:137] Memory required for data: 782745840
I0528 21:50:17.410249 142602 layer_factory.hpp:77] Creating layer layer_128_2_relu1
I0528 21:50:17.410256 142602 net.cpp:84] Creating Layer layer_128_2_relu1
I0528 21:50:17.410259 142602 net.cpp:406] layer_128_2_relu1 <- layer_128_2_bn1
I0528 21:50:17.410264 142602 net.cpp:367] layer_128_2_relu1 -> layer_128_2_bn1 (in-place)
I0528 21:50:17.410897 142602 net.cpp:122] Setting up layer_128_2_relu1
I0528 21:50:17.410912 142602 net.cpp:129] Top shape: 20 128 28 28 (2007040)
I0528 21:50:17.410917 142602 net.cpp:137] Memory required for data: 790774000
I0528 21:50:17.410920 142602 layer_factory.hpp:77] Creating layer layer_128_2_conv1
I0528 21:50:17.410931 142602 net.cpp:84] Creating Layer layer_128_2_conv1
I0528 21:50:17.410935 142602 net.cpp:406] layer_128_2_conv1 <- layer_128_2_bn1
I0528 21:50:17.410943 142602 net.cpp:380] layer_128_2_conv1 -> layer_128_2_conv1
I0528 21:50:17.416834 142602 net.cpp:122] Setting up layer_128_2_conv1
I0528 21:50:17.416851 142602 net.cpp:129] Top shape: 20 128 28 28 (2007040)
I0528 21:50:17.416856 142602 net.cpp:137] Memory required for data: 798802160
I0528 21:50:17.416862 142602 layer_factory.hpp:77] Creating layer layer_128_2_bn2
I0528 21:50:17.416870 142602 net.cpp:84] Creating Layer layer_128_2_bn2
I0528 21:50:17.416874 142602 net.cpp:406] layer_128_2_bn2 <- layer_128_2_conv1
I0528 21:50:17.416880 142602 net.cpp:367] layer_128_2_bn2 -> layer_128_2_conv1 (in-place)
I0528 21:50:17.417095 142602 net.cpp:122] Setting up layer_128_2_bn2
I0528 21:50:17.417107 142602 net.cpp:129] Top shape: 20 128 28 28 (2007040)
I0528 21:50:17.417110 142602 net.cpp:137] Memory required for data: 806830320
I0528 21:50:17.417117 142602 layer_factory.hpp:77] Creating layer layer_128_2_scale2
I0528 21:50:17.417126 142602 net.cpp:84] Creating Layer layer_128_2_scale2
I0528 21:50:17.417130 142602 net.cpp:406] layer_128_2_scale2 <- layer_128_2_conv1
I0528 21:50:17.417135 142602 net.cpp:367] layer_128_2_scale2 -> layer_128_2_conv1 (in-place)
I0528 21:50:17.417181 142602 layer_factory.hpp:77] Creating layer layer_128_2_scale2
I0528 21:50:17.417306 142602 net.cpp:122] Setting up layer_128_2_scale2
I0528 21:50:17.417315 142602 net.cpp:129] Top shape: 20 128 28 28 (2007040)
I0528 21:50:17.417317 142602 net.cpp:137] Memory required for data: 814858480
I0528 21:50:17.417322 142602 layer_factory.hpp:77] Creating layer layer_128_2_relu2
I0528 21:50:17.417328 142602 net.cpp:84] Creating Layer layer_128_2_relu2
I0528 21:50:17.417331 142602 net.cpp:406] layer_128_2_relu2 <- layer_128_2_conv1
I0528 21:50:17.417338 142602 net.cpp:367] layer_128_2_relu2 -> layer_128_2_conv1 (in-place)
I0528 21:50:17.417507 142602 net.cpp:122] Setting up layer_128_2_relu2
I0528 21:50:17.417517 142602 net.cpp:129] Top shape: 20 128 28 28 (2007040)
I0528 21:50:17.417520 142602 net.cpp:137] Memory required for data: 822886640
I0528 21:50:17.417523 142602 layer_factory.hpp:77] Creating layer layer_128_2_conv2
I0528 21:50:17.417534 142602 net.cpp:84] Creating Layer layer_128_2_conv2
I0528 21:50:17.417541 142602 net.cpp:406] layer_128_2_conv2 <- layer_128_2_conv1
I0528 21:50:17.417546 142602 net.cpp:380] layer_128_2_conv2 -> layer_128_2_conv2
I0528 21:50:17.423876 142602 net.cpp:122] Setting up layer_128_2_conv2
I0528 21:50:17.423892 142602 net.cpp:129] Top shape: 20 128 28 28 (2007040)
I0528 21:50:17.423897 142602 net.cpp:137] Memory required for data: 830914800
I0528 21:50:17.423902 142602 layer_factory.hpp:77] Creating layer layer_128_2_sum
I0528 21:50:17.423915 142602 net.cpp:84] Creating Layer layer_128_2_sum
I0528 21:50:17.423923 142602 net.cpp:406] layer_128_2_sum <- layer_128_2_conv2
I0528 21:50:17.423934 142602 net.cpp:406] layer_128_2_sum <- layer_128_1_sum_layer_128_1_sum_0_split_1
I0528 21:50:17.423940 142602 net.cpp:380] layer_128_2_sum -> layer_128_2_sum
I0528 21:50:17.423974 142602 net.cpp:122] Setting up layer_128_2_sum
I0528 21:50:17.423982 142602 net.cpp:129] Top shape: 20 128 28 28 (2007040)
I0528 21:50:17.423985 142602 net.cpp:137] Memory required for data: 838942960
I0528 21:50:17.423988 142602 layer_factory.hpp:77] Creating layer layer_256_1_bn1
I0528 21:50:17.423995 142602 net.cpp:84] Creating Layer layer_256_1_bn1
I0528 21:50:17.424000 142602 net.cpp:406] layer_256_1_bn1 <- layer_128_2_sum
I0528 21:50:17.424005 142602 net.cpp:380] layer_256_1_bn1 -> layer_256_1_bn1
I0528 21:50:17.424223 142602 net.cpp:122] Setting up layer_256_1_bn1
I0528 21:50:17.424234 142602 net.cpp:129] Top shape: 20 128 28 28 (2007040)
I0528 21:50:17.424237 142602 net.cpp:137] Memory required for data: 846971120
I0528 21:50:17.424245 142602 layer_factory.hpp:77] Creating layer layer_256_1_scale1
I0528 21:50:17.424252 142602 net.cpp:84] Creating Layer layer_256_1_scale1
I0528 21:50:17.424255 142602 net.cpp:406] layer_256_1_scale1 <- layer_256_1_bn1
I0528 21:50:17.424260 142602 net.cpp:367] layer_256_1_scale1 -> layer_256_1_bn1 (in-place)
I0528 21:50:17.424310 142602 layer_factory.hpp:77] Creating layer layer_256_1_scale1
I0528 21:50:17.424432 142602 net.cpp:122] Setting up layer_256_1_scale1
I0528 21:50:17.424439 142602 net.cpp:129] Top shape: 20 128 28 28 (2007040)
I0528 21:50:17.424443 142602 net.cpp:137] Memory required for data: 854999280
I0528 21:50:17.424448 142602 layer_factory.hpp:77] Creating layer layer_256_1_relu1
I0528 21:50:17.424453 142602 net.cpp:84] Creating Layer layer_256_1_relu1
I0528 21:50:17.424456 142602 net.cpp:406] layer_256_1_relu1 <- layer_256_1_bn1
I0528 21:50:17.424463 142602 net.cpp:367] layer_256_1_relu1 -> layer_256_1_bn1 (in-place)
I0528 21:50:17.424643 142602 net.cpp:122] Setting up layer_256_1_relu1
I0528 21:50:17.424654 142602 net.cpp:129] Top shape: 20 128 28 28 (2007040)
I0528 21:50:17.424656 142602 net.cpp:137] Memory required for data: 863027440
I0528 21:50:17.424660 142602 layer_factory.hpp:77] Creating layer layer_256_1_bn1_layer_256_1_relu1_0_split
I0528 21:50:17.424665 142602 net.cpp:84] Creating Layer layer_256_1_bn1_layer_256_1_relu1_0_split
I0528 21:50:17.424669 142602 net.cpp:406] layer_256_1_bn1_layer_256_1_relu1_0_split <- layer_256_1_bn1
I0528 21:50:17.424676 142602 net.cpp:380] layer_256_1_bn1_layer_256_1_relu1_0_split -> layer_256_1_bn1_layer_256_1_relu1_0_split_0
I0528 21:50:17.424686 142602 net.cpp:380] layer_256_1_bn1_layer_256_1_relu1_0_split -> layer_256_1_bn1_layer_256_1_relu1_0_split_1
I0528 21:50:17.424736 142602 net.cpp:122] Setting up layer_256_1_bn1_layer_256_1_relu1_0_split
I0528 21:50:17.424743 142602 net.cpp:129] Top shape: 20 128 28 28 (2007040)
I0528 21:50:17.424747 142602 net.cpp:129] Top shape: 20 128 28 28 (2007040)
I0528 21:50:17.424751 142602 net.cpp:137] Memory required for data: 879083760
I0528 21:50:17.424753 142602 layer_factory.hpp:77] Creating layer layer_256_1_conv1
I0528 21:50:17.424767 142602 net.cpp:84] Creating Layer layer_256_1_conv1
I0528 21:50:17.424772 142602 net.cpp:406] layer_256_1_conv1 <- layer_256_1_bn1_layer_256_1_relu1_0_split_0
I0528 21:50:17.424779 142602 net.cpp:380] layer_256_1_conv1 -> layer_256_1_conv1
I0528 21:50:17.435631 142602 net.cpp:122] Setting up layer_256_1_conv1
I0528 21:50:17.435650 142602 net.cpp:129] Top shape: 20 256 14 14 (1003520)
I0528 21:50:17.435655 142602 net.cpp:137] Memory required for data: 883097840
I0528 21:50:17.435662 142602 layer_factory.hpp:77] Creating layer layer_256_1_bn2
I0528 21:50:17.435668 142602 net.cpp:84] Creating Layer layer_256_1_bn2
I0528 21:50:17.435672 142602 net.cpp:406] layer_256_1_bn2 <- layer_256_1_conv1
I0528 21:50:17.435680 142602 net.cpp:367] layer_256_1_bn2 -> layer_256_1_conv1 (in-place)
I0528 21:50:17.435907 142602 net.cpp:122] Setting up layer_256_1_bn2
I0528 21:50:17.435915 142602 net.cpp:129] Top shape: 20 256 14 14 (1003520)
I0528 21:50:17.435923 142602 net.cpp:137] Memory required for data: 887111920
I0528 21:50:17.435947 142602 layer_factory.hpp:77] Creating layer layer_256_1_scale2
I0528 21:50:17.435956 142602 net.cpp:84] Creating Layer layer_256_1_scale2
I0528 21:50:17.435961 142602 net.cpp:406] layer_256_1_scale2 <- layer_256_1_conv1
I0528 21:50:17.435966 142602 net.cpp:367] layer_256_1_scale2 -> layer_256_1_conv1 (in-place)
I0528 21:50:17.436017 142602 layer_factory.hpp:77] Creating layer layer_256_1_scale2
I0528 21:50:17.436146 142602 net.cpp:122] Setting up layer_256_1_scale2
I0528 21:50:17.436158 142602 net.cpp:129] Top shape: 20 256 14 14 (1003520)
I0528 21:50:17.436162 142602 net.cpp:137] Memory required for data: 891126000
I0528 21:50:17.436168 142602 layer_factory.hpp:77] Creating layer layer_256_1_relu2
I0528 21:50:17.436173 142602 net.cpp:84] Creating Layer layer_256_1_relu2
I0528 21:50:17.436177 142602 net.cpp:406] layer_256_1_relu2 <- layer_256_1_conv1
I0528 21:50:17.436182 142602 net.cpp:367] layer_256_1_relu2 -> layer_256_1_conv1 (in-place)
I0528 21:50:17.436811 142602 net.cpp:122] Setting up layer_256_1_relu2
I0528 21:50:17.436825 142602 net.cpp:129] Top shape: 20 256 14 14 (1003520)
I0528 21:50:17.436828 142602 net.cpp:137] Memory required for data: 895140080
I0528 21:50:17.436832 142602 layer_factory.hpp:77] Creating layer layer_256_1_conv2
I0528 21:50:17.436846 142602 net.cpp:84] Creating Layer layer_256_1_conv2
I0528 21:50:17.436849 142602 net.cpp:406] layer_256_1_conv2 <- layer_256_1_conv1
I0528 21:50:17.436856 142602 net.cpp:380] layer_256_1_conv2 -> layer_256_1_conv2
I0528 21:50:17.454531 142602 net.cpp:122] Setting up layer_256_1_conv2
I0528 21:50:17.454551 142602 net.cpp:129] Top shape: 20 256 14 14 (1003520)
I0528 21:50:17.454555 142602 net.cpp:137] Memory required for data: 899154160
I0528 21:50:17.454561 142602 layer_factory.hpp:77] Creating layer layer_256_1_conv_expand
I0528 21:50:17.454572 142602 net.cpp:84] Creating Layer layer_256_1_conv_expand
I0528 21:50:17.454577 142602 net.cpp:406] layer_256_1_conv_expand <- layer_256_1_bn1_layer_256_1_relu1_0_split_1
I0528 21:50:17.454584 142602 net.cpp:380] layer_256_1_conv_expand -> layer_256_1_conv_expand
I0528 21:50:17.457932 142602 net.cpp:122] Setting up layer_256_1_conv_expand
I0528 21:50:17.457955 142602 net.cpp:129] Top shape: 20 256 14 14 (1003520)
I0528 21:50:17.457960 142602 net.cpp:137] Memory required for data: 903168240
I0528 21:50:17.457967 142602 layer_factory.hpp:77] Creating layer layer_256_1_sum
I0528 21:50:17.457973 142602 net.cpp:84] Creating Layer layer_256_1_sum
I0528 21:50:17.457978 142602 net.cpp:406] layer_256_1_sum <- layer_256_1_conv_expand
I0528 21:50:17.457981 142602 net.cpp:406] layer_256_1_sum <- layer_256_1_conv2
I0528 21:50:17.457989 142602 net.cpp:380] layer_256_1_sum -> layer_256_1_sum
I0528 21:50:17.458022 142602 net.cpp:122] Setting up layer_256_1_sum
I0528 21:50:17.458029 142602 net.cpp:129] Top shape: 20 256 14 14 (1003520)
I0528 21:50:17.458032 142602 net.cpp:137] Memory required for data: 907182320
I0528 21:50:17.458035 142602 layer_factory.hpp:77] Creating layer layer_256_1_sum_layer_256_1_sum_0_split
I0528 21:50:17.458050 142602 net.cpp:84] Creating Layer layer_256_1_sum_layer_256_1_sum_0_split
I0528 21:50:17.458057 142602 net.cpp:406] layer_256_1_sum_layer_256_1_sum_0_split <- layer_256_1_sum
I0528 21:50:17.458062 142602 net.cpp:380] layer_256_1_sum_layer_256_1_sum_0_split -> layer_256_1_sum_layer_256_1_sum_0_split_0
I0528 21:50:17.458070 142602 net.cpp:380] layer_256_1_sum_layer_256_1_sum_0_split -> layer_256_1_sum_layer_256_1_sum_0_split_1
I0528 21:50:17.458114 142602 net.cpp:122] Setting up layer_256_1_sum_layer_256_1_sum_0_split
I0528 21:50:17.458122 142602 net.cpp:129] Top shape: 20 256 14 14 (1003520)
I0528 21:50:17.458125 142602 net.cpp:129] Top shape: 20 256 14 14 (1003520)
I0528 21:50:17.458128 142602 net.cpp:137] Memory required for data: 915210480
I0528 21:50:17.458132 142602 layer_factory.hpp:77] Creating layer layer_256_2_bn1
I0528 21:50:17.458138 142602 net.cpp:84] Creating Layer layer_256_2_bn1
I0528 21:50:17.458148 142602 net.cpp:406] layer_256_2_bn1 <- layer_256_1_sum_layer_256_1_sum_0_split_0
I0528 21:50:17.458160 142602 net.cpp:380] layer_256_2_bn1 -> layer_256_2_bn1
I0528 21:50:17.458375 142602 net.cpp:122] Setting up layer_256_2_bn1
I0528 21:50:17.458382 142602 net.cpp:129] Top shape: 20 256 14 14 (1003520)
I0528 21:50:17.458386 142602 net.cpp:137] Memory required for data: 919224560
I0528 21:50:17.458394 142602 layer_factory.hpp:77] Creating layer layer_256_2_scale1
I0528 21:50:17.458400 142602 net.cpp:84] Creating Layer layer_256_2_scale1
I0528 21:50:17.458403 142602 net.cpp:406] layer_256_2_scale1 <- layer_256_2_bn1
I0528 21:50:17.458408 142602 net.cpp:367] layer_256_2_scale1 -> layer_256_2_bn1 (in-place)
I0528 21:50:17.458457 142602 layer_factory.hpp:77] Creating layer layer_256_2_scale1
I0528 21:50:17.458577 142602 net.cpp:122] Setting up layer_256_2_scale1
I0528 21:50:17.458585 142602 net.cpp:129] Top shape: 20 256 14 14 (1003520)
I0528 21:50:17.458588 142602 net.cpp:137] Memory required for data: 923238640
I0528 21:50:17.458593 142602 layer_factory.hpp:77] Creating layer layer_256_2_relu1
I0528 21:50:17.458600 142602 net.cpp:84] Creating Layer layer_256_2_relu1
I0528 21:50:17.458606 142602 net.cpp:406] layer_256_2_relu1 <- layer_256_2_bn1
I0528 21:50:17.458609 142602 net.cpp:367] layer_256_2_relu1 -> layer_256_2_bn1 (in-place)
I0528 21:50:17.459206 142602 net.cpp:122] Setting up layer_256_2_relu1
I0528 21:50:17.459223 142602 net.cpp:129] Top shape: 20 256 14 14 (1003520)
I0528 21:50:17.459226 142602 net.cpp:137] Memory required for data: 927252720
I0528 21:50:17.459230 142602 layer_factory.hpp:77] Creating layer layer_256_2_conv1
I0528 21:50:17.459241 142602 net.cpp:84] Creating Layer layer_256_2_conv1
I0528 21:50:17.459246 142602 net.cpp:406] layer_256_2_conv1 <- layer_256_2_bn1
I0528 21:50:17.459254 142602 net.cpp:380] layer_256_2_conv1 -> layer_256_2_conv1
I0528 21:50:17.477540 142602 net.cpp:122] Setting up layer_256_2_conv1
I0528 21:50:17.477556 142602 net.cpp:129] Top shape: 20 256 14 14 (1003520)
I0528 21:50:17.477561 142602 net.cpp:137] Memory required for data: 931266800
I0528 21:50:17.477566 142602 layer_factory.hpp:77] Creating layer layer_256_2_bn2
I0528 21:50:17.477576 142602 net.cpp:84] Creating Layer layer_256_2_bn2
I0528 21:50:17.477581 142602 net.cpp:406] layer_256_2_bn2 <- layer_256_2_conv1
I0528 21:50:17.477586 142602 net.cpp:367] layer_256_2_bn2 -> layer_256_2_conv1 (in-place)
I0528 21:50:17.477795 142602 net.cpp:122] Setting up layer_256_2_bn2
I0528 21:50:17.477803 142602 net.cpp:129] Top shape: 20 256 14 14 (1003520)
I0528 21:50:17.477807 142602 net.cpp:137] Memory required for data: 935280880
I0528 21:50:17.477813 142602 layer_factory.hpp:77] Creating layer layer_256_2_scale2
I0528 21:50:17.477826 142602 net.cpp:84] Creating Layer layer_256_2_scale2
I0528 21:50:17.477831 142602 net.cpp:406] layer_256_2_scale2 <- layer_256_2_conv1
I0528 21:50:17.477836 142602 net.cpp:367] layer_256_2_scale2 -> layer_256_2_conv1 (in-place)
I0528 21:50:17.477885 142602 layer_factory.hpp:77] Creating layer layer_256_2_scale2
I0528 21:50:17.478009 142602 net.cpp:122] Setting up layer_256_2_scale2
I0528 21:50:17.478018 142602 net.cpp:129] Top shape: 20 256 14 14 (1003520)
I0528 21:50:17.478020 142602 net.cpp:137] Memory required for data: 939294960
I0528 21:50:17.478026 142602 layer_factory.hpp:77] Creating layer layer_256_2_relu2
I0528 21:50:17.478032 142602 net.cpp:84] Creating Layer layer_256_2_relu2
I0528 21:50:17.478035 142602 net.cpp:406] layer_256_2_relu2 <- layer_256_2_conv1
I0528 21:50:17.478049 142602 net.cpp:367] layer_256_2_relu2 -> layer_256_2_conv1 (in-place)
I0528 21:50:17.478231 142602 net.cpp:122] Setting up layer_256_2_relu2
I0528 21:50:17.478242 142602 net.cpp:129] Top shape: 20 256 14 14 (1003520)
I0528 21:50:17.478245 142602 net.cpp:137] Memory required for data: 943309040
I0528 21:50:17.478250 142602 layer_factory.hpp:77] Creating layer layer_256_2_conv2
I0528 21:50:17.478260 142602 net.cpp:84] Creating Layer layer_256_2_conv2
I0528 21:50:17.478267 142602 net.cpp:406] layer_256_2_conv2 <- layer_256_2_conv1
I0528 21:50:17.478286 142602 net.cpp:380] layer_256_2_conv2 -> layer_256_2_conv2
I0528 21:50:17.495925 142602 net.cpp:122] Setting up layer_256_2_conv2
I0528 21:50:17.495942 142602 net.cpp:129] Top shape: 20 256 14 14 (1003520)
I0528 21:50:17.495946 142602 net.cpp:137] Memory required for data: 947323120
I0528 21:50:17.495952 142602 layer_factory.hpp:77] Creating layer layer_256_2_sum
I0528 21:50:17.495959 142602 net.cpp:84] Creating Layer layer_256_2_sum
I0528 21:50:17.495964 142602 net.cpp:406] layer_256_2_sum <- layer_256_2_conv2
I0528 21:50:17.495967 142602 net.cpp:406] layer_256_2_sum <- layer_256_1_sum_layer_256_1_sum_0_split_1
I0528 21:50:17.495975 142602 net.cpp:380] layer_256_2_sum -> layer_256_2_sum
I0528 21:50:17.496009 142602 net.cpp:122] Setting up layer_256_2_sum
I0528 21:50:17.496017 142602 net.cpp:129] Top shape: 20 256 14 14 (1003520)
I0528 21:50:17.496019 142602 net.cpp:137] Memory required for data: 951337200
I0528 21:50:17.496023 142602 layer_factory.hpp:77] Creating layer layer_512_1_bn1
I0528 21:50:17.496029 142602 net.cpp:84] Creating Layer layer_512_1_bn1
I0528 21:50:17.496032 142602 net.cpp:406] layer_512_1_bn1 <- layer_256_2_sum
I0528 21:50:17.496045 142602 net.cpp:380] layer_512_1_bn1 -> layer_512_1_bn1
I0528 21:50:17.496266 142602 net.cpp:122] Setting up layer_512_1_bn1
I0528 21:50:17.496275 142602 net.cpp:129] Top shape: 20 256 14 14 (1003520)
I0528 21:50:17.496279 142602 net.cpp:137] Memory required for data: 955351280
I0528 21:50:17.496285 142602 layer_factory.hpp:77] Creating layer layer_512_1_scale1
I0528 21:50:17.496294 142602 net.cpp:84] Creating Layer layer_512_1_scale1
I0528 21:50:17.496299 142602 net.cpp:406] layer_512_1_scale1 <- layer_512_1_bn1
I0528 21:50:17.496304 142602 net.cpp:367] layer_512_1_scale1 -> layer_512_1_bn1 (in-place)
I0528 21:50:17.496351 142602 layer_factory.hpp:77] Creating layer layer_512_1_scale1
I0528 21:50:17.496472 142602 net.cpp:122] Setting up layer_512_1_scale1
I0528 21:50:17.496480 142602 net.cpp:129] Top shape: 20 256 14 14 (1003520)
I0528 21:50:17.496484 142602 net.cpp:137] Memory required for data: 959365360
I0528 21:50:17.496490 142602 layer_factory.hpp:77] Creating layer layer_512_1_relu1
I0528 21:50:17.496495 142602 net.cpp:84] Creating Layer layer_512_1_relu1
I0528 21:50:17.496498 142602 net.cpp:406] layer_512_1_relu1 <- layer_512_1_bn1
I0528 21:50:17.496505 142602 net.cpp:367] layer_512_1_relu1 -> layer_512_1_bn1 (in-place)
I0528 21:50:17.497092 142602 net.cpp:122] Setting up layer_512_1_relu1
I0528 21:50:17.497108 142602 net.cpp:129] Top shape: 20 256 14 14 (1003520)
I0528 21:50:17.497112 142602 net.cpp:137] Memory required for data: 963379440
I0528 21:50:17.497117 142602 layer_factory.hpp:77] Creating layer layer_512_1_bn1_layer_512_1_relu1_0_split
I0528 21:50:17.497123 142602 net.cpp:84] Creating Layer layer_512_1_bn1_layer_512_1_relu1_0_split
I0528 21:50:17.497128 142602 net.cpp:406] layer_512_1_bn1_layer_512_1_relu1_0_split <- layer_512_1_bn1
I0528 21:50:17.497134 142602 net.cpp:380] layer_512_1_bn1_layer_512_1_relu1_0_split -> layer_512_1_bn1_layer_512_1_relu1_0_split_0
I0528 21:50:17.497143 142602 net.cpp:380] layer_512_1_bn1_layer_512_1_relu1_0_split -> layer_512_1_bn1_layer_512_1_relu1_0_split_1
I0528 21:50:17.497192 142602 net.cpp:122] Setting up layer_512_1_bn1_layer_512_1_relu1_0_split
I0528 21:50:17.497201 142602 net.cpp:129] Top shape: 20 256 14 14 (1003520)
I0528 21:50:17.497205 142602 net.cpp:129] Top shape: 20 256 14 14 (1003520)
I0528 21:50:17.497208 142602 net.cpp:137] Memory required for data: 971407600
I0528 21:50:17.497211 142602 layer_factory.hpp:77] Creating layer layer_512_1_conv1
I0528 21:50:17.497220 142602 net.cpp:84] Creating Layer layer_512_1_conv1
I0528 21:50:17.497225 142602 net.cpp:406] layer_512_1_conv1 <- layer_512_1_bn1_layer_512_1_relu1_0_split_0
I0528 21:50:17.497232 142602 net.cpp:380] layer_512_1_conv1 -> layer_512_1_conv1
I0528 21:50:17.530385 142602 net.cpp:122] Setting up layer_512_1_conv1
I0528 21:50:17.530405 142602 net.cpp:129] Top shape: 20 512 7 7 (501760)
I0528 21:50:17.530413 142602 net.cpp:137] Memory required for data: 973414640
I0528 21:50:17.530426 142602 layer_factory.hpp:77] Creating layer layer_512_1_bn2
I0528 21:50:17.530432 142602 net.cpp:84] Creating Layer layer_512_1_bn2
I0528 21:50:17.530436 142602 net.cpp:406] layer_512_1_bn2 <- layer_512_1_conv1
I0528 21:50:17.530444 142602 net.cpp:367] layer_512_1_bn2 -> layer_512_1_conv1 (in-place)
I0528 21:50:17.530676 142602 net.cpp:122] Setting up layer_512_1_bn2
I0528 21:50:17.530684 142602 net.cpp:129] Top shape: 20 512 7 7 (501760)
I0528 21:50:17.530688 142602 net.cpp:137] Memory required for data: 975421680
I0528 21:50:17.530694 142602 layer_factory.hpp:77] Creating layer layer_512_1_scale2
I0528 21:50:17.530702 142602 net.cpp:84] Creating Layer layer_512_1_scale2
I0528 21:50:17.530706 142602 net.cpp:406] layer_512_1_scale2 <- layer_512_1_conv1
I0528 21:50:17.530712 142602 net.cpp:367] layer_512_1_scale2 -> layer_512_1_conv1 (in-place)
I0528 21:50:17.530760 142602 layer_factory.hpp:77] Creating layer layer_512_1_scale2
I0528 21:50:17.530889 142602 net.cpp:122] Setting up layer_512_1_scale2
I0528 21:50:17.530896 142602 net.cpp:129] Top shape: 20 512 7 7 (501760)
I0528 21:50:17.530900 142602 net.cpp:137] Memory required for data: 977428720
I0528 21:50:17.530905 142602 layer_factory.hpp:77] Creating layer layer_512_1_relu2
I0528 21:50:17.530911 142602 net.cpp:84] Creating Layer layer_512_1_relu2
I0528 21:50:17.530915 142602 net.cpp:406] layer_512_1_relu2 <- layer_512_1_conv1
I0528 21:50:17.530921 142602 net.cpp:367] layer_512_1_relu2 -> layer_512_1_conv1 (in-place)
I0528 21:50:17.531512 142602 net.cpp:122] Setting up layer_512_1_relu2
I0528 21:50:17.531527 142602 net.cpp:129] Top shape: 20 512 7 7 (501760)
I0528 21:50:17.531532 142602 net.cpp:137] Memory required for data: 979435760
I0528 21:50:17.531535 142602 layer_factory.hpp:77] Creating layer layer_512_1_conv2
I0528 21:50:17.531548 142602 net.cpp:84] Creating Layer layer_512_1_conv2
I0528 21:50:17.531553 142602 net.cpp:406] layer_512_1_conv2 <- layer_512_1_conv1
I0528 21:50:17.531560 142602 net.cpp:380] layer_512_1_conv2 -> layer_512_1_conv2
I0528 21:50:17.597427 142602 net.cpp:122] Setting up layer_512_1_conv2
I0528 21:50:17.597448 142602 net.cpp:129] Top shape: 20 512 7 7 (501760)
I0528 21:50:17.597453 142602 net.cpp:137] Memory required for data: 981442800
I0528 21:50:17.597460 142602 layer_factory.hpp:77] Creating layer layer_512_1_conv_expand
I0528 21:50:17.597471 142602 net.cpp:84] Creating Layer layer_512_1_conv_expand
I0528 21:50:17.597476 142602 net.cpp:406] layer_512_1_conv_expand <- layer_512_1_bn1_layer_512_1_relu1_0_split_1
I0528 21:50:17.597486 142602 net.cpp:380] layer_512_1_conv_expand -> layer_512_1_conv_expand
I0528 21:50:17.602572 142602 net.cpp:122] Setting up layer_512_1_conv_expand
I0528 21:50:17.602589 142602 net.cpp:129] Top shape: 20 512 7 7 (501760)
I0528 21:50:17.602593 142602 net.cpp:137] Memory required for data: 983449840
I0528 21:50:17.602598 142602 layer_factory.hpp:77] Creating layer layer_512_1_sum
I0528 21:50:17.602607 142602 net.cpp:84] Creating Layer layer_512_1_sum
I0528 21:50:17.602612 142602 net.cpp:406] layer_512_1_sum <- layer_512_1_conv_expand
I0528 21:50:17.602617 142602 net.cpp:406] layer_512_1_sum <- layer_512_1_conv2
I0528 21:50:17.602622 142602 net.cpp:380] layer_512_1_sum -> layer_512_1_sum
I0528 21:50:17.602658 142602 net.cpp:122] Setting up layer_512_1_sum
I0528 21:50:17.602664 142602 net.cpp:129] Top shape: 20 512 7 7 (501760)
I0528 21:50:17.602668 142602 net.cpp:137] Memory required for data: 985456880
I0528 21:50:17.602671 142602 layer_factory.hpp:77] Creating layer layer_512_1_sum_layer_512_1_sum_0_split
I0528 21:50:17.602676 142602 net.cpp:84] Creating Layer layer_512_1_sum_layer_512_1_sum_0_split
I0528 21:50:17.602680 142602 net.cpp:406] layer_512_1_sum_layer_512_1_sum_0_split <- layer_512_1_sum
I0528 21:50:17.602687 142602 net.cpp:380] layer_512_1_sum_layer_512_1_sum_0_split -> layer_512_1_sum_layer_512_1_sum_0_split_0
I0528 21:50:17.602694 142602 net.cpp:380] layer_512_1_sum_layer_512_1_sum_0_split -> layer_512_1_sum_layer_512_1_sum_0_split_1
I0528 21:50:17.602754 142602 net.cpp:122] Setting up layer_512_1_sum_layer_512_1_sum_0_split
I0528 21:50:17.602763 142602 net.cpp:129] Top shape: 20 512 7 7 (501760)
I0528 21:50:17.602767 142602 net.cpp:129] Top shape: 20 512 7 7 (501760)
I0528 21:50:17.602771 142602 net.cpp:137] Memory required for data: 989470960
I0528 21:50:17.602774 142602 layer_factory.hpp:77] Creating layer layer_512_2_bn1
I0528 21:50:17.602780 142602 net.cpp:84] Creating Layer layer_512_2_bn1
I0528 21:50:17.602783 142602 net.cpp:406] layer_512_2_bn1 <- layer_512_1_sum_layer_512_1_sum_0_split_0
I0528 21:50:17.602792 142602 net.cpp:380] layer_512_2_bn1 -> layer_512_2_bn1
I0528 21:50:17.603018 142602 net.cpp:122] Setting up layer_512_2_bn1
I0528 21:50:17.603024 142602 net.cpp:129] Top shape: 20 512 7 7 (501760)
I0528 21:50:17.603027 142602 net.cpp:137] Memory required for data: 991478000
I0528 21:50:17.603035 142602 layer_factory.hpp:77] Creating layer layer_512_2_scale1
I0528 21:50:17.603049 142602 net.cpp:84] Creating Layer layer_512_2_scale1
I0528 21:50:17.603056 142602 net.cpp:406] layer_512_2_scale1 <- layer_512_2_bn1
I0528 21:50:17.603065 142602 net.cpp:367] layer_512_2_scale1 -> layer_512_2_bn1 (in-place)
I0528 21:50:17.603113 142602 layer_factory.hpp:77] Creating layer layer_512_2_scale1
I0528 21:50:17.603247 142602 net.cpp:122] Setting up layer_512_2_scale1
I0528 21:50:17.603255 142602 net.cpp:129] Top shape: 20 512 7 7 (501760)
I0528 21:50:17.603258 142602 net.cpp:137] Memory required for data: 993485040
I0528 21:50:17.603263 142602 layer_factory.hpp:77] Creating layer layer_512_2_relu1
I0528 21:50:17.603269 142602 net.cpp:84] Creating Layer layer_512_2_relu1
I0528 21:50:17.603273 142602 net.cpp:406] layer_512_2_relu1 <- layer_512_2_bn1
I0528 21:50:17.603278 142602 net.cpp:367] layer_512_2_relu1 -> layer_512_2_bn1 (in-place)
I0528 21:50:17.603863 142602 net.cpp:122] Setting up layer_512_2_relu1
I0528 21:50:17.603878 142602 net.cpp:129] Top shape: 20 512 7 7 (501760)
I0528 21:50:17.603880 142602 net.cpp:137] Memory required for data: 995492080
I0528 21:50:17.603884 142602 layer_factory.hpp:77] Creating layer layer_512_2_conv1
I0528 21:50:17.603895 142602 net.cpp:84] Creating Layer layer_512_2_conv1
I0528 21:50:17.603900 142602 net.cpp:406] layer_512_2_conv1 <- layer_512_2_bn1
I0528 21:50:17.603906 142602 net.cpp:380] layer_512_2_conv1 -> layer_512_2_conv1
I0528 21:50:17.669466 142602 net.cpp:122] Setting up layer_512_2_conv1
I0528 21:50:17.669486 142602 net.cpp:129] Top shape: 20 512 7 7 (501760)
I0528 21:50:17.669492 142602 net.cpp:137] Memory required for data: 997499120
I0528 21:50:17.669497 142602 layer_factory.hpp:77] Creating layer layer_512_2_bn2
I0528 21:50:17.669505 142602 net.cpp:84] Creating Layer layer_512_2_bn2
I0528 21:50:17.669510 142602 net.cpp:406] layer_512_2_bn2 <- layer_512_2_conv1
I0528 21:50:17.669517 142602 net.cpp:367] layer_512_2_bn2 -> layer_512_2_conv1 (in-place)
I0528 21:50:17.669741 142602 net.cpp:122] Setting up layer_512_2_bn2
I0528 21:50:17.669750 142602 net.cpp:129] Top shape: 20 512 7 7 (501760)
I0528 21:50:17.669754 142602 net.cpp:137] Memory required for data: 999506160
I0528 21:50:17.669762 142602 layer_factory.hpp:77] Creating layer layer_512_2_scale2
I0528 21:50:17.669770 142602 net.cpp:84] Creating Layer layer_512_2_scale2
I0528 21:50:17.669775 142602 net.cpp:406] layer_512_2_scale2 <- layer_512_2_conv1
I0528 21:50:17.669780 142602 net.cpp:367] layer_512_2_scale2 -> layer_512_2_conv1 (in-place)
I0528 21:50:17.669826 142602 layer_factory.hpp:77] Creating layer layer_512_2_scale2
I0528 21:50:17.669960 142602 net.cpp:122] Setting up layer_512_2_scale2
I0528 21:50:17.669968 142602 net.cpp:129] Top shape: 20 512 7 7 (501760)
I0528 21:50:17.669971 142602 net.cpp:137] Memory required for data: 1001513200
I0528 21:50:17.669977 142602 layer_factory.hpp:77] Creating layer layer_512_2_relu2
I0528 21:50:17.669983 142602 net.cpp:84] Creating Layer layer_512_2_relu2
I0528 21:50:17.669987 142602 net.cpp:406] layer_512_2_relu2 <- layer_512_2_conv1
I0528 21:50:17.669993 142602 net.cpp:367] layer_512_2_relu2 -> layer_512_2_conv1 (in-place)
I0528 21:50:17.670191 142602 net.cpp:122] Setting up layer_512_2_relu2
I0528 21:50:17.670204 142602 net.cpp:129] Top shape: 20 512 7 7 (501760)
I0528 21:50:17.670207 142602 net.cpp:137] Memory required for data: 1003520240
I0528 21:50:17.670212 142602 layer_factory.hpp:77] Creating layer layer_512_2_conv2
I0528 21:50:17.670228 142602 net.cpp:84] Creating Layer layer_512_2_conv2
I0528 21:50:17.670231 142602 net.cpp:406] layer_512_2_conv2 <- layer_512_2_conv1
I0528 21:50:17.670238 142602 net.cpp:380] layer_512_2_conv2 -> layer_512_2_conv2
I0528 21:50:17.735986 142602 net.cpp:122] Setting up layer_512_2_conv2
I0528 21:50:17.736019 142602 net.cpp:129] Top shape: 20 512 7 7 (501760)
I0528 21:50:17.736024 142602 net.cpp:137] Memory required for data: 1005527280
I0528 21:50:17.736049 142602 layer_factory.hpp:77] Creating layer layer_512_2_sum
I0528 21:50:17.736069 142602 net.cpp:84] Creating Layer layer_512_2_sum
I0528 21:50:17.736075 142602 net.cpp:406] layer_512_2_sum <- layer_512_2_conv2
I0528 21:50:17.736080 142602 net.cpp:406] layer_512_2_sum <- layer_512_1_sum_layer_512_1_sum_0_split_1
I0528 21:50:17.736086 142602 net.cpp:380] layer_512_2_sum -> layer_512_2_sum
I0528 21:50:17.736129 142602 net.cpp:122] Setting up layer_512_2_sum
I0528 21:50:17.736135 142602 net.cpp:129] Top shape: 20 512 7 7 (501760)
I0528 21:50:17.736138 142602 net.cpp:137] Memory required for data: 1007534320
I0528 21:50:17.736142 142602 layer_factory.hpp:77] Creating layer last_bn
I0528 21:50:17.736150 142602 net.cpp:84] Creating Layer last_bn
I0528 21:50:17.736155 142602 net.cpp:406] last_bn <- layer_512_2_sum
I0528 21:50:17.736160 142602 net.cpp:367] last_bn -> layer_512_2_sum (in-place)
I0528 21:50:17.736376 142602 net.cpp:122] Setting up last_bn
I0528 21:50:17.736383 142602 net.cpp:129] Top shape: 20 512 7 7 (501760)
I0528 21:50:17.736387 142602 net.cpp:137] Memory required for data: 1009541360
I0528 21:50:17.736393 142602 layer_factory.hpp:77] Creating layer last_scale
I0528 21:50:17.736400 142602 net.cpp:84] Creating Layer last_scale
I0528 21:50:17.736404 142602 net.cpp:406] last_scale <- layer_512_2_sum
I0528 21:50:17.736413 142602 net.cpp:367] last_scale -> layer_512_2_sum (in-place)
I0528 21:50:17.736459 142602 layer_factory.hpp:77] Creating layer last_scale
I0528 21:50:17.736590 142602 net.cpp:122] Setting up last_scale
I0528 21:50:17.736598 142602 net.cpp:129] Top shape: 20 512 7 7 (501760)
I0528 21:50:17.736601 142602 net.cpp:137] Memory required for data: 1011548400
I0528 21:50:17.736606 142602 layer_factory.hpp:77] Creating layer last_relu
I0528 21:50:17.736614 142602 net.cpp:84] Creating Layer last_relu
I0528 21:50:17.736618 142602 net.cpp:406] last_relu <- layer_512_2_sum
I0528 21:50:17.736623 142602 net.cpp:367] last_relu -> layer_512_2_sum (in-place)
I0528 21:50:17.737218 142602 net.cpp:122] Setting up last_relu
I0528 21:50:17.737234 142602 net.cpp:129] Top shape: 20 512 7 7 (501760)
I0528 21:50:17.737238 142602 net.cpp:137] Memory required for data: 1013555440
I0528 21:50:17.737241 142602 layer_factory.hpp:77] Creating layer global_pool
I0528 21:50:17.737251 142602 net.cpp:84] Creating Layer global_pool
I0528 21:50:17.737256 142602 net.cpp:406] global_pool <- layer_512_2_sum
I0528 21:50:17.737262 142602 net.cpp:380] global_pool -> global_pool
I0528 21:50:17.737458 142602 net.cpp:122] Setting up global_pool
I0528 21:50:17.737470 142602 net.cpp:129] Top shape: 20 512 1 1 (10240)
I0528 21:50:17.737474 142602 net.cpp:137] Memory required for data: 1013596400
I0528 21:50:17.737478 142602 layer_factory.hpp:77] Creating layer score
I0528 21:50:17.737485 142602 net.cpp:84] Creating Layer score
I0528 21:50:17.737489 142602 net.cpp:406] score <- global_pool
I0528 21:50:17.737495 142602 net.cpp:380] score -> score
I0528 21:50:17.737648 142602 net.cpp:122] Setting up score
I0528 21:50:17.737655 142602 net.cpp:129] Top shape: 20 8 (160)
I0528 21:50:17.737658 142602 net.cpp:137] Memory required for data: 1013597040
I0528 21:50:17.737664 142602 layer_factory.hpp:77] Creating layer score_score_0_split
I0528 21:50:17.737679 142602 net.cpp:84] Creating Layer score_score_0_split
I0528 21:50:17.737691 142602 net.cpp:406] score_score_0_split <- score
I0528 21:50:17.737697 142602 net.cpp:380] score_score_0_split -> score_score_0_split_0
I0528 21:50:17.737704 142602 net.cpp:380] score_score_0_split -> score_score_0_split_1
I0528 21:50:17.737753 142602 net.cpp:122] Setting up score_score_0_split
I0528 21:50:17.737761 142602 net.cpp:129] Top shape: 20 8 (160)
I0528 21:50:17.737764 142602 net.cpp:129] Top shape: 20 8 (160)
I0528 21:50:17.737767 142602 net.cpp:137] Memory required for data: 1013598320
I0528 21:50:17.737771 142602 layer_factory.hpp:77] Creating layer loss
I0528 21:50:17.737776 142602 net.cpp:84] Creating Layer loss
I0528 21:50:17.737781 142602 net.cpp:406] loss <- score_score_0_split_0
I0528 21:50:17.737784 142602 net.cpp:406] loss <- label_data_1_split_0
I0528 21:50:17.737792 142602 net.cpp:380] loss -> loss
…
