…
I0528 22:21:57.362524 16530 net.cpp:294] The NetState phase (0) differed from the phase (1) specified by a rule in layer accuracy
I0528 22:21:57.363484 16530 net.cpp:51] Initializing net from parameters: 
name: "Pre-ResNet-34"
state {
  phase: TRAIN
  level: 0
  stage: ""
}
layer {
  name: "data"
  type: "Data"
  top: "data"
  top: "label"
  include {
    phase: TRAIN
  }
  transform_param {
    mirror: true
    crop_size: 224
    mean_file: "/storage/Test_fold_is_01/mean.binaryproto"
  }
  data_param {
    source: "/storage/Test_fold_is_01/age_train_lmdb"
    batch_size: 50
    backend: LMDB
  }
}
layer {
  name: "data_bn"
  type: "BatchNorm"
  bottom: "data"
  top: "data_bn"
  param {
    lr_mult: 0
    decay_mult: 0
  }
  param {
    lr_mult: 0
    decay_mult: 0
  }
  param {
    lr_mult: 0
    decay_mult: 0
  }
}
layer {
  name: "data_scale"
  type: "Scale"
  bottom: "data_bn"
  top: "data_bn"
  param {
    lr_mult: 1
    decay_mult: 1
  }
  param {
    lr_mult: 2
    decay_mult: 1
  }
  scale_param {
    bias_term: true
  }
}
layer {
  name: "conv1"
  type: "Convolution"
  bottom: "data_bn"
  top: "conv1"
  param {
    lr_mult: 1
    decay_mult: 1
  }
  param {
    lr_mult: 2
    decay_mult: 1
  }
  convolution_param {
    num_output: 64
    pad: 3
    kernel_size: 7
    stride: 2
    weight_filler {
      type: "msra"
      variance_norm: FAN_OUT
    }
    bias_filler {
      type: "constant"
      value: 0
    }
  }
}
layer {
  name: "conv1_bn"
  type: "BatchNorm"
  bottom: "conv1"
  top: "conv1"
  param {
    lr_mult: 0
    decay_mult: 0
  }
  param {
    lr_mult: 0
    decay_mult: 0
  }
  param {
    lr_mult: 0
    decay_mult: 0
  }
}
layer {
  name: "conv1_scale"
  type: "Scale"
  bottom: "conv1"
  top: "conv1"
  param {
    lr_mult: 1
    decay_mult: 1
  }
  param {
    lr_mult: 2
    decay_mult: 1
  }
  scale_param {
    bias_term: true
  }
}
layer {
  name: "conv1_relu"
  type: "ReLU"
  bottom: "conv1"
  top: "conv1"
}
layer {
  name: "conv1_pool"
  type: "Pooling"
  bottom: "conv1"
  top: "conv1_pool"
  pooling_param {
    kernel_size: 3
    stride: 2
  }
}
layer {
  name: "layer_64_1_conv1"
  type: "Convolution"
  bottom: "conv1_pool"
  top: "layer_64_1_conv1"
  param {
    lr_mult: 1
    decay_mult: 1
  }
  convolution_param {
    num_output: 64
    bias_term: false
    pad: 1
    kernel_size: 3
    stride: 1
    weight_filler {
      type: "msra"
    }
    bias_filler {
      type: "constant"
      value: 0
    }
  }
}
layer {
  name: "layer_64_1_bn2"
  type: "BatchNorm"
  bottom: "layer_64_1_conv1"
  top: "layer_64_1_conv1"
  param {
    lr_mult: 0
    decay_mult: 0
  }
  param {
    lr_mult: 0
    decay_mult: 0
  }
  param {
    lr_mult: 0
    decay_mult: 0
  }
}
layer {
  name: "layer_64_1_scale2"
  type: "Scale"
  bottom: "layer_64_1_conv1"
  top: "layer_64_1_conv1"
  param {
    lr_mult: 1
    decay_mult: 1
  }
  param {
    lr_mult: 2
    decay_mult: 1
  }
  scale_param {
    bias_term: true
  }
}
layer {
  name: "layer_64_1_relu2"
  type: "ReLU"
  bottom: "layer_64_1_conv1"
  top: "layer_64_1_conv1"
}
layer {
  name: "layer_64_1_conv2"
  type: "Convolution"
  bottom: "layer_64_1_conv1"
  top: "layer_64_1_conv2"
  param {
    lr_mult: 1
    decay_mult: 1
  }
  convolution_param {
    num_output: 64
    bias_term: false
    pad: 1
    kernel_size: 3
    stride: 1
    weight_filler {
      type: "msra"
    }
    bias_filler {
      type: "constant"
      value: 0
    }
  }
}
layer {
  name: "layer_64_1_sum"
  type: "Eltwise"
  bottom: "layer_64_1_conv2"
  bottom: "conv1_pool"
  top: "layer_64_1_sum"
}
layer {
  name: "layer_64_2_bn1"
  type: "BatchNorm"
  bottom: "layer_64_1_sum"
  top: "layer_64_2_bn1"
  param {
    lr_mult: 0
    decay_mult: 0
  }
  param {
    lr_mult: 0
    decay_mult: 0
  }
  param {
    lr_mult: 0
    decay_mult: 0
  }
}
layer {
  name: "layer_64_2_scale1"
  type: "Scale"
  bottom: "layer_64_2_bn1"
  top: "layer_64_2_bn1"
  param {
    lr_mult: 1
    decay_mult: 1
  }
  param {
    lr_mult: 2
    decay_mult: 1
  }
  scale_param {
    bias_term: true
  }
}
layer {
  name: "layer_64_2_relu1"
  type: "ReLU"
  bottom: "layer_64_2_bn1"
  top: "layer_64_2_bn1"
}
layer {
  name: "layer_64_2_conv1"
  type: "Convolution"
  bottom: "layer_64_2_bn1"
  top: "layer_64_2_conv1"
  param {
    lr_mult: 1
    decay_mult: 1
  }
  convolution_param {
    num_output: 64
    bias_term: false
    pad: 1
    kernel_size: 3
    stride: 1
    weight_filler {
      type: "msra"
    }
    bias_filler {
      type: "constant"
      value: 0
    }
  }
}
layer {
  name: "layer_64_2_bn2"
  type: "BatchNorm"
  bottom: "layer_64_2_conv1"
  top: "layer_64_2_conv1"
  param {
    lr_mult: 0
    decay_mult: 0
  }
  param {
    lr_mult: 0
    decay_mult: 0
  }
  param {
    lr_mult: 0
    decay_mult: 0
  }
}
layer {
  name: "layer_64_2_scale2"
  type: "Scale"
  bottom: "layer_64_2_conv1"
  top: "layer_64_2_conv1"
  param {
    lr_mult: 1
    decay_mult: 1
  }
  param {
    lr_mult: 2
    decay_mult: 1
  }
  scale_param {
    bias_term: true
  }
}
layer {
  name: "layer_64_2_relu2"
  type: "ReLU"
  bottom: "layer_64_2_conv1"
  top: "layer_64_2_conv1"
}
layer {
  name: "layer_64_2_conv2"
  type: "Convolution"
  bottom: "layer_64_2_conv1"
  top: "layer_64_2_conv2"
  param {
    lr_mult: 1
    decay_mult: 1
  }
  convolution_param {
    num_output: 64
    bias_term: false
    pad: 1
    kernel_size: 3
    stride: 1
    weight_filler {
      type: "msra"
    }
    bias_filler {
      type: "constant"
      value: 0
    }
  }
}
layer {
  name: "layer_64_2_sum"
  type: "Eltwise"
  bottom: "layer_64_2_conv2"
  bottom: "layer_64_1_sum"
  top: "layer_64_2_sum"
}
layer {
  name: "layer_64_3_bn1"
  type: "BatchNorm"
  bottom: "layer_64_2_sum"
  top: "layer_64_3_bn1"
  param {
    lr_mult: 0
    decay_mult: 0
  }
  param {
    lr_mult: 0
    decay_mult: 0
  }
  param {
    lr_mult: 0
    decay_mult: 0
  }
}
layer {
  name: "layer_64_3_scale1"
  type: "Scale"
  bottom: "layer_64_3_bn1"
  top: "layer_64_3_bn1"
  param {
    lr_mult: 1
    decay_mult: 1
  }
  param {
    lr_mult: 2
    decay_mult: 1
  }
  scale_param {
    bias_term: true
  }
}
layer {
  name: "layer_64_3_relu1"
  type: "ReLU"
  bottom: "layer_64_3_bn1"
  top: "layer_64_3_bn1"
}
layer {
  name: "layer_64_3_conv1"
  type: "Convolution"
  bottom: "layer_64_3_bn1"
  top: "layer_64_3_conv1"
  param {
    lr_mult: 1
    decay_mult: 1
  }
  convolution_param {
    num_output: 64
    bias_term: false
    pad: 1
    kernel_size: 3
    stride: 1
    weight_filler {
      type: "msra"
    }
    bias_filler {
      type: "constant"
      value: 0
    }
  }
}
layer {
  name: "layer_64_3_bn2"
  type: "BatchNorm"
  bottom: "layer_64_3_conv1"
  top: "layer_64_3_conv1"
  param {
    lr_mult: 0
    decay_mult: 0
  }
  param {
    lr_mult: 0
    decay_mult: 0
  }
  param {
    lr_mult: 0
    decay_mult: 0
  }
}
layer {
  name: "layer_64_3_scale2"
  type: "Scale"
  bottom: "layer_64_3_conv1"
  top: "layer_64_3_conv1"
  param {
    lr_mult: 1
    decay_mult: 1
  }
  param {
    lr_mult: 2
    decay_mult: 1
  }
  scale_param {
    bias_term: true
  }
}
layer {
  name: "layer_64_3_relu2"
  type: "ReLU"
  bottom: "layer_64_3_conv1"
  top: "layer_64_3_conv1"
}
layer {
  name: "layer_64_3_conv2"
  type: "Convolution"
  bottom: "layer_64_3_conv1"
  top: "layer_64_3_conv2"
  param {
    lr_mult: 1
    decay_mult: 1
  }
  convolution_param {
    num_output: 64
    bias_term: false
    pad: 1
    kernel_size: 3
    stride: 1
    weight_filler {
      type: "msra"
    }
    bias_filler {
      type: "constant"
      value: 0
    }
  }
}
layer {
  name: "layer_64_3_sum"
  type: "Eltwise"
  bottom: "layer_64_3_conv2"
  bottom: "layer_64_2_sum"
  top: "layer_64_3_sum"
}
layer {
  name: "layer_128_1_bn1"
  type: "BatchNorm"
  bottom: "layer_64_3_sum"
  top: "layer_128_1_bn1"
  param {
    lr_mult: 0
    decay_mult: 0
  }
  param {
    lr_mult: 0
    decay_mult: 0
  }
  param {
    lr_mult: 0
    decay_mult: 0
  }
}
layer {
  name: "layer_128_1_scale1"
  type: "Scale"
  bottom: "layer_128_1_bn1"
  top: "layer_128_1_bn1"
  param {
    lr_mult: 1
    decay_mult: 1
  }
  param {
    lr_mult: 2
    decay_mult: 1
  }
  scale_param {
    bias_term: true
  }
}
layer {
  name: "layer_128_1_relu1"
  type: "ReLU"
  bottom: "layer_128_1_bn1"
  top: "layer_128_1_bn1"
}
layer {
  name: "layer_128_1_conv1"
  type: "Convolution"
  bottom: "layer_128_1_bn1"
  top: "layer_128_1_conv1"
  param {
    lr_mult: 1
    decay_mult: 1
  }
  convolution_param {
    num_output: 128
    bias_term: false
    pad: 1
    kernel_size: 3
    stride: 2
    weight_filler {
      type: "msra"
    }
    bias_filler {
      type: "constant"
      value: 0
    }
  }
}
layer {
  name: "layer_128_1_bn2"
  type: "BatchNorm"
  bottom: "layer_128_1_conv1"
  top: "layer_128_1_conv1"
  param {
    lr_mult: 0
    decay_mult: 0
  }
  param {
    lr_mult: 0
    decay_mult: 0
  }
  param {
    lr_mult: 0
    decay_mult: 0
  }
}
layer {
  name: "layer_128_1_scale2"
  type: "Scale"
  bottom: "layer_128_1_conv1"
  top: "layer_128_1_conv1"
  param {
    lr_mult: 1
    decay_mult: 1
  }
  param {
    lr_mult: 2
    decay_mult: 1
  }
  scale_param {
    bias_term: true
  }
}
layer {
  name: "layer_128_1_relu2"
  type: "ReLU"
  bottom: "layer_128_1_conv1"
  top: "layer_128_1_conv1"
}
layer {
  name: "layer_128_1_conv2"
  type: "Convolution"
  bottom: "layer_128_1_conv1"
  top: "layer_128_1_conv2"
  param {
    lr_mult: 1
    decay_mult: 1
  }
  convolution_param {
    num_output: 128
    bias_term: false
    pad: 1
    kernel_size: 3
    stride: 1
    weight_filler {
      type: "msra"
    }
    bias_filler {
      type: "constant"
      value: 0
    }
  }
}
layer {
  name: "layer_128_1_conv_expand"
  type: "Convolution"
  bottom: "layer_128_1_bn1"
  top: "layer_128_1_conv_expand"
  param {
    lr_mult: 1
    decay_mult: 1
  }
  convolution_param {
    num_output: 128
    bias_term: false
    pad: 0
    kernel_size: 1
    stride: 2
    weight_filler {
      type: "msra"
    }
    bias_filler {
      type: "constant"
      value: 0
    }
  }
}
layer {
  name: "layer_128_1_sum"
  type: "Eltwise"
  bottom: "layer_128_1_conv_expand"
  bottom: "layer_128_1_conv2"
  top: "layer_128_1_sum"
}
layer {
  name: "layer_128_2_bn1"
  type: "BatchNorm"
  bottom: "layer_128_1_sum"
  top: "layer_128_2_bn1"
  param {
    lr_mult: 0
    decay_mult: 0
  }
  param {
    lr_mult: 0
    decay_mult: 0
  }
  param {
    lr_mult: 0
    decay_mult: 0
  }
}
layer {
  name: "layer_128_2_scale1"
  type: "Scale"
  bottom: "layer_128_2_bn1"
  top: "layer_128_2_bn1"
  param {
    lr_mult: 1
    decay_mult: 1
  }
  param {
    lr_mult: 2
    decay_mult: 1
  }
  scale_param {
    bias_term: true
  }
}
layer {
  name: "layer_128_2_relu1"
  type: "ReLU"
  bottom: "layer_128_2_bn1"
  top: "layer_128_2_bn1"
}
layer {
  name: "layer_128_2_conv1"
  type: "Convolution"
  bottom: "layer_128_2_bn1"
  top: "layer_128_2_conv1"
  param {
    lr_mult: 1
    decay_mult: 1
  }
  convolution_param {
    num_output: 128
    bias_term: false
    pad: 1
    kernel_size: 3
    stride: 1
    weight_filler {
      type: "msra"
    }
    bias_filler {
      type: "constant"
      value: 0
    }
  }
}
layer {
  name: "layer_128_2_bn2"
  type: "BatchNorm"
  bottom: "layer_128_2_conv1"
  top: "layer_128_2_conv1"
  param {
    lr_mult: 0
    decay_mult: 0
  }
  param {
    lr_mult: 0
    decay_mult: 0
  }
  param {
    lr_mult: 0
    decay_mult: 0
  }
}
layer {
  name: "layer_128_2_scale2"
  type: "Scale"
  bottom: "layer_128_2_conv1"
  top: "layer_128_2_conv1"
  param {
    lr_mult: 1
    decay_mult: 1
  }
  param {
    lr_mult: 2
    decay_mult: 1
  }
  scale_param {
    bias_term: true
  }
}
layer {
  name: "layer_128_2_relu2"
  type: "ReLU"
  bottom: "layer_128_2_conv1"
  top: "layer_128_2_conv1"
}
layer {
  name: "layer_128_2_conv2"
  type: "Convolution"
  bottom: "layer_128_2_conv1"
  top: "layer_128_2_conv2"
  param {
    lr_mult: 1
    decay_mult: 1
  }
  convolution_param {
    num_output: 128
    bias_term: false
    pad: 1
    kernel_size: 3
    stride: 1
    weight_filler {
      type: "msra"
    }
    bias_filler {
      type: "constant"
      value: 0
    }
  }
}
layer {
  name: "layer_128_2_sum"
  type: "Eltwise"
  bottom: "layer_128_2_conv2"
  bottom: "layer_128_1_sum"
  top: "layer_128_2_sum"
}
layer {
  name: "layer_128_3_bn1"
  type: "BatchNorm"
  bottom: "layer_128_2_sum"
  top: "layer_128_3_bn1"
  param {
    lr_mult: 0
    decay_mult: 0
  }
  param {
    lr_mult: 0
    decay_mult: 0
  }
  param {
    lr_mult: 0
    decay_mult: 0
  }
}
layer {
  name: "layer_128_3_scale1"
  type: "Scale"
  bottom: "layer_128_3_bn1"
  top: "layer_128_3_bn1"
  param {
    lr_mult: 1
    decay_mult: 1
  }
  param {
    lr_mult: 2
    decay_mult: 1
  }
  scale_param {
    bias_term: true
  }
}
layer {
  name: "layer_128_3_relu1"
  type: "ReLU"
  bottom: "layer_128_3_bn1"
  top: "layer_128_3_bn1"
}
layer {
  name: "layer_128_3_conv1"
  type: "Convolution"
  bottom: "layer_128_3_bn1"
  top: "layer_128_3_conv1"
  param {
    lr_mult: 1
    decay_mult: 1
  }
  convolution_param {
    num_output: 128
    bias_term: false
    pad: 1
    kernel_size: 3
    stride: 1
    weight_filler {
      type: "msra"
    }
    bias_filler {
      type: "constant"
      value: 0
    }
  }
}
layer {
  name: "layer_128_3_bn2"
  type: "BatchNorm"
  bottom: "layer_128_3_conv1"
  top: "layer_128_3_conv1"
  param {
    lr_mult: 0
    decay_mult: 0
  }
  param {
    lr_mult: 0
    decay_mult: 0
  }
  param {
    lr_mult: 0
    decay_mult: 0
  }
}
layer {
  name: "layer_128_3_scale2"
  type: "Scale"
  bottom: "layer_128_3_conv1"
  top: "layer_128_3_conv1"
  param {
    lr_mult: 1
    decay_mult: 1
  }
  param {
    lr_mult: 2
    decay_mult: 1
  }
  scale_param {
    bias_term: true
  }
}
layer {
  name: "layer_128_3_relu2"
  type: "ReLU"
  bottom: "layer_128_3_conv1"
  top: "layer_128_3_conv1"
}
layer {
  name: "layer_128_3_conv2"
  type: "Convolution"
  bottom: "layer_128_3_conv1"
  top: "layer_128_3_conv2"
  param {
    lr_mult: 1
    decay_mult: 1
  }
  convolution_param {
    num_output: 128
    bias_term: false
    pad: 1
    kernel_size: 3
    stride: 1
    weight_filler {
      type: "msra"
    }
    bias_filler {
      type: "constant"
      value: 0
    }
  }
}
layer {
  name: "layer_128_3_sum"
  type: "Eltwise"
  bottom: "layer_128_3_conv2"
  bottom: "layer_128_2_sum"
  top: "layer_128_3_sum"
}
layer {
  name: "layer_128_4_bn1"
  type: "BatchNorm"
  bottom: "layer_128_3_sum"
  top: "layer_128_4_bn1"
  param {
    lr_mult: 0
    decay_mult: 0
  }
  param {
    lr_mult: 0
    decay_mult: 0
  }
  param {
    lr_mult: 0
    decay_mult: 0
  }
}
layer {
  name: "layer_128_4_scale1"
  type: "Scale"
  bottom: "layer_128_4_bn1"
  top: "layer_128_4_bn1"
  param {
    lr_mult: 1
    decay_mult: 1
  }
  param {
    lr_mult: 2
    decay_mult: 1
  }
  scale_param {
    bias_term: true
  }
}
layer {
  name: "layer_128_4_relu1"
  type: "ReLU"
  bottom: "layer_128_4_bn1"
  top: "layer_128_4_bn1"
}
layer {
  name: "layer_128_4_conv1"
  type: "Convolution"
  bottom: "layer_128_4_bn1"
  top: "layer_128_4_conv1"
  param {
    lr_mult: 1
    decay_mult: 1
  }
  convolution_param {
    num_output: 128
    bias_term: false
    pad: 1
    kernel_size: 3
    stride: 1
    weight_filler {
      type: "msra"
    }
    bias_filler {
      type: "constant"
      value: 0
    }
  }
}
layer {
  name: "layer_128_4_bn2"
  type: "BatchNorm"
  bottom: "layer_128_4_conv1"
  top: "layer_128_4_conv1"
  param {
    lr_mult: 0
    decay_mult: 0
  }
  param {
    lr_mult: 0
    decay_mult: 0
  }
  param {
    lr_mult: 0
    decay_mult: 0
  }
}
layer {
  name: "layer_128_4_scale2"
  type: "Scale"
  bottom: "layer_128_4_conv1"
  top: "layer_128_4_conv1"
  param {
    lr_mult: 1
    decay_mult: 1
  }
  param {
    lr_mult: 2
    decay_mult: 1
  }
  scale_param {
    bias_term: true
  }
}
layer {
  name: "layer_128_4_relu2"
  type: "ReLU"
  bottom: "layer_128_4_conv1"
  top: "layer_128_4_conv1"
}
layer {
  name: "layer_128_4_conv2"
  type: "Convolution"
  bottom: "layer_128_4_conv1"
  top: "layer_128_4_conv2"
  param {
    lr_mult: 1
    decay_mult: 1
  }
  convolution_param {
    num_output: 128
    bias_term: false
    pad: 1
    kernel_size: 3
    stride: 1
    weight_filler {
      type: "msra"
    }
    bias_filler {
      type: "constant"
      value: 0
    }
  }
}
layer {
  name: "layer_128_4_sum"
  type: "Eltwise"
  bottom: "layer_128_4_conv2"
  bottom: "layer_128_3_sum"
  top: "layer_128_4_sum"
}
layer {
  name: "layer_256_1_bn1"
  type: "BatchNorm"
  bottom: "layer_128_4_sum"
  top: "layer_256_1_bn1"
  param {
    lr_mult: 0
    decay_mult: 0
  }
  param {
    lr_mult: 0
    decay_mult: 0
  }
  param {
    lr_mult: 0
    decay_mult: 0
  }
}
layer {
  name: "layer_256_1_scale1"
  type: "Scale"
  bottom: "layer_256_1_bn1"
  top: "layer_256_1_bn1"
  param {
    lr_mult: 1
    decay_mult: 1
  }
  param {
    lr_mult: 2
    decay_mult: 1
  }
  scale_param {
    bias_term: true
  }
}
layer {
  name: "layer_256_1_relu1"
  type: "ReLU"
  bottom: "layer_256_1_bn1"
  top: "layer_256_1_bn1"
}
layer {
  name: "layer_256_1_conv1"
  type: "Convolution"
  bottom: "layer_256_1_bn1"
  top: "layer_256_1_conv1"
  param {
    lr_mult: 1
    decay_mult: 1
  }
  convolution_param {
    num_output: 256
    bias_term: false
    pad: 1
    kernel_size: 3
    stride: 2
    weight_filler {
      type: "msra"
    }
    bias_filler {
      type: "constant"
      value: 0
    }
  }
}
layer {
  name: "layer_256_1_bn2"
  type: "BatchNorm"
  bottom: "layer_256_1_conv1"
  top: "layer_256_1_conv1"
  param {
    lr_mult: 0
    decay_mult: 0
  }
  param {
    lr_mult: 0
    decay_mult: 0
  }
  param {
    lr_mult: 0
    decay_mult: 0
  }
}
layer {
  name: "layer_256_1_scale2"
  type: "Scale"
  bottom: "layer_256_1_conv1"
  top: "layer_256_1_conv1"
  param {
    lr_mult: 1
    decay_mult: 1
  }
  param {
    lr_mult: 2
    decay_mult: 1
  }
  scale_param {
    bias_term: true
  }
}
layer {
  name: "layer_256_1_relu2"
  type: "ReLU"
  bottom: "layer_256_1_conv1"
  top: "layer_256_1_conv1"
}
layer {
  name: "layer_256_1_conv2"
  type: "Convolution"
  bottom: "layer_256_1_conv1"
  top: "layer_256_1_conv2"
  param {
    lr_mult: 1
    decay_mult: 1
  }
  convolution_param {
    num_output: 256
    bias_term: false
    pad: 1
    kernel_size: 3
    stride: 1
    weight_filler {
      type: "msra"
    }
    bias_filler {
      type: "constant"
      value: 0
    }
  }
}
layer {
  name: "layer_256_1_conv_expand"
  type: "Convolution"
  bottom: "layer_256_1_bn1"
  top: "layer_256_1_conv_expand"
  param {
    lr_mult: 1
    decay_mult: 1
  }
  convolution_param {
    num_output: 256
    bias_term: false
    pad: 0
    kernel_size: 1
    stride: 2
    weight_filler {
      type: "msra"
    }
    bias_filler {
      type: "constant"
      value: 0
    }
  }
}
layer {
  name: "layer_256_1_sum"
  type: "Eltwise"
  bottom: "layer_256_1_conv_expand"
  bottom: "layer_256_1_conv2"
  top: "layer_256_1_sum"
}
layer {
  name: "layer_256_2_bn1"
  type: "BatchNorm"
  bottom: "layer_256_1_sum"
  top: "layer_256_2_bn1"
  param {
    lr_mult: 0
    decay_mult: 0
  }
  param {
    lr_mult: 0
    decay_mult: 0
  }
  param {
    lr_mult: 0
    decay_mult: 0
  }
}
layer {
  name: "layer_256_2_scale1"
  type: "Scale"
  bottom: "layer_256_2_bn1"
  top: "layer_256_2_bn1"
  param {
    lr_mult: 1
    decay_mult: 1
  }
  param {
    lr_mult: 2
    decay_mult: 1
  }
  scale_param {
    bias_term: true
  }
}
layer {
  name: "layer_256_2_relu1"
  type: "ReLU"
  bottom: "layer_256_2_bn1"
  top: "layer_256_2_bn1"
}
layer {
  name: "layer_256_2_conv1"
  type: "Convolution"
  bottom: "layer_256_2_bn1"
  top: "layer_256_2_conv1"
  param {
    lr_mult: 1
    decay_mult: 1
  }
  convolution_param {
    num_output: 256
    bias_term: false
    pad: 1
    kernel_size: 3
    stride: 1
    weight_filler {
      type: "msra"
    }
    bias_filler {
      type: "constant"
      value: 0
    }
  }
}
layer {
  name: "layer_256_2_bn2"
  type: "BatchNorm"
  bottom: "layer_256_2_conv1"
  top: "layer_256_2_conv1"
  param {
    lr_mult: 0
    decay_mult: 0
  }
  param {
    lr_mult: 0
    decay_mult: 0
  }
  param {
    lr_mult: 0
    decay_mult: 0
  }
}
layer {
  name: "layer_256_2_scale2"
  type: "Scale"
  bottom: "layer_256_2_conv1"
  top: "layer_256_2_conv1"
  param {
    lr_mult: 1
    decay_mult: 1
  }
  param {
    lr_mult: 2
    decay_mult: 1
  }
  scale_param {
    bias_term: true
  }
}
layer {
  name: "layer_256_2_relu2"
  type: "ReLU"
  bottom: "layer_256_2_conv1"
  top: "layer_256_2_conv1"
}
layer {
  name: "layer_256_2_conv2"
  type: "Convolution"
  bottom: "layer_256_2_conv1"
  top: "layer_256_2_conv2"
  param {
    lr_mult: 1
    decay_mult: 1
  }
  convolution_param {
    num_output: 256
    bias_term: false
    pad: 1
    kernel_size: 3
    stride: 1
    weight_filler {
      type: "msra"
    }
    bias_filler {
      type: "constant"
      value: 0
    }
  }
}
layer {
  name: "layer_256_2_sum"
  type: "Eltwise"
  bottom: "layer_256_2_conv2"
  bottom: "layer_256_1_sum"
  top: "layer_256_2_sum"
}
layer {
  name: "layer_256_3_bn1"
  type: "BatchNorm"
  bottom: "layer_256_2_sum"
  top: "layer_256_3_bn1"
  param {
    lr_mult: 0
    decay_mult: 0
  }
  param {
    lr_mult: 0
    decay_mult: 0
  }
  param {
    lr_mult: 0
    decay_mult: 0
  }
}
layer {
  name: "layer_256_3_scale1"
  type: "Scale"
  bottom: "layer_256_3_bn1"
  top: "layer_256_3_bn1"
  param {
    lr_mult: 1
    decay_mult: 1
  }
  param {
    lr_mult: 2
    decay_mult: 1
  }
  scale_param {
    bias_term: true
  }
}
layer {
  name: "layer_256_3_relu1"
  type: "ReLU"
  bottom: "layer_256_3_bn1"
  top: "layer_256_3_bn1"
}
layer {
  name: "layer_256_3_conv1"
  type: "Convolution"
  bottom: "layer_256_3_bn1"
  top: "layer_256_3_conv1"
  param {
    lr_mult: 1
    decay_mult: 1
  }
  convolution_param {
    num_output: 256
    bias_term: false
    pad: 1
    kernel_size: 3
    stride: 1
    weight_filler {
      type: "msra"
    }
    bias_filler {
      type: "constant"
      value: 0
    }
  }
}
layer {
  name: "layer_256_3_bn2"
  type: "BatchNorm"
  bottom: "layer_256_3_conv1"
  top: "layer_256_3_conv1"
  param {
    lr_mult: 0
    decay_mult: 0
  }
  param {
    lr_mult: 0
    decay_mult: 0
  }
  param {
    lr_mult: 0
    decay_mult: 0
  }
}
layer {
  name: "layer_256_3_scale2"
  type: "Scale"
  bottom: "layer_256_3_conv1"
  top: "layer_256_3_conv1"
  param {
    lr_mult: 1
    decay_mult: 1
  }
  param {
    lr_mult: 2
    decay_mult: 1
  }
  scale_param {
    bias_term: true
  }
}
layer {
  name: "layer_256_3_relu2"
  type: "ReLU"
  bottom: "layer_256_3_conv1"
  top: "layer_256_3_conv1"
}
layer {
  name: "layer_256_3_conv2"
  type: "Convolution"
  bottom: "layer_256_3_conv1"
  top: "layer_256_3_conv2"
  param {
    lr_mult: 1
    decay_mult: 1
  }
  convolution_param {
    num_output: 256
    bias_term: false
    pad: 1
    kernel_size: 3
    stride: 1
    weight_filler {
      type: "msra"
    }
    bias_filler {
      type: "constant"
      value: 0
    }
  }
}
layer {
  name: "layer_256_3_sum"
  type: "Eltwise"
  bottom: "layer_256_3_conv2"
  bottom: "layer_256_2_sum"
  top: "layer_256_3_sum"
}
layer {
  name: "layer_256_4_bn1"
  type: "BatchNorm"
  bottom: "layer_256_3_sum"
  top: "layer_256_4_bn1"
  param {
    lr_mult: 0
    decay_mult: 0
  }
  param {
    lr_mult: 0
    decay_mult: 0
  }
  param {
    lr_mult: 0
    decay_mult: 0
  }
}
layer {
  name: "layer_256_4_scale1"
  type: "Scale"
  bottom: "layer_256_4_bn1"
  top: "layer_256_4_bn1"
  param {
    lr_mult: 1
    decay_mult: 1
  }
  param {
    lr_mult: 2
    decay_mult: 1
  }
  scale_param {
    bias_term: true
  }
}
layer {
  name: "layer_256_4_relu1"
  type: "ReLU"
  bottom: "layer_256_4_bn1"
  top: "layer_256_4_bn1"
}
layer {
  name: "layer_256_4_conv1"
  type: "Convolution"
  bottom: "layer_256_4_bn1"
  top: "layer_256_4_conv1"
  param {
    lr_mult: 1
    decay_mult: 1
  }
  convolution_param {
    num_output: 256
    bias_term: false
    pad: 1
    kernel_size: 3
    stride: 1
    weight_filler {
      type: "msra"
    }
    bias_filler {
      type: "constant"
      value: 0
    }
  }
}
layer {
  name: "layer_256_4_bn2"
  type: "BatchNorm"
  bottom: "layer_256_4_conv1"
  top: "layer_256_4_conv1"
  param {
    lr_mult: 0
    decay_mult: 0
  }
  param {
    lr_mult: 0
    decay_mult: 0
  }
  param {
    lr_mult: 0
    decay_mult: 0
  }
}
layer {
  name: "layer_256_4_scale2"
  type: "Scale"
  bottom: "layer_256_4_conv1"
  top: "layer_256_4_conv1"
  param {
    lr_mult: 1
    decay_mult: 1
  }
  param {
    lr_mult: 2
    decay_mult: 1
  }
  scale_param {
    bias_term: true
  }
}
layer {
  name: "layer_256_4_relu2"
  type: "ReLU"
  bottom: "layer_256_4_conv1"
  top: "layer_256_4_conv1"
}
layer {
  name: "layer_256_4_conv2"
  type: "Convolution"
  bottom: "layer_256_4_conv1"
  top: "layer_256_4_conv2"
  param {
    lr_mult: 1
    decay_mult: 1
  }
  convolution_param {
    num_output: 256
    bias_term: false
    pad: 1
    kernel_size: 3
    stride: 1
    weight_filler {
      type: "msra"
    }
    bias_filler {
      type: "constant"
      value: 0
    }
  }
}
layer {
  name: "layer_256_4_sum"
  type: "Eltwise"
  bottom: "layer_256_4_conv2"
  bottom: "layer_256_3_sum"
  top: "layer_256_4_sum"
}
layer {
  name: "layer_256_5_bn1"
  type: "BatchNorm"
  bottom: "layer_256_4_sum"
  top: "layer_256_5_bn1"
  param {
    lr_mult: 0
    decay_mult: 0
  }
  param {
    lr_mult: 0
    decay_mult: 0
  }
  param {
    lr_mult: 0
    decay_mult: 0
  }
}
layer {
  name: "layer_256_5_scale1"
  type: "Scale"
  bottom: "layer_256_5_bn1"
  top: "layer_256_5_bn1"
  param {
    lr_mult: 1
    decay_mult: 1
  }
  param {
    lr_mult: 2
    decay_mult: 1
  }
  scale_param {
    bias_term: true
  }
}
layer {
  name: "layer_256_5_relu1"
  type: "ReLU"
  bottom: "layer_256_5_bn1"
  top: "layer_256_5_bn1"
}
layer {
  name: "layer_256_5_conv1"
  type: "Convolution"
  bottom: "layer_256_5_bn1"
  top: "layer_256_5_conv1"
  param {
    lr_mult: 1
    decay_mult: 1
  }
  convolution_param {
    num_output: 256
    bias_term: false
    pad: 1
    kernel_size: 3
    stride: 1
    weight_filler {
      type: "msra"
    }
    bias_filler {
      type: "constant"
      value: 0
    }
  }
}
layer {
  name: "layer_256_5_bn2"
  type: "BatchNorm"
  bottom: "layer_256_5_conv1"
  top: "layer_256_5_conv1"
  param {
    lr_mult: 0
    decay_mult: 0
  }
  param {
    lr_mult: 0
    decay_mult: 0
  }
  param {
    lr_mult: 0
    decay_mult: 0
  }
}
layer {
  name: "layer_256_5_scale2"
  type: "Scale"
  bottom: "layer_256_5_conv1"
  top: "layer_256_5_conv1"
  param {
    lr_mult: 1
    decay_mult: 1
  }
  param {
    lr_mult: 2
    decay_mult: 1
  }
  scale_param {
    bias_term: true
  }
}
layer {
  name: "layer_256_5_relu2"
  type: "ReLU"
  bottom: "layer_256_5_conv1"
  top: "layer_256_5_conv1"
}
layer {
  name: "layer_256_5_conv2"
  type: "Convolution"
  bottom: "layer_256_5_conv1"
  top: "layer_256_5_conv2"
  param {
    lr_mult: 1
    decay_mult: 1
  }
  convolution_param {
    num_output: 256
    bias_term: false
    pad: 1
    kernel_size: 3
    stride: 1
    weight_filler {
      type: "msra"
    }
    bias_filler {
      type: "constant"
      value: 0
    }
  }
}
layer {
  name: "layer_256_5_sum"
  type: "Eltwise"
  bottom: "layer_256_5_conv2"
  bottom: "layer_256_4_sum"
  top: "layer_256_5_sum"
}
layer {
  name: "layer_256_6_bn1"
  type: "BatchNorm"
  bottom: "layer_256_5_sum"
  top: "layer_256_6_bn1"
  param {
    lr_mult: 0
    decay_mult: 0
  }
  param {
    lr_mult: 0
    decay_mult: 0
  }
  param {
    lr_mult: 0
    decay_mult: 0
  }
}
layer {
  name: "layer_256_6_scale1"
  type: "Scale"
  bottom: "layer_256_6_bn1"
  top: "layer_256_6_bn1"
  param {
    lr_mult: 1
    decay_mult: 1
  }
  param {
    lr_mult: 2
    decay_mult: 1
  }
  scale_param {
    bias_term: true
  }
}
layer {
  name: "layer_256_6_relu1"
  type: "ReLU"
  bottom: "layer_256_6_bn1"
  top: "layer_256_6_bn1"
}
layer {
  name: "layer_256_6_conv1"
  type: "Convolution"
  bottom: "layer_256_6_bn1"
  top: "layer_256_6_conv1"
  param {
    lr_mult: 1
    decay_mult: 1
  }
  convolution_param {
    num_output: 256
    bias_term: false
    pad: 1
    kernel_size: 3
    stride: 1
    weight_filler {
      type: "msra"
    }
    bias_filler {
      type: "constant"
      value: 0
    }
  }
}
layer {
  name: "layer_256_6_bn2"
  type: "BatchNorm"
  bottom: "layer_256_6_conv1"
  top: "layer_256_6_conv1"
  param {
    lr_mult: 0
    decay_mult: 0
  }
  param {
    lr_mult: 0
    decay_mult: 0
  }
  param {
    lr_mult: 0
    decay_mult: 0
  }
}
layer {
  name: "layer_256_6_scale2"
  type: "Scale"
  bottom: "layer_256_6_conv1"
  top: "layer_256_6_conv1"
  param {
    lr_mult: 1
    decay_mult: 1
  }
  param {
    lr_mult: 2
    decay_mult: 1
  }
  scale_param {
    bias_term: true
  }
}
layer {
  name: "layer_256_6_relu2"
  type: "ReLU"
  bottom: "layer_256_6_conv1"
  top: "layer_256_6_conv1"
}
layer {
  name: "layer_256_6_conv2"
  type: "Convolution"
  bottom: "layer_256_6_conv1"
  top: "layer_256_6_conv2"
  param {
    lr_mult: 1
    decay_mult: 1
  }
  convolution_param {
    num_output: 256
    bias_term: false
    pad: 1
    kernel_size: 3
    stride: 1
    weight_filler {
      type: "msra"
    }
    bias_filler {
      type: "constant"
      value: 0
    }
  }
}
layer {
  name: "layer_256_6_sum"
  type: "Eltwise"
  bottom: "layer_256_6_conv2"
  bottom: "layer_256_5_sum"
  top: "layer_256_6_sum"
}
layer {
  name: "layer_512_1_bn1"
  type: "BatchNorm"
  bottom: "layer_256_6_sum"
  top: "layer_512_1_bn1"
  param {
    lr_mult: 0
    decay_mult: 0
  }
  param {
    lr_mult: 0
    decay_mult: 0
  }
  param {
    lr_mult: 0
    decay_mult: 0
  }
}
layer {
  name: "layer_512_1_scale1"
  type: "Scale"
  bottom: "layer_512_1_bn1"
  top: "layer_512_1_bn1"
  param {
    lr_mult: 1
    decay_mult: 1
  }
  param {
    lr_mult: 2
    decay_mult: 1
  }
  scale_param {
    bias_term: true
  }
}
layer {
  name: "layer_51
I0528 22:21:57.364348 16530 layer_factory.hpp:77] Creating layer data
I0528 22:21:57.365059 16530 db_lmdb.cpp:35] Opened lmdb /storage/Test_fold_is_01/age_train_lmdb
I0528 22:21:57.365134 16530 net.cpp:84] Creating Layer data
I0528 22:21:57.365156 16530 net.cpp:380] data -> data
I0528 22:21:57.365190 16530 net.cpp:380] data -> label
I0528 22:21:57.365211 16530 data_transformer.cpp:25] Loading mean file from: /storage/Test_fold_is_01/mean.binaryproto
I0528 22:21:57.369307 16530 data_layer.cpp:45] output data size: 50,3,224,224
I0528 22:21:57.440415 16530 net.cpp:122] Setting up data
I0528 22:21:57.440490 16530 net.cpp:129] Top shape: 50 3 224 224 (7526400)
I0528 22:21:57.440500 16530 net.cpp:129] Top shape: 50 (50)
I0528 22:21:57.440505 16530 net.cpp:137] Memory required for data: 30105800
I0528 22:21:57.440529 16530 layer_factory.hpp:77] Creating layer data_bn
I0528 22:21:57.440551 16530 net.cpp:84] Creating Layer data_bn
I0528 22:21:57.440558 16530 net.cpp:406] data_bn <- data
I0528 22:21:57.440577 16530 net.cpp:380] data_bn -> data_bn
I0528 22:21:57.441665 16530 net.cpp:122] Setting up data_bn
I0528 22:21:57.441699 16530 net.cpp:129] Top shape: 50 3 224 224 (7526400)
I0528 22:21:57.441705 16530 net.cpp:137] Memory required for data: 60211400
I0528 22:21:57.441730 16530 layer_factory.hpp:77] Creating layer data_scale
I0528 22:21:57.441746 16530 net.cpp:84] Creating Layer data_scale
I0528 22:21:57.441751 16530 net.cpp:406] data_scale <- data_bn
I0528 22:21:57.441758 16530 net.cpp:367] data_scale -> data_bn (in-place)
I0528 22:21:57.441820 16530 layer_factory.hpp:77] Creating layer data_scale
I0528 22:21:57.442035 16530 net.cpp:122] Setting up data_scale
I0528 22:21:57.442070 16530 net.cpp:129] Top shape: 50 3 224 224 (7526400)
I0528 22:21:57.442075 16530 net.cpp:137] Memory required for data: 90317000
I0528 22:21:57.442096 16530 layer_factory.hpp:77] Creating layer conv1
I0528 22:21:57.442124 16530 net.cpp:84] Creating Layer conv1
I0528 22:21:57.442143 16530 net.cpp:406] conv1 <- data_bn
I0528 22:21:57.442152 16530 net.cpp:380] conv1 -> conv1
I0528 22:21:57.624514 16530 net.cpp:122] Setting up conv1
I0528 22:21:57.624574 16530 net.cpp:129] Top shape: 50 64 112 112 (40140800)
I0528 22:21:57.624581 16530 net.cpp:137] Memory required for data: 250880200
I0528 22:21:57.624593 16530 layer_factory.hpp:77] Creating layer conv1_bn
I0528 22:21:57.624608 16530 net.cpp:84] Creating Layer conv1_bn
I0528 22:21:57.624615 16530 net.cpp:406] conv1_bn <- conv1
I0528 22:21:57.624624 16530 net.cpp:367] conv1_bn -> conv1 (in-place)
I0528 22:21:57.624785 16530 net.cpp:122] Setting up conv1_bn
I0528 22:21:57.624797 16530 net.cpp:129] Top shape: 50 64 112 112 (40140800)
I0528 22:21:57.624802 16530 net.cpp:137] Memory required for data: 411443400
I0528 22:21:57.624815 16530 layer_factory.hpp:77] Creating layer conv1_scale
I0528 22:21:57.624825 16530 net.cpp:84] Creating Layer conv1_scale
I0528 22:21:57.624830 16530 net.cpp:406] conv1_scale <- conv1
I0528 22:21:57.624835 16530 net.cpp:367] conv1_scale -> conv1 (in-place)
I0528 22:21:57.624886 16530 layer_factory.hpp:77] Creating layer conv1_scale
I0528 22:21:57.625025 16530 net.cpp:122] Setting up conv1_scale
I0528 22:21:57.625046 16530 net.cpp:129] Top shape: 50 64 112 112 (40140800)
I0528 22:21:57.625049 16530 net.cpp:137] Memory required for data: 572006600
I0528 22:21:57.625067 16530 layer_factory.hpp:77] Creating layer conv1_relu
I0528 22:21:57.625087 16530 net.cpp:84] Creating Layer conv1_relu
I0528 22:21:57.625092 16530 net.cpp:406] conv1_relu <- conv1
I0528 22:21:57.625110 16530 net.cpp:367] conv1_relu -> conv1 (in-place)
I0528 22:21:57.625838 16530 net.cpp:122] Setting up conv1_relu
I0528 22:21:57.625869 16530 net.cpp:129] Top shape: 50 64 112 112 (40140800)
I0528 22:21:57.625874 16530 net.cpp:137] Memory required for data: 732569800
I0528 22:21:57.625879 16530 layer_factory.hpp:77] Creating layer conv1_pool
I0528 22:21:57.625886 16530 net.cpp:84] Creating Layer conv1_pool
I0528 22:21:57.625891 16530 net.cpp:406] conv1_pool <- conv1
I0528 22:21:57.625910 16530 net.cpp:380] conv1_pool -> conv1_pool
I0528 22:21:57.625967 16530 net.cpp:122] Setting up conv1_pool
I0528 22:21:57.625977 16530 net.cpp:129] Top shape: 50 64 56 56 (10035200)
I0528 22:21:57.625980 16530 net.cpp:137] Memory required for data: 772710600
I0528 22:21:57.625984 16530 layer_factory.hpp:77] Creating layer conv1_pool_conv1_pool_0_split
I0528 22:21:57.625994 16530 net.cpp:84] Creating Layer conv1_pool_conv1_pool_0_split
I0528 22:21:57.625999 16530 net.cpp:406] conv1_pool_conv1_pool_0_split <- conv1_pool
I0528 22:21:57.626005 16530 net.cpp:380] conv1_pool_conv1_pool_0_split -> conv1_pool_conv1_pool_0_split_0
I0528 22:21:57.626013 16530 net.cpp:380] conv1_pool_conv1_pool_0_split -> conv1_pool_conv1_pool_0_split_1
I0528 22:21:57.626057 16530 net.cpp:122] Setting up conv1_pool_conv1_pool_0_split
I0528 22:21:57.626065 16530 net.cpp:129] Top shape: 50 64 56 56 (10035200)
I0528 22:21:57.626070 16530 net.cpp:129] Top shape: 50 64 56 56 (10035200)
I0528 22:21:57.626073 16530 net.cpp:137] Memory required for data: 852992200
I0528 22:21:57.626077 16530 layer_factory.hpp:77] Creating layer layer_64_1_conv1
I0528 22:21:57.626091 16530 net.cpp:84] Creating Layer layer_64_1_conv1
I0528 22:21:57.626096 16530 net.cpp:406] layer_64_1_conv1 <- conv1_pool_conv1_pool_0_split_0
I0528 22:21:57.626112 16530 net.cpp:380] layer_64_1_conv1 -> layer_64_1_conv1
I0528 22:21:57.628764 16530 net.cpp:122] Setting up layer_64_1_conv1
I0528 22:21:57.628796 16530 net.cpp:129] Top shape: 50 64 56 56 (10035200)
I0528 22:21:57.628801 16530 net.cpp:137] Memory required for data: 893133000
I0528 22:21:57.628808 16530 layer_factory.hpp:77] Creating layer layer_64_1_bn2
I0528 22:21:57.628824 16530 net.cpp:84] Creating Layer layer_64_1_bn2
I0528 22:21:57.628839 16530 net.cpp:406] layer_64_1_bn2 <- layer_64_1_conv1
I0528 22:21:57.628846 16530 net.cpp:367] layer_64_1_bn2 -> layer_64_1_conv1 (in-place)
I0528 22:21:57.631287 16530 net.cpp:122] Setting up layer_64_1_bn2
I0528 22:21:57.631306 16530 net.cpp:129] Top shape: 50 64 56 56 (10035200)
I0528 22:21:57.631322 16530 net.cpp:137] Memory required for data: 933273800
I0528 22:21:57.631331 16530 layer_factory.hpp:77] Creating layer layer_64_1_scale2
I0528 22:21:57.631340 16530 net.cpp:84] Creating Layer layer_64_1_scale2
I0528 22:21:57.631345 16530 net.cpp:406] layer_64_1_scale2 <- layer_64_1_conv1
I0528 22:21:57.631366 16530 net.cpp:367] layer_64_1_scale2 -> layer_64_1_conv1 (in-place)
I0528 22:21:57.631410 16530 layer_factory.hpp:77] Creating layer layer_64_1_scale2
I0528 22:21:57.634160 16530 net.cpp:122] Setting up layer_64_1_scale2
I0528 22:21:57.634188 16530 net.cpp:129] Top shape: 50 64 56 56 (10035200)
I0528 22:21:57.634193 16530 net.cpp:137] Memory required for data: 973414600
I0528 22:21:57.634204 16530 layer_factory.hpp:77] Creating layer layer_64_1_relu2
I0528 22:21:57.634212 16530 net.cpp:84] Creating Layer layer_64_1_relu2
I0528 22:21:57.634217 16530 net.cpp:406] layer_64_1_relu2 <- layer_64_1_conv1
I0528 22:21:57.634238 16530 net.cpp:367] layer_64_1_relu2 -> layer_64_1_conv1 (in-place)
I0528 22:21:57.634395 16530 net.cpp:122] Setting up layer_64_1_relu2
I0528 22:21:57.634419 16530 net.cpp:129] Top shape: 50 64 56 56 (10035200)
I0528 22:21:57.634435 16530 net.cpp:137] Memory required for data: 1013555400
I0528 22:21:57.634439 16530 layer_factory.hpp:77] Creating layer layer_64_1_conv2
I0528 22:21:57.634461 16530 net.cpp:84] Creating Layer layer_64_1_conv2
I0528 22:21:57.634466 16530 net.cpp:406] layer_64_1_conv2 <- layer_64_1_conv1
I0528 22:21:57.634472 16530 net.cpp:380] layer_64_1_conv2 -> layer_64_1_conv2
I0528 22:21:57.636970 16530 net.cpp:122] Setting up layer_64_1_conv2
I0528 22:21:57.637001 16530 net.cpp:129] Top shape: 50 64 56 56 (10035200)
I0528 22:21:57.637006 16530 net.cpp:137] Memory required for data: 1053696200
I0528 22:21:57.637012 16530 layer_factory.hpp:77] Creating layer layer_64_1_sum
I0528 22:21:57.637024 16530 net.cpp:84] Creating Layer layer_64_1_sum
I0528 22:21:57.637044 16530 net.cpp:406] layer_64_1_sum <- layer_64_1_conv2
I0528 22:21:57.637050 16530 net.cpp:406] layer_64_1_sum <- conv1_pool_conv1_pool_0_split_1
I0528 22:21:57.637058 16530 net.cpp:380] layer_64_1_sum -> layer_64_1_sum
I0528 22:21:57.637094 16530 net.cpp:122] Setting up layer_64_1_sum
I0528 22:21:57.637102 16530 net.cpp:129] Top shape: 50 64 56 56 (10035200)
I0528 22:21:57.637106 16530 net.cpp:137] Memory required for data: 1093837000
I0528 22:21:57.637110 16530 layer_factory.hpp:77] Creating layer layer_64_1_sum_layer_64_1_sum_0_split
I0528 22:21:57.637122 16530 net.cpp:84] Creating Layer layer_64_1_sum_layer_64_1_sum_0_split
I0528 22:21:57.637140 16530 net.cpp:406] layer_64_1_sum_layer_64_1_sum_0_split <- layer_64_1_sum
I0528 22:21:57.637146 16530 net.cpp:380] layer_64_1_sum_layer_64_1_sum_0_split -> layer_64_1_sum_layer_64_1_sum_0_split_0
I0528 22:21:57.637153 16530 net.cpp:380] layer_64_1_sum_layer_64_1_sum_0_split -> layer_64_1_sum_layer_64_1_sum_0_split_1
I0528 22:21:57.637202 16530 net.cpp:122] Setting up layer_64_1_sum_layer_64_1_sum_0_split
I0528 22:21:57.637210 16530 net.cpp:129] Top shape: 50 64 56 56 (10035200)
I0528 22:21:57.637214 16530 net.cpp:129] Top shape: 50 64 56 56 (10035200)
I0528 22:21:57.637218 16530 net.cpp:137] Memory required for data: 1174118600
I0528 22:21:57.637223 16530 layer_factory.hpp:77] Creating layer layer_64_2_bn1
I0528 22:21:57.637233 16530 net.cpp:84] Creating Layer layer_64_2_bn1
I0528 22:21:57.637238 16530 net.cpp:406] layer_64_2_bn1 <- layer_64_1_sum_layer_64_1_sum_0_split_0
I0528 22:21:57.637255 16530 net.cpp:380] layer_64_2_bn1 -> layer_64_2_bn1
I0528 22:21:57.637481 16530 net.cpp:122] Setting up layer_64_2_bn1
I0528 22:21:57.637492 16530 net.cpp:129] Top shape: 50 64 56 56 (10035200)
I0528 22:21:57.637526 16530 net.cpp:137] Memory required for data: 1214259400
I0528 22:21:57.637553 16530 layer_factory.hpp:77] Creating layer layer_64_2_scale1
I0528 22:21:57.637562 16530 net.cpp:84] Creating Layer layer_64_2_scale1
I0528 22:21:57.637567 16530 net.cpp:406] layer_64_2_scale1 <- layer_64_2_bn1
I0528 22:21:57.637575 16530 net.cpp:367] layer_64_2_scale1 -> layer_64_2_bn1 (in-place)
I0528 22:21:57.637619 16530 layer_factory.hpp:77] Creating layer layer_64_2_scale1
I0528 22:21:57.637754 16530 net.cpp:122] Setting up layer_64_2_scale1
I0528 22:21:57.637766 16530 net.cpp:129] Top shape: 50 64 56 56 (10035200)
I0528 22:21:57.637781 16530 net.cpp:137] Memory required for data: 1254400200
I0528 22:21:57.637789 16530 layer_factory.hpp:77] Creating layer layer_64_2_relu1
I0528 22:21:57.637795 16530 net.cpp:84] Creating Layer layer_64_2_relu1
I0528 22:21:57.637799 16530 net.cpp:406] layer_64_2_relu1 <- layer_64_2_bn1
I0528 22:21:57.637816 16530 net.cpp:367] layer_64_2_relu1 -> layer_64_2_bn1 (in-place)
I0528 22:21:57.638018 16530 net.cpp:122] Setting up layer_64_2_relu1
I0528 22:21:57.638031 16530 net.cpp:129] Top shape: 50 64 56 56 (10035200)
I0528 22:21:57.638046 16530 net.cpp:137] Memory required for data: 1294541000
I0528 22:21:57.638051 16530 layer_factory.hpp:77] Creating layer layer_64_2_conv1
I0528 22:21:57.638082 16530 net.cpp:84] Creating Layer layer_64_2_conv1
I0528 22:21:57.638087 16530 net.cpp:406] layer_64_2_conv1 <- layer_64_2_bn1
I0528 22:21:57.638108 16530 net.cpp:380] layer_64_2_conv1 -> layer_64_2_conv1
I0528 22:21:57.640750 16530 net.cpp:122] Setting up layer_64_2_conv1
I0528 22:21:57.640784 16530 net.cpp:129] Top shape: 50 64 56 56 (10035200)
I0528 22:21:57.640790 16530 net.cpp:137] Memory required for data: 1334681800
I0528 22:21:57.640796 16530 layer_factory.hpp:77] Creating layer layer_64_2_bn2
I0528 22:21:57.640805 16530 net.cpp:84] Creating Layer layer_64_2_bn2
I0528 22:21:57.640825 16530 net.cpp:406] layer_64_2_bn2 <- layer_64_2_conv1
I0528 22:21:57.640835 16530 net.cpp:367] layer_64_2_bn2 -> layer_64_2_conv1 (in-place)
I0528 22:21:57.641037 16530 net.cpp:122] Setting up layer_64_2_bn2
I0528 22:21:57.641058 16530 net.cpp:129] Top shape: 50 64 56 56 (10035200)
I0528 22:21:57.641073 16530 net.cpp:137] Memory required for data: 1374822600
I0528 22:21:57.641084 16530 layer_factory.hpp:77] Creating layer layer_64_2_scale2
I0528 22:21:57.641093 16530 net.cpp:84] Creating Layer layer_64_2_scale2
I0528 22:21:57.641098 16530 net.cpp:406] layer_64_2_scale2 <- layer_64_2_conv1
I0528 22:21:57.641103 16530 net.cpp:367] layer_64_2_scale2 -> layer_64_2_conv1 (in-place)
I0528 22:21:57.641167 16530 layer_factory.hpp:77] Creating layer layer_64_2_scale2
I0528 22:21:57.641290 16530 net.cpp:122] Setting up layer_64_2_scale2
I0528 22:21:57.641302 16530 net.cpp:129] Top shape: 50 64 56 56 (10035200)
I0528 22:21:57.641306 16530 net.cpp:137] Memory required for data: 1414963400
I0528 22:21:57.641314 16530 layer_factory.hpp:77] Creating layer layer_64_2_relu2
I0528 22:21:57.641319 16530 net.cpp:84] Creating Layer layer_64_2_relu2
I0528 22:21:57.641324 16530 net.cpp:406] layer_64_2_relu2 <- layer_64_2_conv1
I0528 22:21:57.641331 16530 net.cpp:367] layer_64_2_relu2 -> layer_64_2_conv1 (in-place)
I0528 22:21:57.642024 16530 net.cpp:122] Setting up layer_64_2_relu2
I0528 22:21:57.642051 16530 net.cpp:129] Top shape: 50 64 56 56 (10035200)
I0528 22:21:57.642056 16530 net.cpp:137] Memory required for data: 1455104200
I0528 22:21:57.642060 16530 layer_factory.hpp:77] Creating layer layer_64_2_conv2
I0528 22:21:57.642074 16530 net.cpp:84] Creating Layer layer_64_2_conv2
I0528 22:21:57.642081 16530 net.cpp:406] layer_64_2_conv2 <- layer_64_2_conv1
I0528 22:21:57.642089 16530 net.cpp:380] layer_64_2_conv2 -> layer_64_2_conv2
I0528 22:21:57.645097 16530 net.cpp:122] Setting up layer_64_2_conv2
I0528 22:21:57.645133 16530 net.cpp:129] Top shape: 50 64 56 56 (10035200)
I0528 22:21:57.645141 16530 net.cpp:137] Memory required for data: 1495245000
I0528 22:21:57.645148 16530 layer_factory.hpp:77] Creating layer layer_64_2_sum
I0528 22:21:57.645164 16530 net.cpp:84] Creating Layer layer_64_2_sum
I0528 22:21:57.645177 16530 net.cpp:406] layer_64_2_sum <- layer_64_2_conv2
I0528 22:21:57.645184 16530 net.cpp:406] layer_64_2_sum <- layer_64_1_sum_layer_64_1_sum_0_split_1
I0528 22:21:57.645191 16530 net.cpp:380] layer_64_2_sum -> layer_64_2_sum
I0528 22:21:57.645220 16530 net.cpp:122] Setting up layer_64_2_sum
I0528 22:21:57.645229 16530 net.cpp:129] Top shape: 50 64 56 56 (10035200)
I0528 22:21:57.645233 16530 net.cpp:137] Memory required for data: 1535385800
I0528 22:21:57.645237 16530 layer_factory.hpp:77] Creating layer layer_64_2_sum_layer_64_2_sum_0_split
I0528 22:21:57.645243 16530 net.cpp:84] Creating Layer layer_64_2_sum_layer_64_2_sum_0_split
I0528 22:21:57.645247 16530 net.cpp:406] layer_64_2_sum_layer_64_2_sum_0_split <- layer_64_2_sum
I0528 22:21:57.645252 16530 net.cpp:380] layer_64_2_sum_layer_64_2_sum_0_split -> layer_64_2_sum_layer_64_2_sum_0_split_0
I0528 22:21:57.645261 16530 net.cpp:380] layer_64_2_sum_layer_64_2_sum_0_split -> layer_64_2_sum_layer_64_2_sum_0_split_1
I0528 22:21:57.645294 16530 net.cpp:122] Setting up layer_64_2_sum_layer_64_2_sum_0_split
I0528 22:21:57.645303 16530 net.cpp:129] Top shape: 50 64 56 56 (10035200)
I0528 22:21:57.645308 16530 net.cpp:129] Top shape: 50 64 56 56 (10035200)
I0528 22:21:57.645310 16530 net.cpp:137] Memory required for data: 1615667400
I0528 22:21:57.645325 16530 layer_factory.hpp:77] Creating layer layer_64_3_bn1
I0528 22:21:57.645335 16530 net.cpp:84] Creating Layer layer_64_3_bn1
I0528 22:21:57.645339 16530 net.cpp:406] layer_64_3_bn1 <- layer_64_2_sum_layer_64_2_sum_0_split_0
I0528 22:21:57.645345 16530 net.cpp:380] layer_64_3_bn1 -> layer_64_3_bn1
I0528 22:21:57.645578 16530 net.cpp:122] Setting up layer_64_3_bn1
I0528 22:21:57.645589 16530 net.cpp:129] Top shape: 50 64 56 56 (10035200)
I0528 22:21:57.645604 16530 net.cpp:137] Memory required for data: 1655808200
I0528 22:21:57.645617 16530 layer_factory.hpp:77] Creating layer layer_64_3_scale1
I0528 22:21:57.645627 16530 net.cpp:84] Creating Layer layer_64_3_scale1
I0528 22:21:57.645633 16530 net.cpp:406] layer_64_3_scale1 <- layer_64_3_bn1
I0528 22:21:57.645638 16530 net.cpp:367] layer_64_3_scale1 -> layer_64_3_bn1 (in-place)
I0528 22:21:57.645681 16530 layer_factory.hpp:77] Creating layer layer_64_3_scale1
I0528 22:21:57.645819 16530 net.cpp:122] Setting up layer_64_3_scale1
I0528 22:21:57.645831 16530 net.cpp:129] Top shape: 50 64 56 56 (10035200)
I0528 22:21:57.645846 16530 net.cpp:137] Memory required for data: 1695949000
I0528 22:21:57.645853 16530 layer_factory.hpp:77] Creating layer layer_64_3_relu1
I0528 22:21:57.645874 16530 net.cpp:84] Creating Layer layer_64_3_relu1
I0528 22:21:57.645879 16530 net.cpp:406] layer_64_3_relu1 <- layer_64_3_bn1
I0528 22:21:57.645884 16530 net.cpp:367] layer_64_3_relu1 -> layer_64_3_bn1 (in-place)
I0528 22:21:57.646082 16530 net.cpp:122] Setting up layer_64_3_relu1
I0528 22:21:57.646108 16530 net.cpp:129] Top shape: 50 64 56 56 (10035200)
I0528 22:21:57.646113 16530 net.cpp:137] Memory required for data: 1736089800
I0528 22:21:57.646126 16530 layer_factory.hpp:77] Creating layer layer_64_3_conv1
I0528 22:21:57.646139 16530 net.cpp:84] Creating Layer layer_64_3_conv1
I0528 22:21:57.646144 16530 net.cpp:406] layer_64_3_conv1 <- layer_64_3_bn1
I0528 22:21:57.646152 16530 net.cpp:380] layer_64_3_conv1 -> layer_64_3_conv1
I0528 22:21:57.648671 16530 net.cpp:122] Setting up layer_64_3_conv1
I0528 22:21:57.648691 16530 net.cpp:129] Top shape: 50 64 56 56 (10035200)
I0528 22:21:57.648707 16530 net.cpp:137] Memory required for data: 1776230600
I0528 22:21:57.648713 16530 layer_factory.hpp:77] Creating layer layer_64_3_bn2
I0528 22:21:57.648725 16530 net.cpp:84] Creating Layer layer_64_3_bn2
I0528 22:21:57.648730 16530 net.cpp:406] layer_64_3_bn2 <- layer_64_3_conv1
I0528 22:21:57.648752 16530 net.cpp:367] layer_64_3_bn2 -> layer_64_3_conv1 (in-place)
I0528 22:21:57.648965 16530 net.cpp:122] Setting up layer_64_3_bn2
I0528 22:21:57.648984 16530 net.cpp:129] Top shape: 50 64 56 56 (10035200)
I0528 22:21:57.649005 16530 net.cpp:137] Memory required for data: 1816371400
I0528 22:21:57.649032 16530 layer_factory.hpp:77] Creating layer layer_64_3_scale2
I0528 22:21:57.649040 16530 net.cpp:84] Creating Layer layer_64_3_scale2
I0528 22:21:57.649045 16530 net.cpp:406] layer_64_3_scale2 <- layer_64_3_conv1
I0528 22:21:57.649050 16530 net.cpp:367] layer_64_3_scale2 -> layer_64_3_conv1 (in-place)
I0528 22:21:57.649106 16530 layer_factory.hpp:77] Creating layer layer_64_3_scale2
I0528 22:21:57.649286 16530 net.cpp:122] Setting up layer_64_3_scale2
I0528 22:21:57.649309 16530 net.cpp:129] Top shape: 50 64 56 56 (10035200)
I0528 22:21:57.649325 16530 net.cpp:137] Memory required for data: 1856512200
I0528 22:21:57.649332 16530 layer_factory.hpp:77] Creating layer layer_64_3_relu2
I0528 22:21:57.649340 16530 net.cpp:84] Creating Layer layer_64_3_relu2
I0528 22:21:57.649345 16530 net.cpp:406] layer_64_3_relu2 <- layer_64_3_conv1
I0528 22:21:57.649381 16530 net.cpp:367] layer_64_3_relu2 -> layer_64_3_conv1 (in-place)
I0528 22:21:57.649581 16530 net.cpp:122] Setting up layer_64_3_relu2
I0528 22:21:57.649616 16530 net.cpp:129] Top shape: 50 64 56 56 (10035200)
I0528 22:21:57.649621 16530 net.cpp:137] Memory required for data: 1896653000
I0528 22:21:57.649634 16530 layer_factory.hpp:77] Creating layer layer_64_3_conv2
I0528 22:21:57.649646 16530 net.cpp:84] Creating Layer layer_64_3_conv2
I0528 22:21:57.649652 16530 net.cpp:406] layer_64_3_conv2 <- layer_64_3_conv1
I0528 22:21:57.649660 16530 net.cpp:380] layer_64_3_conv2 -> layer_64_3_conv2
I0528 22:21:57.652310 16530 net.cpp:122] Setting up layer_64_3_conv2
I0528 22:21:57.652331 16530 net.cpp:129] Top shape: 50 64 56 56 (10035200)
I0528 22:21:57.652346 16530 net.cpp:137] Memory required for data: 1936793800
I0528 22:21:57.652353 16530 layer_factory.hpp:77] Creating layer layer_64_3_sum
I0528 22:21:57.652362 16530 net.cpp:84] Creating Layer layer_64_3_sum
I0528 22:21:57.652367 16530 net.cpp:406] layer_64_3_sum <- layer_64_3_conv2
I0528 22:21:57.652374 16530 net.cpp:406] layer_64_3_sum <- layer_64_2_sum_layer_64_2_sum_0_split_1
I0528 22:21:57.652379 16530 net.cpp:380] layer_64_3_sum -> layer_64_3_sum
I0528 22:21:57.652405 16530 net.cpp:122] Setting up layer_64_3_sum
I0528 22:21:57.652415 16530 net.cpp:129] Top shape: 50 64 56 56 (10035200)
I0528 22:21:57.652420 16530 net.cpp:137] Memory required for data: 1976934600
I0528 22:21:57.652422 16530 layer_factory.hpp:77] Creating layer layer_128_1_bn1
I0528 22:21:57.652429 16530 net.cpp:84] Creating Layer layer_128_1_bn1
I0528 22:21:57.652433 16530 net.cpp:406] layer_128_1_bn1 <- layer_64_3_sum
I0528 22:21:57.652441 16530 net.cpp:380] layer_128_1_bn1 -> layer_128_1_bn1
I0528 22:21:57.652673 16530 net.cpp:122] Setting up layer_128_1_bn1
I0528 22:21:57.652683 16530 net.cpp:129] Top shape: 50 64 56 56 (10035200)
I0528 22:21:57.652698 16530 net.cpp:137] Memory required for data: 2017075400
I0528 22:21:57.652705 16530 layer_factory.hpp:77] Creating layer layer_128_1_scale1
I0528 22:21:57.652714 16530 net.cpp:84] Creating Layer layer_128_1_scale1
I0528 22:21:57.652717 16530 net.cpp:406] layer_128_1_scale1 <- layer_128_1_bn1
I0528 22:21:57.652729 16530 net.cpp:367] layer_128_1_scale1 -> layer_128_1_bn1 (in-place)
I0528 22:21:57.652797 16530 layer_factory.hpp:77] Creating layer layer_128_1_scale1
I0528 22:21:57.652956 16530 net.cpp:122] Setting up layer_128_1_scale1
I0528 22:21:57.652966 16530 net.cpp:129] Top shape: 50 64 56 56 (10035200)
I0528 22:21:57.652981 16530 net.cpp:137] Memory required for data: 2057216200
I0528 22:21:57.652998 16530 layer_factory.hpp:77] Creating layer layer_128_1_relu1
I0528 22:21:57.653005 16530 net.cpp:84] Creating Layer layer_128_1_relu1
I0528 22:21:57.653022 16530 net.cpp:406] layer_128_1_relu1 <- layer_128_1_bn1
I0528 22:21:57.653029 16530 net.cpp:367] layer_128_1_relu1 -> layer_128_1_bn1 (in-place)
I0528 22:21:57.653728 16530 net.cpp:122] Setting up layer_128_1_relu1
I0528 22:21:57.653755 16530 net.cpp:129] Top shape: 50 64 56 56 (10035200)
I0528 22:21:57.653760 16530 net.cpp:137] Memory required for data: 2097357000
I0528 22:21:57.653775 16530 layer_factory.hpp:77] Creating layer layer_128_1_bn1_layer_128_1_relu1_0_split
I0528 22:21:57.653789 16530 net.cpp:84] Creating Layer layer_128_1_bn1_layer_128_1_relu1_0_split
I0528 22:21:57.653795 16530 net.cpp:406] layer_128_1_bn1_layer_128_1_relu1_0_split <- layer_128_1_bn1
I0528 22:21:57.653802 16530 net.cpp:380] layer_128_1_bn1_layer_128_1_relu1_0_split -> layer_128_1_bn1_layer_128_1_relu1_0_split_0
I0528 22:21:57.653810 16530 net.cpp:380] layer_128_1_bn1_layer_128_1_relu1_0_split -> layer_128_1_bn1_layer_128_1_relu1_0_split_1
I0528 22:21:57.653853 16530 net.cpp:122] Setting up layer_128_1_bn1_layer_128_1_relu1_0_split
I0528 22:21:57.653863 16530 net.cpp:129] Top shape: 50 64 56 56 (10035200)
I0528 22:21:57.653867 16530 net.cpp:129] Top shape: 50 64 56 56 (10035200)
I0528 22:21:57.653872 16530 net.cpp:137] Memory required for data: 2177638600
I0528 22:21:57.653874 16530 layer_factory.hpp:77] Creating layer layer_128_1_conv1
I0528 22:21:57.653885 16530 net.cpp:84] Creating Layer layer_128_1_conv1
I0528 22:21:57.653894 16530 net.cpp:406] layer_128_1_conv1 <- layer_128_1_bn1_layer_128_1_relu1_0_split_0
I0528 22:21:57.653901 16530 net.cpp:380] layer_128_1_conv1 -> layer_128_1_conv1
I0528 22:21:57.658872 16530 net.cpp:122] Setting up layer_128_1_conv1
I0528 22:21:57.658906 16530 net.cpp:129] Top shape: 50 128 28 28 (5017600)
I0528 22:21:57.658912 16530 net.cpp:137] Memory required for data: 2197709000
I0528 22:21:57.658918 16530 layer_factory.hpp:77] Creating layer layer_128_1_bn2
I0528 22:21:57.658927 16530 net.cpp:84] Creating Layer layer_128_1_bn2
I0528 22:21:57.658932 16530 net.cpp:406] layer_128_1_bn2 <- layer_128_1_conv1
I0528 22:21:57.658964 16530 net.cpp:367] layer_128_1_bn2 -> layer_128_1_conv1 (in-place)
I0528 22:21:57.659760 16530 net.cpp:122] Setting up layer_128_1_bn2
I0528 22:21:57.659790 16530 net.cpp:129] Top shape: 50 128 28 28 (5017600)
I0528 22:21:57.659795 16530 net.cpp:137] Memory required for data: 2217779400
I0528 22:21:57.659803 16530 layer_factory.hpp:77] Creating layer layer_128_1_scale2
I0528 22:21:57.659813 16530 net.cpp:84] Creating Layer layer_128_1_scale2
I0528 22:21:57.659832 16530 net.cpp:406] layer_128_1_scale2 <- layer_128_1_conv1
I0528 22:21:57.659838 16530 net.cpp:367] layer_128_1_scale2 -> layer_128_1_conv1 (in-place)
I0528 22:21:57.659883 16530 layer_factory.hpp:77] Creating layer layer_128_1_scale2
I0528 22:21:57.660014 16530 net.cpp:122] Setting up layer_128_1_scale2
I0528 22:21:57.660027 16530 net.cpp:129] Top shape: 50 128 28 28 (5017600)
I0528 22:21:57.660042 16530 net.cpp:137] Memory required for data: 2237849800
I0528 22:21:57.660048 16530 layer_factory.hpp:77] Creating layer layer_128_1_relu2
I0528 22:21:57.660054 16530 net.cpp:84] Creating Layer layer_128_1_relu2
I0528 22:21:57.660058 16530 net.cpp:406] layer_128_1_relu2 <- layer_128_1_conv1
I0528 22:21:57.660064 16530 net.cpp:367] layer_128_1_relu2 -> layer_128_1_conv1 (in-place)
I0528 22:21:57.660338 16530 net.cpp:122] Setting up layer_128_1_relu2
I0528 22:21:57.660377 16530 net.cpp:129] Top shape: 50 128 28 28 (5017600)
I0528 22:21:57.660392 16530 net.cpp:137] Memory required for data: 2257920200
I0528 22:21:57.660396 16530 layer_factory.hpp:77] Creating layer layer_128_1_conv2
I0528 22:21:57.660408 16530 net.cpp:84] Creating Layer layer_128_1_conv2
I0528 22:21:57.660413 16530 net.cpp:406] layer_128_1_conv2 <- layer_128_1_conv1
I0528 22:21:57.660423 16530 net.cpp:380] layer_128_1_conv2 -> layer_128_1_conv2
I0528 22:21:57.665783 16530 net.cpp:122] Setting up layer_128_1_conv2
I0528 22:21:57.665803 16530 net.cpp:129] Top shape: 50 128 28 28 (5017600)
I0528 22:21:57.665819 16530 net.cpp:137] Memory required for data: 2277990600
I0528 22:21:57.665825 16530 layer_factory.hpp:77] Creating layer layer_128_1_conv_expand
I0528 22:21:57.665838 16530 net.cpp:84] Creating Layer layer_128_1_conv_expand
I0528 22:21:57.665860 16530 net.cpp:406] layer_128_1_conv_expand <- layer_128_1_bn1_layer_128_1_relu1_0_split_1
I0528 22:21:57.665871 16530 net.cpp:380] layer_128_1_conv_expand -> layer_128_1_conv_expand
I0528 22:21:57.669450 16530 net.cpp:122] Setting up layer_128_1_conv_expand
I0528 22:21:57.669489 16530 net.cpp:129] Top shape: 50 128 28 28 (5017600)
I0528 22:21:57.669495 16530 net.cpp:137] Memory required for data: 2298061000
I0528 22:21:57.669502 16530 layer_factory.hpp:77] Creating layer layer_128_1_sum
I0528 22:21:57.669510 16530 net.cpp:84] Creating Layer layer_128_1_sum
I0528 22:21:57.669515 16530 net.cpp:406] layer_128_1_sum <- layer_128_1_conv_expand
I0528 22:21:57.669534 16530 net.cpp:406] layer_128_1_sum <- layer_128_1_conv2
I0528 22:21:57.669541 16530 net.cpp:380] layer_128_1_sum -> layer_128_1_sum
I0528 22:21:57.669574 16530 net.cpp:122] Setting up layer_128_1_sum
I0528 22:21:57.669581 16530 net.cpp:129] Top shape: 50 128 28 28 (5017600)
I0528 22:21:57.669585 16530 net.cpp:137] Memory required for data: 2318131400
I0528 22:21:57.669589 16530 layer_factory.hpp:77] Creating layer layer_128_1_sum_layer_128_1_sum_0_split
I0528 22:21:57.669595 16530 net.cpp:84] Creating Layer layer_128_1_sum_layer_128_1_sum_0_split
I0528 22:21:57.669598 16530 net.cpp:406] layer_128_1_sum_layer_128_1_sum_0_split <- layer_128_1_sum
I0528 22:21:57.669606 16530 net.cpp:380] layer_128_1_sum_layer_128_1_sum_0_split -> layer_128_1_sum_layer_128_1_sum_0_split_0
I0528 22:21:57.669615 16530 net.cpp:380] layer_128_1_sum_layer_128_1_sum_0_split -> layer_128_1_sum_layer_128_1_sum_0_split_1
I0528 22:21:57.669651 16530 net.cpp:122] Setting up layer_128_1_sum_layer_128_1_sum_0_split
I0528 22:21:57.669659 16530 net.cpp:129] Top shape: 50 128 28 28 (5017600)
I0528 22:21:57.669664 16530 net.cpp:129] Top shape: 50 128 28 28 (5017600)
I0528 22:21:57.669667 16530 net.cpp:137] Memory required for data: 2358272200
I0528 22:21:57.669672 16530 layer_factory.hpp:77] Creating layer layer_128_2_bn1
I0528 22:21:57.669677 16530 net.cpp:84] Creating Layer layer_128_2_bn1
I0528 22:21:57.669682 16530 net.cpp:406] layer_128_2_bn1 <- layer_128_1_sum_layer_128_1_sum_0_split_0
I0528 22:21:57.669688 16530 net.cpp:380] layer_128_2_bn1 -> layer_128_2_bn1
I0528 22:21:57.669910 16530 net.cpp:122] Setting up layer_128_2_bn1
I0528 22:21:57.669942 16530 net.cpp:129] Top shape: 50 128 28 28 (5017600)
I0528 22:21:57.669947 16530 net.cpp:137] Memory required for data: 2378342600
I0528 22:21:57.669966 16530 layer_factory.hpp:77] Creating layer layer_128_2_scale1
I0528 22:21:57.669984 16530 net.cpp:84] Creating Layer layer_128_2_scale1
I0528 22:21:57.669989 16530 net.cpp:406] layer_128_2_scale1 <- layer_128_2_bn1
I0528 22:21:57.670006 16530 net.cpp:367] layer_128_2_scale1 -> layer_128_2_bn1 (in-place)
I0528 22:21:57.670075 16530 layer_factory.hpp:77] Creating layer layer_128_2_scale1
I0528 22:21:57.670215 16530 net.cpp:122] Setting up layer_128_2_scale1
I0528 22:21:57.670230 16530 net.cpp:129] Top shape: 50 128 28 28 (5017600)
I0528 22:21:57.670245 16530 net.cpp:137] Memory required for data: 2398413000
I0528 22:21:57.670253 16530 layer_factory.hpp:77] Creating layer layer_128_2_relu1
I0528 22:21:57.670259 16530 net.cpp:84] Creating Layer layer_128_2_relu1
I0528 22:21:57.670264 16530 net.cpp:406] layer_128_2_relu1 <- layer_128_2_bn1
I0528 22:21:57.670310 16530 net.cpp:367] layer_128_2_relu1 -> layer_128_2_bn1 (in-place)
I0528 22:21:57.670538 16530 net.cpp:122] Setting up layer_128_2_relu1
I0528 22:21:57.670552 16530 net.cpp:129] Top shape: 50 128 28 28 (5017600)
I0528 22:21:57.670567 16530 net.cpp:137] Memory required for data: 2418483400
I0528 22:21:57.670572 16530 layer_factory.hpp:77] Creating layer layer_128_2_conv1
I0528 22:21:57.670594 16530 net.cpp:84] Creating Layer layer_128_2_conv1
I0528 22:21:57.670610 16530 net.cpp:406] layer_128_2_conv1 <- layer_128_2_bn1
I0528 22:21:57.670630 16530 net.cpp:380] layer_128_2_conv1 -> layer_128_2_conv1
I0528 22:21:57.676522 16530 net.cpp:122] Setting up layer_128_2_conv1
I0528 22:21:57.676558 16530 net.cpp:129] Top shape: 50 128 28 28 (5017600)
I0528 22:21:57.676563 16530 net.cpp:137] Memory required for data: 2438553800
I0528 22:21:57.676569 16530 layer_factory.hpp:77] Creating layer layer_128_2_bn2
I0528 22:21:57.676580 16530 net.cpp:84] Creating Layer layer_128_2_bn2
I0528 22:21:57.676604 16530 net.cpp:406] layer_128_2_bn2 <- layer_128_2_conv1
I0528 22:21:57.676620 16530 net.cpp:367] layer_128_2_bn2 -> layer_128_2_conv1 (in-place)
I0528 22:21:57.676825 16530 net.cpp:122] Setting up layer_128_2_bn2
I0528 22:21:57.676836 16530 net.cpp:129] Top shape: 50 128 28 28 (5017600)
I0528 22:21:57.676851 16530 net.cpp:137] Memory required for data: 2458624200
I0528 22:21:57.676894 16530 layer_factory.hpp:77] Creating layer layer_128_2_scale2
I0528 22:21:57.676903 16530 net.cpp:84] Creating Layer layer_128_2_scale2
I0528 22:21:57.676908 16530 net.cpp:406] layer_128_2_scale2 <- layer_128_2_conv1
I0528 22:21:57.676914 16530 net.cpp:367] layer_128_2_scale2 -> layer_128_2_conv1 (in-place)
I0528 22:21:57.676971 16530 layer_factory.hpp:77] Creating layer layer_128_2_scale2
I0528 22:21:57.677110 16530 net.cpp:122] Setting up layer_128_2_scale2
I0528 22:21:57.677144 16530 net.cpp:129] Top shape: 50 128 28 28 (5017600)
I0528 22:21:57.677160 16530 net.cpp:137] Memory required for data: 2478694600
I0528 22:21:57.677165 16530 layer_factory.hpp:77] Creating layer layer_128_2_relu2
I0528 22:21:57.677172 16530 net.cpp:84] Creating Layer layer_128_2_relu2
I0528 22:21:57.677176 16530 net.cpp:406] layer_128_2_relu2 <- layer_128_2_conv1
I0528 22:21:57.677184 16530 net.cpp:367] layer_128_2_relu2 -> layer_128_2_conv1 (in-place)
I0528 22:21:57.677891 16530 net.cpp:122] Setting up layer_128_2_relu2
I0528 22:21:57.677907 16530 net.cpp:129] Top shape: 50 128 28 28 (5017600)
I0528 22:21:57.677923 16530 net.cpp:137] Memory required for data: 2498765000
I0528 22:21:57.677927 16530 layer_factory.hpp:77] Creating layer layer_128_2_conv2
I0528 22:21:57.677939 16530 net.cpp:84] Creating Layer layer_128_2_conv2
I0528 22:21:57.677956 16530 net.cpp:406] layer_128_2_conv2 <- layer_128_2_conv1
I0528 22:21:57.677966 16530 net.cpp:380] layer_128_2_conv2 -> layer_128_2_conv2
I0528 22:21:57.683425 16530 net.cpp:122] Setting up layer_128_2_conv2
I0528 22:21:57.683457 16530 net.cpp:129] Top shape: 50 128 28 28 (5017600)
I0528 22:21:57.683462 16530 net.cpp:137] Memory required for data: 2518835400
I0528 22:21:57.683468 16530 layer_factory.hpp:77] Creating layer layer_128_2_sum
I0528 22:21:57.683478 16530 net.cpp:84] Creating Layer layer_128_2_sum
I0528 22:21:57.683500 16530 net.cpp:406] layer_128_2_sum <- layer_128_2_conv2
I0528 22:21:57.683506 16530 net.cpp:406] layer_128_2_sum <- layer_128_1_sum_layer_128_1_sum_0_split_1
I0528 22:21:57.683512 16530 net.cpp:380] layer_128_2_sum -> layer_128_2_sum
I0528 22:21:57.683544 16530 net.cpp:122] Setting up layer_128_2_sum
I0528 22:21:57.683552 16530 net.cpp:129] Top shape: 50 128 28 28 (5017600)
I0528 22:21:57.683555 16530 net.cpp:137] Memory required for data: 2538905800
I0528 22:21:57.683559 16530 layer_factory.hpp:77] Creating layer layer_128_2_sum_layer_128_2_sum_0_split
I0528 22:21:57.683565 16530 net.cpp:84] Creating Layer layer_128_2_sum_layer_128_2_sum_0_split
I0528 22:21:57.683569 16530 net.cpp:406] layer_128_2_sum_layer_128_2_sum_0_split <- layer_128_2_sum
I0528 22:21:57.683578 16530 net.cpp:380] layer_128_2_sum_layer_128_2_sum_0_split -> layer_128_2_sum_layer_128_2_sum_0_split_0
I0528 22:21:57.683584 16530 net.cpp:380] layer_128_2_sum_layer_128_2_sum_0_split -> layer_128_2_sum_layer_128_2_sum_0_split_1
I0528 22:21:57.683619 16530 net.cpp:122] Setting up layer_128_2_sum_layer_128_2_sum_0_split
I0528 22:21:57.683632 16530 net.cpp:129] Top shape: 50 128 28 28 (5017600)
I0528 22:21:57.683636 16530 net.cpp:129] Top shape: 50 128 28 28 (5017600)
I0528 22:21:57.683640 16530 net.cpp:137] Memory required for data: 2579046600
I0528 22:21:57.683643 16530 layer_factory.hpp:77] Creating layer layer_128_3_bn1
I0528 22:21:57.683661 16530 net.cpp:84] Creating Layer layer_128_3_bn1
I0528 22:21:57.683665 16530 net.cpp:406] layer_128_3_bn1 <- layer_128_2_sum_layer_128_2_sum_0_split_0
I0528 22:21:57.683673 16530 net.cpp:380] layer_128_3_bn1 -> layer_128_3_bn1
I0528 22:21:57.683914 16530 net.cpp:122] Setting up layer_128_3_bn1
I0528 22:21:57.683925 16530 net.cpp:129] Top shape: 50 128 28 28 (5017600)
I0528 22:21:57.683959 16530 net.cpp:137] Memory required for data: 2599117000
I0528 22:21:57.683989 16530 layer_factory.hpp:77] Creating layer layer_128_3_scale1
I0528 22:21:57.683998 16530 net.cpp:84] Creating Layer layer_128_3_scale1
I0528 22:21:57.684003 16530 net.cpp:406] layer_128_3_scale1 <- layer_128_3_bn1
I0528 22:21:57.684010 16530 net.cpp:367] layer_128_3_scale1 -> layer_128_3_bn1 (in-place)
I0528 22:21:57.684077 16530 layer_factory.hpp:77] Creating layer layer_128_3_scale1
I0528 22:21:57.684250 16530 net.cpp:122] Setting up layer_128_3_scale1
I0528 22:21:57.684264 16530 net.cpp:129] Top shape: 50 128 28 28 (5017600)
I0528 22:21:57.684279 16530 net.cpp:137] Memory required for data: 2619187400
I0528 22:21:57.684298 16530 layer_factory.hpp:77] Creating layer layer_128_3_relu1
I0528 22:21:57.684304 16530 net.cpp:84] Creating Layer layer_128_3_relu1
I0528 22:21:57.684329 16530 net.cpp:406] layer_128_3_relu1 <- layer_128_3_bn1
I0528 22:21:57.684335 16530 net.cpp:367] layer_128_3_relu1 -> layer_128_3_bn1 (in-place)
I0528 22:21:57.685040 16530 net.cpp:122] Setting up layer_128_3_relu1
I0528 22:21:57.685070 16530 net.cpp:129] Top shape: 50 128 28 28 (5017600)
I0528 22:21:57.685075 16530 net.cpp:137] Memory required for data: 2639257800
I0528 22:21:57.685080 16530 layer_factory.hpp:77] Creating layer layer_128_3_conv1
I0528 22:21:57.685091 16530 net.cpp:84] Creating Layer layer_128_3_conv1
I0528 22:21:57.685097 16530 net.cpp:406] layer_128_3_conv1 <- layer_128_3_bn1
I0528 22:21:57.685104 16530 net.cpp:380] layer_128_3_conv1 -> layer_128_3_conv1
I0528 22:21:57.691282 16530 net.cpp:122] Setting up layer_128_3_conv1
I0528 22:21:57.691315 16530 net.cpp:129] Top shape: 50 128 28 28 (5017600)
I0528 22:21:57.691320 16530 net.cpp:137] Memory required for data: 2659328200
I0528 22:21:57.691328 16530 layer_factory.hpp:77] Creating layer layer_128_3_bn2
I0528 22:21:57.691346 16530 net.cpp:84] Creating Layer layer_128_3_bn2
I0528 22:21:57.691352 16530 net.cpp:406] layer_128_3_bn2 <- layer_128_3_conv1
I0528 22:21:57.691359 16530 net.cpp:367] layer_128_3_bn2 -> layer_128_3_conv1 (in-place)
I0528 22:21:57.691586 16530 net.cpp:122] Setting up layer_128_3_bn2
I0528 22:21:57.691597 16530 net.cpp:129] Top shape: 50 128 28 28 (5017600)
I0528 22:21:57.691612 16530 net.cpp:137] Memory required for data: 2679398600
I0528 22:21:57.691622 16530 layer_factory.hpp:77] Creating layer layer_128_3_scale2
I0528 22:21:57.691630 16530 net.cpp:84] Creating Layer layer_128_3_scale2
I0528 22:21:57.691635 16530 net.cpp:406] layer_128_3_scale2 <- layer_128_3_conv1
I0528 22:21:57.691642 16530 net.cpp:367] layer_128_3_scale2 -> layer_128_3_conv1 (in-place)
I0528 22:21:57.691685 16530 layer_factory.hpp:77] Creating layer layer_128_3_scale2
I0528 22:21:57.691817 16530 net.cpp:122] Setting up layer_128_3_scale2
I0528 22:21:57.691829 16530 net.cpp:129] Top shape: 50 128 28 28 (5017600)
I0528 22:21:57.691844 16530 net.cpp:137] Memory required for data: 2699469000
I0528 22:21:57.691861 16530 layer_factory.hpp:77] Creating layer layer_128_3_relu2
I0528 22:21:57.691870 16530 net.cpp:84] Creating Layer layer_128_3_relu2
I0528 22:21:57.691874 16530 net.cpp:406] layer_128_3_relu2 <- layer_128_3_conv1
I0528 22:21:57.691880 16530 net.cpp:367] layer_128_3_relu2 -> layer_128_3_conv1 (in-place)
I0528 22:21:57.692092 16530 net.cpp:122] Setting up layer_128_3_relu2
I0528 22:21:57.692136 16530 net.cpp:129] Top shape: 50 128 28 28 (5017600)
I0528 22:21:57.692154 16530 net.cpp:137] Memory required for data: 2719539400
I0528 22:21:57.692169 16530 layer_factory.hpp:77] Creating layer layer_128_3_conv2
I0528 22:21:57.692200 16530 net.cpp:84] Creating Layer layer_128_3_conv2
I0528 22:21:57.692206 16530 net.cpp:406] layer_128_3_conv2 <- layer_128_3_conv1
I0528 22:21:57.692214 16530 net.cpp:380] layer_128_3_conv2 -> layer_128_3_conv2
I0528 22:21:57.698088 16530 net.cpp:122] Setting up layer_128_3_conv2
I0528 22:21:57.698124 16530 net.cpp:129] Top shape: 50 128 28 28 (5017600)
I0528 22:21:57.698132 16530 net.cpp:137] Memory required for data: 2739609800
I0528 22:21:57.698144 16530 layer_factory.hpp:77] Creating layer layer_128_3_sum
I0528 22:21:57.698160 16530 net.cpp:84] Creating Layer layer_128_3_sum
I0528 22:21:57.698165 16530 net.cpp:406] layer_128_3_sum <- layer_128_3_conv2
I0528 22:21:57.698171 16530 net.cpp:406] layer_128_3_sum <- layer_128_2_sum_layer_128_2_sum_0_split_1
I0528 22:21:57.698176 16530 net.cpp:380] layer_128_3_sum -> layer_128_3_sum
I0528 22:21:57.698210 16530 net.cpp:122] Setting up layer_128_3_sum
I0528 22:21:57.698225 16530 net.cpp:129] Top shape: 50 128 28 28 (5017600)
I0528 22:21:57.698230 16530 net.cpp:137] Memory required for data: 2759680200
I0528 22:21:57.698233 16530 layer_factory.hpp:77] Creating layer layer_128_3_sum_layer_128_3_sum_0_split
I0528 22:21:57.698240 16530 net.cpp:84] Creating Layer layer_128_3_sum_layer_128_3_sum_0_split
I0528 22:21:57.698243 16530 net.cpp:406] layer_128_3_sum_layer_128_3_sum_0_split <- layer_128_3_sum
I0528 22:21:57.698251 16530 net.cpp:380] layer_128_3_sum_layer_128_3_sum_0_split -> layer_128_3_sum_layer_128_3_sum_0_split_0
I0528 22:21:57.698258 16530 net.cpp:380] layer_128_3_sum_layer_128_3_sum_0_split -> layer_128_3_sum_layer_128_3_sum_0_split_1
I0528 22:21:57.698297 16530 net.cpp:122] Setting up layer_128_3_sum_layer_128_3_sum_0_split
I0528 22:21:57.698317 16530 net.cpp:129] Top shape: 50 128 28 28 (5017600)
I0528 22:21:57.698321 16530 net.cpp:129] Top shape: 50 128 28 28 (5017600)
I0528 22:21:57.698324 16530 net.cpp:137] Memory required for data: 2799821000
I0528 22:21:57.698328 16530 layer_factory.hpp:77] Creating layer layer_128_4_bn1
I0528 22:21:57.698334 16530 net.cpp:84] Creating Layer layer_128_4_bn1
I0528 22:21:57.698338 16530 net.cpp:406] layer_128_4_bn1 <- layer_128_3_sum_layer_128_3_sum_0_split_0
I0528 22:21:57.698348 16530 net.cpp:380] layer_128_4_bn1 -> layer_128_4_bn1
I0528 22:21:57.698602 16530 net.cpp:122] Setting up layer_128_4_bn1
I0528 22:21:57.698613 16530 net.cpp:129] Top shape: 50 128 28 28 (5017600)
I0528 22:21:57.698628 16530 net.cpp:137] Memory required for data: 2819891400
I0528 22:21:57.698647 16530 layer_factory.hpp:77] Creating layer layer_128_4_scale1
I0528 22:21:57.698657 16530 net.cpp:84] Creating Layer layer_128_4_scale1
I0528 22:21:57.698662 16530 net.cpp:406] layer_128_4_scale1 <- layer_128_4_bn1
I0528 22:21:57.698668 16530 net.cpp:367] layer_128_4_scale1 -> layer_128_4_bn1 (in-place)
I0528 22:21:57.698724 16530 layer_factory.hpp:77] Creating layer layer_128_4_scale1
I0528 22:21:57.698859 16530 net.cpp:122] Setting up layer_128_4_scale1
I0528 22:21:57.698870 16530 net.cpp:129] Top shape: 50 128 28 28 (5017600)
I0528 22:21:57.698885 16530 net.cpp:137] Memory required for data: 2839961800
I0528 22:21:57.698892 16530 layer_factory.hpp:77] Creating layer layer_128_4_relu1
I0528 22:21:57.698899 16530 net.cpp:84] Creating Layer layer_128_4_relu1
I0528 22:21:57.698904 16530 net.cpp:406] layer_128_4_relu1 <- layer_128_4_bn1
I0528 22:21:57.698909 16530 net.cpp:367] layer_128_4_relu1 -> layer_128_4_bn1 (in-place)
I0528 22:21:57.699641 16530 net.cpp:122] Setting up layer_128_4_relu1
I0528 22:21:57.699674 16530 net.cpp:129] Top shape: 50 128 28 28 (5017600)
I0528 22:21:57.699679 16530 net.cpp:137] Memory required for data: 2860032200
I0528 22:21:57.699683 16530 layer_factory.hpp:77] Creating layer layer_128_4_conv1
I0528 22:21:57.699695 16530 net.cpp:84] Creating Layer layer_128_4_conv1
I0528 22:21:57.699713 16530 net.cpp:406] layer_128_4_conv1 <- layer_128_4_bn1
I0528 22:21:57.699721 16530 net.cpp:380] layer_128_4_conv1 -> layer_128_4_conv1
I0528 22:21:57.705215 16530 net.cpp:122] Setting up layer_128_4_conv1
I0528 22:21:57.705246 16530 net.cpp:129] Top shape: 50 128 28 28 (5017600)
I0528 22:21:57.705251 16530 net.cpp:137] Memory required for data: 2880102600
I0528 22:21:57.705257 16530 layer_factory.hpp:77] Creating layer layer_128_4_bn2
I0528 22:21:57.705268 16530 net.cpp:84] Creating Layer layer_128_4_bn2
I0528 22:21:57.705286 16530 net.cpp:406] layer_128_4_bn2 <- layer_128_4_conv1
I0528 22:21:57.705296 16530 net.cpp:367] layer_128_4_bn2 -> layer_128_4_conv1 (in-place)
I0528 22:21:57.705509 16530 net.cpp:122] Setting up layer_128_4_bn2
I0528 22:21:57.705539 16530 net.cpp:129] Top shape: 50 128 28 28 (5017600)
I0528 22:21:57.705554 16530 net.cpp:137] Memory required for data: 2900173000
I0528 22:21:57.705574 16530 layer_factory.hpp:77] Creating layer layer_128_4_scale2
I0528 22:21:57.705581 16530 net.cpp:84] Creating Layer layer_128_4_scale2
I0528 22:21:57.705597 16530 net.cpp:406] layer_128_4_scale2 <- layer_128_4_conv1
I0528 22:21:57.705610 16530 net.cpp:367] layer_128_4_scale2 -> layer_128_4_conv1 (in-place)
I0528 22:21:57.705667 16530 layer_factory.hpp:77] Creating layer layer_128_4_scale2
I0528 22:21:57.705816 16530 net.cpp:122] Setting up layer_128_4_scale2
I0528 22:21:57.705852 16530 net.cpp:129] Top shape: 50 128 28 28 (5017600)
I0528 22:21:57.705857 16530 net.cpp:137] Memory required for data: 2920243400
I0528 22:21:57.705873 16530 layer_factory.hpp:77] Creating layer layer_128_4_relu2
I0528 22:21:57.705879 16530 net.cpp:84] Creating Layer layer_128_4_relu2
I0528 22:21:57.705901 16530 net.cpp:406] layer_128_4_relu2 <- layer_128_4_conv1
I0528 22:21:57.705907 16530 net.cpp:367] layer_128_4_relu2 -> layer_128_4_conv1 (in-place)
I0528 22:21:57.706609 16530 net.cpp:122] Setting up layer_128_4_relu2
I0528 22:21:57.706639 16530 net.cpp:129] Top shape: 50 128 28 28 (5017600)
I0528 22:21:57.706643 16530 net.cpp:137] Memory required for data: 2940313800
I0528 22:21:57.706647 16530 layer_factory.hpp:77] Creating layer layer_128_4_conv2
I0528 22:21:57.706661 16530 net.cpp:84] Creating Layer layer_128_4_conv2
I0528 22:21:57.706683 16530 net.cpp:406] layer_128_4_conv2 <- layer_128_4_conv1
I0528 22:21:57.706692 16530 net.cpp:380] layer_128_4_conv2 -> layer_128_4_conv2
I0528 22:21:57.712563 16530 net.cpp:122] Setting up layer_128_4_conv2
I0528 22:21:57.712596 16530 net.cpp:129] Top shape: 50 128 28 28 (5017600)
I0528 22:21:57.712601 16530 net.cpp:137] Memory required for data: 2960384200
I0528 22:21:57.712608 16530 layer_factory.hpp:77] Creating layer layer_128_4_sum
I0528 22:21:57.712615 16530 net.cpp:84] Creating Layer layer_128_4_sum
I0528 22:21:57.712620 16530 net.cpp:406] layer_128_4_sum <- layer_128_4_conv2
I0528 22:21:57.712641 16530 net.cpp:406] layer_128_4_sum <- layer_128_3_sum_layer_128_3_sum_0_split_1
I0528 22:21:57.712648 16530 net.cpp:380] layer_128_4_sum -> layer_128_4_sum
I0528 22:21:57.712687 16530 net.cpp:122] Setting up layer_128_4_sum
I0528 22:21:57.712694 16530 net.cpp:129] Top shape: 50 128 28 28 (5017600)
I0528 22:21:57.712698 16530 net.cpp:137] Memory required for data: 2980454600
I0528 22:21:57.712702 16530 layer_factory.hpp:77] Creating layer layer_256_1_bn1
I0528 22:21:57.712710 16530 net.cpp:84] Creating Layer layer_256_1_bn1
I0528 22:21:57.712714 16530 net.cpp:406] layer_256_1_bn1 <- layer_128_4_sum
I0528 22:21:57.712720 16530 net.cpp:380] layer_256_1_bn1 -> layer_256_1_bn1
I0528 22:21:57.712957 16530 net.cpp:122] Setting up layer_256_1_bn1
I0528 22:21:57.712968 16530 net.cpp:129] Top shape: 50 128 28 28 (5017600)
I0528 22:21:57.712983 16530 net.cpp:137] Memory required for data: 3000525000
I0528 22:21:57.712993 16530 layer_factory.hpp:77] Creating layer layer_256_1_scale1
I0528 22:21:57.713001 16530 net.cpp:84] Creating Layer layer_256_1_scale1
I0528 22:21:57.713027 16530 net.cpp:406] layer_256_1_scale1 <- layer_256_1_bn1
I0528 22:21:57.713034 16530 net.cpp:367] layer_256_1_scale1 -> layer_256_1_bn1 (in-place)
I0528 22:21:57.713091 16530 layer_factory.hpp:77] Creating layer layer_256_1_scale1
I0528 22:21:57.713294 16530 net.cpp:122] Setting up layer_256_1_scale1
I0528 22:21:57.713310 16530 net.cpp:129] Top shape: 50 128 28 28 (5017600)
I0528 22:21:57.713325 16530 net.cpp:137] Memory required for data: 3020595400
I0528 22:21:57.713330 16530 layer_factory.hpp:77] Creating layer layer_256_1_relu1
I0528 22:21:57.713340 16530 net.cpp:84] Creating Layer layer_256_1_relu1
I0528 22:21:57.713343 16530 net.cpp:406] layer_256_1_relu1 <- layer_256_1_bn1
I0528 22:21:57.713359 16530 net.cpp:367] layer_256_1_relu1 -> layer_256_1_bn1 (in-place)
I0528 22:21:57.714071 16530 net.cpp:122] Setting up layer_256_1_relu1
I0528 22:21:57.714105 16530 net.cpp:129] Top shape: 50 128 28 28 (5017600)
I0528 22:21:57.714126 16530 net.cpp:137] Memory required for data: 3040665800
I0528 22:21:57.714131 16530 layer_factory.hpp:77] Creating layer layer_256_1_bn1_layer_256_1_relu1_0_split
I0528 22:21:57.714138 16530 net.cpp:84] Creating Layer layer_256_1_bn1_layer_256_1_relu1_0_split
I0528 22:21:57.714143 16530 net.cpp:406] layer_256_1_bn1_layer_256_1_relu1_0_split <- layer_256_1_bn1
I0528 22:21:57.714165 16530 net.cpp:380] layer_256_1_bn1_layer_256_1_relu1_0_split -> layer_256_1_bn1_layer_256_1_relu1_0_split_0
I0528 22:21:57.714174 16530 net.cpp:380] layer_256_1_bn1_layer_256_1_relu1_0_split -> layer_256_1_bn1_layer_256_1_relu1_0_split_1
I0528 22:21:57.714227 16530 net.cpp:122] Setting up layer_256_1_bn1_layer_256_1_relu1_0_split
I0528 22:21:57.714236 16530 net.cpp:129] Top shape: 50 128 28 28 (5017600)
I0528 22:21:57.714241 16530 net.cpp:129] Top shape: 50 128 28 28 (5017600)
I0528 22:21:57.714243 16530 net.cpp:137] Memory required for data: 3080806600
I0528 22:21:57.714247 16530 layer_factory.hpp:77] Creating layer layer_256_1_conv1
I0528 22:21:57.714258 16530 net.cpp:84] Creating Layer layer_256_1_conv1
I0528 22:21:57.714264 16530 net.cpp:406] layer_256_1_conv1 <- layer_256_1_bn1_layer_256_1_relu1_0_split_0
I0528 22:21:57.714272 16530 net.cpp:380] layer_256_1_conv1 -> layer_256_1_conv1
I0528 22:21:57.724531 16530 net.cpp:122] Setting up layer_256_1_conv1
I0528 22:21:57.724563 16530 net.cpp:129] Top shape: 50 256 14 14 (2508800)
I0528 22:21:57.724568 16530 net.cpp:137] Memory required for data: 3090841800
I0528 22:21:57.724575 16530 layer_factory.hpp:77] Creating layer layer_256_1_bn2
I0528 22:21:57.724584 16530 net.cpp:84] Creating Layer layer_256_1_bn2
I0528 22:21:57.724597 16530 net.cpp:406] layer_256_1_bn2 <- layer_256_1_conv1
I0528 22:21:57.724620 16530 net.cpp:367] layer_256_1_bn2 -> layer_256_1_conv1 (in-place)
I0528 22:21:57.724846 16530 net.cpp:122] Setting up layer_256_1_bn2
I0528 22:21:57.724869 16530 net.cpp:129] Top shape: 50 256 14 14 (2508800)
I0528 22:21:57.724884 16530 net.cpp:137] Memory required for data: 3100877000
I0528 22:21:57.724892 16530 layer_factory.hpp:77] Creating layer layer_256_1_scale2
I0528 22:21:57.724900 16530 net.cpp:84] Creating Layer layer_256_1_scale2
I0528 22:21:57.724903 16530 net.cpp:406] layer_256_1_scale2 <- layer_256_1_conv1
I0528 22:21:57.724911 16530 net.cpp:367] layer_256_1_scale2 -> layer_256_1_conv1 (in-place)
I0528 22:21:57.724967 16530 layer_factory.hpp:77] Creating layer layer_256_1_scale2
I0528 22:21:57.725100 16530 net.cpp:122] Setting up layer_256_1_scale2
I0528 22:21:57.725131 16530 net.cpp:129] Top shape: 50 256 14 14 (2508800)
I0528 22:21:57.725138 16530 net.cpp:137] Memory required for data: 3110912200
I0528 22:21:57.725145 16530 layer_factory.hpp:77] Creating layer layer_256_1_relu2
I0528 22:21:57.725188 16530 net.cpp:84] Creating Layer layer_256_1_relu2
I0528 22:21:57.725204 16530 net.cpp:406] layer_256_1_relu2 <- layer_256_1_conv1
I0528 22:21:57.725210 16530 net.cpp:367] layer_256_1_relu2 -> layer_256_1_conv1 (in-place)
I0528 22:21:57.725925 16530 net.cpp:122] Setting up layer_256_1_relu2
I0528 22:21:57.725942 16530 net.cpp:129] Top shape: 50 256 14 14 (2508800)
I0528 22:21:57.725958 16530 net.cpp:137] Memory required for data: 3120947400
I0528 22:21:57.725962 16530 layer_factory.hpp:77] Creating layer layer_256_1_conv2
I0528 22:21:57.725983 16530 net.cpp:84] Creating Layer layer_256_1_conv2
I0528 22:21:57.725989 16530 net.cpp:406] layer_256_1_conv2 <- layer_256_1_conv1
I0528 22:21:57.725997 16530 net.cpp:380] layer_256_1_conv2 -> layer_256_1_conv2
I0528 22:21:57.743281 16530 net.cpp:122] Setting up layer_256_1_conv2
I0528 22:21:57.743314 16530 net.cpp:129] Top shape: 50 256 14 14 (2508800)
I0528 22:21:57.743319 16530 net.cpp:137] Memory required for data: 3130982600
I0528 22:21:57.743325 16530 layer_factory.hpp:77] Creating layer layer_256_1_conv_expand
I0528 22:21:57.743338 16530 net.cpp:84] Creating Layer layer_256_1_conv_expand
I0528 22:21:57.743360 16530 net.cpp:406] layer_256_1_conv_expand <- layer_256_1_bn1_layer_256_1_relu1_0_split_1
I0528 22:21:57.743379 16530 net.cpp:380] layer_256_1_conv_expand -> layer_256_1_conv_expand
I0528 22:21:57.746256 16530 net.cpp:122] Setting up layer_256_1_conv_expand
I0528 22:21:57.746287 16530 net.cpp:129] Top shape: 50 256 14 14 (2508800)
I0528 22:21:57.746294 16530 net.cpp:137] Memory required for data: 3141017800
I0528 22:21:57.746299 16530 layer_factory.hpp:77] Creating layer layer_256_1_sum
I0528 22:21:57.746306 16530 net.cpp:84] Creating Layer layer_256_1_sum
I0528 22:21:57.746311 16530 net.cpp:406] layer_256_1_sum <- layer_256_1_conv_expand
I0528 22:21:57.746335 16530 net.cpp:406] layer_256_1_sum <- layer_256_1_conv2
I0528 22:21:57.746343 16530 net.cpp:380] layer_256_1_sum -> layer_256_1_sum
I0528 22:21:57.746378 16530 net.cpp:122] Setting up layer_256_1_sum
I0528 22:21:57.746388 16530 net.cpp:129] Top shape: 50 256 14 14 (2508800)
I0528 22:21:57.746392 16530 net.cpp:137] Memory required for data: 3151053000
I0528 22:21:57.746397 16530 layer_factory.hpp:77] Creating layer layer_256_1_sum_layer_256_1_sum_0_split
I0528 22:21:57.746402 16530 net.cpp:84] Creating Layer layer_256_1_sum_layer_256_1_sum_0_split
I0528 22:21:57.746407 16530 net.cpp:406] layer_256_1_sum_layer_256_1_sum_0_split <- layer_256_1_sum
I0528 22:21:57.746412 16530 net.cpp:380] layer_256_1_sum_layer_256_1_sum_0_split -> layer_256_1_sum_layer_256_1_sum_0_split_0
I0528 22:21:57.746418 16530 net.cpp:380] layer_256_1_sum_layer_256_1_sum_0_split -> layer_256_1_sum_layer_256_1_sum_0_split_1
I0528 22:21:57.746462 16530 net.cpp:122] Setting up layer_256_1_sum_layer_256_1_sum_0_split
I0528 22:21:57.746470 16530 net.cpp:129] Top shape: 50 256 14 14 (2508800)
I0528 22:21:57.746475 16530 net.cpp:129] Top shape: 50 256 14 14 (2508800)
I0528 22:21:57.746479 16530 net.cpp:137] Memory required for data: 3171123400
I0528 22:21:57.746481 16530 layer_factory.hpp:77] Creating layer layer_256_2_bn1
I0528 22:21:57.746490 16530 net.cpp:84] Creating Layer layer_256_2_bn1
I0528 22:21:57.746505 16530 net.cpp:406] layer_256_2_bn1 <- layer_256_1_sum_layer_256_1_sum_0_split_0
I0528 22:21:57.746511 16530 net.cpp:380] layer_256_2_bn1 -> layer_256_2_bn1
I0528 22:21:57.746754 16530 net.cpp:122] Setting up layer_256_2_bn1
I0528 22:21:57.746765 16530 net.cpp:129] Top shape: 50 256 14 14 (2508800)
I0528 22:21:57.746780 16530 net.cpp:137] Memory required for data: 3181158600
I0528 22:21:57.746790 16530 layer_factory.hpp:77] Creating layer layer_256_2_scale1
I0528 22:21:57.746798 16530 net.cpp:84] Creating Layer layer_256_2_scale1
I0528 22:21:57.746803 16530 net.cpp:406] layer_256_2_scale1 <- layer_256_2_bn1
I0528 22:21:57.746831 16530 net.cpp:367] layer_256_2_scale1 -> layer_256_2_bn1 (in-place)
I0528 22:21:57.746879 16530 layer_factory.hpp:77] Creating layer layer_256_2_scale1
I0528 22:21:57.747047 16530 net.cpp:122] Setting up layer_256_2_scale1
I0528 22:21:57.747071 16530 net.cpp:129] Top shape: 50 256 14 14 (2508800)
I0528 22:21:57.747084 16530 net.cpp:137] Memory required for data: 3191193800
I0528 22:21:57.747090 16530 layer_factory.hpp:77] Creating layer layer_256_2_relu1
I0528 22:21:57.747110 16530 net.cpp:84] Creating Layer layer_256_2_relu1
I0528 22:21:57.747122 16530 net.cpp:406] layer_256_2_relu1 <- layer_256_2_bn1
I0528 22:21:57.747131 16530 net.cpp:367] layer_256_2_relu1 -> layer_256_2_bn1 (in-place)
I0528 22:21:57.747851 16530 net.cpp:122] Setting up layer_256_2_relu1
I0528 22:21:57.747867 16530 net.cpp:129] Top shape: 50 256 14 14 (2508800)
I0528 22:21:57.747884 16530 net.cpp:137] Memory required for data: 3201229000
I0528 22:21:57.747887 16530 layer_factory.hpp:77] Creating layer layer_256_2_conv1
I0528 22:21:57.747900 16530 net.cpp:84] Creating Layer layer_256_2_conv1
I0528 22:21:57.747905 16530 net.cpp:406] layer_256_2_conv1 <- layer_256_2_bn1
I0528 22:21:57.747915 16530 net.cpp:380] layer_256_2_conv1 -> layer_256_2_conv1
I0528 22:21:57.765206 16530 net.cpp:122] Setting up layer_256_2_conv1
I0528 22:21:57.765239 16530 net.cpp:129] Top shape: 50 256 14 14 (2508800)
I0528 22:21:57.765244 16530 net.cpp:137] Memory required for data: 3211264200
I0528 22:21:57.765260 16530 layer_factory.hpp:77] Creating layer layer_256_2_bn2
I0528 22:21:57.765278 16530 net.cpp:84] Creating Layer layer_256_2_bn2
I0528 22:21:57.765295 16530 net.cpp:406] layer_256_2_bn2 <- layer_256_2_conv1
I0528 22:21:57.765305 16530 net.cpp:367] layer_256_2_bn2 -> layer_256_2_conv1 (in-place)
I0528 22:21:57.765525 16530 net.cpp:122] Setting up layer_256_2_bn2
I0528 22:21:57.765537 16530 net.cpp:129] Top shape: 50 256 14 14 (2508800)
I0528 22:21:57.765552 16530 net.cpp:137] Memory required for data: 3221299400
I0528 22:21:57.765571 16530 layer_factory.hpp:77] Creating layer layer_256_2_scale2
I0528 22:21:57.765590 16530 net.cpp:84] Creating Layer layer_256_2_scale2
I0528 22:21:57.765595 16530 net.cpp:406] layer_256_2_scale2 <- layer_256_2_conv1
I0528 22:21:57.765604 16530 net.cpp:367] layer_256_2_scale2 -> layer_256_2_conv1 (in-place)
I0528 22:21:57.765648 16530 layer_factory.hpp:77] Creating layer layer_256_2_scale2
I0528 22:21:57.765796 16530 net.cpp:122] Setting up layer_256_2_scale2
I0528 22:21:57.765810 16530 net.cpp:129] Top shape: 50 256 14 14 (2508800)
I0528 22:21:57.765825 16530 net.cpp:137] Memory required for data: 3231334600
I0528 22:21:57.765842 16530 layer_factory.hpp:77] Creating layer layer_256_2_relu2
I0528 22:21:57.765848 16530 net.cpp:84] Creating Layer layer_256_2_relu2
I0528 22:21:57.765852 16530 net.cpp:406] layer_256_2_relu2 <- layer_256_2_conv1
I0528 22:21:57.765879 16530 net.cpp:367] layer_256_2_relu2 -> layer_256_2_conv1 (in-place)
I0528 22:21:57.766605 16530 net.cpp:122] Setting up layer_256_2_relu2
I0528 22:21:57.766635 16530 net.cpp:129] Top shape: 50 256 14 14 (2508800)
I0528 22:21:57.766640 16530 net.cpp:137] Memory required for data: 3241369800
I0528 22:21:57.766644 16530 layer_factory.hpp:77] Creating layer layer_256_2_conv2
I0528 22:21:57.766659 16530 net.cpp:84] Creating Layer layer_256_2_conv2
I0528 22:21:57.766680 16530 net.cpp:406] layer_256_2_conv2 <- layer_256_2_conv1
I0528 22:21:57.766690 16530 net.cpp:380] layer_256_2_conv2 -> layer_256_2_conv2
I0528 22:21:57.784387 16530 net.cpp:122] Setting up layer_256_2_conv2
I0528 22:21:57.784421 16530 net.cpp:129] Top shape: 50 256 14 14 (2508800)
I0528 22:21:57.784426 16530 net.cpp:137] Memory required for data: 3251405000
I0528 22:21:57.784432 16530 layer_factory.hpp:77] Creating layer layer_256_2_sum
I0528 22:21:57.784440 16530 net.cpp:84] Creating Layer layer_256_2_sum
I0528 22:21:57.784446 16530 net.cpp:406] layer_256_2_sum <- layer_256_2_conv2
I0528 22:21:57.784466 16530 net.cpp:406] layer_256_2_sum <- layer_256_1_sum_layer_256_1_sum_0_split_1
I0528 22:21:57.784472 16530 net.cpp:380] layer_256_2_sum -> layer_256_2_sum
I0528 22:21:57.784509 16530 net.cpp:122] Setting up layer_256_2_sum
I0528 22:21:57.784518 16530 net.cpp:129] Top shape: 50 256 14 14 (2508800)
I0528 22:21:57.784521 16530 net.cpp:137] Memory required for data: 3261440200
I0528 22:21:57.784525 16530 layer_factory.hpp:77] Creating layer layer_256_2_sum_layer_256_2_sum_0_split
I0528 22:21:57.784531 16530 net.cpp:84] Creating Layer layer_256_2_sum_layer_256_2_sum_0_split
I0528 22:21:57.784535 16530 net.cpp:406] layer_256_2_sum_layer_256_2_sum_0_split <- layer_256_2_sum
I0528 22:21:57.784543 16530 net.cpp:380] layer_256_2_sum_layer_256_2_sum_0_split -> layer_256_2_sum_layer_256_2_sum_0_split_0
I0528 22:21:57.784550 16530 net.cpp:380] layer_256_2_sum_layer_256_2_sum_0_split -> layer_256_2_sum_layer_256_2_sum_0_split_1
I0528 22:21:57.784590 16530 net.cpp:122] Setting up layer_256_2_sum_layer_256_2_sum_0_split
I0528 22:21:57.784598 16530 net.cpp:129] Top shape: 50 256 14 14 (2508800)
I0528 22:21:57.784603 16530 net.cpp:129] Top shape: 50 256 14 14 (2508800)
I0528 22:21:57.784606 16530 net.cpp:137] Memory required for data: 3281510600
I0528 22:21:57.784610 16530 layer_factory.hpp:77] Creating layer layer_256_3_bn1
I0528 22:21:57.784616 16530 net.cpp:84] Creating Layer layer_256_3_bn1
I0528 22:21:57.784621 16530 net.cpp:406] layer_256_3_bn1 <- layer_256_2_sum_layer_256_2_sum_0_split_0
I0528 22:21:57.784643 16530 net.cpp:380] layer_256_3_bn1 -> layer_256_3_bn1
I0528 22:21:57.784912 16530 net.cpp:122] Setting up layer_256_3_bn1
I0528 22:21:57.784924 16530 net.cpp:129] Top shape: 50 256 14 14 (2508800)
I0528 22:21:57.784939 16530 net.cpp:137] Memory required for data: 3291545800
I0528 22:21:57.784946 16530 layer_factory.hpp:77] Creating layer layer_256_3_scale1
I0528 22:21:57.784965 16530 net.cpp:84] Creating Layer layer_256_3_scale1
I0528 22:21:57.784981 16530 net.cpp:406] layer_256_3_scale1 <- layer_256_3_bn1
I0528 22:21:57.784987 16530 net.cpp:367] layer_256_3_scale1 -> layer_256_3_bn1 (in-place)
I0528 22:21:57.785037 16530 layer_factory.hpp:77] Creating layer layer_256_3_scale1
I0528 22:21:57.785205 16530 net.cpp:122] Setting up layer_256_3_scale1
I0528 22:21:57.785230 16530 net.cpp:129] Top shape: 50 256 14 14 (2508800)
I0528 22:21:57.785245 16530 net.cpp:137] Memory required for data: 3301581000
I0528 22:21:57.785253 16530 layer_factory.hpp:77] Creating layer layer_256_3_relu1
I0528 22:21:57.785269 16530 net.cpp:84] Creating Layer layer_256_3_relu1
I0528 22:21:57.785274 16530 net.cpp:406] layer_256_3_relu1 <- layer_256_3_bn1
I0528 22:21:57.785281 16530 net.cpp:367] layer_256_3_relu1 -> layer_256_3_bn1 (in-place)
I0528 22:21:57.785503 16530 net.cpp:122] Setting up layer_256_3_relu1
I0528 22:21:57.785516 16530 net.cpp:129] Top shape: 50 256 14 14 (2508800)
I0528 22:21:57.785532 16530 net.cpp:137] Memory required for data: 3311616200
I0528 22:21:57.785537 16530 layer_factory.hpp:77] Creating layer layer_256_3_conv1
I0528 22:21:57.785558 16530 net.cpp:84] Creating Layer layer_256_3_conv1
I0528 22:21:57.785584 16530 net.cpp:406] layer_256_3_conv1 <- layer_256_3_bn1
I0528 22:21:57.785606 16530 net.cpp:380] layer_256_3_conv1 -> layer_256_3_conv1
I0528 22:21:57.803310 16530 net.cpp:122] Setting up layer_256_3_conv1
I0528 22:21:57.803341 16530 net.cpp:129] Top shape: 50 256 14 14 (2508800)
I0528 22:21:57.803346 16530 net.cpp:137] Memory required for data: 3321651400
I0528 22:21:57.803352 16530 layer_factory.hpp:77] Creating layer layer_256_3_bn2
I0528 22:21:57.803361 16530 net.cpp:84] Creating Layer layer_256_3_bn2
I0528 22:21:57.803367 16530 net.cpp:406] layer_256_3_bn2 <- layer_256_3_conv1
I0528 22:21:57.803387 16530 net.cpp:367] layer_256_3_bn2 -> layer_256_3_conv1 (in-place)
I0528 22:21:57.803609 16530 net.cpp:122] Setting up layer_256_3_bn2
I0528 22:21:57.803622 16530 net.cpp:129] Top shape: 50 256 14 14 (2508800)
I0528 22:21:57.803637 16530 net.cpp:137] Memory required for data: 3331686600
I0528 22:21:57.803644 16530 layer_factory.hpp:77] Creating layer layer_256_3_scale2
I0528 22:21:57.803670 16530 net.cpp:84] Creating Layer layer_256_3_scale2
I0528 22:21:57.803688 16530 net.cpp:406] layer_256_3_scale2 <- layer_256_3_conv1
I0528 22:21:57.803694 16530 net.cpp:367] layer_256_3_scale2 -> layer_256_3_conv1 (in-place)
I0528 22:21:57.803741 16530 layer_factory.hpp:77] Creating layer layer_256_3_scale2
I0528 22:21:57.803891 16530 net.cpp:122] Setting up layer_256_3_scale2
I0528 22:21:57.803902 16530 net.cpp:129] Top shape: 50 256 14 14 (2508800)
I0528 22:21:57.803917 16530 net.cpp:137] Memory required for data: 3341721800
I0528 22:21:57.803935 16530 layer_factory.hpp:77] Creating layer layer_256_3_relu2
I0528 22:21:57.803941 16530 net.cpp:84] Creating Layer layer_256_3_relu2
I0528 22:21:57.803946 16530 net.cpp:406] layer_256_3_relu2 <- layer_256_3_conv1
I0528 22:21:57.803970 16530 net.cpp:367] layer_256_3_relu2 -> layer_256_3_conv1 (in-place)
I0528 22:21:57.804697 16530 net.cpp:122] Setting up layer_256_3_relu2
I0528 22:21:57.804728 16530 net.cpp:129] Top shape: 50 256 14 14 (2508800)
I0528 22:21:57.804733 16530 net.cpp:137] Memory required for data: 3351757000
I0528 22:21:57.804736 16530 layer_factory.hpp:77] Creating layer layer_256_3_conv2
I0528 22:21:57.804749 16530 net.cpp:84] Creating Layer layer_256_3_conv2
I0528 22:21:57.804754 16530 net.cpp:406] layer_256_3_conv2 <- layer_256_3_conv1
I0528 22:21:57.804777 16530 net.cpp:380] layer_256_3_conv2 -> layer_256_3_conv2
I0528 22:21:57.822068 16530 net.cpp:122] Setting up layer_256_3_conv2
I0528 22:21:57.822105 16530 net.cpp:129] Top shape: 50 256 14 14 (2508800)
I0528 22:21:57.822123 16530 net.cpp:137] Memory required for data: 3361792200
I0528 22:21:57.822154 16530 layer_factory.hpp:77] Creating layer layer_256_3_sum
I0528 22:21:57.822162 16530 net.cpp:84] Creating Layer layer_256_3_sum
I0528 22:21:57.822167 16530 net.cpp:406] layer_256_3_sum <- layer_256_3_conv2
I0528 22:21:57.822172 16530 net.cpp:406] layer_256_3_sum <- layer_256_2_sum_layer_256_2_sum_0_split_1
I0528 22:21:57.822180 16530 net.cpp:380] layer_256_3_sum -> layer_256_3_sum
I0528 22:21:57.822214 16530 net.cpp:122] Setting up layer_256_3_sum
I0528 22:21:57.822221 16530 net.cpp:129] Top shape: 50 256 14 14 (2508800)
I0528 22:21:57.822226 16530 net.cpp:137] Memory required for data: 3371827400
I0528 22:21:57.822229 16530 layer_factory.hpp:77] Creating layer layer_256_3_sum_layer_256_3_sum_0_split
I0528 22:21:57.822237 16530 net.cpp:84] Creating Layer layer_256_3_sum_layer_256_3_sum_0_split
I0528 22:21:57.822240 16530 net.cpp:406] layer_256_3_sum_layer_256_3_sum_0_split <- layer_256_3_sum
I0528 22:21:57.822245 16530 net.cpp:380] layer_256_3_sum_layer_256_3_sum_0_split -> layer_256_3_sum_layer_256_3_sum_0_split_0
I0528 22:21:57.822252 16530 net.cpp:380] layer_256_3_sum_layer_256_3_sum_0_split -> layer_256_3_sum_layer_256_3_sum_0_split_1
I0528 22:21:57.822294 16530 net.cpp:122] Setting up layer_256_3_sum_layer_256_3_sum_0_split
I0528 22:21:57.822302 16530 net.cpp:129] Top shape: 50 256 14 14 (2508800)
I0528 22:21:57.822306 16530 net.cpp:129] Top shape: 50 256 14 14 (2508800)
I0528 22:21:57.822309 16530 net.cpp:137] Memory required for data: 3391897800
I0528 22:21:57.822314 16530 layer_factory.hpp:77] Creating layer layer_256_4_bn1
I0528 22:21:57.822332 16530 net.cpp:84] Creating Layer layer_256_4_bn1
I0528 22:21:57.822337 16530 net.cpp:406] layer_256_4_bn1 <- layer_256_3_sum_layer_256_3_sum_0_split_0
I0528 22:21:57.822343 16530 net.cpp:380] layer_256_4_bn1 -> layer_256_4_bn1
I0528 22:21:57.822602 16530 net.cpp:122] Setting up layer_256_4_bn1
I0528 22:21:57.822613 16530 net.cpp:129] Top shape: 50 256 14 14 (2508800)
I0528 22:21:57.822628 16530 net.cpp:137] Memory required for data: 3401933000
I0528 22:21:57.822636 16530 layer_factory.hpp:77] Creating layer layer_256_4_scale1
I0528 22:21:57.822654 16530 net.cpp:84] Creating Layer layer_256_4_scale1
I0528 22:21:57.822670 16530 net.cpp:406] layer_256_4_scale1 <- layer_256_4_bn1
I0528 22:21:57.822676 16530 net.cpp:367] layer_256_4_scale1 -> layer_256_4_bn1 (in-place)
I0528 22:21:57.822737 16530 layer_factory.hpp:77] Creating layer layer_256_4_scale1
I0528 22:21:57.822901 16530 net.cpp:122] Setting up layer_256_4_scale1
I0528 22:21:57.822911 16530 net.cpp:129] Top shape: 50 256 14 14 (2508800)
I0528 22:21:57.822927 16530 net.cpp:137] Memory required for data: 3411968200
I0528 22:21:57.822944 16530 layer_factory.hpp:77] Creating layer layer_256_4_relu1
I0528 22:21:57.822952 16530 net.cpp:84] Creating Layer layer_256_4_relu1
I0528 22:21:57.822955 16530 net.cpp:406] layer_256_4_relu1 <- layer_256_4_bn1
I0528 22:21:57.822963 16530 net.cpp:367] layer_256_4_relu1 -> layer_256_4_bn1 (in-place)
I0528 22:21:57.824008 16530 net.cpp:122] Setting up layer_256_4_relu1
I0528 22:21:57.824039 16530 net.cpp:129] Top shape: 50 256 14 14 (2508800)
I0528 22:21:57.824044 16530 net.cpp:137] Memory required for data: 3422003400
I0528 22:21:57.824049 16530 layer_factory.hpp:77] Creating layer layer_256_4_conv1
I0528 22:21:57.824061 16530 net.cpp:84] Creating Layer layer_256_4_conv1
I0528 22:21:57.824084 16530 net.cpp:406] layer_256_4_conv1 <- layer_256_4_bn1
I0528 22:21:57.824095 16530 net.cpp:380] layer_256_4_conv1 -> layer_256_4_conv1
I0528 22:21:57.842869 16530 net.cpp:122] Setting up layer_256_4_conv1
I0528 22:21:57.842902 16530 net.cpp:129] Top shape: 50 256 14 14 (2508800)
I0528 22:21:57.842908 16530 net.cpp:137] Memory required for data: 3432038600
I0528 22:21:57.842914 16530 layer_factory.hpp:77] Creating layer layer_256_4_bn2
I0528 22:21:57.842923 16530 net.cpp:84] Creating Layer layer_256_4_bn2
I0528 22:21:57.842936 16530 net.cpp:406] layer_256_4_bn2 <- layer_256_4_conv1
I0528 22:21:57.842962 16530 net.cpp:367] layer_256_4_bn2 -> layer_256_4_conv1 (in-place)
I0528 22:21:57.843217 16530 net.cpp:122] Setting up layer_256_4_bn2
I0528 22:21:57.843231 16530 net.cpp:129] Top shape: 50 256 14 14 (2508800)
I0528 22:21:57.843247 16530 net.cpp:137] Memory required for data: 3442073800
I0528 22:21:57.843257 16530 layer_factory.hpp:77] Creating layer layer_256_4_scale2
I0528 22:21:57.843266 16530 net.cpp:84] Creating Layer layer_256_4_scale2
I0528 22:21:57.843297 16530 net.cpp:406] layer_256_4_scale2 <- layer_256_4_conv1
I0528 22:21:57.843303 16530 net.cpp:367] layer_256_4_scale2 -> layer_256_4_conv1 (in-place)
I0528 22:21:57.843353 16530 layer_factory.hpp:77] Creating layer layer_256_4_scale2
I0528 22:21:57.843507 16530 net.cpp:122] Setting up layer_256_4_scale2
I0528 22:21:57.843518 16530 net.cpp:129] Top shape: 50 256 14 14 (2508800)
I0528 22:21:57.843533 16530 net.cpp:137] Memory required for data: 3452109000
I0528 22:21:57.843550 16530 layer_factory.hpp:77] Creating layer layer_256_4_relu2
I0528 22:21:57.843570 16530 net.cpp:84] Creating Layer layer_256_4_relu2
I0528 22:21:57.843576 16530 net.cpp:406] layer_256_4_relu2 <- layer_256_4_conv1
I0528 22:21:57.843581 16530 net.cpp:367] layer_256_4_relu2 -> layer_256_4_conv1 (in-place)
I0528 22:21:57.843822 16530 net.cpp:122] Setting up layer_256_4_relu2
I0528 22:21:57.843849 16530 net.cpp:129] Top shape: 50 256 14 14 (2508800)
I0528 22:21:57.843865 16530 net.cpp:137] Memory required for data: 3462144200
I0528 22:21:57.843869 16530 layer_factory.hpp:77] Creating layer layer_256_4_conv2
I0528 22:21:57.843893 16530 net.cpp:84] Creating Layer layer_256_4_conv2
I0528 22:21:57.843897 16530 net.cpp:406] layer_256_4_conv2 <- layer_256_4_conv1
I0528 22:21:57.843904 16530 net.cpp:380] layer_256_4_conv2 -> layer_256_4_conv2
I0528 22:21:57.861632 16530 net.cpp:122] Setting up layer_256_4_conv2
I0528 22:21:57.861663 16530 net.cpp:129] Top shape: 50 256 14 14 (2508800)
I0528 22:21:57.861670 16530 net.cpp:137] Memory required for data: 3472179400
I0528 22:21:57.861675 16530 layer_factory.hpp:77] Creating layer layer_256_4_sum
I0528 22:21:57.861685 16530 net.cpp:84] Creating Layer layer_256_4_sum
I0528 22:21:57.861690 16530 net.cpp:406] layer_256_4_sum <- layer_256_4_conv2
I0528 22:21:57.861709 16530 net.cpp:406] layer_256_4_sum <- layer_256_3_sum_layer_256_3_sum_0_split_1
I0528 22:21:57.861716 16530 net.cpp:380] layer_256_4_sum -> layer_256_4_sum
I0528 22:21:57.861752 16530 net.cpp:122] Setting up layer_256_4_sum
I0528 22:21:57.861760 16530 net.cpp:129] Top shape: 50 256 14 14 (2508800)
I0528 22:21:57.861764 16530 net.cpp:137] Memory required for data: 3482214600
I0528 22:21:57.861768 16530 layer_factory.hpp:77] Creating layer layer_256_4_sum_layer_256_4_sum_0_split
I0528 22:21:57.861774 16530 net.cpp:84] Creating Layer layer_256_4_sum_layer_256_4_sum_0_split
I0528 22:21:57.861778 16530 net.cpp:406] layer_256_4_sum_layer_256_4_sum_0_split <- layer_256_4_sum
I0528 22:21:57.861786 16530 net.cpp:380] layer_256_4_sum_layer_256_4_sum_0_split -> layer_256_4_sum_layer_256_4_sum_0_split_0
I0528 22:21:57.861793 16530 net.cpp:380] layer_256_4_sum_layer_256_4_sum_0_split -> layer_256_4_sum_layer_256_4_sum_0_split_1
I0528 22:21:57.861835 16530 net.cpp:122] Setting up layer_256_4_sum_layer_256_4_sum_0_split
I0528 22:21:57.861841 16530 net.cpp:129] Top shape: 50 256 14 14 (2508800)
I0528 22:21:57.861846 16530 net.cpp:129] Top shape: 50 256 14 14 (2508800)
I0528 22:21:57.861850 16530 net.cpp:137] Memory required for data: 3502285000
I0528 22:21:57.861852 16530 layer_factory.hpp:77] Creating layer layer_256_5_bn1
I0528 22:21:57.861861 16530 net.cpp:84] Creating Layer layer_256_5_bn1
I0528 22:21:57.861876 16530 net.cpp:406] layer_256_5_bn1 <- layer_256_4_sum_layer_256_4_sum_0_split_0
I0528 22:21:57.861884 16530 net.cpp:380] layer_256_5_bn1 -> layer_256_5_bn1
I0528 22:21:57.862167 16530 net.cpp:122] Setting up layer_256_5_bn1
I0528 22:21:57.862182 16530 net.cpp:129] Top shape: 50 256 14 14 (2508800)
I0528 22:21:57.862202 16530 net.cpp:137] Memory required for data: 3512320200
I0528 22:21:57.862227 16530 layer_factory.hpp:77] Creating layer layer_256_5_scale1
I0528 22:21:57.862268 16530 net.cpp:84] Creating Layer layer_256_5_scale1
I0528 22:21:57.862273 16530 net.cpp:406] layer_256_5_scale1 <- layer_256_5_bn1
I0528 22:21:57.862279 16530 net.cpp:367] layer_256_5_scale1 -> layer_256_5_bn1 (in-place)
I0528 22:21:57.862344 16530 layer_factory.hpp:77] Creating layer layer_256_5_scale1
I0528 22:21:57.862519 16530 net.cpp:122] Setting up layer_256_5_scale1
I0528 22:21:57.862531 16530 net.cpp:129] Top shape: 50 256 14 14 (2508800)
I0528 22:21:57.862546 16530 net.cpp:137] Memory required for data: 3522355400
I0528 22:21:57.862553 16530 layer_factory.hpp:77] Creating layer layer_256_5_relu1
I0528 22:21:57.862560 16530 net.cpp:84] Creating Layer layer_256_5_relu1
I0528 22:21:57.862565 16530 net.cpp:406] layer_256_5_relu1 <- layer_256_5_bn1
I0528 22:21:57.862579 16530 net.cpp:367] layer_256_5_relu1 -> layer_256_5_bn1 (in-place)
I0528 22:21:57.863288 16530 net.cpp:122] Setting up layer_256_5_relu1
I0528 22:21:57.863322 16530 net.cpp:129] Top shape: 50 256 14 14 (2508800)
I0528 22:21:57.863327 16530 net.cpp:137] Memory required for data: 3532390600
I0528 22:21:57.863330 16530 layer_factory.hpp:77] Creating layer layer_256_5_conv1
I0528 22:21:57.863343 16530 net.cpp:84] Creating Layer layer_256_5_conv1
I0528 22:21:57.863364 16530 net.cpp:406] layer_256_5_conv1 <- layer_256_5_bn1
I0528 22:21:57.863373 16530 net.cpp:380] layer_256_5_conv1 -> layer_256_5_conv1
I0528 22:21:57.881188 16530 net.cpp:122] Setting up layer_256_5_conv1
I0528 22:21:57.881220 16530 net.cpp:129] Top shape: 50 256 14 14 (2508800)
I0528 22:21:57.881225 16530 net.cpp:137] Memory required for data: 3542425800
I0528 22:21:57.881232 16530 layer_factory.hpp:77] Creating layer layer_256_5_bn2
I0528 22:21:57.881244 16530 net.cpp:84] Creating Layer layer_256_5_bn2
I0528 22:21:57.881264 16530 net.cpp:406] layer_256_5_bn2 <- layer_256_5_conv1
I0528 22:21:57.881273 16530 net.cpp:367] layer_256_5_bn2 -> layer_256_5_conv1 (in-place)
I0528 22:21:57.881510 16530 net.cpp:122] Setting up layer_256_5_bn2
I0528 22:21:57.881531 16530 net.cpp:129] Top shape: 50 256 14 14 (2508800)
I0528 22:21:57.881546 16530 net.cpp:137] Memory required for data: 3552461000
I0528 22:21:57.881554 16530 layer_factory.hpp:77] Creating layer layer_256_5_scale2
I0528 22:21:57.881563 16530 net.cpp:84] Creating Layer layer_256_5_scale2
I0528 22:21:57.881569 16530 net.cpp:406] layer_256_5_scale2 <- layer_256_5_conv1
I0528 22:21:57.881585 16530 net.cpp:367] layer_256_5_scale2 -> layer_256_5_conv1 (in-place)
I0528 22:21:57.881647 16530 layer_factory.hpp:77] Creating layer layer_256_5_scale2
I0528 22:21:57.881813 16530 net.cpp:122] Setting up layer_256_5_scale2
I0528 22:21:57.881824 16530 net.cpp:129] Top shape: 50 256 14 14 (2508800)
I0528 22:21:57.881839 16530 net.cpp:137] Memory required for data: 3562496200
I0528 22:21:57.881855 16530 layer_factory.hpp:77] Creating layer layer_256_5_relu2
I0528 22:21:57.881860 16530 net.cpp:84] Creating Layer layer_256_5_relu2
I0528 22:21:57.881886 16530 net.cpp:406] layer_256_5_relu2 <- layer_256_5_conv1
I0528 22:21:57.881894 16530 net.cpp:367] layer_256_5_relu2 -> layer_256_5_conv1 (in-place)
I0528 22:21:57.882575 16530 net.cpp:122] Setting up layer_256_5_relu2
I0528 22:21:57.882593 16530 net.cpp:129] Top shape: 50 256 14 14 (2508800)
I0528 22:21:57.882609 16530 net.cpp:137] Memory required for data: 3572531400
I0528 22:21:57.882613 16530 layer_factory.hpp:77] Creating layer layer_256_5_conv2
I0528 22:21:57.882625 16530 net.cpp:84] Creating Layer layer_256_5_conv2
I0528 22:21:57.882632 16530 net.cpp:406] layer_256_5_conv2 <- layer_256_5_conv1
I0528 22:21:57.882655 16530 net.cpp:380] layer_256_5_conv2 -> layer_256_5_conv2
I0528 22:21:57.900337 16530 net.cpp:122] Setting up layer_256_5_conv2
I0528 22:21:57.900369 16530 net.cpp:129] Top shape: 50 256 14 14 (2508800)
I0528 22:21:57.900375 16530 net.cpp:137] Memory required for data: 3582566600
I0528 22:21:57.900382 16530 layer_factory.hpp:77] Creating layer layer_256_5_sum
I0528 22:21:57.900400 16530 net.cpp:84] Creating Layer layer_256_5_sum
I0528 22:21:57.900408 16530 net.cpp:406] layer_256_5_sum <- layer_256_5_conv2
I0528 22:21:57.900413 16530 net.cpp:406] layer_256_5_sum <- layer_256_4_sum_layer_256_4_sum_0_split_1
I0528 22:21:57.900418 16530 net.cpp:380] layer_256_5_sum -> layer_256_5_sum
I0528 22:21:57.900450 16530 net.cpp:122] Setting up layer_256_5_sum
I0528 22:21:57.900461 16530 net.cpp:129] Top shape: 50 256 14 14 (2508800)
I0528 22:21:57.900465 16530 net.cpp:137] Memory required for data: 3592601800
I0528 22:21:57.900468 16530 layer_factory.hpp:77] Creating layer layer_256_5_sum_layer_256_5_sum_0_split
I0528 22:21:57.900475 16530 net.cpp:84] Creating Layer layer_256_5_sum_layer_256_5_sum_0_split
I0528 22:21:57.900480 16530 net.cpp:406] layer_256_5_sum_layer_256_5_sum_0_split <- layer_256_5_sum
I0528 22:21:57.900486 16530 net.cpp:380] layer_256_5_sum_layer_256_5_sum_0_split -> layer_256_5_sum_layer_256_5_sum_0_split_0
I0528 22:21:57.900493 16530 net.cpp:380] layer_256_5_sum_layer_256_5_sum_0_split -> layer_256_5_sum_layer_256_5_sum_0_split_1
I0528 22:21:57.900534 16530 net.cpp:122] Setting up layer_256_5_sum_layer_256_5_sum_0_split
I0528 22:21:57.900542 16530 net.cpp:129] Top shape: 50 256 14 14 (2508800)
I0528 22:21:57.900547 16530 net.cpp:129] Top shape: 50 256 14 14 (2508800)
I0528 22:21:57.900549 16530 net.cpp:137] Memory required for data: 3612672200
I0528 22:21:57.900564 16530 layer_factory.hpp:77] Creating layer layer_256_6_bn1
I0528 22:21:57.900589 16530 net.cpp:84] Creating Layer layer_256_6_bn1
I0528 22:21:57.900594 16530 net.cpp:406] layer_256_6_bn1 <- layer_256_5_sum_layer_256_5_sum_0_split_0
I0528 22:21:57.900601 16530 net.cpp:380] layer_256_6_bn1 -> layer_256_6_bn1
I0528 22:21:57.900879 16530 net.cpp:122] Setting up layer_256_6_bn1
I0528 22:21:57.900890 16530 net.cpp:129] Top shape: 50 256 14 14 (2508800)
I0528 22:21:57.900894 16530 net.cpp:137] Memory required for data: 3622707400
I0528 22:21:57.900902 16530 layer_factory.hpp:77] Creating layer layer_256_6_scale1
I0528 22:21:57.900910 16530 net.cpp:84] Creating Layer layer_256_6_scale1
I0528 22:21:57.900914 16530 net.cpp:406] layer_256_6_scale1 <- layer_256_6_bn1
I0528 22:21:57.900920 16530 net.cpp:367] layer_256_6_scale1 -> layer_256_6_bn1 (in-place)
I0528 22:21:57.900995 16530 layer_factory.hpp:77] Creating layer layer_256_6_scale1
I0528 22:21:57.901188 16530 net.cpp:122] Setting up layer_256_6_scale1
I0528 22:21:57.901214 16530 net.cpp:129] Top shape: 50 256 14 14 (2508800)
I0528 22:21:57.901229 16530 net.cpp:137] Memory required for data: 3632742600
I0528 22:21:57.901237 16530 layer_factory.hpp:77] Creating layer layer_256_6_relu1
I0528 22:21:57.901243 16530 net.cpp:84] Creating Layer layer_256_6_relu1
I0528 22:21:57.901258 16530 net.cpp:406] layer_256_6_relu1 <- layer_256_6_bn1
I0528 22:21:57.901288 16530 net.cpp:367] layer_256_6_relu1 -> layer_256_6_bn1 (in-place)
I0528 22:21:57.901521 16530 net.cpp:122] Setting up layer_256_6_relu1
I0528 22:21:57.901545 16530 net.cpp:129] Top shape: 50 256 14 14 (2508800)
I0528 22:21:57.901559 16530 net.cpp:137] Memory required for data: 3642777800
I0528 22:21:57.901563 16530 layer_factory.hpp:77] Creating layer layer_256_6_conv1
I0528 22:21:57.901576 16530 net.cpp:84] Creating Layer layer_256_6_conv1
I0528 22:21:57.901581 16530 net.cpp:406] layer_256_6_conv1 <- layer_256_6_bn1
I0528 22:21:57.901589 16530 net.cpp:380] layer_256_6_conv1 -> layer_256_6_conv1
I0528 22:21:57.919338 16530 net.cpp:122] Setting up layer_256_6_conv1
I0528 22:21:57.919358 16530 net.cpp:129] Top shape: 50 256 14 14 (2508800)
I0528 22:21:57.919374 16530 net.cpp:137] Memory required for data: 3652813000
I0528 22:21:57.919380 16530 layer_factory.hpp:77] Creating layer layer_256_6_bn2
I0528 22:21:57.919390 16530 net.cpp:84] Creating Layer layer_256_6_bn2
I0528 22:21:57.919395 16530 net.cpp:406] layer_256_6_bn2 <- layer_256_6_conv1
I0528 22:21:57.919416 16530 net.cpp:367] layer_256_6_bn2 -> layer_256_6_conv1 (in-place)
I0528 22:21:57.919657 16530 net.cpp:122] Setting up layer_256_6_bn2
I0528 22:21:57.919685 16530 net.cpp:129] Top shape: 50 256 14 14 (2508800)
I0528 22:21:57.919708 16530 net.cpp:137] Memory required for data: 3662848200
I0528 22:21:57.919716 16530 layer_factory.hpp:77] Creating layer layer_256_6_scale2
I0528 22:21:57.919726 16530 net.cpp:84] Creating Layer layer_256_6_scale2
I0528 22:21:57.919731 16530 net.cpp:406] layer_256_6_scale2 <- layer_256_6_conv1
I0528 22:21:57.919737 16530 net.cpp:367] layer_256_6_scale2 -> layer_256_6_conv1 (in-place)
I0528 22:21:57.919800 16530 layer_factory.hpp:77] Creating layer layer_256_6_scale2
I0528 22:21:57.919966 16530 net.cpp:122] Setting up layer_256_6_scale2
I0528 22:21:57.919977 16530 net.cpp:129] Top shape: 50 256 14 14 (2508800)
I0528 22:21:57.919992 16530 net.cpp:137] Memory required for data: 3672883400
I0528 22:21:57.920011 16530 layer_factory.hpp:77] Creating layer layer_256_6_relu2
I0528 22:21:57.920017 16530 net.cpp:84] Creating Layer layer_256_6_relu2
I0528 22:21:57.920022 16530 net.cpp:406] layer_256_6_relu2 <- layer_256_6_conv1
I0528 22:21:57.920039 16530 net.cpp:367] layer_256_6_relu2 -> layer_256_6_conv1 (in-place)
I0528 22:21:57.920747 16530 net.cpp:122] Setting up layer_256_6_relu2
I0528 22:21:57.920766 16530 net.cpp:129] Top shape: 50 256 14 14 (2508800)
I0528 22:21:57.920783 16530 net.cpp:137] Memory required for data: 3682918600
I0528 22:21:57.920786 16530 layer_factory.hpp:77] Creating layer layer_256_6_conv2
I0528 22:21:57.920799 16530 net.cpp:84] Creating Layer layer_256_6_conv2
I0528 22:21:57.920804 16530 net.cpp:406] layer_256_6_conv2 <- layer_256_6_conv1
I0528 22:21:57.920814 16530 net.cpp:380] layer_256_6_conv2 -> layer_256_6_conv2
I0528 22:21:57.938094 16530 net.cpp:122] Setting up layer_256_6_conv2
I0528 22:21:57.938130 16530 net.cpp:129] Top shape: 50 256 14 14 (2508800)
I0528 22:21:57.938138 16530 net.cpp:137] Memory required for data: 3692953800
I0528 22:21:57.938144 16530 layer_factory.hpp:77] Creating layer layer_256_6_sum
I0528 22:21:57.938153 16530 net.cpp:84] Creating Layer layer_256_6_sum
I0528 22:21:57.938171 16530 net.cpp:406] layer_256_6_sum <- layer_256_6_conv2
I0528 22:21:57.938177 16530 net.cpp:406] layer_256_6_sum <- layer_256_5_sum_layer_256_5_sum_0_split_1
I0528 22:21:57.938184 16530 net.cpp:380] layer_256_6_sum -> layer_256_6_sum
I0528 22:21:57.938220 16530 net.cpp:122] Setting up layer_256_6_sum
I0528 22:21:57.938228 16530 net.cpp:129] Top shape: 50 256 14 14 (2508800)
I0528 22:21:57.938231 16530 net.cpp:137] Memory required for data: 3702989000
I0528 22:21:57.938235 16530 layer_factory.hpp:77] Creating layer layer_512_1_bn1
I0528 22:21:57.938244 16530 net.cpp:84] Creating Layer layer_512_1_bn1
I0528 22:21:57.938248 16530 net.cpp:406] layer_512_1_bn1 <- layer_256_6_sum
I0528 22:21:57.938254 16530 net.cpp:380] layer_512_1_bn1 -> layer_512_1_bn1
I0528 22:21:57.938513 16530 net.cpp:122] Setting up layer_512_1_bn1
I0528 22:21:57.938535 16530 net.cpp:129] Top shape: 50 256 14 14 (2508800)
I0528 22:21:57.938539 16530 net.cpp:137] Memory required for data: 3713024200
I0528 22:21:57.938560 16530 layer_factory.hpp:77] Creating layer layer_512_1_scale1
I0528 22:21:57.938578 16530 net.cpp:84] Creating Layer layer_512_1_scale1
I0528 22:21:57.938583 16530 net.cpp:406] layer_512_1_scale1 <- layer_512_1_bn1
I0528 22:21:57.938601 16530 net.cpp:367] layer_512_1_scale1 -> layer_512_1_bn1 (in-place)
I0528 22:21:57.938673 16530 layer_factory.hpp:77] Creating layer layer_512_1_scale1
I0528 22:21:57.938880 16530 net.cpp:122] Setting up layer_512_1_scale1
I0528 22:21:57.938891 16530 net.cpp:129] Top shape: 50 256 14 14 (2508800)
I0528 22:21:57.938906 16530 net.cpp:137] Memory required for data: 3723059400
I0528 22:21:57.938913 16530 layer_factory.hpp:77] Creating layer layer_512_1_relu1
I0528 22:21:57.938920 16530 net.cpp:84] Creating Layer layer_512_1_relu1
I0528 22:21:57.938925 16530 net.cpp:406] layer_512_1_relu1 <- layer_512_1_bn1
I0528 22:21:57.938942 16530 net.cpp:367] layer_512_1_relu1 -> layer_512_1_bn1 (in-place)
I0528 22:21:57.939630 16530 net.cpp:122] Setting up layer_512_1_relu1
I0528 22:21:57.939666 16530 net.cpp:129] Top shape: 50 256 14 14 (2508800)
I0528 22:21:57.939677 16530 net.cpp:137] Memory required for data: 3733094600
I0528 22:21:57.939682 16530 layer_factory.hpp:77] Creating layer layer_512_1_bn1_layer_512_1_relu1_0_split
I0528 22:21:57.939688 16530 net.cpp:84] Creating Layer layer_512_1_bn1_layer_512_1_relu1_0_split
I0528 22:21:57.939712 16530 net.cpp:406] layer_512_1_bn1_layer_512_1_relu1_0_split <- layer_512_1_bn1
I0528 22:21:57.939718 16530 net.cpp:380] layer_512_1_bn1_layer_512_1_relu1_0_split -> layer_512_1_bn1_layer_512_1_relu1_0_split_0
I0528 22:21:57.939726 16530 net.cpp:380] layer_512_1_bn1_layer_512_1_relu1_0_split -> layer_512_1_bn1_layer_512_1_relu1_0_split_1
I0528 22:21:57.939779 16530 net.cpp:122] Setting up layer_512_1_bn1_layer_512_1_relu1_0_split
I0528 22:21:57.939787 16530 net.cpp:129] Top shape: 50 256 14 14 (2508800)
I0528 22:21:57.939792 16530 net.cpp:129] Top shape: 50 256 14 14 (2508800)
I0528 22:21:57.939795 16530 net.cpp:137] Memory required for data: 3753165000
I0528 22:21:57.939800 16530 layer_factory.hpp:77] Creating layer layer_512_1_conv1
I0528 22:21:57.939810 16530 net.cpp:84] Creating Layer layer_512_1_conv1
I0528 22:21:57.939815 16530 net.cpp:406] layer_512_1_conv1 <- layer_512_1_bn1_layer_512_1_relu1_0_split_0
I0528 22:21:57.939822 16530 net.cpp:380] layer_512_1_conv1 -> layer_512_1_conv1
I0528 22:21:57.973913 16530 net.cpp:122] Setting up layer_512_1_conv1
I0528 22:21:57.973947 16530 net.cpp:129] Top shape: 50 512 7 7 (1254400)
I0528 22:21:57.973953 16530 net.cpp:137] Memory required for data: 3758182600
I0528 22:21:57.973958 16530 layer_factory.hpp:77] Creating layer layer_512_1_bn2
I0528 22:21:57.973965 16530 net.cpp:84] Creating Layer layer_512_1_bn2
I0528 22:21:57.973970 16530 net.cpp:406] layer_512_1_bn2 <- layer_512_1_conv1
I0528 22:21:57.973994 16530 net.cpp:367] layer_512_1_bn2 -> layer_512_1_conv1 (in-place)
I0528 22:21:57.974269 16530 net.cpp:122] Setting up layer_512_1_bn2
I0528 22:21:57.974284 16530 net.cpp:129] Top shape: 50 512 7 7 (1254400)
I0528 22:21:57.974300 16530 net.cpp:137] Memory required for data: 3763200200
I0528 22:21:57.974308 16530 layer_factory.hpp:77] Creating layer layer_512_1_scale2
I0528 22:21:57.974329 16530 net.cpp:84] Creating Layer layer_512_1_scale2
I0528 22:21:57.974350 16530 net.cpp:406] layer_512_1_scale2 <- layer_512_1_conv1
I0528 22:21:57.974357 16530 net.cpp:367] layer_512_1_scale2 -> layer_512_1_conv1 (in-place)
I0528 22:21:57.974406 16530 layer_factory.hpp:77] Creating layer layer_512_1_scale2
I0528 22:21:57.974602 16530 net.cpp:122] Setting up layer_512_1_scale2
I0528 22:21:57.974614 16530 net.cpp:129] Top shape: 50 512 7 7 (1254400)
I0528 22:21:57.974628 16530 net.cpp:137] Memory required for data: 3768217800
I0528 22:21:57.974635 16530 layer_factory.hpp:77] Creating layer layer_512_1_relu2
I0528 22:21:57.974642 16530 net.cpp:84] Creating Layer layer_512_1_relu2
I0528 22:21:57.974647 16530 net.cpp:406] layer_512_1_relu2 <- layer_512_1_conv1
I0528 22:21:57.974653 16530 net.cpp:367] layer_512_1_relu2 -> layer_512_1_conv1 (in-place)
I0528 22:21:57.974875 16530 net.cpp:122] Setting up layer_512_1_relu2
I0528 22:21:57.974889 16530 net.cpp:129] Top shape: 50 512 7 7 (1254400)
I0528 22:21:57.974905 16530 net.cpp:137] Memory required for data: 3773235400
I0528 22:21:57.974908 16530 layer_factory.hpp:77] Creating layer layer_512_1_conv2
I0528 22:21:57.974942 16530 net.cpp:84] Creating Layer layer_512_1_conv2
I0528 22:21:57.974948 16530 net.cpp:406] layer_512_1_conv2 <- layer_512_1_conv1
I0528 22:21:57.974957 16530 net.cpp:380] layer_512_1_conv2 -> layer_512_1_conv2
I0528 22:21:58.043330 16530 net.cpp:122] Setting up layer_512_1_conv2
I0528 22:21:58.043375 16530 net.cpp:129] Top shape: 50 512 7 7 (1254400)
I0528 22:21:58.043380 16530 net.cpp:137] Memory required for data: 3778253000
I0528 22:21:58.043393 16530 layer_factory.hpp:77] Creating layer layer_512_1_conv_expand
I0528 22:21:58.043426 16530 net.cpp:84] Creating Layer layer_512_1_conv_expand
I0528 22:21:58.043440 16530 net.cpp:406] layer_512_1_conv_expand <- layer_512_1_bn1_layer_512_1_relu1_0_split_1
I0528 22:21:58.043457 16530 net.cpp:380] layer_512_1_conv_expand -> layer_512_1_conv_expand
I0528 22:21:58.049031 16530 net.cpp:122] Setting up layer_512_1_conv_expand
I0528 22:21:58.049062 16530 net.cpp:129] Top shape: 50 512 7 7 (1254400)
I0528 22:21:58.049067 16530 net.cpp:137] Memory required for data: 3783270600
I0528 22:21:58.049074 16530 layer_factory.hpp:77] Creating layer layer_512_1_sum
I0528 22:21:58.049083 16530 net.cpp:84] Creating Layer layer_512_1_sum
I0528 22:21:58.049088 16530 net.cpp:406] layer_512_1_sum <- layer_512_1_conv_expand
I0528 22:21:58.049108 16530 net.cpp:406] layer_512_1_sum <- layer_512_1_conv2
I0528 22:21:58.049120 16530 net.cpp:380] layer_512_1_sum -> layer_512_1_sum
I0528 22:21:58.049180 16530 net.cpp:122] Setting up layer_512_1_sum
I0528 22:21:58.049188 16530 net.cpp:129] Top shape: 50 512 7 7 (1254400)
I0528 22:21:58.049192 16530 net.cpp:137] Memory required for data: 3788288200
I0528 22:21:58.049196 16530 layer_factory.hpp:77] Creating layer layer_512_1_sum_layer_512_1_sum_0_split
I0528 22:21:58.049207 16530 net.cpp:84] Creating Layer layer_512_1_sum_layer_512_1_sum_0_split
I0528 22:21:58.049213 16530 net.cpp:406] layer_512_1_sum_layer_512_1_sum_0_split <- layer_512_1_sum
I0528 22:21:58.049221 16530 net.cpp:380] layer_512_1_sum_layer_512_1_sum_0_split -> layer_512_1_sum_layer_512_1_sum_0_split_0
I0528 22:21:58.049228 16530 net.cpp:380] layer_512_1_sum_layer_512_1_sum_0_split -> layer_512_1_sum_layer_512_1_sum_0_split_1
I0528 22:21:58.049274 16530 net.cpp:122] Setting up layer_512_1_sum_layer_512_1_sum_0_split
I0528 22:21:58.049296 16530 net.cpp:129] Top shape: 50 512 7 7 (1254400)
I0528 22:21:58.049301 16530 net.cpp:129] Top shape: 50 512 7 7 (1254400)
I0528 22:21:58.049305 16530 net.cpp:137] Memory required for data: 3798323400
I0528 22:21:58.049309 16530 layer_factory.hpp:77] Creating layer layer_512_2_bn1
I0528 22:21:58.049335 16530 net.cpp:84] Creating Layer layer_512_2_bn1
I0528 22:21:58.049340 16530 net.cpp:406] layer_512_2_bn1 <- layer_512_1_sum_layer_512_1_sum_0_split_0
I0528 22:21:58.049348 16530 net.cpp:380] layer_512_2_bn1 -> layer_512_2_bn1
I0528 22:21:58.049721 16530 net.cpp:122] Setting up layer_512_2_bn1
I0528 22:21:58.049742 16530 net.cpp:129] Top shape: 50 512 7 7 (1254400)
I0528 22:21:58.049757 16530 net.cpp:137] Memory required for data: 3803341000
I0528 22:21:58.049765 16530 layer_factory.hpp:77] Creating layer layer_512_2_scale1
I0528 22:21:58.049773 16530 net.cpp:84] Creating Layer layer_512_2_scale1
I0528 22:21:58.049778 16530 net.cpp:406] layer_512_2_scale1 <- layer_512_2_bn1
I0528 22:21:58.049796 16530 net.cpp:367] layer_512_2_scale1 -> layer_512_2_bn1 (in-place)
I0528 22:21:58.049860 16530 layer_factory.hpp:77] Creating layer layer_512_2_scale1
I0528 22:21:58.050051 16530 net.cpp:122] Setting up layer_512_2_scale1
I0528 22:21:58.050062 16530 net.cpp:129] Top shape: 50 512 7 7 (1254400)
I0528 22:21:58.050077 16530 net.cpp:137] Memory required for data: 3808358600
I0528 22:21:58.050096 16530 layer_factory.hpp:77] Creating layer layer_512_2_relu1
I0528 22:21:58.050127 16530 net.cpp:84] Creating Layer layer_512_2_relu1
I0528 22:21:58.050150 16530 net.cpp:406] layer_512_2_relu1 <- layer_512_2_bn1
I0528 22:21:58.050159 16530 net.cpp:367] layer_512_2_relu1 -> layer_512_2_bn1 (in-place)
I0528 22:21:58.050431 16530 net.cpp:122] Setting up layer_512_2_relu1
I0528 22:21:58.050456 16530 net.cpp:129] Top shape: 50 512 7 7 (1254400)
I0528 22:21:58.050460 16530 net.cpp:137] Memory required for data: 3813376200
I0528 22:21:58.050474 16530 layer_factory.hpp:77] Creating layer layer_512_2_conv1
I0528 22:21:58.050487 16530 net.cpp:84] Creating Layer layer_512_2_conv1
I0528 22:21:58.050514 16530 net.cpp:406] layer_512_2_conv1 <- layer_512_2_bn1
I0528 22:21:58.050524 16530 net.cpp:380] layer_512_2_conv1 -> layer_512_2_conv1
I0528 22:21:58.116076 16530 net.cpp:122] Setting up layer_512_2_conv1
I0528 22:21:58.116109 16530 net.cpp:129] Top shape: 50 512 7 7 (1254400)
I0528 22:21:58.116120 16530 net.cpp:137] Memory required for data: 3818393800
I0528 22:21:58.116133 16530 layer_factory.hpp:77] Creating layer layer_512_2_bn2
I0528 22:21:58.116153 16530 net.cpp:84] Creating Layer layer_512_2_bn2
I0528 22:21:58.116159 16530 net.cpp:406] layer_512_2_bn2 <- layer_512_2_conv1
I0528 22:21:58.116165 16530 net.cpp:367] layer_512_2_bn2 -> layer_512_2_conv1 (in-place)
I0528 22:21:58.116416 16530 net.cpp:122] Setting up layer_512_2_bn2
I0528 22:21:58.116428 16530 net.cpp:129] Top shape: 50 512 7 7 (1254400)
I0528 22:21:58.116443 16530 net.cpp:137] Memory required for data: 3823411400
I0528 22:21:58.116464 16530 layer_factory.hpp:77] Creating layer layer_512_2_scale2
I0528 22:21:58.116473 16530 net.cpp:84] Creating Layer layer_512_2_scale2
I0528 22:21:58.116478 16530 net.cpp:406] layer_512_2_scale2 <- layer_512_2_conv1
I0528 22:21:58.116485 16530 net.cpp:367] layer_512_2_scale2 -> layer_512_2_conv1 (in-place)
I0528 22:21:58.116545 16530 layer_factory.hpp:77] Creating layer layer_512_2_scale2
I0528 22:21:58.116709 16530 net.cpp:122] Setting up layer_512_2_scale2
I0528 22:21:58.116732 16530 net.cpp:129] Top shape: 50 512 7 7 (1254400)
I0528 22:21:58.116747 16530 net.cpp:137] Memory required for data: 3828429000
I0528 22:21:58.116753 16530 layer_factory.hpp:77] Creating layer layer_512_2_relu2
I0528 22:21:58.116771 16530 net.cpp:84] Creating Layer layer_512_2_relu2
I0528 22:21:58.116776 16530 net.cpp:406] layer_512_2_relu2 <- layer_512_2_conv1
I0528 22:21:58.116792 16530 net.cpp:367] layer_512_2_relu2 -> layer_512_2_conv1 (in-place)
I0528 22:21:58.117553 16530 net.cpp:122] Setting up layer_512_2_relu2
I0528 22:21:58.117583 16530 net.cpp:129] Top shape: 50 512 7 7 (1254400)
I0528 22:21:58.117588 16530 net.cpp:137] Memory required for data: 3833446600
I0528 22:21:58.117594 16530 layer_factory.hpp:77] Creating layer layer_512_2_conv2
I0528 22:21:58.117606 16530 net.cpp:84] Creating Layer layer_512_2_conv2
I0528 22:21:58.117630 16530 net.cpp:406] layer_512_2_conv2 <- layer_512_2_conv1
I0528 22:21:58.117640 16530 net.cpp:380] layer_512_2_conv2 -> layer_512_2_conv2
I0528 22:21:58.183189 16530 net.cpp:122] Setting up layer_512_2_conv2
I0528 22:21:58.183223 16530 net.cpp:129] Top shape: 50 512 7 7 (1254400)
I0528 22:21:58.183228 16530 net.cpp:137] Memory required for data: 3838464200
I0528 22:21:58.183233 16530 layer_factory.hpp:77] Creating layer layer_512_2_sum
I0528 22:21:58.183243 16530 net.cpp:84] Creating Layer layer_512_2_sum
I0528 22:21:58.183248 16530 net.cpp:406] layer_512_2_sum <- layer_512_2_conv2
I0528 22:21:58.183269 16530 net.cpp:406] layer_512_2_sum <- layer_512_1_sum_layer_512_1_sum_0_split_1
I0528 22:21:58.183275 16530 net.cpp:380] layer_512_2_sum -> layer_512_2_sum
I0528 22:21:58.183315 16530 net.cpp:122] Setting up layer_512_2_sum
I0528 22:21:58.183323 16530 net.cpp:129] Top shape: 50 512 7 7 (1254400)
I0528 22:21:58.183326 16530 net.cpp:137] Memory required for data: 3843481800
I0528 22:21:58.183331 16530 layer_factory.hpp:77] Creating layer layer_512_2_sum_layer_512_2_sum_0_split
I0528 22:21:58.183338 16530 net.cpp:84] Creating Layer layer_512_2_sum_layer_512_2_sum_0_split
I0528 22:21:58.183342 16530 net.cpp:406] layer_512_2_sum_layer_512_2_sum_0_split <- layer_512_2_sum
I0528 22:21:58.183349 16530 net.cpp:380] layer_512_2_sum_layer_512_2_sum_0_split -> layer_512_2_sum_layer_512_2_sum_0_split_0
I0528 22:21:58.183357 16530 net.cpp:380] layer_512_2_sum_layer_512_2_sum_0_split -> layer_512_2_sum_layer_512_2_sum_0_split_1
I0528 22:21:58.183400 16530 net.cpp:122] Setting up layer_512_2_sum_layer_512_2_sum_0_split
I0528 22:21:58.183410 16530 net.cpp:129] Top shape: 50 512 7 7 (1254400)
I0528 22:21:58.183415 16530 net.cpp:129] Top shape: 50 512 7 7 (1254400)
I0528 22:21:58.183418 16530 net.cpp:137] Memory required for data: 3853517000
I0528 22:21:58.183423 16530 layer_factory.hpp:77] Creating layer layer_512_3_bn1
I0528 22:21:58.183429 16530 net.cpp:84] Creating Layer layer_512_3_bn1
I0528 22:21:58.183432 16530 net.cpp:406] layer_512_3_bn1 <- layer_512_2_sum_layer_512_2_sum_0_split_0
I0528 22:21:58.183451 16530 net.cpp:380] layer_512_3_bn1 -> layer_512_3_bn1
I0528 22:21:58.183737 16530 net.cpp:122] Setting up layer_512_3_bn1
I0528 22:21:58.183758 16530 net.cpp:129] Top shape: 50 512 7 7 (1254400)
I0528 22:21:58.183773 16530 net.cpp:137] Memory required for data: 3858534600
I0528 22:21:58.183794 16530 layer_factory.hpp:77] Creating layer layer_512_3_scale1
I0528 22:21:58.183814 16530 net.cpp:84] Creating Layer layer_512_3_scale1
I0528 22:21:58.183818 16530 net.cpp:406] layer_512_3_scale1 <- layer_512_3_bn1
I0528 22:21:58.183837 16530 net.cpp:367] layer_512_3_scale1 -> layer_512_3_bn1 (in-place)
I0528 22:21:58.183887 16530 layer_factory.hpp:77] Creating layer layer_512_3_scale1
I0528 22:21:58.184110 16530 net.cpp:122] Setting up layer_512_3_scale1
I0528 22:21:58.184154 16530 net.cpp:129] Top shape: 50 512 7 7 (1254400)
I0528 22:21:58.184159 16530 net.cpp:137] Memory required for data: 3863552200
I0528 22:21:58.184175 16530 layer_factory.hpp:77] Creating layer layer_512_3_relu1
I0528 22:21:58.184181 16530 net.cpp:84] Creating Layer layer_512_3_relu1
I0528 22:21:58.184204 16530 net.cpp:406] layer_512_3_relu1 <- layer_512_3_bn1
I0528 22:21:58.184222 16530 net.cpp:367] layer_512_3_relu1 -> layer_512_3_bn1 (in-place)
I0528 22:21:58.184489 16530 net.cpp:122] Setting up layer_512_3_relu1
I0528 22:21:58.184502 16530 net.cpp:129] Top shape: 50 512 7 7 (1254400)
I0528 22:21:58.184518 16530 net.cpp:137] Memory required for data: 3868569800
I0528 22:21:58.184533 16530 layer_factory.hpp:77] Creating layer layer_512_3_conv1
I0528 22:21:58.184556 16530 net.cpp:84] Creating Layer layer_512_3_conv1
I0528 22:21:58.184561 16530 net.cpp:406] layer_512_3_conv1 <- layer_512_3_bn1
I0528 22:21:58.184571 16530 net.cpp:380] layer_512_3_conv1 -> layer_512_3_conv1
I0528 22:21:58.250109 16530 net.cpp:122] Setting up layer_512_3_conv1
I0528 22:21:58.250147 16530 net.cpp:129] Top shape: 50 512 7 7 (1254400)
I0528 22:21:58.250154 16530 net.cpp:137] Memory required for data: 3873587400
I0528 22:21:58.250159 16530 layer_factory.hpp:77] Creating layer layer_512_3_bn2
I0528 22:21:58.250172 16530 net.cpp:84] Creating Layer layer_512_3_bn2
I0528 22:21:58.250193 16530 net.cpp:406] layer_512_3_bn2 <- layer_512_3_conv1
I0528 22:21:58.250201 16530 net.cpp:367] layer_512_3_bn2 -> layer_512_3_conv1 (in-place)
I0528 22:21:58.250459 16530 net.cpp:122] Setting up layer_512_3_bn2
I0528 22:21:58.250470 16530 net.cpp:129] Top shape: 50 512 7 7 (1254400)
I0528 22:21:58.250485 16530 net.cpp:137] Memory required for data: 3878605000
I0528 22:21:58.250505 16530 layer_factory.hpp:77] Creating layer layer_512_3_scale2
I0528 22:21:58.250514 16530 net.cpp:84] Creating Layer layer_512_3_scale2
I0528 22:21:58.250529 16530 net.cpp:406] layer_512_3_scale2 <- layer_512_3_conv1
I0528 22:21:58.250535 16530 net.cpp:367] layer_512_3_scale2 -> layer_512_3_conv1 (in-place)
I0528 22:21:58.250598 16530 layer_factory.hpp:77] Creating layer layer_512_3_scale2
I0528 22:21:58.250766 16530 net.cpp:122] Setting up layer_512_3_scale2
I0528 22:21:58.250789 16530 net.cpp:129] Top shape: 50 512 7 7 (1254400)
I0528 22:21:58.250804 16530 net.cpp:137] Memory required for data: 3883622600
I0528 22:21:58.250811 16530 layer_factory.hpp:77] Creating layer layer_512_3_relu2
I0528 22:21:58.250828 16530 net.cpp:84] Creating Layer layer_512_3_relu2
I0528 22:21:58.250833 16530 net.cpp:406] layer_512_3_relu2 <- layer_512_3_conv1
I0528 22:21:58.250865 16530 net.cpp:367] layer_512_3_relu2 -> layer_512_3_conv1 (in-place)
I0528 22:21:58.251109 16530 net.cpp:122] Setting up layer_512_3_relu2
I0528 22:21:58.251155 16530 net.cpp:129] Top shape: 50 512 7 7 (1254400)
I0528 22:21:58.251173 16530 net.cpp:137] Memory required for data: 3888640200
I0528 22:21:58.251176 16530 layer_factory.hpp:77] Creating layer layer_512_3_conv2
I0528 22:21:58.251201 16530 net.cpp:84] Creating Layer layer_512_3_conv2
I0528 22:21:58.251217 16530 net.cpp:406] layer_512_3_conv2 <- layer_512_3_conv1
I0528 22:21:58.251242 16530 net.cpp:380] layer_512_3_conv2 -> layer_512_3_conv2
I0528 22:21:58.317234 16530 net.cpp:122] Setting up layer_512_3_conv2
I0528 22:21:58.317266 16530 net.cpp:129] Top shape: 50 512 7 7 (1254400)
I0528 22:21:58.317282 16530 net.cpp:137] Memory required for data: 3893657800
I0528 22:21:58.317315 16530 layer_factory.hpp:77] Creating layer layer_512_3_sum
I0528 22:21:58.317323 16530 net.cpp:84] Creating Layer layer_512_3_sum
I0528 22:21:58.317328 16530 net.cpp:406] layer_512_3_sum <- layer_512_3_conv2
I0528 22:21:58.317334 16530 net.cpp:406] layer_512_3_sum <- layer_512_2_sum_layer_512_2_sum_0_split_1
I0528 22:21:58.317342 16530 net.cpp:380] layer_512_3_sum -> layer_512_3_sum
I0528 22:21:58.317379 16530 net.cpp:122] Setting up layer_512_3_sum
I0528 22:21:58.317390 16530 net.cpp:129] Top shape: 50 512 7 7 (1254400)
I0528 22:21:58.317394 16530 net.cpp:137] Memory required for data: 3898675400
I0528 22:21:58.317397 16530 layer_factory.hpp:77] Creating layer last_bn
I0528 22:21:58.317404 16530 net.cpp:84] Creating Layer last_bn
I0528 22:21:58.317409 16530 net.cpp:406] last_bn <- layer_512_3_sum
I0528 22:21:58.317420 16530 net.cpp:367] last_bn -> layer_512_3_sum (in-place)
I0528 22:21:58.317680 16530 net.cpp:122] Setting up last_bn
I0528 22:21:58.317692 16530 net.cpp:129] Top shape: 50 512 7 7 (1254400)
I0528 22:21:58.317706 16530 net.cpp:137] Memory required for data: 3903693000
I0528 22:21:58.317714 16530 layer_factory.hpp:77] Creating layer last_scale
I0528 22:21:58.317736 16530 net.cpp:84] Creating Layer last_scale
I0528 22:21:58.317761 16530 net.cpp:406] last_scale <- layer_512_3_sum
I0528 22:21:58.317769 16530 net.cpp:367] last_scale -> layer_512_3_sum (in-place)
I0528 22:21:58.317819 16530 layer_factory.hpp:77] Creating layer last_scale
I0528 22:21:58.318050 16530 net.cpp:122] Setting up last_scale
I0528 22:21:58.318063 16530 net.cpp:129] Top shape: 50 512 7 7 (1254400)
I0528 22:21:58.318078 16530 net.cpp:137] Memory required for data: 3908710600
I0528 22:21:58.318084 16530 layer_factory.hpp:77] Creating layer last_relu
I0528 22:21:58.318099 16530 net.cpp:84] Creating Layer last_relu
I0528 22:21:58.318123 16530 net.cpp:406] last_relu <- layer_512_3_sum
I0528 22:21:58.318161 16530 net.cpp:367] last_relu -> layer_512_3_sum (in-place)
I0528 22:21:58.318894 16530 net.cpp:122] Setting up last_relu
I0528 22:21:58.318910 16530 net.cpp:129] Top shape: 50 512 7 7 (1254400)
I0528 22:21:58.318927 16530 net.cpp:137] Memory required for data: 3913728200
I0528 22:21:58.318930 16530 layer_factory.hpp:77] Creating layer global_pool
I0528 22:21:58.318938 16530 net.cpp:84] Creating Layer global_pool
I0528 22:21:58.318943 16530 net.cpp:406] global_pool <- layer_512_3_sum
I0528 22:21:58.318956 16530 net.cpp:380] global_pool -> global_pool
I0528 22:21:58.319244 16530 net.cpp:122] Setting up global_pool
I0528 22:21:58.319262 16530 net.cpp:129] Top shape: 50 512 1 1 (25600)
I0528 22:21:58.319278 16530 net.cpp:137] Memory required for data: 3913830600
I0528 22:21:58.319293 16530 layer_factory.hpp:77] Creating layer score
I0528 22:21:58.319306 16530 net.cpp:84] Creating Layer score
I0528 22:21:58.319326 16530 net.cpp:406] score <- global_pool
I0528 22:21:58.319339 16530 net.cpp:380] score -> score
I0528 22:21:58.319579 16530 net.cpp:122] Setting up score
I0528 22:21:58.319591 16530 net.cpp:129] Top shape: 50 8 (400)
I0528 22:21:58.319605 16530 net.cpp:137] Memory required for data: 3913832200
I0528 22:21:58.319623 16530 layer_factory.hpp:77] Creating layer loss
I0528 22:21:58.319633 16530 net.cpp:84] Creating Layer loss
I0528 22:21:58.319658 16530 net.cpp:406] loss <- score
I0528 22:21:58.319674 16530 net.cpp:406] loss <- label
I0528 22:21:58.319682 16530 net.cpp:380] loss -> loss
I0528 22:21:58.319700 16530 layer_factory.hpp:77] Creating layer loss
…
I0528 22:21:58.326477 16530 net.cpp:294] The NetState phase (1) differed from the phase (0) specified by a rule in layer data
I0528 22:21:58.327514 16530 net.cpp:51] Initializing net from parameters: 
name: "Pre-ResNet-34"
state {
  phase: TEST
}
layer {
  name: "data"
  type: "Data"
  top: "data"
  top: "label"
  include {
    phase: TEST
  }
  transform_param {
    mirror: false
    crop_size: 224
    mean_file: "/storage/Test_fold_is_01/mean.binaryproto"
  }
  data_param {
    source: "/storage/Test_fold_is_01/age_val_lmdb"
    batch_size: 20
    backend: LMDB
  }
}
layer {
  name: "data_bn"
  type: "BatchNorm"
  bottom: "data"
  top: "data_bn"
  param {
    lr_mult: 0
    decay_mult: 0
  }
  param {
    lr_mult: 0
    decay_mult: 0
  }
  param {
    lr_mult: 0
    decay_mult: 0
  }
}
layer {
  name: "data_scale"
  type: "Scale"
  bottom: "data_bn"
  top: "data_bn"
  param {
    lr_mult: 1
    decay_mult: 1
  }
  param {
    lr_mult: 2
    decay_mult: 1
  }
  scale_param {
    bias_term: true
  }
}
layer {
  name: "conv1"
  type: "Convolution"
  bottom: "data_bn"
  top: "conv1"
  param {
    lr_mult: 1
    decay_mult: 1
  }
  param {
    lr_mult: 2
    decay_mult: 1
  }
  convolution_param {
    num_output: 64
    pad: 3
    kernel_size: 7
    stride: 2
    weight_filler {
      type: "msra"
      variance_norm: FAN_OUT
    }
    bias_filler {
      type: "constant"
      value: 0
    }
  }
}
layer {
  name: "conv1_bn"
  type: "BatchNorm"
  bottom: "conv1"
  top: "conv1"
  param {
    lr_mult: 0
    decay_mult: 0
  }
  param {
    lr_mult: 0
    decay_mult: 0
  }
  param {
    lr_mult: 0
    decay_mult: 0
  }
}
layer {
  name: "conv1_scale"
  type: "Scale"
  bottom: "conv1"
  top: "conv1"
  param {
    lr_mult: 1
    decay_mult: 1
  }
  param {
    lr_mult: 2
    decay_mult: 1
  }
  scale_param {
    bias_term: true
  }
}
layer {
  name: "conv1_relu"
  type: "ReLU"
  bottom: "conv1"
  top: "conv1"
}
layer {
  name: "conv1_pool"
  type: "Pooling"
  bottom: "conv1"
  top: "conv1_pool"
  pooling_param {
    kernel_size: 3
    stride: 2
  }
}
layer {
  name: "layer_64_1_conv1"
  type: "Convolution"
  bottom: "conv1_pool"
  top: "layer_64_1_conv1"
  param {
    lr_mult: 1
    decay_mult: 1
  }
  convolution_param {
    num_output: 64
    bias_term: false
    pad: 1
    kernel_size: 3
    stride: 1
    weight_filler {
      type: "msra"
    }
    bias_filler {
      type: "constant"
      value: 0
    }
  }
}
layer {
  name: "layer_64_1_bn2"
  type: "BatchNorm"
  bottom: "layer_64_1_conv1"
  top: "layer_64_1_conv1"
  param {
    lr_mult: 0
    decay_mult: 0
  }
  param {
    lr_mult: 0
    decay_mult: 0
  }
  param {
    lr_mult: 0
    decay_mult: 0
  }
}
layer {
  name: "layer_64_1_scale2"
  type: "Scale"
  bottom: "layer_64_1_conv1"
  top: "layer_64_1_conv1"
  param {
    lr_mult: 1
    decay_mult: 1
  }
  param {
    lr_mult: 2
    decay_mult: 1
  }
  scale_param {
    bias_term: true
  }
}
layer {
  name: "layer_64_1_relu2"
  type: "ReLU"
  bottom: "layer_64_1_conv1"
  top: "layer_64_1_conv1"
}
layer {
  name: "layer_64_1_conv2"
  type: "Convolution"
  bottom: "layer_64_1_conv1"
  top: "layer_64_1_conv2"
  param {
    lr_mult: 1
    decay_mult: 1
  }
  convolution_param {
    num_output: 64
    bias_term: false
    pad: 1
    kernel_size: 3
    stride: 1
    weight_filler {
      type: "msra"
    }
    bias_filler {
      type: "constant"
      value: 0
    }
  }
}
layer {
  name: "layer_64_1_sum"
  type: "Eltwise"
  bottom: "layer_64_1_conv2"
  bottom: "conv1_pool"
  top: "layer_64_1_sum"
}
layer {
  name: "layer_64_2_bn1"
  type: "BatchNorm"
  bottom: "layer_64_1_sum"
  top: "layer_64_2_bn1"
  param {
    lr_mult: 0
    decay_mult: 0
  }
  param {
    lr_mult: 0
    decay_mult: 0
  }
  param {
    lr_mult: 0
    decay_mult: 0
  }
}
layer {
  name: "layer_64_2_scale1"
  type: "Scale"
  bottom: "layer_64_2_bn1"
  top: "layer_64_2_bn1"
  param {
    lr_mult: 1
    decay_mult: 1
  }
  param {
    lr_mult: 2
    decay_mult: 1
  }
  scale_param {
    bias_term: true
  }
}
layer {
  name: "layer_64_2_relu1"
  type: "ReLU"
  bottom: "layer_64_2_bn1"
  top: "layer_64_2_bn1"
}
layer {
  name: "layer_64_2_conv1"
  type: "Convolution"
  bottom: "layer_64_2_bn1"
  top: "layer_64_2_conv1"
  param {
    lr_mult: 1
    decay_mult: 1
  }
  convolution_param {
    num_output: 64
    bias_term: false
    pad: 1
    kernel_size: 3
    stride: 1
    weight_filler {
      type: "msra"
    }
    bias_filler {
      type: "constant"
      value: 0
    }
  }
}
layer {
  name: "layer_64_2_bn2"
  type: "BatchNorm"
  bottom: "layer_64_2_conv1"
  top: "layer_64_2_conv1"
  param {
    lr_mult: 0
    decay_mult: 0
  }
  param {
    lr_mult: 0
    decay_mult: 0
  }
  param {
    lr_mult: 0
    decay_mult: 0
  }
}
layer {
  name: "layer_64_2_scale2"
  type: "Scale"
  bottom: "layer_64_2_conv1"
  top: "layer_64_2_conv1"
  param {
    lr_mult: 1
    decay_mult: 1
  }
  param {
    lr_mult: 2
    decay_mult: 1
  }
  scale_param {
    bias_term: true
  }
}
layer {
  name: "layer_64_2_relu2"
  type: "ReLU"
  bottom: "layer_64_2_conv1"
  top: "layer_64_2_conv1"
}
layer {
  name: "layer_64_2_conv2"
  type: "Convolution"
  bottom: "layer_64_2_conv1"
  top: "layer_64_2_conv2"
  param {
    lr_mult: 1
    decay_mult: 1
  }
  convolution_param {
    num_output: 64
    bias_term: false
    pad: 1
    kernel_size: 3
    stride: 1
    weight_filler {
      type: "msra"
    }
    bias_filler {
      type: "constant"
      value: 0
    }
  }
}
layer {
  name: "layer_64_2_sum"
  type: "Eltwise"
  bottom: "layer_64_2_conv2"
  bottom: "layer_64_1_sum"
  top: "layer_64_2_sum"
}
layer {
  name: "layer_64_3_bn1"
  type: "BatchNorm"
  bottom: "layer_64_2_sum"
  top: "layer_64_3_bn1"
  param {
    lr_mult: 0
    decay_mult: 0
  }
  param {
    lr_mult: 0
    decay_mult: 0
  }
  param {
    lr_mult: 0
    decay_mult: 0
  }
}
layer {
  name: "layer_64_3_scale1"
  type: "Scale"
  bottom: "layer_64_3_bn1"
  top: "layer_64_3_bn1"
  param {
    lr_mult: 1
    decay_mult: 1
  }
  param {
    lr_mult: 2
    decay_mult: 1
  }
  scale_param {
    bias_term: true
  }
}
layer {
  name: "layer_64_3_relu1"
  type: "ReLU"
  bottom: "layer_64_3_bn1"
  top: "layer_64_3_bn1"
}
layer {
  name: "layer_64_3_conv1"
  type: "Convolution"
  bottom: "layer_64_3_bn1"
  top: "layer_64_3_conv1"
  param {
    lr_mult: 1
    decay_mult: 1
  }
  convolution_param {
    num_output: 64
    bias_term: false
    pad: 1
    kernel_size: 3
    stride: 1
    weight_filler {
      type: "msra"
    }
    bias_filler {
      type: "constant"
      value: 0
    }
  }
}
layer {
  name: "layer_64_3_bn2"
  type: "BatchNorm"
  bottom: "layer_64_3_conv1"
  top: "layer_64_3_conv1"
  param {
    lr_mult: 0
    decay_mult: 0
  }
  param {
    lr_mult: 0
    decay_mult: 0
  }
  param {
    lr_mult: 0
    decay_mult: 0
  }
}
layer {
  name: "layer_64_3_scale2"
  type: "Scale"
  bottom: "layer_64_3_conv1"
  top: "layer_64_3_conv1"
  param {
    lr_mult: 1
    decay_mult: 1
  }
  param {
    lr_mult: 2
    decay_mult: 1
  }
  scale_param {
    bias_term: true
  }
}
layer {
  name: "layer_64_3_relu2"
  type: "ReLU"
  bottom: "layer_64_3_conv1"
  top: "layer_64_3_conv1"
}
layer {
  name: "layer_64_3_conv2"
  type: "Convolution"
  bottom: "layer_64_3_conv1"
  top: "layer_64_3_conv2"
  param {
    lr_mult: 1
    decay_mult: 1
  }
  convolution_param {
    num_output: 64
    bias_term: false
    pad: 1
    kernel_size: 3
    stride: 1
    weight_filler {
      type: "msra"
    }
    bias_filler {
      type: "constant"
      value: 0
    }
  }
}
layer {
  name: "layer_64_3_sum"
  type: "Eltwise"
  bottom: "layer_64_3_conv2"
  bottom: "layer_64_2_sum"
  top: "layer_64_3_sum"
}
layer {
  name: "layer_128_1_bn1"
  type: "BatchNorm"
  bottom: "layer_64_3_sum"
  top: "layer_128_1_bn1"
  param {
    lr_mult: 0
    decay_mult: 0
  }
  param {
    lr_mult: 0
    decay_mult: 0
  }
  param {
    lr_mult: 0
    decay_mult: 0
  }
}
layer {
  name: "layer_128_1_scale1"
  type: "Scale"
  bottom: "layer_128_1_bn1"
  top: "layer_128_1_bn1"
  param {
    lr_mult: 1
    decay_mult: 1
  }
  param {
    lr_mult: 2
    decay_mult: 1
  }
  scale_param {
    bias_term: true
  }
}
layer {
  name: "layer_128_1_relu1"
  type: "ReLU"
  bottom: "layer_128_1_bn1"
  top: "layer_128_1_bn1"
}
layer {
  name: "layer_128_1_conv1"
  type: "Convolution"
  bottom: "layer_128_1_bn1"
  top: "layer_128_1_conv1"
  param {
    lr_mult: 1
    decay_mult: 1
  }
  convolution_param {
    num_output: 128
    bias_term: false
    pad: 1
    kernel_size: 3
    stride: 2
    weight_filler {
      type: "msra"
    }
    bias_filler {
      type: "constant"
      value: 0
    }
  }
}
layer {
  name: "layer_128_1_bn2"
  type: "BatchNorm"
  bottom: "layer_128_1_conv1"
  top: "layer_128_1_conv1"
  param {
    lr_mult: 0
    decay_mult: 0
  }
  param {
    lr_mult: 0
    decay_mult: 0
  }
  param {
    lr_mult: 0
    decay_mult: 0
  }
}
layer {
  name: "layer_128_1_scale2"
  type: "Scale"
  bottom: "layer_128_1_conv1"
  top: "layer_128_1_conv1"
  param {
    lr_mult: 1
    decay_mult: 1
  }
  param {
    lr_mult: 2
    decay_mult: 1
  }
  scale_param {
    bias_term: true
  }
}
layer {
  name: "layer_128_1_relu2"
  type: "ReLU"
  bottom: "layer_128_1_conv1"
  top: "layer_128_1_conv1"
}
layer {
  name: "layer_128_1_conv2"
  type: "Convolution"
  bottom: "layer_128_1_conv1"
  top: "layer_128_1_conv2"
  param {
    lr_mult: 1
    decay_mult: 1
  }
  convolution_param {
    num_output: 128
    bias_term: false
    pad: 1
    kernel_size: 3
    stride: 1
    weight_filler {
      type: "msra"
    }
    bias_filler {
      type: "constant"
      value: 0
    }
  }
}
layer {
  name: "layer_128_1_conv_expand"
  type: "Convolution"
  bottom: "layer_128_1_bn1"
  top: "layer_128_1_conv_expand"
  param {
    lr_mult: 1
    decay_mult: 1
  }
  convolution_param {
    num_output: 128
    bias_term: false
    pad: 0
    kernel_size: 1
    stride: 2
    weight_filler {
      type: "msra"
    }
    bias_filler {
      type: "constant"
      value: 0
    }
  }
}
layer {
  name: "layer_128_1_sum"
  type: "Eltwise"
  bottom: "layer_128_1_conv_expand"
  bottom: "layer_128_1_conv2"
  top: "layer_128_1_sum"
}
layer {
  name: "layer_128_2_bn1"
  type: "BatchNorm"
  bottom: "layer_128_1_sum"
  top: "layer_128_2_bn1"
  param {
    lr_mult: 0
    decay_mult: 0
  }
  param {
    lr_mult: 0
    decay_mult: 0
  }
  param {
    lr_mult: 0
    decay_mult: 0
  }
}
layer {
  name: "layer_128_2_scale1"
  type: "Scale"
  bottom: "layer_128_2_bn1"
  top: "layer_128_2_bn1"
  param {
    lr_mult: 1
    decay_mult: 1
  }
  param {
    lr_mult: 2
    decay_mult: 1
  }
  scale_param {
    bias_term: true
  }
}
layer {
  name: "layer_128_2_relu1"
  type: "ReLU"
  bottom: "layer_128_2_bn1"
  top: "layer_128_2_bn1"
}
layer {
  name: "layer_128_2_conv1"
  type: "Convolution"
  bottom: "layer_128_2_bn1"
  top: "layer_128_2_conv1"
  param {
    lr_mult: 1
    decay_mult: 1
  }
  convolution_param {
    num_output: 128
    bias_term: false
    pad: 1
    kernel_size: 3
    stride: 1
    weight_filler {
      type: "msra"
    }
    bias_filler {
      type: "constant"
      value: 0
    }
  }
}
layer {
  name: "layer_128_2_bn2"
  type: "BatchNorm"
  bottom: "layer_128_2_conv1"
  top: "layer_128_2_conv1"
  param {
    lr_mult: 0
    decay_mult: 0
  }
  param {
    lr_mult: 0
    decay_mult: 0
  }
  param {
    lr_mult: 0
    decay_mult: 0
  }
}
layer {
  name: "layer_128_2_scale2"
  type: "Scale"
  bottom: "layer_128_2_conv1"
  top: "layer_128_2_conv1"
  param {
    lr_mult: 1
    decay_mult: 1
  }
  param {
    lr_mult: 2
    decay_mult: 1
  }
  scale_param {
    bias_term: true
  }
}
layer {
  name: "layer_128_2_relu2"
  type: "ReLU"
  bottom: "layer_128_2_conv1"
  top: "layer_128_2_conv1"
}
layer {
  name: "layer_128_2_conv2"
  type: "Convolution"
  bottom: "layer_128_2_conv1"
  top: "layer_128_2_conv2"
  param {
    lr_mult: 1
    decay_mult: 1
  }
  convolution_param {
    num_output: 128
    bias_term: false
    pad: 1
    kernel_size: 3
    stride: 1
    weight_filler {
      type: "msra"
    }
    bias_filler {
      type: "constant"
      value: 0
    }
  }
}
layer {
  name: "layer_128_2_sum"
  type: "Eltwise"
  bottom: "layer_128_2_conv2"
  bottom: "layer_128_1_sum"
  top: "layer_128_2_sum"
}
layer {
  name: "layer_128_3_bn1"
  type: "BatchNorm"
  bottom: "layer_128_2_sum"
  top: "layer_128_3_bn1"
  param {
    lr_mult: 0
    decay_mult: 0
  }
  param {
    lr_mult: 0
    decay_mult: 0
  }
  param {
    lr_mult: 0
    decay_mult: 0
  }
}
layer {
  name: "layer_128_3_scale1"
  type: "Scale"
  bottom: "layer_128_3_bn1"
  top: "layer_128_3_bn1"
  param {
    lr_mult: 1
    decay_mult: 1
  }
  param {
    lr_mult: 2
    decay_mult: 1
  }
  scale_param {
    bias_term: true
  }
}
layer {
  name: "layer_128_3_relu1"
  type: "ReLU"
  bottom: "layer_128_3_bn1"
  top: "layer_128_3_bn1"
}
layer {
  name: "layer_128_3_conv1"
  type: "Convolution"
  bottom: "layer_128_3_bn1"
  top: "layer_128_3_conv1"
  param {
    lr_mult: 1
    decay_mult: 1
  }
  convolution_param {
    num_output: 128
    bias_term: false
    pad: 1
    kernel_size: 3
    stride: 1
    weight_filler {
      type: "msra"
    }
    bias_filler {
      type: "constant"
      value: 0
    }
  }
}
layer {
  name: "layer_128_3_bn2"
  type: "BatchNorm"
  bottom: "layer_128_3_conv1"
  top: "layer_128_3_conv1"
  param {
    lr_mult: 0
    decay_mult: 0
  }
  param {
    lr_mult: 0
    decay_mult: 0
  }
  param {
    lr_mult: 0
    decay_mult: 0
  }
}
layer {
  name: "layer_128_3_scale2"
  type: "Scale"
  bottom: "layer_128_3_conv1"
  top: "layer_128_3_conv1"
  param {
    lr_mult: 1
    decay_mult: 1
  }
  param {
    lr_mult: 2
    decay_mult: 1
  }
  scale_param {
    bias_term: true
  }
}
layer {
  name: "layer_128_3_relu2"
  type: "ReLU"
  bottom: "layer_128_3_conv1"
  top: "layer_128_3_conv1"
}
layer {
  name: "layer_128_3_conv2"
  type: "Convolution"
  bottom: "layer_128_3_conv1"
  top: "layer_128_3_conv2"
  param {
    lr_mult: 1
    decay_mult: 1
  }
  convolution_param {
    num_output: 128
    bias_term: false
    pad: 1
    kernel_size: 3
    stride: 1
    weight_filler {
      type: "msra"
    }
    bias_filler {
      type: "constant"
      value: 0
    }
  }
}
layer {
  name: "layer_128_3_sum"
  type: "Eltwise"
  bottom: "layer_128_3_conv2"
  bottom: "layer_128_2_sum"
  top: "layer_128_3_sum"
}
layer {
  name: "layer_128_4_bn1"
  type: "BatchNorm"
  bottom: "layer_128_3_sum"
  top: "layer_128_4_bn1"
  param {
    lr_mult: 0
    decay_mult: 0
  }
  param {
    lr_mult: 0
    decay_mult: 0
  }
  param {
    lr_mult: 0
    decay_mult: 0
  }
}
layer {
  name: "layer_128_4_scale1"
  type: "Scale"
  bottom: "layer_128_4_bn1"
  top: "layer_128_4_bn1"
  param {
    lr_mult: 1
    decay_mult: 1
  }
  param {
    lr_mult: 2
    decay_mult: 1
  }
  scale_param {
    bias_term: true
  }
}
layer {
  name: "layer_128_4_relu1"
  type: "ReLU"
  bottom: "layer_128_4_bn1"
  top: "layer_128_4_bn1"
}
layer {
  name: "layer_128_4_conv1"
  type: "Convolution"
  bottom: "layer_128_4_bn1"
  top: "layer_128_4_conv1"
  param {
    lr_mult: 1
    decay_mult: 1
  }
  convolution_param {
    num_output: 128
    bias_term: false
    pad: 1
    kernel_size: 3
    stride: 1
    weight_filler {
      type: "msra"
    }
    bias_filler {
      type: "constant"
      value: 0
    }
  }
}
layer {
  name: "layer_128_4_bn2"
  type: "BatchNorm"
  bottom: "layer_128_4_conv1"
  top: "layer_128_4_conv1"
  param {
    lr_mult: 0
    decay_mult: 0
  }
  param {
    lr_mult: 0
    decay_mult: 0
  }
  param {
    lr_mult: 0
    decay_mult: 0
  }
}
layer {
  name: "layer_128_4_scale2"
  type: "Scale"
  bottom: "layer_128_4_conv1"
  top: "layer_128_4_conv1"
  param {
    lr_mult: 1
    decay_mult: 1
  }
  param {
    lr_mult: 2
    decay_mult: 1
  }
  scale_param {
    bias_term: true
  }
}
layer {
  name: "layer_128_4_relu2"
  type: "ReLU"
  bottom: "layer_128_4_conv1"
  top: "layer_128_4_conv1"
}
layer {
  name: "layer_128_4_conv2"
  type: "Convolution"
  bottom: "layer_128_4_conv1"
  top: "layer_128_4_conv2"
  param {
    lr_mult: 1
    decay_mult: 1
  }
  convolution_param {
    num_output: 128
    bias_term: false
    pad: 1
    kernel_size: 3
    stride: 1
    weight_filler {
      type: "msra"
…
I0528 22:21:58.489816 16530 net.cpp:367] layer_256_2_relu1 -> layer_256_2_bn1 (in-place)
I0528 22:21:58.490054 16530 net.cpp:122] Setting up layer_256_2_relu1
I0528 22:21:58.490068 16530 net.cpp:129] Top shape: 20 256 14 14 (1003520)
I0528 22:21:58.490072 16530 net.cpp:137] Memory required for data: 1280491760
I0528 22:21:58.490077 16530 layer_factory.hpp:77] Creating layer layer_256_2_conv1
I0528 22:21:58.490088 16530 net.cpp:84] Creating Layer layer_256_2_conv1
I0528 22:21:58.490093 16530 net.cpp:406] layer_256_2_conv1 <- layer_256_2_bn1
I0528 22:21:58.490100 16530 net.cpp:380] layer_256_2_conv1 -> layer_256_2_conv1
I0528 22:21:58.508898 16530 net.cpp:122] Setting up layer_256_2_conv1
I0528 22:21:58.508920 16530 net.cpp:129] Top shape: 20 256 14 14 (1003520)
I0528 22:21:58.508925 16530 net.cpp:137] Memory required for data: 1284505840
I0528 22:21:58.508944 16530 layer_factory.hpp:77] Creating layer layer_256_2_bn2
I0528 22:21:58.508956 16530 net.cpp:84] Creating Layer layer_256_2_bn2
I0528 22:21:58.508962 16530 net.cpp:406] layer_256_2_bn2 <- layer_256_2_conv1
I0528 22:21:58.508968 16530 net.cpp:367] layer_256_2_bn2 -> layer_256_2_conv1 (in-place)
I0528 22:21:58.509184 16530 net.cpp:122] Setting up layer_256_2_bn2
I0528 22:21:58.509197 16530 net.cpp:129] Top shape: 20 256 14 14 (1003520)
I0528 22:21:58.509213 16530 net.cpp:137] Memory required for data: 1288519920
I0528 22:21:58.509222 16530 layer_factory.hpp:77] Creating layer layer_256_2_scale2
I0528 22:21:58.509230 16530 net.cpp:84] Creating Layer layer_256_2_scale2
I0528 22:21:58.509235 16530 net.cpp:406] layer_256_2_scale2 <- layer_256_2_conv1
I0528 22:21:58.509241 16530 net.cpp:367] layer_256_2_scale2 -> layer_256_2_conv1 (in-place)
I0528 22:21:58.509306 16530 layer_factory.hpp:77] Creating layer layer_256_2_scale2
I0528 22:21:58.509423 16530 net.cpp:122] Setting up layer_256_2_scale2
I0528 22:21:58.509443 16530 net.cpp:129] Top shape: 20 256 14 14 (1003520)
I0528 22:21:58.509459 16530 net.cpp:137] Memory required for data: 1292534000
I0528 22:21:58.509480 16530 layer_factory.hpp:77] Creating layer layer_256_2_relu2
I0528 22:21:58.509495 16530 net.cpp:84] Creating Layer layer_256_2_relu2
I0528 22:21:58.509500 16530 net.cpp:406] layer_256_2_relu2 <- layer_256_2_conv1
I0528 22:21:58.509519 16530 net.cpp:367] layer_256_2_relu2 -> layer_256_2_conv1 (in-place)
I0528 22:21:58.510212 16530 net.cpp:122] Setting up layer_256_2_relu2
I0528 22:21:58.510242 16530 net.cpp:129] Top shape: 20 256 14 14 (1003520)
I0528 22:21:58.510247 16530 net.cpp:137] Memory required for data: 1296548080
I0528 22:21:58.510251 16530 layer_factory.hpp:77] Creating layer layer_256_2_conv2
I0528 22:21:58.510265 16530 net.cpp:84] Creating Layer layer_256_2_conv2
I0528 22:21:58.510272 16530 net.cpp:406] layer_256_2_conv2 <- layer_256_2_conv1
I0528 22:21:58.510280 16530 net.cpp:380] layer_256_2_conv2 -> layer_256_2_conv2
I0528 22:21:58.527616 16530 net.cpp:122] Setting up layer_256_2_conv2
I0528 22:21:58.527647 16530 net.cpp:129] Top shape: 20 256 14 14 (1003520)
I0528 22:21:58.527652 16530 net.cpp:137] Memory required for data: 1300562160
I0528 22:21:58.527658 16530 layer_factory.hpp:77] Creating layer layer_256_2_sum
I0528 22:21:58.527665 16530 net.cpp:84] Creating Layer layer_256_2_sum
I0528 22:21:58.527684 16530 net.cpp:406] layer_256_2_sum <- layer_256_2_conv2
I0528 22:21:58.527690 16530 net.cpp:406] layer_256_2_sum <- layer_256_1_sum_layer_256_1_sum_0_split_1
I0528 22:21:58.527710 16530 net.cpp:380] layer_256_2_sum -> layer_256_2_sum
I0528 22:21:58.527740 16530 net.cpp:122] Setting up layer_256_2_sum
I0528 22:21:58.527748 16530 net.cpp:129] Top shape: 20 256 14 14 (1003520)
I0528 22:21:58.527752 16530 net.cpp:137] Memory required for data: 1304576240
I0528 22:21:58.527756 16530 layer_factory.hpp:77] Creating layer layer_256_2_sum_layer_256_2_sum_0_split
I0528 22:21:58.527762 16530 net.cpp:84] Creating Layer layer_256_2_sum_layer_256_2_sum_0_split
I0528 22:21:58.527766 16530 net.cpp:406] layer_256_2_sum_layer_256_2_sum_0_split <- layer_256_2_sum
I0528 22:21:58.527772 16530 net.cpp:380] layer_256_2_sum_layer_256_2_sum_0_split -> layer_256_2_sum_layer_256_2_sum_0_split_0
I0528 22:21:58.527779 16530 net.cpp:380] layer_256_2_sum_layer_256_2_sum_0_split -> layer_256_2_sum_layer_256_2_sum_0_split_1
I0528 22:21:58.527815 16530 net.cpp:122] Setting up layer_256_2_sum_layer_256_2_sum_0_split
I0528 22:21:58.527822 16530 net.cpp:129] Top shape: 20 256 14 14 (1003520)
I0528 22:21:58.527827 16530 net.cpp:129] Top shape: 20 256 14 14 (1003520)
I0528 22:21:58.527830 16530 net.cpp:137] Memory required for data: 1312604400
I0528 22:21:58.527833 16530 layer_factory.hpp:77] Creating layer layer_256_3_bn1
I0528 22:21:58.527842 16530 net.cpp:84] Creating Layer layer_256_3_bn1
I0528 22:21:58.527846 16530 net.cpp:406] layer_256_3_bn1 <- layer_256_2_sum_layer_256_2_sum_0_split_0
I0528 22:21:58.527851 16530 net.cpp:380] layer_256_3_bn1 -> layer_256_3_bn1
I0528 22:21:58.528086 16530 net.cpp:122] Setting up layer_256_3_bn1
I0528 22:21:58.528097 16530 net.cpp:129] Top shape: 20 256 14 14 (1003520)
I0528 22:21:58.528112 16530 net.cpp:137] Memory required for data: 1316618480
I0528 22:21:58.528144 16530 layer_factory.hpp:77] Creating layer layer_256_3_scale1
I0528 22:21:58.528152 16530 net.cpp:84] Creating Layer layer_256_3_scale1
I0528 22:21:58.528157 16530 net.cpp:406] layer_256_3_scale1 <- layer_256_3_bn1
I0528 22:21:58.528168 16530 net.cpp:367] layer_256_3_scale1 -> layer_256_3_bn1 (in-place)
I0528 22:21:58.528223 16530 layer_factory.hpp:77] Creating layer layer_256_3_scale1
I0528 22:21:58.528358 16530 net.cpp:122] Setting up layer_256_3_scale1
I0528 22:21:58.528381 16530 net.cpp:129] Top shape: 20 256 14 14 (1003520)
I0528 22:21:58.528386 16530 net.cpp:137] Memory required for data: 1320632560
I0528 22:21:58.528393 16530 layer_factory.hpp:77] Creating layer layer_256_3_relu1
I0528 22:21:58.528399 16530 net.cpp:84] Creating Layer layer_256_3_relu1
I0528 22:21:58.528403 16530 net.cpp:406] layer_256_3_relu1 <- layer_256_3_bn1
I0528 22:21:58.528409 16530 net.cpp:367] layer_256_3_relu1 -> layer_256_3_bn1 (in-place)
I0528 22:21:58.529114 16530 net.cpp:122] Setting up layer_256_3_relu1
I0528 22:21:58.529155 16530 net.cpp:129] Top shape: 20 256 14 14 (1003520)
I0528 22:21:58.529161 16530 net.cpp:137] Memory required for data: 1324646640
I0528 22:21:58.529165 16530 layer_factory.hpp:77] Creating layer layer_256_3_conv1
I0528 22:21:58.529178 16530 net.cpp:84] Creating Layer layer_256_3_conv1
I0528 22:21:58.529193 16530 net.cpp:406] layer_256_3_conv1 <- layer_256_3_bn1
I0528 22:21:58.529214 16530 net.cpp:380] layer_256_3_conv1 -> layer_256_3_conv1
I0528 22:21:58.546936 16530 net.cpp:122] Setting up layer_256_3_conv1
I0528 22:21:58.546967 16530 net.cpp:129] Top shape: 20 256 14 14 (1003520)
I0528 22:21:58.546973 16530 net.cpp:137] Memory required for data: 1328660720
I0528 22:21:58.546979 16530 layer_factory.hpp:77] Creating layer layer_256_3_bn2
I0528 22:21:58.546988 16530 net.cpp:84] Creating Layer layer_256_3_bn2
I0528 22:21:58.547004 16530 net.cpp:406] layer_256_3_bn2 <- layer_256_3_conv1
I0528 22:21:58.547025 16530 net.cpp:367] layer_256_3_bn2 -> layer_256_3_conv1 (in-place)
I0528 22:21:58.547242 16530 net.cpp:122] Setting up layer_256_3_bn2
I0528 22:21:58.547256 16530 net.cpp:129] Top shape: 20 256 14 14 (1003520)
I0528 22:21:58.547272 16530 net.cpp:137] Memory required for data: 1332674800
I0528 22:21:58.547281 16530 layer_factory.hpp:77] Creating layer layer_256_3_scale2
I0528 22:21:58.547313 16530 net.cpp:84] Creating Layer layer_256_3_scale2
I0528 22:21:58.547329 16530 net.cpp:406] layer_256_3_scale2 <- layer_256_3_conv1
I0528 22:21:58.547338 16530 net.cpp:367] layer_256_3_scale2 -> layer_256_3_conv1 (in-place)
I0528 22:21:58.547380 16530 layer_factory.hpp:77] Creating layer layer_256_3_scale2
I0528 22:21:58.547502 16530 net.cpp:122] Setting up layer_256_3_scale2
I0528 22:21:58.547523 16530 net.cpp:129] Top shape: 20 256 14 14 (1003520)
I0528 22:21:58.547538 16530 net.cpp:137] Memory required for data: 1336688880
I0528 22:21:58.547555 16530 layer_factory.hpp:77] Creating layer layer_256_3_relu2
I0528 22:21:58.547561 16530 net.cpp:84] Creating Layer layer_256_3_relu2
I0528 22:21:58.547566 16530 net.cpp:406] layer_256_3_relu2 <- layer_256_3_conv1
I0528 22:21:58.547571 16530 net.cpp:367] layer_256_3_relu2 -> layer_256_3_conv1 (in-place)
I0528 22:21:58.548295 16530 net.cpp:122] Setting up layer_256_3_relu2
I0528 22:21:58.548326 16530 net.cpp:129] Top shape: 20 256 14 14 (1003520)
I0528 22:21:58.548331 16530 net.cpp:137] Memory required for data: 1340702960
I0528 22:21:58.548334 16530 layer_factory.hpp:77] Creating layer layer_256_3_conv2
I0528 22:21:58.548346 16530 net.cpp:84] Creating Layer layer_256_3_conv2
I0528 22:21:58.548362 16530 net.cpp:406] layer_256_3_conv2 <- layer_256_3_conv1
I0528 22:21:58.548369 16530 net.cpp:380] layer_256_3_conv2 -> layer_256_3_conv2
I0528 22:21:58.566128 16530 net.cpp:122] Setting up layer_256_3_conv2
I0528 22:21:58.566162 16530 net.cpp:129] Top shape: 20 256 14 14 (1003520)
I0528 22:21:58.566167 16530 net.cpp:137] Memory required for data: 1344717040
I0528 22:21:58.566193 16530 layer_factory.hpp:77] Creating layer layer_256_3_sum
I0528 22:21:58.566215 16530 net.cpp:84] Creating Layer layer_256_3_sum
I0528 22:21:58.566228 16530 net.cpp:406] layer_256_3_sum <- layer_256_3_conv2
I0528 22:21:58.566234 16530 net.cpp:406] layer_256_3_sum <- layer_256_2_sum_layer_256_2_sum_0_split_1
I0528 22:21:58.566241 16530 net.cpp:380] layer_256_3_sum -> layer_256_3_sum
I0528 22:21:58.566269 16530 net.cpp:122] Setting up layer_256_3_sum
I0528 22:21:58.566277 16530 net.cpp:129] Top shape: 20 256 14 14 (1003520)
I0528 22:21:58.566282 16530 net.cpp:137] Memory required for data: 1348731120
I0528 22:21:58.566285 16530 layer_factory.hpp:77] Creating layer layer_256_3_sum_layer_256_3_sum_0_split
I0528 22:21:58.566292 16530 net.cpp:84] Creating Layer layer_256_3_sum_layer_256_3_sum_0_split
I0528 22:21:58.566295 16530 net.cpp:406] layer_256_3_sum_layer_256_3_sum_0_split <- layer_256_3_sum
I0528 22:21:58.566301 16530 net.cpp:380] layer_256_3_sum_layer_256_3_sum_0_split -> layer_256_3_sum_layer_256_3_sum_0_split_0
I0528 22:21:58.566313 16530 net.cpp:380] layer_256_3_sum_layer_256_3_sum_0_split -> layer_256_3_sum_layer_256_3_sum_0_split_1
I0528 22:21:58.566364 16530 net.cpp:122] Setting up layer_256_3_sum_layer_256_3_sum_0_split
I0528 22:21:58.566375 16530 net.cpp:129] Top shape: 20 256 14 14 (1003520)
I0528 22:21:58.566380 16530 net.cpp:129] Top shape: 20 256 14 14 (1003520)
I0528 22:21:58.566382 16530 net.cpp:137] Memory required for data: 1356759280
I0528 22:21:58.566395 16530 layer_factory.hpp:77] Creating layer layer_256_4_bn1
I0528 22:21:58.566404 16530 net.cpp:84] Creating Layer layer_256_4_bn1
I0528 22:21:58.566409 16530 net.cpp:406] layer_256_4_bn1 <- layer_256_3_sum_layer_256_3_sum_0_split_0
I0528 22:21:58.566416 16530 net.cpp:380] layer_256_4_bn1 -> layer_256_4_bn1
I0528 22:21:58.566638 16530 net.cpp:122] Setting up layer_256_4_bn1
I0528 22:21:58.566649 16530 net.cpp:129] Top shape: 20 256 14 14 (1003520)
I0528 22:21:58.566664 16530 net.cpp:137] Memory required for data: 1360773360
I0528 22:21:58.566684 16530 layer_factory.hpp:77] Creating layer layer_256_4_scale1
I0528 22:21:58.566709 16530 net.cpp:84] Creating Layer layer_256_4_scale1
I0528 22:21:58.566715 16530 net.cpp:406] layer_256_4_scale1 <- layer_256_4_bn1
I0528 22:21:58.566720 16530 net.cpp:367] layer_256_4_scale1 -> layer_256_4_bn1 (in-place)
I0528 22:21:58.566764 16530 layer_factory.hpp:77] Creating layer layer_256_4_scale1
I0528 22:21:58.566905 16530 net.cpp:122] Setting up layer_256_4_scale1
I0528 22:21:58.566915 16530 net.cpp:129] Top shape: 20 256 14 14 (1003520)
I0528 22:21:58.566931 16530 net.cpp:137] Memory required for data: 1364787440
I0528 22:21:58.566937 16530 layer_factory.hpp:77] Creating layer layer_256_4_relu1
I0528 22:21:58.566947 16530 net.cpp:84] Creating Layer layer_256_4_relu1
I0528 22:21:58.566952 16530 net.cpp:406] layer_256_4_relu1 <- layer_256_4_bn1
I0528 22:21:58.566968 16530 net.cpp:367] layer_256_4_relu1 -> layer_256_4_bn1 (in-place)
I0528 22:21:58.567744 16530 net.cpp:122] Setting up layer_256_4_relu1
I0528 22:21:58.567764 16530 net.cpp:129] Top shape: 20 256 14 14 (1003520)
I0528 22:21:58.567780 16530 net.cpp:137] Memory required for data: 1368801520
I0528 22:21:58.567785 16530 layer_factory.hpp:77] Creating layer layer_256_4_conv1
I0528 22:21:58.567795 16530 net.cpp:84] Creating Layer layer_256_4_conv1
I0528 22:21:58.567811 16530 net.cpp:406] layer_256_4_conv1 <- layer_256_4_bn1
I0528 22:21:58.567829 16530 net.cpp:380] layer_256_4_conv1 -> layer_256_4_conv1
I0528 22:21:58.585124 16530 net.cpp:122] Setting up layer_256_4_conv1
I0528 22:21:58.585158 16530 net.cpp:129] Top shape: 20 256 14 14 (1003520)
I0528 22:21:58.585163 16530 net.cpp:137] Memory required for data: 1372815600
I0528 22:21:58.585170 16530 layer_factory.hpp:77] Creating layer layer_256_4_bn2
I0528 22:21:58.585176 16530 net.cpp:84] Creating Layer layer_256_4_bn2
I0528 22:21:58.585192 16530 net.cpp:406] layer_256_4_bn2 <- layer_256_4_conv1
I0528 22:21:58.585213 16530 net.cpp:367] layer_256_4_bn2 -> layer_256_4_conv1 (in-place)
I0528 22:21:58.585425 16530 net.cpp:122] Setting up layer_256_4_bn2
I0528 22:21:58.585436 16530 net.cpp:129] Top shape: 20 256 14 14 (1003520)
I0528 22:21:58.585451 16530 net.cpp:137] Memory required for data: 1376829680
I0528 22:21:58.585459 16530 layer_factory.hpp:77] Creating layer layer_256_4_scale2
I0528 22:21:58.585469 16530 net.cpp:84] Creating Layer layer_256_4_scale2
I0528 22:21:58.585474 16530 net.cpp:406] layer_256_4_scale2 <- layer_256_4_conv1
I0528 22:21:58.585494 16530 net.cpp:367] layer_256_4_scale2 -> layer_256_4_conv1 (in-place)
I0528 22:21:58.585546 16530 layer_factory.hpp:77] Creating layer layer_256_4_scale2
I0528 22:21:58.585681 16530 net.cpp:122] Setting up layer_256_4_scale2
I0528 22:21:58.585703 16530 net.cpp:129] Top shape: 20 256 14 14 (1003520)
I0528 22:21:58.585707 16530 net.cpp:137] Memory required for data: 1380843760
I0528 22:21:58.585724 16530 layer_factory.hpp:77] Creating layer layer_256_4_relu2
I0528 22:21:58.585731 16530 net.cpp:84] Creating Layer layer_256_4_relu2
I0528 22:21:58.585736 16530 net.cpp:406] layer_256_4_relu2 <- layer_256_4_conv1
I0528 22:21:58.585755 16530 net.cpp:367] layer_256_4_relu2 -> layer_256_4_conv1 (in-place)
I0528 22:21:58.586508 16530 net.cpp:122] Setting up layer_256_4_relu2
I0528 22:21:58.586527 16530 net.cpp:129] Top shape: 20 256 14 14 (1003520)
I0528 22:21:58.586544 16530 net.cpp:137] Memory required for data: 1384857840
I0528 22:21:58.586547 16530 layer_factory.hpp:77] Creating layer layer_256_4_conv2
I0528 22:21:58.586560 16530 net.cpp:84] Creating Layer layer_256_4_conv2
I0528 22:21:58.586566 16530 net.cpp:406] layer_256_4_conv2 <- layer_256_4_conv1
I0528 22:21:58.586573 16530 net.cpp:380] layer_256_4_conv2 -> layer_256_4_conv2
I0528 22:21:58.604305 16530 net.cpp:122] Setting up layer_256_4_conv2
I0528 22:21:58.604336 16530 net.cpp:129] Top shape: 20 256 14 14 (1003520)
I0528 22:21:58.604342 16530 net.cpp:137] Memory required for data: 1388871920
I0528 22:21:58.604347 16530 layer_factory.hpp:77] Creating layer layer_256_4_sum
I0528 22:21:58.604356 16530 net.cpp:84] Creating Layer layer_256_4_sum
I0528 22:21:58.604370 16530 net.cpp:406] layer_256_4_sum <- layer_256_4_conv2
I0528 22:21:58.604377 16530 net.cpp:406] layer_256_4_sum <- layer_256_3_sum_layer_256_3_sum_0_split_1
I0528 22:21:58.604396 16530 net.cpp:380] layer_256_4_sum -> layer_256_4_sum
I0528 22:21:58.604425 16530 net.cpp:122] Setting up layer_256_4_sum
I0528 22:21:58.604435 16530 net.cpp:129] Top shape: 20 256 14 14 (1003520)
I0528 22:21:58.604439 16530 net.cpp:137] Memory required for data: 1392886000
I0528 22:21:58.604444 16530 layer_factory.hpp:77] Creating layer layer_256_4_sum_layer_256_4_sum_0_split
I0528 22:21:58.604449 16530 net.cpp:84] Creating Layer layer_256_4_sum_layer_256_4_sum_0_split
I0528 22:21:58.604454 16530 net.cpp:406] layer_256_4_sum_layer_256_4_sum_0_split <- layer_256_4_sum
I0528 22:21:58.604460 16530 net.cpp:380] layer_256_4_sum_layer_256_4_sum_0_split -> layer_256_4_sum_layer_256_4_sum_0_split_0
I0528 22:21:58.604467 16530 net.cpp:380] layer_256_4_sum_layer_256_4_sum_0_split -> layer_256_4_sum_layer_256_4_sum_0_split_1
I0528 22:21:58.604506 16530 net.cpp:122] Setting up layer_256_4_sum_layer_256_4_sum_0_split
I0528 22:21:58.604514 16530 net.cpp:129] Top shape: 20 256 14 14 (1003520)
I0528 22:21:58.604518 16530 net.cpp:129] Top shape: 20 256 14 14 (1003520)
I0528 22:21:58.604522 16530 net.cpp:137] Memory required for data: 1400914160
I0528 22:21:58.604526 16530 layer_factory.hpp:77] Creating layer layer_256_5_bn1
I0528 22:21:58.604533 16530 net.cpp:84] Creating Layer layer_256_5_bn1
I0528 22:21:58.604538 16530 net.cpp:406] layer_256_5_bn1 <- layer_256_4_sum_layer_256_4_sum_0_split_0
I0528 22:21:58.604544 16530 net.cpp:380] layer_256_5_bn1 -> layer_256_5_bn1
I0528 22:21:58.604774 16530 net.cpp:122] Setting up layer_256_5_bn1
I0528 22:21:58.604784 16530 net.cpp:129] Top shape: 20 256 14 14 (1003520)
I0528 22:21:58.604800 16530 net.cpp:137] Memory required for data: 1404928240
I0528 22:21:58.604820 16530 layer_factory.hpp:77] Creating layer layer_256_5_scale1
I0528 22:21:58.604840 16530 net.cpp:84] Creating Layer layer_256_5_scale1
I0528 22:21:58.604845 16530 net.cpp:406] layer_256_5_scale1 <- layer_256_5_bn1
I0528 22:21:58.604863 16530 net.cpp:367] layer_256_5_scale1 -> layer_256_5_bn1 (in-place)
I0528 22:21:58.604918 16530 layer_factory.hpp:77] Creating layer layer_256_5_scale1
I0528 22:21:58.605057 16530 net.cpp:122] Setting up layer_256_5_scale1
I0528 22:21:58.605080 16530 net.cpp:129] Top shape: 20 256 14 14 (1003520)
I0528 22:21:58.605084 16530 net.cpp:137] Memory required for data: 1408942320
I0528 22:21:58.605092 16530 layer_factory.hpp:77] Creating layer layer_256_5_relu1
I0528 22:21:58.605098 16530 net.cpp:84] Creating Layer layer_256_5_relu1
I0528 22:21:58.605101 16530 net.cpp:406] layer_256_5_relu1 <- layer_256_5_bn1
I0528 22:21:58.605108 16530 net.cpp:367] layer_256_5_relu1 -> layer_256_5_bn1 (in-place)
I0528 22:21:58.605372 16530 net.cpp:122] Setting up layer_256_5_relu1
I0528 22:21:58.605402 16530 net.cpp:129] Top shape: 20 256 14 14 (1003520)
I0528 22:21:58.605407 16530 net.cpp:137] Memory required for data: 1412956400
I0528 22:21:58.605443 16530 layer_factory.hpp:77] Creating layer layer_256_5_conv1
I0528 22:21:58.605465 16530 net.cpp:84] Creating Layer layer_256_5_conv1
I0528 22:21:58.605470 16530 net.cpp:406] layer_256_5_conv1 <- layer_256_5_bn1
I0528 22:21:58.605480 16530 net.cpp:380] layer_256_5_conv1 -> layer_256_5_conv1
I0528 22:21:58.623214 16530 net.cpp:122] Setting up layer_256_5_conv1
I0528 22:21:58.623245 16530 net.cpp:129] Top shape: 20 256 14 14 (1003520)
I0528 22:21:58.623250 16530 net.cpp:137] Memory required for data: 1416970480
I0528 22:21:58.623256 16530 layer_factory.hpp:77] Creating layer layer_256_5_bn2
I0528 22:21:58.623266 16530 net.cpp:84] Creating Layer layer_256_5_bn2
I0528 22:21:58.623282 16530 net.cpp:406] layer_256_5_bn2 <- layer_256_5_conv1
I0528 22:21:58.623289 16530 net.cpp:367] layer_256_5_bn2 -> layer_256_5_conv1 (in-place)
I0528 22:21:58.623502 16530 net.cpp:122] Setting up layer_256_5_bn2
I0528 22:21:58.623524 16530 net.cpp:129] Top shape: 20 256 14 14 (1003520)
I0528 22:21:58.623539 16530 net.cpp:137] Memory required for data: 1420984560
I0528 22:21:58.623550 16530 layer_factory.hpp:77] Creating layer layer_256_5_scale2
I0528 22:21:58.623558 16530 net.cpp:84] Creating Layer layer_256_5_scale2
I0528 22:21:58.623564 16530 net.cpp:406] layer_256_5_scale2 <- layer_256_5_conv1
I0528 22:21:58.623569 16530 net.cpp:367] layer_256_5_scale2 -> layer_256_5_conv1 (in-place)
I0528 22:21:58.623631 16530 layer_factory.hpp:77] Creating layer layer_256_5_scale2
I0528 22:21:58.623770 16530 net.cpp:122] Setting up layer_256_5_scale2
I0528 22:21:58.623781 16530 net.cpp:129] Top shape: 20 256 14 14 (1003520)
I0528 22:21:58.623795 16530 net.cpp:137] Memory required for data: 1424998640
I0528 22:21:58.623802 16530 layer_factory.hpp:77] Creating layer layer_256_5_relu2
I0528 22:21:58.623819 16530 net.cpp:84] Creating Layer layer_256_5_relu2
I0528 22:21:58.623824 16530 net.cpp:406] layer_256_5_relu2 <- layer_256_5_conv1
I0528 22:21:58.623831 16530 net.cpp:367] layer_256_5_relu2 -> layer_256_5_conv1 (in-place)
I0528 22:21:58.624514 16530 net.cpp:122] Setting up layer_256_5_relu2
I0528 22:21:58.624533 16530 net.cpp:129] Top shape: 20 256 14 14 (1003520)
I0528 22:21:58.624552 16530 net.cpp:137] Memory required for data: 1429012720
I0528 22:21:58.624555 16530 layer_factory.hpp:77] Creating layer layer_256_5_conv2
I0528 22:21:58.624567 16530 net.cpp:84] Creating Layer layer_256_5_conv2
I0528 22:21:58.624583 16530 net.cpp:406] layer_256_5_conv2 <- layer_256_5_conv1
I0528 22:21:58.624605 16530 net.cpp:380] layer_256_5_conv2 -> layer_256_5_conv2
I0528 22:21:58.641958 16530 net.cpp:122] Setting up layer_256_5_conv2
I0528 22:21:58.641995 16530 net.cpp:129] Top shape: 20 256 14 14 (1003520)
I0528 22:21:58.642000 16530 net.cpp:137] Memory required for data: 1433026800
I0528 22:21:58.642007 16530 layer_factory.hpp:77] Creating layer layer_256_5_sum
I0528 22:21:58.642029 16530 net.cpp:84] Creating Layer layer_256_5_sum
I0528 22:21:58.642033 16530 net.cpp:406] layer_256_5_sum <- layer_256_5_conv2
I0528 22:21:58.642050 16530 net.cpp:406] layer_256_5_sum <- layer_256_4_sum_layer_256_4_sum_0_split_1
I0528 22:21:58.642057 16530 net.cpp:380] layer_256_5_sum -> layer_256_5_sum
I0528 22:21:58.642088 16530 net.cpp:122] Setting up layer_256_5_sum
I0528 22:21:58.642096 16530 net.cpp:129] Top shape: 20 256 14 14 (1003520)
I0528 22:21:58.642101 16530 net.cpp:137] Memory required for data: 1437040880
I0528 22:21:58.642104 16530 layer_factory.hpp:77] Creating layer layer_256_5_sum_layer_256_5_sum_0_split
I0528 22:21:58.642145 16530 net.cpp:84] Creating Layer layer_256_5_sum_layer_256_5_sum_0_split
I0528 22:21:58.642155 16530 net.cpp:406] layer_256_5_sum_layer_256_5_sum_0_split <- layer_256_5_sum
I0528 22:21:58.642163 16530 net.cpp:380] layer_256_5_sum_layer_256_5_sum_0_split -> layer_256_5_sum_layer_256_5_sum_0_split_0
I0528 22:21:58.642172 16530 net.cpp:380] layer_256_5_sum_layer_256_5_sum_0_split -> layer_256_5_sum_layer_256_5_sum_0_split_1
I0528 22:21:58.642213 16530 net.cpp:122] Setting up layer_256_5_sum_layer_256_5_sum_0_split
I0528 22:21:58.642230 16530 net.cpp:129] Top shape: 20 256 14 14 (1003520)
I0528 22:21:58.642242 16530 net.cpp:129] Top shape: 20 256 14 14 (1003520)
I0528 22:21:58.642246 16530 net.cpp:137] Memory required for data: 1445069040
I0528 22:21:58.642251 16530 layer_factory.hpp:77] Creating layer layer_256_6_bn1
I0528 22:21:58.642268 16530 net.cpp:84] Creating Layer layer_256_6_bn1
I0528 22:21:58.642274 16530 net.cpp:406] layer_256_6_bn1 <- layer_256_5_sum_layer_256_5_sum_0_split_0
I0528 22:21:58.642282 16530 net.cpp:380] layer_256_6_bn1 -> layer_256_6_bn1
I0528 22:21:58.642519 16530 net.cpp:122] Setting up layer_256_6_bn1
I0528 22:21:58.642530 16530 net.cpp:129] Top shape: 20 256 14 14 (1003520)
I0528 22:21:58.642545 16530 net.cpp:137] Memory required for data: 1449083120
I0528 22:21:58.642565 16530 layer_factory.hpp:77] Creating layer layer_256_6_scale1
I0528 22:21:58.642571 16530 net.cpp:84] Creating Layer layer_256_6_scale1
I0528 22:21:58.642577 16530 net.cpp:406] layer_256_6_scale1 <- layer_256_6_bn1
I0528 22:21:58.642583 16530 net.cpp:367] layer_256_6_scale1 -> layer_256_6_bn1 (in-place)
I0528 22:21:58.642629 16530 layer_factory.hpp:77] Creating layer layer_256_6_scale1
I0528 22:21:58.642745 16530 net.cpp:122] Setting up layer_256_6_scale1
I0528 22:21:58.642779 16530 net.cpp:129] Top shape: 20 256 14 14 (1003520)
I0528 22:21:58.642783 16530 net.cpp:137] Memory required for data: 1453097200
I0528 22:21:58.642802 16530 layer_factory.hpp:77] Creating layer layer_256_6_relu1
I0528 22:21:58.642809 16530 net.cpp:84] Creating Layer layer_256_6_relu1
I0528 22:21:58.642813 16530 net.cpp:406] layer_256_6_relu1 <- layer_256_6_bn1
I0528 22:21:58.642819 16530 net.cpp:367] layer_256_6_relu1 -> layer_256_6_bn1 (in-place)
I0528 22:21:58.643564 16530 net.cpp:122] Setting up layer_256_6_relu1
I0528 22:21:58.643596 16530 net.cpp:129] Top shape: 20 256 14 14 (1003520)
I0528 22:21:58.643601 16530 net.cpp:137] Memory required for data: 1457111280
I0528 22:21:58.643606 16530 layer_factory.hpp:77] Creating layer layer_256_6_conv1
I0528 22:21:58.643618 16530 net.cpp:84] Creating Layer layer_256_6_conv1
I0528 22:21:58.643623 16530 net.cpp:406] layer_256_6_conv1 <- layer_256_6_bn1
I0528 22:21:58.643631 16530 net.cpp:380] layer_256_6_conv1 -> layer_256_6_conv1
I0528 22:21:58.661399 16530 net.cpp:122] Setting up layer_256_6_conv1
I0528 22:21:58.661432 16530 net.cpp:129] Top shape: 20 256 14 14 (1003520)
I0528 22:21:58.661438 16530 net.cpp:137] Memory required for data: 1461125360
I0528 22:21:58.661444 16530 layer_factory.hpp:77] Creating layer layer_256_6_bn2
I0528 22:21:58.661451 16530 net.cpp:84] Creating Layer layer_256_6_bn2
I0528 22:21:58.661466 16530 net.cpp:406] layer_256_6_bn2 <- layer_256_6_conv1
I0528 22:21:58.661480 16530 net.cpp:367] layer_256_6_bn2 -> layer_256_6_conv1 (in-place)
I0528 22:21:58.661701 16530 net.cpp:122] Setting up layer_256_6_bn2
I0528 22:21:58.661713 16530 net.cpp:129] Top shape: 20 256 14 14 (1003520)
I0528 22:21:58.661728 16530 net.cpp:137] Memory required for data: 1465139440
I0528 22:21:58.661736 16530 layer_factory.hpp:77] Creating layer layer_256_6_scale2
I0528 22:21:58.661744 16530 net.cpp:84] Creating Layer layer_256_6_scale2
I0528 22:21:58.661749 16530 net.cpp:406] layer_256_6_scale2 <- layer_256_6_conv1
I0528 22:21:58.661756 16530 net.cpp:367] layer_256_6_scale2 -> layer_256_6_conv1 (in-place)
I0528 22:21:58.661823 16530 layer_factory.hpp:77] Creating layer layer_256_6_scale2
I0528 22:21:58.661970 16530 net.cpp:122] Setting up layer_256_6_scale2
I0528 22:21:58.661981 16530 net.cpp:129] Top shape: 20 256 14 14 (1003520)
I0528 22:21:58.661996 16530 net.cpp:137] Memory required for data: 1469153520
I0528 22:21:58.662003 16530 layer_factory.hpp:77] Creating layer layer_256_6_relu2
I0528 22:21:58.662014 16530 net.cpp:84] Creating Layer layer_256_6_relu2
I0528 22:21:58.662030 16530 net.cpp:406] layer_256_6_relu2 <- layer_256_6_conv1
I0528 22:21:58.662048 16530 net.cpp:367] layer_256_6_relu2 -> layer_256_6_conv1 (in-place)
I0528 22:21:58.662292 16530 net.cpp:122] Setting up layer_256_6_relu2
I0528 22:21:58.662317 16530 net.cpp:129] Top shape: 20 256 14 14 (1003520)
I0528 22:21:58.662331 16530 net.cpp:137] Memory required for data: 1473167600
I0528 22:21:58.662336 16530 layer_factory.hpp:77] Creating layer layer_256_6_conv2
I0528 22:21:58.662359 16530 net.cpp:84] Creating Layer layer_256_6_conv2
I0528 22:21:58.662365 16530 net.cpp:406] layer_256_6_conv2 <- layer_256_6_conv1
I0528 22:21:58.662374 16530 net.cpp:380] layer_256_6_conv2 -> layer_256_6_conv2
I0528 22:21:58.680572 16530 net.cpp:122] Setting up layer_256_6_conv2
I0528 22:21:58.680604 16530 net.cpp:129] Top shape: 20 256 14 14 (1003520)
I0528 22:21:58.680609 16530 net.cpp:137] Memory required for data: 1477181680
I0528 22:21:58.680615 16530 layer_factory.hpp:77] Creating layer layer_256_6_sum
I0528 22:21:58.680622 16530 net.cpp:84] Creating Layer layer_256_6_sum
I0528 22:21:58.680640 16530 net.cpp:406] layer_256_6_sum <- layer_256_6_conv2
I0528 22:21:58.680646 16530 net.cpp:406] layer_256_6_sum <- layer_256_5_sum_layer_256_5_sum_0_split_1
I0528 22:21:58.680665 16530 net.cpp:380] layer_256_6_sum -> layer_256_6_sum
I0528 22:21:58.680696 16530 net.cpp:122] Setting up layer_256_6_sum
I0528 22:21:58.680704 16530 net.cpp:129] Top shape: 20 256 14 14 (1003520)
I0528 22:21:58.680711 16530 net.cpp:137] Memory required for data: 1481195760
I0528 22:21:58.680714 16530 layer_factory.hpp:77] Creating layer layer_512_1_bn1
I0528 22:21:58.680721 16530 net.cpp:84] Creating Layer layer_512_1_bn1
I0528 22:21:58.680726 16530 net.cpp:406] layer_512_1_bn1 <- layer_256_6_sum
I0528 22:21:58.680732 16530 net.cpp:380] layer_512_1_bn1 -> layer_512_1_bn1
I0528 22:21:58.680965 16530 net.cpp:122] Setting up layer_512_1_bn1
I0528 22:21:58.680987 16530 net.cpp:129] Top shape: 20 256 14 14 (1003520)
I0528 22:21:58.680992 16530 net.cpp:137] Memory required for data: 1485209840
I0528 22:21:58.681011 16530 layer_factory.hpp:77] Creating layer layer_512_1_scale1
I0528 22:21:58.681020 16530 net.cpp:84] Creating Layer layer_512_1_scale1
I0528 22:21:58.681023 16530 net.cpp:406] layer_512_1_scale1 <- layer_512_1_bn1
I0528 22:21:58.681032 16530 net.cpp:367] layer_512_1_scale1 -> layer_512_1_bn1 (in-place)
I0528 22:21:58.681088 16530 layer_factory.hpp:77] Creating layer layer_512_1_scale1
I0528 22:21:58.681228 16530 net.cpp:122] Setting up layer_512_1_scale1
I0528 22:21:58.681257 16530 net.cpp:129] Top shape: 20 256 14 14 (1003520)
I0528 22:21:58.681262 16530 net.cpp:137] Memory required for data: 1489223920
I0528 22:21:58.681278 16530 layer_factory.hpp:77] Creating layer layer_512_1_relu1
I0528 22:21:58.681296 16530 net.cpp:84] Creating Layer layer_512_1_relu1
I0528 22:21:58.681301 16530 net.cpp:406] layer_512_1_relu1 <- layer_512_1_bn1
I0528 22:21:58.681318 16530 net.cpp:367] layer_512_1_relu1 -> layer_512_1_bn1 (in-place)
I0528 22:21:58.682025 16530 net.cpp:122] Setting up layer_512_1_relu1
I0528 22:21:58.682052 16530 net.cpp:129] Top shape: 20 256 14 14 (1003520)
I0528 22:21:58.682057 16530 net.cpp:137] Memory required for data: 1493238000
I0528 22:21:58.682061 16530 layer_factory.hpp:77] Creating layer layer_512_1_bn1_layer_512_1_relu1_0_split
I0528 22:21:58.682070 16530 net.cpp:84] Creating Layer layer_512_1_bn1_layer_512_1_relu1_0_split
I0528 22:21:58.682085 16530 net.cpp:406] layer_512_1_bn1_layer_512_1_relu1_0_split <- layer_512_1_bn1
I0528 22:21:58.682092 16530 net.cpp:380] layer_512_1_bn1_layer_512_1_relu1_0_split -> layer_512_1_bn1_layer_512_1_relu1_0_split_0
I0528 22:21:58.682111 16530 net.cpp:380] layer_512_1_bn1_layer_512_1_relu1_0_split -> layer_512_1_bn1_layer_512_1_relu1_0_split_1
I0528 22:21:58.682183 16530 net.cpp:122] Setting up layer_512_1_bn1_layer_512_1_relu1_0_split
I0528 22:21:58.682196 16530 net.cpp:129] Top shape: 20 256 14 14 (1003520)
I0528 22:21:58.682201 16530 net.cpp:129] Top shape: 20 256 14 14 (1003520)
I0528 22:21:58.682205 16530 net.cpp:137] Memory required for data: 1501266160
I0528 22:21:58.682209 16530 layer_factory.hpp:77] Creating layer layer_512_1_conv1
I0528 22:21:58.682220 16530 net.cpp:84] Creating Layer layer_512_1_conv1
I0528 22:21:58.682225 16530 net.cpp:406] layer_512_1_conv1 <- layer_512_1_bn1_layer_512_1_relu1_0_split_0
I0528 22:21:58.682250 16530 net.cpp:380] layer_512_1_conv1 -> layer_512_1_conv1
I0528 22:21:58.717557 16530 net.cpp:122] Setting up layer_512_1_conv1
I0528 22:21:58.717592 16530 net.cpp:129] Top shape: 20 512 7 7 (501760)
I0528 22:21:58.717597 16530 net.cpp:137] Memory required for data: 1503273200
I0528 22:21:58.717603 16530 layer_factory.hpp:77] Creating layer layer_512_1_bn2
I0528 22:21:58.717612 16530 net.cpp:84] Creating Layer layer_512_1_bn2
I0528 22:21:58.717629 16530 net.cpp:406] layer_512_1_bn2 <- layer_512_1_conv1
I0528 22:21:58.717638 16530 net.cpp:367] layer_512_1_bn2 -> layer_512_1_conv1 (in-place)
I0528 22:21:58.717890 16530 net.cpp:122] Setting up layer_512_1_bn2
I0528 22:21:58.717902 16530 net.cpp:129] Top shape: 20 512 7 7 (501760)
I0528 22:21:58.717917 16530 net.cpp:137] Memory required for data: 1505280240
I0528 22:21:58.717936 16530 layer_factory.hpp:77] Creating layer layer_512_1_scale2
I0528 22:21:58.717947 16530 net.cpp:84] Creating Layer layer_512_1_scale2
I0528 22:21:58.717952 16530 net.cpp:406] layer_512_1_scale2 <- layer_512_1_conv1
I0528 22:21:58.717969 16530 net.cpp:367] layer_512_1_scale2 -> layer_512_1_conv1 (in-place)
I0528 22:21:58.718021 16530 layer_factory.hpp:77] Creating layer layer_512_1_scale2
I0528 22:21:58.718216 16530 net.cpp:122] Setting up layer_512_1_scale2
I0528 22:21:58.718231 16530 net.cpp:129] Top shape: 20 512 7 7 (501760)
I0528 22:21:58.718247 16530 net.cpp:137] Memory required for data: 1507287280
I0528 22:21:58.718255 16530 layer_factory.hpp:77] Creating layer layer_512_1_relu2
I0528 22:21:58.718262 16530 net.cpp:84] Creating Layer layer_512_1_relu2
I0528 22:21:58.718272 16530 net.cpp:406] layer_512_1_relu2 <- layer_512_1_conv1
I0528 22:21:58.718291 16530 net.cpp:367] layer_512_1_relu2 -> layer_512_1_conv1 (in-place)
I0528 22:21:58.719024 16530 net.cpp:122] Setting up layer_512_1_relu2
I0528 22:21:58.719056 16530 net.cpp:129] Top shape: 20 512 7 7 (501760)
I0528 22:21:58.719061 16530 net.cpp:137] Memory required for data: 1509294320
I0528 22:21:58.719065 16530 layer_factory.hpp:77] Creating layer layer_512_1_conv2
I0528 22:21:58.719080 16530 net.cpp:84] Creating Layer layer_512_1_conv2
I0528 22:21:58.719087 16530 net.cpp:406] layer_512_1_conv2 <- layer_512_1_conv1
I0528 22:21:58.719105 16530 net.cpp:380] layer_512_1_conv2 -> layer_512_1_conv2
I0528 22:21:58.784677 16530 net.cpp:122] Setting up layer_512_1_conv2
I0528 22:21:58.784713 16530 net.cpp:129] Top shape: 20 512 7 7 (501760)
I0528 22:21:58.784718 16530 net.cpp:137] Memory required for data: 1511301360
I0528 22:21:58.784723 16530 layer_factory.hpp:77] Creating layer layer_512_1_conv_expand
I0528 22:21:58.784737 16530 net.cpp:84] Creating Layer layer_512_1_conv_expand
I0528 22:21:58.784757 16530 net.cpp:406] layer_512_1_conv_expand <- layer_512_1_bn1_layer_512_1_relu1_0_split_1
I0528 22:21:58.784765 16530 net.cpp:380] layer_512_1_conv_expand -> layer_512_1_conv_expand
I0528 22:21:58.789997 16530 net.cpp:122] Setting up layer_512_1_conv_expand
I0528 22:21:58.790029 16530 net.cpp:129] Top shape: 20 512 7 7 (501760)
I0528 22:21:58.790035 16530 net.cpp:137] Memory required for data: 1513308400
I0528 22:21:58.790040 16530 layer_factory.hpp:77] Creating layer layer_512_1_sum
I0528 22:21:58.790047 16530 net.cpp:84] Creating Layer layer_512_1_sum
I0528 22:21:58.790052 16530 net.cpp:406] layer_512_1_sum <- layer_512_1_conv_expand
I0528 22:21:58.790076 16530 net.cpp:406] layer_512_1_sum <- layer_512_1_conv2
I0528 22:21:58.790084 16530 net.cpp:380] layer_512_1_sum -> layer_512_1_sum
I0528 22:21:58.790145 16530 net.cpp:122] Setting up layer_512_1_sum
I0528 22:21:58.790159 16530 net.cpp:129] Top shape: 20 512 7 7 (501760)
I0528 22:21:58.790163 16530 net.cpp:137] Memory required for data: 1515315440
I0528 22:21:58.790168 16530 layer_factory.hpp:77] Creating layer layer_512_1_sum_layer_512_1_sum_0_split
I0528 22:21:58.790174 16530 net.cpp:84] Creating Layer layer_512_1_sum_layer_512_1_sum_0_split
I0528 22:21:58.790179 16530 net.cpp:406] layer_512_1_sum_layer_512_1_sum_0_split <- layer_512_1_sum
I0528 22:21:58.790196 16530 net.cpp:380] layer_512_1_sum_layer_512_1_sum_0_split -> layer_512_1_sum_layer_512_1_sum_0_split_0
I0528 22:21:58.790205 16530 net.cpp:380] layer_512_1_sum_layer_512_1_sum_0_split -> layer_512_1_sum_layer_512_1_sum_0_split_1
I0528 22:21:58.790248 16530 net.cpp:122] Setting up layer_512_1_sum_layer_512_1_sum_0_split
I0528 22:21:58.790256 16530 net.cpp:129] Top shape: 20 512 7 7 (501760)
I0528 22:21:58.790261 16530 net.cpp:129] Top shape: 20 512 7 7 (501760)
I0528 22:21:58.790264 16530 net.cpp:137] Memory required for data: 1519329520
I0528 22:21:58.790268 16530 layer_factory.hpp:77] Creating layer layer_512_2_bn1
I0528 22:21:58.790277 16530 net.cpp:84] Creating Layer layer_512_2_bn1
I0528 22:21:58.790282 16530 net.cpp:406] layer_512_2_bn1 <- layer_512_1_sum_layer_512_1_sum_0_split_0
I0528 22:21:58.790288 16530 net.cpp:380] layer_512_2_bn1 -> layer_512_2_bn1
I0528 22:21:58.790562 16530 net.cpp:122] Setting up layer_512_2_bn1
I0528 22:21:58.790576 16530 net.cpp:129] Top shape: 20 512 7 7 (501760)
I0528 22:21:58.790592 16530 net.cpp:137] Memory required for data: 1521336560
I0528 22:21:58.790613 16530 layer_factory.hpp:77] Creating layer layer_512_2_scale1
I0528 22:21:58.790632 16530 net.cpp:84] Creating Layer layer_512_2_scale1
I0528 22:21:58.790637 16530 net.cpp:406] layer_512_2_scale1 <- layer_512_2_bn1
I0528 22:21:58.790643 16530 net.cpp:367] layer_512_2_scale1 -> layer_512_2_bn1 (in-place)
I0528 22:21:58.790709 16530 layer_factory.hpp:77] Creating layer layer_512_2_scale1
I0528 22:21:58.790863 16530 net.cpp:122] Setting up layer_512_2_scale1
I0528 22:21:58.790875 16530 net.cpp:129] Top shape: 20 512 7 7 (501760)
I0528 22:21:58.790890 16530 net.cpp:137] Memory required for data: 1523343600
I0528 22:21:58.790897 16530 layer_factory.hpp:77] Creating layer layer_512_2_relu1
I0528 22:21:58.790905 16530 net.cpp:84] Creating Layer layer_512_2_relu1
I0528 22:21:58.790910 16530 net.cpp:406] layer_512_2_relu1 <- layer_512_2_bn1
I0528 22:21:58.790927 16530 net.cpp:367] layer_512_2_relu1 -> layer_512_2_bn1 (in-place)
I0528 22:21:58.791625 16530 net.cpp:122] Setting up layer_512_2_relu1
I0528 22:21:58.791656 16530 net.cpp:129] Top shape: 20 512 7 7 (501760)
I0528 22:21:58.791661 16530 net.cpp:137] Memory required for data: 1525350640
I0528 22:21:58.791666 16530 layer_factory.hpp:77] Creating layer layer_512_2_conv1
I0528 22:21:58.791678 16530 net.cpp:84] Creating Layer layer_512_2_conv1
I0528 22:21:58.791702 16530 net.cpp:406] layer_512_2_conv1 <- layer_512_2_bn1
I0528 22:21:58.791712 16530 net.cpp:380] layer_512_2_conv1 -> layer_512_2_conv1
I0528 22:21:58.861416 16530 net.cpp:122] Setting up layer_512_2_conv1
I0528 22:21:58.861454 16530 net.cpp:129] Top shape: 20 512 7 7 (501760)
I0528 22:21:58.861460 16530 net.cpp:137] Memory required for data: 1527357680
I0528 22:21:58.861466 16530 layer_factory.hpp:77] Creating layer layer_512_2_bn2
I0528 22:21:58.861475 16530 net.cpp:84] Creating Layer layer_512_2_bn2
I0528 22:21:58.861480 16530 net.cpp:406] layer_512_2_bn2 <- layer_512_2_conv1
I0528 22:21:58.861502 16530 net.cpp:367] layer_512_2_bn2 -> layer_512_2_conv1 (in-place)
I0528 22:21:58.861734 16530 net.cpp:122] Setting up layer_512_2_bn2
I0528 22:21:58.861747 16530 net.cpp:129] Top shape: 20 512 7 7 (501760)
I0528 22:21:58.861760 16530 net.cpp:137] Memory required for data: 1529364720
I0528 22:21:58.861769 16530 layer_factory.hpp:77] Creating layer layer_512_2_scale2
I0528 22:21:58.861776 16530 net.cpp:84] Creating Layer layer_512_2_scale2
I0528 22:21:58.861781 16530 net.cpp:406] layer_512_2_scale2 <- layer_512_2_conv1
I0528 22:21:58.861794 16530 net.cpp:367] layer_512_2_scale2 -> layer_512_2_conv1 (in-place)
I0528 22:21:58.861884 16530 layer_factory.hpp:77] Creating layer layer_512_2_scale2
I0528 22:21:58.862052 16530 net.cpp:122] Setting up layer_512_2_scale2
I0528 22:21:58.862076 16530 net.cpp:129] Top shape: 20 512 7 7 (501760)
I0528 22:21:58.862079 16530 net.cpp:137] Memory required for data: 1531371760
I0528 22:21:58.862097 16530 layer_factory.hpp:77] Creating layer layer_512_2_relu2
I0528 22:21:58.862108 16530 net.cpp:84] Creating Layer layer_512_2_relu2
I0528 22:21:58.862143 16530 net.cpp:406] layer_512_2_relu2 <- layer_512_2_conv1
I0528 22:21:58.862174 16530 net.cpp:367] layer_512_2_relu2 -> layer_512_2_conv1 (in-place)
I0528 22:21:58.862407 16530 net.cpp:122] Setting up layer_512_2_relu2
I0528 22:21:58.862421 16530 net.cpp:129] Top shape: 20 512 7 7 (501760)
I0528 22:21:58.862437 16530 net.cpp:137] Memory required for data: 1533378800
I0528 22:21:58.862442 16530 layer_factory.hpp:77] Creating layer layer_512_2_conv2
I0528 22:21:58.862453 16530 net.cpp:84] Creating Layer layer_512_2_conv2
I0528 22:21:58.862459 16530 net.cpp:406] layer_512_2_conv2 <- layer_512_2_conv1
I0528 22:21:58.862468 16530 net.cpp:380] layer_512_2_conv2 -> layer_512_2_conv2
I0528 22:21:58.930515 16530 net.cpp:122] Setting up layer_512_2_conv2
I0528 22:21:58.930557 16530 net.cpp:129] Top shape: 20 512 7 7 (501760)
I0528 22:21:58.930562 16530 net.cpp:137] Memory required for data: 1535385840
I0528 22:21:58.930577 16530 layer_factory.hpp:77] Creating layer layer_512_2_sum
I0528 22:21:58.930603 16530 net.cpp:84] Creating Layer layer_512_2_sum
I0528 22:21:58.930627 16530 net.cpp:406] layer_512_2_sum <- layer_512_2_conv2
I0528 22:21:58.930634 16530 net.cpp:406] layer_512_2_sum <- layer_512_1_sum_layer_512_1_sum_0_split_1
I0528 22:21:58.930644 16530 net.cpp:380] layer_512_2_sum -> layer_512_2_sum
I0528 22:21:58.930678 16530 net.cpp:122] Setting up layer_512_2_sum
I0528 22:21:58.930687 16530 net.cpp:129] Top shape: 20 512 7 7 (501760)
I0528 22:21:58.930691 16530 net.cpp:137] Memory required for data: 1537392880
I0528 22:21:58.930696 16530 layer_factory.hpp:77] Creating layer layer_512_2_sum_layer_512_2_sum_0_split
I0528 22:21:58.930706 16530 net.cpp:84] Creating Layer layer_512_2_sum_layer_512_2_sum_0_split
I0528 22:21:58.930711 16530 net.cpp:406] layer_512_2_sum_layer_512_2_sum_0_split <- layer_512_2_sum
I0528 22:21:58.930716 16530 net.cpp:380] layer_512_2_sum_layer_512_2_sum_0_split -> layer_512_2_sum_layer_512_2_sum_0_split_0
I0528 22:21:58.930723 16530 net.cpp:380] layer_512_2_sum_layer_512_2_sum_0_split -> layer_512_2_sum_layer_512_2_sum_0_split_1
I0528 22:21:58.930764 16530 net.cpp:122] Setting up layer_512_2_sum_layer_512_2_sum_0_split
I0528 22:21:58.930771 16530 net.cpp:129] Top shape: 20 512 7 7 (501760)
I0528 22:21:58.930776 16530 net.cpp:129] Top shape: 20 512 7 7 (501760)
I0528 22:21:58.930779 16530 net.cpp:137] Memory required for data: 1541406960
I0528 22:21:58.930784 16530 layer_factory.hpp:77] Creating layer layer_512_3_bn1
I0528 22:21:58.930794 16530 net.cpp:84] Creating Layer layer_512_3_bn1
I0528 22:21:58.930799 16530 net.cpp:406] layer_512_3_bn1 <- layer_512_2_sum_layer_512_2_sum_0_split_0
I0528 22:21:58.930804 16530 net.cpp:380] layer_512_3_bn1 -> layer_512_3_bn1
I0528 22:21:58.931161 16530 net.cpp:122] Setting up layer_512_3_bn1
I0528 22:21:58.931176 16530 net.cpp:129] Top shape: 20 512 7 7 (501760)
I0528 22:21:58.931192 16530 net.cpp:137] Memory required for data: 1543414000
I0528 22:21:58.931200 16530 layer_factory.hpp:77] Creating layer layer_512_3_scale1
I0528 22:21:58.931211 16530 net.cpp:84] Creating Layer layer_512_3_scale1
I0528 22:21:58.931244 16530 net.cpp:406] layer_512_3_scale1 <- layer_512_3_bn1
I0528 22:21:58.931252 16530 net.cpp:367] layer_512_3_scale1 -> layer_512_3_bn1 (in-place)
I0528 22:21:58.931319 16530 layer_factory.hpp:77] Creating layer layer_512_3_scale1
I0528 22:21:58.931485 16530 net.cpp:122] Setting up layer_512_3_scale1
I0528 22:21:58.931496 16530 net.cpp:129] Top shape: 20 512 7 7 (501760)
I0528 22:21:58.931512 16530 net.cpp:137] Memory required for data: 1545421040
I0528 22:21:58.931519 16530 layer_factory.hpp:77] Creating layer layer_512_3_relu1
I0528 22:21:58.931537 16530 net.cpp:84] Creating Layer layer_512_3_relu1
I0528 22:21:58.931545 16530 net.cpp:406] layer_512_3_relu1 <- layer_512_3_bn1
I0528 22:21:58.931563 16530 net.cpp:367] layer_512_3_relu1 -> layer_512_3_bn1 (in-place)
I0528 22:21:58.932430 16530 net.cpp:122] Setting up layer_512_3_relu1
I0528 22:21:58.932466 16530 net.cpp:129] Top shape: 20 512 7 7 (501760)
I0528 22:21:58.932477 16530 net.cpp:137] Memory required for data: 1547428080
I0528 22:21:58.932482 16530 layer_factory.hpp:77] Creating layer layer_512_3_conv1
I0528 22:21:58.932497 16530 net.cpp:84] Creating Layer layer_512_3_conv1
I0528 22:21:58.932502 16530 net.cpp:406] layer_512_3_conv1 <- layer_512_3_bn1
I0528 22:21:58.932510 16530 net.cpp:380] layer_512_3_conv1 -> layer_512_3_conv1
I0528 22:21:58.998188 16530 net.cpp:122] Setting up layer_512_3_conv1
I0528 22:21:58.998222 16530 net.cpp:129] Top shape: 20 512 7 7 (501760)
I0528 22:21:58.998227 16530 net.cpp:137] Memory required for data: 1549435120
I0528 22:21:58.998234 16530 layer_factory.hpp:77] Creating layer layer_512_3_bn2
I0528 22:21:58.998245 16530 net.cpp:84] Creating Layer layer_512_3_bn2
I0528 22:21:58.998268 16530 net.cpp:406] layer_512_3_bn2 <- layer_512_3_conv1
I0528 22:21:58.998277 16530 net.cpp:367] layer_512_3_bn2 -> layer_512_3_conv1 (in-place)
I0528 22:21:58.998540 16530 net.cpp:122] Setting up layer_512_3_bn2
I0528 22:21:58.998553 16530 net.cpp:129] Top shape: 20 512 7 7 (501760)
I0528 22:21:58.998567 16530 net.cpp:137] Memory required for data: 1551442160
I0528 22:21:58.998576 16530 layer_factory.hpp:77] Creating layer layer_512_3_scale2
I0528 22:21:58.998585 16530 net.cpp:84] Creating Layer layer_512_3_scale2
I0528 22:21:58.998612 16530 net.cpp:406] layer_512_3_scale2 <- layer_512_3_conv1
I0528 22:21:58.998643 16530 net.cpp:367] layer_512_3_scale2 -> layer_512_3_conv1 (in-place)
I0528 22:21:58.998709 16530 layer_factory.hpp:77] Creating layer layer_512_3_scale2
I0528 22:21:58.998874 16530 net.cpp:122] Setting up layer_512_3_scale2
I0528 22:21:58.998886 16530 net.cpp:129] Top shape: 20 512 7 7 (501760)
I0528 22:21:58.998901 16530 net.cpp:137] Memory required for data: 1553449200
I0528 22:21:58.998919 16530 layer_factory.hpp:77] Creating layer layer_512_3_relu2
I0528 22:21:58.998927 16530 net.cpp:84] Creating Layer layer_512_3_relu2
I0528 22:21:58.998932 16530 net.cpp:406] layer_512_3_relu2 <- layer_512_3_conv1
I0528 22:21:58.998937 16530 net.cpp:367] layer_512_3_relu2 -> layer_512_3_conv1 (in-place)
I0528 22:21:58.999640 16530 net.cpp:122] Setting up layer_512_3_relu2
I0528 22:21:58.999675 16530 net.cpp:129] Top shape: 20 512 7 7 (501760)
I0528 22:21:58.999680 16530 net.cpp:137] Memory required for data: 1555456240
I0528 22:21:58.999685 16530 layer_factory.hpp:77] Creating layer layer_512_3_conv2
I0528 22:21:58.999698 16530 net.cpp:84] Creating Layer layer_512_3_conv2
I0528 22:21:58.999716 16530 net.cpp:406] layer_512_3_conv2 <- layer_512_3_conv1
I0528 22:21:58.999724 16530 net.cpp:380] layer_512_3_conv2 -> layer_512_3_conv2
I0528 22:21:59.065426 16530 net.cpp:122] Setting up layer_512_3_conv2
I0528 22:21:59.065461 16530 net.cpp:129] Top shape: 20 512 7 7 (501760)
I0528 22:21:59.065467 16530 net.cpp:137] Memory required for data: 1557463280
I0528 22:21:59.065474 16530 layer_factory.hpp:77] Creating layer layer_512_3_sum
I0528 22:21:59.065482 16530 net.cpp:84] Creating Layer layer_512_3_sum
I0528 22:21:59.065505 16530 net.cpp:406] layer_512_3_sum <- layer_512_3_conv2
I0528 22:21:59.065511 16530 net.cpp:406] layer_512_3_sum <- layer_512_2_sum_layer_512_2_sum_0_split_1
I0528 22:21:59.065528 16530 net.cpp:380] layer_512_3_sum -> layer_512_3_sum
I0528 22:21:59.065563 16530 net.cpp:122] Setting up layer_512_3_sum
I0528 22:21:59.065572 16530 net.cpp:129] Top shape: 20 512 7 7 (501760)
I0528 22:21:59.065575 16530 net.cpp:137] Memory required for data: 1559470320
I0528 22:21:59.065580 16530 layer_factory.hpp:77] Creating layer last_bn
I0528 22:21:59.065592 16530 net.cpp:84] Creating Layer last_bn
I0528 22:21:59.065596 16530 net.cpp:406] last_bn <- layer_512_3_sum
I0528 22:21:59.065601 16530 net.cpp:367] last_bn -> layer_512_3_sum (in-place)
I0528 22:21:59.065870 16530 net.cpp:122] Setting up last_bn
I0528 22:21:59.065881 16530 net.cpp:129] Top shape: 20 512 7 7 (501760)
I0528 22:21:59.065896 16530 net.cpp:137] Memory required for data: 1561477360
I0528 22:21:59.065904 16530 layer_factory.hpp:77] Creating layer last_scale
I0528 22:21:59.065920 16530 net.cpp:84] Creating Layer last_scale
I0528 22:21:59.065946 16530 net.cpp:406] last_scale <- layer_512_3_sum
I0528 22:21:59.065966 16530 net.cpp:367] last_scale -> layer_512_3_sum (in-place)
I0528 22:21:59.066020 16530 layer_factory.hpp:77] Creating layer last_scale
I0528 22:21:59.066226 16530 net.cpp:122] Setting up last_scale
I0528 22:21:59.066256 16530 net.cpp:129] Top shape: 20 512 7 7 (501760)
I0528 22:21:59.066262 16530 net.cpp:137] Memory required for data: 1563484400
I0528 22:21:59.066268 16530 layer_factory.hpp:77] Creating layer last_relu
I0528 22:21:59.066285 16530 net.cpp:84] Creating Layer last_relu
I0528 22:21:59.066313 16530 net.cpp:406] last_relu <- layer_512_3_sum
I0528 22:21:59.066330 16530 net.cpp:367] last_relu -> layer_512_3_sum (in-place)
I0528 22:21:59.066604 16530 net.cpp:122] Setting up last_relu
I0528 22:21:59.066632 16530 net.cpp:129] Top shape: 20 512 7 7 (501760)
I0528 22:21:59.066635 16530 net.cpp:137] Memory required for data: 1565491440
I0528 22:21:59.066640 16530 layer_factory.hpp:77] Creating layer global_pool
I0528 22:21:59.066658 16530 net.cpp:84] Creating Layer global_pool
I0528 22:21:59.066663 16530 net.cpp:406] global_pool <- layer_512_3_sum
I0528 22:21:59.066684 16530 net.cpp:380] global_pool -> global_pool
I0528 22:21:59.067459 16530 net.cpp:122] Setting up global_pool
I0528 22:21:59.067489 16530 net.cpp:129] Top shape: 20 512 1 1 (10240)
I0528 22:21:59.067494 16530 net.cpp:137] Memory required for data: 1565532400
I0528 22:21:59.067498 16530 layer_factory.hpp:77] Creating layer score
I0528 22:21:59.067508 16530 net.cpp:84] Creating Layer score
I0528 22:21:59.067513 16530 net.cpp:406] score <- global_pool
I0528 22:21:59.067558 16530 net.cpp:380] score -> score
I0528 22:21:59.067790 16530 net.cpp:122] Setting up score
I0528 22:21:59.067802 16530 net.cpp:129] Top shape: 20 8 (160)
I0528 22:21:59.067817 16530 net.cpp:137] Memory required for data: 1565533040
I0528 22:21:59.067824 16530 layer_factory.hpp:77] Creating layer score_score_0_split
I0528 22:21:59.067847 16530 net.cpp:84] Creating Layer score_score_0_split
I0528 22:21:59.067873 16530 net.cpp:406] score_score_0_split <- score
I0528 22:21:59.067880 16530 net.cpp:380] score_score_0_split -> score_score_0_split_0
I0528 22:21:59.067900 16530 net.cpp:380] score_score_0_split -> score_score_0_split_1
I0528 22:21:59.067955 16530 net.cpp:122] Setting up score_score_0_split
I0528 22:21:59.067973 16530 net.cpp:129] Top shape: 20 8 (160)
I0528 22:21:59.067978 16530 net.cpp:129] Top shape: 20 8 (160)
I0528 22:21:59.067981 16530 net.cpp:137] Memory required for data: 1565534320
I0528 22:21:59.067986 16530 layer_factory.hpp:77] Creating layer loss
I0528 22:21:59.067993 16530 net.cpp:84] Creating Layer loss
I0528 22:21:59.067998 16530 net.cpp:406] loss <- score_score_0_split_0
I0528 22:21:59.068003 16530 net.cpp:406] loss <- label_data_1_split_0
I0528 22:21:59.068008 16530 net.cpp:380] loss -> loss
…
